…
        min_scale: 0.3
        max_scale: 1
        min_aspect_ratio: 0.5
        max_aspect_ratio: 2
      }
      sample_constraint {
        min_jaccard_overlap: 0.9
      }
      max_sample: 1
      max_trials: 50
    }
    batch_sampler {
      sampler {
        min_scale: 0.3
        max_scale: 1
        min_aspect_ratio: 0.5
        max_aspect_ratio: 2
      }
      sample_constraint {
        max_jaccard_overlap: 1
      }
      max_sample: 1
      max_trials: 50
    }
    label_map_file: "data/grayscale_tbs_300x300_HSIL_10x/labelmap_voc.prototxt"
  }
}
layer {
  name: "conv1_1"
  type: "Convolution"
  bottom: "data"
  top: "conv1_1"
  param {
    lr_mult: 1
    decay_mult: 1
  }
  param {
    lr_mult: 2
    decay_mult: 0
  }
  convolution_param {
    num_output: 64
    pad: 1
    kernel_size: 3
    weight_filler {
      type: "xavier"
    }
    bias_filler {
      type: "constant"
      value: 0
    }
  }
}
layer {
  name: "relu1_1"
  type: "ReLU"
  bottom: "conv1_1"
  top: "conv1_1"
}
layer {
  name: "conv1_2"
  type: "Convolution"
  bottom: "conv1_1"
  top: "conv1_2"
  param {
    lr_mult: 1
    decay_mult: 1
  }
  param {
    lr_mult: 2
    decay_mult: 0
  }
  convolution_param {
    num_output: 64
    pad: 1
    kernel_size: 3
    weight_filler {
      type: "xavier"
    }
    bias_filler {
      type: "constant"
      value: 0
    }
  }
}
layer {
  name: "relu1_2"
  type: "ReLU"
  bottom: "conv1_2"
  top: "conv1_2"
}
layer {
  name: "pool1"
  type: "Pooling"
  bottom: "conv1_2"
  top: "pool1"
  pooling_param {
    pool: MAX
    kernel_size: 2
    stride: 2
  }
}
layer {
  name: "conv2_1"
  type: "Convolution"
  bottom: "pool1"
  top: "conv2_1"
  param {
    lr_mult: 1
    decay_mult: 1
  }
  param {
    lr_mult: 2
    decay_mult: 0
  }
  convolution_param {
    num_output: 128
    pad: 1
    kernel_size: 3
    weight_filler {
      type: "xavier"
    }
    bias_filler {
      type: "constant"
      value: 0
    }
  }
}
layer {
  name: "relu2_1"
  type: "ReLU"
  bottom: "conv2_1"
  top: "conv2_1"
}
layer {
  name: "conv2_2"
  type: "Convolution"
  bottom: "conv2_1"
  top: "conv2_2"
  param {
    lr_mult: 1
    decay_mult: 1
  }
  param {
    lr_mult: 2
    decay_mult: 0
  }
  convolution_param {
    num_output: 128
    pad: 1
    kernel_size: 3
    weight_filler {
      type: "xavier"
    }
    bias_filler {
      type: "constant"
      value: 0
    }
  }
}
layer {
  name: "relu2_2"
  type: "ReLU"
  bottom: "conv2_2"
  top: "conv2_2"
}
layer {
  name: "pool2"
  type: "Pooling"
  bottom: "conv2_2"
  top: "pool2"
  pooling_param {
    pool: MAX
    kernel_size: 2
    stride: 2
  }
}
layer {
  name: "conv3_1"
  type: "Convolution"
  bottom: "pool2"
  top: "conv3_1"
  param {
    lr_mult: 1
    decay_mult: 1
  }
  param {
    lr_mult: 2
    decay_mult: 0
  }
  convolution_param {
    num_output: 256
    pad: 1
    kernel_size: 3
    weight_filler {
      type: "xavier"
    }
    bias_filler {
      type: "constant"
      value: 0
    }
  }
}
layer {
  name: "relu3_1"
  type: "ReLU"
  bottom: "conv3_1"
  top: "conv3_1"
}
layer {
  name: "conv3_2"
  type: "Convolution"
  bottom: "conv3_1"
  top: "conv3_2"
  param {
    lr_mult: 1
    decay_mult: 1
  }
  param {
    lr_mult: 2
    decay_mult: 0
  }
  convolution_param {
    num_output: 256
    pad: 1
    kernel_size: 3
    weight_filler {
      type: "xavier"
    }
    bias_filler {
      type: "constant"
      value: 0
    }
  }
}
layer {
  name: "relu3_2"
  type: "ReLU"
  bottom: "conv3_2"
  top: "conv3_2"
}
layer {
  name: "conv3_3"
  type: "Convolution"
  bottom: "conv3_2"
  top: "conv3_3"
  param {
    lr_mult: 1
    decay_mult: 1
  }
  param {
    lr_mult: 2
    decay_mult: 0
  }
  convolution_param {
    num_output: 256
    pad: 1
    kernel_size: 3
    weight_filler {
      type: "xavier"
    }
    bias_filler {
      type: "constant"
      value: 0
    }
  }
}
layer {
  name: "relu3_3"
  type: "ReLU"
  bottom: "conv3_3"
  top: "conv3_3"
}
layer {
  name: "pool3"
  type: "Pooling"
  bottom: "conv3_3"
  top: "pool3"
  pooling_param {
    pool: MAX
    kernel_size: 2
    stride: 2
  }
}
layer {
  name: "conv4_1"
  type: "Convolution"
  bottom: "pool3"
  top: "conv4_1"
  param {
    lr_mult: 1
    decay_mult: 1
  }
  param {
    lr_mult: 2
    decay_mult: 0
  }
  convolution_param {
    num_output: 512
    pad: 1
    kernel_size: 3
    weight_filler {
      type: "xavier"
    }
    bias_filler {
      type: "constant"
      value: 0
    }
  }
}
layer {
  name: "relu4_1"
  type: "ReLU"
  bottom: "conv4_1"
  top: "conv4_1"
}
layer {
  name: "conv4_2"
  type: "Convolution"
  bottom: "conv4_1"
  top: "conv4_2"
  param {
    lr_mult: 1
    decay_mult: 1
  }
  param {
    lr_mult: 2
    decay_mult: 0
  }
  convolution_param {
    num_output: 512
    pad: 1
    kernel_size: 3
    weight_filler {
      type: "xavier"
    }
    bias_filler {
      type: "constant"
      value: 0
    }
  }
}
layer {
  name: "relu4_2"
  type: "ReLU"
  bottom: "conv4_2"
  top: "conv4_2"
}
layer {
  name: "conv4_3"
  type: "Convolution"
  bottom: "conv4_2"
  top: "conv4_3"
  param {
    lr_mult: 1
    decay_mult: 1
  }
  param {
    lr_mult: 2
    decay_mult: 0
  }
  convolution_param {
    num_output: 512
    pad: 1
    kernel_size: 3
    weight_filler {
      type: "xavier"
    }
    bias_filler {
      type: "constant"
      value: 0
    }
  }
}
layer {
  name: "relu4_3"
  type: "ReLU"
  bottom: "conv4_3"
  top: "conv4_3"
}
layer {
  name: "pool4"
  type: "Pooling"
  bottom: "conv4_3"
  top: "pool4"
  pooling_param {
    pool: MAX
    kernel_size: 2
    stride: 2
  }
}
layer {
  name: "conv5_1"
  type: "Convolution"
  bottom: "pool4"
  top: "conv5_1"
  param {
    lr_mult: 1
    decay_mult: 1
  }
  param {
    lr_mult: 2
    decay_mult: 0
  }
  convolution_param {
    num_output: 512
    pad: 1
    kernel_size: 3
    weight_filler {
      type: "xavier"
    }
    bias_filler {
      type: "constant"
      value: 0
    }
    dilation: 1
  }
}
layer {
  name: "relu5_1"
  type: "ReLU"
  bottom: "conv5_1"
  top: "conv5_1"
}
layer {
  name: "conv5_2"
  type: "Convolution"
  bottom: "conv5_1"
  top: "conv5_2"
  param {
    lr_mult: 1
    decay_mult: 1
  }
  param {
    lr_mult: 2
    decay_mult: 0
  }
  convolution_param {
    num_output: 512
    pad: 1
    kernel_size: 3
    weight_filler {
      type: "xavier"
    }
    bias_filler {
      type: "constant"
      value: 0
    }
    dilation: 1
  }
}
layer {
  name: "relu5_2"
  type: "ReLU"
  bottom: "conv5_2"
  top: "conv5_2"
}
layer {
  name: "conv5_3"
  type: "Convolution"
  bottom: "conv5_2"
  top: "conv5_3"
  param {
    lr_mult: 1
    decay_mult: 1
  }
  param {
    lr_mult: 2
    decay_mult: 0
  }
  convolution_param {
    num_output: 512
    pad: 1
    kernel_size: 3
    weight_filler {
      type: "xavier"
    }
    bias_filler {
      type: "constant"
      value: 0
    }
    dilation: 1
  }
}
layer {
  name: "relu5_3"
  type: "ReLU"
  bottom: "conv5_3"
  top: "conv5_3"
}
layer {
  name: "pool5"
  type: "Pooling"
  bottom: "conv5_3"
  top: "pool5"
  pooling_param {
    pool: MAX
    kernel_size: 3
    stride: 1
    pad: 1
  }
}
layer {
  name: "fc6"
  type: "Convolution"
  bottom: "pool5"
  top: "fc6"
  param {
    lr_mult: 1
    decay_mult: 1
  }
  param {
    lr_mult: 2
    decay_mult: 0
  }
  convolution_param {
    num_output: 1024
    pad: 6
    kernel_size: 3
    weight_filler {
      type: "xavier"
    }
    bias_filler {
      type: "constant"
      value: 0
    }
    dilation: 6
  }
}
layer {
  name: "relu6"
  type: "ReLU"
  bottom: "fc6"
  top: "fc6"
}
layer {
  name: "fc7"
  type: "Convolution"
  bottom: "fc6"
  top: "fc7"
  param {
    lr_mult: 1
    decay_mult: 1
  }
  param {
    lr_mult: 2
    decay_mult: 0
  }
  convolution_param {
    num_output: 1024
    kernel_size: 1
    weight_filler {
      type: "xavier"
    }
    bias_filler {
      type: "constant"
      value: 0
    }
  }
}
layer {
  name: "relu7"
  type: "ReLU"
  bottom: "fc7"
  top: "fc7"
}
layer {
  name: "conv6_1"
  type: "Convolution"
  bottom: "fc7"
  top: "conv6_1"
  param {
    lr_mult: 1
    decay_mult: 1
  }
  param {
    lr_mult: 2
    decay_mult: 0
  }
  convolution_param {
    num_output: 256
    pad: 0
    kernel_size: 1
    stride: 1
    weight_filler {
      type: "xavier"
    }
    bias_filler {
      type: "constant"
      value: 0
    }
  }
}
layer {
  name: "conv6_1_relu"
  type: "ReLU"
  bottom: "conv6_1"
  top: "conv6_1"
}
layer {
  name: "conv6_2"
  type: "Convolution"
  bottom: "conv6_1"
  top: "conv6_2"
  param {
    lr_mult: 1
    decay_mult: 1
  }
  param {
    lr_mult: 2
    decay_mult: 0
  }
  convolution_param {
    num_output: 512
    pad: 1
    kernel_size: 3
    stride: 2
    weight_filler {
      type: "xavier"
    }
    bias_filler {
      type: "constant"
      value: 0
    }
  }
}
layer {
  name: "conv6_2_relu"
  type: "ReLU"
  bottom: "conv6_2"
  top: "conv6_2"
}
layer {
  name: "conv7_1"
  type: "Convolution"
  bottom: "conv6_2"
  top: "conv7_1"
  param {
    lr_mult: 1
    decay_mult: 1
  }
  param {
    lr_mult: 2
    decay_mult: 0
  }
  convolution_param {
    num_output: 128
    pad: 0
    kernel_size: 1
    stride: 1
    weight_filler {
      type: "xavier"
    }
    bias_filler {
      type: "constant"
      value: 0
    }
  }
}
layer {
  name: "conv7_1_relu"
  type: "ReLU"
  bottom: "conv7_1"
  top: "conv7_1"
}
layer {
  name: "conv7_2"
  type: "Convolution"
  bottom: "conv7_1"
  top: "conv7_2"
  param {
    lr_mult: 1
    decay_mult: 1
  }
  param {
    lr_mult: 2
    decay_mult: 0
  }
  convolution_param {
    num_output: 256
    pad: 1
    kernel_size: 3
    stride: 2
    weight_filler {
      type: "xavier"
    }
    bias_filler {
      type: "constant"
      value: 0
    }
  }
}
layer {
  name: "conv7_2_relu"
  type: "ReLU"
  bottom: "conv7_2"
  top: "conv7_2"
}
layer {
  name: "conv8_1"
  type: "Convolution"
  bottom: "conv7_2"
  top: "conv8_1"
  param {
    lr_mult: 1
    decay_mult: 1
  }
  param {
    lr_mult: 2
    decay_mult: 0
  }
  convolution_param {
    num_output: 128
    pad: 0
    kernel_size: 1
    stride: 1
    weight_filler {
      type: "xavier"
    }
    bias_filler {
      type: "constant"
      value: 0
    }
  }
}
layer {
  name: "conv8_1_relu"
  type: "ReLU"
  bottom: "conv8_1"
  top: "conv8_1"
}
layer {
  name: "conv8_2"
  type: "Convolution"
  bottom: "conv8_1"
  top: "conv8_2"
  param {
    lr_mult: 1
    decay_mult: 1
  }
  param {
    lr_mult: 2
    decay_mult: 0
  }
  convolution_param {
    num_output: 256
    pad: 0
    kernel_size: 3
    stride: 1
    weight_filler {
      type: "xavier"
    }
    bias_filler {
      type: "constant"
      value: 0
    }
  }
}
layer {
  name: "conv8_2_relu"
  type: "ReLU"
  bottom: "conv8_2"
  top: "conv8_2"
}
layer {
  name: "conv9_1"
  type: "Convolution"
  bottom: "conv8_2"
  top: "conv9_1"
  param {
    lr_mult: 1
    decay_mult: 1
  }
  param {
    lr_mult: 2
    decay_mult: 0
  }
  convolution_param {
    num_output: 128
    pad: 0
    kernel_size: 1
    stride: 1
    weight_filler {
      type: "xavier"
    }
    bias_filler {
      type: "constant"
      value: 0
    }
  }
}
layer {
  name: "conv9_1_relu"
  type: "ReLU"
  bottom: "conv9_1"
  top: "conv9_1"
}
layer {
  name: "conv9_2"
  type: "Convolution"
  bottom: "conv9_1"
  top: "conv9_2"
  param {
    lr_mult: 1
    decay_mult: 1
  }
  param {
    lr_mult: 2
    decay_mult: 0
  }
  convolution_param {
    num_output: 256
    pad: 0
    kernel_size: 3
    stride: 1
    weight_filler {
      type: "xavier"
    }
    bias_filler {
      type: "constant"
      value: 0
    }
  }
}
layer {
  name: "conv9_2_relu"
  type: "ReLU"
  bottom: "conv9_2"
  top: "conv9_2"
}
layer {
  name: "conv4_3_norm"
  type: "Normalize"
  bottom: "conv4_3"
  top: "conv4_3_norm"
  norm_param {
    across_spatial: false
    scale_filler {
      type: "constant"
      value: 20
    }
    channel_shared: false
  }
}
layer {
  name: "conv4_3_norm_mbox_loc"
  type: "Convolution"
  bottom: "conv4_3_norm"
  top: "conv4_3_norm_mbox_loc"
  param {
    lr_mult: 1
    decay_mult: 1
  }
  param {
    lr_mult: 2
    decay_mult: 0
  }
  convolution_param {
    num_output: 16
    pad: 1
    kernel_size: 3
    stride: 1
    weight_filler {
      type: "xavier"
    }
    bias_filler {
      type: "constant"
      value: 0
    }
  }
}
layer {
  name: "conv4_3_norm_mbox_loc_perm"
  type: "Permute"
  bottom: "conv4_3_norm_mbox_loc"
  top: "conv4_3_norm_mbox_loc_perm"
  permute_param {
    order: 0
    order: 2
    order: 3
    order: 1
  }
}
layer {
  name: "conv4_3_norm_mbox_loc_flat"
  type: "Flatten"
  bottom: "conv4_3_norm_mbox_loc_perm"
  top: "conv4_3_norm_mbox_loc_flat"
  flatten_param {
    axis: 1
  }
}
layer {
  name: "conv4_3_norm_mbox_conf"
  type: "Convolution"
  bottom: "conv4_3_norm"
  top: "conv4_3_norm_mbox_conf"
  param {
    lr_mult: 1
    decay_mult: 1
  }
  param {
    lr_mult: 2
    decay_mult: 0
  }
  convolution_param {
    num_output: 16
    pad: 1
    kernel_size: 3
    stride: 1
    weight_filler {
      type: "xavier"
    }
    bias_filler {
      type: "constant"
      value: 0
    }
  }
}
layer {
  name: "conv4_3_norm_mbox_conf_perm"
  type: "Permute"
  bottom: "conv4_3_norm_mbox_conf"
  top: "conv4_3_norm_mbox_conf_perm"
  permute_param {
    order: 0
    order: 2
    order: 3
    order: 1
  }
}
layer {
  name: "conv4_3_norm_mbox_conf_flat"
  type: "Flatten"
  bottom: "conv4_3_norm_mbox_conf_perm"
  top: "conv4_3_norm_mbox_conf_flat"
  flatten_param {
    axis: 1
  }
}
layer {
  name: "conv4_3_norm_mbox_priorbox"
  type: "PriorBox"
  bottom: "conv4_3_norm"
  bottom: "data"
  top: "conv4_3_norm_mbox_priorbox"
  prior_box_param {
    min_size: 30
    max_size: 60
    aspect_ratio: 2
    flip: true
    clip: false
    variance: 0.1
    variance: 0.1
    variance: 0.2
    variance: 0.2
    step: 8
    offset: 0.5
  }
}
layer {
  name: "fc7_mbox_loc"
  type: "Convolution"
  bottom: "fc7"
  top: "fc7_mbox_loc"
  param {
    lr_mult: 1
    decay_mult: 1
  }
  param {
    lr_mult: 2
    decay_mult: 0
  }
  convolution_param {
    num_output: 24
    pad: 1
    kernel_size: 3
    stride: 1
    weight_filler {
      type: "xavier"
    }
    bias_filler {
      type: "constant"
      value: 0
    }
  }
}
layer {
  name: "fc7_mbox_loc_perm"
  type: "Permute"
  bottom: "fc7_mbox_loc"
  top: "fc7_mbox_loc_perm"
  permute_param {
    order: 0
    order: 2
    order: 3
    order: 1
  }
}
layer {
  name: "fc7_mbox_loc_flat"
  type: "Flatten"
  bottom: "fc7_mbox_loc_perm"
  top: "fc7_mbox_loc_flat"
  flatten_param {
    axis: 1
  }
}
layer {
  name: "fc7_mbox_conf"
  type: "Convolution"
  bottom: "fc7"
  top: "fc7_mbox_conf"
  param {
    lr_mult: 1
    decay_mult: 1
  }
  param {
    lr_mult: 2
    decay_mult: 0
  }
  convolution_param {
    num_output: 24
    pad: 1
    kernel_size: 3
    stride: 1
    weight_filler {
      type: "xavier"
    }
    bias_filler {
      type: "constant"
      value: 0
    }
  }
}
layer {
  name: "fc7_mbox_conf_perm"
  type: "Permute"
  bottom: "fc7_mbox_conf"
  top: "fc7_mbox_conf_perm"
  permute_param {
    order: 0
    order: 2
    order: 3
    order: 1
  }
}
layer {
  name: "fc7_mbox_conf_flat"
  type: "Flatten"
  bottom: "fc7_mbox_conf_perm"
  top: "fc7_mbox_conf_flat"
  flatten_param {
    axis: 1
  }
}
layer {
  name: "fc7_mbox_priorbox"
  type: "PriorBox"
  bottom: "fc7"
  bottom: "data"
  top: "fc7_mbox_priorbox"
  prior_box_param {
    min_size: 60
    max_size: 111
    aspect_ratio: 2
    aspect_ratio: 3
    flip: true
    clip: false
    variance: 0.1
    variance: 0.1
    variance: 0.2
    variance: 0.2
    step: 16
    offset: 0.5
  }
}
layer {
  name: "conv6_2_mbox_loc"
  type: "Convolution"
  bottom: "conv6_2"
  top: "conv6_2_mbox_loc"
  param {
    lr_mult: 1
    decay_mult: 1
  }
  param {
    lr_mult: 2
    decay_mult: 0
  }
  convolution_param {
    num_output: 24
    pad: 1
    kernel_size: 3
    stride: 1
    weight_filler {
      type: "xavier"
    }
    bias_filler {
      type: "constant"
      value: 0
    }
  }
}
layer {
  name: "conv6_2_mbox_loc_perm"
  type: "Permute"
  bottom: "conv6_2_mbox_loc"
  top: "conv6_2_mbox_loc_perm"
  permute_param {
    order: 0
    order: 2
    order: 3
    order: 1
  }
}
layer {
  name: "conv6_2_mbox_loc_flat"
  type: "Flatten"
  bottom: "conv6_2_mbox_loc_perm"
  top: "conv6_2_mbox_loc_flat"
  flatten_param {
    axis: 1
  }
}
layer {
  name: "conv6_2_mbox_conf"
  type: "Convolution"
  bottom: "conv6_2"
  top: "conv6_2_mbox_conf"
  param {
    lr_mult: 1
    decay_mult: 1
  }
  param {
    lr_mult: 2
    decay_mult: 0
  }
  convolution_param {
    num_output: 24
    pad: 1
    kernel_size: 3
    stride: 1
    weight_filler {
      type: "xavier"
    }
    bias_filler {
      type: "constant"
      value: 0
    }
  }
}
layer {
  name: "conv6_2_mbox_conf_perm"
  type: "Permute"
  bottom: "conv6_2_mbox_conf"
  top: "conv6_2_mbox_conf_perm"
  permute_param {
    order: 0
    order: 2
    order: 3
    order: 1
  }
}
layer {
  name: "conv6_2_mbox_conf_flat"
  type: "Flatten"
  bottom: "conv6_2_mbox_conf_perm"
  top: "conv6_2_mbox_conf_flat"
  flatten_param {
    axis: 1
  }
}
layer {
  name: "conv6_2_mbox_priorbox"
  type: "PriorBox"
  bottom: "conv6_2"
  bottom: "data"
  top: "conv6_2_mbox_priorbox"
  prior_box_param {
    min_size: 111
    max_size: 162
    aspect_ratio: 2
    aspect_ratio: 3
    flip: true
    clip: false
    variance: 0.1
    variance: 0.1
    variance: 0.2
    variance: 0.2
    step: 32
    offset: 0.5
  }
}
layer {
  name: "conv7_2_mbox_loc"
  type: "Convolution"
  bottom: "conv7_2"
  top: "conv7_2_mbox_loc"
  param {
    lr_mult: 1
    decay_mult: 1
  }
  param {
    lr_mult: 2
    decay_mult: 0
  }
  convolution_param {
    num_output: 24
    pad: 1
    kernel_size: 3
    stride: 1
    weight_filler {
      type: "xavier"
    }
    bias_filler {
      type: "constant"
      value: 0
    }
  }
}
layer {
  name: "conv7_2_mbox_loc_perm"
  type: "Permute"
  bottom: "conv7_2_mbox_loc"
  top: "conv7_2_mbox_loc_perm"
  permute_param {
    order: 0
    order: 2
    order: 3
    order: 1
  }
}
layer {
  name: "conv7_2_mbox_loc_flat"
  type: "Flatten"
  bottom: "conv7_2_mbox_loc_perm"
  top: "conv7_2_mbox_loc_flat"
  flatten_param {
    axis: 1
  }
}
layer {
  name: "conv7_2_mbox_conf"
  type: "Convolution"
  bottom: "conv7_2"
  top: "conv7_2_mbox_conf"
  param {
    lr_mult: 1
    decay_mult: 1
  }
  param {
    lr_mult: 2
    decay_mult: 0
  }
  convolution_param {
    num_output: 24
    pad: 1
    kernel_size: 3
    stride: 1
    weight_filler {
      type: "xavier"
    }
    bias_filler {
      type: "constant"
      value: 0
    }
  }
}
layer {
  name: "conv7_2_mbox_conf_perm"
  type: "Permute"
  bottom: "conv7_2_mbox_conf"
  top: "conv7_2_mbox_conf_perm"
  permute_param {
    order: 0
    order: 2
    order: 3
    order: 1
  }
}
layer {
  name: "conv7_2_mbox_conf_flat"
  type: "Flatten"
  bottom: "conv7_2_mbox_conf_perm"
  top: "conv7_2_mbox_conf_flat"
  flatten_param {
    axis: 1
  }
}
layer {
  name: "conv7_2_mbox_priorbox"
  type: "PriorBox"
  bottom: "conv7_2"
  bottom: "data"
  top: "conv7_2_mbox_priorbox"
  prior_box_param {
    min_size: 162
    max_size: 213
    aspect_ratio: 2
    aspect_ratio: 3
    flip: true
    clip: false
    variance: 0.1
    variance: 0.1
    variance: 0.2
    variance: 0.2
    step: 64
    offset: 0.5
  }
}
layer {
  name: "conv8_2_mbox_loc"
  type: "Convolution"
  bottom: "conv8_2"
  top: "conv8_2_mbox_loc"
  param {
    lr_mult: 1
    decay_mult: 1
  }
  param {
    lr_mult: 2
    decay_mult: 0
  }
  convolution_param {
    num_output: 16
    pad: 1
    kernel_size: 3
    stride: 1
    weight_filler {
      type: "xavier"
    }
    bias_filler {
      type: "constant"
      value: 0
    }
  }
}
layer {
  name: "conv8_2_mbox_loc_perm"
  type: "Permute"
  bottom: "conv8_2_mbox_loc"
  top: "conv8_2_mbox_loc_perm"
  permute_param {
    order: 0
    order: 2
    order: 3
    order: 1
  }
}
layer {
  name: "conv8_2_mbox_loc_flat"
  type: "Flatten"
  bottom: "conv8_2_mbox_loc_perm"
  top: "conv8_2_mbox_loc_flat"
  flatten_param {
    axis: 1
  }
}
layer {
  name: "conv8_2_mbox_conf"
  type: "Convolution"
  bottom: "conv8_2"
  top: "conv8_2_mbox_conf"
  param {
    lr_mult: 1
    decay_mult: 1
  }
  param {
    lr_mult: 2
    decay_mult: 0
  }
  convolution_param {
    num_output: 16
    pad: 1
    kernel_size: 3
    stride: 1
    weight_filler {
      type: "xavier"
    }
    bias_filler {
      type: "constant"
      value: 0
    }
  }
}
layer {
  name: "conv8_2_mbox_conf_perm"
  type: "Permute"
  bottom: "conv8_2_mbox_conf"
  top: "conv8_2_mbox_conf_perm"
  permute_param {
    order: 0
    order: 2
    order: 3
    order: 1
  }
}
layer {
  name: "conv8_2_mbox_conf_flat"
  type: "Flatten"
  bottom: "conv8_2_mbox_conf_perm"
  top: "conv8_2_mbox_conf_flat"
  flatten_param {
    axis: 1
  }
}
layer {
  name: "conv8_2_mbox_priorbox"
  type: "PriorBox"
  bottom: "conv8_2"
  bottom: "data"
  top: "conv8_2_mbox_priorbox"
  prior_box_param {
    min_size: 213
    max_size: 264
    aspect_ratio: 2
    flip: true
    clip: false
    variance: 0.1
    variance: 0.1
    variance: 0.2
    variance: 0.2
    step: 100
    offset: 0.5
  }
}
layer {
  name: "conv9_2_mbox_loc"
  type: "Convolution"
  bottom: "conv9_2"
  top: "conv9_2_mbox_loc"
  param {
    lr_mult: 1
    decay_mult: 1
  }
  param {
    lr_mult: 2
    decay_mult: 0
  }
  convolution_param {
    num_output: 16
    pad: 1
    kernel_size: 3
    stride: 1
    weight_filler {
      type: "xavier"
    }
    bias_filler {
      type: "constant"
      value: 0
    }
  }
}
layer {
  name: "conv9_2_mbox_loc_perm"
  type: "Permute"
  bottom: "conv9_2_mbox_loc"
  top: "conv9_2_mbox_loc_perm"
  permute_param {
    order: 0
    order: 2
    order: 3
    order: 1
  }
}
layer {
  name: "conv9_2_mbox_loc_flat"
  type: "Flatten"
  bottom: "conv9_2_mbox_loc_perm"
  top: "conv9_2_mbox_loc_flat"
  flatten_param {
    axis: 1
  }
}
layer {
  name: "conv9_2_mbox_conf"
  type: "Convolution"
  bottom: "conv9_2"
  top: "conv9_2_mbox_conf"
  param {
    lr_mult: 1
    decay_mult: 1
  }
  param {
    lr_mult: 2
    decay_mult: 0
  }
  convolution_param {
    num_output: 16
    pad: 1
    kernel_size: 3
    stride: 1
    weight_filler {
      type: "xavier"
    }
    bias_filler {
      type: "constant"
      value: 0
    }
  }
}
layer {
  name: "conv9_2_mbox_conf_perm"
  type: "Permute"
  bottom: "conv9_2_mbox_conf"
  top: "conv9_2_mbox_conf_perm"
  permute_param {
    order: 0
    order: 2
    order: 3
    order: 1
  }
}
layer {
  name: "conv9_2_mbox_conf_flat"
  type: "Flatten"
  bottom: "conv9_2_mbox_conf_perm"
  top: "conv9_2_mbox_conf_flat"
  flatten_param {
    axis: 1
  }
}
layer {
  name: "conv9_2_mbox_priorbox"
  type: "PriorBox"
  bottom: "conv9_2"
  bottom: "data"
  top: "conv9_2_mbox_priorbox"
  prior_box_param {
    min_size: 264
    max_size: 315
    aspect_ratio: 2
    flip: true
    clip: false
    variance: 0.1
    variance: 0.1
    variance: 0.2
    variance: 0.2
    step: 300
    offset: 0.5
  }
}
layer {
  name: "mbox_loc"
  type: "Concat"
  bottom: "conv4_3_norm_mbox_loc_flat"
  bottom: "fc7_mbox_loc_flat"
  bottom: "conv6_2_mbox_loc_flat"
  bottom: "conv7_2_mbox_loc_flat"
  bottom: "conv8_2_mbox_loc_flat"
  bottom: "conv9_2_mbox_loc_flat"
  top: "mbox_loc"
  concat_param {
    axis: 1
  }
}
layer {
  name: "mbox_conf"
  type: "Concat"
  bottom: "conv4_3_norm_mbox_conf_flat"
  bottom: "fc7_mbox_conf_flat"
  bottom: "conv6_2_mbox_conf_flat"
  bottom: "conv7_2_mbox_conf_flat"
  bottom: "conv8_2_mbox_conf_flat"
  bottom: "conv9_2_mbox_conf_flat"
  top: "mbox_conf"
  concat_param {
    axis: 1
  }
}
layer {
  name: "mbox_priorbox"
  type: "Concat"
  bottom: "conv4_3_norm_mbox_priorbox"
  bottom: "fc7_mbox_priorbox"
  bottom: "conv6_2_mbox_priorbox"
  bottom: "conv7_2_mbox_priorbox"
  bottom: "conv8_2_mbox_priorbox"
  bottom: "conv9_2_mbox_priorbox"
  top: "mbox_priorbox"
  concat_param {
    axis: 2
  }
}
layer {
  name: "mbox_loss"
  type: "MultiBoxLoss"
  bottom: "mbox_loc"
  bottom: "mbox_conf"
  bottom: "mbox_priorbox"
  bottom: "label"
  top: "mbox_loss"
  include {
    phase: TRAIN
  }
  propagate_down: true
  propagate_down: true
  propagate_down: false
  propagate_down: false
  loss_param {
    normalization: VALID
  }
  multibox_loss_param {
    loc_loss_type: SMOOTH_L1
    conf_loss_type: SOFTMAX
    loc_weight: 1
    num_classes: 4
    share_location: true
    match_type: PER_PREDICTION
    overlap_threshold: 0.5
    use_prior_for_matching: true
    background_label_id: 0
    use_difficult_gt: true
    neg_pos_ratio: 3
    neg_overlap: 0.5
    code_type: CENTER_SIZE
    ignore_cross_boundary_bbox: false
    mining_type: MAX_NEGATIVE
  }
}
I0606 16:11:50.988469  7903 layer_factory.hpp:77] Creating layer data
I0606 16:11:50.988700  7903 net.cpp:100] Creating Layer data
I0606 16:11:50.988713  7903 net.cpp:408] data -> data
I0606 16:11:50.988744  7903 net.cpp:408] data -> label
I0606 16:11:50.989207  7920 db_lmdb.cpp:35] Opened lmdb examples/grayscale_tbs_300x300_HSIL_10x/grayscale_tbs_300x300_HSIL_10x_trainval_lmdb
I0606 16:11:50.998550  7903 annotated_data_layer.cpp:62] output data size: 4,3,300,300
I0606 16:11:51.008131  7903 net.cpp:150] Setting up data
I0606 16:11:51.008165  7903 net.cpp:157] Top shape: 4 3 300 300 (1080000)
I0606 16:11:51.008200  7903 net.cpp:157] Top shape: 1 1 1 8 (8)
I0606 16:11:51.008204  7903 net.cpp:165] Memory required for data: 4320032
I0606 16:11:51.008229  7903 layer_factory.hpp:77] Creating layer data_data_0_split
I0606 16:11:51.008242  7903 net.cpp:100] Creating Layer data_data_0_split
I0606 16:11:51.008250  7903 net.cpp:434] data_data_0_split <- data
I0606 16:11:51.008265  7903 net.cpp:408] data_data_0_split -> data_data_0_split_0
I0606 16:11:51.008277  7903 net.cpp:408] data_data_0_split -> data_data_0_split_1
I0606 16:11:51.008287  7903 net.cpp:408] data_data_0_split -> data_data_0_split_2
I0606 16:11:51.008297  7903 net.cpp:408] data_data_0_split -> data_data_0_split_3
I0606 16:11:51.008323  7903 net.cpp:408] data_data_0_split -> data_data_0_split_4
I0606 16:11:51.008332  7903 net.cpp:408] data_data_0_split -> data_data_0_split_5
I0606 16:11:51.008340  7903 net.cpp:408] data_data_0_split -> data_data_0_split_6
I0606 16:11:51.008429  7903 net.cpp:150] Setting up data_data_0_split
I0606 16:11:51.008436  7903 net.cpp:157] Top shape: 4 3 300 300 (1080000)
I0606 16:11:51.008455  7903 net.cpp:157] Top shape: 4 3 300 300 (1080000)
I0606 16:11:51.008461  7903 net.cpp:157] Top shape: 4 3 300 300 (1080000)
I0606 16:11:51.008481  7903 net.cpp:157] Top shape: 4 3 300 300 (1080000)
I0606 16:11:51.008486  7903 net.cpp:157] Top shape: 4 3 300 300 (1080000)
I0606 16:11:51.008491  7903 net.cpp:157] Top shape: 4 3 300 300 (1080000)
I0606 16:11:51.008512  7903 net.cpp:157] Top shape: 4 3 300 300 (1080000)
I0606 16:11:51.008517  7903 net.cpp:165] Memory required for data: 34560032
I0606 16:11:51.008520  7903 layer_factory.hpp:77] Creating layer conv1_1
I0606 16:11:51.008536  7903 net.cpp:100] Creating Layer conv1_1
I0606 16:11:51.008540  7903 net.cpp:434] conv1_1 <- data_data_0_split_0
I0606 16:11:51.008549  7903 net.cpp:408] conv1_1 -> conv1_1
I0606 16:11:51.290253  7903 net.cpp:150] Setting up conv1_1
I0606 16:11:51.290273  7903 net.cpp:157] Top shape: 4 64 300 300 (23040000)
I0606 16:11:51.290277  7903 net.cpp:165] Memory required for data: 126720032
I0606 16:11:51.290307  7903 layer_factory.hpp:77] Creating layer relu1_1
I0606 16:11:51.290314  7903 net.cpp:100] Creating Layer relu1_1
I0606 16:11:51.290318  7903 net.cpp:434] relu1_1 <- conv1_1
I0606 16:11:51.290323  7903 net.cpp:395] relu1_1 -> conv1_1 (in-place)
I0606 16:11:51.290530  7903 net.cpp:150] Setting up relu1_1
I0606 16:11:51.290541  7903 net.cpp:157] Top shape: 4 64 300 300 (23040000)
I0606 16:11:51.290545  7903 net.cpp:165] Memory required for data: 218880032
I0606 16:11:51.290549  7903 layer_factory.hpp:77] Creating layer conv1_2
I0606 16:11:51.290577  7903 net.cpp:100] Creating Layer conv1_2
I0606 16:11:51.290596  7903 net.cpp:434] conv1_2 <- conv1_1
I0606 16:11:51.290619  7903 net.cpp:408] conv1_2 -> conv1_2
I0606 16:11:51.293068  7903 net.cpp:150] Setting up conv1_2
I0606 16:11:51.293081  7903 net.cpp:157] Top shape: 4 64 300 300 (23040000)
I0606 16:11:51.293084  7903 net.cpp:165] Memory required for data: 311040032
I0606 16:11:51.293090  7903 layer_factory.hpp:77] Creating layer relu1_2
I0606 16:11:51.293110  7903 net.cpp:100] Creating Layer relu1_2
I0606 16:11:51.293114  7903 net.cpp:434] relu1_2 <- conv1_2
I0606 16:11:51.293131  7903 net.cpp:395] relu1_2 -> conv1_2 (in-place)
I0606 16:11:51.294119  7903 net.cpp:150] Setting up relu1_2
I0606 16:11:51.294145  7903 net.cpp:157] Top shape: 4 64 300 300 (23040000)
I0606 16:11:51.294165  7903 net.cpp:165] Memory required for data: 403200032
I0606 16:11:51.294169  7903 layer_factory.hpp:77] Creating layer pool1
I0606 16:11:51.294178  7903 net.cpp:100] Creating Layer pool1
I0606 16:11:51.294190  7903 net.cpp:434] pool1 <- conv1_2
I0606 16:11:51.294199  7903 net.cpp:408] pool1 -> pool1
I0606 16:11:51.294279  7903 net.cpp:150] Setting up pool1
I0606 16:11:51.294289  7903 net.cpp:157] Top shape: 4 64 150 150 (5760000)
I0606 16:11:51.294292  7903 net.cpp:165] Memory required for data: 426240032
I0606 16:11:51.294296  7903 layer_factory.hpp:77] Creating layer conv2_1
I0606 16:11:51.294322  7903 net.cpp:100] Creating Layer conv2_1
I0606 16:11:51.294368  7903 net.cpp:434] conv2_1 <- pool1
I0606 16:11:51.294378  7903 net.cpp:408] conv2_1 -> conv2_1
I0606 16:11:51.295338  7903 net.cpp:150] Setting up conv2_1
I0606 16:11:51.295348  7903 net.cpp:157] Top shape: 4 128 150 150 (11520000)
I0606 16:11:51.295351  7903 net.cpp:165] Memory required for data: 472320032
I0606 16:11:51.295356  7903 layer_factory.hpp:77] Creating layer relu2_1
I0606 16:11:51.295378  7903 net.cpp:100] Creating Layer relu2_1
I0606 16:11:51.295380  7903 net.cpp:434] relu2_1 <- conv2_1
I0606 16:11:51.295385  7903 net.cpp:395] relu2_1 -> conv2_1 (in-place)
I0606 16:11:51.296360  7903 net.cpp:150] Setting up relu2_1
I0606 16:11:51.296386  7903 net.cpp:157] Top shape: 4 128 150 150 (11520000)
I0606 16:11:51.296391  7903 net.cpp:165] Memory required for data: 518400032
I0606 16:11:51.296394  7903 layer_factory.hpp:77] Creating layer conv2_2
I0606 16:11:51.296418  7903 net.cpp:100] Creating Layer conv2_2
I0606 16:11:51.296425  7903 net.cpp:434] conv2_2 <- conv2_1
I0606 16:11:51.296433  7903 net.cpp:408] conv2_2 -> conv2_2
I0606 16:11:51.298904  7903 net.cpp:150] Setting up conv2_2
I0606 16:11:51.298914  7903 net.cpp:157] Top shape: 4 128 150 150 (11520000)
I0606 16:11:51.298918  7903 net.cpp:165] Memory required for data: 564480032
I0606 16:11:51.298924  7903 layer_factory.hpp:77] Creating layer relu2_2
I0606 16:11:51.298931  7903 net.cpp:100] Creating Layer relu2_2
I0606 16:11:51.298949  7903 net.cpp:434] relu2_2 <- conv2_2
I0606 16:11:51.298969  7903 net.cpp:395] relu2_2 -> conv2_2 (in-place)
I0606 16:11:51.299239  7903 net.cpp:150] Setting up relu2_2
I0606 16:11:51.299249  7903 net.cpp:157] Top shape: 4 128 150 150 (11520000)
I0606 16:11:51.299252  7903 net.cpp:165] Memory required for data: 610560032
I0606 16:11:51.299269  7903 layer_factory.hpp:77] Creating layer pool2
I0606 16:11:51.299276  7903 net.cpp:100] Creating Layer pool2
I0606 16:11:51.299293  7903 net.cpp:434] pool2 <- conv2_2
I0606 16:11:51.299299  7903 net.cpp:408] pool2 -> pool2
I0606 16:11:51.299396  7903 net.cpp:150] Setting up pool2
I0606 16:11:51.299404  7903 net.cpp:157] Top shape: 4 128 75 75 (2880000)
I0606 16:11:51.299408  7903 net.cpp:165] Memory required for data: 622080032
I0606 16:11:51.299412  7903 layer_factory.hpp:77] Creating layer conv3_1
I0606 16:11:51.299422  7903 net.cpp:100] Creating Layer conv3_1
I0606 16:11:51.299425  7903 net.cpp:434] conv3_1 <- pool2
I0606 16:11:51.299433  7903 net.cpp:408] conv3_1 -> conv3_1
I0606 16:11:51.304536  7903 net.cpp:150] Setting up conv3_1
I0606 16:11:51.304586  7903 net.cpp:157] Top shape: 4 256 75 75 (5760000)
I0606 16:11:51.304605  7903 net.cpp:165] Memory required for data: 645120032
I0606 16:11:51.304617  7903 layer_factory.hpp:77] Creating layer relu3_1
I0606 16:11:51.304626  7903 net.cpp:100] Creating Layer relu3_1
I0606 16:11:51.304630  7903 net.cpp:434] relu3_1 <- conv3_1
I0606 16:11:51.304636  7903 net.cpp:395] relu3_1 -> conv3_1 (in-place)
I0606 16:11:51.304884  7903 net.cpp:150] Setting up relu3_1
I0606 16:11:51.304896  7903 net.cpp:157] Top shape: 4 256 75 75 (5760000)
I0606 16:11:51.304915  7903 net.cpp:165] Memory required for data: 668160032
I0606 16:11:51.304936  7903 layer_factory.hpp:77] Creating layer conv3_2
I0606 16:11:51.304949  7903 net.cpp:100] Creating Layer conv3_2
I0606 16:11:51.304955  7903 net.cpp:434] conv3_2 <- conv3_1
I0606 16:11:51.304965  7903 net.cpp:408] conv3_2 -> conv3_2
I0606 16:11:51.309803  7903 net.cpp:150] Setting up conv3_2
I0606 16:11:51.309816  7903 net.cpp:157] Top shape: 4 256 75 75 (5760000)
I0606 16:11:51.309819  7903 net.cpp:165] Memory required for data: 691200032
I0606 16:11:51.309824  7903 layer_factory.hpp:77] Creating layer relu3_2
I0606 16:11:51.309846  7903 net.cpp:100] Creating Layer relu3_2
I0606 16:11:51.309849  7903 net.cpp:434] relu3_2 <- conv3_2
I0606 16:11:51.309855  7903 net.cpp:395] relu3_2 -> conv3_2 (in-place)
I0606 16:11:51.310122  7903 net.cpp:150] Setting up relu3_2
I0606 16:11:51.310133  7903 net.cpp:157] Top shape: 4 256 75 75 (5760000)
I0606 16:11:51.310137  7903 net.cpp:165] Memory required for data: 714240032
I0606 16:11:51.310168  7903 layer_factory.hpp:77] Creating layer conv3_3
I0606 16:11:51.310199  7903 net.cpp:100] Creating Layer conv3_3
I0606 16:11:51.310206  7903 net.cpp:434] conv3_3 <- conv3_2
I0606 16:11:51.310226  7903 net.cpp:408] conv3_3 -> conv3_3
I0606 16:11:51.315182  7903 net.cpp:150] Setting up conv3_3
I0606 16:11:51.315196  7903 net.cpp:157] Top shape: 4 256 75 75 (5760000)
I0606 16:11:51.315199  7903 net.cpp:165] Memory required for data: 737280032
I0606 16:11:51.315206  7903 layer_factory.hpp:77] Creating layer relu3_3
I0606 16:11:51.315230  7903 net.cpp:100] Creating Layer relu3_3
I0606 16:11:51.315235  7903 net.cpp:434] relu3_3 <- conv3_3
I0606 16:11:51.315244  7903 net.cpp:395] relu3_3 -> conv3_3 (in-place)
I0606 16:11:51.315433  7903 net.cpp:150] Setting up relu3_3
I0606 16:11:51.315445  7903 net.cpp:157] Top shape: 4 256 75 75 (5760000)
I0606 16:11:51.315450  7903 net.cpp:165] Memory required for data: 760320032
I0606 16:11:51.315455  7903 layer_factory.hpp:77] Creating layer pool3
I0606 16:11:51.315479  7903 net.cpp:100] Creating Layer pool3
I0606 16:11:51.315485  7903 net.cpp:434] pool3 <- conv3_3
I0606 16:11:51.315491  7903 net.cpp:408] pool3 -> pool3
I0606 16:11:51.315551  7903 net.cpp:150] Setting up pool3
I0606 16:11:51.315560  7903 net.cpp:157] Top shape: 4 256 38 38 (1478656)
I0606 16:11:51.315564  7903 net.cpp:165] Memory required for data: 766234656
I0606 16:11:51.315568  7903 layer_factory.hpp:77] Creating layer conv4_1
I0606 16:11:51.315594  7903 net.cpp:100] Creating Layer conv4_1
I0606 16:11:51.315600  7903 net.cpp:434] conv4_1 <- pool3
I0606 16:11:51.315609  7903 net.cpp:408] conv4_1 -> conv4_1
I0606 16:11:51.323781  7903 net.cpp:150] Setting up conv4_1
I0606 16:11:51.323797  7903 net.cpp:157] Top shape: 4 512 38 38 (2957312)
I0606 16:11:51.323815  7903 net.cpp:165] Memory required for data: 778063904
I0606 16:11:51.323822  7903 layer_factory.hpp:77] Creating layer relu4_1
I0606 16:11:51.323828  7903 net.cpp:100] Creating Layer relu4_1
I0606 16:11:51.323832  7903 net.cpp:434] relu4_1 <- conv4_1
I0606 16:11:51.323850  7903 net.cpp:395] relu4_1 -> conv4_1 (in-place)
I0606 16:11:51.324846  7903 net.cpp:150] Setting up relu4_1
I0606 16:11:51.324869  7903 net.cpp:157] Top shape: 4 512 38 38 (2957312)
I0606 16:11:51.324874  7903 net.cpp:165] Memory required for data: 789893152
I0606 16:11:51.324878  7903 layer_factory.hpp:77] Creating layer conv4_2
I0606 16:11:51.324908  7903 net.cpp:100] Creating Layer conv4_2
I0606 16:11:51.324913  7903 net.cpp:434] conv4_2 <- conv4_1
I0606 16:11:51.324935  7903 net.cpp:408] conv4_2 -> conv4_2
I0606 16:11:51.337047  7903 net.cpp:150] Setting up conv4_2
I0606 16:11:51.337067  7903 net.cpp:157] Top shape: 4 512 38 38 (2957312)
I0606 16:11:51.337070  7903 net.cpp:165] Memory required for data: 801722400
I0606 16:11:51.337081  7903 layer_factory.hpp:77] Creating layer relu4_2
I0606 16:11:51.337121  7903 net.cpp:100] Creating Layer relu4_2
I0606 16:11:51.337126  7903 net.cpp:434] relu4_2 <- conv4_2
I0606 16:11:51.337133  7903 net.cpp:395] relu4_2 -> conv4_2 (in-place)
I0606 16:11:51.337921  7903 net.cpp:150] Setting up relu4_2
I0606 16:11:51.337934  7903 net.cpp:157] Top shape: 4 512 38 38 (2957312)
I0606 16:11:51.337940  7903 net.cpp:165] Memory required for data: 813551648
I0606 16:11:51.337945  7903 layer_factory.hpp:77] Creating layer conv4_3
I0606 16:11:51.337956  7903 net.cpp:100] Creating Layer conv4_3
I0606 16:11:51.337963  7903 net.cpp:434] conv4_3 <- conv4_2
I0606 16:11:51.337971  7903 net.cpp:408] conv4_3 -> conv4_3
I0606 16:11:51.351440  7903 net.cpp:150] Setting up conv4_3
I0606 16:11:51.351464  7903 net.cpp:157] Top shape: 4 512 38 38 (2957312)
I0606 16:11:51.351469  7903 net.cpp:165] Memory required for data: 825380896
I0606 16:11:51.351476  7903 layer_factory.hpp:77] Creating layer relu4_3
I0606 16:11:51.351485  7903 net.cpp:100] Creating Layer relu4_3
I0606 16:11:51.351491  7903 net.cpp:434] relu4_3 <- conv4_3
I0606 16:11:51.351498  7903 net.cpp:395] relu4_3 -> conv4_3 (in-place)
I0606 16:11:51.351686  7903 net.cpp:150] Setting up relu4_3
I0606 16:11:51.351709  7903 net.cpp:157] Top shape: 4 512 38 38 (2957312)
I0606 16:11:51.351728  7903 net.cpp:165] Memory required for data: 837210144
I0606 16:11:51.351732  7903 layer_factory.hpp:77] Creating layer conv4_3_relu4_3_0_split
I0606 16:11:51.351740  7903 net.cpp:100] Creating Layer conv4_3_relu4_3_0_split
I0606 16:11:51.351745  7903 net.cpp:434] conv4_3_relu4_3_0_split <- conv4_3
I0606 16:11:51.351750  7903 net.cpp:408] conv4_3_relu4_3_0_split -> conv4_3_relu4_3_0_split_0
I0606 16:11:51.351760  7903 net.cpp:408] conv4_3_relu4_3_0_split -> conv4_3_relu4_3_0_split_1
I0606 16:11:51.351822  7903 net.cpp:150] Setting up conv4_3_relu4_3_0_split
I0606 16:11:51.351831  7903 net.cpp:157] Top shape: 4 512 38 38 (2957312)
I0606 16:11:51.351836  7903 net.cpp:157] Top shape: 4 512 38 38 (2957312)
I0606 16:11:51.351840  7903 net.cpp:165] Memory required for data: 860868640
I0606 16:11:51.351843  7903 layer_factory.hpp:77] Creating layer pool4
I0606 16:11:51.351851  7903 net.cpp:100] Creating Layer pool4
I0606 16:11:51.351855  7903 net.cpp:434] pool4 <- conv4_3_relu4_3_0_split_0
I0606 16:11:51.351877  7903 net.cpp:408] pool4 -> pool4
I0606 16:11:51.351948  7903 net.cpp:150] Setting up pool4
I0606 16:11:51.351956  7903 net.cpp:157] Top shape: 4 512 19 19 (739328)
I0606 16:11:51.351959  7903 net.cpp:165] Memory required for data: 863825952
I0606 16:11:51.351963  7903 layer_factory.hpp:77] Creating layer conv5_1
I0606 16:11:51.351990  7903 net.cpp:100] Creating Layer conv5_1
I0606 16:11:51.351995  7903 net.cpp:434] conv5_1 <- pool4
I0606 16:11:51.352004  7903 net.cpp:408] conv5_1 -> conv5_1
I0606 16:11:51.365367  7903 net.cpp:150] Setting up conv5_1
I0606 16:11:51.365384  7903 net.cpp:157] Top shape: 4 512 19 19 (739328)
I0606 16:11:51.365387  7903 net.cpp:165] Memory required for data: 866783264
I0606 16:11:51.365407  7903 layer_factory.hpp:77] Creating layer relu5_1
I0606 16:11:51.365414  7903 net.cpp:100] Creating Layer relu5_1
I0606 16:11:51.365418  7903 net.cpp:434] relu5_1 <- conv5_1
I0606 16:11:51.365437  7903 net.cpp:395] relu5_1 -> conv5_1 (in-place)
I0606 16:11:51.365648  7903 net.cpp:150] Setting up relu5_1
I0606 16:11:51.365658  7903 net.cpp:157] Top shape: 4 512 19 19 (739328)
I0606 16:11:51.365661  7903 net.cpp:165] Memory required for data: 869740576
I0606 16:11:51.365665  7903 layer_factory.hpp:77] Creating layer conv5_2
I0606 16:11:51.365707  7903 net.cpp:100] Creating Layer conv5_2
I0606 16:11:51.365711  7903 net.cpp:434] conv5_2 <- conv5_1
I0606 16:11:51.365720  7903 net.cpp:408] conv5_2 -> conv5_2
I0606 16:11:51.379611  7903 net.cpp:150] Setting up conv5_2
I0606 16:11:51.379629  7903 net.cpp:157] Top shape: 4 512 19 19 (739328)
I0606 16:11:51.379632  7903 net.cpp:165] Memory required for data: 872697888
I0606 16:11:51.379639  7903 layer_factory.hpp:77] Creating layer relu5_2
I0606 16:11:51.379660  7903 net.cpp:100] Creating Layer relu5_2
I0606 16:11:51.379678  7903 net.cpp:434] relu5_2 <- conv5_2
I0606 16:11:51.379681  7903 net.cpp:395] relu5_2 -> conv5_2 (in-place)
I0606 16:11:51.379853  7903 net.cpp:150] Setting up relu5_2
I0606 16:11:51.379863  7903 net.cpp:157] Top shape: 4 512 19 19 (739328)
I0606 16:11:51.379868  7903 net.cpp:165] Memory required for data: 875655200
I0606 16:11:51.379871  7903 layer_factory.hpp:77] Creating layer conv5_3
I0606 16:11:51.379900  7903 net.cpp:100] Creating Layer conv5_3
I0606 16:11:51.379907  7903 net.cpp:434] conv5_3 <- conv5_2
I0606 16:11:51.379916  7903 net.cpp:408] conv5_3 -> conv5_3
I0606 16:11:51.393383  7903 net.cpp:150] Setting up conv5_3
I0606 16:11:51.393401  7903 net.cpp:157] Top shape: 4 512 19 19 (739328)
I0606 16:11:51.393405  7903 net.cpp:165] Memory required for data: 878612512
I0606 16:11:51.393425  7903 layer_factory.hpp:77] Creating layer relu5_3
I0606 16:11:51.393457  7903 net.cpp:100] Creating Layer relu5_3
I0606 16:11:51.393462  7903 net.cpp:434] relu5_3 <- conv5_3
I0606 16:11:51.393467  7903 net.cpp:395] relu5_3 -> conv5_3 (in-place)
I0606 16:11:51.393645  7903 net.cpp:150] Setting up relu5_3
I0606 16:11:51.393656  7903 net.cpp:157] Top shape: 4 512 19 19 (739328)
I0606 16:11:51.393688  7903 net.cpp:165] Memory required for data: 881569824
I0606 16:11:51.393694  7903 layer_factory.hpp:77] Creating layer pool5
I0606 16:11:51.393702  7903 net.cpp:100] Creating Layer pool5
I0606 16:11:51.393707  7903 net.cpp:434] pool5 <- conv5_3
I0606 16:11:51.393714  7903 net.cpp:408] pool5 -> pool5
I0606 16:11:51.393792  7903 net.cpp:150] Setting up pool5
I0606 16:11:51.393800  7903 net.cpp:157] Top shape: 4 512 19 19 (739328)
I0606 16:11:51.393805  7903 net.cpp:165] Memory required for data: 884527136
I0606 16:11:51.393807  7903 layer_factory.hpp:77] Creating layer fc6
I0606 16:11:51.393836  7903 net.cpp:100] Creating Layer fc6
I0606 16:11:51.393839  7903 net.cpp:434] fc6 <- pool5
I0606 16:11:51.393847  7903 net.cpp:408] fc6 -> fc6
I0606 16:11:51.419064  7903 net.cpp:150] Setting up fc6
I0606 16:11:51.419085  7903 net.cpp:157] Top shape: 4 1024 19 19 (1478656)
I0606 16:11:51.419087  7903 net.cpp:165] Memory required for data: 890441760
I0606 16:11:51.419095  7903 layer_factory.hpp:77] Creating layer relu6
I0606 16:11:51.419100  7903 net.cpp:100] Creating Layer relu6
I0606 16:11:51.419119  7903 net.cpp:434] relu6 <- fc6
I0606 16:11:51.419124  7903 net.cpp:395] relu6 -> fc6 (in-place)
I0606 16:11:51.419885  7903 net.cpp:150] Setting up relu6
I0606 16:11:51.419895  7903 net.cpp:157] Top shape: 4 1024 19 19 (1478656)
I0606 16:11:51.419898  7903 net.cpp:165] Memory required for data: 896356384
I0606 16:11:51.419901  7903 layer_factory.hpp:77] Creating layer fc7
I0606 16:11:51.419924  7903 net.cpp:100] Creating Layer fc7
I0606 16:11:51.419929  7903 net.cpp:434] fc7 <- fc6
I0606 16:11:51.419934  7903 net.cpp:408] fc7 -> fc7
I0606 16:11:51.428072  7903 net.cpp:150] Setting up fc7
I0606 16:11:51.428092  7903 net.cpp:157] Top shape: 4 1024 19 19 (1478656)
I0606 16:11:51.428093  7903 net.cpp:165] Memory required for data: 902271008
I0606 16:11:51.428115  7903 layer_factory.hpp:77] Creating layer relu7
I0606 16:11:51.428122  7903 net.cpp:100] Creating Layer relu7
I0606 16:11:51.428127  7903 net.cpp:434] relu7 <- fc7
I0606 16:11:51.428134  7903 net.cpp:395] relu7 -> fc7 (in-place)
I0606 16:11:51.428288  7903 net.cpp:150] Setting up relu7
I0606 16:11:51.428295  7903 net.cpp:157] Top shape: 4 1024 19 19 (1478656)
I0606 16:11:51.428297  7903 net.cpp:165] Memory required for data: 908185632
I0606 16:11:51.428299  7903 layer_factory.hpp:77] Creating layer fc7_relu7_0_split
I0606 16:11:51.428304  7903 net.cpp:100] Creating Layer fc7_relu7_0_split
I0606 16:11:51.428308  7903 net.cpp:434] fc7_relu7_0_split <- fc7
I0606 16:11:51.428310  7903 net.cpp:408] fc7_relu7_0_split -> fc7_relu7_0_split_0
I0606 16:11:51.428330  7903 net.cpp:408] fc7_relu7_0_split -> fc7_relu7_0_split_1
I0606 16:11:51.428340  7903 net.cpp:408] fc7_relu7_0_split -> fc7_relu7_0_split_2
I0606 16:11:51.428359  7903 net.cpp:408] fc7_relu7_0_split -> fc7_relu7_0_split_3
I0606 16:11:51.428408  7903 net.cpp:150] Setting up fc7_relu7_0_split
I0606 16:11:51.428413  7903 net.cpp:157] Top shape: 4 1024 19 19 (1478656)
I0606 16:11:51.428417  7903 net.cpp:157] Top shape: 4 1024 19 19 (1478656)
I0606 16:11:51.428419  7903 net.cpp:157] Top shape: 4 1024 19 19 (1478656)
I0606 16:11:51.428422  7903 net.cpp:157] Top shape: 4 1024 19 19 (1478656)
I0606 16:11:51.428423  7903 net.cpp:165] Memory required for data: 931844128
I0606 16:11:51.428439  7903 layer_factory.hpp:77] Creating layer conv6_1
I0606 16:11:51.428462  7903 net.cpp:100] Creating Layer conv6_1
I0606 16:11:51.428464  7903 net.cpp:434] conv6_1 <- fc7_relu7_0_split_0
I0606 16:11:51.428470  7903 net.cpp:408] conv6_1 -> conv6_1
I0606 16:11:51.431974  7903 net.cpp:150] Setting up conv6_1
I0606 16:11:51.431993  7903 net.cpp:157] Top shape: 4 256 19 19 (369664)
I0606 16:11:51.431995  7903 net.cpp:165] Memory required for data: 933322784
I0606 16:11:51.432001  7903 layer_factory.hpp:77] Creating layer conv6_1_relu
I0606 16:11:51.432008  7903 net.cpp:100] Creating Layer conv6_1_relu
I0606 16:11:51.432011  7903 net.cpp:434] conv6_1_relu <- conv6_1
I0606 16:11:51.432016  7903 net.cpp:395] conv6_1_relu -> conv6_1 (in-place)
I0606 16:11:51.432171  7903 net.cpp:150] Setting up conv6_1_relu
I0606 16:11:51.432178  7903 net.cpp:157] Top shape: 4 256 19 19 (369664)
I0606 16:11:51.432181  7903 net.cpp:165] Memory required for data: 934801440
I0606 16:11:51.432183  7903 layer_factory.hpp:77] Creating layer conv6_2
I0606 16:11:51.432191  7903 net.cpp:100] Creating Layer conv6_2
I0606 16:11:51.432195  7903 net.cpp:434] conv6_2 <- conv6_1
I0606 16:11:51.432200  7903 net.cpp:408] conv6_2 -> conv6_2
I0606 16:11:51.440091  7903 net.cpp:150] Setting up conv6_2
I0606 16:11:51.440109  7903 net.cpp:157] Top shape: 4 512 10 10 (204800)
I0606 16:11:51.440114  7903 net.cpp:165] Memory required for data: 935620640
I0606 16:11:51.440140  7903 layer_factory.hpp:77] Creating layer conv6_2_relu
I0606 16:11:51.440146  7903 net.cpp:100] Creating Layer conv6_2_relu
I0606 16:11:51.440150  7903 net.cpp:434] conv6_2_relu <- conv6_2
I0606 16:11:51.440158  7903 net.cpp:395] conv6_2_relu -> conv6_2 (in-place)
I0606 16:11:51.440313  7903 net.cpp:150] Setting up conv6_2_relu
I0606 16:11:51.440320  7903 net.cpp:157] Top shape: 4 512 10 10 (204800)
I0606 16:11:51.440321  7903 net.cpp:165] Memory required for data: 936439840
I0606 16:11:51.440325  7903 layer_factory.hpp:77] Creating layer conv6_2_conv6_2_relu_0_split
I0606 16:11:51.440328  7903 net.cpp:100] Creating Layer conv6_2_conv6_2_relu_0_split
I0606 16:11:51.440331  7903 net.cpp:434] conv6_2_conv6_2_relu_0_split <- conv6_2
I0606 16:11:51.440351  7903 net.cpp:408] conv6_2_conv6_2_relu_0_split -> conv6_2_conv6_2_relu_0_split_0
I0606 16:11:51.440356  7903 net.cpp:408] conv6_2_conv6_2_relu_0_split -> conv6_2_conv6_2_relu_0_split_1
I0606 16:11:51.440361  7903 net.cpp:408] conv6_2_conv6_2_relu_0_split -> conv6_2_conv6_2_relu_0_split_2
I0606 16:11:51.440366  7903 net.cpp:408] conv6_2_conv6_2_relu_0_split -> conv6_2_conv6_2_relu_0_split_3
I0606 16:11:51.440430  7903 net.cpp:150] Setting up conv6_2_conv6_2_relu_0_split
I0606 16:11:51.440438  7903 net.cpp:157] Top shape: 4 512 10 10 (204800)
I0606 16:11:51.440443  7903 net.cpp:157] Top shape: 4 512 10 10 (204800)
I0606 16:11:51.440446  7903 net.cpp:157] Top shape: 4 512 10 10 (204800)
I0606 16:11:51.440450  7903 net.cpp:157] Top shape: 4 512 10 10 (204800)
I0606 16:11:51.440454  7903 net.cpp:165] Memory required for data: 939716640
I0606 16:11:51.440471  7903 layer_factory.hpp:77] Creating layer conv7_1
I0606 16:11:51.440497  7903 net.cpp:100] Creating Layer conv7_1
I0606 16:11:51.440502  7903 net.cpp:434] conv7_1 <- conv6_2_conv6_2_relu_0_split_0
I0606 16:11:51.440523  7903 net.cpp:408] conv7_1 -> conv7_1
I0606 16:11:51.442014  7903 net.cpp:150] Setting up conv7_1
I0606 16:11:51.442025  7903 net.cpp:157] Top shape: 4 128 10 10 (51200)
I0606 16:11:51.442029  7903 net.cpp:165] Memory required for data: 939921440
I0606 16:11:51.442037  7903 layer_factory.hpp:77] Creating layer conv7_1_relu
I0606 16:11:51.442045  7903 net.cpp:100] Creating Layer conv7_1_relu
I0606 16:11:51.442050  7903 net.cpp:434] conv7_1_relu <- conv7_1
I0606 16:11:51.442056  7903 net.cpp:395] conv7_1_relu -> conv7_1 (in-place)
I0606 16:11:51.442188  7903 net.cpp:150] Setting up conv7_1_relu
I0606 16:11:51.442195  7903 net.cpp:157] Top shape: 4 128 10 10 (51200)
I0606 16:11:51.442199  7903 net.cpp:165] Memory required for data: 940126240
I0606 16:11:51.442203  7903 layer_factory.hpp:77] Creating layer conv7_2
I0606 16:11:51.442214  7903 net.cpp:100] Creating Layer conv7_2
I0606 16:11:51.442219  7903 net.cpp:434] conv7_2 <- conv7_1
I0606 16:11:51.442226  7903 net.cpp:408] conv7_2 -> conv7_2
I0606 16:11:51.445181  7903 net.cpp:150] Setting up conv7_2
I0606 16:11:51.445199  7903 net.cpp:157] Top shape: 4 256 5 5 (25600)
I0606 16:11:51.445204  7903 net.cpp:165] Memory required for data: 940228640
I0606 16:11:51.445212  7903 layer_factory.hpp:77] Creating layer conv7_2_relu
I0606 16:11:51.445221  7903 net.cpp:100] Creating Layer conv7_2_relu
I0606 16:11:51.445227  7903 net.cpp:434] conv7_2_relu <- conv7_2
I0606 16:11:51.445237  7903 net.cpp:395] conv7_2_relu -> conv7_2 (in-place)
I0606 16:11:51.445384  7903 net.cpp:150] Setting up conv7_2_relu
I0606 16:11:51.445394  7903 net.cpp:157] Top shape: 4 256 5 5 (25600)
I0606 16:11:51.445396  7903 net.cpp:165] Memory required for data: 940331040
I0606 16:11:51.445401  7903 layer_factory.hpp:77] Creating layer conv7_2_conv7_2_relu_0_split
I0606 16:11:51.445410  7903 net.cpp:100] Creating Layer conv7_2_conv7_2_relu_0_split
I0606 16:11:51.445413  7903 net.cpp:434] conv7_2_conv7_2_relu_0_split <- conv7_2
I0606 16:11:51.445421  7903 net.cpp:408] conv7_2_conv7_2_relu_0_split -> conv7_2_conv7_2_relu_0_split_0
I0606 16:11:51.445430  7903 net.cpp:408] conv7_2_conv7_2_relu_0_split -> conv7_2_conv7_2_relu_0_split_1
I0606 16:11:51.445438  7903 net.cpp:408] conv7_2_conv7_2_relu_0_split -> conv7_2_conv7_2_relu_0_split_2
I0606 16:11:51.445453  7903 net.cpp:408] conv7_2_conv7_2_relu_0_split -> conv7_2_conv7_2_relu_0_split_3
I0606 16:11:51.445511  7903 net.cpp:150] Setting up conv7_2_conv7_2_relu_0_split
I0606 16:11:51.445519  7903 net.cpp:157] Top shape: 4 256 5 5 (25600)
I0606 16:11:51.445524  7903 net.cpp:157] Top shape: 4 256 5 5 (25600)
I0606 16:11:51.445529  7903 net.cpp:157] Top shape: 4 256 5 5 (25600)
I0606 16:11:51.445533  7903 net.cpp:157] Top shape: 4 256 5 5 (25600)
I0606 16:11:51.445538  7903 net.cpp:165] Memory required for data: 940740640
I0606 16:11:51.445541  7903 layer_factory.hpp:77] Creating layer conv8_1
I0606 16:11:51.445552  7903 net.cpp:100] Creating Layer conv8_1
I0606 16:11:51.445557  7903 net.cpp:434] conv8_1 <- conv7_2_conv7_2_relu_0_split_0
I0606 16:11:51.445566  7903 net.cpp:408] conv8_1 -> conv8_1
I0606 16:11:51.446760  7903 net.cpp:150] Setting up conv8_1
I0606 16:11:51.446771  7903 net.cpp:157] Top shape: 4 128 5 5 (12800)
I0606 16:11:51.446775  7903 net.cpp:165] Memory required for data: 940791840
I0606 16:11:51.446784  7903 layer_factory.hpp:77] Creating layer conv8_1_relu
I0606 16:11:51.446790  7903 net.cpp:100] Creating Layer conv8_1_relu
I0606 16:11:51.446795  7903 net.cpp:434] conv8_1_relu <- conv8_1
I0606 16:11:51.446805  7903 net.cpp:395] conv8_1_relu -> conv8_1 (in-place)
I0606 16:11:51.447434  7903 net.cpp:150] Setting up conv8_1_relu
I0606 16:11:51.447444  7903 net.cpp:157] Top shape: 4 128 5 5 (12800)
I0606 16:11:51.447448  7903 net.cpp:165] Memory required for data: 940843040
I0606 16:11:51.447453  7903 layer_factory.hpp:77] Creating layer conv8_2
I0606 16:11:51.447463  7903 net.cpp:100] Creating Layer conv8_2
I0606 16:11:51.447468  7903 net.cpp:434] conv8_2 <- conv8_1
I0606 16:11:51.447477  7903 net.cpp:408] conv8_2 -> conv8_2
I0606 16:11:51.450764  7903 net.cpp:150] Setting up conv8_2
I0606 16:11:51.450785  7903 net.cpp:157] Top shape: 4 256 3 3 (9216)
I0606 16:11:51.450788  7903 net.cpp:165] Memory required for data: 940879904
I0606 16:11:51.450798  7903 layer_factory.hpp:77] Creating layer conv8_2_relu
I0606 16:11:51.450806  7903 net.cpp:100] Creating Layer conv8_2_relu
I0606 16:11:51.450826  7903 net.cpp:434] conv8_2_relu <- conv8_2
I0606 16:11:51.450836  7903 net.cpp:395] conv8_2_relu -> conv8_2 (in-place)
I0606 16:11:51.450975  7903 net.cpp:150] Setting up conv8_2_relu
I0606 16:11:51.450984  7903 net.cpp:157] Top shape: 4 256 3 3 (9216)
I0606 16:11:51.450989  7903 net.cpp:165] Memory required for data: 940916768
I0606 16:11:51.450992  7903 layer_factory.hpp:77] Creating layer conv8_2_conv8_2_relu_0_split
I0606 16:11:51.450999  7903 net.cpp:100] Creating Layer conv8_2_conv8_2_relu_0_split
I0606 16:11:51.451004  7903 net.cpp:434] conv8_2_conv8_2_relu_0_split <- conv8_2
I0606 16:11:51.451014  7903 net.cpp:408] conv8_2_conv8_2_relu_0_split -> conv8_2_conv8_2_relu_0_split_0
I0606 16:11:51.451021  7903 net.cpp:408] conv8_2_conv8_2_relu_0_split -> conv8_2_conv8_2_relu_0_split_1
I0606 16:11:51.451030  7903 net.cpp:408] conv8_2_conv8_2_relu_0_split -> conv8_2_conv8_2_relu_0_split_2
I0606 16:11:51.451038  7903 net.cpp:408] conv8_2_conv8_2_relu_0_split -> conv8_2_conv8_2_relu_0_split_3
I0606 16:11:51.451097  7903 net.cpp:150] Setting up conv8_2_conv8_2_relu_0_split
I0606 16:11:51.451104  7903 net.cpp:157] Top shape: 4 256 3 3 (9216)
I0606 16:11:51.451118  7903 net.cpp:157] Top shape: 4 256 3 3 (9216)
I0606 16:11:51.451123  7903 net.cpp:157] Top shape: 4 256 3 3 (9216)
I0606 16:11:51.451129  7903 net.cpp:157] Top shape: 4 256 3 3 (9216)
I0606 16:11:51.451133  7903 net.cpp:165] Memory required for data: 941064224
I0606 16:11:51.451138  7903 layer_factory.hpp:77] Creating layer conv9_1
I0606 16:11:51.451148  7903 net.cpp:100] Creating Layer conv9_1
I0606 16:11:51.451154  7903 net.cpp:434] conv9_1 <- conv8_2_conv8_2_relu_0_split_0
I0606 16:11:51.451162  7903 net.cpp:408] conv9_1 -> conv9_1
I0606 16:11:51.452517  7903 net.cpp:150] Setting up conv9_1
I0606 16:11:51.452531  7903 net.cpp:157] Top shape: 4 128 3 3 (4608)
I0606 16:11:51.452535  7903 net.cpp:165] Memory required for data: 941082656
I0606 16:11:51.452545  7903 layer_factory.hpp:77] Creating layer conv9_1_relu
I0606 16:11:51.452554  7903 net.cpp:100] Creating Layer conv9_1_relu
I0606 16:11:51.452560  7903 net.cpp:434] conv9_1_relu <- conv9_1
I0606 16:11:51.452569  7903 net.cpp:395] conv9_1_relu -> conv9_1 (in-place)
I0606 16:11:51.452703  7903 net.cpp:150] Setting up conv9_1_relu
I0606 16:11:51.452711  7903 net.cpp:157] Top shape: 4 128 3 3 (4608)
I0606 16:11:51.452714  7903 net.cpp:165] Memory required for data: 941101088
I0606 16:11:51.452719  7903 layer_factory.hpp:77] Creating layer conv9_2
I0606 16:11:51.452730  7903 net.cpp:100] Creating Layer conv9_2
I0606 16:11:51.452735  7903 net.cpp:434] conv9_2 <- conv9_1
I0606 16:11:51.452742  7903 net.cpp:408] conv9_2 -> conv9_2
I0606 16:11:51.455842  7903 net.cpp:150] Setting up conv9_2
I0606 16:11:51.455859  7903 net.cpp:157] Top shape: 4 256 1 1 (1024)
I0606 16:11:51.455862  7903 net.cpp:165] Memory required for data: 941105184
I0606 16:11:51.455871  7903 layer_factory.hpp:77] Creating layer conv9_2_relu
I0606 16:11:51.455883  7903 net.cpp:100] Creating Layer conv9_2_relu
I0606 16:11:51.455889  7903 net.cpp:434] conv9_2_relu <- conv9_2
I0606 16:11:51.455896  7903 net.cpp:395] conv9_2_relu -> conv9_2 (in-place)
I0606 16:11:51.456076  7903 net.cpp:150] Setting up conv9_2_relu
I0606 16:11:51.456087  7903 net.cpp:157] Top shape: 4 256 1 1 (1024)
I0606 16:11:51.456091  7903 net.cpp:165] Memory required for data: 941109280
I0606 16:11:51.456095  7903 layer_factory.hpp:77] Creating layer conv9_2_conv9_2_relu_0_split
I0606 16:11:51.456101  7903 net.cpp:100] Creating Layer conv9_2_conv9_2_relu_0_split
I0606 16:11:51.456106  7903 net.cpp:434] conv9_2_conv9_2_relu_0_split <- conv9_2
I0606 16:11:51.456115  7903 net.cpp:408] conv9_2_conv9_2_relu_0_split -> conv9_2_conv9_2_relu_0_split_0
I0606 16:11:51.456122  7903 net.cpp:408] conv9_2_conv9_2_relu_0_split -> conv9_2_conv9_2_relu_0_split_1
I0606 16:11:51.456130  7903 net.cpp:408] conv9_2_conv9_2_relu_0_split -> conv9_2_conv9_2_relu_0_split_2
I0606 16:11:51.456184  7903 net.cpp:150] Setting up conv9_2_conv9_2_relu_0_split
I0606 16:11:51.456192  7903 net.cpp:157] Top shape: 4 256 1 1 (1024)
I0606 16:11:51.456197  7903 net.cpp:157] Top shape: 4 256 1 1 (1024)
I0606 16:11:51.456200  7903 net.cpp:157] Top shape: 4 256 1 1 (1024)
I0606 16:11:51.456205  7903 net.cpp:165] Memory required for data: 941121568
I0606 16:11:51.456208  7903 layer_factory.hpp:77] Creating layer conv4_3_norm
I0606 16:11:51.456217  7903 net.cpp:100] Creating Layer conv4_3_norm
I0606 16:11:51.456220  7903 net.cpp:434] conv4_3_norm <- conv4_3_relu4_3_0_split_1
I0606 16:11:51.456229  7903 net.cpp:408] conv4_3_norm -> conv4_3_norm
I0606 16:11:51.456362  7903 net.cpp:150] Setting up conv4_3_norm
I0606 16:11:51.456370  7903 net.cpp:157] Top shape: 4 512 38 38 (2957312)
I0606 16:11:51.456373  7903 net.cpp:165] Memory required for data: 952950816
I0606 16:11:51.456379  7903 layer_factory.hpp:77] Creating layer conv4_3_norm_conv4_3_norm_0_split
I0606 16:11:51.456385  7903 net.cpp:100] Creating Layer conv4_3_norm_conv4_3_norm_0_split
I0606 16:11:51.456392  7903 net.cpp:434] conv4_3_norm_conv4_3_norm_0_split <- conv4_3_norm
I0606 16:11:51.456398  7903 net.cpp:408] conv4_3_norm_conv4_3_norm_0_split -> conv4_3_norm_conv4_3_norm_0_split_0
I0606 16:11:51.456418  7903 net.cpp:408] conv4_3_norm_conv4_3_norm_0_split -> conv4_3_norm_conv4_3_norm_0_split_1
I0606 16:11:51.456425  7903 net.cpp:408] conv4_3_norm_conv4_3_norm_0_split -> conv4_3_norm_conv4_3_norm_0_split_2
I0606 16:11:51.456467  7903 net.cpp:150] Setting up conv4_3_norm_conv4_3_norm_0_split
I0606 16:11:51.456473  7903 net.cpp:157] Top shape: 4 512 38 38 (2957312)
I0606 16:11:51.456478  7903 net.cpp:157] Top shape: 4 512 38 38 (2957312)
I0606 16:11:51.456483  7903 net.cpp:157] Top shape: 4 512 38 38 (2957312)
I0606 16:11:51.456486  7903 net.cpp:165] Memory required for data: 988438560
I0606 16:11:51.456490  7903 layer_factory.hpp:77] Creating layer conv4_3_norm_mbox_loc
I0606 16:11:51.456502  7903 net.cpp:100] Creating Layer conv4_3_norm_mbox_loc
I0606 16:11:51.456506  7903 net.cpp:434] conv4_3_norm_mbox_loc <- conv4_3_norm_conv4_3_norm_0_split_0
I0606 16:11:51.456514  7903 net.cpp:408] conv4_3_norm_mbox_loc -> conv4_3_norm_mbox_loc
I0606 16:11:51.458492  7903 net.cpp:150] Setting up conv4_3_norm_mbox_loc
I0606 16:11:51.458511  7903 net.cpp:157] Top shape: 4 16 38 38 (92416)
I0606 16:11:51.458515  7903 net.cpp:165] Memory required for data: 988808224
I0606 16:11:51.458524  7903 layer_factory.hpp:77] Creating layer conv4_3_norm_mbox_loc_perm
I0606 16:11:51.458547  7903 net.cpp:100] Creating Layer conv4_3_norm_mbox_loc_perm
I0606 16:11:51.458554  7903 net.cpp:434] conv4_3_norm_mbox_loc_perm <- conv4_3_norm_mbox_loc
I0606 16:11:51.458564  7903 net.cpp:408] conv4_3_norm_mbox_loc_perm -> conv4_3_norm_mbox_loc_perm
I0606 16:11:51.458662  7903 net.cpp:150] Setting up conv4_3_norm_mbox_loc_perm
I0606 16:11:51.458668  7903 net.cpp:157] Top shape: 4 38 38 16 (92416)
I0606 16:11:51.458673  7903 net.cpp:165] Memory required for data: 989177888
I0606 16:11:51.458676  7903 layer_factory.hpp:77] Creating layer conv4_3_norm_mbox_loc_flat
I0606 16:11:51.458683  7903 net.cpp:100] Creating Layer conv4_3_norm_mbox_loc_flat
I0606 16:11:51.458689  7903 net.cpp:434] conv4_3_norm_mbox_loc_flat <- conv4_3_norm_mbox_loc_perm
I0606 16:11:51.458696  7903 net.cpp:408] conv4_3_norm_mbox_loc_flat -> conv4_3_norm_mbox_loc_flat
I0606 16:11:51.458730  7903 net.cpp:150] Setting up conv4_3_norm_mbox_loc_flat
I0606 16:11:51.458737  7903 net.cpp:157] Top shape: 4 23104 (92416)
I0606 16:11:51.458740  7903 net.cpp:165] Memory required for data: 989547552
I0606 16:11:51.458745  7903 layer_factory.hpp:77] Creating layer conv4_3_norm_mbox_conf
I0606 16:11:51.458761  7903 net.cpp:100] Creating Layer conv4_3_norm_mbox_conf
I0606 16:11:51.458765  7903 net.cpp:434] conv4_3_norm_mbox_conf <- conv4_3_norm_conv4_3_norm_0_split_1
I0606 16:11:51.458772  7903 net.cpp:408] conv4_3_norm_mbox_conf -> conv4_3_norm_mbox_conf
I0606 16:11:51.460749  7903 net.cpp:150] Setting up conv4_3_norm_mbox_conf
I0606 16:11:51.460764  7903 net.cpp:157] Top shape: 4 16 38 38 (92416)
I0606 16:11:51.460768  7903 net.cpp:165] Memory required for data: 989917216
I0606 16:11:51.460777  7903 layer_factory.hpp:77] Creating layer conv4_3_norm_mbox_conf_perm
I0606 16:11:51.460788  7903 net.cpp:100] Creating Layer conv4_3_norm_mbox_conf_perm
I0606 16:11:51.460806  7903 net.cpp:434] conv4_3_norm_mbox_conf_perm <- conv4_3_norm_mbox_conf
I0606 16:11:51.460816  7903 net.cpp:408] conv4_3_norm_mbox_conf_perm -> conv4_3_norm_mbox_conf_perm
I0606 16:11:51.460943  7903 net.cpp:150] Setting up conv4_3_norm_mbox_conf_perm
I0606 16:11:51.460955  7903 net.cpp:157] Top shape: 4 38 38 16 (92416)
I0606 16:11:51.460960  7903 net.cpp:165] Memory required for data: 990286880
I0606 16:11:51.460964  7903 layer_factory.hpp:77] Creating layer conv4_3_norm_mbox_conf_flat
I0606 16:11:51.460970  7903 net.cpp:100] Creating Layer conv4_3_norm_mbox_conf_flat
I0606 16:11:51.460976  7903 net.cpp:434] conv4_3_norm_mbox_conf_flat <- conv4_3_norm_mbox_conf_perm
I0606 16:11:51.460984  7903 net.cpp:408] conv4_3_norm_mbox_conf_flat -> conv4_3_norm_mbox_conf_flat
I0606 16:11:51.461014  7903 net.cpp:150] Setting up conv4_3_norm_mbox_conf_flat
I0606 16:11:51.461021  7903 net.cpp:157] Top shape: 4 23104 (92416)
I0606 16:11:51.461038  7903 net.cpp:165] Memory required for data: 990656544
I0606 16:11:51.461043  7903 layer_factory.hpp:77] Creating layer conv4_3_norm_mbox_priorbox
I0606 16:11:51.461051  7903 net.cpp:100] Creating Layer conv4_3_norm_mbox_priorbox
I0606 16:11:51.461056  7903 net.cpp:434] conv4_3_norm_mbox_priorbox <- conv4_3_norm_conv4_3_norm_0_split_2
I0606 16:11:51.461063  7903 net.cpp:434] conv4_3_norm_mbox_priorbox <- data_data_0_split_1
I0606 16:11:51.461072  7903 net.cpp:408] conv4_3_norm_mbox_priorbox -> conv4_3_norm_mbox_priorbox
I0606 16:11:51.461107  7903 net.cpp:150] Setting up conv4_3_norm_mbox_priorbox
I0606 16:11:51.461117  7903 net.cpp:157] Top shape: 1 2 23104 (46208)
I0606 16:11:51.461122  7903 net.cpp:165] Memory required for data: 990841376
I0606 16:11:51.461124  7903 layer_factory.hpp:77] Creating layer fc7_mbox_loc
I0606 16:11:51.461134  7903 net.cpp:100] Creating Layer fc7_mbox_loc
I0606 16:11:51.461140  7903 net.cpp:434] fc7_mbox_loc <- fc7_relu7_0_split_1
I0606 16:11:51.461150  7903 net.cpp:408] fc7_mbox_loc -> fc7_mbox_loc
I0606 16:11:51.464128  7903 net.cpp:150] Setting up fc7_mbox_loc
I0606 16:11:51.464141  7903 net.cpp:157] Top shape: 4 24 19 19 (34656)
I0606 16:11:51.464144  7903 net.cpp:165] Memory required for data: 990980000
I0606 16:11:51.464150  7903 layer_factory.hpp:77] Creating layer fc7_mbox_loc_perm
I0606 16:11:51.464159  7903 net.cpp:100] Creating Layer fc7_mbox_loc_perm
I0606 16:11:51.464165  7903 net.cpp:434] fc7_mbox_loc_perm <- fc7_mbox_loc
I0606 16:11:51.464174  7903 net.cpp:408] fc7_mbox_loc_perm -> fc7_mbox_loc_perm
I0606 16:11:51.464301  7903 net.cpp:150] Setting up fc7_mbox_loc_perm
I0606 16:11:51.464313  7903 net.cpp:157] Top shape: 4 19 19 24 (34656)
I0606 16:11:51.464318  7903 net.cpp:165] Memory required for data: 991118624
I0606 16:11:51.464323  7903 layer_factory.hpp:77] Creating layer fc7_mbox_loc_flat
I0606 16:11:51.464329  7903 net.cpp:100] Creating Layer fc7_mbox_loc_flat
I0606 16:11:51.464334  7903 net.cpp:434] fc7_mbox_loc_flat <- fc7_mbox_loc_perm
I0606 16:11:51.464342  7903 net.cpp:408] fc7_mbox_loc_flat -> fc7_mbox_loc_flat
I0606 16:11:51.464370  7903 net.cpp:150] Setting up fc7_mbox_loc_flat
I0606 16:11:51.464378  7903 net.cpp:157] Top shape: 4 8664 (34656)
I0606 16:11:51.464383  7903 net.cpp:165] Memory required for data: 991257248
I0606 16:11:51.464387  7903 layer_factory.hpp:77] Creating layer fc7_mbox_conf
I0606 16:11:51.464397  7903 net.cpp:100] Creating Layer fc7_mbox_conf
I0606 16:11:51.464402  7903 net.cpp:434] fc7_mbox_conf <- fc7_relu7_0_split_2
I0606 16:11:51.464411  7903 net.cpp:408] fc7_mbox_conf -> fc7_mbox_conf
I0606 16:11:51.467324  7903 net.cpp:150] Setting up fc7_mbox_conf
I0606 16:11:51.467336  7903 net.cpp:157] Top shape: 4 24 19 19 (34656)
I0606 16:11:51.467339  7903 net.cpp:165] Memory required for data: 991395872
I0606 16:11:51.467345  7903 layer_factory.hpp:77] Creating layer fc7_mbox_conf_perm
I0606 16:11:51.467352  7903 net.cpp:100] Creating Layer fc7_mbox_conf_perm
I0606 16:11:51.467358  7903 net.cpp:434] fc7_mbox_conf_perm <- fc7_mbox_conf
I0606 16:11:51.467366  7903 net.cpp:408] fc7_mbox_conf_perm -> fc7_mbox_conf_perm
I0606 16:11:51.467516  7903 net.cpp:150] Setting up fc7_mbox_conf_perm
I0606 16:11:51.467528  7903 net.cpp:157] Top shape: 4 19 19 24 (34656)
I0606 16:11:51.467532  7903 net.cpp:165] Memory required for data: 991534496
I0606 16:11:51.467550  7903 layer_factory.hpp:77] Creating layer fc7_mbox_conf_flat
I0606 16:11:51.467557  7903 net.cpp:100] Creating Layer fc7_mbox_conf_flat
I0606 16:11:51.467562  7903 net.cpp:434] fc7_mbox_conf_flat <- fc7_mbox_conf_perm
I0606 16:11:51.467583  7903 net.cpp:408] fc7_mbox_conf_flat -> fc7_mbox_conf_flat
I0606 16:11:51.467610  7903 net.cpp:150] Setting up fc7_mbox_conf_flat
I0606 16:11:51.467620  7903 net.cpp:157] Top shape: 4 8664 (34656)
I0606 16:11:51.467623  7903 net.cpp:165] Memory required for data: 991673120
I0606 16:11:51.467628  7903 layer_factory.hpp:77] Creating layer fc7_mbox_priorbox
I0606 16:11:51.467634  7903 net.cpp:100] Creating Layer fc7_mbox_priorbox
I0606 16:11:51.467639  7903 net.cpp:434] fc7_mbox_priorbox <- fc7_relu7_0_split_3
I0606 16:11:51.467658  7903 net.cpp:434] fc7_mbox_priorbox <- data_data_0_split_2
I0606 16:11:51.467669  7903 net.cpp:408] fc7_mbox_priorbox -> fc7_mbox_priorbox
I0606 16:11:51.467701  7903 net.cpp:150] Setting up fc7_mbox_priorbox
I0606 16:11:51.467710  7903 net.cpp:157] Top shape: 1 2 8664 (17328)
I0606 16:11:51.467713  7903 net.cpp:165] Memory required for data: 991742432
I0606 16:11:51.467717  7903 layer_factory.hpp:77] Creating layer conv6_2_mbox_loc
I0606 16:11:51.467730  7903 net.cpp:100] Creating Layer conv6_2_mbox_loc
I0606 16:11:51.467736  7903 net.cpp:434] conv6_2_mbox_loc <- conv6_2_conv6_2_relu_0_split_1
I0606 16:11:51.467744  7903 net.cpp:408] conv6_2_mbox_loc -> conv6_2_mbox_loc
I0606 16:11:51.470017  7903 net.cpp:150] Setting up conv6_2_mbox_loc
I0606 16:11:51.470031  7903 net.cpp:157] Top shape: 4 24 10 10 (9600)
I0606 16:11:51.470033  7903 net.cpp:165] Memory required for data: 991780832
I0606 16:11:51.470039  7903 layer_factory.hpp:77] Creating layer conv6_2_mbox_loc_perm
I0606 16:11:51.470047  7903 net.cpp:100] Creating Layer conv6_2_mbox_loc_perm
I0606 16:11:51.470053  7903 net.cpp:434] conv6_2_mbox_loc_perm <- conv6_2_mbox_loc
I0606 16:11:51.470063  7903 net.cpp:408] conv6_2_mbox_loc_perm -> conv6_2_mbox_loc_perm
I0606 16:11:51.470206  7903 net.cpp:150] Setting up conv6_2_mbox_loc_perm
I0606 16:11:51.470217  7903 net.cpp:157] Top shape: 4 10 10 24 (9600)
I0606 16:11:51.470221  7903 net.cpp:165] Memory required for data: 991819232
I0606 16:11:51.470227  7903 layer_factory.hpp:77] Creating layer conv6_2_mbox_loc_flat
I0606 16:11:51.470232  7903 net.cpp:100] Creating Layer conv6_2_mbox_loc_flat
I0606 16:11:51.470237  7903 net.cpp:434] conv6_2_mbox_loc_flat <- conv6_2_mbox_loc_perm
I0606 16:11:51.470245  7903 net.cpp:408] conv6_2_mbox_loc_flat -> conv6_2_mbox_loc_flat
I0606 16:11:51.470274  7903 net.cpp:150] Setting up conv6_2_mbox_loc_flat
I0606 16:11:51.470283  7903 net.cpp:157] Top shape: 4 2400 (9600)
I0606 16:11:51.470286  7903 net.cpp:165] Memory required for data: 991857632
I0606 16:11:51.470290  7903 layer_factory.hpp:77] Creating layer conv6_2_mbox_conf
I0606 16:11:51.470315  7903 net.cpp:100] Creating Layer conv6_2_mbox_conf
I0606 16:11:51.470320  7903 net.cpp:434] conv6_2_mbox_conf <- conv6_2_conv6_2_relu_0_split_2
I0606 16:11:51.470329  7903 net.cpp:408] conv6_2_mbox_conf -> conv6_2_mbox_conf
I0606 16:11:51.473296  7903 net.cpp:150] Setting up conv6_2_mbox_conf
I0606 16:11:51.473314  7903 net.cpp:157] Top shape: 4 24 10 10 (9600)
I0606 16:11:51.473317  7903 net.cpp:165] Memory required for data: 991896032
I0606 16:11:51.473325  7903 layer_factory.hpp:77] Creating layer conv6_2_mbox_conf_perm
I0606 16:11:51.473333  7903 net.cpp:100] Creating Layer conv6_2_mbox_conf_perm
I0606 16:11:51.473340  7903 net.cpp:434] conv6_2_mbox_conf_perm <- conv6_2_mbox_conf
I0606 16:11:51.473348  7903 net.cpp:408] conv6_2_mbox_conf_perm -> conv6_2_mbox_conf_perm
I0606 16:11:51.473537  7903 net.cpp:150] Setting up conv6_2_mbox_conf_perm
I0606 16:11:51.473548  7903 net.cpp:157] Top shape: 4 10 10 24 (9600)
I0606 16:11:51.473552  7903 net.cpp:165] Memory required for data: 991934432
I0606 16:11:51.473556  7903 layer_factory.hpp:77] Creating layer conv6_2_mbox_conf_flat
I0606 16:11:51.473578  7903 net.cpp:100] Creating Layer conv6_2_mbox_conf_flat
I0606 16:11:51.473582  7903 net.cpp:434] conv6_2_mbox_conf_flat <- conv6_2_mbox_conf_perm
I0606 16:11:51.473592  7903 net.cpp:408] conv6_2_mbox_conf_flat -> conv6_2_mbox_conf_flat
I0606 16:11:51.473635  7903 net.cpp:150] Setting up conv6_2_mbox_conf_flat
I0606 16:11:51.473642  7903 net.cpp:157] Top shape: 4 2400 (9600)
I0606 16:11:51.473647  7903 net.cpp:165] Memory required for data: 991972832
I0606 16:11:51.473650  7903 layer_factory.hpp:77] Creating layer conv6_2_mbox_priorbox
I0606 16:11:51.473659  7903 net.cpp:100] Creating Layer conv6_2_mbox_priorbox
I0606 16:11:51.473665  7903 net.cpp:434] conv6_2_mbox_priorbox <- conv6_2_conv6_2_relu_0_split_3
I0606 16:11:51.473671  7903 net.cpp:434] conv6_2_mbox_priorbox <- data_data_0_split_3
I0606 16:11:51.473692  7903 net.cpp:408] conv6_2_mbox_priorbox -> conv6_2_mbox_priorbox
I0606 16:11:51.473728  7903 net.cpp:150] Setting up conv6_2_mbox_priorbox
I0606 16:11:51.473737  7903 net.cpp:157] Top shape: 1 2 2400 (4800)
I0606 16:11:51.473740  7903 net.cpp:165] Memory required for data: 991992032
I0606 16:11:51.473744  7903 layer_factory.hpp:77] Creating layer conv7_2_mbox_loc
I0606 16:11:51.473757  7903 net.cpp:100] Creating Layer conv7_2_mbox_loc
I0606 16:11:51.473763  7903 net.cpp:434] conv7_2_mbox_loc <- conv7_2_conv7_2_relu_0_split_1
I0606 16:11:51.473772  7903 net.cpp:408] conv7_2_mbox_loc -> conv7_2_mbox_loc
I0606 16:11:51.475530  7903 net.cpp:150] Setting up conv7_2_mbox_loc
I0606 16:11:51.475544  7903 net.cpp:157] Top shape: 4 24 5 5 (2400)
I0606 16:11:51.475548  7903 net.cpp:165] Memory required for data: 992001632
I0606 16:11:51.475553  7903 layer_factory.hpp:77] Creating layer conv7_2_mbox_loc_perm
I0606 16:11:51.475561  7903 net.cpp:100] Creating Layer conv7_2_mbox_loc_perm
I0606 16:11:51.475584  7903 net.cpp:434] conv7_2_mbox_loc_perm <- conv7_2_mbox_loc
I0606 16:11:51.475591  7903 net.cpp:408] conv7_2_mbox_loc_perm -> conv7_2_mbox_loc_perm
I0606 16:11:51.475734  7903 net.cpp:150] Setting up conv7_2_mbox_loc_perm
I0606 16:11:51.475744  7903 net.cpp:157] Top shape: 4 5 5 24 (2400)
I0606 16:11:51.475750  7903 net.cpp:165] Memory required for data: 992011232
I0606 16:11:51.475754  7903 layer_factory.hpp:77] Creating layer conv7_2_mbox_loc_flat
I0606 16:11:51.475764  7903 net.cpp:100] Creating Layer conv7_2_mbox_loc_flat
I0606 16:11:51.475781  7903 net.cpp:434] conv7_2_mbox_loc_flat <- conv7_2_mbox_loc_perm
I0606 16:11:51.475790  7903 net.cpp:408] conv7_2_mbox_loc_flat -> conv7_2_mbox_loc_flat
I0606 16:11:51.475819  7903 net.cpp:150] Setting up conv7_2_mbox_loc_flat
I0606 16:11:51.475827  7903 net.cpp:157] Top shape: 4 600 (2400)
I0606 16:11:51.475832  7903 net.cpp:165] Memory required for data: 992020832
I0606 16:11:51.475837  7903 layer_factory.hpp:77] Creating layer conv7_2_mbox_conf
I0606 16:11:51.475848  7903 net.cpp:100] Creating Layer conv7_2_mbox_conf
I0606 16:11:51.475854  7903 net.cpp:434] conv7_2_mbox_conf <- conv7_2_conv7_2_relu_0_split_2
I0606 16:11:51.475863  7903 net.cpp:408] conv7_2_mbox_conf -> conv7_2_mbox_conf
I0606 16:11:51.477896  7903 net.cpp:150] Setting up conv7_2_mbox_conf
I0606 16:11:51.477906  7903 net.cpp:157] Top shape: 4 24 5 5 (2400)
I0606 16:11:51.477910  7903 net.cpp:165] Memory required for data: 992030432
I0606 16:11:51.477915  7903 layer_factory.hpp:77] Creating layer conv7_2_mbox_conf_perm
I0606 16:11:51.477924  7903 net.cpp:100] Creating Layer conv7_2_mbox_conf_perm
I0606 16:11:51.477931  7903 net.cpp:434] conv7_2_mbox_conf_perm <- conv7_2_mbox_conf
I0606 16:11:51.477939  7903 net.cpp:408] conv7_2_mbox_conf_perm -> conv7_2_mbox_conf_perm
I0606 16:11:51.478080  7903 net.cpp:150] Setting up conv7_2_mbox_conf_perm
I0606 16:11:51.478091  7903 net.cpp:157] Top shape: 4 5 5 24 (2400)
I0606 16:11:51.478096  7903 net.cpp:165] Memory required for data: 992040032
I0606 16:11:51.478099  7903 layer_factory.hpp:77] Creating layer conv7_2_mbox_conf_flat
I0606 16:11:51.478108  7903 net.cpp:100] Creating Layer conv7_2_mbox_conf_flat
I0606 16:11:51.478116  7903 net.cpp:434] conv7_2_mbox_conf_flat <- conv7_2_mbox_conf_perm
I0606 16:11:51.478137  7903 net.cpp:408] conv7_2_mbox_conf_flat -> conv7_2_mbox_conf_flat
I0606 16:11:51.478193  7903 net.cpp:150] Setting up conv7_2_mbox_conf_flat
I0606 16:11:51.478200  7903 net.cpp:157] Top shape: 4 600 (2400)
I0606 16:11:51.478206  7903 net.cpp:165] Memory required for data: 992049632
I0606 16:11:51.478210  7903 layer_factory.hpp:77] Creating layer conv7_2_mbox_priorbox
I0606 16:11:51.478220  7903 net.cpp:100] Creating Layer conv7_2_mbox_priorbox
I0606 16:11:51.478225  7903 net.cpp:434] conv7_2_mbox_priorbox <- conv7_2_conv7_2_relu_0_split_3
I0606 16:11:51.478233  7903 net.cpp:434] conv7_2_mbox_priorbox <- data_data_0_split_4
I0606 16:11:51.478256  7903 net.cpp:408] conv7_2_mbox_priorbox -> conv7_2_mbox_priorbox
I0606 16:11:51.478314  7903 net.cpp:150] Setting up conv7_2_mbox_priorbox
I0606 16:11:51.478335  7903 net.cpp:157] Top shape: 1 2 600 (1200)
I0606 16:11:51.478353  7903 net.cpp:165] Memory required for data: 992054432
I0606 16:11:51.478358  7903 layer_factory.hpp:77] Creating layer conv8_2_mbox_loc
I0606 16:11:51.478382  7903 net.cpp:100] Creating Layer conv8_2_mbox_loc
I0606 16:11:51.478389  7903 net.cpp:434] conv8_2_mbox_loc <- conv8_2_conv8_2_relu_0_split_1
I0606 16:11:51.478399  7903 net.cpp:408] conv8_2_mbox_loc -> conv8_2_mbox_loc
I0606 16:11:51.480499  7903 net.cpp:150] Setting up conv8_2_mbox_loc
I0606 16:11:51.480509  7903 net.cpp:157] Top shape: 4 16 3 3 (576)
I0606 16:11:51.480510  7903 net.cpp:165] Memory required for data: 992056736
I0606 16:11:51.480538  7903 layer_factory.hpp:77] Creating layer conv8_2_mbox_loc_perm
I0606 16:11:51.480545  7903 net.cpp:100] Creating Layer conv8_2_mbox_loc_perm
I0606 16:11:51.480562  7903 net.cpp:434] conv8_2_mbox_loc_perm <- conv8_2_mbox_loc
I0606 16:11:51.480582  7903 net.cpp:408] conv8_2_mbox_loc_perm -> conv8_2_mbox_loc_perm
I0606 16:11:51.480792  7903 net.cpp:150] Setting up conv8_2_mbox_loc_perm
I0606 16:11:51.480801  7903 net.cpp:157] Top shape: 4 3 3 16 (576)
I0606 16:11:51.480805  7903 net.cpp:165] Memory required for data: 992059040
I0606 16:11:51.480808  7903 layer_factory.hpp:77] Creating layer conv8_2_mbox_loc_flat
I0606 16:11:51.480829  7903 net.cpp:100] Creating Layer conv8_2_mbox_loc_flat
I0606 16:11:51.480834  7903 net.cpp:434] conv8_2_mbox_loc_flat <- conv8_2_mbox_loc_perm
I0606 16:11:51.480842  7903 net.cpp:408] conv8_2_mbox_loc_flat -> conv8_2_mbox_loc_flat
I0606 16:11:51.480916  7903 net.cpp:150] Setting up conv8_2_mbox_loc_flat
I0606 16:11:51.480938  7903 net.cpp:157] Top shape: 4 144 (576)
I0606 16:11:51.480942  7903 net.cpp:165] Memory required for data: 992061344
I0606 16:11:51.480945  7903 layer_factory.hpp:77] Creating layer conv8_2_mbox_conf
I0606 16:11:51.480970  7903 net.cpp:100] Creating Layer conv8_2_mbox_conf
I0606 16:11:51.480975  7903 net.cpp:434] conv8_2_mbox_conf <- conv8_2_conv8_2_relu_0_split_2
I0606 16:11:51.480983  7903 net.cpp:408] conv8_2_mbox_conf -> conv8_2_mbox_conf
I0606 16:11:51.484071  7903 net.cpp:150] Setting up conv8_2_mbox_conf
I0606 16:11:51.484083  7903 net.cpp:157] Top shape: 4 16 3 3 (576)
I0606 16:11:51.484086  7903 net.cpp:165] Memory required for data: 992063648
I0606 16:11:51.484092  7903 layer_factory.hpp:77] Creating layer conv8_2_mbox_conf_perm
I0606 16:11:51.484114  7903 net.cpp:100] Creating Layer conv8_2_mbox_conf_perm
I0606 16:11:51.484120  7903 net.cpp:434] conv8_2_mbox_conf_perm <- conv8_2_mbox_conf
I0606 16:11:51.484130  7903 net.cpp:408] conv8_2_mbox_conf_perm -> conv8_2_mbox_conf_perm
I0606 16:11:51.484274  7903 net.cpp:150] Setting up conv8_2_mbox_conf_perm
I0606 16:11:51.484284  7903 net.cpp:157] Top shape: 4 3 3 16 (576)
I0606 16:11:51.484289  7903 net.cpp:165] Memory required for data: 992065952
I0606 16:11:51.484294  7903 layer_factory.hpp:77] Creating layer conv8_2_mbox_conf_flat
I0606 16:11:51.484303  7903 net.cpp:100] Creating Layer conv8_2_mbox_conf_flat
I0606 16:11:51.484323  7903 net.cpp:434] conv8_2_mbox_conf_flat <- conv8_2_mbox_conf_perm
I0606 16:11:51.484330  7903 net.cpp:408] conv8_2_mbox_conf_flat -> conv8_2_mbox_conf_flat
I0606 16:11:51.484360  7903 net.cpp:150] Setting up conv8_2_mbox_conf_flat
I0606 16:11:51.484369  7903 net.cpp:157] Top shape: 4 144 (576)
I0606 16:11:51.484372  7903 net.cpp:165] Memory required for data: 992068256
I0606 16:11:51.484376  7903 layer_factory.hpp:77] Creating layer conv8_2_mbox_priorbox
I0606 16:11:51.484385  7903 net.cpp:100] Creating Layer conv8_2_mbox_priorbox
I0606 16:11:51.484391  7903 net.cpp:434] conv8_2_mbox_priorbox <- conv8_2_conv8_2_relu_0_split_3
I0606 16:11:51.484397  7903 net.cpp:434] conv8_2_mbox_priorbox <- data_data_0_split_5
I0606 16:11:51.484407  7903 net.cpp:408] conv8_2_mbox_priorbox -> conv8_2_mbox_priorbox
I0606 16:11:51.484438  7903 net.cpp:150] Setting up conv8_2_mbox_priorbox
I0606 16:11:51.484446  7903 net.cpp:157] Top shape: 1 2 144 (288)
I0606 16:11:51.484462  7903 net.cpp:165] Memory required for data: 992069408
I0606 16:11:51.484467  7903 layer_factory.hpp:77] Creating layer conv9_2_mbox_loc
I0606 16:11:51.484480  7903 net.cpp:100] Creating Layer conv9_2_mbox_loc
I0606 16:11:51.484486  7903 net.cpp:434] conv9_2_mbox_loc <- conv9_2_conv9_2_relu_0_split_0
I0606 16:11:51.484494  7903 net.cpp:408] conv9_2_mbox_loc -> conv9_2_mbox_loc
I0606 16:11:51.486551  7903 net.cpp:150] Setting up conv9_2_mbox_loc
I0606 16:11:51.486560  7903 net.cpp:157] Top shape: 4 16 1 1 (64)
I0606 16:11:51.486563  7903 net.cpp:165] Memory required for data: 992069664
I0606 16:11:51.486569  7903 layer_factory.hpp:77] Creating layer conv9_2_mbox_loc_perm
I0606 16:11:51.486578  7903 net.cpp:100] Creating Layer conv9_2_mbox_loc_perm
I0606 16:11:51.486584  7903 net.cpp:434] conv9_2_mbox_loc_perm <- conv9_2_mbox_loc
I0606 16:11:51.486593  7903 net.cpp:408] conv9_2_mbox_loc_perm -> conv9_2_mbox_loc_perm
I0606 16:11:51.486748  7903 net.cpp:150] Setting up conv9_2_mbox_loc_perm
I0606 16:11:51.486758  7903 net.cpp:157] Top shape: 4 1 1 16 (64)
I0606 16:11:51.486763  7903 net.cpp:165] Memory required for data: 992069920
I0606 16:11:51.486768  7903 layer_factory.hpp:77] Creating layer conv9_2_mbox_loc_flat
I0606 16:11:51.486775  7903 net.cpp:100] Creating Layer conv9_2_mbox_loc_flat
I0606 16:11:51.486780  7903 net.cpp:434] conv9_2_mbox_loc_flat <- conv9_2_mbox_loc_perm
I0606 16:11:51.486801  7903 net.cpp:408] conv9_2_mbox_loc_flat -> conv9_2_mbox_loc_flat
I0606 16:11:51.486866  7903 net.cpp:150] Setting up conv9_2_mbox_loc_flat
I0606 16:11:51.486873  7903 net.cpp:157] Top shape: 4 16 (64)
I0606 16:11:51.486877  7903 net.cpp:165] Memory required for data: 992070176
I0606 16:11:51.486881  7903 layer_factory.hpp:77] Creating layer conv9_2_mbox_conf
I0606 16:11:51.486893  7903 net.cpp:100] Creating Layer conv9_2_mbox_conf
I0606 16:11:51.486899  7903 net.cpp:434] conv9_2_mbox_conf <- conv9_2_conv9_2_relu_0_split_1
I0606 16:11:51.486907  7903 net.cpp:408] conv9_2_mbox_conf -> conv9_2_mbox_conf
I0606 16:11:51.489850  7903 net.cpp:150] Setting up conv9_2_mbox_conf
I0606 16:11:51.489871  7903 net.cpp:157] Top shape: 4 16 1 1 (64)
I0606 16:11:51.489874  7903 net.cpp:165] Memory required for data: 992070432
I0606 16:11:51.489884  7903 layer_factory.hpp:77] Creating layer conv9_2_mbox_conf_perm
I0606 16:11:51.489914  7903 net.cpp:100] Creating Layer conv9_2_mbox_conf_perm
I0606 16:11:51.489919  7903 net.cpp:434] conv9_2_mbox_conf_perm <- conv9_2_mbox_conf
I0606 16:11:51.489928  7903 net.cpp:408] conv9_2_mbox_conf_perm -> conv9_2_mbox_conf_perm
I0606 16:11:51.490108  7903 net.cpp:150] Setting up conv9_2_mbox_conf_perm
I0606 16:11:51.490118  7903 net.cpp:157] Top shape: 4 1 1 16 (64)
I0606 16:11:51.490121  7903 net.cpp:165] Memory required for data: 992070688
I0606 16:11:51.490124  7903 layer_factory.hpp:77] Creating layer conv9_2_mbox_conf_flat
I0606 16:11:51.490145  7903 net.cpp:100] Creating Layer conv9_2_mbox_conf_flat
I0606 16:11:51.490150  7903 net.cpp:434] conv9_2_mbox_conf_flat <- conv9_2_mbox_conf_perm
I0606 16:11:51.490170  7903 net.cpp:408] conv9_2_mbox_conf_flat -> conv9_2_mbox_conf_flat
I0606 16:11:51.490228  7903 net.cpp:150] Setting up conv9_2_mbox_conf_flat
I0606 16:11:51.490237  7903 net.cpp:157] Top shape: 4 16 (64)
I0606 16:11:51.490242  7903 net.cpp:165] Memory required for data: 992070944
I0606 16:11:51.490244  7903 layer_factory.hpp:77] Creating layer conv9_2_mbox_priorbox
I0606 16:11:51.490252  7903 net.cpp:100] Creating Layer conv9_2_mbox_priorbox
I0606 16:11:51.490257  7903 net.cpp:434] conv9_2_mbox_priorbox <- conv9_2_conv9_2_relu_0_split_2
I0606 16:11:51.490262  7903 net.cpp:434] conv9_2_mbox_priorbox <- data_data_0_split_6
I0606 16:11:51.490270  7903 net.cpp:408] conv9_2_mbox_priorbox -> conv9_2_mbox_priorbox
I0606 16:11:51.490332  7903 net.cpp:150] Setting up conv9_2_mbox_priorbox
I0606 16:11:51.490340  7903 net.cpp:157] Top shape: 1 2 16 (32)
I0606 16:11:51.490344  7903 net.cpp:165] Memory required for data: 992071072
I0606 16:11:51.490346  7903 layer_factory.hpp:77] Creating layer mbox_loc
I0606 16:11:51.490396  7903 net.cpp:100] Creating Layer mbox_loc
I0606 16:11:51.490417  7903 net.cpp:434] mbox_loc <- conv4_3_norm_mbox_loc_flat
I0606 16:11:51.490423  7903 net.cpp:434] mbox_loc <- fc7_mbox_loc_flat
I0606 16:11:51.490429  7903 net.cpp:434] mbox_loc <- conv6_2_mbox_loc_flat
I0606 16:11:51.490435  7903 net.cpp:434] mbox_loc <- conv7_2_mbox_loc_flat
I0606 16:11:51.490440  7903 net.cpp:434] mbox_loc <- conv8_2_mbox_loc_flat
I0606 16:11:51.490461  7903 net.cpp:434] mbox_loc <- conv9_2_mbox_loc_flat
I0606 16:11:51.490471  7903 net.cpp:408] mbox_loc -> mbox_loc
I0606 16:11:51.490509  7903 net.cpp:150] Setting up mbox_loc
I0606 16:11:51.490516  7903 net.cpp:157] Top shape: 4 34928 (139712)
I0606 16:11:51.490520  7903 net.cpp:165] Memory required for data: 992629920
I0606 16:11:51.490526  7903 layer_factory.hpp:77] Creating layer mbox_conf
I0606 16:11:51.490532  7903 net.cpp:100] Creating Layer mbox_conf
I0606 16:11:51.490538  7903 net.cpp:434] mbox_conf <- conv4_3_norm_mbox_conf_flat
I0606 16:11:51.490545  7903 net.cpp:434] mbox_conf <- fc7_mbox_conf_flat
I0606 16:11:51.490551  7903 net.cpp:434] mbox_conf <- conv6_2_mbox_conf_flat
I0606 16:11:51.490557  7903 net.cpp:434] mbox_conf <- conv7_2_mbox_conf_flat
I0606 16:11:51.490562  7903 net.cpp:434] mbox_conf <- conv8_2_mbox_conf_flat
I0606 16:11:51.490568  7903 net.cpp:434] mbox_conf <- conv9_2_mbox_conf_flat
I0606 16:11:51.490576  7903 net.cpp:408] mbox_conf -> mbox_conf
I0606 16:11:51.490633  7903 net.cpp:150] Setting up mbox_conf
I0606 16:11:51.490639  7903 net.cpp:157] Top shape: 4 34928 (139712)
I0606 16:11:51.490643  7903 net.cpp:165] Memory required for data: 993188768
I0606 16:11:51.490646  7903 layer_factory.hpp:77] Creating layer mbox_priorbox
I0606 16:11:51.490653  7903 net.cpp:100] Creating Layer mbox_priorbox
I0606 16:11:51.490655  7903 net.cpp:434] mbox_priorbox <- conv4_3_norm_mbox_priorbox
I0606 16:11:51.490659  7903 net.cpp:434] mbox_priorbox <- fc7_mbox_priorbox
I0606 16:11:51.490664  7903 net.cpp:434] mbox_priorbox <- conv6_2_mbox_priorbox
I0606 16:11:51.490665  7903 net.cpp:434] mbox_priorbox <- conv7_2_mbox_priorbox
I0606 16:11:51.490669  7903 net.cpp:434] mbox_priorbox <- conv8_2_mbox_priorbox
I0606 16:11:51.490670  7903 net.cpp:434] mbox_priorbox <- conv9_2_mbox_priorbox
I0606 16:11:51.490674  7903 net.cpp:408] mbox_priorbox -> mbox_priorbox
I0606 16:11:51.490695  7903 net.cpp:150] Setting up mbox_priorbox
I0606 16:11:51.490701  7903 net.cpp:157] Top shape: 1 2 34928 (69856)
I0606 16:11:51.490705  7903 net.cpp:165] Memory required for data: 993468192
I0606 16:11:51.490710  7903 layer_factory.hpp:77] Creating layer mbox_loss
I0606 16:11:51.490720  7903 net.cpp:100] Creating Layer mbox_loss
I0606 16:11:51.490725  7903 net.cpp:434] mbox_loss <- mbox_loc
I0606 16:11:51.490728  7903 net.cpp:434] mbox_loss <- mbox_conf
I0606 16:11:51.490733  7903 net.cpp:434] mbox_loss <- mbox_priorbox
…
  name: "data"
  type: "AnnotatedData"
  top: "data"
  top: "label"
  include {
    phase: TEST
  }
  transform_param {
    mean_value: 114
    resize_param {
      prob: 1
      resize_mode: WARP
      height: 300
      width: 300
      interp_mode: LINEAR
    }
  }
  data_param {
    source: "examples/grayscale_tbs_300x300_HSIL_10x/grayscale_tbs_300x300_HSIL_10x_test_lmdb"
    batch_size: 4
    backend: LMDB
  }
  annotated_data_param {
    batch_sampler {
    }
    label_map_file: "data/grayscale_tbs_300x300_HSIL_10x/labelmap_voc.prototxt"
  }
}
layer {
  name: "conv1_1"
  type: "Convolution"
  bottom: "data"
  top: "conv1_1"
  param {
    lr_mult: 1
    decay_mult: 1
  }
  param {
    lr_mult: 2
    decay_mult: 0
  }
  convolution_param {
    num_output: 64
    pad: 1
    kernel_size: 3
    weight_filler {
      type: "xavier"
    }
    bias_filler {
      type: "constant"
      value: 0
    }
  }
}
layer {
  name: "relu1_1"
  type: "ReLU"
  bottom: "conv1_1"
  top: "conv1_1"
}
layer {
  name: "conv1_2"
  type: "Convolution"
  bottom: "conv1_1"
  top: "conv1_2"
  param {
    lr_mult: 1
    decay_mult: 1
  }
  param {
    lr_mult: 2
    decay_mult: 0
  }
  convolution_param {
    num_output: 64
    pad: 1
    kernel_size: 3
    weight_filler {
      type: "xavier"
    }
    bias_filler {
      type: "constant"
      value: 0
    }
  }
}
layer {
  name: "relu1_2"
  type: "ReLU"
  bottom: "conv1_2"
  top: "conv1_2"
}
layer {
  name: "pool1"
  type: "Pooling"
  bottom: "conv1_2"
  top: "pool1"
  pooling_param {
    pool: MAX
    kernel_size: 2
    stride: 2
  }
}
layer {
  name: "conv2_1"
  type: "Convolution"
  bottom: "pool1"
  top: "conv2_1"
  param {
    lr_mult: 1
    decay_mult: 1
  }
  param {
    lr_mult: 2
    decay_mult: 0
  }
  convolution_param {
    num_output: 128
    pad: 1
    kernel_size: 3
    weight_filler {
      type: "xavier"
    }
    bias_filler {
      type: "constant"
      value: 0
    }
  }
}
layer {
  name: "relu2_1"
  type: "ReLU"
  bottom: "conv2_1"
  top: "conv2_1"
}
layer {
  name: "conv2_2"
  type: "Convolution"
  bottom: "conv2_1"
  top: "conv2_2"
  param {
    lr_mult: 1
    decay_mult: 1
  }
  param {
    lr_mult: 2
    decay_mult: 0
  }
  convolution_param {
    num_output: 128
    pad: 1
    kernel_size: 3
    weight_filler {
      type: "xavier"
    }
    bias_filler {
      type: "constant"
      value: 0
    }
  }
}
layer {
  name: "relu2_2"
  type: "ReLU"
  bottom: "conv2_2"
  top: "conv2_2"
}
layer {
  name: "pool2"
  type: "Pooling"
  bottom: "conv2_2"
  top: "pool2"
  pooling_param {
    pool: MAX
    kernel_size: 2
    stride: 2
  }
}
layer {
  name: "conv3_1"
  type: "Convolution"
  bottom: "pool2"
  top: "conv3_1"
  param {
    lr_mult: 1
    decay_mult: 1
  }
  param {
    lr_mult: 2
    decay_mult: 0
  }
  convolution_param {
    num_output: 256
    pad: 1
    kernel_size: 3
    weight_filler {
      type: "xavier"
    }
    bias_filler {
      type: "constant"
      value: 0
    }
  }
}
layer {
  name: "relu3_1"
  type: "ReLU"
  bottom: "conv3_1"
  top: "conv3_1"
}
layer {
  name: "conv3_2"
  type: "Convolution"
  bottom: "conv3_1"
  top: "conv3_2"
  param {
    lr_mult: 1
    decay_mult: 1
  }
  param {
    lr_mult: 2
    decay_mult: 0
  }
  convolution_param {
    num_output: 256
    pad: 1
    kernel_size: 3
    weight_filler {
      type: "xavier"
    }
    bias_filler {
      type: "constant"
      value: 0
    }
  }
}
layer {
  name: "relu3_2"
  type: "ReLU"
  bottom: "conv3_2"
  top: "conv3_2"
}
layer {
  name: "conv3_3"
  type: "Convolution"
  bottom: "conv3_2"
  top: "conv3_3"
  param {
    lr_mult: 1
    decay_mult: 1
  }
  param {
    lr_mult: 2
    decay_mult: 0
  }
  convolution_param {
    num_output: 256
    pad: 1
    kernel_size: 3
    weight_filler {
      type: "xavier"
    }
    bias_filler {
      type: "constant"
      value: 0
    }
  }
}
layer {
  name: "relu3_3"
  type: "ReLU"
  bottom: "conv3_3"
  top: "conv3_3"
}
layer {
  name: "pool3"
  type: "Pooling"
  bottom: "conv3_3"
  top: "pool3"
  pooling_param {
    pool: MAX
    kernel_size: 2
    stride: 2
  }
}
layer {
  name: "conv4_1"
  type: "Convolution"
  bottom: "pool3"
  top: "conv4_1"
  param {
    lr_mult: 1
    decay_mult: 1
  }
  param {
    lr_mult: 2
    decay_mult: 0
  }
  convolution_param {
    num_output: 512
    pad: 1
    kernel_size: 3
    weight_filler {
      type: "xavier"
    }
    bias_filler {
      type: "constant"
      value: 0
    }
  }
}
layer {
  name: "relu4_1"
  type: "ReLU"
  bottom: "conv4_1"
  top: "conv4_1"
}
layer {
  name: "conv4_2"
  type: "Convolution"
  bottom: "conv4_1"
  top: "conv4_2"
  param {
    lr_mult: 1
    decay_mult: 1
  }
  param {
    lr_mult: 2
    decay_mult: 0
  }
  convolution_param {
    num_output: 512
    pad: 1
    kernel_size: 3
    weight_filler {
      type: "xavier"
    }
    bias_filler {
      type: "constant"
      value: 0
    }
  }
}
layer {
  name: "relu4_2"
  type: "ReLU"
  bottom: "conv4_2"
  top: "conv4_2"
}
layer {
  name: "conv4_3"
  type: "Convolution"
  bottom: "conv4_2"
  top: "conv4_3"
  param {
    lr_mult: 1
    decay_mult: 1
  }
  param {
    lr_mult: 2
    decay_mult: 0
  }
  convolution_param {
    num_output: 512
    pad: 1
    kernel_size: 3
    weight_filler {
      type: "xavier"
    }
    bias_filler {
      type: "constant"
      value: 0
    }
  }
}
layer {
  name: "relu4_3"
  type: "ReLU"
  bottom: "conv4_3"
  top: "conv4_3"
}
layer {
  name: "pool4"
  type: "Pooling"
  bottom: "conv4_3"
  top: "pool4"
  pooling_param {
    pool: MAX
    kernel_size: 2
    stride: 2
  }
}
layer {
  name: "conv5_1"
  type: "Convolution"
  bottom: "pool4"
  top: "conv5_1"
  param {
    lr_mult: 1
    decay_mult: 1
  }
  param {
    lr_mult: 2
    decay_mult: 0
  }
  convolution_param {
    num_output: 512
    pad: 1
    kernel_size: 3
    weight_filler {
      type: "xavier"
    }
    bias_filler {
      type: "constant"
      value: 0
    }
    dilation: 1
  }
}
layer {
  name: "relu5_1"
  type: "ReLU"
  bottom: "conv5_1"
  top: "conv5_1"
}
layer {
  name: "conv5_2"
  type: "Convolution"
  bottom: "conv5_1"
  top: "conv5_2"
  param {
    lr_mult: 1
    decay_mult: 1
  }
  param {
    lr_mult: 2
    decay_mult: 0
  }
  convolution_param {
    num_output: 512
    pad: 1
    kernel_size: 3
    weight_filler {
      type: "xavier"
    }
    bias_filler {
      type: "constant"
      value: 0
    }
    dilation: 1
  }
}
layer {
  name: "relu5_2"
  type: "ReLU"
  bottom: "conv5_2"
  top: "conv5_2"
}
layer {
  name: "conv5_3"
  type: "Convolution"
  bottom: "conv5_2"
  top: "conv5_3"
  param {
    lr_mult: 1
    decay_mult: 1
  }
  param {
    lr_mult: 2
    decay_mult: 0
  }
  convolution_param {
    num_output: 512
    pad: 1
    kernel_size: 3
    weight_filler {
      type: "xavier"
    }
    bias_filler {
      type: "constant"
      value: 0
    }
    dilation: 1
  }
}
layer {
  name: "relu5_3"
  type: "ReLU"
  bottom: "conv5_3"
  top: "conv5_3"
}
layer {
  name: "pool5"
  type: "Pooling"
  bottom: "conv5_3"
  top: "pool5"
  pooling_param {
    pool: MAX
    kernel_size: 3
    stride: 1
    pad: 1
  }
}
layer {
  name: "fc6"
  type: "Convolution"
  bottom: "pool5"
  top: "fc6"
  param {
    lr_mult: 1
    decay_mult: 1
  }
  param {
    lr_mult: 2
    decay_mult: 0
  }
  convolution_param {
    num_output: 1024
    pad: 6
    kernel_size: 3
    weight_filler {
      type: "xavier"
    }
    bias_filler {
      type: "constant"
      value: 0
    }
    dilation: 6
  }
}
layer {
  name: "relu6"
  type: "ReLU"
  bottom: "fc6"
  top: "fc6"
}
layer {
  name: "fc7"
  type: "Convolution"
  bottom: "fc6"
  top: "fc7"
  param {
    lr_mult: 1
    decay_mult: 1
  }
  param {
    lr_mult: 2
    decay_mult: 0
  }
  convolution_param {
    num_output: 1024
    kernel_size: 1
    weight_filler {
      type: "xavier"
    }
    bias_filler {
      type: "constant"
      value: 0
    }
  }
}
layer {
  name: "relu7"
  type: "ReLU"
  bottom: "fc7"
  top: "fc7"
}
layer {
  name: "conv6_1"
  type: "Convolution"
  bottom: "fc7"
  top: "conv6_1"
  param {
    lr_mult: 1
    decay_mult: 1
  }
  param {
    lr_mult: 2
    decay_mult: 0
  }
  convolution_param {
    num_output: 256
    pad: 0
    kernel_size: 1
    stride: 1
    weight_filler {
      type: "xavier"
    }
    bias_filler {
      type: "constant"
      value: 0
    }
  }
}
layer {
  name: "conv6_1_relu"
  type: "ReLU"
  bottom: "conv6_1"
  top: "conv6_1"
}
layer {
  name: "conv6_2"
  type: "Convolution"
  bottom: "conv6_1"
  top: "conv6_2"
  param {
    lr_mult: 1
    decay_mult: 1
  }
  param {
    lr_mult: 2
    decay_mult: 0
  }
  convolution_param {
    num_output: 512
    pad: 1
    kernel_size: 3
    stride: 2
    weight_filler {
      type: "xavier"
    }
    bias_filler {
      type: "constant"
      value: 0
    }
  }
}
layer {
  name: "conv6_2_relu"
  type: "ReLU"
  bottom: "conv6_2"
  top: "conv6_2"
}
layer {
  name: "conv7_1"
  type: "Convolution"
  bottom: "conv6_2"
  top: "conv7_1"
  param {
    lr_mult: 1
    decay_mult: 1
  }
  param {
    lr_mult: 2
    decay_mult: 0
  }
  convolution_param {
    num_output: 128
    pad: 0
    kernel_size: 1
    stride: 1
    weight_filler {
      type: "xavier"
    }
    bias_filler {
      type: "constant"
      value: 0
    }
  }
}
layer {
  name: "conv7_1_relu"
  type: "ReLU"
  bottom: "conv7_1"
  top: "conv7_1"
}
layer {
  name: "conv7_2"
  type: "Convolution"
  bottom: "conv7_1"
  top: "conv7_2"
  param {
    lr_mult: 1
    decay_mult: 1
  }
  param {
    lr_mult: 2
    decay_mult: 0
  }
  convolution_param {
    num_output: 256
    pad: 1
    kernel_size: 3
    stride: 2
    weight_filler {
      type: "xavier"
    }
    bias_filler {
      type: "constant"
      value: 0
    }
  }
}
layer {
  name: "conv7_2_relu"
  type: "ReLU"
  bottom: "conv7_2"
  top: "conv7_2"
}
layer {
  name: "conv8_1"
  type: "Convolution"
  bottom: "conv7_2"
  top: "conv8_1"
  param {
    lr_mult: 1
    decay_mult: 1
  }
  param {
    lr_mult: 2
    decay_mult: 0
  }
  convolution_param {
    num_output: 128
    pad: 0
    kernel_size: 1
    stride: 1
    weight_filler {
      type: "xavier"
    }
    bias_filler {
      type: "constant"
      value: 0
    }
  }
}
layer {
  name: "conv8_1_relu"
  type: "ReLU"
  bottom: "conv8_1"
  top: "conv8_1"
}
layer {
  name: "conv8_2"
  type: "Convolution"
  bottom: "conv8_1"
  top: "conv8_2"
  param {
    lr_mult: 1
    decay_mult: 1
  }
  param {
    lr_mult: 2
    decay_mult: 0
  }
  convolution_param {
    num_output: 256
    pad: 0
    kernel_size: 3
    stride: 1
    weight_filler {
      type: "xavier"
    }
    bias_filler {
      type: "constant"
      value: 0
    }
  }
}
layer {
  name: "conv8_2_relu"
  type: "ReLU"
  bottom: "conv8_2"
  top: "conv8_2"
}
layer {
  name: "conv9_1"
  type: "Convolution"
  bottom: "conv8_2"
  top: "conv9_1"
  param {
    lr_mult: 1
    decay_mult: 1
  }
  param {
    lr_mult: 2
    decay_mult: 0
  }
  convolution_param {
    num_output: 128
    pad: 0
    kernel_size: 1
    stride: 1
    weight_filler {
      type: "xavier"
    }
    bias_filler {
      type: "constant"
      value: 0
    }
  }
}
layer {
  name: "conv9_1_relu"
  type: "ReLU"
  bottom: "conv9_1"
  top: "conv9_1"
}
layer {
  name: "conv9_2"
  type: "Convolution"
  bottom: "conv9_1"
  top: "conv9_2"
  param {
    lr_mult: 1
    decay_mult: 1
  }
  param {
    lr_mult: 2
    decay_mult: 0
  }
  convolution_param {
    num_output: 256
    pad: 0
    kernel_size: 3
    stride: 1
    weight_filler {
      type: "xavier"
    }
    bias_filler {
      type: "constant"
      value: 0
    }
  }
}
layer {
  name: "conv9_2_relu"
  type: "ReLU"
  bottom: "conv9_2"
  top: "conv9_2"
}
layer {
  name: "conv4_3_norm"
  type: "Normalize"
  bottom: "conv4_3"
  top: "conv4_3_norm"
  norm_param {
    across_spatial: false
    scale_filler {
      type: "constant"
      value: 20
    }
    channel_shared: false
  }
}
layer {
  name: "conv4_3_norm_mbox_loc"
  type: "Convolution"
  bottom: "conv4_3_norm"
  top: "conv4_3_norm_mbox_loc"
  param {
    lr_mult: 1
    decay_mult: 1
  }
  param {
    lr_mult: 2
    decay_mult: 0
  }
  convolution_param {
    num_output: 16
    pad: 1
    kernel_size: 3
    stride: 1
    weight_filler {
      type: "xavier"
    }
    bias_filler {
      type: "constant"
      value: 0
    }
  }
}
layer {
  name: "conv4_3_norm_mbox_loc_perm"
  type: "Permute"
  bottom: "conv4_3_norm_mbox_loc"
  top: "conv4_3_norm_mbox_loc_perm"
  permute_param {
    order: 0
    order: 2
    order: 3
    order: 1
  }
}
layer {
  name: "conv4_3_norm_mbox_loc_flat"
  type: "Flatten"
  bottom: "conv4_3_norm_mbox_loc_perm"
  top: "conv4_3_norm_mbox_loc_flat"
  flatten_param {
    axis: 1
  }
}
layer {
  name: "conv4_3_norm_mbox_conf"
  type: "Convolution"
  bottom: "conv4_3_norm"
  top: "conv4_3_norm_mbox_conf"
  param {
    lr_mult: 1
    decay_mult: 1
  }
  param {
    lr_mult: 2
    decay_mult: 0
  }
  convolution_param {
    num_output: 16
    pad: 1
    kernel_size: 3
    stride: 1
    weight_filler {
      type: "xavier"
    }
    bias_filler {
      type: "constant"
      value: 0
    }
  }
}
layer {
  name: "conv4_3_norm_mbox_conf_perm"
  type: "Permute"
  bottom: "conv4_3_norm_mbox_conf"
  top: "conv4_3_norm_mbox_conf_perm"
  permute_param {
    order: 0
    order: 2
    order: 3
    order: 1
  }
}
layer {
  name: "conv4_3_norm_mbox_conf_flat"
  type: "Flatten"
  bottom: "conv4_3_norm_mbox_conf_perm"
  top: "conv4_3_norm_mbox_conf_flat"
  flatten_param {
    axis: 1
  }
}
layer {
  name: "conv4_3_norm_mbox_priorbox"
  type: "PriorBox"
  bottom: "conv4_3_norm"
  bottom: "data"
  top: "conv4_3_norm_mbox_priorbox"
  prior_box_param {
    min_size: 30
    max_size: 60
    aspect_ratio: 2
    flip: true
    clip: false
    variance: 0.1
    variance: 0.1
    variance: 0.2
    variance: 0.2
    step: 8
    offset: 0.5
  }
}
layer {
  name: "fc7_mbox_loc"
  type: "Convolution"
  bottom: "fc7"
  top: "fc7_mbox_loc"
  param {
    lr_mult: 1
    decay_mult: 1
  }
  param {
    lr_mult: 2
    decay_mult: 0
  }
  convolution_param {
    num_output: 24
    pad: 1
    kernel_size: 3
    stride: 1
    weight_filler {
      type: "xavier"
    }
    bias_filler {
      type: "constant"
      value: 0
    }
  }
}
layer {
  name: "fc7_mbox_loc_perm"
  type: "Permute"
  bottom: "fc7_mbox_loc"
  top: "fc7_mbox_loc_perm"
  permute_param {
    order: 0
    order: 2
    order: 3
    order: 1
  }
}
layer {
  name: "fc7_mbox_loc_flat"
  type: "Flatten"
  bottom: "fc7_mbox_loc_perm"
  top: "fc7_mbox_loc_flat"
  flatten_param {
    axis: 1
  }
}
layer {
  name: "fc7_mbox_conf"
  type: "Convolution"
  bottom: "fc7"
  top: "fc7_mbox_conf"
  param {
    lr_mult: 1
    decay_mult: 1
  }
  param {
    lr_mult: 2
    decay_mult: 0
  }
  convolution_param {
    num_output: 24
    pad: 1
    kernel_size: 3
    stride: 1
    weight_filler {
      type: "xavier"
    }
    bias_filler {
      type: "constant"
      value: 0
    }
  }
}
layer {
  name: "fc7_mbox_conf_perm"
  type: "Permute"
  bottom: "fc7_mbox_conf"
  top: "fc7_mbox_conf_perm"
  permute_param {
    order: 0
    order: 2
    order: 3
    order: 1
  }
}
layer {
  name: "fc7_mbox_conf_flat"
  type: "Flatten"
  bottom: "fc7_mbox_conf_perm"
  top: "fc7_mbox_conf_flat"
  flatten_param {
    axis: 1
  }
}
layer {
  name: "fc7_mbox_priorbox"
  type: "PriorBox"
  bottom: "fc7"
  bottom: "data"
  top: "fc7_mbox_priorbox"
  prior_box_param {
    min_size: 60
    max_size: 111
    aspect_ratio: 2
    aspect_ratio: 3
    flip: true
    clip: false
    variance: 0.1
    variance: 0.1
    variance: 0.2
    variance: 0.2
    step: 16
    offset: 0.5
  }
}
layer {
  name: "conv6_2_mbox_loc"
  type: "Convolution"
  bottom: "conv6_2"
  top: "conv6_2_mbox_loc"
  param {
    lr_mult: 1
    decay_mult: 1
  }
  param {
    lr_mult: 2
    decay_mult: 0
  }
  convolution_param {
    num_output: 24
    pad: 1
    kernel_size: 3
    stride: 1
    weight_filler {
      type: "xavier"
    }
    bias_filler {
      type: "constant"
      value: 0
    }
  }
}
layer {
  name: "conv6_2_mbox_loc_perm"
  type: "Permute"
  bottom: "conv6_2_mbox_loc"
  top: "conv6_2_mbox_loc_perm"
  permute_param {
    order: 0
    order: 2
    order: 3
    order: 1
  }
}
layer {
  name: "conv6_2_mbox_loc_flat"
  type: "Flatten"
  bottom: "conv6_2_mbox_loc_perm"
  top: "conv6_2_mbox_loc_flat"
  flatten_param {
    axis: 1
  }
}
layer {
  name: "conv6_2_mbox_conf"
  type: "Convolution"
  bottom: "conv6_2"
  top: "conv6_2_mbox_conf"
  param {
    lr_mult: 1
    decay_mult: 1
  }
  param {
    lr_mult: 2
    decay_mult: 0
  }
  convolution_param {
    num_output: 24
    pad: 1
    kernel_size: 3
    stride: 1
    weight_filler {
      type: "xavier"
    }
    bias_filler {
      type: "constant"
      value: 0
    }
  }
}
layer {
  name: "conv6_2_mbox_conf_perm"
  type: "Permute"
  bottom: "conv6_2_mbox_conf"
  top: "conv6_2_mbox_conf_perm"
  permute_param {
    order: 0
    order: 2
    order: 3
    order: 1
  }
}
layer {
  name: "conv6_2_mbox_conf_flat"
  type: "Flatten"
  bottom: "conv6_2_mbox_conf_perm"
  top: "conv6_2_mbox_conf_flat"
  flatten_param {
    axis: 1
  }
}
layer {
  name: "conv6_2_mbox_priorbox"
  type: "PriorBox"
  bottom: "conv6_2"
  bottom: "data"
  top: "conv6_2_mbox_priorbox"
  prior_box_param {
    min_size: 111
    max_size: 162
    aspect_ratio: 2
    aspect_ratio: 3
    flip: true
    clip: false
    variance: 0.1
    variance: 0.1
    variance: 0.2
    variance: 0.2
    step: 32
    offset: 0.5
  }
}
layer {
  name: "conv7_2_mbox_loc"
  type: "Convolution"
  bottom: "conv7_2"
  top: "conv7_2_mbox_loc"
  param {
    lr_mult: 1
    decay_mult: 1
  }
  param {
    lr_mult: 2
    decay_mult: 0
  }
  convolution_param {
    num_output: 24
    pad: 1
    kernel_size: 3
    stride: 1
    weight_filler {
      type: "xavier"
    }
    bias_filler {
      type: "constant"
      value: 0
    }
  }
}
layer {
  name: "conv7_2_mbox_loc_perm"
  type: "Permute"
  bottom: "conv7_2_mbox_loc"
  top: "conv7_2_mbox_loc_perm"
  permute_param {
    order: 0
    order: 2
    order: 3
    order: 1
  }
}
layer {
  name: "conv7_2_mbox_loc_flat"
  type: "Flatten"
  bottom: "conv7_2_mbox_loc_perm"
  top: "conv7_2_mbox_loc_flat"
  flatten_param {
    axis: 1
  }
}
layer {
  name: "conv7_2_mbox_conf"
  type: "Convolution"
  bottom: "conv7_2"
  top: "conv7_2_mbox_conf"
  param {
    lr_mult: 1
    decay_mult: 1
  }
  param {
    lr_mult: 2
    decay_mult: 0
  }
  convolution_param {
    num_output: 24
    pad: 1
    kernel_size: 3
    stride: 1
    weight_filler {
      type: "xavier"
    }
    bias_filler {
      type: "constant"
      value: 0
    }
  }
}
layer {
  name: "conv7_2_mbox_conf_perm"
  type: "Permute"
  bottom: "conv7_2_mbox_conf"
  top: "conv7_2_mbox_conf_perm"
  permute_param {
    order: 0
    order: 2
    order: 3
    order: 1
  }
}
layer {
  name: "conv7_2_mbox_conf_flat"
  type: "Flatten"
  bottom: "conv7_2_mbox_conf_perm"
  top: "conv7_2_mbox_conf_flat"
  flatten_param {
    axis: 1
  }
}
layer {
  name: "conv7_2_mbox_priorbox"
  type: "PriorBox"
  bottom: "conv7_2"
  bottom: "data"
  top: "conv7_2_mbox_priorbox"
  prior_box_param {
    min_size: 162
    max_size: 213
    aspect_ratio: 2
    aspect_ratio: 3
    flip: true
    clip: false
    variance: 0.1
    variance: 0.1
    variance: 0.2
    variance: 0.2
    step: 64
    offset: 0.5
  }
}
layer {
  name: "conv8_2_mbox_loc"
  type: "Convolution"
  bottom: "conv8_2"
  top: "conv8_2_mbox_loc"
  param {
    lr_mult: 1
    decay_mult: 1
  }
  param {
    lr_mult: 2
    decay_mult: 0
  }
  convolution_param {
    num_output: 16
    pad: 1
    kernel_size: 3
    stride: 1
    weight_filler {
      type: "xavier"
    }
    bias_filler {
      type: "constant"
      value: 0
    }
  }
}
layer {
  name: "conv8_2_mbox_loc_perm"
  type: "Permute"
  bottom: "conv8_2_mbox_loc"
  top: "conv8_2_mbox_loc_perm"
  permute_param {
    order: 0
    order: 2
    order: 3
    order: 1
  }
}
layer {
  name: "conv8_2_mbox_loc_flat"
  type: "Flatten"
  bottom: "conv8_2_mbox_loc_perm"
  top: "conv8_2_mbox_loc_flat"
  flatten_param {
    axis: 1
  }
}
layer {
  name: "conv8_2_mbox_conf"
  type: "Convolution"
  bottom: "conv8_2"
  top: "conv8_2_mbox_conf"
  param {
    lr_mult: 1
    decay_mult: 1
  }
  param {
    lr_mult: 2
    decay_mult: 0
  }
  convolution_param {
    num_output: 16
    pad: 1
    kernel_size: 3
    stride: 1
    weight_filler {
      type: "xavier"
    }
    bias_filler {
      type: "constant"
      value: 0
    }
  }
}
layer {
  name: "conv8_2_mbox_conf_perm"
  type: "Permute"
  bottom: "conv8_2_mbox_conf"
  top: "conv8_2_mbox_conf_perm"
  permute_param {
    order: 0
    order: 2
    order: 3
    order: 1
  }
}
layer {
  name: "conv8_2_mbox_conf_flat"
  type: "Flatten"
  bottom: "conv8_2_mbox_conf_perm"
  top: "conv8_2_mbox_conf_flat"
  flatten_param {
    axis: 1
  }
}
layer {
  name: "conv8_2_mbox_priorbox"
  type: "PriorBox"
  bottom: "conv8_2"
  bottom: "data"
  top: "conv8_2_mbox_priorbox"
  prior_box_param {
    min_size: 213
    max_size: 264
    aspect_ratio: 2
    flip: true
    clip: false
    variance: 0.1
    variance: 0.1
    variance: 0.2
    variance: 0.2
    step: 100
    offset: 0.5
  }
}
layer {
  name: "conv9_2_mbox_loc"
  type: "Convolution"
  bottom: "conv9_2"
  top: "conv9_2_mbox_loc"
  param {
    lr_mult: 1
    decay_mult: 1
  }
  param {
    lr_mult: 2
    decay_mult: 0
  }
  convolution_param {
    num_output: 16
    pad: 1
    kernel_size: 3
    stride: 1
    weight_filler {
      type: "xavier"
    }
    bias_filler {
      type: "constant"
      value: 0
    }
  }
}
layer {
  name: "conv9_2_mbox_loc_perm"
  type: "Permute"
  bottom: "conv9_2_mbox_loc"
  top: "conv9_2_mbox_loc_perm"
  permute_param {
    order: 0
    order: 2
    order: 3
    order: 1
  }
}
layer {
  name: "conv9_2_mbox_loc_flat"
  type: "Flatten"
  bottom: "conv9_2_mbox_loc_perm"
  top: "conv9_2_mbox_loc_flat"
  flatten_param {
    axis: 1
  }
}
layer {
  name: "conv9_2_mbox_conf"
  type: "Convolution"
  bottom: "conv9_2"
  top: "conv9_2_mbox_conf"
  param {
    lr_mult: 1
    decay_mult: 1
  }
  param {
    lr_mult: 2
    decay_mult: 0
  }
  convolution_param {
    num_output: 16
    pad: 1
    kernel_size: 3
    stride: 1
    weight_filler {
      type: "xavier"
    }
    bias_filler {
      type: "constant"
      value: 0
    }
  }
}
layer {
  name: "conv9_2_mbox_conf_perm"
  type: "Permute"
  bottom: "conv9_2_mbox_conf"
  top: "conv9_2_mbox_conf_perm"
  permute_param {
    order: 0
    order: 2
    order: 3
    order: 1
  }
}
layer {
  name: "conv9_2_mbox_conf_flat"
  type: "Flatten"
  bottom: "conv9_2_mbox_conf_perm"
  top: "conv9_2_mbox_conf_flat"
  flatten_param {
    axis: 1
  }
}
layer {
  name: "conv9_2_mbox_priorbox"
  type: "PriorBox"
  bottom: "conv9_2"
  bottom: "data"
  top: "conv9_2_mbox_priorbox"
  prior_box_param {
    min_size: 264
    max_size: 315
    aspect_ratio: 2
    flip: true
    clip: false
    variance: 0.1
    variance: 0.1
    variance: 0.2
    variance: 0.2
    step: 300
    offset: 0.5
  }
}
layer {
  name: "mbox_loc"
  type: "Concat"
  bottom: "conv4_3_norm_mbox_loc_flat"
  bottom: "fc7_mbox_loc_flat"
  bottom: "conv6_2_mbox_loc_flat"
  bottom: "conv7_2_mbox_loc_flat"
  bottom: "conv8_2_mbox_loc_flat"
  bottom: "conv9_2_mbox_loc_flat"
  top: "mbox_loc"
  concat_param {
    axis: 1
  }
}
layer {
  name: "mbox_conf"
  type: "Concat"
  bottom: "conv4_3_norm_mbox_conf_flat"
  bottom: "fc7_mbox_conf_flat"
  bottom: "conv6_2_mbox_conf_flat"
  bottom: "conv7_2_mbox_conf_flat"
  bottom: "conv8_2_mbox_conf_flat"
  bottom: "conv9_2_mbox_conf_flat"
  top: "mbox_conf"
  concat_param {
    axis: 1
  }
}
layer {
  name: "mbox_priorbox"
  type: "Concat"
  bottom: "conv4_3_norm_mbox_priorbox"
  bottom: "fc7_mbox_priorbox"
  bottom: "conv6_2_mbox_priorbox"
  bottom: "conv7_2_mbox_priorbox"
  bottom: "conv8_2_mbox_priorbox"
  bottom: "conv9_2_mbox_priorbox"
  top: "mbox_priorbox"
  concat_param {
    axis: 2
  }
}
layer {
  name: "mbox_conf_reshape"
  type: "Reshape"
  bottom: "mbox_conf"
  top: "mbox_conf_reshape"
  reshape_param {
    shape {
      dim: 0
      dim: -1
      dim: 4
    }
  }
}
layer {
  name: "mbox_conf_softmax"
  type: "Softmax"
  bottom: "mbox_conf_reshape"
  top: "mbox_conf_softmax"
  softmax_param {
    axis: 2
  }
}
layer {
  name: "mbox_conf_flatten"
  type: "Flatten"
  bottom: "mbox_conf_softmax"
  top: "mbox_conf_flatten"
  flatten_param {
    axis: 1
  }
}
layer {
  name: "detection_out"
  type: "DetectionOutput"
  bottom: "mbox_loc"
  bottom: "mbox_conf_flatten"
  bottom: "mbox_priorbox"
  top: "detection_out"
  include {
    phase: TEST
  }
  detection_output_param {
    num_classes: 4
    share_location: true
    background_label_id: 0
    nms_param {
      nms_threshold: 0.45
      top_k: 400
    }
    save_output_param {
      output_directory: "/home/shangzw/data/grayscale_tbs/results/tbs/SSD_300x300/Main"
      output_name_prefix: "comp4_det_test_"
      output_format: "VOC"
      label_map_file: "data/grayscale_tbs_300x300_HSIL_10x/labelmap_voc.prototxt"
      name_size_file: "data/grayscale_tbs_300x300_HSIL_10x/test_name_size"
      num_test_image: 100
    }
    code_type: CENTER_SIZE
    keep_top_k: 200
    confidence_threshold: 0.01
  }
}
layer {
  name: "detection_eval"
  type: "DetectionEvaluate"
  bottom: "detection_out"
  bottom: "label"
  top: "detection_eval"
  include {
    phase: TEST
  }
  detection_evaluate_param {
    num_classes: 4
    background_label_id: 0
    overlap_threshold: 0.5
    evaluate_difficult_gt: false
    name_size_file: "data/grayscale_tbs_300x300_HSIL_10x/test_name_size"
  }
}
I0606 16:11:51.494581  7903 layer_factory.hpp:77] Creating layer data
I0606 16:11:51.494642  7903 net.cpp:100] Creating Layer data
I0606 16:11:51.494653  7903 net.cpp:408] data -> data
I0606 16:11:51.494664  7903 net.cpp:408] data -> label
I0606 16:11:51.495061  7933 db_lmdb.cpp:35] Opened lmdb examples/grayscale_tbs_300x300_HSIL_10x/grayscale_tbs_300x300_HSIL_10x_test_lmdb
I0606 16:11:51.496515  7903 annotated_data_layer.cpp:62] output data size: 4,3,300,300
I0606 16:11:51.506768  7903 net.cpp:150] Setting up data
I0606 16:11:51.506801  7903 net.cpp:157] Top shape: 4 3 300 300 (1080000)
I0606 16:11:51.506806  7903 net.cpp:157] Top shape: 1 1 1 8 (8)
I0606 16:11:51.506808  7903 net.cpp:165] Memory required for data: 4320032
I0606 16:11:51.506813  7903 layer_factory.hpp:77] Creating layer data_data_0_split
I0606 16:11:51.506839  7903 net.cpp:100] Creating Layer data_data_0_split
I0606 16:11:51.506842  7903 net.cpp:434] data_data_0_split <- data
I0606 16:11:51.506863  7903 net.cpp:408] data_data_0_split -> data_data_0_split_0
I0606 16:11:51.506875  7903 net.cpp:408] data_data_0_split -> data_data_0_split_1
I0606 16:11:51.506880  7903 net.cpp:408] data_data_0_split -> data_data_0_split_2
I0606 16:11:51.506888  7903 net.cpp:408] data_data_0_split -> data_data_0_split_3
I0606 16:11:51.506894  7903 net.cpp:408] data_data_0_split -> data_data_0_split_4
I0606 16:11:51.506901  7903 net.cpp:408] data_data_0_split -> data_data_0_split_5
I0606 16:11:51.506906  7903 net.cpp:408] data_data_0_split -> data_data_0_split_6
I0606 16:11:51.507143  7903 net.cpp:150] Setting up data_data_0_split
I0606 16:11:51.507154  7903 net.cpp:157] Top shape: 4 3 300 300 (1080000)
I0606 16:11:51.507160  7903 net.cpp:157] Top shape: 4 3 300 300 (1080000)
I0606 16:11:51.507165  7903 net.cpp:157] Top shape: 4 3 300 300 (1080000)
I0606 16:11:51.507170  7903 net.cpp:157] Top shape: 4 3 300 300 (1080000)
I0606 16:11:51.507191  7903 net.cpp:157] Top shape: 4 3 300 300 (1080000)
I0606 16:11:51.507196  7903 net.cpp:157] Top shape: 4 3 300 300 (1080000)
I0606 16:11:51.507215  7903 net.cpp:157] Top shape: 4 3 300 300 (1080000)
I0606 16:11:51.507220  7903 net.cpp:165] Memory required for data: 34560032
I0606 16:11:51.507236  7903 layer_factory.hpp:77] Creating layer conv1_1
I0606 16:11:51.507251  7903 net.cpp:100] Creating Layer conv1_1
I0606 16:11:51.507256  7903 net.cpp:434] conv1_1 <- data_data_0_split_0
I0606 16:11:51.507266  7903 net.cpp:408] conv1_1 -> conv1_1
I0606 16:11:51.508723  7903 net.cpp:150] Setting up conv1_1
I0606 16:11:51.508733  7903 net.cpp:157] Top shape: 4 64 300 300 (23040000)
I0606 16:11:51.508735  7903 net.cpp:165] Memory required for data: 126720032
I0606 16:11:51.508745  7903 layer_factory.hpp:77] Creating layer relu1_1
I0606 16:11:51.508754  7903 net.cpp:100] Creating Layer relu1_1
I0606 16:11:51.508759  7903 net.cpp:434] relu1_1 <- conv1_1
I0606 16:11:51.508764  7903 net.cpp:395] relu1_1 -> conv1_1 (in-place)
I0606 16:11:51.510262  7903 net.cpp:150] Setting up relu1_1
I0606 16:11:51.510273  7903 net.cpp:157] Top shape: 4 64 300 300 (23040000)
I0606 16:11:51.510275  7903 net.cpp:165] Memory required for data: 218880032
I0606 16:11:51.510278  7903 layer_factory.hpp:77] Creating layer conv1_2
I0606 16:11:51.510288  7903 net.cpp:100] Creating Layer conv1_2
I0606 16:11:51.510293  7903 net.cpp:434] conv1_2 <- conv1_1
I0606 16:11:51.510301  7903 net.cpp:408] conv1_2 -> conv1_2
I0606 16:11:51.511796  7903 net.cpp:150] Setting up conv1_2
I0606 16:11:51.511807  7903 net.cpp:157] Top shape: 4 64 300 300 (23040000)
I0606 16:11:51.511809  7903 net.cpp:165] Memory required for data: 311040032
I0606 16:11:51.511817  7903 layer_factory.hpp:77] Creating layer relu1_2
I0606 16:11:51.511826  7903 net.cpp:100] Creating Layer relu1_2
I0606 16:11:51.511831  7903 net.cpp:434] relu1_2 <- conv1_2
I0606 16:11:51.511837  7903 net.cpp:395] relu1_2 -> conv1_2 (in-place)
I0606 16:11:51.512596  7903 net.cpp:150] Setting up relu1_2
I0606 16:11:51.512606  7903 net.cpp:157] Top shape: 4 64 300 300 (23040000)
I0606 16:11:51.512609  7903 net.cpp:165] Memory required for data: 403200032
I0606 16:11:51.512614  7903 layer_factory.hpp:77] Creating layer pool1
I0606 16:11:51.512620  7903 net.cpp:100] Creating Layer pool1
I0606 16:11:51.512625  7903 net.cpp:434] pool1 <- conv1_2
I0606 16:11:51.512632  7903 net.cpp:408] pool1 -> pool1
I0606 16:11:51.512686  7903 net.cpp:150] Setting up pool1
I0606 16:11:51.512696  7903 net.cpp:157] Top shape: 4 64 150 150 (5760000)
I0606 16:11:51.512701  7903 net.cpp:165] Memory required for data: 426240032
I0606 16:11:51.512706  7903 layer_factory.hpp:77] Creating layer conv2_1
I0606 16:11:51.512714  7903 net.cpp:100] Creating Layer conv2_1
I0606 16:11:51.512720  7903 net.cpp:434] conv2_1 <- pool1
I0606 16:11:51.512727  7903 net.cpp:408] conv2_1 -> conv2_1
I0606 16:11:51.514525  7903 net.cpp:150] Setting up conv2_1
I0606 16:11:51.514538  7903 net.cpp:157] Top shape: 4 128 150 150 (11520000)
I0606 16:11:51.514539  7903 net.cpp:165] Memory required for data: 472320032
I0606 16:11:51.514547  7903 layer_factory.hpp:77] Creating layer relu2_1
I0606 16:11:51.514557  7903 net.cpp:100] Creating Layer relu2_1
I0606 16:11:51.514562  7903 net.cpp:434] relu2_1 <- conv2_1
I0606 16:11:51.514567  7903 net.cpp:395] relu2_1 -> conv2_1 (in-place)
I0606 16:11:51.515333  7903 net.cpp:150] Setting up relu2_1
I0606 16:11:51.515344  7903 net.cpp:157] Top shape: 4 128 150 150 (11520000)
I0606 16:11:51.515347  7903 net.cpp:165] Memory required for data: 518400032
I0606 16:11:51.515350  7903 layer_factory.hpp:77] Creating layer conv2_2
I0606 16:11:51.515359  7903 net.cpp:100] Creating Layer conv2_2
I0606 16:11:51.515365  7903 net.cpp:434] conv2_2 <- conv2_1
I0606 16:11:51.515373  7903 net.cpp:408] conv2_2 -> conv2_2
I0606 16:11:51.518584  7903 net.cpp:150] Setting up conv2_2
I0606 16:11:51.518600  7903 net.cpp:157] Top shape: 4 128 150 150 (11520000)
I0606 16:11:51.518604  7903 net.cpp:165] Memory required for data: 564480032
I0606 16:11:51.518611  7903 layer_factory.hpp:77] Creating layer relu2_2
I0606 16:11:51.518618  7903 net.cpp:100] Creating Layer relu2_2
I0606 16:11:51.518622  7903 net.cpp:434] relu2_2 <- conv2_2
I0606 16:11:51.518630  7903 net.cpp:395] relu2_2 -> conv2_2 (in-place)
I0606 16:11:51.518843  7903 net.cpp:150] Setting up relu2_2
I0606 16:11:51.518856  7903 net.cpp:157] Top shape: 4 128 150 150 (11520000)
I0606 16:11:51.518860  7903 net.cpp:165] Memory required for data: 610560032
I0606 16:11:51.518865  7903 layer_factory.hpp:77] Creating layer pool2
I0606 16:11:51.518872  7903 net.cpp:100] Creating Layer pool2
I0606 16:11:51.518877  7903 net.cpp:434] pool2 <- conv2_2
I0606 16:11:51.518885  7903 net.cpp:408] pool2 -> pool2
I0606 16:11:51.518949  7903 net.cpp:150] Setting up pool2
I0606 16:11:51.518956  7903 net.cpp:157] Top shape: 4 128 75 75 (2880000)
I0606 16:11:51.518960  7903 net.cpp:165] Memory required for data: 622080032
I0606 16:11:51.518965  7903 layer_factory.hpp:77] Creating layer conv3_1
I0606 16:11:51.518977  7903 net.cpp:100] Creating Layer conv3_1
I0606 16:11:51.518996  7903 net.cpp:434] conv3_1 <- pool2
I0606 16:11:51.519018  7903 net.cpp:408] conv3_1 -> conv3_1
I0606 16:11:51.522351  7903 net.cpp:150] Setting up conv3_1
I0606 16:11:51.522367  7903 net.cpp:157] Top shape: 4 256 75 75 (5760000)
I0606 16:11:51.522370  7903 net.cpp:165] Memory required for data: 645120032
I0606 16:11:51.522382  7903 layer_factory.hpp:77] Creating layer relu3_1
I0606 16:11:51.522388  7903 net.cpp:100] Creating Layer relu3_1
I0606 16:11:51.522392  7903 net.cpp:434] relu3_1 <- conv3_1
I0606 16:11:51.522397  7903 net.cpp:395] relu3_1 -> conv3_1 (in-place)
I0606 16:11:51.522550  7903 net.cpp:150] Setting up relu3_1
I0606 16:11:51.522557  7903 net.cpp:157] Top shape: 4 256 75 75 (5760000)
I0606 16:11:51.522559  7903 net.cpp:165] Memory required for data: 668160032
I0606 16:11:51.522562  7903 layer_factory.hpp:77] Creating layer conv3_2
I0606 16:11:51.522572  7903 net.cpp:100] Creating Layer conv3_2
I0606 16:11:51.522574  7903 net.cpp:434] conv3_2 <- conv3_1
I0606 16:11:51.522578  7903 net.cpp:408] conv3_2 -> conv3_2
I0606 16:11:51.527570  7903 net.cpp:150] Setting up conv3_2
I0606 16:11:51.527590  7903 net.cpp:157] Top shape: 4 256 75 75 (5760000)
I0606 16:11:51.527592  7903 net.cpp:165] Memory required for data: 691200032
I0606 16:11:51.527601  7903 layer_factory.hpp:77] Creating layer relu3_2
I0606 16:11:51.527607  7903 net.cpp:100] Creating Layer relu3_2
I0606 16:11:51.527611  7903 net.cpp:434] relu3_2 <- conv3_2
I0606 16:11:51.527616  7903 net.cpp:395] relu3_2 -> conv3_2 (in-place)
I0606 16:11:51.527775  7903 net.cpp:150] Setting up relu3_2
I0606 16:11:51.527801  7903 net.cpp:157] Top shape: 4 256 75 75 (5760000)
I0606 16:11:51.527812  7903 net.cpp:165] Memory required for data: 714240032
I0606 16:11:51.527822  7903 layer_factory.hpp:77] Creating layer conv3_3
I0606 16:11:51.527843  7903 net.cpp:100] Creating Layer conv3_3
I0606 16:11:51.527849  7903 net.cpp:434] conv3_3 <- conv3_2
I0606 16:11:51.527855  7903 net.cpp:408] conv3_3 -> conv3_3
I0606 16:11:51.532547  7903 net.cpp:150] Setting up conv3_3
I0606 16:11:51.532562  7903 net.cpp:157] Top shape: 4 256 75 75 (5760000)
I0606 16:11:51.532564  7903 net.cpp:165] Memory required for data: 737280032
I0606 16:11:51.532570  7903 layer_factory.hpp:77] Creating layer relu3_3
I0606 16:11:51.532577  7903 net.cpp:100] Creating Layer relu3_3
I0606 16:11:51.532579  7903 net.cpp:434] relu3_3 <- conv3_3
I0606 16:11:51.532585  7903 net.cpp:395] relu3_3 -> conv3_3 (in-place)
I0606 16:11:51.532727  7903 net.cpp:150] Setting up relu3_3
I0606 16:11:51.532732  7903 net.cpp:157] Top shape: 4 256 75 75 (5760000)
I0606 16:11:51.532735  7903 net.cpp:165] Memory required for data: 760320032
I0606 16:11:51.532737  7903 layer_factory.hpp:77] Creating layer pool3
I0606 16:11:51.532742  7903 net.cpp:100] Creating Layer pool3
I0606 16:11:51.532745  7903 net.cpp:434] pool3 <- conv3_3
I0606 16:11:51.532749  7903 net.cpp:408] pool3 -> pool3
I0606 16:11:51.532788  7903 net.cpp:150] Setting up pool3
I0606 16:11:51.532793  7903 net.cpp:157] Top shape: 4 256 38 38 (1478656)
I0606 16:11:51.532794  7903 net.cpp:165] Memory required for data: 766234656
I0606 16:11:51.532796  7903 layer_factory.hpp:77] Creating layer conv4_1
I0606 16:11:51.532805  7903 net.cpp:100] Creating Layer conv4_1
I0606 16:11:51.532819  7903 net.cpp:434] conv4_1 <- pool3
I0606 16:11:51.532824  7903 net.cpp:408] conv4_1 -> conv4_1
I0606 16:11:51.541785  7903 net.cpp:150] Setting up conv4_1
I0606 16:11:51.541800  7903 net.cpp:157] Top shape: 4 512 38 38 (2957312)
I0606 16:11:51.541802  7903 net.cpp:165] Memory required for data: 778063904
I0606 16:11:51.541823  7903 layer_factory.hpp:77] Creating layer relu4_1
I0606 16:11:51.541831  7903 net.cpp:100] Creating Layer relu4_1
I0606 16:11:51.541834  7903 net.cpp:434] relu4_1 <- conv4_1
I0606 16:11:51.541838  7903 net.cpp:395] relu4_1 -> conv4_1 (in-place)
I0606 16:11:51.542819  7903 net.cpp:150] Setting up relu4_1
I0606 16:11:51.542826  7903 net.cpp:157] Top shape: 4 512 38 38 (2957312)
I0606 16:11:51.542845  7903 net.cpp:165] Memory required for data: 789893152
I0606 16:11:51.542847  7903 layer_factory.hpp:77] Creating layer conv4_2
I0606 16:11:51.542855  7903 net.cpp:100] Creating Layer conv4_2
I0606 16:11:51.542858  7903 net.cpp:434] conv4_2 <- conv4_1
I0606 16:11:51.542878  7903 net.cpp:408] conv4_2 -> conv4_2
I0606 16:11:51.555300  7903 net.cpp:150] Setting up conv4_2
I0606 16:11:51.555315  7903 net.cpp:157] Top shape: 4 512 38 38 (2957312)
I0606 16:11:51.555317  7903 net.cpp:165] Memory required for data: 801722400
I0606 16:11:51.555343  7903 layer_factory.hpp:77] Creating layer relu4_2
I0606 16:11:51.555349  7903 net.cpp:100] Creating Layer relu4_2
I0606 16:11:51.555352  7903 net.cpp:434] relu4_2 <- conv4_2
I0606 16:11:51.555358  7903 net.cpp:395] relu4_2 -> conv4_2 (in-place)
I0606 16:11:51.556434  7903 net.cpp:150] Setting up relu4_2
I0606 16:11:51.556443  7903 net.cpp:157] Top shape: 4 512 38 38 (2957312)
I0606 16:11:51.556447  7903 net.cpp:165] Memory required for data: 813551648
I0606 16:11:51.556448  7903 layer_factory.hpp:77] Creating layer conv4_3
I0606 16:11:51.556458  7903 net.cpp:100] Creating Layer conv4_3
I0606 16:11:51.556463  7903 net.cpp:434] conv4_3 <- conv4_2
I0606 16:11:51.556468  7903 net.cpp:408] conv4_3 -> conv4_3
I0606 16:11:51.569376  7903 net.cpp:150] Setting up conv4_3
I0606 16:11:51.569391  7903 net.cpp:157] Top shape: 4 512 38 38 (2957312)
I0606 16:11:51.569394  7903 net.cpp:165] Memory required for data: 825380896
I0606 16:11:51.569399  7903 layer_factory.hpp:77] Creating layer relu4_3
I0606 16:11:51.569419  7903 net.cpp:100] Creating Layer relu4_3
I0606 16:11:51.569423  7903 net.cpp:434] relu4_3 <- conv4_3
I0606 16:11:51.569428  7903 net.cpp:395] relu4_3 -> conv4_3 (in-place)
I0606 16:11:51.569592  7903 net.cpp:150] Setting up relu4_3
I0606 16:11:51.569600  7903 net.cpp:157] Top shape: 4 512 38 38 (2957312)
I0606 16:11:51.569603  7903 net.cpp:165] Memory required for data: 837210144
I0606 16:11:51.569605  7903 layer_factory.hpp:77] Creating layer conv4_3_relu4_3_0_split
I0606 16:11:51.569609  7903 net.cpp:100] Creating Layer conv4_3_relu4_3_0_split
I0606 16:11:51.569612  7903 net.cpp:434] conv4_3_relu4_3_0_split <- conv4_3
I0606 16:11:51.569617  7903 net.cpp:408] conv4_3_relu4_3_0_split -> conv4_3_relu4_3_0_split_0
I0606 16:11:51.569622  7903 net.cpp:408] conv4_3_relu4_3_0_split -> conv4_3_relu4_3_0_split_1
I0606 16:11:51.569660  7903 net.cpp:150] Setting up conv4_3_relu4_3_0_split
I0606 16:11:51.569665  7903 net.cpp:157] Top shape: 4 512 38 38 (2957312)
I0606 16:11:51.569669  7903 net.cpp:157] Top shape: 4 512 38 38 (2957312)
I0606 16:11:51.569684  7903 net.cpp:165] Memory required for data: 860868640
I0606 16:11:51.569685  7903 layer_factory.hpp:77] Creating layer pool4
I0606 16:11:51.569690  7903 net.cpp:100] Creating Layer pool4
I0606 16:11:51.569710  7903 net.cpp:434] pool4 <- conv4_3_relu4_3_0_split_0
I0606 16:11:51.569712  7903 net.cpp:408] pool4 -> pool4
I0606 16:11:51.569761  7903 net.cpp:150] Setting up pool4
I0606 16:11:51.569764  7903 net.cpp:157] Top shape: 4 512 19 19 (739328)
I0606 16:11:51.569767  7903 net.cpp:165] Memory required for data: 863825952
I0606 16:11:51.569769  7903 layer_factory.hpp:77] Creating layer conv5_1
I0606 16:11:51.569777  7903 net.cpp:100] Creating Layer conv5_1
I0606 16:11:51.569780  7903 net.cpp:434] conv5_1 <- pool4
I0606 16:11:51.569795  7903 net.cpp:408] conv5_1 -> conv5_1
I0606 16:11:51.582453  7903 net.cpp:150] Setting up conv5_1
I0606 16:11:51.582468  7903 net.cpp:157] Top shape: 4 512 19 19 (739328)
I0606 16:11:51.582470  7903 net.cpp:165] Memory required for data: 866783264
I0606 16:11:51.582476  7903 layer_factory.hpp:77] Creating layer relu5_1
I0606 16:11:51.582496  7903 net.cpp:100] Creating Layer relu5_1
I0606 16:11:51.582499  7903 net.cpp:434] relu5_1 <- conv5_1
I0606 16:11:51.582504  7903 net.cpp:395] relu5_1 -> conv5_1 (in-place)
I0606 16:11:51.582667  7903 net.cpp:150] Setting up relu5_1
I0606 16:11:51.582674  7903 net.cpp:157] Top shape: 4 512 19 19 (739328)
I0606 16:11:51.582676  7903 net.cpp:165] Memory required for data: 869740576
I0606 16:11:51.582679  7903 layer_factory.hpp:77] Creating layer conv5_2
I0606 16:11:51.582687  7903 net.cpp:100] Creating Layer conv5_2
I0606 16:11:51.582690  7903 net.cpp:434] conv5_2 <- conv5_1
I0606 16:11:51.582696  7903 net.cpp:408] conv5_2 -> conv5_2
I0606 16:11:51.595350  7903 net.cpp:150] Setting up conv5_2
I0606 16:11:51.595366  7903 net.cpp:157] Top shape: 4 512 19 19 (739328)
I0606 16:11:51.595368  7903 net.cpp:165] Memory required for data: 872697888
I0606 16:11:51.595373  7903 layer_factory.hpp:77] Creating layer relu5_2
I0606 16:11:51.595394  7903 net.cpp:100] Creating Layer relu5_2
I0606 16:11:51.595398  7903 net.cpp:434] relu5_2 <- conv5_2
I0606 16:11:51.595403  7903 net.cpp:395] relu5_2 -> conv5_2 (in-place)
I0606 16:11:51.595578  7903 net.cpp:150] Setting up relu5_2
I0606 16:11:51.595585  7903 net.cpp:157] Top shape: 4 512 19 19 (739328)
I0606 16:11:51.595588  7903 net.cpp:165] Memory required for data: 875655200
I0606 16:11:51.595590  7903 layer_factory.hpp:77] Creating layer conv5_3
I0606 16:11:51.595598  7903 net.cpp:100] Creating Layer conv5_3
I0606 16:11:51.595624  7903 net.cpp:434] conv5_3 <- conv5_2
I0606 16:11:51.595630  7903 net.cpp:408] conv5_3 -> conv5_3
I0606 16:11:51.608392  7903 net.cpp:150] Setting up conv5_3
I0606 16:11:51.608405  7903 net.cpp:157] Top shape: 4 512 19 19 (739328)
I0606 16:11:51.608408  7903 net.cpp:165] Memory required for data: 878612512
I0606 16:11:51.608414  7903 layer_factory.hpp:77] Creating layer relu5_3
I0606 16:11:51.608439  7903 net.cpp:100] Creating Layer relu5_3
I0606 16:11:51.608443  7903 net.cpp:434] relu5_3 <- conv5_3
I0606 16:11:51.608448  7903 net.cpp:395] relu5_3 -> conv5_3 (in-place)
I0606 16:11:51.608623  7903 net.cpp:150] Setting up relu5_3
I0606 16:11:51.608630  7903 net.cpp:157] Top shape: 4 512 19 19 (739328)
I0606 16:11:51.608633  7903 net.cpp:165] Memory required for data: 881569824
I0606 16:11:51.608635  7903 layer_factory.hpp:77] Creating layer pool5
I0606 16:11:51.608641  7903 net.cpp:100] Creating Layer pool5
I0606 16:11:51.608644  7903 net.cpp:434] pool5 <- conv5_3
I0606 16:11:51.608661  7903 net.cpp:408] pool5 -> pool5
I0606 16:11:51.608714  7903 net.cpp:150] Setting up pool5
I0606 16:11:51.608719  7903 net.cpp:157] Top shape: 4 512 19 19 (739328)
I0606 16:11:51.608722  7903 net.cpp:165] Memory required for data: 884527136
I0606 16:11:51.608723  7903 layer_factory.hpp:77] Creating layer fc6
I0606 16:11:51.608731  7903 net.cpp:100] Creating Layer fc6
I0606 16:11:51.608733  7903 net.cpp:434] fc6 <- pool5
I0606 16:11:51.608738  7903 net.cpp:408] fc6 -> fc6
I0606 16:11:51.630924  7903 net.cpp:150] Setting up fc6
I0606 16:11:51.630941  7903 net.cpp:157] Top shape: 4 1024 19 19 (1478656)
I0606 16:11:51.630945  7903 net.cpp:165] Memory required for data: 890441760
I0606 16:11:51.630965  7903 layer_factory.hpp:77] Creating layer relu6
I0606 16:11:51.630973  7903 net.cpp:100] Creating Layer relu6
I0606 16:11:51.630978  7903 net.cpp:434] relu6 <- fc6
I0606 16:11:51.630983  7903 net.cpp:395] relu6 -> fc6 (in-place)
I0606 16:11:51.631954  7903 net.cpp:150] Setting up relu6
I0606 16:11:51.631963  7903 net.cpp:157] Top shape: 4 1024 19 19 (1478656)
I0606 16:11:51.631965  7903 net.cpp:165] Memory required for data: 896356384
I0606 16:11:51.631968  7903 layer_factory.hpp:77] Creating layer fc7
I0606 16:11:51.631976  7903 net.cpp:100] Creating Layer fc7
I0606 16:11:51.631990  7903 net.cpp:434] fc7 <- fc6
I0606 16:11:51.631996  7903 net.cpp:408] fc7 -> fc7
I0606 16:11:51.638718  7903 net.cpp:150] Setting up fc7
I0606 16:11:51.638736  7903 net.cpp:157] Top shape: 4 1024 19 19 (1478656)
I0606 16:11:51.638737  7903 net.cpp:165] Memory required for data: 902271008
I0606 16:11:51.638743  7903 layer_factory.hpp:77] Creating layer relu7
I0606 16:11:51.638751  7903 net.cpp:100] Creating Layer relu7
I0606 16:11:51.638754  7903 net.cpp:434] relu7 <- fc7
I0606 16:11:51.638757  7903 net.cpp:395] relu7 -> fc7 (in-place)
I0606 16:11:51.638916  7903 net.cpp:150] Setting up relu7
I0606 16:11:51.638923  7903 net.cpp:157] Top shape: 4 1024 19 19 (1478656)
I0606 16:11:51.638926  7903 net.cpp:165] Memory required for data: 908185632
I0606 16:11:51.638927  7903 layer_factory.hpp:77] Creating layer fc7_relu7_0_split
I0606 16:11:51.638933  7903 net.cpp:100] Creating Layer fc7_relu7_0_split
I0606 16:11:51.638936  7903 net.cpp:434] fc7_relu7_0_split <- fc7
I0606 16:11:51.638957  7903 net.cpp:408] fc7_relu7_0_split -> fc7_relu7_0_split_0
I0606 16:11:51.638978  7903 net.cpp:408] fc7_relu7_0_split -> fc7_relu7_0_split_1
I0606 16:11:51.639005  7903 net.cpp:408] fc7_relu7_0_split -> fc7_relu7_0_split_2
I0606 16:11:51.639012  7903 net.cpp:408] fc7_relu7_0_split -> fc7_relu7_0_split_3
I0606 16:11:51.639099  7903 net.cpp:150] Setting up fc7_relu7_0_split
I0606 16:11:51.639104  7903 net.cpp:157] Top shape: 4 1024 19 19 (1478656)
I0606 16:11:51.639107  7903 net.cpp:157] Top shape: 4 1024 19 19 (1478656)
I0606 16:11:51.639111  7903 net.cpp:157] Top shape: 4 1024 19 19 (1478656)
I0606 16:11:51.639113  7903 net.cpp:157] Top shape: 4 1024 19 19 (1478656)
I0606 16:11:51.639116  7903 net.cpp:165] Memory required for data: 931844128
I0606 16:11:51.639132  7903 layer_factory.hpp:77] Creating layer conv6_1
I0606 16:11:51.639140  7903 net.cpp:100] Creating Layer conv6_1
I0606 16:11:51.639158  7903 net.cpp:434] conv6_1 <- fc7_relu7_0_split_0
I0606 16:11:51.639163  7903 net.cpp:408] conv6_1 -> conv6_1
I0606 16:11:51.642853  7903 net.cpp:150] Setting up conv6_1
I0606 16:11:51.642863  7903 net.cpp:157] Top shape: 4 256 19 19 (369664)
I0606 16:11:51.642865  7903 net.cpp:165] Memory required for data: 933322784
I0606 16:11:51.642870  7903 layer_factory.hpp:77] Creating layer conv6_1_relu
I0606 16:11:51.642874  7903 net.cpp:100] Creating Layer conv6_1_relu
I0606 16:11:51.642892  7903 net.cpp:434] conv6_1_relu <- conv6_1
I0606 16:11:51.642899  7903 net.cpp:395] conv6_1_relu -> conv6_1 (in-place)
I0606 16:11:51.643072  7903 net.cpp:150] Setting up conv6_1_relu
I0606 16:11:51.643079  7903 net.cpp:157] Top shape: 4 256 19 19 (369664)
I0606 16:11:51.643081  7903 net.cpp:165] Memory required for data: 934801440
I0606 16:11:51.643084  7903 layer_factory.hpp:77] Creating layer conv6_2
I0606 16:11:51.643090  7903 net.cpp:100] Creating Layer conv6_2
I0606 16:11:51.643093  7903 net.cpp:434] conv6_2 <- conv6_1
I0606 16:11:51.643113  7903 net.cpp:408] conv6_2 -> conv6_2
I0606 16:11:51.650534  7903 net.cpp:150] Setting up conv6_2
I0606 16:11:51.650554  7903 net.cpp:157] Top shape: 4 512 10 10 (204800)
I0606 16:11:51.650558  7903 net.cpp:165] Memory required for data: 935620640
I0606 16:11:51.650588  7903 layer_factory.hpp:77] Creating layer conv6_2_relu
I0606 16:11:51.650599  7903 net.cpp:100] Creating Layer conv6_2_relu
I0606 16:11:51.650602  7903 net.cpp:434] conv6_2_relu <- conv6_2
I0606 16:11:51.650622  7903 net.cpp:395] conv6_2_relu -> conv6_2 (in-place)
I0606 16:11:51.650799  7903 net.cpp:150] Setting up conv6_2_relu
I0606 16:11:51.650807  7903 net.cpp:157] Top shape: 4 512 10 10 (204800)
I0606 16:11:51.650810  7903 net.cpp:165] Memory required for data: 936439840
I0606 16:11:51.650811  7903 layer_factory.hpp:77] Creating layer conv6_2_conv6_2_relu_0_split
I0606 16:11:51.650816  7903 net.cpp:100] Creating Layer conv6_2_conv6_2_relu_0_split
I0606 16:11:51.650835  7903 net.cpp:434] conv6_2_conv6_2_relu_0_split <- conv6_2
I0606 16:11:51.650838  7903 net.cpp:408] conv6_2_conv6_2_relu_0_split -> conv6_2_conv6_2_relu_0_split_0
I0606 16:11:51.650884  7903 net.cpp:408] conv6_2_conv6_2_relu_0_split -> conv6_2_conv6_2_relu_0_split_1
I0606 16:11:51.650889  7903 net.cpp:408] conv6_2_conv6_2_relu_0_split -> conv6_2_conv6_2_relu_0_split_2
I0606 16:11:51.650895  7903 net.cpp:408] conv6_2_conv6_2_relu_0_split -> conv6_2_conv6_2_relu_0_split_3
I0606 16:11:51.650974  7903 net.cpp:150] Setting up conv6_2_conv6_2_relu_0_split
I0606 16:11:51.650980  7903 net.cpp:157] Top shape: 4 512 10 10 (204800)
I0606 16:11:51.650984  7903 net.cpp:157] Top shape: 4 512 10 10 (204800)
I0606 16:11:51.650986  7903 net.cpp:157] Top shape: 4 512 10 10 (204800)
I0606 16:11:51.651001  7903 net.cpp:157] Top shape: 4 512 10 10 (204800)
I0606 16:11:51.651003  7903 net.cpp:165] Memory required for data: 939716640
I0606 16:11:51.651005  7903 layer_factory.hpp:77] Creating layer conv7_1
I0606 16:11:51.651028  7903 net.cpp:100] Creating Layer conv7_1
I0606 16:11:51.651031  7903 net.cpp:434] conv7_1 <- conv6_2_conv6_2_relu_0_split_0
I0606 16:11:51.651036  7903 net.cpp:408] conv7_1 -> conv7_1
I0606 16:11:51.653059  7903 net.cpp:150] Setting up conv7_1
I0606 16:11:51.653071  7903 net.cpp:157] Top shape: 4 128 10 10 (51200)
I0606 16:11:51.653074  7903 net.cpp:165] Memory required for data: 939921440
I0606 16:11:51.653079  7903 layer_factory.hpp:77] Creating layer conv7_1_relu
I0606 16:11:51.653084  7903 net.cpp:100] Creating Layer conv7_1_relu
I0606 16:11:51.653102  7903 net.cpp:434] conv7_1_relu <- conv7_1
I0606 16:11:51.653107  7903 net.cpp:395] conv7_1_relu -> conv7_1 (in-place)
I0606 16:11:51.653277  7903 net.cpp:150] Setting up conv7_1_relu
I0606 16:11:51.653297  7903 net.cpp:157] Top shape: 4 128 10 10 (51200)
I0606 16:11:51.653301  7903 net.cpp:165] Memory required for data: 940126240
I0606 16:11:51.653302  7903 layer_factory.hpp:77] Creating layer conv7_2
I0606 16:11:51.653311  7903 net.cpp:100] Creating Layer conv7_2
I0606 16:11:51.653312  7903 net.cpp:434] conv7_2 <- conv7_1
I0606 16:11:51.653318  7903 net.cpp:408] conv7_2 -> conv7_2
I0606 16:11:51.656472  7903 net.cpp:150] Setting up conv7_2
I0606 16:11:51.656484  7903 net.cpp:157] Top shape: 4 256 5 5 (25600)
I0606 16:11:51.656487  7903 net.cpp:165] Memory required for data: 940228640
I0606 16:11:51.656492  7903 layer_factory.hpp:77] Creating layer conv7_2_relu
I0606 16:11:51.656497  7903 net.cpp:100] Creating Layer conv7_2_relu
I0606 16:11:51.656522  7903 net.cpp:434] conv7_2_relu <- conv7_2
I0606 16:11:51.656524  7903 net.cpp:395] conv7_2_relu -> conv7_2 (in-place)
I0606 16:11:51.656682  7903 net.cpp:150] Setting up conv7_2_relu
I0606 16:11:51.656687  7903 net.cpp:157] Top shape: 4 256 5 5 (25600)
I0606 16:11:51.656689  7903 net.cpp:165] Memory required for data: 940331040
I0606 16:11:51.656708  7903 layer_factory.hpp:77] Creating layer conv7_2_conv7_2_relu_0_split
I0606 16:11:51.656713  7903 net.cpp:100] Creating Layer conv7_2_conv7_2_relu_0_split
I0606 16:11:51.656714  7903 net.cpp:434] conv7_2_conv7_2_relu_0_split <- conv7_2
I0606 16:11:51.656719  7903 net.cpp:408] conv7_2_conv7_2_relu_0_split -> conv7_2_conv7_2_relu_0_split_0
I0606 16:11:51.656729  7903 net.cpp:408] conv7_2_conv7_2_relu_0_split -> conv7_2_conv7_2_relu_0_split_1
I0606 16:11:51.656735  7903 net.cpp:408] conv7_2_conv7_2_relu_0_split -> conv7_2_conv7_2_relu_0_split_2
I0606 16:11:51.656741  7903 net.cpp:408] conv7_2_conv7_2_relu_0_split -> conv7_2_conv7_2_relu_0_split_3
I0606 16:11:51.656842  7903 net.cpp:150] Setting up conv7_2_conv7_2_relu_0_split
I0606 16:11:51.656848  7903 net.cpp:157] Top shape: 4 256 5 5 (25600)
I0606 16:11:51.656852  7903 net.cpp:157] Top shape: 4 256 5 5 (25600)
I0606 16:11:51.656853  7903 net.cpp:157] Top shape: 4 256 5 5 (25600)
I0606 16:11:51.656857  7903 net.cpp:157] Top shape: 4 256 5 5 (25600)
I0606 16:11:51.656857  7903 net.cpp:165] Memory required for data: 940740640
I0606 16:11:51.656860  7903 layer_factory.hpp:77] Creating layer conv8_1
I0606 16:11:51.656882  7903 net.cpp:100] Creating Layer conv8_1
I0606 16:11:51.656884  7903 net.cpp:434] conv8_1 <- conv7_2_conv7_2_relu_0_split_0
I0606 16:11:51.656890  7903 net.cpp:408] conv8_1 -> conv8_1
I0606 16:11:51.658202  7903 net.cpp:150] Setting up conv8_1
I0606 16:11:51.658212  7903 net.cpp:157] Top shape: 4 128 5 5 (12800)
I0606 16:11:51.658215  7903 net.cpp:165] Memory required for data: 940791840
I0606 16:11:51.658219  7903 layer_factory.hpp:77] Creating layer conv8_1_relu
I0606 16:11:51.658226  7903 net.cpp:100] Creating Layer conv8_1_relu
I0606 16:11:51.658229  7903 net.cpp:434] conv8_1_relu <- conv8_1
I0606 16:11:51.658233  7903 net.cpp:395] conv8_1_relu -> conv8_1 (in-place)
I0606 16:11:51.658898  7903 net.cpp:150] Setting up conv8_1_relu
I0606 16:11:51.658908  7903 net.cpp:157] Top shape: 4 128 5 5 (12800)
I0606 16:11:51.658910  7903 net.cpp:165] Memory required for data: 940843040
I0606 16:11:51.658912  7903 layer_factory.hpp:77] Creating layer conv8_2
I0606 16:11:51.658921  7903 net.cpp:100] Creating Layer conv8_2
I0606 16:11:51.658924  7903 net.cpp:434] conv8_2 <- conv8_1
I0606 16:11:51.658929  7903 net.cpp:408] conv8_2 -> conv8_2
I0606 16:11:51.662066  7903 net.cpp:150] Setting up conv8_2
I0606 16:11:51.662080  7903 net.cpp:157] Top shape: 4 256 3 3 (9216)
I0606 16:11:51.662082  7903 net.cpp:165] Memory required for data: 940879904
I0606 16:11:51.662087  7903 layer_factory.hpp:77] Creating layer conv8_2_relu
I0606 16:11:51.662091  7903 net.cpp:100] Creating Layer conv8_2_relu
I0606 16:11:51.662094  7903 net.cpp:434] conv8_2_relu <- conv8_2
I0606 16:11:51.662112  7903 net.cpp:395] conv8_2_relu -> conv8_2 (in-place)
I0606 16:11:51.662248  7903 net.cpp:150] Setting up conv8_2_relu
I0606 16:11:51.662255  7903 net.cpp:157] Top shape: 4 256 3 3 (9216)
I0606 16:11:51.662257  7903 net.cpp:165] Memory required for data: 940916768
I0606 16:11:51.662259  7903 layer_factory.hpp:77] Creating layer conv8_2_conv8_2_relu_0_split
I0606 16:11:51.662263  7903 net.cpp:100] Creating Layer conv8_2_conv8_2_relu_0_split
I0606 16:11:51.662266  7903 net.cpp:434] conv8_2_conv8_2_relu_0_split <- conv8_2
I0606 16:11:51.662271  7903 net.cpp:408] conv8_2_conv8_2_relu_0_split -> conv8_2_conv8_2_relu_0_split_0
I0606 16:11:51.662276  7903 net.cpp:408] conv8_2_conv8_2_relu_0_split -> conv8_2_conv8_2_relu_0_split_1
I0606 16:11:51.662282  7903 net.cpp:408] conv8_2_conv8_2_relu_0_split -> conv8_2_conv8_2_relu_0_split_2
I0606 16:11:51.662287  7903 net.cpp:408] conv8_2_conv8_2_relu_0_split -> conv8_2_conv8_2_relu_0_split_3
I0606 16:11:51.662348  7903 net.cpp:150] Setting up conv8_2_conv8_2_relu_0_split
I0606 16:11:51.662354  7903 net.cpp:157] Top shape: 4 256 3 3 (9216)
I0606 16:11:51.662358  7903 net.cpp:157] Top shape: 4 256 3 3 (9216)
I0606 16:11:51.662359  7903 net.cpp:157] Top shape: 4 256 3 3 (9216)
I0606 16:11:51.662362  7903 net.cpp:157] Top shape: 4 256 3 3 (9216)
I0606 16:11:51.662364  7903 net.cpp:165] Memory required for data: 941064224
I0606 16:11:51.662366  7903 layer_factory.hpp:77] Creating layer conv9_1
I0606 16:11:51.662374  7903 net.cpp:100] Creating Layer conv9_1
I0606 16:11:51.662376  7903 net.cpp:434] conv9_1 <- conv8_2_conv8_2_relu_0_split_0
I0606 16:11:51.662384  7903 net.cpp:408] conv9_1 -> conv9_1
I0606 16:11:51.663658  7903 net.cpp:150] Setting up conv9_1
I0606 16:11:51.663667  7903 net.cpp:157] Top shape: 4 128 3 3 (4608)
I0606 16:11:51.663671  7903 net.cpp:165] Memory required for data: 941082656
I0606 16:11:51.663676  7903 layer_factory.hpp:77] Creating layer conv9_1_relu
I0606 16:11:51.663681  7903 net.cpp:100] Creating Layer conv9_1_relu
I0606 16:11:51.663684  7903 net.cpp:434] conv9_1_relu <- conv9_1
I0606 16:11:51.663687  7903 net.cpp:395] conv9_1_relu -> conv9_1 (in-place)
I0606 16:11:51.663837  7903 net.cpp:150] Setting up conv9_1_relu
I0606 16:11:51.663844  7903 net.cpp:157] Top shape: 4 128 3 3 (4608)
I0606 16:11:51.663847  7903 net.cpp:165] Memory required for data: 941101088
I0606 16:11:51.663849  7903 layer_factory.hpp:77] Creating layer conv9_2
I0606 16:11:51.663856  7903 net.cpp:100] Creating Layer conv9_2
I0606 16:11:51.663858  7903 net.cpp:434] conv9_2 <- conv9_1
I0606 16:11:51.663863  7903 net.cpp:408] conv9_2 -> conv9_2
I0606 16:11:51.666862  7903 net.cpp:150] Setting up conv9_2
I0606 16:11:51.666882  7903 net.cpp:157] Top shape: 4 256 1 1 (1024)
I0606 16:11:51.666885  7903 net.cpp:165] Memory required for data: 941105184
I0606 16:11:51.666890  7903 layer_factory.hpp:77] Creating layer conv9_2_relu
I0606 16:11:51.666895  7903 net.cpp:100] Creating Layer conv9_2_relu
I0606 16:11:51.666898  7903 net.cpp:434] conv9_2_relu <- conv9_2
I0606 16:11:51.666919  7903 net.cpp:395] conv9_2_relu -> conv9_2 (in-place)
I0606 16:11:51.667068  7903 net.cpp:150] Setting up conv9_2_relu
I0606 16:11:51.667074  7903 net.cpp:157] Top shape: 4 256 1 1 (1024)
I0606 16:11:51.667076  7903 net.cpp:165] Memory required for data: 941109280
I0606 16:11:51.667079  7903 layer_factory.hpp:77] Creating layer conv9_2_conv9_2_relu_0_split
I0606 16:11:51.667083  7903 net.cpp:100] Creating Layer conv9_2_conv9_2_relu_0_split
I0606 16:11:51.667086  7903 net.cpp:434] conv9_2_conv9_2_relu_0_split <- conv9_2
I0606 16:11:51.667089  7903 net.cpp:408] conv9_2_conv9_2_relu_0_split -> conv9_2_conv9_2_relu_0_split_0
I0606 16:11:51.667109  7903 net.cpp:408] conv9_2_conv9_2_relu_0_split -> conv9_2_conv9_2_relu_0_split_1
I0606 16:11:51.667115  7903 net.cpp:408] conv9_2_conv9_2_relu_0_split -> conv9_2_conv9_2_relu_0_split_2
I0606 16:11:51.667165  7903 net.cpp:150] Setting up conv9_2_conv9_2_relu_0_split
I0606 16:11:51.667171  7903 net.cpp:157] Top shape: 4 256 1 1 (1024)
I0606 16:11:51.667173  7903 net.cpp:157] Top shape: 4 256 1 1 (1024)
I0606 16:11:51.667176  7903 net.cpp:157] Top shape: 4 256 1 1 (1024)
I0606 16:11:51.667177  7903 net.cpp:165] Memory required for data: 941121568
I0606 16:11:51.667179  7903 layer_factory.hpp:77] Creating layer conv4_3_norm
I0606 16:11:51.667186  7903 net.cpp:100] Creating Layer conv4_3_norm
I0606 16:11:51.667188  7903 net.cpp:434] conv4_3_norm <- conv4_3_relu4_3_0_split_1
I0606 16:11:51.667193  7903 net.cpp:408] conv4_3_norm -> conv4_3_norm
I0606 16:11:51.667343  7903 net.cpp:150] Setting up conv4_3_norm
I0606 16:11:51.667349  7903 net.cpp:157] Top shape: 4 512 38 38 (2957312)
I0606 16:11:51.667351  7903 net.cpp:165] Memory required for data: 952950816
I0606 16:11:51.667354  7903 layer_factory.hpp:77] Creating layer conv4_3_norm_conv4_3_norm_0_split
I0606 16:11:51.667358  7903 net.cpp:100] Creating Layer conv4_3_norm_conv4_3_norm_0_split
I0606 16:11:51.667361  7903 net.cpp:434] conv4_3_norm_conv4_3_norm_0_split <- conv4_3_norm
I0606 16:11:51.667366  7903 net.cpp:408] conv4_3_norm_conv4_3_norm_0_split -> conv4_3_norm_conv4_3_norm_0_split_0
I0606 16:11:51.667371  7903 net.cpp:408] conv4_3_norm_conv4_3_norm_0_split -> conv4_3_norm_conv4_3_norm_0_split_1
I0606 16:11:51.667374  7903 net.cpp:408] conv4_3_norm_conv4_3_norm_0_split -> conv4_3_norm_conv4_3_norm_0_split_2
I0606 16:11:51.667417  7903 net.cpp:150] Setting up conv4_3_norm_conv4_3_norm_0_split
I0606 16:11:51.667421  7903 net.cpp:157] Top shape: 4 512 38 38 (2957312)
I0606 16:11:51.667424  7903 net.cpp:157] Top shape: 4 512 38 38 (2957312)
I0606 16:11:51.667428  7903 net.cpp:157] Top shape: 4 512 38 38 (2957312)
I0606 16:11:51.667429  7903 net.cpp:165] Memory required for data: 988438560
I0606 16:11:51.667431  7903 layer_factory.hpp:77] Creating layer conv4_3_norm_mbox_loc
I0606 16:11:51.667438  7903 net.cpp:100] Creating Layer conv4_3_norm_mbox_loc
I0606 16:11:51.667441  7903 net.cpp:434] conv4_3_norm_mbox_loc <- conv4_3_norm_conv4_3_norm_0_split_0
I0606 16:11:51.667446  7903 net.cpp:408] conv4_3_norm_mbox_loc -> conv4_3_norm_mbox_loc
I0606 16:11:51.669322  7903 net.cpp:150] Setting up conv4_3_norm_mbox_loc
I0606 16:11:51.669332  7903 net.cpp:157] Top shape: 4 16 38 38 (92416)
I0606 16:11:51.669333  7903 net.cpp:165] Memory required for data: 988808224
I0606 16:11:51.669338  7903 layer_factory.hpp:77] Creating layer conv4_3_norm_mbox_loc_perm
I0606 16:11:51.669344  7903 net.cpp:100] Creating Layer conv4_3_norm_mbox_loc_perm
I0606 16:11:51.669348  7903 net.cpp:434] conv4_3_norm_mbox_loc_perm <- conv4_3_norm_mbox_loc
I0606 16:11:51.669353  7903 net.cpp:408] conv4_3_norm_mbox_loc_perm -> conv4_3_norm_mbox_loc_perm
I0606 16:11:51.669459  7903 net.cpp:150] Setting up conv4_3_norm_mbox_loc_perm
I0606 16:11:51.669472  7903 net.cpp:157] Top shape: 4 38 38 16 (92416)
I0606 16:11:51.669476  7903 net.cpp:165] Memory required for data: 989177888
I0606 16:11:51.669477  7903 layer_factory.hpp:77] Creating layer conv4_3_norm_mbox_loc_flat
I0606 16:11:51.669482  7903 net.cpp:100] Creating Layer conv4_3_norm_mbox_loc_flat
I0606 16:11:51.669484  7903 net.cpp:434] conv4_3_norm_mbox_loc_flat <- conv4_3_norm_mbox_loc_perm
I0606 16:11:51.669489  7903 net.cpp:408] conv4_3_norm_mbox_loc_flat -> conv4_3_norm_mbox_loc_flat
I0606 16:11:51.669519  7903 net.cpp:150] Setting up conv4_3_norm_mbox_loc_flat
I0606 16:11:51.669525  7903 net.cpp:157] Top shape: 4 23104 (92416)
I0606 16:11:51.669528  7903 net.cpp:165] Memory required for data: 989547552
I0606 16:11:51.669529  7903 layer_factory.hpp:77] Creating layer conv4_3_norm_mbox_conf
I0606 16:11:51.669539  7903 net.cpp:100] Creating Layer conv4_3_norm_mbox_conf
I0606 16:11:51.669543  7903 net.cpp:434] conv4_3_norm_mbox_conf <- conv4_3_norm_conv4_3_norm_0_split_1
I0606 16:11:51.669548  7903 net.cpp:408] conv4_3_norm_mbox_conf -> conv4_3_norm_mbox_conf
I0606 16:11:51.671422  7903 net.cpp:150] Setting up conv4_3_norm_mbox_conf
I0606 16:11:51.671430  7903 net.cpp:157] Top shape: 4 16 38 38 (92416)
I0606 16:11:51.671433  7903 net.cpp:165] Memory required for data: 989917216
I0606 16:11:51.671438  7903 layer_factory.hpp:77] Creating layer conv4_3_norm_mbox_conf_perm
I0606 16:11:51.671443  7903 net.cpp:100] Creating Layer conv4_3_norm_mbox_conf_perm
I0606 16:11:51.671447  7903 net.cpp:434] conv4_3_norm_mbox_conf_perm <- conv4_3_norm_mbox_conf
I0606 16:11:51.671452  7903 net.cpp:408] conv4_3_norm_mbox_conf_perm -> conv4_3_norm_mbox_conf_perm
I0606 16:11:51.671555  7903 net.cpp:150] Setting up conv4_3_norm_mbox_conf_perm
I0606 16:11:51.671561  7903 net.cpp:157] Top shape: 4 38 38 16 (92416)
I0606 16:11:51.671562  7903 net.cpp:165] Memory required for data: 990286880
I0606 16:11:51.671564  7903 layer_factory.hpp:77] Creating layer conv4_3_norm_mbox_conf_flat
I0606 16:11:51.671569  7903 net.cpp:100] Creating Layer conv4_3_norm_mbox_conf_flat
I0606 16:11:51.671572  7903 net.cpp:434] conv4_3_norm_mbox_conf_flat <- conv4_3_norm_mbox_conf_perm
I0606 16:11:51.671576  7903 net.cpp:408] conv4_3_norm_mbox_conf_flat -> conv4_3_norm_mbox_conf_flat
I0606 16:11:51.671597  7903 net.cpp:150] Setting up conv4_3_norm_mbox_conf_flat
I0606 16:11:51.671602  7903 net.cpp:157] Top shape: 4 23104 (92416)
I0606 16:11:51.671603  7903 net.cpp:165] Memory required for data: 990656544
I0606 16:11:51.671605  7903 layer_factory.hpp:77] Creating layer conv4_3_norm_mbox_priorbox
I0606 16:11:51.671612  7903 net.cpp:100] Creating Layer conv4_3_norm_mbox_priorbox
I0606 16:11:51.671613  7903 net.cpp:434] conv4_3_norm_mbox_priorbox <- conv4_3_norm_conv4_3_norm_0_split_2
I0606 16:11:51.671617  7903 net.cpp:434] conv4_3_norm_mbox_priorbox <- data_data_0_split_1
I0606 16:11:51.671622  7903 net.cpp:408] conv4_3_norm_mbox_priorbox -> conv4_3_norm_mbox_priorbox
I0606 16:11:51.671644  7903 net.cpp:150] Setting up conv4_3_norm_mbox_priorbox
I0606 16:11:51.671650  7903 net.cpp:157] Top shape: 1 2 23104 (46208)
I0606 16:11:51.671653  7903 net.cpp:165] Memory required for data: 990841376
I0606 16:11:51.671654  7903 layer_factory.hpp:77] Creating layer fc7_mbox_loc
I0606 16:11:51.671661  7903 net.cpp:100] Creating Layer fc7_mbox_loc
I0606 16:11:51.671665  7903 net.cpp:434] fc7_mbox_loc <- fc7_relu7_0_split_1
I0606 16:11:51.671669  7903 net.cpp:408] fc7_mbox_loc -> fc7_mbox_loc
I0606 16:11:51.674165  7903 net.cpp:150] Setting up fc7_mbox_loc
I0606 16:11:51.674175  7903 net.cpp:157] Top shape: 4 24 19 19 (34656)
I0606 16:11:51.674178  7903 net.cpp:165] Memory required for data: 990980000
I0606 16:11:51.674182  7903 layer_factory.hpp:77] Creating layer fc7_mbox_loc_perm
I0606 16:11:51.674187  7903 net.cpp:100] Creating Layer fc7_mbox_loc_perm
I0606 16:11:51.674191  7903 net.cpp:434] fc7_mbox_loc_perm <- fc7_mbox_loc
I0606 16:11:51.674196  7903 net.cpp:408] fc7_mbox_loc_perm -> fc7_mbox_loc_perm
I0606 16:11:51.674305  7903 net.cpp:150] Setting up fc7_mbox_loc_perm
I0606 16:11:51.674311  7903 net.cpp:157] Top shape: 4 19 19 24 (34656)
I0606 16:11:51.674314  7903 net.cpp:165] Memory required for data: 991118624
I0606 16:11:51.674316  7903 layer_factory.hpp:77] Creating layer fc7_mbox_loc_flat
I0606 16:11:51.674320  7903 net.cpp:100] Creating Layer fc7_mbox_loc_flat
I0606 16:11:51.674324  7903 net.cpp:434] fc7_mbox_loc_flat <- fc7_mbox_loc_perm
I0606 16:11:51.674326  7903 net.cpp:408] fc7_mbox_loc_flat -> fc7_mbox_loc_flat
I0606 16:11:51.674350  7903 net.cpp:150] Setting up fc7_mbox_loc_flat
I0606 16:11:51.674355  7903 net.cpp:157] Top shape: 4 8664 (34656)
I0606 16:11:51.674356  7903 net.cpp:165] Memory required for data: 991257248
I0606 16:11:51.674358  7903 layer_factory.hpp:77] Creating layer fc7_mbox_conf
I0606 16:11:51.674365  7903 net.cpp:100] Creating Layer fc7_mbox_conf
I0606 16:11:51.674368  7903 net.cpp:434] fc7_mbox_conf <- fc7_relu7_0_split_2
I0606 16:11:51.674373  7903 net.cpp:408] fc7_mbox_conf -> fc7_mbox_conf
I0606 16:11:51.676832  7903 net.cpp:150] Setting up fc7_mbox_conf
I0606 16:11:51.676842  7903 net.cpp:157] Top shape: 4 24 19 19 (34656)
I0606 16:11:51.676844  7903 net.cpp:165] Memory required for data: 991395872
I0606 16:11:51.676849  7903 layer_factory.hpp:77] Creating layer fc7_mbox_conf_perm
I0606 16:11:51.676854  7903 net.cpp:100] Creating Layer fc7_mbox_conf_perm
I0606 16:11:51.676858  7903 net.cpp:434] fc7_mbox_conf_perm <- fc7_mbox_conf
I0606 16:11:51.676862  7903 net.cpp:408] fc7_mbox_conf_perm -> fc7_mbox_conf_perm
I0606 16:11:51.676965  7903 net.cpp:150] Setting up fc7_mbox_conf_perm
I0606 16:11:51.676971  7903 net.cpp:157] Top shape: 4 19 19 24 (34656)
I0606 16:11:51.676973  7903 net.cpp:165] Memory required for data: 991534496
I0606 16:11:51.676975  7903 layer_factory.hpp:77] Creating layer fc7_mbox_conf_flat
I0606 16:11:51.676980  7903 net.cpp:100] Creating Layer fc7_mbox_conf_flat
I0606 16:11:51.676983  7903 net.cpp:434] fc7_mbox_conf_flat <- fc7_mbox_conf_perm
I0606 16:11:51.676987  7903 net.cpp:408] fc7_mbox_conf_flat -> fc7_mbox_conf_flat
I0606 16:11:51.677008  7903 net.cpp:150] Setting up fc7_mbox_conf_flat
I0606 16:11:51.677013  7903 net.cpp:157] Top shape: 4 8664 (34656)
I0606 16:11:51.677016  7903 net.cpp:165] Memory required for data: 991673120
I0606 16:11:51.677017  7903 layer_factory.hpp:77] Creating layer fc7_mbox_priorbox
I0606 16:11:51.677023  7903 net.cpp:100] Creating Layer fc7_mbox_priorbox
I0606 16:11:51.677026  7903 net.cpp:434] fc7_mbox_priorbox <- fc7_relu7_0_split_3
I0606 16:11:51.677029  7903 net.cpp:434] fc7_mbox_priorbox <- data_data_0_split_2
I0606 16:11:51.677033  7903 net.cpp:408] fc7_mbox_priorbox -> fc7_mbox_priorbox
I0606 16:11:51.677057  7903 net.cpp:150] Setting up fc7_mbox_priorbox
I0606 16:11:51.677062  7903 net.cpp:157] Top shape: 1 2 8664 (17328)
I0606 16:11:51.677064  7903 net.cpp:165] Memory required for data: 991742432
I0606 16:11:51.677067  7903 layer_factory.hpp:77] Creating layer conv6_2_mbox_loc
I0606 16:11:51.677073  7903 net.cpp:100] Creating Layer conv6_2_mbox_loc
I0606 16:11:51.677078  7903 net.cpp:434] conv6_2_mbox_loc <- conv6_2_conv6_2_relu_0_split_1
I0606 16:11:51.677083  7903 net.cpp:408] conv6_2_mbox_loc -> conv6_2_mbox_loc
I0606 16:11:51.679137  7903 net.cpp:150] Setting up conv6_2_mbox_loc
I0606 16:11:51.679147  7903 net.cpp:157] Top shape: 4 24 10 10 (9600)
I0606 16:11:51.679149  7903 net.cpp:165] Memory required for data: 991780832
I0606 16:11:51.679154  7903 layer_factory.hpp:77] Creating layer conv6_2_mbox_loc_perm
I0606 16:11:51.679160  7903 net.cpp:100] Creating Layer conv6_2_mbox_loc_perm
I0606 16:11:51.679164  7903 net.cpp:434] conv6_2_mbox_loc_perm <- conv6_2_mbox_loc
I0606 16:11:51.679168  7903 net.cpp:408] conv6_2_mbox_loc_perm -> conv6_2_mbox_loc_perm
I0606 16:11:51.679288  7903 net.cpp:150] Setting up conv6_2_mbox_loc_perm
I0606 16:11:51.679294  7903 net.cpp:157] Top shape: 4 10 10 24 (9600)
I0606 16:11:51.679296  7903 net.cpp:165] Memory required for data: 991819232
I0606 16:11:51.679298  7903 layer_factory.hpp:77] Creating layer conv6_2_mbox_loc_flat
I0606 16:11:51.679311  7903 net.cpp:100] Creating Layer conv6_2_mbox_loc_flat
I0606 16:11:51.679314  7903 net.cpp:434] conv6_2_mbox_loc_flat <- conv6_2_mbox_loc_perm
I0606 16:11:51.679317  7903 net.cpp:408] conv6_2_mbox_loc_flat -> conv6_2_mbox_loc_flat
I0606 16:11:51.679340  7903 net.cpp:150] Setting up conv6_2_mbox_loc_flat
I0606 16:11:51.679345  7903 net.cpp:157] Top shape: 4 2400 (9600)
I0606 16:11:51.679348  7903 net.cpp:165] Memory required for data: 991857632
I0606 16:11:51.679350  7903 layer_factory.hpp:77] Creating layer conv6_2_mbox_conf
I0606 16:11:51.679356  7903 net.cpp:100] Creating Layer conv6_2_mbox_conf
I0606 16:11:51.679359  7903 net.cpp:434] conv6_2_mbox_conf <- conv6_2_conv6_2_relu_0_split_2
I0606 16:11:51.679364  7903 net.cpp:408] conv6_2_mbox_conf -> conv6_2_mbox_conf
I0606 16:11:51.681463  7903 net.cpp:150] Setting up conv6_2_mbox_conf
I0606 16:11:51.681474  7903 net.cpp:157] Top shape: 4 24 10 10 (9600)
I0606 16:11:51.681478  7903 net.cpp:165] Memory required for data: 991896032
I0606 16:11:51.681483  7903 layer_factory.hpp:77] Creating layer conv6_2_mbox_conf_perm
I0606 16:11:51.681489  7903 net.cpp:100] Creating Layer conv6_2_mbox_conf_perm
I0606 16:11:51.681493  7903 net.cpp:434] conv6_2_mbox_conf_perm <- conv6_2_mbox_conf
I0606 16:11:51.681514  7903 net.cpp:408] conv6_2_mbox_conf_perm -> conv6_2_mbox_conf_perm
I0606 16:11:51.681637  7903 net.cpp:150] Setting up conv6_2_mbox_conf_perm
I0606 16:11:51.681643  7903 net.cpp:157] Top shape: 4 10 10 24 (9600)
I0606 16:11:51.681644  7903 net.cpp:165] Memory required for data: 991934432
I0606 16:11:51.681660  7903 layer_factory.hpp:77] Creating layer conv6_2_mbox_conf_flat
I0606 16:11:51.681665  7903 net.cpp:100] Creating Layer conv6_2_mbox_conf_flat
I0606 16:11:51.681668  7903 net.cpp:434] conv6_2_mbox_conf_flat <- conv6_2_mbox_conf_perm
I0606 16:11:51.681673  7903 net.cpp:408] conv6_2_mbox_conf_flat -> conv6_2_mbox_conf_flat
I0606 16:11:51.681694  7903 net.cpp:150] Setting up conv6_2_mbox_conf_flat
I0606 16:11:51.681699  7903 net.cpp:157] Top shape: 4 2400 (9600)
I0606 16:11:51.681700  7903 net.cpp:165] Memory required for data: 991972832
I0606 16:11:51.681702  7903 layer_factory.hpp:77] Creating layer conv6_2_mbox_priorbox
I0606 16:11:51.681709  7903 net.cpp:100] Creating Layer conv6_2_mbox_priorbox
I0606 16:11:51.681712  7903 net.cpp:434] conv6_2_mbox_priorbox <- conv6_2_conv6_2_relu_0_split_3
I0606 16:11:51.681715  7903 net.cpp:434] conv6_2_mbox_priorbox <- data_data_0_split_3
I0606 16:11:51.681720  7903 net.cpp:408] conv6_2_mbox_priorbox -> conv6_2_mbox_priorbox
I0606 16:11:51.681746  7903 net.cpp:150] Setting up conv6_2_mbox_priorbox
I0606 16:11:51.681751  7903 net.cpp:157] Top shape: 1 2 2400 (4800)
I0606 16:11:51.681752  7903 net.cpp:165] Memory required for data: 991992032
I0606 16:11:51.681754  7903 layer_factory.hpp:77] Creating layer conv7_2_mbox_loc
I0606 16:11:51.681761  7903 net.cpp:100] Creating Layer conv7_2_mbox_loc
I0606 16:11:51.681766  7903 net.cpp:434] conv7_2_mbox_loc <- conv7_2_conv7_2_relu_0_split_1
I0606 16:11:51.681771  7903 net.cpp:408] conv7_2_mbox_loc -> conv7_2_mbox_loc
I0606 16:11:51.683140  7903 net.cpp:150] Setting up conv7_2_mbox_loc
I0606 16:11:51.683148  7903 net.cpp:157] Top shape: 4 24 5 5 (2400)
I0606 16:11:51.683151  7903 net.cpp:165] Memory required for data: 992001632
I0606 16:11:51.683156  7903 layer_factory.hpp:77] Creating layer conv7_2_mbox_loc_perm
I0606 16:11:51.683161  7903 net.cpp:100] Creating Layer conv7_2_mbox_loc_perm
I0606 16:11:51.683166  7903 net.cpp:434] conv7_2_mbox_loc_perm <- conv7_2_mbox_loc
I0606 16:11:51.683171  7903 net.cpp:408] conv7_2_mbox_loc_perm -> conv7_2_mbox_loc_perm
I0606 16:11:51.683274  7903 net.cpp:150] Setting up conv7_2_mbox_loc_perm
I0606 16:11:51.683280  7903 net.cpp:157] Top shape: 4 5 5 24 (2400)
I0606 16:11:51.683282  7903 net.cpp:165] Memory required for data: 992011232
I0606 16:11:51.683284  7903 layer_factory.hpp:77] Creating layer conv7_2_mbox_loc_flat
I0606 16:11:51.683290  7903 net.cpp:100] Creating Layer conv7_2_mbox_loc_flat
I0606 16:11:51.683300  7903 net.cpp:434] conv7_2_mbox_loc_flat <- conv7_2_mbox_loc_perm
I0606 16:11:51.683305  7903 net.cpp:408] conv7_2_mbox_loc_flat -> conv7_2_mbox_loc_flat
I0606 16:11:51.683328  7903 net.cpp:150] Setting up conv7_2_mbox_loc_flat
I0606 16:11:51.683332  7903 net.cpp:157] Top shape: 4 600 (2400)
I0606 16:11:51.683334  7903 net.cpp:165] Memory required for data: 992020832
I0606 16:11:51.683336  7903 layer_factory.hpp:77] Creating layer conv7_2_mbox_conf
I0606 16:11:51.683346  7903 net.cpp:100] Creating Layer conv7_2_mbox_conf
I0606 16:11:51.683351  7903 net.cpp:434] conv7_2_mbox_conf <- conv7_2_conv7_2_relu_0_split_2
I0606 16:11:51.683357  7903 net.cpp:408] conv7_2_mbox_conf -> conv7_2_mbox_conf
I0606 16:11:51.685349  7903 net.cpp:150] Setting up conv7_2_mbox_conf
I0606 16:11:51.685361  7903 net.cpp:157] Top shape: 4 24 5 5 (2400)
I0606 16:11:51.685364  7903 net.cpp:165] Memory required for data: 992030432
I0606 16:11:51.685370  7903 layer_factory.hpp:77] Creating layer conv7_2_mbox_conf_perm
I0606 16:11:51.685376  7903 net.cpp:100] Creating Layer conv7_2_mbox_conf_perm
I0606 16:11:51.685379  7903 net.cpp:434] conv7_2_mbox_conf_perm <- conv7_2_mbox_conf
I0606 16:11:51.685385  7903 net.cpp:408] conv7_2_mbox_conf_perm -> conv7_2_mbox_conf_perm
I0606 16:11:51.685504  7903 net.cpp:150] Setting up conv7_2_mbox_conf_perm
I0606 16:11:51.685511  7903 net.cpp:157] Top shape: 4 5 5 24 (2400)
I0606 16:11:51.685513  7903 net.cpp:165] Memory required for data: 992040032
I0606 16:11:51.685515  7903 layer_factory.hpp:77] Creating layer conv7_2_mbox_conf_flat
I0606 16:11:51.685519  7903 net.cpp:100] Creating Layer conv7_2_mbox_conf_flat
I0606 16:11:51.685523  7903 net.cpp:434] conv7_2_mbox_conf_flat <- conv7_2_mbox_conf_perm
I0606 16:11:51.685528  7903 net.cpp:408] conv7_2_mbox_conf_flat -> conv7_2_mbox_conf_flat
I0606 16:11:51.685550  7903 net.cpp:150] Setting up conv7_2_mbox_conf_flat
I0606 16:11:51.685555  7903 net.cpp:157] Top shape: 4 600 (2400)
I0606 16:11:51.685557  7903 net.cpp:165] Memory required for data: 992049632
I0606 16:11:51.685559  7903 layer_factory.hpp:77] Creating layer conv7_2_mbox_priorbox
I0606 16:11:51.685564  7903 net.cpp:100] Creating Layer conv7_2_mbox_priorbox
I0606 16:11:51.685567  7903 net.cpp:434] conv7_2_mbox_priorbox <- conv7_2_conv7_2_relu_0_split_3
I0606 16:11:51.685570  7903 net.cpp:434] conv7_2_mbox_priorbox <- data_data_0_split_4
I0606 16:11:51.685576  7903 net.cpp:408] conv7_2_mbox_priorbox -> conv7_2_mbox_priorbox
I0606 16:11:51.685602  7903 net.cpp:150] Setting up conv7_2_mbox_priorbox
I0606 16:11:51.685609  7903 net.cpp:157] Top shape: 1 2 600 (1200)
I0606 16:11:51.685612  7903 net.cpp:165] Memory required for data: 992054432
I0606 16:11:51.685614  7903 layer_factory.hpp:77] Creating layer conv8_2_mbox_loc
I0606 16:11:51.685622  7903 net.cpp:100] Creating Layer conv8_2_mbox_loc
I0606 16:11:51.685626  7903 net.cpp:434] conv8_2_mbox_loc <- conv8_2_conv8_2_relu_0_split_1
I0606 16:11:51.685631  7903 net.cpp:408] conv8_2_mbox_loc -> conv8_2_mbox_loc
I0606 16:11:51.687417  7903 net.cpp:150] Setting up conv8_2_mbox_loc
I0606 16:11:51.687427  7903 net.cpp:157] Top shape: 4 16 3 3 (576)
I0606 16:11:51.687428  7903 net.cpp:165] Memory required for data: 992056736
I0606 16:11:51.687440  7903 layer_factory.hpp:77] Creating layer conv8_2_mbox_loc_perm
I0606 16:11:51.687446  7903 net.cpp:100] Creating Layer conv8_2_mbox_loc_perm
I0606 16:11:51.687451  7903 net.cpp:434] conv8_2_mbox_loc_perm <- conv8_2_mbox_loc
I0606 16:11:51.687455  7903 net.cpp:408] conv8_2_mbox_loc_perm -> conv8_2_mbox_loc_perm
I0606 16:11:51.687559  7903 net.cpp:150] Setting up conv8_2_mbox_loc_perm
I0606 16:11:51.687564  7903 net.cpp:157] Top shape: 4 3 3 16 (576)
I0606 16:11:51.687567  7903 net.cpp:165] Memory required for data: 992059040
I0606 16:11:51.687569  7903 layer_factory.hpp:77] Creating layer conv8_2_mbox_loc_flat
I0606 16:11:51.687573  7903 net.cpp:100] Creating Layer conv8_2_mbox_loc_flat
I0606 16:11:51.687577  7903 net.cpp:434] conv8_2_mbox_loc_flat <- conv8_2_mbox_loc_perm
I0606 16:11:51.687580  7903 net.cpp:408] conv8_2_mbox_loc_flat -> conv8_2_mbox_loc_flat
I0606 16:11:51.687611  7903 net.cpp:150] Setting up conv8_2_mbox_loc_flat
I0606 16:11:51.687616  7903 net.cpp:157] Top shape: 4 144 (576)
I0606 16:11:51.687618  7903 net.cpp:165] Memory required for data: 992061344
I0606 16:11:51.687621  7903 layer_factory.hpp:77] Creating layer conv8_2_mbox_conf
I0606 16:11:51.687628  7903 net.cpp:100] Creating Layer conv8_2_mbox_conf
I0606 16:11:51.687631  7903 net.cpp:434] conv8_2_mbox_conf <- conv8_2_conv8_2_relu_0_split_2
I0606 16:11:51.687636  7903 net.cpp:408] conv8_2_mbox_conf -> conv8_2_mbox_conf
I0606 16:11:51.689366  7903 net.cpp:150] Setting up conv8_2_mbox_conf
I0606 16:11:51.689376  7903 net.cpp:157] Top shape: 4 16 3 3 (576)
I0606 16:11:51.689378  7903 net.cpp:165] Memory required for data: 992063648
I0606 16:11:51.689383  7903 layer_factory.hpp:77] Creating layer conv8_2_mbox_conf_perm
I0606 16:11:51.689388  7903 net.cpp:100] Creating Layer conv8_2_mbox_conf_perm
I0606 16:11:51.689393  7903 net.cpp:434] conv8_2_mbox_conf_perm <- conv8_2_mbox_conf
I0606 16:11:51.689396  7903 net.cpp:408] conv8_2_mbox_conf_perm -> conv8_2_mbox_conf_perm
I0606 16:11:51.689508  7903 net.cpp:150] Setting up conv8_2_mbox_conf_perm
I0606 16:11:51.689514  7903 net.cpp:157] Top shape: 4 3 3 16 (576)
I0606 16:11:51.689517  7903 net.cpp:165] Memory required for data: 992065952
I0606 16:11:51.689518  7903 layer_factory.hpp:77] Creating layer conv8_2_mbox_conf_flat
I0606 16:11:51.689522  7903 net.cpp:100] Creating Layer conv8_2_mbox_conf_flat
I0606 16:11:51.689538  7903 net.cpp:434] conv8_2_mbox_conf_flat <- conv8_2_mbox_conf_perm
I0606 16:11:51.689543  7903 net.cpp:408] conv8_2_mbox_conf_flat -> conv8_2_mbox_conf_flat
I0606 16:11:51.689566  7903 net.cpp:150] Setting up conv8_2_mbox_conf_flat
I0606 16:11:51.689573  7903 net.cpp:157] Top shape: 4 144 (576)
I0606 16:11:51.689590  7903 net.cpp:165] Memory required for data: 992068256
I0606 16:11:51.689594  7903 layer_factory.hpp:77] Creating layer conv8_2_mbox_priorbox
I0606 16:11:51.689599  7903 net.cpp:100] Creating Layer conv8_2_mbox_priorbox
I0606 16:11:51.689604  7903 net.cpp:434] conv8_2_mbox_priorbox <- conv8_2_conv8_2_relu_0_split_3
I0606 16:11:51.689610  7903 net.cpp:434] conv8_2_mbox_priorbox <- data_data_0_split_5
I0606 16:11:51.689618  7903 net.cpp:408] conv8_2_mbox_priorbox -> conv8_2_mbox_priorbox
I0606 16:11:51.689652  7903 net.cpp:150] Setting up conv8_2_mbox_priorbox
I0606 16:11:51.689658  7903 net.cpp:157] Top shape: 1 2 144 (288)
I0606 16:11:51.689662  7903 net.cpp:165] Memory required for data: 992069408
I0606 16:11:51.689666  7903 layer_factory.hpp:77] Creating layer conv9_2_mbox_loc
I0606 16:11:51.689677  7903 net.cpp:100] Creating Layer conv9_2_mbox_loc
I0606 16:11:51.689682  7903 net.cpp:434] conv9_2_mbox_loc <- conv9_2_conv9_2_relu_0_split_0
I0606 16:11:51.689689  7903 net.cpp:408] conv9_2_mbox_loc -> conv9_2_mbox_loc
I0606 16:11:51.691948  7903 net.cpp:150] Setting up conv9_2_mbox_loc
I0606 16:11:51.691958  7903 net.cpp:157] Top shape: 4 16 1 1 (64)
I0606 16:11:51.691962  7903 net.cpp:165] Memory required for data: 992069664
I0606 16:11:51.691970  7903 layer_factory.hpp:77] Creating layer conv9_2_mbox_loc_perm
I0606 16:11:51.691979  7903 net.cpp:100] Creating Layer conv9_2_mbox_loc_perm
I0606 16:11:51.691984  7903 net.cpp:434] conv9_2_mbox_loc_perm <- conv9_2_mbox_loc
I0606 16:11:51.691992  7903 net.cpp:408] conv9_2_mbox_loc_perm -> conv9_2_mbox_loc_perm
I0606 16:11:51.692118  7903 net.cpp:150] Setting up conv9_2_mbox_loc_perm
I0606 16:11:51.692124  7903 net.cpp:157] Top shape: 4 1 1 16 (64)
I0606 16:11:51.692127  7903 net.cpp:165] Memory required for data: 992069920
I0606 16:11:51.692131  7903 layer_factory.hpp:77] Creating layer conv9_2_mbox_loc_flat
I0606 16:11:51.692139  7903 net.cpp:100] Creating Layer conv9_2_mbox_loc_flat
I0606 16:11:51.692144  7903 net.cpp:434] conv9_2_mbox_loc_flat <- conv9_2_mbox_loc_perm
I0606 16:11:51.692152  7903 net.cpp:408] conv9_2_mbox_loc_flat -> conv9_2_mbox_loc_flat
I0606 16:11:51.692180  7903 net.cpp:150] Setting up conv9_2_mbox_loc_flat
I0606 16:11:51.692194  7903 net.cpp:157] Top shape: 4 16 (64)
I0606 16:11:51.692198  7903 net.cpp:165] Memory required for data: 992070176
I0606 16:11:51.692201  7903 layer_factory.hpp:77] Creating layer conv9_2_mbox_conf
I0606 16:11:51.692214  7903 net.cpp:100] Creating Layer conv9_2_mbox_conf
I0606 16:11:51.692219  7903 net.cpp:434] conv9_2_mbox_conf <- conv9_2_conv9_2_relu_0_split_1
I0606 16:11:51.692225  7903 net.cpp:408] conv9_2_mbox_conf -> conv9_2_mbox_conf
I0606 16:11:51.694001  7903 net.cpp:150] Setting up conv9_2_mbox_conf
I0606 16:11:51.694011  7903 net.cpp:157] Top shape: 4 16 1 1 (64)
I0606 16:11:51.694016  7903 net.cpp:165] Memory required for data: 992070432
I0606 16:11:51.694023  7903 layer_factory.hpp:77] Creating layer conv9_2_mbox_conf_perm
I0606 16:11:51.694032  7903 net.cpp:100] Creating Layer conv9_2_mbox_conf_perm
I0606 16:11:51.694037  7903 net.cpp:434] conv9_2_mbox_conf_perm <- conv9_2_mbox_conf
I0606 16:11:51.694046  7903 net.cpp:408] conv9_2_mbox_conf_perm -> conv9_2_mbox_conf_perm
I0606 16:11:51.694157  7903 net.cpp:150] Setting up conv9_2_mbox_conf_perm
I0606 16:11:51.694164  7903 net.cpp:157] Top shape: 4 1 1 16 (64)
I0606 16:11:51.694167  7903 net.cpp:165] Memory required for data: 992070688
I0606 16:11:51.694172  7903 layer_factory.hpp:77] Creating layer conv9_2_mbox_conf_flat
I0606 16:11:51.694180  7903 net.cpp:100] Creating Layer conv9_2_mbox_conf_flat
I0606 16:11:51.694185  7903 net.cpp:434] conv9_2_mbox_conf_flat <- conv9_2_mbox_conf_perm
I0606 16:11:51.694190  7903 net.cpp:408] conv9_2_mbox_conf_flat -> conv9_2_mbox_conf_flat
I0606 16:11:51.694218  7903 net.cpp:150] Setting up conv9_2_mbox_conf_flat
I0606 16:11:51.694224  7903 net.cpp:157] Top shape: 4 16 (64)
I0606 16:11:51.694228  7903 net.cpp:165] Memory required for data: 992070944
I0606 16:11:51.694231  7903 layer_factory.hpp:77] Creating layer conv9_2_mbox_priorbox
I0606 16:11:51.694241  7903 net.cpp:100] Creating Layer conv9_2_mbox_priorbox
I0606 16:11:51.694245  7903 net.cpp:434] conv9_2_mbox_priorbox <- conv9_2_conv9_2_relu_0_split_2
I0606 16:11:51.694252  7903 net.cpp:434] conv9_2_mbox_priorbox <- data_data_0_split_6
I0606 16:11:51.694258  7903 net.cpp:408] conv9_2_mbox_priorbox -> conv9_2_mbox_priorbox
I0606 16:11:51.694288  7903 net.cpp:150] Setting up conv9_2_mbox_priorbox
I0606 16:11:51.694294  7903 net.cpp:157] Top shape: 1 2 16 (32)
I0606 16:11:51.694298  7903 net.cpp:165] Memory required for data: 992071072
I0606 16:11:51.694301  7903 layer_factory.hpp:77] Creating layer mbox_loc
I0606 16:11:51.694309  7903 net.cpp:100] Creating Layer mbox_loc
I0606 16:11:51.694315  7903 net.cpp:434] mbox_loc <- conv4_3_norm_mbox_loc_flat
I0606 16:11:51.694321  7903 net.cpp:434] mbox_loc <- fc7_mbox_loc_flat
I0606 16:11:51.694327  7903 net.cpp:434] mbox_loc <- conv6_2_mbox_loc_flat
I0606 16:11:51.694334  7903 net.cpp:434] mbox_loc <- conv7_2_mbox_loc_flat
I0606 16:11:51.694339  7903 net.cpp:434] mbox_loc <- conv8_2_mbox_loc_flat
I0606 16:11:51.694344  7903 net.cpp:434] mbox_loc <- conv9_2_mbox_loc_flat
I0606 16:11:51.694351  7903 net.cpp:408] mbox_loc -> mbox_loc
I0606 16:11:51.694380  7903 net.cpp:150] Setting up mbox_loc
I0606 16:11:51.694387  7903 net.cpp:157] Top shape: 4 34928 (139712)
I0606 16:11:51.694391  7903 net.cpp:165] Memory required for data: 992629920
I0606 16:11:51.694394  7903 layer_factory.hpp:77] Creating layer mbox_conf
I0606 16:11:51.694401  7903 net.cpp:100] Creating Layer mbox_conf
I0606 16:11:51.694406  7903 net.cpp:434] mbox_conf <- conv4_3_norm_mbox_conf_flat
I0606 16:11:51.694411  7903 net.cpp:434] mbox_conf <- fc7_mbox_conf_flat
I0606 16:11:51.694416  7903 net.cpp:434] mbox_conf <- conv6_2_mbox_conf_flat
I0606 16:11:51.694422  7903 net.cpp:434] mbox_conf <- conv7_2_mbox_conf_flat
I0606 16:11:51.694427  7903 net.cpp:434] mbox_conf <- conv8_2_mbox_conf_flat
I0606 16:11:51.694432  7903 net.cpp:434] mbox_conf <- conv9_2_mbox_conf_flat
I0606 16:11:51.694437  7903 net.cpp:408] mbox_conf -> mbox_conf
I0606 16:11:51.694464  7903 net.cpp:150] Setting up mbox_conf
I0606 16:11:51.694470  7903 net.cpp:157] Top shape: 4 34928 (139712)
I0606 16:11:51.694483  7903 net.cpp:165] Memory required for data: 993188768
I0606 16:11:51.694486  7903 layer_factory.hpp:77] Creating layer mbox_priorbox
I0606 16:11:51.694495  7903 net.cpp:100] Creating Layer mbox_priorbox
I0606 16:11:51.694500  7903 net.cpp:434] mbox_priorbox <- conv4_3_norm_mbox_priorbox
I0606 16:11:51.694505  7903 net.cpp:434] mbox_priorbox <- fc7_mbox_priorbox
I0606 16:11:51.694511  7903 net.cpp:434] mbox_priorbox <- conv6_2_mbox_priorbox
I0606 16:11:51.694517  7903 net.cpp:434] mbox_priorbox <- conv7_2_mbox_priorbox
I0606 16:11:51.694522  7903 net.cpp:434] mbox_priorbox <- conv8_2_mbox_priorbox
I0606 16:11:51.694527  7903 net.cpp:434] mbox_priorbox <- conv9_2_mbox_priorbox
I0606 16:11:51.694533  7903 net.cpp:408] mbox_priorbox -> mbox_priorbox
I0606 16:11:51.694561  7903 net.cpp:150] Setting up mbox_priorbox
I0606 16:11:51.694566  7903 net.cpp:157] Top shape: 1 2 34928 (69856)
I0606 16:11:51.694569  7903 net.cpp:165] Memory required for data: 993468192
I0606 16:11:51.694573  7903 layer_factory.hpp:77] Creating layer mbox_conf_reshape
I0606 16:11:51.694581  7903 net.cpp:100] Creating Layer mbox_conf_reshape
I0606 16:11:51.694586  7903 net.cpp:434] mbox_conf_reshape <- mbox_conf
I0606 16:11:51.694592  7903 net.cpp:408] mbox_conf_reshape -> mbox_conf_reshape
I0606 16:11:51.694625  7903 net.cpp:150] Setting up mbox_conf_reshape
I0606 16:11:51.694633  7903 net.cpp:157] Top shape: 4 8732 4 (139712)
I0606 16:11:51.694636  7903 net.cpp:165] Memory required for data: 994027040
I0606 16:11:51.694640  7903 layer_factory.hpp:77] Creating layer mbox_conf_softmax
I0606 16:11:51.694648  7903 net.cpp:100] Creating Layer mbox_conf_softmax
I0606 16:11:51.694651  7903 net.cpp:434] mbox_conf_softmax <- mbox_conf_reshape
I0606 16:11:51.694659  7903 net.cpp:408] mbox_conf_softmax -> mbox_conf_softmax
I0606 16:11:51.694867  7903 net.cpp:150] Setting up mbox_conf_softmax
I0606 16:11:51.694875  7903 net.cpp:157] Top shape: 4 8732 4 (139712)
I0606 16:11:51.694880  7903 net.cpp:165] Memory required for data: 994585888
I0606 16:11:51.694883  7903 layer_factory.hpp:77] Creating layer mbox_conf_flatten
I0606 16:11:51.694890  7903 net.cpp:100] Creating Layer mbox_conf_flatten
I0606 16:11:51.694893  7903 net.cpp:434] mbox_conf_flatten <- mbox_conf_softmax
I0606 16:11:51.694901  7903 net.cpp:408] mbox_conf_flatten -> mbox_conf_flatten
I0606 16:11:51.694929  7903 net.cpp:150] Setting up mbox_conf_flatten
I0606 16:11:51.694936  7903 net.cpp:157] Top shape: 4 34928 (139712)
I0606 16:11:51.694939  7903 net.cpp:165] Memory required for data: 995144736
I0606 16:11:51.694942  7903 layer_factory.hpp:77] Creating layer detection_out
I0606 16:11:51.694959  7903 net.cpp:100] Creating Layer detection_out
I0606 16:11:51.694964  7903 net.cpp:434] detection_out <- mbox_loc
I0606 16:11:51.694969  7903 net.cpp:434] detection_out <- mbox_conf_flatten
I0606 16:11:51.694973  7903 net.cpp:434] detection_out <- mbox_priorbox
I0606 16:11:51.694983  7903 net.cpp:408] detection_out -> detection_out
I0606 16:11:51.695360  7903 net.cpp:150] Setting up detection_out
I0606 16:11:51.695369  7903 net.cpp:157] Top shape: 1 1 1 7 (7)
I0606 16:11:51.695374  7903 net.cpp:165] Memory required for data: 995144764
I0606 16:11:51.695379  7903 layer_factory.hpp:77] Creating layer detection_eval
I0606 16:11:51.695385  7903 net.cpp:100] Creating Layer detection_eval
I0606 16:11:51.695389  7903 net.cpp:434] detection_eval <- detection_out
I0606 16:11:51.695396  7903 net.cpp:434] detection_eval <- label
I0606 16:11:51.695405  7903 net.cpp:408] detection_eval -> detection_eval
I0606 16:11:51.695507  7903 net.cpp:150] Setting up detection_eval
I0606 16:11:51.695513  7903 net.cpp:157] Top shape: 1 1 4 5 (20)
I0606 16:11:51.695518  7903 net.cpp:165] Memory required for data: 995144844
I0606 16:11:51.695521  7903 net.cpp:228] detection_eval does not need backward computation.
I0606 16:11:51.695526  7903 net.cpp:228] detection_out does not need backward computation.
I0606 16:11:51.695531  7903 net.cpp:228] mbox_conf_flatten does not need backward computation.
I0606 16:11:51.695543  7903 net.cpp:228] mbox_conf_softmax does not need backward computation.
…
