…
        min_scale: 0.3
        max_scale: 1
        min_aspect_ratio: 0.5
        max_aspect_ratio: 2
      }
      sample_constraint {
        min_jaccard_overlap: 0.9
      }
      max_sample: 1
      max_trials: 50
    }
    batch_sampler {
      sampler {
        min_scale: 0.3
        max_scale: 1
        min_aspect_ratio: 0.5
        max_aspect_ratio: 2
      }
      sample_constraint {
        max_jaccard_overlap: 1
      }
      max_sample: 1
      max_trials: 50
    }
    label_map_file: "data/grayscale_tbs_300x300_HSIL_10x/labelmap_voc.prototxt"
  }
}
layer {
  name: "conv1_1"
  type: "Convolution"
  bottom: "data"
  top: "conv1_1"
  param {
    lr_mult: 1
    decay_mult: 1
  }
  param {
    lr_mult: 2
    decay_mult: 0
  }
  convolution_param {
    num_output: 64
    pad: 1
    kernel_size: 3
    weight_filler {
      type: "xavier"
    }
    bias_filler {
      type: "constant"
      value: 0
    }
  }
}
layer {
  name: "relu1_1"
  type: "ReLU"
  bottom: "conv1_1"
  top: "conv1_1"
}
layer {
  name: "conv1_2"
  type: "Convolution"
  bottom: "conv1_1"
  top: "conv1_2"
  param {
    lr_mult: 1
    decay_mult: 1
  }
  param {
    lr_mult: 2
    decay_mult: 0
  }
  convolution_param {
    num_output: 64
    pad: 1
    kernel_size: 3
    weight_filler {
      type: "xavier"
    }
    bias_filler {
      type: "constant"
      value: 0
    }
  }
}
layer {
  name: "relu1_2"
  type: "ReLU"
  bottom: "conv1_2"
  top: "conv1_2"
}
layer {
  name: "pool1"
  type: "Pooling"
  bottom: "conv1_2"
  top: "pool1"
  pooling_param {
    pool: MAX
    kernel_size: 2
    stride: 2
  }
}
layer {
  name: "conv2_1"
  type: "Convolution"
  bottom: "pool1"
  top: "conv2_1"
  param {
    lr_mult: 1
    decay_mult: 1
  }
  param {
    lr_mult: 2
    decay_mult: 0
  }
  convolution_param {
    num_output: 128
    pad: 1
    kernel_size: 3
    weight_filler {
      type: "xavier"
    }
    bias_filler {
      type: "constant"
      value: 0
    }
  }
}
layer {
  name: "relu2_1"
  type: "ReLU"
  bottom: "conv2_1"
  top: "conv2_1"
}
layer {
  name: "conv2_2"
  type: "Convolution"
  bottom: "conv2_1"
  top: "conv2_2"
  param {
    lr_mult: 1
    decay_mult: 1
  }
  param {
    lr_mult: 2
    decay_mult: 0
  }
  convolution_param {
    num_output: 128
    pad: 1
    kernel_size: 3
    weight_filler {
      type: "xavier"
    }
    bias_filler {
      type: "constant"
      value: 0
    }
  }
}
layer {
  name: "relu2_2"
  type: "ReLU"
  bottom: "conv2_2"
  top: "conv2_2"
}
layer {
  name: "pool2"
  type: "Pooling"
  bottom: "conv2_2"
  top: "pool2"
  pooling_param {
    pool: MAX
    kernel_size: 2
    stride: 2
  }
}
layer {
  name: "conv3_1"
  type: "Convolution"
  bottom: "pool2"
  top: "conv3_1"
  param {
    lr_mult: 1
    decay_mult: 1
  }
  param {
    lr_mult: 2
    decay_mult: 0
  }
  convolution_param {
    num_output: 256
    pad: 1
    kernel_size: 3
    weight_filler {
      type: "xavier"
    }
    bias_filler {
      type: "constant"
      value: 0
    }
  }
}
layer {
  name: "relu3_1"
  type: "ReLU"
  bottom: "conv3_1"
  top: "conv3_1"
}
layer {
  name: "conv3_2"
  type: "Convolution"
  bottom: "conv3_1"
  top: "conv3_2"
  param {
    lr_mult: 1
    decay_mult: 1
  }
  param {
    lr_mult: 2
    decay_mult: 0
  }
  convolution_param {
    num_output: 256
    pad: 1
    kernel_size: 3
    weight_filler {
      type: "xavier"
    }
    bias_filler {
      type: "constant"
      value: 0
    }
  }
}
layer {
  name: "relu3_2"
  type: "ReLU"
  bottom: "conv3_2"
  top: "conv3_2"
}
layer {
  name: "conv3_3"
  type: "Convolution"
  bottom: "conv3_2"
  top: "conv3_3"
  param {
    lr_mult: 1
    decay_mult: 1
  }
  param {
    lr_mult: 2
    decay_mult: 0
  }
  convolution_param {
    num_output: 256
    pad: 1
    kernel_size: 3
    weight_filler {
      type: "xavier"
    }
    bias_filler {
      type: "constant"
      value: 0
    }
  }
}
layer {
  name: "relu3_3"
  type: "ReLU"
  bottom: "conv3_3"
  top: "conv3_3"
}
layer {
  name: "pool3"
  type: "Pooling"
  bottom: "conv3_3"
  top: "pool3"
  pooling_param {
    pool: MAX
    kernel_size: 2
    stride: 2
  }
}
layer {
  name: "conv4_1"
  type: "Convolution"
  bottom: "pool3"
  top: "conv4_1"
  param {
    lr_mult: 1
    decay_mult: 1
  }
  param {
    lr_mult: 2
    decay_mult: 0
  }
  convolution_param {
    num_output: 512
    pad: 1
    kernel_size: 3
    weight_filler {
      type: "xavier"
    }
    bias_filler {
      type: "constant"
      value: 0
    }
  }
}
layer {
  name: "relu4_1"
  type: "ReLU"
  bottom: "conv4_1"
  top: "conv4_1"
}
layer {
  name: "conv4_2"
  type: "Convolution"
  bottom: "conv4_1"
  top: "conv4_2"
  param {
    lr_mult: 1
    decay_mult: 1
  }
  param {
    lr_mult: 2
    decay_mult: 0
  }
  convolution_param {
    num_output: 512
    pad: 1
    kernel_size: 3
    weight_filler {
      type: "xavier"
    }
    bias_filler {
      type: "constant"
      value: 0
    }
  }
}
layer {
  name: "relu4_2"
  type: "ReLU"
  bottom: "conv4_2"
  top: "conv4_2"
}
layer {
  name: "conv4_3"
  type: "Convolution"
  bottom: "conv4_2"
  top: "conv4_3"
  param {
    lr_mult: 1
    decay_mult: 1
  }
  param {
    lr_mult: 2
    decay_mult: 0
  }
  convolution_param {
    num_output: 512
    pad: 1
    kernel_size: 3
    weight_filler {
      type: "xavier"
    }
    bias_filler {
      type: "constant"
      value: 0
    }
  }
}
layer {
  name: "relu4_3"
  type: "ReLU"
  bottom: "conv4_3"
  top: "conv4_3"
}
layer {
  name: "pool4"
  type: "Pooling"
  bottom: "conv4_3"
  top: "pool4"
  pooling_param {
    pool: MAX
    kernel_size: 2
    stride: 2
  }
}
layer {
  name: "conv5_1"
  type: "Convolution"
  bottom: "pool4"
  top: "conv5_1"
  param {
    lr_mult: 1
    decay_mult: 1
  }
  param {
    lr_mult: 2
    decay_mult: 0
  }
  convolution_param {
    num_output: 512
    pad: 1
    kernel_size: 3
    weight_filler {
      type: "xavier"
    }
    bias_filler {
      type: "constant"
      value: 0
    }
    dilation: 1
  }
}
layer {
  name: "relu5_1"
  type: "ReLU"
  bottom: "conv5_1"
  top: "conv5_1"
}
layer {
  name: "conv5_2"
  type: "Convolution"
  bottom: "conv5_1"
  top: "conv5_2"
  param {
    lr_mult: 1
    decay_mult: 1
  }
  param {
    lr_mult: 2
    decay_mult: 0
  }
  convolution_param {
    num_output: 512
    pad: 1
    kernel_size: 3
    weight_filler {
      type: "xavier"
    }
    bias_filler {
      type: "constant"
      value: 0
    }
    dilation: 1
  }
}
layer {
  name: "relu5_2"
  type: "ReLU"
  bottom: "conv5_2"
  top: "conv5_2"
}
layer {
  name: "conv5_3"
  type: "Convolution"
  bottom: "conv5_2"
  top: "conv5_3"
  param {
    lr_mult: 1
    decay_mult: 1
  }
  param {
    lr_mult: 2
    decay_mult: 0
  }
  convolution_param {
    num_output: 512
    pad: 1
    kernel_size: 3
    weight_filler {
      type: "xavier"
    }
    bias_filler {
      type: "constant"
      value: 0
    }
    dilation: 1
  }
}
layer {
  name: "relu5_3"
  type: "ReLU"
  bottom: "conv5_3"
  top: "conv5_3"
}
layer {
  name: "pool5"
  type: "Pooling"
  bottom: "conv5_3"
  top: "pool5"
  pooling_param {
    pool: MAX
    kernel_size: 3
    stride: 1
    pad: 1
  }
}
layer {
  name: "fc6"
  type: "Convolution"
  bottom: "pool5"
  top: "fc6"
  param {
    lr_mult: 1
    decay_mult: 1
  }
  param {
    lr_mult: 2
    decay_mult: 0
  }
  convolution_param {
    num_output: 1024
    pad: 6
    kernel_size: 3
    weight_filler {
      type: "xavier"
    }
    bias_filler {
      type: "constant"
      value: 0
    }
    dilation: 6
  }
}
layer {
  name: "relu6"
  type: "ReLU"
  bottom: "fc6"
  top: "fc6"
}
layer {
  name: "fc7"
  type: "Convolution"
  bottom: "fc6"
  top: "fc7"
  param {
    lr_mult: 1
    decay_mult: 1
  }
  param {
    lr_mult: 2
    decay_mult: 0
  }
  convolution_param {
    num_output: 1024
    kernel_size: 1
    weight_filler {
      type: "xavier"
    }
    bias_filler {
      type: "constant"
      value: 0
    }
  }
}
layer {
  name: "relu7"
  type: "ReLU"
  bottom: "fc7"
  top: "fc7"
}
layer {
  name: "conv6_1"
  type: "Convolution"
  bottom: "fc7"
  top: "conv6_1"
  param {
    lr_mult: 1
    decay_mult: 1
  }
  param {
    lr_mult: 2
    decay_mult: 0
  }
  convolution_param {
    num_output: 256
    pad: 0
    kernel_size: 1
    stride: 1
    weight_filler {
      type: "xavier"
    }
    bias_filler {
      type: "constant"
      value: 0
    }
  }
}
layer {
  name: "conv6_1_relu"
  type: "ReLU"
  bottom: "conv6_1"
  top: "conv6_1"
}
layer {
  name: "conv6_2"
  type: "Convolution"
  bottom: "conv6_1"
  top: "conv6_2"
  param {
    lr_mult: 1
    decay_mult: 1
  }
  param {
    lr_mult: 2
    decay_mult: 0
  }
  convolution_param {
    num_output: 512
    pad: 1
    kernel_size: 3
    stride: 2
    weight_filler {
      type: "xavier"
    }
    bias_filler {
      type: "constant"
      value: 0
    }
  }
}
layer {
  name: "conv6_2_relu"
  type: "ReLU"
  bottom: "conv6_2"
  top: "conv6_2"
}
layer {
  name: "conv7_1"
  type: "Convolution"
  bottom: "conv6_2"
  top: "conv7_1"
  param {
    lr_mult: 1
    decay_mult: 1
  }
  param {
    lr_mult: 2
    decay_mult: 0
  }
  convolution_param {
    num_output: 128
    pad: 0
    kernel_size: 1
    stride: 1
    weight_filler {
      type: "xavier"
    }
    bias_filler {
      type: "constant"
      value: 0
    }
  }
}
layer {
  name: "conv7_1_relu"
  type: "ReLU"
  bottom: "conv7_1"
  top: "conv7_1"
}
layer {
  name: "conv7_2"
  type: "Convolution"
  bottom: "conv7_1"
  top: "conv7_2"
  param {
    lr_mult: 1
    decay_mult: 1
  }
  param {
    lr_mult: 2
    decay_mult: 0
  }
  convolution_param {
    num_output: 256
    pad: 1
    kernel_size: 3
    stride: 2
    weight_filler {
      type: "xavier"
    }
    bias_filler {
      type: "constant"
      value: 0
    }
  }
}
layer {
  name: "conv7_2_relu"
  type: "ReLU"
  bottom: "conv7_2"
  top: "conv7_2"
}
layer {
  name: "conv8_1"
  type: "Convolution"
  bottom: "conv7_2"
  top: "conv8_1"
  param {
    lr_mult: 1
    decay_mult: 1
  }
  param {
    lr_mult: 2
    decay_mult: 0
  }
  convolution_param {
    num_output: 128
    pad: 0
    kernel_size: 1
    stride: 1
    weight_filler {
      type: "xavier"
    }
    bias_filler {
      type: "constant"
      value: 0
    }
  }
}
layer {
  name: "conv8_1_relu"
  type: "ReLU"
  bottom: "conv8_1"
  top: "conv8_1"
}
layer {
  name: "conv8_2"
  type: "Convolution"
  bottom: "conv8_1"
  top: "conv8_2"
  param {
    lr_mult: 1
    decay_mult: 1
  }
  param {
    lr_mult: 2
    decay_mult: 0
  }
  convolution_param {
    num_output: 256
    pad: 0
    kernel_size: 3
    stride: 1
    weight_filler {
      type: "xavier"
    }
    bias_filler {
      type: "constant"
      value: 0
    }
  }
}
layer {
  name: "conv8_2_relu"
  type: "ReLU"
  bottom: "conv8_2"
  top: "conv8_2"
}
layer {
  name: "conv9_1"
  type: "Convolution"
  bottom: "conv8_2"
  top: "conv9_1"
  param {
    lr_mult: 1
    decay_mult: 1
  }
  param {
    lr_mult: 2
    decay_mult: 0
  }
  convolution_param {
    num_output: 128
    pad: 0
    kernel_size: 1
    stride: 1
    weight_filler {
      type: "xavier"
    }
    bias_filler {
      type: "constant"
      value: 0
    }
  }
}
layer {
  name: "conv9_1_relu"
  type: "ReLU"
  bottom: "conv9_1"
  top: "conv9_1"
}
layer {
  name: "conv9_2"
  type: "Convolution"
  bottom: "conv9_1"
  top: "conv9_2"
  param {
    lr_mult: 1
    decay_mult: 1
  }
  param {
    lr_mult: 2
    decay_mult: 0
  }
  convolution_param {
    num_output: 256
    pad: 0
    kernel_size: 3
    stride: 1
    weight_filler {
      type: "xavier"
    }
    bias_filler {
      type: "constant"
      value: 0
    }
  }
}
layer {
  name: "conv9_2_relu"
  type: "ReLU"
  bottom: "conv9_2"
  top: "conv9_2"
}
layer {
  name: "conv4_3_norm"
  type: "Normalize"
  bottom: "conv4_3"
  top: "conv4_3_norm"
  norm_param {
    across_spatial: false
    scale_filler {
      type: "constant"
      value: 20
    }
    channel_shared: false
  }
}
layer {
  name: "conv4_3_norm_mbox_loc"
  type: "Convolution"
  bottom: "conv4_3_norm"
  top: "conv4_3_norm_mbox_loc"
  param {
    lr_mult: 1
    decay_mult: 1
  }
  param {
    lr_mult: 2
    decay_mult: 0
  }
  convolution_param {
    num_output: 16
    pad: 1
    kernel_size: 3
    stride: 1
    weight_filler {
      type: "xavier"
    }
    bias_filler {
      type: "constant"
      value: 0
    }
  }
}
layer {
  name: "conv4_3_norm_mbox_loc_perm"
  type: "Permute"
  bottom: "conv4_3_norm_mbox_loc"
  top: "conv4_3_norm_mbox_loc_perm"
  permute_param {
    order: 0
    order: 2
    order: 3
    order: 1
  }
}
layer {
  name: "conv4_3_norm_mbox_loc_flat"
  type: "Flatten"
  bottom: "conv4_3_norm_mbox_loc_perm"
  top: "conv4_3_norm_mbox_loc_flat"
  flatten_param {
    axis: 1
  }
}
layer {
  name: "conv4_3_norm_mbox_conf"
  type: "Convolution"
  bottom: "conv4_3_norm"
  top: "conv4_3_norm_mbox_conf"
  param {
    lr_mult: 1
    decay_mult: 1
  }
  param {
    lr_mult: 2
    decay_mult: 0
  }
  convolution_param {
    num_output: 16
    pad: 1
    kernel_size: 3
    stride: 1
    weight_filler {
      type: "xavier"
    }
    bias_filler {
      type: "constant"
      value: 0
    }
  }
}
layer {
  name: "conv4_3_norm_mbox_conf_perm"
  type: "Permute"
  bottom: "conv4_3_norm_mbox_conf"
  top: "conv4_3_norm_mbox_conf_perm"
  permute_param {
    order: 0
    order: 2
    order: 3
    order: 1
  }
}
layer {
  name: "conv4_3_norm_mbox_conf_flat"
  type: "Flatten"
  bottom: "conv4_3_norm_mbox_conf_perm"
  top: "conv4_3_norm_mbox_conf_flat"
  flatten_param {
    axis: 1
  }
}
layer {
  name: "conv4_3_norm_mbox_priorbox"
  type: "PriorBox"
  bottom: "conv4_3_norm"
  bottom: "data"
  top: "conv4_3_norm_mbox_priorbox"
  prior_box_param {
    min_size: 30
    max_size: 60
    aspect_ratio: 2
    flip: true
    clip: false
    variance: 0.1
    variance: 0.1
    variance: 0.2
    variance: 0.2
    step: 8
    offset: 0.5
  }
}
layer {
  name: "fc7_mbox_loc"
  type: "Convolution"
  bottom: "fc7"
  top: "fc7_mbox_loc"
  param {
    lr_mult: 1
    decay_mult: 1
  }
  param {
    lr_mult: 2
    decay_mult: 0
  }
  convolution_param {
    num_output: 24
    pad: 1
    kernel_size: 3
    stride: 1
    weight_filler {
      type: "xavier"
    }
    bias_filler {
      type: "constant"
      value: 0
    }
  }
}
layer {
  name: "fc7_mbox_loc_perm"
  type: "Permute"
  bottom: "fc7_mbox_loc"
  top: "fc7_mbox_loc_perm"
  permute_param {
    order: 0
    order: 2
    order: 3
    order: 1
  }
}
layer {
  name: "fc7_mbox_loc_flat"
  type: "Flatten"
  bottom: "fc7_mbox_loc_perm"
  top: "fc7_mbox_loc_flat"
  flatten_param {
    axis: 1
  }
}
layer {
  name: "fc7_mbox_conf"
  type: "Convolution"
  bottom: "fc7"
  top: "fc7_mbox_conf"
  param {
    lr_mult: 1
    decay_mult: 1
  }
  param {
    lr_mult: 2
    decay_mult: 0
  }
  convolution_param {
    num_output: 24
    pad: 1
    kernel_size: 3
    stride: 1
    weight_filler {
      type: "xavier"
    }
    bias_filler {
      type: "constant"
      value: 0
    }
  }
}
layer {
  name: "fc7_mbox_conf_perm"
  type: "Permute"
  bottom: "fc7_mbox_conf"
  top: "fc7_mbox_conf_perm"
  permute_param {
    order: 0
    order: 2
    order: 3
    order: 1
  }
}
layer {
  name: "fc7_mbox_conf_flat"
  type: "Flatten"
  bottom: "fc7_mbox_conf_perm"
  top: "fc7_mbox_conf_flat"
  flatten_param {
    axis: 1
  }
}
layer {
  name: "fc7_mbox_priorbox"
  type: "PriorBox"
  bottom: "fc7"
  bottom: "data"
  top: "fc7_mbox_priorbox"
  prior_box_param {
    min_size: 60
    max_size: 111
    aspect_ratio: 2
    aspect_ratio: 3
    flip: true
    clip: false
    variance: 0.1
    variance: 0.1
    variance: 0.2
    variance: 0.2
    step: 16
    offset: 0.5
  }
}
layer {
  name: "conv6_2_mbox_loc"
  type: "Convolution"
  bottom: "conv6_2"
  top: "conv6_2_mbox_loc"
  param {
    lr_mult: 1
    decay_mult: 1
  }
  param {
    lr_mult: 2
    decay_mult: 0
  }
  convolution_param {
    num_output: 24
    pad: 1
    kernel_size: 3
    stride: 1
    weight_filler {
      type: "xavier"
    }
    bias_filler {
      type: "constant"
      value: 0
    }
  }
}
layer {
  name: "conv6_2_mbox_loc_perm"
  type: "Permute"
  bottom: "conv6_2_mbox_loc"
  top: "conv6_2_mbox_loc_perm"
  permute_param {
    order: 0
    order: 2
    order: 3
    order: 1
  }
}
layer {
  name: "conv6_2_mbox_loc_flat"
  type: "Flatten"
  bottom: "conv6_2_mbox_loc_perm"
  top: "conv6_2_mbox_loc_flat"
  flatten_param {
    axis: 1
  }
}
layer {
  name: "conv6_2_mbox_conf"
  type: "Convolution"
  bottom: "conv6_2"
  top: "conv6_2_mbox_conf"
  param {
    lr_mult: 1
    decay_mult: 1
  }
  param {
    lr_mult: 2
    decay_mult: 0
  }
  convolution_param {
    num_output: 24
    pad: 1
    kernel_size: 3
    stride: 1
    weight_filler {
      type: "xavier"
    }
    bias_filler {
      type: "constant"
      value: 0
    }
  }
}
layer {
  name: "conv6_2_mbox_conf_perm"
  type: "Permute"
  bottom: "conv6_2_mbox_conf"
  top: "conv6_2_mbox_conf_perm"
  permute_param {
    order: 0
    order: 2
    order: 3
    order: 1
  }
}
layer {
  name: "conv6_2_mbox_conf_flat"
  type: "Flatten"
  bottom: "conv6_2_mbox_conf_perm"
  top: "conv6_2_mbox_conf_flat"
  flatten_param {
    axis: 1
  }
}
layer {
  name: "conv6_2_mbox_priorbox"
  type: "PriorBox"
  bottom: "conv6_2"
  bottom: "data"
  top: "conv6_2_mbox_priorbox"
  prior_box_param {
    min_size: 111
    max_size: 162
    aspect_ratio: 2
    aspect_ratio: 3
    flip: true
    clip: false
    variance: 0.1
    variance: 0.1
    variance: 0.2
    variance: 0.2
    step: 32
    offset: 0.5
  }
}
layer {
  name: "conv7_2_mbox_loc"
  type: "Convolution"
  bottom: "conv7_2"
  top: "conv7_2_mbox_loc"
  param {
    lr_mult: 1
    decay_mult: 1
  }
  param {
    lr_mult: 2
    decay_mult: 0
  }
  convolution_param {
    num_output: 24
    pad: 1
    kernel_size: 3
    stride: 1
    weight_filler {
      type: "xavier"
    }
    bias_filler {
      type: "constant"
      value: 0
    }
  }
}
layer {
  name: "conv7_2_mbox_loc_perm"
  type: "Permute"
  bottom: "conv7_2_mbox_loc"
  top: "conv7_2_mbox_loc_perm"
  permute_param {
    order: 0
    order: 2
    order: 3
    order: 1
  }
}
layer {
  name: "conv7_2_mbox_loc_flat"
  type: "Flatten"
  bottom: "conv7_2_mbox_loc_perm"
  top: "conv7_2_mbox_loc_flat"
  flatten_param {
    axis: 1
  }
}
layer {
  name: "conv7_2_mbox_conf"
  type: "Convolution"
  bottom: "conv7_2"
  top: "conv7_2_mbox_conf"
  param {
    lr_mult: 1
    decay_mult: 1
  }
  param {
    lr_mult: 2
    decay_mult: 0
  }
  convolution_param {
    num_output: 24
    pad: 1
    kernel_size: 3
    stride: 1
    weight_filler {
      type: "xavier"
    }
    bias_filler {
      type: "constant"
      value: 0
    }
  }
}
layer {
  name: "conv7_2_mbox_conf_perm"
  type: "Permute"
  bottom: "conv7_2_mbox_conf"
  top: "conv7_2_mbox_conf_perm"
  permute_param {
    order: 0
    order: 2
    order: 3
    order: 1
  }
}
layer {
  name: "conv7_2_mbox_conf_flat"
  type: "Flatten"
  bottom: "conv7_2_mbox_conf_perm"
  top: "conv7_2_mbox_conf_flat"
  flatten_param {
    axis: 1
  }
}
layer {
  name: "conv7_2_mbox_priorbox"
  type: "PriorBox"
  bottom: "conv7_2"
  bottom: "data"
  top: "conv7_2_mbox_priorbox"
  prior_box_param {
    min_size: 162
    max_size: 213
    aspect_ratio: 2
    aspect_ratio: 3
    flip: true
    clip: false
    variance: 0.1
    variance: 0.1
    variance: 0.2
    variance: 0.2
    step: 64
    offset: 0.5
  }
}
layer {
  name: "conv8_2_mbox_loc"
  type: "Convolution"
  bottom: "conv8_2"
  top: "conv8_2_mbox_loc"
  param {
    lr_mult: 1
    decay_mult: 1
  }
  param {
    lr_mult: 2
    decay_mult: 0
  }
  convolution_param {
    num_output: 16
    pad: 1
    kernel_size: 3
    stride: 1
    weight_filler {
      type: "xavier"
    }
    bias_filler {
      type: "constant"
      value: 0
    }
  }
}
layer {
  name: "conv8_2_mbox_loc_perm"
  type: "Permute"
  bottom: "conv8_2_mbox_loc"
  top: "conv8_2_mbox_loc_perm"
  permute_param {
    order: 0
    order: 2
    order: 3
    order: 1
  }
}
layer {
  name: "conv8_2_mbox_loc_flat"
  type: "Flatten"
  bottom: "conv8_2_mbox_loc_perm"
  top: "conv8_2_mbox_loc_flat"
  flatten_param {
    axis: 1
  }
}
layer {
  name: "conv8_2_mbox_conf"
  type: "Convolution"
  bottom: "conv8_2"
  top: "conv8_2_mbox_conf"
  param {
    lr_mult: 1
    decay_mult: 1
  }
  param {
    lr_mult: 2
    decay_mult: 0
  }
  convolution_param {
    num_output: 16
    pad: 1
    kernel_size: 3
    stride: 1
    weight_filler {
      type: "xavier"
    }
    bias_filler {
      type: "constant"
      value: 0
    }
  }
}
layer {
  name: "conv8_2_mbox_conf_perm"
  type: "Permute"
  bottom: "conv8_2_mbox_conf"
  top: "conv8_2_mbox_conf_perm"
  permute_param {
    order: 0
    order: 2
    order: 3
    order: 1
  }
}
layer {
  name: "conv8_2_mbox_conf_flat"
  type: "Flatten"
  bottom: "conv8_2_mbox_conf_perm"
  top: "conv8_2_mbox_conf_flat"
  flatten_param {
    axis: 1
  }
}
layer {
  name: "conv8_2_mbox_priorbox"
  type: "PriorBox"
  bottom: "conv8_2"
  bottom: "data"
  top: "conv8_2_mbox_priorbox"
  prior_box_param {
    min_size: 213
    max_size: 264
    aspect_ratio: 2
    flip: true
    clip: false
    variance: 0.1
    variance: 0.1
    variance: 0.2
    variance: 0.2
    step: 100
    offset: 0.5
  }
}
layer {
  name: "conv9_2_mbox_loc"
  type: "Convolution"
  bottom: "conv9_2"
  top: "conv9_2_mbox_loc"
  param {
    lr_mult: 1
    decay_mult: 1
  }
  param {
    lr_mult: 2
    decay_mult: 0
  }
  convolution_param {
    num_output: 16
    pad: 1
    kernel_size: 3
    stride: 1
    weight_filler {
      type: "xavier"
    }
    bias_filler {
      type: "constant"
      value: 0
    }
  }
}
layer {
  name: "conv9_2_mbox_loc_perm"
  type: "Permute"
  bottom: "conv9_2_mbox_loc"
  top: "conv9_2_mbox_loc_perm"
  permute_param {
    order: 0
    order: 2
    order: 3
    order: 1
  }
}
layer {
  name: "conv9_2_mbox_loc_flat"
  type: "Flatten"
  bottom: "conv9_2_mbox_loc_perm"
  top: "conv9_2_mbox_loc_flat"
  flatten_param {
    axis: 1
  }
}
layer {
  name: "conv9_2_mbox_conf"
  type: "Convolution"
  bottom: "conv9_2"
  top: "conv9_2_mbox_conf"
  param {
    lr_mult: 1
    decay_mult: 1
  }
  param {
    lr_mult: 2
    decay_mult: 0
  }
  convolution_param {
    num_output: 16
    pad: 1
    kernel_size: 3
    stride: 1
    weight_filler {
      type: "xavier"
    }
    bias_filler {
      type: "constant"
      value: 0
    }
  }
}
layer {
  name: "conv9_2_mbox_conf_perm"
  type: "Permute"
  bottom: "conv9_2_mbox_conf"
  top: "conv9_2_mbox_conf_perm"
  permute_param {
    order: 0
    order: 2
    order: 3
    order: 1
  }
}
layer {
  name: "conv9_2_mbox_conf_flat"
  type: "Flatten"
  bottom: "conv9_2_mbox_conf_perm"
  top: "conv9_2_mbox_conf_flat"
  flatten_param {
    axis: 1
  }
}
layer {
  name: "conv9_2_mbox_priorbox"
  type: "PriorBox"
  bottom: "conv9_2"
  bottom: "data"
  top: "conv9_2_mbox_priorbox"
  prior_box_param {
    min_size: 264
    max_size: 315
    aspect_ratio: 2
    flip: true
    clip: false
    variance: 0.1
    variance: 0.1
    variance: 0.2
    variance: 0.2
    step: 300
    offset: 0.5
  }
}
layer {
  name: "mbox_loc"
  type: "Concat"
  bottom: "conv4_3_norm_mbox_loc_flat"
  bottom: "fc7_mbox_loc_flat"
  bottom: "conv6_2_mbox_loc_flat"
  bottom: "conv7_2_mbox_loc_flat"
  bottom: "conv8_2_mbox_loc_flat"
  bottom: "conv9_2_mbox_loc_flat"
  top: "mbox_loc"
  concat_param {
    axis: 1
  }
}
layer {
  name: "mbox_conf"
  type: "Concat"
  bottom: "conv4_3_norm_mbox_conf_flat"
  bottom: "fc7_mbox_conf_flat"
  bottom: "conv6_2_mbox_conf_flat"
  bottom: "conv7_2_mbox_conf_flat"
  bottom: "conv8_2_mbox_conf_flat"
  bottom: "conv9_2_mbox_conf_flat"
  top: "mbox_conf"
  concat_param {
    axis: 1
  }
}
layer {
  name: "mbox_priorbox"
  type: "Concat"
  bottom: "conv4_3_norm_mbox_priorbox"
  bottom: "fc7_mbox_priorbox"
  bottom: "conv6_2_mbox_priorbox"
  bottom: "conv7_2_mbox_priorbox"
  bottom: "conv8_2_mbox_priorbox"
  bottom: "conv9_2_mbox_priorbox"
  top: "mbox_priorbox"
  concat_param {
    axis: 2
  }
}
layer {
  name: "mbox_loss"
  type: "MultiBoxLoss"
  bottom: "mbox_loc"
  bottom: "mbox_conf"
  bottom: "mbox_priorbox"
  bottom: "label"
  top: "mbox_loss"
  include {
    phase: TRAIN
  }
  propagate_down: true
  propagate_down: true
  propagate_down: false
  propagate_down: false
  loss_param {
    normalization: VALID
  }
  multibox_loss_param {
    loc_loss_type: SMOOTH_L1
    conf_loss_type: SOFTMAX
    loc_weight: 1
    num_classes: 4
    share_location: true
    match_type: PER_PREDICTION
    overlap_threshold: 0.5
    use_prior_for_matching: true
    background_label_id: 0
    use_difficult_gt: true
    neg_pos_ratio: 3
    neg_overlap: 0.5
    code_type: CENTER_SIZE
    ignore_cross_boundary_bbox: false
    mining_type: MAX_NEGATIVE
  }
}
I0606 16:15:27.071823  8132 layer_factory.hpp:77] Creating layer data
I0606 16:15:27.071935  8132 net.cpp:100] Creating Layer data
I0606 16:15:27.071945  8132 net.cpp:408] data -> data
I0606 16:15:27.071970  8132 net.cpp:408] data -> label
I0606 16:15:27.072432  8149 db_lmdb.cpp:35] Opened lmdb examples/grayscale_tbs_300x300_HSIL_10x/grayscale_tbs_300x300_HSIL_10x_trainval_lmdb
I0606 16:15:27.081642  8132 annotated_data_layer.cpp:62] output data size: 4,3,300,300
I0606 16:15:27.091377  8132 net.cpp:150] Setting up data
I0606 16:15:27.091397  8132 net.cpp:157] Top shape: 4 3 300 300 (1080000)
I0606 16:15:27.091414  8132 net.cpp:157] Top shape: 1 1 1 8 (8)
I0606 16:15:27.091418  8132 net.cpp:165] Memory required for data: 4320032
I0606 16:15:27.091439  8132 layer_factory.hpp:77] Creating layer data_data_0_split
I0606 16:15:27.091455  8132 net.cpp:100] Creating Layer data_data_0_split
I0606 16:15:27.091461  8132 net.cpp:434] data_data_0_split <- data
I0606 16:15:27.091486  8132 net.cpp:408] data_data_0_split -> data_data_0_split_0
I0606 16:15:27.091495  8132 net.cpp:408] data_data_0_split -> data_data_0_split_1
I0606 16:15:27.091500  8132 net.cpp:408] data_data_0_split -> data_data_0_split_2
I0606 16:15:27.091506  8132 net.cpp:408] data_data_0_split -> data_data_0_split_3
I0606 16:15:27.091512  8132 net.cpp:408] data_data_0_split -> data_data_0_split_4
I0606 16:15:27.091517  8132 net.cpp:408] data_data_0_split -> data_data_0_split_5
I0606 16:15:27.091521  8132 net.cpp:408] data_data_0_split -> data_data_0_split_6
I0606 16:15:27.091631  8132 net.cpp:150] Setting up data_data_0_split
I0606 16:15:27.091636  8132 net.cpp:157] Top shape: 4 3 300 300 (1080000)
I0606 16:15:27.091652  8132 net.cpp:157] Top shape: 4 3 300 300 (1080000)
I0606 16:15:27.091655  8132 net.cpp:157] Top shape: 4 3 300 300 (1080000)
I0606 16:15:27.091658  8132 net.cpp:157] Top shape: 4 3 300 300 (1080000)
I0606 16:15:27.091661  8132 net.cpp:157] Top shape: 4 3 300 300 (1080000)
I0606 16:15:27.091663  8132 net.cpp:157] Top shape: 4 3 300 300 (1080000)
I0606 16:15:27.091667  8132 net.cpp:157] Top shape: 4 3 300 300 (1080000)
I0606 16:15:27.091670  8132 net.cpp:165] Memory required for data: 34560032
I0606 16:15:27.091687  8132 layer_factory.hpp:77] Creating layer conv1_1
I0606 16:15:27.091698  8132 net.cpp:100] Creating Layer conv1_1
I0606 16:15:27.091701  8132 net.cpp:434] conv1_1 <- data_data_0_split_0
I0606 16:15:27.091707  8132 net.cpp:408] conv1_1 -> conv1_1
I0606 16:15:27.260390  8132 net.cpp:150] Setting up conv1_1
I0606 16:15:27.260409  8132 net.cpp:157] Top shape: 4 64 300 300 (23040000)
I0606 16:15:27.260411  8132 net.cpp:165] Memory required for data: 126720032
I0606 16:15:27.260429  8132 layer_factory.hpp:77] Creating layer relu1_1
I0606 16:15:27.260438  8132 net.cpp:100] Creating Layer relu1_1
I0606 16:15:27.260458  8132 net.cpp:434] relu1_1 <- conv1_1
I0606 16:15:27.260464  8132 net.cpp:395] relu1_1 -> conv1_1 (in-place)
I0606 16:15:27.260632  8132 net.cpp:150] Setting up relu1_1
I0606 16:15:27.260640  8132 net.cpp:157] Top shape: 4 64 300 300 (23040000)
I0606 16:15:27.260643  8132 net.cpp:165] Memory required for data: 218880032
I0606 16:15:27.260648  8132 layer_factory.hpp:77] Creating layer conv1_2
I0606 16:15:27.260659  8132 net.cpp:100] Creating Layer conv1_2
I0606 16:15:27.260677  8132 net.cpp:434] conv1_2 <- conv1_1
I0606 16:15:27.260684  8132 net.cpp:408] conv1_2 -> conv1_2
I0606 16:15:27.263018  8132 net.cpp:150] Setting up conv1_2
I0606 16:15:27.263031  8132 net.cpp:157] Top shape: 4 64 300 300 (23040000)
I0606 16:15:27.263034  8132 net.cpp:165] Memory required for data: 311040032
I0606 16:15:27.263042  8132 layer_factory.hpp:77] Creating layer relu1_2
I0606 16:15:27.263051  8132 net.cpp:100] Creating Layer relu1_2
I0606 16:15:27.263056  8132 net.cpp:434] relu1_2 <- conv1_2
I0606 16:15:27.263063  8132 net.cpp:395] relu1_2 -> conv1_2 (in-place)
I0606 16:15:27.263626  8132 net.cpp:150] Setting up relu1_2
I0606 16:15:27.263635  8132 net.cpp:157] Top shape: 4 64 300 300 (23040000)
I0606 16:15:27.263638  8132 net.cpp:165] Memory required for data: 403200032
I0606 16:15:27.263643  8132 layer_factory.hpp:77] Creating layer pool1
I0606 16:15:27.263649  8132 net.cpp:100] Creating Layer pool1
I0606 16:15:27.263654  8132 net.cpp:434] pool1 <- conv1_2
I0606 16:15:27.263662  8132 net.cpp:408] pool1 -> pool1
I0606 16:15:27.263707  8132 net.cpp:150] Setting up pool1
I0606 16:15:27.263713  8132 net.cpp:157] Top shape: 4 64 150 150 (5760000)
I0606 16:15:27.263716  8132 net.cpp:165] Memory required for data: 426240032
I0606 16:15:27.263720  8132 layer_factory.hpp:77] Creating layer conv2_1
I0606 16:15:27.263730  8132 net.cpp:100] Creating Layer conv2_1
I0606 16:15:27.263744  8132 net.cpp:434] conv2_1 <- pool1
I0606 16:15:27.263751  8132 net.cpp:408] conv2_1 -> conv2_1
I0606 16:15:27.264551  8132 net.cpp:150] Setting up conv2_1
I0606 16:15:27.264560  8132 net.cpp:157] Top shape: 4 128 150 150 (11520000)
I0606 16:15:27.264562  8132 net.cpp:165] Memory required for data: 472320032
I0606 16:15:27.264571  8132 layer_factory.hpp:77] Creating layer relu2_1
I0606 16:15:27.264581  8132 net.cpp:100] Creating Layer relu2_1
I0606 16:15:27.264586  8132 net.cpp:434] relu2_1 <- conv2_1
I0606 16:15:27.264592  8132 net.cpp:395] relu2_1 -> conv2_1 (in-place)
I0606 16:15:27.265123  8132 net.cpp:150] Setting up relu2_1
I0606 16:15:27.265132  8132 net.cpp:157] Top shape: 4 128 150 150 (11520000)
I0606 16:15:27.265136  8132 net.cpp:165] Memory required for data: 518400032
I0606 16:15:27.265139  8132 layer_factory.hpp:77] Creating layer conv2_2
I0606 16:15:27.265147  8132 net.cpp:100] Creating Layer conv2_2
I0606 16:15:27.265154  8132 net.cpp:434] conv2_2 <- conv2_1
I0606 16:15:27.265161  8132 net.cpp:408] conv2_2 -> conv2_2
I0606 16:15:27.267101  8132 net.cpp:150] Setting up conv2_2
I0606 16:15:27.267110  8132 net.cpp:157] Top shape: 4 128 150 150 (11520000)
I0606 16:15:27.267113  8132 net.cpp:165] Memory required for data: 564480032
I0606 16:15:27.267120  8132 layer_factory.hpp:77] Creating layer relu2_2
I0606 16:15:27.267127  8132 net.cpp:100] Creating Layer relu2_2
I0606 16:15:27.267132  8132 net.cpp:434] relu2_2 <- conv2_2
I0606 16:15:27.267139  8132 net.cpp:395] relu2_2 -> conv2_2 (in-place)
I0606 16:15:27.267263  8132 net.cpp:150] Setting up relu2_2
I0606 16:15:27.267271  8132 net.cpp:157] Top shape: 4 128 150 150 (11520000)
I0606 16:15:27.267272  8132 net.cpp:165] Memory required for data: 610560032
I0606 16:15:27.267277  8132 layer_factory.hpp:77] Creating layer pool2
I0606 16:15:27.267283  8132 net.cpp:100] Creating Layer pool2
I0606 16:15:27.267287  8132 net.cpp:434] pool2 <- conv2_2
I0606 16:15:27.267293  8132 net.cpp:408] pool2 -> pool2
I0606 16:15:27.267329  8132 net.cpp:150] Setting up pool2
I0606 16:15:27.267335  8132 net.cpp:157] Top shape: 4 128 75 75 (2880000)
I0606 16:15:27.267338  8132 net.cpp:165] Memory required for data: 622080032
I0606 16:15:27.267340  8132 layer_factory.hpp:77] Creating layer conv3_1
I0606 16:15:27.267349  8132 net.cpp:100] Creating Layer conv3_1
I0606 16:15:27.267354  8132 net.cpp:434] conv3_1 <- pool2
I0606 16:15:27.267361  8132 net.cpp:408] conv3_1 -> conv3_1
I0606 16:15:27.271034  8132 net.cpp:150] Setting up conv3_1
I0606 16:15:27.271049  8132 net.cpp:157] Top shape: 4 256 75 75 (5760000)
I0606 16:15:27.271051  8132 net.cpp:165] Memory required for data: 645120032
I0606 16:15:27.271061  8132 layer_factory.hpp:77] Creating layer relu3_1
I0606 16:15:27.271070  8132 net.cpp:100] Creating Layer relu3_1
I0606 16:15:27.271075  8132 net.cpp:434] relu3_1 <- conv3_1
I0606 16:15:27.271082  8132 net.cpp:395] relu3_1 -> conv3_1 (in-place)
I0606 16:15:27.271257  8132 net.cpp:150] Setting up relu3_1
I0606 16:15:27.271267  8132 net.cpp:157] Top shape: 4 256 75 75 (5760000)
I0606 16:15:27.271272  8132 net.cpp:165] Memory required for data: 668160032
I0606 16:15:27.271276  8132 layer_factory.hpp:77] Creating layer conv3_2
I0606 16:15:27.271302  8132 net.cpp:100] Creating Layer conv3_2
I0606 16:15:27.271306  8132 net.cpp:434] conv3_2 <- conv3_1
I0606 16:15:27.271313  8132 net.cpp:408] conv3_2 -> conv3_2
I0606 16:15:27.276159  8132 net.cpp:150] Setting up conv3_2
I0606 16:15:27.276177  8132 net.cpp:157] Top shape: 4 256 75 75 (5760000)
I0606 16:15:27.276180  8132 net.cpp:165] Memory required for data: 691200032
I0606 16:15:27.276188  8132 layer_factory.hpp:77] Creating layer relu3_2
I0606 16:15:27.276195  8132 net.cpp:100] Creating Layer relu3_2
I0606 16:15:27.276211  8132 net.cpp:434] relu3_2 <- conv3_2
I0606 16:15:27.276214  8132 net.cpp:395] relu3_2 -> conv3_2 (in-place)
I0606 16:15:27.276393  8132 net.cpp:150] Setting up relu3_2
I0606 16:15:27.276414  8132 net.cpp:157] Top shape: 4 256 75 75 (5760000)
I0606 16:15:27.276417  8132 net.cpp:165] Memory required for data: 714240032
I0606 16:15:27.276445  8132 layer_factory.hpp:77] Creating layer conv3_3
I0606 16:15:27.276475  8132 net.cpp:100] Creating Layer conv3_3
I0606 16:15:27.276481  8132 net.cpp:434] conv3_3 <- conv3_2
I0606 16:15:27.276501  8132 net.cpp:408] conv3_3 -> conv3_3
I0606 16:15:27.280975  8132 net.cpp:150] Setting up conv3_3
I0606 16:15:27.280989  8132 net.cpp:157] Top shape: 4 256 75 75 (5760000)
I0606 16:15:27.280992  8132 net.cpp:165] Memory required for data: 737280032
I0606 16:15:27.280999  8132 layer_factory.hpp:77] Creating layer relu3_3
I0606 16:15:27.281008  8132 net.cpp:100] Creating Layer relu3_3
I0606 16:15:27.281013  8132 net.cpp:434] relu3_3 <- conv3_3
I0606 16:15:27.281018  8132 net.cpp:395] relu3_3 -> conv3_3 (in-place)
I0606 16:15:27.281157  8132 net.cpp:150] Setting up relu3_3
I0606 16:15:27.281164  8132 net.cpp:157] Top shape: 4 256 75 75 (5760000)
I0606 16:15:27.281167  8132 net.cpp:165] Memory required for data: 760320032
I0606 16:15:27.281170  8132 layer_factory.hpp:77] Creating layer pool3
I0606 16:15:27.281178  8132 net.cpp:100] Creating Layer pool3
I0606 16:15:27.281184  8132 net.cpp:434] pool3 <- conv3_3
I0606 16:15:27.281193  8132 net.cpp:408] pool3 -> pool3
I0606 16:15:27.281231  8132 net.cpp:150] Setting up pool3
I0606 16:15:27.281237  8132 net.cpp:157] Top shape: 4 256 38 38 (1478656)
I0606 16:15:27.281239  8132 net.cpp:165] Memory required for data: 766234656
I0606 16:15:27.281244  8132 layer_factory.hpp:77] Creating layer conv4_1
I0606 16:15:27.281253  8132 net.cpp:100] Creating Layer conv4_1
I0606 16:15:27.281258  8132 net.cpp:434] conv4_1 <- pool3
I0606 16:15:27.281268  8132 net.cpp:408] conv4_1 -> conv4_1
I0606 16:15:27.290458  8132 net.cpp:150] Setting up conv4_1
I0606 16:15:27.290477  8132 net.cpp:157] Top shape: 4 512 38 38 (2957312)
I0606 16:15:27.290479  8132 net.cpp:165] Memory required for data: 778063904
I0606 16:15:27.290487  8132 layer_factory.hpp:77] Creating layer relu4_1
I0606 16:15:27.290496  8132 net.cpp:100] Creating Layer relu4_1
I0606 16:15:27.290518  8132 net.cpp:434] relu4_1 <- conv4_1
I0606 16:15:27.290524  8132 net.cpp:395] relu4_1 -> conv4_1 (in-place)
I0606 16:15:27.291164  8132 net.cpp:150] Setting up relu4_1
I0606 16:15:27.291174  8132 net.cpp:157] Top shape: 4 512 38 38 (2957312)
I0606 16:15:27.291177  8132 net.cpp:165] Memory required for data: 789893152
I0606 16:15:27.291179  8132 layer_factory.hpp:77] Creating layer conv4_2
I0606 16:15:27.291191  8132 net.cpp:100] Creating Layer conv4_2
I0606 16:15:27.291196  8132 net.cpp:434] conv4_2 <- conv4_1
I0606 16:15:27.291204  8132 net.cpp:408] conv4_2 -> conv4_2
I0606 16:15:27.303238  8132 net.cpp:150] Setting up conv4_2
I0606 16:15:27.303257  8132 net.cpp:157] Top shape: 4 512 38 38 (2957312)
I0606 16:15:27.303261  8132 net.cpp:165] Memory required for data: 801722400
I0606 16:15:27.303285  8132 layer_factory.hpp:77] Creating layer relu4_2
I0606 16:15:27.303294  8132 net.cpp:100] Creating Layer relu4_2
I0606 16:15:27.303315  8132 net.cpp:434] relu4_2 <- conv4_2
I0606 16:15:27.303321  8132 net.cpp:395] relu4_2 -> conv4_2 (in-place)
I0606 16:15:27.304105  8132 net.cpp:150] Setting up relu4_2
I0606 16:15:27.304113  8132 net.cpp:157] Top shape: 4 512 38 38 (2957312)
I0606 16:15:27.304116  8132 net.cpp:165] Memory required for data: 813551648
I0606 16:15:27.304121  8132 layer_factory.hpp:77] Creating layer conv4_3
I0606 16:15:27.304144  8132 net.cpp:100] Creating Layer conv4_3
I0606 16:15:27.304165  8132 net.cpp:434] conv4_3 <- conv4_2
I0606 16:15:27.304188  8132 net.cpp:408] conv4_3 -> conv4_3
I0606 16:15:27.316788  8132 net.cpp:150] Setting up conv4_3
I0606 16:15:27.316807  8132 net.cpp:157] Top shape: 4 512 38 38 (2957312)
I0606 16:15:27.316809  8132 net.cpp:165] Memory required for data: 825380896
I0606 16:15:27.316817  8132 layer_factory.hpp:77] Creating layer relu4_3
I0606 16:15:27.316825  8132 net.cpp:100] Creating Layer relu4_3
I0606 16:15:27.316844  8132 net.cpp:434] relu4_3 <- conv4_3
I0606 16:15:27.316866  8132 net.cpp:395] relu4_3 -> conv4_3 (in-place)
I0606 16:15:27.317034  8132 net.cpp:150] Setting up relu4_3
I0606 16:15:27.317050  8132 net.cpp:157] Top shape: 4 512 38 38 (2957312)
I0606 16:15:27.317054  8132 net.cpp:165] Memory required for data: 837210144
I0606 16:15:27.317057  8132 layer_factory.hpp:77] Creating layer conv4_3_relu4_3_0_split
I0606 16:15:27.317065  8132 net.cpp:100] Creating Layer conv4_3_relu4_3_0_split
I0606 16:15:27.317070  8132 net.cpp:434] conv4_3_relu4_3_0_split <- conv4_3
I0606 16:15:27.317076  8132 net.cpp:408] conv4_3_relu4_3_0_split -> conv4_3_relu4_3_0_split_0
I0606 16:15:27.317085  8132 net.cpp:408] conv4_3_relu4_3_0_split -> conv4_3_relu4_3_0_split_1
I0606 16:15:27.317121  8132 net.cpp:150] Setting up conv4_3_relu4_3_0_split
I0606 16:15:27.317127  8132 net.cpp:157] Top shape: 4 512 38 38 (2957312)
I0606 16:15:27.317132  8132 net.cpp:157] Top shape: 4 512 38 38 (2957312)
I0606 16:15:27.317136  8132 net.cpp:165] Memory required for data: 860868640
I0606 16:15:27.317138  8132 layer_factory.hpp:77] Creating layer pool4
I0606 16:15:27.317147  8132 net.cpp:100] Creating Layer pool4
I0606 16:15:27.317152  8132 net.cpp:434] pool4 <- conv4_3_relu4_3_0_split_0
I0606 16:15:27.317157  8132 net.cpp:408] pool4 -> pool4
I0606 16:15:27.317217  8132 net.cpp:150] Setting up pool4
I0606 16:15:27.317224  8132 net.cpp:157] Top shape: 4 512 19 19 (739328)
I0606 16:15:27.317227  8132 net.cpp:165] Memory required for data: 863825952
I0606 16:15:27.317230  8132 layer_factory.hpp:77] Creating layer conv5_1
I0606 16:15:27.317241  8132 net.cpp:100] Creating Layer conv5_1
I0606 16:15:27.317245  8132 net.cpp:434] conv5_1 <- pool4
I0606 16:15:27.317268  8132 net.cpp:408] conv5_1 -> conv5_1
I0606 16:15:27.330359  8132 net.cpp:150] Setting up conv5_1
I0606 16:15:27.330376  8132 net.cpp:157] Top shape: 4 512 19 19 (739328)
I0606 16:15:27.330380  8132 net.cpp:165] Memory required for data: 866783264
I0606 16:15:27.330389  8132 layer_factory.hpp:77] Creating layer relu5_1
I0606 16:15:27.330399  8132 net.cpp:100] Creating Layer relu5_1
I0606 16:15:27.330418  8132 net.cpp:434] relu5_1 <- conv5_1
I0606 16:15:27.330440  8132 net.cpp:395] relu5_1 -> conv5_1 (in-place)
I0606 16:15:27.330600  8132 net.cpp:150] Setting up relu5_1
I0606 16:15:27.330608  8132 net.cpp:157] Top shape: 4 512 19 19 (739328)
I0606 16:15:27.330612  8132 net.cpp:165] Memory required for data: 869740576
I0606 16:15:27.330616  8132 layer_factory.hpp:77] Creating layer conv5_2
I0606 16:15:27.330642  8132 net.cpp:100] Creating Layer conv5_2
I0606 16:15:27.330647  8132 net.cpp:434] conv5_2 <- conv5_1
I0606 16:15:27.330654  8132 net.cpp:408] conv5_2 -> conv5_2
I0606 16:15:27.343209  8132 net.cpp:150] Setting up conv5_2
I0606 16:15:27.343222  8132 net.cpp:157] Top shape: 4 512 19 19 (739328)
I0606 16:15:27.343226  8132 net.cpp:165] Memory required for data: 872697888
I0606 16:15:27.343235  8132 layer_factory.hpp:77] Creating layer relu5_2
I0606 16:15:27.343242  8132 net.cpp:100] Creating Layer relu5_2
I0606 16:15:27.343248  8132 net.cpp:434] relu5_2 <- conv5_2
I0606 16:15:27.343255  8132 net.cpp:395] relu5_2 -> conv5_2 (in-place)
I0606 16:15:27.343421  8132 net.cpp:150] Setting up relu5_2
I0606 16:15:27.343430  8132 net.cpp:157] Top shape: 4 512 19 19 (739328)
I0606 16:15:27.343432  8132 net.cpp:165] Memory required for data: 875655200
I0606 16:15:27.343436  8132 layer_factory.hpp:77] Creating layer conv5_3
I0606 16:15:27.343446  8132 net.cpp:100] Creating Layer conv5_3
I0606 16:15:27.343466  8132 net.cpp:434] conv5_3 <- conv5_2
I0606 16:15:27.343488  8132 net.cpp:408] conv5_3 -> conv5_3
I0606 16:15:27.358716  8132 net.cpp:150] Setting up conv5_3
I0606 16:15:27.358733  8132 net.cpp:157] Top shape: 4 512 19 19 (739328)
I0606 16:15:27.358738  8132 net.cpp:165] Memory required for data: 878612512
I0606 16:15:27.358747  8132 layer_factory.hpp:77] Creating layer relu5_3
I0606 16:15:27.358777  8132 net.cpp:100] Creating Layer relu5_3
I0606 16:15:27.358781  8132 net.cpp:434] relu5_3 <- conv5_3
I0606 16:15:27.358803  8132 net.cpp:395] relu5_3 -> conv5_3 (in-place)
I0606 16:15:27.358959  8132 net.cpp:150] Setting up relu5_3
I0606 16:15:27.358966  8132 net.cpp:157] Top shape: 4 512 19 19 (739328)
I0606 16:15:27.358978  8132 net.cpp:165] Memory required for data: 881569824
I0606 16:15:27.358983  8132 layer_factory.hpp:77] Creating layer pool5
I0606 16:15:27.359014  8132 net.cpp:100] Creating Layer pool5
I0606 16:15:27.359019  8132 net.cpp:434] pool5 <- conv5_3
I0606 16:15:27.359025  8132 net.cpp:408] pool5 -> pool5
I0606 16:15:27.359078  8132 net.cpp:150] Setting up pool5
I0606 16:15:27.359084  8132 net.cpp:157] Top shape: 4 512 19 19 (739328)
I0606 16:15:27.359087  8132 net.cpp:165] Memory required for data: 884527136
I0606 16:15:27.359091  8132 layer_factory.hpp:77] Creating layer fc6
I0606 16:15:27.359102  8132 net.cpp:100] Creating Layer fc6
I0606 16:15:27.359122  8132 net.cpp:434] fc6 <- pool5
I0606 16:15:27.359130  8132 net.cpp:408] fc6 -> fc6
I0606 16:15:27.383438  8132 net.cpp:150] Setting up fc6
I0606 16:15:27.383458  8132 net.cpp:157] Top shape: 4 1024 19 19 (1478656)
I0606 16:15:27.383462  8132 net.cpp:165] Memory required for data: 890441760
I0606 16:15:27.383471  8132 layer_factory.hpp:77] Creating layer relu6
I0606 16:15:27.383478  8132 net.cpp:100] Creating Layer relu6
I0606 16:15:27.383498  8132 net.cpp:434] relu6 <- fc6
I0606 16:15:27.383522  8132 net.cpp:395] relu6 -> fc6 (in-place)
I0606 16:15:27.384317  8132 net.cpp:150] Setting up relu6
I0606 16:15:27.384328  8132 net.cpp:157] Top shape: 4 1024 19 19 (1478656)
I0606 16:15:27.384332  8132 net.cpp:165] Memory required for data: 896356384
I0606 16:15:27.384351  8132 layer_factory.hpp:77] Creating layer fc7
I0606 16:15:27.384378  8132 net.cpp:100] Creating Layer fc7
I0606 16:15:27.384382  8132 net.cpp:434] fc7 <- fc6
I0606 16:15:27.384392  8132 net.cpp:408] fc7 -> fc7
I0606 16:15:27.391028  8132 net.cpp:150] Setting up fc7
I0606 16:15:27.391047  8132 net.cpp:157] Top shape: 4 1024 19 19 (1478656)
I0606 16:15:27.391050  8132 net.cpp:165] Memory required for data: 902271008
I0606 16:15:27.391059  8132 layer_factory.hpp:77] Creating layer relu7
I0606 16:15:27.391067  8132 net.cpp:100] Creating Layer relu7
I0606 16:15:27.391072  8132 net.cpp:434] relu7 <- fc7
I0606 16:15:27.391098  8132 net.cpp:395] relu7 -> fc7 (in-place)
I0606 16:15:27.391244  8132 net.cpp:150] Setting up relu7
I0606 16:15:27.391252  8132 net.cpp:157] Top shape: 4 1024 19 19 (1478656)
I0606 16:15:27.391257  8132 net.cpp:165] Memory required for data: 908185632
I0606 16:15:27.391260  8132 layer_factory.hpp:77] Creating layer fc7_relu7_0_split
I0606 16:15:27.391268  8132 net.cpp:100] Creating Layer fc7_relu7_0_split
I0606 16:15:27.391273  8132 net.cpp:434] fc7_relu7_0_split <- fc7
I0606 16:15:27.391279  8132 net.cpp:408] fc7_relu7_0_split -> fc7_relu7_0_split_0
I0606 16:15:27.391288  8132 net.cpp:408] fc7_relu7_0_split -> fc7_relu7_0_split_1
I0606 16:15:27.391304  8132 net.cpp:408] fc7_relu7_0_split -> fc7_relu7_0_split_2
I0606 16:15:27.391311  8132 net.cpp:408] fc7_relu7_0_split -> fc7_relu7_0_split_3
I0606 16:15:27.391365  8132 net.cpp:150] Setting up fc7_relu7_0_split
I0606 16:15:27.391371  8132 net.cpp:157] Top shape: 4 1024 19 19 (1478656)
I0606 16:15:27.391378  8132 net.cpp:157] Top shape: 4 1024 19 19 (1478656)
I0606 16:15:27.391383  8132 net.cpp:157] Top shape: 4 1024 19 19 (1478656)
I0606 16:15:27.391388  8132 net.cpp:157] Top shape: 4 1024 19 19 (1478656)
I0606 16:15:27.391392  8132 net.cpp:165] Memory required for data: 931844128
I0606 16:15:27.391397  8132 layer_factory.hpp:77] Creating layer conv6_1
I0606 16:15:27.391407  8132 net.cpp:100] Creating Layer conv6_1
I0606 16:15:27.391412  8132 net.cpp:434] conv6_1 <- fc7_relu7_0_split_0
I0606 16:15:27.391420  8132 net.cpp:408] conv6_1 -> conv6_1
I0606 16:15:27.394626  8132 net.cpp:150] Setting up conv6_1
I0606 16:15:27.394640  8132 net.cpp:157] Top shape: 4 256 19 19 (369664)
I0606 16:15:27.394644  8132 net.cpp:165] Memory required for data: 933322784
I0606 16:15:27.394651  8132 layer_factory.hpp:77] Creating layer conv6_1_relu
I0606 16:15:27.394659  8132 net.cpp:100] Creating Layer conv6_1_relu
I0606 16:15:27.394665  8132 net.cpp:434] conv6_1_relu <- conv6_1
I0606 16:15:27.394672  8132 net.cpp:395] conv6_1_relu -> conv6_1 (in-place)
I0606 16:15:27.394814  8132 net.cpp:150] Setting up conv6_1_relu
I0606 16:15:27.394821  8132 net.cpp:157] Top shape: 4 256 19 19 (369664)
I0606 16:15:27.394825  8132 net.cpp:165] Memory required for data: 934801440
I0606 16:15:27.394829  8132 layer_factory.hpp:77] Creating layer conv6_2
I0606 16:15:27.394840  8132 net.cpp:100] Creating Layer conv6_2
I0606 16:15:27.394845  8132 net.cpp:434] conv6_2 <- conv6_1
I0606 16:15:27.394852  8132 net.cpp:408] conv6_2 -> conv6_2
I0606 16:15:27.401826  8132 net.cpp:150] Setting up conv6_2
I0606 16:15:27.401840  8132 net.cpp:157] Top shape: 4 512 10 10 (204800)
I0606 16:15:27.401845  8132 net.cpp:165] Memory required for data: 935620640
I0606 16:15:27.401859  8132 layer_factory.hpp:77] Creating layer conv6_2_relu
I0606 16:15:27.401870  8132 net.cpp:100] Creating Layer conv6_2_relu
I0606 16:15:27.401875  8132 net.cpp:434] conv6_2_relu <- conv6_2
I0606 16:15:27.401881  8132 net.cpp:395] conv6_2_relu -> conv6_2 (in-place)
I0606 16:15:27.402040  8132 net.cpp:150] Setting up conv6_2_relu
I0606 16:15:27.402046  8132 net.cpp:157] Top shape: 4 512 10 10 (204800)
I0606 16:15:27.402050  8132 net.cpp:165] Memory required for data: 936439840
I0606 16:15:27.402055  8132 layer_factory.hpp:77] Creating layer conv6_2_conv6_2_relu_0_split
I0606 16:15:27.402060  8132 net.cpp:100] Creating Layer conv6_2_conv6_2_relu_0_split
I0606 16:15:27.402079  8132 net.cpp:434] conv6_2_conv6_2_relu_0_split <- conv6_2
I0606 16:15:27.402087  8132 net.cpp:408] conv6_2_conv6_2_relu_0_split -> conv6_2_conv6_2_relu_0_split_0
I0606 16:15:27.402110  8132 net.cpp:408] conv6_2_conv6_2_relu_0_split -> conv6_2_conv6_2_relu_0_split_1
I0606 16:15:27.402119  8132 net.cpp:408] conv6_2_conv6_2_relu_0_split -> conv6_2_conv6_2_relu_0_split_2
I0606 16:15:27.402127  8132 net.cpp:408] conv6_2_conv6_2_relu_0_split -> conv6_2_conv6_2_relu_0_split_3
I0606 16:15:27.402179  8132 net.cpp:150] Setting up conv6_2_conv6_2_relu_0_split
I0606 16:15:27.402185  8132 net.cpp:157] Top shape: 4 512 10 10 (204800)
I0606 16:15:27.402190  8132 net.cpp:157] Top shape: 4 512 10 10 (204800)
I0606 16:15:27.402195  8132 net.cpp:157] Top shape: 4 512 10 10 (204800)
I0606 16:15:27.402200  8132 net.cpp:157] Top shape: 4 512 10 10 (204800)
I0606 16:15:27.402205  8132 net.cpp:165] Memory required for data: 939716640
I0606 16:15:27.402209  8132 layer_factory.hpp:77] Creating layer conv7_1
I0606 16:15:27.402218  8132 net.cpp:100] Creating Layer conv7_1
I0606 16:15:27.402222  8132 net.cpp:434] conv7_1 <- conv6_2_conv6_2_relu_0_split_0
I0606 16:15:27.402231  8132 net.cpp:408] conv7_1 -> conv7_1
I0606 16:15:27.403602  8132 net.cpp:150] Setting up conv7_1
I0606 16:15:27.403612  8132 net.cpp:157] Top shape: 4 128 10 10 (51200)
I0606 16:15:27.403616  8132 net.cpp:165] Memory required for data: 939921440
I0606 16:15:27.403625  8132 layer_factory.hpp:77] Creating layer conv7_1_relu
I0606 16:15:27.403632  8132 net.cpp:100] Creating Layer conv7_1_relu
I0606 16:15:27.403637  8132 net.cpp:434] conv7_1_relu <- conv7_1
I0606 16:15:27.403643  8132 net.cpp:395] conv7_1_relu -> conv7_1 (in-place)
I0606 16:15:27.403772  8132 net.cpp:150] Setting up conv7_1_relu
I0606 16:15:27.403780  8132 net.cpp:157] Top shape: 4 128 10 10 (51200)
I0606 16:15:27.403785  8132 net.cpp:165] Memory required for data: 940126240
I0606 16:15:27.403789  8132 layer_factory.hpp:77] Creating layer conv7_2
I0606 16:15:27.403800  8132 net.cpp:100] Creating Layer conv7_2
I0606 16:15:27.403805  8132 net.cpp:434] conv7_2 <- conv7_1
I0606 16:15:27.403813  8132 net.cpp:408] conv7_2 -> conv7_2
I0606 16:15:27.406672  8132 net.cpp:150] Setting up conv7_2
I0606 16:15:27.406685  8132 net.cpp:157] Top shape: 4 256 5 5 (25600)
I0606 16:15:27.406689  8132 net.cpp:165] Memory required for data: 940228640
I0606 16:15:27.406697  8132 layer_factory.hpp:77] Creating layer conv7_2_relu
I0606 16:15:27.406703  8132 net.cpp:100] Creating Layer conv7_2_relu
I0606 16:15:27.406713  8132 net.cpp:434] conv7_2_relu <- conv7_2
I0606 16:15:27.406719  8132 net.cpp:395] conv7_2_relu -> conv7_2 (in-place)
I0606 16:15:27.406862  8132 net.cpp:150] Setting up conv7_2_relu
I0606 16:15:27.406869  8132 net.cpp:157] Top shape: 4 256 5 5 (25600)
I0606 16:15:27.406873  8132 net.cpp:165] Memory required for data: 940331040
I0606 16:15:27.406877  8132 layer_factory.hpp:77] Creating layer conv7_2_conv7_2_relu_0_split
I0606 16:15:27.406884  8132 net.cpp:100] Creating Layer conv7_2_conv7_2_relu_0_split
I0606 16:15:27.406889  8132 net.cpp:434] conv7_2_conv7_2_relu_0_split <- conv7_2
I0606 16:15:27.406896  8132 net.cpp:408] conv7_2_conv7_2_relu_0_split -> conv7_2_conv7_2_relu_0_split_0
I0606 16:15:27.406906  8132 net.cpp:408] conv7_2_conv7_2_relu_0_split -> conv7_2_conv7_2_relu_0_split_1
I0606 16:15:27.406914  8132 net.cpp:408] conv7_2_conv7_2_relu_0_split -> conv7_2_conv7_2_relu_0_split_2
I0606 16:15:27.406922  8132 net.cpp:408] conv7_2_conv7_2_relu_0_split -> conv7_2_conv7_2_relu_0_split_3
I0606 16:15:27.406975  8132 net.cpp:150] Setting up conv7_2_conv7_2_relu_0_split
I0606 16:15:27.406981  8132 net.cpp:157] Top shape: 4 256 5 5 (25600)
I0606 16:15:27.406986  8132 net.cpp:157] Top shape: 4 256 5 5 (25600)
I0606 16:15:27.406991  8132 net.cpp:157] Top shape: 4 256 5 5 (25600)
I0606 16:15:27.406996  8132 net.cpp:157] Top shape: 4 256 5 5 (25600)
I0606 16:15:27.407001  8132 net.cpp:165] Memory required for data: 940740640
I0606 16:15:27.407006  8132 layer_factory.hpp:77] Creating layer conv8_1
I0606 16:15:27.407016  8132 net.cpp:100] Creating Layer conv8_1
I0606 16:15:27.407021  8132 net.cpp:434] conv8_1 <- conv7_2_conv7_2_relu_0_split_0
I0606 16:15:27.407028  8132 net.cpp:408] conv8_1 -> conv8_1
I0606 16:15:27.408176  8132 net.cpp:150] Setting up conv8_1
I0606 16:15:27.408188  8132 net.cpp:157] Top shape: 4 128 5 5 (12800)
I0606 16:15:27.408193  8132 net.cpp:165] Memory required for data: 940791840
I0606 16:15:27.408200  8132 layer_factory.hpp:77] Creating layer conv8_1_relu
I0606 16:15:27.408207  8132 net.cpp:100] Creating Layer conv8_1_relu
I0606 16:15:27.408212  8132 net.cpp:434] conv8_1_relu <- conv8_1
I0606 16:15:27.408219  8132 net.cpp:395] conv8_1_relu -> conv8_1 (in-place)
I0606 16:15:27.408780  8132 net.cpp:150] Setting up conv8_1_relu
I0606 16:15:27.408789  8132 net.cpp:157] Top shape: 4 128 5 5 (12800)
I0606 16:15:27.408793  8132 net.cpp:165] Memory required for data: 940843040
I0606 16:15:27.408797  8132 layer_factory.hpp:77] Creating layer conv8_2
I0606 16:15:27.408807  8132 net.cpp:100] Creating Layer conv8_2
I0606 16:15:27.408812  8132 net.cpp:434] conv8_2 <- conv8_1
I0606 16:15:27.408821  8132 net.cpp:408] conv8_2 -> conv8_2
I0606 16:15:27.411700  8132 net.cpp:150] Setting up conv8_2
I0606 16:15:27.411713  8132 net.cpp:157] Top shape: 4 256 3 3 (9216)
I0606 16:15:27.411717  8132 net.cpp:165] Memory required for data: 940879904
I0606 16:15:27.411725  8132 layer_factory.hpp:77] Creating layer conv8_2_relu
I0606 16:15:27.411732  8132 net.cpp:100] Creating Layer conv8_2_relu
I0606 16:15:27.411739  8132 net.cpp:434] conv8_2_relu <- conv8_2
I0606 16:15:27.411746  8132 net.cpp:395] conv8_2_relu -> conv8_2 (in-place)
I0606 16:15:27.411882  8132 net.cpp:150] Setting up conv8_2_relu
I0606 16:15:27.411890  8132 net.cpp:157] Top shape: 4 256 3 3 (9216)
I0606 16:15:27.411895  8132 net.cpp:165] Memory required for data: 940916768
I0606 16:15:27.411898  8132 layer_factory.hpp:77] Creating layer conv8_2_conv8_2_relu_0_split
I0606 16:15:27.411906  8132 net.cpp:100] Creating Layer conv8_2_conv8_2_relu_0_split
I0606 16:15:27.411911  8132 net.cpp:434] conv8_2_conv8_2_relu_0_split <- conv8_2
I0606 16:15:27.411919  8132 net.cpp:408] conv8_2_conv8_2_relu_0_split -> conv8_2_conv8_2_relu_0_split_0
I0606 16:15:27.411928  8132 net.cpp:408] conv8_2_conv8_2_relu_0_split -> conv8_2_conv8_2_relu_0_split_1
I0606 16:15:27.411936  8132 net.cpp:408] conv8_2_conv8_2_relu_0_split -> conv8_2_conv8_2_relu_0_split_2
I0606 16:15:27.411944  8132 net.cpp:408] conv8_2_conv8_2_relu_0_split -> conv8_2_conv8_2_relu_0_split_3
I0606 16:15:27.412001  8132 net.cpp:150] Setting up conv8_2_conv8_2_relu_0_split
I0606 16:15:27.412008  8132 net.cpp:157] Top shape: 4 256 3 3 (9216)
I0606 16:15:27.412021  8132 net.cpp:157] Top shape: 4 256 3 3 (9216)
I0606 16:15:27.412027  8132 net.cpp:157] Top shape: 4 256 3 3 (9216)
I0606 16:15:27.412034  8132 net.cpp:157] Top shape: 4 256 3 3 (9216)
I0606 16:15:27.412037  8132 net.cpp:165] Memory required for data: 941064224
I0606 16:15:27.412041  8132 layer_factory.hpp:77] Creating layer conv9_1
I0606 16:15:27.412052  8132 net.cpp:100] Creating Layer conv9_1
I0606 16:15:27.412057  8132 net.cpp:434] conv9_1 <- conv8_2_conv8_2_relu_0_split_0
I0606 16:15:27.412066  8132 net.cpp:408] conv9_1 -> conv9_1
I0606 16:15:27.413218  8132 net.cpp:150] Setting up conv9_1
I0606 16:15:27.413229  8132 net.cpp:157] Top shape: 4 128 3 3 (4608)
I0606 16:15:27.413233  8132 net.cpp:165] Memory required for data: 941082656
I0606 16:15:27.413240  8132 layer_factory.hpp:77] Creating layer conv9_1_relu
I0606 16:15:27.413246  8132 net.cpp:100] Creating Layer conv9_1_relu
I0606 16:15:27.413251  8132 net.cpp:434] conv9_1_relu <- conv9_1
I0606 16:15:27.413260  8132 net.cpp:395] conv9_1_relu -> conv9_1 (in-place)
I0606 16:15:27.413389  8132 net.cpp:150] Setting up conv9_1_relu
I0606 16:15:27.413396  8132 net.cpp:157] Top shape: 4 128 3 3 (4608)
I0606 16:15:27.413400  8132 net.cpp:165] Memory required for data: 941101088
I0606 16:15:27.413404  8132 layer_factory.hpp:77] Creating layer conv9_2
I0606 16:15:27.413414  8132 net.cpp:100] Creating Layer conv9_2
I0606 16:15:27.413417  8132 net.cpp:434] conv9_2 <- conv9_1
I0606 16:15:27.413425  8132 net.cpp:408] conv9_2 -> conv9_2
I0606 16:15:27.416254  8132 net.cpp:150] Setting up conv9_2
I0606 16:15:27.416268  8132 net.cpp:157] Top shape: 4 256 1 1 (1024)
I0606 16:15:27.416272  8132 net.cpp:165] Memory required for data: 941105184
I0606 16:15:27.416280  8132 layer_factory.hpp:77] Creating layer conv9_2_relu
I0606 16:15:27.416291  8132 net.cpp:100] Creating Layer conv9_2_relu
I0606 16:15:27.416296  8132 net.cpp:434] conv9_2_relu <- conv9_2
I0606 16:15:27.416301  8132 net.cpp:395] conv9_2_relu -> conv9_2 (in-place)
I0606 16:15:27.416431  8132 net.cpp:150] Setting up conv9_2_relu
I0606 16:15:27.416440  8132 net.cpp:157] Top shape: 4 256 1 1 (1024)
I0606 16:15:27.416443  8132 net.cpp:165] Memory required for data: 941109280
I0606 16:15:27.416447  8132 layer_factory.hpp:77] Creating layer conv9_2_conv9_2_relu_0_split
I0606 16:15:27.416455  8132 net.cpp:100] Creating Layer conv9_2_conv9_2_relu_0_split
I0606 16:15:27.416460  8132 net.cpp:434] conv9_2_conv9_2_relu_0_split <- conv9_2
I0606 16:15:27.416467  8132 net.cpp:408] conv9_2_conv9_2_relu_0_split -> conv9_2_conv9_2_relu_0_split_0
I0606 16:15:27.416476  8132 net.cpp:408] conv9_2_conv9_2_relu_0_split -> conv9_2_conv9_2_relu_0_split_1
I0606 16:15:27.416483  8132 net.cpp:408] conv9_2_conv9_2_relu_0_split -> conv9_2_conv9_2_relu_0_split_2
I0606 16:15:27.416529  8132 net.cpp:150] Setting up conv9_2_conv9_2_relu_0_split
I0606 16:15:27.416535  8132 net.cpp:157] Top shape: 4 256 1 1 (1024)
I0606 16:15:27.416540  8132 net.cpp:157] Top shape: 4 256 1 1 (1024)
I0606 16:15:27.416545  8132 net.cpp:157] Top shape: 4 256 1 1 (1024)
I0606 16:15:27.416550  8132 net.cpp:165] Memory required for data: 941121568
I0606 16:15:27.416553  8132 layer_factory.hpp:77] Creating layer conv4_3_norm
I0606 16:15:27.416561  8132 net.cpp:100] Creating Layer conv4_3_norm
I0606 16:15:27.416566  8132 net.cpp:434] conv4_3_norm <- conv4_3_relu4_3_0_split_1
I0606 16:15:27.416575  8132 net.cpp:408] conv4_3_norm -> conv4_3_norm
I0606 16:15:27.416695  8132 net.cpp:150] Setting up conv4_3_norm
I0606 16:15:27.416702  8132 net.cpp:157] Top shape: 4 512 38 38 (2957312)
I0606 16:15:27.416705  8132 net.cpp:165] Memory required for data: 952950816
I0606 16:15:27.416712  8132 layer_factory.hpp:77] Creating layer conv4_3_norm_conv4_3_norm_0_split
I0606 16:15:27.416718  8132 net.cpp:100] Creating Layer conv4_3_norm_conv4_3_norm_0_split
I0606 16:15:27.416723  8132 net.cpp:434] conv4_3_norm_conv4_3_norm_0_split <- conv4_3_norm
I0606 16:15:27.416729  8132 net.cpp:408] conv4_3_norm_conv4_3_norm_0_split -> conv4_3_norm_conv4_3_norm_0_split_0
I0606 16:15:27.416746  8132 net.cpp:408] conv4_3_norm_conv4_3_norm_0_split -> conv4_3_norm_conv4_3_norm_0_split_1
I0606 16:15:27.416754  8132 net.cpp:408] conv4_3_norm_conv4_3_norm_0_split -> conv4_3_norm_conv4_3_norm_0_split_2
I0606 16:15:27.416796  8132 net.cpp:150] Setting up conv4_3_norm_conv4_3_norm_0_split
I0606 16:15:27.416802  8132 net.cpp:157] Top shape: 4 512 38 38 (2957312)
I0606 16:15:27.416810  8132 net.cpp:157] Top shape: 4 512 38 38 (2957312)
I0606 16:15:27.416815  8132 net.cpp:157] Top shape: 4 512 38 38 (2957312)
I0606 16:15:27.416818  8132 net.cpp:165] Memory required for data: 988438560
I0606 16:15:27.416821  8132 layer_factory.hpp:77] Creating layer conv4_3_norm_mbox_loc
I0606 16:15:27.416832  8132 net.cpp:100] Creating Layer conv4_3_norm_mbox_loc
I0606 16:15:27.416836  8132 net.cpp:434] conv4_3_norm_mbox_loc <- conv4_3_norm_conv4_3_norm_0_split_0
I0606 16:15:27.416844  8132 net.cpp:408] conv4_3_norm_mbox_loc -> conv4_3_norm_mbox_loc
I0606 16:15:27.418612  8132 net.cpp:150] Setting up conv4_3_norm_mbox_loc
I0606 16:15:27.418622  8132 net.cpp:157] Top shape: 4 16 38 38 (92416)
I0606 16:15:27.418627  8132 net.cpp:165] Memory required for data: 988808224
I0606 16:15:27.418634  8132 layer_factory.hpp:77] Creating layer conv4_3_norm_mbox_loc_perm
I0606 16:15:27.418644  8132 net.cpp:100] Creating Layer conv4_3_norm_mbox_loc_perm
I0606 16:15:27.418649  8132 net.cpp:434] conv4_3_norm_mbox_loc_perm <- conv4_3_norm_mbox_loc
I0606 16:15:27.418658  8132 net.cpp:408] conv4_3_norm_mbox_loc_perm -> conv4_3_norm_mbox_loc_perm
I0606 16:15:27.418743  8132 net.cpp:150] Setting up conv4_3_norm_mbox_loc_perm
I0606 16:15:27.418751  8132 net.cpp:157] Top shape: 4 38 38 16 (92416)
I0606 16:15:27.418756  8132 net.cpp:165] Memory required for data: 989177888
I0606 16:15:27.418759  8132 layer_factory.hpp:77] Creating layer conv4_3_norm_mbox_loc_flat
I0606 16:15:27.418766  8132 net.cpp:100] Creating Layer conv4_3_norm_mbox_loc_flat
I0606 16:15:27.418771  8132 net.cpp:434] conv4_3_norm_mbox_loc_flat <- conv4_3_norm_mbox_loc_perm
I0606 16:15:27.418777  8132 net.cpp:408] conv4_3_norm_mbox_loc_flat -> conv4_3_norm_mbox_loc_flat
I0606 16:15:27.418808  8132 net.cpp:150] Setting up conv4_3_norm_mbox_loc_flat
I0606 16:15:27.418814  8132 net.cpp:157] Top shape: 4 23104 (92416)
I0606 16:15:27.418817  8132 net.cpp:165] Memory required for data: 989547552
I0606 16:15:27.418823  8132 layer_factory.hpp:77] Creating layer conv4_3_norm_mbox_conf
I0606 16:15:27.418836  8132 net.cpp:100] Creating Layer conv4_3_norm_mbox_conf
I0606 16:15:27.418841  8132 net.cpp:434] conv4_3_norm_mbox_conf <- conv4_3_norm_conv4_3_norm_0_split_1
I0606 16:15:27.418848  8132 net.cpp:408] conv4_3_norm_mbox_conf -> conv4_3_norm_mbox_conf
I0606 16:15:27.421293  8132 net.cpp:150] Setting up conv4_3_norm_mbox_conf
I0606 16:15:27.421304  8132 net.cpp:157] Top shape: 4 16 38 38 (92416)
I0606 16:15:27.421308  8132 net.cpp:165] Memory required for data: 989917216
I0606 16:15:27.421316  8132 layer_factory.hpp:77] Creating layer conv4_3_norm_mbox_conf_perm
I0606 16:15:27.421325  8132 net.cpp:100] Creating Layer conv4_3_norm_mbox_conf_perm
I0606 16:15:27.421330  8132 net.cpp:434] conv4_3_norm_mbox_conf_perm <- conv4_3_norm_mbox_conf
I0606 16:15:27.421339  8132 net.cpp:408] conv4_3_norm_mbox_conf_perm -> conv4_3_norm_mbox_conf_perm
I0606 16:15:27.421424  8132 net.cpp:150] Setting up conv4_3_norm_mbox_conf_perm
I0606 16:15:27.421432  8132 net.cpp:157] Top shape: 4 38 38 16 (92416)
I0606 16:15:27.421435  8132 net.cpp:165] Memory required for data: 990286880
I0606 16:15:27.421439  8132 layer_factory.hpp:77] Creating layer conv4_3_norm_mbox_conf_flat
I0606 16:15:27.421452  8132 net.cpp:100] Creating Layer conv4_3_norm_mbox_conf_flat
I0606 16:15:27.421458  8132 net.cpp:434] conv4_3_norm_mbox_conf_flat <- conv4_3_norm_mbox_conf_perm
I0606 16:15:27.421465  8132 net.cpp:408] conv4_3_norm_mbox_conf_flat -> conv4_3_norm_mbox_conf_flat
I0606 16:15:27.421489  8132 net.cpp:150] Setting up conv4_3_norm_mbox_conf_flat
I0606 16:15:27.421494  8132 net.cpp:157] Top shape: 4 23104 (92416)
I0606 16:15:27.421509  8132 net.cpp:165] Memory required for data: 990656544
I0606 16:15:27.421512  8132 layer_factory.hpp:77] Creating layer conv4_3_norm_mbox_priorbox
I0606 16:15:27.421521  8132 net.cpp:100] Creating Layer conv4_3_norm_mbox_priorbox
I0606 16:15:27.421526  8132 net.cpp:434] conv4_3_norm_mbox_priorbox <- conv4_3_norm_conv4_3_norm_0_split_2
I0606 16:15:27.421532  8132 net.cpp:434] conv4_3_norm_mbox_priorbox <- data_data_0_split_1
I0606 16:15:27.421540  8132 net.cpp:408] conv4_3_norm_mbox_priorbox -> conv4_3_norm_mbox_priorbox
I0606 16:15:27.421567  8132 net.cpp:150] Setting up conv4_3_norm_mbox_priorbox
I0606 16:15:27.421574  8132 net.cpp:157] Top shape: 1 2 23104 (46208)
I0606 16:15:27.421579  8132 net.cpp:165] Memory required for data: 990841376
I0606 16:15:27.421583  8132 layer_factory.hpp:77] Creating layer fc7_mbox_loc
I0606 16:15:27.421593  8132 net.cpp:100] Creating Layer fc7_mbox_loc
I0606 16:15:27.421598  8132 net.cpp:434] fc7_mbox_loc <- fc7_relu7_0_split_1
I0606 16:15:27.421607  8132 net.cpp:408] fc7_mbox_loc -> fc7_mbox_loc
I0606 16:15:27.424041  8132 net.cpp:150] Setting up fc7_mbox_loc
I0606 16:15:27.424055  8132 net.cpp:157] Top shape: 4 24 19 19 (34656)
I0606 16:15:27.424059  8132 net.cpp:165] Memory required for data: 990980000
I0606 16:15:27.424068  8132 layer_factory.hpp:77] Creating layer fc7_mbox_loc_perm
I0606 16:15:27.424077  8132 net.cpp:100] Creating Layer fc7_mbox_loc_perm
I0606 16:15:27.424083  8132 net.cpp:434] fc7_mbox_loc_perm <- fc7_mbox_loc
I0606 16:15:27.424093  8132 net.cpp:408] fc7_mbox_loc_perm -> fc7_mbox_loc_perm
I0606 16:15:27.424180  8132 net.cpp:150] Setting up fc7_mbox_loc_perm
I0606 16:15:27.424188  8132 net.cpp:157] Top shape: 4 19 19 24 (34656)
I0606 16:15:27.424193  8132 net.cpp:165] Memory required for data: 991118624
I0606 16:15:27.424196  8132 layer_factory.hpp:77] Creating layer fc7_mbox_loc_flat
I0606 16:15:27.424203  8132 net.cpp:100] Creating Layer fc7_mbox_loc_flat
I0606 16:15:27.424207  8132 net.cpp:434] fc7_mbox_loc_flat <- fc7_mbox_loc_perm
I0606 16:15:27.424214  8132 net.cpp:408] fc7_mbox_loc_flat -> fc7_mbox_loc_flat
I0606 16:15:27.424237  8132 net.cpp:150] Setting up fc7_mbox_loc_flat
I0606 16:15:27.424247  8132 net.cpp:157] Top shape: 4 8664 (34656)
I0606 16:15:27.424252  8132 net.cpp:165] Memory required for data: 991257248
I0606 16:15:27.424254  8132 layer_factory.hpp:77] Creating layer fc7_mbox_conf
I0606 16:15:27.424266  8132 net.cpp:100] Creating Layer fc7_mbox_conf
I0606 16:15:27.424271  8132 net.cpp:434] fc7_mbox_conf <- fc7_relu7_0_split_2
I0606 16:15:27.424278  8132 net.cpp:408] fc7_mbox_conf -> fc7_mbox_conf
I0606 16:15:27.426684  8132 net.cpp:150] Setting up fc7_mbox_conf
I0606 16:15:27.426697  8132 net.cpp:157] Top shape: 4 24 19 19 (34656)
I0606 16:15:27.426702  8132 net.cpp:165] Memory required for data: 991395872
I0606 16:15:27.426709  8132 layer_factory.hpp:77] Creating layer fc7_mbox_conf_perm
I0606 16:15:27.426717  8132 net.cpp:100] Creating Layer fc7_mbox_conf_perm
I0606 16:15:27.426723  8132 net.cpp:434] fc7_mbox_conf_perm <- fc7_mbox_conf
I0606 16:15:27.426730  8132 net.cpp:408] fc7_mbox_conf_perm -> fc7_mbox_conf_perm
I0606 16:15:27.426820  8132 net.cpp:150] Setting up fc7_mbox_conf_perm
I0606 16:15:27.426827  8132 net.cpp:157] Top shape: 4 19 19 24 (34656)
I0606 16:15:27.426831  8132 net.cpp:165] Memory required for data: 991534496
I0606 16:15:27.426834  8132 layer_factory.hpp:77] Creating layer fc7_mbox_conf_flat
I0606 16:15:27.426841  8132 net.cpp:100] Creating Layer fc7_mbox_conf_flat
I0606 16:15:27.426846  8132 net.cpp:434] fc7_mbox_conf_flat <- fc7_mbox_conf_perm
I0606 16:15:27.426853  8132 net.cpp:408] fc7_mbox_conf_flat -> fc7_mbox_conf_flat
I0606 16:15:27.426875  8132 net.cpp:150] Setting up fc7_mbox_conf_flat
I0606 16:15:27.426882  8132 net.cpp:157] Top shape: 4 8664 (34656)
I0606 16:15:27.426885  8132 net.cpp:165] Memory required for data: 991673120
I0606 16:15:27.426888  8132 layer_factory.hpp:77] Creating layer fc7_mbox_priorbox
I0606 16:15:27.426897  8132 net.cpp:100] Creating Layer fc7_mbox_priorbox
I0606 16:15:27.426903  8132 net.cpp:434] fc7_mbox_priorbox <- fc7_relu7_0_split_3
I0606 16:15:27.426918  8132 net.cpp:434] fc7_mbox_priorbox <- data_data_0_split_2
I0606 16:15:27.426926  8132 net.cpp:408] fc7_mbox_priorbox -> fc7_mbox_priorbox
I0606 16:15:27.426950  8132 net.cpp:150] Setting up fc7_mbox_priorbox
I0606 16:15:27.426957  8132 net.cpp:157] Top shape: 1 2 8664 (17328)
I0606 16:15:27.426961  8132 net.cpp:165] Memory required for data: 991742432
I0606 16:15:27.426965  8132 layer_factory.hpp:77] Creating layer conv6_2_mbox_loc
I0606 16:15:27.426975  8132 net.cpp:100] Creating Layer conv6_2_mbox_loc
I0606 16:15:27.426980  8132 net.cpp:434] conv6_2_mbox_loc <- conv6_2_conv6_2_relu_0_split_1
I0606 16:15:27.426988  8132 net.cpp:408] conv6_2_mbox_loc -> conv6_2_mbox_loc
I0606 16:15:27.428922  8132 net.cpp:150] Setting up conv6_2_mbox_loc
I0606 16:15:27.428932  8132 net.cpp:157] Top shape: 4 24 10 10 (9600)
I0606 16:15:27.428937  8132 net.cpp:165] Memory required for data: 991780832
I0606 16:15:27.428944  8132 layer_factory.hpp:77] Creating layer conv6_2_mbox_loc_perm
I0606 16:15:27.428952  8132 net.cpp:100] Creating Layer conv6_2_mbox_loc_perm
I0606 16:15:27.428958  8132 net.cpp:434] conv6_2_mbox_loc_perm <- conv6_2_mbox_loc
I0606 16:15:27.428967  8132 net.cpp:408] conv6_2_mbox_loc_perm -> conv6_2_mbox_loc_perm
I0606 16:15:27.429055  8132 net.cpp:150] Setting up conv6_2_mbox_loc_perm
I0606 16:15:27.429062  8132 net.cpp:157] Top shape: 4 10 10 24 (9600)
I0606 16:15:27.429067  8132 net.cpp:165] Memory required for data: 991819232
I0606 16:15:27.429071  8132 layer_factory.hpp:77] Creating layer conv6_2_mbox_loc_flat
I0606 16:15:27.429077  8132 net.cpp:100] Creating Layer conv6_2_mbox_loc_flat
I0606 16:15:27.429081  8132 net.cpp:434] conv6_2_mbox_loc_flat <- conv6_2_mbox_loc_perm
I0606 16:15:27.429090  8132 net.cpp:408] conv6_2_mbox_loc_flat -> conv6_2_mbox_loc_flat
I0606 16:15:27.429111  8132 net.cpp:150] Setting up conv6_2_mbox_loc_flat
I0606 16:15:27.429117  8132 net.cpp:157] Top shape: 4 2400 (9600)
I0606 16:15:27.429121  8132 net.cpp:165] Memory required for data: 991857632
I0606 16:15:27.429123  8132 layer_factory.hpp:77] Creating layer conv6_2_mbox_conf
I0606 16:15:27.429134  8132 net.cpp:100] Creating Layer conv6_2_mbox_conf
I0606 16:15:27.429139  8132 net.cpp:434] conv6_2_mbox_conf <- conv6_2_conv6_2_relu_0_split_2
I0606 16:15:27.429147  8132 net.cpp:408] conv6_2_mbox_conf -> conv6_2_mbox_conf
I0606 16:15:27.431066  8132 net.cpp:150] Setting up conv6_2_mbox_conf
I0606 16:15:27.431077  8132 net.cpp:157] Top shape: 4 24 10 10 (9600)
I0606 16:15:27.431082  8132 net.cpp:165] Memory required for data: 991896032
I0606 16:15:27.431088  8132 layer_factory.hpp:77] Creating layer conv6_2_mbox_conf_perm
I0606 16:15:27.431095  8132 net.cpp:100] Creating Layer conv6_2_mbox_conf_perm
I0606 16:15:27.431100  8132 net.cpp:434] conv6_2_mbox_conf_perm <- conv6_2_mbox_conf
I0606 16:15:27.431109  8132 net.cpp:408] conv6_2_mbox_conf_perm -> conv6_2_mbox_conf_perm
I0606 16:15:27.431198  8132 net.cpp:150] Setting up conv6_2_mbox_conf_perm
I0606 16:15:27.431206  8132 net.cpp:157] Top shape: 4 10 10 24 (9600)
I0606 16:15:27.431211  8132 net.cpp:165] Memory required for data: 991934432
I0606 16:15:27.431215  8132 layer_factory.hpp:77] Creating layer conv6_2_mbox_conf_flat
I0606 16:15:27.431221  8132 net.cpp:100] Creating Layer conv6_2_mbox_conf_flat
I0606 16:15:27.431224  8132 net.cpp:434] conv6_2_mbox_conf_flat <- conv6_2_mbox_conf_perm
I0606 16:15:27.431232  8132 net.cpp:408] conv6_2_mbox_conf_flat -> conv6_2_mbox_conf_flat
I0606 16:15:27.431255  8132 net.cpp:150] Setting up conv6_2_mbox_conf_flat
I0606 16:15:27.431262  8132 net.cpp:157] Top shape: 4 2400 (9600)
I0606 16:15:27.431264  8132 net.cpp:165] Memory required for data: 991972832
I0606 16:15:27.431268  8132 layer_factory.hpp:77] Creating layer conv6_2_mbox_priorbox
I0606 16:15:27.431277  8132 net.cpp:100] Creating Layer conv6_2_mbox_priorbox
I0606 16:15:27.431282  8132 net.cpp:434] conv6_2_mbox_priorbox <- conv6_2_conv6_2_relu_0_split_3
I0606 16:15:27.431288  8132 net.cpp:434] conv6_2_mbox_priorbox <- data_data_0_split_3
I0606 16:15:27.431304  8132 net.cpp:408] conv6_2_mbox_priorbox -> conv6_2_mbox_priorbox
I0606 16:15:27.431331  8132 net.cpp:150] Setting up conv6_2_mbox_priorbox
I0606 16:15:27.431337  8132 net.cpp:157] Top shape: 1 2 2400 (4800)
I0606 16:15:27.431341  8132 net.cpp:165] Memory required for data: 991992032
I0606 16:15:27.431345  8132 layer_factory.hpp:77] Creating layer conv7_2_mbox_loc
I0606 16:15:27.431356  8132 net.cpp:100] Creating Layer conv7_2_mbox_loc
I0606 16:15:27.431360  8132 net.cpp:434] conv7_2_mbox_loc <- conv7_2_conv7_2_relu_0_split_1
I0606 16:15:27.431368  8132 net.cpp:408] conv7_2_mbox_loc -> conv7_2_mbox_loc
I0606 16:15:27.432657  8132 net.cpp:150] Setting up conv7_2_mbox_loc
I0606 16:15:27.432667  8132 net.cpp:157] Top shape: 4 24 5 5 (2400)
I0606 16:15:27.432672  8132 net.cpp:165] Memory required for data: 992001632
I0606 16:15:27.432678  8132 layer_factory.hpp:77] Creating layer conv7_2_mbox_loc_perm
I0606 16:15:27.432687  8132 net.cpp:100] Creating Layer conv7_2_mbox_loc_perm
I0606 16:15:27.432693  8132 net.cpp:434] conv7_2_mbox_loc_perm <- conv7_2_mbox_loc
I0606 16:15:27.432698  8132 net.cpp:408] conv7_2_mbox_loc_perm -> conv7_2_mbox_loc_perm
I0606 16:15:27.432786  8132 net.cpp:150] Setting up conv7_2_mbox_loc_perm
I0606 16:15:27.432792  8132 net.cpp:157] Top shape: 4 5 5 24 (2400)
I0606 16:15:27.432796  8132 net.cpp:165] Memory required for data: 992011232
I0606 16:15:27.432799  8132 layer_factory.hpp:77] Creating layer conv7_2_mbox_loc_flat
I0606 16:15:27.432806  8132 net.cpp:100] Creating Layer conv7_2_mbox_loc_flat
I0606 16:15:27.432811  8132 net.cpp:434] conv7_2_mbox_loc_flat <- conv7_2_mbox_loc_perm
I0606 16:15:27.432817  8132 net.cpp:408] conv7_2_mbox_loc_flat -> conv7_2_mbox_loc_flat
I0606 16:15:27.432842  8132 net.cpp:150] Setting up conv7_2_mbox_loc_flat
I0606 16:15:27.432847  8132 net.cpp:157] Top shape: 4 600 (2400)
I0606 16:15:27.432852  8132 net.cpp:165] Memory required for data: 992020832
I0606 16:15:27.432854  8132 layer_factory.hpp:77] Creating layer conv7_2_mbox_conf
I0606 16:15:27.432864  8132 net.cpp:100] Creating Layer conv7_2_mbox_conf
I0606 16:15:27.432868  8132 net.cpp:434] conv7_2_mbox_conf <- conv7_2_conv7_2_relu_0_split_2
I0606 16:15:27.432878  8132 net.cpp:408] conv7_2_mbox_conf -> conv7_2_mbox_conf
I0606 16:15:27.434566  8132 net.cpp:150] Setting up conv7_2_mbox_conf
I0606 16:15:27.434576  8132 net.cpp:157] Top shape: 4 24 5 5 (2400)
I0606 16:15:27.434579  8132 net.cpp:165] Memory required for data: 992030432
I0606 16:15:27.434587  8132 layer_factory.hpp:77] Creating layer conv7_2_mbox_conf_perm
I0606 16:15:27.434594  8132 net.cpp:100] Creating Layer conv7_2_mbox_conf_perm
I0606 16:15:27.434600  8132 net.cpp:434] conv7_2_mbox_conf_perm <- conv7_2_mbox_conf
I0606 16:15:27.434607  8132 net.cpp:408] conv7_2_mbox_conf_perm -> conv7_2_mbox_conf_perm
I0606 16:15:27.434695  8132 net.cpp:150] Setting up conv7_2_mbox_conf_perm
I0606 16:15:27.434702  8132 net.cpp:157] Top shape: 4 5 5 24 (2400)
I0606 16:15:27.434705  8132 net.cpp:165] Memory required for data: 992040032
I0606 16:15:27.434708  8132 layer_factory.hpp:77] Creating layer conv7_2_mbox_conf_flat
I0606 16:15:27.434715  8132 net.cpp:100] Creating Layer conv7_2_mbox_conf_flat
I0606 16:15:27.434720  8132 net.cpp:434] conv7_2_mbox_conf_flat <- conv7_2_mbox_conf_perm
I0606 16:15:27.434726  8132 net.cpp:408] conv7_2_mbox_conf_flat -> conv7_2_mbox_conf_flat
I0606 16:15:27.434749  8132 net.cpp:150] Setting up conv7_2_mbox_conf_flat
I0606 16:15:27.434756  8132 net.cpp:157] Top shape: 4 600 (2400)
I0606 16:15:27.434759  8132 net.cpp:165] Memory required for data: 992049632
I0606 16:15:27.434762  8132 layer_factory.hpp:77] Creating layer conv7_2_mbox_priorbox
I0606 16:15:27.434769  8132 net.cpp:100] Creating Layer conv7_2_mbox_priorbox
I0606 16:15:27.434774  8132 net.cpp:434] conv7_2_mbox_priorbox <- conv7_2_conv7_2_relu_0_split_3
I0606 16:15:27.434783  8132 net.cpp:434] conv7_2_mbox_priorbox <- data_data_0_split_4
I0606 16:15:27.434790  8132 net.cpp:408] conv7_2_mbox_priorbox -> conv7_2_mbox_priorbox
I0606 16:15:27.434825  8132 net.cpp:150] Setting up conv7_2_mbox_priorbox
I0606 16:15:27.434831  8132 net.cpp:157] Top shape: 1 2 600 (1200)
I0606 16:15:27.434835  8132 net.cpp:165] Memory required for data: 992054432
I0606 16:15:27.434839  8132 layer_factory.hpp:77] Creating layer conv8_2_mbox_loc
I0606 16:15:27.434849  8132 net.cpp:100] Creating Layer conv8_2_mbox_loc
I0606 16:15:27.434854  8132 net.cpp:434] conv8_2_mbox_loc <- conv8_2_conv8_2_relu_0_split_1
I0606 16:15:27.434862  8132 net.cpp:408] conv8_2_mbox_loc -> conv8_2_mbox_loc
I0606 16:15:27.436508  8132 net.cpp:150] Setting up conv8_2_mbox_loc
I0606 16:15:27.436522  8132 net.cpp:157] Top shape: 4 16 3 3 (576)
I0606 16:15:27.436524  8132 net.cpp:165] Memory required for data: 992056736
I0606 16:15:27.436542  8132 layer_factory.hpp:77] Creating layer conv8_2_mbox_loc_perm
I0606 16:15:27.436552  8132 net.cpp:100] Creating Layer conv8_2_mbox_loc_perm
I0606 16:15:27.436558  8132 net.cpp:434] conv8_2_mbox_loc_perm <- conv8_2_mbox_loc
I0606 16:15:27.436564  8132 net.cpp:408] conv8_2_mbox_loc_perm -> conv8_2_mbox_loc_perm
I0606 16:15:27.436657  8132 net.cpp:150] Setting up conv8_2_mbox_loc_perm
I0606 16:15:27.436664  8132 net.cpp:157] Top shape: 4 3 3 16 (576)
I0606 16:15:27.436667  8132 net.cpp:165] Memory required for data: 992059040
I0606 16:15:27.436671  8132 layer_factory.hpp:77] Creating layer conv8_2_mbox_loc_flat
I0606 16:15:27.436678  8132 net.cpp:100] Creating Layer conv8_2_mbox_loc_flat
I0606 16:15:27.436683  8132 net.cpp:434] conv8_2_mbox_loc_flat <- conv8_2_mbox_loc_perm
I0606 16:15:27.436689  8132 net.cpp:408] conv8_2_mbox_loc_flat -> conv8_2_mbox_loc_flat
I0606 16:15:27.436713  8132 net.cpp:150] Setting up conv8_2_mbox_loc_flat
I0606 16:15:27.436719  8132 net.cpp:157] Top shape: 4 144 (576)
I0606 16:15:27.436723  8132 net.cpp:165] Memory required for data: 992061344
I0606 16:15:27.436727  8132 layer_factory.hpp:77] Creating layer conv8_2_mbox_conf
I0606 16:15:27.436738  8132 net.cpp:100] Creating Layer conv8_2_mbox_conf
I0606 16:15:27.436743  8132 net.cpp:434] conv8_2_mbox_conf <- conv8_2_conv8_2_relu_0_split_2
I0606 16:15:27.436750  8132 net.cpp:408] conv8_2_mbox_conf -> conv8_2_mbox_conf
I0606 16:15:27.438433  8132 net.cpp:150] Setting up conv8_2_mbox_conf
I0606 16:15:27.438444  8132 net.cpp:157] Top shape: 4 16 3 3 (576)
I0606 16:15:27.438449  8132 net.cpp:165] Memory required for data: 992063648
I0606 16:15:27.438457  8132 layer_factory.hpp:77] Creating layer conv8_2_mbox_conf_perm
I0606 16:15:27.438464  8132 net.cpp:100] Creating Layer conv8_2_mbox_conf_perm
I0606 16:15:27.438470  8132 net.cpp:434] conv8_2_mbox_conf_perm <- conv8_2_mbox_conf
I0606 16:15:27.438480  8132 net.cpp:408] conv8_2_mbox_conf_perm -> conv8_2_mbox_conf_perm
I0606 16:15:27.438570  8132 net.cpp:150] Setting up conv8_2_mbox_conf_perm
I0606 16:15:27.438576  8132 net.cpp:157] Top shape: 4 3 3 16 (576)
I0606 16:15:27.438580  8132 net.cpp:165] Memory required for data: 992065952
I0606 16:15:27.438585  8132 layer_factory.hpp:77] Creating layer conv8_2_mbox_conf_flat
I0606 16:15:27.438592  8132 net.cpp:100] Creating Layer conv8_2_mbox_conf_flat
I0606 16:15:27.438597  8132 net.cpp:434] conv8_2_mbox_conf_flat <- conv8_2_mbox_conf_perm
I0606 16:15:27.438603  8132 net.cpp:408] conv8_2_mbox_conf_flat -> conv8_2_mbox_conf_flat
I0606 16:15:27.438627  8132 net.cpp:150] Setting up conv8_2_mbox_conf_flat
I0606 16:15:27.438633  8132 net.cpp:157] Top shape: 4 144 (576)
I0606 16:15:27.438637  8132 net.cpp:165] Memory required for data: 992068256
I0606 16:15:27.438639  8132 layer_factory.hpp:77] Creating layer conv8_2_mbox_priorbox
I0606 16:15:27.438648  8132 net.cpp:100] Creating Layer conv8_2_mbox_priorbox
I0606 16:15:27.438653  8132 net.cpp:434] conv8_2_mbox_priorbox <- conv8_2_conv8_2_relu_0_split_3
I0606 16:15:27.438658  8132 net.cpp:434] conv8_2_mbox_priorbox <- data_data_0_split_5
I0606 16:15:27.438666  8132 net.cpp:408] conv8_2_mbox_priorbox -> conv8_2_mbox_priorbox
I0606 16:15:27.438694  8132 net.cpp:150] Setting up conv8_2_mbox_priorbox
I0606 16:15:27.438699  8132 net.cpp:157] Top shape: 1 2 144 (288)
I0606 16:15:27.438711  8132 net.cpp:165] Memory required for data: 992069408
I0606 16:15:27.438716  8132 layer_factory.hpp:77] Creating layer conv9_2_mbox_loc
I0606 16:15:27.438727  8132 net.cpp:100] Creating Layer conv9_2_mbox_loc
I0606 16:15:27.438732  8132 net.cpp:434] conv9_2_mbox_loc <- conv9_2_conv9_2_relu_0_split_0
I0606 16:15:27.438740  8132 net.cpp:408] conv9_2_mbox_loc -> conv9_2_mbox_loc
I0606 16:15:27.440393  8132 net.cpp:150] Setting up conv9_2_mbox_loc
I0606 16:15:27.440405  8132 net.cpp:157] Top shape: 4 16 1 1 (64)
I0606 16:15:27.440408  8132 net.cpp:165] Memory required for data: 992069664
I0606 16:15:27.440417  8132 layer_factory.hpp:77] Creating layer conv9_2_mbox_loc_perm
I0606 16:15:27.440424  8132 net.cpp:100] Creating Layer conv9_2_mbox_loc_perm
I0606 16:15:27.440431  8132 net.cpp:434] conv9_2_mbox_loc_perm <- conv9_2_mbox_loc
I0606 16:15:27.440439  8132 net.cpp:408] conv9_2_mbox_loc_perm -> conv9_2_mbox_loc_perm
I0606 16:15:27.440533  8132 net.cpp:150] Setting up conv9_2_mbox_loc_perm
I0606 16:15:27.440539  8132 net.cpp:157] Top shape: 4 1 1 16 (64)
I0606 16:15:27.440544  8132 net.cpp:165] Memory required for data: 992069920
I0606 16:15:27.440547  8132 layer_factory.hpp:77] Creating layer conv9_2_mbox_loc_flat
I0606 16:15:27.440554  8132 net.cpp:100] Creating Layer conv9_2_mbox_loc_flat
I0606 16:15:27.440559  8132 net.cpp:434] conv9_2_mbox_loc_flat <- conv9_2_mbox_loc_perm
I0606 16:15:27.440567  8132 net.cpp:408] conv9_2_mbox_loc_flat -> conv9_2_mbox_loc_flat
I0606 16:15:27.440589  8132 net.cpp:150] Setting up conv9_2_mbox_loc_flat
I0606 16:15:27.440595  8132 net.cpp:157] Top shape: 4 16 (64)
I0606 16:15:27.440598  8132 net.cpp:165] Memory required for data: 992070176
I0606 16:15:27.440603  8132 layer_factory.hpp:77] Creating layer conv9_2_mbox_conf
I0606 16:15:27.440613  8132 net.cpp:100] Creating Layer conv9_2_mbox_conf
I0606 16:15:27.440618  8132 net.cpp:434] conv9_2_mbox_conf <- conv9_2_conv9_2_relu_0_split_1
I0606 16:15:27.440625  8132 net.cpp:408] conv9_2_mbox_conf -> conv9_2_mbox_conf
I0606 16:15:27.442736  8132 net.cpp:150] Setting up conv9_2_mbox_conf
I0606 16:15:27.442749  8132 net.cpp:157] Top shape: 4 16 1 1 (64)
I0606 16:15:27.442752  8132 net.cpp:165] Memory required for data: 992070432
I0606 16:15:27.442760  8132 layer_factory.hpp:77] Creating layer conv9_2_mbox_conf_perm
I0606 16:15:27.442769  8132 net.cpp:100] Creating Layer conv9_2_mbox_conf_perm
I0606 16:15:27.442775  8132 net.cpp:434] conv9_2_mbox_conf_perm <- conv9_2_mbox_conf
I0606 16:15:27.442783  8132 net.cpp:408] conv9_2_mbox_conf_perm -> conv9_2_mbox_conf_perm
I0606 16:15:27.442878  8132 net.cpp:150] Setting up conv9_2_mbox_conf_perm
I0606 16:15:27.442883  8132 net.cpp:157] Top shape: 4 1 1 16 (64)
I0606 16:15:27.442888  8132 net.cpp:165] Memory required for data: 992070688
I0606 16:15:27.442891  8132 layer_factory.hpp:77] Creating layer conv9_2_mbox_conf_flat
I0606 16:15:27.442898  8132 net.cpp:100] Creating Layer conv9_2_mbox_conf_flat
I0606 16:15:27.442903  8132 net.cpp:434] conv9_2_mbox_conf_flat <- conv9_2_mbox_conf_perm
I0606 16:15:27.442911  8132 net.cpp:408] conv9_2_mbox_conf_flat -> conv9_2_mbox_conf_flat
I0606 16:15:27.442934  8132 net.cpp:150] Setting up conv9_2_mbox_conf_flat
I0606 16:15:27.442939  8132 net.cpp:157] Top shape: 4 16 (64)
I0606 16:15:27.442944  8132 net.cpp:165] Memory required for data: 992070944
I0606 16:15:27.442947  8132 layer_factory.hpp:77] Creating layer conv9_2_mbox_priorbox
I0606 16:15:27.442956  8132 net.cpp:100] Creating Layer conv9_2_mbox_priorbox
I0606 16:15:27.442961  8132 net.cpp:434] conv9_2_mbox_priorbox <- conv9_2_conv9_2_relu_0_split_2
I0606 16:15:27.442966  8132 net.cpp:434] conv9_2_mbox_priorbox <- data_data_0_split_6
I0606 16:15:27.442975  8132 net.cpp:408] conv9_2_mbox_priorbox -> conv9_2_mbox_priorbox
I0606 16:15:27.443001  8132 net.cpp:150] Setting up conv9_2_mbox_priorbox
I0606 16:15:27.443007  8132 net.cpp:157] Top shape: 1 2 16 (32)
I0606 16:15:27.443011  8132 net.cpp:165] Memory required for data: 992071072
I0606 16:15:27.443014  8132 layer_factory.hpp:77] Creating layer mbox_loc
I0606 16:15:27.443033  8132 net.cpp:100] Creating Layer mbox_loc
I0606 16:15:27.443039  8132 net.cpp:434] mbox_loc <- conv4_3_norm_mbox_loc_flat
I0606 16:15:27.443045  8132 net.cpp:434] mbox_loc <- fc7_mbox_loc_flat
I0606 16:15:27.443053  8132 net.cpp:434] mbox_loc <- conv6_2_mbox_loc_flat
I0606 16:15:27.443058  8132 net.cpp:434] mbox_loc <- conv7_2_mbox_loc_flat
I0606 16:15:27.443063  8132 net.cpp:434] mbox_loc <- conv8_2_mbox_loc_flat
I0606 16:15:27.443068  8132 net.cpp:434] mbox_loc <- conv9_2_mbox_loc_flat
I0606 16:15:27.443078  8132 net.cpp:408] mbox_loc -> mbox_loc
I0606 16:15:27.443105  8132 net.cpp:150] Setting up mbox_loc
I0606 16:15:27.443112  8132 net.cpp:157] Top shape: 4 34928 (139712)
I0606 16:15:27.443115  8132 net.cpp:165] Memory required for data: 992629920
I0606 16:15:27.443120  8132 layer_factory.hpp:77] Creating layer mbox_conf
I0606 16:15:27.443127  8132 net.cpp:100] Creating Layer mbox_conf
I0606 16:15:27.443132  8132 net.cpp:434] mbox_conf <- conv4_3_norm_mbox_conf_flat
I0606 16:15:27.443137  8132 net.cpp:434] mbox_conf <- fc7_mbox_conf_flat
I0606 16:15:27.443145  8132 net.cpp:434] mbox_conf <- conv6_2_mbox_conf_flat
I0606 16:15:27.443150  8132 net.cpp:434] mbox_conf <- conv7_2_mbox_conf_flat
I0606 16:15:27.443156  8132 net.cpp:434] mbox_conf <- conv8_2_mbox_conf_flat
I0606 16:15:27.443161  8132 net.cpp:434] mbox_conf <- conv9_2_mbox_conf_flat
I0606 16:15:27.443167  8132 net.cpp:408] mbox_conf -> mbox_conf
I0606 16:15:27.443190  8132 net.cpp:150] Setting up mbox_conf
I0606 16:15:27.443195  8132 net.cpp:157] Top shape: 4 34928 (139712)
I0606 16:15:27.443199  8132 net.cpp:165] Memory required for data: 993188768
I0606 16:15:27.443203  8132 layer_factory.hpp:77] Creating layer mbox_priorbox
I0606 16:15:27.443209  8132 net.cpp:100] Creating Layer mbox_priorbox
I0606 16:15:27.443214  8132 net.cpp:434] mbox_priorbox <- conv4_3_norm_mbox_priorbox
I0606 16:15:27.443220  8132 net.cpp:434] mbox_priorbox <- fc7_mbox_priorbox
I0606 16:15:27.443226  8132 net.cpp:434] mbox_priorbox <- conv6_2_mbox_priorbox
I0606 16:15:27.443231  8132 net.cpp:434] mbox_priorbox <- conv7_2_mbox_priorbox
I0606 16:15:27.443236  8132 net.cpp:434] mbox_priorbox <- conv8_2_mbox_priorbox
I0606 16:15:27.443240  8132 net.cpp:434] mbox_priorbox <- conv9_2_mbox_priorbox
I0606 16:15:27.443248  8132 net.cpp:408] mbox_priorbox -> mbox_priorbox
I0606 16:15:27.443271  8132 net.cpp:150] Setting up mbox_priorbox
I0606 16:15:27.443277  8132 net.cpp:157] Top shape: 1 2 34928 (69856)
I0606 16:15:27.443280  8132 net.cpp:165] Memory required for data: 993468192
I0606 16:15:27.443284  8132 layer_factory.hpp:77] Creating layer mbox_loss
I0606 16:15:27.443296  8132 net.cpp:100] Creating Layer mbox_loss
I0606 16:15:27.443300  8132 net.cpp:434] mbox_loss <- mbox_loc
I0606 16:15:27.443305  8132 net.cpp:434] mbox_loss <- mbox_conf
I0606 16:15:27.443310  8132 net.cpp:434] mbox_loss <- mbox_priorbox
…
  name: "data"
  type: "AnnotatedData"
  top: "data"
  top: "label"
  include {
    phase: TEST
  }
  transform_param {
    mean_value: 114
    resize_param {
      prob: 1
      resize_mode: WARP
      height: 300
      width: 300
      interp_mode: LINEAR
    }
  }
  data_param {
    source: "examples/grayscale_tbs_300x300_HSIL_10x/grayscale_tbs_300x300_HSIL_10x_test_lmdb"
    batch_size: 4
    backend: LMDB
  }
  annotated_data_param {
    batch_sampler {
    }
    label_map_file: "data/grayscale_tbs_300x300_HSIL_10x/labelmap_voc.prototxt"
  }
}
layer {
  name: "conv1_1"
  type: "Convolution"
  bottom: "data"
  top: "conv1_1"
  param {
    lr_mult: 1
    decay_mult: 1
  }
  param {
    lr_mult: 2
    decay_mult: 0
  }
  convolution_param {
    num_output: 64
    pad: 1
    kernel_size: 3
    weight_filler {
      type: "xavier"
    }
    bias_filler {
      type: "constant"
      value: 0
    }
  }
}
layer {
  name: "relu1_1"
  type: "ReLU"
  bottom: "conv1_1"
  top: "conv1_1"
}
layer {
  name: "conv1_2"
  type: "Convolution"
  bottom: "conv1_1"
  top: "conv1_2"
  param {
    lr_mult: 1
    decay_mult: 1
  }
  param {
    lr_mult: 2
    decay_mult: 0
  }
  convolution_param {
    num_output: 64
    pad: 1
    kernel_size: 3
    weight_filler {
      type: "xavier"
    }
    bias_filler {
      type: "constant"
      value: 0
    }
  }
}
layer {
  name: "relu1_2"
  type: "ReLU"
  bottom: "conv1_2"
  top: "conv1_2"
}
layer {
  name: "pool1"
  type: "Pooling"
  bottom: "conv1_2"
  top: "pool1"
  pooling_param {
    pool: MAX
    kernel_size: 2
    stride: 2
  }
}
layer {
  name: "conv2_1"
  type: "Convolution"
  bottom: "pool1"
  top: "conv2_1"
  param {
    lr_mult: 1
    decay_mult: 1
  }
  param {
    lr_mult: 2
    decay_mult: 0
  }
  convolution_param {
    num_output: 128
    pad: 1
    kernel_size: 3
    weight_filler {
      type: "xavier"
    }
    bias_filler {
      type: "constant"
      value: 0
    }
  }
}
layer {
  name: "relu2_1"
  type: "ReLU"
  bottom: "conv2_1"
  top: "conv2_1"
}
layer {
  name: "conv2_2"
  type: "Convolution"
  bottom: "conv2_1"
  top: "conv2_2"
  param {
    lr_mult: 1
    decay_mult: 1
  }
  param {
    lr_mult: 2
    decay_mult: 0
  }
  convolution_param {
    num_output: 128
    pad: 1
    kernel_size: 3
    weight_filler {
      type: "xavier"
    }
    bias_filler {
      type: "constant"
      value: 0
    }
  }
}
layer {
  name: "relu2_2"
  type: "ReLU"
  bottom: "conv2_2"
  top: "conv2_2"
}
layer {
  name: "pool2"
  type: "Pooling"
  bottom: "conv2_2"
  top: "pool2"
  pooling_param {
    pool: MAX
    kernel_size: 2
    stride: 2
  }
}
layer {
  name: "conv3_1"
  type: "Convolution"
  bottom: "pool2"
  top: "conv3_1"
  param {
    lr_mult: 1
    decay_mult: 1
  }
  param {
    lr_mult: 2
    decay_mult: 0
  }
  convolution_param {
    num_output: 256
    pad: 1
    kernel_size: 3
    weight_filler {
      type: "xavier"
    }
    bias_filler {
      type: "constant"
      value: 0
    }
  }
}
layer {
  name: "relu3_1"
  type: "ReLU"
  bottom: "conv3_1"
  top: "conv3_1"
}
layer {
  name: "conv3_2"
  type: "Convolution"
  bottom: "conv3_1"
  top: "conv3_2"
  param {
    lr_mult: 1
    decay_mult: 1
  }
  param {
    lr_mult: 2
    decay_mult: 0
  }
  convolution_param {
    num_output: 256
    pad: 1
    kernel_size: 3
    weight_filler {
      type: "xavier"
    }
    bias_filler {
      type: "constant"
      value: 0
    }
  }
}
layer {
  name: "relu3_2"
  type: "ReLU"
  bottom: "conv3_2"
  top: "conv3_2"
}
layer {
  name: "conv3_3"
  type: "Convolution"
  bottom: "conv3_2"
  top: "conv3_3"
  param {
    lr_mult: 1
    decay_mult: 1
  }
  param {
    lr_mult: 2
    decay_mult: 0
  }
  convolution_param {
    num_output: 256
    pad: 1
    kernel_size: 3
    weight_filler {
      type: "xavier"
    }
    bias_filler {
      type: "constant"
      value: 0
    }
  }
}
layer {
  name: "relu3_3"
  type: "ReLU"
  bottom: "conv3_3"
  top: "conv3_3"
}
layer {
  name: "pool3"
  type: "Pooling"
  bottom: "conv3_3"
  top: "pool3"
  pooling_param {
    pool: MAX
    kernel_size: 2
    stride: 2
  }
}
layer {
  name: "conv4_1"
  type: "Convolution"
  bottom: "pool3"
  top: "conv4_1"
  param {
    lr_mult: 1
    decay_mult: 1
  }
  param {
    lr_mult: 2
    decay_mult: 0
  }
  convolution_param {
    num_output: 512
    pad: 1
    kernel_size: 3
    weight_filler {
      type: "xavier"
    }
    bias_filler {
      type: "constant"
      value: 0
    }
  }
}
layer {
  name: "relu4_1"
  type: "ReLU"
  bottom: "conv4_1"
  top: "conv4_1"
}
layer {
  name: "conv4_2"
  type: "Convolution"
  bottom: "conv4_1"
  top: "conv4_2"
  param {
    lr_mult: 1
    decay_mult: 1
  }
  param {
    lr_mult: 2
    decay_mult: 0
  }
  convolution_param {
    num_output: 512
    pad: 1
    kernel_size: 3
    weight_filler {
      type: "xavier"
    }
    bias_filler {
      type: "constant"
      value: 0
    }
  }
}
layer {
  name: "relu4_2"
  type: "ReLU"
  bottom: "conv4_2"
  top: "conv4_2"
}
layer {
  name: "conv4_3"
  type: "Convolution"
  bottom: "conv4_2"
  top: "conv4_3"
  param {
    lr_mult: 1
    decay_mult: 1
  }
  param {
    lr_mult: 2
    decay_mult: 0
  }
  convolution_param {
    num_output: 512
    pad: 1
    kernel_size: 3
    weight_filler {
      type: "xavier"
    }
    bias_filler {
      type: "constant"
      value: 0
    }
  }
}
layer {
  name: "relu4_3"
  type: "ReLU"
  bottom: "conv4_3"
  top: "conv4_3"
}
layer {
  name: "pool4"
  type: "Pooling"
  bottom: "conv4_3"
  top: "pool4"
  pooling_param {
    pool: MAX
    kernel_size: 2
    stride: 2
  }
}
layer {
  name: "conv5_1"
  type: "Convolution"
  bottom: "pool4"
  top: "conv5_1"
  param {
    lr_mult: 1
    decay_mult: 1
  }
  param {
    lr_mult: 2
    decay_mult: 0
  }
  convolution_param {
    num_output: 512
    pad: 1
    kernel_size: 3
    weight_filler {
      type: "xavier"
    }
    bias_filler {
      type: "constant"
      value: 0
    }
    dilation: 1
  }
}
layer {
  name: "relu5_1"
  type: "ReLU"
  bottom: "conv5_1"
  top: "conv5_1"
}
layer {
  name: "conv5_2"
  type: "Convolution"
  bottom: "conv5_1"
  top: "conv5_2"
  param {
    lr_mult: 1
    decay_mult: 1
  }
  param {
    lr_mult: 2
    decay_mult: 0
  }
  convolution_param {
    num_output: 512
    pad: 1
    kernel_size: 3
    weight_filler {
      type: "xavier"
    }
    bias_filler {
      type: "constant"
      value: 0
    }
    dilation: 1
  }
}
layer {
  name: "relu5_2"
  type: "ReLU"
  bottom: "conv5_2"
  top: "conv5_2"
}
layer {
  name: "conv5_3"
  type: "Convolution"
  bottom: "conv5_2"
  top: "conv5_3"
  param {
    lr_mult: 1
    decay_mult: 1
  }
  param {
    lr_mult: 2
    decay_mult: 0
  }
  convolution_param {
    num_output: 512
    pad: 1
    kernel_size: 3
    weight_filler {
      type: "xavier"
    }
    bias_filler {
      type: "constant"
      value: 0
    }
    dilation: 1
  }
}
layer {
  name: "relu5_3"
  type: "ReLU"
  bottom: "conv5_3"
  top: "conv5_3"
}
layer {
  name: "pool5"
  type: "Pooling"
  bottom: "conv5_3"
  top: "pool5"
  pooling_param {
    pool: MAX
    kernel_size: 3
    stride: 1
    pad: 1
  }
}
layer {
  name: "fc6"
  type: "Convolution"
  bottom: "pool5"
  top: "fc6"
  param {
    lr_mult: 1
    decay_mult: 1
  }
  param {
    lr_mult: 2
    decay_mult: 0
  }
  convolution_param {
    num_output: 1024
    pad: 6
    kernel_size: 3
    weight_filler {
      type: "xavier"
    }
    bias_filler {
      type: "constant"
      value: 0
    }
    dilation: 6
  }
}
layer {
  name: "relu6"
  type: "ReLU"
  bottom: "fc6"
  top: "fc6"
}
layer {
  name: "fc7"
  type: "Convolution"
  bottom: "fc6"
  top: "fc7"
  param {
    lr_mult: 1
    decay_mult: 1
  }
  param {
    lr_mult: 2
    decay_mult: 0
  }
  convolution_param {
    num_output: 1024
    kernel_size: 1
    weight_filler {
      type: "xavier"
    }
    bias_filler {
      type: "constant"
      value: 0
    }
  }
}
layer {
  name: "relu7"
  type: "ReLU"
  bottom: "fc7"
  top: "fc7"
}
layer {
  name: "conv6_1"
  type: "Convolution"
  bottom: "fc7"
  top: "conv6_1"
  param {
    lr_mult: 1
    decay_mult: 1
  }
  param {
    lr_mult: 2
    decay_mult: 0
  }
  convolution_param {
    num_output: 256
    pad: 0
    kernel_size: 1
    stride: 1
    weight_filler {
      type: "xavier"
    }
    bias_filler {
      type: "constant"
      value: 0
    }
  }
}
layer {
  name: "conv6_1_relu"
  type: "ReLU"
  bottom: "conv6_1"
  top: "conv6_1"
}
layer {
  name: "conv6_2"
  type: "Convolution"
  bottom: "conv6_1"
  top: "conv6_2"
  param {
    lr_mult: 1
    decay_mult: 1
  }
  param {
    lr_mult: 2
    decay_mult: 0
  }
  convolution_param {
    num_output: 512
    pad: 1
    kernel_size: 3
    stride: 2
    weight_filler {
      type: "xavier"
    }
    bias_filler {
      type: "constant"
      value: 0
    }
  }
}
layer {
  name: "conv6_2_relu"
  type: "ReLU"
  bottom: "conv6_2"
  top: "conv6_2"
}
layer {
  name: "conv7_1"
  type: "Convolution"
  bottom: "conv6_2"
  top: "conv7_1"
  param {
    lr_mult: 1
    decay_mult: 1
  }
  param {
    lr_mult: 2
    decay_mult: 0
  }
  convolution_param {
    num_output: 128
    pad: 0
    kernel_size: 1
    stride: 1
    weight_filler {
      type: "xavier"
    }
    bias_filler {
      type: "constant"
      value: 0
    }
  }
}
layer {
  name: "conv7_1_relu"
  type: "ReLU"
  bottom: "conv7_1"
  top: "conv7_1"
}
layer {
  name: "conv7_2"
  type: "Convolution"
  bottom: "conv7_1"
  top: "conv7_2"
  param {
    lr_mult: 1
    decay_mult: 1
  }
  param {
    lr_mult: 2
    decay_mult: 0
  }
  convolution_param {
    num_output: 256
    pad: 1
    kernel_size: 3
    stride: 2
    weight_filler {
      type: "xavier"
    }
    bias_filler {
      type: "constant"
      value: 0
    }
  }
}
layer {
  name: "conv7_2_relu"
  type: "ReLU"
  bottom: "conv7_2"
  top: "conv7_2"
}
layer {
  name: "conv8_1"
  type: "Convolution"
  bottom: "conv7_2"
  top: "conv8_1"
  param {
    lr_mult: 1
    decay_mult: 1
  }
  param {
    lr_mult: 2
    decay_mult: 0
  }
  convolution_param {
    num_output: 128
    pad: 0
    kernel_size: 1
    stride: 1
    weight_filler {
      type: "xavier"
    }
    bias_filler {
      type: "constant"
      value: 0
    }
  }
}
layer {
  name: "conv8_1_relu"
  type: "ReLU"
  bottom: "conv8_1"
  top: "conv8_1"
}
layer {
  name: "conv8_2"
  type: "Convolution"
  bottom: "conv8_1"
  top: "conv8_2"
  param {
    lr_mult: 1
    decay_mult: 1
  }
  param {
    lr_mult: 2
    decay_mult: 0
  }
  convolution_param {
    num_output: 256
    pad: 0
    kernel_size: 3
    stride: 1
    weight_filler {
      type: "xavier"
    }
    bias_filler {
      type: "constant"
      value: 0
    }
  }
}
layer {
  name: "conv8_2_relu"
  type: "ReLU"
  bottom: "conv8_2"
  top: "conv8_2"
}
layer {
  name: "conv9_1"
  type: "Convolution"
  bottom: "conv8_2"
  top: "conv9_1"
  param {
    lr_mult: 1
    decay_mult: 1
  }
  param {
    lr_mult: 2
    decay_mult: 0
  }
  convolution_param {
    num_output: 128
    pad: 0
    kernel_size: 1
    stride: 1
    weight_filler {
      type: "xavier"
    }
    bias_filler {
      type: "constant"
      value: 0
    }
  }
}
layer {
  name: "conv9_1_relu"
  type: "ReLU"
  bottom: "conv9_1"
  top: "conv9_1"
}
layer {
  name: "conv9_2"
  type: "Convolution"
  bottom: "conv9_1"
  top: "conv9_2"
  param {
    lr_mult: 1
    decay_mult: 1
  }
  param {
    lr_mult: 2
    decay_mult: 0
  }
  convolution_param {
    num_output: 256
    pad: 0
    kernel_size: 3
    stride: 1
    weight_filler {
      type: "xavier"
    }
    bias_filler {
      type: "constant"
      value: 0
    }
  }
}
layer {
  name: "conv9_2_relu"
  type: "ReLU"
  bottom: "conv9_2"
  top: "conv9_2"
}
layer {
  name: "conv4_3_norm"
  type: "Normalize"
  bottom: "conv4_3"
  top: "conv4_3_norm"
  norm_param {
    across_spatial: false
    scale_filler {
      type: "constant"
      value: 20
    }
    channel_shared: false
  }
}
layer {
  name: "conv4_3_norm_mbox_loc"
  type: "Convolution"
  bottom: "conv4_3_norm"
  top: "conv4_3_norm_mbox_loc"
  param {
    lr_mult: 1
    decay_mult: 1
  }
  param {
    lr_mult: 2
    decay_mult: 0
  }
  convolution_param {
    num_output: 16
    pad: 1
    kernel_size: 3
    stride: 1
    weight_filler {
      type: "xavier"
    }
    bias_filler {
      type: "constant"
      value: 0
    }
  }
}
layer {
  name: "conv4_3_norm_mbox_loc_perm"
  type: "Permute"
  bottom: "conv4_3_norm_mbox_loc"
  top: "conv4_3_norm_mbox_loc_perm"
  permute_param {
    order: 0
    order: 2
    order: 3
    order: 1
  }
}
layer {
  name: "conv4_3_norm_mbox_loc_flat"
  type: "Flatten"
  bottom: "conv4_3_norm_mbox_loc_perm"
  top: "conv4_3_norm_mbox_loc_flat"
  flatten_param {
    axis: 1
  }
}
layer {
  name: "conv4_3_norm_mbox_conf"
  type: "Convolution"
  bottom: "conv4_3_norm"
  top: "conv4_3_norm_mbox_conf"
  param {
    lr_mult: 1
    decay_mult: 1
  }
  param {
    lr_mult: 2
    decay_mult: 0
  }
  convolution_param {
    num_output: 16
    pad: 1
    kernel_size: 3
    stride: 1
    weight_filler {
      type: "xavier"
    }
    bias_filler {
      type: "constant"
      value: 0
    }
  }
}
layer {
  name: "conv4_3_norm_mbox_conf_perm"
  type: "Permute"
  bottom: "conv4_3_norm_mbox_conf"
  top: "conv4_3_norm_mbox_conf_perm"
  permute_param {
    order: 0
    order: 2
    order: 3
    order: 1
  }
}
layer {
  name: "conv4_3_norm_mbox_conf_flat"
  type: "Flatten"
  bottom: "conv4_3_norm_mbox_conf_perm"
  top: "conv4_3_norm_mbox_conf_flat"
  flatten_param {
    axis: 1
  }
}
layer {
  name: "conv4_3_norm_mbox_priorbox"
  type: "PriorBox"
  bottom: "conv4_3_norm"
  bottom: "data"
  top: "conv4_3_norm_mbox_priorbox"
  prior_box_param {
    min_size: 30
    max_size: 60
    aspect_ratio: 2
    flip: true
    clip: false
    variance: 0.1
    variance: 0.1
    variance: 0.2
    variance: 0.2
    step: 8
    offset: 0.5
  }
}
layer {
  name: "fc7_mbox_loc"
  type: "Convolution"
  bottom: "fc7"
  top: "fc7_mbox_loc"
  param {
    lr_mult: 1
    decay_mult: 1
  }
  param {
    lr_mult: 2
    decay_mult: 0
  }
  convolution_param {
    num_output: 24
    pad: 1
    kernel_size: 3
    stride: 1
    weight_filler {
      type: "xavier"
    }
    bias_filler {
      type: "constant"
      value: 0
    }
  }
}
layer {
  name: "fc7_mbox_loc_perm"
  type: "Permute"
  bottom: "fc7_mbox_loc"
  top: "fc7_mbox_loc_perm"
  permute_param {
    order: 0
    order: 2
    order: 3
    order: 1
  }
}
layer {
  name: "fc7_mbox_loc_flat"
  type: "Flatten"
  bottom: "fc7_mbox_loc_perm"
  top: "fc7_mbox_loc_flat"
  flatten_param {
    axis: 1
  }
}
layer {
  name: "fc7_mbox_conf"
  type: "Convolution"
  bottom: "fc7"
  top: "fc7_mbox_conf"
  param {
    lr_mult: 1
    decay_mult: 1
  }
  param {
    lr_mult: 2
    decay_mult: 0
  }
  convolution_param {
    num_output: 24
    pad: 1
    kernel_size: 3
    stride: 1
    weight_filler {
      type: "xavier"
    }
    bias_filler {
      type: "constant"
      value: 0
    }
  }
}
layer {
  name: "fc7_mbox_conf_perm"
  type: "Permute"
  bottom: "fc7_mbox_conf"
  top: "fc7_mbox_conf_perm"
  permute_param {
    order: 0
    order: 2
    order: 3
    order: 1
  }
}
layer {
  name: "fc7_mbox_conf_flat"
  type: "Flatten"
  bottom: "fc7_mbox_conf_perm"
  top: "fc7_mbox_conf_flat"
  flatten_param {
    axis: 1
  }
}
layer {
  name: "fc7_mbox_priorbox"
  type: "PriorBox"
  bottom: "fc7"
  bottom: "data"
  top: "fc7_mbox_priorbox"
  prior_box_param {
    min_size: 60
    max_size: 111
    aspect_ratio: 2
    aspect_ratio: 3
    flip: true
    clip: false
    variance: 0.1
    variance: 0.1
    variance: 0.2
    variance: 0.2
    step: 16
    offset: 0.5
  }
}
layer {
  name: "conv6_2_mbox_loc"
  type: "Convolution"
  bottom: "conv6_2"
  top: "conv6_2_mbox_loc"
  param {
    lr_mult: 1
    decay_mult: 1
  }
  param {
    lr_mult: 2
    decay_mult: 0
  }
  convolution_param {
    num_output: 24
    pad: 1
    kernel_size: 3
    stride: 1
    weight_filler {
      type: "xavier"
    }
    bias_filler {
      type: "constant"
      value: 0
    }
  }
}
layer {
  name: "conv6_2_mbox_loc_perm"
  type: "Permute"
  bottom: "conv6_2_mbox_loc"
  top: "conv6_2_mbox_loc_perm"
  permute_param {
    order: 0
    order: 2
    order: 3
    order: 1
  }
}
layer {
  name: "conv6_2_mbox_loc_flat"
  type: "Flatten"
  bottom: "conv6_2_mbox_loc_perm"
  top: "conv6_2_mbox_loc_flat"
  flatten_param {
    axis: 1
  }
}
layer {
  name: "conv6_2_mbox_conf"
  type: "Convolution"
  bottom: "conv6_2"
  top: "conv6_2_mbox_conf"
  param {
    lr_mult: 1
    decay_mult: 1
  }
  param {
    lr_mult: 2
    decay_mult: 0
  }
  convolution_param {
    num_output: 24
    pad: 1
    kernel_size: 3
    stride: 1
    weight_filler {
      type: "xavier"
    }
    bias_filler {
      type: "constant"
      value: 0
    }
  }
}
layer {
  name: "conv6_2_mbox_conf_perm"
  type: "Permute"
  bottom: "conv6_2_mbox_conf"
  top: "conv6_2_mbox_conf_perm"
  permute_param {
    order: 0
    order: 2
    order: 3
    order: 1
  }
}
layer {
  name: "conv6_2_mbox_conf_flat"
  type: "Flatten"
  bottom: "conv6_2_mbox_conf_perm"
  top: "conv6_2_mbox_conf_flat"
  flatten_param {
    axis: 1
  }
}
layer {
  name: "conv6_2_mbox_priorbox"
  type: "PriorBox"
  bottom: "conv6_2"
  bottom: "data"
  top: "conv6_2_mbox_priorbox"
  prior_box_param {
    min_size: 111
    max_size: 162
    aspect_ratio: 2
    aspect_ratio: 3
    flip: true
    clip: false
    variance: 0.1
    variance: 0.1
    variance: 0.2
    variance: 0.2
    step: 32
    offset: 0.5
  }
}
layer {
  name: "conv7_2_mbox_loc"
  type: "Convolution"
  bottom: "conv7_2"
  top: "conv7_2_mbox_loc"
  param {
    lr_mult: 1
    decay_mult: 1
  }
  param {
    lr_mult: 2
    decay_mult: 0
  }
  convolution_param {
    num_output: 24
    pad: 1
    kernel_size: 3
    stride: 1
    weight_filler {
      type: "xavier"
    }
    bias_filler {
      type: "constant"
      value: 0
    }
  }
}
layer {
  name: "conv7_2_mbox_loc_perm"
  type: "Permute"
  bottom: "conv7_2_mbox_loc"
  top: "conv7_2_mbox_loc_perm"
  permute_param {
    order: 0
    order: 2
    order: 3
    order: 1
  }
}
layer {
  name: "conv7_2_mbox_loc_flat"
  type: "Flatten"
  bottom: "conv7_2_mbox_loc_perm"
  top: "conv7_2_mbox_loc_flat"
  flatten_param {
    axis: 1
  }
}
layer {
  name: "conv7_2_mbox_conf"
  type: "Convolution"
  bottom: "conv7_2"
  top: "conv7_2_mbox_conf"
  param {
    lr_mult: 1
    decay_mult: 1
  }
  param {
    lr_mult: 2
    decay_mult: 0
  }
  convolution_param {
    num_output: 24
    pad: 1
    kernel_size: 3
    stride: 1
    weight_filler {
      type: "xavier"
    }
    bias_filler {
      type: "constant"
      value: 0
    }
  }
}
layer {
  name: "conv7_2_mbox_conf_perm"
  type: "Permute"
  bottom: "conv7_2_mbox_conf"
  top: "conv7_2_mbox_conf_perm"
  permute_param {
    order: 0
    order: 2
    order: 3
    order: 1
  }
}
layer {
  name: "conv7_2_mbox_conf_flat"
  type: "Flatten"
  bottom: "conv7_2_mbox_conf_perm"
  top: "conv7_2_mbox_conf_flat"
  flatten_param {
    axis: 1
  }
}
layer {
  name: "conv7_2_mbox_priorbox"
  type: "PriorBox"
  bottom: "conv7_2"
  bottom: "data"
  top: "conv7_2_mbox_priorbox"
  prior_box_param {
    min_size: 162
    max_size: 213
    aspect_ratio: 2
    aspect_ratio: 3
    flip: true
    clip: false
    variance: 0.1
    variance: 0.1
    variance: 0.2
    variance: 0.2
    step: 64
    offset: 0.5
  }
}
layer {
  name: "conv8_2_mbox_loc"
  type: "Convolution"
  bottom: "conv8_2"
  top: "conv8_2_mbox_loc"
  param {
    lr_mult: 1
    decay_mult: 1
  }
  param {
    lr_mult: 2
    decay_mult: 0
  }
  convolution_param {
    num_output: 16
    pad: 1
    kernel_size: 3
    stride: 1
    weight_filler {
      type: "xavier"
    }
    bias_filler {
      type: "constant"
      value: 0
    }
  }
}
layer {
  name: "conv8_2_mbox_loc_perm"
  type: "Permute"
  bottom: "conv8_2_mbox_loc"
  top: "conv8_2_mbox_loc_perm"
  permute_param {
    order: 0
    order: 2
    order: 3
    order: 1
  }
}
layer {
  name: "conv8_2_mbox_loc_flat"
  type: "Flatten"
  bottom: "conv8_2_mbox_loc_perm"
  top: "conv8_2_mbox_loc_flat"
  flatten_param {
    axis: 1
  }
}
layer {
  name: "conv8_2_mbox_conf"
  type: "Convolution"
  bottom: "conv8_2"
  top: "conv8_2_mbox_conf"
  param {
    lr_mult: 1
    decay_mult: 1
  }
  param {
    lr_mult: 2
    decay_mult: 0
  }
  convolution_param {
    num_output: 16
    pad: 1
    kernel_size: 3
    stride: 1
    weight_filler {
      type: "xavier"
    }
    bias_filler {
      type: "constant"
      value: 0
    }
  }
}
layer {
  name: "conv8_2_mbox_conf_perm"
  type: "Permute"
  bottom: "conv8_2_mbox_conf"
  top: "conv8_2_mbox_conf_perm"
  permute_param {
    order: 0
    order: 2
    order: 3
    order: 1
  }
}
layer {
  name: "conv8_2_mbox_conf_flat"
  type: "Flatten"
  bottom: "conv8_2_mbox_conf_perm"
  top: "conv8_2_mbox_conf_flat"
  flatten_param {
    axis: 1
  }
}
layer {
  name: "conv8_2_mbox_priorbox"
  type: "PriorBox"
  bottom: "conv8_2"
  bottom: "data"
  top: "conv8_2_mbox_priorbox"
  prior_box_param {
    min_size: 213
    max_size: 264
    aspect_ratio: 2
    flip: true
    clip: false
    variance: 0.1
    variance: 0.1
    variance: 0.2
    variance: 0.2
    step: 100
    offset: 0.5
  }
}
layer {
  name: "conv9_2_mbox_loc"
  type: "Convolution"
  bottom: "conv9_2"
  top: "conv9_2_mbox_loc"
  param {
    lr_mult: 1
    decay_mult: 1
  }
  param {
    lr_mult: 2
    decay_mult: 0
  }
  convolution_param {
    num_output: 16
    pad: 1
    kernel_size: 3
    stride: 1
    weight_filler {
      type: "xavier"
    }
    bias_filler {
      type: "constant"
      value: 0
    }
  }
}
layer {
  name: "conv9_2_mbox_loc_perm"
  type: "Permute"
  bottom: "conv9_2_mbox_loc"
  top: "conv9_2_mbox_loc_perm"
  permute_param {
    order: 0
    order: 2
    order: 3
    order: 1
  }
}
layer {
  name: "conv9_2_mbox_loc_flat"
  type: "Flatten"
  bottom: "conv9_2_mbox_loc_perm"
  top: "conv9_2_mbox_loc_flat"
  flatten_param {
    axis: 1
  }
}
layer {
  name: "conv9_2_mbox_conf"
  type: "Convolution"
  bottom: "conv9_2"
  top: "conv9_2_mbox_conf"
  param {
    lr_mult: 1
    decay_mult: 1
  }
  param {
    lr_mult: 2
    decay_mult: 0
  }
  convolution_param {
    num_output: 16
    pad: 1
    kernel_size: 3
    stride: 1
    weight_filler {
      type: "xavier"
    }
    bias_filler {
      type: "constant"
      value: 0
    }
  }
}
layer {
  name: "conv9_2_mbox_conf_perm"
  type: "Permute"
  bottom: "conv9_2_mbox_conf"
  top: "conv9_2_mbox_conf_perm"
  permute_param {
    order: 0
    order: 2
    order: 3
    order: 1
  }
}
layer {
  name: "conv9_2_mbox_conf_flat"
  type: "Flatten"
  bottom: "conv9_2_mbox_conf_perm"
  top: "conv9_2_mbox_conf_flat"
  flatten_param {
    axis: 1
  }
}
layer {
  name: "conv9_2_mbox_priorbox"
  type: "PriorBox"
  bottom: "conv9_2"
  bottom: "data"
  top: "conv9_2_mbox_priorbox"
  prior_box_param {
    min_size: 264
    max_size: 315
    aspect_ratio: 2
    flip: true
    clip: false
    variance: 0.1
    variance: 0.1
    variance: 0.2
    variance: 0.2
    step: 300
    offset: 0.5
  }
}
layer {
  name: "mbox_loc"
  type: "Concat"
  bottom: "conv4_3_norm_mbox_loc_flat"
  bottom: "fc7_mbox_loc_flat"
  bottom: "conv6_2_mbox_loc_flat"
  bottom: "conv7_2_mbox_loc_flat"
  bottom: "conv8_2_mbox_loc_flat"
  bottom: "conv9_2_mbox_loc_flat"
  top: "mbox_loc"
  concat_param {
    axis: 1
  }
}
layer {
  name: "mbox_conf"
  type: "Concat"
  bottom: "conv4_3_norm_mbox_conf_flat"
  bottom: "fc7_mbox_conf_flat"
  bottom: "conv6_2_mbox_conf_flat"
  bottom: "conv7_2_mbox_conf_flat"
  bottom: "conv8_2_mbox_conf_flat"
  bottom: "conv9_2_mbox_conf_flat"
  top: "mbox_conf"
  concat_param {
    axis: 1
  }
}
layer {
  name: "mbox_priorbox"
  type: "Concat"
  bottom: "conv4_3_norm_mbox_priorbox"
  bottom: "fc7_mbox_priorbox"
  bottom: "conv6_2_mbox_priorbox"
  bottom: "conv7_2_mbox_priorbox"
  bottom: "conv8_2_mbox_priorbox"
  bottom: "conv9_2_mbox_priorbox"
  top: "mbox_priorbox"
  concat_param {
    axis: 2
  }
}
layer {
  name: "mbox_conf_reshape"
  type: "Reshape"
  bottom: "mbox_conf"
  top: "mbox_conf_reshape"
  reshape_param {
    shape {
      dim: 0
      dim: -1
      dim: 4
    }
  }
}
layer {
  name: "mbox_conf_softmax"
  type: "Softmax"
  bottom: "mbox_conf_reshape"
  top: "mbox_conf_softmax"
  softmax_param {
    axis: 2
  }
}
layer {
  name: "mbox_conf_flatten"
  type: "Flatten"
  bottom: "mbox_conf_softmax"
  top: "mbox_conf_flatten"
  flatten_param {
    axis: 1
  }
}
layer {
  name: "detection_out"
  type: "DetectionOutput"
  bottom: "mbox_loc"
  bottom: "mbox_conf_flatten"
  bottom: "mbox_priorbox"
  top: "detection_out"
  include {
    phase: TEST
  }
  detection_output_param {
    num_classes: 4
    share_location: true
    background_label_id: 0
    nms_param {
      nms_threshold: 0.45
      top_k: 400
    }
    save_output_param {
      output_directory: "/home/shangzw/data/grayscale_tbs/results/tbs/SSD_300x300/Main"
      output_name_prefix: "comp4_det_test_"
      output_format: "VOC"
      label_map_file: "data/grayscale_tbs_300x300_HSIL_10x/labelmap_voc.prototxt"
      name_size_file: "data/grayscale_tbs_300x300_HSIL_10x/test_name_size"
      num_test_image: 100
    }
    code_type: CENTER_SIZE
    keep_top_k: 200
    confidence_threshold: 0.01
  }
}
layer {
  name: "detection_eval"
  type: "DetectionEvaluate"
  bottom: "detection_out"
  bottom: "label"
  top: "detection_eval"
  include {
    phase: TEST
  }
  detection_evaluate_param {
    num_classes: 4
    background_label_id: 0
    overlap_threshold: 0.5
    evaluate_difficult_gt: false
    name_size_file: "data/grayscale_tbs_300x300_HSIL_10x/test_name_size"
  }
}
I0606 16:15:27.445983  8132 layer_factory.hpp:77] Creating layer data
I0606 16:15:27.446039  8132 net.cpp:100] Creating Layer data
I0606 16:15:27.446049  8132 net.cpp:408] data -> data
I0606 16:15:27.446059  8132 net.cpp:408] data -> label
I0606 16:15:27.446552  8158 db_lmdb.cpp:35] Opened lmdb examples/grayscale_tbs_300x300_HSIL_10x/grayscale_tbs_300x300_HSIL_10x_test_lmdb
I0606 16:15:27.447938  8132 annotated_data_layer.cpp:62] output data size: 4,3,300,300
I0606 16:15:27.457582  8132 net.cpp:150] Setting up data
I0606 16:15:27.457629  8132 net.cpp:157] Top shape: 4 3 300 300 (1080000)
I0606 16:15:27.457634  8132 net.cpp:157] Top shape: 1 1 1 8 (8)
I0606 16:15:27.457638  8132 net.cpp:165] Memory required for data: 4320032
I0606 16:15:27.457643  8132 layer_factory.hpp:77] Creating layer data_data_0_split
I0606 16:15:27.457671  8132 net.cpp:100] Creating Layer data_data_0_split
I0606 16:15:27.457690  8132 net.cpp:434] data_data_0_split <- data
I0606 16:15:27.457721  8132 net.cpp:408] data_data_0_split -> data_data_0_split_0
I0606 16:15:27.457741  8132 net.cpp:408] data_data_0_split -> data_data_0_split_1
I0606 16:15:27.457758  8132 net.cpp:408] data_data_0_split -> data_data_0_split_2
I0606 16:15:27.457777  8132 net.cpp:408] data_data_0_split -> data_data_0_split_3
I0606 16:15:27.457797  8132 net.cpp:408] data_data_0_split -> data_data_0_split_4
I0606 16:15:27.457814  8132 net.cpp:408] data_data_0_split -> data_data_0_split_5
I0606 16:15:27.457830  8132 net.cpp:408] data_data_0_split -> data_data_0_split_6
I0606 16:15:27.457989  8132 net.cpp:150] Setting up data_data_0_split
I0606 16:15:27.458011  8132 net.cpp:157] Top shape: 4 3 300 300 (1080000)
I0606 16:15:27.458026  8132 net.cpp:157] Top shape: 4 3 300 300 (1080000)
I0606 16:15:27.458041  8132 net.cpp:157] Top shape: 4 3 300 300 (1080000)
I0606 16:15:27.458055  8132 net.cpp:157] Top shape: 4 3 300 300 (1080000)
I0606 16:15:27.458070  8132 net.cpp:157] Top shape: 4 3 300 300 (1080000)
I0606 16:15:27.458083  8132 net.cpp:157] Top shape: 4 3 300 300 (1080000)
I0606 16:15:27.458098  8132 net.cpp:157] Top shape: 4 3 300 300 (1080000)
I0606 16:15:27.458118  8132 net.cpp:165] Memory required for data: 34560032
I0606 16:15:27.458142  8132 layer_factory.hpp:77] Creating layer conv1_1
I0606 16:15:27.458165  8132 net.cpp:100] Creating Layer conv1_1
I0606 16:15:27.458180  8132 net.cpp:434] conv1_1 <- data_data_0_split_0
I0606 16:15:27.458196  8132 net.cpp:408] conv1_1 -> conv1_1
I0606 16:15:27.461037  8132 net.cpp:150] Setting up conv1_1
I0606 16:15:27.461050  8132 net.cpp:157] Top shape: 4 64 300 300 (23040000)
I0606 16:15:27.461052  8132 net.cpp:165] Memory required for data: 126720032
I0606 16:15:27.461061  8132 layer_factory.hpp:77] Creating layer relu1_1
I0606 16:15:27.461069  8132 net.cpp:100] Creating Layer relu1_1
I0606 16:15:27.461074  8132 net.cpp:434] relu1_1 <- conv1_1
I0606 16:15:27.461082  8132 net.cpp:395] relu1_1 -> conv1_1 (in-place)
I0606 16:15:27.461267  8132 net.cpp:150] Setting up relu1_1
I0606 16:15:27.461278  8132 net.cpp:157] Top shape: 4 64 300 300 (23040000)
I0606 16:15:27.461284  8132 net.cpp:165] Memory required for data: 218880032
I0606 16:15:27.461289  8132 layer_factory.hpp:77] Creating layer conv1_2
I0606 16:15:27.461302  8132 net.cpp:100] Creating Layer conv1_2
I0606 16:15:27.461308  8132 net.cpp:434] conv1_2 <- conv1_1
I0606 16:15:27.461316  8132 net.cpp:408] conv1_2 -> conv1_2
I0606 16:15:27.462860  8132 net.cpp:150] Setting up conv1_2
I0606 16:15:27.462872  8132 net.cpp:157] Top shape: 4 64 300 300 (23040000)
I0606 16:15:27.462875  8132 net.cpp:165] Memory required for data: 311040032
I0606 16:15:27.462885  8132 layer_factory.hpp:77] Creating layer relu1_2
I0606 16:15:27.462893  8132 net.cpp:100] Creating Layer relu1_2
I0606 16:15:27.462898  8132 net.cpp:434] relu1_2 <- conv1_2
I0606 16:15:27.462905  8132 net.cpp:395] relu1_2 -> conv1_2 (in-place)
I0606 16:15:27.463701  8132 net.cpp:150] Setting up relu1_2
I0606 16:15:27.463711  8132 net.cpp:157] Top shape: 4 64 300 300 (23040000)
I0606 16:15:27.463713  8132 net.cpp:165] Memory required for data: 403200032
I0606 16:15:27.463717  8132 layer_factory.hpp:77] Creating layer pool1
I0606 16:15:27.463742  8132 net.cpp:100] Creating Layer pool1
I0606 16:15:27.463749  8132 net.cpp:434] pool1 <- conv1_2
I0606 16:15:27.463757  8132 net.cpp:408] pool1 -> pool1
I0606 16:15:27.463814  8132 net.cpp:150] Setting up pool1
I0606 16:15:27.463824  8132 net.cpp:157] Top shape: 4 64 150 150 (5760000)
I0606 16:15:27.463829  8132 net.cpp:165] Memory required for data: 426240032
I0606 16:15:27.463834  8132 layer_factory.hpp:77] Creating layer conv2_1
I0606 16:15:27.463842  8132 net.cpp:100] Creating Layer conv2_1
I0606 16:15:27.463847  8132 net.cpp:434] conv2_1 <- pool1
I0606 16:15:27.463857  8132 net.cpp:408] conv2_1 -> conv2_1
I0606 16:15:27.465693  8132 net.cpp:150] Setting up conv2_1
I0606 16:15:27.465708  8132 net.cpp:157] Top shape: 4 128 150 150 (11520000)
I0606 16:15:27.465711  8132 net.cpp:165] Memory required for data: 472320032
I0606 16:15:27.465720  8132 layer_factory.hpp:77] Creating layer relu2_1
I0606 16:15:27.465730  8132 net.cpp:100] Creating Layer relu2_1
I0606 16:15:27.465736  8132 net.cpp:434] relu2_1 <- conv2_1
I0606 16:15:27.465744  8132 net.cpp:395] relu2_1 -> conv2_1 (in-place)
I0606 16:15:27.466544  8132 net.cpp:150] Setting up relu2_1
I0606 16:15:27.466554  8132 net.cpp:157] Top shape: 4 128 150 150 (11520000)
I0606 16:15:27.466557  8132 net.cpp:165] Memory required for data: 518400032
I0606 16:15:27.466562  8132 layer_factory.hpp:77] Creating layer conv2_2
I0606 16:15:27.466573  8132 net.cpp:100] Creating Layer conv2_2
I0606 16:15:27.466579  8132 net.cpp:434] conv2_2 <- conv2_1
I0606 16:15:27.466588  8132 net.cpp:408] conv2_2 -> conv2_2
I0606 16:15:27.469714  8132 net.cpp:150] Setting up conv2_2
I0606 16:15:27.469729  8132 net.cpp:157] Top shape: 4 128 150 150 (11520000)
I0606 16:15:27.469732  8132 net.cpp:165] Memory required for data: 564480032
I0606 16:15:27.469738  8132 layer_factory.hpp:77] Creating layer relu2_2
I0606 16:15:27.469748  8132 net.cpp:100] Creating Layer relu2_2
I0606 16:15:27.469753  8132 net.cpp:434] relu2_2 <- conv2_2
I0606 16:15:27.469758  8132 net.cpp:395] relu2_2 -> conv2_2 (in-place)
I0606 16:15:27.469969  8132 net.cpp:150] Setting up relu2_2
I0606 16:15:27.469981  8132 net.cpp:157] Top shape: 4 128 150 150 (11520000)
I0606 16:15:27.469986  8132 net.cpp:165] Memory required for data: 610560032
I0606 16:15:27.469990  8132 layer_factory.hpp:77] Creating layer pool2
I0606 16:15:27.469997  8132 net.cpp:100] Creating Layer pool2
I0606 16:15:27.470002  8132 net.cpp:434] pool2 <- conv2_2
I0606 16:15:27.470010  8132 net.cpp:408] pool2 -> pool2
I0606 16:15:27.470067  8132 net.cpp:150] Setting up pool2
I0606 16:15:27.470074  8132 net.cpp:157] Top shape: 4 128 75 75 (2880000)
I0606 16:15:27.470079  8132 net.cpp:165] Memory required for data: 622080032
I0606 16:15:27.470085  8132 layer_factory.hpp:77] Creating layer conv3_1
I0606 16:15:27.470096  8132 net.cpp:100] Creating Layer conv3_1
I0606 16:15:27.470101  8132 net.cpp:434] conv3_1 <- pool2
I0606 16:15:27.470110  8132 net.cpp:408] conv3_1 -> conv3_1
I0606 16:15:27.473292  8132 net.cpp:150] Setting up conv3_1
I0606 16:15:27.473309  8132 net.cpp:157] Top shape: 4 256 75 75 (5760000)
I0606 16:15:27.473312  8132 net.cpp:165] Memory required for data: 645120032
I0606 16:15:27.473322  8132 layer_factory.hpp:77] Creating layer relu3_1
I0606 16:15:27.473330  8132 net.cpp:100] Creating Layer relu3_1
I0606 16:15:27.473335  8132 net.cpp:434] relu3_1 <- conv3_1
I0606 16:15:27.473338  8132 net.cpp:395] relu3_1 -> conv3_1 (in-place)
I0606 16:15:27.473510  8132 net.cpp:150] Setting up relu3_1
I0606 16:15:27.473521  8132 net.cpp:157] Top shape: 4 256 75 75 (5760000)
I0606 16:15:27.473525  8132 net.cpp:165] Memory required for data: 668160032
I0606 16:15:27.473528  8132 layer_factory.hpp:77] Creating layer conv3_2
I0606 16:15:27.473539  8132 net.cpp:100] Creating Layer conv3_2
I0606 16:15:27.473544  8132 net.cpp:434] conv3_2 <- conv3_1
I0606 16:15:27.473552  8132 net.cpp:408] conv3_2 -> conv3_2
I0606 16:15:27.478759  8132 net.cpp:150] Setting up conv3_2
I0606 16:15:27.478777  8132 net.cpp:157] Top shape: 4 256 75 75 (5760000)
I0606 16:15:27.478782  8132 net.cpp:165] Memory required for data: 691200032
I0606 16:15:27.478791  8132 layer_factory.hpp:77] Creating layer relu3_2
I0606 16:15:27.478801  8132 net.cpp:100] Creating Layer relu3_2
I0606 16:15:27.478804  8132 net.cpp:434] relu3_2 <- conv3_2
I0606 16:15:27.478813  8132 net.cpp:395] relu3_2 -> conv3_2 (in-place)
I0606 16:15:27.479010  8132 net.cpp:150] Setting up relu3_2
I0606 16:15:27.479023  8132 net.cpp:157] Top shape: 4 256 75 75 (5760000)
I0606 16:15:27.479027  8132 net.cpp:165] Memory required for data: 714240032
I0606 16:15:27.479032  8132 layer_factory.hpp:77] Creating layer conv3_3
I0606 16:15:27.479048  8132 net.cpp:100] Creating Layer conv3_3
I0606 16:15:27.479053  8132 net.cpp:434] conv3_3 <- conv3_2
I0606 16:15:27.479060  8132 net.cpp:408] conv3_3 -> conv3_3
I0606 16:15:27.484307  8132 net.cpp:150] Setting up conv3_3
I0606 16:15:27.484324  8132 net.cpp:157] Top shape: 4 256 75 75 (5760000)
I0606 16:15:27.484328  8132 net.cpp:165] Memory required for data: 737280032
I0606 16:15:27.484338  8132 layer_factory.hpp:77] Creating layer relu3_3
I0606 16:15:27.484349  8132 net.cpp:100] Creating Layer relu3_3
I0606 16:15:27.484354  8132 net.cpp:434] relu3_3 <- conv3_3
I0606 16:15:27.484359  8132 net.cpp:395] relu3_3 -> conv3_3 (in-place)
I0606 16:15:27.484562  8132 net.cpp:150] Setting up relu3_3
I0606 16:15:27.484591  8132 net.cpp:157] Top shape: 4 256 75 75 (5760000)
I0606 16:15:27.484604  8132 net.cpp:165] Memory required for data: 760320032
I0606 16:15:27.484618  8132 layer_factory.hpp:77] Creating layer pool3
I0606 16:15:27.484637  8132 net.cpp:100] Creating Layer pool3
I0606 16:15:27.484652  8132 net.cpp:434] pool3 <- conv3_3
I0606 16:15:27.484668  8132 net.cpp:408] pool3 -> pool3
I0606 16:15:27.484745  8132 net.cpp:150] Setting up pool3
I0606 16:15:27.484755  8132 net.cpp:157] Top shape: 4 256 38 38 (1478656)
I0606 16:15:27.484760  8132 net.cpp:165] Memory required for data: 766234656
I0606 16:15:27.484763  8132 layer_factory.hpp:77] Creating layer conv4_1
I0606 16:15:27.484776  8132 net.cpp:100] Creating Layer conv4_1
I0606 16:15:27.484793  8132 net.cpp:434] conv4_1 <- pool3
I0606 16:15:27.484803  8132 net.cpp:408] conv4_1 -> conv4_1
I0606 16:15:27.493139  8132 net.cpp:150] Setting up conv4_1
I0606 16:15:27.493160  8132 net.cpp:157] Top shape: 4 512 38 38 (2957312)
I0606 16:15:27.493165  8132 net.cpp:165] Memory required for data: 778063904
I0606 16:15:27.493175  8132 layer_factory.hpp:77] Creating layer relu4_1
I0606 16:15:27.493183  8132 net.cpp:100] Creating Layer relu4_1
I0606 16:15:27.493188  8132 net.cpp:434] relu4_1 <- conv4_1
I0606 16:15:27.493201  8132 net.cpp:395] relu4_1 -> conv4_1 (in-place)
I0606 16:15:27.493896  8132 net.cpp:150] Setting up relu4_1
I0606 16:15:27.493909  8132 net.cpp:157] Top shape: 4 512 38 38 (2957312)
I0606 16:15:27.493913  8132 net.cpp:165] Memory required for data: 789893152
I0606 16:15:27.493918  8132 layer_factory.hpp:77] Creating layer conv4_2
I0606 16:15:27.493935  8132 net.cpp:100] Creating Layer conv4_2
I0606 16:15:27.493940  8132 net.cpp:434] conv4_2 <- conv4_1
I0606 16:15:27.493950  8132 net.cpp:408] conv4_2 -> conv4_2
I0606 16:15:27.506593  8132 net.cpp:150] Setting up conv4_2
I0606 16:15:27.506615  8132 net.cpp:157] Top shape: 4 512 38 38 (2957312)
I0606 16:15:27.506619  8132 net.cpp:165] Memory required for data: 801722400
I0606 16:15:27.506633  8132 layer_factory.hpp:77] Creating layer relu4_2
I0606 16:15:27.506644  8132 net.cpp:100] Creating Layer relu4_2
I0606 16:15:27.506652  8132 net.cpp:434] relu4_2 <- conv4_2
I0606 16:15:27.506662  8132 net.cpp:395] relu4_2 -> conv4_2 (in-place)
I0606 16:15:27.507576  8132 net.cpp:150] Setting up relu4_2
I0606 16:15:27.507594  8132 net.cpp:157] Top shape: 4 512 38 38 (2957312)
I0606 16:15:27.507598  8132 net.cpp:165] Memory required for data: 813551648
I0606 16:15:27.507603  8132 layer_factory.hpp:77] Creating layer conv4_3
I0606 16:15:27.507616  8132 net.cpp:100] Creating Layer conv4_3
I0606 16:15:27.507623  8132 net.cpp:434] conv4_3 <- conv4_2
I0606 16:15:27.507632  8132 net.cpp:408] conv4_3 -> conv4_3
I0606 16:15:27.521555  8132 net.cpp:150] Setting up conv4_3
I0606 16:15:27.521574  8132 net.cpp:157] Top shape: 4 512 38 38 (2957312)
I0606 16:15:27.521577  8132 net.cpp:165] Memory required for data: 825380896
I0606 16:15:27.521602  8132 layer_factory.hpp:77] Creating layer relu4_3
I0606 16:15:27.521626  8132 net.cpp:100] Creating Layer relu4_3
I0606 16:15:27.521632  8132 net.cpp:434] relu4_3 <- conv4_3
I0606 16:15:27.521639  8132 net.cpp:395] relu4_3 -> conv4_3 (in-place)
I0606 16:15:27.521886  8132 net.cpp:150] Setting up relu4_3
I0606 16:15:27.521926  8132 net.cpp:157] Top shape: 4 512 38 38 (2957312)
I0606 16:15:27.521955  8132 net.cpp:165] Memory required for data: 837210144
I0606 16:15:27.521968  8132 layer_factory.hpp:77] Creating layer conv4_3_relu4_3_0_split
I0606 16:15:27.521986  8132 net.cpp:100] Creating Layer conv4_3_relu4_3_0_split
I0606 16:15:27.521999  8132 net.cpp:434] conv4_3_relu4_3_0_split <- conv4_3
I0606 16:15:27.522017  8132 net.cpp:408] conv4_3_relu4_3_0_split -> conv4_3_relu4_3_0_split_0
I0606 16:15:27.522029  8132 net.cpp:408] conv4_3_relu4_3_0_split -> conv4_3_relu4_3_0_split_1
I0606 16:15:27.522115  8132 net.cpp:150] Setting up conv4_3_relu4_3_0_split
I0606 16:15:27.522125  8132 net.cpp:157] Top shape: 4 512 38 38 (2957312)
I0606 16:15:27.522131  8132 net.cpp:157] Top shape: 4 512 38 38 (2957312)
I0606 16:15:27.522135  8132 net.cpp:165] Memory required for data: 860868640
I0606 16:15:27.522140  8132 layer_factory.hpp:77] Creating layer pool4
I0606 16:15:27.522148  8132 net.cpp:100] Creating Layer pool4
I0606 16:15:27.522153  8132 net.cpp:434] pool4 <- conv4_3_relu4_3_0_split_0
I0606 16:15:27.522161  8132 net.cpp:408] pool4 -> pool4
I0606 16:15:27.522209  8132 net.cpp:150] Setting up pool4
I0606 16:15:27.522217  8132 net.cpp:157] Top shape: 4 512 19 19 (739328)
I0606 16:15:27.522222  8132 net.cpp:165] Memory required for data: 863825952
I0606 16:15:27.522225  8132 layer_factory.hpp:77] Creating layer conv5_1
I0606 16:15:27.522240  8132 net.cpp:100] Creating Layer conv5_1
I0606 16:15:27.522246  8132 net.cpp:434] conv5_1 <- pool4
I0606 16:15:27.522264  8132 net.cpp:408] conv5_1 -> conv5_1
I0606 16:15:27.537252  8132 net.cpp:150] Setting up conv5_1
I0606 16:15:27.537268  8132 net.cpp:157] Top shape: 4 512 19 19 (739328)
I0606 16:15:27.537271  8132 net.cpp:165] Memory required for data: 866783264
I0606 16:15:27.537292  8132 layer_factory.hpp:77] Creating layer relu5_1
I0606 16:15:27.537299  8132 net.cpp:100] Creating Layer relu5_1
I0606 16:15:27.537303  8132 net.cpp:434] relu5_1 <- conv5_1
I0606 16:15:27.537322  8132 net.cpp:395] relu5_1 -> conv5_1 (in-place)
I0606 16:15:27.537528  8132 net.cpp:150] Setting up relu5_1
I0606 16:15:27.537540  8132 net.cpp:157] Top shape: 4 512 19 19 (739328)
I0606 16:15:27.537544  8132 net.cpp:165] Memory required for data: 869740576
I0606 16:15:27.537564  8132 layer_factory.hpp:77] Creating layer conv5_2
I0606 16:15:27.537576  8132 net.cpp:100] Creating Layer conv5_2
I0606 16:15:27.537581  8132 net.cpp:434] conv5_2 <- conv5_1
I0606 16:15:27.537588  8132 net.cpp:408] conv5_2 -> conv5_2
I0606 16:15:27.551046  8132 net.cpp:150] Setting up conv5_2
I0606 16:15:27.551064  8132 net.cpp:157] Top shape: 4 512 19 19 (739328)
I0606 16:15:27.551066  8132 net.cpp:165] Memory required for data: 872697888
I0606 16:15:27.551072  8132 layer_factory.hpp:77] Creating layer relu5_2
I0606 16:15:27.551095  8132 net.cpp:100] Creating Layer relu5_2
I0606 16:15:27.551097  8132 net.cpp:434] relu5_2 <- conv5_2
I0606 16:15:27.551101  8132 net.cpp:395] relu5_2 -> conv5_2 (in-place)
I0606 16:15:27.551290  8132 net.cpp:150] Setting up relu5_2
I0606 16:15:27.551303  8132 net.cpp:157] Top shape: 4 512 19 19 (739328)
I0606 16:15:27.551306  8132 net.cpp:165] Memory required for data: 875655200
I0606 16:15:27.551311  8132 layer_factory.hpp:77] Creating layer conv5_3
I0606 16:15:27.551337  8132 net.cpp:100] Creating Layer conv5_3
I0606 16:15:27.551355  8132 net.cpp:434] conv5_3 <- conv5_2
I0606 16:15:27.551364  8132 net.cpp:408] conv5_3 -> conv5_3
I0606 16:15:27.564599  8132 net.cpp:150] Setting up conv5_3
I0606 16:15:27.564615  8132 net.cpp:157] Top shape: 4 512 19 19 (739328)
I0606 16:15:27.564618  8132 net.cpp:165] Memory required for data: 878612512
I0606 16:15:27.564640  8132 layer_factory.hpp:77] Creating layer relu5_3
I0606 16:15:27.564652  8132 net.cpp:100] Creating Layer relu5_3
I0606 16:15:27.564656  8132 net.cpp:434] relu5_3 <- conv5_3
I0606 16:15:27.564676  8132 net.cpp:395] relu5_3 -> conv5_3 (in-place)
I0606 16:15:27.564903  8132 net.cpp:150] Setting up relu5_3
I0606 16:15:27.564916  8132 net.cpp:157] Top shape: 4 512 19 19 (739328)
I0606 16:15:27.564920  8132 net.cpp:165] Memory required for data: 881569824
I0606 16:15:27.564925  8132 layer_factory.hpp:77] Creating layer pool5
I0606 16:15:27.564949  8132 net.cpp:100] Creating Layer pool5
I0606 16:15:27.564965  8132 net.cpp:434] pool5 <- conv5_3
I0606 16:15:27.564971  8132 net.cpp:408] pool5 -> pool5
I0606 16:15:27.565068  8132 net.cpp:150] Setting up pool5
I0606 16:15:27.565076  8132 net.cpp:157] Top shape: 4 512 19 19 (739328)
I0606 16:15:27.565080  8132 net.cpp:165] Memory required for data: 884527136
I0606 16:15:27.565083  8132 layer_factory.hpp:77] Creating layer fc6
I0606 16:15:27.565093  8132 net.cpp:100] Creating Layer fc6
I0606 16:15:27.565098  8132 net.cpp:434] fc6 <- pool5
I0606 16:15:27.565105  8132 net.cpp:408] fc6 -> fc6
I0606 16:15:27.590181  8132 net.cpp:150] Setting up fc6
I0606 16:15:27.590205  8132 net.cpp:157] Top shape: 4 1024 19 19 (1478656)
I0606 16:15:27.590224  8132 net.cpp:165] Memory required for data: 890441760
I0606 16:15:27.590231  8132 layer_factory.hpp:77] Creating layer relu6
I0606 16:15:27.590241  8132 net.cpp:100] Creating Layer relu6
I0606 16:15:27.590247  8132 net.cpp:434] relu6 <- fc6
I0606 16:15:27.590253  8132 net.cpp:395] relu6 -> fc6 (in-place)
I0606 16:15:27.591349  8132 net.cpp:150] Setting up relu6
I0606 16:15:27.591363  8132 net.cpp:157] Top shape: 4 1024 19 19 (1478656)
I0606 16:15:27.591367  8132 net.cpp:165] Memory required for data: 896356384
I0606 16:15:27.591372  8132 layer_factory.hpp:77] Creating layer fc7
I0606 16:15:27.591383  8132 net.cpp:100] Creating Layer fc7
I0606 16:15:27.591399  8132 net.cpp:434] fc7 <- fc6
I0606 16:15:27.591408  8132 net.cpp:408] fc7 -> fc7
I0606 16:15:27.598978  8132 net.cpp:150] Setting up fc7
I0606 16:15:27.598994  8132 net.cpp:157] Top shape: 4 1024 19 19 (1478656)
I0606 16:15:27.598995  8132 net.cpp:165] Memory required for data: 902271008
I0606 16:15:27.599002  8132 layer_factory.hpp:77] Creating layer relu7
I0606 16:15:27.599009  8132 net.cpp:100] Creating Layer relu7
I0606 16:15:27.599028  8132 net.cpp:434] relu7 <- fc7
I0606 16:15:27.599033  8132 net.cpp:395] relu7 -> fc7 (in-place)
I0606 16:15:27.599179  8132 net.cpp:150] Setting up relu7
I0606 16:15:27.599186  8132 net.cpp:157] Top shape: 4 1024 19 19 (1478656)
I0606 16:15:27.599189  8132 net.cpp:165] Memory required for data: 908185632
I0606 16:15:27.599190  8132 layer_factory.hpp:77] Creating layer fc7_relu7_0_split
I0606 16:15:27.599196  8132 net.cpp:100] Creating Layer fc7_relu7_0_split
I0606 16:15:27.599200  8132 net.cpp:434] fc7_relu7_0_split <- fc7
I0606 16:15:27.599203  8132 net.cpp:408] fc7_relu7_0_split -> fc7_relu7_0_split_0
I0606 16:15:27.599210  8132 net.cpp:408] fc7_relu7_0_split -> fc7_relu7_0_split_1
I0606 16:15:27.599220  8132 net.cpp:408] fc7_relu7_0_split -> fc7_relu7_0_split_2
I0606 16:15:27.599241  8132 net.cpp:408] fc7_relu7_0_split -> fc7_relu7_0_split_3
I0606 16:15:27.599313  8132 net.cpp:150] Setting up fc7_relu7_0_split
I0606 16:15:27.599316  8132 net.cpp:157] Top shape: 4 1024 19 19 (1478656)
I0606 16:15:27.599321  8132 net.cpp:157] Top shape: 4 1024 19 19 (1478656)
I0606 16:15:27.599339  8132 net.cpp:157] Top shape: 4 1024 19 19 (1478656)
I0606 16:15:27.599341  8132 net.cpp:157] Top shape: 4 1024 19 19 (1478656)
I0606 16:15:27.599344  8132 net.cpp:165] Memory required for data: 931844128
I0606 16:15:27.599360  8132 layer_factory.hpp:77] Creating layer conv6_1
I0606 16:15:27.599367  8132 net.cpp:100] Creating Layer conv6_1
I0606 16:15:27.599370  8132 net.cpp:434] conv6_1 <- fc7_relu7_0_split_0
I0606 16:15:27.599375  8132 net.cpp:408] conv6_1 -> conv6_1
I0606 16:15:27.602754  8132 net.cpp:150] Setting up conv6_1
I0606 16:15:27.602768  8132 net.cpp:157] Top shape: 4 256 19 19 (369664)
I0606 16:15:27.602771  8132 net.cpp:165] Memory required for data: 933322784
I0606 16:15:27.602777  8132 layer_factory.hpp:77] Creating layer conv6_1_relu
I0606 16:15:27.602782  8132 net.cpp:100] Creating Layer conv6_1_relu
I0606 16:15:27.602800  8132 net.cpp:434] conv6_1_relu <- conv6_1
I0606 16:15:27.602807  8132 net.cpp:395] conv6_1_relu -> conv6_1 (in-place)
I0606 16:15:27.602952  8132 net.cpp:150] Setting up conv6_1_relu
I0606 16:15:27.602959  8132 net.cpp:157] Top shape: 4 256 19 19 (369664)
I0606 16:15:27.602962  8132 net.cpp:165] Memory required for data: 934801440
I0606 16:15:27.602963  8132 layer_factory.hpp:77] Creating layer conv6_2
I0606 16:15:27.602987  8132 net.cpp:100] Creating Layer conv6_2
I0606 16:15:27.602991  8132 net.cpp:434] conv6_2 <- conv6_1
I0606 16:15:27.602996  8132 net.cpp:408] conv6_2 -> conv6_2
I0606 16:15:27.610172  8132 net.cpp:150] Setting up conv6_2
I0606 16:15:27.610185  8132 net.cpp:157] Top shape: 4 512 10 10 (204800)
I0606 16:15:27.610188  8132 net.cpp:165] Memory required for data: 935620640
I0606 16:15:27.610213  8132 layer_factory.hpp:77] Creating layer conv6_2_relu
I0606 16:15:27.610220  8132 net.cpp:100] Creating Layer conv6_2_relu
I0606 16:15:27.610224  8132 net.cpp:434] conv6_2_relu <- conv6_2
I0606 16:15:27.610229  8132 net.cpp:395] conv6_2_relu -> conv6_2 (in-place)
I0606 16:15:27.610416  8132 net.cpp:150] Setting up conv6_2_relu
I0606 16:15:27.610422  8132 net.cpp:157] Top shape: 4 512 10 10 (204800)
I0606 16:15:27.610424  8132 net.cpp:165] Memory required for data: 936439840
I0606 16:15:27.610426  8132 layer_factory.hpp:77] Creating layer conv6_2_conv6_2_relu_0_split
I0606 16:15:27.610446  8132 net.cpp:100] Creating Layer conv6_2_conv6_2_relu_0_split
I0606 16:15:27.610450  8132 net.cpp:434] conv6_2_conv6_2_relu_0_split <- conv6_2
I0606 16:15:27.610453  8132 net.cpp:408] conv6_2_conv6_2_relu_0_split -> conv6_2_conv6_2_relu_0_split_0
I0606 16:15:27.610486  8132 net.cpp:408] conv6_2_conv6_2_relu_0_split -> conv6_2_conv6_2_relu_0_split_1
I0606 16:15:27.610491  8132 net.cpp:408] conv6_2_conv6_2_relu_0_split -> conv6_2_conv6_2_relu_0_split_2
I0606 16:15:27.610496  8132 net.cpp:408] conv6_2_conv6_2_relu_0_split -> conv6_2_conv6_2_relu_0_split_3
I0606 16:15:27.610556  8132 net.cpp:150] Setting up conv6_2_conv6_2_relu_0_split
I0606 16:15:27.610563  8132 net.cpp:157] Top shape: 4 512 10 10 (204800)
I0606 16:15:27.610565  8132 net.cpp:157] Top shape: 4 512 10 10 (204800)
I0606 16:15:27.610568  8132 net.cpp:157] Top shape: 4 512 10 10 (204800)
I0606 16:15:27.610570  8132 net.cpp:157] Top shape: 4 512 10 10 (204800)
I0606 16:15:27.610572  8132 net.cpp:165] Memory required for data: 939716640
I0606 16:15:27.610574  8132 layer_factory.hpp:77] Creating layer conv7_1
I0606 16:15:27.610581  8132 net.cpp:100] Creating Layer conv7_1
I0606 16:15:27.610585  8132 net.cpp:434] conv7_1 <- conv6_2_conv6_2_relu_0_split_0
I0606 16:15:27.610590  8132 net.cpp:408] conv7_1 -> conv7_1
I0606 16:15:27.611982  8132 net.cpp:150] Setting up conv7_1
I0606 16:15:27.611992  8132 net.cpp:157] Top shape: 4 128 10 10 (51200)
I0606 16:15:27.611995  8132 net.cpp:165] Memory required for data: 939921440
I0606 16:15:27.612001  8132 layer_factory.hpp:77] Creating layer conv7_1_relu
I0606 16:15:27.612005  8132 net.cpp:100] Creating Layer conv7_1_relu
I0606 16:15:27.612009  8132 net.cpp:434] conv7_1_relu <- conv7_1
I0606 16:15:27.612012  8132 net.cpp:395] conv7_1_relu -> conv7_1 (in-place)
I0606 16:15:27.612144  8132 net.cpp:150] Setting up conv7_1_relu
I0606 16:15:27.612150  8132 net.cpp:157] Top shape: 4 128 10 10 (51200)
I0606 16:15:27.612152  8132 net.cpp:165] Memory required for data: 940126240
I0606 16:15:27.612155  8132 layer_factory.hpp:77] Creating layer conv7_2
I0606 16:15:27.612162  8132 net.cpp:100] Creating Layer conv7_2
I0606 16:15:27.612164  8132 net.cpp:434] conv7_2 <- conv7_1
I0606 16:15:27.612169  8132 net.cpp:408] conv7_2 -> conv7_2
I0606 16:15:27.615159  8132 net.cpp:150] Setting up conv7_2
I0606 16:15:27.615173  8132 net.cpp:157] Top shape: 4 256 5 5 (25600)
I0606 16:15:27.615175  8132 net.cpp:165] Memory required for data: 940228640
I0606 16:15:27.615180  8132 layer_factory.hpp:77] Creating layer conv7_2_relu
I0606 16:15:27.615186  8132 net.cpp:100] Creating Layer conv7_2_relu
I0606 16:15:27.615191  8132 net.cpp:434] conv7_2_relu <- conv7_2
I0606 16:15:27.615195  8132 net.cpp:395] conv7_2_relu -> conv7_2 (in-place)
I0606 16:15:27.615327  8132 net.cpp:150] Setting up conv7_2_relu
I0606 16:15:27.615334  8132 net.cpp:157] Top shape: 4 256 5 5 (25600)
I0606 16:15:27.615336  8132 net.cpp:165] Memory required for data: 940331040
I0606 16:15:27.615339  8132 layer_factory.hpp:77] Creating layer conv7_2_conv7_2_relu_0_split
I0606 16:15:27.615344  8132 net.cpp:100] Creating Layer conv7_2_conv7_2_relu_0_split
I0606 16:15:27.615345  8132 net.cpp:434] conv7_2_conv7_2_relu_0_split <- conv7_2
I0606 16:15:27.615351  8132 net.cpp:408] conv7_2_conv7_2_relu_0_split -> conv7_2_conv7_2_relu_0_split_0
I0606 16:15:27.615356  8132 net.cpp:408] conv7_2_conv7_2_relu_0_split -> conv7_2_conv7_2_relu_0_split_1
I0606 16:15:27.615360  8132 net.cpp:408] conv7_2_conv7_2_relu_0_split -> conv7_2_conv7_2_relu_0_split_2
I0606 16:15:27.615365  8132 net.cpp:408] conv7_2_conv7_2_relu_0_split -> conv7_2_conv7_2_relu_0_split_3
I0606 16:15:27.615428  8132 net.cpp:150] Setting up conv7_2_conv7_2_relu_0_split
I0606 16:15:27.615433  8132 net.cpp:157] Top shape: 4 256 5 5 (25600)
I0606 16:15:27.615437  8132 net.cpp:157] Top shape: 4 256 5 5 (25600)
I0606 16:15:27.615438  8132 net.cpp:157] Top shape: 4 256 5 5 (25600)
I0606 16:15:27.615442  8132 net.cpp:157] Top shape: 4 256 5 5 (25600)
I0606 16:15:27.615443  8132 net.cpp:165] Memory required for data: 940740640
I0606 16:15:27.615445  8132 layer_factory.hpp:77] Creating layer conv8_1
I0606 16:15:27.615453  8132 net.cpp:100] Creating Layer conv8_1
I0606 16:15:27.615455  8132 net.cpp:434] conv8_1 <- conv7_2_conv7_2_relu_0_split_0
I0606 16:15:27.615460  8132 net.cpp:408] conv8_1 -> conv8_1
I0606 16:15:27.616715  8132 net.cpp:150] Setting up conv8_1
I0606 16:15:27.616724  8132 net.cpp:157] Top shape: 4 128 5 5 (12800)
I0606 16:15:27.616727  8132 net.cpp:165] Memory required for data: 940791840
I0606 16:15:27.616732  8132 layer_factory.hpp:77] Creating layer conv8_1_relu
I0606 16:15:27.616736  8132 net.cpp:100] Creating Layer conv8_1_relu
I0606 16:15:27.616739  8132 net.cpp:434] conv8_1_relu <- conv8_1
I0606 16:15:27.616744  8132 net.cpp:395] conv8_1_relu -> conv8_1 (in-place)
I0606 16:15:27.617334  8132 net.cpp:150] Setting up conv8_1_relu
I0606 16:15:27.617342  8132 net.cpp:157] Top shape: 4 128 5 5 (12800)
I0606 16:15:27.617346  8132 net.cpp:165] Memory required for data: 940843040
I0606 16:15:27.617347  8132 layer_factory.hpp:77] Creating layer conv8_2
I0606 16:15:27.617354  8132 net.cpp:100] Creating Layer conv8_2
I0606 16:15:27.617358  8132 net.cpp:434] conv8_2 <- conv8_1
I0606 16:15:27.617363  8132 net.cpp:408] conv8_2 -> conv8_2
I0606 16:15:27.620405  8132 net.cpp:150] Setting up conv8_2
I0606 16:15:27.620419  8132 net.cpp:157] Top shape: 4 256 3 3 (9216)
I0606 16:15:27.620422  8132 net.cpp:165] Memory required for data: 940879904
I0606 16:15:27.620429  8132 layer_factory.hpp:77] Creating layer conv8_2_relu
I0606 16:15:27.620434  8132 net.cpp:100] Creating Layer conv8_2_relu
I0606 16:15:27.620438  8132 net.cpp:434] conv8_2_relu <- conv8_2
I0606 16:15:27.620442  8132 net.cpp:395] conv8_2_relu -> conv8_2 (in-place)
I0606 16:15:27.620810  8132 net.cpp:150] Setting up conv8_2_relu
I0606 16:15:27.620817  8132 net.cpp:157] Top shape: 4 256 3 3 (9216)
I0606 16:15:27.620820  8132 net.cpp:165] Memory required for data: 940916768
I0606 16:15:27.620822  8132 layer_factory.hpp:77] Creating layer conv8_2_conv8_2_relu_0_split
I0606 16:15:27.620827  8132 net.cpp:100] Creating Layer conv8_2_conv8_2_relu_0_split
I0606 16:15:27.620831  8132 net.cpp:434] conv8_2_conv8_2_relu_0_split <- conv8_2
I0606 16:15:27.620836  8132 net.cpp:408] conv8_2_conv8_2_relu_0_split -> conv8_2_conv8_2_relu_0_split_0
I0606 16:15:27.620841  8132 net.cpp:408] conv8_2_conv8_2_relu_0_split -> conv8_2_conv8_2_relu_0_split_1
I0606 16:15:27.620846  8132 net.cpp:408] conv8_2_conv8_2_relu_0_split -> conv8_2_conv8_2_relu_0_split_2
I0606 16:15:27.620867  8132 net.cpp:408] conv8_2_conv8_2_relu_0_split -> conv8_2_conv8_2_relu_0_split_3
I0606 16:15:27.620934  8132 net.cpp:150] Setting up conv8_2_conv8_2_relu_0_split
I0606 16:15:27.620939  8132 net.cpp:157] Top shape: 4 256 3 3 (9216)
I0606 16:15:27.620941  8132 net.cpp:157] Top shape: 4 256 3 3 (9216)
I0606 16:15:27.620944  8132 net.cpp:157] Top shape: 4 256 3 3 (9216)
I0606 16:15:27.620946  8132 net.cpp:157] Top shape: 4 256 3 3 (9216)
I0606 16:15:27.620949  8132 net.cpp:165] Memory required for data: 941064224
I0606 16:15:27.620951  8132 layer_factory.hpp:77] Creating layer conv9_1
I0606 16:15:27.620959  8132 net.cpp:100] Creating Layer conv9_1
I0606 16:15:27.620964  8132 net.cpp:434] conv9_1 <- conv8_2_conv8_2_relu_0_split_0
I0606 16:15:27.620968  8132 net.cpp:408] conv9_1 -> conv9_1
I0606 16:15:27.622321  8132 net.cpp:150] Setting up conv9_1
I0606 16:15:27.622333  8132 net.cpp:157] Top shape: 4 128 3 3 (4608)
I0606 16:15:27.622335  8132 net.cpp:165] Memory required for data: 941082656
I0606 16:15:27.622340  8132 layer_factory.hpp:77] Creating layer conv9_1_relu
I0606 16:15:27.622345  8132 net.cpp:100] Creating Layer conv9_1_relu
I0606 16:15:27.622349  8132 net.cpp:434] conv9_1_relu <- conv9_1
I0606 16:15:27.622354  8132 net.cpp:395] conv9_1_relu -> conv9_1 (in-place)
I0606 16:15:27.622489  8132 net.cpp:150] Setting up conv9_1_relu
I0606 16:15:27.622496  8132 net.cpp:157] Top shape: 4 128 3 3 (4608)
I0606 16:15:27.622498  8132 net.cpp:165] Memory required for data: 941101088
I0606 16:15:27.622501  8132 layer_factory.hpp:77] Creating layer conv9_2
I0606 16:15:27.622509  8132 net.cpp:100] Creating Layer conv9_2
I0606 16:15:27.622511  8132 net.cpp:434] conv9_2 <- conv9_1
I0606 16:15:27.622516  8132 net.cpp:408] conv9_2 -> conv9_2
I0606 16:15:27.625568  8132 net.cpp:150] Setting up conv9_2
I0606 16:15:27.625593  8132 net.cpp:157] Top shape: 4 256 1 1 (1024)
I0606 16:15:27.625596  8132 net.cpp:165] Memory required for data: 941105184
I0606 16:15:27.625602  8132 layer_factory.hpp:77] Creating layer conv9_2_relu
I0606 16:15:27.625607  8132 net.cpp:100] Creating Layer conv9_2_relu
I0606 16:15:27.625610  8132 net.cpp:434] conv9_2_relu <- conv9_2
I0606 16:15:27.625617  8132 net.cpp:395] conv9_2_relu -> conv9_2 (in-place)
I0606 16:15:27.625753  8132 net.cpp:150] Setting up conv9_2_relu
I0606 16:15:27.625759  8132 net.cpp:157] Top shape: 4 256 1 1 (1024)
I0606 16:15:27.625761  8132 net.cpp:165] Memory required for data: 941109280
I0606 16:15:27.625764  8132 layer_factory.hpp:77] Creating layer conv9_2_conv9_2_relu_0_split
I0606 16:15:27.625769  8132 net.cpp:100] Creating Layer conv9_2_conv9_2_relu_0_split
I0606 16:15:27.625772  8132 net.cpp:434] conv9_2_conv9_2_relu_0_split <- conv9_2
I0606 16:15:27.625777  8132 net.cpp:408] conv9_2_conv9_2_relu_0_split -> conv9_2_conv9_2_relu_0_split_0
I0606 16:15:27.625782  8132 net.cpp:408] conv9_2_conv9_2_relu_0_split -> conv9_2_conv9_2_relu_0_split_1
I0606 16:15:27.625788  8132 net.cpp:408] conv9_2_conv9_2_relu_0_split -> conv9_2_conv9_2_relu_0_split_2
I0606 16:15:27.625838  8132 net.cpp:150] Setting up conv9_2_conv9_2_relu_0_split
I0606 16:15:27.625843  8132 net.cpp:157] Top shape: 4 256 1 1 (1024)
I0606 16:15:27.625844  8132 net.cpp:157] Top shape: 4 256 1 1 (1024)
I0606 16:15:27.625847  8132 net.cpp:157] Top shape: 4 256 1 1 (1024)
I0606 16:15:27.625849  8132 net.cpp:165] Memory required for data: 941121568
I0606 16:15:27.625851  8132 layer_factory.hpp:77] Creating layer conv4_3_norm
I0606 16:15:27.625856  8132 net.cpp:100] Creating Layer conv4_3_norm
I0606 16:15:27.625860  8132 net.cpp:434] conv4_3_norm <- conv4_3_relu4_3_0_split_1
I0606 16:15:27.625866  8132 net.cpp:408] conv4_3_norm -> conv4_3_norm
I0606 16:15:27.626014  8132 net.cpp:150] Setting up conv4_3_norm
I0606 16:15:27.626019  8132 net.cpp:157] Top shape: 4 512 38 38 (2957312)
I0606 16:15:27.626022  8132 net.cpp:165] Memory required for data: 952950816
I0606 16:15:27.626025  8132 layer_factory.hpp:77] Creating layer conv4_3_norm_conv4_3_norm_0_split
I0606 16:15:27.626029  8132 net.cpp:100] Creating Layer conv4_3_norm_conv4_3_norm_0_split
I0606 16:15:27.626032  8132 net.cpp:434] conv4_3_norm_conv4_3_norm_0_split <- conv4_3_norm
I0606 16:15:27.626036  8132 net.cpp:408] conv4_3_norm_conv4_3_norm_0_split -> conv4_3_norm_conv4_3_norm_0_split_0
I0606 16:15:27.626040  8132 net.cpp:408] conv4_3_norm_conv4_3_norm_0_split -> conv4_3_norm_conv4_3_norm_0_split_1
I0606 16:15:27.626044  8132 net.cpp:408] conv4_3_norm_conv4_3_norm_0_split -> conv4_3_norm_conv4_3_norm_0_split_2
I0606 16:15:27.626086  8132 net.cpp:150] Setting up conv4_3_norm_conv4_3_norm_0_split
I0606 16:15:27.626091  8132 net.cpp:157] Top shape: 4 512 38 38 (2957312)
I0606 16:15:27.626093  8132 net.cpp:157] Top shape: 4 512 38 38 (2957312)
I0606 16:15:27.626096  8132 net.cpp:157] Top shape: 4 512 38 38 (2957312)
I0606 16:15:27.626098  8132 net.cpp:165] Memory required for data: 988438560
I0606 16:15:27.626101  8132 layer_factory.hpp:77] Creating layer conv4_3_norm_mbox_loc
I0606 16:15:27.626107  8132 net.cpp:100] Creating Layer conv4_3_norm_mbox_loc
I0606 16:15:27.626111  8132 net.cpp:434] conv4_3_norm_mbox_loc <- conv4_3_norm_conv4_3_norm_0_split_0
I0606 16:15:27.626116  8132 net.cpp:408] conv4_3_norm_mbox_loc -> conv4_3_norm_mbox_loc
I0606 16:15:27.628006  8132 net.cpp:150] Setting up conv4_3_norm_mbox_loc
I0606 16:15:27.628015  8132 net.cpp:157] Top shape: 4 16 38 38 (92416)
I0606 16:15:27.628018  8132 net.cpp:165] Memory required for data: 988808224
I0606 16:15:27.628022  8132 layer_factory.hpp:77] Creating layer conv4_3_norm_mbox_loc_perm
I0606 16:15:27.628028  8132 net.cpp:100] Creating Layer conv4_3_norm_mbox_loc_perm
I0606 16:15:27.628032  8132 net.cpp:434] conv4_3_norm_mbox_loc_perm <- conv4_3_norm_mbox_loc
I0606 16:15:27.628036  8132 net.cpp:408] conv4_3_norm_mbox_loc_perm -> conv4_3_norm_mbox_loc_perm
I0606 16:15:27.628135  8132 net.cpp:150] Setting up conv4_3_norm_mbox_loc_perm
I0606 16:15:27.628149  8132 net.cpp:157] Top shape: 4 38 38 16 (92416)
I0606 16:15:27.628150  8132 net.cpp:165] Memory required for data: 989177888
I0606 16:15:27.628152  8132 layer_factory.hpp:77] Creating layer conv4_3_norm_mbox_loc_flat
I0606 16:15:27.628157  8132 net.cpp:100] Creating Layer conv4_3_norm_mbox_loc_flat
I0606 16:15:27.628160  8132 net.cpp:434] conv4_3_norm_mbox_loc_flat <- conv4_3_norm_mbox_loc_perm
I0606 16:15:27.628165  8132 net.cpp:408] conv4_3_norm_mbox_loc_flat -> conv4_3_norm_mbox_loc_flat
I0606 16:15:27.628193  8132 net.cpp:150] Setting up conv4_3_norm_mbox_loc_flat
I0606 16:15:27.628198  8132 net.cpp:157] Top shape: 4 23104 (92416)
I0606 16:15:27.628201  8132 net.cpp:165] Memory required for data: 989547552
I0606 16:15:27.628203  8132 layer_factory.hpp:77] Creating layer conv4_3_norm_mbox_conf
I0606 16:15:27.628216  8132 net.cpp:100] Creating Layer conv4_3_norm_mbox_conf
I0606 16:15:27.628218  8132 net.cpp:434] conv4_3_norm_mbox_conf <- conv4_3_norm_conv4_3_norm_0_split_1
I0606 16:15:27.628223  8132 net.cpp:408] conv4_3_norm_mbox_conf -> conv4_3_norm_mbox_conf
I0606 16:15:27.630103  8132 net.cpp:150] Setting up conv4_3_norm_mbox_conf
I0606 16:15:27.630113  8132 net.cpp:157] Top shape: 4 16 38 38 (92416)
I0606 16:15:27.630116  8132 net.cpp:165] Memory required for data: 989917216
I0606 16:15:27.630121  8132 layer_factory.hpp:77] Creating layer conv4_3_norm_mbox_conf_perm
I0606 16:15:27.630127  8132 net.cpp:100] Creating Layer conv4_3_norm_mbox_conf_perm
I0606 16:15:27.630131  8132 net.cpp:434] conv4_3_norm_mbox_conf_perm <- conv4_3_norm_mbox_conf
I0606 16:15:27.630134  8132 net.cpp:408] conv4_3_norm_mbox_conf_perm -> conv4_3_norm_mbox_conf_perm
I0606 16:15:27.630235  8132 net.cpp:150] Setting up conv4_3_norm_mbox_conf_perm
I0606 16:15:27.630240  8132 net.cpp:157] Top shape: 4 38 38 16 (92416)
I0606 16:15:27.630242  8132 net.cpp:165] Memory required for data: 990286880
I0606 16:15:27.630244  8132 layer_factory.hpp:77] Creating layer conv4_3_norm_mbox_conf_flat
I0606 16:15:27.630249  8132 net.cpp:100] Creating Layer conv4_3_norm_mbox_conf_flat
I0606 16:15:27.630251  8132 net.cpp:434] conv4_3_norm_mbox_conf_flat <- conv4_3_norm_mbox_conf_perm
I0606 16:15:27.630254  8132 net.cpp:408] conv4_3_norm_mbox_conf_flat -> conv4_3_norm_mbox_conf_flat
I0606 16:15:27.630276  8132 net.cpp:150] Setting up conv4_3_norm_mbox_conf_flat
I0606 16:15:27.630281  8132 net.cpp:157] Top shape: 4 23104 (92416)
I0606 16:15:27.630283  8132 net.cpp:165] Memory required for data: 990656544
I0606 16:15:27.630285  8132 layer_factory.hpp:77] Creating layer conv4_3_norm_mbox_priorbox
I0606 16:15:27.630304  8132 net.cpp:100] Creating Layer conv4_3_norm_mbox_priorbox
I0606 16:15:27.630308  8132 net.cpp:434] conv4_3_norm_mbox_priorbox <- conv4_3_norm_conv4_3_norm_0_split_2
I0606 16:15:27.630311  8132 net.cpp:434] conv4_3_norm_mbox_priorbox <- data_data_0_split_1
I0606 16:15:27.630316  8132 net.cpp:408] conv4_3_norm_mbox_priorbox -> conv4_3_norm_mbox_priorbox
I0606 16:15:27.630339  8132 net.cpp:150] Setting up conv4_3_norm_mbox_priorbox
I0606 16:15:27.630357  8132 net.cpp:157] Top shape: 1 2 23104 (46208)
I0606 16:15:27.630360  8132 net.cpp:165] Memory required for data: 990841376
I0606 16:15:27.630362  8132 layer_factory.hpp:77] Creating layer fc7_mbox_loc
I0606 16:15:27.630369  8132 net.cpp:100] Creating Layer fc7_mbox_loc
I0606 16:15:27.630373  8132 net.cpp:434] fc7_mbox_loc <- fc7_relu7_0_split_1
I0606 16:15:27.630378  8132 net.cpp:408] fc7_mbox_loc -> fc7_mbox_loc
I0606 16:15:27.632870  8132 net.cpp:150] Setting up fc7_mbox_loc
I0606 16:15:27.632880  8132 net.cpp:157] Top shape: 4 24 19 19 (34656)
I0606 16:15:27.632884  8132 net.cpp:165] Memory required for data: 990980000
I0606 16:15:27.632889  8132 layer_factory.hpp:77] Creating layer fc7_mbox_loc_perm
I0606 16:15:27.632894  8132 net.cpp:100] Creating Layer fc7_mbox_loc_perm
I0606 16:15:27.632899  8132 net.cpp:434] fc7_mbox_loc_perm <- fc7_mbox_loc
I0606 16:15:27.632905  8132 net.cpp:408] fc7_mbox_loc_perm -> fc7_mbox_loc_perm
I0606 16:15:27.633055  8132 net.cpp:150] Setting up fc7_mbox_loc_perm
I0606 16:15:27.633061  8132 net.cpp:157] Top shape: 4 19 19 24 (34656)
I0606 16:15:27.633064  8132 net.cpp:165] Memory required for data: 991118624
I0606 16:15:27.633066  8132 layer_factory.hpp:77] Creating layer fc7_mbox_loc_flat
I0606 16:15:27.633070  8132 net.cpp:100] Creating Layer fc7_mbox_loc_flat
I0606 16:15:27.633074  8132 net.cpp:434] fc7_mbox_loc_flat <- fc7_mbox_loc_perm
I0606 16:15:27.633077  8132 net.cpp:408] fc7_mbox_loc_flat -> fc7_mbox_loc_flat
I0606 16:15:27.633100  8132 net.cpp:150] Setting up fc7_mbox_loc_flat
I0606 16:15:27.633103  8132 net.cpp:157] Top shape: 4 8664 (34656)
I0606 16:15:27.633105  8132 net.cpp:165] Memory required for data: 991257248
I0606 16:15:27.633107  8132 layer_factory.hpp:77] Creating layer fc7_mbox_conf
I0606 16:15:27.633114  8132 net.cpp:100] Creating Layer fc7_mbox_conf
I0606 16:15:27.633118  8132 net.cpp:434] fc7_mbox_conf <- fc7_relu7_0_split_2
I0606 16:15:27.633123  8132 net.cpp:408] fc7_mbox_conf -> fc7_mbox_conf
I0606 16:15:27.635937  8132 net.cpp:150] Setting up fc7_mbox_conf
I0606 16:15:27.635957  8132 net.cpp:157] Top shape: 4 24 19 19 (34656)
I0606 16:15:27.635959  8132 net.cpp:165] Memory required for data: 991395872
I0606 16:15:27.635968  8132 layer_factory.hpp:77] Creating layer fc7_mbox_conf_perm
I0606 16:15:27.635975  8132 net.cpp:100] Creating Layer fc7_mbox_conf_perm
I0606 16:15:27.635980  8132 net.cpp:434] fc7_mbox_conf_perm <- fc7_mbox_conf
I0606 16:15:27.635985  8132 net.cpp:408] fc7_mbox_conf_perm -> fc7_mbox_conf_perm
I0606 16:15:27.636103  8132 net.cpp:150] Setting up fc7_mbox_conf_perm
I0606 16:15:27.636124  8132 net.cpp:157] Top shape: 4 19 19 24 (34656)
I0606 16:15:27.636127  8132 net.cpp:165] Memory required for data: 991534496
I0606 16:15:27.636129  8132 layer_factory.hpp:77] Creating layer fc7_mbox_conf_flat
I0606 16:15:27.636148  8132 net.cpp:100] Creating Layer fc7_mbox_conf_flat
I0606 16:15:27.636150  8132 net.cpp:434] fc7_mbox_conf_flat <- fc7_mbox_conf_perm
I0606 16:15:27.636155  8132 net.cpp:408] fc7_mbox_conf_flat -> fc7_mbox_conf_flat
I0606 16:15:27.636178  8132 net.cpp:150] Setting up fc7_mbox_conf_flat
I0606 16:15:27.636183  8132 net.cpp:157] Top shape: 4 8664 (34656)
I0606 16:15:27.636184  8132 net.cpp:165] Memory required for data: 991673120
I0606 16:15:27.636199  8132 layer_factory.hpp:77] Creating layer fc7_mbox_priorbox
I0606 16:15:27.636205  8132 net.cpp:100] Creating Layer fc7_mbox_priorbox
I0606 16:15:27.636222  8132 net.cpp:434] fc7_mbox_priorbox <- fc7_relu7_0_split_3
I0606 16:15:27.636226  8132 net.cpp:434] fc7_mbox_priorbox <- data_data_0_split_2
I0606 16:15:27.636232  8132 net.cpp:408] fc7_mbox_priorbox -> fc7_mbox_priorbox
I0606 16:15:27.636272  8132 net.cpp:150] Setting up fc7_mbox_priorbox
I0606 16:15:27.636277  8132 net.cpp:157] Top shape: 1 2 8664 (17328)
I0606 16:15:27.636281  8132 net.cpp:165] Memory required for data: 991742432
I0606 16:15:27.636282  8132 layer_factory.hpp:77] Creating layer conv6_2_mbox_loc
I0606 16:15:27.636291  8132 net.cpp:100] Creating Layer conv6_2_mbox_loc
I0606 16:15:27.636296  8132 net.cpp:434] conv6_2_mbox_loc <- conv6_2_conv6_2_relu_0_split_1
I0606 16:15:27.636301  8132 net.cpp:408] conv6_2_mbox_loc -> conv6_2_mbox_loc
I0606 16:15:27.638511  8132 net.cpp:150] Setting up conv6_2_mbox_loc
I0606 16:15:27.638526  8132 net.cpp:157] Top shape: 4 24 10 10 (9600)
I0606 16:15:27.638530  8132 net.cpp:165] Memory required for data: 991780832
I0606 16:15:27.638535  8132 layer_factory.hpp:77] Creating layer conv6_2_mbox_loc_perm
I0606 16:15:27.638541  8132 net.cpp:100] Creating Layer conv6_2_mbox_loc_perm
I0606 16:15:27.638545  8132 net.cpp:434] conv6_2_mbox_loc_perm <- conv6_2_mbox_loc
I0606 16:15:27.638551  8132 net.cpp:408] conv6_2_mbox_loc_perm -> conv6_2_mbox_loc_perm
I0606 16:15:27.638660  8132 net.cpp:150] Setting up conv6_2_mbox_loc_perm
I0606 16:15:27.638666  8132 net.cpp:157] Top shape: 4 10 10 24 (9600)
I0606 16:15:27.638669  8132 net.cpp:165] Memory required for data: 991819232
I0606 16:15:27.638670  8132 layer_factory.hpp:77] Creating layer conv6_2_mbox_loc_flat
I0606 16:15:27.638684  8132 net.cpp:100] Creating Layer conv6_2_mbox_loc_flat
I0606 16:15:27.638689  8132 net.cpp:434] conv6_2_mbox_loc_flat <- conv6_2_mbox_loc_perm
I0606 16:15:27.638695  8132 net.cpp:408] conv6_2_mbox_loc_flat -> conv6_2_mbox_loc_flat
I0606 16:15:27.638716  8132 net.cpp:150] Setting up conv6_2_mbox_loc_flat
I0606 16:15:27.638721  8132 net.cpp:157] Top shape: 4 2400 (9600)
I0606 16:15:27.638723  8132 net.cpp:165] Memory required for data: 991857632
I0606 16:15:27.638725  8132 layer_factory.hpp:77] Creating layer conv6_2_mbox_conf
I0606 16:15:27.638732  8132 net.cpp:100] Creating Layer conv6_2_mbox_conf
I0606 16:15:27.638736  8132 net.cpp:434] conv6_2_mbox_conf <- conv6_2_conv6_2_relu_0_split_2
I0606 16:15:27.638742  8132 net.cpp:408] conv6_2_mbox_conf -> conv6_2_mbox_conf
I0606 16:15:27.640836  8132 net.cpp:150] Setting up conv6_2_mbox_conf
I0606 16:15:27.640846  8132 net.cpp:157] Top shape: 4 24 10 10 (9600)
I0606 16:15:27.640848  8132 net.cpp:165] Memory required for data: 991896032
I0606 16:15:27.640853  8132 layer_factory.hpp:77] Creating layer conv6_2_mbox_conf_perm
I0606 16:15:27.640858  8132 net.cpp:100] Creating Layer conv6_2_mbox_conf_perm
I0606 16:15:27.640861  8132 net.cpp:434] conv6_2_mbox_conf_perm <- conv6_2_mbox_conf
I0606 16:15:27.640866  8132 net.cpp:408] conv6_2_mbox_conf_perm -> conv6_2_mbox_conf_perm
I0606 16:15:27.640970  8132 net.cpp:150] Setting up conv6_2_mbox_conf_perm
I0606 16:15:27.640976  8132 net.cpp:157] Top shape: 4 10 10 24 (9600)
I0606 16:15:27.640978  8132 net.cpp:165] Memory required for data: 991934432
I0606 16:15:27.640980  8132 layer_factory.hpp:77] Creating layer conv6_2_mbox_conf_flat
I0606 16:15:27.640985  8132 net.cpp:100] Creating Layer conv6_2_mbox_conf_flat
I0606 16:15:27.640986  8132 net.cpp:434] conv6_2_mbox_conf_flat <- conv6_2_mbox_conf_perm
I0606 16:15:27.640990  8132 net.cpp:408] conv6_2_mbox_conf_flat -> conv6_2_mbox_conf_flat
I0606 16:15:27.641012  8132 net.cpp:150] Setting up conv6_2_mbox_conf_flat
I0606 16:15:27.641016  8132 net.cpp:157] Top shape: 4 2400 (9600)
I0606 16:15:27.641018  8132 net.cpp:165] Memory required for data: 991972832
I0606 16:15:27.641021  8132 layer_factory.hpp:77] Creating layer conv6_2_mbox_priorbox
I0606 16:15:27.641026  8132 net.cpp:100] Creating Layer conv6_2_mbox_priorbox
I0606 16:15:27.641028  8132 net.cpp:434] conv6_2_mbox_priorbox <- conv6_2_conv6_2_relu_0_split_3
I0606 16:15:27.641031  8132 net.cpp:434] conv6_2_mbox_priorbox <- data_data_0_split_3
I0606 16:15:27.641038  8132 net.cpp:408] conv6_2_mbox_priorbox -> conv6_2_mbox_priorbox
I0606 16:15:27.641060  8132 net.cpp:150] Setting up conv6_2_mbox_priorbox
I0606 16:15:27.641067  8132 net.cpp:157] Top shape: 1 2 2400 (4800)
I0606 16:15:27.641068  8132 net.cpp:165] Memory required for data: 991992032
I0606 16:15:27.641070  8132 layer_factory.hpp:77] Creating layer conv7_2_mbox_loc
I0606 16:15:27.641077  8132 net.cpp:100] Creating Layer conv7_2_mbox_loc
I0606 16:15:27.641080  8132 net.cpp:434] conv7_2_mbox_loc <- conv7_2_conv7_2_relu_0_split_1
I0606 16:15:27.641085  8132 net.cpp:408] conv7_2_mbox_loc -> conv7_2_mbox_loc
I0606 16:15:27.642434  8132 net.cpp:150] Setting up conv7_2_mbox_loc
I0606 16:15:27.642443  8132 net.cpp:157] Top shape: 4 24 5 5 (2400)
I0606 16:15:27.642446  8132 net.cpp:165] Memory required for data: 992001632
I0606 16:15:27.642452  8132 layer_factory.hpp:77] Creating layer conv7_2_mbox_loc_perm
I0606 16:15:27.642457  8132 net.cpp:100] Creating Layer conv7_2_mbox_loc_perm
I0606 16:15:27.642460  8132 net.cpp:434] conv7_2_mbox_loc_perm <- conv7_2_mbox_loc
I0606 16:15:27.642464  8132 net.cpp:408] conv7_2_mbox_loc_perm -> conv7_2_mbox_loc_perm
I0606 16:15:27.642567  8132 net.cpp:150] Setting up conv7_2_mbox_loc_perm
I0606 16:15:27.642572  8132 net.cpp:157] Top shape: 4 5 5 24 (2400)
I0606 16:15:27.642575  8132 net.cpp:165] Memory required for data: 992011232
I0606 16:15:27.642577  8132 layer_factory.hpp:77] Creating layer conv7_2_mbox_loc_flat
I0606 16:15:27.642581  8132 net.cpp:100] Creating Layer conv7_2_mbox_loc_flat
I0606 16:15:27.642591  8132 net.cpp:434] conv7_2_mbox_loc_flat <- conv7_2_mbox_loc_perm
I0606 16:15:27.642596  8132 net.cpp:408] conv7_2_mbox_loc_flat -> conv7_2_mbox_loc_flat
I0606 16:15:27.642617  8132 net.cpp:150] Setting up conv7_2_mbox_loc_flat
I0606 16:15:27.642621  8132 net.cpp:157] Top shape: 4 600 (2400)
I0606 16:15:27.642623  8132 net.cpp:165] Memory required for data: 992020832
I0606 16:15:27.642626  8132 layer_factory.hpp:77] Creating layer conv7_2_mbox_conf
I0606 16:15:27.642633  8132 net.cpp:100] Creating Layer conv7_2_mbox_conf
I0606 16:15:27.642637  8132 net.cpp:434] conv7_2_mbox_conf <- conv7_2_conv7_2_relu_0_split_2
I0606 16:15:27.642640  8132 net.cpp:408] conv7_2_mbox_conf -> conv7_2_mbox_conf
I0606 16:15:27.644438  8132 net.cpp:150] Setting up conv7_2_mbox_conf
I0606 16:15:27.644448  8132 net.cpp:157] Top shape: 4 24 5 5 (2400)
I0606 16:15:27.644450  8132 net.cpp:165] Memory required for data: 992030432
I0606 16:15:27.644454  8132 layer_factory.hpp:77] Creating layer conv7_2_mbox_conf_perm
I0606 16:15:27.644459  8132 net.cpp:100] Creating Layer conv7_2_mbox_conf_perm
I0606 16:15:27.644462  8132 net.cpp:434] conv7_2_mbox_conf_perm <- conv7_2_mbox_conf
I0606 16:15:27.644466  8132 net.cpp:408] conv7_2_mbox_conf_perm -> conv7_2_mbox_conf_perm
I0606 16:15:27.644569  8132 net.cpp:150] Setting up conv7_2_mbox_conf_perm
I0606 16:15:27.644574  8132 net.cpp:157] Top shape: 4 5 5 24 (2400)
I0606 16:15:27.644577  8132 net.cpp:165] Memory required for data: 992040032
I0606 16:15:27.644579  8132 layer_factory.hpp:77] Creating layer conv7_2_mbox_conf_flat
I0606 16:15:27.644583  8132 net.cpp:100] Creating Layer conv7_2_mbox_conf_flat
I0606 16:15:27.644585  8132 net.cpp:434] conv7_2_mbox_conf_flat <- conv7_2_mbox_conf_perm
I0606 16:15:27.644590  8132 net.cpp:408] conv7_2_mbox_conf_flat -> conv7_2_mbox_conf_flat
I0606 16:15:27.644610  8132 net.cpp:150] Setting up conv7_2_mbox_conf_flat
I0606 16:15:27.644614  8132 net.cpp:157] Top shape: 4 600 (2400)
I0606 16:15:27.644616  8132 net.cpp:165] Memory required for data: 992049632
I0606 16:15:27.644619  8132 layer_factory.hpp:77] Creating layer conv7_2_mbox_priorbox
I0606 16:15:27.644624  8132 net.cpp:100] Creating Layer conv7_2_mbox_priorbox
I0606 16:15:27.644626  8132 net.cpp:434] conv7_2_mbox_priorbox <- conv7_2_conv7_2_relu_0_split_3
I0606 16:15:27.644629  8132 net.cpp:434] conv7_2_mbox_priorbox <- data_data_0_split_4
I0606 16:15:27.644634  8132 net.cpp:408] conv7_2_mbox_priorbox -> conv7_2_mbox_priorbox
I0606 16:15:27.644656  8132 net.cpp:150] Setting up conv7_2_mbox_priorbox
I0606 16:15:27.644660  8132 net.cpp:157] Top shape: 1 2 600 (1200)
I0606 16:15:27.644662  8132 net.cpp:165] Memory required for data: 992054432
I0606 16:15:27.644665  8132 layer_factory.hpp:77] Creating layer conv8_2_mbox_loc
I0606 16:15:27.644675  8132 net.cpp:100] Creating Layer conv8_2_mbox_loc
I0606 16:15:27.644678  8132 net.cpp:434] conv8_2_mbox_loc <- conv8_2_conv8_2_relu_0_split_1
I0606 16:15:27.644682  8132 net.cpp:408] conv8_2_mbox_loc -> conv8_2_mbox_loc
I0606 16:15:27.646435  8132 net.cpp:150] Setting up conv8_2_mbox_loc
I0606 16:15:27.646445  8132 net.cpp:157] Top shape: 4 16 3 3 (576)
I0606 16:15:27.646446  8132 net.cpp:165] Memory required for data: 992056736
I0606 16:15:27.646459  8132 layer_factory.hpp:77] Creating layer conv8_2_mbox_loc_perm
I0606 16:15:27.646466  8132 net.cpp:100] Creating Layer conv8_2_mbox_loc_perm
I0606 16:15:27.646471  8132 net.cpp:434] conv8_2_mbox_loc_perm <- conv8_2_mbox_loc
I0606 16:15:27.646476  8132 net.cpp:408] conv8_2_mbox_loc_perm -> conv8_2_mbox_loc_perm
I0606 16:15:27.646592  8132 net.cpp:150] Setting up conv8_2_mbox_loc_perm
I0606 16:15:27.646597  8132 net.cpp:157] Top shape: 4 3 3 16 (576)
I0606 16:15:27.646600  8132 net.cpp:165] Memory required for data: 992059040
I0606 16:15:27.646601  8132 layer_factory.hpp:77] Creating layer conv8_2_mbox_loc_flat
I0606 16:15:27.646605  8132 net.cpp:100] Creating Layer conv8_2_mbox_loc_flat
I0606 16:15:27.646610  8132 net.cpp:434] conv8_2_mbox_loc_flat <- conv8_2_mbox_loc_perm
I0606 16:15:27.646612  8132 net.cpp:408] conv8_2_mbox_loc_flat -> conv8_2_mbox_loc_flat
I0606 16:15:27.646642  8132 net.cpp:150] Setting up conv8_2_mbox_loc_flat
I0606 16:15:27.646647  8132 net.cpp:157] Top shape: 4 144 (576)
I0606 16:15:27.646649  8132 net.cpp:165] Memory required for data: 992061344
I0606 16:15:27.646651  8132 layer_factory.hpp:77] Creating layer conv8_2_mbox_conf
I0606 16:15:27.646658  8132 net.cpp:100] Creating Layer conv8_2_mbox_conf
I0606 16:15:27.646661  8132 net.cpp:434] conv8_2_mbox_conf <- conv8_2_conv8_2_relu_0_split_2
I0606 16:15:27.646667  8132 net.cpp:408] conv8_2_mbox_conf -> conv8_2_mbox_conf
I0606 16:15:27.648397  8132 net.cpp:150] Setting up conv8_2_mbox_conf
I0606 16:15:27.648406  8132 net.cpp:157] Top shape: 4 16 3 3 (576)
I0606 16:15:27.648408  8132 net.cpp:165] Memory required for data: 992063648
I0606 16:15:27.648413  8132 layer_factory.hpp:77] Creating layer conv8_2_mbox_conf_perm
I0606 16:15:27.648418  8132 net.cpp:100] Creating Layer conv8_2_mbox_conf_perm
I0606 16:15:27.648422  8132 net.cpp:434] conv8_2_mbox_conf_perm <- conv8_2_mbox_conf
I0606 16:15:27.648427  8132 net.cpp:408] conv8_2_mbox_conf_perm -> conv8_2_mbox_conf_perm
I0606 16:15:27.648530  8132 net.cpp:150] Setting up conv8_2_mbox_conf_perm
I0606 16:15:27.648535  8132 net.cpp:157] Top shape: 4 3 3 16 (576)
I0606 16:15:27.648537  8132 net.cpp:165] Memory required for data: 992065952
I0606 16:15:27.648540  8132 layer_factory.hpp:77] Creating layer conv8_2_mbox_conf_flat
I0606 16:15:27.648543  8132 net.cpp:100] Creating Layer conv8_2_mbox_conf_flat
I0606 16:15:27.648546  8132 net.cpp:434] conv8_2_mbox_conf_flat <- conv8_2_mbox_conf_perm
I0606 16:15:27.648550  8132 net.cpp:408] conv8_2_mbox_conf_flat -> conv8_2_mbox_conf_flat
I0606 16:15:27.648571  8132 net.cpp:150] Setting up conv8_2_mbox_conf_flat
I0606 16:15:27.648576  8132 net.cpp:157] Top shape: 4 144 (576)
I0606 16:15:27.648577  8132 net.cpp:165] Memory required for data: 992068256
I0606 16:15:27.648579  8132 layer_factory.hpp:77] Creating layer conv8_2_mbox_priorbox
I0606 16:15:27.648584  8132 net.cpp:100] Creating Layer conv8_2_mbox_priorbox
I0606 16:15:27.648587  8132 net.cpp:434] conv8_2_mbox_priorbox <- conv8_2_conv8_2_relu_0_split_3
I0606 16:15:27.648591  8132 net.cpp:434] conv8_2_mbox_priorbox <- data_data_0_split_5
I0606 16:15:27.648596  8132 net.cpp:408] conv8_2_mbox_priorbox -> conv8_2_mbox_priorbox
I0606 16:15:27.648617  8132 net.cpp:150] Setting up conv8_2_mbox_priorbox
I0606 16:15:27.648622  8132 net.cpp:157] Top shape: 1 2 144 (288)
I0606 16:15:27.648624  8132 net.cpp:165] Memory required for data: 992069408
I0606 16:15:27.648627  8132 layer_factory.hpp:77] Creating layer conv9_2_mbox_loc
I0606 16:15:27.648633  8132 net.cpp:100] Creating Layer conv9_2_mbox_loc
I0606 16:15:27.648636  8132 net.cpp:434] conv9_2_mbox_loc <- conv9_2_conv9_2_relu_0_split_0
I0606 16:15:27.648640  8132 net.cpp:408] conv9_2_mbox_loc -> conv9_2_mbox_loc
I0606 16:15:27.650817  8132 net.cpp:150] Setting up conv9_2_mbox_loc
I0606 16:15:27.650826  8132 net.cpp:157] Top shape: 4 16 1 1 (64)
I0606 16:15:27.650830  8132 net.cpp:165] Memory required for data: 992069664
I0606 16:15:27.650835  8132 layer_factory.hpp:77] Creating layer conv9_2_mbox_loc_perm
I0606 16:15:27.650838  8132 net.cpp:100] Creating Layer conv9_2_mbox_loc_perm
I0606 16:15:27.650842  8132 net.cpp:434] conv9_2_mbox_loc_perm <- conv9_2_mbox_loc
I0606 16:15:27.650849  8132 net.cpp:408] conv9_2_mbox_loc_perm -> conv9_2_mbox_loc_perm
I0606 16:15:27.650954  8132 net.cpp:150] Setting up conv9_2_mbox_loc_perm
I0606 16:15:27.650957  8132 net.cpp:157] Top shape: 4 1 1 16 (64)
I0606 16:15:27.650959  8132 net.cpp:165] Memory required for data: 992069920
I0606 16:15:27.650962  8132 layer_factory.hpp:77] Creating layer conv9_2_mbox_loc_flat
I0606 16:15:27.650966  8132 net.cpp:100] Creating Layer conv9_2_mbox_loc_flat
I0606 16:15:27.650969  8132 net.cpp:434] conv9_2_mbox_loc_flat <- conv9_2_mbox_loc_perm
I0606 16:15:27.650974  8132 net.cpp:408] conv9_2_mbox_loc_flat -> conv9_2_mbox_loc_flat
I0606 16:15:27.650995  8132 net.cpp:150] Setting up conv9_2_mbox_loc_flat
I0606 16:15:27.651007  8132 net.cpp:157] Top shape: 4 16 (64)
I0606 16:15:27.651010  8132 net.cpp:165] Memory required for data: 992070176
I0606 16:15:27.651011  8132 layer_factory.hpp:77] Creating layer conv9_2_mbox_conf
I0606 16:15:27.651021  8132 net.cpp:100] Creating Layer conv9_2_mbox_conf
I0606 16:15:27.651024  8132 net.cpp:434] conv9_2_mbox_conf <- conv9_2_conv9_2_relu_0_split_1
I0606 16:15:27.651028  8132 net.cpp:408] conv9_2_mbox_conf -> conv9_2_mbox_conf
I0606 16:15:27.652772  8132 net.cpp:150] Setting up conv9_2_mbox_conf
I0606 16:15:27.652782  8132 net.cpp:157] Top shape: 4 16 1 1 (64)
I0606 16:15:27.652784  8132 net.cpp:165] Memory required for data: 992070432
I0606 16:15:27.652789  8132 layer_factory.hpp:77] Creating layer conv9_2_mbox_conf_perm
I0606 16:15:27.652794  8132 net.cpp:100] Creating Layer conv9_2_mbox_conf_perm
I0606 16:15:27.652799  8132 net.cpp:434] conv9_2_mbox_conf_perm <- conv9_2_mbox_conf
I0606 16:15:27.652804  8132 net.cpp:408] conv9_2_mbox_conf_perm -> conv9_2_mbox_conf_perm
I0606 16:15:27.652910  8132 net.cpp:150] Setting up conv9_2_mbox_conf_perm
I0606 16:15:27.652917  8132 net.cpp:157] Top shape: 4 1 1 16 (64)
I0606 16:15:27.652921  8132 net.cpp:165] Memory required for data: 992070688
I0606 16:15:27.652925  8132 layer_factory.hpp:77] Creating layer conv9_2_mbox_conf_flat
I0606 16:15:27.652930  8132 net.cpp:100] Creating Layer conv9_2_mbox_conf_flat
I0606 16:15:27.652933  8132 net.cpp:434] conv9_2_mbox_conf_flat <- conv9_2_mbox_conf_perm
I0606 16:15:27.652942  8132 net.cpp:408] conv9_2_mbox_conf_flat -> conv9_2_mbox_conf_flat
I0606 16:15:27.652974  8132 net.cpp:150] Setting up conv9_2_mbox_conf_flat
I0606 16:15:27.652981  8132 net.cpp:157] Top shape: 4 16 (64)
I0606 16:15:27.652983  8132 net.cpp:165] Memory required for data: 992070944
I0606 16:15:27.652987  8132 layer_factory.hpp:77] Creating layer conv9_2_mbox_priorbox
I0606 16:15:27.652997  8132 net.cpp:100] Creating Layer conv9_2_mbox_priorbox
I0606 16:15:27.653002  8132 net.cpp:434] conv9_2_mbox_priorbox <- conv9_2_conv9_2_relu_0_split_2
I0606 16:15:27.653007  8132 net.cpp:434] conv9_2_mbox_priorbox <- data_data_0_split_6
I0606 16:15:27.653015  8132 net.cpp:408] conv9_2_mbox_priorbox -> conv9_2_mbox_priorbox
I0606 16:15:27.653044  8132 net.cpp:150] Setting up conv9_2_mbox_priorbox
I0606 16:15:27.653050  8132 net.cpp:157] Top shape: 1 2 16 (32)
I0606 16:15:27.653054  8132 net.cpp:165] Memory required for data: 992071072
I0606 16:15:27.653059  8132 layer_factory.hpp:77] Creating layer mbox_loc
I0606 16:15:27.653066  8132 net.cpp:100] Creating Layer mbox_loc
I0606 16:15:27.653074  8132 net.cpp:434] mbox_loc <- conv4_3_norm_mbox_loc_flat
I0606 16:15:27.653079  8132 net.cpp:434] mbox_loc <- fc7_mbox_loc_flat
I0606 16:15:27.653085  8132 net.cpp:434] mbox_loc <- conv6_2_mbox_loc_flat
I0606 16:15:27.653091  8132 net.cpp:434] mbox_loc <- conv7_2_mbox_loc_flat
I0606 16:15:27.653096  8132 net.cpp:434] mbox_loc <- conv8_2_mbox_loc_flat
I0606 16:15:27.653102  8132 net.cpp:434] mbox_loc <- conv9_2_mbox_loc_flat
I0606 16:15:27.653110  8132 net.cpp:408] mbox_loc -> mbox_loc
I0606 16:15:27.653137  8132 net.cpp:150] Setting up mbox_loc
I0606 16:15:27.653143  8132 net.cpp:157] Top shape: 4 34928 (139712)
I0606 16:15:27.653147  8132 net.cpp:165] Memory required for data: 992629920
I0606 16:15:27.653152  8132 layer_factory.hpp:77] Creating layer mbox_conf
I0606 16:15:27.653159  8132 net.cpp:100] Creating Layer mbox_conf
I0606 16:15:27.653164  8132 net.cpp:434] mbox_conf <- conv4_3_norm_mbox_conf_flat
I0606 16:15:27.653169  8132 net.cpp:434] mbox_conf <- fc7_mbox_conf_flat
I0606 16:15:27.653177  8132 net.cpp:434] mbox_conf <- conv6_2_mbox_conf_flat
I0606 16:15:27.653182  8132 net.cpp:434] mbox_conf <- conv7_2_mbox_conf_flat
I0606 16:15:27.653187  8132 net.cpp:434] mbox_conf <- conv8_2_mbox_conf_flat
I0606 16:15:27.653192  8132 net.cpp:434] mbox_conf <- conv9_2_mbox_conf_flat
I0606 16:15:27.653198  8132 net.cpp:408] mbox_conf -> mbox_conf
I0606 16:15:27.653224  8132 net.cpp:150] Setting up mbox_conf
I0606 16:15:27.653229  8132 net.cpp:157] Top shape: 4 34928 (139712)
I0606 16:15:27.653241  8132 net.cpp:165] Memory required for data: 993188768
I0606 16:15:27.653246  8132 layer_factory.hpp:77] Creating layer mbox_priorbox
I0606 16:15:27.653254  8132 net.cpp:100] Creating Layer mbox_priorbox
I0606 16:15:27.653259  8132 net.cpp:434] mbox_priorbox <- conv4_3_norm_mbox_priorbox
I0606 16:15:27.653265  8132 net.cpp:434] mbox_priorbox <- fc7_mbox_priorbox
I0606 16:15:27.653271  8132 net.cpp:434] mbox_priorbox <- conv6_2_mbox_priorbox
I0606 16:15:27.653276  8132 net.cpp:434] mbox_priorbox <- conv7_2_mbox_priorbox
I0606 16:15:27.653281  8132 net.cpp:434] mbox_priorbox <- conv8_2_mbox_priorbox
I0606 16:15:27.653285  8132 net.cpp:434] mbox_priorbox <- conv9_2_mbox_priorbox
I0606 16:15:27.653293  8132 net.cpp:408] mbox_priorbox -> mbox_priorbox
I0606 16:15:27.653318  8132 net.cpp:150] Setting up mbox_priorbox
I0606 16:15:27.653324  8132 net.cpp:157] Top shape: 1 2 34928 (69856)
I0606 16:15:27.653328  8132 net.cpp:165] Memory required for data: 993468192
I0606 16:15:27.653332  8132 layer_factory.hpp:77] Creating layer mbox_conf_reshape
I0606 16:15:27.653339  8132 net.cpp:100] Creating Layer mbox_conf_reshape
I0606 16:15:27.653343  8132 net.cpp:434] mbox_conf_reshape <- mbox_conf
I0606 16:15:27.653352  8132 net.cpp:408] mbox_conf_reshape -> mbox_conf_reshape
I0606 16:15:27.653383  8132 net.cpp:150] Setting up mbox_conf_reshape
I0606 16:15:27.653390  8132 net.cpp:157] Top shape: 4 8732 4 (139712)
I0606 16:15:27.653393  8132 net.cpp:165] Memory required for data: 994027040
I0606 16:15:27.653398  8132 layer_factory.hpp:77] Creating layer mbox_conf_softmax
I0606 16:15:27.653404  8132 net.cpp:100] Creating Layer mbox_conf_softmax
I0606 16:15:27.653409  8132 net.cpp:434] mbox_conf_softmax <- mbox_conf_reshape
I0606 16:15:27.653416  8132 net.cpp:408] mbox_conf_softmax -> mbox_conf_softmax
I0606 16:15:27.653636  8132 net.cpp:150] Setting up mbox_conf_softmax
I0606 16:15:27.653646  8132 net.cpp:157] Top shape: 4 8732 4 (139712)
I0606 16:15:27.653650  8132 net.cpp:165] Memory required for data: 994585888
I0606 16:15:27.653653  8132 layer_factory.hpp:77] Creating layer mbox_conf_flatten
I0606 16:15:27.653659  8132 net.cpp:100] Creating Layer mbox_conf_flatten
I0606 16:15:27.653664  8132 net.cpp:434] mbox_conf_flatten <- mbox_conf_softmax
I0606 16:15:27.653672  8132 net.cpp:408] mbox_conf_flatten -> mbox_conf_flatten
I0606 16:15:27.653697  8132 net.cpp:150] Setting up mbox_conf_flatten
I0606 16:15:27.653705  8132 net.cpp:157] Top shape: 4 34928 (139712)
I0606 16:15:27.653709  8132 net.cpp:165] Memory required for data: 995144736
I0606 16:15:27.653714  8132 layer_factory.hpp:77] Creating layer detection_out
I0606 16:15:27.653728  8132 net.cpp:100] Creating Layer detection_out
I0606 16:15:27.653731  8132 net.cpp:434] detection_out <- mbox_loc
I0606 16:15:27.653736  8132 net.cpp:434] detection_out <- mbox_conf_flatten
I0606 16:15:27.653743  8132 net.cpp:434] detection_out <- mbox_priorbox
I0606 16:15:27.653751  8132 net.cpp:408] detection_out -> detection_out
I0606 16:15:27.654343  8132 net.cpp:150] Setting up detection_out
I0606 16:15:27.654353  8132 net.cpp:157] Top shape: 1 1 1 7 (7)
I0606 16:15:27.654357  8132 net.cpp:165] Memory required for data: 995144764
I0606 16:15:27.654361  8132 layer_factory.hpp:77] Creating layer detection_eval
I0606 16:15:27.654382  8132 net.cpp:100] Creating Layer detection_eval
I0606 16:15:27.654387  8132 net.cpp:434] detection_eval <- detection_out
I0606 16:15:27.654394  8132 net.cpp:434] detection_eval <- label
I0606 16:15:27.654402  8132 net.cpp:408] detection_eval -> detection_eval
I0606 16:15:27.654503  8132 net.cpp:150] Setting up detection_eval
I0606 16:15:27.654510  8132 net.cpp:157] Top shape: 1 1 4 5 (20)
I0606 16:15:27.654515  8132 net.cpp:165] Memory required for data: 995144844
I0606 16:15:27.654518  8132 net.cpp:228] detection_eval does not need backward computation.
I0606 16:15:27.654522  8132 net.cpp:228] detection_out does not need backward computation.
I0606 16:15:27.654527  8132 net.cpp:228] mbox_conf_flatten does not need backward computation.
I0606 16:15:27.654539  8132 net.cpp:228] mbox_conf_softmax does not need backward computation.
…
