…
        min_scale: 0.3
        max_scale: 1
        min_aspect_ratio: 0.5
        max_aspect_ratio: 2
      }
      sample_constraint {
        min_jaccard_overlap: 0.9
      }
      max_sample: 1
      max_trials: 50
    }
    batch_sampler {
      sampler {
        min_scale: 0.3
        max_scale: 1
        min_aspect_ratio: 0.5
        max_aspect_ratio: 2
      }
      sample_constraint {
        max_jaccard_overlap: 1
      }
      max_sample: 1
      max_trials: 50
    }
    label_map_file: "data/tbs_300x300_HSIL_10x/labelmap_voc.prototxt"
  }
}
layer {
  name: "conv1_1"
  type: "Convolution"
  bottom: "data"
  top: "conv1_1"
  param {
    lr_mult: 1
    decay_mult: 1
  }
  param {
    lr_mult: 2
    decay_mult: 0
  }
  convolution_param {
    num_output: 64
    pad: 1
    kernel_size: 3
    weight_filler {
      type: "xavier"
    }
    bias_filler {
      type: "constant"
      value: 0
    }
  }
}
layer {
  name: "relu1_1"
  type: "ReLU"
  bottom: "conv1_1"
  top: "conv1_1"
}
layer {
  name: "conv1_2"
  type: "Convolution"
  bottom: "conv1_1"
  top: "conv1_2"
  param {
    lr_mult: 1
    decay_mult: 1
  }
  param {
    lr_mult: 2
    decay_mult: 0
  }
  convolution_param {
    num_output: 64
    pad: 1
    kernel_size: 3
    weight_filler {
      type: "xavier"
    }
    bias_filler {
      type: "constant"
      value: 0
    }
  }
}
layer {
  name: "relu1_2"
  type: "ReLU"
  bottom: "conv1_2"
  top: "conv1_2"
}
layer {
  name: "pool1"
  type: "Pooling"
  bottom: "conv1_2"
  top: "pool1"
  pooling_param {
    pool: MAX
    kernel_size: 2
    stride: 2
  }
}
layer {
  name: "conv2_1"
  type: "Convolution"
  bottom: "pool1"
  top: "conv2_1"
  param {
    lr_mult: 1
    decay_mult: 1
  }
  param {
    lr_mult: 2
    decay_mult: 0
  }
  convolution_param {
    num_output: 128
    pad: 1
    kernel_size: 3
    weight_filler {
      type: "xavier"
    }
    bias_filler {
      type: "constant"
      value: 0
    }
  }
}
layer {
  name: "relu2_1"
  type: "ReLU"
  bottom: "conv2_1"
  top: "conv2_1"
}
layer {
  name: "conv2_2"
  type: "Convolution"
  bottom: "conv2_1"
  top: "conv2_2"
  param {
    lr_mult: 1
    decay_mult: 1
  }
  param {
    lr_mult: 2
    decay_mult: 0
  }
  convolution_param {
    num_output: 128
    pad: 1
    kernel_size: 3
    weight_filler {
      type: "xavier"
    }
    bias_filler {
      type: "constant"
      value: 0
    }
  }
}
layer {
  name: "relu2_2"
  type: "ReLU"
  bottom: "conv2_2"
  top: "conv2_2"
}
layer {
  name: "pool2"
  type: "Pooling"
  bottom: "conv2_2"
  top: "pool2"
  pooling_param {
    pool: MAX
    kernel_size: 2
    stride: 2
  }
}
layer {
  name: "conv3_1"
  type: "Convolution"
  bottom: "pool2"
  top: "conv3_1"
  param {
    lr_mult: 1
    decay_mult: 1
  }
  param {
    lr_mult: 2
    decay_mult: 0
  }
  convolution_param {
    num_output: 256
    pad: 1
    kernel_size: 3
    weight_filler {
      type: "xavier"
    }
    bias_filler {
      type: "constant"
      value: 0
    }
  }
}
layer {
  name: "relu3_1"
  type: "ReLU"
  bottom: "conv3_1"
  top: "conv3_1"
}
layer {
  name: "conv3_2"
  type: "Convolution"
  bottom: "conv3_1"
  top: "conv3_2"
  param {
    lr_mult: 1
    decay_mult: 1
  }
  param {
    lr_mult: 2
    decay_mult: 0
  }
  convolution_param {
    num_output: 256
    pad: 1
    kernel_size: 3
    weight_filler {
      type: "xavier"
    }
    bias_filler {
      type: "constant"
      value: 0
    }
  }
}
layer {
  name: "relu3_2"
  type: "ReLU"
  bottom: "conv3_2"
  top: "conv3_2"
}
layer {
  name: "conv3_3"
  type: "Convolution"
  bottom: "conv3_2"
  top: "conv3_3"
  param {
    lr_mult: 1
    decay_mult: 1
  }
  param {
    lr_mult: 2
    decay_mult: 0
  }
  convolution_param {
    num_output: 256
    pad: 1
    kernel_size: 3
    weight_filler {
      type: "xavier"
    }
    bias_filler {
      type: "constant"
      value: 0
    }
  }
}
layer {
  name: "relu3_3"
  type: "ReLU"
  bottom: "conv3_3"
  top: "conv3_3"
}
layer {
  name: "pool3"
  type: "Pooling"
  bottom: "conv3_3"
  top: "pool3"
  pooling_param {
    pool: MAX
    kernel_size: 2
    stride: 2
  }
}
layer {
  name: "conv4_1"
  type: "Convolution"
  bottom: "pool3"
  top: "conv4_1"
  param {
    lr_mult: 1
    decay_mult: 1
  }
  param {
    lr_mult: 2
    decay_mult: 0
  }
  convolution_param {
    num_output: 512
    pad: 1
    kernel_size: 3
    weight_filler {
      type: "xavier"
    }
    bias_filler {
      type: "constant"
      value: 0
    }
  }
}
layer {
  name: "relu4_1"
  type: "ReLU"
  bottom: "conv4_1"
  top: "conv4_1"
}
layer {
  name: "conv4_2"
  type: "Convolution"
  bottom: "conv4_1"
  top: "conv4_2"
  param {
    lr_mult: 1
    decay_mult: 1
  }
  param {
    lr_mult: 2
    decay_mult: 0
  }
  convolution_param {
    num_output: 512
    pad: 1
    kernel_size: 3
    weight_filler {
      type: "xavier"
    }
    bias_filler {
      type: "constant"
      value: 0
    }
  }
}
layer {
  name: "relu4_2"
  type: "ReLU"
  bottom: "conv4_2"
  top: "conv4_2"
}
layer {
  name: "conv4_3"
  type: "Convolution"
  bottom: "conv4_2"
  top: "conv4_3"
  param {
    lr_mult: 1
    decay_mult: 1
  }
  param {
    lr_mult: 2
    decay_mult: 0
  }
  convolution_param {
    num_output: 512
    pad: 1
    kernel_size: 3
    weight_filler {
      type: "xavier"
    }
    bias_filler {
      type: "constant"
      value: 0
    }
  }
}
layer {
  name: "relu4_3"
  type: "ReLU"
  bottom: "conv4_3"
  top: "conv4_3"
}
layer {
  name: "pool4"
  type: "Pooling"
  bottom: "conv4_3"
  top: "pool4"
  pooling_param {
    pool: MAX
    kernel_size: 2
    stride: 2
  }
}
layer {
  name: "conv5_1"
  type: "Convolution"
  bottom: "pool4"
  top: "conv5_1"
  param {
    lr_mult: 1
    decay_mult: 1
  }
  param {
    lr_mult: 2
    decay_mult: 0
  }
  convolution_param {
    num_output: 512
    pad: 1
    kernel_size: 3
    weight_filler {
      type: "xavier"
    }
    bias_filler {
      type: "constant"
      value: 0
    }
    dilation: 1
  }
}
layer {
  name: "relu5_1"
  type: "ReLU"
  bottom: "conv5_1"
  top: "conv5_1"
}
layer {
  name: "conv5_2"
  type: "Convolution"
  bottom: "conv5_1"
  top: "conv5_2"
  param {
    lr_mult: 1
    decay_mult: 1
  }
  param {
    lr_mult: 2
    decay_mult: 0
  }
  convolution_param {
    num_output: 512
    pad: 1
    kernel_size: 3
    weight_filler {
      type: "xavier"
    }
    bias_filler {
      type: "constant"
      value: 0
    }
    dilation: 1
  }
}
layer {
  name: "relu5_2"
  type: "ReLU"
  bottom: "conv5_2"
  top: "conv5_2"
}
layer {
  name: "conv5_3"
  type: "Convolution"
  bottom: "conv5_2"
  top: "conv5_3"
  param {
    lr_mult: 1
    decay_mult: 1
  }
  param {
    lr_mult: 2
    decay_mult: 0
  }
  convolution_param {
    num_output: 512
    pad: 1
    kernel_size: 3
    weight_filler {
      type: "xavier"
    }
    bias_filler {
      type: "constant"
      value: 0
    }
    dilation: 1
  }
}
layer {
  name: "relu5_3"
  type: "ReLU"
  bottom: "conv5_3"
  top: "conv5_3"
}
layer {
  name: "pool5"
  type: "Pooling"
  bottom: "conv5_3"
  top: "pool5"
  pooling_param {
    pool: MAX
    kernel_size: 3
    stride: 1
    pad: 1
  }
}
layer {
  name: "fc6"
  type: "Convolution"
  bottom: "pool5"
  top: "fc6"
  param {
    lr_mult: 1
    decay_mult: 1
  }
  param {
    lr_mult: 2
    decay_mult: 0
  }
  convolution_param {
    num_output: 1024
    pad: 6
    kernel_size: 3
    weight_filler {
      type: "xavier"
    }
    bias_filler {
      type: "constant"
      value: 0
    }
    dilation: 6
  }
}
layer {
  name: "relu6"
  type: "ReLU"
  bottom: "fc6"
  top: "fc6"
}
layer {
  name: "fc7"
  type: "Convolution"
  bottom: "fc6"
  top: "fc7"
  param {
    lr_mult: 1
    decay_mult: 1
  }
  param {
    lr_mult: 2
    decay_mult: 0
  }
  convolution_param {
    num_output: 1024
    kernel_size: 1
    weight_filler {
      type: "xavier"
    }
    bias_filler {
      type: "constant"
      value: 0
    }
  }
}
layer {
  name: "relu7"
  type: "ReLU"
  bottom: "fc7"
  top: "fc7"
}
layer {
  name: "conv6_1"
  type: "Convolution"
  bottom: "fc7"
  top: "conv6_1"
  param {
    lr_mult: 1
    decay_mult: 1
  }
  param {
    lr_mult: 2
    decay_mult: 0
  }
  convolution_param {
    num_output: 256
    pad: 0
    kernel_size: 1
    stride: 1
    weight_filler {
      type: "xavier"
    }
    bias_filler {
      type: "constant"
      value: 0
    }
  }
}
layer {
  name: "conv6_1_relu"
  type: "ReLU"
  bottom: "conv6_1"
  top: "conv6_1"
}
layer {
  name: "conv6_2"
  type: "Convolution"
  bottom: "conv6_1"
  top: "conv6_2"
  param {
    lr_mult: 1
    decay_mult: 1
  }
  param {
    lr_mult: 2
    decay_mult: 0
  }
  convolution_param {
    num_output: 512
    pad: 1
    kernel_size: 3
    stride: 2
    weight_filler {
      type: "xavier"
    }
    bias_filler {
      type: "constant"
      value: 0
    }
  }
}
layer {
  name: "conv6_2_relu"
  type: "ReLU"
  bottom: "conv6_2"
  top: "conv6_2"
}
layer {
  name: "conv7_1"
  type: "Convolution"
  bottom: "conv6_2"
  top: "conv7_1"
  param {
    lr_mult: 1
    decay_mult: 1
  }
  param {
    lr_mult: 2
    decay_mult: 0
  }
  convolution_param {
    num_output: 128
    pad: 0
    kernel_size: 1
    stride: 1
    weight_filler {
      type: "xavier"
    }
    bias_filler {
      type: "constant"
      value: 0
    }
  }
}
layer {
  name: "conv7_1_relu"
  type: "ReLU"
  bottom: "conv7_1"
  top: "conv7_1"
}
layer {
  name: "conv7_2"
  type: "Convolution"
  bottom: "conv7_1"
  top: "conv7_2"
  param {
    lr_mult: 1
    decay_mult: 1
  }
  param {
    lr_mult: 2
    decay_mult: 0
  }
  convolution_param {
    num_output: 256
    pad: 1
    kernel_size: 3
    stride: 2
    weight_filler {
      type: "xavier"
    }
    bias_filler {
      type: "constant"
      value: 0
    }
  }
}
layer {
  name: "conv7_2_relu"
  type: "ReLU"
  bottom: "conv7_2"
  top: "conv7_2"
}
layer {
  name: "conv8_1"
  type: "Convolution"
  bottom: "conv7_2"
  top: "conv8_1"
  param {
    lr_mult: 1
    decay_mult: 1
  }
  param {
    lr_mult: 2
    decay_mult: 0
  }
  convolution_param {
    num_output: 128
    pad: 0
    kernel_size: 1
    stride: 1
    weight_filler {
      type: "xavier"
    }
    bias_filler {
      type: "constant"
      value: 0
    }
  }
}
layer {
  name: "conv8_1_relu"
  type: "ReLU"
  bottom: "conv8_1"
  top: "conv8_1"
}
layer {
  name: "conv8_2"
  type: "Convolution"
  bottom: "conv8_1"
  top: "conv8_2"
  param {
    lr_mult: 1
    decay_mult: 1
  }
  param {
    lr_mult: 2
    decay_mult: 0
  }
  convolution_param {
    num_output: 256
    pad: 0
    kernel_size: 3
    stride: 1
    weight_filler {
      type: "xavier"
    }
    bias_filler {
      type: "constant"
      value: 0
    }
  }
}
layer {
  name: "conv8_2_relu"
  type: "ReLU"
  bottom: "conv8_2"
  top: "conv8_2"
}
layer {
  name: "conv9_1"
  type: "Convolution"
  bottom: "conv8_2"
  top: "conv9_1"
  param {
    lr_mult: 1
    decay_mult: 1
  }
  param {
    lr_mult: 2
    decay_mult: 0
  }
  convolution_param {
    num_output: 128
    pad: 0
    kernel_size: 1
    stride: 1
    weight_filler {
      type: "xavier"
    }
    bias_filler {
      type: "constant"
      value: 0
    }
  }
}
layer {
  name: "conv9_1_relu"
  type: "ReLU"
  bottom: "conv9_1"
  top: "conv9_1"
}
layer {
  name: "conv9_2"
  type: "Convolution"
  bottom: "conv9_1"
  top: "conv9_2"
  param {
    lr_mult: 1
    decay_mult: 1
  }
  param {
    lr_mult: 2
    decay_mult: 0
  }
  convolution_param {
    num_output: 256
    pad: 0
    kernel_size: 3
    stride: 1
    weight_filler {
      type: "xavier"
    }
    bias_filler {
      type: "constant"
      value: 0
    }
  }
}
layer {
  name: "conv9_2_relu"
  type: "ReLU"
  bottom: "conv9_2"
  top: "conv9_2"
}
layer {
  name: "conv4_3_norm"
  type: "Normalize"
  bottom: "conv4_3"
  top: "conv4_3_norm"
  norm_param {
    across_spatial: false
    scale_filler {
      type: "constant"
      value: 20
    }
    channel_shared: false
  }
}
layer {
  name: "conv4_3_norm_mbox_loc"
  type: "Convolution"
  bottom: "conv4_3_norm"
  top: "conv4_3_norm_mbox_loc"
  param {
    lr_mult: 1
    decay_mult: 1
  }
  param {
    lr_mult: 2
    decay_mult: 0
  }
  convolution_param {
    num_output: 16
    pad: 1
    kernel_size: 3
    stride: 1
    weight_filler {
      type: "xavier"
    }
    bias_filler {
      type: "constant"
      value: 0
    }
  }
}
layer {
  name: "conv4_3_norm_mbox_loc_perm"
  type: "Permute"
  bottom: "conv4_3_norm_mbox_loc"
  top: "conv4_3_norm_mbox_loc_perm"
  permute_param {
    order: 0
    order: 2
    order: 3
    order: 1
  }
}
layer {
  name: "conv4_3_norm_mbox_loc_flat"
  type: "Flatten"
  bottom: "conv4_3_norm_mbox_loc_perm"
  top: "conv4_3_norm_mbox_loc_flat"
  flatten_param {
    axis: 1
  }
}
layer {
  name: "conv4_3_norm_mbox_conf"
  type: "Convolution"
  bottom: "conv4_3_norm"
  top: "conv4_3_norm_mbox_conf"
  param {
    lr_mult: 1
    decay_mult: 1
  }
  param {
    lr_mult: 2
    decay_mult: 0
  }
  convolution_param {
    num_output: 16
    pad: 1
    kernel_size: 3
    stride: 1
    weight_filler {
      type: "xavier"
    }
    bias_filler {
      type: "constant"
      value: 0
    }
  }
}
layer {
  name: "conv4_3_norm_mbox_conf_perm"
  type: "Permute"
  bottom: "conv4_3_norm_mbox_conf"
  top: "conv4_3_norm_mbox_conf_perm"
  permute_param {
    order: 0
    order: 2
    order: 3
    order: 1
  }
}
layer {
  name: "conv4_3_norm_mbox_conf_flat"
  type: "Flatten"
  bottom: "conv4_3_norm_mbox_conf_perm"
  top: "conv4_3_norm_mbox_conf_flat"
  flatten_param {
    axis: 1
  }
}
layer {
  name: "conv4_3_norm_mbox_priorbox"
  type: "PriorBox"
  bottom: "conv4_3_norm"
  bottom: "data"
  top: "conv4_3_norm_mbox_priorbox"
  prior_box_param {
    min_size: 30
    max_size: 60
    aspect_ratio: 2
    flip: true
    clip: false
    variance: 0.1
    variance: 0.1
    variance: 0.2
    variance: 0.2
    step: 8
    offset: 0.5
  }
}
layer {
  name: "fc7_mbox_loc"
  type: "Convolution"
  bottom: "fc7"
  top: "fc7_mbox_loc"
  param {
    lr_mult: 1
    decay_mult: 1
  }
  param {
    lr_mult: 2
    decay_mult: 0
  }
  convolution_param {
    num_output: 24
    pad: 1
    kernel_size: 3
    stride: 1
    weight_filler {
      type: "xavier"
    }
    bias_filler {
      type: "constant"
      value: 0
    }
  }
}
layer {
  name: "fc7_mbox_loc_perm"
  type: "Permute"
  bottom: "fc7_mbox_loc"
  top: "fc7_mbox_loc_perm"
  permute_param {
    order: 0
    order: 2
    order: 3
    order: 1
  }
}
layer {
  name: "fc7_mbox_loc_flat"
  type: "Flatten"
  bottom: "fc7_mbox_loc_perm"
  top: "fc7_mbox_loc_flat"
  flatten_param {
    axis: 1
  }
}
layer {
  name: "fc7_mbox_conf"
  type: "Convolution"
  bottom: "fc7"
  top: "fc7_mbox_conf"
  param {
    lr_mult: 1
    decay_mult: 1
  }
  param {
    lr_mult: 2
    decay_mult: 0
  }
  convolution_param {
    num_output: 24
    pad: 1
    kernel_size: 3
    stride: 1
    weight_filler {
      type: "xavier"
    }
    bias_filler {
      type: "constant"
      value: 0
    }
  }
}
layer {
  name: "fc7_mbox_conf_perm"
  type: "Permute"
  bottom: "fc7_mbox_conf"
  top: "fc7_mbox_conf_perm"
  permute_param {
    order: 0
    order: 2
    order: 3
    order: 1
  }
}
layer {
  name: "fc7_mbox_conf_flat"
  type: "Flatten"
  bottom: "fc7_mbox_conf_perm"
  top: "fc7_mbox_conf_flat"
  flatten_param {
    axis: 1
  }
}
layer {
  name: "fc7_mbox_priorbox"
  type: "PriorBox"
  bottom: "fc7"
  bottom: "data"
  top: "fc7_mbox_priorbox"
  prior_box_param {
    min_size: 60
    max_size: 111
    aspect_ratio: 2
    aspect_ratio: 3
    flip: true
    clip: false
    variance: 0.1
    variance: 0.1
    variance: 0.2
    variance: 0.2
    step: 16
    offset: 0.5
  }
}
layer {
  name: "conv6_2_mbox_loc"
  type: "Convolution"
  bottom: "conv6_2"
  top: "conv6_2_mbox_loc"
  param {
    lr_mult: 1
    decay_mult: 1
  }
  param {
    lr_mult: 2
    decay_mult: 0
  }
  convolution_param {
    num_output: 24
    pad: 1
    kernel_size: 3
    stride: 1
    weight_filler {
      type: "xavier"
    }
    bias_filler {
      type: "constant"
      value: 0
    }
  }
}
layer {
  name: "conv6_2_mbox_loc_perm"
  type: "Permute"
  bottom: "conv6_2_mbox_loc"
  top: "conv6_2_mbox_loc_perm"
  permute_param {
    order: 0
    order: 2
    order: 3
    order: 1
  }
}
layer {
  name: "conv6_2_mbox_loc_flat"
  type: "Flatten"
  bottom: "conv6_2_mbox_loc_perm"
  top: "conv6_2_mbox_loc_flat"
  flatten_param {
    axis: 1
  }
}
layer {
  name: "conv6_2_mbox_conf"
  type: "Convolution"
  bottom: "conv6_2"
  top: "conv6_2_mbox_conf"
  param {
    lr_mult: 1
    decay_mult: 1
  }
  param {
    lr_mult: 2
    decay_mult: 0
  }
  convolution_param {
    num_output: 24
    pad: 1
    kernel_size: 3
    stride: 1
    weight_filler {
      type: "xavier"
    }
    bias_filler {
      type: "constant"
      value: 0
    }
  }
}
layer {
  name: "conv6_2_mbox_conf_perm"
  type: "Permute"
  bottom: "conv6_2_mbox_conf"
  top: "conv6_2_mbox_conf_perm"
  permute_param {
    order: 0
    order: 2
    order: 3
    order: 1
  }
}
layer {
  name: "conv6_2_mbox_conf_flat"
  type: "Flatten"
  bottom: "conv6_2_mbox_conf_perm"
  top: "conv6_2_mbox_conf_flat"
  flatten_param {
    axis: 1
  }
}
layer {
  name: "conv6_2_mbox_priorbox"
  type: "PriorBox"
  bottom: "conv6_2"
  bottom: "data"
  top: "conv6_2_mbox_priorbox"
  prior_box_param {
    min_size: 111
    max_size: 162
    aspect_ratio: 2
    aspect_ratio: 3
    flip: true
    clip: false
    variance: 0.1
    variance: 0.1
    variance: 0.2
    variance: 0.2
    step: 32
    offset: 0.5
  }
}
layer {
  name: "conv7_2_mbox_loc"
  type: "Convolution"
  bottom: "conv7_2"
  top: "conv7_2_mbox_loc"
  param {
    lr_mult: 1
    decay_mult: 1
  }
  param {
    lr_mult: 2
    decay_mult: 0
  }
  convolution_param {
    num_output: 24
    pad: 1
    kernel_size: 3
    stride: 1
    weight_filler {
      type: "xavier"
    }
    bias_filler {
      type: "constant"
      value: 0
    }
  }
}
layer {
  name: "conv7_2_mbox_loc_perm"
  type: "Permute"
  bottom: "conv7_2_mbox_loc"
  top: "conv7_2_mbox_loc_perm"
  permute_param {
    order: 0
    order: 2
    order: 3
    order: 1
  }
}
layer {
  name: "conv7_2_mbox_loc_flat"
  type: "Flatten"
  bottom: "conv7_2_mbox_loc_perm"
  top: "conv7_2_mbox_loc_flat"
  flatten_param {
    axis: 1
  }
}
layer {
  name: "conv7_2_mbox_conf"
  type: "Convolution"
  bottom: "conv7_2"
  top: "conv7_2_mbox_conf"
  param {
    lr_mult: 1
    decay_mult: 1
  }
  param {
    lr_mult: 2
    decay_mult: 0
  }
  convolution_param {
    num_output: 24
    pad: 1
    kernel_size: 3
    stride: 1
    weight_filler {
      type: "xavier"
    }
    bias_filler {
      type: "constant"
      value: 0
    }
  }
}
layer {
  name: "conv7_2_mbox_conf_perm"
  type: "Permute"
  bottom: "conv7_2_mbox_conf"
  top: "conv7_2_mbox_conf_perm"
  permute_param {
    order: 0
    order: 2
    order: 3
    order: 1
  }
}
layer {
  name: "conv7_2_mbox_conf_flat"
  type: "Flatten"
  bottom: "conv7_2_mbox_conf_perm"
  top: "conv7_2_mbox_conf_flat"
  flatten_param {
    axis: 1
  }
}
layer {
  name: "conv7_2_mbox_priorbox"
  type: "PriorBox"
  bottom: "conv7_2"
  bottom: "data"
  top: "conv7_2_mbox_priorbox"
  prior_box_param {
    min_size: 162
    max_size: 213
    aspect_ratio: 2
    aspect_ratio: 3
    flip: true
    clip: false
    variance: 0.1
    variance: 0.1
    variance: 0.2
    variance: 0.2
    step: 64
    offset: 0.5
  }
}
layer {
  name: "conv8_2_mbox_loc"
  type: "Convolution"
  bottom: "conv8_2"
  top: "conv8_2_mbox_loc"
  param {
    lr_mult: 1
    decay_mult: 1
  }
  param {
    lr_mult: 2
    decay_mult: 0
  }
  convolution_param {
    num_output: 16
    pad: 1
    kernel_size: 3
    stride: 1
    weight_filler {
      type: "xavier"
    }
    bias_filler {
      type: "constant"
      value: 0
    }
  }
}
layer {
  name: "conv8_2_mbox_loc_perm"
  type: "Permute"
  bottom: "conv8_2_mbox_loc"
  top: "conv8_2_mbox_loc_perm"
  permute_param {
    order: 0
    order: 2
    order: 3
    order: 1
  }
}
layer {
  name: "conv8_2_mbox_loc_flat"
  type: "Flatten"
  bottom: "conv8_2_mbox_loc_perm"
  top: "conv8_2_mbox_loc_flat"
  flatten_param {
    axis: 1
  }
}
layer {
  name: "conv8_2_mbox_conf"
  type: "Convolution"
  bottom: "conv8_2"
  top: "conv8_2_mbox_conf"
  param {
    lr_mult: 1
    decay_mult: 1
  }
  param {
    lr_mult: 2
    decay_mult: 0
  }
  convolution_param {
    num_output: 16
    pad: 1
    kernel_size: 3
    stride: 1
    weight_filler {
      type: "xavier"
    }
    bias_filler {
      type: "constant"
      value: 0
    }
  }
}
layer {
  name: "conv8_2_mbox_conf_perm"
  type: "Permute"
  bottom: "conv8_2_mbox_conf"
  top: "conv8_2_mbox_conf_perm"
  permute_param {
    order: 0
    order: 2
    order: 3
    order: 1
  }
}
layer {
  name: "conv8_2_mbox_conf_flat"
  type: "Flatten"
  bottom: "conv8_2_mbox_conf_perm"
  top: "conv8_2_mbox_conf_flat"
  flatten_param {
    axis: 1
  }
}
layer {
  name: "conv8_2_mbox_priorbox"
  type: "PriorBox"
  bottom: "conv8_2"
  bottom: "data"
  top: "conv8_2_mbox_priorbox"
  prior_box_param {
    min_size: 213
    max_size: 264
    aspect_ratio: 2
    flip: true
    clip: false
    variance: 0.1
    variance: 0.1
    variance: 0.2
    variance: 0.2
    step: 100
    offset: 0.5
  }
}
layer {
  name: "conv9_2_mbox_loc"
  type: "Convolution"
  bottom: "conv9_2"
  top: "conv9_2_mbox_loc"
  param {
    lr_mult: 1
    decay_mult: 1
  }
  param {
    lr_mult: 2
    decay_mult: 0
  }
  convolution_param {
    num_output: 16
    pad: 1
    kernel_size: 3
    stride: 1
    weight_filler {
      type: "xavier"
    }
    bias_filler {
      type: "constant"
      value: 0
    }
  }
}
layer {
  name: "conv9_2_mbox_loc_perm"
  type: "Permute"
  bottom: "conv9_2_mbox_loc"
  top: "conv9_2_mbox_loc_perm"
  permute_param {
    order: 0
    order: 2
    order: 3
    order: 1
  }
}
layer {
  name: "conv9_2_mbox_loc_flat"
  type: "Flatten"
  bottom: "conv9_2_mbox_loc_perm"
  top: "conv9_2_mbox_loc_flat"
  flatten_param {
    axis: 1
  }
}
layer {
  name: "conv9_2_mbox_conf"
  type: "Convolution"
  bottom: "conv9_2"
  top: "conv9_2_mbox_conf"
  param {
    lr_mult: 1
    decay_mult: 1
  }
  param {
    lr_mult: 2
    decay_mult: 0
  }
  convolution_param {
    num_output: 16
    pad: 1
    kernel_size: 3
    stride: 1
    weight_filler {
      type: "xavier"
    }
    bias_filler {
      type: "constant"
      value: 0
    }
  }
}
layer {
  name: "conv9_2_mbox_conf_perm"
  type: "Permute"
  bottom: "conv9_2_mbox_conf"
  top: "conv9_2_mbox_conf_perm"
  permute_param {
    order: 0
    order: 2
    order: 3
    order: 1
  }
}
layer {
  name: "conv9_2_mbox_conf_flat"
  type: "Flatten"
  bottom: "conv9_2_mbox_conf_perm"
  top: "conv9_2_mbox_conf_flat"
  flatten_param {
    axis: 1
  }
}
layer {
  name: "conv9_2_mbox_priorbox"
  type: "PriorBox"
  bottom: "conv9_2"
  bottom: "data"
  top: "conv9_2_mbox_priorbox"
  prior_box_param {
    min_size: 264
    max_size: 315
    aspect_ratio: 2
    flip: true
    clip: false
    variance: 0.1
    variance: 0.1
    variance: 0.2
    variance: 0.2
    step: 300
    offset: 0.5
  }
}
layer {
  name: "mbox_loc"
  type: "Concat"
  bottom: "conv4_3_norm_mbox_loc_flat"
  bottom: "fc7_mbox_loc_flat"
  bottom: "conv6_2_mbox_loc_flat"
  bottom: "conv7_2_mbox_loc_flat"
  bottom: "conv8_2_mbox_loc_flat"
  bottom: "conv9_2_mbox_loc_flat"
  top: "mbox_loc"
  concat_param {
    axis: 1
  }
}
layer {
  name: "mbox_conf"
  type: "Concat"
  bottom: "conv4_3_norm_mbox_conf_flat"
  bottom: "fc7_mbox_conf_flat"
  bottom: "conv6_2_mbox_conf_flat"
  bottom: "conv7_2_mbox_conf_flat"
  bottom: "conv8_2_mbox_conf_flat"
  bottom: "conv9_2_mbox_conf_flat"
  top: "mbox_conf"
  concat_param {
    axis: 1
  }
}
layer {
  name: "mbox_priorbox"
  type: "Concat"
  bottom: "conv4_3_norm_mbox_priorbox"
  bottom: "fc7_mbox_priorbox"
  bottom: "conv6_2_mbox_priorbox"
  bottom: "conv7_2_mbox_priorbox"
  bottom: "conv8_2_mbox_priorbox"
  bottom: "conv9_2_mbox_priorbox"
  top: "mbox_priorbox"
  concat_param {
    axis: 2
  }
}
layer {
  name: "mbox_loss"
  type: "MultiBoxLoss"
  bottom: "mbox_loc"
  bottom: "mbox_conf"
  bottom: "mbox_priorbox"
  bottom: "label"
  top: "mbox_loss"
  include {
    phase: TRAIN
  }
  propagate_down: true
  propagate_down: true
  propagate_down: false
  propagate_down: false
  loss_param {
    normalization: VALID
  }
  multibox_loss_param {
    loc_loss_type: SMOOTH_L1
    conf_loss_type: SOFTMAX
    loc_weight: 1
    num_classes: 4
    share_location: true
    match_type: PER_PREDICTION
    overlap_threshold: 0.5
    use_prior_for_matching: true
    background_label_id: 0
    use_difficult_gt: true
    neg_pos_ratio: 3
    neg_overlap: 0.5
    code_type: CENTER_SIZE
    ignore_cross_boundary_bbox: false
    mining_type: MAX_NEGATIVE
  }
}
I0601 17:39:03.205988  8060 layer_factory.hpp:77] Creating layer data
I0601 17:39:03.206243  8060 net.cpp:100] Creating Layer data
I0601 17:39:03.206260  8060 net.cpp:408] data -> data
I0601 17:39:03.206293  8060 net.cpp:408] data -> label
I0601 17:39:03.206670  8074 db_lmdb.cpp:35] Opened lmdb examples/tbs_300x300_HSIL_10x/tbs_300x300_HSIL_10x_trainval_lmdb
I0601 17:39:03.316359  8060 annotated_data_layer.cpp:62] output data size: 32,3,300,300
I0601 17:39:03.423092  8060 net.cpp:150] Setting up data
I0601 17:39:03.423141  8060 net.cpp:157] Top shape: 32 3 300 300 (8640000)
I0601 17:39:03.423144  8060 net.cpp:157] Top shape: 1 1 5 8 (40)
I0601 17:39:03.423163  8060 net.cpp:165] Memory required for data: 34560160
I0601 17:39:03.423203  8060 layer_factory.hpp:77] Creating layer data_data_0_split
I0601 17:39:03.423216  8060 net.cpp:100] Creating Layer data_data_0_split
I0601 17:39:03.423229  8060 net.cpp:434] data_data_0_split <- data
I0601 17:39:03.423244  8060 net.cpp:408] data_data_0_split -> data_data_0_split_0
I0601 17:39:03.423257  8060 net.cpp:408] data_data_0_split -> data_data_0_split_1
I0601 17:39:03.423265  8060 net.cpp:408] data_data_0_split -> data_data_0_split_2
I0601 17:39:03.423275  8060 net.cpp:408] data_data_0_split -> data_data_0_split_3
I0601 17:39:03.423282  8060 net.cpp:408] data_data_0_split -> data_data_0_split_4
I0601 17:39:03.423290  8060 net.cpp:408] data_data_0_split -> data_data_0_split_5
I0601 17:39:03.423297  8060 net.cpp:408] data_data_0_split -> data_data_0_split_6
I0601 17:39:03.423396  8060 net.cpp:150] Setting up data_data_0_split
I0601 17:39:03.423408  8060 net.cpp:157] Top shape: 32 3 300 300 (8640000)
I0601 17:39:03.423414  8060 net.cpp:157] Top shape: 32 3 300 300 (8640000)
I0601 17:39:03.423421  8060 net.cpp:157] Top shape: 32 3 300 300 (8640000)
I0601 17:39:03.423427  8060 net.cpp:157] Top shape: 32 3 300 300 (8640000)
I0601 17:39:03.423432  8060 net.cpp:157] Top shape: 32 3 300 300 (8640000)
I0601 17:39:03.423437  8060 net.cpp:157] Top shape: 32 3 300 300 (8640000)
I0601 17:39:03.423442  8060 net.cpp:157] Top shape: 32 3 300 300 (8640000)
I0601 17:39:03.423449  8060 net.cpp:165] Memory required for data: 276480160
I0601 17:39:03.423452  8060 layer_factory.hpp:77] Creating layer conv1_1
I0601 17:39:03.423468  8060 net.cpp:100] Creating Layer conv1_1
I0601 17:39:03.423475  8060 net.cpp:434] conv1_1 <- data_data_0_split_0
I0601 17:39:03.423483  8060 net.cpp:408] conv1_1 -> conv1_1
I0601 17:39:03.746984  8060 net.cpp:150] Setting up conv1_1
I0601 17:39:03.747004  8060 net.cpp:157] Top shape: 32 64 300 300 (184320000)
I0601 17:39:03.747009  8060 net.cpp:165] Memory required for data: 1013760160
I0601 17:39:03.747026  8060 layer_factory.hpp:77] Creating layer relu1_1
I0601 17:39:03.747037  8060 net.cpp:100] Creating Layer relu1_1
I0601 17:39:03.747061  8060 net.cpp:434] relu1_1 <- conv1_1
I0601 17:39:03.747081  8060 net.cpp:395] relu1_1 -> conv1_1 (in-place)
I0601 17:39:03.747261  8060 net.cpp:150] Setting up relu1_1
I0601 17:39:03.747269  8060 net.cpp:157] Top shape: 32 64 300 300 (184320000)
I0601 17:39:03.747273  8060 net.cpp:165] Memory required for data: 1751040160
I0601 17:39:03.747277  8060 layer_factory.hpp:77] Creating layer conv1_2
I0601 17:39:03.747292  8060 net.cpp:100] Creating Layer conv1_2
I0601 17:39:03.747297  8060 net.cpp:434] conv1_2 <- conv1_1
I0601 17:39:03.747304  8060 net.cpp:408] conv1_2 -> conv1_2
I0601 17:39:03.749249  8060 net.cpp:150] Setting up conv1_2
I0601 17:39:03.749270  8060 net.cpp:157] Top shape: 32 64 300 300 (184320000)
I0601 17:39:03.749274  8060 net.cpp:165] Memory required for data: 2488320160
I0601 17:39:03.749289  8060 layer_factory.hpp:77] Creating layer relu1_2
I0601 17:39:03.749300  8060 net.cpp:100] Creating Layer relu1_2
I0601 17:39:03.749305  8060 net.cpp:434] relu1_2 <- conv1_2
I0601 17:39:03.749311  8060 net.cpp:395] relu1_2 -> conv1_2 (in-place)
I0601 17:39:03.749786  8060 net.cpp:150] Setting up relu1_2
I0601 17:39:03.749796  8060 net.cpp:157] Top shape: 32 64 300 300 (184320000)
I0601 17:39:03.749801  8060 net.cpp:165] Memory required for data: 3225600160
I0601 17:39:03.749805  8060 layer_factory.hpp:77] Creating layer pool1
I0601 17:39:03.749812  8060 net.cpp:100] Creating Layer pool1
I0601 17:39:03.749816  8060 net.cpp:434] pool1 <- conv1_2
I0601 17:39:03.749824  8060 net.cpp:408] pool1 -> pool1
I0601 17:39:03.749873  8060 net.cpp:150] Setting up pool1
I0601 17:39:03.749881  8060 net.cpp:157] Top shape: 32 64 150 150 (46080000)
I0601 17:39:03.749884  8060 net.cpp:165] Memory required for data: 3409920160
I0601 17:39:03.749888  8060 layer_factory.hpp:77] Creating layer conv2_1
I0601 17:39:03.749899  8060 net.cpp:100] Creating Layer conv2_1
I0601 17:39:03.749929  8060 net.cpp:434] conv2_1 <- pool1
I0601 17:39:03.749948  8060 net.cpp:408] conv2_1 -> conv2_1
I0601 17:39:03.751513  8060 net.cpp:150] Setting up conv2_1
I0601 17:39:03.751540  8060 net.cpp:157] Top shape: 32 128 150 150 (92160000)
I0601 17:39:03.751544  8060 net.cpp:165] Memory required for data: 3778560160
I0601 17:39:03.751556  8060 layer_factory.hpp:77] Creating layer relu2_1
I0601 17:39:03.751566  8060 net.cpp:100] Creating Layer relu2_1
I0601 17:39:03.751571  8060 net.cpp:434] relu2_1 <- conv2_1
I0601 17:39:03.751579  8060 net.cpp:395] relu2_1 -> conv2_1 (in-place)
I0601 17:39:03.753473  8060 net.cpp:150] Setting up relu2_1
I0601 17:39:03.753485  8060 net.cpp:157] Top shape: 32 128 150 150 (92160000)
I0601 17:39:03.753490  8060 net.cpp:165] Memory required for data: 4147200160
I0601 17:39:03.753494  8060 layer_factory.hpp:77] Creating layer conv2_2
I0601 17:39:03.753506  8060 net.cpp:100] Creating Layer conv2_2
I0601 17:39:03.753511  8060 net.cpp:434] conv2_2 <- conv2_1
I0601 17:39:03.753520  8060 net.cpp:408] conv2_2 -> conv2_2
I0601 17:39:03.755630  8060 net.cpp:150] Setting up conv2_2
I0601 17:39:03.755662  8060 net.cpp:157] Top shape: 32 128 150 150 (92160000)
I0601 17:39:03.755666  8060 net.cpp:165] Memory required for data: 4515840160
I0601 17:39:03.755676  8060 layer_factory.hpp:77] Creating layer relu2_2
I0601 17:39:03.755684  8060 net.cpp:100] Creating Layer relu2_2
I0601 17:39:03.755689  8060 net.cpp:434] relu2_2 <- conv2_2
I0601 17:39:03.755697  8060 net.cpp:395] relu2_2 -> conv2_2 (in-place)
I0601 17:39:03.755856  8060 net.cpp:150] Setting up relu2_2
I0601 17:39:03.755866  8060 net.cpp:157] Top shape: 32 128 150 150 (92160000)
I0601 17:39:03.755869  8060 net.cpp:165] Memory required for data: 4884480160
I0601 17:39:03.755872  8060 layer_factory.hpp:77] Creating layer pool2
I0601 17:39:03.755882  8060 net.cpp:100] Creating Layer pool2
I0601 17:39:03.755887  8060 net.cpp:434] pool2 <- conv2_2
I0601 17:39:03.755892  8060 net.cpp:408] pool2 -> pool2
I0601 17:39:03.755939  8060 net.cpp:150] Setting up pool2
I0601 17:39:03.755946  8060 net.cpp:157] Top shape: 32 128 75 75 (23040000)
I0601 17:39:03.755950  8060 net.cpp:165] Memory required for data: 4976640160
I0601 17:39:03.755954  8060 layer_factory.hpp:77] Creating layer conv3_1
I0601 17:39:03.755966  8060 net.cpp:100] Creating Layer conv3_1
I0601 17:39:03.755982  8060 net.cpp:434] conv3_1 <- pool2
I0601 17:39:03.756003  8060 net.cpp:408] conv3_1 -> conv3_1
I0601 17:39:03.760205  8060 net.cpp:150] Setting up conv3_1
I0601 17:39:03.760226  8060 net.cpp:157] Top shape: 32 256 75 75 (46080000)
I0601 17:39:03.760231  8060 net.cpp:165] Memory required for data: 5160960160
I0601 17:39:03.760246  8060 layer_factory.hpp:77] Creating layer relu3_1
I0601 17:39:03.760257  8060 net.cpp:100] Creating Layer relu3_1
I0601 17:39:03.760262  8060 net.cpp:434] relu3_1 <- conv3_1
I0601 17:39:03.760270  8060 net.cpp:395] relu3_1 -> conv3_1 (in-place)
I0601 17:39:03.760437  8060 net.cpp:150] Setting up relu3_1
I0601 17:39:03.760444  8060 net.cpp:157] Top shape: 32 256 75 75 (46080000)
I0601 17:39:03.760448  8060 net.cpp:165] Memory required for data: 5345280160
I0601 17:39:03.760452  8060 layer_factory.hpp:77] Creating layer conv3_2
I0601 17:39:03.760464  8060 net.cpp:100] Creating Layer conv3_2
I0601 17:39:03.760468  8060 net.cpp:434] conv3_2 <- conv3_1
I0601 17:39:03.760476  8060 net.cpp:408] conv3_2 -> conv3_2
I0601 17:39:03.764837  8060 net.cpp:150] Setting up conv3_2
I0601 17:39:03.764856  8060 net.cpp:157] Top shape: 32 256 75 75 (46080000)
I0601 17:39:03.764860  8060 net.cpp:165] Memory required for data: 5529600160
I0601 17:39:03.764868  8060 layer_factory.hpp:77] Creating layer relu3_2
I0601 17:39:03.764879  8060 net.cpp:100] Creating Layer relu3_2
I0601 17:39:03.764884  8060 net.cpp:434] relu3_2 <- conv3_2
I0601 17:39:03.764890  8060 net.cpp:395] relu3_2 -> conv3_2 (in-place)
I0601 17:39:03.765040  8060 net.cpp:150] Setting up relu3_2
I0601 17:39:03.765049  8060 net.cpp:157] Top shape: 32 256 75 75 (46080000)
I0601 17:39:03.765054  8060 net.cpp:165] Memory required for data: 5713920160
I0601 17:39:03.765070  8060 layer_factory.hpp:77] Creating layer conv3_3
I0601 17:39:03.765084  8060 net.cpp:100] Creating Layer conv3_3
I0601 17:39:03.765101  8060 net.cpp:434] conv3_3 <- conv3_2
I0601 17:39:03.765121  8060 net.cpp:408] conv3_3 -> conv3_3
I0601 17:39:03.769345  8060 net.cpp:150] Setting up conv3_3
I0601 17:39:03.769361  8060 net.cpp:157] Top shape: 32 256 75 75 (46080000)
I0601 17:39:03.769366  8060 net.cpp:165] Memory required for data: 5898240160
I0601 17:39:03.769373  8060 layer_factory.hpp:77] Creating layer relu3_3
I0601 17:39:03.769382  8060 net.cpp:100] Creating Layer relu3_3
I0601 17:39:03.769387  8060 net.cpp:434] relu3_3 <- conv3_3
I0601 17:39:03.769395  8060 net.cpp:395] relu3_3 -> conv3_3 (in-place)
I0601 17:39:03.769541  8060 net.cpp:150] Setting up relu3_3
I0601 17:39:03.769551  8060 net.cpp:157] Top shape: 32 256 75 75 (46080000)
I0601 17:39:03.769553  8060 net.cpp:165] Memory required for data: 6082560160
I0601 17:39:03.769558  8060 layer_factory.hpp:77] Creating layer pool3
I0601 17:39:03.769565  8060 net.cpp:100] Creating Layer pool3
I0601 17:39:03.769570  8060 net.cpp:434] pool3 <- conv3_3
I0601 17:39:03.769577  8060 net.cpp:408] pool3 -> pool3
I0601 17:39:03.769621  8060 net.cpp:150] Setting up pool3
I0601 17:39:03.769629  8060 net.cpp:157] Top shape: 32 256 38 38 (11829248)
I0601 17:39:03.769632  8060 net.cpp:165] Memory required for data: 6129877152
I0601 17:39:03.769635  8060 layer_factory.hpp:77] Creating layer conv4_1
I0601 17:39:03.769646  8060 net.cpp:100] Creating Layer conv4_1
I0601 17:39:03.769651  8060 net.cpp:434] conv4_1 <- pool3
I0601 17:39:03.769659  8060 net.cpp:408] conv4_1 -> conv4_1
I0601 17:39:03.778863  8060 net.cpp:150] Setting up conv4_1
I0601 17:39:03.778884  8060 net.cpp:157] Top shape: 32 512 38 38 (23658496)
I0601 17:39:03.778888  8060 net.cpp:165] Memory required for data: 6224511136
I0601 17:39:03.778898  8060 layer_factory.hpp:77] Creating layer relu4_1
I0601 17:39:03.778909  8060 net.cpp:100] Creating Layer relu4_1
I0601 17:39:03.778915  8060 net.cpp:434] relu4_1 <- conv4_1
I0601 17:39:03.778923  8060 net.cpp:395] relu4_1 -> conv4_1 (in-place)
I0601 17:39:03.779561  8060 net.cpp:150] Setting up relu4_1
I0601 17:39:03.779589  8060 net.cpp:157] Top shape: 32 512 38 38 (23658496)
I0601 17:39:03.779604  8060 net.cpp:165] Memory required for data: 6319145120
I0601 17:39:03.779619  8060 layer_factory.hpp:77] Creating layer conv4_2
I0601 17:39:03.779641  8060 net.cpp:100] Creating Layer conv4_2
I0601 17:39:03.779655  8060 net.cpp:434] conv4_2 <- conv4_1
I0601 17:39:03.779675  8060 net.cpp:408] conv4_2 -> conv4_2
I0601 17:39:03.792038  8060 net.cpp:150] Setting up conv4_2
I0601 17:39:03.792064  8060 net.cpp:157] Top shape: 32 512 38 38 (23658496)
I0601 17:39:03.792068  8060 net.cpp:165] Memory required for data: 6413779104
I0601 17:39:03.792083  8060 layer_factory.hpp:77] Creating layer relu4_2
I0601 17:39:03.792093  8060 net.cpp:100] Creating Layer relu4_2
I0601 17:39:03.792098  8060 net.cpp:434] relu4_2 <- conv4_2
I0601 17:39:03.792105  8060 net.cpp:395] relu4_2 -> conv4_2 (in-place)
I0601 17:39:03.792876  8060 net.cpp:150] Setting up relu4_2
I0601 17:39:03.792889  8060 net.cpp:157] Top shape: 32 512 38 38 (23658496)
I0601 17:39:03.792893  8060 net.cpp:165] Memory required for data: 6508413088
I0601 17:39:03.792898  8060 layer_factory.hpp:77] Creating layer conv4_3
I0601 17:39:03.792909  8060 net.cpp:100] Creating Layer conv4_3
I0601 17:39:03.792915  8060 net.cpp:434] conv4_3 <- conv4_2
I0601 17:39:03.792925  8060 net.cpp:408] conv4_3 -> conv4_3
I0601 17:39:03.810307  8060 net.cpp:150] Setting up conv4_3
I0601 17:39:03.810360  8060 net.cpp:157] Top shape: 32 512 38 38 (23658496)
I0601 17:39:03.810374  8060 net.cpp:165] Memory required for data: 6603047072
I0601 17:39:03.810390  8060 layer_factory.hpp:77] Creating layer relu4_3
I0601 17:39:03.810408  8060 net.cpp:100] Creating Layer relu4_3
I0601 17:39:03.810420  8060 net.cpp:434] relu4_3 <- conv4_3
I0601 17:39:03.810434  8060 net.cpp:395] relu4_3 -> conv4_3 (in-place)
I0601 17:39:03.813092  8060 net.cpp:150] Setting up relu4_3
I0601 17:39:03.813112  8060 net.cpp:157] Top shape: 32 512 38 38 (23658496)
I0601 17:39:03.813115  8060 net.cpp:165] Memory required for data: 6697681056
I0601 17:39:03.813119  8060 layer_factory.hpp:77] Creating layer conv4_3_relu4_3_0_split
I0601 17:39:03.813128  8060 net.cpp:100] Creating Layer conv4_3_relu4_3_0_split
I0601 17:39:03.813133  8060 net.cpp:434] conv4_3_relu4_3_0_split <- conv4_3
I0601 17:39:03.813143  8060 net.cpp:408] conv4_3_relu4_3_0_split -> conv4_3_relu4_3_0_split_0
I0601 17:39:03.813153  8060 net.cpp:408] conv4_3_relu4_3_0_split -> conv4_3_relu4_3_0_split_1
I0601 17:39:03.813207  8060 net.cpp:150] Setting up conv4_3_relu4_3_0_split
I0601 17:39:03.813215  8060 net.cpp:157] Top shape: 32 512 38 38 (23658496)
I0601 17:39:03.813220  8060 net.cpp:157] Top shape: 32 512 38 38 (23658496)
I0601 17:39:03.813225  8060 net.cpp:165] Memory required for data: 6886949024
I0601 17:39:03.813227  8060 layer_factory.hpp:77] Creating layer pool4
I0601 17:39:03.813236  8060 net.cpp:100] Creating Layer pool4
I0601 17:39:03.813241  8060 net.cpp:434] pool4 <- conv4_3_relu4_3_0_split_0
I0601 17:39:03.813249  8060 net.cpp:408] pool4 -> pool4
I0601 17:39:03.813287  8060 net.cpp:150] Setting up pool4
I0601 17:39:03.813295  8060 net.cpp:157] Top shape: 32 512 19 19 (5914624)
I0601 17:39:03.813298  8060 net.cpp:165] Memory required for data: 6910607520
I0601 17:39:03.813302  8060 layer_factory.hpp:77] Creating layer conv5_1
I0601 17:39:03.813314  8060 net.cpp:100] Creating Layer conv5_1
I0601 17:39:03.813320  8060 net.cpp:434] conv5_1 <- pool4
I0601 17:39:03.813328  8060 net.cpp:408] conv5_1 -> conv5_1
I0601 17:39:03.828758  8060 net.cpp:150] Setting up conv5_1
I0601 17:39:03.828776  8060 net.cpp:157] Top shape: 32 512 19 19 (5914624)
I0601 17:39:03.828779  8060 net.cpp:165] Memory required for data: 6934266016
I0601 17:39:03.828788  8060 layer_factory.hpp:77] Creating layer relu5_1
I0601 17:39:03.828797  8060 net.cpp:100] Creating Layer relu5_1
I0601 17:39:03.828802  8060 net.cpp:434] relu5_1 <- conv5_1
I0601 17:39:03.828809  8060 net.cpp:395] relu5_1 -> conv5_1 (in-place)
I0601 17:39:03.830461  8060 net.cpp:150] Setting up relu5_1
I0601 17:39:03.830471  8060 net.cpp:157] Top shape: 32 512 19 19 (5914624)
I0601 17:39:03.830474  8060 net.cpp:165] Memory required for data: 6957924512
I0601 17:39:03.830478  8060 layer_factory.hpp:77] Creating layer conv5_2
I0601 17:39:03.830489  8060 net.cpp:100] Creating Layer conv5_2
I0601 17:39:03.830494  8060 net.cpp:434] conv5_2 <- conv5_1
I0601 17:39:03.830503  8060 net.cpp:408] conv5_2 -> conv5_2
I0601 17:39:03.845798  8060 net.cpp:150] Setting up conv5_2
I0601 17:39:03.845819  8060 net.cpp:157] Top shape: 32 512 19 19 (5914624)
I0601 17:39:03.845824  8060 net.cpp:165] Memory required for data: 6981583008
I0601 17:39:03.845831  8060 layer_factory.hpp:77] Creating layer relu5_2
I0601 17:39:03.845840  8060 net.cpp:100] Creating Layer relu5_2
I0601 17:39:03.845845  8060 net.cpp:434] relu5_2 <- conv5_2
I0601 17:39:03.845854  8060 net.cpp:395] relu5_2 -> conv5_2 (in-place)
I0601 17:39:03.848786  8060 net.cpp:150] Setting up relu5_2
I0601 17:39:03.848800  8060 net.cpp:157] Top shape: 32 512 19 19 (5914624)
I0601 17:39:03.848804  8060 net.cpp:165] Memory required for data: 7005241504
I0601 17:39:03.848809  8060 layer_factory.hpp:77] Creating layer conv5_3
I0601 17:39:03.848825  8060 net.cpp:100] Creating Layer conv5_3
I0601 17:39:03.848830  8060 net.cpp:434] conv5_3 <- conv5_2
I0601 17:39:03.848839  8060 net.cpp:408] conv5_3 -> conv5_3
I0601 17:39:03.864362  8060 net.cpp:150] Setting up conv5_3
I0601 17:39:03.864380  8060 net.cpp:157] Top shape: 32 512 19 19 (5914624)
I0601 17:39:03.864384  8060 net.cpp:165] Memory required for data: 7028900000
I0601 17:39:03.864394  8060 layer_factory.hpp:77] Creating layer relu5_3
I0601 17:39:03.864410  8060 net.cpp:100] Creating Layer relu5_3
I0601 17:39:03.864416  8060 net.cpp:434] relu5_3 <- conv5_3
I0601 17:39:03.864423  8060 net.cpp:395] relu5_3 -> conv5_3 (in-place)
I0601 17:39:03.866590  8060 net.cpp:150] Setting up relu5_3
I0601 17:39:03.866612  8060 net.cpp:157] Top shape: 32 512 19 19 (5914624)
I0601 17:39:03.866617  8060 net.cpp:165] Memory required for data: 7052558496
I0601 17:39:03.866621  8060 layer_factory.hpp:77] Creating layer pool5
I0601 17:39:03.866632  8060 net.cpp:100] Creating Layer pool5
I0601 17:39:03.866638  8060 net.cpp:434] pool5 <- conv5_3
I0601 17:39:03.866647  8060 net.cpp:408] pool5 -> pool5
I0601 17:39:03.866705  8060 net.cpp:150] Setting up pool5
I0601 17:39:03.866729  8060 net.cpp:157] Top shape: 32 512 19 19 (5914624)
I0601 17:39:03.866744  8060 net.cpp:165] Memory required for data: 7076216992
I0601 17:39:03.866757  8060 layer_factory.hpp:77] Creating layer fc6
I0601 17:39:03.866778  8060 net.cpp:100] Creating Layer fc6
I0601 17:39:03.866794  8060 net.cpp:434] fc6 <- pool5
I0601 17:39:03.866812  8060 net.cpp:408] fc6 -> fc6
I0601 17:39:03.892967  8060 net.cpp:150] Setting up fc6
I0601 17:39:03.892987  8060 net.cpp:157] Top shape: 32 1024 19 19 (11829248)
I0601 17:39:03.892990  8060 net.cpp:165] Memory required for data: 7123533984
I0601 17:39:03.893000  8060 layer_factory.hpp:77] Creating layer relu6
I0601 17:39:03.893008  8060 net.cpp:100] Creating Layer relu6
I0601 17:39:03.893013  8060 net.cpp:434] relu6 <- fc6
I0601 17:39:03.893021  8060 net.cpp:395] relu6 -> fc6 (in-place)
I0601 17:39:03.893859  8060 net.cpp:150] Setting up relu6
I0601 17:39:03.893873  8060 net.cpp:157] Top shape: 32 1024 19 19 (11829248)
I0601 17:39:03.893877  8060 net.cpp:165] Memory required for data: 7170850976
I0601 17:39:03.893882  8060 layer_factory.hpp:77] Creating layer fc7
I0601 17:39:03.893895  8060 net.cpp:100] Creating Layer fc7
I0601 17:39:03.893903  8060 net.cpp:434] fc7 <- fc6
I0601 17:39:03.893911  8060 net.cpp:408] fc7 -> fc7
I0601 17:39:03.903198  8060 net.cpp:150] Setting up fc7
I0601 17:39:03.903218  8060 net.cpp:157] Top shape: 32 1024 19 19 (11829248)
I0601 17:39:03.903223  8060 net.cpp:165] Memory required for data: 7218167968
I0601 17:39:03.903231  8060 layer_factory.hpp:77] Creating layer relu7
I0601 17:39:03.903242  8060 net.cpp:100] Creating Layer relu7
I0601 17:39:03.903262  8060 net.cpp:434] relu7 <- fc7
I0601 17:39:03.903281  8060 net.cpp:395] relu7 -> fc7 (in-place)
I0601 17:39:03.905369  8060 net.cpp:150] Setting up relu7
I0601 17:39:03.905382  8060 net.cpp:157] Top shape: 32 1024 19 19 (11829248)
I0601 17:39:03.905386  8060 net.cpp:165] Memory required for data: 7265484960
I0601 17:39:03.905391  8060 layer_factory.hpp:77] Creating layer fc7_relu7_0_split
I0601 17:39:03.905398  8060 net.cpp:100] Creating Layer fc7_relu7_0_split
I0601 17:39:03.905405  8060 net.cpp:434] fc7_relu7_0_split <- fc7
I0601 17:39:03.905412  8060 net.cpp:408] fc7_relu7_0_split -> fc7_relu7_0_split_0
I0601 17:39:03.905423  8060 net.cpp:408] fc7_relu7_0_split -> fc7_relu7_0_split_1
I0601 17:39:03.905438  8060 net.cpp:408] fc7_relu7_0_split -> fc7_relu7_0_split_2
I0601 17:39:03.905448  8060 net.cpp:408] fc7_relu7_0_split -> fc7_relu7_0_split_3
I0601 17:39:03.905530  8060 net.cpp:150] Setting up fc7_relu7_0_split
I0601 17:39:03.905541  8060 net.cpp:157] Top shape: 32 1024 19 19 (11829248)
I0601 17:39:03.905549  8060 net.cpp:157] Top shape: 32 1024 19 19 (11829248)
I0601 17:39:03.905553  8060 net.cpp:157] Top shape: 32 1024 19 19 (11829248)
I0601 17:39:03.905558  8060 net.cpp:157] Top shape: 32 1024 19 19 (11829248)
I0601 17:39:03.905562  8060 net.cpp:165] Memory required for data: 7454752928
I0601 17:39:03.905567  8060 layer_factory.hpp:77] Creating layer conv6_1
I0601 17:39:03.905580  8060 net.cpp:100] Creating Layer conv6_1
I0601 17:39:03.905585  8060 net.cpp:434] conv6_1 <- fc7_relu7_0_split_0
I0601 17:39:03.905594  8060 net.cpp:408] conv6_1 -> conv6_1
I0601 17:39:03.912683  8060 net.cpp:150] Setting up conv6_1
I0601 17:39:03.912701  8060 net.cpp:157] Top shape: 32 256 19 19 (2957312)
I0601 17:39:03.912705  8060 net.cpp:165] Memory required for data: 7466582176
I0601 17:39:03.912714  8060 layer_factory.hpp:77] Creating layer conv6_1_relu
I0601 17:39:03.912724  8060 net.cpp:100] Creating Layer conv6_1_relu
I0601 17:39:03.912750  8060 net.cpp:434] conv6_1_relu <- conv6_1
I0601 17:39:03.912766  8060 net.cpp:395] conv6_1_relu -> conv6_1 (in-place)
I0601 17:39:03.914518  8060 net.cpp:150] Setting up conv6_1_relu
I0601 17:39:03.914532  8060 net.cpp:157] Top shape: 32 256 19 19 (2957312)
I0601 17:39:03.914536  8060 net.cpp:165] Memory required for data: 7478411424
I0601 17:39:03.914541  8060 layer_factory.hpp:77] Creating layer conv6_2
I0601 17:39:03.914554  8060 net.cpp:100] Creating Layer conv6_2
I0601 17:39:03.914561  8060 net.cpp:434] conv6_2 <- conv6_1
I0601 17:39:03.914571  8060 net.cpp:408] conv6_2 -> conv6_2
I0601 17:39:03.926954  8060 net.cpp:150] Setting up conv6_2
I0601 17:39:03.926976  8060 net.cpp:157] Top shape: 32 512 10 10 (1638400)
I0601 17:39:03.926980  8060 net.cpp:165] Memory required for data: 7484965024
I0601 17:39:03.926996  8060 layer_factory.hpp:77] Creating layer conv6_2_relu
I0601 17:39:03.927008  8060 net.cpp:100] Creating Layer conv6_2_relu
I0601 17:39:03.927014  8060 net.cpp:434] conv6_2_relu <- conv6_2
I0601 17:39:03.927021  8060 net.cpp:395] conv6_2_relu -> conv6_2 (in-place)
I0601 17:39:03.929134  8060 net.cpp:150] Setting up conv6_2_relu
I0601 17:39:03.929146  8060 net.cpp:157] Top shape: 32 512 10 10 (1638400)
I0601 17:39:03.929149  8060 net.cpp:165] Memory required for data: 7491518624
I0601 17:39:03.929154  8060 layer_factory.hpp:77] Creating layer conv6_2_conv6_2_relu_0_split
I0601 17:39:03.929162  8060 net.cpp:100] Creating Layer conv6_2_conv6_2_relu_0_split
I0601 17:39:03.929167  8060 net.cpp:434] conv6_2_conv6_2_relu_0_split <- conv6_2
I0601 17:39:03.929177  8060 net.cpp:408] conv6_2_conv6_2_relu_0_split -> conv6_2_conv6_2_relu_0_split_0
I0601 17:39:03.929185  8060 net.cpp:408] conv6_2_conv6_2_relu_0_split -> conv6_2_conv6_2_relu_0_split_1
I0601 17:39:03.929208  8060 net.cpp:408] conv6_2_conv6_2_relu_0_split -> conv6_2_conv6_2_relu_0_split_2
I0601 17:39:03.929219  8060 net.cpp:408] conv6_2_conv6_2_relu_0_split -> conv6_2_conv6_2_relu_0_split_3
I0601 17:39:03.929291  8060 net.cpp:150] Setting up conv6_2_conv6_2_relu_0_split
I0601 17:39:03.929299  8060 net.cpp:157] Top shape: 32 512 10 10 (1638400)
I0601 17:39:03.929304  8060 net.cpp:157] Top shape: 32 512 10 10 (1638400)
I0601 17:39:03.929309  8060 net.cpp:157] Top shape: 32 512 10 10 (1638400)
I0601 17:39:03.929313  8060 net.cpp:157] Top shape: 32 512 10 10 (1638400)
I0601 17:39:03.929318  8060 net.cpp:165] Memory required for data: 7517733024
I0601 17:39:03.929322  8060 layer_factory.hpp:77] Creating layer conv7_1
I0601 17:39:03.929333  8060 net.cpp:100] Creating Layer conv7_1
I0601 17:39:03.929339  8060 net.cpp:434] conv7_1 <- conv6_2_conv6_2_relu_0_split_0
I0601 17:39:03.929349  8060 net.cpp:408] conv7_1 -> conv7_1
I0601 17:39:03.936121  8060 net.cpp:150] Setting up conv7_1
I0601 17:39:03.936133  8060 net.cpp:157] Top shape: 32 128 10 10 (409600)
I0601 17:39:03.936137  8060 net.cpp:165] Memory required for data: 7519371424
I0601 17:39:03.936146  8060 layer_factory.hpp:77] Creating layer conv7_1_relu
I0601 17:39:03.936156  8060 net.cpp:100] Creating Layer conv7_1_relu
I0601 17:39:03.936161  8060 net.cpp:434] conv7_1_relu <- conv7_1
I0601 17:39:03.936167  8060 net.cpp:395] conv7_1_relu -> conv7_1 (in-place)
I0601 17:39:03.938309  8060 net.cpp:150] Setting up conv7_1_relu
I0601 17:39:03.938318  8060 net.cpp:157] Top shape: 32 128 10 10 (409600)
I0601 17:39:03.938323  8060 net.cpp:165] Memory required for data: 7521009824
I0601 17:39:03.938326  8060 layer_factory.hpp:77] Creating layer conv7_2
I0601 17:39:03.938339  8060 net.cpp:100] Creating Layer conv7_2
I0601 17:39:03.938344  8060 net.cpp:434] conv7_2 <- conv7_1
I0601 17:39:03.938352  8060 net.cpp:408] conv7_2 -> conv7_2
I0601 17:39:03.945179  8060 net.cpp:150] Setting up conv7_2
I0601 17:39:03.945200  8060 net.cpp:157] Top shape: 32 256 5 5 (204800)
I0601 17:39:03.945204  8060 net.cpp:165] Memory required for data: 7521829024
I0601 17:39:03.945214  8060 layer_factory.hpp:77] Creating layer conv7_2_relu
I0601 17:39:03.945222  8060 net.cpp:100] Creating Layer conv7_2_relu
I0601 17:39:03.945228  8060 net.cpp:434] conv7_2_relu <- conv7_2
I0601 17:39:03.945250  8060 net.cpp:395] conv7_2_relu -> conv7_2 (in-place)
I0601 17:39:03.947345  8060 net.cpp:150] Setting up conv7_2_relu
I0601 17:39:03.947355  8060 net.cpp:157] Top shape: 32 256 5 5 (204800)
I0601 17:39:03.947360  8060 net.cpp:165] Memory required for data: 7522648224
I0601 17:39:03.947363  8060 layer_factory.hpp:77] Creating layer conv7_2_conv7_2_relu_0_split
I0601 17:39:03.947371  8060 net.cpp:100] Creating Layer conv7_2_conv7_2_relu_0_split
I0601 17:39:03.947376  8060 net.cpp:434] conv7_2_conv7_2_relu_0_split <- conv7_2
I0601 17:39:03.947384  8060 net.cpp:408] conv7_2_conv7_2_relu_0_split -> conv7_2_conv7_2_relu_0_split_0
I0601 17:39:03.947393  8060 net.cpp:408] conv7_2_conv7_2_relu_0_split -> conv7_2_conv7_2_relu_0_split_1
I0601 17:39:03.947403  8060 net.cpp:408] conv7_2_conv7_2_relu_0_split -> conv7_2_conv7_2_relu_0_split_2
I0601 17:39:03.947410  8060 net.cpp:408] conv7_2_conv7_2_relu_0_split -> conv7_2_conv7_2_relu_0_split_3
I0601 17:39:03.947479  8060 net.cpp:150] Setting up conv7_2_conv7_2_relu_0_split
I0601 17:39:03.947487  8060 net.cpp:157] Top shape: 32 256 5 5 (204800)
I0601 17:39:03.947492  8060 net.cpp:157] Top shape: 32 256 5 5 (204800)
I0601 17:39:03.947497  8060 net.cpp:157] Top shape: 32 256 5 5 (204800)
I0601 17:39:03.947502  8060 net.cpp:157] Top shape: 32 256 5 5 (204800)
I0601 17:39:03.947506  8060 net.cpp:165] Memory required for data: 7525925024
I0601 17:39:03.947510  8060 layer_factory.hpp:77] Creating layer conv8_1
I0601 17:39:03.947522  8060 net.cpp:100] Creating Layer conv8_1
I0601 17:39:03.947528  8060 net.cpp:434] conv8_1 <- conv7_2_conv7_2_relu_0_split_0
I0601 17:39:03.947537  8060 net.cpp:408] conv8_1 -> conv8_1
I0601 17:39:03.955282  8060 net.cpp:150] Setting up conv8_1
I0601 17:39:03.955302  8060 net.cpp:157] Top shape: 32 128 5 5 (102400)
I0601 17:39:03.955307  8060 net.cpp:165] Memory required for data: 7526334624
I0601 17:39:03.955315  8060 layer_factory.hpp:77] Creating layer conv8_1_relu
I0601 17:39:03.955324  8060 net.cpp:100] Creating Layer conv8_1_relu
I0601 17:39:03.955330  8060 net.cpp:434] conv8_1_relu <- conv8_1
I0601 17:39:03.955338  8060 net.cpp:395] conv8_1_relu -> conv8_1 (in-place)
I0601 17:39:03.957722  8060 net.cpp:150] Setting up conv8_1_relu
I0601 17:39:03.957733  8060 net.cpp:157] Top shape: 32 128 5 5 (102400)
I0601 17:39:03.957737  8060 net.cpp:165] Memory required for data: 7526744224
I0601 17:39:03.957741  8060 layer_factory.hpp:77] Creating layer conv8_2
I0601 17:39:03.957754  8060 net.cpp:100] Creating Layer conv8_2
I0601 17:39:03.957759  8060 net.cpp:434] conv8_2 <- conv8_1
I0601 17:39:03.957768  8060 net.cpp:408] conv8_2 -> conv8_2
I0601 17:39:03.964727  8060 net.cpp:150] Setting up conv8_2
I0601 17:39:03.964745  8060 net.cpp:157] Top shape: 32 256 3 3 (73728)
I0601 17:39:03.964748  8060 net.cpp:165] Memory required for data: 7527039136
I0601 17:39:03.964756  8060 layer_factory.hpp:77] Creating layer conv8_2_relu
I0601 17:39:03.964766  8060 net.cpp:100] Creating Layer conv8_2_relu
I0601 17:39:03.964771  8060 net.cpp:434] conv8_2_relu <- conv8_2
I0601 17:39:03.964787  8060 net.cpp:395] conv8_2_relu -> conv8_2 (in-place)
I0601 17:39:03.966976  8060 net.cpp:150] Setting up conv8_2_relu
I0601 17:39:03.966986  8060 net.cpp:157] Top shape: 32 256 3 3 (73728)
I0601 17:39:03.966991  8060 net.cpp:165] Memory required for data: 7527334048
I0601 17:39:03.966995  8060 layer_factory.hpp:77] Creating layer conv8_2_conv8_2_relu_0_split
I0601 17:39:03.967003  8060 net.cpp:100] Creating Layer conv8_2_conv8_2_relu_0_split
I0601 17:39:03.967008  8060 net.cpp:434] conv8_2_conv8_2_relu_0_split <- conv8_2
I0601 17:39:03.967017  8060 net.cpp:408] conv8_2_conv8_2_relu_0_split -> conv8_2_conv8_2_relu_0_split_0
I0601 17:39:03.967026  8060 net.cpp:408] conv8_2_conv8_2_relu_0_split -> conv8_2_conv8_2_relu_0_split_1
I0601 17:39:03.967034  8060 net.cpp:408] conv8_2_conv8_2_relu_0_split -> conv8_2_conv8_2_relu_0_split_2
I0601 17:39:03.967042  8060 net.cpp:408] conv8_2_conv8_2_relu_0_split -> conv8_2_conv8_2_relu_0_split_3
I0601 17:39:03.967116  8060 net.cpp:150] Setting up conv8_2_conv8_2_relu_0_split
I0601 17:39:03.967125  8060 net.cpp:157] Top shape: 32 256 3 3 (73728)
I0601 17:39:03.967131  8060 net.cpp:157] Top shape: 32 256 3 3 (73728)
I0601 17:39:03.967135  8060 net.cpp:157] Top shape: 32 256 3 3 (73728)
I0601 17:39:03.967140  8060 net.cpp:157] Top shape: 32 256 3 3 (73728)
I0601 17:39:03.967145  8060 net.cpp:165] Memory required for data: 7528513696
I0601 17:39:03.967149  8060 layer_factory.hpp:77] Creating layer conv9_1
I0601 17:39:03.967161  8060 net.cpp:100] Creating Layer conv9_1
I0601 17:39:03.967165  8060 net.cpp:434] conv9_1 <- conv8_2_conv8_2_relu_0_split_0
I0601 17:39:03.967175  8060 net.cpp:408] conv9_1 -> conv9_1
I0601 17:39:03.973906  8060 net.cpp:150] Setting up conv9_1
I0601 17:39:03.973920  8060 net.cpp:157] Top shape: 32 128 3 3 (36864)
I0601 17:39:03.973924  8060 net.cpp:165] Memory required for data: 7528661152
I0601 17:39:03.973932  8060 layer_factory.hpp:77] Creating layer conv9_1_relu
I0601 17:39:03.973940  8060 net.cpp:100] Creating Layer conv9_1_relu
I0601 17:39:03.973948  8060 net.cpp:434] conv9_1_relu <- conv9_1
I0601 17:39:03.973956  8060 net.cpp:395] conv9_1_relu -> conv9_1 (in-place)
I0601 17:39:03.976092  8060 net.cpp:150] Setting up conv9_1_relu
I0601 17:39:03.976104  8060 net.cpp:157] Top shape: 32 128 3 3 (36864)
I0601 17:39:03.976107  8060 net.cpp:165] Memory required for data: 7528808608
I0601 17:39:03.976111  8060 layer_factory.hpp:77] Creating layer conv9_2
I0601 17:39:03.976125  8060 net.cpp:100] Creating Layer conv9_2
I0601 17:39:03.976130  8060 net.cpp:434] conv9_2 <- conv9_1
I0601 17:39:03.976138  8060 net.cpp:408] conv9_2 -> conv9_2
I0601 17:39:03.983017  8060 net.cpp:150] Setting up conv9_2
I0601 17:39:03.983038  8060 net.cpp:157] Top shape: 32 256 1 1 (8192)
I0601 17:39:03.983042  8060 net.cpp:165] Memory required for data: 7528841376
I0601 17:39:03.983052  8060 layer_factory.hpp:77] Creating layer conv9_2_relu
I0601 17:39:03.983062  8060 net.cpp:100] Creating Layer conv9_2_relu
I0601 17:39:03.983088  8060 net.cpp:434] conv9_2_relu <- conv9_2
I0601 17:39:03.983095  8060 net.cpp:395] conv9_2_relu -> conv9_2 (in-place)
I0601 17:39:03.985203  8060 net.cpp:150] Setting up conv9_2_relu
I0601 17:39:03.985215  8060 net.cpp:157] Top shape: 32 256 1 1 (8192)
I0601 17:39:03.985219  8060 net.cpp:165] Memory required for data: 7528874144
I0601 17:39:03.985224  8060 layer_factory.hpp:77] Creating layer conv9_2_conv9_2_relu_0_split
I0601 17:39:03.985232  8060 net.cpp:100] Creating Layer conv9_2_conv9_2_relu_0_split
I0601 17:39:03.985237  8060 net.cpp:434] conv9_2_conv9_2_relu_0_split <- conv9_2
I0601 17:39:03.985244  8060 net.cpp:408] conv9_2_conv9_2_relu_0_split -> conv9_2_conv9_2_relu_0_split_0
I0601 17:39:03.985255  8060 net.cpp:408] conv9_2_conv9_2_relu_0_split -> conv9_2_conv9_2_relu_0_split_1
I0601 17:39:03.985265  8060 net.cpp:408] conv9_2_conv9_2_relu_0_split -> conv9_2_conv9_2_relu_0_split_2
I0601 17:39:03.985324  8060 net.cpp:150] Setting up conv9_2_conv9_2_relu_0_split
I0601 17:39:03.985332  8060 net.cpp:157] Top shape: 32 256 1 1 (8192)
I0601 17:39:03.985338  8060 net.cpp:157] Top shape: 32 256 1 1 (8192)
I0601 17:39:03.985342  8060 net.cpp:157] Top shape: 32 256 1 1 (8192)
I0601 17:39:03.985347  8060 net.cpp:165] Memory required for data: 7528972448
I0601 17:39:03.985349  8060 layer_factory.hpp:77] Creating layer conv4_3_norm
I0601 17:39:03.985357  8060 net.cpp:100] Creating Layer conv4_3_norm
I0601 17:39:03.985363  8060 net.cpp:434] conv4_3_norm <- conv4_3_relu4_3_0_split_1
I0601 17:39:03.985370  8060 net.cpp:408] conv4_3_norm -> conv4_3_norm
I0601 17:39:03.985501  8060 net.cpp:150] Setting up conv4_3_norm
I0601 17:39:03.985507  8060 net.cpp:157] Top shape: 32 512 38 38 (23658496)
I0601 17:39:03.985510  8060 net.cpp:165] Memory required for data: 7623606432
I0601 17:39:03.985517  8060 layer_factory.hpp:77] Creating layer conv4_3_norm_conv4_3_norm_0_split
I0601 17:39:03.985522  8060 net.cpp:100] Creating Layer conv4_3_norm_conv4_3_norm_0_split
I0601 17:39:03.985527  8060 net.cpp:434] conv4_3_norm_conv4_3_norm_0_split <- conv4_3_norm
I0601 17:39:03.985545  8060 net.cpp:408] conv4_3_norm_conv4_3_norm_0_split -> conv4_3_norm_conv4_3_norm_0_split_0
I0601 17:39:03.985554  8060 net.cpp:408] conv4_3_norm_conv4_3_norm_0_split -> conv4_3_norm_conv4_3_norm_0_split_1
I0601 17:39:03.985561  8060 net.cpp:408] conv4_3_norm_conv4_3_norm_0_split -> conv4_3_norm_conv4_3_norm_0_split_2
I0601 17:39:03.985602  8060 net.cpp:150] Setting up conv4_3_norm_conv4_3_norm_0_split
I0601 17:39:03.985610  8060 net.cpp:157] Top shape: 32 512 38 38 (23658496)
I0601 17:39:03.985613  8060 net.cpp:157] Top shape: 32 512 38 38 (23658496)
I0601 17:39:03.985618  8060 net.cpp:157] Top shape: 32 512 38 38 (23658496)
I0601 17:39:03.985622  8060 net.cpp:165] Memory required for data: 7907508384
I0601 17:39:03.985626  8060 layer_factory.hpp:77] Creating layer conv4_3_norm_mbox_loc
I0601 17:39:03.985637  8060 net.cpp:100] Creating Layer conv4_3_norm_mbox_loc
I0601 17:39:03.985642  8060 net.cpp:434] conv4_3_norm_mbox_loc <- conv4_3_norm_conv4_3_norm_0_split_0
I0601 17:39:03.985651  8060 net.cpp:408] conv4_3_norm_mbox_loc -> conv4_3_norm_mbox_loc
I0601 17:39:03.993773  8060 net.cpp:150] Setting up conv4_3_norm_mbox_loc
I0601 17:39:03.993789  8060 net.cpp:157] Top shape: 32 16 38 38 (739328)
I0601 17:39:03.993793  8060 net.cpp:165] Memory required for data: 7910465696
I0601 17:39:03.993803  8060 layer_factory.hpp:77] Creating layer conv4_3_norm_mbox_loc_perm
I0601 17:39:03.993813  8060 net.cpp:100] Creating Layer conv4_3_norm_mbox_loc_perm
I0601 17:39:03.993819  8060 net.cpp:434] conv4_3_norm_mbox_loc_perm <- conv4_3_norm_mbox_loc
I0601 17:39:03.993825  8060 net.cpp:408] conv4_3_norm_mbox_loc_perm -> conv4_3_norm_mbox_loc_perm
I0601 17:39:03.993924  8060 net.cpp:150] Setting up conv4_3_norm_mbox_loc_perm
I0601 17:39:03.993932  8060 net.cpp:157] Top shape: 32 38 38 16 (739328)
I0601 17:39:03.993935  8060 net.cpp:165] Memory required for data: 7913423008
I0601 17:39:03.993938  8060 layer_factory.hpp:77] Creating layer conv4_3_norm_mbox_loc_flat
I0601 17:39:03.993947  8060 net.cpp:100] Creating Layer conv4_3_norm_mbox_loc_flat
I0601 17:39:03.993950  8060 net.cpp:434] conv4_3_norm_mbox_loc_flat <- conv4_3_norm_mbox_loc_perm
I0601 17:39:03.993955  8060 net.cpp:408] conv4_3_norm_mbox_loc_flat -> conv4_3_norm_mbox_loc_flat
I0601 17:39:03.993994  8060 net.cpp:150] Setting up conv4_3_norm_mbox_loc_flat
I0601 17:39:03.994002  8060 net.cpp:157] Top shape: 32 23104 (739328)
I0601 17:39:03.994005  8060 net.cpp:165] Memory required for data: 7916380320
I0601 17:39:03.994009  8060 layer_factory.hpp:77] Creating layer conv4_3_norm_mbox_conf
I0601 17:39:03.994027  8060 net.cpp:100] Creating Layer conv4_3_norm_mbox_conf
I0601 17:39:03.994035  8060 net.cpp:434] conv4_3_norm_mbox_conf <- conv4_3_norm_conv4_3_norm_0_split_1
I0601 17:39:03.994041  8060 net.cpp:408] conv4_3_norm_mbox_conf -> conv4_3_norm_mbox_conf
I0601 17:39:04.000686  8060 net.cpp:150] Setting up conv4_3_norm_mbox_conf
I0601 17:39:04.000700  8060 net.cpp:157] Top shape: 32 16 38 38 (739328)
I0601 17:39:04.000705  8060 net.cpp:165] Memory required for data: 7919337632
I0601 17:39:04.000713  8060 layer_factory.hpp:77] Creating layer conv4_3_norm_mbox_conf_perm
I0601 17:39:04.000723  8060 net.cpp:100] Creating Layer conv4_3_norm_mbox_conf_perm
I0601 17:39:04.000728  8060 net.cpp:434] conv4_3_norm_mbox_conf_perm <- conv4_3_norm_mbox_conf
I0601 17:39:04.000735  8060 net.cpp:408] conv4_3_norm_mbox_conf_perm -> conv4_3_norm_mbox_conf_perm
I0601 17:39:04.000829  8060 net.cpp:150] Setting up conv4_3_norm_mbox_conf_perm
I0601 17:39:04.000850  8060 net.cpp:157] Top shape: 32 38 38 16 (739328)
I0601 17:39:04.000855  8060 net.cpp:165] Memory required for data: 7922294944
I0601 17:39:04.000859  8060 layer_factory.hpp:77] Creating layer conv4_3_norm_mbox_conf_flat
I0601 17:39:04.000865  8060 net.cpp:100] Creating Layer conv4_3_norm_mbox_conf_flat
I0601 17:39:04.000870  8060 net.cpp:434] conv4_3_norm_mbox_conf_flat <- conv4_3_norm_mbox_conf_perm
I0601 17:39:04.000877  8060 net.cpp:408] conv4_3_norm_mbox_conf_flat -> conv4_3_norm_mbox_conf_flat
I0601 17:39:04.000919  8060 net.cpp:150] Setting up conv4_3_norm_mbox_conf_flat
I0601 17:39:04.000926  8060 net.cpp:157] Top shape: 32 23104 (739328)
I0601 17:39:04.000929  8060 net.cpp:165] Memory required for data: 7925252256
I0601 17:39:04.000932  8060 layer_factory.hpp:77] Creating layer conv4_3_norm_mbox_priorbox
I0601 17:39:04.000941  8060 net.cpp:100] Creating Layer conv4_3_norm_mbox_priorbox
I0601 17:39:04.000944  8060 net.cpp:434] conv4_3_norm_mbox_priorbox <- conv4_3_norm_conv4_3_norm_0_split_2
I0601 17:39:04.000950  8060 net.cpp:434] conv4_3_norm_mbox_priorbox <- data_data_0_split_1
I0601 17:39:04.000958  8060 net.cpp:408] conv4_3_norm_mbox_priorbox -> conv4_3_norm_mbox_priorbox
I0601 17:39:04.000990  8060 net.cpp:150] Setting up conv4_3_norm_mbox_priorbox
I0601 17:39:04.000998  8060 net.cpp:157] Top shape: 1 2 23104 (46208)
I0601 17:39:04.001000  8060 net.cpp:165] Memory required for data: 7925437088
I0601 17:39:04.001004  8060 layer_factory.hpp:77] Creating layer fc7_mbox_loc
I0601 17:39:04.001015  8060 net.cpp:100] Creating Layer fc7_mbox_loc
I0601 17:39:04.001020  8060 net.cpp:434] fc7_mbox_loc <- fc7_relu7_0_split_1
I0601 17:39:04.001027  8060 net.cpp:408] fc7_mbox_loc -> fc7_mbox_loc
I0601 17:39:04.007527  8060 net.cpp:150] Setting up fc7_mbox_loc
I0601 17:39:04.007547  8060 net.cpp:157] Top shape: 32 24 19 19 (277248)
I0601 17:39:04.007550  8060 net.cpp:165] Memory required for data: 7926546080
I0601 17:39:04.007560  8060 layer_factory.hpp:77] Creating layer fc7_mbox_loc_perm
I0601 17:39:04.007570  8060 net.cpp:100] Creating Layer fc7_mbox_loc_perm
I0601 17:39:04.007576  8060 net.cpp:434] fc7_mbox_loc_perm <- fc7_mbox_loc
I0601 17:39:04.007586  8060 net.cpp:408] fc7_mbox_loc_perm -> fc7_mbox_loc_perm
I0601 17:39:04.007679  8060 net.cpp:150] Setting up fc7_mbox_loc_perm
I0601 17:39:04.007688  8060 net.cpp:157] Top shape: 32 19 19 24 (277248)
I0601 17:39:04.007692  8060 net.cpp:165] Memory required for data: 7927655072
I0601 17:39:04.007696  8060 layer_factory.hpp:77] Creating layer fc7_mbox_loc_flat
I0601 17:39:04.007701  8060 net.cpp:100] Creating Layer fc7_mbox_loc_flat
I0601 17:39:04.007705  8060 net.cpp:434] fc7_mbox_loc_flat <- fc7_mbox_loc_perm
I0601 17:39:04.007711  8060 net.cpp:408] fc7_mbox_loc_flat -> fc7_mbox_loc_flat
I0601 17:39:04.007736  8060 net.cpp:150] Setting up fc7_mbox_loc_flat
I0601 17:39:04.007742  8060 net.cpp:157] Top shape: 32 8664 (277248)
I0601 17:39:04.007746  8060 net.cpp:165] Memory required for data: 7928764064
I0601 17:39:04.007750  8060 layer_factory.hpp:77] Creating layer fc7_mbox_conf
I0601 17:39:04.007763  8060 net.cpp:100] Creating Layer fc7_mbox_conf
I0601 17:39:04.007768  8060 net.cpp:434] fc7_mbox_conf <- fc7_relu7_0_split_2
I0601 17:39:04.007776  8060 net.cpp:408] fc7_mbox_conf -> fc7_mbox_conf
I0601 17:39:04.016690  8060 net.cpp:150] Setting up fc7_mbox_conf
I0601 17:39:04.016705  8060 net.cpp:157] Top shape: 32 24 19 19 (277248)
I0601 17:39:04.016708  8060 net.cpp:165] Memory required for data: 7929873056
I0601 17:39:04.016716  8060 layer_factory.hpp:77] Creating layer fc7_mbox_conf_perm
I0601 17:39:04.016726  8060 net.cpp:100] Creating Layer fc7_mbox_conf_perm
I0601 17:39:04.016731  8060 net.cpp:434] fc7_mbox_conf_perm <- fc7_mbox_conf
I0601 17:39:04.016737  8060 net.cpp:408] fc7_mbox_conf_perm -> fc7_mbox_conf_perm
I0601 17:39:04.016834  8060 net.cpp:150] Setting up fc7_mbox_conf_perm
I0601 17:39:04.016855  8060 net.cpp:157] Top shape: 32 19 19 24 (277248)
I0601 17:39:04.016860  8060 net.cpp:165] Memory required for data: 7930982048
I0601 17:39:04.016863  8060 layer_factory.hpp:77] Creating layer fc7_mbox_conf_flat
I0601 17:39:04.016870  8060 net.cpp:100] Creating Layer fc7_mbox_conf_flat
I0601 17:39:04.016875  8060 net.cpp:434] fc7_mbox_conf_flat <- fc7_mbox_conf_perm
I0601 17:39:04.016882  8060 net.cpp:408] fc7_mbox_conf_flat -> fc7_mbox_conf_flat
I0601 17:39:04.016911  8060 net.cpp:150] Setting up fc7_mbox_conf_flat
I0601 17:39:04.016916  8060 net.cpp:157] Top shape: 32 8664 (277248)
I0601 17:39:04.016921  8060 net.cpp:165] Memory required for data: 7932091040
I0601 17:39:04.016935  8060 layer_factory.hpp:77] Creating layer fc7_mbox_priorbox
I0601 17:39:04.016943  8060 net.cpp:100] Creating Layer fc7_mbox_priorbox
I0601 17:39:04.016950  8060 net.cpp:434] fc7_mbox_priorbox <- fc7_relu7_0_split_3
I0601 17:39:04.016957  8060 net.cpp:434] fc7_mbox_priorbox <- data_data_0_split_2
I0601 17:39:04.016964  8060 net.cpp:408] fc7_mbox_priorbox -> fc7_mbox_priorbox
I0601 17:39:04.016997  8060 net.cpp:150] Setting up fc7_mbox_priorbox
I0601 17:39:04.017004  8060 net.cpp:157] Top shape: 1 2 8664 (17328)
I0601 17:39:04.017009  8060 net.cpp:165] Memory required for data: 7932160352
I0601 17:39:04.017011  8060 layer_factory.hpp:77] Creating layer conv6_2_mbox_loc
I0601 17:39:04.017024  8060 net.cpp:100] Creating Layer conv6_2_mbox_loc
I0601 17:39:04.017030  8060 net.cpp:434] conv6_2_mbox_loc <- conv6_2_conv6_2_relu_0_split_1
I0601 17:39:04.017040  8060 net.cpp:408] conv6_2_mbox_loc -> conv6_2_mbox_loc
I0601 17:39:04.023113  8060 net.cpp:150] Setting up conv6_2_mbox_loc
I0601 17:39:04.023128  8060 net.cpp:157] Top shape: 32 24 10 10 (76800)
I0601 17:39:04.023133  8060 net.cpp:165] Memory required for data: 7932467552
I0601 17:39:04.023142  8060 layer_factory.hpp:77] Creating layer conv6_2_mbox_loc_perm
I0601 17:39:04.023151  8060 net.cpp:100] Creating Layer conv6_2_mbox_loc_perm
I0601 17:39:04.023157  8060 net.cpp:434] conv6_2_mbox_loc_perm <- conv6_2_mbox_loc
I0601 17:39:04.023165  8060 net.cpp:408] conv6_2_mbox_loc_perm -> conv6_2_mbox_loc_perm
I0601 17:39:04.023269  8060 net.cpp:150] Setting up conv6_2_mbox_loc_perm
I0601 17:39:04.023279  8060 net.cpp:157] Top shape: 32 10 10 24 (76800)
I0601 17:39:04.023283  8060 net.cpp:165] Memory required for data: 7932774752
I0601 17:39:04.023288  8060 layer_factory.hpp:77] Creating layer conv6_2_mbox_loc_flat
I0601 17:39:04.023294  8060 net.cpp:100] Creating Layer conv6_2_mbox_loc_flat
I0601 17:39:04.023299  8060 net.cpp:434] conv6_2_mbox_loc_flat <- conv6_2_mbox_loc_perm
I0601 17:39:04.023305  8060 net.cpp:408] conv6_2_mbox_loc_flat -> conv6_2_mbox_loc_flat
I0601 17:39:04.023334  8060 net.cpp:150] Setting up conv6_2_mbox_loc_flat
I0601 17:39:04.023341  8060 net.cpp:157] Top shape: 32 2400 (76800)
I0601 17:39:04.023345  8060 net.cpp:165] Memory required for data: 7933081952
I0601 17:39:04.023349  8060 layer_factory.hpp:77] Creating layer conv6_2_mbox_conf
I0601 17:39:04.023361  8060 net.cpp:100] Creating Layer conv6_2_mbox_conf
I0601 17:39:04.023366  8060 net.cpp:434] conv6_2_mbox_conf <- conv6_2_conv6_2_relu_0_split_2
I0601 17:39:04.023375  8060 net.cpp:408] conv6_2_mbox_conf -> conv6_2_mbox_conf
I0601 17:39:04.041553  8060 net.cpp:150] Setting up conv6_2_mbox_conf
I0601 17:39:04.041573  8060 net.cpp:157] Top shape: 32 24 10 10 (76800)
I0601 17:39:04.041576  8060 net.cpp:165] Memory required for data: 7933389152
I0601 17:39:04.041585  8060 layer_factory.hpp:77] Creating layer conv6_2_mbox_conf_perm
I0601 17:39:04.041596  8060 net.cpp:100] Creating Layer conv6_2_mbox_conf_perm
I0601 17:39:04.041604  8060 net.cpp:434] conv6_2_mbox_conf_perm <- conv6_2_mbox_conf
I0601 17:39:04.041610  8060 net.cpp:408] conv6_2_mbox_conf_perm -> conv6_2_mbox_conf_perm
I0601 17:39:04.041720  8060 net.cpp:150] Setting up conv6_2_mbox_conf_perm
I0601 17:39:04.041728  8060 net.cpp:157] Top shape: 32 10 10 24 (76800)
I0601 17:39:04.041733  8060 net.cpp:165] Memory required for data: 7933696352
I0601 17:39:04.041736  8060 layer_factory.hpp:77] Creating layer conv6_2_mbox_conf_flat
I0601 17:39:04.041746  8060 net.cpp:100] Creating Layer conv6_2_mbox_conf_flat
I0601 17:39:04.041751  8060 net.cpp:434] conv6_2_mbox_conf_flat <- conv6_2_mbox_conf_perm
I0601 17:39:04.041759  8060 net.cpp:408] conv6_2_mbox_conf_flat -> conv6_2_mbox_conf_flat
I0601 17:39:04.041785  8060 net.cpp:150] Setting up conv6_2_mbox_conf_flat
I0601 17:39:04.041795  8060 net.cpp:157] Top shape: 32 2400 (76800)
I0601 17:39:04.041797  8060 net.cpp:165] Memory required for data: 7934003552
I0601 17:39:04.041802  8060 layer_factory.hpp:77] Creating layer conv6_2_mbox_priorbox
I0601 17:39:04.041826  8060 net.cpp:100] Creating Layer conv6_2_mbox_priorbox
I0601 17:39:04.041832  8060 net.cpp:434] conv6_2_mbox_priorbox <- conv6_2_conv6_2_relu_0_split_3
I0601 17:39:04.041838  8060 net.cpp:434] conv6_2_mbox_priorbox <- data_data_0_split_3
I0601 17:39:04.041846  8060 net.cpp:408] conv6_2_mbox_priorbox -> conv6_2_mbox_priorbox
I0601 17:39:04.041882  8060 net.cpp:150] Setting up conv6_2_mbox_priorbox
I0601 17:39:04.041888  8060 net.cpp:157] Top shape: 1 2 2400 (4800)
I0601 17:39:04.041891  8060 net.cpp:165] Memory required for data: 7934022752
I0601 17:39:04.041895  8060 layer_factory.hpp:77] Creating layer conv7_2_mbox_loc
I0601 17:39:04.041908  8060 net.cpp:100] Creating Layer conv7_2_mbox_loc
I0601 17:39:04.041913  8060 net.cpp:434] conv7_2_mbox_loc <- conv7_2_conv7_2_relu_0_split_1
I0601 17:39:04.041923  8060 net.cpp:408] conv7_2_mbox_loc -> conv7_2_mbox_loc
I0601 17:39:04.047827  8060 net.cpp:150] Setting up conv7_2_mbox_loc
I0601 17:39:04.047840  8060 net.cpp:157] Top shape: 32 24 5 5 (19200)
I0601 17:39:04.047843  8060 net.cpp:165] Memory required for data: 7934099552
I0601 17:39:04.047852  8060 layer_factory.hpp:77] Creating layer conv7_2_mbox_loc_perm
I0601 17:39:04.047861  8060 net.cpp:100] Creating Layer conv7_2_mbox_loc_perm
I0601 17:39:04.047868  8060 net.cpp:434] conv7_2_mbox_loc_perm <- conv7_2_mbox_loc
I0601 17:39:04.047875  8060 net.cpp:408] conv7_2_mbox_loc_perm -> conv7_2_mbox_loc_perm
I0601 17:39:04.047979  8060 net.cpp:150] Setting up conv7_2_mbox_loc_perm
I0601 17:39:04.047991  8060 net.cpp:157] Top shape: 32 5 5 24 (19200)
I0601 17:39:04.047994  8060 net.cpp:165] Memory required for data: 7934176352
I0601 17:39:04.047998  8060 layer_factory.hpp:77] Creating layer conv7_2_mbox_loc_flat
I0601 17:39:04.048004  8060 net.cpp:100] Creating Layer conv7_2_mbox_loc_flat
I0601 17:39:04.048009  8060 net.cpp:434] conv7_2_mbox_loc_flat <- conv7_2_mbox_loc_perm
I0601 17:39:04.048022  8060 net.cpp:408] conv7_2_mbox_loc_flat -> conv7_2_mbox_loc_flat
I0601 17:39:04.048048  8060 net.cpp:150] Setting up conv7_2_mbox_loc_flat
I0601 17:39:04.048055  8060 net.cpp:157] Top shape: 32 600 (19200)
I0601 17:39:04.048058  8060 net.cpp:165] Memory required for data: 7934253152
I0601 17:39:04.048061  8060 layer_factory.hpp:77] Creating layer conv7_2_mbox_conf
I0601 17:39:04.048072  8060 net.cpp:100] Creating Layer conv7_2_mbox_conf
I0601 17:39:04.048077  8060 net.cpp:434] conv7_2_mbox_conf <- conv7_2_conv7_2_relu_0_split_2
I0601 17:39:04.048085  8060 net.cpp:408] conv7_2_mbox_conf -> conv7_2_mbox_conf
I0601 17:39:04.054700  8060 net.cpp:150] Setting up conv7_2_mbox_conf
I0601 17:39:04.054715  8060 net.cpp:157] Top shape: 32 24 5 5 (19200)
I0601 17:39:04.054718  8060 net.cpp:165] Memory required for data: 7934329952
I0601 17:39:04.054726  8060 layer_factory.hpp:77] Creating layer conv7_2_mbox_conf_perm
I0601 17:39:04.054735  8060 net.cpp:100] Creating Layer conv7_2_mbox_conf_perm
I0601 17:39:04.054742  8060 net.cpp:434] conv7_2_mbox_conf_perm <- conv7_2_mbox_conf
I0601 17:39:04.054754  8060 net.cpp:408] conv7_2_mbox_conf_perm -> conv7_2_mbox_conf_perm
I0601 17:39:04.054886  8060 net.cpp:150] Setting up conv7_2_mbox_conf_perm
I0601 17:39:04.054899  8060 net.cpp:157] Top shape: 32 5 5 24 (19200)
I0601 17:39:04.054904  8060 net.cpp:165] Memory required for data: 7934406752
I0601 17:39:04.054908  8060 layer_factory.hpp:77] Creating layer conv7_2_mbox_conf_flat
I0601 17:39:04.054915  8060 net.cpp:100] Creating Layer conv7_2_mbox_conf_flat
I0601 17:39:04.054921  8060 net.cpp:434] conv7_2_mbox_conf_flat <- conv7_2_mbox_conf_perm
I0601 17:39:04.054929  8060 net.cpp:408] conv7_2_mbox_conf_flat -> conv7_2_mbox_conf_flat
I0601 17:39:04.054958  8060 net.cpp:150] Setting up conv7_2_mbox_conf_flat
I0601 17:39:04.054968  8060 net.cpp:157] Top shape: 32 600 (19200)
I0601 17:39:04.054972  8060 net.cpp:165] Memory required for data: 7934483552
I0601 17:39:04.054976  8060 layer_factory.hpp:77] Creating layer conv7_2_mbox_priorbox
I0601 17:39:04.054983  8060 net.cpp:100] Creating Layer conv7_2_mbox_priorbox
I0601 17:39:04.054989  8060 net.cpp:434] conv7_2_mbox_priorbox <- conv7_2_conv7_2_relu_0_split_3
I0601 17:39:04.055009  8060 net.cpp:434] conv7_2_mbox_priorbox <- data_data_0_split_4
I0601 17:39:04.055021  8060 net.cpp:408] conv7_2_mbox_priorbox -> conv7_2_mbox_priorbox
I0601 17:39:04.055053  8060 net.cpp:150] Setting up conv7_2_mbox_priorbox
I0601 17:39:04.055063  8060 net.cpp:157] Top shape: 1 2 600 (1200)
I0601 17:39:04.055068  8060 net.cpp:165] Memory required for data: 7934488352
I0601 17:39:04.055073  8060 layer_factory.hpp:77] Creating layer conv8_2_mbox_loc
I0601 17:39:04.055083  8060 net.cpp:100] Creating Layer conv8_2_mbox_loc
I0601 17:39:04.055089  8060 net.cpp:434] conv8_2_mbox_loc <- conv8_2_conv8_2_relu_0_split_1
I0601 17:39:04.055097  8060 net.cpp:408] conv8_2_mbox_loc -> conv8_2_mbox_loc
I0601 17:39:04.062785  8060 net.cpp:150] Setting up conv8_2_mbox_loc
I0601 17:39:04.062800  8060 net.cpp:157] Top shape: 32 16 3 3 (4608)
I0601 17:39:04.062803  8060 net.cpp:165] Memory required for data: 7934506784
I0601 17:39:04.062822  8060 layer_factory.hpp:77] Creating layer conv8_2_mbox_loc_perm
I0601 17:39:04.062835  8060 net.cpp:100] Creating Layer conv8_2_mbox_loc_perm
I0601 17:39:04.062842  8060 net.cpp:434] conv8_2_mbox_loc_perm <- conv8_2_mbox_loc
I0601 17:39:04.062851  8060 net.cpp:408] conv8_2_mbox_loc_perm -> conv8_2_mbox_loc_perm
I0601 17:39:04.062985  8060 net.cpp:150] Setting up conv8_2_mbox_loc_perm
I0601 17:39:04.062996  8060 net.cpp:157] Top shape: 32 3 3 16 (4608)
I0601 17:39:04.063004  8060 net.cpp:165] Memory required for data: 7934525216
I0601 17:39:04.063009  8060 layer_factory.hpp:77] Creating layer conv8_2_mbox_loc_flat
I0601 17:39:04.063016  8060 net.cpp:100] Creating Layer conv8_2_mbox_loc_flat
I0601 17:39:04.063022  8060 net.cpp:434] conv8_2_mbox_loc_flat <- conv8_2_mbox_loc_perm
I0601 17:39:04.063030  8060 net.cpp:408] conv8_2_mbox_loc_flat -> conv8_2_mbox_loc_flat
I0601 17:39:04.063060  8060 net.cpp:150] Setting up conv8_2_mbox_loc_flat
I0601 17:39:04.063067  8060 net.cpp:157] Top shape: 32 144 (4608)
I0601 17:39:04.063072  8060 net.cpp:165] Memory required for data: 7934543648
I0601 17:39:04.063076  8060 layer_factory.hpp:77] Creating layer conv8_2_mbox_conf
I0601 17:39:04.063088  8060 net.cpp:100] Creating Layer conv8_2_mbox_conf
I0601 17:39:04.063094  8060 net.cpp:434] conv8_2_mbox_conf <- conv8_2_conv8_2_relu_0_split_2
I0601 17:39:04.063102  8060 net.cpp:408] conv8_2_mbox_conf -> conv8_2_mbox_conf
I0601 17:39:04.069623  8060 net.cpp:150] Setting up conv8_2_mbox_conf
I0601 17:39:04.069636  8060 net.cpp:157] Top shape: 32 16 3 3 (4608)
I0601 17:39:04.069640  8060 net.cpp:165] Memory required for data: 7934562080
I0601 17:39:04.069648  8060 layer_factory.hpp:77] Creating layer conv8_2_mbox_conf_perm
I0601 17:39:04.069671  8060 net.cpp:100] Creating Layer conv8_2_mbox_conf_perm
I0601 17:39:04.069689  8060 net.cpp:434] conv8_2_mbox_conf_perm <- conv8_2_mbox_conf
I0601 17:39:04.069706  8060 net.cpp:408] conv8_2_mbox_conf_perm -> conv8_2_mbox_conf_perm
I0601 17:39:04.069818  8060 net.cpp:150] Setting up conv8_2_mbox_conf_perm
I0601 17:39:04.069826  8060 net.cpp:157] Top shape: 32 3 3 16 (4608)
I0601 17:39:04.069830  8060 net.cpp:165] Memory required for data: 7934580512
I0601 17:39:04.069834  8060 layer_factory.hpp:77] Creating layer conv8_2_mbox_conf_flat
I0601 17:39:04.069839  8060 net.cpp:100] Creating Layer conv8_2_mbox_conf_flat
I0601 17:39:04.069844  8060 net.cpp:434] conv8_2_mbox_conf_flat <- conv8_2_mbox_conf_perm
I0601 17:39:04.069854  8060 net.cpp:408] conv8_2_mbox_conf_flat -> conv8_2_mbox_conf_flat
I0601 17:39:04.069881  8060 net.cpp:150] Setting up conv8_2_mbox_conf_flat
I0601 17:39:04.069890  8060 net.cpp:157] Top shape: 32 144 (4608)
I0601 17:39:04.069893  8060 net.cpp:165] Memory required for data: 7934598944
I0601 17:39:04.069897  8060 layer_factory.hpp:77] Creating layer conv8_2_mbox_priorbox
I0601 17:39:04.069907  8060 net.cpp:100] Creating Layer conv8_2_mbox_priorbox
I0601 17:39:04.069911  8060 net.cpp:434] conv8_2_mbox_priorbox <- conv8_2_conv8_2_relu_0_split_3
I0601 17:39:04.069917  8060 net.cpp:434] conv8_2_mbox_priorbox <- data_data_0_split_5
I0601 17:39:04.069936  8060 net.cpp:408] conv8_2_mbox_priorbox -> conv8_2_mbox_priorbox
I0601 17:39:04.069967  8060 net.cpp:150] Setting up conv8_2_mbox_priorbox
I0601 17:39:04.069974  8060 net.cpp:157] Top shape: 1 2 144 (288)
I0601 17:39:04.069977  8060 net.cpp:165] Memory required for data: 7934600096
I0601 17:39:04.069983  8060 layer_factory.hpp:77] Creating layer conv9_2_mbox_loc
I0601 17:39:04.069994  8060 net.cpp:100] Creating Layer conv9_2_mbox_loc
I0601 17:39:04.069998  8060 net.cpp:434] conv9_2_mbox_loc <- conv9_2_conv9_2_relu_0_split_0
I0601 17:39:04.070008  8060 net.cpp:408] conv9_2_mbox_loc -> conv9_2_mbox_loc
I0601 17:39:04.076480  8060 net.cpp:150] Setting up conv9_2_mbox_loc
I0601 17:39:04.076491  8060 net.cpp:157] Top shape: 32 16 1 1 (512)
I0601 17:39:04.076495  8060 net.cpp:165] Memory required for data: 7934602144
I0601 17:39:04.076503  8060 layer_factory.hpp:77] Creating layer conv9_2_mbox_loc_perm
I0601 17:39:04.076510  8060 net.cpp:100] Creating Layer conv9_2_mbox_loc_perm
I0601 17:39:04.076515  8060 net.cpp:434] conv9_2_mbox_loc_perm <- conv9_2_mbox_loc
I0601 17:39:04.076524  8060 net.cpp:408] conv9_2_mbox_loc_perm -> conv9_2_mbox_loc_perm
I0601 17:39:04.076633  8060 net.cpp:150] Setting up conv9_2_mbox_loc_perm
I0601 17:39:04.076642  8060 net.cpp:157] Top shape: 32 1 1 16 (512)
I0601 17:39:04.076645  8060 net.cpp:165] Memory required for data: 7934604192
I0601 17:39:04.076649  8060 layer_factory.hpp:77] Creating layer conv9_2_mbox_loc_flat
I0601 17:39:04.076655  8060 net.cpp:100] Creating Layer conv9_2_mbox_loc_flat
I0601 17:39:04.076659  8060 net.cpp:434] conv9_2_mbox_loc_flat <- conv9_2_mbox_loc_perm
I0601 17:39:04.076668  8060 net.cpp:408] conv9_2_mbox_loc_flat -> conv9_2_mbox_loc_flat
I0601 17:39:04.076694  8060 net.cpp:150] Setting up conv9_2_mbox_loc_flat
I0601 17:39:04.076701  8060 net.cpp:157] Top shape: 32 16 (512)
I0601 17:39:04.076705  8060 net.cpp:165] Memory required for data: 7934606240
I0601 17:39:04.076709  8060 layer_factory.hpp:77] Creating layer conv9_2_mbox_conf
I0601 17:39:04.076722  8060 net.cpp:100] Creating Layer conv9_2_mbox_conf
I0601 17:39:04.076727  8060 net.cpp:434] conv9_2_mbox_conf <- conv9_2_conv9_2_relu_0_split_1
I0601 17:39:04.076736  8060 net.cpp:408] conv9_2_mbox_conf -> conv9_2_mbox_conf
I0601 17:39:04.084079  8060 net.cpp:150] Setting up conv9_2_mbox_conf
I0601 17:39:04.084094  8060 net.cpp:157] Top shape: 32 16 1 1 (512)
I0601 17:39:04.084096  8060 net.cpp:165] Memory required for data: 7934608288
I0601 17:39:04.084105  8060 layer_factory.hpp:77] Creating layer conv9_2_mbox_conf_perm
I0601 17:39:04.084115  8060 net.cpp:100] Creating Layer conv9_2_mbox_conf_perm
I0601 17:39:04.084120  8060 net.cpp:434] conv9_2_mbox_conf_perm <- conv9_2_mbox_conf
I0601 17:39:04.084127  8060 net.cpp:408] conv9_2_mbox_conf_perm -> conv9_2_mbox_conf_perm
I0601 17:39:04.084241  8060 net.cpp:150] Setting up conv9_2_mbox_conf_perm
I0601 17:39:04.084249  8060 net.cpp:157] Top shape: 32 1 1 16 (512)
I0601 17:39:04.084254  8060 net.cpp:165] Memory required for data: 7934610336
I0601 17:39:04.084257  8060 layer_factory.hpp:77] Creating layer conv9_2_mbox_conf_flat
I0601 17:39:04.084264  8060 net.cpp:100] Creating Layer conv9_2_mbox_conf_flat
I0601 17:39:04.084269  8060 net.cpp:434] conv9_2_mbox_conf_flat <- conv9_2_mbox_conf_perm
I0601 17:39:04.084276  8060 net.cpp:408] conv9_2_mbox_conf_flat -> conv9_2_mbox_conf_flat
I0601 17:39:04.084305  8060 net.cpp:150] Setting up conv9_2_mbox_conf_flat
I0601 17:39:04.084323  8060 net.cpp:157] Top shape: 32 16 (512)
I0601 17:39:04.084337  8060 net.cpp:165] Memory required for data: 7934612384
I0601 17:39:04.084350  8060 layer_factory.hpp:77] Creating layer conv9_2_mbox_priorbox
I0601 17:39:04.084365  8060 net.cpp:100] Creating Layer conv9_2_mbox_priorbox
I0601 17:39:04.084380  8060 net.cpp:434] conv9_2_mbox_priorbox <- conv9_2_conv9_2_relu_0_split_2
I0601 17:39:04.084395  8060 net.cpp:434] conv9_2_mbox_priorbox <- data_data_0_split_6
I0601 17:39:04.084414  8060 net.cpp:408] conv9_2_mbox_priorbox -> conv9_2_mbox_priorbox
I0601 17:39:04.084461  8060 net.cpp:150] Setting up conv9_2_mbox_priorbox
I0601 17:39:04.084468  8060 net.cpp:157] Top shape: 1 2 16 (32)
I0601 17:39:04.084472  8060 net.cpp:165] Memory required for data: 7934612512
I0601 17:39:04.084476  8060 layer_factory.hpp:77] Creating layer mbox_loc
I0601 17:39:04.084483  8060 net.cpp:100] Creating Layer mbox_loc
I0601 17:39:04.084488  8060 net.cpp:434] mbox_loc <- conv4_3_norm_mbox_loc_flat
I0601 17:39:04.084494  8060 net.cpp:434] mbox_loc <- fc7_mbox_loc_flat
I0601 17:39:04.084501  8060 net.cpp:434] mbox_loc <- conv6_2_mbox_loc_flat
I0601 17:39:04.084506  8060 net.cpp:434] mbox_loc <- conv7_2_mbox_loc_flat
I0601 17:39:04.084511  8060 net.cpp:434] mbox_loc <- conv8_2_mbox_loc_flat
I0601 17:39:04.084517  8060 net.cpp:434] mbox_loc <- conv9_2_mbox_loc_flat
I0601 17:39:04.084523  8060 net.cpp:408] mbox_loc -> mbox_loc
I0601 17:39:04.084555  8060 net.cpp:150] Setting up mbox_loc
I0601 17:39:04.084563  8060 net.cpp:157] Top shape: 32 34928 (1117696)
I0601 17:39:04.084568  8060 net.cpp:165] Memory required for data: 7939083296
I0601 17:39:04.084570  8060 layer_factory.hpp:77] Creating layer mbox_conf
I0601 17:39:04.084578  8060 net.cpp:100] Creating Layer mbox_conf
I0601 17:39:04.084581  8060 net.cpp:434] mbox_conf <- conv4_3_norm_mbox_conf_flat
I0601 17:39:04.084588  8060 net.cpp:434] mbox_conf <- fc7_mbox_conf_flat
I0601 17:39:04.084592  8060 net.cpp:434] mbox_conf <- conv6_2_mbox_conf_flat
I0601 17:39:04.084599  8060 net.cpp:434] mbox_conf <- conv7_2_mbox_conf_flat
I0601 17:39:04.084602  8060 net.cpp:434] mbox_conf <- conv8_2_mbox_conf_flat
I0601 17:39:04.084609  8060 net.cpp:434] mbox_conf <- conv9_2_mbox_conf_flat
I0601 17:39:04.084616  8060 net.cpp:408] mbox_conf -> mbox_conf
I0601 17:39:04.084643  8060 net.cpp:150] Setting up mbox_conf
I0601 17:39:04.084650  8060 net.cpp:157] Top shape: 32 34928 (1117696)
I0601 17:39:04.084655  8060 net.cpp:165] Memory required for data: 7943554080
I0601 17:39:04.084658  8060 layer_factory.hpp:77] Creating layer mbox_priorbox
I0601 17:39:04.084664  8060 net.cpp:100] Creating Layer mbox_priorbox
I0601 17:39:04.084668  8060 net.cpp:434] mbox_priorbox <- conv4_3_norm_mbox_priorbox
I0601 17:39:04.084674  8060 net.cpp:434] mbox_priorbox <- fc7_mbox_priorbox
I0601 17:39:04.084679  8060 net.cpp:434] mbox_priorbox <- conv6_2_mbox_priorbox
I0601 17:39:04.084683  8060 net.cpp:434] mbox_priorbox <- conv7_2_mbox_priorbox
I0601 17:39:04.084688  8060 net.cpp:434] mbox_priorbox <- conv8_2_mbox_priorbox
I0601 17:39:04.084693  8060 net.cpp:434] mbox_priorbox <- conv9_2_mbox_priorbox
I0601 17:39:04.084698  8060 net.cpp:408] mbox_priorbox -> mbox_priorbox
I0601 17:39:04.084727  8060 net.cpp:150] Setting up mbox_priorbox
I0601 17:39:04.084734  8060 net.cpp:157] Top shape: 1 2 34928 (69856)
I0601 17:39:04.084738  8060 net.cpp:165] Memory required for data: 7943833504
I0601 17:39:04.084743  8060 layer_factory.hpp:77] Creating layer mbox_loss
I0601 17:39:04.084753  8060 net.cpp:100] Creating Layer mbox_loss
I0601 17:39:04.084758  8060 net.cpp:434] mbox_loss <- mbox_loc
I0601 17:39:04.084764  8060 net.cpp:434] mbox_loss <- mbox_conf
I0601 17:39:04.084769  8060 net.cpp:434] mbox_loss <- mbox_priorbox
…
  name: "data"
  type: "AnnotatedData"
  top: "data"
  top: "label"
  include {
    phase: TEST
  }
  transform_param {
    mean_value: 104
    mean_value: 117
    mean_value: 123
    resize_param {
      prob: 1
      resize_mode: WARP
      height: 300
      width: 300
      interp_mode: LINEAR
    }
  }
  data_param {
    source: "examples/tbs_300x300_HSIL_10x/tbs_300x300_HSIL_10x_test_lmdb"
    batch_size: 4
    backend: LMDB
  }
  annotated_data_param {
    batch_sampler {
    }
    label_map_file: "data/tbs_300x300_HSIL_10x/labelmap_voc.prototxt"
  }
}
layer {
  name: "conv1_1"
  type: "Convolution"
  bottom: "data"
  top: "conv1_1"
  param {
    lr_mult: 1
    decay_mult: 1
  }
  param {
    lr_mult: 2
    decay_mult: 0
  }
  convolution_param {
    num_output: 64
    pad: 1
    kernel_size: 3
    weight_filler {
      type: "xavier"
    }
    bias_filler {
      type: "constant"
      value: 0
    }
  }
}
layer {
  name: "relu1_1"
  type: "ReLU"
  bottom: "conv1_1"
  top: "conv1_1"
}
layer {
  name: "conv1_2"
  type: "Convolution"
  bottom: "conv1_1"
  top: "conv1_2"
  param {
    lr_mult: 1
    decay_mult: 1
  }
  param {
    lr_mult: 2
    decay_mult: 0
  }
  convolution_param {
    num_output: 64
    pad: 1
    kernel_size: 3
    weight_filler {
      type: "xavier"
    }
    bias_filler {
      type: "constant"
      value: 0
    }
  }
}
layer {
  name: "relu1_2"
  type: "ReLU"
  bottom: "conv1_2"
  top: "conv1_2"
}
layer {
  name: "pool1"
  type: "Pooling"
  bottom: "conv1_2"
  top: "pool1"
  pooling_param {
    pool: MAX
    kernel_size: 2
    stride: 2
  }
}
layer {
  name: "conv2_1"
  type: "Convolution"
  bottom: "pool1"
  top: "conv2_1"
  param {
    lr_mult: 1
    decay_mult: 1
  }
  param {
    lr_mult: 2
    decay_mult: 0
  }
  convolution_param {
    num_output: 128
    pad: 1
    kernel_size: 3
    weight_filler {
      type: "xavier"
    }
    bias_filler {
      type: "constant"
      value: 0
    }
  }
}
layer {
  name: "relu2_1"
  type: "ReLU"
  bottom: "conv2_1"
  top: "conv2_1"
}
layer {
  name: "conv2_2"
  type: "Convolution"
  bottom: "conv2_1"
  top: "conv2_2"
  param {
    lr_mult: 1
    decay_mult: 1
  }
  param {
    lr_mult: 2
    decay_mult: 0
  }
  convolution_param {
    num_output: 128
    pad: 1
    kernel_size: 3
    weight_filler {
      type: "xavier"
    }
    bias_filler {
      type: "constant"
      value: 0
    }
  }
}
layer {
  name: "relu2_2"
  type: "ReLU"
  bottom: "conv2_2"
  top: "conv2_2"
}
layer {
  name: "pool2"
  type: "Pooling"
  bottom: "conv2_2"
  top: "pool2"
  pooling_param {
    pool: MAX
    kernel_size: 2
    stride: 2
  }
}
layer {
  name: "conv3_1"
  type: "Convolution"
  bottom: "pool2"
  top: "conv3_1"
  param {
    lr_mult: 1
    decay_mult: 1
  }
  param {
    lr_mult: 2
    decay_mult: 0
  }
  convolution_param {
    num_output: 256
    pad: 1
    kernel_size: 3
    weight_filler {
      type: "xavier"
    }
    bias_filler {
      type: "constant"
      value: 0
    }
  }
}
layer {
  name: "relu3_1"
  type: "ReLU"
  bottom: "conv3_1"
  top: "conv3_1"
}
layer {
  name: "conv3_2"
  type: "Convolution"
  bottom: "conv3_1"
  top: "conv3_2"
  param {
    lr_mult: 1
    decay_mult: 1
  }
  param {
    lr_mult: 2
    decay_mult: 0
  }
  convolution_param {
    num_output: 256
    pad: 1
    kernel_size: 3
    weight_filler {
      type: "xavier"
    }
    bias_filler {
      type: "constant"
      value: 0
    }
  }
}
layer {
  name: "relu3_2"
  type: "ReLU"
  bottom: "conv3_2"
  top: "conv3_2"
}
layer {
  name: "conv3_3"
  type: "Convolution"
  bottom: "conv3_2"
  top: "conv3_3"
  param {
    lr_mult: 1
    decay_mult: 1
  }
  param {
    lr_mult: 2
    decay_mult: 0
  }
  convolution_param {
    num_output: 256
    pad: 1
    kernel_size: 3
    weight_filler {
      type: "xavier"
    }
    bias_filler {
      type: "constant"
      value: 0
    }
  }
}
layer {
  name: "relu3_3"
  type: "ReLU"
  bottom: "conv3_3"
  top: "conv3_3"
}
layer {
  name: "pool3"
  type: "Pooling"
  bottom: "conv3_3"
  top: "pool3"
  pooling_param {
    pool: MAX
    kernel_size: 2
    stride: 2
  }
}
layer {
  name: "conv4_1"
  type: "Convolution"
  bottom: "pool3"
  top: "conv4_1"
  param {
    lr_mult: 1
    decay_mult: 1
  }
  param {
    lr_mult: 2
    decay_mult: 0
  }
  convolution_param {
    num_output: 512
    pad: 1
    kernel_size: 3
    weight_filler {
      type: "xavier"
    }
    bias_filler {
      type: "constant"
      value: 0
    }
  }
}
layer {
  name: "relu4_1"
  type: "ReLU"
  bottom: "conv4_1"
  top: "conv4_1"
}
layer {
  name: "conv4_2"
  type: "Convolution"
  bottom: "conv4_1"
  top: "conv4_2"
  param {
    lr_mult: 1
    decay_mult: 1
  }
  param {
    lr_mult: 2
    decay_mult: 0
  }
  convolution_param {
    num_output: 512
    pad: 1
    kernel_size: 3
    weight_filler {
      type: "xavier"
    }
    bias_filler {
      type: "constant"
      value: 0
    }
  }
}
layer {
  name: "relu4_2"
  type: "ReLU"
  bottom: "conv4_2"
  top: "conv4_2"
}
layer {
  name: "conv4_3"
  type: "Convolution"
  bottom: "conv4_2"
  top: "conv4_3"
  param {
    lr_mult: 1
    decay_mult: 1
  }
  param {
    lr_mult: 2
    decay_mult: 0
  }
  convolution_param {
    num_output: 512
    pad: 1
    kernel_size: 3
    weight_filler {
      type: "xavier"
    }
    bias_filler {
      type: "constant"
      value: 0
    }
  }
}
layer {
  name: "relu4_3"
  type: "ReLU"
  bottom: "conv4_3"
  top: "conv4_3"
}
layer {
  name: "pool4"
  type: "Pooling"
  bottom: "conv4_3"
  top: "pool4"
  pooling_param {
    pool: MAX
    kernel_size: 2
    stride: 2
  }
}
layer {
  name: "conv5_1"
  type: "Convolution"
  bottom: "pool4"
  top: "conv5_1"
  param {
    lr_mult: 1
    decay_mult: 1
  }
  param {
    lr_mult: 2
    decay_mult: 0
  }
  convolution_param {
    num_output: 512
    pad: 1
    kernel_size: 3
    weight_filler {
      type: "xavier"
    }
    bias_filler {
      type: "constant"
      value: 0
    }
    dilation: 1
  }
}
layer {
  name: "relu5_1"
  type: "ReLU"
  bottom: "conv5_1"
  top: "conv5_1"
}
layer {
  name: "conv5_2"
  type: "Convolution"
  bottom: "conv5_1"
  top: "conv5_2"
  param {
    lr_mult: 1
    decay_mult: 1
  }
  param {
    lr_mult: 2
    decay_mult: 0
  }
  convolution_param {
    num_output: 512
    pad: 1
    kernel_size: 3
    weight_filler {
      type: "xavier"
    }
    bias_filler {
      type: "constant"
      value: 0
    }
    dilation: 1
  }
}
layer {
  name: "relu5_2"
  type: "ReLU"
  bottom: "conv5_2"
  top: "conv5_2"
}
layer {
  name: "conv5_3"
  type: "Convolution"
  bottom: "conv5_2"
  top: "conv5_3"
  param {
    lr_mult: 1
    decay_mult: 1
  }
  param {
    lr_mult: 2
    decay_mult: 0
  }
  convolution_param {
    num_output: 512
    pad: 1
    kernel_size: 3
    weight_filler {
      type: "xavier"
    }
    bias_filler {
      type: "constant"
      value: 0
    }
    dilation: 1
  }
}
layer {
  name: "relu5_3"
  type: "ReLU"
  bottom: "conv5_3"
  top: "conv5_3"
}
layer {
  name: "pool5"
  type: "Pooling"
  bottom: "conv5_3"
  top: "pool5"
  pooling_param {
    pool: MAX
    kernel_size: 3
    stride: 1
    pad: 1
  }
}
layer {
  name: "fc6"
  type: "Convolution"
  bottom: "pool5"
  top: "fc6"
  param {
    lr_mult: 1
    decay_mult: 1
  }
  param {
    lr_mult: 2
    decay_mult: 0
  }
  convolution_param {
    num_output: 1024
    pad: 6
    kernel_size: 3
    weight_filler {
      type: "xavier"
    }
    bias_filler {
      type: "constant"
      value: 0
    }
    dilation: 6
  }
}
layer {
  name: "relu6"
  type: "ReLU"
  bottom: "fc6"
  top: "fc6"
}
layer {
  name: "fc7"
  type: "Convolution"
  bottom: "fc6"
  top: "fc7"
  param {
    lr_mult: 1
    decay_mult: 1
  }
  param {
    lr_mult: 2
    decay_mult: 0
  }
  convolution_param {
    num_output: 1024
    kernel_size: 1
    weight_filler {
      type: "xavier"
    }
    bias_filler {
      type: "constant"
      value: 0
    }
  }
}
layer {
  name: "relu7"
  type: "ReLU"
  bottom: "fc7"
  top: "fc7"
}
layer {
  name: "conv6_1"
  type: "Convolution"
  bottom: "fc7"
  top: "conv6_1"
  param {
    lr_mult: 1
    decay_mult: 1
  }
  param {
    lr_mult: 2
    decay_mult: 0
  }
  convolution_param {
    num_output: 256
    pad: 0
    kernel_size: 1
    stride: 1
    weight_filler {
      type: "xavier"
    }
    bias_filler {
      type: "constant"
      value: 0
    }
  }
}
layer {
  name: "conv6_1_relu"
  type: "ReLU"
  bottom: "conv6_1"
  top: "conv6_1"
}
layer {
  name: "conv6_2"
  type: "Convolution"
  bottom: "conv6_1"
  top: "conv6_2"
  param {
    lr_mult: 1
    decay_mult: 1
  }
  param {
    lr_mult: 2
    decay_mult: 0
  }
  convolution_param {
    num_output: 512
    pad: 1
    kernel_size: 3
    stride: 2
    weight_filler {
      type: "xavier"
    }
    bias_filler {
      type: "constant"
      value: 0
    }
  }
}
layer {
  name: "conv6_2_relu"
  type: "ReLU"
  bottom: "conv6_2"
  top: "conv6_2"
}
layer {
  name: "conv7_1"
  type: "Convolution"
  bottom: "conv6_2"
  top: "conv7_1"
  param {
    lr_mult: 1
    decay_mult: 1
  }
  param {
    lr_mult: 2
    decay_mult: 0
  }
  convolution_param {
    num_output: 128
    pad: 0
    kernel_size: 1
    stride: 1
    weight_filler {
      type: "xavier"
    }
    bias_filler {
      type: "constant"
      value: 0
    }
  }
}
layer {
  name: "conv7_1_relu"
  type: "ReLU"
  bottom: "conv7_1"
  top: "conv7_1"
}
layer {
  name: "conv7_2"
  type: "Convolution"
  bottom: "conv7_1"
  top: "conv7_2"
  param {
    lr_mult: 1
    decay_mult: 1
  }
  param {
    lr_mult: 2
    decay_mult: 0
  }
  convolution_param {
    num_output: 256
    pad: 1
    kernel_size: 3
    stride: 2
    weight_filler {
      type: "xavier"
    }
    bias_filler {
      type: "constant"
      value: 0
    }
  }
}
layer {
  name: "conv7_2_relu"
  type: "ReLU"
  bottom: "conv7_2"
  top: "conv7_2"
}
layer {
  name: "conv8_1"
  type: "Convolution"
  bottom: "conv7_2"
  top: "conv8_1"
  param {
    lr_mult: 1
    decay_mult: 1
  }
  param {
    lr_mult: 2
    decay_mult: 0
  }
  convolution_param {
    num_output: 128
    pad: 0
    kernel_size: 1
    stride: 1
    weight_filler {
      type: "xavier"
    }
    bias_filler {
      type: "constant"
      value: 0
    }
  }
}
layer {
  name: "conv8_1_relu"
  type: "ReLU"
  bottom: "conv8_1"
  top: "conv8_1"
}
layer {
  name: "conv8_2"
  type: "Convolution"
  bottom: "conv8_1"
  top: "conv8_2"
  param {
    lr_mult: 1
    decay_mult: 1
  }
  param {
    lr_mult: 2
    decay_mult: 0
  }
  convolution_param {
    num_output: 256
    pad: 0
    kernel_size: 3
    stride: 1
    weight_filler {
      type: "xavier"
    }
    bias_filler {
      type: "constant"
      value: 0
    }
  }
}
layer {
  name: "conv8_2_relu"
  type: "ReLU"
  bottom: "conv8_2"
  top: "conv8_2"
}
layer {
  name: "conv9_1"
  type: "Convolution"
  bottom: "conv8_2"
  top: "conv9_1"
  param {
    lr_mult: 1
    decay_mult: 1
  }
  param {
    lr_mult: 2
    decay_mult: 0
  }
  convolution_param {
    num_output: 128
    pad: 0
    kernel_size: 1
    stride: 1
    weight_filler {
      type: "xavier"
    }
    bias_filler {
      type: "constant"
      value: 0
    }
  }
}
layer {
  name: "conv9_1_relu"
  type: "ReLU"
  bottom: "conv9_1"
  top: "conv9_1"
}
layer {
  name: "conv9_2"
  type: "Convolution"
  bottom: "conv9_1"
  top: "conv9_2"
  param {
    lr_mult: 1
    decay_mult: 1
  }
  param {
    lr_mult: 2
    decay_mult: 0
  }
  convolution_param {
    num_output: 256
    pad: 0
    kernel_size: 3
    stride: 1
    weight_filler {
      type: "xavier"
    }
    bias_filler {
      type: "constant"
      value: 0
    }
  }
}
layer {
  name: "conv9_2_relu"
  type: "ReLU"
  bottom: "conv9_2"
  top: "conv9_2"
}
layer {
  name: "conv4_3_norm"
  type: "Normalize"
  bottom: "conv4_3"
  top: "conv4_3_norm"
  norm_param {
    across_spatial: false
    scale_filler {
      type: "constant"
      value: 20
    }
    channel_shared: false
  }
}
layer {
  name: "conv4_3_norm_mbox_loc"
  type: "Convolution"
  bottom: "conv4_3_norm"
  top: "conv4_3_norm_mbox_loc"
  param {
    lr_mult: 1
    decay_mult: 1
  }
  param {
    lr_mult: 2
    decay_mult: 0
  }
  convolution_param {
    num_output: 16
    pad: 1
    kernel_size: 3
    stride: 1
    weight_filler {
      type: "xavier"
    }
    bias_filler {
      type: "constant"
      value: 0
    }
  }
}
layer {
  name: "conv4_3_norm_mbox_loc_perm"
  type: "Permute"
  bottom: "conv4_3_norm_mbox_loc"
  top: "conv4_3_norm_mbox_loc_perm"
  permute_param {
    order: 0
    order: 2
    order: 3
    order: 1
  }
}
layer {
  name: "conv4_3_norm_mbox_loc_flat"
  type: "Flatten"
  bottom: "conv4_3_norm_mbox_loc_perm"
  top: "conv4_3_norm_mbox_loc_flat"
  flatten_param {
    axis: 1
  }
}
layer {
  name: "conv4_3_norm_mbox_conf"
  type: "Convolution"
  bottom: "conv4_3_norm"
  top: "conv4_3_norm_mbox_conf"
  param {
    lr_mult: 1
    decay_mult: 1
  }
  param {
    lr_mult: 2
    decay_mult: 0
  }
  convolution_param {
    num_output: 16
    pad: 1
    kernel_size: 3
    stride: 1
    weight_filler {
      type: "xavier"
    }
    bias_filler {
      type: "constant"
      value: 0
    }
  }
}
layer {
  name: "conv4_3_norm_mbox_conf_perm"
  type: "Permute"
  bottom: "conv4_3_norm_mbox_conf"
  top: "conv4_3_norm_mbox_conf_perm"
  permute_param {
    order: 0
    order: 2
    order: 3
    order: 1
  }
}
layer {
  name: "conv4_3_norm_mbox_conf_flat"
  type: "Flatten"
  bottom: "conv4_3_norm_mbox_conf_perm"
  top: "conv4_3_norm_mbox_conf_flat"
  flatten_param {
    axis: 1
  }
}
layer {
  name: "conv4_3_norm_mbox_priorbox"
  type: "PriorBox"
  bottom: "conv4_3_norm"
  bottom: "data"
  top: "conv4_3_norm_mbox_priorbox"
  prior_box_param {
    min_size: 30
    max_size: 60
    aspect_ratio: 2
    flip: true
    clip: false
    variance: 0.1
    variance: 0.1
    variance: 0.2
    variance: 0.2
    step: 8
    offset: 0.5
  }
}
layer {
  name: "fc7_mbox_loc"
  type: "Convolution"
  bottom: "fc7"
  top: "fc7_mbox_loc"
  param {
    lr_mult: 1
    decay_mult: 1
  }
  param {
    lr_mult: 2
    decay_mult: 0
  }
  convolution_param {
    num_output: 24
    pad: 1
    kernel_size: 3
    stride: 1
    weight_filler {
      type: "xavier"
    }
    bias_filler {
      type: "constant"
      value: 0
    }
  }
}
layer {
  name: "fc7_mbox_loc_perm"
  type: "Permute"
  bottom: "fc7_mbox_loc"
  top: "fc7_mbox_loc_perm"
  permute_param {
    order: 0
    order: 2
    order: 3
    order: 1
  }
}
layer {
  name: "fc7_mbox_loc_flat"
  type: "Flatten"
  bottom: "fc7_mbox_loc_perm"
  top: "fc7_mbox_loc_flat"
  flatten_param {
    axis: 1
  }
}
layer {
  name: "fc7_mbox_conf"
  type: "Convolution"
  bottom: "fc7"
  top: "fc7_mbox_conf"
  param {
    lr_mult: 1
    decay_mult: 1
  }
  param {
    lr_mult: 2
    decay_mult: 0
  }
  convolution_param {
    num_output: 24
    pad: 1
    kernel_size: 3
    stride: 1
    weight_filler {
      type: "xavier"
    }
    bias_filler {
      type: "constant"
      value: 0
    }
  }
}
layer {
  name: "fc7_mbox_conf_perm"
  type: "Permute"
  bottom: "fc7_mbox_conf"
  top: "fc7_mbox_conf_perm"
  permute_param {
    order: 0
    order: 2
    order: 3
    order: 1
  }
}
layer {
  name: "fc7_mbox_conf_flat"
  type: "Flatten"
  bottom: "fc7_mbox_conf_perm"
  top: "fc7_mbox_conf_flat"
  flatten_param {
    axis: 1
  }
}
layer {
  name: "fc7_mbox_priorbox"
  type: "PriorBox"
  bottom: "fc7"
  bottom: "data"
  top: "fc7_mbox_priorbox"
  prior_box_param {
    min_size: 60
    max_size: 111
    aspect_ratio: 2
    aspect_ratio: 3
    flip: true
    clip: false
    variance: 0.1
    variance: 0.1
    variance: 0.2
    variance: 0.2
    step: 16
    offset: 0.5
  }
}
layer {
  name: "conv6_2_mbox_loc"
  type: "Convolution"
  bottom: "conv6_2"
  top: "conv6_2_mbox_loc"
  param {
    lr_mult: 1
    decay_mult: 1
  }
  param {
    lr_mult: 2
    decay_mult: 0
  }
  convolution_param {
    num_output: 24
    pad: 1
    kernel_size: 3
    stride: 1
    weight_filler {
      type: "xavier"
    }
    bias_filler {
      type: "constant"
      value: 0
    }
  }
}
layer {
  name: "conv6_2_mbox_loc_perm"
  type: "Permute"
  bottom: "conv6_2_mbox_loc"
  top: "conv6_2_mbox_loc_perm"
  permute_param {
    order: 0
    order: 2
    order: 3
    order: 1
  }
}
layer {
  name: "conv6_2_mbox_loc_flat"
  type: "Flatten"
  bottom: "conv6_2_mbox_loc_perm"
  top: "conv6_2_mbox_loc_flat"
  flatten_param {
    axis: 1
  }
}
layer {
  name: "conv6_2_mbox_conf"
  type: "Convolution"
  bottom: "conv6_2"
  top: "conv6_2_mbox_conf"
  param {
    lr_mult: 1
    decay_mult: 1
  }
  param {
    lr_mult: 2
    decay_mult: 0
  }
  convolution_param {
    num_output: 24
    pad: 1
    kernel_size: 3
    stride: 1
    weight_filler {
      type: "xavier"
    }
    bias_filler {
      type: "constant"
      value: 0
    }
  }
}
layer {
  name: "conv6_2_mbox_conf_perm"
  type: "Permute"
  bottom: "conv6_2_mbox_conf"
  top: "conv6_2_mbox_conf_perm"
  permute_param {
    order: 0
    order: 2
    order: 3
    order: 1
  }
}
layer {
  name: "conv6_2_mbox_conf_flat"
  type: "Flatten"
  bottom: "conv6_2_mbox_conf_perm"
  top: "conv6_2_mbox_conf_flat"
  flatten_param {
    axis: 1
  }
}
layer {
  name: "conv6_2_mbox_priorbox"
  type: "PriorBox"
  bottom: "conv6_2"
  bottom: "data"
  top: "conv6_2_mbox_priorbox"
  prior_box_param {
    min_size: 111
    max_size: 162
    aspect_ratio: 2
    aspect_ratio: 3
    flip: true
    clip: false
    variance: 0.1
    variance: 0.1
    variance: 0.2
    variance: 0.2
    step: 32
    offset: 0.5
  }
}
layer {
  name: "conv7_2_mbox_loc"
  type: "Convolution"
  bottom: "conv7_2"
  top: "conv7_2_mbox_loc"
  param {
    lr_mult: 1
    decay_mult: 1
  }
  param {
    lr_mult: 2
    decay_mult: 0
  }
  convolution_param {
    num_output: 24
    pad: 1
    kernel_size: 3
    stride: 1
    weight_filler {
      type: "xavier"
    }
    bias_filler {
      type: "constant"
      value: 0
    }
  }
}
layer {
  name: "conv7_2_mbox_loc_perm"
  type: "Permute"
  bottom: "conv7_2_mbox_loc"
  top: "conv7_2_mbox_loc_perm"
  permute_param {
    order: 0
    order: 2
    order: 3
    order: 1
  }
}
layer {
  name: "conv7_2_mbox_loc_flat"
  type: "Flatten"
  bottom: "conv7_2_mbox_loc_perm"
  top: "conv7_2_mbox_loc_flat"
  flatten_param {
    axis: 1
  }
}
layer {
  name: "conv7_2_mbox_conf"
  type: "Convolution"
  bottom: "conv7_2"
  top: "conv7_2_mbox_conf"
  param {
    lr_mult: 1
    decay_mult: 1
  }
  param {
    lr_mult: 2
    decay_mult: 0
  }
  convolution_param {
    num_output: 24
    pad: 1
    kernel_size: 3
    stride: 1
    weight_filler {
      type: "xavier"
    }
    bias_filler {
      type: "constant"
      value: 0
    }
  }
}
layer {
  name: "conv7_2_mbox_conf_perm"
  type: "Permute"
  bottom: "conv7_2_mbox_conf"
  top: "conv7_2_mbox_conf_perm"
  permute_param {
    order: 0
    order: 2
    order: 3
    order: 1
  }
}
layer {
  name: "conv7_2_mbox_conf_flat"
  type: "Flatten"
  bottom: "conv7_2_mbox_conf_perm"
  top: "conv7_2_mbox_conf_flat"
  flatten_param {
    axis: 1
  }
}
layer {
  name: "conv7_2_mbox_priorbox"
  type: "PriorBox"
  bottom: "conv7_2"
  bottom: "data"
  top: "conv7_2_mbox_priorbox"
  prior_box_param {
    min_size: 162
    max_size: 213
    aspect_ratio: 2
    aspect_ratio: 3
    flip: true
    clip: false
    variance: 0.1
    variance: 0.1
    variance: 0.2
    variance: 0.2
    step: 64
    offset: 0.5
  }
}
layer {
  name: "conv8_2_mbox_loc"
  type: "Convolution"
  bottom: "conv8_2"
  top: "conv8_2_mbox_loc"
  param {
    lr_mult: 1
    decay_mult: 1
  }
  param {
    lr_mult: 2
    decay_mult: 0
  }
  convolution_param {
    num_output: 16
    pad: 1
    kernel_size: 3
    stride: 1
    weight_filler {
      type: "xavier"
    }
    bias_filler {
      type: "constant"
      value: 0
    }
  }
}
layer {
  name: "conv8_2_mbox_loc_perm"
  type: "Permute"
  bottom: "conv8_2_mbox_loc"
  top: "conv8_2_mbox_loc_perm"
  permute_param {
    order: 0
    order: 2
    order: 3
    order: 1
  }
}
layer {
  name: "conv8_2_mbox_loc_flat"
  type: "Flatten"
  bottom: "conv8_2_mbox_loc_perm"
  top: "conv8_2_mbox_loc_flat"
  flatten_param {
    axis: 1
  }
}
layer {
  name: "conv8_2_mbox_conf"
  type: "Convolution"
  bottom: "conv8_2"
  top: "conv8_2_mbox_conf"
  param {
    lr_mult: 1
    decay_mult: 1
  }
  param {
    lr_mult: 2
    decay_mult: 0
  }
  convolution_param {
    num_output: 16
    pad: 1
    kernel_size: 3
    stride: 1
    weight_filler {
      type: "xavier"
    }
    bias_filler {
      type: "constant"
      value: 0
    }
  }
}
layer {
  name: "conv8_2_mbox_conf_perm"
  type: "Permute"
  bottom: "conv8_2_mbox_conf"
  top: "conv8_2_mbox_conf_perm"
  permute_param {
    order: 0
    order: 2
    order: 3
    order: 1
  }
}
layer {
  name: "conv8_2_mbox_conf_flat"
  type: "Flatten"
  bottom: "conv8_2_mbox_conf_perm"
  top: "conv8_2_mbox_conf_flat"
  flatten_param {
    axis: 1
  }
}
layer {
  name: "conv8_2_mbox_priorbox"
  type: "PriorBox"
  bottom: "conv8_2"
  bottom: "data"
  top: "conv8_2_mbox_priorbox"
  prior_box_param {
    min_size: 213
    max_size: 264
    aspect_ratio: 2
    flip: true
    clip: false
    variance: 0.1
    variance: 0.1
    variance: 0.2
    variance: 0.2
    step: 100
    offset: 0.5
  }
}
layer {
  name: "conv9_2_mbox_loc"
  type: "Convolution"
  bottom: "conv9_2"
  top: "conv9_2_mbox_loc"
  param {
    lr_mult: 1
    decay_mult: 1
  }
  param {
    lr_mult: 2
    decay_mult: 0
  }
  convolution_param {
    num_output: 16
    pad: 1
    kernel_size: 3
    stride: 1
    weight_filler {
      type: "xavier"
    }
    bias_filler {
      type: "constant"
      value: 0
    }
  }
}
layer {
  name: "conv9_2_mbox_loc_perm"
  type: "Permute"
  bottom: "conv9_2_mbox_loc"
  top: "conv9_2_mbox_loc_perm"
  permute_param {
    order: 0
    order: 2
    order: 3
    order: 1
  }
}
layer {
  name: "conv9_2_mbox_loc_flat"
  type: "Flatten"
  bottom: "conv9_2_mbox_loc_perm"
  top: "conv9_2_mbox_loc_flat"
  flatten_param {
    axis: 1
  }
}
layer {
  name: "conv9_2_mbox_conf"
  type: "Convolution"
  bottom: "conv9_2"
  top: "conv9_2_mbox_conf"
  param {
    lr_mult: 1
    decay_mult: 1
  }
  param {
    lr_mult: 2
    decay_mult: 0
  }
  convolution_param {
    num_output: 16
    pad: 1
    kernel_size: 3
    stride: 1
    weight_filler {
      type: "xavier"
    }
    bias_filler {
      type: "constant"
      value: 0
    }
  }
}
layer {
  name: "conv9_2_mbox_conf_perm"
  type: "Permute"
  bottom: "conv9_2_mbox_conf"
  top: "conv9_2_mbox_conf_perm"
  permute_param {
    order: 0
    order: 2
    order: 3
    order: 1
  }
}
layer {
  name: "conv9_2_mbox_conf_flat"
  type: "Flatten"
  bottom: "conv9_2_mbox_conf_perm"
  top: "conv9_2_mbox_conf_flat"
  flatten_param {
    axis: 1
  }
}
layer {
  name: "conv9_2_mbox_priorbox"
  type: "PriorBox"
  bottom: "conv9_2"
  bottom: "data"
  top: "conv9_2_mbox_priorbox"
  prior_box_param {
    min_size: 264
    max_size: 315
    aspect_ratio: 2
    flip: true
    clip: false
    variance: 0.1
    variance: 0.1
    variance: 0.2
    variance: 0.2
    step: 300
    offset: 0.5
  }
}
layer {
  name: "mbox_loc"
  type: "Concat"
  bottom: "conv4_3_norm_mbox_loc_flat"
  bottom: "fc7_mbox_loc_flat"
  bottom: "conv6_2_mbox_loc_flat"
  bottom: "conv7_2_mbox_loc_flat"
  bottom: "conv8_2_mbox_loc_flat"
  bottom: "conv9_2_mbox_loc_flat"
  top: "mbox_loc"
  concat_param {
    axis: 1
  }
}
layer {
  name: "mbox_conf"
  type: "Concat"
  bottom: "conv4_3_norm_mbox_conf_flat"
  bottom: "fc7_mbox_conf_flat"
  bottom: "conv6_2_mbox_conf_flat"
  bottom: "conv7_2_mbox_conf_flat"
  bottom: "conv8_2_mbox_conf_flat"
  bottom: "conv9_2_mbox_conf_flat"
  top: "mbox_conf"
  concat_param {
    axis: 1
  }
}
layer {
  name: "mbox_priorbox"
  type: "Concat"
  bottom: "conv4_3_norm_mbox_priorbox"
  bottom: "fc7_mbox_priorbox"
  bottom: "conv6_2_mbox_priorbox"
  bottom: "conv7_2_mbox_priorbox"
  bottom: "conv8_2_mbox_priorbox"
  bottom: "conv9_2_mbox_priorbox"
  top: "mbox_priorbox"
  concat_param {
    axis: 2
  }
}
layer {
  name: "mbox_conf_reshape"
  type: "Reshape"
  bottom: "mbox_conf"
  top: "mbox_conf_reshape"
  reshape_param {
    shape {
      dim: 0
      dim: -1
      dim: 4
    }
  }
}
layer {
  name: "mbox_conf_softmax"
  type: "Softmax"
  bottom: "mbox_conf_reshape"
  top: "mbox_conf_softmax"
  softmax_param {
    axis: 2
  }
}
layer {
  name: "mbox_conf_flatten"
  type: "Flatten"
  bottom: "mbox_conf_softmax"
  top: "mbox_conf_flatten"
  flatten_param {
    axis: 1
  }
}
layer {
  name: "detection_out"
  type: "DetectionOutput"
  bottom: "mbox_loc"
  bottom: "mbox_conf_flatten"
  bottom: "mbox_priorbox"
  top: "detection_out"
  include {
    phase: TEST
  }
  detection_output_param {
    num_classes: 4
    share_location: true
    background_label_id: 0
    nms_param {
      nms_threshold: 0.45
      top_k: 400
    }
    save_output_param {
      output_directory: "/home/shangzw/data/tbs/results/tbs/SSD_300x300/Main"
      output_name_prefix: "comp4_det_test_"
      output_format: "VOC"
      label_map_file: "data/tbs_300x300_HSIL_10x/labelmap_voc.prototxt"
      name_size_file: "data/VOC0712/test_name_size.txt"
      num_test_image: 100
    }
    code_type: CENTER_SIZE
    keep_top_k: 200
    confidence_threshold: 0.01
  }
}
layer {
  name: "detection_eval"
  type: "DetectionEvaluate"
  bottom: "detection_out"
  bottom: "label"
  top: "detection_eval"
  include {
    phase: TEST
  }
  detection_evaluate_param {
    num_classes: 4
    background_label_id: 0
    overlap_threshold: 0.5
    evaluate_difficult_gt: false
    name_size_file: "data/VOC0712/test_name_size.txt"
  }
}
I0601 17:39:04.087548  8060 layer_factory.hpp:77] Creating layer data
I0601 17:39:04.087607  8060 net.cpp:100] Creating Layer data
I0601 17:39:04.087616  8060 net.cpp:408] data -> data
I0601 17:39:04.087628  8060 net.cpp:408] data -> label
I0601 17:39:04.088167  8076 db_lmdb.cpp:35] Opened lmdb examples/tbs_300x300_HSIL_10x/tbs_300x300_HSIL_10x_test_lmdb
I0601 17:39:04.089118  8060 annotated_data_layer.cpp:62] output data size: 4,3,300,300
I0601 17:39:04.101603  8060 net.cpp:150] Setting up data
I0601 17:39:04.101662  8060 net.cpp:157] Top shape: 4 3 300 300 (1080000)
I0601 17:39:04.101680  8060 net.cpp:157] Top shape: 1 1 1 8 (8)
I0601 17:39:04.101693  8060 net.cpp:165] Memory required for data: 4320032
I0601 17:39:04.101707  8060 layer_factory.hpp:77] Creating layer data_data_0_split
I0601 17:39:04.101730  8060 net.cpp:100] Creating Layer data_data_0_split
I0601 17:39:04.101743  8060 net.cpp:434] data_data_0_split <- data
I0601 17:39:04.101759  8060 net.cpp:408] data_data_0_split -> data_data_0_split_0
I0601 17:39:04.101779  8060 net.cpp:408] data_data_0_split -> data_data_0_split_1
I0601 17:39:04.101797  8060 net.cpp:408] data_data_0_split -> data_data_0_split_2
I0601 17:39:04.101814  8060 net.cpp:408] data_data_0_split -> data_data_0_split_3
I0601 17:39:04.101830  8060 net.cpp:408] data_data_0_split -> data_data_0_split_4
I0601 17:39:04.101843  8060 net.cpp:408] data_data_0_split -> data_data_0_split_5
I0601 17:39:04.101860  8060 net.cpp:408] data_data_0_split -> data_data_0_split_6
I0601 17:39:04.101989  8060 net.cpp:150] Setting up data_data_0_split
I0601 17:39:04.102005  8060 net.cpp:157] Top shape: 4 3 300 300 (1080000)
I0601 17:39:04.102016  8060 net.cpp:157] Top shape: 4 3 300 300 (1080000)
I0601 17:39:04.102030  8060 net.cpp:157] Top shape: 4 3 300 300 (1080000)
I0601 17:39:04.102041  8060 net.cpp:157] Top shape: 4 3 300 300 (1080000)
I0601 17:39:04.102061  8060 net.cpp:157] Top shape: 4 3 300 300 (1080000)
I0601 17:39:04.102082  8060 net.cpp:157] Top shape: 4 3 300 300 (1080000)
I0601 17:39:04.102095  8060 net.cpp:157] Top shape: 4 3 300 300 (1080000)
I0601 17:39:04.102108  8060 net.cpp:165] Memory required for data: 34560032
I0601 17:39:04.102118  8060 layer_factory.hpp:77] Creating layer conv1_1
I0601 17:39:04.102135  8060 net.cpp:100] Creating Layer conv1_1
I0601 17:39:04.102149  8060 net.cpp:434] conv1_1 <- data_data_0_split_0
I0601 17:39:04.102164  8060 net.cpp:408] conv1_1 -> conv1_1
I0601 17:39:04.108638  8060 net.cpp:150] Setting up conv1_1
I0601 17:39:04.108675  8060 net.cpp:157] Top shape: 4 64 300 300 (23040000)
I0601 17:39:04.108688  8060 net.cpp:165] Memory required for data: 126720032
I0601 17:39:04.108708  8060 layer_factory.hpp:77] Creating layer relu1_1
I0601 17:39:04.108726  8060 net.cpp:100] Creating Layer relu1_1
I0601 17:39:04.108738  8060 net.cpp:434] relu1_1 <- conv1_1
I0601 17:39:04.108754  8060 net.cpp:395] relu1_1 -> conv1_1 (in-place)
I0601 17:39:04.110723  8060 net.cpp:150] Setting up relu1_1
I0601 17:39:04.110747  8060 net.cpp:157] Top shape: 4 64 300 300 (23040000)
I0601 17:39:04.110759  8060 net.cpp:165] Memory required for data: 218880032
I0601 17:39:04.110771  8060 layer_factory.hpp:77] Creating layer conv1_2
I0601 17:39:04.110791  8060 net.cpp:100] Creating Layer conv1_2
I0601 17:39:04.110803  8060 net.cpp:434] conv1_2 <- conv1_1
I0601 17:39:04.110818  8060 net.cpp:408] conv1_2 -> conv1_2
I0601 17:39:04.117768  8060 net.cpp:150] Setting up conv1_2
I0601 17:39:04.117810  8060 net.cpp:157] Top shape: 4 64 300 300 (23040000)
I0601 17:39:04.117822  8060 net.cpp:165] Memory required for data: 311040032
I0601 17:39:04.117841  8060 layer_factory.hpp:77] Creating layer relu1_2
I0601 17:39:04.117861  8060 net.cpp:100] Creating Layer relu1_2
I0601 17:39:04.117872  8060 net.cpp:434] relu1_2 <- conv1_2
I0601 17:39:04.117887  8060 net.cpp:395] relu1_2 -> conv1_2 (in-place)
I0601 17:39:04.119837  8060 net.cpp:150] Setting up relu1_2
I0601 17:39:04.119868  8060 net.cpp:157] Top shape: 4 64 300 300 (23040000)
I0601 17:39:04.119880  8060 net.cpp:165] Memory required for data: 403200032
I0601 17:39:04.119894  8060 layer_factory.hpp:77] Creating layer pool1
I0601 17:39:04.119910  8060 net.cpp:100] Creating Layer pool1
I0601 17:39:04.119921  8060 net.cpp:434] pool1 <- conv1_2
I0601 17:39:04.119935  8060 net.cpp:408] pool1 -> pool1
I0601 17:39:04.120009  8060 net.cpp:150] Setting up pool1
I0601 17:39:04.120030  8060 net.cpp:157] Top shape: 4 64 150 150 (5760000)
I0601 17:39:04.120043  8060 net.cpp:165] Memory required for data: 426240032
I0601 17:39:04.120052  8060 layer_factory.hpp:77] Creating layer conv2_1
I0601 17:39:04.120072  8060 net.cpp:100] Creating Layer conv2_1
I0601 17:39:04.120085  8060 net.cpp:434] conv2_1 <- pool1
I0601 17:39:04.120098  8060 net.cpp:408] conv2_1 -> conv2_1
I0601 17:39:04.128378  8060 net.cpp:150] Setting up conv2_1
I0601 17:39:04.128422  8060 net.cpp:157] Top shape: 4 128 150 150 (11520000)
I0601 17:39:04.128437  8060 net.cpp:165] Memory required for data: 472320032
I0601 17:39:04.128458  8060 layer_factory.hpp:77] Creating layer relu2_1
I0601 17:39:04.128478  8060 net.cpp:100] Creating Layer relu2_1
I0601 17:39:04.128491  8060 net.cpp:434] relu2_1 <- conv2_1
I0601 17:39:04.128506  8060 net.cpp:395] relu2_1 -> conv2_1 (in-place)
I0601 17:39:04.130677  8060 net.cpp:150] Setting up relu2_1
I0601 17:39:04.130710  8060 net.cpp:157] Top shape: 4 128 150 150 (11520000)
I0601 17:39:04.130724  8060 net.cpp:165] Memory required for data: 518400032
I0601 17:39:04.130736  8060 layer_factory.hpp:77] Creating layer conv2_2
I0601 17:39:04.130756  8060 net.cpp:100] Creating Layer conv2_2
I0601 17:39:04.130769  8060 net.cpp:434] conv2_2 <- conv2_1
I0601 17:39:04.130784  8060 net.cpp:408] conv2_2 -> conv2_2
I0601 17:39:04.137790  8060 net.cpp:150] Setting up conv2_2
I0601 17:39:04.137835  8060 net.cpp:157] Top shape: 4 128 150 150 (11520000)
I0601 17:39:04.137848  8060 net.cpp:165] Memory required for data: 564480032
I0601 17:39:04.137866  8060 layer_factory.hpp:77] Creating layer relu2_2
I0601 17:39:04.137899  8060 net.cpp:100] Creating Layer relu2_2
I0601 17:39:04.137912  8060 net.cpp:434] relu2_2 <- conv2_2
I0601 17:39:04.137929  8060 net.cpp:395] relu2_2 -> conv2_2 (in-place)
I0601 17:39:04.139376  8060 net.cpp:150] Setting up relu2_2
I0601 17:39:04.139402  8060 net.cpp:157] Top shape: 4 128 150 150 (11520000)
I0601 17:39:04.139415  8060 net.cpp:165] Memory required for data: 610560032
I0601 17:39:04.139426  8060 layer_factory.hpp:77] Creating layer pool2
I0601 17:39:04.139441  8060 net.cpp:100] Creating Layer pool2
I0601 17:39:04.139454  8060 net.cpp:434] pool2 <- conv2_2
I0601 17:39:04.139468  8060 net.cpp:408] pool2 -> pool2
I0601 17:39:04.139539  8060 net.cpp:150] Setting up pool2
I0601 17:39:04.139554  8060 net.cpp:157] Top shape: 4 128 75 75 (2880000)
I0601 17:39:04.139565  8060 net.cpp:165] Memory required for data: 622080032
I0601 17:39:04.139576  8060 layer_factory.hpp:77] Creating layer conv3_1
I0601 17:39:04.139596  8060 net.cpp:100] Creating Layer conv3_1
I0601 17:39:04.139607  8060 net.cpp:434] conv3_1 <- pool2
I0601 17:39:04.139622  8060 net.cpp:408] conv3_1 -> conv3_1
I0601 17:39:04.146843  8060 net.cpp:150] Setting up conv3_1
I0601 17:39:04.146886  8060 net.cpp:157] Top shape: 4 256 75 75 (5760000)
I0601 17:39:04.146901  8060 net.cpp:165] Memory required for data: 645120032
I0601 17:39:04.146924  8060 layer_factory.hpp:77] Creating layer relu3_1
I0601 17:39:04.146942  8060 net.cpp:100] Creating Layer relu3_1
I0601 17:39:04.146956  8060 net.cpp:434] relu3_1 <- conv3_1
I0601 17:39:04.146971  8060 net.cpp:395] relu3_1 -> conv3_1 (in-place)
I0601 17:39:04.150892  8060 net.cpp:150] Setting up relu3_1
I0601 17:39:04.150908  8060 net.cpp:157] Top shape: 4 256 75 75 (5760000)
I0601 17:39:04.150918  8060 net.cpp:165] Memory required for data: 668160032
I0601 17:39:04.150921  8060 layer_factory.hpp:77] Creating layer conv3_2
I0601 17:39:04.150939  8060 net.cpp:100] Creating Layer conv3_2
I0601 17:39:04.150946  8060 net.cpp:434] conv3_2 <- conv3_1
I0601 17:39:04.150964  8060 net.cpp:408] conv3_2 -> conv3_2
I0601 17:39:04.162328  8060 net.cpp:150] Setting up conv3_2
I0601 17:39:04.162349  8060 net.cpp:157] Top shape: 4 256 75 75 (5760000)
I0601 17:39:04.162360  8060 net.cpp:165] Memory required for data: 691200032
I0601 17:39:04.162370  8060 layer_factory.hpp:77] Creating layer relu3_2
I0601 17:39:04.162391  8060 net.cpp:100] Creating Layer relu3_2
I0601 17:39:04.162396  8060 net.cpp:434] relu3_2 <- conv3_2
I0601 17:39:04.162408  8060 net.cpp:395] relu3_2 -> conv3_2 (in-place)
I0601 17:39:04.163988  8060 net.cpp:150] Setting up relu3_2
I0601 17:39:04.164001  8060 net.cpp:157] Top shape: 4 256 75 75 (5760000)
I0601 17:39:04.164008  8060 net.cpp:165] Memory required for data: 714240032
I0601 17:39:04.164013  8060 layer_factory.hpp:77] Creating layer conv3_3
I0601 17:39:04.164037  8060 net.cpp:100] Creating Layer conv3_3
I0601 17:39:04.164044  8060 net.cpp:434] conv3_3 <- conv3_2
I0601 17:39:04.164057  8060 net.cpp:408] conv3_3 -> conv3_3
I0601 17:39:04.174688  8060 net.cpp:150] Setting up conv3_3
I0601 17:39:04.174707  8060 net.cpp:157] Top shape: 4 256 75 75 (5760000)
I0601 17:39:04.174711  8060 net.cpp:165] Memory required for data: 737280032
I0601 17:39:04.174721  8060 layer_factory.hpp:77] Creating layer relu3_3
I0601 17:39:04.174731  8060 net.cpp:100] Creating Layer relu3_3
I0601 17:39:04.174734  8060 net.cpp:434] relu3_3 <- conv3_3
I0601 17:39:04.174742  8060 net.cpp:395] relu3_3 -> conv3_3 (in-place)
I0601 17:39:04.176520  8060 net.cpp:150] Setting up relu3_3
I0601 17:39:04.176532  8060 net.cpp:157] Top shape: 4 256 75 75 (5760000)
I0601 17:39:04.176534  8060 net.cpp:165] Memory required for data: 760320032
I0601 17:39:04.176537  8060 layer_factory.hpp:77] Creating layer pool3
I0601 17:39:04.176543  8060 net.cpp:100] Creating Layer pool3
I0601 17:39:04.176548  8060 net.cpp:434] pool3 <- conv3_3
I0601 17:39:04.176554  8060 net.cpp:408] pool3 -> pool3
I0601 17:39:04.176620  8060 net.cpp:150] Setting up pool3
I0601 17:39:04.176630  8060 net.cpp:157] Top shape: 4 256 38 38 (1478656)
I0601 17:39:04.176650  8060 net.cpp:165] Memory required for data: 766234656
I0601 17:39:04.176656  8060 layer_factory.hpp:77] Creating layer conv4_1
I0601 17:39:04.176668  8060 net.cpp:100] Creating Layer conv4_1
I0601 17:39:04.176674  8060 net.cpp:434] conv4_1 <- pool3
I0601 17:39:04.176683  8060 net.cpp:408] conv4_1 -> conv4_1
I0601 17:39:04.188226  8060 net.cpp:150] Setting up conv4_1
I0601 17:39:04.188244  8060 net.cpp:157] Top shape: 4 512 38 38 (2957312)
I0601 17:39:04.188246  8060 net.cpp:165] Memory required for data: 778063904
I0601 17:39:04.188253  8060 layer_factory.hpp:77] Creating layer relu4_1
I0601 17:39:04.188261  8060 net.cpp:100] Creating Layer relu4_1
I0601 17:39:04.188264  8060 net.cpp:434] relu4_1 <- conv4_1
I0601 17:39:04.188269  8060 net.cpp:395] relu4_1 -> conv4_1 (in-place)
I0601 17:39:04.190086  8060 net.cpp:150] Setting up relu4_1
I0601 17:39:04.190098  8060 net.cpp:157] Top shape: 4 512 38 38 (2957312)
I0601 17:39:04.190099  8060 net.cpp:165] Memory required for data: 789893152
I0601 17:39:04.190102  8060 layer_factory.hpp:77] Creating layer conv4_2
I0601 17:39:04.190111  8060 net.cpp:100] Creating Layer conv4_2
I0601 17:39:04.190117  8060 net.cpp:434] conv4_2 <- conv4_1
I0601 17:39:04.190125  8060 net.cpp:408] conv4_2 -> conv4_2
I0601 17:39:04.207375  8060 net.cpp:150] Setting up conv4_2
I0601 17:39:04.207392  8060 net.cpp:157] Top shape: 4 512 38 38 (2957312)
I0601 17:39:04.207396  8060 net.cpp:165] Memory required for data: 801722400
I0601 17:39:04.207406  8060 layer_factory.hpp:77] Creating layer relu4_2
I0601 17:39:04.207413  8060 net.cpp:100] Creating Layer relu4_2
I0601 17:39:04.207417  8060 net.cpp:434] relu4_2 <- conv4_2
I0601 17:39:04.207424  8060 net.cpp:395] relu4_2 -> conv4_2 (in-place)
I0601 17:39:04.209556  8060 net.cpp:150] Setting up relu4_2
I0601 17:39:04.209568  8060 net.cpp:157] Top shape: 4 512 38 38 (2957312)
I0601 17:39:04.209570  8060 net.cpp:165] Memory required for data: 813551648
I0601 17:39:04.209574  8060 layer_factory.hpp:77] Creating layer conv4_3
I0601 17:39:04.209583  8060 net.cpp:100] Creating Layer conv4_3
I0601 17:39:04.209589  8060 net.cpp:434] conv4_3 <- conv4_2
I0601 17:39:04.209596  8060 net.cpp:408] conv4_3 -> conv4_3
I0601 17:39:04.227198  8060 net.cpp:150] Setting up conv4_3
I0601 17:39:04.227216  8060 net.cpp:157] Top shape: 4 512 38 38 (2957312)
I0601 17:39:04.227217  8060 net.cpp:165] Memory required for data: 825380896
I0601 17:39:04.227224  8060 layer_factory.hpp:77] Creating layer relu4_3
I0601 17:39:04.227232  8060 net.cpp:100] Creating Layer relu4_3
I0601 17:39:04.227236  8060 net.cpp:434] relu4_3 <- conv4_3
I0601 17:39:04.227257  8060 net.cpp:395] relu4_3 -> conv4_3 (in-place)
I0601 17:39:04.229373  8060 net.cpp:150] Setting up relu4_3
I0601 17:39:04.229384  8060 net.cpp:157] Top shape: 4 512 38 38 (2957312)
I0601 17:39:04.229387  8060 net.cpp:165] Memory required for data: 837210144
I0601 17:39:04.229389  8060 layer_factory.hpp:77] Creating layer conv4_3_relu4_3_0_split
I0601 17:39:04.229396  8060 net.cpp:100] Creating Layer conv4_3_relu4_3_0_split
I0601 17:39:04.229400  8060 net.cpp:434] conv4_3_relu4_3_0_split <- conv4_3
I0601 17:39:04.229410  8060 net.cpp:408] conv4_3_relu4_3_0_split -> conv4_3_relu4_3_0_split_0
I0601 17:39:04.229420  8060 net.cpp:408] conv4_3_relu4_3_0_split -> conv4_3_relu4_3_0_split_1
I0601 17:39:04.229493  8060 net.cpp:150] Setting up conv4_3_relu4_3_0_split
I0601 17:39:04.229503  8060 net.cpp:157] Top shape: 4 512 38 38 (2957312)
I0601 17:39:04.229509  8060 net.cpp:157] Top shape: 4 512 38 38 (2957312)
I0601 17:39:04.229514  8060 net.cpp:165] Memory required for data: 860868640
I0601 17:39:04.229517  8060 layer_factory.hpp:77] Creating layer pool4
I0601 17:39:04.229524  8060 net.cpp:100] Creating Layer pool4
I0601 17:39:04.229531  8060 net.cpp:434] pool4 <- conv4_3_relu4_3_0_split_0
I0601 17:39:04.229538  8060 net.cpp:408] pool4 -> pool4
I0601 17:39:04.229585  8060 net.cpp:150] Setting up pool4
I0601 17:39:04.229593  8060 net.cpp:157] Top shape: 4 512 19 19 (739328)
I0601 17:39:04.229598  8060 net.cpp:165] Memory required for data: 863825952
I0601 17:39:04.229615  8060 layer_factory.hpp:77] Creating layer conv5_1
I0601 17:39:04.229630  8060 net.cpp:100] Creating Layer conv5_1
I0601 17:39:04.229636  8060 net.cpp:434] conv5_1 <- pool4
I0601 17:39:04.229645  8060 net.cpp:408] conv5_1 -> conv5_1
I0601 17:39:04.246239  8060 net.cpp:150] Setting up conv5_1
I0601 17:39:04.246256  8060 net.cpp:157] Top shape: 4 512 19 19 (739328)
I0601 17:39:04.246259  8060 net.cpp:165] Memory required for data: 866783264
I0601 17:39:04.246266  8060 layer_factory.hpp:77] Creating layer relu5_1
I0601 17:39:04.246273  8060 net.cpp:100] Creating Layer relu5_1
I0601 17:39:04.246279  8060 net.cpp:434] relu5_1 <- conv5_1
I0601 17:39:04.246285  8060 net.cpp:395] relu5_1 -> conv5_1 (in-place)
I0601 17:39:04.248412  8060 net.cpp:150] Setting up relu5_1
I0601 17:39:04.248422  8060 net.cpp:157] Top shape: 4 512 19 19 (739328)
I0601 17:39:04.248425  8060 net.cpp:165] Memory required for data: 869740576
I0601 17:39:04.248427  8060 layer_factory.hpp:77] Creating layer conv5_2
I0601 17:39:04.248440  8060 net.cpp:100] Creating Layer conv5_2
I0601 17:39:04.248446  8060 net.cpp:434] conv5_2 <- conv5_1
I0601 17:39:04.248455  8060 net.cpp:408] conv5_2 -> conv5_2
I0601 17:39:04.265940  8060 net.cpp:150] Setting up conv5_2
I0601 17:39:04.265957  8060 net.cpp:157] Top shape: 4 512 19 19 (739328)
I0601 17:39:04.265960  8060 net.cpp:165] Memory required for data: 872697888
I0601 17:39:04.265969  8060 layer_factory.hpp:77] Creating layer relu5_2
I0601 17:39:04.265975  8060 net.cpp:100] Creating Layer relu5_2
I0601 17:39:04.265980  8060 net.cpp:434] relu5_2 <- conv5_2
I0601 17:39:04.265988  8060 net.cpp:395] relu5_2 -> conv5_2 (in-place)
I0601 17:39:04.268131  8060 net.cpp:150] Setting up relu5_2
I0601 17:39:04.268142  8060 net.cpp:157] Top shape: 4 512 19 19 (739328)
I0601 17:39:04.268146  8060 net.cpp:165] Memory required for data: 875655200
I0601 17:39:04.268149  8060 layer_factory.hpp:77] Creating layer conv5_3
I0601 17:39:04.268162  8060 net.cpp:100] Creating Layer conv5_3
I0601 17:39:04.268168  8060 net.cpp:434] conv5_3 <- conv5_2
I0601 17:39:04.268178  8060 net.cpp:408] conv5_3 -> conv5_3
I0601 17:39:04.284824  8060 net.cpp:150] Setting up conv5_3
I0601 17:39:04.284840  8060 net.cpp:157] Top shape: 4 512 19 19 (739328)
I0601 17:39:04.284843  8060 net.cpp:165] Memory required for data: 878612512
I0601 17:39:04.284852  8060 layer_factory.hpp:77] Creating layer relu5_3
I0601 17:39:04.284878  8060 net.cpp:100] Creating Layer relu5_3
I0601 17:39:04.284886  8060 net.cpp:434] relu5_3 <- conv5_3
I0601 17:39:04.284893  8060 net.cpp:395] relu5_3 -> conv5_3 (in-place)
I0601 17:39:04.287000  8060 net.cpp:150] Setting up relu5_3
I0601 17:39:04.287011  8060 net.cpp:157] Top shape: 4 512 19 19 (739328)
I0601 17:39:04.287014  8060 net.cpp:165] Memory required for data: 881569824
I0601 17:39:04.287019  8060 layer_factory.hpp:77] Creating layer pool5
I0601 17:39:04.287027  8060 net.cpp:100] Creating Layer pool5
I0601 17:39:04.287032  8060 net.cpp:434] pool5 <- conv5_3
I0601 17:39:04.287039  8060 net.cpp:408] pool5 -> pool5
I0601 17:39:04.287083  8060 net.cpp:150] Setting up pool5
I0601 17:39:04.287089  8060 net.cpp:157] Top shape: 4 512 19 19 (739328)
I0601 17:39:04.287093  8060 net.cpp:165] Memory required for data: 884527136
I0601 17:39:04.287096  8060 layer_factory.hpp:77] Creating layer fc6
I0601 17:39:04.287106  8060 net.cpp:100] Creating Layer fc6
I0601 17:39:04.287111  8060 net.cpp:434] fc6 <- pool5
I0601 17:39:04.287117  8060 net.cpp:408] fc6 -> fc6
I0601 17:39:04.310148  8060 net.cpp:150] Setting up fc6
I0601 17:39:04.310164  8060 net.cpp:157] Top shape: 4 1024 19 19 (1478656)
I0601 17:39:04.310166  8060 net.cpp:165] Memory required for data: 890441760
I0601 17:39:04.310173  8060 layer_factory.hpp:77] Creating layer relu6
I0601 17:39:04.310181  8060 net.cpp:100] Creating Layer relu6
I0601 17:39:04.310184  8060 net.cpp:434] relu6 <- fc6
I0601 17:39:04.310206  8060 net.cpp:395] relu6 -> fc6 (in-place)
I0601 17:39:04.310886  8060 net.cpp:150] Setting up relu6
I0601 17:39:04.310895  8060 net.cpp:157] Top shape: 4 1024 19 19 (1478656)
I0601 17:39:04.310910  8060 net.cpp:165] Memory required for data: 896356384
I0601 17:39:04.310914  8060 layer_factory.hpp:77] Creating layer fc7
I0601 17:39:04.310926  8060 net.cpp:100] Creating Layer fc7
I0601 17:39:04.310930  8060 net.cpp:434] fc7 <- fc6
I0601 17:39:04.310935  8060 net.cpp:408] fc7 -> fc7
I0601 17:39:04.320998  8060 net.cpp:150] Setting up fc7
I0601 17:39:04.321017  8060 net.cpp:157] Top shape: 4 1024 19 19 (1478656)
I0601 17:39:04.321019  8060 net.cpp:165] Memory required for data: 902271008
I0601 17:39:04.321025  8060 layer_factory.hpp:77] Creating layer relu7
I0601 17:39:04.321033  8060 net.cpp:100] Creating Layer relu7
I0601 17:39:04.321035  8060 net.cpp:434] relu7 <- fc7
I0601 17:39:04.321041  8060 net.cpp:395] relu7 -> fc7 (in-place)
I0601 17:39:04.323135  8060 net.cpp:150] Setting up relu7
I0601 17:39:04.323143  8060 net.cpp:157] Top shape: 4 1024 19 19 (1478656)
I0601 17:39:04.323145  8060 net.cpp:165] Memory required for data: 908185632
I0601 17:39:04.323148  8060 layer_factory.hpp:77] Creating layer fc7_relu7_0_split
I0601 17:39:04.323153  8060 net.cpp:100] Creating Layer fc7_relu7_0_split
I0601 17:39:04.323156  8060 net.cpp:434] fc7_relu7_0_split <- fc7
I0601 17:39:04.323161  8060 net.cpp:408] fc7_relu7_0_split -> fc7_relu7_0_split_0
I0601 17:39:04.323166  8060 net.cpp:408] fc7_relu7_0_split -> fc7_relu7_0_split_1
I0601 17:39:04.323176  8060 net.cpp:408] fc7_relu7_0_split -> fc7_relu7_0_split_2
I0601 17:39:04.323181  8060 net.cpp:408] fc7_relu7_0_split -> fc7_relu7_0_split_3
I0601 17:39:04.323243  8060 net.cpp:150] Setting up fc7_relu7_0_split
I0601 17:39:04.323251  8060 net.cpp:157] Top shape: 4 1024 19 19 (1478656)
I0601 17:39:04.323253  8060 net.cpp:157] Top shape: 4 1024 19 19 (1478656)
I0601 17:39:04.323256  8060 net.cpp:157] Top shape: 4 1024 19 19 (1478656)
I0601 17:39:04.323258  8060 net.cpp:157] Top shape: 4 1024 19 19 (1478656)
I0601 17:39:04.323261  8060 net.cpp:165] Memory required for data: 931844128
I0601 17:39:04.323266  8060 layer_factory.hpp:77] Creating layer conv6_1
I0601 17:39:04.323276  8060 net.cpp:100] Creating Layer conv6_1
I0601 17:39:04.323282  8060 net.cpp:434] conv6_1 <- fc7_relu7_0_split_0
I0601 17:39:04.323289  8060 net.cpp:408] conv6_1 -> conv6_1
I0601 17:39:04.330019  8060 net.cpp:150] Setting up conv6_1
I0601 17:39:04.330034  8060 net.cpp:157] Top shape: 4 256 19 19 (369664)
I0601 17:39:04.330037  8060 net.cpp:165] Memory required for data: 933322784
I0601 17:39:04.330045  8060 layer_factory.hpp:77] Creating layer conv6_1_relu
I0601 17:39:04.330054  8060 net.cpp:100] Creating Layer conv6_1_relu
I0601 17:39:04.330060  8060 net.cpp:434] conv6_1_relu <- conv6_1
I0601 17:39:04.330067  8060 net.cpp:395] conv6_1_relu -> conv6_1 (in-place)
I0601 17:39:04.332222  8060 net.cpp:150] Setting up conv6_1_relu
I0601 17:39:04.332231  8060 net.cpp:157] Top shape: 4 256 19 19 (369664)
I0601 17:39:04.332232  8060 net.cpp:165] Memory required for data: 934801440
I0601 17:39:04.332235  8060 layer_factory.hpp:77] Creating layer conv6_2
I0601 17:39:04.332244  8060 net.cpp:100] Creating Layer conv6_2
I0601 17:39:04.332247  8060 net.cpp:434] conv6_2 <- conv6_1
I0601 17:39:04.332252  8060 net.cpp:408] conv6_2 -> conv6_2
I0601 17:39:04.342644  8060 net.cpp:150] Setting up conv6_2
I0601 17:39:04.342659  8060 net.cpp:157] Top shape: 4 512 10 10 (204800)
I0601 17:39:04.342663  8060 net.cpp:165] Memory required for data: 935620640
I0601 17:39:04.342676  8060 layer_factory.hpp:77] Creating layer conv6_2_relu
I0601 17:39:04.342685  8060 net.cpp:100] Creating Layer conv6_2_relu
I0601 17:39:04.342706  8060 net.cpp:434] conv6_2_relu <- conv6_2
I0601 17:39:04.342712  8060 net.cpp:395] conv6_2_relu -> conv6_2 (in-place)
I0601 17:39:04.344800  8060 net.cpp:150] Setting up conv6_2_relu
I0601 17:39:04.344810  8060 net.cpp:157] Top shape: 4 512 10 10 (204800)
I0601 17:39:04.344811  8060 net.cpp:165] Memory required for data: 936439840
I0601 17:39:04.344815  8060 layer_factory.hpp:77] Creating layer conv6_2_conv6_2_relu_0_split
I0601 17:39:04.344823  8060 net.cpp:100] Creating Layer conv6_2_conv6_2_relu_0_split
I0601 17:39:04.344837  8060 net.cpp:434] conv6_2_conv6_2_relu_0_split <- conv6_2
I0601 17:39:04.344846  8060 net.cpp:408] conv6_2_conv6_2_relu_0_split -> conv6_2_conv6_2_relu_0_split_0
I0601 17:39:04.344854  8060 net.cpp:408] conv6_2_conv6_2_relu_0_split -> conv6_2_conv6_2_relu_0_split_1
I0601 17:39:04.344861  8060 net.cpp:408] conv6_2_conv6_2_relu_0_split -> conv6_2_conv6_2_relu_0_split_2
I0601 17:39:04.344867  8060 net.cpp:408] conv6_2_conv6_2_relu_0_split -> conv6_2_conv6_2_relu_0_split_3
I0601 17:39:04.344943  8060 net.cpp:150] Setting up conv6_2_conv6_2_relu_0_split
I0601 17:39:04.344949  8060 net.cpp:157] Top shape: 4 512 10 10 (204800)
I0601 17:39:04.344954  8060 net.cpp:157] Top shape: 4 512 10 10 (204800)
I0601 17:39:04.344959  8060 net.cpp:157] Top shape: 4 512 10 10 (204800)
I0601 17:39:04.344964  8060 net.cpp:157] Top shape: 4 512 10 10 (204800)
I0601 17:39:04.344966  8060 net.cpp:165] Memory required for data: 939716640
I0601 17:39:04.344969  8060 layer_factory.hpp:77] Creating layer conv7_1
I0601 17:39:04.344980  8060 net.cpp:100] Creating Layer conv7_1
I0601 17:39:04.344983  8060 net.cpp:434] conv7_1 <- conv6_2_conv6_2_relu_0_split_0
I0601 17:39:04.344990  8060 net.cpp:408] conv7_1 -> conv7_1
I0601 17:39:04.351817  8060 net.cpp:150] Setting up conv7_1
I0601 17:39:04.351832  8060 net.cpp:157] Top shape: 4 128 10 10 (51200)
I0601 17:39:04.351835  8060 net.cpp:165] Memory required for data: 939921440
I0601 17:39:04.351842  8060 layer_factory.hpp:77] Creating layer conv7_1_relu
I0601 17:39:04.351850  8060 net.cpp:100] Creating Layer conv7_1_relu
I0601 17:39:04.351855  8060 net.cpp:434] conv7_1_relu <- conv7_1
I0601 17:39:04.351861  8060 net.cpp:395] conv7_1_relu -> conv7_1 (in-place)
I0601 17:39:04.353988  8060 net.cpp:150] Setting up conv7_1_relu
I0601 17:39:04.353996  8060 net.cpp:157] Top shape: 4 128 10 10 (51200)
I0601 17:39:04.353998  8060 net.cpp:165] Memory required for data: 940126240
I0601 17:39:04.354001  8060 layer_factory.hpp:77] Creating layer conv7_2
I0601 17:39:04.354013  8060 net.cpp:100] Creating Layer conv7_2
I0601 17:39:04.354017  8060 net.cpp:434] conv7_2 <- conv7_1
I0601 17:39:04.354024  8060 net.cpp:408] conv7_2 -> conv7_2
I0601 17:39:04.360936  8060 net.cpp:150] Setting up conv7_2
I0601 17:39:04.360949  8060 net.cpp:157] Top shape: 4 256 5 5 (25600)
I0601 17:39:04.360952  8060 net.cpp:165] Memory required for data: 940228640
I0601 17:39:04.360960  8060 layer_factory.hpp:77] Creating layer conv7_2_relu
I0601 17:39:04.360967  8060 net.cpp:100] Creating Layer conv7_2_relu
I0601 17:39:04.360972  8060 net.cpp:434] conv7_2_relu <- conv7_2
I0601 17:39:04.360977  8060 net.cpp:395] conv7_2_relu -> conv7_2 (in-place)
I0601 17:39:04.363067  8060 net.cpp:150] Setting up conv7_2_relu
I0601 17:39:04.363075  8060 net.cpp:157] Top shape: 4 256 5 5 (25600)
I0601 17:39:04.363078  8060 net.cpp:165] Memory required for data: 940331040
I0601 17:39:04.363082  8060 layer_factory.hpp:77] Creating layer conv7_2_conv7_2_relu_0_split
I0601 17:39:04.363090  8060 net.cpp:100] Creating Layer conv7_2_conv7_2_relu_0_split
I0601 17:39:04.363093  8060 net.cpp:434] conv7_2_conv7_2_relu_0_split <- conv7_2
I0601 17:39:04.363099  8060 net.cpp:408] conv7_2_conv7_2_relu_0_split -> conv7_2_conv7_2_relu_0_split_0
I0601 17:39:04.363108  8060 net.cpp:408] conv7_2_conv7_2_relu_0_split -> conv7_2_conv7_2_relu_0_split_1
I0601 17:39:04.363116  8060 net.cpp:408] conv7_2_conv7_2_relu_0_split -> conv7_2_conv7_2_relu_0_split_2
I0601 17:39:04.363122  8060 net.cpp:408] conv7_2_conv7_2_relu_0_split -> conv7_2_conv7_2_relu_0_split_3
I0601 17:39:04.363188  8060 net.cpp:150] Setting up conv7_2_conv7_2_relu_0_split
I0601 17:39:04.363194  8060 net.cpp:157] Top shape: 4 256 5 5 (25600)
I0601 17:39:04.363199  8060 net.cpp:157] Top shape: 4 256 5 5 (25600)
I0601 17:39:04.363204  8060 net.cpp:157] Top shape: 4 256 5 5 (25600)
I0601 17:39:04.363206  8060 net.cpp:157] Top shape: 4 256 5 5 (25600)
I0601 17:39:04.363209  8060 net.cpp:165] Memory required for data: 940740640
I0601 17:39:04.363214  8060 layer_factory.hpp:77] Creating layer conv8_1
I0601 17:39:04.363235  8060 net.cpp:100] Creating Layer conv8_1
I0601 17:39:04.363240  8060 net.cpp:434] conv8_1 <- conv7_2_conv7_2_relu_0_split_0
I0601 17:39:04.363246  8060 net.cpp:408] conv8_1 -> conv8_1
I0601 17:39:04.370065  8060 net.cpp:150] Setting up conv8_1
I0601 17:39:04.370079  8060 net.cpp:157] Top shape: 4 128 5 5 (12800)
I0601 17:39:04.370082  8060 net.cpp:165] Memory required for data: 940791840
I0601 17:39:04.370090  8060 layer_factory.hpp:77] Creating layer conv8_1_relu
I0601 17:39:04.370096  8060 net.cpp:100] Creating Layer conv8_1_relu
I0601 17:39:04.370100  8060 net.cpp:434] conv8_1_relu <- conv8_1
I0601 17:39:04.370106  8060 net.cpp:395] conv8_1_relu -> conv8_1 (in-place)
I0601 17:39:04.373220  8060 net.cpp:150] Setting up conv8_1_relu
I0601 17:39:04.373235  8060 net.cpp:157] Top shape: 4 128 5 5 (12800)
I0601 17:39:04.373237  8060 net.cpp:165] Memory required for data: 940843040
I0601 17:39:04.373241  8060 layer_factory.hpp:77] Creating layer conv8_2
I0601 17:39:04.373253  8060 net.cpp:100] Creating Layer conv8_2
I0601 17:39:04.373272  8060 net.cpp:434] conv8_2 <- conv8_1
I0601 17:39:04.373281  8060 net.cpp:408] conv8_2 -> conv8_2
I0601 17:39:04.380564  8060 net.cpp:150] Setting up conv8_2
I0601 17:39:04.380581  8060 net.cpp:157] Top shape: 4 256 3 3 (9216)
I0601 17:39:04.380585  8060 net.cpp:165] Memory required for data: 940879904
I0601 17:39:04.380592  8060 layer_factory.hpp:77] Creating layer conv8_2_relu
I0601 17:39:04.380601  8060 net.cpp:100] Creating Layer conv8_2_relu
I0601 17:39:04.380607  8060 net.cpp:434] conv8_2_relu <- conv8_2
I0601 17:39:04.380614  8060 net.cpp:395] conv8_2_relu -> conv8_2 (in-place)
I0601 17:39:04.382740  8060 net.cpp:150] Setting up conv8_2_relu
I0601 17:39:04.382747  8060 net.cpp:157] Top shape: 4 256 3 3 (9216)
I0601 17:39:04.382750  8060 net.cpp:165] Memory required for data: 940916768
I0601 17:39:04.382755  8060 layer_factory.hpp:77] Creating layer conv8_2_conv8_2_relu_0_split
I0601 17:39:04.382762  8060 net.cpp:100] Creating Layer conv8_2_conv8_2_relu_0_split
I0601 17:39:04.382768  8060 net.cpp:434] conv8_2_conv8_2_relu_0_split <- conv8_2
I0601 17:39:04.382774  8060 net.cpp:408] conv8_2_conv8_2_relu_0_split -> conv8_2_conv8_2_relu_0_split_0
I0601 17:39:04.382784  8060 net.cpp:408] conv8_2_conv8_2_relu_0_split -> conv8_2_conv8_2_relu_0_split_1
I0601 17:39:04.382791  8060 net.cpp:408] conv8_2_conv8_2_relu_0_split -> conv8_2_conv8_2_relu_0_split_2
I0601 17:39:04.382798  8060 net.cpp:408] conv8_2_conv8_2_relu_0_split -> conv8_2_conv8_2_relu_0_split_3
I0601 17:39:04.382871  8060 net.cpp:150] Setting up conv8_2_conv8_2_relu_0_split
I0601 17:39:04.382877  8060 net.cpp:157] Top shape: 4 256 3 3 (9216)
I0601 17:39:04.382881  8060 net.cpp:157] Top shape: 4 256 3 3 (9216)
I0601 17:39:04.382885  8060 net.cpp:157] Top shape: 4 256 3 3 (9216)
I0601 17:39:04.382889  8060 net.cpp:157] Top shape: 4 256 3 3 (9216)
I0601 17:39:04.382894  8060 net.cpp:165] Memory required for data: 941064224
I0601 17:39:04.382896  8060 layer_factory.hpp:77] Creating layer conv9_1
I0601 17:39:04.382908  8060 net.cpp:100] Creating Layer conv9_1
I0601 17:39:04.382912  8060 net.cpp:434] conv9_1 <- conv8_2_conv8_2_relu_0_split_0
I0601 17:39:04.382920  8060 net.cpp:408] conv9_1 -> conv9_1
I0601 17:39:04.389839  8060 net.cpp:150] Setting up conv9_1
I0601 17:39:04.389852  8060 net.cpp:157] Top shape: 4 128 3 3 (4608)
I0601 17:39:04.389855  8060 net.cpp:165] Memory required for data: 941082656
I0601 17:39:04.389861  8060 layer_factory.hpp:77] Creating layer conv9_1_relu
I0601 17:39:04.389868  8060 net.cpp:100] Creating Layer conv9_1_relu
I0601 17:39:04.389870  8060 net.cpp:434] conv9_1_relu <- conv9_1
I0601 17:39:04.389874  8060 net.cpp:395] conv9_1_relu -> conv9_1 (in-place)
I0601 17:39:04.392004  8060 net.cpp:150] Setting up conv9_1_relu
I0601 17:39:04.392010  8060 net.cpp:157] Top shape: 4 128 3 3 (4608)
I0601 17:39:04.392014  8060 net.cpp:165] Memory required for data: 941101088
I0601 17:39:04.392021  8060 layer_factory.hpp:77] Creating layer conv9_2
I0601 17:39:04.392045  8060 net.cpp:100] Creating Layer conv9_2
I0601 17:39:04.392048  8060 net.cpp:434] conv9_2 <- conv9_1
I0601 17:39:04.392055  8060 net.cpp:408] conv9_2 -> conv9_2
I0601 17:39:04.398962  8060 net.cpp:150] Setting up conv9_2
I0601 17:39:04.398978  8060 net.cpp:157] Top shape: 4 256 1 1 (1024)
I0601 17:39:04.398980  8060 net.cpp:165] Memory required for data: 941105184
I0601 17:39:04.398989  8060 layer_factory.hpp:77] Creating layer conv9_2_relu
I0601 17:39:04.398998  8060 net.cpp:100] Creating Layer conv9_2_relu
I0601 17:39:04.399004  8060 net.cpp:434] conv9_2_relu <- conv9_2
I0601 17:39:04.399011  8060 net.cpp:395] conv9_2_relu -> conv9_2 (in-place)
I0601 17:39:04.401118  8060 net.cpp:150] Setting up conv9_2_relu
I0601 17:39:04.401125  8060 net.cpp:157] Top shape: 4 256 1 1 (1024)
I0601 17:39:04.401129  8060 net.cpp:165] Memory required for data: 941109280
I0601 17:39:04.401131  8060 layer_factory.hpp:77] Creating layer conv9_2_conv9_2_relu_0_split
I0601 17:39:04.401137  8060 net.cpp:100] Creating Layer conv9_2_conv9_2_relu_0_split
I0601 17:39:04.401141  8060 net.cpp:434] conv9_2_conv9_2_relu_0_split <- conv9_2
I0601 17:39:04.401149  8060 net.cpp:408] conv9_2_conv9_2_relu_0_split -> conv9_2_conv9_2_relu_0_split_0
I0601 17:39:04.401155  8060 net.cpp:408] conv9_2_conv9_2_relu_0_split -> conv9_2_conv9_2_relu_0_split_1
I0601 17:39:04.401162  8060 net.cpp:408] conv9_2_conv9_2_relu_0_split -> conv9_2_conv9_2_relu_0_split_2
I0601 17:39:04.401219  8060 net.cpp:150] Setting up conv9_2_conv9_2_relu_0_split
I0601 17:39:04.401226  8060 net.cpp:157] Top shape: 4 256 1 1 (1024)
I0601 17:39:04.401229  8060 net.cpp:157] Top shape: 4 256 1 1 (1024)
I0601 17:39:04.401233  8060 net.cpp:157] Top shape: 4 256 1 1 (1024)
I0601 17:39:04.401237  8060 net.cpp:165] Memory required for data: 941121568
I0601 17:39:04.401239  8060 layer_factory.hpp:77] Creating layer conv4_3_norm
I0601 17:39:04.401245  8060 net.cpp:100] Creating Layer conv4_3_norm
I0601 17:39:04.401249  8060 net.cpp:434] conv4_3_norm <- conv4_3_relu4_3_0_split_1
I0601 17:39:04.401257  8060 net.cpp:408] conv4_3_norm -> conv4_3_norm
I0601 17:39:04.401412  8060 net.cpp:150] Setting up conv4_3_norm
I0601 17:39:04.401418  8060 net.cpp:157] Top shape: 4 512 38 38 (2957312)
I0601 17:39:04.401422  8060 net.cpp:165] Memory required for data: 952950816
I0601 17:39:04.401427  8060 layer_factory.hpp:77] Creating layer conv4_3_norm_conv4_3_norm_0_split
I0601 17:39:04.401432  8060 net.cpp:100] Creating Layer conv4_3_norm_conv4_3_norm_0_split
I0601 17:39:04.401435  8060 net.cpp:434] conv4_3_norm_conv4_3_norm_0_split <- conv4_3_norm
I0601 17:39:04.401442  8060 net.cpp:408] conv4_3_norm_conv4_3_norm_0_split -> conv4_3_norm_conv4_3_norm_0_split_0
I0601 17:39:04.401448  8060 net.cpp:408] conv4_3_norm_conv4_3_norm_0_split -> conv4_3_norm_conv4_3_norm_0_split_1
I0601 17:39:04.401453  8060 net.cpp:408] conv4_3_norm_conv4_3_norm_0_split -> conv4_3_norm_conv4_3_norm_0_split_2
I0601 17:39:04.401499  8060 net.cpp:150] Setting up conv4_3_norm_conv4_3_norm_0_split
I0601 17:39:04.401504  8060 net.cpp:157] Top shape: 4 512 38 38 (2957312)
I0601 17:39:04.401507  8060 net.cpp:157] Top shape: 4 512 38 38 (2957312)
I0601 17:39:04.401511  8060 net.cpp:157] Top shape: 4 512 38 38 (2957312)
I0601 17:39:04.401515  8060 net.cpp:165] Memory required for data: 988438560
I0601 17:39:04.401517  8060 layer_factory.hpp:77] Creating layer conv4_3_norm_mbox_loc
I0601 17:39:04.401527  8060 net.cpp:100] Creating Layer conv4_3_norm_mbox_loc
I0601 17:39:04.401531  8060 net.cpp:434] conv4_3_norm_mbox_loc <- conv4_3_norm_conv4_3_norm_0_split_0
I0601 17:39:04.401537  8060 net.cpp:408] conv4_3_norm_mbox_loc -> conv4_3_norm_mbox_loc
I0601 17:39:04.409461  8060 net.cpp:150] Setting up conv4_3_norm_mbox_loc
I0601 17:39:04.409474  8060 net.cpp:157] Top shape: 4 16 38 38 (92416)
I0601 17:39:04.409477  8060 net.cpp:165] Memory required for data: 988808224
I0601 17:39:04.409485  8060 layer_factory.hpp:77] Creating layer conv4_3_norm_mbox_loc_perm
I0601 17:39:04.409494  8060 net.cpp:100] Creating Layer conv4_3_norm_mbox_loc_perm
I0601 17:39:04.409525  8060 net.cpp:434] conv4_3_norm_mbox_loc_perm <- conv4_3_norm_mbox_loc
I0601 17:39:04.409531  8060 net.cpp:408] conv4_3_norm_mbox_loc_perm -> conv4_3_norm_mbox_loc_perm
I0601 17:39:04.409657  8060 net.cpp:150] Setting up conv4_3_norm_mbox_loc_perm
I0601 17:39:04.409663  8060 net.cpp:157] Top shape: 4 38 38 16 (92416)
I0601 17:39:04.409667  8060 net.cpp:165] Memory required for data: 989177888
I0601 17:39:04.409670  8060 layer_factory.hpp:77] Creating layer conv4_3_norm_mbox_loc_flat
I0601 17:39:04.409677  8060 net.cpp:100] Creating Layer conv4_3_norm_mbox_loc_flat
I0601 17:39:04.409682  8060 net.cpp:434] conv4_3_norm_mbox_loc_flat <- conv4_3_norm_mbox_loc_perm
I0601 17:39:04.409688  8060 net.cpp:408] conv4_3_norm_mbox_loc_flat -> conv4_3_norm_mbox_loc_flat
I0601 17:39:04.409730  8060 net.cpp:150] Setting up conv4_3_norm_mbox_loc_flat
I0601 17:39:04.409739  8060 net.cpp:157] Top shape: 4 23104 (92416)
I0601 17:39:04.409741  8060 net.cpp:165] Memory required for data: 989547552
I0601 17:39:04.409745  8060 layer_factory.hpp:77] Creating layer conv4_3_norm_mbox_conf
I0601 17:39:04.409762  8060 net.cpp:100] Creating Layer conv4_3_norm_mbox_conf
I0601 17:39:04.409768  8060 net.cpp:434] conv4_3_norm_mbox_conf <- conv4_3_norm_conv4_3_norm_0_split_1
I0601 17:39:04.409775  8060 net.cpp:408] conv4_3_norm_mbox_conf -> conv4_3_norm_mbox_conf
I0601 17:39:04.418342  8060 net.cpp:150] Setting up conv4_3_norm_mbox_conf
I0601 17:39:04.418355  8060 net.cpp:157] Top shape: 4 16 38 38 (92416)
I0601 17:39:04.418359  8060 net.cpp:165] Memory required for data: 989917216
I0601 17:39:04.418368  8060 layer_factory.hpp:77] Creating layer conv4_3_norm_mbox_conf_perm
I0601 17:39:04.418375  8060 net.cpp:100] Creating Layer conv4_3_norm_mbox_conf_perm
I0601 17:39:04.418385  8060 net.cpp:434] conv4_3_norm_mbox_conf_perm <- conv4_3_norm_mbox_conf
I0601 17:39:04.418392  8060 net.cpp:408] conv4_3_norm_mbox_conf_perm -> conv4_3_norm_mbox_conf_perm
I0601 17:39:04.418501  8060 net.cpp:150] Setting up conv4_3_norm_mbox_conf_perm
I0601 17:39:04.418509  8060 net.cpp:157] Top shape: 4 38 38 16 (92416)
I0601 17:39:04.418511  8060 net.cpp:165] Memory required for data: 990286880
I0601 17:39:04.418515  8060 layer_factory.hpp:77] Creating layer conv4_3_norm_mbox_conf_flat
I0601 17:39:04.418521  8060 net.cpp:100] Creating Layer conv4_3_norm_mbox_conf_flat
I0601 17:39:04.418529  8060 net.cpp:434] conv4_3_norm_mbox_conf_flat <- conv4_3_norm_mbox_conf_perm
I0601 17:39:04.418535  8060 net.cpp:408] conv4_3_norm_mbox_conf_flat -> conv4_3_norm_mbox_conf_flat
I0601 17:39:04.418563  8060 net.cpp:150] Setting up conv4_3_norm_mbox_conf_flat
I0601 17:39:04.418570  8060 net.cpp:157] Top shape: 4 23104 (92416)
I0601 17:39:04.418572  8060 net.cpp:165] Memory required for data: 990656544
I0601 17:39:04.418576  8060 layer_factory.hpp:77] Creating layer conv4_3_norm_mbox_priorbox
I0601 17:39:04.418583  8060 net.cpp:100] Creating Layer conv4_3_norm_mbox_priorbox
I0601 17:39:04.418587  8060 net.cpp:434] conv4_3_norm_mbox_priorbox <- conv4_3_norm_conv4_3_norm_0_split_2
I0601 17:39:04.418593  8060 net.cpp:434] conv4_3_norm_mbox_priorbox <- data_data_0_split_1
I0601 17:39:04.418601  8060 net.cpp:408] conv4_3_norm_mbox_priorbox -> conv4_3_norm_mbox_priorbox
I0601 17:39:04.418633  8060 net.cpp:150] Setting up conv4_3_norm_mbox_priorbox
I0601 17:39:04.418639  8060 net.cpp:157] Top shape: 1 2 23104 (46208)
I0601 17:39:04.418643  8060 net.cpp:165] Memory required for data: 990841376
I0601 17:39:04.418647  8060 layer_factory.hpp:77] Creating layer fc7_mbox_loc
I0601 17:39:04.418658  8060 net.cpp:100] Creating Layer fc7_mbox_loc
I0601 17:39:04.418661  8060 net.cpp:434] fc7_mbox_loc <- fc7_relu7_0_split_1
I0601 17:39:04.418668  8060 net.cpp:408] fc7_mbox_loc -> fc7_mbox_loc
I0601 17:39:04.424762  8060 net.cpp:150] Setting up fc7_mbox_loc
I0601 17:39:04.424772  8060 net.cpp:157] Top shape: 4 24 19 19 (34656)
I0601 17:39:04.424777  8060 net.cpp:165] Memory required for data: 990980000
I0601 17:39:04.424784  8060 layer_factory.hpp:77] Creating layer fc7_mbox_loc_perm
I0601 17:39:04.424793  8060 net.cpp:100] Creating Layer fc7_mbox_loc_perm
I0601 17:39:04.424808  8060 net.cpp:434] fc7_mbox_loc_perm <- fc7_mbox_loc
I0601 17:39:04.424818  8060 net.cpp:408] fc7_mbox_loc_perm -> fc7_mbox_loc_perm
I0601 17:39:04.424937  8060 net.cpp:150] Setting up fc7_mbox_loc_perm
I0601 17:39:04.424947  8060 net.cpp:157] Top shape: 4 19 19 24 (34656)
I0601 17:39:04.424950  8060 net.cpp:165] Memory required for data: 991118624
I0601 17:39:04.424954  8060 layer_factory.hpp:77] Creating layer fc7_mbox_loc_flat
I0601 17:39:04.424960  8060 net.cpp:100] Creating Layer fc7_mbox_loc_flat
I0601 17:39:04.424964  8060 net.cpp:434] fc7_mbox_loc_flat <- fc7_mbox_loc_perm
I0601 17:39:04.424973  8060 net.cpp:408] fc7_mbox_loc_flat -> fc7_mbox_loc_flat
I0601 17:39:04.425000  8060 net.cpp:150] Setting up fc7_mbox_loc_flat
I0601 17:39:04.425006  8060 net.cpp:157] Top shape: 4 8664 (34656)
I0601 17:39:04.425009  8060 net.cpp:165] Memory required for data: 991257248
I0601 17:39:04.425014  8060 layer_factory.hpp:77] Creating layer fc7_mbox_conf
I0601 17:39:04.425024  8060 net.cpp:100] Creating Layer fc7_mbox_conf
I0601 17:39:04.425029  8060 net.cpp:434] fc7_mbox_conf <- fc7_relu7_0_split_2
I0601 17:39:04.425037  8060 net.cpp:408] fc7_mbox_conf -> fc7_mbox_conf
I0601 17:39:04.444324  8060 net.cpp:150] Setting up fc7_mbox_conf
I0601 17:39:04.444340  8060 net.cpp:157] Top shape: 4 24 19 19 (34656)
I0601 17:39:04.444344  8060 net.cpp:165] Memory required for data: 991395872
I0601 17:39:04.444352  8060 layer_factory.hpp:77] Creating layer fc7_mbox_conf_perm
I0601 17:39:04.444392  8060 net.cpp:100] Creating Layer fc7_mbox_conf_perm
I0601 17:39:04.444399  8060 net.cpp:434] fc7_mbox_conf_perm <- fc7_mbox_conf
I0601 17:39:04.444409  8060 net.cpp:408] fc7_mbox_conf_perm -> fc7_mbox_conf_perm
I0601 17:39:04.444524  8060 net.cpp:150] Setting up fc7_mbox_conf_perm
I0601 17:39:04.444530  8060 net.cpp:157] Top shape: 4 19 19 24 (34656)
I0601 17:39:04.444533  8060 net.cpp:165] Memory required for data: 991534496
I0601 17:39:04.444537  8060 layer_factory.hpp:77] Creating layer fc7_mbox_conf_flat
I0601 17:39:04.444543  8060 net.cpp:100] Creating Layer fc7_mbox_conf_flat
I0601 17:39:04.444548  8060 net.cpp:434] fc7_mbox_conf_flat <- fc7_mbox_conf_perm
I0601 17:39:04.444555  8060 net.cpp:408] fc7_mbox_conf_flat -> fc7_mbox_conf_flat
I0601 17:39:04.444582  8060 net.cpp:150] Setting up fc7_mbox_conf_flat
I0601 17:39:04.444589  8060 net.cpp:157] Top shape: 4 8664 (34656)
I0601 17:39:04.444593  8060 net.cpp:165] Memory required for data: 991673120
I0601 17:39:04.444597  8060 layer_factory.hpp:77] Creating layer fc7_mbox_priorbox
I0601 17:39:04.444603  8060 net.cpp:100] Creating Layer fc7_mbox_priorbox
I0601 17:39:04.444608  8060 net.cpp:434] fc7_mbox_priorbox <- fc7_relu7_0_split_3
I0601 17:39:04.444614  8060 net.cpp:434] fc7_mbox_priorbox <- data_data_0_split_2
I0601 17:39:04.444622  8060 net.cpp:408] fc7_mbox_priorbox -> fc7_mbox_priorbox
I0601 17:39:04.444654  8060 net.cpp:150] Setting up fc7_mbox_priorbox
I0601 17:39:04.444660  8060 net.cpp:157] Top shape: 1 2 8664 (17328)
I0601 17:39:04.444664  8060 net.cpp:165] Memory required for data: 991742432
I0601 17:39:04.444669  8060 layer_factory.hpp:77] Creating layer conv6_2_mbox_loc
I0601 17:39:04.444679  8060 net.cpp:100] Creating Layer conv6_2_mbox_loc
I0601 17:39:04.444684  8060 net.cpp:434] conv6_2_mbox_loc <- conv6_2_conv6_2_relu_0_split_1
I0601 17:39:04.444691  8060 net.cpp:408] conv6_2_mbox_loc -> conv6_2_mbox_loc
I0601 17:39:04.448753  8060 net.cpp:150] Setting up conv6_2_mbox_loc
I0601 17:39:04.448767  8060 net.cpp:157] Top shape: 4 24 10 10 (9600)
I0601 17:39:04.448771  8060 net.cpp:165] Memory required for data: 991780832
I0601 17:39:04.448781  8060 layer_factory.hpp:77] Creating layer conv6_2_mbox_loc_perm
I0601 17:39:04.448791  8060 net.cpp:100] Creating Layer conv6_2_mbox_loc_perm
I0601 17:39:04.448797  8060 net.cpp:434] conv6_2_mbox_loc_perm <- conv6_2_mbox_loc
I0601 17:39:04.448806  8060 net.cpp:408] conv6_2_mbox_loc_perm -> conv6_2_mbox_loc_perm
I0601 17:39:04.448918  8060 net.cpp:150] Setting up conv6_2_mbox_loc_perm
I0601 17:39:04.448933  8060 net.cpp:157] Top shape: 4 10 10 24 (9600)
I0601 17:39:04.448936  8060 net.cpp:165] Memory required for data: 991819232
I0601 17:39:04.448940  8060 layer_factory.hpp:77] Creating layer conv6_2_mbox_loc_flat
I0601 17:39:04.448946  8060 net.cpp:100] Creating Layer conv6_2_mbox_loc_flat
I0601 17:39:04.448952  8060 net.cpp:434] conv6_2_mbox_loc_flat <- conv6_2_mbox_loc_perm
I0601 17:39:04.448958  8060 net.cpp:408] conv6_2_mbox_loc_flat -> conv6_2_mbox_loc_flat
I0601 17:39:04.448985  8060 net.cpp:150] Setting up conv6_2_mbox_loc_flat
I0601 17:39:04.448992  8060 net.cpp:157] Top shape: 4 2400 (9600)
I0601 17:39:04.448994  8060 net.cpp:165] Memory required for data: 991857632
I0601 17:39:04.448998  8060 layer_factory.hpp:77] Creating layer conv6_2_mbox_conf
I0601 17:39:04.449009  8060 net.cpp:100] Creating Layer conv6_2_mbox_conf
I0601 17:39:04.449014  8060 net.cpp:434] conv6_2_mbox_conf <- conv6_2_conv6_2_relu_0_split_2
I0601 17:39:04.449023  8060 net.cpp:408] conv6_2_mbox_conf -> conv6_2_mbox_conf
I0601 17:39:04.455628  8060 net.cpp:150] Setting up conv6_2_mbox_conf
I0601 17:39:04.455644  8060 net.cpp:157] Top shape: 4 24 10 10 (9600)
I0601 17:39:04.455648  8060 net.cpp:165] Memory required for data: 991896032
I0601 17:39:04.455657  8060 layer_factory.hpp:77] Creating layer conv6_2_mbox_conf_perm
I0601 17:39:04.455668  8060 net.cpp:100] Creating Layer conv6_2_mbox_conf_perm
I0601 17:39:04.455675  8060 net.cpp:434] conv6_2_mbox_conf_perm <- conv6_2_mbox_conf
I0601 17:39:04.455682  8060 net.cpp:408] conv6_2_mbox_conf_perm -> conv6_2_mbox_conf_perm
I0601 17:39:04.455804  8060 net.cpp:150] Setting up conv6_2_mbox_conf_perm
I0601 17:39:04.455811  8060 net.cpp:157] Top shape: 4 10 10 24 (9600)
I0601 17:39:04.455816  8060 net.cpp:165] Memory required for data: 991934432
I0601 17:39:04.455818  8060 layer_factory.hpp:77] Creating layer conv6_2_mbox_conf_flat
I0601 17:39:04.455826  8060 net.cpp:100] Creating Layer conv6_2_mbox_conf_flat
I0601 17:39:04.455829  8060 net.cpp:434] conv6_2_mbox_conf_flat <- conv6_2_mbox_conf_perm
I0601 17:39:04.455837  8060 net.cpp:408] conv6_2_mbox_conf_flat -> conv6_2_mbox_conf_flat
I0601 17:39:04.455864  8060 net.cpp:150] Setting up conv6_2_mbox_conf_flat
I0601 17:39:04.455870  8060 net.cpp:157] Top shape: 4 2400 (9600)
I0601 17:39:04.455874  8060 net.cpp:165] Memory required for data: 991972832
I0601 17:39:04.455878  8060 layer_factory.hpp:77] Creating layer conv6_2_mbox_priorbox
I0601 17:39:04.455884  8060 net.cpp:100] Creating Layer conv6_2_mbox_priorbox
I0601 17:39:04.455889  8060 net.cpp:434] conv6_2_mbox_priorbox <- conv6_2_conv6_2_relu_0_split_3
I0601 17:39:04.455896  8060 net.cpp:434] conv6_2_mbox_priorbox <- data_data_0_split_3
I0601 17:39:04.455905  8060 net.cpp:408] conv6_2_mbox_priorbox -> conv6_2_mbox_priorbox
I0601 17:39:04.455936  8060 net.cpp:150] Setting up conv6_2_mbox_priorbox
I0601 17:39:04.455942  8060 net.cpp:157] Top shape: 1 2 2400 (4800)
I0601 17:39:04.455947  8060 net.cpp:165] Memory required for data: 991992032
I0601 17:39:04.455950  8060 layer_factory.hpp:77] Creating layer conv7_2_mbox_loc
I0601 17:39:04.455961  8060 net.cpp:100] Creating Layer conv7_2_mbox_loc
I0601 17:39:04.455965  8060 net.cpp:434] conv7_2_mbox_loc <- conv7_2_conv7_2_relu_0_split_1
I0601 17:39:04.455973  8060 net.cpp:408] conv7_2_mbox_loc -> conv7_2_mbox_loc
I0601 17:39:04.463433  8060 net.cpp:150] Setting up conv7_2_mbox_loc
I0601 17:39:04.463452  8060 net.cpp:157] Top shape: 4 24 5 5 (2400)
I0601 17:39:04.463455  8060 net.cpp:165] Memory required for data: 992001632
I0601 17:39:04.463464  8060 layer_factory.hpp:77] Creating layer conv7_2_mbox_loc_perm
I0601 17:39:04.463475  8060 net.cpp:100] Creating Layer conv7_2_mbox_loc_perm
I0601 17:39:04.463490  8060 net.cpp:434] conv7_2_mbox_loc_perm <- conv7_2_mbox_loc
I0601 17:39:04.463500  8060 net.cpp:408] conv7_2_mbox_loc_perm -> conv7_2_mbox_loc_perm
I0601 17:39:04.463670  8060 net.cpp:150] Setting up conv7_2_mbox_loc_perm
I0601 17:39:04.463681  8060 net.cpp:157] Top shape: 4 5 5 24 (2400)
I0601 17:39:04.463685  8060 net.cpp:165] Memory required for data: 992011232
I0601 17:39:04.463699  8060 layer_factory.hpp:77] Creating layer conv7_2_mbox_loc_flat
I0601 17:39:04.463711  8060 net.cpp:100] Creating Layer conv7_2_mbox_loc_flat
I0601 17:39:04.463716  8060 net.cpp:434] conv7_2_mbox_loc_flat <- conv7_2_mbox_loc_perm
I0601 17:39:04.463722  8060 net.cpp:408] conv7_2_mbox_loc_flat -> conv7_2_mbox_loc_flat
I0601 17:39:04.463757  8060 net.cpp:150] Setting up conv7_2_mbox_loc_flat
I0601 17:39:04.463766  8060 net.cpp:157] Top shape: 4 600 (2400)
I0601 17:39:04.463769  8060 net.cpp:165] Memory required for data: 992020832
I0601 17:39:04.463773  8060 layer_factory.hpp:77] Creating layer conv7_2_mbox_conf
I0601 17:39:04.463785  8060 net.cpp:100] Creating Layer conv7_2_mbox_conf
I0601 17:39:04.463793  8060 net.cpp:434] conv7_2_mbox_conf <- conv7_2_conv7_2_relu_0_split_2
I0601 17:39:04.463801  8060 net.cpp:408] conv7_2_mbox_conf -> conv7_2_mbox_conf
I0601 17:39:04.469415  8060 net.cpp:150] Setting up conv7_2_mbox_conf
I0601 17:39:04.469434  8060 net.cpp:157] Top shape: 4 24 5 5 (2400)
I0601 17:39:04.469439  8060 net.cpp:165] Memory required for data: 992030432
I0601 17:39:04.469447  8060 layer_factory.hpp:77] Creating layer conv7_2_mbox_conf_perm
I0601 17:39:04.469460  8060 net.cpp:100] Creating Layer conv7_2_mbox_conf_perm
I0601 17:39:04.469465  8060 net.cpp:434] conv7_2_mbox_conf_perm <- conv7_2_mbox_conf
I0601 17:39:04.469475  8060 net.cpp:408] conv7_2_mbox_conf_perm -> conv7_2_mbox_conf_perm
I0601 17:39:04.469657  8060 net.cpp:150] Setting up conv7_2_mbox_conf_perm
I0601 17:39:04.469681  8060 net.cpp:157] Top shape: 4 5 5 24 (2400)
I0601 17:39:04.469696  8060 net.cpp:165] Memory required for data: 992040032
I0601 17:39:04.469709  8060 layer_factory.hpp:77] Creating layer conv7_2_mbox_conf_flat
I0601 17:39:04.469724  8060 net.cpp:100] Creating Layer conv7_2_mbox_conf_flat
I0601 17:39:04.469738  8060 net.cpp:434] conv7_2_mbox_conf_flat <- conv7_2_mbox_conf_perm
I0601 17:39:04.469754  8060 net.cpp:408] conv7_2_mbox_conf_flat -> conv7_2_mbox_conf_flat
I0601 17:39:04.469804  8060 net.cpp:150] Setting up conv7_2_mbox_conf_flat
I0601 17:39:04.469820  8060 net.cpp:157] Top shape: 4 600 (2400)
I0601 17:39:04.469831  8060 net.cpp:165] Memory required for data: 992049632
I0601 17:39:04.469843  8060 layer_factory.hpp:77] Creating layer conv7_2_mbox_priorbox
I0601 17:39:04.469862  8060 net.cpp:100] Creating Layer conv7_2_mbox_priorbox
I0601 17:39:04.469877  8060 net.cpp:434] conv7_2_mbox_priorbox <- conv7_2_conv7_2_relu_0_split_3
I0601 17:39:04.469892  8060 net.cpp:434] conv7_2_mbox_priorbox <- data_data_0_split_4
I0601 17:39:04.469908  8060 net.cpp:408] conv7_2_mbox_priorbox -> conv7_2_mbox_priorbox
I0601 17:39:04.469959  8060 net.cpp:150] Setting up conv7_2_mbox_priorbox
I0601 17:39:04.469977  8060 net.cpp:157] Top shape: 1 2 600 (1200)
I0601 17:39:04.469990  8060 net.cpp:165] Memory required for data: 992054432
I0601 17:39:04.470002  8060 layer_factory.hpp:77] Creating layer conv8_2_mbox_loc
I0601 17:39:04.470026  8060 net.cpp:100] Creating Layer conv8_2_mbox_loc
I0601 17:39:04.470041  8060 net.cpp:434] conv8_2_mbox_loc <- conv8_2_conv8_2_relu_0_split_1
I0601 17:39:04.470059  8060 net.cpp:408] conv8_2_mbox_loc -> conv8_2_mbox_loc
I0601 17:39:04.477432  8060 net.cpp:150] Setting up conv8_2_mbox_loc
I0601 17:39:04.477452  8060 net.cpp:157] Top shape: 4 16 3 3 (576)
I0601 17:39:04.477454  8060 net.cpp:165] Memory required for data: 992056736
I0601 17:39:04.477476  8060 layer_factory.hpp:77] Creating layer conv8_2_mbox_loc_perm
I0601 17:39:04.477488  8060 net.cpp:100] Creating Layer conv8_2_mbox_loc_perm
I0601 17:39:04.477495  8060 net.cpp:434] conv8_2_mbox_loc_perm <- conv8_2_mbox_loc
I0601 17:39:04.477505  8060 net.cpp:408] conv8_2_mbox_loc_perm -> conv8_2_mbox_loc_perm
I0601 17:39:04.477663  8060 net.cpp:150] Setting up conv8_2_mbox_loc_perm
I0601 17:39:04.477674  8060 net.cpp:157] Top shape: 4 3 3 16 (576)
I0601 17:39:04.477677  8060 net.cpp:165] Memory required for data: 992059040
I0601 17:39:04.477681  8060 layer_factory.hpp:77] Creating layer conv8_2_mbox_loc_flat
I0601 17:39:04.477697  8060 net.cpp:100] Creating Layer conv8_2_mbox_loc_flat
I0601 17:39:04.477702  8060 net.cpp:434] conv8_2_mbox_loc_flat <- conv8_2_mbox_loc_perm
I0601 17:39:04.477710  8060 net.cpp:408] conv8_2_mbox_loc_flat -> conv8_2_mbox_loc_flat
I0601 17:39:04.477747  8060 net.cpp:150] Setting up conv8_2_mbox_loc_flat
I0601 17:39:04.477757  8060 net.cpp:157] Top shape: 4 144 (576)
I0601 17:39:04.477761  8060 net.cpp:165] Memory required for data: 992061344
I0601 17:39:04.477764  8060 layer_factory.hpp:77] Creating layer conv8_2_mbox_conf
I0601 17:39:04.477777  8060 net.cpp:100] Creating Layer conv8_2_mbox_conf
I0601 17:39:04.477783  8060 net.cpp:434] conv8_2_mbox_conf <- conv8_2_conv8_2_relu_0_split_2
I0601 17:39:04.477792  8060 net.cpp:408] conv8_2_mbox_conf -> conv8_2_mbox_conf
I0601 17:39:04.484614  8060 net.cpp:150] Setting up conv8_2_mbox_conf
I0601 17:39:04.484634  8060 net.cpp:157] Top shape: 4 16 3 3 (576)
I0601 17:39:04.484637  8060 net.cpp:165] Memory required for data: 992063648
I0601 17:39:04.484647  8060 layer_factory.hpp:77] Creating layer conv8_2_mbox_conf_perm
I0601 17:39:04.484658  8060 net.cpp:100] Creating Layer conv8_2_mbox_conf_perm
I0601 17:39:04.484678  8060 net.cpp:434] conv8_2_mbox_conf_perm <- conv8_2_mbox_conf
I0601 17:39:04.484697  8060 net.cpp:408] conv8_2_mbox_conf_perm -> conv8_2_mbox_conf_perm
I0601 17:39:04.484853  8060 net.cpp:150] Setting up conv8_2_mbox_conf_perm
I0601 17:39:04.484874  8060 net.cpp:157] Top shape: 4 3 3 16 (576)
I0601 17:39:04.484885  8060 net.cpp:165] Memory required for data: 992065952
I0601 17:39:04.484896  8060 layer_factory.hpp:77] Creating layer conv8_2_mbox_conf_flat
I0601 17:39:04.484915  8060 net.cpp:100] Creating Layer conv8_2_mbox_conf_flat
I0601 17:39:04.484927  8060 net.cpp:434] conv8_2_mbox_conf_flat <- conv8_2_mbox_conf_perm
I0601 17:39:04.484943  8060 net.cpp:408] conv8_2_mbox_conf_flat -> conv8_2_mbox_conf_flat
I0601 17:39:04.484988  8060 net.cpp:150] Setting up conv8_2_mbox_conf_flat
I0601 17:39:04.485002  8060 net.cpp:157] Top shape: 4 144 (576)
I0601 17:39:04.485013  8060 net.cpp:165] Memory required for data: 992068256
I0601 17:39:04.485025  8060 layer_factory.hpp:77] Creating layer conv8_2_mbox_priorbox
I0601 17:39:04.485040  8060 net.cpp:100] Creating Layer conv8_2_mbox_priorbox
I0601 17:39:04.485052  8060 net.cpp:434] conv8_2_mbox_priorbox <- conv8_2_conv8_2_relu_0_split_3
I0601 17:39:04.485065  8060 net.cpp:434] conv8_2_mbox_priorbox <- data_data_0_split_5
I0601 17:39:04.485080  8060 net.cpp:408] conv8_2_mbox_priorbox -> conv8_2_mbox_priorbox
I0601 17:39:04.485133  8060 net.cpp:150] Setting up conv8_2_mbox_priorbox
I0601 17:39:04.485147  8060 net.cpp:157] Top shape: 1 2 144 (288)
I0601 17:39:04.485159  8060 net.cpp:165] Memory required for data: 992069408
I0601 17:39:04.485172  8060 layer_factory.hpp:77] Creating layer conv9_2_mbox_loc
I0601 17:39:04.485194  8060 net.cpp:100] Creating Layer conv9_2_mbox_loc
I0601 17:39:04.485208  8060 net.cpp:434] conv9_2_mbox_loc <- conv9_2_conv9_2_relu_0_split_0
I0601 17:39:04.485225  8060 net.cpp:408] conv9_2_mbox_loc -> conv9_2_mbox_loc
I0601 17:39:04.491852  8060 net.cpp:150] Setting up conv9_2_mbox_loc
I0601 17:39:04.491871  8060 net.cpp:157] Top shape: 4 16 1 1 (64)
I0601 17:39:04.491874  8060 net.cpp:165] Memory required for data: 992069664
I0601 17:39:04.491883  8060 layer_factory.hpp:77] Creating layer conv9_2_mbox_loc_perm
I0601 17:39:04.491895  8060 net.cpp:100] Creating Layer conv9_2_mbox_loc_perm
I0601 17:39:04.491904  8060 net.cpp:434] conv9_2_mbox_loc_perm <- conv9_2_mbox_loc
I0601 17:39:04.491911  8060 net.cpp:408] conv9_2_mbox_loc_perm -> conv9_2_mbox_loc_perm
I0601 17:39:04.492074  8060 net.cpp:150] Setting up conv9_2_mbox_loc_perm
I0601 17:39:04.492099  8060 net.cpp:157] Top shape: 4 1 1 16 (64)
I0601 17:39:04.492113  8060 net.cpp:165] Memory required for data: 992069920
I0601 17:39:04.492126  8060 layer_factory.hpp:77] Creating layer conv9_2_mbox_loc_flat
I0601 17:39:04.492144  8060 net.cpp:100] Creating Layer conv9_2_mbox_loc_flat
I0601 17:39:04.492166  8060 net.cpp:434] conv9_2_mbox_loc_flat <- conv9_2_mbox_loc_perm
I0601 17:39:04.492190  8060 net.cpp:408] conv9_2_mbox_loc_flat -> conv9_2_mbox_loc_flat
I0601 17:39:04.492239  8060 net.cpp:150] Setting up conv9_2_mbox_loc_flat
I0601 17:39:04.492255  8060 net.cpp:157] Top shape: 4 16 (64)
I0601 17:39:04.492267  8060 net.cpp:165] Memory required for data: 992070176
I0601 17:39:04.492281  8060 layer_factory.hpp:77] Creating layer conv9_2_mbox_conf
I0601 17:39:04.492301  8060 net.cpp:100] Creating Layer conv9_2_mbox_conf
I0601 17:39:04.492316  8060 net.cpp:434] conv9_2_mbox_conf <- conv9_2_conv9_2_relu_0_split_1
I0601 17:39:04.492334  8060 net.cpp:408] conv9_2_mbox_conf -> conv9_2_mbox_conf
I0601 17:39:04.498484  8060 net.cpp:150] Setting up conv9_2_mbox_conf
I0601 17:39:04.498502  8060 net.cpp:157] Top shape: 4 16 1 1 (64)
I0601 17:39:04.498504  8060 net.cpp:165] Memory required for data: 992070432
I0601 17:39:04.498513  8060 layer_factory.hpp:77] Creating layer conv9_2_mbox_conf_perm
I0601 17:39:04.498524  8060 net.cpp:100] Creating Layer conv9_2_mbox_conf_perm
I0601 17:39:04.498531  8060 net.cpp:434] conv9_2_mbox_conf_perm <- conv9_2_mbox_conf
I0601 17:39:04.498540  8060 net.cpp:408] conv9_2_mbox_conf_perm -> conv9_2_mbox_conf_perm
I0601 17:39:04.498703  8060 net.cpp:150] Setting up conv9_2_mbox_conf_perm
I0601 17:39:04.498715  8060 net.cpp:157] Top shape: 4 1 1 16 (64)
I0601 17:39:04.498719  8060 net.cpp:165] Memory required for data: 992070688
I0601 17:39:04.498723  8060 layer_factory.hpp:77] Creating layer conv9_2_mbox_conf_flat
I0601 17:39:04.498730  8060 net.cpp:100] Creating Layer conv9_2_mbox_conf_flat
I0601 17:39:04.498736  8060 net.cpp:434] conv9_2_mbox_conf_flat <- conv9_2_mbox_conf_perm
I0601 17:39:04.498744  8060 net.cpp:408] conv9_2_mbox_conf_flat -> conv9_2_mbox_conf_flat
I0601 17:39:04.498780  8060 net.cpp:150] Setting up conv9_2_mbox_conf_flat
I0601 17:39:04.498790  8060 net.cpp:157] Top shape: 4 16 (64)
I0601 17:39:04.498793  8060 net.cpp:165] Memory required for data: 992070944
I0601 17:39:04.498797  8060 layer_factory.hpp:77] Creating layer conv9_2_mbox_priorbox
I0601 17:39:04.498805  8060 net.cpp:100] Creating Layer conv9_2_mbox_priorbox
I0601 17:39:04.498809  8060 net.cpp:434] conv9_2_mbox_priorbox <- conv9_2_conv9_2_relu_0_split_2
I0601 17:39:04.498831  8060 net.cpp:434] conv9_2_mbox_priorbox <- data_data_0_split_6
I0601 17:39:04.498842  8060 net.cpp:408] conv9_2_mbox_priorbox -> conv9_2_mbox_priorbox
I0601 17:39:04.498883  8060 net.cpp:150] Setting up conv9_2_mbox_priorbox
I0601 17:39:04.498893  8060 net.cpp:157] Top shape: 1 2 16 (32)
I0601 17:39:04.498898  8060 net.cpp:165] Memory required for data: 992071072
I0601 17:39:04.498901  8060 layer_factory.hpp:77] Creating layer mbox_loc
I0601 17:39:04.498908  8060 net.cpp:100] Creating Layer mbox_loc
I0601 17:39:04.498914  8060 net.cpp:434] mbox_loc <- conv4_3_norm_mbox_loc_flat
I0601 17:39:04.498921  8060 net.cpp:434] mbox_loc <- fc7_mbox_loc_flat
I0601 17:39:04.498929  8060 net.cpp:434] mbox_loc <- conv6_2_mbox_loc_flat
I0601 17:39:04.498934  8060 net.cpp:434] mbox_loc <- conv7_2_mbox_loc_flat
I0601 17:39:04.498940  8060 net.cpp:434] mbox_loc <- conv8_2_mbox_loc_flat
I0601 17:39:04.498946  8060 net.cpp:434] mbox_loc <- conv9_2_mbox_loc_flat
I0601 17:39:04.498955  8060 net.cpp:408] mbox_loc -> mbox_loc
I0601 17:39:04.498988  8060 net.cpp:150] Setting up mbox_loc
I0601 17:39:04.498997  8060 net.cpp:157] Top shape: 4 34928 (139712)
I0601 17:39:04.499003  8060 net.cpp:165] Memory required for data: 992629920
I0601 17:39:04.499006  8060 layer_factory.hpp:77] Creating layer mbox_conf
I0601 17:39:04.499012  8060 net.cpp:100] Creating Layer mbox_conf
I0601 17:39:04.499018  8060 net.cpp:434] mbox_conf <- conv4_3_norm_mbox_conf_flat
I0601 17:39:04.499025  8060 net.cpp:434] mbox_conf <- fc7_mbox_conf_flat
I0601 17:39:04.499030  8060 net.cpp:434] mbox_conf <- conv6_2_mbox_conf_flat
I0601 17:39:04.499035  8060 net.cpp:434] mbox_conf <- conv7_2_mbox_conf_flat
I0601 17:39:04.499042  8060 net.cpp:434] mbox_conf <- conv8_2_mbox_conf_flat
I0601 17:39:04.499047  8060 net.cpp:434] mbox_conf <- conv9_2_mbox_conf_flat
I0601 17:39:04.499061  8060 net.cpp:408] mbox_conf -> mbox_conf
I0601 17:39:04.499096  8060 net.cpp:150] Setting up mbox_conf
I0601 17:39:04.499105  8060 net.cpp:157] Top shape: 4 34928 (139712)
I0601 17:39:04.499110  8060 net.cpp:165] Memory required for data: 993188768
I0601 17:39:04.499114  8060 layer_factory.hpp:77] Creating layer mbox_priorbox
I0601 17:39:04.499120  8060 net.cpp:100] Creating Layer mbox_priorbox
I0601 17:39:04.499125  8060 net.cpp:434] mbox_priorbox <- conv4_3_norm_mbox_priorbox
I0601 17:39:04.499130  8060 net.cpp:434] mbox_priorbox <- fc7_mbox_priorbox
I0601 17:39:04.499136  8060 net.cpp:434] mbox_priorbox <- conv6_2_mbox_priorbox
I0601 17:39:04.499142  8060 net.cpp:434] mbox_priorbox <- conv7_2_mbox_priorbox
I0601 17:39:04.499146  8060 net.cpp:434] mbox_priorbox <- conv8_2_mbox_priorbox
I0601 17:39:04.499152  8060 net.cpp:434] mbox_priorbox <- conv9_2_mbox_priorbox
I0601 17:39:04.499158  8060 net.cpp:408] mbox_priorbox -> mbox_priorbox
I0601 17:39:04.499191  8060 net.cpp:150] Setting up mbox_priorbox
I0601 17:39:04.499199  8060 net.cpp:157] Top shape: 1 2 34928 (69856)
I0601 17:39:04.499205  8060 net.cpp:165] Memory required for data: 993468192
I0601 17:39:04.499209  8060 layer_factory.hpp:77] Creating layer mbox_conf_reshape
I0601 17:39:04.499217  8060 net.cpp:100] Creating Layer mbox_conf_reshape
I0601 17:39:04.499222  8060 net.cpp:434] mbox_conf_reshape <- mbox_conf
I0601 17:39:04.499230  8060 net.cpp:408] mbox_conf_reshape -> mbox_conf_reshape
I0601 17:39:04.499270  8060 net.cpp:150] Setting up mbox_conf_reshape
I0601 17:39:04.499279  8060 net.cpp:157] Top shape: 4 8732 4 (139712)
I0601 17:39:04.499284  8060 net.cpp:165] Memory required for data: 994027040
I0601 17:39:04.499287  8060 layer_factory.hpp:77] Creating layer mbox_conf_softmax
I0601 17:39:04.499295  8060 net.cpp:100] Creating Layer mbox_conf_softmax
I0601 17:39:04.499300  8060 net.cpp:434] mbox_conf_softmax <- mbox_conf_reshape
I0601 17:39:04.499307  8060 net.cpp:408] mbox_conf_softmax -> mbox_conf_softmax
I0601 17:39:04.500396  8060 net.cpp:150] Setting up mbox_conf_softmax
I0601 17:39:04.500409  8060 net.cpp:157] Top shape: 4 8732 4 (139712)
I0601 17:39:04.500413  8060 net.cpp:165] Memory required for data: 994585888
I0601 17:39:04.500417  8060 layer_factory.hpp:77] Creating layer mbox_conf_flatten
I0601 17:39:04.500427  8060 net.cpp:100] Creating Layer mbox_conf_flatten
I0601 17:39:04.500432  8060 net.cpp:434] mbox_conf_flatten <- mbox_conf_softmax
I0601 17:39:04.500442  8060 net.cpp:408] mbox_conf_flatten -> mbox_conf_flatten
I0601 17:39:04.500474  8060 net.cpp:150] Setting up mbox_conf_flatten
I0601 17:39:04.500484  8060 net.cpp:157] Top shape: 4 34928 (139712)
I0601 17:39:04.500488  8060 net.cpp:165] Memory required for data: 995144736
I0601 17:39:04.500493  8060 layer_factory.hpp:77] Creating layer detection_out
I0601 17:39:04.500506  8060 net.cpp:100] Creating Layer detection_out
I0601 17:39:04.500512  8060 net.cpp:434] detection_out <- mbox_loc
I0601 17:39:04.500519  8060 net.cpp:434] detection_out <- mbox_conf_flatten
I0601 17:39:04.500524  8060 net.cpp:434] detection_out <- mbox_priorbox
I0601 17:39:04.500531  8060 net.cpp:408] detection_out -> detection_out
I0601 17:39:04.502058  8060 net.cpp:150] Setting up detection_out
I0601 17:39:04.502069  8060 net.cpp:157] Top shape: 1 1 1 7 (7)
I0601 17:39:04.502074  8060 net.cpp:165] Memory required for data: 995144764
I0601 17:39:04.502077  8060 layer_factory.hpp:77] Creating layer detection_eval
I0601 17:39:04.502085  8060 net.cpp:100] Creating Layer detection_eval
I0601 17:39:04.502092  8060 net.cpp:434] detection_eval <- detection_out
I0601 17:39:04.502097  8060 net.cpp:434] detection_eval <- label
I0601 17:39:04.502104  8060 net.cpp:408] detection_eval -> detection_eval
I0601 17:39:04.503463  8060 net.cpp:150] Setting up detection_eval
I0601 17:39:04.503479  8060 net.cpp:157] Top shape: 1 1 4 5 (20)
I0601 17:39:04.503484  8060 net.cpp:165] Memory required for data: 995144844
I0601 17:39:04.503487  8060 net.cpp:228] detection_eval does not need backward computation.
I0601 17:39:04.503504  8060 net.cpp:228] detection_out does not need backward computation.
I0601 17:39:04.503510  8060 net.cpp:228] mbox_conf_flatten does not need backward computation.
I0601 17:39:04.503516  8060 net.cpp:228] mbox_conf_softmax does not need backward computation.
…
