…
        min_scale: 0.3
        max_scale: 1
        min_aspect_ratio: 0.5
        max_aspect_ratio: 2
      }
      sample_constraint {
        min_jaccard_overlap: 0.9
      }
      max_sample: 1
      max_trials: 50
    }
    batch_sampler {
      sampler {
        min_scale: 0.3
        max_scale: 1
        min_aspect_ratio: 0.5
        max_aspect_ratio: 2
      }
      sample_constraint {
        max_jaccard_overlap: 1
      }
      max_sample: 1
      max_trials: 50
    }
    label_map_file: "data/tbs_300x300_HSIL_10x/labelmap_voc.prototxt"
  }
}
layer {
  name: "conv1_1"
  type: "Convolution"
  bottom: "data"
  top: "conv1_1"
  param {
    lr_mult: 1
    decay_mult: 1
  }
  param {
    lr_mult: 2
    decay_mult: 0
  }
  convolution_param {
    num_output: 64
    pad: 1
    kernel_size: 3
    weight_filler {
      type: "xavier"
    }
    bias_filler {
      type: "constant"
      value: 0
    }
  }
}
layer {
  name: "relu1_1"
  type: "ReLU"
  bottom: "conv1_1"
  top: "conv1_1"
}
layer {
  name: "conv1_2"
  type: "Convolution"
  bottom: "conv1_1"
  top: "conv1_2"
  param {
    lr_mult: 1
    decay_mult: 1
  }
  param {
    lr_mult: 2
    decay_mult: 0
  }
  convolution_param {
    num_output: 64
    pad: 1
    kernel_size: 3
    weight_filler {
      type: "xavier"
    }
    bias_filler {
      type: "constant"
      value: 0
    }
  }
}
layer {
  name: "relu1_2"
  type: "ReLU"
  bottom: "conv1_2"
  top: "conv1_2"
}
layer {
  name: "pool1"
  type: "Pooling"
  bottom: "conv1_2"
  top: "pool1"
  pooling_param {
    pool: MAX
    kernel_size: 2
    stride: 2
  }
}
layer {
  name: "conv2_1"
  type: "Convolution"
  bottom: "pool1"
  top: "conv2_1"
  param {
    lr_mult: 1
    decay_mult: 1
  }
  param {
    lr_mult: 2
    decay_mult: 0
  }
  convolution_param {
    num_output: 128
    pad: 1
    kernel_size: 3
    weight_filler {
      type: "xavier"
    }
    bias_filler {
      type: "constant"
      value: 0
    }
  }
}
layer {
  name: "relu2_1"
  type: "ReLU"
  bottom: "conv2_1"
  top: "conv2_1"
}
layer {
  name: "conv2_2"
  type: "Convolution"
  bottom: "conv2_1"
  top: "conv2_2"
  param {
    lr_mult: 1
    decay_mult: 1
  }
  param {
    lr_mult: 2
    decay_mult: 0
  }
  convolution_param {
    num_output: 128
    pad: 1
    kernel_size: 3
    weight_filler {
      type: "xavier"
    }
    bias_filler {
      type: "constant"
      value: 0
    }
  }
}
layer {
  name: "relu2_2"
  type: "ReLU"
  bottom: "conv2_2"
  top: "conv2_2"
}
layer {
  name: "pool2"
  type: "Pooling"
  bottom: "conv2_2"
  top: "pool2"
  pooling_param {
    pool: MAX
    kernel_size: 2
    stride: 2
  }
}
layer {
  name: "conv3_1"
  type: "Convolution"
  bottom: "pool2"
  top: "conv3_1"
  param {
    lr_mult: 1
    decay_mult: 1
  }
  param {
    lr_mult: 2
    decay_mult: 0
  }
  convolution_param {
    num_output: 256
    pad: 1
    kernel_size: 3
    weight_filler {
      type: "xavier"
    }
    bias_filler {
      type: "constant"
      value: 0
    }
  }
}
layer {
  name: "relu3_1"
  type: "ReLU"
  bottom: "conv3_1"
  top: "conv3_1"
}
layer {
  name: "conv3_2"
  type: "Convolution"
  bottom: "conv3_1"
  top: "conv3_2"
  param {
    lr_mult: 1
    decay_mult: 1
  }
  param {
    lr_mult: 2
    decay_mult: 0
  }
  convolution_param {
    num_output: 256
    pad: 1
    kernel_size: 3
    weight_filler {
      type: "xavier"
    }
    bias_filler {
      type: "constant"
      value: 0
    }
  }
}
layer {
  name: "relu3_2"
  type: "ReLU"
  bottom: "conv3_2"
  top: "conv3_2"
}
layer {
  name: "conv3_3"
  type: "Convolution"
  bottom: "conv3_2"
  top: "conv3_3"
  param {
    lr_mult: 1
    decay_mult: 1
  }
  param {
    lr_mult: 2
    decay_mult: 0
  }
  convolution_param {
    num_output: 256
    pad: 1
    kernel_size: 3
    weight_filler {
      type: "xavier"
    }
    bias_filler {
      type: "constant"
      value: 0
    }
  }
}
layer {
  name: "relu3_3"
  type: "ReLU"
  bottom: "conv3_3"
  top: "conv3_3"
}
layer {
  name: "pool3"
  type: "Pooling"
  bottom: "conv3_3"
  top: "pool3"
  pooling_param {
    pool: MAX
    kernel_size: 2
    stride: 2
  }
}
layer {
  name: "conv4_1"
  type: "Convolution"
  bottom: "pool3"
  top: "conv4_1"
  param {
    lr_mult: 1
    decay_mult: 1
  }
  param {
    lr_mult: 2
    decay_mult: 0
  }
  convolution_param {
    num_output: 512
    pad: 1
    kernel_size: 3
    weight_filler {
      type: "xavier"
    }
    bias_filler {
      type: "constant"
      value: 0
    }
  }
}
layer {
  name: "relu4_1"
  type: "ReLU"
  bottom: "conv4_1"
  top: "conv4_1"
}
layer {
  name: "conv4_2"
  type: "Convolution"
  bottom: "conv4_1"
  top: "conv4_2"
  param {
    lr_mult: 1
    decay_mult: 1
  }
  param {
    lr_mult: 2
    decay_mult: 0
  }
  convolution_param {
    num_output: 512
    pad: 1
    kernel_size: 3
    weight_filler {
      type: "xavier"
    }
    bias_filler {
      type: "constant"
      value: 0
    }
  }
}
layer {
  name: "relu4_2"
  type: "ReLU"
  bottom: "conv4_2"
  top: "conv4_2"
}
layer {
  name: "conv4_3"
  type: "Convolution"
  bottom: "conv4_2"
  top: "conv4_3"
  param {
    lr_mult: 1
    decay_mult: 1
  }
  param {
    lr_mult: 2
    decay_mult: 0
  }
  convolution_param {
    num_output: 512
    pad: 1
    kernel_size: 3
    weight_filler {
      type: "xavier"
    }
    bias_filler {
      type: "constant"
      value: 0
    }
  }
}
layer {
  name: "relu4_3"
  type: "ReLU"
  bottom: "conv4_3"
  top: "conv4_3"
}
layer {
  name: "pool4"
  type: "Pooling"
  bottom: "conv4_3"
  top: "pool4"
  pooling_param {
    pool: MAX
    kernel_size: 2
    stride: 2
  }
}
layer {
  name: "conv5_1"
  type: "Convolution"
  bottom: "pool4"
  top: "conv5_1"
  param {
    lr_mult: 1
    decay_mult: 1
  }
  param {
    lr_mult: 2
    decay_mult: 0
  }
  convolution_param {
    num_output: 512
    pad: 1
    kernel_size: 3
    weight_filler {
      type: "xavier"
    }
    bias_filler {
      type: "constant"
      value: 0
    }
    dilation: 1
  }
}
layer {
  name: "relu5_1"
  type: "ReLU"
  bottom: "conv5_1"
  top: "conv5_1"
}
layer {
  name: "conv5_2"
  type: "Convolution"
  bottom: "conv5_1"
  top: "conv5_2"
  param {
    lr_mult: 1
    decay_mult: 1
  }
  param {
    lr_mult: 2
    decay_mult: 0
  }
  convolution_param {
    num_output: 512
    pad: 1
    kernel_size: 3
    weight_filler {
      type: "xavier"
    }
    bias_filler {
      type: "constant"
      value: 0
    }
    dilation: 1
  }
}
layer {
  name: "relu5_2"
  type: "ReLU"
  bottom: "conv5_2"
  top: "conv5_2"
}
layer {
  name: "conv5_3"
  type: "Convolution"
  bottom: "conv5_2"
  top: "conv5_3"
  param {
    lr_mult: 1
    decay_mult: 1
  }
  param {
    lr_mult: 2
    decay_mult: 0
  }
  convolution_param {
    num_output: 512
    pad: 1
    kernel_size: 3
    weight_filler {
      type: "xavier"
    }
    bias_filler {
      type: "constant"
      value: 0
    }
    dilation: 1
  }
}
layer {
  name: "relu5_3"
  type: "ReLU"
  bottom: "conv5_3"
  top: "conv5_3"
}
layer {
  name: "pool5"
  type: "Pooling"
  bottom: "conv5_3"
  top: "pool5"
  pooling_param {
    pool: MAX
    kernel_size: 3
    stride: 1
    pad: 1
  }
}
layer {
  name: "fc6"
  type: "Convolution"
  bottom: "pool5"
  top: "fc6"
  param {
    lr_mult: 1
    decay_mult: 1
  }
  param {
    lr_mult: 2
    decay_mult: 0
  }
  convolution_param {
    num_output: 1024
    pad: 6
    kernel_size: 3
    weight_filler {
      type: "xavier"
    }
    bias_filler {
      type: "constant"
      value: 0
    }
    dilation: 6
  }
}
layer {
  name: "relu6"
  type: "ReLU"
  bottom: "fc6"
  top: "fc6"
}
layer {
  name: "fc7"
  type: "Convolution"
  bottom: "fc6"
  top: "fc7"
  param {
    lr_mult: 1
    decay_mult: 1
  }
  param {
    lr_mult: 2
    decay_mult: 0
  }
  convolution_param {
    num_output: 1024
    kernel_size: 1
    weight_filler {
      type: "xavier"
    }
    bias_filler {
      type: "constant"
      value: 0
    }
  }
}
layer {
  name: "relu7"
  type: "ReLU"
  bottom: "fc7"
  top: "fc7"
}
layer {
  name: "conv6_1"
  type: "Convolution"
  bottom: "fc7"
  top: "conv6_1"
  param {
    lr_mult: 1
    decay_mult: 1
  }
  param {
    lr_mult: 2
    decay_mult: 0
  }
  convolution_param {
    num_output: 256
    pad: 0
    kernel_size: 1
    stride: 1
    weight_filler {
      type: "xavier"
    }
    bias_filler {
      type: "constant"
      value: 0
    }
  }
}
layer {
  name: "conv6_1_relu"
  type: "ReLU"
  bottom: "conv6_1"
  top: "conv6_1"
}
layer {
  name: "conv6_2"
  type: "Convolution"
  bottom: "conv6_1"
  top: "conv6_2"
  param {
    lr_mult: 1
    decay_mult: 1
  }
  param {
    lr_mult: 2
    decay_mult: 0
  }
  convolution_param {
    num_output: 512
    pad: 1
    kernel_size: 3
    stride: 2
    weight_filler {
      type: "xavier"
    }
    bias_filler {
      type: "constant"
      value: 0
    }
  }
}
layer {
  name: "conv6_2_relu"
  type: "ReLU"
  bottom: "conv6_2"
  top: "conv6_2"
}
layer {
  name: "conv7_1"
  type: "Convolution"
  bottom: "conv6_2"
  top: "conv7_1"
  param {
    lr_mult: 1
    decay_mult: 1
  }
  param {
    lr_mult: 2
    decay_mult: 0
  }
  convolution_param {
    num_output: 128
    pad: 0
    kernel_size: 1
    stride: 1
    weight_filler {
      type: "xavier"
    }
    bias_filler {
      type: "constant"
      value: 0
    }
  }
}
layer {
  name: "conv7_1_relu"
  type: "ReLU"
  bottom: "conv7_1"
  top: "conv7_1"
}
layer {
  name: "conv7_2"
  type: "Convolution"
  bottom: "conv7_1"
  top: "conv7_2"
  param {
    lr_mult: 1
    decay_mult: 1
  }
  param {
    lr_mult: 2
    decay_mult: 0
  }
  convolution_param {
    num_output: 256
    pad: 1
    kernel_size: 3
    stride: 2
    weight_filler {
      type: "xavier"
    }
    bias_filler {
      type: "constant"
      value: 0
    }
  }
}
layer {
  name: "conv7_2_relu"
  type: "ReLU"
  bottom: "conv7_2"
  top: "conv7_2"
}
layer {
  name: "conv8_1"
  type: "Convolution"
  bottom: "conv7_2"
  top: "conv8_1"
  param {
    lr_mult: 1
    decay_mult: 1
  }
  param {
    lr_mult: 2
    decay_mult: 0
  }
  convolution_param {
    num_output: 128
    pad: 0
    kernel_size: 1
    stride: 1
    weight_filler {
      type: "xavier"
    }
    bias_filler {
      type: "constant"
      value: 0
    }
  }
}
layer {
  name: "conv8_1_relu"
  type: "ReLU"
  bottom: "conv8_1"
  top: "conv8_1"
}
layer {
  name: "conv8_2"
  type: "Convolution"
  bottom: "conv8_1"
  top: "conv8_2"
  param {
    lr_mult: 1
    decay_mult: 1
  }
  param {
    lr_mult: 2
    decay_mult: 0
  }
  convolution_param {
    num_output: 256
    pad: 0
    kernel_size: 3
    stride: 1
    weight_filler {
      type: "xavier"
    }
    bias_filler {
      type: "constant"
      value: 0
    }
  }
}
layer {
  name: "conv8_2_relu"
  type: "ReLU"
  bottom: "conv8_2"
  top: "conv8_2"
}
layer {
  name: "conv9_1"
  type: "Convolution"
  bottom: "conv8_2"
  top: "conv9_1"
  param {
    lr_mult: 1
    decay_mult: 1
  }
  param {
    lr_mult: 2
    decay_mult: 0
  }
  convolution_param {
    num_output: 128
    pad: 0
    kernel_size: 1
    stride: 1
    weight_filler {
      type: "xavier"
    }
    bias_filler {
      type: "constant"
      value: 0
    }
  }
}
layer {
  name: "conv9_1_relu"
  type: "ReLU"
  bottom: "conv9_1"
  top: "conv9_1"
}
layer {
  name: "conv9_2"
  type: "Convolution"
  bottom: "conv9_1"
  top: "conv9_2"
  param {
    lr_mult: 1
    decay_mult: 1
  }
  param {
    lr_mult: 2
    decay_mult: 0
  }
  convolution_param {
    num_output: 256
    pad: 0
    kernel_size: 3
    stride: 1
    weight_filler {
      type: "xavier"
    }
    bias_filler {
      type: "constant"
      value: 0
    }
  }
}
layer {
  name: "conv9_2_relu"
  type: "ReLU"
  bottom: "conv9_2"
  top: "conv9_2"
}
layer {
  name: "conv4_3_norm"
  type: "Normalize"
  bottom: "conv4_3"
  top: "conv4_3_norm"
  norm_param {
    across_spatial: false
    scale_filler {
      type: "constant"
      value: 20
    }
    channel_shared: false
  }
}
layer {
  name: "conv4_3_norm_mbox_loc"
  type: "Convolution"
  bottom: "conv4_3_norm"
  top: "conv4_3_norm_mbox_loc"
  param {
    lr_mult: 1
    decay_mult: 1
  }
  param {
    lr_mult: 2
    decay_mult: 0
  }
  convolution_param {
    num_output: 16
    pad: 1
    kernel_size: 3
    stride: 1
    weight_filler {
      type: "xavier"
    }
    bias_filler {
      type: "constant"
      value: 0
    }
  }
}
layer {
  name: "conv4_3_norm_mbox_loc_perm"
  type: "Permute"
  bottom: "conv4_3_norm_mbox_loc"
  top: "conv4_3_norm_mbox_loc_perm"
  permute_param {
    order: 0
    order: 2
    order: 3
    order: 1
  }
}
layer {
  name: "conv4_3_norm_mbox_loc_flat"
  type: "Flatten"
  bottom: "conv4_3_norm_mbox_loc_perm"
  top: "conv4_3_norm_mbox_loc_flat"
  flatten_param {
    axis: 1
  }
}
layer {
  name: "conv4_3_norm_mbox_conf"
  type: "Convolution"
  bottom: "conv4_3_norm"
  top: "conv4_3_norm_mbox_conf"
  param {
    lr_mult: 1
    decay_mult: 1
  }
  param {
    lr_mult: 2
    decay_mult: 0
  }
  convolution_param {
    num_output: 16
    pad: 1
    kernel_size: 3
    stride: 1
    weight_filler {
      type: "xavier"
    }
    bias_filler {
      type: "constant"
      value: 0
    }
  }
}
layer {
  name: "conv4_3_norm_mbox_conf_perm"
  type: "Permute"
  bottom: "conv4_3_norm_mbox_conf"
  top: "conv4_3_norm_mbox_conf_perm"
  permute_param {
    order: 0
    order: 2
    order: 3
    order: 1
  }
}
layer {
  name: "conv4_3_norm_mbox_conf_flat"
  type: "Flatten"
  bottom: "conv4_3_norm_mbox_conf_perm"
  top: "conv4_3_norm_mbox_conf_flat"
  flatten_param {
    axis: 1
  }
}
layer {
  name: "conv4_3_norm_mbox_priorbox"
  type: "PriorBox"
  bottom: "conv4_3_norm"
  bottom: "data"
  top: "conv4_3_norm_mbox_priorbox"
  prior_box_param {
    min_size: 30
    max_size: 60
    aspect_ratio: 2
    flip: true
    clip: false
    variance: 0.1
    variance: 0.1
    variance: 0.2
    variance: 0.2
    step: 8
    offset: 0.5
  }
}
layer {
  name: "fc7_mbox_loc"
  type: "Convolution"
  bottom: "fc7"
  top: "fc7_mbox_loc"
  param {
    lr_mult: 1
    decay_mult: 1
  }
  param {
    lr_mult: 2
    decay_mult: 0
  }
  convolution_param {
    num_output: 24
    pad: 1
    kernel_size: 3
    stride: 1
    weight_filler {
      type: "xavier"
    }
    bias_filler {
      type: "constant"
      value: 0
    }
  }
}
layer {
  name: "fc7_mbox_loc_perm"
  type: "Permute"
  bottom: "fc7_mbox_loc"
  top: "fc7_mbox_loc_perm"
  permute_param {
    order: 0
    order: 2
    order: 3
    order: 1
  }
}
layer {
  name: "fc7_mbox_loc_flat"
  type: "Flatten"
  bottom: "fc7_mbox_loc_perm"
  top: "fc7_mbox_loc_flat"
  flatten_param {
    axis: 1
  }
}
layer {
  name: "fc7_mbox_conf"
  type: "Convolution"
  bottom: "fc7"
  top: "fc7_mbox_conf"
  param {
    lr_mult: 1
    decay_mult: 1
  }
  param {
    lr_mult: 2
    decay_mult: 0
  }
  convolution_param {
    num_output: 24
    pad: 1
    kernel_size: 3
    stride: 1
    weight_filler {
      type: "xavier"
    }
    bias_filler {
      type: "constant"
      value: 0
    }
  }
}
layer {
  name: "fc7_mbox_conf_perm"
  type: "Permute"
  bottom: "fc7_mbox_conf"
  top: "fc7_mbox_conf_perm"
  permute_param {
    order: 0
    order: 2
    order: 3
    order: 1
  }
}
layer {
  name: "fc7_mbox_conf_flat"
  type: "Flatten"
  bottom: "fc7_mbox_conf_perm"
  top: "fc7_mbox_conf_flat"
  flatten_param {
    axis: 1
  }
}
layer {
  name: "fc7_mbox_priorbox"
  type: "PriorBox"
  bottom: "fc7"
  bottom: "data"
  top: "fc7_mbox_priorbox"
  prior_box_param {
    min_size: 60
    max_size: 111
    aspect_ratio: 2
    aspect_ratio: 3
    flip: true
    clip: false
    variance: 0.1
    variance: 0.1
    variance: 0.2
    variance: 0.2
    step: 16
    offset: 0.5
  }
}
layer {
  name: "conv6_2_mbox_loc"
  type: "Convolution"
  bottom: "conv6_2"
  top: "conv6_2_mbox_loc"
  param {
    lr_mult: 1
    decay_mult: 1
  }
  param {
    lr_mult: 2
    decay_mult: 0
  }
  convolution_param {
    num_output: 24
    pad: 1
    kernel_size: 3
    stride: 1
    weight_filler {
      type: "xavier"
    }
    bias_filler {
      type: "constant"
      value: 0
    }
  }
}
layer {
  name: "conv6_2_mbox_loc_perm"
  type: "Permute"
  bottom: "conv6_2_mbox_loc"
  top: "conv6_2_mbox_loc_perm"
  permute_param {
    order: 0
    order: 2
    order: 3
    order: 1
  }
}
layer {
  name: "conv6_2_mbox_loc_flat"
  type: "Flatten"
  bottom: "conv6_2_mbox_loc_perm"
  top: "conv6_2_mbox_loc_flat"
  flatten_param {
    axis: 1
  }
}
layer {
  name: "conv6_2_mbox_conf"
  type: "Convolution"
  bottom: "conv6_2"
  top: "conv6_2_mbox_conf"
  param {
    lr_mult: 1
    decay_mult: 1
  }
  param {
    lr_mult: 2
    decay_mult: 0
  }
  convolution_param {
    num_output: 24
    pad: 1
    kernel_size: 3
    stride: 1
    weight_filler {
      type: "xavier"
    }
    bias_filler {
      type: "constant"
      value: 0
    }
  }
}
layer {
  name: "conv6_2_mbox_conf_perm"
  type: "Permute"
  bottom: "conv6_2_mbox_conf"
  top: "conv6_2_mbox_conf_perm"
  permute_param {
    order: 0
    order: 2
    order: 3
    order: 1
  }
}
layer {
  name: "conv6_2_mbox_conf_flat"
  type: "Flatten"
  bottom: "conv6_2_mbox_conf_perm"
  top: "conv6_2_mbox_conf_flat"
  flatten_param {
    axis: 1
  }
}
layer {
  name: "conv6_2_mbox_priorbox"
  type: "PriorBox"
  bottom: "conv6_2"
  bottom: "data"
  top: "conv6_2_mbox_priorbox"
  prior_box_param {
    min_size: 111
    max_size: 162
    aspect_ratio: 2
    aspect_ratio: 3
    flip: true
    clip: false
    variance: 0.1
    variance: 0.1
    variance: 0.2
    variance: 0.2
    step: 32
    offset: 0.5
  }
}
layer {
  name: "conv7_2_mbox_loc"
  type: "Convolution"
  bottom: "conv7_2"
  top: "conv7_2_mbox_loc"
  param {
    lr_mult: 1
    decay_mult: 1
  }
  param {
    lr_mult: 2
    decay_mult: 0
  }
  convolution_param {
    num_output: 24
    pad: 1
    kernel_size: 3
    stride: 1
    weight_filler {
      type: "xavier"
    }
    bias_filler {
      type: "constant"
      value: 0
    }
  }
}
layer {
  name: "conv7_2_mbox_loc_perm"
  type: "Permute"
  bottom: "conv7_2_mbox_loc"
  top: "conv7_2_mbox_loc_perm"
  permute_param {
    order: 0
    order: 2
    order: 3
    order: 1
  }
}
layer {
  name: "conv7_2_mbox_loc_flat"
  type: "Flatten"
  bottom: "conv7_2_mbox_loc_perm"
  top: "conv7_2_mbox_loc_flat"
  flatten_param {
    axis: 1
  }
}
layer {
  name: "conv7_2_mbox_conf"
  type: "Convolution"
  bottom: "conv7_2"
  top: "conv7_2_mbox_conf"
  param {
    lr_mult: 1
    decay_mult: 1
  }
  param {
    lr_mult: 2
    decay_mult: 0
  }
  convolution_param {
    num_output: 24
    pad: 1
    kernel_size: 3
    stride: 1
    weight_filler {
      type: "xavier"
    }
    bias_filler {
      type: "constant"
      value: 0
    }
  }
}
layer {
  name: "conv7_2_mbox_conf_perm"
  type: "Permute"
  bottom: "conv7_2_mbox_conf"
  top: "conv7_2_mbox_conf_perm"
  permute_param {
    order: 0
    order: 2
    order: 3
    order: 1
  }
}
layer {
  name: "conv7_2_mbox_conf_flat"
  type: "Flatten"
  bottom: "conv7_2_mbox_conf_perm"
  top: "conv7_2_mbox_conf_flat"
  flatten_param {
    axis: 1
  }
}
layer {
  name: "conv7_2_mbox_priorbox"
  type: "PriorBox"
  bottom: "conv7_2"
  bottom: "data"
  top: "conv7_2_mbox_priorbox"
  prior_box_param {
    min_size: 162
    max_size: 213
    aspect_ratio: 2
    aspect_ratio: 3
    flip: true
    clip: false
    variance: 0.1
    variance: 0.1
    variance: 0.2
    variance: 0.2
    step: 64
    offset: 0.5
  }
}
layer {
  name: "conv8_2_mbox_loc"
  type: "Convolution"
  bottom: "conv8_2"
  top: "conv8_2_mbox_loc"
  param {
    lr_mult: 1
    decay_mult: 1
  }
  param {
    lr_mult: 2
    decay_mult: 0
  }
  convolution_param {
    num_output: 16
    pad: 1
    kernel_size: 3
    stride: 1
    weight_filler {
      type: "xavier"
    }
    bias_filler {
      type: "constant"
      value: 0
    }
  }
}
layer {
  name: "conv8_2_mbox_loc_perm"
  type: "Permute"
  bottom: "conv8_2_mbox_loc"
  top: "conv8_2_mbox_loc_perm"
  permute_param {
    order: 0
    order: 2
    order: 3
    order: 1
  }
}
layer {
  name: "conv8_2_mbox_loc_flat"
  type: "Flatten"
  bottom: "conv8_2_mbox_loc_perm"
  top: "conv8_2_mbox_loc_flat"
  flatten_param {
    axis: 1
  }
}
layer {
  name: "conv8_2_mbox_conf"
  type: "Convolution"
  bottom: "conv8_2"
  top: "conv8_2_mbox_conf"
  param {
    lr_mult: 1
    decay_mult: 1
  }
  param {
    lr_mult: 2
    decay_mult: 0
  }
  convolution_param {
    num_output: 16
    pad: 1
    kernel_size: 3
    stride: 1
    weight_filler {
      type: "xavier"
    }
    bias_filler {
      type: "constant"
      value: 0
    }
  }
}
layer {
  name: "conv8_2_mbox_conf_perm"
  type: "Permute"
  bottom: "conv8_2_mbox_conf"
  top: "conv8_2_mbox_conf_perm"
  permute_param {
    order: 0
    order: 2
    order: 3
    order: 1
  }
}
layer {
  name: "conv8_2_mbox_conf_flat"
  type: "Flatten"
  bottom: "conv8_2_mbox_conf_perm"
  top: "conv8_2_mbox_conf_flat"
  flatten_param {
    axis: 1
  }
}
layer {
  name: "conv8_2_mbox_priorbox"
  type: "PriorBox"
  bottom: "conv8_2"
  bottom: "data"
  top: "conv8_2_mbox_priorbox"
  prior_box_param {
    min_size: 213
    max_size: 264
    aspect_ratio: 2
    flip: true
    clip: false
    variance: 0.1
    variance: 0.1
    variance: 0.2
    variance: 0.2
    step: 100
    offset: 0.5
  }
}
layer {
  name: "conv9_2_mbox_loc"
  type: "Convolution"
  bottom: "conv9_2"
  top: "conv9_2_mbox_loc"
  param {
    lr_mult: 1
    decay_mult: 1
  }
  param {
    lr_mult: 2
    decay_mult: 0
  }
  convolution_param {
    num_output: 16
    pad: 1
    kernel_size: 3
    stride: 1
    weight_filler {
      type: "xavier"
    }
    bias_filler {
      type: "constant"
      value: 0
    }
  }
}
layer {
  name: "conv9_2_mbox_loc_perm"
  type: "Permute"
  bottom: "conv9_2_mbox_loc"
  top: "conv9_2_mbox_loc_perm"
  permute_param {
    order: 0
    order: 2
    order: 3
    order: 1
  }
}
layer {
  name: "conv9_2_mbox_loc_flat"
  type: "Flatten"
  bottom: "conv9_2_mbox_loc_perm"
  top: "conv9_2_mbox_loc_flat"
  flatten_param {
    axis: 1
  }
}
layer {
  name: "conv9_2_mbox_conf"
  type: "Convolution"
  bottom: "conv9_2"
  top: "conv9_2_mbox_conf"
  param {
    lr_mult: 1
    decay_mult: 1
  }
  param {
    lr_mult: 2
    decay_mult: 0
  }
  convolution_param {
    num_output: 16
    pad: 1
    kernel_size: 3
    stride: 1
    weight_filler {
      type: "xavier"
    }
    bias_filler {
      type: "constant"
      value: 0
    }
  }
}
layer {
  name: "conv9_2_mbox_conf_perm"
  type: "Permute"
  bottom: "conv9_2_mbox_conf"
  top: "conv9_2_mbox_conf_perm"
  permute_param {
    order: 0
    order: 2
    order: 3
    order: 1
  }
}
layer {
  name: "conv9_2_mbox_conf_flat"
  type: "Flatten"
  bottom: "conv9_2_mbox_conf_perm"
  top: "conv9_2_mbox_conf_flat"
  flatten_param {
    axis: 1
  }
}
layer {
  name: "conv9_2_mbox_priorbox"
  type: "PriorBox"
  bottom: "conv9_2"
  bottom: "data"
  top: "conv9_2_mbox_priorbox"
  prior_box_param {
    min_size: 264
    max_size: 315
    aspect_ratio: 2
    flip: true
    clip: false
    variance: 0.1
    variance: 0.1
    variance: 0.2
    variance: 0.2
    step: 300
    offset: 0.5
  }
}
layer {
  name: "mbox_loc"
  type: "Concat"
  bottom: "conv4_3_norm_mbox_loc_flat"
  bottom: "fc7_mbox_loc_flat"
  bottom: "conv6_2_mbox_loc_flat"
  bottom: "conv7_2_mbox_loc_flat"
  bottom: "conv8_2_mbox_loc_flat"
  bottom: "conv9_2_mbox_loc_flat"
  top: "mbox_loc"
  concat_param {
    axis: 1
  }
}
layer {
  name: "mbox_conf"
  type: "Concat"
  bottom: "conv4_3_norm_mbox_conf_flat"
  bottom: "fc7_mbox_conf_flat"
  bottom: "conv6_2_mbox_conf_flat"
  bottom: "conv7_2_mbox_conf_flat"
  bottom: "conv8_2_mbox_conf_flat"
  bottom: "conv9_2_mbox_conf_flat"
  top: "mbox_conf"
  concat_param {
    axis: 1
  }
}
layer {
  name: "mbox_priorbox"
  type: "Concat"
  bottom: "conv4_3_norm_mbox_priorbox"
  bottom: "fc7_mbox_priorbox"
  bottom: "conv6_2_mbox_priorbox"
  bottom: "conv7_2_mbox_priorbox"
  bottom: "conv8_2_mbox_priorbox"
  bottom: "conv9_2_mbox_priorbox"
  top: "mbox_priorbox"
  concat_param {
    axis: 2
  }
}
layer {
  name: "mbox_loss"
  type: "MultiBoxLoss"
  bottom: "mbox_loc"
  bottom: "mbox_conf"
  bottom: "mbox_priorbox"
  bottom: "label"
  top: "mbox_loss"
  include {
    phase: TRAIN
  }
  propagate_down: true
  propagate_down: true
  propagate_down: false
  propagate_down: false
  loss_param {
    normalization: VALID
  }
  multibox_loss_param {
    loc_loss_type: SMOOTH_L1
    conf_loss_type: SOFTMAX
    loc_weight: 1
    num_classes: 4
    share_location: true
    match_type: PER_PREDICTION
    overlap_threshold: 0.5
    use_prior_for_matching: true
    background_label_id: 0
    use_difficult_gt: true
    neg_pos_ratio: 3
    neg_overlap: 0.5
    code_type: CENTER_SIZE
    ignore_cross_boundary_bbox: false
    mining_type: MAX_NEGATIVE
  }
}
I0601 17:39:53.734740  8165 layer_factory.hpp:77] Creating layer data
I0601 17:39:53.734864  8165 net.cpp:100] Creating Layer data
I0601 17:39:53.734879  8165 net.cpp:408] data -> data
I0601 17:39:53.734906  8165 net.cpp:408] data -> label
I0601 17:39:53.735388  8181 db_lmdb.cpp:35] Opened lmdb examples/tbs_300x300_HSIL_10x/tbs_300x300_HSIL_10x_trainval_lmdb
I0601 17:39:53.744012  8165 annotated_data_layer.cpp:62] output data size: 32,3,300,300
I0601 17:39:53.802479  8165 net.cpp:150] Setting up data
I0601 17:39:53.802497  8165 net.cpp:157] Top shape: 32 3 300 300 (8640000)
I0601 17:39:53.802501  8165 net.cpp:157] Top shape: 1 1 5 8 (40)
I0601 17:39:53.802531  8165 net.cpp:165] Memory required for data: 34560160
I0601 17:39:53.802552  8165 layer_factory.hpp:77] Creating layer data_data_0_split
I0601 17:39:53.802561  8165 net.cpp:100] Creating Layer data_data_0_split
I0601 17:39:53.802567  8165 net.cpp:434] data_data_0_split <- data
I0601 17:39:53.802595  8165 net.cpp:408] data_data_0_split -> data_data_0_split_0
I0601 17:39:53.802618  8165 net.cpp:408] data_data_0_split -> data_data_0_split_1
I0601 17:39:53.802623  8165 net.cpp:408] data_data_0_split -> data_data_0_split_2
I0601 17:39:53.802644  8165 net.cpp:408] data_data_0_split -> data_data_0_split_3
I0601 17:39:53.802661  8165 net.cpp:408] data_data_0_split -> data_data_0_split_4
I0601 17:39:53.802665  8165 net.cpp:408] data_data_0_split -> data_data_0_split_5
I0601 17:39:53.802670  8165 net.cpp:408] data_data_0_split -> data_data_0_split_6
I0601 17:39:53.802812  8165 net.cpp:150] Setting up data_data_0_split
I0601 17:39:53.802817  8165 net.cpp:157] Top shape: 32 3 300 300 (8640000)
I0601 17:39:53.802820  8165 net.cpp:157] Top shape: 32 3 300 300 (8640000)
I0601 17:39:53.802822  8165 net.cpp:157] Top shape: 32 3 300 300 (8640000)
I0601 17:39:53.802825  8165 net.cpp:157] Top shape: 32 3 300 300 (8640000)
I0601 17:39:53.802829  8165 net.cpp:157] Top shape: 32 3 300 300 (8640000)
I0601 17:39:53.802830  8165 net.cpp:157] Top shape: 32 3 300 300 (8640000)
I0601 17:39:53.802834  8165 net.cpp:157] Top shape: 32 3 300 300 (8640000)
I0601 17:39:53.802835  8165 net.cpp:165] Memory required for data: 276480160
I0601 17:39:53.802837  8165 layer_factory.hpp:77] Creating layer conv1_1
I0601 17:39:53.802850  8165 net.cpp:100] Creating Layer conv1_1
I0601 17:39:53.802868  8165 net.cpp:434] conv1_1 <- data_data_0_split_0
I0601 17:39:53.802872  8165 net.cpp:408] conv1_1 -> conv1_1
I0601 17:39:53.972350  8165 net.cpp:150] Setting up conv1_1
I0601 17:39:53.972369  8165 net.cpp:157] Top shape: 32 64 300 300 (184320000)
I0601 17:39:53.972373  8165 net.cpp:165] Memory required for data: 1013760160
I0601 17:39:53.972401  8165 layer_factory.hpp:77] Creating layer relu1_1
I0601 17:39:53.972409  8165 net.cpp:100] Creating Layer relu1_1
I0601 17:39:53.972412  8165 net.cpp:434] relu1_1 <- conv1_1
I0601 17:39:53.972416  8165 net.cpp:395] relu1_1 -> conv1_1 (in-place)
I0601 17:39:53.972616  8165 net.cpp:150] Setting up relu1_1
I0601 17:39:53.972623  8165 net.cpp:157] Top shape: 32 64 300 300 (184320000)
I0601 17:39:53.972625  8165 net.cpp:165] Memory required for data: 1751040160
I0601 17:39:53.972627  8165 layer_factory.hpp:77] Creating layer conv1_2
I0601 17:39:53.972637  8165 net.cpp:100] Creating Layer conv1_2
I0601 17:39:53.972640  8165 net.cpp:434] conv1_2 <- conv1_1
I0601 17:39:53.972643  8165 net.cpp:408] conv1_2 -> conv1_2
I0601 17:39:53.974864  8165 net.cpp:150] Setting up conv1_2
I0601 17:39:53.974875  8165 net.cpp:157] Top shape: 32 64 300 300 (184320000)
I0601 17:39:53.974879  8165 net.cpp:165] Memory required for data: 2488320160
I0601 17:39:53.974900  8165 layer_factory.hpp:77] Creating layer relu1_2
I0601 17:39:53.974905  8165 net.cpp:100] Creating Layer relu1_2
I0601 17:39:53.974907  8165 net.cpp:434] relu1_2 <- conv1_2
I0601 17:39:53.974912  8165 net.cpp:395] relu1_2 -> conv1_2 (in-place)
I0601 17:39:53.975471  8165 net.cpp:150] Setting up relu1_2
I0601 17:39:53.975479  8165 net.cpp:157] Top shape: 32 64 300 300 (184320000)
I0601 17:39:53.975481  8165 net.cpp:165] Memory required for data: 3225600160
I0601 17:39:53.975484  8165 layer_factory.hpp:77] Creating layer pool1
I0601 17:39:53.975505  8165 net.cpp:100] Creating Layer pool1
I0601 17:39:53.975507  8165 net.cpp:434] pool1 <- conv1_2
I0601 17:39:53.975512  8165 net.cpp:408] pool1 -> pool1
I0601 17:39:53.975553  8165 net.cpp:150] Setting up pool1
I0601 17:39:53.975571  8165 net.cpp:157] Top shape: 32 64 150 150 (46080000)
I0601 17:39:53.975574  8165 net.cpp:165] Memory required for data: 3409920160
I0601 17:39:53.975575  8165 layer_factory.hpp:77] Creating layer conv2_1
I0601 17:39:53.975582  8165 net.cpp:100] Creating Layer conv2_1
I0601 17:39:53.975610  8165 net.cpp:434] conv2_1 <- pool1
I0601 17:39:53.975616  8165 net.cpp:408] conv2_1 -> conv2_1
I0601 17:39:53.976897  8165 net.cpp:150] Setting up conv2_1
I0601 17:39:53.976907  8165 net.cpp:157] Top shape: 32 128 150 150 (92160000)
I0601 17:39:53.976908  8165 net.cpp:165] Memory required for data: 3778560160
I0601 17:39:53.976915  8165 layer_factory.hpp:77] Creating layer relu2_1
I0601 17:39:53.976936  8165 net.cpp:100] Creating Layer relu2_1
I0601 17:39:53.976939  8165 net.cpp:434] relu2_1 <- conv2_1
I0601 17:39:53.976943  8165 net.cpp:395] relu2_1 -> conv2_1 (in-place)
I0601 17:39:53.977490  8165 net.cpp:150] Setting up relu2_1
I0601 17:39:53.977499  8165 net.cpp:157] Top shape: 32 128 150 150 (92160000)
I0601 17:39:53.977501  8165 net.cpp:165] Memory required for data: 4147200160
I0601 17:39:53.977504  8165 layer_factory.hpp:77] Creating layer conv2_2
I0601 17:39:53.977509  8165 net.cpp:100] Creating Layer conv2_2
I0601 17:39:53.977527  8165 net.cpp:434] conv2_2 <- conv2_1
I0601 17:39:53.977532  8165 net.cpp:408] conv2_2 -> conv2_2
I0601 17:39:53.979486  8165 net.cpp:150] Setting up conv2_2
I0601 17:39:53.979496  8165 net.cpp:157] Top shape: 32 128 150 150 (92160000)
I0601 17:39:53.979498  8165 net.cpp:165] Memory required for data: 4515840160
I0601 17:39:53.979502  8165 layer_factory.hpp:77] Creating layer relu2_2
I0601 17:39:53.979522  8165 net.cpp:100] Creating Layer relu2_2
I0601 17:39:53.979526  8165 net.cpp:434] relu2_2 <- conv2_2
I0601 17:39:53.979531  8165 net.cpp:395] relu2_2 -> conv2_2 (in-place)
I0601 17:39:53.979681  8165 net.cpp:150] Setting up relu2_2
I0601 17:39:53.979688  8165 net.cpp:157] Top shape: 32 128 150 150 (92160000)
I0601 17:39:53.979691  8165 net.cpp:165] Memory required for data: 4884480160
I0601 17:39:53.979692  8165 layer_factory.hpp:77] Creating layer pool2
I0601 17:39:53.979696  8165 net.cpp:100] Creating Layer pool2
I0601 17:39:53.979698  8165 net.cpp:434] pool2 <- conv2_2
I0601 17:39:53.979718  8165 net.cpp:408] pool2 -> pool2
I0601 17:39:53.979765  8165 net.cpp:150] Setting up pool2
I0601 17:39:53.979773  8165 net.cpp:157] Top shape: 32 128 75 75 (23040000)
I0601 17:39:53.979774  8165 net.cpp:165] Memory required for data: 4976640160
I0601 17:39:53.979776  8165 layer_factory.hpp:77] Creating layer conv3_1
I0601 17:39:53.979782  8165 net.cpp:100] Creating Layer conv3_1
I0601 17:39:53.979785  8165 net.cpp:434] conv3_1 <- pool2
I0601 17:39:53.979789  8165 net.cpp:408] conv3_1 -> conv3_1
I0601 17:39:53.983636  8165 net.cpp:150] Setting up conv3_1
I0601 17:39:53.983657  8165 net.cpp:157] Top shape: 32 256 75 75 (46080000)
I0601 17:39:53.983659  8165 net.cpp:165] Memory required for data: 5160960160
I0601 17:39:53.983671  8165 layer_factory.hpp:77] Creating layer relu3_1
I0601 17:39:53.983680  8165 net.cpp:100] Creating Layer relu3_1
I0601 17:39:53.983683  8165 net.cpp:434] relu3_1 <- conv3_1
I0601 17:39:53.983688  8165 net.cpp:395] relu3_1 -> conv3_1 (in-place)
I0601 17:39:53.983831  8165 net.cpp:150] Setting up relu3_1
I0601 17:39:53.983842  8165 net.cpp:157] Top shape: 32 256 75 75 (46080000)
I0601 17:39:53.983845  8165 net.cpp:165] Memory required for data: 5345280160
I0601 17:39:53.983847  8165 layer_factory.hpp:77] Creating layer conv3_2
I0601 17:39:53.983855  8165 net.cpp:100] Creating Layer conv3_2
I0601 17:39:53.983866  8165 net.cpp:434] conv3_2 <- conv3_1
I0601 17:39:53.983873  8165 net.cpp:408] conv3_2 -> conv3_2
I0601 17:39:53.988600  8165 net.cpp:150] Setting up conv3_2
I0601 17:39:53.988618  8165 net.cpp:157] Top shape: 32 256 75 75 (46080000)
I0601 17:39:53.988620  8165 net.cpp:165] Memory required for data: 5529600160
I0601 17:39:53.988642  8165 layer_factory.hpp:77] Creating layer relu3_2
I0601 17:39:53.988648  8165 net.cpp:100] Creating Layer relu3_2
I0601 17:39:53.988652  8165 net.cpp:434] relu3_2 <- conv3_2
I0601 17:39:53.988670  8165 net.cpp:395] relu3_2 -> conv3_2 (in-place)
I0601 17:39:53.988814  8165 net.cpp:150] Setting up relu3_2
I0601 17:39:53.988821  8165 net.cpp:157] Top shape: 32 256 75 75 (46080000)
I0601 17:39:53.988823  8165 net.cpp:165] Memory required for data: 5713920160
I0601 17:39:53.988852  8165 layer_factory.hpp:77] Creating layer conv3_3
I0601 17:39:53.988886  8165 net.cpp:100] Creating Layer conv3_3
I0601 17:39:53.988889  8165 net.cpp:434] conv3_3 <- conv3_2
I0601 17:39:53.988894  8165 net.cpp:408] conv3_3 -> conv3_3
I0601 17:39:53.993646  8165 net.cpp:150] Setting up conv3_3
I0601 17:39:53.993660  8165 net.cpp:157] Top shape: 32 256 75 75 (46080000)
I0601 17:39:53.993664  8165 net.cpp:165] Memory required for data: 5898240160
I0601 17:39:53.993669  8165 layer_factory.hpp:77] Creating layer relu3_3
I0601 17:39:53.993687  8165 net.cpp:100] Creating Layer relu3_3
I0601 17:39:53.993690  8165 net.cpp:434] relu3_3 <- conv3_3
I0601 17:39:53.993695  8165 net.cpp:395] relu3_3 -> conv3_3 (in-place)
I0601 17:39:53.993839  8165 net.cpp:150] Setting up relu3_3
I0601 17:39:53.993847  8165 net.cpp:157] Top shape: 32 256 75 75 (46080000)
I0601 17:39:53.993849  8165 net.cpp:165] Memory required for data: 6082560160
I0601 17:39:53.993852  8165 layer_factory.hpp:77] Creating layer pool3
I0601 17:39:53.993857  8165 net.cpp:100] Creating Layer pool3
I0601 17:39:53.993875  8165 net.cpp:434] pool3 <- conv3_3
I0601 17:39:53.993880  8165 net.cpp:408] pool3 -> pool3
I0601 17:39:53.993911  8165 net.cpp:150] Setting up pool3
I0601 17:39:53.993916  8165 net.cpp:157] Top shape: 32 256 38 38 (11829248)
I0601 17:39:53.993918  8165 net.cpp:165] Memory required for data: 6129877152
I0601 17:39:53.993921  8165 layer_factory.hpp:77] Creating layer conv4_1
I0601 17:39:53.993927  8165 net.cpp:100] Creating Layer conv4_1
I0601 17:39:53.993930  8165 net.cpp:434] conv4_1 <- pool3
I0601 17:39:53.993934  8165 net.cpp:408] conv4_1 -> conv4_1
I0601 17:39:54.002338  8165 net.cpp:150] Setting up conv4_1
I0601 17:39:54.002372  8165 net.cpp:157] Top shape: 32 512 38 38 (23658496)
I0601 17:39:54.002377  8165 net.cpp:165] Memory required for data: 6224511136
I0601 17:39:54.002399  8165 layer_factory.hpp:77] Creating layer relu4_1
I0601 17:39:54.002410  8165 net.cpp:100] Creating Layer relu4_1
I0601 17:39:54.002416  8165 net.cpp:434] relu4_1 <- conv4_1
I0601 17:39:54.002424  8165 net.cpp:395] relu4_1 -> conv4_1 (in-place)
I0601 17:39:54.003247  8165 net.cpp:150] Setting up relu4_1
I0601 17:39:54.003257  8165 net.cpp:157] Top shape: 32 512 38 38 (23658496)
I0601 17:39:54.003259  8165 net.cpp:165] Memory required for data: 6319145120
I0601 17:39:54.003262  8165 layer_factory.hpp:77] Creating layer conv4_2
I0601 17:39:54.003270  8165 net.cpp:100] Creating Layer conv4_2
I0601 17:39:54.003275  8165 net.cpp:434] conv4_2 <- conv4_1
I0601 17:39:54.003285  8165 net.cpp:408] conv4_2 -> conv4_2
I0601 17:39:54.015614  8165 net.cpp:150] Setting up conv4_2
I0601 17:39:54.015640  8165 net.cpp:157] Top shape: 32 512 38 38 (23658496)
I0601 17:39:54.015642  8165 net.cpp:165] Memory required for data: 6413779104
I0601 17:39:54.015655  8165 layer_factory.hpp:77] Creating layer relu4_2
I0601 17:39:54.015663  8165 net.cpp:100] Creating Layer relu4_2
I0601 17:39:54.015667  8165 net.cpp:434] relu4_2 <- conv4_2
I0601 17:39:54.015672  8165 net.cpp:395] relu4_2 -> conv4_2 (in-place)
I0601 17:39:54.016485  8165 net.cpp:150] Setting up relu4_2
I0601 17:39:54.016494  8165 net.cpp:157] Top shape: 32 512 38 38 (23658496)
I0601 17:39:54.016499  8165 net.cpp:165] Memory required for data: 6508413088
I0601 17:39:54.016504  8165 layer_factory.hpp:77] Creating layer conv4_3
I0601 17:39:54.016525  8165 net.cpp:100] Creating Layer conv4_3
I0601 17:39:54.016530  8165 net.cpp:434] conv4_3 <- conv4_2
I0601 17:39:54.016538  8165 net.cpp:408] conv4_3 -> conv4_3
I0601 17:39:54.029428  8165 net.cpp:150] Setting up conv4_3
I0601 17:39:54.029443  8165 net.cpp:157] Top shape: 32 512 38 38 (23658496)
I0601 17:39:54.029446  8165 net.cpp:165] Memory required for data: 6603047072
I0601 17:39:54.029454  8165 layer_factory.hpp:77] Creating layer relu4_3
I0601 17:39:54.029477  8165 net.cpp:100] Creating Layer relu4_3
I0601 17:39:54.029481  8165 net.cpp:434] relu4_3 <- conv4_3
I0601 17:39:54.029489  8165 net.cpp:395] relu4_3 -> conv4_3 (in-place)
I0601 17:39:54.029722  8165 net.cpp:150] Setting up relu4_3
I0601 17:39:54.029744  8165 net.cpp:157] Top shape: 32 512 38 38 (23658496)
I0601 17:39:54.029747  8165 net.cpp:165] Memory required for data: 6697681056
I0601 17:39:54.029752  8165 layer_factory.hpp:77] Creating layer conv4_3_relu4_3_0_split
I0601 17:39:54.029772  8165 net.cpp:100] Creating Layer conv4_3_relu4_3_0_split
I0601 17:39:54.029778  8165 net.cpp:434] conv4_3_relu4_3_0_split <- conv4_3
I0601 17:39:54.029783  8165 net.cpp:408] conv4_3_relu4_3_0_split -> conv4_3_relu4_3_0_split_0
I0601 17:39:54.029808  8165 net.cpp:408] conv4_3_relu4_3_0_split -> conv4_3_relu4_3_0_split_1
I0601 17:39:54.029883  8165 net.cpp:150] Setting up conv4_3_relu4_3_0_split
I0601 17:39:54.029891  8165 net.cpp:157] Top shape: 32 512 38 38 (23658496)
I0601 17:39:54.029907  8165 net.cpp:157] Top shape: 32 512 38 38 (23658496)
I0601 17:39:54.029911  8165 net.cpp:165] Memory required for data: 6886949024
I0601 17:39:54.029928  8165 layer_factory.hpp:77] Creating layer pool4
I0601 17:39:54.029950  8165 net.cpp:100] Creating Layer pool4
I0601 17:39:54.029954  8165 net.cpp:434] pool4 <- conv4_3_relu4_3_0_split_0
I0601 17:39:54.029960  8165 net.cpp:408] pool4 -> pool4
I0601 17:39:54.030014  8165 net.cpp:150] Setting up pool4
I0601 17:39:54.030020  8165 net.cpp:157] Top shape: 32 512 19 19 (5914624)
I0601 17:39:54.030023  8165 net.cpp:165] Memory required for data: 6910607520
I0601 17:39:54.030026  8165 layer_factory.hpp:77] Creating layer conv5_1
I0601 17:39:54.030051  8165 net.cpp:100] Creating Layer conv5_1
I0601 17:39:54.030055  8165 net.cpp:434] conv5_1 <- pool4
I0601 17:39:54.030063  8165 net.cpp:408] conv5_1 -> conv5_1
I0601 17:39:54.043025  8165 net.cpp:150] Setting up conv5_1
I0601 17:39:54.043042  8165 net.cpp:157] Top shape: 32 512 19 19 (5914624)
I0601 17:39:54.043046  8165 net.cpp:165] Memory required for data: 6934266016
I0601 17:39:54.043056  8165 layer_factory.hpp:77] Creating layer relu5_1
I0601 17:39:54.043079  8165 net.cpp:100] Creating Layer relu5_1
I0601 17:39:54.043097  8165 net.cpp:434] relu5_1 <- conv5_1
I0601 17:39:54.043118  8165 net.cpp:395] relu5_1 -> conv5_1 (in-place)
I0601 17:39:54.043308  8165 net.cpp:150] Setting up relu5_1
I0601 17:39:54.043315  8165 net.cpp:157] Top shape: 32 512 19 19 (5914624)
I0601 17:39:54.043319  8165 net.cpp:165] Memory required for data: 6957924512
I0601 17:39:54.043323  8165 layer_factory.hpp:77] Creating layer conv5_2
I0601 17:39:54.043349  8165 net.cpp:100] Creating Layer conv5_2
I0601 17:39:54.043367  8165 net.cpp:434] conv5_2 <- conv5_1
I0601 17:39:54.043373  8165 net.cpp:408] conv5_2 -> conv5_2
I0601 17:39:54.056268  8165 net.cpp:150] Setting up conv5_2
I0601 17:39:54.056288  8165 net.cpp:157] Top shape: 32 512 19 19 (5914624)
I0601 17:39:54.056291  8165 net.cpp:165] Memory required for data: 6981583008
I0601 17:39:54.056299  8165 layer_factory.hpp:77] Creating layer relu5_2
I0601 17:39:54.056310  8165 net.cpp:100] Creating Layer relu5_2
I0601 17:39:54.056329  8165 net.cpp:434] relu5_2 <- conv5_2
I0601 17:39:54.056336  8165 net.cpp:395] relu5_2 -> conv5_2 (in-place)
I0601 17:39:54.056495  8165 net.cpp:150] Setting up relu5_2
I0601 17:39:54.056504  8165 net.cpp:157] Top shape: 32 512 19 19 (5914624)
I0601 17:39:54.056506  8165 net.cpp:165] Memory required for data: 7005241504
I0601 17:39:54.056525  8165 layer_factory.hpp:77] Creating layer conv5_3
I0601 17:39:54.056540  8165 net.cpp:100] Creating Layer conv5_3
I0601 17:39:54.056543  8165 net.cpp:434] conv5_3 <- conv5_2
I0601 17:39:54.056553  8165 net.cpp:408] conv5_3 -> conv5_3
I0601 17:39:54.069954  8165 net.cpp:150] Setting up conv5_3
I0601 17:39:54.069972  8165 net.cpp:157] Top shape: 32 512 19 19 (5914624)
I0601 17:39:54.069977  8165 net.cpp:165] Memory required for data: 7028900000
I0601 17:39:54.069988  8165 layer_factory.hpp:77] Creating layer relu5_3
I0601 17:39:54.070003  8165 net.cpp:100] Creating Layer relu5_3
I0601 17:39:54.070008  8165 net.cpp:434] relu5_3 <- conv5_3
I0601 17:39:54.070016  8165 net.cpp:395] relu5_3 -> conv5_3 (in-place)
I0601 17:39:54.070160  8165 net.cpp:150] Setting up relu5_3
I0601 17:39:54.070176  8165 net.cpp:157] Top shape: 32 512 19 19 (5914624)
I0601 17:39:54.070180  8165 net.cpp:165] Memory required for data: 7052558496
I0601 17:39:54.070184  8165 layer_factory.hpp:77] Creating layer pool5
I0601 17:39:54.070192  8165 net.cpp:100] Creating Layer pool5
I0601 17:39:54.070196  8165 net.cpp:434] pool5 <- conv5_3
I0601 17:39:54.070202  8165 net.cpp:408] pool5 -> pool5
I0601 17:39:54.070283  8165 net.cpp:150] Setting up pool5
I0601 17:39:54.070289  8165 net.cpp:157] Top shape: 32 512 19 19 (5914624)
I0601 17:39:54.070292  8165 net.cpp:165] Memory required for data: 7076216992
I0601 17:39:54.070297  8165 layer_factory.hpp:77] Creating layer fc6
I0601 17:39:54.070307  8165 net.cpp:100] Creating Layer fc6
I0601 17:39:54.070312  8165 net.cpp:434] fc6 <- pool5
I0601 17:39:54.070318  8165 net.cpp:408] fc6 -> fc6
I0601 17:39:54.093183  8165 net.cpp:150] Setting up fc6
I0601 17:39:54.093201  8165 net.cpp:157] Top shape: 32 1024 19 19 (11829248)
I0601 17:39:54.093204  8165 net.cpp:165] Memory required for data: 7123533984
I0601 17:39:54.093211  8165 layer_factory.hpp:77] Creating layer relu6
I0601 17:39:54.093235  8165 net.cpp:100] Creating Layer relu6
I0601 17:39:54.093240  8165 net.cpp:434] relu6 <- fc6
I0601 17:39:54.093247  8165 net.cpp:395] relu6 -> fc6 (in-place)
I0601 17:39:54.094158  8165 net.cpp:150] Setting up relu6
I0601 17:39:54.094168  8165 net.cpp:157] Top shape: 32 1024 19 19 (11829248)
I0601 17:39:54.094173  8165 net.cpp:165] Memory required for data: 7170850976
I0601 17:39:54.094177  8165 layer_factory.hpp:77] Creating layer fc7
I0601 17:39:54.094190  8165 net.cpp:100] Creating Layer fc7
I0601 17:39:54.094194  8165 net.cpp:434] fc7 <- fc6
I0601 17:39:54.094202  8165 net.cpp:408] fc7 -> fc7
I0601 17:39:54.101116  8165 net.cpp:150] Setting up fc7
I0601 17:39:54.101135  8165 net.cpp:157] Top shape: 32 1024 19 19 (11829248)
I0601 17:39:54.101140  8165 net.cpp:165] Memory required for data: 7218167968
I0601 17:39:54.101148  8165 layer_factory.hpp:77] Creating layer relu7
I0601 17:39:54.101172  8165 net.cpp:100] Creating Layer relu7
I0601 17:39:54.101191  8165 net.cpp:434] relu7 <- fc7
I0601 17:39:54.101198  8165 net.cpp:395] relu7 -> fc7 (in-place)
I0601 17:39:54.101384  8165 net.cpp:150] Setting up relu7
I0601 17:39:54.101407  8165 net.cpp:157] Top shape: 32 1024 19 19 (11829248)
I0601 17:39:54.101410  8165 net.cpp:165] Memory required for data: 7265484960
I0601 17:39:54.101413  8165 layer_factory.hpp:77] Creating layer fc7_relu7_0_split
I0601 17:39:54.101423  8165 net.cpp:100] Creating Layer fc7_relu7_0_split
I0601 17:39:54.101439  8165 net.cpp:434] fc7_relu7_0_split <- fc7
I0601 17:39:54.101445  8165 net.cpp:408] fc7_relu7_0_split -> fc7_relu7_0_split_0
I0601 17:39:54.101467  8165 net.cpp:408] fc7_relu7_0_split -> fc7_relu7_0_split_1
I0601 17:39:54.101481  8165 net.cpp:408] fc7_relu7_0_split -> fc7_relu7_0_split_2
I0601 17:39:54.101490  8165 net.cpp:408] fc7_relu7_0_split -> fc7_relu7_0_split_3
I0601 17:39:54.101543  8165 net.cpp:150] Setting up fc7_relu7_0_split
I0601 17:39:54.101549  8165 net.cpp:157] Top shape: 32 1024 19 19 (11829248)
I0601 17:39:54.101557  8165 net.cpp:157] Top shape: 32 1024 19 19 (11829248)
I0601 17:39:54.101562  8165 net.cpp:157] Top shape: 32 1024 19 19 (11829248)
I0601 17:39:54.101567  8165 net.cpp:157] Top shape: 32 1024 19 19 (11829248)
I0601 17:39:54.101570  8165 net.cpp:165] Memory required for data: 7454752928
I0601 17:39:54.101574  8165 layer_factory.hpp:77] Creating layer conv6_1
I0601 17:39:54.101585  8165 net.cpp:100] Creating Layer conv6_1
I0601 17:39:54.101589  8165 net.cpp:434] conv6_1 <- fc7_relu7_0_split_0
I0601 17:39:54.101596  8165 net.cpp:408] conv6_1 -> conv6_1
I0601 17:39:54.105003  8165 net.cpp:150] Setting up conv6_1
I0601 17:39:54.105015  8165 net.cpp:157] Top shape: 32 256 19 19 (2957312)
I0601 17:39:54.105018  8165 net.cpp:165] Memory required for data: 7466582176
I0601 17:39:54.105026  8165 layer_factory.hpp:77] Creating layer conv6_1_relu
I0601 17:39:54.105033  8165 net.cpp:100] Creating Layer conv6_1_relu
I0601 17:39:54.105047  8165 net.cpp:434] conv6_1_relu <- conv6_1
I0601 17:39:54.105056  8165 net.cpp:395] conv6_1_relu -> conv6_1 (in-place)
I0601 17:39:54.105188  8165 net.cpp:150] Setting up conv6_1_relu
I0601 17:39:54.105196  8165 net.cpp:157] Top shape: 32 256 19 19 (2957312)
I0601 17:39:54.105201  8165 net.cpp:165] Memory required for data: 7478411424
I0601 17:39:54.105203  8165 layer_factory.hpp:77] Creating layer conv6_2
I0601 17:39:54.105214  8165 net.cpp:100] Creating Layer conv6_2
I0601 17:39:54.105218  8165 net.cpp:434] conv6_2 <- conv6_1
I0601 17:39:54.105228  8165 net.cpp:408] conv6_2 -> conv6_2
I0601 17:39:54.112157  8165 net.cpp:150] Setting up conv6_2
I0601 17:39:54.112176  8165 net.cpp:157] Top shape: 32 512 10 10 (1638400)
I0601 17:39:54.112180  8165 net.cpp:165] Memory required for data: 7484965024
I0601 17:39:54.112196  8165 layer_factory.hpp:77] Creating layer conv6_2_relu
I0601 17:39:54.112206  8165 net.cpp:100] Creating Layer conv6_2_relu
I0601 17:39:54.112212  8165 net.cpp:434] conv6_2_relu <- conv6_2
I0601 17:39:54.112222  8165 net.cpp:395] conv6_2_relu -> conv6_2 (in-place)
I0601 17:39:54.112368  8165 net.cpp:150] Setting up conv6_2_relu
I0601 17:39:54.112391  8165 net.cpp:157] Top shape: 32 512 10 10 (1638400)
I0601 17:39:54.112395  8165 net.cpp:165] Memory required for data: 7491518624
I0601 17:39:54.112399  8165 layer_factory.hpp:77] Creating layer conv6_2_conv6_2_relu_0_split
I0601 17:39:54.112407  8165 net.cpp:100] Creating Layer conv6_2_conv6_2_relu_0_split
I0601 17:39:54.112426  8165 net.cpp:434] conv6_2_conv6_2_relu_0_split <- conv6_2
I0601 17:39:54.112432  8165 net.cpp:408] conv6_2_conv6_2_relu_0_split -> conv6_2_conv6_2_relu_0_split_0
I0601 17:39:54.112443  8165 net.cpp:408] conv6_2_conv6_2_relu_0_split -> conv6_2_conv6_2_relu_0_split_1
I0601 17:39:54.112452  8165 net.cpp:408] conv6_2_conv6_2_relu_0_split -> conv6_2_conv6_2_relu_0_split_2
I0601 17:39:54.112459  8165 net.cpp:408] conv6_2_conv6_2_relu_0_split -> conv6_2_conv6_2_relu_0_split_3
I0601 17:39:54.112545  8165 net.cpp:150] Setting up conv6_2_conv6_2_relu_0_split
I0601 17:39:54.112551  8165 net.cpp:157] Top shape: 32 512 10 10 (1638400)
I0601 17:39:54.112556  8165 net.cpp:157] Top shape: 32 512 10 10 (1638400)
I0601 17:39:54.112561  8165 net.cpp:157] Top shape: 32 512 10 10 (1638400)
I0601 17:39:54.112581  8165 net.cpp:157] Top shape: 32 512 10 10 (1638400)
I0601 17:39:54.112586  8165 net.cpp:165] Memory required for data: 7517733024
I0601 17:39:54.112589  8165 layer_factory.hpp:77] Creating layer conv7_1
I0601 17:39:54.112601  8165 net.cpp:100] Creating Layer conv7_1
I0601 17:39:54.112618  8165 net.cpp:434] conv7_1 <- conv6_2_conv6_2_relu_0_split_0
I0601 17:39:54.112625  8165 net.cpp:408] conv7_1 -> conv7_1
I0601 17:39:54.114236  8165 net.cpp:150] Setting up conv7_1
I0601 17:39:54.114248  8165 net.cpp:157] Top shape: 32 128 10 10 (409600)
I0601 17:39:54.114251  8165 net.cpp:165] Memory required for data: 7519371424
I0601 17:39:54.114259  8165 layer_factory.hpp:77] Creating layer conv7_1_relu
I0601 17:39:54.114266  8165 net.cpp:100] Creating Layer conv7_1_relu
I0601 17:39:54.114271  8165 net.cpp:434] conv7_1_relu <- conv7_1
I0601 17:39:54.114279  8165 net.cpp:395] conv7_1_relu -> conv7_1 (in-place)
I0601 17:39:54.114418  8165 net.cpp:150] Setting up conv7_1_relu
I0601 17:39:54.114425  8165 net.cpp:157] Top shape: 32 128 10 10 (409600)
I0601 17:39:54.114429  8165 net.cpp:165] Memory required for data: 7521009824
I0601 17:39:54.114433  8165 layer_factory.hpp:77] Creating layer conv7_2
I0601 17:39:54.114442  8165 net.cpp:100] Creating Layer conv7_2
I0601 17:39:54.114447  8165 net.cpp:434] conv7_2 <- conv7_1
I0601 17:39:54.114456  8165 net.cpp:408] conv7_2 -> conv7_2
I0601 17:39:54.117408  8165 net.cpp:150] Setting up conv7_2
I0601 17:39:54.117425  8165 net.cpp:157] Top shape: 32 256 5 5 (204800)
I0601 17:39:54.117429  8165 net.cpp:165] Memory required for data: 7521829024
I0601 17:39:54.117439  8165 layer_factory.hpp:77] Creating layer conv7_2_relu
I0601 17:39:54.117449  8165 net.cpp:100] Creating Layer conv7_2_relu
I0601 17:39:54.117456  8165 net.cpp:434] conv7_2_relu <- conv7_2
I0601 17:39:54.117472  8165 net.cpp:395] conv7_2_relu -> conv7_2 (in-place)
I0601 17:39:54.117606  8165 net.cpp:150] Setting up conv7_2_relu
I0601 17:39:54.117614  8165 net.cpp:157] Top shape: 32 256 5 5 (204800)
I0601 17:39:54.117619  8165 net.cpp:165] Memory required for data: 7522648224
I0601 17:39:54.117622  8165 layer_factory.hpp:77] Creating layer conv7_2_conv7_2_relu_0_split
I0601 17:39:54.117630  8165 net.cpp:100] Creating Layer conv7_2_conv7_2_relu_0_split
I0601 17:39:54.117635  8165 net.cpp:434] conv7_2_conv7_2_relu_0_split <- conv7_2
I0601 17:39:54.117643  8165 net.cpp:408] conv7_2_conv7_2_relu_0_split -> conv7_2_conv7_2_relu_0_split_0
I0601 17:39:54.117653  8165 net.cpp:408] conv7_2_conv7_2_relu_0_split -> conv7_2_conv7_2_relu_0_split_1
I0601 17:39:54.117662  8165 net.cpp:408] conv7_2_conv7_2_relu_0_split -> conv7_2_conv7_2_relu_0_split_2
I0601 17:39:54.117671  8165 net.cpp:408] conv7_2_conv7_2_relu_0_split -> conv7_2_conv7_2_relu_0_split_3
I0601 17:39:54.117725  8165 net.cpp:150] Setting up conv7_2_conv7_2_relu_0_split
I0601 17:39:54.117733  8165 net.cpp:157] Top shape: 32 256 5 5 (204800)
I0601 17:39:54.117738  8165 net.cpp:157] Top shape: 32 256 5 5 (204800)
I0601 17:39:54.117741  8165 net.cpp:157] Top shape: 32 256 5 5 (204800)
I0601 17:39:54.117746  8165 net.cpp:157] Top shape: 32 256 5 5 (204800)
I0601 17:39:54.117750  8165 net.cpp:165] Memory required for data: 7525925024
I0601 17:39:54.117753  8165 layer_factory.hpp:77] Creating layer conv8_1
I0601 17:39:54.117764  8165 net.cpp:100] Creating Layer conv8_1
I0601 17:39:54.117769  8165 net.cpp:434] conv8_1 <- conv7_2_conv7_2_relu_0_split_0
I0601 17:39:54.117779  8165 net.cpp:408] conv8_1 -> conv8_1
I0601 17:39:54.119009  8165 net.cpp:150] Setting up conv8_1
I0601 17:39:54.119020  8165 net.cpp:157] Top shape: 32 128 5 5 (102400)
I0601 17:39:54.119024  8165 net.cpp:165] Memory required for data: 7526334624
I0601 17:39:54.119032  8165 layer_factory.hpp:77] Creating layer conv8_1_relu
I0601 17:39:54.119040  8165 net.cpp:100] Creating Layer conv8_1_relu
I0601 17:39:54.119045  8165 net.cpp:434] conv8_1_relu <- conv8_1
I0601 17:39:54.119051  8165 net.cpp:395] conv8_1_relu -> conv8_1 (in-place)
I0601 17:39:54.119630  8165 net.cpp:150] Setting up conv8_1_relu
I0601 17:39:54.119642  8165 net.cpp:157] Top shape: 32 128 5 5 (102400)
I0601 17:39:54.119644  8165 net.cpp:165] Memory required for data: 7526744224
I0601 17:39:54.119648  8165 layer_factory.hpp:77] Creating layer conv8_2
I0601 17:39:54.119660  8165 net.cpp:100] Creating Layer conv8_2
I0601 17:39:54.119666  8165 net.cpp:434] conv8_2 <- conv8_1
I0601 17:39:54.119673  8165 net.cpp:408] conv8_2 -> conv8_2
I0601 17:39:54.122676  8165 net.cpp:150] Setting up conv8_2
I0601 17:39:54.122694  8165 net.cpp:157] Top shape: 32 256 3 3 (73728)
I0601 17:39:54.122697  8165 net.cpp:165] Memory required for data: 7527039136
I0601 17:39:54.122706  8165 layer_factory.hpp:77] Creating layer conv8_2_relu
I0601 17:39:54.122716  8165 net.cpp:100] Creating Layer conv8_2_relu
I0601 17:39:54.122721  8165 net.cpp:434] conv8_2_relu <- conv8_2
I0601 17:39:54.122730  8165 net.cpp:395] conv8_2_relu -> conv8_2 (in-place)
I0601 17:39:54.122896  8165 net.cpp:150] Setting up conv8_2_relu
I0601 17:39:54.122905  8165 net.cpp:157] Top shape: 32 256 3 3 (73728)
I0601 17:39:54.122910  8165 net.cpp:165] Memory required for data: 7527334048
I0601 17:39:54.122913  8165 layer_factory.hpp:77] Creating layer conv8_2_conv8_2_relu_0_split
I0601 17:39:54.122920  8165 net.cpp:100] Creating Layer conv8_2_conv8_2_relu_0_split
I0601 17:39:54.122925  8165 net.cpp:434] conv8_2_conv8_2_relu_0_split <- conv8_2
I0601 17:39:54.122933  8165 net.cpp:408] conv8_2_conv8_2_relu_0_split -> conv8_2_conv8_2_relu_0_split_0
I0601 17:39:54.122943  8165 net.cpp:408] conv8_2_conv8_2_relu_0_split -> conv8_2_conv8_2_relu_0_split_1
I0601 17:39:54.122951  8165 net.cpp:408] conv8_2_conv8_2_relu_0_split -> conv8_2_conv8_2_relu_0_split_2
I0601 17:39:54.122961  8165 net.cpp:408] conv8_2_conv8_2_relu_0_split -> conv8_2_conv8_2_relu_0_split_3
I0601 17:39:54.123030  8165 net.cpp:150] Setting up conv8_2_conv8_2_relu_0_split
I0601 17:39:54.123039  8165 net.cpp:157] Top shape: 32 256 3 3 (73728)
I0601 17:39:54.123044  8165 net.cpp:157] Top shape: 32 256 3 3 (73728)
I0601 17:39:54.123047  8165 net.cpp:157] Top shape: 32 256 3 3 (73728)
I0601 17:39:54.123052  8165 net.cpp:157] Top shape: 32 256 3 3 (73728)
I0601 17:39:54.123056  8165 net.cpp:165] Memory required for data: 7528513696
I0601 17:39:54.123060  8165 layer_factory.hpp:77] Creating layer conv9_1
I0601 17:39:54.123071  8165 net.cpp:100] Creating Layer conv9_1
I0601 17:39:54.123075  8165 net.cpp:434] conv9_1 <- conv8_2_conv8_2_relu_0_split_0
I0601 17:39:54.123085  8165 net.cpp:408] conv9_1 -> conv9_1
I0601 17:39:54.124361  8165 net.cpp:150] Setting up conv9_1
I0601 17:39:54.124375  8165 net.cpp:157] Top shape: 32 128 3 3 (36864)
I0601 17:39:54.124379  8165 net.cpp:165] Memory required for data: 7528661152
I0601 17:39:54.124388  8165 layer_factory.hpp:77] Creating layer conv9_1_relu
I0601 17:39:54.124397  8165 net.cpp:100] Creating Layer conv9_1_relu
I0601 17:39:54.124402  8165 net.cpp:434] conv9_1_relu <- conv9_1
I0601 17:39:54.124409  8165 net.cpp:395] conv9_1_relu -> conv9_1 (in-place)
I0601 17:39:54.124547  8165 net.cpp:150] Setting up conv9_1_relu
I0601 17:39:54.124553  8165 net.cpp:157] Top shape: 32 128 3 3 (36864)
I0601 17:39:54.124557  8165 net.cpp:165] Memory required for data: 7528808608
I0601 17:39:54.124562  8165 layer_factory.hpp:77] Creating layer conv9_2
I0601 17:39:54.124573  8165 net.cpp:100] Creating Layer conv9_2
I0601 17:39:54.124577  8165 net.cpp:434] conv9_2 <- conv9_1
I0601 17:39:54.124583  8165 net.cpp:408] conv9_2 -> conv9_2
I0601 17:39:54.128218  8165 net.cpp:150] Setting up conv9_2
I0601 17:39:54.128238  8165 net.cpp:157] Top shape: 32 256 1 1 (8192)
I0601 17:39:54.128242  8165 net.cpp:165] Memory required for data: 7528841376
I0601 17:39:54.128252  8165 layer_factory.hpp:77] Creating layer conv9_2_relu
I0601 17:39:54.128260  8165 net.cpp:100] Creating Layer conv9_2_relu
I0601 17:39:54.128268  8165 net.cpp:434] conv9_2_relu <- conv9_2
I0601 17:39:54.128275  8165 net.cpp:395] conv9_2_relu -> conv9_2 (in-place)
I0601 17:39:54.128410  8165 net.cpp:150] Setting up conv9_2_relu
I0601 17:39:54.128418  8165 net.cpp:157] Top shape: 32 256 1 1 (8192)
I0601 17:39:54.128422  8165 net.cpp:165] Memory required for data: 7528874144
I0601 17:39:54.128427  8165 layer_factory.hpp:77] Creating layer conv9_2_conv9_2_relu_0_split
I0601 17:39:54.128432  8165 net.cpp:100] Creating Layer conv9_2_conv9_2_relu_0_split
I0601 17:39:54.128437  8165 net.cpp:434] conv9_2_conv9_2_relu_0_split <- conv9_2
I0601 17:39:54.128445  8165 net.cpp:408] conv9_2_conv9_2_relu_0_split -> conv9_2_conv9_2_relu_0_split_0
I0601 17:39:54.128454  8165 net.cpp:408] conv9_2_conv9_2_relu_0_split -> conv9_2_conv9_2_relu_0_split_1
I0601 17:39:54.128464  8165 net.cpp:408] conv9_2_conv9_2_relu_0_split -> conv9_2_conv9_2_relu_0_split_2
I0601 17:39:54.128514  8165 net.cpp:150] Setting up conv9_2_conv9_2_relu_0_split
I0601 17:39:54.128520  8165 net.cpp:157] Top shape: 32 256 1 1 (8192)
I0601 17:39:54.128525  8165 net.cpp:157] Top shape: 32 256 1 1 (8192)
I0601 17:39:54.128531  8165 net.cpp:157] Top shape: 32 256 1 1 (8192)
I0601 17:39:54.128535  8165 net.cpp:165] Memory required for data: 7528972448
I0601 17:39:54.128538  8165 layer_factory.hpp:77] Creating layer conv4_3_norm
I0601 17:39:54.128548  8165 net.cpp:100] Creating Layer conv4_3_norm
I0601 17:39:54.128553  8165 net.cpp:434] conv4_3_norm <- conv4_3_relu4_3_0_split_1
I0601 17:39:54.128559  8165 net.cpp:408] conv4_3_norm -> conv4_3_norm
I0601 17:39:54.128690  8165 net.cpp:150] Setting up conv4_3_norm
I0601 17:39:54.128697  8165 net.cpp:157] Top shape: 32 512 38 38 (23658496)
I0601 17:39:54.128700  8165 net.cpp:165] Memory required for data: 7623606432
I0601 17:39:54.128705  8165 layer_factory.hpp:77] Creating layer conv4_3_norm_conv4_3_norm_0_split
I0601 17:39:54.128713  8165 net.cpp:100] Creating Layer conv4_3_norm_conv4_3_norm_0_split
I0601 17:39:54.128718  8165 net.cpp:434] conv4_3_norm_conv4_3_norm_0_split <- conv4_3_norm
I0601 17:39:54.128736  8165 net.cpp:408] conv4_3_norm_conv4_3_norm_0_split -> conv4_3_norm_conv4_3_norm_0_split_0
I0601 17:39:54.128744  8165 net.cpp:408] conv4_3_norm_conv4_3_norm_0_split -> conv4_3_norm_conv4_3_norm_0_split_1
I0601 17:39:54.128751  8165 net.cpp:408] conv4_3_norm_conv4_3_norm_0_split -> conv4_3_norm_conv4_3_norm_0_split_2
I0601 17:39:54.128793  8165 net.cpp:150] Setting up conv4_3_norm_conv4_3_norm_0_split
I0601 17:39:54.128799  8165 net.cpp:157] Top shape: 32 512 38 38 (23658496)
I0601 17:39:54.128804  8165 net.cpp:157] Top shape: 32 512 38 38 (23658496)
I0601 17:39:54.128809  8165 net.cpp:157] Top shape: 32 512 38 38 (23658496)
I0601 17:39:54.128814  8165 net.cpp:165] Memory required for data: 7907508384
I0601 17:39:54.128818  8165 layer_factory.hpp:77] Creating layer conv4_3_norm_mbox_loc
I0601 17:39:54.128829  8165 net.cpp:100] Creating Layer conv4_3_norm_mbox_loc
I0601 17:39:54.128832  8165 net.cpp:434] conv4_3_norm_mbox_loc <- conv4_3_norm_conv4_3_norm_0_split_0
I0601 17:39:54.128840  8165 net.cpp:408] conv4_3_norm_mbox_loc -> conv4_3_norm_mbox_loc
I0601 17:39:54.131397  8165 net.cpp:150] Setting up conv4_3_norm_mbox_loc
I0601 17:39:54.131413  8165 net.cpp:157] Top shape: 32 16 38 38 (739328)
I0601 17:39:54.131417  8165 net.cpp:165] Memory required for data: 7910465696
I0601 17:39:54.131428  8165 layer_factory.hpp:77] Creating layer conv4_3_norm_mbox_loc_perm
I0601 17:39:54.131436  8165 net.cpp:100] Creating Layer conv4_3_norm_mbox_loc_perm
I0601 17:39:54.131443  8165 net.cpp:434] conv4_3_norm_mbox_loc_perm <- conv4_3_norm_mbox_loc
I0601 17:39:54.131451  8165 net.cpp:408] conv4_3_norm_mbox_loc_perm -> conv4_3_norm_mbox_loc_perm
I0601 17:39:54.131548  8165 net.cpp:150] Setting up conv4_3_norm_mbox_loc_perm
I0601 17:39:54.131556  8165 net.cpp:157] Top shape: 32 38 38 16 (739328)
I0601 17:39:54.131558  8165 net.cpp:165] Memory required for data: 7913423008
I0601 17:39:54.131562  8165 layer_factory.hpp:77] Creating layer conv4_3_norm_mbox_loc_flat
I0601 17:39:54.131569  8165 net.cpp:100] Creating Layer conv4_3_norm_mbox_loc_flat
I0601 17:39:54.131574  8165 net.cpp:434] conv4_3_norm_mbox_loc_flat <- conv4_3_norm_mbox_loc_perm
I0601 17:39:54.131582  8165 net.cpp:408] conv4_3_norm_mbox_loc_flat -> conv4_3_norm_mbox_loc_flat
I0601 17:39:54.131616  8165 net.cpp:150] Setting up conv4_3_norm_mbox_loc_flat
I0601 17:39:54.131623  8165 net.cpp:157] Top shape: 32 23104 (739328)
I0601 17:39:54.131628  8165 net.cpp:165] Memory required for data: 7916380320
I0601 17:39:54.131630  8165 layer_factory.hpp:77] Creating layer conv4_3_norm_mbox_conf
I0601 17:39:54.131649  8165 net.cpp:100] Creating Layer conv4_3_norm_mbox_conf
I0601 17:39:54.131654  8165 net.cpp:434] conv4_3_norm_mbox_conf <- conv4_3_norm_conv4_3_norm_0_split_1
I0601 17:39:54.131661  8165 net.cpp:408] conv4_3_norm_mbox_conf -> conv4_3_norm_mbox_conf
I0601 17:39:54.134230  8165 net.cpp:150] Setting up conv4_3_norm_mbox_conf
I0601 17:39:54.134253  8165 net.cpp:157] Top shape: 32 16 38 38 (739328)
I0601 17:39:54.134259  8165 net.cpp:165] Memory required for data: 7919337632
I0601 17:39:54.134271  8165 layer_factory.hpp:77] Creating layer conv4_3_norm_mbox_conf_perm
I0601 17:39:54.134282  8165 net.cpp:100] Creating Layer conv4_3_norm_mbox_conf_perm
I0601 17:39:54.134290  8165 net.cpp:434] conv4_3_norm_mbox_conf_perm <- conv4_3_norm_mbox_conf
I0601 17:39:54.134301  8165 net.cpp:408] conv4_3_norm_mbox_conf_perm -> conv4_3_norm_mbox_conf_perm
I0601 17:39:54.134435  8165 net.cpp:150] Setting up conv4_3_norm_mbox_conf_perm
I0601 17:39:54.134444  8165 net.cpp:157] Top shape: 32 38 38 16 (739328)
I0601 17:39:54.134449  8165 net.cpp:165] Memory required for data: 7922294944
I0601 17:39:54.134454  8165 layer_factory.hpp:77] Creating layer conv4_3_norm_mbox_conf_flat
I0601 17:39:54.134462  8165 net.cpp:100] Creating Layer conv4_3_norm_mbox_conf_flat
I0601 17:39:54.134467  8165 net.cpp:434] conv4_3_norm_mbox_conf_flat <- conv4_3_norm_mbox_conf_perm
I0601 17:39:54.134474  8165 net.cpp:408] conv4_3_norm_mbox_conf_flat -> conv4_3_norm_mbox_conf_flat
I0601 17:39:54.134516  8165 net.cpp:150] Setting up conv4_3_norm_mbox_conf_flat
I0601 17:39:54.134524  8165 net.cpp:157] Top shape: 32 23104 (739328)
I0601 17:39:54.134528  8165 net.cpp:165] Memory required for data: 7925252256
I0601 17:39:54.134532  8165 layer_factory.hpp:77] Creating layer conv4_3_norm_mbox_priorbox
I0601 17:39:54.134542  8165 net.cpp:100] Creating Layer conv4_3_norm_mbox_priorbox
I0601 17:39:54.134548  8165 net.cpp:434] conv4_3_norm_mbox_priorbox <- conv4_3_norm_conv4_3_norm_0_split_2
I0601 17:39:54.134555  8165 net.cpp:434] conv4_3_norm_mbox_priorbox <- data_data_0_split_1
I0601 17:39:54.134563  8165 net.cpp:408] conv4_3_norm_mbox_priorbox -> conv4_3_norm_mbox_priorbox
I0601 17:39:54.134598  8165 net.cpp:150] Setting up conv4_3_norm_mbox_priorbox
I0601 17:39:54.134606  8165 net.cpp:157] Top shape: 1 2 23104 (46208)
I0601 17:39:54.134611  8165 net.cpp:165] Memory required for data: 7925437088
I0601 17:39:54.134614  8165 layer_factory.hpp:77] Creating layer fc7_mbox_loc
I0601 17:39:54.134630  8165 net.cpp:100] Creating Layer fc7_mbox_loc
I0601 17:39:54.134636  8165 net.cpp:434] fc7_mbox_loc <- fc7_relu7_0_split_1
I0601 17:39:54.134644  8165 net.cpp:408] fc7_mbox_loc -> fc7_mbox_loc
I0601 17:39:54.137545  8165 net.cpp:150] Setting up fc7_mbox_loc
I0601 17:39:54.137562  8165 net.cpp:157] Top shape: 32 24 19 19 (277248)
I0601 17:39:54.137565  8165 net.cpp:165] Memory required for data: 7926546080
I0601 17:39:54.137573  8165 layer_factory.hpp:77] Creating layer fc7_mbox_loc_perm
I0601 17:39:54.137579  8165 net.cpp:100] Creating Layer fc7_mbox_loc_perm
I0601 17:39:54.137585  8165 net.cpp:434] fc7_mbox_loc_perm <- fc7_mbox_loc
I0601 17:39:54.137590  8165 net.cpp:408] fc7_mbox_loc_perm -> fc7_mbox_loc_perm
I0601 17:39:54.137677  8165 net.cpp:150] Setting up fc7_mbox_loc_perm
I0601 17:39:54.137682  8165 net.cpp:157] Top shape: 32 19 19 24 (277248)
I0601 17:39:54.137686  8165 net.cpp:165] Memory required for data: 7927655072
I0601 17:39:54.137687  8165 layer_factory.hpp:77] Creating layer fc7_mbox_loc_flat
I0601 17:39:54.137691  8165 net.cpp:100] Creating Layer fc7_mbox_loc_flat
I0601 17:39:54.137693  8165 net.cpp:434] fc7_mbox_loc_flat <- fc7_mbox_loc_perm
I0601 17:39:54.137698  8165 net.cpp:408] fc7_mbox_loc_flat -> fc7_mbox_loc_flat
I0601 17:39:54.137717  8165 net.cpp:150] Setting up fc7_mbox_loc_flat
I0601 17:39:54.137722  8165 net.cpp:157] Top shape: 32 8664 (277248)
I0601 17:39:54.137723  8165 net.cpp:165] Memory required for data: 7928764064
I0601 17:39:54.137727  8165 layer_factory.hpp:77] Creating layer fc7_mbox_conf
I0601 17:39:54.137733  8165 net.cpp:100] Creating Layer fc7_mbox_conf
I0601 17:39:54.137737  8165 net.cpp:434] fc7_mbox_conf <- fc7_relu7_0_split_2
I0601 17:39:54.137742  8165 net.cpp:408] fc7_mbox_conf -> fc7_mbox_conf
I0601 17:39:54.140141  8165 net.cpp:150] Setting up fc7_mbox_conf
I0601 17:39:54.140153  8165 net.cpp:157] Top shape: 32 24 19 19 (277248)
I0601 17:39:54.140156  8165 net.cpp:165] Memory required for data: 7929873056
I0601 17:39:54.140161  8165 layer_factory.hpp:77] Creating layer fc7_mbox_conf_perm
I0601 17:39:54.140168  8165 net.cpp:100] Creating Layer fc7_mbox_conf_perm
I0601 17:39:54.140172  8165 net.cpp:434] fc7_mbox_conf_perm <- fc7_mbox_conf
I0601 17:39:54.140177  8165 net.cpp:408] fc7_mbox_conf_perm -> fc7_mbox_conf_perm
I0601 17:39:54.140262  8165 net.cpp:150] Setting up fc7_mbox_conf_perm
I0601 17:39:54.140269  8165 net.cpp:157] Top shape: 32 19 19 24 (277248)
I0601 17:39:54.140270  8165 net.cpp:165] Memory required for data: 7930982048
I0601 17:39:54.140272  8165 layer_factory.hpp:77] Creating layer fc7_mbox_conf_flat
I0601 17:39:54.140276  8165 net.cpp:100] Creating Layer fc7_mbox_conf_flat
I0601 17:39:54.140280  8165 net.cpp:434] fc7_mbox_conf_flat <- fc7_mbox_conf_perm
I0601 17:39:54.140285  8165 net.cpp:408] fc7_mbox_conf_flat -> fc7_mbox_conf_flat
I0601 17:39:54.140302  8165 net.cpp:150] Setting up fc7_mbox_conf_flat
I0601 17:39:54.140307  8165 net.cpp:157] Top shape: 32 8664 (277248)
I0601 17:39:54.140310  8165 net.cpp:165] Memory required for data: 7932091040
I0601 17:39:54.140322  8165 layer_factory.hpp:77] Creating layer fc7_mbox_priorbox
I0601 17:39:54.140327  8165 net.cpp:100] Creating Layer fc7_mbox_priorbox
I0601 17:39:54.140331  8165 net.cpp:434] fc7_mbox_priorbox <- fc7_relu7_0_split_3
I0601 17:39:54.140334  8165 net.cpp:434] fc7_mbox_priorbox <- data_data_0_split_2
I0601 17:39:54.140341  8165 net.cpp:408] fc7_mbox_priorbox -> fc7_mbox_priorbox
I0601 17:39:54.140363  8165 net.cpp:150] Setting up fc7_mbox_priorbox
I0601 17:39:54.140369  8165 net.cpp:157] Top shape: 1 2 8664 (17328)
I0601 17:39:54.140372  8165 net.cpp:165] Memory required for data: 7932160352
I0601 17:39:54.140374  8165 layer_factory.hpp:77] Creating layer conv6_2_mbox_loc
I0601 17:39:54.140383  8165 net.cpp:100] Creating Layer conv6_2_mbox_loc
I0601 17:39:54.140385  8165 net.cpp:434] conv6_2_mbox_loc <- conv6_2_conv6_2_relu_0_split_1
I0601 17:39:54.140390  8165 net.cpp:408] conv6_2_mbox_loc -> conv6_2_mbox_loc
I0601 17:39:54.142344  8165 net.cpp:150] Setting up conv6_2_mbox_loc
I0601 17:39:54.142356  8165 net.cpp:157] Top shape: 32 24 10 10 (76800)
I0601 17:39:54.142359  8165 net.cpp:165] Memory required for data: 7932467552
I0601 17:39:54.142364  8165 layer_factory.hpp:77] Creating layer conv6_2_mbox_loc_perm
I0601 17:39:54.142371  8165 net.cpp:100] Creating Layer conv6_2_mbox_loc_perm
I0601 17:39:54.142376  8165 net.cpp:434] conv6_2_mbox_loc_perm <- conv6_2_mbox_loc
I0601 17:39:54.142380  8165 net.cpp:408] conv6_2_mbox_loc_perm -> conv6_2_mbox_loc_perm
I0601 17:39:54.142467  8165 net.cpp:150] Setting up conv6_2_mbox_loc_perm
I0601 17:39:54.142472  8165 net.cpp:157] Top shape: 32 10 10 24 (76800)
I0601 17:39:54.142473  8165 net.cpp:165] Memory required for data: 7932774752
I0601 17:39:54.142475  8165 layer_factory.hpp:77] Creating layer conv6_2_mbox_loc_flat
I0601 17:39:54.142479  8165 net.cpp:100] Creating Layer conv6_2_mbox_loc_flat
I0601 17:39:54.142482  8165 net.cpp:434] conv6_2_mbox_loc_flat <- conv6_2_mbox_loc_perm
I0601 17:39:54.142487  8165 net.cpp:408] conv6_2_mbox_loc_flat -> conv6_2_mbox_loc_flat
I0601 17:39:54.142505  8165 net.cpp:150] Setting up conv6_2_mbox_loc_flat
I0601 17:39:54.142510  8165 net.cpp:157] Top shape: 32 2400 (76800)
I0601 17:39:54.142513  8165 net.cpp:165] Memory required for data: 7933081952
I0601 17:39:54.142514  8165 layer_factory.hpp:77] Creating layer conv6_2_mbox_conf
I0601 17:39:54.142523  8165 net.cpp:100] Creating Layer conv6_2_mbox_conf
I0601 17:39:54.142525  8165 net.cpp:434] conv6_2_mbox_conf <- conv6_2_conv6_2_relu_0_split_2
I0601 17:39:54.142531  8165 net.cpp:408] conv6_2_mbox_conf -> conv6_2_mbox_conf
I0601 17:39:54.144482  8165 net.cpp:150] Setting up conv6_2_mbox_conf
I0601 17:39:54.144493  8165 net.cpp:157] Top shape: 32 24 10 10 (76800)
I0601 17:39:54.144496  8165 net.cpp:165] Memory required for data: 7933389152
I0601 17:39:54.144501  8165 layer_factory.hpp:77] Creating layer conv6_2_mbox_conf_perm
I0601 17:39:54.144507  8165 net.cpp:100] Creating Layer conv6_2_mbox_conf_perm
I0601 17:39:54.144510  8165 net.cpp:434] conv6_2_mbox_conf_perm <- conv6_2_mbox_conf
I0601 17:39:54.144515  8165 net.cpp:408] conv6_2_mbox_conf_perm -> conv6_2_mbox_conf_perm
I0601 17:39:54.144625  8165 net.cpp:150] Setting up conv6_2_mbox_conf_perm
I0601 17:39:54.144630  8165 net.cpp:157] Top shape: 32 10 10 24 (76800)
I0601 17:39:54.144631  8165 net.cpp:165] Memory required for data: 7933696352
I0601 17:39:54.144634  8165 layer_factory.hpp:77] Creating layer conv6_2_mbox_conf_flat
I0601 17:39:54.144637  8165 net.cpp:100] Creating Layer conv6_2_mbox_conf_flat
I0601 17:39:54.144640  8165 net.cpp:434] conv6_2_mbox_conf_flat <- conv6_2_mbox_conf_perm
I0601 17:39:54.144659  8165 net.cpp:408] conv6_2_mbox_conf_flat -> conv6_2_mbox_conf_flat
I0601 17:39:54.144709  8165 net.cpp:150] Setting up conv6_2_mbox_conf_flat
I0601 17:39:54.144726  8165 net.cpp:157] Top shape: 32 2400 (76800)
I0601 17:39:54.144728  8165 net.cpp:165] Memory required for data: 7934003552
I0601 17:39:54.144731  8165 layer_factory.hpp:77] Creating layer conv6_2_mbox_priorbox
I0601 17:39:54.144759  8165 net.cpp:100] Creating Layer conv6_2_mbox_priorbox
I0601 17:39:54.144762  8165 net.cpp:434] conv6_2_mbox_priorbox <- conv6_2_conv6_2_relu_0_split_3
I0601 17:39:54.144767  8165 net.cpp:434] conv6_2_mbox_priorbox <- data_data_0_split_3
I0601 17:39:54.144771  8165 net.cpp:408] conv6_2_mbox_priorbox -> conv6_2_mbox_priorbox
I0601 17:39:54.144795  8165 net.cpp:150] Setting up conv6_2_mbox_priorbox
I0601 17:39:54.144799  8165 net.cpp:157] Top shape: 1 2 2400 (4800)
I0601 17:39:54.144801  8165 net.cpp:165] Memory required for data: 7934022752
I0601 17:39:54.144804  8165 layer_factory.hpp:77] Creating layer conv7_2_mbox_loc
I0601 17:39:54.144825  8165 net.cpp:100] Creating Layer conv7_2_mbox_loc
I0601 17:39:54.144829  8165 net.cpp:434] conv7_2_mbox_loc <- conv7_2_conv7_2_relu_0_split_1
I0601 17:39:54.144834  8165 net.cpp:408] conv7_2_mbox_loc -> conv7_2_mbox_loc
I0601 17:39:54.146078  8165 net.cpp:150] Setting up conv7_2_mbox_loc
I0601 17:39:54.146088  8165 net.cpp:157] Top shape: 32 24 5 5 (19200)
I0601 17:39:54.146090  8165 net.cpp:165] Memory required for data: 7934099552
I0601 17:39:54.146095  8165 layer_factory.hpp:77] Creating layer conv7_2_mbox_loc_perm
I0601 17:39:54.146101  8165 net.cpp:100] Creating Layer conv7_2_mbox_loc_perm
I0601 17:39:54.146105  8165 net.cpp:434] conv7_2_mbox_loc_perm <- conv7_2_mbox_loc
I0601 17:39:54.146109  8165 net.cpp:408] conv7_2_mbox_loc_perm -> conv7_2_mbox_loc_perm
I0601 17:39:54.146193  8165 net.cpp:150] Setting up conv7_2_mbox_loc_perm
I0601 17:39:54.146198  8165 net.cpp:157] Top shape: 32 5 5 24 (19200)
I0601 17:39:54.146201  8165 net.cpp:165] Memory required for data: 7934176352
I0601 17:39:54.146203  8165 layer_factory.hpp:77] Creating layer conv7_2_mbox_loc_flat
I0601 17:39:54.146208  8165 net.cpp:100] Creating Layer conv7_2_mbox_loc_flat
I0601 17:39:54.146209  8165 net.cpp:434] conv7_2_mbox_loc_flat <- conv7_2_mbox_loc_perm
I0601 17:39:54.146214  8165 net.cpp:408] conv7_2_mbox_loc_flat -> conv7_2_mbox_loc_flat
I0601 17:39:54.146231  8165 net.cpp:150] Setting up conv7_2_mbox_loc_flat
I0601 17:39:54.146235  8165 net.cpp:157] Top shape: 32 600 (19200)
I0601 17:39:54.146237  8165 net.cpp:165] Memory required for data: 7934253152
I0601 17:39:54.146240  8165 layer_factory.hpp:77] Creating layer conv7_2_mbox_conf
I0601 17:39:54.146247  8165 net.cpp:100] Creating Layer conv7_2_mbox_conf
I0601 17:39:54.146250  8165 net.cpp:434] conv7_2_mbox_conf <- conv7_2_conv7_2_relu_0_split_2
I0601 17:39:54.146255  8165 net.cpp:408] conv7_2_mbox_conf -> conv7_2_mbox_conf
I0601 17:39:54.147904  8165 net.cpp:150] Setting up conv7_2_mbox_conf
I0601 17:39:54.147913  8165 net.cpp:157] Top shape: 32 24 5 5 (19200)
I0601 17:39:54.147917  8165 net.cpp:165] Memory required for data: 7934329952
I0601 17:39:54.147920  8165 layer_factory.hpp:77] Creating layer conv7_2_mbox_conf_perm
I0601 17:39:54.147927  8165 net.cpp:100] Creating Layer conv7_2_mbox_conf_perm
I0601 17:39:54.147930  8165 net.cpp:434] conv7_2_mbox_conf_perm <- conv7_2_mbox_conf
I0601 17:39:54.147935  8165 net.cpp:408] conv7_2_mbox_conf_perm -> conv7_2_mbox_conf_perm
I0601 17:39:54.148026  8165 net.cpp:150] Setting up conv7_2_mbox_conf_perm
I0601 17:39:54.148033  8165 net.cpp:157] Top shape: 32 5 5 24 (19200)
I0601 17:39:54.148036  8165 net.cpp:165] Memory required for data: 7934406752
I0601 17:39:54.148037  8165 layer_factory.hpp:77] Creating layer conv7_2_mbox_conf_flat
I0601 17:39:54.148041  8165 net.cpp:100] Creating Layer conv7_2_mbox_conf_flat
I0601 17:39:54.148044  8165 net.cpp:434] conv7_2_mbox_conf_flat <- conv7_2_mbox_conf_perm
I0601 17:39:54.148047  8165 net.cpp:408] conv7_2_mbox_conf_flat -> conv7_2_mbox_conf_flat
I0601 17:39:54.148066  8165 net.cpp:150] Setting up conv7_2_mbox_conf_flat
I0601 17:39:54.148071  8165 net.cpp:157] Top shape: 32 600 (19200)
I0601 17:39:54.148073  8165 net.cpp:165] Memory required for data: 7934483552
I0601 17:39:54.148075  8165 layer_factory.hpp:77] Creating layer conv7_2_mbox_priorbox
I0601 17:39:54.148080  8165 net.cpp:100] Creating Layer conv7_2_mbox_priorbox
I0601 17:39:54.148082  8165 net.cpp:434] conv7_2_mbox_priorbox <- conv7_2_conv7_2_relu_0_split_3
I0601 17:39:54.148094  8165 net.cpp:434] conv7_2_mbox_priorbox <- data_data_0_split_4
I0601 17:39:54.148100  8165 net.cpp:408] conv7_2_mbox_priorbox -> conv7_2_mbox_priorbox
I0601 17:39:54.148121  8165 net.cpp:150] Setting up conv7_2_mbox_priorbox
I0601 17:39:54.148126  8165 net.cpp:157] Top shape: 1 2 600 (1200)
I0601 17:39:54.148129  8165 net.cpp:165] Memory required for data: 7934488352
I0601 17:39:54.148131  8165 layer_factory.hpp:77] Creating layer conv8_2_mbox_loc
I0601 17:39:54.148138  8165 net.cpp:100] Creating Layer conv8_2_mbox_loc
I0601 17:39:54.148141  8165 net.cpp:434] conv8_2_mbox_loc <- conv8_2_conv8_2_relu_0_split_1
I0601 17:39:54.148146  8165 net.cpp:408] conv8_2_mbox_loc -> conv8_2_mbox_loc
I0601 17:39:54.149749  8165 net.cpp:150] Setting up conv8_2_mbox_loc
I0601 17:39:54.149758  8165 net.cpp:157] Top shape: 32 16 3 3 (4608)
I0601 17:39:54.149761  8165 net.cpp:165] Memory required for data: 7934506784
I0601 17:39:54.149773  8165 layer_factory.hpp:77] Creating layer conv8_2_mbox_loc_perm
I0601 17:39:54.149778  8165 net.cpp:100] Creating Layer conv8_2_mbox_loc_perm
I0601 17:39:54.149782  8165 net.cpp:434] conv8_2_mbox_loc_perm <- conv8_2_mbox_loc
I0601 17:39:54.149787  8165 net.cpp:408] conv8_2_mbox_loc_perm -> conv8_2_mbox_loc_perm
I0601 17:39:54.149875  8165 net.cpp:150] Setting up conv8_2_mbox_loc_perm
I0601 17:39:54.149881  8165 net.cpp:157] Top shape: 32 3 3 16 (4608)
I0601 17:39:54.149883  8165 net.cpp:165] Memory required for data: 7934525216
I0601 17:39:54.149885  8165 layer_factory.hpp:77] Creating layer conv8_2_mbox_loc_flat
I0601 17:39:54.149890  8165 net.cpp:100] Creating Layer conv8_2_mbox_loc_flat
I0601 17:39:54.149893  8165 net.cpp:434] conv8_2_mbox_loc_flat <- conv8_2_mbox_loc_perm
I0601 17:39:54.149897  8165 net.cpp:408] conv8_2_mbox_loc_flat -> conv8_2_mbox_loc_flat
I0601 17:39:54.149916  8165 net.cpp:150] Setting up conv8_2_mbox_loc_flat
I0601 17:39:54.149921  8165 net.cpp:157] Top shape: 32 144 (4608)
I0601 17:39:54.149924  8165 net.cpp:165] Memory required for data: 7934543648
I0601 17:39:54.149925  8165 layer_factory.hpp:77] Creating layer conv8_2_mbox_conf
I0601 17:39:54.149932  8165 net.cpp:100] Creating Layer conv8_2_mbox_conf
I0601 17:39:54.149936  8165 net.cpp:434] conv8_2_mbox_conf <- conv8_2_conv8_2_relu_0_split_2
I0601 17:39:54.149940  8165 net.cpp:408] conv8_2_mbox_conf -> conv8_2_mbox_conf
I0601 17:39:54.151517  8165 net.cpp:150] Setting up conv8_2_mbox_conf
I0601 17:39:54.151526  8165 net.cpp:157] Top shape: 32 16 3 3 (4608)
I0601 17:39:54.151530  8165 net.cpp:165] Memory required for data: 7934562080
I0601 17:39:54.151533  8165 layer_factory.hpp:77] Creating layer conv8_2_mbox_conf_perm
I0601 17:39:54.151538  8165 net.cpp:100] Creating Layer conv8_2_mbox_conf_perm
I0601 17:39:54.151542  8165 net.cpp:434] conv8_2_mbox_conf_perm <- conv8_2_mbox_conf
I0601 17:39:54.151547  8165 net.cpp:408] conv8_2_mbox_conf_perm -> conv8_2_mbox_conf_perm
I0601 17:39:54.151631  8165 net.cpp:150] Setting up conv8_2_mbox_conf_perm
I0601 17:39:54.151638  8165 net.cpp:157] Top shape: 32 3 3 16 (4608)
I0601 17:39:54.151641  8165 net.cpp:165] Memory required for data: 7934580512
I0601 17:39:54.151643  8165 layer_factory.hpp:77] Creating layer conv8_2_mbox_conf_flat
I0601 17:39:54.151648  8165 net.cpp:100] Creating Layer conv8_2_mbox_conf_flat
I0601 17:39:54.151649  8165 net.cpp:434] conv8_2_mbox_conf_flat <- conv8_2_mbox_conf_perm
I0601 17:39:54.151654  8165 net.cpp:408] conv8_2_mbox_conf_flat -> conv8_2_mbox_conf_flat
I0601 17:39:54.151672  8165 net.cpp:150] Setting up conv8_2_mbox_conf_flat
I0601 17:39:54.151676  8165 net.cpp:157] Top shape: 32 144 (4608)
I0601 17:39:54.151679  8165 net.cpp:165] Memory required for data: 7934598944
I0601 17:39:54.151680  8165 layer_factory.hpp:77] Creating layer conv8_2_mbox_priorbox
I0601 17:39:54.151685  8165 net.cpp:100] Creating Layer conv8_2_mbox_priorbox
I0601 17:39:54.151688  8165 net.cpp:434] conv8_2_mbox_priorbox <- conv8_2_conv8_2_relu_0_split_3
I0601 17:39:54.151692  8165 net.cpp:434] conv8_2_mbox_priorbox <- data_data_0_split_5
I0601 17:39:54.151705  8165 net.cpp:408] conv8_2_mbox_priorbox -> conv8_2_mbox_priorbox
I0601 17:39:54.151727  8165 net.cpp:150] Setting up conv8_2_mbox_priorbox
I0601 17:39:54.151731  8165 net.cpp:157] Top shape: 1 2 144 (288)
I0601 17:39:54.151733  8165 net.cpp:165] Memory required for data: 7934600096
I0601 17:39:54.151736  8165 layer_factory.hpp:77] Creating layer conv9_2_mbox_loc
I0601 17:39:54.151743  8165 net.cpp:100] Creating Layer conv9_2_mbox_loc
I0601 17:39:54.151746  8165 net.cpp:434] conv9_2_mbox_loc <- conv9_2_conv9_2_relu_0_split_0
I0601 17:39:54.151751  8165 net.cpp:408] conv9_2_mbox_loc -> conv9_2_mbox_loc
I0601 17:39:54.153352  8165 net.cpp:150] Setting up conv9_2_mbox_loc
I0601 17:39:54.153362  8165 net.cpp:157] Top shape: 32 16 1 1 (512)
I0601 17:39:54.153363  8165 net.cpp:165] Memory required for data: 7934602144
I0601 17:39:54.153368  8165 layer_factory.hpp:77] Creating layer conv9_2_mbox_loc_perm
I0601 17:39:54.153373  8165 net.cpp:100] Creating Layer conv9_2_mbox_loc_perm
I0601 17:39:54.153375  8165 net.cpp:434] conv9_2_mbox_loc_perm <- conv9_2_mbox_loc
I0601 17:39:54.153380  8165 net.cpp:408] conv9_2_mbox_loc_perm -> conv9_2_mbox_loc_perm
I0601 17:39:54.153466  8165 net.cpp:150] Setting up conv9_2_mbox_loc_perm
I0601 17:39:54.153471  8165 net.cpp:157] Top shape: 32 1 1 16 (512)
I0601 17:39:54.153473  8165 net.cpp:165] Memory required for data: 7934604192
I0601 17:39:54.153475  8165 layer_factory.hpp:77] Creating layer conv9_2_mbox_loc_flat
I0601 17:39:54.153481  8165 net.cpp:100] Creating Layer conv9_2_mbox_loc_flat
I0601 17:39:54.153482  8165 net.cpp:434] conv9_2_mbox_loc_flat <- conv9_2_mbox_loc_perm
I0601 17:39:54.153487  8165 net.cpp:408] conv9_2_mbox_loc_flat -> conv9_2_mbox_loc_flat
I0601 17:39:54.153504  8165 net.cpp:150] Setting up conv9_2_mbox_loc_flat
I0601 17:39:54.153508  8165 net.cpp:157] Top shape: 32 16 (512)
I0601 17:39:54.153511  8165 net.cpp:165] Memory required for data: 7934606240
I0601 17:39:54.153513  8165 layer_factory.hpp:77] Creating layer conv9_2_mbox_conf
I0601 17:39:54.153520  8165 net.cpp:100] Creating Layer conv9_2_mbox_conf
I0601 17:39:54.153523  8165 net.cpp:434] conv9_2_mbox_conf <- conv9_2_conv9_2_relu_0_split_1
I0601 17:39:54.153529  8165 net.cpp:408] conv9_2_mbox_conf -> conv9_2_mbox_conf
I0601 17:39:54.155537  8165 net.cpp:150] Setting up conv9_2_mbox_conf
I0601 17:39:54.155546  8165 net.cpp:157] Top shape: 32 16 1 1 (512)
I0601 17:39:54.155549  8165 net.cpp:165] Memory required for data: 7934608288
I0601 17:39:54.155553  8165 layer_factory.hpp:77] Creating layer conv9_2_mbox_conf_perm
I0601 17:39:54.155560  8165 net.cpp:100] Creating Layer conv9_2_mbox_conf_perm
I0601 17:39:54.155563  8165 net.cpp:434] conv9_2_mbox_conf_perm <- conv9_2_mbox_conf
I0601 17:39:54.155567  8165 net.cpp:408] conv9_2_mbox_conf_perm -> conv9_2_mbox_conf_perm
I0601 17:39:54.155653  8165 net.cpp:150] Setting up conv9_2_mbox_conf_perm
I0601 17:39:54.155658  8165 net.cpp:157] Top shape: 32 1 1 16 (512)
I0601 17:39:54.155660  8165 net.cpp:165] Memory required for data: 7934610336
I0601 17:39:54.155663  8165 layer_factory.hpp:77] Creating layer conv9_2_mbox_conf_flat
I0601 17:39:54.155666  8165 net.cpp:100] Creating Layer conv9_2_mbox_conf_flat
I0601 17:39:54.155669  8165 net.cpp:434] conv9_2_mbox_conf_flat <- conv9_2_mbox_conf_perm
I0601 17:39:54.155673  8165 net.cpp:408] conv9_2_mbox_conf_flat -> conv9_2_mbox_conf_flat
I0601 17:39:54.155692  8165 net.cpp:150] Setting up conv9_2_mbox_conf_flat
I0601 17:39:54.155697  8165 net.cpp:157] Top shape: 32 16 (512)
I0601 17:39:54.155699  8165 net.cpp:165] Memory required for data: 7934612384
I0601 17:39:54.155701  8165 layer_factory.hpp:77] Creating layer conv9_2_mbox_priorbox
I0601 17:39:54.155705  8165 net.cpp:100] Creating Layer conv9_2_mbox_priorbox
I0601 17:39:54.155709  8165 net.cpp:434] conv9_2_mbox_priorbox <- conv9_2_conv9_2_relu_0_split_2
I0601 17:39:54.155711  8165 net.cpp:434] conv9_2_mbox_priorbox <- data_data_0_split_6
I0601 17:39:54.155716  8165 net.cpp:408] conv9_2_mbox_priorbox -> conv9_2_mbox_priorbox
I0601 17:39:54.155745  8165 net.cpp:150] Setting up conv9_2_mbox_priorbox
I0601 17:39:54.155750  8165 net.cpp:157] Top shape: 1 2 16 (32)
I0601 17:39:54.155752  8165 net.cpp:165] Memory required for data: 7934612512
I0601 17:39:54.155755  8165 layer_factory.hpp:77] Creating layer mbox_loc
I0601 17:39:54.155758  8165 net.cpp:100] Creating Layer mbox_loc
I0601 17:39:54.155761  8165 net.cpp:434] mbox_loc <- conv4_3_norm_mbox_loc_flat
I0601 17:39:54.155766  8165 net.cpp:434] mbox_loc <- fc7_mbox_loc_flat
I0601 17:39:54.155769  8165 net.cpp:434] mbox_loc <- conv6_2_mbox_loc_flat
I0601 17:39:54.155771  8165 net.cpp:434] mbox_loc <- conv7_2_mbox_loc_flat
I0601 17:39:54.155774  8165 net.cpp:434] mbox_loc <- conv8_2_mbox_loc_flat
I0601 17:39:54.155777  8165 net.cpp:434] mbox_loc <- conv9_2_mbox_loc_flat
I0601 17:39:54.155782  8165 net.cpp:408] mbox_loc -> mbox_loc
I0601 17:39:54.155805  8165 net.cpp:150] Setting up mbox_loc
I0601 17:39:54.155810  8165 net.cpp:157] Top shape: 32 34928 (1117696)
I0601 17:39:54.155812  8165 net.cpp:165] Memory required for data: 7939083296
I0601 17:39:54.155814  8165 layer_factory.hpp:77] Creating layer mbox_conf
I0601 17:39:54.155818  8165 net.cpp:100] Creating Layer mbox_conf
I0601 17:39:54.155820  8165 net.cpp:434] mbox_conf <- conv4_3_norm_mbox_conf_flat
I0601 17:39:54.155824  8165 net.cpp:434] mbox_conf <- fc7_mbox_conf_flat
I0601 17:39:54.155827  8165 net.cpp:434] mbox_conf <- conv6_2_mbox_conf_flat
I0601 17:39:54.155830  8165 net.cpp:434] mbox_conf <- conv7_2_mbox_conf_flat
I0601 17:39:54.155833  8165 net.cpp:434] mbox_conf <- conv8_2_mbox_conf_flat
I0601 17:39:54.155835  8165 net.cpp:434] mbox_conf <- conv9_2_mbox_conf_flat
I0601 17:39:54.155840  8165 net.cpp:408] mbox_conf -> mbox_conf
I0601 17:39:54.155858  8165 net.cpp:150] Setting up mbox_conf
I0601 17:39:54.155863  8165 net.cpp:157] Top shape: 32 34928 (1117696)
I0601 17:39:54.155865  8165 net.cpp:165] Memory required for data: 7943554080
I0601 17:39:54.155867  8165 layer_factory.hpp:77] Creating layer mbox_priorbox
I0601 17:39:54.155870  8165 net.cpp:100] Creating Layer mbox_priorbox
I0601 17:39:54.155872  8165 net.cpp:434] mbox_priorbox <- conv4_3_norm_mbox_priorbox
I0601 17:39:54.155876  8165 net.cpp:434] mbox_priorbox <- fc7_mbox_priorbox
I0601 17:39:54.155879  8165 net.cpp:434] mbox_priorbox <- conv6_2_mbox_priorbox
I0601 17:39:54.155882  8165 net.cpp:434] mbox_priorbox <- conv7_2_mbox_priorbox
I0601 17:39:54.155884  8165 net.cpp:434] mbox_priorbox <- conv8_2_mbox_priorbox
I0601 17:39:54.155887  8165 net.cpp:434] mbox_priorbox <- conv9_2_mbox_priorbox
I0601 17:39:54.155890  8165 net.cpp:408] mbox_priorbox -> mbox_priorbox
I0601 17:39:54.155908  8165 net.cpp:150] Setting up mbox_priorbox
I0601 17:39:54.155913  8165 net.cpp:157] Top shape: 1 2 34928 (69856)
I0601 17:39:54.155915  8165 net.cpp:165] Memory required for data: 7943833504
I0601 17:39:54.155917  8165 layer_factory.hpp:77] Creating layer mbox_loss
I0601 17:39:54.155925  8165 net.cpp:100] Creating Layer mbox_loss
I0601 17:39:54.155927  8165 net.cpp:434] mbox_loss <- mbox_loc
I0601 17:39:54.155931  8165 net.cpp:434] mbox_loss <- mbox_conf
I0601 17:39:54.155933  8165 net.cpp:434] mbox_loss <- mbox_priorbox
…
  name: "data"
  type: "AnnotatedData"
  top: "data"
  top: "label"
  include {
    phase: TEST
  }
  transform_param {
    mean_value: 104
    mean_value: 117
    mean_value: 123
    resize_param {
      prob: 1
      resize_mode: WARP
      height: 300
      width: 300
      interp_mode: LINEAR
    }
  }
  data_param {
    source: "examples/tbs_300x300_HSIL_10x/tbs_300x300_HSIL_10x_test_lmdb"
    batch_size: 4
    backend: LMDB
  }
  annotated_data_param {
    batch_sampler {
    }
    label_map_file: "data/tbs_300x300_HSIL_10x/labelmap_voc.prototxt"
  }
}
layer {
  name: "conv1_1"
  type: "Convolution"
  bottom: "data"
  top: "conv1_1"
  param {
    lr_mult: 1
    decay_mult: 1
  }
  param {
    lr_mult: 2
    decay_mult: 0
  }
  convolution_param {
    num_output: 64
    pad: 1
    kernel_size: 3
    weight_filler {
      type: "xavier"
    }
    bias_filler {
      type: "constant"
      value: 0
    }
  }
}
layer {
  name: "relu1_1"
  type: "ReLU"
  bottom: "conv1_1"
  top: "conv1_1"
}
layer {
  name: "conv1_2"
  type: "Convolution"
  bottom: "conv1_1"
  top: "conv1_2"
  param {
    lr_mult: 1
    decay_mult: 1
  }
  param {
    lr_mult: 2
    decay_mult: 0
  }
  convolution_param {
    num_output: 64
    pad: 1
    kernel_size: 3
    weight_filler {
      type: "xavier"
    }
    bias_filler {
      type: "constant"
      value: 0
    }
  }
}
layer {
  name: "relu1_2"
  type: "ReLU"
  bottom: "conv1_2"
  top: "conv1_2"
}
layer {
  name: "pool1"
  type: "Pooling"
  bottom: "conv1_2"
  top: "pool1"
  pooling_param {
    pool: MAX
    kernel_size: 2
    stride: 2
  }
}
layer {
  name: "conv2_1"
  type: "Convolution"
  bottom: "pool1"
  top: "conv2_1"
  param {
    lr_mult: 1
    decay_mult: 1
  }
  param {
    lr_mult: 2
    decay_mult: 0
  }
  convolution_param {
    num_output: 128
    pad: 1
    kernel_size: 3
    weight_filler {
      type: "xavier"
    }
    bias_filler {
      type: "constant"
      value: 0
    }
  }
}
layer {
  name: "relu2_1"
  type: "ReLU"
  bottom: "conv2_1"
  top: "conv2_1"
}
layer {
  name: "conv2_2"
  type: "Convolution"
  bottom: "conv2_1"
  top: "conv2_2"
  param {
    lr_mult: 1
    decay_mult: 1
  }
  param {
    lr_mult: 2
    decay_mult: 0
  }
  convolution_param {
    num_output: 128
    pad: 1
    kernel_size: 3
    weight_filler {
      type: "xavier"
    }
    bias_filler {
      type: "constant"
      value: 0
    }
  }
}
layer {
  name: "relu2_2"
  type: "ReLU"
  bottom: "conv2_2"
  top: "conv2_2"
}
layer {
  name: "pool2"
  type: "Pooling"
  bottom: "conv2_2"
  top: "pool2"
  pooling_param {
    pool: MAX
    kernel_size: 2
    stride: 2
  }
}
layer {
  name: "conv3_1"
  type: "Convolution"
  bottom: "pool2"
  top: "conv3_1"
  param {
    lr_mult: 1
    decay_mult: 1
  }
  param {
    lr_mult: 2
    decay_mult: 0
  }
  convolution_param {
    num_output: 256
    pad: 1
    kernel_size: 3
    weight_filler {
      type: "xavier"
    }
    bias_filler {
      type: "constant"
      value: 0
    }
  }
}
layer {
  name: "relu3_1"
  type: "ReLU"
  bottom: "conv3_1"
  top: "conv3_1"
}
layer {
  name: "conv3_2"
  type: "Convolution"
  bottom: "conv3_1"
  top: "conv3_2"
  param {
    lr_mult: 1
    decay_mult: 1
  }
  param {
    lr_mult: 2
    decay_mult: 0
  }
  convolution_param {
    num_output: 256
    pad: 1
    kernel_size: 3
    weight_filler {
      type: "xavier"
    }
    bias_filler {
      type: "constant"
      value: 0
    }
  }
}
layer {
  name: "relu3_2"
  type: "ReLU"
  bottom: "conv3_2"
  top: "conv3_2"
}
layer {
  name: "conv3_3"
  type: "Convolution"
  bottom: "conv3_2"
  top: "conv3_3"
  param {
    lr_mult: 1
    decay_mult: 1
  }
  param {
    lr_mult: 2
    decay_mult: 0
  }
  convolution_param {
    num_output: 256
    pad: 1
    kernel_size: 3
    weight_filler {
      type: "xavier"
    }
    bias_filler {
      type: "constant"
      value: 0
    }
  }
}
layer {
  name: "relu3_3"
  type: "ReLU"
  bottom: "conv3_3"
  top: "conv3_3"
}
layer {
  name: "pool3"
  type: "Pooling"
  bottom: "conv3_3"
  top: "pool3"
  pooling_param {
    pool: MAX
    kernel_size: 2
    stride: 2
  }
}
layer {
  name: "conv4_1"
  type: "Convolution"
  bottom: "pool3"
  top: "conv4_1"
  param {
    lr_mult: 1
    decay_mult: 1
  }
  param {
    lr_mult: 2
    decay_mult: 0
  }
  convolution_param {
    num_output: 512
    pad: 1
    kernel_size: 3
    weight_filler {
      type: "xavier"
    }
    bias_filler {
      type: "constant"
      value: 0
    }
  }
}
layer {
  name: "relu4_1"
  type: "ReLU"
  bottom: "conv4_1"
  top: "conv4_1"
}
layer {
  name: "conv4_2"
  type: "Convolution"
  bottom: "conv4_1"
  top: "conv4_2"
  param {
    lr_mult: 1
    decay_mult: 1
  }
  param {
    lr_mult: 2
    decay_mult: 0
  }
  convolution_param {
    num_output: 512
    pad: 1
    kernel_size: 3
    weight_filler {
      type: "xavier"
    }
    bias_filler {
      type: "constant"
      value: 0
    }
  }
}
layer {
  name: "relu4_2"
  type: "ReLU"
  bottom: "conv4_2"
  top: "conv4_2"
}
layer {
  name: "conv4_3"
  type: "Convolution"
  bottom: "conv4_2"
  top: "conv4_3"
  param {
    lr_mult: 1
    decay_mult: 1
  }
  param {
    lr_mult: 2
    decay_mult: 0
  }
  convolution_param {
    num_output: 512
    pad: 1
    kernel_size: 3
    weight_filler {
      type: "xavier"
    }
    bias_filler {
      type: "constant"
      value: 0
    }
  }
}
layer {
  name: "relu4_3"
  type: "ReLU"
  bottom: "conv4_3"
  top: "conv4_3"
}
layer {
  name: "pool4"
  type: "Pooling"
  bottom: "conv4_3"
  top: "pool4"
  pooling_param {
    pool: MAX
    kernel_size: 2
    stride: 2
  }
}
layer {
  name: "conv5_1"
  type: "Convolution"
  bottom: "pool4"
  top: "conv5_1"
  param {
    lr_mult: 1
    decay_mult: 1
  }
  param {
    lr_mult: 2
    decay_mult: 0
  }
  convolution_param {
    num_output: 512
    pad: 1
    kernel_size: 3
    weight_filler {
      type: "xavier"
    }
    bias_filler {
      type: "constant"
      value: 0
    }
    dilation: 1
  }
}
layer {
  name: "relu5_1"
  type: "ReLU"
  bottom: "conv5_1"
  top: "conv5_1"
}
layer {
  name: "conv5_2"
  type: "Convolution"
  bottom: "conv5_1"
  top: "conv5_2"
  param {
    lr_mult: 1
    decay_mult: 1
  }
  param {
    lr_mult: 2
    decay_mult: 0
  }
  convolution_param {
    num_output: 512
    pad: 1
    kernel_size: 3
    weight_filler {
      type: "xavier"
    }
    bias_filler {
      type: "constant"
      value: 0
    }
    dilation: 1
  }
}
layer {
  name: "relu5_2"
  type: "ReLU"
  bottom: "conv5_2"
  top: "conv5_2"
}
layer {
  name: "conv5_3"
  type: "Convolution"
  bottom: "conv5_2"
  top: "conv5_3"
  param {
    lr_mult: 1
    decay_mult: 1
  }
  param {
    lr_mult: 2
    decay_mult: 0
  }
  convolution_param {
    num_output: 512
    pad: 1
    kernel_size: 3
    weight_filler {
      type: "xavier"
    }
    bias_filler {
      type: "constant"
      value: 0
    }
    dilation: 1
  }
}
layer {
  name: "relu5_3"
  type: "ReLU"
  bottom: "conv5_3"
  top: "conv5_3"
}
layer {
  name: "pool5"
  type: "Pooling"
  bottom: "conv5_3"
  top: "pool5"
  pooling_param {
    pool: MAX
    kernel_size: 3
    stride: 1
    pad: 1
  }
}
layer {
  name: "fc6"
  type: "Convolution"
  bottom: "pool5"
  top: "fc6"
  param {
    lr_mult: 1
    decay_mult: 1
  }
  param {
    lr_mult: 2
    decay_mult: 0
  }
  convolution_param {
    num_output: 1024
    pad: 6
    kernel_size: 3
    weight_filler {
      type: "xavier"
    }
    bias_filler {
      type: "constant"
      value: 0
    }
    dilation: 6
  }
}
layer {
  name: "relu6"
  type: "ReLU"
  bottom: "fc6"
  top: "fc6"
}
layer {
  name: "fc7"
  type: "Convolution"
  bottom: "fc6"
  top: "fc7"
  param {
    lr_mult: 1
    decay_mult: 1
  }
  param {
    lr_mult: 2
    decay_mult: 0
  }
  convolution_param {
    num_output: 1024
    kernel_size: 1
    weight_filler {
      type: "xavier"
    }
    bias_filler {
      type: "constant"
      value: 0
    }
  }
}
layer {
  name: "relu7"
  type: "ReLU"
  bottom: "fc7"
  top: "fc7"
}
layer {
  name: "conv6_1"
  type: "Convolution"
  bottom: "fc7"
  top: "conv6_1"
  param {
    lr_mult: 1
    decay_mult: 1
  }
  param {
    lr_mult: 2
    decay_mult: 0
  }
  convolution_param {
    num_output: 256
    pad: 0
    kernel_size: 1
    stride: 1
    weight_filler {
      type: "xavier"
    }
    bias_filler {
      type: "constant"
      value: 0
    }
  }
}
layer {
  name: "conv6_1_relu"
  type: "ReLU"
  bottom: "conv6_1"
  top: "conv6_1"
}
layer {
  name: "conv6_2"
  type: "Convolution"
  bottom: "conv6_1"
  top: "conv6_2"
  param {
    lr_mult: 1
    decay_mult: 1
  }
  param {
    lr_mult: 2
    decay_mult: 0
  }
  convolution_param {
    num_output: 512
    pad: 1
    kernel_size: 3
    stride: 2
    weight_filler {
      type: "xavier"
    }
    bias_filler {
      type: "constant"
      value: 0
    }
  }
}
layer {
  name: "conv6_2_relu"
  type: "ReLU"
  bottom: "conv6_2"
  top: "conv6_2"
}
layer {
  name: "conv7_1"
  type: "Convolution"
  bottom: "conv6_2"
  top: "conv7_1"
  param {
    lr_mult: 1
    decay_mult: 1
  }
  param {
    lr_mult: 2
    decay_mult: 0
  }
  convolution_param {
    num_output: 128
    pad: 0
    kernel_size: 1
    stride: 1
    weight_filler {
      type: "xavier"
    }
    bias_filler {
      type: "constant"
      value: 0
    }
  }
}
layer {
  name: "conv7_1_relu"
  type: "ReLU"
  bottom: "conv7_1"
  top: "conv7_1"
}
layer {
  name: "conv7_2"
  type: "Convolution"
  bottom: "conv7_1"
  top: "conv7_2"
  param {
    lr_mult: 1
    decay_mult: 1
  }
  param {
    lr_mult: 2
    decay_mult: 0
  }
  convolution_param {
    num_output: 256
    pad: 1
    kernel_size: 3
    stride: 2
    weight_filler {
      type: "xavier"
    }
    bias_filler {
      type: "constant"
      value: 0
    }
  }
}
layer {
  name: "conv7_2_relu"
  type: "ReLU"
  bottom: "conv7_2"
  top: "conv7_2"
}
layer {
  name: "conv8_1"
  type: "Convolution"
  bottom: "conv7_2"
  top: "conv8_1"
  param {
    lr_mult: 1
    decay_mult: 1
  }
  param {
    lr_mult: 2
    decay_mult: 0
  }
  convolution_param {
    num_output: 128
    pad: 0
    kernel_size: 1
    stride: 1
    weight_filler {
      type: "xavier"
    }
    bias_filler {
      type: "constant"
      value: 0
    }
  }
}
layer {
  name: "conv8_1_relu"
  type: "ReLU"
  bottom: "conv8_1"
  top: "conv8_1"
}
layer {
  name: "conv8_2"
  type: "Convolution"
  bottom: "conv8_1"
  top: "conv8_2"
  param {
    lr_mult: 1
    decay_mult: 1
  }
  param {
    lr_mult: 2
    decay_mult: 0
  }
  convolution_param {
    num_output: 256
    pad: 0
    kernel_size: 3
    stride: 1
    weight_filler {
      type: "xavier"
    }
    bias_filler {
      type: "constant"
      value: 0
    }
  }
}
layer {
  name: "conv8_2_relu"
  type: "ReLU"
  bottom: "conv8_2"
  top: "conv8_2"
}
layer {
  name: "conv9_1"
  type: "Convolution"
  bottom: "conv8_2"
  top: "conv9_1"
  param {
    lr_mult: 1
    decay_mult: 1
  }
  param {
    lr_mult: 2
    decay_mult: 0
  }
  convolution_param {
    num_output: 128
    pad: 0
    kernel_size: 1
    stride: 1
    weight_filler {
      type: "xavier"
    }
    bias_filler {
      type: "constant"
      value: 0
    }
  }
}
layer {
  name: "conv9_1_relu"
  type: "ReLU"
  bottom: "conv9_1"
  top: "conv9_1"
}
layer {
  name: "conv9_2"
  type: "Convolution"
  bottom: "conv9_1"
  top: "conv9_2"
  param {
    lr_mult: 1
    decay_mult: 1
  }
  param {
    lr_mult: 2
    decay_mult: 0
  }
  convolution_param {
    num_output: 256
    pad: 0
    kernel_size: 3
    stride: 1
    weight_filler {
      type: "xavier"
    }
    bias_filler {
      type: "constant"
      value: 0
    }
  }
}
layer {
  name: "conv9_2_relu"
  type: "ReLU"
  bottom: "conv9_2"
  top: "conv9_2"
}
layer {
  name: "conv4_3_norm"
  type: "Normalize"
  bottom: "conv4_3"
  top: "conv4_3_norm"
  norm_param {
    across_spatial: false
    scale_filler {
      type: "constant"
      value: 20
    }
    channel_shared: false
  }
}
layer {
  name: "conv4_3_norm_mbox_loc"
  type: "Convolution"
  bottom: "conv4_3_norm"
  top: "conv4_3_norm_mbox_loc"
  param {
    lr_mult: 1
    decay_mult: 1
  }
  param {
    lr_mult: 2
    decay_mult: 0
  }
  convolution_param {
    num_output: 16
    pad: 1
    kernel_size: 3
    stride: 1
    weight_filler {
      type: "xavier"
    }
    bias_filler {
      type: "constant"
      value: 0
    }
  }
}
layer {
  name: "conv4_3_norm_mbox_loc_perm"
  type: "Permute"
  bottom: "conv4_3_norm_mbox_loc"
  top: "conv4_3_norm_mbox_loc_perm"
  permute_param {
    order: 0
    order: 2
    order: 3
    order: 1
  }
}
layer {
  name: "conv4_3_norm_mbox_loc_flat"
  type: "Flatten"
  bottom: "conv4_3_norm_mbox_loc_perm"
  top: "conv4_3_norm_mbox_loc_flat"
  flatten_param {
    axis: 1
  }
}
layer {
  name: "conv4_3_norm_mbox_conf"
  type: "Convolution"
  bottom: "conv4_3_norm"
  top: "conv4_3_norm_mbox_conf"
  param {
    lr_mult: 1
    decay_mult: 1
  }
  param {
    lr_mult: 2
    decay_mult: 0
  }
  convolution_param {
    num_output: 16
    pad: 1
    kernel_size: 3
    stride: 1
    weight_filler {
      type: "xavier"
    }
    bias_filler {
      type: "constant"
      value: 0
    }
  }
}
layer {
  name: "conv4_3_norm_mbox_conf_perm"
  type: "Permute"
  bottom: "conv4_3_norm_mbox_conf"
  top: "conv4_3_norm_mbox_conf_perm"
  permute_param {
    order: 0
    order: 2
    order: 3
    order: 1
  }
}
layer {
  name: "conv4_3_norm_mbox_conf_flat"
  type: "Flatten"
  bottom: "conv4_3_norm_mbox_conf_perm"
  top: "conv4_3_norm_mbox_conf_flat"
  flatten_param {
    axis: 1
  }
}
layer {
  name: "conv4_3_norm_mbox_priorbox"
  type: "PriorBox"
  bottom: "conv4_3_norm"
  bottom: "data"
  top: "conv4_3_norm_mbox_priorbox"
  prior_box_param {
    min_size: 30
    max_size: 60
    aspect_ratio: 2
    flip: true
    clip: false
    variance: 0.1
    variance: 0.1
    variance: 0.2
    variance: 0.2
    step: 8
    offset: 0.5
  }
}
layer {
  name: "fc7_mbox_loc"
  type: "Convolution"
  bottom: "fc7"
  top: "fc7_mbox_loc"
  param {
    lr_mult: 1
    decay_mult: 1
  }
  param {
    lr_mult: 2
    decay_mult: 0
  }
  convolution_param {
    num_output: 24
    pad: 1
    kernel_size: 3
    stride: 1
    weight_filler {
      type: "xavier"
    }
    bias_filler {
      type: "constant"
      value: 0
    }
  }
}
layer {
  name: "fc7_mbox_loc_perm"
  type: "Permute"
  bottom: "fc7_mbox_loc"
  top: "fc7_mbox_loc_perm"
  permute_param {
    order: 0
    order: 2
    order: 3
    order: 1
  }
}
layer {
  name: "fc7_mbox_loc_flat"
  type: "Flatten"
  bottom: "fc7_mbox_loc_perm"
  top: "fc7_mbox_loc_flat"
  flatten_param {
    axis: 1
  }
}
layer {
  name: "fc7_mbox_conf"
  type: "Convolution"
  bottom: "fc7"
  top: "fc7_mbox_conf"
  param {
    lr_mult: 1
    decay_mult: 1
  }
  param {
    lr_mult: 2
    decay_mult: 0
  }
  convolution_param {
    num_output: 24
    pad: 1
    kernel_size: 3
    stride: 1
    weight_filler {
      type: "xavier"
    }
    bias_filler {
      type: "constant"
      value: 0
    }
  }
}
layer {
  name: "fc7_mbox_conf_perm"
  type: "Permute"
  bottom: "fc7_mbox_conf"
  top: "fc7_mbox_conf_perm"
  permute_param {
    order: 0
    order: 2
    order: 3
    order: 1
  }
}
layer {
  name: "fc7_mbox_conf_flat"
  type: "Flatten"
  bottom: "fc7_mbox_conf_perm"
  top: "fc7_mbox_conf_flat"
  flatten_param {
    axis: 1
  }
}
layer {
  name: "fc7_mbox_priorbox"
  type: "PriorBox"
  bottom: "fc7"
  bottom: "data"
  top: "fc7_mbox_priorbox"
  prior_box_param {
    min_size: 60
    max_size: 111
    aspect_ratio: 2
    aspect_ratio: 3
    flip: true
    clip: false
    variance: 0.1
    variance: 0.1
    variance: 0.2
    variance: 0.2
    step: 16
    offset: 0.5
  }
}
layer {
  name: "conv6_2_mbox_loc"
  type: "Convolution"
  bottom: "conv6_2"
  top: "conv6_2_mbox_loc"
  param {
    lr_mult: 1
    decay_mult: 1
  }
  param {
    lr_mult: 2
    decay_mult: 0
  }
  convolution_param {
    num_output: 24
    pad: 1
    kernel_size: 3
    stride: 1
    weight_filler {
      type: "xavier"
    }
    bias_filler {
      type: "constant"
      value: 0
    }
  }
}
layer {
  name: "conv6_2_mbox_loc_perm"
  type: "Permute"
  bottom: "conv6_2_mbox_loc"
  top: "conv6_2_mbox_loc_perm"
  permute_param {
    order: 0
    order: 2
    order: 3
    order: 1
  }
}
layer {
  name: "conv6_2_mbox_loc_flat"
  type: "Flatten"
  bottom: "conv6_2_mbox_loc_perm"
  top: "conv6_2_mbox_loc_flat"
  flatten_param {
    axis: 1
  }
}
layer {
  name: "conv6_2_mbox_conf"
  type: "Convolution"
  bottom: "conv6_2"
  top: "conv6_2_mbox_conf"
  param {
    lr_mult: 1
    decay_mult: 1
  }
  param {
    lr_mult: 2
    decay_mult: 0
  }
  convolution_param {
    num_output: 24
    pad: 1
    kernel_size: 3
    stride: 1
    weight_filler {
      type: "xavier"
    }
    bias_filler {
      type: "constant"
      value: 0
    }
  }
}
layer {
  name: "conv6_2_mbox_conf_perm"
  type: "Permute"
  bottom: "conv6_2_mbox_conf"
  top: "conv6_2_mbox_conf_perm"
  permute_param {
    order: 0
    order: 2
    order: 3
    order: 1
  }
}
layer {
  name: "conv6_2_mbox_conf_flat"
  type: "Flatten"
  bottom: "conv6_2_mbox_conf_perm"
  top: "conv6_2_mbox_conf_flat"
  flatten_param {
    axis: 1
  }
}
layer {
  name: "conv6_2_mbox_priorbox"
  type: "PriorBox"
  bottom: "conv6_2"
  bottom: "data"
  top: "conv6_2_mbox_priorbox"
  prior_box_param {
    min_size: 111
    max_size: 162
    aspect_ratio: 2
    aspect_ratio: 3
    flip: true
    clip: false
    variance: 0.1
    variance: 0.1
    variance: 0.2
    variance: 0.2
    step: 32
    offset: 0.5
  }
}
layer {
  name: "conv7_2_mbox_loc"
  type: "Convolution"
  bottom: "conv7_2"
  top: "conv7_2_mbox_loc"
  param {
    lr_mult: 1
    decay_mult: 1
  }
  param {
    lr_mult: 2
    decay_mult: 0
  }
  convolution_param {
    num_output: 24
    pad: 1
    kernel_size: 3
    stride: 1
    weight_filler {
      type: "xavier"
    }
    bias_filler {
      type: "constant"
      value: 0
    }
  }
}
layer {
  name: "conv7_2_mbox_loc_perm"
  type: "Permute"
  bottom: "conv7_2_mbox_loc"
  top: "conv7_2_mbox_loc_perm"
  permute_param {
    order: 0
    order: 2
    order: 3
    order: 1
  }
}
layer {
  name: "conv7_2_mbox_loc_flat"
  type: "Flatten"
  bottom: "conv7_2_mbox_loc_perm"
  top: "conv7_2_mbox_loc_flat"
  flatten_param {
    axis: 1
  }
}
layer {
  name: "conv7_2_mbox_conf"
  type: "Convolution"
  bottom: "conv7_2"
  top: "conv7_2_mbox_conf"
  param {
    lr_mult: 1
    decay_mult: 1
  }
  param {
    lr_mult: 2
    decay_mult: 0
  }
  convolution_param {
    num_output: 24
    pad: 1
    kernel_size: 3
    stride: 1
    weight_filler {
      type: "xavier"
    }
    bias_filler {
      type: "constant"
      value: 0
    }
  }
}
layer {
  name: "conv7_2_mbox_conf_perm"
  type: "Permute"
  bottom: "conv7_2_mbox_conf"
  top: "conv7_2_mbox_conf_perm"
  permute_param {
    order: 0
    order: 2
    order: 3
    order: 1
  }
}
layer {
  name: "conv7_2_mbox_conf_flat"
  type: "Flatten"
  bottom: "conv7_2_mbox_conf_perm"
  top: "conv7_2_mbox_conf_flat"
  flatten_param {
    axis: 1
  }
}
layer {
  name: "conv7_2_mbox_priorbox"
  type: "PriorBox"
  bottom: "conv7_2"
  bottom: "data"
  top: "conv7_2_mbox_priorbox"
  prior_box_param {
    min_size: 162
    max_size: 213
    aspect_ratio: 2
    aspect_ratio: 3
    flip: true
    clip: false
    variance: 0.1
    variance: 0.1
    variance: 0.2
    variance: 0.2
    step: 64
    offset: 0.5
  }
}
layer {
  name: "conv8_2_mbox_loc"
  type: "Convolution"
  bottom: "conv8_2"
  top: "conv8_2_mbox_loc"
  param {
    lr_mult: 1
    decay_mult: 1
  }
  param {
    lr_mult: 2
    decay_mult: 0
  }
  convolution_param {
    num_output: 16
    pad: 1
    kernel_size: 3
    stride: 1
    weight_filler {
      type: "xavier"
    }
    bias_filler {
      type: "constant"
      value: 0
    }
  }
}
layer {
  name: "conv8_2_mbox_loc_perm"
  type: "Permute"
  bottom: "conv8_2_mbox_loc"
  top: "conv8_2_mbox_loc_perm"
  permute_param {
    order: 0
    order: 2
    order: 3
    order: 1
  }
}
layer {
  name: "conv8_2_mbox_loc_flat"
  type: "Flatten"
  bottom: "conv8_2_mbox_loc_perm"
  top: "conv8_2_mbox_loc_flat"
  flatten_param {
    axis: 1
  }
}
layer {
  name: "conv8_2_mbox_conf"
  type: "Convolution"
  bottom: "conv8_2"
  top: "conv8_2_mbox_conf"
  param {
    lr_mult: 1
    decay_mult: 1
  }
  param {
    lr_mult: 2
    decay_mult: 0
  }
  convolution_param {
    num_output: 16
    pad: 1
    kernel_size: 3
    stride: 1
    weight_filler {
      type: "xavier"
    }
    bias_filler {
      type: "constant"
      value: 0
    }
  }
}
layer {
  name: "conv8_2_mbox_conf_perm"
  type: "Permute"
  bottom: "conv8_2_mbox_conf"
  top: "conv8_2_mbox_conf_perm"
  permute_param {
    order: 0
    order: 2
    order: 3
    order: 1
  }
}
layer {
  name: "conv8_2_mbox_conf_flat"
  type: "Flatten"
  bottom: "conv8_2_mbox_conf_perm"
  top: "conv8_2_mbox_conf_flat"
  flatten_param {
    axis: 1
  }
}
layer {
  name: "conv8_2_mbox_priorbox"
  type: "PriorBox"
  bottom: "conv8_2"
  bottom: "data"
  top: "conv8_2_mbox_priorbox"
  prior_box_param {
    min_size: 213
    max_size: 264
    aspect_ratio: 2
    flip: true
    clip: false
    variance: 0.1
    variance: 0.1
    variance: 0.2
    variance: 0.2
    step: 100
    offset: 0.5
  }
}
layer {
  name: "conv9_2_mbox_loc"
  type: "Convolution"
  bottom: "conv9_2"
  top: "conv9_2_mbox_loc"
  param {
    lr_mult: 1
    decay_mult: 1
  }
  param {
    lr_mult: 2
    decay_mult: 0
  }
  convolution_param {
    num_output: 16
    pad: 1
    kernel_size: 3
    stride: 1
    weight_filler {
      type: "xavier"
    }
    bias_filler {
      type: "constant"
      value: 0
    }
  }
}
layer {
  name: "conv9_2_mbox_loc_perm"
  type: "Permute"
  bottom: "conv9_2_mbox_loc"
  top: "conv9_2_mbox_loc_perm"
  permute_param {
    order: 0
    order: 2
    order: 3
    order: 1
  }
}
layer {
  name: "conv9_2_mbox_loc_flat"
  type: "Flatten"
  bottom: "conv9_2_mbox_loc_perm"
  top: "conv9_2_mbox_loc_flat"
  flatten_param {
    axis: 1
  }
}
layer {
  name: "conv9_2_mbox_conf"
  type: "Convolution"
  bottom: "conv9_2"
  top: "conv9_2_mbox_conf"
  param {
    lr_mult: 1
    decay_mult: 1
  }
  param {
    lr_mult: 2
    decay_mult: 0
  }
  convolution_param {
    num_output: 16
    pad: 1
    kernel_size: 3
    stride: 1
    weight_filler {
      type: "xavier"
    }
    bias_filler {
      type: "constant"
      value: 0
    }
  }
}
layer {
  name: "conv9_2_mbox_conf_perm"
  type: "Permute"
  bottom: "conv9_2_mbox_conf"
  top: "conv9_2_mbox_conf_perm"
  permute_param {
    order: 0
    order: 2
    order: 3
    order: 1
  }
}
layer {
  name: "conv9_2_mbox_conf_flat"
  type: "Flatten"
  bottom: "conv9_2_mbox_conf_perm"
  top: "conv9_2_mbox_conf_flat"
  flatten_param {
    axis: 1
  }
}
layer {
  name: "conv9_2_mbox_priorbox"
  type: "PriorBox"
  bottom: "conv9_2"
  bottom: "data"
  top: "conv9_2_mbox_priorbox"
  prior_box_param {
    min_size: 264
    max_size: 315
    aspect_ratio: 2
    flip: true
    clip: false
    variance: 0.1
    variance: 0.1
    variance: 0.2
    variance: 0.2
    step: 300
    offset: 0.5
  }
}
layer {
  name: "mbox_loc"
  type: "Concat"
  bottom: "conv4_3_norm_mbox_loc_flat"
  bottom: "fc7_mbox_loc_flat"
  bottom: "conv6_2_mbox_loc_flat"
  bottom: "conv7_2_mbox_loc_flat"
  bottom: "conv8_2_mbox_loc_flat"
  bottom: "conv9_2_mbox_loc_flat"
  top: "mbox_loc"
  concat_param {
    axis: 1
  }
}
layer {
  name: "mbox_conf"
  type: "Concat"
  bottom: "conv4_3_norm_mbox_conf_flat"
  bottom: "fc7_mbox_conf_flat"
  bottom: "conv6_2_mbox_conf_flat"
  bottom: "conv7_2_mbox_conf_flat"
  bottom: "conv8_2_mbox_conf_flat"
  bottom: "conv9_2_mbox_conf_flat"
  top: "mbox_conf"
  concat_param {
    axis: 1
  }
}
layer {
  name: "mbox_priorbox"
  type: "Concat"
  bottom: "conv4_3_norm_mbox_priorbox"
  bottom: "fc7_mbox_priorbox"
  bottom: "conv6_2_mbox_priorbox"
  bottom: "conv7_2_mbox_priorbox"
  bottom: "conv8_2_mbox_priorbox"
  bottom: "conv9_2_mbox_priorbox"
  top: "mbox_priorbox"
  concat_param {
    axis: 2
  }
}
layer {
  name: "mbox_conf_reshape"
  type: "Reshape"
  bottom: "mbox_conf"
  top: "mbox_conf_reshape"
  reshape_param {
    shape {
      dim: 0
      dim: -1
      dim: 4
    }
  }
}
layer {
  name: "mbox_conf_softmax"
  type: "Softmax"
  bottom: "mbox_conf_reshape"
  top: "mbox_conf_softmax"
  softmax_param {
    axis: 2
  }
}
layer {
  name: "mbox_conf_flatten"
  type: "Flatten"
  bottom: "mbox_conf_softmax"
  top: "mbox_conf_flatten"
  flatten_param {
    axis: 1
  }
}
layer {
  name: "detection_out"
  type: "DetectionOutput"
  bottom: "mbox_loc"
  bottom: "mbox_conf_flatten"
  bottom: "mbox_priorbox"
  top: "detection_out"
  include {
    phase: TEST
  }
  detection_output_param {
    num_classes: 4
    share_location: true
    background_label_id: 0
    nms_param {
      nms_threshold: 0.45
      top_k: 400
    }
    save_output_param {
      output_directory: "/home/shangzw/data/tbs/results/tbs/SSD_300x300/Main"
      output_name_prefix: "comp4_det_test_"
      output_format: "VOC"
      label_map_file: "data/tbs_300x300_HSIL_10x/labelmap_voc.prototxt"
      name_size_file: "data/VOC0712/test_name_size.txt"
      num_test_image: 100
    }
    code_type: CENTER_SIZE
    keep_top_k: 200
    confidence_threshold: 0.01
  }
}
layer {
  name: "detection_eval"
  type: "DetectionEvaluate"
  bottom: "detection_out"
  bottom: "label"
  top: "detection_eval"
  include {
    phase: TEST
  }
  detection_evaluate_param {
    num_classes: 4
    background_label_id: 0
    overlap_threshold: 0.5
    evaluate_difficult_gt: false
    name_size_file: "data/VOC0712/test_name_size.txt"
  }
}
I0601 17:39:54.158181  8165 layer_factory.hpp:77] Creating layer data
I0601 17:39:54.158224  8165 net.cpp:100] Creating Layer data
I0601 17:39:54.158237  8165 net.cpp:408] data -> data
I0601 17:39:54.158247  8165 net.cpp:408] data -> label
I0601 17:39:54.158681  8189 db_lmdb.cpp:35] Opened lmdb examples/tbs_300x300_HSIL_10x/tbs_300x300_HSIL_10x_test_lmdb
I0601 17:39:54.159332  8165 annotated_data_layer.cpp:62] output data size: 4,3,300,300
I0601 17:39:54.169080  8165 net.cpp:150] Setting up data
I0601 17:39:54.169104  8165 net.cpp:157] Top shape: 4 3 300 300 (1080000)
I0601 17:39:54.169108  8165 net.cpp:157] Top shape: 1 1 1 8 (8)
I0601 17:39:54.169111  8165 net.cpp:165] Memory required for data: 4320032
I0601 17:39:54.169131  8165 layer_factory.hpp:77] Creating layer data_data_0_split
I0601 17:39:54.169142  8165 net.cpp:100] Creating Layer data_data_0_split
I0601 17:39:54.169145  8165 net.cpp:434] data_data_0_split <- data
I0601 17:39:54.169152  8165 net.cpp:408] data_data_0_split -> data_data_0_split_0
I0601 17:39:54.169163  8165 net.cpp:408] data_data_0_split -> data_data_0_split_1
I0601 17:39:54.169181  8165 net.cpp:408] data_data_0_split -> data_data_0_split_2
I0601 17:39:54.169186  8165 net.cpp:408] data_data_0_split -> data_data_0_split_3
I0601 17:39:54.169190  8165 net.cpp:408] data_data_0_split -> data_data_0_split_4
I0601 17:39:54.169194  8165 net.cpp:408] data_data_0_split -> data_data_0_split_5
I0601 17:39:54.169198  8165 net.cpp:408] data_data_0_split -> data_data_0_split_6
I0601 17:39:54.169347  8165 net.cpp:150] Setting up data_data_0_split
I0601 17:39:54.169351  8165 net.cpp:157] Top shape: 4 3 300 300 (1080000)
I0601 17:39:54.169354  8165 net.cpp:157] Top shape: 4 3 300 300 (1080000)
I0601 17:39:54.169358  8165 net.cpp:157] Top shape: 4 3 300 300 (1080000)
I0601 17:39:54.169360  8165 net.cpp:157] Top shape: 4 3 300 300 (1080000)
I0601 17:39:54.169363  8165 net.cpp:157] Top shape: 4 3 300 300 (1080000)
I0601 17:39:54.169394  8165 net.cpp:157] Top shape: 4 3 300 300 (1080000)
I0601 17:39:54.169397  8165 net.cpp:157] Top shape: 4 3 300 300 (1080000)
I0601 17:39:54.169399  8165 net.cpp:165] Memory required for data: 34560032
I0601 17:39:54.169402  8165 layer_factory.hpp:77] Creating layer conv1_1
I0601 17:39:54.169414  8165 net.cpp:100] Creating Layer conv1_1
I0601 17:39:54.169416  8165 net.cpp:434] conv1_1 <- data_data_0_split_0
I0601 17:39:54.169421  8165 net.cpp:408] conv1_1 -> conv1_1
I0601 17:39:54.171010  8165 net.cpp:150] Setting up conv1_1
I0601 17:39:54.171026  8165 net.cpp:157] Top shape: 4 64 300 300 (23040000)
I0601 17:39:54.171030  8165 net.cpp:165] Memory required for data: 126720032
I0601 17:39:54.171041  8165 layer_factory.hpp:77] Creating layer relu1_1
I0601 17:39:54.171046  8165 net.cpp:100] Creating Layer relu1_1
I0601 17:39:54.171051  8165 net.cpp:434] relu1_1 <- conv1_1
I0601 17:39:54.171054  8165 net.cpp:395] relu1_1 -> conv1_1 (in-place)
I0601 17:39:54.171180  8165 net.cpp:150] Setting up relu1_1
I0601 17:39:54.171185  8165 net.cpp:157] Top shape: 4 64 300 300 (23040000)
I0601 17:39:54.171187  8165 net.cpp:165] Memory required for data: 218880032
I0601 17:39:54.171190  8165 layer_factory.hpp:77] Creating layer conv1_2
I0601 17:39:54.171198  8165 net.cpp:100] Creating Layer conv1_2
I0601 17:39:54.171201  8165 net.cpp:434] conv1_2 <- conv1_1
I0601 17:39:54.171205  8165 net.cpp:408] conv1_2 -> conv1_2
I0601 17:39:54.173877  8165 net.cpp:150] Setting up conv1_2
I0601 17:39:54.173887  8165 net.cpp:157] Top shape: 4 64 300 300 (23040000)
I0601 17:39:54.173890  8165 net.cpp:165] Memory required for data: 311040032
I0601 17:39:54.173897  8165 layer_factory.hpp:77] Creating layer relu1_2
I0601 17:39:54.173902  8165 net.cpp:100] Creating Layer relu1_2
I0601 17:39:54.173905  8165 net.cpp:434] relu1_2 <- conv1_2
I0601 17:39:54.173909  8165 net.cpp:395] relu1_2 -> conv1_2 (in-place)
I0601 17:39:54.174530  8165 net.cpp:150] Setting up relu1_2
I0601 17:39:54.174540  8165 net.cpp:157] Top shape: 4 64 300 300 (23040000)
I0601 17:39:54.174542  8165 net.cpp:165] Memory required for data: 403200032
I0601 17:39:54.174545  8165 layer_factory.hpp:77] Creating layer pool1
I0601 17:39:54.174551  8165 net.cpp:100] Creating Layer pool1
I0601 17:39:54.174554  8165 net.cpp:434] pool1 <- conv1_2
I0601 17:39:54.174558  8165 net.cpp:408] pool1 -> pool1
I0601 17:39:54.174598  8165 net.cpp:150] Setting up pool1
I0601 17:39:54.174604  8165 net.cpp:157] Top shape: 4 64 150 150 (5760000)
I0601 17:39:54.174607  8165 net.cpp:165] Memory required for data: 426240032
I0601 17:39:54.174608  8165 layer_factory.hpp:77] Creating layer conv2_1
I0601 17:39:54.174615  8165 net.cpp:100] Creating Layer conv2_1
I0601 17:39:54.174618  8165 net.cpp:434] conv2_1 <- pool1
I0601 17:39:54.174623  8165 net.cpp:408] conv2_1 -> conv2_1
I0601 17:39:54.176338  8165 net.cpp:150] Setting up conv2_1
I0601 17:39:54.176350  8165 net.cpp:157] Top shape: 4 128 150 150 (11520000)
I0601 17:39:54.176354  8165 net.cpp:165] Memory required for data: 472320032
I0601 17:39:54.176362  8165 layer_factory.hpp:77] Creating layer relu2_1
I0601 17:39:54.176370  8165 net.cpp:100] Creating Layer relu2_1
I0601 17:39:54.176374  8165 net.cpp:434] relu2_1 <- conv2_1
I0601 17:39:54.176379  8165 net.cpp:395] relu2_1 -> conv2_1 (in-place)
I0601 17:39:54.177214  8165 net.cpp:150] Setting up relu2_1
I0601 17:39:54.177227  8165 net.cpp:157] Top shape: 4 128 150 150 (11520000)
I0601 17:39:54.177230  8165 net.cpp:165] Memory required for data: 518400032
I0601 17:39:54.177234  8165 layer_factory.hpp:77] Creating layer conv2_2
I0601 17:39:54.177245  8165 net.cpp:100] Creating Layer conv2_2
I0601 17:39:54.177249  8165 net.cpp:434] conv2_2 <- conv2_1
I0601 17:39:54.177258  8165 net.cpp:408] conv2_2 -> conv2_2
I0601 17:39:54.180030  8165 net.cpp:150] Setting up conv2_2
I0601 17:39:54.180043  8165 net.cpp:157] Top shape: 4 128 150 150 (11520000)
I0601 17:39:54.180047  8165 net.cpp:165] Memory required for data: 564480032
I0601 17:39:54.180054  8165 layer_factory.hpp:77] Creating layer relu2_2
I0601 17:39:54.180074  8165 net.cpp:100] Creating Layer relu2_2
I0601 17:39:54.180079  8165 net.cpp:434] relu2_2 <- conv2_2
I0601 17:39:54.180086  8165 net.cpp:395] relu2_2 -> conv2_2 (in-place)
I0601 17:39:54.180228  8165 net.cpp:150] Setting up relu2_2
I0601 17:39:54.180236  8165 net.cpp:157] Top shape: 4 128 150 150 (11520000)
I0601 17:39:54.180240  8165 net.cpp:165] Memory required for data: 610560032
I0601 17:39:54.180244  8165 layer_factory.hpp:77] Creating layer pool2
I0601 17:39:54.180253  8165 net.cpp:100] Creating Layer pool2
I0601 17:39:54.180256  8165 net.cpp:434] pool2 <- conv2_2
I0601 17:39:54.180263  8165 net.cpp:408] pool2 -> pool2
I0601 17:39:54.180305  8165 net.cpp:150] Setting up pool2
I0601 17:39:54.180312  8165 net.cpp:157] Top shape: 4 128 75 75 (2880000)
I0601 17:39:54.180317  8165 net.cpp:165] Memory required for data: 622080032
I0601 17:39:54.180320  8165 layer_factory.hpp:77] Creating layer conv3_1
I0601 17:39:54.180330  8165 net.cpp:100] Creating Layer conv3_1
I0601 17:39:54.180335  8165 net.cpp:434] conv3_1 <- pool2
I0601 17:39:54.180344  8165 net.cpp:408] conv3_1 -> conv3_1
I0601 17:39:54.183141  8165 net.cpp:150] Setting up conv3_1
I0601 17:39:54.183151  8165 net.cpp:157] Top shape: 4 256 75 75 (5760000)
I0601 17:39:54.183156  8165 net.cpp:165] Memory required for data: 645120032
I0601 17:39:54.183167  8165 layer_factory.hpp:77] Creating layer relu3_1
I0601 17:39:54.183176  8165 net.cpp:100] Creating Layer relu3_1
I0601 17:39:54.183182  8165 net.cpp:434] relu3_1 <- conv3_1
I0601 17:39:54.183187  8165 net.cpp:395] relu3_1 -> conv3_1 (in-place)
I0601 17:39:54.183331  8165 net.cpp:150] Setting up relu3_1
I0601 17:39:54.183338  8165 net.cpp:157] Top shape: 4 256 75 75 (5760000)
I0601 17:39:54.183342  8165 net.cpp:165] Memory required for data: 668160032
I0601 17:39:54.183346  8165 layer_factory.hpp:77] Creating layer conv3_2
I0601 17:39:54.183357  8165 net.cpp:100] Creating Layer conv3_2
I0601 17:39:54.183362  8165 net.cpp:434] conv3_2 <- conv3_1
I0601 17:39:54.183368  8165 net.cpp:408] conv3_2 -> conv3_2
I0601 17:39:54.189442  8165 net.cpp:150] Setting up conv3_2
I0601 17:39:54.189457  8165 net.cpp:157] Top shape: 4 256 75 75 (5760000)
I0601 17:39:54.189461  8165 net.cpp:165] Memory required for data: 691200032
I0601 17:39:54.189469  8165 layer_factory.hpp:77] Creating layer relu3_2
I0601 17:39:54.189476  8165 net.cpp:100] Creating Layer relu3_2
I0601 17:39:54.189482  8165 net.cpp:434] relu3_2 <- conv3_2
I0601 17:39:54.189492  8165 net.cpp:395] relu3_2 -> conv3_2 (in-place)
I0601 17:39:54.189641  8165 net.cpp:150] Setting up relu3_2
I0601 17:39:54.189649  8165 net.cpp:157] Top shape: 4 256 75 75 (5760000)
I0601 17:39:54.189653  8165 net.cpp:165] Memory required for data: 714240032
I0601 17:39:54.189657  8165 layer_factory.hpp:77] Creating layer conv3_3
I0601 17:39:54.189671  8165 net.cpp:100] Creating Layer conv3_3
I0601 17:39:54.189676  8165 net.cpp:434] conv3_3 <- conv3_2
I0601 17:39:54.189682  8165 net.cpp:408] conv3_3 -> conv3_3
I0601 17:39:54.194321  8165 net.cpp:150] Setting up conv3_3
I0601 17:39:54.194335  8165 net.cpp:157] Top shape: 4 256 75 75 (5760000)
I0601 17:39:54.194339  8165 net.cpp:165] Memory required for data: 737280032
I0601 17:39:54.194349  8165 layer_factory.hpp:77] Creating layer relu3_3
I0601 17:39:54.194355  8165 net.cpp:100] Creating Layer relu3_3
I0601 17:39:54.194360  8165 net.cpp:434] relu3_3 <- conv3_3
I0601 17:39:54.194370  8165 net.cpp:395] relu3_3 -> conv3_3 (in-place)
I0601 17:39:54.194517  8165 net.cpp:150] Setting up relu3_3
I0601 17:39:54.194525  8165 net.cpp:157] Top shape: 4 256 75 75 (5760000)
I0601 17:39:54.194530  8165 net.cpp:165] Memory required for data: 760320032
I0601 17:39:54.194532  8165 layer_factory.hpp:77] Creating layer pool3
I0601 17:39:54.194541  8165 net.cpp:100] Creating Layer pool3
I0601 17:39:54.194545  8165 net.cpp:434] pool3 <- conv3_3
I0601 17:39:54.194551  8165 net.cpp:408] pool3 -> pool3
I0601 17:39:54.194597  8165 net.cpp:150] Setting up pool3
I0601 17:39:54.194603  8165 net.cpp:157] Top shape: 4 256 38 38 (1478656)
I0601 17:39:54.194618  8165 net.cpp:165] Memory required for data: 766234656
I0601 17:39:54.194622  8165 layer_factory.hpp:77] Creating layer conv4_1
I0601 17:39:54.194633  8165 net.cpp:100] Creating Layer conv4_1
I0601 17:39:54.194638  8165 net.cpp:434] conv4_1 <- pool3
I0601 17:39:54.194644  8165 net.cpp:408] conv4_1 -> conv4_1
I0601 17:39:54.203665  8165 net.cpp:150] Setting up conv4_1
I0601 17:39:54.203680  8165 net.cpp:157] Top shape: 4 512 38 38 (2957312)
I0601 17:39:54.203685  8165 net.cpp:165] Memory required for data: 778063904
I0601 17:39:54.203693  8165 layer_factory.hpp:77] Creating layer relu4_1
I0601 17:39:54.203716  8165 net.cpp:100] Creating Layer relu4_1
I0601 17:39:54.203729  8165 net.cpp:434] relu4_1 <- conv4_1
I0601 17:39:54.203739  8165 net.cpp:395] relu4_1 -> conv4_1 (in-place)
I0601 17:39:54.205996  8165 net.cpp:150] Setting up relu4_1
I0601 17:39:54.206007  8165 net.cpp:157] Top shape: 4 512 38 38 (2957312)
I0601 17:39:54.206012  8165 net.cpp:165] Memory required for data: 789893152
I0601 17:39:54.206017  8165 layer_factory.hpp:77] Creating layer conv4_2
I0601 17:39:54.206027  8165 net.cpp:100] Creating Layer conv4_2
I0601 17:39:54.206032  8165 net.cpp:434] conv4_2 <- conv4_1
I0601 17:39:54.206040  8165 net.cpp:408] conv4_2 -> conv4_2
I0601 17:39:54.218330  8165 net.cpp:150] Setting up conv4_2
I0601 17:39:54.218346  8165 net.cpp:157] Top shape: 4 512 38 38 (2957312)
I0601 17:39:54.218350  8165 net.cpp:165] Memory required for data: 801722400
I0601 17:39:54.218363  8165 layer_factory.hpp:77] Creating layer relu4_2
I0601 17:39:54.218374  8165 net.cpp:100] Creating Layer relu4_2
I0601 17:39:54.218379  8165 net.cpp:434] relu4_2 <- conv4_2
I0601 17:39:54.218389  8165 net.cpp:395] relu4_2 -> conv4_2 (in-place)
I0601 17:39:54.219964  8165 net.cpp:150] Setting up relu4_2
I0601 17:39:54.219975  8165 net.cpp:157] Top shape: 4 512 38 38 (2957312)
I0601 17:39:54.219980  8165 net.cpp:165] Memory required for data: 813551648
I0601 17:39:54.219983  8165 layer_factory.hpp:77] Creating layer conv4_3
I0601 17:39:54.219995  8165 net.cpp:100] Creating Layer conv4_3
I0601 17:39:54.220000  8165 net.cpp:434] conv4_3 <- conv4_2
I0601 17:39:54.220007  8165 net.cpp:408] conv4_3 -> conv4_3
I0601 17:39:54.233461  8165 net.cpp:150] Setting up conv4_3
I0601 17:39:54.233479  8165 net.cpp:157] Top shape: 4 512 38 38 (2957312)
I0601 17:39:54.233484  8165 net.cpp:165] Memory required for data: 825380896
I0601 17:39:54.233491  8165 layer_factory.hpp:77] Creating layer relu4_3
I0601 17:39:54.233516  8165 net.cpp:100] Creating Layer relu4_3
I0601 17:39:54.233522  8165 net.cpp:434] relu4_3 <- conv4_3
I0601 17:39:54.233530  8165 net.cpp:395] relu4_3 -> conv4_3 (in-place)
I0601 17:39:54.233745  8165 net.cpp:150] Setting up relu4_3
I0601 17:39:54.233752  8165 net.cpp:157] Top shape: 4 512 38 38 (2957312)
I0601 17:39:54.233757  8165 net.cpp:165] Memory required for data: 837210144
I0601 17:39:54.233759  8165 layer_factory.hpp:77] Creating layer conv4_3_relu4_3_0_split
I0601 17:39:54.233781  8165 net.cpp:100] Creating Layer conv4_3_relu4_3_0_split
I0601 17:39:54.233785  8165 net.cpp:434] conv4_3_relu4_3_0_split <- conv4_3
I0601 17:39:54.233808  8165 net.cpp:408] conv4_3_relu4_3_0_split -> conv4_3_relu4_3_0_split_0
I0601 17:39:54.233829  8165 net.cpp:408] conv4_3_relu4_3_0_split -> conv4_3_relu4_3_0_split_1
I0601 17:39:54.233876  8165 net.cpp:150] Setting up conv4_3_relu4_3_0_split
I0601 17:39:54.233882  8165 net.cpp:157] Top shape: 4 512 38 38 (2957312)
I0601 17:39:54.233887  8165 net.cpp:157] Top shape: 4 512 38 38 (2957312)
I0601 17:39:54.233891  8165 net.cpp:165] Memory required for data: 860868640
I0601 17:39:54.233896  8165 layer_factory.hpp:77] Creating layer pool4
I0601 17:39:54.233904  8165 net.cpp:100] Creating Layer pool4
I0601 17:39:54.233922  8165 net.cpp:434] pool4 <- conv4_3_relu4_3_0_split_0
I0601 17:39:54.233943  8165 net.cpp:408] pool4 -> pool4
I0601 17:39:54.234024  8165 net.cpp:150] Setting up pool4
I0601 17:39:54.234030  8165 net.cpp:157] Top shape: 4 512 19 19 (739328)
I0601 17:39:54.234046  8165 net.cpp:165] Memory required for data: 863825952
I0601 17:39:54.234072  8165 layer_factory.hpp:77] Creating layer conv5_1
I0601 17:39:54.234086  8165 net.cpp:100] Creating Layer conv5_1
I0601 17:39:54.234103  8165 net.cpp:434] conv5_1 <- pool4
I0601 17:39:54.234112  8165 net.cpp:408] conv5_1 -> conv5_1
I0601 17:39:54.247102  8165 net.cpp:150] Setting up conv5_1
I0601 17:39:54.247123  8165 net.cpp:157] Top shape: 4 512 19 19 (739328)
I0601 17:39:54.247126  8165 net.cpp:165] Memory required for data: 866783264
I0601 17:39:54.247135  8165 layer_factory.hpp:77] Creating layer relu5_1
I0601 17:39:54.247146  8165 net.cpp:100] Creating Layer relu5_1
I0601 17:39:54.247153  8165 net.cpp:434] relu5_1 <- conv5_1
I0601 17:39:54.247160  8165 net.cpp:395] relu5_1 -> conv5_1 (in-place)
I0601 17:39:54.247305  8165 net.cpp:150] Setting up relu5_1
I0601 17:39:54.247314  8165 net.cpp:157] Top shape: 4 512 19 19 (739328)
I0601 17:39:54.247318  8165 net.cpp:165] Memory required for data: 869740576
I0601 17:39:54.247321  8165 layer_factory.hpp:77] Creating layer conv5_2
I0601 17:39:54.247334  8165 net.cpp:100] Creating Layer conv5_2
I0601 17:39:54.247339  8165 net.cpp:434] conv5_2 <- conv5_1
I0601 17:39:54.247345  8165 net.cpp:408] conv5_2 -> conv5_2
I0601 17:39:54.260340  8165 net.cpp:150] Setting up conv5_2
I0601 17:39:54.260355  8165 net.cpp:157] Top shape: 4 512 19 19 (739328)
I0601 17:39:54.260360  8165 net.cpp:165] Memory required for data: 872697888
I0601 17:39:54.260367  8165 layer_factory.hpp:77] Creating layer relu5_2
I0601 17:39:54.260375  8165 net.cpp:100] Creating Layer relu5_2
I0601 17:39:54.260396  8165 net.cpp:434] relu5_2 <- conv5_2
I0601 17:39:54.260404  8165 net.cpp:395] relu5_2 -> conv5_2 (in-place)
I0601 17:39:54.260589  8165 net.cpp:150] Setting up relu5_2
I0601 17:39:54.260597  8165 net.cpp:157] Top shape: 4 512 19 19 (739328)
I0601 17:39:54.260601  8165 net.cpp:165] Memory required for data: 875655200
I0601 17:39:54.260604  8165 layer_factory.hpp:77] Creating layer conv5_3
I0601 17:39:54.260615  8165 net.cpp:100] Creating Layer conv5_3
I0601 17:39:54.260619  8165 net.cpp:434] conv5_3 <- conv5_2
I0601 17:39:54.260643  8165 net.cpp:408] conv5_3 -> conv5_3
I0601 17:39:54.273953  8165 net.cpp:150] Setting up conv5_3
I0601 17:39:54.273972  8165 net.cpp:157] Top shape: 4 512 19 19 (739328)
I0601 17:39:54.273975  8165 net.cpp:165] Memory required for data: 878612512
I0601 17:39:54.273983  8165 layer_factory.hpp:77] Creating layer relu5_3
I0601 17:39:54.274013  8165 net.cpp:100] Creating Layer relu5_3
I0601 17:39:54.274034  8165 net.cpp:434] relu5_3 <- conv5_3
I0601 17:39:54.274039  8165 net.cpp:395] relu5_3 -> conv5_3 (in-place)
I0601 17:39:54.274205  8165 net.cpp:150] Setting up relu5_3
I0601 17:39:54.274214  8165 net.cpp:157] Top shape: 4 512 19 19 (739328)
I0601 17:39:54.274219  8165 net.cpp:165] Memory required for data: 881569824
I0601 17:39:54.274221  8165 layer_factory.hpp:77] Creating layer pool5
I0601 17:39:54.274230  8165 net.cpp:100] Creating Layer pool5
I0601 17:39:54.274250  8165 net.cpp:434] pool5 <- conv5_3
I0601 17:39:54.274256  8165 net.cpp:408] pool5 -> pool5
I0601 17:39:54.274358  8165 net.cpp:150] Setting up pool5
I0601 17:39:54.274364  8165 net.cpp:157] Top shape: 4 512 19 19 (739328)
I0601 17:39:54.274368  8165 net.cpp:165] Memory required for data: 884527136
I0601 17:39:54.274370  8165 layer_factory.hpp:77] Creating layer fc6
I0601 17:39:54.274382  8165 net.cpp:100] Creating Layer fc6
I0601 17:39:54.274386  8165 net.cpp:434] fc6 <- pool5
I0601 17:39:54.274394  8165 net.cpp:408] fc6 -> fc6
I0601 17:39:54.297864  8165 net.cpp:150] Setting up fc6
I0601 17:39:54.297886  8165 net.cpp:157] Top shape: 4 1024 19 19 (1478656)
I0601 17:39:54.297889  8165 net.cpp:165] Memory required for data: 890441760
I0601 17:39:54.297914  8165 layer_factory.hpp:77] Creating layer relu6
I0601 17:39:54.297924  8165 net.cpp:100] Creating Layer relu6
I0601 17:39:54.297931  8165 net.cpp:434] relu6 <- fc6
I0601 17:39:54.297940  8165 net.cpp:395] relu6 -> fc6 (in-place)
I0601 17:39:54.299064  8165 net.cpp:150] Setting up relu6
I0601 17:39:54.299089  8165 net.cpp:157] Top shape: 4 1024 19 19 (1478656)
I0601 17:39:54.299103  8165 net.cpp:165] Memory required for data: 896356384
I0601 17:39:54.299109  8165 layer_factory.hpp:77] Creating layer fc7
I0601 17:39:54.299139  8165 net.cpp:100] Creating Layer fc7
I0601 17:39:54.299144  8165 net.cpp:434] fc7 <- fc6
I0601 17:39:54.299152  8165 net.cpp:408] fc7 -> fc7
I0601 17:39:54.305739  8165 net.cpp:150] Setting up fc7
I0601 17:39:54.305761  8165 net.cpp:157] Top shape: 4 1024 19 19 (1478656)
I0601 17:39:54.305764  8165 net.cpp:165] Memory required for data: 902271008
I0601 17:39:54.305774  8165 layer_factory.hpp:77] Creating layer relu7
I0601 17:39:54.305783  8165 net.cpp:100] Creating Layer relu7
I0601 17:39:54.305791  8165 net.cpp:434] relu7 <- fc7
I0601 17:39:54.305800  8165 net.cpp:395] relu7 -> fc7 (in-place)
I0601 17:39:54.305943  8165 net.cpp:150] Setting up relu7
I0601 17:39:54.305949  8165 net.cpp:157] Top shape: 4 1024 19 19 (1478656)
I0601 17:39:54.305953  8165 net.cpp:165] Memory required for data: 908185632
I0601 17:39:54.305956  8165 layer_factory.hpp:77] Creating layer fc7_relu7_0_split
I0601 17:39:54.305966  8165 net.cpp:100] Creating Layer fc7_relu7_0_split
I0601 17:39:54.305971  8165 net.cpp:434] fc7_relu7_0_split <- fc7
I0601 17:39:54.305979  8165 net.cpp:408] fc7_relu7_0_split -> fc7_relu7_0_split_0
I0601 17:39:54.305987  8165 net.cpp:408] fc7_relu7_0_split -> fc7_relu7_0_split_1
I0601 17:39:54.306030  8165 net.cpp:408] fc7_relu7_0_split -> fc7_relu7_0_split_2
I0601 17:39:54.306051  8165 net.cpp:408] fc7_relu7_0_split -> fc7_relu7_0_split_3
I0601 17:39:54.306174  8165 net.cpp:150] Setting up fc7_relu7_0_split
I0601 17:39:54.306181  8165 net.cpp:157] Top shape: 4 1024 19 19 (1478656)
I0601 17:39:54.306186  8165 net.cpp:157] Top shape: 4 1024 19 19 (1478656)
I0601 17:39:54.306192  8165 net.cpp:157] Top shape: 4 1024 19 19 (1478656)
I0601 17:39:54.306197  8165 net.cpp:157] Top shape: 4 1024 19 19 (1478656)
I0601 17:39:54.306201  8165 net.cpp:165] Memory required for data: 931844128
I0601 17:39:54.306205  8165 layer_factory.hpp:77] Creating layer conv6_1
I0601 17:39:54.306233  8165 net.cpp:100] Creating Layer conv6_1
I0601 17:39:54.306238  8165 net.cpp:434] conv6_1 <- fc7_relu7_0_split_0
I0601 17:39:54.306246  8165 net.cpp:408] conv6_1 -> conv6_1
I0601 17:39:54.310058  8165 net.cpp:150] Setting up conv6_1
I0601 17:39:54.310072  8165 net.cpp:157] Top shape: 4 256 19 19 (369664)
I0601 17:39:54.310075  8165 net.cpp:165] Memory required for data: 933322784
I0601 17:39:54.310083  8165 layer_factory.hpp:77] Creating layer conv6_1_relu
I0601 17:39:54.310091  8165 net.cpp:100] Creating Layer conv6_1_relu
I0601 17:39:54.310098  8165 net.cpp:434] conv6_1_relu <- conv6_1
I0601 17:39:54.310106  8165 net.cpp:395] conv6_1_relu -> conv6_1 (in-place)
I0601 17:39:54.310245  8165 net.cpp:150] Setting up conv6_1_relu
I0601 17:39:54.310252  8165 net.cpp:157] Top shape: 4 256 19 19 (369664)
I0601 17:39:54.310256  8165 net.cpp:165] Memory required for data: 934801440
I0601 17:39:54.310261  8165 layer_factory.hpp:77] Creating layer conv6_2
I0601 17:39:54.310271  8165 net.cpp:100] Creating Layer conv6_2
I0601 17:39:54.310276  8165 net.cpp:434] conv6_2 <- conv6_1
I0601 17:39:54.310284  8165 net.cpp:408] conv6_2 -> conv6_2
I0601 17:39:54.317380  8165 net.cpp:150] Setting up conv6_2
I0601 17:39:54.317399  8165 net.cpp:157] Top shape: 4 512 10 10 (204800)
I0601 17:39:54.317404  8165 net.cpp:165] Memory required for data: 935620640
I0601 17:39:54.317417  8165 layer_factory.hpp:77] Creating layer conv6_2_relu
I0601 17:39:54.317442  8165 net.cpp:100] Creating Layer conv6_2_relu
I0601 17:39:54.317448  8165 net.cpp:434] conv6_2_relu <- conv6_2
I0601 17:39:54.317456  8165 net.cpp:395] conv6_2_relu -> conv6_2 (in-place)
I0601 17:39:54.317625  8165 net.cpp:150] Setting up conv6_2_relu
I0601 17:39:54.317631  8165 net.cpp:157] Top shape: 4 512 10 10 (204800)
I0601 17:39:54.317651  8165 net.cpp:165] Memory required for data: 936439840
I0601 17:39:54.317653  8165 layer_factory.hpp:77] Creating layer conv6_2_conv6_2_relu_0_split
I0601 17:39:54.317675  8165 net.cpp:100] Creating Layer conv6_2_conv6_2_relu_0_split
I0601 17:39:54.317715  8165 net.cpp:434] conv6_2_conv6_2_relu_0_split <- conv6_2
I0601 17:39:54.317737  8165 net.cpp:408] conv6_2_conv6_2_relu_0_split -> conv6_2_conv6_2_relu_0_split_0
I0601 17:39:54.317760  8165 net.cpp:408] conv6_2_conv6_2_relu_0_split -> conv6_2_conv6_2_relu_0_split_1
I0601 17:39:54.317769  8165 net.cpp:408] conv6_2_conv6_2_relu_0_split -> conv6_2_conv6_2_relu_0_split_2
I0601 17:39:54.317790  8165 net.cpp:408] conv6_2_conv6_2_relu_0_split -> conv6_2_conv6_2_relu_0_split_3
I0601 17:39:54.317898  8165 net.cpp:150] Setting up conv6_2_conv6_2_relu_0_split
I0601 17:39:54.317905  8165 net.cpp:157] Top shape: 4 512 10 10 (204800)
I0601 17:39:54.317910  8165 net.cpp:157] Top shape: 4 512 10 10 (204800)
I0601 17:39:54.317915  8165 net.cpp:157] Top shape: 4 512 10 10 (204800)
I0601 17:39:54.317934  8165 net.cpp:157] Top shape: 4 512 10 10 (204800)
I0601 17:39:54.317936  8165 net.cpp:165] Memory required for data: 939716640
I0601 17:39:54.317956  8165 layer_factory.hpp:77] Creating layer conv7_1
I0601 17:39:54.317967  8165 net.cpp:100] Creating Layer conv7_1
I0601 17:39:54.317971  8165 net.cpp:434] conv7_1 <- conv6_2_conv6_2_relu_0_split_0
I0601 17:39:54.317993  8165 net.cpp:408] conv7_1 -> conv7_1
I0601 17:39:54.319643  8165 net.cpp:150] Setting up conv7_1
I0601 17:39:54.319653  8165 net.cpp:157] Top shape: 4 128 10 10 (51200)
I0601 17:39:54.319658  8165 net.cpp:165] Memory required for data: 939921440
I0601 17:39:54.319664  8165 layer_factory.hpp:77] Creating layer conv7_1_relu
I0601 17:39:54.319671  8165 net.cpp:100] Creating Layer conv7_1_relu
I0601 17:39:54.319676  8165 net.cpp:434] conv7_1_relu <- conv7_1
I0601 17:39:54.319684  8165 net.cpp:395] conv7_1_relu -> conv7_1 (in-place)
I0601 17:39:54.319819  8165 net.cpp:150] Setting up conv7_1_relu
I0601 17:39:54.319828  8165 net.cpp:157] Top shape: 4 128 10 10 (51200)
I0601 17:39:54.319830  8165 net.cpp:165] Memory required for data: 940126240
I0601 17:39:54.319834  8165 layer_factory.hpp:77] Creating layer conv7_2
I0601 17:39:54.319845  8165 net.cpp:100] Creating Layer conv7_2
I0601 17:39:54.319850  8165 net.cpp:434] conv7_2 <- conv7_1
I0601 17:39:54.319857  8165 net.cpp:408] conv7_2 -> conv7_2
I0601 17:39:54.322955  8165 net.cpp:150] Setting up conv7_2
I0601 17:39:54.322971  8165 net.cpp:157] Top shape: 4 256 5 5 (25600)
I0601 17:39:54.322976  8165 net.cpp:165] Memory required for data: 940228640
I0601 17:39:54.322983  8165 layer_factory.hpp:77] Creating layer conv7_2_relu
I0601 17:39:54.322991  8165 net.cpp:100] Creating Layer conv7_2_relu
I0601 17:39:54.322996  8165 net.cpp:434] conv7_2_relu <- conv7_2
I0601 17:39:54.323004  8165 net.cpp:395] conv7_2_relu -> conv7_2 (in-place)
I0601 17:39:54.323145  8165 net.cpp:150] Setting up conv7_2_relu
I0601 17:39:54.323153  8165 net.cpp:157] Top shape: 4 256 5 5 (25600)
I0601 17:39:54.323158  8165 net.cpp:165] Memory required for data: 940331040
I0601 17:39:54.323161  8165 layer_factory.hpp:77] Creating layer conv7_2_conv7_2_relu_0_split
I0601 17:39:54.323168  8165 net.cpp:100] Creating Layer conv7_2_conv7_2_relu_0_split
I0601 17:39:54.323173  8165 net.cpp:434] conv7_2_conv7_2_relu_0_split <- conv7_2
I0601 17:39:54.323180  8165 net.cpp:408] conv7_2_conv7_2_relu_0_split -> conv7_2_conv7_2_relu_0_split_0
I0601 17:39:54.323190  8165 net.cpp:408] conv7_2_conv7_2_relu_0_split -> conv7_2_conv7_2_relu_0_split_1
I0601 17:39:54.323200  8165 net.cpp:408] conv7_2_conv7_2_relu_0_split -> conv7_2_conv7_2_relu_0_split_2
I0601 17:39:54.323209  8165 net.cpp:408] conv7_2_conv7_2_relu_0_split -> conv7_2_conv7_2_relu_0_split_3
I0601 17:39:54.323277  8165 net.cpp:150] Setting up conv7_2_conv7_2_relu_0_split
I0601 17:39:54.323285  8165 net.cpp:157] Top shape: 4 256 5 5 (25600)
I0601 17:39:54.323289  8165 net.cpp:157] Top shape: 4 256 5 5 (25600)
I0601 17:39:54.323295  8165 net.cpp:157] Top shape: 4 256 5 5 (25600)
I0601 17:39:54.323300  8165 net.cpp:157] Top shape: 4 256 5 5 (25600)
I0601 17:39:54.323304  8165 net.cpp:165] Memory required for data: 940740640
I0601 17:39:54.323308  8165 layer_factory.hpp:77] Creating layer conv8_1
I0601 17:39:54.323328  8165 net.cpp:100] Creating Layer conv8_1
I0601 17:39:54.323333  8165 net.cpp:434] conv8_1 <- conv7_2_conv7_2_relu_0_split_0
I0601 17:39:54.323343  8165 net.cpp:408] conv8_1 -> conv8_1
I0601 17:39:54.324623  8165 net.cpp:150] Setting up conv8_1
I0601 17:39:54.324635  8165 net.cpp:157] Top shape: 4 128 5 5 (12800)
I0601 17:39:54.324640  8165 net.cpp:165] Memory required for data: 940791840
I0601 17:39:54.324647  8165 layer_factory.hpp:77] Creating layer conv8_1_relu
I0601 17:39:54.324653  8165 net.cpp:100] Creating Layer conv8_1_relu
I0601 17:39:54.324658  8165 net.cpp:434] conv8_1_relu <- conv8_1
I0601 17:39:54.324664  8165 net.cpp:395] conv8_1_relu -> conv8_1 (in-place)
I0601 17:39:54.325260  8165 net.cpp:150] Setting up conv8_1_relu
I0601 17:39:54.325269  8165 net.cpp:157] Top shape: 4 128 5 5 (12800)
I0601 17:39:54.325273  8165 net.cpp:165] Memory required for data: 940843040
I0601 17:39:54.325278  8165 layer_factory.hpp:77] Creating layer conv8_2
I0601 17:39:54.325289  8165 net.cpp:100] Creating Layer conv8_2
I0601 17:39:54.325294  8165 net.cpp:434] conv8_2 <- conv8_1
I0601 17:39:54.325301  8165 net.cpp:408] conv8_2 -> conv8_2
I0601 17:39:54.328577  8165 net.cpp:150] Setting up conv8_2
I0601 17:39:54.328598  8165 net.cpp:157] Top shape: 4 256 3 3 (9216)
I0601 17:39:54.328603  8165 net.cpp:165] Memory required for data: 940879904
I0601 17:39:54.328610  8165 layer_factory.hpp:77] Creating layer conv8_2_relu
I0601 17:39:54.328618  8165 net.cpp:100] Creating Layer conv8_2_relu
I0601 17:39:54.328624  8165 net.cpp:434] conv8_2_relu <- conv8_2
I0601 17:39:54.328629  8165 net.cpp:395] conv8_2_relu -> conv8_2 (in-place)
I0601 17:39:54.328810  8165 net.cpp:150] Setting up conv8_2_relu
I0601 17:39:54.328817  8165 net.cpp:157] Top shape: 4 256 3 3 (9216)
I0601 17:39:54.328819  8165 net.cpp:165] Memory required for data: 940916768
I0601 17:39:54.328821  8165 layer_factory.hpp:77] Creating layer conv8_2_conv8_2_relu_0_split
I0601 17:39:54.328825  8165 net.cpp:100] Creating Layer conv8_2_conv8_2_relu_0_split
I0601 17:39:54.328827  8165 net.cpp:434] conv8_2_conv8_2_relu_0_split <- conv8_2
I0601 17:39:54.328847  8165 net.cpp:408] conv8_2_conv8_2_relu_0_split -> conv8_2_conv8_2_relu_0_split_0
I0601 17:39:54.328855  8165 net.cpp:408] conv8_2_conv8_2_relu_0_split -> conv8_2_conv8_2_relu_0_split_1
I0601 17:39:54.328858  8165 net.cpp:408] conv8_2_conv8_2_relu_0_split -> conv8_2_conv8_2_relu_0_split_2
I0601 17:39:54.328862  8165 net.cpp:408] conv8_2_conv8_2_relu_0_split -> conv8_2_conv8_2_relu_0_split_3
I0601 17:39:54.328969  8165 net.cpp:150] Setting up conv8_2_conv8_2_relu_0_split
I0601 17:39:54.328986  8165 net.cpp:157] Top shape: 4 256 3 3 (9216)
I0601 17:39:54.328989  8165 net.cpp:157] Top shape: 4 256 3 3 (9216)
I0601 17:39:54.328991  8165 net.cpp:157] Top shape: 4 256 3 3 (9216)
I0601 17:39:54.328994  8165 net.cpp:157] Top shape: 4 256 3 3 (9216)
I0601 17:39:54.328995  8165 net.cpp:165] Memory required for data: 941064224
I0601 17:39:54.328997  8165 layer_factory.hpp:77] Creating layer conv9_1
I0601 17:39:54.329020  8165 net.cpp:100] Creating Layer conv9_1
I0601 17:39:54.329037  8165 net.cpp:434] conv9_1 <- conv8_2_conv8_2_relu_0_split_0
I0601 17:39:54.329041  8165 net.cpp:408] conv9_1 -> conv9_1
I0601 17:39:54.330691  8165 net.cpp:150] Setting up conv9_1
I0601 17:39:54.330704  8165 net.cpp:157] Top shape: 4 128 3 3 (4608)
I0601 17:39:54.330708  8165 net.cpp:165] Memory required for data: 941082656
I0601 17:39:54.330713  8165 layer_factory.hpp:77] Creating layer conv9_1_relu
I0601 17:39:54.330718  8165 net.cpp:100] Creating Layer conv9_1_relu
I0601 17:39:54.330720  8165 net.cpp:434] conv9_1_relu <- conv9_1
I0601 17:39:54.330724  8165 net.cpp:395] conv9_1_relu -> conv9_1 (in-place)
I0601 17:39:54.330860  8165 net.cpp:150] Setting up conv9_1_relu
I0601 17:39:54.330868  8165 net.cpp:157] Top shape: 4 128 3 3 (4608)
I0601 17:39:54.330869  8165 net.cpp:165] Memory required for data: 941101088
I0601 17:39:54.330873  8165 layer_factory.hpp:77] Creating layer conv9_2
I0601 17:39:54.330890  8165 net.cpp:100] Creating Layer conv9_2
I0601 17:39:54.330893  8165 net.cpp:434] conv9_2 <- conv9_1
I0601 17:39:54.330899  8165 net.cpp:408] conv9_2 -> conv9_2
I0601 17:39:54.334070  8165 net.cpp:150] Setting up conv9_2
I0601 17:39:54.334081  8165 net.cpp:157] Top shape: 4 256 1 1 (1024)
I0601 17:39:54.334084  8165 net.cpp:165] Memory required for data: 941105184
I0601 17:39:54.334089  8165 layer_factory.hpp:77] Creating layer conv9_2_relu
I0601 17:39:54.334096  8165 net.cpp:100] Creating Layer conv9_2_relu
I0601 17:39:54.334100  8165 net.cpp:434] conv9_2_relu <- conv9_2
I0601 17:39:54.334103  8165 net.cpp:395] conv9_2_relu -> conv9_2 (in-place)
I0601 17:39:54.334249  8165 net.cpp:150] Setting up conv9_2_relu
I0601 17:39:54.334256  8165 net.cpp:157] Top shape: 4 256 1 1 (1024)
I0601 17:39:54.334259  8165 net.cpp:165] Memory required for data: 941109280
I0601 17:39:54.334260  8165 layer_factory.hpp:77] Creating layer conv9_2_conv9_2_relu_0_split
I0601 17:39:54.334278  8165 net.cpp:100] Creating Layer conv9_2_conv9_2_relu_0_split
I0601 17:39:54.334281  8165 net.cpp:434] conv9_2_conv9_2_relu_0_split <- conv9_2
I0601 17:39:54.334285  8165 net.cpp:408] conv9_2_conv9_2_relu_0_split -> conv9_2_conv9_2_relu_0_split_0
I0601 17:39:54.334291  8165 net.cpp:408] conv9_2_conv9_2_relu_0_split -> conv9_2_conv9_2_relu_0_split_1
I0601 17:39:54.334295  8165 net.cpp:408] conv9_2_conv9_2_relu_0_split -> conv9_2_conv9_2_relu_0_split_2
I0601 17:39:54.334357  8165 net.cpp:150] Setting up conv9_2_conv9_2_relu_0_split
I0601 17:39:54.334363  8165 net.cpp:157] Top shape: 4 256 1 1 (1024)
I0601 17:39:54.334365  8165 net.cpp:157] Top shape: 4 256 1 1 (1024)
I0601 17:39:54.334368  8165 net.cpp:157] Top shape: 4 256 1 1 (1024)
I0601 17:39:54.334370  8165 net.cpp:165] Memory required for data: 941121568
I0601 17:39:54.334385  8165 layer_factory.hpp:77] Creating layer conv4_3_norm
I0601 17:39:54.334390  8165 net.cpp:100] Creating Layer conv4_3_norm
I0601 17:39:54.334393  8165 net.cpp:434] conv4_3_norm <- conv4_3_relu4_3_0_split_1
I0601 17:39:54.334411  8165 net.cpp:408] conv4_3_norm -> conv4_3_norm
I0601 17:39:54.334586  8165 net.cpp:150] Setting up conv4_3_norm
I0601 17:39:54.334591  8165 net.cpp:157] Top shape: 4 512 38 38 (2957312)
I0601 17:39:54.334594  8165 net.cpp:165] Memory required for data: 952950816
I0601 17:39:54.334610  8165 layer_factory.hpp:77] Creating layer conv4_3_norm_conv4_3_norm_0_split
I0601 17:39:54.334614  8165 net.cpp:100] Creating Layer conv4_3_norm_conv4_3_norm_0_split
I0601 17:39:54.334616  8165 net.cpp:434] conv4_3_norm_conv4_3_norm_0_split <- conv4_3_norm
I0601 17:39:54.334620  8165 net.cpp:408] conv4_3_norm_conv4_3_norm_0_split -> conv4_3_norm_conv4_3_norm_0_split_0
I0601 17:39:54.334625  8165 net.cpp:408] conv4_3_norm_conv4_3_norm_0_split -> conv4_3_norm_conv4_3_norm_0_split_1
I0601 17:39:54.334630  8165 net.cpp:408] conv4_3_norm_conv4_3_norm_0_split -> conv4_3_norm_conv4_3_norm_0_split_2
I0601 17:39:54.334672  8165 net.cpp:150] Setting up conv4_3_norm_conv4_3_norm_0_split
I0601 17:39:54.334676  8165 net.cpp:157] Top shape: 4 512 38 38 (2957312)
I0601 17:39:54.334681  8165 net.cpp:157] Top shape: 4 512 38 38 (2957312)
I0601 17:39:54.334682  8165 net.cpp:157] Top shape: 4 512 38 38 (2957312)
I0601 17:39:54.334684  8165 net.cpp:165] Memory required for data: 988438560
I0601 17:39:54.334686  8165 layer_factory.hpp:77] Creating layer conv4_3_norm_mbox_loc
I0601 17:39:54.334694  8165 net.cpp:100] Creating Layer conv4_3_norm_mbox_loc
I0601 17:39:54.334698  8165 net.cpp:434] conv4_3_norm_mbox_loc <- conv4_3_norm_conv4_3_norm_0_split_0
I0601 17:39:54.334702  8165 net.cpp:408] conv4_3_norm_mbox_loc -> conv4_3_norm_mbox_loc
I0601 17:39:54.336586  8165 net.cpp:150] Setting up conv4_3_norm_mbox_loc
I0601 17:39:54.336596  8165 net.cpp:157] Top shape: 4 16 38 38 (92416)
I0601 17:39:54.336599  8165 net.cpp:165] Memory required for data: 988808224
I0601 17:39:54.336604  8165 layer_factory.hpp:77] Creating layer conv4_3_norm_mbox_loc_perm
I0601 17:39:54.336611  8165 net.cpp:100] Creating Layer conv4_3_norm_mbox_loc_perm
I0601 17:39:54.336623  8165 net.cpp:434] conv4_3_norm_mbox_loc_perm <- conv4_3_norm_mbox_loc
I0601 17:39:54.336628  8165 net.cpp:408] conv4_3_norm_mbox_loc_perm -> conv4_3_norm_mbox_loc_perm
I0601 17:39:54.336730  8165 net.cpp:150] Setting up conv4_3_norm_mbox_loc_perm
I0601 17:39:54.336735  8165 net.cpp:157] Top shape: 4 38 38 16 (92416)
I0601 17:39:54.336737  8165 net.cpp:165] Memory required for data: 989177888
I0601 17:39:54.336740  8165 layer_factory.hpp:77] Creating layer conv4_3_norm_mbox_loc_flat
I0601 17:39:54.336743  8165 net.cpp:100] Creating Layer conv4_3_norm_mbox_loc_flat
I0601 17:39:54.336745  8165 net.cpp:434] conv4_3_norm_mbox_loc_flat <- conv4_3_norm_mbox_loc_perm
I0601 17:39:54.336750  8165 net.cpp:408] conv4_3_norm_mbox_loc_flat -> conv4_3_norm_mbox_loc_flat
I0601 17:39:54.336779  8165 net.cpp:150] Setting up conv4_3_norm_mbox_loc_flat
I0601 17:39:54.336784  8165 net.cpp:157] Top shape: 4 23104 (92416)
I0601 17:39:54.336800  8165 net.cpp:165] Memory required for data: 989547552
I0601 17:39:54.336803  8165 layer_factory.hpp:77] Creating layer conv4_3_norm_mbox_conf
I0601 17:39:54.336817  8165 net.cpp:100] Creating Layer conv4_3_norm_mbox_conf
I0601 17:39:54.336819  8165 net.cpp:434] conv4_3_norm_mbox_conf <- conv4_3_norm_conv4_3_norm_0_split_1
I0601 17:39:54.336823  8165 net.cpp:408] conv4_3_norm_mbox_conf -> conv4_3_norm_mbox_conf
I0601 17:39:54.338883  8165 net.cpp:150] Setting up conv4_3_norm_mbox_conf
I0601 17:39:54.338892  8165 net.cpp:157] Top shape: 4 16 38 38 (92416)
I0601 17:39:54.338894  8165 net.cpp:165] Memory required for data: 989917216
I0601 17:39:54.338899  8165 layer_factory.hpp:77] Creating layer conv4_3_norm_mbox_conf_perm
I0601 17:39:54.338906  8165 net.cpp:100] Creating Layer conv4_3_norm_mbox_conf_perm
I0601 17:39:54.338908  8165 net.cpp:434] conv4_3_norm_mbox_conf_perm <- conv4_3_norm_mbox_conf
I0601 17:39:54.338912  8165 net.cpp:408] conv4_3_norm_mbox_conf_perm -> conv4_3_norm_mbox_conf_perm
I0601 17:39:54.339011  8165 net.cpp:150] Setting up conv4_3_norm_mbox_conf_perm
I0601 17:39:54.339017  8165 net.cpp:157] Top shape: 4 38 38 16 (92416)
I0601 17:39:54.339020  8165 net.cpp:165] Memory required for data: 990286880
I0601 17:39:54.339021  8165 layer_factory.hpp:77] Creating layer conv4_3_norm_mbox_conf_flat
I0601 17:39:54.339025  8165 net.cpp:100] Creating Layer conv4_3_norm_mbox_conf_flat
I0601 17:39:54.339028  8165 net.cpp:434] conv4_3_norm_mbox_conf_flat <- conv4_3_norm_mbox_conf_perm
I0601 17:39:54.339032  8165 net.cpp:408] conv4_3_norm_mbox_conf_flat -> conv4_3_norm_mbox_conf_flat
I0601 17:39:54.339052  8165 net.cpp:150] Setting up conv4_3_norm_mbox_conf_flat
I0601 17:39:54.339057  8165 net.cpp:157] Top shape: 4 23104 (92416)
I0601 17:39:54.339059  8165 net.cpp:165] Memory required for data: 990656544
I0601 17:39:54.339062  8165 layer_factory.hpp:77] Creating layer conv4_3_norm_mbox_priorbox
I0601 17:39:54.339066  8165 net.cpp:100] Creating Layer conv4_3_norm_mbox_priorbox
I0601 17:39:54.339071  8165 net.cpp:434] conv4_3_norm_mbox_priorbox <- conv4_3_norm_conv4_3_norm_0_split_2
I0601 17:39:54.339074  8165 net.cpp:434] conv4_3_norm_mbox_priorbox <- data_data_0_split_1
I0601 17:39:54.339078  8165 net.cpp:408] conv4_3_norm_mbox_priorbox -> conv4_3_norm_mbox_priorbox
I0601 17:39:54.339102  8165 net.cpp:150] Setting up conv4_3_norm_mbox_priorbox
I0601 17:39:54.339107  8165 net.cpp:157] Top shape: 1 2 23104 (46208)
I0601 17:39:54.339109  8165 net.cpp:165] Memory required for data: 990841376
I0601 17:39:54.339112  8165 layer_factory.hpp:77] Creating layer fc7_mbox_loc
I0601 17:39:54.339118  8165 net.cpp:100] Creating Layer fc7_mbox_loc
I0601 17:39:54.339121  8165 net.cpp:434] fc7_mbox_loc <- fc7_relu7_0_split_1
I0601 17:39:54.339126  8165 net.cpp:408] fc7_mbox_loc -> fc7_mbox_loc
I0601 17:39:54.341622  8165 net.cpp:150] Setting up fc7_mbox_loc
I0601 17:39:54.341632  8165 net.cpp:157] Top shape: 4 24 19 19 (34656)
I0601 17:39:54.341634  8165 net.cpp:165] Memory required for data: 990980000
I0601 17:39:54.341639  8165 layer_factory.hpp:77] Creating layer fc7_mbox_loc_perm
I0601 17:39:54.341645  8165 net.cpp:100] Creating Layer fc7_mbox_loc_perm
I0601 17:39:54.341656  8165 net.cpp:434] fc7_mbox_loc_perm <- fc7_mbox_loc
I0601 17:39:54.341662  8165 net.cpp:408] fc7_mbox_loc_perm -> fc7_mbox_loc_perm
I0601 17:39:54.341763  8165 net.cpp:150] Setting up fc7_mbox_loc_perm
I0601 17:39:54.341768  8165 net.cpp:157] Top shape: 4 19 19 24 (34656)
I0601 17:39:54.341769  8165 net.cpp:165] Memory required for data: 991118624
I0601 17:39:54.341771  8165 layer_factory.hpp:77] Creating layer fc7_mbox_loc_flat
I0601 17:39:54.341778  8165 net.cpp:100] Creating Layer fc7_mbox_loc_flat
I0601 17:39:54.341780  8165 net.cpp:434] fc7_mbox_loc_flat <- fc7_mbox_loc_perm
I0601 17:39:54.341784  8165 net.cpp:408] fc7_mbox_loc_flat -> fc7_mbox_loc_flat
I0601 17:39:54.341804  8165 net.cpp:150] Setting up fc7_mbox_loc_flat
I0601 17:39:54.341809  8165 net.cpp:157] Top shape: 4 8664 (34656)
I0601 17:39:54.341810  8165 net.cpp:165] Memory required for data: 991257248
I0601 17:39:54.341812  8165 layer_factory.hpp:77] Creating layer fc7_mbox_conf
I0601 17:39:54.341820  8165 net.cpp:100] Creating Layer fc7_mbox_conf
I0601 17:39:54.341822  8165 net.cpp:434] fc7_mbox_conf <- fc7_relu7_0_split_2
I0601 17:39:54.341827  8165 net.cpp:408] fc7_mbox_conf -> fc7_mbox_conf
I0601 17:39:54.344378  8165 net.cpp:150] Setting up fc7_mbox_conf
I0601 17:39:54.344388  8165 net.cpp:157] Top shape: 4 24 19 19 (34656)
I0601 17:39:54.344391  8165 net.cpp:165] Memory required for data: 991395872
I0601 17:39:54.344396  8165 layer_factory.hpp:77] Creating layer fc7_mbox_conf_perm
I0601 17:39:54.344401  8165 net.cpp:100] Creating Layer fc7_mbox_conf_perm
I0601 17:39:54.344404  8165 net.cpp:434] fc7_mbox_conf_perm <- fc7_mbox_conf
I0601 17:39:54.344409  8165 net.cpp:408] fc7_mbox_conf_perm -> fc7_mbox_conf_perm
I0601 17:39:54.344535  8165 net.cpp:150] Setting up fc7_mbox_conf_perm
I0601 17:39:54.344542  8165 net.cpp:157] Top shape: 4 19 19 24 (34656)
I0601 17:39:54.344543  8165 net.cpp:165] Memory required for data: 991534496
I0601 17:39:54.344547  8165 layer_factory.hpp:77] Creating layer fc7_mbox_conf_flat
I0601 17:39:54.344549  8165 net.cpp:100] Creating Layer fc7_mbox_conf_flat
I0601 17:39:54.344552  8165 net.cpp:434] fc7_mbox_conf_flat <- fc7_mbox_conf_perm
I0601 17:39:54.344558  8165 net.cpp:408] fc7_mbox_conf_flat -> fc7_mbox_conf_flat
I0601 17:39:54.344579  8165 net.cpp:150] Setting up fc7_mbox_conf_flat
I0601 17:39:54.344584  8165 net.cpp:157] Top shape: 4 8664 (34656)
I0601 17:39:54.344586  8165 net.cpp:165] Memory required for data: 991673120
I0601 17:39:54.344588  8165 layer_factory.hpp:77] Creating layer fc7_mbox_priorbox
I0601 17:39:54.344593  8165 net.cpp:100] Creating Layer fc7_mbox_priorbox
I0601 17:39:54.344595  8165 net.cpp:434] fc7_mbox_priorbox <- fc7_relu7_0_split_3
I0601 17:39:54.344599  8165 net.cpp:434] fc7_mbox_priorbox <- data_data_0_split_2
I0601 17:39:54.344604  8165 net.cpp:408] fc7_mbox_priorbox -> fc7_mbox_priorbox
I0601 17:39:54.344643  8165 net.cpp:150] Setting up fc7_mbox_priorbox
I0601 17:39:54.344648  8165 net.cpp:157] Top shape: 1 2 8664 (17328)
I0601 17:39:54.344650  8165 net.cpp:165] Memory required for data: 991742432
I0601 17:39:54.344652  8165 layer_factory.hpp:77] Creating layer conv6_2_mbox_loc
I0601 17:39:54.344660  8165 net.cpp:100] Creating Layer conv6_2_mbox_loc
I0601 17:39:54.344677  8165 net.cpp:434] conv6_2_mbox_loc <- conv6_2_conv6_2_relu_0_split_1
I0601 17:39:54.344682  8165 net.cpp:408] conv6_2_mbox_loc -> conv6_2_mbox_loc
I0601 17:39:54.349901  8165 net.cpp:150] Setting up conv6_2_mbox_loc
I0601 17:39:54.349911  8165 net.cpp:157] Top shape: 4 24 10 10 (9600)
I0601 17:39:54.349913  8165 net.cpp:165] Memory required for data: 991780832
I0601 17:39:54.349918  8165 layer_factory.hpp:77] Creating layer conv6_2_mbox_loc_perm
I0601 17:39:54.349923  8165 net.cpp:100] Creating Layer conv6_2_mbox_loc_perm
I0601 17:39:54.349926  8165 net.cpp:434] conv6_2_mbox_loc_perm <- conv6_2_mbox_loc
I0601 17:39:54.349931  8165 net.cpp:408] conv6_2_mbox_loc_perm -> conv6_2_mbox_loc_perm
I0601 17:39:54.350086  8165 net.cpp:150] Setting up conv6_2_mbox_loc_perm
I0601 17:39:54.350100  8165 net.cpp:157] Top shape: 4 10 10 24 (9600)
I0601 17:39:54.350102  8165 net.cpp:165] Memory required for data: 991819232
I0601 17:39:54.350105  8165 layer_factory.hpp:77] Creating layer conv6_2_mbox_loc_flat
I0601 17:39:54.350108  8165 net.cpp:100] Creating Layer conv6_2_mbox_loc_flat
I0601 17:39:54.350111  8165 net.cpp:434] conv6_2_mbox_loc_flat <- conv6_2_mbox_loc_perm
I0601 17:39:54.350131  8165 net.cpp:408] conv6_2_mbox_loc_flat -> conv6_2_mbox_loc_flat
I0601 17:39:54.350165  8165 net.cpp:150] Setting up conv6_2_mbox_loc_flat
I0601 17:39:54.350183  8165 net.cpp:157] Top shape: 4 2400 (9600)
I0601 17:39:54.350184  8165 net.cpp:165] Memory required for data: 991857632
I0601 17:39:54.350188  8165 layer_factory.hpp:77] Creating layer conv6_2_mbox_conf
I0601 17:39:54.350208  8165 net.cpp:100] Creating Layer conv6_2_mbox_conf
I0601 17:39:54.350209  8165 net.cpp:434] conv6_2_mbox_conf <- conv6_2_conv6_2_relu_0_split_2
I0601 17:39:54.350214  8165 net.cpp:408] conv6_2_mbox_conf -> conv6_2_mbox_conf
I0601 17:39:54.356287  8165 net.cpp:150] Setting up conv6_2_mbox_conf
I0601 17:39:54.356297  8165 net.cpp:157] Top shape: 4 24 10 10 (9600)
I0601 17:39:54.356298  8165 net.cpp:165] Memory required for data: 991896032
I0601 17:39:54.356303  8165 layer_factory.hpp:77] Creating layer conv6_2_mbox_conf_perm
I0601 17:39:54.356314  8165 net.cpp:100] Creating Layer conv6_2_mbox_conf_perm
I0601 17:39:54.356318  8165 net.cpp:434] conv6_2_mbox_conf_perm <- conv6_2_mbox_conf
I0601 17:39:54.356323  8165 net.cpp:408] conv6_2_mbox_conf_perm -> conv6_2_mbox_conf_perm
I0601 17:39:54.356451  8165 net.cpp:150] Setting up conv6_2_mbox_conf_perm
I0601 17:39:54.356456  8165 net.cpp:157] Top shape: 4 10 10 24 (9600)
I0601 17:39:54.356458  8165 net.cpp:165] Memory required for data: 991934432
I0601 17:39:54.356461  8165 layer_factory.hpp:77] Creating layer conv6_2_mbox_conf_flat
I0601 17:39:54.356464  8165 net.cpp:100] Creating Layer conv6_2_mbox_conf_flat
I0601 17:39:54.356467  8165 net.cpp:434] conv6_2_mbox_conf_flat <- conv6_2_mbox_conf_perm
I0601 17:39:54.356472  8165 net.cpp:408] conv6_2_mbox_conf_flat -> conv6_2_mbox_conf_flat
I0601 17:39:54.356508  8165 net.cpp:150] Setting up conv6_2_mbox_conf_flat
I0601 17:39:54.356513  8165 net.cpp:157] Top shape: 4 2400 (9600)
I0601 17:39:54.356514  8165 net.cpp:165] Memory required for data: 991972832
I0601 17:39:54.356516  8165 layer_factory.hpp:77] Creating layer conv6_2_mbox_priorbox
I0601 17:39:54.356520  8165 net.cpp:100] Creating Layer conv6_2_mbox_priorbox
I0601 17:39:54.356523  8165 net.cpp:434] conv6_2_mbox_priorbox <- conv6_2_conv6_2_relu_0_split_3
I0601 17:39:54.356526  8165 net.cpp:434] conv6_2_mbox_priorbox <- data_data_0_split_3
I0601 17:39:54.356531  8165 net.cpp:408] conv6_2_mbox_priorbox -> conv6_2_mbox_priorbox
I0601 17:39:54.356568  8165 net.cpp:150] Setting up conv6_2_mbox_priorbox
I0601 17:39:54.356573  8165 net.cpp:157] Top shape: 1 2 2400 (4800)
I0601 17:39:54.356575  8165 net.cpp:165] Memory required for data: 991992032
I0601 17:39:54.356577  8165 layer_factory.hpp:77] Creating layer conv7_2_mbox_loc
I0601 17:39:54.356585  8165 net.cpp:100] Creating Layer conv7_2_mbox_loc
I0601 17:39:54.356586  8165 net.cpp:434] conv7_2_mbox_loc <- conv7_2_conv7_2_relu_0_split_1
I0601 17:39:54.356591  8165 net.cpp:408] conv7_2_mbox_loc -> conv7_2_mbox_loc
I0601 17:39:54.368746  8165 net.cpp:150] Setting up conv7_2_mbox_loc
I0601 17:39:54.368759  8165 net.cpp:157] Top shape: 4 24 5 5 (2400)
I0601 17:39:54.368762  8165 net.cpp:165] Memory required for data: 992001632
I0601 17:39:54.368768  8165 layer_factory.hpp:77] Creating layer conv7_2_mbox_loc_perm
I0601 17:39:54.368791  8165 net.cpp:100] Creating Layer conv7_2_mbox_loc_perm
I0601 17:39:54.368795  8165 net.cpp:434] conv7_2_mbox_loc_perm <- conv7_2_mbox_loc
I0601 17:39:54.368800  8165 net.cpp:408] conv7_2_mbox_loc_perm -> conv7_2_mbox_loc_perm
I0601 17:39:54.369000  8165 net.cpp:150] Setting up conv7_2_mbox_loc_perm
I0601 17:39:54.369006  8165 net.cpp:157] Top shape: 4 5 5 24 (2400)
I0601 17:39:54.369007  8165 net.cpp:165] Memory required for data: 992011232
I0601 17:39:54.369035  8165 layer_factory.hpp:77] Creating layer conv7_2_mbox_loc_flat
I0601 17:39:54.369041  8165 net.cpp:100] Creating Layer conv7_2_mbox_loc_flat
I0601 17:39:54.369045  8165 net.cpp:434] conv7_2_mbox_loc_flat <- conv7_2_mbox_loc_perm
I0601 17:39:54.369065  8165 net.cpp:408] conv7_2_mbox_loc_flat -> conv7_2_mbox_loc_flat
I0601 17:39:54.369104  8165 net.cpp:150] Setting up conv7_2_mbox_loc_flat
I0601 17:39:54.369110  8165 net.cpp:157] Top shape: 4 600 (2400)
I0601 17:39:54.369112  8165 net.cpp:165] Memory required for data: 992020832
I0601 17:39:54.369114  8165 layer_factory.hpp:77] Creating layer conv7_2_mbox_conf
I0601 17:39:54.369137  8165 net.cpp:100] Creating Layer conv7_2_mbox_conf
I0601 17:39:54.369140  8165 net.cpp:434] conv7_2_mbox_conf <- conv7_2_conv7_2_relu_0_split_2
I0601 17:39:54.369158  8165 net.cpp:408] conv7_2_mbox_conf -> conv7_2_mbox_conf
I0601 17:39:54.371279  8165 net.cpp:150] Setting up conv7_2_mbox_conf
I0601 17:39:54.371290  8165 net.cpp:157] Top shape: 4 24 5 5 (2400)
I0601 17:39:54.371294  8165 net.cpp:165] Memory required for data: 992030432
I0601 17:39:54.371299  8165 layer_factory.hpp:77] Creating layer conv7_2_mbox_conf_perm
I0601 17:39:54.371305  8165 net.cpp:100] Creating Layer conv7_2_mbox_conf_perm
I0601 17:39:54.371309  8165 net.cpp:434] conv7_2_mbox_conf_perm <- conv7_2_mbox_conf
I0601 17:39:54.371315  8165 net.cpp:408] conv7_2_mbox_conf_perm -> conv7_2_mbox_conf_perm
I0601 17:39:54.371421  8165 net.cpp:150] Setting up conv7_2_mbox_conf_perm
I0601 17:39:54.371428  8165 net.cpp:157] Top shape: 4 5 5 24 (2400)
I0601 17:39:54.371429  8165 net.cpp:165] Memory required for data: 992040032
I0601 17:39:54.371433  8165 layer_factory.hpp:77] Creating layer conv7_2_mbox_conf_flat
I0601 17:39:54.371435  8165 net.cpp:100] Creating Layer conv7_2_mbox_conf_flat
I0601 17:39:54.371438  8165 net.cpp:434] conv7_2_mbox_conf_flat <- conv7_2_mbox_conf_perm
I0601 17:39:54.371443  8165 net.cpp:408] conv7_2_mbox_conf_flat -> conv7_2_mbox_conf_flat
I0601 17:39:54.371464  8165 net.cpp:150] Setting up conv7_2_mbox_conf_flat
I0601 17:39:54.371469  8165 net.cpp:157] Top shape: 4 600 (2400)
I0601 17:39:54.371472  8165 net.cpp:165] Memory required for data: 992049632
I0601 17:39:54.371474  8165 layer_factory.hpp:77] Creating layer conv7_2_mbox_priorbox
I0601 17:39:54.371479  8165 net.cpp:100] Creating Layer conv7_2_mbox_priorbox
I0601 17:39:54.371481  8165 net.cpp:434] conv7_2_mbox_priorbox <- conv7_2_conv7_2_relu_0_split_3
I0601 17:39:54.371485  8165 net.cpp:434] conv7_2_mbox_priorbox <- data_data_0_split_4
I0601 17:39:54.371490  8165 net.cpp:408] conv7_2_mbox_priorbox -> conv7_2_mbox_priorbox
I0601 17:39:54.371515  8165 net.cpp:150] Setting up conv7_2_mbox_priorbox
I0601 17:39:54.371520  8165 net.cpp:157] Top shape: 1 2 600 (1200)
I0601 17:39:54.371522  8165 net.cpp:165] Memory required for data: 992054432
I0601 17:39:54.371525  8165 layer_factory.hpp:77] Creating layer conv8_2_mbox_loc
I0601 17:39:54.371533  8165 net.cpp:100] Creating Layer conv8_2_mbox_loc
I0601 17:39:54.371537  8165 net.cpp:434] conv8_2_mbox_loc <- conv8_2_conv8_2_relu_0_split_1
I0601 17:39:54.371541  8165 net.cpp:408] conv8_2_mbox_loc -> conv8_2_mbox_loc
I0601 17:39:54.373320  8165 net.cpp:150] Setting up conv8_2_mbox_loc
I0601 17:39:54.373330  8165 net.cpp:157] Top shape: 4 16 3 3 (576)
I0601 17:39:54.373332  8165 net.cpp:165] Memory required for data: 992056736
I0601 17:39:54.373345  8165 layer_factory.hpp:77] Creating layer conv8_2_mbox_loc_perm
I0601 17:39:54.373352  8165 net.cpp:100] Creating Layer conv8_2_mbox_loc_perm
I0601 17:39:54.373356  8165 net.cpp:434] conv8_2_mbox_loc_perm <- conv8_2_mbox_loc
I0601 17:39:54.373360  8165 net.cpp:408] conv8_2_mbox_loc_perm -> conv8_2_mbox_loc_perm
I0601 17:39:54.373471  8165 net.cpp:150] Setting up conv8_2_mbox_loc_perm
I0601 17:39:54.373476  8165 net.cpp:157] Top shape: 4 3 3 16 (576)
I0601 17:39:54.373478  8165 net.cpp:165] Memory required for data: 992059040
I0601 17:39:54.373481  8165 layer_factory.hpp:77] Creating layer conv8_2_mbox_loc_flat
I0601 17:39:54.373494  8165 net.cpp:100] Creating Layer conv8_2_mbox_loc_flat
I0601 17:39:54.373498  8165 net.cpp:434] conv8_2_mbox_loc_flat <- conv8_2_mbox_loc_perm
I0601 17:39:54.373502  8165 net.cpp:408] conv8_2_mbox_loc_flat -> conv8_2_mbox_loc_flat
I0601 17:39:54.373524  8165 net.cpp:150] Setting up conv8_2_mbox_loc_flat
I0601 17:39:54.373528  8165 net.cpp:157] Top shape: 4 144 (576)
I0601 17:39:54.373530  8165 net.cpp:165] Memory required for data: 992061344
I0601 17:39:54.373533  8165 layer_factory.hpp:77] Creating layer conv8_2_mbox_conf
I0601 17:39:54.373539  8165 net.cpp:100] Creating Layer conv8_2_mbox_conf
I0601 17:39:54.373543  8165 net.cpp:434] conv8_2_mbox_conf <- conv8_2_conv8_2_relu_0_split_2
I0601 17:39:54.373548  8165 net.cpp:408] conv8_2_mbox_conf -> conv8_2_mbox_conf
I0601 17:39:54.375355  8165 net.cpp:150] Setting up conv8_2_mbox_conf
I0601 17:39:54.375365  8165 net.cpp:157] Top shape: 4 16 3 3 (576)
I0601 17:39:54.375367  8165 net.cpp:165] Memory required for data: 992063648
I0601 17:39:54.375372  8165 layer_factory.hpp:77] Creating layer conv8_2_mbox_conf_perm
I0601 17:39:54.375377  8165 net.cpp:100] Creating Layer conv8_2_mbox_conf_perm
I0601 17:39:54.375381  8165 net.cpp:434] conv8_2_mbox_conf_perm <- conv8_2_mbox_conf
I0601 17:39:54.375385  8165 net.cpp:408] conv8_2_mbox_conf_perm -> conv8_2_mbox_conf_perm
I0601 17:39:54.375496  8165 net.cpp:150] Setting up conv8_2_mbox_conf_perm
I0601 17:39:54.375504  8165 net.cpp:157] Top shape: 4 3 3 16 (576)
I0601 17:39:54.375504  8165 net.cpp:165] Memory required for data: 992065952
I0601 17:39:54.375507  8165 layer_factory.hpp:77] Creating layer conv8_2_mbox_conf_flat
I0601 17:39:54.375511  8165 net.cpp:100] Creating Layer conv8_2_mbox_conf_flat
I0601 17:39:54.375515  8165 net.cpp:434] conv8_2_mbox_conf_flat <- conv8_2_mbox_conf_perm
I0601 17:39:54.375520  8165 net.cpp:408] conv8_2_mbox_conf_flat -> conv8_2_mbox_conf_flat
I0601 17:39:54.375542  8165 net.cpp:150] Setting up conv8_2_mbox_conf_flat
I0601 17:39:54.375546  8165 net.cpp:157] Top shape: 4 144 (576)
I0601 17:39:54.375548  8165 net.cpp:165] Memory required for data: 992068256
I0601 17:39:54.375550  8165 layer_factory.hpp:77] Creating layer conv8_2_mbox_priorbox
I0601 17:39:54.375555  8165 net.cpp:100] Creating Layer conv8_2_mbox_priorbox
I0601 17:39:54.375560  8165 net.cpp:434] conv8_2_mbox_priorbox <- conv8_2_conv8_2_relu_0_split_3
I0601 17:39:54.375562  8165 net.cpp:434] conv8_2_mbox_priorbox <- data_data_0_split_5
I0601 17:39:54.375567  8165 net.cpp:408] conv8_2_mbox_priorbox -> conv8_2_mbox_priorbox
I0601 17:39:54.375589  8165 net.cpp:150] Setting up conv8_2_mbox_priorbox
I0601 17:39:54.375594  8165 net.cpp:157] Top shape: 1 2 144 (288)
I0601 17:39:54.375597  8165 net.cpp:165] Memory required for data: 992069408
I0601 17:39:54.375598  8165 layer_factory.hpp:77] Creating layer conv9_2_mbox_loc
I0601 17:39:54.375605  8165 net.cpp:100] Creating Layer conv9_2_mbox_loc
I0601 17:39:54.375609  8165 net.cpp:434] conv9_2_mbox_loc <- conv9_2_conv9_2_relu_0_split_0
I0601 17:39:54.375614  8165 net.cpp:408] conv9_2_mbox_loc -> conv9_2_mbox_loc
I0601 17:39:54.377838  8165 net.cpp:150] Setting up conv9_2_mbox_loc
I0601 17:39:54.377848  8165 net.cpp:157] Top shape: 4 16 1 1 (64)
I0601 17:39:54.377851  8165 net.cpp:165] Memory required for data: 992069664
I0601 17:39:54.377856  8165 layer_factory.hpp:77] Creating layer conv9_2_mbox_loc_perm
I0601 17:39:54.377861  8165 net.cpp:100] Creating Layer conv9_2_mbox_loc_perm
I0601 17:39:54.377866  8165 net.cpp:434] conv9_2_mbox_loc_perm <- conv9_2_mbox_loc
I0601 17:39:54.377871  8165 net.cpp:408] conv9_2_mbox_loc_perm -> conv9_2_mbox_loc_perm
I0601 17:39:54.377974  8165 net.cpp:150] Setting up conv9_2_mbox_loc_perm
I0601 17:39:54.377979  8165 net.cpp:157] Top shape: 4 1 1 16 (64)
I0601 17:39:54.377981  8165 net.cpp:165] Memory required for data: 992069920
I0601 17:39:54.377984  8165 layer_factory.hpp:77] Creating layer conv9_2_mbox_loc_flat
I0601 17:39:54.377987  8165 net.cpp:100] Creating Layer conv9_2_mbox_loc_flat
I0601 17:39:54.377990  8165 net.cpp:434] conv9_2_mbox_loc_flat <- conv9_2_mbox_loc_perm
I0601 17:39:54.378002  8165 net.cpp:408] conv9_2_mbox_loc_flat -> conv9_2_mbox_loc_flat
I0601 17:39:54.378026  8165 net.cpp:150] Setting up conv9_2_mbox_loc_flat
I0601 17:39:54.378031  8165 net.cpp:157] Top shape: 4 16 (64)
I0601 17:39:54.378032  8165 net.cpp:165] Memory required for data: 992070176
I0601 17:39:54.378034  8165 layer_factory.hpp:77] Creating layer conv9_2_mbox_conf
I0601 17:39:54.378041  8165 net.cpp:100] Creating Layer conv9_2_mbox_conf
I0601 17:39:54.378046  8165 net.cpp:434] conv9_2_mbox_conf <- conv9_2_conv9_2_relu_0_split_1
I0601 17:39:54.378051  8165 net.cpp:408] conv9_2_mbox_conf -> conv9_2_mbox_conf
I0601 17:39:54.379848  8165 net.cpp:150] Setting up conv9_2_mbox_conf
I0601 17:39:54.379858  8165 net.cpp:157] Top shape: 4 16 1 1 (64)
I0601 17:39:54.379860  8165 net.cpp:165] Memory required for data: 992070432
I0601 17:39:54.379865  8165 layer_factory.hpp:77] Creating layer conv9_2_mbox_conf_perm
I0601 17:39:54.379870  8165 net.cpp:100] Creating Layer conv9_2_mbox_conf_perm
I0601 17:39:54.379874  8165 net.cpp:434] conv9_2_mbox_conf_perm <- conv9_2_mbox_conf
I0601 17:39:54.379879  8165 net.cpp:408] conv9_2_mbox_conf_perm -> conv9_2_mbox_conf_perm
I0601 17:39:54.379986  8165 net.cpp:150] Setting up conv9_2_mbox_conf_perm
I0601 17:39:54.379990  8165 net.cpp:157] Top shape: 4 1 1 16 (64)
I0601 17:39:54.379992  8165 net.cpp:165] Memory required for data: 992070688
I0601 17:39:54.379994  8165 layer_factory.hpp:77] Creating layer conv9_2_mbox_conf_flat
I0601 17:39:54.379998  8165 net.cpp:100] Creating Layer conv9_2_mbox_conf_flat
I0601 17:39:54.380000  8165 net.cpp:434] conv9_2_mbox_conf_flat <- conv9_2_mbox_conf_perm
I0601 17:39:54.380005  8165 net.cpp:408] conv9_2_mbox_conf_flat -> conv9_2_mbox_conf_flat
I0601 17:39:54.380033  8165 net.cpp:150] Setting up conv9_2_mbox_conf_flat
I0601 17:39:54.380038  8165 net.cpp:157] Top shape: 4 16 (64)
I0601 17:39:54.380039  8165 net.cpp:165] Memory required for data: 992070944
I0601 17:39:54.380041  8165 layer_factory.hpp:77] Creating layer conv9_2_mbox_priorbox
I0601 17:39:54.380046  8165 net.cpp:100] Creating Layer conv9_2_mbox_priorbox
I0601 17:39:54.380049  8165 net.cpp:434] conv9_2_mbox_priorbox <- conv9_2_conv9_2_relu_0_split_2
I0601 17:39:54.380053  8165 net.cpp:434] conv9_2_mbox_priorbox <- data_data_0_split_6
I0601 17:39:54.380058  8165 net.cpp:408] conv9_2_mbox_priorbox -> conv9_2_mbox_priorbox
I0601 17:39:54.380084  8165 net.cpp:150] Setting up conv9_2_mbox_priorbox
I0601 17:39:54.380089  8165 net.cpp:157] Top shape: 1 2 16 (32)
I0601 17:39:54.380090  8165 net.cpp:165] Memory required for data: 992071072
I0601 17:39:54.380092  8165 layer_factory.hpp:77] Creating layer mbox_loc
I0601 17:39:54.380097  8165 net.cpp:100] Creating Layer mbox_loc
I0601 17:39:54.380101  8165 net.cpp:434] mbox_loc <- conv4_3_norm_mbox_loc_flat
I0601 17:39:54.380105  8165 net.cpp:434] mbox_loc <- fc7_mbox_loc_flat
I0601 17:39:54.380110  8165 net.cpp:434] mbox_loc <- conv6_2_mbox_loc_flat
I0601 17:39:54.380113  8165 net.cpp:434] mbox_loc <- conv7_2_mbox_loc_flat
I0601 17:39:54.380116  8165 net.cpp:434] mbox_loc <- conv8_2_mbox_loc_flat
I0601 17:39:54.380120  8165 net.cpp:434] mbox_loc <- conv9_2_mbox_loc_flat
I0601 17:39:54.380123  8165 net.cpp:408] mbox_loc -> mbox_loc
I0601 17:39:54.380147  8165 net.cpp:150] Setting up mbox_loc
I0601 17:39:54.380151  8165 net.cpp:157] Top shape: 4 34928 (139712)
I0601 17:39:54.380153  8165 net.cpp:165] Memory required for data: 992629920
I0601 17:39:54.380156  8165 layer_factory.hpp:77] Creating layer mbox_conf
I0601 17:39:54.380159  8165 net.cpp:100] Creating Layer mbox_conf
I0601 17:39:54.380162  8165 net.cpp:434] mbox_conf <- conv4_3_norm_mbox_conf_flat
I0601 17:39:54.380165  8165 net.cpp:434] mbox_conf <- fc7_mbox_conf_flat
I0601 17:39:54.380168  8165 net.cpp:434] mbox_conf <- conv6_2_mbox_conf_flat
I0601 17:39:54.380173  8165 net.cpp:434] mbox_conf <- conv7_2_mbox_conf_flat
I0601 17:39:54.380175  8165 net.cpp:434] mbox_conf <- conv8_2_mbox_conf_flat
I0601 17:39:54.380178  8165 net.cpp:434] mbox_conf <- conv9_2_mbox_conf_flat
I0601 17:39:54.380190  8165 net.cpp:408] mbox_conf -> mbox_conf
I0601 17:39:54.380215  8165 net.cpp:150] Setting up mbox_conf
I0601 17:39:54.380219  8165 net.cpp:157] Top shape: 4 34928 (139712)
I0601 17:39:54.380221  8165 net.cpp:165] Memory required for data: 993188768
I0601 17:39:54.380223  8165 layer_factory.hpp:77] Creating layer mbox_priorbox
I0601 17:39:54.380228  8165 net.cpp:100] Creating Layer mbox_priorbox
I0601 17:39:54.380229  8165 net.cpp:434] mbox_priorbox <- conv4_3_norm_mbox_priorbox
I0601 17:39:54.380233  8165 net.cpp:434] mbox_priorbox <- fc7_mbox_priorbox
I0601 17:39:54.380235  8165 net.cpp:434] mbox_priorbox <- conv6_2_mbox_priorbox
I0601 17:39:54.380239  8165 net.cpp:434] mbox_priorbox <- conv7_2_mbox_priorbox
I0601 17:39:54.380241  8165 net.cpp:434] mbox_priorbox <- conv8_2_mbox_priorbox
I0601 17:39:54.380244  8165 net.cpp:434] mbox_priorbox <- conv9_2_mbox_priorbox
I0601 17:39:54.380246  8165 net.cpp:408] mbox_priorbox -> mbox_priorbox
I0601 17:39:54.380269  8165 net.cpp:150] Setting up mbox_priorbox
I0601 17:39:54.380273  8165 net.cpp:157] Top shape: 1 2 34928 (69856)
I0601 17:39:54.380275  8165 net.cpp:165] Memory required for data: 993468192
I0601 17:39:54.380277  8165 layer_factory.hpp:77] Creating layer mbox_conf_reshape
I0601 17:39:54.380282  8165 net.cpp:100] Creating Layer mbox_conf_reshape
I0601 17:39:54.380285  8165 net.cpp:434] mbox_conf_reshape <- mbox_conf
I0601 17:39:54.380290  8165 net.cpp:408] mbox_conf_reshape -> mbox_conf_reshape
I0601 17:39:54.380317  8165 net.cpp:150] Setting up mbox_conf_reshape
I0601 17:39:54.380323  8165 net.cpp:157] Top shape: 4 8732 4 (139712)
I0601 17:39:54.380326  8165 net.cpp:165] Memory required for data: 994027040
I0601 17:39:54.380327  8165 layer_factory.hpp:77] Creating layer mbox_conf_softmax
I0601 17:39:54.380332  8165 net.cpp:100] Creating Layer mbox_conf_softmax
I0601 17:39:54.380336  8165 net.cpp:434] mbox_conf_softmax <- mbox_conf_reshape
I0601 17:39:54.380339  8165 net.cpp:408] mbox_conf_softmax -> mbox_conf_softmax
I0601 17:39:54.380540  8165 net.cpp:150] Setting up mbox_conf_softmax
I0601 17:39:54.380547  8165 net.cpp:157] Top shape: 4 8732 4 (139712)
I0601 17:39:54.380550  8165 net.cpp:165] Memory required for data: 994585888
I0601 17:39:54.380553  8165 layer_factory.hpp:77] Creating layer mbox_conf_flatten
I0601 17:39:54.380558  8165 net.cpp:100] Creating Layer mbox_conf_flatten
I0601 17:39:54.380559  8165 net.cpp:434] mbox_conf_flatten <- mbox_conf_softmax
I0601 17:39:54.380564  8165 net.cpp:408] mbox_conf_flatten -> mbox_conf_flatten
I0601 17:39:54.380586  8165 net.cpp:150] Setting up mbox_conf_flatten
I0601 17:39:54.380590  8165 net.cpp:157] Top shape: 4 34928 (139712)
I0601 17:39:54.380592  8165 net.cpp:165] Memory required for data: 995144736
I0601 17:39:54.380595  8165 layer_factory.hpp:77] Creating layer detection_out
I0601 17:39:54.380609  8165 net.cpp:100] Creating Layer detection_out
I0601 17:39:54.380614  8165 net.cpp:434] detection_out <- mbox_loc
I0601 17:39:54.380616  8165 net.cpp:434] detection_out <- mbox_conf_flatten
I0601 17:39:54.380620  8165 net.cpp:434] detection_out <- mbox_priorbox
I0601 17:39:54.380623  8165 net.cpp:408] detection_out -> detection_out
I0601 17:39:54.381777  8165 net.cpp:150] Setting up detection_out
I0601 17:39:54.381788  8165 net.cpp:157] Top shape: 1 1 1 7 (7)
I0601 17:39:54.381790  8165 net.cpp:165] Memory required for data: 995144764
I0601 17:39:54.381793  8165 layer_factory.hpp:77] Creating layer detection_eval
I0601 17:39:54.381798  8165 net.cpp:100] Creating Layer detection_eval
I0601 17:39:54.381801  8165 net.cpp:434] detection_eval <- detection_out
I0601 17:39:54.381806  8165 net.cpp:434] detection_eval <- label
I0601 17:39:54.381810  8165 net.cpp:408] detection_eval -> detection_eval
I0601 17:39:54.382534  8165 net.cpp:150] Setting up detection_eval
I0601 17:39:54.382539  8165 net.cpp:157] Top shape: 1 1 4 5 (20)
I0601 17:39:54.382542  8165 net.cpp:165] Memory required for data: 995144844
I0601 17:39:54.382544  8165 net.cpp:228] detection_eval does not need backward computation.
I0601 17:39:54.382555  8165 net.cpp:228] detection_out does not need backward computation.
I0601 17:39:54.382560  8165 net.cpp:228] mbox_conf_flatten does not need backward computation.
I0601 17:39:54.382565  8165 net.cpp:228] mbox_conf_softmax does not need backward computation.
…
