…
        min_scale: 0.3
        max_scale: 1
        min_aspect_ratio: 0.5
        max_aspect_ratio: 2
      }
      sample_constraint {
        min_jaccard_overlap: 0.9
      }
      max_sample: 1
      max_trials: 50
    }
    batch_sampler {
      sampler {
        min_scale: 0.3
        max_scale: 1
        min_aspect_ratio: 0.5
        max_aspect_ratio: 2
      }
      sample_constraint {
        max_jaccard_overlap: 1
      }
      max_sample: 1
      max_trials: 50
    }
    label_map_file: "data/tbs_300x300_HSIL_10x/labelmap_tbs.prototxt"
  }
}
layer {
  name: "conv1_1"
  type: "Convolution"
  bottom: "data"
  top: "conv1_1"
  param {
    lr_mult: 1
    decay_mult: 1
  }
  param {
    lr_mult: 2
    decay_mult: 0
  }
  convolution_param {
    num_output: 64
    pad: 1
    kernel_size: 3
    weight_filler {
      type: "xavier"
    }
    bias_filler {
      type: "constant"
      value: 0
    }
  }
}
layer {
  name: "relu1_1"
  type: "ReLU"
  bottom: "conv1_1"
  top: "conv1_1"
}
layer {
  name: "conv1_2"
  type: "Convolution"
  bottom: "conv1_1"
  top: "conv1_2"
  param {
    lr_mult: 1
    decay_mult: 1
  }
  param {
    lr_mult: 2
    decay_mult: 0
  }
  convolution_param {
    num_output: 64
    pad: 1
    kernel_size: 3
    weight_filler {
      type: "xavier"
    }
    bias_filler {
      type: "constant"
      value: 0
    }
  }
}
layer {
  name: "relu1_2"
  type: "ReLU"
  bottom: "conv1_2"
  top: "conv1_2"
}
layer {
  name: "pool1"
  type: "Pooling"
  bottom: "conv1_2"
  top: "pool1"
  pooling_param {
    pool: MAX
    kernel_size: 2
    stride: 2
  }
}
layer {
  name: "conv2_1"
  type: "Convolution"
  bottom: "pool1"
  top: "conv2_1"
  param {
    lr_mult: 1
    decay_mult: 1
  }
  param {
    lr_mult: 2
    decay_mult: 0
  }
  convolution_param {
    num_output: 128
    pad: 1
    kernel_size: 3
    weight_filler {
      type: "xavier"
    }
    bias_filler {
      type: "constant"
      value: 0
    }
  }
}
layer {
  name: "relu2_1"
  type: "ReLU"
  bottom: "conv2_1"
  top: "conv2_1"
}
layer {
  name: "conv2_2"
  type: "Convolution"
  bottom: "conv2_1"
  top: "conv2_2"
  param {
    lr_mult: 1
    decay_mult: 1
  }
  param {
    lr_mult: 2
    decay_mult: 0
  }
  convolution_param {
    num_output: 128
    pad: 1
    kernel_size: 3
    weight_filler {
      type: "xavier"
    }
    bias_filler {
      type: "constant"
      value: 0
    }
  }
}
layer {
  name: "relu2_2"
  type: "ReLU"
  bottom: "conv2_2"
  top: "conv2_2"
}
layer {
  name: "pool2"
  type: "Pooling"
  bottom: "conv2_2"
  top: "pool2"
  pooling_param {
    pool: MAX
    kernel_size: 2
    stride: 2
  }
}
layer {
  name: "conv3_1"
  type: "Convolution"
  bottom: "pool2"
  top: "conv3_1"
  param {
    lr_mult: 1
    decay_mult: 1
  }
  param {
    lr_mult: 2
    decay_mult: 0
  }
  convolution_param {
    num_output: 256
    pad: 1
    kernel_size: 3
    weight_filler {
      type: "xavier"
    }
    bias_filler {
      type: "constant"
      value: 0
    }
  }
}
layer {
  name: "relu3_1"
  type: "ReLU"
  bottom: "conv3_1"
  top: "conv3_1"
}
layer {
  name: "conv3_2"
  type: "Convolution"
  bottom: "conv3_1"
  top: "conv3_2"
  param {
    lr_mult: 1
    decay_mult: 1
  }
  param {
    lr_mult: 2
    decay_mult: 0
  }
  convolution_param {
    num_output: 256
    pad: 1
    kernel_size: 3
    weight_filler {
      type: "xavier"
    }
    bias_filler {
      type: "constant"
      value: 0
    }
  }
}
layer {
  name: "relu3_2"
  type: "ReLU"
  bottom: "conv3_2"
  top: "conv3_2"
}
layer {
  name: "conv3_3"
  type: "Convolution"
  bottom: "conv3_2"
  top: "conv3_3"
  param {
    lr_mult: 1
    decay_mult: 1
  }
  param {
    lr_mult: 2
    decay_mult: 0
  }
  convolution_param {
    num_output: 256
    pad: 1
    kernel_size: 3
    weight_filler {
      type: "xavier"
    }
    bias_filler {
      type: "constant"
      value: 0
    }
  }
}
layer {
  name: "relu3_3"
  type: "ReLU"
  bottom: "conv3_3"
  top: "conv3_3"
}
layer {
  name: "pool3"
  type: "Pooling"
  bottom: "conv3_3"
  top: "pool3"
  pooling_param {
    pool: MAX
    kernel_size: 2
    stride: 2
  }
}
layer {
  name: "conv4_1"
  type: "Convolution"
  bottom: "pool3"
  top: "conv4_1"
  param {
    lr_mult: 1
    decay_mult: 1
  }
  param {
    lr_mult: 2
    decay_mult: 0
  }
  convolution_param {
    num_output: 512
    pad: 1
    kernel_size: 3
    weight_filler {
      type: "xavier"
    }
    bias_filler {
      type: "constant"
      value: 0
    }
  }
}
layer {
  name: "relu4_1"
  type: "ReLU"
  bottom: "conv4_1"
  top: "conv4_1"
}
layer {
  name: "conv4_2"
  type: "Convolution"
  bottom: "conv4_1"
  top: "conv4_2"
  param {
    lr_mult: 1
    decay_mult: 1
  }
  param {
    lr_mult: 2
    decay_mult: 0
  }
  convolution_param {
    num_output: 512
    pad: 1
    kernel_size: 3
    weight_filler {
      type: "xavier"
    }
    bias_filler {
      type: "constant"
      value: 0
    }
  }
}
layer {
  name: "relu4_2"
  type: "ReLU"
  bottom: "conv4_2"
  top: "conv4_2"
}
layer {
  name: "conv4_3"
  type: "Convolution"
  bottom: "conv4_2"
  top: "conv4_3"
  param {
    lr_mult: 1
    decay_mult: 1
  }
  param {
    lr_mult: 2
    decay_mult: 0
  }
  convolution_param {
    num_output: 512
    pad: 1
    kernel_size: 3
    weight_filler {
      type: "xavier"
    }
    bias_filler {
      type: "constant"
      value: 0
    }
  }
}
layer {
  name: "relu4_3"
  type: "ReLU"
  bottom: "conv4_3"
  top: "conv4_3"
}
layer {
  name: "pool4"
  type: "Pooling"
  bottom: "conv4_3"
  top: "pool4"
  pooling_param {
    pool: MAX
    kernel_size: 2
    stride: 2
  }
}
layer {
  name: "conv5_1"
  type: "Convolution"
  bottom: "pool4"
  top: "conv5_1"
  param {
    lr_mult: 1
    decay_mult: 1
  }
  param {
    lr_mult: 2
    decay_mult: 0
  }
  convolution_param {
    num_output: 512
    pad: 1
    kernel_size: 3
    weight_filler {
      type: "xavier"
    }
    bias_filler {
      type: "constant"
      value: 0
    }
    dilation: 1
  }
}
layer {
  name: "relu5_1"
  type: "ReLU"
  bottom: "conv5_1"
  top: "conv5_1"
}
layer {
  name: "conv5_2"
  type: "Convolution"
  bottom: "conv5_1"
  top: "conv5_2"
  param {
    lr_mult: 1
    decay_mult: 1
  }
  param {
    lr_mult: 2
    decay_mult: 0
  }
  convolution_param {
    num_output: 512
    pad: 1
    kernel_size: 3
    weight_filler {
      type: "xavier"
    }
    bias_filler {
      type: "constant"
      value: 0
    }
    dilation: 1
  }
}
layer {
  name: "relu5_2"
  type: "ReLU"
  bottom: "conv5_2"
  top: "conv5_2"
}
layer {
  name: "conv5_3"
  type: "Convolution"
  bottom: "conv5_2"
  top: "conv5_3"
  param {
    lr_mult: 1
    decay_mult: 1
  }
  param {
    lr_mult: 2
    decay_mult: 0
  }
  convolution_param {
    num_output: 512
    pad: 1
    kernel_size: 3
    weight_filler {
      type: "xavier"
    }
    bias_filler {
      type: "constant"
      value: 0
    }
    dilation: 1
  }
}
layer {
  name: "relu5_3"
  type: "ReLU"
  bottom: "conv5_3"
  top: "conv5_3"
}
layer {
  name: "pool5"
  type: "Pooling"
  bottom: "conv5_3"
  top: "pool5"
  pooling_param {
    pool: MAX
    kernel_size: 3
    stride: 1
    pad: 1
  }
}
layer {
  name: "fc6"
  type: "Convolution"
  bottom: "pool5"
  top: "fc6"
  param {
    lr_mult: 1
    decay_mult: 1
  }
  param {
    lr_mult: 2
    decay_mult: 0
  }
  convolution_param {
    num_output: 1024
    pad: 6
    kernel_size: 3
    weight_filler {
      type: "xavier"
    }
    bias_filler {
      type: "constant"
      value: 0
    }
    dilation: 6
  }
}
layer {
  name: "relu6"
  type: "ReLU"
  bottom: "fc6"
  top: "fc6"
}
layer {
  name: "fc7"
  type: "Convolution"
  bottom: "fc6"
  top: "fc7"
  param {
    lr_mult: 1
    decay_mult: 1
  }
  param {
    lr_mult: 2
    decay_mult: 0
  }
  convolution_param {
    num_output: 1024
    kernel_size: 1
    weight_filler {
      type: "xavier"
    }
    bias_filler {
      type: "constant"
      value: 0
    }
  }
}
layer {
  name: "relu7"
  type: "ReLU"
  bottom: "fc7"
  top: "fc7"
}
layer {
  name: "conv6_1"
  type: "Convolution"
  bottom: "fc7"
  top: "conv6_1"
  param {
    lr_mult: 1
    decay_mult: 1
  }
  param {
    lr_mult: 2
    decay_mult: 0
  }
  convolution_param {
    num_output: 256
    pad: 0
    kernel_size: 1
    stride: 1
    weight_filler {
      type: "xavier"
    }
    bias_filler {
      type: "constant"
      value: 0
    }
  }
}
layer {
  name: "conv6_1_relu"
  type: "ReLU"
  bottom: "conv6_1"
  top: "conv6_1"
}
layer {
  name: "conv6_2"
  type: "Convolution"
  bottom: "conv6_1"
  top: "conv6_2"
  param {
    lr_mult: 1
    decay_mult: 1
  }
  param {
    lr_mult: 2
    decay_mult: 0
  }
  convolution_param {
    num_output: 512
    pad: 1
    kernel_size: 3
    stride: 2
    weight_filler {
      type: "xavier"
    }
    bias_filler {
      type: "constant"
      value: 0
    }
  }
}
layer {
  name: "conv6_2_relu"
  type: "ReLU"
  bottom: "conv6_2"
  top: "conv6_2"
}
layer {
  name: "conv7_1"
  type: "Convolution"
  bottom: "conv6_2"
  top: "conv7_1"
  param {
    lr_mult: 1
    decay_mult: 1
  }
  param {
    lr_mult: 2
    decay_mult: 0
  }
  convolution_param {
    num_output: 128
    pad: 0
    kernel_size: 1
    stride: 1
    weight_filler {
      type: "xavier"
    }
    bias_filler {
      type: "constant"
      value: 0
    }
  }
}
layer {
  name: "conv7_1_relu"
  type: "ReLU"
  bottom: "conv7_1"
  top: "conv7_1"
}
layer {
  name: "conv7_2"
  type: "Convolution"
  bottom: "conv7_1"
  top: "conv7_2"
  param {
    lr_mult: 1
    decay_mult: 1
  }
  param {
    lr_mult: 2
    decay_mult: 0
  }
  convolution_param {
    num_output: 256
    pad: 1
    kernel_size: 3
    stride: 2
    weight_filler {
      type: "xavier"
    }
    bias_filler {
      type: "constant"
      value: 0
    }
  }
}
layer {
  name: "conv7_2_relu"
  type: "ReLU"
  bottom: "conv7_2"
  top: "conv7_2"
}
layer {
  name: "conv8_1"
  type: "Convolution"
  bottom: "conv7_2"
  top: "conv8_1"
  param {
    lr_mult: 1
    decay_mult: 1
  }
  param {
    lr_mult: 2
    decay_mult: 0
  }
  convolution_param {
    num_output: 128
    pad: 0
    kernel_size: 1
    stride: 1
    weight_filler {
      type: "xavier"
    }
    bias_filler {
      type: "constant"
      value: 0
    }
  }
}
layer {
  name: "conv8_1_relu"
  type: "ReLU"
  bottom: "conv8_1"
  top: "conv8_1"
}
layer {
  name: "conv8_2"
  type: "Convolution"
  bottom: "conv8_1"
  top: "conv8_2"
  param {
    lr_mult: 1
    decay_mult: 1
  }
  param {
    lr_mult: 2
    decay_mult: 0
  }
  convolution_param {
    num_output: 256
    pad: 0
    kernel_size: 3
    stride: 1
    weight_filler {
      type: "xavier"
    }
    bias_filler {
      type: "constant"
      value: 0
    }
  }
}
layer {
  name: "conv8_2_relu"
  type: "ReLU"
  bottom: "conv8_2"
  top: "conv8_2"
}
layer {
  name: "conv9_1"
  type: "Convolution"
  bottom: "conv8_2"
  top: "conv9_1"
  param {
    lr_mult: 1
    decay_mult: 1
  }
  param {
    lr_mult: 2
    decay_mult: 0
  }
  convolution_param {
    num_output: 128
    pad: 0
    kernel_size: 1
    stride: 1
    weight_filler {
      type: "xavier"
    }
    bias_filler {
      type: "constant"
      value: 0
    }
  }
}
layer {
  name: "conv9_1_relu"
  type: "ReLU"
  bottom: "conv9_1"
  top: "conv9_1"
}
layer {
  name: "conv9_2"
  type: "Convolution"
  bottom: "conv9_1"
  top: "conv9_2"
  param {
    lr_mult: 1
    decay_mult: 1
  }
  param {
    lr_mult: 2
    decay_mult: 0
  }
  convolution_param {
    num_output: 256
    pad: 0
    kernel_size: 3
    stride: 1
    weight_filler {
      type: "xavier"
    }
    bias_filler {
      type: "constant"
      value: 0
    }
  }
}
layer {
  name: "conv9_2_relu"
  type: "ReLU"
  bottom: "conv9_2"
  top: "conv9_2"
}
layer {
  name: "conv4_3_norm"
  type: "Normalize"
  bottom: "conv4_3"
  top: "conv4_3_norm"
  norm_param {
    across_spatial: false
    scale_filler {
      type: "constant"
      value: 20
    }
    channel_shared: false
  }
}
layer {
  name: "conv4_3_norm_mbox_loc"
  type: "Convolution"
  bottom: "conv4_3_norm"
  top: "conv4_3_norm_mbox_loc"
  param {
    lr_mult: 1
    decay_mult: 1
  }
  param {
    lr_mult: 2
    decay_mult: 0
  }
  convolution_param {
    num_output: 16
    pad: 1
    kernel_size: 3
    stride: 1
    weight_filler {
      type: "xavier"
    }
    bias_filler {
      type: "constant"
      value: 0
    }
  }
}
layer {
  name: "conv4_3_norm_mbox_loc_perm"
  type: "Permute"
  bottom: "conv4_3_norm_mbox_loc"
  top: "conv4_3_norm_mbox_loc_perm"
  permute_param {
    order: 0
    order: 2
    order: 3
    order: 1
  }
}
layer {
  name: "conv4_3_norm_mbox_loc_flat"
  type: "Flatten"
  bottom: "conv4_3_norm_mbox_loc_perm"
  top: "conv4_3_norm_mbox_loc_flat"
  flatten_param {
    axis: 1
  }
}
layer {
  name: "conv4_3_norm_mbox_conf"
  type: "Convolution"
  bottom: "conv4_3_norm"
  top: "conv4_3_norm_mbox_conf"
  param {
    lr_mult: 1
    decay_mult: 1
  }
  param {
    lr_mult: 2
    decay_mult: 0
  }
  convolution_param {
    num_output: 16
    pad: 1
    kernel_size: 3
    stride: 1
    weight_filler {
      type: "xavier"
    }
    bias_filler {
      type: "constant"
      value: 0
    }
  }
}
layer {
  name: "conv4_3_norm_mbox_conf_perm"
  type: "Permute"
  bottom: "conv4_3_norm_mbox_conf"
  top: "conv4_3_norm_mbox_conf_perm"
  permute_param {
    order: 0
    order: 2
    order: 3
    order: 1
  }
}
layer {
  name: "conv4_3_norm_mbox_conf_flat"
  type: "Flatten"
  bottom: "conv4_3_norm_mbox_conf_perm"
  top: "conv4_3_norm_mbox_conf_flat"
  flatten_param {
    axis: 1
  }
}
layer {
  name: "conv4_3_norm_mbox_priorbox"
  type: "PriorBox"
  bottom: "conv4_3_norm"
  bottom: "data"
  top: "conv4_3_norm_mbox_priorbox"
  prior_box_param {
    min_size: 30
    max_size: 60
    aspect_ratio: 2
    flip: true
    clip: false
    variance: 0.1
    variance: 0.1
    variance: 0.2
    variance: 0.2
    step: 8
    offset: 0.5
  }
}
layer {
  name: "fc7_mbox_loc"
  type: "Convolution"
  bottom: "fc7"
  top: "fc7_mbox_loc"
  param {
    lr_mult: 1
    decay_mult: 1
  }
  param {
    lr_mult: 2
    decay_mult: 0
  }
  convolution_param {
    num_output: 24
    pad: 1
    kernel_size: 3
    stride: 1
    weight_filler {
      type: "xavier"
    }
    bias_filler {
      type: "constant"
      value: 0
    }
  }
}
layer {
  name: "fc7_mbox_loc_perm"
  type: "Permute"
  bottom: "fc7_mbox_loc"
  top: "fc7_mbox_loc_perm"
  permute_param {
    order: 0
    order: 2
    order: 3
    order: 1
  }
}
layer {
  name: "fc7_mbox_loc_flat"
  type: "Flatten"
  bottom: "fc7_mbox_loc_perm"
  top: "fc7_mbox_loc_flat"
  flatten_param {
    axis: 1
  }
}
layer {
  name: "fc7_mbox_conf"
  type: "Convolution"
  bottom: "fc7"
  top: "fc7_mbox_conf"
  param {
    lr_mult: 1
    decay_mult: 1
  }
  param {
    lr_mult: 2
    decay_mult: 0
  }
  convolution_param {
    num_output: 24
    pad: 1
    kernel_size: 3
    stride: 1
    weight_filler {
      type: "xavier"
    }
    bias_filler {
      type: "constant"
      value: 0
    }
  }
}
layer {
  name: "fc7_mbox_conf_perm"
  type: "Permute"
  bottom: "fc7_mbox_conf"
  top: "fc7_mbox_conf_perm"
  permute_param {
    order: 0
    order: 2
    order: 3
    order: 1
  }
}
layer {
  name: "fc7_mbox_conf_flat"
  type: "Flatten"
  bottom: "fc7_mbox_conf_perm"
  top: "fc7_mbox_conf_flat"
  flatten_param {
    axis: 1
  }
}
layer {
  name: "fc7_mbox_priorbox"
  type: "PriorBox"
  bottom: "fc7"
  bottom: "data"
  top: "fc7_mbox_priorbox"
  prior_box_param {
    min_size: 60
    max_size: 111
    aspect_ratio: 2
    aspect_ratio: 3
    flip: true
    clip: false
    variance: 0.1
    variance: 0.1
    variance: 0.2
    variance: 0.2
    step: 16
    offset: 0.5
  }
}
layer {
  name: "conv6_2_mbox_loc"
  type: "Convolution"
  bottom: "conv6_2"
  top: "conv6_2_mbox_loc"
  param {
    lr_mult: 1
    decay_mult: 1
  }
  param {
    lr_mult: 2
    decay_mult: 0
  }
  convolution_param {
    num_output: 24
    pad: 1
    kernel_size: 3
    stride: 1
    weight_filler {
      type: "xavier"
    }
    bias_filler {
      type: "constant"
      value: 0
    }
  }
}
layer {
  name: "conv6_2_mbox_loc_perm"
  type: "Permute"
  bottom: "conv6_2_mbox_loc"
  top: "conv6_2_mbox_loc_perm"
  permute_param {
    order: 0
    order: 2
    order: 3
    order: 1
  }
}
layer {
  name: "conv6_2_mbox_loc_flat"
  type: "Flatten"
  bottom: "conv6_2_mbox_loc_perm"
  top: "conv6_2_mbox_loc_flat"
  flatten_param {
    axis: 1
  }
}
layer {
  name: "conv6_2_mbox_conf"
  type: "Convolution"
  bottom: "conv6_2"
  top: "conv6_2_mbox_conf"
  param {
    lr_mult: 1
    decay_mult: 1
  }
  param {
    lr_mult: 2
    decay_mult: 0
  }
  convolution_param {
    num_output: 24
    pad: 1
    kernel_size: 3
    stride: 1
    weight_filler {
      type: "xavier"
    }
    bias_filler {
      type: "constant"
      value: 0
    }
  }
}
layer {
  name: "conv6_2_mbox_conf_perm"
  type: "Permute"
  bottom: "conv6_2_mbox_conf"
  top: "conv6_2_mbox_conf_perm"
  permute_param {
    order: 0
    order: 2
    order: 3
    order: 1
  }
}
layer {
  name: "conv6_2_mbox_conf_flat"
  type: "Flatten"
  bottom: "conv6_2_mbox_conf_perm"
  top: "conv6_2_mbox_conf_flat"
  flatten_param {
    axis: 1
  }
}
layer {
  name: "conv6_2_mbox_priorbox"
  type: "PriorBox"
  bottom: "conv6_2"
  bottom: "data"
  top: "conv6_2_mbox_priorbox"
  prior_box_param {
    min_size: 111
    max_size: 162
    aspect_ratio: 2
    aspect_ratio: 3
    flip: true
    clip: false
    variance: 0.1
    variance: 0.1
    variance: 0.2
    variance: 0.2
    step: 32
    offset: 0.5
  }
}
layer {
  name: "conv7_2_mbox_loc"
  type: "Convolution"
  bottom: "conv7_2"
  top: "conv7_2_mbox_loc"
  param {
    lr_mult: 1
    decay_mult: 1
  }
  param {
    lr_mult: 2
    decay_mult: 0
  }
  convolution_param {
    num_output: 24
    pad: 1
    kernel_size: 3
    stride: 1
    weight_filler {
      type: "xavier"
    }
    bias_filler {
      type: "constant"
      value: 0
    }
  }
}
layer {
  name: "conv7_2_mbox_loc_perm"
  type: "Permute"
  bottom: "conv7_2_mbox_loc"
  top: "conv7_2_mbox_loc_perm"
  permute_param {
    order: 0
    order: 2
    order: 3
    order: 1
  }
}
layer {
  name: "conv7_2_mbox_loc_flat"
  type: "Flatten"
  bottom: "conv7_2_mbox_loc_perm"
  top: "conv7_2_mbox_loc_flat"
  flatten_param {
    axis: 1
  }
}
layer {
  name: "conv7_2_mbox_conf"
  type: "Convolution"
  bottom: "conv7_2"
  top: "conv7_2_mbox_conf"
  param {
    lr_mult: 1
    decay_mult: 1
  }
  param {
    lr_mult: 2
    decay_mult: 0
  }
  convolution_param {
    num_output: 24
    pad: 1
    kernel_size: 3
    stride: 1
    weight_filler {
      type: "xavier"
    }
    bias_filler {
      type: "constant"
      value: 0
    }
  }
}
layer {
  name: "conv7_2_mbox_conf_perm"
  type: "Permute"
  bottom: "conv7_2_mbox_conf"
  top: "conv7_2_mbox_conf_perm"
  permute_param {
    order: 0
    order: 2
    order: 3
    order: 1
  }
}
layer {
  name: "conv7_2_mbox_conf_flat"
  type: "Flatten"
  bottom: "conv7_2_mbox_conf_perm"
  top: "conv7_2_mbox_conf_flat"
  flatten_param {
    axis: 1
  }
}
layer {
  name: "conv7_2_mbox_priorbox"
  type: "PriorBox"
  bottom: "conv7_2"
  bottom: "data"
  top: "conv7_2_mbox_priorbox"
  prior_box_param {
    min_size: 162
    max_size: 213
    aspect_ratio: 2
    aspect_ratio: 3
    flip: true
    clip: false
    variance: 0.1
    variance: 0.1
    variance: 0.2
    variance: 0.2
    step: 64
    offset: 0.5
  }
}
layer {
  name: "conv8_2_mbox_loc"
  type: "Convolution"
  bottom: "conv8_2"
  top: "conv8_2_mbox_loc"
  param {
    lr_mult: 1
    decay_mult: 1
  }
  param {
    lr_mult: 2
    decay_mult: 0
  }
  convolution_param {
    num_output: 16
    pad: 1
    kernel_size: 3
    stride: 1
    weight_filler {
      type: "xavier"
    }
    bias_filler {
      type: "constant"
      value: 0
    }
  }
}
layer {
  name: "conv8_2_mbox_loc_perm"
  type: "Permute"
  bottom: "conv8_2_mbox_loc"
  top: "conv8_2_mbox_loc_perm"
  permute_param {
    order: 0
    order: 2
    order: 3
    order: 1
  }
}
layer {
  name: "conv8_2_mbox_loc_flat"
  type: "Flatten"
  bottom: "conv8_2_mbox_loc_perm"
  top: "conv8_2_mbox_loc_flat"
  flatten_param {
    axis: 1
  }
}
layer {
  name: "conv8_2_mbox_conf"
  type: "Convolution"
  bottom: "conv8_2"
  top: "conv8_2_mbox_conf"
  param {
    lr_mult: 1
    decay_mult: 1
  }
  param {
    lr_mult: 2
    decay_mult: 0
  }
  convolution_param {
    num_output: 16
    pad: 1
    kernel_size: 3
    stride: 1
    weight_filler {
      type: "xavier"
    }
    bias_filler {
      type: "constant"
      value: 0
    }
  }
}
layer {
  name: "conv8_2_mbox_conf_perm"
  type: "Permute"
  bottom: "conv8_2_mbox_conf"
  top: "conv8_2_mbox_conf_perm"
  permute_param {
    order: 0
    order: 2
    order: 3
    order: 1
  }
}
layer {
  name: "conv8_2_mbox_conf_flat"
  type: "Flatten"
  bottom: "conv8_2_mbox_conf_perm"
  top: "conv8_2_mbox_conf_flat"
  flatten_param {
    axis: 1
  }
}
layer {
  name: "conv8_2_mbox_priorbox"
  type: "PriorBox"
  bottom: "conv8_2"
  bottom: "data"
  top: "conv8_2_mbox_priorbox"
  prior_box_param {
    min_size: 213
    max_size: 264
    aspect_ratio: 2
    flip: true
    clip: false
    variance: 0.1
    variance: 0.1
    variance: 0.2
    variance: 0.2
    step: 100
    offset: 0.5
  }
}
layer {
  name: "conv9_2_mbox_loc"
  type: "Convolution"
  bottom: "conv9_2"
  top: "conv9_2_mbox_loc"
  param {
    lr_mult: 1
    decay_mult: 1
  }
  param {
    lr_mult: 2
    decay_mult: 0
  }
  convolution_param {
    num_output: 16
    pad: 1
    kernel_size: 3
    stride: 1
    weight_filler {
      type: "xavier"
    }
    bias_filler {
      type: "constant"
      value: 0
    }
  }
}
layer {
  name: "conv9_2_mbox_loc_perm"
  type: "Permute"
  bottom: "conv9_2_mbox_loc"
  top: "conv9_2_mbox_loc_perm"
  permute_param {
    order: 0
    order: 2
    order: 3
    order: 1
  }
}
layer {
  name: "conv9_2_mbox_loc_flat"
  type: "Flatten"
  bottom: "conv9_2_mbox_loc_perm"
  top: "conv9_2_mbox_loc_flat"
  flatten_param {
    axis: 1
  }
}
layer {
  name: "conv9_2_mbox_conf"
  type: "Convolution"
  bottom: "conv9_2"
  top: "conv9_2_mbox_conf"
  param {
    lr_mult: 1
    decay_mult: 1
  }
  param {
    lr_mult: 2
    decay_mult: 0
  }
  convolution_param {
    num_output: 16
    pad: 1
    kernel_size: 3
    stride: 1
    weight_filler {
      type: "xavier"
    }
    bias_filler {
      type: "constant"
      value: 0
    }
  }
}
layer {
  name: "conv9_2_mbox_conf_perm"
  type: "Permute"
  bottom: "conv9_2_mbox_conf"
  top: "conv9_2_mbox_conf_perm"
  permute_param {
    order: 0
    order: 2
    order: 3
    order: 1
  }
}
layer {
  name: "conv9_2_mbox_conf_flat"
  type: "Flatten"
  bottom: "conv9_2_mbox_conf_perm"
  top: "conv9_2_mbox_conf_flat"
  flatten_param {
    axis: 1
  }
}
layer {
  name: "conv9_2_mbox_priorbox"
  type: "PriorBox"
  bottom: "conv9_2"
  bottom: "data"
  top: "conv9_2_mbox_priorbox"
  prior_box_param {
    min_size: 264
    max_size: 315
    aspect_ratio: 2
    flip: true
    clip: false
    variance: 0.1
    variance: 0.1
    variance: 0.2
    variance: 0.2
    step: 300
    offset: 0.5
  }
}
layer {
  name: "mbox_loc"
  type: "Concat"
  bottom: "conv4_3_norm_mbox_loc_flat"
  bottom: "fc7_mbox_loc_flat"
  bottom: "conv6_2_mbox_loc_flat"
  bottom: "conv7_2_mbox_loc_flat"
  bottom: "conv8_2_mbox_loc_flat"
  bottom: "conv9_2_mbox_loc_flat"
  top: "mbox_loc"
  concat_param {
    axis: 1
  }
}
layer {
  name: "mbox_conf"
  type: "Concat"
  bottom: "conv4_3_norm_mbox_conf_flat"
  bottom: "fc7_mbox_conf_flat"
  bottom: "conv6_2_mbox_conf_flat"
  bottom: "conv7_2_mbox_conf_flat"
  bottom: "conv8_2_mbox_conf_flat"
  bottom: "conv9_2_mbox_conf_flat"
  top: "mbox_conf"
  concat_param {
    axis: 1
  }
}
layer {
  name: "mbox_priorbox"
  type: "Concat"
  bottom: "conv4_3_norm_mbox_priorbox"
  bottom: "fc7_mbox_priorbox"
  bottom: "conv6_2_mbox_priorbox"
  bottom: "conv7_2_mbox_priorbox"
  bottom: "conv8_2_mbox_priorbox"
  bottom: "conv9_2_mbox_priorbox"
  top: "mbox_priorbox"
  concat_param {
    axis: 2
  }
}
layer {
  name: "mbox_loss"
  type: "MultiBoxLoss"
  bottom: "mbox_loc"
  bottom: "mbox_conf"
  bottom: "mbox_priorbox"
  bottom: "label"
  top: "mbox_loss"
  include {
    phase: TRAIN
  }
  propagate_down: true
  propagate_down: true
  propagate_down: false
  propagate_down: false
  loss_param {
    normalization: VALID
  }
  multibox_loss_param {
    loc_loss_type: SMOOTH_L1
    conf_loss_type: SOFTMAX
    loc_weight: 1
    num_classes: 4
    share_location: true
    match_type: PER_PREDICTION
    overlap_threshold: 0.5
    use_prior_for_matching: true
    background_label_id: 0
    use_difficult_gt: true
    neg_pos_ratio: 3
    neg_overlap: 0.5
    code_type: CENTER_SIZE
    ignore_cross_boundary_bbox: false
    mining_type: MAX_NEGATIVE
  }
}
I0601 12:00:49.901865 13437 layer_factory.hpp:77] Creating layer data
I0601 12:00:49.902035 13437 net.cpp:100] Creating Layer data
I0601 12:00:49.902051 13437 net.cpp:408] data -> data
I0601 12:00:49.902091 13437 net.cpp:408] data -> label
I0601 12:00:49.902629 13453 db_lmdb.cpp:35] Opened lmdb examples/tbs_300x300_HSIL_10x/tbs_300x300_HSIL_10x_trainval_lmdb
I0601 12:00:49.912786 13437 annotated_data_layer.cpp:62] output data size: 32,3,300,300
I0601 12:00:49.977692 13437 net.cpp:150] Setting up data
I0601 12:00:49.977715 13437 net.cpp:157] Top shape: 32 3 300 300 (8640000)
I0601 12:00:49.977720 13437 net.cpp:157] Top shape: 1 1 1 8 (8)
I0601 12:00:49.977736 13437 net.cpp:165] Memory required for data: 34560032
I0601 12:00:49.977746 13437 layer_factory.hpp:77] Creating layer data_data_0_split
I0601 12:00:49.977758 13437 net.cpp:100] Creating Layer data_data_0_split
I0601 12:00:49.977764 13437 net.cpp:434] data_data_0_split <- data
I0601 12:00:49.977774 13437 net.cpp:408] data_data_0_split -> data_data_0_split_0
I0601 12:00:49.977783 13437 net.cpp:408] data_data_0_split -> data_data_0_split_1
I0601 12:00:49.977789 13437 net.cpp:408] data_data_0_split -> data_data_0_split_2
I0601 12:00:49.977795 13437 net.cpp:408] data_data_0_split -> data_data_0_split_3
I0601 12:00:49.977802 13437 net.cpp:408] data_data_0_split -> data_data_0_split_4
I0601 12:00:49.977809 13437 net.cpp:408] data_data_0_split -> data_data_0_split_5
I0601 12:00:49.977816 13437 net.cpp:408] data_data_0_split -> data_data_0_split_6
I0601 12:00:49.977895 13437 net.cpp:150] Setting up data_data_0_split
I0601 12:00:49.977901 13437 net.cpp:157] Top shape: 32 3 300 300 (8640000)
I0601 12:00:49.977905 13437 net.cpp:157] Top shape: 32 3 300 300 (8640000)
I0601 12:00:49.977907 13437 net.cpp:157] Top shape: 32 3 300 300 (8640000)
I0601 12:00:49.977910 13437 net.cpp:157] Top shape: 32 3 300 300 (8640000)
I0601 12:00:49.977912 13437 net.cpp:157] Top shape: 32 3 300 300 (8640000)
I0601 12:00:49.977916 13437 net.cpp:157] Top shape: 32 3 300 300 (8640000)
I0601 12:00:49.977918 13437 net.cpp:157] Top shape: 32 3 300 300 (8640000)
I0601 12:00:49.977921 13437 net.cpp:165] Memory required for data: 276480032
I0601 12:00:49.977922 13437 layer_factory.hpp:77] Creating layer conv1_1
I0601 12:00:49.977936 13437 net.cpp:100] Creating Layer conv1_1
I0601 12:00:49.977938 13437 net.cpp:434] conv1_1 <- data_data_0_split_0
I0601 12:00:49.977943 13437 net.cpp:408] conv1_1 -> conv1_1
I0601 12:00:50.996671 13437 net.cpp:150] Setting up conv1_1
I0601 12:00:50.996690 13437 net.cpp:157] Top shape: 32 64 300 300 (184320000)
I0601 12:00:50.996695 13437 net.cpp:165] Memory required for data: 1013760032
I0601 12:00:50.996718 13437 layer_factory.hpp:77] Creating layer relu1_1
I0601 12:00:50.996729 13437 net.cpp:100] Creating Layer relu1_1
I0601 12:00:50.996734 13437 net.cpp:434] relu1_1 <- conv1_1
I0601 12:00:50.996742 13437 net.cpp:395] relu1_1 -> conv1_1 (in-place)
I0601 12:00:50.996933 13437 net.cpp:150] Setting up relu1_1
I0601 12:00:50.996943 13437 net.cpp:157] Top shape: 32 64 300 300 (184320000)
I0601 12:00:50.996948 13437 net.cpp:165] Memory required for data: 1751040032
I0601 12:00:50.996951 13437 layer_factory.hpp:77] Creating layer conv1_2
I0601 12:00:50.996968 13437 net.cpp:100] Creating Layer conv1_2
I0601 12:00:50.996973 13437 net.cpp:434] conv1_2 <- conv1_1
I0601 12:00:50.996979 13437 net.cpp:408] conv1_2 -> conv1_2
I0601 12:00:51.001770 13437 net.cpp:150] Setting up conv1_2
I0601 12:00:51.001863 13437 net.cpp:157] Top shape: 32 64 300 300 (184320000)
I0601 12:00:51.001891 13437 net.cpp:165] Memory required for data: 2488320032
I0601 12:00:51.001927 13437 layer_factory.hpp:77] Creating layer relu1_2
I0601 12:00:51.001960 13437 net.cpp:100] Creating Layer relu1_2
I0601 12:00:51.001987 13437 net.cpp:434] relu1_2 <- conv1_2
I0601 12:00:51.002015 13437 net.cpp:395] relu1_2 -> conv1_2 (in-place)
I0601 12:00:51.019773 13437 net.cpp:150] Setting up relu1_2
I0601 12:00:51.019825 13437 net.cpp:157] Top shape: 32 64 300 300 (184320000)
I0601 12:00:51.019842 13437 net.cpp:165] Memory required for data: 3225600032
I0601 12:00:51.019858 13437 layer_factory.hpp:77] Creating layer pool1
I0601 12:00:51.019879 13437 net.cpp:100] Creating Layer pool1
I0601 12:00:51.019893 13437 net.cpp:434] pool1 <- conv1_2
I0601 12:00:51.019911 13437 net.cpp:408] pool1 -> pool1
I0601 12:00:51.019990 13437 net.cpp:150] Setting up pool1
I0601 12:00:51.020001 13437 net.cpp:157] Top shape: 32 64 150 150 (46080000)
I0601 12:00:51.020005 13437 net.cpp:165] Memory required for data: 3409920032
I0601 12:00:51.020009 13437 layer_factory.hpp:77] Creating layer conv2_1
I0601 12:00:51.020020 13437 net.cpp:100] Creating Layer conv2_1
I0601 12:00:51.020037 13437 net.cpp:434] conv2_1 <- pool1
I0601 12:00:51.020045 13437 net.cpp:408] conv2_1 -> conv2_1
I0601 12:00:51.026320 13437 net.cpp:150] Setting up conv2_1
I0601 12:00:51.026338 13437 net.cpp:157] Top shape: 32 128 150 150 (92160000)
I0601 12:00:51.026355 13437 net.cpp:165] Memory required for data: 3778560032
I0601 12:00:51.026368 13437 layer_factory.hpp:77] Creating layer relu2_1
I0601 12:00:51.026378 13437 net.cpp:100] Creating Layer relu2_1
I0601 12:00:51.026383 13437 net.cpp:434] relu2_1 <- conv2_1
I0601 12:00:51.026387 13437 net.cpp:395] relu2_1 -> conv2_1 (in-place)
I0601 12:00:51.027503 13437 net.cpp:150] Setting up relu2_1
I0601 12:00:51.027528 13437 net.cpp:157] Top shape: 32 128 150 150 (92160000)
I0601 12:00:51.027532 13437 net.cpp:165] Memory required for data: 4147200032
I0601 12:00:51.027537 13437 layer_factory.hpp:77] Creating layer conv2_2
I0601 12:00:51.027554 13437 net.cpp:100] Creating Layer conv2_2
I0601 12:00:51.027559 13437 net.cpp:434] conv2_2 <- conv2_1
I0601 12:00:51.027568 13437 net.cpp:408] conv2_2 -> conv2_2
I0601 12:00:51.029762 13437 net.cpp:150] Setting up conv2_2
I0601 12:00:51.029778 13437 net.cpp:157] Top shape: 32 128 150 150 (92160000)
I0601 12:00:51.029783 13437 net.cpp:165] Memory required for data: 4515840032
I0601 12:00:51.029793 13437 layer_factory.hpp:77] Creating layer relu2_2
I0601 12:00:51.029801 13437 net.cpp:100] Creating Layer relu2_2
I0601 12:00:51.029808 13437 net.cpp:434] relu2_2 <- conv2_2
I0601 12:00:51.029814 13437 net.cpp:395] relu2_2 -> conv2_2 (in-place)
I0601 12:00:51.029965 13437 net.cpp:150] Setting up relu2_2
I0601 12:00:51.029975 13437 net.cpp:157] Top shape: 32 128 150 150 (92160000)
I0601 12:00:51.029979 13437 net.cpp:165] Memory required for data: 4884480032
I0601 12:00:51.029984 13437 layer_factory.hpp:77] Creating layer pool2
I0601 12:00:51.029991 13437 net.cpp:100] Creating Layer pool2
I0601 12:00:51.029995 13437 net.cpp:434] pool2 <- conv2_2
I0601 12:00:51.030001 13437 net.cpp:408] pool2 -> pool2
I0601 12:00:51.030045 13437 net.cpp:150] Setting up pool2
I0601 12:00:51.030051 13437 net.cpp:157] Top shape: 32 128 75 75 (23040000)
I0601 12:00:51.030055 13437 net.cpp:165] Memory required for data: 4976640032
I0601 12:00:51.030059 13437 layer_factory.hpp:77] Creating layer conv3_1
I0601 12:00:51.030071 13437 net.cpp:100] Creating Layer conv3_1
I0601 12:00:51.030076 13437 net.cpp:434] conv3_1 <- pool2
I0601 12:00:51.030081 13437 net.cpp:408] conv3_1 -> conv3_1
I0601 12:00:51.034495 13437 net.cpp:150] Setting up conv3_1
I0601 12:00:51.034514 13437 net.cpp:157] Top shape: 32 256 75 75 (46080000)
I0601 12:00:51.034518 13437 net.cpp:165] Memory required for data: 5160960032
I0601 12:00:51.034536 13437 layer_factory.hpp:77] Creating layer relu3_1
I0601 12:00:51.034548 13437 net.cpp:100] Creating Layer relu3_1
I0601 12:00:51.034554 13437 net.cpp:434] relu3_1 <- conv3_1
I0601 12:00:51.034562 13437 net.cpp:395] relu3_1 -> conv3_1 (in-place)
I0601 12:00:51.034759 13437 net.cpp:150] Setting up relu3_1
I0601 12:00:51.034768 13437 net.cpp:157] Top shape: 32 256 75 75 (46080000)
I0601 12:00:51.034772 13437 net.cpp:165] Memory required for data: 5345280032
I0601 12:00:51.034776 13437 layer_factory.hpp:77] Creating layer conv3_2
I0601 12:00:51.034790 13437 net.cpp:100] Creating Layer conv3_2
I0601 12:00:51.034795 13437 net.cpp:434] conv3_2 <- conv3_1
I0601 12:00:51.034804 13437 net.cpp:408] conv3_2 -> conv3_2
I0601 12:00:51.040140 13437 net.cpp:150] Setting up conv3_2
I0601 12:00:51.040158 13437 net.cpp:157] Top shape: 32 256 75 75 (46080000)
I0601 12:00:51.040161 13437 net.cpp:165] Memory required for data: 5529600032
I0601 12:00:51.040174 13437 layer_factory.hpp:77] Creating layer relu3_2
I0601 12:00:51.040184 13437 net.cpp:100] Creating Layer relu3_2
I0601 12:00:51.040189 13437 net.cpp:434] relu3_2 <- conv3_2
I0601 12:00:51.040196 13437 net.cpp:395] relu3_2 -> conv3_2 (in-place)
I0601 12:00:51.040361 13437 net.cpp:150] Setting up relu3_2
I0601 12:00:51.040372 13437 net.cpp:157] Top shape: 32 256 75 75 (46080000)
I0601 12:00:51.040375 13437 net.cpp:165] Memory required for data: 5713920032
I0601 12:00:51.040395 13437 layer_factory.hpp:77] Creating layer conv3_3
I0601 12:00:51.040411 13437 net.cpp:100] Creating Layer conv3_3
I0601 12:00:51.040418 13437 net.cpp:434] conv3_3 <- conv3_2
I0601 12:00:51.040426 13437 net.cpp:408] conv3_3 -> conv3_3
I0601 12:00:51.045923 13437 net.cpp:150] Setting up conv3_3
I0601 12:00:51.045941 13437 net.cpp:157] Top shape: 32 256 75 75 (46080000)
I0601 12:00:51.045945 13437 net.cpp:165] Memory required for data: 5898240032
I0601 12:00:51.045955 13437 layer_factory.hpp:77] Creating layer relu3_3
I0601 12:00:51.045964 13437 net.cpp:100] Creating Layer relu3_3
I0601 12:00:51.045971 13437 net.cpp:434] relu3_3 <- conv3_3
I0601 12:00:51.045979 13437 net.cpp:395] relu3_3 -> conv3_3 (in-place)
I0601 12:00:51.046142 13437 net.cpp:150] Setting up relu3_3
I0601 12:00:51.046151 13437 net.cpp:157] Top shape: 32 256 75 75 (46080000)
I0601 12:00:51.046155 13437 net.cpp:165] Memory required for data: 6082560032
I0601 12:00:51.046159 13437 layer_factory.hpp:77] Creating layer pool3
I0601 12:00:51.046169 13437 net.cpp:100] Creating Layer pool3
I0601 12:00:51.046172 13437 net.cpp:434] pool3 <- conv3_3
I0601 12:00:51.046180 13437 net.cpp:408] pool3 -> pool3
I0601 12:00:51.046229 13437 net.cpp:150] Setting up pool3
I0601 12:00:51.046237 13437 net.cpp:157] Top shape: 32 256 38 38 (11829248)
I0601 12:00:51.046241 13437 net.cpp:165] Memory required for data: 6129877024
I0601 12:00:51.046245 13437 layer_factory.hpp:77] Creating layer conv4_1
I0601 12:00:51.046257 13437 net.cpp:100] Creating Layer conv4_1
I0601 12:00:51.046262 13437 net.cpp:434] conv4_1 <- pool3
I0601 12:00:51.046270 13437 net.cpp:408] conv4_1 -> conv4_1
I0601 12:00:51.055104 13437 net.cpp:150] Setting up conv4_1
I0601 12:00:51.055127 13437 net.cpp:157] Top shape: 32 512 38 38 (23658496)
I0601 12:00:51.055131 13437 net.cpp:165] Memory required for data: 6224511008
I0601 12:00:51.055141 13437 layer_factory.hpp:77] Creating layer relu4_1
I0601 12:00:51.055157 13437 net.cpp:100] Creating Layer relu4_1
I0601 12:00:51.055162 13437 net.cpp:434] relu4_1 <- conv4_1
I0601 12:00:51.055168 13437 net.cpp:395] relu4_1 -> conv4_1 (in-place)
I0601 12:00:51.055976 13437 net.cpp:150] Setting up relu4_1
I0601 12:00:51.056015 13437 net.cpp:157] Top shape: 32 512 38 38 (23658496)
I0601 12:00:51.056027 13437 net.cpp:165] Memory required for data: 6319144992
I0601 12:00:51.056040 13437 layer_factory.hpp:77] Creating layer conv4_2
I0601 12:00:51.056059 13437 net.cpp:100] Creating Layer conv4_2
I0601 12:00:51.056072 13437 net.cpp:434] conv4_2 <- conv4_1
I0601 12:00:51.056089 13437 net.cpp:408] conv4_2 -> conv4_2
I0601 12:00:51.071833 13437 net.cpp:150] Setting up conv4_2
I0601 12:00:51.071884 13437 net.cpp:157] Top shape: 32 512 38 38 (23658496)
I0601 12:00:51.071902 13437 net.cpp:165] Memory required for data: 6413778976
I0601 12:00:51.071928 13437 layer_factory.hpp:77] Creating layer relu4_2
I0601 12:00:51.071949 13437 net.cpp:100] Creating Layer relu4_2
I0601 12:00:51.071962 13437 net.cpp:434] relu4_2 <- conv4_2
I0601 12:00:51.071979 13437 net.cpp:395] relu4_2 -> conv4_2 (in-place)
I0601 12:00:51.072724 13437 net.cpp:150] Setting up relu4_2
I0601 12:00:51.072755 13437 net.cpp:157] Top shape: 32 512 38 38 (23658496)
I0601 12:00:51.072768 13437 net.cpp:165] Memory required for data: 6508412960
I0601 12:00:51.072777 13437 layer_factory.hpp:77] Creating layer conv4_3
I0601 12:00:51.072793 13437 net.cpp:100] Creating Layer conv4_3
I0601 12:00:51.072799 13437 net.cpp:434] conv4_3 <- conv4_2
I0601 12:00:51.072810 13437 net.cpp:408] conv4_3 -> conv4_3
I0601 12:00:51.086220 13437 net.cpp:150] Setting up conv4_3
I0601 12:00:51.086241 13437 net.cpp:157] Top shape: 32 512 38 38 (23658496)
I0601 12:00:51.086243 13437 net.cpp:165] Memory required for data: 6603046944
I0601 12:00:51.086253 13437 layer_factory.hpp:77] Creating layer relu4_3
I0601 12:00:51.086266 13437 net.cpp:100] Creating Layer relu4_3
I0601 12:00:51.086272 13437 net.cpp:434] relu4_3 <- conv4_3
I0601 12:00:51.086279 13437 net.cpp:395] relu4_3 -> conv4_3 (in-place)
I0601 12:00:51.086498 13437 net.cpp:150] Setting up relu4_3
I0601 12:00:51.086506 13437 net.cpp:157] Top shape: 32 512 38 38 (23658496)
I0601 12:00:51.086511 13437 net.cpp:165] Memory required for data: 6697680928
I0601 12:00:51.086514 13437 layer_factory.hpp:77] Creating layer conv4_3_relu4_3_0_split
I0601 12:00:51.086521 13437 net.cpp:100] Creating Layer conv4_3_relu4_3_0_split
I0601 12:00:51.086524 13437 net.cpp:434] conv4_3_relu4_3_0_split <- conv4_3
I0601 12:00:51.086530 13437 net.cpp:408] conv4_3_relu4_3_0_split -> conv4_3_relu4_3_0_split_0
I0601 12:00:51.086539 13437 net.cpp:408] conv4_3_relu4_3_0_split -> conv4_3_relu4_3_0_split_1
I0601 12:00:51.086589 13437 net.cpp:150] Setting up conv4_3_relu4_3_0_split
I0601 12:00:51.086596 13437 net.cpp:157] Top shape: 32 512 38 38 (23658496)
I0601 12:00:51.086601 13437 net.cpp:157] Top shape: 32 512 38 38 (23658496)
I0601 12:00:51.086606 13437 net.cpp:165] Memory required for data: 6886948896
I0601 12:00:51.086608 13437 layer_factory.hpp:77] Creating layer pool4
I0601 12:00:51.086616 13437 net.cpp:100] Creating Layer pool4
I0601 12:00:51.086619 13437 net.cpp:434] pool4 <- conv4_3_relu4_3_0_split_0
I0601 12:00:51.086627 13437 net.cpp:408] pool4 -> pool4
I0601 12:00:51.086664 13437 net.cpp:150] Setting up pool4
I0601 12:00:51.086670 13437 net.cpp:157] Top shape: 32 512 19 19 (5914624)
I0601 12:00:51.086674 13437 net.cpp:165] Memory required for data: 6910607392
I0601 12:00:51.086678 13437 layer_factory.hpp:77] Creating layer conv5_1
I0601 12:00:51.086689 13437 net.cpp:100] Creating Layer conv5_1
I0601 12:00:51.086694 13437 net.cpp:434] conv5_1 <- pool4
I0601 12:00:51.086700 13437 net.cpp:408] conv5_1 -> conv5_1
I0601 12:00:51.102700 13437 net.cpp:150] Setting up conv5_1
I0601 12:00:51.102732 13437 net.cpp:157] Top shape: 32 512 19 19 (5914624)
I0601 12:00:51.102736 13437 net.cpp:165] Memory required for data: 6934265888
I0601 12:00:51.102761 13437 layer_factory.hpp:77] Creating layer relu5_1
I0601 12:00:51.102771 13437 net.cpp:100] Creating Layer relu5_1
I0601 12:00:51.102777 13437 net.cpp:434] relu5_1 <- conv5_1
I0601 12:00:51.102783 13437 net.cpp:395] relu5_1 -> conv5_1 (in-place)
I0601 12:00:51.102978 13437 net.cpp:150] Setting up relu5_1
I0601 12:00:51.103003 13437 net.cpp:157] Top shape: 32 512 19 19 (5914624)
I0601 12:00:51.103016 13437 net.cpp:165] Memory required for data: 6957924384
I0601 12:00:51.103029 13437 layer_factory.hpp:77] Creating layer conv5_2
I0601 12:00:51.103051 13437 net.cpp:100] Creating Layer conv5_2
I0601 12:00:51.103058 13437 net.cpp:434] conv5_2 <- conv5_1
I0601 12:00:51.103067 13437 net.cpp:408] conv5_2 -> conv5_2
I0601 12:00:51.118048 13437 net.cpp:150] Setting up conv5_2
I0601 12:00:51.118103 13437 net.cpp:157] Top shape: 32 512 19 19 (5914624)
I0601 12:00:51.118119 13437 net.cpp:165] Memory required for data: 6981582880
I0601 12:00:51.118139 13437 layer_factory.hpp:77] Creating layer relu5_2
I0601 12:00:51.118160 13437 net.cpp:100] Creating Layer relu5_2
I0601 12:00:51.118175 13437 net.cpp:434] relu5_2 <- conv5_2
I0601 12:00:51.118194 13437 net.cpp:395] relu5_2 -> conv5_2 (in-place)
I0601 12:00:51.118415 13437 net.cpp:150] Setting up relu5_2
I0601 12:00:51.118439 13437 net.cpp:157] Top shape: 32 512 19 19 (5914624)
I0601 12:00:51.118453 13437 net.cpp:165] Memory required for data: 7005241376
I0601 12:00:51.118465 13437 layer_factory.hpp:77] Creating layer conv5_3
I0601 12:00:51.118489 13437 net.cpp:100] Creating Layer conv5_3
I0601 12:00:51.118502 13437 net.cpp:434] conv5_3 <- conv5_2
I0601 12:00:51.118520 13437 net.cpp:408] conv5_3 -> conv5_3
I0601 12:00:51.132659 13437 net.cpp:150] Setting up conv5_3
I0601 12:00:51.132678 13437 net.cpp:157] Top shape: 32 512 19 19 (5914624)
I0601 12:00:51.132683 13437 net.cpp:165] Memory required for data: 7028899872
I0601 12:00:51.132694 13437 layer_factory.hpp:77] Creating layer relu5_3
I0601 12:00:51.132709 13437 net.cpp:100] Creating Layer relu5_3
I0601 12:00:51.132715 13437 net.cpp:434] relu5_3 <- conv5_3
I0601 12:00:51.132724 13437 net.cpp:395] relu5_3 -> conv5_3 (in-place)
I0601 12:00:51.132897 13437 net.cpp:150] Setting up relu5_3
I0601 12:00:51.132920 13437 net.cpp:157] Top shape: 32 512 19 19 (5914624)
I0601 12:00:51.132923 13437 net.cpp:165] Memory required for data: 7052558368
I0601 12:00:51.132927 13437 layer_factory.hpp:77] Creating layer pool5
I0601 12:00:51.132935 13437 net.cpp:100] Creating Layer pool5
I0601 12:00:51.132939 13437 net.cpp:434] pool5 <- conv5_3
I0601 12:00:51.132946 13437 net.cpp:408] pool5 -> pool5
I0601 12:00:51.132999 13437 net.cpp:150] Setting up pool5
I0601 12:00:51.133013 13437 net.cpp:157] Top shape: 32 512 19 19 (5914624)
I0601 12:00:51.133016 13437 net.cpp:165] Memory required for data: 7076216864
I0601 12:00:51.133020 13437 layer_factory.hpp:77] Creating layer fc6
I0601 12:00:51.133033 13437 net.cpp:100] Creating Layer fc6
I0601 12:00:51.133038 13437 net.cpp:434] fc6 <- pool5
I0601 12:00:51.133046 13437 net.cpp:408] fc6 -> fc6
I0601 12:00:51.161684 13437 net.cpp:150] Setting up fc6
I0601 12:00:51.161703 13437 net.cpp:157] Top shape: 32 1024 19 19 (11829248)
I0601 12:00:51.161708 13437 net.cpp:165] Memory required for data: 7123533856
I0601 12:00:51.161717 13437 layer_factory.hpp:77] Creating layer relu6
I0601 12:00:51.161727 13437 net.cpp:100] Creating Layer relu6
I0601 12:00:51.161732 13437 net.cpp:434] relu6 <- fc6
I0601 12:00:51.161742 13437 net.cpp:395] relu6 -> fc6 (in-place)
I0601 12:00:51.162497 13437 net.cpp:150] Setting up relu6
I0601 12:00:51.162699 13437 net.cpp:157] Top shape: 32 1024 19 19 (11829248)
I0601 12:00:51.162708 13437 net.cpp:165] Memory required for data: 7170850848
I0601 12:00:51.162714 13437 layer_factory.hpp:77] Creating layer fc7
I0601 12:00:51.162731 13437 net.cpp:100] Creating Layer fc7
I0601 12:00:51.162737 13437 net.cpp:434] fc7 <- fc6
I0601 12:00:51.162747 13437 net.cpp:408] fc7 -> fc7
I0601 12:00:51.170095 13437 net.cpp:150] Setting up fc7
I0601 12:00:51.170114 13437 net.cpp:157] Top shape: 32 1024 19 19 (11829248)
I0601 12:00:51.170119 13437 net.cpp:165] Memory required for data: 7218167840
I0601 12:00:51.170128 13437 layer_factory.hpp:77] Creating layer relu7
I0601 12:00:51.170140 13437 net.cpp:100] Creating Layer relu7
I0601 12:00:51.170145 13437 net.cpp:434] relu7 <- fc7
I0601 12:00:51.170152 13437 net.cpp:395] relu7 -> fc7 (in-place)
I0601 12:00:51.170310 13437 net.cpp:150] Setting up relu7
I0601 12:00:51.170320 13437 net.cpp:157] Top shape: 32 1024 19 19 (11829248)
I0601 12:00:51.170323 13437 net.cpp:165] Memory required for data: 7265484832
I0601 12:00:51.170327 13437 layer_factory.hpp:77] Creating layer fc7_relu7_0_split
I0601 12:00:51.170334 13437 net.cpp:100] Creating Layer fc7_relu7_0_split
I0601 12:00:51.170339 13437 net.cpp:434] fc7_relu7_0_split <- fc7
I0601 12:00:51.170346 13437 net.cpp:408] fc7_relu7_0_split -> fc7_relu7_0_split_0
I0601 12:00:51.170356 13437 net.cpp:408] fc7_relu7_0_split -> fc7_relu7_0_split_1
I0601 12:00:51.170372 13437 net.cpp:408] fc7_relu7_0_split -> fc7_relu7_0_split_2
I0601 12:00:51.170382 13437 net.cpp:408] fc7_relu7_0_split -> fc7_relu7_0_split_3
I0601 12:00:51.170449 13437 net.cpp:150] Setting up fc7_relu7_0_split
I0601 12:00:51.170455 13437 net.cpp:157] Top shape: 32 1024 19 19 (11829248)
I0601 12:00:51.170461 13437 net.cpp:157] Top shape: 32 1024 19 19 (11829248)
I0601 12:00:51.170467 13437 net.cpp:157] Top shape: 32 1024 19 19 (11829248)
I0601 12:00:51.170472 13437 net.cpp:157] Top shape: 32 1024 19 19 (11829248)
I0601 12:00:51.170475 13437 net.cpp:165] Memory required for data: 7454752800
I0601 12:00:51.170480 13437 layer_factory.hpp:77] Creating layer conv6_1
I0601 12:00:51.170493 13437 net.cpp:100] Creating Layer conv6_1
I0601 12:00:51.170498 13437 net.cpp:434] conv6_1 <- fc7_relu7_0_split_0
I0601 12:00:51.170507 13437 net.cpp:408] conv6_1 -> conv6_1
I0601 12:00:51.175117 13437 net.cpp:150] Setting up conv6_1
I0601 12:00:51.175137 13437 net.cpp:157] Top shape: 32 256 19 19 (2957312)
I0601 12:00:51.175142 13437 net.cpp:165] Memory required for data: 7466582048
I0601 12:00:51.175153 13437 layer_factory.hpp:77] Creating layer conv6_1_relu
I0601 12:00:51.175163 13437 net.cpp:100] Creating Layer conv6_1_relu
I0601 12:00:51.175185 13437 net.cpp:434] conv6_1_relu <- conv6_1
I0601 12:00:51.175194 13437 net.cpp:395] conv6_1_relu -> conv6_1 (in-place)
I0601 12:00:51.175379 13437 net.cpp:150] Setting up conv6_1_relu
I0601 12:00:51.175390 13437 net.cpp:157] Top shape: 32 256 19 19 (2957312)
I0601 12:00:51.175393 13437 net.cpp:165] Memory required for data: 7478411296
I0601 12:00:51.175398 13437 layer_factory.hpp:77] Creating layer conv6_2
I0601 12:00:51.175411 13437 net.cpp:100] Creating Layer conv6_2
I0601 12:00:51.175416 13437 net.cpp:434] conv6_2 <- conv6_1
I0601 12:00:51.175426 13437 net.cpp:408] conv6_2 -> conv6_2
I0601 12:00:51.185825 13437 net.cpp:150] Setting up conv6_2
I0601 12:00:51.185878 13437 net.cpp:157] Top shape: 32 512 10 10 (1638400)
I0601 12:00:51.185894 13437 net.cpp:165] Memory required for data: 7484964896
I0601 12:00:51.185922 13437 layer_factory.hpp:77] Creating layer conv6_2_relu
I0601 12:00:51.185945 13437 net.cpp:100] Creating Layer conv6_2_relu
I0601 12:00:51.185959 13437 net.cpp:434] conv6_2_relu <- conv6_2
I0601 12:00:51.185976 13437 net.cpp:395] conv6_2_relu -> conv6_2 (in-place)
I0601 12:00:51.186187 13437 net.cpp:150] Setting up conv6_2_relu
I0601 12:00:51.186209 13437 net.cpp:157] Top shape: 32 512 10 10 (1638400)
I0601 12:00:51.186221 13437 net.cpp:165] Memory required for data: 7491518496
I0601 12:00:51.186233 13437 layer_factory.hpp:77] Creating layer conv6_2_conv6_2_relu_0_split
I0601 12:00:51.186249 13437 net.cpp:100] Creating Layer conv6_2_conv6_2_relu_0_split
I0601 12:00:51.186261 13437 net.cpp:434] conv6_2_conv6_2_relu_0_split <- conv6_2
I0601 12:00:51.186277 13437 net.cpp:408] conv6_2_conv6_2_relu_0_split -> conv6_2_conv6_2_relu_0_split_0
I0601 12:00:51.186296 13437 net.cpp:408] conv6_2_conv6_2_relu_0_split -> conv6_2_conv6_2_relu_0_split_1
I0601 12:00:51.186312 13437 net.cpp:408] conv6_2_conv6_2_relu_0_split -> conv6_2_conv6_2_relu_0_split_2
I0601 12:00:51.186329 13437 net.cpp:408] conv6_2_conv6_2_relu_0_split -> conv6_2_conv6_2_relu_0_split_3
I0601 12:00:51.186419 13437 net.cpp:150] Setting up conv6_2_conv6_2_relu_0_split
I0601 12:00:51.186429 13437 net.cpp:157] Top shape: 32 512 10 10 (1638400)
I0601 12:00:51.186434 13437 net.cpp:157] Top shape: 32 512 10 10 (1638400)
I0601 12:00:51.186439 13437 net.cpp:157] Top shape: 32 512 10 10 (1638400)
I0601 12:00:51.186444 13437 net.cpp:157] Top shape: 32 512 10 10 (1638400)
I0601 12:00:51.186447 13437 net.cpp:165] Memory required for data: 7517732896
I0601 12:00:51.186452 13437 layer_factory.hpp:77] Creating layer conv7_1
I0601 12:00:51.186465 13437 net.cpp:100] Creating Layer conv7_1
I0601 12:00:51.186480 13437 net.cpp:434] conv7_1 <- conv6_2_conv6_2_relu_0_split_0
I0601 12:00:51.186496 13437 net.cpp:408] conv7_1 -> conv7_1
I0601 12:00:51.188274 13437 net.cpp:150] Setting up conv7_1
I0601 12:00:51.188318 13437 net.cpp:157] Top shape: 32 128 10 10 (409600)
I0601 12:00:51.188330 13437 net.cpp:165] Memory required for data: 7519371296
I0601 12:00:51.188350 13437 layer_factory.hpp:77] Creating layer conv7_1_relu
I0601 12:00:51.188370 13437 net.cpp:100] Creating Layer conv7_1_relu
I0601 12:00:51.188385 13437 net.cpp:434] conv7_1_relu <- conv7_1
I0601 12:00:51.188400 13437 net.cpp:395] conv7_1_relu -> conv7_1 (in-place)
I0601 12:00:51.188597 13437 net.cpp:150] Setting up conv7_1_relu
I0601 12:00:51.188611 13437 net.cpp:157] Top shape: 32 128 10 10 (409600)
I0601 12:00:51.188613 13437 net.cpp:165] Memory required for data: 7521009696
I0601 12:00:51.188617 13437 layer_factory.hpp:77] Creating layer conv7_2
I0601 12:00:51.188633 13437 net.cpp:100] Creating Layer conv7_2
I0601 12:00:51.188640 13437 net.cpp:434] conv7_2 <- conv7_1
I0601 12:00:51.188659 13437 net.cpp:408] conv7_2 -> conv7_2
I0601 12:00:51.192500 13437 net.cpp:150] Setting up conv7_2
I0601 12:00:51.192517 13437 net.cpp:157] Top shape: 32 256 5 5 (204800)
I0601 12:00:51.192520 13437 net.cpp:165] Memory required for data: 7521828896
I0601 12:00:51.192531 13437 layer_factory.hpp:77] Creating layer conv7_2_relu
I0601 12:00:51.192540 13437 net.cpp:100] Creating Layer conv7_2_relu
I0601 12:00:51.192545 13437 net.cpp:434] conv7_2_relu <- conv7_2
I0601 12:00:51.192567 13437 net.cpp:395] conv7_2_relu -> conv7_2 (in-place)
I0601 12:00:51.192759 13437 net.cpp:150] Setting up conv7_2_relu
I0601 12:00:51.192766 13437 net.cpp:157] Top shape: 32 256 5 5 (204800)
I0601 12:00:51.192770 13437 net.cpp:165] Memory required for data: 7522648096
I0601 12:00:51.192772 13437 layer_factory.hpp:77] Creating layer conv7_2_conv7_2_relu_0_split
I0601 12:00:51.192780 13437 net.cpp:100] Creating Layer conv7_2_conv7_2_relu_0_split
I0601 12:00:51.192783 13437 net.cpp:434] conv7_2_conv7_2_relu_0_split <- conv7_2
I0601 12:00:51.192791 13437 net.cpp:408] conv7_2_conv7_2_relu_0_split -> conv7_2_conv7_2_relu_0_split_0
I0601 12:00:51.192800 13437 net.cpp:408] conv7_2_conv7_2_relu_0_split -> conv7_2_conv7_2_relu_0_split_1
I0601 12:00:51.192808 13437 net.cpp:408] conv7_2_conv7_2_relu_0_split -> conv7_2_conv7_2_relu_0_split_2
I0601 12:00:51.192816 13437 net.cpp:408] conv7_2_conv7_2_relu_0_split -> conv7_2_conv7_2_relu_0_split_3
I0601 12:00:51.192899 13437 net.cpp:150] Setting up conv7_2_conv7_2_relu_0_split
I0601 12:00:51.192909 13437 net.cpp:157] Top shape: 32 256 5 5 (204800)
I0601 12:00:51.192914 13437 net.cpp:157] Top shape: 32 256 5 5 (204800)
I0601 12:00:51.192919 13437 net.cpp:157] Top shape: 32 256 5 5 (204800)
I0601 12:00:51.192924 13437 net.cpp:157] Top shape: 32 256 5 5 (204800)
I0601 12:00:51.192929 13437 net.cpp:165] Memory required for data: 7525924896
I0601 12:00:51.192932 13437 layer_factory.hpp:77] Creating layer conv8_1
I0601 12:00:51.192945 13437 net.cpp:100] Creating Layer conv8_1
I0601 12:00:51.192961 13437 net.cpp:434] conv8_1 <- conv7_2_conv7_2_relu_0_split_0
I0601 12:00:51.192981 13437 net.cpp:408] conv8_1 -> conv8_1
I0601 12:00:51.194475 13437 net.cpp:150] Setting up conv8_1
I0601 12:00:51.194492 13437 net.cpp:157] Top shape: 32 128 5 5 (102400)
I0601 12:00:51.194496 13437 net.cpp:165] Memory required for data: 7526334496
I0601 12:00:51.194506 13437 layer_factory.hpp:77] Creating layer conv8_1_relu
I0601 12:00:51.194768 13437 net.cpp:100] Creating Layer conv8_1_relu
I0601 12:00:51.194778 13437 net.cpp:434] conv8_1_relu <- conv8_1
I0601 12:00:51.194788 13437 net.cpp:395] conv8_1_relu -> conv8_1 (in-place)
I0601 12:00:51.195665 13437 net.cpp:150] Setting up conv8_1_relu
I0601 12:00:51.195680 13437 net.cpp:157] Top shape: 32 128 5 5 (102400)
I0601 12:00:51.195685 13437 net.cpp:165] Memory required for data: 7526744096
I0601 12:00:51.195689 13437 layer_factory.hpp:77] Creating layer conv8_2
I0601 12:00:51.195704 13437 net.cpp:100] Creating Layer conv8_2
I0601 12:00:51.195710 13437 net.cpp:434] conv8_2 <- conv8_1
I0601 12:00:51.195720 13437 net.cpp:408] conv8_2 -> conv8_2
I0601 12:00:51.199720 13437 net.cpp:150] Setting up conv8_2
I0601 12:00:51.199739 13437 net.cpp:157] Top shape: 32 256 3 3 (73728)
I0601 12:00:51.199743 13437 net.cpp:165] Memory required for data: 7527039008
I0601 12:00:51.199753 13437 layer_factory.hpp:77] Creating layer conv8_2_relu
I0601 12:00:51.199761 13437 net.cpp:100] Creating Layer conv8_2_relu
I0601 12:00:51.199767 13437 net.cpp:434] conv8_2_relu <- conv8_2
I0601 12:00:51.199774 13437 net.cpp:395] conv8_2_relu -> conv8_2 (in-place)
I0601 12:00:51.199954 13437 net.cpp:150] Setting up conv8_2_relu
I0601 12:00:51.199980 13437 net.cpp:157] Top shape: 32 256 3 3 (73728)
I0601 12:00:51.199993 13437 net.cpp:165] Memory required for data: 7527333920
I0601 12:00:51.200006 13437 layer_factory.hpp:77] Creating layer conv8_2_conv8_2_relu_0_split
I0601 12:00:51.200021 13437 net.cpp:100] Creating Layer conv8_2_conv8_2_relu_0_split
I0601 12:00:51.200036 13437 net.cpp:434] conv8_2_conv8_2_relu_0_split <- conv8_2
I0601 12:00:51.200052 13437 net.cpp:408] conv8_2_conv8_2_relu_0_split -> conv8_2_conv8_2_relu_0_split_0
I0601 12:00:51.200070 13437 net.cpp:408] conv8_2_conv8_2_relu_0_split -> conv8_2_conv8_2_relu_0_split_1
I0601 12:00:51.200088 13437 net.cpp:408] conv8_2_conv8_2_relu_0_split -> conv8_2_conv8_2_relu_0_split_2
I0601 12:00:51.200104 13437 net.cpp:408] conv8_2_conv8_2_relu_0_split -> conv8_2_conv8_2_relu_0_split_3
I0601 12:00:51.200213 13437 net.cpp:150] Setting up conv8_2_conv8_2_relu_0_split
I0601 12:00:51.200234 13437 net.cpp:157] Top shape: 32 256 3 3 (73728)
I0601 12:00:51.200248 13437 net.cpp:157] Top shape: 32 256 3 3 (73728)
I0601 12:00:51.200260 13437 net.cpp:157] Top shape: 32 256 3 3 (73728)
I0601 12:00:51.200274 13437 net.cpp:157] Top shape: 32 256 3 3 (73728)
I0601 12:00:51.200286 13437 net.cpp:165] Memory required for data: 7528513568
I0601 12:00:51.200299 13437 layer_factory.hpp:77] Creating layer conv9_1
I0601 12:00:51.200320 13437 net.cpp:100] Creating Layer conv9_1
I0601 12:00:51.200328 13437 net.cpp:434] conv9_1 <- conv8_2_conv8_2_relu_0_split_0
I0601 12:00:51.200337 13437 net.cpp:408] conv9_1 -> conv9_1
I0601 12:00:51.202062 13437 net.cpp:150] Setting up conv9_1
I0601 12:00:51.202085 13437 net.cpp:157] Top shape: 32 128 3 3 (36864)
I0601 12:00:51.202090 13437 net.cpp:165] Memory required for data: 7528661024
I0601 12:00:51.202100 13437 layer_factory.hpp:77] Creating layer conv9_1_relu
I0601 12:00:51.202108 13437 net.cpp:100] Creating Layer conv9_1_relu
I0601 12:00:51.202113 13437 net.cpp:434] conv9_1_relu <- conv9_1
I0601 12:00:51.202122 13437 net.cpp:395] conv9_1_relu -> conv9_1 (in-place)
I0601 12:00:51.202318 13437 net.cpp:150] Setting up conv9_1_relu
I0601 12:00:51.202342 13437 net.cpp:157] Top shape: 32 128 3 3 (36864)
I0601 12:00:51.202355 13437 net.cpp:165] Memory required for data: 7528808480
I0601 12:00:51.202368 13437 layer_factory.hpp:77] Creating layer conv9_2
I0601 12:00:51.202389 13437 net.cpp:100] Creating Layer conv9_2
I0601 12:00:51.202395 13437 net.cpp:434] conv9_2 <- conv9_1
I0601 12:00:51.202404 13437 net.cpp:408] conv9_2 -> conv9_2
I0601 12:00:51.206290 13437 net.cpp:150] Setting up conv9_2
I0601 12:00:51.206310 13437 net.cpp:157] Top shape: 32 256 1 1 (8192)
I0601 12:00:51.206313 13437 net.cpp:165] Memory required for data: 7528841248
I0601 12:00:51.206322 13437 layer_factory.hpp:77] Creating layer conv9_2_relu
I0601 12:00:51.206334 13437 net.cpp:100] Creating Layer conv9_2_relu
I0601 12:00:51.206341 13437 net.cpp:434] conv9_2_relu <- conv9_2
I0601 12:00:51.206348 13437 net.cpp:395] conv9_2_relu -> conv9_2 (in-place)
I0601 12:00:51.206516 13437 net.cpp:150] Setting up conv9_2_relu
I0601 12:00:51.206527 13437 net.cpp:157] Top shape: 32 256 1 1 (8192)
I0601 12:00:51.206532 13437 net.cpp:165] Memory required for data: 7528874016
I0601 12:00:51.206535 13437 layer_factory.hpp:77] Creating layer conv9_2_conv9_2_relu_0_split
I0601 12:00:51.206542 13437 net.cpp:100] Creating Layer conv9_2_conv9_2_relu_0_split
I0601 12:00:51.206548 13437 net.cpp:434] conv9_2_conv9_2_relu_0_split <- conv9_2
I0601 12:00:51.206555 13437 net.cpp:408] conv9_2_conv9_2_relu_0_split -> conv9_2_conv9_2_relu_0_split_0
I0601 12:00:51.206564 13437 net.cpp:408] conv9_2_conv9_2_relu_0_split -> conv9_2_conv9_2_relu_0_split_1
I0601 12:00:51.206573 13437 net.cpp:408] conv9_2_conv9_2_relu_0_split -> conv9_2_conv9_2_relu_0_split_2
I0601 12:00:51.206635 13437 net.cpp:150] Setting up conv9_2_conv9_2_relu_0_split
I0601 12:00:51.206643 13437 net.cpp:157] Top shape: 32 256 1 1 (8192)
I0601 12:00:51.206648 13437 net.cpp:157] Top shape: 32 256 1 1 (8192)
I0601 12:00:51.206653 13437 net.cpp:157] Top shape: 32 256 1 1 (8192)
I0601 12:00:51.206657 13437 net.cpp:165] Memory required for data: 7528972320
I0601 12:00:51.206661 13437 layer_factory.hpp:77] Creating layer conv4_3_norm
I0601 12:00:51.206668 13437 net.cpp:100] Creating Layer conv4_3_norm
I0601 12:00:51.206673 13437 net.cpp:434] conv4_3_norm <- conv4_3_relu4_3_0_split_1
I0601 12:00:51.206681 13437 net.cpp:408] conv4_3_norm -> conv4_3_norm
I0601 12:00:51.206852 13437 net.cpp:150] Setting up conv4_3_norm
I0601 12:00:51.206873 13437 net.cpp:157] Top shape: 32 512 38 38 (23658496)
I0601 12:00:51.206877 13437 net.cpp:165] Memory required for data: 7623606304
I0601 12:00:51.206885 13437 layer_factory.hpp:77] Creating layer conv4_3_norm_conv4_3_norm_0_split
I0601 12:00:51.206892 13437 net.cpp:100] Creating Layer conv4_3_norm_conv4_3_norm_0_split
I0601 12:00:51.206897 13437 net.cpp:434] conv4_3_norm_conv4_3_norm_0_split <- conv4_3_norm
I0601 12:00:51.206915 13437 net.cpp:408] conv4_3_norm_conv4_3_norm_0_split -> conv4_3_norm_conv4_3_norm_0_split_0
I0601 12:00:51.206933 13437 net.cpp:408] conv4_3_norm_conv4_3_norm_0_split -> conv4_3_norm_conv4_3_norm_0_split_1
I0601 12:00:51.206951 13437 net.cpp:408] conv4_3_norm_conv4_3_norm_0_split -> conv4_3_norm_conv4_3_norm_0_split_2
I0601 12:00:51.207012 13437 net.cpp:150] Setting up conv4_3_norm_conv4_3_norm_0_split
I0601 12:00:51.207020 13437 net.cpp:157] Top shape: 32 512 38 38 (23658496)
I0601 12:00:51.207026 13437 net.cpp:157] Top shape: 32 512 38 38 (23658496)
I0601 12:00:51.207031 13437 net.cpp:157] Top shape: 32 512 38 38 (23658496)
I0601 12:00:51.207036 13437 net.cpp:165] Memory required for data: 7907508256
I0601 12:00:51.207039 13437 layer_factory.hpp:77] Creating layer conv4_3_norm_mbox_loc
I0601 12:00:51.207051 13437 net.cpp:100] Creating Layer conv4_3_norm_mbox_loc
I0601 12:00:51.207057 13437 net.cpp:434] conv4_3_norm_mbox_loc <- conv4_3_norm_conv4_3_norm_0_split_0
I0601 12:00:51.207065 13437 net.cpp:408] conv4_3_norm_mbox_loc -> conv4_3_norm_mbox_loc
I0601 12:00:51.209311 13437 net.cpp:150] Setting up conv4_3_norm_mbox_loc
I0601 12:00:51.209328 13437 net.cpp:157] Top shape: 32 16 38 38 (739328)
I0601 12:00:51.209336 13437 net.cpp:165] Memory required for data: 7910465568
I0601 12:00:51.209347 13437 layer_factory.hpp:77] Creating layer conv4_3_norm_mbox_loc_perm
I0601 12:00:51.209357 13437 net.cpp:100] Creating Layer conv4_3_norm_mbox_loc_perm
I0601 12:00:51.209363 13437 net.cpp:434] conv4_3_norm_mbox_loc_perm <- conv4_3_norm_mbox_loc
I0601 12:00:51.209373 13437 net.cpp:408] conv4_3_norm_mbox_loc_perm -> conv4_3_norm_mbox_loc_perm
I0601 12:00:51.209492 13437 net.cpp:150] Setting up conv4_3_norm_mbox_loc_perm
I0601 12:00:51.209501 13437 net.cpp:157] Top shape: 32 38 38 16 (739328)
I0601 12:00:51.209504 13437 net.cpp:165] Memory required for data: 7913422880
I0601 12:00:51.209508 13437 layer_factory.hpp:77] Creating layer conv4_3_norm_mbox_loc_flat
I0601 12:00:51.209517 13437 net.cpp:100] Creating Layer conv4_3_norm_mbox_loc_flat
I0601 12:00:51.209522 13437 net.cpp:434] conv4_3_norm_mbox_loc_flat <- conv4_3_norm_mbox_loc_perm
I0601 12:00:51.209528 13437 net.cpp:408] conv4_3_norm_mbox_loc_flat -> conv4_3_norm_mbox_loc_flat
I0601 12:00:51.209570 13437 net.cpp:150] Setting up conv4_3_norm_mbox_loc_flat
I0601 12:00:51.209590 13437 net.cpp:157] Top shape: 32 23104 (739328)
I0601 12:00:51.209604 13437 net.cpp:165] Memory required for data: 7916380192
I0601 12:00:51.209615 13437 layer_factory.hpp:77] Creating layer conv4_3_norm_mbox_conf
I0601 12:00:51.209645 13437 net.cpp:100] Creating Layer conv4_3_norm_mbox_conf
I0601 12:00:51.209659 13437 net.cpp:434] conv4_3_norm_mbox_conf <- conv4_3_norm_conv4_3_norm_0_split_1
I0601 12:00:51.209676 13437 net.cpp:408] conv4_3_norm_mbox_conf -> conv4_3_norm_mbox_conf
I0601 12:00:51.212163 13437 net.cpp:150] Setting up conv4_3_norm_mbox_conf
I0601 12:00:51.212208 13437 net.cpp:157] Top shape: 32 16 38 38 (739328)
I0601 12:00:51.212236 13437 net.cpp:165] Memory required for data: 7919337504
I0601 12:00:51.212257 13437 layer_factory.hpp:77] Creating layer conv4_3_norm_mbox_conf_perm
I0601 12:00:51.212280 13437 net.cpp:100] Creating Layer conv4_3_norm_mbox_conf_perm
I0601 12:00:51.212296 13437 net.cpp:434] conv4_3_norm_mbox_conf_perm <- conv4_3_norm_mbox_conf
I0601 12:00:51.212313 13437 net.cpp:408] conv4_3_norm_mbox_conf_perm -> conv4_3_norm_mbox_conf_perm
I0601 12:00:51.212441 13437 net.cpp:150] Setting up conv4_3_norm_mbox_conf_perm
I0601 12:00:51.212450 13437 net.cpp:157] Top shape: 32 38 38 16 (739328)
I0601 12:00:51.212455 13437 net.cpp:165] Memory required for data: 7922294816
I0601 12:00:51.212458 13437 layer_factory.hpp:77] Creating layer conv4_3_norm_mbox_conf_flat
I0601 12:00:51.212466 13437 net.cpp:100] Creating Layer conv4_3_norm_mbox_conf_flat
I0601 12:00:51.212471 13437 net.cpp:434] conv4_3_norm_mbox_conf_flat <- conv4_3_norm_mbox_conf_perm
I0601 12:00:51.212479 13437 net.cpp:408] conv4_3_norm_mbox_conf_flat -> conv4_3_norm_mbox_conf_flat
I0601 12:00:51.212522 13437 net.cpp:150] Setting up conv4_3_norm_mbox_conf_flat
I0601 12:00:51.212528 13437 net.cpp:157] Top shape: 32 23104 (739328)
I0601 12:00:51.212532 13437 net.cpp:165] Memory required for data: 7925252128
I0601 12:00:51.212537 13437 layer_factory.hpp:77] Creating layer conv4_3_norm_mbox_priorbox
I0601 12:00:51.212544 13437 net.cpp:100] Creating Layer conv4_3_norm_mbox_priorbox
I0601 12:00:51.212548 13437 net.cpp:434] conv4_3_norm_mbox_priorbox <- conv4_3_norm_conv4_3_norm_0_split_2
I0601 12:00:51.212554 13437 net.cpp:434] conv4_3_norm_mbox_priorbox <- data_data_0_split_1
I0601 12:00:51.212563 13437 net.cpp:408] conv4_3_norm_mbox_priorbox -> conv4_3_norm_mbox_priorbox
I0601 12:00:51.212600 13437 net.cpp:150] Setting up conv4_3_norm_mbox_priorbox
I0601 12:00:51.212608 13437 net.cpp:157] Top shape: 1 2 23104 (46208)
I0601 12:00:51.212611 13437 net.cpp:165] Memory required for data: 7925436960
I0601 12:00:51.212615 13437 layer_factory.hpp:77] Creating layer fc7_mbox_loc
I0601 12:00:51.212630 13437 net.cpp:100] Creating Layer fc7_mbox_loc
I0601 12:00:51.212636 13437 net.cpp:434] fc7_mbox_loc <- fc7_relu7_0_split_1
I0601 12:00:51.212643 13437 net.cpp:408] fc7_mbox_loc -> fc7_mbox_loc
I0601 12:00:51.215620 13437 net.cpp:150] Setting up fc7_mbox_loc
I0601 12:00:51.215638 13437 net.cpp:157] Top shape: 32 24 19 19 (277248)
I0601 12:00:51.215642 13437 net.cpp:165] Memory required for data: 7926545952
I0601 12:00:51.215651 13437 layer_factory.hpp:77] Creating layer fc7_mbox_loc_perm
I0601 12:00:51.215662 13437 net.cpp:100] Creating Layer fc7_mbox_loc_perm
I0601 12:00:51.215667 13437 net.cpp:434] fc7_mbox_loc_perm <- fc7_mbox_loc
I0601 12:00:51.215675 13437 net.cpp:408] fc7_mbox_loc_perm -> fc7_mbox_loc_perm
I0601 12:00:51.215816 13437 net.cpp:150] Setting up fc7_mbox_loc_perm
I0601 12:00:51.215838 13437 net.cpp:157] Top shape: 32 19 19 24 (277248)
I0601 12:00:51.215852 13437 net.cpp:165] Memory required for data: 7927654944
I0601 12:00:51.215864 13437 layer_factory.hpp:77] Creating layer fc7_mbox_loc_flat
I0601 12:00:51.215879 13437 net.cpp:100] Creating Layer fc7_mbox_loc_flat
I0601 12:00:51.215893 13437 net.cpp:434] fc7_mbox_loc_flat <- fc7_mbox_loc_perm
I0601 12:00:51.215911 13437 net.cpp:408] fc7_mbox_loc_flat -> fc7_mbox_loc_flat
I0601 12:00:51.215955 13437 net.cpp:150] Setting up fc7_mbox_loc_flat
I0601 12:00:51.215975 13437 net.cpp:157] Top shape: 32 8664 (277248)
I0601 12:00:51.215986 13437 net.cpp:165] Memory required for data: 7928763936
I0601 12:00:51.216001 13437 layer_factory.hpp:77] Creating layer fc7_mbox_conf
I0601 12:00:51.216020 13437 net.cpp:100] Creating Layer fc7_mbox_conf
I0601 12:00:51.216033 13437 net.cpp:434] fc7_mbox_conf <- fc7_relu7_0_split_2
I0601 12:00:51.216050 13437 net.cpp:408] fc7_mbox_conf -> fc7_mbox_conf
I0601 12:00:51.219622 13437 net.cpp:150] Setting up fc7_mbox_conf
I0601 12:00:51.219667 13437 net.cpp:157] Top shape: 32 24 19 19 (277248)
I0601 12:00:51.219682 13437 net.cpp:165] Memory required for data: 7929872928
I0601 12:00:51.219702 13437 layer_factory.hpp:77] Creating layer fc7_mbox_conf_perm
I0601 12:00:51.219722 13437 net.cpp:100] Creating Layer fc7_mbox_conf_perm
I0601 12:00:51.219739 13437 net.cpp:434] fc7_mbox_conf_perm <- fc7_mbox_conf
I0601 12:00:51.219758 13437 net.cpp:408] fc7_mbox_conf_perm -> fc7_mbox_conf_perm
I0601 12:00:51.219928 13437 net.cpp:150] Setting up fc7_mbox_conf_perm
I0601 12:00:51.219951 13437 net.cpp:157] Top shape: 32 19 19 24 (277248)
I0601 12:00:51.219964 13437 net.cpp:165] Memory required for data: 7930981920
I0601 12:00:51.219975 13437 layer_factory.hpp:77] Creating layer fc7_mbox_conf_flat
I0601 12:00:51.219990 13437 net.cpp:100] Creating Layer fc7_mbox_conf_flat
I0601 12:00:51.220003 13437 net.cpp:434] fc7_mbox_conf_flat <- fc7_mbox_conf_perm
I0601 12:00:51.220018 13437 net.cpp:408] fc7_mbox_conf_flat -> fc7_mbox_conf_flat
I0601 12:00:51.220064 13437 net.cpp:150] Setting up fc7_mbox_conf_flat
I0601 12:00:51.220083 13437 net.cpp:157] Top shape: 32 8664 (277248)
I0601 12:00:51.220103 13437 net.cpp:165] Memory required for data: 7932090912
I0601 12:00:51.220126 13437 layer_factory.hpp:77] Creating layer fc7_mbox_priorbox
I0601 12:00:51.220144 13437 net.cpp:100] Creating Layer fc7_mbox_priorbox
I0601 12:00:51.220157 13437 net.cpp:434] fc7_mbox_priorbox <- fc7_relu7_0_split_3
I0601 12:00:51.220172 13437 net.cpp:434] fc7_mbox_priorbox <- data_data_0_split_2
I0601 12:00:51.220191 13437 net.cpp:408] fc7_mbox_priorbox -> fc7_mbox_priorbox
I0601 12:00:51.220237 13437 net.cpp:150] Setting up fc7_mbox_priorbox
I0601 12:00:51.220255 13437 net.cpp:157] Top shape: 1 2 8664 (17328)
I0601 12:00:51.220268 13437 net.cpp:165] Memory required for data: 7932160224
I0601 12:00:51.220278 13437 layer_factory.hpp:77] Creating layer conv6_2_mbox_loc
I0601 12:00:51.220299 13437 net.cpp:100] Creating Layer conv6_2_mbox_loc
I0601 12:00:51.220314 13437 net.cpp:434] conv6_2_mbox_loc <- conv6_2_conv6_2_relu_0_split_1
I0601 12:00:51.220329 13437 net.cpp:408] conv6_2_mbox_loc -> conv6_2_mbox_loc
I0601 12:00:51.223289 13437 net.cpp:150] Setting up conv6_2_mbox_loc
I0601 12:00:51.223335 13437 net.cpp:157] Top shape: 32 24 10 10 (76800)
I0601 12:00:51.223348 13437 net.cpp:165] Memory required for data: 7932467424
I0601 12:00:51.223366 13437 layer_factory.hpp:77] Creating layer conv6_2_mbox_loc_perm
I0601 12:00:51.223389 13437 net.cpp:100] Creating Layer conv6_2_mbox_loc_perm
I0601 12:00:51.223404 13437 net.cpp:434] conv6_2_mbox_loc_perm <- conv6_2_mbox_loc
I0601 12:00:51.223422 13437 net.cpp:408] conv6_2_mbox_loc_perm -> conv6_2_mbox_loc_perm
I0601 12:00:51.223575 13437 net.cpp:150] Setting up conv6_2_mbox_loc_perm
I0601 12:00:51.223585 13437 net.cpp:157] Top shape: 32 10 10 24 (76800)
I0601 12:00:51.223589 13437 net.cpp:165] Memory required for data: 7932774624
I0601 12:00:51.223593 13437 layer_factory.hpp:77] Creating layer conv6_2_mbox_loc_flat
I0601 12:00:51.223600 13437 net.cpp:100] Creating Layer conv6_2_mbox_loc_flat
I0601 12:00:51.223604 13437 net.cpp:434] conv6_2_mbox_loc_flat <- conv6_2_mbox_loc_perm
I0601 12:00:51.223614 13437 net.cpp:408] conv6_2_mbox_loc_flat -> conv6_2_mbox_loc_flat
I0601 12:00:51.223654 13437 net.cpp:150] Setting up conv6_2_mbox_loc_flat
I0601 12:00:51.223664 13437 net.cpp:157] Top shape: 32 2400 (76800)
I0601 12:00:51.223667 13437 net.cpp:165] Memory required for data: 7933081824
I0601 12:00:51.223671 13437 layer_factory.hpp:77] Creating layer conv6_2_mbox_conf
I0601 12:00:51.223683 13437 net.cpp:100] Creating Layer conv6_2_mbox_conf
I0601 12:00:51.223697 13437 net.cpp:434] conv6_2_mbox_conf <- conv6_2_conv6_2_relu_0_split_2
I0601 12:00:51.223709 13437 net.cpp:408] conv6_2_mbox_conf -> conv6_2_mbox_conf
I0601 12:00:51.226182 13437 net.cpp:150] Setting up conv6_2_mbox_conf
I0601 12:00:51.226225 13437 net.cpp:157] Top shape: 32 24 10 10 (76800)
I0601 12:00:51.226239 13437 net.cpp:165] Memory required for data: 7933389024
I0601 12:00:51.226258 13437 layer_factory.hpp:77] Creating layer conv6_2_mbox_conf_perm
I0601 12:00:51.226281 13437 net.cpp:100] Creating Layer conv6_2_mbox_conf_perm
I0601 12:00:51.226297 13437 net.cpp:434] conv6_2_mbox_conf_perm <- conv6_2_mbox_conf
I0601 12:00:51.226315 13437 net.cpp:408] conv6_2_mbox_conf_perm -> conv6_2_mbox_conf_perm
I0601 12:00:51.226455 13437 net.cpp:150] Setting up conv6_2_mbox_conf_perm
I0601 12:00:51.226465 13437 net.cpp:157] Top shape: 32 10 10 24 (76800)
I0601 12:00:51.226469 13437 net.cpp:165] Memory required for data: 7933696224
I0601 12:00:51.226474 13437 layer_factory.hpp:77] Creating layer conv6_2_mbox_conf_flat
I0601 12:00:51.226480 13437 net.cpp:100] Creating Layer conv6_2_mbox_conf_flat
I0601 12:00:51.226485 13437 net.cpp:434] conv6_2_mbox_conf_flat <- conv6_2_mbox_conf_perm
I0601 12:00:51.226492 13437 net.cpp:408] conv6_2_mbox_conf_flat -> conv6_2_mbox_conf_flat
I0601 12:00:51.226680 13437 net.cpp:150] Setting up conv6_2_mbox_conf_flat
I0601 12:00:51.226701 13437 net.cpp:157] Top shape: 32 2400 (76800)
I0601 12:00:51.226714 13437 net.cpp:165] Memory required for data: 7934003424
I0601 12:00:51.226727 13437 layer_factory.hpp:77] Creating layer conv6_2_mbox_priorbox
I0601 12:00:51.226755 13437 net.cpp:100] Creating Layer conv6_2_mbox_priorbox
I0601 12:00:51.226769 13437 net.cpp:434] conv6_2_mbox_priorbox <- conv6_2_conv6_2_relu_0_split_3
I0601 12:00:51.226784 13437 net.cpp:434] conv6_2_mbox_priorbox <- data_data_0_split_3
I0601 12:00:51.226802 13437 net.cpp:408] conv6_2_mbox_priorbox -> conv6_2_mbox_priorbox
I0601 12:00:51.226860 13437 net.cpp:150] Setting up conv6_2_mbox_priorbox
I0601 12:00:51.226868 13437 net.cpp:157] Top shape: 1 2 2400 (4800)
I0601 12:00:51.226872 13437 net.cpp:165] Memory required for data: 7934022624
I0601 12:00:51.226876 13437 layer_factory.hpp:77] Creating layer conv7_2_mbox_loc
I0601 12:00:51.226891 13437 net.cpp:100] Creating Layer conv7_2_mbox_loc
I0601 12:00:51.226904 13437 net.cpp:434] conv7_2_mbox_loc <- conv7_2_conv7_2_relu_0_split_1
I0601 12:00:51.226922 13437 net.cpp:408] conv7_2_mbox_loc -> conv7_2_mbox_loc
I0601 12:00:51.228579 13437 net.cpp:150] Setting up conv7_2_mbox_loc
I0601 12:00:51.228621 13437 net.cpp:157] Top shape: 32 24 5 5 (19200)
I0601 12:00:51.228636 13437 net.cpp:165] Memory required for data: 7934099424
I0601 12:00:51.228657 13437 layer_factory.hpp:77] Creating layer conv7_2_mbox_loc_perm
I0601 12:00:51.228677 13437 net.cpp:100] Creating Layer conv7_2_mbox_loc_perm
I0601 12:00:51.228693 13437 net.cpp:434] conv7_2_mbox_loc_perm <- conv7_2_mbox_loc
I0601 12:00:51.228709 13437 net.cpp:408] conv7_2_mbox_loc_perm -> conv7_2_mbox_loc_perm
I0601 12:00:51.228881 13437 net.cpp:150] Setting up conv7_2_mbox_loc_perm
I0601 12:00:51.228904 13437 net.cpp:157] Top shape: 32 5 5 24 (19200)
I0601 12:00:51.228916 13437 net.cpp:165] Memory required for data: 7934176224
I0601 12:00:51.228929 13437 layer_factory.hpp:77] Creating layer conv7_2_mbox_loc_flat
I0601 12:00:51.228945 13437 net.cpp:100] Creating Layer conv7_2_mbox_loc_flat
I0601 12:00:51.228960 13437 net.cpp:434] conv7_2_mbox_loc_flat <- conv7_2_mbox_loc_perm
I0601 12:00:51.228976 13437 net.cpp:408] conv7_2_mbox_loc_flat -> conv7_2_mbox_loc_flat
I0601 12:00:51.229013 13437 net.cpp:150] Setting up conv7_2_mbox_loc_flat
I0601 12:00:51.229022 13437 net.cpp:157] Top shape: 32 600 (19200)
I0601 12:00:51.229025 13437 net.cpp:165] Memory required for data: 7934253024
I0601 12:00:51.229028 13437 layer_factory.hpp:77] Creating layer conv7_2_mbox_conf
I0601 12:00:51.229041 13437 net.cpp:100] Creating Layer conv7_2_mbox_conf
I0601 12:00:51.229054 13437 net.cpp:434] conv7_2_mbox_conf <- conv7_2_conv7_2_relu_0_split_2
I0601 12:00:51.229073 13437 net.cpp:408] conv7_2_mbox_conf -> conv7_2_mbox_conf
I0601 12:00:51.231204 13437 net.cpp:150] Setting up conv7_2_mbox_conf
I0601 12:00:51.231222 13437 net.cpp:157] Top shape: 32 24 5 5 (19200)
I0601 12:00:51.231226 13437 net.cpp:165] Memory required for data: 7934329824
I0601 12:00:51.231236 13437 layer_factory.hpp:77] Creating layer conv7_2_mbox_conf_perm
I0601 12:00:51.231261 13437 net.cpp:100] Creating Layer conv7_2_mbox_conf_perm
I0601 12:00:51.231267 13437 net.cpp:434] conv7_2_mbox_conf_perm <- conv7_2_mbox_conf
I0601 12:00:51.231276 13437 net.cpp:408] conv7_2_mbox_conf_perm -> conv7_2_mbox_conf_perm
I0601 12:00:51.231405 13437 net.cpp:150] Setting up conv7_2_mbox_conf_perm
I0601 12:00:51.231415 13437 net.cpp:157] Top shape: 32 5 5 24 (19200)
I0601 12:00:51.231418 13437 net.cpp:165] Memory required for data: 7934406624
I0601 12:00:51.231422 13437 layer_factory.hpp:77] Creating layer conv7_2_mbox_conf_flat
I0601 12:00:51.231444 13437 net.cpp:100] Creating Layer conv7_2_mbox_conf_flat
I0601 12:00:51.231462 13437 net.cpp:434] conv7_2_mbox_conf_flat <- conv7_2_mbox_conf_perm
I0601 12:00:51.231472 13437 net.cpp:408] conv7_2_mbox_conf_flat -> conv7_2_mbox_conf_flat
I0601 12:00:51.231504 13437 net.cpp:150] Setting up conv7_2_mbox_conf_flat
I0601 12:00:51.231510 13437 net.cpp:157] Top shape: 32 600 (19200)
I0601 12:00:51.231513 13437 net.cpp:165] Memory required for data: 7934483424
I0601 12:00:51.231518 13437 layer_factory.hpp:77] Creating layer conv7_2_mbox_priorbox
I0601 12:00:51.231528 13437 net.cpp:100] Creating Layer conv7_2_mbox_priorbox
I0601 12:00:51.231534 13437 net.cpp:434] conv7_2_mbox_priorbox <- conv7_2_conv7_2_relu_0_split_3
I0601 12:00:51.231559 13437 net.cpp:434] conv7_2_mbox_priorbox <- data_data_0_split_4
I0601 12:00:51.231567 13437 net.cpp:408] conv7_2_mbox_priorbox -> conv7_2_mbox_priorbox
I0601 12:00:51.231601 13437 net.cpp:150] Setting up conv7_2_mbox_priorbox
I0601 12:00:51.231608 13437 net.cpp:157] Top shape: 1 2 600 (1200)
I0601 12:00:51.231613 13437 net.cpp:165] Memory required for data: 7934488224
I0601 12:00:51.231617 13437 layer_factory.hpp:77] Creating layer conv8_2_mbox_loc
I0601 12:00:51.231631 13437 net.cpp:100] Creating Layer conv8_2_mbox_loc
I0601 12:00:51.231645 13437 net.cpp:434] conv8_2_mbox_loc <- conv8_2_conv8_2_relu_0_split_1
I0601 12:00:51.231663 13437 net.cpp:408] conv8_2_mbox_loc -> conv8_2_mbox_loc
I0601 12:00:51.233777 13437 net.cpp:150] Setting up conv8_2_mbox_loc
I0601 12:00:51.233798 13437 net.cpp:157] Top shape: 32 16 3 3 (4608)
I0601 12:00:51.233801 13437 net.cpp:165] Memory required for data: 7934506656
I0601 12:00:51.233824 13437 layer_factory.hpp:77] Creating layer conv8_2_mbox_loc_perm
I0601 12:00:51.233834 13437 net.cpp:100] Creating Layer conv8_2_mbox_loc_perm
I0601 12:00:51.233840 13437 net.cpp:434] conv8_2_mbox_loc_perm <- conv8_2_mbox_loc
I0601 12:00:51.233849 13437 net.cpp:408] conv8_2_mbox_loc_perm -> conv8_2_mbox_loc_perm
I0601 12:00:51.233990 13437 net.cpp:150] Setting up conv8_2_mbox_loc_perm
I0601 12:00:51.234014 13437 net.cpp:157] Top shape: 32 3 3 16 (4608)
I0601 12:00:51.234027 13437 net.cpp:165] Memory required for data: 7934525088
I0601 12:00:51.234040 13437 layer_factory.hpp:77] Creating layer conv8_2_mbox_loc_flat
I0601 12:00:51.234056 13437 net.cpp:100] Creating Layer conv8_2_mbox_loc_flat
I0601 12:00:51.234068 13437 net.cpp:434] conv8_2_mbox_loc_flat <- conv8_2_mbox_loc_perm
I0601 12:00:51.234086 13437 net.cpp:408] conv8_2_mbox_loc_flat -> conv8_2_mbox_loc_flat
I0601 12:00:51.234133 13437 net.cpp:150] Setting up conv8_2_mbox_loc_flat
I0601 12:00:51.234150 13437 net.cpp:157] Top shape: 32 144 (4608)
I0601 12:00:51.234161 13437 net.cpp:165] Memory required for data: 7934543520
I0601 12:00:51.234174 13437 layer_factory.hpp:77] Creating layer conv8_2_mbox_conf
I0601 12:00:51.234194 13437 net.cpp:100] Creating Layer conv8_2_mbox_conf
I0601 12:00:51.234208 13437 net.cpp:434] conv8_2_mbox_conf <- conv8_2_conv8_2_relu_0_split_2
I0601 12:00:51.234225 13437 net.cpp:408] conv8_2_mbox_conf -> conv8_2_mbox_conf
I0601 12:00:51.236609 13437 net.cpp:150] Setting up conv8_2_mbox_conf
I0601 12:00:51.236627 13437 net.cpp:157] Top shape: 32 16 3 3 (4608)
I0601 12:00:51.236631 13437 net.cpp:165] Memory required for data: 7934561952
I0601 12:00:51.236641 13437 layer_factory.hpp:77] Creating layer conv8_2_mbox_conf_perm
I0601 12:00:51.236654 13437 net.cpp:100] Creating Layer conv8_2_mbox_conf_perm
I0601 12:00:51.236660 13437 net.cpp:434] conv8_2_mbox_conf_perm <- conv8_2_mbox_conf
I0601 12:00:51.236666 13437 net.cpp:408] conv8_2_mbox_conf_perm -> conv8_2_mbox_conf_perm
I0601 12:00:51.236800 13437 net.cpp:150] Setting up conv8_2_mbox_conf_perm
I0601 12:00:51.236824 13437 net.cpp:157] Top shape: 32 3 3 16 (4608)
I0601 12:00:51.236835 13437 net.cpp:165] Memory required for data: 7934580384
I0601 12:00:51.236846 13437 layer_factory.hpp:77] Creating layer conv8_2_mbox_conf_flat
I0601 12:00:51.236856 13437 net.cpp:100] Creating Layer conv8_2_mbox_conf_flat
I0601 12:00:51.236877 13437 net.cpp:434] conv8_2_mbox_conf_flat <- conv8_2_mbox_conf_perm
I0601 12:00:51.236893 13437 net.cpp:408] conv8_2_mbox_conf_flat -> conv8_2_mbox_conf_flat
I0601 12:00:51.236932 13437 net.cpp:150] Setting up conv8_2_mbox_conf_flat
I0601 12:00:51.236950 13437 net.cpp:157] Top shape: 32 144 (4608)
I0601 12:00:51.236963 13437 net.cpp:165] Memory required for data: 7934598816
I0601 12:00:51.236974 13437 layer_factory.hpp:77] Creating layer conv8_2_mbox_priorbox
I0601 12:00:51.236994 13437 net.cpp:100] Creating Layer conv8_2_mbox_priorbox
I0601 12:00:51.237007 13437 net.cpp:434] conv8_2_mbox_priorbox <- conv8_2_conv8_2_relu_0_split_3
I0601 12:00:51.237030 13437 net.cpp:434] conv8_2_mbox_priorbox <- data_data_0_split_5
I0601 12:00:51.237056 13437 net.cpp:408] conv8_2_mbox_priorbox -> conv8_2_mbox_priorbox
I0601 12:00:51.237103 13437 net.cpp:150] Setting up conv8_2_mbox_priorbox
I0601 12:00:51.237120 13437 net.cpp:157] Top shape: 1 2 144 (288)
I0601 12:00:51.237133 13437 net.cpp:165] Memory required for data: 7934599968
I0601 12:00:51.237144 13437 layer_factory.hpp:77] Creating layer conv9_2_mbox_loc
I0601 12:00:51.237165 13437 net.cpp:100] Creating Layer conv9_2_mbox_loc
I0601 12:00:51.237179 13437 net.cpp:434] conv9_2_mbox_loc <- conv9_2_conv9_2_relu_0_split_0
I0601 12:00:51.237197 13437 net.cpp:408] conv9_2_mbox_loc -> conv9_2_mbox_loc
I0601 12:00:51.239302 13437 net.cpp:150] Setting up conv9_2_mbox_loc
I0601 12:00:51.239318 13437 net.cpp:157] Top shape: 32 16 1 1 (512)
I0601 12:00:51.239321 13437 net.cpp:165] Memory required for data: 7934602016
I0601 12:00:51.239332 13437 layer_factory.hpp:77] Creating layer conv9_2_mbox_loc_perm
I0601 12:00:51.239346 13437 net.cpp:100] Creating Layer conv9_2_mbox_loc_perm
I0601 12:00:51.239351 13437 net.cpp:434] conv9_2_mbox_loc_perm <- conv9_2_mbox_loc
I0601 12:00:51.239359 13437 net.cpp:408] conv9_2_mbox_loc_perm -> conv9_2_mbox_loc_perm
I0601 12:00:51.239509 13437 net.cpp:150] Setting up conv9_2_mbox_loc_perm
I0601 12:00:51.239532 13437 net.cpp:157] Top shape: 32 1 1 16 (512)
I0601 12:00:51.239545 13437 net.cpp:165] Memory required for data: 7934604064
I0601 12:00:51.239557 13437 layer_factory.hpp:77] Creating layer conv9_2_mbox_loc_flat
I0601 12:00:51.239575 13437 net.cpp:100] Creating Layer conv9_2_mbox_loc_flat
I0601 12:00:51.239589 13437 net.cpp:434] conv9_2_mbox_loc_flat <- conv9_2_mbox_loc_perm
I0601 12:00:51.239605 13437 net.cpp:408] conv9_2_mbox_loc_flat -> conv9_2_mbox_loc_flat
I0601 12:00:51.239651 13437 net.cpp:150] Setting up conv9_2_mbox_loc_flat
I0601 12:00:51.239661 13437 net.cpp:157] Top shape: 32 16 (512)
I0601 12:00:51.239665 13437 net.cpp:165] Memory required for data: 7934606112
I0601 12:00:51.239670 13437 layer_factory.hpp:77] Creating layer conv9_2_mbox_conf
I0601 12:00:51.239683 13437 net.cpp:100] Creating Layer conv9_2_mbox_conf
I0601 12:00:51.239697 13437 net.cpp:434] conv9_2_mbox_conf <- conv9_2_conv9_2_relu_0_split_1
I0601 12:00:51.239707 13437 net.cpp:408] conv9_2_mbox_conf -> conv9_2_mbox_conf
I0601 12:00:51.242985 13437 net.cpp:150] Setting up conv9_2_mbox_conf
I0601 12:00:51.243031 13437 net.cpp:157] Top shape: 32 16 1 1 (512)
I0601 12:00:51.243038 13437 net.cpp:165] Memory required for data: 7934608160
I0601 12:00:51.243052 13437 layer_factory.hpp:77] Creating layer conv9_2_mbox_conf_perm
I0601 12:00:51.243065 13437 net.cpp:100] Creating Layer conv9_2_mbox_conf_perm
I0601 12:00:51.243073 13437 net.cpp:434] conv9_2_mbox_conf_perm <- conv9_2_mbox_conf
I0601 12:00:51.243084 13437 net.cpp:408] conv9_2_mbox_conf_perm -> conv9_2_mbox_conf_perm
I0601 12:00:51.243280 13437 net.cpp:150] Setting up conv9_2_mbox_conf_perm
I0601 12:00:51.243293 13437 net.cpp:157] Top shape: 32 1 1 16 (512)
I0601 12:00:51.243295 13437 net.cpp:165] Memory required for data: 7934610208
I0601 12:00:51.243299 13437 layer_factory.hpp:77] Creating layer conv9_2_mbox_conf_flat
I0601 12:00:51.243305 13437 net.cpp:100] Creating Layer conv9_2_mbox_conf_flat
I0601 12:00:51.243311 13437 net.cpp:434] conv9_2_mbox_conf_flat <- conv9_2_mbox_conf_perm
I0601 12:00:51.243320 13437 net.cpp:408] conv9_2_mbox_conf_flat -> conv9_2_mbox_conf_flat
I0601 12:00:51.243366 13437 net.cpp:150] Setting up conv9_2_mbox_conf_flat
I0601 12:00:51.243387 13437 net.cpp:157] Top shape: 32 16 (512)
I0601 12:00:51.243399 13437 net.cpp:165] Memory required for data: 7934612256
I0601 12:00:51.243412 13437 layer_factory.hpp:77] Creating layer conv9_2_mbox_priorbox
I0601 12:00:51.243428 13437 net.cpp:100] Creating Layer conv9_2_mbox_priorbox
I0601 12:00:51.243441 13437 net.cpp:434] conv9_2_mbox_priorbox <- conv9_2_conv9_2_relu_0_split_2
I0601 12:00:51.243455 13437 net.cpp:434] conv9_2_mbox_priorbox <- data_data_0_split_6
I0601 12:00:51.243474 13437 net.cpp:408] conv9_2_mbox_priorbox -> conv9_2_mbox_priorbox
I0601 12:00:51.243526 13437 net.cpp:150] Setting up conv9_2_mbox_priorbox
I0601 12:00:51.243535 13437 net.cpp:157] Top shape: 1 2 16 (32)
I0601 12:00:51.243549 13437 net.cpp:165] Memory required for data: 7934612384
I0601 12:00:51.243561 13437 layer_factory.hpp:77] Creating layer mbox_loc
I0601 12:00:51.243577 13437 net.cpp:100] Creating Layer mbox_loc
I0601 12:00:51.243589 13437 net.cpp:434] mbox_loc <- conv4_3_norm_mbox_loc_flat
I0601 12:00:51.243602 13437 net.cpp:434] mbox_loc <- fc7_mbox_loc_flat
I0601 12:00:51.243615 13437 net.cpp:434] mbox_loc <- conv6_2_mbox_loc_flat
I0601 12:00:51.243628 13437 net.cpp:434] mbox_loc <- conv7_2_mbox_loc_flat
I0601 12:00:51.243640 13437 net.cpp:434] mbox_loc <- conv8_2_mbox_loc_flat
I0601 12:00:51.243652 13437 net.cpp:434] mbox_loc <- conv9_2_mbox_loc_flat
I0601 12:00:51.243667 13437 net.cpp:408] mbox_loc -> mbox_loc
I0601 12:00:51.243716 13437 net.cpp:150] Setting up mbox_loc
I0601 12:00:51.243724 13437 net.cpp:157] Top shape: 32 34928 (1117696)
I0601 12:00:51.243728 13437 net.cpp:165] Memory required for data: 7939083168
I0601 12:00:51.243732 13437 layer_factory.hpp:77] Creating layer mbox_conf
I0601 12:00:51.243741 13437 net.cpp:100] Creating Layer mbox_conf
I0601 12:00:51.243746 13437 net.cpp:434] mbox_conf <- conv4_3_norm_mbox_conf_flat
I0601 12:00:51.243752 13437 net.cpp:434] mbox_conf <- fc7_mbox_conf_flat
I0601 12:00:51.243758 13437 net.cpp:434] mbox_conf <- conv6_2_mbox_conf_flat
I0601 12:00:51.243764 13437 net.cpp:434] mbox_conf <- conv7_2_mbox_conf_flat
I0601 12:00:51.243769 13437 net.cpp:434] mbox_conf <- conv8_2_mbox_conf_flat
I0601 12:00:51.243773 13437 net.cpp:434] mbox_conf <- conv9_2_mbox_conf_flat
I0601 12:00:51.243780 13437 net.cpp:408] mbox_conf -> mbox_conf
I0601 12:00:51.243811 13437 net.cpp:150] Setting up mbox_conf
I0601 12:00:51.243829 13437 net.cpp:157] Top shape: 32 34928 (1117696)
I0601 12:00:51.243839 13437 net.cpp:165] Memory required for data: 7943553952
I0601 12:00:51.243849 13437 layer_factory.hpp:77] Creating layer mbox_priorbox
I0601 12:00:51.243862 13437 net.cpp:100] Creating Layer mbox_priorbox
I0601 12:00:51.243873 13437 net.cpp:434] mbox_priorbox <- conv4_3_norm_mbox_priorbox
I0601 12:00:51.243885 13437 net.cpp:434] mbox_priorbox <- fc7_mbox_priorbox
I0601 12:00:51.243897 13437 net.cpp:434] mbox_priorbox <- conv6_2_mbox_priorbox
I0601 12:00:51.243911 13437 net.cpp:434] mbox_priorbox <- conv7_2_mbox_priorbox
I0601 12:00:51.243923 13437 net.cpp:434] mbox_priorbox <- conv8_2_mbox_priorbox
I0601 12:00:51.243937 13437 net.cpp:434] mbox_priorbox <- conv9_2_mbox_priorbox
I0601 12:00:51.243949 13437 net.cpp:408] mbox_priorbox -> mbox_priorbox
I0601 12:00:51.243993 13437 net.cpp:150] Setting up mbox_priorbox
I0601 12:00:51.244047 13437 net.cpp:157] Top shape: 1 2 34928 (69856)
I0601 12:00:51.244060 13437 net.cpp:165] Memory required for data: 7943833376
I0601 12:00:51.244069 13437 layer_factory.hpp:77] Creating layer mbox_loss
I0601 12:00:51.244088 13437 net.cpp:100] Creating Layer mbox_loss
I0601 12:00:51.244099 13437 net.cpp:434] mbox_loss <- mbox_loc
I0601 12:00:51.244112 13437 net.cpp:434] mbox_loss <- mbox_conf
I0601 12:00:51.244123 13437 net.cpp:434] mbox_loss <- mbox_priorbox
…
  name: "data"
  type: "AnnotatedData"
  top: "data"
  top: "label"
  include {
    phase: TEST
  }
  transform_param {
    mean_value: 104
    mean_value: 117
    mean_value: 123
    resize_param {
      prob: 1
      resize_mode: WARP
      height: 300
      width: 300
      interp_mode: LINEAR
    }
  }
  data_param {
    source: "examples/tbs_300x300_HSIL_10x/tbs_300x300_HSIL_10x_test_lmdb"
    batch_size: 4
    backend: LMDB
  }
  annotated_data_param {
    batch_sampler {
    }
    label_map_file: "data/tbs_300x300_HSIL_10x/labelmap_tbs.prototxt"
  }
}
layer {
  name: "conv1_1"
  type: "Convolution"
  bottom: "data"
  top: "conv1_1"
  param {
    lr_mult: 1
    decay_mult: 1
  }
  param {
    lr_mult: 2
    decay_mult: 0
  }
  convolution_param {
    num_output: 64
    pad: 1
    kernel_size: 3
    weight_filler {
      type: "xavier"
    }
    bias_filler {
      type: "constant"
      value: 0
    }
  }
}
layer {
  name: "relu1_1"
  type: "ReLU"
  bottom: "conv1_1"
  top: "conv1_1"
}
layer {
  name: "conv1_2"
  type: "Convolution"
  bottom: "conv1_1"
  top: "conv1_2"
  param {
    lr_mult: 1
    decay_mult: 1
  }
  param {
    lr_mult: 2
    decay_mult: 0
  }
  convolution_param {
    num_output: 64
    pad: 1
    kernel_size: 3
    weight_filler {
      type: "xavier"
    }
    bias_filler {
      type: "constant"
      value: 0
    }
  }
}
layer {
  name: "relu1_2"
  type: "ReLU"
  bottom: "conv1_2"
  top: "conv1_2"
}
layer {
  name: "pool1"
  type: "Pooling"
  bottom: "conv1_2"
  top: "pool1"
  pooling_param {
    pool: MAX
    kernel_size: 2
    stride: 2
  }
}
layer {
  name: "conv2_1"
  type: "Convolution"
  bottom: "pool1"
  top: "conv2_1"
  param {
    lr_mult: 1
    decay_mult: 1
  }
  param {
    lr_mult: 2
    decay_mult: 0
  }
  convolution_param {
    num_output: 128
    pad: 1
    kernel_size: 3
    weight_filler {
      type: "xavier"
    }
    bias_filler {
      type: "constant"
      value: 0
    }
  }
}
layer {
  name: "relu2_1"
  type: "ReLU"
  bottom: "conv2_1"
  top: "conv2_1"
}
layer {
  name: "conv2_2"
  type: "Convolution"
  bottom: "conv2_1"
  top: "conv2_2"
  param {
    lr_mult: 1
    decay_mult: 1
  }
  param {
    lr_mult: 2
    decay_mult: 0
  }
  convolution_param {
    num_output: 128
    pad: 1
    kernel_size: 3
    weight_filler {
      type: "xavier"
    }
    bias_filler {
      type: "constant"
      value: 0
    }
  }
}
layer {
  name: "relu2_2"
  type: "ReLU"
  bottom: "conv2_2"
  top: "conv2_2"
}
layer {
  name: "pool2"
  type: "Pooling"
  bottom: "conv2_2"
  top: "pool2"
  pooling_param {
    pool: MAX
    kernel_size: 2
    stride: 2
  }
}
layer {
  name: "conv3_1"
  type: "Convolution"
  bottom: "pool2"
  top: "conv3_1"
  param {
    lr_mult: 1
    decay_mult: 1
  }
  param {
    lr_mult: 2
    decay_mult: 0
  }
  convolution_param {
    num_output: 256
    pad: 1
    kernel_size: 3
    weight_filler {
      type: "xavier"
    }
    bias_filler {
      type: "constant"
      value: 0
    }
  }
}
layer {
  name: "relu3_1"
  type: "ReLU"
  bottom: "conv3_1"
  top: "conv3_1"
}
layer {
  name: "conv3_2"
  type: "Convolution"
  bottom: "conv3_1"
  top: "conv3_2"
  param {
    lr_mult: 1
    decay_mult: 1
  }
  param {
    lr_mult: 2
    decay_mult: 0
  }
  convolution_param {
    num_output: 256
    pad: 1
    kernel_size: 3
    weight_filler {
      type: "xavier"
    }
    bias_filler {
      type: "constant"
      value: 0
    }
  }
}
layer {
  name: "relu3_2"
  type: "ReLU"
  bottom: "conv3_2"
  top: "conv3_2"
}
layer {
  name: "conv3_3"
  type: "Convolution"
  bottom: "conv3_2"
  top: "conv3_3"
  param {
    lr_mult: 1
    decay_mult: 1
  }
  param {
    lr_mult: 2
    decay_mult: 0
  }
  convolution_param {
    num_output: 256
    pad: 1
    kernel_size: 3
    weight_filler {
      type: "xavier"
    }
    bias_filler {
      type: "constant"
      value: 0
    }
  }
}
layer {
  name: "relu3_3"
  type: "ReLU"
  bottom: "conv3_3"
  top: "conv3_3"
}
layer {
  name: "pool3"
  type: "Pooling"
  bottom: "conv3_3"
  top: "pool3"
  pooling_param {
    pool: MAX
    kernel_size: 2
    stride: 2
  }
}
layer {
  name: "conv4_1"
  type: "Convolution"
  bottom: "pool3"
  top: "conv4_1"
  param {
    lr_mult: 1
    decay_mult: 1
  }
  param {
    lr_mult: 2
    decay_mult: 0
  }
  convolution_param {
    num_output: 512
    pad: 1
    kernel_size: 3
    weight_filler {
      type: "xavier"
    }
    bias_filler {
      type: "constant"
      value: 0
    }
  }
}
layer {
  name: "relu4_1"
  type: "ReLU"
  bottom: "conv4_1"
  top: "conv4_1"
}
layer {
  name: "conv4_2"
  type: "Convolution"
  bottom: "conv4_1"
  top: "conv4_2"
  param {
    lr_mult: 1
    decay_mult: 1
  }
  param {
    lr_mult: 2
    decay_mult: 0
  }
  convolution_param {
    num_output: 512
    pad: 1
    kernel_size: 3
    weight_filler {
      type: "xavier"
    }
    bias_filler {
      type: "constant"
      value: 0
    }
  }
}
layer {
  name: "relu4_2"
  type: "ReLU"
  bottom: "conv4_2"
  top: "conv4_2"
}
layer {
  name: "conv4_3"
  type: "Convolution"
  bottom: "conv4_2"
  top: "conv4_3"
  param {
    lr_mult: 1
    decay_mult: 1
  }
  param {
    lr_mult: 2
    decay_mult: 0
  }
  convolution_param {
    num_output: 512
    pad: 1
    kernel_size: 3
    weight_filler {
      type: "xavier"
    }
    bias_filler {
      type: "constant"
      value: 0
    }
  }
}
layer {
  name: "relu4_3"
  type: "ReLU"
  bottom: "conv4_3"
  top: "conv4_3"
}
layer {
  name: "pool4"
  type: "Pooling"
  bottom: "conv4_3"
  top: "pool4"
  pooling_param {
    pool: MAX
    kernel_size: 2
    stride: 2
  }
}
layer {
  name: "conv5_1"
  type: "Convolution"
  bottom: "pool4"
  top: "conv5_1"
  param {
    lr_mult: 1
    decay_mult: 1
  }
  param {
    lr_mult: 2
    decay_mult: 0
  }
  convolution_param {
    num_output: 512
    pad: 1
    kernel_size: 3
    weight_filler {
      type: "xavier"
    }
    bias_filler {
      type: "constant"
      value: 0
    }
    dilation: 1
  }
}
layer {
  name: "relu5_1"
  type: "ReLU"
  bottom: "conv5_1"
  top: "conv5_1"
}
layer {
  name: "conv5_2"
  type: "Convolution"
  bottom: "conv5_1"
  top: "conv5_2"
  param {
    lr_mult: 1
    decay_mult: 1
  }
  param {
    lr_mult: 2
    decay_mult: 0
  }
  convolution_param {
    num_output: 512
    pad: 1
    kernel_size: 3
    weight_filler {
      type: "xavier"
    }
    bias_filler {
      type: "constant"
      value: 0
    }
    dilation: 1
  }
}
layer {
  name: "relu5_2"
  type: "ReLU"
  bottom: "conv5_2"
  top: "conv5_2"
}
layer {
  name: "conv5_3"
  type: "Convolution"
  bottom: "conv5_2"
  top: "conv5_3"
  param {
    lr_mult: 1
    decay_mult: 1
  }
  param {
    lr_mult: 2
    decay_mult: 0
  }
  convolution_param {
    num_output: 512
    pad: 1
    kernel_size: 3
    weight_filler {
      type: "xavier"
    }
    bias_filler {
      type: "constant"
      value: 0
    }
    dilation: 1
  }
}
layer {
  name: "relu5_3"
  type: "ReLU"
  bottom: "conv5_3"
  top: "conv5_3"
}
layer {
  name: "pool5"
  type: "Pooling"
  bottom: "conv5_3"
  top: "pool5"
  pooling_param {
    pool: MAX
    kernel_size: 3
    stride: 1
    pad: 1
  }
}
layer {
  name: "fc6"
  type: "Convolution"
  bottom: "pool5"
  top: "fc6"
  param {
    lr_mult: 1
    decay_mult: 1
  }
  param {
    lr_mult: 2
    decay_mult: 0
  }
  convolution_param {
    num_output: 1024
    pad: 6
    kernel_size: 3
    weight_filler {
      type: "xavier"
    }
    bias_filler {
      type: "constant"
      value: 0
    }
    dilation: 6
  }
}
layer {
  name: "relu6"
  type: "ReLU"
  bottom: "fc6"
  top: "fc6"
}
layer {
  name: "fc7"
  type: "Convolution"
  bottom: "fc6"
  top: "fc7"
  param {
    lr_mult: 1
    decay_mult: 1
  }
  param {
    lr_mult: 2
    decay_mult: 0
  }
  convolution_param {
    num_output: 1024
    kernel_size: 1
    weight_filler {
      type: "xavier"
    }
    bias_filler {
      type: "constant"
      value: 0
    }
  }
}
layer {
  name: "relu7"
  type: "ReLU"
  bottom: "fc7"
  top: "fc7"
}
layer {
  name: "conv6_1"
  type: "Convolution"
  bottom: "fc7"
  top: "conv6_1"
  param {
    lr_mult: 1
    decay_mult: 1
  }
  param {
    lr_mult: 2
    decay_mult: 0
  }
  convolution_param {
    num_output: 256
    pad: 0
    kernel_size: 1
    stride: 1
    weight_filler {
      type: "xavier"
    }
    bias_filler {
      type: "constant"
      value: 0
    }
  }
}
layer {
  name: "conv6_1_relu"
  type: "ReLU"
  bottom: "conv6_1"
  top: "conv6_1"
}
layer {
  name: "conv6_2"
  type: "Convolution"
  bottom: "conv6_1"
  top: "conv6_2"
  param {
    lr_mult: 1
    decay_mult: 1
  }
  param {
    lr_mult: 2
    decay_mult: 0
  }
  convolution_param {
    num_output: 512
    pad: 1
    kernel_size: 3
    stride: 2
    weight_filler {
      type: "xavier"
    }
    bias_filler {
      type: "constant"
      value: 0
    }
  }
}
layer {
  name: "conv6_2_relu"
  type: "ReLU"
  bottom: "conv6_2"
  top: "conv6_2"
}
layer {
  name: "conv7_1"
  type: "Convolution"
  bottom: "conv6_2"
  top: "conv7_1"
  param {
    lr_mult: 1
    decay_mult: 1
  }
  param {
    lr_mult: 2
    decay_mult: 0
  }
  convolution_param {
    num_output: 128
    pad: 0
    kernel_size: 1
    stride: 1
    weight_filler {
      type: "xavier"
    }
    bias_filler {
      type: "constant"
      value: 0
    }
  }
}
layer {
  name: "conv7_1_relu"
  type: "ReLU"
  bottom: "conv7_1"
  top: "conv7_1"
}
layer {
  name: "conv7_2"
  type: "Convolution"
  bottom: "conv7_1"
  top: "conv7_2"
  param {
    lr_mult: 1
    decay_mult: 1
  }
  param {
    lr_mult: 2
    decay_mult: 0
  }
  convolution_param {
    num_output: 256
    pad: 1
    kernel_size: 3
    stride: 2
    weight_filler {
      type: "xavier"
    }
    bias_filler {
      type: "constant"
      value: 0
    }
  }
}
layer {
  name: "conv7_2_relu"
  type: "ReLU"
  bottom: "conv7_2"
  top: "conv7_2"
}
layer {
  name: "conv8_1"
  type: "Convolution"
  bottom: "conv7_2"
  top: "conv8_1"
  param {
    lr_mult: 1
    decay_mult: 1
  }
  param {
    lr_mult: 2
    decay_mult: 0
  }
  convolution_param {
    num_output: 128
    pad: 0
    kernel_size: 1
    stride: 1
    weight_filler {
      type: "xavier"
    }
    bias_filler {
      type: "constant"
      value: 0
    }
  }
}
layer {
  name: "conv8_1_relu"
  type: "ReLU"
  bottom: "conv8_1"
  top: "conv8_1"
}
layer {
  name: "conv8_2"
  type: "Convolution"
  bottom: "conv8_1"
  top: "conv8_2"
  param {
    lr_mult: 1
    decay_mult: 1
  }
  param {
    lr_mult: 2
    decay_mult: 0
  }
  convolution_param {
    num_output: 256
    pad: 0
    kernel_size: 3
    stride: 1
    weight_filler {
      type: "xavier"
    }
    bias_filler {
      type: "constant"
      value: 0
    }
  }
}
layer {
  name: "conv8_2_relu"
  type: "ReLU"
  bottom: "conv8_2"
  top: "conv8_2"
}
layer {
  name: "conv9_1"
  type: "Convolution"
  bottom: "conv8_2"
  top: "conv9_1"
  param {
    lr_mult: 1
    decay_mult: 1
  }
  param {
    lr_mult: 2
    decay_mult: 0
  }
  convolution_param {
    num_output: 128
    pad: 0
    kernel_size: 1
    stride: 1
    weight_filler {
      type: "xavier"
    }
    bias_filler {
      type: "constant"
      value: 0
    }
  }
}
layer {
  name: "conv9_1_relu"
  type: "ReLU"
  bottom: "conv9_1"
  top: "conv9_1"
}
layer {
  name: "conv9_2"
  type: "Convolution"
  bottom: "conv9_1"
  top: "conv9_2"
  param {
    lr_mult: 1
    decay_mult: 1
  }
  param {
    lr_mult: 2
    decay_mult: 0
  }
  convolution_param {
    num_output: 256
    pad: 0
    kernel_size: 3
    stride: 1
    weight_filler {
      type: "xavier"
    }
    bias_filler {
      type: "constant"
      value: 0
    }
  }
}
layer {
  name: "conv9_2_relu"
  type: "ReLU"
  bottom: "conv9_2"
  top: "conv9_2"
}
layer {
  name: "conv4_3_norm"
  type: "Normalize"
  bottom: "conv4_3"
  top: "conv4_3_norm"
  norm_param {
    across_spatial: false
    scale_filler {
      type: "constant"
      value: 20
    }
    channel_shared: false
  }
}
layer {
  name: "conv4_3_norm_mbox_loc"
  type: "Convolution"
  bottom: "conv4_3_norm"
  top: "conv4_3_norm_mbox_loc"
  param {
    lr_mult: 1
    decay_mult: 1
  }
  param {
    lr_mult: 2
    decay_mult: 0
  }
  convolution_param {
    num_output: 16
    pad: 1
    kernel_size: 3
    stride: 1
    weight_filler {
      type: "xavier"
    }
    bias_filler {
      type: "constant"
      value: 0
    }
  }
}
layer {
  name: "conv4_3_norm_mbox_loc_perm"
  type: "Permute"
  bottom: "conv4_3_norm_mbox_loc"
  top: "conv4_3_norm_mbox_loc_perm"
  permute_param {
    order: 0
    order: 2
    order: 3
    order: 1
  }
}
layer {
  name: "conv4_3_norm_mbox_loc_flat"
  type: "Flatten"
  bottom: "conv4_3_norm_mbox_loc_perm"
  top: "conv4_3_norm_mbox_loc_flat"
  flatten_param {
    axis: 1
  }
}
layer {
  name: "conv4_3_norm_mbox_conf"
  type: "Convolution"
  bottom: "conv4_3_norm"
  top: "conv4_3_norm_mbox_conf"
  param {
    lr_mult: 1
    decay_mult: 1
  }
  param {
    lr_mult: 2
    decay_mult: 0
  }
  convolution_param {
    num_output: 16
    pad: 1
    kernel_size: 3
    stride: 1
    weight_filler {
      type: "xavier"
    }
    bias_filler {
      type: "constant"
      value: 0
    }
  }
}
layer {
  name: "conv4_3_norm_mbox_conf_perm"
  type: "Permute"
  bottom: "conv4_3_norm_mbox_conf"
  top: "conv4_3_norm_mbox_conf_perm"
  permute_param {
    order: 0
    order: 2
    order: 3
    order: 1
  }
}
layer {
  name: "conv4_3_norm_mbox_conf_flat"
  type: "Flatten"
  bottom: "conv4_3_norm_mbox_conf_perm"
  top: "conv4_3_norm_mbox_conf_flat"
  flatten_param {
    axis: 1
  }
}
layer {
  name: "conv4_3_norm_mbox_priorbox"
  type: "PriorBox"
  bottom: "conv4_3_norm"
  bottom: "data"
  top: "conv4_3_norm_mbox_priorbox"
  prior_box_param {
    min_size: 30
    max_size: 60
    aspect_ratio: 2
    flip: true
    clip: false
    variance: 0.1
    variance: 0.1
    variance: 0.2
    variance: 0.2
    step: 8
    offset: 0.5
  }
}
layer {
  name: "fc7_mbox_loc"
  type: "Convolution"
  bottom: "fc7"
  top: "fc7_mbox_loc"
  param {
    lr_mult: 1
    decay_mult: 1
  }
  param {
    lr_mult: 2
    decay_mult: 0
  }
  convolution_param {
    num_output: 24
    pad: 1
    kernel_size: 3
    stride: 1
    weight_filler {
      type: "xavier"
    }
    bias_filler {
      type: "constant"
      value: 0
    }
  }
}
layer {
  name: "fc7_mbox_loc_perm"
  type: "Permute"
  bottom: "fc7_mbox_loc"
  top: "fc7_mbox_loc_perm"
  permute_param {
    order: 0
    order: 2
    order: 3
    order: 1
  }
}
layer {
  name: "fc7_mbox_loc_flat"
  type: "Flatten"
  bottom: "fc7_mbox_loc_perm"
  top: "fc7_mbox_loc_flat"
  flatten_param {
    axis: 1
  }
}
layer {
  name: "fc7_mbox_conf"
  type: "Convolution"
  bottom: "fc7"
  top: "fc7_mbox_conf"
  param {
    lr_mult: 1
    decay_mult: 1
  }
  param {
    lr_mult: 2
    decay_mult: 0
  }
  convolution_param {
    num_output: 24
    pad: 1
    kernel_size: 3
    stride: 1
    weight_filler {
      type: "xavier"
    }
    bias_filler {
      type: "constant"
      value: 0
    }
  }
}
layer {
  name: "fc7_mbox_conf_perm"
  type: "Permute"
  bottom: "fc7_mbox_conf"
  top: "fc7_mbox_conf_perm"
  permute_param {
    order: 0
    order: 2
    order: 3
    order: 1
  }
}
layer {
  name: "fc7_mbox_conf_flat"
  type: "Flatten"
  bottom: "fc7_mbox_conf_perm"
  top: "fc7_mbox_conf_flat"
  flatten_param {
    axis: 1
  }
}
layer {
  name: "fc7_mbox_priorbox"
  type: "PriorBox"
  bottom: "fc7"
  bottom: "data"
  top: "fc7_mbox_priorbox"
  prior_box_param {
    min_size: 60
    max_size: 111
    aspect_ratio: 2
    aspect_ratio: 3
    flip: true
    clip: false
    variance: 0.1
    variance: 0.1
    variance: 0.2
    variance: 0.2
    step: 16
    offset: 0.5
  }
}
layer {
  name: "conv6_2_mbox_loc"
  type: "Convolution"
  bottom: "conv6_2"
  top: "conv6_2_mbox_loc"
  param {
    lr_mult: 1
    decay_mult: 1
  }
  param {
    lr_mult: 2
    decay_mult: 0
  }
  convolution_param {
    num_output: 24
    pad: 1
    kernel_size: 3
    stride: 1
    weight_filler {
      type: "xavier"
    }
    bias_filler {
      type: "constant"
      value: 0
    }
  }
}
layer {
  name: "conv6_2_mbox_loc_perm"
  type: "Permute"
  bottom: "conv6_2_mbox_loc"
  top: "conv6_2_mbox_loc_perm"
  permute_param {
    order: 0
    order: 2
    order: 3
    order: 1
  }
}
layer {
  name: "conv6_2_mbox_loc_flat"
  type: "Flatten"
  bottom: "conv6_2_mbox_loc_perm"
  top: "conv6_2_mbox_loc_flat"
  flatten_param {
    axis: 1
  }
}
layer {
  name: "conv6_2_mbox_conf"
  type: "Convolution"
  bottom: "conv6_2"
  top: "conv6_2_mbox_conf"
  param {
    lr_mult: 1
    decay_mult: 1
  }
  param {
    lr_mult: 2
    decay_mult: 0
  }
  convolution_param {
    num_output: 24
    pad: 1
    kernel_size: 3
    stride: 1
    weight_filler {
      type: "xavier"
    }
    bias_filler {
      type: "constant"
      value: 0
    }
  }
}
layer {
  name: "conv6_2_mbox_conf_perm"
  type: "Permute"
  bottom: "conv6_2_mbox_conf"
  top: "conv6_2_mbox_conf_perm"
  permute_param {
    order: 0
    order: 2
    order: 3
    order: 1
  }
}
layer {
  name: "conv6_2_mbox_conf_flat"
  type: "Flatten"
  bottom: "conv6_2_mbox_conf_perm"
  top: "conv6_2_mbox_conf_flat"
  flatten_param {
    axis: 1
  }
}
layer {
  name: "conv6_2_mbox_priorbox"
  type: "PriorBox"
  bottom: "conv6_2"
  bottom: "data"
  top: "conv6_2_mbox_priorbox"
  prior_box_param {
    min_size: 111
    max_size: 162
    aspect_ratio: 2
    aspect_ratio: 3
    flip: true
    clip: false
    variance: 0.1
    variance: 0.1
    variance: 0.2
    variance: 0.2
    step: 32
    offset: 0.5
  }
}
layer {
  name: "conv7_2_mbox_loc"
  type: "Convolution"
  bottom: "conv7_2"
  top: "conv7_2_mbox_loc"
  param {
    lr_mult: 1
    decay_mult: 1
  }
  param {
    lr_mult: 2
    decay_mult: 0
  }
  convolution_param {
    num_output: 24
    pad: 1
    kernel_size: 3
    stride: 1
    weight_filler {
      type: "xavier"
    }
    bias_filler {
      type: "constant"
      value: 0
    }
  }
}
layer {
  name: "conv7_2_mbox_loc_perm"
  type: "Permute"
  bottom: "conv7_2_mbox_loc"
  top: "conv7_2_mbox_loc_perm"
  permute_param {
    order: 0
    order: 2
    order: 3
    order: 1
  }
}
layer {
  name: "conv7_2_mbox_loc_flat"
  type: "Flatten"
  bottom: "conv7_2_mbox_loc_perm"
  top: "conv7_2_mbox_loc_flat"
  flatten_param {
    axis: 1
  }
}
layer {
  name: "conv7_2_mbox_conf"
  type: "Convolution"
  bottom: "conv7_2"
  top: "conv7_2_mbox_conf"
  param {
    lr_mult: 1
    decay_mult: 1
  }
  param {
    lr_mult: 2
    decay_mult: 0
  }
  convolution_param {
    num_output: 24
    pad: 1
    kernel_size: 3
    stride: 1
    weight_filler {
      type: "xavier"
    }
    bias_filler {
      type: "constant"
      value: 0
    }
  }
}
layer {
  name: "conv7_2_mbox_conf_perm"
  type: "Permute"
  bottom: "conv7_2_mbox_conf"
  top: "conv7_2_mbox_conf_perm"
  permute_param {
    order: 0
    order: 2
    order: 3
    order: 1
  }
}
layer {
  name: "conv7_2_mbox_conf_flat"
  type: "Flatten"
  bottom: "conv7_2_mbox_conf_perm"
  top: "conv7_2_mbox_conf_flat"
  flatten_param {
    axis: 1
  }
}
layer {
  name: "conv7_2_mbox_priorbox"
  type: "PriorBox"
  bottom: "conv7_2"
  bottom: "data"
  top: "conv7_2_mbox_priorbox"
  prior_box_param {
    min_size: 162
    max_size: 213
    aspect_ratio: 2
    aspect_ratio: 3
    flip: true
    clip: false
    variance: 0.1
    variance: 0.1
    variance: 0.2
    variance: 0.2
    step: 64
    offset: 0.5
  }
}
layer {
  name: "conv8_2_mbox_loc"
  type: "Convolution"
  bottom: "conv8_2"
  top: "conv8_2_mbox_loc"
  param {
    lr_mult: 1
    decay_mult: 1
  }
  param {
    lr_mult: 2
    decay_mult: 0
  }
  convolution_param {
    num_output: 16
    pad: 1
    kernel_size: 3
    stride: 1
    weight_filler {
      type: "xavier"
    }
    bias_filler {
      type: "constant"
      value: 0
    }
  }
}
layer {
  name: "conv8_2_mbox_loc_perm"
  type: "Permute"
  bottom: "conv8_2_mbox_loc"
  top: "conv8_2_mbox_loc_perm"
  permute_param {
    order: 0
    order: 2
    order: 3
    order: 1
  }
}
layer {
  name: "conv8_2_mbox_loc_flat"
  type: "Flatten"
  bottom: "conv8_2_mbox_loc_perm"
  top: "conv8_2_mbox_loc_flat"
  flatten_param {
    axis: 1
  }
}
layer {
  name: "conv8_2_mbox_conf"
  type: "Convolution"
  bottom: "conv8_2"
  top: "conv8_2_mbox_conf"
  param {
    lr_mult: 1
    decay_mult: 1
  }
  param {
    lr_mult: 2
    decay_mult: 0
  }
  convolution_param {
    num_output: 16
    pad: 1
    kernel_size: 3
    stride: 1
    weight_filler {
      type: "xavier"
    }
    bias_filler {
      type: "constant"
      value: 0
    }
  }
}
layer {
  name: "conv8_2_mbox_conf_perm"
  type: "Permute"
  bottom: "conv8_2_mbox_conf"
  top: "conv8_2_mbox_conf_perm"
  permute_param {
    order: 0
    order: 2
    order: 3
    order: 1
  }
}
layer {
  name: "conv8_2_mbox_conf_flat"
  type: "Flatten"
  bottom: "conv8_2_mbox_conf_perm"
  top: "conv8_2_mbox_conf_flat"
  flatten_param {
    axis: 1
  }
}
layer {
  name: "conv8_2_mbox_priorbox"
  type: "PriorBox"
  bottom: "conv8_2"
  bottom: "data"
  top: "conv8_2_mbox_priorbox"
  prior_box_param {
    min_size: 213
    max_size: 264
    aspect_ratio: 2
    flip: true
    clip: false
    variance: 0.1
    variance: 0.1
    variance: 0.2
    variance: 0.2
    step: 100
    offset: 0.5
  }
}
layer {
  name: "conv9_2_mbox_loc"
  type: "Convolution"
  bottom: "conv9_2"
  top: "conv9_2_mbox_loc"
  param {
    lr_mult: 1
    decay_mult: 1
  }
  param {
    lr_mult: 2
    decay_mult: 0
  }
  convolution_param {
    num_output: 16
    pad: 1
    kernel_size: 3
    stride: 1
    weight_filler {
      type: "xavier"
    }
    bias_filler {
      type: "constant"
      value: 0
    }
  }
}
layer {
  name: "conv9_2_mbox_loc_perm"
  type: "Permute"
  bottom: "conv9_2_mbox_loc"
  top: "conv9_2_mbox_loc_perm"
  permute_param {
    order: 0
    order: 2
    order: 3
    order: 1
  }
}
layer {
  name: "conv9_2_mbox_loc_flat"
  type: "Flatten"
  bottom: "conv9_2_mbox_loc_perm"
  top: "conv9_2_mbox_loc_flat"
  flatten_param {
    axis: 1
  }
}
layer {
  name: "conv9_2_mbox_conf"
  type: "Convolution"
  bottom: "conv9_2"
  top: "conv9_2_mbox_conf"
  param {
    lr_mult: 1
    decay_mult: 1
  }
  param {
    lr_mult: 2
    decay_mult: 0
  }
  convolution_param {
    num_output: 16
    pad: 1
    kernel_size: 3
    stride: 1
    weight_filler {
      type: "xavier"
    }
    bias_filler {
      type: "constant"
      value: 0
    }
  }
}
layer {
  name: "conv9_2_mbox_conf_perm"
  type: "Permute"
  bottom: "conv9_2_mbox_conf"
  top: "conv9_2_mbox_conf_perm"
  permute_param {
    order: 0
    order: 2
    order: 3
    order: 1
  }
}
layer {
  name: "conv9_2_mbox_conf_flat"
  type: "Flatten"
  bottom: "conv9_2_mbox_conf_perm"
  top: "conv9_2_mbox_conf_flat"
  flatten_param {
    axis: 1
  }
}
layer {
  name: "conv9_2_mbox_priorbox"
  type: "PriorBox"
  bottom: "conv9_2"
  bottom: "data"
  top: "conv9_2_mbox_priorbox"
  prior_box_param {
    min_size: 264
    max_size: 315
    aspect_ratio: 2
    flip: true
    clip: false
    variance: 0.1
    variance: 0.1
    variance: 0.2
    variance: 0.2
    step: 300
    offset: 0.5
  }
}
layer {
  name: "mbox_loc"
  type: "Concat"
  bottom: "conv4_3_norm_mbox_loc_flat"
  bottom: "fc7_mbox_loc_flat"
  bottom: "conv6_2_mbox_loc_flat"
  bottom: "conv7_2_mbox_loc_flat"
  bottom: "conv8_2_mbox_loc_flat"
  bottom: "conv9_2_mbox_loc_flat"
  top: "mbox_loc"
  concat_param {
    axis: 1
  }
}
layer {
  name: "mbox_conf"
  type: "Concat"
  bottom: "conv4_3_norm_mbox_conf_flat"
  bottom: "fc7_mbox_conf_flat"
  bottom: "conv6_2_mbox_conf_flat"
  bottom: "conv7_2_mbox_conf_flat"
  bottom: "conv8_2_mbox_conf_flat"
  bottom: "conv9_2_mbox_conf_flat"
  top: "mbox_conf"
  concat_param {
    axis: 1
  }
}
layer {
  name: "mbox_priorbox"
  type: "Concat"
  bottom: "conv4_3_norm_mbox_priorbox"
  bottom: "fc7_mbox_priorbox"
  bottom: "conv6_2_mbox_priorbox"
  bottom: "conv7_2_mbox_priorbox"
  bottom: "conv8_2_mbox_priorbox"
  bottom: "conv9_2_mbox_priorbox"
  top: "mbox_priorbox"
  concat_param {
    axis: 2
  }
}
layer {
  name: "mbox_conf_reshape"
  type: "Reshape"
  bottom: "mbox_conf"
  top: "mbox_conf_reshape"
  reshape_param {
    shape {
      dim: 0
      dim: -1
      dim: 4
    }
  }
}
layer {
  name: "mbox_conf_softmax"
  type: "Softmax"
  bottom: "mbox_conf_reshape"
  top: "mbox_conf_softmax"
  softmax_param {
    axis: 2
  }
}
layer {
  name: "mbox_conf_flatten"
  type: "Flatten"
  bottom: "mbox_conf_softmax"
  top: "mbox_conf_flatten"
  flatten_param {
    axis: 1
  }
}
layer {
  name: "detection_out"
  type: "DetectionOutput"
  bottom: "mbox_loc"
  bottom: "mbox_conf_flatten"
  bottom: "mbox_priorbox"
  top: "detection_out"
  include {
    phase: TEST
  }
  detection_output_param {
    num_classes: 4
    share_location: true
    background_label_id: 0
    nms_param {
      nms_threshold: 0.45
      top_k: 400
    }
    save_output_param {
      output_directory: "/home/shangzw/data/tbs/results/tbs/SSD_300x300/Main"
      output_name_prefix: "comp4_det_test_"
      output_format: "VOC"
      label_map_file: "data/tbs_300x300_HSIL_10x/labelmap_tbs.prototxt"
      name_size_file: "data/VOC0712/test_name_size.txt"
      num_test_image: 100
    }
    code_type: CENTER_SIZE
    keep_top_k: 200
    confidence_threshold: 0.01
  }
}
layer {
  name: "detection_eval"
  type: "DetectionEvaluate"
  bottom: "detection_out"
  bottom: "label"
  top: "detection_eval"
  include {
    phase: TEST
  }
  detection_evaluate_param {
    num_classes: 4
    background_label_id: 0
    overlap_threshold: 0.5
    evaluate_difficult_gt: false
    name_size_file: "data/VOC0712/test_name_size.txt"
  }
}
I0601 12:00:51.250015 13437 layer_factory.hpp:77] Creating layer data
I0601 12:00:51.250098 13437 net.cpp:100] Creating Layer data
I0601 12:00:51.250111 13437 net.cpp:408] data -> data
I0601 12:00:51.250125 13437 net.cpp:408] data -> label
I0601 12:00:51.250629 13460 db_lmdb.cpp:35] Opened lmdb examples/tbs_300x300_HSIL_10x/tbs_300x300_HSIL_10x_test_lmdb
I0601 12:00:51.251595 13437 annotated_data_layer.cpp:62] output data size: 4,3,300,300
I0601 12:00:51.263633 13437 net.cpp:150] Setting up data
I0601 12:00:51.263650 13437 net.cpp:157] Top shape: 4 3 300 300 (1080000)
I0601 12:00:51.263656 13437 net.cpp:157] Top shape: 1 1 1 8 (8)
I0601 12:00:51.263660 13437 net.cpp:165] Memory required for data: 4320032
I0601 12:00:51.263666 13437 layer_factory.hpp:77] Creating layer data_data_0_split
I0601 12:00:51.263679 13437 net.cpp:100] Creating Layer data_data_0_split
I0601 12:00:51.263684 13437 net.cpp:434] data_data_0_split <- data
I0601 12:00:51.263692 13437 net.cpp:408] data_data_0_split -> data_data_0_split_0
I0601 12:00:51.263703 13437 net.cpp:408] data_data_0_split -> data_data_0_split_1
I0601 12:00:51.263711 13437 net.cpp:408] data_data_0_split -> data_data_0_split_2
I0601 12:00:51.263718 13437 net.cpp:408] data_data_0_split -> data_data_0_split_3
I0601 12:00:51.263725 13437 net.cpp:408] data_data_0_split -> data_data_0_split_4
I0601 12:00:51.263732 13437 net.cpp:408] data_data_0_split -> data_data_0_split_5
I0601 12:00:51.263738 13437 net.cpp:408] data_data_0_split -> data_data_0_split_6
I0601 12:00:51.263977 13437 net.cpp:150] Setting up data_data_0_split
I0601 12:00:51.263990 13437 net.cpp:157] Top shape: 4 3 300 300 (1080000)
I0601 12:00:51.263995 13437 net.cpp:157] Top shape: 4 3 300 300 (1080000)
I0601 12:00:51.264000 13437 net.cpp:157] Top shape: 4 3 300 300 (1080000)
I0601 12:00:51.264005 13437 net.cpp:157] Top shape: 4 3 300 300 (1080000)
I0601 12:00:51.264011 13437 net.cpp:157] Top shape: 4 3 300 300 (1080000)
I0601 12:00:51.264027 13437 net.cpp:157] Top shape: 4 3 300 300 (1080000)
I0601 12:00:51.264034 13437 net.cpp:157] Top shape: 4 3 300 300 (1080000)
I0601 12:00:51.264036 13437 net.cpp:165] Memory required for data: 34560032
I0601 12:00:51.264041 13437 layer_factory.hpp:77] Creating layer conv1_1
I0601 12:00:51.264055 13437 net.cpp:100] Creating Layer conv1_1
I0601 12:00:51.264058 13437 net.cpp:434] conv1_1 <- data_data_0_split_0
I0601 12:00:51.264065 13437 net.cpp:408] conv1_1 -> conv1_1
I0601 12:00:51.265647 13437 net.cpp:150] Setting up conv1_1
I0601 12:00:51.265694 13437 net.cpp:157] Top shape: 4 64 300 300 (23040000)
I0601 12:00:51.265708 13437 net.cpp:165] Memory required for data: 126720032
I0601 12:00:51.265733 13437 layer_factory.hpp:77] Creating layer relu1_1
I0601 12:00:51.265753 13437 net.cpp:100] Creating Layer relu1_1
I0601 12:00:51.265768 13437 net.cpp:434] relu1_1 <- conv1_1
I0601 12:00:51.265784 13437 net.cpp:395] relu1_1 -> conv1_1 (in-place)
I0601 12:00:51.266043 13437 net.cpp:150] Setting up relu1_1
I0601 12:00:51.266057 13437 net.cpp:157] Top shape: 4 64 300 300 (23040000)
I0601 12:00:51.266062 13437 net.cpp:165] Memory required for data: 218880032
I0601 12:00:51.266067 13437 layer_factory.hpp:77] Creating layer conv1_2
I0601 12:00:51.266080 13437 net.cpp:100] Creating Layer conv1_2
I0601 12:00:51.266095 13437 net.cpp:434] conv1_2 <- conv1_1
I0601 12:00:51.266113 13437 net.cpp:408] conv1_2 -> conv1_2
I0601 12:00:51.267722 13437 net.cpp:150] Setting up conv1_2
I0601 12:00:51.267767 13437 net.cpp:157] Top shape: 4 64 300 300 (23040000)
I0601 12:00:51.267782 13437 net.cpp:165] Memory required for data: 311040032
I0601 12:00:51.267807 13437 layer_factory.hpp:77] Creating layer relu1_2
I0601 12:00:51.267824 13437 net.cpp:100] Creating Layer relu1_2
I0601 12:00:51.267838 13437 net.cpp:434] relu1_2 <- conv1_2
I0601 12:00:51.267855 13437 net.cpp:395] relu1_2 -> conv1_2 (in-place)
I0601 12:00:51.269928 13437 net.cpp:150] Setting up relu1_2
I0601 12:00:51.269973 13437 net.cpp:157] Top shape: 4 64 300 300 (23040000)
I0601 12:00:51.269986 13437 net.cpp:165] Memory required for data: 403200032
I0601 12:00:51.270000 13437 layer_factory.hpp:77] Creating layer pool1
I0601 12:00:51.270021 13437 net.cpp:100] Creating Layer pool1
I0601 12:00:51.270035 13437 net.cpp:434] pool1 <- conv1_2
I0601 12:00:51.270052 13437 net.cpp:408] pool1 -> pool1
I0601 12:00:51.270128 13437 net.cpp:150] Setting up pool1
I0601 12:00:51.270138 13437 net.cpp:157] Top shape: 4 64 150 150 (5760000)
I0601 12:00:51.270141 13437 net.cpp:165] Memory required for data: 426240032
I0601 12:00:51.270145 13437 layer_factory.hpp:77] Creating layer conv2_1
I0601 12:00:51.270157 13437 net.cpp:100] Creating Layer conv2_1
I0601 12:00:51.270161 13437 net.cpp:434] conv2_1 <- pool1
I0601 12:00:51.270170 13437 net.cpp:408] conv2_1 -> conv2_1
I0601 12:00:51.272056 13437 net.cpp:150] Setting up conv2_1
I0601 12:00:51.272074 13437 net.cpp:157] Top shape: 4 128 150 150 (11520000)
I0601 12:00:51.272078 13437 net.cpp:165] Memory required for data: 472320032
I0601 12:00:51.272091 13437 layer_factory.hpp:77] Creating layer relu2_1
I0601 12:00:51.272104 13437 net.cpp:100] Creating Layer relu2_1
I0601 12:00:51.272110 13437 net.cpp:434] relu2_1 <- conv2_1
I0601 12:00:51.272119 13437 net.cpp:395] relu2_1 -> conv2_1 (in-place)
I0601 12:00:51.272898 13437 net.cpp:150] Setting up relu2_1
I0601 12:00:51.272931 13437 net.cpp:157] Top shape: 4 128 150 150 (11520000)
I0601 12:00:51.272948 13437 net.cpp:165] Memory required for data: 518400032
I0601 12:00:51.272963 13437 layer_factory.hpp:77] Creating layer conv2_2
I0601 12:00:51.272984 13437 net.cpp:100] Creating Layer conv2_2
I0601 12:00:51.273000 13437 net.cpp:434] conv2_2 <- conv2_1
I0601 12:00:51.273020 13437 net.cpp:408] conv2_2 -> conv2_2
I0601 12:00:51.276907 13437 net.cpp:150] Setting up conv2_2
I0601 12:00:51.276922 13437 net.cpp:157] Top shape: 4 128 150 150 (11520000)
I0601 12:00:51.276924 13437 net.cpp:165] Memory required for data: 564480032
I0601 12:00:51.276945 13437 layer_factory.hpp:77] Creating layer relu2_2
I0601 12:00:51.276973 13437 net.cpp:100] Creating Layer relu2_2
I0601 12:00:51.276993 13437 net.cpp:434] relu2_2 <- conv2_2
I0601 12:00:51.276999 13437 net.cpp:395] relu2_2 -> conv2_2 (in-place)
I0601 12:00:51.277178 13437 net.cpp:150] Setting up relu2_2
I0601 12:00:51.277184 13437 net.cpp:157] Top shape: 4 128 150 150 (11520000)
I0601 12:00:51.277186 13437 net.cpp:165] Memory required for data: 610560032
I0601 12:00:51.277189 13437 layer_factory.hpp:77] Creating layer pool2
I0601 12:00:51.277194 13437 net.cpp:100] Creating Layer pool2
I0601 12:00:51.277210 13437 net.cpp:434] pool2 <- conv2_2
I0601 12:00:51.277215 13437 net.cpp:408] pool2 -> pool2
I0601 12:00:51.277274 13437 net.cpp:150] Setting up pool2
I0601 12:00:51.277281 13437 net.cpp:157] Top shape: 4 128 75 75 (2880000)
I0601 12:00:51.277283 13437 net.cpp:165] Memory required for data: 622080032
I0601 12:00:51.277285 13437 layer_factory.hpp:77] Creating layer conv3_1
I0601 12:00:51.277293 13437 net.cpp:100] Creating Layer conv3_1
I0601 12:00:51.277309 13437 net.cpp:434] conv3_1 <- pool2
I0601 12:00:51.277317 13437 net.cpp:408] conv3_1 -> conv3_1
I0601 12:00:51.280120 13437 net.cpp:150] Setting up conv3_1
I0601 12:00:51.280133 13437 net.cpp:157] Top shape: 4 256 75 75 (5760000)
I0601 12:00:51.280135 13437 net.cpp:165] Memory required for data: 645120032
I0601 12:00:51.280148 13437 layer_factory.hpp:77] Creating layer relu3_1
I0601 12:00:51.280156 13437 net.cpp:100] Creating Layer relu3_1
I0601 12:00:51.280163 13437 net.cpp:434] relu3_1 <- conv3_1
I0601 12:00:51.280169 13437 net.cpp:395] relu3_1 -> conv3_1 (in-place)
I0601 12:00:51.280326 13437 net.cpp:150] Setting up relu3_1
I0601 12:00:51.280336 13437 net.cpp:157] Top shape: 4 256 75 75 (5760000)
I0601 12:00:51.280339 13437 net.cpp:165] Memory required for data: 668160032
I0601 12:00:51.280344 13437 layer_factory.hpp:77] Creating layer conv3_2
I0601 12:00:51.280357 13437 net.cpp:100] Creating Layer conv3_2
I0601 12:00:51.280375 13437 net.cpp:434] conv3_2 <- conv3_1
I0601 12:00:51.280391 13437 net.cpp:408] conv3_2 -> conv3_2
I0601 12:00:51.286095 13437 net.cpp:150] Setting up conv3_2
I0601 12:00:51.286113 13437 net.cpp:157] Top shape: 4 256 75 75 (5760000)
I0601 12:00:51.286118 13437 net.cpp:165] Memory required for data: 691200032
I0601 12:00:51.286128 13437 layer_factory.hpp:77] Creating layer relu3_2
I0601 12:00:51.286139 13437 net.cpp:100] Creating Layer relu3_2
I0601 12:00:51.286144 13437 net.cpp:434] relu3_2 <- conv3_2
I0601 12:00:51.286154 13437 net.cpp:395] relu3_2 -> conv3_2 (in-place)
I0601 12:00:51.286388 13437 net.cpp:150] Setting up relu3_2
I0601 12:00:51.286415 13437 net.cpp:157] Top shape: 4 256 75 75 (5760000)
I0601 12:00:51.286428 13437 net.cpp:165] Memory required for data: 714240032
I0601 12:00:51.286442 13437 layer_factory.hpp:77] Creating layer conv3_3
I0601 12:00:51.286466 13437 net.cpp:100] Creating Layer conv3_3
I0601 12:00:51.286480 13437 net.cpp:434] conv3_3 <- conv3_2
I0601 12:00:51.286496 13437 net.cpp:408] conv3_3 -> conv3_3
I0601 12:00:51.294157 13437 net.cpp:150] Setting up conv3_3
I0601 12:00:51.294174 13437 net.cpp:157] Top shape: 4 256 75 75 (5760000)
I0601 12:00:51.294179 13437 net.cpp:165] Memory required for data: 737280032
I0601 12:00:51.294189 13437 layer_factory.hpp:77] Creating layer relu3_3
I0601 12:00:51.294198 13437 net.cpp:100] Creating Layer relu3_3
I0601 12:00:51.294203 13437 net.cpp:434] relu3_3 <- conv3_3
I0601 12:00:51.294212 13437 net.cpp:395] relu3_3 -> conv3_3 (in-place)
I0601 12:00:51.294391 13437 net.cpp:150] Setting up relu3_3
I0601 12:00:51.294401 13437 net.cpp:157] Top shape: 4 256 75 75 (5760000)
I0601 12:00:51.294404 13437 net.cpp:165] Memory required for data: 760320032
I0601 12:00:51.294409 13437 layer_factory.hpp:77] Creating layer pool3
I0601 12:00:51.294417 13437 net.cpp:100] Creating Layer pool3
I0601 12:00:51.294422 13437 net.cpp:434] pool3 <- conv3_3
I0601 12:00:51.294428 13437 net.cpp:408] pool3 -> pool3
I0601 12:00:51.294489 13437 net.cpp:150] Setting up pool3
I0601 12:00:51.294497 13437 net.cpp:157] Top shape: 4 256 38 38 (1478656)
I0601 12:00:51.294526 13437 net.cpp:165] Memory required for data: 766234656
I0601 12:00:51.294533 13437 layer_factory.hpp:77] Creating layer conv4_1
I0601 12:00:51.294546 13437 net.cpp:100] Creating Layer conv4_1
I0601 12:00:51.294559 13437 net.cpp:434] conv4_1 <- pool3
I0601 12:00:51.294570 13437 net.cpp:408] conv4_1 -> conv4_1
I0601 12:00:51.303426 13437 net.cpp:150] Setting up conv4_1
I0601 12:00:51.303447 13437 net.cpp:157] Top shape: 4 512 38 38 (2957312)
I0601 12:00:51.303450 13437 net.cpp:165] Memory required for data: 778063904
I0601 12:00:51.303460 13437 layer_factory.hpp:77] Creating layer relu4_1
I0601 12:00:51.303469 13437 net.cpp:100] Creating Layer relu4_1
I0601 12:00:51.303475 13437 net.cpp:434] relu4_1 <- conv4_1
I0601 12:00:51.303483 13437 net.cpp:395] relu4_1 -> conv4_1 (in-place)
I0601 12:00:51.304141 13437 net.cpp:150] Setting up relu4_1
I0601 12:00:51.304152 13437 net.cpp:157] Top shape: 4 512 38 38 (2957312)
I0601 12:00:51.304157 13437 net.cpp:165] Memory required for data: 789893152
I0601 12:00:51.304162 13437 layer_factory.hpp:77] Creating layer conv4_2
I0601 12:00:51.304175 13437 net.cpp:100] Creating Layer conv4_2
I0601 12:00:51.304193 13437 net.cpp:434] conv4_2 <- conv4_1
I0601 12:00:51.304214 13437 net.cpp:408] conv4_2 -> conv4_2
I0601 12:00:51.320936 13437 net.cpp:150] Setting up conv4_2
I0601 12:00:51.320986 13437 net.cpp:157] Top shape: 4 512 38 38 (2957312)
I0601 12:00:51.321000 13437 net.cpp:165] Memory required for data: 801722400
I0601 12:00:51.321027 13437 layer_factory.hpp:77] Creating layer relu4_2
I0601 12:00:51.321046 13437 net.cpp:100] Creating Layer relu4_2
I0601 12:00:51.321060 13437 net.cpp:434] relu4_2 <- conv4_2
I0601 12:00:51.321076 13437 net.cpp:395] relu4_2 -> conv4_2 (in-place)
I0601 12:00:51.322048 13437 net.cpp:150] Setting up relu4_2
I0601 12:00:51.322080 13437 net.cpp:157] Top shape: 4 512 38 38 (2957312)
I0601 12:00:51.322093 13437 net.cpp:165] Memory required for data: 813551648
I0601 12:00:51.322103 13437 layer_factory.hpp:77] Creating layer conv4_3
I0601 12:00:51.322126 13437 net.cpp:100] Creating Layer conv4_3
I0601 12:00:51.322141 13437 net.cpp:434] conv4_3 <- conv4_2
I0601 12:00:51.322160 13437 net.cpp:408] conv4_3 -> conv4_3
I0601 12:00:51.341374 13437 net.cpp:150] Setting up conv4_3
I0601 12:00:51.341398 13437 net.cpp:157] Top shape: 4 512 38 38 (2957312)
I0601 12:00:51.341414 13437 net.cpp:165] Memory required for data: 825380896
I0601 12:00:51.341439 13437 layer_factory.hpp:77] Creating layer relu4_3
I0601 12:00:51.341447 13437 net.cpp:100] Creating Layer relu4_3
I0601 12:00:51.341452 13437 net.cpp:434] relu4_3 <- conv4_3
I0601 12:00:51.341471 13437 net.cpp:395] relu4_3 -> conv4_3 (in-place)
I0601 12:00:51.341718 13437 net.cpp:150] Setting up relu4_3
I0601 12:00:51.341745 13437 net.cpp:157] Top shape: 4 512 38 38 (2957312)
I0601 12:00:51.341749 13437 net.cpp:165] Memory required for data: 837210144
I0601 12:00:51.341754 13437 layer_factory.hpp:77] Creating layer conv4_3_relu4_3_0_split
I0601 12:00:51.341763 13437 net.cpp:100] Creating Layer conv4_3_relu4_3_0_split
I0601 12:00:51.341768 13437 net.cpp:434] conv4_3_relu4_3_0_split <- conv4_3
I0601 12:00:51.341775 13437 net.cpp:408] conv4_3_relu4_3_0_split -> conv4_3_relu4_3_0_split_0
I0601 12:00:51.341785 13437 net.cpp:408] conv4_3_relu4_3_0_split -> conv4_3_relu4_3_0_split_1
I0601 12:00:51.341861 13437 net.cpp:150] Setting up conv4_3_relu4_3_0_split
I0601 12:00:51.341886 13437 net.cpp:157] Top shape: 4 512 38 38 (2957312)
I0601 12:00:51.341903 13437 net.cpp:157] Top shape: 4 512 38 38 (2957312)
I0601 12:00:51.341909 13437 net.cpp:165] Memory required for data: 860868640
I0601 12:00:51.341913 13437 layer_factory.hpp:77] Creating layer pool4
I0601 12:00:51.341920 13437 net.cpp:100] Creating Layer pool4
I0601 12:00:51.341925 13437 net.cpp:434] pool4 <- conv4_3_relu4_3_0_split_0
I0601 12:00:51.341933 13437 net.cpp:408] pool4 -> pool4
I0601 12:00:51.342016 13437 net.cpp:150] Setting up pool4
I0601 12:00:51.342034 13437 net.cpp:157] Top shape: 4 512 19 19 (739328)
I0601 12:00:51.342051 13437 net.cpp:165] Memory required for data: 863825952
I0601 12:00:51.342069 13437 layer_factory.hpp:77] Creating layer conv5_1
I0601 12:00:51.342090 13437 net.cpp:100] Creating Layer conv5_1
I0601 12:00:51.342097 13437 net.cpp:434] conv5_1 <- pool4
I0601 12:00:51.342104 13437 net.cpp:408] conv5_1 -> conv5_1
I0601 12:00:51.358161 13437 net.cpp:150] Setting up conv5_1
I0601 12:00:51.358184 13437 net.cpp:157] Top shape: 4 512 19 19 (739328)
I0601 12:00:51.358188 13437 net.cpp:165] Memory required for data: 866783264
I0601 12:00:51.358199 13437 layer_factory.hpp:77] Creating layer relu5_1
I0601 12:00:51.358209 13437 net.cpp:100] Creating Layer relu5_1
I0601 12:00:51.358214 13437 net.cpp:434] relu5_1 <- conv5_1
I0601 12:00:51.358223 13437 net.cpp:395] relu5_1 -> conv5_1 (in-place)
I0601 12:00:51.358434 13437 net.cpp:150] Setting up relu5_1
I0601 12:00:51.358461 13437 net.cpp:157] Top shape: 4 512 19 19 (739328)
I0601 12:00:51.358474 13437 net.cpp:165] Memory required for data: 869740576
I0601 12:00:51.358486 13437 layer_factory.hpp:77] Creating layer conv5_2
I0601 12:00:51.358508 13437 net.cpp:100] Creating Layer conv5_2
I0601 12:00:51.358522 13437 net.cpp:434] conv5_2 <- conv5_1
I0601 12:00:51.358539 13437 net.cpp:408] conv5_2 -> conv5_2
I0601 12:00:51.374833 13437 net.cpp:150] Setting up conv5_2
I0601 12:00:51.374853 13437 net.cpp:157] Top shape: 4 512 19 19 (739328)
I0601 12:00:51.374857 13437 net.cpp:165] Memory required for data: 872697888
I0601 12:00:51.374867 13437 layer_factory.hpp:77] Creating layer relu5_2
I0601 12:00:51.374876 13437 net.cpp:100] Creating Layer relu5_2
I0601 12:00:51.374881 13437 net.cpp:434] relu5_2 <- conv5_2
I0601 12:00:51.374888 13437 net.cpp:395] relu5_2 -> conv5_2 (in-place)
I0601 12:00:51.375099 13437 net.cpp:150] Setting up relu5_2
I0601 12:00:51.375113 13437 net.cpp:157] Top shape: 4 512 19 19 (739328)
I0601 12:00:51.375118 13437 net.cpp:165] Memory required for data: 875655200
I0601 12:00:51.375121 13437 layer_factory.hpp:77] Creating layer conv5_3
I0601 12:00:51.375136 13437 net.cpp:100] Creating Layer conv5_3
I0601 12:00:51.375141 13437 net.cpp:434] conv5_3 <- conv5_2
I0601 12:00:51.375149 13437 net.cpp:408] conv5_3 -> conv5_3
I0601 12:00:51.391034 13437 net.cpp:150] Setting up conv5_3
I0601 12:00:51.391054 13437 net.cpp:157] Top shape: 4 512 19 19 (739328)
I0601 12:00:51.391058 13437 net.cpp:165] Memory required for data: 878612512
I0601 12:00:51.391068 13437 layer_factory.hpp:77] Creating layer relu5_3
I0601 12:00:51.391084 13437 net.cpp:100] Creating Layer relu5_3
I0601 12:00:51.391104 13437 net.cpp:434] relu5_3 <- conv5_3
I0601 12:00:51.391121 13437 net.cpp:395] relu5_3 -> conv5_3 (in-place)
I0601 12:00:51.391289 13437 net.cpp:150] Setting up relu5_3
I0601 12:00:51.391299 13437 net.cpp:157] Top shape: 4 512 19 19 (739328)
I0601 12:00:51.391304 13437 net.cpp:165] Memory required for data: 881569824
I0601 12:00:51.391307 13437 layer_factory.hpp:77] Creating layer pool5
I0601 12:00:51.391315 13437 net.cpp:100] Creating Layer pool5
I0601 12:00:51.391320 13437 net.cpp:434] pool5 <- conv5_3
I0601 12:00:51.391329 13437 net.cpp:408] pool5 -> pool5
I0601 12:00:51.391392 13437 net.cpp:150] Setting up pool5
I0601 12:00:51.391412 13437 net.cpp:157] Top shape: 4 512 19 19 (739328)
I0601 12:00:51.391424 13437 net.cpp:165] Memory required for data: 884527136
I0601 12:00:51.391438 13437 layer_factory.hpp:77] Creating layer fc6
I0601 12:00:51.391458 13437 net.cpp:100] Creating Layer fc6
I0601 12:00:51.391471 13437 net.cpp:434] fc6 <- pool5
I0601 12:00:51.391489 13437 net.cpp:408] fc6 -> fc6
I0601 12:00:51.418277 13437 net.cpp:150] Setting up fc6
I0601 12:00:51.418295 13437 net.cpp:157] Top shape: 4 1024 19 19 (1478656)
I0601 12:00:51.418298 13437 net.cpp:165] Memory required for data: 890441760
I0601 12:00:51.418308 13437 layer_factory.hpp:77] Creating layer relu6
I0601 12:00:51.418318 13437 net.cpp:100] Creating Layer relu6
I0601 12:00:51.418324 13437 net.cpp:434] relu6 <- fc6
I0601 12:00:51.418332 13437 net.cpp:395] relu6 -> fc6 (in-place)
I0601 12:00:51.419625 13437 net.cpp:150] Setting up relu6
I0601 12:00:51.419646 13437 net.cpp:157] Top shape: 4 1024 19 19 (1478656)
I0601 12:00:51.419665 13437 net.cpp:165] Memory required for data: 896356384
I0601 12:00:51.419673 13437 layer_factory.hpp:77] Creating layer fc7
I0601 12:00:51.419689 13437 net.cpp:100] Creating Layer fc7
I0601 12:00:51.419697 13437 net.cpp:434] fc7 <- fc6
I0601 12:00:51.419720 13437 net.cpp:408] fc7 -> fc7
I0601 12:00:51.429651 13437 net.cpp:150] Setting up fc7
I0601 12:00:51.429698 13437 net.cpp:157] Top shape: 4 1024 19 19 (1478656)
I0601 12:00:51.429713 13437 net.cpp:165] Memory required for data: 902271008
I0601 12:00:51.429733 13437 layer_factory.hpp:77] Creating layer relu7
I0601 12:00:51.429750 13437 net.cpp:100] Creating Layer relu7
I0601 12:00:51.429764 13437 net.cpp:434] relu7 <- fc7
I0601 12:00:51.429778 13437 net.cpp:395] relu7 -> fc7 (in-place)
I0601 12:00:51.429955 13437 net.cpp:150] Setting up relu7
I0601 12:00:51.429965 13437 net.cpp:157] Top shape: 4 1024 19 19 (1478656)
I0601 12:00:51.429970 13437 net.cpp:165] Memory required for data: 908185632
I0601 12:00:51.429973 13437 layer_factory.hpp:77] Creating layer fc7_relu7_0_split
I0601 12:00:51.429980 13437 net.cpp:100] Creating Layer fc7_relu7_0_split
I0601 12:00:51.429986 13437 net.cpp:434] fc7_relu7_0_split <- fc7
I0601 12:00:51.429993 13437 net.cpp:408] fc7_relu7_0_split -> fc7_relu7_0_split_0
I0601 12:00:51.430003 13437 net.cpp:408] fc7_relu7_0_split -> fc7_relu7_0_split_1
I0601 12:00:51.430017 13437 net.cpp:408] fc7_relu7_0_split -> fc7_relu7_0_split_2
I0601 12:00:51.430025 13437 net.cpp:408] fc7_relu7_0_split -> fc7_relu7_0_split_3
I0601 12:00:51.430135 13437 net.cpp:150] Setting up fc7_relu7_0_split
I0601 12:00:51.430143 13437 net.cpp:157] Top shape: 4 1024 19 19 (1478656)
I0601 12:00:51.430160 13437 net.cpp:157] Top shape: 4 1024 19 19 (1478656)
I0601 12:00:51.430166 13437 net.cpp:157] Top shape: 4 1024 19 19 (1478656)
I0601 12:00:51.430171 13437 net.cpp:157] Top shape: 4 1024 19 19 (1478656)
I0601 12:00:51.430176 13437 net.cpp:165] Memory required for data: 931844128
I0601 12:00:51.430179 13437 layer_factory.hpp:77] Creating layer conv6_1
I0601 12:00:51.430191 13437 net.cpp:100] Creating Layer conv6_1
I0601 12:00:51.430197 13437 net.cpp:434] conv6_1 <- fc7_relu7_0_split_0
I0601 12:00:51.430207 13437 net.cpp:408] conv6_1 -> conv6_1
I0601 12:00:51.435139 13437 net.cpp:150] Setting up conv6_1
I0601 12:00:51.435159 13437 net.cpp:157] Top shape: 4 256 19 19 (369664)
I0601 12:00:51.435163 13437 net.cpp:165] Memory required for data: 933322784
I0601 12:00:51.435174 13437 layer_factory.hpp:77] Creating layer conv6_1_relu
I0601 12:00:51.435184 13437 net.cpp:100] Creating Layer conv6_1_relu
I0601 12:00:51.435189 13437 net.cpp:434] conv6_1_relu <- conv6_1
I0601 12:00:51.435195 13437 net.cpp:395] conv6_1_relu -> conv6_1 (in-place)
I0601 12:00:51.435387 13437 net.cpp:150] Setting up conv6_1_relu
I0601 12:00:51.435413 13437 net.cpp:157] Top shape: 4 256 19 19 (369664)
I0601 12:00:51.435426 13437 net.cpp:165] Memory required for data: 934801440
I0601 12:00:51.435441 13437 layer_factory.hpp:77] Creating layer conv6_2
I0601 12:00:51.435461 13437 net.cpp:100] Creating Layer conv6_2
I0601 12:00:51.435477 13437 net.cpp:434] conv6_2 <- conv6_1
I0601 12:00:51.435492 13437 net.cpp:408] conv6_2 -> conv6_2
I0601 12:00:51.446709 13437 net.cpp:150] Setting up conv6_2
I0601 12:00:51.446761 13437 net.cpp:157] Top shape: 4 512 10 10 (204800)
I0601 12:00:51.446775 13437 net.cpp:165] Memory required for data: 935620640
I0601 12:00:51.446802 13437 layer_factory.hpp:77] Creating layer conv6_2_relu
I0601 12:00:51.446871 13437 net.cpp:100] Creating Layer conv6_2_relu
I0601 12:00:51.446887 13437 net.cpp:434] conv6_2_relu <- conv6_2
I0601 12:00:51.446903 13437 net.cpp:395] conv6_2_relu -> conv6_2 (in-place)
I0601 12:00:51.447141 13437 net.cpp:150] Setting up conv6_2_relu
I0601 12:00:51.447161 13437 net.cpp:157] Top shape: 4 512 10 10 (204800)
I0601 12:00:51.447175 13437 net.cpp:165] Memory required for data: 936439840
I0601 12:00:51.447187 13437 layer_factory.hpp:77] Creating layer conv6_2_conv6_2_relu_0_split
I0601 12:00:51.447211 13437 net.cpp:100] Creating Layer conv6_2_conv6_2_relu_0_split
I0601 12:00:51.447232 13437 net.cpp:434] conv6_2_conv6_2_relu_0_split <- conv6_2
I0601 12:00:51.447244 13437 net.cpp:408] conv6_2_conv6_2_relu_0_split -> conv6_2_conv6_2_relu_0_split_0
I0601 12:00:51.447253 13437 net.cpp:408] conv6_2_conv6_2_relu_0_split -> conv6_2_conv6_2_relu_0_split_1
I0601 12:00:51.447262 13437 net.cpp:408] conv6_2_conv6_2_relu_0_split -> conv6_2_conv6_2_relu_0_split_2
I0601 12:00:51.447269 13437 net.cpp:408] conv6_2_conv6_2_relu_0_split -> conv6_2_conv6_2_relu_0_split_3
I0601 12:00:51.447379 13437 net.cpp:150] Setting up conv6_2_conv6_2_relu_0_split
I0601 12:00:51.447399 13437 net.cpp:157] Top shape: 4 512 10 10 (204800)
I0601 12:00:51.447412 13437 net.cpp:157] Top shape: 4 512 10 10 (204800)
I0601 12:00:51.447424 13437 net.cpp:157] Top shape: 4 512 10 10 (204800)
I0601 12:00:51.447437 13437 net.cpp:157] Top shape: 4 512 10 10 (204800)
I0601 12:00:51.447446 13437 net.cpp:165] Memory required for data: 939716640
I0601 12:00:51.447458 13437 layer_factory.hpp:77] Creating layer conv7_1
I0601 12:00:51.447477 13437 net.cpp:100] Creating Layer conv7_1
I0601 12:00:51.447490 13437 net.cpp:434] conv7_1 <- conv6_2_conv6_2_relu_0_split_0
I0601 12:00:51.447505 13437 net.cpp:408] conv7_1 -> conv7_1
I0601 12:00:51.449790 13437 net.cpp:150] Setting up conv7_1
I0601 12:00:51.449837 13437 net.cpp:157] Top shape: 4 128 10 10 (51200)
I0601 12:00:51.449853 13437 net.cpp:165] Memory required for data: 939921440
I0601 12:00:51.449872 13437 layer_factory.hpp:77] Creating layer conv7_1_relu
I0601 12:00:51.449890 13437 net.cpp:100] Creating Layer conv7_1_relu
I0601 12:00:51.449903 13437 net.cpp:434] conv7_1_relu <- conv7_1
I0601 12:00:51.449918 13437 net.cpp:395] conv7_1_relu -> conv7_1 (in-place)
I0601 12:00:51.450137 13437 net.cpp:150] Setting up conv7_1_relu
I0601 12:00:51.450157 13437 net.cpp:157] Top shape: 4 128 10 10 (51200)
I0601 12:00:51.450167 13437 net.cpp:165] Memory required for data: 940126240
I0601 12:00:51.450179 13437 layer_factory.hpp:77] Creating layer conv7_2
I0601 12:00:51.450201 13437 net.cpp:100] Creating Layer conv7_2
I0601 12:00:51.450214 13437 net.cpp:434] conv7_2 <- conv7_1
I0601 12:00:51.450230 13437 net.cpp:408] conv7_2 -> conv7_2
I0601 12:00:51.455032 13437 net.cpp:150] Setting up conv7_2
I0601 12:00:51.455054 13437 net.cpp:157] Top shape: 4 256 5 5 (25600)
I0601 12:00:51.455058 13437 net.cpp:165] Memory required for data: 940228640
I0601 12:00:51.455068 13437 layer_factory.hpp:77] Creating layer conv7_2_relu
I0601 12:00:51.455078 13437 net.cpp:100] Creating Layer conv7_2_relu
I0601 12:00:51.455085 13437 net.cpp:434] conv7_2_relu <- conv7_2
I0601 12:00:51.455094 13437 net.cpp:395] conv7_2_relu -> conv7_2 (in-place)
I0601 12:00:51.455269 13437 net.cpp:150] Setting up conv7_2_relu
I0601 12:00:51.455294 13437 net.cpp:157] Top shape: 4 256 5 5 (25600)
I0601 12:00:51.455308 13437 net.cpp:165] Memory required for data: 940331040
I0601 12:00:51.455322 13437 layer_factory.hpp:77] Creating layer conv7_2_conv7_2_relu_0_split
I0601 12:00:51.455339 13437 net.cpp:100] Creating Layer conv7_2_conv7_2_relu_0_split
I0601 12:00:51.455353 13437 net.cpp:434] conv7_2_conv7_2_relu_0_split <- conv7_2
I0601 12:00:51.455370 13437 net.cpp:408] conv7_2_conv7_2_relu_0_split -> conv7_2_conv7_2_relu_0_split_0
I0601 12:00:51.455391 13437 net.cpp:408] conv7_2_conv7_2_relu_0_split -> conv7_2_conv7_2_relu_0_split_1
I0601 12:00:51.455400 13437 net.cpp:408] conv7_2_conv7_2_relu_0_split -> conv7_2_conv7_2_relu_0_split_2
I0601 12:00:51.455407 13437 net.cpp:408] conv7_2_conv7_2_relu_0_split -> conv7_2_conv7_2_relu_0_split_3
I0601 12:00:51.455492 13437 net.cpp:150] Setting up conv7_2_conv7_2_relu_0_split
I0601 12:00:51.455500 13437 net.cpp:157] Top shape: 4 256 5 5 (25600)
I0601 12:00:51.455505 13437 net.cpp:157] Top shape: 4 256 5 5 (25600)
I0601 12:00:51.455510 13437 net.cpp:157] Top shape: 4 256 5 5 (25600)
I0601 12:00:51.455516 13437 net.cpp:157] Top shape: 4 256 5 5 (25600)
I0601 12:00:51.455520 13437 net.cpp:165] Memory required for data: 940740640
I0601 12:00:51.455524 13437 layer_factory.hpp:77] Creating layer conv8_1
I0601 12:00:51.455556 13437 net.cpp:100] Creating Layer conv8_1
I0601 12:00:51.455564 13437 net.cpp:434] conv8_1 <- conv7_2_conv7_2_relu_0_split_0
I0601 12:00:51.455570 13437 net.cpp:408] conv8_1 -> conv8_1
I0601 12:00:51.457445 13437 net.cpp:150] Setting up conv8_1
I0601 12:00:51.457491 13437 net.cpp:157] Top shape: 4 128 5 5 (12800)
I0601 12:00:51.457499 13437 net.cpp:165] Memory required for data: 940791840
I0601 12:00:51.457523 13437 layer_factory.hpp:77] Creating layer conv8_1_relu
I0601 12:00:51.457533 13437 net.cpp:100] Creating Layer conv8_1_relu
I0601 12:00:51.457541 13437 net.cpp:434] conv8_1_relu <- conv8_1
I0601 12:00:51.457561 13437 net.cpp:395] conv8_1_relu -> conv8_1 (in-place)
I0601 12:00:51.458564 13437 net.cpp:150] Setting up conv8_1_relu
I0601 12:00:51.458601 13437 net.cpp:157] Top shape: 4 128 5 5 (12800)
I0601 12:00:51.458616 13437 net.cpp:165] Memory required for data: 940843040
I0601 12:00:51.458629 13437 layer_factory.hpp:77] Creating layer conv8_2
I0601 12:00:51.458652 13437 net.cpp:100] Creating Layer conv8_2
I0601 12:00:51.458659 13437 net.cpp:434] conv8_2 <- conv8_1
I0601 12:00:51.458669 13437 net.cpp:408] conv8_2 -> conv8_2
I0601 12:00:51.463435 13437 net.cpp:150] Setting up conv8_2
I0601 12:00:51.463482 13437 net.cpp:157] Top shape: 4 256 3 3 (9216)
I0601 12:00:51.463495 13437 net.cpp:165] Memory required for data: 940879904
I0601 12:00:51.463513 13437 layer_factory.hpp:77] Creating layer conv8_2_relu
I0601 12:00:51.463531 13437 net.cpp:100] Creating Layer conv8_2_relu
I0601 12:00:51.463543 13437 net.cpp:434] conv8_2_relu <- conv8_2
I0601 12:00:51.463559 13437 net.cpp:395] conv8_2_relu -> conv8_2 (in-place)
I0601 12:00:51.463800 13437 net.cpp:150] Setting up conv8_2_relu
I0601 12:00:51.463825 13437 net.cpp:157] Top shape: 4 256 3 3 (9216)
I0601 12:00:51.463837 13437 net.cpp:165] Memory required for data: 940916768
I0601 12:00:51.463848 13437 layer_factory.hpp:77] Creating layer conv8_2_conv8_2_relu_0_split
I0601 12:00:51.463865 13437 net.cpp:100] Creating Layer conv8_2_conv8_2_relu_0_split
I0601 12:00:51.463871 13437 net.cpp:434] conv8_2_conv8_2_relu_0_split <- conv8_2
I0601 12:00:51.463879 13437 net.cpp:408] conv8_2_conv8_2_relu_0_split -> conv8_2_conv8_2_relu_0_split_0
I0601 12:00:51.463888 13437 net.cpp:408] conv8_2_conv8_2_relu_0_split -> conv8_2_conv8_2_relu_0_split_1
I0601 12:00:51.463896 13437 net.cpp:408] conv8_2_conv8_2_relu_0_split -> conv8_2_conv8_2_relu_0_split_2
I0601 12:00:51.463904 13437 net.cpp:408] conv8_2_conv8_2_relu_0_split -> conv8_2_conv8_2_relu_0_split_3
I0601 12:00:51.464010 13437 net.cpp:150] Setting up conv8_2_conv8_2_relu_0_split
I0601 12:00:51.464028 13437 net.cpp:157] Top shape: 4 256 3 3 (9216)
I0601 12:00:51.464040 13437 net.cpp:157] Top shape: 4 256 3 3 (9216)
I0601 12:00:51.464053 13437 net.cpp:157] Top shape: 4 256 3 3 (9216)
I0601 12:00:51.464064 13437 net.cpp:157] Top shape: 4 256 3 3 (9216)
I0601 12:00:51.464074 13437 net.cpp:165] Memory required for data: 941064224
I0601 12:00:51.464085 13437 layer_factory.hpp:77] Creating layer conv9_1
I0601 12:00:51.464105 13437 net.cpp:100] Creating Layer conv9_1
I0601 12:00:51.464118 13437 net.cpp:434] conv9_1 <- conv8_2_conv8_2_relu_0_split_0
I0601 12:00:51.464138 13437 net.cpp:408] conv9_1 -> conv9_1
I0601 12:00:51.466032 13437 net.cpp:150] Setting up conv9_1
I0601 12:00:51.466051 13437 net.cpp:157] Top shape: 4 128 3 3 (4608)
I0601 12:00:51.466055 13437 net.cpp:165] Memory required for data: 941082656
I0601 12:00:51.466064 13437 layer_factory.hpp:77] Creating layer conv9_1_relu
I0601 12:00:51.466073 13437 net.cpp:100] Creating Layer conv9_1_relu
I0601 12:00:51.466094 13437 net.cpp:434] conv9_1_relu <- conv9_1
I0601 12:00:51.466114 13437 net.cpp:395] conv9_1_relu -> conv9_1 (in-place)
I0601 12:00:51.466334 13437 net.cpp:150] Setting up conv9_1_relu
I0601 12:00:51.466346 13437 net.cpp:157] Top shape: 4 128 3 3 (4608)
I0601 12:00:51.466349 13437 net.cpp:165] Memory required for data: 941101088
I0601 12:00:51.466353 13437 layer_factory.hpp:77] Creating layer conv9_2
I0601 12:00:51.466390 13437 net.cpp:100] Creating Layer conv9_2
I0601 12:00:51.466406 13437 net.cpp:434] conv9_2 <- conv9_1
I0601 12:00:51.466428 13437 net.cpp:408] conv9_2 -> conv9_2
I0601 12:00:51.471678 13437 net.cpp:150] Setting up conv9_2
I0601 12:00:51.471698 13437 net.cpp:157] Top shape: 4 256 1 1 (1024)
I0601 12:00:51.471701 13437 net.cpp:165] Memory required for data: 941105184
I0601 12:00:51.471714 13437 layer_factory.hpp:77] Creating layer conv9_2_relu
I0601 12:00:51.471722 13437 net.cpp:100] Creating Layer conv9_2_relu
I0601 12:00:51.471729 13437 net.cpp:434] conv9_2_relu <- conv9_2
I0601 12:00:51.471736 13437 net.cpp:395] conv9_2_relu -> conv9_2 (in-place)
I0601 12:00:51.471892 13437 net.cpp:150] Setting up conv9_2_relu
I0601 12:00:51.471904 13437 net.cpp:157] Top shape: 4 256 1 1 (1024)
I0601 12:00:51.471906 13437 net.cpp:165] Memory required for data: 941109280
I0601 12:00:51.471910 13437 layer_factory.hpp:77] Creating layer conv9_2_conv9_2_relu_0_split
I0601 12:00:51.471917 13437 net.cpp:100] Creating Layer conv9_2_conv9_2_relu_0_split
I0601 12:00:51.471921 13437 net.cpp:434] conv9_2_conv9_2_relu_0_split <- conv9_2
I0601 12:00:51.471930 13437 net.cpp:408] conv9_2_conv9_2_relu_0_split -> conv9_2_conv9_2_relu_0_split_0
I0601 12:00:51.471937 13437 net.cpp:408] conv9_2_conv9_2_relu_0_split -> conv9_2_conv9_2_relu_0_split_1
I0601 12:00:51.471946 13437 net.cpp:408] conv9_2_conv9_2_relu_0_split -> conv9_2_conv9_2_relu_0_split_2
I0601 12:00:51.472023 13437 net.cpp:150] Setting up conv9_2_conv9_2_relu_0_split
I0601 12:00:51.472044 13437 net.cpp:157] Top shape: 4 256 1 1 (1024)
I0601 12:00:51.472057 13437 net.cpp:157] Top shape: 4 256 1 1 (1024)
I0601 12:00:51.472069 13437 net.cpp:157] Top shape: 4 256 1 1 (1024)
I0601 12:00:51.472079 13437 net.cpp:165] Memory required for data: 941121568
I0601 12:00:51.472090 13437 layer_factory.hpp:77] Creating layer conv4_3_norm
I0601 12:00:51.472105 13437 net.cpp:100] Creating Layer conv4_3_norm
I0601 12:00:51.472117 13437 net.cpp:434] conv4_3_norm <- conv4_3_relu4_3_0_split_1
I0601 12:00:51.472136 13437 net.cpp:408] conv4_3_norm -> conv4_3_norm
I0601 12:00:51.472374 13437 net.cpp:150] Setting up conv4_3_norm
I0601 12:00:51.472394 13437 net.cpp:157] Top shape: 4 512 38 38 (2957312)
I0601 12:00:51.472406 13437 net.cpp:165] Memory required for data: 952950816
I0601 12:00:51.472419 13437 layer_factory.hpp:77] Creating layer conv4_3_norm_conv4_3_norm_0_split
I0601 12:00:51.472432 13437 net.cpp:100] Creating Layer conv4_3_norm_conv4_3_norm_0_split
I0601 12:00:51.472443 13437 net.cpp:434] conv4_3_norm_conv4_3_norm_0_split <- conv4_3_norm
I0601 12:00:51.472460 13437 net.cpp:408] conv4_3_norm_conv4_3_norm_0_split -> conv4_3_norm_conv4_3_norm_0_split_0
I0601 12:00:51.472476 13437 net.cpp:408] conv4_3_norm_conv4_3_norm_0_split -> conv4_3_norm_conv4_3_norm_0_split_1
I0601 12:00:51.472489 13437 net.cpp:408] conv4_3_norm_conv4_3_norm_0_split -> conv4_3_norm_conv4_3_norm_0_split_2
I0601 12:00:51.472565 13437 net.cpp:150] Setting up conv4_3_norm_conv4_3_norm_0_split
I0601 12:00:51.472581 13437 net.cpp:157] Top shape: 4 512 38 38 (2957312)
I0601 12:00:51.472594 13437 net.cpp:157] Top shape: 4 512 38 38 (2957312)
I0601 12:00:51.472605 13437 net.cpp:157] Top shape: 4 512 38 38 (2957312)
I0601 12:00:51.472615 13437 net.cpp:165] Memory required for data: 988438560
I0601 12:00:51.472626 13437 layer_factory.hpp:77] Creating layer conv4_3_norm_mbox_loc
I0601 12:00:51.472645 13437 net.cpp:100] Creating Layer conv4_3_norm_mbox_loc
I0601 12:00:51.472658 13437 net.cpp:434] conv4_3_norm_mbox_loc <- conv4_3_norm_conv4_3_norm_0_split_0
I0601 12:00:51.472676 13437 net.cpp:408] conv4_3_norm_mbox_loc -> conv4_3_norm_mbox_loc
I0601 12:00:51.475106 13437 net.cpp:150] Setting up conv4_3_norm_mbox_loc
I0601 12:00:51.475119 13437 net.cpp:157] Top shape: 4 16 38 38 (92416)
I0601 12:00:51.475122 13437 net.cpp:165] Memory required for data: 988808224
I0601 12:00:51.475129 13437 layer_factory.hpp:77] Creating layer conv4_3_norm_mbox_loc_perm
I0601 12:00:51.475138 13437 net.cpp:100] Creating Layer conv4_3_norm_mbox_loc_perm
I0601 12:00:51.475154 13437 net.cpp:434] conv4_3_norm_mbox_loc_perm <- conv4_3_norm_mbox_loc
I0601 12:00:51.475159 13437 net.cpp:408] conv4_3_norm_mbox_loc_perm -> conv4_3_norm_mbox_loc_perm
I0601 12:00:51.475267 13437 net.cpp:150] Setting up conv4_3_norm_mbox_loc_perm
I0601 12:00:51.475273 13437 net.cpp:157] Top shape: 4 38 38 16 (92416)
I0601 12:00:51.475277 13437 net.cpp:165] Memory required for data: 989177888
I0601 12:00:51.475280 13437 layer_factory.hpp:77] Creating layer conv4_3_norm_mbox_loc_flat
I0601 12:00:51.475284 13437 net.cpp:100] Creating Layer conv4_3_norm_mbox_loc_flat
I0601 12:00:51.475288 13437 net.cpp:434] conv4_3_norm_mbox_loc_flat <- conv4_3_norm_mbox_loc_perm
I0601 12:00:51.475291 13437 net.cpp:408] conv4_3_norm_mbox_loc_flat -> conv4_3_norm_mbox_loc_flat
I0601 12:00:51.475322 13437 net.cpp:150] Setting up conv4_3_norm_mbox_loc_flat
I0601 12:00:51.475328 13437 net.cpp:157] Top shape: 4 23104 (92416)
I0601 12:00:51.475330 13437 net.cpp:165] Memory required for data: 989547552
I0601 12:00:51.475332 13437 layer_factory.hpp:77] Creating layer conv4_3_norm_mbox_conf
I0601 12:00:51.475345 13437 net.cpp:100] Creating Layer conv4_3_norm_mbox_conf
I0601 12:00:51.475349 13437 net.cpp:434] conv4_3_norm_mbox_conf <- conv4_3_norm_conv4_3_norm_0_split_1
I0601 12:00:51.475354 13437 net.cpp:408] conv4_3_norm_mbox_conf -> conv4_3_norm_mbox_conf
I0601 12:00:51.477325 13437 net.cpp:150] Setting up conv4_3_norm_mbox_conf
I0601 12:00:51.477337 13437 net.cpp:157] Top shape: 4 16 38 38 (92416)
I0601 12:00:51.477341 13437 net.cpp:165] Memory required for data: 989917216
I0601 12:00:51.477349 13437 layer_factory.hpp:77] Creating layer conv4_3_norm_mbox_conf_perm
I0601 12:00:51.477358 13437 net.cpp:100] Creating Layer conv4_3_norm_mbox_conf_perm
I0601 12:00:51.477378 13437 net.cpp:434] conv4_3_norm_mbox_conf_perm <- conv4_3_norm_mbox_conf
I0601 12:00:51.477396 13437 net.cpp:408] conv4_3_norm_mbox_conf_perm -> conv4_3_norm_mbox_conf_perm
I0601 12:00:51.477553 13437 net.cpp:150] Setting up conv4_3_norm_mbox_conf_perm
I0601 12:00:51.477563 13437 net.cpp:157] Top shape: 4 38 38 16 (92416)
I0601 12:00:51.477567 13437 net.cpp:165] Memory required for data: 990286880
I0601 12:00:51.477571 13437 layer_factory.hpp:77] Creating layer conv4_3_norm_mbox_conf_flat
I0601 12:00:51.477577 13437 net.cpp:100] Creating Layer conv4_3_norm_mbox_conf_flat
I0601 12:00:51.477582 13437 net.cpp:434] conv4_3_norm_mbox_conf_flat <- conv4_3_norm_mbox_conf_perm
I0601 12:00:51.477589 13437 net.cpp:408] conv4_3_norm_mbox_conf_flat -> conv4_3_norm_mbox_conf_flat
I0601 12:00:51.477620 13437 net.cpp:150] Setting up conv4_3_norm_mbox_conf_flat
I0601 12:00:51.477627 13437 net.cpp:157] Top shape: 4 23104 (92416)
I0601 12:00:51.477632 13437 net.cpp:165] Memory required for data: 990656544
I0601 12:00:51.477634 13437 layer_factory.hpp:77] Creating layer conv4_3_norm_mbox_priorbox
I0601 12:00:51.477641 13437 net.cpp:100] Creating Layer conv4_3_norm_mbox_priorbox
I0601 12:00:51.477648 13437 net.cpp:434] conv4_3_norm_mbox_priorbox <- conv4_3_norm_conv4_3_norm_0_split_2
I0601 12:00:51.477653 13437 net.cpp:434] conv4_3_norm_mbox_priorbox <- data_data_0_split_1
I0601 12:00:51.477660 13437 net.cpp:408] conv4_3_norm_mbox_priorbox -> conv4_3_norm_mbox_priorbox
I0601 12:00:51.477695 13437 net.cpp:150] Setting up conv4_3_norm_mbox_priorbox
I0601 12:00:51.477702 13437 net.cpp:157] Top shape: 1 2 23104 (46208)
I0601 12:00:51.477706 13437 net.cpp:165] Memory required for data: 990841376
I0601 12:00:51.477710 13437 layer_factory.hpp:77] Creating layer fc7_mbox_loc
I0601 12:00:51.477720 13437 net.cpp:100] Creating Layer fc7_mbox_loc
I0601 12:00:51.477725 13437 net.cpp:434] fc7_mbox_loc <- fc7_relu7_0_split_1
I0601 12:00:51.477735 13437 net.cpp:408] fc7_mbox_loc -> fc7_mbox_loc
I0601 12:00:51.481909 13437 net.cpp:150] Setting up fc7_mbox_loc
I0601 12:00:51.481930 13437 net.cpp:157] Top shape: 4 24 19 19 (34656)
I0601 12:00:51.481935 13437 net.cpp:165] Memory required for data: 990980000
I0601 12:00:51.481947 13437 layer_factory.hpp:77] Creating layer fc7_mbox_loc_perm
I0601 12:00:51.481961 13437 net.cpp:100] Creating Layer fc7_mbox_loc_perm
I0601 12:00:51.481984 13437 net.cpp:434] fc7_mbox_loc_perm <- fc7_mbox_loc
I0601 12:00:51.481995 13437 net.cpp:408] fc7_mbox_loc_perm -> fc7_mbox_loc_perm
I0601 12:00:51.482178 13437 net.cpp:150] Setting up fc7_mbox_loc_perm
I0601 12:00:51.482190 13437 net.cpp:157] Top shape: 4 19 19 24 (34656)
I0601 12:00:51.482193 13437 net.cpp:165] Memory required for data: 991118624
I0601 12:00:51.482197 13437 layer_factory.hpp:77] Creating layer fc7_mbox_loc_flat
I0601 12:00:51.482204 13437 net.cpp:100] Creating Layer fc7_mbox_loc_flat
I0601 12:00:51.482209 13437 net.cpp:434] fc7_mbox_loc_flat <- fc7_mbox_loc_perm
I0601 12:00:51.482214 13437 net.cpp:408] fc7_mbox_loc_flat -> fc7_mbox_loc_flat
I0601 12:00:51.482249 13437 net.cpp:150] Setting up fc7_mbox_loc_flat
I0601 12:00:51.482255 13437 net.cpp:157] Top shape: 4 8664 (34656)
I0601 12:00:51.482259 13437 net.cpp:165] Memory required for data: 991257248
I0601 12:00:51.482262 13437 layer_factory.hpp:77] Creating layer fc7_mbox_conf
I0601 12:00:51.482275 13437 net.cpp:100] Creating Layer fc7_mbox_conf
I0601 12:00:51.482280 13437 net.cpp:434] fc7_mbox_conf <- fc7_relu7_0_split_2
I0601 12:00:51.482286 13437 net.cpp:408] fc7_mbox_conf -> fc7_mbox_conf
I0601 12:00:51.486294 13437 net.cpp:150] Setting up fc7_mbox_conf
I0601 12:00:51.486313 13437 net.cpp:157] Top shape: 4 24 19 19 (34656)
I0601 12:00:51.486318 13437 net.cpp:165] Memory required for data: 991395872
I0601 12:00:51.486330 13437 layer_factory.hpp:77] Creating layer fc7_mbox_conf_perm
I0601 12:00:51.486341 13437 net.cpp:100] Creating Layer fc7_mbox_conf_perm
I0601 12:00:51.486348 13437 net.cpp:434] fc7_mbox_conf_perm <- fc7_mbox_conf
I0601 12:00:51.486359 13437 net.cpp:408] fc7_mbox_conf_perm -> fc7_mbox_conf_perm
I0601 12:00:51.486503 13437 net.cpp:150] Setting up fc7_mbox_conf_perm
I0601 12:00:51.486512 13437 net.cpp:157] Top shape: 4 19 19 24 (34656)
I0601 12:00:51.486516 13437 net.cpp:165] Memory required for data: 991534496
I0601 12:00:51.486521 13437 layer_factory.hpp:77] Creating layer fc7_mbox_conf_flat
I0601 12:00:51.486528 13437 net.cpp:100] Creating Layer fc7_mbox_conf_flat
I0601 12:00:51.486533 13437 net.cpp:434] fc7_mbox_conf_flat <- fc7_mbox_conf_perm
I0601 12:00:51.486539 13437 net.cpp:408] fc7_mbox_conf_flat -> fc7_mbox_conf_flat
I0601 12:00:51.486568 13437 net.cpp:150] Setting up fc7_mbox_conf_flat
I0601 12:00:51.486575 13437 net.cpp:157] Top shape: 4 8664 (34656)
I0601 12:00:51.486578 13437 net.cpp:165] Memory required for data: 991673120
I0601 12:00:51.486582 13437 layer_factory.hpp:77] Creating layer fc7_mbox_priorbox
I0601 12:00:51.486591 13437 net.cpp:100] Creating Layer fc7_mbox_priorbox
I0601 12:00:51.486596 13437 net.cpp:434] fc7_mbox_priorbox <- fc7_relu7_0_split_3
I0601 12:00:51.486603 13437 net.cpp:434] fc7_mbox_priorbox <- data_data_0_split_2
I0601 12:00:51.486610 13437 net.cpp:408] fc7_mbox_priorbox -> fc7_mbox_priorbox
I0601 12:00:51.486644 13437 net.cpp:150] Setting up fc7_mbox_priorbox
I0601 12:00:51.486652 13437 net.cpp:157] Top shape: 1 2 8664 (17328)
I0601 12:00:51.486657 13437 net.cpp:165] Memory required for data: 991742432
I0601 12:00:51.486660 13437 layer_factory.hpp:77] Creating layer conv6_2_mbox_loc
I0601 12:00:51.486672 13437 net.cpp:100] Creating Layer conv6_2_mbox_loc
I0601 12:00:51.486677 13437 net.cpp:434] conv6_2_mbox_loc <- conv6_2_conv6_2_relu_0_split_1
I0601 12:00:51.486685 13437 net.cpp:408] conv6_2_mbox_loc -> conv6_2_mbox_loc
I0601 12:00:51.489408 13437 net.cpp:150] Setting up conv6_2_mbox_loc
I0601 12:00:51.489429 13437 net.cpp:157] Top shape: 4 24 10 10 (9600)
I0601 12:00:51.489434 13437 net.cpp:165] Memory required for data: 991780832
I0601 12:00:51.489444 13437 layer_factory.hpp:77] Creating layer conv6_2_mbox_loc_perm
I0601 12:00:51.489457 13437 net.cpp:100] Creating Layer conv6_2_mbox_loc_perm
I0601 12:00:51.489464 13437 net.cpp:434] conv6_2_mbox_loc_perm <- conv6_2_mbox_loc
I0601 12:00:51.489475 13437 net.cpp:408] conv6_2_mbox_loc_perm -> conv6_2_mbox_loc_perm
I0601 12:00:51.489617 13437 net.cpp:150] Setting up conv6_2_mbox_loc_perm
I0601 12:00:51.490103 13437 net.cpp:157] Top shape: 4 10 10 24 (9600)
I0601 12:00:51.490108 13437 net.cpp:165] Memory required for data: 991819232
I0601 12:00:51.490113 13437 layer_factory.hpp:77] Creating layer conv6_2_mbox_loc_flat
I0601 12:00:51.490121 13437 net.cpp:100] Creating Layer conv6_2_mbox_loc_flat
I0601 12:00:51.490126 13437 net.cpp:434] conv6_2_mbox_loc_flat <- conv6_2_mbox_loc_perm
I0601 12:00:51.490134 13437 net.cpp:408] conv6_2_mbox_loc_flat -> conv6_2_mbox_loc_flat
I0601 12:00:51.490176 13437 net.cpp:150] Setting up conv6_2_mbox_loc_flat
I0601 12:00:51.490187 13437 net.cpp:157] Top shape: 4 2400 (9600)
I0601 12:00:51.490191 13437 net.cpp:165] Memory required for data: 991857632
I0601 12:00:51.490195 13437 layer_factory.hpp:77] Creating layer conv6_2_mbox_conf
I0601 12:00:51.490207 13437 net.cpp:100] Creating Layer conv6_2_mbox_conf
I0601 12:00:51.490212 13437 net.cpp:434] conv6_2_mbox_conf <- conv6_2_conv6_2_relu_0_split_2
I0601 12:00:51.490221 13437 net.cpp:408] conv6_2_mbox_conf -> conv6_2_mbox_conf
I0601 12:00:51.493538 13437 net.cpp:150] Setting up conv6_2_mbox_conf
I0601 12:00:51.493595 13437 net.cpp:157] Top shape: 4 24 10 10 (9600)
I0601 12:00:51.493607 13437 net.cpp:165] Memory required for data: 991896032
I0601 12:00:51.493628 13437 layer_factory.hpp:77] Creating layer conv6_2_mbox_conf_perm
I0601 12:00:51.493649 13437 net.cpp:100] Creating Layer conv6_2_mbox_conf_perm
I0601 12:00:51.493661 13437 net.cpp:434] conv6_2_mbox_conf_perm <- conv6_2_mbox_conf
I0601 12:00:51.493679 13437 net.cpp:408] conv6_2_mbox_conf_perm -> conv6_2_mbox_conf_perm
I0601 12:00:51.493930 13437 net.cpp:150] Setting up conv6_2_mbox_conf_perm
I0601 12:00:51.493944 13437 net.cpp:157] Top shape: 4 10 10 24 (9600)
I0601 12:00:51.493948 13437 net.cpp:165] Memory required for data: 991934432
I0601 12:00:51.493952 13437 layer_factory.hpp:77] Creating layer conv6_2_mbox_conf_flat
I0601 12:00:51.493970 13437 net.cpp:100] Creating Layer conv6_2_mbox_conf_flat
I0601 12:00:51.493983 13437 net.cpp:434] conv6_2_mbox_conf_flat <- conv6_2_mbox_conf_perm
I0601 12:00:51.494000 13437 net.cpp:408] conv6_2_mbox_conf_flat -> conv6_2_mbox_conf_flat
I0601 12:00:51.494050 13437 net.cpp:150] Setting up conv6_2_mbox_conf_flat
I0601 12:00:51.494067 13437 net.cpp:157] Top shape: 4 2400 (9600)
I0601 12:00:51.494073 13437 net.cpp:165] Memory required for data: 991972832
I0601 12:00:51.494077 13437 layer_factory.hpp:77] Creating layer conv6_2_mbox_priorbox
I0601 12:00:51.494086 13437 net.cpp:100] Creating Layer conv6_2_mbox_priorbox
I0601 12:00:51.494091 13437 net.cpp:434] conv6_2_mbox_priorbox <- conv6_2_conv6_2_relu_0_split_3
I0601 12:00:51.494097 13437 net.cpp:434] conv6_2_mbox_priorbox <- data_data_0_split_3
I0601 12:00:51.494107 13437 net.cpp:408] conv6_2_mbox_priorbox -> conv6_2_mbox_priorbox
I0601 12:00:51.494158 13437 net.cpp:150] Setting up conv6_2_mbox_priorbox
I0601 12:00:51.494174 13437 net.cpp:157] Top shape: 1 2 2400 (4800)
I0601 12:00:51.494187 13437 net.cpp:165] Memory required for data: 991992032
I0601 12:00:51.494199 13437 layer_factory.hpp:77] Creating layer conv7_2_mbox_loc
I0601 12:00:51.494218 13437 net.cpp:100] Creating Layer conv7_2_mbox_loc
I0601 12:00:51.494225 13437 net.cpp:434] conv7_2_mbox_loc <- conv7_2_conv7_2_relu_0_split_1
I0601 12:00:51.494232 13437 net.cpp:408] conv7_2_mbox_loc -> conv7_2_mbox_loc
I0601 12:00:51.496588 13437 net.cpp:150] Setting up conv7_2_mbox_loc
I0601 12:00:51.496608 13437 net.cpp:157] Top shape: 4 24 5 5 (2400)
I0601 12:00:51.496611 13437 net.cpp:165] Memory required for data: 992001632
I0601 12:00:51.496623 13437 layer_factory.hpp:77] Creating layer conv7_2_mbox_loc_perm
I0601 12:00:51.496637 13437 net.cpp:100] Creating Layer conv7_2_mbox_loc_perm
I0601 12:00:51.496644 13437 net.cpp:434] conv7_2_mbox_loc_perm <- conv7_2_mbox_loc
I0601 12:00:51.496651 13437 net.cpp:408] conv7_2_mbox_loc_perm -> conv7_2_mbox_loc_perm
I0601 12:00:51.496829 13437 net.cpp:150] Setting up conv7_2_mbox_loc_perm
I0601 12:00:51.496837 13437 net.cpp:157] Top shape: 4 5 5 24 (2400)
I0601 12:00:51.496840 13437 net.cpp:165] Memory required for data: 992011232
I0601 12:00:51.496856 13437 layer_factory.hpp:77] Creating layer conv7_2_mbox_loc_flat
I0601 12:00:51.496871 13437 net.cpp:100] Creating Layer conv7_2_mbox_loc_flat
I0601 12:00:51.496876 13437 net.cpp:434] conv7_2_mbox_loc_flat <- conv7_2_mbox_loc_perm
I0601 12:00:51.496882 13437 net.cpp:408] conv7_2_mbox_loc_flat -> conv7_2_mbox_loc_flat
I0601 12:00:51.496917 13437 net.cpp:150] Setting up conv7_2_mbox_loc_flat
I0601 12:00:51.496924 13437 net.cpp:157] Top shape: 4 600 (2400)
I0601 12:00:51.496928 13437 net.cpp:165] Memory required for data: 992020832
I0601 12:00:51.496932 13437 layer_factory.hpp:77] Creating layer conv7_2_mbox_conf
I0601 12:00:51.496942 13437 net.cpp:100] Creating Layer conv7_2_mbox_conf
I0601 12:00:51.496948 13437 net.cpp:434] conv7_2_mbox_conf <- conv7_2_conv7_2_relu_0_split_2
I0601 12:00:51.496956 13437 net.cpp:408] conv7_2_mbox_conf -> conv7_2_mbox_conf
I0601 12:00:51.499719 13437 net.cpp:150] Setting up conv7_2_mbox_conf
I0601 12:00:51.499739 13437 net.cpp:157] Top shape: 4 24 5 5 (2400)
I0601 12:00:51.499744 13437 net.cpp:165] Memory required for data: 992030432
I0601 12:00:51.499755 13437 layer_factory.hpp:77] Creating layer conv7_2_mbox_conf_perm
I0601 12:00:51.499768 13437 net.cpp:100] Creating Layer conv7_2_mbox_conf_perm
I0601 12:00:51.499775 13437 net.cpp:434] conv7_2_mbox_conf_perm <- conv7_2_mbox_conf
I0601 12:00:51.499786 13437 net.cpp:408] conv7_2_mbox_conf_perm -> conv7_2_mbox_conf_perm
I0601 12:00:51.499958 13437 net.cpp:150] Setting up conv7_2_mbox_conf_perm
I0601 12:00:51.499981 13437 net.cpp:157] Top shape: 4 5 5 24 (2400)
I0601 12:00:51.499994 13437 net.cpp:165] Memory required for data: 992040032
I0601 12:00:51.500005 13437 layer_factory.hpp:77] Creating layer conv7_2_mbox_conf_flat
I0601 12:00:51.500020 13437 net.cpp:100] Creating Layer conv7_2_mbox_conf_flat
I0601 12:00:51.500032 13437 net.cpp:434] conv7_2_mbox_conf_flat <- conv7_2_mbox_conf_perm
I0601 12:00:51.500047 13437 net.cpp:408] conv7_2_mbox_conf_flat -> conv7_2_mbox_conf_flat
I0601 12:00:51.500098 13437 net.cpp:150] Setting up conv7_2_mbox_conf_flat
I0601 12:00:51.500114 13437 net.cpp:157] Top shape: 4 600 (2400)
I0601 12:00:51.500124 13437 net.cpp:165] Memory required for data: 992049632
I0601 12:00:51.500134 13437 layer_factory.hpp:77] Creating layer conv7_2_mbox_priorbox
I0601 12:00:51.500151 13437 net.cpp:100] Creating Layer conv7_2_mbox_priorbox
I0601 12:00:51.500162 13437 net.cpp:434] conv7_2_mbox_priorbox <- conv7_2_conv7_2_relu_0_split_3
I0601 12:00:51.500175 13437 net.cpp:434] conv7_2_mbox_priorbox <- data_data_0_split_4
I0601 12:00:51.500190 13437 net.cpp:408] conv7_2_mbox_priorbox -> conv7_2_mbox_priorbox
I0601 12:00:51.500242 13437 net.cpp:150] Setting up conv7_2_mbox_priorbox
I0601 12:00:51.500257 13437 net.cpp:157] Top shape: 1 2 600 (1200)
I0601 12:00:51.500267 13437 net.cpp:165] Memory required for data: 992054432
I0601 12:00:51.500277 13437 layer_factory.hpp:77] Creating layer conv8_2_mbox_loc
I0601 12:00:51.500296 13437 net.cpp:100] Creating Layer conv8_2_mbox_loc
I0601 12:00:51.500308 13437 net.cpp:434] conv8_2_mbox_loc <- conv8_2_conv8_2_relu_0_split_1
I0601 12:00:51.500329 13437 net.cpp:408] conv8_2_mbox_loc -> conv8_2_mbox_loc
I0601 12:00:51.503227 13437 net.cpp:150] Setting up conv8_2_mbox_loc
I0601 12:00:51.503276 13437 net.cpp:157] Top shape: 4 16 3 3 (576)
I0601 12:00:51.503289 13437 net.cpp:165] Memory required for data: 992056736
I0601 12:00:51.503320 13437 layer_factory.hpp:77] Creating layer conv8_2_mbox_loc_perm
I0601 12:00:51.503341 13437 net.cpp:100] Creating Layer conv8_2_mbox_loc_perm
I0601 12:00:51.503355 13437 net.cpp:434] conv8_2_mbox_loc_perm <- conv8_2_mbox_loc
I0601 12:00:51.503371 13437 net.cpp:408] conv8_2_mbox_loc_perm -> conv8_2_mbox_loc_perm
I0601 12:00:51.503577 13437 net.cpp:150] Setting up conv8_2_mbox_loc_perm
I0601 12:00:51.503595 13437 net.cpp:157] Top shape: 4 3 3 16 (576)
I0601 12:00:51.503608 13437 net.cpp:165] Memory required for data: 992059040
I0601 12:00:51.503628 13437 layer_factory.hpp:77] Creating layer conv8_2_mbox_loc_flat
I0601 12:00:51.503650 13437 net.cpp:100] Creating Layer conv8_2_mbox_loc_flat
I0601 12:00:51.503662 13437 net.cpp:434] conv8_2_mbox_loc_flat <- conv8_2_mbox_loc_perm
I0601 12:00:51.503679 13437 net.cpp:408] conv8_2_mbox_loc_flat -> conv8_2_mbox_loc_flat
I0601 12:00:51.503729 13437 net.cpp:150] Setting up conv8_2_mbox_loc_flat
I0601 12:00:51.503743 13437 net.cpp:157] Top shape: 4 144 (576)
I0601 12:00:51.503753 13437 net.cpp:165] Memory required for data: 992061344
I0601 12:00:51.503764 13437 layer_factory.hpp:77] Creating layer conv8_2_mbox_conf
I0601 12:00:51.503783 13437 net.cpp:100] Creating Layer conv8_2_mbox_conf
I0601 12:00:51.503795 13437 net.cpp:434] conv8_2_mbox_conf <- conv8_2_conv8_2_relu_0_split_2
I0601 12:00:51.503810 13437 net.cpp:408] conv8_2_mbox_conf -> conv8_2_mbox_conf
I0601 12:00:51.506570 13437 net.cpp:150] Setting up conv8_2_mbox_conf
I0601 12:00:51.506614 13437 net.cpp:157] Top shape: 4 16 3 3 (576)
I0601 12:00:51.506626 13437 net.cpp:165] Memory required for data: 992063648
I0601 12:00:51.506645 13437 layer_factory.hpp:77] Creating layer conv8_2_mbox_conf_perm
I0601 12:00:51.506664 13437 net.cpp:100] Creating Layer conv8_2_mbox_conf_perm
I0601 12:00:51.506678 13437 net.cpp:434] conv8_2_mbox_conf_perm <- conv8_2_mbox_conf
I0601 12:00:51.506693 13437 net.cpp:408] conv8_2_mbox_conf_perm -> conv8_2_mbox_conf_perm
I0601 12:00:51.506891 13437 net.cpp:150] Setting up conv8_2_mbox_conf_perm
I0601 12:00:51.506912 13437 net.cpp:157] Top shape: 4 3 3 16 (576)
I0601 12:00:51.506922 13437 net.cpp:165] Memory required for data: 992065952
I0601 12:00:51.506933 13437 layer_factory.hpp:77] Creating layer conv8_2_mbox_conf_flat
I0601 12:00:51.506947 13437 net.cpp:100] Creating Layer conv8_2_mbox_conf_flat
I0601 12:00:51.506960 13437 net.cpp:434] conv8_2_mbox_conf_flat <- conv8_2_mbox_conf_perm
I0601 12:00:51.506974 13437 net.cpp:408] conv8_2_mbox_conf_flat -> conv8_2_mbox_conf_flat
I0601 12:00:51.507025 13437 net.cpp:150] Setting up conv8_2_mbox_conf_flat
I0601 12:00:51.507043 13437 net.cpp:157] Top shape: 4 144 (576)
I0601 12:00:51.507055 13437 net.cpp:165] Memory required for data: 992068256
I0601 12:00:51.507066 13437 layer_factory.hpp:77] Creating layer conv8_2_mbox_priorbox
I0601 12:00:51.507081 13437 net.cpp:100] Creating Layer conv8_2_mbox_priorbox
I0601 12:00:51.507093 13437 net.cpp:434] conv8_2_mbox_priorbox <- conv8_2_conv8_2_relu_0_split_3
I0601 12:00:51.507107 13437 net.cpp:434] conv8_2_mbox_priorbox <- data_data_0_split_5
I0601 12:00:51.507122 13437 net.cpp:408] conv8_2_mbox_priorbox -> conv8_2_mbox_priorbox
I0601 12:00:51.507174 13437 net.cpp:150] Setting up conv8_2_mbox_priorbox
I0601 12:00:51.507190 13437 net.cpp:157] Top shape: 1 2 144 (288)
I0601 12:00:51.507205 13437 net.cpp:165] Memory required for data: 992069408
I0601 12:00:51.507215 13437 layer_factory.hpp:77] Creating layer conv9_2_mbox_loc
I0601 12:00:51.507236 13437 net.cpp:100] Creating Layer conv9_2_mbox_loc
I0601 12:00:51.507247 13437 net.cpp:434] conv9_2_mbox_loc <- conv9_2_conv9_2_relu_0_split_0
I0601 12:00:51.507264 13437 net.cpp:408] conv9_2_mbox_loc -> conv9_2_mbox_loc
I0601 12:00:51.511915 13437 net.cpp:150] Setting up conv9_2_mbox_loc
I0601 12:00:51.511963 13437 net.cpp:157] Top shape: 4 16 1 1 (64)
I0601 12:00:51.511981 13437 net.cpp:165] Memory required for data: 992069664
I0601 12:00:51.512001 13437 layer_factory.hpp:77] Creating layer conv9_2_mbox_loc_perm
I0601 12:00:51.512023 13437 net.cpp:100] Creating Layer conv9_2_mbox_loc_perm
I0601 12:00:51.512037 13437 net.cpp:434] conv9_2_mbox_loc_perm <- conv9_2_mbox_loc
I0601 12:00:51.512053 13437 net.cpp:408] conv9_2_mbox_loc_perm -> conv9_2_mbox_loc_perm
I0601 12:00:51.512284 13437 net.cpp:150] Setting up conv9_2_mbox_loc_perm
I0601 12:00:51.512303 13437 net.cpp:157] Top shape: 4 1 1 16 (64)
I0601 12:00:51.512315 13437 net.cpp:165] Memory required for data: 992069920
I0601 12:00:51.512326 13437 layer_factory.hpp:77] Creating layer conv9_2_mbox_loc_flat
I0601 12:00:51.512341 13437 net.cpp:100] Creating Layer conv9_2_mbox_loc_flat
I0601 12:00:51.512361 13437 net.cpp:434] conv9_2_mbox_loc_flat <- conv9_2_mbox_loc_perm
I0601 12:00:51.512382 13437 net.cpp:408] conv9_2_mbox_loc_flat -> conv9_2_mbox_loc_flat
I0601 12:00:51.512434 13437 net.cpp:150] Setting up conv9_2_mbox_loc_flat
I0601 12:00:51.512450 13437 net.cpp:157] Top shape: 4 16 (64)
I0601 12:00:51.512460 13437 net.cpp:165] Memory required for data: 992070176
I0601 12:00:51.512472 13437 layer_factory.hpp:77] Creating layer conv9_2_mbox_conf
I0601 12:00:51.512493 13437 net.cpp:100] Creating Layer conv9_2_mbox_conf
I0601 12:00:51.512508 13437 net.cpp:434] conv9_2_mbox_conf <- conv9_2_conv9_2_relu_0_split_1
I0601 12:00:51.512526 13437 net.cpp:408] conv9_2_mbox_conf -> conv9_2_mbox_conf
I0601 12:00:51.515233 13437 net.cpp:150] Setting up conv9_2_mbox_conf
I0601 12:00:51.515276 13437 net.cpp:157] Top shape: 4 16 1 1 (64)
I0601 12:00:51.515290 13437 net.cpp:165] Memory required for data: 992070432
I0601 12:00:51.515307 13437 layer_factory.hpp:77] Creating layer conv9_2_mbox_conf_perm
I0601 12:00:51.515327 13437 net.cpp:100] Creating Layer conv9_2_mbox_conf_perm
I0601 12:00:51.515341 13437 net.cpp:434] conv9_2_mbox_conf_perm <- conv9_2_mbox_conf
I0601 12:00:51.515358 13437 net.cpp:408] conv9_2_mbox_conf_perm -> conv9_2_mbox_conf_perm
I0601 12:00:51.515549 13437 net.cpp:150] Setting up conv9_2_mbox_conf_perm
I0601 12:00:51.515559 13437 net.cpp:157] Top shape: 4 1 1 16 (64)
I0601 12:00:51.515563 13437 net.cpp:165] Memory required for data: 992070688
I0601 12:00:51.515568 13437 layer_factory.hpp:77] Creating layer conv9_2_mbox_conf_flat
I0601 12:00:51.515574 13437 net.cpp:100] Creating Layer conv9_2_mbox_conf_flat
I0601 12:00:51.515579 13437 net.cpp:434] conv9_2_mbox_conf_flat <- conv9_2_mbox_conf_perm
I0601 12:00:51.515588 13437 net.cpp:408] conv9_2_mbox_conf_flat -> conv9_2_mbox_conf_flat
I0601 12:00:51.515620 13437 net.cpp:150] Setting up conv9_2_mbox_conf_flat
I0601 12:00:51.515637 13437 net.cpp:157] Top shape: 4 16 (64)
I0601 12:00:51.515650 13437 net.cpp:165] Memory required for data: 992070944
I0601 12:00:51.515662 13437 layer_factory.hpp:77] Creating layer conv9_2_mbox_priorbox
I0601 12:00:51.515681 13437 net.cpp:100] Creating Layer conv9_2_mbox_priorbox
I0601 12:00:51.515694 13437 net.cpp:434] conv9_2_mbox_priorbox <- conv9_2_conv9_2_relu_0_split_2
I0601 12:00:51.515707 13437 net.cpp:434] conv9_2_mbox_priorbox <- data_data_0_split_6
I0601 12:00:51.515722 13437 net.cpp:408] conv9_2_mbox_priorbox -> conv9_2_mbox_priorbox
I0601 12:00:51.515774 13437 net.cpp:150] Setting up conv9_2_mbox_priorbox
I0601 12:00:51.515791 13437 net.cpp:157] Top shape: 1 2 16 (32)
I0601 12:00:51.515802 13437 net.cpp:165] Memory required for data: 992071072
I0601 12:00:51.515813 13437 layer_factory.hpp:77] Creating layer mbox_loc
I0601 12:00:51.515828 13437 net.cpp:100] Creating Layer mbox_loc
I0601 12:00:51.515841 13437 net.cpp:434] mbox_loc <- conv4_3_norm_mbox_loc_flat
I0601 12:00:51.515853 13437 net.cpp:434] mbox_loc <- fc7_mbox_loc_flat
I0601 12:00:51.515866 13437 net.cpp:434] mbox_loc <- conv6_2_mbox_loc_flat
I0601 12:00:51.515879 13437 net.cpp:434] mbox_loc <- conv7_2_mbox_loc_flat
I0601 12:00:51.515892 13437 net.cpp:434] mbox_loc <- conv8_2_mbox_loc_flat
I0601 12:00:51.515903 13437 net.cpp:434] mbox_loc <- conv9_2_mbox_loc_flat
I0601 12:00:51.515918 13437 net.cpp:408] mbox_loc -> mbox_loc
I0601 12:00:51.515965 13437 net.cpp:150] Setting up mbox_loc
I0601 12:00:51.515980 13437 net.cpp:157] Top shape: 4 34928 (139712)
I0601 12:00:51.515990 13437 net.cpp:165] Memory required for data: 992629920
I0601 12:00:51.516001 13437 layer_factory.hpp:77] Creating layer mbox_conf
I0601 12:00:51.516016 13437 net.cpp:100] Creating Layer mbox_conf
I0601 12:00:51.516027 13437 net.cpp:434] mbox_conf <- conv4_3_norm_mbox_conf_flat
I0601 12:00:51.516041 13437 net.cpp:434] mbox_conf <- fc7_mbox_conf_flat
I0601 12:00:51.516053 13437 net.cpp:434] mbox_conf <- conv6_2_mbox_conf_flat
I0601 12:00:51.516068 13437 net.cpp:434] mbox_conf <- conv7_2_mbox_conf_flat
I0601 12:00:51.516074 13437 net.cpp:434] mbox_conf <- conv8_2_mbox_conf_flat
I0601 12:00:51.516079 13437 net.cpp:434] mbox_conf <- conv9_2_mbox_conf_flat
I0601 12:00:51.516094 13437 net.cpp:408] mbox_conf -> mbox_conf
I0601 12:00:51.516134 13437 net.cpp:150] Setting up mbox_conf
I0601 12:00:51.516141 13437 net.cpp:157] Top shape: 4 34928 (139712)
I0601 12:00:51.516144 13437 net.cpp:165] Memory required for data: 993188768
I0601 12:00:51.516149 13437 layer_factory.hpp:77] Creating layer mbox_priorbox
I0601 12:00:51.516155 13437 net.cpp:100] Creating Layer mbox_priorbox
I0601 12:00:51.516160 13437 net.cpp:434] mbox_priorbox <- conv4_3_norm_mbox_priorbox
I0601 12:00:51.516166 13437 net.cpp:434] mbox_priorbox <- fc7_mbox_priorbox
I0601 12:00:51.516173 13437 net.cpp:434] mbox_priorbox <- conv6_2_mbox_priorbox
I0601 12:00:51.516180 13437 net.cpp:434] mbox_priorbox <- conv7_2_mbox_priorbox
I0601 12:00:51.516185 13437 net.cpp:434] mbox_priorbox <- conv8_2_mbox_priorbox
I0601 12:00:51.516188 13437 net.cpp:434] mbox_priorbox <- conv9_2_mbox_priorbox
I0601 12:00:51.516194 13437 net.cpp:408] mbox_priorbox -> mbox_priorbox
I0601 12:00:51.516223 13437 net.cpp:150] Setting up mbox_priorbox
I0601 12:00:51.516230 13437 net.cpp:157] Top shape: 1 2 34928 (69856)
I0601 12:00:51.516234 13437 net.cpp:165] Memory required for data: 993468192
I0601 12:00:51.516238 13437 layer_factory.hpp:77] Creating layer mbox_conf_reshape
I0601 12:00:51.516247 13437 net.cpp:100] Creating Layer mbox_conf_reshape
I0601 12:00:51.516252 13437 net.cpp:434] mbox_conf_reshape <- mbox_conf
I0601 12:00:51.516258 13437 net.cpp:408] mbox_conf_reshape -> mbox_conf_reshape
I0601 12:00:51.516293 13437 net.cpp:150] Setting up mbox_conf_reshape
I0601 12:00:51.516300 13437 net.cpp:157] Top shape: 4 8732 4 (139712)
I0601 12:00:51.516304 13437 net.cpp:165] Memory required for data: 994027040
I0601 12:00:51.516309 13437 layer_factory.hpp:77] Creating layer mbox_conf_softmax
I0601 12:00:51.516316 13437 net.cpp:100] Creating Layer mbox_conf_softmax
I0601 12:00:51.516320 13437 net.cpp:434] mbox_conf_softmax <- mbox_conf_reshape
I0601 12:00:51.516327 13437 net.cpp:408] mbox_conf_softmax -> mbox_conf_softmax
I0601 12:00:51.516765 13437 net.cpp:150] Setting up mbox_conf_softmax
I0601 12:00:51.516793 13437 net.cpp:157] Top shape: 4 8732 4 (139712)
I0601 12:00:51.516805 13437 net.cpp:165] Memory required for data: 994585888
I0601 12:00:51.516816 13437 layer_factory.hpp:77] Creating layer mbox_conf_flatten
I0601 12:00:51.516831 13437 net.cpp:100] Creating Layer mbox_conf_flatten
I0601 12:00:51.516844 13437 net.cpp:434] mbox_conf_flatten <- mbox_conf_softmax
I0601 12:00:51.516860 13437 net.cpp:408] mbox_conf_flatten -> mbox_conf_flatten
I0601 12:00:51.516943 13437 net.cpp:150] Setting up mbox_conf_flatten
I0601 12:00:51.516957 13437 net.cpp:157] Top shape: 4 34928 (139712)
I0601 12:00:51.516963 13437 net.cpp:165] Memory required for data: 995144736
I0601 12:00:51.516968 13437 layer_factory.hpp:77] Creating layer detection_out
I0601 12:00:51.516981 13437 net.cpp:100] Creating Layer detection_out
I0601 12:00:51.516986 13437 net.cpp:434] detection_out <- mbox_loc
I0601 12:00:51.516991 13437 net.cpp:434] detection_out <- mbox_conf_flatten
I0601 12:00:51.516997 13437 net.cpp:434] detection_out <- mbox_priorbox
I0601 12:00:51.517007 13437 net.cpp:408] detection_out -> detection_out
I0601 12:00:51.519115 13437 net.cpp:150] Setting up detection_out
I0601 12:00:51.519132 13437 net.cpp:157] Top shape: 1 1 1 7 (7)
I0601 12:00:51.519136 13437 net.cpp:165] Memory required for data: 995144764
I0601 12:00:51.519142 13437 layer_factory.hpp:77] Creating layer detection_eval
I0601 12:00:51.519155 13437 net.cpp:100] Creating Layer detection_eval
I0601 12:00:51.519174 13437 net.cpp:434] detection_eval <- detection_out
I0601 12:00:51.519181 13437 net.cpp:434] detection_eval <- label
I0601 12:00:51.519188 13437 net.cpp:408] detection_eval -> detection_eval
I0601 12:00:51.520550 13437 net.cpp:150] Setting up detection_eval
I0601 12:00:51.520591 13437 net.cpp:157] Top shape: 1 1 4 5 (20)
I0601 12:00:51.520606 13437 net.cpp:165] Memory required for data: 995144844
I0601 12:00:51.520632 13437 net.cpp:228] detection_eval does not need backward computation.
I0601 12:00:51.520656 13437 net.cpp:228] detection_out does not need backward computation.
I0601 12:00:51.520673 13437 net.cpp:228] mbox_conf_flatten does not need backward computation.
I0601 12:00:51.520687 13437 net.cpp:228] mbox_conf_softmax does not need backward computation.
…
