…
        min_scale: 0.3
        max_scale: 1
        min_aspect_ratio: 0.5
        max_aspect_ratio: 2
      }
      sample_constraint {
        min_jaccard_overlap: 0.9
      }
      max_sample: 1
      max_trials: 50
    }
    batch_sampler {
      sampler {
        min_scale: 0.3
        max_scale: 1
        min_aspect_ratio: 0.5
        max_aspect_ratio: 2
      }
      sample_constraint {
        max_jaccard_overlap: 1
      }
      max_sample: 1
      max_trials: 50
    }
    label_map_file: "data/tbs_300x300_HSIL_10x/labelmap_tbs.prototxt"
  }
}
layer {
  name: "conv1_1"
  type: "Convolution"
  bottom: "data"
  top: "conv1_1"
  param {
    lr_mult: 1
    decay_mult: 1
  }
  param {
    lr_mult: 2
    decay_mult: 0
  }
  convolution_param {
    num_output: 64
    pad: 1
    kernel_size: 3
    weight_filler {
      type: "xavier"
    }
    bias_filler {
      type: "constant"
      value: 0
    }
  }
}
layer {
  name: "relu1_1"
  type: "ReLU"
  bottom: "conv1_1"
  top: "conv1_1"
}
layer {
  name: "conv1_2"
  type: "Convolution"
  bottom: "conv1_1"
  top: "conv1_2"
  param {
    lr_mult: 1
    decay_mult: 1
  }
  param {
    lr_mult: 2
    decay_mult: 0
  }
  convolution_param {
    num_output: 64
    pad: 1
    kernel_size: 3
    weight_filler {
      type: "xavier"
    }
    bias_filler {
      type: "constant"
      value: 0
    }
  }
}
layer {
  name: "relu1_2"
  type: "ReLU"
  bottom: "conv1_2"
  top: "conv1_2"
}
layer {
  name: "pool1"
  type: "Pooling"
  bottom: "conv1_2"
  top: "pool1"
  pooling_param {
    pool: MAX
    kernel_size: 2
    stride: 2
  }
}
layer {
  name: "conv2_1"
  type: "Convolution"
  bottom: "pool1"
  top: "conv2_1"
  param {
    lr_mult: 1
    decay_mult: 1
  }
  param {
    lr_mult: 2
    decay_mult: 0
  }
  convolution_param {
    num_output: 128
    pad: 1
    kernel_size: 3
    weight_filler {
      type: "xavier"
    }
    bias_filler {
      type: "constant"
      value: 0
    }
  }
}
layer {
  name: "relu2_1"
  type: "ReLU"
  bottom: "conv2_1"
  top: "conv2_1"
}
layer {
  name: "conv2_2"
  type: "Convolution"
  bottom: "conv2_1"
  top: "conv2_2"
  param {
    lr_mult: 1
    decay_mult: 1
  }
  param {
    lr_mult: 2
    decay_mult: 0
  }
  convolution_param {
    num_output: 128
    pad: 1
    kernel_size: 3
    weight_filler {
      type: "xavier"
    }
    bias_filler {
      type: "constant"
      value: 0
    }
  }
}
layer {
  name: "relu2_2"
  type: "ReLU"
  bottom: "conv2_2"
  top: "conv2_2"
}
layer {
  name: "pool2"
  type: "Pooling"
  bottom: "conv2_2"
  top: "pool2"
  pooling_param {
    pool: MAX
    kernel_size: 2
    stride: 2
  }
}
layer {
  name: "conv3_1"
  type: "Convolution"
  bottom: "pool2"
  top: "conv3_1"
  param {
    lr_mult: 1
    decay_mult: 1
  }
  param {
    lr_mult: 2
    decay_mult: 0
  }
  convolution_param {
    num_output: 256
    pad: 1
    kernel_size: 3
    weight_filler {
      type: "xavier"
    }
    bias_filler {
      type: "constant"
      value: 0
    }
  }
}
layer {
  name: "relu3_1"
  type: "ReLU"
  bottom: "conv3_1"
  top: "conv3_1"
}
layer {
  name: "conv3_2"
  type: "Convolution"
  bottom: "conv3_1"
  top: "conv3_2"
  param {
    lr_mult: 1
    decay_mult: 1
  }
  param {
    lr_mult: 2
    decay_mult: 0
  }
  convolution_param {
    num_output: 256
    pad: 1
    kernel_size: 3
    weight_filler {
      type: "xavier"
    }
    bias_filler {
      type: "constant"
      value: 0
    }
  }
}
layer {
  name: "relu3_2"
  type: "ReLU"
  bottom: "conv3_2"
  top: "conv3_2"
}
layer {
  name: "conv3_3"
  type: "Convolution"
  bottom: "conv3_2"
  top: "conv3_3"
  param {
    lr_mult: 1
    decay_mult: 1
  }
  param {
    lr_mult: 2
    decay_mult: 0
  }
  convolution_param {
    num_output: 256
    pad: 1
    kernel_size: 3
    weight_filler {
      type: "xavier"
    }
    bias_filler {
      type: "constant"
      value: 0
    }
  }
}
layer {
  name: "relu3_3"
  type: "ReLU"
  bottom: "conv3_3"
  top: "conv3_3"
}
layer {
  name: "pool3"
  type: "Pooling"
  bottom: "conv3_3"
  top: "pool3"
  pooling_param {
    pool: MAX
    kernel_size: 2
    stride: 2
  }
}
layer {
  name: "conv4_1"
  type: "Convolution"
  bottom: "pool3"
  top: "conv4_1"
  param {
    lr_mult: 1
    decay_mult: 1
  }
  param {
    lr_mult: 2
    decay_mult: 0
  }
  convolution_param {
    num_output: 512
    pad: 1
    kernel_size: 3
    weight_filler {
      type: "xavier"
    }
    bias_filler {
      type: "constant"
      value: 0
    }
  }
}
layer {
  name: "relu4_1"
  type: "ReLU"
  bottom: "conv4_1"
  top: "conv4_1"
}
layer {
  name: "conv4_2"
  type: "Convolution"
  bottom: "conv4_1"
  top: "conv4_2"
  param {
    lr_mult: 1
    decay_mult: 1
  }
  param {
    lr_mult: 2
    decay_mult: 0
  }
  convolution_param {
    num_output: 512
    pad: 1
    kernel_size: 3
    weight_filler {
      type: "xavier"
    }
    bias_filler {
      type: "constant"
      value: 0
    }
  }
}
layer {
  name: "relu4_2"
  type: "ReLU"
  bottom: "conv4_2"
  top: "conv4_2"
}
layer {
  name: "conv4_3"
  type: "Convolution"
  bottom: "conv4_2"
  top: "conv4_3"
  param {
    lr_mult: 1
    decay_mult: 1
  }
  param {
    lr_mult: 2
    decay_mult: 0
  }
  convolution_param {
    num_output: 512
    pad: 1
    kernel_size: 3
    weight_filler {
      type: "xavier"
    }
    bias_filler {
      type: "constant"
      value: 0
    }
  }
}
layer {
  name: "relu4_3"
  type: "ReLU"
  bottom: "conv4_3"
  top: "conv4_3"
}
layer {
  name: "pool4"
  type: "Pooling"
  bottom: "conv4_3"
  top: "pool4"
  pooling_param {
    pool: MAX
    kernel_size: 2
    stride: 2
  }
}
layer {
  name: "conv5_1"
  type: "Convolution"
  bottom: "pool4"
  top: "conv5_1"
  param {
    lr_mult: 1
    decay_mult: 1
  }
  param {
    lr_mult: 2
    decay_mult: 0
  }
  convolution_param {
    num_output: 512
    pad: 1
    kernel_size: 3
    weight_filler {
      type: "xavier"
    }
    bias_filler {
      type: "constant"
      value: 0
    }
    dilation: 1
  }
}
layer {
  name: "relu5_1"
  type: "ReLU"
  bottom: "conv5_1"
  top: "conv5_1"
}
layer {
  name: "conv5_2"
  type: "Convolution"
  bottom: "conv5_1"
  top: "conv5_2"
  param {
    lr_mult: 1
    decay_mult: 1
  }
  param {
    lr_mult: 2
    decay_mult: 0
  }
  convolution_param {
    num_output: 512
    pad: 1
    kernel_size: 3
    weight_filler {
      type: "xavier"
    }
    bias_filler {
      type: "constant"
      value: 0
    }
    dilation: 1
  }
}
layer {
  name: "relu5_2"
  type: "ReLU"
  bottom: "conv5_2"
  top: "conv5_2"
}
layer {
  name: "conv5_3"
  type: "Convolution"
  bottom: "conv5_2"
  top: "conv5_3"
  param {
    lr_mult: 1
    decay_mult: 1
  }
  param {
    lr_mult: 2
    decay_mult: 0
  }
  convolution_param {
    num_output: 512
    pad: 1
    kernel_size: 3
    weight_filler {
      type: "xavier"
    }
    bias_filler {
      type: "constant"
      value: 0
    }
    dilation: 1
  }
}
layer {
  name: "relu5_3"
  type: "ReLU"
  bottom: "conv5_3"
  top: "conv5_3"
}
layer {
  name: "pool5"
  type: "Pooling"
  bottom: "conv5_3"
  top: "pool5"
  pooling_param {
    pool: MAX
    kernel_size: 3
    stride: 1
    pad: 1
  }
}
layer {
  name: "fc6"
  type: "Convolution"
  bottom: "pool5"
  top: "fc6"
  param {
    lr_mult: 1
    decay_mult: 1
  }
  param {
    lr_mult: 2
    decay_mult: 0
  }
  convolution_param {
    num_output: 1024
    pad: 6
    kernel_size: 3
    weight_filler {
      type: "xavier"
    }
    bias_filler {
      type: "constant"
      value: 0
    }
    dilation: 6
  }
}
layer {
  name: "relu6"
  type: "ReLU"
  bottom: "fc6"
  top: "fc6"
}
layer {
  name: "fc7"
  type: "Convolution"
  bottom: "fc6"
  top: "fc7"
  param {
    lr_mult: 1
    decay_mult: 1
  }
  param {
    lr_mult: 2
    decay_mult: 0
  }
  convolution_param {
    num_output: 1024
    kernel_size: 1
    weight_filler {
      type: "xavier"
    }
    bias_filler {
      type: "constant"
      value: 0
    }
  }
}
layer {
  name: "relu7"
  type: "ReLU"
  bottom: "fc7"
  top: "fc7"
}
layer {
  name: "conv6_1"
  type: "Convolution"
  bottom: "fc7"
  top: "conv6_1"
  param {
    lr_mult: 1
    decay_mult: 1
  }
  param {
    lr_mult: 2
    decay_mult: 0
  }
  convolution_param {
    num_output: 256
    pad: 0
    kernel_size: 1
    stride: 1
    weight_filler {
      type: "xavier"
    }
    bias_filler {
      type: "constant"
      value: 0
    }
  }
}
layer {
  name: "conv6_1_relu"
  type: "ReLU"
  bottom: "conv6_1"
  top: "conv6_1"
}
layer {
  name: "conv6_2"
  type: "Convolution"
  bottom: "conv6_1"
  top: "conv6_2"
  param {
    lr_mult: 1
    decay_mult: 1
  }
  param {
    lr_mult: 2
    decay_mult: 0
  }
  convolution_param {
    num_output: 512
    pad: 1
    kernel_size: 3
    stride: 2
    weight_filler {
      type: "xavier"
    }
    bias_filler {
      type: "constant"
      value: 0
    }
  }
}
layer {
  name: "conv6_2_relu"
  type: "ReLU"
  bottom: "conv6_2"
  top: "conv6_2"
}
layer {
  name: "conv7_1"
  type: "Convolution"
  bottom: "conv6_2"
  top: "conv7_1"
  param {
    lr_mult: 1
    decay_mult: 1
  }
  param {
    lr_mult: 2
    decay_mult: 0
  }
  convolution_param {
    num_output: 128
    pad: 0
    kernel_size: 1
    stride: 1
    weight_filler {
      type: "xavier"
    }
    bias_filler {
      type: "constant"
      value: 0
    }
  }
}
layer {
  name: "conv7_1_relu"
  type: "ReLU"
  bottom: "conv7_1"
  top: "conv7_1"
}
layer {
  name: "conv7_2"
  type: "Convolution"
  bottom: "conv7_1"
  top: "conv7_2"
  param {
    lr_mult: 1
    decay_mult: 1
  }
  param {
    lr_mult: 2
    decay_mult: 0
  }
  convolution_param {
    num_output: 256
    pad: 1
    kernel_size: 3
    stride: 2
    weight_filler {
      type: "xavier"
    }
    bias_filler {
      type: "constant"
      value: 0
    }
  }
}
layer {
  name: "conv7_2_relu"
  type: "ReLU"
  bottom: "conv7_2"
  top: "conv7_2"
}
layer {
  name: "conv8_1"
  type: "Convolution"
  bottom: "conv7_2"
  top: "conv8_1"
  param {
    lr_mult: 1
    decay_mult: 1
  }
  param {
    lr_mult: 2
    decay_mult: 0
  }
  convolution_param {
    num_output: 128
    pad: 0
    kernel_size: 1
    stride: 1
    weight_filler {
      type: "xavier"
    }
    bias_filler {
      type: "constant"
      value: 0
    }
  }
}
layer {
  name: "conv8_1_relu"
  type: "ReLU"
  bottom: "conv8_1"
  top: "conv8_1"
}
layer {
  name: "conv8_2"
  type: "Convolution"
  bottom: "conv8_1"
  top: "conv8_2"
  param {
    lr_mult: 1
    decay_mult: 1
  }
  param {
    lr_mult: 2
    decay_mult: 0
  }
  convolution_param {
    num_output: 256
    pad: 0
    kernel_size: 3
    stride: 1
    weight_filler {
      type: "xavier"
    }
    bias_filler {
      type: "constant"
      value: 0
    }
  }
}
layer {
  name: "conv8_2_relu"
  type: "ReLU"
  bottom: "conv8_2"
  top: "conv8_2"
}
layer {
  name: "conv9_1"
  type: "Convolution"
  bottom: "conv8_2"
  top: "conv9_1"
  param {
    lr_mult: 1
    decay_mult: 1
  }
  param {
    lr_mult: 2
    decay_mult: 0
  }
  convolution_param {
    num_output: 128
    pad: 0
    kernel_size: 1
    stride: 1
    weight_filler {
      type: "xavier"
    }
    bias_filler {
      type: "constant"
      value: 0
    }
  }
}
layer {
  name: "conv9_1_relu"
  type: "ReLU"
  bottom: "conv9_1"
  top: "conv9_1"
}
layer {
  name: "conv9_2"
  type: "Convolution"
  bottom: "conv9_1"
  top: "conv9_2"
  param {
    lr_mult: 1
    decay_mult: 1
  }
  param {
    lr_mult: 2
    decay_mult: 0
  }
  convolution_param {
    num_output: 256
    pad: 0
    kernel_size: 3
    stride: 1
    weight_filler {
      type: "xavier"
    }
    bias_filler {
      type: "constant"
      value: 0
    }
  }
}
layer {
  name: "conv9_2_relu"
  type: "ReLU"
  bottom: "conv9_2"
  top: "conv9_2"
}
layer {
  name: "conv4_3_norm"
  type: "Normalize"
  bottom: "conv4_3"
  top: "conv4_3_norm"
  norm_param {
    across_spatial: false
    scale_filler {
      type: "constant"
      value: 20
    }
    channel_shared: false
  }
}
layer {
  name: "conv4_3_norm_mbox_loc"
  type: "Convolution"
  bottom: "conv4_3_norm"
  top: "conv4_3_norm_mbox_loc"
  param {
    lr_mult: 1
    decay_mult: 1
  }
  param {
    lr_mult: 2
    decay_mult: 0
  }
  convolution_param {
    num_output: 16
    pad: 1
    kernel_size: 3
    stride: 1
    weight_filler {
      type: "xavier"
    }
    bias_filler {
      type: "constant"
      value: 0
    }
  }
}
layer {
  name: "conv4_3_norm_mbox_loc_perm"
  type: "Permute"
  bottom: "conv4_3_norm_mbox_loc"
  top: "conv4_3_norm_mbox_loc_perm"
  permute_param {
    order: 0
    order: 2
    order: 3
    order: 1
  }
}
layer {
  name: "conv4_3_norm_mbox_loc_flat"
  type: "Flatten"
  bottom: "conv4_3_norm_mbox_loc_perm"
  top: "conv4_3_norm_mbox_loc_flat"
  flatten_param {
    axis: 1
  }
}
layer {
  name: "conv4_3_norm_mbox_conf"
  type: "Convolution"
  bottom: "conv4_3_norm"
  top: "conv4_3_norm_mbox_conf"
  param {
    lr_mult: 1
    decay_mult: 1
  }
  param {
    lr_mult: 2
    decay_mult: 0
  }
  convolution_param {
    num_output: 16
    pad: 1
    kernel_size: 3
    stride: 1
    weight_filler {
      type: "xavier"
    }
    bias_filler {
      type: "constant"
      value: 0
    }
  }
}
layer {
  name: "conv4_3_norm_mbox_conf_perm"
  type: "Permute"
  bottom: "conv4_3_norm_mbox_conf"
  top: "conv4_3_norm_mbox_conf_perm"
  permute_param {
    order: 0
    order: 2
    order: 3
    order: 1
  }
}
layer {
  name: "conv4_3_norm_mbox_conf_flat"
  type: "Flatten"
  bottom: "conv4_3_norm_mbox_conf_perm"
  top: "conv4_3_norm_mbox_conf_flat"
  flatten_param {
    axis: 1
  }
}
layer {
  name: "conv4_3_norm_mbox_priorbox"
  type: "PriorBox"
  bottom: "conv4_3_norm"
  bottom: "data"
  top: "conv4_3_norm_mbox_priorbox"
  prior_box_param {
    min_size: 30
    max_size: 60
    aspect_ratio: 2
    flip: true
    clip: false
    variance: 0.1
    variance: 0.1
    variance: 0.2
    variance: 0.2
    step: 8
    offset: 0.5
  }
}
layer {
  name: "fc7_mbox_loc"
  type: "Convolution"
  bottom: "fc7"
  top: "fc7_mbox_loc"
  param {
    lr_mult: 1
    decay_mult: 1
  }
  param {
    lr_mult: 2
    decay_mult: 0
  }
  convolution_param {
    num_output: 24
    pad: 1
    kernel_size: 3
    stride: 1
    weight_filler {
      type: "xavier"
    }
    bias_filler {
      type: "constant"
      value: 0
    }
  }
}
layer {
  name: "fc7_mbox_loc_perm"
  type: "Permute"
  bottom: "fc7_mbox_loc"
  top: "fc7_mbox_loc_perm"
  permute_param {
    order: 0
    order: 2
    order: 3
    order: 1
  }
}
layer {
  name: "fc7_mbox_loc_flat"
  type: "Flatten"
  bottom: "fc7_mbox_loc_perm"
  top: "fc7_mbox_loc_flat"
  flatten_param {
    axis: 1
  }
}
layer {
  name: "fc7_mbox_conf"
  type: "Convolution"
  bottom: "fc7"
  top: "fc7_mbox_conf"
  param {
    lr_mult: 1
    decay_mult: 1
  }
  param {
    lr_mult: 2
    decay_mult: 0
  }
  convolution_param {
    num_output: 24
    pad: 1
    kernel_size: 3
    stride: 1
    weight_filler {
      type: "xavier"
    }
    bias_filler {
      type: "constant"
      value: 0
    }
  }
}
layer {
  name: "fc7_mbox_conf_perm"
  type: "Permute"
  bottom: "fc7_mbox_conf"
  top: "fc7_mbox_conf_perm"
  permute_param {
    order: 0
    order: 2
    order: 3
    order: 1
  }
}
layer {
  name: "fc7_mbox_conf_flat"
  type: "Flatten"
  bottom: "fc7_mbox_conf_perm"
  top: "fc7_mbox_conf_flat"
  flatten_param {
    axis: 1
  }
}
layer {
  name: "fc7_mbox_priorbox"
  type: "PriorBox"
  bottom: "fc7"
  bottom: "data"
  top: "fc7_mbox_priorbox"
  prior_box_param {
    min_size: 60
    max_size: 111
    aspect_ratio: 2
    aspect_ratio: 3
    flip: true
    clip: false
    variance: 0.1
    variance: 0.1
    variance: 0.2
    variance: 0.2
    step: 16
    offset: 0.5
  }
}
layer {
  name: "conv6_2_mbox_loc"
  type: "Convolution"
  bottom: "conv6_2"
  top: "conv6_2_mbox_loc"
  param {
    lr_mult: 1
    decay_mult: 1
  }
  param {
    lr_mult: 2
    decay_mult: 0
  }
  convolution_param {
    num_output: 24
    pad: 1
    kernel_size: 3
    stride: 1
    weight_filler {
      type: "xavier"
    }
    bias_filler {
      type: "constant"
      value: 0
    }
  }
}
layer {
  name: "conv6_2_mbox_loc_perm"
  type: "Permute"
  bottom: "conv6_2_mbox_loc"
  top: "conv6_2_mbox_loc_perm"
  permute_param {
    order: 0
    order: 2
    order: 3
    order: 1
  }
}
layer {
  name: "conv6_2_mbox_loc_flat"
  type: "Flatten"
  bottom: "conv6_2_mbox_loc_perm"
  top: "conv6_2_mbox_loc_flat"
  flatten_param {
    axis: 1
  }
}
layer {
  name: "conv6_2_mbox_conf"
  type: "Convolution"
  bottom: "conv6_2"
  top: "conv6_2_mbox_conf"
  param {
    lr_mult: 1
    decay_mult: 1
  }
  param {
    lr_mult: 2
    decay_mult: 0
  }
  convolution_param {
    num_output: 24
    pad: 1
    kernel_size: 3
    stride: 1
    weight_filler {
      type: "xavier"
    }
    bias_filler {
      type: "constant"
      value: 0
    }
  }
}
layer {
  name: "conv6_2_mbox_conf_perm"
  type: "Permute"
  bottom: "conv6_2_mbox_conf"
  top: "conv6_2_mbox_conf_perm"
  permute_param {
    order: 0
    order: 2
    order: 3
    order: 1
  }
}
layer {
  name: "conv6_2_mbox_conf_flat"
  type: "Flatten"
  bottom: "conv6_2_mbox_conf_perm"
  top: "conv6_2_mbox_conf_flat"
  flatten_param {
    axis: 1
  }
}
layer {
  name: "conv6_2_mbox_priorbox"
  type: "PriorBox"
  bottom: "conv6_2"
  bottom: "data"
  top: "conv6_2_mbox_priorbox"
  prior_box_param {
    min_size: 111
    max_size: 162
    aspect_ratio: 2
    aspect_ratio: 3
    flip: true
    clip: false
    variance: 0.1
    variance: 0.1
    variance: 0.2
    variance: 0.2
    step: 32
    offset: 0.5
  }
}
layer {
  name: "conv7_2_mbox_loc"
  type: "Convolution"
  bottom: "conv7_2"
  top: "conv7_2_mbox_loc"
  param {
    lr_mult: 1
    decay_mult: 1
  }
  param {
    lr_mult: 2
    decay_mult: 0
  }
  convolution_param {
    num_output: 24
    pad: 1
    kernel_size: 3
    stride: 1
    weight_filler {
      type: "xavier"
    }
    bias_filler {
      type: "constant"
      value: 0
    }
  }
}
layer {
  name: "conv7_2_mbox_loc_perm"
  type: "Permute"
  bottom: "conv7_2_mbox_loc"
  top: "conv7_2_mbox_loc_perm"
  permute_param {
    order: 0
    order: 2
    order: 3
    order: 1
  }
}
layer {
  name: "conv7_2_mbox_loc_flat"
  type: "Flatten"
  bottom: "conv7_2_mbox_loc_perm"
  top: "conv7_2_mbox_loc_flat"
  flatten_param {
    axis: 1
  }
}
layer {
  name: "conv7_2_mbox_conf"
  type: "Convolution"
  bottom: "conv7_2"
  top: "conv7_2_mbox_conf"
  param {
    lr_mult: 1
    decay_mult: 1
  }
  param {
    lr_mult: 2
    decay_mult: 0
  }
  convolution_param {
    num_output: 24
    pad: 1
    kernel_size: 3
    stride: 1
    weight_filler {
      type: "xavier"
    }
    bias_filler {
      type: "constant"
      value: 0
    }
  }
}
layer {
  name: "conv7_2_mbox_conf_perm"
  type: "Permute"
  bottom: "conv7_2_mbox_conf"
  top: "conv7_2_mbox_conf_perm"
  permute_param {
    order: 0
    order: 2
    order: 3
    order: 1
  }
}
layer {
  name: "conv7_2_mbox_conf_flat"
  type: "Flatten"
  bottom: "conv7_2_mbox_conf_perm"
  top: "conv7_2_mbox_conf_flat"
  flatten_param {
    axis: 1
  }
}
layer {
  name: "conv7_2_mbox_priorbox"
  type: "PriorBox"
  bottom: "conv7_2"
  bottom: "data"
  top: "conv7_2_mbox_priorbox"
  prior_box_param {
    min_size: 162
    max_size: 213
    aspect_ratio: 2
    aspect_ratio: 3
    flip: true
    clip: false
    variance: 0.1
    variance: 0.1
    variance: 0.2
    variance: 0.2
    step: 64
    offset: 0.5
  }
}
layer {
  name: "conv8_2_mbox_loc"
  type: "Convolution"
  bottom: "conv8_2"
  top: "conv8_2_mbox_loc"
  param {
    lr_mult: 1
    decay_mult: 1
  }
  param {
    lr_mult: 2
    decay_mult: 0
  }
  convolution_param {
    num_output: 16
    pad: 1
    kernel_size: 3
    stride: 1
    weight_filler {
      type: "xavier"
    }
    bias_filler {
      type: "constant"
      value: 0
    }
  }
}
layer {
  name: "conv8_2_mbox_loc_perm"
  type: "Permute"
  bottom: "conv8_2_mbox_loc"
  top: "conv8_2_mbox_loc_perm"
  permute_param {
    order: 0
    order: 2
    order: 3
    order: 1
  }
}
layer {
  name: "conv8_2_mbox_loc_flat"
  type: "Flatten"
  bottom: "conv8_2_mbox_loc_perm"
  top: "conv8_2_mbox_loc_flat"
  flatten_param {
    axis: 1
  }
}
layer {
  name: "conv8_2_mbox_conf"
  type: "Convolution"
  bottom: "conv8_2"
  top: "conv8_2_mbox_conf"
  param {
    lr_mult: 1
    decay_mult: 1
  }
  param {
    lr_mult: 2
    decay_mult: 0
  }
  convolution_param {
    num_output: 16
    pad: 1
    kernel_size: 3
    stride: 1
    weight_filler {
      type: "xavier"
    }
    bias_filler {
      type: "constant"
      value: 0
    }
  }
}
layer {
  name: "conv8_2_mbox_conf_perm"
  type: "Permute"
  bottom: "conv8_2_mbox_conf"
  top: "conv8_2_mbox_conf_perm"
  permute_param {
    order: 0
    order: 2
    order: 3
    order: 1
  }
}
layer {
  name: "conv8_2_mbox_conf_flat"
  type: "Flatten"
  bottom: "conv8_2_mbox_conf_perm"
  top: "conv8_2_mbox_conf_flat"
  flatten_param {
    axis: 1
  }
}
layer {
  name: "conv8_2_mbox_priorbox"
  type: "PriorBox"
  bottom: "conv8_2"
  bottom: "data"
  top: "conv8_2_mbox_priorbox"
  prior_box_param {
    min_size: 213
    max_size: 264
    aspect_ratio: 2
    flip: true
    clip: false
    variance: 0.1
    variance: 0.1
    variance: 0.2
    variance: 0.2
    step: 100
    offset: 0.5
  }
}
layer {
  name: "conv9_2_mbox_loc"
  type: "Convolution"
  bottom: "conv9_2"
  top: "conv9_2_mbox_loc"
  param {
    lr_mult: 1
    decay_mult: 1
  }
  param {
    lr_mult: 2
    decay_mult: 0
  }
  convolution_param {
    num_output: 16
    pad: 1
    kernel_size: 3
    stride: 1
    weight_filler {
      type: "xavier"
    }
    bias_filler {
      type: "constant"
      value: 0
    }
  }
}
layer {
  name: "conv9_2_mbox_loc_perm"
  type: "Permute"
  bottom: "conv9_2_mbox_loc"
  top: "conv9_2_mbox_loc_perm"
  permute_param {
    order: 0
    order: 2
    order: 3
    order: 1
  }
}
layer {
  name: "conv9_2_mbox_loc_flat"
  type: "Flatten"
  bottom: "conv9_2_mbox_loc_perm"
  top: "conv9_2_mbox_loc_flat"
  flatten_param {
    axis: 1
  }
}
layer {
  name: "conv9_2_mbox_conf"
  type: "Convolution"
  bottom: "conv9_2"
  top: "conv9_2_mbox_conf"
  param {
    lr_mult: 1
    decay_mult: 1
  }
  param {
    lr_mult: 2
    decay_mult: 0
  }
  convolution_param {
    num_output: 16
    pad: 1
    kernel_size: 3
    stride: 1
    weight_filler {
      type: "xavier"
    }
    bias_filler {
      type: "constant"
      value: 0
    }
  }
}
layer {
  name: "conv9_2_mbox_conf_perm"
  type: "Permute"
  bottom: "conv9_2_mbox_conf"
  top: "conv9_2_mbox_conf_perm"
  permute_param {
    order: 0
    order: 2
    order: 3
    order: 1
  }
}
layer {
  name: "conv9_2_mbox_conf_flat"
  type: "Flatten"
  bottom: "conv9_2_mbox_conf_perm"
  top: "conv9_2_mbox_conf_flat"
  flatten_param {
    axis: 1
  }
}
layer {
  name: "conv9_2_mbox_priorbox"
  type: "PriorBox"
  bottom: "conv9_2"
  bottom: "data"
  top: "conv9_2_mbox_priorbox"
  prior_box_param {
    min_size: 264
    max_size: 315
    aspect_ratio: 2
    flip: true
    clip: false
    variance: 0.1
    variance: 0.1
    variance: 0.2
    variance: 0.2
    step: 300
    offset: 0.5
  }
}
layer {
  name: "mbox_loc"
  type: "Concat"
  bottom: "conv4_3_norm_mbox_loc_flat"
  bottom: "fc7_mbox_loc_flat"
  bottom: "conv6_2_mbox_loc_flat"
  bottom: "conv7_2_mbox_loc_flat"
  bottom: "conv8_2_mbox_loc_flat"
  bottom: "conv9_2_mbox_loc_flat"
  top: "mbox_loc"
  concat_param {
    axis: 1
  }
}
layer {
  name: "mbox_conf"
  type: "Concat"
  bottom: "conv4_3_norm_mbox_conf_flat"
  bottom: "fc7_mbox_conf_flat"
  bottom: "conv6_2_mbox_conf_flat"
  bottom: "conv7_2_mbox_conf_flat"
  bottom: "conv8_2_mbox_conf_flat"
  bottom: "conv9_2_mbox_conf_flat"
  top: "mbox_conf"
  concat_param {
    axis: 1
  }
}
layer {
  name: "mbox_priorbox"
  type: "Concat"
  bottom: "conv4_3_norm_mbox_priorbox"
  bottom: "fc7_mbox_priorbox"
  bottom: "conv6_2_mbox_priorbox"
  bottom: "conv7_2_mbox_priorbox"
  bottom: "conv8_2_mbox_priorbox"
  bottom: "conv9_2_mbox_priorbox"
  top: "mbox_priorbox"
  concat_param {
    axis: 2
  }
}
layer {
  name: "mbox_loss"
  type: "MultiBoxLoss"
  bottom: "mbox_loc"
  bottom: "mbox_conf"
  bottom: "mbox_priorbox"
  bottom: "label"
  top: "mbox_loss"
  include {
    phase: TRAIN
  }
  propagate_down: true
  propagate_down: true
  propagate_down: false
  propagate_down: false
  loss_param {
    normalization: VALID
  }
  multibox_loss_param {
    loc_loss_type: SMOOTH_L1
    conf_loss_type: SOFTMAX
    loc_weight: 1
    num_classes: 4
    share_location: true
    match_type: PER_PREDICTION
    overlap_threshold: 0.5
    use_prior_for_matching: true
    background_label_id: 0
    use_difficult_gt: true
    neg_pos_ratio: 3
    neg_overlap: 0.5
    code_type: CENTER_SIZE
    ignore_cross_boundary_bbox: false
    mining_type: MAX_NEGATIVE
  }
}
I0601 12:02:40.874706 13974 layer_factory.hpp:77] Creating layer data
I0601 12:02:40.874881 13974 net.cpp:100] Creating Layer data
I0601 12:02:40.874896 13974 net.cpp:408] data -> data
I0601 12:02:40.874934 13974 net.cpp:408] data -> label
I0601 12:02:40.875556 13994 db_lmdb.cpp:35] Opened lmdb examples/tbs_300x300_HSIL_10x/tbs_300x300_HSIL_10x_trainval_lmdb
I0601 12:02:40.886509 13974 annotated_data_layer.cpp:62] output data size: 32,3,300,300
I0601 12:02:40.953600 13974 net.cpp:150] Setting up data
I0601 12:02:40.954902 13974 net.cpp:157] Top shape: 32 3 300 300 (8640000)
I0601 12:02:40.955584 13974 net.cpp:157] Top shape: 1 1 1 8 (8)
I0601 12:02:40.955636 13974 net.cpp:165] Memory required for data: 34560032
I0601 12:02:40.955662 13974 layer_factory.hpp:77] Creating layer data_data_0_split
I0601 12:02:40.955685 13974 net.cpp:100] Creating Layer data_data_0_split
I0601 12:02:40.955703 13974 net.cpp:434] data_data_0_split <- data
I0601 12:02:40.955731 13974 net.cpp:408] data_data_0_split -> data_data_0_split_0
I0601 12:02:40.955755 13974 net.cpp:408] data_data_0_split -> data_data_0_split_1
I0601 12:02:40.955777 13974 net.cpp:408] data_data_0_split -> data_data_0_split_2
I0601 12:02:40.955797 13974 net.cpp:408] data_data_0_split -> data_data_0_split_3
I0601 12:02:40.955816 13974 net.cpp:408] data_data_0_split -> data_data_0_split_4
I0601 12:02:40.955832 13974 net.cpp:408] data_data_0_split -> data_data_0_split_5
I0601 12:02:40.955852 13974 net.cpp:408] data_data_0_split -> data_data_0_split_6
I0601 12:02:40.965663 13974 net.cpp:150] Setting up data_data_0_split
I0601 12:02:40.965680 13974 net.cpp:157] Top shape: 32 3 300 300 (8640000)
I0601 12:02:40.965687 13974 net.cpp:157] Top shape: 32 3 300 300 (8640000)
I0601 12:02:40.965690 13974 net.cpp:157] Top shape: 32 3 300 300 (8640000)
I0601 12:02:40.965695 13974 net.cpp:157] Top shape: 32 3 300 300 (8640000)
I0601 12:02:40.965699 13974 net.cpp:157] Top shape: 32 3 300 300 (8640000)
I0601 12:02:40.965703 13974 net.cpp:157] Top shape: 32 3 300 300 (8640000)
I0601 12:02:40.965706 13974 net.cpp:157] Top shape: 32 3 300 300 (8640000)
I0601 12:02:40.965710 13974 net.cpp:165] Memory required for data: 276480032
I0601 12:02:40.965716 13974 layer_factory.hpp:77] Creating layer conv1_1
I0601 12:02:40.965750 13974 net.cpp:100] Creating Layer conv1_1
I0601 12:02:40.965770 13974 net.cpp:434] conv1_1 <- data_data_0_split_0
I0601 12:02:40.965790 13974 net.cpp:408] conv1_1 -> conv1_1
I0601 12:02:41.189541 13974 net.cpp:150] Setting up conv1_1
I0601 12:02:41.189561 13974 net.cpp:157] Top shape: 32 64 300 300 (184320000)
I0601 12:02:41.189565 13974 net.cpp:165] Memory required for data: 1013760032
I0601 12:02:41.189600 13974 layer_factory.hpp:77] Creating layer relu1_1
I0601 12:02:41.189626 13974 net.cpp:100] Creating Layer relu1_1
I0601 12:02:41.189633 13974 net.cpp:434] relu1_1 <- conv1_1
I0601 12:02:41.189640 13974 net.cpp:395] relu1_1 -> conv1_1 (in-place)
I0601 12:02:41.189875 13974 net.cpp:150] Setting up relu1_1
I0601 12:02:41.189888 13974 net.cpp:157] Top shape: 32 64 300 300 (184320000)
I0601 12:02:41.189891 13974 net.cpp:165] Memory required for data: 1751040032
I0601 12:02:41.189895 13974 layer_factory.hpp:77] Creating layer conv1_2
I0601 12:02:41.189913 13974 net.cpp:100] Creating Layer conv1_2
I0601 12:02:41.189918 13974 net.cpp:434] conv1_2 <- conv1_1
I0601 12:02:41.189925 13974 net.cpp:408] conv1_2 -> conv1_2
I0601 12:02:41.192634 13974 net.cpp:150] Setting up conv1_2
I0601 12:02:41.192657 13974 net.cpp:157] Top shape: 32 64 300 300 (184320000)
I0601 12:02:41.192664 13974 net.cpp:165] Memory required for data: 2488320032
I0601 12:02:41.192678 13974 layer_factory.hpp:77] Creating layer relu1_2
I0601 12:02:41.192689 13974 net.cpp:100] Creating Layer relu1_2
I0601 12:02:41.192695 13974 net.cpp:434] relu1_2 <- conv1_2
I0601 12:02:41.192703 13974 net.cpp:395] relu1_2 -> conv1_2 (in-place)
I0601 12:02:41.193558 13974 net.cpp:150] Setting up relu1_2
I0601 12:02:41.193575 13974 net.cpp:157] Top shape: 32 64 300 300 (184320000)
I0601 12:02:41.193579 13974 net.cpp:165] Memory required for data: 3225600032
I0601 12:02:41.193584 13974 layer_factory.hpp:77] Creating layer pool1
I0601 12:02:41.193595 13974 net.cpp:100] Creating Layer pool1
I0601 12:02:41.193600 13974 net.cpp:434] pool1 <- conv1_2
I0601 12:02:41.193608 13974 net.cpp:408] pool1 -> pool1
I0601 12:02:41.193681 13974 net.cpp:150] Setting up pool1
I0601 12:02:41.193688 13974 net.cpp:157] Top shape: 32 64 150 150 (46080000)
I0601 12:02:41.193692 13974 net.cpp:165] Memory required for data: 3409920032
I0601 12:02:41.193696 13974 layer_factory.hpp:77] Creating layer conv2_1
I0601 12:02:41.193707 13974 net.cpp:100] Creating Layer conv2_1
I0601 12:02:41.193732 13974 net.cpp:434] conv2_1 <- pool1
I0601 12:02:41.193742 13974 net.cpp:408] conv2_1 -> conv2_1
I0601 12:02:41.195792 13974 net.cpp:150] Setting up conv2_1
I0601 12:02:41.195819 13974 net.cpp:157] Top shape: 32 128 150 150 (92160000)
I0601 12:02:41.195825 13974 net.cpp:165] Memory required for data: 3778560032
I0601 12:02:41.195840 13974 layer_factory.hpp:77] Creating layer relu2_1
I0601 12:02:41.195852 13974 net.cpp:100] Creating Layer relu2_1
I0601 12:02:41.195858 13974 net.cpp:434] relu2_1 <- conv2_1
I0601 12:02:41.195866 13974 net.cpp:395] relu2_1 -> conv2_1 (in-place)
I0601 12:02:41.196682 13974 net.cpp:150] Setting up relu2_1
I0601 12:02:41.196701 13974 net.cpp:157] Top shape: 32 128 150 150 (92160000)
I0601 12:02:41.196704 13974 net.cpp:165] Memory required for data: 4147200032
I0601 12:02:41.196710 13974 layer_factory.hpp:77] Creating layer conv2_2
I0601 12:02:41.196725 13974 net.cpp:100] Creating Layer conv2_2
I0601 12:02:41.196730 13974 net.cpp:434] conv2_2 <- conv2_1
I0601 12:02:41.196739 13974 net.cpp:408] conv2_2 -> conv2_2
I0601 12:02:41.199512 13974 net.cpp:150] Setting up conv2_2
I0601 12:02:41.199535 13974 net.cpp:157] Top shape: 32 128 150 150 (92160000)
I0601 12:02:41.199539 13974 net.cpp:165] Memory required for data: 4515840032
I0601 12:02:41.199549 13974 layer_factory.hpp:77] Creating layer relu2_2
I0601 12:02:41.199559 13974 net.cpp:100] Creating Layer relu2_2
I0601 12:02:41.199563 13974 net.cpp:434] relu2_2 <- conv2_2
I0601 12:02:41.199584 13974 net.cpp:395] relu2_2 -> conv2_2 (in-place)
I0601 12:02:41.199806 13974 net.cpp:150] Setting up relu2_2
I0601 12:02:41.199820 13974 net.cpp:157] Top shape: 32 128 150 150 (92160000)
I0601 12:02:41.199825 13974 net.cpp:165] Memory required for data: 4884480032
I0601 12:02:41.199828 13974 layer_factory.hpp:77] Creating layer pool2
I0601 12:02:41.199836 13974 net.cpp:100] Creating Layer pool2
I0601 12:02:41.199843 13974 net.cpp:434] pool2 <- conv2_2
I0601 12:02:41.199849 13974 net.cpp:408] pool2 -> pool2
I0601 12:02:41.199904 13974 net.cpp:150] Setting up pool2
I0601 12:02:41.199913 13974 net.cpp:157] Top shape: 32 128 75 75 (23040000)
I0601 12:02:41.199918 13974 net.cpp:165] Memory required for data: 4976640032
I0601 12:02:41.199921 13974 layer_factory.hpp:77] Creating layer conv3_1
I0601 12:02:41.199934 13974 net.cpp:100] Creating Layer conv3_1
I0601 12:02:41.199941 13974 net.cpp:434] conv3_1 <- pool2
I0601 12:02:41.199950 13974 net.cpp:408] conv3_1 -> conv3_1
I0601 12:02:41.206117 13974 net.cpp:150] Setting up conv3_1
I0601 12:02:41.206140 13974 net.cpp:157] Top shape: 32 256 75 75 (46080000)
I0601 12:02:41.206145 13974 net.cpp:165] Memory required for data: 5160960032
I0601 12:02:41.206163 13974 layer_factory.hpp:77] Creating layer relu3_1
I0601 12:02:41.206176 13974 net.cpp:100] Creating Layer relu3_1
I0601 12:02:41.206182 13974 net.cpp:434] relu3_1 <- conv3_1
I0601 12:02:41.206190 13974 net.cpp:395] relu3_1 -> conv3_1 (in-place)
I0601 12:02:41.206445 13974 net.cpp:150] Setting up relu3_1
I0601 12:02:41.206476 13974 net.cpp:157] Top shape: 32 256 75 75 (46080000)
I0601 12:02:41.206491 13974 net.cpp:165] Memory required for data: 5345280032
I0601 12:02:41.206506 13974 layer_factory.hpp:77] Creating layer conv3_2
I0601 12:02:41.206531 13974 net.cpp:100] Creating Layer conv3_2
I0601 12:02:41.206545 13974 net.cpp:434] conv3_2 <- conv3_1
I0601 12:02:41.206564 13974 net.cpp:408] conv3_2 -> conv3_2
I0601 12:02:41.212400 13974 net.cpp:150] Setting up conv3_2
I0601 12:02:41.212921 13974 net.cpp:157] Top shape: 32 256 75 75 (46080000)
I0601 12:02:41.213155 13974 net.cpp:165] Memory required for data: 5529600032
I0601 12:02:41.213191 13974 layer_factory.hpp:77] Creating layer relu3_2
I0601 12:02:41.213219 13974 net.cpp:100] Creating Layer relu3_2
I0601 12:02:41.213240 13974 net.cpp:434] relu3_2 <- conv3_2
I0601 12:02:41.213258 13974 net.cpp:395] relu3_2 -> conv3_2 (in-place)
I0601 12:02:41.213577 13974 net.cpp:150] Setting up relu3_2
I0601 12:02:41.213604 13974 net.cpp:157] Top shape: 32 256 75 75 (46080000)
I0601 12:02:41.213625 13974 net.cpp:165] Memory required for data: 5713920032
I0601 12:02:41.213649 13974 layer_factory.hpp:77] Creating layer conv3_3
I0601 12:02:41.213676 13974 net.cpp:100] Creating Layer conv3_3
I0601 12:02:41.213692 13974 net.cpp:434] conv3_3 <- conv3_2
I0601 12:02:41.213712 13974 net.cpp:408] conv3_3 -> conv3_3
I0601 12:02:41.221344 13974 net.cpp:150] Setting up conv3_3
I0601 12:02:41.221398 13974 net.cpp:157] Top shape: 32 256 75 75 (46080000)
I0601 12:02:41.221418 13974 net.cpp:165] Memory required for data: 5898240032
I0601 12:02:41.221442 13974 layer_factory.hpp:77] Creating layer relu3_3
I0601 12:02:41.221454 13974 net.cpp:100] Creating Layer relu3_3
I0601 12:02:41.221459 13974 net.cpp:434] relu3_3 <- conv3_3
I0601 12:02:41.221467 13974 net.cpp:395] relu3_3 -> conv3_3 (in-place)
I0601 12:02:41.221704 13974 net.cpp:150] Setting up relu3_3
I0601 12:02:41.221716 13974 net.cpp:157] Top shape: 32 256 75 75 (46080000)
I0601 12:02:41.221722 13974 net.cpp:165] Memory required for data: 6082560032
I0601 12:02:41.221726 13974 layer_factory.hpp:77] Creating layer pool3
I0601 12:02:41.221735 13974 net.cpp:100] Creating Layer pool3
I0601 12:02:41.221738 13974 net.cpp:434] pool3 <- conv3_3
I0601 12:02:41.221747 13974 net.cpp:408] pool3 -> pool3
I0601 12:02:41.221807 13974 net.cpp:150] Setting up pool3
I0601 12:02:41.221815 13974 net.cpp:157] Top shape: 32 256 38 38 (11829248)
I0601 12:02:41.221820 13974 net.cpp:165] Memory required for data: 6129877024
I0601 12:02:41.221824 13974 layer_factory.hpp:77] Creating layer conv4_1
I0601 12:02:41.221837 13974 net.cpp:100] Creating Layer conv4_1
I0601 12:02:41.221843 13974 net.cpp:434] conv4_1 <- pool3
I0601 12:02:41.221850 13974 net.cpp:408] conv4_1 -> conv4_1
I0601 12:02:41.234176 13974 net.cpp:150] Setting up conv4_1
I0601 12:02:41.234194 13974 net.cpp:157] Top shape: 32 512 38 38 (23658496)
I0601 12:02:41.234196 13974 net.cpp:165] Memory required for data: 6224511008
I0601 12:02:41.234203 13974 layer_factory.hpp:77] Creating layer relu4_1
I0601 12:02:41.234211 13974 net.cpp:100] Creating Layer relu4_1
I0601 12:02:41.234215 13974 net.cpp:434] relu4_1 <- conv4_1
I0601 12:02:41.234222 13974 net.cpp:395] relu4_1 -> conv4_1 (in-place)
I0601 12:02:41.234843 13974 net.cpp:150] Setting up relu4_1
I0601 12:02:41.234858 13974 net.cpp:157] Top shape: 32 512 38 38 (23658496)
I0601 12:02:41.234861 13974 net.cpp:165] Memory required for data: 6319144992
I0601 12:02:41.234866 13974 layer_factory.hpp:77] Creating layer conv4_2
I0601 12:02:41.234880 13974 net.cpp:100] Creating Layer conv4_2
I0601 12:02:41.234887 13974 net.cpp:434] conv4_2 <- conv4_1
I0601 12:02:41.234896 13974 net.cpp:408] conv4_2 -> conv4_2
I0601 12:02:41.248555 13974 net.cpp:150] Setting up conv4_2
I0601 12:02:41.248572 13974 net.cpp:157] Top shape: 32 512 38 38 (23658496)
I0601 12:02:41.248576 13974 net.cpp:165] Memory required for data: 6413778976
I0601 12:02:41.248590 13974 layer_factory.hpp:77] Creating layer relu4_2
I0601 12:02:41.248600 13974 net.cpp:100] Creating Layer relu4_2
I0601 12:02:41.248618 13974 net.cpp:434] relu4_2 <- conv4_2
I0601 12:02:41.248625 13974 net.cpp:395] relu4_2 -> conv4_2 (in-place)
I0601 12:02:41.249493 13974 net.cpp:150] Setting up relu4_2
I0601 12:02:41.249537 13974 net.cpp:157] Top shape: 32 512 38 38 (23658496)
I0601 12:02:41.249552 13974 net.cpp:165] Memory required for data: 6508412960
I0601 12:02:41.249567 13974 layer_factory.hpp:77] Creating layer conv4_3
I0601 12:02:41.249590 13974 net.cpp:100] Creating Layer conv4_3
I0601 12:02:41.249604 13974 net.cpp:434] conv4_3 <- conv4_2
I0601 12:02:41.249622 13974 net.cpp:408] conv4_3 -> conv4_3
I0601 12:02:41.264240 13974 net.cpp:150] Setting up conv4_3
I0601 12:02:41.264258 13974 net.cpp:157] Top shape: 32 512 38 38 (23658496)
I0601 12:02:41.264263 13974 net.cpp:165] Memory required for data: 6603046944
I0601 12:02:41.264273 13974 layer_factory.hpp:77] Creating layer relu4_3
I0601 12:02:41.264284 13974 net.cpp:100] Creating Layer relu4_3
I0601 12:02:41.264288 13974 net.cpp:434] relu4_3 <- conv4_3
I0601 12:02:41.264295 13974 net.cpp:395] relu4_3 -> conv4_3 (in-place)
I0601 12:02:41.264518 13974 net.cpp:150] Setting up relu4_3
I0601 12:02:41.264545 13974 net.cpp:157] Top shape: 32 512 38 38 (23658496)
I0601 12:02:41.264559 13974 net.cpp:165] Memory required for data: 6697680928
I0601 12:02:41.264572 13974 layer_factory.hpp:77] Creating layer conv4_3_relu4_3_0_split
I0601 12:02:41.264590 13974 net.cpp:100] Creating Layer conv4_3_relu4_3_0_split
I0601 12:02:41.264603 13974 net.cpp:434] conv4_3_relu4_3_0_split <- conv4_3
I0601 12:02:41.264621 13974 net.cpp:408] conv4_3_relu4_3_0_split -> conv4_3_relu4_3_0_split_0
I0601 12:02:41.264639 13974 net.cpp:408] conv4_3_relu4_3_0_split -> conv4_3_relu4_3_0_split_1
I0601 12:02:41.264706 13974 net.cpp:150] Setting up conv4_3_relu4_3_0_split
I0601 12:02:41.264727 13974 net.cpp:157] Top shape: 32 512 38 38 (23658496)
I0601 12:02:41.264742 13974 net.cpp:157] Top shape: 32 512 38 38 (23658496)
I0601 12:02:41.264755 13974 net.cpp:165] Memory required for data: 6886948896
I0601 12:02:41.264768 13974 layer_factory.hpp:77] Creating layer pool4
I0601 12:02:41.264786 13974 net.cpp:100] Creating Layer pool4
I0601 12:02:41.264799 13974 net.cpp:434] pool4 <- conv4_3_relu4_3_0_split_0
I0601 12:02:41.264820 13974 net.cpp:408] pool4 -> pool4
I0601 12:02:41.264886 13974 net.cpp:150] Setting up pool4
I0601 12:02:41.264907 13974 net.cpp:157] Top shape: 32 512 19 19 (5914624)
I0601 12:02:41.264920 13974 net.cpp:165] Memory required for data: 6910607392
I0601 12:02:41.264933 13974 layer_factory.hpp:77] Creating layer conv5_1
I0601 12:02:41.264957 13974 net.cpp:100] Creating Layer conv5_1
I0601 12:02:41.264972 13974 net.cpp:434] conv5_1 <- pool4
I0601 12:02:41.264989 13974 net.cpp:408] conv5_1 -> conv5_1
I0601 12:02:41.279757 13974 net.cpp:150] Setting up conv5_1
I0601 12:02:41.279774 13974 net.cpp:157] Top shape: 32 512 19 19 (5914624)
I0601 12:02:41.279779 13974 net.cpp:165] Memory required for data: 6934265888
I0601 12:02:41.279789 13974 layer_factory.hpp:77] Creating layer relu5_1
I0601 12:02:41.279800 13974 net.cpp:100] Creating Layer relu5_1
I0601 12:02:41.279805 13974 net.cpp:434] relu5_1 <- conv5_1
I0601 12:02:41.279814 13974 net.cpp:395] relu5_1 -> conv5_1 (in-place)
I0601 12:02:41.280035 13974 net.cpp:150] Setting up relu5_1
I0601 12:02:41.280062 13974 net.cpp:157] Top shape: 32 512 19 19 (5914624)
I0601 12:02:41.280068 13974 net.cpp:165] Memory required for data: 6957924384
I0601 12:02:41.280073 13974 layer_factory.hpp:77] Creating layer conv5_2
I0601 12:02:41.280086 13974 net.cpp:100] Creating Layer conv5_2
I0601 12:02:41.280093 13974 net.cpp:434] conv5_2 <- conv5_1
I0601 12:02:41.280103 13974 net.cpp:408] conv5_2 -> conv5_2
I0601 12:02:41.295925 13974 net.cpp:150] Setting up conv5_2
I0601 12:02:41.295953 13974 net.cpp:157] Top shape: 32 512 19 19 (5914624)
I0601 12:02:41.295958 13974 net.cpp:165] Memory required for data: 6981582880
I0601 12:02:41.295969 13974 layer_factory.hpp:77] Creating layer relu5_2
I0601 12:02:41.295979 13974 net.cpp:100] Creating Layer relu5_2
I0601 12:02:41.295985 13974 net.cpp:434] relu5_2 <- conv5_2
I0601 12:02:41.295994 13974 net.cpp:395] relu5_2 -> conv5_2 (in-place)
I0601 12:02:41.296195 13974 net.cpp:150] Setting up relu5_2
I0601 12:02:41.296226 13974 net.cpp:157] Top shape: 32 512 19 19 (5914624)
I0601 12:02:41.296242 13974 net.cpp:165] Memory required for data: 7005241376
I0601 12:02:41.296257 13974 layer_factory.hpp:77] Creating layer conv5_3
I0601 12:02:41.296284 13974 net.cpp:100] Creating Layer conv5_3
I0601 12:02:41.296301 13974 net.cpp:434] conv5_3 <- conv5_2
I0601 12:02:41.296319 13974 net.cpp:408] conv5_3 -> conv5_3
I0601 12:02:41.315778 13974 net.cpp:150] Setting up conv5_3
I0601 12:02:41.315834 13974 net.cpp:157] Top shape: 32 512 19 19 (5914624)
I0601 12:02:41.315850 13974 net.cpp:165] Memory required for data: 7028899872
I0601 12:02:41.315871 13974 layer_factory.hpp:77] Creating layer relu5_3
I0601 12:02:41.315898 13974 net.cpp:100] Creating Layer relu5_3
I0601 12:02:41.315917 13974 net.cpp:434] relu5_3 <- conv5_3
I0601 12:02:41.315933 13974 net.cpp:395] relu5_3 -> conv5_3 (in-place)
I0601 12:02:41.316159 13974 net.cpp:150] Setting up relu5_3
I0601 12:02:41.316192 13974 net.cpp:157] Top shape: 32 512 19 19 (5914624)
I0601 12:02:41.316206 13974 net.cpp:165] Memory required for data: 7052558368
I0601 12:02:41.316220 13974 layer_factory.hpp:77] Creating layer pool5
I0601 12:02:41.316238 13974 net.cpp:100] Creating Layer pool5
I0601 12:02:41.316252 13974 net.cpp:434] pool5 <- conv5_3
I0601 12:02:41.316268 13974 net.cpp:408] pool5 -> pool5
I0601 12:02:41.316334 13974 net.cpp:150] Setting up pool5
I0601 12:02:41.316354 13974 net.cpp:157] Top shape: 32 512 19 19 (5914624)
I0601 12:02:41.316367 13974 net.cpp:165] Memory required for data: 7076216864
I0601 12:02:41.316380 13974 layer_factory.hpp:77] Creating layer fc6
I0601 12:02:41.316401 13974 net.cpp:100] Creating Layer fc6
I0601 12:02:41.316414 13974 net.cpp:434] fc6 <- pool5
I0601 12:02:41.316431 13974 net.cpp:408] fc6 -> fc6
I0601 12:02:41.344633 13974 net.cpp:150] Setting up fc6
I0601 12:02:41.344651 13974 net.cpp:157] Top shape: 32 1024 19 19 (11829248)
I0601 12:02:41.344656 13974 net.cpp:165] Memory required for data: 7123533856
I0601 12:02:41.344666 13974 layer_factory.hpp:77] Creating layer relu6
I0601 12:02:41.344676 13974 net.cpp:100] Creating Layer relu6
I0601 12:02:41.344682 13974 net.cpp:434] relu6 <- fc6
I0601 12:02:41.344691 13974 net.cpp:395] relu6 -> fc6 (in-place)
I0601 12:02:41.345525 13974 net.cpp:150] Setting up relu6
I0601 12:02:41.345573 13974 net.cpp:157] Top shape: 32 1024 19 19 (11829248)
I0601 12:02:41.345589 13974 net.cpp:165] Memory required for data: 7170850848
I0601 12:02:41.345605 13974 layer_factory.hpp:77] Creating layer fc7
I0601 12:02:41.345631 13974 net.cpp:100] Creating Layer fc7
I0601 12:02:41.345648 13974 net.cpp:434] fc7 <- fc6
I0601 12:02:41.345669 13974 net.cpp:408] fc7 -> fc7
I0601 12:02:41.353759 13974 net.cpp:150] Setting up fc7
I0601 12:02:41.353778 13974 net.cpp:157] Top shape: 32 1024 19 19 (11829248)
I0601 12:02:41.353782 13974 net.cpp:165] Memory required for data: 7218167840
I0601 12:02:41.353793 13974 layer_factory.hpp:77] Creating layer relu7
I0601 12:02:41.353806 13974 net.cpp:100] Creating Layer relu7
I0601 12:02:41.353811 13974 net.cpp:434] relu7 <- fc7
I0601 12:02:41.353817 13974 net.cpp:395] relu7 -> fc7 (in-place)
I0601 12:02:41.354017 13974 net.cpp:150] Setting up relu7
I0601 12:02:41.354048 13974 net.cpp:157] Top shape: 32 1024 19 19 (11829248)
I0601 12:02:41.354054 13974 net.cpp:165] Memory required for data: 7265484832
I0601 12:02:41.354059 13974 layer_factory.hpp:77] Creating layer fc7_relu7_0_split
I0601 12:02:41.354068 13974 net.cpp:100] Creating Layer fc7_relu7_0_split
I0601 12:02:41.354073 13974 net.cpp:434] fc7_relu7_0_split <- fc7
I0601 12:02:41.354080 13974 net.cpp:408] fc7_relu7_0_split -> fc7_relu7_0_split_0
I0601 12:02:41.354089 13974 net.cpp:408] fc7_relu7_0_split -> fc7_relu7_0_split_1
I0601 12:02:41.354117 13974 net.cpp:408] fc7_relu7_0_split -> fc7_relu7_0_split_2
I0601 12:02:41.354127 13974 net.cpp:408] fc7_relu7_0_split -> fc7_relu7_0_split_3
I0601 12:02:41.354212 13974 net.cpp:150] Setting up fc7_relu7_0_split
I0601 12:02:41.354221 13974 net.cpp:157] Top shape: 32 1024 19 19 (11829248)
I0601 12:02:41.354228 13974 net.cpp:157] Top shape: 32 1024 19 19 (11829248)
I0601 12:02:41.354234 13974 net.cpp:157] Top shape: 32 1024 19 19 (11829248)
I0601 12:02:41.354239 13974 net.cpp:157] Top shape: 32 1024 19 19 (11829248)
I0601 12:02:41.354244 13974 net.cpp:165] Memory required for data: 7454752800
I0601 12:02:41.354248 13974 layer_factory.hpp:77] Creating layer conv6_1
I0601 12:02:41.354261 13974 net.cpp:100] Creating Layer conv6_1
I0601 12:02:41.354267 13974 net.cpp:434] conv6_1 <- fc7_relu7_0_split_0
I0601 12:02:41.354275 13974 net.cpp:408] conv6_1 -> conv6_1
I0601 12:02:41.358345 13974 net.cpp:150] Setting up conv6_1
I0601 12:02:41.358367 13974 net.cpp:157] Top shape: 32 256 19 19 (2957312)
I0601 12:02:41.358371 13974 net.cpp:165] Memory required for data: 7466582048
I0601 12:02:41.358381 13974 layer_factory.hpp:77] Creating layer conv6_1_relu
I0601 12:02:41.358392 13974 net.cpp:100] Creating Layer conv6_1_relu
I0601 12:02:41.358410 13974 net.cpp:434] conv6_1_relu <- conv6_1
I0601 12:02:41.358417 13974 net.cpp:395] conv6_1_relu -> conv6_1 (in-place)
I0601 12:02:41.358635 13974 net.cpp:150] Setting up conv6_1_relu
I0601 12:02:41.358666 13974 net.cpp:157] Top shape: 32 256 19 19 (2957312)
I0601 12:02:41.358683 13974 net.cpp:165] Memory required for data: 7478411296
I0601 12:02:41.358698 13974 layer_factory.hpp:77] Creating layer conv6_2
I0601 12:02:41.358723 13974 net.cpp:100] Creating Layer conv6_2
I0601 12:02:41.358738 13974 net.cpp:434] conv6_2 <- conv6_1
I0601 12:02:41.358757 13974 net.cpp:408] conv6_2 -> conv6_2
I0601 12:02:41.368010 13974 net.cpp:150] Setting up conv6_2
I0601 12:02:41.368067 13974 net.cpp:157] Top shape: 32 512 10 10 (1638400)
I0601 12:02:41.368083 13974 net.cpp:165] Memory required for data: 7484964896
I0601 12:02:41.368110 13974 layer_factory.hpp:77] Creating layer conv6_2_relu
I0601 12:02:41.368134 13974 net.cpp:100] Creating Layer conv6_2_relu
I0601 12:02:41.368154 13974 net.cpp:434] conv6_2_relu <- conv6_2
I0601 12:02:41.368172 13974 net.cpp:395] conv6_2_relu -> conv6_2 (in-place)
I0601 12:02:41.368399 13974 net.cpp:150] Setting up conv6_2_relu
I0601 12:02:41.368444 13974 net.cpp:157] Top shape: 32 512 10 10 (1638400)
I0601 12:02:41.368474 13974 net.cpp:165] Memory required for data: 7491518496
I0601 12:02:41.368502 13974 layer_factory.hpp:77] Creating layer conv6_2_conv6_2_relu_0_split
I0601 12:02:41.368538 13974 net.cpp:100] Creating Layer conv6_2_conv6_2_relu_0_split
I0601 12:02:41.368569 13974 net.cpp:434] conv6_2_conv6_2_relu_0_split <- conv6_2
I0601 12:02:41.368607 13974 net.cpp:408] conv6_2_conv6_2_relu_0_split -> conv6_2_conv6_2_relu_0_split_0
I0601 12:02:41.368644 13974 net.cpp:408] conv6_2_conv6_2_relu_0_split -> conv6_2_conv6_2_relu_0_split_1
I0601 12:02:41.368680 13974 net.cpp:408] conv6_2_conv6_2_relu_0_split -> conv6_2_conv6_2_relu_0_split_2
I0601 12:02:41.368716 13974 net.cpp:408] conv6_2_conv6_2_relu_0_split -> conv6_2_conv6_2_relu_0_split_3
I0601 12:02:41.368844 13974 net.cpp:150] Setting up conv6_2_conv6_2_relu_0_split
I0601 12:02:41.368887 13974 net.cpp:157] Top shape: 32 512 10 10 (1638400)
I0601 12:02:41.368922 13974 net.cpp:157] Top shape: 32 512 10 10 (1638400)
I0601 12:02:41.368957 13974 net.cpp:157] Top shape: 32 512 10 10 (1638400)
I0601 12:02:41.368988 13974 net.cpp:157] Top shape: 32 512 10 10 (1638400)
I0601 12:02:41.369019 13974 net.cpp:165] Memory required for data: 7517732896
I0601 12:02:41.369050 13974 layer_factory.hpp:77] Creating layer conv7_1
I0601 12:02:41.369089 13974 net.cpp:100] Creating Layer conv7_1
I0601 12:02:41.369122 13974 net.cpp:434] conv7_1 <- conv6_2_conv6_2_relu_0_split_0
I0601 12:02:41.369159 13974 net.cpp:408] conv7_1 -> conv7_1
I0601 12:02:41.371296 13974 net.cpp:150] Setting up conv7_1
I0601 12:02:41.371400 13974 net.cpp:157] Top shape: 32 128 10 10 (409600)
I0601 12:02:41.371438 13974 net.cpp:165] Memory required for data: 7519371296
I0601 12:02:41.371480 13974 layer_factory.hpp:77] Creating layer conv7_1_relu
I0601 12:02:41.371518 13974 net.cpp:100] Creating Layer conv7_1_relu
I0601 12:02:41.371551 13974 net.cpp:434] conv7_1_relu <- conv7_1
I0601 12:02:41.371587 13974 net.cpp:395] conv7_1_relu -> conv7_1 (in-place)
I0601 12:02:41.371830 13974 net.cpp:150] Setting up conv7_1_relu
I0601 12:02:41.371891 13974 net.cpp:157] Top shape: 32 128 10 10 (409600)
I0601 12:02:41.371922 13974 net.cpp:165] Memory required for data: 7521009696
I0601 12:02:41.371953 13974 layer_factory.hpp:77] Creating layer conv7_2
I0601 12:02:41.371994 13974 net.cpp:100] Creating Layer conv7_2
I0601 12:02:41.372027 13974 net.cpp:434] conv7_2 <- conv7_1
I0601 12:02:41.372063 13974 net.cpp:408] conv7_2 -> conv7_2
I0601 12:02:41.375877 13974 net.cpp:150] Setting up conv7_2
I0601 12:02:41.375895 13974 net.cpp:157] Top shape: 32 256 5 5 (204800)
I0601 12:02:41.375900 13974 net.cpp:165] Memory required for data: 7521828896
I0601 12:02:41.375910 13974 layer_factory.hpp:77] Creating layer conv7_2_relu
I0601 12:02:41.375918 13974 net.cpp:100] Creating Layer conv7_2_relu
I0601 12:02:41.375923 13974 net.cpp:434] conv7_2_relu <- conv7_2
I0601 12:02:41.375952 13974 net.cpp:395] conv7_2_relu -> conv7_2 (in-place)
I0601 12:02:41.376145 13974 net.cpp:150] Setting up conv7_2_relu
I0601 12:02:41.376174 13974 net.cpp:157] Top shape: 32 256 5 5 (204800)
I0601 12:02:41.376181 13974 net.cpp:165] Memory required for data: 7522648096
I0601 12:02:41.376185 13974 layer_factory.hpp:77] Creating layer conv7_2_conv7_2_relu_0_split
I0601 12:02:41.376193 13974 net.cpp:100] Creating Layer conv7_2_conv7_2_relu_0_split
I0601 12:02:41.376197 13974 net.cpp:434] conv7_2_conv7_2_relu_0_split <- conv7_2
I0601 12:02:41.376205 13974 net.cpp:408] conv7_2_conv7_2_relu_0_split -> conv7_2_conv7_2_relu_0_split_0
I0601 12:02:41.376216 13974 net.cpp:408] conv7_2_conv7_2_relu_0_split -> conv7_2_conv7_2_relu_0_split_1
I0601 12:02:41.376225 13974 net.cpp:408] conv7_2_conv7_2_relu_0_split -> conv7_2_conv7_2_relu_0_split_2
I0601 12:02:41.376246 13974 net.cpp:408] conv7_2_conv7_2_relu_0_split -> conv7_2_conv7_2_relu_0_split_3
I0601 12:02:41.376340 13974 net.cpp:150] Setting up conv7_2_conv7_2_relu_0_split
I0601 12:02:41.376361 13974 net.cpp:157] Top shape: 32 256 5 5 (204800)
I0601 12:02:41.376376 13974 net.cpp:157] Top shape: 32 256 5 5 (204800)
I0601 12:02:41.376390 13974 net.cpp:157] Top shape: 32 256 5 5 (204800)
I0601 12:02:41.376405 13974 net.cpp:157] Top shape: 32 256 5 5 (204800)
I0601 12:02:41.376416 13974 net.cpp:165] Memory required for data: 7525924896
I0601 12:02:41.376430 13974 layer_factory.hpp:77] Creating layer conv8_1
I0601 12:02:41.376454 13974 net.cpp:100] Creating Layer conv8_1
I0601 12:02:41.376469 13974 net.cpp:434] conv8_1 <- conv7_2_conv7_2_relu_0_split_0
I0601 12:02:41.376479 13974 net.cpp:408] conv8_1 -> conv8_1
I0601 12:02:41.378175 13974 net.cpp:150] Setting up conv8_1
I0601 12:02:41.378195 13974 net.cpp:157] Top shape: 32 128 5 5 (102400)
I0601 12:02:41.378198 13974 net.cpp:165] Memory required for data: 7526334496
I0601 12:02:41.378208 13974 layer_factory.hpp:77] Creating layer conv8_1_relu
I0601 12:02:41.378217 13974 net.cpp:100] Creating Layer conv8_1_relu
I0601 12:02:41.378222 13974 net.cpp:434] conv8_1_relu <- conv8_1
I0601 12:02:41.378229 13974 net.cpp:395] conv8_1_relu -> conv8_1 (in-place)
I0601 12:02:41.379067 13974 net.cpp:150] Setting up conv8_1_relu
I0601 12:02:41.379084 13974 net.cpp:157] Top shape: 32 128 5 5 (102400)
I0601 12:02:41.379089 13974 net.cpp:165] Memory required for data: 7526744096
I0601 12:02:41.379094 13974 layer_factory.hpp:77] Creating layer conv8_2
I0601 12:02:41.379110 13974 net.cpp:100] Creating Layer conv8_2
I0601 12:02:41.379118 13974 net.cpp:434] conv8_2 <- conv8_1
I0601 12:02:41.379128 13974 net.cpp:408] conv8_2 -> conv8_2
I0601 12:02:41.382902 13974 net.cpp:150] Setting up conv8_2
I0601 12:02:41.382922 13974 net.cpp:157] Top shape: 32 256 3 3 (73728)
I0601 12:02:41.382926 13974 net.cpp:165] Memory required for data: 7527039008
I0601 12:02:41.382936 13974 layer_factory.hpp:77] Creating layer conv8_2_relu
I0601 12:02:41.382946 13974 net.cpp:100] Creating Layer conv8_2_relu
I0601 12:02:41.382966 13974 net.cpp:434] conv8_2_relu <- conv8_2
I0601 12:02:41.382985 13974 net.cpp:395] conv8_2_relu -> conv8_2 (in-place)
I0601 12:02:41.383199 13974 net.cpp:150] Setting up conv8_2_relu
I0601 12:02:41.383219 13974 net.cpp:157] Top shape: 32 256 3 3 (73728)
I0601 12:02:41.383231 13974 net.cpp:165] Memory required for data: 7527333920
I0601 12:02:41.383242 13974 layer_factory.hpp:77] Creating layer conv8_2_conv8_2_relu_0_split
I0601 12:02:41.383258 13974 net.cpp:100] Creating Layer conv8_2_conv8_2_relu_0_split
I0601 12:02:41.383270 13974 net.cpp:434] conv8_2_conv8_2_relu_0_split <- conv8_2
I0601 12:02:41.383285 13974 net.cpp:408] conv8_2_conv8_2_relu_0_split -> conv8_2_conv8_2_relu_0_split_0
I0601 12:02:41.383303 13974 net.cpp:408] conv8_2_conv8_2_relu_0_split -> conv8_2_conv8_2_relu_0_split_1
I0601 12:02:41.383319 13974 net.cpp:408] conv8_2_conv8_2_relu_0_split -> conv8_2_conv8_2_relu_0_split_2
I0601 12:02:41.383335 13974 net.cpp:408] conv8_2_conv8_2_relu_0_split -> conv8_2_conv8_2_relu_0_split_3
I0601 12:02:41.383438 13974 net.cpp:150] Setting up conv8_2_conv8_2_relu_0_split
I0601 12:02:41.383455 13974 net.cpp:157] Top shape: 32 256 3 3 (73728)
I0601 12:02:41.383468 13974 net.cpp:157] Top shape: 32 256 3 3 (73728)
I0601 12:02:41.383481 13974 net.cpp:157] Top shape: 32 256 3 3 (73728)
I0601 12:02:41.383493 13974 net.cpp:157] Top shape: 32 256 3 3 (73728)
I0601 12:02:41.383504 13974 net.cpp:165] Memory required for data: 7528513568
I0601 12:02:41.383515 13974 layer_factory.hpp:77] Creating layer conv9_1
I0601 12:02:41.383538 13974 net.cpp:100] Creating Layer conv9_1
I0601 12:02:41.383550 13974 net.cpp:434] conv9_1 <- conv8_2_conv8_2_relu_0_split_0
I0601 12:02:41.383566 13974 net.cpp:408] conv9_1 -> conv9_1
I0601 12:02:41.385459 13974 net.cpp:150] Setting up conv9_1
I0601 12:02:41.385509 13974 net.cpp:157] Top shape: 32 128 3 3 (36864)
I0601 12:02:41.385524 13974 net.cpp:165] Memory required for data: 7528661024
I0601 12:02:41.385541 13974 layer_factory.hpp:77] Creating layer conv9_1_relu
I0601 12:02:41.385558 13974 net.cpp:100] Creating Layer conv9_1_relu
I0601 12:02:41.385571 13974 net.cpp:434] conv9_1_relu <- conv9_1
I0601 12:02:41.385587 13974 net.cpp:395] conv9_1_relu -> conv9_1 (in-place)
I0601 12:02:41.385795 13974 net.cpp:150] Setting up conv9_1_relu
I0601 12:02:41.385818 13974 net.cpp:157] Top shape: 32 128 3 3 (36864)
I0601 12:02:41.385829 13974 net.cpp:165] Memory required for data: 7528808480
I0601 12:02:41.385843 13974 layer_factory.hpp:77] Creating layer conv9_2
I0601 12:02:41.385862 13974 net.cpp:100] Creating Layer conv9_2
I0601 12:02:41.385876 13974 net.cpp:434] conv9_2 <- conv9_1
I0601 12:02:41.385895 13974 net.cpp:408] conv9_2 -> conv9_2
I0601 12:02:41.389828 13974 net.cpp:150] Setting up conv9_2
I0601 12:02:41.389853 13974 net.cpp:157] Top shape: 32 256 1 1 (8192)
I0601 12:02:41.389856 13974 net.cpp:165] Memory required for data: 7528841248
I0601 12:02:41.389868 13974 layer_factory.hpp:77] Creating layer conv9_2_relu
I0601 12:02:41.389878 13974 net.cpp:100] Creating Layer conv9_2_relu
I0601 12:02:41.389886 13974 net.cpp:434] conv9_2_relu <- conv9_2
I0601 12:02:41.389894 13974 net.cpp:395] conv9_2_relu -> conv9_2 (in-place)
I0601 12:02:41.390055 13974 net.cpp:150] Setting up conv9_2_relu
I0601 12:02:41.390065 13974 net.cpp:157] Top shape: 32 256 1 1 (8192)
I0601 12:02:41.390067 13974 net.cpp:165] Memory required for data: 7528874016
I0601 12:02:41.390070 13974 layer_factory.hpp:77] Creating layer conv9_2_conv9_2_relu_0_split
I0601 12:02:41.390079 13974 net.cpp:100] Creating Layer conv9_2_conv9_2_relu_0_split
I0601 12:02:41.390084 13974 net.cpp:434] conv9_2_conv9_2_relu_0_split <- conv9_2
I0601 12:02:41.390089 13974 net.cpp:408] conv9_2_conv9_2_relu_0_split -> conv9_2_conv9_2_relu_0_split_0
I0601 12:02:41.390100 13974 net.cpp:408] conv9_2_conv9_2_relu_0_split -> conv9_2_conv9_2_relu_0_split_1
I0601 12:02:41.390107 13974 net.cpp:408] conv9_2_conv9_2_relu_0_split -> conv9_2_conv9_2_relu_0_split_2
I0601 12:02:41.390166 13974 net.cpp:150] Setting up conv9_2_conv9_2_relu_0_split
I0601 12:02:41.390173 13974 net.cpp:157] Top shape: 32 256 1 1 (8192)
I0601 12:02:41.390177 13974 net.cpp:157] Top shape: 32 256 1 1 (8192)
I0601 12:02:41.390180 13974 net.cpp:157] Top shape: 32 256 1 1 (8192)
I0601 12:02:41.390184 13974 net.cpp:165] Memory required for data: 7528972320
I0601 12:02:41.390188 13974 layer_factory.hpp:77] Creating layer conv4_3_norm
I0601 12:02:41.390197 13974 net.cpp:100] Creating Layer conv4_3_norm
I0601 12:02:41.390202 13974 net.cpp:434] conv4_3_norm <- conv4_3_relu4_3_0_split_1
I0601 12:02:41.390209 13974 net.cpp:408] conv4_3_norm -> conv4_3_norm
I0601 12:02:41.390346 13974 net.cpp:150] Setting up conv4_3_norm
I0601 12:02:41.390352 13974 net.cpp:157] Top shape: 32 512 38 38 (23658496)
I0601 12:02:41.390357 13974 net.cpp:165] Memory required for data: 7623606304
I0601 12:02:41.390362 13974 layer_factory.hpp:77] Creating layer conv4_3_norm_conv4_3_norm_0_split
I0601 12:02:41.390368 13974 net.cpp:100] Creating Layer conv4_3_norm_conv4_3_norm_0_split
I0601 12:02:41.390372 13974 net.cpp:434] conv4_3_norm_conv4_3_norm_0_split <- conv4_3_norm
I0601 12:02:41.390393 13974 net.cpp:408] conv4_3_norm_conv4_3_norm_0_split -> conv4_3_norm_conv4_3_norm_0_split_0
I0601 12:02:41.390403 13974 net.cpp:408] conv4_3_norm_conv4_3_norm_0_split -> conv4_3_norm_conv4_3_norm_0_split_1
I0601 12:02:41.390411 13974 net.cpp:408] conv4_3_norm_conv4_3_norm_0_split -> conv4_3_norm_conv4_3_norm_0_split_2
I0601 12:02:41.390472 13974 net.cpp:150] Setting up conv4_3_norm_conv4_3_norm_0_split
I0601 12:02:41.390480 13974 net.cpp:157] Top shape: 32 512 38 38 (23658496)
I0601 12:02:41.390482 13974 net.cpp:157] Top shape: 32 512 38 38 (23658496)
I0601 12:02:41.390486 13974 net.cpp:157] Top shape: 32 512 38 38 (23658496)
I0601 12:02:41.390487 13974 net.cpp:165] Memory required for data: 7907508256
I0601 12:02:41.390491 13974 layer_factory.hpp:77] Creating layer conv4_3_norm_mbox_loc
I0601 12:02:41.390503 13974 net.cpp:100] Creating Layer conv4_3_norm_mbox_loc
I0601 12:02:41.390509 13974 net.cpp:434] conv4_3_norm_mbox_loc <- conv4_3_norm_conv4_3_norm_0_split_0
I0601 12:02:41.390516 13974 net.cpp:408] conv4_3_norm_mbox_loc -> conv4_3_norm_mbox_loc
I0601 12:02:41.392521 13974 net.cpp:150] Setting up conv4_3_norm_mbox_loc
I0601 12:02:41.392539 13974 net.cpp:157] Top shape: 32 16 38 38 (739328)
I0601 12:02:41.392544 13974 net.cpp:165] Memory required for data: 7910465568
I0601 12:02:41.392554 13974 layer_factory.hpp:77] Creating layer conv4_3_norm_mbox_loc_perm
I0601 12:02:41.392566 13974 net.cpp:100] Creating Layer conv4_3_norm_mbox_loc_perm
I0601 12:02:41.392573 13974 net.cpp:434] conv4_3_norm_mbox_loc_perm <- conv4_3_norm_mbox_loc
I0601 12:02:41.392581 13974 net.cpp:408] conv4_3_norm_mbox_loc_perm -> conv4_3_norm_mbox_loc_perm
I0601 12:02:41.392699 13974 net.cpp:150] Setting up conv4_3_norm_mbox_loc_perm
I0601 12:02:41.392707 13974 net.cpp:157] Top shape: 32 38 38 16 (739328)
I0601 12:02:41.392711 13974 net.cpp:165] Memory required for data: 7913422880
I0601 12:02:41.392714 13974 layer_factory.hpp:77] Creating layer conv4_3_norm_mbox_loc_flat
I0601 12:02:41.392722 13974 net.cpp:100] Creating Layer conv4_3_norm_mbox_loc_flat
I0601 12:02:41.392727 13974 net.cpp:434] conv4_3_norm_mbox_loc_flat <- conv4_3_norm_mbox_loc_perm
I0601 12:02:41.392735 13974 net.cpp:408] conv4_3_norm_mbox_loc_flat -> conv4_3_norm_mbox_loc_flat
I0601 12:02:41.392776 13974 net.cpp:150] Setting up conv4_3_norm_mbox_loc_flat
I0601 12:02:41.392783 13974 net.cpp:157] Top shape: 32 23104 (739328)
I0601 12:02:41.392787 13974 net.cpp:165] Memory required for data: 7916380192
I0601 12:02:41.392791 13974 layer_factory.hpp:77] Creating layer conv4_3_norm_mbox_conf
I0601 12:02:41.392812 13974 net.cpp:100] Creating Layer conv4_3_norm_mbox_conf
I0601 12:02:41.392832 13974 net.cpp:434] conv4_3_norm_mbox_conf <- conv4_3_norm_conv4_3_norm_0_split_1
I0601 12:02:41.392841 13974 net.cpp:408] conv4_3_norm_mbox_conf -> conv4_3_norm_mbox_conf
I0601 12:02:41.395495 13974 net.cpp:150] Setting up conv4_3_norm_mbox_conf
I0601 12:02:41.395515 13974 net.cpp:157] Top shape: 32 16 38 38 (739328)
I0601 12:02:41.395519 13974 net.cpp:165] Memory required for data: 7919337504
I0601 12:02:41.395531 13974 layer_factory.hpp:77] Creating layer conv4_3_norm_mbox_conf_perm
I0601 12:02:41.395545 13974 net.cpp:100] Creating Layer conv4_3_norm_mbox_conf_perm
I0601 12:02:41.395551 13974 net.cpp:434] conv4_3_norm_mbox_conf_perm <- conv4_3_norm_mbox_conf
I0601 12:02:41.395560 13974 net.cpp:408] conv4_3_norm_mbox_conf_perm -> conv4_3_norm_mbox_conf_perm
I0601 12:02:41.395679 13974 net.cpp:150] Setting up conv4_3_norm_mbox_conf_perm
I0601 12:02:41.395689 13974 net.cpp:157] Top shape: 32 38 38 16 (739328)
I0601 12:02:41.395691 13974 net.cpp:165] Memory required for data: 7922294816
I0601 12:02:41.395695 13974 layer_factory.hpp:77] Creating layer conv4_3_norm_mbox_conf_flat
I0601 12:02:41.395702 13974 net.cpp:100] Creating Layer conv4_3_norm_mbox_conf_flat
I0601 12:02:41.395707 13974 net.cpp:434] conv4_3_norm_mbox_conf_flat <- conv4_3_norm_mbox_conf_perm
I0601 12:02:41.395714 13974 net.cpp:408] conv4_3_norm_mbox_conf_flat -> conv4_3_norm_mbox_conf_flat
I0601 12:02:41.395773 13974 net.cpp:150] Setting up conv4_3_norm_mbox_conf_flat
I0601 12:02:41.395781 13974 net.cpp:157] Top shape: 32 23104 (739328)
I0601 12:02:41.395786 13974 net.cpp:165] Memory required for data: 7925252128
I0601 12:02:41.395789 13974 layer_factory.hpp:77] Creating layer conv4_3_norm_mbox_priorbox
I0601 12:02:41.395797 13974 net.cpp:100] Creating Layer conv4_3_norm_mbox_priorbox
I0601 12:02:41.395802 13974 net.cpp:434] conv4_3_norm_mbox_priorbox <- conv4_3_norm_conv4_3_norm_0_split_2
I0601 12:02:41.395808 13974 net.cpp:434] conv4_3_norm_mbox_priorbox <- data_data_0_split_1
I0601 12:02:41.395817 13974 net.cpp:408] conv4_3_norm_mbox_priorbox -> conv4_3_norm_mbox_priorbox
I0601 12:02:41.395851 13974 net.cpp:150] Setting up conv4_3_norm_mbox_priorbox
I0601 12:02:41.395859 13974 net.cpp:157] Top shape: 1 2 23104 (46208)
I0601 12:02:41.395864 13974 net.cpp:165] Memory required for data: 7925436960
I0601 12:02:41.395867 13974 layer_factory.hpp:77] Creating layer fc7_mbox_loc
I0601 12:02:41.395880 13974 net.cpp:100] Creating Layer fc7_mbox_loc
I0601 12:02:41.395896 13974 net.cpp:434] fc7_mbox_loc <- fc7_relu7_0_split_1
I0601 12:02:41.395906 13974 net.cpp:408] fc7_mbox_loc -> fc7_mbox_loc
I0601 12:02:41.398721 13974 net.cpp:150] Setting up fc7_mbox_loc
I0601 12:02:41.398741 13974 net.cpp:157] Top shape: 32 24 19 19 (277248)
I0601 12:02:41.398746 13974 net.cpp:165] Memory required for data: 7926545952
I0601 12:02:41.398756 13974 layer_factory.hpp:77] Creating layer fc7_mbox_loc_perm
I0601 12:02:41.398768 13974 net.cpp:100] Creating Layer fc7_mbox_loc_perm
I0601 12:02:41.398775 13974 net.cpp:434] fc7_mbox_loc_perm <- fc7_mbox_loc
I0601 12:02:41.398784 13974 net.cpp:408] fc7_mbox_loc_perm -> fc7_mbox_loc_perm
I0601 12:02:41.398905 13974 net.cpp:150] Setting up fc7_mbox_loc_perm
I0601 12:02:41.398913 13974 net.cpp:157] Top shape: 32 19 19 24 (277248)
I0601 12:02:41.398917 13974 net.cpp:165] Memory required for data: 7927654944
I0601 12:02:41.398921 13974 layer_factory.hpp:77] Creating layer fc7_mbox_loc_flat
I0601 12:02:41.398929 13974 net.cpp:100] Creating Layer fc7_mbox_loc_flat
I0601 12:02:41.398934 13974 net.cpp:434] fc7_mbox_loc_flat <- fc7_mbox_loc_perm
I0601 12:02:41.398941 13974 net.cpp:408] fc7_mbox_loc_flat -> fc7_mbox_loc_flat
I0601 12:02:41.398969 13974 net.cpp:150] Setting up fc7_mbox_loc_flat
I0601 12:02:41.398978 13974 net.cpp:157] Top shape: 32 8664 (277248)
I0601 12:02:41.398982 13974 net.cpp:165] Memory required for data: 7928763936
I0601 12:02:41.398984 13974 layer_factory.hpp:77] Creating layer fc7_mbox_conf
I0601 12:02:41.398998 13974 net.cpp:100] Creating Layer fc7_mbox_conf
I0601 12:02:41.399018 13974 net.cpp:434] fc7_mbox_conf <- fc7_relu7_0_split_2
I0601 12:02:41.399030 13974 net.cpp:408] fc7_mbox_conf -> fc7_mbox_conf
I0601 12:02:41.401971 13974 net.cpp:150] Setting up fc7_mbox_conf
I0601 12:02:41.401990 13974 net.cpp:157] Top shape: 32 24 19 19 (277248)
I0601 12:02:41.401995 13974 net.cpp:165] Memory required for data: 7929872928
I0601 12:02:41.402005 13974 layer_factory.hpp:77] Creating layer fc7_mbox_conf_perm
I0601 12:02:41.402017 13974 net.cpp:100] Creating Layer fc7_mbox_conf_perm
I0601 12:02:41.402024 13974 net.cpp:434] fc7_mbox_conf_perm <- fc7_mbox_conf
I0601 12:02:41.402034 13974 net.cpp:408] fc7_mbox_conf_perm -> fc7_mbox_conf_perm
I0601 12:02:41.402154 13974 net.cpp:150] Setting up fc7_mbox_conf_perm
I0601 12:02:41.402163 13974 net.cpp:157] Top shape: 32 19 19 24 (277248)
I0601 12:02:41.402168 13974 net.cpp:165] Memory required for data: 7930981920
I0601 12:02:41.402171 13974 layer_factory.hpp:77] Creating layer fc7_mbox_conf_flat
I0601 12:02:41.402179 13974 net.cpp:100] Creating Layer fc7_mbox_conf_flat
I0601 12:02:41.402184 13974 net.cpp:434] fc7_mbox_conf_flat <- fc7_mbox_conf_perm
I0601 12:02:41.402191 13974 net.cpp:408] fc7_mbox_conf_flat -> fc7_mbox_conf_flat
I0601 12:02:41.402223 13974 net.cpp:150] Setting up fc7_mbox_conf_flat
I0601 12:02:41.402230 13974 net.cpp:157] Top shape: 32 8664 (277248)
I0601 12:02:41.402235 13974 net.cpp:165] Memory required for data: 7932090912
I0601 12:02:41.402250 13974 layer_factory.hpp:77] Creating layer fc7_mbox_priorbox
I0601 12:02:41.402261 13974 net.cpp:100] Creating Layer fc7_mbox_priorbox
I0601 12:02:41.402279 13974 net.cpp:434] fc7_mbox_priorbox <- fc7_relu7_0_split_3
I0601 12:02:41.402287 13974 net.cpp:434] fc7_mbox_priorbox <- data_data_0_split_2
I0601 12:02:41.402294 13974 net.cpp:408] fc7_mbox_priorbox -> fc7_mbox_priorbox
I0601 12:02:41.402333 13974 net.cpp:150] Setting up fc7_mbox_priorbox
I0601 12:02:41.402340 13974 net.cpp:157] Top shape: 1 2 8664 (17328)
I0601 12:02:41.402344 13974 net.cpp:165] Memory required for data: 7932160224
I0601 12:02:41.402348 13974 layer_factory.hpp:77] Creating layer conv6_2_mbox_loc
I0601 12:02:41.402361 13974 net.cpp:100] Creating Layer conv6_2_mbox_loc
I0601 12:02:41.402375 13974 net.cpp:434] conv6_2_mbox_loc <- conv6_2_conv6_2_relu_0_split_1
I0601 12:02:41.402387 13974 net.cpp:408] conv6_2_mbox_loc -> conv6_2_mbox_loc
I0601 12:02:41.404873 13974 net.cpp:150] Setting up conv6_2_mbox_loc
I0601 12:02:41.404897 13974 net.cpp:157] Top shape: 32 24 10 10 (76800)
I0601 12:02:41.404901 13974 net.cpp:165] Memory required for data: 7932467424
I0601 12:02:41.404912 13974 layer_factory.hpp:77] Creating layer conv6_2_mbox_loc_perm
I0601 12:02:41.404927 13974 net.cpp:100] Creating Layer conv6_2_mbox_loc_perm
I0601 12:02:41.404933 13974 net.cpp:434] conv6_2_mbox_loc_perm <- conv6_2_mbox_loc
I0601 12:02:41.404942 13974 net.cpp:408] conv6_2_mbox_loc_perm -> conv6_2_mbox_loc_perm
I0601 12:02:41.405081 13974 net.cpp:150] Setting up conv6_2_mbox_loc_perm
I0601 12:02:41.405091 13974 net.cpp:157] Top shape: 32 10 10 24 (76800)
I0601 12:02:41.405094 13974 net.cpp:165] Memory required for data: 7932774624
I0601 12:02:41.405098 13974 layer_factory.hpp:77] Creating layer conv6_2_mbox_loc_flat
I0601 12:02:41.405104 13974 net.cpp:100] Creating Layer conv6_2_mbox_loc_flat
I0601 12:02:41.405122 13974 net.cpp:434] conv6_2_mbox_loc_flat <- conv6_2_mbox_loc_perm
I0601 12:02:41.405129 13974 net.cpp:408] conv6_2_mbox_loc_flat -> conv6_2_mbox_loc_flat
I0601 12:02:41.405159 13974 net.cpp:150] Setting up conv6_2_mbox_loc_flat
I0601 12:02:41.405167 13974 net.cpp:157] Top shape: 32 2400 (76800)
I0601 12:02:41.405170 13974 net.cpp:165] Memory required for data: 7933081824
I0601 12:02:41.405174 13974 layer_factory.hpp:77] Creating layer conv6_2_mbox_conf
I0601 12:02:41.405189 13974 net.cpp:100] Creating Layer conv6_2_mbox_conf
I0601 12:02:41.405206 13974 net.cpp:434] conv6_2_mbox_conf <- conv6_2_conv6_2_relu_0_split_2
I0601 12:02:41.405217 13974 net.cpp:408] conv6_2_mbox_conf -> conv6_2_mbox_conf
I0601 12:02:41.407562 13974 net.cpp:150] Setting up conv6_2_mbox_conf
I0601 12:02:41.407579 13974 net.cpp:157] Top shape: 32 24 10 10 (76800)
I0601 12:02:41.407582 13974 net.cpp:165] Memory required for data: 7933389024
I0601 12:02:41.407593 13974 layer_factory.hpp:77] Creating layer conv6_2_mbox_conf_perm
I0601 12:02:41.407605 13974 net.cpp:100] Creating Layer conv6_2_mbox_conf_perm
I0601 12:02:41.407613 13974 net.cpp:434] conv6_2_mbox_conf_perm <- conv6_2_mbox_conf
I0601 12:02:41.407620 13974 net.cpp:408] conv6_2_mbox_conf_perm -> conv6_2_mbox_conf_perm
I0601 12:02:41.407745 13974 net.cpp:150] Setting up conv6_2_mbox_conf_perm
I0601 12:02:41.407757 13974 net.cpp:157] Top shape: 32 10 10 24 (76800)
I0601 12:02:41.407760 13974 net.cpp:165] Memory required for data: 7933696224
I0601 12:02:41.407764 13974 layer_factory.hpp:77] Creating layer conv6_2_mbox_conf_flat
I0601 12:02:41.407770 13974 net.cpp:100] Creating Layer conv6_2_mbox_conf_flat
I0601 12:02:41.407778 13974 net.cpp:434] conv6_2_mbox_conf_flat <- conv6_2_mbox_conf_perm
I0601 12:02:41.407783 13974 net.cpp:408] conv6_2_mbox_conf_flat -> conv6_2_mbox_conf_flat
I0601 12:02:41.407811 13974 net.cpp:150] Setting up conv6_2_mbox_conf_flat
I0601 12:02:41.407819 13974 net.cpp:157] Top shape: 32 2400 (76800)
I0601 12:02:41.407822 13974 net.cpp:165] Memory required for data: 7934003424
I0601 12:02:41.407825 13974 layer_factory.hpp:77] Creating layer conv6_2_mbox_priorbox
I0601 12:02:41.407861 13974 net.cpp:100] Creating Layer conv6_2_mbox_priorbox
I0601 12:02:41.407867 13974 net.cpp:434] conv6_2_mbox_priorbox <- conv6_2_conv6_2_relu_0_split_3
I0601 12:02:41.407874 13974 net.cpp:434] conv6_2_mbox_priorbox <- data_data_0_split_3
I0601 12:02:41.407883 13974 net.cpp:408] conv6_2_mbox_priorbox -> conv6_2_mbox_priorbox
I0601 12:02:41.407920 13974 net.cpp:150] Setting up conv6_2_mbox_priorbox
I0601 12:02:41.407928 13974 net.cpp:157] Top shape: 1 2 2400 (4800)
I0601 12:02:41.407932 13974 net.cpp:165] Memory required for data: 7934022624
I0601 12:02:41.407935 13974 layer_factory.hpp:77] Creating layer conv7_2_mbox_loc
I0601 12:02:41.407948 13974 net.cpp:100] Creating Layer conv7_2_mbox_loc
I0601 12:02:41.407954 13974 net.cpp:434] conv7_2_mbox_loc <- conv7_2_conv7_2_relu_0_split_1
I0601 12:02:41.407963 13974 net.cpp:408] conv7_2_mbox_loc -> conv7_2_mbox_loc
I0601 12:02:41.409525 13974 net.cpp:150] Setting up conv7_2_mbox_loc
I0601 12:02:41.409574 13974 net.cpp:157] Top shape: 32 24 5 5 (19200)
I0601 12:02:41.409590 13974 net.cpp:165] Memory required for data: 7934099424
I0601 12:02:41.409610 13974 layer_factory.hpp:77] Creating layer conv7_2_mbox_loc_perm
I0601 12:02:41.409631 13974 net.cpp:100] Creating Layer conv7_2_mbox_loc_perm
I0601 12:02:41.409644 13974 net.cpp:434] conv7_2_mbox_loc_perm <- conv7_2_mbox_loc
I0601 12:02:41.409663 13974 net.cpp:408] conv7_2_mbox_loc_perm -> conv7_2_mbox_loc_perm
I0601 12:02:41.409843 13974 net.cpp:150] Setting up conv7_2_mbox_loc_perm
I0601 12:02:41.409865 13974 net.cpp:157] Top shape: 32 5 5 24 (19200)
I0601 12:02:41.409879 13974 net.cpp:165] Memory required for data: 7934176224
I0601 12:02:41.409893 13974 layer_factory.hpp:77] Creating layer conv7_2_mbox_loc_flat
I0601 12:02:41.409910 13974 net.cpp:100] Creating Layer conv7_2_mbox_loc_flat
I0601 12:02:41.409924 13974 net.cpp:434] conv7_2_mbox_loc_flat <- conv7_2_mbox_loc_perm
I0601 12:02:41.409935 13974 net.cpp:408] conv7_2_mbox_loc_flat -> conv7_2_mbox_loc_flat
I0601 12:02:41.409970 13974 net.cpp:150] Setting up conv7_2_mbox_loc_flat
I0601 12:02:41.409978 13974 net.cpp:157] Top shape: 32 600 (19200)
I0601 12:02:41.409981 13974 net.cpp:165] Memory required for data: 7934253024
I0601 12:02:41.409986 13974 layer_factory.hpp:77] Creating layer conv7_2_mbox_conf
I0601 12:02:41.409999 13974 net.cpp:100] Creating Layer conv7_2_mbox_conf
I0601 12:02:41.410004 13974 net.cpp:434] conv7_2_mbox_conf <- conv7_2_conv7_2_relu_0_split_2
I0601 12:02:41.410012 13974 net.cpp:408] conv7_2_mbox_conf -> conv7_2_mbox_conf
I0601 12:02:41.412035 13974 net.cpp:150] Setting up conv7_2_mbox_conf
I0601 12:02:41.412052 13974 net.cpp:157] Top shape: 32 24 5 5 (19200)
I0601 12:02:41.412055 13974 net.cpp:165] Memory required for data: 7934329824
I0601 12:02:41.412063 13974 layer_factory.hpp:77] Creating layer conv7_2_mbox_conf_perm
I0601 12:02:41.412075 13974 net.cpp:100] Creating Layer conv7_2_mbox_conf_perm
I0601 12:02:41.412081 13974 net.cpp:434] conv7_2_mbox_conf_perm <- conv7_2_mbox_conf
I0601 12:02:41.412089 13974 net.cpp:408] conv7_2_mbox_conf_perm -> conv7_2_mbox_conf_perm
I0601 12:02:41.412241 13974 net.cpp:150] Setting up conv7_2_mbox_conf_perm
I0601 12:02:41.412252 13974 net.cpp:157] Top shape: 32 5 5 24 (19200)
I0601 12:02:41.412256 13974 net.cpp:165] Memory required for data: 7934406624
I0601 12:02:41.412261 13974 layer_factory.hpp:77] Creating layer conv7_2_mbox_conf_flat
I0601 12:02:41.412267 13974 net.cpp:100] Creating Layer conv7_2_mbox_conf_flat
I0601 12:02:41.412271 13974 net.cpp:434] conv7_2_mbox_conf_flat <- conv7_2_mbox_conf_perm
I0601 12:02:41.412279 13974 net.cpp:408] conv7_2_mbox_conf_flat -> conv7_2_mbox_conf_flat
I0601 12:02:41.412312 13974 net.cpp:150] Setting up conv7_2_mbox_conf_flat
I0601 12:02:41.412335 13974 net.cpp:157] Top shape: 32 600 (19200)
I0601 12:02:41.412350 13974 net.cpp:165] Memory required for data: 7934483424
I0601 12:02:41.412364 13974 layer_factory.hpp:77] Creating layer conv7_2_mbox_priorbox
I0601 12:02:41.412381 13974 net.cpp:100] Creating Layer conv7_2_mbox_priorbox
I0601 12:02:41.412402 13974 net.cpp:434] conv7_2_mbox_priorbox <- conv7_2_conv7_2_relu_0_split_3
I0601 12:02:41.412426 13974 net.cpp:434] conv7_2_mbox_priorbox <- data_data_0_split_4
I0601 12:02:41.412446 13974 net.cpp:408] conv7_2_mbox_priorbox -> conv7_2_mbox_priorbox
I0601 12:02:41.412497 13974 net.cpp:150] Setting up conv7_2_mbox_priorbox
I0601 12:02:41.412516 13974 net.cpp:157] Top shape: 1 2 600 (1200)
I0601 12:02:41.412529 13974 net.cpp:165] Memory required for data: 7934488224
I0601 12:02:41.412544 13974 layer_factory.hpp:77] Creating layer conv8_2_mbox_loc
I0601 12:02:41.412567 13974 net.cpp:100] Creating Layer conv8_2_mbox_loc
I0601 12:02:41.412583 13974 net.cpp:434] conv8_2_mbox_loc <- conv8_2_conv8_2_relu_0_split_1
I0601 12:02:41.412602 13974 net.cpp:408] conv8_2_mbox_loc -> conv8_2_mbox_loc
I0601 12:02:41.414626 13974 net.cpp:150] Setting up conv8_2_mbox_loc
I0601 12:02:41.414645 13974 net.cpp:157] Top shape: 32 16 3 3 (4608)
I0601 12:02:41.414649 13974 net.cpp:165] Memory required for data: 7934506656
I0601 12:02:41.414670 13974 layer_factory.hpp:77] Creating layer conv8_2_mbox_loc_perm
I0601 12:02:41.414683 13974 net.cpp:100] Creating Layer conv8_2_mbox_loc_perm
I0601 12:02:41.414690 13974 net.cpp:434] conv8_2_mbox_loc_perm <- conv8_2_mbox_loc
I0601 12:02:41.414700 13974 net.cpp:408] conv8_2_mbox_loc_perm -> conv8_2_mbox_loc_perm
I0601 12:02:41.414831 13974 net.cpp:150] Setting up conv8_2_mbox_loc_perm
I0601 12:02:41.414840 13974 net.cpp:157] Top shape: 32 3 3 16 (4608)
I0601 12:02:41.414844 13974 net.cpp:165] Memory required for data: 7934525088
I0601 12:02:41.414847 13974 layer_factory.hpp:77] Creating layer conv8_2_mbox_loc_flat
I0601 12:02:41.414855 13974 net.cpp:100] Creating Layer conv8_2_mbox_loc_flat
I0601 12:02:41.414858 13974 net.cpp:434] conv8_2_mbox_loc_flat <- conv8_2_mbox_loc_perm
I0601 12:02:41.414867 13974 net.cpp:408] conv8_2_mbox_loc_flat -> conv8_2_mbox_loc_flat
I0601 12:02:41.414901 13974 net.cpp:150] Setting up conv8_2_mbox_loc_flat
I0601 12:02:41.414906 13974 net.cpp:157] Top shape: 32 144 (4608)
I0601 12:02:41.414911 13974 net.cpp:165] Memory required for data: 7934543520
I0601 12:02:41.414914 13974 layer_factory.hpp:77] Creating layer conv8_2_mbox_conf
I0601 12:02:41.414927 13974 net.cpp:100] Creating Layer conv8_2_mbox_conf
I0601 12:02:41.414932 13974 net.cpp:434] conv8_2_mbox_conf <- conv8_2_conv8_2_relu_0_split_2
I0601 12:02:41.414939 13974 net.cpp:408] conv8_2_mbox_conf -> conv8_2_mbox_conf
I0601 12:02:41.417012 13974 net.cpp:150] Setting up conv8_2_mbox_conf
I0601 12:02:41.417057 13974 net.cpp:157] Top shape: 32 16 3 3 (4608)
I0601 12:02:41.417069 13974 net.cpp:165] Memory required for data: 7934561952
I0601 12:02:41.417088 13974 layer_factory.hpp:77] Creating layer conv8_2_mbox_conf_perm
I0601 12:02:41.417106 13974 net.cpp:100] Creating Layer conv8_2_mbox_conf_perm
I0601 12:02:41.417120 13974 net.cpp:434] conv8_2_mbox_conf_perm <- conv8_2_mbox_conf
I0601 12:02:41.417135 13974 net.cpp:408] conv8_2_mbox_conf_perm -> conv8_2_mbox_conf_perm
I0601 12:02:41.417290 13974 net.cpp:150] Setting up conv8_2_mbox_conf_perm
I0601 12:02:41.417309 13974 net.cpp:157] Top shape: 32 3 3 16 (4608)
I0601 12:02:41.417320 13974 net.cpp:165] Memory required for data: 7934580384
I0601 12:02:41.417331 13974 layer_factory.hpp:77] Creating layer conv8_2_mbox_conf_flat
I0601 12:02:41.417346 13974 net.cpp:100] Creating Layer conv8_2_mbox_conf_flat
I0601 12:02:41.417357 13974 net.cpp:434] conv8_2_mbox_conf_flat <- conv8_2_mbox_conf_perm
I0601 12:02:41.417374 13974 net.cpp:408] conv8_2_mbox_conf_flat -> conv8_2_mbox_conf_flat
I0601 12:02:41.417417 13974 net.cpp:150] Setting up conv8_2_mbox_conf_flat
I0601 12:02:41.417431 13974 net.cpp:157] Top shape: 32 144 (4608)
I0601 12:02:41.417441 13974 net.cpp:165] Memory required for data: 7934598816
I0601 12:02:41.417451 13974 layer_factory.hpp:77] Creating layer conv8_2_mbox_priorbox
I0601 12:02:41.417465 13974 net.cpp:100] Creating Layer conv8_2_mbox_priorbox
I0601 12:02:41.417479 13974 net.cpp:434] conv8_2_mbox_priorbox <- conv8_2_conv8_2_relu_0_split_3
I0601 12:02:41.417498 13974 net.cpp:434] conv8_2_mbox_priorbox <- data_data_0_split_5
I0601 12:02:41.417524 13974 net.cpp:408] conv8_2_mbox_priorbox -> conv8_2_mbox_priorbox
I0601 12:02:41.417572 13974 net.cpp:150] Setting up conv8_2_mbox_priorbox
I0601 12:02:41.417587 13974 net.cpp:157] Top shape: 1 2 144 (288)
I0601 12:02:41.417599 13974 net.cpp:165] Memory required for data: 7934599968
I0601 12:02:41.417610 13974 layer_factory.hpp:77] Creating layer conv9_2_mbox_loc
I0601 12:02:41.417629 13974 net.cpp:100] Creating Layer conv9_2_mbox_loc
I0601 12:02:41.417642 13974 net.cpp:434] conv9_2_mbox_loc <- conv9_2_conv9_2_relu_0_split_0
I0601 12:02:41.417659 13974 net.cpp:408] conv9_2_mbox_loc -> conv9_2_mbox_loc
I0601 12:02:41.420384 13974 net.cpp:150] Setting up conv9_2_mbox_loc
I0601 12:02:41.420431 13974 net.cpp:157] Top shape: 32 16 1 1 (512)
I0601 12:02:41.420445 13974 net.cpp:165] Memory required for data: 7934602016
I0601 12:02:41.420465 13974 layer_factory.hpp:77] Creating layer conv9_2_mbox_loc_perm
I0601 12:02:41.420486 13974 net.cpp:100] Creating Layer conv9_2_mbox_loc_perm
I0601 12:02:41.420502 13974 net.cpp:434] conv9_2_mbox_loc_perm <- conv9_2_mbox_loc
I0601 12:02:41.420517 13974 net.cpp:408] conv9_2_mbox_loc_perm -> conv9_2_mbox_loc_perm
I0601 12:02:41.420677 13974 net.cpp:150] Setting up conv9_2_mbox_loc_perm
I0601 12:02:41.420698 13974 net.cpp:157] Top shape: 32 1 1 16 (512)
I0601 12:02:41.420709 13974 net.cpp:165] Memory required for data: 7934604064
I0601 12:02:41.420720 13974 layer_factory.hpp:77] Creating layer conv9_2_mbox_loc_flat
I0601 12:02:41.420737 13974 net.cpp:100] Creating Layer conv9_2_mbox_loc_flat
I0601 12:02:41.420750 13974 net.cpp:434] conv9_2_mbox_loc_flat <- conv9_2_mbox_loc_perm
I0601 12:02:41.420766 13974 net.cpp:408] conv9_2_mbox_loc_flat -> conv9_2_mbox_loc_flat
I0601 12:02:41.420811 13974 net.cpp:150] Setting up conv9_2_mbox_loc_flat
I0601 12:02:41.420830 13974 net.cpp:157] Top shape: 32 16 (512)
I0601 12:02:41.420841 13974 net.cpp:165] Memory required for data: 7934606112
I0601 12:02:41.420852 13974 layer_factory.hpp:77] Creating layer conv9_2_mbox_conf
I0601 12:02:41.420881 13974 net.cpp:100] Creating Layer conv9_2_mbox_conf
I0601 12:02:41.420897 13974 net.cpp:434] conv9_2_mbox_conf <- conv9_2_conv9_2_relu_0_split_1
I0601 12:02:41.420917 13974 net.cpp:408] conv9_2_mbox_conf -> conv9_2_mbox_conf
I0601 12:02:41.424469 13974 net.cpp:150] Setting up conv9_2_mbox_conf
I0601 12:02:41.424517 13974 net.cpp:157] Top shape: 32 16 1 1 (512)
I0601 12:02:41.424532 13974 net.cpp:165] Memory required for data: 7934608160
I0601 12:02:41.424552 13974 layer_factory.hpp:77] Creating layer conv9_2_mbox_conf_perm
I0601 12:02:41.424573 13974 net.cpp:100] Creating Layer conv9_2_mbox_conf_perm
I0601 12:02:41.424588 13974 net.cpp:434] conv9_2_mbox_conf_perm <- conv9_2_mbox_conf
I0601 12:02:41.424607 13974 net.cpp:408] conv9_2_mbox_conf_perm -> conv9_2_mbox_conf_perm
I0601 12:02:41.424787 13974 net.cpp:150] Setting up conv9_2_mbox_conf_perm
I0601 12:02:41.424808 13974 net.cpp:157] Top shape: 32 1 1 16 (512)
I0601 12:02:41.424820 13974 net.cpp:165] Memory required for data: 7934610208
I0601 12:02:41.424834 13974 layer_factory.hpp:77] Creating layer conv9_2_mbox_conf_flat
I0601 12:02:41.424854 13974 net.cpp:100] Creating Layer conv9_2_mbox_conf_flat
I0601 12:02:41.424883 13974 net.cpp:434] conv9_2_mbox_conf_flat <- conv9_2_mbox_conf_perm
I0601 12:02:41.424902 13974 net.cpp:408] conv9_2_mbox_conf_flat -> conv9_2_mbox_conf_flat
I0601 12:02:41.424950 13974 net.cpp:150] Setting up conv9_2_mbox_conf_flat
I0601 12:02:41.424968 13974 net.cpp:157] Top shape: 32 16 (512)
I0601 12:02:41.424979 13974 net.cpp:165] Memory required for data: 7934612256
I0601 12:02:41.424990 13974 layer_factory.hpp:77] Creating layer conv9_2_mbox_priorbox
I0601 12:02:41.425009 13974 net.cpp:100] Creating Layer conv9_2_mbox_priorbox
I0601 12:02:41.425022 13974 net.cpp:434] conv9_2_mbox_priorbox <- conv9_2_conv9_2_relu_0_split_2
I0601 12:02:41.425036 13974 net.cpp:434] conv9_2_mbox_priorbox <- data_data_0_split_6
I0601 12:02:41.425051 13974 net.cpp:408] conv9_2_mbox_priorbox -> conv9_2_mbox_priorbox
I0601 12:02:41.425119 13974 net.cpp:150] Setting up conv9_2_mbox_priorbox
I0601 12:02:41.425137 13974 net.cpp:157] Top shape: 1 2 16 (32)
I0601 12:02:41.425149 13974 net.cpp:165] Memory required for data: 7934612384
I0601 12:02:41.425161 13974 layer_factory.hpp:77] Creating layer mbox_loc
I0601 12:02:41.425181 13974 net.cpp:100] Creating Layer mbox_loc
I0601 12:02:41.425196 13974 net.cpp:434] mbox_loc <- conv4_3_norm_mbox_loc_flat
I0601 12:02:41.425211 13974 net.cpp:434] mbox_loc <- fc7_mbox_loc_flat
I0601 12:02:41.425226 13974 net.cpp:434] mbox_loc <- conv6_2_mbox_loc_flat
I0601 12:02:41.425242 13974 net.cpp:434] mbox_loc <- conv7_2_mbox_loc_flat
I0601 12:02:41.425257 13974 net.cpp:434] mbox_loc <- conv8_2_mbox_loc_flat
I0601 12:02:41.425271 13974 net.cpp:434] mbox_loc <- conv9_2_mbox_loc_flat
I0601 12:02:41.425287 13974 net.cpp:408] mbox_loc -> mbox_loc
I0601 12:02:41.425340 13974 net.cpp:150] Setting up mbox_loc
I0601 12:02:41.425359 13974 net.cpp:157] Top shape: 32 34928 (1117696)
I0601 12:02:41.425369 13974 net.cpp:165] Memory required for data: 7939083168
I0601 12:02:41.425379 13974 layer_factory.hpp:77] Creating layer mbox_conf
I0601 12:02:41.425393 13974 net.cpp:100] Creating Layer mbox_conf
I0601 12:02:41.425406 13974 net.cpp:434] mbox_conf <- conv4_3_norm_mbox_conf_flat
I0601 12:02:41.425418 13974 net.cpp:434] mbox_conf <- fc7_mbox_conf_flat
I0601 12:02:41.425431 13974 net.cpp:434] mbox_conf <- conv6_2_mbox_conf_flat
I0601 12:02:41.425443 13974 net.cpp:434] mbox_conf <- conv7_2_mbox_conf_flat
I0601 12:02:41.425456 13974 net.cpp:434] mbox_conf <- conv8_2_mbox_conf_flat
I0601 12:02:41.425467 13974 net.cpp:434] mbox_conf <- conv9_2_mbox_conf_flat
I0601 12:02:41.425482 13974 net.cpp:408] mbox_conf -> mbox_conf
I0601 12:02:41.425532 13974 net.cpp:150] Setting up mbox_conf
I0601 12:02:41.425550 13974 net.cpp:157] Top shape: 32 34928 (1117696)
I0601 12:02:41.425564 13974 net.cpp:165] Memory required for data: 7943553952
I0601 12:02:41.425576 13974 layer_factory.hpp:77] Creating layer mbox_priorbox
I0601 12:02:41.425592 13974 net.cpp:100] Creating Layer mbox_priorbox
I0601 12:02:41.425606 13974 net.cpp:434] mbox_priorbox <- conv4_3_norm_mbox_priorbox
I0601 12:02:41.425621 13974 net.cpp:434] mbox_priorbox <- fc7_mbox_priorbox
I0601 12:02:41.425634 13974 net.cpp:434] mbox_priorbox <- conv6_2_mbox_priorbox
I0601 12:02:41.425648 13974 net.cpp:434] mbox_priorbox <- conv7_2_mbox_priorbox
I0601 12:02:41.425662 13974 net.cpp:434] mbox_priorbox <- conv8_2_mbox_priorbox
I0601 12:02:41.425676 13974 net.cpp:434] mbox_priorbox <- conv9_2_mbox_priorbox
I0601 12:02:41.425691 13974 net.cpp:408] mbox_priorbox -> mbox_priorbox
I0601 12:02:41.425736 13974 net.cpp:150] Setting up mbox_priorbox
I0601 12:02:41.425755 13974 net.cpp:157] Top shape: 1 2 34928 (69856)
I0601 12:02:41.425767 13974 net.cpp:165] Memory required for data: 7943833376
I0601 12:02:41.425781 13974 layer_factory.hpp:77] Creating layer mbox_loss
I0601 12:02:41.425802 13974 net.cpp:100] Creating Layer mbox_loss
I0601 12:02:41.425817 13974 net.cpp:434] mbox_loss <- mbox_loc
I0601 12:02:41.425830 13974 net.cpp:434] mbox_loss <- mbox_conf
I0601 12:02:41.425844 13974 net.cpp:434] mbox_loss <- mbox_priorbox
…
  name: "data"
  type: "AnnotatedData"
  top: "data"
  top: "label"
  include {
    phase: TEST
  }
  transform_param {
    mean_value: 104
    mean_value: 117
    mean_value: 123
    resize_param {
      prob: 1
      resize_mode: WARP
      height: 300
      width: 300
      interp_mode: LINEAR
    }
  }
  data_param {
    source: "examples/tbs_300x300_HSIL_10x/tbs_300x300_HSIL_10x_test_lmdb"
    batch_size: 4
    backend: LMDB
  }
  annotated_data_param {
    batch_sampler {
    }
    label_map_file: "data/tbs_300x300_HSIL_10x/labelmap_tbs.prototxt"
  }
}
layer {
  name: "conv1_1"
  type: "Convolution"
  bottom: "data"
  top: "conv1_1"
  param {
    lr_mult: 1
    decay_mult: 1
  }
  param {
    lr_mult: 2
    decay_mult: 0
  }
  convolution_param {
    num_output: 64
    pad: 1
    kernel_size: 3
    weight_filler {
      type: "xavier"
    }
    bias_filler {
      type: "constant"
      value: 0
    }
  }
}
layer {
  name: "relu1_1"
  type: "ReLU"
  bottom: "conv1_1"
  top: "conv1_1"
}
layer {
  name: "conv1_2"
  type: "Convolution"
  bottom: "conv1_1"
  top: "conv1_2"
  param {
    lr_mult: 1
    decay_mult: 1
  }
  param {
    lr_mult: 2
    decay_mult: 0
  }
  convolution_param {
    num_output: 64
    pad: 1
    kernel_size: 3
    weight_filler {
      type: "xavier"
    }
    bias_filler {
      type: "constant"
      value: 0
    }
  }
}
layer {
  name: "relu1_2"
  type: "ReLU"
  bottom: "conv1_2"
  top: "conv1_2"
}
layer {
  name: "pool1"
  type: "Pooling"
  bottom: "conv1_2"
  top: "pool1"
  pooling_param {
    pool: MAX
    kernel_size: 2
    stride: 2
  }
}
layer {
  name: "conv2_1"
  type: "Convolution"
  bottom: "pool1"
  top: "conv2_1"
  param {
    lr_mult: 1
    decay_mult: 1
  }
  param {
    lr_mult: 2
    decay_mult: 0
  }
  convolution_param {
    num_output: 128
    pad: 1
    kernel_size: 3
    weight_filler {
      type: "xavier"
    }
    bias_filler {
      type: "constant"
      value: 0
    }
  }
}
layer {
  name: "relu2_1"
  type: "ReLU"
  bottom: "conv2_1"
  top: "conv2_1"
}
layer {
  name: "conv2_2"
  type: "Convolution"
  bottom: "conv2_1"
  top: "conv2_2"
  param {
    lr_mult: 1
    decay_mult: 1
  }
  param {
    lr_mult: 2
    decay_mult: 0
  }
  convolution_param {
    num_output: 128
    pad: 1
    kernel_size: 3
    weight_filler {
      type: "xavier"
    }
    bias_filler {
      type: "constant"
      value: 0
    }
  }
}
layer {
  name: "relu2_2"
  type: "ReLU"
  bottom: "conv2_2"
  top: "conv2_2"
}
layer {
  name: "pool2"
  type: "Pooling"
  bottom: "conv2_2"
  top: "pool2"
  pooling_param {
    pool: MAX
    kernel_size: 2
    stride: 2
  }
}
layer {
  name: "conv3_1"
  type: "Convolution"
  bottom: "pool2"
  top: "conv3_1"
  param {
    lr_mult: 1
    decay_mult: 1
  }
  param {
    lr_mult: 2
    decay_mult: 0
  }
  convolution_param {
    num_output: 256
    pad: 1
    kernel_size: 3
    weight_filler {
      type: "xavier"
    }
    bias_filler {
      type: "constant"
      value: 0
    }
  }
}
layer {
  name: "relu3_1"
  type: "ReLU"
  bottom: "conv3_1"
  top: "conv3_1"
}
layer {
  name: "conv3_2"
  type: "Convolution"
  bottom: "conv3_1"
  top: "conv3_2"
  param {
    lr_mult: 1
    decay_mult: 1
  }
  param {
    lr_mult: 2
    decay_mult: 0
  }
  convolution_param {
    num_output: 256
    pad: 1
    kernel_size: 3
    weight_filler {
      type: "xavier"
    }
    bias_filler {
      type: "constant"
      value: 0
    }
  }
}
layer {
  name: "relu3_2"
  type: "ReLU"
  bottom: "conv3_2"
  top: "conv3_2"
}
layer {
  name: "conv3_3"
  type: "Convolution"
  bottom: "conv3_2"
  top: "conv3_3"
  param {
    lr_mult: 1
    decay_mult: 1
  }
  param {
    lr_mult: 2
    decay_mult: 0
  }
  convolution_param {
    num_output: 256
    pad: 1
    kernel_size: 3
    weight_filler {
      type: "xavier"
    }
    bias_filler {
      type: "constant"
      value: 0
    }
  }
}
layer {
  name: "relu3_3"
  type: "ReLU"
  bottom: "conv3_3"
  top: "conv3_3"
}
layer {
  name: "pool3"
  type: "Pooling"
  bottom: "conv3_3"
  top: "pool3"
  pooling_param {
    pool: MAX
    kernel_size: 2
    stride: 2
  }
}
layer {
  name: "conv4_1"
  type: "Convolution"
  bottom: "pool3"
  top: "conv4_1"
  param {
    lr_mult: 1
    decay_mult: 1
  }
  param {
    lr_mult: 2
    decay_mult: 0
  }
  convolution_param {
    num_output: 512
    pad: 1
    kernel_size: 3
    weight_filler {
      type: "xavier"
    }
    bias_filler {
      type: "constant"
      value: 0
    }
  }
}
layer {
  name: "relu4_1"
  type: "ReLU"
  bottom: "conv4_1"
  top: "conv4_1"
}
layer {
  name: "conv4_2"
  type: "Convolution"
  bottom: "conv4_1"
  top: "conv4_2"
  param {
    lr_mult: 1
    decay_mult: 1
  }
  param {
    lr_mult: 2
    decay_mult: 0
  }
  convolution_param {
    num_output: 512
    pad: 1
    kernel_size: 3
    weight_filler {
      type: "xavier"
    }
    bias_filler {
      type: "constant"
      value: 0
    }
  }
}
layer {
  name: "relu4_2"
  type: "ReLU"
  bottom: "conv4_2"
  top: "conv4_2"
}
layer {
  name: "conv4_3"
  type: "Convolution"
  bottom: "conv4_2"
  top: "conv4_3"
  param {
    lr_mult: 1
    decay_mult: 1
  }
  param {
    lr_mult: 2
    decay_mult: 0
  }
  convolution_param {
    num_output: 512
    pad: 1
    kernel_size: 3
    weight_filler {
      type: "xavier"
    }
    bias_filler {
      type: "constant"
      value: 0
    }
  }
}
layer {
  name: "relu4_3"
  type: "ReLU"
  bottom: "conv4_3"
  top: "conv4_3"
}
layer {
  name: "pool4"
  type: "Pooling"
  bottom: "conv4_3"
  top: "pool4"
  pooling_param {
    pool: MAX
    kernel_size: 2
    stride: 2
  }
}
layer {
  name: "conv5_1"
  type: "Convolution"
  bottom: "pool4"
  top: "conv5_1"
  param {
    lr_mult: 1
    decay_mult: 1
  }
  param {
    lr_mult: 2
    decay_mult: 0
  }
  convolution_param {
    num_output: 512
    pad: 1
    kernel_size: 3
    weight_filler {
      type: "xavier"
    }
    bias_filler {
      type: "constant"
      value: 0
    }
    dilation: 1
  }
}
layer {
  name: "relu5_1"
  type: "ReLU"
  bottom: "conv5_1"
  top: "conv5_1"
}
layer {
  name: "conv5_2"
  type: "Convolution"
  bottom: "conv5_1"
  top: "conv5_2"
  param {
    lr_mult: 1
    decay_mult: 1
  }
  param {
    lr_mult: 2
    decay_mult: 0
  }
  convolution_param {
    num_output: 512
    pad: 1
    kernel_size: 3
    weight_filler {
      type: "xavier"
    }
    bias_filler {
      type: "constant"
      value: 0
    }
    dilation: 1
  }
}
layer {
  name: "relu5_2"
  type: "ReLU"
  bottom: "conv5_2"
  top: "conv5_2"
}
layer {
  name: "conv5_3"
  type: "Convolution"
  bottom: "conv5_2"
  top: "conv5_3"
  param {
    lr_mult: 1
    decay_mult: 1
  }
  param {
    lr_mult: 2
    decay_mult: 0
  }
  convolution_param {
    num_output: 512
    pad: 1
    kernel_size: 3
    weight_filler {
      type: "xavier"
    }
    bias_filler {
      type: "constant"
      value: 0
    }
    dilation: 1
  }
}
layer {
  name: "relu5_3"
  type: "ReLU"
  bottom: "conv5_3"
  top: "conv5_3"
}
layer {
  name: "pool5"
  type: "Pooling"
  bottom: "conv5_3"
  top: "pool5"
  pooling_param {
    pool: MAX
    kernel_size: 3
    stride: 1
    pad: 1
  }
}
layer {
  name: "fc6"
  type: "Convolution"
  bottom: "pool5"
  top: "fc6"
  param {
    lr_mult: 1
    decay_mult: 1
  }
  param {
    lr_mult: 2
    decay_mult: 0
  }
  convolution_param {
    num_output: 1024
    pad: 6
    kernel_size: 3
    weight_filler {
      type: "xavier"
    }
    bias_filler {
      type: "constant"
      value: 0
    }
    dilation: 6
  }
}
layer {
  name: "relu6"
  type: "ReLU"
  bottom: "fc6"
  top: "fc6"
}
layer {
  name: "fc7"
  type: "Convolution"
  bottom: "fc6"
  top: "fc7"
  param {
    lr_mult: 1
    decay_mult: 1
  }
  param {
    lr_mult: 2
    decay_mult: 0
  }
  convolution_param {
    num_output: 1024
    kernel_size: 1
    weight_filler {
      type: "xavier"
    }
    bias_filler {
      type: "constant"
      value: 0
    }
  }
}
layer {
  name: "relu7"
  type: "ReLU"
  bottom: "fc7"
  top: "fc7"
}
layer {
  name: "conv6_1"
  type: "Convolution"
  bottom: "fc7"
  top: "conv6_1"
  param {
    lr_mult: 1
    decay_mult: 1
  }
  param {
    lr_mult: 2
    decay_mult: 0
  }
  convolution_param {
    num_output: 256
    pad: 0
    kernel_size: 1
    stride: 1
    weight_filler {
      type: "xavier"
    }
    bias_filler {
      type: "constant"
      value: 0
    }
  }
}
layer {
  name: "conv6_1_relu"
  type: "ReLU"
  bottom: "conv6_1"
  top: "conv6_1"
}
layer {
  name: "conv6_2"
  type: "Convolution"
  bottom: "conv6_1"
  top: "conv6_2"
  param {
    lr_mult: 1
    decay_mult: 1
  }
  param {
    lr_mult: 2
    decay_mult: 0
  }
  convolution_param {
    num_output: 512
    pad: 1
    kernel_size: 3
    stride: 2
    weight_filler {
      type: "xavier"
    }
    bias_filler {
      type: "constant"
      value: 0
    }
  }
}
layer {
  name: "conv6_2_relu"
  type: "ReLU"
  bottom: "conv6_2"
  top: "conv6_2"
}
layer {
  name: "conv7_1"
  type: "Convolution"
  bottom: "conv6_2"
  top: "conv7_1"
  param {
    lr_mult: 1
    decay_mult: 1
  }
  param {
    lr_mult: 2
    decay_mult: 0
  }
  convolution_param {
    num_output: 128
    pad: 0
    kernel_size: 1
    stride: 1
    weight_filler {
      type: "xavier"
    }
    bias_filler {
      type: "constant"
      value: 0
    }
  }
}
layer {
  name: "conv7_1_relu"
  type: "ReLU"
  bottom: "conv7_1"
  top: "conv7_1"
}
layer {
  name: "conv7_2"
  type: "Convolution"
  bottom: "conv7_1"
  top: "conv7_2"
  param {
    lr_mult: 1
    decay_mult: 1
  }
  param {
    lr_mult: 2
    decay_mult: 0
  }
  convolution_param {
    num_output: 256
    pad: 1
    kernel_size: 3
    stride: 2
    weight_filler {
      type: "xavier"
    }
    bias_filler {
      type: "constant"
      value: 0
    }
  }
}
layer {
  name: "conv7_2_relu"
  type: "ReLU"
  bottom: "conv7_2"
  top: "conv7_2"
}
layer {
  name: "conv8_1"
  type: "Convolution"
  bottom: "conv7_2"
  top: "conv8_1"
  param {
    lr_mult: 1
    decay_mult: 1
  }
  param {
    lr_mult: 2
    decay_mult: 0
  }
  convolution_param {
    num_output: 128
    pad: 0
    kernel_size: 1
    stride: 1
    weight_filler {
      type: "xavier"
    }
    bias_filler {
      type: "constant"
      value: 0
    }
  }
}
layer {
  name: "conv8_1_relu"
  type: "ReLU"
  bottom: "conv8_1"
  top: "conv8_1"
}
layer {
  name: "conv8_2"
  type: "Convolution"
  bottom: "conv8_1"
  top: "conv8_2"
  param {
    lr_mult: 1
    decay_mult: 1
  }
  param {
    lr_mult: 2
    decay_mult: 0
  }
  convolution_param {
    num_output: 256
    pad: 0
    kernel_size: 3
    stride: 1
    weight_filler {
      type: "xavier"
    }
    bias_filler {
      type: "constant"
      value: 0
    }
  }
}
layer {
  name: "conv8_2_relu"
  type: "ReLU"
  bottom: "conv8_2"
  top: "conv8_2"
}
layer {
  name: "conv9_1"
  type: "Convolution"
  bottom: "conv8_2"
  top: "conv9_1"
  param {
    lr_mult: 1
    decay_mult: 1
  }
  param {
    lr_mult: 2
    decay_mult: 0
  }
  convolution_param {
    num_output: 128
    pad: 0
    kernel_size: 1
    stride: 1
    weight_filler {
      type: "xavier"
    }
    bias_filler {
      type: "constant"
      value: 0
    }
  }
}
layer {
  name: "conv9_1_relu"
  type: "ReLU"
  bottom: "conv9_1"
  top: "conv9_1"
}
layer {
  name: "conv9_2"
  type: "Convolution"
  bottom: "conv9_1"
  top: "conv9_2"
  param {
    lr_mult: 1
    decay_mult: 1
  }
  param {
    lr_mult: 2
    decay_mult: 0
  }
  convolution_param {
    num_output: 256
    pad: 0
    kernel_size: 3
    stride: 1
    weight_filler {
      type: "xavier"
    }
    bias_filler {
      type: "constant"
      value: 0
    }
  }
}
layer {
  name: "conv9_2_relu"
  type: "ReLU"
  bottom: "conv9_2"
  top: "conv9_2"
}
layer {
  name: "conv4_3_norm"
  type: "Normalize"
  bottom: "conv4_3"
  top: "conv4_3_norm"
  norm_param {
    across_spatial: false
    scale_filler {
      type: "constant"
      value: 20
    }
    channel_shared: false
  }
}
layer {
  name: "conv4_3_norm_mbox_loc"
  type: "Convolution"
  bottom: "conv4_3_norm"
  top: "conv4_3_norm_mbox_loc"
  param {
    lr_mult: 1
    decay_mult: 1
  }
  param {
    lr_mult: 2
    decay_mult: 0
  }
  convolution_param {
    num_output: 16
    pad: 1
    kernel_size: 3
    stride: 1
    weight_filler {
      type: "xavier"
    }
    bias_filler {
      type: "constant"
      value: 0
    }
  }
}
layer {
  name: "conv4_3_norm_mbox_loc_perm"
  type: "Permute"
  bottom: "conv4_3_norm_mbox_loc"
  top: "conv4_3_norm_mbox_loc_perm"
  permute_param {
    order: 0
    order: 2
    order: 3
    order: 1
  }
}
layer {
  name: "conv4_3_norm_mbox_loc_flat"
  type: "Flatten"
  bottom: "conv4_3_norm_mbox_loc_perm"
  top: "conv4_3_norm_mbox_loc_flat"
  flatten_param {
    axis: 1
  }
}
layer {
  name: "conv4_3_norm_mbox_conf"
  type: "Convolution"
  bottom: "conv4_3_norm"
  top: "conv4_3_norm_mbox_conf"
  param {
    lr_mult: 1
    decay_mult: 1
  }
  param {
    lr_mult: 2
    decay_mult: 0
  }
  convolution_param {
    num_output: 16
    pad: 1
    kernel_size: 3
    stride: 1
    weight_filler {
      type: "xavier"
    }
    bias_filler {
      type: "constant"
      value: 0
    }
  }
}
layer {
  name: "conv4_3_norm_mbox_conf_perm"
  type: "Permute"
  bottom: "conv4_3_norm_mbox_conf"
  top: "conv4_3_norm_mbox_conf_perm"
  permute_param {
    order: 0
    order: 2
    order: 3
    order: 1
  }
}
layer {
  name: "conv4_3_norm_mbox_conf_flat"
  type: "Flatten"
  bottom: "conv4_3_norm_mbox_conf_perm"
  top: "conv4_3_norm_mbox_conf_flat"
  flatten_param {
    axis: 1
  }
}
layer {
  name: "conv4_3_norm_mbox_priorbox"
  type: "PriorBox"
  bottom: "conv4_3_norm"
  bottom: "data"
  top: "conv4_3_norm_mbox_priorbox"
  prior_box_param {
    min_size: 30
    max_size: 60
    aspect_ratio: 2
    flip: true
    clip: false
    variance: 0.1
    variance: 0.1
    variance: 0.2
    variance: 0.2
    step: 8
    offset: 0.5
  }
}
layer {
  name: "fc7_mbox_loc"
  type: "Convolution"
  bottom: "fc7"
  top: "fc7_mbox_loc"
  param {
    lr_mult: 1
    decay_mult: 1
  }
  param {
    lr_mult: 2
    decay_mult: 0
  }
  convolution_param {
    num_output: 24
    pad: 1
    kernel_size: 3
    stride: 1
    weight_filler {
      type: "xavier"
    }
    bias_filler {
      type: "constant"
      value: 0
    }
  }
}
layer {
  name: "fc7_mbox_loc_perm"
  type: "Permute"
  bottom: "fc7_mbox_loc"
  top: "fc7_mbox_loc_perm"
  permute_param {
    order: 0
    order: 2
    order: 3
    order: 1
  }
}
layer {
  name: "fc7_mbox_loc_flat"
  type: "Flatten"
  bottom: "fc7_mbox_loc_perm"
  top: "fc7_mbox_loc_flat"
  flatten_param {
    axis: 1
  }
}
layer {
  name: "fc7_mbox_conf"
  type: "Convolution"
  bottom: "fc7"
  top: "fc7_mbox_conf"
  param {
    lr_mult: 1
    decay_mult: 1
  }
  param {
    lr_mult: 2
    decay_mult: 0
  }
  convolution_param {
    num_output: 24
    pad: 1
    kernel_size: 3
    stride: 1
    weight_filler {
      type: "xavier"
    }
    bias_filler {
      type: "constant"
      value: 0
    }
  }
}
layer {
  name: "fc7_mbox_conf_perm"
  type: "Permute"
  bottom: "fc7_mbox_conf"
  top: "fc7_mbox_conf_perm"
  permute_param {
    order: 0
    order: 2
    order: 3
    order: 1
  }
}
layer {
  name: "fc7_mbox_conf_flat"
  type: "Flatten"
  bottom: "fc7_mbox_conf_perm"
  top: "fc7_mbox_conf_flat"
  flatten_param {
    axis: 1
  }
}
layer {
  name: "fc7_mbox_priorbox"
  type: "PriorBox"
  bottom: "fc7"
  bottom: "data"
  top: "fc7_mbox_priorbox"
  prior_box_param {
    min_size: 60
    max_size: 111
    aspect_ratio: 2
    aspect_ratio: 3
    flip: true
    clip: false
    variance: 0.1
    variance: 0.1
    variance: 0.2
    variance: 0.2
    step: 16
    offset: 0.5
  }
}
layer {
  name: "conv6_2_mbox_loc"
  type: "Convolution"
  bottom: "conv6_2"
  top: "conv6_2_mbox_loc"
  param {
    lr_mult: 1
    decay_mult: 1
  }
  param {
    lr_mult: 2
    decay_mult: 0
  }
  convolution_param {
    num_output: 24
    pad: 1
    kernel_size: 3
    stride: 1
    weight_filler {
      type: "xavier"
    }
    bias_filler {
      type: "constant"
      value: 0
    }
  }
}
layer {
  name: "conv6_2_mbox_loc_perm"
  type: "Permute"
  bottom: "conv6_2_mbox_loc"
  top: "conv6_2_mbox_loc_perm"
  permute_param {
    order: 0
    order: 2
    order: 3
    order: 1
  }
}
layer {
  name: "conv6_2_mbox_loc_flat"
  type: "Flatten"
  bottom: "conv6_2_mbox_loc_perm"
  top: "conv6_2_mbox_loc_flat"
  flatten_param {
    axis: 1
  }
}
layer {
  name: "conv6_2_mbox_conf"
  type: "Convolution"
  bottom: "conv6_2"
  top: "conv6_2_mbox_conf"
  param {
    lr_mult: 1
    decay_mult: 1
  }
  param {
    lr_mult: 2
    decay_mult: 0
  }
  convolution_param {
    num_output: 24
    pad: 1
    kernel_size: 3
    stride: 1
    weight_filler {
      type: "xavier"
    }
    bias_filler {
      type: "constant"
      value: 0
    }
  }
}
layer {
  name: "conv6_2_mbox_conf_perm"
  type: "Permute"
  bottom: "conv6_2_mbox_conf"
  top: "conv6_2_mbox_conf_perm"
  permute_param {
    order: 0
    order: 2
    order: 3
    order: 1
  }
}
layer {
  name: "conv6_2_mbox_conf_flat"
  type: "Flatten"
  bottom: "conv6_2_mbox_conf_perm"
  top: "conv6_2_mbox_conf_flat"
  flatten_param {
    axis: 1
  }
}
layer {
  name: "conv6_2_mbox_priorbox"
  type: "PriorBox"
  bottom: "conv6_2"
  bottom: "data"
  top: "conv6_2_mbox_priorbox"
  prior_box_param {
    min_size: 111
    max_size: 162
    aspect_ratio: 2
    aspect_ratio: 3
    flip: true
    clip: false
    variance: 0.1
    variance: 0.1
    variance: 0.2
    variance: 0.2
    step: 32
    offset: 0.5
  }
}
layer {
  name: "conv7_2_mbox_loc"
  type: "Convolution"
  bottom: "conv7_2"
  top: "conv7_2_mbox_loc"
  param {
    lr_mult: 1
    decay_mult: 1
  }
  param {
    lr_mult: 2
    decay_mult: 0
  }
  convolution_param {
    num_output: 24
    pad: 1
    kernel_size: 3
    stride: 1
    weight_filler {
      type: "xavier"
    }
    bias_filler {
      type: "constant"
      value: 0
    }
  }
}
layer {
  name: "conv7_2_mbox_loc_perm"
  type: "Permute"
  bottom: "conv7_2_mbox_loc"
  top: "conv7_2_mbox_loc_perm"
  permute_param {
    order: 0
    order: 2
    order: 3
    order: 1
  }
}
layer {
  name: "conv7_2_mbox_loc_flat"
  type: "Flatten"
  bottom: "conv7_2_mbox_loc_perm"
  top: "conv7_2_mbox_loc_flat"
  flatten_param {
    axis: 1
  }
}
layer {
  name: "conv7_2_mbox_conf"
  type: "Convolution"
  bottom: "conv7_2"
  top: "conv7_2_mbox_conf"
  param {
    lr_mult: 1
    decay_mult: 1
  }
  param {
    lr_mult: 2
    decay_mult: 0
  }
  convolution_param {
    num_output: 24
    pad: 1
    kernel_size: 3
    stride: 1
    weight_filler {
      type: "xavier"
    }
    bias_filler {
      type: "constant"
      value: 0
    }
  }
}
layer {
  name: "conv7_2_mbox_conf_perm"
  type: "Permute"
  bottom: "conv7_2_mbox_conf"
  top: "conv7_2_mbox_conf_perm"
  permute_param {
    order: 0
    order: 2
    order: 3
    order: 1
  }
}
layer {
  name: "conv7_2_mbox_conf_flat"
  type: "Flatten"
  bottom: "conv7_2_mbox_conf_perm"
  top: "conv7_2_mbox_conf_flat"
  flatten_param {
    axis: 1
  }
}
layer {
  name: "conv7_2_mbox_priorbox"
  type: "PriorBox"
  bottom: "conv7_2"
  bottom: "data"
  top: "conv7_2_mbox_priorbox"
  prior_box_param {
    min_size: 162
    max_size: 213
    aspect_ratio: 2
    aspect_ratio: 3
    flip: true
    clip: false
    variance: 0.1
    variance: 0.1
    variance: 0.2
    variance: 0.2
    step: 64
    offset: 0.5
  }
}
layer {
  name: "conv8_2_mbox_loc"
  type: "Convolution"
  bottom: "conv8_2"
  top: "conv8_2_mbox_loc"
  param {
    lr_mult: 1
    decay_mult: 1
  }
  param {
    lr_mult: 2
    decay_mult: 0
  }
  convolution_param {
    num_output: 16
    pad: 1
    kernel_size: 3
    stride: 1
    weight_filler {
      type: "xavier"
    }
    bias_filler {
      type: "constant"
      value: 0
    }
  }
}
layer {
  name: "conv8_2_mbox_loc_perm"
  type: "Permute"
  bottom: "conv8_2_mbox_loc"
  top: "conv8_2_mbox_loc_perm"
  permute_param {
    order: 0
    order: 2
    order: 3
    order: 1
  }
}
layer {
  name: "conv8_2_mbox_loc_flat"
  type: "Flatten"
  bottom: "conv8_2_mbox_loc_perm"
  top: "conv8_2_mbox_loc_flat"
  flatten_param {
    axis: 1
  }
}
layer {
  name: "conv8_2_mbox_conf"
  type: "Convolution"
  bottom: "conv8_2"
  top: "conv8_2_mbox_conf"
  param {
    lr_mult: 1
    decay_mult: 1
  }
  param {
    lr_mult: 2
    decay_mult: 0
  }
  convolution_param {
    num_output: 16
    pad: 1
    kernel_size: 3
    stride: 1
    weight_filler {
      type: "xavier"
    }
    bias_filler {
      type: "constant"
      value: 0
    }
  }
}
layer {
  name: "conv8_2_mbox_conf_perm"
  type: "Permute"
  bottom: "conv8_2_mbox_conf"
  top: "conv8_2_mbox_conf_perm"
  permute_param {
    order: 0
    order: 2
    order: 3
    order: 1
  }
}
layer {
  name: "conv8_2_mbox_conf_flat"
  type: "Flatten"
  bottom: "conv8_2_mbox_conf_perm"
  top: "conv8_2_mbox_conf_flat"
  flatten_param {
    axis: 1
  }
}
layer {
  name: "conv8_2_mbox_priorbox"
  type: "PriorBox"
  bottom: "conv8_2"
  bottom: "data"
  top: "conv8_2_mbox_priorbox"
  prior_box_param {
    min_size: 213
    max_size: 264
    aspect_ratio: 2
    flip: true
    clip: false
    variance: 0.1
    variance: 0.1
    variance: 0.2
    variance: 0.2
    step: 100
    offset: 0.5
  }
}
layer {
  name: "conv9_2_mbox_loc"
  type: "Convolution"
  bottom: "conv9_2"
  top: "conv9_2_mbox_loc"
  param {
    lr_mult: 1
    decay_mult: 1
  }
  param {
    lr_mult: 2
    decay_mult: 0
  }
  convolution_param {
    num_output: 16
    pad: 1
    kernel_size: 3
    stride: 1
    weight_filler {
      type: "xavier"
    }
    bias_filler {
      type: "constant"
      value: 0
    }
  }
}
layer {
  name: "conv9_2_mbox_loc_perm"
  type: "Permute"
  bottom: "conv9_2_mbox_loc"
  top: "conv9_2_mbox_loc_perm"
  permute_param {
    order: 0
    order: 2
    order: 3
    order: 1
  }
}
layer {
  name: "conv9_2_mbox_loc_flat"
  type: "Flatten"
  bottom: "conv9_2_mbox_loc_perm"
  top: "conv9_2_mbox_loc_flat"
  flatten_param {
    axis: 1
  }
}
layer {
  name: "conv9_2_mbox_conf"
  type: "Convolution"
  bottom: "conv9_2"
  top: "conv9_2_mbox_conf"
  param {
    lr_mult: 1
    decay_mult: 1
  }
  param {
    lr_mult: 2
    decay_mult: 0
  }
  convolution_param {
    num_output: 16
    pad: 1
    kernel_size: 3
    stride: 1
    weight_filler {
      type: "xavier"
    }
    bias_filler {
      type: "constant"
      value: 0
    }
  }
}
layer {
  name: "conv9_2_mbox_conf_perm"
  type: "Permute"
  bottom: "conv9_2_mbox_conf"
  top: "conv9_2_mbox_conf_perm"
  permute_param {
    order: 0
    order: 2
    order: 3
    order: 1
  }
}
layer {
  name: "conv9_2_mbox_conf_flat"
  type: "Flatten"
  bottom: "conv9_2_mbox_conf_perm"
  top: "conv9_2_mbox_conf_flat"
  flatten_param {
    axis: 1
  }
}
layer {
  name: "conv9_2_mbox_priorbox"
  type: "PriorBox"
  bottom: "conv9_2"
  bottom: "data"
  top: "conv9_2_mbox_priorbox"
  prior_box_param {
    min_size: 264
    max_size: 315
    aspect_ratio: 2
    flip: true
    clip: false
    variance: 0.1
    variance: 0.1
    variance: 0.2
    variance: 0.2
    step: 300
    offset: 0.5
  }
}
layer {
  name: "mbox_loc"
  type: "Concat"
  bottom: "conv4_3_norm_mbox_loc_flat"
  bottom: "fc7_mbox_loc_flat"
  bottom: "conv6_2_mbox_loc_flat"
  bottom: "conv7_2_mbox_loc_flat"
  bottom: "conv8_2_mbox_loc_flat"
  bottom: "conv9_2_mbox_loc_flat"
  top: "mbox_loc"
  concat_param {
    axis: 1
  }
}
layer {
  name: "mbox_conf"
  type: "Concat"
  bottom: "conv4_3_norm_mbox_conf_flat"
  bottom: "fc7_mbox_conf_flat"
  bottom: "conv6_2_mbox_conf_flat"
  bottom: "conv7_2_mbox_conf_flat"
  bottom: "conv8_2_mbox_conf_flat"
  bottom: "conv9_2_mbox_conf_flat"
  top: "mbox_conf"
  concat_param {
    axis: 1
  }
}
layer {
  name: "mbox_priorbox"
  type: "Concat"
  bottom: "conv4_3_norm_mbox_priorbox"
  bottom: "fc7_mbox_priorbox"
  bottom: "conv6_2_mbox_priorbox"
  bottom: "conv7_2_mbox_priorbox"
  bottom: "conv8_2_mbox_priorbox"
  bottom: "conv9_2_mbox_priorbox"
  top: "mbox_priorbox"
  concat_param {
    axis: 2
  }
}
layer {
  name: "mbox_conf_reshape"
  type: "Reshape"
  bottom: "mbox_conf"
  top: "mbox_conf_reshape"
  reshape_param {
    shape {
      dim: 0
      dim: -1
      dim: 4
    }
  }
}
layer {
  name: "mbox_conf_softmax"
  type: "Softmax"
  bottom: "mbox_conf_reshape"
  top: "mbox_conf_softmax"
  softmax_param {
    axis: 2
  }
}
layer {
  name: "mbox_conf_flatten"
  type: "Flatten"
  bottom: "mbox_conf_softmax"
  top: "mbox_conf_flatten"
  flatten_param {
    axis: 1
  }
}
layer {
  name: "detection_out"
  type: "DetectionOutput"
  bottom: "mbox_loc"
  bottom: "mbox_conf_flatten"
  bottom: "mbox_priorbox"
  top: "detection_out"
  include {
    phase: TEST
  }
  detection_output_param {
    num_classes: 4
    share_location: true
    background_label_id: 0
    nms_param {
      nms_threshold: 0.45
      top_k: 400
    }
    save_output_param {
      output_directory: "/home/shangzw/data/tbs/results/tbs/SSD_300x300/Main"
      output_name_prefix: "comp4_det_test_"
      output_format: "VOC"
      label_map_file: "data/tbs_300x300_HSIL_10x/labelmap_tbs.prototxt"
      name_size_file: "data/VOC0712/test_name_size.txt"
      num_test_image: 100
    }
    code_type: CENTER_SIZE
    keep_top_k: 200
    confidence_threshold: 0.01
  }
}
layer {
  name: "detection_eval"
  type: "DetectionEvaluate"
  bottom: "detection_out"
  bottom: "label"
  top: "detection_eval"
  include {
    phase: TEST
  }
  detection_evaluate_param {
    num_classes: 4
    background_label_id: 0
    overlap_threshold: 0.5
    evaluate_difficult_gt: false
    name_size_file: "data/VOC0712/test_name_size.txt"
  }
}
I0601 12:02:41.429033 13974 layer_factory.hpp:77] Creating layer data
I0601 12:02:41.429095 13974 net.cpp:100] Creating Layer data
I0601 12:02:41.429102 13974 net.cpp:408] data -> data
I0601 12:02:41.429117 13974 net.cpp:408] data -> label
I0601 12:02:41.431605 13997 db_lmdb.cpp:35] Opened lmdb examples/tbs_300x300_HSIL_10x/tbs_300x300_HSIL_10x_test_lmdb
I0601 12:02:41.432665 13974 annotated_data_layer.cpp:62] output data size: 4,3,300,300
I0601 12:02:41.445806 13974 net.cpp:150] Setting up data
I0601 12:02:41.445833 13974 net.cpp:157] Top shape: 4 3 300 300 (1080000)
I0601 12:02:41.445848 13974 net.cpp:157] Top shape: 1 1 1 8 (8)
I0601 12:02:41.445852 13974 net.cpp:165] Memory required for data: 4320032
I0601 12:02:41.445859 13974 layer_factory.hpp:77] Creating layer data_data_0_split
I0601 12:02:41.445878 13974 net.cpp:100] Creating Layer data_data_0_split
I0601 12:02:41.445885 13974 net.cpp:434] data_data_0_split <- data
I0601 12:02:41.445902 13974 net.cpp:408] data_data_0_split -> data_data_0_split_0
I0601 12:02:41.445922 13974 net.cpp:408] data_data_0_split -> data_data_0_split_1
I0601 12:02:41.445935 13974 net.cpp:408] data_data_0_split -> data_data_0_split_2
I0601 12:02:41.445947 13974 net.cpp:408] data_data_0_split -> data_data_0_split_3
I0601 12:02:41.445960 13974 net.cpp:408] data_data_0_split -> data_data_0_split_4
I0601 12:02:41.445972 13974 net.cpp:408] data_data_0_split -> data_data_0_split_5
I0601 12:02:41.445983 13974 net.cpp:408] data_data_0_split -> data_data_0_split_6
I0601 12:02:41.446144 13974 net.cpp:150] Setting up data_data_0_split
I0601 12:02:41.446157 13974 net.cpp:157] Top shape: 4 3 300 300 (1080000)
I0601 12:02:41.446168 13974 net.cpp:157] Top shape: 4 3 300 300 (1080000)
I0601 12:02:41.446177 13974 net.cpp:157] Top shape: 4 3 300 300 (1080000)
I0601 12:02:41.446185 13974 net.cpp:157] Top shape: 4 3 300 300 (1080000)
I0601 12:02:41.446193 13974 net.cpp:157] Top shape: 4 3 300 300 (1080000)
I0601 12:02:41.446219 13974 net.cpp:157] Top shape: 4 3 300 300 (1080000)
I0601 12:02:41.446228 13974 net.cpp:157] Top shape: 4 3 300 300 (1080000)
I0601 12:02:41.446233 13974 net.cpp:165] Memory required for data: 34560032
I0601 12:02:41.446236 13974 layer_factory.hpp:77] Creating layer conv1_1
I0601 12:02:41.446250 13974 net.cpp:100] Creating Layer conv1_1
I0601 12:02:41.446257 13974 net.cpp:434] conv1_1 <- data_data_0_split_0
I0601 12:02:41.446264 13974 net.cpp:408] conv1_1 -> conv1_1
I0601 12:02:41.450212 13974 net.cpp:150] Setting up conv1_1
I0601 12:02:41.450263 13974 net.cpp:157] Top shape: 4 64 300 300 (23040000)
I0601 12:02:41.450284 13974 net.cpp:165] Memory required for data: 126720032
I0601 12:02:41.450317 13974 layer_factory.hpp:77] Creating layer relu1_1
I0601 12:02:41.450331 13974 net.cpp:100] Creating Layer relu1_1
I0601 12:02:41.450336 13974 net.cpp:434] relu1_1 <- conv1_1
I0601 12:02:41.450343 13974 net.cpp:395] relu1_1 -> conv1_1 (in-place)
I0601 12:02:41.450559 13974 net.cpp:150] Setting up relu1_1
I0601 12:02:41.450572 13974 net.cpp:157] Top shape: 4 64 300 300 (23040000)
I0601 12:02:41.450577 13974 net.cpp:165] Memory required for data: 218880032
I0601 12:02:41.450582 13974 layer_factory.hpp:77] Creating layer conv1_2
I0601 12:02:41.450594 13974 net.cpp:100] Creating Layer conv1_2
I0601 12:02:41.450599 13974 net.cpp:434] conv1_2 <- conv1_1
I0601 12:02:41.450606 13974 net.cpp:408] conv1_2 -> conv1_2
I0601 12:02:41.453404 13974 net.cpp:150] Setting up conv1_2
I0601 12:02:41.453428 13974 net.cpp:157] Top shape: 4 64 300 300 (23040000)
I0601 12:02:41.453433 13974 net.cpp:165] Memory required for data: 311040032
I0601 12:02:41.453449 13974 layer_factory.hpp:77] Creating layer relu1_2
I0601 12:02:41.453460 13974 net.cpp:100] Creating Layer relu1_2
I0601 12:02:41.453465 13974 net.cpp:434] relu1_2 <- conv1_2
I0601 12:02:41.453471 13974 net.cpp:395] relu1_2 -> conv1_2 (in-place)
I0601 12:02:41.454355 13974 net.cpp:150] Setting up relu1_2
I0601 12:02:41.454372 13974 net.cpp:157] Top shape: 4 64 300 300 (23040000)
I0601 12:02:41.454376 13974 net.cpp:165] Memory required for data: 403200032
I0601 12:02:41.454380 13974 layer_factory.hpp:77] Creating layer pool1
I0601 12:02:41.454391 13974 net.cpp:100] Creating Layer pool1
I0601 12:02:41.454397 13974 net.cpp:434] pool1 <- conv1_2
I0601 12:02:41.454406 13974 net.cpp:408] pool1 -> pool1
I0601 12:02:41.454479 13974 net.cpp:150] Setting up pool1
I0601 12:02:41.454493 13974 net.cpp:157] Top shape: 4 64 150 150 (5760000)
I0601 12:02:41.454496 13974 net.cpp:165] Memory required for data: 426240032
I0601 12:02:41.454499 13974 layer_factory.hpp:77] Creating layer conv2_1
I0601 12:02:41.454511 13974 net.cpp:100] Creating Layer conv2_1
I0601 12:02:41.454516 13974 net.cpp:434] conv2_1 <- pool1
I0601 12:02:41.454524 13974 net.cpp:408] conv2_1 -> conv2_1
I0601 12:02:41.457190 13974 net.cpp:150] Setting up conv2_1
I0601 12:02:41.457211 13974 net.cpp:157] Top shape: 4 128 150 150 (11520000)
I0601 12:02:41.457216 13974 net.cpp:165] Memory required for data: 472320032
I0601 12:02:41.457229 13974 layer_factory.hpp:77] Creating layer relu2_1
I0601 12:02:41.457239 13974 net.cpp:100] Creating Layer relu2_1
I0601 12:02:41.457244 13974 net.cpp:434] relu2_1 <- conv2_1
I0601 12:02:41.457252 13974 net.cpp:395] relu2_1 -> conv2_1 (in-place)
I0601 12:02:41.457942 13974 net.cpp:150] Setting up relu2_1
I0601 12:02:41.457954 13974 net.cpp:157] Top shape: 4 128 150 150 (11520000)
I0601 12:02:41.457957 13974 net.cpp:165] Memory required for data: 518400032
I0601 12:02:41.457959 13974 layer_factory.hpp:77] Creating layer conv2_2
I0601 12:02:41.457969 13974 net.cpp:100] Creating Layer conv2_2
I0601 12:02:41.457973 13974 net.cpp:434] conv2_2 <- conv2_1
I0601 12:02:41.457978 13974 net.cpp:408] conv2_2 -> conv2_2
I0601 12:02:41.462267 13974 net.cpp:150] Setting up conv2_2
I0601 12:02:41.462291 13974 net.cpp:157] Top shape: 4 128 150 150 (11520000)
I0601 12:02:41.462296 13974 net.cpp:165] Memory required for data: 564480032
I0601 12:02:41.462306 13974 layer_factory.hpp:77] Creating layer relu2_2
I0601 12:02:41.462333 13974 net.cpp:100] Creating Layer relu2_2
I0601 12:02:41.462340 13974 net.cpp:434] relu2_2 <- conv2_2
I0601 12:02:41.462347 13974 net.cpp:395] relu2_2 -> conv2_2 (in-place)
I0601 12:02:41.462630 13974 net.cpp:150] Setting up relu2_2
I0601 12:02:41.462644 13974 net.cpp:157] Top shape: 4 128 150 150 (11520000)
I0601 12:02:41.462649 13974 net.cpp:165] Memory required for data: 610560032
I0601 12:02:41.462666 13974 layer_factory.hpp:77] Creating layer pool2
I0601 12:02:41.462674 13974 net.cpp:100] Creating Layer pool2
I0601 12:02:41.462679 13974 net.cpp:434] pool2 <- conv2_2
I0601 12:02:41.462688 13974 net.cpp:408] pool2 -> pool2
I0601 12:02:41.462766 13974 net.cpp:150] Setting up pool2
I0601 12:02:41.462777 13974 net.cpp:157] Top shape: 4 128 75 75 (2880000)
I0601 12:02:41.462780 13974 net.cpp:165] Memory required for data: 622080032
I0601 12:02:41.462785 13974 layer_factory.hpp:77] Creating layer conv3_1
I0601 12:02:41.462800 13974 net.cpp:100] Creating Layer conv3_1
I0601 12:02:41.462805 13974 net.cpp:434] conv3_1 <- pool2
I0601 12:02:41.462812 13974 net.cpp:408] conv3_1 -> conv3_1
I0601 12:02:41.467855 13974 net.cpp:150] Setting up conv3_1
I0601 12:02:41.467878 13974 net.cpp:157] Top shape: 4 256 75 75 (5760000)
I0601 12:02:41.467882 13974 net.cpp:165] Memory required for data: 645120032
I0601 12:02:41.467900 13974 layer_factory.hpp:77] Creating layer relu3_1
I0601 12:02:41.467911 13974 net.cpp:100] Creating Layer relu3_1
I0601 12:02:41.467919 13974 net.cpp:434] relu3_1 <- conv3_1
I0601 12:02:41.467926 13974 net.cpp:395] relu3_1 -> conv3_1 (in-place)
I0601 12:02:41.468183 13974 net.cpp:150] Setting up relu3_1
I0601 12:02:41.468196 13974 net.cpp:157] Top shape: 4 256 75 75 (5760000)
I0601 12:02:41.468199 13974 net.cpp:165] Memory required for data: 668160032
I0601 12:02:41.468204 13974 layer_factory.hpp:77] Creating layer conv3_2
I0601 12:02:41.468215 13974 net.cpp:100] Creating Layer conv3_2
I0601 12:02:41.468221 13974 net.cpp:434] conv3_2 <- conv3_1
I0601 12:02:41.468228 13974 net.cpp:408] conv3_2 -> conv3_2
I0601 12:02:41.475744 13974 net.cpp:150] Setting up conv3_2
I0601 12:02:41.475761 13974 net.cpp:157] Top shape: 4 256 75 75 (5760000)
I0601 12:02:41.475765 13974 net.cpp:165] Memory required for data: 691200032
I0601 12:02:41.475774 13974 layer_factory.hpp:77] Creating layer relu3_2
I0601 12:02:41.475782 13974 net.cpp:100] Creating Layer relu3_2
I0601 12:02:41.475785 13974 net.cpp:434] relu3_2 <- conv3_2
I0601 12:02:41.475790 13974 net.cpp:395] relu3_2 -> conv3_2 (in-place)
I0601 12:02:41.475980 13974 net.cpp:150] Setting up relu3_2
I0601 12:02:41.475991 13974 net.cpp:157] Top shape: 4 256 75 75 (5760000)
I0601 12:02:41.475994 13974 net.cpp:165] Memory required for data: 714240032
I0601 12:02:41.475998 13974 layer_factory.hpp:77] Creating layer conv3_3
I0601 12:02:41.476014 13974 net.cpp:100] Creating Layer conv3_3
I0601 12:02:41.476021 13974 net.cpp:434] conv3_3 <- conv3_2
I0601 12:02:41.476029 13974 net.cpp:408] conv3_3 -> conv3_3
I0601 12:02:41.483572 13974 net.cpp:150] Setting up conv3_3
I0601 12:02:41.483597 13974 net.cpp:157] Top shape: 4 256 75 75 (5760000)
I0601 12:02:41.483602 13974 net.cpp:165] Memory required for data: 737280032
I0601 12:02:41.483613 13974 layer_factory.hpp:77] Creating layer relu3_3
I0601 12:02:41.483624 13974 net.cpp:100] Creating Layer relu3_3
I0601 12:02:41.483631 13974 net.cpp:434] relu3_3 <- conv3_3
I0601 12:02:41.483638 13974 net.cpp:395] relu3_3 -> conv3_3 (in-place)
I0601 12:02:41.483898 13974 net.cpp:150] Setting up relu3_3
I0601 12:02:41.483914 13974 net.cpp:157] Top shape: 4 256 75 75 (5760000)
I0601 12:02:41.483918 13974 net.cpp:165] Memory required for data: 760320032
I0601 12:02:41.483922 13974 layer_factory.hpp:77] Creating layer pool3
I0601 12:02:41.483929 13974 net.cpp:100] Creating Layer pool3
I0601 12:02:41.483935 13974 net.cpp:434] pool3 <- conv3_3
I0601 12:02:41.483943 13974 net.cpp:408] pool3 -> pool3
I0601 12:02:41.484025 13974 net.cpp:150] Setting up pool3
I0601 12:02:41.484035 13974 net.cpp:157] Top shape: 4 256 38 38 (1478656)
I0601 12:02:41.484055 13974 net.cpp:165] Memory required for data: 766234656
I0601 12:02:41.484060 13974 layer_factory.hpp:77] Creating layer conv4_1
I0601 12:02:41.484072 13974 net.cpp:100] Creating Layer conv4_1
I0601 12:02:41.484078 13974 net.cpp:434] conv4_1 <- pool3
I0601 12:02:41.484086 13974 net.cpp:408] conv4_1 -> conv4_1
I0601 12:02:41.493834 13974 net.cpp:150] Setting up conv4_1
I0601 12:02:41.493851 13974 net.cpp:157] Top shape: 4 512 38 38 (2957312)
I0601 12:02:41.493854 13974 net.cpp:165] Memory required for data: 778063904
I0601 12:02:41.493862 13974 layer_factory.hpp:77] Creating layer relu4_1
I0601 12:02:41.493870 13974 net.cpp:100] Creating Layer relu4_1
I0601 12:02:41.493873 13974 net.cpp:434] relu4_1 <- conv4_1
I0601 12:02:41.493878 13974 net.cpp:395] relu4_1 -> conv4_1 (in-place)
I0601 12:02:41.494561 13974 net.cpp:150] Setting up relu4_1
I0601 12:02:41.494575 13974 net.cpp:157] Top shape: 4 512 38 38 (2957312)
I0601 12:02:41.494576 13974 net.cpp:165] Memory required for data: 789893152
I0601 12:02:41.494580 13974 layer_factory.hpp:77] Creating layer conv4_2
I0601 12:02:41.494590 13974 net.cpp:100] Creating Layer conv4_2
I0601 12:02:41.494595 13974 net.cpp:434] conv4_2 <- conv4_1
I0601 12:02:41.494599 13974 net.cpp:408] conv4_2 -> conv4_2
I0601 12:02:41.510929 13974 net.cpp:150] Setting up conv4_2
I0601 12:02:41.510948 13974 net.cpp:157] Top shape: 4 512 38 38 (2957312)
I0601 12:02:41.510951 13974 net.cpp:165] Memory required for data: 801722400
I0601 12:02:41.510962 13974 layer_factory.hpp:77] Creating layer relu4_2
I0601 12:02:41.510970 13974 net.cpp:100] Creating Layer relu4_2
I0601 12:02:41.510975 13974 net.cpp:434] relu4_2 <- conv4_2
I0601 12:02:41.510979 13974 net.cpp:395] relu4_2 -> conv4_2 (in-place)
I0601 12:02:41.511909 13974 net.cpp:150] Setting up relu4_2
I0601 12:02:41.511953 13974 net.cpp:157] Top shape: 4 512 38 38 (2957312)
I0601 12:02:41.511979 13974 net.cpp:165] Memory required for data: 813551648
I0601 12:02:41.512022 13974 layer_factory.hpp:77] Creating layer conv4_3
I0601 12:02:41.512069 13974 net.cpp:100] Creating Layer conv4_3
I0601 12:02:41.512104 13974 net.cpp:434] conv4_3 <- conv4_2
I0601 12:02:41.512138 13974 net.cpp:408] conv4_3 -> conv4_3
I0601 12:02:41.530377 13974 net.cpp:150] Setting up conv4_3
I0601 12:02:41.530400 13974 net.cpp:157] Top shape: 4 512 38 38 (2957312)
I0601 12:02:41.530405 13974 net.cpp:165] Memory required for data: 825380896
I0601 12:02:41.530416 13974 layer_factory.hpp:77] Creating layer relu4_3
I0601 12:02:41.530427 13974 net.cpp:100] Creating Layer relu4_3
I0601 12:02:41.530452 13974 net.cpp:434] relu4_3 <- conv4_3
I0601 12:02:41.530469 13974 net.cpp:395] relu4_3 -> conv4_3 (in-place)
I0601 12:02:41.530716 13974 net.cpp:150] Setting up relu4_3
I0601 12:02:41.530727 13974 net.cpp:157] Top shape: 4 512 38 38 (2957312)
I0601 12:02:41.530730 13974 net.cpp:165] Memory required for data: 837210144
I0601 12:02:41.530735 13974 layer_factory.hpp:77] Creating layer conv4_3_relu4_3_0_split
I0601 12:02:41.530742 13974 net.cpp:100] Creating Layer conv4_3_relu4_3_0_split
I0601 12:02:41.530750 13974 net.cpp:434] conv4_3_relu4_3_0_split <- conv4_3
I0601 12:02:41.530755 13974 net.cpp:408] conv4_3_relu4_3_0_split -> conv4_3_relu4_3_0_split_0
I0601 12:02:41.530764 13974 net.cpp:408] conv4_3_relu4_3_0_split -> conv4_3_relu4_3_0_split_1
I0601 12:02:41.530833 13974 net.cpp:150] Setting up conv4_3_relu4_3_0_split
I0601 12:02:41.530840 13974 net.cpp:157] Top shape: 4 512 38 38 (2957312)
I0601 12:02:41.530844 13974 net.cpp:157] Top shape: 4 512 38 38 (2957312)
I0601 12:02:41.530848 13974 net.cpp:165] Memory required for data: 860868640
I0601 12:02:41.530853 13974 layer_factory.hpp:77] Creating layer pool4
I0601 12:02:41.530859 13974 net.cpp:100] Creating Layer pool4
I0601 12:02:41.530864 13974 net.cpp:434] pool4 <- conv4_3_relu4_3_0_split_0
I0601 12:02:41.530871 13974 net.cpp:408] pool4 -> pool4
I0601 12:02:41.530920 13974 net.cpp:150] Setting up pool4
I0601 12:02:41.530941 13974 net.cpp:157] Top shape: 4 512 19 19 (739328)
I0601 12:02:41.530946 13974 net.cpp:165] Memory required for data: 863825952
I0601 12:02:41.530962 13974 layer_factory.hpp:77] Creating layer conv5_1
I0601 12:02:41.530980 13974 net.cpp:100] Creating Layer conv5_1
I0601 12:02:41.530995 13974 net.cpp:434] conv5_1 <- pool4
I0601 12:02:41.531013 13974 net.cpp:408] conv5_1 -> conv5_1
I0601 12:02:41.549557 13974 net.cpp:150] Setting up conv5_1
I0601 12:02:41.549577 13974 net.cpp:157] Top shape: 4 512 19 19 (739328)
I0601 12:02:41.549582 13974 net.cpp:165] Memory required for data: 866783264
I0601 12:02:41.549592 13974 layer_factory.hpp:77] Creating layer relu5_1
I0601 12:02:41.549602 13974 net.cpp:100] Creating Layer relu5_1
I0601 12:02:41.549608 13974 net.cpp:434] relu5_1 <- conv5_1
I0601 12:02:41.549614 13974 net.cpp:395] relu5_1 -> conv5_1 (in-place)
I0601 12:02:41.549829 13974 net.cpp:150] Setting up relu5_1
I0601 12:02:41.549841 13974 net.cpp:157] Top shape: 4 512 19 19 (739328)
I0601 12:02:41.549845 13974 net.cpp:165] Memory required for data: 869740576
I0601 12:02:41.549849 13974 layer_factory.hpp:77] Creating layer conv5_2
I0601 12:02:41.549862 13974 net.cpp:100] Creating Layer conv5_2
I0601 12:02:41.549867 13974 net.cpp:434] conv5_2 <- conv5_1
I0601 12:02:41.549875 13974 net.cpp:408] conv5_2 -> conv5_2
I0601 12:02:41.566817 13974 net.cpp:150] Setting up conv5_2
I0601 12:02:41.566838 13974 net.cpp:157] Top shape: 4 512 19 19 (739328)
I0601 12:02:41.566843 13974 net.cpp:165] Memory required for data: 872697888
I0601 12:02:41.566854 13974 layer_factory.hpp:77] Creating layer relu5_2
I0601 12:02:41.566862 13974 net.cpp:100] Creating Layer relu5_2
I0601 12:02:41.566867 13974 net.cpp:434] relu5_2 <- conv5_2
I0601 12:02:41.566874 13974 net.cpp:395] relu5_2 -> conv5_2 (in-place)
I0601 12:02:41.567081 13974 net.cpp:150] Setting up relu5_2
I0601 12:02:41.567112 13974 net.cpp:157] Top shape: 4 512 19 19 (739328)
I0601 12:02:41.567126 13974 net.cpp:165] Memory required for data: 875655200
I0601 12:02:41.567139 13974 layer_factory.hpp:77] Creating layer conv5_3
I0601 12:02:41.567155 13974 net.cpp:100] Creating Layer conv5_3
I0601 12:02:41.567162 13974 net.cpp:434] conv5_3 <- conv5_2
I0601 12:02:41.567173 13974 net.cpp:408] conv5_3 -> conv5_3
I0601 12:02:41.581467 13974 net.cpp:150] Setting up conv5_3
I0601 12:02:41.581487 13974 net.cpp:157] Top shape: 4 512 19 19 (739328)
I0601 12:02:41.581491 13974 net.cpp:165] Memory required for data: 878612512
I0601 12:02:41.581502 13974 layer_factory.hpp:77] Creating layer relu5_3
I0601 12:02:41.581518 13974 net.cpp:100] Creating Layer relu5_3
I0601 12:02:41.581526 13974 net.cpp:434] relu5_3 <- conv5_3
I0601 12:02:41.581532 13974 net.cpp:395] relu5_3 -> conv5_3 (in-place)
I0601 12:02:41.581732 13974 net.cpp:150] Setting up relu5_3
I0601 12:02:41.581761 13974 net.cpp:157] Top shape: 4 512 19 19 (739328)
I0601 12:02:41.581775 13974 net.cpp:165] Memory required for data: 881569824
I0601 12:02:41.581790 13974 layer_factory.hpp:77] Creating layer pool5
I0601 12:02:41.581809 13974 net.cpp:100] Creating Layer pool5
I0601 12:02:41.581823 13974 net.cpp:434] pool5 <- conv5_3
I0601 12:02:41.581840 13974 net.cpp:408] pool5 -> pool5
I0601 12:02:41.581921 13974 net.cpp:150] Setting up pool5
I0601 12:02:41.581943 13974 net.cpp:157] Top shape: 4 512 19 19 (739328)
I0601 12:02:41.581955 13974 net.cpp:165] Memory required for data: 884527136
I0601 12:02:41.581969 13974 layer_factory.hpp:77] Creating layer fc6
I0601 12:02:41.581991 13974 net.cpp:100] Creating Layer fc6
I0601 12:02:41.582006 13974 net.cpp:434] fc6 <- pool5
I0601 12:02:41.582026 13974 net.cpp:408] fc6 -> fc6
I0601 12:02:41.612329 13974 net.cpp:150] Setting up fc6
I0601 12:02:41.612347 13974 net.cpp:157] Top shape: 4 1024 19 19 (1478656)
I0601 12:02:41.612351 13974 net.cpp:165] Memory required for data: 890441760
I0601 12:02:41.612360 13974 layer_factory.hpp:77] Creating layer relu6
I0601 12:02:41.612371 13974 net.cpp:100] Creating Layer relu6
I0601 12:02:41.612376 13974 net.cpp:434] relu6 <- fc6
I0601 12:02:41.612382 13974 net.cpp:395] relu6 -> fc6 (in-place)
I0601 12:02:41.613401 13974 net.cpp:150] Setting up relu6
I0601 12:02:41.613451 13974 net.cpp:157] Top shape: 4 1024 19 19 (1478656)
I0601 12:02:41.613477 13974 net.cpp:165] Memory required for data: 896356384
I0601 12:02:41.613493 13974 layer_factory.hpp:77] Creating layer fc7
I0601 12:02:41.613520 13974 net.cpp:100] Creating Layer fc7
I0601 12:02:41.613539 13974 net.cpp:434] fc7 <- fc6
I0601 12:02:41.613557 13974 net.cpp:408] fc7 -> fc7
I0601 12:02:41.621248 13974 net.cpp:150] Setting up fc7
I0601 12:02:41.621299 13974 net.cpp:157] Top shape: 4 1024 19 19 (1478656)
I0601 12:02:41.621316 13974 net.cpp:165] Memory required for data: 902271008
I0601 12:02:41.621336 13974 layer_factory.hpp:77] Creating layer relu7
I0601 12:02:41.621356 13974 net.cpp:100] Creating Layer relu7
I0601 12:02:41.621369 13974 net.cpp:434] relu7 <- fc7
I0601 12:02:41.621388 13974 net.cpp:395] relu7 -> fc7 (in-place)
I0601 12:02:41.621609 13974 net.cpp:150] Setting up relu7
I0601 12:02:41.621636 13974 net.cpp:157] Top shape: 4 1024 19 19 (1478656)
I0601 12:02:41.621650 13974 net.cpp:165] Memory required for data: 908185632
I0601 12:02:41.621665 13974 layer_factory.hpp:77] Creating layer fc7_relu7_0_split
I0601 12:02:41.621683 13974 net.cpp:100] Creating Layer fc7_relu7_0_split
I0601 12:02:41.621697 13974 net.cpp:434] fc7_relu7_0_split <- fc7
I0601 12:02:41.621716 13974 net.cpp:408] fc7_relu7_0_split -> fc7_relu7_0_split_0
I0601 12:02:41.621737 13974 net.cpp:408] fc7_relu7_0_split -> fc7_relu7_0_split_1
I0601 12:02:41.621764 13974 net.cpp:408] fc7_relu7_0_split -> fc7_relu7_0_split_2
I0601 12:02:41.621784 13974 net.cpp:408] fc7_relu7_0_split -> fc7_relu7_0_split_3
I0601 12:02:41.621954 13974 net.cpp:150] Setting up fc7_relu7_0_split
I0601 12:02:41.621968 13974 net.cpp:157] Top shape: 4 1024 19 19 (1478656)
I0601 12:02:41.621974 13974 net.cpp:157] Top shape: 4 1024 19 19 (1478656)
I0601 12:02:41.621978 13974 net.cpp:157] Top shape: 4 1024 19 19 (1478656)
I0601 12:02:41.621984 13974 net.cpp:157] Top shape: 4 1024 19 19 (1478656)
I0601 12:02:41.621987 13974 net.cpp:165] Memory required for data: 931844128
I0601 12:02:41.621991 13974 layer_factory.hpp:77] Creating layer conv6_1
I0601 12:02:41.622006 13974 net.cpp:100] Creating Layer conv6_1
I0601 12:02:41.622014 13974 net.cpp:434] conv6_1 <- fc7_relu7_0_split_0
I0601 12:02:41.622022 13974 net.cpp:408] conv6_1 -> conv6_1
I0601 12:02:41.627396 13974 net.cpp:150] Setting up conv6_1
I0601 12:02:41.627416 13974 net.cpp:157] Top shape: 4 256 19 19 (369664)
I0601 12:02:41.627420 13974 net.cpp:165] Memory required for data: 933322784
I0601 12:02:41.627431 13974 layer_factory.hpp:77] Creating layer conv6_1_relu
I0601 12:02:41.627440 13974 net.cpp:100] Creating Layer conv6_1_relu
I0601 12:02:41.627446 13974 net.cpp:434] conv6_1_relu <- conv6_1
I0601 12:02:41.627457 13974 net.cpp:395] conv6_1_relu -> conv6_1 (in-place)
I0601 12:02:41.627665 13974 net.cpp:150] Setting up conv6_1_relu
I0601 12:02:41.627696 13974 net.cpp:157] Top shape: 4 256 19 19 (369664)
I0601 12:02:41.627710 13974 net.cpp:165] Memory required for data: 934801440
I0601 12:02:41.627724 13974 layer_factory.hpp:77] Creating layer conv6_2
I0601 12:02:41.627748 13974 net.cpp:100] Creating Layer conv6_2
I0601 12:02:41.627761 13974 net.cpp:434] conv6_2 <- conv6_1
I0601 12:02:41.627779 13974 net.cpp:408] conv6_2 -> conv6_2
I0601 12:02:41.635830 13974 net.cpp:150] Setting up conv6_2
I0601 12:02:41.635862 13974 net.cpp:157] Top shape: 4 512 10 10 (204800)
I0601 12:02:41.635865 13974 net.cpp:165] Memory required for data: 935620640
I0601 12:02:41.635879 13974 layer_factory.hpp:77] Creating layer conv6_2_relu
I0601 12:02:41.635888 13974 net.cpp:100] Creating Layer conv6_2_relu
I0601 12:02:41.635892 13974 net.cpp:434] conv6_2_relu <- conv6_2
I0601 12:02:41.635897 13974 net.cpp:395] conv6_2_relu -> conv6_2 (in-place)
I0601 12:02:41.636076 13974 net.cpp:150] Setting up conv6_2_relu
I0601 12:02:41.636088 13974 net.cpp:157] Top shape: 4 512 10 10 (204800)
I0601 12:02:41.636093 13974 net.cpp:165] Memory required for data: 936439840
I0601 12:02:41.636096 13974 layer_factory.hpp:77] Creating layer conv6_2_conv6_2_relu_0_split
I0601 12:02:41.636104 13974 net.cpp:100] Creating Layer conv6_2_conv6_2_relu_0_split
I0601 12:02:41.636119 13974 net.cpp:434] conv6_2_conv6_2_relu_0_split <- conv6_2
I0601 12:02:41.636129 13974 net.cpp:408] conv6_2_conv6_2_relu_0_split -> conv6_2_conv6_2_relu_0_split_0
I0601 12:02:41.636139 13974 net.cpp:408] conv6_2_conv6_2_relu_0_split -> conv6_2_conv6_2_relu_0_split_1
I0601 12:02:41.636148 13974 net.cpp:408] conv6_2_conv6_2_relu_0_split -> conv6_2_conv6_2_relu_0_split_2
I0601 12:02:41.636157 13974 net.cpp:408] conv6_2_conv6_2_relu_0_split -> conv6_2_conv6_2_relu_0_split_3
I0601 12:02:41.636251 13974 net.cpp:150] Setting up conv6_2_conv6_2_relu_0_split
I0601 12:02:41.636261 13974 net.cpp:157] Top shape: 4 512 10 10 (204800)
I0601 12:02:41.636265 13974 net.cpp:157] Top shape: 4 512 10 10 (204800)
I0601 12:02:41.636270 13974 net.cpp:157] Top shape: 4 512 10 10 (204800)
I0601 12:02:41.636276 13974 net.cpp:157] Top shape: 4 512 10 10 (204800)
I0601 12:02:41.636278 13974 net.cpp:165] Memory required for data: 939716640
I0601 12:02:41.636282 13974 layer_factory.hpp:77] Creating layer conv7_1
I0601 12:02:41.636294 13974 net.cpp:100] Creating Layer conv7_1
I0601 12:02:41.636301 13974 net.cpp:434] conv7_1 <- conv6_2_conv6_2_relu_0_split_0
I0601 12:02:41.636309 13974 net.cpp:408] conv7_1 -> conv7_1
I0601 12:02:41.638275 13974 net.cpp:150] Setting up conv7_1
I0601 12:02:41.638294 13974 net.cpp:157] Top shape: 4 128 10 10 (51200)
I0601 12:02:41.638298 13974 net.cpp:165] Memory required for data: 939921440
I0601 12:02:41.638309 13974 layer_factory.hpp:77] Creating layer conv7_1_relu
I0601 12:02:41.638319 13974 net.cpp:100] Creating Layer conv7_1_relu
I0601 12:02:41.638324 13974 net.cpp:434] conv7_1_relu <- conv7_1
I0601 12:02:41.638331 13974 net.cpp:395] conv7_1_relu -> conv7_1 (in-place)
I0601 12:02:41.638532 13974 net.cpp:150] Setting up conv7_1_relu
I0601 12:02:41.638562 13974 net.cpp:157] Top shape: 4 128 10 10 (51200)
I0601 12:02:41.638576 13974 net.cpp:165] Memory required for data: 940126240
I0601 12:02:41.638592 13974 layer_factory.hpp:77] Creating layer conv7_2
I0601 12:02:41.638617 13974 net.cpp:100] Creating Layer conv7_2
I0601 12:02:41.638633 13974 net.cpp:434] conv7_2 <- conv7_1
I0601 12:02:41.638655 13974 net.cpp:408] conv7_2 -> conv7_2
I0601 12:02:41.642335 13974 net.cpp:150] Setting up conv7_2
I0601 12:02:41.642355 13974 net.cpp:157] Top shape: 4 256 5 5 (25600)
I0601 12:02:41.642359 13974 net.cpp:165] Memory required for data: 940228640
I0601 12:02:41.642369 13974 layer_factory.hpp:77] Creating layer conv7_2_relu
I0601 12:02:41.642379 13974 net.cpp:100] Creating Layer conv7_2_relu
I0601 12:02:41.642385 13974 net.cpp:434] conv7_2_relu <- conv7_2
I0601 12:02:41.642390 13974 net.cpp:395] conv7_2_relu -> conv7_2 (in-place)
I0601 12:02:41.642622 13974 net.cpp:150] Setting up conv7_2_relu
I0601 12:02:41.642637 13974 net.cpp:157] Top shape: 4 256 5 5 (25600)
I0601 12:02:41.642642 13974 net.cpp:165] Memory required for data: 940331040
I0601 12:02:41.642645 13974 layer_factory.hpp:77] Creating layer conv7_2_conv7_2_relu_0_split
I0601 12:02:41.642653 13974 net.cpp:100] Creating Layer conv7_2_conv7_2_relu_0_split
I0601 12:02:41.642659 13974 net.cpp:434] conv7_2_conv7_2_relu_0_split <- conv7_2
I0601 12:02:41.642670 13974 net.cpp:408] conv7_2_conv7_2_relu_0_split -> conv7_2_conv7_2_relu_0_split_0
I0601 12:02:41.642680 13974 net.cpp:408] conv7_2_conv7_2_relu_0_split -> conv7_2_conv7_2_relu_0_split_1
I0601 12:02:41.642690 13974 net.cpp:408] conv7_2_conv7_2_relu_0_split -> conv7_2_conv7_2_relu_0_split_2
I0601 12:02:41.642699 13974 net.cpp:408] conv7_2_conv7_2_relu_0_split -> conv7_2_conv7_2_relu_0_split_3
I0601 12:02:41.642808 13974 net.cpp:150] Setting up conv7_2_conv7_2_relu_0_split
I0601 12:02:41.642832 13974 net.cpp:157] Top shape: 4 256 5 5 (25600)
I0601 12:02:41.642848 13974 net.cpp:157] Top shape: 4 256 5 5 (25600)
I0601 12:02:41.642863 13974 net.cpp:157] Top shape: 4 256 5 5 (25600)
I0601 12:02:41.642877 13974 net.cpp:157] Top shape: 4 256 5 5 (25600)
I0601 12:02:41.642889 13974 net.cpp:165] Memory required for data: 940740640
I0601 12:02:41.642907 13974 layer_factory.hpp:77] Creating layer conv8_1
I0601 12:02:41.642941 13974 net.cpp:100] Creating Layer conv8_1
I0601 12:02:41.642957 13974 net.cpp:434] conv8_1 <- conv7_2_conv7_2_relu_0_split_0
I0601 12:02:41.642977 13974 net.cpp:408] conv8_1 -> conv8_1
I0601 12:02:41.644974 13974 net.cpp:150] Setting up conv8_1
I0601 12:02:41.644994 13974 net.cpp:157] Top shape: 4 128 5 5 (12800)
I0601 12:02:41.644997 13974 net.cpp:165] Memory required for data: 940791840
I0601 12:02:41.645009 13974 layer_factory.hpp:77] Creating layer conv8_1_relu
I0601 12:02:41.645020 13974 net.cpp:100] Creating Layer conv8_1_relu
I0601 12:02:41.645026 13974 net.cpp:434] conv8_1_relu <- conv8_1
I0601 12:02:41.645033 13974 net.cpp:395] conv8_1_relu -> conv8_1 (in-place)
I0601 12:02:41.645967 13974 net.cpp:150] Setting up conv8_1_relu
I0601 12:02:41.645985 13974 net.cpp:157] Top shape: 4 128 5 5 (12800)
I0601 12:02:41.645989 13974 net.cpp:165] Memory required for data: 940843040
I0601 12:02:41.645994 13974 layer_factory.hpp:77] Creating layer conv8_2
I0601 12:02:41.646013 13974 net.cpp:100] Creating Layer conv8_2
I0601 12:02:41.646018 13974 net.cpp:434] conv8_2 <- conv8_1
I0601 12:02:41.646028 13974 net.cpp:408] conv8_2 -> conv8_2
I0601 12:02:41.649777 13974 net.cpp:150] Setting up conv8_2
I0601 12:02:41.649796 13974 net.cpp:157] Top shape: 4 256 3 3 (9216)
I0601 12:02:41.649801 13974 net.cpp:165] Memory required for data: 940879904
I0601 12:02:41.649811 13974 layer_factory.hpp:77] Creating layer conv8_2_relu
I0601 12:02:41.649821 13974 net.cpp:100] Creating Layer conv8_2_relu
I0601 12:02:41.649827 13974 net.cpp:434] conv8_2_relu <- conv8_2
I0601 12:02:41.649832 13974 net.cpp:395] conv8_2_relu -> conv8_2 (in-place)
I0601 12:02:41.650068 13974 net.cpp:150] Setting up conv8_2_relu
I0601 12:02:41.650099 13974 net.cpp:157] Top shape: 4 256 3 3 (9216)
I0601 12:02:41.650113 13974 net.cpp:165] Memory required for data: 940916768
I0601 12:02:41.650127 13974 layer_factory.hpp:77] Creating layer conv8_2_conv8_2_relu_0_split
I0601 12:02:41.650144 13974 net.cpp:100] Creating Layer conv8_2_conv8_2_relu_0_split
I0601 12:02:41.650159 13974 net.cpp:434] conv8_2_conv8_2_relu_0_split <- conv8_2
I0601 12:02:41.650177 13974 net.cpp:408] conv8_2_conv8_2_relu_0_split -> conv8_2_conv8_2_relu_0_split_0
I0601 12:02:41.650197 13974 net.cpp:408] conv8_2_conv8_2_relu_0_split -> conv8_2_conv8_2_relu_0_split_1
I0601 12:02:41.650210 13974 net.cpp:408] conv8_2_conv8_2_relu_0_split -> conv8_2_conv8_2_relu_0_split_2
I0601 12:02:41.650218 13974 net.cpp:408] conv8_2_conv8_2_relu_0_split -> conv8_2_conv8_2_relu_0_split_3
I0601 12:02:41.650336 13974 net.cpp:150] Setting up conv8_2_conv8_2_relu_0_split
I0601 12:02:41.650346 13974 net.cpp:157] Top shape: 4 256 3 3 (9216)
I0601 12:02:41.650352 13974 net.cpp:157] Top shape: 4 256 3 3 (9216)
I0601 12:02:41.650358 13974 net.cpp:157] Top shape: 4 256 3 3 (9216)
I0601 12:02:41.650363 13974 net.cpp:157] Top shape: 4 256 3 3 (9216)
I0601 12:02:41.650368 13974 net.cpp:165] Memory required for data: 941064224
I0601 12:02:41.650374 13974 layer_factory.hpp:77] Creating layer conv9_1
I0601 12:02:41.650387 13974 net.cpp:100] Creating Layer conv9_1
I0601 12:02:41.650393 13974 net.cpp:434] conv9_1 <- conv8_2_conv8_2_relu_0_split_0
I0601 12:02:41.650404 13974 net.cpp:408] conv9_1 -> conv9_1
I0601 12:02:41.652377 13974 net.cpp:150] Setting up conv9_1
I0601 12:02:41.652395 13974 net.cpp:157] Top shape: 4 128 3 3 (4608)
I0601 12:02:41.652398 13974 net.cpp:165] Memory required for data: 941082656
I0601 12:02:41.652408 13974 layer_factory.hpp:77] Creating layer conv9_1_relu
I0601 12:02:41.652418 13974 net.cpp:100] Creating Layer conv9_1_relu
I0601 12:02:41.652426 13974 net.cpp:434] conv9_1_relu <- conv9_1
I0601 12:02:41.652431 13974 net.cpp:395] conv9_1_relu -> conv9_1 (in-place)
I0601 12:02:41.652648 13974 net.cpp:150] Setting up conv9_1_relu
I0601 12:02:41.652680 13974 net.cpp:157] Top shape: 4 128 3 3 (4608)
I0601 12:02:41.652695 13974 net.cpp:165] Memory required for data: 941101088
I0601 12:02:41.652709 13974 layer_factory.hpp:77] Creating layer conv9_2
I0601 12:02:41.652746 13974 net.cpp:100] Creating Layer conv9_2
I0601 12:02:41.652765 13974 net.cpp:434] conv9_2 <- conv9_1
I0601 12:02:41.652784 13974 net.cpp:408] conv9_2 -> conv9_2
I0601 12:02:41.656538 13974 net.cpp:150] Setting up conv9_2
I0601 12:02:41.656556 13974 net.cpp:157] Top shape: 4 256 1 1 (1024)
I0601 12:02:41.656560 13974 net.cpp:165] Memory required for data: 941105184
I0601 12:02:41.656570 13974 layer_factory.hpp:77] Creating layer conv9_2_relu
I0601 12:02:41.656581 13974 net.cpp:100] Creating Layer conv9_2_relu
I0601 12:02:41.656587 13974 net.cpp:434] conv9_2_relu <- conv9_2
I0601 12:02:41.656595 13974 net.cpp:395] conv9_2_relu -> conv9_2 (in-place)
I0601 12:02:41.656800 13974 net.cpp:150] Setting up conv9_2_relu
I0601 12:02:41.656832 13974 net.cpp:157] Top shape: 4 256 1 1 (1024)
I0601 12:02:41.656847 13974 net.cpp:165] Memory required for data: 941109280
I0601 12:02:41.656862 13974 layer_factory.hpp:77] Creating layer conv9_2_conv9_2_relu_0_split
I0601 12:02:41.656890 13974 net.cpp:100] Creating Layer conv9_2_conv9_2_relu_0_split
I0601 12:02:41.656906 13974 net.cpp:434] conv9_2_conv9_2_relu_0_split <- conv9_2
I0601 12:02:41.656924 13974 net.cpp:408] conv9_2_conv9_2_relu_0_split -> conv9_2_conv9_2_relu_0_split_0
I0601 12:02:41.656945 13974 net.cpp:408] conv9_2_conv9_2_relu_0_split -> conv9_2_conv9_2_relu_0_split_1
I0601 12:02:41.656965 13974 net.cpp:408] conv9_2_conv9_2_relu_0_split -> conv9_2_conv9_2_relu_0_split_2
I0601 12:02:41.657073 13974 net.cpp:150] Setting up conv9_2_conv9_2_relu_0_split
I0601 12:02:41.657095 13974 net.cpp:157] Top shape: 4 256 1 1 (1024)
I0601 12:02:41.657111 13974 net.cpp:157] Top shape: 4 256 1 1 (1024)
I0601 12:02:41.657125 13974 net.cpp:157] Top shape: 4 256 1 1 (1024)
I0601 12:02:41.657137 13974 net.cpp:165] Memory required for data: 941121568
I0601 12:02:41.657150 13974 layer_factory.hpp:77] Creating layer conv4_3_norm
I0601 12:02:41.657169 13974 net.cpp:100] Creating Layer conv4_3_norm
I0601 12:02:41.657183 13974 net.cpp:434] conv4_3_norm <- conv4_3_relu4_3_0_split_1
I0601 12:02:41.657202 13974 net.cpp:408] conv4_3_norm -> conv4_3_norm
I0601 12:02:41.657459 13974 net.cpp:150] Setting up conv4_3_norm
I0601 12:02:41.657482 13974 net.cpp:157] Top shape: 4 512 38 38 (2957312)
I0601 12:02:41.657496 13974 net.cpp:165] Memory required for data: 952950816
I0601 12:02:41.657513 13974 layer_factory.hpp:77] Creating layer conv4_3_norm_conv4_3_norm_0_split
I0601 12:02:41.657529 13974 net.cpp:100] Creating Layer conv4_3_norm_conv4_3_norm_0_split
I0601 12:02:41.657544 13974 net.cpp:434] conv4_3_norm_conv4_3_norm_0_split <- conv4_3_norm
I0601 12:02:41.657562 13974 net.cpp:408] conv4_3_norm_conv4_3_norm_0_split -> conv4_3_norm_conv4_3_norm_0_split_0
I0601 12:02:41.657579 13974 net.cpp:408] conv4_3_norm_conv4_3_norm_0_split -> conv4_3_norm_conv4_3_norm_0_split_1
I0601 12:02:41.657598 13974 net.cpp:408] conv4_3_norm_conv4_3_norm_0_split -> conv4_3_norm_conv4_3_norm_0_split_2
I0601 12:02:41.657683 13974 net.cpp:150] Setting up conv4_3_norm_conv4_3_norm_0_split
I0601 12:02:41.657701 13974 net.cpp:157] Top shape: 4 512 38 38 (2957312)
I0601 12:02:41.657717 13974 net.cpp:157] Top shape: 4 512 38 38 (2957312)
I0601 12:02:41.657730 13974 net.cpp:157] Top shape: 4 512 38 38 (2957312)
I0601 12:02:41.657743 13974 net.cpp:165] Memory required for data: 988438560
I0601 12:02:41.657755 13974 layer_factory.hpp:77] Creating layer conv4_3_norm_mbox_loc
I0601 12:02:41.657778 13974 net.cpp:100] Creating Layer conv4_3_norm_mbox_loc
I0601 12:02:41.657793 13974 net.cpp:434] conv4_3_norm_mbox_loc <- conv4_3_norm_conv4_3_norm_0_split_0
I0601 12:02:41.657810 13974 net.cpp:408] conv4_3_norm_mbox_loc -> conv4_3_norm_mbox_loc
I0601 12:02:41.660897 13974 net.cpp:150] Setting up conv4_3_norm_mbox_loc
I0601 12:02:41.660917 13974 net.cpp:157] Top shape: 4 16 38 38 (92416)
I0601 12:02:41.660922 13974 net.cpp:165] Memory required for data: 988808224
I0601 12:02:41.660933 13974 layer_factory.hpp:77] Creating layer conv4_3_norm_mbox_loc_perm
I0601 12:02:41.660946 13974 net.cpp:100] Creating Layer conv4_3_norm_mbox_loc_perm
I0601 12:02:41.660984 13974 net.cpp:434] conv4_3_norm_mbox_loc_perm <- conv4_3_norm_mbox_loc
I0601 12:02:41.661003 13974 net.cpp:408] conv4_3_norm_mbox_loc_perm -> conv4_3_norm_mbox_loc_perm
I0601 12:02:41.661208 13974 net.cpp:150] Setting up conv4_3_norm_mbox_loc_perm
I0601 12:02:41.661231 13974 net.cpp:157] Top shape: 4 38 38 16 (92416)
I0601 12:02:41.661244 13974 net.cpp:165] Memory required for data: 989177888
I0601 12:02:41.661257 13974 layer_factory.hpp:77] Creating layer conv4_3_norm_mbox_loc_flat
I0601 12:02:41.661273 13974 net.cpp:100] Creating Layer conv4_3_norm_mbox_loc_flat
I0601 12:02:41.661286 13974 net.cpp:434] conv4_3_norm_mbox_loc_flat <- conv4_3_norm_mbox_loc_perm
I0601 12:02:41.661304 13974 net.cpp:408] conv4_3_norm_mbox_loc_flat -> conv4_3_norm_mbox_loc_flat
I0601 12:02:41.661361 13974 net.cpp:150] Setting up conv4_3_norm_mbox_loc_flat
I0601 12:02:41.661371 13974 net.cpp:157] Top shape: 4 23104 (92416)
I0601 12:02:41.661375 13974 net.cpp:165] Memory required for data: 989547552
I0601 12:02:41.661379 13974 layer_factory.hpp:77] Creating layer conv4_3_norm_mbox_conf
I0601 12:02:41.661398 13974 net.cpp:100] Creating Layer conv4_3_norm_mbox_conf
I0601 12:02:41.661413 13974 net.cpp:434] conv4_3_norm_mbox_conf <- conv4_3_norm_conv4_3_norm_0_split_1
I0601 12:02:41.661429 13974 net.cpp:408] conv4_3_norm_mbox_conf -> conv4_3_norm_mbox_conf
I0601 12:02:41.664666 13974 net.cpp:150] Setting up conv4_3_norm_mbox_conf
I0601 12:02:41.664777 13974 net.cpp:157] Top shape: 4 16 38 38 (92416)
I0601 12:02:41.664794 13974 net.cpp:165] Memory required for data: 989917216
I0601 12:02:41.664816 13974 layer_factory.hpp:77] Creating layer conv4_3_norm_mbox_conf_perm
I0601 12:02:41.664840 13974 net.cpp:100] Creating Layer conv4_3_norm_mbox_conf_perm
I0601 12:02:41.664857 13974 net.cpp:434] conv4_3_norm_mbox_conf_perm <- conv4_3_norm_mbox_conf
I0601 12:02:41.664894 13974 net.cpp:408] conv4_3_norm_mbox_conf_perm -> conv4_3_norm_mbox_conf_perm
I0601 12:02:41.665117 13974 net.cpp:150] Setting up conv4_3_norm_mbox_conf_perm
I0601 12:02:41.665139 13974 net.cpp:157] Top shape: 4 38 38 16 (92416)
I0601 12:02:41.665154 13974 net.cpp:165] Memory required for data: 990286880
I0601 12:02:41.665169 13974 layer_factory.hpp:77] Creating layer conv4_3_norm_mbox_conf_flat
I0601 12:02:41.665185 13974 net.cpp:100] Creating Layer conv4_3_norm_mbox_conf_flat
I0601 12:02:41.665199 13974 net.cpp:434] conv4_3_norm_mbox_conf_flat <- conv4_3_norm_mbox_conf_perm
I0601 12:02:41.665215 13974 net.cpp:408] conv4_3_norm_mbox_conf_flat -> conv4_3_norm_mbox_conf_flat
I0601 12:02:41.665267 13974 net.cpp:150] Setting up conv4_3_norm_mbox_conf_flat
I0601 12:02:41.665288 13974 net.cpp:157] Top shape: 4 23104 (92416)
I0601 12:02:41.665302 13974 net.cpp:165] Memory required for data: 990656544
I0601 12:02:41.665315 13974 layer_factory.hpp:77] Creating layer conv4_3_norm_mbox_priorbox
I0601 12:02:41.665333 13974 net.cpp:100] Creating Layer conv4_3_norm_mbox_priorbox
I0601 12:02:41.665349 13974 net.cpp:434] conv4_3_norm_mbox_priorbox <- conv4_3_norm_conv4_3_norm_0_split_2
I0601 12:02:41.665364 13974 net.cpp:434] conv4_3_norm_mbox_priorbox <- data_data_0_split_1
I0601 12:02:41.665383 13974 net.cpp:408] conv4_3_norm_mbox_priorbox -> conv4_3_norm_mbox_priorbox
I0601 12:02:41.665439 13974 net.cpp:150] Setting up conv4_3_norm_mbox_priorbox
I0601 12:02:41.665460 13974 net.cpp:157] Top shape: 1 2 23104 (46208)
I0601 12:02:41.665473 13974 net.cpp:165] Memory required for data: 990841376
I0601 12:02:41.665488 13974 layer_factory.hpp:77] Creating layer fc7_mbox_loc
I0601 12:02:41.665509 13974 net.cpp:100] Creating Layer fc7_mbox_loc
I0601 12:02:41.665525 13974 net.cpp:434] fc7_mbox_loc <- fc7_relu7_0_split_1
I0601 12:02:41.665542 13974 net.cpp:408] fc7_mbox_loc -> fc7_mbox_loc
I0601 12:02:41.668861 13974 net.cpp:150] Setting up fc7_mbox_loc
I0601 12:02:41.668887 13974 net.cpp:157] Top shape: 4 24 19 19 (34656)
I0601 12:02:41.668891 13974 net.cpp:165] Memory required for data: 990980000
I0601 12:02:41.668901 13974 layer_factory.hpp:77] Creating layer fc7_mbox_loc_perm
I0601 12:02:41.668913 13974 net.cpp:100] Creating Layer fc7_mbox_loc_perm
I0601 12:02:41.668933 13974 net.cpp:434] fc7_mbox_loc_perm <- fc7_mbox_loc
I0601 12:02:41.668942 13974 net.cpp:408] fc7_mbox_loc_perm -> fc7_mbox_loc_perm
I0601 12:02:41.669123 13974 net.cpp:150] Setting up fc7_mbox_loc_perm
I0601 12:02:41.669149 13974 net.cpp:157] Top shape: 4 19 19 24 (34656)
I0601 12:02:41.669162 13974 net.cpp:165] Memory required for data: 991118624
I0601 12:02:41.669176 13974 layer_factory.hpp:77] Creating layer fc7_mbox_loc_flat
I0601 12:02:41.669196 13974 net.cpp:100] Creating Layer fc7_mbox_loc_flat
I0601 12:02:41.669211 13974 net.cpp:434] fc7_mbox_loc_flat <- fc7_mbox_loc_perm
I0601 12:02:41.669227 13974 net.cpp:408] fc7_mbox_loc_flat -> fc7_mbox_loc_flat
I0601 12:02:41.669283 13974 net.cpp:150] Setting up fc7_mbox_loc_flat
I0601 12:02:41.669303 13974 net.cpp:157] Top shape: 4 8664 (34656)
I0601 12:02:41.669317 13974 net.cpp:165] Memory required for data: 991257248
I0601 12:02:41.669328 13974 layer_factory.hpp:77] Creating layer fc7_mbox_conf
I0601 12:02:41.669351 13974 net.cpp:100] Creating Layer fc7_mbox_conf
I0601 12:02:41.669366 13974 net.cpp:434] fc7_mbox_conf <- fc7_relu7_0_split_2
I0601 12:02:41.669387 13974 net.cpp:408] fc7_mbox_conf -> fc7_mbox_conf
I0601 12:02:41.672871 13974 net.cpp:150] Setting up fc7_mbox_conf
I0601 12:02:41.672891 13974 net.cpp:157] Top shape: 4 24 19 19 (34656)
I0601 12:02:41.672894 13974 net.cpp:165] Memory required for data: 991395872
I0601 12:02:41.672904 13974 layer_factory.hpp:77] Creating layer fc7_mbox_conf_perm
I0601 12:02:41.672917 13974 net.cpp:100] Creating Layer fc7_mbox_conf_perm
I0601 12:02:41.672925 13974 net.cpp:434] fc7_mbox_conf_perm <- fc7_mbox_conf
I0601 12:02:41.672935 13974 net.cpp:408] fc7_mbox_conf_perm -> fc7_mbox_conf_perm
I0601 12:02:41.673115 13974 net.cpp:150] Setting up fc7_mbox_conf_perm
I0601 12:02:41.673126 13974 net.cpp:157] Top shape: 4 19 19 24 (34656)
I0601 12:02:41.673131 13974 net.cpp:165] Memory required for data: 991534496
I0601 12:02:41.673135 13974 layer_factory.hpp:77] Creating layer fc7_mbox_conf_flat
I0601 12:02:41.673146 13974 net.cpp:100] Creating Layer fc7_mbox_conf_flat
I0601 12:02:41.673151 13974 net.cpp:434] fc7_mbox_conf_flat <- fc7_mbox_conf_perm
I0601 12:02:41.673159 13974 net.cpp:408] fc7_mbox_conf_flat -> fc7_mbox_conf_flat
I0601 12:02:41.673195 13974 net.cpp:150] Setting up fc7_mbox_conf_flat
I0601 12:02:41.673219 13974 net.cpp:157] Top shape: 4 8664 (34656)
I0601 12:02:41.673233 13974 net.cpp:165] Memory required for data: 991673120
I0601 12:02:41.673247 13974 layer_factory.hpp:77] Creating layer fc7_mbox_priorbox
I0601 12:02:41.673265 13974 net.cpp:100] Creating Layer fc7_mbox_priorbox
I0601 12:02:41.673280 13974 net.cpp:434] fc7_mbox_priorbox <- fc7_relu7_0_split_3
I0601 12:02:41.673295 13974 net.cpp:434] fc7_mbox_priorbox <- data_data_0_split_2
I0601 12:02:41.673312 13974 net.cpp:408] fc7_mbox_priorbox -> fc7_mbox_priorbox
I0601 12:02:41.673370 13974 net.cpp:150] Setting up fc7_mbox_priorbox
I0601 12:02:41.673389 13974 net.cpp:157] Top shape: 1 2 8664 (17328)
I0601 12:02:41.673403 13974 net.cpp:165] Memory required for data: 991742432
I0601 12:02:41.673415 13974 layer_factory.hpp:77] Creating layer conv6_2_mbox_loc
I0601 12:02:41.673439 13974 net.cpp:100] Creating Layer conv6_2_mbox_loc
I0601 12:02:41.673454 13974 net.cpp:434] conv6_2_mbox_loc <- conv6_2_conv6_2_relu_0_split_1
I0601 12:02:41.673473 13974 net.cpp:408] conv6_2_mbox_loc -> conv6_2_mbox_loc
I0601 12:02:41.676616 13974 net.cpp:150] Setting up conv6_2_mbox_loc
I0601 12:02:41.676635 13974 net.cpp:157] Top shape: 4 24 10 10 (9600)
I0601 12:02:41.676637 13974 net.cpp:165] Memory required for data: 991780832
I0601 12:02:41.676646 13974 layer_factory.hpp:77] Creating layer conv6_2_mbox_loc_perm
I0601 12:02:41.676658 13974 net.cpp:100] Creating Layer conv6_2_mbox_loc_perm
I0601 12:02:41.676664 13974 net.cpp:434] conv6_2_mbox_loc_perm <- conv6_2_mbox_loc
I0601 12:02:41.676673 13974 net.cpp:408] conv6_2_mbox_loc_perm -> conv6_2_mbox_loc_perm
I0601 12:02:41.676846 13974 net.cpp:150] Setting up conv6_2_mbox_loc_perm
I0601 12:02:41.676889 13974 net.cpp:157] Top shape: 4 10 10 24 (9600)
I0601 12:02:41.676903 13974 net.cpp:165] Memory required for data: 991819232
I0601 12:02:41.676918 13974 layer_factory.hpp:77] Creating layer conv6_2_mbox_loc_flat
I0601 12:02:41.676936 13974 net.cpp:100] Creating Layer conv6_2_mbox_loc_flat
I0601 12:02:41.676951 13974 net.cpp:434] conv6_2_mbox_loc_flat <- conv6_2_mbox_loc_perm
I0601 12:02:41.676969 13974 net.cpp:408] conv6_2_mbox_loc_flat -> conv6_2_mbox_loc_flat
I0601 12:02:41.677022 13974 net.cpp:150] Setting up conv6_2_mbox_loc_flat
I0601 12:02:41.677042 13974 net.cpp:157] Top shape: 4 2400 (9600)
I0601 12:02:41.677055 13974 net.cpp:165] Memory required for data: 991857632
I0601 12:02:41.677068 13974 layer_factory.hpp:77] Creating layer conv6_2_mbox_conf
I0601 12:02:41.677090 13974 net.cpp:100] Creating Layer conv6_2_mbox_conf
I0601 12:02:41.677105 13974 net.cpp:434] conv6_2_mbox_conf <- conv6_2_conv6_2_relu_0_split_2
I0601 12:02:41.677124 13974 net.cpp:408] conv6_2_mbox_conf -> conv6_2_mbox_conf
I0601 12:02:41.680228 13974 net.cpp:150] Setting up conv6_2_mbox_conf
I0601 12:02:41.680245 13974 net.cpp:157] Top shape: 4 24 10 10 (9600)
I0601 12:02:41.680248 13974 net.cpp:165] Memory required for data: 991896032
I0601 12:02:41.680259 13974 layer_factory.hpp:77] Creating layer conv6_2_mbox_conf_perm
I0601 12:02:41.680271 13974 net.cpp:100] Creating Layer conv6_2_mbox_conf_perm
I0601 12:02:41.680276 13974 net.cpp:434] conv6_2_mbox_conf_perm <- conv6_2_mbox_conf
I0601 12:02:41.680285 13974 net.cpp:408] conv6_2_mbox_conf_perm -> conv6_2_mbox_conf_perm
I0601 12:02:41.680461 13974 net.cpp:150] Setting up conv6_2_mbox_conf_perm
I0601 12:02:41.680487 13974 net.cpp:157] Top shape: 4 10 10 24 (9600)
I0601 12:02:41.680501 13974 net.cpp:165] Memory required for data: 991934432
I0601 12:02:41.680515 13974 layer_factory.hpp:77] Creating layer conv6_2_mbox_conf_flat
I0601 12:02:41.680533 13974 net.cpp:100] Creating Layer conv6_2_mbox_conf_flat
I0601 12:02:41.680548 13974 net.cpp:434] conv6_2_mbox_conf_flat <- conv6_2_mbox_conf_perm
I0601 12:02:41.680564 13974 net.cpp:408] conv6_2_mbox_conf_flat -> conv6_2_mbox_conf_flat
I0601 12:02:41.680615 13974 net.cpp:150] Setting up conv6_2_mbox_conf_flat
I0601 12:02:41.680635 13974 net.cpp:157] Top shape: 4 2400 (9600)
I0601 12:02:41.680649 13974 net.cpp:165] Memory required for data: 991972832
I0601 12:02:41.680660 13974 layer_factory.hpp:77] Creating layer conv6_2_mbox_priorbox
I0601 12:02:41.680680 13974 net.cpp:100] Creating Layer conv6_2_mbox_priorbox
I0601 12:02:41.680694 13974 net.cpp:434] conv6_2_mbox_priorbox <- conv6_2_conv6_2_relu_0_split_3
I0601 12:02:41.680709 13974 net.cpp:434] conv6_2_mbox_priorbox <- data_data_0_split_3
I0601 12:02:41.680727 13974 net.cpp:408] conv6_2_mbox_priorbox -> conv6_2_mbox_priorbox
I0601 12:02:41.680779 13974 net.cpp:150] Setting up conv6_2_mbox_priorbox
I0601 12:02:41.680800 13974 net.cpp:157] Top shape: 1 2 2400 (4800)
I0601 12:02:41.680814 13974 net.cpp:165] Memory required for data: 991992032
I0601 12:02:41.680826 13974 layer_factory.hpp:77] Creating layer conv7_2_mbox_loc
I0601 12:02:41.680850 13974 net.cpp:100] Creating Layer conv7_2_mbox_loc
I0601 12:02:41.680878 13974 net.cpp:434] conv7_2_mbox_loc <- conv7_2_conv7_2_relu_0_split_1
I0601 12:02:41.680899 13974 net.cpp:408] conv7_2_mbox_loc -> conv7_2_mbox_loc
I0601 12:02:41.683061 13974 net.cpp:150] Setting up conv7_2_mbox_loc
I0601 12:02:41.683078 13974 net.cpp:157] Top shape: 4 24 5 5 (2400)
I0601 12:02:41.683080 13974 net.cpp:165] Memory required for data: 992001632
I0601 12:02:41.683091 13974 layer_factory.hpp:77] Creating layer conv7_2_mbox_loc_perm
I0601 12:02:41.683104 13974 net.cpp:100] Creating Layer conv7_2_mbox_loc_perm
I0601 12:02:41.683109 13974 net.cpp:434] conv7_2_mbox_loc_perm <- conv7_2_mbox_loc
I0601 12:02:41.683118 13974 net.cpp:408] conv7_2_mbox_loc_perm -> conv7_2_mbox_loc_perm
I0601 12:02:41.683307 13974 net.cpp:150] Setting up conv7_2_mbox_loc_perm
I0601 12:02:41.683336 13974 net.cpp:157] Top shape: 4 5 5 24 (2400)
I0601 12:02:41.683357 13974 net.cpp:165] Memory required for data: 992011232
I0601 12:02:41.683380 13974 layer_factory.hpp:77] Creating layer conv7_2_mbox_loc_flat
I0601 12:02:41.683398 13974 net.cpp:100] Creating Layer conv7_2_mbox_loc_flat
I0601 12:02:41.683413 13974 net.cpp:434] conv7_2_mbox_loc_flat <- conv7_2_mbox_loc_perm
I0601 12:02:41.683431 13974 net.cpp:408] conv7_2_mbox_loc_flat -> conv7_2_mbox_loc_flat
I0601 12:02:41.683481 13974 net.cpp:150] Setting up conv7_2_mbox_loc_flat
I0601 12:02:41.683501 13974 net.cpp:157] Top shape: 4 600 (2400)
I0601 12:02:41.683512 13974 net.cpp:165] Memory required for data: 992020832
I0601 12:02:41.683526 13974 layer_factory.hpp:77] Creating layer conv7_2_mbox_conf
I0601 12:02:41.683550 13974 net.cpp:100] Creating Layer conv7_2_mbox_conf
I0601 12:02:41.683565 13974 net.cpp:434] conv7_2_mbox_conf <- conv7_2_conv7_2_relu_0_split_2
I0601 12:02:41.683584 13974 net.cpp:408] conv7_2_mbox_conf -> conv7_2_mbox_conf
I0601 12:02:41.686300 13974 net.cpp:150] Setting up conv7_2_mbox_conf
I0601 12:02:41.686317 13974 net.cpp:157] Top shape: 4 24 5 5 (2400)
I0601 12:02:41.686321 13974 net.cpp:165] Memory required for data: 992030432
I0601 12:02:41.686331 13974 layer_factory.hpp:77] Creating layer conv7_2_mbox_conf_perm
I0601 12:02:41.686341 13974 net.cpp:100] Creating Layer conv7_2_mbox_conf_perm
I0601 12:02:41.686345 13974 net.cpp:434] conv7_2_mbox_conf_perm <- conv7_2_mbox_conf
I0601 12:02:41.686355 13974 net.cpp:408] conv7_2_mbox_conf_perm -> conv7_2_mbox_conf_perm
I0601 12:02:41.686539 13974 net.cpp:150] Setting up conv7_2_mbox_conf_perm
I0601 12:02:41.686566 13974 net.cpp:157] Top shape: 4 5 5 24 (2400)
I0601 12:02:41.686581 13974 net.cpp:165] Memory required for data: 992040032
I0601 12:02:41.686594 13974 layer_factory.hpp:77] Creating layer conv7_2_mbox_conf_flat
I0601 12:02:41.686611 13974 net.cpp:100] Creating Layer conv7_2_mbox_conf_flat
I0601 12:02:41.686628 13974 net.cpp:434] conv7_2_mbox_conf_flat <- conv7_2_mbox_conf_perm
I0601 12:02:41.686646 13974 net.cpp:408] conv7_2_mbox_conf_flat -> conv7_2_mbox_conf_flat
I0601 12:02:41.686700 13974 net.cpp:150] Setting up conv7_2_mbox_conf_flat
I0601 12:02:41.686719 13974 net.cpp:157] Top shape: 4 600 (2400)
I0601 12:02:41.686731 13974 net.cpp:165] Memory required for data: 992049632
I0601 12:02:41.686745 13974 layer_factory.hpp:77] Creating layer conv7_2_mbox_priorbox
I0601 12:02:41.686763 13974 net.cpp:100] Creating Layer conv7_2_mbox_priorbox
I0601 12:02:41.686779 13974 net.cpp:434] conv7_2_mbox_priorbox <- conv7_2_conv7_2_relu_0_split_3
I0601 12:02:41.686794 13974 net.cpp:434] conv7_2_mbox_priorbox <- data_data_0_split_4
I0601 12:02:41.686811 13974 net.cpp:408] conv7_2_mbox_priorbox -> conv7_2_mbox_priorbox
I0601 12:02:41.686863 13974 net.cpp:150] Setting up conv7_2_mbox_priorbox
I0601 12:02:41.686882 13974 net.cpp:157] Top shape: 1 2 600 (1200)
I0601 12:02:41.686895 13974 net.cpp:165] Memory required for data: 992054432
I0601 12:02:41.686908 13974 layer_factory.hpp:77] Creating layer conv8_2_mbox_loc
I0601 12:02:41.686931 13974 net.cpp:100] Creating Layer conv8_2_mbox_loc
I0601 12:02:41.686947 13974 net.cpp:434] conv8_2_mbox_loc <- conv8_2_conv8_2_relu_0_split_1
I0601 12:02:41.686965 13974 net.cpp:408] conv8_2_mbox_loc -> conv8_2_mbox_loc
I0601 12:02:41.689213 13974 net.cpp:150] Setting up conv8_2_mbox_loc
I0601 12:02:41.689231 13974 net.cpp:157] Top shape: 4 16 3 3 (576)
I0601 12:02:41.689234 13974 net.cpp:165] Memory required for data: 992056736
I0601 12:02:41.689256 13974 layer_factory.hpp:77] Creating layer conv8_2_mbox_loc_perm
I0601 12:02:41.689270 13974 net.cpp:100] Creating Layer conv8_2_mbox_loc_perm
I0601 12:02:41.689291 13974 net.cpp:434] conv8_2_mbox_loc_perm <- conv8_2_mbox_loc
I0601 12:02:41.689307 13974 net.cpp:408] conv8_2_mbox_loc_perm -> conv8_2_mbox_loc_perm
I0601 12:02:41.689457 13974 net.cpp:150] Setting up conv8_2_mbox_loc_perm
I0601 12:02:41.689467 13974 net.cpp:157] Top shape: 4 3 3 16 (576)
I0601 12:02:41.689471 13974 net.cpp:165] Memory required for data: 992059040
I0601 12:02:41.689474 13974 layer_factory.hpp:77] Creating layer conv8_2_mbox_loc_flat
I0601 12:02:41.689494 13974 net.cpp:100] Creating Layer conv8_2_mbox_loc_flat
I0601 12:02:41.689510 13974 net.cpp:434] conv8_2_mbox_loc_flat <- conv8_2_mbox_loc_perm
I0601 12:02:41.689527 13974 net.cpp:408] conv8_2_mbox_loc_flat -> conv8_2_mbox_loc_flat
I0601 12:02:41.689577 13974 net.cpp:150] Setting up conv8_2_mbox_loc_flat
I0601 12:02:41.689585 13974 net.cpp:157] Top shape: 4 144 (576)
I0601 12:02:41.689589 13974 net.cpp:165] Memory required for data: 992061344
I0601 12:02:41.689594 13974 layer_factory.hpp:77] Creating layer conv8_2_mbox_conf
I0601 12:02:41.689606 13974 net.cpp:100] Creating Layer conv8_2_mbox_conf
I0601 12:02:41.689621 13974 net.cpp:434] conv8_2_mbox_conf <- conv8_2_conv8_2_relu_0_split_2
I0601 12:02:41.689631 13974 net.cpp:408] conv8_2_mbox_conf -> conv8_2_mbox_conf
I0601 12:02:41.691815 13974 net.cpp:150] Setting up conv8_2_mbox_conf
I0601 12:02:41.691866 13974 net.cpp:157] Top shape: 4 16 3 3 (576)
I0601 12:02:41.691882 13974 net.cpp:165] Memory required for data: 992063648
I0601 12:02:41.691905 13974 layer_factory.hpp:77] Creating layer conv8_2_mbox_conf_perm
I0601 12:02:41.691926 13974 net.cpp:100] Creating Layer conv8_2_mbox_conf_perm
I0601 12:02:41.691941 13974 net.cpp:434] conv8_2_mbox_conf_perm <- conv8_2_mbox_conf
I0601 12:02:41.691959 13974 net.cpp:408] conv8_2_mbox_conf_perm -> conv8_2_mbox_conf_perm
I0601 12:02:41.692173 13974 net.cpp:150] Setting up conv8_2_mbox_conf_perm
I0601 12:02:41.692198 13974 net.cpp:157] Top shape: 4 3 3 16 (576)
I0601 12:02:41.692211 13974 net.cpp:165] Memory required for data: 992065952
I0601 12:02:41.692224 13974 layer_factory.hpp:77] Creating layer conv8_2_mbox_conf_flat
I0601 12:02:41.692241 13974 net.cpp:100] Creating Layer conv8_2_mbox_conf_flat
I0601 12:02:41.692255 13974 net.cpp:434] conv8_2_mbox_conf_flat <- conv8_2_mbox_conf_perm
I0601 12:02:41.692273 13974 net.cpp:408] conv8_2_mbox_conf_flat -> conv8_2_mbox_conf_flat
I0601 12:02:41.692338 13974 net.cpp:150] Setting up conv8_2_mbox_conf_flat
I0601 12:02:41.692359 13974 net.cpp:157] Top shape: 4 144 (576)
I0601 12:02:41.692386 13974 net.cpp:165] Memory required for data: 992068256
I0601 12:02:41.692392 13974 layer_factory.hpp:77] Creating layer conv8_2_mbox_priorbox
I0601 12:02:41.692400 13974 net.cpp:100] Creating Layer conv8_2_mbox_priorbox
I0601 12:02:41.692405 13974 net.cpp:434] conv8_2_mbox_priorbox <- conv8_2_conv8_2_relu_0_split_3
I0601 12:02:41.692412 13974 net.cpp:434] conv8_2_mbox_priorbox <- data_data_0_split_5
I0601 12:02:41.692421 13974 net.cpp:408] conv8_2_mbox_priorbox -> conv8_2_mbox_priorbox
I0601 12:02:41.692467 13974 net.cpp:150] Setting up conv8_2_mbox_priorbox
I0601 12:02:41.692488 13974 net.cpp:157] Top shape: 1 2 144 (288)
I0601 12:02:41.692500 13974 net.cpp:165] Memory required for data: 992069408
I0601 12:02:41.692513 13974 layer_factory.hpp:77] Creating layer conv9_2_mbox_loc
I0601 12:02:41.692530 13974 net.cpp:100] Creating Layer conv9_2_mbox_loc
I0601 12:02:41.692546 13974 net.cpp:434] conv9_2_mbox_loc <- conv9_2_conv9_2_relu_0_split_0
I0601 12:02:41.692555 13974 net.cpp:408] conv9_2_mbox_loc -> conv9_2_mbox_loc
I0601 12:02:41.695170 13974 net.cpp:150] Setting up conv9_2_mbox_loc
I0601 12:02:41.695186 13974 net.cpp:157] Top shape: 4 16 1 1 (64)
I0601 12:02:41.695188 13974 net.cpp:165] Memory required for data: 992069664
I0601 12:02:41.695197 13974 layer_factory.hpp:77] Creating layer conv9_2_mbox_loc_perm
I0601 12:02:41.695205 13974 net.cpp:100] Creating Layer conv9_2_mbox_loc_perm
I0601 12:02:41.695209 13974 net.cpp:434] conv9_2_mbox_loc_perm <- conv9_2_mbox_loc
I0601 12:02:41.695217 13974 net.cpp:408] conv9_2_mbox_loc_perm -> conv9_2_mbox_loc_perm
I0601 12:02:41.695333 13974 net.cpp:150] Setting up conv9_2_mbox_loc_perm
I0601 12:02:41.695341 13974 net.cpp:157] Top shape: 4 1 1 16 (64)
I0601 12:02:41.695344 13974 net.cpp:165] Memory required for data: 992069920
I0601 12:02:41.695348 13974 layer_factory.hpp:77] Creating layer conv9_2_mbox_loc_flat
I0601 12:02:41.695353 13974 net.cpp:100] Creating Layer conv9_2_mbox_loc_flat
I0601 12:02:41.695371 13974 net.cpp:434] conv9_2_mbox_loc_flat <- conv9_2_mbox_loc_perm
I0601 12:02:41.695389 13974 net.cpp:408] conv9_2_mbox_loc_flat -> conv9_2_mbox_loc_flat
I0601 12:02:41.695430 13974 net.cpp:150] Setting up conv9_2_mbox_loc_flat
I0601 12:02:41.695436 13974 net.cpp:157] Top shape: 4 16 (64)
I0601 12:02:41.695441 13974 net.cpp:165] Memory required for data: 992070176
I0601 12:02:41.695443 13974 layer_factory.hpp:77] Creating layer conv9_2_mbox_conf
I0601 12:02:41.695456 13974 net.cpp:100] Creating Layer conv9_2_mbox_conf
I0601 12:02:41.695461 13974 net.cpp:434] conv9_2_mbox_conf <- conv9_2_conv9_2_relu_0_split_1
I0601 12:02:41.695468 13974 net.cpp:408] conv9_2_mbox_conf -> conv9_2_mbox_conf
I0601 12:02:41.698063 13974 net.cpp:150] Setting up conv9_2_mbox_conf
I0601 12:02:41.698082 13974 net.cpp:157] Top shape: 4 16 1 1 (64)
I0601 12:02:41.698086 13974 net.cpp:165] Memory required for data: 992070432
I0601 12:02:41.698094 13974 layer_factory.hpp:77] Creating layer conv9_2_mbox_conf_perm
I0601 12:02:41.698107 13974 net.cpp:100] Creating Layer conv9_2_mbox_conf_perm
I0601 12:02:41.698114 13974 net.cpp:434] conv9_2_mbox_conf_perm <- conv9_2_mbox_conf
I0601 12:02:41.698122 13974 net.cpp:408] conv9_2_mbox_conf_perm -> conv9_2_mbox_conf_perm
I0601 12:02:41.698307 13974 net.cpp:150] Setting up conv9_2_mbox_conf_perm
I0601 12:02:41.698335 13974 net.cpp:157] Top shape: 4 1 1 16 (64)
I0601 12:02:41.698349 13974 net.cpp:165] Memory required for data: 992070688
I0601 12:02:41.698364 13974 layer_factory.hpp:77] Creating layer conv9_2_mbox_conf_flat
I0601 12:02:41.698382 13974 net.cpp:100] Creating Layer conv9_2_mbox_conf_flat
I0601 12:02:41.698397 13974 net.cpp:434] conv9_2_mbox_conf_flat <- conv9_2_mbox_conf_perm
I0601 12:02:41.698415 13974 net.cpp:408] conv9_2_mbox_conf_flat -> conv9_2_mbox_conf_flat
I0601 12:02:41.698629 13974 net.cpp:150] Setting up conv9_2_mbox_conf_flat
I0601 12:02:41.698653 13974 net.cpp:157] Top shape: 4 16 (64)
I0601 12:02:41.698667 13974 net.cpp:165] Memory required for data: 992070944
I0601 12:02:41.698680 13974 layer_factory.hpp:77] Creating layer conv9_2_mbox_priorbox
I0601 12:02:41.698700 13974 net.cpp:100] Creating Layer conv9_2_mbox_priorbox
I0601 12:02:41.698716 13974 net.cpp:434] conv9_2_mbox_priorbox <- conv9_2_conv9_2_relu_0_split_2
I0601 12:02:41.698731 13974 net.cpp:434] conv9_2_mbox_priorbox <- data_data_0_split_6
I0601 12:02:41.698748 13974 net.cpp:408] conv9_2_mbox_priorbox -> conv9_2_mbox_priorbox
I0601 12:02:41.698817 13974 net.cpp:150] Setting up conv9_2_mbox_priorbox
I0601 12:02:41.698835 13974 net.cpp:157] Top shape: 1 2 16 (32)
I0601 12:02:41.698849 13974 net.cpp:165] Memory required for data: 992071072
I0601 12:02:41.698863 13974 layer_factory.hpp:77] Creating layer mbox_loc
I0601 12:02:41.698881 13974 net.cpp:100] Creating Layer mbox_loc
I0601 12:02:41.698896 13974 net.cpp:434] mbox_loc <- conv4_3_norm_mbox_loc_flat
I0601 12:02:41.698961 13974 net.cpp:434] mbox_loc <- fc7_mbox_loc_flat
I0601 12:02:41.699009 13974 net.cpp:434] mbox_loc <- conv6_2_mbox_loc_flat
I0601 12:02:41.699028 13974 net.cpp:434] mbox_loc <- conv7_2_mbox_loc_flat
I0601 12:02:41.699043 13974 net.cpp:434] mbox_loc <- conv8_2_mbox_loc_flat
I0601 12:02:41.699057 13974 net.cpp:434] mbox_loc <- conv9_2_mbox_loc_flat
I0601 12:02:41.699074 13974 net.cpp:408] mbox_loc -> mbox_loc
I0601 12:02:41.699141 13974 net.cpp:150] Setting up mbox_loc
I0601 12:02:41.699162 13974 net.cpp:157] Top shape: 4 34928 (139712)
I0601 12:02:41.699174 13974 net.cpp:165] Memory required for data: 992629920
I0601 12:02:41.699188 13974 layer_factory.hpp:77] Creating layer mbox_conf
I0601 12:02:41.699203 13974 net.cpp:100] Creating Layer mbox_conf
I0601 12:02:41.699218 13974 net.cpp:434] mbox_conf <- conv4_3_norm_mbox_conf_flat
I0601 12:02:41.699232 13974 net.cpp:434] mbox_conf <- fc7_mbox_conf_flat
I0601 12:02:41.699249 13974 net.cpp:434] mbox_conf <- conv6_2_mbox_conf_flat
I0601 12:02:41.699265 13974 net.cpp:434] mbox_conf <- conv7_2_mbox_conf_flat
I0601 12:02:41.699280 13974 net.cpp:434] mbox_conf <- conv8_2_mbox_conf_flat
I0601 12:02:41.699301 13974 net.cpp:434] mbox_conf <- conv9_2_mbox_conf_flat
I0601 12:02:41.699327 13974 net.cpp:408] mbox_conf -> mbox_conf
I0601 12:02:41.699496 13974 net.cpp:150] Setting up mbox_conf
I0601 12:02:41.699507 13974 net.cpp:157] Top shape: 4 34928 (139712)
I0601 12:02:41.699512 13974 net.cpp:165] Memory required for data: 993188768
I0601 12:02:41.699515 13974 layer_factory.hpp:77] Creating layer mbox_priorbox
I0601 12:02:41.699525 13974 net.cpp:100] Creating Layer mbox_priorbox
I0601 12:02:41.699532 13974 net.cpp:434] mbox_priorbox <- conv4_3_norm_mbox_priorbox
I0601 12:02:41.699538 13974 net.cpp:434] mbox_priorbox <- fc7_mbox_priorbox
I0601 12:02:41.699545 13974 net.cpp:434] mbox_priorbox <- conv6_2_mbox_priorbox
I0601 12:02:41.699551 13974 net.cpp:434] mbox_priorbox <- conv7_2_mbox_priorbox
I0601 12:02:41.699558 13974 net.cpp:434] mbox_priorbox <- conv8_2_mbox_priorbox
I0601 12:02:41.699563 13974 net.cpp:434] mbox_priorbox <- conv9_2_mbox_priorbox
I0601 12:02:41.699570 13974 net.cpp:408] mbox_priorbox -> mbox_priorbox
I0601 12:02:41.699610 13974 net.cpp:150] Setting up mbox_priorbox
I0601 12:02:41.699620 13974 net.cpp:157] Top shape: 1 2 34928 (69856)
I0601 12:02:41.699635 13974 net.cpp:165] Memory required for data: 993468192
I0601 12:02:41.699650 13974 layer_factory.hpp:77] Creating layer mbox_conf_reshape
I0601 12:02:41.699669 13974 net.cpp:100] Creating Layer mbox_conf_reshape
I0601 12:02:41.699683 13974 net.cpp:434] mbox_conf_reshape <- mbox_conf
I0601 12:02:41.699699 13974 net.cpp:408] mbox_conf_reshape -> mbox_conf_reshape
I0601 12:02:41.699750 13974 net.cpp:150] Setting up mbox_conf_reshape
I0601 12:02:41.699760 13974 net.cpp:157] Top shape: 4 8732 4 (139712)
I0601 12:02:41.699764 13974 net.cpp:165] Memory required for data: 994027040
I0601 12:02:41.699769 13974 layer_factory.hpp:77] Creating layer mbox_conf_softmax
I0601 12:02:41.699775 13974 net.cpp:100] Creating Layer mbox_conf_softmax
I0601 12:02:41.699780 13974 net.cpp:434] mbox_conf_softmax <- mbox_conf_reshape
I0601 12:02:41.699787 13974 net.cpp:408] mbox_conf_softmax -> mbox_conf_softmax
I0601 12:02:41.700147 13974 net.cpp:150] Setting up mbox_conf_softmax
I0601 12:02:41.700157 13974 net.cpp:157] Top shape: 4 8732 4 (139712)
I0601 12:02:41.700161 13974 net.cpp:165] Memory required for data: 994585888
I0601 12:02:41.700165 13974 layer_factory.hpp:77] Creating layer mbox_conf_flatten
I0601 12:02:41.700172 13974 net.cpp:100] Creating Layer mbox_conf_flatten
I0601 12:02:41.700176 13974 net.cpp:434] mbox_conf_flatten <- mbox_conf_softmax
I0601 12:02:41.700183 13974 net.cpp:408] mbox_conf_flatten -> mbox_conf_flatten
I0601 12:02:41.700215 13974 net.cpp:150] Setting up mbox_conf_flatten
I0601 12:02:41.700222 13974 net.cpp:157] Top shape: 4 34928 (139712)
I0601 12:02:41.700223 13974 net.cpp:165] Memory required for data: 995144736
I0601 12:02:41.700227 13974 layer_factory.hpp:77] Creating layer detection_out
I0601 12:02:41.700237 13974 net.cpp:100] Creating Layer detection_out
I0601 12:02:41.700238 13974 net.cpp:434] detection_out <- mbox_loc
I0601 12:02:41.700242 13974 net.cpp:434] detection_out <- mbox_conf_flatten
I0601 12:02:41.700244 13974 net.cpp:434] detection_out <- mbox_priorbox
I0601 12:02:41.700249 13974 net.cpp:408] detection_out -> detection_out
I0601 12:02:41.702204 13974 net.cpp:150] Setting up detection_out
I0601 12:02:41.702225 13974 net.cpp:157] Top shape: 1 1 1 7 (7)
I0601 12:02:41.702229 13974 net.cpp:165] Memory required for data: 995144764
I0601 12:02:41.702234 13974 layer_factory.hpp:77] Creating layer detection_eval
I0601 12:02:41.702246 13974 net.cpp:100] Creating Layer detection_eval
I0601 12:02:41.702252 13974 net.cpp:434] detection_eval <- detection_out
I0601 12:02:41.702260 13974 net.cpp:434] detection_eval <- label
I0601 12:02:41.702266 13974 net.cpp:408] detection_eval -> detection_eval
I0601 12:02:41.703542 13974 net.cpp:150] Setting up detection_eval
I0601 12:02:41.703557 13974 net.cpp:157] Top shape: 1 1 4 5 (20)
I0601 12:02:41.703562 13974 net.cpp:165] Memory required for data: 995144844
I0601 12:02:41.703567 13974 net.cpp:228] detection_eval does not need backward computation.
I0601 12:02:41.703588 13974 net.cpp:228] detection_out does not need backward computation.
I0601 12:02:41.703593 13974 net.cpp:228] mbox_conf_flatten does not need backward computation.
I0601 12:02:41.703598 13974 net.cpp:228] mbox_conf_softmax does not need backward computation.
…
