…
        min_scale: 0.3
        max_scale: 1
        min_aspect_ratio: 0.5
        max_aspect_ratio: 2
      }
      sample_constraint {
        min_jaccard_overlap: 0.9
      }
      max_sample: 1
      max_trials: 50
    }
    batch_sampler {
      sampler {
        min_scale: 0.3
        max_scale: 1
        min_aspect_ratio: 0.5
        max_aspect_ratio: 2
      }
      sample_constraint {
        max_jaccard_overlap: 1
      }
      max_sample: 1
      max_trials: 50
    }
    label_map_file: "data/tbs_300x300_HSIL_10x/labelmap_voc.prototxt"
  }
}
layer {
  name: "conv1_1"
  type: "Convolution"
  bottom: "data"
  top: "conv1_1"
  param {
    lr_mult: 1
    decay_mult: 1
  }
  param {
    lr_mult: 2
    decay_mult: 0
  }
  convolution_param {
    num_output: 64
    pad: 1
    kernel_size: 3
    weight_filler {
      type: "xavier"
    }
    bias_filler {
      type: "constant"
      value: 0
    }
  }
}
layer {
  name: "relu1_1"
  type: "ReLU"
  bottom: "conv1_1"
  top: "conv1_1"
}
layer {
  name: "conv1_2"
  type: "Convolution"
  bottom: "conv1_1"
  top: "conv1_2"
  param {
    lr_mult: 1
    decay_mult: 1
  }
  param {
    lr_mult: 2
    decay_mult: 0
  }
  convolution_param {
    num_output: 64
    pad: 1
    kernel_size: 3
    weight_filler {
      type: "xavier"
    }
    bias_filler {
      type: "constant"
      value: 0
    }
  }
}
layer {
  name: "relu1_2"
  type: "ReLU"
  bottom: "conv1_2"
  top: "conv1_2"
}
layer {
  name: "pool1"
  type: "Pooling"
  bottom: "conv1_2"
  top: "pool1"
  pooling_param {
    pool: MAX
    kernel_size: 2
    stride: 2
  }
}
layer {
  name: "conv2_1"
  type: "Convolution"
  bottom: "pool1"
  top: "conv2_1"
  param {
    lr_mult: 1
    decay_mult: 1
  }
  param {
    lr_mult: 2
    decay_mult: 0
  }
  convolution_param {
    num_output: 128
    pad: 1
    kernel_size: 3
    weight_filler {
      type: "xavier"
    }
    bias_filler {
      type: "constant"
      value: 0
    }
  }
}
layer {
  name: "relu2_1"
  type: "ReLU"
  bottom: "conv2_1"
  top: "conv2_1"
}
layer {
  name: "conv2_2"
  type: "Convolution"
  bottom: "conv2_1"
  top: "conv2_2"
  param {
    lr_mult: 1
    decay_mult: 1
  }
  param {
    lr_mult: 2
    decay_mult: 0
  }
  convolution_param {
    num_output: 128
    pad: 1
    kernel_size: 3
    weight_filler {
      type: "xavier"
    }
    bias_filler {
      type: "constant"
      value: 0
    }
  }
}
layer {
  name: "relu2_2"
  type: "ReLU"
  bottom: "conv2_2"
  top: "conv2_2"
}
layer {
  name: "pool2"
  type: "Pooling"
  bottom: "conv2_2"
  top: "pool2"
  pooling_param {
    pool: MAX
    kernel_size: 2
    stride: 2
  }
}
layer {
  name: "conv3_1"
  type: "Convolution"
  bottom: "pool2"
  top: "conv3_1"
  param {
    lr_mult: 1
    decay_mult: 1
  }
  param {
    lr_mult: 2
    decay_mult: 0
  }
  convolution_param {
    num_output: 256
    pad: 1
    kernel_size: 3
    weight_filler {
      type: "xavier"
    }
    bias_filler {
      type: "constant"
      value: 0
    }
  }
}
layer {
  name: "relu3_1"
  type: "ReLU"
  bottom: "conv3_1"
  top: "conv3_1"
}
layer {
  name: "conv3_2"
  type: "Convolution"
  bottom: "conv3_1"
  top: "conv3_2"
  param {
    lr_mult: 1
    decay_mult: 1
  }
  param {
    lr_mult: 2
    decay_mult: 0
  }
  convolution_param {
    num_output: 256
    pad: 1
    kernel_size: 3
    weight_filler {
      type: "xavier"
    }
    bias_filler {
      type: "constant"
      value: 0
    }
  }
}
layer {
  name: "relu3_2"
  type: "ReLU"
  bottom: "conv3_2"
  top: "conv3_2"
}
layer {
  name: "conv3_3"
  type: "Convolution"
  bottom: "conv3_2"
  top: "conv3_3"
  param {
    lr_mult: 1
    decay_mult: 1
  }
  param {
    lr_mult: 2
    decay_mult: 0
  }
  convolution_param {
    num_output: 256
    pad: 1
    kernel_size: 3
    weight_filler {
      type: "xavier"
    }
    bias_filler {
      type: "constant"
      value: 0
    }
  }
}
layer {
  name: "relu3_3"
  type: "ReLU"
  bottom: "conv3_3"
  top: "conv3_3"
}
layer {
  name: "pool3"
  type: "Pooling"
  bottom: "conv3_3"
  top: "pool3"
  pooling_param {
    pool: MAX
    kernel_size: 2
    stride: 2
  }
}
layer {
  name: "conv4_1"
  type: "Convolution"
  bottom: "pool3"
  top: "conv4_1"
  param {
    lr_mult: 1
    decay_mult: 1
  }
  param {
    lr_mult: 2
    decay_mult: 0
  }
  convolution_param {
    num_output: 512
    pad: 1
    kernel_size: 3
    weight_filler {
      type: "xavier"
    }
    bias_filler {
      type: "constant"
      value: 0
    }
  }
}
layer {
  name: "relu4_1"
  type: "ReLU"
  bottom: "conv4_1"
  top: "conv4_1"
}
layer {
  name: "conv4_2"
  type: "Convolution"
  bottom: "conv4_1"
  top: "conv4_2"
  param {
    lr_mult: 1
    decay_mult: 1
  }
  param {
    lr_mult: 2
    decay_mult: 0
  }
  convolution_param {
    num_output: 512
    pad: 1
    kernel_size: 3
    weight_filler {
      type: "xavier"
    }
    bias_filler {
      type: "constant"
      value: 0
    }
  }
}
layer {
  name: "relu4_2"
  type: "ReLU"
  bottom: "conv4_2"
  top: "conv4_2"
}
layer {
  name: "conv4_3"
  type: "Convolution"
  bottom: "conv4_2"
  top: "conv4_3"
  param {
    lr_mult: 1
    decay_mult: 1
  }
  param {
    lr_mult: 2
    decay_mult: 0
  }
  convolution_param {
    num_output: 512
    pad: 1
    kernel_size: 3
    weight_filler {
      type: "xavier"
    }
    bias_filler {
      type: "constant"
      value: 0
    }
  }
}
layer {
  name: "relu4_3"
  type: "ReLU"
  bottom: "conv4_3"
  top: "conv4_3"
}
layer {
  name: "pool4"
  type: "Pooling"
  bottom: "conv4_3"
  top: "pool4"
  pooling_param {
    pool: MAX
    kernel_size: 2
    stride: 2
  }
}
layer {
  name: "conv5_1"
  type: "Convolution"
  bottom: "pool4"
  top: "conv5_1"
  param {
    lr_mult: 1
    decay_mult: 1
  }
  param {
    lr_mult: 2
    decay_mult: 0
  }
  convolution_param {
    num_output: 512
    pad: 1
    kernel_size: 3
    weight_filler {
      type: "xavier"
    }
    bias_filler {
      type: "constant"
      value: 0
    }
    dilation: 1
  }
}
layer {
  name: "relu5_1"
  type: "ReLU"
  bottom: "conv5_1"
  top: "conv5_1"
}
layer {
  name: "conv5_2"
  type: "Convolution"
  bottom: "conv5_1"
  top: "conv5_2"
  param {
    lr_mult: 1
    decay_mult: 1
  }
  param {
    lr_mult: 2
    decay_mult: 0
  }
  convolution_param {
    num_output: 512
    pad: 1
    kernel_size: 3
    weight_filler {
      type: "xavier"
    }
    bias_filler {
      type: "constant"
      value: 0
    }
    dilation: 1
  }
}
layer {
  name: "relu5_2"
  type: "ReLU"
  bottom: "conv5_2"
  top: "conv5_2"
}
layer {
  name: "conv5_3"
  type: "Convolution"
  bottom: "conv5_2"
  top: "conv5_3"
  param {
    lr_mult: 1
    decay_mult: 1
  }
  param {
    lr_mult: 2
    decay_mult: 0
  }
  convolution_param {
    num_output: 512
    pad: 1
    kernel_size: 3
    weight_filler {
      type: "xavier"
    }
    bias_filler {
      type: "constant"
      value: 0
    }
    dilation: 1
  }
}
layer {
  name: "relu5_3"
  type: "ReLU"
  bottom: "conv5_3"
  top: "conv5_3"
}
layer {
  name: "pool5"
  type: "Pooling"
  bottom: "conv5_3"
  top: "pool5"
  pooling_param {
    pool: MAX
    kernel_size: 3
    stride: 1
    pad: 1
  }
}
layer {
  name: "fc6"
  type: "Convolution"
  bottom: "pool5"
  top: "fc6"
  param {
    lr_mult: 1
    decay_mult: 1
  }
  param {
    lr_mult: 2
    decay_mult: 0
  }
  convolution_param {
    num_output: 1024
    pad: 6
    kernel_size: 3
    weight_filler {
      type: "xavier"
    }
    bias_filler {
      type: "constant"
      value: 0
    }
    dilation: 6
  }
}
layer {
  name: "relu6"
  type: "ReLU"
  bottom: "fc6"
  top: "fc6"
}
layer {
  name: "fc7"
  type: "Convolution"
  bottom: "fc6"
  top: "fc7"
  param {
    lr_mult: 1
    decay_mult: 1
  }
  param {
    lr_mult: 2
    decay_mult: 0
  }
  convolution_param {
    num_output: 1024
    kernel_size: 1
    weight_filler {
      type: "xavier"
    }
    bias_filler {
      type: "constant"
      value: 0
    }
  }
}
layer {
  name: "relu7"
  type: "ReLU"
  bottom: "fc7"
  top: "fc7"
}
layer {
  name: "conv6_1"
  type: "Convolution"
  bottom: "fc7"
  top: "conv6_1"
  param {
    lr_mult: 1
    decay_mult: 1
  }
  param {
    lr_mult: 2
    decay_mult: 0
  }
  convolution_param {
    num_output: 256
    pad: 0
    kernel_size: 1
    stride: 1
    weight_filler {
      type: "xavier"
    }
    bias_filler {
      type: "constant"
      value: 0
    }
  }
}
layer {
  name: "conv6_1_relu"
  type: "ReLU"
  bottom: "conv6_1"
  top: "conv6_1"
}
layer {
  name: "conv6_2"
  type: "Convolution"
  bottom: "conv6_1"
  top: "conv6_2"
  param {
    lr_mult: 1
    decay_mult: 1
  }
  param {
    lr_mult: 2
    decay_mult: 0
  }
  convolution_param {
    num_output: 512
    pad: 1
    kernel_size: 3
    stride: 2
    weight_filler {
      type: "xavier"
    }
    bias_filler {
      type: "constant"
      value: 0
    }
  }
}
layer {
  name: "conv6_2_relu"
  type: "ReLU"
  bottom: "conv6_2"
  top: "conv6_2"
}
layer {
  name: "conv7_1"
  type: "Convolution"
  bottom: "conv6_2"
  top: "conv7_1"
  param {
    lr_mult: 1
    decay_mult: 1
  }
  param {
    lr_mult: 2
    decay_mult: 0
  }
  convolution_param {
    num_output: 128
    pad: 0
    kernel_size: 1
    stride: 1
    weight_filler {
      type: "xavier"
    }
    bias_filler {
      type: "constant"
      value: 0
    }
  }
}
layer {
  name: "conv7_1_relu"
  type: "ReLU"
  bottom: "conv7_1"
  top: "conv7_1"
}
layer {
  name: "conv7_2"
  type: "Convolution"
  bottom: "conv7_1"
  top: "conv7_2"
  param {
    lr_mult: 1
    decay_mult: 1
  }
  param {
    lr_mult: 2
    decay_mult: 0
  }
  convolution_param {
    num_output: 256
    pad: 1
    kernel_size: 3
    stride: 2
    weight_filler {
      type: "xavier"
    }
    bias_filler {
      type: "constant"
      value: 0
    }
  }
}
layer {
  name: "conv7_2_relu"
  type: "ReLU"
  bottom: "conv7_2"
  top: "conv7_2"
}
layer {
  name: "conv8_1"
  type: "Convolution"
  bottom: "conv7_2"
  top: "conv8_1"
  param {
    lr_mult: 1
    decay_mult: 1
  }
  param {
    lr_mult: 2
    decay_mult: 0
  }
  convolution_param {
    num_output: 128
    pad: 0
    kernel_size: 1
    stride: 1
    weight_filler {
      type: "xavier"
    }
    bias_filler {
      type: "constant"
      value: 0
    }
  }
}
layer {
  name: "conv8_1_relu"
  type: "ReLU"
  bottom: "conv8_1"
  top: "conv8_1"
}
layer {
  name: "conv8_2"
  type: "Convolution"
  bottom: "conv8_1"
  top: "conv8_2"
  param {
    lr_mult: 1
    decay_mult: 1
  }
  param {
    lr_mult: 2
    decay_mult: 0
  }
  convolution_param {
    num_output: 256
    pad: 0
    kernel_size: 3
    stride: 1
    weight_filler {
      type: "xavier"
    }
    bias_filler {
      type: "constant"
      value: 0
    }
  }
}
layer {
  name: "conv8_2_relu"
  type: "ReLU"
  bottom: "conv8_2"
  top: "conv8_2"
}
layer {
  name: "conv9_1"
  type: "Convolution"
  bottom: "conv8_2"
  top: "conv9_1"
  param {
    lr_mult: 1
    decay_mult: 1
  }
  param {
    lr_mult: 2
    decay_mult: 0
  }
  convolution_param {
    num_output: 128
    pad: 0
    kernel_size: 1
    stride: 1
    weight_filler {
      type: "xavier"
    }
    bias_filler {
      type: "constant"
      value: 0
    }
  }
}
layer {
  name: "conv9_1_relu"
  type: "ReLU"
  bottom: "conv9_1"
  top: "conv9_1"
}
layer {
  name: "conv9_2"
  type: "Convolution"
  bottom: "conv9_1"
  top: "conv9_2"
  param {
    lr_mult: 1
    decay_mult: 1
  }
  param {
    lr_mult: 2
    decay_mult: 0
  }
  convolution_param {
    num_output: 256
    pad: 0
    kernel_size: 3
    stride: 1
    weight_filler {
      type: "xavier"
    }
    bias_filler {
      type: "constant"
      value: 0
    }
  }
}
layer {
  name: "conv9_2_relu"
  type: "ReLU"
  bottom: "conv9_2"
  top: "conv9_2"
}
layer {
  name: "conv4_3_norm"
  type: "Normalize"
  bottom: "conv4_3"
  top: "conv4_3_norm"
  norm_param {
    across_spatial: false
    scale_filler {
      type: "constant"
      value: 20
    }
    channel_shared: false
  }
}
layer {
  name: "conv4_3_norm_mbox_loc"
  type: "Convolution"
  bottom: "conv4_3_norm"
  top: "conv4_3_norm_mbox_loc"
  param {
    lr_mult: 1
    decay_mult: 1
  }
  param {
    lr_mult: 2
    decay_mult: 0
  }
  convolution_param {
    num_output: 16
    pad: 1
    kernel_size: 3
    stride: 1
    weight_filler {
      type: "xavier"
    }
    bias_filler {
      type: "constant"
      value: 0
    }
  }
}
layer {
  name: "conv4_3_norm_mbox_loc_perm"
  type: "Permute"
  bottom: "conv4_3_norm_mbox_loc"
  top: "conv4_3_norm_mbox_loc_perm"
  permute_param {
    order: 0
    order: 2
    order: 3
    order: 1
  }
}
layer {
  name: "conv4_3_norm_mbox_loc_flat"
  type: "Flatten"
  bottom: "conv4_3_norm_mbox_loc_perm"
  top: "conv4_3_norm_mbox_loc_flat"
  flatten_param {
    axis: 1
  }
}
layer {
  name: "conv4_3_norm_mbox_conf"
  type: "Convolution"
  bottom: "conv4_3_norm"
  top: "conv4_3_norm_mbox_conf"
  param {
    lr_mult: 1
    decay_mult: 1
  }
  param {
    lr_mult: 2
    decay_mult: 0
  }
  convolution_param {
    num_output: 16
    pad: 1
    kernel_size: 3
    stride: 1
    weight_filler {
      type: "xavier"
    }
    bias_filler {
      type: "constant"
      value: 0
    }
  }
}
layer {
  name: "conv4_3_norm_mbox_conf_perm"
  type: "Permute"
  bottom: "conv4_3_norm_mbox_conf"
  top: "conv4_3_norm_mbox_conf_perm"
  permute_param {
    order: 0
    order: 2
    order: 3
    order: 1
  }
}
layer {
  name: "conv4_3_norm_mbox_conf_flat"
  type: "Flatten"
  bottom: "conv4_3_norm_mbox_conf_perm"
  top: "conv4_3_norm_mbox_conf_flat"
  flatten_param {
    axis: 1
  }
}
layer {
  name: "conv4_3_norm_mbox_priorbox"
  type: "PriorBox"
  bottom: "conv4_3_norm"
  bottom: "data"
  top: "conv4_3_norm_mbox_priorbox"
  prior_box_param {
    min_size: 30
    max_size: 60
    aspect_ratio: 2
    flip: true
    clip: false
    variance: 0.1
    variance: 0.1
    variance: 0.2
    variance: 0.2
    step: 8
    offset: 0.5
  }
}
layer {
  name: "fc7_mbox_loc"
  type: "Convolution"
  bottom: "fc7"
  top: "fc7_mbox_loc"
  param {
    lr_mult: 1
    decay_mult: 1
  }
  param {
    lr_mult: 2
    decay_mult: 0
  }
  convolution_param {
    num_output: 24
    pad: 1
    kernel_size: 3
    stride: 1
    weight_filler {
      type: "xavier"
    }
    bias_filler {
      type: "constant"
      value: 0
    }
  }
}
layer {
  name: "fc7_mbox_loc_perm"
  type: "Permute"
  bottom: "fc7_mbox_loc"
  top: "fc7_mbox_loc_perm"
  permute_param {
    order: 0
    order: 2
    order: 3
    order: 1
  }
}
layer {
  name: "fc7_mbox_loc_flat"
  type: "Flatten"
  bottom: "fc7_mbox_loc_perm"
  top: "fc7_mbox_loc_flat"
  flatten_param {
    axis: 1
  }
}
layer {
  name: "fc7_mbox_conf"
  type: "Convolution"
  bottom: "fc7"
  top: "fc7_mbox_conf"
  param {
    lr_mult: 1
    decay_mult: 1
  }
  param {
    lr_mult: 2
    decay_mult: 0
  }
  convolution_param {
    num_output: 24
    pad: 1
    kernel_size: 3
    stride: 1
    weight_filler {
      type: "xavier"
    }
    bias_filler {
      type: "constant"
      value: 0
    }
  }
}
layer {
  name: "fc7_mbox_conf_perm"
  type: "Permute"
  bottom: "fc7_mbox_conf"
  top: "fc7_mbox_conf_perm"
  permute_param {
    order: 0
    order: 2
    order: 3
    order: 1
  }
}
layer {
  name: "fc7_mbox_conf_flat"
  type: "Flatten"
  bottom: "fc7_mbox_conf_perm"
  top: "fc7_mbox_conf_flat"
  flatten_param {
    axis: 1
  }
}
layer {
  name: "fc7_mbox_priorbox"
  type: "PriorBox"
  bottom: "fc7"
  bottom: "data"
  top: "fc7_mbox_priorbox"
  prior_box_param {
    min_size: 60
    max_size: 111
    aspect_ratio: 2
    aspect_ratio: 3
    flip: true
    clip: false
    variance: 0.1
    variance: 0.1
    variance: 0.2
    variance: 0.2
    step: 16
    offset: 0.5
  }
}
layer {
  name: "conv6_2_mbox_loc"
  type: "Convolution"
  bottom: "conv6_2"
  top: "conv6_2_mbox_loc"
  param {
    lr_mult: 1
    decay_mult: 1
  }
  param {
    lr_mult: 2
    decay_mult: 0
  }
  convolution_param {
    num_output: 24
    pad: 1
    kernel_size: 3
    stride: 1
    weight_filler {
      type: "xavier"
    }
    bias_filler {
      type: "constant"
      value: 0
    }
  }
}
layer {
  name: "conv6_2_mbox_loc_perm"
  type: "Permute"
  bottom: "conv6_2_mbox_loc"
  top: "conv6_2_mbox_loc_perm"
  permute_param {
    order: 0
    order: 2
    order: 3
    order: 1
  }
}
layer {
  name: "conv6_2_mbox_loc_flat"
  type: "Flatten"
  bottom: "conv6_2_mbox_loc_perm"
  top: "conv6_2_mbox_loc_flat"
  flatten_param {
    axis: 1
  }
}
layer {
  name: "conv6_2_mbox_conf"
  type: "Convolution"
  bottom: "conv6_2"
  top: "conv6_2_mbox_conf"
  param {
    lr_mult: 1
    decay_mult: 1
  }
  param {
    lr_mult: 2
    decay_mult: 0
  }
  convolution_param {
    num_output: 24
    pad: 1
    kernel_size: 3
    stride: 1
    weight_filler {
      type: "xavier"
    }
    bias_filler {
      type: "constant"
      value: 0
    }
  }
}
layer {
  name: "conv6_2_mbox_conf_perm"
  type: "Permute"
  bottom: "conv6_2_mbox_conf"
  top: "conv6_2_mbox_conf_perm"
  permute_param {
    order: 0
    order: 2
    order: 3
    order: 1
  }
}
layer {
  name: "conv6_2_mbox_conf_flat"
  type: "Flatten"
  bottom: "conv6_2_mbox_conf_perm"
  top: "conv6_2_mbox_conf_flat"
  flatten_param {
    axis: 1
  }
}
layer {
  name: "conv6_2_mbox_priorbox"
  type: "PriorBox"
  bottom: "conv6_2"
  bottom: "data"
  top: "conv6_2_mbox_priorbox"
  prior_box_param {
    min_size: 111
    max_size: 162
    aspect_ratio: 2
    aspect_ratio: 3
    flip: true
    clip: false
    variance: 0.1
    variance: 0.1
    variance: 0.2
    variance: 0.2
    step: 32
    offset: 0.5
  }
}
layer {
  name: "conv7_2_mbox_loc"
  type: "Convolution"
  bottom: "conv7_2"
  top: "conv7_2_mbox_loc"
  param {
    lr_mult: 1
    decay_mult: 1
  }
  param {
    lr_mult: 2
    decay_mult: 0
  }
  convolution_param {
    num_output: 24
    pad: 1
    kernel_size: 3
    stride: 1
    weight_filler {
      type: "xavier"
    }
    bias_filler {
      type: "constant"
      value: 0
    }
  }
}
layer {
  name: "conv7_2_mbox_loc_perm"
  type: "Permute"
  bottom: "conv7_2_mbox_loc"
  top: "conv7_2_mbox_loc_perm"
  permute_param {
    order: 0
    order: 2
    order: 3
    order: 1
  }
}
layer {
  name: "conv7_2_mbox_loc_flat"
  type: "Flatten"
  bottom: "conv7_2_mbox_loc_perm"
  top: "conv7_2_mbox_loc_flat"
  flatten_param {
    axis: 1
  }
}
layer {
  name: "conv7_2_mbox_conf"
  type: "Convolution"
  bottom: "conv7_2"
  top: "conv7_2_mbox_conf"
  param {
    lr_mult: 1
    decay_mult: 1
  }
  param {
    lr_mult: 2
    decay_mult: 0
  }
  convolution_param {
    num_output: 24
    pad: 1
    kernel_size: 3
    stride: 1
    weight_filler {
      type: "xavier"
    }
    bias_filler {
      type: "constant"
      value: 0
    }
  }
}
layer {
  name: "conv7_2_mbox_conf_perm"
  type: "Permute"
  bottom: "conv7_2_mbox_conf"
  top: "conv7_2_mbox_conf_perm"
  permute_param {
    order: 0
    order: 2
    order: 3
    order: 1
  }
}
layer {
  name: "conv7_2_mbox_conf_flat"
  type: "Flatten"
  bottom: "conv7_2_mbox_conf_perm"
  top: "conv7_2_mbox_conf_flat"
  flatten_param {
    axis: 1
  }
}
layer {
  name: "conv7_2_mbox_priorbox"
  type: "PriorBox"
  bottom: "conv7_2"
  bottom: "data"
  top: "conv7_2_mbox_priorbox"
  prior_box_param {
    min_size: 162
    max_size: 213
    aspect_ratio: 2
    aspect_ratio: 3
    flip: true
    clip: false
    variance: 0.1
    variance: 0.1
    variance: 0.2
    variance: 0.2
    step: 64
    offset: 0.5
  }
}
layer {
  name: "conv8_2_mbox_loc"
  type: "Convolution"
  bottom: "conv8_2"
  top: "conv8_2_mbox_loc"
  param {
    lr_mult: 1
    decay_mult: 1
  }
  param {
    lr_mult: 2
    decay_mult: 0
  }
  convolution_param {
    num_output: 16
    pad: 1
    kernel_size: 3
    stride: 1
    weight_filler {
      type: "xavier"
    }
    bias_filler {
      type: "constant"
      value: 0
    }
  }
}
layer {
  name: "conv8_2_mbox_loc_perm"
  type: "Permute"
  bottom: "conv8_2_mbox_loc"
  top: "conv8_2_mbox_loc_perm"
  permute_param {
    order: 0
    order: 2
    order: 3
    order: 1
  }
}
layer {
  name: "conv8_2_mbox_loc_flat"
  type: "Flatten"
  bottom: "conv8_2_mbox_loc_perm"
  top: "conv8_2_mbox_loc_flat"
  flatten_param {
    axis: 1
  }
}
layer {
  name: "conv8_2_mbox_conf"
  type: "Convolution"
  bottom: "conv8_2"
  top: "conv8_2_mbox_conf"
  param {
    lr_mult: 1
    decay_mult: 1
  }
  param {
    lr_mult: 2
    decay_mult: 0
  }
  convolution_param {
    num_output: 16
    pad: 1
    kernel_size: 3
    stride: 1
    weight_filler {
      type: "xavier"
    }
    bias_filler {
      type: "constant"
      value: 0
    }
  }
}
layer {
  name: "conv8_2_mbox_conf_perm"
  type: "Permute"
  bottom: "conv8_2_mbox_conf"
  top: "conv8_2_mbox_conf_perm"
  permute_param {
    order: 0
    order: 2
    order: 3
    order: 1
  }
}
layer {
  name: "conv8_2_mbox_conf_flat"
  type: "Flatten"
  bottom: "conv8_2_mbox_conf_perm"
  top: "conv8_2_mbox_conf_flat"
  flatten_param {
    axis: 1
  }
}
layer {
  name: "conv8_2_mbox_priorbox"
  type: "PriorBox"
  bottom: "conv8_2"
  bottom: "data"
  top: "conv8_2_mbox_priorbox"
  prior_box_param {
    min_size: 213
    max_size: 264
    aspect_ratio: 2
    flip: true
    clip: false
    variance: 0.1
    variance: 0.1
    variance: 0.2
    variance: 0.2
    step: 100
    offset: 0.5
  }
}
layer {
  name: "conv9_2_mbox_loc"
  type: "Convolution"
  bottom: "conv9_2"
  top: "conv9_2_mbox_loc"
  param {
    lr_mult: 1
    decay_mult: 1
  }
  param {
    lr_mult: 2
    decay_mult: 0
  }
  convolution_param {
    num_output: 16
    pad: 1
    kernel_size: 3
    stride: 1
    weight_filler {
      type: "xavier"
    }
    bias_filler {
      type: "constant"
      value: 0
    }
  }
}
layer {
  name: "conv9_2_mbox_loc_perm"
  type: "Permute"
  bottom: "conv9_2_mbox_loc"
  top: "conv9_2_mbox_loc_perm"
  permute_param {
    order: 0
    order: 2
    order: 3
    order: 1
  }
}
layer {
  name: "conv9_2_mbox_loc_flat"
  type: "Flatten"
  bottom: "conv9_2_mbox_loc_perm"
  top: "conv9_2_mbox_loc_flat"
  flatten_param {
    axis: 1
  }
}
layer {
  name: "conv9_2_mbox_conf"
  type: "Convolution"
  bottom: "conv9_2"
  top: "conv9_2_mbox_conf"
  param {
    lr_mult: 1
    decay_mult: 1
  }
  param {
    lr_mult: 2
    decay_mult: 0
  }
  convolution_param {
    num_output: 16
    pad: 1
    kernel_size: 3
    stride: 1
    weight_filler {
      type: "xavier"
    }
    bias_filler {
      type: "constant"
      value: 0
    }
  }
}
layer {
  name: "conv9_2_mbox_conf_perm"
  type: "Permute"
  bottom: "conv9_2_mbox_conf"
  top: "conv9_2_mbox_conf_perm"
  permute_param {
    order: 0
    order: 2
    order: 3
    order: 1
  }
}
layer {
  name: "conv9_2_mbox_conf_flat"
  type: "Flatten"
  bottom: "conv9_2_mbox_conf_perm"
  top: "conv9_2_mbox_conf_flat"
  flatten_param {
    axis: 1
  }
}
layer {
  name: "conv9_2_mbox_priorbox"
  type: "PriorBox"
  bottom: "conv9_2"
  bottom: "data"
  top: "conv9_2_mbox_priorbox"
  prior_box_param {
    min_size: 264
    max_size: 315
    aspect_ratio: 2
    flip: true
    clip: false
    variance: 0.1
    variance: 0.1
    variance: 0.2
    variance: 0.2
    step: 300
    offset: 0.5
  }
}
layer {
  name: "mbox_loc"
  type: "Concat"
  bottom: "conv4_3_norm_mbox_loc_flat"
  bottom: "fc7_mbox_loc_flat"
  bottom: "conv6_2_mbox_loc_flat"
  bottom: "conv7_2_mbox_loc_flat"
  bottom: "conv8_2_mbox_loc_flat"
  bottom: "conv9_2_mbox_loc_flat"
  top: "mbox_loc"
  concat_param {
    axis: 1
  }
}
layer {
  name: "mbox_conf"
  type: "Concat"
  bottom: "conv4_3_norm_mbox_conf_flat"
  bottom: "fc7_mbox_conf_flat"
  bottom: "conv6_2_mbox_conf_flat"
  bottom: "conv7_2_mbox_conf_flat"
  bottom: "conv8_2_mbox_conf_flat"
  bottom: "conv9_2_mbox_conf_flat"
  top: "mbox_conf"
  concat_param {
    axis: 1
  }
}
layer {
  name: "mbox_priorbox"
  type: "Concat"
  bottom: "conv4_3_norm_mbox_priorbox"
  bottom: "fc7_mbox_priorbox"
  bottom: "conv6_2_mbox_priorbox"
  bottom: "conv7_2_mbox_priorbox"
  bottom: "conv8_2_mbox_priorbox"
  bottom: "conv9_2_mbox_priorbox"
  top: "mbox_priorbox"
  concat_param {
    axis: 2
  }
}
layer {
  name: "mbox_loss"
  type: "MultiBoxLoss"
  bottom: "mbox_loc"
  bottom: "mbox_conf"
  bottom: "mbox_priorbox"
  bottom: "label"
  top: "mbox_loss"
  include {
    phase: TRAIN
  }
  propagate_down: true
  propagate_down: true
  propagate_down: false
  propagate_down: false
  loss_param {
    normalization: VALID
  }
  multibox_loss_param {
    loc_loss_type: SMOOTH_L1
    conf_loss_type: SOFTMAX
    loc_weight: 1
    num_classes: 4
    share_location: true
    match_type: PER_PREDICTION
    overlap_threshold: 0.5
    use_prior_for_matching: true
    background_label_id: 0
    use_difficult_gt: true
    neg_pos_ratio: 3
    neg_overlap: 0.5
    code_type: CENTER_SIZE
    ignore_cross_boundary_bbox: false
    mining_type: MAX_NEGATIVE
  }
}
I0602 14:39:22.691632  1686 layer_factory.hpp:77] Creating layer data
I0602 14:39:22.691756  1686 net.cpp:100] Creating Layer data
I0602 14:39:22.691766  1686 net.cpp:408] data -> data
I0602 14:39:22.691792  1686 net.cpp:408] data -> label
I0602 14:39:22.692198  1706 db_lmdb.cpp:35] Opened lmdb examples/tbs_300x300_HSIL_10x/tbs_300x300_HSIL_10x_trainval_lmdb
I0602 14:39:22.700835  1686 annotated_data_layer.cpp:62] output data size: 32,3,300,300
I0602 14:39:22.758987  1686 net.cpp:150] Setting up data
I0602 14:39:22.759022  1686 net.cpp:157] Top shape: 32 3 300 300 (8640000)
I0602 14:39:22.759027  1686 net.cpp:157] Top shape: 1 1 1 8 (8)
I0602 14:39:22.759054  1686 net.cpp:165] Memory required for data: 34560032
I0602 14:39:22.759063  1686 layer_factory.hpp:77] Creating layer data_data_0_split
I0602 14:39:22.759089  1686 net.cpp:100] Creating Layer data_data_0_split
I0602 14:39:22.759095  1686 net.cpp:434] data_data_0_split <- data
I0602 14:39:22.759121  1686 net.cpp:408] data_data_0_split -> data_data_0_split_0
I0602 14:39:22.759130  1686 net.cpp:408] data_data_0_split -> data_data_0_split_1
I0602 14:39:22.759136  1686 net.cpp:408] data_data_0_split -> data_data_0_split_2
I0602 14:39:22.759142  1686 net.cpp:408] data_data_0_split -> data_data_0_split_3
I0602 14:39:22.759146  1686 net.cpp:408] data_data_0_split -> data_data_0_split_4
I0602 14:39:22.759152  1686 net.cpp:408] data_data_0_split -> data_data_0_split_5
I0602 14:39:22.759157  1686 net.cpp:408] data_data_0_split -> data_data_0_split_6
I0602 14:39:22.759228  1686 net.cpp:150] Setting up data_data_0_split
I0602 14:39:22.759234  1686 net.cpp:157] Top shape: 32 3 300 300 (8640000)
I0602 14:39:22.759238  1686 net.cpp:157] Top shape: 32 3 300 300 (8640000)
I0602 14:39:22.759240  1686 net.cpp:157] Top shape: 32 3 300 300 (8640000)
I0602 14:39:22.759243  1686 net.cpp:157] Top shape: 32 3 300 300 (8640000)
I0602 14:39:22.759246  1686 net.cpp:157] Top shape: 32 3 300 300 (8640000)
I0602 14:39:22.759248  1686 net.cpp:157] Top shape: 32 3 300 300 (8640000)
I0602 14:39:22.759251  1686 net.cpp:157] Top shape: 32 3 300 300 (8640000)
I0602 14:39:22.759254  1686 net.cpp:165] Memory required for data: 276480032
I0602 14:39:22.759256  1686 layer_factory.hpp:77] Creating layer conv1_1
I0602 14:39:22.759268  1686 net.cpp:100] Creating Layer conv1_1
I0602 14:39:22.759271  1686 net.cpp:434] conv1_1 <- data_data_0_split_0
I0602 14:39:22.759279  1686 net.cpp:408] conv1_1 -> conv1_1
I0602 14:39:22.927904  1686 net.cpp:150] Setting up conv1_1
I0602 14:39:22.927922  1686 net.cpp:157] Top shape: 32 64 300 300 (184320000)
I0602 14:39:22.927925  1686 net.cpp:165] Memory required for data: 1013760032
I0602 14:39:22.927940  1686 layer_factory.hpp:77] Creating layer relu1_1
I0602 14:39:22.927961  1686 net.cpp:100] Creating Layer relu1_1
I0602 14:39:22.927966  1686 net.cpp:434] relu1_1 <- conv1_1
I0602 14:39:22.927986  1686 net.cpp:395] relu1_1 -> conv1_1 (in-place)
I0602 14:39:22.928162  1686 net.cpp:150] Setting up relu1_1
I0602 14:39:22.928169  1686 net.cpp:157] Top shape: 32 64 300 300 (184320000)
I0602 14:39:22.928171  1686 net.cpp:165] Memory required for data: 1751040032
I0602 14:39:22.928174  1686 layer_factory.hpp:77] Creating layer conv1_2
I0602 14:39:22.928184  1686 net.cpp:100] Creating Layer conv1_2
I0602 14:39:22.928202  1686 net.cpp:434] conv1_2 <- conv1_1
I0602 14:39:22.928206  1686 net.cpp:408] conv1_2 -> conv1_2
I0602 14:39:22.930202  1686 net.cpp:150] Setting up conv1_2
I0602 14:39:22.930214  1686 net.cpp:157] Top shape: 32 64 300 300 (184320000)
I0602 14:39:22.930217  1686 net.cpp:165] Memory required for data: 2488320032
I0602 14:39:22.930224  1686 layer_factory.hpp:77] Creating layer relu1_2
I0602 14:39:22.930232  1686 net.cpp:100] Creating Layer relu1_2
I0602 14:39:22.930235  1686 net.cpp:434] relu1_2 <- conv1_2
I0602 14:39:22.930238  1686 net.cpp:395] relu1_2 -> conv1_2 (in-place)
I0602 14:39:22.930773  1686 net.cpp:150] Setting up relu1_2
I0602 14:39:22.930781  1686 net.cpp:157] Top shape: 32 64 300 300 (184320000)
I0602 14:39:22.930784  1686 net.cpp:165] Memory required for data: 3225600032
I0602 14:39:22.930786  1686 layer_factory.hpp:77] Creating layer pool1
I0602 14:39:22.930791  1686 net.cpp:100] Creating Layer pool1
I0602 14:39:22.930795  1686 net.cpp:434] pool1 <- conv1_2
I0602 14:39:22.930799  1686 net.cpp:408] pool1 -> pool1
I0602 14:39:22.930836  1686 net.cpp:150] Setting up pool1
I0602 14:39:22.930842  1686 net.cpp:157] Top shape: 32 64 150 150 (46080000)
I0602 14:39:22.930845  1686 net.cpp:165] Memory required for data: 3409920032
I0602 14:39:22.930846  1686 layer_factory.hpp:77] Creating layer conv2_1
I0602 14:39:22.930853  1686 net.cpp:100] Creating Layer conv2_1
I0602 14:39:22.930867  1686 net.cpp:434] conv2_1 <- pool1
I0602 14:39:22.930872  1686 net.cpp:408] conv2_1 -> conv2_1
I0602 14:39:22.932176  1686 net.cpp:150] Setting up conv2_1
I0602 14:39:22.932186  1686 net.cpp:157] Top shape: 32 128 150 150 (92160000)
I0602 14:39:22.932189  1686 net.cpp:165] Memory required for data: 3778560032
I0602 14:39:22.932196  1686 layer_factory.hpp:77] Creating layer relu2_1
I0602 14:39:22.932202  1686 net.cpp:100] Creating Layer relu2_1
I0602 14:39:22.932205  1686 net.cpp:434] relu2_1 <- conv2_1
I0602 14:39:22.932209  1686 net.cpp:395] relu2_1 -> conv2_1 (in-place)
I0602 14:39:22.932754  1686 net.cpp:150] Setting up relu2_1
I0602 14:39:22.932763  1686 net.cpp:157] Top shape: 32 128 150 150 (92160000)
I0602 14:39:22.932766  1686 net.cpp:165] Memory required for data: 4147200032
I0602 14:39:22.932768  1686 layer_factory.hpp:77] Creating layer conv2_2
I0602 14:39:22.932775  1686 net.cpp:100] Creating Layer conv2_2
I0602 14:39:22.932778  1686 net.cpp:434] conv2_2 <- conv2_1
I0602 14:39:22.932783  1686 net.cpp:408] conv2_2 -> conv2_2
I0602 14:39:22.934713  1686 net.cpp:150] Setting up conv2_2
I0602 14:39:22.934723  1686 net.cpp:157] Top shape: 32 128 150 150 (92160000)
I0602 14:39:22.934726  1686 net.cpp:165] Memory required for data: 4515840032
I0602 14:39:22.934731  1686 layer_factory.hpp:77] Creating layer relu2_2
I0602 14:39:22.934736  1686 net.cpp:100] Creating Layer relu2_2
I0602 14:39:22.934738  1686 net.cpp:434] relu2_2 <- conv2_2
I0602 14:39:22.934742  1686 net.cpp:395] relu2_2 -> conv2_2 (in-place)
I0602 14:39:22.934867  1686 net.cpp:150] Setting up relu2_2
I0602 14:39:22.934873  1686 net.cpp:157] Top shape: 32 128 150 150 (92160000)
I0602 14:39:22.934875  1686 net.cpp:165] Memory required for data: 4884480032
I0602 14:39:22.934878  1686 layer_factory.hpp:77] Creating layer pool2
I0602 14:39:22.934882  1686 net.cpp:100] Creating Layer pool2
I0602 14:39:22.934885  1686 net.cpp:434] pool2 <- conv2_2
I0602 14:39:22.934890  1686 net.cpp:408] pool2 -> pool2
I0602 14:39:22.934918  1686 net.cpp:150] Setting up pool2
I0602 14:39:22.934922  1686 net.cpp:157] Top shape: 32 128 75 75 (23040000)
I0602 14:39:22.934924  1686 net.cpp:165] Memory required for data: 4976640032
I0602 14:39:22.934926  1686 layer_factory.hpp:77] Creating layer conv3_1
I0602 14:39:22.934934  1686 net.cpp:100] Creating Layer conv3_1
I0602 14:39:22.934937  1686 net.cpp:434] conv3_1 <- pool2
I0602 14:39:22.934942  1686 net.cpp:408] conv3_1 -> conv3_1
I0602 14:39:22.938616  1686 net.cpp:150] Setting up conv3_1
I0602 14:39:22.938630  1686 net.cpp:157] Top shape: 32 256 75 75 (46080000)
I0602 14:39:22.938632  1686 net.cpp:165] Memory required for data: 5160960032
I0602 14:39:22.938642  1686 layer_factory.hpp:77] Creating layer relu3_1
I0602 14:39:22.938648  1686 net.cpp:100] Creating Layer relu3_1
I0602 14:39:22.938654  1686 net.cpp:434] relu3_1 <- conv3_1
I0602 14:39:22.938658  1686 net.cpp:395] relu3_1 -> conv3_1 (in-place)
I0602 14:39:22.938791  1686 net.cpp:150] Setting up relu3_1
I0602 14:39:22.938798  1686 net.cpp:157] Top shape: 32 256 75 75 (46080000)
I0602 14:39:22.938801  1686 net.cpp:165] Memory required for data: 5345280032
I0602 14:39:22.938802  1686 layer_factory.hpp:77] Creating layer conv3_2
I0602 14:39:22.938813  1686 net.cpp:100] Creating Layer conv3_2
I0602 14:39:22.938817  1686 net.cpp:434] conv3_2 <- conv3_1
I0602 14:39:22.938822  1686 net.cpp:408] conv3_2 -> conv3_2
I0602 14:39:22.943460  1686 net.cpp:150] Setting up conv3_2
I0602 14:39:22.943477  1686 net.cpp:157] Top shape: 32 256 75 75 (46080000)
I0602 14:39:22.943480  1686 net.cpp:165] Memory required for data: 5529600032
I0602 14:39:22.943487  1686 layer_factory.hpp:77] Creating layer relu3_2
I0602 14:39:22.943495  1686 net.cpp:100] Creating Layer relu3_2
I0602 14:39:22.943497  1686 net.cpp:434] relu3_2 <- conv3_2
I0602 14:39:22.943516  1686 net.cpp:395] relu3_2 -> conv3_2 (in-place)
I0602 14:39:22.943660  1686 net.cpp:150] Setting up relu3_2
I0602 14:39:22.943665  1686 net.cpp:157] Top shape: 32 256 75 75 (46080000)
I0602 14:39:22.943667  1686 net.cpp:165] Memory required for data: 5713920032
I0602 14:39:22.943681  1686 layer_factory.hpp:77] Creating layer conv3_3
I0602 14:39:22.943692  1686 net.cpp:100] Creating Layer conv3_3
I0602 14:39:22.943696  1686 net.cpp:434] conv3_3 <- conv3_2
I0602 14:39:22.943701  1686 net.cpp:408] conv3_3 -> conv3_3
I0602 14:39:22.948149  1686 net.cpp:150] Setting up conv3_3
I0602 14:39:22.948163  1686 net.cpp:157] Top shape: 32 256 75 75 (46080000)
I0602 14:39:22.948165  1686 net.cpp:165] Memory required for data: 5898240032
I0602 14:39:22.948171  1686 layer_factory.hpp:77] Creating layer relu3_3
I0602 14:39:22.948175  1686 net.cpp:100] Creating Layer relu3_3
I0602 14:39:22.948179  1686 net.cpp:434] relu3_3 <- conv3_3
I0602 14:39:22.948184  1686 net.cpp:395] relu3_3 -> conv3_3 (in-place)
I0602 14:39:22.948336  1686 net.cpp:150] Setting up relu3_3
I0602 14:39:22.948343  1686 net.cpp:157] Top shape: 32 256 75 75 (46080000)
I0602 14:39:22.948345  1686 net.cpp:165] Memory required for data: 6082560032
I0602 14:39:22.948348  1686 layer_factory.hpp:77] Creating layer pool3
I0602 14:39:22.948367  1686 net.cpp:100] Creating Layer pool3
I0602 14:39:22.948369  1686 net.cpp:434] pool3 <- conv3_3
I0602 14:39:22.948374  1686 net.cpp:408] pool3 -> pool3
I0602 14:39:22.948420  1686 net.cpp:150] Setting up pool3
I0602 14:39:22.948424  1686 net.cpp:157] Top shape: 32 256 38 38 (11829248)
I0602 14:39:22.948426  1686 net.cpp:165] Memory required for data: 6129877024
I0602 14:39:22.948429  1686 layer_factory.hpp:77] Creating layer conv4_1
I0602 14:39:22.948437  1686 net.cpp:100] Creating Layer conv4_1
I0602 14:39:22.948441  1686 net.cpp:434] conv4_1 <- pool3
I0602 14:39:22.948444  1686 net.cpp:408] conv4_1 -> conv4_1
I0602 14:39:22.957123  1686 net.cpp:150] Setting up conv4_1
I0602 14:39:22.957140  1686 net.cpp:157] Top shape: 32 512 38 38 (23658496)
I0602 14:39:22.957144  1686 net.cpp:165] Memory required for data: 6224511008
I0602 14:39:22.957149  1686 layer_factory.hpp:77] Creating layer relu4_1
I0602 14:39:22.957155  1686 net.cpp:100] Creating Layer relu4_1
I0602 14:39:22.957175  1686 net.cpp:434] relu4_1 <- conv4_1
I0602 14:39:22.957180  1686 net.cpp:395] relu4_1 -> conv4_1 (in-place)
I0602 14:39:22.957767  1686 net.cpp:150] Setting up relu4_1
I0602 14:39:22.957777  1686 net.cpp:157] Top shape: 32 512 38 38 (23658496)
I0602 14:39:22.957779  1686 net.cpp:165] Memory required for data: 6319144992
I0602 14:39:22.957782  1686 layer_factory.hpp:77] Creating layer conv4_2
I0602 14:39:22.957790  1686 net.cpp:100] Creating Layer conv4_2
I0602 14:39:22.957794  1686 net.cpp:434] conv4_2 <- conv4_1
I0602 14:39:22.957799  1686 net.cpp:408] conv4_2 -> conv4_2
I0602 14:39:22.969763  1686 net.cpp:150] Setting up conv4_2
I0602 14:39:22.969786  1686 net.cpp:157] Top shape: 32 512 38 38 (23658496)
I0602 14:39:22.969789  1686 net.cpp:165] Memory required for data: 6413778976
I0602 14:39:22.969799  1686 layer_factory.hpp:77] Creating layer relu4_2
I0602 14:39:22.969822  1686 net.cpp:100] Creating Layer relu4_2
I0602 14:39:22.969825  1686 net.cpp:434] relu4_2 <- conv4_2
I0602 14:39:22.969830  1686 net.cpp:395] relu4_2 -> conv4_2 (in-place)
I0602 14:39:22.970679  1686 net.cpp:150] Setting up relu4_2
I0602 14:39:22.970688  1686 net.cpp:157] Top shape: 32 512 38 38 (23658496)
I0602 14:39:22.970690  1686 net.cpp:165] Memory required for data: 6508412960
I0602 14:39:22.970693  1686 layer_factory.hpp:77] Creating layer conv4_3
I0602 14:39:22.970702  1686 net.cpp:100] Creating Layer conv4_3
I0602 14:39:22.970705  1686 net.cpp:434] conv4_3 <- conv4_2
I0602 14:39:22.970710  1686 net.cpp:408] conv4_3 -> conv4_3
I0602 14:39:22.983203  1686 net.cpp:150] Setting up conv4_3
I0602 14:39:22.983222  1686 net.cpp:157] Top shape: 32 512 38 38 (23658496)
I0602 14:39:22.983224  1686 net.cpp:165] Memory required for data: 6603046944
I0602 14:39:22.983232  1686 layer_factory.hpp:77] Creating layer relu4_3
I0602 14:39:22.983238  1686 net.cpp:100] Creating Layer relu4_3
I0602 14:39:22.983242  1686 net.cpp:434] relu4_3 <- conv4_3
I0602 14:39:22.983247  1686 net.cpp:395] relu4_3 -> conv4_3 (in-place)
I0602 14:39:22.983394  1686 net.cpp:150] Setting up relu4_3
I0602 14:39:22.983402  1686 net.cpp:157] Top shape: 32 512 38 38 (23658496)
I0602 14:39:22.983404  1686 net.cpp:165] Memory required for data: 6697680928
I0602 14:39:22.983407  1686 layer_factory.hpp:77] Creating layer conv4_3_relu4_3_0_split
I0602 14:39:22.983412  1686 net.cpp:100] Creating Layer conv4_3_relu4_3_0_split
I0602 14:39:22.983413  1686 net.cpp:434] conv4_3_relu4_3_0_split <- conv4_3
I0602 14:39:22.983431  1686 net.cpp:408] conv4_3_relu4_3_0_split -> conv4_3_relu4_3_0_split_0
I0602 14:39:22.983438  1686 net.cpp:408] conv4_3_relu4_3_0_split -> conv4_3_relu4_3_0_split_1
I0602 14:39:22.983494  1686 net.cpp:150] Setting up conv4_3_relu4_3_0_split
I0602 14:39:22.983500  1686 net.cpp:157] Top shape: 32 512 38 38 (23658496)
I0602 14:39:22.983503  1686 net.cpp:157] Top shape: 32 512 38 38 (23658496)
I0602 14:39:22.983518  1686 net.cpp:165] Memory required for data: 6886948896
I0602 14:39:22.983520  1686 layer_factory.hpp:77] Creating layer pool4
I0602 14:39:22.983525  1686 net.cpp:100] Creating Layer pool4
I0602 14:39:22.983528  1686 net.cpp:434] pool4 <- conv4_3_relu4_3_0_split_0
I0602 14:39:22.983531  1686 net.cpp:408] pool4 -> pool4
I0602 14:39:22.983572  1686 net.cpp:150] Setting up pool4
I0602 14:39:22.983577  1686 net.cpp:157] Top shape: 32 512 19 19 (5914624)
I0602 14:39:22.983579  1686 net.cpp:165] Memory required for data: 6910607392
I0602 14:39:22.983582  1686 layer_factory.hpp:77] Creating layer conv5_1
I0602 14:39:22.983592  1686 net.cpp:100] Creating Layer conv5_1
I0602 14:39:22.983595  1686 net.cpp:434] conv5_1 <- pool4
I0602 14:39:22.983599  1686 net.cpp:408] conv5_1 -> conv5_1
I0602 14:39:22.996506  1686 net.cpp:150] Setting up conv5_1
I0602 14:39:22.996523  1686 net.cpp:157] Top shape: 32 512 19 19 (5914624)
I0602 14:39:22.996526  1686 net.cpp:165] Memory required for data: 6934265888
I0602 14:39:22.996532  1686 layer_factory.hpp:77] Creating layer relu5_1
I0602 14:39:22.996539  1686 net.cpp:100] Creating Layer relu5_1
I0602 14:39:22.996542  1686 net.cpp:434] relu5_1 <- conv5_1
I0602 14:39:22.996546  1686 net.cpp:395] relu5_1 -> conv5_1 (in-place)
I0602 14:39:22.996732  1686 net.cpp:150] Setting up relu5_1
I0602 14:39:22.996738  1686 net.cpp:157] Top shape: 32 512 19 19 (5914624)
I0602 14:39:22.996740  1686 net.cpp:165] Memory required for data: 6957924384
I0602 14:39:22.996742  1686 layer_factory.hpp:77] Creating layer conv5_2
I0602 14:39:22.996752  1686 net.cpp:100] Creating Layer conv5_2
I0602 14:39:22.996755  1686 net.cpp:434] conv5_2 <- conv5_1
I0602 14:39:22.996759  1686 net.cpp:408] conv5_2 -> conv5_2
I0602 14:39:23.009938  1686 net.cpp:150] Setting up conv5_2
I0602 14:39:23.009956  1686 net.cpp:157] Top shape: 32 512 19 19 (5914624)
I0602 14:39:23.009958  1686 net.cpp:165] Memory required for data: 6981582880
I0602 14:39:23.009964  1686 layer_factory.hpp:77] Creating layer relu5_2
I0602 14:39:23.009970  1686 net.cpp:100] Creating Layer relu5_2
I0602 14:39:23.009989  1686 net.cpp:434] relu5_2 <- conv5_2
I0602 14:39:23.009994  1686 net.cpp:395] relu5_2 -> conv5_2 (in-place)
I0602 14:39:23.010143  1686 net.cpp:150] Setting up relu5_2
I0602 14:39:23.010149  1686 net.cpp:157] Top shape: 32 512 19 19 (5914624)
I0602 14:39:23.010151  1686 net.cpp:165] Memory required for data: 7005241376
I0602 14:39:23.010154  1686 layer_factory.hpp:77] Creating layer conv5_3
I0602 14:39:23.010179  1686 net.cpp:100] Creating Layer conv5_3
I0602 14:39:23.010182  1686 net.cpp:434] conv5_3 <- conv5_2
I0602 14:39:23.010188  1686 net.cpp:408] conv5_3 -> conv5_3
I0602 14:39:23.023252  1686 net.cpp:150] Setting up conv5_3
I0602 14:39:23.023272  1686 net.cpp:157] Top shape: 32 512 19 19 (5914624)
I0602 14:39:23.023273  1686 net.cpp:165] Memory required for data: 7028899872
I0602 14:39:23.023282  1686 layer_factory.hpp:77] Creating layer relu5_3
I0602 14:39:23.023304  1686 net.cpp:100] Creating Layer relu5_3
I0602 14:39:23.023308  1686 net.cpp:434] relu5_3 <- conv5_3
I0602 14:39:23.023326  1686 net.cpp:395] relu5_3 -> conv5_3 (in-place)
I0602 14:39:23.023505  1686 net.cpp:150] Setting up relu5_3
I0602 14:39:23.023521  1686 net.cpp:157] Top shape: 32 512 19 19 (5914624)
I0602 14:39:23.023524  1686 net.cpp:165] Memory required for data: 7052558368
I0602 14:39:23.023526  1686 layer_factory.hpp:77] Creating layer pool5
I0602 14:39:23.023532  1686 net.cpp:100] Creating Layer pool5
I0602 14:39:23.023535  1686 net.cpp:434] pool5 <- conv5_3
I0602 14:39:23.023552  1686 net.cpp:408] pool5 -> pool5
I0602 14:39:23.023588  1686 net.cpp:150] Setting up pool5
I0602 14:39:23.023593  1686 net.cpp:157] Top shape: 32 512 19 19 (5914624)
I0602 14:39:23.023596  1686 net.cpp:165] Memory required for data: 7076216864
I0602 14:39:23.023597  1686 layer_factory.hpp:77] Creating layer fc6
I0602 14:39:23.023619  1686 net.cpp:100] Creating Layer fc6
I0602 14:39:23.023623  1686 net.cpp:434] fc6 <- pool5
I0602 14:39:23.023628  1686 net.cpp:408] fc6 -> fc6
I0602 14:39:23.046726  1686 net.cpp:150] Setting up fc6
I0602 14:39:23.046746  1686 net.cpp:157] Top shape: 32 1024 19 19 (11829248)
I0602 14:39:23.046749  1686 net.cpp:165] Memory required for data: 7123533856
I0602 14:39:23.046756  1686 layer_factory.hpp:77] Creating layer relu6
I0602 14:39:23.046763  1686 net.cpp:100] Creating Layer relu6
I0602 14:39:23.046766  1686 net.cpp:434] relu6 <- fc6
I0602 14:39:23.046787  1686 net.cpp:395] relu6 -> fc6 (in-place)
I0602 14:39:23.047808  1686 net.cpp:150] Setting up relu6
I0602 14:39:23.047819  1686 net.cpp:157] Top shape: 32 1024 19 19 (11829248)
I0602 14:39:23.047821  1686 net.cpp:165] Memory required for data: 7170850848
I0602 14:39:23.047824  1686 layer_factory.hpp:77] Creating layer fc7
I0602 14:39:23.047833  1686 net.cpp:100] Creating Layer fc7
I0602 14:39:23.047837  1686 net.cpp:434] fc7 <- fc6
I0602 14:39:23.047843  1686 net.cpp:408] fc7 -> fc7
I0602 14:39:23.054585  1686 net.cpp:150] Setting up fc7
I0602 14:39:23.054603  1686 net.cpp:157] Top shape: 32 1024 19 19 (11829248)
I0602 14:39:23.054606  1686 net.cpp:165] Memory required for data: 7218167840
I0602 14:39:23.054613  1686 layer_factory.hpp:77] Creating layer relu7
I0602 14:39:23.054620  1686 net.cpp:100] Creating Layer relu7
I0602 14:39:23.054625  1686 net.cpp:434] relu7 <- fc7
I0602 14:39:23.054630  1686 net.cpp:395] relu7 -> fc7 (in-place)
I0602 14:39:23.054756  1686 net.cpp:150] Setting up relu7
I0602 14:39:23.054764  1686 net.cpp:157] Top shape: 32 1024 19 19 (11829248)
I0602 14:39:23.054766  1686 net.cpp:165] Memory required for data: 7265484832
I0602 14:39:23.054769  1686 layer_factory.hpp:77] Creating layer fc7_relu7_0_split
I0602 14:39:23.054774  1686 net.cpp:100] Creating Layer fc7_relu7_0_split
I0602 14:39:23.054776  1686 net.cpp:434] fc7_relu7_0_split <- fc7
I0602 14:39:23.054781  1686 net.cpp:408] fc7_relu7_0_split -> fc7_relu7_0_split_0
I0602 14:39:23.054786  1686 net.cpp:408] fc7_relu7_0_split -> fc7_relu7_0_split_1
I0602 14:39:23.054795  1686 net.cpp:408] fc7_relu7_0_split -> fc7_relu7_0_split_2
I0602 14:39:23.054800  1686 net.cpp:408] fc7_relu7_0_split -> fc7_relu7_0_split_3
I0602 14:39:23.054850  1686 net.cpp:150] Setting up fc7_relu7_0_split
I0602 14:39:23.054854  1686 net.cpp:157] Top shape: 32 1024 19 19 (11829248)
I0602 14:39:23.054858  1686 net.cpp:157] Top shape: 32 1024 19 19 (11829248)
I0602 14:39:23.054860  1686 net.cpp:157] Top shape: 32 1024 19 19 (11829248)
I0602 14:39:23.054863  1686 net.cpp:157] Top shape: 32 1024 19 19 (11829248)
I0602 14:39:23.054865  1686 net.cpp:165] Memory required for data: 7454752800
I0602 14:39:23.054867  1686 layer_factory.hpp:77] Creating layer conv6_1
I0602 14:39:23.054877  1686 net.cpp:100] Creating Layer conv6_1
I0602 14:39:23.054879  1686 net.cpp:434] conv6_1 <- fc7_relu7_0_split_0
I0602 14:39:23.054884  1686 net.cpp:408] conv6_1 -> conv6_1
I0602 14:39:23.058106  1686 net.cpp:150] Setting up conv6_1
I0602 14:39:23.058122  1686 net.cpp:157] Top shape: 32 256 19 19 (2957312)
I0602 14:39:23.058125  1686 net.cpp:165] Memory required for data: 7466582048
I0602 14:39:23.058131  1686 layer_factory.hpp:77] Creating layer conv6_1_relu
I0602 14:39:23.058137  1686 net.cpp:100] Creating Layer conv6_1_relu
I0602 14:39:23.058152  1686 net.cpp:434] conv6_1_relu <- conv6_1
I0602 14:39:23.058159  1686 net.cpp:395] conv6_1_relu -> conv6_1 (in-place)
I0602 14:39:23.058287  1686 net.cpp:150] Setting up conv6_1_relu
I0602 14:39:23.058293  1686 net.cpp:157] Top shape: 32 256 19 19 (2957312)
I0602 14:39:23.058295  1686 net.cpp:165] Memory required for data: 7478411296
I0602 14:39:23.058298  1686 layer_factory.hpp:77] Creating layer conv6_2
I0602 14:39:23.058305  1686 net.cpp:100] Creating Layer conv6_2
I0602 14:39:23.058308  1686 net.cpp:434] conv6_2 <- conv6_1
I0602 14:39:23.058313  1686 net.cpp:408] conv6_2 -> conv6_2
I0602 14:39:23.065212  1686 net.cpp:150] Setting up conv6_2
I0602 14:39:23.065228  1686 net.cpp:157] Top shape: 32 512 10 10 (1638400)
I0602 14:39:23.065232  1686 net.cpp:165] Memory required for data: 7484964896
I0602 14:39:23.065245  1686 layer_factory.hpp:77] Creating layer conv6_2_relu
I0602 14:39:23.065253  1686 net.cpp:100] Creating Layer conv6_2_relu
I0602 14:39:23.065258  1686 net.cpp:434] conv6_2_relu <- conv6_2
I0602 14:39:23.065266  1686 net.cpp:395] conv6_2_relu -> conv6_2 (in-place)
I0602 14:39:23.065425  1686 net.cpp:150] Setting up conv6_2_relu
I0602 14:39:23.065445  1686 net.cpp:157] Top shape: 32 512 10 10 (1638400)
I0602 14:39:23.065448  1686 net.cpp:165] Memory required for data: 7491518496
I0602 14:39:23.065450  1686 layer_factory.hpp:77] Creating layer conv6_2_conv6_2_relu_0_split
I0602 14:39:23.065459  1686 net.cpp:100] Creating Layer conv6_2_conv6_2_relu_0_split
I0602 14:39:23.065464  1686 net.cpp:434] conv6_2_conv6_2_relu_0_split <- conv6_2
I0602 14:39:23.065469  1686 net.cpp:408] conv6_2_conv6_2_relu_0_split -> conv6_2_conv6_2_relu_0_split_0
I0602 14:39:23.065476  1686 net.cpp:408] conv6_2_conv6_2_relu_0_split -> conv6_2_conv6_2_relu_0_split_1
I0602 14:39:23.065481  1686 net.cpp:408] conv6_2_conv6_2_relu_0_split -> conv6_2_conv6_2_relu_0_split_2
I0602 14:39:23.065488  1686 net.cpp:408] conv6_2_conv6_2_relu_0_split -> conv6_2_conv6_2_relu_0_split_3
I0602 14:39:23.065569  1686 net.cpp:150] Setting up conv6_2_conv6_2_relu_0_split
I0602 14:39:23.065575  1686 net.cpp:157] Top shape: 32 512 10 10 (1638400)
I0602 14:39:23.065578  1686 net.cpp:157] Top shape: 32 512 10 10 (1638400)
I0602 14:39:23.065583  1686 net.cpp:157] Top shape: 32 512 10 10 (1638400)
I0602 14:39:23.065587  1686 net.cpp:157] Top shape: 32 512 10 10 (1638400)
I0602 14:39:23.065590  1686 net.cpp:165] Memory required for data: 7517732896
I0602 14:39:23.065594  1686 layer_factory.hpp:77] Creating layer conv7_1
I0602 14:39:23.065604  1686 net.cpp:100] Creating Layer conv7_1
I0602 14:39:23.065608  1686 net.cpp:434] conv7_1 <- conv6_2_conv6_2_relu_0_split_0
I0602 14:39:23.065614  1686 net.cpp:408] conv7_1 -> conv7_1
I0602 14:39:23.067173  1686 net.cpp:150] Setting up conv7_1
I0602 14:39:23.067183  1686 net.cpp:157] Top shape: 32 128 10 10 (409600)
I0602 14:39:23.067186  1686 net.cpp:165] Memory required for data: 7519371296
I0602 14:39:23.067190  1686 layer_factory.hpp:77] Creating layer conv7_1_relu
I0602 14:39:23.067194  1686 net.cpp:100] Creating Layer conv7_1_relu
I0602 14:39:23.067198  1686 net.cpp:434] conv7_1_relu <- conv7_1
I0602 14:39:23.067205  1686 net.cpp:395] conv7_1_relu -> conv7_1 (in-place)
I0602 14:39:23.067328  1686 net.cpp:150] Setting up conv7_1_relu
I0602 14:39:23.067335  1686 net.cpp:157] Top shape: 32 128 10 10 (409600)
I0602 14:39:23.067338  1686 net.cpp:165] Memory required for data: 7521009696
I0602 14:39:23.067343  1686 layer_factory.hpp:77] Creating layer conv7_2
I0602 14:39:23.067353  1686 net.cpp:100] Creating Layer conv7_2
I0602 14:39:23.067355  1686 net.cpp:434] conv7_2 <- conv7_1
I0602 14:39:23.067363  1686 net.cpp:408] conv7_2 -> conv7_2
I0602 14:39:23.070194  1686 net.cpp:150] Setting up conv7_2
I0602 14:39:23.070210  1686 net.cpp:157] Top shape: 32 256 5 5 (204800)
I0602 14:39:23.070214  1686 net.cpp:165] Memory required for data: 7521828896
I0602 14:39:23.070219  1686 layer_factory.hpp:77] Creating layer conv7_2_relu
I0602 14:39:23.070225  1686 net.cpp:100] Creating Layer conv7_2_relu
I0602 14:39:23.070228  1686 net.cpp:434] conv7_2_relu <- conv7_2
I0602 14:39:23.070243  1686 net.cpp:395] conv7_2_relu -> conv7_2 (in-place)
I0602 14:39:23.070371  1686 net.cpp:150] Setting up conv7_2_relu
I0602 14:39:23.070379  1686 net.cpp:157] Top shape: 32 256 5 5 (204800)
I0602 14:39:23.070381  1686 net.cpp:165] Memory required for data: 7522648096
I0602 14:39:23.070384  1686 layer_factory.hpp:77] Creating layer conv7_2_conv7_2_relu_0_split
I0602 14:39:23.070387  1686 net.cpp:100] Creating Layer conv7_2_conv7_2_relu_0_split
I0602 14:39:23.070389  1686 net.cpp:434] conv7_2_conv7_2_relu_0_split <- conv7_2
I0602 14:39:23.070395  1686 net.cpp:408] conv7_2_conv7_2_relu_0_split -> conv7_2_conv7_2_relu_0_split_0
I0602 14:39:23.070402  1686 net.cpp:408] conv7_2_conv7_2_relu_0_split -> conv7_2_conv7_2_relu_0_split_1
I0602 14:39:23.070408  1686 net.cpp:408] conv7_2_conv7_2_relu_0_split -> conv7_2_conv7_2_relu_0_split_2
I0602 14:39:23.070413  1686 net.cpp:408] conv7_2_conv7_2_relu_0_split -> conv7_2_conv7_2_relu_0_split_3
I0602 14:39:23.070462  1686 net.cpp:150] Setting up conv7_2_conv7_2_relu_0_split
I0602 14:39:23.070467  1686 net.cpp:157] Top shape: 32 256 5 5 (204800)
I0602 14:39:23.070471  1686 net.cpp:157] Top shape: 32 256 5 5 (204800)
I0602 14:39:23.070472  1686 net.cpp:157] Top shape: 32 256 5 5 (204800)
I0602 14:39:23.070475  1686 net.cpp:157] Top shape: 32 256 5 5 (204800)
I0602 14:39:23.070477  1686 net.cpp:165] Memory required for data: 7525924896
I0602 14:39:23.070479  1686 layer_factory.hpp:77] Creating layer conv8_1
I0602 14:39:23.070487  1686 net.cpp:100] Creating Layer conv8_1
I0602 14:39:23.070490  1686 net.cpp:434] conv8_1 <- conv7_2_conv7_2_relu_0_split_0
I0602 14:39:23.070497  1686 net.cpp:408] conv8_1 -> conv8_1
I0602 14:39:23.071635  1686 net.cpp:150] Setting up conv8_1
I0602 14:39:23.071645  1686 net.cpp:157] Top shape: 32 128 5 5 (102400)
I0602 14:39:23.071647  1686 net.cpp:165] Memory required for data: 7526334496
I0602 14:39:23.071652  1686 layer_factory.hpp:77] Creating layer conv8_1_relu
I0602 14:39:23.071657  1686 net.cpp:100] Creating Layer conv8_1_relu
I0602 14:39:23.071661  1686 net.cpp:434] conv8_1_relu <- conv8_1
I0602 14:39:23.071666  1686 net.cpp:395] conv8_1_relu -> conv8_1 (in-place)
I0602 14:39:23.072227  1686 net.cpp:150] Setting up conv8_1_relu
I0602 14:39:23.072235  1686 net.cpp:157] Top shape: 32 128 5 5 (102400)
I0602 14:39:23.072238  1686 net.cpp:165] Memory required for data: 7526744096
I0602 14:39:23.072242  1686 layer_factory.hpp:77] Creating layer conv8_2
I0602 14:39:23.072249  1686 net.cpp:100] Creating Layer conv8_2
I0602 14:39:23.072252  1686 net.cpp:434] conv8_2 <- conv8_1
I0602 14:39:23.072257  1686 net.cpp:408] conv8_2 -> conv8_2
I0602 14:39:23.075125  1686 net.cpp:150] Setting up conv8_2
I0602 14:39:23.075137  1686 net.cpp:157] Top shape: 32 256 3 3 (73728)
I0602 14:39:23.075140  1686 net.cpp:165] Memory required for data: 7527039008
I0602 14:39:23.075145  1686 layer_factory.hpp:77] Creating layer conv8_2_relu
I0602 14:39:23.075150  1686 net.cpp:100] Creating Layer conv8_2_relu
I0602 14:39:23.075153  1686 net.cpp:434] conv8_2_relu <- conv8_2
I0602 14:39:23.075157  1686 net.cpp:395] conv8_2_relu -> conv8_2 (in-place)
I0602 14:39:23.075284  1686 net.cpp:150] Setting up conv8_2_relu
I0602 14:39:23.075290  1686 net.cpp:157] Top shape: 32 256 3 3 (73728)
I0602 14:39:23.075292  1686 net.cpp:165] Memory required for data: 7527333920
I0602 14:39:23.075295  1686 layer_factory.hpp:77] Creating layer conv8_2_conv8_2_relu_0_split
I0602 14:39:23.075299  1686 net.cpp:100] Creating Layer conv8_2_conv8_2_relu_0_split
I0602 14:39:23.075301  1686 net.cpp:434] conv8_2_conv8_2_relu_0_split <- conv8_2
I0602 14:39:23.075306  1686 net.cpp:408] conv8_2_conv8_2_relu_0_split -> conv8_2_conv8_2_relu_0_split_0
I0602 14:39:23.075311  1686 net.cpp:408] conv8_2_conv8_2_relu_0_split -> conv8_2_conv8_2_relu_0_split_1
I0602 14:39:23.075317  1686 net.cpp:408] conv8_2_conv8_2_relu_0_split -> conv8_2_conv8_2_relu_0_split_2
I0602 14:39:23.075321  1686 net.cpp:408] conv8_2_conv8_2_relu_0_split -> conv8_2_conv8_2_relu_0_split_3
I0602 14:39:23.075381  1686 net.cpp:150] Setting up conv8_2_conv8_2_relu_0_split
I0602 14:39:23.075387  1686 net.cpp:157] Top shape: 32 256 3 3 (73728)
I0602 14:39:23.075389  1686 net.cpp:157] Top shape: 32 256 3 3 (73728)
I0602 14:39:23.075392  1686 net.cpp:157] Top shape: 32 256 3 3 (73728)
I0602 14:39:23.075395  1686 net.cpp:157] Top shape: 32 256 3 3 (73728)
I0602 14:39:23.075397  1686 net.cpp:165] Memory required for data: 7528513568
I0602 14:39:23.075399  1686 layer_factory.hpp:77] Creating layer conv9_1
I0602 14:39:23.075407  1686 net.cpp:100] Creating Layer conv9_1
I0602 14:39:23.075410  1686 net.cpp:434] conv9_1 <- conv8_2_conv8_2_relu_0_split_0
I0602 14:39:23.075417  1686 net.cpp:408] conv9_1 -> conv9_1
I0602 14:39:23.076563  1686 net.cpp:150] Setting up conv9_1
I0602 14:39:23.076573  1686 net.cpp:157] Top shape: 32 128 3 3 (36864)
I0602 14:39:23.076576  1686 net.cpp:165] Memory required for data: 7528661024
I0602 14:39:23.076581  1686 layer_factory.hpp:77] Creating layer conv9_1_relu
I0602 14:39:23.076586  1686 net.cpp:100] Creating Layer conv9_1_relu
I0602 14:39:23.076588  1686 net.cpp:434] conv9_1_relu <- conv9_1
I0602 14:39:23.076592  1686 net.cpp:395] conv9_1_relu -> conv9_1 (in-place)
I0602 14:39:23.076715  1686 net.cpp:150] Setting up conv9_1_relu
I0602 14:39:23.076722  1686 net.cpp:157] Top shape: 32 128 3 3 (36864)
I0602 14:39:23.076725  1686 net.cpp:165] Memory required for data: 7528808480
I0602 14:39:23.076727  1686 layer_factory.hpp:77] Creating layer conv9_2
I0602 14:39:23.076733  1686 net.cpp:100] Creating Layer conv9_2
I0602 14:39:23.076737  1686 net.cpp:434] conv9_2 <- conv9_1
I0602 14:39:23.076742  1686 net.cpp:408] conv9_2 -> conv9_2
I0602 14:39:23.079546  1686 net.cpp:150] Setting up conv9_2
I0602 14:39:23.079560  1686 net.cpp:157] Top shape: 32 256 1 1 (8192)
I0602 14:39:23.079561  1686 net.cpp:165] Memory required for data: 7528841248
I0602 14:39:23.079566  1686 layer_factory.hpp:77] Creating layer conv9_2_relu
I0602 14:39:23.079571  1686 net.cpp:100] Creating Layer conv9_2_relu
I0602 14:39:23.079574  1686 net.cpp:434] conv9_2_relu <- conv9_2
I0602 14:39:23.079579  1686 net.cpp:395] conv9_2_relu -> conv9_2 (in-place)
I0602 14:39:23.079701  1686 net.cpp:150] Setting up conv9_2_relu
I0602 14:39:23.079708  1686 net.cpp:157] Top shape: 32 256 1 1 (8192)
I0602 14:39:23.079710  1686 net.cpp:165] Memory required for data: 7528874016
I0602 14:39:23.079712  1686 layer_factory.hpp:77] Creating layer conv9_2_conv9_2_relu_0_split
I0602 14:39:23.079717  1686 net.cpp:100] Creating Layer conv9_2_conv9_2_relu_0_split
I0602 14:39:23.079720  1686 net.cpp:434] conv9_2_conv9_2_relu_0_split <- conv9_2
I0602 14:39:23.079725  1686 net.cpp:408] conv9_2_conv9_2_relu_0_split -> conv9_2_conv9_2_relu_0_split_0
I0602 14:39:23.079728  1686 net.cpp:408] conv9_2_conv9_2_relu_0_split -> conv9_2_conv9_2_relu_0_split_1
I0602 14:39:23.079733  1686 net.cpp:408] conv9_2_conv9_2_relu_0_split -> conv9_2_conv9_2_relu_0_split_2
I0602 14:39:23.079802  1686 net.cpp:150] Setting up conv9_2_conv9_2_relu_0_split
I0602 14:39:23.079807  1686 net.cpp:157] Top shape: 32 256 1 1 (8192)
I0602 14:39:23.079808  1686 net.cpp:157] Top shape: 32 256 1 1 (8192)
I0602 14:39:23.079812  1686 net.cpp:157] Top shape: 32 256 1 1 (8192)
I0602 14:39:23.079813  1686 net.cpp:165] Memory required for data: 7528972320
I0602 14:39:23.079815  1686 layer_factory.hpp:77] Creating layer conv4_3_norm
I0602 14:39:23.079821  1686 net.cpp:100] Creating Layer conv4_3_norm
I0602 14:39:23.079823  1686 net.cpp:434] conv4_3_norm <- conv4_3_relu4_3_0_split_1
I0602 14:39:23.079828  1686 net.cpp:408] conv4_3_norm -> conv4_3_norm
I0602 14:39:23.079947  1686 net.cpp:150] Setting up conv4_3_norm
I0602 14:39:23.079952  1686 net.cpp:157] Top shape: 32 512 38 38 (23658496)
I0602 14:39:23.079954  1686 net.cpp:165] Memory required for data: 7623606304
I0602 14:39:23.079958  1686 layer_factory.hpp:77] Creating layer conv4_3_norm_conv4_3_norm_0_split
I0602 14:39:23.079962  1686 net.cpp:100] Creating Layer conv4_3_norm_conv4_3_norm_0_split
I0602 14:39:23.079964  1686 net.cpp:434] conv4_3_norm_conv4_3_norm_0_split <- conv4_3_norm
I0602 14:39:23.079977  1686 net.cpp:408] conv4_3_norm_conv4_3_norm_0_split -> conv4_3_norm_conv4_3_norm_0_split_0
I0602 14:39:23.079983  1686 net.cpp:408] conv4_3_norm_conv4_3_norm_0_split -> conv4_3_norm_conv4_3_norm_0_split_1
I0602 14:39:23.079988  1686 net.cpp:408] conv4_3_norm_conv4_3_norm_0_split -> conv4_3_norm_conv4_3_norm_0_split_2
I0602 14:39:23.080039  1686 net.cpp:150] Setting up conv4_3_norm_conv4_3_norm_0_split
I0602 14:39:23.080044  1686 net.cpp:157] Top shape: 32 512 38 38 (23658496)
I0602 14:39:23.080047  1686 net.cpp:157] Top shape: 32 512 38 38 (23658496)
I0602 14:39:23.080050  1686 net.cpp:157] Top shape: 32 512 38 38 (23658496)
I0602 14:39:23.080051  1686 net.cpp:165] Memory required for data: 7907508256
I0602 14:39:23.080054  1686 layer_factory.hpp:77] Creating layer conv4_3_norm_mbox_loc
I0602 14:39:23.080061  1686 net.cpp:100] Creating Layer conv4_3_norm_mbox_loc
I0602 14:39:23.080065  1686 net.cpp:434] conv4_3_norm_mbox_loc <- conv4_3_norm_conv4_3_norm_0_split_0
I0602 14:39:23.080070  1686 net.cpp:408] conv4_3_norm_mbox_loc -> conv4_3_norm_mbox_loc
I0602 14:39:23.081809  1686 net.cpp:150] Setting up conv4_3_norm_mbox_loc
I0602 14:39:23.081818  1686 net.cpp:157] Top shape: 32 16 38 38 (739328)
I0602 14:39:23.081821  1686 net.cpp:165] Memory required for data: 7910465568
I0602 14:39:23.081825  1686 layer_factory.hpp:77] Creating layer conv4_3_norm_mbox_loc_perm
I0602 14:39:23.081831  1686 net.cpp:100] Creating Layer conv4_3_norm_mbox_loc_perm
I0602 14:39:23.081835  1686 net.cpp:434] conv4_3_norm_mbox_loc_perm <- conv4_3_norm_mbox_loc
I0602 14:39:23.081840  1686 net.cpp:408] conv4_3_norm_mbox_loc_perm -> conv4_3_norm_mbox_loc_perm
I0602 14:39:23.081920  1686 net.cpp:150] Setting up conv4_3_norm_mbox_loc_perm
I0602 14:39:23.081926  1686 net.cpp:157] Top shape: 32 38 38 16 (739328)
I0602 14:39:23.081928  1686 net.cpp:165] Memory required for data: 7913422880
I0602 14:39:23.081930  1686 layer_factory.hpp:77] Creating layer conv4_3_norm_mbox_loc_flat
I0602 14:39:23.081934  1686 net.cpp:100] Creating Layer conv4_3_norm_mbox_loc_flat
I0602 14:39:23.081938  1686 net.cpp:434] conv4_3_norm_mbox_loc_flat <- conv4_3_norm_mbox_loc_perm
I0602 14:39:23.081943  1686 net.cpp:408] conv4_3_norm_mbox_loc_flat -> conv4_3_norm_mbox_loc_flat
I0602 14:39:23.081969  1686 net.cpp:150] Setting up conv4_3_norm_mbox_loc_flat
I0602 14:39:23.081974  1686 net.cpp:157] Top shape: 32 23104 (739328)
I0602 14:39:23.081976  1686 net.cpp:165] Memory required for data: 7916380192
I0602 14:39:23.081979  1686 layer_factory.hpp:77] Creating layer conv4_3_norm_mbox_conf
I0602 14:39:23.081990  1686 net.cpp:100] Creating Layer conv4_3_norm_mbox_conf
I0602 14:39:23.081995  1686 net.cpp:434] conv4_3_norm_mbox_conf <- conv4_3_norm_conv4_3_norm_0_split_1
I0602 14:39:23.081998  1686 net.cpp:408] conv4_3_norm_mbox_conf -> conv4_3_norm_mbox_conf
I0602 14:39:23.083739  1686 net.cpp:150] Setting up conv4_3_norm_mbox_conf
I0602 14:39:23.083748  1686 net.cpp:157] Top shape: 32 16 38 38 (739328)
I0602 14:39:23.083750  1686 net.cpp:165] Memory required for data: 7919337504
I0602 14:39:23.083755  1686 layer_factory.hpp:77] Creating layer conv4_3_norm_mbox_conf_perm
I0602 14:39:23.083763  1686 net.cpp:100] Creating Layer conv4_3_norm_mbox_conf_perm
I0602 14:39:23.083767  1686 net.cpp:434] conv4_3_norm_mbox_conf_perm <- conv4_3_norm_mbox_conf
I0602 14:39:23.083772  1686 net.cpp:408] conv4_3_norm_mbox_conf_perm -> conv4_3_norm_mbox_conf_perm
I0602 14:39:23.083850  1686 net.cpp:150] Setting up conv4_3_norm_mbox_conf_perm
I0602 14:39:23.083856  1686 net.cpp:157] Top shape: 32 38 38 16 (739328)
I0602 14:39:23.083858  1686 net.cpp:165] Memory required for data: 7922294816
I0602 14:39:23.083860  1686 layer_factory.hpp:77] Creating layer conv4_3_norm_mbox_conf_flat
I0602 14:39:23.083865  1686 net.cpp:100] Creating Layer conv4_3_norm_mbox_conf_flat
I0602 14:39:23.083868  1686 net.cpp:434] conv4_3_norm_mbox_conf_flat <- conv4_3_norm_mbox_conf_perm
I0602 14:39:23.083871  1686 net.cpp:408] conv4_3_norm_mbox_conf_flat -> conv4_3_norm_mbox_conf_flat
I0602 14:39:23.083899  1686 net.cpp:150] Setting up conv4_3_norm_mbox_conf_flat
I0602 14:39:23.083904  1686 net.cpp:157] Top shape: 32 23104 (739328)
I0602 14:39:23.083907  1686 net.cpp:165] Memory required for data: 7925252128
I0602 14:39:23.083909  1686 layer_factory.hpp:77] Creating layer conv4_3_norm_mbox_priorbox
I0602 14:39:23.083914  1686 net.cpp:100] Creating Layer conv4_3_norm_mbox_priorbox
I0602 14:39:23.083919  1686 net.cpp:434] conv4_3_norm_mbox_priorbox <- conv4_3_norm_conv4_3_norm_0_split_2
I0602 14:39:23.083922  1686 net.cpp:434] conv4_3_norm_mbox_priorbox <- data_data_0_split_1
I0602 14:39:23.083927  1686 net.cpp:408] conv4_3_norm_mbox_priorbox -> conv4_3_norm_mbox_priorbox
I0602 14:39:23.083948  1686 net.cpp:150] Setting up conv4_3_norm_mbox_priorbox
I0602 14:39:23.083953  1686 net.cpp:157] Top shape: 1 2 23104 (46208)
I0602 14:39:23.083956  1686 net.cpp:165] Memory required for data: 7925436960
I0602 14:39:23.083958  1686 layer_factory.hpp:77] Creating layer fc7_mbox_loc
I0602 14:39:23.083966  1686 net.cpp:100] Creating Layer fc7_mbox_loc
I0602 14:39:23.083967  1686 net.cpp:434] fc7_mbox_loc <- fc7_relu7_0_split_1
I0602 14:39:23.083972  1686 net.cpp:408] fc7_mbox_loc -> fc7_mbox_loc
I0602 14:39:23.086403  1686 net.cpp:150] Setting up fc7_mbox_loc
I0602 14:39:23.086416  1686 net.cpp:157] Top shape: 32 24 19 19 (277248)
I0602 14:39:23.086417  1686 net.cpp:165] Memory required for data: 7926545952
I0602 14:39:23.086423  1686 layer_factory.hpp:77] Creating layer fc7_mbox_loc_perm
I0602 14:39:23.086429  1686 net.cpp:100] Creating Layer fc7_mbox_loc_perm
I0602 14:39:23.086433  1686 net.cpp:434] fc7_mbox_loc_perm <- fc7_mbox_loc
I0602 14:39:23.086437  1686 net.cpp:408] fc7_mbox_loc_perm -> fc7_mbox_loc_perm
I0602 14:39:23.086521  1686 net.cpp:150] Setting up fc7_mbox_loc_perm
I0602 14:39:23.086526  1686 net.cpp:157] Top shape: 32 19 19 24 (277248)
I0602 14:39:23.086529  1686 net.cpp:165] Memory required for data: 7927654944
I0602 14:39:23.086530  1686 layer_factory.hpp:77] Creating layer fc7_mbox_loc_flat
I0602 14:39:23.086535  1686 net.cpp:100] Creating Layer fc7_mbox_loc_flat
I0602 14:39:23.086539  1686 net.cpp:434] fc7_mbox_loc_flat <- fc7_mbox_loc_perm
I0602 14:39:23.086541  1686 net.cpp:408] fc7_mbox_loc_flat -> fc7_mbox_loc_flat
I0602 14:39:23.086560  1686 net.cpp:150] Setting up fc7_mbox_loc_flat
I0602 14:39:23.086565  1686 net.cpp:157] Top shape: 32 8664 (277248)
I0602 14:39:23.086566  1686 net.cpp:165] Memory required for data: 7928763936
I0602 14:39:23.086568  1686 layer_factory.hpp:77] Creating layer fc7_mbox_conf
I0602 14:39:23.086576  1686 net.cpp:100] Creating Layer fc7_mbox_conf
I0602 14:39:23.086580  1686 net.cpp:434] fc7_mbox_conf <- fc7_relu7_0_split_2
I0602 14:39:23.086585  1686 net.cpp:408] fc7_mbox_conf -> fc7_mbox_conf
I0602 14:39:23.089066  1686 net.cpp:150] Setting up fc7_mbox_conf
I0602 14:39:23.089078  1686 net.cpp:157] Top shape: 32 24 19 19 (277248)
I0602 14:39:23.089082  1686 net.cpp:165] Memory required for data: 7929872928
I0602 14:39:23.089087  1686 layer_factory.hpp:77] Creating layer fc7_mbox_conf_perm
I0602 14:39:23.089093  1686 net.cpp:100] Creating Layer fc7_mbox_conf_perm
I0602 14:39:23.089099  1686 net.cpp:434] fc7_mbox_conf_perm <- fc7_mbox_conf
I0602 14:39:23.089103  1686 net.cpp:408] fc7_mbox_conf_perm -> fc7_mbox_conf_perm
I0602 14:39:23.089191  1686 net.cpp:150] Setting up fc7_mbox_conf_perm
I0602 14:39:23.089197  1686 net.cpp:157] Top shape: 32 19 19 24 (277248)
I0602 14:39:23.089200  1686 net.cpp:165] Memory required for data: 7930981920
I0602 14:39:23.089201  1686 layer_factory.hpp:77] Creating layer fc7_mbox_conf_flat
I0602 14:39:23.089206  1686 net.cpp:100] Creating Layer fc7_mbox_conf_flat
I0602 14:39:23.089210  1686 net.cpp:434] fc7_mbox_conf_flat <- fc7_mbox_conf_perm
I0602 14:39:23.089213  1686 net.cpp:408] fc7_mbox_conf_flat -> fc7_mbox_conf_flat
I0602 14:39:23.089231  1686 net.cpp:150] Setting up fc7_mbox_conf_flat
I0602 14:39:23.089236  1686 net.cpp:157] Top shape: 32 8664 (277248)
I0602 14:39:23.089239  1686 net.cpp:165] Memory required for data: 7932090912
I0602 14:39:23.089251  1686 layer_factory.hpp:77] Creating layer fc7_mbox_priorbox
I0602 14:39:23.089257  1686 net.cpp:100] Creating Layer fc7_mbox_priorbox
I0602 14:39:23.089262  1686 net.cpp:434] fc7_mbox_priorbox <- fc7_relu7_0_split_3
I0602 14:39:23.089264  1686 net.cpp:434] fc7_mbox_priorbox <- data_data_0_split_2
I0602 14:39:23.089268  1686 net.cpp:408] fc7_mbox_priorbox -> fc7_mbox_priorbox
I0602 14:39:23.089293  1686 net.cpp:150] Setting up fc7_mbox_priorbox
I0602 14:39:23.089298  1686 net.cpp:157] Top shape: 1 2 8664 (17328)
I0602 14:39:23.089300  1686 net.cpp:165] Memory required for data: 7932160224
I0602 14:39:23.089303  1686 layer_factory.hpp:77] Creating layer conv6_2_mbox_loc
I0602 14:39:23.089309  1686 net.cpp:100] Creating Layer conv6_2_mbox_loc
I0602 14:39:23.089313  1686 net.cpp:434] conv6_2_mbox_loc <- conv6_2_conv6_2_relu_0_split_1
I0602 14:39:23.089318  1686 net.cpp:408] conv6_2_mbox_loc -> conv6_2_mbox_loc
I0602 14:39:23.091253  1686 net.cpp:150] Setting up conv6_2_mbox_loc
I0602 14:39:23.091264  1686 net.cpp:157] Top shape: 32 24 10 10 (76800)
I0602 14:39:23.091266  1686 net.cpp:165] Memory required for data: 7932467424
I0602 14:39:23.091271  1686 layer_factory.hpp:77] Creating layer conv6_2_mbox_loc_perm
I0602 14:39:23.091277  1686 net.cpp:100] Creating Layer conv6_2_mbox_loc_perm
I0602 14:39:23.091280  1686 net.cpp:434] conv6_2_mbox_loc_perm <- conv6_2_mbox_loc
I0602 14:39:23.091285  1686 net.cpp:408] conv6_2_mbox_loc_perm -> conv6_2_mbox_loc_perm
I0602 14:39:23.091368  1686 net.cpp:150] Setting up conv6_2_mbox_loc_perm
I0602 14:39:23.091373  1686 net.cpp:157] Top shape: 32 10 10 24 (76800)
I0602 14:39:23.091375  1686 net.cpp:165] Memory required for data: 7932774624
I0602 14:39:23.091377  1686 layer_factory.hpp:77] Creating layer conv6_2_mbox_loc_flat
I0602 14:39:23.091382  1686 net.cpp:100] Creating Layer conv6_2_mbox_loc_flat
I0602 14:39:23.091385  1686 net.cpp:434] conv6_2_mbox_loc_flat <- conv6_2_mbox_loc_perm
I0602 14:39:23.091388  1686 net.cpp:408] conv6_2_mbox_loc_flat -> conv6_2_mbox_loc_flat
I0602 14:39:23.091405  1686 net.cpp:150] Setting up conv6_2_mbox_loc_flat
I0602 14:39:23.091410  1686 net.cpp:157] Top shape: 32 2400 (76800)
I0602 14:39:23.091413  1686 net.cpp:165] Memory required for data: 7933081824
I0602 14:39:23.091414  1686 layer_factory.hpp:77] Creating layer conv6_2_mbox_conf
I0602 14:39:23.091423  1686 net.cpp:100] Creating Layer conv6_2_mbox_conf
I0602 14:39:23.091425  1686 net.cpp:434] conv6_2_mbox_conf <- conv6_2_conv6_2_relu_0_split_2
I0602 14:39:23.091431  1686 net.cpp:408] conv6_2_mbox_conf -> conv6_2_mbox_conf
I0602 14:39:23.093344  1686 net.cpp:150] Setting up conv6_2_mbox_conf
I0602 14:39:23.093354  1686 net.cpp:157] Top shape: 32 24 10 10 (76800)
I0602 14:39:23.093358  1686 net.cpp:165] Memory required for data: 7933389024
I0602 14:39:23.093361  1686 layer_factory.hpp:77] Creating layer conv6_2_mbox_conf_perm
I0602 14:39:23.093367  1686 net.cpp:100] Creating Layer conv6_2_mbox_conf_perm
I0602 14:39:23.093369  1686 net.cpp:434] conv6_2_mbox_conf_perm <- conv6_2_mbox_conf
I0602 14:39:23.093375  1686 net.cpp:408] conv6_2_mbox_conf_perm -> conv6_2_mbox_conf_perm
I0602 14:39:23.093457  1686 net.cpp:150] Setting up conv6_2_mbox_conf_perm
I0602 14:39:23.093463  1686 net.cpp:157] Top shape: 32 10 10 24 (76800)
I0602 14:39:23.093466  1686 net.cpp:165] Memory required for data: 7933696224
I0602 14:39:23.093467  1686 layer_factory.hpp:77] Creating layer conv6_2_mbox_conf_flat
I0602 14:39:23.093472  1686 net.cpp:100] Creating Layer conv6_2_mbox_conf_flat
I0602 14:39:23.093474  1686 net.cpp:434] conv6_2_mbox_conf_flat <- conv6_2_mbox_conf_perm
I0602 14:39:23.093477  1686 net.cpp:408] conv6_2_mbox_conf_flat -> conv6_2_mbox_conf_flat
I0602 14:39:23.093497  1686 net.cpp:150] Setting up conv6_2_mbox_conf_flat
I0602 14:39:23.093502  1686 net.cpp:157] Top shape: 32 2400 (76800)
I0602 14:39:23.093503  1686 net.cpp:165] Memory required for data: 7934003424
I0602 14:39:23.093505  1686 layer_factory.hpp:77] Creating layer conv6_2_mbox_priorbox
I0602 14:39:23.093521  1686 net.cpp:100] Creating Layer conv6_2_mbox_priorbox
I0602 14:39:23.093524  1686 net.cpp:434] conv6_2_mbox_priorbox <- conv6_2_conv6_2_relu_0_split_3
I0602 14:39:23.093528  1686 net.cpp:434] conv6_2_mbox_priorbox <- data_data_0_split_3
I0602 14:39:23.093531  1686 net.cpp:408] conv6_2_mbox_priorbox -> conv6_2_mbox_priorbox
I0602 14:39:23.093554  1686 net.cpp:150] Setting up conv6_2_mbox_priorbox
I0602 14:39:23.093559  1686 net.cpp:157] Top shape: 1 2 2400 (4800)
I0602 14:39:23.093560  1686 net.cpp:165] Memory required for data: 7934022624
I0602 14:39:23.093564  1686 layer_factory.hpp:77] Creating layer conv7_2_mbox_loc
I0602 14:39:23.093569  1686 net.cpp:100] Creating Layer conv7_2_mbox_loc
I0602 14:39:23.093574  1686 net.cpp:434] conv7_2_mbox_loc <- conv7_2_conv7_2_relu_0_split_1
I0602 14:39:23.093578  1686 net.cpp:408] conv7_2_mbox_loc -> conv7_2_mbox_loc
I0602 14:39:23.094830  1686 net.cpp:150] Setting up conv7_2_mbox_loc
I0602 14:39:23.094841  1686 net.cpp:157] Top shape: 32 24 5 5 (19200)
I0602 14:39:23.094843  1686 net.cpp:165] Memory required for data: 7934099424
I0602 14:39:23.094848  1686 layer_factory.hpp:77] Creating layer conv7_2_mbox_loc_perm
I0602 14:39:23.094852  1686 net.cpp:100] Creating Layer conv7_2_mbox_loc_perm
I0602 14:39:23.094856  1686 net.cpp:434] conv7_2_mbox_loc_perm <- conv7_2_mbox_loc
I0602 14:39:23.094861  1686 net.cpp:408] conv7_2_mbox_loc_perm -> conv7_2_mbox_loc_perm
I0602 14:39:23.094943  1686 net.cpp:150] Setting up conv7_2_mbox_loc_perm
I0602 14:39:23.094947  1686 net.cpp:157] Top shape: 32 5 5 24 (19200)
I0602 14:39:23.094950  1686 net.cpp:165] Memory required for data: 7934176224
I0602 14:39:23.094952  1686 layer_factory.hpp:77] Creating layer conv7_2_mbox_loc_flat
I0602 14:39:23.094956  1686 net.cpp:100] Creating Layer conv7_2_mbox_loc_flat
I0602 14:39:23.094959  1686 net.cpp:434] conv7_2_mbox_loc_flat <- conv7_2_mbox_loc_perm
I0602 14:39:23.094964  1686 net.cpp:408] conv7_2_mbox_loc_flat -> conv7_2_mbox_loc_flat
I0602 14:39:23.094980  1686 net.cpp:150] Setting up conv7_2_mbox_loc_flat
I0602 14:39:23.094985  1686 net.cpp:157] Top shape: 32 600 (19200)
I0602 14:39:23.094986  1686 net.cpp:165] Memory required for data: 7934253024
I0602 14:39:23.094990  1686 layer_factory.hpp:77] Creating layer conv7_2_mbox_conf
I0602 14:39:23.094996  1686 net.cpp:100] Creating Layer conv7_2_mbox_conf
I0602 14:39:23.095000  1686 net.cpp:434] conv7_2_mbox_conf <- conv7_2_conv7_2_relu_0_split_2
I0602 14:39:23.095005  1686 net.cpp:408] conv7_2_mbox_conf -> conv7_2_mbox_conf
I0602 14:39:23.096685  1686 net.cpp:150] Setting up conv7_2_mbox_conf
I0602 14:39:23.096696  1686 net.cpp:157] Top shape: 32 24 5 5 (19200)
I0602 14:39:23.096698  1686 net.cpp:165] Memory required for data: 7934329824
I0602 14:39:23.096704  1686 layer_factory.hpp:77] Creating layer conv7_2_mbox_conf_perm
I0602 14:39:23.096709  1686 net.cpp:100] Creating Layer conv7_2_mbox_conf_perm
I0602 14:39:23.096711  1686 net.cpp:434] conv7_2_mbox_conf_perm <- conv7_2_mbox_conf
I0602 14:39:23.096715  1686 net.cpp:408] conv7_2_mbox_conf_perm -> conv7_2_mbox_conf_perm
I0602 14:39:23.096799  1686 net.cpp:150] Setting up conv7_2_mbox_conf_perm
I0602 14:39:23.096806  1686 net.cpp:157] Top shape: 32 5 5 24 (19200)
I0602 14:39:23.096807  1686 net.cpp:165] Memory required for data: 7934406624
I0602 14:39:23.096809  1686 layer_factory.hpp:77] Creating layer conv7_2_mbox_conf_flat
I0602 14:39:23.096814  1686 net.cpp:100] Creating Layer conv7_2_mbox_conf_flat
I0602 14:39:23.096817  1686 net.cpp:434] conv7_2_mbox_conf_flat <- conv7_2_mbox_conf_perm
I0602 14:39:23.096822  1686 net.cpp:408] conv7_2_mbox_conf_flat -> conv7_2_mbox_conf_flat
I0602 14:39:23.096838  1686 net.cpp:150] Setting up conv7_2_mbox_conf_flat
I0602 14:39:23.096843  1686 net.cpp:157] Top shape: 32 600 (19200)
I0602 14:39:23.096845  1686 net.cpp:165] Memory required for data: 7934483424
I0602 14:39:23.096848  1686 layer_factory.hpp:77] Creating layer conv7_2_mbox_priorbox
I0602 14:39:23.096853  1686 net.cpp:100] Creating Layer conv7_2_mbox_priorbox
I0602 14:39:23.096854  1686 net.cpp:434] conv7_2_mbox_priorbox <- conv7_2_conv7_2_relu_0_split_3
I0602 14:39:23.096868  1686 net.cpp:434] conv7_2_mbox_priorbox <- data_data_0_split_4
I0602 14:39:23.096874  1686 net.cpp:408] conv7_2_mbox_priorbox -> conv7_2_mbox_priorbox
I0602 14:39:23.096894  1686 net.cpp:150] Setting up conv7_2_mbox_priorbox
I0602 14:39:23.096899  1686 net.cpp:157] Top shape: 1 2 600 (1200)
I0602 14:39:23.096902  1686 net.cpp:165] Memory required for data: 7934488224
I0602 14:39:23.096904  1686 layer_factory.hpp:77] Creating layer conv8_2_mbox_loc
I0602 14:39:23.096912  1686 net.cpp:100] Creating Layer conv8_2_mbox_loc
I0602 14:39:23.096916  1686 net.cpp:434] conv8_2_mbox_loc <- conv8_2_conv8_2_relu_0_split_1
I0602 14:39:23.096921  1686 net.cpp:408] conv8_2_mbox_loc -> conv8_2_mbox_loc
I0602 14:39:23.098578  1686 net.cpp:150] Setting up conv8_2_mbox_loc
I0602 14:39:23.098592  1686 net.cpp:157] Top shape: 32 16 3 3 (4608)
I0602 14:39:23.098594  1686 net.cpp:165] Memory required for data: 7934506656
I0602 14:39:23.098608  1686 layer_factory.hpp:77] Creating layer conv8_2_mbox_loc_perm
I0602 14:39:23.098615  1686 net.cpp:100] Creating Layer conv8_2_mbox_loc_perm
I0602 14:39:23.098620  1686 net.cpp:434] conv8_2_mbox_loc_perm <- conv8_2_mbox_loc
I0602 14:39:23.098625  1686 net.cpp:408] conv8_2_mbox_loc_perm -> conv8_2_mbox_loc_perm
I0602 14:39:23.098714  1686 net.cpp:150] Setting up conv8_2_mbox_loc_perm
I0602 14:39:23.098721  1686 net.cpp:157] Top shape: 32 3 3 16 (4608)
I0602 14:39:23.098723  1686 net.cpp:165] Memory required for data: 7934525088
I0602 14:39:23.098726  1686 layer_factory.hpp:77] Creating layer conv8_2_mbox_loc_flat
I0602 14:39:23.098729  1686 net.cpp:100] Creating Layer conv8_2_mbox_loc_flat
I0602 14:39:23.098732  1686 net.cpp:434] conv8_2_mbox_loc_flat <- conv8_2_mbox_loc_perm
I0602 14:39:23.098736  1686 net.cpp:408] conv8_2_mbox_loc_flat -> conv8_2_mbox_loc_flat
I0602 14:39:23.098755  1686 net.cpp:150] Setting up conv8_2_mbox_loc_flat
I0602 14:39:23.098760  1686 net.cpp:157] Top shape: 32 144 (4608)
I0602 14:39:23.098762  1686 net.cpp:165] Memory required for data: 7934543520
I0602 14:39:23.098764  1686 layer_factory.hpp:77] Creating layer conv8_2_mbox_conf
I0602 14:39:23.098773  1686 net.cpp:100] Creating Layer conv8_2_mbox_conf
I0602 14:39:23.098776  1686 net.cpp:434] conv8_2_mbox_conf <- conv8_2_conv8_2_relu_0_split_2
I0602 14:39:23.098781  1686 net.cpp:408] conv8_2_mbox_conf -> conv8_2_mbox_conf
I0602 14:39:23.100461  1686 net.cpp:150] Setting up conv8_2_mbox_conf
I0602 14:39:23.100471  1686 net.cpp:157] Top shape: 32 16 3 3 (4608)
I0602 14:39:23.100473  1686 net.cpp:165] Memory required for data: 7934561952
I0602 14:39:23.100479  1686 layer_factory.hpp:77] Creating layer conv8_2_mbox_conf_perm
I0602 14:39:23.100486  1686 net.cpp:100] Creating Layer conv8_2_mbox_conf_perm
I0602 14:39:23.100489  1686 net.cpp:434] conv8_2_mbox_conf_perm <- conv8_2_mbox_conf
I0602 14:39:23.100493  1686 net.cpp:408] conv8_2_mbox_conf_perm -> conv8_2_mbox_conf_perm
I0602 14:39:23.100580  1686 net.cpp:150] Setting up conv8_2_mbox_conf_perm
I0602 14:39:23.100586  1686 net.cpp:157] Top shape: 32 3 3 16 (4608)
I0602 14:39:23.100589  1686 net.cpp:165] Memory required for data: 7934580384
I0602 14:39:23.100590  1686 layer_factory.hpp:77] Creating layer conv8_2_mbox_conf_flat
I0602 14:39:23.100594  1686 net.cpp:100] Creating Layer conv8_2_mbox_conf_flat
I0602 14:39:23.100596  1686 net.cpp:434] conv8_2_mbox_conf_flat <- conv8_2_mbox_conf_perm
I0602 14:39:23.100601  1686 net.cpp:408] conv8_2_mbox_conf_flat -> conv8_2_mbox_conf_flat
I0602 14:39:23.100620  1686 net.cpp:150] Setting up conv8_2_mbox_conf_flat
I0602 14:39:23.100627  1686 net.cpp:157] Top shape: 32 144 (4608)
I0602 14:39:23.100628  1686 net.cpp:165] Memory required for data: 7934598816
I0602 14:39:23.100630  1686 layer_factory.hpp:77] Creating layer conv8_2_mbox_priorbox
I0602 14:39:23.100636  1686 net.cpp:100] Creating Layer conv8_2_mbox_priorbox
I0602 14:39:23.100638  1686 net.cpp:434] conv8_2_mbox_priorbox <- conv8_2_conv8_2_relu_0_split_3
I0602 14:39:23.100642  1686 net.cpp:434] conv8_2_mbox_priorbox <- data_data_0_split_5
I0602 14:39:23.100658  1686 net.cpp:408] conv8_2_mbox_priorbox -> conv8_2_mbox_priorbox
I0602 14:39:23.100682  1686 net.cpp:150] Setting up conv8_2_mbox_priorbox
I0602 14:39:23.100688  1686 net.cpp:157] Top shape: 1 2 144 (288)
I0602 14:39:23.100690  1686 net.cpp:165] Memory required for data: 7934599968
I0602 14:39:23.100692  1686 layer_factory.hpp:77] Creating layer conv9_2_mbox_loc
I0602 14:39:23.100698  1686 net.cpp:100] Creating Layer conv9_2_mbox_loc
I0602 14:39:23.100703  1686 net.cpp:434] conv9_2_mbox_loc <- conv9_2_conv9_2_relu_0_split_0
I0602 14:39:23.100708  1686 net.cpp:408] conv9_2_mbox_loc -> conv9_2_mbox_loc
I0602 14:39:23.102375  1686 net.cpp:150] Setting up conv9_2_mbox_loc
I0602 14:39:23.102385  1686 net.cpp:157] Top shape: 32 16 1 1 (512)
I0602 14:39:23.102387  1686 net.cpp:165] Memory required for data: 7934602016
I0602 14:39:23.102393  1686 layer_factory.hpp:77] Creating layer conv9_2_mbox_loc_perm
I0602 14:39:23.102398  1686 net.cpp:100] Creating Layer conv9_2_mbox_loc_perm
I0602 14:39:23.102402  1686 net.cpp:434] conv9_2_mbox_loc_perm <- conv9_2_mbox_loc
I0602 14:39:23.102407  1686 net.cpp:408] conv9_2_mbox_loc_perm -> conv9_2_mbox_loc_perm
I0602 14:39:23.102495  1686 net.cpp:150] Setting up conv9_2_mbox_loc_perm
I0602 14:39:23.102501  1686 net.cpp:157] Top shape: 32 1 1 16 (512)
I0602 14:39:23.102504  1686 net.cpp:165] Memory required for data: 7934604064
I0602 14:39:23.102506  1686 layer_factory.hpp:77] Creating layer conv9_2_mbox_loc_flat
I0602 14:39:23.102509  1686 net.cpp:100] Creating Layer conv9_2_mbox_loc_flat
I0602 14:39:23.102512  1686 net.cpp:434] conv9_2_mbox_loc_flat <- conv9_2_mbox_loc_perm
I0602 14:39:23.102516  1686 net.cpp:408] conv9_2_mbox_loc_flat -> conv9_2_mbox_loc_flat
I0602 14:39:23.102535  1686 net.cpp:150] Setting up conv9_2_mbox_loc_flat
I0602 14:39:23.102540  1686 net.cpp:157] Top shape: 32 16 (512)
I0602 14:39:23.102542  1686 net.cpp:165] Memory required for data: 7934606112
I0602 14:39:23.102545  1686 layer_factory.hpp:77] Creating layer conv9_2_mbox_conf
I0602 14:39:23.102552  1686 net.cpp:100] Creating Layer conv9_2_mbox_conf
I0602 14:39:23.102555  1686 net.cpp:434] conv9_2_mbox_conf <- conv9_2_conv9_2_relu_0_split_1
I0602 14:39:23.102560  1686 net.cpp:408] conv9_2_mbox_conf -> conv9_2_mbox_conf
I0602 14:39:23.104682  1686 net.cpp:150] Setting up conv9_2_mbox_conf
I0602 14:39:23.104696  1686 net.cpp:157] Top shape: 32 16 1 1 (512)
I0602 14:39:23.104698  1686 net.cpp:165] Memory required for data: 7934608160
I0602 14:39:23.104703  1686 layer_factory.hpp:77] Creating layer conv9_2_mbox_conf_perm
I0602 14:39:23.104710  1686 net.cpp:100] Creating Layer conv9_2_mbox_conf_perm
I0602 14:39:23.104713  1686 net.cpp:434] conv9_2_mbox_conf_perm <- conv9_2_mbox_conf
I0602 14:39:23.104718  1686 net.cpp:408] conv9_2_mbox_conf_perm -> conv9_2_mbox_conf_perm
I0602 14:39:23.104809  1686 net.cpp:150] Setting up conv9_2_mbox_conf_perm
I0602 14:39:23.104815  1686 net.cpp:157] Top shape: 32 1 1 16 (512)
I0602 14:39:23.104816  1686 net.cpp:165] Memory required for data: 7934610208
I0602 14:39:23.104818  1686 layer_factory.hpp:77] Creating layer conv9_2_mbox_conf_flat
I0602 14:39:23.104823  1686 net.cpp:100] Creating Layer conv9_2_mbox_conf_flat
I0602 14:39:23.104826  1686 net.cpp:434] conv9_2_mbox_conf_flat <- conv9_2_mbox_conf_perm
I0602 14:39:23.104830  1686 net.cpp:408] conv9_2_mbox_conf_flat -> conv9_2_mbox_conf_flat
I0602 14:39:23.104849  1686 net.cpp:150] Setting up conv9_2_mbox_conf_flat
I0602 14:39:23.104852  1686 net.cpp:157] Top shape: 32 16 (512)
I0602 14:39:23.104854  1686 net.cpp:165] Memory required for data: 7934612256
I0602 14:39:23.104856  1686 layer_factory.hpp:77] Creating layer conv9_2_mbox_priorbox
I0602 14:39:23.104862  1686 net.cpp:100] Creating Layer conv9_2_mbox_priorbox
I0602 14:39:23.104864  1686 net.cpp:434] conv9_2_mbox_priorbox <- conv9_2_conv9_2_relu_0_split_2
I0602 14:39:23.104867  1686 net.cpp:434] conv9_2_mbox_priorbox <- data_data_0_split_6
I0602 14:39:23.104871  1686 net.cpp:408] conv9_2_mbox_priorbox -> conv9_2_mbox_priorbox
I0602 14:39:23.104905  1686 net.cpp:150] Setting up conv9_2_mbox_priorbox
I0602 14:39:23.104910  1686 net.cpp:157] Top shape: 1 2 16 (32)
I0602 14:39:23.104912  1686 net.cpp:165] Memory required for data: 7934612384
I0602 14:39:23.104914  1686 layer_factory.hpp:77] Creating layer mbox_loc
I0602 14:39:23.104919  1686 net.cpp:100] Creating Layer mbox_loc
I0602 14:39:23.104923  1686 net.cpp:434] mbox_loc <- conv4_3_norm_mbox_loc_flat
I0602 14:39:23.104926  1686 net.cpp:434] mbox_loc <- fc7_mbox_loc_flat
I0602 14:39:23.104930  1686 net.cpp:434] mbox_loc <- conv6_2_mbox_loc_flat
I0602 14:39:23.104934  1686 net.cpp:434] mbox_loc <- conv7_2_mbox_loc_flat
I0602 14:39:23.104936  1686 net.cpp:434] mbox_loc <- conv8_2_mbox_loc_flat
I0602 14:39:23.104939  1686 net.cpp:434] mbox_loc <- conv9_2_mbox_loc_flat
I0602 14:39:23.104943  1686 net.cpp:408] mbox_loc -> mbox_loc
I0602 14:39:23.104966  1686 net.cpp:150] Setting up mbox_loc
I0602 14:39:23.104971  1686 net.cpp:157] Top shape: 32 34928 (1117696)
I0602 14:39:23.104974  1686 net.cpp:165] Memory required for data: 7939083168
I0602 14:39:23.104975  1686 layer_factory.hpp:77] Creating layer mbox_conf
I0602 14:39:23.104979  1686 net.cpp:100] Creating Layer mbox_conf
I0602 14:39:23.104982  1686 net.cpp:434] mbox_conf <- conv4_3_norm_mbox_conf_flat
I0602 14:39:23.104985  1686 net.cpp:434] mbox_conf <- fc7_mbox_conf_flat
I0602 14:39:23.104988  1686 net.cpp:434] mbox_conf <- conv6_2_mbox_conf_flat
I0602 14:39:23.104991  1686 net.cpp:434] mbox_conf <- conv7_2_mbox_conf_flat
I0602 14:39:23.104995  1686 net.cpp:434] mbox_conf <- conv8_2_mbox_conf_flat
I0602 14:39:23.104996  1686 net.cpp:434] mbox_conf <- conv9_2_mbox_conf_flat
I0602 14:39:23.105000  1686 net.cpp:408] mbox_conf -> mbox_conf
I0602 14:39:23.105018  1686 net.cpp:150] Setting up mbox_conf
I0602 14:39:23.105023  1686 net.cpp:157] Top shape: 32 34928 (1117696)
I0602 14:39:23.105026  1686 net.cpp:165] Memory required for data: 7943553952
I0602 14:39:23.105026  1686 layer_factory.hpp:77] Creating layer mbox_priorbox
I0602 14:39:23.105031  1686 net.cpp:100] Creating Layer mbox_priorbox
I0602 14:39:23.105034  1686 net.cpp:434] mbox_priorbox <- conv4_3_norm_mbox_priorbox
I0602 14:39:23.105037  1686 net.cpp:434] mbox_priorbox <- fc7_mbox_priorbox
I0602 14:39:23.105039  1686 net.cpp:434] mbox_priorbox <- conv6_2_mbox_priorbox
I0602 14:39:23.105043  1686 net.cpp:434] mbox_priorbox <- conv7_2_mbox_priorbox
I0602 14:39:23.105046  1686 net.cpp:434] mbox_priorbox <- conv8_2_mbox_priorbox
I0602 14:39:23.105048  1686 net.cpp:434] mbox_priorbox <- conv9_2_mbox_priorbox
I0602 14:39:23.105051  1686 net.cpp:408] mbox_priorbox -> mbox_priorbox
I0602 14:39:23.105069  1686 net.cpp:150] Setting up mbox_priorbox
I0602 14:39:23.105073  1686 net.cpp:157] Top shape: 1 2 34928 (69856)
I0602 14:39:23.105075  1686 net.cpp:165] Memory required for data: 7943833376
I0602 14:39:23.105077  1686 layer_factory.hpp:77] Creating layer mbox_loss
I0602 14:39:23.105087  1686 net.cpp:100] Creating Layer mbox_loss
I0602 14:39:23.105088  1686 net.cpp:434] mbox_loss <- mbox_loc
I0602 14:39:23.105092  1686 net.cpp:434] mbox_loss <- mbox_conf
I0602 14:39:23.105094  1686 net.cpp:434] mbox_loss <- mbox_priorbox
…
  name: "data"
  type: "AnnotatedData"
  top: "data"
  top: "label"
  include {
    phase: TEST
  }
  transform_param {
    mean_value: 104
    mean_value: 117
    mean_value: 123
    resize_param {
      prob: 1
      resize_mode: WARP
      height: 300
      width: 300
      interp_mode: LINEAR
    }
  }
  data_param {
    source: "examples/tbs_300x300_HSIL_10x/tbs_300x300_HSIL_10x_test_lmdb"
    batch_size: 4
    backend: LMDB
  }
  annotated_data_param {
    batch_sampler {
    }
    label_map_file: "data/tbs_300x300_HSIL_10x/labelmap_voc.prototxt"
  }
}
layer {
  name: "conv1_1"
  type: "Convolution"
  bottom: "data"
  top: "conv1_1"
  param {
    lr_mult: 1
    decay_mult: 1
  }
  param {
    lr_mult: 2
    decay_mult: 0
  }
  convolution_param {
    num_output: 64
    pad: 1
    kernel_size: 3
    weight_filler {
      type: "xavier"
    }
    bias_filler {
      type: "constant"
      value: 0
    }
  }
}
layer {
  name: "relu1_1"
  type: "ReLU"
  bottom: "conv1_1"
  top: "conv1_1"
}
layer {
  name: "conv1_2"
  type: "Convolution"
  bottom: "conv1_1"
  top: "conv1_2"
  param {
    lr_mult: 1
    decay_mult: 1
  }
  param {
    lr_mult: 2
    decay_mult: 0
  }
  convolution_param {
    num_output: 64
    pad: 1
    kernel_size: 3
    weight_filler {
      type: "xavier"
    }
    bias_filler {
      type: "constant"
      value: 0
    }
  }
}
layer {
  name: "relu1_2"
  type: "ReLU"
  bottom: "conv1_2"
  top: "conv1_2"
}
layer {
  name: "pool1"
  type: "Pooling"
  bottom: "conv1_2"
  top: "pool1"
  pooling_param {
    pool: MAX
    kernel_size: 2
    stride: 2
  }
}
layer {
  name: "conv2_1"
  type: "Convolution"
  bottom: "pool1"
  top: "conv2_1"
  param {
    lr_mult: 1
    decay_mult: 1
  }
  param {
    lr_mult: 2
    decay_mult: 0
  }
  convolution_param {
    num_output: 128
    pad: 1
    kernel_size: 3
    weight_filler {
      type: "xavier"
    }
    bias_filler {
      type: "constant"
      value: 0
    }
  }
}
layer {
  name: "relu2_1"
  type: "ReLU"
  bottom: "conv2_1"
  top: "conv2_1"
}
layer {
  name: "conv2_2"
  type: "Convolution"
  bottom: "conv2_1"
  top: "conv2_2"
  param {
    lr_mult: 1
    decay_mult: 1
  }
  param {
    lr_mult: 2
    decay_mult: 0
  }
  convolution_param {
    num_output: 128
    pad: 1
    kernel_size: 3
    weight_filler {
      type: "xavier"
    }
    bias_filler {
      type: "constant"
      value: 0
    }
  }
}
layer {
  name: "relu2_2"
  type: "ReLU"
  bottom: "conv2_2"
  top: "conv2_2"
}
layer {
  name: "pool2"
  type: "Pooling"
  bottom: "conv2_2"
  top: "pool2"
  pooling_param {
    pool: MAX
    kernel_size: 2
    stride: 2
  }
}
layer {
  name: "conv3_1"
  type: "Convolution"
  bottom: "pool2"
  top: "conv3_1"
  param {
    lr_mult: 1
    decay_mult: 1
  }
  param {
    lr_mult: 2
    decay_mult: 0
  }
  convolution_param {
    num_output: 256
    pad: 1
    kernel_size: 3
    weight_filler {
      type: "xavier"
    }
    bias_filler {
      type: "constant"
      value: 0
    }
  }
}
layer {
  name: "relu3_1"
  type: "ReLU"
  bottom: "conv3_1"
  top: "conv3_1"
}
layer {
  name: "conv3_2"
  type: "Convolution"
  bottom: "conv3_1"
  top: "conv3_2"
  param {
    lr_mult: 1
    decay_mult: 1
  }
  param {
    lr_mult: 2
    decay_mult: 0
  }
  convolution_param {
    num_output: 256
    pad: 1
    kernel_size: 3
    weight_filler {
      type: "xavier"
    }
    bias_filler {
      type: "constant"
      value: 0
    }
  }
}
layer {
  name: "relu3_2"
  type: "ReLU"
  bottom: "conv3_2"
  top: "conv3_2"
}
layer {
  name: "conv3_3"
  type: "Convolution"
  bottom: "conv3_2"
  top: "conv3_3"
  param {
    lr_mult: 1
    decay_mult: 1
  }
  param {
    lr_mult: 2
    decay_mult: 0
  }
  convolution_param {
    num_output: 256
    pad: 1
    kernel_size: 3
    weight_filler {
      type: "xavier"
    }
    bias_filler {
      type: "constant"
      value: 0
    }
  }
}
layer {
  name: "relu3_3"
  type: "ReLU"
  bottom: "conv3_3"
  top: "conv3_3"
}
layer {
  name: "pool3"
  type: "Pooling"
  bottom: "conv3_3"
  top: "pool3"
  pooling_param {
    pool: MAX
    kernel_size: 2
    stride: 2
  }
}
layer {
  name: "conv4_1"
  type: "Convolution"
  bottom: "pool3"
  top: "conv4_1"
  param {
    lr_mult: 1
    decay_mult: 1
  }
  param {
    lr_mult: 2
    decay_mult: 0
  }
  convolution_param {
    num_output: 512
    pad: 1
    kernel_size: 3
    weight_filler {
      type: "xavier"
    }
    bias_filler {
      type: "constant"
      value: 0
    }
  }
}
layer {
  name: "relu4_1"
  type: "ReLU"
  bottom: "conv4_1"
  top: "conv4_1"
}
layer {
  name: "conv4_2"
  type: "Convolution"
  bottom: "conv4_1"
  top: "conv4_2"
  param {
    lr_mult: 1
    decay_mult: 1
  }
  param {
    lr_mult: 2
    decay_mult: 0
  }
  convolution_param {
    num_output: 512
    pad: 1
    kernel_size: 3
    weight_filler {
      type: "xavier"
    }
    bias_filler {
      type: "constant"
      value: 0
    }
  }
}
layer {
  name: "relu4_2"
  type: "ReLU"
  bottom: "conv4_2"
  top: "conv4_2"
}
layer {
  name: "conv4_3"
  type: "Convolution"
  bottom: "conv4_2"
  top: "conv4_3"
  param {
    lr_mult: 1
    decay_mult: 1
  }
  param {
    lr_mult: 2
    decay_mult: 0
  }
  convolution_param {
    num_output: 512
    pad: 1
    kernel_size: 3
    weight_filler {
      type: "xavier"
    }
    bias_filler {
      type: "constant"
      value: 0
    }
  }
}
layer {
  name: "relu4_3"
  type: "ReLU"
  bottom: "conv4_3"
  top: "conv4_3"
}
layer {
  name: "pool4"
  type: "Pooling"
  bottom: "conv4_3"
  top: "pool4"
  pooling_param {
    pool: MAX
    kernel_size: 2
    stride: 2
  }
}
layer {
  name: "conv5_1"
  type: "Convolution"
  bottom: "pool4"
  top: "conv5_1"
  param {
    lr_mult: 1
    decay_mult: 1
  }
  param {
    lr_mult: 2
    decay_mult: 0
  }
  convolution_param {
    num_output: 512
    pad: 1
    kernel_size: 3
    weight_filler {
      type: "xavier"
    }
    bias_filler {
      type: "constant"
      value: 0
    }
    dilation: 1
  }
}
layer {
  name: "relu5_1"
  type: "ReLU"
  bottom: "conv5_1"
  top: "conv5_1"
}
layer {
  name: "conv5_2"
  type: "Convolution"
  bottom: "conv5_1"
  top: "conv5_2"
  param {
    lr_mult: 1
    decay_mult: 1
  }
  param {
    lr_mult: 2
    decay_mult: 0
  }
  convolution_param {
    num_output: 512
    pad: 1
    kernel_size: 3
    weight_filler {
      type: "xavier"
    }
    bias_filler {
      type: "constant"
      value: 0
    }
    dilation: 1
  }
}
layer {
  name: "relu5_2"
  type: "ReLU"
  bottom: "conv5_2"
  top: "conv5_2"
}
layer {
  name: "conv5_3"
  type: "Convolution"
  bottom: "conv5_2"
  top: "conv5_3"
  param {
    lr_mult: 1
    decay_mult: 1
  }
  param {
    lr_mult: 2
    decay_mult: 0
  }
  convolution_param {
    num_output: 512
    pad: 1
    kernel_size: 3
    weight_filler {
      type: "xavier"
    }
    bias_filler {
      type: "constant"
      value: 0
    }
    dilation: 1
  }
}
layer {
  name: "relu5_3"
  type: "ReLU"
  bottom: "conv5_3"
  top: "conv5_3"
}
layer {
  name: "pool5"
  type: "Pooling"
  bottom: "conv5_3"
  top: "pool5"
  pooling_param {
    pool: MAX
    kernel_size: 3
    stride: 1
    pad: 1
  }
}
layer {
  name: "fc6"
  type: "Convolution"
  bottom: "pool5"
  top: "fc6"
  param {
    lr_mult: 1
    decay_mult: 1
  }
  param {
    lr_mult: 2
    decay_mult: 0
  }
  convolution_param {
    num_output: 1024
    pad: 6
    kernel_size: 3
    weight_filler {
      type: "xavier"
    }
    bias_filler {
      type: "constant"
      value: 0
    }
    dilation: 6
  }
}
layer {
  name: "relu6"
  type: "ReLU"
  bottom: "fc6"
  top: "fc6"
}
layer {
  name: "fc7"
  type: "Convolution"
  bottom: "fc6"
  top: "fc7"
  param {
    lr_mult: 1
    decay_mult: 1
  }
  param {
    lr_mult: 2
    decay_mult: 0
  }
  convolution_param {
    num_output: 1024
    kernel_size: 1
    weight_filler {
      type: "xavier"
    }
    bias_filler {
      type: "constant"
      value: 0
    }
  }
}
layer {
  name: "relu7"
  type: "ReLU"
  bottom: "fc7"
  top: "fc7"
}
layer {
  name: "conv6_1"
  type: "Convolution"
  bottom: "fc7"
  top: "conv6_1"
  param {
    lr_mult: 1
    decay_mult: 1
  }
  param {
    lr_mult: 2
    decay_mult: 0
  }
  convolution_param {
    num_output: 256
    pad: 0
    kernel_size: 1
    stride: 1
    weight_filler {
      type: "xavier"
    }
    bias_filler {
      type: "constant"
      value: 0
    }
  }
}
layer {
  name: "conv6_1_relu"
  type: "ReLU"
  bottom: "conv6_1"
  top: "conv6_1"
}
layer {
  name: "conv6_2"
  type: "Convolution"
  bottom: "conv6_1"
  top: "conv6_2"
  param {
    lr_mult: 1
    decay_mult: 1
  }
  param {
    lr_mult: 2
    decay_mult: 0
  }
  convolution_param {
    num_output: 512
    pad: 1
    kernel_size: 3
    stride: 2
    weight_filler {
      type: "xavier"
    }
    bias_filler {
      type: "constant"
      value: 0
    }
  }
}
layer {
  name: "conv6_2_relu"
  type: "ReLU"
  bottom: "conv6_2"
  top: "conv6_2"
}
layer {
  name: "conv7_1"
  type: "Convolution"
  bottom: "conv6_2"
  top: "conv7_1"
  param {
    lr_mult: 1
    decay_mult: 1
  }
  param {
    lr_mult: 2
    decay_mult: 0
  }
  convolution_param {
    num_output: 128
    pad: 0
    kernel_size: 1
    stride: 1
    weight_filler {
      type: "xavier"
    }
    bias_filler {
      type: "constant"
      value: 0
    }
  }
}
layer {
  name: "conv7_1_relu"
  type: "ReLU"
  bottom: "conv7_1"
  top: "conv7_1"
}
layer {
  name: "conv7_2"
  type: "Convolution"
  bottom: "conv7_1"
  top: "conv7_2"
  param {
    lr_mult: 1
    decay_mult: 1
  }
  param {
    lr_mult: 2
    decay_mult: 0
  }
  convolution_param {
    num_output: 256
    pad: 1
    kernel_size: 3
    stride: 2
    weight_filler {
      type: "xavier"
    }
    bias_filler {
      type: "constant"
      value: 0
    }
  }
}
layer {
  name: "conv7_2_relu"
  type: "ReLU"
  bottom: "conv7_2"
  top: "conv7_2"
}
layer {
  name: "conv8_1"
  type: "Convolution"
  bottom: "conv7_2"
  top: "conv8_1"
  param {
    lr_mult: 1
    decay_mult: 1
  }
  param {
    lr_mult: 2
    decay_mult: 0
  }
  convolution_param {
    num_output: 128
    pad: 0
    kernel_size: 1
    stride: 1
    weight_filler {
      type: "xavier"
    }
    bias_filler {
      type: "constant"
      value: 0
    }
  }
}
layer {
  name: "conv8_1_relu"
  type: "ReLU"
  bottom: "conv8_1"
  top: "conv8_1"
}
layer {
  name: "conv8_2"
  type: "Convolution"
  bottom: "conv8_1"
  top: "conv8_2"
  param {
    lr_mult: 1
    decay_mult: 1
  }
  param {
    lr_mult: 2
    decay_mult: 0
  }
  convolution_param {
    num_output: 256
    pad: 0
    kernel_size: 3
    stride: 1
    weight_filler {
      type: "xavier"
    }
    bias_filler {
      type: "constant"
      value: 0
    }
  }
}
layer {
  name: "conv8_2_relu"
  type: "ReLU"
  bottom: "conv8_2"
  top: "conv8_2"
}
layer {
  name: "conv9_1"
  type: "Convolution"
  bottom: "conv8_2"
  top: "conv9_1"
  param {
    lr_mult: 1
    decay_mult: 1
  }
  param {
    lr_mult: 2
    decay_mult: 0
  }
  convolution_param {
    num_output: 128
    pad: 0
    kernel_size: 1
    stride: 1
    weight_filler {
      type: "xavier"
    }
    bias_filler {
      type: "constant"
      value: 0
    }
  }
}
layer {
  name: "conv9_1_relu"
  type: "ReLU"
  bottom: "conv9_1"
  top: "conv9_1"
}
layer {
  name: "conv9_2"
  type: "Convolution"
  bottom: "conv9_1"
  top: "conv9_2"
  param {
    lr_mult: 1
    decay_mult: 1
  }
  param {
    lr_mult: 2
    decay_mult: 0
  }
  convolution_param {
    num_output: 256
    pad: 0
    kernel_size: 3
    stride: 1
    weight_filler {
      type: "xavier"
    }
    bias_filler {
      type: "constant"
      value: 0
    }
  }
}
layer {
  name: "conv9_2_relu"
  type: "ReLU"
  bottom: "conv9_2"
  top: "conv9_2"
}
layer {
  name: "conv4_3_norm"
  type: "Normalize"
  bottom: "conv4_3"
  top: "conv4_3_norm"
  norm_param {
    across_spatial: false
    scale_filler {
      type: "constant"
      value: 20
    }
    channel_shared: false
  }
}
layer {
  name: "conv4_3_norm_mbox_loc"
  type: "Convolution"
  bottom: "conv4_3_norm"
  top: "conv4_3_norm_mbox_loc"
  param {
    lr_mult: 1
    decay_mult: 1
  }
  param {
    lr_mult: 2
    decay_mult: 0
  }
  convolution_param {
    num_output: 16
    pad: 1
    kernel_size: 3
    stride: 1
    weight_filler {
      type: "xavier"
    }
    bias_filler {
      type: "constant"
      value: 0
    }
  }
}
layer {
  name: "conv4_3_norm_mbox_loc_perm"
  type: "Permute"
  bottom: "conv4_3_norm_mbox_loc"
  top: "conv4_3_norm_mbox_loc_perm"
  permute_param {
    order: 0
    order: 2
    order: 3
    order: 1
  }
}
layer {
  name: "conv4_3_norm_mbox_loc_flat"
  type: "Flatten"
  bottom: "conv4_3_norm_mbox_loc_perm"
  top: "conv4_3_norm_mbox_loc_flat"
  flatten_param {
    axis: 1
  }
}
layer {
  name: "conv4_3_norm_mbox_conf"
  type: "Convolution"
  bottom: "conv4_3_norm"
  top: "conv4_3_norm_mbox_conf"
  param {
    lr_mult: 1
    decay_mult: 1
  }
  param {
    lr_mult: 2
    decay_mult: 0
  }
  convolution_param {
    num_output: 16
    pad: 1
    kernel_size: 3
    stride: 1
    weight_filler {
      type: "xavier"
    }
    bias_filler {
      type: "constant"
      value: 0
    }
  }
}
layer {
  name: "conv4_3_norm_mbox_conf_perm"
  type: "Permute"
  bottom: "conv4_3_norm_mbox_conf"
  top: "conv4_3_norm_mbox_conf_perm"
  permute_param {
    order: 0
    order: 2
    order: 3
    order: 1
  }
}
layer {
  name: "conv4_3_norm_mbox_conf_flat"
  type: "Flatten"
  bottom: "conv4_3_norm_mbox_conf_perm"
  top: "conv4_3_norm_mbox_conf_flat"
  flatten_param {
    axis: 1
  }
}
layer {
  name: "conv4_3_norm_mbox_priorbox"
  type: "PriorBox"
  bottom: "conv4_3_norm"
  bottom: "data"
  top: "conv4_3_norm_mbox_priorbox"
  prior_box_param {
    min_size: 30
    max_size: 60
    aspect_ratio: 2
    flip: true
    clip: false
    variance: 0.1
    variance: 0.1
    variance: 0.2
    variance: 0.2
    step: 8
    offset: 0.5
  }
}
layer {
  name: "fc7_mbox_loc"
  type: "Convolution"
  bottom: "fc7"
  top: "fc7_mbox_loc"
  param {
    lr_mult: 1
    decay_mult: 1
  }
  param {
    lr_mult: 2
    decay_mult: 0
  }
  convolution_param {
    num_output: 24
    pad: 1
    kernel_size: 3
    stride: 1
    weight_filler {
      type: "xavier"
    }
    bias_filler {
      type: "constant"
      value: 0
    }
  }
}
layer {
  name: "fc7_mbox_loc_perm"
  type: "Permute"
  bottom: "fc7_mbox_loc"
  top: "fc7_mbox_loc_perm"
  permute_param {
    order: 0
    order: 2
    order: 3
    order: 1
  }
}
layer {
  name: "fc7_mbox_loc_flat"
  type: "Flatten"
  bottom: "fc7_mbox_loc_perm"
  top: "fc7_mbox_loc_flat"
  flatten_param {
    axis: 1
  }
}
layer {
  name: "fc7_mbox_conf"
  type: "Convolution"
  bottom: "fc7"
  top: "fc7_mbox_conf"
  param {
    lr_mult: 1
    decay_mult: 1
  }
  param {
    lr_mult: 2
    decay_mult: 0
  }
  convolution_param {
    num_output: 24
    pad: 1
    kernel_size: 3
    stride: 1
    weight_filler {
      type: "xavier"
    }
    bias_filler {
      type: "constant"
      value: 0
    }
  }
}
layer {
  name: "fc7_mbox_conf_perm"
  type: "Permute"
  bottom: "fc7_mbox_conf"
  top: "fc7_mbox_conf_perm"
  permute_param {
    order: 0
    order: 2
    order: 3
    order: 1
  }
}
layer {
  name: "fc7_mbox_conf_flat"
  type: "Flatten"
  bottom: "fc7_mbox_conf_perm"
  top: "fc7_mbox_conf_flat"
  flatten_param {
    axis: 1
  }
}
layer {
  name: "fc7_mbox_priorbox"
  type: "PriorBox"
  bottom: "fc7"
  bottom: "data"
  top: "fc7_mbox_priorbox"
  prior_box_param {
    min_size: 60
    max_size: 111
    aspect_ratio: 2
    aspect_ratio: 3
    flip: true
    clip: false
    variance: 0.1
    variance: 0.1
    variance: 0.2
    variance: 0.2
    step: 16
    offset: 0.5
  }
}
layer {
  name: "conv6_2_mbox_loc"
  type: "Convolution"
  bottom: "conv6_2"
  top: "conv6_2_mbox_loc"
  param {
    lr_mult: 1
    decay_mult: 1
  }
  param {
    lr_mult: 2
    decay_mult: 0
  }
  convolution_param {
    num_output: 24
    pad: 1
    kernel_size: 3
    stride: 1
    weight_filler {
      type: "xavier"
    }
    bias_filler {
      type: "constant"
      value: 0
    }
  }
}
layer {
  name: "conv6_2_mbox_loc_perm"
  type: "Permute"
  bottom: "conv6_2_mbox_loc"
  top: "conv6_2_mbox_loc_perm"
  permute_param {
    order: 0
    order: 2
    order: 3
    order: 1
  }
}
layer {
  name: "conv6_2_mbox_loc_flat"
  type: "Flatten"
  bottom: "conv6_2_mbox_loc_perm"
  top: "conv6_2_mbox_loc_flat"
  flatten_param {
    axis: 1
  }
}
layer {
  name: "conv6_2_mbox_conf"
  type: "Convolution"
  bottom: "conv6_2"
  top: "conv6_2_mbox_conf"
  param {
    lr_mult: 1
    decay_mult: 1
  }
  param {
    lr_mult: 2
    decay_mult: 0
  }
  convolution_param {
    num_output: 24
    pad: 1
    kernel_size: 3
    stride: 1
    weight_filler {
      type: "xavier"
    }
    bias_filler {
      type: "constant"
      value: 0
    }
  }
}
layer {
  name: "conv6_2_mbox_conf_perm"
  type: "Permute"
  bottom: "conv6_2_mbox_conf"
  top: "conv6_2_mbox_conf_perm"
  permute_param {
    order: 0
    order: 2
    order: 3
    order: 1
  }
}
layer {
  name: "conv6_2_mbox_conf_flat"
  type: "Flatten"
  bottom: "conv6_2_mbox_conf_perm"
  top: "conv6_2_mbox_conf_flat"
  flatten_param {
    axis: 1
  }
}
layer {
  name: "conv6_2_mbox_priorbox"
  type: "PriorBox"
  bottom: "conv6_2"
  bottom: "data"
  top: "conv6_2_mbox_priorbox"
  prior_box_param {
    min_size: 111
    max_size: 162
    aspect_ratio: 2
    aspect_ratio: 3
    flip: true
    clip: false
    variance: 0.1
    variance: 0.1
    variance: 0.2
    variance: 0.2
    step: 32
    offset: 0.5
  }
}
layer {
  name: "conv7_2_mbox_loc"
  type: "Convolution"
  bottom: "conv7_2"
  top: "conv7_2_mbox_loc"
  param {
    lr_mult: 1
    decay_mult: 1
  }
  param {
    lr_mult: 2
    decay_mult: 0
  }
  convolution_param {
    num_output: 24
    pad: 1
    kernel_size: 3
    stride: 1
    weight_filler {
      type: "xavier"
    }
    bias_filler {
      type: "constant"
      value: 0
    }
  }
}
layer {
  name: "conv7_2_mbox_loc_perm"
  type: "Permute"
  bottom: "conv7_2_mbox_loc"
  top: "conv7_2_mbox_loc_perm"
  permute_param {
    order: 0
    order: 2
    order: 3
    order: 1
  }
}
layer {
  name: "conv7_2_mbox_loc_flat"
  type: "Flatten"
  bottom: "conv7_2_mbox_loc_perm"
  top: "conv7_2_mbox_loc_flat"
  flatten_param {
    axis: 1
  }
}
layer {
  name: "conv7_2_mbox_conf"
  type: "Convolution"
  bottom: "conv7_2"
  top: "conv7_2_mbox_conf"
  param {
    lr_mult: 1
    decay_mult: 1
  }
  param {
    lr_mult: 2
    decay_mult: 0
  }
  convolution_param {
    num_output: 24
    pad: 1
    kernel_size: 3
    stride: 1
    weight_filler {
      type: "xavier"
    }
    bias_filler {
      type: "constant"
      value: 0
    }
  }
}
layer {
  name: "conv7_2_mbox_conf_perm"
  type: "Permute"
  bottom: "conv7_2_mbox_conf"
  top: "conv7_2_mbox_conf_perm"
  permute_param {
    order: 0
    order: 2
    order: 3
    order: 1
  }
}
layer {
  name: "conv7_2_mbox_conf_flat"
  type: "Flatten"
  bottom: "conv7_2_mbox_conf_perm"
  top: "conv7_2_mbox_conf_flat"
  flatten_param {
    axis: 1
  }
}
layer {
  name: "conv7_2_mbox_priorbox"
  type: "PriorBox"
  bottom: "conv7_2"
  bottom: "data"
  top: "conv7_2_mbox_priorbox"
  prior_box_param {
    min_size: 162
    max_size: 213
    aspect_ratio: 2
    aspect_ratio: 3
    flip: true
    clip: false
    variance: 0.1
    variance: 0.1
    variance: 0.2
    variance: 0.2
    step: 64
    offset: 0.5
  }
}
layer {
  name: "conv8_2_mbox_loc"
  type: "Convolution"
  bottom: "conv8_2"
  top: "conv8_2_mbox_loc"
  param {
    lr_mult: 1
    decay_mult: 1
  }
  param {
    lr_mult: 2
    decay_mult: 0
  }
  convolution_param {
    num_output: 16
    pad: 1
    kernel_size: 3
    stride: 1
    weight_filler {
      type: "xavier"
    }
    bias_filler {
      type: "constant"
      value: 0
    }
  }
}
layer {
  name: "conv8_2_mbox_loc_perm"
  type: "Permute"
  bottom: "conv8_2_mbox_loc"
  top: "conv8_2_mbox_loc_perm"
  permute_param {
    order: 0
    order: 2
    order: 3
    order: 1
  }
}
layer {
  name: "conv8_2_mbox_loc_flat"
  type: "Flatten"
  bottom: "conv8_2_mbox_loc_perm"
  top: "conv8_2_mbox_loc_flat"
  flatten_param {
    axis: 1
  }
}
layer {
  name: "conv8_2_mbox_conf"
  type: "Convolution"
  bottom: "conv8_2"
  top: "conv8_2_mbox_conf"
  param {
    lr_mult: 1
    decay_mult: 1
  }
  param {
    lr_mult: 2
    decay_mult: 0
  }
  convolution_param {
    num_output: 16
    pad: 1
    kernel_size: 3
    stride: 1
    weight_filler {
      type: "xavier"
    }
    bias_filler {
      type: "constant"
      value: 0
    }
  }
}
layer {
  name: "conv8_2_mbox_conf_perm"
  type: "Permute"
  bottom: "conv8_2_mbox_conf"
  top: "conv8_2_mbox_conf_perm"
  permute_param {
    order: 0
    order: 2
    order: 3
    order: 1
  }
}
layer {
  name: "conv8_2_mbox_conf_flat"
  type: "Flatten"
  bottom: "conv8_2_mbox_conf_perm"
  top: "conv8_2_mbox_conf_flat"
  flatten_param {
    axis: 1
  }
}
layer {
  name: "conv8_2_mbox_priorbox"
  type: "PriorBox"
  bottom: "conv8_2"
  bottom: "data"
  top: "conv8_2_mbox_priorbox"
  prior_box_param {
    min_size: 213
    max_size: 264
    aspect_ratio: 2
    flip: true
    clip: false
    variance: 0.1
    variance: 0.1
    variance: 0.2
    variance: 0.2
    step: 100
    offset: 0.5
  }
}
layer {
  name: "conv9_2_mbox_loc"
  type: "Convolution"
  bottom: "conv9_2"
  top: "conv9_2_mbox_loc"
  param {
    lr_mult: 1
    decay_mult: 1
  }
  param {
    lr_mult: 2
    decay_mult: 0
  }
  convolution_param {
    num_output: 16
    pad: 1
    kernel_size: 3
    stride: 1
    weight_filler {
      type: "xavier"
    }
    bias_filler {
      type: "constant"
      value: 0
    }
  }
}
layer {
  name: "conv9_2_mbox_loc_perm"
  type: "Permute"
  bottom: "conv9_2_mbox_loc"
  top: "conv9_2_mbox_loc_perm"
  permute_param {
    order: 0
    order: 2
    order: 3
    order: 1
  }
}
layer {
  name: "conv9_2_mbox_loc_flat"
  type: "Flatten"
  bottom: "conv9_2_mbox_loc_perm"
  top: "conv9_2_mbox_loc_flat"
  flatten_param {
    axis: 1
  }
}
layer {
  name: "conv9_2_mbox_conf"
  type: "Convolution"
  bottom: "conv9_2"
  top: "conv9_2_mbox_conf"
  param {
    lr_mult: 1
    decay_mult: 1
  }
  param {
    lr_mult: 2
    decay_mult: 0
  }
  convolution_param {
    num_output: 16
    pad: 1
    kernel_size: 3
    stride: 1
    weight_filler {
      type: "xavier"
    }
    bias_filler {
      type: "constant"
      value: 0
    }
  }
}
layer {
  name: "conv9_2_mbox_conf_perm"
  type: "Permute"
  bottom: "conv9_2_mbox_conf"
  top: "conv9_2_mbox_conf_perm"
  permute_param {
    order: 0
    order: 2
    order: 3
    order: 1
  }
}
layer {
  name: "conv9_2_mbox_conf_flat"
  type: "Flatten"
  bottom: "conv9_2_mbox_conf_perm"
  top: "conv9_2_mbox_conf_flat"
  flatten_param {
    axis: 1
  }
}
layer {
  name: "conv9_2_mbox_priorbox"
  type: "PriorBox"
  bottom: "conv9_2"
  bottom: "data"
  top: "conv9_2_mbox_priorbox"
  prior_box_param {
    min_size: 264
    max_size: 315
    aspect_ratio: 2
    flip: true
    clip: false
    variance: 0.1
    variance: 0.1
    variance: 0.2
    variance: 0.2
    step: 300
    offset: 0.5
  }
}
layer {
  name: "mbox_loc"
  type: "Concat"
  bottom: "conv4_3_norm_mbox_loc_flat"
  bottom: "fc7_mbox_loc_flat"
  bottom: "conv6_2_mbox_loc_flat"
  bottom: "conv7_2_mbox_loc_flat"
  bottom: "conv8_2_mbox_loc_flat"
  bottom: "conv9_2_mbox_loc_flat"
  top: "mbox_loc"
  concat_param {
    axis: 1
  }
}
layer {
  name: "mbox_conf"
  type: "Concat"
  bottom: "conv4_3_norm_mbox_conf_flat"
  bottom: "fc7_mbox_conf_flat"
  bottom: "conv6_2_mbox_conf_flat"
  bottom: "conv7_2_mbox_conf_flat"
  bottom: "conv8_2_mbox_conf_flat"
  bottom: "conv9_2_mbox_conf_flat"
  top: "mbox_conf"
  concat_param {
    axis: 1
  }
}
layer {
  name: "mbox_priorbox"
  type: "Concat"
  bottom: "conv4_3_norm_mbox_priorbox"
  bottom: "fc7_mbox_priorbox"
  bottom: "conv6_2_mbox_priorbox"
  bottom: "conv7_2_mbox_priorbox"
  bottom: "conv8_2_mbox_priorbox"
  bottom: "conv9_2_mbox_priorbox"
  top: "mbox_priorbox"
  concat_param {
    axis: 2
  }
}
layer {
  name: "mbox_conf_reshape"
  type: "Reshape"
  bottom: "mbox_conf"
  top: "mbox_conf_reshape"
  reshape_param {
    shape {
      dim: 0
      dim: -1
      dim: 4
    }
  }
}
layer {
  name: "mbox_conf_softmax"
  type: "Softmax"
  bottom: "mbox_conf_reshape"
  top: "mbox_conf_softmax"
  softmax_param {
    axis: 2
  }
}
layer {
  name: "mbox_conf_flatten"
  type: "Flatten"
  bottom: "mbox_conf_softmax"
  top: "mbox_conf_flatten"
  flatten_param {
    axis: 1
  }
}
layer {
  name: "detection_out"
  type: "DetectionOutput"
  bottom: "mbox_loc"
  bottom: "mbox_conf_flatten"
  bottom: "mbox_priorbox"
  top: "detection_out"
  include {
    phase: TEST
  }
  detection_output_param {
    num_classes: 4
    share_location: true
    background_label_id: 0
    nms_param {
      nms_threshold: 0.45
      top_k: 400
    }
    save_output_param {
      output_directory: "/home/shangzw/data/tbs/results/tbs/SSD_300x300/Main"
      output_name_prefix: "comp4_det_test_"
      output_format: "VOC"
      label_map_file: "data/tbs_300x300_HSIL_10x/labelmap_voc.prototxt"
      name_size_file: "data/VOC0712/test_name_size.txt"
      num_test_image: 100
    }
    code_type: CENTER_SIZE
    keep_top_k: 200
    confidence_threshold: 0.01
  }
}
layer {
  name: "detection_eval"
  type: "DetectionEvaluate"
  bottom: "detection_out"
  bottom: "label"
  top: "detection_eval"
  include {
    phase: TEST
  }
  detection_evaluate_param {
    num_classes: 4
    background_label_id: 0
    overlap_threshold: 0.5
    evaluate_difficult_gt: false
    name_size_file: "data/VOC0712/test_name_size.txt"
  }
}
I0602 14:39:23.107671  1686 layer_factory.hpp:77] Creating layer data
I0602 14:39:23.107717  1686 net.cpp:100] Creating Layer data
I0602 14:39:23.107723  1686 net.cpp:408] data -> data
I0602 14:39:23.107731  1686 net.cpp:408] data -> label
I0602 14:39:23.108290  1708 db_lmdb.cpp:35] Opened lmdb examples/tbs_300x300_HSIL_10x/tbs_300x300_HSIL_10x_test_lmdb
I0602 14:39:23.108996  1686 annotated_data_layer.cpp:62] output data size: 4,3,300,300
I0602 14:39:23.118892  1686 net.cpp:150] Setting up data
I0602 14:39:23.118913  1686 net.cpp:157] Top shape: 4 3 300 300 (1080000)
I0602 14:39:23.118917  1686 net.cpp:157] Top shape: 1 1 1 8 (8)
I0602 14:39:23.118919  1686 net.cpp:165] Memory required for data: 4320032
I0602 14:39:23.118924  1686 layer_factory.hpp:77] Creating layer data_data_0_split
I0602 14:39:23.118934  1686 net.cpp:100] Creating Layer data_data_0_split
I0602 14:39:23.118937  1686 net.cpp:434] data_data_0_split <- data
I0602 14:39:23.118943  1686 net.cpp:408] data_data_0_split -> data_data_0_split_0
I0602 14:39:23.118952  1686 net.cpp:408] data_data_0_split -> data_data_0_split_1
I0602 14:39:23.118955  1686 net.cpp:408] data_data_0_split -> data_data_0_split_2
I0602 14:39:23.118962  1686 net.cpp:408] data_data_0_split -> data_data_0_split_3
I0602 14:39:23.118965  1686 net.cpp:408] data_data_0_split -> data_data_0_split_4
I0602 14:39:23.118969  1686 net.cpp:408] data_data_0_split -> data_data_0_split_5
I0602 14:39:23.118973  1686 net.cpp:408] data_data_0_split -> data_data_0_split_6
I0602 14:39:23.119588  1686 net.cpp:150] Setting up data_data_0_split
I0602 14:39:23.119606  1686 net.cpp:157] Top shape: 4 3 300 300 (1080000)
I0602 14:39:23.119616  1686 net.cpp:157] Top shape: 4 3 300 300 (1080000)
I0602 14:39:23.119624  1686 net.cpp:157] Top shape: 4 3 300 300 (1080000)
I0602 14:39:23.119632  1686 net.cpp:157] Top shape: 4 3 300 300 (1080000)
I0602 14:39:23.119642  1686 net.cpp:157] Top shape: 4 3 300 300 (1080000)
I0602 14:39:23.119663  1686 net.cpp:157] Top shape: 4 3 300 300 (1080000)
I0602 14:39:23.119671  1686 net.cpp:157] Top shape: 4 3 300 300 (1080000)
I0602 14:39:23.119676  1686 net.cpp:165] Memory required for data: 34560032
I0602 14:39:23.119684  1686 layer_factory.hpp:77] Creating layer conv1_1
I0602 14:39:23.119702  1686 net.cpp:100] Creating Layer conv1_1
I0602 14:39:23.119707  1686 net.cpp:434] conv1_1 <- data_data_0_split_0
I0602 14:39:23.119721  1686 net.cpp:408] conv1_1 -> conv1_1
I0602 14:39:23.122707  1686 net.cpp:150] Setting up conv1_1
I0602 14:39:23.122721  1686 net.cpp:157] Top shape: 4 64 300 300 (23040000)
I0602 14:39:23.122725  1686 net.cpp:165] Memory required for data: 126720032
I0602 14:39:23.122735  1686 layer_factory.hpp:77] Creating layer relu1_1
I0602 14:39:23.122743  1686 net.cpp:100] Creating Layer relu1_1
I0602 14:39:23.122750  1686 net.cpp:434] relu1_1 <- conv1_1
I0602 14:39:23.122755  1686 net.cpp:395] relu1_1 -> conv1_1 (in-place)
I0602 14:39:23.122934  1686 net.cpp:150] Setting up relu1_1
I0602 14:39:23.122947  1686 net.cpp:157] Top shape: 4 64 300 300 (23040000)
I0602 14:39:23.122951  1686 net.cpp:165] Memory required for data: 218880032
I0602 14:39:23.122954  1686 layer_factory.hpp:77] Creating layer conv1_2
I0602 14:39:23.122967  1686 net.cpp:100] Creating Layer conv1_2
I0602 14:39:23.122973  1686 net.cpp:434] conv1_2 <- conv1_1
I0602 14:39:23.122980  1686 net.cpp:408] conv1_2 -> conv1_2
I0602 14:39:23.124678  1686 net.cpp:150] Setting up conv1_2
I0602 14:39:23.124701  1686 net.cpp:157] Top shape: 4 64 300 300 (23040000)
I0602 14:39:23.124707  1686 net.cpp:165] Memory required for data: 311040032
I0602 14:39:23.124722  1686 layer_factory.hpp:77] Creating layer relu1_2
I0602 14:39:23.124730  1686 net.cpp:100] Creating Layer relu1_2
I0602 14:39:23.124734  1686 net.cpp:434] relu1_2 <- conv1_2
I0602 14:39:23.124742  1686 net.cpp:395] relu1_2 -> conv1_2 (in-place)
I0602 14:39:23.125593  1686 net.cpp:150] Setting up relu1_2
I0602 14:39:23.125607  1686 net.cpp:157] Top shape: 4 64 300 300 (23040000)
I0602 14:39:23.125610  1686 net.cpp:165] Memory required for data: 403200032
I0602 14:39:23.125615  1686 layer_factory.hpp:77] Creating layer pool1
I0602 14:39:23.125624  1686 net.cpp:100] Creating Layer pool1
I0602 14:39:23.125629  1686 net.cpp:434] pool1 <- conv1_2
I0602 14:39:23.125638  1686 net.cpp:408] pool1 -> pool1
I0602 14:39:23.125706  1686 net.cpp:150] Setting up pool1
I0602 14:39:23.125715  1686 net.cpp:157] Top shape: 4 64 150 150 (5760000)
I0602 14:39:23.125717  1686 net.cpp:165] Memory required for data: 426240032
I0602 14:39:23.125720  1686 layer_factory.hpp:77] Creating layer conv2_1
I0602 14:39:23.125733  1686 net.cpp:100] Creating Layer conv2_1
I0602 14:39:23.125740  1686 net.cpp:434] conv2_1 <- pool1
I0602 14:39:23.125746  1686 net.cpp:408] conv2_1 -> conv2_1
I0602 14:39:23.127848  1686 net.cpp:150] Setting up conv2_1
I0602 14:39:23.127869  1686 net.cpp:157] Top shape: 4 128 150 150 (11520000)
I0602 14:39:23.127876  1686 net.cpp:165] Memory required for data: 472320032
I0602 14:39:23.127890  1686 layer_factory.hpp:77] Creating layer relu2_1
I0602 14:39:23.127900  1686 net.cpp:100] Creating Layer relu2_1
I0602 14:39:23.127907  1686 net.cpp:434] relu2_1 <- conv2_1
I0602 14:39:23.127915  1686 net.cpp:395] relu2_1 -> conv2_1 (in-place)
I0602 14:39:23.128782  1686 net.cpp:150] Setting up relu2_1
I0602 14:39:23.128796  1686 net.cpp:157] Top shape: 4 128 150 150 (11520000)
I0602 14:39:23.128801  1686 net.cpp:165] Memory required for data: 518400032
I0602 14:39:23.128805  1686 layer_factory.hpp:77] Creating layer conv2_2
I0602 14:39:23.128820  1686 net.cpp:100] Creating Layer conv2_2
I0602 14:39:23.128826  1686 net.cpp:434] conv2_2 <- conv2_1
I0602 14:39:23.128836  1686 net.cpp:408] conv2_2 -> conv2_2
I0602 14:39:23.132232  1686 net.cpp:150] Setting up conv2_2
I0602 14:39:23.132248  1686 net.cpp:157] Top shape: 4 128 150 150 (11520000)
I0602 14:39:23.132251  1686 net.cpp:165] Memory required for data: 564480032
I0602 14:39:23.132259  1686 layer_factory.hpp:77] Creating layer relu2_2
I0602 14:39:23.132279  1686 net.cpp:100] Creating Layer relu2_2
I0602 14:39:23.132284  1686 net.cpp:434] relu2_2 <- conv2_2
I0602 14:39:23.132288  1686 net.cpp:395] relu2_2 -> conv2_2 (in-place)
I0602 14:39:23.132436  1686 net.cpp:150] Setting up relu2_2
I0602 14:39:23.132444  1686 net.cpp:157] Top shape: 4 128 150 150 (11520000)
I0602 14:39:23.132448  1686 net.cpp:165] Memory required for data: 610560032
I0602 14:39:23.132452  1686 layer_factory.hpp:77] Creating layer pool2
I0602 14:39:23.132460  1686 net.cpp:100] Creating Layer pool2
I0602 14:39:23.132464  1686 net.cpp:434] pool2 <- conv2_2
I0602 14:39:23.132470  1686 net.cpp:408] pool2 -> pool2
I0602 14:39:23.132520  1686 net.cpp:150] Setting up pool2
I0602 14:39:23.132529  1686 net.cpp:157] Top shape: 4 128 75 75 (2880000)
I0602 14:39:23.132531  1686 net.cpp:165] Memory required for data: 622080032
I0602 14:39:23.132535  1686 layer_factory.hpp:77] Creating layer conv3_1
I0602 14:39:23.132545  1686 net.cpp:100] Creating Layer conv3_1
I0602 14:39:23.132550  1686 net.cpp:434] conv3_1 <- pool2
I0602 14:39:23.132558  1686 net.cpp:408] conv3_1 -> conv3_1
I0602 14:39:23.135427  1686 net.cpp:150] Setting up conv3_1
I0602 14:39:23.135442  1686 net.cpp:157] Top shape: 4 256 75 75 (5760000)
I0602 14:39:23.135445  1686 net.cpp:165] Memory required for data: 645120032
I0602 14:39:23.135459  1686 layer_factory.hpp:77] Creating layer relu3_1
I0602 14:39:23.135466  1686 net.cpp:100] Creating Layer relu3_1
I0602 14:39:23.135473  1686 net.cpp:434] relu3_1 <- conv3_1
I0602 14:39:23.135478  1686 net.cpp:395] relu3_1 -> conv3_1 (in-place)
I0602 14:39:23.135637  1686 net.cpp:150] Setting up relu3_1
I0602 14:39:23.135646  1686 net.cpp:157] Top shape: 4 256 75 75 (5760000)
I0602 14:39:23.135649  1686 net.cpp:165] Memory required for data: 668160032
I0602 14:39:23.135653  1686 layer_factory.hpp:77] Creating layer conv3_2
I0602 14:39:23.135665  1686 net.cpp:100] Creating Layer conv3_2
I0602 14:39:23.135670  1686 net.cpp:434] conv3_2 <- conv3_1
I0602 14:39:23.135679  1686 net.cpp:408] conv3_2 -> conv3_2
I0602 14:39:23.141825  1686 net.cpp:150] Setting up conv3_2
I0602 14:39:23.141844  1686 net.cpp:157] Top shape: 4 256 75 75 (5760000)
I0602 14:39:23.141849  1686 net.cpp:165] Memory required for data: 691200032
I0602 14:39:23.141856  1686 layer_factory.hpp:77] Creating layer relu3_2
I0602 14:39:23.141865  1686 net.cpp:100] Creating Layer relu3_2
I0602 14:39:23.141870  1686 net.cpp:434] relu3_2 <- conv3_2
I0602 14:39:23.141877  1686 net.cpp:395] relu3_2 -> conv3_2 (in-place)
I0602 14:39:23.142038  1686 net.cpp:150] Setting up relu3_2
I0602 14:39:23.142048  1686 net.cpp:157] Top shape: 4 256 75 75 (5760000)
I0602 14:39:23.142051  1686 net.cpp:165] Memory required for data: 714240032
I0602 14:39:23.142055  1686 layer_factory.hpp:77] Creating layer conv3_3
I0602 14:39:23.142071  1686 net.cpp:100] Creating Layer conv3_3
I0602 14:39:23.142091  1686 net.cpp:434] conv3_3 <- conv3_2
I0602 14:39:23.142107  1686 net.cpp:408] conv3_3 -> conv3_3
I0602 14:39:23.147177  1686 net.cpp:150] Setting up conv3_3
I0602 14:39:23.147197  1686 net.cpp:157] Top shape: 4 256 75 75 (5760000)
I0602 14:39:23.147202  1686 net.cpp:165] Memory required for data: 737280032
I0602 14:39:23.147212  1686 layer_factory.hpp:77] Creating layer relu3_3
I0602 14:39:23.147222  1686 net.cpp:100] Creating Layer relu3_3
I0602 14:39:23.147227  1686 net.cpp:434] relu3_3 <- conv3_3
I0602 14:39:23.147233  1686 net.cpp:395] relu3_3 -> conv3_3 (in-place)
I0602 14:39:23.147408  1686 net.cpp:150] Setting up relu3_3
I0602 14:39:23.147418  1686 net.cpp:157] Top shape: 4 256 75 75 (5760000)
I0602 14:39:23.147421  1686 net.cpp:165] Memory required for data: 760320032
I0602 14:39:23.147426  1686 layer_factory.hpp:77] Creating layer pool3
I0602 14:39:23.147433  1686 net.cpp:100] Creating Layer pool3
I0602 14:39:23.147438  1686 net.cpp:434] pool3 <- conv3_3
I0602 14:39:23.147444  1686 net.cpp:408] pool3 -> pool3
I0602 14:39:23.147501  1686 net.cpp:150] Setting up pool3
I0602 14:39:23.147509  1686 net.cpp:157] Top shape: 4 256 38 38 (1478656)
I0602 14:39:23.147541  1686 net.cpp:165] Memory required for data: 766234656
I0602 14:39:23.147547  1686 layer_factory.hpp:77] Creating layer conv4_1
I0602 14:39:23.147562  1686 net.cpp:100] Creating Layer conv4_1
I0602 14:39:23.147577  1686 net.cpp:434] conv4_1 <- pool3
I0602 14:39:23.147594  1686 net.cpp:408] conv4_1 -> conv4_1
I0602 14:39:23.156172  1686 net.cpp:150] Setting up conv4_1
I0602 14:39:23.156235  1686 net.cpp:157] Top shape: 4 512 38 38 (2957312)
I0602 14:39:23.156250  1686 net.cpp:165] Memory required for data: 778063904
I0602 14:39:23.156267  1686 layer_factory.hpp:77] Creating layer relu4_1
I0602 14:39:23.156286  1686 net.cpp:100] Creating Layer relu4_1
I0602 14:39:23.156301  1686 net.cpp:434] relu4_1 <- conv4_1
I0602 14:39:23.156316  1686 net.cpp:395] relu4_1 -> conv4_1 (in-place)
I0602 14:39:23.157301  1686 net.cpp:150] Setting up relu4_1
I0602 14:39:23.157335  1686 net.cpp:157] Top shape: 4 512 38 38 (2957312)
I0602 14:39:23.157351  1686 net.cpp:165] Memory required for data: 789893152
I0602 14:39:23.157363  1686 layer_factory.hpp:77] Creating layer conv4_2
I0602 14:39:23.157384  1686 net.cpp:100] Creating Layer conv4_2
I0602 14:39:23.157398  1686 net.cpp:434] conv4_2 <- conv4_1
I0602 14:39:23.157416  1686 net.cpp:408] conv4_2 -> conv4_2
I0602 14:39:23.180538  1686 net.cpp:150] Setting up conv4_2
I0602 14:39:23.180558  1686 net.cpp:157] Top shape: 4 512 38 38 (2957312)
I0602 14:39:23.180563  1686 net.cpp:165] Memory required for data: 801722400
I0602 14:39:23.180593  1686 layer_factory.hpp:77] Creating layer relu4_2
I0602 14:39:23.180603  1686 net.cpp:100] Creating Layer relu4_2
I0602 14:39:23.180608  1686 net.cpp:434] relu4_2 <- conv4_2
I0602 14:39:23.180614  1686 net.cpp:395] relu4_2 -> conv4_2 (in-place)
I0602 14:39:23.182018  1686 net.cpp:150] Setting up relu4_2
I0602 14:39:23.182034  1686 net.cpp:157] Top shape: 4 512 38 38 (2957312)
I0602 14:39:23.182036  1686 net.cpp:165] Memory required for data: 813551648
I0602 14:39:23.182040  1686 layer_factory.hpp:77] Creating layer conv4_3
I0602 14:39:23.182056  1686 net.cpp:100] Creating Layer conv4_3
I0602 14:39:23.182061  1686 net.cpp:434] conv4_3 <- conv4_2
I0602 14:39:23.182070  1686 net.cpp:408] conv4_3 -> conv4_3
I0602 14:39:23.197163  1686 net.cpp:150] Setting up conv4_3
I0602 14:39:23.197181  1686 net.cpp:157] Top shape: 4 512 38 38 (2957312)
I0602 14:39:23.197183  1686 net.cpp:165] Memory required for data: 825380896
I0602 14:39:23.197206  1686 layer_factory.hpp:77] Creating layer relu4_3
I0602 14:39:23.197212  1686 net.cpp:100] Creating Layer relu4_3
I0602 14:39:23.197216  1686 net.cpp:434] relu4_3 <- conv4_3
I0602 14:39:23.197219  1686 net.cpp:395] relu4_3 -> conv4_3 (in-place)
I0602 14:39:23.197391  1686 net.cpp:150] Setting up relu4_3
I0602 14:39:23.197397  1686 net.cpp:157] Top shape: 4 512 38 38 (2957312)
I0602 14:39:23.197399  1686 net.cpp:165] Memory required for data: 837210144
I0602 14:39:23.197402  1686 layer_factory.hpp:77] Creating layer conv4_3_relu4_3_0_split
I0602 14:39:23.197422  1686 net.cpp:100] Creating Layer conv4_3_relu4_3_0_split
I0602 14:39:23.197427  1686 net.cpp:434] conv4_3_relu4_3_0_split <- conv4_3
I0602 14:39:23.197445  1686 net.cpp:408] conv4_3_relu4_3_0_split -> conv4_3_relu4_3_0_split_0
I0602 14:39:23.197450  1686 net.cpp:408] conv4_3_relu4_3_0_split -> conv4_3_relu4_3_0_split_1
I0602 14:39:23.197486  1686 net.cpp:150] Setting up conv4_3_relu4_3_0_split
I0602 14:39:23.197491  1686 net.cpp:157] Top shape: 4 512 38 38 (2957312)
I0602 14:39:23.197494  1686 net.cpp:157] Top shape: 4 512 38 38 (2957312)
I0602 14:39:23.197496  1686 net.cpp:165] Memory required for data: 860868640
I0602 14:39:23.197499  1686 layer_factory.hpp:77] Creating layer pool4
I0602 14:39:23.197502  1686 net.cpp:100] Creating Layer pool4
I0602 14:39:23.197506  1686 net.cpp:434] pool4 <- conv4_3_relu4_3_0_split_0
I0602 14:39:23.197510  1686 net.cpp:408] pool4 -> pool4
I0602 14:39:23.197542  1686 net.cpp:150] Setting up pool4
I0602 14:39:23.197547  1686 net.cpp:157] Top shape: 4 512 19 19 (739328)
I0602 14:39:23.197549  1686 net.cpp:165] Memory required for data: 863825952
I0602 14:39:23.197561  1686 layer_factory.hpp:77] Creating layer conv5_1
I0602 14:39:23.197571  1686 net.cpp:100] Creating Layer conv5_1
I0602 14:39:23.197574  1686 net.cpp:434] conv5_1 <- pool4
I0602 14:39:23.197579  1686 net.cpp:408] conv5_1 -> conv5_1
I0602 14:39:23.210422  1686 net.cpp:150] Setting up conv5_1
I0602 14:39:23.210440  1686 net.cpp:157] Top shape: 4 512 19 19 (739328)
I0602 14:39:23.210443  1686 net.cpp:165] Memory required for data: 866783264
I0602 14:39:23.210450  1686 layer_factory.hpp:77] Creating layer relu5_1
I0602 14:39:23.210472  1686 net.cpp:100] Creating Layer relu5_1
I0602 14:39:23.210475  1686 net.cpp:434] relu5_1 <- conv5_1
I0602 14:39:23.210479  1686 net.cpp:395] relu5_1 -> conv5_1 (in-place)
I0602 14:39:23.210633  1686 net.cpp:150] Setting up relu5_1
I0602 14:39:23.210641  1686 net.cpp:157] Top shape: 4 512 19 19 (739328)
I0602 14:39:23.210644  1686 net.cpp:165] Memory required for data: 869740576
I0602 14:39:23.210649  1686 layer_factory.hpp:77] Creating layer conv5_2
I0602 14:39:23.210677  1686 net.cpp:100] Creating Layer conv5_2
I0602 14:39:23.210688  1686 net.cpp:434] conv5_2 <- conv5_1
I0602 14:39:23.210697  1686 net.cpp:408] conv5_2 -> conv5_2
I0602 14:39:23.223611  1686 net.cpp:150] Setting up conv5_2
I0602 14:39:23.223630  1686 net.cpp:157] Top shape: 4 512 19 19 (739328)
I0602 14:39:23.223634  1686 net.cpp:165] Memory required for data: 872697888
I0602 14:39:23.223642  1686 layer_factory.hpp:77] Creating layer relu5_2
I0602 14:39:23.223650  1686 net.cpp:100] Creating Layer relu5_2
I0602 14:39:23.223656  1686 net.cpp:434] relu5_2 <- conv5_2
I0602 14:39:23.223665  1686 net.cpp:395] relu5_2 -> conv5_2 (in-place)
I0602 14:39:23.223819  1686 net.cpp:150] Setting up relu5_2
I0602 14:39:23.223826  1686 net.cpp:157] Top shape: 4 512 19 19 (739328)
I0602 14:39:23.223830  1686 net.cpp:165] Memory required for data: 875655200
I0602 14:39:23.223834  1686 layer_factory.hpp:77] Creating layer conv5_3
I0602 14:39:23.223846  1686 net.cpp:100] Creating Layer conv5_3
I0602 14:39:23.223851  1686 net.cpp:434] conv5_3 <- conv5_2
I0602 14:39:23.223861  1686 net.cpp:408] conv5_3 -> conv5_3
I0602 14:39:23.236598  1686 net.cpp:150] Setting up conv5_3
I0602 14:39:23.236615  1686 net.cpp:157] Top shape: 4 512 19 19 (739328)
I0602 14:39:23.236619  1686 net.cpp:165] Memory required for data: 878612512
I0602 14:39:23.236629  1686 layer_factory.hpp:77] Creating layer relu5_3
I0602 14:39:23.236659  1686 net.cpp:100] Creating Layer relu5_3
I0602 14:39:23.236665  1686 net.cpp:434] relu5_3 <- conv5_3
I0602 14:39:23.236670  1686 net.cpp:395] relu5_3 -> conv5_3 (in-place)
I0602 14:39:23.236871  1686 net.cpp:150] Setting up relu5_3
I0602 14:39:23.236879  1686 net.cpp:157] Top shape: 4 512 19 19 (739328)
I0602 14:39:23.236896  1686 net.cpp:165] Memory required for data: 881569824
I0602 14:39:23.236901  1686 layer_factory.hpp:77] Creating layer pool5
I0602 14:39:23.236920  1686 net.cpp:100] Creating Layer pool5
I0602 14:39:23.236924  1686 net.cpp:434] pool5 <- conv5_3
I0602 14:39:23.236945  1686 net.cpp:408] pool5 -> pool5
I0602 14:39:23.237009  1686 net.cpp:150] Setting up pool5
I0602 14:39:23.237015  1686 net.cpp:157] Top shape: 4 512 19 19 (739328)
I0602 14:39:23.237020  1686 net.cpp:165] Memory required for data: 884527136
I0602 14:39:23.237022  1686 layer_factory.hpp:77] Creating layer fc6
I0602 14:39:23.237047  1686 net.cpp:100] Creating Layer fc6
I0602 14:39:23.237052  1686 net.cpp:434] fc6 <- pool5
I0602 14:39:23.237072  1686 net.cpp:408] fc6 -> fc6
I0602 14:39:23.260401  1686 net.cpp:150] Setting up fc6
I0602 14:39:23.260417  1686 net.cpp:157] Top shape: 4 1024 19 19 (1478656)
I0602 14:39:23.260421  1686 net.cpp:165] Memory required for data: 890441760
I0602 14:39:23.260429  1686 layer_factory.hpp:77] Creating layer relu6
I0602 14:39:23.260437  1686 net.cpp:100] Creating Layer relu6
I0602 14:39:23.260455  1686 net.cpp:434] relu6 <- fc6
I0602 14:39:23.260462  1686 net.cpp:395] relu6 -> fc6 (in-place)
I0602 14:39:23.261340  1686 net.cpp:150] Setting up relu6
I0602 14:39:23.261353  1686 net.cpp:157] Top shape: 4 1024 19 19 (1478656)
I0602 14:39:23.261369  1686 net.cpp:165] Memory required for data: 896356384
I0602 14:39:23.261375  1686 layer_factory.hpp:77] Creating layer fc7
I0602 14:39:23.261389  1686 net.cpp:100] Creating Layer fc7
I0602 14:39:23.261407  1686 net.cpp:434] fc7 <- fc6
I0602 14:39:23.261426  1686 net.cpp:408] fc7 -> fc7
I0602 14:39:23.270035  1686 net.cpp:150] Setting up fc7
I0602 14:39:23.270063  1686 net.cpp:157] Top shape: 4 1024 19 19 (1478656)
I0602 14:39:23.270067  1686 net.cpp:165] Memory required for data: 902271008
I0602 14:39:23.270092  1686 layer_factory.hpp:77] Creating layer relu7
I0602 14:39:23.270104  1686 net.cpp:100] Creating Layer relu7
I0602 14:39:23.270109  1686 net.cpp:434] relu7 <- fc7
I0602 14:39:23.270129  1686 net.cpp:395] relu7 -> fc7 (in-place)
I0602 14:39:23.270371  1686 net.cpp:150] Setting up relu7
I0602 14:39:23.270382  1686 net.cpp:157] Top shape: 4 1024 19 19 (1478656)
I0602 14:39:23.270385  1686 net.cpp:165] Memory required for data: 908185632
I0602 14:39:23.270388  1686 layer_factory.hpp:77] Creating layer fc7_relu7_0_split
I0602 14:39:23.270396  1686 net.cpp:100] Creating Layer fc7_relu7_0_split
I0602 14:39:23.270401  1686 net.cpp:434] fc7_relu7_0_split <- fc7
I0602 14:39:23.270409  1686 net.cpp:408] fc7_relu7_0_split -> fc7_relu7_0_split_0
I0602 14:39:23.270419  1686 net.cpp:408] fc7_relu7_0_split -> fc7_relu7_0_split_1
I0602 14:39:23.270433  1686 net.cpp:408] fc7_relu7_0_split -> fc7_relu7_0_split_2
I0602 14:39:23.270442  1686 net.cpp:408] fc7_relu7_0_split -> fc7_relu7_0_split_3
I0602 14:39:23.270530  1686 net.cpp:150] Setting up fc7_relu7_0_split
I0602 14:39:23.270539  1686 net.cpp:157] Top shape: 4 1024 19 19 (1478656)
I0602 14:39:23.270543  1686 net.cpp:157] Top shape: 4 1024 19 19 (1478656)
I0602 14:39:23.270547  1686 net.cpp:157] Top shape: 4 1024 19 19 (1478656)
I0602 14:39:23.270551  1686 net.cpp:157] Top shape: 4 1024 19 19 (1478656)
I0602 14:39:23.270555  1686 net.cpp:165] Memory required for data: 931844128
I0602 14:39:23.270557  1686 layer_factory.hpp:77] Creating layer conv6_1
I0602 14:39:23.270572  1686 net.cpp:100] Creating Layer conv6_1
I0602 14:39:23.270576  1686 net.cpp:434] conv6_1 <- fc7_relu7_0_split_0
I0602 14:39:23.270583  1686 net.cpp:408] conv6_1 -> conv6_1
I0602 14:39:23.294078  1686 net.cpp:150] Setting up conv6_1
I0602 14:39:23.294097  1686 net.cpp:157] Top shape: 4 256 19 19 (369664)
I0602 14:39:23.294100  1686 net.cpp:165] Memory required for data: 933322784
I0602 14:39:23.294107  1686 layer_factory.hpp:77] Creating layer conv6_1_relu
I0602 14:39:23.294113  1686 net.cpp:100] Creating Layer conv6_1_relu
I0602 14:39:23.294132  1686 net.cpp:434] conv6_1_relu <- conv6_1
I0602 14:39:23.294138  1686 net.cpp:395] conv6_1_relu -> conv6_1 (in-place)
I0602 14:39:23.294301  1686 net.cpp:150] Setting up conv6_1_relu
I0602 14:39:23.294307  1686 net.cpp:157] Top shape: 4 256 19 19 (369664)
I0602 14:39:23.294309  1686 net.cpp:165] Memory required for data: 934801440
I0602 14:39:23.294312  1686 layer_factory.hpp:77] Creating layer conv6_2
I0602 14:39:23.294322  1686 net.cpp:100] Creating Layer conv6_2
I0602 14:39:23.294325  1686 net.cpp:434] conv6_2 <- conv6_1
I0602 14:39:23.294332  1686 net.cpp:408] conv6_2 -> conv6_2
I0602 14:39:23.301600  1686 net.cpp:150] Setting up conv6_2
I0602 14:39:23.301620  1686 net.cpp:157] Top shape: 4 512 10 10 (204800)
I0602 14:39:23.301623  1686 net.cpp:165] Memory required for data: 935620640
I0602 14:39:23.301651  1686 layer_factory.hpp:77] Creating layer conv6_2_relu
I0602 14:39:23.301658  1686 net.cpp:100] Creating Layer conv6_2_relu
I0602 14:39:23.301662  1686 net.cpp:434] conv6_2_relu <- conv6_2
I0602 14:39:23.301667  1686 net.cpp:395] conv6_2_relu -> conv6_2 (in-place)
I0602 14:39:23.301826  1686 net.cpp:150] Setting up conv6_2_relu
I0602 14:39:23.301833  1686 net.cpp:157] Top shape: 4 512 10 10 (204800)
I0602 14:39:23.301836  1686 net.cpp:165] Memory required for data: 936439840
I0602 14:39:23.301851  1686 layer_factory.hpp:77] Creating layer conv6_2_conv6_2_relu_0_split
I0602 14:39:23.301857  1686 net.cpp:100] Creating Layer conv6_2_conv6_2_relu_0_split
I0602 14:39:23.301884  1686 net.cpp:434] conv6_2_conv6_2_relu_0_split <- conv6_2
I0602 14:39:23.301889  1686 net.cpp:408] conv6_2_conv6_2_relu_0_split -> conv6_2_conv6_2_relu_0_split_0
I0602 14:39:23.301895  1686 net.cpp:408] conv6_2_conv6_2_relu_0_split -> conv6_2_conv6_2_relu_0_split_1
I0602 14:39:23.301904  1686 net.cpp:408] conv6_2_conv6_2_relu_0_split -> conv6_2_conv6_2_relu_0_split_2
I0602 14:39:23.301910  1686 net.cpp:408] conv6_2_conv6_2_relu_0_split -> conv6_2_conv6_2_relu_0_split_3
I0602 14:39:23.301985  1686 net.cpp:150] Setting up conv6_2_conv6_2_relu_0_split
I0602 14:39:23.301990  1686 net.cpp:157] Top shape: 4 512 10 10 (204800)
I0602 14:39:23.301993  1686 net.cpp:157] Top shape: 4 512 10 10 (204800)
I0602 14:39:23.301996  1686 net.cpp:157] Top shape: 4 512 10 10 (204800)
I0602 14:39:23.302013  1686 net.cpp:157] Top shape: 4 512 10 10 (204800)
I0602 14:39:23.302016  1686 net.cpp:165] Memory required for data: 939716640
I0602 14:39:23.302018  1686 layer_factory.hpp:77] Creating layer conv7_1
I0602 14:39:23.302027  1686 net.cpp:100] Creating Layer conv7_1
I0602 14:39:23.302029  1686 net.cpp:434] conv7_1 <- conv6_2_conv6_2_relu_0_split_0
I0602 14:39:23.302034  1686 net.cpp:408] conv7_1 -> conv7_1
I0602 14:39:23.303894  1686 net.cpp:150] Setting up conv7_1
I0602 14:39:23.303905  1686 net.cpp:157] Top shape: 4 128 10 10 (51200)
I0602 14:39:23.303907  1686 net.cpp:165] Memory required for data: 939921440
I0602 14:39:23.303911  1686 layer_factory.hpp:77] Creating layer conv7_1_relu
I0602 14:39:23.303916  1686 net.cpp:100] Creating Layer conv7_1_relu
I0602 14:39:23.303918  1686 net.cpp:434] conv7_1_relu <- conv7_1
I0602 14:39:23.303922  1686 net.cpp:395] conv7_1_relu -> conv7_1 (in-place)
I0602 14:39:23.304059  1686 net.cpp:150] Setting up conv7_1_relu
I0602 14:39:23.304066  1686 net.cpp:157] Top shape: 4 128 10 10 (51200)
I0602 14:39:23.304069  1686 net.cpp:165] Memory required for data: 940126240
I0602 14:39:23.304070  1686 layer_factory.hpp:77] Creating layer conv7_2
I0602 14:39:23.304077  1686 net.cpp:100] Creating Layer conv7_2
I0602 14:39:23.304080  1686 net.cpp:434] conv7_2 <- conv7_1
I0602 14:39:23.304085  1686 net.cpp:408] conv7_2 -> conv7_2
I0602 14:39:23.307052  1686 net.cpp:150] Setting up conv7_2
I0602 14:39:23.307065  1686 net.cpp:157] Top shape: 4 256 5 5 (25600)
I0602 14:39:23.307067  1686 net.cpp:165] Memory required for data: 940228640
I0602 14:39:23.307072  1686 layer_factory.hpp:77] Creating layer conv7_2_relu
I0602 14:39:23.307078  1686 net.cpp:100] Creating Layer conv7_2_relu
I0602 14:39:23.307081  1686 net.cpp:434] conv7_2_relu <- conv7_2
I0602 14:39:23.307086  1686 net.cpp:395] conv7_2_relu -> conv7_2 (in-place)
I0602 14:39:23.307224  1686 net.cpp:150] Setting up conv7_2_relu
I0602 14:39:23.307230  1686 net.cpp:157] Top shape: 4 256 5 5 (25600)
I0602 14:39:23.307234  1686 net.cpp:165] Memory required for data: 940331040
I0602 14:39:23.307236  1686 layer_factory.hpp:77] Creating layer conv7_2_conv7_2_relu_0_split
I0602 14:39:23.307240  1686 net.cpp:100] Creating Layer conv7_2_conv7_2_relu_0_split
I0602 14:39:23.307243  1686 net.cpp:434] conv7_2_conv7_2_relu_0_split <- conv7_2
I0602 14:39:23.307247  1686 net.cpp:408] conv7_2_conv7_2_relu_0_split -> conv7_2_conv7_2_relu_0_split_0
I0602 14:39:23.307253  1686 net.cpp:408] conv7_2_conv7_2_relu_0_split -> conv7_2_conv7_2_relu_0_split_1
I0602 14:39:23.307258  1686 net.cpp:408] conv7_2_conv7_2_relu_0_split -> conv7_2_conv7_2_relu_0_split_2
I0602 14:39:23.307265  1686 net.cpp:408] conv7_2_conv7_2_relu_0_split -> conv7_2_conv7_2_relu_0_split_3
I0602 14:39:23.307327  1686 net.cpp:150] Setting up conv7_2_conv7_2_relu_0_split
I0602 14:39:23.307332  1686 net.cpp:157] Top shape: 4 256 5 5 (25600)
I0602 14:39:23.307335  1686 net.cpp:157] Top shape: 4 256 5 5 (25600)
I0602 14:39:23.307337  1686 net.cpp:157] Top shape: 4 256 5 5 (25600)
I0602 14:39:23.307340  1686 net.cpp:157] Top shape: 4 256 5 5 (25600)
I0602 14:39:23.307343  1686 net.cpp:165] Memory required for data: 940740640
I0602 14:39:23.307344  1686 layer_factory.hpp:77] Creating layer conv8_1
I0602 14:39:23.307363  1686 net.cpp:100] Creating Layer conv8_1
I0602 14:39:23.307366  1686 net.cpp:434] conv8_1 <- conv7_2_conv7_2_relu_0_split_0
I0602 14:39:23.307373  1686 net.cpp:408] conv8_1 -> conv8_1
I0602 14:39:23.308634  1686 net.cpp:150] Setting up conv8_1
I0602 14:39:23.308643  1686 net.cpp:157] Top shape: 4 128 5 5 (12800)
I0602 14:39:23.308645  1686 net.cpp:165] Memory required for data: 940791840
I0602 14:39:23.308650  1686 layer_factory.hpp:77] Creating layer conv8_1_relu
I0602 14:39:23.308655  1686 net.cpp:100] Creating Layer conv8_1_relu
I0602 14:39:23.308658  1686 net.cpp:434] conv8_1_relu <- conv8_1
I0602 14:39:23.308662  1686 net.cpp:395] conv8_1_relu -> conv8_1 (in-place)
I0602 14:39:23.309264  1686 net.cpp:150] Setting up conv8_1_relu
I0602 14:39:23.309273  1686 net.cpp:157] Top shape: 4 128 5 5 (12800)
I0602 14:39:23.309274  1686 net.cpp:165] Memory required for data: 940843040
I0602 14:39:23.309278  1686 layer_factory.hpp:77] Creating layer conv8_2
I0602 14:39:23.309285  1686 net.cpp:100] Creating Layer conv8_2
I0602 14:39:23.309288  1686 net.cpp:434] conv8_2 <- conv8_1
I0602 14:39:23.309293  1686 net.cpp:408] conv8_2 -> conv8_2
I0602 14:39:23.312716  1686 net.cpp:150] Setting up conv8_2
I0602 14:39:23.312732  1686 net.cpp:157] Top shape: 4 256 3 3 (9216)
I0602 14:39:23.312736  1686 net.cpp:165] Memory required for data: 940879904
I0602 14:39:23.312742  1686 layer_factory.hpp:77] Creating layer conv8_2_relu
I0602 14:39:23.312749  1686 net.cpp:100] Creating Layer conv8_2_relu
I0602 14:39:23.312769  1686 net.cpp:434] conv8_2_relu <- conv8_2
I0602 14:39:23.312773  1686 net.cpp:395] conv8_2_relu -> conv8_2 (in-place)
I0602 14:39:23.312950  1686 net.cpp:150] Setting up conv8_2_relu
I0602 14:39:23.312970  1686 net.cpp:157] Top shape: 4 256 3 3 (9216)
I0602 14:39:23.312973  1686 net.cpp:165] Memory required for data: 940916768
I0602 14:39:23.312974  1686 layer_factory.hpp:77] Creating layer conv8_2_conv8_2_relu_0_split
I0602 14:39:23.312993  1686 net.cpp:100] Creating Layer conv8_2_conv8_2_relu_0_split
I0602 14:39:23.312994  1686 net.cpp:434] conv8_2_conv8_2_relu_0_split <- conv8_2
I0602 14:39:23.313000  1686 net.cpp:408] conv8_2_conv8_2_relu_0_split -> conv8_2_conv8_2_relu_0_split_0
I0602 14:39:23.313006  1686 net.cpp:408] conv8_2_conv8_2_relu_0_split -> conv8_2_conv8_2_relu_0_split_1
I0602 14:39:23.313011  1686 net.cpp:408] conv8_2_conv8_2_relu_0_split -> conv8_2_conv8_2_relu_0_split_2
I0602 14:39:23.313016  1686 net.cpp:408] conv8_2_conv8_2_relu_0_split -> conv8_2_conv8_2_relu_0_split_3
I0602 14:39:23.313079  1686 net.cpp:150] Setting up conv8_2_conv8_2_relu_0_split
I0602 14:39:23.313084  1686 net.cpp:157] Top shape: 4 256 3 3 (9216)
I0602 14:39:23.313087  1686 net.cpp:157] Top shape: 4 256 3 3 (9216)
I0602 14:39:23.313089  1686 net.cpp:157] Top shape: 4 256 3 3 (9216)
I0602 14:39:23.313092  1686 net.cpp:157] Top shape: 4 256 3 3 (9216)
I0602 14:39:23.313094  1686 net.cpp:165] Memory required for data: 941064224
I0602 14:39:23.313097  1686 layer_factory.hpp:77] Creating layer conv9_1
I0602 14:39:23.313105  1686 net.cpp:100] Creating Layer conv9_1
I0602 14:39:23.313109  1686 net.cpp:434] conv9_1 <- conv8_2_conv8_2_relu_0_split_0
I0602 14:39:23.313128  1686 net.cpp:408] conv9_1 -> conv9_1
I0602 14:39:23.314420  1686 net.cpp:150] Setting up conv9_1
I0602 14:39:23.314429  1686 net.cpp:157] Top shape: 4 128 3 3 (4608)
I0602 14:39:23.314432  1686 net.cpp:165] Memory required for data: 941082656
I0602 14:39:23.314437  1686 layer_factory.hpp:77] Creating layer conv9_1_relu
I0602 14:39:23.314442  1686 net.cpp:100] Creating Layer conv9_1_relu
I0602 14:39:23.314446  1686 net.cpp:434] conv9_1_relu <- conv9_1
I0602 14:39:23.314450  1686 net.cpp:395] conv9_1_relu -> conv9_1 (in-place)
I0602 14:39:23.314584  1686 net.cpp:150] Setting up conv9_1_relu
I0602 14:39:23.314591  1686 net.cpp:157] Top shape: 4 128 3 3 (4608)
I0602 14:39:23.314594  1686 net.cpp:165] Memory required for data: 941101088
I0602 14:39:23.314596  1686 layer_factory.hpp:77] Creating layer conv9_2
I0602 14:39:23.314615  1686 net.cpp:100] Creating Layer conv9_2
I0602 14:39:23.314618  1686 net.cpp:434] conv9_2 <- conv9_1
I0602 14:39:23.314623  1686 net.cpp:408] conv9_2 -> conv9_2
I0602 14:39:23.317600  1686 net.cpp:150] Setting up conv9_2
I0602 14:39:23.317611  1686 net.cpp:157] Top shape: 4 256 1 1 (1024)
I0602 14:39:23.317613  1686 net.cpp:165] Memory required for data: 941105184
I0602 14:39:23.317618  1686 layer_factory.hpp:77] Creating layer conv9_2_relu
I0602 14:39:23.317623  1686 net.cpp:100] Creating Layer conv9_2_relu
I0602 14:39:23.317626  1686 net.cpp:434] conv9_2_relu <- conv9_2
I0602 14:39:23.317631  1686 net.cpp:395] conv9_2_relu -> conv9_2 (in-place)
I0602 14:39:23.317765  1686 net.cpp:150] Setting up conv9_2_relu
I0602 14:39:23.317772  1686 net.cpp:157] Top shape: 4 256 1 1 (1024)
I0602 14:39:23.317775  1686 net.cpp:165] Memory required for data: 941109280
I0602 14:39:23.317790  1686 layer_factory.hpp:77] Creating layer conv9_2_conv9_2_relu_0_split
I0602 14:39:23.317795  1686 net.cpp:100] Creating Layer conv9_2_conv9_2_relu_0_split
I0602 14:39:23.317800  1686 net.cpp:434] conv9_2_conv9_2_relu_0_split <- conv9_2
I0602 14:39:23.317803  1686 net.cpp:408] conv9_2_conv9_2_relu_0_split -> conv9_2_conv9_2_relu_0_split_0
I0602 14:39:23.317808  1686 net.cpp:408] conv9_2_conv9_2_relu_0_split -> conv9_2_conv9_2_relu_0_split_1
I0602 14:39:23.317813  1686 net.cpp:408] conv9_2_conv9_2_relu_0_split -> conv9_2_conv9_2_relu_0_split_2
I0602 14:39:23.317878  1686 net.cpp:150] Setting up conv9_2_conv9_2_relu_0_split
I0602 14:39:23.317883  1686 net.cpp:157] Top shape: 4 256 1 1 (1024)
I0602 14:39:23.317885  1686 net.cpp:157] Top shape: 4 256 1 1 (1024)
I0602 14:39:23.317888  1686 net.cpp:157] Top shape: 4 256 1 1 (1024)
I0602 14:39:23.317890  1686 net.cpp:165] Memory required for data: 941121568
I0602 14:39:23.317891  1686 layer_factory.hpp:77] Creating layer conv4_3_norm
I0602 14:39:23.317898  1686 net.cpp:100] Creating Layer conv4_3_norm
I0602 14:39:23.317900  1686 net.cpp:434] conv4_3_norm <- conv4_3_relu4_3_0_split_1
I0602 14:39:23.317905  1686 net.cpp:408] conv4_3_norm -> conv4_3_norm
I0602 14:39:23.318053  1686 net.cpp:150] Setting up conv4_3_norm
I0602 14:39:23.318058  1686 net.cpp:157] Top shape: 4 512 38 38 (2957312)
I0602 14:39:23.318060  1686 net.cpp:165] Memory required for data: 952950816
I0602 14:39:23.318063  1686 layer_factory.hpp:77] Creating layer conv4_3_norm_conv4_3_norm_0_split
I0602 14:39:23.318068  1686 net.cpp:100] Creating Layer conv4_3_norm_conv4_3_norm_0_split
I0602 14:39:23.318069  1686 net.cpp:434] conv4_3_norm_conv4_3_norm_0_split <- conv4_3_norm
I0602 14:39:23.318073  1686 net.cpp:408] conv4_3_norm_conv4_3_norm_0_split -> conv4_3_norm_conv4_3_norm_0_split_0
I0602 14:39:23.318078  1686 net.cpp:408] conv4_3_norm_conv4_3_norm_0_split -> conv4_3_norm_conv4_3_norm_0_split_1
I0602 14:39:23.318084  1686 net.cpp:408] conv4_3_norm_conv4_3_norm_0_split -> conv4_3_norm_conv4_3_norm_0_split_2
I0602 14:39:23.318126  1686 net.cpp:150] Setting up conv4_3_norm_conv4_3_norm_0_split
I0602 14:39:23.318131  1686 net.cpp:157] Top shape: 4 512 38 38 (2957312)
I0602 14:39:23.318135  1686 net.cpp:157] Top shape: 4 512 38 38 (2957312)
I0602 14:39:23.318138  1686 net.cpp:157] Top shape: 4 512 38 38 (2957312)
I0602 14:39:23.318140  1686 net.cpp:165] Memory required for data: 988438560
I0602 14:39:23.318141  1686 layer_factory.hpp:77] Creating layer conv4_3_norm_mbox_loc
I0602 14:39:23.318150  1686 net.cpp:100] Creating Layer conv4_3_norm_mbox_loc
I0602 14:39:23.318152  1686 net.cpp:434] conv4_3_norm_mbox_loc <- conv4_3_norm_conv4_3_norm_0_split_0
I0602 14:39:23.318157  1686 net.cpp:408] conv4_3_norm_mbox_loc -> conv4_3_norm_mbox_loc
I0602 14:39:23.320052  1686 net.cpp:150] Setting up conv4_3_norm_mbox_loc
I0602 14:39:23.320063  1686 net.cpp:157] Top shape: 4 16 38 38 (92416)
I0602 14:39:23.320065  1686 net.cpp:165] Memory required for data: 988808224
I0602 14:39:23.320070  1686 layer_factory.hpp:77] Creating layer conv4_3_norm_mbox_loc_perm
I0602 14:39:23.320076  1686 net.cpp:100] Creating Layer conv4_3_norm_mbox_loc_perm
I0602 14:39:23.320091  1686 net.cpp:434] conv4_3_norm_mbox_loc_perm <- conv4_3_norm_mbox_loc
I0602 14:39:23.320096  1686 net.cpp:408] conv4_3_norm_mbox_loc_perm -> conv4_3_norm_mbox_loc_perm
I0602 14:39:23.320199  1686 net.cpp:150] Setting up conv4_3_norm_mbox_loc_perm
I0602 14:39:23.320204  1686 net.cpp:157] Top shape: 4 38 38 16 (92416)
I0602 14:39:23.320206  1686 net.cpp:165] Memory required for data: 989177888
I0602 14:39:23.320209  1686 layer_factory.hpp:77] Creating layer conv4_3_norm_mbox_loc_flat
I0602 14:39:23.320214  1686 net.cpp:100] Creating Layer conv4_3_norm_mbox_loc_flat
I0602 14:39:23.320215  1686 net.cpp:434] conv4_3_norm_mbox_loc_flat <- conv4_3_norm_mbox_loc_perm
I0602 14:39:23.320220  1686 net.cpp:408] conv4_3_norm_mbox_loc_flat -> conv4_3_norm_mbox_loc_flat
I0602 14:39:23.320250  1686 net.cpp:150] Setting up conv4_3_norm_mbox_loc_flat
I0602 14:39:23.320256  1686 net.cpp:157] Top shape: 4 23104 (92416)
I0602 14:39:23.320258  1686 net.cpp:165] Memory required for data: 989547552
I0602 14:39:23.320261  1686 layer_factory.hpp:77] Creating layer conv4_3_norm_mbox_conf
I0602 14:39:23.320273  1686 net.cpp:100] Creating Layer conv4_3_norm_mbox_conf
I0602 14:39:23.320276  1686 net.cpp:434] conv4_3_norm_mbox_conf <- conv4_3_norm_conv4_3_norm_0_split_1
I0602 14:39:23.320281  1686 net.cpp:408] conv4_3_norm_mbox_conf -> conv4_3_norm_mbox_conf
I0602 14:39:23.322259  1686 net.cpp:150] Setting up conv4_3_norm_mbox_conf
I0602 14:39:23.322273  1686 net.cpp:157] Top shape: 4 16 38 38 (92416)
I0602 14:39:23.322275  1686 net.cpp:165] Memory required for data: 989917216
I0602 14:39:23.322281  1686 layer_factory.hpp:77] Creating layer conv4_3_norm_mbox_conf_perm
I0602 14:39:23.322288  1686 net.cpp:100] Creating Layer conv4_3_norm_mbox_conf_perm
I0602 14:39:23.322291  1686 net.cpp:434] conv4_3_norm_mbox_conf_perm <- conv4_3_norm_mbox_conf
I0602 14:39:23.322298  1686 net.cpp:408] conv4_3_norm_mbox_conf_perm -> conv4_3_norm_mbox_conf_perm
I0602 14:39:23.322413  1686 net.cpp:150] Setting up conv4_3_norm_mbox_conf_perm
I0602 14:39:23.322419  1686 net.cpp:157] Top shape: 4 38 38 16 (92416)
I0602 14:39:23.322422  1686 net.cpp:165] Memory required for data: 990286880
I0602 14:39:23.322423  1686 layer_factory.hpp:77] Creating layer conv4_3_norm_mbox_conf_flat
I0602 14:39:23.322427  1686 net.cpp:100] Creating Layer conv4_3_norm_mbox_conf_flat
I0602 14:39:23.322432  1686 net.cpp:434] conv4_3_norm_mbox_conf_flat <- conv4_3_norm_mbox_conf_perm
I0602 14:39:23.322435  1686 net.cpp:408] conv4_3_norm_mbox_conf_flat -> conv4_3_norm_mbox_conf_flat
I0602 14:39:23.322484  1686 net.cpp:150] Setting up conv4_3_norm_mbox_conf_flat
I0602 14:39:23.322489  1686 net.cpp:157] Top shape: 4 23104 (92416)
I0602 14:39:23.322491  1686 net.cpp:165] Memory required for data: 990656544
I0602 14:39:23.322494  1686 layer_factory.hpp:77] Creating layer conv4_3_norm_mbox_priorbox
I0602 14:39:23.322499  1686 net.cpp:100] Creating Layer conv4_3_norm_mbox_priorbox
I0602 14:39:23.322501  1686 net.cpp:434] conv4_3_norm_mbox_priorbox <- conv4_3_norm_conv4_3_norm_0_split_2
I0602 14:39:23.322506  1686 net.cpp:434] conv4_3_norm_mbox_priorbox <- data_data_0_split_1
I0602 14:39:23.322510  1686 net.cpp:408] conv4_3_norm_mbox_priorbox -> conv4_3_norm_mbox_priorbox
I0602 14:39:23.322537  1686 net.cpp:150] Setting up conv4_3_norm_mbox_priorbox
I0602 14:39:23.322542  1686 net.cpp:157] Top shape: 1 2 23104 (46208)
I0602 14:39:23.322546  1686 net.cpp:165] Memory required for data: 990841376
I0602 14:39:23.322547  1686 layer_factory.hpp:77] Creating layer fc7_mbox_loc
I0602 14:39:23.322568  1686 net.cpp:100] Creating Layer fc7_mbox_loc
I0602 14:39:23.322572  1686 net.cpp:434] fc7_mbox_loc <- fc7_relu7_0_split_1
I0602 14:39:23.322578  1686 net.cpp:408] fc7_mbox_loc -> fc7_mbox_loc
I0602 14:39:23.325129  1686 net.cpp:150] Setting up fc7_mbox_loc
I0602 14:39:23.325139  1686 net.cpp:157] Top shape: 4 24 19 19 (34656)
I0602 14:39:23.325142  1686 net.cpp:165] Memory required for data: 990980000
I0602 14:39:23.325147  1686 layer_factory.hpp:77] Creating layer fc7_mbox_loc_perm
I0602 14:39:23.325152  1686 net.cpp:100] Creating Layer fc7_mbox_loc_perm
I0602 14:39:23.325165  1686 net.cpp:434] fc7_mbox_loc_perm <- fc7_mbox_loc
I0602 14:39:23.325171  1686 net.cpp:408] fc7_mbox_loc_perm -> fc7_mbox_loc_perm
I0602 14:39:23.325274  1686 net.cpp:150] Setting up fc7_mbox_loc_perm
I0602 14:39:23.325280  1686 net.cpp:157] Top shape: 4 19 19 24 (34656)
I0602 14:39:23.325283  1686 net.cpp:165] Memory required for data: 991118624
I0602 14:39:23.325284  1686 layer_factory.hpp:77] Creating layer fc7_mbox_loc_flat
I0602 14:39:23.325289  1686 net.cpp:100] Creating Layer fc7_mbox_loc_flat
I0602 14:39:23.325291  1686 net.cpp:434] fc7_mbox_loc_flat <- fc7_mbox_loc_perm
I0602 14:39:23.325295  1686 net.cpp:408] fc7_mbox_loc_flat -> fc7_mbox_loc_flat
I0602 14:39:23.325316  1686 net.cpp:150] Setting up fc7_mbox_loc_flat
I0602 14:39:23.325321  1686 net.cpp:157] Top shape: 4 8664 (34656)
I0602 14:39:23.325323  1686 net.cpp:165] Memory required for data: 991257248
I0602 14:39:23.325325  1686 layer_factory.hpp:77] Creating layer fc7_mbox_conf
I0602 14:39:23.325332  1686 net.cpp:100] Creating Layer fc7_mbox_conf
I0602 14:39:23.325336  1686 net.cpp:434] fc7_mbox_conf <- fc7_relu7_0_split_2
I0602 14:39:23.325341  1686 net.cpp:408] fc7_mbox_conf -> fc7_mbox_conf
I0602 14:39:23.328094  1686 net.cpp:150] Setting up fc7_mbox_conf
I0602 14:39:23.328109  1686 net.cpp:157] Top shape: 4 24 19 19 (34656)
I0602 14:39:23.328111  1686 net.cpp:165] Memory required for data: 991395872
I0602 14:39:23.328117  1686 layer_factory.hpp:77] Creating layer fc7_mbox_conf_perm
I0602 14:39:23.328124  1686 net.cpp:100] Creating Layer fc7_mbox_conf_perm
I0602 14:39:23.328128  1686 net.cpp:434] fc7_mbox_conf_perm <- fc7_mbox_conf
I0602 14:39:23.328135  1686 net.cpp:408] fc7_mbox_conf_perm -> fc7_mbox_conf_perm
I0602 14:39:23.328243  1686 net.cpp:150] Setting up fc7_mbox_conf_perm
I0602 14:39:23.328248  1686 net.cpp:157] Top shape: 4 19 19 24 (34656)
I0602 14:39:23.328250  1686 net.cpp:165] Memory required for data: 991534496
I0602 14:39:23.328253  1686 layer_factory.hpp:77] Creating layer fc7_mbox_conf_flat
I0602 14:39:23.328258  1686 net.cpp:100] Creating Layer fc7_mbox_conf_flat
I0602 14:39:23.328259  1686 net.cpp:434] fc7_mbox_conf_flat <- fc7_mbox_conf_perm
I0602 14:39:23.328264  1686 net.cpp:408] fc7_mbox_conf_flat -> fc7_mbox_conf_flat
I0602 14:39:23.328286  1686 net.cpp:150] Setting up fc7_mbox_conf_flat
I0602 14:39:23.328290  1686 net.cpp:157] Top shape: 4 8664 (34656)
I0602 14:39:23.328292  1686 net.cpp:165] Memory required for data: 991673120
I0602 14:39:23.328294  1686 layer_factory.hpp:77] Creating layer fc7_mbox_priorbox
I0602 14:39:23.328300  1686 net.cpp:100] Creating Layer fc7_mbox_priorbox
I0602 14:39:23.328305  1686 net.cpp:434] fc7_mbox_priorbox <- fc7_relu7_0_split_3
I0602 14:39:23.328308  1686 net.cpp:434] fc7_mbox_priorbox <- data_data_0_split_2
I0602 14:39:23.328312  1686 net.cpp:408] fc7_mbox_priorbox -> fc7_mbox_priorbox
I0602 14:39:23.328339  1686 net.cpp:150] Setting up fc7_mbox_priorbox
I0602 14:39:23.328343  1686 net.cpp:157] Top shape: 1 2 8664 (17328)
I0602 14:39:23.328346  1686 net.cpp:165] Memory required for data: 991742432
I0602 14:39:23.328348  1686 layer_factory.hpp:77] Creating layer conv6_2_mbox_loc
I0602 14:39:23.328358  1686 net.cpp:100] Creating Layer conv6_2_mbox_loc
I0602 14:39:23.328362  1686 net.cpp:434] conv6_2_mbox_loc <- conv6_2_conv6_2_relu_0_split_1
I0602 14:39:23.328367  1686 net.cpp:408] conv6_2_mbox_loc -> conv6_2_mbox_loc
I0602 14:39:23.330463  1686 net.cpp:150] Setting up conv6_2_mbox_loc
I0602 14:39:23.330473  1686 net.cpp:157] Top shape: 4 24 10 10 (9600)
I0602 14:39:23.330476  1686 net.cpp:165] Memory required for data: 991780832
I0602 14:39:23.330482  1686 layer_factory.hpp:77] Creating layer conv6_2_mbox_loc_perm
I0602 14:39:23.330487  1686 net.cpp:100] Creating Layer conv6_2_mbox_loc_perm
I0602 14:39:23.330492  1686 net.cpp:434] conv6_2_mbox_loc_perm <- conv6_2_mbox_loc
I0602 14:39:23.330497  1686 net.cpp:408] conv6_2_mbox_loc_perm -> conv6_2_mbox_loc_perm
I0602 14:39:23.330601  1686 net.cpp:150] Setting up conv6_2_mbox_loc_perm
I0602 14:39:23.330617  1686 net.cpp:157] Top shape: 4 10 10 24 (9600)
I0602 14:39:23.330620  1686 net.cpp:165] Memory required for data: 991819232
I0602 14:39:23.330622  1686 layer_factory.hpp:77] Creating layer conv6_2_mbox_loc_flat
I0602 14:39:23.330626  1686 net.cpp:100] Creating Layer conv6_2_mbox_loc_flat
I0602 14:39:23.330629  1686 net.cpp:434] conv6_2_mbox_loc_flat <- conv6_2_mbox_loc_perm
I0602 14:39:23.330633  1686 net.cpp:408] conv6_2_mbox_loc_flat -> conv6_2_mbox_loc_flat
I0602 14:39:23.330655  1686 net.cpp:150] Setting up conv6_2_mbox_loc_flat
I0602 14:39:23.330660  1686 net.cpp:157] Top shape: 4 2400 (9600)
I0602 14:39:23.330662  1686 net.cpp:165] Memory required for data: 991857632
I0602 14:39:23.330664  1686 layer_factory.hpp:77] Creating layer conv6_2_mbox_conf
I0602 14:39:23.330672  1686 net.cpp:100] Creating Layer conv6_2_mbox_conf
I0602 14:39:23.330675  1686 net.cpp:434] conv6_2_mbox_conf <- conv6_2_conv6_2_relu_0_split_2
I0602 14:39:23.330680  1686 net.cpp:408] conv6_2_mbox_conf -> conv6_2_mbox_conf
I0602 14:39:23.332790  1686 net.cpp:150] Setting up conv6_2_mbox_conf
I0602 14:39:23.332801  1686 net.cpp:157] Top shape: 4 24 10 10 (9600)
I0602 14:39:23.332804  1686 net.cpp:165] Memory required for data: 991896032
I0602 14:39:23.332809  1686 layer_factory.hpp:77] Creating layer conv6_2_mbox_conf_perm
I0602 14:39:23.332814  1686 net.cpp:100] Creating Layer conv6_2_mbox_conf_perm
I0602 14:39:23.332818  1686 net.cpp:434] conv6_2_mbox_conf_perm <- conv6_2_mbox_conf
I0602 14:39:23.332823  1686 net.cpp:408] conv6_2_mbox_conf_perm -> conv6_2_mbox_conf_perm
I0602 14:39:23.332926  1686 net.cpp:150] Setting up conv6_2_mbox_conf_perm
I0602 14:39:23.332932  1686 net.cpp:157] Top shape: 4 10 10 24 (9600)
I0602 14:39:23.332934  1686 net.cpp:165] Memory required for data: 991934432
I0602 14:39:23.332937  1686 layer_factory.hpp:77] Creating layer conv6_2_mbox_conf_flat
I0602 14:39:23.332942  1686 net.cpp:100] Creating Layer conv6_2_mbox_conf_flat
I0602 14:39:23.332943  1686 net.cpp:434] conv6_2_mbox_conf_flat <- conv6_2_mbox_conf_perm
I0602 14:39:23.332947  1686 net.cpp:408] conv6_2_mbox_conf_flat -> conv6_2_mbox_conf_flat
I0602 14:39:23.332969  1686 net.cpp:150] Setting up conv6_2_mbox_conf_flat
I0602 14:39:23.332973  1686 net.cpp:157] Top shape: 4 2400 (9600)
I0602 14:39:23.332975  1686 net.cpp:165] Memory required for data: 991972832
I0602 14:39:23.332978  1686 layer_factory.hpp:77] Creating layer conv6_2_mbox_priorbox
I0602 14:39:23.332984  1686 net.cpp:100] Creating Layer conv6_2_mbox_priorbox
I0602 14:39:23.332988  1686 net.cpp:434] conv6_2_mbox_priorbox <- conv6_2_conv6_2_relu_0_split_3
I0602 14:39:23.332991  1686 net.cpp:434] conv6_2_mbox_priorbox <- data_data_0_split_3
I0602 14:39:23.332994  1686 net.cpp:408] conv6_2_mbox_priorbox -> conv6_2_mbox_priorbox
I0602 14:39:23.333020  1686 net.cpp:150] Setting up conv6_2_mbox_priorbox
I0602 14:39:23.333025  1686 net.cpp:157] Top shape: 1 2 2400 (4800)
I0602 14:39:23.333027  1686 net.cpp:165] Memory required for data: 991992032
I0602 14:39:23.333029  1686 layer_factory.hpp:77] Creating layer conv7_2_mbox_loc
I0602 14:39:23.333036  1686 net.cpp:100] Creating Layer conv7_2_mbox_loc
I0602 14:39:23.333039  1686 net.cpp:434] conv7_2_mbox_loc <- conv7_2_conv7_2_relu_0_split_1
I0602 14:39:23.333045  1686 net.cpp:408] conv7_2_mbox_loc -> conv7_2_mbox_loc
I0602 14:39:23.334406  1686 net.cpp:150] Setting up conv7_2_mbox_loc
I0602 14:39:23.334416  1686 net.cpp:157] Top shape: 4 24 5 5 (2400)
I0602 14:39:23.334419  1686 net.cpp:165] Memory required for data: 992001632
I0602 14:39:23.334424  1686 layer_factory.hpp:77] Creating layer conv7_2_mbox_loc_perm
I0602 14:39:23.334429  1686 net.cpp:100] Creating Layer conv7_2_mbox_loc_perm
I0602 14:39:23.334432  1686 net.cpp:434] conv7_2_mbox_loc_perm <- conv7_2_mbox_loc
I0602 14:39:23.334437  1686 net.cpp:408] conv7_2_mbox_loc_perm -> conv7_2_mbox_loc_perm
I0602 14:39:23.334540  1686 net.cpp:150] Setting up conv7_2_mbox_loc_perm
I0602 14:39:23.334545  1686 net.cpp:157] Top shape: 4 5 5 24 (2400)
I0602 14:39:23.334548  1686 net.cpp:165] Memory required for data: 992011232
I0602 14:39:23.334559  1686 layer_factory.hpp:77] Creating layer conv7_2_mbox_loc_flat
I0602 14:39:23.334564  1686 net.cpp:100] Creating Layer conv7_2_mbox_loc_flat
I0602 14:39:23.334568  1686 net.cpp:434] conv7_2_mbox_loc_flat <- conv7_2_mbox_loc_perm
I0602 14:39:23.334571  1686 net.cpp:408] conv7_2_mbox_loc_flat -> conv7_2_mbox_loc_flat
I0602 14:39:23.334594  1686 net.cpp:150] Setting up conv7_2_mbox_loc_flat
I0602 14:39:23.334599  1686 net.cpp:157] Top shape: 4 600 (2400)
I0602 14:39:23.334600  1686 net.cpp:165] Memory required for data: 992020832
I0602 14:39:23.334604  1686 layer_factory.hpp:77] Creating layer conv7_2_mbox_conf
I0602 14:39:23.334611  1686 net.cpp:100] Creating Layer conv7_2_mbox_conf
I0602 14:39:23.334614  1686 net.cpp:434] conv7_2_mbox_conf <- conv7_2_conv7_2_relu_0_split_2
I0602 14:39:23.334619  1686 net.cpp:408] conv7_2_mbox_conf -> conv7_2_mbox_conf
I0602 14:39:23.336431  1686 net.cpp:150] Setting up conv7_2_mbox_conf
I0602 14:39:23.336441  1686 net.cpp:157] Top shape: 4 24 5 5 (2400)
I0602 14:39:23.336443  1686 net.cpp:165] Memory required for data: 992030432
I0602 14:39:23.336447  1686 layer_factory.hpp:77] Creating layer conv7_2_mbox_conf_perm
I0602 14:39:23.336453  1686 net.cpp:100] Creating Layer conv7_2_mbox_conf_perm
I0602 14:39:23.336457  1686 net.cpp:434] conv7_2_mbox_conf_perm <- conv7_2_mbox_conf
I0602 14:39:23.336462  1686 net.cpp:408] conv7_2_mbox_conf_perm -> conv7_2_mbox_conf_perm
I0602 14:39:23.336565  1686 net.cpp:150] Setting up conv7_2_mbox_conf_perm
I0602 14:39:23.336570  1686 net.cpp:157] Top shape: 4 5 5 24 (2400)
I0602 14:39:23.336572  1686 net.cpp:165] Memory required for data: 992040032
I0602 14:39:23.336575  1686 layer_factory.hpp:77] Creating layer conv7_2_mbox_conf_flat
I0602 14:39:23.336580  1686 net.cpp:100] Creating Layer conv7_2_mbox_conf_flat
I0602 14:39:23.336582  1686 net.cpp:434] conv7_2_mbox_conf_flat <- conv7_2_mbox_conf_perm
I0602 14:39:23.336586  1686 net.cpp:408] conv7_2_mbox_conf_flat -> conv7_2_mbox_conf_flat
I0602 14:39:23.336607  1686 net.cpp:150] Setting up conv7_2_mbox_conf_flat
I0602 14:39:23.336611  1686 net.cpp:157] Top shape: 4 600 (2400)
I0602 14:39:23.336614  1686 net.cpp:165] Memory required for data: 992049632
I0602 14:39:23.336616  1686 layer_factory.hpp:77] Creating layer conv7_2_mbox_priorbox
I0602 14:39:23.336621  1686 net.cpp:100] Creating Layer conv7_2_mbox_priorbox
I0602 14:39:23.336624  1686 net.cpp:434] conv7_2_mbox_priorbox <- conv7_2_conv7_2_relu_0_split_3
I0602 14:39:23.336628  1686 net.cpp:434] conv7_2_mbox_priorbox <- data_data_0_split_4
I0602 14:39:23.336633  1686 net.cpp:408] conv7_2_mbox_priorbox -> conv7_2_mbox_priorbox
I0602 14:39:23.336657  1686 net.cpp:150] Setting up conv7_2_mbox_priorbox
I0602 14:39:23.336661  1686 net.cpp:157] Top shape: 1 2 600 (1200)
I0602 14:39:23.336663  1686 net.cpp:165] Memory required for data: 992054432
I0602 14:39:23.336665  1686 layer_factory.hpp:77] Creating layer conv8_2_mbox_loc
I0602 14:39:23.336675  1686 net.cpp:100] Creating Layer conv8_2_mbox_loc
I0602 14:39:23.336678  1686 net.cpp:434] conv8_2_mbox_loc <- conv8_2_conv8_2_relu_0_split_1
I0602 14:39:23.336684  1686 net.cpp:408] conv8_2_mbox_loc -> conv8_2_mbox_loc
I0602 14:39:23.338433  1686 net.cpp:150] Setting up conv8_2_mbox_loc
I0602 14:39:23.338443  1686 net.cpp:157] Top shape: 4 16 3 3 (576)
I0602 14:39:23.338445  1686 net.cpp:165] Memory required for data: 992056736
I0602 14:39:23.338459  1686 layer_factory.hpp:77] Creating layer conv8_2_mbox_loc_perm
I0602 14:39:23.338465  1686 net.cpp:100] Creating Layer conv8_2_mbox_loc_perm
I0602 14:39:23.338469  1686 net.cpp:434] conv8_2_mbox_loc_perm <- conv8_2_mbox_loc
I0602 14:39:23.338474  1686 net.cpp:408] conv8_2_mbox_loc_perm -> conv8_2_mbox_loc_perm
I0602 14:39:23.338577  1686 net.cpp:150] Setting up conv8_2_mbox_loc_perm
I0602 14:39:23.338582  1686 net.cpp:157] Top shape: 4 3 3 16 (576)
I0602 14:39:23.338584  1686 net.cpp:165] Memory required for data: 992059040
I0602 14:39:23.338587  1686 layer_factory.hpp:77] Creating layer conv8_2_mbox_loc_flat
I0602 14:39:23.338600  1686 net.cpp:100] Creating Layer conv8_2_mbox_loc_flat
I0602 14:39:23.338603  1686 net.cpp:434] conv8_2_mbox_loc_flat <- conv8_2_mbox_loc_perm
I0602 14:39:23.338608  1686 net.cpp:408] conv8_2_mbox_loc_flat -> conv8_2_mbox_loc_flat
I0602 14:39:23.338629  1686 net.cpp:150] Setting up conv8_2_mbox_loc_flat
I0602 14:39:23.338634  1686 net.cpp:157] Top shape: 4 144 (576)
I0602 14:39:23.338636  1686 net.cpp:165] Memory required for data: 992061344
I0602 14:39:23.338639  1686 layer_factory.hpp:77] Creating layer conv8_2_mbox_conf
I0602 14:39:23.338644  1686 net.cpp:100] Creating Layer conv8_2_mbox_conf
I0602 14:39:23.338649  1686 net.cpp:434] conv8_2_mbox_conf <- conv8_2_conv8_2_relu_0_split_2
I0602 14:39:23.338654  1686 net.cpp:408] conv8_2_mbox_conf -> conv8_2_mbox_conf
I0602 14:39:23.340421  1686 net.cpp:150] Setting up conv8_2_mbox_conf
I0602 14:39:23.340431  1686 net.cpp:157] Top shape: 4 16 3 3 (576)
I0602 14:39:23.340433  1686 net.cpp:165] Memory required for data: 992063648
I0602 14:39:23.340438  1686 layer_factory.hpp:77] Creating layer conv8_2_mbox_conf_perm
I0602 14:39:23.340445  1686 net.cpp:100] Creating Layer conv8_2_mbox_conf_perm
I0602 14:39:23.340450  1686 net.cpp:434] conv8_2_mbox_conf_perm <- conv8_2_mbox_conf
I0602 14:39:23.340456  1686 net.cpp:408] conv8_2_mbox_conf_perm -> conv8_2_mbox_conf_perm
I0602 14:39:23.340559  1686 net.cpp:150] Setting up conv8_2_mbox_conf_perm
I0602 14:39:23.340564  1686 net.cpp:157] Top shape: 4 3 3 16 (576)
I0602 14:39:23.340565  1686 net.cpp:165] Memory required for data: 992065952
I0602 14:39:23.340567  1686 layer_factory.hpp:77] Creating layer conv8_2_mbox_conf_flat
I0602 14:39:23.340571  1686 net.cpp:100] Creating Layer conv8_2_mbox_conf_flat
I0602 14:39:23.340574  1686 net.cpp:434] conv8_2_mbox_conf_flat <- conv8_2_mbox_conf_perm
I0602 14:39:23.340579  1686 net.cpp:408] conv8_2_mbox_conf_flat -> conv8_2_mbox_conf_flat
I0602 14:39:23.340600  1686 net.cpp:150] Setting up conv8_2_mbox_conf_flat
I0602 14:39:23.340605  1686 net.cpp:157] Top shape: 4 144 (576)
I0602 14:39:23.340606  1686 net.cpp:165] Memory required for data: 992068256
I0602 14:39:23.340608  1686 layer_factory.hpp:77] Creating layer conv8_2_mbox_priorbox
I0602 14:39:23.340613  1686 net.cpp:100] Creating Layer conv8_2_mbox_priorbox
I0602 14:39:23.340616  1686 net.cpp:434] conv8_2_mbox_priorbox <- conv8_2_conv8_2_relu_0_split_3
I0602 14:39:23.340620  1686 net.cpp:434] conv8_2_mbox_priorbox <- data_data_0_split_5
I0602 14:39:23.340626  1686 net.cpp:408] conv8_2_mbox_priorbox -> conv8_2_mbox_priorbox
I0602 14:39:23.340648  1686 net.cpp:150] Setting up conv8_2_mbox_priorbox
I0602 14:39:23.340654  1686 net.cpp:157] Top shape: 1 2 144 (288)
I0602 14:39:23.340656  1686 net.cpp:165] Memory required for data: 992069408
I0602 14:39:23.340658  1686 layer_factory.hpp:77] Creating layer conv9_2_mbox_loc
I0602 14:39:23.340665  1686 net.cpp:100] Creating Layer conv9_2_mbox_loc
I0602 14:39:23.340669  1686 net.cpp:434] conv9_2_mbox_loc <- conv9_2_conv9_2_relu_0_split_0
I0602 14:39:23.340674  1686 net.cpp:408] conv9_2_mbox_loc -> conv9_2_mbox_loc
I0602 14:39:23.342869  1686 net.cpp:150] Setting up conv9_2_mbox_loc
I0602 14:39:23.342878  1686 net.cpp:157] Top shape: 4 16 1 1 (64)
I0602 14:39:23.342881  1686 net.cpp:165] Memory required for data: 992069664
I0602 14:39:23.342886  1686 layer_factory.hpp:77] Creating layer conv9_2_mbox_loc_perm
I0602 14:39:23.342890  1686 net.cpp:100] Creating Layer conv9_2_mbox_loc_perm
I0602 14:39:23.342893  1686 net.cpp:434] conv9_2_mbox_loc_perm <- conv9_2_mbox_loc
I0602 14:39:23.342897  1686 net.cpp:408] conv9_2_mbox_loc_perm -> conv9_2_mbox_loc_perm
I0602 14:39:23.342999  1686 net.cpp:150] Setting up conv9_2_mbox_loc_perm
I0602 14:39:23.343004  1686 net.cpp:157] Top shape: 4 1 1 16 (64)
I0602 14:39:23.343006  1686 net.cpp:165] Memory required for data: 992069920
I0602 14:39:23.343008  1686 layer_factory.hpp:77] Creating layer conv9_2_mbox_loc_flat
I0602 14:39:23.343014  1686 net.cpp:100] Creating Layer conv9_2_mbox_loc_flat
I0602 14:39:23.343016  1686 net.cpp:434] conv9_2_mbox_loc_flat <- conv9_2_mbox_loc_perm
I0602 14:39:23.343029  1686 net.cpp:408] conv9_2_mbox_loc_flat -> conv9_2_mbox_loc_flat
I0602 14:39:23.343052  1686 net.cpp:150] Setting up conv9_2_mbox_loc_flat
I0602 14:39:23.343057  1686 net.cpp:157] Top shape: 4 16 (64)
I0602 14:39:23.343060  1686 net.cpp:165] Memory required for data: 992070176
I0602 14:39:23.343061  1686 layer_factory.hpp:77] Creating layer conv9_2_mbox_conf
I0602 14:39:23.343070  1686 net.cpp:100] Creating Layer conv9_2_mbox_conf
I0602 14:39:23.343072  1686 net.cpp:434] conv9_2_mbox_conf <- conv9_2_conv9_2_relu_0_split_1
I0602 14:39:23.343077  1686 net.cpp:408] conv9_2_mbox_conf -> conv9_2_mbox_conf
I0602 14:39:23.344832  1686 net.cpp:150] Setting up conv9_2_mbox_conf
I0602 14:39:23.344841  1686 net.cpp:157] Top shape: 4 16 1 1 (64)
I0602 14:39:23.344844  1686 net.cpp:165] Memory required for data: 992070432
I0602 14:39:23.344849  1686 layer_factory.hpp:77] Creating layer conv9_2_mbox_conf_perm
I0602 14:39:23.344853  1686 net.cpp:100] Creating Layer conv9_2_mbox_conf_perm
I0602 14:39:23.344857  1686 net.cpp:434] conv9_2_mbox_conf_perm <- conv9_2_mbox_conf
I0602 14:39:23.344862  1686 net.cpp:408] conv9_2_mbox_conf_perm -> conv9_2_mbox_conf_perm
I0602 14:39:23.344966  1686 net.cpp:150] Setting up conv9_2_mbox_conf_perm
I0602 14:39:23.344971  1686 net.cpp:157] Top shape: 4 1 1 16 (64)
I0602 14:39:23.344974  1686 net.cpp:165] Memory required for data: 992070688
I0602 14:39:23.344976  1686 layer_factory.hpp:77] Creating layer conv9_2_mbox_conf_flat
I0602 14:39:23.344980  1686 net.cpp:100] Creating Layer conv9_2_mbox_conf_flat
I0602 14:39:23.344982  1686 net.cpp:434] conv9_2_mbox_conf_flat <- conv9_2_mbox_conf_perm
I0602 14:39:23.344986  1686 net.cpp:408] conv9_2_mbox_conf_flat -> conv9_2_mbox_conf_flat
I0602 14:39:23.345008  1686 net.cpp:150] Setting up conv9_2_mbox_conf_flat
I0602 14:39:23.345012  1686 net.cpp:157] Top shape: 4 16 (64)
I0602 14:39:23.345015  1686 net.cpp:165] Memory required for data: 992070944
I0602 14:39:23.345016  1686 layer_factory.hpp:77] Creating layer conv9_2_mbox_priorbox
I0602 14:39:23.345022  1686 net.cpp:100] Creating Layer conv9_2_mbox_priorbox
I0602 14:39:23.345024  1686 net.cpp:434] conv9_2_mbox_priorbox <- conv9_2_conv9_2_relu_0_split_2
I0602 14:39:23.345027  1686 net.cpp:434] conv9_2_mbox_priorbox <- data_data_0_split_6
I0602 14:39:23.345033  1686 net.cpp:408] conv9_2_mbox_priorbox -> conv9_2_mbox_priorbox
I0602 14:39:23.345057  1686 net.cpp:150] Setting up conv9_2_mbox_priorbox
I0602 14:39:23.345062  1686 net.cpp:157] Top shape: 1 2 16 (32)
I0602 14:39:23.345064  1686 net.cpp:165] Memory required for data: 992071072
I0602 14:39:23.345067  1686 layer_factory.hpp:77] Creating layer mbox_loc
I0602 14:39:23.345072  1686 net.cpp:100] Creating Layer mbox_loc
I0602 14:39:23.345074  1686 net.cpp:434] mbox_loc <- conv4_3_norm_mbox_loc_flat
I0602 14:39:23.345077  1686 net.cpp:434] mbox_loc <- fc7_mbox_loc_flat
I0602 14:39:23.345082  1686 net.cpp:434] mbox_loc <- conv6_2_mbox_loc_flat
I0602 14:39:23.345084  1686 net.cpp:434] mbox_loc <- conv7_2_mbox_loc_flat
I0602 14:39:23.345088  1686 net.cpp:434] mbox_loc <- conv8_2_mbox_loc_flat
I0602 14:39:23.345090  1686 net.cpp:434] mbox_loc <- conv9_2_mbox_loc_flat
I0602 14:39:23.345094  1686 net.cpp:408] mbox_loc -> mbox_loc
I0602 14:39:23.345118  1686 net.cpp:150] Setting up mbox_loc
I0602 14:39:23.345122  1686 net.cpp:157] Top shape: 4 34928 (139712)
I0602 14:39:23.345124  1686 net.cpp:165] Memory required for data: 992629920
I0602 14:39:23.345126  1686 layer_factory.hpp:77] Creating layer mbox_conf
I0602 14:39:23.345131  1686 net.cpp:100] Creating Layer mbox_conf
I0602 14:39:23.345134  1686 net.cpp:434] mbox_conf <- conv4_3_norm_mbox_conf_flat
I0602 14:39:23.345137  1686 net.cpp:434] mbox_conf <- fc7_mbox_conf_flat
I0602 14:39:23.345140  1686 net.cpp:434] mbox_conf <- conv6_2_mbox_conf_flat
I0602 14:39:23.345144  1686 net.cpp:434] mbox_conf <- conv7_2_mbox_conf_flat
I0602 14:39:23.345146  1686 net.cpp:434] mbox_conf <- conv8_2_mbox_conf_flat
I0602 14:39:23.345149  1686 net.cpp:434] mbox_conf <- conv9_2_mbox_conf_flat
I0602 14:39:23.345161  1686 net.cpp:408] mbox_conf -> mbox_conf
I0602 14:39:23.345183  1686 net.cpp:150] Setting up mbox_conf
I0602 14:39:23.345188  1686 net.cpp:157] Top shape: 4 34928 (139712)
I0602 14:39:23.345191  1686 net.cpp:165] Memory required for data: 993188768
I0602 14:39:23.345192  1686 layer_factory.hpp:77] Creating layer mbox_priorbox
I0602 14:39:23.345197  1686 net.cpp:100] Creating Layer mbox_priorbox
I0602 14:39:23.345201  1686 net.cpp:434] mbox_priorbox <- conv4_3_norm_mbox_priorbox
I0602 14:39:23.345203  1686 net.cpp:434] mbox_priorbox <- fc7_mbox_priorbox
I0602 14:39:23.345206  1686 net.cpp:434] mbox_priorbox <- conv6_2_mbox_priorbox
I0602 14:39:23.345209  1686 net.cpp:434] mbox_priorbox <- conv7_2_mbox_priorbox
I0602 14:39:23.345211  1686 net.cpp:434] mbox_priorbox <- conv8_2_mbox_priorbox
I0602 14:39:23.345214  1686 net.cpp:434] mbox_priorbox <- conv9_2_mbox_priorbox
I0602 14:39:23.345217  1686 net.cpp:408] mbox_priorbox -> mbox_priorbox
I0602 14:39:23.345238  1686 net.cpp:150] Setting up mbox_priorbox
I0602 14:39:23.345242  1686 net.cpp:157] Top shape: 1 2 34928 (69856)
I0602 14:39:23.345244  1686 net.cpp:165] Memory required for data: 993468192
I0602 14:39:23.345247  1686 layer_factory.hpp:77] Creating layer mbox_conf_reshape
I0602 14:39:23.345252  1686 net.cpp:100] Creating Layer mbox_conf_reshape
I0602 14:39:23.345254  1686 net.cpp:434] mbox_conf_reshape <- mbox_conf
I0602 14:39:23.345258  1686 net.cpp:408] mbox_conf_reshape -> mbox_conf_reshape
I0602 14:39:23.345288  1686 net.cpp:150] Setting up mbox_conf_reshape
I0602 14:39:23.345293  1686 net.cpp:157] Top shape: 4 8732 4 (139712)
I0602 14:39:23.345295  1686 net.cpp:165] Memory required for data: 994027040
I0602 14:39:23.345297  1686 layer_factory.hpp:77] Creating layer mbox_conf_softmax
I0602 14:39:23.345301  1686 net.cpp:100] Creating Layer mbox_conf_softmax
I0602 14:39:23.345304  1686 net.cpp:434] mbox_conf_softmax <- mbox_conf_reshape
I0602 14:39:23.345309  1686 net.cpp:408] mbox_conf_softmax -> mbox_conf_softmax
I0602 14:39:23.345504  1686 net.cpp:150] Setting up mbox_conf_softmax
I0602 14:39:23.345511  1686 net.cpp:157] Top shape: 4 8732 4 (139712)
I0602 14:39:23.345515  1686 net.cpp:165] Memory required for data: 994585888
I0602 14:39:23.345517  1686 layer_factory.hpp:77] Creating layer mbox_conf_flatten
I0602 14:39:23.345520  1686 net.cpp:100] Creating Layer mbox_conf_flatten
I0602 14:39:23.345523  1686 net.cpp:434] mbox_conf_flatten <- mbox_conf_softmax
I0602 14:39:23.345527  1686 net.cpp:408] mbox_conf_flatten -> mbox_conf_flatten
I0602 14:39:23.345548  1686 net.cpp:150] Setting up mbox_conf_flatten
I0602 14:39:23.345554  1686 net.cpp:157] Top shape: 4 34928 (139712)
I0602 14:39:23.345556  1686 net.cpp:165] Memory required for data: 995144736
I0602 14:39:23.345559  1686 layer_factory.hpp:77] Creating layer detection_out
I0602 14:39:23.345573  1686 net.cpp:100] Creating Layer detection_out
I0602 14:39:23.345577  1686 net.cpp:434] detection_out <- mbox_loc
I0602 14:39:23.345580  1686 net.cpp:434] detection_out <- mbox_conf_flatten
I0602 14:39:23.345583  1686 net.cpp:434] detection_out <- mbox_priorbox
I0602 14:39:23.345588  1686 net.cpp:408] detection_out -> detection_out
I0602 14:39:23.346698  1686 net.cpp:150] Setting up detection_out
I0602 14:39:23.346705  1686 net.cpp:157] Top shape: 1 1 1 7 (7)
I0602 14:39:23.346709  1686 net.cpp:165] Memory required for data: 995144764
I0602 14:39:23.346711  1686 layer_factory.hpp:77] Creating layer detection_eval
I0602 14:39:23.346716  1686 net.cpp:100] Creating Layer detection_eval
I0602 14:39:23.346719  1686 net.cpp:434] detection_eval <- detection_out
I0602 14:39:23.346724  1686 net.cpp:434] detection_eval <- label
I0602 14:39:23.346727  1686 net.cpp:408] detection_eval -> detection_eval
I0602 14:39:23.347436  1686 net.cpp:150] Setting up detection_eval
I0602 14:39:23.347442  1686 net.cpp:157] Top shape: 1 1 4 5 (20)
I0602 14:39:23.347445  1686 net.cpp:165] Memory required for data: 995144844
I0602 14:39:23.347447  1686 net.cpp:228] detection_eval does not need backward computation.
I0602 14:39:23.347456  1686 net.cpp:228] detection_out does not need backward computation.
I0602 14:39:23.347460  1686 net.cpp:228] mbox_conf_flatten does not need backward computation.
I0602 14:39:23.347462  1686 net.cpp:228] mbox_conf_softmax does not need backward computation.
…
