…
        min_scale: 0.3
        max_scale: 1
        min_aspect_ratio: 0.5
        max_aspect_ratio: 2
      }
      sample_constraint {
        min_jaccard_overlap: 0.9
      }
      max_sample: 1
      max_trials: 50
    }
    batch_sampler {
      sampler {
        min_scale: 0.3
        max_scale: 1
        min_aspect_ratio: 0.5
        max_aspect_ratio: 2
      }
      sample_constraint {
        max_jaccard_overlap: 1
      }
      max_sample: 1
      max_trials: 50
    }
    label_map_file: "data/tbs_300x300_HSIL_10x/labelmap_tbs.prototxt"
  }
}
layer {
  name: "conv1_1"
  type: "Convolution"
  bottom: "data"
  top: "conv1_1"
  param {
    lr_mult: 0
    decay_mult: 0
  }
  param {
    lr_mult: 0
    decay_mult: 0
  }
  convolution_param {
    num_output: 64
    pad: 1
    kernel_size: 3
    weight_filler {
      type: "xavier"
    }
    bias_filler {
      type: "constant"
      value: 0
    }
  }
}
layer {
  name: "relu1_1"
  type: "ReLU"
  bottom: "conv1_1"
  top: "conv1_1"
}
layer {
  name: "conv1_2"
  type: "Convolution"
  bottom: "conv1_1"
  top: "conv1_2"
  param {
    lr_mult: 0
    decay_mult: 0
  }
  param {
    lr_mult: 0
    decay_mult: 0
  }
  convolution_param {
    num_output: 64
    pad: 1
    kernel_size: 3
    weight_filler {
      type: "xavier"
    }
    bias_filler {
      type: "constant"
      value: 0
    }
  }
}
layer {
  name: "relu1_2"
  type: "ReLU"
  bottom: "conv1_2"
  top: "conv1_2"
}
layer {
  name: "pool1"
  type: "Pooling"
  bottom: "conv1_2"
  top: "pool1"
  pooling_param {
    pool: MAX
    kernel_size: 2
    stride: 2
  }
}
layer {
  name: "conv2_1"
  type: "Convolution"
  bottom: "pool1"
  top: "conv2_1"
  param {
    lr_mult: 0
    decay_mult: 0
  }
  param {
    lr_mult: 0
    decay_mult: 0
  }
  convolution_param {
    num_output: 128
    pad: 1
    kernel_size: 3
    weight_filler {
      type: "xavier"
    }
    bias_filler {
      type: "constant"
      value: 0
    }
  }
}
layer {
  name: "relu2_1"
  type: "ReLU"
  bottom: "conv2_1"
  top: "conv2_1"
}
layer {
  name: "conv2_2"
  type: "Convolution"
  bottom: "conv2_1"
  top: "conv2_2"
  param {
    lr_mult: 0
    decay_mult: 0
  }
  param {
    lr_mult: 0
    decay_mult: 0
  }
  convolution_param {
    num_output: 128
    pad: 1
    kernel_size: 3
    weight_filler {
      type: "xavier"
    }
    bias_filler {
      type: "constant"
      value: 0
    }
  }
}
layer {
  name: "relu2_2"
  type: "ReLU"
  bottom: "conv2_2"
  top: "conv2_2"
}
layer {
  name: "pool2"
  type: "Pooling"
  bottom: "conv2_2"
  top: "pool2"
  pooling_param {
    pool: MAX
    kernel_size: 2
    stride: 2
  }
}
layer {
  name: "conv3_1"
  type: "Convolution"
  bottom: "pool2"
  top: "conv3_1"
  param {
    lr_mult: 0
    decay_mult: 0
  }
  param {
    lr_mult: 0
    decay_mult: 0
  }
  convolution_param {
    num_output: 256
    pad: 1
    kernel_size: 3
    weight_filler {
      type: "xavier"
    }
    bias_filler {
      type: "constant"
      value: 0
    }
  }
}
layer {
  name: "relu3_1"
  type: "ReLU"
  bottom: "conv3_1"
  top: "conv3_1"
}
layer {
  name: "conv3_2"
  type: "Convolution"
  bottom: "conv3_1"
  top: "conv3_2"
  param {
    lr_mult: 0
    decay_mult: 0
  }
  param {
    lr_mult: 0
    decay_mult: 0
  }
  convolution_param {
    num_output: 256
    pad: 1
    kernel_size: 3
    weight_filler {
      type: "xavier"
    }
    bias_filler {
      type: "constant"
      value: 0
    }
  }
}
layer {
  name: "relu3_2"
  type: "ReLU"
  bottom: "conv3_2"
  top: "conv3_2"
}
layer {
  name: "conv3_3"
  type: "Convolution"
  bottom: "conv3_2"
  top: "conv3_3"
  param {
    lr_mult: 0
    decay_mult: 0
  }
  param {
    lr_mult: 0
    decay_mult: 0
  }
  convolution_param {
    num_output: 256
    pad: 1
    kernel_size: 3
    weight_filler {
      type: "xavier"
    }
    bias_filler {
      type: "constant"
      value: 0
    }
  }
}
layer {
  name: "relu3_3"
  type: "ReLU"
  bottom: "conv3_3"
  top: "conv3_3"
}
layer {
  name: "pool3"
  type: "Pooling"
  bottom: "conv3_3"
  top: "pool3"
  pooling_param {
    pool: MAX
    kernel_size: 2
    stride: 2
  }
}
layer {
  name: "conv4_1"
  type: "Convolution"
  bottom: "pool3"
  top: "conv4_1"
  param {
    lr_mult: 0
    decay_mult: 0
  }
  param {
    lr_mult: 0
    decay_mult: 0
  }
  convolution_param {
    num_output: 512
    pad: 1
    kernel_size: 3
    weight_filler {
      type: "xavier"
    }
    bias_filler {
      type: "constant"
      value: 0
    }
  }
}
layer {
  name: "relu4_1"
  type: "ReLU"
  bottom: "conv4_1"
  top: "conv4_1"
}
layer {
  name: "conv4_2"
  type: "Convolution"
  bottom: "conv4_1"
  top: "conv4_2"
  param {
    lr_mult: 0
    decay_mult: 0
  }
  param {
    lr_mult: 0
    decay_mult: 0
  }
  convolution_param {
    num_output: 512
    pad: 1
    kernel_size: 3
    weight_filler {
      type: "xavier"
    }
    bias_filler {
      type: "constant"
      value: 0
    }
  }
}
layer {
  name: "relu4_2"
  type: "ReLU"
  bottom: "conv4_2"
  top: "conv4_2"
}
layer {
  name: "conv4_3"
  type: "Convolution"
  bottom: "conv4_2"
  top: "conv4_3"
  param {
    lr_mult: 0
    decay_mult: 0
  }
  param {
    lr_mult: 0
    decay_mult: 0
  }
  convolution_param {
    num_output: 512
    pad: 1
    kernel_size: 3
    weight_filler {
      type: "xavier"
    }
    bias_filler {
      type: "constant"
      value: 0
    }
  }
}
layer {
  name: "relu4_3"
  type: "ReLU"
  bottom: "conv4_3"
  top: "conv4_3"
}
layer {
  name: "pool4"
  type: "Pooling"
  bottom: "conv4_3"
  top: "pool4"
  pooling_param {
    pool: MAX
    kernel_size: 2
    stride: 2
  }
}
layer {
  name: "conv5_1"
  type: "Convolution"
  bottom: "pool4"
  top: "conv5_1"
  param {
    lr_mult: 0
    decay_mult: 0
  }
  param {
    lr_mult: 0
    decay_mult: 0
  }
  convolution_param {
    num_output: 512
    pad: 1
    kernel_size: 3
    weight_filler {
      type: "xavier"
    }
    bias_filler {
      type: "constant"
      value: 0
    }
    dilation: 1
  }
}
layer {
  name: "relu5_1"
  type: "ReLU"
  bottom: "conv5_1"
  top: "conv5_1"
}
layer {
  name: "conv5_2"
  type: "Convolution"
  bottom: "conv5_1"
  top: "conv5_2"
  param {
    lr_mult: 0
    decay_mult: 0
  }
  param {
    lr_mult: 0
    decay_mult: 0
  }
  convolution_param {
    num_output: 512
    pad: 1
    kernel_size: 3
    weight_filler {
      type: "xavier"
    }
    bias_filler {
      type: "constant"
      value: 0
    }
    dilation: 1
  }
}
layer {
  name: "relu5_2"
  type: "ReLU"
  bottom: "conv5_2"
  top: "conv5_2"
}
layer {
  name: "conv5_3"
  type: "Convolution"
  bottom: "conv5_2"
  top: "conv5_3"
  param {
    lr_mult: 0
    decay_mult: 0
  }
  param {
    lr_mult: 0
    decay_mult: 0
  }
  convolution_param {
    num_output: 512
    pad: 1
    kernel_size: 3
    weight_filler {
      type: "xavier"
    }
    bias_filler {
      type: "constant"
      value: 0
    }
    dilation: 1
  }
}
layer {
  name: "relu5_3"
  type: "ReLU"
  bottom: "conv5_3"
  top: "conv5_3"
}
layer {
  name: "pool5"
  type: "Pooling"
  bottom: "conv5_3"
  top: "pool5"
  pooling_param {
    pool: MAX
    kernel_size: 3
    stride: 1
    pad: 1
  }
}
layer {
  name: "fc6"
  type: "Convolution"
  bottom: "pool5"
  top: "fc6"
  param {
    lr_mult: 0
    decay_mult: 0
  }
  param {
    lr_mult: 0
    decay_mult: 0
  }
  convolution_param {
    num_output: 1024
    pad: 6
    kernel_size: 3
    weight_filler {
      type: "xavier"
    }
    bias_filler {
      type: "constant"
      value: 0
    }
    dilation: 6
  }
}
layer {
  name: "relu6"
  type: "ReLU"
  bottom: "fc6"
  top: "fc6"
}
layer {
  name: "fc7"
  type: "Convolution"
  bottom: "fc6"
  top: "fc7"
  param {
    lr_mult: 0
    decay_mult: 0
  }
  param {
    lr_mult: 0
    decay_mult: 0
  }
  convolution_param {
    num_output: 1024
    kernel_size: 1
    weight_filler {
      type: "xavier"
    }
    bias_filler {
      type: "constant"
      value: 0
    }
  }
}
layer {
  name: "relu7"
  type: "ReLU"
  bottom: "fc7"
  top: "fc7"
}
layer {
  name: "conv6_1"
  type: "Convolution"
  bottom: "fc7"
  top: "conv6_1"
  param {
    lr_mult: 1
    decay_mult: 1
  }
  param {
    lr_mult: 2
    decay_mult: 0
  }
  convolution_param {
    num_output: 256
    pad: 0
    kernel_size: 1
    stride: 1
    weight_filler {
      type: "xavier"
    }
    bias_filler {
      type: "constant"
      value: 0
    }
  }
}
layer {
  name: "conv6_1_relu"
  type: "ReLU"
  bottom: "conv6_1"
  top: "conv6_1"
}
layer {
  name: "conv6_2"
  type: "Convolution"
  bottom: "conv6_1"
  top: "conv6_2"
  param {
    lr_mult: 1
    decay_mult: 1
  }
  param {
    lr_mult: 2
    decay_mult: 0
  }
  convolution_param {
    num_output: 512
    pad: 1
    kernel_size: 3
    stride: 2
    weight_filler {
      type: "xavier"
    }
    bias_filler {
      type: "constant"
      value: 0
    }
  }
}
layer {
  name: "conv6_2_relu"
  type: "ReLU"
  bottom: "conv6_2"
  top: "conv6_2"
}
layer {
  name: "conv7_1"
  type: "Convolution"
  bottom: "conv6_2"
  top: "conv7_1"
  param {
    lr_mult: 1
    decay_mult: 1
  }
  param {
    lr_mult: 2
    decay_mult: 0
  }
  convolution_param {
    num_output: 128
    pad: 0
    kernel_size: 1
    stride: 1
    weight_filler {
      type: "xavier"
    }
    bias_filler {
      type: "constant"
      value: 0
    }
  }
}
layer {
  name: "conv7_1_relu"
  type: "ReLU"
  bottom: "conv7_1"
  top: "conv7_1"
}
layer {
  name: "conv7_2"
  type: "Convolution"
  bottom: "conv7_1"
  top: "conv7_2"
  param {
    lr_mult: 1
    decay_mult: 1
  }
  param {
    lr_mult: 2
    decay_mult: 0
  }
  convolution_param {
    num_output: 256
    pad: 1
    kernel_size: 3
    stride: 2
    weight_filler {
      type: "xavier"
    }
    bias_filler {
      type: "constant"
      value: 0
    }
  }
}
layer {
  name: "conv7_2_relu"
  type: "ReLU"
  bottom: "conv7_2"
  top: "conv7_2"
}
layer {
  name: "conv8_1"
  type: "Convolution"
  bottom: "conv7_2"
  top: "conv8_1"
  param {
    lr_mult: 1
    decay_mult: 1
  }
  param {
    lr_mult: 2
    decay_mult: 0
  }
  convolution_param {
    num_output: 128
    pad: 0
    kernel_size: 1
    stride: 1
    weight_filler {
      type: "xavier"
    }
    bias_filler {
      type: "constant"
      value: 0
    }
  }
}
layer {
  name: "conv8_1_relu"
  type: "ReLU"
  bottom: "conv8_1"
  top: "conv8_1"
}
layer {
  name: "conv8_2"
  type: "Convolution"
  bottom: "conv8_1"
  top: "conv8_2"
  param {
    lr_mult: 1
    decay_mult: 1
  }
  param {
    lr_mult: 2
    decay_mult: 0
  }
  convolution_param {
    num_output: 256
    pad: 0
    kernel_size: 3
    stride: 1
    weight_filler {
      type: "xavier"
    }
    bias_filler {
      type: "constant"
      value: 0
    }
  }
}
layer {
  name: "conv8_2_relu"
  type: "ReLU"
  bottom: "conv8_2"
  top: "conv8_2"
}
layer {
  name: "conv9_1"
  type: "Convolution"
  bottom: "conv8_2"
  top: "conv9_1"
  param {
    lr_mult: 1
    decay_mult: 1
  }
  param {
    lr_mult: 2
    decay_mult: 0
  }
  convolution_param {
    num_output: 128
    pad: 0
    kernel_size: 1
    stride: 1
    weight_filler {
      type: "xavier"
    }
    bias_filler {
      type: "constant"
      value: 0
    }
  }
}
layer {
  name: "conv9_1_relu"
  type: "ReLU"
  bottom: "conv9_1"
  top: "conv9_1"
}
layer {
  name: "conv9_2"
  type: "Convolution"
  bottom: "conv9_1"
  top: "conv9_2"
  param {
    lr_mult: 1
    decay_mult: 1
  }
  param {
    lr_mult: 2
    decay_mult: 0
  }
  convolution_param {
    num_output: 256
    pad: 0
    kernel_size: 3
    stride: 1
    weight_filler {
      type: "xavier"
    }
    bias_filler {
      type: "constant"
      value: 0
    }
  }
}
layer {
  name: "conv9_2_relu"
  type: "ReLU"
  bottom: "conv9_2"
  top: "conv9_2"
}
layer {
  name: "conv4_3_norm"
  type: "Normalize"
  bottom: "conv4_3"
  top: "conv4_3_norm"
  norm_param {
    across_spatial: false
    scale_filler {
      type: "constant"
      value: 20
    }
    channel_shared: false
  }
}
layer {
  name: "conv4_3_norm_mbox_loc"
  type: "Convolution"
  bottom: "conv4_3_norm"
  top: "conv4_3_norm_mbox_loc"
  param {
    lr_mult: 1
    decay_mult: 1
  }
  param {
    lr_mult: 2
    decay_mult: 0
  }
  convolution_param {
    num_output: 16
    pad: 1
    kernel_size: 3
    stride: 1
    weight_filler {
      type: "xavier"
    }
    bias_filler {
      type: "constant"
      value: 0
    }
  }
}
layer {
  name: "conv4_3_norm_mbox_loc_perm"
  type: "Permute"
  bottom: "conv4_3_norm_mbox_loc"
  top: "conv4_3_norm_mbox_loc_perm"
  permute_param {
    order: 0
    order: 2
    order: 3
    order: 1
  }
}
layer {
  name: "conv4_3_norm_mbox_loc_flat"
  type: "Flatten"
  bottom: "conv4_3_norm_mbox_loc_perm"
  top: "conv4_3_norm_mbox_loc_flat"
  flatten_param {
    axis: 1
  }
}
layer {
  name: "conv4_3_norm_mbox_conf"
  type: "Convolution"
  bottom: "conv4_3_norm"
  top: "conv4_3_norm_mbox_conf"
  param {
    lr_mult: 1
    decay_mult: 1
  }
  param {
    lr_mult: 2
    decay_mult: 0
  }
  convolution_param {
    num_output: 16
    pad: 1
    kernel_size: 3
    stride: 1
    weight_filler {
      type: "xavier"
    }
    bias_filler {
      type: "constant"
      value: 0
    }
  }
}
layer {
  name: "conv4_3_norm_mbox_conf_perm"
  type: "Permute"
  bottom: "conv4_3_norm_mbox_conf"
  top: "conv4_3_norm_mbox_conf_perm"
  permute_param {
    order: 0
    order: 2
    order: 3
    order: 1
  }
}
layer {
  name: "conv4_3_norm_mbox_conf_flat"
  type: "Flatten"
  bottom: "conv4_3_norm_mbox_conf_perm"
  top: "conv4_3_norm_mbox_conf_flat"
  flatten_param {
    axis: 1
  }
}
layer {
  name: "conv4_3_norm_mbox_priorbox"
  type: "PriorBox"
  bottom: "conv4_3_norm"
  bottom: "data"
  top: "conv4_3_norm_mbox_priorbox"
  prior_box_param {
    min_size: 30
    max_size: 60
    aspect_ratio: 2
    flip: true
    clip: false
    variance: 0.1
    variance: 0.1
    variance: 0.2
    variance: 0.2
    step: 8
    offset: 0.5
  }
}
layer {
  name: "fc7_mbox_loc"
  type: "Convolution"
  bottom: "fc7"
  top: "fc7_mbox_loc"
  param {
    lr_mult: 1
    decay_mult: 1
  }
  param {
    lr_mult: 2
    decay_mult: 0
  }
  convolution_param {
    num_output: 24
    pad: 1
    kernel_size: 3
    stride: 1
    weight_filler {
      type: "xavier"
    }
    bias_filler {
      type: "constant"
      value: 0
    }
  }
}
layer {
  name: "fc7_mbox_loc_perm"
  type: "Permute"
  bottom: "fc7_mbox_loc"
  top: "fc7_mbox_loc_perm"
  permute_param {
    order: 0
    order: 2
    order: 3
    order: 1
  }
}
layer {
  name: "fc7_mbox_loc_flat"
  type: "Flatten"
  bottom: "fc7_mbox_loc_perm"
  top: "fc7_mbox_loc_flat"
  flatten_param {
    axis: 1
  }
}
layer {
  name: "fc7_mbox_conf"
  type: "Convolution"
  bottom: "fc7"
  top: "fc7_mbox_conf"
  param {
    lr_mult: 1
    decay_mult: 1
  }
  param {
    lr_mult: 2
    decay_mult: 0
  }
  convolution_param {
    num_output: 24
    pad: 1
    kernel_size: 3
    stride: 1
    weight_filler {
      type: "xavier"
    }
    bias_filler {
      type: "constant"
      value: 0
    }
  }
}
layer {
  name: "fc7_mbox_conf_perm"
  type: "Permute"
  bottom: "fc7_mbox_conf"
  top: "fc7_mbox_conf_perm"
  permute_param {
    order: 0
    order: 2
    order: 3
    order: 1
  }
}
layer {
  name: "fc7_mbox_conf_flat"
  type: "Flatten"
  bottom: "fc7_mbox_conf_perm"
  top: "fc7_mbox_conf_flat"
  flatten_param {
    axis: 1
  }
}
layer {
  name: "fc7_mbox_priorbox"
  type: "PriorBox"
  bottom: "fc7"
  bottom: "data"
  top: "fc7_mbox_priorbox"
  prior_box_param {
    min_size: 60
    max_size: 111
    aspect_ratio: 2
    aspect_ratio: 3
    flip: true
    clip: false
    variance: 0.1
    variance: 0.1
    variance: 0.2
    variance: 0.2
    step: 16
    offset: 0.5
  }
}
layer {
  name: "conv6_2_mbox_loc"
  type: "Convolution"
  bottom: "conv6_2"
  top: "conv6_2_mbox_loc"
  param {
    lr_mult: 1
    decay_mult: 1
  }
  param {
    lr_mult: 2
    decay_mult: 0
  }
  convolution_param {
    num_output: 24
    pad: 1
    kernel_size: 3
    stride: 1
    weight_filler {
      type: "xavier"
    }
    bias_filler {
      type: "constant"
      value: 0
    }
  }
}
layer {
  name: "conv6_2_mbox_loc_perm"
  type: "Permute"
  bottom: "conv6_2_mbox_loc"
  top: "conv6_2_mbox_loc_perm"
  permute_param {
    order: 0
    order: 2
    order: 3
    order: 1
  }
}
layer {
  name: "conv6_2_mbox_loc_flat"
  type: "Flatten"
  bottom: "conv6_2_mbox_loc_perm"
  top: "conv6_2_mbox_loc_flat"
  flatten_param {
    axis: 1
  }
}
layer {
  name: "conv6_2_mbox_conf"
  type: "Convolution"
  bottom: "conv6_2"
  top: "conv6_2_mbox_conf"
  param {
    lr_mult: 1
    decay_mult: 1
  }
  param {
    lr_mult: 2
    decay_mult: 0
  }
  convolution_param {
    num_output: 24
    pad: 1
    kernel_size: 3
    stride: 1
    weight_filler {
      type: "xavier"
    }
    bias_filler {
      type: "constant"
      value: 0
    }
  }
}
layer {
  name: "conv6_2_mbox_conf_perm"
  type: "Permute"
  bottom: "conv6_2_mbox_conf"
  top: "conv6_2_mbox_conf_perm"
  permute_param {
    order: 0
    order: 2
    order: 3
    order: 1
  }
}
layer {
  name: "conv6_2_mbox_conf_flat"
  type: "Flatten"
  bottom: "conv6_2_mbox_conf_perm"
  top: "conv6_2_mbox_conf_flat"
  flatten_param {
    axis: 1
  }
}
layer {
  name: "conv6_2_mbox_priorbox"
  type: "PriorBox"
  bottom: "conv6_2"
  bottom: "data"
  top: "conv6_2_mbox_priorbox"
  prior_box_param {
    min_size: 111
    max_size: 162
    aspect_ratio: 2
    aspect_ratio: 3
    flip: true
    clip: false
    variance: 0.1
    variance: 0.1
    variance: 0.2
    variance: 0.2
    step: 32
    offset: 0.5
  }
}
layer {
  name: "conv7_2_mbox_loc"
  type: "Convolution"
  bottom: "conv7_2"
  top: "conv7_2_mbox_loc"
  param {
    lr_mult: 1
    decay_mult: 1
  }
  param {
    lr_mult: 2
    decay_mult: 0
  }
  convolution_param {
    num_output: 24
    pad: 1
    kernel_size: 3
    stride: 1
    weight_filler {
      type: "xavier"
    }
    bias_filler {
      type: "constant"
      value: 0
    }
  }
}
layer {
  name: "conv7_2_mbox_loc_perm"
  type: "Permute"
  bottom: "conv7_2_mbox_loc"
  top: "conv7_2_mbox_loc_perm"
  permute_param {
    order: 0
    order: 2
    order: 3
    order: 1
  }
}
layer {
  name: "conv7_2_mbox_loc_flat"
  type: "Flatten"
  bottom: "conv7_2_mbox_loc_perm"
  top: "conv7_2_mbox_loc_flat"
  flatten_param {
    axis: 1
  }
}
layer {
  name: "conv7_2_mbox_conf"
  type: "Convolution"
  bottom: "conv7_2"
  top: "conv7_2_mbox_conf"
  param {
    lr_mult: 1
    decay_mult: 1
  }
  param {
    lr_mult: 2
    decay_mult: 0
  }
  convolution_param {
    num_output: 24
    pad: 1
    kernel_size: 3
    stride: 1
    weight_filler {
      type: "xavier"
    }
    bias_filler {
      type: "constant"
      value: 0
    }
  }
}
layer {
  name: "conv7_2_mbox_conf_perm"
  type: "Permute"
  bottom: "conv7_2_mbox_conf"
  top: "conv7_2_mbox_conf_perm"
  permute_param {
    order: 0
    order: 2
    order: 3
    order: 1
  }
}
layer {
  name: "conv7_2_mbox_conf_flat"
  type: "Flatten"
  bottom: "conv7_2_mbox_conf_perm"
  top: "conv7_2_mbox_conf_flat"
  flatten_param {
    axis: 1
  }
}
layer {
  name: "conv7_2_mbox_priorbox"
  type: "PriorBox"
  bottom: "conv7_2"
  bottom: "data"
  top: "conv7_2_mbox_priorbox"
  prior_box_param {
    min_size: 162
    max_size: 213
    aspect_ratio: 2
    aspect_ratio: 3
    flip: true
    clip: false
    variance: 0.1
    variance: 0.1
    variance: 0.2
    variance: 0.2
    step: 64
    offset: 0.5
  }
}
layer {
  name: "conv8_2_mbox_loc"
  type: "Convolution"
  bottom: "conv8_2"
  top: "conv8_2_mbox_loc"
  param {
    lr_mult: 1
    decay_mult: 1
  }
  param {
    lr_mult: 2
    decay_mult: 0
  }
  convolution_param {
    num_output: 16
    pad: 1
    kernel_size: 3
    stride: 1
    weight_filler {
      type: "xavier"
    }
    bias_filler {
      type: "constant"
      value: 0
    }
  }
}
layer {
  name: "conv8_2_mbox_loc_perm"
  type: "Permute"
  bottom: "conv8_2_mbox_loc"
  top: "conv8_2_mbox_loc_perm"
  permute_param {
    order: 0
    order: 2
    order: 3
    order: 1
  }
}
layer {
  name: "conv8_2_mbox_loc_flat"
  type: "Flatten"
  bottom: "conv8_2_mbox_loc_perm"
  top: "conv8_2_mbox_loc_flat"
  flatten_param {
    axis: 1
  }
}
layer {
  name: "conv8_2_mbox_conf"
  type: "Convolution"
  bottom: "conv8_2"
  top: "conv8_2_mbox_conf"
  param {
    lr_mult: 1
    decay_mult: 1
  }
  param {
    lr_mult: 2
    decay_mult: 0
  }
  convolution_param {
    num_output: 16
    pad: 1
    kernel_size: 3
    stride: 1
    weight_filler {
      type: "xavier"
    }
    bias_filler {
      type: "constant"
      value: 0
    }
  }
}
layer {
  name: "conv8_2_mbox_conf_perm"
  type: "Permute"
  bottom: "conv8_2_mbox_conf"
  top: "conv8_2_mbox_conf_perm"
  permute_param {
    order: 0
    order: 2
    order: 3
    order: 1
  }
}
layer {
  name: "conv8_2_mbox_conf_flat"
  type: "Flatten"
  bottom: "conv8_2_mbox_conf_perm"
  top: "conv8_2_mbox_conf_flat"
  flatten_param {
    axis: 1
  }
}
layer {
  name: "conv8_2_mbox_priorbox"
  type: "PriorBox"
  bottom: "conv8_2"
  bottom: "data"
  top: "conv8_2_mbox_priorbox"
  prior_box_param {
    min_size: 213
    max_size: 264
    aspect_ratio: 2
    flip: true
    clip: false
    variance: 0.1
    variance: 0.1
    variance: 0.2
    variance: 0.2
    step: 100
    offset: 0.5
  }
}
layer {
  name: "conv9_2_mbox_loc"
  type: "Convolution"
  bottom: "conv9_2"
  top: "conv9_2_mbox_loc"
  param {
    lr_mult: 1
    decay_mult: 1
  }
  param {
    lr_mult: 2
    decay_mult: 0
  }
  convolution_param {
    num_output: 16
    pad: 1
    kernel_size: 3
    stride: 1
    weight_filler {
      type: "xavier"
    }
    bias_filler {
      type: "constant"
      value: 0
    }
  }
}
layer {
  name: "conv9_2_mbox_loc_perm"
  type: "Permute"
  bottom: "conv9_2_mbox_loc"
  top: "conv9_2_mbox_loc_perm"
  permute_param {
    order: 0
    order: 2
    order: 3
    order: 1
  }
}
layer {
  name: "conv9_2_mbox_loc_flat"
  type: "Flatten"
  bottom: "conv9_2_mbox_loc_perm"
  top: "conv9_2_mbox_loc_flat"
  flatten_param {
    axis: 1
  }
}
layer {
  name: "conv9_2_mbox_conf"
  type: "Convolution"
  bottom: "conv9_2"
  top: "conv9_2_mbox_conf"
  param {
    lr_mult: 1
    decay_mult: 1
  }
  param {
    lr_mult: 2
    decay_mult: 0
  }
  convolution_param {
    num_output: 16
    pad: 1
    kernel_size: 3
    stride: 1
    weight_filler {
      type: "xavier"
    }
    bias_filler {
      type: "constant"
      value: 0
    }
  }
}
layer {
  name: "conv9_2_mbox_conf_perm"
  type: "Permute"
  bottom: "conv9_2_mbox_conf"
  top: "conv9_2_mbox_conf_perm"
  permute_param {
    order: 0
    order: 2
    order: 3
    order: 1
  }
}
layer {
  name: "conv9_2_mbox_conf_flat"
  type: "Flatten"
  bottom: "conv9_2_mbox_conf_perm"
  top: "conv9_2_mbox_conf_flat"
  flatten_param {
    axis: 1
  }
}
layer {
  name: "conv9_2_mbox_priorbox"
  type: "PriorBox"
  bottom: "conv9_2"
  bottom: "data"
  top: "conv9_2_mbox_priorbox"
  prior_box_param {
    min_size: 264
    max_size: 315
    aspect_ratio: 2
    flip: true
    clip: false
    variance: 0.1
    variance: 0.1
    variance: 0.2
    variance: 0.2
    step: 300
    offset: 0.5
  }
}
layer {
  name: "mbox_loc"
  type: "Concat"
  bottom: "conv4_3_norm_mbox_loc_flat"
  bottom: "fc7_mbox_loc_flat"
  bottom: "conv6_2_mbox_loc_flat"
  bottom: "conv7_2_mbox_loc_flat"
  bottom: "conv8_2_mbox_loc_flat"
  bottom: "conv9_2_mbox_loc_flat"
  top: "mbox_loc"
  concat_param {
    axis: 1
  }
}
layer {
  name: "mbox_conf"
  type: "Concat"
  bottom: "conv4_3_norm_mbox_conf_flat"
  bottom: "fc7_mbox_conf_flat"
  bottom: "conv6_2_mbox_conf_flat"
  bottom: "conv7_2_mbox_conf_flat"
  bottom: "conv8_2_mbox_conf_flat"
  bottom: "conv9_2_mbox_conf_flat"
  top: "mbox_conf"
  concat_param {
    axis: 1
  }
}
layer {
  name: "mbox_priorbox"
  type: "Concat"
  bottom: "conv4_3_norm_mbox_priorbox"
  bottom: "fc7_mbox_priorbox"
  bottom: "conv6_2_mbox_priorbox"
  bottom: "conv7_2_mbox_priorbox"
  bottom: "conv8_2_mbox_priorbox"
  bottom: "conv9_2_mbox_priorbox"
  top: "mbox_priorbox"
  concat_param {
    axis: 2
  }
}
layer {
  name: "mbox_loss"
  type: "MultiBoxLoss"
  bottom: "mbox_loc"
  bottom: "mbox_conf"
  bottom: "mbox_priorbox"
  bottom: "label"
  top: "mbox_loss"
  include {
    phase: TRAIN
  }
  propagate_down: true
  propagate_down: true
  propagate_down: false
  propagate_down: false
  loss_param {
    normalization: VALID
  }
  multibox_loss_param {
    loc_loss_type: SMOOTH_L1
    conf_loss_type: SOFTMAX
    loc_weight: 1
    num_classes: 4
    share_location: true
    match_type: PER_PREDICTION
    overlap_threshold: 0.5
    use_prior_for_matching: true
    background_label_id: 0
    use_difficult_gt: true
    neg_pos_ratio: 3
    neg_overlap: 0.5
    code_type: CENTER_SIZE
    ignore_cross_boundary_bbox: false
    mining_type: MAX_NEGATIVE
  }
}
I0601 11:12:03.668571 28806 layer_factory.hpp:77] Creating layer data
I0601 11:12:03.668735 28806 net.cpp:100] Creating Layer data
I0601 11:12:03.668747 28806 net.cpp:408] data -> data
I0601 11:12:03.668782 28806 net.cpp:408] data -> label
I0601 11:12:03.669201 28822 db_lmdb.cpp:35] Opened lmdb examples/tbs_300x300_HSIL_10x/tbs_300x300_HSIL_10x_trainval_lmdb
I0601 11:12:03.677932 28806 annotated_data_layer.cpp:62] output data size: 32,3,300,300
I0601 11:12:03.737582 28806 net.cpp:150] Setting up data
I0601 11:12:03.737601 28806 net.cpp:157] Top shape: 32 3 300 300 (8640000)
I0601 11:12:03.737606 28806 net.cpp:157] Top shape: 1 1 1 8 (8)
I0601 11:12:03.737622 28806 net.cpp:165] Memory required for data: 34560032
I0601 11:12:03.737648 28806 layer_factory.hpp:77] Creating layer data_data_0_split
I0601 11:12:03.737661 28806 net.cpp:100] Creating Layer data_data_0_split
I0601 11:12:03.737684 28806 net.cpp:434] data_data_0_split <- data
I0601 11:12:03.737726 28806 net.cpp:408] data_data_0_split -> data_data_0_split_0
I0601 11:12:03.737751 28806 net.cpp:408] data_data_0_split -> data_data_0_split_1
I0601 11:12:03.737773 28806 net.cpp:408] data_data_0_split -> data_data_0_split_2
I0601 11:12:03.737797 28806 net.cpp:408] data_data_0_split -> data_data_0_split_3
I0601 11:12:03.737818 28806 net.cpp:408] data_data_0_split -> data_data_0_split_4
I0601 11:12:03.737839 28806 net.cpp:408] data_data_0_split -> data_data_0_split_5
I0601 11:12:03.737861 28806 net.cpp:408] data_data_0_split -> data_data_0_split_6
I0601 11:12:03.737998 28806 net.cpp:150] Setting up data_data_0_split
I0601 11:12:03.738010 28806 net.cpp:157] Top shape: 32 3 300 300 (8640000)
I0601 11:12:03.738018 28806 net.cpp:157] Top shape: 32 3 300 300 (8640000)
I0601 11:12:03.738023 28806 net.cpp:157] Top shape: 32 3 300 300 (8640000)
I0601 11:12:03.738029 28806 net.cpp:157] Top shape: 32 3 300 300 (8640000)
I0601 11:12:03.738034 28806 net.cpp:157] Top shape: 32 3 300 300 (8640000)
I0601 11:12:03.738039 28806 net.cpp:157] Top shape: 32 3 300 300 (8640000)
I0601 11:12:03.738045 28806 net.cpp:157] Top shape: 32 3 300 300 (8640000)
I0601 11:12:03.738050 28806 net.cpp:165] Memory required for data: 276480032
I0601 11:12:03.738054 28806 layer_factory.hpp:77] Creating layer conv1_1
I0601 11:12:03.738098 28806 net.cpp:100] Creating Layer conv1_1
I0601 11:12:03.738103 28806 net.cpp:434] conv1_1 <- data_data_0_split_0
I0601 11:12:03.738112 28806 net.cpp:408] conv1_1 -> conv1_1
I0601 11:12:03.740006 28806 net.cpp:150] Setting up conv1_1
I0601 11:12:03.740033 28806 net.cpp:157] Top shape: 32 64 300 300 (184320000)
I0601 11:12:03.740036 28806 net.cpp:165] Memory required for data: 1013760032
I0601 11:12:03.740049 28806 layer_factory.hpp:77] Creating layer relu1_1
I0601 11:12:03.740073 28806 net.cpp:100] Creating Layer relu1_1
I0601 11:12:03.740092 28806 net.cpp:434] relu1_1 <- conv1_1
I0601 11:12:03.740098 28806 net.cpp:395] relu1_1 -> conv1_1 (in-place)
I0601 11:12:03.740108 28806 net.cpp:150] Setting up relu1_1
I0601 11:12:03.740114 28806 net.cpp:157] Top shape: 32 64 300 300 (184320000)
I0601 11:12:03.740118 28806 net.cpp:165] Memory required for data: 1751040032
I0601 11:12:03.740121 28806 layer_factory.hpp:77] Creating layer conv1_2
I0601 11:12:03.740133 28806 net.cpp:100] Creating Layer conv1_2
I0601 11:12:03.740137 28806 net.cpp:434] conv1_2 <- conv1_1
I0601 11:12:03.740144 28806 net.cpp:408] conv1_2 -> conv1_2
I0601 11:12:03.751860 28806 net.cpp:150] Setting up conv1_2
I0601 11:12:03.751878 28806 net.cpp:157] Top shape: 32 64 300 300 (184320000)
I0601 11:12:03.751880 28806 net.cpp:165] Memory required for data: 2488320032
I0601 11:12:03.751888 28806 layer_factory.hpp:77] Creating layer relu1_2
I0601 11:12:03.751896 28806 net.cpp:100] Creating Layer relu1_2
I0601 11:12:03.751915 28806 net.cpp:434] relu1_2 <- conv1_2
I0601 11:12:03.751922 28806 net.cpp:395] relu1_2 -> conv1_2 (in-place)
I0601 11:12:03.751943 28806 net.cpp:150] Setting up relu1_2
I0601 11:12:03.751963 28806 net.cpp:157] Top shape: 32 64 300 300 (184320000)
I0601 11:12:03.751967 28806 net.cpp:165] Memory required for data: 3225600032
I0601 11:12:03.751986 28806 layer_factory.hpp:77] Creating layer pool1
I0601 11:12:03.751991 28806 net.cpp:100] Creating Layer pool1
I0601 11:12:03.752009 28806 net.cpp:434] pool1 <- conv1_2
I0601 11:12:03.752017 28806 net.cpp:408] pool1 -> pool1
I0601 11:12:03.752092 28806 net.cpp:150] Setting up pool1
I0601 11:12:03.752100 28806 net.cpp:157] Top shape: 32 64 150 150 (46080000)
I0601 11:12:03.752104 28806 net.cpp:165] Memory required for data: 3409920032
I0601 11:12:03.752109 28806 layer_factory.hpp:77] Creating layer conv2_1
I0601 11:12:03.752135 28806 net.cpp:100] Creating Layer conv2_1
I0601 11:12:03.752151 28806 net.cpp:434] conv2_1 <- pool1
I0601 11:12:03.752159 28806 net.cpp:408] conv2_1 -> conv2_1
I0601 11:12:03.752974 28806 net.cpp:150] Setting up conv2_1
I0601 11:12:03.753000 28806 net.cpp:157] Top shape: 32 128 150 150 (92160000)
I0601 11:12:03.753016 28806 net.cpp:165] Memory required for data: 3778560032
I0601 11:12:03.753026 28806 layer_factory.hpp:77] Creating layer relu2_1
I0601 11:12:03.753037 28806 net.cpp:100] Creating Layer relu2_1
I0601 11:12:03.753042 28806 net.cpp:434] relu2_1 <- conv2_1
I0601 11:12:03.753048 28806 net.cpp:395] relu2_1 -> conv2_1 (in-place)
I0601 11:12:03.753056 28806 net.cpp:150] Setting up relu2_1
I0601 11:12:03.753064 28806 net.cpp:157] Top shape: 32 128 150 150 (92160000)
I0601 11:12:03.753069 28806 net.cpp:165] Memory required for data: 4147200032
I0601 11:12:03.753073 28806 layer_factory.hpp:77] Creating layer conv2_2
I0601 11:12:03.753082 28806 net.cpp:100] Creating Layer conv2_2
I0601 11:12:03.753088 28806 net.cpp:434] conv2_2 <- conv2_1
I0601 11:12:03.753094 28806 net.cpp:408] conv2_2 -> conv2_2
I0601 11:12:03.754252 28806 net.cpp:150] Setting up conv2_2
I0601 11:12:03.754262 28806 net.cpp:157] Top shape: 32 128 150 150 (92160000)
I0601 11:12:03.754266 28806 net.cpp:165] Memory required for data: 4515840032
I0601 11:12:03.754271 28806 layer_factory.hpp:77] Creating layer relu2_2
I0601 11:12:03.754278 28806 net.cpp:100] Creating Layer relu2_2
I0601 11:12:03.754283 28806 net.cpp:434] relu2_2 <- conv2_2
I0601 11:12:03.754292 28806 net.cpp:395] relu2_2 -> conv2_2 (in-place)
I0601 11:12:03.754299 28806 net.cpp:150] Setting up relu2_2
I0601 11:12:03.754307 28806 net.cpp:157] Top shape: 32 128 150 150 (92160000)
I0601 11:12:03.754310 28806 net.cpp:165] Memory required for data: 4884480032
I0601 11:12:03.754317 28806 layer_factory.hpp:77] Creating layer pool2
I0601 11:12:03.754323 28806 net.cpp:100] Creating Layer pool2
I0601 11:12:03.754328 28806 net.cpp:434] pool2 <- conv2_2
I0601 11:12:03.754334 28806 net.cpp:408] pool2 -> pool2
I0601 11:12:03.754372 28806 net.cpp:150] Setting up pool2
I0601 11:12:03.754380 28806 net.cpp:157] Top shape: 32 128 75 75 (23040000)
I0601 11:12:03.754385 28806 net.cpp:165] Memory required for data: 4976640032
I0601 11:12:03.754389 28806 layer_factory.hpp:77] Creating layer conv3_1
I0601 11:12:03.754400 28806 net.cpp:100] Creating Layer conv3_1
I0601 11:12:03.754405 28806 net.cpp:434] conv3_1 <- pool2
I0601 11:12:03.754411 28806 net.cpp:408] conv3_1 -> conv3_1
I0601 11:12:03.757412 28806 net.cpp:150] Setting up conv3_1
I0601 11:12:03.757431 28806 net.cpp:157] Top shape: 32 256 75 75 (46080000)
I0601 11:12:03.757433 28806 net.cpp:165] Memory required for data: 5160960032
I0601 11:12:03.757444 28806 layer_factory.hpp:77] Creating layer relu3_1
I0601 11:12:03.757454 28806 net.cpp:100] Creating Layer relu3_1
I0601 11:12:03.757459 28806 net.cpp:434] relu3_1 <- conv3_1
I0601 11:12:03.757468 28806 net.cpp:395] relu3_1 -> conv3_1 (in-place)
I0601 11:12:03.757477 28806 net.cpp:150] Setting up relu3_1
I0601 11:12:03.757483 28806 net.cpp:157] Top shape: 32 256 75 75 (46080000)
I0601 11:12:03.757488 28806 net.cpp:165] Memory required for data: 5345280032
I0601 11:12:03.757493 28806 layer_factory.hpp:77] Creating layer conv3_2
I0601 11:12:03.757501 28806 net.cpp:100] Creating Layer conv3_2
I0601 11:12:03.757506 28806 net.cpp:434] conv3_2 <- conv3_1
I0601 11:12:03.757513 28806 net.cpp:408] conv3_2 -> conv3_2
I0601 11:12:03.760864 28806 net.cpp:150] Setting up conv3_2
I0601 11:12:03.760882 28806 net.cpp:157] Top shape: 32 256 75 75 (46080000)
I0601 11:12:03.760885 28806 net.cpp:165] Memory required for data: 5529600032
I0601 11:12:03.760891 28806 layer_factory.hpp:77] Creating layer relu3_2
I0601 11:12:03.760901 28806 net.cpp:100] Creating Layer relu3_2
I0601 11:12:03.760906 28806 net.cpp:434] relu3_2 <- conv3_2
I0601 11:12:03.760913 28806 net.cpp:395] relu3_2 -> conv3_2 (in-place)
I0601 11:12:03.760921 28806 net.cpp:150] Setting up relu3_2
I0601 11:12:03.760928 28806 net.cpp:157] Top shape: 32 256 75 75 (46080000)
I0601 11:12:03.760932 28806 net.cpp:165] Memory required for data: 5713920032
I0601 11:12:03.760949 28806 layer_factory.hpp:77] Creating layer conv3_3
I0601 11:12:03.760963 28806 net.cpp:100] Creating Layer conv3_3
I0601 11:12:03.760968 28806 net.cpp:434] conv3_3 <- conv3_2
I0601 11:12:03.760977 28806 net.cpp:408] conv3_3 -> conv3_3
I0601 11:12:03.764371 28806 net.cpp:150] Setting up conv3_3
I0601 11:12:03.764389 28806 net.cpp:157] Top shape: 32 256 75 75 (46080000)
I0601 11:12:03.764392 28806 net.cpp:165] Memory required for data: 5898240032
I0601 11:12:03.764398 28806 layer_factory.hpp:77] Creating layer relu3_3
I0601 11:12:03.764405 28806 net.cpp:100] Creating Layer relu3_3
I0601 11:12:03.764411 28806 net.cpp:434] relu3_3 <- conv3_3
I0601 11:12:03.764420 28806 net.cpp:395] relu3_3 -> conv3_3 (in-place)
I0601 11:12:03.764428 28806 net.cpp:150] Setting up relu3_3
I0601 11:12:03.764434 28806 net.cpp:157] Top shape: 32 256 75 75 (46080000)
I0601 11:12:03.764438 28806 net.cpp:165] Memory required for data: 6082560032
I0601 11:12:03.764441 28806 layer_factory.hpp:77] Creating layer pool3
I0601 11:12:03.764447 28806 net.cpp:100] Creating Layer pool3
I0601 11:12:03.764451 28806 net.cpp:434] pool3 <- conv3_3
I0601 11:12:03.764458 28806 net.cpp:408] pool3 -> pool3
I0601 11:12:03.764503 28806 net.cpp:150] Setting up pool3
I0601 11:12:03.764511 28806 net.cpp:157] Top shape: 32 256 38 38 (11829248)
I0601 11:12:03.764515 28806 net.cpp:165] Memory required for data: 6129877024
I0601 11:12:03.764520 28806 layer_factory.hpp:77] Creating layer conv4_1
I0601 11:12:03.764530 28806 net.cpp:100] Creating Layer conv4_1
I0601 11:12:03.764536 28806 net.cpp:434] conv4_1 <- pool3
I0601 11:12:03.764544 28806 net.cpp:408] conv4_1 -> conv4_1
I0601 11:12:03.771541 28806 net.cpp:150] Setting up conv4_1
I0601 11:12:03.771559 28806 net.cpp:157] Top shape: 32 512 38 38 (23658496)
I0601 11:12:03.771562 28806 net.cpp:165] Memory required for data: 6224511008
I0601 11:12:03.771569 28806 layer_factory.hpp:77] Creating layer relu4_1
I0601 11:12:03.771576 28806 net.cpp:100] Creating Layer relu4_1
I0601 11:12:03.771581 28806 net.cpp:434] relu4_1 <- conv4_1
I0601 11:12:03.771589 28806 net.cpp:395] relu4_1 -> conv4_1 (in-place)
I0601 11:12:03.771597 28806 net.cpp:150] Setting up relu4_1
I0601 11:12:03.771603 28806 net.cpp:157] Top shape: 32 512 38 38 (23658496)
I0601 11:12:03.771605 28806 net.cpp:165] Memory required for data: 6319144992
I0601 11:12:03.771608 28806 layer_factory.hpp:77] Creating layer conv4_2
I0601 11:12:03.771616 28806 net.cpp:100] Creating Layer conv4_2
I0601 11:12:03.771621 28806 net.cpp:434] conv4_2 <- conv4_1
I0601 11:12:03.771628 28806 net.cpp:408] conv4_2 -> conv4_2
I0601 11:12:03.783567 28806 net.cpp:150] Setting up conv4_2
I0601 11:12:03.783583 28806 net.cpp:157] Top shape: 32 512 38 38 (23658496)
I0601 11:12:03.783586 28806 net.cpp:165] Memory required for data: 6413778976
I0601 11:12:03.783612 28806 layer_factory.hpp:77] Creating layer relu4_2
I0601 11:12:03.783633 28806 net.cpp:100] Creating Layer relu4_2
I0601 11:12:03.783637 28806 net.cpp:434] relu4_2 <- conv4_2
I0601 11:12:03.783641 28806 net.cpp:395] relu4_2 -> conv4_2 (in-place)
I0601 11:12:03.783663 28806 net.cpp:150] Setting up relu4_2
I0601 11:12:03.783665 28806 net.cpp:157] Top shape: 32 512 38 38 (23658496)
I0601 11:12:03.783668 28806 net.cpp:165] Memory required for data: 6508412960
I0601 11:12:03.783671 28806 layer_factory.hpp:77] Creating layer conv4_3
I0601 11:12:03.783694 28806 net.cpp:100] Creating Layer conv4_3
I0601 11:12:03.783699 28806 net.cpp:434] conv4_3 <- conv4_2
I0601 11:12:03.783704 28806 net.cpp:408] conv4_3 -> conv4_3
I0601 11:12:03.795840 28806 net.cpp:150] Setting up conv4_3
I0601 11:12:03.795861 28806 net.cpp:157] Top shape: 32 512 38 38 (23658496)
I0601 11:12:03.795863 28806 net.cpp:165] Memory required for data: 6603046944
I0601 11:12:03.795869 28806 layer_factory.hpp:77] Creating layer relu4_3
I0601 11:12:03.795891 28806 net.cpp:100] Creating Layer relu4_3
I0601 11:12:03.795907 28806 net.cpp:434] relu4_3 <- conv4_3
I0601 11:12:03.795912 28806 net.cpp:395] relu4_3 -> conv4_3 (in-place)
I0601 11:12:03.795949 28806 net.cpp:150] Setting up relu4_3
I0601 11:12:03.795956 28806 net.cpp:157] Top shape: 32 512 38 38 (23658496)
I0601 11:12:03.795959 28806 net.cpp:165] Memory required for data: 6697680928
I0601 11:12:03.795964 28806 layer_factory.hpp:77] Creating layer conv4_3_relu4_3_0_split
I0601 11:12:03.795970 28806 net.cpp:100] Creating Layer conv4_3_relu4_3_0_split
I0601 11:12:03.795991 28806 net.cpp:434] conv4_3_relu4_3_0_split <- conv4_3
I0601 11:12:03.795996 28806 net.cpp:408] conv4_3_relu4_3_0_split -> conv4_3_relu4_3_0_split_0
I0601 11:12:03.796015 28806 net.cpp:408] conv4_3_relu4_3_0_split -> conv4_3_relu4_3_0_split_1
I0601 11:12:03.796087 28806 net.cpp:150] Setting up conv4_3_relu4_3_0_split
I0601 11:12:03.796095 28806 net.cpp:157] Top shape: 32 512 38 38 (23658496)
I0601 11:12:03.796099 28806 net.cpp:157] Top shape: 32 512 38 38 (23658496)
I0601 11:12:03.796103 28806 net.cpp:165] Memory required for data: 6886948896
I0601 11:12:03.796105 28806 layer_factory.hpp:77] Creating layer pool4
I0601 11:12:03.796113 28806 net.cpp:100] Creating Layer pool4
I0601 11:12:03.796118 28806 net.cpp:434] pool4 <- conv4_3_relu4_3_0_split_0
I0601 11:12:03.796123 28806 net.cpp:408] pool4 -> pool4
I0601 11:12:03.796185 28806 net.cpp:150] Setting up pool4
I0601 11:12:03.796192 28806 net.cpp:157] Top shape: 32 512 19 19 (5914624)
I0601 11:12:03.796196 28806 net.cpp:165] Memory required for data: 6910607392
I0601 11:12:03.796200 28806 layer_factory.hpp:77] Creating layer conv5_1
I0601 11:12:03.796222 28806 net.cpp:100] Creating Layer conv5_1
I0601 11:12:03.796242 28806 net.cpp:434] conv5_1 <- pool4
I0601 11:12:03.796250 28806 net.cpp:408] conv5_1 -> conv5_1
I0601 11:12:03.808161 28806 net.cpp:150] Setting up conv5_1
I0601 11:12:03.808178 28806 net.cpp:157] Top shape: 32 512 19 19 (5914624)
I0601 11:12:03.808182 28806 net.cpp:165] Memory required for data: 6934265888
I0601 11:12:03.808202 28806 layer_factory.hpp:77] Creating layer relu5_1
I0601 11:12:03.808208 28806 net.cpp:100] Creating Layer relu5_1
I0601 11:12:03.808224 28806 net.cpp:434] relu5_1 <- conv5_1
I0601 11:12:03.808231 28806 net.cpp:395] relu5_1 -> conv5_1 (in-place)
I0601 11:12:03.808238 28806 net.cpp:150] Setting up relu5_1
I0601 11:12:03.808240 28806 net.cpp:157] Top shape: 32 512 19 19 (5914624)
I0601 11:12:03.808243 28806 net.cpp:165] Memory required for data: 6957924384
I0601 11:12:03.808262 28806 layer_factory.hpp:77] Creating layer conv5_2
I0601 11:12:03.808271 28806 net.cpp:100] Creating Layer conv5_2
I0601 11:12:03.808276 28806 net.cpp:434] conv5_2 <- conv5_1
I0601 11:12:03.808295 28806 net.cpp:408] conv5_2 -> conv5_2
I0601 11:12:03.820466 28806 net.cpp:150] Setting up conv5_2
I0601 11:12:03.820485 28806 net.cpp:157] Top shape: 32 512 19 19 (5914624)
I0601 11:12:03.820488 28806 net.cpp:165] Memory required for data: 6981582880
I0601 11:12:03.820493 28806 layer_factory.hpp:77] Creating layer relu5_2
I0601 11:12:03.820515 28806 net.cpp:100] Creating Layer relu5_2
I0601 11:12:03.820519 28806 net.cpp:434] relu5_2 <- conv5_2
I0601 11:12:03.820524 28806 net.cpp:395] relu5_2 -> conv5_2 (in-place)
I0601 11:12:03.820530 28806 net.cpp:150] Setting up relu5_2
I0601 11:12:03.820534 28806 net.cpp:157] Top shape: 32 512 19 19 (5914624)
I0601 11:12:03.820536 28806 net.cpp:165] Memory required for data: 7005241376
I0601 11:12:03.820554 28806 layer_factory.hpp:77] Creating layer conv5_3
I0601 11:12:03.820576 28806 net.cpp:100] Creating Layer conv5_3
I0601 11:12:03.820581 28806 net.cpp:434] conv5_3 <- conv5_2
I0601 11:12:03.820588 28806 net.cpp:408] conv5_3 -> conv5_3
I0601 11:12:03.833151 28806 net.cpp:150] Setting up conv5_3
I0601 11:12:03.833170 28806 net.cpp:157] Top shape: 32 512 19 19 (5914624)
I0601 11:12:03.833173 28806 net.cpp:165] Memory required for data: 7028899872
I0601 11:12:03.833179 28806 layer_factory.hpp:77] Creating layer relu5_3
I0601 11:12:03.833205 28806 net.cpp:100] Creating Layer relu5_3
I0601 11:12:03.833209 28806 net.cpp:434] relu5_3 <- conv5_3
I0601 11:12:03.833214 28806 net.cpp:395] relu5_3 -> conv5_3 (in-place)
I0601 11:12:03.833220 28806 net.cpp:150] Setting up relu5_3
I0601 11:12:03.833263 28806 net.cpp:157] Top shape: 32 512 19 19 (5914624)
I0601 11:12:03.833268 28806 net.cpp:165] Memory required for data: 7052558368
I0601 11:12:03.833271 28806 layer_factory.hpp:77] Creating layer pool5
I0601 11:12:03.833277 28806 net.cpp:100] Creating Layer pool5
I0601 11:12:03.833281 28806 net.cpp:434] pool5 <- conv5_3
I0601 11:12:03.833289 28806 net.cpp:408] pool5 -> pool5
I0601 11:12:03.833391 28806 net.cpp:150] Setting up pool5
I0601 11:12:03.833411 28806 net.cpp:157] Top shape: 32 512 19 19 (5914624)
I0601 11:12:03.833415 28806 net.cpp:165] Memory required for data: 7076216864
I0601 11:12:03.833417 28806 layer_factory.hpp:77] Creating layer fc6
I0601 11:12:03.833442 28806 net.cpp:100] Creating Layer fc6
I0601 11:12:03.833446 28806 net.cpp:434] fc6 <- pool5
I0601 11:12:03.833467 28806 net.cpp:408] fc6 -> fc6
I0601 11:12:03.857115 28806 net.cpp:150] Setting up fc6
I0601 11:12:03.857132 28806 net.cpp:157] Top shape: 32 1024 19 19 (11829248)
I0601 11:12:03.857134 28806 net.cpp:165] Memory required for data: 7123533856
I0601 11:12:03.857141 28806 layer_factory.hpp:77] Creating layer relu6
I0601 11:12:03.857151 28806 net.cpp:100] Creating Layer relu6
I0601 11:12:03.857156 28806 net.cpp:434] relu6 <- fc6
I0601 11:12:03.857177 28806 net.cpp:395] relu6 -> fc6 (in-place)
I0601 11:12:03.857187 28806 net.cpp:150] Setting up relu6
I0601 11:12:03.857192 28806 net.cpp:157] Top shape: 32 1024 19 19 (11829248)
I0601 11:12:03.857210 28806 net.cpp:165] Memory required for data: 7170850848
I0601 11:12:03.857213 28806 layer_factory.hpp:77] Creating layer fc7
I0601 11:12:03.857221 28806 net.cpp:100] Creating Layer fc7
I0601 11:12:03.857226 28806 net.cpp:434] fc7 <- fc6
I0601 11:12:03.857234 28806 net.cpp:408] fc7 -> fc7
I0601 11:12:03.863281 28806 net.cpp:150] Setting up fc7
I0601 11:12:03.863299 28806 net.cpp:157] Top shape: 32 1024 19 19 (11829248)
I0601 11:12:03.863301 28806 net.cpp:165] Memory required for data: 7218167840
I0601 11:12:03.863308 28806 layer_factory.hpp:77] Creating layer relu7
I0601 11:12:03.863315 28806 net.cpp:100] Creating Layer relu7
I0601 11:12:03.863319 28806 net.cpp:434] relu7 <- fc7
I0601 11:12:03.863342 28806 net.cpp:395] relu7 -> fc7 (in-place)
I0601 11:12:03.863350 28806 net.cpp:150] Setting up relu7
I0601 11:12:03.863356 28806 net.cpp:157] Top shape: 32 1024 19 19 (11829248)
I0601 11:12:03.863359 28806 net.cpp:165] Memory required for data: 7265484832
I0601 11:12:03.863363 28806 layer_factory.hpp:77] Creating layer fc7_relu7_0_split
I0601 11:12:03.863370 28806 net.cpp:100] Creating Layer fc7_relu7_0_split
I0601 11:12:03.863374 28806 net.cpp:434] fc7_relu7_0_split <- fc7
I0601 11:12:03.863392 28806 net.cpp:408] fc7_relu7_0_split -> fc7_relu7_0_split_0
I0601 11:12:03.863399 28806 net.cpp:408] fc7_relu7_0_split -> fc7_relu7_0_split_1
I0601 11:12:03.863425 28806 net.cpp:408] fc7_relu7_0_split -> fc7_relu7_0_split_2
I0601 11:12:03.863446 28806 net.cpp:408] fc7_relu7_0_split -> fc7_relu7_0_split_3
I0601 11:12:03.863526 28806 net.cpp:150] Setting up fc7_relu7_0_split
I0601 11:12:03.863536 28806 net.cpp:157] Top shape: 32 1024 19 19 (11829248)
I0601 11:12:03.863543 28806 net.cpp:157] Top shape: 32 1024 19 19 (11829248)
I0601 11:12:03.863548 28806 net.cpp:157] Top shape: 32 1024 19 19 (11829248)
I0601 11:12:03.863553 28806 net.cpp:157] Top shape: 32 1024 19 19 (11829248)
I0601 11:12:03.863555 28806 net.cpp:165] Memory required for data: 7454752800
I0601 11:12:03.863561 28806 layer_factory.hpp:77] Creating layer conv6_1
I0601 11:12:03.863585 28806 net.cpp:100] Creating Layer conv6_1
I0601 11:12:03.863590 28806 net.cpp:434] conv6_1 <- fc7_relu7_0_split_0
I0601 11:12:03.863600 28806 net.cpp:408] conv6_1 -> conv6_1
I0601 11:12:03.865785 28806 net.cpp:150] Setting up conv6_1
I0601 11:12:03.865800 28806 net.cpp:157] Top shape: 32 256 19 19 (2957312)
I0601 11:12:03.865803 28806 net.cpp:165] Memory required for data: 7466582048
I0601 11:12:03.865808 28806 layer_factory.hpp:77] Creating layer conv6_1_relu
I0601 11:12:03.865816 28806 net.cpp:100] Creating Layer conv6_1_relu
I0601 11:12:03.865835 28806 net.cpp:434] conv6_1_relu <- conv6_1
I0601 11:12:03.865844 28806 net.cpp:395] conv6_1_relu -> conv6_1 (in-place)
I0601 11:12:03.865852 28806 net.cpp:150] Setting up conv6_1_relu
I0601 11:12:03.865859 28806 net.cpp:157] Top shape: 32 256 19 19 (2957312)
I0601 11:12:03.865864 28806 net.cpp:165] Memory required for data: 7478411296
I0601 11:12:03.865866 28806 layer_factory.hpp:77] Creating layer conv6_2
I0601 11:12:03.865876 28806 net.cpp:100] Creating Layer conv6_2
I0601 11:12:03.865882 28806 net.cpp:434] conv6_2 <- conv6_1
I0601 11:12:03.865895 28806 net.cpp:408] conv6_2 -> conv6_2
I0601 11:12:03.872192 28806 net.cpp:150] Setting up conv6_2
I0601 11:12:03.872210 28806 net.cpp:157] Top shape: 32 512 10 10 (1638400)
I0601 11:12:03.872212 28806 net.cpp:165] Memory required for data: 7484964896
I0601 11:12:03.872241 28806 layer_factory.hpp:77] Creating layer conv6_2_relu
I0601 11:12:03.872251 28806 net.cpp:100] Creating Layer conv6_2_relu
I0601 11:12:03.872256 28806 net.cpp:434] conv6_2_relu <- conv6_2
I0601 11:12:03.872264 28806 net.cpp:395] conv6_2_relu -> conv6_2 (in-place)
I0601 11:12:03.872273 28806 net.cpp:150] Setting up conv6_2_relu
I0601 11:12:03.872278 28806 net.cpp:157] Top shape: 32 512 10 10 (1638400)
I0601 11:12:03.872282 28806 net.cpp:165] Memory required for data: 7491518496
I0601 11:12:03.872287 28806 layer_factory.hpp:77] Creating layer conv6_2_conv6_2_relu_0_split
I0601 11:12:03.872293 28806 net.cpp:100] Creating Layer conv6_2_conv6_2_relu_0_split
I0601 11:12:03.872298 28806 net.cpp:434] conv6_2_conv6_2_relu_0_split <- conv6_2
I0601 11:12:03.872304 28806 net.cpp:408] conv6_2_conv6_2_relu_0_split -> conv6_2_conv6_2_relu_0_split_0
I0601 11:12:03.872313 28806 net.cpp:408] conv6_2_conv6_2_relu_0_split -> conv6_2_conv6_2_relu_0_split_1
I0601 11:12:03.872319 28806 net.cpp:408] conv6_2_conv6_2_relu_0_split -> conv6_2_conv6_2_relu_0_split_2
I0601 11:12:03.872326 28806 net.cpp:408] conv6_2_conv6_2_relu_0_split -> conv6_2_conv6_2_relu_0_split_3
I0601 11:12:03.872392 28806 net.cpp:150] Setting up conv6_2_conv6_2_relu_0_split
I0601 11:12:03.872402 28806 net.cpp:157] Top shape: 32 512 10 10 (1638400)
I0601 11:12:03.872408 28806 net.cpp:157] Top shape: 32 512 10 10 (1638400)
I0601 11:12:03.872413 28806 net.cpp:157] Top shape: 32 512 10 10 (1638400)
I0601 11:12:03.872418 28806 net.cpp:157] Top shape: 32 512 10 10 (1638400)
I0601 11:12:03.872423 28806 net.cpp:165] Memory required for data: 7517732896
I0601 11:12:03.872427 28806 layer_factory.hpp:77] Creating layer conv7_1
I0601 11:12:03.872439 28806 net.cpp:100] Creating Layer conv7_1
I0601 11:12:03.872445 28806 net.cpp:434] conv7_1 <- conv6_2_conv6_2_relu_0_split_0
I0601 11:12:03.872455 28806 net.cpp:408] conv7_1 -> conv7_1
I0601 11:12:03.873139 28806 net.cpp:150] Setting up conv7_1
I0601 11:12:03.873150 28806 net.cpp:157] Top shape: 32 128 10 10 (409600)
I0601 11:12:03.873154 28806 net.cpp:165] Memory required for data: 7519371296
I0601 11:12:03.873160 28806 layer_factory.hpp:77] Creating layer conv7_1_relu
I0601 11:12:03.873167 28806 net.cpp:100] Creating Layer conv7_1_relu
I0601 11:12:03.873170 28806 net.cpp:434] conv7_1_relu <- conv7_1
I0601 11:12:03.873175 28806 net.cpp:395] conv7_1_relu -> conv7_1 (in-place)
I0601 11:12:03.873183 28806 net.cpp:150] Setting up conv7_1_relu
I0601 11:12:03.873188 28806 net.cpp:157] Top shape: 32 128 10 10 (409600)
I0601 11:12:03.873191 28806 net.cpp:165] Memory required for data: 7521009696
I0601 11:12:03.873194 28806 layer_factory.hpp:77] Creating layer conv7_2
I0601 11:12:03.873203 28806 net.cpp:100] Creating Layer conv7_2
I0601 11:12:03.873208 28806 net.cpp:434] conv7_2 <- conv7_1
I0601 11:12:03.873214 28806 net.cpp:408] conv7_2 -> conv7_2
I0601 11:12:03.875434 28806 net.cpp:150] Setting up conv7_2
I0601 11:12:03.875447 28806 net.cpp:157] Top shape: 32 256 5 5 (204800)
I0601 11:12:03.875449 28806 net.cpp:165] Memory required for data: 7521828896
I0601 11:12:03.875455 28806 layer_factory.hpp:77] Creating layer conv7_2_relu
I0601 11:12:03.875463 28806 net.cpp:100] Creating Layer conv7_2_relu
I0601 11:12:03.875469 28806 net.cpp:434] conv7_2_relu <- conv7_2
I0601 11:12:03.875488 28806 net.cpp:395] conv7_2_relu -> conv7_2 (in-place)
I0601 11:12:03.875496 28806 net.cpp:150] Setting up conv7_2_relu
I0601 11:12:03.875502 28806 net.cpp:157] Top shape: 32 256 5 5 (204800)
I0601 11:12:03.875507 28806 net.cpp:165] Memory required for data: 7522648096
I0601 11:12:03.875510 28806 layer_factory.hpp:77] Creating layer conv7_2_conv7_2_relu_0_split
I0601 11:12:03.875517 28806 net.cpp:100] Creating Layer conv7_2_conv7_2_relu_0_split
I0601 11:12:03.875522 28806 net.cpp:434] conv7_2_conv7_2_relu_0_split <- conv7_2
I0601 11:12:03.875530 28806 net.cpp:408] conv7_2_conv7_2_relu_0_split -> conv7_2_conv7_2_relu_0_split_0
I0601 11:12:03.875538 28806 net.cpp:408] conv7_2_conv7_2_relu_0_split -> conv7_2_conv7_2_relu_0_split_1
I0601 11:12:03.875548 28806 net.cpp:408] conv7_2_conv7_2_relu_0_split -> conv7_2_conv7_2_relu_0_split_2
I0601 11:12:03.875557 28806 net.cpp:408] conv7_2_conv7_2_relu_0_split -> conv7_2_conv7_2_relu_0_split_3
I0601 11:12:03.875619 28806 net.cpp:150] Setting up conv7_2_conv7_2_relu_0_split
I0601 11:12:03.875627 28806 net.cpp:157] Top shape: 32 256 5 5 (204800)
I0601 11:12:03.875633 28806 net.cpp:157] Top shape: 32 256 5 5 (204800)
I0601 11:12:03.875639 28806 net.cpp:157] Top shape: 32 256 5 5 (204800)
I0601 11:12:03.875645 28806 net.cpp:157] Top shape: 32 256 5 5 (204800)
I0601 11:12:03.875649 28806 net.cpp:165] Memory required for data: 7525924896
I0601 11:12:03.875654 28806 layer_factory.hpp:77] Creating layer conv8_1
I0601 11:12:03.875665 28806 net.cpp:100] Creating Layer conv8_1
I0601 11:12:03.875672 28806 net.cpp:434] conv8_1 <- conv7_2_conv7_2_relu_0_split_0
I0601 11:12:03.875680 28806 net.cpp:408] conv8_1 -> conv8_1
I0601 11:12:03.876160 28806 net.cpp:150] Setting up conv8_1
I0601 11:12:03.876170 28806 net.cpp:157] Top shape: 32 128 5 5 (102400)
I0601 11:12:03.876176 28806 net.cpp:165] Memory required for data: 7526334496
I0601 11:12:03.876184 28806 layer_factory.hpp:77] Creating layer conv8_1_relu
I0601 11:12:03.876193 28806 net.cpp:100] Creating Layer conv8_1_relu
I0601 11:12:03.876197 28806 net.cpp:434] conv8_1_relu <- conv8_1
I0601 11:12:03.876204 28806 net.cpp:395] conv8_1_relu -> conv8_1 (in-place)
I0601 11:12:03.876212 28806 net.cpp:150] Setting up conv8_1_relu
I0601 11:12:03.876219 28806 net.cpp:157] Top shape: 32 128 5 5 (102400)
I0601 11:12:03.876224 28806 net.cpp:165] Memory required for data: 7526744096
I0601 11:12:03.876229 28806 layer_factory.hpp:77] Creating layer conv8_2
I0601 11:12:03.876237 28806 net.cpp:100] Creating Layer conv8_2
I0601 11:12:03.876242 28806 net.cpp:434] conv8_2 <- conv8_1
I0601 11:12:03.876250 28806 net.cpp:408] conv8_2 -> conv8_2
I0601 11:12:03.878408 28806 net.cpp:150] Setting up conv8_2
I0601 11:12:03.878419 28806 net.cpp:157] Top shape: 32 256 3 3 (73728)
I0601 11:12:03.878422 28806 net.cpp:165] Memory required for data: 7527039008
I0601 11:12:03.878428 28806 layer_factory.hpp:77] Creating layer conv8_2_relu
I0601 11:12:03.878437 28806 net.cpp:100] Creating Layer conv8_2_relu
I0601 11:12:03.878443 28806 net.cpp:434] conv8_2_relu <- conv8_2
I0601 11:12:03.878450 28806 net.cpp:395] conv8_2_relu -> conv8_2 (in-place)
I0601 11:12:03.878458 28806 net.cpp:150] Setting up conv8_2_relu
I0601 11:12:03.878464 28806 net.cpp:157] Top shape: 32 256 3 3 (73728)
I0601 11:12:03.878469 28806 net.cpp:165] Memory required for data: 7527333920
I0601 11:12:03.878473 28806 layer_factory.hpp:77] Creating layer conv8_2_conv8_2_relu_0_split
I0601 11:12:03.878479 28806 net.cpp:100] Creating Layer conv8_2_conv8_2_relu_0_split
I0601 11:12:03.878484 28806 net.cpp:434] conv8_2_conv8_2_relu_0_split <- conv8_2
I0601 11:12:03.878490 28806 net.cpp:408] conv8_2_conv8_2_relu_0_split -> conv8_2_conv8_2_relu_0_split_0
I0601 11:12:03.878500 28806 net.cpp:408] conv8_2_conv8_2_relu_0_split -> conv8_2_conv8_2_relu_0_split_1
I0601 11:12:03.878509 28806 net.cpp:408] conv8_2_conv8_2_relu_0_split -> conv8_2_conv8_2_relu_0_split_2
I0601 11:12:03.878516 28806 net.cpp:408] conv8_2_conv8_2_relu_0_split -> conv8_2_conv8_2_relu_0_split_3
I0601 11:12:03.878592 28806 net.cpp:150] Setting up conv8_2_conv8_2_relu_0_split
I0601 11:12:03.878602 28806 net.cpp:157] Top shape: 32 256 3 3 (73728)
I0601 11:12:03.878608 28806 net.cpp:157] Top shape: 32 256 3 3 (73728)
I0601 11:12:03.878614 28806 net.cpp:157] Top shape: 32 256 3 3 (73728)
I0601 11:12:03.878620 28806 net.cpp:157] Top shape: 32 256 3 3 (73728)
I0601 11:12:03.878624 28806 net.cpp:165] Memory required for data: 7528513568
I0601 11:12:03.878629 28806 layer_factory.hpp:77] Creating layer conv9_1
I0601 11:12:03.878641 28806 net.cpp:100] Creating Layer conv9_1
I0601 11:12:03.878648 28806 net.cpp:434] conv9_1 <- conv8_2_conv8_2_relu_0_split_0
I0601 11:12:03.878655 28806 net.cpp:408] conv9_1 -> conv9_1
I0601 11:12:03.879135 28806 net.cpp:150] Setting up conv9_1
I0601 11:12:03.879146 28806 net.cpp:157] Top shape: 32 128 3 3 (36864)
I0601 11:12:03.879153 28806 net.cpp:165] Memory required for data: 7528661024
I0601 11:12:03.879160 28806 layer_factory.hpp:77] Creating layer conv9_1_relu
I0601 11:12:03.879166 28806 net.cpp:100] Creating Layer conv9_1_relu
I0601 11:12:03.879173 28806 net.cpp:434] conv9_1_relu <- conv9_1
I0601 11:12:03.879180 28806 net.cpp:395] conv9_1_relu -> conv9_1 (in-place)
I0601 11:12:03.879189 28806 net.cpp:150] Setting up conv9_1_relu
I0601 11:12:03.879194 28806 net.cpp:157] Top shape: 32 128 3 3 (36864)
I0601 11:12:03.879199 28806 net.cpp:165] Memory required for data: 7528808480
I0601 11:12:03.879204 28806 layer_factory.hpp:77] Creating layer conv9_2
I0601 11:12:03.879214 28806 net.cpp:100] Creating Layer conv9_2
I0601 11:12:03.879218 28806 net.cpp:434] conv9_2 <- conv9_1
I0601 11:12:03.879226 28806 net.cpp:408] conv9_2 -> conv9_2
I0601 11:12:03.881500 28806 net.cpp:150] Setting up conv9_2
I0601 11:12:03.881512 28806 net.cpp:157] Top shape: 32 256 1 1 (8192)
I0601 11:12:03.881515 28806 net.cpp:165] Memory required for data: 7528841248
I0601 11:12:03.881521 28806 layer_factory.hpp:77] Creating layer conv9_2_relu
I0601 11:12:03.881528 28806 net.cpp:100] Creating Layer conv9_2_relu
I0601 11:12:03.881534 28806 net.cpp:434] conv9_2_relu <- conv9_2
I0601 11:12:03.881542 28806 net.cpp:395] conv9_2_relu -> conv9_2 (in-place)
I0601 11:12:03.881551 28806 net.cpp:150] Setting up conv9_2_relu
I0601 11:12:03.881557 28806 net.cpp:157] Top shape: 32 256 1 1 (8192)
I0601 11:12:03.881561 28806 net.cpp:165] Memory required for data: 7528874016
I0601 11:12:03.881566 28806 layer_factory.hpp:77] Creating layer conv9_2_conv9_2_relu_0_split
I0601 11:12:03.881572 28806 net.cpp:100] Creating Layer conv9_2_conv9_2_relu_0_split
I0601 11:12:03.881577 28806 net.cpp:434] conv9_2_conv9_2_relu_0_split <- conv9_2
I0601 11:12:03.881584 28806 net.cpp:408] conv9_2_conv9_2_relu_0_split -> conv9_2_conv9_2_relu_0_split_0
I0601 11:12:03.881592 28806 net.cpp:408] conv9_2_conv9_2_relu_0_split -> conv9_2_conv9_2_relu_0_split_1
I0601 11:12:03.881602 28806 net.cpp:408] conv9_2_conv9_2_relu_0_split -> conv9_2_conv9_2_relu_0_split_2
I0601 11:12:03.881654 28806 net.cpp:150] Setting up conv9_2_conv9_2_relu_0_split
I0601 11:12:03.881664 28806 net.cpp:157] Top shape: 32 256 1 1 (8192)
I0601 11:12:03.881669 28806 net.cpp:157] Top shape: 32 256 1 1 (8192)
I0601 11:12:03.881675 28806 net.cpp:157] Top shape: 32 256 1 1 (8192)
I0601 11:12:03.881680 28806 net.cpp:165] Memory required for data: 7528972320
I0601 11:12:03.881683 28806 layer_factory.hpp:77] Creating layer conv4_3_norm
I0601 11:12:03.881691 28806 net.cpp:100] Creating Layer conv4_3_norm
I0601 11:12:03.881698 28806 net.cpp:434] conv4_3_norm <- conv4_3_relu4_3_0_split_1
I0601 11:12:03.881712 28806 net.cpp:408] conv4_3_norm -> conv4_3_norm
I0601 11:12:03.881868 28806 net.cpp:150] Setting up conv4_3_norm
I0601 11:12:03.881877 28806 net.cpp:157] Top shape: 32 512 38 38 (23658496)
I0601 11:12:03.881882 28806 net.cpp:165] Memory required for data: 7623606304
I0601 11:12:03.881889 28806 layer_factory.hpp:77] Creating layer conv4_3_norm_conv4_3_norm_0_split
I0601 11:12:03.881896 28806 net.cpp:100] Creating Layer conv4_3_norm_conv4_3_norm_0_split
I0601 11:12:03.881901 28806 net.cpp:434] conv4_3_norm_conv4_3_norm_0_split <- conv4_3_norm
I0601 11:12:03.881922 28806 net.cpp:408] conv4_3_norm_conv4_3_norm_0_split -> conv4_3_norm_conv4_3_norm_0_split_0
I0601 11:12:03.881930 28806 net.cpp:408] conv4_3_norm_conv4_3_norm_0_split -> conv4_3_norm_conv4_3_norm_0_split_1
I0601 11:12:03.881939 28806 net.cpp:408] conv4_3_norm_conv4_3_norm_0_split -> conv4_3_norm_conv4_3_norm_0_split_2
I0601 11:12:03.881984 28806 net.cpp:150] Setting up conv4_3_norm_conv4_3_norm_0_split
I0601 11:12:03.881992 28806 net.cpp:157] Top shape: 32 512 38 38 (23658496)
I0601 11:12:03.881999 28806 net.cpp:157] Top shape: 32 512 38 38 (23658496)
I0601 11:12:03.882004 28806 net.cpp:157] Top shape: 32 512 38 38 (23658496)
I0601 11:12:03.882009 28806 net.cpp:165] Memory required for data: 7907508256
I0601 11:12:03.882014 28806 layer_factory.hpp:77] Creating layer conv4_3_norm_mbox_loc
I0601 11:12:03.882025 28806 net.cpp:100] Creating Layer conv4_3_norm_mbox_loc
I0601 11:12:03.882030 28806 net.cpp:434] conv4_3_norm_mbox_loc <- conv4_3_norm_conv4_3_norm_0_split_0
I0601 11:12:03.882037 28806 net.cpp:408] conv4_3_norm_mbox_loc -> conv4_3_norm_mbox_loc
I0601 11:12:03.882809 28806 net.cpp:150] Setting up conv4_3_norm_mbox_loc
I0601 11:12:03.882820 28806 net.cpp:157] Top shape: 32 16 38 38 (739328)
I0601 11:12:03.882825 28806 net.cpp:165] Memory required for data: 7910465568
I0601 11:12:03.882833 28806 layer_factory.hpp:77] Creating layer conv4_3_norm_mbox_loc_perm
I0601 11:12:03.882843 28806 net.cpp:100] Creating Layer conv4_3_norm_mbox_loc_perm
I0601 11:12:03.882848 28806 net.cpp:434] conv4_3_norm_mbox_loc_perm <- conv4_3_norm_mbox_loc
I0601 11:12:03.882856 28806 net.cpp:408] conv4_3_norm_mbox_loc_perm -> conv4_3_norm_mbox_loc_perm
I0601 11:12:03.882956 28806 net.cpp:150] Setting up conv4_3_norm_mbox_loc_perm
I0601 11:12:03.882966 28806 net.cpp:157] Top shape: 32 38 38 16 (739328)
I0601 11:12:03.882972 28806 net.cpp:165] Memory required for data: 7913422880
I0601 11:12:03.882974 28806 layer_factory.hpp:77] Creating layer conv4_3_norm_mbox_loc_flat
I0601 11:12:03.882983 28806 net.cpp:100] Creating Layer conv4_3_norm_mbox_loc_flat
I0601 11:12:03.882989 28806 net.cpp:434] conv4_3_norm_mbox_loc_flat <- conv4_3_norm_mbox_loc_perm
I0601 11:12:03.882997 28806 net.cpp:408] conv4_3_norm_mbox_loc_flat -> conv4_3_norm_mbox_loc_flat
I0601 11:12:03.883035 28806 net.cpp:150] Setting up conv4_3_norm_mbox_loc_flat
I0601 11:12:03.883044 28806 net.cpp:157] Top shape: 32 23104 (739328)
I0601 11:12:03.883050 28806 net.cpp:165] Memory required for data: 7916380192
I0601 11:12:03.883054 28806 layer_factory.hpp:77] Creating layer conv4_3_norm_mbox_conf
I0601 11:12:03.883069 28806 net.cpp:100] Creating Layer conv4_3_norm_mbox_conf
I0601 11:12:03.883076 28806 net.cpp:434] conv4_3_norm_mbox_conf <- conv4_3_norm_conv4_3_norm_0_split_1
I0601 11:12:03.883085 28806 net.cpp:408] conv4_3_norm_mbox_conf -> conv4_3_norm_mbox_conf
I0601 11:12:03.883852 28806 net.cpp:150] Setting up conv4_3_norm_mbox_conf
I0601 11:12:03.883862 28806 net.cpp:157] Top shape: 32 16 38 38 (739328)
I0601 11:12:03.883867 28806 net.cpp:165] Memory required for data: 7919337504
I0601 11:12:03.883875 28806 layer_factory.hpp:77] Creating layer conv4_3_norm_mbox_conf_perm
I0601 11:12:03.883884 28806 net.cpp:100] Creating Layer conv4_3_norm_mbox_conf_perm
I0601 11:12:03.883889 28806 net.cpp:434] conv4_3_norm_mbox_conf_perm <- conv4_3_norm_mbox_conf
I0601 11:12:03.883896 28806 net.cpp:408] conv4_3_norm_mbox_conf_perm -> conv4_3_norm_mbox_conf_perm
I0601 11:12:03.883997 28806 net.cpp:150] Setting up conv4_3_norm_mbox_conf_perm
I0601 11:12:03.884008 28806 net.cpp:157] Top shape: 32 38 38 16 (739328)
I0601 11:12:03.884013 28806 net.cpp:165] Memory required for data: 7922294816
I0601 11:12:03.884017 28806 layer_factory.hpp:77] Creating layer conv4_3_norm_mbox_conf_flat
I0601 11:12:03.884023 28806 net.cpp:100] Creating Layer conv4_3_norm_mbox_conf_flat
I0601 11:12:03.884029 28806 net.cpp:434] conv4_3_norm_mbox_conf_flat <- conv4_3_norm_mbox_conf_perm
I0601 11:12:03.884040 28806 net.cpp:408] conv4_3_norm_mbox_conf_flat -> conv4_3_norm_mbox_conf_flat
I0601 11:12:03.884078 28806 net.cpp:150] Setting up conv4_3_norm_mbox_conf_flat
I0601 11:12:03.884085 28806 net.cpp:157] Top shape: 32 23104 (739328)
I0601 11:12:03.884090 28806 net.cpp:165] Memory required for data: 7925252128
I0601 11:12:03.884094 28806 layer_factory.hpp:77] Creating layer conv4_3_norm_mbox_priorbox
I0601 11:12:03.884102 28806 net.cpp:100] Creating Layer conv4_3_norm_mbox_priorbox
I0601 11:12:03.884107 28806 net.cpp:434] conv4_3_norm_mbox_priorbox <- conv4_3_norm_conv4_3_norm_0_split_2
I0601 11:12:03.884114 28806 net.cpp:434] conv4_3_norm_mbox_priorbox <- data_data_0_split_1
I0601 11:12:03.884124 28806 net.cpp:408] conv4_3_norm_mbox_priorbox -> conv4_3_norm_mbox_priorbox
I0601 11:12:03.884151 28806 net.cpp:150] Setting up conv4_3_norm_mbox_priorbox
I0601 11:12:03.884160 28806 net.cpp:157] Top shape: 1 2 23104 (46208)
I0601 11:12:03.884165 28806 net.cpp:165] Memory required for data: 7925436960
I0601 11:12:03.884168 28806 layer_factory.hpp:77] Creating layer fc7_mbox_loc
I0601 11:12:03.884177 28806 net.cpp:100] Creating Layer fc7_mbox_loc
I0601 11:12:03.884183 28806 net.cpp:434] fc7_mbox_loc <- fc7_relu7_0_split_1
I0601 11:12:03.884193 28806 net.cpp:408] fc7_mbox_loc -> fc7_mbox_loc
I0601 11:12:03.885790 28806 net.cpp:150] Setting up fc7_mbox_loc
I0601 11:12:03.885800 28806 net.cpp:157] Top shape: 32 24 19 19 (277248)
I0601 11:12:03.885802 28806 net.cpp:165] Memory required for data: 7926545952
I0601 11:12:03.885809 28806 layer_factory.hpp:77] Creating layer fc7_mbox_loc_perm
I0601 11:12:03.885817 28806 net.cpp:100] Creating Layer fc7_mbox_loc_perm
I0601 11:12:03.885823 28806 net.cpp:434] fc7_mbox_loc_perm <- fc7_mbox_loc
I0601 11:12:03.885831 28806 net.cpp:408] fc7_mbox_loc_perm -> fc7_mbox_loc_perm
I0601 11:12:03.885933 28806 net.cpp:150] Setting up fc7_mbox_loc_perm
I0601 11:12:03.885943 28806 net.cpp:157] Top shape: 32 19 19 24 (277248)
I0601 11:12:03.885948 28806 net.cpp:165] Memory required for data: 7927654944
I0601 11:12:03.885953 28806 layer_factory.hpp:77] Creating layer fc7_mbox_loc_flat
I0601 11:12:03.885960 28806 net.cpp:100] Creating Layer fc7_mbox_loc_flat
I0601 11:12:03.885967 28806 net.cpp:434] fc7_mbox_loc_flat <- fc7_mbox_loc_perm
I0601 11:12:03.885974 28806 net.cpp:408] fc7_mbox_loc_flat -> fc7_mbox_loc_flat
I0601 11:12:03.885998 28806 net.cpp:150] Setting up fc7_mbox_loc_flat
I0601 11:12:03.886006 28806 net.cpp:157] Top shape: 32 8664 (277248)
I0601 11:12:03.886010 28806 net.cpp:165] Memory required for data: 7928763936
I0601 11:12:03.886014 28806 layer_factory.hpp:77] Creating layer fc7_mbox_conf
I0601 11:12:03.886025 28806 net.cpp:100] Creating Layer fc7_mbox_conf
I0601 11:12:03.886031 28806 net.cpp:434] fc7_mbox_conf <- fc7_relu7_0_split_2
I0601 11:12:03.886039 28806 net.cpp:408] fc7_mbox_conf -> fc7_mbox_conf
I0601 11:12:03.887373 28806 net.cpp:150] Setting up fc7_mbox_conf
I0601 11:12:03.887383 28806 net.cpp:157] Top shape: 32 24 19 19 (277248)
I0601 11:12:03.887387 28806 net.cpp:165] Memory required for data: 7929872928
I0601 11:12:03.887393 28806 layer_factory.hpp:77] Creating layer fc7_mbox_conf_perm
I0601 11:12:03.887403 28806 net.cpp:100] Creating Layer fc7_mbox_conf_perm
I0601 11:12:03.887408 28806 net.cpp:434] fc7_mbox_conf_perm <- fc7_mbox_conf
I0601 11:12:03.887416 28806 net.cpp:408] fc7_mbox_conf_perm -> fc7_mbox_conf_perm
I0601 11:12:03.887516 28806 net.cpp:150] Setting up fc7_mbox_conf_perm
I0601 11:12:03.887526 28806 net.cpp:157] Top shape: 32 19 19 24 (277248)
I0601 11:12:03.887531 28806 net.cpp:165] Memory required for data: 7930981920
I0601 11:12:03.887536 28806 layer_factory.hpp:77] Creating layer fc7_mbox_conf_flat
I0601 11:12:03.887542 28806 net.cpp:100] Creating Layer fc7_mbox_conf_flat
I0601 11:12:03.887547 28806 net.cpp:434] fc7_mbox_conf_flat <- fc7_mbox_conf_perm
I0601 11:12:03.887555 28806 net.cpp:408] fc7_mbox_conf_flat -> fc7_mbox_conf_flat
I0601 11:12:03.887581 28806 net.cpp:150] Setting up fc7_mbox_conf_flat
I0601 11:12:03.887588 28806 net.cpp:157] Top shape: 32 8664 (277248)
I0601 11:12:03.887593 28806 net.cpp:165] Memory required for data: 7932090912
I0601 11:12:03.887609 28806 layer_factory.hpp:77] Creating layer fc7_mbox_priorbox
I0601 11:12:03.887619 28806 net.cpp:100] Creating Layer fc7_mbox_priorbox
I0601 11:12:03.887624 28806 net.cpp:434] fc7_mbox_priorbox <- fc7_relu7_0_split_3
I0601 11:12:03.887630 28806 net.cpp:434] fc7_mbox_priorbox <- data_data_0_split_2
I0601 11:12:03.887639 28806 net.cpp:408] fc7_mbox_priorbox -> fc7_mbox_priorbox
I0601 11:12:03.887665 28806 net.cpp:150] Setting up fc7_mbox_priorbox
I0601 11:12:03.887673 28806 net.cpp:157] Top shape: 1 2 8664 (17328)
I0601 11:12:03.887678 28806 net.cpp:165] Memory required for data: 7932160224
I0601 11:12:03.887681 28806 layer_factory.hpp:77] Creating layer conv6_2_mbox_loc
I0601 11:12:03.887692 28806 net.cpp:100] Creating Layer conv6_2_mbox_loc
I0601 11:12:03.887698 28806 net.cpp:434] conv6_2_mbox_loc <- conv6_2_conv6_2_relu_0_split_1
I0601 11:12:03.887707 28806 net.cpp:408] conv6_2_mbox_loc -> conv6_2_mbox_loc
I0601 11:12:03.888650 28806 net.cpp:150] Setting up conv6_2_mbox_loc
I0601 11:12:03.888660 28806 net.cpp:157] Top shape: 32 24 10 10 (76800)
I0601 11:12:03.888662 28806 net.cpp:165] Memory required for data: 7932467424
I0601 11:12:03.888669 28806 layer_factory.hpp:77] Creating layer conv6_2_mbox_loc_perm
I0601 11:12:03.888677 28806 net.cpp:100] Creating Layer conv6_2_mbox_loc_perm
I0601 11:12:03.888684 28806 net.cpp:434] conv6_2_mbox_loc_perm <- conv6_2_mbox_loc
I0601 11:12:03.888692 28806 net.cpp:408] conv6_2_mbox_loc_perm -> conv6_2_mbox_loc_perm
I0601 11:12:03.888792 28806 net.cpp:150] Setting up conv6_2_mbox_loc_perm
I0601 11:12:03.888803 28806 net.cpp:157] Top shape: 32 10 10 24 (76800)
I0601 11:12:03.888808 28806 net.cpp:165] Memory required for data: 7932774624
I0601 11:12:03.888813 28806 layer_factory.hpp:77] Creating layer conv6_2_mbox_loc_flat
I0601 11:12:03.888819 28806 net.cpp:100] Creating Layer conv6_2_mbox_loc_flat
I0601 11:12:03.888824 28806 net.cpp:434] conv6_2_mbox_loc_flat <- conv6_2_mbox_loc_perm
I0601 11:12:03.888833 28806 net.cpp:408] conv6_2_mbox_loc_flat -> conv6_2_mbox_loc_flat
I0601 11:12:03.888856 28806 net.cpp:150] Setting up conv6_2_mbox_loc_flat
I0601 11:12:03.888862 28806 net.cpp:157] Top shape: 32 2400 (76800)
I0601 11:12:03.888870 28806 net.cpp:165] Memory required for data: 7933081824
I0601 11:12:03.888875 28806 layer_factory.hpp:77] Creating layer conv6_2_mbox_conf
I0601 11:12:03.888883 28806 net.cpp:100] Creating Layer conv6_2_mbox_conf
I0601 11:12:03.888890 28806 net.cpp:434] conv6_2_mbox_conf <- conv6_2_conv6_2_relu_0_split_2
I0601 11:12:03.888898 28806 net.cpp:408] conv6_2_mbox_conf -> conv6_2_mbox_conf
I0601 11:12:03.889842 28806 net.cpp:150] Setting up conv6_2_mbox_conf
I0601 11:12:03.889854 28806 net.cpp:157] Top shape: 32 24 10 10 (76800)
I0601 11:12:03.889859 28806 net.cpp:165] Memory required for data: 7933389024
I0601 11:12:03.889868 28806 layer_factory.hpp:77] Creating layer conv6_2_mbox_conf_perm
I0601 11:12:03.889876 28806 net.cpp:100] Creating Layer conv6_2_mbox_conf_perm
I0601 11:12:03.889883 28806 net.cpp:434] conv6_2_mbox_conf_perm <- conv6_2_mbox_conf
I0601 11:12:03.889892 28806 net.cpp:408] conv6_2_mbox_conf_perm -> conv6_2_mbox_conf_perm
I0601 11:12:03.889991 28806 net.cpp:150] Setting up conv6_2_mbox_conf_perm
I0601 11:12:03.890000 28806 net.cpp:157] Top shape: 32 10 10 24 (76800)
I0601 11:12:03.890005 28806 net.cpp:165] Memory required for data: 7933696224
I0601 11:12:03.890009 28806 layer_factory.hpp:77] Creating layer conv6_2_mbox_conf_flat
I0601 11:12:03.890015 28806 net.cpp:100] Creating Layer conv6_2_mbox_conf_flat
I0601 11:12:03.890020 28806 net.cpp:434] conv6_2_mbox_conf_flat <- conv6_2_mbox_conf_perm
I0601 11:12:03.890028 28806 net.cpp:408] conv6_2_mbox_conf_flat -> conv6_2_mbox_conf_flat
I0601 11:12:03.890050 28806 net.cpp:150] Setting up conv6_2_mbox_conf_flat
I0601 11:12:03.890058 28806 net.cpp:157] Top shape: 32 2400 (76800)
I0601 11:12:03.890063 28806 net.cpp:165] Memory required for data: 7934003424
I0601 11:12:03.890066 28806 layer_factory.hpp:77] Creating layer conv6_2_mbox_priorbox
I0601 11:12:03.890084 28806 net.cpp:100] Creating Layer conv6_2_mbox_priorbox
I0601 11:12:03.890089 28806 net.cpp:434] conv6_2_mbox_priorbox <- conv6_2_conv6_2_relu_0_split_3
I0601 11:12:03.890097 28806 net.cpp:434] conv6_2_mbox_priorbox <- data_data_0_split_3
I0601 11:12:03.890105 28806 net.cpp:408] conv6_2_mbox_priorbox -> conv6_2_mbox_priorbox
I0601 11:12:03.890130 28806 net.cpp:150] Setting up conv6_2_mbox_priorbox
I0601 11:12:03.890137 28806 net.cpp:157] Top shape: 1 2 2400 (4800)
I0601 11:12:03.890142 28806 net.cpp:165] Memory required for data: 7934022624
I0601 11:12:03.890146 28806 layer_factory.hpp:77] Creating layer conv7_2_mbox_loc
I0601 11:12:03.890157 28806 net.cpp:100] Creating Layer conv7_2_mbox_loc
I0601 11:12:03.890163 28806 net.cpp:434] conv7_2_mbox_loc <- conv7_2_conv7_2_relu_0_split_1
I0601 11:12:03.890172 28806 net.cpp:408] conv7_2_mbox_loc -> conv7_2_mbox_loc
I0601 11:12:03.890786 28806 net.cpp:150] Setting up conv7_2_mbox_loc
I0601 11:12:03.890795 28806 net.cpp:157] Top shape: 32 24 5 5 (19200)
I0601 11:12:03.890799 28806 net.cpp:165] Memory required for data: 7934099424
I0601 11:12:03.890805 28806 layer_factory.hpp:77] Creating layer conv7_2_mbox_loc_perm
I0601 11:12:03.890815 28806 net.cpp:100] Creating Layer conv7_2_mbox_loc_perm
I0601 11:12:03.890820 28806 net.cpp:434] conv7_2_mbox_loc_perm <- conv7_2_mbox_loc
I0601 11:12:03.890827 28806 net.cpp:408] conv7_2_mbox_loc_perm -> conv7_2_mbox_loc_perm
I0601 11:12:03.890928 28806 net.cpp:150] Setting up conv7_2_mbox_loc_perm
I0601 11:12:03.890936 28806 net.cpp:157] Top shape: 32 5 5 24 (19200)
I0601 11:12:03.890941 28806 net.cpp:165] Memory required for data: 7934176224
I0601 11:12:03.890946 28806 layer_factory.hpp:77] Creating layer conv7_2_mbox_loc_flat
I0601 11:12:03.890954 28806 net.cpp:100] Creating Layer conv7_2_mbox_loc_flat
I0601 11:12:03.890959 28806 net.cpp:434] conv7_2_mbox_loc_flat <- conv7_2_mbox_loc_perm
I0601 11:12:03.890967 28806 net.cpp:408] conv7_2_mbox_loc_flat -> conv7_2_mbox_loc_flat
I0601 11:12:03.890991 28806 net.cpp:150] Setting up conv7_2_mbox_loc_flat
I0601 11:12:03.891000 28806 net.cpp:157] Top shape: 32 600 (19200)
I0601 11:12:03.891003 28806 net.cpp:165] Memory required for data: 7934253024
I0601 11:12:03.891007 28806 layer_factory.hpp:77] Creating layer conv7_2_mbox_conf
I0601 11:12:03.891017 28806 net.cpp:100] Creating Layer conv7_2_mbox_conf
I0601 11:12:03.891023 28806 net.cpp:434] conv7_2_mbox_conf <- conv7_2_conv7_2_relu_0_split_2
I0601 11:12:03.891033 28806 net.cpp:408] conv7_2_mbox_conf -> conv7_2_mbox_conf
I0601 11:12:03.891657 28806 net.cpp:150] Setting up conv7_2_mbox_conf
I0601 11:12:03.891669 28806 net.cpp:157] Top shape: 32 24 5 5 (19200)
I0601 11:12:03.891674 28806 net.cpp:165] Memory required for data: 7934329824
I0601 11:12:03.891682 28806 layer_factory.hpp:77] Creating layer conv7_2_mbox_conf_perm
I0601 11:12:03.891690 28806 net.cpp:100] Creating Layer conv7_2_mbox_conf_perm
I0601 11:12:03.891696 28806 net.cpp:434] conv7_2_mbox_conf_perm <- conv7_2_mbox_conf
I0601 11:12:03.891706 28806 net.cpp:408] conv7_2_mbox_conf_perm -> conv7_2_mbox_conf_perm
I0601 11:12:03.891806 28806 net.cpp:150] Setting up conv7_2_mbox_conf_perm
I0601 11:12:03.891819 28806 net.cpp:157] Top shape: 32 5 5 24 (19200)
I0601 11:12:03.891824 28806 net.cpp:165] Memory required for data: 7934406624
I0601 11:12:03.891829 28806 layer_factory.hpp:77] Creating layer conv7_2_mbox_conf_flat
I0601 11:12:03.891835 28806 net.cpp:100] Creating Layer conv7_2_mbox_conf_flat
I0601 11:12:03.891840 28806 net.cpp:434] conv7_2_mbox_conf_flat <- conv7_2_mbox_conf_perm
I0601 11:12:03.891849 28806 net.cpp:408] conv7_2_mbox_conf_flat -> conv7_2_mbox_conf_flat
I0601 11:12:03.891875 28806 net.cpp:150] Setting up conv7_2_mbox_conf_flat
I0601 11:12:03.891882 28806 net.cpp:157] Top shape: 32 600 (19200)
I0601 11:12:03.891887 28806 net.cpp:165] Memory required for data: 7934483424
I0601 11:12:03.891891 28806 layer_factory.hpp:77] Creating layer conv7_2_mbox_priorbox
I0601 11:12:03.891898 28806 net.cpp:100] Creating Layer conv7_2_mbox_priorbox
I0601 11:12:03.891904 28806 net.cpp:434] conv7_2_mbox_priorbox <- conv7_2_conv7_2_relu_0_split_3
I0601 11:12:03.891919 28806 net.cpp:434] conv7_2_mbox_priorbox <- data_data_0_split_4
I0601 11:12:03.891927 28806 net.cpp:408] conv7_2_mbox_priorbox -> conv7_2_mbox_priorbox
I0601 11:12:03.891953 28806 net.cpp:150] Setting up conv7_2_mbox_priorbox
I0601 11:12:03.891962 28806 net.cpp:157] Top shape: 1 2 600 (1200)
I0601 11:12:03.891966 28806 net.cpp:165] Memory required for data: 7934488224
I0601 11:12:03.891969 28806 layer_factory.hpp:77] Creating layer conv8_2_mbox_loc
I0601 11:12:03.891980 28806 net.cpp:100] Creating Layer conv8_2_mbox_loc
I0601 11:12:03.891986 28806 net.cpp:434] conv8_2_mbox_loc <- conv8_2_conv8_2_relu_0_split_1
I0601 11:12:03.891994 28806 net.cpp:408] conv8_2_mbox_loc -> conv8_2_mbox_loc
I0601 11:12:03.892513 28806 net.cpp:150] Setting up conv8_2_mbox_loc
I0601 11:12:03.892524 28806 net.cpp:157] Top shape: 32 16 3 3 (4608)
I0601 11:12:03.892529 28806 net.cpp:165] Memory required for data: 7934506656
I0601 11:12:03.892545 28806 layer_factory.hpp:77] Creating layer conv8_2_mbox_loc_perm
I0601 11:12:03.892554 28806 net.cpp:100] Creating Layer conv8_2_mbox_loc_perm
I0601 11:12:03.892560 28806 net.cpp:434] conv8_2_mbox_loc_perm <- conv8_2_mbox_loc
I0601 11:12:03.892568 28806 net.cpp:408] conv8_2_mbox_loc_perm -> conv8_2_mbox_loc_perm
I0601 11:12:03.892665 28806 net.cpp:150] Setting up conv8_2_mbox_loc_perm
I0601 11:12:03.892673 28806 net.cpp:157] Top shape: 32 3 3 16 (4608)
I0601 11:12:03.892675 28806 net.cpp:165] Memory required for data: 7934525088
I0601 11:12:03.892678 28806 layer_factory.hpp:77] Creating layer conv8_2_mbox_loc_flat
I0601 11:12:03.892683 28806 net.cpp:100] Creating Layer conv8_2_mbox_loc_flat
I0601 11:12:03.892686 28806 net.cpp:434] conv8_2_mbox_loc_flat <- conv8_2_mbox_loc_perm
I0601 11:12:03.892690 28806 net.cpp:408] conv8_2_mbox_loc_flat -> conv8_2_mbox_loc_flat
I0601 11:12:03.892709 28806 net.cpp:150] Setting up conv8_2_mbox_loc_flat
I0601 11:12:03.892714 28806 net.cpp:157] Top shape: 32 144 (4608)
I0601 11:12:03.892719 28806 net.cpp:165] Memory required for data: 7934543520
I0601 11:12:03.892721 28806 layer_factory.hpp:77] Creating layer conv8_2_mbox_conf
I0601 11:12:03.892730 28806 net.cpp:100] Creating Layer conv8_2_mbox_conf
I0601 11:12:03.892735 28806 net.cpp:434] conv8_2_mbox_conf <- conv8_2_conv8_2_relu_0_split_2
I0601 11:12:03.892743 28806 net.cpp:408] conv8_2_mbox_conf -> conv8_2_mbox_conf
I0601 11:12:03.893263 28806 net.cpp:150] Setting up conv8_2_mbox_conf
I0601 11:12:03.893275 28806 net.cpp:157] Top shape: 32 16 3 3 (4608)
I0601 11:12:03.893280 28806 net.cpp:165] Memory required for data: 7934561952
I0601 11:12:03.893287 28806 layer_factory.hpp:77] Creating layer conv8_2_mbox_conf_perm
I0601 11:12:03.893296 28806 net.cpp:100] Creating Layer conv8_2_mbox_conf_perm
I0601 11:12:03.893301 28806 net.cpp:434] conv8_2_mbox_conf_perm <- conv8_2_mbox_conf
I0601 11:12:03.893311 28806 net.cpp:408] conv8_2_mbox_conf_perm -> conv8_2_mbox_conf_perm
I0601 11:12:03.893409 28806 net.cpp:150] Setting up conv8_2_mbox_conf_perm
I0601 11:12:03.893419 28806 net.cpp:157] Top shape: 32 3 3 16 (4608)
I0601 11:12:03.893424 28806 net.cpp:165] Memory required for data: 7934580384
I0601 11:12:03.893429 28806 layer_factory.hpp:77] Creating layer conv8_2_mbox_conf_flat
I0601 11:12:03.893434 28806 net.cpp:100] Creating Layer conv8_2_mbox_conf_flat
I0601 11:12:03.893438 28806 net.cpp:434] conv8_2_mbox_conf_flat <- conv8_2_mbox_conf_perm
I0601 11:12:03.893447 28806 net.cpp:408] conv8_2_mbox_conf_flat -> conv8_2_mbox_conf_flat
I0601 11:12:03.893470 28806 net.cpp:150] Setting up conv8_2_mbox_conf_flat
I0601 11:12:03.893476 28806 net.cpp:157] Top shape: 32 144 (4608)
I0601 11:12:03.893481 28806 net.cpp:165] Memory required for data: 7934598816
I0601 11:12:03.893484 28806 layer_factory.hpp:77] Creating layer conv8_2_mbox_priorbox
I0601 11:12:03.893496 28806 net.cpp:100] Creating Layer conv8_2_mbox_priorbox
I0601 11:12:03.893501 28806 net.cpp:434] conv8_2_mbox_priorbox <- conv8_2_conv8_2_relu_0_split_3
I0601 11:12:03.893507 28806 net.cpp:434] conv8_2_mbox_priorbox <- data_data_0_split_5
I0601 11:12:03.893527 28806 net.cpp:408] conv8_2_mbox_priorbox -> conv8_2_mbox_priorbox
I0601 11:12:03.893553 28806 net.cpp:150] Setting up conv8_2_mbox_priorbox
I0601 11:12:03.893559 28806 net.cpp:157] Top shape: 1 2 144 (288)
I0601 11:12:03.893564 28806 net.cpp:165] Memory required for data: 7934599968
I0601 11:12:03.893568 28806 layer_factory.hpp:77] Creating layer conv9_2_mbox_loc
I0601 11:12:03.893579 28806 net.cpp:100] Creating Layer conv9_2_mbox_loc
I0601 11:12:03.893585 28806 net.cpp:434] conv9_2_mbox_loc <- conv9_2_conv9_2_relu_0_split_0
I0601 11:12:03.893594 28806 net.cpp:408] conv9_2_mbox_loc -> conv9_2_mbox_loc
I0601 11:12:03.894093 28806 net.cpp:150] Setting up conv9_2_mbox_loc
I0601 11:12:03.894104 28806 net.cpp:157] Top shape: 32 16 1 1 (512)
I0601 11:12:03.894109 28806 net.cpp:165] Memory required for data: 7934602016
I0601 11:12:03.894116 28806 layer_factory.hpp:77] Creating layer conv9_2_mbox_loc_perm
I0601 11:12:03.894126 28806 net.cpp:100] Creating Layer conv9_2_mbox_loc_perm
I0601 11:12:03.894132 28806 net.cpp:434] conv9_2_mbox_loc_perm <- conv9_2_mbox_loc
I0601 11:12:03.894140 28806 net.cpp:408] conv9_2_mbox_loc_perm -> conv9_2_mbox_loc_perm
I0601 11:12:03.894237 28806 net.cpp:150] Setting up conv9_2_mbox_loc_perm
I0601 11:12:03.894246 28806 net.cpp:157] Top shape: 32 1 1 16 (512)
I0601 11:12:03.894251 28806 net.cpp:165] Memory required for data: 7934604064
I0601 11:12:03.894254 28806 layer_factory.hpp:77] Creating layer conv9_2_mbox_loc_flat
I0601 11:12:03.894261 28806 net.cpp:100] Creating Layer conv9_2_mbox_loc_flat
I0601 11:12:03.894266 28806 net.cpp:434] conv9_2_mbox_loc_flat <- conv9_2_mbox_loc_perm
I0601 11:12:03.894275 28806 net.cpp:408] conv9_2_mbox_loc_flat -> conv9_2_mbox_loc_flat
I0601 11:12:03.894301 28806 net.cpp:150] Setting up conv9_2_mbox_loc_flat
I0601 11:12:03.894310 28806 net.cpp:157] Top shape: 32 16 (512)
I0601 11:12:03.894314 28806 net.cpp:165] Memory required for data: 7934606112
I0601 11:12:03.894318 28806 layer_factory.hpp:77] Creating layer conv9_2_mbox_conf
I0601 11:12:03.894328 28806 net.cpp:100] Creating Layer conv9_2_mbox_conf
I0601 11:12:03.894333 28806 net.cpp:434] conv9_2_mbox_conf <- conv9_2_conv9_2_relu_0_split_1
I0601 11:12:03.894342 28806 net.cpp:408] conv9_2_mbox_conf -> conv9_2_mbox_conf
I0601 11:12:03.894852 28806 net.cpp:150] Setting up conv9_2_mbox_conf
I0601 11:12:03.894863 28806 net.cpp:157] Top shape: 32 16 1 1 (512)
I0601 11:12:03.894868 28806 net.cpp:165] Memory required for data: 7934608160
I0601 11:12:03.894876 28806 layer_factory.hpp:77] Creating layer conv9_2_mbox_conf_perm
I0601 11:12:03.894886 28806 net.cpp:100] Creating Layer conv9_2_mbox_conf_perm
I0601 11:12:03.894891 28806 net.cpp:434] conv9_2_mbox_conf_perm <- conv9_2_mbox_conf
I0601 11:12:03.894901 28806 net.cpp:408] conv9_2_mbox_conf_perm -> conv9_2_mbox_conf_perm
I0601 11:12:03.894997 28806 net.cpp:150] Setting up conv9_2_mbox_conf_perm
I0601 11:12:03.895005 28806 net.cpp:157] Top shape: 32 1 1 16 (512)
I0601 11:12:03.895009 28806 net.cpp:165] Memory required for data: 7934610208
I0601 11:12:03.895014 28806 layer_factory.hpp:77] Creating layer conv9_2_mbox_conf_flat
I0601 11:12:03.895020 28806 net.cpp:100] Creating Layer conv9_2_mbox_conf_flat
I0601 11:12:03.895026 28806 net.cpp:434] conv9_2_mbox_conf_flat <- conv9_2_mbox_conf_perm
I0601 11:12:03.895033 28806 net.cpp:408] conv9_2_mbox_conf_flat -> conv9_2_mbox_conf_flat
I0601 11:12:03.895056 28806 net.cpp:150] Setting up conv9_2_mbox_conf_flat
I0601 11:12:03.895063 28806 net.cpp:157] Top shape: 32 16 (512)
I0601 11:12:03.895068 28806 net.cpp:165] Memory required for data: 7934612256
I0601 11:12:03.895072 28806 layer_factory.hpp:77] Creating layer conv9_2_mbox_priorbox
I0601 11:12:03.895081 28806 net.cpp:100] Creating Layer conv9_2_mbox_priorbox
I0601 11:12:03.895086 28806 net.cpp:434] conv9_2_mbox_priorbox <- conv9_2_conv9_2_relu_0_split_2
I0601 11:12:03.895092 28806 net.cpp:434] conv9_2_mbox_priorbox <- data_data_0_split_6
I0601 11:12:03.895099 28806 net.cpp:408] conv9_2_mbox_priorbox -> conv9_2_mbox_priorbox
I0601 11:12:03.895133 28806 net.cpp:150] Setting up conv9_2_mbox_priorbox
I0601 11:12:03.895141 28806 net.cpp:157] Top shape: 1 2 16 (32)
I0601 11:12:03.895146 28806 net.cpp:165] Memory required for data: 7934612384
I0601 11:12:03.895150 28806 layer_factory.hpp:77] Creating layer mbox_loc
I0601 11:12:03.895159 28806 net.cpp:100] Creating Layer mbox_loc
I0601 11:12:03.895164 28806 net.cpp:434] mbox_loc <- conv4_3_norm_mbox_loc_flat
I0601 11:12:03.895171 28806 net.cpp:434] mbox_loc <- fc7_mbox_loc_flat
I0601 11:12:03.895177 28806 net.cpp:434] mbox_loc <- conv6_2_mbox_loc_flat
I0601 11:12:03.895184 28806 net.cpp:434] mbox_loc <- conv7_2_mbox_loc_flat
I0601 11:12:03.895189 28806 net.cpp:434] mbox_loc <- conv8_2_mbox_loc_flat
I0601 11:12:03.895195 28806 net.cpp:434] mbox_loc <- conv9_2_mbox_loc_flat
I0601 11:12:03.895201 28806 net.cpp:408] mbox_loc -> mbox_loc
I0601 11:12:03.895229 28806 net.cpp:150] Setting up mbox_loc
I0601 11:12:03.895236 28806 net.cpp:157] Top shape: 32 34928 (1117696)
I0601 11:12:03.895242 28806 net.cpp:165] Memory required for data: 7939083168
I0601 11:12:03.895246 28806 layer_factory.hpp:77] Creating layer mbox_conf
I0601 11:12:03.895252 28806 net.cpp:100] Creating Layer mbox_conf
I0601 11:12:03.895257 28806 net.cpp:434] mbox_conf <- conv4_3_norm_mbox_conf_flat
I0601 11:12:03.895264 28806 net.cpp:434] mbox_conf <- fc7_mbox_conf_flat
I0601 11:12:03.895270 28806 net.cpp:434] mbox_conf <- conv6_2_mbox_conf_flat
I0601 11:12:03.895275 28806 net.cpp:434] mbox_conf <- conv7_2_mbox_conf_flat
I0601 11:12:03.895282 28806 net.cpp:434] mbox_conf <- conv8_2_mbox_conf_flat
I0601 11:12:03.895287 28806 net.cpp:434] mbox_conf <- conv9_2_mbox_conf_flat
I0601 11:12:03.895293 28806 net.cpp:408] mbox_conf -> mbox_conf
I0601 11:12:03.895318 28806 net.cpp:150] Setting up mbox_conf
I0601 11:12:03.895324 28806 net.cpp:157] Top shape: 32 34928 (1117696)
I0601 11:12:03.895329 28806 net.cpp:165] Memory required for data: 7943553952
I0601 11:12:03.895334 28806 layer_factory.hpp:77] Creating layer mbox_priorbox
I0601 11:12:03.895340 28806 net.cpp:100] Creating Layer mbox_priorbox
I0601 11:12:03.895345 28806 net.cpp:434] mbox_priorbox <- conv4_3_norm_mbox_priorbox
I0601 11:12:03.895352 28806 net.cpp:434] mbox_priorbox <- fc7_mbox_priorbox
I0601 11:12:03.895357 28806 net.cpp:434] mbox_priorbox <- conv6_2_mbox_priorbox
I0601 11:12:03.895362 28806 net.cpp:434] mbox_priorbox <- conv7_2_mbox_priorbox
I0601 11:12:03.895367 28806 net.cpp:434] mbox_priorbox <- conv8_2_mbox_priorbox
I0601 11:12:03.895373 28806 net.cpp:434] mbox_priorbox <- conv9_2_mbox_priorbox
I0601 11:12:03.895380 28806 net.cpp:408] mbox_priorbox -> mbox_priorbox
I0601 11:12:03.895402 28806 net.cpp:150] Setting up mbox_priorbox
I0601 11:12:03.895409 28806 net.cpp:157] Top shape: 1 2 34928 (69856)
I0601 11:12:03.895414 28806 net.cpp:165] Memory required for data: 7943833376
I0601 11:12:03.895418 28806 layer_factory.hpp:77] Creating layer mbox_loss
I0601 11:12:03.895429 28806 net.cpp:100] Creating Layer mbox_loss
I0601 11:12:03.895434 28806 net.cpp:434] mbox_loss <- mbox_loc
I0601 11:12:03.895440 28806 net.cpp:434] mbox_loss <- mbox_conf
I0601 11:12:03.895447 28806 net.cpp:434] mbox_loss <- mbox_priorbox
…
  name: "data"
  type: "AnnotatedData"
  top: "data"
  top: "label"
  include {
    phase: TEST
  }
  transform_param {
    mean_value: 104
    mean_value: 117
    mean_value: 123
    resize_param {
      prob: 1
      resize_mode: WARP
      height: 300
      width: 300
      interp_mode: LINEAR
    }
  }
  data_param {
    source: "examples/tbs_300x300_HSIL_10x/tbs_300x300_HSIL_10x_test_lmdb"
    batch_size: 4
    backend: LMDB
  }
  annotated_data_param {
    batch_sampler {
    }
    label_map_file: "data/tbs_300x300_HSIL_10x/labelmap_tbs.prototxt"
  }
}
layer {
  name: "conv1_1"
  type: "Convolution"
  bottom: "data"
  top: "conv1_1"
  param {
    lr_mult: 0
    decay_mult: 0
  }
  param {
    lr_mult: 0
    decay_mult: 0
  }
  convolution_param {
    num_output: 64
    pad: 1
    kernel_size: 3
    weight_filler {
      type: "xavier"
    }
    bias_filler {
      type: "constant"
      value: 0
    }
  }
}
layer {
  name: "relu1_1"
  type: "ReLU"
  bottom: "conv1_1"
  top: "conv1_1"
}
layer {
  name: "conv1_2"
  type: "Convolution"
  bottom: "conv1_1"
  top: "conv1_2"
  param {
    lr_mult: 0
    decay_mult: 0
  }
  param {
    lr_mult: 0
    decay_mult: 0
  }
  convolution_param {
    num_output: 64
    pad: 1
    kernel_size: 3
    weight_filler {
      type: "xavier"
    }
    bias_filler {
      type: "constant"
      value: 0
    }
  }
}
layer {
  name: "relu1_2"
  type: "ReLU"
  bottom: "conv1_2"
  top: "conv1_2"
}
layer {
  name: "pool1"
  type: "Pooling"
  bottom: "conv1_2"
  top: "pool1"
  pooling_param {
    pool: MAX
    kernel_size: 2
    stride: 2
  }
}
layer {
  name: "conv2_1"
  type: "Convolution"
  bottom: "pool1"
  top: "conv2_1"
  param {
    lr_mult: 0
    decay_mult: 0
  }
  param {
    lr_mult: 0
    decay_mult: 0
  }
  convolution_param {
    num_output: 128
    pad: 1
    kernel_size: 3
    weight_filler {
      type: "xavier"
    }
    bias_filler {
      type: "constant"
      value: 0
    }
  }
}
layer {
  name: "relu2_1"
  type: "ReLU"
  bottom: "conv2_1"
  top: "conv2_1"
}
layer {
  name: "conv2_2"
  type: "Convolution"
  bottom: "conv2_1"
  top: "conv2_2"
  param {
    lr_mult: 0
    decay_mult: 0
  }
  param {
    lr_mult: 0
    decay_mult: 0
  }
  convolution_param {
    num_output: 128
    pad: 1
    kernel_size: 3
    weight_filler {
      type: "xavier"
    }
    bias_filler {
      type: "constant"
      value: 0
    }
  }
}
layer {
  name: "relu2_2"
  type: "ReLU"
  bottom: "conv2_2"
  top: "conv2_2"
}
layer {
  name: "pool2"
  type: "Pooling"
  bottom: "conv2_2"
  top: "pool2"
  pooling_param {
    pool: MAX
    kernel_size: 2
    stride: 2
  }
}
layer {
  name: "conv3_1"
  type: "Convolution"
  bottom: "pool2"
  top: "conv3_1"
  param {
    lr_mult: 0
    decay_mult: 0
  }
  param {
    lr_mult: 0
    decay_mult: 0
  }
  convolution_param {
    num_output: 256
    pad: 1
    kernel_size: 3
    weight_filler {
      type: "xavier"
    }
    bias_filler {
      type: "constant"
      value: 0
    }
  }
}
layer {
  name: "relu3_1"
  type: "ReLU"
  bottom: "conv3_1"
  top: "conv3_1"
}
layer {
  name: "conv3_2"
  type: "Convolution"
  bottom: "conv3_1"
  top: "conv3_2"
  param {
    lr_mult: 0
    decay_mult: 0
  }
  param {
    lr_mult: 0
    decay_mult: 0
  }
  convolution_param {
    num_output: 256
    pad: 1
    kernel_size: 3
    weight_filler {
      type: "xavier"
    }
    bias_filler {
      type: "constant"
      value: 0
    }
  }
}
layer {
  name: "relu3_2"
  type: "ReLU"
  bottom: "conv3_2"
  top: "conv3_2"
}
layer {
  name: "conv3_3"
  type: "Convolution"
  bottom: "conv3_2"
  top: "conv3_3"
  param {
    lr_mult: 0
    decay_mult: 0
  }
  param {
    lr_mult: 0
    decay_mult: 0
  }
  convolution_param {
    num_output: 256
    pad: 1
    kernel_size: 3
    weight_filler {
      type: "xavier"
    }
    bias_filler {
      type: "constant"
      value: 0
    }
  }
}
layer {
  name: "relu3_3"
  type: "ReLU"
  bottom: "conv3_3"
  top: "conv3_3"
}
layer {
  name: "pool3"
  type: "Pooling"
  bottom: "conv3_3"
  top: "pool3"
  pooling_param {
    pool: MAX
    kernel_size: 2
    stride: 2
  }
}
layer {
  name: "conv4_1"
  type: "Convolution"
  bottom: "pool3"
  top: "conv4_1"
  param {
    lr_mult: 0
    decay_mult: 0
  }
  param {
    lr_mult: 0
    decay_mult: 0
  }
  convolution_param {
    num_output: 512
    pad: 1
    kernel_size: 3
    weight_filler {
      type: "xavier"
    }
    bias_filler {
      type: "constant"
      value: 0
    }
  }
}
layer {
  name: "relu4_1"
  type: "ReLU"
  bottom: "conv4_1"
  top: "conv4_1"
}
layer {
  name: "conv4_2"
  type: "Convolution"
  bottom: "conv4_1"
  top: "conv4_2"
  param {
    lr_mult: 0
    decay_mult: 0
  }
  param {
    lr_mult: 0
    decay_mult: 0
  }
  convolution_param {
    num_output: 512
    pad: 1
    kernel_size: 3
    weight_filler {
      type: "xavier"
    }
    bias_filler {
      type: "constant"
      value: 0
    }
  }
}
layer {
  name: "relu4_2"
  type: "ReLU"
  bottom: "conv4_2"
  top: "conv4_2"
}
layer {
  name: "conv4_3"
  type: "Convolution"
  bottom: "conv4_2"
  top: "conv4_3"
  param {
    lr_mult: 0
    decay_mult: 0
  }
  param {
    lr_mult: 0
    decay_mult: 0
  }
  convolution_param {
    num_output: 512
    pad: 1
    kernel_size: 3
    weight_filler {
      type: "xavier"
    }
    bias_filler {
      type: "constant"
      value: 0
    }
  }
}
layer {
  name: "relu4_3"
  type: "ReLU"
  bottom: "conv4_3"
  top: "conv4_3"
}
layer {
  name: "pool4"
  type: "Pooling"
  bottom: "conv4_3"
  top: "pool4"
  pooling_param {
    pool: MAX
    kernel_size: 2
    stride: 2
  }
}
layer {
  name: "conv5_1"
  type: "Convolution"
  bottom: "pool4"
  top: "conv5_1"
  param {
    lr_mult: 0
    decay_mult: 0
  }
  param {
    lr_mult: 0
    decay_mult: 0
  }
  convolution_param {
    num_output: 512
    pad: 1
    kernel_size: 3
    weight_filler {
      type: "xavier"
    }
    bias_filler {
      type: "constant"
      value: 0
    }
    dilation: 1
  }
}
layer {
  name: "relu5_1"
  type: "ReLU"
  bottom: "conv5_1"
  top: "conv5_1"
}
layer {
  name: "conv5_2"
  type: "Convolution"
  bottom: "conv5_1"
  top: "conv5_2"
  param {
    lr_mult: 0
    decay_mult: 0
  }
  param {
    lr_mult: 0
    decay_mult: 0
  }
  convolution_param {
    num_output: 512
    pad: 1
    kernel_size: 3
    weight_filler {
      type: "xavier"
    }
    bias_filler {
      type: "constant"
      value: 0
    }
    dilation: 1
  }
}
layer {
  name: "relu5_2"
  type: "ReLU"
  bottom: "conv5_2"
  top: "conv5_2"
}
layer {
  name: "conv5_3"
  type: "Convolution"
  bottom: "conv5_2"
  top: "conv5_3"
  param {
    lr_mult: 0
    decay_mult: 0
  }
  param {
    lr_mult: 0
    decay_mult: 0
  }
  convolution_param {
    num_output: 512
    pad: 1
    kernel_size: 3
    weight_filler {
      type: "xavier"
    }
    bias_filler {
      type: "constant"
      value: 0
    }
    dilation: 1
  }
}
layer {
  name: "relu5_3"
  type: "ReLU"
  bottom: "conv5_3"
  top: "conv5_3"
}
layer {
  name: "pool5"
  type: "Pooling"
  bottom: "conv5_3"
  top: "pool5"
  pooling_param {
    pool: MAX
    kernel_size: 3
    stride: 1
    pad: 1
  }
}
layer {
  name: "fc6"
  type: "Convolution"
  bottom: "pool5"
  top: "fc6"
  param {
    lr_mult: 0
    decay_mult: 0
  }
  param {
    lr_mult: 0
    decay_mult: 0
  }
  convolution_param {
    num_output: 1024
    pad: 6
    kernel_size: 3
    weight_filler {
      type: "xavier"
    }
    bias_filler {
      type: "constant"
      value: 0
    }
    dilation: 6
  }
}
layer {
  name: "relu6"
  type: "ReLU"
  bottom: "fc6"
  top: "fc6"
}
layer {
  name: "fc7"
  type: "Convolution"
  bottom: "fc6"
  top: "fc7"
  param {
    lr_mult: 0
    decay_mult: 0
  }
  param {
    lr_mult: 0
    decay_mult: 0
  }
  convolution_param {
    num_output: 1024
    kernel_size: 1
    weight_filler {
      type: "xavier"
    }
    bias_filler {
      type: "constant"
      value: 0
    }
  }
}
layer {
  name: "relu7"
  type: "ReLU"
  bottom: "fc7"
  top: "fc7"
}
layer {
  name: "conv6_1"
  type: "Convolution"
  bottom: "fc7"
  top: "conv6_1"
  param {
    lr_mult: 1
    decay_mult: 1
  }
  param {
    lr_mult: 2
    decay_mult: 0
  }
  convolution_param {
    num_output: 256
    pad: 0
    kernel_size: 1
    stride: 1
    weight_filler {
      type: "xavier"
    }
    bias_filler {
      type: "constant"
      value: 0
    }
  }
}
layer {
  name: "conv6_1_relu"
  type: "ReLU"
  bottom: "conv6_1"
  top: "conv6_1"
}
layer {
  name: "conv6_2"
  type: "Convolution"
  bottom: "conv6_1"
  top: "conv6_2"
  param {
    lr_mult: 1
    decay_mult: 1
  }
  param {
    lr_mult: 2
    decay_mult: 0
  }
  convolution_param {
    num_output: 512
    pad: 1
    kernel_size: 3
    stride: 2
    weight_filler {
      type: "xavier"
    }
    bias_filler {
      type: "constant"
      value: 0
    }
  }
}
layer {
  name: "conv6_2_relu"
  type: "ReLU"
  bottom: "conv6_2"
  top: "conv6_2"
}
layer {
  name: "conv7_1"
  type: "Convolution"
  bottom: "conv6_2"
  top: "conv7_1"
  param {
    lr_mult: 1
    decay_mult: 1
  }
  param {
    lr_mult: 2
    decay_mult: 0
  }
  convolution_param {
    num_output: 128
    pad: 0
    kernel_size: 1
    stride: 1
    weight_filler {
      type: "xavier"
    }
    bias_filler {
      type: "constant"
      value: 0
    }
  }
}
layer {
  name: "conv7_1_relu"
  type: "ReLU"
  bottom: "conv7_1"
  top: "conv7_1"
}
layer {
  name: "conv7_2"
  type: "Convolution"
  bottom: "conv7_1"
  top: "conv7_2"
  param {
    lr_mult: 1
    decay_mult: 1
  }
  param {
    lr_mult: 2
    decay_mult: 0
  }
  convolution_param {
    num_output: 256
    pad: 1
    kernel_size: 3
    stride: 2
    weight_filler {
      type: "xavier"
    }
    bias_filler {
      type: "constant"
      value: 0
    }
  }
}
layer {
  name: "conv7_2_relu"
  type: "ReLU"
  bottom: "conv7_2"
  top: "conv7_2"
}
layer {
  name: "conv8_1"
  type: "Convolution"
  bottom: "conv7_2"
  top: "conv8_1"
  param {
    lr_mult: 1
    decay_mult: 1
  }
  param {
    lr_mult: 2
    decay_mult: 0
  }
  convolution_param {
    num_output: 128
    pad: 0
    kernel_size: 1
    stride: 1
    weight_filler {
      type: "xavier"
    }
    bias_filler {
      type: "constant"
      value: 0
    }
  }
}
layer {
  name: "conv8_1_relu"
  type: "ReLU"
  bottom: "conv8_1"
  top: "conv8_1"
}
layer {
  name: "conv8_2"
  type: "Convolution"
  bottom: "conv8_1"
  top: "conv8_2"
  param {
    lr_mult: 1
    decay_mult: 1
  }
  param {
    lr_mult: 2
    decay_mult: 0
  }
  convolution_param {
    num_output: 256
    pad: 0
    kernel_size: 3
    stride: 1
    weight_filler {
      type: "xavier"
    }
    bias_filler {
      type: "constant"
      value: 0
    }
  }
}
layer {
  name: "conv8_2_relu"
  type: "ReLU"
  bottom: "conv8_2"
  top: "conv8_2"
}
layer {
  name: "conv9_1"
  type: "Convolution"
  bottom: "conv8_2"
  top: "conv9_1"
  param {
    lr_mult: 1
    decay_mult: 1
  }
  param {
    lr_mult: 2
    decay_mult: 0
  }
  convolution_param {
    num_output: 128
    pad: 0
    kernel_size: 1
    stride: 1
    weight_filler {
      type: "xavier"
    }
    bias_filler {
      type: "constant"
      value: 0
    }
  }
}
layer {
  name: "conv9_1_relu"
  type: "ReLU"
  bottom: "conv9_1"
  top: "conv9_1"
}
layer {
  name: "conv9_2"
  type: "Convolution"
  bottom: "conv9_1"
  top: "conv9_2"
  param {
    lr_mult: 1
    decay_mult: 1
  }
  param {
    lr_mult: 2
    decay_mult: 0
  }
  convolution_param {
    num_output: 256
    pad: 0
    kernel_size: 3
    stride: 1
    weight_filler {
      type: "xavier"
    }
    bias_filler {
      type: "constant"
      value: 0
    }
  }
}
layer {
  name: "conv9_2_relu"
  type: "ReLU"
  bottom: "conv9_2"
  top: "conv9_2"
}
layer {
  name: "conv4_3_norm"
  type: "Normalize"
  bottom: "conv4_3"
  top: "conv4_3_norm"
  norm_param {
    across_spatial: false
    scale_filler {
      type: "constant"
      value: 20
    }
    channel_shared: false
  }
}
layer {
  name: "conv4_3_norm_mbox_loc"
  type: "Convolution"
  bottom: "conv4_3_norm"
  top: "conv4_3_norm_mbox_loc"
  param {
    lr_mult: 1
    decay_mult: 1
  }
  param {
    lr_mult: 2
    decay_mult: 0
  }
  convolution_param {
    num_output: 16
    pad: 1
    kernel_size: 3
    stride: 1
    weight_filler {
      type: "xavier"
    }
    bias_filler {
      type: "constant"
      value: 0
    }
  }
}
layer {
  name: "conv4_3_norm_mbox_loc_perm"
  type: "Permute"
  bottom: "conv4_3_norm_mbox_loc"
  top: "conv4_3_norm_mbox_loc_perm"
  permute_param {
    order: 0
    order: 2
    order: 3
    order: 1
  }
}
layer {
  name: "conv4_3_norm_mbox_loc_flat"
  type: "Flatten"
  bottom: "conv4_3_norm_mbox_loc_perm"
  top: "conv4_3_norm_mbox_loc_flat"
  flatten_param {
    axis: 1
  }
}
layer {
  name: "conv4_3_norm_mbox_conf"
  type: "Convolution"
  bottom: "conv4_3_norm"
  top: "conv4_3_norm_mbox_conf"
  param {
    lr_mult: 1
    decay_mult: 1
  }
  param {
    lr_mult: 2
    decay_mult: 0
  }
  convolution_param {
    num_output: 16
    pad: 1
    kernel_size: 3
    stride: 1
    weight_filler {
      type: "xavier"
    }
    bias_filler {
      type: "constant"
      value: 0
    }
  }
}
layer {
  name: "conv4_3_norm_mbox_conf_perm"
  type: "Permute"
  bottom: "conv4_3_norm_mbox_conf"
  top: "conv4_3_norm_mbox_conf_perm"
  permute_param {
    order: 0
    order: 2
    order: 3
    order: 1
  }
}
layer {
  name: "conv4_3_norm_mbox_conf_flat"
  type: "Flatten"
  bottom: "conv4_3_norm_mbox_conf_perm"
  top: "conv4_3_norm_mbox_conf_flat"
  flatten_param {
    axis: 1
  }
}
layer {
  name: "conv4_3_norm_mbox_priorbox"
  type: "PriorBox"
  bottom: "conv4_3_norm"
  bottom: "data"
  top: "conv4_3_norm_mbox_priorbox"
  prior_box_param {
    min_size: 30
    max_size: 60
    aspect_ratio: 2
    flip: true
    clip: false
    variance: 0.1
    variance: 0.1
    variance: 0.2
    variance: 0.2
    step: 8
    offset: 0.5
  }
}
layer {
  name: "fc7_mbox_loc"
  type: "Convolution"
  bottom: "fc7"
  top: "fc7_mbox_loc"
  param {
    lr_mult: 1
    decay_mult: 1
  }
  param {
    lr_mult: 2
    decay_mult: 0
  }
  convolution_param {
    num_output: 24
    pad: 1
    kernel_size: 3
    stride: 1
    weight_filler {
      type: "xavier"
    }
    bias_filler {
      type: "constant"
      value: 0
    }
  }
}
layer {
  name: "fc7_mbox_loc_perm"
  type: "Permute"
  bottom: "fc7_mbox_loc"
  top: "fc7_mbox_loc_perm"
  permute_param {
    order: 0
    order: 2
    order: 3
    order: 1
  }
}
layer {
  name: "fc7_mbox_loc_flat"
  type: "Flatten"
  bottom: "fc7_mbox_loc_perm"
  top: "fc7_mbox_loc_flat"
  flatten_param {
    axis: 1
  }
}
layer {
  name: "fc7_mbox_conf"
  type: "Convolution"
  bottom: "fc7"
  top: "fc7_mbox_conf"
  param {
    lr_mult: 1
    decay_mult: 1
  }
  param {
    lr_mult: 2
    decay_mult: 0
  }
  convolution_param {
    num_output: 24
    pad: 1
    kernel_size: 3
    stride: 1
    weight_filler {
      type: "xavier"
    }
    bias_filler {
      type: "constant"
      value: 0
    }
  }
}
layer {
  name: "fc7_mbox_conf_perm"
  type: "Permute"
  bottom: "fc7_mbox_conf"
  top: "fc7_mbox_conf_perm"
  permute_param {
    order: 0
    order: 2
    order: 3
    order: 1
  }
}
layer {
  name: "fc7_mbox_conf_flat"
  type: "Flatten"
  bottom: "fc7_mbox_conf_perm"
  top: "fc7_mbox_conf_flat"
  flatten_param {
    axis: 1
  }
}
layer {
  name: "fc7_mbox_priorbox"
  type: "PriorBox"
  bottom: "fc7"
  bottom: "data"
  top: "fc7_mbox_priorbox"
  prior_box_param {
    min_size: 60
    max_size: 111
    aspect_ratio: 2
    aspect_ratio: 3
    flip: true
    clip: false
    variance: 0.1
    variance: 0.1
    variance: 0.2
    variance: 0.2
    step: 16
    offset: 0.5
  }
}
layer {
  name: "conv6_2_mbox_loc"
  type: "Convolution"
  bottom: "conv6_2"
  top: "conv6_2_mbox_loc"
  param {
    lr_mult: 1
    decay_mult: 1
  }
  param {
    lr_mult: 2
    decay_mult: 0
  }
  convolution_param {
    num_output: 24
    pad: 1
    kernel_size: 3
    stride: 1
    weight_filler {
      type: "xavier"
    }
    bias_filler {
      type: "constant"
      value: 0
    }
  }
}
layer {
  name: "conv6_2_mbox_loc_perm"
  type: "Permute"
  bottom: "conv6_2_mbox_loc"
  top: "conv6_2_mbox_loc_perm"
  permute_param {
    order: 0
    order: 2
    order: 3
    order: 1
  }
}
layer {
  name: "conv6_2_mbox_loc_flat"
  type: "Flatten"
  bottom: "conv6_2_mbox_loc_perm"
  top: "conv6_2_mbox_loc_flat"
  flatten_param {
    axis: 1
  }
}
layer {
  name: "conv6_2_mbox_conf"
  type: "Convolution"
  bottom: "conv6_2"
  top: "conv6_2_mbox_conf"
  param {
    lr_mult: 1
    decay_mult: 1
  }
  param {
    lr_mult: 2
    decay_mult: 0
  }
  convolution_param {
    num_output: 24
    pad: 1
    kernel_size: 3
    stride: 1
    weight_filler {
      type: "xavier"
    }
    bias_filler {
      type: "constant"
      value: 0
    }
  }
}
layer {
  name: "conv6_2_mbox_conf_perm"
  type: "Permute"
  bottom: "conv6_2_mbox_conf"
  top: "conv6_2_mbox_conf_perm"
  permute_param {
    order: 0
    order: 2
    order: 3
    order: 1
  }
}
layer {
  name: "conv6_2_mbox_conf_flat"
  type: "Flatten"
  bottom: "conv6_2_mbox_conf_perm"
  top: "conv6_2_mbox_conf_flat"
  flatten_param {
    axis: 1
  }
}
layer {
  name: "conv6_2_mbox_priorbox"
  type: "PriorBox"
  bottom: "conv6_2"
  bottom: "data"
  top: "conv6_2_mbox_priorbox"
  prior_box_param {
    min_size: 111
    max_size: 162
    aspect_ratio: 2
    aspect_ratio: 3
    flip: true
    clip: false
    variance: 0.1
    variance: 0.1
    variance: 0.2
    variance: 0.2
    step: 32
    offset: 0.5
  }
}
layer {
  name: "conv7_2_mbox_loc"
  type: "Convolution"
  bottom: "conv7_2"
  top: "conv7_2_mbox_loc"
  param {
    lr_mult: 1
    decay_mult: 1
  }
  param {
    lr_mult: 2
    decay_mult: 0
  }
  convolution_param {
    num_output: 24
    pad: 1
    kernel_size: 3
    stride: 1
    weight_filler {
      type: "xavier"
    }
    bias_filler {
      type: "constant"
      value: 0
    }
  }
}
layer {
  name: "conv7_2_mbox_loc_perm"
  type: "Permute"
  bottom: "conv7_2_mbox_loc"
  top: "conv7_2_mbox_loc_perm"
  permute_param {
    order: 0
    order: 2
    order: 3
    order: 1
  }
}
layer {
  name: "conv7_2_mbox_loc_flat"
  type: "Flatten"
  bottom: "conv7_2_mbox_loc_perm"
  top: "conv7_2_mbox_loc_flat"
  flatten_param {
    axis: 1
  }
}
layer {
  name: "conv7_2_mbox_conf"
  type: "Convolution"
  bottom: "conv7_2"
  top: "conv7_2_mbox_conf"
  param {
    lr_mult: 1
    decay_mult: 1
  }
  param {
    lr_mult: 2
    decay_mult: 0
  }
  convolution_param {
    num_output: 24
    pad: 1
    kernel_size: 3
    stride: 1
    weight_filler {
      type: "xavier"
    }
    bias_filler {
      type: "constant"
      value: 0
    }
  }
}
layer {
  name: "conv7_2_mbox_conf_perm"
  type: "Permute"
  bottom: "conv7_2_mbox_conf"
  top: "conv7_2_mbox_conf_perm"
  permute_param {
    order: 0
    order: 2
    order: 3
    order: 1
  }
}
layer {
  name: "conv7_2_mbox_conf_flat"
  type: "Flatten"
  bottom: "conv7_2_mbox_conf_perm"
  top: "conv7_2_mbox_conf_flat"
  flatten_param {
    axis: 1
  }
}
layer {
  name: "conv7_2_mbox_priorbox"
  type: "PriorBox"
  bottom: "conv7_2"
  bottom: "data"
  top: "conv7_2_mbox_priorbox"
  prior_box_param {
    min_size: 162
    max_size: 213
    aspect_ratio: 2
    aspect_ratio: 3
    flip: true
    clip: false
    variance: 0.1
    variance: 0.1
    variance: 0.2
    variance: 0.2
    step: 64
    offset: 0.5
  }
}
layer {
  name: "conv8_2_mbox_loc"
  type: "Convolution"
  bottom: "conv8_2"
  top: "conv8_2_mbox_loc"
  param {
    lr_mult: 1
    decay_mult: 1
  }
  param {
    lr_mult: 2
    decay_mult: 0
  }
  convolution_param {
    num_output: 16
    pad: 1
    kernel_size: 3
    stride: 1
    weight_filler {
      type: "xavier"
    }
    bias_filler {
      type: "constant"
      value: 0
    }
  }
}
layer {
  name: "conv8_2_mbox_loc_perm"
  type: "Permute"
  bottom: "conv8_2_mbox_loc"
  top: "conv8_2_mbox_loc_perm"
  permute_param {
    order: 0
    order: 2
    order: 3
    order: 1
  }
}
layer {
  name: "conv8_2_mbox_loc_flat"
  type: "Flatten"
  bottom: "conv8_2_mbox_loc_perm"
  top: "conv8_2_mbox_loc_flat"
  flatten_param {
    axis: 1
  }
}
layer {
  name: "conv8_2_mbox_conf"
  type: "Convolution"
  bottom: "conv8_2"
  top: "conv8_2_mbox_conf"
  param {
    lr_mult: 1
    decay_mult: 1
  }
  param {
    lr_mult: 2
    decay_mult: 0
  }
  convolution_param {
    num_output: 16
    pad: 1
    kernel_size: 3
    stride: 1
    weight_filler {
      type: "xavier"
    }
    bias_filler {
      type: "constant"
      value: 0
    }
  }
}
layer {
  name: "conv8_2_mbox_conf_perm"
  type: "Permute"
  bottom: "conv8_2_mbox_conf"
  top: "conv8_2_mbox_conf_perm"
  permute_param {
    order: 0
    order: 2
    order: 3
    order: 1
  }
}
layer {
  name: "conv8_2_mbox_conf_flat"
  type: "Flatten"
  bottom: "conv8_2_mbox_conf_perm"
  top: "conv8_2_mbox_conf_flat"
  flatten_param {
    axis: 1
  }
}
layer {
  name: "conv8_2_mbox_priorbox"
  type: "PriorBox"
  bottom: "conv8_2"
  bottom: "data"
  top: "conv8_2_mbox_priorbox"
  prior_box_param {
    min_size: 213
    max_size: 264
    aspect_ratio: 2
    flip: true
    clip: false
    variance: 0.1
    variance: 0.1
    variance: 0.2
    variance: 0.2
    step: 100
    offset: 0.5
  }
}
layer {
  name: "conv9_2_mbox_loc"
  type: "Convolution"
  bottom: "conv9_2"
  top: "conv9_2_mbox_loc"
  param {
    lr_mult: 1
    decay_mult: 1
  }
  param {
    lr_mult: 2
    decay_mult: 0
  }
  convolution_param {
    num_output: 16
    pad: 1
    kernel_size: 3
    stride: 1
    weight_filler {
      type: "xavier"
    }
    bias_filler {
      type: "constant"
      value: 0
    }
  }
}
layer {
  name: "conv9_2_mbox_loc_perm"
  type: "Permute"
  bottom: "conv9_2_mbox_loc"
  top: "conv9_2_mbox_loc_perm"
  permute_param {
    order: 0
    order: 2
    order: 3
    order: 1
  }
}
layer {
  name: "conv9_2_mbox_loc_flat"
  type: "Flatten"
  bottom: "conv9_2_mbox_loc_perm"
  top: "conv9_2_mbox_loc_flat"
  flatten_param {
    axis: 1
  }
}
layer {
  name: "conv9_2_mbox_conf"
  type: "Convolution"
  bottom: "conv9_2"
  top: "conv9_2_mbox_conf"
  param {
    lr_mult: 1
    decay_mult: 1
  }
  param {
    lr_mult: 2
    decay_mult: 0
  }
  convolution_param {
    num_output: 16
    pad: 1
    kernel_size: 3
    stride: 1
    weight_filler {
      type: "xavier"
    }
    bias_filler {
      type: "constant"
      value: 0
    }
  }
}
layer {
  name: "conv9_2_mbox_conf_perm"
  type: "Permute"
  bottom: "conv9_2_mbox_conf"
  top: "conv9_2_mbox_conf_perm"
  permute_param {
    order: 0
    order: 2
    order: 3
    order: 1
  }
}
layer {
  name: "conv9_2_mbox_conf_flat"
  type: "Flatten"
  bottom: "conv9_2_mbox_conf_perm"
  top: "conv9_2_mbox_conf_flat"
  flatten_param {
    axis: 1
  }
}
layer {
  name: "conv9_2_mbox_priorbox"
  type: "PriorBox"
  bottom: "conv9_2"
  bottom: "data"
  top: "conv9_2_mbox_priorbox"
  prior_box_param {
    min_size: 264
    max_size: 315
    aspect_ratio: 2
    flip: true
    clip: false
    variance: 0.1
    variance: 0.1
    variance: 0.2
    variance: 0.2
    step: 300
    offset: 0.5
  }
}
layer {
  name: "mbox_loc"
  type: "Concat"
  bottom: "conv4_3_norm_mbox_loc_flat"
  bottom: "fc7_mbox_loc_flat"
  bottom: "conv6_2_mbox_loc_flat"
  bottom: "conv7_2_mbox_loc_flat"
  bottom: "conv8_2_mbox_loc_flat"
  bottom: "conv9_2_mbox_loc_flat"
  top: "mbox_loc"
  concat_param {
    axis: 1
  }
}
layer {
  name: "mbox_conf"
  type: "Concat"
  bottom: "conv4_3_norm_mbox_conf_flat"
  bottom: "fc7_mbox_conf_flat"
  bottom: "conv6_2_mbox_conf_flat"
  bottom: "conv7_2_mbox_conf_flat"
  bottom: "conv8_2_mbox_conf_flat"
  bottom: "conv9_2_mbox_conf_flat"
  top: "mbox_conf"
  concat_param {
    axis: 1
  }
}
layer {
  name: "mbox_priorbox"
  type: "Concat"
  bottom: "conv4_3_norm_mbox_priorbox"
  bottom: "fc7_mbox_priorbox"
  bottom: "conv6_2_mbox_priorbox"
  bottom: "conv7_2_mbox_priorbox"
  bottom: "conv8_2_mbox_priorbox"
  bottom: "conv9_2_mbox_priorbox"
  top: "mbox_priorbox"
  concat_param {
    axis: 2
  }
}
layer {
  name: "mbox_conf_reshape"
  type: "Reshape"
  bottom: "mbox_conf"
  top: "mbox_conf_reshape"
  reshape_param {
    shape {
      dim: 0
      dim: -1
      dim: 4
    }
  }
}
layer {
  name: "mbox_conf_softmax"
  type: "Softmax"
  bottom: "mbox_conf_reshape"
  top: "mbox_conf_softmax"
  softmax_param {
    axis: 2
  }
}
layer {
  name: "mbox_conf_flatten"
  type: "Flatten"
  bottom: "mbox_conf_softmax"
  top: "mbox_conf_flatten"
  flatten_param {
    axis: 1
  }
}
layer {
  name: "detection_out"
  type: "DetectionOutput"
  bottom: "mbox_loc"
  bottom: "mbox_conf_flatten"
  bottom: "mbox_priorbox"
  top: "detection_out"
  include {
    phase: TEST
  }
  detection_output_param {
    num_classes: 4
    share_location: true
    background_label_id: 0
    nms_param {
      nms_threshold: 0.45
      top_k: 400
    }
    save_output_param {
      output_directory: "/home/shangzw/data/tbs/results/tbs/SSD_300x300/Main"
      output_name_prefix: "comp4_det_test_"
      output_format: "VOC"
      label_map_file: "data/tbs_300x300_HSIL_10x/labelmap_tbs.prototxt"
      name_size_file: "data/VOC0712/test_name_size.txt"
      num_test_image: 100
    }
    code_type: CENTER_SIZE
    keep_top_k: 200
    confidence_threshold: 0.01
  }
}
layer {
  name: "detection_eval"
  type: "DetectionEvaluate"
  bottom: "detection_out"
  bottom: "label"
  top: "detection_eval"
  include {
    phase: TEST
  }
  detection_evaluate_param {
    num_classes: 4
    background_label_id: 0
    overlap_threshold: 0.5
    evaluate_difficult_gt: false
    name_size_file: "data/VOC0712/test_name_size.txt"
  }
}
I0601 11:12:03.898738 28806 layer_factory.hpp:77] Creating layer data
I0601 11:12:03.898802 28806 net.cpp:100] Creating Layer data
I0601 11:12:03.898814 28806 net.cpp:408] data -> data
I0601 11:12:03.898825 28806 net.cpp:408] data -> label
I0601 11:12:03.899510 28824 db_lmdb.cpp:35] Opened lmdb examples/tbs_300x300_HSIL_10x/tbs_300x300_HSIL_10x_test_lmdb
I0601 11:12:03.900177 28806 annotated_data_layer.cpp:62] output data size: 4,3,300,300
I0601 11:12:03.909643 28806 net.cpp:150] Setting up data
I0601 11:12:03.909692 28806 net.cpp:157] Top shape: 4 3 300 300 (1080000)
I0601 11:12:03.909695 28806 net.cpp:157] Top shape: 1 1 1 8 (8)
I0601 11:12:03.909698 28806 net.cpp:165] Memory required for data: 4320032
I0601 11:12:03.909703 28806 layer_factory.hpp:77] Creating layer data_data_0_split
I0601 11:12:03.909711 28806 net.cpp:100] Creating Layer data_data_0_split
I0601 11:12:03.909729 28806 net.cpp:434] data_data_0_split <- data
I0601 11:12:03.909734 28806 net.cpp:408] data_data_0_split -> data_data_0_split_0
I0601 11:12:03.909756 28806 net.cpp:408] data_data_0_split -> data_data_0_split_1
I0601 11:12:03.909761 28806 net.cpp:408] data_data_0_split -> data_data_0_split_2
I0601 11:12:03.909766 28806 net.cpp:408] data_data_0_split -> data_data_0_split_3
I0601 11:12:03.909770 28806 net.cpp:408] data_data_0_split -> data_data_0_split_4
I0601 11:12:03.909775 28806 net.cpp:408] data_data_0_split -> data_data_0_split_5
I0601 11:12:03.909778 28806 net.cpp:408] data_data_0_split -> data_data_0_split_6
I0601 11:12:03.909873 28806 net.cpp:150] Setting up data_data_0_split
I0601 11:12:03.909878 28806 net.cpp:157] Top shape: 4 3 300 300 (1080000)
I0601 11:12:03.909909 28806 net.cpp:157] Top shape: 4 3 300 300 (1080000)
I0601 11:12:03.909911 28806 net.cpp:157] Top shape: 4 3 300 300 (1080000)
I0601 11:12:03.909914 28806 net.cpp:157] Top shape: 4 3 300 300 (1080000)
I0601 11:12:03.909916 28806 net.cpp:157] Top shape: 4 3 300 300 (1080000)
I0601 11:12:03.909919 28806 net.cpp:157] Top shape: 4 3 300 300 (1080000)
I0601 11:12:03.909922 28806 net.cpp:157] Top shape: 4 3 300 300 (1080000)
I0601 11:12:03.909924 28806 net.cpp:165] Memory required for data: 34560032
I0601 11:12:03.909926 28806 layer_factory.hpp:77] Creating layer conv1_1
I0601 11:12:03.909935 28806 net.cpp:100] Creating Layer conv1_1
I0601 11:12:03.909940 28806 net.cpp:434] conv1_1 <- data_data_0_split_0
I0601 11:12:03.909957 28806 net.cpp:408] conv1_1 -> conv1_1
I0601 11:12:03.910177 28806 net.cpp:150] Setting up conv1_1
I0601 11:12:03.910184 28806 net.cpp:157] Top shape: 4 64 300 300 (23040000)
I0601 11:12:03.910187 28806 net.cpp:165] Memory required for data: 126720032
I0601 11:12:03.910193 28806 layer_factory.hpp:77] Creating layer relu1_1
I0601 11:12:03.910197 28806 net.cpp:100] Creating Layer relu1_1
I0601 11:12:03.910203 28806 net.cpp:434] relu1_1 <- conv1_1
I0601 11:12:03.910207 28806 net.cpp:395] relu1_1 -> conv1_1 (in-place)
I0601 11:12:03.910212 28806 net.cpp:150] Setting up relu1_1
I0601 11:12:03.910214 28806 net.cpp:157] Top shape: 4 64 300 300 (23040000)
I0601 11:12:03.910217 28806 net.cpp:165] Memory required for data: 218880032
I0601 11:12:03.910218 28806 layer_factory.hpp:77] Creating layer conv1_2
I0601 11:12:03.910223 28806 net.cpp:100] Creating Layer conv1_2
I0601 11:12:03.910225 28806 net.cpp:434] conv1_2 <- conv1_1
I0601 11:12:03.910229 28806 net.cpp:408] conv1_2 -> conv1_2
I0601 11:12:03.910640 28806 net.cpp:150] Setting up conv1_2
I0601 11:12:03.910645 28806 net.cpp:157] Top shape: 4 64 300 300 (23040000)
I0601 11:12:03.910648 28806 net.cpp:165] Memory required for data: 311040032
I0601 11:12:03.910653 28806 layer_factory.hpp:77] Creating layer relu1_2
I0601 11:12:03.910657 28806 net.cpp:100] Creating Layer relu1_2
I0601 11:12:03.910660 28806 net.cpp:434] relu1_2 <- conv1_2
I0601 11:12:03.910662 28806 net.cpp:395] relu1_2 -> conv1_2 (in-place)
I0601 11:12:03.910666 28806 net.cpp:150] Setting up relu1_2
I0601 11:12:03.910670 28806 net.cpp:157] Top shape: 4 64 300 300 (23040000)
I0601 11:12:03.910671 28806 net.cpp:165] Memory required for data: 403200032
I0601 11:12:03.910673 28806 layer_factory.hpp:77] Creating layer pool1
I0601 11:12:03.910677 28806 net.cpp:100] Creating Layer pool1
I0601 11:12:03.910679 28806 net.cpp:434] pool1 <- conv1_2
I0601 11:12:03.910682 28806 net.cpp:408] pool1 -> pool1
I0601 11:12:03.910707 28806 net.cpp:150] Setting up pool1
I0601 11:12:03.910712 28806 net.cpp:157] Top shape: 4 64 150 150 (5760000)
I0601 11:12:03.910714 28806 net.cpp:165] Memory required for data: 426240032
I0601 11:12:03.910717 28806 layer_factory.hpp:77] Creating layer conv2_1
I0601 11:12:03.910720 28806 net.cpp:100] Creating Layer conv2_1
I0601 11:12:03.910723 28806 net.cpp:434] conv2_1 <- pool1
I0601 11:12:03.910727 28806 net.cpp:408] conv2_1 -> conv2_1
I0601 11:12:03.913049 28806 net.cpp:150] Setting up conv2_1
I0601 11:12:03.913060 28806 net.cpp:157] Top shape: 4 128 150 150 (11520000)
I0601 11:12:03.913063 28806 net.cpp:165] Memory required for data: 472320032
I0601 11:12:03.913069 28806 layer_factory.hpp:77] Creating layer relu2_1
I0601 11:12:03.913074 28806 net.cpp:100] Creating Layer relu2_1
I0601 11:12:03.913077 28806 net.cpp:434] relu2_1 <- conv2_1
I0601 11:12:03.913081 28806 net.cpp:395] relu2_1 -> conv2_1 (in-place)
I0601 11:12:03.913086 28806 net.cpp:150] Setting up relu2_1
I0601 11:12:03.913089 28806 net.cpp:157] Top shape: 4 128 150 150 (11520000)
I0601 11:12:03.913091 28806 net.cpp:165] Memory required for data: 518400032
I0601 11:12:03.913094 28806 layer_factory.hpp:77] Creating layer conv2_2
I0601 11:12:03.913099 28806 net.cpp:100] Creating Layer conv2_2
I0601 11:12:03.913100 28806 net.cpp:434] conv2_2 <- conv2_1
I0601 11:12:03.913105 28806 net.cpp:408] conv2_2 -> conv2_2
I0601 11:12:03.914505 28806 net.cpp:150] Setting up conv2_2
I0601 11:12:03.914515 28806 net.cpp:157] Top shape: 4 128 150 150 (11520000)
I0601 11:12:03.914516 28806 net.cpp:165] Memory required for data: 564480032
I0601 11:12:03.914521 28806 layer_factory.hpp:77] Creating layer relu2_2
I0601 11:12:03.914525 28806 net.cpp:100] Creating Layer relu2_2
I0601 11:12:03.914528 28806 net.cpp:434] relu2_2 <- conv2_2
I0601 11:12:03.914532 28806 net.cpp:395] relu2_2 -> conv2_2 (in-place)
I0601 11:12:03.914536 28806 net.cpp:150] Setting up relu2_2
I0601 11:12:03.914541 28806 net.cpp:157] Top shape: 4 128 150 150 (11520000)
I0601 11:12:03.914542 28806 net.cpp:165] Memory required for data: 610560032
I0601 11:12:03.914544 28806 layer_factory.hpp:77] Creating layer pool2
I0601 11:12:03.914548 28806 net.cpp:100] Creating Layer pool2
I0601 11:12:03.914551 28806 net.cpp:434] pool2 <- conv2_2
I0601 11:12:03.914554 28806 net.cpp:408] pool2 -> pool2
I0601 11:12:03.914585 28806 net.cpp:150] Setting up pool2
I0601 11:12:03.914590 28806 net.cpp:157] Top shape: 4 128 75 75 (2880000)
I0601 11:12:03.914593 28806 net.cpp:165] Memory required for data: 622080032
I0601 11:12:03.914595 28806 layer_factory.hpp:77] Creating layer conv3_1
I0601 11:12:03.914602 28806 net.cpp:100] Creating Layer conv3_1
I0601 11:12:03.914603 28806 net.cpp:434] conv3_1 <- pool2
I0601 11:12:03.914608 28806 net.cpp:408] conv3_1 -> conv3_1
I0601 11:12:03.915947 28806 net.cpp:150] Setting up conv3_1
I0601 11:12:03.915956 28806 net.cpp:157] Top shape: 4 256 75 75 (5760000)
I0601 11:12:03.915958 28806 net.cpp:165] Memory required for data: 645120032
I0601 11:12:03.915966 28806 layer_factory.hpp:77] Creating layer relu3_1
I0601 11:12:03.915969 28806 net.cpp:100] Creating Layer relu3_1
I0601 11:12:03.915972 28806 net.cpp:434] relu3_1 <- conv3_1
I0601 11:12:03.915976 28806 net.cpp:395] relu3_1 -> conv3_1 (in-place)
I0601 11:12:03.915980 28806 net.cpp:150] Setting up relu3_1
I0601 11:12:03.915983 28806 net.cpp:157] Top shape: 4 256 75 75 (5760000)
I0601 11:12:03.915985 28806 net.cpp:165] Memory required for data: 668160032
I0601 11:12:03.915987 28806 layer_factory.hpp:77] Creating layer conv3_2
I0601 11:12:03.915993 28806 net.cpp:100] Creating Layer conv3_2
I0601 11:12:03.915995 28806 net.cpp:434] conv3_2 <- conv3_1
I0601 11:12:03.915999 28806 net.cpp:408] conv3_2 -> conv3_2
I0601 11:12:03.919239 28806 net.cpp:150] Setting up conv3_2
I0601 11:12:03.919255 28806 net.cpp:157] Top shape: 4 256 75 75 (5760000)
I0601 11:12:03.919258 28806 net.cpp:165] Memory required for data: 691200032
I0601 11:12:03.919263 28806 layer_factory.hpp:77] Creating layer relu3_2
I0601 11:12:03.919267 28806 net.cpp:100] Creating Layer relu3_2
I0601 11:12:03.919270 28806 net.cpp:434] relu3_2 <- conv3_2
I0601 11:12:03.919275 28806 net.cpp:395] relu3_2 -> conv3_2 (in-place)
I0601 11:12:03.919287 28806 net.cpp:150] Setting up relu3_2
I0601 11:12:03.919291 28806 net.cpp:157] Top shape: 4 256 75 75 (5760000)
I0601 11:12:03.919293 28806 net.cpp:165] Memory required for data: 714240032
I0601 11:12:03.919296 28806 layer_factory.hpp:77] Creating layer conv3_3
I0601 11:12:03.919303 28806 net.cpp:100] Creating Layer conv3_3
I0601 11:12:03.919306 28806 net.cpp:434] conv3_3 <- conv3_2
I0601 11:12:03.919312 28806 net.cpp:408] conv3_3 -> conv3_3
I0601 11:12:03.922581 28806 net.cpp:150] Setting up conv3_3
I0601 11:12:03.922593 28806 net.cpp:157] Top shape: 4 256 75 75 (5760000)
I0601 11:12:03.922596 28806 net.cpp:165] Memory required for data: 737280032
I0601 11:12:03.922601 28806 layer_factory.hpp:77] Creating layer relu3_3
I0601 11:12:03.922606 28806 net.cpp:100] Creating Layer relu3_3
I0601 11:12:03.922610 28806 net.cpp:434] relu3_3 <- conv3_3
I0601 11:12:03.922613 28806 net.cpp:395] relu3_3 -> conv3_3 (in-place)
I0601 11:12:03.922618 28806 net.cpp:150] Setting up relu3_3
I0601 11:12:03.922628 28806 net.cpp:157] Top shape: 4 256 75 75 (5760000)
I0601 11:12:03.922631 28806 net.cpp:165] Memory required for data: 760320032
I0601 11:12:03.922632 28806 layer_factory.hpp:77] Creating layer pool3
I0601 11:12:03.922637 28806 net.cpp:100] Creating Layer pool3
I0601 11:12:03.922650 28806 net.cpp:434] pool3 <- conv3_3
I0601 11:12:03.922654 28806 net.cpp:408] pool3 -> pool3
I0601 11:12:03.922684 28806 net.cpp:150] Setting up pool3
I0601 11:12:03.922690 28806 net.cpp:157] Top shape: 4 256 38 38 (1478656)
I0601 11:12:03.922693 28806 net.cpp:165] Memory required for data: 766234656
I0601 11:12:03.922694 28806 layer_factory.hpp:77] Creating layer conv4_1
I0601 11:12:03.922700 28806 net.cpp:100] Creating Layer conv4_1
I0601 11:12:03.922703 28806 net.cpp:434] conv4_1 <- pool3
I0601 11:12:03.922708 28806 net.cpp:408] conv4_1 -> conv4_1
I0601 11:12:03.929661 28806 net.cpp:150] Setting up conv4_1
I0601 11:12:03.929677 28806 net.cpp:157] Top shape: 4 512 38 38 (2957312)
I0601 11:12:03.929679 28806 net.cpp:165] Memory required for data: 778063904
I0601 11:12:03.929685 28806 layer_factory.hpp:77] Creating layer relu4_1
I0601 11:12:03.929692 28806 net.cpp:100] Creating Layer relu4_1
I0601 11:12:03.929695 28806 net.cpp:434] relu4_1 <- conv4_1
I0601 11:12:03.929700 28806 net.cpp:395] relu4_1 -> conv4_1 (in-place)
I0601 11:12:03.929707 28806 net.cpp:150] Setting up relu4_1
I0601 11:12:03.929709 28806 net.cpp:157] Top shape: 4 512 38 38 (2957312)
I0601 11:12:03.929711 28806 net.cpp:165] Memory required for data: 789893152
I0601 11:12:03.929713 28806 layer_factory.hpp:77] Creating layer conv4_2
I0601 11:12:03.929720 28806 net.cpp:100] Creating Layer conv4_2
I0601 11:12:03.929723 28806 net.cpp:434] conv4_2 <- conv4_1
I0601 11:12:03.929726 28806 net.cpp:408] conv4_2 -> conv4_2
I0601 11:12:03.941632 28806 net.cpp:150] Setting up conv4_2
I0601 11:12:03.941648 28806 net.cpp:157] Top shape: 4 512 38 38 (2957312)
I0601 11:12:03.941650 28806 net.cpp:165] Memory required for data: 801722400
I0601 11:12:03.941675 28806 layer_factory.hpp:77] Creating layer relu4_2
I0601 11:12:03.941684 28806 net.cpp:100] Creating Layer relu4_2
I0601 11:12:03.941700 28806 net.cpp:434] relu4_2 <- conv4_2
I0601 11:12:03.941704 28806 net.cpp:395] relu4_2 -> conv4_2 (in-place)
I0601 11:12:03.941710 28806 net.cpp:150] Setting up relu4_2
I0601 11:12:03.941715 28806 net.cpp:157] Top shape: 4 512 38 38 (2957312)
I0601 11:12:03.941715 28806 net.cpp:165] Memory required for data: 813551648
I0601 11:12:03.941717 28806 layer_factory.hpp:77] Creating layer conv4_3
I0601 11:12:03.941725 28806 net.cpp:100] Creating Layer conv4_3
I0601 11:12:03.941727 28806 net.cpp:434] conv4_3 <- conv4_2
I0601 11:12:03.941730 28806 net.cpp:408] conv4_3 -> conv4_3
I0601 11:12:03.953374 28806 net.cpp:150] Setting up conv4_3
I0601 11:12:03.953405 28806 net.cpp:157] Top shape: 4 512 38 38 (2957312)
I0601 11:12:03.953409 28806 net.cpp:165] Memory required for data: 825380896
I0601 11:12:03.953415 28806 layer_factory.hpp:77] Creating layer relu4_3
I0601 11:12:03.953420 28806 net.cpp:100] Creating Layer relu4_3
I0601 11:12:03.953424 28806 net.cpp:434] relu4_3 <- conv4_3
I0601 11:12:03.953429 28806 net.cpp:395] relu4_3 -> conv4_3 (in-place)
I0601 11:12:03.953435 28806 net.cpp:150] Setting up relu4_3
I0601 11:12:03.953438 28806 net.cpp:157] Top shape: 4 512 38 38 (2957312)
I0601 11:12:03.953440 28806 net.cpp:165] Memory required for data: 837210144
I0601 11:12:03.953443 28806 layer_factory.hpp:77] Creating layer conv4_3_relu4_3_0_split
I0601 11:12:03.953446 28806 net.cpp:100] Creating Layer conv4_3_relu4_3_0_split
I0601 11:12:03.953449 28806 net.cpp:434] conv4_3_relu4_3_0_split <- conv4_3
I0601 11:12:03.953452 28806 net.cpp:408] conv4_3_relu4_3_0_split -> conv4_3_relu4_3_0_split_0
I0601 11:12:03.953459 28806 net.cpp:408] conv4_3_relu4_3_0_split -> conv4_3_relu4_3_0_split_1
I0601 11:12:03.953505 28806 net.cpp:150] Setting up conv4_3_relu4_3_0_split
I0601 11:12:03.953510 28806 net.cpp:157] Top shape: 4 512 38 38 (2957312)
I0601 11:12:03.953511 28806 net.cpp:157] Top shape: 4 512 38 38 (2957312)
I0601 11:12:03.953514 28806 net.cpp:165] Memory required for data: 860868640
I0601 11:12:03.953516 28806 layer_factory.hpp:77] Creating layer pool4
I0601 11:12:03.953521 28806 net.cpp:100] Creating Layer pool4
I0601 11:12:03.953523 28806 net.cpp:434] pool4 <- conv4_3_relu4_3_0_split_0
I0601 11:12:03.953539 28806 net.cpp:408] pool4 -> pool4
I0601 11:12:03.953567 28806 net.cpp:150] Setting up pool4
I0601 11:12:03.953572 28806 net.cpp:157] Top shape: 4 512 19 19 (739328)
I0601 11:12:03.953573 28806 net.cpp:165] Memory required for data: 863825952
I0601 11:12:03.953575 28806 layer_factory.hpp:77] Creating layer conv5_1
I0601 11:12:03.953583 28806 net.cpp:100] Creating Layer conv5_1
I0601 11:12:03.953584 28806 net.cpp:434] conv5_1 <- pool4
I0601 11:12:03.953589 28806 net.cpp:408] conv5_1 -> conv5_1
I0601 11:12:03.965565 28806 net.cpp:150] Setting up conv5_1
I0601 11:12:03.965584 28806 net.cpp:157] Top shape: 4 512 19 19 (739328)
I0601 11:12:03.965585 28806 net.cpp:165] Memory required for data: 866783264
I0601 11:12:03.965591 28806 layer_factory.hpp:77] Creating layer relu5_1
I0601 11:12:03.965613 28806 net.cpp:100] Creating Layer relu5_1
I0601 11:12:03.965617 28806 net.cpp:434] relu5_1 <- conv5_1
I0601 11:12:03.965622 28806 net.cpp:395] relu5_1 -> conv5_1 (in-place)
I0601 11:12:03.965628 28806 net.cpp:150] Setting up relu5_1
I0601 11:12:03.965632 28806 net.cpp:157] Top shape: 4 512 19 19 (739328)
I0601 11:12:03.965634 28806 net.cpp:165] Memory required for data: 869740576
I0601 11:12:03.965636 28806 layer_factory.hpp:77] Creating layer conv5_2
I0601 11:12:03.965643 28806 net.cpp:100] Creating Layer conv5_2
I0601 11:12:03.965646 28806 net.cpp:434] conv5_2 <- conv5_1
I0601 11:12:03.965649 28806 net.cpp:408] conv5_2 -> conv5_2
I0601 11:12:03.977471 28806 net.cpp:150] Setting up conv5_2
I0601 11:12:03.977486 28806 net.cpp:157] Top shape: 4 512 19 19 (739328)
I0601 11:12:03.977489 28806 net.cpp:165] Memory required for data: 872697888
I0601 11:12:03.977495 28806 layer_factory.hpp:77] Creating layer relu5_2
I0601 11:12:03.977515 28806 net.cpp:100] Creating Layer relu5_2
I0601 11:12:03.977519 28806 net.cpp:434] relu5_2 <- conv5_2
I0601 11:12:03.977524 28806 net.cpp:395] relu5_2 -> conv5_2 (in-place)
I0601 11:12:03.977530 28806 net.cpp:150] Setting up relu5_2
I0601 11:12:03.977532 28806 net.cpp:157] Top shape: 4 512 19 19 (739328)
I0601 11:12:03.977535 28806 net.cpp:165] Memory required for data: 875655200
I0601 11:12:03.977537 28806 layer_factory.hpp:77] Creating layer conv5_3
I0601 11:12:03.977558 28806 net.cpp:100] Creating Layer conv5_3
I0601 11:12:03.977562 28806 net.cpp:434] conv5_3 <- conv5_2
I0601 11:12:03.977566 28806 net.cpp:408] conv5_3 -> conv5_3
I0601 11:12:03.989429 28806 net.cpp:150] Setting up conv5_3
I0601 11:12:03.989445 28806 net.cpp:157] Top shape: 4 512 19 19 (739328)
I0601 11:12:03.989449 28806 net.cpp:165] Memory required for data: 878612512
I0601 11:12:03.989454 28806 layer_factory.hpp:77] Creating layer relu5_3
I0601 11:12:03.989480 28806 net.cpp:100] Creating Layer relu5_3
I0601 11:12:03.989483 28806 net.cpp:434] relu5_3 <- conv5_3
I0601 11:12:03.989487 28806 net.cpp:395] relu5_3 -> conv5_3 (in-place)
I0601 11:12:03.989493 28806 net.cpp:150] Setting up relu5_3
I0601 11:12:03.989511 28806 net.cpp:157] Top shape: 4 512 19 19 (739328)
I0601 11:12:03.989514 28806 net.cpp:165] Memory required for data: 881569824
I0601 11:12:03.989516 28806 layer_factory.hpp:77] Creating layer pool5
I0601 11:12:03.989533 28806 net.cpp:100] Creating Layer pool5
I0601 11:12:03.989537 28806 net.cpp:434] pool5 <- conv5_3
I0601 11:12:03.989539 28806 net.cpp:408] pool5 -> pool5
I0601 11:12:03.989593 28806 net.cpp:150] Setting up pool5
I0601 11:12:03.989598 28806 net.cpp:157] Top shape: 4 512 19 19 (739328)
I0601 11:12:03.989601 28806 net.cpp:165] Memory required for data: 884527136
I0601 11:12:03.989603 28806 layer_factory.hpp:77] Creating layer fc6
I0601 11:12:03.989610 28806 net.cpp:100] Creating Layer fc6
I0601 11:12:03.989614 28806 net.cpp:434] fc6 <- pool5
I0601 11:12:03.989619 28806 net.cpp:408] fc6 -> fc6
I0601 11:12:04.012852 28806 net.cpp:150] Setting up fc6
I0601 11:12:04.012869 28806 net.cpp:157] Top shape: 4 1024 19 19 (1478656)
I0601 11:12:04.012871 28806 net.cpp:165] Memory required for data: 890441760
I0601 11:12:04.012892 28806 layer_factory.hpp:77] Creating layer relu6
I0601 11:12:04.012941 28806 net.cpp:100] Creating Layer relu6
I0601 11:12:04.012945 28806 net.cpp:434] relu6 <- fc6
I0601 11:12:04.012950 28806 net.cpp:395] relu6 -> fc6 (in-place)
I0601 11:12:04.012956 28806 net.cpp:150] Setting up relu6
I0601 11:12:04.012959 28806 net.cpp:157] Top shape: 4 1024 19 19 (1478656)
I0601 11:12:04.012961 28806 net.cpp:165] Memory required for data: 896356384
I0601 11:12:04.012964 28806 layer_factory.hpp:77] Creating layer fc7
I0601 11:12:04.012972 28806 net.cpp:100] Creating Layer fc7
I0601 11:12:04.012974 28806 net.cpp:434] fc7 <- fc6
I0601 11:12:04.012979 28806 net.cpp:408] fc7 -> fc7
I0601 11:12:04.019017 28806 net.cpp:150] Setting up fc7
I0601 11:12:04.019034 28806 net.cpp:157] Top shape: 4 1024 19 19 (1478656)
I0601 11:12:04.019037 28806 net.cpp:165] Memory required for data: 902271008
I0601 11:12:04.019042 28806 layer_factory.hpp:77] Creating layer relu7
I0601 11:12:04.019064 28806 net.cpp:100] Creating Layer relu7
I0601 11:12:04.019068 28806 net.cpp:434] relu7 <- fc7
I0601 11:12:04.019085 28806 net.cpp:395] relu7 -> fc7 (in-place)
I0601 11:12:04.019091 28806 net.cpp:150] Setting up relu7
I0601 11:12:04.019094 28806 net.cpp:157] Top shape: 4 1024 19 19 (1478656)
I0601 11:12:04.019096 28806 net.cpp:165] Memory required for data: 908185632
I0601 11:12:04.019098 28806 layer_factory.hpp:77] Creating layer fc7_relu7_0_split
I0601 11:12:04.019117 28806 net.cpp:100] Creating Layer fc7_relu7_0_split
I0601 11:12:04.019119 28806 net.cpp:434] fc7_relu7_0_split <- fc7
I0601 11:12:04.019124 28806 net.cpp:408] fc7_relu7_0_split -> fc7_relu7_0_split_0
I0601 11:12:04.019129 28806 net.cpp:408] fc7_relu7_0_split -> fc7_relu7_0_split_1
I0601 11:12:04.019152 28806 net.cpp:408] fc7_relu7_0_split -> fc7_relu7_0_split_2
I0601 11:12:04.019156 28806 net.cpp:408] fc7_relu7_0_split -> fc7_relu7_0_split_3
I0601 11:12:04.019222 28806 net.cpp:150] Setting up fc7_relu7_0_split
I0601 11:12:04.019227 28806 net.cpp:157] Top shape: 4 1024 19 19 (1478656)
I0601 11:12:04.019243 28806 net.cpp:157] Top shape: 4 1024 19 19 (1478656)
I0601 11:12:04.019246 28806 net.cpp:157] Top shape: 4 1024 19 19 (1478656)
I0601 11:12:04.019249 28806 net.cpp:157] Top shape: 4 1024 19 19 (1478656)
I0601 11:12:04.019250 28806 net.cpp:165] Memory required for data: 931844128
I0601 11:12:04.019253 28806 layer_factory.hpp:77] Creating layer conv6_1
I0601 11:12:04.019276 28806 net.cpp:100] Creating Layer conv6_1
I0601 11:12:04.019280 28806 net.cpp:434] conv6_1 <- fc7_relu7_0_split_0
I0601 11:12:04.019286 28806 net.cpp:408] conv6_1 -> conv6_1
I0601 11:12:04.021487 28806 net.cpp:150] Setting up conv6_1
I0601 11:12:04.021500 28806 net.cpp:157] Top shape: 4 256 19 19 (369664)
I0601 11:12:04.021503 28806 net.cpp:165] Memory required for data: 933322784
I0601 11:12:04.021508 28806 layer_factory.hpp:77] Creating layer conv6_1_relu
I0601 11:12:04.021529 28806 net.cpp:100] Creating Layer conv6_1_relu
I0601 11:12:04.021533 28806 net.cpp:434] conv6_1_relu <- conv6_1
I0601 11:12:04.021536 28806 net.cpp:395] conv6_1_relu -> conv6_1 (in-place)
I0601 11:12:04.021541 28806 net.cpp:150] Setting up conv6_1_relu
I0601 11:12:04.021544 28806 net.cpp:157] Top shape: 4 256 19 19 (369664)
I0601 11:12:04.021546 28806 net.cpp:165] Memory required for data: 934801440
I0601 11:12:04.021549 28806 layer_factory.hpp:77] Creating layer conv6_2
I0601 11:12:04.021571 28806 net.cpp:100] Creating Layer conv6_2
I0601 11:12:04.021575 28806 net.cpp:434] conv6_2 <- conv6_1
I0601 11:12:04.021580 28806 net.cpp:408] conv6_2 -> conv6_2
I0601 11:12:04.027600 28806 net.cpp:150] Setting up conv6_2
I0601 11:12:04.027619 28806 net.cpp:157] Top shape: 4 512 10 10 (204800)
I0601 11:12:04.027622 28806 net.cpp:165] Memory required for data: 935620640
I0601 11:12:04.027634 28806 layer_factory.hpp:77] Creating layer conv6_2_relu
I0601 11:12:04.027642 28806 net.cpp:100] Creating Layer conv6_2_relu
I0601 11:12:04.027647 28806 net.cpp:434] conv6_2_relu <- conv6_2
I0601 11:12:04.027652 28806 net.cpp:395] conv6_2_relu -> conv6_2 (in-place)
I0601 11:12:04.027663 28806 net.cpp:150] Setting up conv6_2_relu
I0601 11:12:04.027678 28806 net.cpp:157] Top shape: 4 512 10 10 (204800)
I0601 11:12:04.027679 28806 net.cpp:165] Memory required for data: 936439840
I0601 11:12:04.027681 28806 layer_factory.hpp:77] Creating layer conv6_2_conv6_2_relu_0_split
I0601 11:12:04.027685 28806 net.cpp:100] Creating Layer conv6_2_conv6_2_relu_0_split
I0601 11:12:04.027688 28806 net.cpp:434] conv6_2_conv6_2_relu_0_split <- conv6_2
I0601 11:12:04.027691 28806 net.cpp:408] conv6_2_conv6_2_relu_0_split -> conv6_2_conv6_2_relu_0_split_0
I0601 11:12:04.027698 28806 net.cpp:408] conv6_2_conv6_2_relu_0_split -> conv6_2_conv6_2_relu_0_split_1
I0601 11:12:04.027703 28806 net.cpp:408] conv6_2_conv6_2_relu_0_split -> conv6_2_conv6_2_relu_0_split_2
I0601 11:12:04.027707 28806 net.cpp:408] conv6_2_conv6_2_relu_0_split -> conv6_2_conv6_2_relu_0_split_3
I0601 11:12:04.027758 28806 net.cpp:150] Setting up conv6_2_conv6_2_relu_0_split
I0601 11:12:04.027763 28806 net.cpp:157] Top shape: 4 512 10 10 (204800)
I0601 11:12:04.027765 28806 net.cpp:157] Top shape: 4 512 10 10 (204800)
I0601 11:12:04.027768 28806 net.cpp:157] Top shape: 4 512 10 10 (204800)
I0601 11:12:04.027771 28806 net.cpp:157] Top shape: 4 512 10 10 (204800)
I0601 11:12:04.027773 28806 net.cpp:165] Memory required for data: 939716640
I0601 11:12:04.027776 28806 layer_factory.hpp:77] Creating layer conv7_1
I0601 11:12:04.027783 28806 net.cpp:100] Creating Layer conv7_1
I0601 11:12:04.027786 28806 net.cpp:434] conv7_1 <- conv6_2_conv6_2_relu_0_split_0
I0601 11:12:04.027789 28806 net.cpp:408] conv7_1 -> conv7_1
I0601 11:12:04.028255 28806 net.cpp:150] Setting up conv7_1
I0601 11:12:04.028261 28806 net.cpp:157] Top shape: 4 128 10 10 (51200)
I0601 11:12:04.028264 28806 net.cpp:165] Memory required for data: 939921440
I0601 11:12:04.028267 28806 layer_factory.hpp:77] Creating layer conv7_1_relu
I0601 11:12:04.028271 28806 net.cpp:100] Creating Layer conv7_1_relu
I0601 11:12:04.028275 28806 net.cpp:434] conv7_1_relu <- conv7_1
I0601 11:12:04.028277 28806 net.cpp:395] conv7_1_relu -> conv7_1 (in-place)
I0601 11:12:04.028280 28806 net.cpp:150] Setting up conv7_1_relu
I0601 11:12:04.028283 28806 net.cpp:157] Top shape: 4 128 10 10 (51200)
I0601 11:12:04.028285 28806 net.cpp:165] Memory required for data: 940126240
I0601 11:12:04.028287 28806 layer_factory.hpp:77] Creating layer conv7_2
I0601 11:12:04.028292 28806 net.cpp:100] Creating Layer conv7_2
I0601 11:12:04.028296 28806 net.cpp:434] conv7_2 <- conv7_1
I0601 11:12:04.028301 28806 net.cpp:408] conv7_2 -> conv7_2
I0601 11:12:04.030504 28806 net.cpp:150] Setting up conv7_2
I0601 11:12:04.030517 28806 net.cpp:157] Top shape: 4 256 5 5 (25600)
I0601 11:12:04.030519 28806 net.cpp:165] Memory required for data: 940228640
I0601 11:12:04.030526 28806 layer_factory.hpp:77] Creating layer conv7_2_relu
I0601 11:12:04.030531 28806 net.cpp:100] Creating Layer conv7_2_relu
I0601 11:12:04.030535 28806 net.cpp:434] conv7_2_relu <- conv7_2
I0601 11:12:04.030539 28806 net.cpp:395] conv7_2_relu -> conv7_2 (in-place)
I0601 11:12:04.030544 28806 net.cpp:150] Setting up conv7_2_relu
I0601 11:12:04.030549 28806 net.cpp:157] Top shape: 4 256 5 5 (25600)
I0601 11:12:04.030550 28806 net.cpp:165] Memory required for data: 940331040
I0601 11:12:04.030552 28806 layer_factory.hpp:77] Creating layer conv7_2_conv7_2_relu_0_split
I0601 11:12:04.030556 28806 net.cpp:100] Creating Layer conv7_2_conv7_2_relu_0_split
I0601 11:12:04.030558 28806 net.cpp:434] conv7_2_conv7_2_relu_0_split <- conv7_2
I0601 11:12:04.030563 28806 net.cpp:408] conv7_2_conv7_2_relu_0_split -> conv7_2_conv7_2_relu_0_split_0
I0601 11:12:04.030570 28806 net.cpp:408] conv7_2_conv7_2_relu_0_split -> conv7_2_conv7_2_relu_0_split_1
I0601 11:12:04.030575 28806 net.cpp:408] conv7_2_conv7_2_relu_0_split -> conv7_2_conv7_2_relu_0_split_2
I0601 11:12:04.030580 28806 net.cpp:408] conv7_2_conv7_2_relu_0_split -> conv7_2_conv7_2_relu_0_split_3
I0601 11:12:04.030627 28806 net.cpp:150] Setting up conv7_2_conv7_2_relu_0_split
I0601 11:12:04.030632 28806 net.cpp:157] Top shape: 4 256 5 5 (25600)
I0601 11:12:04.030635 28806 net.cpp:157] Top shape: 4 256 5 5 (25600)
I0601 11:12:04.030647 28806 net.cpp:157] Top shape: 4 256 5 5 (25600)
I0601 11:12:04.030650 28806 net.cpp:157] Top shape: 4 256 5 5 (25600)
I0601 11:12:04.030652 28806 net.cpp:165] Memory required for data: 940740640
I0601 11:12:04.030655 28806 layer_factory.hpp:77] Creating layer conv8_1
I0601 11:12:04.030661 28806 net.cpp:100] Creating Layer conv8_1
I0601 11:12:04.030665 28806 net.cpp:434] conv8_1 <- conv7_2_conv7_2_relu_0_split_0
I0601 11:12:04.030673 28806 net.cpp:408] conv8_1 -> conv8_1
I0601 11:12:04.030977 28806 net.cpp:150] Setting up conv8_1
I0601 11:12:04.030984 28806 net.cpp:157] Top shape: 4 128 5 5 (12800)
I0601 11:12:04.030987 28806 net.cpp:165] Memory required for data: 940791840
I0601 11:12:04.030993 28806 layer_factory.hpp:77] Creating layer conv8_1_relu
I0601 11:12:04.030999 28806 net.cpp:100] Creating Layer conv8_1_relu
I0601 11:12:04.031002 28806 net.cpp:434] conv8_1_relu <- conv8_1
I0601 11:12:04.031008 28806 net.cpp:395] conv8_1_relu -> conv8_1 (in-place)
I0601 11:12:04.031013 28806 net.cpp:150] Setting up conv8_1_relu
I0601 11:12:04.031025 28806 net.cpp:157] Top shape: 4 128 5 5 (12800)
I0601 11:12:04.031028 28806 net.cpp:165] Memory required for data: 940843040
I0601 11:12:04.031033 28806 layer_factory.hpp:77] Creating layer conv8_2
I0601 11:12:04.031040 28806 net.cpp:100] Creating Layer conv8_2
I0601 11:12:04.031045 28806 net.cpp:434] conv8_2 <- conv8_1
I0601 11:12:04.031052 28806 net.cpp:408] conv8_2 -> conv8_2
I0601 11:12:04.033100 28806 net.cpp:150] Setting up conv8_2
I0601 11:12:04.033113 28806 net.cpp:157] Top shape: 4 256 3 3 (9216)
I0601 11:12:04.033116 28806 net.cpp:165] Memory required for data: 940879904
I0601 11:12:04.033123 28806 layer_factory.hpp:77] Creating layer conv8_2_relu
I0601 11:12:04.033129 28806 net.cpp:100] Creating Layer conv8_2_relu
I0601 11:12:04.033134 28806 net.cpp:434] conv8_2_relu <- conv8_2
I0601 11:12:04.033140 28806 net.cpp:395] conv8_2_relu -> conv8_2 (in-place)
I0601 11:12:04.033154 28806 net.cpp:150] Setting up conv8_2_relu
I0601 11:12:04.033160 28806 net.cpp:157] Top shape: 4 256 3 3 (9216)
I0601 11:12:04.033164 28806 net.cpp:165] Memory required for data: 940916768
I0601 11:12:04.033167 28806 layer_factory.hpp:77] Creating layer conv8_2_conv8_2_relu_0_split
I0601 11:12:04.033175 28806 net.cpp:100] Creating Layer conv8_2_conv8_2_relu_0_split
I0601 11:12:04.033180 28806 net.cpp:434] conv8_2_conv8_2_relu_0_split <- conv8_2
I0601 11:12:04.033186 28806 net.cpp:408] conv8_2_conv8_2_relu_0_split -> conv8_2_conv8_2_relu_0_split_0
I0601 11:12:04.033195 28806 net.cpp:408] conv8_2_conv8_2_relu_0_split -> conv8_2_conv8_2_relu_0_split_1
I0601 11:12:04.033205 28806 net.cpp:408] conv8_2_conv8_2_relu_0_split -> conv8_2_conv8_2_relu_0_split_2
I0601 11:12:04.033211 28806 net.cpp:408] conv8_2_conv8_2_relu_0_split -> conv8_2_conv8_2_relu_0_split_3
I0601 11:12:04.033269 28806 net.cpp:150] Setting up conv8_2_conv8_2_relu_0_split
I0601 11:12:04.033275 28806 net.cpp:157] Top shape: 4 256 3 3 (9216)
I0601 11:12:04.033282 28806 net.cpp:157] Top shape: 4 256 3 3 (9216)
I0601 11:12:04.033285 28806 net.cpp:157] Top shape: 4 256 3 3 (9216)
I0601 11:12:04.033289 28806 net.cpp:157] Top shape: 4 256 3 3 (9216)
I0601 11:12:04.033293 28806 net.cpp:165] Memory required for data: 941064224
I0601 11:12:04.033298 28806 layer_factory.hpp:77] Creating layer conv9_1
I0601 11:12:04.033308 28806 net.cpp:100] Creating Layer conv9_1
I0601 11:12:04.033311 28806 net.cpp:434] conv9_1 <- conv8_2_conv8_2_relu_0_split_0
I0601 11:12:04.033318 28806 net.cpp:408] conv9_1 -> conv9_1
I0601 11:12:04.033656 28806 net.cpp:150] Setting up conv9_1
I0601 11:12:04.033663 28806 net.cpp:157] Top shape: 4 128 3 3 (4608)
I0601 11:12:04.033668 28806 net.cpp:165] Memory required for data: 941082656
I0601 11:12:04.033674 28806 layer_factory.hpp:77] Creating layer conv9_1_relu
I0601 11:12:04.033679 28806 net.cpp:100] Creating Layer conv9_1_relu
I0601 11:12:04.033684 28806 net.cpp:434] conv9_1_relu <- conv9_1
I0601 11:12:04.033689 28806 net.cpp:395] conv9_1_relu -> conv9_1 (in-place)
I0601 11:12:04.033705 28806 net.cpp:150] Setting up conv9_1_relu
I0601 11:12:04.033712 28806 net.cpp:157] Top shape: 4 128 3 3 (4608)
I0601 11:12:04.033716 28806 net.cpp:165] Memory required for data: 941101088
I0601 11:12:04.033720 28806 layer_factory.hpp:77] Creating layer conv9_2
I0601 11:12:04.033730 28806 net.cpp:100] Creating Layer conv9_2
I0601 11:12:04.033735 28806 net.cpp:434] conv9_2 <- conv9_1
I0601 11:12:04.033741 28806 net.cpp:408] conv9_2 -> conv9_2
I0601 11:12:04.035773 28806 net.cpp:150] Setting up conv9_2
I0601 11:12:04.035784 28806 net.cpp:157] Top shape: 4 256 1 1 (1024)
I0601 11:12:04.035789 28806 net.cpp:165] Memory required for data: 941105184
I0601 11:12:04.035795 28806 layer_factory.hpp:77] Creating layer conv9_2_relu
I0601 11:12:04.035801 28806 net.cpp:100] Creating Layer conv9_2_relu
I0601 11:12:04.035806 28806 net.cpp:434] conv9_2_relu <- conv9_2
I0601 11:12:04.035815 28806 net.cpp:395] conv9_2_relu -> conv9_2 (in-place)
I0601 11:12:04.035822 28806 net.cpp:150] Setting up conv9_2_relu
I0601 11:12:04.035828 28806 net.cpp:157] Top shape: 4 256 1 1 (1024)
I0601 11:12:04.035832 28806 net.cpp:165] Memory required for data: 941109280
I0601 11:12:04.035837 28806 layer_factory.hpp:77] Creating layer conv9_2_conv9_2_relu_0_split
I0601 11:12:04.035843 28806 net.cpp:100] Creating Layer conv9_2_conv9_2_relu_0_split
I0601 11:12:04.035847 28806 net.cpp:434] conv9_2_conv9_2_relu_0_split <- conv9_2
I0601 11:12:04.035854 28806 net.cpp:408] conv9_2_conv9_2_relu_0_split -> conv9_2_conv9_2_relu_0_split_0
I0601 11:12:04.035863 28806 net.cpp:408] conv9_2_conv9_2_relu_0_split -> conv9_2_conv9_2_relu_0_split_1
I0601 11:12:04.035871 28806 net.cpp:408] conv9_2_conv9_2_relu_0_split -> conv9_2_conv9_2_relu_0_split_2
I0601 11:12:04.035914 28806 net.cpp:150] Setting up conv9_2_conv9_2_relu_0_split
I0601 11:12:04.035920 28806 net.cpp:157] Top shape: 4 256 1 1 (1024)
I0601 11:12:04.035925 28806 net.cpp:157] Top shape: 4 256 1 1 (1024)
I0601 11:12:04.035931 28806 net.cpp:157] Top shape: 4 256 1 1 (1024)
I0601 11:12:04.035934 28806 net.cpp:165] Memory required for data: 941121568
I0601 11:12:04.035938 28806 layer_factory.hpp:77] Creating layer conv4_3_norm
I0601 11:12:04.035948 28806 net.cpp:100] Creating Layer conv4_3_norm
I0601 11:12:04.035953 28806 net.cpp:434] conv4_3_norm <- conv4_3_relu4_3_0_split_1
I0601 11:12:04.035959 28806 net.cpp:408] conv4_3_norm -> conv4_3_norm
I0601 11:12:04.036080 28806 net.cpp:150] Setting up conv4_3_norm
I0601 11:12:04.036087 28806 net.cpp:157] Top shape: 4 512 38 38 (2957312)
I0601 11:12:04.036090 28806 net.cpp:165] Memory required for data: 952950816
I0601 11:12:04.036095 28806 layer_factory.hpp:77] Creating layer conv4_3_norm_conv4_3_norm_0_split
I0601 11:12:04.036103 28806 net.cpp:100] Creating Layer conv4_3_norm_conv4_3_norm_0_split
I0601 11:12:04.036108 28806 net.cpp:434] conv4_3_norm_conv4_3_norm_0_split <- conv4_3_norm
I0601 11:12:04.036113 28806 net.cpp:408] conv4_3_norm_conv4_3_norm_0_split -> conv4_3_norm_conv4_3_norm_0_split_0
I0601 11:12:04.036120 28806 net.cpp:408] conv4_3_norm_conv4_3_norm_0_split -> conv4_3_norm_conv4_3_norm_0_split_1
I0601 11:12:04.036128 28806 net.cpp:408] conv4_3_norm_conv4_3_norm_0_split -> conv4_3_norm_conv4_3_norm_0_split_2
I0601 11:12:04.036167 28806 net.cpp:150] Setting up conv4_3_norm_conv4_3_norm_0_split
I0601 11:12:04.036173 28806 net.cpp:157] Top shape: 4 512 38 38 (2957312)
I0601 11:12:04.036178 28806 net.cpp:157] Top shape: 4 512 38 38 (2957312)
I0601 11:12:04.036185 28806 net.cpp:157] Top shape: 4 512 38 38 (2957312)
I0601 11:12:04.036188 28806 net.cpp:165] Memory required for data: 988438560
I0601 11:12:04.036192 28806 layer_factory.hpp:77] Creating layer conv4_3_norm_mbox_loc
I0601 11:12:04.036201 28806 net.cpp:100] Creating Layer conv4_3_norm_mbox_loc
I0601 11:12:04.036206 28806 net.cpp:434] conv4_3_norm_mbox_loc <- conv4_3_norm_conv4_3_norm_0_split_0
I0601 11:12:04.036214 28806 net.cpp:408] conv4_3_norm_mbox_loc -> conv4_3_norm_mbox_loc
I0601 11:12:04.036689 28806 net.cpp:150] Setting up conv4_3_norm_mbox_loc
I0601 11:12:04.036696 28806 net.cpp:157] Top shape: 4 16 38 38 (92416)
I0601 11:12:04.036706 28806 net.cpp:165] Memory required for data: 988808224
I0601 11:12:04.036715 28806 layer_factory.hpp:77] Creating layer conv4_3_norm_mbox_loc_perm
I0601 11:12:04.036722 28806 net.cpp:100] Creating Layer conv4_3_norm_mbox_loc_perm
I0601 11:12:04.036727 28806 net.cpp:434] conv4_3_norm_mbox_loc_perm <- conv4_3_norm_mbox_loc
I0601 11:12:04.036736 28806 net.cpp:408] conv4_3_norm_mbox_loc_perm -> conv4_3_norm_mbox_loc_perm
I0601 11:12:04.036813 28806 net.cpp:150] Setting up conv4_3_norm_mbox_loc_perm
I0601 11:12:04.036819 28806 net.cpp:157] Top shape: 4 38 38 16 (92416)
I0601 11:12:04.036823 28806 net.cpp:165] Memory required for data: 989177888
I0601 11:12:04.036825 28806 layer_factory.hpp:77] Creating layer conv4_3_norm_mbox_loc_flat
I0601 11:12:04.036834 28806 net.cpp:100] Creating Layer conv4_3_norm_mbox_loc_flat
I0601 11:12:04.036839 28806 net.cpp:434] conv4_3_norm_mbox_loc_flat <- conv4_3_norm_mbox_loc_perm
I0601 11:12:04.036844 28806 net.cpp:408] conv4_3_norm_mbox_loc_flat -> conv4_3_norm_mbox_loc_flat
I0601 11:12:04.036878 28806 net.cpp:150] Setting up conv4_3_norm_mbox_loc_flat
I0601 11:12:04.036886 28806 net.cpp:157] Top shape: 4 23104 (92416)
I0601 11:12:04.036890 28806 net.cpp:165] Memory required for data: 989547552
I0601 11:12:04.036893 28806 layer_factory.hpp:77] Creating layer conv4_3_norm_mbox_conf
I0601 11:12:04.036909 28806 net.cpp:100] Creating Layer conv4_3_norm_mbox_conf
I0601 11:12:04.036914 28806 net.cpp:434] conv4_3_norm_mbox_conf <- conv4_3_norm_conv4_3_norm_0_split_1
I0601 11:12:04.036921 28806 net.cpp:408] conv4_3_norm_mbox_conf -> conv4_3_norm_mbox_conf
I0601 11:12:04.037411 28806 net.cpp:150] Setting up conv4_3_norm_mbox_conf
I0601 11:12:04.037418 28806 net.cpp:157] Top shape: 4 16 38 38 (92416)
I0601 11:12:04.037422 28806 net.cpp:165] Memory required for data: 989917216
I0601 11:12:04.037430 28806 layer_factory.hpp:77] Creating layer conv4_3_norm_mbox_conf_perm
I0601 11:12:04.037436 28806 net.cpp:100] Creating Layer conv4_3_norm_mbox_conf_perm
I0601 11:12:04.037441 28806 net.cpp:434] conv4_3_norm_mbox_conf_perm <- conv4_3_norm_mbox_conf
I0601 11:12:04.037464 28806 net.cpp:408] conv4_3_norm_mbox_conf_perm -> conv4_3_norm_mbox_conf_perm
I0601 11:12:04.037542 28806 net.cpp:150] Setting up conv4_3_norm_mbox_conf_perm
I0601 11:12:04.037549 28806 net.cpp:157] Top shape: 4 38 38 16 (92416)
I0601 11:12:04.037552 28806 net.cpp:165] Memory required for data: 990286880
I0601 11:12:04.037556 28806 layer_factory.hpp:77] Creating layer conv4_3_norm_mbox_conf_flat
I0601 11:12:04.037561 28806 net.cpp:100] Creating Layer conv4_3_norm_mbox_conf_flat
I0601 11:12:04.037565 28806 net.cpp:434] conv4_3_norm_mbox_conf_flat <- conv4_3_norm_mbox_conf_perm
I0601 11:12:04.037572 28806 net.cpp:408] conv4_3_norm_mbox_conf_flat -> conv4_3_norm_mbox_conf_flat
I0601 11:12:04.037596 28806 net.cpp:150] Setting up conv4_3_norm_mbox_conf_flat
I0601 11:12:04.037602 28806 net.cpp:157] Top shape: 4 23104 (92416)
I0601 11:12:04.037606 28806 net.cpp:165] Memory required for data: 990656544
I0601 11:12:04.037608 28806 layer_factory.hpp:77] Creating layer conv4_3_norm_mbox_priorbox
I0601 11:12:04.037616 28806 net.cpp:100] Creating Layer conv4_3_norm_mbox_priorbox
I0601 11:12:04.037621 28806 net.cpp:434] conv4_3_norm_mbox_priorbox <- conv4_3_norm_conv4_3_norm_0_split_2
I0601 11:12:04.037626 28806 net.cpp:434] conv4_3_norm_mbox_priorbox <- data_data_0_split_1
I0601 11:12:04.037633 28806 net.cpp:408] conv4_3_norm_mbox_priorbox -> conv4_3_norm_mbox_priorbox
I0601 11:12:04.037657 28806 net.cpp:150] Setting up conv4_3_norm_mbox_priorbox
I0601 11:12:04.037663 28806 net.cpp:157] Top shape: 1 2 23104 (46208)
I0601 11:12:04.037668 28806 net.cpp:165] Memory required for data: 990841376
I0601 11:12:04.037672 28806 layer_factory.hpp:77] Creating layer fc7_mbox_loc
I0601 11:12:04.037681 28806 net.cpp:100] Creating Layer fc7_mbox_loc
I0601 11:12:04.037685 28806 net.cpp:434] fc7_mbox_loc <- fc7_relu7_0_split_1
I0601 11:12:04.037693 28806 net.cpp:408] fc7_mbox_loc -> fc7_mbox_loc
I0601 11:12:04.038763 28806 net.cpp:150] Setting up fc7_mbox_loc
I0601 11:12:04.038779 28806 net.cpp:157] Top shape: 4 24 19 19 (34656)
I0601 11:12:04.038782 28806 net.cpp:165] Memory required for data: 990980000
I0601 11:12:04.038789 28806 layer_factory.hpp:77] Creating layer fc7_mbox_loc_perm
I0601 11:12:04.038796 28806 net.cpp:100] Creating Layer fc7_mbox_loc_perm
I0601 11:12:04.038802 28806 net.cpp:434] fc7_mbox_loc_perm <- fc7_mbox_loc
I0601 11:12:04.038808 28806 net.cpp:408] fc7_mbox_loc_perm -> fc7_mbox_loc_perm
I0601 11:12:04.038898 28806 net.cpp:150] Setting up fc7_mbox_loc_perm
I0601 11:12:04.038905 28806 net.cpp:157] Top shape: 4 19 19 24 (34656)
I0601 11:12:04.038909 28806 net.cpp:165] Memory required for data: 991118624
I0601 11:12:04.038913 28806 layer_factory.hpp:77] Creating layer fc7_mbox_loc_flat
I0601 11:12:04.038918 28806 net.cpp:100] Creating Layer fc7_mbox_loc_flat
I0601 11:12:04.038923 28806 net.cpp:434] fc7_mbox_loc_flat <- fc7_mbox_loc_perm
I0601 11:12:04.038930 28806 net.cpp:408] fc7_mbox_loc_flat -> fc7_mbox_loc_flat
I0601 11:12:04.038951 28806 net.cpp:150] Setting up fc7_mbox_loc_flat
I0601 11:12:04.038957 28806 net.cpp:157] Top shape: 4 8664 (34656)
I0601 11:12:04.038960 28806 net.cpp:165] Memory required for data: 991257248
I0601 11:12:04.038964 28806 layer_factory.hpp:77] Creating layer fc7_mbox_conf
I0601 11:12:04.038974 28806 net.cpp:100] Creating Layer fc7_mbox_conf
I0601 11:12:04.038977 28806 net.cpp:434] fc7_mbox_conf <- fc7_relu7_0_split_2
I0601 11:12:04.038985 28806 net.cpp:408] fc7_mbox_conf -> fc7_mbox_conf
I0601 11:12:04.040045 28806 net.cpp:150] Setting up fc7_mbox_conf
I0601 11:12:04.040051 28806 net.cpp:157] Top shape: 4 24 19 19 (34656)
I0601 11:12:04.040055 28806 net.cpp:165] Memory required for data: 991395872
I0601 11:12:04.040061 28806 layer_factory.hpp:77] Creating layer fc7_mbox_conf_perm
I0601 11:12:04.040071 28806 net.cpp:100] Creating Layer fc7_mbox_conf_perm
I0601 11:12:04.040076 28806 net.cpp:434] fc7_mbox_conf_perm <- fc7_mbox_conf
I0601 11:12:04.040081 28806 net.cpp:408] fc7_mbox_conf_perm -> fc7_mbox_conf_perm
I0601 11:12:04.040156 28806 net.cpp:150] Setting up fc7_mbox_conf_perm
I0601 11:12:04.040163 28806 net.cpp:157] Top shape: 4 19 19 24 (34656)
I0601 11:12:04.040166 28806 net.cpp:165] Memory required for data: 991534496
I0601 11:12:04.040170 28806 layer_factory.hpp:77] Creating layer fc7_mbox_conf_flat
I0601 11:12:04.040176 28806 net.cpp:100] Creating Layer fc7_mbox_conf_flat
I0601 11:12:04.040181 28806 net.cpp:434] fc7_mbox_conf_flat <- fc7_mbox_conf_perm
I0601 11:12:04.040187 28806 net.cpp:408] fc7_mbox_conf_flat -> fc7_mbox_conf_flat
I0601 11:12:04.040208 28806 net.cpp:150] Setting up fc7_mbox_conf_flat
I0601 11:12:04.040213 28806 net.cpp:157] Top shape: 4 8664 (34656)
I0601 11:12:04.040217 28806 net.cpp:165] Memory required for data: 991673120
I0601 11:12:04.040221 28806 layer_factory.hpp:77] Creating layer fc7_mbox_priorbox
I0601 11:12:04.040230 28806 net.cpp:100] Creating Layer fc7_mbox_priorbox
I0601 11:12:04.040233 28806 net.cpp:434] fc7_mbox_priorbox <- fc7_relu7_0_split_3
I0601 11:12:04.040240 28806 net.cpp:434] fc7_mbox_priorbox <- data_data_0_split_2
I0601 11:12:04.040246 28806 net.cpp:408] fc7_mbox_priorbox -> fc7_mbox_priorbox
I0601 11:12:04.040268 28806 net.cpp:150] Setting up fc7_mbox_priorbox
I0601 11:12:04.040276 28806 net.cpp:157] Top shape: 1 2 8664 (17328)
I0601 11:12:04.040279 28806 net.cpp:165] Memory required for data: 991742432
I0601 11:12:04.040282 28806 layer_factory.hpp:77] Creating layer conv6_2_mbox_loc
I0601 11:12:04.040292 28806 net.cpp:100] Creating Layer conv6_2_mbox_loc
I0601 11:12:04.040297 28806 net.cpp:434] conv6_2_mbox_loc <- conv6_2_conv6_2_relu_0_split_1
I0601 11:12:04.040307 28806 net.cpp:408] conv6_2_mbox_loc -> conv6_2_mbox_loc
I0601 11:12:04.040930 28806 net.cpp:150] Setting up conv6_2_mbox_loc
I0601 11:12:04.040937 28806 net.cpp:157] Top shape: 4 24 10 10 (9600)
I0601 11:12:04.040941 28806 net.cpp:165] Memory required for data: 991780832
I0601 11:12:04.040948 28806 layer_factory.hpp:77] Creating layer conv6_2_mbox_loc_perm
I0601 11:12:04.040962 28806 net.cpp:100] Creating Layer conv6_2_mbox_loc_perm
I0601 11:12:04.040967 28806 net.cpp:434] conv6_2_mbox_loc_perm <- conv6_2_mbox_loc
I0601 11:12:04.040974 28806 net.cpp:408] conv6_2_mbox_loc_perm -> conv6_2_mbox_loc_perm
I0601 11:12:04.041051 28806 net.cpp:150] Setting up conv6_2_mbox_loc_perm
I0601 11:12:04.041059 28806 net.cpp:157] Top shape: 4 10 10 24 (9600)
I0601 11:12:04.041061 28806 net.cpp:165] Memory required for data: 991819232
I0601 11:12:04.041065 28806 layer_factory.hpp:77] Creating layer conv6_2_mbox_loc_flat
I0601 11:12:04.041072 28806 net.cpp:100] Creating Layer conv6_2_mbox_loc_flat
I0601 11:12:04.041077 28806 net.cpp:434] conv6_2_mbox_loc_flat <- conv6_2_mbox_loc_perm
I0601 11:12:04.041084 28806 net.cpp:408] conv6_2_mbox_loc_flat -> conv6_2_mbox_loc_flat
I0601 11:12:04.041105 28806 net.cpp:150] Setting up conv6_2_mbox_loc_flat
I0601 11:12:04.041110 28806 net.cpp:157] Top shape: 4 2400 (9600)
I0601 11:12:04.041113 28806 net.cpp:165] Memory required for data: 991857632
I0601 11:12:04.041116 28806 layer_factory.hpp:77] Creating layer conv6_2_mbox_conf
I0601 11:12:04.041126 28806 net.cpp:100] Creating Layer conv6_2_mbox_conf
I0601 11:12:04.041131 28806 net.cpp:434] conv6_2_mbox_conf <- conv6_2_conv6_2_relu_0_split_2
I0601 11:12:04.041137 28806 net.cpp:408] conv6_2_mbox_conf -> conv6_2_mbox_conf
I0601 11:12:04.041749 28806 net.cpp:150] Setting up conv6_2_mbox_conf
I0601 11:12:04.041756 28806 net.cpp:157] Top shape: 4 24 10 10 (9600)
I0601 11:12:04.041760 28806 net.cpp:165] Memory required for data: 991896032
I0601 11:12:04.041766 28806 layer_factory.hpp:77] Creating layer conv6_2_mbox_conf_perm
I0601 11:12:04.041774 28806 net.cpp:100] Creating Layer conv6_2_mbox_conf_perm
I0601 11:12:04.041779 28806 net.cpp:434] conv6_2_mbox_conf_perm <- conv6_2_mbox_conf
I0601 11:12:04.041785 28806 net.cpp:408] conv6_2_mbox_conf_perm -> conv6_2_mbox_conf_perm
I0601 11:12:04.041859 28806 net.cpp:150] Setting up conv6_2_mbox_conf_perm
I0601 11:12:04.041867 28806 net.cpp:157] Top shape: 4 10 10 24 (9600)
I0601 11:12:04.041869 28806 net.cpp:165] Memory required for data: 991934432
I0601 11:12:04.041873 28806 layer_factory.hpp:77] Creating layer conv6_2_mbox_conf_flat
I0601 11:12:04.041878 28806 net.cpp:100] Creating Layer conv6_2_mbox_conf_flat
I0601 11:12:04.041883 28806 net.cpp:434] conv6_2_mbox_conf_flat <- conv6_2_mbox_conf_perm
I0601 11:12:04.041889 28806 net.cpp:408] conv6_2_mbox_conf_flat -> conv6_2_mbox_conf_flat
I0601 11:12:04.041911 28806 net.cpp:150] Setting up conv6_2_mbox_conf_flat
I0601 11:12:04.041916 28806 net.cpp:157] Top shape: 4 2400 (9600)
I0601 11:12:04.041919 28806 net.cpp:165] Memory required for data: 991972832
I0601 11:12:04.041923 28806 layer_factory.hpp:77] Creating layer conv6_2_mbox_priorbox
I0601 11:12:04.041929 28806 net.cpp:100] Creating Layer conv6_2_mbox_priorbox
I0601 11:12:04.041934 28806 net.cpp:434] conv6_2_mbox_priorbox <- conv6_2_conv6_2_relu_0_split_3
I0601 11:12:04.041939 28806 net.cpp:434] conv6_2_mbox_priorbox <- data_data_0_split_3
I0601 11:12:04.041946 28806 net.cpp:408] conv6_2_mbox_priorbox -> conv6_2_mbox_priorbox
I0601 11:12:04.041970 28806 net.cpp:150] Setting up conv6_2_mbox_priorbox
I0601 11:12:04.041975 28806 net.cpp:157] Top shape: 1 2 2400 (4800)
I0601 11:12:04.041978 28806 net.cpp:165] Memory required for data: 991992032
I0601 11:12:04.041981 28806 layer_factory.hpp:77] Creating layer conv7_2_mbox_loc
I0601 11:12:04.041991 28806 net.cpp:100] Creating Layer conv7_2_mbox_loc
I0601 11:12:04.041996 28806 net.cpp:434] conv7_2_mbox_loc <- conv7_2_conv7_2_relu_0_split_1
I0601 11:12:04.042003 28806 net.cpp:408] conv7_2_mbox_loc -> conv7_2_mbox_loc
I0601 11:12:04.042400 28806 net.cpp:150] Setting up conv7_2_mbox_loc
I0601 11:12:04.042407 28806 net.cpp:157] Top shape: 4 24 5 5 (2400)
I0601 11:12:04.042412 28806 net.cpp:165] Memory required for data: 992001632
I0601 11:12:04.042418 28806 layer_factory.hpp:77] Creating layer conv7_2_mbox_loc_perm
I0601 11:12:04.042424 28806 net.cpp:100] Creating Layer conv7_2_mbox_loc_perm
I0601 11:12:04.042429 28806 net.cpp:434] conv7_2_mbox_loc_perm <- conv7_2_mbox_loc
I0601 11:12:04.042443 28806 net.cpp:408] conv7_2_mbox_loc_perm -> conv7_2_mbox_loc_perm
I0601 11:12:04.042528 28806 net.cpp:150] Setting up conv7_2_mbox_loc_perm
I0601 11:12:04.042536 28806 net.cpp:157] Top shape: 4 5 5 24 (2400)
I0601 11:12:04.042538 28806 net.cpp:165] Memory required for data: 992011232
I0601 11:12:04.042542 28806 layer_factory.hpp:77] Creating layer conv7_2_mbox_loc_flat
I0601 11:12:04.042548 28806 net.cpp:100] Creating Layer conv7_2_mbox_loc_flat
I0601 11:12:04.042553 28806 net.cpp:434] conv7_2_mbox_loc_flat <- conv7_2_mbox_loc_perm
I0601 11:12:04.042560 28806 net.cpp:408] conv7_2_mbox_loc_flat -> conv7_2_mbox_loc_flat
I0601 11:12:04.042582 28806 net.cpp:150] Setting up conv7_2_mbox_loc_flat
I0601 11:12:04.042587 28806 net.cpp:157] Top shape: 4 600 (2400)
I0601 11:12:04.042590 28806 net.cpp:165] Memory required for data: 992020832
I0601 11:12:04.042594 28806 layer_factory.hpp:77] Creating layer conv7_2_mbox_conf
I0601 11:12:04.042603 28806 net.cpp:100] Creating Layer conv7_2_mbox_conf
I0601 11:12:04.042608 28806 net.cpp:434] conv7_2_mbox_conf <- conv7_2_conv7_2_relu_0_split_2
I0601 11:12:04.042615 28806 net.cpp:408] conv7_2_mbox_conf -> conv7_2_mbox_conf
I0601 11:12:04.043014 28806 net.cpp:150] Setting up conv7_2_mbox_conf
I0601 11:12:04.043020 28806 net.cpp:157] Top shape: 4 24 5 5 (2400)
I0601 11:12:04.043025 28806 net.cpp:165] Memory required for data: 992030432
I0601 11:12:04.043030 28806 layer_factory.hpp:77] Creating layer conv7_2_mbox_conf_perm
I0601 11:12:04.043037 28806 net.cpp:100] Creating Layer conv7_2_mbox_conf_perm
I0601 11:12:04.043042 28806 net.cpp:434] conv7_2_mbox_conf_perm <- conv7_2_mbox_conf
I0601 11:12:04.043051 28806 net.cpp:408] conv7_2_mbox_conf_perm -> conv7_2_mbox_conf_perm
I0601 11:12:04.043128 28806 net.cpp:150] Setting up conv7_2_mbox_conf_perm
I0601 11:12:04.043134 28806 net.cpp:157] Top shape: 4 5 5 24 (2400)
I0601 11:12:04.043138 28806 net.cpp:165] Memory required for data: 992040032
I0601 11:12:04.043140 28806 layer_factory.hpp:77] Creating layer conv7_2_mbox_conf_flat
I0601 11:12:04.043146 28806 net.cpp:100] Creating Layer conv7_2_mbox_conf_flat
I0601 11:12:04.043151 28806 net.cpp:434] conv7_2_mbox_conf_flat <- conv7_2_mbox_conf_perm
I0601 11:12:04.043159 28806 net.cpp:408] conv7_2_mbox_conf_flat -> conv7_2_mbox_conf_flat
I0601 11:12:04.043180 28806 net.cpp:150] Setting up conv7_2_mbox_conf_flat
I0601 11:12:04.043185 28806 net.cpp:157] Top shape: 4 600 (2400)
I0601 11:12:04.043190 28806 net.cpp:165] Memory required for data: 992049632
I0601 11:12:04.043192 28806 layer_factory.hpp:77] Creating layer conv7_2_mbox_priorbox
I0601 11:12:04.043200 28806 net.cpp:100] Creating Layer conv7_2_mbox_priorbox
I0601 11:12:04.043205 28806 net.cpp:434] conv7_2_mbox_priorbox <- conv7_2_conv7_2_relu_0_split_3
I0601 11:12:04.043210 28806 net.cpp:434] conv7_2_mbox_priorbox <- data_data_0_split_4
I0601 11:12:04.043218 28806 net.cpp:408] conv7_2_mbox_priorbox -> conv7_2_mbox_priorbox
I0601 11:12:04.043241 28806 net.cpp:150] Setting up conv7_2_mbox_priorbox
I0601 11:12:04.043246 28806 net.cpp:157] Top shape: 1 2 600 (1200)
I0601 11:12:04.043249 28806 net.cpp:165] Memory required for data: 992054432
I0601 11:12:04.043253 28806 layer_factory.hpp:77] Creating layer conv8_2_mbox_loc
I0601 11:12:04.043262 28806 net.cpp:100] Creating Layer conv8_2_mbox_loc
I0601 11:12:04.043267 28806 net.cpp:434] conv8_2_mbox_loc <- conv8_2_conv8_2_relu_0_split_1
I0601 11:12:04.043274 28806 net.cpp:408] conv8_2_mbox_loc -> conv8_2_mbox_loc
I0601 11:12:04.043594 28806 net.cpp:150] Setting up conv8_2_mbox_loc
I0601 11:12:04.043601 28806 net.cpp:157] Top shape: 4 16 3 3 (576)
I0601 11:12:04.043604 28806 net.cpp:165] Memory required for data: 992056736
I0601 11:12:04.043619 28806 layer_factory.hpp:77] Creating layer conv8_2_mbox_loc_perm
I0601 11:12:04.043627 28806 net.cpp:100] Creating Layer conv8_2_mbox_loc_perm
I0601 11:12:04.043632 28806 net.cpp:434] conv8_2_mbox_loc_perm <- conv8_2_mbox_loc
I0601 11:12:04.043639 28806 net.cpp:408] conv8_2_mbox_loc_perm -> conv8_2_mbox_loc_perm
I0601 11:12:04.043725 28806 net.cpp:150] Setting up conv8_2_mbox_loc_perm
I0601 11:12:04.043732 28806 net.cpp:157] Top shape: 4 3 3 16 (576)
I0601 11:12:04.043735 28806 net.cpp:165] Memory required for data: 992059040
I0601 11:12:04.043740 28806 layer_factory.hpp:77] Creating layer conv8_2_mbox_loc_flat
I0601 11:12:04.043745 28806 net.cpp:100] Creating Layer conv8_2_mbox_loc_flat
I0601 11:12:04.043751 28806 net.cpp:434] conv8_2_mbox_loc_flat <- conv8_2_mbox_loc_perm
I0601 11:12:04.043757 28806 net.cpp:408] conv8_2_mbox_loc_flat -> conv8_2_mbox_loc_flat
I0601 11:12:04.043779 28806 net.cpp:150] Setting up conv8_2_mbox_loc_flat
I0601 11:12:04.043784 28806 net.cpp:157] Top shape: 4 144 (576)
I0601 11:12:04.043788 28806 net.cpp:165] Memory required for data: 992061344
I0601 11:12:04.043792 28806 layer_factory.hpp:77] Creating layer conv8_2_mbox_conf
I0601 11:12:04.043802 28806 net.cpp:100] Creating Layer conv8_2_mbox_conf
I0601 11:12:04.043805 28806 net.cpp:434] conv8_2_mbox_conf <- conv8_2_conv8_2_relu_0_split_2
I0601 11:12:04.043813 28806 net.cpp:408] conv8_2_mbox_conf -> conv8_2_mbox_conf
I0601 11:12:04.044133 28806 net.cpp:150] Setting up conv8_2_mbox_conf
I0601 11:12:04.044139 28806 net.cpp:157] Top shape: 4 16 3 3 (576)
I0601 11:12:04.044143 28806 net.cpp:165] Memory required for data: 992063648
I0601 11:12:04.044149 28806 layer_factory.hpp:77] Creating layer conv8_2_mbox_conf_perm
I0601 11:12:04.044155 28806 net.cpp:100] Creating Layer conv8_2_mbox_conf_perm
I0601 11:12:04.044160 28806 net.cpp:434] conv8_2_mbox_conf_perm <- conv8_2_mbox_conf
I0601 11:12:04.044167 28806 net.cpp:408] conv8_2_mbox_conf_perm -> conv8_2_mbox_conf_perm
I0601 11:12:04.044246 28806 net.cpp:150] Setting up conv8_2_mbox_conf_perm
I0601 11:12:04.044253 28806 net.cpp:157] Top shape: 4 3 3 16 (576)
I0601 11:12:04.044257 28806 net.cpp:165] Memory required for data: 992065952
I0601 11:12:04.044260 28806 layer_factory.hpp:77] Creating layer conv8_2_mbox_conf_flat
I0601 11:12:04.044265 28806 net.cpp:100] Creating Layer conv8_2_mbox_conf_flat
I0601 11:12:04.044270 28806 net.cpp:434] conv8_2_mbox_conf_flat <- conv8_2_mbox_conf_perm
I0601 11:12:04.044278 28806 net.cpp:408] conv8_2_mbox_conf_flat -> conv8_2_mbox_conf_flat
I0601 11:12:04.044301 28806 net.cpp:150] Setting up conv8_2_mbox_conf_flat
I0601 11:12:04.044307 28806 net.cpp:157] Top shape: 4 144 (576)
I0601 11:12:04.044312 28806 net.cpp:165] Memory required for data: 992068256
I0601 11:12:04.044315 28806 layer_factory.hpp:77] Creating layer conv8_2_mbox_priorbox
I0601 11:12:04.044322 28806 net.cpp:100] Creating Layer conv8_2_mbox_priorbox
I0601 11:12:04.044327 28806 net.cpp:434] conv8_2_mbox_priorbox <- conv8_2_conv8_2_relu_0_split_3
I0601 11:12:04.044332 28806 net.cpp:434] conv8_2_mbox_priorbox <- data_data_0_split_5
I0601 11:12:04.044342 28806 net.cpp:408] conv8_2_mbox_priorbox -> conv8_2_mbox_priorbox
I0601 11:12:04.044364 28806 net.cpp:150] Setting up conv8_2_mbox_priorbox
I0601 11:12:04.044370 28806 net.cpp:157] Top shape: 1 2 144 (288)
I0601 11:12:04.044374 28806 net.cpp:165] Memory required for data: 992069408
I0601 11:12:04.044378 28806 layer_factory.hpp:77] Creating layer conv9_2_mbox_loc
I0601 11:12:04.044387 28806 net.cpp:100] Creating Layer conv9_2_mbox_loc
I0601 11:12:04.044392 28806 net.cpp:434] conv9_2_mbox_loc <- conv9_2_conv9_2_relu_0_split_0
I0601 11:12:04.044399 28806 net.cpp:408] conv9_2_mbox_loc -> conv9_2_mbox_loc
I0601 11:12:04.044718 28806 net.cpp:150] Setting up conv9_2_mbox_loc
I0601 11:12:04.044725 28806 net.cpp:157] Top shape: 4 16 1 1 (64)
I0601 11:12:04.044728 28806 net.cpp:165] Memory required for data: 992069664
I0601 11:12:04.044734 28806 layer_factory.hpp:77] Creating layer conv9_2_mbox_loc_perm
I0601 11:12:04.044742 28806 net.cpp:100] Creating Layer conv9_2_mbox_loc_perm
I0601 11:12:04.044747 28806 net.cpp:434] conv9_2_mbox_loc_perm <- conv9_2_mbox_loc
I0601 11:12:04.044752 28806 net.cpp:408] conv9_2_mbox_loc_perm -> conv9_2_mbox_loc_perm
I0601 11:12:04.044832 28806 net.cpp:150] Setting up conv9_2_mbox_loc_perm
I0601 11:12:04.044839 28806 net.cpp:157] Top shape: 4 1 1 16 (64)
I0601 11:12:04.044848 28806 net.cpp:165] Memory required for data: 992069920
I0601 11:12:04.044852 28806 layer_factory.hpp:77] Creating layer conv9_2_mbox_loc_flat
I0601 11:12:04.044857 28806 net.cpp:100] Creating Layer conv9_2_mbox_loc_flat
I0601 11:12:04.044863 28806 net.cpp:434] conv9_2_mbox_loc_flat <- conv9_2_mbox_loc_perm
I0601 11:12:04.044878 28806 net.cpp:408] conv9_2_mbox_loc_flat -> conv9_2_mbox_loc_flat
I0601 11:12:04.044900 28806 net.cpp:150] Setting up conv9_2_mbox_loc_flat
I0601 11:12:04.044905 28806 net.cpp:157] Top shape: 4 16 (64)
I0601 11:12:04.044909 28806 net.cpp:165] Memory required for data: 992070176
I0601 11:12:04.044914 28806 layer_factory.hpp:77] Creating layer conv9_2_mbox_conf
I0601 11:12:04.044922 28806 net.cpp:100] Creating Layer conv9_2_mbox_conf
I0601 11:12:04.044926 28806 net.cpp:434] conv9_2_mbox_conf <- conv9_2_conv9_2_relu_0_split_1
I0601 11:12:04.044934 28806 net.cpp:408] conv9_2_mbox_conf -> conv9_2_mbox_conf
I0601 11:12:04.045258 28806 net.cpp:150] Setting up conv9_2_mbox_conf
I0601 11:12:04.045265 28806 net.cpp:157] Top shape: 4 16 1 1 (64)
I0601 11:12:04.045269 28806 net.cpp:165] Memory required for data: 992070432
I0601 11:12:04.045274 28806 layer_factory.hpp:77] Creating layer conv9_2_mbox_conf_perm
I0601 11:12:04.045281 28806 net.cpp:100] Creating Layer conv9_2_mbox_conf_perm
I0601 11:12:04.045285 28806 net.cpp:434] conv9_2_mbox_conf_perm <- conv9_2_mbox_conf
I0601 11:12:04.045291 28806 net.cpp:408] conv9_2_mbox_conf_perm -> conv9_2_mbox_conf_perm
I0601 11:12:04.045368 28806 net.cpp:150] Setting up conv9_2_mbox_conf_perm
I0601 11:12:04.045375 28806 net.cpp:157] Top shape: 4 1 1 16 (64)
I0601 11:12:04.045378 28806 net.cpp:165] Memory required for data: 992070688
I0601 11:12:04.045382 28806 layer_factory.hpp:77] Creating layer conv9_2_mbox_conf_flat
I0601 11:12:04.045387 28806 net.cpp:100] Creating Layer conv9_2_mbox_conf_flat
I0601 11:12:04.045393 28806 net.cpp:434] conv9_2_mbox_conf_flat <- conv9_2_mbox_conf_perm
I0601 11:12:04.045399 28806 net.cpp:408] conv9_2_mbox_conf_flat -> conv9_2_mbox_conf_flat
I0601 11:12:04.045420 28806 net.cpp:150] Setting up conv9_2_mbox_conf_flat
I0601 11:12:04.045425 28806 net.cpp:157] Top shape: 4 16 (64)
I0601 11:12:04.045429 28806 net.cpp:165] Memory required for data: 992070944
I0601 11:12:04.045433 28806 layer_factory.hpp:77] Creating layer conv9_2_mbox_priorbox
I0601 11:12:04.045440 28806 net.cpp:100] Creating Layer conv9_2_mbox_priorbox
I0601 11:12:04.045444 28806 net.cpp:434] conv9_2_mbox_priorbox <- conv9_2_conv9_2_relu_0_split_2
I0601 11:12:04.045450 28806 net.cpp:434] conv9_2_mbox_priorbox <- data_data_0_split_6
I0601 11:12:04.045457 28806 net.cpp:408] conv9_2_mbox_priorbox -> conv9_2_mbox_priorbox
I0601 11:12:04.045480 28806 net.cpp:150] Setting up conv9_2_mbox_priorbox
I0601 11:12:04.045485 28806 net.cpp:157] Top shape: 1 2 16 (32)
I0601 11:12:04.045490 28806 net.cpp:165] Memory required for data: 992071072
I0601 11:12:04.045492 28806 layer_factory.hpp:77] Creating layer mbox_loc
I0601 11:12:04.045500 28806 net.cpp:100] Creating Layer mbox_loc
I0601 11:12:04.045506 28806 net.cpp:434] mbox_loc <- conv4_3_norm_mbox_loc_flat
I0601 11:12:04.045512 28806 net.cpp:434] mbox_loc <- fc7_mbox_loc_flat
I0601 11:12:04.045518 28806 net.cpp:434] mbox_loc <- conv6_2_mbox_loc_flat
I0601 11:12:04.045523 28806 net.cpp:434] mbox_loc <- conv7_2_mbox_loc_flat
I0601 11:12:04.045528 28806 net.cpp:434] mbox_loc <- conv8_2_mbox_loc_flat
I0601 11:12:04.045533 28806 net.cpp:434] mbox_loc <- conv9_2_mbox_loc_flat
I0601 11:12:04.045539 28806 net.cpp:408] mbox_loc -> mbox_loc
I0601 11:12:04.045562 28806 net.cpp:150] Setting up mbox_loc
I0601 11:12:04.045568 28806 net.cpp:157] Top shape: 4 34928 (139712)
I0601 11:12:04.045572 28806 net.cpp:165] Memory required for data: 992629920
I0601 11:12:04.045577 28806 layer_factory.hpp:77] Creating layer mbox_conf
I0601 11:12:04.045581 28806 net.cpp:100] Creating Layer mbox_conf
I0601 11:12:04.045586 28806 net.cpp:434] mbox_conf <- conv4_3_norm_mbox_conf_flat
I0601 11:12:04.045593 28806 net.cpp:434] mbox_conf <- fc7_mbox_conf_flat
I0601 11:12:04.045603 28806 net.cpp:434] mbox_conf <- conv6_2_mbox_conf_flat
I0601 11:12:04.045609 28806 net.cpp:434] mbox_conf <- conv7_2_mbox_conf_flat
I0601 11:12:04.045614 28806 net.cpp:434] mbox_conf <- conv8_2_mbox_conf_flat
I0601 11:12:04.045619 28806 net.cpp:434] mbox_conf <- conv9_2_mbox_conf_flat
I0601 11:12:04.045627 28806 net.cpp:408] mbox_conf -> mbox_conf
I0601 11:12:04.045647 28806 net.cpp:150] Setting up mbox_conf
I0601 11:12:04.045653 28806 net.cpp:157] Top shape: 4 34928 (139712)
I0601 11:12:04.045657 28806 net.cpp:165] Memory required for data: 993188768
I0601 11:12:04.045660 28806 layer_factory.hpp:77] Creating layer mbox_priorbox
I0601 11:12:04.045666 28806 net.cpp:100] Creating Layer mbox_priorbox
I0601 11:12:04.045670 28806 net.cpp:434] mbox_priorbox <- conv4_3_norm_mbox_priorbox
I0601 11:12:04.045676 28806 net.cpp:434] mbox_priorbox <- fc7_mbox_priorbox
I0601 11:12:04.045682 28806 net.cpp:434] mbox_priorbox <- conv6_2_mbox_priorbox
I0601 11:12:04.045686 28806 net.cpp:434] mbox_priorbox <- conv7_2_mbox_priorbox
I0601 11:12:04.045691 28806 net.cpp:434] mbox_priorbox <- conv8_2_mbox_priorbox
I0601 11:12:04.045696 28806 net.cpp:434] mbox_priorbox <- conv9_2_mbox_priorbox
I0601 11:12:04.045702 28806 net.cpp:408] mbox_priorbox -> mbox_priorbox
I0601 11:12:04.045722 28806 net.cpp:150] Setting up mbox_priorbox
I0601 11:12:04.045732 28806 net.cpp:157] Top shape: 1 2 34928 (69856)
I0601 11:12:04.045735 28806 net.cpp:165] Memory required for data: 993468192
I0601 11:12:04.045739 28806 layer_factory.hpp:77] Creating layer mbox_conf_reshape
I0601 11:12:04.045747 28806 net.cpp:100] Creating Layer mbox_conf_reshape
I0601 11:12:04.045750 28806 net.cpp:434] mbox_conf_reshape <- mbox_conf
I0601 11:12:04.045758 28806 net.cpp:408] mbox_conf_reshape -> mbox_conf_reshape
I0601 11:12:04.045786 28806 net.cpp:150] Setting up mbox_conf_reshape
I0601 11:12:04.045792 28806 net.cpp:157] Top shape: 4 8732 4 (139712)
I0601 11:12:04.045795 28806 net.cpp:165] Memory required for data: 994027040
I0601 11:12:04.045799 28806 layer_factory.hpp:77] Creating layer mbox_conf_softmax
I0601 11:12:04.045807 28806 net.cpp:100] Creating Layer mbox_conf_softmax
I0601 11:12:04.045811 28806 net.cpp:434] mbox_conf_softmax <- mbox_conf_reshape
I0601 11:12:04.045817 28806 net.cpp:408] mbox_conf_softmax -> mbox_conf_softmax
I0601 11:12:04.045866 28806 net.cpp:150] Setting up mbox_conf_softmax
I0601 11:12:04.045873 28806 net.cpp:157] Top shape: 4 8732 4 (139712)
I0601 11:12:04.045876 28806 net.cpp:165] Memory required for data: 994585888
I0601 11:12:04.045879 28806 layer_factory.hpp:77] Creating layer mbox_conf_flatten
I0601 11:12:04.045886 28806 net.cpp:100] Creating Layer mbox_conf_flatten
I0601 11:12:04.045891 28806 net.cpp:434] mbox_conf_flatten <- mbox_conf_softmax
I0601 11:12:04.045895 28806 net.cpp:408] mbox_conf_flatten -> mbox_conf_flatten
I0601 11:12:04.045918 28806 net.cpp:150] Setting up mbox_conf_flatten
I0601 11:12:04.045924 28806 net.cpp:157] Top shape: 4 34928 (139712)
I0601 11:12:04.045928 28806 net.cpp:165] Memory required for data: 995144736
I0601 11:12:04.045931 28806 layer_factory.hpp:77] Creating layer detection_out
I0601 11:12:04.045943 28806 net.cpp:100] Creating Layer detection_out
I0601 11:12:04.045946 28806 net.cpp:434] detection_out <- mbox_loc
I0601 11:12:04.045951 28806 net.cpp:434] detection_out <- mbox_conf_flatten
I0601 11:12:04.045955 28806 net.cpp:434] detection_out <- mbox_priorbox
I0601 11:12:04.045964 28806 net.cpp:408] detection_out -> detection_out
I0601 11:12:04.047122 28806 net.cpp:150] Setting up detection_out
I0601 11:12:04.047132 28806 net.cpp:157] Top shape: 1 1 1 7 (7)
I0601 11:12:04.047137 28806 net.cpp:165] Memory required for data: 995144764
I0601 11:12:04.047140 28806 layer_factory.hpp:77] Creating layer detection_eval
I0601 11:12:04.047148 28806 net.cpp:100] Creating Layer detection_eval
I0601 11:12:04.047153 28806 net.cpp:434] detection_eval <- detection_out
I0601 11:12:04.047158 28806 net.cpp:434] detection_eval <- label
I0601 11:12:04.047166 28806 net.cpp:408] detection_eval -> detection_eval
I0601 11:12:04.047888 28806 net.cpp:150] Setting up detection_eval
I0601 11:12:04.047896 28806 net.cpp:157] Top shape: 1 1 4 5 (20)
I0601 11:12:04.047900 28806 net.cpp:165] Memory required for data: 995144844
I0601 11:12:04.047904 28806 net.cpp:228] detection_eval does not need backward computation.
I0601 11:12:04.047909 28806 net.cpp:228] detection_out does not need backward computation.
I0601 11:12:04.047914 28806 net.cpp:228] mbox_conf_flatten does not need backward computation.
I0601 11:12:04.047917 28806 net.cpp:228] mbox_conf_softmax does not need backward computation.
…
