…
        min_scale: 0.3
        max_scale: 1
        min_aspect_ratio: 0.5
        max_aspect_ratio: 2
      }
      sample_constraint {
        min_jaccard_overlap: 0.9
      }
      max_sample: 1
      max_trials: 50
    }
    batch_sampler {
      sampler {
        min_scale: 0.3
        max_scale: 1
        min_aspect_ratio: 0.5
        max_aspect_ratio: 2
      }
      sample_constraint {
        max_jaccard_overlap: 1
      }
      max_sample: 1
      max_trials: 50
    }
    label_map_file: "data/tbs_300x300_HSIL_10x/labelmap_tbs.prototxt"
  }
}
layer {
  name: "conv1_1"
  type: "Convolution"
  bottom: "data"
  top: "conv1_1"
  param {
    lr_mult: 1
    decay_mult: 1
  }
  param {
    lr_mult: 2
    decay_mult: 0
  }
  convolution_param {
    num_output: 64
    pad: 1
    kernel_size: 3
    weight_filler {
      type: "xavier"
    }
    bias_filler {
      type: "constant"
      value: 0
    }
  }
}
layer {
  name: "relu1_1"
  type: "ReLU"
  bottom: "conv1_1"
  top: "conv1_1"
}
layer {
  name: "conv1_2"
  type: "Convolution"
  bottom: "conv1_1"
  top: "conv1_2"
  param {
    lr_mult: 1
    decay_mult: 1
  }
  param {
    lr_mult: 2
    decay_mult: 0
  }
  convolution_param {
    num_output: 64
    pad: 1
    kernel_size: 3
    weight_filler {
      type: "xavier"
    }
    bias_filler {
      type: "constant"
      value: 0
    }
  }
}
layer {
  name: "relu1_2"
  type: "ReLU"
  bottom: "conv1_2"
  top: "conv1_2"
}
layer {
  name: "pool1"
  type: "Pooling"
  bottom: "conv1_2"
  top: "pool1"
  pooling_param {
    pool: MAX
    kernel_size: 2
    stride: 2
  }
}
layer {
  name: "conv2_1"
  type: "Convolution"
  bottom: "pool1"
  top: "conv2_1"
  param {
    lr_mult: 1
    decay_mult: 1
  }
  param {
    lr_mult: 2
    decay_mult: 0
  }
  convolution_param {
    num_output: 128
    pad: 1
    kernel_size: 3
    weight_filler {
      type: "xavier"
    }
    bias_filler {
      type: "constant"
      value: 0
    }
  }
}
layer {
  name: "relu2_1"
  type: "ReLU"
  bottom: "conv2_1"
  top: "conv2_1"
}
layer {
  name: "conv2_2"
  type: "Convolution"
  bottom: "conv2_1"
  top: "conv2_2"
  param {
    lr_mult: 1
    decay_mult: 1
  }
  param {
    lr_mult: 2
    decay_mult: 0
  }
  convolution_param {
    num_output: 128
    pad: 1
    kernel_size: 3
    weight_filler {
      type: "xavier"
    }
    bias_filler {
      type: "constant"
      value: 0
    }
  }
}
layer {
  name: "relu2_2"
  type: "ReLU"
  bottom: "conv2_2"
  top: "conv2_2"
}
layer {
  name: "pool2"
  type: "Pooling"
  bottom: "conv2_2"
  top: "pool2"
  pooling_param {
    pool: MAX
    kernel_size: 2
    stride: 2
  }
}
layer {
  name: "conv3_1"
  type: "Convolution"
  bottom: "pool2"
  top: "conv3_1"
  param {
    lr_mult: 1
    decay_mult: 1
  }
  param {
    lr_mult: 2
    decay_mult: 0
  }
  convolution_param {
    num_output: 256
    pad: 1
    kernel_size: 3
    weight_filler {
      type: "xavier"
    }
    bias_filler {
      type: "constant"
      value: 0
    }
  }
}
layer {
  name: "relu3_1"
  type: "ReLU"
  bottom: "conv3_1"
  top: "conv3_1"
}
layer {
  name: "conv3_2"
  type: "Convolution"
  bottom: "conv3_1"
  top: "conv3_2"
  param {
    lr_mult: 1
    decay_mult: 1
  }
  param {
    lr_mult: 2
    decay_mult: 0
  }
  convolution_param {
    num_output: 256
    pad: 1
    kernel_size: 3
    weight_filler {
      type: "xavier"
    }
    bias_filler {
      type: "constant"
      value: 0
    }
  }
}
layer {
  name: "relu3_2"
  type: "ReLU"
  bottom: "conv3_2"
  top: "conv3_2"
}
layer {
  name: "conv3_3"
  type: "Convolution"
  bottom: "conv3_2"
  top: "conv3_3"
  param {
    lr_mult: 1
    decay_mult: 1
  }
  param {
    lr_mult: 2
    decay_mult: 0
  }
  convolution_param {
    num_output: 256
    pad: 1
    kernel_size: 3
    weight_filler {
      type: "xavier"
    }
    bias_filler {
      type: "constant"
      value: 0
    }
  }
}
layer {
  name: "relu3_3"
  type: "ReLU"
  bottom: "conv3_3"
  top: "conv3_3"
}
layer {
  name: "pool3"
  type: "Pooling"
  bottom: "conv3_3"
  top: "pool3"
  pooling_param {
    pool: MAX
    kernel_size: 2
    stride: 2
  }
}
layer {
  name: "conv4_1"
  type: "Convolution"
  bottom: "pool3"
  top: "conv4_1"
  param {
    lr_mult: 1
    decay_mult: 1
  }
  param {
    lr_mult: 2
    decay_mult: 0
  }
  convolution_param {
    num_output: 512
    pad: 1
    kernel_size: 3
    weight_filler {
      type: "xavier"
    }
    bias_filler {
      type: "constant"
      value: 0
    }
  }
}
layer {
  name: "relu4_1"
  type: "ReLU"
  bottom: "conv4_1"
  top: "conv4_1"
}
layer {
  name: "conv4_2"
  type: "Convolution"
  bottom: "conv4_1"
  top: "conv4_2"
  param {
    lr_mult: 1
    decay_mult: 1
  }
  param {
    lr_mult: 2
    decay_mult: 0
  }
  convolution_param {
    num_output: 512
    pad: 1
    kernel_size: 3
    weight_filler {
      type: "xavier"
    }
    bias_filler {
      type: "constant"
      value: 0
    }
  }
}
layer {
  name: "relu4_2"
  type: "ReLU"
  bottom: "conv4_2"
  top: "conv4_2"
}
layer {
  name: "conv4_3"
  type: "Convolution"
  bottom: "conv4_2"
  top: "conv4_3"
  param {
    lr_mult: 1
    decay_mult: 1
  }
  param {
    lr_mult: 2
    decay_mult: 0
  }
  convolution_param {
    num_output: 512
    pad: 1
    kernel_size: 3
    weight_filler {
      type: "xavier"
    }
    bias_filler {
      type: "constant"
      value: 0
    }
  }
}
layer {
  name: "relu4_3"
  type: "ReLU"
  bottom: "conv4_3"
  top: "conv4_3"
}
layer {
  name: "pool4"
  type: "Pooling"
  bottom: "conv4_3"
  top: "pool4"
  pooling_param {
    pool: MAX
    kernel_size: 2
    stride: 2
  }
}
layer {
  name: "conv5_1"
  type: "Convolution"
  bottom: "pool4"
  top: "conv5_1"
  param {
    lr_mult: 1
    decay_mult: 1
  }
  param {
    lr_mult: 2
    decay_mult: 0
  }
  convolution_param {
    num_output: 512
    pad: 1
    kernel_size: 3
    weight_filler {
      type: "xavier"
    }
    bias_filler {
      type: "constant"
      value: 0
    }
    dilation: 1
  }
}
layer {
  name: "relu5_1"
  type: "ReLU"
  bottom: "conv5_1"
  top: "conv5_1"
}
layer {
  name: "conv5_2"
  type: "Convolution"
  bottom: "conv5_1"
  top: "conv5_2"
  param {
    lr_mult: 1
    decay_mult: 1
  }
  param {
    lr_mult: 2
    decay_mult: 0
  }
  convolution_param {
    num_output: 512
    pad: 1
    kernel_size: 3
    weight_filler {
      type: "xavier"
    }
    bias_filler {
      type: "constant"
      value: 0
    }
    dilation: 1
  }
}
layer {
  name: "relu5_2"
  type: "ReLU"
  bottom: "conv5_2"
  top: "conv5_2"
}
layer {
  name: "conv5_3"
  type: "Convolution"
  bottom: "conv5_2"
  top: "conv5_3"
  param {
    lr_mult: 1
    decay_mult: 1
  }
  param {
    lr_mult: 2
    decay_mult: 0
  }
  convolution_param {
    num_output: 512
    pad: 1
    kernel_size: 3
    weight_filler {
      type: "xavier"
    }
    bias_filler {
      type: "constant"
      value: 0
    }
    dilation: 1
  }
}
layer {
  name: "relu5_3"
  type: "ReLU"
  bottom: "conv5_3"
  top: "conv5_3"
}
layer {
  name: "pool5"
  type: "Pooling"
  bottom: "conv5_3"
  top: "pool5"
  pooling_param {
    pool: MAX
    kernel_size: 3
    stride: 1
    pad: 1
  }
}
layer {
  name: "fc6"
  type: "Convolution"
  bottom: "pool5"
  top: "fc6"
  param {
    lr_mult: 1
    decay_mult: 1
  }
  param {
    lr_mult: 2
    decay_mult: 0
  }
  convolution_param {
    num_output: 1024
    pad: 6
    kernel_size: 3
    weight_filler {
      type: "xavier"
    }
    bias_filler {
      type: "constant"
      value: 0
    }
    dilation: 6
  }
}
layer {
  name: "relu6"
  type: "ReLU"
  bottom: "fc6"
  top: "fc6"
}
layer {
  name: "fc7"
  type: "Convolution"
  bottom: "fc6"
  top: "fc7"
  param {
    lr_mult: 1
    decay_mult: 1
  }
  param {
    lr_mult: 2
    decay_mult: 0
  }
  convolution_param {
    num_output: 1024
    kernel_size: 1
    weight_filler {
      type: "xavier"
    }
    bias_filler {
      type: "constant"
      value: 0
    }
  }
}
layer {
  name: "relu7"
  type: "ReLU"
  bottom: "fc7"
  top: "fc7"
}
layer {
  name: "conv6_1"
  type: "Convolution"
  bottom: "fc7"
  top: "conv6_1"
  param {
    lr_mult: 1
    decay_mult: 1
  }
  param {
    lr_mult: 2
    decay_mult: 0
  }
  convolution_param {
    num_output: 256
    pad: 0
    kernel_size: 1
    stride: 1
    weight_filler {
      type: "xavier"
    }
    bias_filler {
      type: "constant"
      value: 0
    }
  }
}
layer {
  name: "conv6_1_relu"
  type: "ReLU"
  bottom: "conv6_1"
  top: "conv6_1"
}
layer {
  name: "conv6_2"
  type: "Convolution"
  bottom: "conv6_1"
  top: "conv6_2"
  param {
    lr_mult: 1
    decay_mult: 1
  }
  param {
    lr_mult: 2
    decay_mult: 0
  }
  convolution_param {
    num_output: 512
    pad: 1
    kernel_size: 3
    stride: 2
    weight_filler {
      type: "xavier"
    }
    bias_filler {
      type: "constant"
      value: 0
    }
  }
}
layer {
  name: "conv6_2_relu"
  type: "ReLU"
  bottom: "conv6_2"
  top: "conv6_2"
}
layer {
  name: "conv7_1"
  type: "Convolution"
  bottom: "conv6_2"
  top: "conv7_1"
  param {
    lr_mult: 1
    decay_mult: 1
  }
  param {
    lr_mult: 2
    decay_mult: 0
  }
  convolution_param {
    num_output: 128
    pad: 0
    kernel_size: 1
    stride: 1
    weight_filler {
      type: "xavier"
    }
    bias_filler {
      type: "constant"
      value: 0
    }
  }
}
layer {
  name: "conv7_1_relu"
  type: "ReLU"
  bottom: "conv7_1"
  top: "conv7_1"
}
layer {
  name: "conv7_2"
  type: "Convolution"
  bottom: "conv7_1"
  top: "conv7_2"
  param {
    lr_mult: 1
    decay_mult: 1
  }
  param {
    lr_mult: 2
    decay_mult: 0
  }
  convolution_param {
    num_output: 256
    pad: 1
    kernel_size: 3
    stride: 2
    weight_filler {
      type: "xavier"
    }
    bias_filler {
      type: "constant"
      value: 0
    }
  }
}
layer {
  name: "conv7_2_relu"
  type: "ReLU"
  bottom: "conv7_2"
  top: "conv7_2"
}
layer {
  name: "conv8_1"
  type: "Convolution"
  bottom: "conv7_2"
  top: "conv8_1"
  param {
    lr_mult: 1
    decay_mult: 1
  }
  param {
    lr_mult: 2
    decay_mult: 0
  }
  convolution_param {
    num_output: 128
    pad: 0
    kernel_size: 1
    stride: 1
    weight_filler {
      type: "xavier"
    }
    bias_filler {
      type: "constant"
      value: 0
    }
  }
}
layer {
  name: "conv8_1_relu"
  type: "ReLU"
  bottom: "conv8_1"
  top: "conv8_1"
}
layer {
  name: "conv8_2"
  type: "Convolution"
  bottom: "conv8_1"
  top: "conv8_2"
  param {
    lr_mult: 1
    decay_mult: 1
  }
  param {
    lr_mult: 2
    decay_mult: 0
  }
  convolution_param {
    num_output: 256
    pad: 0
    kernel_size: 3
    stride: 1
    weight_filler {
      type: "xavier"
    }
    bias_filler {
      type: "constant"
      value: 0
    }
  }
}
layer {
  name: "conv8_2_relu"
  type: "ReLU"
  bottom: "conv8_2"
  top: "conv8_2"
}
layer {
  name: "conv9_1"
  type: "Convolution"
  bottom: "conv8_2"
  top: "conv9_1"
  param {
    lr_mult: 1
    decay_mult: 1
  }
  param {
    lr_mult: 2
    decay_mult: 0
  }
  convolution_param {
    num_output: 128
    pad: 0
    kernel_size: 1
    stride: 1
    weight_filler {
      type: "xavier"
    }
    bias_filler {
      type: "constant"
      value: 0
    }
  }
}
layer {
  name: "conv9_1_relu"
  type: "ReLU"
  bottom: "conv9_1"
  top: "conv9_1"
}
layer {
  name: "conv9_2"
  type: "Convolution"
  bottom: "conv9_1"
  top: "conv9_2"
  param {
    lr_mult: 1
    decay_mult: 1
  }
  param {
    lr_mult: 2
    decay_mult: 0
  }
  convolution_param {
    num_output: 256
    pad: 0
    kernel_size: 3
    stride: 1
    weight_filler {
      type: "xavier"
    }
    bias_filler {
      type: "constant"
      value: 0
    }
  }
}
layer {
  name: "conv9_2_relu"
  type: "ReLU"
  bottom: "conv9_2"
  top: "conv9_2"
}
layer {
  name: "conv4_3_norm"
  type: "Normalize"
  bottom: "conv4_3"
  top: "conv4_3_norm"
  norm_param {
    across_spatial: false
    scale_filler {
      type: "constant"
      value: 20
    }
    channel_shared: false
  }
}
layer {
  name: "conv4_3_norm_mbox_loc"
  type: "Convolution"
  bottom: "conv4_3_norm"
  top: "conv4_3_norm_mbox_loc"
  param {
    lr_mult: 1
    decay_mult: 1
  }
  param {
    lr_mult: 2
    decay_mult: 0
  }
  convolution_param {
    num_output: 16
    pad: 1
    kernel_size: 3
    stride: 1
    weight_filler {
      type: "xavier"
    }
    bias_filler {
      type: "constant"
      value: 0
    }
  }
}
layer {
  name: "conv4_3_norm_mbox_loc_perm"
  type: "Permute"
  bottom: "conv4_3_norm_mbox_loc"
  top: "conv4_3_norm_mbox_loc_perm"
  permute_param {
    order: 0
    order: 2
    order: 3
    order: 1
  }
}
layer {
  name: "conv4_3_norm_mbox_loc_flat"
  type: "Flatten"
  bottom: "conv4_3_norm_mbox_loc_perm"
  top: "conv4_3_norm_mbox_loc_flat"
  flatten_param {
    axis: 1
  }
}
layer {
  name: "conv4_3_norm_mbox_conf"
  type: "Convolution"
  bottom: "conv4_3_norm"
  top: "conv4_3_norm_mbox_conf"
  param {
    lr_mult: 1
    decay_mult: 1
  }
  param {
    lr_mult: 2
    decay_mult: 0
  }
  convolution_param {
    num_output: 16
    pad: 1
    kernel_size: 3
    stride: 1
    weight_filler {
      type: "xavier"
    }
    bias_filler {
      type: "constant"
      value: 0
    }
  }
}
layer {
  name: "conv4_3_norm_mbox_conf_perm"
  type: "Permute"
  bottom: "conv4_3_norm_mbox_conf"
  top: "conv4_3_norm_mbox_conf_perm"
  permute_param {
    order: 0
    order: 2
    order: 3
    order: 1
  }
}
layer {
  name: "conv4_3_norm_mbox_conf_flat"
  type: "Flatten"
  bottom: "conv4_3_norm_mbox_conf_perm"
  top: "conv4_3_norm_mbox_conf_flat"
  flatten_param {
    axis: 1
  }
}
layer {
  name: "conv4_3_norm_mbox_priorbox"
  type: "PriorBox"
  bottom: "conv4_3_norm"
  bottom: "data"
  top: "conv4_3_norm_mbox_priorbox"
  prior_box_param {
    min_size: 30
    max_size: 60
    aspect_ratio: 2
    flip: true
    clip: false
    variance: 0.1
    variance: 0.1
    variance: 0.2
    variance: 0.2
    step: 8
    offset: 0.5
  }
}
layer {
  name: "fc7_mbox_loc"
  type: "Convolution"
  bottom: "fc7"
  top: "fc7_mbox_loc"
  param {
    lr_mult: 1
    decay_mult: 1
  }
  param {
    lr_mult: 2
    decay_mult: 0
  }
  convolution_param {
    num_output: 24
    pad: 1
    kernel_size: 3
    stride: 1
    weight_filler {
      type: "xavier"
    }
    bias_filler {
      type: "constant"
      value: 0
    }
  }
}
layer {
  name: "fc7_mbox_loc_perm"
  type: "Permute"
  bottom: "fc7_mbox_loc"
  top: "fc7_mbox_loc_perm"
  permute_param {
    order: 0
    order: 2
    order: 3
    order: 1
  }
}
layer {
  name: "fc7_mbox_loc_flat"
  type: "Flatten"
  bottom: "fc7_mbox_loc_perm"
  top: "fc7_mbox_loc_flat"
  flatten_param {
    axis: 1
  }
}
layer {
  name: "fc7_mbox_conf"
  type: "Convolution"
  bottom: "fc7"
  top: "fc7_mbox_conf"
  param {
    lr_mult: 1
    decay_mult: 1
  }
  param {
    lr_mult: 2
    decay_mult: 0
  }
  convolution_param {
    num_output: 24
    pad: 1
    kernel_size: 3
    stride: 1
    weight_filler {
      type: "xavier"
    }
    bias_filler {
      type: "constant"
      value: 0
    }
  }
}
layer {
  name: "fc7_mbox_conf_perm"
  type: "Permute"
  bottom: "fc7_mbox_conf"
  top: "fc7_mbox_conf_perm"
  permute_param {
    order: 0
    order: 2
    order: 3
    order: 1
  }
}
layer {
  name: "fc7_mbox_conf_flat"
  type: "Flatten"
  bottom: "fc7_mbox_conf_perm"
  top: "fc7_mbox_conf_flat"
  flatten_param {
    axis: 1
  }
}
layer {
  name: "fc7_mbox_priorbox"
  type: "PriorBox"
  bottom: "fc7"
  bottom: "data"
  top: "fc7_mbox_priorbox"
  prior_box_param {
    min_size: 60
    max_size: 111
    aspect_ratio: 2
    aspect_ratio: 3
    flip: true
    clip: false
    variance: 0.1
    variance: 0.1
    variance: 0.2
    variance: 0.2
    step: 16
    offset: 0.5
  }
}
layer {
  name: "conv6_2_mbox_loc"
  type: "Convolution"
  bottom: "conv6_2"
  top: "conv6_2_mbox_loc"
  param {
    lr_mult: 1
    decay_mult: 1
  }
  param {
    lr_mult: 2
    decay_mult: 0
  }
  convolution_param {
    num_output: 24
    pad: 1
    kernel_size: 3
    stride: 1
    weight_filler {
      type: "xavier"
    }
    bias_filler {
      type: "constant"
      value: 0
    }
  }
}
layer {
  name: "conv6_2_mbox_loc_perm"
  type: "Permute"
  bottom: "conv6_2_mbox_loc"
  top: "conv6_2_mbox_loc_perm"
  permute_param {
    order: 0
    order: 2
    order: 3
    order: 1
  }
}
layer {
  name: "conv6_2_mbox_loc_flat"
  type: "Flatten"
  bottom: "conv6_2_mbox_loc_perm"
  top: "conv6_2_mbox_loc_flat"
  flatten_param {
    axis: 1
  }
}
layer {
  name: "conv6_2_mbox_conf"
  type: "Convolution"
  bottom: "conv6_2"
  top: "conv6_2_mbox_conf"
  param {
    lr_mult: 1
    decay_mult: 1
  }
  param {
    lr_mult: 2
    decay_mult: 0
  }
  convolution_param {
    num_output: 24
    pad: 1
    kernel_size: 3
    stride: 1
    weight_filler {
      type: "xavier"
    }
    bias_filler {
      type: "constant"
      value: 0
    }
  }
}
layer {
  name: "conv6_2_mbox_conf_perm"
  type: "Permute"
  bottom: "conv6_2_mbox_conf"
  top: "conv6_2_mbox_conf_perm"
  permute_param {
    order: 0
    order: 2
    order: 3
    order: 1
  }
}
layer {
  name: "conv6_2_mbox_conf_flat"
  type: "Flatten"
  bottom: "conv6_2_mbox_conf_perm"
  top: "conv6_2_mbox_conf_flat"
  flatten_param {
    axis: 1
  }
}
layer {
  name: "conv6_2_mbox_priorbox"
  type: "PriorBox"
  bottom: "conv6_2"
  bottom: "data"
  top: "conv6_2_mbox_priorbox"
  prior_box_param {
    min_size: 111
    max_size: 162
    aspect_ratio: 2
    aspect_ratio: 3
    flip: true
    clip: false
    variance: 0.1
    variance: 0.1
    variance: 0.2
    variance: 0.2
    step: 32
    offset: 0.5
  }
}
layer {
  name: "conv7_2_mbox_loc"
  type: "Convolution"
  bottom: "conv7_2"
  top: "conv7_2_mbox_loc"
  param {
    lr_mult: 1
    decay_mult: 1
  }
  param {
    lr_mult: 2
    decay_mult: 0
  }
  convolution_param {
    num_output: 24
    pad: 1
    kernel_size: 3
    stride: 1
    weight_filler {
      type: "xavier"
    }
    bias_filler {
      type: "constant"
      value: 0
    }
  }
}
layer {
  name: "conv7_2_mbox_loc_perm"
  type: "Permute"
  bottom: "conv7_2_mbox_loc"
  top: "conv7_2_mbox_loc_perm"
  permute_param {
    order: 0
    order: 2
    order: 3
    order: 1
  }
}
layer {
  name: "conv7_2_mbox_loc_flat"
  type: "Flatten"
  bottom: "conv7_2_mbox_loc_perm"
  top: "conv7_2_mbox_loc_flat"
  flatten_param {
    axis: 1
  }
}
layer {
  name: "conv7_2_mbox_conf"
  type: "Convolution"
  bottom: "conv7_2"
  top: "conv7_2_mbox_conf"
  param {
    lr_mult: 1
    decay_mult: 1
  }
  param {
    lr_mult: 2
    decay_mult: 0
  }
  convolution_param {
    num_output: 24
    pad: 1
    kernel_size: 3
    stride: 1
    weight_filler {
      type: "xavier"
    }
    bias_filler {
      type: "constant"
      value: 0
    }
  }
}
layer {
  name: "conv7_2_mbox_conf_perm"
  type: "Permute"
  bottom: "conv7_2_mbox_conf"
  top: "conv7_2_mbox_conf_perm"
  permute_param {
    order: 0
    order: 2
    order: 3
    order: 1
  }
}
layer {
  name: "conv7_2_mbox_conf_flat"
  type: "Flatten"
  bottom: "conv7_2_mbox_conf_perm"
  top: "conv7_2_mbox_conf_flat"
  flatten_param {
    axis: 1
  }
}
layer {
  name: "conv7_2_mbox_priorbox"
  type: "PriorBox"
  bottom: "conv7_2"
  bottom: "data"
  top: "conv7_2_mbox_priorbox"
  prior_box_param {
    min_size: 162
    max_size: 213
    aspect_ratio: 2
    aspect_ratio: 3
    flip: true
    clip: false
    variance: 0.1
    variance: 0.1
    variance: 0.2
    variance: 0.2
    step: 64
    offset: 0.5
  }
}
layer {
  name: "conv8_2_mbox_loc"
  type: "Convolution"
  bottom: "conv8_2"
  top: "conv8_2_mbox_loc"
  param {
    lr_mult: 1
    decay_mult: 1
  }
  param {
    lr_mult: 2
    decay_mult: 0
  }
  convolution_param {
    num_output: 16
    pad: 1
    kernel_size: 3
    stride: 1
    weight_filler {
      type: "xavier"
    }
    bias_filler {
      type: "constant"
      value: 0
    }
  }
}
layer {
  name: "conv8_2_mbox_loc_perm"
  type: "Permute"
  bottom: "conv8_2_mbox_loc"
  top: "conv8_2_mbox_loc_perm"
  permute_param {
    order: 0
    order: 2
    order: 3
    order: 1
  }
}
layer {
  name: "conv8_2_mbox_loc_flat"
  type: "Flatten"
  bottom: "conv8_2_mbox_loc_perm"
  top: "conv8_2_mbox_loc_flat"
  flatten_param {
    axis: 1
  }
}
layer {
  name: "conv8_2_mbox_conf"
  type: "Convolution"
  bottom: "conv8_2"
  top: "conv8_2_mbox_conf"
  param {
    lr_mult: 1
    decay_mult: 1
  }
  param {
    lr_mult: 2
    decay_mult: 0
  }
  convolution_param {
    num_output: 16
    pad: 1
    kernel_size: 3
    stride: 1
    weight_filler {
      type: "xavier"
    }
    bias_filler {
      type: "constant"
      value: 0
    }
  }
}
layer {
  name: "conv8_2_mbox_conf_perm"
  type: "Permute"
  bottom: "conv8_2_mbox_conf"
  top: "conv8_2_mbox_conf_perm"
  permute_param {
    order: 0
    order: 2
    order: 3
    order: 1
  }
}
layer {
  name: "conv8_2_mbox_conf_flat"
  type: "Flatten"
  bottom: "conv8_2_mbox_conf_perm"
  top: "conv8_2_mbox_conf_flat"
  flatten_param {
    axis: 1
  }
}
layer {
  name: "conv8_2_mbox_priorbox"
  type: "PriorBox"
  bottom: "conv8_2"
  bottom: "data"
  top: "conv8_2_mbox_priorbox"
  prior_box_param {
    min_size: 213
    max_size: 264
    aspect_ratio: 2
    flip: true
    clip: false
    variance: 0.1
    variance: 0.1
    variance: 0.2
    variance: 0.2
    step: 100
    offset: 0.5
  }
}
layer {
  name: "conv9_2_mbox_loc"
  type: "Convolution"
  bottom: "conv9_2"
  top: "conv9_2_mbox_loc"
  param {
    lr_mult: 1
    decay_mult: 1
  }
  param {
    lr_mult: 2
    decay_mult: 0
  }
  convolution_param {
    num_output: 16
    pad: 1
    kernel_size: 3
    stride: 1
    weight_filler {
      type: "xavier"
    }
    bias_filler {
      type: "constant"
      value: 0
    }
  }
}
layer {
  name: "conv9_2_mbox_loc_perm"
  type: "Permute"
  bottom: "conv9_2_mbox_loc"
  top: "conv9_2_mbox_loc_perm"
  permute_param {
    order: 0
    order: 2
    order: 3
    order: 1
  }
}
layer {
  name: "conv9_2_mbox_loc_flat"
  type: "Flatten"
  bottom: "conv9_2_mbox_loc_perm"
  top: "conv9_2_mbox_loc_flat"
  flatten_param {
    axis: 1
  }
}
layer {
  name: "conv9_2_mbox_conf"
  type: "Convolution"
  bottom: "conv9_2"
  top: "conv9_2_mbox_conf"
  param {
    lr_mult: 1
    decay_mult: 1
  }
  param {
    lr_mult: 2
    decay_mult: 0
  }
  convolution_param {
    num_output: 16
    pad: 1
    kernel_size: 3
    stride: 1
    weight_filler {
      type: "xavier"
    }
    bias_filler {
      type: "constant"
      value: 0
    }
  }
}
layer {
  name: "conv9_2_mbox_conf_perm"
  type: "Permute"
  bottom: "conv9_2_mbox_conf"
  top: "conv9_2_mbox_conf_perm"
  permute_param {
    order: 0
    order: 2
    order: 3
    order: 1
  }
}
layer {
  name: "conv9_2_mbox_conf_flat"
  type: "Flatten"
  bottom: "conv9_2_mbox_conf_perm"
  top: "conv9_2_mbox_conf_flat"
  flatten_param {
    axis: 1
  }
}
layer {
  name: "conv9_2_mbox_priorbox"
  type: "PriorBox"
  bottom: "conv9_2"
  bottom: "data"
  top: "conv9_2_mbox_priorbox"
  prior_box_param {
    min_size: 264
    max_size: 315
    aspect_ratio: 2
    flip: true
    clip: false
    variance: 0.1
    variance: 0.1
    variance: 0.2
    variance: 0.2
    step: 300
    offset: 0.5
  }
}
layer {
  name: "mbox_loc"
  type: "Concat"
  bottom: "conv4_3_norm_mbox_loc_flat"
  bottom: "fc7_mbox_loc_flat"
  bottom: "conv6_2_mbox_loc_flat"
  bottom: "conv7_2_mbox_loc_flat"
  bottom: "conv8_2_mbox_loc_flat"
  bottom: "conv9_2_mbox_loc_flat"
  top: "mbox_loc"
  concat_param {
    axis: 1
  }
}
layer {
  name: "mbox_conf"
  type: "Concat"
  bottom: "conv4_3_norm_mbox_conf_flat"
  bottom: "fc7_mbox_conf_flat"
  bottom: "conv6_2_mbox_conf_flat"
  bottom: "conv7_2_mbox_conf_flat"
  bottom: "conv8_2_mbox_conf_flat"
  bottom: "conv9_2_mbox_conf_flat"
  top: "mbox_conf"
  concat_param {
    axis: 1
  }
}
layer {
  name: "mbox_priorbox"
  type: "Concat"
  bottom: "conv4_3_norm_mbox_priorbox"
  bottom: "fc7_mbox_priorbox"
  bottom: "conv6_2_mbox_priorbox"
  bottom: "conv7_2_mbox_priorbox"
  bottom: "conv8_2_mbox_priorbox"
  bottom: "conv9_2_mbox_priorbox"
  top: "mbox_priorbox"
  concat_param {
    axis: 2
  }
}
layer {
  name: "mbox_loss"
  type: "MultiBoxLoss"
  bottom: "mbox_loc"
  bottom: "mbox_conf"
  bottom: "mbox_priorbox"
  bottom: "label"
  top: "mbox_loss"
  include {
    phase: TRAIN
  }
  propagate_down: true
  propagate_down: true
  propagate_down: false
  propagate_down: false
  loss_param {
    normalization: VALID
  }
  multibox_loss_param {
    loc_loss_type: SMOOTH_L1
    conf_loss_type: SOFTMAX
    loc_weight: 1
    num_classes: 4
    share_location: true
    match_type: PER_PREDICTION
    overlap_threshold: 0.5
    use_prior_for_matching: true
    background_label_id: 0
    use_difficult_gt: true
    neg_pos_ratio: 3
    neg_overlap: 0.5
    code_type: CENTER_SIZE
    ignore_cross_boundary_bbox: false
    mining_type: MAX_NEGATIVE
  }
}
I0601 11:46:28.584211 30251 layer_factory.hpp:77] Creating layer data
I0601 11:46:28.584334 30251 net.cpp:100] Creating Layer data
I0601 11:46:28.584344 30251 net.cpp:408] data -> data
I0601 11:46:28.584369 30251 net.cpp:408] data -> label
I0601 11:46:28.584808 30268 db_lmdb.cpp:35] Opened lmdb examples/tbs_300x300_HSIL_10x/tbs_300x300_HSIL_10x_trainval_lmdb
I0601 11:46:28.593343 30251 annotated_data_layer.cpp:62] output data size: 32,3,300,300
I0601 11:46:28.652158 30251 net.cpp:150] Setting up data
I0601 11:46:28.652176 30251 net.cpp:157] Top shape: 32 3 300 300 (8640000)
I0601 11:46:28.652180 30251 net.cpp:157] Top shape: 1 1 1 8 (8)
I0601 11:46:28.652211 30251 net.cpp:165] Memory required for data: 34560032
I0601 11:46:28.652220 30251 layer_factory.hpp:77] Creating layer data_data_0_split
I0601 11:46:28.652228 30251 net.cpp:100] Creating Layer data_data_0_split
I0601 11:46:28.652248 30251 net.cpp:434] data_data_0_split <- data
I0601 11:46:28.652259 30251 net.cpp:408] data_data_0_split -> data_data_0_split_0
I0601 11:46:28.652281 30251 net.cpp:408] data_data_0_split -> data_data_0_split_1
I0601 11:46:28.652285 30251 net.cpp:408] data_data_0_split -> data_data_0_split_2
I0601 11:46:28.652292 30251 net.cpp:408] data_data_0_split -> data_data_0_split_3
I0601 11:46:28.652297 30251 net.cpp:408] data_data_0_split -> data_data_0_split_4
I0601 11:46:28.652300 30251 net.cpp:408] data_data_0_split -> data_data_0_split_5
I0601 11:46:28.652304 30251 net.cpp:408] data_data_0_split -> data_data_0_split_6
I0601 11:46:28.652371 30251 net.cpp:150] Setting up data_data_0_split
I0601 11:46:28.652377 30251 net.cpp:157] Top shape: 32 3 300 300 (8640000)
I0601 11:46:28.652380 30251 net.cpp:157] Top shape: 32 3 300 300 (8640000)
I0601 11:46:28.652396 30251 net.cpp:157] Top shape: 32 3 300 300 (8640000)
I0601 11:46:28.652400 30251 net.cpp:157] Top shape: 32 3 300 300 (8640000)
I0601 11:46:28.652421 30251 net.cpp:157] Top shape: 32 3 300 300 (8640000)
I0601 11:46:28.652426 30251 net.cpp:157] Top shape: 32 3 300 300 (8640000)
I0601 11:46:28.652429 30251 net.cpp:157] Top shape: 32 3 300 300 (8640000)
I0601 11:46:28.652433 30251 net.cpp:165] Memory required for data: 276480032
I0601 11:46:28.652437 30251 layer_factory.hpp:77] Creating layer conv1_1
I0601 11:46:28.652462 30251 net.cpp:100] Creating Layer conv1_1
I0601 11:46:28.652465 30251 net.cpp:434] conv1_1 <- data_data_0_split_0
I0601 11:46:28.652472 30251 net.cpp:408] conv1_1 -> conv1_1
I0601 11:46:28.654417 30251 net.cpp:150] Setting up conv1_1
I0601 11:46:28.654428 30251 net.cpp:157] Top shape: 32 64 300 300 (184320000)
I0601 11:46:28.654444 30251 net.cpp:165] Memory required for data: 1013760032
I0601 11:46:28.654456 30251 layer_factory.hpp:77] Creating layer relu1_1
I0601 11:46:28.654477 30251 net.cpp:100] Creating Layer relu1_1
I0601 11:46:28.654481 30251 net.cpp:434] relu1_1 <- conv1_1
I0601 11:46:28.654485 30251 net.cpp:395] relu1_1 -> conv1_1 (in-place)
I0601 11:46:28.654490 30251 net.cpp:150] Setting up relu1_1
I0601 11:46:28.654494 30251 net.cpp:157] Top shape: 32 64 300 300 (184320000)
I0601 11:46:28.654495 30251 net.cpp:165] Memory required for data: 1751040032
I0601 11:46:28.654497 30251 layer_factory.hpp:77] Creating layer conv1_2
I0601 11:46:28.654520 30251 net.cpp:100] Creating Layer conv1_2
I0601 11:46:28.654527 30251 net.cpp:434] conv1_2 <- conv1_1
I0601 11:46:28.654532 30251 net.cpp:408] conv1_2 -> conv1_2
I0601 11:46:28.666283 30251 net.cpp:150] Setting up conv1_2
I0601 11:46:28.666301 30251 net.cpp:157] Top shape: 32 64 300 300 (184320000)
I0601 11:46:28.666303 30251 net.cpp:165] Memory required for data: 2488320032
I0601 11:46:28.666312 30251 layer_factory.hpp:77] Creating layer relu1_2
I0601 11:46:28.666333 30251 net.cpp:100] Creating Layer relu1_2
I0601 11:46:28.666337 30251 net.cpp:434] relu1_2 <- conv1_2
I0601 11:46:28.666342 30251 net.cpp:395] relu1_2 -> conv1_2 (in-place)
I0601 11:46:28.666348 30251 net.cpp:150] Setting up relu1_2
I0601 11:46:28.666352 30251 net.cpp:157] Top shape: 32 64 300 300 (184320000)
I0601 11:46:28.666354 30251 net.cpp:165] Memory required for data: 3225600032
I0601 11:46:28.666357 30251 layer_factory.hpp:77] Creating layer pool1
I0601 11:46:28.666362 30251 net.cpp:100] Creating Layer pool1
I0601 11:46:28.666363 30251 net.cpp:434] pool1 <- conv1_2
I0601 11:46:28.666368 30251 net.cpp:408] pool1 -> pool1
I0601 11:46:28.666416 30251 net.cpp:150] Setting up pool1
I0601 11:46:28.666421 30251 net.cpp:157] Top shape: 32 64 150 150 (46080000)
I0601 11:46:28.666424 30251 net.cpp:165] Memory required for data: 3409920032
I0601 11:46:28.666425 30251 layer_factory.hpp:77] Creating layer conv2_1
I0601 11:46:28.666432 30251 net.cpp:100] Creating Layer conv2_1
I0601 11:46:28.666445 30251 net.cpp:434] conv2_1 <- pool1
I0601 11:46:28.666450 30251 net.cpp:408] conv2_1 -> conv2_1
I0601 11:46:28.667153 30251 net.cpp:150] Setting up conv2_1
I0601 11:46:28.667160 30251 net.cpp:157] Top shape: 32 128 150 150 (92160000)
I0601 11:46:28.667162 30251 net.cpp:165] Memory required for data: 3778560032
I0601 11:46:28.667181 30251 layer_factory.hpp:77] Creating layer relu2_1
I0601 11:46:28.667186 30251 net.cpp:100] Creating Layer relu2_1
I0601 11:46:28.667204 30251 net.cpp:434] relu2_1 <- conv2_1
I0601 11:46:28.667207 30251 net.cpp:395] relu2_1 -> conv2_1 (in-place)
I0601 11:46:28.667212 30251 net.cpp:150] Setting up relu2_1
I0601 11:46:28.667228 30251 net.cpp:157] Top shape: 32 128 150 150 (92160000)
I0601 11:46:28.667230 30251 net.cpp:165] Memory required for data: 4147200032
I0601 11:46:28.667232 30251 layer_factory.hpp:77] Creating layer conv2_2
I0601 11:46:28.667238 30251 net.cpp:100] Creating Layer conv2_2
I0601 11:46:28.667242 30251 net.cpp:434] conv2_2 <- conv2_1
I0601 11:46:28.667246 30251 net.cpp:408] conv2_2 -> conv2_2
I0601 11:46:28.668169 30251 net.cpp:150] Setting up conv2_2
I0601 11:46:28.668174 30251 net.cpp:157] Top shape: 32 128 150 150 (92160000)
I0601 11:46:28.668177 30251 net.cpp:165] Memory required for data: 4515840032
I0601 11:46:28.668181 30251 layer_factory.hpp:77] Creating layer relu2_2
I0601 11:46:28.668185 30251 net.cpp:100] Creating Layer relu2_2
I0601 11:46:28.668189 30251 net.cpp:434] relu2_2 <- conv2_2
I0601 11:46:28.668191 30251 net.cpp:395] relu2_2 -> conv2_2 (in-place)
I0601 11:46:28.668195 30251 net.cpp:150] Setting up relu2_2
I0601 11:46:28.668197 30251 net.cpp:157] Top shape: 32 128 150 150 (92160000)
I0601 11:46:28.668200 30251 net.cpp:165] Memory required for data: 4884480032
I0601 11:46:28.668202 30251 layer_factory.hpp:77] Creating layer pool2
I0601 11:46:28.668206 30251 net.cpp:100] Creating Layer pool2
I0601 11:46:28.668210 30251 net.cpp:434] pool2 <- conv2_2
I0601 11:46:28.668212 30251 net.cpp:408] pool2 -> pool2
I0601 11:46:28.668236 30251 net.cpp:150] Setting up pool2
I0601 11:46:28.668239 30251 net.cpp:157] Top shape: 32 128 75 75 (23040000)
I0601 11:46:28.668241 30251 net.cpp:165] Memory required for data: 4976640032
I0601 11:46:28.668243 30251 layer_factory.hpp:77] Creating layer conv3_1
I0601 11:46:28.668249 30251 net.cpp:100] Creating Layer conv3_1
I0601 11:46:28.668251 30251 net.cpp:434] conv3_1 <- pool2
I0601 11:46:28.668256 30251 net.cpp:408] conv3_1 -> conv3_1
I0601 11:46:28.670980 30251 net.cpp:150] Setting up conv3_1
I0601 11:46:28.670996 30251 net.cpp:157] Top shape: 32 256 75 75 (46080000)
I0601 11:46:28.670999 30251 net.cpp:165] Memory required for data: 5160960032
I0601 11:46:28.671007 30251 layer_factory.hpp:77] Creating layer relu3_1
I0601 11:46:28.671013 30251 net.cpp:100] Creating Layer relu3_1
I0601 11:46:28.671017 30251 net.cpp:434] relu3_1 <- conv3_1
I0601 11:46:28.671021 30251 net.cpp:395] relu3_1 -> conv3_1 (in-place)
I0601 11:46:28.671030 30251 net.cpp:150] Setting up relu3_1
I0601 11:46:28.671033 30251 net.cpp:157] Top shape: 32 256 75 75 (46080000)
I0601 11:46:28.671036 30251 net.cpp:165] Memory required for data: 5345280032
I0601 11:46:28.671037 30251 layer_factory.hpp:77] Creating layer conv3_2
I0601 11:46:28.671044 30251 net.cpp:100] Creating Layer conv3_2
I0601 11:46:28.671047 30251 net.cpp:434] conv3_2 <- conv3_1
I0601 11:46:28.671052 30251 net.cpp:408] conv3_2 -> conv3_2
I0601 11:46:28.674504 30251 net.cpp:150] Setting up conv3_2
I0601 11:46:28.674516 30251 net.cpp:157] Top shape: 32 256 75 75 (46080000)
I0601 11:46:28.674518 30251 net.cpp:165] Memory required for data: 5529600032
I0601 11:46:28.674523 30251 layer_factory.hpp:77] Creating layer relu3_2
I0601 11:46:28.674528 30251 net.cpp:100] Creating Layer relu3_2
I0601 11:46:28.674530 30251 net.cpp:434] relu3_2 <- conv3_2
I0601 11:46:28.674535 30251 net.cpp:395] relu3_2 -> conv3_2 (in-place)
I0601 11:46:28.674556 30251 net.cpp:150] Setting up relu3_2
I0601 11:46:28.674558 30251 net.cpp:157] Top shape: 32 256 75 75 (46080000)
I0601 11:46:28.674561 30251 net.cpp:165] Memory required for data: 5713920032
I0601 11:46:28.674572 30251 layer_factory.hpp:77] Creating layer conv3_3
I0601 11:46:28.674582 30251 net.cpp:100] Creating Layer conv3_3
I0601 11:46:28.674584 30251 net.cpp:434] conv3_3 <- conv3_2
I0601 11:46:28.674589 30251 net.cpp:408] conv3_3 -> conv3_3
I0601 11:46:28.678161 30251 net.cpp:150] Setting up conv3_3
I0601 11:46:28.678181 30251 net.cpp:157] Top shape: 32 256 75 75 (46080000)
I0601 11:46:28.678184 30251 net.cpp:165] Memory required for data: 5898240032
I0601 11:46:28.678189 30251 layer_factory.hpp:77] Creating layer relu3_3
I0601 11:46:28.678197 30251 net.cpp:100] Creating Layer relu3_3
I0601 11:46:28.678201 30251 net.cpp:434] relu3_3 <- conv3_3
I0601 11:46:28.678205 30251 net.cpp:395] relu3_3 -> conv3_3 (in-place)
I0601 11:46:28.678211 30251 net.cpp:150] Setting up relu3_3
I0601 11:46:28.678215 30251 net.cpp:157] Top shape: 32 256 75 75 (46080000)
I0601 11:46:28.678218 30251 net.cpp:165] Memory required for data: 6082560032
I0601 11:46:28.678220 30251 layer_factory.hpp:77] Creating layer pool3
I0601 11:46:28.678225 30251 net.cpp:100] Creating Layer pool3
I0601 11:46:28.678226 30251 net.cpp:434] pool3 <- conv3_3
I0601 11:46:28.678231 30251 net.cpp:408] pool3 -> pool3
I0601 11:46:28.678258 30251 net.cpp:150] Setting up pool3
I0601 11:46:28.678263 30251 net.cpp:157] Top shape: 32 256 38 38 (11829248)
I0601 11:46:28.678266 30251 net.cpp:165] Memory required for data: 6129877024
I0601 11:46:28.678267 30251 layer_factory.hpp:77] Creating layer conv4_1
I0601 11:46:28.678275 30251 net.cpp:100] Creating Layer conv4_1
I0601 11:46:28.678278 30251 net.cpp:434] conv4_1 <- pool3
I0601 11:46:28.678282 30251 net.cpp:408] conv4_1 -> conv4_1
I0601 11:46:28.685853 30251 net.cpp:150] Setting up conv4_1
I0601 11:46:28.685873 30251 net.cpp:157] Top shape: 32 512 38 38 (23658496)
I0601 11:46:28.685874 30251 net.cpp:165] Memory required for data: 6224511008
I0601 11:46:28.685881 30251 layer_factory.hpp:77] Creating layer relu4_1
I0601 11:46:28.685889 30251 net.cpp:100] Creating Layer relu4_1
I0601 11:46:28.685892 30251 net.cpp:434] relu4_1 <- conv4_1
I0601 11:46:28.685896 30251 net.cpp:395] relu4_1 -> conv4_1 (in-place)
I0601 11:46:28.685904 30251 net.cpp:150] Setting up relu4_1
I0601 11:46:28.685909 30251 net.cpp:157] Top shape: 32 512 38 38 (23658496)
I0601 11:46:28.685909 30251 net.cpp:165] Memory required for data: 6319144992
I0601 11:46:28.685912 30251 layer_factory.hpp:77] Creating layer conv4_2
I0601 11:46:28.685920 30251 net.cpp:100] Creating Layer conv4_2
I0601 11:46:28.685925 30251 net.cpp:434] conv4_2 <- conv4_1
I0601 11:46:28.685930 30251 net.cpp:408] conv4_2 -> conv4_2
I0601 11:46:28.698587 30251 net.cpp:150] Setting up conv4_2
I0601 11:46:28.698604 30251 net.cpp:157] Top shape: 32 512 38 38 (23658496)
I0601 11:46:28.698607 30251 net.cpp:165] Memory required for data: 6413778976
I0601 11:46:28.698632 30251 layer_factory.hpp:77] Creating layer relu4_2
I0601 11:46:28.698653 30251 net.cpp:100] Creating Layer relu4_2
I0601 11:46:28.698657 30251 net.cpp:434] relu4_2 <- conv4_2
I0601 11:46:28.698662 30251 net.cpp:395] relu4_2 -> conv4_2 (in-place)
I0601 11:46:28.698669 30251 net.cpp:150] Setting up relu4_2
I0601 11:46:28.698673 30251 net.cpp:157] Top shape: 32 512 38 38 (23658496)
I0601 11:46:28.698673 30251 net.cpp:165] Memory required for data: 6508412960
I0601 11:46:28.698676 30251 layer_factory.hpp:77] Creating layer conv4_3
I0601 11:46:28.698683 30251 net.cpp:100] Creating Layer conv4_3
I0601 11:46:28.698688 30251 net.cpp:434] conv4_3 <- conv4_2
I0601 11:46:28.698690 30251 net.cpp:408] conv4_3 -> conv4_3
I0601 11:46:28.711458 30251 net.cpp:150] Setting up conv4_3
I0601 11:46:28.711480 30251 net.cpp:157] Top shape: 32 512 38 38 (23658496)
I0601 11:46:28.711483 30251 net.cpp:165] Memory required for data: 6603046944
I0601 11:46:28.711490 30251 layer_factory.hpp:77] Creating layer relu4_3
I0601 11:46:28.711499 30251 net.cpp:100] Creating Layer relu4_3
I0601 11:46:28.711503 30251 net.cpp:434] relu4_3 <- conv4_3
I0601 11:46:28.711508 30251 net.cpp:395] relu4_3 -> conv4_3 (in-place)
I0601 11:46:28.711529 30251 net.cpp:150] Setting up relu4_3
I0601 11:46:28.711532 30251 net.cpp:157] Top shape: 32 512 38 38 (23658496)
I0601 11:46:28.711534 30251 net.cpp:165] Memory required for data: 6697680928
I0601 11:46:28.711537 30251 layer_factory.hpp:77] Creating layer conv4_3_relu4_3_0_split
I0601 11:46:28.711540 30251 net.cpp:100] Creating Layer conv4_3_relu4_3_0_split
I0601 11:46:28.711544 30251 net.cpp:434] conv4_3_relu4_3_0_split <- conv4_3
I0601 11:46:28.711550 30251 net.cpp:408] conv4_3_relu4_3_0_split -> conv4_3_relu4_3_0_split_0
I0601 11:46:28.711558 30251 net.cpp:408] conv4_3_relu4_3_0_split -> conv4_3_relu4_3_0_split_1
I0601 11:46:28.711596 30251 net.cpp:150] Setting up conv4_3_relu4_3_0_split
I0601 11:46:28.711606 30251 net.cpp:157] Top shape: 32 512 38 38 (23658496)
I0601 11:46:28.711609 30251 net.cpp:157] Top shape: 32 512 38 38 (23658496)
I0601 11:46:28.711612 30251 net.cpp:165] Memory required for data: 6886948896
I0601 11:46:28.711616 30251 layer_factory.hpp:77] Creating layer pool4
I0601 11:46:28.711623 30251 net.cpp:100] Creating Layer pool4
I0601 11:46:28.711633 30251 net.cpp:434] pool4 <- conv4_3_relu4_3_0_split_0
I0601 11:46:28.711640 30251 net.cpp:408] pool4 -> pool4
I0601 11:46:28.711675 30251 net.cpp:150] Setting up pool4
I0601 11:46:28.711683 30251 net.cpp:157] Top shape: 32 512 19 19 (5914624)
I0601 11:46:28.711688 30251 net.cpp:165] Memory required for data: 6910607392
I0601 11:46:28.711691 30251 layer_factory.hpp:77] Creating layer conv5_1
I0601 11:46:28.711702 30251 net.cpp:100] Creating Layer conv5_1
I0601 11:46:28.711707 30251 net.cpp:434] conv5_1 <- pool4
I0601 11:46:28.711715 30251 net.cpp:408] conv5_1 -> conv5_1
I0601 11:46:28.724773 30251 net.cpp:150] Setting up conv5_1
I0601 11:46:28.724789 30251 net.cpp:157] Top shape: 32 512 19 19 (5914624)
I0601 11:46:28.724792 30251 net.cpp:165] Memory required for data: 6934265888
I0601 11:46:28.724799 30251 layer_factory.hpp:77] Creating layer relu5_1
I0601 11:46:28.724807 30251 net.cpp:100] Creating Layer relu5_1
I0601 11:46:28.724810 30251 net.cpp:434] relu5_1 <- conv5_1
I0601 11:46:28.724814 30251 net.cpp:395] relu5_1 -> conv5_1 (in-place)
I0601 11:46:28.724822 30251 net.cpp:150] Setting up relu5_1
I0601 11:46:28.724825 30251 net.cpp:157] Top shape: 32 512 19 19 (5914624)
I0601 11:46:28.724828 30251 net.cpp:165] Memory required for data: 6957924384
I0601 11:46:28.724829 30251 layer_factory.hpp:77] Creating layer conv5_2
I0601 11:46:28.724836 30251 net.cpp:100] Creating Layer conv5_2
I0601 11:46:28.724839 30251 net.cpp:434] conv5_2 <- conv5_1
I0601 11:46:28.724845 30251 net.cpp:408] conv5_2 -> conv5_2
I0601 11:46:28.738080 30251 net.cpp:150] Setting up conv5_2
I0601 11:46:28.738102 30251 net.cpp:157] Top shape: 32 512 19 19 (5914624)
I0601 11:46:28.738106 30251 net.cpp:165] Memory required for data: 6981582880
I0601 11:46:28.738111 30251 layer_factory.hpp:77] Creating layer relu5_2
I0601 11:46:28.738119 30251 net.cpp:100] Creating Layer relu5_2
I0601 11:46:28.738137 30251 net.cpp:434] relu5_2 <- conv5_2
I0601 11:46:28.738142 30251 net.cpp:395] relu5_2 -> conv5_2 (in-place)
I0601 11:46:28.738148 30251 net.cpp:150] Setting up relu5_2
I0601 11:46:28.738152 30251 net.cpp:157] Top shape: 32 512 19 19 (5914624)
I0601 11:46:28.738153 30251 net.cpp:165] Memory required for data: 7005241376
I0601 11:46:28.738155 30251 layer_factory.hpp:77] Creating layer conv5_3
I0601 11:46:28.738163 30251 net.cpp:100] Creating Layer conv5_3
I0601 11:46:28.738167 30251 net.cpp:434] conv5_3 <- conv5_2
I0601 11:46:28.738171 30251 net.cpp:408] conv5_3 -> conv5_3
I0601 11:46:28.751361 30251 net.cpp:150] Setting up conv5_3
I0601 11:46:28.751379 30251 net.cpp:157] Top shape: 32 512 19 19 (5914624)
I0601 11:46:28.751380 30251 net.cpp:165] Memory required for data: 7028899872
I0601 11:46:28.751387 30251 layer_factory.hpp:77] Creating layer relu5_3
I0601 11:46:28.751413 30251 net.cpp:100] Creating Layer relu5_3
I0601 11:46:28.751418 30251 net.cpp:434] relu5_3 <- conv5_3
I0601 11:46:28.751436 30251 net.cpp:395] relu5_3 -> conv5_3 (in-place)
I0601 11:46:28.751443 30251 net.cpp:150] Setting up relu5_3
I0601 11:46:28.751458 30251 net.cpp:157] Top shape: 32 512 19 19 (5914624)
I0601 11:46:28.751461 30251 net.cpp:165] Memory required for data: 7052558368
I0601 11:46:28.751463 30251 layer_factory.hpp:77] Creating layer pool5
I0601 11:46:28.751467 30251 net.cpp:100] Creating Layer pool5
I0601 11:46:28.751471 30251 net.cpp:434] pool5 <- conv5_3
I0601 11:46:28.751473 30251 net.cpp:408] pool5 -> pool5
I0601 11:46:28.751504 30251 net.cpp:150] Setting up pool5
I0601 11:46:28.751510 30251 net.cpp:157] Top shape: 32 512 19 19 (5914624)
I0601 11:46:28.751513 30251 net.cpp:165] Memory required for data: 7076216864
I0601 11:46:28.751514 30251 layer_factory.hpp:77] Creating layer fc6
I0601 11:46:28.751521 30251 net.cpp:100] Creating Layer fc6
I0601 11:46:28.751524 30251 net.cpp:434] fc6 <- pool5
I0601 11:46:28.751529 30251 net.cpp:408] fc6 -> fc6
I0601 11:46:28.776563 30251 net.cpp:150] Setting up fc6
I0601 11:46:28.776581 30251 net.cpp:157] Top shape: 32 1024 19 19 (11829248)
I0601 11:46:28.776583 30251 net.cpp:165] Memory required for data: 7123533856
I0601 11:46:28.776590 30251 layer_factory.hpp:77] Creating layer relu6
I0601 11:46:28.776597 30251 net.cpp:100] Creating Layer relu6
I0601 11:46:28.776602 30251 net.cpp:434] relu6 <- fc6
I0601 11:46:28.776607 30251 net.cpp:395] relu6 -> fc6 (in-place)
I0601 11:46:28.776612 30251 net.cpp:150] Setting up relu6
I0601 11:46:28.776617 30251 net.cpp:157] Top shape: 32 1024 19 19 (11829248)
I0601 11:46:28.776618 30251 net.cpp:165] Memory required for data: 7170850848
I0601 11:46:28.776621 30251 layer_factory.hpp:77] Creating layer fc7
I0601 11:46:28.776641 30251 net.cpp:100] Creating Layer fc7
I0601 11:46:28.776644 30251 net.cpp:434] fc7 <- fc6
I0601 11:46:28.776649 30251 net.cpp:408] fc7 -> fc7
I0601 11:46:28.782925 30251 net.cpp:150] Setting up fc7
I0601 11:46:28.782945 30251 net.cpp:157] Top shape: 32 1024 19 19 (11829248)
I0601 11:46:28.782948 30251 net.cpp:165] Memory required for data: 7218167840
I0601 11:46:28.782968 30251 layer_factory.hpp:77] Creating layer relu7
I0601 11:46:28.782975 30251 net.cpp:100] Creating Layer relu7
I0601 11:46:28.782979 30251 net.cpp:434] relu7 <- fc7
I0601 11:46:28.782999 30251 net.cpp:395] relu7 -> fc7 (in-place)
I0601 11:46:28.783005 30251 net.cpp:150] Setting up relu7
I0601 11:46:28.783010 30251 net.cpp:157] Top shape: 32 1024 19 19 (11829248)
I0601 11:46:28.783011 30251 net.cpp:165] Memory required for data: 7265484832
I0601 11:46:28.783013 30251 layer_factory.hpp:77] Creating layer fc7_relu7_0_split
I0601 11:46:28.783017 30251 net.cpp:100] Creating Layer fc7_relu7_0_split
I0601 11:46:28.783020 30251 net.cpp:434] fc7_relu7_0_split <- fc7
I0601 11:46:28.783025 30251 net.cpp:408] fc7_relu7_0_split -> fc7_relu7_0_split_0
I0601 11:46:28.783043 30251 net.cpp:408] fc7_relu7_0_split -> fc7_relu7_0_split_1
I0601 11:46:28.783052 30251 net.cpp:408] fc7_relu7_0_split -> fc7_relu7_0_split_2
I0601 11:46:28.783058 30251 net.cpp:408] fc7_relu7_0_split -> fc7_relu7_0_split_3
I0601 11:46:28.783102 30251 net.cpp:150] Setting up fc7_relu7_0_split
I0601 11:46:28.783121 30251 net.cpp:157] Top shape: 32 1024 19 19 (11829248)
I0601 11:46:28.783124 30251 net.cpp:157] Top shape: 32 1024 19 19 (11829248)
I0601 11:46:28.783128 30251 net.cpp:157] Top shape: 32 1024 19 19 (11829248)
I0601 11:46:28.783130 30251 net.cpp:157] Top shape: 32 1024 19 19 (11829248)
I0601 11:46:28.783131 30251 net.cpp:165] Memory required for data: 7454752800
I0601 11:46:28.783133 30251 layer_factory.hpp:77] Creating layer conv6_1
I0601 11:46:28.783140 30251 net.cpp:100] Creating Layer conv6_1
I0601 11:46:28.783144 30251 net.cpp:434] conv6_1 <- fc7_relu7_0_split_0
I0601 11:46:28.783149 30251 net.cpp:408] conv6_1 -> conv6_1
I0601 11:46:28.785305 30251 net.cpp:150] Setting up conv6_1
I0601 11:46:28.785318 30251 net.cpp:157] Top shape: 32 256 19 19 (2957312)
I0601 11:46:28.785320 30251 net.cpp:165] Memory required for data: 7466582048
I0601 11:46:28.785326 30251 layer_factory.hpp:77] Creating layer conv6_1_relu
I0601 11:46:28.785331 30251 net.cpp:100] Creating Layer conv6_1_relu
I0601 11:46:28.785346 30251 net.cpp:434] conv6_1_relu <- conv6_1
I0601 11:46:28.785351 30251 net.cpp:395] conv6_1_relu -> conv6_1 (in-place)
I0601 11:46:28.785356 30251 net.cpp:150] Setting up conv6_1_relu
I0601 11:46:28.785358 30251 net.cpp:157] Top shape: 32 256 19 19 (2957312)
I0601 11:46:28.785362 30251 net.cpp:165] Memory required for data: 7478411296
I0601 11:46:28.785363 30251 layer_factory.hpp:77] Creating layer conv6_2
I0601 11:46:28.785372 30251 net.cpp:100] Creating Layer conv6_2
I0601 11:46:28.785374 30251 net.cpp:434] conv6_2 <- conv6_1
I0601 11:46:28.785382 30251 net.cpp:408] conv6_2 -> conv6_2
I0601 11:46:28.791939 30251 net.cpp:150] Setting up conv6_2
I0601 11:46:28.791956 30251 net.cpp:157] Top shape: 32 512 10 10 (1638400)
I0601 11:46:28.791959 30251 net.cpp:165] Memory required for data: 7484964896
I0601 11:46:28.791971 30251 layer_factory.hpp:77] Creating layer conv6_2_relu
I0601 11:46:28.791980 30251 net.cpp:100] Creating Layer conv6_2_relu
I0601 11:46:28.791982 30251 net.cpp:434] conv6_2_relu <- conv6_2
I0601 11:46:28.791986 30251 net.cpp:395] conv6_2_relu -> conv6_2 (in-place)
I0601 11:46:28.791993 30251 net.cpp:150] Setting up conv6_2_relu
I0601 11:46:28.791997 30251 net.cpp:157] Top shape: 32 512 10 10 (1638400)
I0601 11:46:28.791999 30251 net.cpp:165] Memory required for data: 7491518496
I0601 11:46:28.792001 30251 layer_factory.hpp:77] Creating layer conv6_2_conv6_2_relu_0_split
I0601 11:46:28.792006 30251 net.cpp:100] Creating Layer conv6_2_conv6_2_relu_0_split
I0601 11:46:28.792009 30251 net.cpp:434] conv6_2_conv6_2_relu_0_split <- conv6_2
I0601 11:46:28.792012 30251 net.cpp:408] conv6_2_conv6_2_relu_0_split -> conv6_2_conv6_2_relu_0_split_0
I0601 11:46:28.792017 30251 net.cpp:408] conv6_2_conv6_2_relu_0_split -> conv6_2_conv6_2_relu_0_split_1
I0601 11:46:28.792024 30251 net.cpp:408] conv6_2_conv6_2_relu_0_split -> conv6_2_conv6_2_relu_0_split_2
I0601 11:46:28.792029 30251 net.cpp:408] conv6_2_conv6_2_relu_0_split -> conv6_2_conv6_2_relu_0_split_3
I0601 11:46:28.792070 30251 net.cpp:150] Setting up conv6_2_conv6_2_relu_0_split
I0601 11:46:28.792075 30251 net.cpp:157] Top shape: 32 512 10 10 (1638400)
I0601 11:46:28.792078 30251 net.cpp:157] Top shape: 32 512 10 10 (1638400)
I0601 11:46:28.792080 30251 net.cpp:157] Top shape: 32 512 10 10 (1638400)
I0601 11:46:28.792083 30251 net.cpp:157] Top shape: 32 512 10 10 (1638400)
I0601 11:46:28.792085 30251 net.cpp:165] Memory required for data: 7517732896
I0601 11:46:28.792088 30251 layer_factory.hpp:77] Creating layer conv7_1
I0601 11:46:28.792096 30251 net.cpp:100] Creating Layer conv7_1
I0601 11:46:28.792099 30251 net.cpp:434] conv7_1 <- conv6_2_conv6_2_relu_0_split_0
I0601 11:46:28.792104 30251 net.cpp:408] conv7_1 -> conv7_1
I0601 11:46:28.792549 30251 net.cpp:150] Setting up conv7_1
I0601 11:46:28.792556 30251 net.cpp:157] Top shape: 32 128 10 10 (409600)
I0601 11:46:28.792557 30251 net.cpp:165] Memory required for data: 7519371296
I0601 11:46:28.792560 30251 layer_factory.hpp:77] Creating layer conv7_1_relu
I0601 11:46:28.792564 30251 net.cpp:100] Creating Layer conv7_1_relu
I0601 11:46:28.792567 30251 net.cpp:434] conv7_1_relu <- conv7_1
I0601 11:46:28.792570 30251 net.cpp:395] conv7_1_relu -> conv7_1 (in-place)
I0601 11:46:28.792574 30251 net.cpp:150] Setting up conv7_1_relu
I0601 11:46:28.792577 30251 net.cpp:157] Top shape: 32 128 10 10 (409600)
I0601 11:46:28.792579 30251 net.cpp:165] Memory required for data: 7521009696
I0601 11:46:28.792582 30251 layer_factory.hpp:77] Creating layer conv7_2
I0601 11:46:28.792585 30251 net.cpp:100] Creating Layer conv7_2
I0601 11:46:28.792587 30251 net.cpp:434] conv7_2 <- conv7_1
I0601 11:46:28.792593 30251 net.cpp:408] conv7_2 -> conv7_2
I0601 11:46:28.794718 30251 net.cpp:150] Setting up conv7_2
I0601 11:46:28.794730 30251 net.cpp:157] Top shape: 32 256 5 5 (204800)
I0601 11:46:28.794734 30251 net.cpp:165] Memory required for data: 7521828896
I0601 11:46:28.794737 30251 layer_factory.hpp:77] Creating layer conv7_2_relu
I0601 11:46:28.794741 30251 net.cpp:100] Creating Layer conv7_2_relu
I0601 11:46:28.794744 30251 net.cpp:434] conv7_2_relu <- conv7_2
I0601 11:46:28.794759 30251 net.cpp:395] conv7_2_relu -> conv7_2 (in-place)
I0601 11:46:28.794765 30251 net.cpp:150] Setting up conv7_2_relu
I0601 11:46:28.794770 30251 net.cpp:157] Top shape: 32 256 5 5 (204800)
I0601 11:46:28.794771 30251 net.cpp:165] Memory required for data: 7522648096
I0601 11:46:28.794775 30251 layer_factory.hpp:77] Creating layer conv7_2_conv7_2_relu_0_split
I0601 11:46:28.794778 30251 net.cpp:100] Creating Layer conv7_2_conv7_2_relu_0_split
I0601 11:46:28.794780 30251 net.cpp:434] conv7_2_conv7_2_relu_0_split <- conv7_2
I0601 11:46:28.794785 30251 net.cpp:408] conv7_2_conv7_2_relu_0_split -> conv7_2_conv7_2_relu_0_split_0
I0601 11:46:28.794790 30251 net.cpp:408] conv7_2_conv7_2_relu_0_split -> conv7_2_conv7_2_relu_0_split_1
I0601 11:46:28.794795 30251 net.cpp:408] conv7_2_conv7_2_relu_0_split -> conv7_2_conv7_2_relu_0_split_2
I0601 11:46:28.794800 30251 net.cpp:408] conv7_2_conv7_2_relu_0_split -> conv7_2_conv7_2_relu_0_split_3
I0601 11:46:28.794842 30251 net.cpp:150] Setting up conv7_2_conv7_2_relu_0_split
I0601 11:46:28.794847 30251 net.cpp:157] Top shape: 32 256 5 5 (204800)
I0601 11:46:28.794849 30251 net.cpp:157] Top shape: 32 256 5 5 (204800)
I0601 11:46:28.794852 30251 net.cpp:157] Top shape: 32 256 5 5 (204800)
I0601 11:46:28.794854 30251 net.cpp:157] Top shape: 32 256 5 5 (204800)
I0601 11:46:28.794857 30251 net.cpp:165] Memory required for data: 7525924896
I0601 11:46:28.794858 30251 layer_factory.hpp:77] Creating layer conv8_1
I0601 11:46:28.794864 30251 net.cpp:100] Creating Layer conv8_1
I0601 11:46:28.794867 30251 net.cpp:434] conv8_1 <- conv7_2_conv7_2_relu_0_split_0
I0601 11:46:28.794875 30251 net.cpp:408] conv8_1 -> conv8_1
I0601 11:46:28.795168 30251 net.cpp:150] Setting up conv8_1
I0601 11:46:28.795174 30251 net.cpp:157] Top shape: 32 128 5 5 (102400)
I0601 11:46:28.795176 30251 net.cpp:165] Memory required for data: 7526334496
I0601 11:46:28.795181 30251 layer_factory.hpp:77] Creating layer conv8_1_relu
I0601 11:46:28.795183 30251 net.cpp:100] Creating Layer conv8_1_relu
I0601 11:46:28.795186 30251 net.cpp:434] conv8_1_relu <- conv8_1
I0601 11:46:28.795188 30251 net.cpp:395] conv8_1_relu -> conv8_1 (in-place)
I0601 11:46:28.795192 30251 net.cpp:150] Setting up conv8_1_relu
I0601 11:46:28.795195 30251 net.cpp:157] Top shape: 32 128 5 5 (102400)
I0601 11:46:28.795197 30251 net.cpp:165] Memory required for data: 7526744096
I0601 11:46:28.795199 30251 layer_factory.hpp:77] Creating layer conv8_2
I0601 11:46:28.795204 30251 net.cpp:100] Creating Layer conv8_2
I0601 11:46:28.795207 30251 net.cpp:434] conv8_2 <- conv8_1
I0601 11:46:28.795212 30251 net.cpp:408] conv8_2 -> conv8_2
I0601 11:46:28.797343 30251 net.cpp:150] Setting up conv8_2
I0601 11:46:28.797354 30251 net.cpp:157] Top shape: 32 256 3 3 (73728)
I0601 11:46:28.797356 30251 net.cpp:165] Memory required for data: 7527039008
I0601 11:46:28.797361 30251 layer_factory.hpp:77] Creating layer conv8_2_relu
I0601 11:46:28.797365 30251 net.cpp:100] Creating Layer conv8_2_relu
I0601 11:46:28.797369 30251 net.cpp:434] conv8_2_relu <- conv8_2
I0601 11:46:28.797372 30251 net.cpp:395] conv8_2_relu -> conv8_2 (in-place)
I0601 11:46:28.797377 30251 net.cpp:150] Setting up conv8_2_relu
I0601 11:46:28.797380 30251 net.cpp:157] Top shape: 32 256 3 3 (73728)
I0601 11:46:28.797382 30251 net.cpp:165] Memory required for data: 7527333920
I0601 11:46:28.797384 30251 layer_factory.hpp:77] Creating layer conv8_2_conv8_2_relu_0_split
I0601 11:46:28.797389 30251 net.cpp:100] Creating Layer conv8_2_conv8_2_relu_0_split
I0601 11:46:28.797390 30251 net.cpp:434] conv8_2_conv8_2_relu_0_split <- conv8_2
I0601 11:46:28.797395 30251 net.cpp:408] conv8_2_conv8_2_relu_0_split -> conv8_2_conv8_2_relu_0_split_0
I0601 11:46:28.797399 30251 net.cpp:408] conv8_2_conv8_2_relu_0_split -> conv8_2_conv8_2_relu_0_split_1
I0601 11:46:28.797407 30251 net.cpp:408] conv8_2_conv8_2_relu_0_split -> conv8_2_conv8_2_relu_0_split_2
I0601 11:46:28.797412 30251 net.cpp:408] conv8_2_conv8_2_relu_0_split -> conv8_2_conv8_2_relu_0_split_3
I0601 11:46:28.799273 30251 net.cpp:150] Setting up conv8_2_conv8_2_relu_0_split
I0601 11:46:28.799281 30251 net.cpp:157] Top shape: 32 256 3 3 (73728)
I0601 11:46:28.799285 30251 net.cpp:157] Top shape: 32 256 3 3 (73728)
I0601 11:46:28.799288 30251 net.cpp:157] Top shape: 32 256 3 3 (73728)
I0601 11:46:28.799291 30251 net.cpp:157] Top shape: 32 256 3 3 (73728)
I0601 11:46:28.799294 30251 net.cpp:165] Memory required for data: 7528513568
I0601 11:46:28.799314 30251 layer_factory.hpp:77] Creating layer conv9_1
I0601 11:46:28.799324 30251 net.cpp:100] Creating Layer conv9_1
I0601 11:46:28.799330 30251 net.cpp:434] conv9_1 <- conv8_2_conv8_2_relu_0_split_0
I0601 11:46:28.799351 30251 net.cpp:408] conv9_1 -> conv9_1
I0601 11:46:28.799798 30251 net.cpp:150] Setting up conv9_1
I0601 11:46:28.799819 30251 net.cpp:157] Top shape: 32 128 3 3 (36864)
I0601 11:46:28.799823 30251 net.cpp:165] Memory required for data: 7528661024
I0601 11:46:28.799829 30251 layer_factory.hpp:77] Creating layer conv9_1_relu
I0601 11:46:28.799835 30251 net.cpp:100] Creating Layer conv9_1_relu
I0601 11:46:28.799854 30251 net.cpp:434] conv9_1_relu <- conv9_1
I0601 11:46:28.799857 30251 net.cpp:395] conv9_1_relu -> conv9_1 (in-place)
I0601 11:46:28.799878 30251 net.cpp:150] Setting up conv9_1_relu
I0601 11:46:28.799882 30251 net.cpp:157] Top shape: 32 128 3 3 (36864)
I0601 11:46:28.799886 30251 net.cpp:165] Memory required for data: 7528808480
I0601 11:46:28.799890 30251 layer_factory.hpp:77] Creating layer conv9_2
I0601 11:46:28.799897 30251 net.cpp:100] Creating Layer conv9_2
I0601 11:46:28.799901 30251 net.cpp:434] conv9_2 <- conv9_1
I0601 11:46:28.799922 30251 net.cpp:408] conv9_2 -> conv9_2
I0601 11:46:28.802131 30251 net.cpp:150] Setting up conv9_2
I0601 11:46:28.802142 30251 net.cpp:157] Top shape: 32 256 1 1 (8192)
I0601 11:46:28.802145 30251 net.cpp:165] Memory required for data: 7528841248
I0601 11:46:28.802152 30251 layer_factory.hpp:77] Creating layer conv9_2_relu
I0601 11:46:28.802160 30251 net.cpp:100] Creating Layer conv9_2_relu
I0601 11:46:28.802165 30251 net.cpp:434] conv9_2_relu <- conv9_2
I0601 11:46:28.802170 30251 net.cpp:395] conv9_2_relu -> conv9_2 (in-place)
I0601 11:46:28.802177 30251 net.cpp:150] Setting up conv9_2_relu
I0601 11:46:28.802186 30251 net.cpp:157] Top shape: 32 256 1 1 (8192)
I0601 11:46:28.802189 30251 net.cpp:165] Memory required for data: 7528874016
I0601 11:46:28.802193 30251 layer_factory.hpp:77] Creating layer conv9_2_conv9_2_relu_0_split
I0601 11:46:28.802199 30251 net.cpp:100] Creating Layer conv9_2_conv9_2_relu_0_split
I0601 11:46:28.802204 30251 net.cpp:434] conv9_2_conv9_2_relu_0_split <- conv9_2
I0601 11:46:28.802212 30251 net.cpp:408] conv9_2_conv9_2_relu_0_split -> conv9_2_conv9_2_relu_0_split_0
I0601 11:46:28.802222 30251 net.cpp:408] conv9_2_conv9_2_relu_0_split -> conv9_2_conv9_2_relu_0_split_1
I0601 11:46:28.802232 30251 net.cpp:408] conv9_2_conv9_2_relu_0_split -> conv9_2_conv9_2_relu_0_split_2
I0601 11:46:28.802275 30251 net.cpp:150] Setting up conv9_2_conv9_2_relu_0_split
I0601 11:46:28.802281 30251 net.cpp:157] Top shape: 32 256 1 1 (8192)
I0601 11:46:28.802284 30251 net.cpp:157] Top shape: 32 256 1 1 (8192)
I0601 11:46:28.802289 30251 net.cpp:157] Top shape: 32 256 1 1 (8192)
I0601 11:46:28.802292 30251 net.cpp:165] Memory required for data: 7528972320
I0601 11:46:28.802295 30251 layer_factory.hpp:77] Creating layer conv4_3_norm
I0601 11:46:28.802304 30251 net.cpp:100] Creating Layer conv4_3_norm
I0601 11:46:28.802309 30251 net.cpp:434] conv4_3_norm <- conv4_3_relu4_3_0_split_1
I0601 11:46:28.802316 30251 net.cpp:408] conv4_3_norm -> conv4_3_norm
I0601 11:46:28.802428 30251 net.cpp:150] Setting up conv4_3_norm
I0601 11:46:28.802434 30251 net.cpp:157] Top shape: 32 512 38 38 (23658496)
I0601 11:46:28.802436 30251 net.cpp:165] Memory required for data: 7623606304
I0601 11:46:28.802441 30251 layer_factory.hpp:77] Creating layer conv4_3_norm_conv4_3_norm_0_split
I0601 11:46:28.802449 30251 net.cpp:100] Creating Layer conv4_3_norm_conv4_3_norm_0_split
I0601 11:46:28.802454 30251 net.cpp:434] conv4_3_norm_conv4_3_norm_0_split <- conv4_3_norm
I0601 11:46:28.802470 30251 net.cpp:408] conv4_3_norm_conv4_3_norm_0_split -> conv4_3_norm_conv4_3_norm_0_split_0
I0601 11:46:28.802480 30251 net.cpp:408] conv4_3_norm_conv4_3_norm_0_split -> conv4_3_norm_conv4_3_norm_0_split_1
I0601 11:46:28.802489 30251 net.cpp:408] conv4_3_norm_conv4_3_norm_0_split -> conv4_3_norm_conv4_3_norm_0_split_2
I0601 11:46:28.802526 30251 net.cpp:150] Setting up conv4_3_norm_conv4_3_norm_0_split
I0601 11:46:28.802531 30251 net.cpp:157] Top shape: 32 512 38 38 (23658496)
I0601 11:46:28.802536 30251 net.cpp:157] Top shape: 32 512 38 38 (23658496)
I0601 11:46:28.802539 30251 net.cpp:157] Top shape: 32 512 38 38 (23658496)
I0601 11:46:28.802544 30251 net.cpp:165] Memory required for data: 7907508256
I0601 11:46:28.802547 30251 layer_factory.hpp:77] Creating layer conv4_3_norm_mbox_loc
I0601 11:46:28.802558 30251 net.cpp:100] Creating Layer conv4_3_norm_mbox_loc
I0601 11:46:28.802563 30251 net.cpp:434] conv4_3_norm_mbox_loc <- conv4_3_norm_conv4_3_norm_0_split_0
I0601 11:46:28.802569 30251 net.cpp:408] conv4_3_norm_mbox_loc -> conv4_3_norm_mbox_loc
I0601 11:46:28.803061 30251 net.cpp:150] Setting up conv4_3_norm_mbox_loc
I0601 11:46:28.803068 30251 net.cpp:157] Top shape: 32 16 38 38 (739328)
I0601 11:46:28.803071 30251 net.cpp:165] Memory required for data: 7910465568
I0601 11:46:28.803076 30251 layer_factory.hpp:77] Creating layer conv4_3_norm_mbox_loc_perm
I0601 11:46:28.803084 30251 net.cpp:100] Creating Layer conv4_3_norm_mbox_loc_perm
I0601 11:46:28.803091 30251 net.cpp:434] conv4_3_norm_mbox_loc_perm <- conv4_3_norm_mbox_loc
I0601 11:46:28.803095 30251 net.cpp:408] conv4_3_norm_mbox_loc_perm -> conv4_3_norm_mbox_loc_perm
I0601 11:46:28.803169 30251 net.cpp:150] Setting up conv4_3_norm_mbox_loc_perm
I0601 11:46:28.803174 30251 net.cpp:157] Top shape: 32 38 38 16 (739328)
I0601 11:46:28.803177 30251 net.cpp:165] Memory required for data: 7913422880
I0601 11:46:28.803180 30251 layer_factory.hpp:77] Creating layer conv4_3_norm_mbox_loc_flat
I0601 11:46:28.803186 30251 net.cpp:100] Creating Layer conv4_3_norm_mbox_loc_flat
I0601 11:46:28.803189 30251 net.cpp:434] conv4_3_norm_mbox_loc_flat <- conv4_3_norm_mbox_loc_perm
I0601 11:46:28.803197 30251 net.cpp:408] conv4_3_norm_mbox_loc_flat -> conv4_3_norm_mbox_loc_flat
I0601 11:46:28.803230 30251 net.cpp:150] Setting up conv4_3_norm_mbox_loc_flat
I0601 11:46:28.803236 30251 net.cpp:157] Top shape: 32 23104 (739328)
I0601 11:46:28.803238 30251 net.cpp:165] Memory required for data: 7916380192
I0601 11:46:28.803242 30251 layer_factory.hpp:77] Creating layer conv4_3_norm_mbox_conf
I0601 11:46:28.803258 30251 net.cpp:100] Creating Layer conv4_3_norm_mbox_conf
I0601 11:46:28.803267 30251 net.cpp:434] conv4_3_norm_mbox_conf <- conv4_3_norm_conv4_3_norm_0_split_1
I0601 11:46:28.803272 30251 net.cpp:408] conv4_3_norm_mbox_conf -> conv4_3_norm_mbox_conf
I0601 11:46:28.803793 30251 net.cpp:150] Setting up conv4_3_norm_mbox_conf
I0601 11:46:28.803802 30251 net.cpp:157] Top shape: 32 16 38 38 (739328)
I0601 11:46:28.803804 30251 net.cpp:165] Memory required for data: 7919337504
I0601 11:46:28.803812 30251 layer_factory.hpp:77] Creating layer conv4_3_norm_mbox_conf_perm
I0601 11:46:28.803819 30251 net.cpp:100] Creating Layer conv4_3_norm_mbox_conf_perm
I0601 11:46:28.803824 30251 net.cpp:434] conv4_3_norm_mbox_conf_perm <- conv4_3_norm_mbox_conf
I0601 11:46:28.803834 30251 net.cpp:408] conv4_3_norm_mbox_conf_perm -> conv4_3_norm_mbox_conf_perm
I0601 11:46:28.803910 30251 net.cpp:150] Setting up conv4_3_norm_mbox_conf_perm
I0601 11:46:28.803917 30251 net.cpp:157] Top shape: 32 38 38 16 (739328)
I0601 11:46:28.803920 30251 net.cpp:165] Memory required for data: 7922294816
I0601 11:46:28.803922 30251 layer_factory.hpp:77] Creating layer conv4_3_norm_mbox_conf_flat
I0601 11:46:28.803928 30251 net.cpp:100] Creating Layer conv4_3_norm_mbox_conf_flat
I0601 11:46:28.803935 30251 net.cpp:434] conv4_3_norm_mbox_conf_flat <- conv4_3_norm_mbox_conf_perm
I0601 11:46:28.803941 30251 net.cpp:408] conv4_3_norm_mbox_conf_flat -> conv4_3_norm_mbox_conf_flat
I0601 11:46:28.803972 30251 net.cpp:150] Setting up conv4_3_norm_mbox_conf_flat
I0601 11:46:28.803977 30251 net.cpp:157] Top shape: 32 23104 (739328)
I0601 11:46:28.803980 30251 net.cpp:165] Memory required for data: 7925252128
I0601 11:46:28.803984 30251 layer_factory.hpp:77] Creating layer conv4_3_norm_mbox_priorbox
I0601 11:46:28.803993 30251 net.cpp:100] Creating Layer conv4_3_norm_mbox_priorbox
I0601 11:46:28.803998 30251 net.cpp:434] conv4_3_norm_mbox_priorbox <- conv4_3_norm_conv4_3_norm_0_split_2
I0601 11:46:28.804004 30251 net.cpp:434] conv4_3_norm_mbox_priorbox <- data_data_0_split_1
I0601 11:46:28.804013 30251 net.cpp:408] conv4_3_norm_mbox_priorbox -> conv4_3_norm_mbox_priorbox
I0601 11:46:28.804039 30251 net.cpp:150] Setting up conv4_3_norm_mbox_priorbox
I0601 11:46:28.804045 30251 net.cpp:157] Top shape: 1 2 23104 (46208)
I0601 11:46:28.804047 30251 net.cpp:165] Memory required for data: 7925436960
I0601 11:46:28.804051 30251 layer_factory.hpp:77] Creating layer fc7_mbox_loc
I0601 11:46:28.804064 30251 net.cpp:100] Creating Layer fc7_mbox_loc
I0601 11:46:28.804069 30251 net.cpp:434] fc7_mbox_loc <- fc7_relu7_0_split_1
I0601 11:46:28.804076 30251 net.cpp:408] fc7_mbox_loc -> fc7_mbox_loc
I0601 11:46:28.805258 30251 net.cpp:150] Setting up fc7_mbox_loc
I0601 11:46:28.805269 30251 net.cpp:157] Top shape: 32 24 19 19 (277248)
I0601 11:46:28.805270 30251 net.cpp:165] Memory required for data: 7926545952
I0601 11:46:28.805276 30251 layer_factory.hpp:77] Creating layer fc7_mbox_loc_perm
I0601 11:46:28.805284 30251 net.cpp:100] Creating Layer fc7_mbox_loc_perm
I0601 11:46:28.805289 30251 net.cpp:434] fc7_mbox_loc_perm <- fc7_mbox_loc
I0601 11:46:28.805296 30251 net.cpp:408] fc7_mbox_loc_perm -> fc7_mbox_loc_perm
I0601 11:46:28.805372 30251 net.cpp:150] Setting up fc7_mbox_loc_perm
I0601 11:46:28.805378 30251 net.cpp:157] Top shape: 32 19 19 24 (277248)
I0601 11:46:28.805382 30251 net.cpp:165] Memory required for data: 7927654944
I0601 11:46:28.805384 30251 layer_factory.hpp:77] Creating layer fc7_mbox_loc_flat
I0601 11:46:28.805390 30251 net.cpp:100] Creating Layer fc7_mbox_loc_flat
I0601 11:46:28.805395 30251 net.cpp:434] fc7_mbox_loc_flat <- fc7_mbox_loc_perm
I0601 11:46:28.805402 30251 net.cpp:408] fc7_mbox_loc_flat -> fc7_mbox_loc_flat
I0601 11:46:28.805423 30251 net.cpp:150] Setting up fc7_mbox_loc_flat
I0601 11:46:28.805429 30251 net.cpp:157] Top shape: 32 8664 (277248)
I0601 11:46:28.805431 30251 net.cpp:165] Memory required for data: 7928763936
I0601 11:46:28.805434 30251 layer_factory.hpp:77] Creating layer fc7_mbox_conf
I0601 11:46:28.805444 30251 net.cpp:100] Creating Layer fc7_mbox_conf
I0601 11:46:28.805449 30251 net.cpp:434] fc7_mbox_conf <- fc7_relu7_0_split_2
I0601 11:46:28.805457 30251 net.cpp:408] fc7_mbox_conf -> fc7_mbox_conf
I0601 11:46:28.806620 30251 net.cpp:150] Setting up fc7_mbox_conf
I0601 11:46:28.806627 30251 net.cpp:157] Top shape: 32 24 19 19 (277248)
I0601 11:46:28.806630 30251 net.cpp:165] Memory required for data: 7929872928
I0601 11:46:28.806635 30251 layer_factory.hpp:77] Creating layer fc7_mbox_conf_perm
I0601 11:46:28.806641 30251 net.cpp:100] Creating Layer fc7_mbox_conf_perm
I0601 11:46:28.806646 30251 net.cpp:434] fc7_mbox_conf_perm <- fc7_mbox_conf
I0601 11:46:28.806654 30251 net.cpp:408] fc7_mbox_conf_perm -> fc7_mbox_conf_perm
I0601 11:46:28.806730 30251 net.cpp:150] Setting up fc7_mbox_conf_perm
I0601 11:46:28.806735 30251 net.cpp:157] Top shape: 32 19 19 24 (277248)
I0601 11:46:28.806738 30251 net.cpp:165] Memory required for data: 7930981920
I0601 11:46:28.806741 30251 layer_factory.hpp:77] Creating layer fc7_mbox_conf_flat
I0601 11:46:28.806747 30251 net.cpp:100] Creating Layer fc7_mbox_conf_flat
I0601 11:46:28.806753 30251 net.cpp:434] fc7_mbox_conf_flat <- fc7_mbox_conf_perm
I0601 11:46:28.806761 30251 net.cpp:408] fc7_mbox_conf_flat -> fc7_mbox_conf_flat
I0601 11:46:28.806782 30251 net.cpp:150] Setting up fc7_mbox_conf_flat
I0601 11:46:28.806788 30251 net.cpp:157] Top shape: 32 8664 (277248)
I0601 11:46:28.806790 30251 net.cpp:165] Memory required for data: 7932090912
I0601 11:46:28.806805 30251 layer_factory.hpp:77] Creating layer fc7_mbox_priorbox
I0601 11:46:28.806814 30251 net.cpp:100] Creating Layer fc7_mbox_priorbox
I0601 11:46:28.806820 30251 net.cpp:434] fc7_mbox_priorbox <- fc7_relu7_0_split_3
I0601 11:46:28.806825 30251 net.cpp:434] fc7_mbox_priorbox <- data_data_0_split_2
I0601 11:46:28.806834 30251 net.cpp:408] fc7_mbox_priorbox -> fc7_mbox_priorbox
I0601 11:46:28.806859 30251 net.cpp:150] Setting up fc7_mbox_priorbox
I0601 11:46:28.806865 30251 net.cpp:157] Top shape: 1 2 8664 (17328)
I0601 11:46:28.806867 30251 net.cpp:165] Memory required for data: 7932160224
I0601 11:46:28.806870 30251 layer_factory.hpp:77] Creating layer conv6_2_mbox_loc
I0601 11:46:28.806880 30251 net.cpp:100] Creating Layer conv6_2_mbox_loc
I0601 11:46:28.806886 30251 net.cpp:434] conv6_2_mbox_loc <- conv6_2_conv6_2_relu_0_split_1
I0601 11:46:28.806896 30251 net.cpp:408] conv6_2_mbox_loc -> conv6_2_mbox_loc
I0601 11:46:28.807567 30251 net.cpp:150] Setting up conv6_2_mbox_loc
I0601 11:46:28.807574 30251 net.cpp:157] Top shape: 32 24 10 10 (76800)
I0601 11:46:28.807576 30251 net.cpp:165] Memory required for data: 7932467424
I0601 11:46:28.807584 30251 layer_factory.hpp:77] Creating layer conv6_2_mbox_loc_perm
I0601 11:46:28.807592 30251 net.cpp:100] Creating Layer conv6_2_mbox_loc_perm
I0601 11:46:28.807597 30251 net.cpp:434] conv6_2_mbox_loc_perm <- conv6_2_mbox_loc
I0601 11:46:28.807605 30251 net.cpp:408] conv6_2_mbox_loc_perm -> conv6_2_mbox_loc_perm
I0601 11:46:28.807677 30251 net.cpp:150] Setting up conv6_2_mbox_loc_perm
I0601 11:46:28.807682 30251 net.cpp:157] Top shape: 32 10 10 24 (76800)
I0601 11:46:28.807684 30251 net.cpp:165] Memory required for data: 7932774624
I0601 11:46:28.807687 30251 layer_factory.hpp:77] Creating layer conv6_2_mbox_loc_flat
I0601 11:46:28.807693 30251 net.cpp:100] Creating Layer conv6_2_mbox_loc_flat
I0601 11:46:28.807698 30251 net.cpp:434] conv6_2_mbox_loc_flat <- conv6_2_mbox_loc_perm
I0601 11:46:28.807706 30251 net.cpp:408] conv6_2_mbox_loc_flat -> conv6_2_mbox_loc_flat
I0601 11:46:28.807729 30251 net.cpp:150] Setting up conv6_2_mbox_loc_flat
I0601 11:46:28.807734 30251 net.cpp:157] Top shape: 32 2400 (76800)
I0601 11:46:28.807736 30251 net.cpp:165] Memory required for data: 7933081824
I0601 11:46:28.807740 30251 layer_factory.hpp:77] Creating layer conv6_2_mbox_conf
I0601 11:46:28.807749 30251 net.cpp:100] Creating Layer conv6_2_mbox_conf
I0601 11:46:28.807755 30251 net.cpp:434] conv6_2_mbox_conf <- conv6_2_conv6_2_relu_0_split_2
I0601 11:46:28.807765 30251 net.cpp:408] conv6_2_mbox_conf -> conv6_2_mbox_conf
I0601 11:46:28.808436 30251 net.cpp:150] Setting up conv6_2_mbox_conf
I0601 11:46:28.808444 30251 net.cpp:157] Top shape: 32 24 10 10 (76800)
I0601 11:46:28.808445 30251 net.cpp:165] Memory required for data: 7933389024
I0601 11:46:28.808451 30251 layer_factory.hpp:77] Creating layer conv6_2_mbox_conf_perm
I0601 11:46:28.808459 30251 net.cpp:100] Creating Layer conv6_2_mbox_conf_perm
I0601 11:46:28.808465 30251 net.cpp:434] conv6_2_mbox_conf_perm <- conv6_2_mbox_conf
I0601 11:46:28.808472 30251 net.cpp:408] conv6_2_mbox_conf_perm -> conv6_2_mbox_conf_perm
I0601 11:46:28.808544 30251 net.cpp:150] Setting up conv6_2_mbox_conf_perm
I0601 11:46:28.808549 30251 net.cpp:157] Top shape: 32 10 10 24 (76800)
I0601 11:46:28.808552 30251 net.cpp:165] Memory required for data: 7933696224
I0601 11:46:28.808555 30251 layer_factory.hpp:77] Creating layer conv6_2_mbox_conf_flat
I0601 11:46:28.808562 30251 net.cpp:100] Creating Layer conv6_2_mbox_conf_flat
I0601 11:46:28.808567 30251 net.cpp:434] conv6_2_mbox_conf_flat <- conv6_2_mbox_conf_perm
I0601 11:46:28.808573 30251 net.cpp:408] conv6_2_mbox_conf_flat -> conv6_2_mbox_conf_flat
I0601 11:46:28.808595 30251 net.cpp:150] Setting up conv6_2_mbox_conf_flat
I0601 11:46:28.808601 30251 net.cpp:157] Top shape: 32 2400 (76800)
I0601 11:46:28.808604 30251 net.cpp:165] Memory required for data: 7934003424
I0601 11:46:28.808607 30251 layer_factory.hpp:77] Creating layer conv6_2_mbox_priorbox
I0601 11:46:28.808624 30251 net.cpp:100] Creating Layer conv6_2_mbox_priorbox
I0601 11:46:28.808627 30251 net.cpp:434] conv6_2_mbox_priorbox <- conv6_2_conv6_2_relu_0_split_3
I0601 11:46:28.808631 30251 net.cpp:434] conv6_2_mbox_priorbox <- data_data_0_split_3
I0601 11:46:28.808637 30251 net.cpp:408] conv6_2_mbox_priorbox -> conv6_2_mbox_priorbox
I0601 11:46:28.808661 30251 net.cpp:150] Setting up conv6_2_mbox_priorbox
I0601 11:46:28.808667 30251 net.cpp:157] Top shape: 1 2 2400 (4800)
I0601 11:46:28.808670 30251 net.cpp:165] Memory required for data: 7934022624
I0601 11:46:28.808673 30251 layer_factory.hpp:77] Creating layer conv7_2_mbox_loc
I0601 11:46:28.808681 30251 net.cpp:100] Creating Layer conv7_2_mbox_loc
I0601 11:46:28.808686 30251 net.cpp:434] conv7_2_mbox_loc <- conv7_2_conv7_2_relu_0_split_1
I0601 11:46:28.808692 30251 net.cpp:408] conv7_2_mbox_loc -> conv7_2_mbox_loc
I0601 11:46:28.809341 30251 net.cpp:150] Setting up conv7_2_mbox_loc
I0601 11:46:28.809351 30251 net.cpp:157] Top shape: 32 24 5 5 (19200)
I0601 11:46:28.809355 30251 net.cpp:165] Memory required for data: 7934099424
I0601 11:46:28.809361 30251 layer_factory.hpp:77] Creating layer conv7_2_mbox_loc_perm
I0601 11:46:28.809366 30251 net.cpp:100] Creating Layer conv7_2_mbox_loc_perm
I0601 11:46:28.809372 30251 net.cpp:434] conv7_2_mbox_loc_perm <- conv7_2_mbox_loc
I0601 11:46:28.809378 30251 net.cpp:408] conv7_2_mbox_loc_perm -> conv7_2_mbox_loc_perm
I0601 11:46:28.809484 30251 net.cpp:150] Setting up conv7_2_mbox_loc_perm
I0601 11:46:28.809492 30251 net.cpp:157] Top shape: 32 5 5 24 (19200)
I0601 11:46:28.809496 30251 net.cpp:165] Memory required for data: 7934176224
I0601 11:46:28.809499 30251 layer_factory.hpp:77] Creating layer conv7_2_mbox_loc_flat
I0601 11:46:28.809517 30251 net.cpp:100] Creating Layer conv7_2_mbox_loc_flat
I0601 11:46:28.809521 30251 net.cpp:434] conv7_2_mbox_loc_flat <- conv7_2_mbox_loc_perm
I0601 11:46:28.809527 30251 net.cpp:408] conv7_2_mbox_loc_flat -> conv7_2_mbox_loc_flat
I0601 11:46:28.809546 30251 net.cpp:150] Setting up conv7_2_mbox_loc_flat
I0601 11:46:28.809551 30251 net.cpp:157] Top shape: 32 600 (19200)
I0601 11:46:28.809554 30251 net.cpp:165] Memory required for data: 7934253024
I0601 11:46:28.809558 30251 layer_factory.hpp:77] Creating layer conv7_2_mbox_conf
I0601 11:46:28.809567 30251 net.cpp:100] Creating Layer conv7_2_mbox_conf
I0601 11:46:28.809571 30251 net.cpp:434] conv7_2_mbox_conf <- conv7_2_conv7_2_relu_0_split_2
I0601 11:46:28.809577 30251 net.cpp:408] conv7_2_mbox_conf -> conv7_2_mbox_conf
I0601 11:46:28.810214 30251 net.cpp:150] Setting up conv7_2_mbox_conf
I0601 11:46:28.810222 30251 net.cpp:157] Top shape: 32 24 5 5 (19200)
I0601 11:46:28.810225 30251 net.cpp:165] Memory required for data: 7934329824
I0601 11:46:28.810231 30251 layer_factory.hpp:77] Creating layer conv7_2_mbox_conf_perm
I0601 11:46:28.810241 30251 net.cpp:100] Creating Layer conv7_2_mbox_conf_perm
I0601 11:46:28.810245 30251 net.cpp:434] conv7_2_mbox_conf_perm <- conv7_2_mbox_conf
I0601 11:46:28.810252 30251 net.cpp:408] conv7_2_mbox_conf_perm -> conv7_2_mbox_conf_perm
I0601 11:46:28.810341 30251 net.cpp:150] Setting up conv7_2_mbox_conf_perm
I0601 11:46:28.810349 30251 net.cpp:157] Top shape: 32 5 5 24 (19200)
I0601 11:46:28.810353 30251 net.cpp:165] Memory required for data: 7934406624
I0601 11:46:28.810356 30251 layer_factory.hpp:77] Creating layer conv7_2_mbox_conf_flat
I0601 11:46:28.810361 30251 net.cpp:100] Creating Layer conv7_2_mbox_conf_flat
I0601 11:46:28.810365 30251 net.cpp:434] conv7_2_mbox_conf_flat <- conv7_2_mbox_conf_perm
I0601 11:46:28.810371 30251 net.cpp:408] conv7_2_mbox_conf_flat -> conv7_2_mbox_conf_flat
I0601 11:46:28.810394 30251 net.cpp:150] Setting up conv7_2_mbox_conf_flat
I0601 11:46:28.810400 30251 net.cpp:157] Top shape: 32 600 (19200)
I0601 11:46:28.810403 30251 net.cpp:165] Memory required for data: 7934483424
I0601 11:46:28.810406 30251 layer_factory.hpp:77] Creating layer conv7_2_mbox_priorbox
I0601 11:46:28.810412 30251 net.cpp:100] Creating Layer conv7_2_mbox_priorbox
I0601 11:46:28.810415 30251 net.cpp:434] conv7_2_mbox_priorbox <- conv7_2_conv7_2_relu_0_split_3
I0601 11:46:28.810431 30251 net.cpp:434] conv7_2_mbox_priorbox <- data_data_0_split_4
I0601 11:46:28.810437 30251 net.cpp:408] conv7_2_mbox_priorbox -> conv7_2_mbox_priorbox
I0601 11:46:28.810462 30251 net.cpp:150] Setting up conv7_2_mbox_priorbox
I0601 11:46:28.810468 30251 net.cpp:157] Top shape: 1 2 600 (1200)
I0601 11:46:28.810472 30251 net.cpp:165] Memory required for data: 7934488224
I0601 11:46:28.810477 30251 layer_factory.hpp:77] Creating layer conv8_2_mbox_loc
I0601 11:46:28.810484 30251 net.cpp:100] Creating Layer conv8_2_mbox_loc
I0601 11:46:28.810489 30251 net.cpp:434] conv8_2_mbox_loc <- conv8_2_conv8_2_relu_0_split_1
I0601 11:46:28.810497 30251 net.cpp:408] conv8_2_mbox_loc -> conv8_2_mbox_loc
I0601 11:46:28.810994 30251 net.cpp:150] Setting up conv8_2_mbox_loc
I0601 11:46:28.811002 30251 net.cpp:157] Top shape: 32 16 3 3 (4608)
I0601 11:46:28.811005 30251 net.cpp:165] Memory required for data: 7934506656
I0601 11:46:28.811019 30251 layer_factory.hpp:77] Creating layer conv8_2_mbox_loc_perm
I0601 11:46:28.811028 30251 net.cpp:100] Creating Layer conv8_2_mbox_loc_perm
I0601 11:46:28.811033 30251 net.cpp:434] conv8_2_mbox_loc_perm <- conv8_2_mbox_loc
I0601 11:46:28.811038 30251 net.cpp:408] conv8_2_mbox_loc_perm -> conv8_2_mbox_loc_perm
I0601 11:46:28.811127 30251 net.cpp:150] Setting up conv8_2_mbox_loc_perm
I0601 11:46:28.811134 30251 net.cpp:157] Top shape: 32 3 3 16 (4608)
I0601 11:46:28.811137 30251 net.cpp:165] Memory required for data: 7934525088
I0601 11:46:28.811141 30251 layer_factory.hpp:77] Creating layer conv8_2_mbox_loc_flat
I0601 11:46:28.811146 30251 net.cpp:100] Creating Layer conv8_2_mbox_loc_flat
I0601 11:46:28.811151 30251 net.cpp:434] conv8_2_mbox_loc_flat <- conv8_2_mbox_loc_perm
I0601 11:46:28.811157 30251 net.cpp:408] conv8_2_mbox_loc_flat -> conv8_2_mbox_loc_flat
I0601 11:46:28.811179 30251 net.cpp:150] Setting up conv8_2_mbox_loc_flat
I0601 11:46:28.811187 30251 net.cpp:157] Top shape: 32 144 (4608)
I0601 11:46:28.811189 30251 net.cpp:165] Memory required for data: 7934543520
I0601 11:46:28.811192 30251 layer_factory.hpp:77] Creating layer conv8_2_mbox_conf
I0601 11:46:28.811200 30251 net.cpp:100] Creating Layer conv8_2_mbox_conf
I0601 11:46:28.811206 30251 net.cpp:434] conv8_2_mbox_conf <- conv8_2_conv8_2_relu_0_split_2
I0601 11:46:28.811213 30251 net.cpp:408] conv8_2_mbox_conf -> conv8_2_mbox_conf
I0601 11:46:28.811704 30251 net.cpp:150] Setting up conv8_2_mbox_conf
I0601 11:46:28.811715 30251 net.cpp:157] Top shape: 32 16 3 3 (4608)
I0601 11:46:28.811719 30251 net.cpp:165] Memory required for data: 7934561952
I0601 11:46:28.811725 30251 layer_factory.hpp:77] Creating layer conv8_2_mbox_conf_perm
I0601 11:46:28.811733 30251 net.cpp:100] Creating Layer conv8_2_mbox_conf_perm
I0601 11:46:28.811738 30251 net.cpp:434] conv8_2_mbox_conf_perm <- conv8_2_mbox_conf
I0601 11:46:28.811748 30251 net.cpp:408] conv8_2_mbox_conf_perm -> conv8_2_mbox_conf_perm
I0601 11:46:28.811836 30251 net.cpp:150] Setting up conv8_2_mbox_conf_perm
I0601 11:46:28.811842 30251 net.cpp:157] Top shape: 32 3 3 16 (4608)
I0601 11:46:28.811846 30251 net.cpp:165] Memory required for data: 7934580384
I0601 11:46:28.811851 30251 layer_factory.hpp:77] Creating layer conv8_2_mbox_conf_flat
I0601 11:46:28.811857 30251 net.cpp:100] Creating Layer conv8_2_mbox_conf_flat
I0601 11:46:28.811862 30251 net.cpp:434] conv8_2_mbox_conf_flat <- conv8_2_mbox_conf_perm
I0601 11:46:28.811866 30251 net.cpp:408] conv8_2_mbox_conf_flat -> conv8_2_mbox_conf_flat
I0601 11:46:28.811883 30251 net.cpp:150] Setting up conv8_2_mbox_conf_flat
I0601 11:46:28.811887 30251 net.cpp:157] Top shape: 32 144 (4608)
I0601 11:46:28.811888 30251 net.cpp:165] Memory required for data: 7934598816
I0601 11:46:28.811890 30251 layer_factory.hpp:77] Creating layer conv8_2_mbox_priorbox
I0601 11:46:28.811895 30251 net.cpp:100] Creating Layer conv8_2_mbox_priorbox
I0601 11:46:28.811898 30251 net.cpp:434] conv8_2_mbox_priorbox <- conv8_2_conv8_2_relu_0_split_3
I0601 11:46:28.811902 30251 net.cpp:434] conv8_2_mbox_priorbox <- data_data_0_split_5
I0601 11:46:28.811913 30251 net.cpp:408] conv8_2_mbox_priorbox -> conv8_2_mbox_priorbox
I0601 11:46:28.811934 30251 net.cpp:150] Setting up conv8_2_mbox_priorbox
I0601 11:46:28.811940 30251 net.cpp:157] Top shape: 1 2 144 (288)
I0601 11:46:28.811944 30251 net.cpp:165] Memory required for data: 7934599968
I0601 11:46:28.811945 30251 layer_factory.hpp:77] Creating layer conv9_2_mbox_loc
I0601 11:46:28.811955 30251 net.cpp:100] Creating Layer conv9_2_mbox_loc
I0601 11:46:28.811959 30251 net.cpp:434] conv9_2_mbox_loc <- conv9_2_conv9_2_relu_0_split_0
I0601 11:46:28.811967 30251 net.cpp:408] conv9_2_mbox_loc -> conv9_2_mbox_loc
I0601 11:46:28.812463 30251 net.cpp:150] Setting up conv9_2_mbox_loc
I0601 11:46:28.812475 30251 net.cpp:157] Top shape: 32 16 1 1 (512)
I0601 11:46:28.812479 30251 net.cpp:165] Memory required for data: 7934602016
I0601 11:46:28.812485 30251 layer_factory.hpp:77] Creating layer conv9_2_mbox_loc_perm
I0601 11:46:28.812492 30251 net.cpp:100] Creating Layer conv9_2_mbox_loc_perm
I0601 11:46:28.812499 30251 net.cpp:434] conv9_2_mbox_loc_perm <- conv9_2_mbox_loc
I0601 11:46:28.812505 30251 net.cpp:408] conv9_2_mbox_loc_perm -> conv9_2_mbox_loc_perm
I0601 11:46:28.812598 30251 net.cpp:150] Setting up conv9_2_mbox_loc_perm
I0601 11:46:28.812605 30251 net.cpp:157] Top shape: 32 1 1 16 (512)
I0601 11:46:28.812609 30251 net.cpp:165] Memory required for data: 7934604064
I0601 11:46:28.812613 30251 layer_factory.hpp:77] Creating layer conv9_2_mbox_loc_flat
I0601 11:46:28.812619 30251 net.cpp:100] Creating Layer conv9_2_mbox_loc_flat
I0601 11:46:28.812623 30251 net.cpp:434] conv9_2_mbox_loc_flat <- conv9_2_mbox_loc_perm
I0601 11:46:28.812631 30251 net.cpp:408] conv9_2_mbox_loc_flat -> conv9_2_mbox_loc_flat
I0601 11:46:28.812654 30251 net.cpp:150] Setting up conv9_2_mbox_loc_flat
I0601 11:46:28.812661 30251 net.cpp:157] Top shape: 32 16 (512)
I0601 11:46:28.812664 30251 net.cpp:165] Memory required for data: 7934606112
I0601 11:46:28.812666 30251 layer_factory.hpp:77] Creating layer conv9_2_mbox_conf
I0601 11:46:28.812674 30251 net.cpp:100] Creating Layer conv9_2_mbox_conf
I0601 11:46:28.812677 30251 net.cpp:434] conv9_2_mbox_conf <- conv9_2_conv9_2_relu_0_split_1
I0601 11:46:28.812682 30251 net.cpp:408] conv9_2_mbox_conf -> conv9_2_mbox_conf
I0601 11:46:28.813011 30251 net.cpp:150] Setting up conv9_2_mbox_conf
I0601 11:46:28.813017 30251 net.cpp:157] Top shape: 32 16 1 1 (512)
I0601 11:46:28.813019 30251 net.cpp:165] Memory required for data: 7934608160
I0601 11:46:28.813024 30251 layer_factory.hpp:77] Creating layer conv9_2_mbox_conf_perm
I0601 11:46:28.813030 30251 net.cpp:100] Creating Layer conv9_2_mbox_conf_perm
I0601 11:46:28.813033 30251 net.cpp:434] conv9_2_mbox_conf_perm <- conv9_2_mbox_conf
I0601 11:46:28.813037 30251 net.cpp:408] conv9_2_mbox_conf_perm -> conv9_2_mbox_conf_perm
I0601 11:46:28.813099 30251 net.cpp:150] Setting up conv9_2_mbox_conf_perm
I0601 11:46:28.813104 30251 net.cpp:157] Top shape: 32 1 1 16 (512)
I0601 11:46:28.813107 30251 net.cpp:165] Memory required for data: 7934610208
I0601 11:46:28.813108 30251 layer_factory.hpp:77] Creating layer conv9_2_mbox_conf_flat
I0601 11:46:28.813112 30251 net.cpp:100] Creating Layer conv9_2_mbox_conf_flat
I0601 11:46:28.813115 30251 net.cpp:434] conv9_2_mbox_conf_flat <- conv9_2_mbox_conf_perm
I0601 11:46:28.813120 30251 net.cpp:408] conv9_2_mbox_conf_flat -> conv9_2_mbox_conf_flat
I0601 11:46:28.813136 30251 net.cpp:150] Setting up conv9_2_mbox_conf_flat
I0601 11:46:28.813140 30251 net.cpp:157] Top shape: 32 16 (512)
I0601 11:46:28.813143 30251 net.cpp:165] Memory required for data: 7934612256
I0601 11:46:28.813144 30251 layer_factory.hpp:77] Creating layer conv9_2_mbox_priorbox
I0601 11:46:28.813148 30251 net.cpp:100] Creating Layer conv9_2_mbox_priorbox
I0601 11:46:28.813151 30251 net.cpp:434] conv9_2_mbox_priorbox <- conv9_2_conv9_2_relu_0_split_2
I0601 11:46:28.813154 30251 net.cpp:434] conv9_2_mbox_priorbox <- data_data_0_split_6
I0601 11:46:28.813159 30251 net.cpp:408] conv9_2_mbox_priorbox -> conv9_2_mbox_priorbox
I0601 11:46:28.813184 30251 net.cpp:150] Setting up conv9_2_mbox_priorbox
I0601 11:46:28.813189 30251 net.cpp:157] Top shape: 1 2 16 (32)
I0601 11:46:28.813191 30251 net.cpp:165] Memory required for data: 7934612384
I0601 11:46:28.813194 30251 layer_factory.hpp:77] Creating layer mbox_loc
I0601 11:46:28.813199 30251 net.cpp:100] Creating Layer mbox_loc
I0601 11:46:28.813201 30251 net.cpp:434] mbox_loc <- conv4_3_norm_mbox_loc_flat
I0601 11:46:28.813205 30251 net.cpp:434] mbox_loc <- fc7_mbox_loc_flat
I0601 11:46:28.813208 30251 net.cpp:434] mbox_loc <- conv6_2_mbox_loc_flat
I0601 11:46:28.813211 30251 net.cpp:434] mbox_loc <- conv7_2_mbox_loc_flat
I0601 11:46:28.813215 30251 net.cpp:434] mbox_loc <- conv8_2_mbox_loc_flat
I0601 11:46:28.813217 30251 net.cpp:434] mbox_loc <- conv9_2_mbox_loc_flat
I0601 11:46:28.813221 30251 net.cpp:408] mbox_loc -> mbox_loc
I0601 11:46:28.813241 30251 net.cpp:150] Setting up mbox_loc
I0601 11:46:28.813246 30251 net.cpp:157] Top shape: 32 34928 (1117696)
I0601 11:46:28.813249 30251 net.cpp:165] Memory required for data: 7939083168
I0601 11:46:28.813251 30251 layer_factory.hpp:77] Creating layer mbox_conf
I0601 11:46:28.813254 30251 net.cpp:100] Creating Layer mbox_conf
I0601 11:46:28.813257 30251 net.cpp:434] mbox_conf <- conv4_3_norm_mbox_conf_flat
I0601 11:46:28.813261 30251 net.cpp:434] mbox_conf <- fc7_mbox_conf_flat
I0601 11:46:28.813264 30251 net.cpp:434] mbox_conf <- conv6_2_mbox_conf_flat
I0601 11:46:28.813266 30251 net.cpp:434] mbox_conf <- conv7_2_mbox_conf_flat
I0601 11:46:28.813271 30251 net.cpp:434] mbox_conf <- conv8_2_mbox_conf_flat
I0601 11:46:28.813273 30251 net.cpp:434] mbox_conf <- conv9_2_mbox_conf_flat
I0601 11:46:28.813277 30251 net.cpp:408] mbox_conf -> mbox_conf
I0601 11:46:28.813292 30251 net.cpp:150] Setting up mbox_conf
I0601 11:46:28.813297 30251 net.cpp:157] Top shape: 32 34928 (1117696)
I0601 11:46:28.813298 30251 net.cpp:165] Memory required for data: 7943553952
I0601 11:46:28.813300 30251 layer_factory.hpp:77] Creating layer mbox_priorbox
I0601 11:46:28.813304 30251 net.cpp:100] Creating Layer mbox_priorbox
I0601 11:46:28.813307 30251 net.cpp:434] mbox_priorbox <- conv4_3_norm_mbox_priorbox
I0601 11:46:28.813310 30251 net.cpp:434] mbox_priorbox <- fc7_mbox_priorbox
I0601 11:46:28.813313 30251 net.cpp:434] mbox_priorbox <- conv6_2_mbox_priorbox
I0601 11:46:28.813315 30251 net.cpp:434] mbox_priorbox <- conv7_2_mbox_priorbox
I0601 11:46:28.813318 30251 net.cpp:434] mbox_priorbox <- conv8_2_mbox_priorbox
I0601 11:46:28.813320 30251 net.cpp:434] mbox_priorbox <- conv9_2_mbox_priorbox
I0601 11:46:28.813323 30251 net.cpp:408] mbox_priorbox -> mbox_priorbox
I0601 11:46:28.813339 30251 net.cpp:150] Setting up mbox_priorbox
I0601 11:46:28.813344 30251 net.cpp:157] Top shape: 1 2 34928 (69856)
I0601 11:46:28.813346 30251 net.cpp:165] Memory required for data: 7943833376
I0601 11:46:28.813349 30251 layer_factory.hpp:77] Creating layer mbox_loss
I0601 11:46:28.813357 30251 net.cpp:100] Creating Layer mbox_loss
I0601 11:46:28.813361 30251 net.cpp:434] mbox_loss <- mbox_loc
I0601 11:46:28.813364 30251 net.cpp:434] mbox_loss <- mbox_conf
I0601 11:46:28.813367 30251 net.cpp:434] mbox_loss <- mbox_priorbox
…
  name: "data"
  type: "AnnotatedData"
  top: "data"
  top: "label"
  include {
    phase: TEST
  }
  transform_param {
    mean_value: 104
    mean_value: 117
    mean_value: 123
    resize_param {
      prob: 1
      resize_mode: WARP
      height: 300
      width: 300
      interp_mode: LINEAR
    }
  }
  data_param {
    source: "examples/tbs_300x300_HSIL_10x/tbs_300x300_HSIL_10x_test_lmdb"
    batch_size: 4
    backend: LMDB
  }
  annotated_data_param {
    batch_sampler {
    }
    label_map_file: "data/tbs_300x300_HSIL_10x/labelmap_tbs.prototxt"
  }
}
layer {
  name: "conv1_1"
  type: "Convolution"
  bottom: "data"
  top: "conv1_1"
  param {
    lr_mult: 1
    decay_mult: 1
  }
  param {
    lr_mult: 2
    decay_mult: 0
  }
  convolution_param {
    num_output: 64
    pad: 1
    kernel_size: 3
    weight_filler {
      type: "xavier"
    }
    bias_filler {
      type: "constant"
      value: 0
    }
  }
}
layer {
  name: "relu1_1"
  type: "ReLU"
  bottom: "conv1_1"
  top: "conv1_1"
}
layer {
  name: "conv1_2"
  type: "Convolution"
  bottom: "conv1_1"
  top: "conv1_2"
  param {
    lr_mult: 1
    decay_mult: 1
  }
  param {
    lr_mult: 2
    decay_mult: 0
  }
  convolution_param {
    num_output: 64
    pad: 1
    kernel_size: 3
    weight_filler {
      type: "xavier"
    }
    bias_filler {
      type: "constant"
      value: 0
    }
  }
}
layer {
  name: "relu1_2"
  type: "ReLU"
  bottom: "conv1_2"
  top: "conv1_2"
}
layer {
  name: "pool1"
  type: "Pooling"
  bottom: "conv1_2"
  top: "pool1"
  pooling_param {
    pool: MAX
    kernel_size: 2
    stride: 2
  }
}
layer {
  name: "conv2_1"
  type: "Convolution"
  bottom: "pool1"
  top: "conv2_1"
  param {
    lr_mult: 1
    decay_mult: 1
  }
  param {
    lr_mult: 2
    decay_mult: 0
  }
  convolution_param {
    num_output: 128
    pad: 1
    kernel_size: 3
    weight_filler {
      type: "xavier"
    }
    bias_filler {
      type: "constant"
      value: 0
    }
  }
}
layer {
  name: "relu2_1"
  type: "ReLU"
  bottom: "conv2_1"
  top: "conv2_1"
}
layer {
  name: "conv2_2"
  type: "Convolution"
  bottom: "conv2_1"
  top: "conv2_2"
  param {
    lr_mult: 1
    decay_mult: 1
  }
  param {
    lr_mult: 2
    decay_mult: 0
  }
  convolution_param {
    num_output: 128
    pad: 1
    kernel_size: 3
    weight_filler {
      type: "xavier"
    }
    bias_filler {
      type: "constant"
      value: 0
    }
  }
}
layer {
  name: "relu2_2"
  type: "ReLU"
  bottom: "conv2_2"
  top: "conv2_2"
}
layer {
  name: "pool2"
  type: "Pooling"
  bottom: "conv2_2"
  top: "pool2"
  pooling_param {
    pool: MAX
    kernel_size: 2
    stride: 2
  }
}
layer {
  name: "conv3_1"
  type: "Convolution"
  bottom: "pool2"
  top: "conv3_1"
  param {
    lr_mult: 1
    decay_mult: 1
  }
  param {
    lr_mult: 2
    decay_mult: 0
  }
  convolution_param {
    num_output: 256
    pad: 1
    kernel_size: 3
    weight_filler {
      type: "xavier"
    }
    bias_filler {
      type: "constant"
      value: 0
    }
  }
}
layer {
  name: "relu3_1"
  type: "ReLU"
  bottom: "conv3_1"
  top: "conv3_1"
}
layer {
  name: "conv3_2"
  type: "Convolution"
  bottom: "conv3_1"
  top: "conv3_2"
  param {
    lr_mult: 1
    decay_mult: 1
  }
  param {
    lr_mult: 2
    decay_mult: 0
  }
  convolution_param {
    num_output: 256
    pad: 1
    kernel_size: 3
    weight_filler {
      type: "xavier"
    }
    bias_filler {
      type: "constant"
      value: 0
    }
  }
}
layer {
  name: "relu3_2"
  type: "ReLU"
  bottom: "conv3_2"
  top: "conv3_2"
}
layer {
  name: "conv3_3"
  type: "Convolution"
  bottom: "conv3_2"
  top: "conv3_3"
  param {
    lr_mult: 1
    decay_mult: 1
  }
  param {
    lr_mult: 2
    decay_mult: 0
  }
  convolution_param {
    num_output: 256
    pad: 1
    kernel_size: 3
    weight_filler {
      type: "xavier"
    }
    bias_filler {
      type: "constant"
      value: 0
    }
  }
}
layer {
  name: "relu3_3"
  type: "ReLU"
  bottom: "conv3_3"
  top: "conv3_3"
}
layer {
  name: "pool3"
  type: "Pooling"
  bottom: "conv3_3"
  top: "pool3"
  pooling_param {
    pool: MAX
    kernel_size: 2
    stride: 2
  }
}
layer {
  name: "conv4_1"
  type: "Convolution"
  bottom: "pool3"
  top: "conv4_1"
  param {
    lr_mult: 1
    decay_mult: 1
  }
  param {
    lr_mult: 2
    decay_mult: 0
  }
  convolution_param {
    num_output: 512
    pad: 1
    kernel_size: 3
    weight_filler {
      type: "xavier"
    }
    bias_filler {
      type: "constant"
      value: 0
    }
  }
}
layer {
  name: "relu4_1"
  type: "ReLU"
  bottom: "conv4_1"
  top: "conv4_1"
}
layer {
  name: "conv4_2"
  type: "Convolution"
  bottom: "conv4_1"
  top: "conv4_2"
  param {
    lr_mult: 1
    decay_mult: 1
  }
  param {
    lr_mult: 2
    decay_mult: 0
  }
  convolution_param {
    num_output: 512
    pad: 1
    kernel_size: 3
    weight_filler {
      type: "xavier"
    }
    bias_filler {
      type: "constant"
      value: 0
    }
  }
}
layer {
  name: "relu4_2"
  type: "ReLU"
  bottom: "conv4_2"
  top: "conv4_2"
}
layer {
  name: "conv4_3"
  type: "Convolution"
  bottom: "conv4_2"
  top: "conv4_3"
  param {
    lr_mult: 1
    decay_mult: 1
  }
  param {
    lr_mult: 2
    decay_mult: 0
  }
  convolution_param {
    num_output: 512
    pad: 1
    kernel_size: 3
    weight_filler {
      type: "xavier"
    }
    bias_filler {
      type: "constant"
      value: 0
    }
  }
}
layer {
  name: "relu4_3"
  type: "ReLU"
  bottom: "conv4_3"
  top: "conv4_3"
}
layer {
  name: "pool4"
  type: "Pooling"
  bottom: "conv4_3"
  top: "pool4"
  pooling_param {
    pool: MAX
    kernel_size: 2
    stride: 2
  }
}
layer {
  name: "conv5_1"
  type: "Convolution"
  bottom: "pool4"
  top: "conv5_1"
  param {
    lr_mult: 1
    decay_mult: 1
  }
  param {
    lr_mult: 2
    decay_mult: 0
  }
  convolution_param {
    num_output: 512
    pad: 1
    kernel_size: 3
    weight_filler {
      type: "xavier"
    }
    bias_filler {
      type: "constant"
      value: 0
    }
    dilation: 1
  }
}
layer {
  name: "relu5_1"
  type: "ReLU"
  bottom: "conv5_1"
  top: "conv5_1"
}
layer {
  name: "conv5_2"
  type: "Convolution"
  bottom: "conv5_1"
  top: "conv5_2"
  param {
    lr_mult: 1
    decay_mult: 1
  }
  param {
    lr_mult: 2
    decay_mult: 0
  }
  convolution_param {
    num_output: 512
    pad: 1
    kernel_size: 3
    weight_filler {
      type: "xavier"
    }
    bias_filler {
      type: "constant"
      value: 0
    }
    dilation: 1
  }
}
layer {
  name: "relu5_2"
  type: "ReLU"
  bottom: "conv5_2"
  top: "conv5_2"
}
layer {
  name: "conv5_3"
  type: "Convolution"
  bottom: "conv5_2"
  top: "conv5_3"
  param {
    lr_mult: 1
    decay_mult: 1
  }
  param {
    lr_mult: 2
    decay_mult: 0
  }
  convolution_param {
    num_output: 512
    pad: 1
    kernel_size: 3
    weight_filler {
      type: "xavier"
    }
    bias_filler {
      type: "constant"
      value: 0
    }
    dilation: 1
  }
}
layer {
  name: "relu5_3"
  type: "ReLU"
  bottom: "conv5_3"
  top: "conv5_3"
}
layer {
  name: "pool5"
  type: "Pooling"
  bottom: "conv5_3"
  top: "pool5"
  pooling_param {
    pool: MAX
    kernel_size: 3
    stride: 1
    pad: 1
  }
}
layer {
  name: "fc6"
  type: "Convolution"
  bottom: "pool5"
  top: "fc6"
  param {
    lr_mult: 1
    decay_mult: 1
  }
  param {
    lr_mult: 2
    decay_mult: 0
  }
  convolution_param {
    num_output: 1024
    pad: 6
    kernel_size: 3
    weight_filler {
      type: "xavier"
    }
    bias_filler {
      type: "constant"
      value: 0
    }
    dilation: 6
  }
}
layer {
  name: "relu6"
  type: "ReLU"
  bottom: "fc6"
  top: "fc6"
}
layer {
  name: "fc7"
  type: "Convolution"
  bottom: "fc6"
  top: "fc7"
  param {
    lr_mult: 1
    decay_mult: 1
  }
  param {
    lr_mult: 2
    decay_mult: 0
  }
  convolution_param {
    num_output: 1024
    kernel_size: 1
    weight_filler {
      type: "xavier"
    }
    bias_filler {
      type: "constant"
      value: 0
    }
  }
}
layer {
  name: "relu7"
  type: "ReLU"
  bottom: "fc7"
  top: "fc7"
}
layer {
  name: "conv6_1"
  type: "Convolution"
  bottom: "fc7"
  top: "conv6_1"
  param {
    lr_mult: 1
    decay_mult: 1
  }
  param {
    lr_mult: 2
    decay_mult: 0
  }
  convolution_param {
    num_output: 256
    pad: 0
    kernel_size: 1
    stride: 1
    weight_filler {
      type: "xavier"
    }
    bias_filler {
      type: "constant"
      value: 0
    }
  }
}
layer {
  name: "conv6_1_relu"
  type: "ReLU"
  bottom: "conv6_1"
  top: "conv6_1"
}
layer {
  name: "conv6_2"
  type: "Convolution"
  bottom: "conv6_1"
  top: "conv6_2"
  param {
    lr_mult: 1
    decay_mult: 1
  }
  param {
    lr_mult: 2
    decay_mult: 0
  }
  convolution_param {
    num_output: 512
    pad: 1
    kernel_size: 3
    stride: 2
    weight_filler {
      type: "xavier"
    }
    bias_filler {
      type: "constant"
      value: 0
    }
  }
}
layer {
  name: "conv6_2_relu"
  type: "ReLU"
  bottom: "conv6_2"
  top: "conv6_2"
}
layer {
  name: "conv7_1"
  type: "Convolution"
  bottom: "conv6_2"
  top: "conv7_1"
  param {
    lr_mult: 1
    decay_mult: 1
  }
  param {
    lr_mult: 2
    decay_mult: 0
  }
  convolution_param {
    num_output: 128
    pad: 0
    kernel_size: 1
    stride: 1
    weight_filler {
      type: "xavier"
    }
    bias_filler {
      type: "constant"
      value: 0
    }
  }
}
layer {
  name: "conv7_1_relu"
  type: "ReLU"
  bottom: "conv7_1"
  top: "conv7_1"
}
layer {
  name: "conv7_2"
  type: "Convolution"
  bottom: "conv7_1"
  top: "conv7_2"
  param {
    lr_mult: 1
    decay_mult: 1
  }
  param {
    lr_mult: 2
    decay_mult: 0
  }
  convolution_param {
    num_output: 256
    pad: 1
    kernel_size: 3
    stride: 2
    weight_filler {
      type: "xavier"
    }
    bias_filler {
      type: "constant"
      value: 0
    }
  }
}
layer {
  name: "conv7_2_relu"
  type: "ReLU"
  bottom: "conv7_2"
  top: "conv7_2"
}
layer {
  name: "conv8_1"
  type: "Convolution"
  bottom: "conv7_2"
  top: "conv8_1"
  param {
    lr_mult: 1
    decay_mult: 1
  }
  param {
    lr_mult: 2
    decay_mult: 0
  }
  convolution_param {
    num_output: 128
    pad: 0
    kernel_size: 1
    stride: 1
    weight_filler {
      type: "xavier"
    }
    bias_filler {
      type: "constant"
      value: 0
    }
  }
}
layer {
  name: "conv8_1_relu"
  type: "ReLU"
  bottom: "conv8_1"
  top: "conv8_1"
}
layer {
  name: "conv8_2"
  type: "Convolution"
  bottom: "conv8_1"
  top: "conv8_2"
  param {
    lr_mult: 1
    decay_mult: 1
  }
  param {
    lr_mult: 2
    decay_mult: 0
  }
  convolution_param {
    num_output: 256
    pad: 0
    kernel_size: 3
    stride: 1
    weight_filler {
      type: "xavier"
    }
    bias_filler {
      type: "constant"
      value: 0
    }
  }
}
layer {
  name: "conv8_2_relu"
  type: "ReLU"
  bottom: "conv8_2"
  top: "conv8_2"
}
layer {
  name: "conv9_1"
  type: "Convolution"
  bottom: "conv8_2"
  top: "conv9_1"
  param {
    lr_mult: 1
    decay_mult: 1
  }
  param {
    lr_mult: 2
    decay_mult: 0
  }
  convolution_param {
    num_output: 128
    pad: 0
    kernel_size: 1
    stride: 1
    weight_filler {
      type: "xavier"
    }
    bias_filler {
      type: "constant"
      value: 0
    }
  }
}
layer {
  name: "conv9_1_relu"
  type: "ReLU"
  bottom: "conv9_1"
  top: "conv9_1"
}
layer {
  name: "conv9_2"
  type: "Convolution"
  bottom: "conv9_1"
  top: "conv9_2"
  param {
    lr_mult: 1
    decay_mult: 1
  }
  param {
    lr_mult: 2
    decay_mult: 0
  }
  convolution_param {
    num_output: 256
    pad: 0
    kernel_size: 3
    stride: 1
    weight_filler {
      type: "xavier"
    }
    bias_filler {
      type: "constant"
      value: 0
    }
  }
}
layer {
  name: "conv9_2_relu"
  type: "ReLU"
  bottom: "conv9_2"
  top: "conv9_2"
}
layer {
  name: "conv4_3_norm"
  type: "Normalize"
  bottom: "conv4_3"
  top: "conv4_3_norm"
  norm_param {
    across_spatial: false
    scale_filler {
      type: "constant"
      value: 20
    }
    channel_shared: false
  }
}
layer {
  name: "conv4_3_norm_mbox_loc"
  type: "Convolution"
  bottom: "conv4_3_norm"
  top: "conv4_3_norm_mbox_loc"
  param {
    lr_mult: 1
    decay_mult: 1
  }
  param {
    lr_mult: 2
    decay_mult: 0
  }
  convolution_param {
    num_output: 16
    pad: 1
    kernel_size: 3
    stride: 1
    weight_filler {
      type: "xavier"
    }
    bias_filler {
      type: "constant"
      value: 0
    }
  }
}
layer {
  name: "conv4_3_norm_mbox_loc_perm"
  type: "Permute"
  bottom: "conv4_3_norm_mbox_loc"
  top: "conv4_3_norm_mbox_loc_perm"
  permute_param {
    order: 0
    order: 2
    order: 3
    order: 1
  }
}
layer {
  name: "conv4_3_norm_mbox_loc_flat"
  type: "Flatten"
  bottom: "conv4_3_norm_mbox_loc_perm"
  top: "conv4_3_norm_mbox_loc_flat"
  flatten_param {
    axis: 1
  }
}
layer {
  name: "conv4_3_norm_mbox_conf"
  type: "Convolution"
  bottom: "conv4_3_norm"
  top: "conv4_3_norm_mbox_conf"
  param {
    lr_mult: 1
    decay_mult: 1
  }
  param {
    lr_mult: 2
    decay_mult: 0
  }
  convolution_param {
    num_output: 16
    pad: 1
    kernel_size: 3
    stride: 1
    weight_filler {
      type: "xavier"
    }
    bias_filler {
      type: "constant"
      value: 0
    }
  }
}
layer {
  name: "conv4_3_norm_mbox_conf_perm"
  type: "Permute"
  bottom: "conv4_3_norm_mbox_conf"
  top: "conv4_3_norm_mbox_conf_perm"
  permute_param {
    order: 0
    order: 2
    order: 3
    order: 1
  }
}
layer {
  name: "conv4_3_norm_mbox_conf_flat"
  type: "Flatten"
  bottom: "conv4_3_norm_mbox_conf_perm"
  top: "conv4_3_norm_mbox_conf_flat"
  flatten_param {
    axis: 1
  }
}
layer {
  name: "conv4_3_norm_mbox_priorbox"
  type: "PriorBox"
  bottom: "conv4_3_norm"
  bottom: "data"
  top: "conv4_3_norm_mbox_priorbox"
  prior_box_param {
    min_size: 30
    max_size: 60
    aspect_ratio: 2
    flip: true
    clip: false
    variance: 0.1
    variance: 0.1
    variance: 0.2
    variance: 0.2
    step: 8
    offset: 0.5
  }
}
layer {
  name: "fc7_mbox_loc"
  type: "Convolution"
  bottom: "fc7"
  top: "fc7_mbox_loc"
  param {
    lr_mult: 1
    decay_mult: 1
  }
  param {
    lr_mult: 2
    decay_mult: 0
  }
  convolution_param {
    num_output: 24
    pad: 1
    kernel_size: 3
    stride: 1
    weight_filler {
      type: "xavier"
    }
    bias_filler {
      type: "constant"
      value: 0
    }
  }
}
layer {
  name: "fc7_mbox_loc_perm"
  type: "Permute"
  bottom: "fc7_mbox_loc"
  top: "fc7_mbox_loc_perm"
  permute_param {
    order: 0
    order: 2
    order: 3
    order: 1
  }
}
layer {
  name: "fc7_mbox_loc_flat"
  type: "Flatten"
  bottom: "fc7_mbox_loc_perm"
  top: "fc7_mbox_loc_flat"
  flatten_param {
    axis: 1
  }
}
layer {
  name: "fc7_mbox_conf"
  type: "Convolution"
  bottom: "fc7"
  top: "fc7_mbox_conf"
  param {
    lr_mult: 1
    decay_mult: 1
  }
  param {
    lr_mult: 2
    decay_mult: 0
  }
  convolution_param {
    num_output: 24
    pad: 1
    kernel_size: 3
    stride: 1
    weight_filler {
      type: "xavier"
    }
    bias_filler {
      type: "constant"
      value: 0
    }
  }
}
layer {
  name: "fc7_mbox_conf_perm"
  type: "Permute"
  bottom: "fc7_mbox_conf"
  top: "fc7_mbox_conf_perm"
  permute_param {
    order: 0
    order: 2
    order: 3
    order: 1
  }
}
layer {
  name: "fc7_mbox_conf_flat"
  type: "Flatten"
  bottom: "fc7_mbox_conf_perm"
  top: "fc7_mbox_conf_flat"
  flatten_param {
    axis: 1
  }
}
layer {
  name: "fc7_mbox_priorbox"
  type: "PriorBox"
  bottom: "fc7"
  bottom: "data"
  top: "fc7_mbox_priorbox"
  prior_box_param {
    min_size: 60
    max_size: 111
    aspect_ratio: 2
    aspect_ratio: 3
    flip: true
    clip: false
    variance: 0.1
    variance: 0.1
    variance: 0.2
    variance: 0.2
    step: 16
    offset: 0.5
  }
}
layer {
  name: "conv6_2_mbox_loc"
  type: "Convolution"
  bottom: "conv6_2"
  top: "conv6_2_mbox_loc"
  param {
    lr_mult: 1
    decay_mult: 1
  }
  param {
    lr_mult: 2
    decay_mult: 0
  }
  convolution_param {
    num_output: 24
    pad: 1
    kernel_size: 3
    stride: 1
    weight_filler {
      type: "xavier"
    }
    bias_filler {
      type: "constant"
      value: 0
    }
  }
}
layer {
  name: "conv6_2_mbox_loc_perm"
  type: "Permute"
  bottom: "conv6_2_mbox_loc"
  top: "conv6_2_mbox_loc_perm"
  permute_param {
    order: 0
    order: 2
    order: 3
    order: 1
  }
}
layer {
  name: "conv6_2_mbox_loc_flat"
  type: "Flatten"
  bottom: "conv6_2_mbox_loc_perm"
  top: "conv6_2_mbox_loc_flat"
  flatten_param {
    axis: 1
  }
}
layer {
  name: "conv6_2_mbox_conf"
  type: "Convolution"
  bottom: "conv6_2"
  top: "conv6_2_mbox_conf"
  param {
    lr_mult: 1
    decay_mult: 1
  }
  param {
    lr_mult: 2
    decay_mult: 0
  }
  convolution_param {
    num_output: 24
    pad: 1
    kernel_size: 3
    stride: 1
    weight_filler {
      type: "xavier"
    }
    bias_filler {
      type: "constant"
      value: 0
    }
  }
}
layer {
  name: "conv6_2_mbox_conf_perm"
  type: "Permute"
  bottom: "conv6_2_mbox_conf"
  top: "conv6_2_mbox_conf_perm"
  permute_param {
    order: 0
    order: 2
    order: 3
    order: 1
  }
}
layer {
  name: "conv6_2_mbox_conf_flat"
  type: "Flatten"
  bottom: "conv6_2_mbox_conf_perm"
  top: "conv6_2_mbox_conf_flat"
  flatten_param {
    axis: 1
  }
}
layer {
  name: "conv6_2_mbox_priorbox"
  type: "PriorBox"
  bottom: "conv6_2"
  bottom: "data"
  top: "conv6_2_mbox_priorbox"
  prior_box_param {
    min_size: 111
    max_size: 162
    aspect_ratio: 2
    aspect_ratio: 3
    flip: true
    clip: false
    variance: 0.1
    variance: 0.1
    variance: 0.2
    variance: 0.2
    step: 32
    offset: 0.5
  }
}
layer {
  name: "conv7_2_mbox_loc"
  type: "Convolution"
  bottom: "conv7_2"
  top: "conv7_2_mbox_loc"
  param {
    lr_mult: 1
    decay_mult: 1
  }
  param {
    lr_mult: 2
    decay_mult: 0
  }
  convolution_param {
    num_output: 24
    pad: 1
    kernel_size: 3
    stride: 1
    weight_filler {
      type: "xavier"
    }
    bias_filler {
      type: "constant"
      value: 0
    }
  }
}
layer {
  name: "conv7_2_mbox_loc_perm"
  type: "Permute"
  bottom: "conv7_2_mbox_loc"
  top: "conv7_2_mbox_loc_perm"
  permute_param {
    order: 0
    order: 2
    order: 3
    order: 1
  }
}
layer {
  name: "conv7_2_mbox_loc_flat"
  type: "Flatten"
  bottom: "conv7_2_mbox_loc_perm"
  top: "conv7_2_mbox_loc_flat"
  flatten_param {
    axis: 1
  }
}
layer {
  name: "conv7_2_mbox_conf"
  type: "Convolution"
  bottom: "conv7_2"
  top: "conv7_2_mbox_conf"
  param {
    lr_mult: 1
    decay_mult: 1
  }
  param {
    lr_mult: 2
    decay_mult: 0
  }
  convolution_param {
    num_output: 24
    pad: 1
    kernel_size: 3
    stride: 1
    weight_filler {
      type: "xavier"
    }
    bias_filler {
      type: "constant"
      value: 0
    }
  }
}
layer {
  name: "conv7_2_mbox_conf_perm"
  type: "Permute"
  bottom: "conv7_2_mbox_conf"
  top: "conv7_2_mbox_conf_perm"
  permute_param {
    order: 0
    order: 2
    order: 3
    order: 1
  }
}
layer {
  name: "conv7_2_mbox_conf_flat"
  type: "Flatten"
  bottom: "conv7_2_mbox_conf_perm"
  top: "conv7_2_mbox_conf_flat"
  flatten_param {
    axis: 1
  }
}
layer {
  name: "conv7_2_mbox_priorbox"
  type: "PriorBox"
  bottom: "conv7_2"
  bottom: "data"
  top: "conv7_2_mbox_priorbox"
  prior_box_param {
    min_size: 162
    max_size: 213
    aspect_ratio: 2
    aspect_ratio: 3
    flip: true
    clip: false
    variance: 0.1
    variance: 0.1
    variance: 0.2
    variance: 0.2
    step: 64
    offset: 0.5
  }
}
layer {
  name: "conv8_2_mbox_loc"
  type: "Convolution"
  bottom: "conv8_2"
  top: "conv8_2_mbox_loc"
  param {
    lr_mult: 1
    decay_mult: 1
  }
  param {
    lr_mult: 2
    decay_mult: 0
  }
  convolution_param {
    num_output: 16
    pad: 1
    kernel_size: 3
    stride: 1
    weight_filler {
      type: "xavier"
    }
    bias_filler {
      type: "constant"
      value: 0
    }
  }
}
layer {
  name: "conv8_2_mbox_loc_perm"
  type: "Permute"
  bottom: "conv8_2_mbox_loc"
  top: "conv8_2_mbox_loc_perm"
  permute_param {
    order: 0
    order: 2
    order: 3
    order: 1
  }
}
layer {
  name: "conv8_2_mbox_loc_flat"
  type: "Flatten"
  bottom: "conv8_2_mbox_loc_perm"
  top: "conv8_2_mbox_loc_flat"
  flatten_param {
    axis: 1
  }
}
layer {
  name: "conv8_2_mbox_conf"
  type: "Convolution"
  bottom: "conv8_2"
  top: "conv8_2_mbox_conf"
  param {
    lr_mult: 1
    decay_mult: 1
  }
  param {
    lr_mult: 2
    decay_mult: 0
  }
  convolution_param {
    num_output: 16
    pad: 1
    kernel_size: 3
    stride: 1
    weight_filler {
      type: "xavier"
    }
    bias_filler {
      type: "constant"
      value: 0
    }
  }
}
layer {
  name: "conv8_2_mbox_conf_perm"
  type: "Permute"
  bottom: "conv8_2_mbox_conf"
  top: "conv8_2_mbox_conf_perm"
  permute_param {
    order: 0
    order: 2
    order: 3
    order: 1
  }
}
layer {
  name: "conv8_2_mbox_conf_flat"
  type: "Flatten"
  bottom: "conv8_2_mbox_conf_perm"
  top: "conv8_2_mbox_conf_flat"
  flatten_param {
    axis: 1
  }
}
layer {
  name: "conv8_2_mbox_priorbox"
  type: "PriorBox"
  bottom: "conv8_2"
  bottom: "data"
  top: "conv8_2_mbox_priorbox"
  prior_box_param {
    min_size: 213
    max_size: 264
    aspect_ratio: 2
    flip: true
    clip: false
    variance: 0.1
    variance: 0.1
    variance: 0.2
    variance: 0.2
    step: 100
    offset: 0.5
  }
}
layer {
  name: "conv9_2_mbox_loc"
  type: "Convolution"
  bottom: "conv9_2"
  top: "conv9_2_mbox_loc"
  param {
    lr_mult: 1
    decay_mult: 1
  }
  param {
    lr_mult: 2
    decay_mult: 0
  }
  convolution_param {
    num_output: 16
    pad: 1
    kernel_size: 3
    stride: 1
    weight_filler {
      type: "xavier"
    }
    bias_filler {
      type: "constant"
      value: 0
    }
  }
}
layer {
  name: "conv9_2_mbox_loc_perm"
  type: "Permute"
  bottom: "conv9_2_mbox_loc"
  top: "conv9_2_mbox_loc_perm"
  permute_param {
    order: 0
    order: 2
    order: 3
    order: 1
  }
}
layer {
  name: "conv9_2_mbox_loc_flat"
  type: "Flatten"
  bottom: "conv9_2_mbox_loc_perm"
  top: "conv9_2_mbox_loc_flat"
  flatten_param {
    axis: 1
  }
}
layer {
  name: "conv9_2_mbox_conf"
  type: "Convolution"
  bottom: "conv9_2"
  top: "conv9_2_mbox_conf"
  param {
    lr_mult: 1
    decay_mult: 1
  }
  param {
    lr_mult: 2
    decay_mult: 0
  }
  convolution_param {
    num_output: 16
    pad: 1
    kernel_size: 3
    stride: 1
    weight_filler {
      type: "xavier"
    }
    bias_filler {
      type: "constant"
      value: 0
    }
  }
}
layer {
  name: "conv9_2_mbox_conf_perm"
  type: "Permute"
  bottom: "conv9_2_mbox_conf"
  top: "conv9_2_mbox_conf_perm"
  permute_param {
    order: 0
    order: 2
    order: 3
    order: 1
  }
}
layer {
  name: "conv9_2_mbox_conf_flat"
  type: "Flatten"
  bottom: "conv9_2_mbox_conf_perm"
  top: "conv9_2_mbox_conf_flat"
  flatten_param {
    axis: 1
  }
}
layer {
  name: "conv9_2_mbox_priorbox"
  type: "PriorBox"
  bottom: "conv9_2"
  bottom: "data"
  top: "conv9_2_mbox_priorbox"
  prior_box_param {
    min_size: 264
    max_size: 315
    aspect_ratio: 2
    flip: true
    clip: false
    variance: 0.1
    variance: 0.1
    variance: 0.2
    variance: 0.2
    step: 300
    offset: 0.5
  }
}
layer {
  name: "mbox_loc"
  type: "Concat"
  bottom: "conv4_3_norm_mbox_loc_flat"
  bottom: "fc7_mbox_loc_flat"
  bottom: "conv6_2_mbox_loc_flat"
  bottom: "conv7_2_mbox_loc_flat"
  bottom: "conv8_2_mbox_loc_flat"
  bottom: "conv9_2_mbox_loc_flat"
  top: "mbox_loc"
  concat_param {
    axis: 1
  }
}
layer {
  name: "mbox_conf"
  type: "Concat"
  bottom: "conv4_3_norm_mbox_conf_flat"
  bottom: "fc7_mbox_conf_flat"
  bottom: "conv6_2_mbox_conf_flat"
  bottom: "conv7_2_mbox_conf_flat"
  bottom: "conv8_2_mbox_conf_flat"
  bottom: "conv9_2_mbox_conf_flat"
  top: "mbox_conf"
  concat_param {
    axis: 1
  }
}
layer {
  name: "mbox_priorbox"
  type: "Concat"
  bottom: "conv4_3_norm_mbox_priorbox"
  bottom: "fc7_mbox_priorbox"
  bottom: "conv6_2_mbox_priorbox"
  bottom: "conv7_2_mbox_priorbox"
  bottom: "conv8_2_mbox_priorbox"
  bottom: "conv9_2_mbox_priorbox"
  top: "mbox_priorbox"
  concat_param {
    axis: 2
  }
}
layer {
  name: "mbox_conf_reshape"
  type: "Reshape"
  bottom: "mbox_conf"
  top: "mbox_conf_reshape"
  reshape_param {
    shape {
      dim: 0
      dim: -1
      dim: 4
    }
  }
}
layer {
  name: "mbox_conf_softmax"
  type: "Softmax"
  bottom: "mbox_conf_reshape"
  top: "mbox_conf_softmax"
  softmax_param {
    axis: 2
  }
}
layer {
  name: "mbox_conf_flatten"
  type: "Flatten"
  bottom: "mbox_conf_softmax"
  top: "mbox_conf_flatten"
  flatten_param {
    axis: 1
  }
}
layer {
  name: "detection_out"
  type: "DetectionOutput"
  bottom: "mbox_loc"
  bottom: "mbox_conf_flatten"
  bottom: "mbox_priorbox"
  top: "detection_out"
  include {
    phase: TEST
  }
  detection_output_param {
    num_classes: 4
    share_location: true
    background_label_id: 0
    nms_param {
      nms_threshold: 0.45
      top_k: 400
    }
    save_output_param {
      output_directory: "/home/shangzw/data/tbs/results/tbs/SSD_300x300/Main"
      output_name_prefix: "comp4_det_test_"
      output_format: "VOC"
      label_map_file: "data/tbs_300x300_HSIL_10x/labelmap_tbs.prototxt"
      name_size_file: "data/VOC0712/test_name_size.txt"
      num_test_image: 100
    }
    code_type: CENTER_SIZE
    keep_top_k: 200
    confidence_threshold: 0.01
  }
}
layer {
  name: "detection_eval"
  type: "DetectionEvaluate"
  bottom: "detection_out"
  bottom: "label"
  top: "detection_eval"
  include {
    phase: TEST
  }
  detection_evaluate_param {
    num_classes: 4
    background_label_id: 0
    overlap_threshold: 0.5
    evaluate_difficult_gt: false
    name_size_file: "data/VOC0712/test_name_size.txt"
  }
}
I0601 11:46:28.815757 30251 layer_factory.hpp:77] Creating layer data
I0601 11:46:28.815812 30251 net.cpp:100] Creating Layer data
I0601 11:46:28.815820 30251 net.cpp:408] data -> data
I0601 11:46:28.815832 30251 net.cpp:408] data -> label
I0601 11:46:28.816330 30270 db_lmdb.cpp:35] Opened lmdb examples/tbs_300x300_HSIL_10x/tbs_300x300_HSIL_10x_test_lmdb
I0601 11:46:28.816983 30251 annotated_data_layer.cpp:62] output data size: 4,3,300,300
I0601 11:46:28.826249 30251 net.cpp:150] Setting up data
I0601 11:46:28.826267 30251 net.cpp:157] Top shape: 4 3 300 300 (1080000)
I0601 11:46:28.826287 30251 net.cpp:157] Top shape: 1 1 1 8 (8)
I0601 11:46:28.826288 30251 net.cpp:165] Memory required for data: 4320032
I0601 11:46:28.826292 30251 layer_factory.hpp:77] Creating layer data_data_0_split
I0601 11:46:28.826303 30251 net.cpp:100] Creating Layer data_data_0_split
I0601 11:46:28.826305 30251 net.cpp:434] data_data_0_split <- data
I0601 11:46:28.826324 30251 net.cpp:408] data_data_0_split -> data_data_0_split_0
I0601 11:46:28.826333 30251 net.cpp:408] data_data_0_split -> data_data_0_split_1
I0601 11:46:28.826344 30251 net.cpp:408] data_data_0_split -> data_data_0_split_2
I0601 11:46:28.826349 30251 net.cpp:408] data_data_0_split -> data_data_0_split_3
I0601 11:46:28.826355 30251 net.cpp:408] data_data_0_split -> data_data_0_split_4
I0601 11:46:28.826359 30251 net.cpp:408] data_data_0_split -> data_data_0_split_5
I0601 11:46:28.826365 30251 net.cpp:408] data_data_0_split -> data_data_0_split_6
I0601 11:46:28.826444 30251 net.cpp:150] Setting up data_data_0_split
I0601 11:46:28.826449 30251 net.cpp:157] Top shape: 4 3 300 300 (1080000)
I0601 11:46:28.826452 30251 net.cpp:157] Top shape: 4 3 300 300 (1080000)
I0601 11:46:28.826455 30251 net.cpp:157] Top shape: 4 3 300 300 (1080000)
I0601 11:46:28.826457 30251 net.cpp:157] Top shape: 4 3 300 300 (1080000)
I0601 11:46:28.826460 30251 net.cpp:157] Top shape: 4 3 300 300 (1080000)
I0601 11:46:28.826473 30251 net.cpp:157] Top shape: 4 3 300 300 (1080000)
I0601 11:46:28.826478 30251 net.cpp:157] Top shape: 4 3 300 300 (1080000)
I0601 11:46:28.826479 30251 net.cpp:165] Memory required for data: 34560032
I0601 11:46:28.826481 30251 layer_factory.hpp:77] Creating layer conv1_1
I0601 11:46:28.826489 30251 net.cpp:100] Creating Layer conv1_1
I0601 11:46:28.826494 30251 net.cpp:434] conv1_1 <- data_data_0_split_0
I0601 11:46:28.826500 30251 net.cpp:408] conv1_1 -> conv1_1
I0601 11:46:28.826788 30251 net.cpp:150] Setting up conv1_1
I0601 11:46:28.826797 30251 net.cpp:157] Top shape: 4 64 300 300 (23040000)
I0601 11:46:28.826800 30251 net.cpp:165] Memory required for data: 126720032
I0601 11:46:28.826812 30251 layer_factory.hpp:77] Creating layer relu1_1
I0601 11:46:28.826818 30251 net.cpp:100] Creating Layer relu1_1
I0601 11:46:28.826825 30251 net.cpp:434] relu1_1 <- conv1_1
I0601 11:46:28.826831 30251 net.cpp:395] relu1_1 -> conv1_1 (in-place)
I0601 11:46:28.826838 30251 net.cpp:150] Setting up relu1_1
I0601 11:46:28.826846 30251 net.cpp:157] Top shape: 4 64 300 300 (23040000)
I0601 11:46:28.826849 30251 net.cpp:165] Memory required for data: 218880032
I0601 11:46:28.826854 30251 layer_factory.hpp:77] Creating layer conv1_2
I0601 11:46:28.826864 30251 net.cpp:100] Creating Layer conv1_2
I0601 11:46:28.826867 30251 net.cpp:434] conv1_2 <- conv1_1
I0601 11:46:28.826874 30251 net.cpp:408] conv1_2 -> conv1_2
I0601 11:46:28.827236 30251 net.cpp:150] Setting up conv1_2
I0601 11:46:28.827244 30251 net.cpp:157] Top shape: 4 64 300 300 (23040000)
I0601 11:46:28.827247 30251 net.cpp:165] Memory required for data: 311040032
I0601 11:46:28.827255 30251 layer_factory.hpp:77] Creating layer relu1_2
I0601 11:46:28.827262 30251 net.cpp:100] Creating Layer relu1_2
I0601 11:46:28.827266 30251 net.cpp:434] relu1_2 <- conv1_2
I0601 11:46:28.827271 30251 net.cpp:395] relu1_2 -> conv1_2 (in-place)
I0601 11:46:28.827277 30251 net.cpp:150] Setting up relu1_2
I0601 11:46:28.827285 30251 net.cpp:157] Top shape: 4 64 300 300 (23040000)
I0601 11:46:28.827287 30251 net.cpp:165] Memory required for data: 403200032
I0601 11:46:28.827291 30251 layer_factory.hpp:77] Creating layer pool1
I0601 11:46:28.827297 30251 net.cpp:100] Creating Layer pool1
I0601 11:46:28.827302 30251 net.cpp:434] pool1 <- conv1_2
I0601 11:46:28.827307 30251 net.cpp:408] pool1 -> pool1
I0601 11:46:28.827338 30251 net.cpp:150] Setting up pool1
I0601 11:46:28.827345 30251 net.cpp:157] Top shape: 4 64 150 150 (5760000)
I0601 11:46:28.827348 30251 net.cpp:165] Memory required for data: 426240032
I0601 11:46:28.827353 30251 layer_factory.hpp:77] Creating layer conv2_1
I0601 11:46:28.827359 30251 net.cpp:100] Creating Layer conv2_1
I0601 11:46:28.827364 30251 net.cpp:434] conv2_1 <- pool1
I0601 11:46:28.827371 30251 net.cpp:408] conv2_1 -> conv2_1
I0601 11:46:28.829587 30251 net.cpp:150] Setting up conv2_1
I0601 11:46:28.829602 30251 net.cpp:157] Top shape: 4 128 150 150 (11520000)
I0601 11:46:28.829604 30251 net.cpp:165] Memory required for data: 472320032
I0601 11:46:28.829617 30251 layer_factory.hpp:77] Creating layer relu2_1
I0601 11:46:28.829625 30251 net.cpp:100] Creating Layer relu2_1
I0601 11:46:28.829632 30251 net.cpp:434] relu2_1 <- conv2_1
I0601 11:46:28.829638 30251 net.cpp:395] relu2_1 -> conv2_1 (in-place)
I0601 11:46:28.829648 30251 net.cpp:150] Setting up relu2_1
I0601 11:46:28.829653 30251 net.cpp:157] Top shape: 4 128 150 150 (11520000)
I0601 11:46:28.829656 30251 net.cpp:165] Memory required for data: 518400032
I0601 11:46:28.829660 30251 layer_factory.hpp:77] Creating layer conv2_2
I0601 11:46:28.829669 30251 net.cpp:100] Creating Layer conv2_2
I0601 11:46:28.829674 30251 net.cpp:434] conv2_2 <- conv2_1
I0601 11:46:28.829680 30251 net.cpp:408] conv2_2 -> conv2_2
I0601 11:46:28.831130 30251 net.cpp:150] Setting up conv2_2
I0601 11:46:28.831141 30251 net.cpp:157] Top shape: 4 128 150 150 (11520000)
I0601 11:46:28.831145 30251 net.cpp:165] Memory required for data: 564480032
I0601 11:46:28.831151 30251 layer_factory.hpp:77] Creating layer relu2_2
I0601 11:46:28.831171 30251 net.cpp:100] Creating Layer relu2_2
I0601 11:46:28.831177 30251 net.cpp:434] relu2_2 <- conv2_2
I0601 11:46:28.831183 30251 net.cpp:395] relu2_2 -> conv2_2 (in-place)
I0601 11:46:28.831192 30251 net.cpp:150] Setting up relu2_2
I0601 11:46:28.831198 30251 net.cpp:157] Top shape: 4 128 150 150 (11520000)
I0601 11:46:28.831203 30251 net.cpp:165] Memory required for data: 610560032
I0601 11:46:28.831207 30251 layer_factory.hpp:77] Creating layer pool2
I0601 11:46:28.831213 30251 net.cpp:100] Creating Layer pool2
I0601 11:46:28.831218 30251 net.cpp:434] pool2 <- conv2_2
I0601 11:46:28.831224 30251 net.cpp:408] pool2 -> pool2
I0601 11:46:28.831269 30251 net.cpp:150] Setting up pool2
I0601 11:46:28.831279 30251 net.cpp:157] Top shape: 4 128 75 75 (2880000)
I0601 11:46:28.831281 30251 net.cpp:165] Memory required for data: 622080032
I0601 11:46:28.831286 30251 layer_factory.hpp:77] Creating layer conv3_1
I0601 11:46:28.831295 30251 net.cpp:100] Creating Layer conv3_1
I0601 11:46:28.831300 30251 net.cpp:434] conv3_1 <- pool2
I0601 11:46:28.831306 30251 net.cpp:408] conv3_1 -> conv3_1
I0601 11:46:28.833017 30251 net.cpp:150] Setting up conv3_1
I0601 11:46:28.833029 30251 net.cpp:157] Top shape: 4 256 75 75 (5760000)
I0601 11:46:28.833031 30251 net.cpp:165] Memory required for data: 645120032
I0601 11:46:28.833039 30251 layer_factory.hpp:77] Creating layer relu3_1
I0601 11:46:28.833046 30251 net.cpp:100] Creating Layer relu3_1
I0601 11:46:28.833051 30251 net.cpp:434] relu3_1 <- conv3_1
I0601 11:46:28.833056 30251 net.cpp:395] relu3_1 -> conv3_1 (in-place)
I0601 11:46:28.833063 30251 net.cpp:150] Setting up relu3_1
I0601 11:46:28.833068 30251 net.cpp:157] Top shape: 4 256 75 75 (5760000)
I0601 11:46:28.833072 30251 net.cpp:165] Memory required for data: 668160032
I0601 11:46:28.833076 30251 layer_factory.hpp:77] Creating layer conv3_2
I0601 11:46:28.833083 30251 net.cpp:100] Creating Layer conv3_2
I0601 11:46:28.833087 30251 net.cpp:434] conv3_2 <- conv3_1
I0601 11:46:28.833093 30251 net.cpp:408] conv3_2 -> conv3_2
I0601 11:46:28.836745 30251 net.cpp:150] Setting up conv3_2
I0601 11:46:28.836757 30251 net.cpp:157] Top shape: 4 256 75 75 (5760000)
I0601 11:46:28.836760 30251 net.cpp:165] Memory required for data: 691200032
I0601 11:46:28.836766 30251 layer_factory.hpp:77] Creating layer relu3_2
I0601 11:46:28.836773 30251 net.cpp:100] Creating Layer relu3_2
I0601 11:46:28.836778 30251 net.cpp:434] relu3_2 <- conv3_2
I0601 11:46:28.836784 30251 net.cpp:395] relu3_2 -> conv3_2 (in-place)
I0601 11:46:28.836793 30251 net.cpp:150] Setting up relu3_2
I0601 11:46:28.836798 30251 net.cpp:157] Top shape: 4 256 75 75 (5760000)
I0601 11:46:28.836802 30251 net.cpp:165] Memory required for data: 714240032
I0601 11:46:28.836804 30251 layer_factory.hpp:77] Creating layer conv3_3
I0601 11:46:28.836817 30251 net.cpp:100] Creating Layer conv3_3
I0601 11:46:28.836822 30251 net.cpp:434] conv3_3 <- conv3_2
I0601 11:46:28.836827 30251 net.cpp:408] conv3_3 -> conv3_3
I0601 11:46:28.840422 30251 net.cpp:150] Setting up conv3_3
I0601 11:46:28.840436 30251 net.cpp:157] Top shape: 4 256 75 75 (5760000)
I0601 11:46:28.840438 30251 net.cpp:165] Memory required for data: 737280032
I0601 11:46:28.840445 30251 layer_factory.hpp:77] Creating layer relu3_3
I0601 11:46:28.840451 30251 net.cpp:100] Creating Layer relu3_3
I0601 11:46:28.840456 30251 net.cpp:434] relu3_3 <- conv3_3
I0601 11:46:28.840462 30251 net.cpp:395] relu3_3 -> conv3_3 (in-place)
I0601 11:46:28.840471 30251 net.cpp:150] Setting up relu3_3
I0601 11:46:28.840476 30251 net.cpp:157] Top shape: 4 256 75 75 (5760000)
I0601 11:46:28.840479 30251 net.cpp:165] Memory required for data: 760320032
I0601 11:46:28.840482 30251 layer_factory.hpp:77] Creating layer pool3
I0601 11:46:28.840488 30251 net.cpp:100] Creating Layer pool3
I0601 11:46:28.840492 30251 net.cpp:434] pool3 <- conv3_3
I0601 11:46:28.840497 30251 net.cpp:408] pool3 -> pool3
I0601 11:46:28.840541 30251 net.cpp:150] Setting up pool3
I0601 11:46:28.840551 30251 net.cpp:157] Top shape: 4 256 38 38 (1478656)
I0601 11:46:28.840569 30251 net.cpp:165] Memory required for data: 766234656
I0601 11:46:28.840574 30251 layer_factory.hpp:77] Creating layer conv4_1
I0601 11:46:28.840584 30251 net.cpp:100] Creating Layer conv4_1
I0601 11:46:28.840590 30251 net.cpp:434] conv4_1 <- pool3
I0601 11:46:28.840598 30251 net.cpp:408] conv4_1 -> conv4_1
I0601 11:46:28.846858 30251 net.cpp:150] Setting up conv4_1
I0601 11:46:28.846876 30251 net.cpp:157] Top shape: 4 512 38 38 (2957312)
I0601 11:46:28.846879 30251 net.cpp:165] Memory required for data: 778063904
I0601 11:46:28.846885 30251 layer_factory.hpp:77] Creating layer relu4_1
I0601 11:46:28.846892 30251 net.cpp:100] Creating Layer relu4_1
I0601 11:46:28.846897 30251 net.cpp:434] relu4_1 <- conv4_1
I0601 11:46:28.846904 30251 net.cpp:395] relu4_1 -> conv4_1 (in-place)
I0601 11:46:28.846913 30251 net.cpp:150] Setting up relu4_1
I0601 11:46:28.846920 30251 net.cpp:157] Top shape: 4 512 38 38 (2957312)
I0601 11:46:28.846922 30251 net.cpp:165] Memory required for data: 789893152
I0601 11:46:28.846925 30251 layer_factory.hpp:77] Creating layer conv4_2
I0601 11:46:28.846933 30251 net.cpp:100] Creating Layer conv4_2
I0601 11:46:28.846938 30251 net.cpp:434] conv4_2 <- conv4_1
I0601 11:46:28.846946 30251 net.cpp:408] conv4_2 -> conv4_2
I0601 11:46:28.859107 30251 net.cpp:150] Setting up conv4_2
I0601 11:46:28.859123 30251 net.cpp:157] Top shape: 4 512 38 38 (2957312)
I0601 11:46:28.859127 30251 net.cpp:165] Memory required for data: 801722400
I0601 11:46:28.859151 30251 layer_factory.hpp:77] Creating layer relu4_2
I0601 11:46:28.859159 30251 net.cpp:100] Creating Layer relu4_2
I0601 11:46:28.859163 30251 net.cpp:434] relu4_2 <- conv4_2
I0601 11:46:28.859169 30251 net.cpp:395] relu4_2 -> conv4_2 (in-place)
I0601 11:46:28.859174 30251 net.cpp:150] Setting up relu4_2
I0601 11:46:28.859179 30251 net.cpp:157] Top shape: 4 512 38 38 (2957312)
I0601 11:46:28.859181 30251 net.cpp:165] Memory required for data: 813551648
I0601 11:46:28.859185 30251 layer_factory.hpp:77] Creating layer conv4_3
I0601 11:46:28.859194 30251 net.cpp:100] Creating Layer conv4_3
I0601 11:46:28.859199 30251 net.cpp:434] conv4_3 <- conv4_2
I0601 11:46:28.859203 30251 net.cpp:408] conv4_3 -> conv4_3
I0601 11:46:28.871628 30251 net.cpp:150] Setting up conv4_3
I0601 11:46:28.871646 30251 net.cpp:157] Top shape: 4 512 38 38 (2957312)
I0601 11:46:28.871649 30251 net.cpp:165] Memory required for data: 825380896
I0601 11:46:28.871654 30251 layer_factory.hpp:77] Creating layer relu4_3
I0601 11:46:28.871676 30251 net.cpp:100] Creating Layer relu4_3
I0601 11:46:28.871693 30251 net.cpp:434] relu4_3 <- conv4_3
I0601 11:46:28.871698 30251 net.cpp:395] relu4_3 -> conv4_3 (in-place)
I0601 11:46:28.871704 30251 net.cpp:150] Setting up relu4_3
I0601 11:46:28.871708 30251 net.cpp:157] Top shape: 4 512 38 38 (2957312)
I0601 11:46:28.871711 30251 net.cpp:165] Memory required for data: 837210144
I0601 11:46:28.871712 30251 layer_factory.hpp:77] Creating layer conv4_3_relu4_3_0_split
I0601 11:46:28.871716 30251 net.cpp:100] Creating Layer conv4_3_relu4_3_0_split
I0601 11:46:28.871719 30251 net.cpp:434] conv4_3_relu4_3_0_split <- conv4_3
I0601 11:46:28.871723 30251 net.cpp:408] conv4_3_relu4_3_0_split -> conv4_3_relu4_3_0_split_0
I0601 11:46:28.871727 30251 net.cpp:408] conv4_3_relu4_3_0_split -> conv4_3_relu4_3_0_split_1
I0601 11:46:28.871760 30251 net.cpp:150] Setting up conv4_3_relu4_3_0_split
I0601 11:46:28.871767 30251 net.cpp:157] Top shape: 4 512 38 38 (2957312)
I0601 11:46:28.871769 30251 net.cpp:157] Top shape: 4 512 38 38 (2957312)
I0601 11:46:28.871770 30251 net.cpp:165] Memory required for data: 860868640
I0601 11:46:28.871773 30251 layer_factory.hpp:77] Creating layer pool4
I0601 11:46:28.871778 30251 net.cpp:100] Creating Layer pool4
I0601 11:46:28.871779 30251 net.cpp:434] pool4 <- conv4_3_relu4_3_0_split_0
I0601 11:46:28.871784 30251 net.cpp:408] pool4 -> pool4
I0601 11:46:28.871809 30251 net.cpp:150] Setting up pool4
I0601 11:46:28.871814 30251 net.cpp:157] Top shape: 4 512 19 19 (739328)
I0601 11:46:28.871815 30251 net.cpp:165] Memory required for data: 863825952
I0601 11:46:28.871829 30251 layer_factory.hpp:77] Creating layer conv5_1
I0601 11:46:28.871836 30251 net.cpp:100] Creating Layer conv5_1
I0601 11:46:28.871841 30251 net.cpp:434] conv5_1 <- pool4
I0601 11:46:28.871845 30251 net.cpp:408] conv5_1 -> conv5_1
I0601 11:46:28.883994 30251 net.cpp:150] Setting up conv5_1
I0601 11:46:28.884032 30251 net.cpp:157] Top shape: 4 512 19 19 (739328)
I0601 11:46:28.884037 30251 net.cpp:165] Memory required for data: 866783264
I0601 11:46:28.884047 30251 layer_factory.hpp:77] Creating layer relu5_1
I0601 11:46:28.884057 30251 net.cpp:100] Creating Layer relu5_1
I0601 11:46:28.884063 30251 net.cpp:434] relu5_1 <- conv5_1
I0601 11:46:28.884070 30251 net.cpp:395] relu5_1 -> conv5_1 (in-place)
I0601 11:46:28.884078 30251 net.cpp:150] Setting up relu5_1
I0601 11:46:28.884085 30251 net.cpp:157] Top shape: 4 512 19 19 (739328)
I0601 11:46:28.884089 30251 net.cpp:165] Memory required for data: 869740576
I0601 11:46:28.884094 30251 layer_factory.hpp:77] Creating layer conv5_2
I0601 11:46:28.884106 30251 net.cpp:100] Creating Layer conv5_2
I0601 11:46:28.884110 30251 net.cpp:434] conv5_2 <- conv5_1
I0601 11:46:28.884119 30251 net.cpp:408] conv5_2 -> conv5_2
I0601 11:46:28.896241 30251 net.cpp:150] Setting up conv5_2
I0601 11:46:28.896263 30251 net.cpp:157] Top shape: 4 512 19 19 (739328)
I0601 11:46:28.896266 30251 net.cpp:165] Memory required for data: 872697888
I0601 11:46:28.896275 30251 layer_factory.hpp:77] Creating layer relu5_2
I0601 11:46:28.896301 30251 net.cpp:100] Creating Layer relu5_2
I0601 11:46:28.896306 30251 net.cpp:434] relu5_2 <- conv5_2
I0601 11:46:28.896314 30251 net.cpp:395] relu5_2 -> conv5_2 (in-place)
I0601 11:46:28.896324 30251 net.cpp:150] Setting up relu5_2
I0601 11:46:28.896332 30251 net.cpp:157] Top shape: 4 512 19 19 (739328)
I0601 11:46:28.896334 30251 net.cpp:165] Memory required for data: 875655200
I0601 11:46:28.896338 30251 layer_factory.hpp:77] Creating layer conv5_3
I0601 11:46:28.896350 30251 net.cpp:100] Creating Layer conv5_3
I0601 11:46:28.896354 30251 net.cpp:434] conv5_3 <- conv5_2
I0601 11:46:28.896363 30251 net.cpp:408] conv5_3 -> conv5_3
I0601 11:46:28.908033 30251 net.cpp:150] Setting up conv5_3
I0601 11:46:28.908054 30251 net.cpp:157] Top shape: 4 512 19 19 (739328)
I0601 11:46:28.908058 30251 net.cpp:165] Memory required for data: 878612512
I0601 11:46:28.908067 30251 layer_factory.hpp:77] Creating layer relu5_3
I0601 11:46:28.908083 30251 net.cpp:100] Creating Layer relu5_3
I0601 11:46:28.908090 30251 net.cpp:434] relu5_3 <- conv5_3
I0601 11:46:28.908098 30251 net.cpp:395] relu5_3 -> conv5_3 (in-place)
I0601 11:46:28.908109 30251 net.cpp:150] Setting up relu5_3
I0601 11:46:28.908115 30251 net.cpp:157] Top shape: 4 512 19 19 (739328)
I0601 11:46:28.908118 30251 net.cpp:165] Memory required for data: 881569824
I0601 11:46:28.908123 30251 layer_factory.hpp:77] Creating layer pool5
I0601 11:46:28.908130 30251 net.cpp:100] Creating Layer pool5
I0601 11:46:28.908135 30251 net.cpp:434] pool5 <- conv5_3
I0601 11:46:28.908141 30251 net.cpp:408] pool5 -> pool5
I0601 11:46:28.908187 30251 net.cpp:150] Setting up pool5
I0601 11:46:28.908193 30251 net.cpp:157] Top shape: 4 512 19 19 (739328)
I0601 11:46:28.908197 30251 net.cpp:165] Memory required for data: 884527136
I0601 11:46:28.908200 30251 layer_factory.hpp:77] Creating layer fc6
I0601 11:46:28.908215 30251 net.cpp:100] Creating Layer fc6
I0601 11:46:28.908218 30251 net.cpp:434] fc6 <- pool5
I0601 11:46:28.908226 30251 net.cpp:408] fc6 -> fc6
I0601 11:46:28.930861 30251 net.cpp:150] Setting up fc6
I0601 11:46:28.930883 30251 net.cpp:157] Top shape: 4 1024 19 19 (1478656)
I0601 11:46:28.930886 30251 net.cpp:165] Memory required for data: 890441760
I0601 11:46:28.930894 30251 layer_factory.hpp:77] Creating layer relu6
I0601 11:46:28.930917 30251 net.cpp:100] Creating Layer relu6
I0601 11:46:28.930923 30251 net.cpp:434] relu6 <- fc6
I0601 11:46:28.930945 30251 net.cpp:395] relu6 -> fc6 (in-place)
I0601 11:46:28.930966 30251 net.cpp:150] Setting up relu6
I0601 11:46:28.930980 30251 net.cpp:157] Top shape: 4 1024 19 19 (1478656)
I0601 11:46:28.931011 30251 net.cpp:165] Memory required for data: 896356384
I0601 11:46:28.931015 30251 layer_factory.hpp:77] Creating layer fc7
I0601 11:46:28.931026 30251 net.cpp:100] Creating Layer fc7
I0601 11:46:28.931031 30251 net.cpp:434] fc7 <- fc6
I0601 11:46:28.931038 30251 net.cpp:408] fc7 -> fc7
I0601 11:46:28.936524 30251 net.cpp:150] Setting up fc7
I0601 11:46:28.936547 30251 net.cpp:157] Top shape: 4 1024 19 19 (1478656)
I0601 11:46:28.936550 30251 net.cpp:165] Memory required for data: 902271008
I0601 11:46:28.936558 30251 layer_factory.hpp:77] Creating layer relu7
I0601 11:46:28.936568 30251 net.cpp:100] Creating Layer relu7
I0601 11:46:28.936573 30251 net.cpp:434] relu7 <- fc7
I0601 11:46:28.936597 30251 net.cpp:395] relu7 -> fc7 (in-place)
I0601 11:46:28.936607 30251 net.cpp:150] Setting up relu7
I0601 11:46:28.936614 30251 net.cpp:157] Top shape: 4 1024 19 19 (1478656)
I0601 11:46:28.936617 30251 net.cpp:165] Memory required for data: 908185632
I0601 11:46:28.936620 30251 layer_factory.hpp:77] Creating layer fc7_relu7_0_split
I0601 11:46:28.936626 30251 net.cpp:100] Creating Layer fc7_relu7_0_split
I0601 11:46:28.936631 30251 net.cpp:434] fc7_relu7_0_split <- fc7
I0601 11:46:28.936640 30251 net.cpp:408] fc7_relu7_0_split -> fc7_relu7_0_split_0
I0601 11:46:28.936648 30251 net.cpp:408] fc7_relu7_0_split -> fc7_relu7_0_split_1
I0601 11:46:28.936676 30251 net.cpp:408] fc7_relu7_0_split -> fc7_relu7_0_split_2
I0601 11:46:28.936684 30251 net.cpp:408] fc7_relu7_0_split -> fc7_relu7_0_split_3
I0601 11:46:28.936735 30251 net.cpp:150] Setting up fc7_relu7_0_split
I0601 11:46:28.936741 30251 net.cpp:157] Top shape: 4 1024 19 19 (1478656)
I0601 11:46:28.936748 30251 net.cpp:157] Top shape: 4 1024 19 19 (1478656)
I0601 11:46:28.936753 30251 net.cpp:157] Top shape: 4 1024 19 19 (1478656)
I0601 11:46:28.936758 30251 net.cpp:157] Top shape: 4 1024 19 19 (1478656)
I0601 11:46:28.936761 30251 net.cpp:165] Memory required for data: 931844128
I0601 11:46:28.936765 30251 layer_factory.hpp:77] Creating layer conv6_1
I0601 11:46:28.936776 30251 net.cpp:100] Creating Layer conv6_1
I0601 11:46:28.936781 30251 net.cpp:434] conv6_1 <- fc7_relu7_0_split_0
I0601 11:46:28.936789 30251 net.cpp:408] conv6_1 -> conv6_1
I0601 11:46:28.938724 30251 net.cpp:150] Setting up conv6_1
I0601 11:46:28.938736 30251 net.cpp:157] Top shape: 4 256 19 19 (369664)
I0601 11:46:28.938740 30251 net.cpp:165] Memory required for data: 933322784
I0601 11:46:28.938747 30251 layer_factory.hpp:77] Creating layer conv6_1_relu
I0601 11:46:28.938753 30251 net.cpp:100] Creating Layer conv6_1_relu
I0601 11:46:28.938760 30251 net.cpp:434] conv6_1_relu <- conv6_1
I0601 11:46:28.938766 30251 net.cpp:395] conv6_1_relu -> conv6_1 (in-place)
I0601 11:46:28.938773 30251 net.cpp:150] Setting up conv6_1_relu
I0601 11:46:28.938779 30251 net.cpp:157] Top shape: 4 256 19 19 (369664)
I0601 11:46:28.938784 30251 net.cpp:165] Memory required for data: 934801440
I0601 11:46:28.938788 30251 layer_factory.hpp:77] Creating layer conv6_2
I0601 11:46:28.938802 30251 net.cpp:100] Creating Layer conv6_2
I0601 11:46:28.938807 30251 net.cpp:434] conv6_2 <- conv6_1
I0601 11:46:28.938813 30251 net.cpp:408] conv6_2 -> conv6_2
I0601 11:46:28.944818 30251 net.cpp:150] Setting up conv6_2
I0601 11:46:28.944840 30251 net.cpp:157] Top shape: 4 512 10 10 (204800)
I0601 11:46:28.944844 30251 net.cpp:165] Memory required for data: 935620640
I0601 11:46:28.944861 30251 layer_factory.hpp:77] Creating layer conv6_2_relu
I0601 11:46:28.944876 30251 net.cpp:100] Creating Layer conv6_2_relu
I0601 11:46:28.944882 30251 net.cpp:434] conv6_2_relu <- conv6_2
I0601 11:46:28.944890 30251 net.cpp:395] conv6_2_relu -> conv6_2 (in-place)
I0601 11:46:28.944900 30251 net.cpp:150] Setting up conv6_2_relu
I0601 11:46:28.944905 30251 net.cpp:157] Top shape: 4 512 10 10 (204800)
I0601 11:46:28.944910 30251 net.cpp:165] Memory required for data: 936439840
I0601 11:46:28.944912 30251 layer_factory.hpp:77] Creating layer conv6_2_conv6_2_relu_0_split
I0601 11:46:28.944919 30251 net.cpp:100] Creating Layer conv6_2_conv6_2_relu_0_split
I0601 11:46:28.944934 30251 net.cpp:434] conv6_2_conv6_2_relu_0_split <- conv6_2
I0601 11:46:28.944942 30251 net.cpp:408] conv6_2_conv6_2_relu_0_split -> conv6_2_conv6_2_relu_0_split_0
I0601 11:46:28.944952 30251 net.cpp:408] conv6_2_conv6_2_relu_0_split -> conv6_2_conv6_2_relu_0_split_1
I0601 11:46:28.944962 30251 net.cpp:408] conv6_2_conv6_2_relu_0_split -> conv6_2_conv6_2_relu_0_split_2
I0601 11:46:28.944969 30251 net.cpp:408] conv6_2_conv6_2_relu_0_split -> conv6_2_conv6_2_relu_0_split_3
I0601 11:46:28.945027 30251 net.cpp:150] Setting up conv6_2_conv6_2_relu_0_split
I0601 11:46:28.945034 30251 net.cpp:157] Top shape: 4 512 10 10 (204800)
I0601 11:46:28.945039 30251 net.cpp:157] Top shape: 4 512 10 10 (204800)
I0601 11:46:28.945044 30251 net.cpp:157] Top shape: 4 512 10 10 (204800)
I0601 11:46:28.945050 30251 net.cpp:157] Top shape: 4 512 10 10 (204800)
I0601 11:46:28.945053 30251 net.cpp:165] Memory required for data: 939716640
I0601 11:46:28.945057 30251 layer_factory.hpp:77] Creating layer conv7_1
I0601 11:46:28.945068 30251 net.cpp:100] Creating Layer conv7_1
I0601 11:46:28.945072 30251 net.cpp:434] conv7_1 <- conv6_2_conv6_2_relu_0_split_0
I0601 11:46:28.945081 30251 net.cpp:408] conv7_1 -> conv7_1
I0601 11:46:28.945526 30251 net.cpp:150] Setting up conv7_1
I0601 11:46:28.945533 30251 net.cpp:157] Top shape: 4 128 10 10 (51200)
I0601 11:46:28.945536 30251 net.cpp:165] Memory required for data: 939921440
I0601 11:46:28.945543 30251 layer_factory.hpp:77] Creating layer conv7_1_relu
I0601 11:46:28.945549 30251 net.cpp:100] Creating Layer conv7_1_relu
I0601 11:46:28.945554 30251 net.cpp:434] conv7_1_relu <- conv7_1
I0601 11:46:28.945559 30251 net.cpp:395] conv7_1_relu -> conv7_1 (in-place)
I0601 11:46:28.945565 30251 net.cpp:150] Setting up conv7_1_relu
I0601 11:46:28.945572 30251 net.cpp:157] Top shape: 4 128 10 10 (51200)
I0601 11:46:28.945576 30251 net.cpp:165] Memory required for data: 940126240
I0601 11:46:28.945580 30251 layer_factory.hpp:77] Creating layer conv7_2
I0601 11:46:28.945591 30251 net.cpp:100] Creating Layer conv7_2
I0601 11:46:28.945596 30251 net.cpp:434] conv7_2 <- conv7_1
I0601 11:46:28.945602 30251 net.cpp:408] conv7_2 -> conv7_2
I0601 11:46:28.947669 30251 net.cpp:150] Setting up conv7_2
I0601 11:46:28.947682 30251 net.cpp:157] Top shape: 4 256 5 5 (25600)
I0601 11:46:28.947686 30251 net.cpp:165] Memory required for data: 940228640
I0601 11:46:28.947693 30251 layer_factory.hpp:77] Creating layer conv7_2_relu
I0601 11:46:28.947700 30251 net.cpp:100] Creating Layer conv7_2_relu
I0601 11:46:28.947705 30251 net.cpp:434] conv7_2_relu <- conv7_2
I0601 11:46:28.947713 30251 net.cpp:395] conv7_2_relu -> conv7_2 (in-place)
I0601 11:46:28.947722 30251 net.cpp:150] Setting up conv7_2_relu
I0601 11:46:28.947728 30251 net.cpp:157] Top shape: 4 256 5 5 (25600)
I0601 11:46:28.947731 30251 net.cpp:165] Memory required for data: 940331040
I0601 11:46:28.947736 30251 layer_factory.hpp:77] Creating layer conv7_2_conv7_2_relu_0_split
I0601 11:46:28.947742 30251 net.cpp:100] Creating Layer conv7_2_conv7_2_relu_0_split
I0601 11:46:28.947746 30251 net.cpp:434] conv7_2_conv7_2_relu_0_split <- conv7_2
I0601 11:46:28.947753 30251 net.cpp:408] conv7_2_conv7_2_relu_0_split -> conv7_2_conv7_2_relu_0_split_0
I0601 11:46:28.947762 30251 net.cpp:408] conv7_2_conv7_2_relu_0_split -> conv7_2_conv7_2_relu_0_split_1
I0601 11:46:28.947770 30251 net.cpp:408] conv7_2_conv7_2_relu_0_split -> conv7_2_conv7_2_relu_0_split_2
I0601 11:46:28.947778 30251 net.cpp:408] conv7_2_conv7_2_relu_0_split -> conv7_2_conv7_2_relu_0_split_3
I0601 11:46:28.947835 30251 net.cpp:150] Setting up conv7_2_conv7_2_relu_0_split
I0601 11:46:28.947841 30251 net.cpp:157] Top shape: 4 256 5 5 (25600)
I0601 11:46:28.947846 30251 net.cpp:157] Top shape: 4 256 5 5 (25600)
I0601 11:46:28.947852 30251 net.cpp:157] Top shape: 4 256 5 5 (25600)
I0601 11:46:28.947857 30251 net.cpp:157] Top shape: 4 256 5 5 (25600)
I0601 11:46:28.947860 30251 net.cpp:165] Memory required for data: 940740640
I0601 11:46:28.947863 30251 layer_factory.hpp:77] Creating layer conv8_1
I0601 11:46:28.947885 30251 net.cpp:100] Creating Layer conv8_1
I0601 11:46:28.947890 30251 net.cpp:434] conv8_1 <- conv7_2_conv7_2_relu_0_split_0
I0601 11:46:28.947899 30251 net.cpp:408] conv8_1 -> conv8_1
I0601 11:46:28.948210 30251 net.cpp:150] Setting up conv8_1
I0601 11:46:28.948218 30251 net.cpp:157] Top shape: 4 128 5 5 (12800)
I0601 11:46:28.948221 30251 net.cpp:165] Memory required for data: 940791840
I0601 11:46:28.948227 30251 layer_factory.hpp:77] Creating layer conv8_1_relu
I0601 11:46:28.948233 30251 net.cpp:100] Creating Layer conv8_1_relu
I0601 11:46:28.948238 30251 net.cpp:434] conv8_1_relu <- conv8_1
I0601 11:46:28.948246 30251 net.cpp:395] conv8_1_relu -> conv8_1 (in-place)
I0601 11:46:28.948252 30251 net.cpp:150] Setting up conv8_1_relu
I0601 11:46:28.948259 30251 net.cpp:157] Top shape: 4 128 5 5 (12800)
I0601 11:46:28.948264 30251 net.cpp:165] Memory required for data: 940843040
I0601 11:46:28.948267 30251 layer_factory.hpp:77] Creating layer conv8_2
I0601 11:46:28.948276 30251 net.cpp:100] Creating Layer conv8_2
I0601 11:46:28.948281 30251 net.cpp:434] conv8_2 <- conv8_1
I0601 11:46:28.948287 30251 net.cpp:408] conv8_2 -> conv8_2
I0601 11:46:28.950420 30251 net.cpp:150] Setting up conv8_2
I0601 11:46:28.950436 30251 net.cpp:157] Top shape: 4 256 3 3 (9216)
I0601 11:46:28.950439 30251 net.cpp:165] Memory required for data: 940879904
I0601 11:46:28.950448 30251 layer_factory.hpp:77] Creating layer conv8_2_relu
I0601 11:46:28.950455 30251 net.cpp:100] Creating Layer conv8_2_relu
I0601 11:46:28.950461 30251 net.cpp:434] conv8_2_relu <- conv8_2
I0601 11:46:28.950471 30251 net.cpp:395] conv8_2_relu -> conv8_2 (in-place)
I0601 11:46:28.950479 30251 net.cpp:150] Setting up conv8_2_relu
I0601 11:46:28.950485 30251 net.cpp:157] Top shape: 4 256 3 3 (9216)
I0601 11:46:28.950489 30251 net.cpp:165] Memory required for data: 940916768
I0601 11:46:28.950492 30251 layer_factory.hpp:77] Creating layer conv8_2_conv8_2_relu_0_split
I0601 11:46:28.950500 30251 net.cpp:100] Creating Layer conv8_2_conv8_2_relu_0_split
I0601 11:46:28.950505 30251 net.cpp:434] conv8_2_conv8_2_relu_0_split <- conv8_2
I0601 11:46:28.950511 30251 net.cpp:408] conv8_2_conv8_2_relu_0_split -> conv8_2_conv8_2_relu_0_split_0
I0601 11:46:28.950520 30251 net.cpp:408] conv8_2_conv8_2_relu_0_split -> conv8_2_conv8_2_relu_0_split_1
I0601 11:46:28.950529 30251 net.cpp:408] conv8_2_conv8_2_relu_0_split -> conv8_2_conv8_2_relu_0_split_2
I0601 11:46:28.950539 30251 net.cpp:408] conv8_2_conv8_2_relu_0_split -> conv8_2_conv8_2_relu_0_split_3
I0601 11:46:28.950595 30251 net.cpp:150] Setting up conv8_2_conv8_2_relu_0_split
I0601 11:46:28.950601 30251 net.cpp:157] Top shape: 4 256 3 3 (9216)
I0601 11:46:28.950606 30251 net.cpp:157] Top shape: 4 256 3 3 (9216)
I0601 11:46:28.950611 30251 net.cpp:157] Top shape: 4 256 3 3 (9216)
I0601 11:46:28.950615 30251 net.cpp:157] Top shape: 4 256 3 3 (9216)
I0601 11:46:28.950618 30251 net.cpp:165] Memory required for data: 941064224
I0601 11:46:28.950623 30251 layer_factory.hpp:77] Creating layer conv9_1
I0601 11:46:28.950633 30251 net.cpp:100] Creating Layer conv9_1
I0601 11:46:28.950636 30251 net.cpp:434] conv9_1 <- conv8_2_conv8_2_relu_0_split_0
I0601 11:46:28.950644 30251 net.cpp:408] conv9_1 -> conv9_1
I0601 11:46:28.950953 30251 net.cpp:150] Setting up conv9_1
I0601 11:46:28.950960 30251 net.cpp:157] Top shape: 4 128 3 3 (4608)
I0601 11:46:28.950964 30251 net.cpp:165] Memory required for data: 941082656
I0601 11:46:28.950970 30251 layer_factory.hpp:77] Creating layer conv9_1_relu
I0601 11:46:28.950976 30251 net.cpp:100] Creating Layer conv9_1_relu
I0601 11:46:28.950983 30251 net.cpp:434] conv9_1_relu <- conv9_1
I0601 11:46:28.950987 30251 net.cpp:395] conv9_1_relu -> conv9_1 (in-place)
I0601 11:46:28.950994 30251 net.cpp:150] Setting up conv9_1_relu
I0601 11:46:28.950999 30251 net.cpp:157] Top shape: 4 128 3 3 (4608)
I0601 11:46:28.951004 30251 net.cpp:165] Memory required for data: 941101088
I0601 11:46:28.951009 30251 layer_factory.hpp:77] Creating layer conv9_2
I0601 11:46:28.951027 30251 net.cpp:100] Creating Layer conv9_2
I0601 11:46:28.951031 30251 net.cpp:434] conv9_2 <- conv9_1
I0601 11:46:28.951040 30251 net.cpp:408] conv9_2 -> conv9_2
I0601 11:46:28.953095 30251 net.cpp:150] Setting up conv9_2
I0601 11:46:28.953106 30251 net.cpp:157] Top shape: 4 256 1 1 (1024)
I0601 11:46:28.953109 30251 net.cpp:165] Memory required for data: 941105184
I0601 11:46:28.953117 30251 layer_factory.hpp:77] Creating layer conv9_2_relu
I0601 11:46:28.953125 30251 net.cpp:100] Creating Layer conv9_2_relu
I0601 11:46:28.953130 30251 net.cpp:434] conv9_2_relu <- conv9_2
I0601 11:46:28.953136 30251 net.cpp:395] conv9_2_relu -> conv9_2 (in-place)
I0601 11:46:28.953143 30251 net.cpp:150] Setting up conv9_2_relu
I0601 11:46:28.953150 30251 net.cpp:157] Top shape: 4 256 1 1 (1024)
I0601 11:46:28.953155 30251 net.cpp:165] Memory required for data: 941109280
I0601 11:46:28.953157 30251 layer_factory.hpp:77] Creating layer conv9_2_conv9_2_relu_0_split
I0601 11:46:28.953164 30251 net.cpp:100] Creating Layer conv9_2_conv9_2_relu_0_split
I0601 11:46:28.953169 30251 net.cpp:434] conv9_2_conv9_2_relu_0_split <- conv9_2
I0601 11:46:28.953176 30251 net.cpp:408] conv9_2_conv9_2_relu_0_split -> conv9_2_conv9_2_relu_0_split_0
I0601 11:46:28.953184 30251 net.cpp:408] conv9_2_conv9_2_relu_0_split -> conv9_2_conv9_2_relu_0_split_1
I0601 11:46:28.953191 30251 net.cpp:408] conv9_2_conv9_2_relu_0_split -> conv9_2_conv9_2_relu_0_split_2
I0601 11:46:28.953235 30251 net.cpp:150] Setting up conv9_2_conv9_2_relu_0_split
I0601 11:46:28.953241 30251 net.cpp:157] Top shape: 4 256 1 1 (1024)
I0601 11:46:28.953246 30251 net.cpp:157] Top shape: 4 256 1 1 (1024)
I0601 11:46:28.953250 30251 net.cpp:157] Top shape: 4 256 1 1 (1024)
I0601 11:46:28.953255 30251 net.cpp:165] Memory required for data: 941121568
I0601 11:46:28.953258 30251 layer_factory.hpp:77] Creating layer conv4_3_norm
I0601 11:46:28.953266 30251 net.cpp:100] Creating Layer conv4_3_norm
I0601 11:46:28.953271 30251 net.cpp:434] conv4_3_norm <- conv4_3_relu4_3_0_split_1
I0601 11:46:28.953279 30251 net.cpp:408] conv4_3_norm -> conv4_3_norm
I0601 11:46:28.953398 30251 net.cpp:150] Setting up conv4_3_norm
I0601 11:46:28.953404 30251 net.cpp:157] Top shape: 4 512 38 38 (2957312)
I0601 11:46:28.953408 30251 net.cpp:165] Memory required for data: 952950816
I0601 11:46:28.953414 30251 layer_factory.hpp:77] Creating layer conv4_3_norm_conv4_3_norm_0_split
I0601 11:46:28.953419 30251 net.cpp:100] Creating Layer conv4_3_norm_conv4_3_norm_0_split
I0601 11:46:28.953424 30251 net.cpp:434] conv4_3_norm_conv4_3_norm_0_split <- conv4_3_norm
I0601 11:46:28.953429 30251 net.cpp:408] conv4_3_norm_conv4_3_norm_0_split -> conv4_3_norm_conv4_3_norm_0_split_0
I0601 11:46:28.953438 30251 net.cpp:408] conv4_3_norm_conv4_3_norm_0_split -> conv4_3_norm_conv4_3_norm_0_split_1
I0601 11:46:28.953447 30251 net.cpp:408] conv4_3_norm_conv4_3_norm_0_split -> conv4_3_norm_conv4_3_norm_0_split_2
I0601 11:46:28.953486 30251 net.cpp:150] Setting up conv4_3_norm_conv4_3_norm_0_split
I0601 11:46:28.953493 30251 net.cpp:157] Top shape: 4 512 38 38 (2957312)
I0601 11:46:28.953497 30251 net.cpp:157] Top shape: 4 512 38 38 (2957312)
I0601 11:46:28.953503 30251 net.cpp:157] Top shape: 4 512 38 38 (2957312)
I0601 11:46:28.953506 30251 net.cpp:165] Memory required for data: 988438560
I0601 11:46:28.953510 30251 layer_factory.hpp:77] Creating layer conv4_3_norm_mbox_loc
I0601 11:46:28.953518 30251 net.cpp:100] Creating Layer conv4_3_norm_mbox_loc
I0601 11:46:28.953523 30251 net.cpp:434] conv4_3_norm_mbox_loc <- conv4_3_norm_conv4_3_norm_0_split_0
I0601 11:46:28.953531 30251 net.cpp:408] conv4_3_norm_mbox_loc -> conv4_3_norm_mbox_loc
I0601 11:46:28.954011 30251 net.cpp:150] Setting up conv4_3_norm_mbox_loc
I0601 11:46:28.954018 30251 net.cpp:157] Top shape: 4 16 38 38 (92416)
I0601 11:46:28.954022 30251 net.cpp:165] Memory required for data: 988808224
I0601 11:46:28.954028 30251 layer_factory.hpp:77] Creating layer conv4_3_norm_mbox_loc_perm
I0601 11:46:28.954036 30251 net.cpp:100] Creating Layer conv4_3_norm_mbox_loc_perm
I0601 11:46:28.954051 30251 net.cpp:434] conv4_3_norm_mbox_loc_perm <- conv4_3_norm_mbox_loc
I0601 11:46:28.954059 30251 net.cpp:408] conv4_3_norm_mbox_loc_perm -> conv4_3_norm_mbox_loc_perm
I0601 11:46:28.954138 30251 net.cpp:150] Setting up conv4_3_norm_mbox_loc_perm
I0601 11:46:28.954144 30251 net.cpp:157] Top shape: 4 38 38 16 (92416)
I0601 11:46:28.954147 30251 net.cpp:165] Memory required for data: 989177888
I0601 11:46:28.954151 30251 layer_factory.hpp:77] Creating layer conv4_3_norm_mbox_loc_flat
I0601 11:46:28.954157 30251 net.cpp:100] Creating Layer conv4_3_norm_mbox_loc_flat
I0601 11:46:28.954162 30251 net.cpp:434] conv4_3_norm_mbox_loc_flat <- conv4_3_norm_mbox_loc_perm
I0601 11:46:28.954170 30251 net.cpp:408] conv4_3_norm_mbox_loc_flat -> conv4_3_norm_mbox_loc_flat
I0601 11:46:28.954200 30251 net.cpp:150] Setting up conv4_3_norm_mbox_loc_flat
I0601 11:46:28.954207 30251 net.cpp:157] Top shape: 4 23104 (92416)
I0601 11:46:28.954210 30251 net.cpp:165] Memory required for data: 989547552
I0601 11:46:28.954215 30251 layer_factory.hpp:77] Creating layer conv4_3_norm_mbox_conf
I0601 11:46:28.954228 30251 net.cpp:100] Creating Layer conv4_3_norm_mbox_conf
I0601 11:46:28.954233 30251 net.cpp:434] conv4_3_norm_mbox_conf <- conv4_3_norm_conv4_3_norm_0_split_1
I0601 11:46:28.954241 30251 net.cpp:408] conv4_3_norm_mbox_conf -> conv4_3_norm_mbox_conf
I0601 11:46:28.954731 30251 net.cpp:150] Setting up conv4_3_norm_mbox_conf
I0601 11:46:28.954738 30251 net.cpp:157] Top shape: 4 16 38 38 (92416)
I0601 11:46:28.954742 30251 net.cpp:165] Memory required for data: 989917216
I0601 11:46:28.954748 30251 layer_factory.hpp:77] Creating layer conv4_3_norm_mbox_conf_perm
I0601 11:46:28.954772 30251 net.cpp:100] Creating Layer conv4_3_norm_mbox_conf_perm
I0601 11:46:28.954778 30251 net.cpp:434] conv4_3_norm_mbox_conf_perm <- conv4_3_norm_mbox_conf
I0601 11:46:28.954783 30251 net.cpp:408] conv4_3_norm_mbox_conf_perm -> conv4_3_norm_mbox_conf_perm
I0601 11:46:28.954859 30251 net.cpp:150] Setting up conv4_3_norm_mbox_conf_perm
I0601 11:46:28.954865 30251 net.cpp:157] Top shape: 4 38 38 16 (92416)
I0601 11:46:28.954869 30251 net.cpp:165] Memory required for data: 990286880
I0601 11:46:28.954874 30251 layer_factory.hpp:77] Creating layer conv4_3_norm_mbox_conf_flat
I0601 11:46:28.954879 30251 net.cpp:100] Creating Layer conv4_3_norm_mbox_conf_flat
I0601 11:46:28.954885 30251 net.cpp:434] conv4_3_norm_mbox_conf_flat <- conv4_3_norm_mbox_conf_perm
I0601 11:46:28.954891 30251 net.cpp:408] conv4_3_norm_mbox_conf_flat -> conv4_3_norm_mbox_conf_flat
I0601 11:46:28.954915 30251 net.cpp:150] Setting up conv4_3_norm_mbox_conf_flat
I0601 11:46:28.954919 30251 net.cpp:157] Top shape: 4 23104 (92416)
I0601 11:46:28.954923 30251 net.cpp:165] Memory required for data: 990656544
I0601 11:46:28.954927 30251 layer_factory.hpp:77] Creating layer conv4_3_norm_mbox_priorbox
I0601 11:46:28.954936 30251 net.cpp:100] Creating Layer conv4_3_norm_mbox_priorbox
I0601 11:46:28.954939 30251 net.cpp:434] conv4_3_norm_mbox_priorbox <- conv4_3_norm_conv4_3_norm_0_split_2
I0601 11:46:28.954944 30251 net.cpp:434] conv4_3_norm_mbox_priorbox <- data_data_0_split_1
I0601 11:46:28.954952 30251 net.cpp:408] conv4_3_norm_mbox_priorbox -> conv4_3_norm_mbox_priorbox
I0601 11:46:28.954977 30251 net.cpp:150] Setting up conv4_3_norm_mbox_priorbox
I0601 11:46:28.954985 30251 net.cpp:157] Top shape: 1 2 23104 (46208)
I0601 11:46:28.954989 30251 net.cpp:165] Memory required for data: 990841376
I0601 11:46:28.954993 30251 layer_factory.hpp:77] Creating layer fc7_mbox_loc
I0601 11:46:28.955001 30251 net.cpp:100] Creating Layer fc7_mbox_loc
I0601 11:46:28.955006 30251 net.cpp:434] fc7_mbox_loc <- fc7_relu7_0_split_1
I0601 11:46:28.955014 30251 net.cpp:408] fc7_mbox_loc -> fc7_mbox_loc
I0601 11:46:28.956075 30251 net.cpp:150] Setting up fc7_mbox_loc
I0601 11:46:28.956084 30251 net.cpp:157] Top shape: 4 24 19 19 (34656)
I0601 11:46:28.956086 30251 net.cpp:165] Memory required for data: 990980000
I0601 11:46:28.956094 30251 layer_factory.hpp:77] Creating layer fc7_mbox_loc_perm
I0601 11:46:28.956100 30251 net.cpp:100] Creating Layer fc7_mbox_loc_perm
I0601 11:46:28.956111 30251 net.cpp:434] fc7_mbox_loc_perm <- fc7_mbox_loc
I0601 11:46:28.956120 30251 net.cpp:408] fc7_mbox_loc_perm -> fc7_mbox_loc_perm
I0601 11:46:28.956197 30251 net.cpp:150] Setting up fc7_mbox_loc_perm
I0601 11:46:28.956203 30251 net.cpp:157] Top shape: 4 19 19 24 (34656)
I0601 11:46:28.956207 30251 net.cpp:165] Memory required for data: 991118624
I0601 11:46:28.956210 30251 layer_factory.hpp:77] Creating layer fc7_mbox_loc_flat
I0601 11:46:28.956217 30251 net.cpp:100] Creating Layer fc7_mbox_loc_flat
I0601 11:46:28.956223 30251 net.cpp:434] fc7_mbox_loc_flat <- fc7_mbox_loc_perm
I0601 11:46:28.956228 30251 net.cpp:408] fc7_mbox_loc_flat -> fc7_mbox_loc_flat
I0601 11:46:28.956249 30251 net.cpp:150] Setting up fc7_mbox_loc_flat
I0601 11:46:28.956255 30251 net.cpp:157] Top shape: 4 8664 (34656)
I0601 11:46:28.956259 30251 net.cpp:165] Memory required for data: 991257248
I0601 11:46:28.956262 30251 layer_factory.hpp:77] Creating layer fc7_mbox_conf
I0601 11:46:28.956271 30251 net.cpp:100] Creating Layer fc7_mbox_conf
I0601 11:46:28.956276 30251 net.cpp:434] fc7_mbox_conf <- fc7_relu7_0_split_2
I0601 11:46:28.956286 30251 net.cpp:408] fc7_mbox_conf -> fc7_mbox_conf
I0601 11:46:28.957348 30251 net.cpp:150] Setting up fc7_mbox_conf
I0601 11:46:28.957356 30251 net.cpp:157] Top shape: 4 24 19 19 (34656)
I0601 11:46:28.957360 30251 net.cpp:165] Memory required for data: 991395872
I0601 11:46:28.957366 30251 layer_factory.hpp:77] Creating layer fc7_mbox_conf_perm
I0601 11:46:28.957372 30251 net.cpp:100] Creating Layer fc7_mbox_conf_perm
I0601 11:46:28.957377 30251 net.cpp:434] fc7_mbox_conf_perm <- fc7_mbox_conf
I0601 11:46:28.957386 30251 net.cpp:408] fc7_mbox_conf_perm -> fc7_mbox_conf_perm
I0601 11:46:28.957460 30251 net.cpp:150] Setting up fc7_mbox_conf_perm
I0601 11:46:28.957468 30251 net.cpp:157] Top shape: 4 19 19 24 (34656)
I0601 11:46:28.957471 30251 net.cpp:165] Memory required for data: 991534496
I0601 11:46:28.957474 30251 layer_factory.hpp:77] Creating layer fc7_mbox_conf_flat
I0601 11:46:28.957480 30251 net.cpp:100] Creating Layer fc7_mbox_conf_flat
I0601 11:46:28.957484 30251 net.cpp:434] fc7_mbox_conf_flat <- fc7_mbox_conf_perm
I0601 11:46:28.957491 30251 net.cpp:408] fc7_mbox_conf_flat -> fc7_mbox_conf_flat
I0601 11:46:28.957511 30251 net.cpp:150] Setting up fc7_mbox_conf_flat
I0601 11:46:28.957518 30251 net.cpp:157] Top shape: 4 8664 (34656)
I0601 11:46:28.957522 30251 net.cpp:165] Memory required for data: 991673120
I0601 11:46:28.957525 30251 layer_factory.hpp:77] Creating layer fc7_mbox_priorbox
I0601 11:46:28.957532 30251 net.cpp:100] Creating Layer fc7_mbox_priorbox
I0601 11:46:28.957537 30251 net.cpp:434] fc7_mbox_priorbox <- fc7_relu7_0_split_3
I0601 11:46:28.957542 30251 net.cpp:434] fc7_mbox_priorbox <- data_data_0_split_2
I0601 11:46:28.957550 30251 net.cpp:408] fc7_mbox_priorbox -> fc7_mbox_priorbox
I0601 11:46:28.957572 30251 net.cpp:150] Setting up fc7_mbox_priorbox
I0601 11:46:28.957579 30251 net.cpp:157] Top shape: 1 2 8664 (17328)
I0601 11:46:28.957582 30251 net.cpp:165] Memory required for data: 991742432
I0601 11:46:28.957587 30251 layer_factory.hpp:77] Creating layer conv6_2_mbox_loc
I0601 11:46:28.957594 30251 net.cpp:100] Creating Layer conv6_2_mbox_loc
I0601 11:46:28.957600 30251 net.cpp:434] conv6_2_mbox_loc <- conv6_2_conv6_2_relu_0_split_1
I0601 11:46:28.957607 30251 net.cpp:408] conv6_2_mbox_loc -> conv6_2_mbox_loc
I0601 11:46:28.958226 30251 net.cpp:150] Setting up conv6_2_mbox_loc
I0601 11:46:28.958235 30251 net.cpp:157] Top shape: 4 24 10 10 (9600)
I0601 11:46:28.958238 30251 net.cpp:165] Memory required for data: 991780832
I0601 11:46:28.958245 30251 layer_factory.hpp:77] Creating layer conv6_2_mbox_loc_perm
I0601 11:46:28.958251 30251 net.cpp:100] Creating Layer conv6_2_mbox_loc_perm
I0601 11:46:28.958256 30251 net.cpp:434] conv6_2_mbox_loc_perm <- conv6_2_mbox_loc
I0601 11:46:28.958262 30251 net.cpp:408] conv6_2_mbox_loc_perm -> conv6_2_mbox_loc_perm
I0601 11:46:28.958344 30251 net.cpp:150] Setting up conv6_2_mbox_loc_perm
I0601 11:46:28.958359 30251 net.cpp:157] Top shape: 4 10 10 24 (9600)
I0601 11:46:28.958361 30251 net.cpp:165] Memory required for data: 991819232
I0601 11:46:28.958365 30251 layer_factory.hpp:77] Creating layer conv6_2_mbox_loc_flat
I0601 11:46:28.958370 30251 net.cpp:100] Creating Layer conv6_2_mbox_loc_flat
I0601 11:46:28.958376 30251 net.cpp:434] conv6_2_mbox_loc_flat <- conv6_2_mbox_loc_perm
I0601 11:46:28.958384 30251 net.cpp:408] conv6_2_mbox_loc_flat -> conv6_2_mbox_loc_flat
I0601 11:46:28.958407 30251 net.cpp:150] Setting up conv6_2_mbox_loc_flat
I0601 11:46:28.958412 30251 net.cpp:157] Top shape: 4 2400 (9600)
I0601 11:46:28.958415 30251 net.cpp:165] Memory required for data: 991857632
I0601 11:46:28.958420 30251 layer_factory.hpp:77] Creating layer conv6_2_mbox_conf
I0601 11:46:28.958429 30251 net.cpp:100] Creating Layer conv6_2_mbox_conf
I0601 11:46:28.958434 30251 net.cpp:434] conv6_2_mbox_conf <- conv6_2_conv6_2_relu_0_split_2
I0601 11:46:28.958442 30251 net.cpp:408] conv6_2_mbox_conf -> conv6_2_mbox_conf
I0601 11:46:28.959056 30251 net.cpp:150] Setting up conv6_2_mbox_conf
I0601 11:46:28.959064 30251 net.cpp:157] Top shape: 4 24 10 10 (9600)
I0601 11:46:28.959069 30251 net.cpp:165] Memory required for data: 991896032
I0601 11:46:28.959074 30251 layer_factory.hpp:77] Creating layer conv6_2_mbox_conf_perm
I0601 11:46:28.959080 30251 net.cpp:100] Creating Layer conv6_2_mbox_conf_perm
I0601 11:46:28.959085 30251 net.cpp:434] conv6_2_mbox_conf_perm <- conv6_2_mbox_conf
I0601 11:46:28.959091 30251 net.cpp:408] conv6_2_mbox_conf_perm -> conv6_2_mbox_conf_perm
I0601 11:46:28.959167 30251 net.cpp:150] Setting up conv6_2_mbox_conf_perm
I0601 11:46:28.959172 30251 net.cpp:157] Top shape: 4 10 10 24 (9600)
I0601 11:46:28.959177 30251 net.cpp:165] Memory required for data: 991934432
I0601 11:46:28.959179 30251 layer_factory.hpp:77] Creating layer conv6_2_mbox_conf_flat
I0601 11:46:28.959187 30251 net.cpp:100] Creating Layer conv6_2_mbox_conf_flat
I0601 11:46:28.959190 30251 net.cpp:434] conv6_2_mbox_conf_flat <- conv6_2_mbox_conf_perm
I0601 11:46:28.959197 30251 net.cpp:408] conv6_2_mbox_conf_flat -> conv6_2_mbox_conf_flat
I0601 11:46:28.959219 30251 net.cpp:150] Setting up conv6_2_mbox_conf_flat
I0601 11:46:28.959224 30251 net.cpp:157] Top shape: 4 2400 (9600)
I0601 11:46:28.959228 30251 net.cpp:165] Memory required for data: 991972832
I0601 11:46:28.959231 30251 layer_factory.hpp:77] Creating layer conv6_2_mbox_priorbox
I0601 11:46:28.959239 30251 net.cpp:100] Creating Layer conv6_2_mbox_priorbox
I0601 11:46:28.959244 30251 net.cpp:434] conv6_2_mbox_priorbox <- conv6_2_conv6_2_relu_0_split_3
I0601 11:46:28.959249 30251 net.cpp:434] conv6_2_mbox_priorbox <- data_data_0_split_3
I0601 11:46:28.959256 30251 net.cpp:408] conv6_2_mbox_priorbox -> conv6_2_mbox_priorbox
I0601 11:46:28.959280 30251 net.cpp:150] Setting up conv6_2_mbox_priorbox
I0601 11:46:28.959285 30251 net.cpp:157] Top shape: 1 2 2400 (4800)
I0601 11:46:28.959288 30251 net.cpp:165] Memory required for data: 991992032
I0601 11:46:28.959292 30251 layer_factory.hpp:77] Creating layer conv7_2_mbox_loc
I0601 11:46:28.959302 30251 net.cpp:100] Creating Layer conv7_2_mbox_loc
I0601 11:46:28.959306 30251 net.cpp:434] conv7_2_mbox_loc <- conv7_2_conv7_2_relu_0_split_1
I0601 11:46:28.959316 30251 net.cpp:408] conv7_2_mbox_loc -> conv7_2_mbox_loc
I0601 11:46:28.959712 30251 net.cpp:150] Setting up conv7_2_mbox_loc
I0601 11:46:28.959719 30251 net.cpp:157] Top shape: 4 24 5 5 (2400)
I0601 11:46:28.959723 30251 net.cpp:165] Memory required for data: 992001632
I0601 11:46:28.959729 30251 layer_factory.hpp:77] Creating layer conv7_2_mbox_loc_perm
I0601 11:46:28.959736 30251 net.cpp:100] Creating Layer conv7_2_mbox_loc_perm
I0601 11:46:28.959741 30251 net.cpp:434] conv7_2_mbox_loc_perm <- conv7_2_mbox_loc
I0601 11:46:28.959748 30251 net.cpp:408] conv7_2_mbox_loc_perm -> conv7_2_mbox_loc_perm
I0601 11:46:28.959822 30251 net.cpp:150] Setting up conv7_2_mbox_loc_perm
I0601 11:46:28.959830 30251 net.cpp:157] Top shape: 4 5 5 24 (2400)
I0601 11:46:28.959832 30251 net.cpp:165] Memory required for data: 992011232
I0601 11:46:28.959842 30251 layer_factory.hpp:77] Creating layer conv7_2_mbox_loc_flat
I0601 11:46:28.959847 30251 net.cpp:100] Creating Layer conv7_2_mbox_loc_flat
I0601 11:46:28.959853 30251 net.cpp:434] conv7_2_mbox_loc_flat <- conv7_2_mbox_loc_perm
I0601 11:46:28.959861 30251 net.cpp:408] conv7_2_mbox_loc_flat -> conv7_2_mbox_loc_flat
I0601 11:46:28.959880 30251 net.cpp:150] Setting up conv7_2_mbox_loc_flat
I0601 11:46:28.959887 30251 net.cpp:157] Top shape: 4 600 (2400)
I0601 11:46:28.959892 30251 net.cpp:165] Memory required for data: 992020832
I0601 11:46:28.959895 30251 layer_factory.hpp:77] Creating layer conv7_2_mbox_conf
I0601 11:46:28.959904 30251 net.cpp:100] Creating Layer conv7_2_mbox_conf
I0601 11:46:28.959909 30251 net.cpp:434] conv7_2_mbox_conf <- conv7_2_conv7_2_relu_0_split_2
I0601 11:46:28.959916 30251 net.cpp:408] conv7_2_mbox_conf -> conv7_2_mbox_conf
I0601 11:46:28.960309 30251 net.cpp:150] Setting up conv7_2_mbox_conf
I0601 11:46:28.960316 30251 net.cpp:157] Top shape: 4 24 5 5 (2400)
I0601 11:46:28.960320 30251 net.cpp:165] Memory required for data: 992030432
I0601 11:46:28.960326 30251 layer_factory.hpp:77] Creating layer conv7_2_mbox_conf_perm
I0601 11:46:28.960335 30251 net.cpp:100] Creating Layer conv7_2_mbox_conf_perm
I0601 11:46:28.960340 30251 net.cpp:434] conv7_2_mbox_conf_perm <- conv7_2_mbox_conf
I0601 11:46:28.960346 30251 net.cpp:408] conv7_2_mbox_conf_perm -> conv7_2_mbox_conf_perm
I0601 11:46:28.960422 30251 net.cpp:150] Setting up conv7_2_mbox_conf_perm
I0601 11:46:28.960428 30251 net.cpp:157] Top shape: 4 5 5 24 (2400)
I0601 11:46:28.960433 30251 net.cpp:165] Memory required for data: 992040032
I0601 11:46:28.960435 30251 layer_factory.hpp:77] Creating layer conv7_2_mbox_conf_flat
I0601 11:46:28.960440 30251 net.cpp:100] Creating Layer conv7_2_mbox_conf_flat
I0601 11:46:28.960444 30251 net.cpp:434] conv7_2_mbox_conf_flat <- conv7_2_mbox_conf_perm
I0601 11:46:28.960451 30251 net.cpp:408] conv7_2_mbox_conf_flat -> conv7_2_mbox_conf_flat
I0601 11:46:28.960474 30251 net.cpp:150] Setting up conv7_2_mbox_conf_flat
I0601 11:46:28.960479 30251 net.cpp:157] Top shape: 4 600 (2400)
I0601 11:46:28.960484 30251 net.cpp:165] Memory required for data: 992049632
I0601 11:46:28.960487 30251 layer_factory.hpp:77] Creating layer conv7_2_mbox_priorbox
I0601 11:46:28.960494 30251 net.cpp:100] Creating Layer conv7_2_mbox_priorbox
I0601 11:46:28.960497 30251 net.cpp:434] conv7_2_mbox_priorbox <- conv7_2_conv7_2_relu_0_split_3
I0601 11:46:28.960503 30251 net.cpp:434] conv7_2_mbox_priorbox <- data_data_0_split_4
I0601 11:46:28.960511 30251 net.cpp:408] conv7_2_mbox_priorbox -> conv7_2_mbox_priorbox
I0601 11:46:28.960533 30251 net.cpp:150] Setting up conv7_2_mbox_priorbox
I0601 11:46:28.960541 30251 net.cpp:157] Top shape: 1 2 600 (1200)
I0601 11:46:28.960546 30251 net.cpp:165] Memory required for data: 992054432
I0601 11:46:28.960551 30251 layer_factory.hpp:77] Creating layer conv8_2_mbox_loc
I0601 11:46:28.960558 30251 net.cpp:100] Creating Layer conv8_2_mbox_loc
I0601 11:46:28.960563 30251 net.cpp:434] conv8_2_mbox_loc <- conv8_2_conv8_2_relu_0_split_1
I0601 11:46:28.960572 30251 net.cpp:408] conv8_2_mbox_loc -> conv8_2_mbox_loc
I0601 11:46:28.960906 30251 net.cpp:150] Setting up conv8_2_mbox_loc
I0601 11:46:28.960913 30251 net.cpp:157] Top shape: 4 16 3 3 (576)
I0601 11:46:28.960916 30251 net.cpp:165] Memory required for data: 992056736
I0601 11:46:28.960932 30251 layer_factory.hpp:77] Creating layer conv8_2_mbox_loc_perm
I0601 11:46:28.960939 30251 net.cpp:100] Creating Layer conv8_2_mbox_loc_perm
I0601 11:46:28.960944 30251 net.cpp:434] conv8_2_mbox_loc_perm <- conv8_2_mbox_loc
I0601 11:46:28.960952 30251 net.cpp:408] conv8_2_mbox_loc_perm -> conv8_2_mbox_loc_perm
I0601 11:46:28.961030 30251 net.cpp:150] Setting up conv8_2_mbox_loc_perm
I0601 11:46:28.961035 30251 net.cpp:157] Top shape: 4 3 3 16 (576)
I0601 11:46:28.961040 30251 net.cpp:165] Memory required for data: 992059040
I0601 11:46:28.961042 30251 layer_factory.hpp:77] Creating layer conv8_2_mbox_loc_flat
I0601 11:46:28.961056 30251 net.cpp:100] Creating Layer conv8_2_mbox_loc_flat
I0601 11:46:28.961061 30251 net.cpp:434] conv8_2_mbox_loc_flat <- conv8_2_mbox_loc_perm
I0601 11:46:28.961069 30251 net.cpp:408] conv8_2_mbox_loc_flat -> conv8_2_mbox_loc_flat
I0601 11:46:28.961091 30251 net.cpp:150] Setting up conv8_2_mbox_loc_flat
I0601 11:46:28.961097 30251 net.cpp:157] Top shape: 4 144 (576)
I0601 11:46:28.961099 30251 net.cpp:165] Memory required for data: 992061344
I0601 11:46:28.961103 30251 layer_factory.hpp:77] Creating layer conv8_2_mbox_conf
I0601 11:46:28.961113 30251 net.cpp:100] Creating Layer conv8_2_mbox_conf
I0601 11:46:28.961118 30251 net.cpp:434] conv8_2_mbox_conf <- conv8_2_conv8_2_relu_0_split_2
I0601 11:46:28.961125 30251 net.cpp:408] conv8_2_mbox_conf -> conv8_2_mbox_conf
I0601 11:46:28.961441 30251 net.cpp:150] Setting up conv8_2_mbox_conf
I0601 11:46:28.961448 30251 net.cpp:157] Top shape: 4 16 3 3 (576)
I0601 11:46:28.961452 30251 net.cpp:165] Memory required for data: 992063648
I0601 11:46:28.961458 30251 layer_factory.hpp:77] Creating layer conv8_2_mbox_conf_perm
I0601 11:46:28.961467 30251 net.cpp:100] Creating Layer conv8_2_mbox_conf_perm
I0601 11:46:28.961470 30251 net.cpp:434] conv8_2_mbox_conf_perm <- conv8_2_mbox_conf
I0601 11:46:28.961477 30251 net.cpp:408] conv8_2_mbox_conf_perm -> conv8_2_mbox_conf_perm
I0601 11:46:28.961557 30251 net.cpp:150] Setting up conv8_2_mbox_conf_perm
I0601 11:46:28.961563 30251 net.cpp:157] Top shape: 4 3 3 16 (576)
I0601 11:46:28.961566 30251 net.cpp:165] Memory required for data: 992065952
I0601 11:46:28.961570 30251 layer_factory.hpp:77] Creating layer conv8_2_mbox_conf_flat
I0601 11:46:28.961575 30251 net.cpp:100] Creating Layer conv8_2_mbox_conf_flat
I0601 11:46:28.961580 30251 net.cpp:434] conv8_2_mbox_conf_flat <- conv8_2_mbox_conf_perm
I0601 11:46:28.961586 30251 net.cpp:408] conv8_2_mbox_conf_flat -> conv8_2_mbox_conf_flat
I0601 11:46:28.961611 30251 net.cpp:150] Setting up conv8_2_mbox_conf_flat
I0601 11:46:28.961616 30251 net.cpp:157] Top shape: 4 144 (576)
I0601 11:46:28.961619 30251 net.cpp:165] Memory required for data: 992068256
I0601 11:46:28.961622 30251 layer_factory.hpp:77] Creating layer conv8_2_mbox_priorbox
I0601 11:46:28.961629 30251 net.cpp:100] Creating Layer conv8_2_mbox_priorbox
I0601 11:46:28.961634 30251 net.cpp:434] conv8_2_mbox_priorbox <- conv8_2_conv8_2_relu_0_split_3
I0601 11:46:28.961639 30251 net.cpp:434] conv8_2_mbox_priorbox <- data_data_0_split_5
I0601 11:46:28.961649 30251 net.cpp:408] conv8_2_mbox_priorbox -> conv8_2_mbox_priorbox
I0601 11:46:28.961673 30251 net.cpp:150] Setting up conv8_2_mbox_priorbox
I0601 11:46:28.961679 30251 net.cpp:157] Top shape: 1 2 144 (288)
I0601 11:46:28.961683 30251 net.cpp:165] Memory required for data: 992069408
I0601 11:46:28.961686 30251 layer_factory.hpp:77] Creating layer conv9_2_mbox_loc
I0601 11:46:28.961695 30251 net.cpp:100] Creating Layer conv9_2_mbox_loc
I0601 11:46:28.961700 30251 net.cpp:434] conv9_2_mbox_loc <- conv9_2_conv9_2_relu_0_split_0
I0601 11:46:28.961709 30251 net.cpp:408] conv9_2_mbox_loc -> conv9_2_mbox_loc
I0601 11:46:28.962028 30251 net.cpp:150] Setting up conv9_2_mbox_loc
I0601 11:46:28.962035 30251 net.cpp:157] Top shape: 4 16 1 1 (64)
I0601 11:46:28.962038 30251 net.cpp:165] Memory required for data: 992069664
I0601 11:46:28.962044 30251 layer_factory.hpp:77] Creating layer conv9_2_mbox_loc_perm
I0601 11:46:28.962052 30251 net.cpp:100] Creating Layer conv9_2_mbox_loc_perm
I0601 11:46:28.962057 30251 net.cpp:434] conv9_2_mbox_loc_perm <- conv9_2_mbox_loc
I0601 11:46:28.962064 30251 net.cpp:408] conv9_2_mbox_loc_perm -> conv9_2_mbox_loc_perm
I0601 11:46:28.962139 30251 net.cpp:150] Setting up conv9_2_mbox_loc_perm
I0601 11:46:28.962146 30251 net.cpp:157] Top shape: 4 1 1 16 (64)
I0601 11:46:28.962149 30251 net.cpp:165] Memory required for data: 992069920
I0601 11:46:28.962152 30251 layer_factory.hpp:77] Creating layer conv9_2_mbox_loc_flat
I0601 11:46:28.962158 30251 net.cpp:100] Creating Layer conv9_2_mbox_loc_flat
I0601 11:46:28.962163 30251 net.cpp:434] conv9_2_mbox_loc_flat <- conv9_2_mbox_loc_perm
I0601 11:46:28.962175 30251 net.cpp:408] conv9_2_mbox_loc_flat -> conv9_2_mbox_loc_flat
I0601 11:46:28.962199 30251 net.cpp:150] Setting up conv9_2_mbox_loc_flat
I0601 11:46:28.962205 30251 net.cpp:157] Top shape: 4 16 (64)
I0601 11:46:28.962208 30251 net.cpp:165] Memory required for data: 992070176
I0601 11:46:28.962211 30251 layer_factory.hpp:77] Creating layer conv9_2_mbox_conf
I0601 11:46:28.962221 30251 net.cpp:100] Creating Layer conv9_2_mbox_conf
I0601 11:46:28.962225 30251 net.cpp:434] conv9_2_mbox_conf <- conv9_2_conv9_2_relu_0_split_1
I0601 11:46:28.962234 30251 net.cpp:408] conv9_2_mbox_conf -> conv9_2_mbox_conf
I0601 11:46:28.962554 30251 net.cpp:150] Setting up conv9_2_mbox_conf
I0601 11:46:28.962561 30251 net.cpp:157] Top shape: 4 16 1 1 (64)
I0601 11:46:28.962564 30251 net.cpp:165] Memory required for data: 992070432
I0601 11:46:28.962570 30251 layer_factory.hpp:77] Creating layer conv9_2_mbox_conf_perm
I0601 11:46:28.962576 30251 net.cpp:100] Creating Layer conv9_2_mbox_conf_perm
I0601 11:46:28.962581 30251 net.cpp:434] conv9_2_mbox_conf_perm <- conv9_2_mbox_conf
I0601 11:46:28.962590 30251 net.cpp:408] conv9_2_mbox_conf_perm -> conv9_2_mbox_conf_perm
I0601 11:46:28.962666 30251 net.cpp:150] Setting up conv9_2_mbox_conf_perm
I0601 11:46:28.962672 30251 net.cpp:157] Top shape: 4 1 1 16 (64)
I0601 11:46:28.962676 30251 net.cpp:165] Memory required for data: 992070688
I0601 11:46:28.962679 30251 layer_factory.hpp:77] Creating layer conv9_2_mbox_conf_flat
I0601 11:46:28.962685 30251 net.cpp:100] Creating Layer conv9_2_mbox_conf_flat
I0601 11:46:28.962690 30251 net.cpp:434] conv9_2_mbox_conf_flat <- conv9_2_mbox_conf_perm
I0601 11:46:28.962697 30251 net.cpp:408] conv9_2_mbox_conf_flat -> conv9_2_mbox_conf_flat
I0601 11:46:28.962719 30251 net.cpp:150] Setting up conv9_2_mbox_conf_flat
I0601 11:46:28.962725 30251 net.cpp:157] Top shape: 4 16 (64)
I0601 11:46:28.962728 30251 net.cpp:165] Memory required for data: 992070944
I0601 11:46:28.962731 30251 layer_factory.hpp:77] Creating layer conv9_2_mbox_priorbox
I0601 11:46:28.962739 30251 net.cpp:100] Creating Layer conv9_2_mbox_priorbox
I0601 11:46:28.962744 30251 net.cpp:434] conv9_2_mbox_priorbox <- conv9_2_conv9_2_relu_0_split_2
I0601 11:46:28.962749 30251 net.cpp:434] conv9_2_mbox_priorbox <- data_data_0_split_6
I0601 11:46:28.962756 30251 net.cpp:408] conv9_2_mbox_priorbox -> conv9_2_mbox_priorbox
I0601 11:46:28.962779 30251 net.cpp:150] Setting up conv9_2_mbox_priorbox
I0601 11:46:28.962785 30251 net.cpp:157] Top shape: 1 2 16 (32)
I0601 11:46:28.962787 30251 net.cpp:165] Memory required for data: 992071072
I0601 11:46:28.962791 30251 layer_factory.hpp:77] Creating layer mbox_loc
I0601 11:46:28.962800 30251 net.cpp:100] Creating Layer mbox_loc
I0601 11:46:28.962805 30251 net.cpp:434] mbox_loc <- conv4_3_norm_mbox_loc_flat
I0601 11:46:28.962811 30251 net.cpp:434] mbox_loc <- fc7_mbox_loc_flat
I0601 11:46:28.962816 30251 net.cpp:434] mbox_loc <- conv6_2_mbox_loc_flat
I0601 11:46:28.962822 30251 net.cpp:434] mbox_loc <- conv7_2_mbox_loc_flat
I0601 11:46:28.962828 30251 net.cpp:434] mbox_loc <- conv8_2_mbox_loc_flat
I0601 11:46:28.962833 30251 net.cpp:434] mbox_loc <- conv9_2_mbox_loc_flat
I0601 11:46:28.962841 30251 net.cpp:408] mbox_loc -> mbox_loc
I0601 11:46:28.962863 30251 net.cpp:150] Setting up mbox_loc
I0601 11:46:28.962869 30251 net.cpp:157] Top shape: 4 34928 (139712)
I0601 11:46:28.962873 30251 net.cpp:165] Memory required for data: 992629920
I0601 11:46:28.962877 30251 layer_factory.hpp:77] Creating layer mbox_conf
I0601 11:46:28.962884 30251 net.cpp:100] Creating Layer mbox_conf
I0601 11:46:28.962889 30251 net.cpp:434] mbox_conf <- conv4_3_norm_mbox_conf_flat
I0601 11:46:28.962894 30251 net.cpp:434] mbox_conf <- fc7_mbox_conf_flat
I0601 11:46:28.962899 30251 net.cpp:434] mbox_conf <- conv6_2_mbox_conf_flat
I0601 11:46:28.962905 30251 net.cpp:434] mbox_conf <- conv7_2_mbox_conf_flat
I0601 11:46:28.962910 30251 net.cpp:434] mbox_conf <- conv8_2_mbox_conf_flat
I0601 11:46:28.962914 30251 net.cpp:434] mbox_conf <- conv9_2_mbox_conf_flat
I0601 11:46:28.962926 30251 net.cpp:408] mbox_conf -> mbox_conf
I0601 11:46:28.962949 30251 net.cpp:150] Setting up mbox_conf
I0601 11:46:28.962954 30251 net.cpp:157] Top shape: 4 34928 (139712)
I0601 11:46:28.962959 30251 net.cpp:165] Memory required for data: 993188768
I0601 11:46:28.962961 30251 layer_factory.hpp:77] Creating layer mbox_priorbox
I0601 11:46:28.962970 30251 net.cpp:100] Creating Layer mbox_priorbox
I0601 11:46:28.962975 30251 net.cpp:434] mbox_priorbox <- conv4_3_norm_mbox_priorbox
I0601 11:46:28.962980 30251 net.cpp:434] mbox_priorbox <- fc7_mbox_priorbox
I0601 11:46:28.962985 30251 net.cpp:434] mbox_priorbox <- conv6_2_mbox_priorbox
I0601 11:46:28.962990 30251 net.cpp:434] mbox_priorbox <- conv7_2_mbox_priorbox
I0601 11:46:28.962994 30251 net.cpp:434] mbox_priorbox <- conv8_2_mbox_priorbox
I0601 11:46:28.962999 30251 net.cpp:434] mbox_priorbox <- conv9_2_mbox_priorbox
I0601 11:46:28.963006 30251 net.cpp:408] mbox_priorbox -> mbox_priorbox
I0601 11:46:28.963027 30251 net.cpp:150] Setting up mbox_priorbox
I0601 11:46:28.963033 30251 net.cpp:157] Top shape: 1 2 34928 (69856)
I0601 11:46:28.963037 30251 net.cpp:165] Memory required for data: 993468192
I0601 11:46:28.963039 30251 layer_factory.hpp:77] Creating layer mbox_conf_reshape
I0601 11:46:28.963048 30251 net.cpp:100] Creating Layer mbox_conf_reshape
I0601 11:46:28.963052 30251 net.cpp:434] mbox_conf_reshape <- mbox_conf
I0601 11:46:28.963060 30251 net.cpp:408] mbox_conf_reshape -> mbox_conf_reshape
I0601 11:46:28.963088 30251 net.cpp:150] Setting up mbox_conf_reshape
I0601 11:46:28.963095 30251 net.cpp:157] Top shape: 4 8732 4 (139712)
I0601 11:46:28.963099 30251 net.cpp:165] Memory required for data: 994027040
I0601 11:46:28.963102 30251 layer_factory.hpp:77] Creating layer mbox_conf_softmax
I0601 11:46:28.963109 30251 net.cpp:100] Creating Layer mbox_conf_softmax
I0601 11:46:28.963114 30251 net.cpp:434] mbox_conf_softmax <- mbox_conf_reshape
I0601 11:46:28.963120 30251 net.cpp:408] mbox_conf_softmax -> mbox_conf_softmax
I0601 11:46:28.963169 30251 net.cpp:150] Setting up mbox_conf_softmax
I0601 11:46:28.963176 30251 net.cpp:157] Top shape: 4 8732 4 (139712)
I0601 11:46:28.963179 30251 net.cpp:165] Memory required for data: 994585888
I0601 11:46:28.963182 30251 layer_factory.hpp:77] Creating layer mbox_conf_flatten
I0601 11:46:28.963188 30251 net.cpp:100] Creating Layer mbox_conf_flatten
I0601 11:46:28.963192 30251 net.cpp:434] mbox_conf_flatten <- mbox_conf_softmax
I0601 11:46:28.963201 30251 net.cpp:408] mbox_conf_flatten -> mbox_conf_flatten
I0601 11:46:28.963222 30251 net.cpp:150] Setting up mbox_conf_flatten
I0601 11:46:28.963228 30251 net.cpp:157] Top shape: 4 34928 (139712)
I0601 11:46:28.963232 30251 net.cpp:165] Memory required for data: 995144736
I0601 11:46:28.963235 30251 layer_factory.hpp:77] Creating layer detection_out
I0601 11:46:28.963248 30251 net.cpp:100] Creating Layer detection_out
I0601 11:46:28.963253 30251 net.cpp:434] detection_out <- mbox_loc
I0601 11:46:28.963256 30251 net.cpp:434] detection_out <- mbox_conf_flatten
I0601 11:46:28.963260 30251 net.cpp:434] detection_out <- mbox_priorbox
I0601 11:46:28.963268 30251 net.cpp:408] detection_out -> detection_out
I0601 11:46:28.964438 30251 net.cpp:150] Setting up detection_out
I0601 11:46:28.964447 30251 net.cpp:157] Top shape: 1 1 1 7 (7)
I0601 11:46:28.964452 30251 net.cpp:165] Memory required for data: 995144764
I0601 11:46:28.964455 30251 layer_factory.hpp:77] Creating layer detection_eval
I0601 11:46:28.964463 30251 net.cpp:100] Creating Layer detection_eval
I0601 11:46:28.964468 30251 net.cpp:434] detection_eval <- detection_out
I0601 11:46:28.964473 30251 net.cpp:434] detection_eval <- label
I0601 11:46:28.964481 30251 net.cpp:408] detection_eval -> detection_eval
I0601 11:46:28.965201 30251 net.cpp:150] Setting up detection_eval
I0601 11:46:28.965209 30251 net.cpp:157] Top shape: 1 1 4 5 (20)
I0601 11:46:28.965214 30251 net.cpp:165] Memory required for data: 995144844
I0601 11:46:28.965216 30251 net.cpp:228] detection_eval does not need backward computation.
I0601 11:46:28.965229 30251 net.cpp:228] detection_out does not need backward computation.
I0601 11:46:28.965235 30251 net.cpp:228] mbox_conf_flatten does not need backward computation.
I0601 11:46:28.965240 30251 net.cpp:228] mbox_conf_softmax does not need backward computation.
…
