…
        min_scale: 0.3
        max_scale: 1
        min_aspect_ratio: 0.5
        max_aspect_ratio: 2
      }
      sample_constraint {
        min_jaccard_overlap: 0.9
      }
      max_sample: 1
      max_trials: 50
    }
    batch_sampler {
      sampler {
        min_scale: 0.3
        max_scale: 1
        min_aspect_ratio: 0.5
        max_aspect_ratio: 2
      }
      sample_constraint {
        max_jaccard_overlap: 1
      }
      max_sample: 1
      max_trials: 50
    }
    label_map_file: "data/tbs_300x300_HSIL_10x/labelmap_voc.prototxt"
  }
}
layer {
  name: "conv1_1"
  type: "Convolution"
  bottom: "data"
  top: "conv1_1"
  param {
    lr_mult: 1
    decay_mult: 1
  }
  param {
    lr_mult: 2
    decay_mult: 0
  }
  convolution_param {
    num_output: 64
    pad: 1
    kernel_size: 3
    weight_filler {
      type: "xavier"
    }
    bias_filler {
      type: "constant"
      value: 0
    }
  }
}
layer {
  name: "relu1_1"
  type: "ReLU"
  bottom: "conv1_1"
  top: "conv1_1"
}
layer {
  name: "conv1_2"
  type: "Convolution"
  bottom: "conv1_1"
  top: "conv1_2"
  param {
    lr_mult: 1
    decay_mult: 1
  }
  param {
    lr_mult: 2
    decay_mult: 0
  }
  convolution_param {
    num_output: 64
    pad: 1
    kernel_size: 3
    weight_filler {
      type: "xavier"
    }
    bias_filler {
      type: "constant"
      value: 0
    }
  }
}
layer {
  name: "relu1_2"
  type: "ReLU"
  bottom: "conv1_2"
  top: "conv1_2"
}
layer {
  name: "pool1"
  type: "Pooling"
  bottom: "conv1_2"
  top: "pool1"
  pooling_param {
    pool: MAX
    kernel_size: 2
    stride: 2
  }
}
layer {
  name: "conv2_1"
  type: "Convolution"
  bottom: "pool1"
  top: "conv2_1"
  param {
    lr_mult: 1
    decay_mult: 1
  }
  param {
    lr_mult: 2
    decay_mult: 0
  }
  convolution_param {
    num_output: 128
    pad: 1
    kernel_size: 3
    weight_filler {
      type: "xavier"
    }
    bias_filler {
      type: "constant"
      value: 0
    }
  }
}
layer {
  name: "relu2_1"
  type: "ReLU"
  bottom: "conv2_1"
  top: "conv2_1"
}
layer {
  name: "conv2_2"
  type: "Convolution"
  bottom: "conv2_1"
  top: "conv2_2"
  param {
    lr_mult: 1
    decay_mult: 1
  }
  param {
    lr_mult: 2
    decay_mult: 0
  }
  convolution_param {
    num_output: 128
    pad: 1
    kernel_size: 3
    weight_filler {
      type: "xavier"
    }
    bias_filler {
      type: "constant"
      value: 0
    }
  }
}
layer {
  name: "relu2_2"
  type: "ReLU"
  bottom: "conv2_2"
  top: "conv2_2"
}
layer {
  name: "pool2"
  type: "Pooling"
  bottom: "conv2_2"
  top: "pool2"
  pooling_param {
    pool: MAX
    kernel_size: 2
    stride: 2
  }
}
layer {
  name: "conv3_1"
  type: "Convolution"
  bottom: "pool2"
  top: "conv3_1"
  param {
    lr_mult: 1
    decay_mult: 1
  }
  param {
    lr_mult: 2
    decay_mult: 0
  }
  convolution_param {
    num_output: 256
    pad: 1
    kernel_size: 3
    weight_filler {
      type: "xavier"
    }
    bias_filler {
      type: "constant"
      value: 0
    }
  }
}
layer {
  name: "relu3_1"
  type: "ReLU"
  bottom: "conv3_1"
  top: "conv3_1"
}
layer {
  name: "conv3_2"
  type: "Convolution"
  bottom: "conv3_1"
  top: "conv3_2"
  param {
    lr_mult: 1
    decay_mult: 1
  }
  param {
    lr_mult: 2
    decay_mult: 0
  }
  convolution_param {
    num_output: 256
    pad: 1
    kernel_size: 3
    weight_filler {
      type: "xavier"
    }
    bias_filler {
      type: "constant"
      value: 0
    }
  }
}
layer {
  name: "relu3_2"
  type: "ReLU"
  bottom: "conv3_2"
  top: "conv3_2"
}
layer {
  name: "conv3_3"
  type: "Convolution"
  bottom: "conv3_2"
  top: "conv3_3"
  param {
    lr_mult: 1
    decay_mult: 1
  }
  param {
    lr_mult: 2
    decay_mult: 0
  }
  convolution_param {
    num_output: 256
    pad: 1
    kernel_size: 3
    weight_filler {
      type: "xavier"
    }
    bias_filler {
      type: "constant"
      value: 0
    }
  }
}
layer {
  name: "relu3_3"
  type: "ReLU"
  bottom: "conv3_3"
  top: "conv3_3"
}
layer {
  name: "pool3"
  type: "Pooling"
  bottom: "conv3_3"
  top: "pool3"
  pooling_param {
    pool: MAX
    kernel_size: 2
    stride: 2
  }
}
layer {
  name: "conv4_1"
  type: "Convolution"
  bottom: "pool3"
  top: "conv4_1"
  param {
    lr_mult: 1
    decay_mult: 1
  }
  param {
    lr_mult: 2
    decay_mult: 0
  }
  convolution_param {
    num_output: 512
    pad: 1
    kernel_size: 3
    weight_filler {
      type: "xavier"
    }
    bias_filler {
      type: "constant"
      value: 0
    }
  }
}
layer {
  name: "relu4_1"
  type: "ReLU"
  bottom: "conv4_1"
  top: "conv4_1"
}
layer {
  name: "conv4_2"
  type: "Convolution"
  bottom: "conv4_1"
  top: "conv4_2"
  param {
    lr_mult: 1
    decay_mult: 1
  }
  param {
    lr_mult: 2
    decay_mult: 0
  }
  convolution_param {
    num_output: 512
    pad: 1
    kernel_size: 3
    weight_filler {
      type: "xavier"
    }
    bias_filler {
      type: "constant"
      value: 0
    }
  }
}
layer {
  name: "relu4_2"
  type: "ReLU"
  bottom: "conv4_2"
  top: "conv4_2"
}
layer {
  name: "conv4_3"
  type: "Convolution"
  bottom: "conv4_2"
  top: "conv4_3"
  param {
    lr_mult: 1
    decay_mult: 1
  }
  param {
    lr_mult: 2
    decay_mult: 0
  }
  convolution_param {
    num_output: 512
    pad: 1
    kernel_size: 3
    weight_filler {
      type: "xavier"
    }
    bias_filler {
      type: "constant"
      value: 0
    }
  }
}
layer {
  name: "relu4_3"
  type: "ReLU"
  bottom: "conv4_3"
  top: "conv4_3"
}
layer {
  name: "pool4"
  type: "Pooling"
  bottom: "conv4_3"
  top: "pool4"
  pooling_param {
    pool: MAX
    kernel_size: 2
    stride: 2
  }
}
layer {
  name: "conv5_1"
  type: "Convolution"
  bottom: "pool4"
  top: "conv5_1"
  param {
    lr_mult: 1
    decay_mult: 1
  }
  param {
    lr_mult: 2
    decay_mult: 0
  }
  convolution_param {
    num_output: 512
    pad: 1
    kernel_size: 3
    weight_filler {
      type: "xavier"
    }
    bias_filler {
      type: "constant"
      value: 0
    }
    dilation: 1
  }
}
layer {
  name: "relu5_1"
  type: "ReLU"
  bottom: "conv5_1"
  top: "conv5_1"
}
layer {
  name: "conv5_2"
  type: "Convolution"
  bottom: "conv5_1"
  top: "conv5_2"
  param {
    lr_mult: 1
    decay_mult: 1
  }
  param {
    lr_mult: 2
    decay_mult: 0
  }
  convolution_param {
    num_output: 512
    pad: 1
    kernel_size: 3
    weight_filler {
      type: "xavier"
    }
    bias_filler {
      type: "constant"
      value: 0
    }
    dilation: 1
  }
}
layer {
  name: "relu5_2"
  type: "ReLU"
  bottom: "conv5_2"
  top: "conv5_2"
}
layer {
  name: "conv5_3"
  type: "Convolution"
  bottom: "conv5_2"
  top: "conv5_3"
  param {
    lr_mult: 1
    decay_mult: 1
  }
  param {
    lr_mult: 2
    decay_mult: 0
  }
  convolution_param {
    num_output: 512
    pad: 1
    kernel_size: 3
    weight_filler {
      type: "xavier"
    }
    bias_filler {
      type: "constant"
      value: 0
    }
    dilation: 1
  }
}
layer {
  name: "relu5_3"
  type: "ReLU"
  bottom: "conv5_3"
  top: "conv5_3"
}
layer {
  name: "pool5"
  type: "Pooling"
  bottom: "conv5_3"
  top: "pool5"
  pooling_param {
    pool: MAX
    kernel_size: 3
    stride: 1
    pad: 1
  }
}
layer {
  name: "fc6"
  type: "Convolution"
  bottom: "pool5"
  top: "fc6"
  param {
    lr_mult: 1
    decay_mult: 1
  }
  param {
    lr_mult: 2
    decay_mult: 0
  }
  convolution_param {
    num_output: 1024
    pad: 6
    kernel_size: 3
    weight_filler {
      type: "xavier"
    }
    bias_filler {
      type: "constant"
      value: 0
    }
    dilation: 6
  }
}
layer {
  name: "relu6"
  type: "ReLU"
  bottom: "fc6"
  top: "fc6"
}
layer {
  name: "fc7"
  type: "Convolution"
  bottom: "fc6"
  top: "fc7"
  param {
    lr_mult: 1
    decay_mult: 1
  }
  param {
    lr_mult: 2
    decay_mult: 0
  }
  convolution_param {
    num_output: 1024
    kernel_size: 1
    weight_filler {
      type: "xavier"
    }
    bias_filler {
      type: "constant"
      value: 0
    }
  }
}
layer {
  name: "relu7"
  type: "ReLU"
  bottom: "fc7"
  top: "fc7"
}
layer {
  name: "conv6_1"
  type: "Convolution"
  bottom: "fc7"
  top: "conv6_1"
  param {
    lr_mult: 1
    decay_mult: 1
  }
  param {
    lr_mult: 2
    decay_mult: 0
  }
  convolution_param {
    num_output: 256
    pad: 0
    kernel_size: 1
    stride: 1
    weight_filler {
      type: "xavier"
    }
    bias_filler {
      type: "constant"
      value: 0
    }
  }
}
layer {
  name: "conv6_1_relu"
  type: "ReLU"
  bottom: "conv6_1"
  top: "conv6_1"
}
layer {
  name: "conv6_2"
  type: "Convolution"
  bottom: "conv6_1"
  top: "conv6_2"
  param {
    lr_mult: 1
    decay_mult: 1
  }
  param {
    lr_mult: 2
    decay_mult: 0
  }
  convolution_param {
    num_output: 512
    pad: 1
    kernel_size: 3
    stride: 2
    weight_filler {
      type: "xavier"
    }
    bias_filler {
      type: "constant"
      value: 0
    }
  }
}
layer {
  name: "conv6_2_relu"
  type: "ReLU"
  bottom: "conv6_2"
  top: "conv6_2"
}
layer {
  name: "conv7_1"
  type: "Convolution"
  bottom: "conv6_2"
  top: "conv7_1"
  param {
    lr_mult: 1
    decay_mult: 1
  }
  param {
    lr_mult: 2
    decay_mult: 0
  }
  convolution_param {
    num_output: 128
    pad: 0
    kernel_size: 1
    stride: 1
    weight_filler {
      type: "xavier"
    }
    bias_filler {
      type: "constant"
      value: 0
    }
  }
}
layer {
  name: "conv7_1_relu"
  type: "ReLU"
  bottom: "conv7_1"
  top: "conv7_1"
}
layer {
  name: "conv7_2"
  type: "Convolution"
  bottom: "conv7_1"
  top: "conv7_2"
  param {
    lr_mult: 1
    decay_mult: 1
  }
  param {
    lr_mult: 2
    decay_mult: 0
  }
  convolution_param {
    num_output: 256
    pad: 1
    kernel_size: 3
    stride: 2
    weight_filler {
      type: "xavier"
    }
    bias_filler {
      type: "constant"
      value: 0
    }
  }
}
layer {
  name: "conv7_2_relu"
  type: "ReLU"
  bottom: "conv7_2"
  top: "conv7_2"
}
layer {
  name: "conv8_1"
  type: "Convolution"
  bottom: "conv7_2"
  top: "conv8_1"
  param {
    lr_mult: 1
    decay_mult: 1
  }
  param {
    lr_mult: 2
    decay_mult: 0
  }
  convolution_param {
    num_output: 128
    pad: 0
    kernel_size: 1
    stride: 1
    weight_filler {
      type: "xavier"
    }
    bias_filler {
      type: "constant"
      value: 0
    }
  }
}
layer {
  name: "conv8_1_relu"
  type: "ReLU"
  bottom: "conv8_1"
  top: "conv8_1"
}
layer {
  name: "conv8_2"
  type: "Convolution"
  bottom: "conv8_1"
  top: "conv8_2"
  param {
    lr_mult: 1
    decay_mult: 1
  }
  param {
    lr_mult: 2
    decay_mult: 0
  }
  convolution_param {
    num_output: 256
    pad: 0
    kernel_size: 3
    stride: 1
    weight_filler {
      type: "xavier"
    }
    bias_filler {
      type: "constant"
      value: 0
    }
  }
}
layer {
  name: "conv8_2_relu"
  type: "ReLU"
  bottom: "conv8_2"
  top: "conv8_2"
}
layer {
  name: "conv9_1"
  type: "Convolution"
  bottom: "conv8_2"
  top: "conv9_1"
  param {
    lr_mult: 1
    decay_mult: 1
  }
  param {
    lr_mult: 2
    decay_mult: 0
  }
  convolution_param {
    num_output: 128
    pad: 0
    kernel_size: 1
    stride: 1
    weight_filler {
      type: "xavier"
    }
    bias_filler {
      type: "constant"
      value: 0
    }
  }
}
layer {
  name: "conv9_1_relu"
  type: "ReLU"
  bottom: "conv9_1"
  top: "conv9_1"
}
layer {
  name: "conv9_2"
  type: "Convolution"
  bottom: "conv9_1"
  top: "conv9_2"
  param {
    lr_mult: 1
    decay_mult: 1
  }
  param {
    lr_mult: 2
    decay_mult: 0
  }
  convolution_param {
    num_output: 256
    pad: 0
    kernel_size: 3
    stride: 1
    weight_filler {
      type: "xavier"
    }
    bias_filler {
      type: "constant"
      value: 0
    }
  }
}
layer {
  name: "conv9_2_relu"
  type: "ReLU"
  bottom: "conv9_2"
  top: "conv9_2"
}
layer {
  name: "conv4_3_norm"
  type: "Normalize"
  bottom: "conv4_3"
  top: "conv4_3_norm"
  norm_param {
    across_spatial: false
    scale_filler {
      type: "constant"
      value: 20
    }
    channel_shared: false
  }
}
layer {
  name: "conv4_3_norm_mbox_loc"
  type: "Convolution"
  bottom: "conv4_3_norm"
  top: "conv4_3_norm_mbox_loc"
  param {
    lr_mult: 1
    decay_mult: 1
  }
  param {
    lr_mult: 2
    decay_mult: 0
  }
  convolution_param {
    num_output: 16
    pad: 1
    kernel_size: 3
    stride: 1
    weight_filler {
      type: "xavier"
    }
    bias_filler {
      type: "constant"
      value: 0
    }
  }
}
layer {
  name: "conv4_3_norm_mbox_loc_perm"
  type: "Permute"
  bottom: "conv4_3_norm_mbox_loc"
  top: "conv4_3_norm_mbox_loc_perm"
  permute_param {
    order: 0
    order: 2
    order: 3
    order: 1
  }
}
layer {
  name: "conv4_3_norm_mbox_loc_flat"
  type: "Flatten"
  bottom: "conv4_3_norm_mbox_loc_perm"
  top: "conv4_3_norm_mbox_loc_flat"
  flatten_param {
    axis: 1
  }
}
layer {
  name: "conv4_3_norm_mbox_conf"
  type: "Convolution"
  bottom: "conv4_3_norm"
  top: "conv4_3_norm_mbox_conf"
  param {
    lr_mult: 1
    decay_mult: 1
  }
  param {
    lr_mult: 2
    decay_mult: 0
  }
  convolution_param {
    num_output: 16
    pad: 1
    kernel_size: 3
    stride: 1
    weight_filler {
      type: "xavier"
    }
    bias_filler {
      type: "constant"
      value: 0
    }
  }
}
layer {
  name: "conv4_3_norm_mbox_conf_perm"
  type: "Permute"
  bottom: "conv4_3_norm_mbox_conf"
  top: "conv4_3_norm_mbox_conf_perm"
  permute_param {
    order: 0
    order: 2
    order: 3
    order: 1
  }
}
layer {
  name: "conv4_3_norm_mbox_conf_flat"
  type: "Flatten"
  bottom: "conv4_3_norm_mbox_conf_perm"
  top: "conv4_3_norm_mbox_conf_flat"
  flatten_param {
    axis: 1
  }
}
layer {
  name: "conv4_3_norm_mbox_priorbox"
  type: "PriorBox"
  bottom: "conv4_3_norm"
  bottom: "data"
  top: "conv4_3_norm_mbox_priorbox"
  prior_box_param {
    min_size: 30
    max_size: 60
    aspect_ratio: 2
    flip: true
    clip: false
    variance: 0.1
    variance: 0.1
    variance: 0.2
    variance: 0.2
    step: 8
    offset: 0.5
  }
}
layer {
  name: "fc7_mbox_loc"
  type: "Convolution"
  bottom: "fc7"
  top: "fc7_mbox_loc"
  param {
    lr_mult: 1
    decay_mult: 1
  }
  param {
    lr_mult: 2
    decay_mult: 0
  }
  convolution_param {
    num_output: 24
    pad: 1
    kernel_size: 3
    stride: 1
    weight_filler {
      type: "xavier"
    }
    bias_filler {
      type: "constant"
      value: 0
    }
  }
}
layer {
  name: "fc7_mbox_loc_perm"
  type: "Permute"
  bottom: "fc7_mbox_loc"
  top: "fc7_mbox_loc_perm"
  permute_param {
    order: 0
    order: 2
    order: 3
    order: 1
  }
}
layer {
  name: "fc7_mbox_loc_flat"
  type: "Flatten"
  bottom: "fc7_mbox_loc_perm"
  top: "fc7_mbox_loc_flat"
  flatten_param {
    axis: 1
  }
}
layer {
  name: "fc7_mbox_conf"
  type: "Convolution"
  bottom: "fc7"
  top: "fc7_mbox_conf"
  param {
    lr_mult: 1
    decay_mult: 1
  }
  param {
    lr_mult: 2
    decay_mult: 0
  }
  convolution_param {
    num_output: 24
    pad: 1
    kernel_size: 3
    stride: 1
    weight_filler {
      type: "xavier"
    }
    bias_filler {
      type: "constant"
      value: 0
    }
  }
}
layer {
  name: "fc7_mbox_conf_perm"
  type: "Permute"
  bottom: "fc7_mbox_conf"
  top: "fc7_mbox_conf_perm"
  permute_param {
    order: 0
    order: 2
    order: 3
    order: 1
  }
}
layer {
  name: "fc7_mbox_conf_flat"
  type: "Flatten"
  bottom: "fc7_mbox_conf_perm"
  top: "fc7_mbox_conf_flat"
  flatten_param {
    axis: 1
  }
}
layer {
  name: "fc7_mbox_priorbox"
  type: "PriorBox"
  bottom: "fc7"
  bottom: "data"
  top: "fc7_mbox_priorbox"
  prior_box_param {
    min_size: 60
    max_size: 111
    aspect_ratio: 2
    aspect_ratio: 3
    flip: true
    clip: false
    variance: 0.1
    variance: 0.1
    variance: 0.2
    variance: 0.2
    step: 16
    offset: 0.5
  }
}
layer {
  name: "conv6_2_mbox_loc"
  type: "Convolution"
  bottom: "conv6_2"
  top: "conv6_2_mbox_loc"
  param {
    lr_mult: 1
    decay_mult: 1
  }
  param {
    lr_mult: 2
    decay_mult: 0
  }
  convolution_param {
    num_output: 24
    pad: 1
    kernel_size: 3
    stride: 1
    weight_filler {
      type: "xavier"
    }
    bias_filler {
      type: "constant"
      value: 0
    }
  }
}
layer {
  name: "conv6_2_mbox_loc_perm"
  type: "Permute"
  bottom: "conv6_2_mbox_loc"
  top: "conv6_2_mbox_loc_perm"
  permute_param {
    order: 0
    order: 2
    order: 3
    order: 1
  }
}
layer {
  name: "conv6_2_mbox_loc_flat"
  type: "Flatten"
  bottom: "conv6_2_mbox_loc_perm"
  top: "conv6_2_mbox_loc_flat"
  flatten_param {
    axis: 1
  }
}
layer {
  name: "conv6_2_mbox_conf"
  type: "Convolution"
  bottom: "conv6_2"
  top: "conv6_2_mbox_conf"
  param {
    lr_mult: 1
    decay_mult: 1
  }
  param {
    lr_mult: 2
    decay_mult: 0
  }
  convolution_param {
    num_output: 24
    pad: 1
    kernel_size: 3
    stride: 1
    weight_filler {
      type: "xavier"
    }
    bias_filler {
      type: "constant"
      value: 0
    }
  }
}
layer {
  name: "conv6_2_mbox_conf_perm"
  type: "Permute"
  bottom: "conv6_2_mbox_conf"
  top: "conv6_2_mbox_conf_perm"
  permute_param {
    order: 0
    order: 2
    order: 3
    order: 1
  }
}
layer {
  name: "conv6_2_mbox_conf_flat"
  type: "Flatten"
  bottom: "conv6_2_mbox_conf_perm"
  top: "conv6_2_mbox_conf_flat"
  flatten_param {
    axis: 1
  }
}
layer {
  name: "conv6_2_mbox_priorbox"
  type: "PriorBox"
  bottom: "conv6_2"
  bottom: "data"
  top: "conv6_2_mbox_priorbox"
  prior_box_param {
    min_size: 111
    max_size: 162
    aspect_ratio: 2
    aspect_ratio: 3
    flip: true
    clip: false
    variance: 0.1
    variance: 0.1
    variance: 0.2
    variance: 0.2
    step: 32
    offset: 0.5
  }
}
layer {
  name: "conv7_2_mbox_loc"
  type: "Convolution"
  bottom: "conv7_2"
  top: "conv7_2_mbox_loc"
  param {
    lr_mult: 1
    decay_mult: 1
  }
  param {
    lr_mult: 2
    decay_mult: 0
  }
  convolution_param {
    num_output: 24
    pad: 1
    kernel_size: 3
    stride: 1
    weight_filler {
      type: "xavier"
    }
    bias_filler {
      type: "constant"
      value: 0
    }
  }
}
layer {
  name: "conv7_2_mbox_loc_perm"
  type: "Permute"
  bottom: "conv7_2_mbox_loc"
  top: "conv7_2_mbox_loc_perm"
  permute_param {
    order: 0
    order: 2
    order: 3
    order: 1
  }
}
layer {
  name: "conv7_2_mbox_loc_flat"
  type: "Flatten"
  bottom: "conv7_2_mbox_loc_perm"
  top: "conv7_2_mbox_loc_flat"
  flatten_param {
    axis: 1
  }
}
layer {
  name: "conv7_2_mbox_conf"
  type: "Convolution"
  bottom: "conv7_2"
  top: "conv7_2_mbox_conf"
  param {
    lr_mult: 1
    decay_mult: 1
  }
  param {
    lr_mult: 2
    decay_mult: 0
  }
  convolution_param {
    num_output: 24
    pad: 1
    kernel_size: 3
    stride: 1
    weight_filler {
      type: "xavier"
    }
    bias_filler {
      type: "constant"
      value: 0
    }
  }
}
layer {
  name: "conv7_2_mbox_conf_perm"
  type: "Permute"
  bottom: "conv7_2_mbox_conf"
  top: "conv7_2_mbox_conf_perm"
  permute_param {
    order: 0
    order: 2
    order: 3
    order: 1
  }
}
layer {
  name: "conv7_2_mbox_conf_flat"
  type: "Flatten"
  bottom: "conv7_2_mbox_conf_perm"
  top: "conv7_2_mbox_conf_flat"
  flatten_param {
    axis: 1
  }
}
layer {
  name: "conv7_2_mbox_priorbox"
  type: "PriorBox"
  bottom: "conv7_2"
  bottom: "data"
  top: "conv7_2_mbox_priorbox"
  prior_box_param {
    min_size: 162
    max_size: 213
    aspect_ratio: 2
    aspect_ratio: 3
    flip: true
    clip: false
    variance: 0.1
    variance: 0.1
    variance: 0.2
    variance: 0.2
    step: 64
    offset: 0.5
  }
}
layer {
  name: "conv8_2_mbox_loc"
  type: "Convolution"
  bottom: "conv8_2"
  top: "conv8_2_mbox_loc"
  param {
    lr_mult: 1
    decay_mult: 1
  }
  param {
    lr_mult: 2
    decay_mult: 0
  }
  convolution_param {
    num_output: 16
    pad: 1
    kernel_size: 3
    stride: 1
    weight_filler {
      type: "xavier"
    }
    bias_filler {
      type: "constant"
      value: 0
    }
  }
}
layer {
  name: "conv8_2_mbox_loc_perm"
  type: "Permute"
  bottom: "conv8_2_mbox_loc"
  top: "conv8_2_mbox_loc_perm"
  permute_param {
    order: 0
    order: 2
    order: 3
    order: 1
  }
}
layer {
  name: "conv8_2_mbox_loc_flat"
  type: "Flatten"
  bottom: "conv8_2_mbox_loc_perm"
  top: "conv8_2_mbox_loc_flat"
  flatten_param {
    axis: 1
  }
}
layer {
  name: "conv8_2_mbox_conf"
  type: "Convolution"
  bottom: "conv8_2"
  top: "conv8_2_mbox_conf"
  param {
    lr_mult: 1
    decay_mult: 1
  }
  param {
    lr_mult: 2
    decay_mult: 0
  }
  convolution_param {
    num_output: 16
    pad: 1
    kernel_size: 3
    stride: 1
    weight_filler {
      type: "xavier"
    }
    bias_filler {
      type: "constant"
      value: 0
    }
  }
}
layer {
  name: "conv8_2_mbox_conf_perm"
  type: "Permute"
  bottom: "conv8_2_mbox_conf"
  top: "conv8_2_mbox_conf_perm"
  permute_param {
    order: 0
    order: 2
    order: 3
    order: 1
  }
}
layer {
  name: "conv8_2_mbox_conf_flat"
  type: "Flatten"
  bottom: "conv8_2_mbox_conf_perm"
  top: "conv8_2_mbox_conf_flat"
  flatten_param {
    axis: 1
  }
}
layer {
  name: "conv8_2_mbox_priorbox"
  type: "PriorBox"
  bottom: "conv8_2"
  bottom: "data"
  top: "conv8_2_mbox_priorbox"
  prior_box_param {
    min_size: 213
    max_size: 264
    aspect_ratio: 2
    flip: true
    clip: false
    variance: 0.1
    variance: 0.1
    variance: 0.2
    variance: 0.2
    step: 100
    offset: 0.5
  }
}
layer {
  name: "conv9_2_mbox_loc"
  type: "Convolution"
  bottom: "conv9_2"
  top: "conv9_2_mbox_loc"
  param {
    lr_mult: 1
    decay_mult: 1
  }
  param {
    lr_mult: 2
    decay_mult: 0
  }
  convolution_param {
    num_output: 16
    pad: 1
    kernel_size: 3
    stride: 1
    weight_filler {
      type: "xavier"
    }
    bias_filler {
      type: "constant"
      value: 0
    }
  }
}
layer {
  name: "conv9_2_mbox_loc_perm"
  type: "Permute"
  bottom: "conv9_2_mbox_loc"
  top: "conv9_2_mbox_loc_perm"
  permute_param {
    order: 0
    order: 2
    order: 3
    order: 1
  }
}
layer {
  name: "conv9_2_mbox_loc_flat"
  type: "Flatten"
  bottom: "conv9_2_mbox_loc_perm"
  top: "conv9_2_mbox_loc_flat"
  flatten_param {
    axis: 1
  }
}
layer {
  name: "conv9_2_mbox_conf"
  type: "Convolution"
  bottom: "conv9_2"
  top: "conv9_2_mbox_conf"
  param {
    lr_mult: 1
    decay_mult: 1
  }
  param {
    lr_mult: 2
    decay_mult: 0
  }
  convolution_param {
    num_output: 16
    pad: 1
    kernel_size: 3
    stride: 1
    weight_filler {
      type: "xavier"
    }
    bias_filler {
      type: "constant"
      value: 0
    }
  }
}
layer {
  name: "conv9_2_mbox_conf_perm"
  type: "Permute"
  bottom: "conv9_2_mbox_conf"
  top: "conv9_2_mbox_conf_perm"
  permute_param {
    order: 0
    order: 2
    order: 3
    order: 1
  }
}
layer {
  name: "conv9_2_mbox_conf_flat"
  type: "Flatten"
  bottom: "conv9_2_mbox_conf_perm"
  top: "conv9_2_mbox_conf_flat"
  flatten_param {
    axis: 1
  }
}
layer {
  name: "conv9_2_mbox_priorbox"
  type: "PriorBox"
  bottom: "conv9_2"
  bottom: "data"
  top: "conv9_2_mbox_priorbox"
  prior_box_param {
    min_size: 264
    max_size: 315
    aspect_ratio: 2
    flip: true
    clip: false
    variance: 0.1
    variance: 0.1
    variance: 0.2
    variance: 0.2
    step: 300
    offset: 0.5
  }
}
layer {
  name: "mbox_loc"
  type: "Concat"
  bottom: "conv4_3_norm_mbox_loc_flat"
  bottom: "fc7_mbox_loc_flat"
  bottom: "conv6_2_mbox_loc_flat"
  bottom: "conv7_2_mbox_loc_flat"
  bottom: "conv8_2_mbox_loc_flat"
  bottom: "conv9_2_mbox_loc_flat"
  top: "mbox_loc"
  concat_param {
    axis: 1
  }
}
layer {
  name: "mbox_conf"
  type: "Concat"
  bottom: "conv4_3_norm_mbox_conf_flat"
  bottom: "fc7_mbox_conf_flat"
  bottom: "conv6_2_mbox_conf_flat"
  bottom: "conv7_2_mbox_conf_flat"
  bottom: "conv8_2_mbox_conf_flat"
  bottom: "conv9_2_mbox_conf_flat"
  top: "mbox_conf"
  concat_param {
    axis: 1
  }
}
layer {
  name: "mbox_priorbox"
  type: "Concat"
  bottom: "conv4_3_norm_mbox_priorbox"
  bottom: "fc7_mbox_priorbox"
  bottom: "conv6_2_mbox_priorbox"
  bottom: "conv7_2_mbox_priorbox"
  bottom: "conv8_2_mbox_priorbox"
  bottom: "conv9_2_mbox_priorbox"
  top: "mbox_priorbox"
  concat_param {
    axis: 2
  }
}
layer {
  name: "mbox_loss"
  type: "MultiBoxLoss"
  bottom: "mbox_loc"
  bottom: "mbox_conf"
  bottom: "mbox_priorbox"
  bottom: "label"
  top: "mbox_loss"
  include {
    phase: TRAIN
  }
  propagate_down: true
  propagate_down: true
  propagate_down: false
  propagate_down: false
  loss_param {
    normalization: VALID
  }
  multibox_loss_param {
    loc_loss_type: SMOOTH_L1
    conf_loss_type: SOFTMAX
    loc_weight: 1
    num_classes: 4
    share_location: true
    match_type: PER_PREDICTION
    overlap_threshold: 0.5
    use_prior_for_matching: true
    background_label_id: 0
    use_difficult_gt: true
    neg_pos_ratio: 3
    neg_overlap: 0.5
    code_type: CENTER_SIZE
    ignore_cross_boundary_bbox: false
    mining_type: MAX_NEGATIVE
  }
}
I0601 17:39:23.488173  8117 layer_factory.hpp:77] Creating layer data
I0601 17:39:23.488294  8117 net.cpp:100] Creating Layer data
I0601 17:39:23.488306  8117 net.cpp:408] data -> data
I0601 17:39:23.488330  8117 net.cpp:408] data -> label
I0601 17:39:23.489353  8130 db_lmdb.cpp:35] Opened lmdb examples/tbs_300x300_HSIL_10x/tbs_300x300_HSIL_10x_trainval_lmdb
I0601 17:39:23.597563  8117 annotated_data_layer.cpp:62] output data size: 32,3,300,300
I0601 17:39:23.701789  8117 net.cpp:150] Setting up data
I0601 17:39:23.701814  8117 net.cpp:157] Top shape: 32 3 300 300 (8640000)
I0601 17:39:23.701820  8117 net.cpp:157] Top shape: 1 1 5 8 (40)
I0601 17:39:23.701835  8117 net.cpp:165] Memory required for data: 34560160
I0601 17:39:23.701848  8117 layer_factory.hpp:77] Creating layer data_data_0_split
I0601 17:39:23.701860  8117 net.cpp:100] Creating Layer data_data_0_split
I0601 17:39:23.701867  8117 net.cpp:434] data_data_0_split <- data
I0601 17:39:23.701884  8117 net.cpp:408] data_data_0_split -> data_data_0_split_0
I0601 17:39:23.701897  8117 net.cpp:408] data_data_0_split -> data_data_0_split_1
I0601 17:39:23.701907  8117 net.cpp:408] data_data_0_split -> data_data_0_split_2
I0601 17:39:23.701916  8117 net.cpp:408] data_data_0_split -> data_data_0_split_3
I0601 17:39:23.701925  8117 net.cpp:408] data_data_0_split -> data_data_0_split_4
I0601 17:39:23.701931  8117 net.cpp:408] data_data_0_split -> data_data_0_split_5
I0601 17:39:23.701941  8117 net.cpp:408] data_data_0_split -> data_data_0_split_6
I0601 17:39:23.702028  8117 net.cpp:150] Setting up data_data_0_split
I0601 17:39:23.702036  8117 net.cpp:157] Top shape: 32 3 300 300 (8640000)
I0601 17:39:23.702041  8117 net.cpp:157] Top shape: 32 3 300 300 (8640000)
I0601 17:39:23.702045  8117 net.cpp:157] Top shape: 32 3 300 300 (8640000)
I0601 17:39:23.702050  8117 net.cpp:157] Top shape: 32 3 300 300 (8640000)
I0601 17:39:23.702055  8117 net.cpp:157] Top shape: 32 3 300 300 (8640000)
I0601 17:39:23.702060  8117 net.cpp:157] Top shape: 32 3 300 300 (8640000)
I0601 17:39:23.702065  8117 net.cpp:157] Top shape: 32 3 300 300 (8640000)
I0601 17:39:23.702069  8117 net.cpp:165] Memory required for data: 276480160
I0601 17:39:23.702074  8117 layer_factory.hpp:77] Creating layer conv1_1
I0601 17:39:23.702091  8117 net.cpp:100] Creating Layer conv1_1
I0601 17:39:23.702097  8117 net.cpp:434] conv1_1 <- data_data_0_split_0
I0601 17:39:23.702105  8117 net.cpp:408] conv1_1 -> conv1_1
I0601 17:39:24.082571  8117 net.cpp:150] Setting up conv1_1
I0601 17:39:24.082589  8117 net.cpp:157] Top shape: 32 64 300 300 (184320000)
I0601 17:39:24.082592  8117 net.cpp:165] Memory required for data: 1013760160
I0601 17:39:24.082620  8117 layer_factory.hpp:77] Creating layer relu1_1
I0601 17:39:24.082629  8117 net.cpp:100] Creating Layer relu1_1
I0601 17:39:24.082634  8117 net.cpp:434] relu1_1 <- conv1_1
I0601 17:39:24.082641  8117 net.cpp:395] relu1_1 -> conv1_1 (in-place)
I0601 17:39:24.083847  8117 net.cpp:150] Setting up relu1_1
I0601 17:39:24.083856  8117 net.cpp:157] Top shape: 32 64 300 300 (184320000)
I0601 17:39:24.083858  8117 net.cpp:165] Memory required for data: 1751040160
I0601 17:39:24.083861  8117 layer_factory.hpp:77] Creating layer conv1_2
I0601 17:39:24.083887  8117 net.cpp:100] Creating Layer conv1_2
I0601 17:39:24.083894  8117 net.cpp:434] conv1_2 <- conv1_1
I0601 17:39:24.083900  8117 net.cpp:408] conv1_2 -> conv1_2
I0601 17:39:24.090746  8117 net.cpp:150] Setting up conv1_2
I0601 17:39:24.090760  8117 net.cpp:157] Top shape: 32 64 300 300 (184320000)
I0601 17:39:24.090764  8117 net.cpp:165] Memory required for data: 2488320160
I0601 17:39:24.090773  8117 layer_factory.hpp:77] Creating layer relu1_2
I0601 17:39:24.090781  8117 net.cpp:100] Creating Layer relu1_2
I0601 17:39:24.090786  8117 net.cpp:434] relu1_2 <- conv1_2
I0601 17:39:24.090792  8117 net.cpp:395] relu1_2 -> conv1_2 (in-place)
I0601 17:39:24.091246  8117 net.cpp:150] Setting up relu1_2
I0601 17:39:24.091258  8117 net.cpp:157] Top shape: 32 64 300 300 (184320000)
I0601 17:39:24.091260  8117 net.cpp:165] Memory required for data: 3225600160
I0601 17:39:24.091265  8117 layer_factory.hpp:77] Creating layer pool1
I0601 17:39:24.091274  8117 net.cpp:100] Creating Layer pool1
I0601 17:39:24.091277  8117 net.cpp:434] pool1 <- conv1_2
I0601 17:39:24.091284  8117 net.cpp:408] pool1 -> pool1
I0601 17:39:24.091339  8117 net.cpp:150] Setting up pool1
I0601 17:39:24.091347  8117 net.cpp:157] Top shape: 32 64 150 150 (46080000)
I0601 17:39:24.091351  8117 net.cpp:165] Memory required for data: 3409920160
I0601 17:39:24.091354  8117 layer_factory.hpp:77] Creating layer conv2_1
I0601 17:39:24.091365  8117 net.cpp:100] Creating Layer conv2_1
I0601 17:39:24.091393  8117 net.cpp:434] conv2_1 <- pool1
I0601 17:39:24.091411  8117 net.cpp:408] conv2_1 -> conv2_1
I0601 17:39:24.103977  8117 net.cpp:150] Setting up conv2_1
I0601 17:39:24.103997  8117 net.cpp:157] Top shape: 32 128 150 150 (92160000)
I0601 17:39:24.104001  8117 net.cpp:165] Memory required for data: 3778560160
I0601 17:39:24.104013  8117 layer_factory.hpp:77] Creating layer relu2_1
I0601 17:39:24.104035  8117 net.cpp:100] Creating Layer relu2_1
I0601 17:39:24.104041  8117 net.cpp:434] relu2_1 <- conv2_1
I0601 17:39:24.104048  8117 net.cpp:395] relu2_1 -> conv2_1 (in-place)
I0601 17:39:24.106225  8117 net.cpp:150] Setting up relu2_1
I0601 17:39:24.106235  8117 net.cpp:157] Top shape: 32 128 150 150 (92160000)
I0601 17:39:24.106240  8117 net.cpp:165] Memory required for data: 4147200160
I0601 17:39:24.106245  8117 layer_factory.hpp:77] Creating layer conv2_2
I0601 17:39:24.106256  8117 net.cpp:100] Creating Layer conv2_2
I0601 17:39:24.106259  8117 net.cpp:434] conv2_2 <- conv2_1
I0601 17:39:24.106267  8117 net.cpp:408] conv2_2 -> conv2_2
I0601 17:39:24.113621  8117 net.cpp:150] Setting up conv2_2
I0601 17:39:24.113636  8117 net.cpp:157] Top shape: 32 128 150 150 (92160000)
I0601 17:39:24.113641  8117 net.cpp:165] Memory required for data: 4515840160
I0601 17:39:24.113649  8117 layer_factory.hpp:77] Creating layer relu2_2
I0601 17:39:24.113657  8117 net.cpp:100] Creating Layer relu2_2
I0601 17:39:24.113664  8117 net.cpp:434] relu2_2 <- conv2_2
I0601 17:39:24.113672  8117 net.cpp:395] relu2_2 -> conv2_2 (in-place)
I0601 17:39:24.115173  8117 net.cpp:150] Setting up relu2_2
I0601 17:39:24.115185  8117 net.cpp:157] Top shape: 32 128 150 150 (92160000)
I0601 17:39:24.115188  8117 net.cpp:165] Memory required for data: 4884480160
I0601 17:39:24.115192  8117 layer_factory.hpp:77] Creating layer pool2
I0601 17:39:24.115201  8117 net.cpp:100] Creating Layer pool2
I0601 17:39:24.115206  8117 net.cpp:434] pool2 <- conv2_2
I0601 17:39:24.115213  8117 net.cpp:408] pool2 -> pool2
I0601 17:39:24.115257  8117 net.cpp:150] Setting up pool2
I0601 17:39:24.115263  8117 net.cpp:157] Top shape: 32 128 75 75 (23040000)
I0601 17:39:24.115267  8117 net.cpp:165] Memory required for data: 4976640160
I0601 17:39:24.115272  8117 layer_factory.hpp:77] Creating layer conv3_1
I0601 17:39:24.115280  8117 net.cpp:100] Creating Layer conv3_1
I0601 17:39:24.115285  8117 net.cpp:434] conv3_1 <- pool2
I0601 17:39:24.115293  8117 net.cpp:408] conv3_1 -> conv3_1
I0601 17:39:24.132935  8117 net.cpp:150] Setting up conv3_1
I0601 17:39:24.132952  8117 net.cpp:157] Top shape: 32 256 75 75 (46080000)
I0601 17:39:24.132956  8117 net.cpp:165] Memory required for data: 5160960160
I0601 17:39:24.132972  8117 layer_factory.hpp:77] Creating layer relu3_1
I0601 17:39:24.132982  8117 net.cpp:100] Creating Layer relu3_1
I0601 17:39:24.132994  8117 net.cpp:434] relu3_1 <- conv3_1
I0601 17:39:24.133002  8117 net.cpp:395] relu3_1 -> conv3_1 (in-place)
I0601 17:39:24.133152  8117 net.cpp:150] Setting up relu3_1
I0601 17:39:24.133159  8117 net.cpp:157] Top shape: 32 256 75 75 (46080000)
I0601 17:39:24.133162  8117 net.cpp:165] Memory required for data: 5345280160
I0601 17:39:24.133167  8117 layer_factory.hpp:77] Creating layer conv3_2
I0601 17:39:24.133177  8117 net.cpp:100] Creating Layer conv3_2
I0601 17:39:24.133183  8117 net.cpp:434] conv3_2 <- conv3_1
I0601 17:39:24.133189  8117 net.cpp:408] conv3_2 -> conv3_2
I0601 17:39:24.137513  8117 net.cpp:150] Setting up conv3_2
I0601 17:39:24.137529  8117 net.cpp:157] Top shape: 32 256 75 75 (46080000)
I0601 17:39:24.137533  8117 net.cpp:165] Memory required for data: 5529600160
I0601 17:39:24.137542  8117 layer_factory.hpp:77] Creating layer relu3_2
I0601 17:39:24.137552  8117 net.cpp:100] Creating Layer relu3_2
I0601 17:39:24.137557  8117 net.cpp:434] relu3_2 <- conv3_2
I0601 17:39:24.137563  8117 net.cpp:395] relu3_2 -> conv3_2 (in-place)
I0601 17:39:24.137696  8117 net.cpp:150] Setting up relu3_2
I0601 17:39:24.137706  8117 net.cpp:157] Top shape: 32 256 75 75 (46080000)
I0601 17:39:24.137708  8117 net.cpp:165] Memory required for data: 5713920160
I0601 17:39:24.137727  8117 layer_factory.hpp:77] Creating layer conv3_3
I0601 17:39:24.137738  8117 net.cpp:100] Creating Layer conv3_3
I0601 17:39:24.137743  8117 net.cpp:434] conv3_3 <- conv3_2
I0601 17:39:24.137750  8117 net.cpp:408] conv3_3 -> conv3_3
I0601 17:39:24.142092  8117 net.cpp:150] Setting up conv3_3
I0601 17:39:24.142110  8117 net.cpp:157] Top shape: 32 256 75 75 (46080000)
I0601 17:39:24.142114  8117 net.cpp:165] Memory required for data: 5898240160
I0601 17:39:24.142123  8117 layer_factory.hpp:77] Creating layer relu3_3
I0601 17:39:24.142132  8117 net.cpp:100] Creating Layer relu3_3
I0601 17:39:24.142138  8117 net.cpp:434] relu3_3 <- conv3_3
I0601 17:39:24.142145  8117 net.cpp:395] relu3_3 -> conv3_3 (in-place)
I0601 17:39:24.142280  8117 net.cpp:150] Setting up relu3_3
I0601 17:39:24.142288  8117 net.cpp:157] Top shape: 32 256 75 75 (46080000)
I0601 17:39:24.142292  8117 net.cpp:165] Memory required for data: 6082560160
I0601 17:39:24.142297  8117 layer_factory.hpp:77] Creating layer pool3
I0601 17:39:24.142303  8117 net.cpp:100] Creating Layer pool3
I0601 17:39:24.142307  8117 net.cpp:434] pool3 <- conv3_3
I0601 17:39:24.142313  8117 net.cpp:408] pool3 -> pool3
I0601 17:39:24.142359  8117 net.cpp:150] Setting up pool3
I0601 17:39:24.142367  8117 net.cpp:157] Top shape: 32 256 38 38 (11829248)
I0601 17:39:24.142371  8117 net.cpp:165] Memory required for data: 6129877152
I0601 17:39:24.142374  8117 layer_factory.hpp:77] Creating layer conv4_1
I0601 17:39:24.142385  8117 net.cpp:100] Creating Layer conv4_1
I0601 17:39:24.142390  8117 net.cpp:434] conv4_1 <- pool3
I0601 17:39:24.142396  8117 net.cpp:408] conv4_1 -> conv4_1
I0601 17:39:24.151062  8117 net.cpp:150] Setting up conv4_1
I0601 17:39:24.151083  8117 net.cpp:157] Top shape: 32 512 38 38 (23658496)
I0601 17:39:24.151087  8117 net.cpp:165] Memory required for data: 6224511136
I0601 17:39:24.151098  8117 layer_factory.hpp:77] Creating layer relu4_1
I0601 17:39:24.151106  8117 net.cpp:100] Creating Layer relu4_1
I0601 17:39:24.151113  8117 net.cpp:434] relu4_1 <- conv4_1
I0601 17:39:24.151118  8117 net.cpp:395] relu4_1 -> conv4_1 (in-place)
I0601 17:39:24.151590  8117 net.cpp:150] Setting up relu4_1
I0601 17:39:24.151600  8117 net.cpp:157] Top shape: 32 512 38 38 (23658496)
I0601 17:39:24.151604  8117 net.cpp:165] Memory required for data: 6319145120
I0601 17:39:24.151609  8117 layer_factory.hpp:77] Creating layer conv4_2
I0601 17:39:24.151620  8117 net.cpp:100] Creating Layer conv4_2
I0601 17:39:24.151625  8117 net.cpp:434] conv4_2 <- conv4_1
I0601 17:39:24.151633  8117 net.cpp:408] conv4_2 -> conv4_2
I0601 17:39:24.163945  8117 net.cpp:150] Setting up conv4_2
I0601 17:39:24.163969  8117 net.cpp:157] Top shape: 32 512 38 38 (23658496)
I0601 17:39:24.163974  8117 net.cpp:165] Memory required for data: 6413779104
I0601 17:39:24.163986  8117 layer_factory.hpp:77] Creating layer relu4_2
I0601 17:39:24.163996  8117 net.cpp:100] Creating Layer relu4_2
I0601 17:39:24.164001  8117 net.cpp:434] relu4_2 <- conv4_2
I0601 17:39:24.164007  8117 net.cpp:395] relu4_2 -> conv4_2 (in-place)
I0601 17:39:24.164583  8117 net.cpp:150] Setting up relu4_2
I0601 17:39:24.164594  8117 net.cpp:157] Top shape: 32 512 38 38 (23658496)
I0601 17:39:24.164598  8117 net.cpp:165] Memory required for data: 6508413088
I0601 17:39:24.164602  8117 layer_factory.hpp:77] Creating layer conv4_3
I0601 17:39:24.164613  8117 net.cpp:100] Creating Layer conv4_3
I0601 17:39:24.164618  8117 net.cpp:434] conv4_3 <- conv4_2
I0601 17:39:24.164626  8117 net.cpp:408] conv4_3 -> conv4_3
I0601 17:39:24.177332  8117 net.cpp:150] Setting up conv4_3
I0601 17:39:24.177386  8117 net.cpp:157] Top shape: 32 512 38 38 (23658496)
I0601 17:39:24.177399  8117 net.cpp:165] Memory required for data: 6603047072
I0601 17:39:24.177418  8117 layer_factory.hpp:77] Creating layer relu4_3
I0601 17:39:24.177438  8117 net.cpp:100] Creating Layer relu4_3
I0601 17:39:24.177446  8117 net.cpp:434] relu4_3 <- conv4_3
I0601 17:39:24.177454  8117 net.cpp:395] relu4_3 -> conv4_3 (in-place)
I0601 17:39:24.177645  8117 net.cpp:150] Setting up relu4_3
I0601 17:39:24.177656  8117 net.cpp:157] Top shape: 32 512 38 38 (23658496)
I0601 17:39:24.177661  8117 net.cpp:165] Memory required for data: 6697681056
I0601 17:39:24.177665  8117 layer_factory.hpp:77] Creating layer conv4_3_relu4_3_0_split
I0601 17:39:24.177670  8117 net.cpp:100] Creating Layer conv4_3_relu4_3_0_split
I0601 17:39:24.177675  8117 net.cpp:434] conv4_3_relu4_3_0_split <- conv4_3
I0601 17:39:24.177681  8117 net.cpp:408] conv4_3_relu4_3_0_split -> conv4_3_relu4_3_0_split_0
I0601 17:39:24.177690  8117 net.cpp:408] conv4_3_relu4_3_0_split -> conv4_3_relu4_3_0_split_1
I0601 17:39:24.177731  8117 net.cpp:150] Setting up conv4_3_relu4_3_0_split
I0601 17:39:24.177739  8117 net.cpp:157] Top shape: 32 512 38 38 (23658496)
I0601 17:39:24.177744  8117 net.cpp:157] Top shape: 32 512 38 38 (23658496)
I0601 17:39:24.177747  8117 net.cpp:165] Memory required for data: 6886949024
I0601 17:39:24.177752  8117 layer_factory.hpp:77] Creating layer pool4
I0601 17:39:24.177758  8117 net.cpp:100] Creating Layer pool4
I0601 17:39:24.177763  8117 net.cpp:434] pool4 <- conv4_3_relu4_3_0_split_0
I0601 17:39:24.177769  8117 net.cpp:408] pool4 -> pool4
I0601 17:39:24.177809  8117 net.cpp:150] Setting up pool4
I0601 17:39:24.177815  8117 net.cpp:157] Top shape: 32 512 19 19 (5914624)
I0601 17:39:24.177820  8117 net.cpp:165] Memory required for data: 6910607520
I0601 17:39:24.177824  8117 layer_factory.hpp:77] Creating layer conv5_1
I0601 17:39:24.177834  8117 net.cpp:100] Creating Layer conv5_1
I0601 17:39:24.177839  8117 net.cpp:434] conv5_1 <- pool4
I0601 17:39:24.177845  8117 net.cpp:408] conv5_1 -> conv5_1
I0601 17:39:24.191071  8117 net.cpp:150] Setting up conv5_1
I0601 17:39:24.191087  8117 net.cpp:157] Top shape: 32 512 19 19 (5914624)
I0601 17:39:24.191092  8117 net.cpp:165] Memory required for data: 6934266016
I0601 17:39:24.191102  8117 layer_factory.hpp:77] Creating layer relu5_1
I0601 17:39:24.191110  8117 net.cpp:100] Creating Layer relu5_1
I0601 17:39:24.191114  8117 net.cpp:434] relu5_1 <- conv5_1
I0601 17:39:24.191121  8117 net.cpp:395] relu5_1 -> conv5_1 (in-place)
I0601 17:39:24.191253  8117 net.cpp:150] Setting up relu5_1
I0601 17:39:24.191262  8117 net.cpp:157] Top shape: 32 512 19 19 (5914624)
I0601 17:39:24.191264  8117 net.cpp:165] Memory required for data: 6957924512
I0601 17:39:24.191268  8117 layer_factory.hpp:77] Creating layer conv5_2
I0601 17:39:24.191279  8117 net.cpp:100] Creating Layer conv5_2
I0601 17:39:24.191284  8117 net.cpp:434] conv5_2 <- conv5_1
I0601 17:39:24.191292  8117 net.cpp:408] conv5_2 -> conv5_2
I0601 17:39:24.207111  8117 net.cpp:150] Setting up conv5_2
I0601 17:39:24.207130  8117 net.cpp:157] Top shape: 32 512 19 19 (5914624)
I0601 17:39:24.207134  8117 net.cpp:165] Memory required for data: 6981583008
I0601 17:39:24.207142  8117 layer_factory.hpp:77] Creating layer relu5_2
I0601 17:39:24.207150  8117 net.cpp:100] Creating Layer relu5_2
I0601 17:39:24.207156  8117 net.cpp:434] relu5_2 <- conv5_2
I0601 17:39:24.207164  8117 net.cpp:395] relu5_2 -> conv5_2 (in-place)
I0601 17:39:24.209295  8117 net.cpp:150] Setting up relu5_2
I0601 17:39:24.209305  8117 net.cpp:157] Top shape: 32 512 19 19 (5914624)
I0601 17:39:24.209309  8117 net.cpp:165] Memory required for data: 7005241504
I0601 17:39:24.209312  8117 layer_factory.hpp:77] Creating layer conv5_3
I0601 17:39:24.209323  8117 net.cpp:100] Creating Layer conv5_3
I0601 17:39:24.209328  8117 net.cpp:434] conv5_3 <- conv5_2
I0601 17:39:24.209336  8117 net.cpp:408] conv5_3 -> conv5_3
I0601 17:39:24.224844  8117 net.cpp:150] Setting up conv5_3
I0601 17:39:24.224861  8117 net.cpp:157] Top shape: 32 512 19 19 (5914624)
I0601 17:39:24.224866  8117 net.cpp:165] Memory required for data: 7028900000
I0601 17:39:24.224875  8117 layer_factory.hpp:77] Creating layer relu5_3
I0601 17:39:24.224889  8117 net.cpp:100] Creating Layer relu5_3
I0601 17:39:24.224895  8117 net.cpp:434] relu5_3 <- conv5_3
I0601 17:39:24.224901  8117 net.cpp:395] relu5_3 -> conv5_3 (in-place)
I0601 17:39:24.226943  8117 net.cpp:150] Setting up relu5_3
I0601 17:39:24.226960  8117 net.cpp:157] Top shape: 32 512 19 19 (5914624)
I0601 17:39:24.226964  8117 net.cpp:165] Memory required for data: 7052558496
I0601 17:39:24.226969  8117 layer_factory.hpp:77] Creating layer pool5
I0601 17:39:24.226976  8117 net.cpp:100] Creating Layer pool5
I0601 17:39:24.226980  8117 net.cpp:434] pool5 <- conv5_3
I0601 17:39:24.226986  8117 net.cpp:408] pool5 -> pool5
I0601 17:39:24.227032  8117 net.cpp:150] Setting up pool5
I0601 17:39:24.227039  8117 net.cpp:157] Top shape: 32 512 19 19 (5914624)
I0601 17:39:24.227043  8117 net.cpp:165] Memory required for data: 7076216992
I0601 17:39:24.227047  8117 layer_factory.hpp:77] Creating layer fc6
I0601 17:39:24.227057  8117 net.cpp:100] Creating Layer fc6
I0601 17:39:24.227062  8117 net.cpp:434] fc6 <- pool5
I0601 17:39:24.227069  8117 net.cpp:408] fc6 -> fc6
I0601 17:39:24.250555  8117 net.cpp:150] Setting up fc6
I0601 17:39:24.250612  8117 net.cpp:157] Top shape: 32 1024 19 19 (11829248)
I0601 17:39:24.250629  8117 net.cpp:165] Memory required for data: 7123533984
I0601 17:39:24.250648  8117 layer_factory.hpp:77] Creating layer relu6
I0601 17:39:24.250668  8117 net.cpp:100] Creating Layer relu6
I0601 17:39:24.250682  8117 net.cpp:434] relu6 <- fc6
I0601 17:39:24.250699  8117 net.cpp:395] relu6 -> fc6 (in-place)
I0601 17:39:24.251344  8117 net.cpp:150] Setting up relu6
I0601 17:39:24.251355  8117 net.cpp:157] Top shape: 32 1024 19 19 (11829248)
I0601 17:39:24.251359  8117 net.cpp:165] Memory required for data: 7170850976
I0601 17:39:24.251364  8117 layer_factory.hpp:77] Creating layer fc7
I0601 17:39:24.251374  8117 net.cpp:100] Creating Layer fc7
I0601 17:39:24.251379  8117 net.cpp:434] fc7 <- fc6
I0601 17:39:24.251386  8117 net.cpp:408] fc7 -> fc7
I0601 17:39:24.260557  8117 net.cpp:150] Setting up fc7
I0601 17:39:24.260576  8117 net.cpp:157] Top shape: 32 1024 19 19 (11829248)
I0601 17:39:24.260581  8117 net.cpp:165] Memory required for data: 7218167968
I0601 17:39:24.260588  8117 layer_factory.hpp:77] Creating layer relu7
I0601 17:39:24.260597  8117 net.cpp:100] Creating Layer relu7
I0601 17:39:24.260602  8117 net.cpp:434] relu7 <- fc7
I0601 17:39:24.260609  8117 net.cpp:395] relu7 -> fc7 (in-place)
I0601 17:39:24.262729  8117 net.cpp:150] Setting up relu7
I0601 17:39:24.262739  8117 net.cpp:157] Top shape: 32 1024 19 19 (11829248)
I0601 17:39:24.262742  8117 net.cpp:165] Memory required for data: 7265484960
I0601 17:39:24.262747  8117 layer_factory.hpp:77] Creating layer fc7_relu7_0_split
I0601 17:39:24.262753  8117 net.cpp:100] Creating Layer fc7_relu7_0_split
I0601 17:39:24.262758  8117 net.cpp:434] fc7_relu7_0_split <- fc7
I0601 17:39:24.262764  8117 net.cpp:408] fc7_relu7_0_split -> fc7_relu7_0_split_0
I0601 17:39:24.262771  8117 net.cpp:408] fc7_relu7_0_split -> fc7_relu7_0_split_1
I0601 17:39:24.262784  8117 net.cpp:408] fc7_relu7_0_split -> fc7_relu7_0_split_2
I0601 17:39:24.262791  8117 net.cpp:408] fc7_relu7_0_split -> fc7_relu7_0_split_3
I0601 17:39:24.262854  8117 net.cpp:150] Setting up fc7_relu7_0_split
I0601 17:39:24.262861  8117 net.cpp:157] Top shape: 32 1024 19 19 (11829248)
I0601 17:39:24.262867  8117 net.cpp:157] Top shape: 32 1024 19 19 (11829248)
I0601 17:39:24.262872  8117 net.cpp:157] Top shape: 32 1024 19 19 (11829248)
I0601 17:39:24.262877  8117 net.cpp:157] Top shape: 32 1024 19 19 (11829248)
I0601 17:39:24.262881  8117 net.cpp:165] Memory required for data: 7454752928
I0601 17:39:24.262884  8117 layer_factory.hpp:77] Creating layer conv6_1
I0601 17:39:24.262895  8117 net.cpp:100] Creating Layer conv6_1
I0601 17:39:24.262899  8117 net.cpp:434] conv6_1 <- fc7_relu7_0_split_0
I0601 17:39:24.262907  8117 net.cpp:408] conv6_1 -> conv6_1
I0601 17:39:24.270057  8117 net.cpp:150] Setting up conv6_1
I0601 17:39:24.270071  8117 net.cpp:157] Top shape: 32 256 19 19 (2957312)
I0601 17:39:24.270076  8117 net.cpp:165] Memory required for data: 7466582176
I0601 17:39:24.270083  8117 layer_factory.hpp:77] Creating layer conv6_1_relu
I0601 17:39:24.270092  8117 net.cpp:100] Creating Layer conv6_1_relu
I0601 17:39:24.270110  8117 net.cpp:434] conv6_1_relu <- conv6_1
I0601 17:39:24.270118  8117 net.cpp:395] conv6_1_relu -> conv6_1 (in-place)
I0601 17:39:24.271872  8117 net.cpp:150] Setting up conv6_1_relu
I0601 17:39:24.271880  8117 net.cpp:157] Top shape: 32 256 19 19 (2957312)
I0601 17:39:24.271884  8117 net.cpp:165] Memory required for data: 7478411424
I0601 17:39:24.271888  8117 layer_factory.hpp:77] Creating layer conv6_2
I0601 17:39:24.271898  8117 net.cpp:100] Creating Layer conv6_2
I0601 17:39:24.271903  8117 net.cpp:434] conv6_2 <- conv6_1
I0601 17:39:24.271909  8117 net.cpp:408] conv6_2 -> conv6_2
I0601 17:39:24.280781  8117 net.cpp:150] Setting up conv6_2
I0601 17:39:24.280799  8117 net.cpp:157] Top shape: 32 512 10 10 (1638400)
I0601 17:39:24.280803  8117 net.cpp:165] Memory required for data: 7484965024
I0601 17:39:24.280817  8117 layer_factory.hpp:77] Creating layer conv6_2_relu
I0601 17:39:24.280827  8117 net.cpp:100] Creating Layer conv6_2_relu
I0601 17:39:24.280833  8117 net.cpp:434] conv6_2_relu <- conv6_2
I0601 17:39:24.280839  8117 net.cpp:395] conv6_2_relu -> conv6_2 (in-place)
I0601 17:39:24.282960  8117 net.cpp:150] Setting up conv6_2_relu
I0601 17:39:24.282974  8117 net.cpp:157] Top shape: 32 512 10 10 (1638400)
I0601 17:39:24.282977  8117 net.cpp:165] Memory required for data: 7491518624
I0601 17:39:24.282981  8117 layer_factory.hpp:77] Creating layer conv6_2_conv6_2_relu_0_split
I0601 17:39:24.282989  8117 net.cpp:100] Creating Layer conv6_2_conv6_2_relu_0_split
I0601 17:39:24.282994  8117 net.cpp:434] conv6_2_conv6_2_relu_0_split <- conv6_2
I0601 17:39:24.283001  8117 net.cpp:408] conv6_2_conv6_2_relu_0_split -> conv6_2_conv6_2_relu_0_split_0
I0601 17:39:24.283011  8117 net.cpp:408] conv6_2_conv6_2_relu_0_split -> conv6_2_conv6_2_relu_0_split_1
I0601 17:39:24.283020  8117 net.cpp:408] conv6_2_conv6_2_relu_0_split -> conv6_2_conv6_2_relu_0_split_2
I0601 17:39:24.283030  8117 net.cpp:408] conv6_2_conv6_2_relu_0_split -> conv6_2_conv6_2_relu_0_split_3
I0601 17:39:24.283093  8117 net.cpp:150] Setting up conv6_2_conv6_2_relu_0_split
I0601 17:39:24.283100  8117 net.cpp:157] Top shape: 32 512 10 10 (1638400)
I0601 17:39:24.283105  8117 net.cpp:157] Top shape: 32 512 10 10 (1638400)
I0601 17:39:24.283110  8117 net.cpp:157] Top shape: 32 512 10 10 (1638400)
I0601 17:39:24.283115  8117 net.cpp:157] Top shape: 32 512 10 10 (1638400)
I0601 17:39:24.283118  8117 net.cpp:165] Memory required for data: 7517733024
I0601 17:39:24.283123  8117 layer_factory.hpp:77] Creating layer conv7_1
I0601 17:39:24.283134  8117 net.cpp:100] Creating Layer conv7_1
I0601 17:39:24.283138  8117 net.cpp:434] conv7_1 <- conv6_2_conv6_2_relu_0_split_0
I0601 17:39:24.283146  8117 net.cpp:408] conv7_1 -> conv7_1
I0601 17:39:24.290993  8117 net.cpp:150] Setting up conv7_1
I0601 17:39:24.291018  8117 net.cpp:157] Top shape: 32 128 10 10 (409600)
I0601 17:39:24.291020  8117 net.cpp:165] Memory required for data: 7519371424
I0601 17:39:24.291031  8117 layer_factory.hpp:77] Creating layer conv7_1_relu
I0601 17:39:24.291043  8117 net.cpp:100] Creating Layer conv7_1_relu
I0601 17:39:24.291050  8117 net.cpp:434] conv7_1_relu <- conv7_1
I0601 17:39:24.291059  8117 net.cpp:395] conv7_1_relu -> conv7_1 (in-place)
I0601 17:39:24.293180  8117 net.cpp:150] Setting up conv7_1_relu
I0601 17:39:24.293189  8117 net.cpp:157] Top shape: 32 128 10 10 (409600)
I0601 17:39:24.293193  8117 net.cpp:165] Memory required for data: 7521009824
I0601 17:39:24.293197  8117 layer_factory.hpp:77] Creating layer conv7_2
I0601 17:39:24.293208  8117 net.cpp:100] Creating Layer conv7_2
I0601 17:39:24.293212  8117 net.cpp:434] conv7_2 <- conv7_1
I0601 17:39:24.293220  8117 net.cpp:408] conv7_2 -> conv7_2
I0601 17:39:24.299926  8117 net.cpp:150] Setting up conv7_2
I0601 17:39:24.299942  8117 net.cpp:157] Top shape: 32 256 5 5 (204800)
I0601 17:39:24.299947  8117 net.cpp:165] Memory required for data: 7521829024
I0601 17:39:24.299955  8117 layer_factory.hpp:77] Creating layer conv7_2_relu
I0601 17:39:24.299963  8117 net.cpp:100] Creating Layer conv7_2_relu
I0601 17:39:24.299968  8117 net.cpp:434] conv7_2_relu <- conv7_2
I0601 17:39:24.299991  8117 net.cpp:395] conv7_2_relu -> conv7_2 (in-place)
I0601 17:39:24.302173  8117 net.cpp:150] Setting up conv7_2_relu
I0601 17:39:24.302184  8117 net.cpp:157] Top shape: 32 256 5 5 (204800)
I0601 17:39:24.302188  8117 net.cpp:165] Memory required for data: 7522648224
I0601 17:39:24.302192  8117 layer_factory.hpp:77] Creating layer conv7_2_conv7_2_relu_0_split
I0601 17:39:24.302201  8117 net.cpp:100] Creating Layer conv7_2_conv7_2_relu_0_split
I0601 17:39:24.302204  8117 net.cpp:434] conv7_2_conv7_2_relu_0_split <- conv7_2
I0601 17:39:24.302211  8117 net.cpp:408] conv7_2_conv7_2_relu_0_split -> conv7_2_conv7_2_relu_0_split_0
I0601 17:39:24.302219  8117 net.cpp:408] conv7_2_conv7_2_relu_0_split -> conv7_2_conv7_2_relu_0_split_1
I0601 17:39:24.302227  8117 net.cpp:408] conv7_2_conv7_2_relu_0_split -> conv7_2_conv7_2_relu_0_split_2
I0601 17:39:24.302234  8117 net.cpp:408] conv7_2_conv7_2_relu_0_split -> conv7_2_conv7_2_relu_0_split_3
I0601 17:39:24.302300  8117 net.cpp:150] Setting up conv7_2_conv7_2_relu_0_split
I0601 17:39:24.302307  8117 net.cpp:157] Top shape: 32 256 5 5 (204800)
I0601 17:39:24.302314  8117 net.cpp:157] Top shape: 32 256 5 5 (204800)
I0601 17:39:24.302319  8117 net.cpp:157] Top shape: 32 256 5 5 (204800)
I0601 17:39:24.302322  8117 net.cpp:157] Top shape: 32 256 5 5 (204800)
I0601 17:39:24.302325  8117 net.cpp:165] Memory required for data: 7525925024
I0601 17:39:24.302330  8117 layer_factory.hpp:77] Creating layer conv8_1
I0601 17:39:24.302340  8117 net.cpp:100] Creating Layer conv8_1
I0601 17:39:24.302345  8117 net.cpp:434] conv8_1 <- conv7_2_conv7_2_relu_0_split_0
I0601 17:39:24.302351  8117 net.cpp:408] conv8_1 -> conv8_1
I0601 17:39:24.309047  8117 net.cpp:150] Setting up conv8_1
I0601 17:39:24.309065  8117 net.cpp:157] Top shape: 32 128 5 5 (102400)
I0601 17:39:24.309069  8117 net.cpp:165] Memory required for data: 7526334624
I0601 17:39:24.309077  8117 layer_factory.hpp:77] Creating layer conv8_1_relu
I0601 17:39:24.309087  8117 net.cpp:100] Creating Layer conv8_1_relu
I0601 17:39:24.309092  8117 net.cpp:434] conv8_1_relu <- conv8_1
I0601 17:39:24.309098  8117 net.cpp:395] conv8_1_relu -> conv8_1 (in-place)
I0601 17:39:24.311180  8117 net.cpp:150] Setting up conv8_1_relu
I0601 17:39:24.311190  8117 net.cpp:157] Top shape: 32 128 5 5 (102400)
I0601 17:39:24.311194  8117 net.cpp:165] Memory required for data: 7526744224
I0601 17:39:24.311198  8117 layer_factory.hpp:77] Creating layer conv8_2
I0601 17:39:24.311209  8117 net.cpp:100] Creating Layer conv8_2
I0601 17:39:24.311214  8117 net.cpp:434] conv8_2 <- conv8_1
I0601 17:39:24.311221  8117 net.cpp:408] conv8_2 -> conv8_2
I0601 17:39:24.317920  8117 net.cpp:150] Setting up conv8_2
I0601 17:39:24.317939  8117 net.cpp:157] Top shape: 32 256 3 3 (73728)
I0601 17:39:24.317945  8117 net.cpp:165] Memory required for data: 7527039136
I0601 17:39:24.317953  8117 layer_factory.hpp:77] Creating layer conv8_2_relu
I0601 17:39:24.317961  8117 net.cpp:100] Creating Layer conv8_2_relu
I0601 17:39:24.317967  8117 net.cpp:434] conv8_2_relu <- conv8_2
I0601 17:39:24.317975  8117 net.cpp:395] conv8_2_relu -> conv8_2 (in-place)
I0601 17:39:24.320983  8117 net.cpp:150] Setting up conv8_2_relu
I0601 17:39:24.320997  8117 net.cpp:157] Top shape: 32 256 3 3 (73728)
I0601 17:39:24.321002  8117 net.cpp:165] Memory required for data: 7527334048
I0601 17:39:24.321007  8117 layer_factory.hpp:77] Creating layer conv8_2_conv8_2_relu_0_split
I0601 17:39:24.321014  8117 net.cpp:100] Creating Layer conv8_2_conv8_2_relu_0_split
I0601 17:39:24.321019  8117 net.cpp:434] conv8_2_conv8_2_relu_0_split <- conv8_2
I0601 17:39:24.321027  8117 net.cpp:408] conv8_2_conv8_2_relu_0_split -> conv8_2_conv8_2_relu_0_split_0
I0601 17:39:24.321038  8117 net.cpp:408] conv8_2_conv8_2_relu_0_split -> conv8_2_conv8_2_relu_0_split_1
I0601 17:39:24.321046  8117 net.cpp:408] conv8_2_conv8_2_relu_0_split -> conv8_2_conv8_2_relu_0_split_2
I0601 17:39:24.321074  8117 net.cpp:408] conv8_2_conv8_2_relu_0_split -> conv8_2_conv8_2_relu_0_split_3
I0601 17:39:24.321162  8117 net.cpp:150] Setting up conv8_2_conv8_2_relu_0_split
I0601 17:39:24.321171  8117 net.cpp:157] Top shape: 32 256 3 3 (73728)
I0601 17:39:24.321177  8117 net.cpp:157] Top shape: 32 256 3 3 (73728)
I0601 17:39:24.321182  8117 net.cpp:157] Top shape: 32 256 3 3 (73728)
I0601 17:39:24.321185  8117 net.cpp:157] Top shape: 32 256 3 3 (73728)
I0601 17:39:24.321190  8117 net.cpp:165] Memory required for data: 7528513696
I0601 17:39:24.321194  8117 layer_factory.hpp:77] Creating layer conv9_1
I0601 17:39:24.321205  8117 net.cpp:100] Creating Layer conv9_1
I0601 17:39:24.321211  8117 net.cpp:434] conv9_1 <- conv8_2_conv8_2_relu_0_split_0
I0601 17:39:24.321219  8117 net.cpp:408] conv9_1 -> conv9_1
I0601 17:39:24.328117  8117 net.cpp:150] Setting up conv9_1
I0601 17:39:24.328130  8117 net.cpp:157] Top shape: 32 128 3 3 (36864)
I0601 17:39:24.328135  8117 net.cpp:165] Memory required for data: 7528661152
I0601 17:39:24.328143  8117 layer_factory.hpp:77] Creating layer conv9_1_relu
I0601 17:39:24.328150  8117 net.cpp:100] Creating Layer conv9_1_relu
I0601 17:39:24.328155  8117 net.cpp:434] conv9_1_relu <- conv9_1
I0601 17:39:24.328161  8117 net.cpp:395] conv9_1_relu -> conv9_1 (in-place)
I0601 17:39:24.330283  8117 net.cpp:150] Setting up conv9_1_relu
I0601 17:39:24.330292  8117 net.cpp:157] Top shape: 32 128 3 3 (36864)
I0601 17:39:24.330296  8117 net.cpp:165] Memory required for data: 7528808608
I0601 17:39:24.330301  8117 layer_factory.hpp:77] Creating layer conv9_2
I0601 17:39:24.330310  8117 net.cpp:100] Creating Layer conv9_2
I0601 17:39:24.330314  8117 net.cpp:434] conv9_2 <- conv9_1
I0601 17:39:24.330322  8117 net.cpp:408] conv9_2 -> conv9_2
I0601 17:39:24.337239  8117 net.cpp:150] Setting up conv9_2
I0601 17:39:24.337258  8117 net.cpp:157] Top shape: 32 256 1 1 (8192)
I0601 17:39:24.337261  8117 net.cpp:165] Memory required for data: 7528841376
I0601 17:39:24.337271  8117 layer_factory.hpp:77] Creating layer conv9_2_relu
I0601 17:39:24.337280  8117 net.cpp:100] Creating Layer conv9_2_relu
I0601 17:39:24.337285  8117 net.cpp:434] conv9_2_relu <- conv9_2
I0601 17:39:24.337292  8117 net.cpp:395] conv9_2_relu -> conv9_2 (in-place)
I0601 17:39:24.339414  8117 net.cpp:150] Setting up conv9_2_relu
I0601 17:39:24.339423  8117 net.cpp:157] Top shape: 32 256 1 1 (8192)
I0601 17:39:24.339427  8117 net.cpp:165] Memory required for data: 7528874144
I0601 17:39:24.339432  8117 layer_factory.hpp:77] Creating layer conv9_2_conv9_2_relu_0_split
I0601 17:39:24.339438  8117 net.cpp:100] Creating Layer conv9_2_conv9_2_relu_0_split
I0601 17:39:24.339443  8117 net.cpp:434] conv9_2_conv9_2_relu_0_split <- conv9_2
I0601 17:39:24.339452  8117 net.cpp:408] conv9_2_conv9_2_relu_0_split -> conv9_2_conv9_2_relu_0_split_0
I0601 17:39:24.339460  8117 net.cpp:408] conv9_2_conv9_2_relu_0_split -> conv9_2_conv9_2_relu_0_split_1
I0601 17:39:24.339471  8117 net.cpp:408] conv9_2_conv9_2_relu_0_split -> conv9_2_conv9_2_relu_0_split_2
I0601 17:39:24.339535  8117 net.cpp:150] Setting up conv9_2_conv9_2_relu_0_split
I0601 17:39:24.339543  8117 net.cpp:157] Top shape: 32 256 1 1 (8192)
I0601 17:39:24.339548  8117 net.cpp:157] Top shape: 32 256 1 1 (8192)
I0601 17:39:24.339552  8117 net.cpp:157] Top shape: 32 256 1 1 (8192)
I0601 17:39:24.339556  8117 net.cpp:165] Memory required for data: 7528972448
I0601 17:39:24.339561  8117 layer_factory.hpp:77] Creating layer conv4_3_norm
I0601 17:39:24.339570  8117 net.cpp:100] Creating Layer conv4_3_norm
I0601 17:39:24.339574  8117 net.cpp:434] conv4_3_norm <- conv4_3_relu4_3_0_split_1
I0601 17:39:24.339581  8117 net.cpp:408] conv4_3_norm -> conv4_3_norm
I0601 17:39:24.339727  8117 net.cpp:150] Setting up conv4_3_norm
I0601 17:39:24.339735  8117 net.cpp:157] Top shape: 32 512 38 38 (23658496)
I0601 17:39:24.339740  8117 net.cpp:165] Memory required for data: 7623606432
I0601 17:39:24.339745  8117 layer_factory.hpp:77] Creating layer conv4_3_norm_conv4_3_norm_0_split
I0601 17:39:24.339752  8117 net.cpp:100] Creating Layer conv4_3_norm_conv4_3_norm_0_split
I0601 17:39:24.339756  8117 net.cpp:434] conv4_3_norm_conv4_3_norm_0_split <- conv4_3_norm
I0601 17:39:24.339776  8117 net.cpp:408] conv4_3_norm_conv4_3_norm_0_split -> conv4_3_norm_conv4_3_norm_0_split_0
I0601 17:39:24.339787  8117 net.cpp:408] conv4_3_norm_conv4_3_norm_0_split -> conv4_3_norm_conv4_3_norm_0_split_1
I0601 17:39:24.339795  8117 net.cpp:408] conv4_3_norm_conv4_3_norm_0_split -> conv4_3_norm_conv4_3_norm_0_split_2
I0601 17:39:24.339843  8117 net.cpp:150] Setting up conv4_3_norm_conv4_3_norm_0_split
I0601 17:39:24.339849  8117 net.cpp:157] Top shape: 32 512 38 38 (23658496)
I0601 17:39:24.339854  8117 net.cpp:157] Top shape: 32 512 38 38 (23658496)
I0601 17:39:24.339859  8117 net.cpp:157] Top shape: 32 512 38 38 (23658496)
I0601 17:39:24.339864  8117 net.cpp:165] Memory required for data: 7907508384
I0601 17:39:24.339867  8117 layer_factory.hpp:77] Creating layer conv4_3_norm_mbox_loc
I0601 17:39:24.339877  8117 net.cpp:100] Creating Layer conv4_3_norm_mbox_loc
I0601 17:39:24.339884  8117 net.cpp:434] conv4_3_norm_mbox_loc <- conv4_3_norm_conv4_3_norm_0_split_0
I0601 17:39:24.339890  8117 net.cpp:408] conv4_3_norm_mbox_loc -> conv4_3_norm_mbox_loc
I0601 17:39:24.346652  8117 net.cpp:150] Setting up conv4_3_norm_mbox_loc
I0601 17:39:24.346664  8117 net.cpp:157] Top shape: 32 16 38 38 (739328)
I0601 17:39:24.346669  8117 net.cpp:165] Memory required for data: 7910465696
I0601 17:39:24.346678  8117 layer_factory.hpp:77] Creating layer conv4_3_norm_mbox_loc_perm
I0601 17:39:24.346685  8117 net.cpp:100] Creating Layer conv4_3_norm_mbox_loc_perm
I0601 17:39:24.346691  8117 net.cpp:434] conv4_3_norm_mbox_loc_perm <- conv4_3_norm_mbox_loc
I0601 17:39:24.346698  8117 net.cpp:408] conv4_3_norm_mbox_loc_perm -> conv4_3_norm_mbox_loc_perm
I0601 17:39:24.346793  8117 net.cpp:150] Setting up conv4_3_norm_mbox_loc_perm
I0601 17:39:24.346801  8117 net.cpp:157] Top shape: 32 38 38 16 (739328)
I0601 17:39:24.346806  8117 net.cpp:165] Memory required for data: 7913423008
I0601 17:39:24.346809  8117 layer_factory.hpp:77] Creating layer conv4_3_norm_mbox_loc_flat
I0601 17:39:24.346817  8117 net.cpp:100] Creating Layer conv4_3_norm_mbox_loc_flat
I0601 17:39:24.346822  8117 net.cpp:434] conv4_3_norm_mbox_loc_flat <- conv4_3_norm_mbox_loc_perm
I0601 17:39:24.346827  8117 net.cpp:408] conv4_3_norm_mbox_loc_flat -> conv4_3_norm_mbox_loc_flat
I0601 17:39:24.346865  8117 net.cpp:150] Setting up conv4_3_norm_mbox_loc_flat
I0601 17:39:24.346873  8117 net.cpp:157] Top shape: 32 23104 (739328)
I0601 17:39:24.346876  8117 net.cpp:165] Memory required for data: 7916380320
I0601 17:39:24.346880  8117 layer_factory.hpp:77] Creating layer conv4_3_norm_mbox_conf
I0601 17:39:24.346897  8117 net.cpp:100] Creating Layer conv4_3_norm_mbox_conf
I0601 17:39:24.346916  8117 net.cpp:434] conv4_3_norm_mbox_conf <- conv4_3_norm_conv4_3_norm_0_split_1
I0601 17:39:24.346933  8117 net.cpp:408] conv4_3_norm_mbox_conf -> conv4_3_norm_mbox_conf
I0601 17:39:24.354775  8117 net.cpp:150] Setting up conv4_3_norm_mbox_conf
I0601 17:39:24.354795  8117 net.cpp:157] Top shape: 32 16 38 38 (739328)
I0601 17:39:24.354799  8117 net.cpp:165] Memory required for data: 7919337632
I0601 17:39:24.354810  8117 layer_factory.hpp:77] Creating layer conv4_3_norm_mbox_conf_perm
I0601 17:39:24.354820  8117 net.cpp:100] Creating Layer conv4_3_norm_mbox_conf_perm
I0601 17:39:24.354826  8117 net.cpp:434] conv4_3_norm_mbox_conf_perm <- conv4_3_norm_mbox_conf
I0601 17:39:24.354833  8117 net.cpp:408] conv4_3_norm_mbox_conf_perm -> conv4_3_norm_mbox_conf_perm
I0601 17:39:24.354956  8117 net.cpp:150] Setting up conv4_3_norm_mbox_conf_perm
I0601 17:39:24.354969  8117 net.cpp:157] Top shape: 32 38 38 16 (739328)
I0601 17:39:24.354974  8117 net.cpp:165] Memory required for data: 7922294944
I0601 17:39:24.354977  8117 layer_factory.hpp:77] Creating layer conv4_3_norm_mbox_conf_flat
I0601 17:39:24.354984  8117 net.cpp:100] Creating Layer conv4_3_norm_mbox_conf_flat
I0601 17:39:24.354988  8117 net.cpp:434] conv4_3_norm_mbox_conf_flat <- conv4_3_norm_mbox_conf_perm
I0601 17:39:24.355000  8117 net.cpp:408] conv4_3_norm_mbox_conf_flat -> conv4_3_norm_mbox_conf_flat
I0601 17:39:24.355170  8117 net.cpp:150] Setting up conv4_3_norm_mbox_conf_flat
I0601 17:39:24.355479  8117 net.cpp:157] Top shape: 32 23104 (739328)
I0601 17:39:24.355497  8117 net.cpp:165] Memory required for data: 7925252256
I0601 17:39:24.355532  8117 layer_factory.hpp:77] Creating layer conv4_3_norm_mbox_priorbox
I0601 17:39:24.355552  8117 net.cpp:100] Creating Layer conv4_3_norm_mbox_priorbox
I0601 17:39:24.355756  8117 net.cpp:434] conv4_3_norm_mbox_priorbox <- conv4_3_norm_conv4_3_norm_0_split_2
I0601 17:39:24.355767  8117 net.cpp:434] conv4_3_norm_mbox_priorbox <- data_data_0_split_1
I0601 17:39:24.355777  8117 net.cpp:408] conv4_3_norm_mbox_priorbox -> conv4_3_norm_mbox_priorbox
I0601 17:39:24.355820  8117 net.cpp:150] Setting up conv4_3_norm_mbox_priorbox
I0601 17:39:24.355829  8117 net.cpp:157] Top shape: 1 2 23104 (46208)
I0601 17:39:24.355831  8117 net.cpp:165] Memory required for data: 7925437088
I0601 17:39:24.355836  8117 layer_factory.hpp:77] Creating layer fc7_mbox_loc
I0601 17:39:24.355849  8117 net.cpp:100] Creating Layer fc7_mbox_loc
I0601 17:39:24.355854  8117 net.cpp:434] fc7_mbox_loc <- fc7_relu7_0_split_1
I0601 17:39:24.355861  8117 net.cpp:408] fc7_mbox_loc -> fc7_mbox_loc
I0601 17:39:24.363855  8117 net.cpp:150] Setting up fc7_mbox_loc
I0601 17:39:24.363874  8117 net.cpp:157] Top shape: 32 24 19 19 (277248)
I0601 17:39:24.363878  8117 net.cpp:165] Memory required for data: 7926546080
I0601 17:39:24.363888  8117 layer_factory.hpp:77] Creating layer fc7_mbox_loc_perm
I0601 17:39:24.363898  8117 net.cpp:100] Creating Layer fc7_mbox_loc_perm
I0601 17:39:24.363904  8117 net.cpp:434] fc7_mbox_loc_perm <- fc7_mbox_loc
I0601 17:39:24.363911  8117 net.cpp:408] fc7_mbox_loc_perm -> fc7_mbox_loc_perm
I0601 17:39:24.364023  8117 net.cpp:150] Setting up fc7_mbox_loc_perm
I0601 17:39:24.364032  8117 net.cpp:157] Top shape: 32 19 19 24 (277248)
I0601 17:39:24.364037  8117 net.cpp:165] Memory required for data: 7927655072
I0601 17:39:24.364040  8117 layer_factory.hpp:77] Creating layer fc7_mbox_loc_flat
I0601 17:39:24.364048  8117 net.cpp:100] Creating Layer fc7_mbox_loc_flat
I0601 17:39:24.364053  8117 net.cpp:434] fc7_mbox_loc_flat <- fc7_mbox_loc_perm
I0601 17:39:24.364058  8117 net.cpp:408] fc7_mbox_loc_flat -> fc7_mbox_loc_flat
I0601 17:39:24.364085  8117 net.cpp:150] Setting up fc7_mbox_loc_flat
I0601 17:39:24.364094  8117 net.cpp:157] Top shape: 32 8664 (277248)
I0601 17:39:24.364099  8117 net.cpp:165] Memory required for data: 7928764064
I0601 17:39:24.364104  8117 layer_factory.hpp:77] Creating layer fc7_mbox_conf
I0601 17:39:24.364114  8117 net.cpp:100] Creating Layer fc7_mbox_conf
I0601 17:39:24.364118  8117 net.cpp:434] fc7_mbox_conf <- fc7_relu7_0_split_2
I0601 17:39:24.364126  8117 net.cpp:408] fc7_mbox_conf -> fc7_mbox_conf
I0601 17:39:24.368247  8117 net.cpp:150] Setting up fc7_mbox_conf
I0601 17:39:24.368259  8117 net.cpp:157] Top shape: 32 24 19 19 (277248)
I0601 17:39:24.368263  8117 net.cpp:165] Memory required for data: 7929873056
I0601 17:39:24.368271  8117 layer_factory.hpp:77] Creating layer fc7_mbox_conf_perm
I0601 17:39:24.368278  8117 net.cpp:100] Creating Layer fc7_mbox_conf_perm
I0601 17:39:24.368283  8117 net.cpp:434] fc7_mbox_conf_perm <- fc7_mbox_conf
I0601 17:39:24.368289  8117 net.cpp:408] fc7_mbox_conf_perm -> fc7_mbox_conf_perm
I0601 17:39:24.368389  8117 net.cpp:150] Setting up fc7_mbox_conf_perm
I0601 17:39:24.368397  8117 net.cpp:157] Top shape: 32 19 19 24 (277248)
I0601 17:39:24.368402  8117 net.cpp:165] Memory required for data: 7930982048
I0601 17:39:24.368404  8117 layer_factory.hpp:77] Creating layer fc7_mbox_conf_flat
I0601 17:39:24.368412  8117 net.cpp:100] Creating Layer fc7_mbox_conf_flat
I0601 17:39:24.368417  8117 net.cpp:434] fc7_mbox_conf_flat <- fc7_mbox_conf_perm
I0601 17:39:24.368422  8117 net.cpp:408] fc7_mbox_conf_flat -> fc7_mbox_conf_flat
I0601 17:39:24.368448  8117 net.cpp:150] Setting up fc7_mbox_conf_flat
I0601 17:39:24.368469  8117 net.cpp:157] Top shape: 32 8664 (277248)
I0601 17:39:24.368490  8117 net.cpp:165] Memory required for data: 7932091040
I0601 17:39:24.368505  8117 layer_factory.hpp:77] Creating layer fc7_mbox_priorbox
I0601 17:39:24.368512  8117 net.cpp:100] Creating Layer fc7_mbox_priorbox
I0601 17:39:24.368517  8117 net.cpp:434] fc7_mbox_priorbox <- fc7_relu7_0_split_3
I0601 17:39:24.368523  8117 net.cpp:434] fc7_mbox_priorbox <- data_data_0_split_2
I0601 17:39:24.368530  8117 net.cpp:408] fc7_mbox_priorbox -> fc7_mbox_priorbox
I0601 17:39:24.368564  8117 net.cpp:150] Setting up fc7_mbox_priorbox
I0601 17:39:24.368572  8117 net.cpp:157] Top shape: 1 2 8664 (17328)
I0601 17:39:24.368577  8117 net.cpp:165] Memory required for data: 7932160352
I0601 17:39:24.368580  8117 layer_factory.hpp:77] Creating layer conv6_2_mbox_loc
I0601 17:39:24.368589  8117 net.cpp:100] Creating Layer conv6_2_mbox_loc
I0601 17:39:24.368595  8117 net.cpp:434] conv6_2_mbox_loc <- conv6_2_conv6_2_relu_0_split_1
I0601 17:39:24.368602  8117 net.cpp:408] conv6_2_mbox_loc -> conv6_2_mbox_loc
I0601 17:39:24.375046  8117 net.cpp:150] Setting up conv6_2_mbox_loc
I0601 17:39:24.375057  8117 net.cpp:157] Top shape: 32 24 10 10 (76800)
I0601 17:39:24.375061  8117 net.cpp:165] Memory required for data: 7932467552
I0601 17:39:24.375069  8117 layer_factory.hpp:77] Creating layer conv6_2_mbox_loc_perm
I0601 17:39:24.375077  8117 net.cpp:100] Creating Layer conv6_2_mbox_loc_perm
I0601 17:39:24.375083  8117 net.cpp:434] conv6_2_mbox_loc_perm <- conv6_2_mbox_loc
I0601 17:39:24.375090  8117 net.cpp:408] conv6_2_mbox_loc_perm -> conv6_2_mbox_loc_perm
I0601 17:39:24.375186  8117 net.cpp:150] Setting up conv6_2_mbox_loc_perm
I0601 17:39:24.375195  8117 net.cpp:157] Top shape: 32 10 10 24 (76800)
I0601 17:39:24.375198  8117 net.cpp:165] Memory required for data: 7932774752
I0601 17:39:24.375203  8117 layer_factory.hpp:77] Creating layer conv6_2_mbox_loc_flat
I0601 17:39:24.375210  8117 net.cpp:100] Creating Layer conv6_2_mbox_loc_flat
I0601 17:39:24.375213  8117 net.cpp:434] conv6_2_mbox_loc_flat <- conv6_2_mbox_loc_perm
I0601 17:39:24.375219  8117 net.cpp:408] conv6_2_mbox_loc_flat -> conv6_2_mbox_loc_flat
I0601 17:39:24.375244  8117 net.cpp:150] Setting up conv6_2_mbox_loc_flat
I0601 17:39:24.375254  8117 net.cpp:157] Top shape: 32 2400 (76800)
I0601 17:39:24.375257  8117 net.cpp:165] Memory required for data: 7933081952
I0601 17:39:24.375262  8117 layer_factory.hpp:77] Creating layer conv6_2_mbox_conf
I0601 17:39:24.375272  8117 net.cpp:100] Creating Layer conv6_2_mbox_conf
I0601 17:39:24.375277  8117 net.cpp:434] conv6_2_mbox_conf <- conv6_2_conv6_2_relu_0_split_2
I0601 17:39:24.375283  8117 net.cpp:408] conv6_2_mbox_conf -> conv6_2_mbox_conf
I0601 17:39:24.385053  8117 net.cpp:150] Setting up conv6_2_mbox_conf
I0601 17:39:24.385071  8117 net.cpp:157] Top shape: 32 24 10 10 (76800)
I0601 17:39:24.385076  8117 net.cpp:165] Memory required for data: 7933389152
I0601 17:39:24.385084  8117 layer_factory.hpp:77] Creating layer conv6_2_mbox_conf_perm
I0601 17:39:24.385092  8117 net.cpp:100] Creating Layer conv6_2_mbox_conf_perm
I0601 17:39:24.385097  8117 net.cpp:434] conv6_2_mbox_conf_perm <- conv6_2_mbox_conf
I0601 17:39:24.385105  8117 net.cpp:408] conv6_2_mbox_conf_perm -> conv6_2_mbox_conf_perm
I0601 17:39:24.385224  8117 net.cpp:150] Setting up conv6_2_mbox_conf_perm
I0601 17:39:24.385233  8117 net.cpp:157] Top shape: 32 10 10 24 (76800)
I0601 17:39:24.385237  8117 net.cpp:165] Memory required for data: 7933696352
I0601 17:39:24.385242  8117 layer_factory.hpp:77] Creating layer conv6_2_mbox_conf_flat
I0601 17:39:24.385248  8117 net.cpp:100] Creating Layer conv6_2_mbox_conf_flat
I0601 17:39:24.385253  8117 net.cpp:434] conv6_2_mbox_conf_flat <- conv6_2_mbox_conf_perm
I0601 17:39:24.385259  8117 net.cpp:408] conv6_2_mbox_conf_flat -> conv6_2_mbox_conf_flat
I0601 17:39:24.385285  8117 net.cpp:150] Setting up conv6_2_mbox_conf_flat
I0601 17:39:24.385293  8117 net.cpp:157] Top shape: 32 2400 (76800)
I0601 17:39:24.385296  8117 net.cpp:165] Memory required for data: 7934003552
I0601 17:39:24.385299  8117 layer_factory.hpp:77] Creating layer conv6_2_mbox_priorbox
I0601 17:39:24.385321  8117 net.cpp:100] Creating Layer conv6_2_mbox_priorbox
I0601 17:39:24.385326  8117 net.cpp:434] conv6_2_mbox_priorbox <- conv6_2_conv6_2_relu_0_split_3
I0601 17:39:24.385332  8117 net.cpp:434] conv6_2_mbox_priorbox <- data_data_0_split_3
I0601 17:39:24.385339  8117 net.cpp:408] conv6_2_mbox_priorbox -> conv6_2_mbox_priorbox
I0601 17:39:24.385370  8117 net.cpp:150] Setting up conv6_2_mbox_priorbox
I0601 17:39:24.385376  8117 net.cpp:157] Top shape: 1 2 2400 (4800)
I0601 17:39:24.385380  8117 net.cpp:165] Memory required for data: 7934022752
I0601 17:39:24.385385  8117 layer_factory.hpp:77] Creating layer conv7_2_mbox_loc
I0601 17:39:24.385395  8117 net.cpp:100] Creating Layer conv7_2_mbox_loc
I0601 17:39:24.385401  8117 net.cpp:434] conv7_2_mbox_loc <- conv7_2_conv7_2_relu_0_split_1
I0601 17:39:24.385407  8117 net.cpp:408] conv7_2_mbox_loc -> conv7_2_mbox_loc
I0601 17:39:24.391729  8117 net.cpp:150] Setting up conv7_2_mbox_loc
I0601 17:39:24.391747  8117 net.cpp:157] Top shape: 32 24 5 5 (19200)
I0601 17:39:24.391752  8117 net.cpp:165] Memory required for data: 7934099552
I0601 17:39:24.391760  8117 layer_factory.hpp:77] Creating layer conv7_2_mbox_loc_perm
I0601 17:39:24.391769  8117 net.cpp:100] Creating Layer conv7_2_mbox_loc_perm
I0601 17:39:24.391775  8117 net.cpp:434] conv7_2_mbox_loc_perm <- conv7_2_mbox_loc
I0601 17:39:24.391782  8117 net.cpp:408] conv7_2_mbox_loc_perm -> conv7_2_mbox_loc_perm
I0601 17:39:24.391877  8117 net.cpp:150] Setting up conv7_2_mbox_loc_perm
I0601 17:39:24.391885  8117 net.cpp:157] Top shape: 32 5 5 24 (19200)
I0601 17:39:24.391891  8117 net.cpp:165] Memory required for data: 7934176352
I0601 17:39:24.391893  8117 layer_factory.hpp:77] Creating layer conv7_2_mbox_loc_flat
I0601 17:39:24.391901  8117 net.cpp:100] Creating Layer conv7_2_mbox_loc_flat
I0601 17:39:24.391904  8117 net.cpp:434] conv7_2_mbox_loc_flat <- conv7_2_mbox_loc_perm
I0601 17:39:24.391911  8117 net.cpp:408] conv7_2_mbox_loc_flat -> conv7_2_mbox_loc_flat
I0601 17:39:24.391937  8117 net.cpp:150] Setting up conv7_2_mbox_loc_flat
I0601 17:39:24.391957  8117 net.cpp:157] Top shape: 32 600 (19200)
I0601 17:39:24.391971  8117 net.cpp:165] Memory required for data: 7934253152
I0601 17:39:24.391985  8117 layer_factory.hpp:77] Creating layer conv7_2_mbox_conf
I0601 17:39:24.392005  8117 net.cpp:100] Creating Layer conv7_2_mbox_conf
I0601 17:39:24.392011  8117 net.cpp:434] conv7_2_mbox_conf <- conv7_2_conv7_2_relu_0_split_2
I0601 17:39:24.392024  8117 net.cpp:408] conv7_2_mbox_conf -> conv7_2_mbox_conf
I0601 17:39:24.398739  8117 net.cpp:150] Setting up conv7_2_mbox_conf
I0601 17:39:24.398754  8117 net.cpp:157] Top shape: 32 24 5 5 (19200)
I0601 17:39:24.398758  8117 net.cpp:165] Memory required for data: 7934329952
I0601 17:39:24.398767  8117 layer_factory.hpp:77] Creating layer conv7_2_mbox_conf_perm
I0601 17:39:24.398777  8117 net.cpp:100] Creating Layer conv7_2_mbox_conf_perm
I0601 17:39:24.398782  8117 net.cpp:434] conv7_2_mbox_conf_perm <- conv7_2_mbox_conf
I0601 17:39:24.398789  8117 net.cpp:408] conv7_2_mbox_conf_perm -> conv7_2_mbox_conf_perm
I0601 17:39:24.398890  8117 net.cpp:150] Setting up conv7_2_mbox_conf_perm
I0601 17:39:24.398897  8117 net.cpp:157] Top shape: 32 5 5 24 (19200)
I0601 17:39:24.398901  8117 net.cpp:165] Memory required for data: 7934406752
I0601 17:39:24.398905  8117 layer_factory.hpp:77] Creating layer conv7_2_mbox_conf_flat
I0601 17:39:24.398912  8117 net.cpp:100] Creating Layer conv7_2_mbox_conf_flat
I0601 17:39:24.398917  8117 net.cpp:434] conv7_2_mbox_conf_flat <- conv7_2_mbox_conf_perm
I0601 17:39:24.398923  8117 net.cpp:408] conv7_2_mbox_conf_flat -> conv7_2_mbox_conf_flat
I0601 17:39:24.398949  8117 net.cpp:150] Setting up conv7_2_mbox_conf_flat
I0601 17:39:24.398957  8117 net.cpp:157] Top shape: 32 600 (19200)
I0601 17:39:24.398962  8117 net.cpp:165] Memory required for data: 7934483552
I0601 17:39:24.398967  8117 layer_factory.hpp:77] Creating layer conv7_2_mbox_priorbox
I0601 17:39:24.398973  8117 net.cpp:100] Creating Layer conv7_2_mbox_priorbox
I0601 17:39:24.398978  8117 net.cpp:434] conv7_2_mbox_priorbox <- conv7_2_conv7_2_relu_0_split_3
I0601 17:39:24.398994  8117 net.cpp:434] conv7_2_mbox_priorbox <- data_data_0_split_4
I0601 17:39:24.399003  8117 net.cpp:408] conv7_2_mbox_priorbox -> conv7_2_mbox_priorbox
I0601 17:39:24.399034  8117 net.cpp:150] Setting up conv7_2_mbox_priorbox
I0601 17:39:24.399041  8117 net.cpp:157] Top shape: 1 2 600 (1200)
I0601 17:39:24.399045  8117 net.cpp:165] Memory required for data: 7934488352
I0601 17:39:24.399049  8117 layer_factory.hpp:77] Creating layer conv8_2_mbox_loc
I0601 17:39:24.399060  8117 net.cpp:100] Creating Layer conv8_2_mbox_loc
I0601 17:39:24.399063  8117 net.cpp:434] conv8_2_mbox_loc <- conv8_2_conv8_2_relu_0_split_1
I0601 17:39:24.399071  8117 net.cpp:408] conv8_2_mbox_loc -> conv8_2_mbox_loc
I0601 17:39:24.405545  8117 net.cpp:150] Setting up conv8_2_mbox_loc
I0601 17:39:24.405558  8117 net.cpp:157] Top shape: 32 16 3 3 (4608)
I0601 17:39:24.405562  8117 net.cpp:165] Memory required for data: 7934506784
I0601 17:39:24.405577  8117 layer_factory.hpp:77] Creating layer conv8_2_mbox_loc_perm
I0601 17:39:24.405586  8117 net.cpp:100] Creating Layer conv8_2_mbox_loc_perm
I0601 17:39:24.405591  8117 net.cpp:434] conv8_2_mbox_loc_perm <- conv8_2_mbox_loc
I0601 17:39:24.405598  8117 net.cpp:408] conv8_2_mbox_loc_perm -> conv8_2_mbox_loc_perm
I0601 17:39:24.405692  8117 net.cpp:150] Setting up conv8_2_mbox_loc_perm
I0601 17:39:24.405700  8117 net.cpp:157] Top shape: 32 3 3 16 (4608)
I0601 17:39:24.405704  8117 net.cpp:165] Memory required for data: 7934525216
I0601 17:39:24.405709  8117 layer_factory.hpp:77] Creating layer conv8_2_mbox_loc_flat
I0601 17:39:24.405715  8117 net.cpp:100] Creating Layer conv8_2_mbox_loc_flat
I0601 17:39:24.405719  8117 net.cpp:434] conv8_2_mbox_loc_flat <- conv8_2_mbox_loc_perm
I0601 17:39:24.405726  8117 net.cpp:408] conv8_2_mbox_loc_flat -> conv8_2_mbox_loc_flat
I0601 17:39:24.405751  8117 net.cpp:150] Setting up conv8_2_mbox_loc_flat
I0601 17:39:24.405761  8117 net.cpp:157] Top shape: 32 144 (4608)
I0601 17:39:24.405764  8117 net.cpp:165] Memory required for data: 7934543648
I0601 17:39:24.405768  8117 layer_factory.hpp:77] Creating layer conv8_2_mbox_conf
I0601 17:39:24.405777  8117 net.cpp:100] Creating Layer conv8_2_mbox_conf
I0601 17:39:24.405783  8117 net.cpp:434] conv8_2_mbox_conf <- conv8_2_conv8_2_relu_0_split_2
I0601 17:39:24.405791  8117 net.cpp:408] conv8_2_mbox_conf -> conv8_2_mbox_conf
I0601 17:39:24.412369  8117 net.cpp:150] Setting up conv8_2_mbox_conf
I0601 17:39:24.412384  8117 net.cpp:157] Top shape: 32 16 3 3 (4608)
I0601 17:39:24.412389  8117 net.cpp:165] Memory required for data: 7934562080
I0601 17:39:24.412397  8117 layer_factory.hpp:77] Creating layer conv8_2_mbox_conf_perm
I0601 17:39:24.412405  8117 net.cpp:100] Creating Layer conv8_2_mbox_conf_perm
I0601 17:39:24.412411  8117 net.cpp:434] conv8_2_mbox_conf_perm <- conv8_2_mbox_conf
I0601 17:39:24.412420  8117 net.cpp:408] conv8_2_mbox_conf_perm -> conv8_2_mbox_conf_perm
I0601 17:39:24.412523  8117 net.cpp:150] Setting up conv8_2_mbox_conf_perm
I0601 17:39:24.412531  8117 net.cpp:157] Top shape: 32 3 3 16 (4608)
I0601 17:39:24.412535  8117 net.cpp:165] Memory required for data: 7934580512
I0601 17:39:24.412539  8117 layer_factory.hpp:77] Creating layer conv8_2_mbox_conf_flat
I0601 17:39:24.412545  8117 net.cpp:100] Creating Layer conv8_2_mbox_conf_flat
I0601 17:39:24.412550  8117 net.cpp:434] conv8_2_mbox_conf_flat <- conv8_2_mbox_conf_perm
I0601 17:39:24.412556  8117 net.cpp:408] conv8_2_mbox_conf_flat -> conv8_2_mbox_conf_flat
I0601 17:39:24.412585  8117 net.cpp:150] Setting up conv8_2_mbox_conf_flat
I0601 17:39:24.412606  8117 net.cpp:157] Top shape: 32 144 (4608)
I0601 17:39:24.412619  8117 net.cpp:165] Memory required for data: 7934598944
I0601 17:39:24.412632  8117 layer_factory.hpp:77] Creating layer conv8_2_mbox_priorbox
I0601 17:39:24.412649  8117 net.cpp:100] Creating Layer conv8_2_mbox_priorbox
I0601 17:39:24.412663  8117 net.cpp:434] conv8_2_mbox_priorbox <- conv8_2_conv8_2_relu_0_split_3
I0601 17:39:24.412686  8117 net.cpp:434] conv8_2_mbox_priorbox <- data_data_0_split_5
I0601 17:39:24.412703  8117 net.cpp:408] conv8_2_mbox_priorbox -> conv8_2_mbox_priorbox
I0601 17:39:24.412741  8117 net.cpp:150] Setting up conv8_2_mbox_priorbox
I0601 17:39:24.412748  8117 net.cpp:157] Top shape: 1 2 144 (288)
I0601 17:39:24.412751  8117 net.cpp:165] Memory required for data: 7934600096
I0601 17:39:24.412755  8117 layer_factory.hpp:77] Creating layer conv9_2_mbox_loc
I0601 17:39:24.412766  8117 net.cpp:100] Creating Layer conv9_2_mbox_loc
I0601 17:39:24.412771  8117 net.cpp:434] conv9_2_mbox_loc <- conv9_2_conv9_2_relu_0_split_0
I0601 17:39:24.412778  8117 net.cpp:408] conv9_2_mbox_loc -> conv9_2_mbox_loc
I0601 17:39:24.419291  8117 net.cpp:150] Setting up conv9_2_mbox_loc
I0601 17:39:24.419308  8117 net.cpp:157] Top shape: 32 16 1 1 (512)
I0601 17:39:24.419312  8117 net.cpp:165] Memory required for data: 7934602144
I0601 17:39:24.419322  8117 layer_factory.hpp:77] Creating layer conv9_2_mbox_loc_perm
I0601 17:39:24.419330  8117 net.cpp:100] Creating Layer conv9_2_mbox_loc_perm
I0601 17:39:24.419337  8117 net.cpp:434] conv9_2_mbox_loc_perm <- conv9_2_mbox_loc
I0601 17:39:24.419344  8117 net.cpp:408] conv9_2_mbox_loc_perm -> conv9_2_mbox_loc_perm
I0601 17:39:24.419469  8117 net.cpp:150] Setting up conv9_2_mbox_loc_perm
I0601 17:39:24.419477  8117 net.cpp:157] Top shape: 32 1 1 16 (512)
I0601 17:39:24.419481  8117 net.cpp:165] Memory required for data: 7934604192
I0601 17:39:24.419486  8117 layer_factory.hpp:77] Creating layer conv9_2_mbox_loc_flat
I0601 17:39:24.419492  8117 net.cpp:100] Creating Layer conv9_2_mbox_loc_flat
I0601 17:39:24.419497  8117 net.cpp:434] conv9_2_mbox_loc_flat <- conv9_2_mbox_loc_perm
I0601 17:39:24.419503  8117 net.cpp:408] conv9_2_mbox_loc_flat -> conv9_2_mbox_loc_flat
I0601 17:39:24.419528  8117 net.cpp:150] Setting up conv9_2_mbox_loc_flat
I0601 17:39:24.419536  8117 net.cpp:157] Top shape: 32 16 (512)
I0601 17:39:24.419539  8117 net.cpp:165] Memory required for data: 7934606240
I0601 17:39:24.419544  8117 layer_factory.hpp:77] Creating layer conv9_2_mbox_conf
I0601 17:39:24.419554  8117 net.cpp:100] Creating Layer conv9_2_mbox_conf
I0601 17:39:24.419560  8117 net.cpp:434] conv9_2_mbox_conf <- conv9_2_conv9_2_relu_0_split_1
I0601 17:39:24.419567  8117 net.cpp:408] conv9_2_mbox_conf -> conv9_2_mbox_conf
I0601 17:39:24.427827  8117 net.cpp:150] Setting up conv9_2_mbox_conf
I0601 17:39:24.427845  8117 net.cpp:157] Top shape: 32 16 1 1 (512)
I0601 17:39:24.427848  8117 net.cpp:165] Memory required for data: 7934608288
I0601 17:39:24.427858  8117 layer_factory.hpp:77] Creating layer conv9_2_mbox_conf_perm
I0601 17:39:24.427867  8117 net.cpp:100] Creating Layer conv9_2_mbox_conf_perm
I0601 17:39:24.427873  8117 net.cpp:434] conv9_2_mbox_conf_perm <- conv9_2_mbox_conf
I0601 17:39:24.427881  8117 net.cpp:408] conv9_2_mbox_conf_perm -> conv9_2_mbox_conf_perm
I0601 17:39:24.427983  8117 net.cpp:150] Setting up conv9_2_mbox_conf_perm
I0601 17:39:24.427990  8117 net.cpp:157] Top shape: 32 1 1 16 (512)
I0601 17:39:24.427994  8117 net.cpp:165] Memory required for data: 7934610336
I0601 17:39:24.427997  8117 layer_factory.hpp:77] Creating layer conv9_2_mbox_conf_flat
I0601 17:39:24.428004  8117 net.cpp:100] Creating Layer conv9_2_mbox_conf_flat
I0601 17:39:24.428010  8117 net.cpp:434] conv9_2_mbox_conf_flat <- conv9_2_mbox_conf_perm
I0601 17:39:24.428026  8117 net.cpp:408] conv9_2_mbox_conf_flat -> conv9_2_mbox_conf_flat
I0601 17:39:24.428055  8117 net.cpp:150] Setting up conv9_2_mbox_conf_flat
I0601 17:39:24.428062  8117 net.cpp:157] Top shape: 32 16 (512)
I0601 17:39:24.428067  8117 net.cpp:165] Memory required for data: 7934612384
I0601 17:39:24.428071  8117 layer_factory.hpp:77] Creating layer conv9_2_mbox_priorbox
I0601 17:39:24.428077  8117 net.cpp:100] Creating Layer conv9_2_mbox_priorbox
I0601 17:39:24.428082  8117 net.cpp:434] conv9_2_mbox_priorbox <- conv9_2_conv9_2_relu_0_split_2
I0601 17:39:24.428088  8117 net.cpp:434] conv9_2_mbox_priorbox <- data_data_0_split_6
I0601 17:39:24.428095  8117 net.cpp:408] conv9_2_mbox_priorbox -> conv9_2_mbox_priorbox
I0601 17:39:24.428143  8117 net.cpp:150] Setting up conv9_2_mbox_priorbox
I0601 17:39:24.428149  8117 net.cpp:157] Top shape: 1 2 16 (32)
I0601 17:39:24.428153  8117 net.cpp:165] Memory required for data: 7934612512
I0601 17:39:24.428156  8117 layer_factory.hpp:77] Creating layer mbox_loc
I0601 17:39:24.428164  8117 net.cpp:100] Creating Layer mbox_loc
I0601 17:39:24.428169  8117 net.cpp:434] mbox_loc <- conv4_3_norm_mbox_loc_flat
I0601 17:39:24.428175  8117 net.cpp:434] mbox_loc <- fc7_mbox_loc_flat
I0601 17:39:24.428181  8117 net.cpp:434] mbox_loc <- conv6_2_mbox_loc_flat
I0601 17:39:24.428186  8117 net.cpp:434] mbox_loc <- conv7_2_mbox_loc_flat
I0601 17:39:24.428191  8117 net.cpp:434] mbox_loc <- conv8_2_mbox_loc_flat
I0601 17:39:24.428196  8117 net.cpp:434] mbox_loc <- conv9_2_mbox_loc_flat
I0601 17:39:24.428203  8117 net.cpp:408] mbox_loc -> mbox_loc
I0601 17:39:24.428233  8117 net.cpp:150] Setting up mbox_loc
I0601 17:39:24.428241  8117 net.cpp:157] Top shape: 32 34928 (1117696)
I0601 17:39:24.428246  8117 net.cpp:165] Memory required for data: 7939083296
I0601 17:39:24.428249  8117 layer_factory.hpp:77] Creating layer mbox_conf
I0601 17:39:24.428256  8117 net.cpp:100] Creating Layer mbox_conf
I0601 17:39:24.428259  8117 net.cpp:434] mbox_conf <- conv4_3_norm_mbox_conf_flat
I0601 17:39:24.428267  8117 net.cpp:434] mbox_conf <- fc7_mbox_conf_flat
I0601 17:39:24.428272  8117 net.cpp:434] mbox_conf <- conv6_2_mbox_conf_flat
I0601 17:39:24.428275  8117 net.cpp:434] mbox_conf <- conv7_2_mbox_conf_flat
I0601 17:39:24.428280  8117 net.cpp:434] mbox_conf <- conv8_2_mbox_conf_flat
I0601 17:39:24.428285  8117 net.cpp:434] mbox_conf <- conv9_2_mbox_conf_flat
I0601 17:39:24.428292  8117 net.cpp:408] mbox_conf -> mbox_conf
I0601 17:39:24.428318  8117 net.cpp:150] Setting up mbox_conf
I0601 17:39:24.428325  8117 net.cpp:157] Top shape: 32 34928 (1117696)
I0601 17:39:24.428330  8117 net.cpp:165] Memory required for data: 7943554080
I0601 17:39:24.428334  8117 layer_factory.hpp:77] Creating layer mbox_priorbox
I0601 17:39:24.428339  8117 net.cpp:100] Creating Layer mbox_priorbox
I0601 17:39:24.428344  8117 net.cpp:434] mbox_priorbox <- conv4_3_norm_mbox_priorbox
I0601 17:39:24.428350  8117 net.cpp:434] mbox_priorbox <- fc7_mbox_priorbox
I0601 17:39:24.428355  8117 net.cpp:434] mbox_priorbox <- conv6_2_mbox_priorbox
I0601 17:39:24.428359  8117 net.cpp:434] mbox_priorbox <- conv7_2_mbox_priorbox
I0601 17:39:24.428364  8117 net.cpp:434] mbox_priorbox <- conv8_2_mbox_priorbox
I0601 17:39:24.428369  8117 net.cpp:434] mbox_priorbox <- conv9_2_mbox_priorbox
I0601 17:39:24.428375  8117 net.cpp:408] mbox_priorbox -> mbox_priorbox
I0601 17:39:24.428401  8117 net.cpp:150] Setting up mbox_priorbox
I0601 17:39:24.428409  8117 net.cpp:157] Top shape: 1 2 34928 (69856)
I0601 17:39:24.428414  8117 net.cpp:165] Memory required for data: 7943833504
I0601 17:39:24.428417  8117 layer_factory.hpp:77] Creating layer mbox_loss
I0601 17:39:24.428427  8117 net.cpp:100] Creating Layer mbox_loss
I0601 17:39:24.428432  8117 net.cpp:434] mbox_loss <- mbox_loc
I0601 17:39:24.428438  8117 net.cpp:434] mbox_loss <- mbox_conf
I0601 17:39:24.428442  8117 net.cpp:434] mbox_loss <- mbox_priorbox
…
  name: "data"
  type: "AnnotatedData"
  top: "data"
  top: "label"
  include {
    phase: TEST
  }
  transform_param {
    mean_value: 104
    mean_value: 117
    mean_value: 123
    resize_param {
      prob: 1
      resize_mode: WARP
      height: 300
      width: 300
      interp_mode: LINEAR
    }
  }
  data_param {
    source: "examples/tbs_300x300_HSIL_10x/tbs_300x300_HSIL_10x_test_lmdb"
    batch_size: 4
    backend: LMDB
  }
  annotated_data_param {
    batch_sampler {
    }
    label_map_file: "data/tbs_300x300_HSIL_10x/labelmap_voc.prototxt"
  }
}
layer {
  name: "conv1_1"
  type: "Convolution"
  bottom: "data"
  top: "conv1_1"
  param {
    lr_mult: 1
    decay_mult: 1
  }
  param {
    lr_mult: 2
    decay_mult: 0
  }
  convolution_param {
    num_output: 64
    pad: 1
    kernel_size: 3
    weight_filler {
      type: "xavier"
    }
    bias_filler {
      type: "constant"
      value: 0
    }
  }
}
layer {
  name: "relu1_1"
  type: "ReLU"
  bottom: "conv1_1"
  top: "conv1_1"
}
layer {
  name: "conv1_2"
  type: "Convolution"
  bottom: "conv1_1"
  top: "conv1_2"
  param {
    lr_mult: 1
    decay_mult: 1
  }
  param {
    lr_mult: 2
    decay_mult: 0
  }
  convolution_param {
    num_output: 64
    pad: 1
    kernel_size: 3
    weight_filler {
      type: "xavier"
    }
    bias_filler {
      type: "constant"
      value: 0
    }
  }
}
layer {
  name: "relu1_2"
  type: "ReLU"
  bottom: "conv1_2"
  top: "conv1_2"
}
layer {
  name: "pool1"
  type: "Pooling"
  bottom: "conv1_2"
  top: "pool1"
  pooling_param {
    pool: MAX
    kernel_size: 2
    stride: 2
  }
}
layer {
  name: "conv2_1"
  type: "Convolution"
  bottom: "pool1"
  top: "conv2_1"
  param {
    lr_mult: 1
    decay_mult: 1
  }
  param {
    lr_mult: 2
    decay_mult: 0
  }
  convolution_param {
    num_output: 128
    pad: 1
    kernel_size: 3
    weight_filler {
      type: "xavier"
    }
    bias_filler {
      type: "constant"
      value: 0
    }
  }
}
layer {
  name: "relu2_1"
  type: "ReLU"
  bottom: "conv2_1"
  top: "conv2_1"
}
layer {
  name: "conv2_2"
  type: "Convolution"
  bottom: "conv2_1"
  top: "conv2_2"
  param {
    lr_mult: 1
    decay_mult: 1
  }
  param {
    lr_mult: 2
    decay_mult: 0
  }
  convolution_param {
    num_output: 128
    pad: 1
    kernel_size: 3
    weight_filler {
      type: "xavier"
    }
    bias_filler {
      type: "constant"
      value: 0
    }
  }
}
layer {
  name: "relu2_2"
  type: "ReLU"
  bottom: "conv2_2"
  top: "conv2_2"
}
layer {
  name: "pool2"
  type: "Pooling"
  bottom: "conv2_2"
  top: "pool2"
  pooling_param {
    pool: MAX
    kernel_size: 2
    stride: 2
  }
}
layer {
  name: "conv3_1"
  type: "Convolution"
  bottom: "pool2"
  top: "conv3_1"
  param {
    lr_mult: 1
    decay_mult: 1
  }
  param {
    lr_mult: 2
    decay_mult: 0
  }
  convolution_param {
    num_output: 256
    pad: 1
    kernel_size: 3
    weight_filler {
      type: "xavier"
    }
    bias_filler {
      type: "constant"
      value: 0
    }
  }
}
layer {
  name: "relu3_1"
  type: "ReLU"
  bottom: "conv3_1"
  top: "conv3_1"
}
layer {
  name: "conv3_2"
  type: "Convolution"
  bottom: "conv3_1"
  top: "conv3_2"
  param {
    lr_mult: 1
    decay_mult: 1
  }
  param {
    lr_mult: 2
    decay_mult: 0
  }
  convolution_param {
    num_output: 256
    pad: 1
    kernel_size: 3
    weight_filler {
      type: "xavier"
    }
    bias_filler {
      type: "constant"
      value: 0
    }
  }
}
layer {
  name: "relu3_2"
  type: "ReLU"
  bottom: "conv3_2"
  top: "conv3_2"
}
layer {
  name: "conv3_3"
  type: "Convolution"
  bottom: "conv3_2"
  top: "conv3_3"
  param {
    lr_mult: 1
    decay_mult: 1
  }
  param {
    lr_mult: 2
    decay_mult: 0
  }
  convolution_param {
    num_output: 256
    pad: 1
    kernel_size: 3
    weight_filler {
      type: "xavier"
    }
    bias_filler {
      type: "constant"
      value: 0
    }
  }
}
layer {
  name: "relu3_3"
  type: "ReLU"
  bottom: "conv3_3"
  top: "conv3_3"
}
layer {
  name: "pool3"
  type: "Pooling"
  bottom: "conv3_3"
  top: "pool3"
  pooling_param {
    pool: MAX
    kernel_size: 2
    stride: 2
  }
}
layer {
  name: "conv4_1"
  type: "Convolution"
  bottom: "pool3"
  top: "conv4_1"
  param {
    lr_mult: 1
    decay_mult: 1
  }
  param {
    lr_mult: 2
    decay_mult: 0
  }
  convolution_param {
    num_output: 512
    pad: 1
    kernel_size: 3
    weight_filler {
      type: "xavier"
    }
    bias_filler {
      type: "constant"
      value: 0
    }
  }
}
layer {
  name: "relu4_1"
  type: "ReLU"
  bottom: "conv4_1"
  top: "conv4_1"
}
layer {
  name: "conv4_2"
  type: "Convolution"
  bottom: "conv4_1"
  top: "conv4_2"
  param {
    lr_mult: 1
    decay_mult: 1
  }
  param {
    lr_mult: 2
    decay_mult: 0
  }
  convolution_param {
    num_output: 512
    pad: 1
    kernel_size: 3
    weight_filler {
      type: "xavier"
    }
    bias_filler {
      type: "constant"
      value: 0
    }
  }
}
layer {
  name: "relu4_2"
  type: "ReLU"
  bottom: "conv4_2"
  top: "conv4_2"
}
layer {
  name: "conv4_3"
  type: "Convolution"
  bottom: "conv4_2"
  top: "conv4_3"
  param {
    lr_mult: 1
    decay_mult: 1
  }
  param {
    lr_mult: 2
    decay_mult: 0
  }
  convolution_param {
    num_output: 512
    pad: 1
    kernel_size: 3
    weight_filler {
      type: "xavier"
    }
    bias_filler {
      type: "constant"
      value: 0
    }
  }
}
layer {
  name: "relu4_3"
  type: "ReLU"
  bottom: "conv4_3"
  top: "conv4_3"
}
layer {
  name: "pool4"
  type: "Pooling"
  bottom: "conv4_3"
  top: "pool4"
  pooling_param {
    pool: MAX
    kernel_size: 2
    stride: 2
  }
}
layer {
  name: "conv5_1"
  type: "Convolution"
  bottom: "pool4"
  top: "conv5_1"
  param {
    lr_mult: 1
    decay_mult: 1
  }
  param {
    lr_mult: 2
    decay_mult: 0
  }
  convolution_param {
    num_output: 512
    pad: 1
    kernel_size: 3
    weight_filler {
      type: "xavier"
    }
    bias_filler {
      type: "constant"
      value: 0
    }
    dilation: 1
  }
}
layer {
  name: "relu5_1"
  type: "ReLU"
  bottom: "conv5_1"
  top: "conv5_1"
}
layer {
  name: "conv5_2"
  type: "Convolution"
  bottom: "conv5_1"
  top: "conv5_2"
  param {
    lr_mult: 1
    decay_mult: 1
  }
  param {
    lr_mult: 2
    decay_mult: 0
  }
  convolution_param {
    num_output: 512
    pad: 1
    kernel_size: 3
    weight_filler {
      type: "xavier"
    }
    bias_filler {
      type: "constant"
      value: 0
    }
    dilation: 1
  }
}
layer {
  name: "relu5_2"
  type: "ReLU"
  bottom: "conv5_2"
  top: "conv5_2"
}
layer {
  name: "conv5_3"
  type: "Convolution"
  bottom: "conv5_2"
  top: "conv5_3"
  param {
    lr_mult: 1
    decay_mult: 1
  }
  param {
    lr_mult: 2
    decay_mult: 0
  }
  convolution_param {
    num_output: 512
    pad: 1
    kernel_size: 3
    weight_filler {
      type: "xavier"
    }
    bias_filler {
      type: "constant"
      value: 0
    }
    dilation: 1
  }
}
layer {
  name: "relu5_3"
  type: "ReLU"
  bottom: "conv5_3"
  top: "conv5_3"
}
layer {
  name: "pool5"
  type: "Pooling"
  bottom: "conv5_3"
  top: "pool5"
  pooling_param {
    pool: MAX
    kernel_size: 3
    stride: 1
    pad: 1
  }
}
layer {
  name: "fc6"
  type: "Convolution"
  bottom: "pool5"
  top: "fc6"
  param {
    lr_mult: 1
    decay_mult: 1
  }
  param {
    lr_mult: 2
    decay_mult: 0
  }
  convolution_param {
    num_output: 1024
    pad: 6
    kernel_size: 3
    weight_filler {
      type: "xavier"
    }
    bias_filler {
      type: "constant"
      value: 0
    }
    dilation: 6
  }
}
layer {
  name: "relu6"
  type: "ReLU"
  bottom: "fc6"
  top: "fc6"
}
layer {
  name: "fc7"
  type: "Convolution"
  bottom: "fc6"
  top: "fc7"
  param {
    lr_mult: 1
    decay_mult: 1
  }
  param {
    lr_mult: 2
    decay_mult: 0
  }
  convolution_param {
    num_output: 1024
    kernel_size: 1
    weight_filler {
      type: "xavier"
    }
    bias_filler {
      type: "constant"
      value: 0
    }
  }
}
layer {
  name: "relu7"
  type: "ReLU"
  bottom: "fc7"
  top: "fc7"
}
layer {
  name: "conv6_1"
  type: "Convolution"
  bottom: "fc7"
  top: "conv6_1"
  param {
    lr_mult: 1
    decay_mult: 1
  }
  param {
    lr_mult: 2
    decay_mult: 0
  }
  convolution_param {
    num_output: 256
    pad: 0
    kernel_size: 1
    stride: 1
    weight_filler {
      type: "xavier"
    }
    bias_filler {
      type: "constant"
      value: 0
    }
  }
}
layer {
  name: "conv6_1_relu"
  type: "ReLU"
  bottom: "conv6_1"
  top: "conv6_1"
}
layer {
  name: "conv6_2"
  type: "Convolution"
  bottom: "conv6_1"
  top: "conv6_2"
  param {
    lr_mult: 1
    decay_mult: 1
  }
  param {
    lr_mult: 2
    decay_mult: 0
  }
  convolution_param {
    num_output: 512
    pad: 1
    kernel_size: 3
    stride: 2
    weight_filler {
      type: "xavier"
    }
    bias_filler {
      type: "constant"
      value: 0
    }
  }
}
layer {
  name: "conv6_2_relu"
  type: "ReLU"
  bottom: "conv6_2"
  top: "conv6_2"
}
layer {
  name: "conv7_1"
  type: "Convolution"
  bottom: "conv6_2"
  top: "conv7_1"
  param {
    lr_mult: 1
    decay_mult: 1
  }
  param {
    lr_mult: 2
    decay_mult: 0
  }
  convolution_param {
    num_output: 128
    pad: 0
    kernel_size: 1
    stride: 1
    weight_filler {
      type: "xavier"
    }
    bias_filler {
      type: "constant"
      value: 0
    }
  }
}
layer {
  name: "conv7_1_relu"
  type: "ReLU"
  bottom: "conv7_1"
  top: "conv7_1"
}
layer {
  name: "conv7_2"
  type: "Convolution"
  bottom: "conv7_1"
  top: "conv7_2"
  param {
    lr_mult: 1
    decay_mult: 1
  }
  param {
    lr_mult: 2
    decay_mult: 0
  }
  convolution_param {
    num_output: 256
    pad: 1
    kernel_size: 3
    stride: 2
    weight_filler {
      type: "xavier"
    }
    bias_filler {
      type: "constant"
      value: 0
    }
  }
}
layer {
  name: "conv7_2_relu"
  type: "ReLU"
  bottom: "conv7_2"
  top: "conv7_2"
}
layer {
  name: "conv8_1"
  type: "Convolution"
  bottom: "conv7_2"
  top: "conv8_1"
  param {
    lr_mult: 1
    decay_mult: 1
  }
  param {
    lr_mult: 2
    decay_mult: 0
  }
  convolution_param {
    num_output: 128
    pad: 0
    kernel_size: 1
    stride: 1
    weight_filler {
      type: "xavier"
    }
    bias_filler {
      type: "constant"
      value: 0
    }
  }
}
layer {
  name: "conv8_1_relu"
  type: "ReLU"
  bottom: "conv8_1"
  top: "conv8_1"
}
layer {
  name: "conv8_2"
  type: "Convolution"
  bottom: "conv8_1"
  top: "conv8_2"
  param {
    lr_mult: 1
    decay_mult: 1
  }
  param {
    lr_mult: 2
    decay_mult: 0
  }
  convolution_param {
    num_output: 256
    pad: 0
    kernel_size: 3
    stride: 1
    weight_filler {
      type: "xavier"
    }
    bias_filler {
      type: "constant"
      value: 0
    }
  }
}
layer {
  name: "conv8_2_relu"
  type: "ReLU"
  bottom: "conv8_2"
  top: "conv8_2"
}
layer {
  name: "conv9_1"
  type: "Convolution"
  bottom: "conv8_2"
  top: "conv9_1"
  param {
    lr_mult: 1
    decay_mult: 1
  }
  param {
    lr_mult: 2
    decay_mult: 0
  }
  convolution_param {
    num_output: 128
    pad: 0
    kernel_size: 1
    stride: 1
    weight_filler {
      type: "xavier"
    }
    bias_filler {
      type: "constant"
      value: 0
    }
  }
}
layer {
  name: "conv9_1_relu"
  type: "ReLU"
  bottom: "conv9_1"
  top: "conv9_1"
}
layer {
  name: "conv9_2"
  type: "Convolution"
  bottom: "conv9_1"
  top: "conv9_2"
  param {
    lr_mult: 1
    decay_mult: 1
  }
  param {
    lr_mult: 2
    decay_mult: 0
  }
  convolution_param {
    num_output: 256
    pad: 0
    kernel_size: 3
    stride: 1
    weight_filler {
      type: "xavier"
    }
    bias_filler {
      type: "constant"
      value: 0
    }
  }
}
layer {
  name: "conv9_2_relu"
  type: "ReLU"
  bottom: "conv9_2"
  top: "conv9_2"
}
layer {
  name: "conv4_3_norm"
  type: "Normalize"
  bottom: "conv4_3"
  top: "conv4_3_norm"
  norm_param {
    across_spatial: false
    scale_filler {
      type: "constant"
      value: 20
    }
    channel_shared: false
  }
}
layer {
  name: "conv4_3_norm_mbox_loc"
  type: "Convolution"
  bottom: "conv4_3_norm"
  top: "conv4_3_norm_mbox_loc"
  param {
    lr_mult: 1
    decay_mult: 1
  }
  param {
    lr_mult: 2
    decay_mult: 0
  }
  convolution_param {
    num_output: 16
    pad: 1
    kernel_size: 3
    stride: 1
    weight_filler {
      type: "xavier"
    }
    bias_filler {
      type: "constant"
      value: 0
    }
  }
}
layer {
  name: "conv4_3_norm_mbox_loc_perm"
  type: "Permute"
  bottom: "conv4_3_norm_mbox_loc"
  top: "conv4_3_norm_mbox_loc_perm"
  permute_param {
    order: 0
    order: 2
    order: 3
    order: 1
  }
}
layer {
  name: "conv4_3_norm_mbox_loc_flat"
  type: "Flatten"
  bottom: "conv4_3_norm_mbox_loc_perm"
  top: "conv4_3_norm_mbox_loc_flat"
  flatten_param {
    axis: 1
  }
}
layer {
  name: "conv4_3_norm_mbox_conf"
  type: "Convolution"
  bottom: "conv4_3_norm"
  top: "conv4_3_norm_mbox_conf"
  param {
    lr_mult: 1
    decay_mult: 1
  }
  param {
    lr_mult: 2
    decay_mult: 0
  }
  convolution_param {
    num_output: 16
    pad: 1
    kernel_size: 3
    stride: 1
    weight_filler {
      type: "xavier"
    }
    bias_filler {
      type: "constant"
      value: 0
    }
  }
}
layer {
  name: "conv4_3_norm_mbox_conf_perm"
  type: "Permute"
  bottom: "conv4_3_norm_mbox_conf"
  top: "conv4_3_norm_mbox_conf_perm"
  permute_param {
    order: 0
    order: 2
    order: 3
    order: 1
  }
}
layer {
  name: "conv4_3_norm_mbox_conf_flat"
  type: "Flatten"
  bottom: "conv4_3_norm_mbox_conf_perm"
  top: "conv4_3_norm_mbox_conf_flat"
  flatten_param {
    axis: 1
  }
}
layer {
  name: "conv4_3_norm_mbox_priorbox"
  type: "PriorBox"
  bottom: "conv4_3_norm"
  bottom: "data"
  top: "conv4_3_norm_mbox_priorbox"
  prior_box_param {
    min_size: 30
    max_size: 60
    aspect_ratio: 2
    flip: true
    clip: false
    variance: 0.1
    variance: 0.1
    variance: 0.2
    variance: 0.2
    step: 8
    offset: 0.5
  }
}
layer {
  name: "fc7_mbox_loc"
  type: "Convolution"
  bottom: "fc7"
  top: "fc7_mbox_loc"
  param {
    lr_mult: 1
    decay_mult: 1
  }
  param {
    lr_mult: 2
    decay_mult: 0
  }
  convolution_param {
    num_output: 24
    pad: 1
    kernel_size: 3
    stride: 1
    weight_filler {
      type: "xavier"
    }
    bias_filler {
      type: "constant"
      value: 0
    }
  }
}
layer {
  name: "fc7_mbox_loc_perm"
  type: "Permute"
  bottom: "fc7_mbox_loc"
  top: "fc7_mbox_loc_perm"
  permute_param {
    order: 0
    order: 2
    order: 3
    order: 1
  }
}
layer {
  name: "fc7_mbox_loc_flat"
  type: "Flatten"
  bottom: "fc7_mbox_loc_perm"
  top: "fc7_mbox_loc_flat"
  flatten_param {
    axis: 1
  }
}
layer {
  name: "fc7_mbox_conf"
  type: "Convolution"
  bottom: "fc7"
  top: "fc7_mbox_conf"
  param {
    lr_mult: 1
    decay_mult: 1
  }
  param {
    lr_mult: 2
    decay_mult: 0
  }
  convolution_param {
    num_output: 24
    pad: 1
    kernel_size: 3
    stride: 1
    weight_filler {
      type: "xavier"
    }
    bias_filler {
      type: "constant"
      value: 0
    }
  }
}
layer {
  name: "fc7_mbox_conf_perm"
  type: "Permute"
  bottom: "fc7_mbox_conf"
  top: "fc7_mbox_conf_perm"
  permute_param {
    order: 0
    order: 2
    order: 3
    order: 1
  }
}
layer {
  name: "fc7_mbox_conf_flat"
  type: "Flatten"
  bottom: "fc7_mbox_conf_perm"
  top: "fc7_mbox_conf_flat"
  flatten_param {
    axis: 1
  }
}
layer {
  name: "fc7_mbox_priorbox"
  type: "PriorBox"
  bottom: "fc7"
  bottom: "data"
  top: "fc7_mbox_priorbox"
  prior_box_param {
    min_size: 60
    max_size: 111
    aspect_ratio: 2
    aspect_ratio: 3
    flip: true
    clip: false
    variance: 0.1
    variance: 0.1
    variance: 0.2
    variance: 0.2
    step: 16
    offset: 0.5
  }
}
layer {
  name: "conv6_2_mbox_loc"
  type: "Convolution"
  bottom: "conv6_2"
  top: "conv6_2_mbox_loc"
  param {
    lr_mult: 1
    decay_mult: 1
  }
  param {
    lr_mult: 2
    decay_mult: 0
  }
  convolution_param {
    num_output: 24
    pad: 1
    kernel_size: 3
    stride: 1
    weight_filler {
      type: "xavier"
    }
    bias_filler {
      type: "constant"
      value: 0
    }
  }
}
layer {
  name: "conv6_2_mbox_loc_perm"
  type: "Permute"
  bottom: "conv6_2_mbox_loc"
  top: "conv6_2_mbox_loc_perm"
  permute_param {
    order: 0
    order: 2
    order: 3
    order: 1
  }
}
layer {
  name: "conv6_2_mbox_loc_flat"
  type: "Flatten"
  bottom: "conv6_2_mbox_loc_perm"
  top: "conv6_2_mbox_loc_flat"
  flatten_param {
    axis: 1
  }
}
layer {
  name: "conv6_2_mbox_conf"
  type: "Convolution"
  bottom: "conv6_2"
  top: "conv6_2_mbox_conf"
  param {
    lr_mult: 1
    decay_mult: 1
  }
  param {
    lr_mult: 2
    decay_mult: 0
  }
  convolution_param {
    num_output: 24
    pad: 1
    kernel_size: 3
    stride: 1
    weight_filler {
      type: "xavier"
    }
    bias_filler {
      type: "constant"
      value: 0
    }
  }
}
layer {
  name: "conv6_2_mbox_conf_perm"
  type: "Permute"
  bottom: "conv6_2_mbox_conf"
  top: "conv6_2_mbox_conf_perm"
  permute_param {
    order: 0
    order: 2
    order: 3
    order: 1
  }
}
layer {
  name: "conv6_2_mbox_conf_flat"
  type: "Flatten"
  bottom: "conv6_2_mbox_conf_perm"
  top: "conv6_2_mbox_conf_flat"
  flatten_param {
    axis: 1
  }
}
layer {
  name: "conv6_2_mbox_priorbox"
  type: "PriorBox"
  bottom: "conv6_2"
  bottom: "data"
  top: "conv6_2_mbox_priorbox"
  prior_box_param {
    min_size: 111
    max_size: 162
    aspect_ratio: 2
    aspect_ratio: 3
    flip: true
    clip: false
    variance: 0.1
    variance: 0.1
    variance: 0.2
    variance: 0.2
    step: 32
    offset: 0.5
  }
}
layer {
  name: "conv7_2_mbox_loc"
  type: "Convolution"
  bottom: "conv7_2"
  top: "conv7_2_mbox_loc"
  param {
    lr_mult: 1
    decay_mult: 1
  }
  param {
    lr_mult: 2
    decay_mult: 0
  }
  convolution_param {
    num_output: 24
    pad: 1
    kernel_size: 3
    stride: 1
    weight_filler {
      type: "xavier"
    }
    bias_filler {
      type: "constant"
      value: 0
    }
  }
}
layer {
  name: "conv7_2_mbox_loc_perm"
  type: "Permute"
  bottom: "conv7_2_mbox_loc"
  top: "conv7_2_mbox_loc_perm"
  permute_param {
    order: 0
    order: 2
    order: 3
    order: 1
  }
}
layer {
  name: "conv7_2_mbox_loc_flat"
  type: "Flatten"
  bottom: "conv7_2_mbox_loc_perm"
  top: "conv7_2_mbox_loc_flat"
  flatten_param {
    axis: 1
  }
}
layer {
  name: "conv7_2_mbox_conf"
  type: "Convolution"
  bottom: "conv7_2"
  top: "conv7_2_mbox_conf"
  param {
    lr_mult: 1
    decay_mult: 1
  }
  param {
    lr_mult: 2
    decay_mult: 0
  }
  convolution_param {
    num_output: 24
    pad: 1
    kernel_size: 3
    stride: 1
    weight_filler {
      type: "xavier"
    }
    bias_filler {
      type: "constant"
      value: 0
    }
  }
}
layer {
  name: "conv7_2_mbox_conf_perm"
  type: "Permute"
  bottom: "conv7_2_mbox_conf"
  top: "conv7_2_mbox_conf_perm"
  permute_param {
    order: 0
    order: 2
    order: 3
    order: 1
  }
}
layer {
  name: "conv7_2_mbox_conf_flat"
  type: "Flatten"
  bottom: "conv7_2_mbox_conf_perm"
  top: "conv7_2_mbox_conf_flat"
  flatten_param {
    axis: 1
  }
}
layer {
  name: "conv7_2_mbox_priorbox"
  type: "PriorBox"
  bottom: "conv7_2"
  bottom: "data"
  top: "conv7_2_mbox_priorbox"
  prior_box_param {
    min_size: 162
    max_size: 213
    aspect_ratio: 2
    aspect_ratio: 3
    flip: true
    clip: false
    variance: 0.1
    variance: 0.1
    variance: 0.2
    variance: 0.2
    step: 64
    offset: 0.5
  }
}
layer {
  name: "conv8_2_mbox_loc"
  type: "Convolution"
  bottom: "conv8_2"
  top: "conv8_2_mbox_loc"
  param {
    lr_mult: 1
    decay_mult: 1
  }
  param {
    lr_mult: 2
    decay_mult: 0
  }
  convolution_param {
    num_output: 16
    pad: 1
    kernel_size: 3
    stride: 1
    weight_filler {
      type: "xavier"
    }
    bias_filler {
      type: "constant"
      value: 0
    }
  }
}
layer {
  name: "conv8_2_mbox_loc_perm"
  type: "Permute"
  bottom: "conv8_2_mbox_loc"
  top: "conv8_2_mbox_loc_perm"
  permute_param {
    order: 0
    order: 2
    order: 3
    order: 1
  }
}
layer {
  name: "conv8_2_mbox_loc_flat"
  type: "Flatten"
  bottom: "conv8_2_mbox_loc_perm"
  top: "conv8_2_mbox_loc_flat"
  flatten_param {
    axis: 1
  }
}
layer {
  name: "conv8_2_mbox_conf"
  type: "Convolution"
  bottom: "conv8_2"
  top: "conv8_2_mbox_conf"
  param {
    lr_mult: 1
    decay_mult: 1
  }
  param {
    lr_mult: 2
    decay_mult: 0
  }
  convolution_param {
    num_output: 16
    pad: 1
    kernel_size: 3
    stride: 1
    weight_filler {
      type: "xavier"
    }
    bias_filler {
      type: "constant"
      value: 0
    }
  }
}
layer {
  name: "conv8_2_mbox_conf_perm"
  type: "Permute"
  bottom: "conv8_2_mbox_conf"
  top: "conv8_2_mbox_conf_perm"
  permute_param {
    order: 0
    order: 2
    order: 3
    order: 1
  }
}
layer {
  name: "conv8_2_mbox_conf_flat"
  type: "Flatten"
  bottom: "conv8_2_mbox_conf_perm"
  top: "conv8_2_mbox_conf_flat"
  flatten_param {
    axis: 1
  }
}
layer {
  name: "conv8_2_mbox_priorbox"
  type: "PriorBox"
  bottom: "conv8_2"
  bottom: "data"
  top: "conv8_2_mbox_priorbox"
  prior_box_param {
    min_size: 213
    max_size: 264
    aspect_ratio: 2
    flip: true
    clip: false
    variance: 0.1
    variance: 0.1
    variance: 0.2
    variance: 0.2
    step: 100
    offset: 0.5
  }
}
layer {
  name: "conv9_2_mbox_loc"
  type: "Convolution"
  bottom: "conv9_2"
  top: "conv9_2_mbox_loc"
  param {
    lr_mult: 1
    decay_mult: 1
  }
  param {
    lr_mult: 2
    decay_mult: 0
  }
  convolution_param {
    num_output: 16
    pad: 1
    kernel_size: 3
    stride: 1
    weight_filler {
      type: "xavier"
    }
    bias_filler {
      type: "constant"
      value: 0
    }
  }
}
layer {
  name: "conv9_2_mbox_loc_perm"
  type: "Permute"
  bottom: "conv9_2_mbox_loc"
  top: "conv9_2_mbox_loc_perm"
  permute_param {
    order: 0
    order: 2
    order: 3
    order: 1
  }
}
layer {
  name: "conv9_2_mbox_loc_flat"
  type: "Flatten"
  bottom: "conv9_2_mbox_loc_perm"
  top: "conv9_2_mbox_loc_flat"
  flatten_param {
    axis: 1
  }
}
layer {
  name: "conv9_2_mbox_conf"
  type: "Convolution"
  bottom: "conv9_2"
  top: "conv9_2_mbox_conf"
  param {
    lr_mult: 1
    decay_mult: 1
  }
  param {
    lr_mult: 2
    decay_mult: 0
  }
  convolution_param {
    num_output: 16
    pad: 1
    kernel_size: 3
    stride: 1
    weight_filler {
      type: "xavier"
    }
    bias_filler {
      type: "constant"
      value: 0
    }
  }
}
layer {
  name: "conv9_2_mbox_conf_perm"
  type: "Permute"
  bottom: "conv9_2_mbox_conf"
  top: "conv9_2_mbox_conf_perm"
  permute_param {
    order: 0
    order: 2
    order: 3
    order: 1
  }
}
layer {
  name: "conv9_2_mbox_conf_flat"
  type: "Flatten"
  bottom: "conv9_2_mbox_conf_perm"
  top: "conv9_2_mbox_conf_flat"
  flatten_param {
    axis: 1
  }
}
layer {
  name: "conv9_2_mbox_priorbox"
  type: "PriorBox"
  bottom: "conv9_2"
  bottom: "data"
  top: "conv9_2_mbox_priorbox"
  prior_box_param {
    min_size: 264
    max_size: 315
    aspect_ratio: 2
    flip: true
    clip: false
    variance: 0.1
    variance: 0.1
    variance: 0.2
    variance: 0.2
    step: 300
    offset: 0.5
  }
}
layer {
  name: "mbox_loc"
  type: "Concat"
  bottom: "conv4_3_norm_mbox_loc_flat"
  bottom: "fc7_mbox_loc_flat"
  bottom: "conv6_2_mbox_loc_flat"
  bottom: "conv7_2_mbox_loc_flat"
  bottom: "conv8_2_mbox_loc_flat"
  bottom: "conv9_2_mbox_loc_flat"
  top: "mbox_loc"
  concat_param {
    axis: 1
  }
}
layer {
  name: "mbox_conf"
  type: "Concat"
  bottom: "conv4_3_norm_mbox_conf_flat"
  bottom: "fc7_mbox_conf_flat"
  bottom: "conv6_2_mbox_conf_flat"
  bottom: "conv7_2_mbox_conf_flat"
  bottom: "conv8_2_mbox_conf_flat"
  bottom: "conv9_2_mbox_conf_flat"
  top: "mbox_conf"
  concat_param {
    axis: 1
  }
}
layer {
  name: "mbox_priorbox"
  type: "Concat"
  bottom: "conv4_3_norm_mbox_priorbox"
  bottom: "fc7_mbox_priorbox"
  bottom: "conv6_2_mbox_priorbox"
  bottom: "conv7_2_mbox_priorbox"
  bottom: "conv8_2_mbox_priorbox"
  bottom: "conv9_2_mbox_priorbox"
  top: "mbox_priorbox"
  concat_param {
    axis: 2
  }
}
layer {
  name: "mbox_conf_reshape"
  type: "Reshape"
  bottom: "mbox_conf"
  top: "mbox_conf_reshape"
  reshape_param {
    shape {
      dim: 0
      dim: -1
      dim: 4
    }
  }
}
layer {
  name: "mbox_conf_softmax"
  type: "Softmax"
  bottom: "mbox_conf_reshape"
  top: "mbox_conf_softmax"
  softmax_param {
    axis: 2
  }
}
layer {
  name: "mbox_conf_flatten"
  type: "Flatten"
  bottom: "mbox_conf_softmax"
  top: "mbox_conf_flatten"
  flatten_param {
    axis: 1
  }
}
layer {
  name: "detection_out"
  type: "DetectionOutput"
  bottom: "mbox_loc"
  bottom: "mbox_conf_flatten"
  bottom: "mbox_priorbox"
  top: "detection_out"
  include {
    phase: TEST
  }
  detection_output_param {
    num_classes: 4
    share_location: true
    background_label_id: 0
    nms_param {
      nms_threshold: 0.45
      top_k: 400
    }
    save_output_param {
      output_directory: "/home/shangzw/data/tbs/results/tbs/SSD_300x300/Main"
      output_name_prefix: "comp4_det_test_"
      output_format: "VOC"
      label_map_file: "data/tbs_300x300_HSIL_10x/labelmap_voc.prototxt"
      name_size_file: "data/VOC0712/test_name_size.txt"
      num_test_image: 100
    }
    code_type: CENTER_SIZE
    keep_top_k: 200
    confidence_threshold: 0.01
  }
}
layer {
  name: "detection_eval"
  type: "DetectionEvaluate"
  bottom: "detection_out"
  bottom: "label"
  top: "detection_eval"
  include {
    phase: TEST
  }
  detection_evaluate_param {
    num_classes: 4
    background_label_id: 0
    overlap_threshold: 0.5
    evaluate_difficult_gt: false
    name_size_file: "data/VOC0712/test_name_size.txt"
  }
}
I0601 17:39:24.431635  8117 layer_factory.hpp:77] Creating layer data
I0601 17:39:24.431691  8117 net.cpp:100] Creating Layer data
I0601 17:39:24.431700  8117 net.cpp:408] data -> data
I0601 17:39:24.431710  8117 net.cpp:408] data -> label
I0601 17:39:24.432219  8132 db_lmdb.cpp:35] Opened lmdb examples/tbs_300x300_HSIL_10x/tbs_300x300_HSIL_10x_test_lmdb
I0601 17:39:24.433104  8117 annotated_data_layer.cpp:62] output data size: 4,3,300,300
I0601 17:39:24.449230  8117 net.cpp:150] Setting up data
I0601 17:39:24.449281  8117 net.cpp:157] Top shape: 4 3 300 300 (1080000)
I0601 17:39:24.449298  8117 net.cpp:157] Top shape: 1 1 1 8 (8)
I0601 17:39:24.449311  8117 net.cpp:165] Memory required for data: 4320032
I0601 17:39:24.449327  8117 layer_factory.hpp:77] Creating layer data_data_0_split
I0601 17:39:24.449348  8117 net.cpp:100] Creating Layer data_data_0_split
I0601 17:39:24.449363  8117 net.cpp:434] data_data_0_split <- data
I0601 17:39:24.449381  8117 net.cpp:408] data_data_0_split -> data_data_0_split_0
I0601 17:39:24.449403  8117 net.cpp:408] data_data_0_split -> data_data_0_split_1
I0601 17:39:24.449421  8117 net.cpp:408] data_data_0_split -> data_data_0_split_2
I0601 17:39:24.449440  8117 net.cpp:408] data_data_0_split -> data_data_0_split_3
I0601 17:39:24.449457  8117 net.cpp:408] data_data_0_split -> data_data_0_split_4
I0601 17:39:24.449476  8117 net.cpp:408] data_data_0_split -> data_data_0_split_5
I0601 17:39:24.449492  8117 net.cpp:408] data_data_0_split -> data_data_0_split_6
I0601 17:39:24.449681  8117 net.cpp:150] Setting up data_data_0_split
I0601 17:39:24.449702  8117 net.cpp:157] Top shape: 4 3 300 300 (1080000)
I0601 17:39:24.449718  8117 net.cpp:157] Top shape: 4 3 300 300 (1080000)
I0601 17:39:24.449733  8117 net.cpp:157] Top shape: 4 3 300 300 (1080000)
I0601 17:39:24.449746  8117 net.cpp:157] Top shape: 4 3 300 300 (1080000)
I0601 17:39:24.449769  8117 net.cpp:157] Top shape: 4 3 300 300 (1080000)
I0601 17:39:24.449791  8117 net.cpp:157] Top shape: 4 3 300 300 (1080000)
I0601 17:39:24.449805  8117 net.cpp:157] Top shape: 4 3 300 300 (1080000)
I0601 17:39:24.449818  8117 net.cpp:165] Memory required for data: 34560032
I0601 17:39:24.449829  8117 layer_factory.hpp:77] Creating layer conv1_1
I0601 17:39:24.449849  8117 net.cpp:100] Creating Layer conv1_1
I0601 17:39:24.449862  8117 net.cpp:434] conv1_1 <- data_data_0_split_0
I0601 17:39:24.449878  8117 net.cpp:408] conv1_1 -> conv1_1
I0601 17:39:24.458338  8117 net.cpp:150] Setting up conv1_1
I0601 17:39:24.458849  8117 net.cpp:157] Top shape: 4 64 300 300 (23040000)
I0601 17:39:24.458860  8117 net.cpp:165] Memory required for data: 126720032
I0601 17:39:24.458874  8117 layer_factory.hpp:77] Creating layer relu1_1
I0601 17:39:24.458884  8117 net.cpp:100] Creating Layer relu1_1
I0601 17:39:24.458889  8117 net.cpp:434] relu1_1 <- conv1_1
I0601 17:39:24.458895  8117 net.cpp:395] relu1_1 -> conv1_1 (in-place)
I0601 17:39:24.460415  8117 net.cpp:150] Setting up relu1_1
I0601 17:39:24.460453  8117 net.cpp:157] Top shape: 4 64 300 300 (23040000)
I0601 17:39:24.460469  8117 net.cpp:165] Memory required for data: 218880032
I0601 17:39:24.460484  8117 layer_factory.hpp:77] Creating layer conv1_2
I0601 17:39:24.460506  8117 net.cpp:100] Creating Layer conv1_2
I0601 17:39:24.460521  8117 net.cpp:434] conv1_2 <- conv1_1
I0601 17:39:24.460539  8117 net.cpp:408] conv1_2 -> conv1_2
I0601 17:39:24.469066  8117 net.cpp:150] Setting up conv1_2
I0601 17:39:24.469087  8117 net.cpp:157] Top shape: 4 64 300 300 (23040000)
I0601 17:39:24.469092  8117 net.cpp:165] Memory required for data: 311040032
I0601 17:39:24.469105  8117 layer_factory.hpp:77] Creating layer relu1_2
I0601 17:39:24.470233  8117 net.cpp:100] Creating Layer relu1_2
I0601 17:39:24.470244  8117 net.cpp:434] relu1_2 <- conv1_2
I0601 17:39:24.470252  8117 net.cpp:395] relu1_2 -> conv1_2 (in-place)
I0601 17:39:24.472167  8117 net.cpp:150] Setting up relu1_2
I0601 17:39:24.472179  8117 net.cpp:157] Top shape: 4 64 300 300 (23040000)
I0601 17:39:24.472183  8117 net.cpp:165] Memory required for data: 403200032
I0601 17:39:24.472187  8117 layer_factory.hpp:77] Creating layer pool1
I0601 17:39:24.472196  8117 net.cpp:100] Creating Layer pool1
I0601 17:39:24.472200  8117 net.cpp:434] pool1 <- conv1_2
I0601 17:39:24.472205  8117 net.cpp:408] pool1 -> pool1
I0601 17:39:24.472259  8117 net.cpp:150] Setting up pool1
I0601 17:39:24.472266  8117 net.cpp:157] Top shape: 4 64 150 150 (5760000)
I0601 17:39:24.472270  8117 net.cpp:165] Memory required for data: 426240032
I0601 17:39:24.472272  8117 layer_factory.hpp:77] Creating layer conv2_1
I0601 17:39:24.472282  8117 net.cpp:100] Creating Layer conv2_1
I0601 17:39:24.472286  8117 net.cpp:434] conv2_1 <- pool1
I0601 17:39:24.472292  8117 net.cpp:408] conv2_1 -> conv2_1
I0601 17:39:24.482332  8117 net.cpp:150] Setting up conv2_1
I0601 17:39:24.482352  8117 net.cpp:157] Top shape: 4 128 150 150 (11520000)
I0601 17:39:24.482357  8117 net.cpp:165] Memory required for data: 472320032
I0601 17:39:24.482368  8117 layer_factory.hpp:77] Creating layer relu2_1
I0601 17:39:24.482379  8117 net.cpp:100] Creating Layer relu2_1
I0601 17:39:24.482384  8117 net.cpp:434] relu2_1 <- conv2_1
I0601 17:39:24.482391  8117 net.cpp:395] relu2_1 -> conv2_1 (in-place)
I0601 17:39:24.483204  8117 net.cpp:150] Setting up relu2_1
I0601 17:39:24.483216  8117 net.cpp:157] Top shape: 4 128 150 150 (11520000)
I0601 17:39:24.483219  8117 net.cpp:165] Memory required for data: 518400032
I0601 17:39:24.483224  8117 layer_factory.hpp:77] Creating layer conv2_2
I0601 17:39:24.483234  8117 net.cpp:100] Creating Layer conv2_2
I0601 17:39:24.483238  8117 net.cpp:434] conv2_2 <- conv2_1
I0601 17:39:24.483244  8117 net.cpp:408] conv2_2 -> conv2_2
I0601 17:39:24.490159  8117 net.cpp:150] Setting up conv2_2
I0601 17:39:24.490178  8117 net.cpp:157] Top shape: 4 128 150 150 (11520000)
I0601 17:39:24.490182  8117 net.cpp:165] Memory required for data: 564480032
I0601 17:39:24.490190  8117 layer_factory.hpp:77] Creating layer relu2_2
I0601 17:39:24.490217  8117 net.cpp:100] Creating Layer relu2_2
I0601 17:39:24.490222  8117 net.cpp:434] relu2_2 <- conv2_2
I0601 17:39:24.490229  8117 net.cpp:395] relu2_2 -> conv2_2 (in-place)
I0601 17:39:24.491740  8117 net.cpp:150] Setting up relu2_2
I0601 17:39:24.491750  8117 net.cpp:157] Top shape: 4 128 150 150 (11520000)
I0601 17:39:24.491753  8117 net.cpp:165] Memory required for data: 610560032
I0601 17:39:24.491757  8117 layer_factory.hpp:77] Creating layer pool2
I0601 17:39:24.491765  8117 net.cpp:100] Creating Layer pool2
I0601 17:39:24.491768  8117 net.cpp:434] pool2 <- conv2_2
I0601 17:39:24.491773  8117 net.cpp:408] pool2 -> pool2
I0601 17:39:24.491827  8117 net.cpp:150] Setting up pool2
I0601 17:39:24.491833  8117 net.cpp:157] Top shape: 4 128 75 75 (2880000)
I0601 17:39:24.491837  8117 net.cpp:165] Memory required for data: 622080032
I0601 17:39:24.491840  8117 layer_factory.hpp:77] Creating layer conv3_1
I0601 17:39:24.491850  8117 net.cpp:100] Creating Layer conv3_1
I0601 17:39:24.491853  8117 net.cpp:434] conv3_1 <- pool2
I0601 17:39:24.491861  8117 net.cpp:408] conv3_1 -> conv3_1
I0601 17:39:24.501453  8117 net.cpp:150] Setting up conv3_1
I0601 17:39:24.501472  8117 net.cpp:157] Top shape: 4 256 75 75 (5760000)
I0601 17:39:24.501477  8117 net.cpp:165] Memory required for data: 645120032
I0601 17:39:24.501489  8117 layer_factory.hpp:77] Creating layer relu3_1
I0601 17:39:24.501498  8117 net.cpp:100] Creating Layer relu3_1
I0601 17:39:24.501502  8117 net.cpp:434] relu3_1 <- conv3_1
I0601 17:39:24.501509  8117 net.cpp:395] relu3_1 -> conv3_1 (in-place)
I0601 17:39:24.501951  8117 net.cpp:150] Setting up relu3_1
I0601 17:39:24.501960  8117 net.cpp:157] Top shape: 4 256 75 75 (5760000)
I0601 17:39:24.501963  8117 net.cpp:165] Memory required for data: 668160032
I0601 17:39:24.501966  8117 layer_factory.hpp:77] Creating layer conv3_2
I0601 17:39:24.501977  8117 net.cpp:100] Creating Layer conv3_2
I0601 17:39:24.501981  8117 net.cpp:434] conv3_2 <- conv3_1
I0601 17:39:24.501988  8117 net.cpp:408] conv3_2 -> conv3_2
I0601 17:39:24.511473  8117 net.cpp:150] Setting up conv3_2
I0601 17:39:24.511494  8117 net.cpp:157] Top shape: 4 256 75 75 (5760000)
I0601 17:39:24.511498  8117 net.cpp:165] Memory required for data: 691200032
I0601 17:39:24.511507  8117 layer_factory.hpp:77] Creating layer relu3_2
I0601 17:39:24.511517  8117 net.cpp:100] Creating Layer relu3_2
I0601 17:39:24.511523  8117 net.cpp:434] relu3_2 <- conv3_2
I0601 17:39:24.511530  8117 net.cpp:395] relu3_2 -> conv3_2 (in-place)
I0601 17:39:24.515444  8117 net.cpp:150] Setting up relu3_2
I0601 17:39:24.515456  8117 net.cpp:157] Top shape: 4 256 75 75 (5760000)
I0601 17:39:24.515461  8117 net.cpp:165] Memory required for data: 714240032
I0601 17:39:24.515465  8117 layer_factory.hpp:77] Creating layer conv3_3
I0601 17:39:24.515481  8117 net.cpp:100] Creating Layer conv3_3
I0601 17:39:24.515486  8117 net.cpp:434] conv3_3 <- conv3_2
I0601 17:39:24.515493  8117 net.cpp:408] conv3_3 -> conv3_3
I0601 17:39:24.529021  8117 net.cpp:150] Setting up conv3_3
I0601 17:39:24.529039  8117 net.cpp:157] Top shape: 4 256 75 75 (5760000)
I0601 17:39:24.529043  8117 net.cpp:165] Memory required for data: 737280032
I0601 17:39:24.529053  8117 layer_factory.hpp:77] Creating layer relu3_3
I0601 17:39:24.529062  8117 net.cpp:100] Creating Layer relu3_3
I0601 17:39:24.529067  8117 net.cpp:434] relu3_3 <- conv3_3
I0601 17:39:24.529073  8117 net.cpp:395] relu3_3 -> conv3_3 (in-place)
I0601 17:39:24.530661  8117 net.cpp:150] Setting up relu3_3
I0601 17:39:24.530671  8117 net.cpp:157] Top shape: 4 256 75 75 (5760000)
I0601 17:39:24.530674  8117 net.cpp:165] Memory required for data: 760320032
I0601 17:39:24.530678  8117 layer_factory.hpp:77] Creating layer pool3
I0601 17:39:24.530686  8117 net.cpp:100] Creating Layer pool3
I0601 17:39:24.530690  8117 net.cpp:434] pool3 <- conv3_3
I0601 17:39:24.530695  8117 net.cpp:408] pool3 -> pool3
I0601 17:39:24.530755  8117 net.cpp:150] Setting up pool3
I0601 17:39:24.530762  8117 net.cpp:157] Top shape: 4 256 38 38 (1478656)
I0601 17:39:24.530781  8117 net.cpp:165] Memory required for data: 766234656
I0601 17:39:24.530783  8117 layer_factory.hpp:77] Creating layer conv4_1
I0601 17:39:24.530793  8117 net.cpp:100] Creating Layer conv4_1
I0601 17:39:24.530798  8117 net.cpp:434] conv4_1 <- pool3
I0601 17:39:24.530805  8117 net.cpp:408] conv4_1 -> conv4_1
I0601 17:39:24.547536  8117 net.cpp:150] Setting up conv4_1
I0601 17:39:24.547555  8117 net.cpp:157] Top shape: 4 512 38 38 (2957312)
I0601 17:39:24.547559  8117 net.cpp:165] Memory required for data: 778063904
I0601 17:39:24.547567  8117 layer_factory.hpp:77] Creating layer relu4_1
I0601 17:39:24.547592  8117 net.cpp:100] Creating Layer relu4_1
I0601 17:39:24.547597  8117 net.cpp:434] relu4_1 <- conv4_1
I0601 17:39:24.547605  8117 net.cpp:395] relu4_1 -> conv4_1 (in-place)
I0601 17:39:24.549234  8117 net.cpp:150] Setting up relu4_1
I0601 17:39:24.549245  8117 net.cpp:157] Top shape: 4 512 38 38 (2957312)
I0601 17:39:24.549249  8117 net.cpp:165] Memory required for data: 789893152
I0601 17:39:24.549253  8117 layer_factory.hpp:77] Creating layer conv4_2
I0601 17:39:24.549265  8117 net.cpp:100] Creating Layer conv4_2
I0601 17:39:24.549269  8117 net.cpp:434] conv4_2 <- conv4_1
I0601 17:39:24.549276  8117 net.cpp:408] conv4_2 -> conv4_2
I0601 17:39:24.572268  8117 net.cpp:150] Setting up conv4_2
I0601 17:39:24.572285  8117 net.cpp:157] Top shape: 4 512 38 38 (2957312)
I0601 17:39:24.572288  8117 net.cpp:165] Memory required for data: 801722400
I0601 17:39:24.572300  8117 layer_factory.hpp:77] Creating layer relu4_2
I0601 17:39:24.572309  8117 net.cpp:100] Creating Layer relu4_2
I0601 17:39:24.572314  8117 net.cpp:434] relu4_2 <- conv4_2
I0601 17:39:24.572320  8117 net.cpp:395] relu4_2 -> conv4_2 (in-place)
I0601 17:39:24.574434  8117 net.cpp:150] Setting up relu4_2
I0601 17:39:24.574445  8117 net.cpp:157] Top shape: 4 512 38 38 (2957312)
I0601 17:39:24.574448  8117 net.cpp:165] Memory required for data: 813551648
I0601 17:39:24.574450  8117 layer_factory.hpp:77] Creating layer conv4_3
I0601 17:39:24.574462  8117 net.cpp:100] Creating Layer conv4_3
I0601 17:39:24.574467  8117 net.cpp:434] conv4_3 <- conv4_2
I0601 17:39:24.574475  8117 net.cpp:408] conv4_3 -> conv4_3
I0601 17:39:24.589979  8117 net.cpp:150] Setting up conv4_3
I0601 17:39:24.589998  8117 net.cpp:157] Top shape: 4 512 38 38 (2957312)
I0601 17:39:24.590001  8117 net.cpp:165] Memory required for data: 825380896
I0601 17:39:24.590008  8117 layer_factory.hpp:77] Creating layer relu4_3
I0601 17:39:24.590016  8117 net.cpp:100] Creating Layer relu4_3
I0601 17:39:24.590020  8117 net.cpp:434] relu4_3 <- conv4_3
I0601 17:39:24.590026  8117 net.cpp:395] relu4_3 -> conv4_3 (in-place)
I0601 17:39:24.592128  8117 net.cpp:150] Setting up relu4_3
I0601 17:39:24.592135  8117 net.cpp:157] Top shape: 4 512 38 38 (2957312)
I0601 17:39:24.592139  8117 net.cpp:165] Memory required for data: 837210144
I0601 17:39:24.592141  8117 layer_factory.hpp:77] Creating layer conv4_3_relu4_3_0_split
I0601 17:39:24.592146  8117 net.cpp:100] Creating Layer conv4_3_relu4_3_0_split
I0601 17:39:24.592150  8117 net.cpp:434] conv4_3_relu4_3_0_split <- conv4_3
I0601 17:39:24.592156  8117 net.cpp:408] conv4_3_relu4_3_0_split -> conv4_3_relu4_3_0_split_0
I0601 17:39:24.592165  8117 net.cpp:408] conv4_3_relu4_3_0_split -> conv4_3_relu4_3_0_split_1
I0601 17:39:24.592216  8117 net.cpp:150] Setting up conv4_3_relu4_3_0_split
I0601 17:39:24.592221  8117 net.cpp:157] Top shape: 4 512 38 38 (2957312)
I0601 17:39:24.592224  8117 net.cpp:157] Top shape: 4 512 38 38 (2957312)
I0601 17:39:24.592227  8117 net.cpp:165] Memory required for data: 860868640
I0601 17:39:24.592231  8117 layer_factory.hpp:77] Creating layer pool4
I0601 17:39:24.592238  8117 net.cpp:100] Creating Layer pool4
I0601 17:39:24.592243  8117 net.cpp:434] pool4 <- conv4_3_relu4_3_0_split_0
I0601 17:39:24.592250  8117 net.cpp:408] pool4 -> pool4
I0601 17:39:24.592294  8117 net.cpp:150] Setting up pool4
I0601 17:39:24.592301  8117 net.cpp:157] Top shape: 4 512 19 19 (739328)
I0601 17:39:24.592303  8117 net.cpp:165] Memory required for data: 863825952
I0601 17:39:24.592321  8117 layer_factory.hpp:77] Creating layer conv5_1
I0601 17:39:24.592334  8117 net.cpp:100] Creating Layer conv5_1
I0601 17:39:24.592339  8117 net.cpp:434] conv5_1 <- pool4
I0601 17:39:24.592348  8117 net.cpp:408] conv5_1 -> conv5_1
I0601 17:39:24.607883  8117 net.cpp:150] Setting up conv5_1
I0601 17:39:24.607903  8117 net.cpp:157] Top shape: 4 512 19 19 (739328)
I0601 17:39:24.607905  8117 net.cpp:165] Memory required for data: 866783264
I0601 17:39:24.607911  8117 layer_factory.hpp:77] Creating layer relu5_1
I0601 17:39:24.607920  8117 net.cpp:100] Creating Layer relu5_1
I0601 17:39:24.607925  8117 net.cpp:434] relu5_1 <- conv5_1
I0601 17:39:24.607933  8117 net.cpp:395] relu5_1 -> conv5_1 (in-place)
I0601 17:39:24.610008  8117 net.cpp:150] Setting up relu5_1
I0601 17:39:24.610018  8117 net.cpp:157] Top shape: 4 512 19 19 (739328)
I0601 17:39:24.610020  8117 net.cpp:165] Memory required for data: 869740576
I0601 17:39:24.610023  8117 layer_factory.hpp:77] Creating layer conv5_2
I0601 17:39:24.610033  8117 net.cpp:100] Creating Layer conv5_2
I0601 17:39:24.610041  8117 net.cpp:434] conv5_2 <- conv5_1
I0601 17:39:24.610050  8117 net.cpp:408] conv5_2 -> conv5_2
I0601 17:39:24.625578  8117 net.cpp:150] Setting up conv5_2
I0601 17:39:24.625597  8117 net.cpp:157] Top shape: 4 512 19 19 (739328)
I0601 17:39:24.625600  8117 net.cpp:165] Memory required for data: 872697888
I0601 17:39:24.625607  8117 layer_factory.hpp:77] Creating layer relu5_2
I0601 17:39:24.625613  8117 net.cpp:100] Creating Layer relu5_2
I0601 17:39:24.625617  8117 net.cpp:434] relu5_2 <- conv5_2
I0601 17:39:24.625639  8117 net.cpp:395] relu5_2 -> conv5_2 (in-place)
I0601 17:39:24.627712  8117 net.cpp:150] Setting up relu5_2
I0601 17:39:24.627722  8117 net.cpp:157] Top shape: 4 512 19 19 (739328)
I0601 17:39:24.627724  8117 net.cpp:165] Memory required for data: 875655200
I0601 17:39:24.627728  8117 layer_factory.hpp:77] Creating layer conv5_3
I0601 17:39:24.627739  8117 net.cpp:100] Creating Layer conv5_3
I0601 17:39:24.627745  8117 net.cpp:434] conv5_3 <- conv5_2
I0601 17:39:24.627753  8117 net.cpp:408] conv5_3 -> conv5_3
I0601 17:39:24.644381  8117 net.cpp:150] Setting up conv5_3
I0601 17:39:24.644398  8117 net.cpp:157] Top shape: 4 512 19 19 (739328)
I0601 17:39:24.644402  8117 net.cpp:165] Memory required for data: 878612512
I0601 17:39:24.644423  8117 layer_factory.hpp:77] Creating layer relu5_3
I0601 17:39:24.644436  8117 net.cpp:100] Creating Layer relu5_3
I0601 17:39:24.644455  8117 net.cpp:434] relu5_3 <- conv5_3
I0601 17:39:24.644461  8117 net.cpp:395] relu5_3 -> conv5_3 (in-place)
I0601 17:39:24.646556  8117 net.cpp:150] Setting up relu5_3
I0601 17:39:24.646565  8117 net.cpp:157] Top shape: 4 512 19 19 (739328)
I0601 17:39:24.646569  8117 net.cpp:165] Memory required for data: 881569824
I0601 17:39:24.646571  8117 layer_factory.hpp:77] Creating layer pool5
I0601 17:39:24.646579  8117 net.cpp:100] Creating Layer pool5
I0601 17:39:24.646584  8117 net.cpp:434] pool5 <- conv5_3
I0601 17:39:24.646591  8117 net.cpp:408] pool5 -> pool5
I0601 17:39:24.646644  8117 net.cpp:150] Setting up pool5
I0601 17:39:24.646651  8117 net.cpp:157] Top shape: 4 512 19 19 (739328)
I0601 17:39:24.646654  8117 net.cpp:165] Memory required for data: 884527136
I0601 17:39:24.646658  8117 layer_factory.hpp:77] Creating layer fc6
I0601 17:39:24.646669  8117 net.cpp:100] Creating Layer fc6
I0601 17:39:24.646675  8117 net.cpp:434] fc6 <- pool5
I0601 17:39:24.646682  8117 net.cpp:408] fc6 -> fc6
I0601 17:39:24.670462  8117 net.cpp:150] Setting up fc6
I0601 17:39:24.670480  8117 net.cpp:157] Top shape: 4 1024 19 19 (1478656)
I0601 17:39:24.670482  8117 net.cpp:165] Memory required for data: 890441760
I0601 17:39:24.670505  8117 layer_factory.hpp:77] Creating layer relu6
I0601 17:39:24.670511  8117 net.cpp:100] Creating Layer relu6
I0601 17:39:24.670514  8117 net.cpp:434] relu6 <- fc6
I0601 17:39:24.670521  8117 net.cpp:395] relu6 -> fc6 (in-place)
I0601 17:39:24.671264  8117 net.cpp:150] Setting up relu6
I0601 17:39:24.671273  8117 net.cpp:157] Top shape: 4 1024 19 19 (1478656)
I0601 17:39:24.671289  8117 net.cpp:165] Memory required for data: 896356384
I0601 17:39:24.671294  8117 layer_factory.hpp:77] Creating layer fc7
I0601 17:39:24.671308  8117 net.cpp:100] Creating Layer fc7
I0601 17:39:24.671315  8117 net.cpp:434] fc7 <- fc6
I0601 17:39:24.671324  8117 net.cpp:408] fc7 -> fc7
I0601 17:39:24.680300  8117 net.cpp:150] Setting up fc7
I0601 17:39:24.680318  8117 net.cpp:157] Top shape: 4 1024 19 19 (1478656)
I0601 17:39:24.680321  8117 net.cpp:165] Memory required for data: 902271008
I0601 17:39:24.680330  8117 layer_factory.hpp:77] Creating layer relu7
I0601 17:39:24.680353  8117 net.cpp:100] Creating Layer relu7
I0601 17:39:24.680359  8117 net.cpp:434] relu7 <- fc7
I0601 17:39:24.680371  8117 net.cpp:395] relu7 -> fc7 (in-place)
I0601 17:39:24.682446  8117 net.cpp:150] Setting up relu7
I0601 17:39:24.682454  8117 net.cpp:157] Top shape: 4 1024 19 19 (1478656)
I0601 17:39:24.682458  8117 net.cpp:165] Memory required for data: 908185632
I0601 17:39:24.682461  8117 layer_factory.hpp:77] Creating layer fc7_relu7_0_split
I0601 17:39:24.682469  8117 net.cpp:100] Creating Layer fc7_relu7_0_split
I0601 17:39:24.682474  8117 net.cpp:434] fc7_relu7_0_split <- fc7
I0601 17:39:24.682482  8117 net.cpp:408] fc7_relu7_0_split -> fc7_relu7_0_split_0
I0601 17:39:24.682494  8117 net.cpp:408] fc7_relu7_0_split -> fc7_relu7_0_split_1
I0601 17:39:24.682510  8117 net.cpp:408] fc7_relu7_0_split -> fc7_relu7_0_split_2
I0601 17:39:24.682519  8117 net.cpp:408] fc7_relu7_0_split -> fc7_relu7_0_split_3
I0601 17:39:24.682596  8117 net.cpp:150] Setting up fc7_relu7_0_split
I0601 17:39:24.682605  8117 net.cpp:157] Top shape: 4 1024 19 19 (1478656)
I0601 17:39:24.682610  8117 net.cpp:157] Top shape: 4 1024 19 19 (1478656)
I0601 17:39:24.682616  8117 net.cpp:157] Top shape: 4 1024 19 19 (1478656)
I0601 17:39:24.682622  8117 net.cpp:157] Top shape: 4 1024 19 19 (1478656)
I0601 17:39:24.682627  8117 net.cpp:165] Memory required for data: 931844128
I0601 17:39:24.682632  8117 layer_factory.hpp:77] Creating layer conv6_1
I0601 17:39:24.682646  8117 net.cpp:100] Creating Layer conv6_1
I0601 17:39:24.682651  8117 net.cpp:434] conv6_1 <- fc7_relu7_0_split_0
I0601 17:39:24.682659  8117 net.cpp:408] conv6_1 -> conv6_1
I0601 17:39:24.689451  8117 net.cpp:150] Setting up conv6_1
I0601 17:39:24.689465  8117 net.cpp:157] Top shape: 4 256 19 19 (369664)
I0601 17:39:24.689469  8117 net.cpp:165] Memory required for data: 933322784
I0601 17:39:24.689477  8117 layer_factory.hpp:77] Creating layer conv6_1_relu
I0601 17:39:24.689486  8117 net.cpp:100] Creating Layer conv6_1_relu
I0601 17:39:24.689492  8117 net.cpp:434] conv6_1_relu <- conv6_1
I0601 17:39:24.689498  8117 net.cpp:395] conv6_1_relu -> conv6_1 (in-place)
I0601 17:39:24.691579  8117 net.cpp:150] Setting up conv6_1_relu
I0601 17:39:24.691588  8117 net.cpp:157] Top shape: 4 256 19 19 (369664)
I0601 17:39:24.691591  8117 net.cpp:165] Memory required for data: 934801440
I0601 17:39:24.691596  8117 layer_factory.hpp:77] Creating layer conv6_2
I0601 17:39:24.691609  8117 net.cpp:100] Creating Layer conv6_2
I0601 17:39:24.691615  8117 net.cpp:434] conv6_2 <- conv6_1
I0601 17:39:24.691622  8117 net.cpp:408] conv6_2 -> conv6_2
I0601 17:39:24.703920  8117 net.cpp:150] Setting up conv6_2
I0601 17:39:24.703936  8117 net.cpp:157] Top shape: 4 512 10 10 (204800)
I0601 17:39:24.703940  8117 net.cpp:165] Memory required for data: 935620640
I0601 17:39:24.703966  8117 layer_factory.hpp:77] Creating layer conv6_2_relu
I0601 17:39:24.703974  8117 net.cpp:100] Creating Layer conv6_2_relu
I0601 17:39:24.703979  8117 net.cpp:434] conv6_2_relu <- conv6_2
I0601 17:39:24.703987  8117 net.cpp:395] conv6_2_relu -> conv6_2 (in-place)
I0601 17:39:24.709280  8117 net.cpp:150] Setting up conv6_2_relu
I0601 17:39:24.709291  8117 net.cpp:157] Top shape: 4 512 10 10 (204800)
I0601 17:39:24.709293  8117 net.cpp:165] Memory required for data: 936439840
I0601 17:39:24.709297  8117 layer_factory.hpp:77] Creating layer conv6_2_conv6_2_relu_0_split
I0601 17:39:24.709305  8117 net.cpp:100] Creating Layer conv6_2_conv6_2_relu_0_split
I0601 17:39:24.709323  8117 net.cpp:434] conv6_2_conv6_2_relu_0_split <- conv6_2
I0601 17:39:24.709331  8117 net.cpp:408] conv6_2_conv6_2_relu_0_split -> conv6_2_conv6_2_relu_0_split_0
I0601 17:39:24.709342  8117 net.cpp:408] conv6_2_conv6_2_relu_0_split -> conv6_2_conv6_2_relu_0_split_1
I0601 17:39:24.709350  8117 net.cpp:408] conv6_2_conv6_2_relu_0_split -> conv6_2_conv6_2_relu_0_split_2
I0601 17:39:24.709360  8117 net.cpp:408] conv6_2_conv6_2_relu_0_split -> conv6_2_conv6_2_relu_0_split_3
I0601 17:39:24.709444  8117 net.cpp:150] Setting up conv6_2_conv6_2_relu_0_split
I0601 17:39:24.709451  8117 net.cpp:157] Top shape: 4 512 10 10 (204800)
I0601 17:39:24.709455  8117 net.cpp:157] Top shape: 4 512 10 10 (204800)
I0601 17:39:24.709460  8117 net.cpp:157] Top shape: 4 512 10 10 (204800)
I0601 17:39:24.709465  8117 net.cpp:157] Top shape: 4 512 10 10 (204800)
I0601 17:39:24.709467  8117 net.cpp:165] Memory required for data: 939716640
I0601 17:39:24.709471  8117 layer_factory.hpp:77] Creating layer conv7_1
I0601 17:39:24.709483  8117 net.cpp:100] Creating Layer conv7_1
I0601 17:39:24.709489  8117 net.cpp:434] conv7_1 <- conv6_2_conv6_2_relu_0_split_0
I0601 17:39:24.709496  8117 net.cpp:408] conv7_1 -> conv7_1
I0601 17:39:24.727111  8117 net.cpp:150] Setting up conv7_1
I0601 17:39:24.727139  8117 net.cpp:157] Top shape: 4 128 10 10 (51200)
I0601 17:39:24.727143  8117 net.cpp:165] Memory required for data: 939921440
I0601 17:39:24.727150  8117 layer_factory.hpp:77] Creating layer conv7_1_relu
I0601 17:39:24.727159  8117 net.cpp:100] Creating Layer conv7_1_relu
I0601 17:39:24.727183  8117 net.cpp:434] conv7_1_relu <- conv7_1
I0601 17:39:24.727190  8117 net.cpp:395] conv7_1_relu -> conv7_1 (in-place)
I0601 17:39:24.729262  8117 net.cpp:150] Setting up conv7_1_relu
I0601 17:39:24.729272  8117 net.cpp:157] Top shape: 4 128 10 10 (51200)
I0601 17:39:24.729276  8117 net.cpp:165] Memory required for data: 940126240
I0601 17:39:24.729279  8117 layer_factory.hpp:77] Creating layer conv7_2
I0601 17:39:24.729292  8117 net.cpp:100] Creating Layer conv7_2
I0601 17:39:24.729298  8117 net.cpp:434] conv7_2 <- conv7_1
I0601 17:39:24.729306  8117 net.cpp:408] conv7_2 -> conv7_2
I0601 17:39:24.737051  8117 net.cpp:150] Setting up conv7_2
I0601 17:39:24.737082  8117 net.cpp:157] Top shape: 4 256 5 5 (25600)
I0601 17:39:24.737085  8117 net.cpp:165] Memory required for data: 940228640
I0601 17:39:24.737108  8117 layer_factory.hpp:77] Creating layer conv7_2_relu
I0601 17:39:24.737116  8117 net.cpp:100] Creating Layer conv7_2_relu
I0601 17:39:24.737120  8117 net.cpp:434] conv7_2_relu <- conv7_2
I0601 17:39:24.737128  8117 net.cpp:395] conv7_2_relu -> conv7_2 (in-place)
I0601 17:39:24.739455  8117 net.cpp:150] Setting up conv7_2_relu
I0601 17:39:24.739464  8117 net.cpp:157] Top shape: 4 256 5 5 (25600)
I0601 17:39:24.739466  8117 net.cpp:165] Memory required for data: 940331040
I0601 17:39:24.739470  8117 layer_factory.hpp:77] Creating layer conv7_2_conv7_2_relu_0_split
I0601 17:39:24.739478  8117 net.cpp:100] Creating Layer conv7_2_conv7_2_relu_0_split
I0601 17:39:24.739482  8117 net.cpp:434] conv7_2_conv7_2_relu_0_split <- conv7_2
I0601 17:39:24.739491  8117 net.cpp:408] conv7_2_conv7_2_relu_0_split -> conv7_2_conv7_2_relu_0_split_0
I0601 17:39:24.739501  8117 net.cpp:408] conv7_2_conv7_2_relu_0_split -> conv7_2_conv7_2_relu_0_split_1
I0601 17:39:24.739511  8117 net.cpp:408] conv7_2_conv7_2_relu_0_split -> conv7_2_conv7_2_relu_0_split_2
I0601 17:39:24.739519  8117 net.cpp:408] conv7_2_conv7_2_relu_0_split -> conv7_2_conv7_2_relu_0_split_3
I0601 17:39:24.739599  8117 net.cpp:150] Setting up conv7_2_conv7_2_relu_0_split
I0601 17:39:24.739608  8117 net.cpp:157] Top shape: 4 256 5 5 (25600)
I0601 17:39:24.739611  8117 net.cpp:157] Top shape: 4 256 5 5 (25600)
I0601 17:39:24.739615  8117 net.cpp:157] Top shape: 4 256 5 5 (25600)
I0601 17:39:24.739619  8117 net.cpp:157] Top shape: 4 256 5 5 (25600)
I0601 17:39:24.739624  8117 net.cpp:165] Memory required for data: 940740640
I0601 17:39:24.739627  8117 layer_factory.hpp:77] Creating layer conv8_1
I0601 17:39:24.739652  8117 net.cpp:100] Creating Layer conv8_1
I0601 17:39:24.739660  8117 net.cpp:434] conv8_1 <- conv7_2_conv7_2_relu_0_split_0
I0601 17:39:24.739667  8117 net.cpp:408] conv8_1 -> conv8_1
I0601 17:39:24.746415  8117 net.cpp:150] Setting up conv8_1
I0601 17:39:24.746426  8117 net.cpp:157] Top shape: 4 128 5 5 (12800)
I0601 17:39:24.746429  8117 net.cpp:165] Memory required for data: 940791840
I0601 17:39:24.746436  8117 layer_factory.hpp:77] Creating layer conv8_1_relu
I0601 17:39:24.746443  8117 net.cpp:100] Creating Layer conv8_1_relu
I0601 17:39:24.746451  8117 net.cpp:434] conv8_1_relu <- conv8_1
I0601 17:39:24.746459  8117 net.cpp:395] conv8_1_relu -> conv8_1 (in-place)
I0601 17:39:24.748600  8117 net.cpp:150] Setting up conv8_1_relu
I0601 17:39:24.748611  8117 net.cpp:157] Top shape: 4 128 5 5 (12800)
I0601 17:39:24.748615  8117 net.cpp:165] Memory required for data: 940843040
I0601 17:39:24.748618  8117 layer_factory.hpp:77] Creating layer conv8_2
I0601 17:39:24.748628  8117 net.cpp:100] Creating Layer conv8_2
I0601 17:39:24.748634  8117 net.cpp:434] conv8_2 <- conv8_1
I0601 17:39:24.748643  8117 net.cpp:408] conv8_2 -> conv8_2
I0601 17:39:24.755651  8117 net.cpp:150] Setting up conv8_2
I0601 17:39:24.755663  8117 net.cpp:157] Top shape: 4 256 3 3 (9216)
I0601 17:39:24.755666  8117 net.cpp:165] Memory required for data: 940879904
I0601 17:39:24.755674  8117 layer_factory.hpp:77] Creating layer conv8_2_relu
I0601 17:39:24.755686  8117 net.cpp:100] Creating Layer conv8_2_relu
I0601 17:39:24.755692  8117 net.cpp:434] conv8_2_relu <- conv8_2
I0601 17:39:24.755700  8117 net.cpp:395] conv8_2_relu -> conv8_2 (in-place)
I0601 17:39:24.757825  8117 net.cpp:150] Setting up conv8_2_relu
I0601 17:39:24.757834  8117 net.cpp:157] Top shape: 4 256 3 3 (9216)
I0601 17:39:24.757838  8117 net.cpp:165] Memory required for data: 940916768
I0601 17:39:24.757840  8117 layer_factory.hpp:77] Creating layer conv8_2_conv8_2_relu_0_split
I0601 17:39:24.757849  8117 net.cpp:100] Creating Layer conv8_2_conv8_2_relu_0_split
I0601 17:39:24.757855  8117 net.cpp:434] conv8_2_conv8_2_relu_0_split <- conv8_2
I0601 17:39:24.757863  8117 net.cpp:408] conv8_2_conv8_2_relu_0_split -> conv8_2_conv8_2_relu_0_split_0
I0601 17:39:24.757872  8117 net.cpp:408] conv8_2_conv8_2_relu_0_split -> conv8_2_conv8_2_relu_0_split_1
I0601 17:39:24.757882  8117 net.cpp:408] conv8_2_conv8_2_relu_0_split -> conv8_2_conv8_2_relu_0_split_2
I0601 17:39:24.757891  8117 net.cpp:408] conv8_2_conv8_2_relu_0_split -> conv8_2_conv8_2_relu_0_split_3
I0601 17:39:24.757967  8117 net.cpp:150] Setting up conv8_2_conv8_2_relu_0_split
I0601 17:39:24.757974  8117 net.cpp:157] Top shape: 4 256 3 3 (9216)
I0601 17:39:24.757979  8117 net.cpp:157] Top shape: 4 256 3 3 (9216)
I0601 17:39:24.757983  8117 net.cpp:157] Top shape: 4 256 3 3 (9216)
I0601 17:39:24.757987  8117 net.cpp:157] Top shape: 4 256 3 3 (9216)
I0601 17:39:24.757992  8117 net.cpp:165] Memory required for data: 941064224
I0601 17:39:24.757997  8117 layer_factory.hpp:77] Creating layer conv9_1
I0601 17:39:24.758008  8117 net.cpp:100] Creating Layer conv9_1
I0601 17:39:24.758013  8117 net.cpp:434] conv9_1 <- conv8_2_conv8_2_relu_0_split_0
I0601 17:39:24.758023  8117 net.cpp:408] conv9_1 -> conv9_1
I0601 17:39:24.764708  8117 net.cpp:150] Setting up conv9_1
I0601 17:39:24.764719  8117 net.cpp:157] Top shape: 4 128 3 3 (4608)
I0601 17:39:24.764722  8117 net.cpp:165] Memory required for data: 941082656
I0601 17:39:24.764729  8117 layer_factory.hpp:77] Creating layer conv9_1_relu
I0601 17:39:24.764741  8117 net.cpp:100] Creating Layer conv9_1_relu
I0601 17:39:24.764746  8117 net.cpp:434] conv9_1_relu <- conv9_1
I0601 17:39:24.764753  8117 net.cpp:395] conv9_1_relu -> conv9_1 (in-place)
I0601 17:39:24.766875  8117 net.cpp:150] Setting up conv9_1_relu
I0601 17:39:24.766886  8117 net.cpp:157] Top shape: 4 128 3 3 (4608)
I0601 17:39:24.766890  8117 net.cpp:165] Memory required for data: 941101088
I0601 17:39:24.766892  8117 layer_factory.hpp:77] Creating layer conv9_2
I0601 17:39:24.766919  8117 net.cpp:100] Creating Layer conv9_2
I0601 17:39:24.766926  8117 net.cpp:434] conv9_2 <- conv9_1
I0601 17:39:24.766932  8117 net.cpp:408] conv9_2 -> conv9_2
I0601 17:39:24.774920  8117 net.cpp:150] Setting up conv9_2
I0601 17:39:24.774937  8117 net.cpp:157] Top shape: 4 256 1 1 (1024)
I0601 17:39:24.774940  8117 net.cpp:165] Memory required for data: 941105184
I0601 17:39:24.774962  8117 layer_factory.hpp:77] Creating layer conv9_2_relu
I0601 17:39:24.774969  8117 net.cpp:100] Creating Layer conv9_2_relu
I0601 17:39:24.774974  8117 net.cpp:434] conv9_2_relu <- conv9_2
I0601 17:39:24.774981  8117 net.cpp:395] conv9_2_relu -> conv9_2 (in-place)
I0601 17:39:24.777086  8117 net.cpp:150] Setting up conv9_2_relu
I0601 17:39:24.777096  8117 net.cpp:157] Top shape: 4 256 1 1 (1024)
I0601 17:39:24.777098  8117 net.cpp:165] Memory required for data: 941109280
I0601 17:39:24.777102  8117 layer_factory.hpp:77] Creating layer conv9_2_conv9_2_relu_0_split
I0601 17:39:24.777108  8117 net.cpp:100] Creating Layer conv9_2_conv9_2_relu_0_split
I0601 17:39:24.777112  8117 net.cpp:434] conv9_2_conv9_2_relu_0_split <- conv9_2
I0601 17:39:24.777119  8117 net.cpp:408] conv9_2_conv9_2_relu_0_split -> conv9_2_conv9_2_relu_0_split_0
I0601 17:39:24.777127  8117 net.cpp:408] conv9_2_conv9_2_relu_0_split -> conv9_2_conv9_2_relu_0_split_1
I0601 17:39:24.777132  8117 net.cpp:408] conv9_2_conv9_2_relu_0_split -> conv9_2_conv9_2_relu_0_split_2
I0601 17:39:24.777190  8117 net.cpp:150] Setting up conv9_2_conv9_2_relu_0_split
I0601 17:39:24.777196  8117 net.cpp:157] Top shape: 4 256 1 1 (1024)
I0601 17:39:24.777199  8117 net.cpp:157] Top shape: 4 256 1 1 (1024)
I0601 17:39:24.777202  8117 net.cpp:157] Top shape: 4 256 1 1 (1024)
I0601 17:39:24.777204  8117 net.cpp:165] Memory required for data: 941121568
I0601 17:39:24.777206  8117 layer_factory.hpp:77] Creating layer conv4_3_norm
I0601 17:39:24.777214  8117 net.cpp:100] Creating Layer conv4_3_norm
I0601 17:39:24.777217  8117 net.cpp:434] conv4_3_norm <- conv4_3_relu4_3_0_split_1
I0601 17:39:24.777226  8117 net.cpp:408] conv4_3_norm -> conv4_3_norm
I0601 17:39:24.777391  8117 net.cpp:150] Setting up conv4_3_norm
I0601 17:39:24.777397  8117 net.cpp:157] Top shape: 4 512 38 38 (2957312)
I0601 17:39:24.777400  8117 net.cpp:165] Memory required for data: 952950816
I0601 17:39:24.777405  8117 layer_factory.hpp:77] Creating layer conv4_3_norm_conv4_3_norm_0_split
I0601 17:39:24.777410  8117 net.cpp:100] Creating Layer conv4_3_norm_conv4_3_norm_0_split
I0601 17:39:24.777413  8117 net.cpp:434] conv4_3_norm_conv4_3_norm_0_split <- conv4_3_norm
I0601 17:39:24.777420  8117 net.cpp:408] conv4_3_norm_conv4_3_norm_0_split -> conv4_3_norm_conv4_3_norm_0_split_0
I0601 17:39:24.777429  8117 net.cpp:408] conv4_3_norm_conv4_3_norm_0_split -> conv4_3_norm_conv4_3_norm_0_split_1
I0601 17:39:24.777436  8117 net.cpp:408] conv4_3_norm_conv4_3_norm_0_split -> conv4_3_norm_conv4_3_norm_0_split_2
I0601 17:39:24.777493  8117 net.cpp:150] Setting up conv4_3_norm_conv4_3_norm_0_split
I0601 17:39:24.777498  8117 net.cpp:157] Top shape: 4 512 38 38 (2957312)
I0601 17:39:24.777503  8117 net.cpp:157] Top shape: 4 512 38 38 (2957312)
I0601 17:39:24.777508  8117 net.cpp:157] Top shape: 4 512 38 38 (2957312)
I0601 17:39:24.777513  8117 net.cpp:165] Memory required for data: 988438560
I0601 17:39:24.777516  8117 layer_factory.hpp:77] Creating layer conv4_3_norm_mbox_loc
I0601 17:39:24.777528  8117 net.cpp:100] Creating Layer conv4_3_norm_mbox_loc
I0601 17:39:24.777532  8117 net.cpp:434] conv4_3_norm_mbox_loc <- conv4_3_norm_conv4_3_norm_0_split_0
I0601 17:39:24.777540  8117 net.cpp:408] conv4_3_norm_mbox_loc -> conv4_3_norm_mbox_loc
I0601 17:39:24.784358  8117 net.cpp:150] Setting up conv4_3_norm_mbox_loc
I0601 17:39:24.784368  8117 net.cpp:157] Top shape: 4 16 38 38 (92416)
I0601 17:39:24.784373  8117 net.cpp:165] Memory required for data: 988808224
I0601 17:39:24.784379  8117 layer_factory.hpp:77] Creating layer conv4_3_norm_mbox_loc_perm
I0601 17:39:24.784386  8117 net.cpp:100] Creating Layer conv4_3_norm_mbox_loc_perm
I0601 17:39:24.784406  8117 net.cpp:434] conv4_3_norm_mbox_loc_perm <- conv4_3_norm_mbox_loc
I0601 17:39:24.784415  8117 net.cpp:408] conv4_3_norm_mbox_loc_perm -> conv4_3_norm_mbox_loc_perm
I0601 17:39:24.784529  8117 net.cpp:150] Setting up conv4_3_norm_mbox_loc_perm
I0601 17:39:24.784536  8117 net.cpp:157] Top shape: 4 38 38 16 (92416)
I0601 17:39:24.784540  8117 net.cpp:165] Memory required for data: 989177888
I0601 17:39:24.784543  8117 layer_factory.hpp:77] Creating layer conv4_3_norm_mbox_loc_flat
I0601 17:39:24.784551  8117 net.cpp:100] Creating Layer conv4_3_norm_mbox_loc_flat
I0601 17:39:24.784559  8117 net.cpp:434] conv4_3_norm_mbox_loc_flat <- conv4_3_norm_mbox_loc_perm
I0601 17:39:24.784565  8117 net.cpp:408] conv4_3_norm_mbox_loc_flat -> conv4_3_norm_mbox_loc_flat
I0601 17:39:24.784605  8117 net.cpp:150] Setting up conv4_3_norm_mbox_loc_flat
I0601 17:39:24.784612  8117 net.cpp:157] Top shape: 4 23104 (92416)
I0601 17:39:24.784615  8117 net.cpp:165] Memory required for data: 989547552
I0601 17:39:24.784617  8117 layer_factory.hpp:77] Creating layer conv4_3_norm_mbox_conf
I0601 17:39:24.784636  8117 net.cpp:100] Creating Layer conv4_3_norm_mbox_conf
I0601 17:39:24.784641  8117 net.cpp:434] conv4_3_norm_mbox_conf <- conv4_3_norm_conv4_3_norm_0_split_1
I0601 17:39:24.784647  8117 net.cpp:408] conv4_3_norm_mbox_conf -> conv4_3_norm_mbox_conf
I0601 17:39:24.791280  8117 net.cpp:150] Setting up conv4_3_norm_mbox_conf
I0601 17:39:24.791293  8117 net.cpp:157] Top shape: 4 16 38 38 (92416)
I0601 17:39:24.791296  8117 net.cpp:165] Memory required for data: 989917216
I0601 17:39:24.791303  8117 layer_factory.hpp:77] Creating layer conv4_3_norm_mbox_conf_perm
I0601 17:39:24.791326  8117 net.cpp:100] Creating Layer conv4_3_norm_mbox_conf_perm
I0601 17:39:24.791330  8117 net.cpp:434] conv4_3_norm_mbox_conf_perm <- conv4_3_norm_mbox_conf
I0601 17:39:24.791337  8117 net.cpp:408] conv4_3_norm_mbox_conf_perm -> conv4_3_norm_mbox_conf_perm
I0601 17:39:24.791472  8117 net.cpp:150] Setting up conv4_3_norm_mbox_conf_perm
I0601 17:39:24.791479  8117 net.cpp:157] Top shape: 4 38 38 16 (92416)
I0601 17:39:24.791481  8117 net.cpp:165] Memory required for data: 990286880
I0601 17:39:24.791486  8117 layer_factory.hpp:77] Creating layer conv4_3_norm_mbox_conf_flat
I0601 17:39:24.791491  8117 net.cpp:100] Creating Layer conv4_3_norm_mbox_conf_flat
I0601 17:39:24.791496  8117 net.cpp:434] conv4_3_norm_mbox_conf_flat <- conv4_3_norm_mbox_conf_perm
I0601 17:39:24.791502  8117 net.cpp:408] conv4_3_norm_mbox_conf_flat -> conv4_3_norm_mbox_conf_flat
I0601 17:39:24.791538  8117 net.cpp:150] Setting up conv4_3_norm_mbox_conf_flat
I0601 17:39:24.791544  8117 net.cpp:157] Top shape: 4 23104 (92416)
I0601 17:39:24.791546  8117 net.cpp:165] Memory required for data: 990656544
I0601 17:39:24.791550  8117 layer_factory.hpp:77] Creating layer conv4_3_norm_mbox_priorbox
I0601 17:39:24.791558  8117 net.cpp:100] Creating Layer conv4_3_norm_mbox_priorbox
I0601 17:39:24.791563  8117 net.cpp:434] conv4_3_norm_mbox_priorbox <- conv4_3_norm_conv4_3_norm_0_split_2
I0601 17:39:24.791569  8117 net.cpp:434] conv4_3_norm_mbox_priorbox <- data_data_0_split_1
I0601 17:39:24.791577  8117 net.cpp:408] conv4_3_norm_mbox_priorbox -> conv4_3_norm_mbox_priorbox
I0601 17:39:24.791615  8117 net.cpp:150] Setting up conv4_3_norm_mbox_priorbox
I0601 17:39:24.791620  8117 net.cpp:157] Top shape: 1 2 23104 (46208)
I0601 17:39:24.791622  8117 net.cpp:165] Memory required for data: 990841376
I0601 17:39:24.791626  8117 layer_factory.hpp:77] Creating layer fc7_mbox_loc
I0601 17:39:24.791637  8117 net.cpp:100] Creating Layer fc7_mbox_loc
I0601 17:39:24.791645  8117 net.cpp:434] fc7_mbox_loc <- fc7_relu7_0_split_1
I0601 17:39:24.791652  8117 net.cpp:408] fc7_mbox_loc -> fc7_mbox_loc
I0601 17:39:24.798065  8117 net.cpp:150] Setting up fc7_mbox_loc
I0601 17:39:24.798079  8117 net.cpp:157] Top shape: 4 24 19 19 (34656)
I0601 17:39:24.798084  8117 net.cpp:165] Memory required for data: 990980000
I0601 17:39:24.798091  8117 layer_factory.hpp:77] Creating layer fc7_mbox_loc_perm
I0601 17:39:24.798102  8117 net.cpp:100] Creating Layer fc7_mbox_loc_perm
I0601 17:39:24.798118  8117 net.cpp:434] fc7_mbox_loc_perm <- fc7_mbox_loc
I0601 17:39:24.798126  8117 net.cpp:408] fc7_mbox_loc_perm -> fc7_mbox_loc_perm
I0601 17:39:24.798269  8117 net.cpp:150] Setting up fc7_mbox_loc_perm
I0601 17:39:24.798277  8117 net.cpp:157] Top shape: 4 19 19 24 (34656)
I0601 17:39:24.798281  8117 net.cpp:165] Memory required for data: 991118624
I0601 17:39:24.798285  8117 layer_factory.hpp:77] Creating layer fc7_mbox_loc_flat
I0601 17:39:24.798290  8117 net.cpp:100] Creating Layer fc7_mbox_loc_flat
I0601 17:39:24.798295  8117 net.cpp:434] fc7_mbox_loc_flat <- fc7_mbox_loc_perm
I0601 17:39:24.798305  8117 net.cpp:408] fc7_mbox_loc_flat -> fc7_mbox_loc_flat
I0601 17:39:24.798334  8117 net.cpp:150] Setting up fc7_mbox_loc_flat
I0601 17:39:24.798342  8117 net.cpp:157] Top shape: 4 8664 (34656)
I0601 17:39:24.798346  8117 net.cpp:165] Memory required for data: 991257248
I0601 17:39:24.798349  8117 layer_factory.hpp:77] Creating layer fc7_mbox_conf
I0601 17:39:24.798359  8117 net.cpp:100] Creating Layer fc7_mbox_conf
I0601 17:39:24.798364  8117 net.cpp:434] fc7_mbox_conf <- fc7_relu7_0_split_2
I0601 17:39:24.798372  8117 net.cpp:408] fc7_mbox_conf -> fc7_mbox_conf
I0601 17:39:24.805835  8117 net.cpp:150] Setting up fc7_mbox_conf
I0601 17:39:24.805850  8117 net.cpp:157] Top shape: 4 24 19 19 (34656)
I0601 17:39:24.805851  8117 net.cpp:165] Memory required for data: 991395872
I0601 17:39:24.805857  8117 layer_factory.hpp:77] Creating layer fc7_mbox_conf_perm
I0601 17:39:24.805879  8117 net.cpp:100] Creating Layer fc7_mbox_conf_perm
I0601 17:39:24.805883  8117 net.cpp:434] fc7_mbox_conf_perm <- fc7_mbox_conf
I0601 17:39:24.805891  8117 net.cpp:408] fc7_mbox_conf_perm -> fc7_mbox_conf_perm
I0601 17:39:24.806022  8117 net.cpp:150] Setting up fc7_mbox_conf_perm
I0601 17:39:24.806030  8117 net.cpp:157] Top shape: 4 19 19 24 (34656)
I0601 17:39:24.806032  8117 net.cpp:165] Memory required for data: 991534496
I0601 17:39:24.806035  8117 layer_factory.hpp:77] Creating layer fc7_mbox_conf_flat
I0601 17:39:24.806041  8117 net.cpp:100] Creating Layer fc7_mbox_conf_flat
I0601 17:39:24.806046  8117 net.cpp:434] fc7_mbox_conf_flat <- fc7_mbox_conf_perm
I0601 17:39:24.806054  8117 net.cpp:408] fc7_mbox_conf_flat -> fc7_mbox_conf_flat
I0601 17:39:24.806085  8117 net.cpp:150] Setting up fc7_mbox_conf_flat
I0601 17:39:24.806093  8117 net.cpp:157] Top shape: 4 8664 (34656)
I0601 17:39:24.806097  8117 net.cpp:165] Memory required for data: 991673120
I0601 17:39:24.806102  8117 layer_factory.hpp:77] Creating layer fc7_mbox_priorbox
I0601 17:39:24.806108  8117 net.cpp:100] Creating Layer fc7_mbox_priorbox
I0601 17:39:24.806113  8117 net.cpp:434] fc7_mbox_priorbox <- fc7_relu7_0_split_3
I0601 17:39:24.806120  8117 net.cpp:434] fc7_mbox_priorbox <- data_data_0_split_2
I0601 17:39:24.806129  8117 net.cpp:408] fc7_mbox_priorbox -> fc7_mbox_priorbox
I0601 17:39:24.806165  8117 net.cpp:150] Setting up fc7_mbox_priorbox
I0601 17:39:24.806171  8117 net.cpp:157] Top shape: 1 2 8664 (17328)
I0601 17:39:24.806175  8117 net.cpp:165] Memory required for data: 991742432
I0601 17:39:24.806179  8117 layer_factory.hpp:77] Creating layer conv6_2_mbox_loc
I0601 17:39:24.806188  8117 net.cpp:100] Creating Layer conv6_2_mbox_loc
I0601 17:39:24.806195  8117 net.cpp:434] conv6_2_mbox_loc <- conv6_2_conv6_2_relu_0_split_1
I0601 17:39:24.806205  8117 net.cpp:408] conv6_2_mbox_loc -> conv6_2_mbox_loc
I0601 17:39:24.812861  8117 net.cpp:150] Setting up conv6_2_mbox_loc
I0601 17:39:24.812875  8117 net.cpp:157] Top shape: 4 24 10 10 (9600)
I0601 17:39:24.812878  8117 net.cpp:165] Memory required for data: 991780832
I0601 17:39:24.812886  8117 layer_factory.hpp:77] Creating layer conv6_2_mbox_loc_perm
I0601 17:39:24.812894  8117 net.cpp:100] Creating Layer conv6_2_mbox_loc_perm
I0601 17:39:24.812902  8117 net.cpp:434] conv6_2_mbox_loc_perm <- conv6_2_mbox_loc
I0601 17:39:24.812908  8117 net.cpp:408] conv6_2_mbox_loc_perm -> conv6_2_mbox_loc_perm
I0601 17:39:24.813027  8117 net.cpp:150] Setting up conv6_2_mbox_loc_perm
I0601 17:39:24.813043  8117 net.cpp:157] Top shape: 4 10 10 24 (9600)
I0601 17:39:24.813045  8117 net.cpp:165] Memory required for data: 991819232
I0601 17:39:24.813048  8117 layer_factory.hpp:77] Creating layer conv6_2_mbox_loc_flat
I0601 17:39:24.813055  8117 net.cpp:100] Creating Layer conv6_2_mbox_loc_flat
I0601 17:39:24.813058  8117 net.cpp:434] conv6_2_mbox_loc_flat <- conv6_2_mbox_loc_perm
I0601 17:39:24.813066  8117 net.cpp:408] conv6_2_mbox_loc_flat -> conv6_2_mbox_loc_flat
I0601 17:39:24.813102  8117 net.cpp:150] Setting up conv6_2_mbox_loc_flat
I0601 17:39:24.813107  8117 net.cpp:157] Top shape: 4 2400 (9600)
I0601 17:39:24.813109  8117 net.cpp:165] Memory required for data: 991857632
I0601 17:39:24.813112  8117 layer_factory.hpp:77] Creating layer conv6_2_mbox_conf
I0601 17:39:24.813123  8117 net.cpp:100] Creating Layer conv6_2_mbox_conf
I0601 17:39:24.813129  8117 net.cpp:434] conv6_2_mbox_conf <- conv6_2_conv6_2_relu_0_split_2
I0601 17:39:24.813138  8117 net.cpp:408] conv6_2_mbox_conf -> conv6_2_mbox_conf
I0601 17:39:24.819684  8117 net.cpp:150] Setting up conv6_2_mbox_conf
I0601 17:39:24.819695  8117 net.cpp:157] Top shape: 4 24 10 10 (9600)
I0601 17:39:24.819699  8117 net.cpp:165] Memory required for data: 991896032
I0601 17:39:24.819705  8117 layer_factory.hpp:77] Creating layer conv6_2_mbox_conf_perm
I0601 17:39:24.819715  8117 net.cpp:100] Creating Layer conv6_2_mbox_conf_perm
I0601 17:39:24.819720  8117 net.cpp:434] conv6_2_mbox_conf_perm <- conv6_2_mbox_conf
I0601 17:39:24.819727  8117 net.cpp:408] conv6_2_mbox_conf_perm -> conv6_2_mbox_conf_perm
I0601 17:39:24.819847  8117 net.cpp:150] Setting up conv6_2_mbox_conf_perm
I0601 17:39:24.819854  8117 net.cpp:157] Top shape: 4 10 10 24 (9600)
I0601 17:39:24.819857  8117 net.cpp:165] Memory required for data: 991934432
I0601 17:39:24.819861  8117 layer_factory.hpp:77] Creating layer conv6_2_mbox_conf_flat
I0601 17:39:24.819866  8117 net.cpp:100] Creating Layer conv6_2_mbox_conf_flat
I0601 17:39:24.819870  8117 net.cpp:434] conv6_2_mbox_conf_flat <- conv6_2_mbox_conf_perm
I0601 17:39:24.819877  8117 net.cpp:408] conv6_2_mbox_conf_flat -> conv6_2_mbox_conf_flat
I0601 17:39:24.819910  8117 net.cpp:150] Setting up conv6_2_mbox_conf_flat
I0601 17:39:24.819916  8117 net.cpp:157] Top shape: 4 2400 (9600)
I0601 17:39:24.819917  8117 net.cpp:165] Memory required for data: 991972832
I0601 17:39:24.819921  8117 layer_factory.hpp:77] Creating layer conv6_2_mbox_priorbox
I0601 17:39:24.819928  8117 net.cpp:100] Creating Layer conv6_2_mbox_priorbox
I0601 17:39:24.819936  8117 net.cpp:434] conv6_2_mbox_priorbox <- conv6_2_conv6_2_relu_0_split_3
I0601 17:39:24.819941  8117 net.cpp:434] conv6_2_mbox_priorbox <- data_data_0_split_3
I0601 17:39:24.819952  8117 net.cpp:408] conv6_2_mbox_priorbox -> conv6_2_mbox_priorbox
I0601 17:39:24.819986  8117 net.cpp:150] Setting up conv6_2_mbox_priorbox
I0601 17:39:24.819993  8117 net.cpp:157] Top shape: 1 2 2400 (4800)
I0601 17:39:24.819995  8117 net.cpp:165] Memory required for data: 991992032
I0601 17:39:24.819998  8117 layer_factory.hpp:77] Creating layer conv7_2_mbox_loc
I0601 17:39:24.820010  8117 net.cpp:100] Creating Layer conv7_2_mbox_loc
I0601 17:39:24.820019  8117 net.cpp:434] conv7_2_mbox_loc <- conv7_2_conv7_2_relu_0_split_1
I0601 17:39:24.820027  8117 net.cpp:408] conv7_2_mbox_loc -> conv7_2_mbox_loc
I0601 17:39:24.826542  8117 net.cpp:150] Setting up conv7_2_mbox_loc
I0601 17:39:24.826552  8117 net.cpp:157] Top shape: 4 24 5 5 (2400)
I0601 17:39:24.826555  8117 net.cpp:165] Memory required for data: 992001632
I0601 17:39:24.826562  8117 layer_factory.hpp:77] Creating layer conv7_2_mbox_loc_perm
I0601 17:39:24.826570  8117 net.cpp:100] Creating Layer conv7_2_mbox_loc_perm
I0601 17:39:24.826576  8117 net.cpp:434] conv7_2_mbox_loc_perm <- conv7_2_mbox_loc
I0601 17:39:24.826584  8117 net.cpp:408] conv7_2_mbox_loc_perm -> conv7_2_mbox_loc_perm
I0601 17:39:24.826702  8117 net.cpp:150] Setting up conv7_2_mbox_loc_perm
I0601 17:39:24.826709  8117 net.cpp:157] Top shape: 4 5 5 24 (2400)
I0601 17:39:24.826711  8117 net.cpp:165] Memory required for data: 992011232
I0601 17:39:24.826728  8117 layer_factory.hpp:77] Creating layer conv7_2_mbox_loc_flat
I0601 17:39:24.826735  8117 net.cpp:100] Creating Layer conv7_2_mbox_loc_flat
I0601 17:39:24.826742  8117 net.cpp:434] conv7_2_mbox_loc_flat <- conv7_2_mbox_loc_perm
I0601 17:39:24.826750  8117 net.cpp:408] conv7_2_mbox_loc_flat -> conv7_2_mbox_loc_flat
I0601 17:39:24.826782  8117 net.cpp:150] Setting up conv7_2_mbox_loc_flat
I0601 17:39:24.826787  8117 net.cpp:157] Top shape: 4 600 (2400)
I0601 17:39:24.826791  8117 net.cpp:165] Memory required for data: 992020832
I0601 17:39:24.826793  8117 layer_factory.hpp:77] Creating layer conv7_2_mbox_conf
I0601 17:39:24.826802  8117 net.cpp:100] Creating Layer conv7_2_mbox_conf
I0601 17:39:24.826808  8117 net.cpp:434] conv7_2_mbox_conf <- conv7_2_conv7_2_relu_0_split_2
I0601 17:39:24.826817  8117 net.cpp:408] conv7_2_mbox_conf -> conv7_2_mbox_conf
I0601 17:39:24.833313  8117 net.cpp:150] Setting up conv7_2_mbox_conf
I0601 17:39:24.833323  8117 net.cpp:157] Top shape: 4 24 5 5 (2400)
I0601 17:39:24.833325  8117 net.cpp:165] Memory required for data: 992030432
I0601 17:39:24.833333  8117 layer_factory.hpp:77] Creating layer conv7_2_mbox_conf_perm
I0601 17:39:24.833344  8117 net.cpp:100] Creating Layer conv7_2_mbox_conf_perm
I0601 17:39:24.833350  8117 net.cpp:434] conv7_2_mbox_conf_perm <- conv7_2_mbox_conf
I0601 17:39:24.833358  8117 net.cpp:408] conv7_2_mbox_conf_perm -> conv7_2_mbox_conf_perm
I0601 17:39:24.833499  8117 net.cpp:150] Setting up conv7_2_mbox_conf_perm
I0601 17:39:24.833509  8117 net.cpp:157] Top shape: 4 5 5 24 (2400)
I0601 17:39:24.833513  8117 net.cpp:165] Memory required for data: 992040032
I0601 17:39:24.833516  8117 layer_factory.hpp:77] Creating layer conv7_2_mbox_conf_flat
I0601 17:39:24.833523  8117 net.cpp:100] Creating Layer conv7_2_mbox_conf_flat
I0601 17:39:24.833531  8117 net.cpp:434] conv7_2_mbox_conf_flat <- conv7_2_mbox_conf_perm
I0601 17:39:24.833537  8117 net.cpp:408] conv7_2_mbox_conf_flat -> conv7_2_mbox_conf_flat
I0601 17:39:24.833570  8117 net.cpp:150] Setting up conv7_2_mbox_conf_flat
I0601 17:39:24.833576  8117 net.cpp:157] Top shape: 4 600 (2400)
I0601 17:39:24.833580  8117 net.cpp:165] Memory required for data: 992049632
I0601 17:39:24.833583  8117 layer_factory.hpp:77] Creating layer conv7_2_mbox_priorbox
I0601 17:39:24.833591  8117 net.cpp:100] Creating Layer conv7_2_mbox_priorbox
I0601 17:39:24.833596  8117 net.cpp:434] conv7_2_mbox_priorbox <- conv7_2_conv7_2_relu_0_split_3
I0601 17:39:24.833603  8117 net.cpp:434] conv7_2_mbox_priorbox <- data_data_0_split_4
I0601 17:39:24.833611  8117 net.cpp:408] conv7_2_mbox_priorbox -> conv7_2_mbox_priorbox
I0601 17:39:24.833642  8117 net.cpp:150] Setting up conv7_2_mbox_priorbox
I0601 17:39:24.833649  8117 net.cpp:157] Top shape: 1 2 600 (1200)
I0601 17:39:24.833653  8117 net.cpp:165] Memory required for data: 992054432
I0601 17:39:24.833657  8117 layer_factory.hpp:77] Creating layer conv8_2_mbox_loc
I0601 17:39:24.833668  8117 net.cpp:100] Creating Layer conv8_2_mbox_loc
I0601 17:39:24.833673  8117 net.cpp:434] conv8_2_mbox_loc <- conv8_2_conv8_2_relu_0_split_1
I0601 17:39:24.833681  8117 net.cpp:408] conv8_2_mbox_loc -> conv8_2_mbox_loc
I0601 17:39:24.845640  8117 net.cpp:150] Setting up conv8_2_mbox_loc
I0601 17:39:24.845659  8117 net.cpp:157] Top shape: 4 16 3 3 (576)
I0601 17:39:24.845661  8117 net.cpp:165] Memory required for data: 992056736
I0601 17:39:24.845698  8117 layer_factory.hpp:77] Creating layer conv8_2_mbox_loc_perm
I0601 17:39:24.845710  8117 net.cpp:100] Creating Layer conv8_2_mbox_loc_perm
I0601 17:39:24.845715  8117 net.cpp:434] conv8_2_mbox_loc_perm <- conv8_2_mbox_loc
I0601 17:39:24.845721  8117 net.cpp:408] conv8_2_mbox_loc_perm -> conv8_2_mbox_loc_perm
I0601 17:39:24.845885  8117 net.cpp:150] Setting up conv8_2_mbox_loc_perm
I0601 17:39:24.845892  8117 net.cpp:157] Top shape: 4 3 3 16 (576)
I0601 17:39:24.845894  8117 net.cpp:165] Memory required for data: 992059040
I0601 17:39:24.845896  8117 layer_factory.hpp:77] Creating layer conv8_2_mbox_loc_flat
I0601 17:39:24.845916  8117 net.cpp:100] Creating Layer conv8_2_mbox_loc_flat
I0601 17:39:24.845922  8117 net.cpp:434] conv8_2_mbox_loc_flat <- conv8_2_mbox_loc_perm
I0601 17:39:24.845929  8117 net.cpp:408] conv8_2_mbox_loc_flat -> conv8_2_mbox_loc_flat
I0601 17:39:24.845963  8117 net.cpp:150] Setting up conv8_2_mbox_loc_flat
I0601 17:39:24.845970  8117 net.cpp:157] Top shape: 4 144 (576)
I0601 17:39:24.845973  8117 net.cpp:165] Memory required for data: 992061344
I0601 17:39:24.845974  8117 layer_factory.hpp:77] Creating layer conv8_2_mbox_conf
I0601 17:39:24.845986  8117 net.cpp:100] Creating Layer conv8_2_mbox_conf
I0601 17:39:24.845993  8117 net.cpp:434] conv8_2_mbox_conf <- conv8_2_conv8_2_relu_0_split_2
I0601 17:39:24.845999  8117 net.cpp:408] conv8_2_mbox_conf -> conv8_2_mbox_conf
I0601 17:39:24.852192  8117 net.cpp:150] Setting up conv8_2_mbox_conf
I0601 17:39:24.852205  8117 net.cpp:157] Top shape: 4 16 3 3 (576)
I0601 17:39:24.852207  8117 net.cpp:165] Memory required for data: 992063648
I0601 17:39:24.852214  8117 layer_factory.hpp:77] Creating layer conv8_2_mbox_conf_perm
I0601 17:39:24.852222  8117 net.cpp:100] Creating Layer conv8_2_mbox_conf_perm
I0601 17:39:24.852232  8117 net.cpp:434] conv8_2_mbox_conf_perm <- conv8_2_mbox_conf
I0601 17:39:24.852241  8117 net.cpp:408] conv8_2_mbox_conf_perm -> conv8_2_mbox_conf_perm
I0601 17:39:24.852368  8117 net.cpp:150] Setting up conv8_2_mbox_conf_perm
I0601 17:39:24.852375  8117 net.cpp:157] Top shape: 4 3 3 16 (576)
I0601 17:39:24.852376  8117 net.cpp:165] Memory required for data: 992065952
I0601 17:39:24.852380  8117 layer_factory.hpp:77] Creating layer conv8_2_mbox_conf_flat
I0601 17:39:24.852385  8117 net.cpp:100] Creating Layer conv8_2_mbox_conf_flat
I0601 17:39:24.852390  8117 net.cpp:434] conv8_2_mbox_conf_flat <- conv8_2_mbox_conf_perm
I0601 17:39:24.852396  8117 net.cpp:408] conv8_2_mbox_conf_flat -> conv8_2_mbox_conf_flat
I0601 17:39:24.852427  8117 net.cpp:150] Setting up conv8_2_mbox_conf_flat
I0601 17:39:24.852432  8117 net.cpp:157] Top shape: 4 144 (576)
I0601 17:39:24.852433  8117 net.cpp:165] Memory required for data: 992068256
I0601 17:39:24.852437  8117 layer_factory.hpp:77] Creating layer conv8_2_mbox_priorbox
I0601 17:39:24.852444  8117 net.cpp:100] Creating Layer conv8_2_mbox_priorbox
I0601 17:39:24.852449  8117 net.cpp:434] conv8_2_mbox_priorbox <- conv8_2_conv8_2_relu_0_split_3
I0601 17:39:24.852454  8117 net.cpp:434] conv8_2_mbox_priorbox <- data_data_0_split_5
I0601 17:39:24.852463  8117 net.cpp:408] conv8_2_mbox_priorbox -> conv8_2_mbox_priorbox
I0601 17:39:24.852496  8117 net.cpp:150] Setting up conv8_2_mbox_priorbox
I0601 17:39:24.852502  8117 net.cpp:157] Top shape: 1 2 144 (288)
I0601 17:39:24.852504  8117 net.cpp:165] Memory required for data: 992069408
I0601 17:39:24.852506  8117 layer_factory.hpp:77] Creating layer conv9_2_mbox_loc
I0601 17:39:24.852519  8117 net.cpp:100] Creating Layer conv9_2_mbox_loc
I0601 17:39:24.852524  8117 net.cpp:434] conv9_2_mbox_loc <- conv9_2_conv9_2_relu_0_split_0
I0601 17:39:24.852530  8117 net.cpp:408] conv9_2_mbox_loc -> conv9_2_mbox_loc
I0601 17:39:24.860790  8117 net.cpp:150] Setting up conv9_2_mbox_loc
I0601 17:39:24.860801  8117 net.cpp:157] Top shape: 4 16 1 1 (64)
I0601 17:39:24.860803  8117 net.cpp:165] Memory required for data: 992069664
I0601 17:39:24.860810  8117 layer_factory.hpp:77] Creating layer conv9_2_mbox_loc_perm
I0601 17:39:24.860817  8117 net.cpp:100] Creating Layer conv9_2_mbox_loc_perm
I0601 17:39:24.860826  8117 net.cpp:434] conv9_2_mbox_loc_perm <- conv9_2_mbox_loc
I0601 17:39:24.860833  8117 net.cpp:408] conv9_2_mbox_loc_perm -> conv9_2_mbox_loc_perm
I0601 17:39:24.860951  8117 net.cpp:150] Setting up conv9_2_mbox_loc_perm
I0601 17:39:24.860958  8117 net.cpp:157] Top shape: 4 1 1 16 (64)
I0601 17:39:24.860960  8117 net.cpp:165] Memory required for data: 992069920
I0601 17:39:24.860962  8117 layer_factory.hpp:77] Creating layer conv9_2_mbox_loc_flat
I0601 17:39:24.860967  8117 net.cpp:100] Creating Layer conv9_2_mbox_loc_flat
I0601 17:39:24.860971  8117 net.cpp:434] conv9_2_mbox_loc_flat <- conv9_2_mbox_loc_perm
I0601 17:39:24.860991  8117 net.cpp:408] conv9_2_mbox_loc_flat -> conv9_2_mbox_loc_flat
I0601 17:39:24.861022  8117 net.cpp:150] Setting up conv9_2_mbox_loc_flat
I0601 17:39:24.861028  8117 net.cpp:157] Top shape: 4 16 (64)
I0601 17:39:24.861030  8117 net.cpp:165] Memory required for data: 992070176
I0601 17:39:24.861033  8117 layer_factory.hpp:77] Creating layer conv9_2_mbox_conf
I0601 17:39:24.861042  8117 net.cpp:100] Creating Layer conv9_2_mbox_conf
I0601 17:39:24.861048  8117 net.cpp:434] conv9_2_mbox_conf <- conv9_2_conv9_2_relu_0_split_1
I0601 17:39:24.861057  8117 net.cpp:408] conv9_2_mbox_conf -> conv9_2_mbox_conf
I0601 17:39:24.866149  8117 net.cpp:150] Setting up conv9_2_mbox_conf
I0601 17:39:24.866158  8117 net.cpp:157] Top shape: 4 16 1 1 (64)
I0601 17:39:24.866161  8117 net.cpp:165] Memory required for data: 992070432
I0601 17:39:24.866166  8117 layer_factory.hpp:77] Creating layer conv9_2_mbox_conf_perm
I0601 17:39:24.866174  8117 net.cpp:100] Creating Layer conv9_2_mbox_conf_perm
I0601 17:39:24.866185  8117 net.cpp:434] conv9_2_mbox_conf_perm <- conv9_2_mbox_conf
I0601 17:39:24.866194  8117 net.cpp:408] conv9_2_mbox_conf_perm -> conv9_2_mbox_conf_perm
I0601 17:39:24.866312  8117 net.cpp:150] Setting up conv9_2_mbox_conf_perm
I0601 17:39:24.866318  8117 net.cpp:157] Top shape: 4 1 1 16 (64)
I0601 17:39:24.866320  8117 net.cpp:165] Memory required for data: 992070688
I0601 17:39:24.866322  8117 layer_factory.hpp:77] Creating layer conv9_2_mbox_conf_flat
I0601 17:39:24.866328  8117 net.cpp:100] Creating Layer conv9_2_mbox_conf_flat
I0601 17:39:24.866331  8117 net.cpp:434] conv9_2_mbox_conf_flat <- conv9_2_mbox_conf_perm
I0601 17:39:24.866338  8117 net.cpp:408] conv9_2_mbox_conf_flat -> conv9_2_mbox_conf_flat
I0601 17:39:24.866367  8117 net.cpp:150] Setting up conv9_2_mbox_conf_flat
I0601 17:39:24.866374  8117 net.cpp:157] Top shape: 4 16 (64)
I0601 17:39:24.866377  8117 net.cpp:165] Memory required for data: 992070944
I0601 17:39:24.866379  8117 layer_factory.hpp:77] Creating layer conv9_2_mbox_priorbox
I0601 17:39:24.866386  8117 net.cpp:100] Creating Layer conv9_2_mbox_priorbox
I0601 17:39:24.866390  8117 net.cpp:434] conv9_2_mbox_priorbox <- conv9_2_conv9_2_relu_0_split_2
I0601 17:39:24.866396  8117 net.cpp:434] conv9_2_mbox_priorbox <- data_data_0_split_6
I0601 17:39:24.866408  8117 net.cpp:408] conv9_2_mbox_priorbox -> conv9_2_mbox_priorbox
I0601 17:39:24.866442  8117 net.cpp:150] Setting up conv9_2_mbox_priorbox
I0601 17:39:24.866447  8117 net.cpp:157] Top shape: 1 2 16 (32)
I0601 17:39:24.866451  8117 net.cpp:165] Memory required for data: 992071072
I0601 17:39:24.866452  8117 layer_factory.hpp:77] Creating layer mbox_loc
I0601 17:39:24.866458  8117 net.cpp:100] Creating Layer mbox_loc
I0601 17:39:24.866464  8117 net.cpp:434] mbox_loc <- conv4_3_norm_mbox_loc_flat
I0601 17:39:24.866472  8117 net.cpp:434] mbox_loc <- fc7_mbox_loc_flat
I0601 17:39:24.866478  8117 net.cpp:434] mbox_loc <- conv6_2_mbox_loc_flat
I0601 17:39:24.866484  8117 net.cpp:434] mbox_loc <- conv7_2_mbox_loc_flat
I0601 17:39:24.866489  8117 net.cpp:434] mbox_loc <- conv8_2_mbox_loc_flat
I0601 17:39:24.866495  8117 net.cpp:434] mbox_loc <- conv9_2_mbox_loc_flat
I0601 17:39:24.866503  8117 net.cpp:408] mbox_loc -> mbox_loc
I0601 17:39:24.866533  8117 net.cpp:150] Setting up mbox_loc
I0601 17:39:24.866539  8117 net.cpp:157] Top shape: 4 34928 (139712)
I0601 17:39:24.866541  8117 net.cpp:165] Memory required for data: 992629920
I0601 17:39:24.866544  8117 layer_factory.hpp:77] Creating layer mbox_conf
I0601 17:39:24.866549  8117 net.cpp:100] Creating Layer mbox_conf
I0601 17:39:24.866554  8117 net.cpp:434] mbox_conf <- conv4_3_norm_mbox_conf_flat
I0601 17:39:24.866559  8117 net.cpp:434] mbox_conf <- fc7_mbox_conf_flat
I0601 17:39:24.866564  8117 net.cpp:434] mbox_conf <- conv6_2_mbox_conf_flat
I0601 17:39:24.866569  8117 net.cpp:434] mbox_conf <- conv7_2_mbox_conf_flat
I0601 17:39:24.866574  8117 net.cpp:434] mbox_conf <- conv8_2_mbox_conf_flat
I0601 17:39:24.866580  8117 net.cpp:434] mbox_conf <- conv9_2_mbox_conf_flat
I0601 17:39:24.866595  8117 net.cpp:408] mbox_conf -> mbox_conf
I0601 17:39:24.866626  8117 net.cpp:150] Setting up mbox_conf
I0601 17:39:24.866632  8117 net.cpp:157] Top shape: 4 34928 (139712)
I0601 17:39:24.866636  8117 net.cpp:165] Memory required for data: 993188768
I0601 17:39:24.866638  8117 layer_factory.hpp:77] Creating layer mbox_priorbox
I0601 17:39:24.866643  8117 net.cpp:100] Creating Layer mbox_priorbox
I0601 17:39:24.866647  8117 net.cpp:434] mbox_priorbox <- conv4_3_norm_mbox_priorbox
I0601 17:39:24.866653  8117 net.cpp:434] mbox_priorbox <- fc7_mbox_priorbox
I0601 17:39:24.866659  8117 net.cpp:434] mbox_priorbox <- conv6_2_mbox_priorbox
I0601 17:39:24.866663  8117 net.cpp:434] mbox_priorbox <- conv7_2_mbox_priorbox
I0601 17:39:24.866667  8117 net.cpp:434] mbox_priorbox <- conv8_2_mbox_priorbox
I0601 17:39:24.866673  8117 net.cpp:434] mbox_priorbox <- conv9_2_mbox_priorbox
I0601 17:39:24.866679  8117 net.cpp:408] mbox_priorbox -> mbox_priorbox
I0601 17:39:24.866709  8117 net.cpp:150] Setting up mbox_priorbox
I0601 17:39:24.866715  8117 net.cpp:157] Top shape: 1 2 34928 (69856)
I0601 17:39:24.866717  8117 net.cpp:165] Memory required for data: 993468192
I0601 17:39:24.866720  8117 layer_factory.hpp:77] Creating layer mbox_conf_reshape
I0601 17:39:24.866727  8117 net.cpp:100] Creating Layer mbox_conf_reshape
I0601 17:39:24.866731  8117 net.cpp:434] mbox_conf_reshape <- mbox_conf
I0601 17:39:24.866740  8117 net.cpp:408] mbox_conf_reshape -> mbox_conf_reshape
I0601 17:39:24.866773  8117 net.cpp:150] Setting up mbox_conf_reshape
I0601 17:39:24.866780  8117 net.cpp:157] Top shape: 4 8732 4 (139712)
I0601 17:39:24.866782  8117 net.cpp:165] Memory required for data: 994027040
I0601 17:39:24.866786  8117 layer_factory.hpp:77] Creating layer mbox_conf_softmax
I0601 17:39:24.866792  8117 net.cpp:100] Creating Layer mbox_conf_softmax
I0601 17:39:24.866797  8117 net.cpp:434] mbox_conf_softmax <- mbox_conf_reshape
I0601 17:39:24.866804  8117 net.cpp:408] mbox_conf_softmax -> mbox_conf_softmax
I0601 17:39:24.868052  8117 net.cpp:150] Setting up mbox_conf_softmax
I0601 17:39:24.868060  8117 net.cpp:157] Top shape: 4 8732 4 (139712)
I0601 17:39:24.868062  8117 net.cpp:165] Memory required for data: 994585888
I0601 17:39:24.868065  8117 layer_factory.hpp:77] Creating layer mbox_conf_flatten
I0601 17:39:24.868072  8117 net.cpp:100] Creating Layer mbox_conf_flatten
I0601 17:39:24.868077  8117 net.cpp:434] mbox_conf_flatten <- mbox_conf_softmax
I0601 17:39:24.868086  8117 net.cpp:408] mbox_conf_flatten -> mbox_conf_flatten
I0601 17:39:24.868119  8117 net.cpp:150] Setting up mbox_conf_flatten
I0601 17:39:24.868124  8117 net.cpp:157] Top shape: 4 34928 (139712)
I0601 17:39:24.868126  8117 net.cpp:165] Memory required for data: 995144736
I0601 17:39:24.868129  8117 layer_factory.hpp:77] Creating layer detection_out
I0601 17:39:24.868140  8117 net.cpp:100] Creating Layer detection_out
I0601 17:39:24.868146  8117 net.cpp:434] detection_out <- mbox_loc
I0601 17:39:24.868151  8117 net.cpp:434] detection_out <- mbox_conf_flatten
I0601 17:39:24.868155  8117 net.cpp:434] detection_out <- mbox_priorbox
I0601 17:39:24.868161  8117 net.cpp:408] detection_out -> detection_out
I0601 17:39:24.870223  8117 net.cpp:150] Setting up detection_out
I0601 17:39:24.870234  8117 net.cpp:157] Top shape: 1 1 1 7 (7)
I0601 17:39:24.870239  8117 net.cpp:165] Memory required for data: 995144764
I0601 17:39:24.870241  8117 layer_factory.hpp:77] Creating layer detection_eval
I0601 17:39:24.870249  8117 net.cpp:100] Creating Layer detection_eval
I0601 17:39:24.870255  8117 net.cpp:434] detection_eval <- detection_out
I0601 17:39:24.870260  8117 net.cpp:434] detection_eval <- label
I0601 17:39:24.870266  8117 net.cpp:408] detection_eval -> detection_eval
I0601 17:39:24.871752  8117 net.cpp:150] Setting up detection_eval
I0601 17:39:24.871762  8117 net.cpp:157] Top shape: 1 1 4 5 (20)
I0601 17:39:24.871767  8117 net.cpp:165] Memory required for data: 995144844
I0601 17:39:24.871769  8117 net.cpp:228] detection_eval does not need backward computation.
I0601 17:39:24.871785  8117 net.cpp:228] detection_out does not need backward computation.
I0601 17:39:24.871790  8117 net.cpp:228] mbox_conf_flatten does not need backward computation.
I0601 17:39:24.871794  8117 net.cpp:228] mbox_conf_softmax does not need backward computation.
…
