…
        min_scale: 0.3
        max_scale: 1
        min_aspect_ratio: 0.5
        max_aspect_ratio: 2
      }
      sample_constraint {
        min_jaccard_overlap: 0.9
      }
      max_sample: 1
      max_trials: 50
    }
    batch_sampler {
      sampler {
        min_scale: 0.3
        max_scale: 1
        min_aspect_ratio: 0.5
        max_aspect_ratio: 2
      }
      sample_constraint {
        max_jaccard_overlap: 1
      }
      max_sample: 1
      max_trials: 50
    }
    label_map_file: "data/tbs_300x300_HSIL_10x/labelmap_voc.prototxt"
  }
}
layer {
  name: "conv1_1"
  type: "Convolution"
  bottom: "data"
  top: "conv1_1"
  param {
    lr_mult: 1
    decay_mult: 1
  }
  param {
    lr_mult: 2
    decay_mult: 0
  }
  convolution_param {
    num_output: 64
    pad: 1
    kernel_size: 3
    weight_filler {
      type: "xavier"
    }
    bias_filler {
      type: "constant"
      value: 0
    }
  }
}
layer {
  name: "relu1_1"
  type: "ReLU"
  bottom: "conv1_1"
  top: "conv1_1"
}
layer {
  name: "conv1_2"
  type: "Convolution"
  bottom: "conv1_1"
  top: "conv1_2"
  param {
    lr_mult: 1
    decay_mult: 1
  }
  param {
    lr_mult: 2
    decay_mult: 0
  }
  convolution_param {
    num_output: 64
    pad: 1
    kernel_size: 3
    weight_filler {
      type: "xavier"
    }
    bias_filler {
      type: "constant"
      value: 0
    }
  }
}
layer {
  name: "relu1_2"
  type: "ReLU"
  bottom: "conv1_2"
  top: "conv1_2"
}
layer {
  name: "pool1"
  type: "Pooling"
  bottom: "conv1_2"
  top: "pool1"
  pooling_param {
    pool: MAX
    kernel_size: 2
    stride: 2
  }
}
layer {
  name: "conv2_1"
  type: "Convolution"
  bottom: "pool1"
  top: "conv2_1"
  param {
    lr_mult: 1
    decay_mult: 1
  }
  param {
    lr_mult: 2
    decay_mult: 0
  }
  convolution_param {
    num_output: 128
    pad: 1
    kernel_size: 3
    weight_filler {
      type: "xavier"
    }
    bias_filler {
      type: "constant"
      value: 0
    }
  }
}
layer {
  name: "relu2_1"
  type: "ReLU"
  bottom: "conv2_1"
  top: "conv2_1"
}
layer {
  name: "conv2_2"
  type: "Convolution"
  bottom: "conv2_1"
  top: "conv2_2"
  param {
    lr_mult: 1
    decay_mult: 1
  }
  param {
    lr_mult: 2
    decay_mult: 0
  }
  convolution_param {
    num_output: 128
    pad: 1
    kernel_size: 3
    weight_filler {
      type: "xavier"
    }
    bias_filler {
      type: "constant"
      value: 0
    }
  }
}
layer {
  name: "relu2_2"
  type: "ReLU"
  bottom: "conv2_2"
  top: "conv2_2"
}
layer {
  name: "pool2"
  type: "Pooling"
  bottom: "conv2_2"
  top: "pool2"
  pooling_param {
    pool: MAX
    kernel_size: 2
    stride: 2
  }
}
layer {
  name: "conv3_1"
  type: "Convolution"
  bottom: "pool2"
  top: "conv3_1"
  param {
    lr_mult: 1
    decay_mult: 1
  }
  param {
    lr_mult: 2
    decay_mult: 0
  }
  convolution_param {
    num_output: 256
    pad: 1
    kernel_size: 3
    weight_filler {
      type: "xavier"
    }
    bias_filler {
      type: "constant"
      value: 0
    }
  }
}
layer {
  name: "relu3_1"
  type: "ReLU"
  bottom: "conv3_1"
  top: "conv3_1"
}
layer {
  name: "conv3_2"
  type: "Convolution"
  bottom: "conv3_1"
  top: "conv3_2"
  param {
    lr_mult: 1
    decay_mult: 1
  }
  param {
    lr_mult: 2
    decay_mult: 0
  }
  convolution_param {
    num_output: 256
    pad: 1
    kernel_size: 3
    weight_filler {
      type: "xavier"
    }
    bias_filler {
      type: "constant"
      value: 0
    }
  }
}
layer {
  name: "relu3_2"
  type: "ReLU"
  bottom: "conv3_2"
  top: "conv3_2"
}
layer {
  name: "conv3_3"
  type: "Convolution"
  bottom: "conv3_2"
  top: "conv3_3"
  param {
    lr_mult: 1
    decay_mult: 1
  }
  param {
    lr_mult: 2
    decay_mult: 0
  }
  convolution_param {
    num_output: 256
    pad: 1
    kernel_size: 3
    weight_filler {
      type: "xavier"
    }
    bias_filler {
      type: "constant"
      value: 0
    }
  }
}
layer {
  name: "relu3_3"
  type: "ReLU"
  bottom: "conv3_3"
  top: "conv3_3"
}
layer {
  name: "pool3"
  type: "Pooling"
  bottom: "conv3_3"
  top: "pool3"
  pooling_param {
    pool: MAX
    kernel_size: 2
    stride: 2
  }
}
layer {
  name: "conv4_1"
  type: "Convolution"
  bottom: "pool3"
  top: "conv4_1"
  param {
    lr_mult: 1
    decay_mult: 1
  }
  param {
    lr_mult: 2
    decay_mult: 0
  }
  convolution_param {
    num_output: 512
    pad: 1
    kernel_size: 3
    weight_filler {
      type: "xavier"
    }
    bias_filler {
      type: "constant"
      value: 0
    }
  }
}
layer {
  name: "relu4_1"
  type: "ReLU"
  bottom: "conv4_1"
  top: "conv4_1"
}
layer {
  name: "conv4_2"
  type: "Convolution"
  bottom: "conv4_1"
  top: "conv4_2"
  param {
    lr_mult: 1
    decay_mult: 1
  }
  param {
    lr_mult: 2
    decay_mult: 0
  }
  convolution_param {
    num_output: 512
    pad: 1
    kernel_size: 3
    weight_filler {
      type: "xavier"
    }
    bias_filler {
      type: "constant"
      value: 0
    }
  }
}
layer {
  name: "relu4_2"
  type: "ReLU"
  bottom: "conv4_2"
  top: "conv4_2"
}
layer {
  name: "conv4_3"
  type: "Convolution"
  bottom: "conv4_2"
  top: "conv4_3"
  param {
    lr_mult: 1
    decay_mult: 1
  }
  param {
    lr_mult: 2
    decay_mult: 0
  }
  convolution_param {
    num_output: 512
    pad: 1
    kernel_size: 3
    weight_filler {
      type: "xavier"
    }
    bias_filler {
      type: "constant"
      value: 0
    }
  }
}
layer {
  name: "relu4_3"
  type: "ReLU"
  bottom: "conv4_3"
  top: "conv4_3"
}
layer {
  name: "pool4"
  type: "Pooling"
  bottom: "conv4_3"
  top: "pool4"
  pooling_param {
    pool: MAX
    kernel_size: 2
    stride: 2
  }
}
layer {
  name: "conv5_1"
  type: "Convolution"
  bottom: "pool4"
  top: "conv5_1"
  param {
    lr_mult: 1
    decay_mult: 1
  }
  param {
    lr_mult: 2
    decay_mult: 0
  }
  convolution_param {
    num_output: 512
    pad: 1
    kernel_size: 3
    weight_filler {
      type: "xavier"
    }
    bias_filler {
      type: "constant"
      value: 0
    }
    dilation: 1
  }
}
layer {
  name: "relu5_1"
  type: "ReLU"
  bottom: "conv5_1"
  top: "conv5_1"
}
layer {
  name: "conv5_2"
  type: "Convolution"
  bottom: "conv5_1"
  top: "conv5_2"
  param {
    lr_mult: 1
    decay_mult: 1
  }
  param {
    lr_mult: 2
    decay_mult: 0
  }
  convolution_param {
    num_output: 512
    pad: 1
    kernel_size: 3
    weight_filler {
      type: "xavier"
    }
    bias_filler {
      type: "constant"
      value: 0
    }
    dilation: 1
  }
}
layer {
  name: "relu5_2"
  type: "ReLU"
  bottom: "conv5_2"
  top: "conv5_2"
}
layer {
  name: "conv5_3"
  type: "Convolution"
  bottom: "conv5_2"
  top: "conv5_3"
  param {
    lr_mult: 1
    decay_mult: 1
  }
  param {
    lr_mult: 2
    decay_mult: 0
  }
  convolution_param {
    num_output: 512
    pad: 1
    kernel_size: 3
    weight_filler {
      type: "xavier"
    }
    bias_filler {
      type: "constant"
      value: 0
    }
    dilation: 1
  }
}
layer {
  name: "relu5_3"
  type: "ReLU"
  bottom: "conv5_3"
  top: "conv5_3"
}
layer {
  name: "pool5"
  type: "Pooling"
  bottom: "conv5_3"
  top: "pool5"
  pooling_param {
    pool: MAX
    kernel_size: 3
    stride: 1
    pad: 1
  }
}
layer {
  name: "fc6"
  type: "Convolution"
  bottom: "pool5"
  top: "fc6"
  param {
    lr_mult: 1
    decay_mult: 1
  }
  param {
    lr_mult: 2
    decay_mult: 0
  }
  convolution_param {
    num_output: 1024
    pad: 6
    kernel_size: 3
    weight_filler {
      type: "xavier"
    }
    bias_filler {
      type: "constant"
      value: 0
    }
    dilation: 6
  }
}
layer {
  name: "relu6"
  type: "ReLU"
  bottom: "fc6"
  top: "fc6"
}
layer {
  name: "fc7"
  type: "Convolution"
  bottom: "fc6"
  top: "fc7"
  param {
    lr_mult: 1
    decay_mult: 1
  }
  param {
    lr_mult: 2
    decay_mult: 0
  }
  convolution_param {
    num_output: 1024
    kernel_size: 1
    weight_filler {
      type: "xavier"
    }
    bias_filler {
      type: "constant"
      value: 0
    }
  }
}
layer {
  name: "relu7"
  type: "ReLU"
  bottom: "fc7"
  top: "fc7"
}
layer {
  name: "conv6_1"
  type: "Convolution"
  bottom: "fc7"
  top: "conv6_1"
  param {
    lr_mult: 1
    decay_mult: 1
  }
  param {
    lr_mult: 2
    decay_mult: 0
  }
  convolution_param {
    num_output: 256
    pad: 0
    kernel_size: 1
    stride: 1
    weight_filler {
      type: "xavier"
    }
    bias_filler {
      type: "constant"
      value: 0
    }
  }
}
layer {
  name: "conv6_1_relu"
  type: "ReLU"
  bottom: "conv6_1"
  top: "conv6_1"
}
layer {
  name: "conv6_2"
  type: "Convolution"
  bottom: "conv6_1"
  top: "conv6_2"
  param {
    lr_mult: 1
    decay_mult: 1
  }
  param {
    lr_mult: 2
    decay_mult: 0
  }
  convolution_param {
    num_output: 512
    pad: 1
    kernel_size: 3
    stride: 2
    weight_filler {
      type: "xavier"
    }
    bias_filler {
      type: "constant"
      value: 0
    }
  }
}
layer {
  name: "conv6_2_relu"
  type: "ReLU"
  bottom: "conv6_2"
  top: "conv6_2"
}
layer {
  name: "conv7_1"
  type: "Convolution"
  bottom: "conv6_2"
  top: "conv7_1"
  param {
    lr_mult: 1
    decay_mult: 1
  }
  param {
    lr_mult: 2
    decay_mult: 0
  }
  convolution_param {
    num_output: 128
    pad: 0
    kernel_size: 1
    stride: 1
    weight_filler {
      type: "xavier"
    }
    bias_filler {
      type: "constant"
      value: 0
    }
  }
}
layer {
  name: "conv7_1_relu"
  type: "ReLU"
  bottom: "conv7_1"
  top: "conv7_1"
}
layer {
  name: "conv7_2"
  type: "Convolution"
  bottom: "conv7_1"
  top: "conv7_2"
  param {
    lr_mult: 1
    decay_mult: 1
  }
  param {
    lr_mult: 2
    decay_mult: 0
  }
  convolution_param {
    num_output: 256
    pad: 1
    kernel_size: 3
    stride: 2
    weight_filler {
      type: "xavier"
    }
    bias_filler {
      type: "constant"
      value: 0
    }
  }
}
layer {
  name: "conv7_2_relu"
  type: "ReLU"
  bottom: "conv7_2"
  top: "conv7_2"
}
layer {
  name: "conv8_1"
  type: "Convolution"
  bottom: "conv7_2"
  top: "conv8_1"
  param {
    lr_mult: 1
    decay_mult: 1
  }
  param {
    lr_mult: 2
    decay_mult: 0
  }
  convolution_param {
    num_output: 128
    pad: 0
    kernel_size: 1
    stride: 1
    weight_filler {
      type: "xavier"
    }
    bias_filler {
      type: "constant"
      value: 0
    }
  }
}
layer {
  name: "conv8_1_relu"
  type: "ReLU"
  bottom: "conv8_1"
  top: "conv8_1"
}
layer {
  name: "conv8_2"
  type: "Convolution"
  bottom: "conv8_1"
  top: "conv8_2"
  param {
    lr_mult: 1
    decay_mult: 1
  }
  param {
    lr_mult: 2
    decay_mult: 0
  }
  convolution_param {
    num_output: 256
    pad: 0
    kernel_size: 3
    stride: 1
    weight_filler {
      type: "xavier"
    }
    bias_filler {
      type: "constant"
      value: 0
    }
  }
}
layer {
  name: "conv8_2_relu"
  type: "ReLU"
  bottom: "conv8_2"
  top: "conv8_2"
}
layer {
  name: "conv9_1"
  type: "Convolution"
  bottom: "conv8_2"
  top: "conv9_1"
  param {
    lr_mult: 1
    decay_mult: 1
  }
  param {
    lr_mult: 2
    decay_mult: 0
  }
  convolution_param {
    num_output: 128
    pad: 0
    kernel_size: 1
    stride: 1
    weight_filler {
      type: "xavier"
    }
    bias_filler {
      type: "constant"
      value: 0
    }
  }
}
layer {
  name: "conv9_1_relu"
  type: "ReLU"
  bottom: "conv9_1"
  top: "conv9_1"
}
layer {
  name: "conv9_2"
  type: "Convolution"
  bottom: "conv9_1"
  top: "conv9_2"
  param {
    lr_mult: 1
    decay_mult: 1
  }
  param {
    lr_mult: 2
    decay_mult: 0
  }
  convolution_param {
    num_output: 256
    pad: 0
    kernel_size: 3
    stride: 1
    weight_filler {
      type: "xavier"
    }
    bias_filler {
      type: "constant"
      value: 0
    }
  }
}
layer {
  name: "conv9_2_relu"
  type: "ReLU"
  bottom: "conv9_2"
  top: "conv9_2"
}
layer {
  name: "conv4_3_norm"
  type: "Normalize"
  bottom: "conv4_3"
  top: "conv4_3_norm"
  norm_param {
    across_spatial: false
    scale_filler {
      type: "constant"
      value: 20
    }
    channel_shared: false
  }
}
layer {
  name: "conv4_3_norm_mbox_loc"
  type: "Convolution"
  bottom: "conv4_3_norm"
  top: "conv4_3_norm_mbox_loc"
  param {
    lr_mult: 1
    decay_mult: 1
  }
  param {
    lr_mult: 2
    decay_mult: 0
  }
  convolution_param {
    num_output: 16
    pad: 1
    kernel_size: 3
    stride: 1
    weight_filler {
      type: "xavier"
    }
    bias_filler {
      type: "constant"
      value: 0
    }
  }
}
layer {
  name: "conv4_3_norm_mbox_loc_perm"
  type: "Permute"
  bottom: "conv4_3_norm_mbox_loc"
  top: "conv4_3_norm_mbox_loc_perm"
  permute_param {
    order: 0
    order: 2
    order: 3
    order: 1
  }
}
layer {
  name: "conv4_3_norm_mbox_loc_flat"
  type: "Flatten"
  bottom: "conv4_3_norm_mbox_loc_perm"
  top: "conv4_3_norm_mbox_loc_flat"
  flatten_param {
    axis: 1
  }
}
layer {
  name: "conv4_3_norm_mbox_conf"
  type: "Convolution"
  bottom: "conv4_3_norm"
  top: "conv4_3_norm_mbox_conf"
  param {
    lr_mult: 1
    decay_mult: 1
  }
  param {
    lr_mult: 2
    decay_mult: 0
  }
  convolution_param {
    num_output: 16
    pad: 1
    kernel_size: 3
    stride: 1
    weight_filler {
      type: "xavier"
    }
    bias_filler {
      type: "constant"
      value: 0
    }
  }
}
layer {
  name: "conv4_3_norm_mbox_conf_perm"
  type: "Permute"
  bottom: "conv4_3_norm_mbox_conf"
  top: "conv4_3_norm_mbox_conf_perm"
  permute_param {
    order: 0
    order: 2
    order: 3
    order: 1
  }
}
layer {
  name: "conv4_3_norm_mbox_conf_flat"
  type: "Flatten"
  bottom: "conv4_3_norm_mbox_conf_perm"
  top: "conv4_3_norm_mbox_conf_flat"
  flatten_param {
    axis: 1
  }
}
layer {
  name: "conv4_3_norm_mbox_priorbox"
  type: "PriorBox"
  bottom: "conv4_3_norm"
  bottom: "data"
  top: "conv4_3_norm_mbox_priorbox"
  prior_box_param {
    min_size: 30
    max_size: 60
    aspect_ratio: 2
    flip: true
    clip: false
    variance: 0.1
    variance: 0.1
    variance: 0.2
    variance: 0.2
    step: 8
    offset: 0.5
  }
}
layer {
  name: "fc7_mbox_loc"
  type: "Convolution"
  bottom: "fc7"
  top: "fc7_mbox_loc"
  param {
    lr_mult: 1
    decay_mult: 1
  }
  param {
    lr_mult: 2
    decay_mult: 0
  }
  convolution_param {
    num_output: 24
    pad: 1
    kernel_size: 3
    stride: 1
    weight_filler {
      type: "xavier"
    }
    bias_filler {
      type: "constant"
      value: 0
    }
  }
}
layer {
  name: "fc7_mbox_loc_perm"
  type: "Permute"
  bottom: "fc7_mbox_loc"
  top: "fc7_mbox_loc_perm"
  permute_param {
    order: 0
    order: 2
    order: 3
    order: 1
  }
}
layer {
  name: "fc7_mbox_loc_flat"
  type: "Flatten"
  bottom: "fc7_mbox_loc_perm"
  top: "fc7_mbox_loc_flat"
  flatten_param {
    axis: 1
  }
}
layer {
  name: "fc7_mbox_conf"
  type: "Convolution"
  bottom: "fc7"
  top: "fc7_mbox_conf"
  param {
    lr_mult: 1
    decay_mult: 1
  }
  param {
    lr_mult: 2
    decay_mult: 0
  }
  convolution_param {
    num_output: 24
    pad: 1
    kernel_size: 3
    stride: 1
    weight_filler {
      type: "xavier"
    }
    bias_filler {
      type: "constant"
      value: 0
    }
  }
}
layer {
  name: "fc7_mbox_conf_perm"
  type: "Permute"
  bottom: "fc7_mbox_conf"
  top: "fc7_mbox_conf_perm"
  permute_param {
    order: 0
    order: 2
    order: 3
    order: 1
  }
}
layer {
  name: "fc7_mbox_conf_flat"
  type: "Flatten"
  bottom: "fc7_mbox_conf_perm"
  top: "fc7_mbox_conf_flat"
  flatten_param {
    axis: 1
  }
}
layer {
  name: "fc7_mbox_priorbox"
  type: "PriorBox"
  bottom: "fc7"
  bottom: "data"
  top: "fc7_mbox_priorbox"
  prior_box_param {
    min_size: 60
    max_size: 111
    aspect_ratio: 2
    aspect_ratio: 3
    flip: true
    clip: false
    variance: 0.1
    variance: 0.1
    variance: 0.2
    variance: 0.2
    step: 16
    offset: 0.5
  }
}
layer {
  name: "conv6_2_mbox_loc"
  type: "Convolution"
  bottom: "conv6_2"
  top: "conv6_2_mbox_loc"
  param {
    lr_mult: 1
    decay_mult: 1
  }
  param {
    lr_mult: 2
    decay_mult: 0
  }
  convolution_param {
    num_output: 24
    pad: 1
    kernel_size: 3
    stride: 1
    weight_filler {
      type: "xavier"
    }
    bias_filler {
      type: "constant"
      value: 0
    }
  }
}
layer {
  name: "conv6_2_mbox_loc_perm"
  type: "Permute"
  bottom: "conv6_2_mbox_loc"
  top: "conv6_2_mbox_loc_perm"
  permute_param {
    order: 0
    order: 2
    order: 3
    order: 1
  }
}
layer {
  name: "conv6_2_mbox_loc_flat"
  type: "Flatten"
  bottom: "conv6_2_mbox_loc_perm"
  top: "conv6_2_mbox_loc_flat"
  flatten_param {
    axis: 1
  }
}
layer {
  name: "conv6_2_mbox_conf"
  type: "Convolution"
  bottom: "conv6_2"
  top: "conv6_2_mbox_conf"
  param {
    lr_mult: 1
    decay_mult: 1
  }
  param {
    lr_mult: 2
    decay_mult: 0
  }
  convolution_param {
    num_output: 24
    pad: 1
    kernel_size: 3
    stride: 1
    weight_filler {
      type: "xavier"
    }
    bias_filler {
      type: "constant"
      value: 0
    }
  }
}
layer {
  name: "conv6_2_mbox_conf_perm"
  type: "Permute"
  bottom: "conv6_2_mbox_conf"
  top: "conv6_2_mbox_conf_perm"
  permute_param {
    order: 0
    order: 2
    order: 3
    order: 1
  }
}
layer {
  name: "conv6_2_mbox_conf_flat"
  type: "Flatten"
  bottom: "conv6_2_mbox_conf_perm"
  top: "conv6_2_mbox_conf_flat"
  flatten_param {
    axis: 1
  }
}
layer {
  name: "conv6_2_mbox_priorbox"
  type: "PriorBox"
  bottom: "conv6_2"
  bottom: "data"
  top: "conv6_2_mbox_priorbox"
  prior_box_param {
    min_size: 111
    max_size: 162
    aspect_ratio: 2
    aspect_ratio: 3
    flip: true
    clip: false
    variance: 0.1
    variance: 0.1
    variance: 0.2
    variance: 0.2
    step: 32
    offset: 0.5
  }
}
layer {
  name: "conv7_2_mbox_loc"
  type: "Convolution"
  bottom: "conv7_2"
  top: "conv7_2_mbox_loc"
  param {
    lr_mult: 1
    decay_mult: 1
  }
  param {
    lr_mult: 2
    decay_mult: 0
  }
  convolution_param {
    num_output: 24
    pad: 1
    kernel_size: 3
    stride: 1
    weight_filler {
      type: "xavier"
    }
    bias_filler {
      type: "constant"
      value: 0
    }
  }
}
layer {
  name: "conv7_2_mbox_loc_perm"
  type: "Permute"
  bottom: "conv7_2_mbox_loc"
  top: "conv7_2_mbox_loc_perm"
  permute_param {
    order: 0
    order: 2
    order: 3
    order: 1
  }
}
layer {
  name: "conv7_2_mbox_loc_flat"
  type: "Flatten"
  bottom: "conv7_2_mbox_loc_perm"
  top: "conv7_2_mbox_loc_flat"
  flatten_param {
    axis: 1
  }
}
layer {
  name: "conv7_2_mbox_conf"
  type: "Convolution"
  bottom: "conv7_2"
  top: "conv7_2_mbox_conf"
  param {
    lr_mult: 1
    decay_mult: 1
  }
  param {
    lr_mult: 2
    decay_mult: 0
  }
  convolution_param {
    num_output: 24
    pad: 1
    kernel_size: 3
    stride: 1
    weight_filler {
      type: "xavier"
    }
    bias_filler {
      type: "constant"
      value: 0
    }
  }
}
layer {
  name: "conv7_2_mbox_conf_perm"
  type: "Permute"
  bottom: "conv7_2_mbox_conf"
  top: "conv7_2_mbox_conf_perm"
  permute_param {
    order: 0
    order: 2
    order: 3
    order: 1
  }
}
layer {
  name: "conv7_2_mbox_conf_flat"
  type: "Flatten"
  bottom: "conv7_2_mbox_conf_perm"
  top: "conv7_2_mbox_conf_flat"
  flatten_param {
    axis: 1
  }
}
layer {
  name: "conv7_2_mbox_priorbox"
  type: "PriorBox"
  bottom: "conv7_2"
  bottom: "data"
  top: "conv7_2_mbox_priorbox"
  prior_box_param {
    min_size: 162
    max_size: 213
    aspect_ratio: 2
    aspect_ratio: 3
    flip: true
    clip: false
    variance: 0.1
    variance: 0.1
    variance: 0.2
    variance: 0.2
    step: 64
    offset: 0.5
  }
}
layer {
  name: "conv8_2_mbox_loc"
  type: "Convolution"
  bottom: "conv8_2"
  top: "conv8_2_mbox_loc"
  param {
    lr_mult: 1
    decay_mult: 1
  }
  param {
    lr_mult: 2
    decay_mult: 0
  }
  convolution_param {
    num_output: 16
    pad: 1
    kernel_size: 3
    stride: 1
    weight_filler {
      type: "xavier"
    }
    bias_filler {
      type: "constant"
      value: 0
    }
  }
}
layer {
  name: "conv8_2_mbox_loc_perm"
  type: "Permute"
  bottom: "conv8_2_mbox_loc"
  top: "conv8_2_mbox_loc_perm"
  permute_param {
    order: 0
    order: 2
    order: 3
    order: 1
  }
}
layer {
  name: "conv8_2_mbox_loc_flat"
  type: "Flatten"
  bottom: "conv8_2_mbox_loc_perm"
  top: "conv8_2_mbox_loc_flat"
  flatten_param {
    axis: 1
  }
}
layer {
  name: "conv8_2_mbox_conf"
  type: "Convolution"
  bottom: "conv8_2"
  top: "conv8_2_mbox_conf"
  param {
    lr_mult: 1
    decay_mult: 1
  }
  param {
    lr_mult: 2
    decay_mult: 0
  }
  convolution_param {
    num_output: 16
    pad: 1
    kernel_size: 3
    stride: 1
    weight_filler {
      type: "xavier"
    }
    bias_filler {
      type: "constant"
      value: 0
    }
  }
}
layer {
  name: "conv8_2_mbox_conf_perm"
  type: "Permute"
  bottom: "conv8_2_mbox_conf"
  top: "conv8_2_mbox_conf_perm"
  permute_param {
    order: 0
    order: 2
    order: 3
    order: 1
  }
}
layer {
  name: "conv8_2_mbox_conf_flat"
  type: "Flatten"
  bottom: "conv8_2_mbox_conf_perm"
  top: "conv8_2_mbox_conf_flat"
  flatten_param {
    axis: 1
  }
}
layer {
  name: "conv8_2_mbox_priorbox"
  type: "PriorBox"
  bottom: "conv8_2"
  bottom: "data"
  top: "conv8_2_mbox_priorbox"
  prior_box_param {
    min_size: 213
    max_size: 264
    aspect_ratio: 2
    flip: true
    clip: false
    variance: 0.1
    variance: 0.1
    variance: 0.2
    variance: 0.2
    step: 100
    offset: 0.5
  }
}
layer {
  name: "conv9_2_mbox_loc"
  type: "Convolution"
  bottom: "conv9_2"
  top: "conv9_2_mbox_loc"
  param {
    lr_mult: 1
    decay_mult: 1
  }
  param {
    lr_mult: 2
    decay_mult: 0
  }
  convolution_param {
    num_output: 16
    pad: 1
    kernel_size: 3
    stride: 1
    weight_filler {
      type: "xavier"
    }
    bias_filler {
      type: "constant"
      value: 0
    }
  }
}
layer {
  name: "conv9_2_mbox_loc_perm"
  type: "Permute"
  bottom: "conv9_2_mbox_loc"
  top: "conv9_2_mbox_loc_perm"
  permute_param {
    order: 0
    order: 2
    order: 3
    order: 1
  }
}
layer {
  name: "conv9_2_mbox_loc_flat"
  type: "Flatten"
  bottom: "conv9_2_mbox_loc_perm"
  top: "conv9_2_mbox_loc_flat"
  flatten_param {
    axis: 1
  }
}
layer {
  name: "conv9_2_mbox_conf"
  type: "Convolution"
  bottom: "conv9_2"
  top: "conv9_2_mbox_conf"
  param {
    lr_mult: 1
    decay_mult: 1
  }
  param {
    lr_mult: 2
    decay_mult: 0
  }
  convolution_param {
    num_output: 16
    pad: 1
    kernel_size: 3
    stride: 1
    weight_filler {
      type: "xavier"
    }
    bias_filler {
      type: "constant"
      value: 0
    }
  }
}
layer {
  name: "conv9_2_mbox_conf_perm"
  type: "Permute"
  bottom: "conv9_2_mbox_conf"
  top: "conv9_2_mbox_conf_perm"
  permute_param {
    order: 0
    order: 2
    order: 3
    order: 1
  }
}
layer {
  name: "conv9_2_mbox_conf_flat"
  type: "Flatten"
  bottom: "conv9_2_mbox_conf_perm"
  top: "conv9_2_mbox_conf_flat"
  flatten_param {
    axis: 1
  }
}
layer {
  name: "conv9_2_mbox_priorbox"
  type: "PriorBox"
  bottom: "conv9_2"
  bottom: "data"
  top: "conv9_2_mbox_priorbox"
  prior_box_param {
    min_size: 264
    max_size: 315
    aspect_ratio: 2
    flip: true
    clip: false
    variance: 0.1
    variance: 0.1
    variance: 0.2
    variance: 0.2
    step: 300
    offset: 0.5
  }
}
layer {
  name: "mbox_loc"
  type: "Concat"
  bottom: "conv4_3_norm_mbox_loc_flat"
  bottom: "fc7_mbox_loc_flat"
  bottom: "conv6_2_mbox_loc_flat"
  bottom: "conv7_2_mbox_loc_flat"
  bottom: "conv8_2_mbox_loc_flat"
  bottom: "conv9_2_mbox_loc_flat"
  top: "mbox_loc"
  concat_param {
    axis: 1
  }
}
layer {
  name: "mbox_conf"
  type: "Concat"
  bottom: "conv4_3_norm_mbox_conf_flat"
  bottom: "fc7_mbox_conf_flat"
  bottom: "conv6_2_mbox_conf_flat"
  bottom: "conv7_2_mbox_conf_flat"
  bottom: "conv8_2_mbox_conf_flat"
  bottom: "conv9_2_mbox_conf_flat"
  top: "mbox_conf"
  concat_param {
    axis: 1
  }
}
layer {
  name: "mbox_priorbox"
  type: "Concat"
  bottom: "conv4_3_norm_mbox_priorbox"
  bottom: "fc7_mbox_priorbox"
  bottom: "conv6_2_mbox_priorbox"
  bottom: "conv7_2_mbox_priorbox"
  bottom: "conv8_2_mbox_priorbox"
  bottom: "conv9_2_mbox_priorbox"
  top: "mbox_priorbox"
  concat_param {
    axis: 2
  }
}
layer {
  name: "mbox_loss"
  type: "MultiBoxLoss"
  bottom: "mbox_loc"
  bottom: "mbox_conf"
  bottom: "mbox_priorbox"
  bottom: "label"
  top: "mbox_loss"
  include {
    phase: TRAIN
  }
  propagate_down: true
  propagate_down: true
  propagate_down: false
  propagate_down: false
  loss_param {
    normalization: VALID
  }
  multibox_loss_param {
    loc_loss_type: SMOOTH_L1
    conf_loss_type: SOFTMAX
    loc_weight: 1
    num_classes: 4
    share_location: true
    match_type: PER_PREDICTION
    overlap_threshold: 0.5
    use_prior_for_matching: true
    background_label_id: 0
    use_difficult_gt: true
    neg_pos_ratio: 3
    neg_overlap: 0.5
    code_type: CENTER_SIZE
    ignore_cross_boundary_bbox: false
    mining_type: MAX_NEGATIVE
  }
}
I0602 10:00:39.076004 20420 layer_factory.hpp:77] Creating layer data
I0602 10:00:39.076153 20420 net.cpp:100] Creating Layer data
I0602 10:00:39.076170 20420 net.cpp:408] data -> data
I0602 10:00:39.076200 20420 net.cpp:408] data -> label
I0602 10:00:39.076565 20436 db_lmdb.cpp:35] Opened lmdb examples/tbs_300x300_HSIL_10x/tbs_300x300_HSIL_10x_trainval_lmdb
I0602 10:00:39.085218 20420 annotated_data_layer.cpp:62] output data size: 32,3,300,300
I0602 10:00:39.144549 20420 net.cpp:150] Setting up data
I0602 10:00:39.144598 20420 net.cpp:157] Top shape: 32 3 300 300 (8640000)
I0602 10:00:39.144603 20420 net.cpp:157] Top shape: 1 1 1 8 (8)
I0602 10:00:39.144631 20420 net.cpp:165] Memory required for data: 34560032
I0602 10:00:39.144639 20420 layer_factory.hpp:77] Creating layer data_data_0_split
I0602 10:00:39.144664 20420 net.cpp:100] Creating Layer data_data_0_split
I0602 10:00:39.144670 20420 net.cpp:434] data_data_0_split <- data
I0602 10:00:39.144680 20420 net.cpp:408] data_data_0_split -> data_data_0_split_0
I0602 10:00:39.144690 20420 net.cpp:408] data_data_0_split -> data_data_0_split_1
I0602 10:00:39.144695 20420 net.cpp:408] data_data_0_split -> data_data_0_split_2
I0602 10:00:39.144701 20420 net.cpp:408] data_data_0_split -> data_data_0_split_3
I0602 10:00:39.144706 20420 net.cpp:408] data_data_0_split -> data_data_0_split_4
I0602 10:00:39.144711 20420 net.cpp:408] data_data_0_split -> data_data_0_split_5
I0602 10:00:39.144716 20420 net.cpp:408] data_data_0_split -> data_data_0_split_6
I0602 10:00:39.144789 20420 net.cpp:150] Setting up data_data_0_split
I0602 10:00:39.144794 20420 net.cpp:157] Top shape: 32 3 300 300 (8640000)
I0602 10:00:39.144798 20420 net.cpp:157] Top shape: 32 3 300 300 (8640000)
I0602 10:00:39.144800 20420 net.cpp:157] Top shape: 32 3 300 300 (8640000)
I0602 10:00:39.144804 20420 net.cpp:157] Top shape: 32 3 300 300 (8640000)
I0602 10:00:39.144806 20420 net.cpp:157] Top shape: 32 3 300 300 (8640000)
I0602 10:00:39.144809 20420 net.cpp:157] Top shape: 32 3 300 300 (8640000)
I0602 10:00:39.144811 20420 net.cpp:157] Top shape: 32 3 300 300 (8640000)
I0602 10:00:39.144814 20420 net.cpp:165] Memory required for data: 276480032
I0602 10:00:39.144816 20420 layer_factory.hpp:77] Creating layer conv1_1
I0602 10:00:39.144829 20420 net.cpp:100] Creating Layer conv1_1
I0602 10:00:39.144832 20420 net.cpp:434] conv1_1 <- data_data_0_split_0
I0602 10:00:39.144839 20420 net.cpp:408] conv1_1 -> conv1_1
I0602 10:00:39.317168 20420 net.cpp:150] Setting up conv1_1
I0602 10:00:39.317188 20420 net.cpp:157] Top shape: 32 64 300 300 (184320000)
I0602 10:00:39.317191 20420 net.cpp:165] Memory required for data: 1013760032
I0602 10:00:39.317222 20420 layer_factory.hpp:77] Creating layer relu1_1
I0602 10:00:39.317231 20420 net.cpp:100] Creating Layer relu1_1
I0602 10:00:39.317250 20420 net.cpp:434] relu1_1 <- conv1_1
I0602 10:00:39.317256 20420 net.cpp:395] relu1_1 -> conv1_1 (in-place)
I0602 10:00:39.317397 20420 net.cpp:150] Setting up relu1_1
I0602 10:00:39.317404 20420 net.cpp:157] Top shape: 32 64 300 300 (184320000)
I0602 10:00:39.317406 20420 net.cpp:165] Memory required for data: 1751040032
I0602 10:00:39.317409 20420 layer_factory.hpp:77] Creating layer conv1_2
I0602 10:00:39.317433 20420 net.cpp:100] Creating Layer conv1_2
I0602 10:00:39.317436 20420 net.cpp:434] conv1_2 <- conv1_1
I0602 10:00:39.317454 20420 net.cpp:408] conv1_2 -> conv1_2
I0602 10:00:39.319718 20420 net.cpp:150] Setting up conv1_2
I0602 10:00:39.319731 20420 net.cpp:157] Top shape: 32 64 300 300 (184320000)
I0602 10:00:39.319736 20420 net.cpp:165] Memory required for data: 2488320032
I0602 10:00:39.319744 20420 layer_factory.hpp:77] Creating layer relu1_2
I0602 10:00:39.319751 20420 net.cpp:100] Creating Layer relu1_2
I0602 10:00:39.319756 20420 net.cpp:434] relu1_2 <- conv1_2
I0602 10:00:39.319762 20420 net.cpp:395] relu1_2 -> conv1_2 (in-place)
I0602 10:00:39.320353 20420 net.cpp:150] Setting up relu1_2
I0602 10:00:39.320364 20420 net.cpp:157] Top shape: 32 64 300 300 (184320000)
I0602 10:00:39.320369 20420 net.cpp:165] Memory required for data: 3225600032
I0602 10:00:39.320372 20420 layer_factory.hpp:77] Creating layer pool1
I0602 10:00:39.320379 20420 net.cpp:100] Creating Layer pool1
I0602 10:00:39.320397 20420 net.cpp:434] pool1 <- conv1_2
I0602 10:00:39.320405 20420 net.cpp:408] pool1 -> pool1
I0602 10:00:39.320449 20420 net.cpp:150] Setting up pool1
I0602 10:00:39.320454 20420 net.cpp:157] Top shape: 32 64 150 150 (46080000)
I0602 10:00:39.320456 20420 net.cpp:165] Memory required for data: 3409920032
I0602 10:00:39.320459 20420 layer_factory.hpp:77] Creating layer conv2_1
I0602 10:00:39.320466 20420 net.cpp:100] Creating Layer conv2_1
I0602 10:00:39.320478 20420 net.cpp:434] conv2_1 <- pool1
I0602 10:00:39.320483 20420 net.cpp:408] conv2_1 -> conv2_1
I0602 10:00:39.321678 20420 net.cpp:150] Setting up conv2_1
I0602 10:00:39.321688 20420 net.cpp:157] Top shape: 32 128 150 150 (92160000)
I0602 10:00:39.321691 20420 net.cpp:165] Memory required for data: 3778560032
I0602 10:00:39.321698 20420 layer_factory.hpp:77] Creating layer relu2_1
I0602 10:00:39.321703 20420 net.cpp:100] Creating Layer relu2_1
I0602 10:00:39.321707 20420 net.cpp:434] relu2_1 <- conv2_1
I0602 10:00:39.321712 20420 net.cpp:395] relu2_1 -> conv2_1 (in-place)
I0602 10:00:39.322233 20420 net.cpp:150] Setting up relu2_1
I0602 10:00:39.322243 20420 net.cpp:157] Top shape: 32 128 150 150 (92160000)
I0602 10:00:39.322247 20420 net.cpp:165] Memory required for data: 4147200032
I0602 10:00:39.322249 20420 layer_factory.hpp:77] Creating layer conv2_2
I0602 10:00:39.322255 20420 net.cpp:100] Creating Layer conv2_2
I0602 10:00:39.322259 20420 net.cpp:434] conv2_2 <- conv2_1
I0602 10:00:39.322263 20420 net.cpp:408] conv2_2 -> conv2_2
I0602 10:00:39.324208 20420 net.cpp:150] Setting up conv2_2
I0602 10:00:39.324219 20420 net.cpp:157] Top shape: 32 128 150 150 (92160000)
I0602 10:00:39.324221 20420 net.cpp:165] Memory required for data: 4515840032
I0602 10:00:39.324228 20420 layer_factory.hpp:77] Creating layer relu2_2
I0602 10:00:39.324234 20420 net.cpp:100] Creating Layer relu2_2
I0602 10:00:39.324236 20420 net.cpp:434] relu2_2 <- conv2_2
I0602 10:00:39.324240 20420 net.cpp:395] relu2_2 -> conv2_2 (in-place)
I0602 10:00:39.324357 20420 net.cpp:150] Setting up relu2_2
I0602 10:00:39.324362 20420 net.cpp:157] Top shape: 32 128 150 150 (92160000)
I0602 10:00:39.324365 20420 net.cpp:165] Memory required for data: 4884480032
I0602 10:00:39.324368 20420 layer_factory.hpp:77] Creating layer pool2
I0602 10:00:39.324373 20420 net.cpp:100] Creating Layer pool2
I0602 10:00:39.324375 20420 net.cpp:434] pool2 <- conv2_2
I0602 10:00:39.324379 20420 net.cpp:408] pool2 -> pool2
I0602 10:00:39.324407 20420 net.cpp:150] Setting up pool2
I0602 10:00:39.324412 20420 net.cpp:157] Top shape: 32 128 75 75 (23040000)
I0602 10:00:39.324414 20420 net.cpp:165] Memory required for data: 4976640032
I0602 10:00:39.324417 20420 layer_factory.hpp:77] Creating layer conv3_1
I0602 10:00:39.324422 20420 net.cpp:100] Creating Layer conv3_1
I0602 10:00:39.324425 20420 net.cpp:434] conv3_1 <- pool2
I0602 10:00:39.324429 20420 net.cpp:408] conv3_1 -> conv3_1
I0602 10:00:39.328146 20420 net.cpp:150] Setting up conv3_1
I0602 10:00:39.328162 20420 net.cpp:157] Top shape: 32 256 75 75 (46080000)
I0602 10:00:39.328166 20420 net.cpp:165] Memory required for data: 5160960032
I0602 10:00:39.328176 20420 layer_factory.hpp:77] Creating layer relu3_1
I0602 10:00:39.328186 20420 net.cpp:100] Creating Layer relu3_1
I0602 10:00:39.328191 20420 net.cpp:434] relu3_1 <- conv3_1
I0602 10:00:39.328197 20420 net.cpp:395] relu3_1 -> conv3_1 (in-place)
I0602 10:00:39.328371 20420 net.cpp:150] Setting up relu3_1
I0602 10:00:39.328397 20420 net.cpp:157] Top shape: 32 256 75 75 (46080000)
I0602 10:00:39.328402 20420 net.cpp:165] Memory required for data: 5345280032
I0602 10:00:39.328408 20420 layer_factory.hpp:77] Creating layer conv3_2
I0602 10:00:39.328419 20420 net.cpp:100] Creating Layer conv3_2
I0602 10:00:39.328424 20420 net.cpp:434] conv3_2 <- conv3_1
I0602 10:00:39.328433 20420 net.cpp:408] conv3_2 -> conv3_2
I0602 10:00:39.332922 20420 net.cpp:150] Setting up conv3_2
I0602 10:00:39.332939 20420 net.cpp:157] Top shape: 32 256 75 75 (46080000)
I0602 10:00:39.332944 20420 net.cpp:165] Memory required for data: 5529600032
I0602 10:00:39.332953 20420 layer_factory.hpp:77] Creating layer relu3_2
I0602 10:00:39.332962 20420 net.cpp:100] Creating Layer relu3_2
I0602 10:00:39.332975 20420 net.cpp:434] relu3_2 <- conv3_2
I0602 10:00:39.332983 20420 net.cpp:395] relu3_2 -> conv3_2 (in-place)
I0602 10:00:39.333111 20420 net.cpp:150] Setting up relu3_2
I0602 10:00:39.333119 20420 net.cpp:157] Top shape: 32 256 75 75 (46080000)
I0602 10:00:39.333123 20420 net.cpp:165] Memory required for data: 5713920032
I0602 10:00:39.333137 20420 layer_factory.hpp:77] Creating layer conv3_3
I0602 10:00:39.333150 20420 net.cpp:100] Creating Layer conv3_3
I0602 10:00:39.333155 20420 net.cpp:434] conv3_3 <- conv3_2
I0602 10:00:39.333163 20420 net.cpp:408] conv3_3 -> conv3_3
I0602 10:00:39.337914 20420 net.cpp:150] Setting up conv3_3
I0602 10:00:39.337929 20420 net.cpp:157] Top shape: 32 256 75 75 (46080000)
I0602 10:00:39.337934 20420 net.cpp:165] Memory required for data: 5898240032
I0602 10:00:39.337944 20420 layer_factory.hpp:77] Creating layer relu3_3
I0602 10:00:39.337951 20420 net.cpp:100] Creating Layer relu3_3
I0602 10:00:39.337956 20420 net.cpp:434] relu3_3 <- conv3_3
I0602 10:00:39.337970 20420 net.cpp:395] relu3_3 -> conv3_3 (in-place)
I0602 10:00:39.338099 20420 net.cpp:150] Setting up relu3_3
I0602 10:00:39.338106 20420 net.cpp:157] Top shape: 32 256 75 75 (46080000)
I0602 10:00:39.338109 20420 net.cpp:165] Memory required for data: 6082560032
I0602 10:00:39.338114 20420 layer_factory.hpp:77] Creating layer pool3
I0602 10:00:39.338121 20420 net.cpp:100] Creating Layer pool3
I0602 10:00:39.338125 20420 net.cpp:434] pool3 <- conv3_3
I0602 10:00:39.338131 20420 net.cpp:408] pool3 -> pool3
I0602 10:00:39.338167 20420 net.cpp:150] Setting up pool3
I0602 10:00:39.338174 20420 net.cpp:157] Top shape: 32 256 38 38 (11829248)
I0602 10:00:39.338177 20420 net.cpp:165] Memory required for data: 6129877024
I0602 10:00:39.338181 20420 layer_factory.hpp:77] Creating layer conv4_1
I0602 10:00:39.338191 20420 net.cpp:100] Creating Layer conv4_1
I0602 10:00:39.338196 20420 net.cpp:434] conv4_1 <- pool3
I0602 10:00:39.338201 20420 net.cpp:408] conv4_1 -> conv4_1
I0602 10:00:39.346742 20420 net.cpp:150] Setting up conv4_1
I0602 10:00:39.346761 20420 net.cpp:157] Top shape: 32 512 38 38 (23658496)
I0602 10:00:39.346765 20420 net.cpp:165] Memory required for data: 6224511008
I0602 10:00:39.346773 20420 layer_factory.hpp:77] Creating layer relu4_1
I0602 10:00:39.346781 20420 net.cpp:100] Creating Layer relu4_1
I0602 10:00:39.346803 20420 net.cpp:434] relu4_1 <- conv4_1
I0602 10:00:39.346810 20420 net.cpp:395] relu4_1 -> conv4_1 (in-place)
I0602 10:00:39.347676 20420 net.cpp:150] Setting up relu4_1
I0602 10:00:39.347689 20420 net.cpp:157] Top shape: 32 512 38 38 (23658496)
I0602 10:00:39.347694 20420 net.cpp:165] Memory required for data: 6319144992
I0602 10:00:39.347699 20420 layer_factory.hpp:77] Creating layer conv4_2
I0602 10:00:39.347726 20420 net.cpp:100] Creating Layer conv4_2
I0602 10:00:39.347731 20420 net.cpp:434] conv4_2 <- conv4_1
I0602 10:00:39.347739 20420 net.cpp:408] conv4_2 -> conv4_2
I0602 10:00:39.359757 20420 net.cpp:150] Setting up conv4_2
I0602 10:00:39.359778 20420 net.cpp:157] Top shape: 32 512 38 38 (23658496)
I0602 10:00:39.359781 20420 net.cpp:165] Memory required for data: 6413778976
I0602 10:00:39.359812 20420 layer_factory.hpp:77] Creating layer relu4_2
I0602 10:00:39.359823 20420 net.cpp:100] Creating Layer relu4_2
I0602 10:00:39.359830 20420 net.cpp:434] relu4_2 <- conv4_2
I0602 10:00:39.359838 20420 net.cpp:395] relu4_2 -> conv4_2 (in-place)
I0602 10:00:39.360817 20420 net.cpp:150] Setting up relu4_2
I0602 10:00:39.360828 20420 net.cpp:157] Top shape: 32 512 38 38 (23658496)
I0602 10:00:39.360832 20420 net.cpp:165] Memory required for data: 6508412960
I0602 10:00:39.360849 20420 layer_factory.hpp:77] Creating layer conv4_3
I0602 10:00:39.360877 20420 net.cpp:100] Creating Layer conv4_3
I0602 10:00:39.360882 20420 net.cpp:434] conv4_3 <- conv4_2
I0602 10:00:39.360889 20420 net.cpp:408] conv4_3 -> conv4_3
I0602 10:00:39.373764 20420 net.cpp:150] Setting up conv4_3
I0602 10:00:39.373782 20420 net.cpp:157] Top shape: 32 512 38 38 (23658496)
I0602 10:00:39.373786 20420 net.cpp:165] Memory required for data: 6603046944
I0602 10:00:39.373795 20420 layer_factory.hpp:77] Creating layer relu4_3
I0602 10:00:39.373803 20420 net.cpp:100] Creating Layer relu4_3
I0602 10:00:39.373809 20420 net.cpp:434] relu4_3 <- conv4_3
I0602 10:00:39.373816 20420 net.cpp:395] relu4_3 -> conv4_3 (in-place)
I0602 10:00:39.373984 20420 net.cpp:150] Setting up relu4_3
I0602 10:00:39.373992 20420 net.cpp:157] Top shape: 32 512 38 38 (23658496)
I0602 10:00:39.373996 20420 net.cpp:165] Memory required for data: 6697680928
I0602 10:00:39.374001 20420 layer_factory.hpp:77] Creating layer conv4_3_relu4_3_0_split
I0602 10:00:39.374007 20420 net.cpp:100] Creating Layer conv4_3_relu4_3_0_split
I0602 10:00:39.374012 20420 net.cpp:434] conv4_3_relu4_3_0_split <- conv4_3
I0602 10:00:39.374019 20420 net.cpp:408] conv4_3_relu4_3_0_split -> conv4_3_relu4_3_0_split_0
I0602 10:00:39.374029 20420 net.cpp:408] conv4_3_relu4_3_0_split -> conv4_3_relu4_3_0_split_1
I0602 10:00:39.374064 20420 net.cpp:150] Setting up conv4_3_relu4_3_0_split
I0602 10:00:39.374070 20420 net.cpp:157] Top shape: 32 512 38 38 (23658496)
I0602 10:00:39.374075 20420 net.cpp:157] Top shape: 32 512 38 38 (23658496)
I0602 10:00:39.374079 20420 net.cpp:165] Memory required for data: 6886948896
I0602 10:00:39.374083 20420 layer_factory.hpp:77] Creating layer pool4
I0602 10:00:39.374090 20420 net.cpp:100] Creating Layer pool4
I0602 10:00:39.374095 20420 net.cpp:434] pool4 <- conv4_3_relu4_3_0_split_0
I0602 10:00:39.374101 20420 net.cpp:408] pool4 -> pool4
I0602 10:00:39.374133 20420 net.cpp:150] Setting up pool4
I0602 10:00:39.374140 20420 net.cpp:157] Top shape: 32 512 19 19 (5914624)
I0602 10:00:39.374143 20420 net.cpp:165] Memory required for data: 6910607392
I0602 10:00:39.374147 20420 layer_factory.hpp:77] Creating layer conv5_1
I0602 10:00:39.374158 20420 net.cpp:100] Creating Layer conv5_1
I0602 10:00:39.374162 20420 net.cpp:434] conv5_1 <- pool4
I0602 10:00:39.374171 20420 net.cpp:408] conv5_1 -> conv5_1
I0602 10:00:39.386956 20420 net.cpp:150] Setting up conv5_1
I0602 10:00:39.386972 20420 net.cpp:157] Top shape: 32 512 19 19 (5914624)
I0602 10:00:39.386976 20420 net.cpp:165] Memory required for data: 6934265888
I0602 10:00:39.386983 20420 layer_factory.hpp:77] Creating layer relu5_1
I0602 10:00:39.387007 20420 net.cpp:100] Creating Layer relu5_1
I0602 10:00:39.387024 20420 net.cpp:434] relu5_1 <- conv5_1
I0602 10:00:39.387048 20420 net.cpp:395] relu5_1 -> conv5_1 (in-place)
I0602 10:00:39.387223 20420 net.cpp:150] Setting up relu5_1
I0602 10:00:39.387231 20420 net.cpp:157] Top shape: 32 512 19 19 (5914624)
I0602 10:00:39.387234 20420 net.cpp:165] Memory required for data: 6957924384
I0602 10:00:39.387253 20420 layer_factory.hpp:77] Creating layer conv5_2
I0602 10:00:39.387264 20420 net.cpp:100] Creating Layer conv5_2
I0602 10:00:39.387282 20420 net.cpp:434] conv5_2 <- conv5_1
I0602 10:00:39.387290 20420 net.cpp:408] conv5_2 -> conv5_2
I0602 10:00:39.399807 20420 net.cpp:150] Setting up conv5_2
I0602 10:00:39.399826 20420 net.cpp:157] Top shape: 32 512 19 19 (5914624)
I0602 10:00:39.399830 20420 net.cpp:165] Memory required for data: 6981582880
I0602 10:00:39.399838 20420 layer_factory.hpp:77] Creating layer relu5_2
I0602 10:00:39.399848 20420 net.cpp:100] Creating Layer relu5_2
I0602 10:00:39.399868 20420 net.cpp:434] relu5_2 <- conv5_2
I0602 10:00:39.399878 20420 net.cpp:395] relu5_2 -> conv5_2 (in-place)
I0602 10:00:39.400007 20420 net.cpp:150] Setting up relu5_2
I0602 10:00:39.400018 20420 net.cpp:157] Top shape: 32 512 19 19 (5914624)
I0602 10:00:39.400023 20420 net.cpp:165] Memory required for data: 7005241376
I0602 10:00:39.400041 20420 layer_factory.hpp:77] Creating layer conv5_3
I0602 10:00:39.400068 20420 net.cpp:100] Creating Layer conv5_3
I0602 10:00:39.400073 20420 net.cpp:434] conv5_3 <- conv5_2
I0602 10:00:39.400094 20420 net.cpp:408] conv5_3 -> conv5_3
I0602 10:00:39.413156 20420 net.cpp:150] Setting up conv5_3
I0602 10:00:39.413173 20420 net.cpp:157] Top shape: 32 512 19 19 (5914624)
I0602 10:00:39.413177 20420 net.cpp:165] Memory required for data: 7028899872
I0602 10:00:39.413185 20420 layer_factory.hpp:77] Creating layer relu5_3
I0602 10:00:39.413203 20420 net.cpp:100] Creating Layer relu5_3
I0602 10:00:39.413208 20420 net.cpp:434] relu5_3 <- conv5_3
I0602 10:00:39.413215 20420 net.cpp:395] relu5_3 -> conv5_3 (in-place)
I0602 10:00:39.413358 20420 net.cpp:150] Setting up relu5_3
I0602 10:00:39.413375 20420 net.cpp:157] Top shape: 32 512 19 19 (5914624)
I0602 10:00:39.413378 20420 net.cpp:165] Memory required for data: 7052558368
I0602 10:00:39.413383 20420 layer_factory.hpp:77] Creating layer pool5
I0602 10:00:39.413403 20420 net.cpp:100] Creating Layer pool5
I0602 10:00:39.413408 20420 net.cpp:434] pool5 <- conv5_3
I0602 10:00:39.413429 20420 net.cpp:408] pool5 -> pool5
I0602 10:00:39.413467 20420 net.cpp:150] Setting up pool5
I0602 10:00:39.413473 20420 net.cpp:157] Top shape: 32 512 19 19 (5914624)
I0602 10:00:39.413477 20420 net.cpp:165] Memory required for data: 7076216864
I0602 10:00:39.413481 20420 layer_factory.hpp:77] Creating layer fc6
I0602 10:00:39.413493 20420 net.cpp:100] Creating Layer fc6
I0602 10:00:39.413497 20420 net.cpp:434] fc6 <- pool5
I0602 10:00:39.413504 20420 net.cpp:408] fc6 -> fc6
I0602 10:00:39.436295 20420 net.cpp:150] Setting up fc6
I0602 10:00:39.436312 20420 net.cpp:157] Top shape: 32 1024 19 19 (11829248)
I0602 10:00:39.436316 20420 net.cpp:165] Memory required for data: 7123533856
I0602 10:00:39.436323 20420 layer_factory.hpp:77] Creating layer relu6
I0602 10:00:39.436347 20420 net.cpp:100] Creating Layer relu6
I0602 10:00:39.436350 20420 net.cpp:434] relu6 <- fc6
I0602 10:00:39.436374 20420 net.cpp:395] relu6 -> fc6 (in-place)
I0602 10:00:39.437510 20420 net.cpp:150] Setting up relu6
I0602 10:00:39.437520 20420 net.cpp:157] Top shape: 32 1024 19 19 (11829248)
I0602 10:00:39.437523 20420 net.cpp:165] Memory required for data: 7170850848
I0602 10:00:39.437527 20420 layer_factory.hpp:77] Creating layer fc7
I0602 10:00:39.437556 20420 net.cpp:100] Creating Layer fc7
I0602 10:00:39.437573 20420 net.cpp:434] fc7 <- fc6
I0602 10:00:39.437582 20420 net.cpp:408] fc7 -> fc7
I0602 10:00:39.444118 20420 net.cpp:150] Setting up fc7
I0602 10:00:39.444139 20420 net.cpp:157] Top shape: 32 1024 19 19 (11829248)
I0602 10:00:39.444142 20420 net.cpp:165] Memory required for data: 7218167840
I0602 10:00:39.444150 20420 layer_factory.hpp:77] Creating layer relu7
I0602 10:00:39.444159 20420 net.cpp:100] Creating Layer relu7
I0602 10:00:39.444165 20420 net.cpp:434] relu7 <- fc7
I0602 10:00:39.444172 20420 net.cpp:395] relu7 -> fc7 (in-place)
I0602 10:00:39.444315 20420 net.cpp:150] Setting up relu7
I0602 10:00:39.444324 20420 net.cpp:157] Top shape: 32 1024 19 19 (11829248)
I0602 10:00:39.444327 20420 net.cpp:165] Memory required for data: 7265484832
I0602 10:00:39.444331 20420 layer_factory.hpp:77] Creating layer fc7_relu7_0_split
I0602 10:00:39.444339 20420 net.cpp:100] Creating Layer fc7_relu7_0_split
I0602 10:00:39.444342 20420 net.cpp:434] fc7_relu7_0_split <- fc7
I0602 10:00:39.444350 20420 net.cpp:408] fc7_relu7_0_split -> fc7_relu7_0_split_0
I0602 10:00:39.444360 20420 net.cpp:408] fc7_relu7_0_split -> fc7_relu7_0_split_1
I0602 10:00:39.444372 20420 net.cpp:408] fc7_relu7_0_split -> fc7_relu7_0_split_2
I0602 10:00:39.444380 20420 net.cpp:408] fc7_relu7_0_split -> fc7_relu7_0_split_3
I0602 10:00:39.444442 20420 net.cpp:150] Setting up fc7_relu7_0_split
I0602 10:00:39.444448 20420 net.cpp:157] Top shape: 32 1024 19 19 (11829248)
I0602 10:00:39.444453 20420 net.cpp:157] Top shape: 32 1024 19 19 (11829248)
I0602 10:00:39.444458 20420 net.cpp:157] Top shape: 32 1024 19 19 (11829248)
I0602 10:00:39.444468 20420 net.cpp:157] Top shape: 32 1024 19 19 (11829248)
I0602 10:00:39.444471 20420 net.cpp:165] Memory required for data: 7454752800
I0602 10:00:39.444474 20420 layer_factory.hpp:77] Creating layer conv6_1
I0602 10:00:39.444488 20420 net.cpp:100] Creating Layer conv6_1
I0602 10:00:39.444491 20420 net.cpp:434] conv6_1 <- fc7_relu7_0_split_0
I0602 10:00:39.444499 20420 net.cpp:408] conv6_1 -> conv6_1
I0602 10:00:39.447710 20420 net.cpp:150] Setting up conv6_1
I0602 10:00:39.447723 20420 net.cpp:157] Top shape: 32 256 19 19 (2957312)
I0602 10:00:39.447728 20420 net.cpp:165] Memory required for data: 7466582048
I0602 10:00:39.447736 20420 layer_factory.hpp:77] Creating layer conv6_1_relu
I0602 10:00:39.447743 20420 net.cpp:100] Creating Layer conv6_1_relu
I0602 10:00:39.447762 20420 net.cpp:434] conv6_1_relu <- conv6_1
I0602 10:00:39.447770 20420 net.cpp:395] conv6_1_relu -> conv6_1 (in-place)
I0602 10:00:39.447904 20420 net.cpp:150] Setting up conv6_1_relu
I0602 10:00:39.447912 20420 net.cpp:157] Top shape: 32 256 19 19 (2957312)
I0602 10:00:39.447916 20420 net.cpp:165] Memory required for data: 7478411296
I0602 10:00:39.447921 20420 layer_factory.hpp:77] Creating layer conv6_2
I0602 10:00:39.447932 20420 net.cpp:100] Creating Layer conv6_2
I0602 10:00:39.447937 20420 net.cpp:434] conv6_2 <- conv6_1
I0602 10:00:39.447944 20420 net.cpp:408] conv6_2 -> conv6_2
I0602 10:00:39.454959 20420 net.cpp:150] Setting up conv6_2
I0602 10:00:39.454979 20420 net.cpp:157] Top shape: 32 512 10 10 (1638400)
I0602 10:00:39.454982 20420 net.cpp:165] Memory required for data: 7484964896
I0602 10:00:39.454998 20420 layer_factory.hpp:77] Creating layer conv6_2_relu
I0602 10:00:39.455009 20420 net.cpp:100] Creating Layer conv6_2_relu
I0602 10:00:39.455016 20420 net.cpp:434] conv6_2_relu <- conv6_2
I0602 10:00:39.455025 20420 net.cpp:395] conv6_2_relu -> conv6_2 (in-place)
I0602 10:00:39.455159 20420 net.cpp:150] Setting up conv6_2_relu
I0602 10:00:39.455168 20420 net.cpp:157] Top shape: 32 512 10 10 (1638400)
I0602 10:00:39.455170 20420 net.cpp:165] Memory required for data: 7491518496
I0602 10:00:39.455174 20420 layer_factory.hpp:77] Creating layer conv6_2_conv6_2_relu_0_split
I0602 10:00:39.455181 20420 net.cpp:100] Creating Layer conv6_2_conv6_2_relu_0_split
I0602 10:00:39.455186 20420 net.cpp:434] conv6_2_conv6_2_relu_0_split <- conv6_2
I0602 10:00:39.455194 20420 net.cpp:408] conv6_2_conv6_2_relu_0_split -> conv6_2_conv6_2_relu_0_split_0
I0602 10:00:39.455204 20420 net.cpp:408] conv6_2_conv6_2_relu_0_split -> conv6_2_conv6_2_relu_0_split_1
I0602 10:00:39.455212 20420 net.cpp:408] conv6_2_conv6_2_relu_0_split -> conv6_2_conv6_2_relu_0_split_2
I0602 10:00:39.455220 20420 net.cpp:408] conv6_2_conv6_2_relu_0_split -> conv6_2_conv6_2_relu_0_split_3
I0602 10:00:39.455276 20420 net.cpp:150] Setting up conv6_2_conv6_2_relu_0_split
I0602 10:00:39.455281 20420 net.cpp:157] Top shape: 32 512 10 10 (1638400)
I0602 10:00:39.455286 20420 net.cpp:157] Top shape: 32 512 10 10 (1638400)
I0602 10:00:39.455292 20420 net.cpp:157] Top shape: 32 512 10 10 (1638400)
I0602 10:00:39.455298 20420 net.cpp:157] Top shape: 32 512 10 10 (1638400)
I0602 10:00:39.455302 20420 net.cpp:165] Memory required for data: 7517732896
I0602 10:00:39.455305 20420 layer_factory.hpp:77] Creating layer conv7_1
I0602 10:00:39.455318 20420 net.cpp:100] Creating Layer conv7_1
I0602 10:00:39.455322 20420 net.cpp:434] conv7_1 <- conv6_2_conv6_2_relu_0_split_0
I0602 10:00:39.455332 20420 net.cpp:408] conv7_1 -> conv7_1
I0602 10:00:39.456663 20420 net.cpp:150] Setting up conv7_1
I0602 10:00:39.456676 20420 net.cpp:157] Top shape: 32 128 10 10 (409600)
I0602 10:00:39.456679 20420 net.cpp:165] Memory required for data: 7519371296
I0602 10:00:39.456687 20420 layer_factory.hpp:77] Creating layer conv7_1_relu
I0602 10:00:39.456696 20420 net.cpp:100] Creating Layer conv7_1_relu
I0602 10:00:39.456701 20420 net.cpp:434] conv7_1_relu <- conv7_1
I0602 10:00:39.456707 20420 net.cpp:395] conv7_1_relu -> conv7_1 (in-place)
I0602 10:00:39.456836 20420 net.cpp:150] Setting up conv7_1_relu
I0602 10:00:39.456843 20420 net.cpp:157] Top shape: 32 128 10 10 (409600)
I0602 10:00:39.456847 20420 net.cpp:165] Memory required for data: 7521009696
I0602 10:00:39.456851 20420 layer_factory.hpp:77] Creating layer conv7_2
I0602 10:00:39.456861 20420 net.cpp:100] Creating Layer conv7_2
I0602 10:00:39.456866 20420 net.cpp:434] conv7_2 <- conv7_1
I0602 10:00:39.456873 20420 net.cpp:408] conv7_2 -> conv7_2
I0602 10:00:39.459944 20420 net.cpp:150] Setting up conv7_2
I0602 10:00:39.459956 20420 net.cpp:157] Top shape: 32 256 5 5 (204800)
I0602 10:00:39.459960 20420 net.cpp:165] Memory required for data: 7521828896
I0602 10:00:39.459967 20420 layer_factory.hpp:77] Creating layer conv7_2_relu
I0602 10:00:39.459976 20420 net.cpp:100] Creating Layer conv7_2_relu
I0602 10:00:39.459981 20420 net.cpp:434] conv7_2_relu <- conv7_2
I0602 10:00:39.459996 20420 net.cpp:395] conv7_2_relu -> conv7_2 (in-place)
I0602 10:00:39.460135 20420 net.cpp:150] Setting up conv7_2_relu
I0602 10:00:39.460144 20420 net.cpp:157] Top shape: 32 256 5 5 (204800)
I0602 10:00:39.460150 20420 net.cpp:165] Memory required for data: 7522648096
I0602 10:00:39.460153 20420 layer_factory.hpp:77] Creating layer conv7_2_conv7_2_relu_0_split
I0602 10:00:39.460160 20420 net.cpp:100] Creating Layer conv7_2_conv7_2_relu_0_split
I0602 10:00:39.460165 20420 net.cpp:434] conv7_2_conv7_2_relu_0_split <- conv7_2
I0602 10:00:39.460171 20420 net.cpp:408] conv7_2_conv7_2_relu_0_split -> conv7_2_conv7_2_relu_0_split_0
I0602 10:00:39.460181 20420 net.cpp:408] conv7_2_conv7_2_relu_0_split -> conv7_2_conv7_2_relu_0_split_1
I0602 10:00:39.460191 20420 net.cpp:408] conv7_2_conv7_2_relu_0_split -> conv7_2_conv7_2_relu_0_split_2
I0602 10:00:39.460198 20420 net.cpp:408] conv7_2_conv7_2_relu_0_split -> conv7_2_conv7_2_relu_0_split_3
I0602 10:00:39.460253 20420 net.cpp:150] Setting up conv7_2_conv7_2_relu_0_split
I0602 10:00:39.460259 20420 net.cpp:157] Top shape: 32 256 5 5 (204800)
I0602 10:00:39.460264 20420 net.cpp:157] Top shape: 32 256 5 5 (204800)
I0602 10:00:39.460268 20420 net.cpp:157] Top shape: 32 256 5 5 (204800)
I0602 10:00:39.460273 20420 net.cpp:157] Top shape: 32 256 5 5 (204800)
I0602 10:00:39.460278 20420 net.cpp:165] Memory required for data: 7525924896
I0602 10:00:39.460283 20420 layer_factory.hpp:77] Creating layer conv8_1
I0602 10:00:39.460294 20420 net.cpp:100] Creating Layer conv8_1
I0602 10:00:39.460299 20420 net.cpp:434] conv8_1 <- conv7_2_conv7_2_relu_0_split_0
I0602 10:00:39.460307 20420 net.cpp:408] conv8_1 -> conv8_1
I0602 10:00:39.461655 20420 net.cpp:150] Setting up conv8_1
I0602 10:00:39.461665 20420 net.cpp:157] Top shape: 32 128 5 5 (102400)
I0602 10:00:39.461669 20420 net.cpp:165] Memory required for data: 7526334496
I0602 10:00:39.461678 20420 layer_factory.hpp:77] Creating layer conv8_1_relu
I0602 10:00:39.461683 20420 net.cpp:100] Creating Layer conv8_1_relu
I0602 10:00:39.461688 20420 net.cpp:434] conv8_1_relu <- conv8_1
I0602 10:00:39.461695 20420 net.cpp:395] conv8_1_relu -> conv8_1 (in-place)
I0602 10:00:39.462255 20420 net.cpp:150] Setting up conv8_1_relu
I0602 10:00:39.462265 20420 net.cpp:157] Top shape: 32 128 5 5 (102400)
I0602 10:00:39.462268 20420 net.cpp:165] Memory required for data: 7526744096
I0602 10:00:39.462271 20420 layer_factory.hpp:77] Creating layer conv8_2
I0602 10:00:39.462282 20420 net.cpp:100] Creating Layer conv8_2
I0602 10:00:39.462288 20420 net.cpp:434] conv8_2 <- conv8_1
I0602 10:00:39.462296 20420 net.cpp:408] conv8_2 -> conv8_2
I0602 10:00:39.465138 20420 net.cpp:150] Setting up conv8_2
I0602 10:00:39.465150 20420 net.cpp:157] Top shape: 32 256 3 3 (73728)
I0602 10:00:39.465155 20420 net.cpp:165] Memory required for data: 7527039008
I0602 10:00:39.465162 20420 layer_factory.hpp:77] Creating layer conv8_2_relu
I0602 10:00:39.465171 20420 net.cpp:100] Creating Layer conv8_2_relu
I0602 10:00:39.465178 20420 net.cpp:434] conv8_2_relu <- conv8_2
I0602 10:00:39.465184 20420 net.cpp:395] conv8_2_relu -> conv8_2 (in-place)
I0602 10:00:39.465319 20420 net.cpp:150] Setting up conv8_2_relu
I0602 10:00:39.465328 20420 net.cpp:157] Top shape: 32 256 3 3 (73728)
I0602 10:00:39.465332 20420 net.cpp:165] Memory required for data: 7527333920
I0602 10:00:39.465337 20420 layer_factory.hpp:77] Creating layer conv8_2_conv8_2_relu_0_split
I0602 10:00:39.465342 20420 net.cpp:100] Creating Layer conv8_2_conv8_2_relu_0_split
I0602 10:00:39.465348 20420 net.cpp:434] conv8_2_conv8_2_relu_0_split <- conv8_2
I0602 10:00:39.465355 20420 net.cpp:408] conv8_2_conv8_2_relu_0_split -> conv8_2_conv8_2_relu_0_split_0
I0602 10:00:39.465364 20420 net.cpp:408] conv8_2_conv8_2_relu_0_split -> conv8_2_conv8_2_relu_0_split_1
I0602 10:00:39.465373 20420 net.cpp:408] conv8_2_conv8_2_relu_0_split -> conv8_2_conv8_2_relu_0_split_2
I0602 10:00:39.465381 20420 net.cpp:408] conv8_2_conv8_2_relu_0_split -> conv8_2_conv8_2_relu_0_split_3
I0602 10:00:39.465461 20420 net.cpp:150] Setting up conv8_2_conv8_2_relu_0_split
I0602 10:00:39.465467 20420 net.cpp:157] Top shape: 32 256 3 3 (73728)
I0602 10:00:39.465473 20420 net.cpp:157] Top shape: 32 256 3 3 (73728)
I0602 10:00:39.465478 20420 net.cpp:157] Top shape: 32 256 3 3 (73728)
I0602 10:00:39.465482 20420 net.cpp:157] Top shape: 32 256 3 3 (73728)
I0602 10:00:39.465487 20420 net.cpp:165] Memory required for data: 7528513568
I0602 10:00:39.465490 20420 layer_factory.hpp:77] Creating layer conv9_1
I0602 10:00:39.465500 20420 net.cpp:100] Creating Layer conv9_1
I0602 10:00:39.465504 20420 net.cpp:434] conv9_1 <- conv8_2_conv8_2_relu_0_split_0
I0602 10:00:39.465512 20420 net.cpp:408] conv9_1 -> conv9_1
I0602 10:00:39.466840 20420 net.cpp:150] Setting up conv9_1
I0602 10:00:39.466850 20420 net.cpp:157] Top shape: 32 128 3 3 (36864)
I0602 10:00:39.466855 20420 net.cpp:165] Memory required for data: 7528661024
I0602 10:00:39.466861 20420 layer_factory.hpp:77] Creating layer conv9_1_relu
I0602 10:00:39.466869 20420 net.cpp:100] Creating Layer conv9_1_relu
I0602 10:00:39.466876 20420 net.cpp:434] conv9_1_relu <- conv9_1
I0602 10:00:39.466881 20420 net.cpp:395] conv9_1_relu -> conv9_1 (in-place)
I0602 10:00:39.467010 20420 net.cpp:150] Setting up conv9_1_relu
I0602 10:00:39.467017 20420 net.cpp:157] Top shape: 32 128 3 3 (36864)
I0602 10:00:39.467021 20420 net.cpp:165] Memory required for data: 7528808480
I0602 10:00:39.467025 20420 layer_factory.hpp:77] Creating layer conv9_2
I0602 10:00:39.467034 20420 net.cpp:100] Creating Layer conv9_2
I0602 10:00:39.467039 20420 net.cpp:434] conv9_2 <- conv9_1
I0602 10:00:39.467047 20420 net.cpp:408] conv9_2 -> conv9_2
I0602 10:00:39.469935 20420 net.cpp:150] Setting up conv9_2
I0602 10:00:39.469949 20420 net.cpp:157] Top shape: 32 256 1 1 (8192)
I0602 10:00:39.469954 20420 net.cpp:165] Memory required for data: 7528841248
I0602 10:00:39.469960 20420 layer_factory.hpp:77] Creating layer conv9_2_relu
I0602 10:00:39.469969 20420 net.cpp:100] Creating Layer conv9_2_relu
I0602 10:00:39.469974 20420 net.cpp:434] conv9_2_relu <- conv9_2
I0602 10:00:39.469981 20420 net.cpp:395] conv9_2_relu -> conv9_2 (in-place)
I0602 10:00:39.470110 20420 net.cpp:150] Setting up conv9_2_relu
I0602 10:00:39.470118 20420 net.cpp:157] Top shape: 32 256 1 1 (8192)
I0602 10:00:39.470121 20420 net.cpp:165] Memory required for data: 7528874016
I0602 10:00:39.470126 20420 layer_factory.hpp:77] Creating layer conv9_2_conv9_2_relu_0_split
I0602 10:00:39.470134 20420 net.cpp:100] Creating Layer conv9_2_conv9_2_relu_0_split
I0602 10:00:39.470139 20420 net.cpp:434] conv9_2_conv9_2_relu_0_split <- conv9_2
I0602 10:00:39.470145 20420 net.cpp:408] conv9_2_conv9_2_relu_0_split -> conv9_2_conv9_2_relu_0_split_0
I0602 10:00:39.470155 20420 net.cpp:408] conv9_2_conv9_2_relu_0_split -> conv9_2_conv9_2_relu_0_split_1
I0602 10:00:39.470163 20420 net.cpp:408] conv9_2_conv9_2_relu_0_split -> conv9_2_conv9_2_relu_0_split_2
I0602 10:00:39.470209 20420 net.cpp:150] Setting up conv9_2_conv9_2_relu_0_split
I0602 10:00:39.470216 20420 net.cpp:157] Top shape: 32 256 1 1 (8192)
I0602 10:00:39.470221 20420 net.cpp:157] Top shape: 32 256 1 1 (8192)
I0602 10:00:39.470227 20420 net.cpp:157] Top shape: 32 256 1 1 (8192)
I0602 10:00:39.470229 20420 net.cpp:165] Memory required for data: 7528972320
I0602 10:00:39.470232 20420 layer_factory.hpp:77] Creating layer conv4_3_norm
I0602 10:00:39.470242 20420 net.cpp:100] Creating Layer conv4_3_norm
I0602 10:00:39.470247 20420 net.cpp:434] conv4_3_norm <- conv4_3_relu4_3_0_split_1
I0602 10:00:39.470252 20420 net.cpp:408] conv4_3_norm -> conv4_3_norm
I0602 10:00:39.470404 20420 net.cpp:150] Setting up conv4_3_norm
I0602 10:00:39.470412 20420 net.cpp:157] Top shape: 32 512 38 38 (23658496)
I0602 10:00:39.470415 20420 net.cpp:165] Memory required for data: 7623606304
I0602 10:00:39.470433 20420 layer_factory.hpp:77] Creating layer conv4_3_norm_conv4_3_norm_0_split
I0602 10:00:39.470453 20420 net.cpp:100] Creating Layer conv4_3_norm_conv4_3_norm_0_split
I0602 10:00:39.470458 20420 net.cpp:434] conv4_3_norm_conv4_3_norm_0_split <- conv4_3_norm
I0602 10:00:39.470486 20420 net.cpp:408] conv4_3_norm_conv4_3_norm_0_split -> conv4_3_norm_conv4_3_norm_0_split_0
I0602 10:00:39.470495 20420 net.cpp:408] conv4_3_norm_conv4_3_norm_0_split -> conv4_3_norm_conv4_3_norm_0_split_1
I0602 10:00:39.470502 20420 net.cpp:408] conv4_3_norm_conv4_3_norm_0_split -> conv4_3_norm_conv4_3_norm_0_split_2
I0602 10:00:39.470557 20420 net.cpp:150] Setting up conv4_3_norm_conv4_3_norm_0_split
I0602 10:00:39.470563 20420 net.cpp:157] Top shape: 32 512 38 38 (23658496)
I0602 10:00:39.470568 20420 net.cpp:157] Top shape: 32 512 38 38 (23658496)
I0602 10:00:39.470587 20420 net.cpp:157] Top shape: 32 512 38 38 (23658496)
I0602 10:00:39.470590 20420 net.cpp:165] Memory required for data: 7907508256
I0602 10:00:39.470594 20420 layer_factory.hpp:77] Creating layer conv4_3_norm_mbox_loc
I0602 10:00:39.470603 20420 net.cpp:100] Creating Layer conv4_3_norm_mbox_loc
I0602 10:00:39.470607 20420 net.cpp:434] conv4_3_norm_mbox_loc <- conv4_3_norm_conv4_3_norm_0_split_0
I0602 10:00:39.470616 20420 net.cpp:408] conv4_3_norm_mbox_loc -> conv4_3_norm_mbox_loc
I0602 10:00:39.472534 20420 net.cpp:150] Setting up conv4_3_norm_mbox_loc
I0602 10:00:39.472549 20420 net.cpp:157] Top shape: 32 16 38 38 (739328)
I0602 10:00:39.472553 20420 net.cpp:165] Memory required for data: 7910465568
I0602 10:00:39.472561 20420 layer_factory.hpp:77] Creating layer conv4_3_norm_mbox_loc_perm
I0602 10:00:39.472573 20420 net.cpp:100] Creating Layer conv4_3_norm_mbox_loc_perm
I0602 10:00:39.472579 20420 net.cpp:434] conv4_3_norm_mbox_loc_perm <- conv4_3_norm_mbox_loc
I0602 10:00:39.472587 20420 net.cpp:408] conv4_3_norm_mbox_loc_perm -> conv4_3_norm_mbox_loc_perm
I0602 10:00:39.472681 20420 net.cpp:150] Setting up conv4_3_norm_mbox_loc_perm
I0602 10:00:39.472689 20420 net.cpp:157] Top shape: 32 38 38 16 (739328)
I0602 10:00:39.472693 20420 net.cpp:165] Memory required for data: 7913422880
I0602 10:00:39.472697 20420 layer_factory.hpp:77] Creating layer conv4_3_norm_mbox_loc_flat
I0602 10:00:39.472703 20420 net.cpp:100] Creating Layer conv4_3_norm_mbox_loc_flat
I0602 10:00:39.472708 20420 net.cpp:434] conv4_3_norm_mbox_loc_flat <- conv4_3_norm_mbox_loc_perm
I0602 10:00:39.472717 20420 net.cpp:408] conv4_3_norm_mbox_loc_flat -> conv4_3_norm_mbox_loc_flat
I0602 10:00:39.472750 20420 net.cpp:150] Setting up conv4_3_norm_mbox_loc_flat
I0602 10:00:39.472759 20420 net.cpp:157] Top shape: 32 23104 (739328)
I0602 10:00:39.472761 20420 net.cpp:165] Memory required for data: 7916380192
I0602 10:00:39.472765 20420 layer_factory.hpp:77] Creating layer conv4_3_norm_mbox_conf
I0602 10:00:39.472781 20420 net.cpp:100] Creating Layer conv4_3_norm_mbox_conf
I0602 10:00:39.472786 20420 net.cpp:434] conv4_3_norm_mbox_conf <- conv4_3_norm_conv4_3_norm_0_split_1
I0602 10:00:39.472793 20420 net.cpp:408] conv4_3_norm_mbox_conf -> conv4_3_norm_mbox_conf
I0602 10:00:39.474606 20420 net.cpp:150] Setting up conv4_3_norm_mbox_conf
I0602 10:00:39.474618 20420 net.cpp:157] Top shape: 32 16 38 38 (739328)
I0602 10:00:39.474622 20420 net.cpp:165] Memory required for data: 7919337504
I0602 10:00:39.474632 20420 layer_factory.hpp:77] Creating layer conv4_3_norm_mbox_conf_perm
I0602 10:00:39.474640 20420 net.cpp:100] Creating Layer conv4_3_norm_mbox_conf_perm
I0602 10:00:39.474647 20420 net.cpp:434] conv4_3_norm_mbox_conf_perm <- conv4_3_norm_mbox_conf
I0602 10:00:39.474655 20420 net.cpp:408] conv4_3_norm_mbox_conf_perm -> conv4_3_norm_mbox_conf_perm
I0602 10:00:39.474745 20420 net.cpp:150] Setting up conv4_3_norm_mbox_conf_perm
I0602 10:00:39.474767 20420 net.cpp:157] Top shape: 32 38 38 16 (739328)
I0602 10:00:39.474781 20420 net.cpp:165] Memory required for data: 7922294816
I0602 10:00:39.474795 20420 layer_factory.hpp:77] Creating layer conv4_3_norm_mbox_conf_flat
I0602 10:00:39.474813 20420 net.cpp:100] Creating Layer conv4_3_norm_mbox_conf_flat
I0602 10:00:39.474828 20420 net.cpp:434] conv4_3_norm_mbox_conf_flat <- conv4_3_norm_mbox_conf_perm
I0602 10:00:39.474843 20420 net.cpp:408] conv4_3_norm_mbox_conf_flat -> conv4_3_norm_mbox_conf_flat
I0602 10:00:39.474901 20420 net.cpp:150] Setting up conv4_3_norm_mbox_conf_flat
I0602 10:00:39.474920 20420 net.cpp:157] Top shape: 32 23104 (739328)
I0602 10:00:39.474932 20420 net.cpp:165] Memory required for data: 7925252128
I0602 10:00:39.474944 20420 layer_factory.hpp:77] Creating layer conv4_3_norm_mbox_priorbox
I0602 10:00:39.474962 20420 net.cpp:100] Creating Layer conv4_3_norm_mbox_priorbox
I0602 10:00:39.474977 20420 net.cpp:434] conv4_3_norm_mbox_priorbox <- conv4_3_norm_conv4_3_norm_0_split_2
I0602 10:00:39.474992 20420 net.cpp:434] conv4_3_norm_mbox_priorbox <- data_data_0_split_1
I0602 10:00:39.475009 20420 net.cpp:408] conv4_3_norm_mbox_priorbox -> conv4_3_norm_mbox_priorbox
I0602 10:00:39.475060 20420 net.cpp:150] Setting up conv4_3_norm_mbox_priorbox
I0602 10:00:39.475080 20420 net.cpp:157] Top shape: 1 2 23104 (46208)
I0602 10:00:39.475090 20420 net.cpp:165] Memory required for data: 7925436960
I0602 10:00:39.475102 20420 layer_factory.hpp:77] Creating layer fc7_mbox_loc
I0602 10:00:39.475124 20420 net.cpp:100] Creating Layer fc7_mbox_loc
I0602 10:00:39.475138 20420 net.cpp:434] fc7_mbox_loc <- fc7_relu7_0_split_1
I0602 10:00:39.475157 20420 net.cpp:408] fc7_mbox_loc -> fc7_mbox_loc
I0602 10:00:39.477694 20420 net.cpp:150] Setting up fc7_mbox_loc
I0602 10:00:39.477708 20420 net.cpp:157] Top shape: 32 24 19 19 (277248)
I0602 10:00:39.477711 20420 net.cpp:165] Memory required for data: 7926545952
I0602 10:00:39.477718 20420 layer_factory.hpp:77] Creating layer fc7_mbox_loc_perm
I0602 10:00:39.477725 20420 net.cpp:100] Creating Layer fc7_mbox_loc_perm
I0602 10:00:39.477728 20420 net.cpp:434] fc7_mbox_loc_perm <- fc7_mbox_loc
I0602 10:00:39.477735 20420 net.cpp:408] fc7_mbox_loc_perm -> fc7_mbox_loc_perm
I0602 10:00:39.477819 20420 net.cpp:150] Setting up fc7_mbox_loc_perm
I0602 10:00:39.477825 20420 net.cpp:157] Top shape: 32 19 19 24 (277248)
I0602 10:00:39.477828 20420 net.cpp:165] Memory required for data: 7927654944
I0602 10:00:39.477830 20420 layer_factory.hpp:77] Creating layer fc7_mbox_loc_flat
I0602 10:00:39.477834 20420 net.cpp:100] Creating Layer fc7_mbox_loc_flat
I0602 10:00:39.477838 20420 net.cpp:434] fc7_mbox_loc_flat <- fc7_mbox_loc_perm
I0602 10:00:39.477841 20420 net.cpp:408] fc7_mbox_loc_flat -> fc7_mbox_loc_flat
I0602 10:00:39.477860 20420 net.cpp:150] Setting up fc7_mbox_loc_flat
I0602 10:00:39.477864 20420 net.cpp:157] Top shape: 32 8664 (277248)
I0602 10:00:39.477866 20420 net.cpp:165] Memory required for data: 7928763936
I0602 10:00:39.477869 20420 layer_factory.hpp:77] Creating layer fc7_mbox_conf
I0602 10:00:39.477879 20420 net.cpp:100] Creating Layer fc7_mbox_conf
I0602 10:00:39.477881 20420 net.cpp:434] fc7_mbox_conf <- fc7_relu7_0_split_2
I0602 10:00:39.477885 20420 net.cpp:408] fc7_mbox_conf -> fc7_mbox_conf
I0602 10:00:39.480429 20420 net.cpp:150] Setting up fc7_mbox_conf
I0602 10:00:39.480448 20420 net.cpp:157] Top shape: 32 24 19 19 (277248)
I0602 10:00:39.480450 20420 net.cpp:165] Memory required for data: 7929872928
I0602 10:00:39.480458 20420 layer_factory.hpp:77] Creating layer fc7_mbox_conf_perm
I0602 10:00:39.480465 20420 net.cpp:100] Creating Layer fc7_mbox_conf_perm
I0602 10:00:39.480469 20420 net.cpp:434] fc7_mbox_conf_perm <- fc7_mbox_conf
I0602 10:00:39.480475 20420 net.cpp:408] fc7_mbox_conf_perm -> fc7_mbox_conf_perm
I0602 10:00:39.480569 20420 net.cpp:150] Setting up fc7_mbox_conf_perm
I0602 10:00:39.480576 20420 net.cpp:157] Top shape: 32 19 19 24 (277248)
I0602 10:00:39.480578 20420 net.cpp:165] Memory required for data: 7930981920
I0602 10:00:39.480581 20420 layer_factory.hpp:77] Creating layer fc7_mbox_conf_flat
I0602 10:00:39.480584 20420 net.cpp:100] Creating Layer fc7_mbox_conf_flat
I0602 10:00:39.480587 20420 net.cpp:434] fc7_mbox_conf_flat <- fc7_mbox_conf_perm
I0602 10:00:39.480592 20420 net.cpp:408] fc7_mbox_conf_flat -> fc7_mbox_conf_flat
I0602 10:00:39.480609 20420 net.cpp:150] Setting up fc7_mbox_conf_flat
I0602 10:00:39.480614 20420 net.cpp:157] Top shape: 32 8664 (277248)
I0602 10:00:39.480617 20420 net.cpp:165] Memory required for data: 7932090912
I0602 10:00:39.480628 20420 layer_factory.hpp:77] Creating layer fc7_mbox_priorbox
I0602 10:00:39.480635 20420 net.cpp:100] Creating Layer fc7_mbox_priorbox
I0602 10:00:39.480639 20420 net.cpp:434] fc7_mbox_priorbox <- fc7_relu7_0_split_3
I0602 10:00:39.480643 20420 net.cpp:434] fc7_mbox_priorbox <- data_data_0_split_2
I0602 10:00:39.480648 20420 net.cpp:408] fc7_mbox_priorbox -> fc7_mbox_priorbox
I0602 10:00:39.480672 20420 net.cpp:150] Setting up fc7_mbox_priorbox
I0602 10:00:39.480677 20420 net.cpp:157] Top shape: 1 2 8664 (17328)
I0602 10:00:39.480679 20420 net.cpp:165] Memory required for data: 7932160224
I0602 10:00:39.480681 20420 layer_factory.hpp:77] Creating layer conv6_2_mbox_loc
I0602 10:00:39.480691 20420 net.cpp:100] Creating Layer conv6_2_mbox_loc
I0602 10:00:39.480695 20420 net.cpp:434] conv6_2_mbox_loc <- conv6_2_conv6_2_relu_0_split_1
I0602 10:00:39.480700 20420 net.cpp:408] conv6_2_mbox_loc -> conv6_2_mbox_loc
I0602 10:00:39.482699 20420 net.cpp:150] Setting up conv6_2_mbox_loc
I0602 10:00:39.482713 20420 net.cpp:157] Top shape: 32 24 10 10 (76800)
I0602 10:00:39.482715 20420 net.cpp:165] Memory required for data: 7932467424
I0602 10:00:39.482722 20420 layer_factory.hpp:77] Creating layer conv6_2_mbox_loc_perm
I0602 10:00:39.482728 20420 net.cpp:100] Creating Layer conv6_2_mbox_loc_perm
I0602 10:00:39.482731 20420 net.cpp:434] conv6_2_mbox_loc_perm <- conv6_2_mbox_loc
I0602 10:00:39.482740 20420 net.cpp:408] conv6_2_mbox_loc_perm -> conv6_2_mbox_loc_perm
I0602 10:00:39.482836 20420 net.cpp:150] Setting up conv6_2_mbox_loc_perm
I0602 10:00:39.482842 20420 net.cpp:157] Top shape: 32 10 10 24 (76800)
I0602 10:00:39.482846 20420 net.cpp:165] Memory required for data: 7932774624
I0602 10:00:39.482851 20420 layer_factory.hpp:77] Creating layer conv6_2_mbox_loc_flat
I0602 10:00:39.482856 20420 net.cpp:100] Creating Layer conv6_2_mbox_loc_flat
I0602 10:00:39.482862 20420 net.cpp:434] conv6_2_mbox_loc_flat <- conv6_2_mbox_loc_perm
I0602 10:00:39.482872 20420 net.cpp:408] conv6_2_mbox_loc_flat -> conv6_2_mbox_loc_flat
I0602 10:00:39.482897 20420 net.cpp:150] Setting up conv6_2_mbox_loc_flat
I0602 10:00:39.482903 20420 net.cpp:157] Top shape: 32 2400 (76800)
I0602 10:00:39.482905 20420 net.cpp:165] Memory required for data: 7933081824
I0602 10:00:39.482910 20420 layer_factory.hpp:77] Creating layer conv6_2_mbox_conf
I0602 10:00:39.482923 20420 net.cpp:100] Creating Layer conv6_2_mbox_conf
I0602 10:00:39.482928 20420 net.cpp:434] conv6_2_mbox_conf <- conv6_2_conv6_2_relu_0_split_2
I0602 10:00:39.482935 20420 net.cpp:408] conv6_2_mbox_conf -> conv6_2_mbox_conf
I0602 10:00:39.485175 20420 net.cpp:150] Setting up conv6_2_mbox_conf
I0602 10:00:39.485188 20420 net.cpp:157] Top shape: 32 24 10 10 (76800)
I0602 10:00:39.485193 20420 net.cpp:165] Memory required for data: 7933389024
I0602 10:00:39.485200 20420 layer_factory.hpp:77] Creating layer conv6_2_mbox_conf_perm
I0602 10:00:39.485209 20420 net.cpp:100] Creating Layer conv6_2_mbox_conf_perm
I0602 10:00:39.485230 20420 net.cpp:434] conv6_2_mbox_conf_perm <- conv6_2_mbox_conf
I0602 10:00:39.485239 20420 net.cpp:408] conv6_2_mbox_conf_perm -> conv6_2_mbox_conf_perm
I0602 10:00:39.485333 20420 net.cpp:150] Setting up conv6_2_mbox_conf_perm
I0602 10:00:39.485340 20420 net.cpp:157] Top shape: 32 10 10 24 (76800)
I0602 10:00:39.485344 20420 net.cpp:165] Memory required for data: 7933696224
I0602 10:00:39.485348 20420 layer_factory.hpp:77] Creating layer conv6_2_mbox_conf_flat
I0602 10:00:39.485354 20420 net.cpp:100] Creating Layer conv6_2_mbox_conf_flat
I0602 10:00:39.485359 20420 net.cpp:434] conv6_2_mbox_conf_flat <- conv6_2_mbox_conf_perm
I0602 10:00:39.485368 20420 net.cpp:408] conv6_2_mbox_conf_flat -> conv6_2_mbox_conf_flat
I0602 10:00:39.485393 20420 net.cpp:150] Setting up conv6_2_mbox_conf_flat
I0602 10:00:39.485399 20420 net.cpp:157] Top shape: 32 2400 (76800)
I0602 10:00:39.485401 20420 net.cpp:165] Memory required for data: 7934003424
I0602 10:00:39.485405 20420 layer_factory.hpp:77] Creating layer conv6_2_mbox_priorbox
I0602 10:00:39.485424 20420 net.cpp:100] Creating Layer conv6_2_mbox_priorbox
I0602 10:00:39.485427 20420 net.cpp:434] conv6_2_mbox_priorbox <- conv6_2_conv6_2_relu_0_split_3
I0602 10:00:39.485433 20420 net.cpp:434] conv6_2_mbox_priorbox <- data_data_0_split_3
I0602 10:00:39.485443 20420 net.cpp:408] conv6_2_mbox_priorbox -> conv6_2_mbox_priorbox
I0602 10:00:39.485471 20420 net.cpp:150] Setting up conv6_2_mbox_priorbox
I0602 10:00:39.485478 20420 net.cpp:157] Top shape: 1 2 2400 (4800)
I0602 10:00:39.485482 20420 net.cpp:165] Memory required for data: 7934022624
I0602 10:00:39.485487 20420 layer_factory.hpp:77] Creating layer conv7_2_mbox_loc
I0602 10:00:39.485497 20420 net.cpp:100] Creating Layer conv7_2_mbox_loc
I0602 10:00:39.485502 20420 net.cpp:434] conv7_2_mbox_loc <- conv7_2_conv7_2_relu_0_split_1
I0602 10:00:39.485509 20420 net.cpp:408] conv7_2_mbox_loc -> conv7_2_mbox_loc
I0602 10:00:39.486835 20420 net.cpp:150] Setting up conv7_2_mbox_loc
I0602 10:00:39.486845 20420 net.cpp:157] Top shape: 32 24 5 5 (19200)
I0602 10:00:39.486850 20420 net.cpp:165] Memory required for data: 7934099424
I0602 10:00:39.486857 20420 layer_factory.hpp:77] Creating layer conv7_2_mbox_loc_perm
I0602 10:00:39.486868 20420 net.cpp:100] Creating Layer conv7_2_mbox_loc_perm
I0602 10:00:39.486872 20420 net.cpp:434] conv7_2_mbox_loc_perm <- conv7_2_mbox_loc
I0602 10:00:39.486879 20420 net.cpp:408] conv7_2_mbox_loc_perm -> conv7_2_mbox_loc_perm
I0602 10:00:39.486971 20420 net.cpp:150] Setting up conv7_2_mbox_loc_perm
I0602 10:00:39.486979 20420 net.cpp:157] Top shape: 32 5 5 24 (19200)
I0602 10:00:39.486982 20420 net.cpp:165] Memory required for data: 7934176224
I0602 10:00:39.486985 20420 layer_factory.hpp:77] Creating layer conv7_2_mbox_loc_flat
I0602 10:00:39.486995 20420 net.cpp:100] Creating Layer conv7_2_mbox_loc_flat
I0602 10:00:39.486999 20420 net.cpp:434] conv7_2_mbox_loc_flat <- conv7_2_mbox_loc_perm
I0602 10:00:39.487005 20420 net.cpp:408] conv7_2_mbox_loc_flat -> conv7_2_mbox_loc_flat
I0602 10:00:39.487028 20420 net.cpp:150] Setting up conv7_2_mbox_loc_flat
I0602 10:00:39.487035 20420 net.cpp:157] Top shape: 32 600 (19200)
I0602 10:00:39.487038 20420 net.cpp:165] Memory required for data: 7934253024
I0602 10:00:39.487041 20420 layer_factory.hpp:77] Creating layer conv7_2_mbox_conf
I0602 10:00:39.487052 20420 net.cpp:100] Creating Layer conv7_2_mbox_conf
I0602 10:00:39.487057 20420 net.cpp:434] conv7_2_mbox_conf <- conv7_2_conv7_2_relu_0_split_2
I0602 10:00:39.487064 20420 net.cpp:408] conv7_2_mbox_conf -> conv7_2_mbox_conf
I0602 10:00:39.488947 20420 net.cpp:150] Setting up conv7_2_mbox_conf
I0602 10:00:39.488962 20420 net.cpp:157] Top shape: 32 24 5 5 (19200)
I0602 10:00:39.488966 20420 net.cpp:165] Memory required for data: 7934329824
I0602 10:00:39.488975 20420 layer_factory.hpp:77] Creating layer conv7_2_mbox_conf_perm
I0602 10:00:39.488986 20420 net.cpp:100] Creating Layer conv7_2_mbox_conf_perm
I0602 10:00:39.488992 20420 net.cpp:434] conv7_2_mbox_conf_perm <- conv7_2_mbox_conf
I0602 10:00:39.488999 20420 net.cpp:408] conv7_2_mbox_conf_perm -> conv7_2_mbox_conf_perm
I0602 10:00:39.489091 20420 net.cpp:150] Setting up conv7_2_mbox_conf_perm
I0602 10:00:39.489099 20420 net.cpp:157] Top shape: 32 5 5 24 (19200)
I0602 10:00:39.489102 20420 net.cpp:165] Memory required for data: 7934406624
I0602 10:00:39.489106 20420 layer_factory.hpp:77] Creating layer conv7_2_mbox_conf_flat
I0602 10:00:39.489114 20420 net.cpp:100] Creating Layer conv7_2_mbox_conf_flat
I0602 10:00:39.489117 20420 net.cpp:434] conv7_2_mbox_conf_flat <- conv7_2_mbox_conf_perm
I0602 10:00:39.489125 20420 net.cpp:408] conv7_2_mbox_conf_flat -> conv7_2_mbox_conf_flat
I0602 10:00:39.489148 20420 net.cpp:150] Setting up conv7_2_mbox_conf_flat
I0602 10:00:39.489153 20420 net.cpp:157] Top shape: 32 600 (19200)
I0602 10:00:39.489157 20420 net.cpp:165] Memory required for data: 7934483424
I0602 10:00:39.489161 20420 layer_factory.hpp:77] Creating layer conv7_2_mbox_priorbox
I0602 10:00:39.489169 20420 net.cpp:100] Creating Layer conv7_2_mbox_priorbox
I0602 10:00:39.489174 20420 net.cpp:434] conv7_2_mbox_priorbox <- conv7_2_conv7_2_relu_0_split_3
I0602 10:00:39.489188 20420 net.cpp:434] conv7_2_mbox_priorbox <- data_data_0_split_4
I0602 10:00:39.489198 20420 net.cpp:408] conv7_2_mbox_priorbox -> conv7_2_mbox_priorbox
I0602 10:00:39.489224 20420 net.cpp:150] Setting up conv7_2_mbox_priorbox
I0602 10:00:39.489230 20420 net.cpp:157] Top shape: 1 2 600 (1200)
I0602 10:00:39.489233 20420 net.cpp:165] Memory required for data: 7934488224
I0602 10:00:39.489238 20420 layer_factory.hpp:77] Creating layer conv8_2_mbox_loc
I0602 10:00:39.489249 20420 net.cpp:100] Creating Layer conv8_2_mbox_loc
I0602 10:00:39.489254 20420 net.cpp:434] conv8_2_mbox_loc <- conv8_2_conv8_2_relu_0_split_1
I0602 10:00:39.489261 20420 net.cpp:408] conv8_2_mbox_loc -> conv8_2_mbox_loc
I0602 10:00:39.490962 20420 net.cpp:150] Setting up conv8_2_mbox_loc
I0602 10:00:39.490980 20420 net.cpp:157] Top shape: 32 16 3 3 (4608)
I0602 10:00:39.490984 20420 net.cpp:165] Memory required for data: 7934506656
I0602 10:00:39.491006 20420 layer_factory.hpp:77] Creating layer conv8_2_mbox_loc_perm
I0602 10:00:39.491021 20420 net.cpp:100] Creating Layer conv8_2_mbox_loc_perm
I0602 10:00:39.491029 20420 net.cpp:434] conv8_2_mbox_loc_perm <- conv8_2_mbox_loc
I0602 10:00:39.491039 20420 net.cpp:408] conv8_2_mbox_loc_perm -> conv8_2_mbox_loc_perm
I0602 10:00:39.491145 20420 net.cpp:150] Setting up conv8_2_mbox_loc_perm
I0602 10:00:39.491153 20420 net.cpp:157] Top shape: 32 3 3 16 (4608)
I0602 10:00:39.491158 20420 net.cpp:165] Memory required for data: 7934525088
I0602 10:00:39.491161 20420 layer_factory.hpp:77] Creating layer conv8_2_mbox_loc_flat
I0602 10:00:39.491169 20420 net.cpp:100] Creating Layer conv8_2_mbox_loc_flat
I0602 10:00:39.491174 20420 net.cpp:434] conv8_2_mbox_loc_flat <- conv8_2_mbox_loc_perm
I0602 10:00:39.491181 20420 net.cpp:408] conv8_2_mbox_loc_flat -> conv8_2_mbox_loc_flat
I0602 10:00:39.491209 20420 net.cpp:150] Setting up conv8_2_mbox_loc_flat
I0602 10:00:39.491214 20420 net.cpp:157] Top shape: 32 144 (4608)
I0602 10:00:39.491217 20420 net.cpp:165] Memory required for data: 7934543520
I0602 10:00:39.491221 20420 layer_factory.hpp:77] Creating layer conv8_2_mbox_conf
I0602 10:00:39.491232 20420 net.cpp:100] Creating Layer conv8_2_mbox_conf
I0602 10:00:39.491237 20420 net.cpp:434] conv8_2_mbox_conf <- conv8_2_conv8_2_relu_0_split_2
I0602 10:00:39.491246 20420 net.cpp:408] conv8_2_mbox_conf -> conv8_2_mbox_conf
I0602 10:00:39.492992 20420 net.cpp:150] Setting up conv8_2_mbox_conf
I0602 10:00:39.493008 20420 net.cpp:157] Top shape: 32 16 3 3 (4608)
I0602 10:00:39.493012 20420 net.cpp:165] Memory required for data: 7934561952
I0602 10:00:39.493021 20420 layer_factory.hpp:77] Creating layer conv8_2_mbox_conf_perm
I0602 10:00:39.493031 20420 net.cpp:100] Creating Layer conv8_2_mbox_conf_perm
I0602 10:00:39.493036 20420 net.cpp:434] conv8_2_mbox_conf_perm <- conv8_2_mbox_conf
I0602 10:00:39.493046 20420 net.cpp:408] conv8_2_mbox_conf_perm -> conv8_2_mbox_conf_perm
I0602 10:00:39.493139 20420 net.cpp:150] Setting up conv8_2_mbox_conf_perm
I0602 10:00:39.493147 20420 net.cpp:157] Top shape: 32 3 3 16 (4608)
I0602 10:00:39.493151 20420 net.cpp:165] Memory required for data: 7934580384
I0602 10:00:39.493155 20420 layer_factory.hpp:77] Creating layer conv8_2_mbox_conf_flat
I0602 10:00:39.493161 20420 net.cpp:100] Creating Layer conv8_2_mbox_conf_flat
I0602 10:00:39.493166 20420 net.cpp:434] conv8_2_mbox_conf_flat <- conv8_2_mbox_conf_perm
I0602 10:00:39.493172 20420 net.cpp:408] conv8_2_mbox_conf_flat -> conv8_2_mbox_conf_flat
I0602 10:00:39.493198 20420 net.cpp:150] Setting up conv8_2_mbox_conf_flat
I0602 10:00:39.493204 20420 net.cpp:157] Top shape: 32 144 (4608)
I0602 10:00:39.493207 20420 net.cpp:165] Memory required for data: 7934598816
I0602 10:00:39.493211 20420 layer_factory.hpp:77] Creating layer conv8_2_mbox_priorbox
I0602 10:00:39.493219 20420 net.cpp:100] Creating Layer conv8_2_mbox_priorbox
I0602 10:00:39.493224 20420 net.cpp:434] conv8_2_mbox_priorbox <- conv8_2_conv8_2_relu_0_split_3
I0602 10:00:39.493229 20420 net.cpp:434] conv8_2_mbox_priorbox <- data_data_0_split_5
I0602 10:00:39.493248 20420 net.cpp:408] conv8_2_mbox_priorbox -> conv8_2_mbox_priorbox
I0602 10:00:39.493278 20420 net.cpp:150] Setting up conv8_2_mbox_priorbox
I0602 10:00:39.493285 20420 net.cpp:157] Top shape: 1 2 144 (288)
I0602 10:00:39.493289 20420 net.cpp:165] Memory required for data: 7934599968
I0602 10:00:39.493293 20420 layer_factory.hpp:77] Creating layer conv9_2_mbox_loc
I0602 10:00:39.493304 20420 net.cpp:100] Creating Layer conv9_2_mbox_loc
I0602 10:00:39.493309 20420 net.cpp:434] conv9_2_mbox_loc <- conv9_2_conv9_2_relu_0_split_0
I0602 10:00:39.493317 20420 net.cpp:408] conv9_2_mbox_loc -> conv9_2_mbox_loc
I0602 10:00:39.494982 20420 net.cpp:150] Setting up conv9_2_mbox_loc
I0602 10:00:39.494993 20420 net.cpp:157] Top shape: 32 16 1 1 (512)
I0602 10:00:39.494997 20420 net.cpp:165] Memory required for data: 7934602016
I0602 10:00:39.495005 20420 layer_factory.hpp:77] Creating layer conv9_2_mbox_loc_perm
I0602 10:00:39.495014 20420 net.cpp:100] Creating Layer conv9_2_mbox_loc_perm
I0602 10:00:39.495019 20420 net.cpp:434] conv9_2_mbox_loc_perm <- conv9_2_mbox_loc
I0602 10:00:39.495028 20420 net.cpp:408] conv9_2_mbox_loc_perm -> conv9_2_mbox_loc_perm
I0602 10:00:39.495121 20420 net.cpp:150] Setting up conv9_2_mbox_loc_perm
I0602 10:00:39.495127 20420 net.cpp:157] Top shape: 32 1 1 16 (512)
I0602 10:00:39.495131 20420 net.cpp:165] Memory required for data: 7934604064
I0602 10:00:39.495136 20420 layer_factory.hpp:77] Creating layer conv9_2_mbox_loc_flat
I0602 10:00:39.495141 20420 net.cpp:100] Creating Layer conv9_2_mbox_loc_flat
I0602 10:00:39.495146 20420 net.cpp:434] conv9_2_mbox_loc_flat <- conv9_2_mbox_loc_perm
I0602 10:00:39.495153 20420 net.cpp:408] conv9_2_mbox_loc_flat -> conv9_2_mbox_loc_flat
I0602 10:00:39.495177 20420 net.cpp:150] Setting up conv9_2_mbox_loc_flat
I0602 10:00:39.495185 20420 net.cpp:157] Top shape: 32 16 (512)
I0602 10:00:39.495188 20420 net.cpp:165] Memory required for data: 7934606112
I0602 10:00:39.495193 20420 layer_factory.hpp:77] Creating layer conv9_2_mbox_conf
I0602 10:00:39.495204 20420 net.cpp:100] Creating Layer conv9_2_mbox_conf
I0602 10:00:39.495208 20420 net.cpp:434] conv9_2_mbox_conf <- conv9_2_conv9_2_relu_0_split_1
I0602 10:00:39.495215 20420 net.cpp:408] conv9_2_mbox_conf -> conv9_2_mbox_conf
I0602 10:00:39.497320 20420 net.cpp:150] Setting up conv9_2_mbox_conf
I0602 10:00:39.497334 20420 net.cpp:157] Top shape: 32 16 1 1 (512)
I0602 10:00:39.497336 20420 net.cpp:165] Memory required for data: 7934608160
I0602 10:00:39.497344 20420 layer_factory.hpp:77] Creating layer conv9_2_mbox_conf_perm
I0602 10:00:39.497352 20420 net.cpp:100] Creating Layer conv9_2_mbox_conf_perm
I0602 10:00:39.497359 20420 net.cpp:434] conv9_2_mbox_conf_perm <- conv9_2_mbox_conf
I0602 10:00:39.497366 20420 net.cpp:408] conv9_2_mbox_conf_perm -> conv9_2_mbox_conf_perm
I0602 10:00:39.497462 20420 net.cpp:150] Setting up conv9_2_mbox_conf_perm
I0602 10:00:39.497468 20420 net.cpp:157] Top shape: 32 1 1 16 (512)
I0602 10:00:39.497473 20420 net.cpp:165] Memory required for data: 7934610208
I0602 10:00:39.497475 20420 layer_factory.hpp:77] Creating layer conv9_2_mbox_conf_flat
I0602 10:00:39.497481 20420 net.cpp:100] Creating Layer conv9_2_mbox_conf_flat
I0602 10:00:39.497486 20420 net.cpp:434] conv9_2_mbox_conf_flat <- conv9_2_mbox_conf_perm
I0602 10:00:39.497494 20420 net.cpp:408] conv9_2_mbox_conf_flat -> conv9_2_mbox_conf_flat
I0602 10:00:39.497520 20420 net.cpp:150] Setting up conv9_2_mbox_conf_flat
I0602 10:00:39.497541 20420 net.cpp:157] Top shape: 32 16 (512)
I0602 10:00:39.497555 20420 net.cpp:165] Memory required for data: 7934612256
I0602 10:00:39.497567 20420 layer_factory.hpp:77] Creating layer conv9_2_mbox_priorbox
I0602 10:00:39.497586 20420 net.cpp:100] Creating Layer conv9_2_mbox_priorbox
I0602 10:00:39.497599 20420 net.cpp:434] conv9_2_mbox_priorbox <- conv9_2_conv9_2_relu_0_split_2
I0602 10:00:39.497615 20420 net.cpp:434] conv9_2_mbox_priorbox <- data_data_0_split_6
I0602 10:00:39.497633 20420 net.cpp:408] conv9_2_mbox_priorbox -> conv9_2_mbox_priorbox
I0602 10:00:39.497684 20420 net.cpp:150] Setting up conv9_2_mbox_priorbox
I0602 10:00:39.497690 20420 net.cpp:157] Top shape: 1 2 16 (32)
I0602 10:00:39.497694 20420 net.cpp:165] Memory required for data: 7934612384
I0602 10:00:39.497697 20420 layer_factory.hpp:77] Creating layer mbox_loc
I0602 10:00:39.497707 20420 net.cpp:100] Creating Layer mbox_loc
I0602 10:00:39.497712 20420 net.cpp:434] mbox_loc <- conv4_3_norm_mbox_loc_flat
I0602 10:00:39.497719 20420 net.cpp:434] mbox_loc <- fc7_mbox_loc_flat
I0602 10:00:39.497725 20420 net.cpp:434] mbox_loc <- conv6_2_mbox_loc_flat
I0602 10:00:39.497731 20420 net.cpp:434] mbox_loc <- conv7_2_mbox_loc_flat
I0602 10:00:39.497736 20420 net.cpp:434] mbox_loc <- conv8_2_mbox_loc_flat
I0602 10:00:39.497741 20420 net.cpp:434] mbox_loc <- conv9_2_mbox_loc_flat
I0602 10:00:39.497748 20420 net.cpp:408] mbox_loc -> mbox_loc
I0602 10:00:39.497781 20420 net.cpp:150] Setting up mbox_loc
I0602 10:00:39.497789 20420 net.cpp:157] Top shape: 32 34928 (1117696)
I0602 10:00:39.497792 20420 net.cpp:165] Memory required for data: 7939083168
I0602 10:00:39.497797 20420 layer_factory.hpp:77] Creating layer mbox_conf
I0602 10:00:39.497804 20420 net.cpp:100] Creating Layer mbox_conf
I0602 10:00:39.497809 20420 net.cpp:434] mbox_conf <- conv4_3_norm_mbox_conf_flat
I0602 10:00:39.497815 20420 net.cpp:434] mbox_conf <- fc7_mbox_conf_flat
I0602 10:00:39.497820 20420 net.cpp:434] mbox_conf <- conv6_2_mbox_conf_flat
I0602 10:00:39.497826 20420 net.cpp:434] mbox_conf <- conv7_2_mbox_conf_flat
I0602 10:00:39.497830 20420 net.cpp:434] mbox_conf <- conv8_2_mbox_conf_flat
I0602 10:00:39.497835 20420 net.cpp:434] mbox_conf <- conv9_2_mbox_conf_flat
I0602 10:00:39.497841 20420 net.cpp:408] mbox_conf -> mbox_conf
I0602 10:00:39.497869 20420 net.cpp:150] Setting up mbox_conf
I0602 10:00:39.497877 20420 net.cpp:157] Top shape: 32 34928 (1117696)
I0602 10:00:39.497881 20420 net.cpp:165] Memory required for data: 7943553952
I0602 10:00:39.497884 20420 layer_factory.hpp:77] Creating layer mbox_priorbox
I0602 10:00:39.497892 20420 net.cpp:100] Creating Layer mbox_priorbox
I0602 10:00:39.497897 20420 net.cpp:434] mbox_priorbox <- conv4_3_norm_mbox_priorbox
I0602 10:00:39.497902 20420 net.cpp:434] mbox_priorbox <- fc7_mbox_priorbox
I0602 10:00:39.497907 20420 net.cpp:434] mbox_priorbox <- conv6_2_mbox_priorbox
I0602 10:00:39.497912 20420 net.cpp:434] mbox_priorbox <- conv7_2_mbox_priorbox
I0602 10:00:39.497917 20420 net.cpp:434] mbox_priorbox <- conv8_2_mbox_priorbox
I0602 10:00:39.497921 20420 net.cpp:434] mbox_priorbox <- conv9_2_mbox_priorbox
I0602 10:00:39.497927 20420 net.cpp:408] mbox_priorbox -> mbox_priorbox
I0602 10:00:39.497956 20420 net.cpp:150] Setting up mbox_priorbox
I0602 10:00:39.497963 20420 net.cpp:157] Top shape: 1 2 34928 (69856)
I0602 10:00:39.497967 20420 net.cpp:165] Memory required for data: 7943833376
I0602 10:00:39.497972 20420 layer_factory.hpp:77] Creating layer mbox_loss
I0602 10:00:39.497983 20420 net.cpp:100] Creating Layer mbox_loss
I0602 10:00:39.497989 20420 net.cpp:434] mbox_loss <- mbox_loc
I0602 10:00:39.497994 20420 net.cpp:434] mbox_loss <- mbox_conf
I0602 10:00:39.497998 20420 net.cpp:434] mbox_loss <- mbox_priorbox
…
  name: "data"
  type: "AnnotatedData"
  top: "data"
  top: "label"
  include {
    phase: TEST
  }
  transform_param {
    mean_value: 104
    mean_value: 117
    mean_value: 123
    resize_param {
      prob: 1
      resize_mode: WARP
      height: 300
      width: 300
      interp_mode: LINEAR
    }
  }
  data_param {
    source: "examples/tbs_300x300_HSIL_10x/tbs_300x300_HSIL_10x_test_lmdb"
    batch_size: 4
    backend: LMDB
  }
  annotated_data_param {
    batch_sampler {
    }
    label_map_file: "data/tbs_300x300_HSIL_10x/labelmap_voc.prototxt"
  }
}
layer {
  name: "conv1_1"
  type: "Convolution"
  bottom: "data"
  top: "conv1_1"
  param {
    lr_mult: 1
    decay_mult: 1
  }
  param {
    lr_mult: 2
    decay_mult: 0
  }
  convolution_param {
    num_output: 64
    pad: 1
    kernel_size: 3
    weight_filler {
      type: "xavier"
    }
    bias_filler {
      type: "constant"
      value: 0
    }
  }
}
layer {
  name: "relu1_1"
  type: "ReLU"
  bottom: "conv1_1"
  top: "conv1_1"
}
layer {
  name: "conv1_2"
  type: "Convolution"
  bottom: "conv1_1"
  top: "conv1_2"
  param {
    lr_mult: 1
    decay_mult: 1
  }
  param {
    lr_mult: 2
    decay_mult: 0
  }
  convolution_param {
    num_output: 64
    pad: 1
    kernel_size: 3
    weight_filler {
      type: "xavier"
    }
    bias_filler {
      type: "constant"
      value: 0
    }
  }
}
layer {
  name: "relu1_2"
  type: "ReLU"
  bottom: "conv1_2"
  top: "conv1_2"
}
layer {
  name: "pool1"
  type: "Pooling"
  bottom: "conv1_2"
  top: "pool1"
  pooling_param {
    pool: MAX
    kernel_size: 2
    stride: 2
  }
}
layer {
  name: "conv2_1"
  type: "Convolution"
  bottom: "pool1"
  top: "conv2_1"
  param {
    lr_mult: 1
    decay_mult: 1
  }
  param {
    lr_mult: 2
    decay_mult: 0
  }
  convolution_param {
    num_output: 128
    pad: 1
    kernel_size: 3
    weight_filler {
      type: "xavier"
    }
    bias_filler {
      type: "constant"
      value: 0
    }
  }
}
layer {
  name: "relu2_1"
  type: "ReLU"
  bottom: "conv2_1"
  top: "conv2_1"
}
layer {
  name: "conv2_2"
  type: "Convolution"
  bottom: "conv2_1"
  top: "conv2_2"
  param {
    lr_mult: 1
    decay_mult: 1
  }
  param {
    lr_mult: 2
    decay_mult: 0
  }
  convolution_param {
    num_output: 128
    pad: 1
    kernel_size: 3
    weight_filler {
      type: "xavier"
    }
    bias_filler {
      type: "constant"
      value: 0
    }
  }
}
layer {
  name: "relu2_2"
  type: "ReLU"
  bottom: "conv2_2"
  top: "conv2_2"
}
layer {
  name: "pool2"
  type: "Pooling"
  bottom: "conv2_2"
  top: "pool2"
  pooling_param {
    pool: MAX
    kernel_size: 2
    stride: 2
  }
}
layer {
  name: "conv3_1"
  type: "Convolution"
  bottom: "pool2"
  top: "conv3_1"
  param {
    lr_mult: 1
    decay_mult: 1
  }
  param {
    lr_mult: 2
    decay_mult: 0
  }
  convolution_param {
    num_output: 256
    pad: 1
    kernel_size: 3
    weight_filler {
      type: "xavier"
    }
    bias_filler {
      type: "constant"
      value: 0
    }
  }
}
layer {
  name: "relu3_1"
  type: "ReLU"
  bottom: "conv3_1"
  top: "conv3_1"
}
layer {
  name: "conv3_2"
  type: "Convolution"
  bottom: "conv3_1"
  top: "conv3_2"
  param {
    lr_mult: 1
    decay_mult: 1
  }
  param {
    lr_mult: 2
    decay_mult: 0
  }
  convolution_param {
    num_output: 256
    pad: 1
    kernel_size: 3
    weight_filler {
      type: "xavier"
    }
    bias_filler {
      type: "constant"
      value: 0
    }
  }
}
layer {
  name: "relu3_2"
  type: "ReLU"
  bottom: "conv3_2"
  top: "conv3_2"
}
layer {
  name: "conv3_3"
  type: "Convolution"
  bottom: "conv3_2"
  top: "conv3_3"
  param {
    lr_mult: 1
    decay_mult: 1
  }
  param {
    lr_mult: 2
    decay_mult: 0
  }
  convolution_param {
    num_output: 256
    pad: 1
    kernel_size: 3
    weight_filler {
      type: "xavier"
    }
    bias_filler {
      type: "constant"
      value: 0
    }
  }
}
layer {
  name: "relu3_3"
  type: "ReLU"
  bottom: "conv3_3"
  top: "conv3_3"
}
layer {
  name: "pool3"
  type: "Pooling"
  bottom: "conv3_3"
  top: "pool3"
  pooling_param {
    pool: MAX
    kernel_size: 2
    stride: 2
  }
}
layer {
  name: "conv4_1"
  type: "Convolution"
  bottom: "pool3"
  top: "conv4_1"
  param {
    lr_mult: 1
    decay_mult: 1
  }
  param {
    lr_mult: 2
    decay_mult: 0
  }
  convolution_param {
    num_output: 512
    pad: 1
    kernel_size: 3
    weight_filler {
      type: "xavier"
    }
    bias_filler {
      type: "constant"
      value: 0
    }
  }
}
layer {
  name: "relu4_1"
  type: "ReLU"
  bottom: "conv4_1"
  top: "conv4_1"
}
layer {
  name: "conv4_2"
  type: "Convolution"
  bottom: "conv4_1"
  top: "conv4_2"
  param {
    lr_mult: 1
    decay_mult: 1
  }
  param {
    lr_mult: 2
    decay_mult: 0
  }
  convolution_param {
    num_output: 512
    pad: 1
    kernel_size: 3
    weight_filler {
      type: "xavier"
    }
    bias_filler {
      type: "constant"
      value: 0
    }
  }
}
layer {
  name: "relu4_2"
  type: "ReLU"
  bottom: "conv4_2"
  top: "conv4_2"
}
layer {
  name: "conv4_3"
  type: "Convolution"
  bottom: "conv4_2"
  top: "conv4_3"
  param {
    lr_mult: 1
    decay_mult: 1
  }
  param {
    lr_mult: 2
    decay_mult: 0
  }
  convolution_param {
    num_output: 512
    pad: 1
    kernel_size: 3
    weight_filler {
      type: "xavier"
    }
    bias_filler {
      type: "constant"
      value: 0
    }
  }
}
layer {
  name: "relu4_3"
  type: "ReLU"
  bottom: "conv4_3"
  top: "conv4_3"
}
layer {
  name: "pool4"
  type: "Pooling"
  bottom: "conv4_3"
  top: "pool4"
  pooling_param {
    pool: MAX
    kernel_size: 2
    stride: 2
  }
}
layer {
  name: "conv5_1"
  type: "Convolution"
  bottom: "pool4"
  top: "conv5_1"
  param {
    lr_mult: 1
    decay_mult: 1
  }
  param {
    lr_mult: 2
    decay_mult: 0
  }
  convolution_param {
    num_output: 512
    pad: 1
    kernel_size: 3
    weight_filler {
      type: "xavier"
    }
    bias_filler {
      type: "constant"
      value: 0
    }
    dilation: 1
  }
}
layer {
  name: "relu5_1"
  type: "ReLU"
  bottom: "conv5_1"
  top: "conv5_1"
}
layer {
  name: "conv5_2"
  type: "Convolution"
  bottom: "conv5_1"
  top: "conv5_2"
  param {
    lr_mult: 1
    decay_mult: 1
  }
  param {
    lr_mult: 2
    decay_mult: 0
  }
  convolution_param {
    num_output: 512
    pad: 1
    kernel_size: 3
    weight_filler {
      type: "xavier"
    }
    bias_filler {
      type: "constant"
      value: 0
    }
    dilation: 1
  }
}
layer {
  name: "relu5_2"
  type: "ReLU"
  bottom: "conv5_2"
  top: "conv5_2"
}
layer {
  name: "conv5_3"
  type: "Convolution"
  bottom: "conv5_2"
  top: "conv5_3"
  param {
    lr_mult: 1
    decay_mult: 1
  }
  param {
    lr_mult: 2
    decay_mult: 0
  }
  convolution_param {
    num_output: 512
    pad: 1
    kernel_size: 3
    weight_filler {
      type: "xavier"
    }
    bias_filler {
      type: "constant"
      value: 0
    }
    dilation: 1
  }
}
layer {
  name: "relu5_3"
  type: "ReLU"
  bottom: "conv5_3"
  top: "conv5_3"
}
layer {
  name: "pool5"
  type: "Pooling"
  bottom: "conv5_3"
  top: "pool5"
  pooling_param {
    pool: MAX
    kernel_size: 3
    stride: 1
    pad: 1
  }
}
layer {
  name: "fc6"
  type: "Convolution"
  bottom: "pool5"
  top: "fc6"
  param {
    lr_mult: 1
    decay_mult: 1
  }
  param {
    lr_mult: 2
    decay_mult: 0
  }
  convolution_param {
    num_output: 1024
    pad: 6
    kernel_size: 3
    weight_filler {
      type: "xavier"
    }
    bias_filler {
      type: "constant"
      value: 0
    }
    dilation: 6
  }
}
layer {
  name: "relu6"
  type: "ReLU"
  bottom: "fc6"
  top: "fc6"
}
layer {
  name: "fc7"
  type: "Convolution"
  bottom: "fc6"
  top: "fc7"
  param {
    lr_mult: 1
    decay_mult: 1
  }
  param {
    lr_mult: 2
    decay_mult: 0
  }
  convolution_param {
    num_output: 1024
    kernel_size: 1
    weight_filler {
      type: "xavier"
    }
    bias_filler {
      type: "constant"
      value: 0
    }
  }
}
layer {
  name: "relu7"
  type: "ReLU"
  bottom: "fc7"
  top: "fc7"
}
layer {
  name: "conv6_1"
  type: "Convolution"
  bottom: "fc7"
  top: "conv6_1"
  param {
    lr_mult: 1
    decay_mult: 1
  }
  param {
    lr_mult: 2
    decay_mult: 0
  }
  convolution_param {
    num_output: 256
    pad: 0
    kernel_size: 1
    stride: 1
    weight_filler {
      type: "xavier"
    }
    bias_filler {
      type: "constant"
      value: 0
    }
  }
}
layer {
  name: "conv6_1_relu"
  type: "ReLU"
  bottom: "conv6_1"
  top: "conv6_1"
}
layer {
  name: "conv6_2"
  type: "Convolution"
  bottom: "conv6_1"
  top: "conv6_2"
  param {
    lr_mult: 1
    decay_mult: 1
  }
  param {
    lr_mult: 2
    decay_mult: 0
  }
  convolution_param {
    num_output: 512
    pad: 1
    kernel_size: 3
    stride: 2
    weight_filler {
      type: "xavier"
    }
    bias_filler {
      type: "constant"
      value: 0
    }
  }
}
layer {
  name: "conv6_2_relu"
  type: "ReLU"
  bottom: "conv6_2"
  top: "conv6_2"
}
layer {
  name: "conv7_1"
  type: "Convolution"
  bottom: "conv6_2"
  top: "conv7_1"
  param {
    lr_mult: 1
    decay_mult: 1
  }
  param {
    lr_mult: 2
    decay_mult: 0
  }
  convolution_param {
    num_output: 128
    pad: 0
    kernel_size: 1
    stride: 1
    weight_filler {
      type: "xavier"
    }
    bias_filler {
      type: "constant"
      value: 0
    }
  }
}
layer {
  name: "conv7_1_relu"
  type: "ReLU"
  bottom: "conv7_1"
  top: "conv7_1"
}
layer {
  name: "conv7_2"
  type: "Convolution"
  bottom: "conv7_1"
  top: "conv7_2"
  param {
    lr_mult: 1
    decay_mult: 1
  }
  param {
    lr_mult: 2
    decay_mult: 0
  }
  convolution_param {
    num_output: 256
    pad: 1
    kernel_size: 3
    stride: 2
    weight_filler {
      type: "xavier"
    }
    bias_filler {
      type: "constant"
      value: 0
    }
  }
}
layer {
  name: "conv7_2_relu"
  type: "ReLU"
  bottom: "conv7_2"
  top: "conv7_2"
}
layer {
  name: "conv8_1"
  type: "Convolution"
  bottom: "conv7_2"
  top: "conv8_1"
  param {
    lr_mult: 1
    decay_mult: 1
  }
  param {
    lr_mult: 2
    decay_mult: 0
  }
  convolution_param {
    num_output: 128
    pad: 0
    kernel_size: 1
    stride: 1
    weight_filler {
      type: "xavier"
    }
    bias_filler {
      type: "constant"
      value: 0
    }
  }
}
layer {
  name: "conv8_1_relu"
  type: "ReLU"
  bottom: "conv8_1"
  top: "conv8_1"
}
layer {
  name: "conv8_2"
  type: "Convolution"
  bottom: "conv8_1"
  top: "conv8_2"
  param {
    lr_mult: 1
    decay_mult: 1
  }
  param {
    lr_mult: 2
    decay_mult: 0
  }
  convolution_param {
    num_output: 256
    pad: 0
    kernel_size: 3
    stride: 1
    weight_filler {
      type: "xavier"
    }
    bias_filler {
      type: "constant"
      value: 0
    }
  }
}
layer {
  name: "conv8_2_relu"
  type: "ReLU"
  bottom: "conv8_2"
  top: "conv8_2"
}
layer {
  name: "conv9_1"
  type: "Convolution"
  bottom: "conv8_2"
  top: "conv9_1"
  param {
    lr_mult: 1
    decay_mult: 1
  }
  param {
    lr_mult: 2
    decay_mult: 0
  }
  convolution_param {
    num_output: 128
    pad: 0
    kernel_size: 1
    stride: 1
    weight_filler {
      type: "xavier"
    }
    bias_filler {
      type: "constant"
      value: 0
    }
  }
}
layer {
  name: "conv9_1_relu"
  type: "ReLU"
  bottom: "conv9_1"
  top: "conv9_1"
}
layer {
  name: "conv9_2"
  type: "Convolution"
  bottom: "conv9_1"
  top: "conv9_2"
  param {
    lr_mult: 1
    decay_mult: 1
  }
  param {
    lr_mult: 2
    decay_mult: 0
  }
  convolution_param {
    num_output: 256
    pad: 0
    kernel_size: 3
    stride: 1
    weight_filler {
      type: "xavier"
    }
    bias_filler {
      type: "constant"
      value: 0
    }
  }
}
layer {
  name: "conv9_2_relu"
  type: "ReLU"
  bottom: "conv9_2"
  top: "conv9_2"
}
layer {
  name: "conv4_3_norm"
  type: "Normalize"
  bottom: "conv4_3"
  top: "conv4_3_norm"
  norm_param {
    across_spatial: false
    scale_filler {
      type: "constant"
      value: 20
    }
    channel_shared: false
  }
}
layer {
  name: "conv4_3_norm_mbox_loc"
  type: "Convolution"
  bottom: "conv4_3_norm"
  top: "conv4_3_norm_mbox_loc"
  param {
    lr_mult: 1
    decay_mult: 1
  }
  param {
    lr_mult: 2
    decay_mult: 0
  }
  convolution_param {
    num_output: 16
    pad: 1
    kernel_size: 3
    stride: 1
    weight_filler {
      type: "xavier"
    }
    bias_filler {
      type: "constant"
      value: 0
    }
  }
}
layer {
  name: "conv4_3_norm_mbox_loc_perm"
  type: "Permute"
  bottom: "conv4_3_norm_mbox_loc"
  top: "conv4_3_norm_mbox_loc_perm"
  permute_param {
    order: 0
    order: 2
    order: 3
    order: 1
  }
}
layer {
  name: "conv4_3_norm_mbox_loc_flat"
  type: "Flatten"
  bottom: "conv4_3_norm_mbox_loc_perm"
  top: "conv4_3_norm_mbox_loc_flat"
  flatten_param {
    axis: 1
  }
}
layer {
  name: "conv4_3_norm_mbox_conf"
  type: "Convolution"
  bottom: "conv4_3_norm"
  top: "conv4_3_norm_mbox_conf"
  param {
    lr_mult: 1
    decay_mult: 1
  }
  param {
    lr_mult: 2
    decay_mult: 0
  }
  convolution_param {
    num_output: 16
    pad: 1
    kernel_size: 3
    stride: 1
    weight_filler {
      type: "xavier"
    }
    bias_filler {
      type: "constant"
      value: 0
    }
  }
}
layer {
  name: "conv4_3_norm_mbox_conf_perm"
  type: "Permute"
  bottom: "conv4_3_norm_mbox_conf"
  top: "conv4_3_norm_mbox_conf_perm"
  permute_param {
    order: 0
    order: 2
    order: 3
    order: 1
  }
}
layer {
  name: "conv4_3_norm_mbox_conf_flat"
  type: "Flatten"
  bottom: "conv4_3_norm_mbox_conf_perm"
  top: "conv4_3_norm_mbox_conf_flat"
  flatten_param {
    axis: 1
  }
}
layer {
  name: "conv4_3_norm_mbox_priorbox"
  type: "PriorBox"
  bottom: "conv4_3_norm"
  bottom: "data"
  top: "conv4_3_norm_mbox_priorbox"
  prior_box_param {
    min_size: 30
    max_size: 60
    aspect_ratio: 2
    flip: true
    clip: false
    variance: 0.1
    variance: 0.1
    variance: 0.2
    variance: 0.2
    step: 8
    offset: 0.5
  }
}
layer {
  name: "fc7_mbox_loc"
  type: "Convolution"
  bottom: "fc7"
  top: "fc7_mbox_loc"
  param {
    lr_mult: 1
    decay_mult: 1
  }
  param {
    lr_mult: 2
    decay_mult: 0
  }
  convolution_param {
    num_output: 24
    pad: 1
    kernel_size: 3
    stride: 1
    weight_filler {
      type: "xavier"
    }
    bias_filler {
      type: "constant"
      value: 0
    }
  }
}
layer {
  name: "fc7_mbox_loc_perm"
  type: "Permute"
  bottom: "fc7_mbox_loc"
  top: "fc7_mbox_loc_perm"
  permute_param {
    order: 0
    order: 2
    order: 3
    order: 1
  }
}
layer {
  name: "fc7_mbox_loc_flat"
  type: "Flatten"
  bottom: "fc7_mbox_loc_perm"
  top: "fc7_mbox_loc_flat"
  flatten_param {
    axis: 1
  }
}
layer {
  name: "fc7_mbox_conf"
  type: "Convolution"
  bottom: "fc7"
  top: "fc7_mbox_conf"
  param {
    lr_mult: 1
    decay_mult: 1
  }
  param {
    lr_mult: 2
    decay_mult: 0
  }
  convolution_param {
    num_output: 24
    pad: 1
    kernel_size: 3
    stride: 1
    weight_filler {
      type: "xavier"
    }
    bias_filler {
      type: "constant"
      value: 0
    }
  }
}
layer {
  name: "fc7_mbox_conf_perm"
  type: "Permute"
  bottom: "fc7_mbox_conf"
  top: "fc7_mbox_conf_perm"
  permute_param {
    order: 0
    order: 2
    order: 3
    order: 1
  }
}
layer {
  name: "fc7_mbox_conf_flat"
  type: "Flatten"
  bottom: "fc7_mbox_conf_perm"
  top: "fc7_mbox_conf_flat"
  flatten_param {
    axis: 1
  }
}
layer {
  name: "fc7_mbox_priorbox"
  type: "PriorBox"
  bottom: "fc7"
  bottom: "data"
  top: "fc7_mbox_priorbox"
  prior_box_param {
    min_size: 60
    max_size: 111
    aspect_ratio: 2
    aspect_ratio: 3
    flip: true
    clip: false
    variance: 0.1
    variance: 0.1
    variance: 0.2
    variance: 0.2
    step: 16
    offset: 0.5
  }
}
layer {
  name: "conv6_2_mbox_loc"
  type: "Convolution"
  bottom: "conv6_2"
  top: "conv6_2_mbox_loc"
  param {
    lr_mult: 1
    decay_mult: 1
  }
  param {
    lr_mult: 2
    decay_mult: 0
  }
  convolution_param {
    num_output: 24
    pad: 1
    kernel_size: 3
    stride: 1
    weight_filler {
      type: "xavier"
    }
    bias_filler {
      type: "constant"
      value: 0
    }
  }
}
layer {
  name: "conv6_2_mbox_loc_perm"
  type: "Permute"
  bottom: "conv6_2_mbox_loc"
  top: "conv6_2_mbox_loc_perm"
  permute_param {
    order: 0
    order: 2
    order: 3
    order: 1
  }
}
layer {
  name: "conv6_2_mbox_loc_flat"
  type: "Flatten"
  bottom: "conv6_2_mbox_loc_perm"
  top: "conv6_2_mbox_loc_flat"
  flatten_param {
    axis: 1
  }
}
layer {
  name: "conv6_2_mbox_conf"
  type: "Convolution"
  bottom: "conv6_2"
  top: "conv6_2_mbox_conf"
  param {
    lr_mult: 1
    decay_mult: 1
  }
  param {
    lr_mult: 2
    decay_mult: 0
  }
  convolution_param {
    num_output: 24
    pad: 1
    kernel_size: 3
    stride: 1
    weight_filler {
      type: "xavier"
    }
    bias_filler {
      type: "constant"
      value: 0
    }
  }
}
layer {
  name: "conv6_2_mbox_conf_perm"
  type: "Permute"
  bottom: "conv6_2_mbox_conf"
  top: "conv6_2_mbox_conf_perm"
  permute_param {
    order: 0
    order: 2
    order: 3
    order: 1
  }
}
layer {
  name: "conv6_2_mbox_conf_flat"
  type: "Flatten"
  bottom: "conv6_2_mbox_conf_perm"
  top: "conv6_2_mbox_conf_flat"
  flatten_param {
    axis: 1
  }
}
layer {
  name: "conv6_2_mbox_priorbox"
  type: "PriorBox"
  bottom: "conv6_2"
  bottom: "data"
  top: "conv6_2_mbox_priorbox"
  prior_box_param {
    min_size: 111
    max_size: 162
    aspect_ratio: 2
    aspect_ratio: 3
    flip: true
    clip: false
    variance: 0.1
    variance: 0.1
    variance: 0.2
    variance: 0.2
    step: 32
    offset: 0.5
  }
}
layer {
  name: "conv7_2_mbox_loc"
  type: "Convolution"
  bottom: "conv7_2"
  top: "conv7_2_mbox_loc"
  param {
    lr_mult: 1
    decay_mult: 1
  }
  param {
    lr_mult: 2
    decay_mult: 0
  }
  convolution_param {
    num_output: 24
    pad: 1
    kernel_size: 3
    stride: 1
    weight_filler {
      type: "xavier"
    }
    bias_filler {
      type: "constant"
      value: 0
    }
  }
}
layer {
  name: "conv7_2_mbox_loc_perm"
  type: "Permute"
  bottom: "conv7_2_mbox_loc"
  top: "conv7_2_mbox_loc_perm"
  permute_param {
    order: 0
    order: 2
    order: 3
    order: 1
  }
}
layer {
  name: "conv7_2_mbox_loc_flat"
  type: "Flatten"
  bottom: "conv7_2_mbox_loc_perm"
  top: "conv7_2_mbox_loc_flat"
  flatten_param {
    axis: 1
  }
}
layer {
  name: "conv7_2_mbox_conf"
  type: "Convolution"
  bottom: "conv7_2"
  top: "conv7_2_mbox_conf"
  param {
    lr_mult: 1
    decay_mult: 1
  }
  param {
    lr_mult: 2
    decay_mult: 0
  }
  convolution_param {
    num_output: 24
    pad: 1
    kernel_size: 3
    stride: 1
    weight_filler {
      type: "xavier"
    }
    bias_filler {
      type: "constant"
      value: 0
    }
  }
}
layer {
  name: "conv7_2_mbox_conf_perm"
  type: "Permute"
  bottom: "conv7_2_mbox_conf"
  top: "conv7_2_mbox_conf_perm"
  permute_param {
    order: 0
    order: 2
    order: 3
    order: 1
  }
}
layer {
  name: "conv7_2_mbox_conf_flat"
  type: "Flatten"
  bottom: "conv7_2_mbox_conf_perm"
  top: "conv7_2_mbox_conf_flat"
  flatten_param {
    axis: 1
  }
}
layer {
  name: "conv7_2_mbox_priorbox"
  type: "PriorBox"
  bottom: "conv7_2"
  bottom: "data"
  top: "conv7_2_mbox_priorbox"
  prior_box_param {
    min_size: 162
    max_size: 213
    aspect_ratio: 2
    aspect_ratio: 3
    flip: true
    clip: false
    variance: 0.1
    variance: 0.1
    variance: 0.2
    variance: 0.2
    step: 64
    offset: 0.5
  }
}
layer {
  name: "conv8_2_mbox_loc"
  type: "Convolution"
  bottom: "conv8_2"
  top: "conv8_2_mbox_loc"
  param {
    lr_mult: 1
    decay_mult: 1
  }
  param {
    lr_mult: 2
    decay_mult: 0
  }
  convolution_param {
    num_output: 16
    pad: 1
    kernel_size: 3
    stride: 1
    weight_filler {
      type: "xavier"
    }
    bias_filler {
      type: "constant"
      value: 0
    }
  }
}
layer {
  name: "conv8_2_mbox_loc_perm"
  type: "Permute"
  bottom: "conv8_2_mbox_loc"
  top: "conv8_2_mbox_loc_perm"
  permute_param {
    order: 0
    order: 2
    order: 3
    order: 1
  }
}
layer {
  name: "conv8_2_mbox_loc_flat"
  type: "Flatten"
  bottom: "conv8_2_mbox_loc_perm"
  top: "conv8_2_mbox_loc_flat"
  flatten_param {
    axis: 1
  }
}
layer {
  name: "conv8_2_mbox_conf"
  type: "Convolution"
  bottom: "conv8_2"
  top: "conv8_2_mbox_conf"
  param {
    lr_mult: 1
    decay_mult: 1
  }
  param {
    lr_mult: 2
    decay_mult: 0
  }
  convolution_param {
    num_output: 16
    pad: 1
    kernel_size: 3
    stride: 1
    weight_filler {
      type: "xavier"
    }
    bias_filler {
      type: "constant"
      value: 0
    }
  }
}
layer {
  name: "conv8_2_mbox_conf_perm"
  type: "Permute"
  bottom: "conv8_2_mbox_conf"
  top: "conv8_2_mbox_conf_perm"
  permute_param {
    order: 0
    order: 2
    order: 3
    order: 1
  }
}
layer {
  name: "conv8_2_mbox_conf_flat"
  type: "Flatten"
  bottom: "conv8_2_mbox_conf_perm"
  top: "conv8_2_mbox_conf_flat"
  flatten_param {
    axis: 1
  }
}
layer {
  name: "conv8_2_mbox_priorbox"
  type: "PriorBox"
  bottom: "conv8_2"
  bottom: "data"
  top: "conv8_2_mbox_priorbox"
  prior_box_param {
    min_size: 213
    max_size: 264
    aspect_ratio: 2
    flip: true
    clip: false
    variance: 0.1
    variance: 0.1
    variance: 0.2
    variance: 0.2
    step: 100
    offset: 0.5
  }
}
layer {
  name: "conv9_2_mbox_loc"
  type: "Convolution"
  bottom: "conv9_2"
  top: "conv9_2_mbox_loc"
  param {
    lr_mult: 1
    decay_mult: 1
  }
  param {
    lr_mult: 2
    decay_mult: 0
  }
  convolution_param {
    num_output: 16
    pad: 1
    kernel_size: 3
    stride: 1
    weight_filler {
      type: "xavier"
    }
    bias_filler {
      type: "constant"
      value: 0
    }
  }
}
layer {
  name: "conv9_2_mbox_loc_perm"
  type: "Permute"
  bottom: "conv9_2_mbox_loc"
  top: "conv9_2_mbox_loc_perm"
  permute_param {
    order: 0
    order: 2
    order: 3
    order: 1
  }
}
layer {
  name: "conv9_2_mbox_loc_flat"
  type: "Flatten"
  bottom: "conv9_2_mbox_loc_perm"
  top: "conv9_2_mbox_loc_flat"
  flatten_param {
    axis: 1
  }
}
layer {
  name: "conv9_2_mbox_conf"
  type: "Convolution"
  bottom: "conv9_2"
  top: "conv9_2_mbox_conf"
  param {
    lr_mult: 1
    decay_mult: 1
  }
  param {
    lr_mult: 2
    decay_mult: 0
  }
  convolution_param {
    num_output: 16
    pad: 1
    kernel_size: 3
    stride: 1
    weight_filler {
      type: "xavier"
    }
    bias_filler {
      type: "constant"
      value: 0
    }
  }
}
layer {
  name: "conv9_2_mbox_conf_perm"
  type: "Permute"
  bottom: "conv9_2_mbox_conf"
  top: "conv9_2_mbox_conf_perm"
  permute_param {
    order: 0
    order: 2
    order: 3
    order: 1
  }
}
layer {
  name: "conv9_2_mbox_conf_flat"
  type: "Flatten"
  bottom: "conv9_2_mbox_conf_perm"
  top: "conv9_2_mbox_conf_flat"
  flatten_param {
    axis: 1
  }
}
layer {
  name: "conv9_2_mbox_priorbox"
  type: "PriorBox"
  bottom: "conv9_2"
  bottom: "data"
  top: "conv9_2_mbox_priorbox"
  prior_box_param {
    min_size: 264
    max_size: 315
    aspect_ratio: 2
    flip: true
    clip: false
    variance: 0.1
    variance: 0.1
    variance: 0.2
    variance: 0.2
    step: 300
    offset: 0.5
  }
}
layer {
  name: "mbox_loc"
  type: "Concat"
  bottom: "conv4_3_norm_mbox_loc_flat"
  bottom: "fc7_mbox_loc_flat"
  bottom: "conv6_2_mbox_loc_flat"
  bottom: "conv7_2_mbox_loc_flat"
  bottom: "conv8_2_mbox_loc_flat"
  bottom: "conv9_2_mbox_loc_flat"
  top: "mbox_loc"
  concat_param {
    axis: 1
  }
}
layer {
  name: "mbox_conf"
  type: "Concat"
  bottom: "conv4_3_norm_mbox_conf_flat"
  bottom: "fc7_mbox_conf_flat"
  bottom: "conv6_2_mbox_conf_flat"
  bottom: "conv7_2_mbox_conf_flat"
  bottom: "conv8_2_mbox_conf_flat"
  bottom: "conv9_2_mbox_conf_flat"
  top: "mbox_conf"
  concat_param {
    axis: 1
  }
}
layer {
  name: "mbox_priorbox"
  type: "Concat"
  bottom: "conv4_3_norm_mbox_priorbox"
  bottom: "fc7_mbox_priorbox"
  bottom: "conv6_2_mbox_priorbox"
  bottom: "conv7_2_mbox_priorbox"
  bottom: "conv8_2_mbox_priorbox"
  bottom: "conv9_2_mbox_priorbox"
  top: "mbox_priorbox"
  concat_param {
    axis: 2
  }
}
layer {
  name: "mbox_conf_reshape"
  type: "Reshape"
  bottom: "mbox_conf"
  top: "mbox_conf_reshape"
  reshape_param {
    shape {
      dim: 0
      dim: -1
      dim: 4
    }
  }
}
layer {
  name: "mbox_conf_softmax"
  type: "Softmax"
  bottom: "mbox_conf_reshape"
  top: "mbox_conf_softmax"
  softmax_param {
    axis: 2
  }
}
layer {
  name: "mbox_conf_flatten"
  type: "Flatten"
  bottom: "mbox_conf_softmax"
  top: "mbox_conf_flatten"
  flatten_param {
    axis: 1
  }
}
layer {
  name: "detection_out"
  type: "DetectionOutput"
  bottom: "mbox_loc"
  bottom: "mbox_conf_flatten"
  bottom: "mbox_priorbox"
  top: "detection_out"
  include {
    phase: TEST
  }
  detection_output_param {
    num_classes: 4
    share_location: true
    background_label_id: 0
    nms_param {
      nms_threshold: 0.45
      top_k: 400
    }
    save_output_param {
      output_directory: "/home/shangzw/data/tbs/results/tbs/SSD_300x300/Main"
      output_name_prefix: "comp4_det_test_"
      output_format: "VOC"
      label_map_file: "data/tbs_300x300_HSIL_10x/labelmap_voc.prototxt"
      name_size_file: "data/VOC0712/test_name_size.txt"
      num_test_image: 100
    }
    code_type: CENTER_SIZE
    keep_top_k: 200
    confidence_threshold: 0.01
  }
}
layer {
  name: "detection_eval"
  type: "DetectionEvaluate"
  bottom: "detection_out"
  bottom: "label"
  top: "detection_eval"
  include {
    phase: TEST
  }
  detection_evaluate_param {
    num_classes: 4
    background_label_id: 0
    overlap_threshold: 0.5
    evaluate_difficult_gt: false
    name_size_file: "data/VOC0712/test_name_size.txt"
  }
}
I0602 10:00:39.500777 20420 layer_factory.hpp:77] Creating layer data
I0602 10:00:39.500825 20420 net.cpp:100] Creating Layer data
I0602 10:00:39.500833 20420 net.cpp:408] data -> data
I0602 10:00:39.500840 20420 net.cpp:408] data -> label
I0602 10:00:39.501898 20439 db_lmdb.cpp:35] Opened lmdb examples/tbs_300x300_HSIL_10x/tbs_300x300_HSIL_10x_test_lmdb
I0602 10:00:39.502641 20420 annotated_data_layer.cpp:62] output data size: 4,3,300,300
I0602 10:00:39.512362 20420 net.cpp:150] Setting up data
I0602 10:00:39.512394 20420 net.cpp:157] Top shape: 4 3 300 300 (1080000)
I0602 10:00:39.512398 20420 net.cpp:157] Top shape: 1 1 1 8 (8)
I0602 10:00:39.512400 20420 net.cpp:165] Memory required for data: 4320032
I0602 10:00:39.512405 20420 layer_factory.hpp:77] Creating layer data_data_0_split
I0602 10:00:39.512414 20420 net.cpp:100] Creating Layer data_data_0_split
I0602 10:00:39.512418 20420 net.cpp:434] data_data_0_split <- data
I0602 10:00:39.512423 20420 net.cpp:408] data_data_0_split -> data_data_0_split_0
I0602 10:00:39.512430 20420 net.cpp:408] data_data_0_split -> data_data_0_split_1
I0602 10:00:39.512435 20420 net.cpp:408] data_data_0_split -> data_data_0_split_2
I0602 10:00:39.512440 20420 net.cpp:408] data_data_0_split -> data_data_0_split_3
I0602 10:00:39.512444 20420 net.cpp:408] data_data_0_split -> data_data_0_split_4
I0602 10:00:39.512449 20420 net.cpp:408] data_data_0_split -> data_data_0_split_5
I0602 10:00:39.512452 20420 net.cpp:408] data_data_0_split -> data_data_0_split_6
I0602 10:00:39.512578 20420 net.cpp:150] Setting up data_data_0_split
I0602 10:00:39.512586 20420 net.cpp:157] Top shape: 4 3 300 300 (1080000)
I0602 10:00:39.512590 20420 net.cpp:157] Top shape: 4 3 300 300 (1080000)
I0602 10:00:39.512595 20420 net.cpp:157] Top shape: 4 3 300 300 (1080000)
I0602 10:00:39.512600 20420 net.cpp:157] Top shape: 4 3 300 300 (1080000)
I0602 10:00:39.512605 20420 net.cpp:157] Top shape: 4 3 300 300 (1080000)
I0602 10:00:39.512620 20420 net.cpp:157] Top shape: 4 3 300 300 (1080000)
I0602 10:00:39.512624 20420 net.cpp:157] Top shape: 4 3 300 300 (1080000)
I0602 10:00:39.512629 20420 net.cpp:165] Memory required for data: 34560032
I0602 10:00:39.512632 20420 layer_factory.hpp:77] Creating layer conv1_1
I0602 10:00:39.512645 20420 net.cpp:100] Creating Layer conv1_1
I0602 10:00:39.512647 20420 net.cpp:434] conv1_1 <- data_data_0_split_0
I0602 10:00:39.512652 20420 net.cpp:408] conv1_1 -> conv1_1
I0602 10:00:39.514236 20420 net.cpp:150] Setting up conv1_1
I0602 10:00:39.514259 20420 net.cpp:157] Top shape: 4 64 300 300 (23040000)
I0602 10:00:39.514262 20420 net.cpp:165] Memory required for data: 126720032
I0602 10:00:39.514277 20420 layer_factory.hpp:77] Creating layer relu1_1
I0602 10:00:39.514286 20420 net.cpp:100] Creating Layer relu1_1
I0602 10:00:39.514294 20420 net.cpp:434] relu1_1 <- conv1_1
I0602 10:00:39.514299 20420 net.cpp:395] relu1_1 -> conv1_1 (in-place)
I0602 10:00:39.515954 20420 net.cpp:150] Setting up relu1_1
I0602 10:00:39.515974 20420 net.cpp:157] Top shape: 4 64 300 300 (23040000)
I0602 10:00:39.515977 20420 net.cpp:165] Memory required for data: 218880032
I0602 10:00:39.515981 20420 layer_factory.hpp:77] Creating layer conv1_2
I0602 10:00:39.515998 20420 net.cpp:100] Creating Layer conv1_2
I0602 10:00:39.516005 20420 net.cpp:434] conv1_2 <- conv1_1
I0602 10:00:39.516013 20420 net.cpp:408] conv1_2 -> conv1_2
I0602 10:00:39.517778 20420 net.cpp:150] Setting up conv1_2
I0602 10:00:39.517798 20420 net.cpp:157] Top shape: 4 64 300 300 (23040000)
I0602 10:00:39.517801 20420 net.cpp:165] Memory required for data: 311040032
I0602 10:00:39.517812 20420 layer_factory.hpp:77] Creating layer relu1_2
I0602 10:00:39.517820 20420 net.cpp:100] Creating Layer relu1_2
I0602 10:00:39.517827 20420 net.cpp:434] relu1_2 <- conv1_2
I0602 10:00:39.517833 20420 net.cpp:395] relu1_2 -> conv1_2 (in-place)
I0602 10:00:39.518513 20420 net.cpp:150] Setting up relu1_2
I0602 10:00:39.518527 20420 net.cpp:157] Top shape: 4 64 300 300 (23040000)
I0602 10:00:39.518530 20420 net.cpp:165] Memory required for data: 403200032
I0602 10:00:39.518534 20420 layer_factory.hpp:77] Creating layer pool1
I0602 10:00:39.518543 20420 net.cpp:100] Creating Layer pool1
I0602 10:00:39.518548 20420 net.cpp:434] pool1 <- conv1_2
I0602 10:00:39.518554 20420 net.cpp:408] pool1 -> pool1
I0602 10:00:39.518611 20420 net.cpp:150] Setting up pool1
I0602 10:00:39.518618 20420 net.cpp:157] Top shape: 4 64 150 150 (5760000)
I0602 10:00:39.518620 20420 net.cpp:165] Memory required for data: 426240032
I0602 10:00:39.518625 20420 layer_factory.hpp:77] Creating layer conv2_1
I0602 10:00:39.518635 20420 net.cpp:100] Creating Layer conv2_1
I0602 10:00:39.518637 20420 net.cpp:434] conv2_1 <- pool1
I0602 10:00:39.518645 20420 net.cpp:408] conv2_1 -> conv2_1
I0602 10:00:39.520354 20420 net.cpp:150] Setting up conv2_1
I0602 10:00:39.520370 20420 net.cpp:157] Top shape: 4 128 150 150 (11520000)
I0602 10:00:39.520373 20420 net.cpp:165] Memory required for data: 472320032
I0602 10:00:39.520385 20420 layer_factory.hpp:77] Creating layer relu2_1
I0602 10:00:39.520403 20420 net.cpp:100] Creating Layer relu2_1
I0602 10:00:39.520407 20420 net.cpp:434] relu2_1 <- conv2_1
I0602 10:00:39.520413 20420 net.cpp:395] relu2_1 -> conv2_1 (in-place)
I0602 10:00:39.521121 20420 net.cpp:150] Setting up relu2_1
I0602 10:00:39.521136 20420 net.cpp:157] Top shape: 4 128 150 150 (11520000)
I0602 10:00:39.521140 20420 net.cpp:165] Memory required for data: 518400032
I0602 10:00:39.521144 20420 layer_factory.hpp:77] Creating layer conv2_2
I0602 10:00:39.521157 20420 net.cpp:100] Creating Layer conv2_2
I0602 10:00:39.521162 20420 net.cpp:434] conv2_2 <- conv2_1
I0602 10:00:39.521170 20420 net.cpp:408] conv2_2 -> conv2_2
I0602 10:00:39.525622 20420 net.cpp:150] Setting up conv2_2
I0602 10:00:39.525642 20420 net.cpp:157] Top shape: 4 128 150 150 (11520000)
I0602 10:00:39.525648 20420 net.cpp:165] Memory required for data: 564480032
I0602 10:00:39.525660 20420 layer_factory.hpp:77] Creating layer relu2_2
I0602 10:00:39.525688 20420 net.cpp:100] Creating Layer relu2_2
I0602 10:00:39.525696 20420 net.cpp:434] relu2_2 <- conv2_2
I0602 10:00:39.525707 20420 net.cpp:395] relu2_2 -> conv2_2 (in-place)
I0602 10:00:39.525897 20420 net.cpp:150] Setting up relu2_2
I0602 10:00:39.525908 20420 net.cpp:157] Top shape: 4 128 150 150 (11520000)
I0602 10:00:39.525913 20420 net.cpp:165] Memory required for data: 610560032
I0602 10:00:39.525916 20420 layer_factory.hpp:77] Creating layer pool2
I0602 10:00:39.525923 20420 net.cpp:100] Creating Layer pool2
I0602 10:00:39.525929 20420 net.cpp:434] pool2 <- conv2_2
I0602 10:00:39.525938 20420 net.cpp:408] pool2 -> pool2
I0602 10:00:39.525990 20420 net.cpp:150] Setting up pool2
I0602 10:00:39.525995 20420 net.cpp:157] Top shape: 4 128 75 75 (2880000)
I0602 10:00:39.525997 20420 net.cpp:165] Memory required for data: 622080032
I0602 10:00:39.526000 20420 layer_factory.hpp:77] Creating layer conv3_1
I0602 10:00:39.526008 20420 net.cpp:100] Creating Layer conv3_1
I0602 10:00:39.526012 20420 net.cpp:434] conv3_1 <- pool2
I0602 10:00:39.526017 20420 net.cpp:408] conv3_1 -> conv3_1
I0602 10:00:39.529768 20420 net.cpp:150] Setting up conv3_1
I0602 10:00:39.529784 20420 net.cpp:157] Top shape: 4 256 75 75 (5760000)
I0602 10:00:39.529788 20420 net.cpp:165] Memory required for data: 645120032
I0602 10:00:39.529799 20420 layer_factory.hpp:77] Creating layer relu3_1
I0602 10:00:39.529805 20420 net.cpp:100] Creating Layer relu3_1
I0602 10:00:39.529809 20420 net.cpp:434] relu3_1 <- conv3_1
I0602 10:00:39.529815 20420 net.cpp:395] relu3_1 -> conv3_1 (in-place)
I0602 10:00:39.529968 20420 net.cpp:150] Setting up relu3_1
I0602 10:00:39.529975 20420 net.cpp:157] Top shape: 4 256 75 75 (5760000)
I0602 10:00:39.529978 20420 net.cpp:165] Memory required for data: 668160032
I0602 10:00:39.529980 20420 layer_factory.hpp:77] Creating layer conv3_2
I0602 10:00:39.529989 20420 net.cpp:100] Creating Layer conv3_2
I0602 10:00:39.529992 20420 net.cpp:434] conv3_2 <- conv3_1
I0602 10:00:39.529996 20420 net.cpp:408] conv3_2 -> conv3_2
I0602 10:00:39.537308 20420 net.cpp:150] Setting up conv3_2
I0602 10:00:39.537325 20420 net.cpp:157] Top shape: 4 256 75 75 (5760000)
I0602 10:00:39.537328 20420 net.cpp:165] Memory required for data: 691200032
I0602 10:00:39.537334 20420 layer_factory.hpp:77] Creating layer relu3_2
I0602 10:00:39.537341 20420 net.cpp:100] Creating Layer relu3_2
I0602 10:00:39.537344 20420 net.cpp:434] relu3_2 <- conv3_2
I0602 10:00:39.537348 20420 net.cpp:395] relu3_2 -> conv3_2 (in-place)
I0602 10:00:39.537531 20420 net.cpp:150] Setting up relu3_2
I0602 10:00:39.537539 20420 net.cpp:157] Top shape: 4 256 75 75 (5760000)
I0602 10:00:39.537541 20420 net.cpp:165] Memory required for data: 714240032
I0602 10:00:39.537544 20420 layer_factory.hpp:77] Creating layer conv3_3
I0602 10:00:39.537569 20420 net.cpp:100] Creating Layer conv3_3
I0602 10:00:39.537572 20420 net.cpp:434] conv3_3 <- conv3_2
I0602 10:00:39.537577 20420 net.cpp:408] conv3_3 -> conv3_3
I0602 10:00:39.542675 20420 net.cpp:150] Setting up conv3_3
I0602 10:00:39.542691 20420 net.cpp:157] Top shape: 4 256 75 75 (5760000)
I0602 10:00:39.542695 20420 net.cpp:165] Memory required for data: 737280032
I0602 10:00:39.542701 20420 layer_factory.hpp:77] Creating layer relu3_3
I0602 10:00:39.542707 20420 net.cpp:100] Creating Layer relu3_3
I0602 10:00:39.542711 20420 net.cpp:434] relu3_3 <- conv3_3
I0602 10:00:39.542716 20420 net.cpp:395] relu3_3 -> conv3_3 (in-place)
I0602 10:00:39.542884 20420 net.cpp:150] Setting up relu3_3
I0602 10:00:39.542906 20420 net.cpp:157] Top shape: 4 256 75 75 (5760000)
I0602 10:00:39.542907 20420 net.cpp:165] Memory required for data: 760320032
I0602 10:00:39.542910 20420 layer_factory.hpp:77] Creating layer pool3
I0602 10:00:39.542917 20420 net.cpp:100] Creating Layer pool3
I0602 10:00:39.542922 20420 net.cpp:434] pool3 <- conv3_3
I0602 10:00:39.542925 20420 net.cpp:408] pool3 -> pool3
I0602 10:00:39.542982 20420 net.cpp:150] Setting up pool3
I0602 10:00:39.542987 20420 net.cpp:157] Top shape: 4 256 38 38 (1478656)
I0602 10:00:39.542999 20420 net.cpp:165] Memory required for data: 766234656
I0602 10:00:39.543016 20420 layer_factory.hpp:77] Creating layer conv4_1
I0602 10:00:39.543025 20420 net.cpp:100] Creating Layer conv4_1
I0602 10:00:39.543026 20420 net.cpp:434] conv4_1 <- pool3
I0602 10:00:39.543031 20420 net.cpp:408] conv4_1 -> conv4_1
I0602 10:00:39.551817 20420 net.cpp:150] Setting up conv4_1
I0602 10:00:39.551836 20420 net.cpp:157] Top shape: 4 512 38 38 (2957312)
I0602 10:00:39.551838 20420 net.cpp:165] Memory required for data: 778063904
I0602 10:00:39.551846 20420 layer_factory.hpp:77] Creating layer relu4_1
I0602 10:00:39.551853 20420 net.cpp:100] Creating Layer relu4_1
I0602 10:00:39.551858 20420 net.cpp:434] relu4_1 <- conv4_1
I0602 10:00:39.551863 20420 net.cpp:395] relu4_1 -> conv4_1 (in-place)
I0602 10:00:39.554072 20420 net.cpp:150] Setting up relu4_1
I0602 10:00:39.554088 20420 net.cpp:157] Top shape: 4 512 38 38 (2957312)
I0602 10:00:39.554091 20420 net.cpp:165] Memory required for data: 789893152
I0602 10:00:39.554095 20420 layer_factory.hpp:77] Creating layer conv4_2
I0602 10:00:39.554105 20420 net.cpp:100] Creating Layer conv4_2
I0602 10:00:39.554108 20420 net.cpp:434] conv4_2 <- conv4_1
I0602 10:00:39.554116 20420 net.cpp:408] conv4_2 -> conv4_2
I0602 10:00:39.566498 20420 net.cpp:150] Setting up conv4_2
I0602 10:00:39.566516 20420 net.cpp:157] Top shape: 4 512 38 38 (2957312)
I0602 10:00:39.566519 20420 net.cpp:165] Memory required for data: 801722400
I0602 10:00:39.566530 20420 layer_factory.hpp:77] Creating layer relu4_2
I0602 10:00:39.566539 20420 net.cpp:100] Creating Layer relu4_2
I0602 10:00:39.566542 20420 net.cpp:434] relu4_2 <- conv4_2
I0602 10:00:39.566546 20420 net.cpp:395] relu4_2 -> conv4_2 (in-place)
I0602 10:00:39.567369 20420 net.cpp:150] Setting up relu4_2
I0602 10:00:39.567378 20420 net.cpp:157] Top shape: 4 512 38 38 (2957312)
I0602 10:00:39.567380 20420 net.cpp:165] Memory required for data: 813551648
I0602 10:00:39.567383 20420 layer_factory.hpp:77] Creating layer conv4_3
I0602 10:00:39.567392 20420 net.cpp:100] Creating Layer conv4_3
I0602 10:00:39.567395 20420 net.cpp:434] conv4_3 <- conv4_2
I0602 10:00:39.567401 20420 net.cpp:408] conv4_3 -> conv4_3
I0602 10:00:39.580406 20420 net.cpp:150] Setting up conv4_3
I0602 10:00:39.580423 20420 net.cpp:157] Top shape: 4 512 38 38 (2957312)
I0602 10:00:39.580426 20420 net.cpp:165] Memory required for data: 825380896
I0602 10:00:39.580435 20420 layer_factory.hpp:77] Creating layer relu4_3
I0602 10:00:39.580440 20420 net.cpp:100] Creating Layer relu4_3
I0602 10:00:39.580443 20420 net.cpp:434] relu4_3 <- conv4_3
I0602 10:00:39.580449 20420 net.cpp:395] relu4_3 -> conv4_3 (in-place)
I0602 10:00:39.580843 20420 net.cpp:150] Setting up relu4_3
I0602 10:00:39.580852 20420 net.cpp:157] Top shape: 4 512 38 38 (2957312)
I0602 10:00:39.580855 20420 net.cpp:165] Memory required for data: 837210144
I0602 10:00:39.580857 20420 layer_factory.hpp:77] Creating layer conv4_3_relu4_3_0_split
I0602 10:00:39.580863 20420 net.cpp:100] Creating Layer conv4_3_relu4_3_0_split
I0602 10:00:39.580865 20420 net.cpp:434] conv4_3_relu4_3_0_split <- conv4_3
I0602 10:00:39.580871 20420 net.cpp:408] conv4_3_relu4_3_0_split -> conv4_3_relu4_3_0_split_0
I0602 10:00:39.580880 20420 net.cpp:408] conv4_3_relu4_3_0_split -> conv4_3_relu4_3_0_split_1
I0602 10:00:39.580921 20420 net.cpp:150] Setting up conv4_3_relu4_3_0_split
I0602 10:00:39.580926 20420 net.cpp:157] Top shape: 4 512 38 38 (2957312)
I0602 10:00:39.580929 20420 net.cpp:157] Top shape: 4 512 38 38 (2957312)
I0602 10:00:39.580931 20420 net.cpp:165] Memory required for data: 860868640
I0602 10:00:39.580934 20420 layer_factory.hpp:77] Creating layer pool4
I0602 10:00:39.580940 20420 net.cpp:100] Creating Layer pool4
I0602 10:00:39.580941 20420 net.cpp:434] pool4 <- conv4_3_relu4_3_0_split_0
I0602 10:00:39.580945 20420 net.cpp:408] pool4 -> pool4
I0602 10:00:39.580977 20420 net.cpp:150] Setting up pool4
I0602 10:00:39.580981 20420 net.cpp:157] Top shape: 4 512 19 19 (739328)
I0602 10:00:39.580983 20420 net.cpp:165] Memory required for data: 863825952
I0602 10:00:39.580996 20420 layer_factory.hpp:77] Creating layer conv5_1
I0602 10:00:39.581007 20420 net.cpp:100] Creating Layer conv5_1
I0602 10:00:39.581009 20420 net.cpp:434] conv5_1 <- pool4
I0602 10:00:39.581014 20420 net.cpp:408] conv5_1 -> conv5_1
I0602 10:00:39.593938 20420 net.cpp:150] Setting up conv5_1
I0602 10:00:39.593958 20420 net.cpp:157] Top shape: 4 512 19 19 (739328)
I0602 10:00:39.593961 20420 net.cpp:165] Memory required for data: 866783264
I0602 10:00:39.593967 20420 layer_factory.hpp:77] Creating layer relu5_1
I0602 10:00:39.593974 20420 net.cpp:100] Creating Layer relu5_1
I0602 10:00:39.593978 20420 net.cpp:434] relu5_1 <- conv5_1
I0602 10:00:39.593984 20420 net.cpp:395] relu5_1 -> conv5_1 (in-place)
I0602 10:00:39.594120 20420 net.cpp:150] Setting up relu5_1
I0602 10:00:39.594127 20420 net.cpp:157] Top shape: 4 512 19 19 (739328)
I0602 10:00:39.594130 20420 net.cpp:165] Memory required for data: 869740576
I0602 10:00:39.594131 20420 layer_factory.hpp:77] Creating layer conv5_2
I0602 10:00:39.594141 20420 net.cpp:100] Creating Layer conv5_2
I0602 10:00:39.594144 20420 net.cpp:434] conv5_2 <- conv5_1
I0602 10:00:39.594149 20420 net.cpp:408] conv5_2 -> conv5_2
I0602 10:00:39.609431 20420 net.cpp:150] Setting up conv5_2
I0602 10:00:39.609446 20420 net.cpp:157] Top shape: 4 512 19 19 (739328)
I0602 10:00:39.609448 20420 net.cpp:165] Memory required for data: 872697888
I0602 10:00:39.609454 20420 layer_factory.hpp:77] Creating layer relu5_2
I0602 10:00:39.609473 20420 net.cpp:100] Creating Layer relu5_2
I0602 10:00:39.609477 20420 net.cpp:434] relu5_2 <- conv5_2
I0602 10:00:39.609482 20420 net.cpp:395] relu5_2 -> conv5_2 (in-place)
I0602 10:00:39.609645 20420 net.cpp:150] Setting up relu5_2
I0602 10:00:39.609652 20420 net.cpp:157] Top shape: 4 512 19 19 (739328)
I0602 10:00:39.609653 20420 net.cpp:165] Memory required for data: 875655200
I0602 10:00:39.609655 20420 layer_factory.hpp:77] Creating layer conv5_3
I0602 10:00:39.609678 20420 net.cpp:100] Creating Layer conv5_3
I0602 10:00:39.609680 20420 net.cpp:434] conv5_3 <- conv5_2
I0602 10:00:39.609686 20420 net.cpp:408] conv5_3 -> conv5_3
I0602 10:00:39.625167 20420 net.cpp:150] Setting up conv5_3
I0602 10:00:39.625183 20420 net.cpp:157] Top shape: 4 512 19 19 (739328)
I0602 10:00:39.625185 20420 net.cpp:165] Memory required for data: 878612512
I0602 10:00:39.625192 20420 layer_factory.hpp:77] Creating layer relu5_3
I0602 10:00:39.625218 20420 net.cpp:100] Creating Layer relu5_3
I0602 10:00:39.625224 20420 net.cpp:434] relu5_3 <- conv5_3
I0602 10:00:39.625228 20420 net.cpp:395] relu5_3 -> conv5_3 (in-place)
I0602 10:00:39.625376 20420 net.cpp:150] Setting up relu5_3
I0602 10:00:39.625383 20420 net.cpp:157] Top shape: 4 512 19 19 (739328)
I0602 10:00:39.625386 20420 net.cpp:165] Memory required for data: 881569824
I0602 10:00:39.625388 20420 layer_factory.hpp:77] Creating layer pool5
I0602 10:00:39.625394 20420 net.cpp:100] Creating Layer pool5
I0602 10:00:39.625398 20420 net.cpp:434] pool5 <- conv5_3
I0602 10:00:39.625403 20420 net.cpp:408] pool5 -> pool5
I0602 10:00:39.625449 20420 net.cpp:150] Setting up pool5
I0602 10:00:39.625455 20420 net.cpp:157] Top shape: 4 512 19 19 (739328)
I0602 10:00:39.625458 20420 net.cpp:165] Memory required for data: 884527136
I0602 10:00:39.625460 20420 layer_factory.hpp:77] Creating layer fc6
I0602 10:00:39.625471 20420 net.cpp:100] Creating Layer fc6
I0602 10:00:39.625475 20420 net.cpp:434] fc6 <- pool5
I0602 10:00:39.625480 20420 net.cpp:408] fc6 -> fc6
I0602 10:00:39.649088 20420 net.cpp:150] Setting up fc6
I0602 10:00:39.649106 20420 net.cpp:157] Top shape: 4 1024 19 19 (1478656)
I0602 10:00:39.649109 20420 net.cpp:165] Memory required for data: 890441760
I0602 10:00:39.649116 20420 layer_factory.hpp:77] Creating layer relu6
I0602 10:00:39.649137 20420 net.cpp:100] Creating Layer relu6
I0602 10:00:39.649142 20420 net.cpp:434] relu6 <- fc6
I0602 10:00:39.649147 20420 net.cpp:395] relu6 -> fc6 (in-place)
I0602 10:00:39.650070 20420 net.cpp:150] Setting up relu6
I0602 10:00:39.650092 20420 net.cpp:157] Top shape: 4 1024 19 19 (1478656)
I0602 10:00:39.650107 20420 net.cpp:165] Memory required for data: 896356384
I0602 10:00:39.650110 20420 layer_factory.hpp:77] Creating layer fc7
I0602 10:00:39.650118 20420 net.cpp:100] Creating Layer fc7
I0602 10:00:39.650121 20420 net.cpp:434] fc7 <- fc6
I0602 10:00:39.650128 20420 net.cpp:408] fc7 -> fc7
I0602 10:00:39.657196 20420 net.cpp:150] Setting up fc7
I0602 10:00:39.657213 20420 net.cpp:157] Top shape: 4 1024 19 19 (1478656)
I0602 10:00:39.657217 20420 net.cpp:165] Memory required for data: 902271008
I0602 10:00:39.657223 20420 layer_factory.hpp:77] Creating layer relu7
I0602 10:00:39.657229 20420 net.cpp:100] Creating Layer relu7
I0602 10:00:39.657232 20420 net.cpp:434] relu7 <- fc7
I0602 10:00:39.657238 20420 net.cpp:395] relu7 -> fc7 (in-place)
I0602 10:00:39.657410 20420 net.cpp:150] Setting up relu7
I0602 10:00:39.657416 20420 net.cpp:157] Top shape: 4 1024 19 19 (1478656)
I0602 10:00:39.657418 20420 net.cpp:165] Memory required for data: 908185632
I0602 10:00:39.657420 20420 layer_factory.hpp:77] Creating layer fc7_relu7_0_split
I0602 10:00:39.657441 20420 net.cpp:100] Creating Layer fc7_relu7_0_split
I0602 10:00:39.657444 20420 net.cpp:434] fc7_relu7_0_split <- fc7
I0602 10:00:39.657449 20420 net.cpp:408] fc7_relu7_0_split -> fc7_relu7_0_split_0
I0602 10:00:39.657454 20420 net.cpp:408] fc7_relu7_0_split -> fc7_relu7_0_split_1
I0602 10:00:39.657479 20420 net.cpp:408] fc7_relu7_0_split -> fc7_relu7_0_split_2
I0602 10:00:39.657485 20420 net.cpp:408] fc7_relu7_0_split -> fc7_relu7_0_split_3
I0602 10:00:39.657601 20420 net.cpp:150] Setting up fc7_relu7_0_split
I0602 10:00:39.657606 20420 net.cpp:157] Top shape: 4 1024 19 19 (1478656)
I0602 10:00:39.657610 20420 net.cpp:157] Top shape: 4 1024 19 19 (1478656)
I0602 10:00:39.657613 20420 net.cpp:157] Top shape: 4 1024 19 19 (1478656)
I0602 10:00:39.657615 20420 net.cpp:157] Top shape: 4 1024 19 19 (1478656)
I0602 10:00:39.657616 20420 net.cpp:165] Memory required for data: 931844128
I0602 10:00:39.657619 20420 layer_factory.hpp:77] Creating layer conv6_1
I0602 10:00:39.657642 20420 net.cpp:100] Creating Layer conv6_1
I0602 10:00:39.657645 20420 net.cpp:434] conv6_1 <- fc7_relu7_0_split_0
I0602 10:00:39.657650 20420 net.cpp:408] conv6_1 -> conv6_1
I0602 10:00:39.661433 20420 net.cpp:150] Setting up conv6_1
I0602 10:00:39.661443 20420 net.cpp:157] Top shape: 4 256 19 19 (369664)
I0602 10:00:39.661447 20420 net.cpp:165] Memory required for data: 933322784
I0602 10:00:39.661453 20420 layer_factory.hpp:77] Creating layer conv6_1_relu
I0602 10:00:39.661463 20420 net.cpp:100] Creating Layer conv6_1_relu
I0602 10:00:39.661466 20420 net.cpp:434] conv6_1_relu <- conv6_1
I0602 10:00:39.661470 20420 net.cpp:395] conv6_1_relu -> conv6_1 (in-place)
I0602 10:00:39.661602 20420 net.cpp:150] Setting up conv6_1_relu
I0602 10:00:39.661612 20420 net.cpp:157] Top shape: 4 256 19 19 (369664)
I0602 10:00:39.661615 20420 net.cpp:165] Memory required for data: 934801440
I0602 10:00:39.661634 20420 layer_factory.hpp:77] Creating layer conv6_2
I0602 10:00:39.661641 20420 net.cpp:100] Creating Layer conv6_2
I0602 10:00:39.661645 20420 net.cpp:434] conv6_2 <- conv6_1
I0602 10:00:39.661650 20420 net.cpp:408] conv6_2 -> conv6_2
I0602 10:00:39.669104 20420 net.cpp:150] Setting up conv6_2
I0602 10:00:39.669121 20420 net.cpp:157] Top shape: 4 512 10 10 (204800)
I0602 10:00:39.669122 20420 net.cpp:165] Memory required for data: 935620640
I0602 10:00:39.669136 20420 layer_factory.hpp:77] Creating layer conv6_2_relu
I0602 10:00:39.669159 20420 net.cpp:100] Creating Layer conv6_2_relu
I0602 10:00:39.669164 20420 net.cpp:434] conv6_2_relu <- conv6_2
I0602 10:00:39.669169 20420 net.cpp:395] conv6_2_relu -> conv6_2 (in-place)
I0602 10:00:39.669313 20420 net.cpp:150] Setting up conv6_2_relu
I0602 10:00:39.669322 20420 net.cpp:157] Top shape: 4 512 10 10 (204800)
I0602 10:00:39.669325 20420 net.cpp:165] Memory required for data: 936439840
I0602 10:00:39.669328 20420 layer_factory.hpp:77] Creating layer conv6_2_conv6_2_relu_0_split
I0602 10:00:39.669334 20420 net.cpp:100] Creating Layer conv6_2_conv6_2_relu_0_split
I0602 10:00:39.669363 20420 net.cpp:434] conv6_2_conv6_2_relu_0_split <- conv6_2
I0602 10:00:39.669368 20420 net.cpp:408] conv6_2_conv6_2_relu_0_split -> conv6_2_conv6_2_relu_0_split_0
I0602 10:00:39.669373 20420 net.cpp:408] conv6_2_conv6_2_relu_0_split -> conv6_2_conv6_2_relu_0_split_1
I0602 10:00:39.669378 20420 net.cpp:408] conv6_2_conv6_2_relu_0_split -> conv6_2_conv6_2_relu_0_split_2
I0602 10:00:39.669384 20420 net.cpp:408] conv6_2_conv6_2_relu_0_split -> conv6_2_conv6_2_relu_0_split_3
I0602 10:00:39.669461 20420 net.cpp:150] Setting up conv6_2_conv6_2_relu_0_split
I0602 10:00:39.669466 20420 net.cpp:157] Top shape: 4 512 10 10 (204800)
I0602 10:00:39.669468 20420 net.cpp:157] Top shape: 4 512 10 10 (204800)
I0602 10:00:39.669486 20420 net.cpp:157] Top shape: 4 512 10 10 (204800)
I0602 10:00:39.669488 20420 net.cpp:157] Top shape: 4 512 10 10 (204800)
I0602 10:00:39.669490 20420 net.cpp:165] Memory required for data: 939716640
I0602 10:00:39.669507 20420 layer_factory.hpp:77] Creating layer conv7_1
I0602 10:00:39.669517 20420 net.cpp:100] Creating Layer conv7_1
I0602 10:00:39.669519 20420 net.cpp:434] conv7_1 <- conv6_2_conv6_2_relu_0_split_0
I0602 10:00:39.669524 20420 net.cpp:408] conv7_1 -> conv7_1
I0602 10:00:39.671128 20420 net.cpp:150] Setting up conv7_1
I0602 10:00:39.671138 20420 net.cpp:157] Top shape: 4 128 10 10 (51200)
I0602 10:00:39.671139 20420 net.cpp:165] Memory required for data: 939921440
I0602 10:00:39.671144 20420 layer_factory.hpp:77] Creating layer conv7_1_relu
I0602 10:00:39.671149 20420 net.cpp:100] Creating Layer conv7_1_relu
I0602 10:00:39.671152 20420 net.cpp:434] conv7_1_relu <- conv7_1
I0602 10:00:39.671155 20420 net.cpp:395] conv7_1_relu -> conv7_1 (in-place)
I0602 10:00:39.671283 20420 net.cpp:150] Setting up conv7_1_relu
I0602 10:00:39.671289 20420 net.cpp:157] Top shape: 4 128 10 10 (51200)
I0602 10:00:39.671291 20420 net.cpp:165] Memory required for data: 940126240
I0602 10:00:39.671294 20420 layer_factory.hpp:77] Creating layer conv7_2
I0602 10:00:39.671304 20420 net.cpp:100] Creating Layer conv7_2
I0602 10:00:39.671308 20420 net.cpp:434] conv7_2 <- conv7_1
I0602 10:00:39.671314 20420 net.cpp:408] conv7_2 -> conv7_2
I0602 10:00:39.674352 20420 net.cpp:150] Setting up conv7_2
I0602 10:00:39.674365 20420 net.cpp:157] Top shape: 4 256 5 5 (25600)
I0602 10:00:39.674366 20420 net.cpp:165] Memory required for data: 940228640
I0602 10:00:39.674372 20420 layer_factory.hpp:77] Creating layer conv7_2_relu
I0602 10:00:39.674376 20420 net.cpp:100] Creating Layer conv7_2_relu
I0602 10:00:39.674379 20420 net.cpp:434] conv7_2_relu <- conv7_2
I0602 10:00:39.674383 20420 net.cpp:395] conv7_2_relu -> conv7_2 (in-place)
I0602 10:00:39.674520 20420 net.cpp:150] Setting up conv7_2_relu
I0602 10:00:39.674527 20420 net.cpp:157] Top shape: 4 256 5 5 (25600)
I0602 10:00:39.674530 20420 net.cpp:165] Memory required for data: 940331040
I0602 10:00:39.674531 20420 layer_factory.hpp:77] Creating layer conv7_2_conv7_2_relu_0_split
I0602 10:00:39.674537 20420 net.cpp:100] Creating Layer conv7_2_conv7_2_relu_0_split
I0602 10:00:39.674541 20420 net.cpp:434] conv7_2_conv7_2_relu_0_split <- conv7_2
I0602 10:00:39.674547 20420 net.cpp:408] conv7_2_conv7_2_relu_0_split -> conv7_2_conv7_2_relu_0_split_0
I0602 10:00:39.674552 20420 net.cpp:408] conv7_2_conv7_2_relu_0_split -> conv7_2_conv7_2_relu_0_split_1
I0602 10:00:39.674558 20420 net.cpp:408] conv7_2_conv7_2_relu_0_split -> conv7_2_conv7_2_relu_0_split_2
I0602 10:00:39.674562 20420 net.cpp:408] conv7_2_conv7_2_relu_0_split -> conv7_2_conv7_2_relu_0_split_3
I0602 10:00:39.674624 20420 net.cpp:150] Setting up conv7_2_conv7_2_relu_0_split
I0602 10:00:39.674629 20420 net.cpp:157] Top shape: 4 256 5 5 (25600)
I0602 10:00:39.674633 20420 net.cpp:157] Top shape: 4 256 5 5 (25600)
I0602 10:00:39.674635 20420 net.cpp:157] Top shape: 4 256 5 5 (25600)
I0602 10:00:39.674638 20420 net.cpp:157] Top shape: 4 256 5 5 (25600)
I0602 10:00:39.674640 20420 net.cpp:165] Memory required for data: 940740640
I0602 10:00:39.674643 20420 layer_factory.hpp:77] Creating layer conv8_1
I0602 10:00:39.674659 20420 net.cpp:100] Creating Layer conv8_1
I0602 10:00:39.674662 20420 net.cpp:434] conv8_1 <- conv7_2_conv7_2_relu_0_split_0
I0602 10:00:39.674667 20420 net.cpp:408] conv8_1 -> conv8_1
I0602 10:00:39.675942 20420 net.cpp:150] Setting up conv8_1
I0602 10:00:39.675951 20420 net.cpp:157] Top shape: 4 128 5 5 (12800)
I0602 10:00:39.675954 20420 net.cpp:165] Memory required for data: 940791840
I0602 10:00:39.675958 20420 layer_factory.hpp:77] Creating layer conv8_1_relu
I0602 10:00:39.675963 20420 net.cpp:100] Creating Layer conv8_1_relu
I0602 10:00:39.675966 20420 net.cpp:434] conv8_1_relu <- conv8_1
I0602 10:00:39.675971 20420 net.cpp:395] conv8_1_relu -> conv8_1 (in-place)
I0602 10:00:39.676587 20420 net.cpp:150] Setting up conv8_1_relu
I0602 10:00:39.676596 20420 net.cpp:157] Top shape: 4 128 5 5 (12800)
I0602 10:00:39.676599 20420 net.cpp:165] Memory required for data: 940843040
I0602 10:00:39.676601 20420 layer_factory.hpp:77] Creating layer conv8_2
I0602 10:00:39.676609 20420 net.cpp:100] Creating Layer conv8_2
I0602 10:00:39.676612 20420 net.cpp:434] conv8_2 <- conv8_1
I0602 10:00:39.676617 20420 net.cpp:408] conv8_2 -> conv8_2
I0602 10:00:39.679719 20420 net.cpp:150] Setting up conv8_2
I0602 10:00:39.679735 20420 net.cpp:157] Top shape: 4 256 3 3 (9216)
I0602 10:00:39.679738 20420 net.cpp:165] Memory required for data: 940879904
I0602 10:00:39.679744 20420 layer_factory.hpp:77] Creating layer conv8_2_relu
I0602 10:00:39.679750 20420 net.cpp:100] Creating Layer conv8_2_relu
I0602 10:00:39.679754 20420 net.cpp:434] conv8_2_relu <- conv8_2
I0602 10:00:39.679759 20420 net.cpp:395] conv8_2_relu -> conv8_2 (in-place)
I0602 10:00:39.679903 20420 net.cpp:150] Setting up conv8_2_relu
I0602 10:00:39.679910 20420 net.cpp:157] Top shape: 4 256 3 3 (9216)
I0602 10:00:39.679913 20420 net.cpp:165] Memory required for data: 940916768
I0602 10:00:39.679915 20420 layer_factory.hpp:77] Creating layer conv8_2_conv8_2_relu_0_split
I0602 10:00:39.679920 20420 net.cpp:100] Creating Layer conv8_2_conv8_2_relu_0_split
I0602 10:00:39.679924 20420 net.cpp:434] conv8_2_conv8_2_relu_0_split <- conv8_2
I0602 10:00:39.679929 20420 net.cpp:408] conv8_2_conv8_2_relu_0_split -> conv8_2_conv8_2_relu_0_split_0
I0602 10:00:39.679934 20420 net.cpp:408] conv8_2_conv8_2_relu_0_split -> conv8_2_conv8_2_relu_0_split_1
I0602 10:00:39.679939 20420 net.cpp:408] conv8_2_conv8_2_relu_0_split -> conv8_2_conv8_2_relu_0_split_2
I0602 10:00:39.679944 20420 net.cpp:408] conv8_2_conv8_2_relu_0_split -> conv8_2_conv8_2_relu_0_split_3
I0602 10:00:39.680008 20420 net.cpp:150] Setting up conv8_2_conv8_2_relu_0_split
I0602 10:00:39.680021 20420 net.cpp:157] Top shape: 4 256 3 3 (9216)
I0602 10:00:39.680025 20420 net.cpp:157] Top shape: 4 256 3 3 (9216)
I0602 10:00:39.680029 20420 net.cpp:157] Top shape: 4 256 3 3 (9216)
I0602 10:00:39.680032 20420 net.cpp:157] Top shape: 4 256 3 3 (9216)
I0602 10:00:39.680034 20420 net.cpp:165] Memory required for data: 941064224
I0602 10:00:39.680037 20420 layer_factory.hpp:77] Creating layer conv9_1
I0602 10:00:39.680044 20420 net.cpp:100] Creating Layer conv9_1
I0602 10:00:39.680047 20420 net.cpp:434] conv9_1 <- conv8_2_conv8_2_relu_0_split_0
I0602 10:00:39.680054 20420 net.cpp:408] conv9_1 -> conv9_1
I0602 10:00:39.681404 20420 net.cpp:150] Setting up conv9_1
I0602 10:00:39.681416 20420 net.cpp:157] Top shape: 4 128 3 3 (4608)
I0602 10:00:39.681418 20420 net.cpp:165] Memory required for data: 941082656
I0602 10:00:39.681424 20420 layer_factory.hpp:77] Creating layer conv9_1_relu
I0602 10:00:39.681429 20420 net.cpp:100] Creating Layer conv9_1_relu
I0602 10:00:39.681432 20420 net.cpp:434] conv9_1_relu <- conv9_1
I0602 10:00:39.681437 20420 net.cpp:395] conv9_1_relu -> conv9_1 (in-place)
I0602 10:00:39.681576 20420 net.cpp:150] Setting up conv9_1_relu
I0602 10:00:39.681583 20420 net.cpp:157] Top shape: 4 128 3 3 (4608)
I0602 10:00:39.681586 20420 net.cpp:165] Memory required for data: 941101088
I0602 10:00:39.681588 20420 layer_factory.hpp:77] Creating layer conv9_2
I0602 10:00:39.681607 20420 net.cpp:100] Creating Layer conv9_2
I0602 10:00:39.681610 20420 net.cpp:434] conv9_2 <- conv9_1
I0602 10:00:39.681629 20420 net.cpp:408] conv9_2 -> conv9_2
I0602 10:00:39.684753 20420 net.cpp:150] Setting up conv9_2
I0602 10:00:39.684767 20420 net.cpp:157] Top shape: 4 256 1 1 (1024)
I0602 10:00:39.684769 20420 net.cpp:165] Memory required for data: 941105184
I0602 10:00:39.684774 20420 layer_factory.hpp:77] Creating layer conv9_2_relu
I0602 10:00:39.684779 20420 net.cpp:100] Creating Layer conv9_2_relu
I0602 10:00:39.684782 20420 net.cpp:434] conv9_2_relu <- conv9_2
I0602 10:00:39.684787 20420 net.cpp:395] conv9_2_relu -> conv9_2 (in-place)
I0602 10:00:39.684927 20420 net.cpp:150] Setting up conv9_2_relu
I0602 10:00:39.684933 20420 net.cpp:157] Top shape: 4 256 1 1 (1024)
I0602 10:00:39.684936 20420 net.cpp:165] Memory required for data: 941109280
I0602 10:00:39.684938 20420 layer_factory.hpp:77] Creating layer conv9_2_conv9_2_relu_0_split
I0602 10:00:39.684942 20420 net.cpp:100] Creating Layer conv9_2_conv9_2_relu_0_split
I0602 10:00:39.684945 20420 net.cpp:434] conv9_2_conv9_2_relu_0_split <- conv9_2
I0602 10:00:39.684949 20420 net.cpp:408] conv9_2_conv9_2_relu_0_split -> conv9_2_conv9_2_relu_0_split_0
I0602 10:00:39.684955 20420 net.cpp:408] conv9_2_conv9_2_relu_0_split -> conv9_2_conv9_2_relu_0_split_1
I0602 10:00:39.684962 20420 net.cpp:408] conv9_2_conv9_2_relu_0_split -> conv9_2_conv9_2_relu_0_split_2
I0602 10:00:39.685012 20420 net.cpp:150] Setting up conv9_2_conv9_2_relu_0_split
I0602 10:00:39.685017 20420 net.cpp:157] Top shape: 4 256 1 1 (1024)
I0602 10:00:39.685020 20420 net.cpp:157] Top shape: 4 256 1 1 (1024)
I0602 10:00:39.685024 20420 net.cpp:157] Top shape: 4 256 1 1 (1024)
I0602 10:00:39.685024 20420 net.cpp:165] Memory required for data: 941121568
I0602 10:00:39.685026 20420 layer_factory.hpp:77] Creating layer conv4_3_norm
I0602 10:00:39.685031 20420 net.cpp:100] Creating Layer conv4_3_norm
I0602 10:00:39.685034 20420 net.cpp:434] conv4_3_norm <- conv4_3_relu4_3_0_split_1
I0602 10:00:39.685040 20420 net.cpp:408] conv4_3_norm -> conv4_3_norm
I0602 10:00:39.685194 20420 net.cpp:150] Setting up conv4_3_norm
I0602 10:00:39.685204 20420 net.cpp:157] Top shape: 4 512 38 38 (2957312)
I0602 10:00:39.685206 20420 net.cpp:165] Memory required for data: 952950816
I0602 10:00:39.685209 20420 layer_factory.hpp:77] Creating layer conv4_3_norm_conv4_3_norm_0_split
I0602 10:00:39.685214 20420 net.cpp:100] Creating Layer conv4_3_norm_conv4_3_norm_0_split
I0602 10:00:39.685215 20420 net.cpp:434] conv4_3_norm_conv4_3_norm_0_split <- conv4_3_norm
I0602 10:00:39.685220 20420 net.cpp:408] conv4_3_norm_conv4_3_norm_0_split -> conv4_3_norm_conv4_3_norm_0_split_0
I0602 10:00:39.685225 20420 net.cpp:408] conv4_3_norm_conv4_3_norm_0_split -> conv4_3_norm_conv4_3_norm_0_split_1
I0602 10:00:39.685230 20420 net.cpp:408] conv4_3_norm_conv4_3_norm_0_split -> conv4_3_norm_conv4_3_norm_0_split_2
I0602 10:00:39.685272 20420 net.cpp:150] Setting up conv4_3_norm_conv4_3_norm_0_split
I0602 10:00:39.685277 20420 net.cpp:157] Top shape: 4 512 38 38 (2957312)
I0602 10:00:39.685281 20420 net.cpp:157] Top shape: 4 512 38 38 (2957312)
I0602 10:00:39.685282 20420 net.cpp:157] Top shape: 4 512 38 38 (2957312)
I0602 10:00:39.685284 20420 net.cpp:165] Memory required for data: 988438560
I0602 10:00:39.685286 20420 layer_factory.hpp:77] Creating layer conv4_3_norm_mbox_loc
I0602 10:00:39.685293 20420 net.cpp:100] Creating Layer conv4_3_norm_mbox_loc
I0602 10:00:39.685297 20420 net.cpp:434] conv4_3_norm_mbox_loc <- conv4_3_norm_conv4_3_norm_0_split_0
I0602 10:00:39.685302 20420 net.cpp:408] conv4_3_norm_mbox_loc -> conv4_3_norm_mbox_loc
I0602 10:00:39.687232 20420 net.cpp:150] Setting up conv4_3_norm_mbox_loc
I0602 10:00:39.687242 20420 net.cpp:157] Top shape: 4 16 38 38 (92416)
I0602 10:00:39.687244 20420 net.cpp:165] Memory required for data: 988808224
I0602 10:00:39.687249 20420 layer_factory.hpp:77] Creating layer conv4_3_norm_mbox_loc_perm
I0602 10:00:39.687255 20420 net.cpp:100] Creating Layer conv4_3_norm_mbox_loc_perm
I0602 10:00:39.687269 20420 net.cpp:434] conv4_3_norm_mbox_loc_perm <- conv4_3_norm_mbox_loc
I0602 10:00:39.687274 20420 net.cpp:408] conv4_3_norm_mbox_loc_perm -> conv4_3_norm_mbox_loc_perm
I0602 10:00:39.687377 20420 net.cpp:150] Setting up conv4_3_norm_mbox_loc_perm
I0602 10:00:39.687382 20420 net.cpp:157] Top shape: 4 38 38 16 (92416)
I0602 10:00:39.687384 20420 net.cpp:165] Memory required for data: 989177888
I0602 10:00:39.687386 20420 layer_factory.hpp:77] Creating layer conv4_3_norm_mbox_loc_flat
I0602 10:00:39.687392 20420 net.cpp:100] Creating Layer conv4_3_norm_mbox_loc_flat
I0602 10:00:39.687394 20420 net.cpp:434] conv4_3_norm_mbox_loc_flat <- conv4_3_norm_mbox_loc_perm
I0602 10:00:39.687399 20420 net.cpp:408] conv4_3_norm_mbox_loc_flat -> conv4_3_norm_mbox_loc_flat
I0602 10:00:39.687427 20420 net.cpp:150] Setting up conv4_3_norm_mbox_loc_flat
I0602 10:00:39.687433 20420 net.cpp:157] Top shape: 4 23104 (92416)
I0602 10:00:39.687435 20420 net.cpp:165] Memory required for data: 989547552
I0602 10:00:39.687438 20420 layer_factory.hpp:77] Creating layer conv4_3_norm_mbox_conf
I0602 10:00:39.687449 20420 net.cpp:100] Creating Layer conv4_3_norm_mbox_conf
I0602 10:00:39.687453 20420 net.cpp:434] conv4_3_norm_mbox_conf <- conv4_3_norm_conv4_3_norm_0_split_1
I0602 10:00:39.687458 20420 net.cpp:408] conv4_3_norm_mbox_conf -> conv4_3_norm_mbox_conf
I0602 10:00:39.689393 20420 net.cpp:150] Setting up conv4_3_norm_mbox_conf
I0602 10:00:39.689404 20420 net.cpp:157] Top shape: 4 16 38 38 (92416)
I0602 10:00:39.689406 20420 net.cpp:165] Memory required for data: 989917216
I0602 10:00:39.689411 20420 layer_factory.hpp:77] Creating layer conv4_3_norm_mbox_conf_perm
I0602 10:00:39.689417 20420 net.cpp:100] Creating Layer conv4_3_norm_mbox_conf_perm
I0602 10:00:39.689420 20420 net.cpp:434] conv4_3_norm_mbox_conf_perm <- conv4_3_norm_mbox_conf
I0602 10:00:39.689424 20420 net.cpp:408] conv4_3_norm_mbox_conf_perm -> conv4_3_norm_mbox_conf_perm
I0602 10:00:39.689530 20420 net.cpp:150] Setting up conv4_3_norm_mbox_conf_perm
I0602 10:00:39.689537 20420 net.cpp:157] Top shape: 4 38 38 16 (92416)
I0602 10:00:39.689539 20420 net.cpp:165] Memory required for data: 990286880
I0602 10:00:39.689541 20420 layer_factory.hpp:77] Creating layer conv4_3_norm_mbox_conf_flat
I0602 10:00:39.689544 20420 net.cpp:100] Creating Layer conv4_3_norm_mbox_conf_flat
I0602 10:00:39.689548 20420 net.cpp:434] conv4_3_norm_mbox_conf_flat <- conv4_3_norm_mbox_conf_perm
I0602 10:00:39.689551 20420 net.cpp:408] conv4_3_norm_mbox_conf_flat -> conv4_3_norm_mbox_conf_flat
I0602 10:00:39.689573 20420 net.cpp:150] Setting up conv4_3_norm_mbox_conf_flat
I0602 10:00:39.689576 20420 net.cpp:157] Top shape: 4 23104 (92416)
I0602 10:00:39.689579 20420 net.cpp:165] Memory required for data: 990656544
I0602 10:00:39.689581 20420 layer_factory.hpp:77] Creating layer conv4_3_norm_mbox_priorbox
I0602 10:00:39.689585 20420 net.cpp:100] Creating Layer conv4_3_norm_mbox_priorbox
I0602 10:00:39.689589 20420 net.cpp:434] conv4_3_norm_mbox_priorbox <- conv4_3_norm_conv4_3_norm_0_split_2
I0602 10:00:39.689592 20420 net.cpp:434] conv4_3_norm_mbox_priorbox <- data_data_0_split_1
I0602 10:00:39.689596 20420 net.cpp:408] conv4_3_norm_mbox_priorbox -> conv4_3_norm_mbox_priorbox
I0602 10:00:39.689622 20420 net.cpp:150] Setting up conv4_3_norm_mbox_priorbox
I0602 10:00:39.689626 20420 net.cpp:157] Top shape: 1 2 23104 (46208)
I0602 10:00:39.689630 20420 net.cpp:165] Memory required for data: 990841376
I0602 10:00:39.689631 20420 layer_factory.hpp:77] Creating layer fc7_mbox_loc
I0602 10:00:39.689638 20420 net.cpp:100] Creating Layer fc7_mbox_loc
I0602 10:00:39.689641 20420 net.cpp:434] fc7_mbox_loc <- fc7_relu7_0_split_1
I0602 10:00:39.689646 20420 net.cpp:408] fc7_mbox_loc -> fc7_mbox_loc
I0602 10:00:39.692203 20420 net.cpp:150] Setting up fc7_mbox_loc
I0602 10:00:39.692212 20420 net.cpp:157] Top shape: 4 24 19 19 (34656)
I0602 10:00:39.692215 20420 net.cpp:165] Memory required for data: 990980000
I0602 10:00:39.692221 20420 layer_factory.hpp:77] Creating layer fc7_mbox_loc_perm
I0602 10:00:39.692226 20420 net.cpp:100] Creating Layer fc7_mbox_loc_perm
I0602 10:00:39.692239 20420 net.cpp:434] fc7_mbox_loc_perm <- fc7_mbox_loc
I0602 10:00:39.692245 20420 net.cpp:408] fc7_mbox_loc_perm -> fc7_mbox_loc_perm
I0602 10:00:39.692353 20420 net.cpp:150] Setting up fc7_mbox_loc_perm
I0602 10:00:39.692359 20420 net.cpp:157] Top shape: 4 19 19 24 (34656)
I0602 10:00:39.692361 20420 net.cpp:165] Memory required for data: 991118624
I0602 10:00:39.692363 20420 layer_factory.hpp:77] Creating layer fc7_mbox_loc_flat
I0602 10:00:39.692368 20420 net.cpp:100] Creating Layer fc7_mbox_loc_flat
I0602 10:00:39.692369 20420 net.cpp:434] fc7_mbox_loc_flat <- fc7_mbox_loc_perm
I0602 10:00:39.692373 20420 net.cpp:408] fc7_mbox_loc_flat -> fc7_mbox_loc_flat
I0602 10:00:39.692394 20420 net.cpp:150] Setting up fc7_mbox_loc_flat
I0602 10:00:39.692399 20420 net.cpp:157] Top shape: 4 8664 (34656)
I0602 10:00:39.692401 20420 net.cpp:165] Memory required for data: 991257248
I0602 10:00:39.692404 20420 layer_factory.hpp:77] Creating layer fc7_mbox_conf
I0602 10:00:39.692410 20420 net.cpp:100] Creating Layer fc7_mbox_conf
I0602 10:00:39.692414 20420 net.cpp:434] fc7_mbox_conf <- fc7_relu7_0_split_2
I0602 10:00:39.692417 20420 net.cpp:408] fc7_mbox_conf -> fc7_mbox_conf
I0602 10:00:39.694991 20420 net.cpp:150] Setting up fc7_mbox_conf
I0602 10:00:39.695001 20420 net.cpp:157] Top shape: 4 24 19 19 (34656)
I0602 10:00:39.695005 20420 net.cpp:165] Memory required for data: 991395872
I0602 10:00:39.695010 20420 layer_factory.hpp:77] Creating layer fc7_mbox_conf_perm
I0602 10:00:39.695016 20420 net.cpp:100] Creating Layer fc7_mbox_conf_perm
I0602 10:00:39.695019 20420 net.cpp:434] fc7_mbox_conf_perm <- fc7_mbox_conf
I0602 10:00:39.695025 20420 net.cpp:408] fc7_mbox_conf_perm -> fc7_mbox_conf_perm
I0602 10:00:39.695128 20420 net.cpp:150] Setting up fc7_mbox_conf_perm
I0602 10:00:39.695134 20420 net.cpp:157] Top shape: 4 19 19 24 (34656)
I0602 10:00:39.695137 20420 net.cpp:165] Memory required for data: 991534496
I0602 10:00:39.695139 20420 layer_factory.hpp:77] Creating layer fc7_mbox_conf_flat
I0602 10:00:39.695142 20420 net.cpp:100] Creating Layer fc7_mbox_conf_flat
I0602 10:00:39.695145 20420 net.cpp:434] fc7_mbox_conf_flat <- fc7_mbox_conf_perm
I0602 10:00:39.695148 20420 net.cpp:408] fc7_mbox_conf_flat -> fc7_mbox_conf_flat
I0602 10:00:39.695170 20420 net.cpp:150] Setting up fc7_mbox_conf_flat
I0602 10:00:39.695174 20420 net.cpp:157] Top shape: 4 8664 (34656)
I0602 10:00:39.695176 20420 net.cpp:165] Memory required for data: 991673120
I0602 10:00:39.695178 20420 layer_factory.hpp:77] Creating layer fc7_mbox_priorbox
I0602 10:00:39.695184 20420 net.cpp:100] Creating Layer fc7_mbox_priorbox
I0602 10:00:39.695186 20420 net.cpp:434] fc7_mbox_priorbox <- fc7_relu7_0_split_3
I0602 10:00:39.695190 20420 net.cpp:434] fc7_mbox_priorbox <- data_data_0_split_2
I0602 10:00:39.695195 20420 net.cpp:408] fc7_mbox_priorbox -> fc7_mbox_priorbox
I0602 10:00:39.695219 20420 net.cpp:150] Setting up fc7_mbox_priorbox
I0602 10:00:39.695225 20420 net.cpp:157] Top shape: 1 2 8664 (17328)
I0602 10:00:39.695227 20420 net.cpp:165] Memory required for data: 991742432
I0602 10:00:39.695230 20420 layer_factory.hpp:77] Creating layer conv6_2_mbox_loc
I0602 10:00:39.695237 20420 net.cpp:100] Creating Layer conv6_2_mbox_loc
I0602 10:00:39.695241 20420 net.cpp:434] conv6_2_mbox_loc <- conv6_2_conv6_2_relu_0_split_1
I0602 10:00:39.695245 20420 net.cpp:408] conv6_2_mbox_loc -> conv6_2_mbox_loc
I0602 10:00:39.697324 20420 net.cpp:150] Setting up conv6_2_mbox_loc
I0602 10:00:39.697334 20420 net.cpp:157] Top shape: 4 24 10 10 (9600)
I0602 10:00:39.697336 20420 net.cpp:165] Memory required for data: 991780832
I0602 10:00:39.697341 20420 layer_factory.hpp:77] Creating layer conv6_2_mbox_loc_perm
I0602 10:00:39.697346 20420 net.cpp:100] Creating Layer conv6_2_mbox_loc_perm
I0602 10:00:39.697350 20420 net.cpp:434] conv6_2_mbox_loc_perm <- conv6_2_mbox_loc
I0602 10:00:39.697355 20420 net.cpp:408] conv6_2_mbox_loc_perm -> conv6_2_mbox_loc_perm
I0602 10:00:39.697458 20420 net.cpp:150] Setting up conv6_2_mbox_loc_perm
I0602 10:00:39.697471 20420 net.cpp:157] Top shape: 4 10 10 24 (9600)
I0602 10:00:39.697474 20420 net.cpp:165] Memory required for data: 991819232
I0602 10:00:39.697476 20420 layer_factory.hpp:77] Creating layer conv6_2_mbox_loc_flat
I0602 10:00:39.697479 20420 net.cpp:100] Creating Layer conv6_2_mbox_loc_flat
I0602 10:00:39.697482 20420 net.cpp:434] conv6_2_mbox_loc_flat <- conv6_2_mbox_loc_perm
I0602 10:00:39.697486 20420 net.cpp:408] conv6_2_mbox_loc_flat -> conv6_2_mbox_loc_flat
I0602 10:00:39.697507 20420 net.cpp:150] Setting up conv6_2_mbox_loc_flat
I0602 10:00:39.697513 20420 net.cpp:157] Top shape: 4 2400 (9600)
I0602 10:00:39.697515 20420 net.cpp:165] Memory required for data: 991857632
I0602 10:00:39.697517 20420 layer_factory.hpp:77] Creating layer conv6_2_mbox_conf
I0602 10:00:39.697525 20420 net.cpp:100] Creating Layer conv6_2_mbox_conf
I0602 10:00:39.697527 20420 net.cpp:434] conv6_2_mbox_conf <- conv6_2_conv6_2_relu_0_split_2
I0602 10:00:39.697532 20420 net.cpp:408] conv6_2_mbox_conf -> conv6_2_mbox_conf
I0602 10:00:39.699671 20420 net.cpp:150] Setting up conv6_2_mbox_conf
I0602 10:00:39.699681 20420 net.cpp:157] Top shape: 4 24 10 10 (9600)
I0602 10:00:39.699684 20420 net.cpp:165] Memory required for data: 991896032
I0602 10:00:39.699689 20420 layer_factory.hpp:77] Creating layer conv6_2_mbox_conf_perm
I0602 10:00:39.699695 20420 net.cpp:100] Creating Layer conv6_2_mbox_conf_perm
I0602 10:00:39.699699 20420 net.cpp:434] conv6_2_mbox_conf_perm <- conv6_2_mbox_conf
I0602 10:00:39.699705 20420 net.cpp:408] conv6_2_mbox_conf_perm -> conv6_2_mbox_conf_perm
I0602 10:00:39.699841 20420 net.cpp:150] Setting up conv6_2_mbox_conf_perm
I0602 10:00:39.699851 20420 net.cpp:157] Top shape: 4 10 10 24 (9600)
I0602 10:00:39.699856 20420 net.cpp:165] Memory required for data: 991934432
I0602 10:00:39.699861 20420 layer_factory.hpp:77] Creating layer conv6_2_mbox_conf_flat
I0602 10:00:39.699867 20420 net.cpp:100] Creating Layer conv6_2_mbox_conf_flat
I0602 10:00:39.699872 20420 net.cpp:434] conv6_2_mbox_conf_flat <- conv6_2_mbox_conf_perm
I0602 10:00:39.699878 20420 net.cpp:408] conv6_2_mbox_conf_flat -> conv6_2_mbox_conf_flat
I0602 10:00:39.699910 20420 net.cpp:150] Setting up conv6_2_mbox_conf_flat
I0602 10:00:39.699919 20420 net.cpp:157] Top shape: 4 2400 (9600)
I0602 10:00:39.699923 20420 net.cpp:165] Memory required for data: 991972832
I0602 10:00:39.699926 20420 layer_factory.hpp:77] Creating layer conv6_2_mbox_priorbox
I0602 10:00:39.699934 20420 net.cpp:100] Creating Layer conv6_2_mbox_priorbox
I0602 10:00:39.699939 20420 net.cpp:434] conv6_2_mbox_priorbox <- conv6_2_conv6_2_relu_0_split_3
I0602 10:00:39.699944 20420 net.cpp:434] conv6_2_mbox_priorbox <- data_data_0_split_3
I0602 10:00:39.699951 20420 net.cpp:408] conv6_2_mbox_priorbox -> conv6_2_mbox_priorbox
I0602 10:00:39.699991 20420 net.cpp:150] Setting up conv6_2_mbox_priorbox
I0602 10:00:39.700000 20420 net.cpp:157] Top shape: 1 2 2400 (4800)
I0602 10:00:39.700004 20420 net.cpp:165] Memory required for data: 991992032
I0602 10:00:39.700007 20420 layer_factory.hpp:77] Creating layer conv7_2_mbox_loc
I0602 10:00:39.700026 20420 net.cpp:100] Creating Layer conv7_2_mbox_loc
I0602 10:00:39.700032 20420 net.cpp:434] conv7_2_mbox_loc <- conv7_2_conv7_2_relu_0_split_1
I0602 10:00:39.700038 20420 net.cpp:408] conv7_2_mbox_loc -> conv7_2_mbox_loc
I0602 10:00:39.701544 20420 net.cpp:150] Setting up conv7_2_mbox_loc
I0602 10:00:39.701552 20420 net.cpp:157] Top shape: 4 24 5 5 (2400)
I0602 10:00:39.701555 20420 net.cpp:165] Memory required for data: 992001632
I0602 10:00:39.701560 20420 layer_factory.hpp:77] Creating layer conv7_2_mbox_loc_perm
I0602 10:00:39.701565 20420 net.cpp:100] Creating Layer conv7_2_mbox_loc_perm
I0602 10:00:39.701568 20420 net.cpp:434] conv7_2_mbox_loc_perm <- conv7_2_mbox_loc
I0602 10:00:39.701573 20420 net.cpp:408] conv7_2_mbox_loc_perm -> conv7_2_mbox_loc_perm
I0602 10:00:39.701689 20420 net.cpp:150] Setting up conv7_2_mbox_loc_perm
I0602 10:00:39.701695 20420 net.cpp:157] Top shape: 4 5 5 24 (2400)
I0602 10:00:39.701697 20420 net.cpp:165] Memory required for data: 992011232
I0602 10:00:39.701709 20420 layer_factory.hpp:77] Creating layer conv7_2_mbox_loc_flat
I0602 10:00:39.701714 20420 net.cpp:100] Creating Layer conv7_2_mbox_loc_flat
I0602 10:00:39.701716 20420 net.cpp:434] conv7_2_mbox_loc_flat <- conv7_2_mbox_loc_perm
I0602 10:00:39.701720 20420 net.cpp:408] conv7_2_mbox_loc_flat -> conv7_2_mbox_loc_flat
I0602 10:00:39.701745 20420 net.cpp:150] Setting up conv7_2_mbox_loc_flat
I0602 10:00:39.701748 20420 net.cpp:157] Top shape: 4 600 (2400)
I0602 10:00:39.701750 20420 net.cpp:165] Memory required for data: 992020832
I0602 10:00:39.701752 20420 layer_factory.hpp:77] Creating layer conv7_2_mbox_conf
I0602 10:00:39.701758 20420 net.cpp:100] Creating Layer conv7_2_mbox_conf
I0602 10:00:39.701762 20420 net.cpp:434] conv7_2_mbox_conf <- conv7_2_conv7_2_relu_0_split_2
I0602 10:00:39.701767 20420 net.cpp:408] conv7_2_mbox_conf -> conv7_2_mbox_conf
I0602 10:00:39.703672 20420 net.cpp:150] Setting up conv7_2_mbox_conf
I0602 10:00:39.703681 20420 net.cpp:157] Top shape: 4 24 5 5 (2400)
I0602 10:00:39.703685 20420 net.cpp:165] Memory required for data: 992030432
I0602 10:00:39.703689 20420 layer_factory.hpp:77] Creating layer conv7_2_mbox_conf_perm
I0602 10:00:39.703694 20420 net.cpp:100] Creating Layer conv7_2_mbox_conf_perm
I0602 10:00:39.703697 20420 net.cpp:434] conv7_2_mbox_conf_perm <- conv7_2_mbox_conf
I0602 10:00:39.703702 20420 net.cpp:408] conv7_2_mbox_conf_perm -> conv7_2_mbox_conf_perm
I0602 10:00:39.703809 20420 net.cpp:150] Setting up conv7_2_mbox_conf_perm
I0602 10:00:39.703815 20420 net.cpp:157] Top shape: 4 5 5 24 (2400)
I0602 10:00:39.703817 20420 net.cpp:165] Memory required for data: 992040032
I0602 10:00:39.703820 20420 layer_factory.hpp:77] Creating layer conv7_2_mbox_conf_flat
I0602 10:00:39.703824 20420 net.cpp:100] Creating Layer conv7_2_mbox_conf_flat
I0602 10:00:39.703827 20420 net.cpp:434] conv7_2_mbox_conf_flat <- conv7_2_mbox_conf_perm
I0602 10:00:39.703830 20420 net.cpp:408] conv7_2_mbox_conf_flat -> conv7_2_mbox_conf_flat
I0602 10:00:39.703852 20420 net.cpp:150] Setting up conv7_2_mbox_conf_flat
I0602 10:00:39.703857 20420 net.cpp:157] Top shape: 4 600 (2400)
I0602 10:00:39.703858 20420 net.cpp:165] Memory required for data: 992049632
I0602 10:00:39.703860 20420 layer_factory.hpp:77] Creating layer conv7_2_mbox_priorbox
I0602 10:00:39.703866 20420 net.cpp:100] Creating Layer conv7_2_mbox_priorbox
I0602 10:00:39.703869 20420 net.cpp:434] conv7_2_mbox_priorbox <- conv7_2_conv7_2_relu_0_split_3
I0602 10:00:39.703872 20420 net.cpp:434] conv7_2_mbox_priorbox <- data_data_0_split_4
I0602 10:00:39.703876 20420 net.cpp:408] conv7_2_mbox_priorbox -> conv7_2_mbox_priorbox
I0602 10:00:39.703900 20420 net.cpp:150] Setting up conv7_2_mbox_priorbox
I0602 10:00:39.703904 20420 net.cpp:157] Top shape: 1 2 600 (1200)
I0602 10:00:39.703907 20420 net.cpp:165] Memory required for data: 992054432
I0602 10:00:39.703908 20420 layer_factory.hpp:77] Creating layer conv8_2_mbox_loc
I0602 10:00:39.703915 20420 net.cpp:100] Creating Layer conv8_2_mbox_loc
I0602 10:00:39.703918 20420 net.cpp:434] conv8_2_mbox_loc <- conv8_2_conv8_2_relu_0_split_1
I0602 10:00:39.703925 20420 net.cpp:408] conv8_2_mbox_loc -> conv8_2_mbox_loc
I0602 10:00:39.705729 20420 net.cpp:150] Setting up conv8_2_mbox_loc
I0602 10:00:39.705739 20420 net.cpp:157] Top shape: 4 16 3 3 (576)
I0602 10:00:39.705740 20420 net.cpp:165] Memory required for data: 992056736
I0602 10:00:39.705754 20420 layer_factory.hpp:77] Creating layer conv8_2_mbox_loc_perm
I0602 10:00:39.705760 20420 net.cpp:100] Creating Layer conv8_2_mbox_loc_perm
I0602 10:00:39.705763 20420 net.cpp:434] conv8_2_mbox_loc_perm <- conv8_2_mbox_loc
I0602 10:00:39.705768 20420 net.cpp:408] conv8_2_mbox_loc_perm -> conv8_2_mbox_loc_perm
I0602 10:00:39.705878 20420 net.cpp:150] Setting up conv8_2_mbox_loc_perm
I0602 10:00:39.705883 20420 net.cpp:157] Top shape: 4 3 3 16 (576)
I0602 10:00:39.705886 20420 net.cpp:165] Memory required for data: 992059040
I0602 10:00:39.705888 20420 layer_factory.hpp:77] Creating layer conv8_2_mbox_loc_flat
I0602 10:00:39.705901 20420 net.cpp:100] Creating Layer conv8_2_mbox_loc_flat
I0602 10:00:39.705904 20420 net.cpp:434] conv8_2_mbox_loc_flat <- conv8_2_mbox_loc_perm
I0602 10:00:39.705909 20420 net.cpp:408] conv8_2_mbox_loc_flat -> conv8_2_mbox_loc_flat
I0602 10:00:39.705931 20420 net.cpp:150] Setting up conv8_2_mbox_loc_flat
I0602 10:00:39.705936 20420 net.cpp:157] Top shape: 4 144 (576)
I0602 10:00:39.705938 20420 net.cpp:165] Memory required for data: 992061344
I0602 10:00:39.705940 20420 layer_factory.hpp:77] Creating layer conv8_2_mbox_conf
I0602 10:00:39.705947 20420 net.cpp:100] Creating Layer conv8_2_mbox_conf
I0602 10:00:39.705950 20420 net.cpp:434] conv8_2_mbox_conf <- conv8_2_conv8_2_relu_0_split_2
I0602 10:00:39.705955 20420 net.cpp:408] conv8_2_mbox_conf -> conv8_2_mbox_conf
I0602 10:00:39.707737 20420 net.cpp:150] Setting up conv8_2_mbox_conf
I0602 10:00:39.707746 20420 net.cpp:157] Top shape: 4 16 3 3 (576)
I0602 10:00:39.707747 20420 net.cpp:165] Memory required for data: 992063648
I0602 10:00:39.707752 20420 layer_factory.hpp:77] Creating layer conv8_2_mbox_conf_perm
I0602 10:00:39.707759 20420 net.cpp:100] Creating Layer conv8_2_mbox_conf_perm
I0602 10:00:39.707763 20420 net.cpp:434] conv8_2_mbox_conf_perm <- conv8_2_mbox_conf
I0602 10:00:39.707767 20420 net.cpp:408] conv8_2_mbox_conf_perm -> conv8_2_mbox_conf_perm
I0602 10:00:39.707870 20420 net.cpp:150] Setting up conv8_2_mbox_conf_perm
I0602 10:00:39.707875 20420 net.cpp:157] Top shape: 4 3 3 16 (576)
I0602 10:00:39.707876 20420 net.cpp:165] Memory required for data: 992065952
I0602 10:00:39.707878 20420 layer_factory.hpp:77] Creating layer conv8_2_mbox_conf_flat
I0602 10:00:39.707882 20420 net.cpp:100] Creating Layer conv8_2_mbox_conf_flat
I0602 10:00:39.707886 20420 net.cpp:434] conv8_2_mbox_conf_flat <- conv8_2_mbox_conf_perm
I0602 10:00:39.707891 20420 net.cpp:408] conv8_2_mbox_conf_flat -> conv8_2_mbox_conf_flat
I0602 10:00:39.707916 20420 net.cpp:150] Setting up conv8_2_mbox_conf_flat
I0602 10:00:39.707921 20420 net.cpp:157] Top shape: 4 144 (576)
I0602 10:00:39.707923 20420 net.cpp:165] Memory required for data: 992068256
I0602 10:00:39.707926 20420 layer_factory.hpp:77] Creating layer conv8_2_mbox_priorbox
I0602 10:00:39.707931 20420 net.cpp:100] Creating Layer conv8_2_mbox_priorbox
I0602 10:00:39.707933 20420 net.cpp:434] conv8_2_mbox_priorbox <- conv8_2_conv8_2_relu_0_split_3
I0602 10:00:39.707937 20420 net.cpp:434] conv8_2_mbox_priorbox <- data_data_0_split_5
I0602 10:00:39.707942 20420 net.cpp:408] conv8_2_mbox_priorbox -> conv8_2_mbox_priorbox
I0602 10:00:39.707964 20420 net.cpp:150] Setting up conv8_2_mbox_priorbox
I0602 10:00:39.707968 20420 net.cpp:157] Top shape: 1 2 144 (288)
I0602 10:00:39.707972 20420 net.cpp:165] Memory required for data: 992069408
I0602 10:00:39.707973 20420 layer_factory.hpp:77] Creating layer conv9_2_mbox_loc
I0602 10:00:39.707980 20420 net.cpp:100] Creating Layer conv9_2_mbox_loc
I0602 10:00:39.707983 20420 net.cpp:434] conv9_2_mbox_loc <- conv9_2_conv9_2_relu_0_split_0
I0602 10:00:39.707988 20420 net.cpp:408] conv9_2_mbox_loc -> conv9_2_mbox_loc
I0602 10:00:39.710289 20420 net.cpp:150] Setting up conv9_2_mbox_loc
I0602 10:00:39.710297 20420 net.cpp:157] Top shape: 4 16 1 1 (64)
I0602 10:00:39.710299 20420 net.cpp:165] Memory required for data: 992069664
I0602 10:00:39.710305 20420 layer_factory.hpp:77] Creating layer conv9_2_mbox_loc_perm
I0602 10:00:39.710310 20420 net.cpp:100] Creating Layer conv9_2_mbox_loc_perm
I0602 10:00:39.710314 20420 net.cpp:434] conv9_2_mbox_loc_perm <- conv9_2_mbox_loc
I0602 10:00:39.710319 20420 net.cpp:408] conv9_2_mbox_loc_perm -> conv9_2_mbox_loc_perm
I0602 10:00:39.710420 20420 net.cpp:150] Setting up conv9_2_mbox_loc_perm
I0602 10:00:39.710425 20420 net.cpp:157] Top shape: 4 1 1 16 (64)
I0602 10:00:39.710427 20420 net.cpp:165] Memory required for data: 992069920
I0602 10:00:39.710429 20420 layer_factory.hpp:77] Creating layer conv9_2_mbox_loc_flat
I0602 10:00:39.710434 20420 net.cpp:100] Creating Layer conv9_2_mbox_loc_flat
I0602 10:00:39.710438 20420 net.cpp:434] conv9_2_mbox_loc_flat <- conv9_2_mbox_loc_perm
I0602 10:00:39.710448 20420 net.cpp:408] conv9_2_mbox_loc_flat -> conv9_2_mbox_loc_flat
I0602 10:00:39.710471 20420 net.cpp:150] Setting up conv9_2_mbox_loc_flat
I0602 10:00:39.710476 20420 net.cpp:157] Top shape: 4 16 (64)
I0602 10:00:39.710479 20420 net.cpp:165] Memory required for data: 992070176
I0602 10:00:39.710480 20420 layer_factory.hpp:77] Creating layer conv9_2_mbox_conf
I0602 10:00:39.710486 20420 net.cpp:100] Creating Layer conv9_2_mbox_conf
I0602 10:00:39.710489 20420 net.cpp:434] conv9_2_mbox_conf <- conv9_2_conv9_2_relu_0_split_1
I0602 10:00:39.710495 20420 net.cpp:408] conv9_2_mbox_conf -> conv9_2_mbox_conf
I0602 10:00:39.712296 20420 net.cpp:150] Setting up conv9_2_mbox_conf
I0602 10:00:39.712306 20420 net.cpp:157] Top shape: 4 16 1 1 (64)
I0602 10:00:39.712308 20420 net.cpp:165] Memory required for data: 992070432
I0602 10:00:39.712313 20420 layer_factory.hpp:77] Creating layer conv9_2_mbox_conf_perm
I0602 10:00:39.712319 20420 net.cpp:100] Creating Layer conv9_2_mbox_conf_perm
I0602 10:00:39.712323 20420 net.cpp:434] conv9_2_mbox_conf_perm <- conv9_2_mbox_conf
I0602 10:00:39.712328 20420 net.cpp:408] conv9_2_mbox_conf_perm -> conv9_2_mbox_conf_perm
I0602 10:00:39.712437 20420 net.cpp:150] Setting up conv9_2_mbox_conf_perm
I0602 10:00:39.712445 20420 net.cpp:157] Top shape: 4 1 1 16 (64)
I0602 10:00:39.712447 20420 net.cpp:165] Memory required for data: 992070688
I0602 10:00:39.712450 20420 layer_factory.hpp:77] Creating layer conv9_2_mbox_conf_flat
I0602 10:00:39.712455 20420 net.cpp:100] Creating Layer conv9_2_mbox_conf_flat
I0602 10:00:39.712456 20420 net.cpp:434] conv9_2_mbox_conf_flat <- conv9_2_mbox_conf_perm
I0602 10:00:39.712461 20420 net.cpp:408] conv9_2_mbox_conf_flat -> conv9_2_mbox_conf_flat
I0602 10:00:39.712482 20420 net.cpp:150] Setting up conv9_2_mbox_conf_flat
I0602 10:00:39.712487 20420 net.cpp:157] Top shape: 4 16 (64)
I0602 10:00:39.712491 20420 net.cpp:165] Memory required for data: 992070944
I0602 10:00:39.712492 20420 layer_factory.hpp:77] Creating layer conv9_2_mbox_priorbox
I0602 10:00:39.712497 20420 net.cpp:100] Creating Layer conv9_2_mbox_priorbox
I0602 10:00:39.712501 20420 net.cpp:434] conv9_2_mbox_priorbox <- conv9_2_conv9_2_relu_0_split_2
I0602 10:00:39.712504 20420 net.cpp:434] conv9_2_mbox_priorbox <- data_data_0_split_6
I0602 10:00:39.712510 20420 net.cpp:408] conv9_2_mbox_priorbox -> conv9_2_mbox_priorbox
I0602 10:00:39.712535 20420 net.cpp:150] Setting up conv9_2_mbox_priorbox
I0602 10:00:39.712540 20420 net.cpp:157] Top shape: 1 2 16 (32)
I0602 10:00:39.712543 20420 net.cpp:165] Memory required for data: 992071072
I0602 10:00:39.712544 20420 layer_factory.hpp:77] Creating layer mbox_loc
I0602 10:00:39.712549 20420 net.cpp:100] Creating Layer mbox_loc
I0602 10:00:39.712553 20420 net.cpp:434] mbox_loc <- conv4_3_norm_mbox_loc_flat
I0602 10:00:39.712556 20420 net.cpp:434] mbox_loc <- fc7_mbox_loc_flat
I0602 10:00:39.712560 20420 net.cpp:434] mbox_loc <- conv6_2_mbox_loc_flat
I0602 10:00:39.712565 20420 net.cpp:434] mbox_loc <- conv7_2_mbox_loc_flat
I0602 10:00:39.712568 20420 net.cpp:434] mbox_loc <- conv8_2_mbox_loc_flat
I0602 10:00:39.712570 20420 net.cpp:434] mbox_loc <- conv9_2_mbox_loc_flat
I0602 10:00:39.712574 20420 net.cpp:408] mbox_loc -> mbox_loc
I0602 10:00:39.712597 20420 net.cpp:150] Setting up mbox_loc
I0602 10:00:39.712602 20420 net.cpp:157] Top shape: 4 34928 (139712)
I0602 10:00:39.712605 20420 net.cpp:165] Memory required for data: 992629920
I0602 10:00:39.712607 20420 layer_factory.hpp:77] Creating layer mbox_conf
I0602 10:00:39.712611 20420 net.cpp:100] Creating Layer mbox_conf
I0602 10:00:39.712613 20420 net.cpp:434] mbox_conf <- conv4_3_norm_mbox_conf_flat
I0602 10:00:39.712617 20420 net.cpp:434] mbox_conf <- fc7_mbox_conf_flat
I0602 10:00:39.712620 20420 net.cpp:434] mbox_conf <- conv6_2_mbox_conf_flat
I0602 10:00:39.712623 20420 net.cpp:434] mbox_conf <- conv7_2_mbox_conf_flat
I0602 10:00:39.712626 20420 net.cpp:434] mbox_conf <- conv8_2_mbox_conf_flat
I0602 10:00:39.712630 20420 net.cpp:434] mbox_conf <- conv9_2_mbox_conf_flat
I0602 10:00:39.712641 20420 net.cpp:408] mbox_conf -> mbox_conf
I0602 10:00:39.712666 20420 net.cpp:150] Setting up mbox_conf
I0602 10:00:39.712669 20420 net.cpp:157] Top shape: 4 34928 (139712)
I0602 10:00:39.712672 20420 net.cpp:165] Memory required for data: 993188768
I0602 10:00:39.712674 20420 layer_factory.hpp:77] Creating layer mbox_priorbox
I0602 10:00:39.712678 20420 net.cpp:100] Creating Layer mbox_priorbox
I0602 10:00:39.712682 20420 net.cpp:434] mbox_priorbox <- conv4_3_norm_mbox_priorbox
I0602 10:00:39.712684 20420 net.cpp:434] mbox_priorbox <- fc7_mbox_priorbox
I0602 10:00:39.712687 20420 net.cpp:434] mbox_priorbox <- conv6_2_mbox_priorbox
I0602 10:00:39.712692 20420 net.cpp:434] mbox_priorbox <- conv7_2_mbox_priorbox
I0602 10:00:39.712693 20420 net.cpp:434] mbox_priorbox <- conv8_2_mbox_priorbox
I0602 10:00:39.712697 20420 net.cpp:434] mbox_priorbox <- conv9_2_mbox_priorbox
I0602 10:00:39.712700 20420 net.cpp:408] mbox_priorbox -> mbox_priorbox
I0602 10:00:39.712723 20420 net.cpp:150] Setting up mbox_priorbox
I0602 10:00:39.712726 20420 net.cpp:157] Top shape: 1 2 34928 (69856)
I0602 10:00:39.712729 20420 net.cpp:165] Memory required for data: 993468192
I0602 10:00:39.712731 20420 layer_factory.hpp:77] Creating layer mbox_conf_reshape
I0602 10:00:39.712736 20420 net.cpp:100] Creating Layer mbox_conf_reshape
I0602 10:00:39.712739 20420 net.cpp:434] mbox_conf_reshape <- mbox_conf
I0602 10:00:39.712744 20420 net.cpp:408] mbox_conf_reshape -> mbox_conf_reshape
I0602 10:00:39.712771 20420 net.cpp:150] Setting up mbox_conf_reshape
I0602 10:00:39.712777 20420 net.cpp:157] Top shape: 4 8732 4 (139712)
I0602 10:00:39.712779 20420 net.cpp:165] Memory required for data: 994027040
I0602 10:00:39.712781 20420 layer_factory.hpp:77] Creating layer mbox_conf_softmax
I0602 10:00:39.712786 20420 net.cpp:100] Creating Layer mbox_conf_softmax
I0602 10:00:39.712790 20420 net.cpp:434] mbox_conf_softmax <- mbox_conf_reshape
I0602 10:00:39.712795 20420 net.cpp:408] mbox_conf_softmax -> mbox_conf_softmax
I0602 10:00:39.713003 20420 net.cpp:150] Setting up mbox_conf_softmax
I0602 10:00:39.713009 20420 net.cpp:157] Top shape: 4 8732 4 (139712)
I0602 10:00:39.713012 20420 net.cpp:165] Memory required for data: 994585888
I0602 10:00:39.713016 20420 layer_factory.hpp:77] Creating layer mbox_conf_flatten
I0602 10:00:39.713019 20420 net.cpp:100] Creating Layer mbox_conf_flatten
I0602 10:00:39.713022 20420 net.cpp:434] mbox_conf_flatten <- mbox_conf_softmax
I0602 10:00:39.713027 20420 net.cpp:408] mbox_conf_flatten -> mbox_conf_flatten
I0602 10:00:39.713048 20420 net.cpp:150] Setting up mbox_conf_flatten
I0602 10:00:39.713053 20420 net.cpp:157] Top shape: 4 34928 (139712)
I0602 10:00:39.713055 20420 net.cpp:165] Memory required for data: 995144736
I0602 10:00:39.713058 20420 layer_factory.hpp:77] Creating layer detection_out
I0602 10:00:39.713068 20420 net.cpp:100] Creating Layer detection_out
I0602 10:00:39.713071 20420 net.cpp:434] detection_out <- mbox_loc
I0602 10:00:39.713074 20420 net.cpp:434] detection_out <- mbox_conf_flatten
I0602 10:00:39.713078 20420 net.cpp:434] detection_out <- mbox_priorbox
I0602 10:00:39.713083 20420 net.cpp:408] detection_out -> detection_out
I0602 10:00:39.714236 20420 net.cpp:150] Setting up detection_out
I0602 10:00:39.714243 20420 net.cpp:157] Top shape: 1 1 1 7 (7)
I0602 10:00:39.714246 20420 net.cpp:165] Memory required for data: 995144764
I0602 10:00:39.714249 20420 layer_factory.hpp:77] Creating layer detection_eval
I0602 10:00:39.714254 20420 net.cpp:100] Creating Layer detection_eval
I0602 10:00:39.714258 20420 net.cpp:434] detection_eval <- detection_out
I0602 10:00:39.714262 20420 net.cpp:434] detection_eval <- label
I0602 10:00:39.714267 20420 net.cpp:408] detection_eval -> detection_eval
I0602 10:00:39.715010 20420 net.cpp:150] Setting up detection_eval
I0602 10:00:39.715018 20420 net.cpp:157] Top shape: 1 1 4 5 (20)
I0602 10:00:39.715023 20420 net.cpp:165] Memory required for data: 995144844
I0602 10:00:39.715026 20420 net.cpp:228] detection_eval does not need backward computation.
I0602 10:00:39.715039 20420 net.cpp:228] detection_out does not need backward computation.
I0602 10:00:39.715044 20420 net.cpp:228] mbox_conf_flatten does not need backward computation.
I0602 10:00:39.715046 20420 net.cpp:228] mbox_conf_softmax does not need backward computation.
…
