…
        min_scale: 0.3
        max_scale: 1
        min_aspect_ratio: 0.5
        max_aspect_ratio: 2
      }
      sample_constraint {
        min_jaccard_overlap: 0.9
      }
      max_sample: 1
      max_trials: 50
    }
    batch_sampler {
      sampler {
        min_scale: 0.3
        max_scale: 1
        min_aspect_ratio: 0.5
        max_aspect_ratio: 2
      }
      sample_constraint {
        max_jaccard_overlap: 1
      }
      max_sample: 1
      max_trials: 50
    }
    label_map_file: "data/tbs_300x300_HSIL_10x/labelmap_voc.prototxt"
  }
}
layer {
  name: "conv1_1"
  type: "Convolution"
  bottom: "data"
  top: "conv1_1"
  param {
    lr_mult: 1
    decay_mult: 1
  }
  param {
    lr_mult: 2
    decay_mult: 0
  }
  convolution_param {
    num_output: 64
    pad: 1
    kernel_size: 3
    weight_filler {
      type: "xavier"
    }
    bias_filler {
      type: "constant"
      value: 0
    }
  }
}
layer {
  name: "relu1_1"
  type: "ReLU"
  bottom: "conv1_1"
  top: "conv1_1"
}
layer {
  name: "conv1_2"
  type: "Convolution"
  bottom: "conv1_1"
  top: "conv1_2"
  param {
    lr_mult: 1
    decay_mult: 1
  }
  param {
    lr_mult: 2
    decay_mult: 0
  }
  convolution_param {
    num_output: 64
    pad: 1
    kernel_size: 3
    weight_filler {
      type: "xavier"
    }
    bias_filler {
      type: "constant"
      value: 0
    }
  }
}
layer {
  name: "relu1_2"
  type: "ReLU"
  bottom: "conv1_2"
  top: "conv1_2"
}
layer {
  name: "pool1"
  type: "Pooling"
  bottom: "conv1_2"
  top: "pool1"
  pooling_param {
    pool: MAX
    kernel_size: 2
    stride: 2
  }
}
layer {
  name: "conv2_1"
  type: "Convolution"
  bottom: "pool1"
  top: "conv2_1"
  param {
    lr_mult: 1
    decay_mult: 1
  }
  param {
    lr_mult: 2
    decay_mult: 0
  }
  convolution_param {
    num_output: 128
    pad: 1
    kernel_size: 3
    weight_filler {
      type: "xavier"
    }
    bias_filler {
      type: "constant"
      value: 0
    }
  }
}
layer {
  name: "relu2_1"
  type: "ReLU"
  bottom: "conv2_1"
  top: "conv2_1"
}
layer {
  name: "conv2_2"
  type: "Convolution"
  bottom: "conv2_1"
  top: "conv2_2"
  param {
    lr_mult: 1
    decay_mult: 1
  }
  param {
    lr_mult: 2
    decay_mult: 0
  }
  convolution_param {
    num_output: 128
    pad: 1
    kernel_size: 3
    weight_filler {
      type: "xavier"
    }
    bias_filler {
      type: "constant"
      value: 0
    }
  }
}
layer {
  name: "relu2_2"
  type: "ReLU"
  bottom: "conv2_2"
  top: "conv2_2"
}
layer {
  name: "pool2"
  type: "Pooling"
  bottom: "conv2_2"
  top: "pool2"
  pooling_param {
    pool: MAX
    kernel_size: 2
    stride: 2
  }
}
layer {
  name: "conv3_1"
  type: "Convolution"
  bottom: "pool2"
  top: "conv3_1"
  param {
    lr_mult: 1
    decay_mult: 1
  }
  param {
    lr_mult: 2
    decay_mult: 0
  }
  convolution_param {
    num_output: 256
    pad: 1
    kernel_size: 3
    weight_filler {
      type: "xavier"
    }
    bias_filler {
      type: "constant"
      value: 0
    }
  }
}
layer {
  name: "relu3_1"
  type: "ReLU"
  bottom: "conv3_1"
  top: "conv3_1"
}
layer {
  name: "conv3_2"
  type: "Convolution"
  bottom: "conv3_1"
  top: "conv3_2"
  param {
    lr_mult: 1
    decay_mult: 1
  }
  param {
    lr_mult: 2
    decay_mult: 0
  }
  convolution_param {
    num_output: 256
    pad: 1
    kernel_size: 3
    weight_filler {
      type: "xavier"
    }
    bias_filler {
      type: "constant"
      value: 0
    }
  }
}
layer {
  name: "relu3_2"
  type: "ReLU"
  bottom: "conv3_2"
  top: "conv3_2"
}
layer {
  name: "conv3_3"
  type: "Convolution"
  bottom: "conv3_2"
  top: "conv3_3"
  param {
    lr_mult: 1
    decay_mult: 1
  }
  param {
    lr_mult: 2
    decay_mult: 0
  }
  convolution_param {
    num_output: 256
    pad: 1
    kernel_size: 3
    weight_filler {
      type: "xavier"
    }
    bias_filler {
      type: "constant"
      value: 0
    }
  }
}
layer {
  name: "relu3_3"
  type: "ReLU"
  bottom: "conv3_3"
  top: "conv3_3"
}
layer {
  name: "pool3"
  type: "Pooling"
  bottom: "conv3_3"
  top: "pool3"
  pooling_param {
    pool: MAX
    kernel_size: 2
    stride: 2
  }
}
layer {
  name: "conv4_1"
  type: "Convolution"
  bottom: "pool3"
  top: "conv4_1"
  param {
    lr_mult: 1
    decay_mult: 1
  }
  param {
    lr_mult: 2
    decay_mult: 0
  }
  convolution_param {
    num_output: 512
    pad: 1
    kernel_size: 3
    weight_filler {
      type: "xavier"
    }
    bias_filler {
      type: "constant"
      value: 0
    }
  }
}
layer {
  name: "relu4_1"
  type: "ReLU"
  bottom: "conv4_1"
  top: "conv4_1"
}
layer {
  name: "conv4_2"
  type: "Convolution"
  bottom: "conv4_1"
  top: "conv4_2"
  param {
    lr_mult: 1
    decay_mult: 1
  }
  param {
    lr_mult: 2
    decay_mult: 0
  }
  convolution_param {
    num_output: 512
    pad: 1
    kernel_size: 3
    weight_filler {
      type: "xavier"
    }
    bias_filler {
      type: "constant"
      value: 0
    }
  }
}
layer {
  name: "relu4_2"
  type: "ReLU"
  bottom: "conv4_2"
  top: "conv4_2"
}
layer {
  name: "conv4_3"
  type: "Convolution"
  bottom: "conv4_2"
  top: "conv4_3"
  param {
    lr_mult: 1
    decay_mult: 1
  }
  param {
    lr_mult: 2
    decay_mult: 0
  }
  convolution_param {
    num_output: 512
    pad: 1
    kernel_size: 3
    weight_filler {
      type: "xavier"
    }
    bias_filler {
      type: "constant"
      value: 0
    }
  }
}
layer {
  name: "relu4_3"
  type: "ReLU"
  bottom: "conv4_3"
  top: "conv4_3"
}
layer {
  name: "pool4"
  type: "Pooling"
  bottom: "conv4_3"
  top: "pool4"
  pooling_param {
    pool: MAX
    kernel_size: 2
    stride: 2
  }
}
layer {
  name: "conv5_1"
  type: "Convolution"
  bottom: "pool4"
  top: "conv5_1"
  param {
    lr_mult: 1
    decay_mult: 1
  }
  param {
    lr_mult: 2
    decay_mult: 0
  }
  convolution_param {
    num_output: 512
    pad: 1
    kernel_size: 3
    weight_filler {
      type: "xavier"
    }
    bias_filler {
      type: "constant"
      value: 0
    }
    dilation: 1
  }
}
layer {
  name: "relu5_1"
  type: "ReLU"
  bottom: "conv5_1"
  top: "conv5_1"
}
layer {
  name: "conv5_2"
  type: "Convolution"
  bottom: "conv5_1"
  top: "conv5_2"
  param {
    lr_mult: 1
    decay_mult: 1
  }
  param {
    lr_mult: 2
    decay_mult: 0
  }
  convolution_param {
    num_output: 512
    pad: 1
    kernel_size: 3
    weight_filler {
      type: "xavier"
    }
    bias_filler {
      type: "constant"
      value: 0
    }
    dilation: 1
  }
}
layer {
  name: "relu5_2"
  type: "ReLU"
  bottom: "conv5_2"
  top: "conv5_2"
}
layer {
  name: "conv5_3"
  type: "Convolution"
  bottom: "conv5_2"
  top: "conv5_3"
  param {
    lr_mult: 1
    decay_mult: 1
  }
  param {
    lr_mult: 2
    decay_mult: 0
  }
  convolution_param {
    num_output: 512
    pad: 1
    kernel_size: 3
    weight_filler {
      type: "xavier"
    }
    bias_filler {
      type: "constant"
      value: 0
    }
    dilation: 1
  }
}
layer {
  name: "relu5_3"
  type: "ReLU"
  bottom: "conv5_3"
  top: "conv5_3"
}
layer {
  name: "pool5"
  type: "Pooling"
  bottom: "conv5_3"
  top: "pool5"
  pooling_param {
    pool: MAX
    kernel_size: 3
    stride: 1
    pad: 1
  }
}
layer {
  name: "fc6"
  type: "Convolution"
  bottom: "pool5"
  top: "fc6"
  param {
    lr_mult: 1
    decay_mult: 1
  }
  param {
    lr_mult: 2
    decay_mult: 0
  }
  convolution_param {
    num_output: 1024
    pad: 6
    kernel_size: 3
    weight_filler {
      type: "xavier"
    }
    bias_filler {
      type: "constant"
      value: 0
    }
    dilation: 6
  }
}
layer {
  name: "relu6"
  type: "ReLU"
  bottom: "fc6"
  top: "fc6"
}
layer {
  name: "fc7"
  type: "Convolution"
  bottom: "fc6"
  top: "fc7"
  param {
    lr_mult: 1
    decay_mult: 1
  }
  param {
    lr_mult: 2
    decay_mult: 0
  }
  convolution_param {
    num_output: 1024
    kernel_size: 1
    weight_filler {
      type: "xavier"
    }
    bias_filler {
      type: "constant"
      value: 0
    }
  }
}
layer {
  name: "relu7"
  type: "ReLU"
  bottom: "fc7"
  top: "fc7"
}
layer {
  name: "conv6_1"
  type: "Convolution"
  bottom: "fc7"
  top: "conv6_1"
  param {
    lr_mult: 1
    decay_mult: 1
  }
  param {
    lr_mult: 2
    decay_mult: 0
  }
  convolution_param {
    num_output: 256
    pad: 0
    kernel_size: 1
    stride: 1
    weight_filler {
      type: "xavier"
    }
    bias_filler {
      type: "constant"
      value: 0
    }
  }
}
layer {
  name: "conv6_1_relu"
  type: "ReLU"
  bottom: "conv6_1"
  top: "conv6_1"
}
layer {
  name: "conv6_2"
  type: "Convolution"
  bottom: "conv6_1"
  top: "conv6_2"
  param {
    lr_mult: 1
    decay_mult: 1
  }
  param {
    lr_mult: 2
    decay_mult: 0
  }
  convolution_param {
    num_output: 512
    pad: 1
    kernel_size: 3
    stride: 2
    weight_filler {
      type: "xavier"
    }
    bias_filler {
      type: "constant"
      value: 0
    }
  }
}
layer {
  name: "conv6_2_relu"
  type: "ReLU"
  bottom: "conv6_2"
  top: "conv6_2"
}
layer {
  name: "conv7_1"
  type: "Convolution"
  bottom: "conv6_2"
  top: "conv7_1"
  param {
    lr_mult: 1
    decay_mult: 1
  }
  param {
    lr_mult: 2
    decay_mult: 0
  }
  convolution_param {
    num_output: 128
    pad: 0
    kernel_size: 1
    stride: 1
    weight_filler {
      type: "xavier"
    }
    bias_filler {
      type: "constant"
      value: 0
    }
  }
}
layer {
  name: "conv7_1_relu"
  type: "ReLU"
  bottom: "conv7_1"
  top: "conv7_1"
}
layer {
  name: "conv7_2"
  type: "Convolution"
  bottom: "conv7_1"
  top: "conv7_2"
  param {
    lr_mult: 1
    decay_mult: 1
  }
  param {
    lr_mult: 2
    decay_mult: 0
  }
  convolution_param {
    num_output: 256
    pad: 1
    kernel_size: 3
    stride: 2
    weight_filler {
      type: "xavier"
    }
    bias_filler {
      type: "constant"
      value: 0
    }
  }
}
layer {
  name: "conv7_2_relu"
  type: "ReLU"
  bottom: "conv7_2"
  top: "conv7_2"
}
layer {
  name: "conv8_1"
  type: "Convolution"
  bottom: "conv7_2"
  top: "conv8_1"
  param {
    lr_mult: 1
    decay_mult: 1
  }
  param {
    lr_mult: 2
    decay_mult: 0
  }
  convolution_param {
    num_output: 128
    pad: 0
    kernel_size: 1
    stride: 1
    weight_filler {
      type: "xavier"
    }
    bias_filler {
      type: "constant"
      value: 0
    }
  }
}
layer {
  name: "conv8_1_relu"
  type: "ReLU"
  bottom: "conv8_1"
  top: "conv8_1"
}
layer {
  name: "conv8_2"
  type: "Convolution"
  bottom: "conv8_1"
  top: "conv8_2"
  param {
    lr_mult: 1
    decay_mult: 1
  }
  param {
    lr_mult: 2
    decay_mult: 0
  }
  convolution_param {
    num_output: 256
    pad: 0
    kernel_size: 3
    stride: 1
    weight_filler {
      type: "xavier"
    }
    bias_filler {
      type: "constant"
      value: 0
    }
  }
}
layer {
  name: "conv8_2_relu"
  type: "ReLU"
  bottom: "conv8_2"
  top: "conv8_2"
}
layer {
  name: "conv9_1"
  type: "Convolution"
  bottom: "conv8_2"
  top: "conv9_1"
  param {
    lr_mult: 1
    decay_mult: 1
  }
  param {
    lr_mult: 2
    decay_mult: 0
  }
  convolution_param {
    num_output: 128
    pad: 0
    kernel_size: 1
    stride: 1
    weight_filler {
      type: "xavier"
    }
    bias_filler {
      type: "constant"
      value: 0
    }
  }
}
layer {
  name: "conv9_1_relu"
  type: "ReLU"
  bottom: "conv9_1"
  top: "conv9_1"
}
layer {
  name: "conv9_2"
  type: "Convolution"
  bottom: "conv9_1"
  top: "conv9_2"
  param {
    lr_mult: 1
    decay_mult: 1
  }
  param {
    lr_mult: 2
    decay_mult: 0
  }
  convolution_param {
    num_output: 256
    pad: 0
    kernel_size: 3
    stride: 1
    weight_filler {
      type: "xavier"
    }
    bias_filler {
      type: "constant"
      value: 0
    }
  }
}
layer {
  name: "conv9_2_relu"
  type: "ReLU"
  bottom: "conv9_2"
  top: "conv9_2"
}
layer {
  name: "conv4_3_norm"
  type: "Normalize"
  bottom: "conv4_3"
  top: "conv4_3_norm"
  norm_param {
    across_spatial: false
    scale_filler {
      type: "constant"
      value: 20
    }
    channel_shared: false
  }
}
layer {
  name: "conv4_3_norm_mbox_loc"
  type: "Convolution"
  bottom: "conv4_3_norm"
  top: "conv4_3_norm_mbox_loc"
  param {
    lr_mult: 1
    decay_mult: 1
  }
  param {
    lr_mult: 2
    decay_mult: 0
  }
  convolution_param {
    num_output: 16
    pad: 1
    kernel_size: 3
    stride: 1
    weight_filler {
      type: "xavier"
    }
    bias_filler {
      type: "constant"
      value: 0
    }
  }
}
layer {
  name: "conv4_3_norm_mbox_loc_perm"
  type: "Permute"
  bottom: "conv4_3_norm_mbox_loc"
  top: "conv4_3_norm_mbox_loc_perm"
  permute_param {
    order: 0
    order: 2
    order: 3
    order: 1
  }
}
layer {
  name: "conv4_3_norm_mbox_loc_flat"
  type: "Flatten"
  bottom: "conv4_3_norm_mbox_loc_perm"
  top: "conv4_3_norm_mbox_loc_flat"
  flatten_param {
    axis: 1
  }
}
layer {
  name: "conv4_3_norm_mbox_conf"
  type: "Convolution"
  bottom: "conv4_3_norm"
  top: "conv4_3_norm_mbox_conf"
  param {
    lr_mult: 1
    decay_mult: 1
  }
  param {
    lr_mult: 2
    decay_mult: 0
  }
  convolution_param {
    num_output: 16
    pad: 1
    kernel_size: 3
    stride: 1
    weight_filler {
      type: "xavier"
    }
    bias_filler {
      type: "constant"
      value: 0
    }
  }
}
layer {
  name: "conv4_3_norm_mbox_conf_perm"
  type: "Permute"
  bottom: "conv4_3_norm_mbox_conf"
  top: "conv4_3_norm_mbox_conf_perm"
  permute_param {
    order: 0
    order: 2
    order: 3
    order: 1
  }
}
layer {
  name: "conv4_3_norm_mbox_conf_flat"
  type: "Flatten"
  bottom: "conv4_3_norm_mbox_conf_perm"
  top: "conv4_3_norm_mbox_conf_flat"
  flatten_param {
    axis: 1
  }
}
layer {
  name: "conv4_3_norm_mbox_priorbox"
  type: "PriorBox"
  bottom: "conv4_3_norm"
  bottom: "data"
  top: "conv4_3_norm_mbox_priorbox"
  prior_box_param {
    min_size: 30
    max_size: 60
    aspect_ratio: 2
    flip: true
    clip: false
    variance: 0.1
    variance: 0.1
    variance: 0.2
    variance: 0.2
    step: 8
    offset: 0.5
  }
}
layer {
  name: "fc7_mbox_loc"
  type: "Convolution"
  bottom: "fc7"
  top: "fc7_mbox_loc"
  param {
    lr_mult: 1
    decay_mult: 1
  }
  param {
    lr_mult: 2
    decay_mult: 0
  }
  convolution_param {
    num_output: 24
    pad: 1
    kernel_size: 3
    stride: 1
    weight_filler {
      type: "xavier"
    }
    bias_filler {
      type: "constant"
      value: 0
    }
  }
}
layer {
  name: "fc7_mbox_loc_perm"
  type: "Permute"
  bottom: "fc7_mbox_loc"
  top: "fc7_mbox_loc_perm"
  permute_param {
    order: 0
    order: 2
    order: 3
    order: 1
  }
}
layer {
  name: "fc7_mbox_loc_flat"
  type: "Flatten"
  bottom: "fc7_mbox_loc_perm"
  top: "fc7_mbox_loc_flat"
  flatten_param {
    axis: 1
  }
}
layer {
  name: "fc7_mbox_conf"
  type: "Convolution"
  bottom: "fc7"
  top: "fc7_mbox_conf"
  param {
    lr_mult: 1
    decay_mult: 1
  }
  param {
    lr_mult: 2
    decay_mult: 0
  }
  convolution_param {
    num_output: 24
    pad: 1
    kernel_size: 3
    stride: 1
    weight_filler {
      type: "xavier"
    }
    bias_filler {
      type: "constant"
      value: 0
    }
  }
}
layer {
  name: "fc7_mbox_conf_perm"
  type: "Permute"
  bottom: "fc7_mbox_conf"
  top: "fc7_mbox_conf_perm"
  permute_param {
    order: 0
    order: 2
    order: 3
    order: 1
  }
}
layer {
  name: "fc7_mbox_conf_flat"
  type: "Flatten"
  bottom: "fc7_mbox_conf_perm"
  top: "fc7_mbox_conf_flat"
  flatten_param {
    axis: 1
  }
}
layer {
  name: "fc7_mbox_priorbox"
  type: "PriorBox"
  bottom: "fc7"
  bottom: "data"
  top: "fc7_mbox_priorbox"
  prior_box_param {
    min_size: 60
    max_size: 111
    aspect_ratio: 2
    aspect_ratio: 3
    flip: true
    clip: false
    variance: 0.1
    variance: 0.1
    variance: 0.2
    variance: 0.2
    step: 16
    offset: 0.5
  }
}
layer {
  name: "conv6_2_mbox_loc"
  type: "Convolution"
  bottom: "conv6_2"
  top: "conv6_2_mbox_loc"
  param {
    lr_mult: 1
    decay_mult: 1
  }
  param {
    lr_mult: 2
    decay_mult: 0
  }
  convolution_param {
    num_output: 24
    pad: 1
    kernel_size: 3
    stride: 1
    weight_filler {
      type: "xavier"
    }
    bias_filler {
      type: "constant"
      value: 0
    }
  }
}
layer {
  name: "conv6_2_mbox_loc_perm"
  type: "Permute"
  bottom: "conv6_2_mbox_loc"
  top: "conv6_2_mbox_loc_perm"
  permute_param {
    order: 0
    order: 2
    order: 3
    order: 1
  }
}
layer {
  name: "conv6_2_mbox_loc_flat"
  type: "Flatten"
  bottom: "conv6_2_mbox_loc_perm"
  top: "conv6_2_mbox_loc_flat"
  flatten_param {
    axis: 1
  }
}
layer {
  name: "conv6_2_mbox_conf"
  type: "Convolution"
  bottom: "conv6_2"
  top: "conv6_2_mbox_conf"
  param {
    lr_mult: 1
    decay_mult: 1
  }
  param {
    lr_mult: 2
    decay_mult: 0
  }
  convolution_param {
    num_output: 24
    pad: 1
    kernel_size: 3
    stride: 1
    weight_filler {
      type: "xavier"
    }
    bias_filler {
      type: "constant"
      value: 0
    }
  }
}
layer {
  name: "conv6_2_mbox_conf_perm"
  type: "Permute"
  bottom: "conv6_2_mbox_conf"
  top: "conv6_2_mbox_conf_perm"
  permute_param {
    order: 0
    order: 2
    order: 3
    order: 1
  }
}
layer {
  name: "conv6_2_mbox_conf_flat"
  type: "Flatten"
  bottom: "conv6_2_mbox_conf_perm"
  top: "conv6_2_mbox_conf_flat"
  flatten_param {
    axis: 1
  }
}
layer {
  name: "conv6_2_mbox_priorbox"
  type: "PriorBox"
  bottom: "conv6_2"
  bottom: "data"
  top: "conv6_2_mbox_priorbox"
  prior_box_param {
    min_size: 111
    max_size: 162
    aspect_ratio: 2
    aspect_ratio: 3
    flip: true
    clip: false
    variance: 0.1
    variance: 0.1
    variance: 0.2
    variance: 0.2
    step: 32
    offset: 0.5
  }
}
layer {
  name: "conv7_2_mbox_loc"
  type: "Convolution"
  bottom: "conv7_2"
  top: "conv7_2_mbox_loc"
  param {
    lr_mult: 1
    decay_mult: 1
  }
  param {
    lr_mult: 2
    decay_mult: 0
  }
  convolution_param {
    num_output: 24
    pad: 1
    kernel_size: 3
    stride: 1
    weight_filler {
      type: "xavier"
    }
    bias_filler {
      type: "constant"
      value: 0
    }
  }
}
layer {
  name: "conv7_2_mbox_loc_perm"
  type: "Permute"
  bottom: "conv7_2_mbox_loc"
  top: "conv7_2_mbox_loc_perm"
  permute_param {
    order: 0
    order: 2
    order: 3
    order: 1
  }
}
layer {
  name: "conv7_2_mbox_loc_flat"
  type: "Flatten"
  bottom: "conv7_2_mbox_loc_perm"
  top: "conv7_2_mbox_loc_flat"
  flatten_param {
    axis: 1
  }
}
layer {
  name: "conv7_2_mbox_conf"
  type: "Convolution"
  bottom: "conv7_2"
  top: "conv7_2_mbox_conf"
  param {
    lr_mult: 1
    decay_mult: 1
  }
  param {
    lr_mult: 2
    decay_mult: 0
  }
  convolution_param {
    num_output: 24
    pad: 1
    kernel_size: 3
    stride: 1
    weight_filler {
      type: "xavier"
    }
    bias_filler {
      type: "constant"
      value: 0
    }
  }
}
layer {
  name: "conv7_2_mbox_conf_perm"
  type: "Permute"
  bottom: "conv7_2_mbox_conf"
  top: "conv7_2_mbox_conf_perm"
  permute_param {
    order: 0
    order: 2
    order: 3
    order: 1
  }
}
layer {
  name: "conv7_2_mbox_conf_flat"
  type: "Flatten"
  bottom: "conv7_2_mbox_conf_perm"
  top: "conv7_2_mbox_conf_flat"
  flatten_param {
    axis: 1
  }
}
layer {
  name: "conv7_2_mbox_priorbox"
  type: "PriorBox"
  bottom: "conv7_2"
  bottom: "data"
  top: "conv7_2_mbox_priorbox"
  prior_box_param {
    min_size: 162
    max_size: 213
    aspect_ratio: 2
    aspect_ratio: 3
    flip: true
    clip: false
    variance: 0.1
    variance: 0.1
    variance: 0.2
    variance: 0.2
    step: 64
    offset: 0.5
  }
}
layer {
  name: "conv8_2_mbox_loc"
  type: "Convolution"
  bottom: "conv8_2"
  top: "conv8_2_mbox_loc"
  param {
    lr_mult: 1
    decay_mult: 1
  }
  param {
    lr_mult: 2
    decay_mult: 0
  }
  convolution_param {
    num_output: 16
    pad: 1
    kernel_size: 3
    stride: 1
    weight_filler {
      type: "xavier"
    }
    bias_filler {
      type: "constant"
      value: 0
    }
  }
}
layer {
  name: "conv8_2_mbox_loc_perm"
  type: "Permute"
  bottom: "conv8_2_mbox_loc"
  top: "conv8_2_mbox_loc_perm"
  permute_param {
    order: 0
    order: 2
    order: 3
    order: 1
  }
}
layer {
  name: "conv8_2_mbox_loc_flat"
  type: "Flatten"
  bottom: "conv8_2_mbox_loc_perm"
  top: "conv8_2_mbox_loc_flat"
  flatten_param {
    axis: 1
  }
}
layer {
  name: "conv8_2_mbox_conf"
  type: "Convolution"
  bottom: "conv8_2"
  top: "conv8_2_mbox_conf"
  param {
    lr_mult: 1
    decay_mult: 1
  }
  param {
    lr_mult: 2
    decay_mult: 0
  }
  convolution_param {
    num_output: 16
    pad: 1
    kernel_size: 3
    stride: 1
    weight_filler {
      type: "xavier"
    }
    bias_filler {
      type: "constant"
      value: 0
    }
  }
}
layer {
  name: "conv8_2_mbox_conf_perm"
  type: "Permute"
  bottom: "conv8_2_mbox_conf"
  top: "conv8_2_mbox_conf_perm"
  permute_param {
    order: 0
    order: 2
    order: 3
    order: 1
  }
}
layer {
  name: "conv8_2_mbox_conf_flat"
  type: "Flatten"
  bottom: "conv8_2_mbox_conf_perm"
  top: "conv8_2_mbox_conf_flat"
  flatten_param {
    axis: 1
  }
}
layer {
  name: "conv8_2_mbox_priorbox"
  type: "PriorBox"
  bottom: "conv8_2"
  bottom: "data"
  top: "conv8_2_mbox_priorbox"
  prior_box_param {
    min_size: 213
    max_size: 264
    aspect_ratio: 2
    flip: true
    clip: false
    variance: 0.1
    variance: 0.1
    variance: 0.2
    variance: 0.2
    step: 100
    offset: 0.5
  }
}
layer {
  name: "conv9_2_mbox_loc"
  type: "Convolution"
  bottom: "conv9_2"
  top: "conv9_2_mbox_loc"
  param {
    lr_mult: 1
    decay_mult: 1
  }
  param {
    lr_mult: 2
    decay_mult: 0
  }
  convolution_param {
    num_output: 16
    pad: 1
    kernel_size: 3
    stride: 1
    weight_filler {
      type: "xavier"
    }
    bias_filler {
      type: "constant"
      value: 0
    }
  }
}
layer {
  name: "conv9_2_mbox_loc_perm"
  type: "Permute"
  bottom: "conv9_2_mbox_loc"
  top: "conv9_2_mbox_loc_perm"
  permute_param {
    order: 0
    order: 2
    order: 3
    order: 1
  }
}
layer {
  name: "conv9_2_mbox_loc_flat"
  type: "Flatten"
  bottom: "conv9_2_mbox_loc_perm"
  top: "conv9_2_mbox_loc_flat"
  flatten_param {
    axis: 1
  }
}
layer {
  name: "conv9_2_mbox_conf"
  type: "Convolution"
  bottom: "conv9_2"
  top: "conv9_2_mbox_conf"
  param {
    lr_mult: 1
    decay_mult: 1
  }
  param {
    lr_mult: 2
    decay_mult: 0
  }
  convolution_param {
    num_output: 16
    pad: 1
    kernel_size: 3
    stride: 1
    weight_filler {
      type: "xavier"
    }
    bias_filler {
      type: "constant"
      value: 0
    }
  }
}
layer {
  name: "conv9_2_mbox_conf_perm"
  type: "Permute"
  bottom: "conv9_2_mbox_conf"
  top: "conv9_2_mbox_conf_perm"
  permute_param {
    order: 0
    order: 2
    order: 3
    order: 1
  }
}
layer {
  name: "conv9_2_mbox_conf_flat"
  type: "Flatten"
  bottom: "conv9_2_mbox_conf_perm"
  top: "conv9_2_mbox_conf_flat"
  flatten_param {
    axis: 1
  }
}
layer {
  name: "conv9_2_mbox_priorbox"
  type: "PriorBox"
  bottom: "conv9_2"
  bottom: "data"
  top: "conv9_2_mbox_priorbox"
  prior_box_param {
    min_size: 264
    max_size: 315
    aspect_ratio: 2
    flip: true
    clip: false
    variance: 0.1
    variance: 0.1
    variance: 0.2
    variance: 0.2
    step: 300
    offset: 0.5
  }
}
layer {
  name: "mbox_loc"
  type: "Concat"
  bottom: "conv4_3_norm_mbox_loc_flat"
  bottom: "fc7_mbox_loc_flat"
  bottom: "conv6_2_mbox_loc_flat"
  bottom: "conv7_2_mbox_loc_flat"
  bottom: "conv8_2_mbox_loc_flat"
  bottom: "conv9_2_mbox_loc_flat"
  top: "mbox_loc"
  concat_param {
    axis: 1
  }
}
layer {
  name: "mbox_conf"
  type: "Concat"
  bottom: "conv4_3_norm_mbox_conf_flat"
  bottom: "fc7_mbox_conf_flat"
  bottom: "conv6_2_mbox_conf_flat"
  bottom: "conv7_2_mbox_conf_flat"
  bottom: "conv8_2_mbox_conf_flat"
  bottom: "conv9_2_mbox_conf_flat"
  top: "mbox_conf"
  concat_param {
    axis: 1
  }
}
layer {
  name: "mbox_priorbox"
  type: "Concat"
  bottom: "conv4_3_norm_mbox_priorbox"
  bottom: "fc7_mbox_priorbox"
  bottom: "conv6_2_mbox_priorbox"
  bottom: "conv7_2_mbox_priorbox"
  bottom: "conv8_2_mbox_priorbox"
  bottom: "conv9_2_mbox_priorbox"
  top: "mbox_priorbox"
  concat_param {
    axis: 2
  }
}
layer {
  name: "mbox_loss"
  type: "MultiBoxLoss"
  bottom: "mbox_loc"
  bottom: "mbox_conf"
  bottom: "mbox_priorbox"
  bottom: "label"
  top: "mbox_loss"
  include {
    phase: TRAIN
  }
  propagate_down: true
  propagate_down: true
  propagate_down: false
  propagate_down: false
  loss_param {
    normalization: VALID
  }
  multibox_loss_param {
    loc_loss_type: SMOOTH_L1
    conf_loss_type: SOFTMAX
    loc_weight: 1
    num_classes: 4
    share_location: true
    match_type: PER_PREDICTION
    overlap_threshold: 0.5
    use_prior_for_matching: true
    background_label_id: 0
    use_difficult_gt: true
    neg_pos_ratio: 3
    neg_overlap: 0.5
    code_type: CENTER_SIZE
    ignore_cross_boundary_bbox: false
    mining_type: MAX_NEGATIVE
  }
}
I0602 16:55:09.427528  9788 layer_factory.hpp:77] Creating layer data
I0602 16:55:09.427690  9788 net.cpp:100] Creating Layer data
I0602 16:55:09.427703  9788 net.cpp:408] data -> data
I0602 16:55:09.427736  9788 net.cpp:408] data -> label
I0602 16:55:09.428170  9802 db_lmdb.cpp:35] Opened lmdb examples/tbs_300x300_HSIL_10x/tbs_300x300_HSIL_10x_trainval_lmdb
I0602 16:55:09.436898  9788 annotated_data_layer.cpp:62] output data size: 32,3,300,300
I0602 16:55:09.496407  9788 net.cpp:150] Setting up data
I0602 16:55:09.496428  9788 net.cpp:157] Top shape: 32 3 300 300 (8640000)
I0602 16:55:09.496433  9788 net.cpp:157] Top shape: 1 1 1 8 (8)
I0602 16:55:09.496464  9788 net.cpp:165] Memory required for data: 34560032
I0602 16:55:09.496487  9788 layer_factory.hpp:77] Creating layer data_data_0_split
I0602 16:55:09.496520  9788 net.cpp:100] Creating Layer data_data_0_split
I0602 16:55:09.496527  9788 net.cpp:434] data_data_0_split <- data
I0602 16:55:09.496541  9788 net.cpp:408] data_data_0_split -> data_data_0_split_0
I0602 16:55:09.496553  9788 net.cpp:408] data_data_0_split -> data_data_0_split_1
I0602 16:55:09.496562  9788 net.cpp:408] data_data_0_split -> data_data_0_split_2
I0602 16:55:09.496570  9788 net.cpp:408] data_data_0_split -> data_data_0_split_3
I0602 16:55:09.496578  9788 net.cpp:408] data_data_0_split -> data_data_0_split_4
I0602 16:55:09.496587  9788 net.cpp:408] data_data_0_split -> data_data_0_split_5
I0602 16:55:09.496594  9788 net.cpp:408] data_data_0_split -> data_data_0_split_6
I0602 16:55:09.496668  9788 net.cpp:150] Setting up data_data_0_split
I0602 16:55:09.496676  9788 net.cpp:157] Top shape: 32 3 300 300 (8640000)
I0602 16:55:09.496682  9788 net.cpp:157] Top shape: 32 3 300 300 (8640000)
I0602 16:55:09.496688  9788 net.cpp:157] Top shape: 32 3 300 300 (8640000)
I0602 16:55:09.496695  9788 net.cpp:157] Top shape: 32 3 300 300 (8640000)
I0602 16:55:09.496701  9788 net.cpp:157] Top shape: 32 3 300 300 (8640000)
I0602 16:55:09.496706  9788 net.cpp:157] Top shape: 32 3 300 300 (8640000)
I0602 16:55:09.496711  9788 net.cpp:157] Top shape: 32 3 300 300 (8640000)
I0602 16:55:09.496716  9788 net.cpp:165] Memory required for data: 276480032
I0602 16:55:09.496719  9788 layer_factory.hpp:77] Creating layer conv1_1
I0602 16:55:09.496736  9788 net.cpp:100] Creating Layer conv1_1
I0602 16:55:09.496739  9788 net.cpp:434] conv1_1 <- data_data_0_split_0
I0602 16:55:09.496747  9788 net.cpp:408] conv1_1 -> conv1_1
I0602 16:55:09.666923  9788 net.cpp:150] Setting up conv1_1
I0602 16:55:09.666944  9788 net.cpp:157] Top shape: 32 64 300 300 (184320000)
I0602 16:55:09.666947  9788 net.cpp:165] Memory required for data: 1013760032
I0602 16:55:09.666980  9788 layer_factory.hpp:77] Creating layer relu1_1
I0602 16:55:09.667006  9788 net.cpp:100] Creating Layer relu1_1
I0602 16:55:09.667044  9788 net.cpp:434] relu1_1 <- conv1_1
I0602 16:55:09.667054  9788 net.cpp:395] relu1_1 -> conv1_1 (in-place)
I0602 16:55:09.667202  9788 net.cpp:150] Setting up relu1_1
I0602 16:55:09.667212  9788 net.cpp:157] Top shape: 32 64 300 300 (184320000)
I0602 16:55:09.667214  9788 net.cpp:165] Memory required for data: 1751040032
I0602 16:55:09.667234  9788 layer_factory.hpp:77] Creating layer conv1_2
I0602 16:55:09.667248  9788 net.cpp:100] Creating Layer conv1_2
I0602 16:55:09.667253  9788 net.cpp:434] conv1_2 <- conv1_1
I0602 16:55:09.667259  9788 net.cpp:408] conv1_2 -> conv1_2
I0602 16:55:09.669368  9788 net.cpp:150] Setting up conv1_2
I0602 16:55:09.669383  9788 net.cpp:157] Top shape: 32 64 300 300 (184320000)
I0602 16:55:09.669385  9788 net.cpp:165] Memory required for data: 2488320032
I0602 16:55:09.669396  9788 layer_factory.hpp:77] Creating layer relu1_2
I0602 16:55:09.669406  9788 net.cpp:100] Creating Layer relu1_2
I0602 16:55:09.669411  9788 net.cpp:434] relu1_2 <- conv1_2
I0602 16:55:09.669420  9788 net.cpp:395] relu1_2 -> conv1_2 (in-place)
I0602 16:55:09.669948  9788 net.cpp:150] Setting up relu1_2
I0602 16:55:09.669957  9788 net.cpp:157] Top shape: 32 64 300 300 (184320000)
I0602 16:55:09.669960  9788 net.cpp:165] Memory required for data: 3225600032
I0602 16:55:09.669965  9788 layer_factory.hpp:77] Creating layer pool1
I0602 16:55:09.669971  9788 net.cpp:100] Creating Layer pool1
I0602 16:55:09.669976  9788 net.cpp:434] pool1 <- conv1_2
I0602 16:55:09.669984  9788 net.cpp:408] pool1 -> pool1
I0602 16:55:09.670033  9788 net.cpp:150] Setting up pool1
I0602 16:55:09.670039  9788 net.cpp:157] Top shape: 32 64 150 150 (46080000)
I0602 16:55:09.670043  9788 net.cpp:165] Memory required for data: 3409920032
I0602 16:55:09.670047  9788 layer_factory.hpp:77] Creating layer conv2_1
I0602 16:55:09.670058  9788 net.cpp:100] Creating Layer conv2_1
I0602 16:55:09.670074  9788 net.cpp:434] conv2_1 <- pool1
I0602 16:55:09.670083  9788 net.cpp:408] conv2_1 -> conv2_1
I0602 16:55:09.671284  9788 net.cpp:150] Setting up conv2_1
I0602 16:55:09.671294  9788 net.cpp:157] Top shape: 32 128 150 150 (92160000)
I0602 16:55:09.671298  9788 net.cpp:165] Memory required for data: 3778560032
I0602 16:55:09.671306  9788 layer_factory.hpp:77] Creating layer relu2_1
I0602 16:55:09.671316  9788 net.cpp:100] Creating Layer relu2_1
I0602 16:55:09.671322  9788 net.cpp:434] relu2_1 <- conv2_1
I0602 16:55:09.671329  9788 net.cpp:395] relu2_1 -> conv2_1 (in-place)
I0602 16:55:09.671878  9788 net.cpp:150] Setting up relu2_1
I0602 16:55:09.671886  9788 net.cpp:157] Top shape: 32 128 150 150 (92160000)
I0602 16:55:09.671890  9788 net.cpp:165] Memory required for data: 4147200032
I0602 16:55:09.671892  9788 layer_factory.hpp:77] Creating layer conv2_2
I0602 16:55:09.671901  9788 net.cpp:100] Creating Layer conv2_2
I0602 16:55:09.671907  9788 net.cpp:434] conv2_2 <- conv2_1
I0602 16:55:09.671916  9788 net.cpp:408] conv2_2 -> conv2_2
I0602 16:55:09.673818  9788 net.cpp:150] Setting up conv2_2
I0602 16:55:09.673828  9788 net.cpp:157] Top shape: 32 128 150 150 (92160000)
I0602 16:55:09.673831  9788 net.cpp:165] Memory required for data: 4515840032
I0602 16:55:09.673838  9788 layer_factory.hpp:77] Creating layer relu2_2
I0602 16:55:09.673846  9788 net.cpp:100] Creating Layer relu2_2
I0602 16:55:09.673851  9788 net.cpp:434] relu2_2 <- conv2_2
I0602 16:55:09.673858  9788 net.cpp:395] relu2_2 -> conv2_2 (in-place)
I0602 16:55:09.673985  9788 net.cpp:150] Setting up relu2_2
I0602 16:55:09.673993  9788 net.cpp:157] Top shape: 32 128 150 150 (92160000)
I0602 16:55:09.673996  9788 net.cpp:165] Memory required for data: 4884480032
I0602 16:55:09.674000  9788 layer_factory.hpp:77] Creating layer pool2
I0602 16:55:09.674007  9788 net.cpp:100] Creating Layer pool2
I0602 16:55:09.674013  9788 net.cpp:434] pool2 <- conv2_2
I0602 16:55:09.674021  9788 net.cpp:408] pool2 -> pool2
I0602 16:55:09.674057  9788 net.cpp:150] Setting up pool2
I0602 16:55:09.674062  9788 net.cpp:157] Top shape: 32 128 75 75 (23040000)
I0602 16:55:09.674067  9788 net.cpp:165] Memory required for data: 4976640032
I0602 16:55:09.674070  9788 layer_factory.hpp:77] Creating layer conv3_1
I0602 16:55:09.674078  9788 net.cpp:100] Creating Layer conv3_1
I0602 16:55:09.674083  9788 net.cpp:434] conv3_1 <- pool2
I0602 16:55:09.674093  9788 net.cpp:408] conv3_1 -> conv3_1
I0602 16:55:09.677942  9788 net.cpp:150] Setting up conv3_1
I0602 16:55:09.677959  9788 net.cpp:157] Top shape: 32 256 75 75 (46080000)
I0602 16:55:09.677963  9788 net.cpp:165] Memory required for data: 5160960032
I0602 16:55:09.677978  9788 layer_factory.hpp:77] Creating layer relu3_1
I0602 16:55:09.677987  9788 net.cpp:100] Creating Layer relu3_1
I0602 16:55:09.677994  9788 net.cpp:434] relu3_1 <- conv3_1
I0602 16:55:09.678000  9788 net.cpp:395] relu3_1 -> conv3_1 (in-place)
I0602 16:55:09.678175  9788 net.cpp:150] Setting up relu3_1
I0602 16:55:09.678186  9788 net.cpp:157] Top shape: 32 256 75 75 (46080000)
I0602 16:55:09.678189  9788 net.cpp:165] Memory required for data: 5345280032
I0602 16:55:09.678194  9788 layer_factory.hpp:77] Creating layer conv3_2
I0602 16:55:09.678205  9788 net.cpp:100] Creating Layer conv3_2
I0602 16:55:09.678210  9788 net.cpp:434] conv3_2 <- conv3_1
I0602 16:55:09.678216  9788 net.cpp:408] conv3_2 -> conv3_2
I0602 16:55:09.683181  9788 net.cpp:150] Setting up conv3_2
I0602 16:55:09.683202  9788 net.cpp:157] Top shape: 32 256 75 75 (46080000)
I0602 16:55:09.683204  9788 net.cpp:165] Memory required for data: 5529600032
I0602 16:55:09.683213  9788 layer_factory.hpp:77] Creating layer relu3_2
I0602 16:55:09.683223  9788 net.cpp:100] Creating Layer relu3_2
I0602 16:55:09.683228  9788 net.cpp:434] relu3_2 <- conv3_2
I0602 16:55:09.683236  9788 net.cpp:395] relu3_2 -> conv3_2 (in-place)
I0602 16:55:09.683380  9788 net.cpp:150] Setting up relu3_2
I0602 16:55:09.683387  9788 net.cpp:157] Top shape: 32 256 75 75 (46080000)
I0602 16:55:09.683390  9788 net.cpp:165] Memory required for data: 5713920032
I0602 16:55:09.683408  9788 layer_factory.hpp:77] Creating layer conv3_3
I0602 16:55:09.683426  9788 net.cpp:100] Creating Layer conv3_3
I0602 16:55:09.683431  9788 net.cpp:434] conv3_3 <- conv3_2
I0602 16:55:09.683439  9788 net.cpp:408] conv3_3 -> conv3_3
I0602 16:55:09.687872  9788 net.cpp:150] Setting up conv3_3
I0602 16:55:09.687888  9788 net.cpp:157] Top shape: 32 256 75 75 (46080000)
I0602 16:55:09.687891  9788 net.cpp:165] Memory required for data: 5898240032
I0602 16:55:09.687899  9788 layer_factory.hpp:77] Creating layer relu3_3
I0602 16:55:09.687906  9788 net.cpp:100] Creating Layer relu3_3
I0602 16:55:09.687911  9788 net.cpp:434] relu3_3 <- conv3_3
I0602 16:55:09.687918  9788 net.cpp:395] relu3_3 -> conv3_3 (in-place)
I0602 16:55:09.688061  9788 net.cpp:150] Setting up relu3_3
I0602 16:55:09.688069  9788 net.cpp:157] Top shape: 32 256 75 75 (46080000)
I0602 16:55:09.688071  9788 net.cpp:165] Memory required for data: 6082560032
I0602 16:55:09.688074  9788 layer_factory.hpp:77] Creating layer pool3
I0602 16:55:09.688081  9788 net.cpp:100] Creating Layer pool3
I0602 16:55:09.688086  9788 net.cpp:434] pool3 <- conv3_3
I0602 16:55:09.688092  9788 net.cpp:408] pool3 -> pool3
I0602 16:55:09.688133  9788 net.cpp:150] Setting up pool3
I0602 16:55:09.688139  9788 net.cpp:157] Top shape: 32 256 38 38 (11829248)
I0602 16:55:09.688141  9788 net.cpp:165] Memory required for data: 6129877024
I0602 16:55:09.688144  9788 layer_factory.hpp:77] Creating layer conv4_1
I0602 16:55:09.688156  9788 net.cpp:100] Creating Layer conv4_1
I0602 16:55:09.688163  9788 net.cpp:434] conv4_1 <- pool3
I0602 16:55:09.688169  9788 net.cpp:408] conv4_1 -> conv4_1
I0602 16:55:09.697006  9788 net.cpp:150] Setting up conv4_1
I0602 16:55:09.697026  9788 net.cpp:157] Top shape: 32 512 38 38 (23658496)
I0602 16:55:09.697046  9788 net.cpp:165] Memory required for data: 6224511008
I0602 16:55:09.697069  9788 layer_factory.hpp:77] Creating layer relu4_1
I0602 16:55:09.697077  9788 net.cpp:100] Creating Layer relu4_1
I0602 16:55:09.697082  9788 net.cpp:434] relu4_1 <- conv4_1
I0602 16:55:09.697104  9788 net.cpp:395] relu4_1 -> conv4_1 (in-place)
I0602 16:55:09.697983  9788 net.cpp:150] Setting up relu4_1
I0602 16:55:09.698009  9788 net.cpp:157] Top shape: 32 512 38 38 (23658496)
I0602 16:55:09.698014  9788 net.cpp:165] Memory required for data: 6319144992
I0602 16:55:09.698019  9788 layer_factory.hpp:77] Creating layer conv4_2
I0602 16:55:09.698029  9788 net.cpp:100] Creating Layer conv4_2
I0602 16:55:09.698034  9788 net.cpp:434] conv4_2 <- conv4_1
I0602 16:55:09.698041  9788 net.cpp:408] conv4_2 -> conv4_2
I0602 16:55:09.710157  9788 net.cpp:150] Setting up conv4_2
I0602 16:55:09.710178  9788 net.cpp:157] Top shape: 32 512 38 38 (23658496)
I0602 16:55:09.710181  9788 net.cpp:165] Memory required for data: 6413778976
I0602 16:55:09.710208  9788 layer_factory.hpp:77] Creating layer relu4_2
I0602 16:55:09.710217  9788 net.cpp:100] Creating Layer relu4_2
I0602 16:55:09.710222  9788 net.cpp:434] relu4_2 <- conv4_2
I0602 16:55:09.710227  9788 net.cpp:395] relu4_2 -> conv4_2 (in-place)
I0602 16:55:09.711236  9788 net.cpp:150] Setting up relu4_2
I0602 16:55:09.711246  9788 net.cpp:157] Top shape: 32 512 38 38 (23658496)
I0602 16:55:09.711248  9788 net.cpp:165] Memory required for data: 6508412960
I0602 16:55:09.711251  9788 layer_factory.hpp:77] Creating layer conv4_3
I0602 16:55:09.711259  9788 net.cpp:100] Creating Layer conv4_3
I0602 16:55:09.711263  9788 net.cpp:434] conv4_3 <- conv4_2
I0602 16:55:09.711268  9788 net.cpp:408] conv4_3 -> conv4_3
I0602 16:55:09.723605  9788 net.cpp:150] Setting up conv4_3
I0602 16:55:09.723621  9788 net.cpp:157] Top shape: 32 512 38 38 (23658496)
I0602 16:55:09.723624  9788 net.cpp:165] Memory required for data: 6603046944
I0602 16:55:09.723646  9788 layer_factory.hpp:77] Creating layer relu4_3
I0602 16:55:09.723652  9788 net.cpp:100] Creating Layer relu4_3
I0602 16:55:09.723655  9788 net.cpp:434] relu4_3 <- conv4_3
I0602 16:55:09.723661  9788 net.cpp:395] relu4_3 -> conv4_3 (in-place)
I0602 16:55:09.723863  9788 net.cpp:150] Setting up relu4_3
I0602 16:55:09.723871  9788 net.cpp:157] Top shape: 32 512 38 38 (23658496)
I0602 16:55:09.723887  9788 net.cpp:165] Memory required for data: 6697680928
I0602 16:55:09.723889  9788 layer_factory.hpp:77] Creating layer conv4_3_relu4_3_0_split
I0602 16:55:09.723894  9788 net.cpp:100] Creating Layer conv4_3_relu4_3_0_split
I0602 16:55:09.723912  9788 net.cpp:434] conv4_3_relu4_3_0_split <- conv4_3
I0602 16:55:09.723917  9788 net.cpp:408] conv4_3_relu4_3_0_split -> conv4_3_relu4_3_0_split_0
I0602 16:55:09.723922  9788 net.cpp:408] conv4_3_relu4_3_0_split -> conv4_3_relu4_3_0_split_1
I0602 16:55:09.723966  9788 net.cpp:150] Setting up conv4_3_relu4_3_0_split
I0602 16:55:09.723976  9788 net.cpp:157] Top shape: 32 512 38 38 (23658496)
I0602 16:55:09.723979  9788 net.cpp:157] Top shape: 32 512 38 38 (23658496)
I0602 16:55:09.723983  9788 net.cpp:165] Memory required for data: 6886948896
I0602 16:55:09.723984  9788 layer_factory.hpp:77] Creating layer pool4
I0602 16:55:09.723989  9788 net.cpp:100] Creating Layer pool4
I0602 16:55:09.723991  9788 net.cpp:434] pool4 <- conv4_3_relu4_3_0_split_0
I0602 16:55:09.723995  9788 net.cpp:408] pool4 -> pool4
I0602 16:55:09.724027  9788 net.cpp:150] Setting up pool4
I0602 16:55:09.724033  9788 net.cpp:157] Top shape: 32 512 19 19 (5914624)
I0602 16:55:09.724035  9788 net.cpp:165] Memory required for data: 6910607392
I0602 16:55:09.724037  9788 layer_factory.hpp:77] Creating layer conv5_1
I0602 16:55:09.724045  9788 net.cpp:100] Creating Layer conv5_1
I0602 16:55:09.724051  9788 net.cpp:434] conv5_1 <- pool4
I0602 16:55:09.724056  9788 net.cpp:408] conv5_1 -> conv5_1
I0602 16:55:09.737234  9788 net.cpp:150] Setting up conv5_1
I0602 16:55:09.737252  9788 net.cpp:157] Top shape: 32 512 19 19 (5914624)
I0602 16:55:09.737256  9788 net.cpp:165] Memory required for data: 6934265888
I0602 16:55:09.737277  9788 layer_factory.hpp:77] Creating layer relu5_1
I0602 16:55:09.737284  9788 net.cpp:100] Creating Layer relu5_1
I0602 16:55:09.737287  9788 net.cpp:434] relu5_1 <- conv5_1
I0602 16:55:09.737292  9788 net.cpp:395] relu5_1 -> conv5_1 (in-place)
I0602 16:55:09.737468  9788 net.cpp:150] Setting up relu5_1
I0602 16:55:09.737474  9788 net.cpp:157] Top shape: 32 512 19 19 (5914624)
I0602 16:55:09.737476  9788 net.cpp:165] Memory required for data: 6957924384
I0602 16:55:09.737478  9788 layer_factory.hpp:77] Creating layer conv5_2
I0602 16:55:09.737486  9788 net.cpp:100] Creating Layer conv5_2
I0602 16:55:09.737490  9788 net.cpp:434] conv5_2 <- conv5_1
I0602 16:55:09.737510  9788 net.cpp:408] conv5_2 -> conv5_2
I0602 16:55:09.750319  9788 net.cpp:150] Setting up conv5_2
I0602 16:55:09.750337  9788 net.cpp:157] Top shape: 32 512 19 19 (5914624)
I0602 16:55:09.750340  9788 net.cpp:165] Memory required for data: 6981582880
I0602 16:55:09.750362  9788 layer_factory.hpp:77] Creating layer relu5_2
I0602 16:55:09.750368  9788 net.cpp:100] Creating Layer relu5_2
I0602 16:55:09.750386  9788 net.cpp:434] relu5_2 <- conv5_2
I0602 16:55:09.750391  9788 net.cpp:395] relu5_2 -> conv5_2 (in-place)
I0602 16:55:09.750555  9788 net.cpp:150] Setting up relu5_2
I0602 16:55:09.750560  9788 net.cpp:157] Top shape: 32 512 19 19 (5914624)
I0602 16:55:09.750562  9788 net.cpp:165] Memory required for data: 7005241376
I0602 16:55:09.750566  9788 layer_factory.hpp:77] Creating layer conv5_3
I0602 16:55:09.750589  9788 net.cpp:100] Creating Layer conv5_3
I0602 16:55:09.750607  9788 net.cpp:434] conv5_3 <- conv5_2
I0602 16:55:09.750612  9788 net.cpp:408] conv5_3 -> conv5_3
I0602 16:55:09.763947  9788 net.cpp:150] Setting up conv5_3
I0602 16:55:09.763964  9788 net.cpp:157] Top shape: 32 512 19 19 (5914624)
I0602 16:55:09.763967  9788 net.cpp:165] Memory required for data: 7028899872
I0602 16:55:09.763973  9788 layer_factory.hpp:77] Creating layer relu5_3
I0602 16:55:09.764000  9788 net.cpp:100] Creating Layer relu5_3
I0602 16:55:09.764003  9788 net.cpp:434] relu5_3 <- conv5_3
I0602 16:55:09.764008  9788 net.cpp:395] relu5_3 -> conv5_3 (in-place)
I0602 16:55:09.764199  9788 net.cpp:150] Setting up relu5_3
I0602 16:55:09.764216  9788 net.cpp:157] Top shape: 32 512 19 19 (5914624)
I0602 16:55:09.764219  9788 net.cpp:165] Memory required for data: 7052558368
I0602 16:55:09.764220  9788 layer_factory.hpp:77] Creating layer pool5
I0602 16:55:09.764226  9788 net.cpp:100] Creating Layer pool5
I0602 16:55:09.764230  9788 net.cpp:434] pool5 <- conv5_3
I0602 16:55:09.764235  9788 net.cpp:408] pool5 -> pool5
I0602 16:55:09.764283  9788 net.cpp:150] Setting up pool5
I0602 16:55:09.764302  9788 net.cpp:157] Top shape: 32 512 19 19 (5914624)
I0602 16:55:09.764305  9788 net.cpp:165] Memory required for data: 7076216864
I0602 16:55:09.764307  9788 layer_factory.hpp:77] Creating layer fc6
I0602 16:55:09.764314  9788 net.cpp:100] Creating Layer fc6
I0602 16:55:09.764317  9788 net.cpp:434] fc6 <- pool5
I0602 16:55:09.764322  9788 net.cpp:408] fc6 -> fc6
I0602 16:55:09.787123  9788 net.cpp:150] Setting up fc6
I0602 16:55:09.787142  9788 net.cpp:157] Top shape: 32 1024 19 19 (11829248)
I0602 16:55:09.787143  9788 net.cpp:165] Memory required for data: 7123533856
I0602 16:55:09.787150  9788 layer_factory.hpp:77] Creating layer relu6
I0602 16:55:09.787173  9788 net.cpp:100] Creating Layer relu6
I0602 16:55:09.787176  9788 net.cpp:434] relu6 <- fc6
I0602 16:55:09.787180  9788 net.cpp:395] relu6 -> fc6 (in-place)
I0602 16:55:09.788223  9788 net.cpp:150] Setting up relu6
I0602 16:55:09.788231  9788 net.cpp:157] Top shape: 32 1024 19 19 (11829248)
I0602 16:55:09.788233  9788 net.cpp:165] Memory required for data: 7170850848
I0602 16:55:09.788235  9788 layer_factory.hpp:77] Creating layer fc7
I0602 16:55:09.788259  9788 net.cpp:100] Creating Layer fc7
I0602 16:55:09.788261  9788 net.cpp:434] fc7 <- fc6
I0602 16:55:09.788267  9788 net.cpp:408] fc7 -> fc7
I0602 16:55:09.794880  9788 net.cpp:150] Setting up fc7
I0602 16:55:09.794911  9788 net.cpp:157] Top shape: 32 1024 19 19 (11829248)
I0602 16:55:09.794914  9788 net.cpp:165] Memory required for data: 7218167840
I0602 16:55:09.794921  9788 layer_factory.hpp:77] Creating layer relu7
I0602 16:55:09.794929  9788 net.cpp:100] Creating Layer relu7
I0602 16:55:09.794948  9788 net.cpp:434] relu7 <- fc7
I0602 16:55:09.794952  9788 net.cpp:395] relu7 -> fc7 (in-place)
I0602 16:55:09.795111  9788 net.cpp:150] Setting up relu7
I0602 16:55:09.795119  9788 net.cpp:157] Top shape: 32 1024 19 19 (11829248)
I0602 16:55:09.795121  9788 net.cpp:165] Memory required for data: 7265484832
I0602 16:55:09.795138  9788 layer_factory.hpp:77] Creating layer fc7_relu7_0_split
I0602 16:55:09.795143  9788 net.cpp:100] Creating Layer fc7_relu7_0_split
I0602 16:55:09.795145  9788 net.cpp:434] fc7_relu7_0_split <- fc7
I0602 16:55:09.795151  9788 net.cpp:408] fc7_relu7_0_split -> fc7_relu7_0_split_0
I0602 16:55:09.795156  9788 net.cpp:408] fc7_relu7_0_split -> fc7_relu7_0_split_1
I0602 16:55:09.795166  9788 net.cpp:408] fc7_relu7_0_split -> fc7_relu7_0_split_2
I0602 16:55:09.795171  9788 net.cpp:408] fc7_relu7_0_split -> fc7_relu7_0_split_3
I0602 16:55:09.795219  9788 net.cpp:150] Setting up fc7_relu7_0_split
I0602 16:55:09.795224  9788 net.cpp:157] Top shape: 32 1024 19 19 (11829248)
I0602 16:55:09.795228  9788 net.cpp:157] Top shape: 32 1024 19 19 (11829248)
I0602 16:55:09.795230  9788 net.cpp:157] Top shape: 32 1024 19 19 (11829248)
I0602 16:55:09.795233  9788 net.cpp:157] Top shape: 32 1024 19 19 (11829248)
I0602 16:55:09.795235  9788 net.cpp:165] Memory required for data: 7454752800
I0602 16:55:09.795238  9788 layer_factory.hpp:77] Creating layer conv6_1
I0602 16:55:09.795245  9788 net.cpp:100] Creating Layer conv6_1
I0602 16:55:09.795248  9788 net.cpp:434] conv6_1 <- fc7_relu7_0_split_0
I0602 16:55:09.795253  9788 net.cpp:408] conv6_1 -> conv6_1
I0602 16:55:09.798421  9788 net.cpp:150] Setting up conv6_1
I0602 16:55:09.798434  9788 net.cpp:157] Top shape: 32 256 19 19 (2957312)
I0602 16:55:09.798437  9788 net.cpp:165] Memory required for data: 7466582048
I0602 16:55:09.798444  9788 layer_factory.hpp:77] Creating layer conv6_1_relu
I0602 16:55:09.798449  9788 net.cpp:100] Creating Layer conv6_1_relu
I0602 16:55:09.798463  9788 net.cpp:434] conv6_1_relu <- conv6_1
I0602 16:55:09.798470  9788 net.cpp:395] conv6_1_relu -> conv6_1 (in-place)
I0602 16:55:09.798596  9788 net.cpp:150] Setting up conv6_1_relu
I0602 16:55:09.798604  9788 net.cpp:157] Top shape: 32 256 19 19 (2957312)
I0602 16:55:09.798605  9788 net.cpp:165] Memory required for data: 7478411296
I0602 16:55:09.798609  9788 layer_factory.hpp:77] Creating layer conv6_2
I0602 16:55:09.798615  9788 net.cpp:100] Creating Layer conv6_2
I0602 16:55:09.798619  9788 net.cpp:434] conv6_2 <- conv6_1
I0602 16:55:09.798622  9788 net.cpp:408] conv6_2 -> conv6_2
I0602 16:55:09.805510  9788 net.cpp:150] Setting up conv6_2
I0602 16:55:09.805529  9788 net.cpp:157] Top shape: 32 512 10 10 (1638400)
I0602 16:55:09.805531  9788 net.cpp:165] Memory required for data: 7484964896
I0602 16:55:09.805543  9788 layer_factory.hpp:77] Creating layer conv6_2_relu
I0602 16:55:09.805567  9788 net.cpp:100] Creating Layer conv6_2_relu
I0602 16:55:09.805572  9788 net.cpp:434] conv6_2_relu <- conv6_2
I0602 16:55:09.805577  9788 net.cpp:395] conv6_2_relu -> conv6_2 (in-place)
I0602 16:55:09.805719  9788 net.cpp:150] Setting up conv6_2_relu
I0602 16:55:09.805728  9788 net.cpp:157] Top shape: 32 512 10 10 (1638400)
I0602 16:55:09.805732  9788 net.cpp:165] Memory required for data: 7491518496
I0602 16:55:09.805735  9788 layer_factory.hpp:77] Creating layer conv6_2_conv6_2_relu_0_split
I0602 16:55:09.805742  9788 net.cpp:100] Creating Layer conv6_2_conv6_2_relu_0_split
I0602 16:55:09.805747  9788 net.cpp:434] conv6_2_conv6_2_relu_0_split <- conv6_2
I0602 16:55:09.805754  9788 net.cpp:408] conv6_2_conv6_2_relu_0_split -> conv6_2_conv6_2_relu_0_split_0
I0602 16:55:09.805763  9788 net.cpp:408] conv6_2_conv6_2_relu_0_split -> conv6_2_conv6_2_relu_0_split_1
I0602 16:55:09.805773  9788 net.cpp:408] conv6_2_conv6_2_relu_0_split -> conv6_2_conv6_2_relu_0_split_2
I0602 16:55:09.805780  9788 net.cpp:408] conv6_2_conv6_2_relu_0_split -> conv6_2_conv6_2_relu_0_split_3
I0602 16:55:09.805837  9788 net.cpp:150] Setting up conv6_2_conv6_2_relu_0_split
I0602 16:55:09.805845  9788 net.cpp:157] Top shape: 32 512 10 10 (1638400)
I0602 16:55:09.805850  9788 net.cpp:157] Top shape: 32 512 10 10 (1638400)
I0602 16:55:09.805855  9788 net.cpp:157] Top shape: 32 512 10 10 (1638400)
I0602 16:55:09.805860  9788 net.cpp:157] Top shape: 32 512 10 10 (1638400)
I0602 16:55:09.805863  9788 net.cpp:165] Memory required for data: 7517732896
I0602 16:55:09.805867  9788 layer_factory.hpp:77] Creating layer conv7_1
I0602 16:55:09.805878  9788 net.cpp:100] Creating Layer conv7_1
I0602 16:55:09.805882  9788 net.cpp:434] conv7_1 <- conv6_2_conv6_2_relu_0_split_0
I0602 16:55:09.805891  9788 net.cpp:408] conv7_1 -> conv7_1
I0602 16:55:09.807179  9788 net.cpp:150] Setting up conv7_1
I0602 16:55:09.807190  9788 net.cpp:157] Top shape: 32 128 10 10 (409600)
I0602 16:55:09.807194  9788 net.cpp:165] Memory required for data: 7519371296
I0602 16:55:09.807201  9788 layer_factory.hpp:77] Creating layer conv7_1_relu
I0602 16:55:09.807209  9788 net.cpp:100] Creating Layer conv7_1_relu
I0602 16:55:09.807215  9788 net.cpp:434] conv7_1_relu <- conv7_1
I0602 16:55:09.807222  9788 net.cpp:395] conv7_1_relu -> conv7_1 (in-place)
I0602 16:55:09.807351  9788 net.cpp:150] Setting up conv7_1_relu
I0602 16:55:09.807358  9788 net.cpp:157] Top shape: 32 128 10 10 (409600)
I0602 16:55:09.807363  9788 net.cpp:165] Memory required for data: 7521009696
I0602 16:55:09.807366  9788 layer_factory.hpp:77] Creating layer conv7_2
I0602 16:55:09.807376  9788 net.cpp:100] Creating Layer conv7_2
I0602 16:55:09.807381  9788 net.cpp:434] conv7_2 <- conv7_1
I0602 16:55:09.807390  9788 net.cpp:408] conv7_2 -> conv7_2
I0602 16:55:09.810196  9788 net.cpp:150] Setting up conv7_2
I0602 16:55:09.810210  9788 net.cpp:157] Top shape: 32 256 5 5 (204800)
I0602 16:55:09.810214  9788 net.cpp:165] Memory required for data: 7521828896
I0602 16:55:09.810222  9788 layer_factory.hpp:77] Creating layer conv7_2_relu
I0602 16:55:09.810237  9788 net.cpp:100] Creating Layer conv7_2_relu
I0602 16:55:09.810245  9788 net.cpp:434] conv7_2_relu <- conv7_2
I0602 16:55:09.810261  9788 net.cpp:395] conv7_2_relu -> conv7_2 (in-place)
I0602 16:55:09.810395  9788 net.cpp:150] Setting up conv7_2_relu
I0602 16:55:09.810403  9788 net.cpp:157] Top shape: 32 256 5 5 (204800)
I0602 16:55:09.810406  9788 net.cpp:165] Memory required for data: 7522648096
I0602 16:55:09.810410  9788 layer_factory.hpp:77] Creating layer conv7_2_conv7_2_relu_0_split
I0602 16:55:09.810417  9788 net.cpp:100] Creating Layer conv7_2_conv7_2_relu_0_split
I0602 16:55:09.810422  9788 net.cpp:434] conv7_2_conv7_2_relu_0_split <- conv7_2
I0602 16:55:09.810431  9788 net.cpp:408] conv7_2_conv7_2_relu_0_split -> conv7_2_conv7_2_relu_0_split_0
I0602 16:55:09.810439  9788 net.cpp:408] conv7_2_conv7_2_relu_0_split -> conv7_2_conv7_2_relu_0_split_1
I0602 16:55:09.810449  9788 net.cpp:408] conv7_2_conv7_2_relu_0_split -> conv7_2_conv7_2_relu_0_split_2
I0602 16:55:09.810457  9788 net.cpp:408] conv7_2_conv7_2_relu_0_split -> conv7_2_conv7_2_relu_0_split_3
I0602 16:55:09.810511  9788 net.cpp:150] Setting up conv7_2_conv7_2_relu_0_split
I0602 16:55:09.810518  9788 net.cpp:157] Top shape: 32 256 5 5 (204800)
I0602 16:55:09.810524  9788 net.cpp:157] Top shape: 32 256 5 5 (204800)
I0602 16:55:09.810529  9788 net.cpp:157] Top shape: 32 256 5 5 (204800)
I0602 16:55:09.810534  9788 net.cpp:157] Top shape: 32 256 5 5 (204800)
I0602 16:55:09.810537  9788 net.cpp:165] Memory required for data: 7525924896
I0602 16:55:09.810541  9788 layer_factory.hpp:77] Creating layer conv8_1
I0602 16:55:09.810552  9788 net.cpp:100] Creating Layer conv8_1
I0602 16:55:09.810556  9788 net.cpp:434] conv8_1 <- conv7_2_conv7_2_relu_0_split_0
I0602 16:55:09.810565  9788 net.cpp:408] conv8_1 -> conv8_1
I0602 16:55:09.811731  9788 net.cpp:150] Setting up conv8_1
I0602 16:55:09.811741  9788 net.cpp:157] Top shape: 32 128 5 5 (102400)
I0602 16:55:09.811745  9788 net.cpp:165] Memory required for data: 7526334496
I0602 16:55:09.811753  9788 layer_factory.hpp:77] Creating layer conv8_1_relu
I0602 16:55:09.811761  9788 net.cpp:100] Creating Layer conv8_1_relu
I0602 16:55:09.811766  9788 net.cpp:434] conv8_1_relu <- conv8_1
I0602 16:55:09.811772  9788 net.cpp:395] conv8_1_relu -> conv8_1 (in-place)
I0602 16:55:09.812335  9788 net.cpp:150] Setting up conv8_1_relu
I0602 16:55:09.812345  9788 net.cpp:157] Top shape: 32 128 5 5 (102400)
I0602 16:55:09.812350  9788 net.cpp:165] Memory required for data: 7526744096
I0602 16:55:09.812353  9788 layer_factory.hpp:77] Creating layer conv8_2
I0602 16:55:09.812364  9788 net.cpp:100] Creating Layer conv8_2
I0602 16:55:09.812369  9788 net.cpp:434] conv8_2 <- conv8_1
I0602 16:55:09.812376  9788 net.cpp:408] conv8_2 -> conv8_2
I0602 16:55:09.815212  9788 net.cpp:150] Setting up conv8_2
I0602 16:55:09.815225  9788 net.cpp:157] Top shape: 32 256 3 3 (73728)
I0602 16:55:09.815229  9788 net.cpp:165] Memory required for data: 7527039008
I0602 16:55:09.815237  9788 layer_factory.hpp:77] Creating layer conv8_2_relu
I0602 16:55:09.815244  9788 net.cpp:100] Creating Layer conv8_2_relu
I0602 16:55:09.815250  9788 net.cpp:434] conv8_2_relu <- conv8_2
I0602 16:55:09.815258  9788 net.cpp:395] conv8_2_relu -> conv8_2 (in-place)
I0602 16:55:09.815392  9788 net.cpp:150] Setting up conv8_2_relu
I0602 16:55:09.815400  9788 net.cpp:157] Top shape: 32 256 3 3 (73728)
I0602 16:55:09.815403  9788 net.cpp:165] Memory required for data: 7527333920
I0602 16:55:09.815407  9788 layer_factory.hpp:77] Creating layer conv8_2_conv8_2_relu_0_split
I0602 16:55:09.815413  9788 net.cpp:100] Creating Layer conv8_2_conv8_2_relu_0_split
I0602 16:55:09.815418  9788 net.cpp:434] conv8_2_conv8_2_relu_0_split <- conv8_2
I0602 16:55:09.815426  9788 net.cpp:408] conv8_2_conv8_2_relu_0_split -> conv8_2_conv8_2_relu_0_split_0
I0602 16:55:09.815435  9788 net.cpp:408] conv8_2_conv8_2_relu_0_split -> conv8_2_conv8_2_relu_0_split_1
I0602 16:55:09.815444  9788 net.cpp:408] conv8_2_conv8_2_relu_0_split -> conv8_2_conv8_2_relu_0_split_2
I0602 16:55:09.815454  9788 net.cpp:408] conv8_2_conv8_2_relu_0_split -> conv8_2_conv8_2_relu_0_split_3
I0602 16:55:09.815521  9788 net.cpp:150] Setting up conv8_2_conv8_2_relu_0_split
I0602 16:55:09.815528  9788 net.cpp:157] Top shape: 32 256 3 3 (73728)
I0602 16:55:09.815533  9788 net.cpp:157] Top shape: 32 256 3 3 (73728)
I0602 16:55:09.815539  9788 net.cpp:157] Top shape: 32 256 3 3 (73728)
I0602 16:55:09.815544  9788 net.cpp:157] Top shape: 32 256 3 3 (73728)
I0602 16:55:09.815548  9788 net.cpp:165] Memory required for data: 7528513568
I0602 16:55:09.815552  9788 layer_factory.hpp:77] Creating layer conv9_1
I0602 16:55:09.815563  9788 net.cpp:100] Creating Layer conv9_1
I0602 16:55:09.815568  9788 net.cpp:434] conv9_1 <- conv8_2_conv8_2_relu_0_split_0
I0602 16:55:09.815577  9788 net.cpp:408] conv9_1 -> conv9_1
I0602 16:55:09.816781  9788 net.cpp:150] Setting up conv9_1
I0602 16:55:09.816792  9788 net.cpp:157] Top shape: 32 128 3 3 (36864)
I0602 16:55:09.816797  9788 net.cpp:165] Memory required for data: 7528661024
I0602 16:55:09.816803  9788 layer_factory.hpp:77] Creating layer conv9_1_relu
I0602 16:55:09.816812  9788 net.cpp:100] Creating Layer conv9_1_relu
I0602 16:55:09.816818  9788 net.cpp:434] conv9_1_relu <- conv9_1
I0602 16:55:09.816824  9788 net.cpp:395] conv9_1_relu -> conv9_1 (in-place)
I0602 16:55:09.816953  9788 net.cpp:150] Setting up conv9_1_relu
I0602 16:55:09.816961  9788 net.cpp:157] Top shape: 32 128 3 3 (36864)
I0602 16:55:09.816965  9788 net.cpp:165] Memory required for data: 7528808480
I0602 16:55:09.816968  9788 layer_factory.hpp:77] Creating layer conv9_2
I0602 16:55:09.816978  9788 net.cpp:100] Creating Layer conv9_2
I0602 16:55:09.816982  9788 net.cpp:434] conv9_2 <- conv9_1
I0602 16:55:09.816992  9788 net.cpp:408] conv9_2 -> conv9_2
I0602 16:55:09.819854  9788 net.cpp:150] Setting up conv9_2
I0602 16:55:09.819870  9788 net.cpp:157] Top shape: 32 256 1 1 (8192)
I0602 16:55:09.819875  9788 net.cpp:165] Memory required for data: 7528841248
I0602 16:55:09.819883  9788 layer_factory.hpp:77] Creating layer conv9_2_relu
I0602 16:55:09.819891  9788 net.cpp:100] Creating Layer conv9_2_relu
I0602 16:55:09.819897  9788 net.cpp:434] conv9_2_relu <- conv9_2
I0602 16:55:09.819906  9788 net.cpp:395] conv9_2_relu -> conv9_2 (in-place)
I0602 16:55:09.820045  9788 net.cpp:150] Setting up conv9_2_relu
I0602 16:55:09.820055  9788 net.cpp:157] Top shape: 32 256 1 1 (8192)
I0602 16:55:09.820058  9788 net.cpp:165] Memory required for data: 7528874016
I0602 16:55:09.820062  9788 layer_factory.hpp:77] Creating layer conv9_2_conv9_2_relu_0_split
I0602 16:55:09.820070  9788 net.cpp:100] Creating Layer conv9_2_conv9_2_relu_0_split
I0602 16:55:09.820075  9788 net.cpp:434] conv9_2_conv9_2_relu_0_split <- conv9_2
I0602 16:55:09.820081  9788 net.cpp:408] conv9_2_conv9_2_relu_0_split -> conv9_2_conv9_2_relu_0_split_0
I0602 16:55:09.820089  9788 net.cpp:408] conv9_2_conv9_2_relu_0_split -> conv9_2_conv9_2_relu_0_split_1
I0602 16:55:09.820099  9788 net.cpp:408] conv9_2_conv9_2_relu_0_split -> conv9_2_conv9_2_relu_0_split_2
I0602 16:55:09.820147  9788 net.cpp:150] Setting up conv9_2_conv9_2_relu_0_split
I0602 16:55:09.820153  9788 net.cpp:157] Top shape: 32 256 1 1 (8192)
I0602 16:55:09.820158  9788 net.cpp:157] Top shape: 32 256 1 1 (8192)
I0602 16:55:09.820164  9788 net.cpp:157] Top shape: 32 256 1 1 (8192)
I0602 16:55:09.820168  9788 net.cpp:165] Memory required for data: 7528972320
I0602 16:55:09.820171  9788 layer_factory.hpp:77] Creating layer conv4_3_norm
I0602 16:55:09.820179  9788 net.cpp:100] Creating Layer conv4_3_norm
I0602 16:55:09.820184  9788 net.cpp:434] conv4_3_norm <- conv4_3_relu4_3_0_split_1
I0602 16:55:09.820191  9788 net.cpp:408] conv4_3_norm -> conv4_3_norm
I0602 16:55:09.820318  9788 net.cpp:150] Setting up conv4_3_norm
I0602 16:55:09.820325  9788 net.cpp:157] Top shape: 32 512 38 38 (23658496)
I0602 16:55:09.820329  9788 net.cpp:165] Memory required for data: 7623606304
I0602 16:55:09.820335  9788 layer_factory.hpp:77] Creating layer conv4_3_norm_conv4_3_norm_0_split
I0602 16:55:09.820341  9788 net.cpp:100] Creating Layer conv4_3_norm_conv4_3_norm_0_split
I0602 16:55:09.820345  9788 net.cpp:434] conv4_3_norm_conv4_3_norm_0_split <- conv4_3_norm
I0602 16:55:09.820360  9788 net.cpp:408] conv4_3_norm_conv4_3_norm_0_split -> conv4_3_norm_conv4_3_norm_0_split_0
I0602 16:55:09.820370  9788 net.cpp:408] conv4_3_norm_conv4_3_norm_0_split -> conv4_3_norm_conv4_3_norm_0_split_1
I0602 16:55:09.820379  9788 net.cpp:408] conv4_3_norm_conv4_3_norm_0_split -> conv4_3_norm_conv4_3_norm_0_split_2
I0602 16:55:09.820420  9788 net.cpp:150] Setting up conv4_3_norm_conv4_3_norm_0_split
I0602 16:55:09.820426  9788 net.cpp:157] Top shape: 32 512 38 38 (23658496)
I0602 16:55:09.820432  9788 net.cpp:157] Top shape: 32 512 38 38 (23658496)
I0602 16:55:09.820437  9788 net.cpp:157] Top shape: 32 512 38 38 (23658496)
I0602 16:55:09.820441  9788 net.cpp:165] Memory required for data: 7907508256
I0602 16:55:09.820444  9788 layer_factory.hpp:77] Creating layer conv4_3_norm_mbox_loc
I0602 16:55:09.820456  9788 net.cpp:100] Creating Layer conv4_3_norm_mbox_loc
I0602 16:55:09.820461  9788 net.cpp:434] conv4_3_norm_mbox_loc <- conv4_3_norm_conv4_3_norm_0_split_0
I0602 16:55:09.820467  9788 net.cpp:408] conv4_3_norm_mbox_loc -> conv4_3_norm_mbox_loc
I0602 16:55:09.822227  9788 net.cpp:150] Setting up conv4_3_norm_mbox_loc
I0602 16:55:09.822238  9788 net.cpp:157] Top shape: 32 16 38 38 (739328)
I0602 16:55:09.822242  9788 net.cpp:165] Memory required for data: 7910465568
I0602 16:55:09.822249  9788 layer_factory.hpp:77] Creating layer conv4_3_norm_mbox_loc_perm
I0602 16:55:09.822259  9788 net.cpp:100] Creating Layer conv4_3_norm_mbox_loc_perm
I0602 16:55:09.822264  9788 net.cpp:434] conv4_3_norm_mbox_loc_perm <- conv4_3_norm_mbox_loc
I0602 16:55:09.822271  9788 net.cpp:408] conv4_3_norm_mbox_loc_perm -> conv4_3_norm_mbox_loc_perm
I0602 16:55:09.822357  9788 net.cpp:150] Setting up conv4_3_norm_mbox_loc_perm
I0602 16:55:09.822365  9788 net.cpp:157] Top shape: 32 38 38 16 (739328)
I0602 16:55:09.822368  9788 net.cpp:165] Memory required for data: 7913422880
I0602 16:55:09.822372  9788 layer_factory.hpp:77] Creating layer conv4_3_norm_mbox_loc_flat
I0602 16:55:09.822378  9788 net.cpp:100] Creating Layer conv4_3_norm_mbox_loc_flat
I0602 16:55:09.822383  9788 net.cpp:434] conv4_3_norm_mbox_loc_flat <- conv4_3_norm_mbox_loc_perm
I0602 16:55:09.822391  9788 net.cpp:408] conv4_3_norm_mbox_loc_flat -> conv4_3_norm_mbox_loc_flat
I0602 16:55:09.822424  9788 net.cpp:150] Setting up conv4_3_norm_mbox_loc_flat
I0602 16:55:09.822432  9788 net.cpp:157] Top shape: 32 23104 (739328)
I0602 16:55:09.822434  9788 net.cpp:165] Memory required for data: 7916380192
I0602 16:55:09.822439  9788 layer_factory.hpp:77] Creating layer conv4_3_norm_mbox_conf
I0602 16:55:09.822455  9788 net.cpp:100] Creating Layer conv4_3_norm_mbox_conf
I0602 16:55:09.822460  9788 net.cpp:434] conv4_3_norm_mbox_conf <- conv4_3_norm_conv4_3_norm_0_split_1
I0602 16:55:09.822468  9788 net.cpp:408] conv4_3_norm_mbox_conf -> conv4_3_norm_mbox_conf
I0602 16:55:09.824226  9788 net.cpp:150] Setting up conv4_3_norm_mbox_conf
I0602 16:55:09.824239  9788 net.cpp:157] Top shape: 32 16 38 38 (739328)
I0602 16:55:09.824242  9788 net.cpp:165] Memory required for data: 7919337504
I0602 16:55:09.824249  9788 layer_factory.hpp:77] Creating layer conv4_3_norm_mbox_conf_perm
I0602 16:55:09.824260  9788 net.cpp:100] Creating Layer conv4_3_norm_mbox_conf_perm
I0602 16:55:09.824265  9788 net.cpp:434] conv4_3_norm_mbox_conf_perm <- conv4_3_norm_mbox_conf
I0602 16:55:09.824273  9788 net.cpp:408] conv4_3_norm_mbox_conf_perm -> conv4_3_norm_mbox_conf_perm
I0602 16:55:09.824359  9788 net.cpp:150] Setting up conv4_3_norm_mbox_conf_perm
I0602 16:55:09.824368  9788 net.cpp:157] Top shape: 32 38 38 16 (739328)
I0602 16:55:09.824371  9788 net.cpp:165] Memory required for data: 7922294816
I0602 16:55:09.824375  9788 layer_factory.hpp:77] Creating layer conv4_3_norm_mbox_conf_flat
I0602 16:55:09.824381  9788 net.cpp:100] Creating Layer conv4_3_norm_mbox_conf_flat
I0602 16:55:09.824386  9788 net.cpp:434] conv4_3_norm_mbox_conf_flat <- conv4_3_norm_mbox_conf_perm
I0602 16:55:09.824393  9788 net.cpp:408] conv4_3_norm_mbox_conf_flat -> conv4_3_norm_mbox_conf_flat
I0602 16:55:09.824424  9788 net.cpp:150] Setting up conv4_3_norm_mbox_conf_flat
I0602 16:55:09.824431  9788 net.cpp:157] Top shape: 32 23104 (739328)
I0602 16:55:09.824435  9788 net.cpp:165] Memory required for data: 7925252128
I0602 16:55:09.824440  9788 layer_factory.hpp:77] Creating layer conv4_3_norm_mbox_priorbox
I0602 16:55:09.824447  9788 net.cpp:100] Creating Layer conv4_3_norm_mbox_priorbox
I0602 16:55:09.824452  9788 net.cpp:434] conv4_3_norm_mbox_priorbox <- conv4_3_norm_conv4_3_norm_0_split_2
I0602 16:55:09.824458  9788 net.cpp:434] conv4_3_norm_mbox_priorbox <- data_data_0_split_1
I0602 16:55:09.824467  9788 net.cpp:408] conv4_3_norm_mbox_priorbox -> conv4_3_norm_mbox_priorbox
I0602 16:55:09.824493  9788 net.cpp:150] Setting up conv4_3_norm_mbox_priorbox
I0602 16:55:09.824501  9788 net.cpp:157] Top shape: 1 2 23104 (46208)
I0602 16:55:09.824506  9788 net.cpp:165] Memory required for data: 7925436960
I0602 16:55:09.824511  9788 layer_factory.hpp:77] Creating layer fc7_mbox_loc
I0602 16:55:09.824520  9788 net.cpp:100] Creating Layer fc7_mbox_loc
I0602 16:55:09.824524  9788 net.cpp:434] fc7_mbox_loc <- fc7_relu7_0_split_1
I0602 16:55:09.824532  9788 net.cpp:408] fc7_mbox_loc -> fc7_mbox_loc
I0602 16:55:09.826975  9788 net.cpp:150] Setting up fc7_mbox_loc
I0602 16:55:09.826988  9788 net.cpp:157] Top shape: 32 24 19 19 (277248)
I0602 16:55:09.826992  9788 net.cpp:165] Memory required for data: 7926545952
I0602 16:55:09.826999  9788 layer_factory.hpp:77] Creating layer fc7_mbox_loc_perm
I0602 16:55:09.827008  9788 net.cpp:100] Creating Layer fc7_mbox_loc_perm
I0602 16:55:09.827015  9788 net.cpp:434] fc7_mbox_loc_perm <- fc7_mbox_loc
I0602 16:55:09.827023  9788 net.cpp:408] fc7_mbox_loc_perm -> fc7_mbox_loc_perm
I0602 16:55:09.827122  9788 net.cpp:150] Setting up fc7_mbox_loc_perm
I0602 16:55:09.827129  9788 net.cpp:157] Top shape: 32 19 19 24 (277248)
I0602 16:55:09.827133  9788 net.cpp:165] Memory required for data: 7927654944
I0602 16:55:09.827137  9788 layer_factory.hpp:77] Creating layer fc7_mbox_loc_flat
I0602 16:55:09.827144  9788 net.cpp:100] Creating Layer fc7_mbox_loc_flat
I0602 16:55:09.827149  9788 net.cpp:434] fc7_mbox_loc_flat <- fc7_mbox_loc_perm
I0602 16:55:09.827155  9788 net.cpp:408] fc7_mbox_loc_flat -> fc7_mbox_loc_flat
I0602 16:55:09.827178  9788 net.cpp:150] Setting up fc7_mbox_loc_flat
I0602 16:55:09.827184  9788 net.cpp:157] Top shape: 32 8664 (277248)
I0602 16:55:09.827189  9788 net.cpp:165] Memory required for data: 7928763936
I0602 16:55:09.827193  9788 layer_factory.hpp:77] Creating layer fc7_mbox_conf
I0602 16:55:09.827203  9788 net.cpp:100] Creating Layer fc7_mbox_conf
I0602 16:55:09.827208  9788 net.cpp:434] fc7_mbox_conf <- fc7_relu7_0_split_2
I0602 16:55:09.827215  9788 net.cpp:408] fc7_mbox_conf -> fc7_mbox_conf
I0602 16:55:09.829792  9788 net.cpp:150] Setting up fc7_mbox_conf
I0602 16:55:09.829807  9788 net.cpp:157] Top shape: 32 24 19 19 (277248)
I0602 16:55:09.829809  9788 net.cpp:165] Memory required for data: 7929872928
I0602 16:55:09.829818  9788 layer_factory.hpp:77] Creating layer fc7_mbox_conf_perm
I0602 16:55:09.829829  9788 net.cpp:100] Creating Layer fc7_mbox_conf_perm
I0602 16:55:09.829836  9788 net.cpp:434] fc7_mbox_conf_perm <- fc7_mbox_conf
I0602 16:55:09.829843  9788 net.cpp:408] fc7_mbox_conf_perm -> fc7_mbox_conf_perm
I0602 16:55:09.829938  9788 net.cpp:150] Setting up fc7_mbox_conf_perm
I0602 16:55:09.829946  9788 net.cpp:157] Top shape: 32 19 19 24 (277248)
I0602 16:55:09.829949  9788 net.cpp:165] Memory required for data: 7930981920
I0602 16:55:09.829952  9788 layer_factory.hpp:77] Creating layer fc7_mbox_conf_flat
I0602 16:55:09.829959  9788 net.cpp:100] Creating Layer fc7_mbox_conf_flat
I0602 16:55:09.829967  9788 net.cpp:434] fc7_mbox_conf_flat <- fc7_mbox_conf_perm
I0602 16:55:09.829972  9788 net.cpp:408] fc7_mbox_conf_flat -> fc7_mbox_conf_flat
I0602 16:55:09.829998  9788 net.cpp:150] Setting up fc7_mbox_conf_flat
I0602 16:55:09.830004  9788 net.cpp:157] Top shape: 32 8664 (277248)
I0602 16:55:09.830008  9788 net.cpp:165] Memory required for data: 7932090912
I0602 16:55:09.830020  9788 layer_factory.hpp:77] Creating layer fc7_mbox_priorbox
I0602 16:55:09.830029  9788 net.cpp:100] Creating Layer fc7_mbox_priorbox
I0602 16:55:09.830034  9788 net.cpp:434] fc7_mbox_priorbox <- fc7_relu7_0_split_3
I0602 16:55:09.830040  9788 net.cpp:434] fc7_mbox_priorbox <- data_data_0_split_2
I0602 16:55:09.830047  9788 net.cpp:408] fc7_mbox_priorbox -> fc7_mbox_priorbox
I0602 16:55:09.830076  9788 net.cpp:150] Setting up fc7_mbox_priorbox
I0602 16:55:09.830083  9788 net.cpp:157] Top shape: 1 2 8664 (17328)
I0602 16:55:09.830087  9788 net.cpp:165] Memory required for data: 7932160224
I0602 16:55:09.830091  9788 layer_factory.hpp:77] Creating layer conv6_2_mbox_loc
I0602 16:55:09.830101  9788 net.cpp:100] Creating Layer conv6_2_mbox_loc
I0602 16:55:09.830106  9788 net.cpp:434] conv6_2_mbox_loc <- conv6_2_conv6_2_relu_0_split_1
I0602 16:55:09.830116  9788 net.cpp:408] conv6_2_mbox_loc -> conv6_2_mbox_loc
I0602 16:55:09.832054  9788 net.cpp:150] Setting up conv6_2_mbox_loc
I0602 16:55:09.832065  9788 net.cpp:157] Top shape: 32 24 10 10 (76800)
I0602 16:55:09.832069  9788 net.cpp:165] Memory required for data: 7932467424
I0602 16:55:09.832077  9788 layer_factory.hpp:77] Creating layer conv6_2_mbox_loc_perm
I0602 16:55:09.832087  9788 net.cpp:100] Creating Layer conv6_2_mbox_loc_perm
I0602 16:55:09.832093  9788 net.cpp:434] conv6_2_mbox_loc_perm <- conv6_2_mbox_loc
I0602 16:55:09.832100  9788 net.cpp:408] conv6_2_mbox_loc_perm -> conv6_2_mbox_loc_perm
I0602 16:55:09.832188  9788 net.cpp:150] Setting up conv6_2_mbox_loc_perm
I0602 16:55:09.832195  9788 net.cpp:157] Top shape: 32 10 10 24 (76800)
I0602 16:55:09.832198  9788 net.cpp:165] Memory required for data: 7932774624
I0602 16:55:09.832202  9788 layer_factory.hpp:77] Creating layer conv6_2_mbox_loc_flat
I0602 16:55:09.832209  9788 net.cpp:100] Creating Layer conv6_2_mbox_loc_flat
I0602 16:55:09.832214  9788 net.cpp:434] conv6_2_mbox_loc_flat <- conv6_2_mbox_loc_perm
I0602 16:55:09.832221  9788 net.cpp:408] conv6_2_mbox_loc_flat -> conv6_2_mbox_loc_flat
I0602 16:55:09.832243  9788 net.cpp:150] Setting up conv6_2_mbox_loc_flat
I0602 16:55:09.832250  9788 net.cpp:157] Top shape: 32 2400 (76800)
I0602 16:55:09.832253  9788 net.cpp:165] Memory required for data: 7933081824
I0602 16:55:09.832257  9788 layer_factory.hpp:77] Creating layer conv6_2_mbox_conf
I0602 16:55:09.832267  9788 net.cpp:100] Creating Layer conv6_2_mbox_conf
I0602 16:55:09.832273  9788 net.cpp:434] conv6_2_mbox_conf <- conv6_2_conv6_2_relu_0_split_2
I0602 16:55:09.832280  9788 net.cpp:408] conv6_2_mbox_conf -> conv6_2_mbox_conf
I0602 16:55:09.834187  9788 net.cpp:150] Setting up conv6_2_mbox_conf
I0602 16:55:09.834198  9788 net.cpp:157] Top shape: 32 24 10 10 (76800)
I0602 16:55:09.834203  9788 net.cpp:165] Memory required for data: 7933389024
I0602 16:55:09.834210  9788 layer_factory.hpp:77] Creating layer conv6_2_mbox_conf_perm
I0602 16:55:09.834219  9788 net.cpp:100] Creating Layer conv6_2_mbox_conf_perm
I0602 16:55:09.834224  9788 net.cpp:434] conv6_2_mbox_conf_perm <- conv6_2_mbox_conf
I0602 16:55:09.834233  9788 net.cpp:408] conv6_2_mbox_conf_perm -> conv6_2_mbox_conf_perm
I0602 16:55:09.834321  9788 net.cpp:150] Setting up conv6_2_mbox_conf_perm
I0602 16:55:09.834328  9788 net.cpp:157] Top shape: 32 10 10 24 (76800)
I0602 16:55:09.834331  9788 net.cpp:165] Memory required for data: 7933696224
I0602 16:55:09.834336  9788 layer_factory.hpp:77] Creating layer conv6_2_mbox_conf_flat
I0602 16:55:09.834342  9788 net.cpp:100] Creating Layer conv6_2_mbox_conf_flat
I0602 16:55:09.834347  9788 net.cpp:434] conv6_2_mbox_conf_flat <- conv6_2_mbox_conf_perm
I0602 16:55:09.834353  9788 net.cpp:408] conv6_2_mbox_conf_flat -> conv6_2_mbox_conf_flat
I0602 16:55:09.834379  9788 net.cpp:150] Setting up conv6_2_mbox_conf_flat
I0602 16:55:09.834385  9788 net.cpp:157] Top shape: 32 2400 (76800)
I0602 16:55:09.834388  9788 net.cpp:165] Memory required for data: 7934003424
I0602 16:55:09.834393  9788 layer_factory.hpp:77] Creating layer conv6_2_mbox_priorbox
I0602 16:55:09.834409  9788 net.cpp:100] Creating Layer conv6_2_mbox_priorbox
I0602 16:55:09.834415  9788 net.cpp:434] conv6_2_mbox_priorbox <- conv6_2_conv6_2_relu_0_split_3
I0602 16:55:09.834421  9788 net.cpp:434] conv6_2_mbox_priorbox <- data_data_0_split_3
I0602 16:55:09.834429  9788 net.cpp:408] conv6_2_mbox_priorbox -> conv6_2_mbox_priorbox
I0602 16:55:09.834456  9788 net.cpp:150] Setting up conv6_2_mbox_priorbox
I0602 16:55:09.834462  9788 net.cpp:157] Top shape: 1 2 2400 (4800)
I0602 16:55:09.834465  9788 net.cpp:165] Memory required for data: 7934022624
I0602 16:55:09.834470  9788 layer_factory.hpp:77] Creating layer conv7_2_mbox_loc
I0602 16:55:09.834480  9788 net.cpp:100] Creating Layer conv7_2_mbox_loc
I0602 16:55:09.834484  9788 net.cpp:434] conv7_2_mbox_loc <- conv7_2_conv7_2_relu_0_split_1
I0602 16:55:09.834492  9788 net.cpp:408] conv7_2_mbox_loc -> conv7_2_mbox_loc
I0602 16:55:09.835754  9788 net.cpp:150] Setting up conv7_2_mbox_loc
I0602 16:55:09.835765  9788 net.cpp:157] Top shape: 32 24 5 5 (19200)
I0602 16:55:09.835769  9788 net.cpp:165] Memory required for data: 7934099424
I0602 16:55:09.835777  9788 layer_factory.hpp:77] Creating layer conv7_2_mbox_loc_perm
I0602 16:55:09.835784  9788 net.cpp:100] Creating Layer conv7_2_mbox_loc_perm
I0602 16:55:09.835790  9788 net.cpp:434] conv7_2_mbox_loc_perm <- conv7_2_mbox_loc
I0602 16:55:09.835798  9788 net.cpp:408] conv7_2_mbox_loc_perm -> conv7_2_mbox_loc_perm
I0602 16:55:09.835886  9788 net.cpp:150] Setting up conv7_2_mbox_loc_perm
I0602 16:55:09.835892  9788 net.cpp:157] Top shape: 32 5 5 24 (19200)
I0602 16:55:09.835897  9788 net.cpp:165] Memory required for data: 7934176224
I0602 16:55:09.835901  9788 layer_factory.hpp:77] Creating layer conv7_2_mbox_loc_flat
I0602 16:55:09.835907  9788 net.cpp:100] Creating Layer conv7_2_mbox_loc_flat
I0602 16:55:09.835912  9788 net.cpp:434] conv7_2_mbox_loc_flat <- conv7_2_mbox_loc_perm
I0602 16:55:09.835919  9788 net.cpp:408] conv7_2_mbox_loc_flat -> conv7_2_mbox_loc_flat
I0602 16:55:09.835942  9788 net.cpp:150] Setting up conv7_2_mbox_loc_flat
I0602 16:55:09.835948  9788 net.cpp:157] Top shape: 32 600 (19200)
I0602 16:55:09.835952  9788 net.cpp:165] Memory required for data: 7934253024
I0602 16:55:09.835955  9788 layer_factory.hpp:77] Creating layer conv7_2_mbox_conf
I0602 16:55:09.835966  9788 net.cpp:100] Creating Layer conv7_2_mbox_conf
I0602 16:55:09.835970  9788 net.cpp:434] conv7_2_mbox_conf <- conv7_2_conv7_2_relu_0_split_2
I0602 16:55:09.835978  9788 net.cpp:408] conv7_2_mbox_conf -> conv7_2_mbox_conf
I0602 16:55:09.837672  9788 net.cpp:150] Setting up conv7_2_mbox_conf
I0602 16:55:09.837683  9788 net.cpp:157] Top shape: 32 24 5 5 (19200)
I0602 16:55:09.837687  9788 net.cpp:165] Memory required for data: 7934329824
I0602 16:55:09.837693  9788 layer_factory.hpp:77] Creating layer conv7_2_mbox_conf_perm
I0602 16:55:09.837702  9788 net.cpp:100] Creating Layer conv7_2_mbox_conf_perm
I0602 16:55:09.837707  9788 net.cpp:434] conv7_2_mbox_conf_perm <- conv7_2_mbox_conf
I0602 16:55:09.837714  9788 net.cpp:408] conv7_2_mbox_conf_perm -> conv7_2_mbox_conf_perm
I0602 16:55:09.837805  9788 net.cpp:150] Setting up conv7_2_mbox_conf_perm
I0602 16:55:09.837813  9788 net.cpp:157] Top shape: 32 5 5 24 (19200)
I0602 16:55:09.837817  9788 net.cpp:165] Memory required for data: 7934406624
I0602 16:55:09.837821  9788 layer_factory.hpp:77] Creating layer conv7_2_mbox_conf_flat
I0602 16:55:09.837826  9788 net.cpp:100] Creating Layer conv7_2_mbox_conf_flat
I0602 16:55:09.837831  9788 net.cpp:434] conv7_2_mbox_conf_flat <- conv7_2_mbox_conf_perm
I0602 16:55:09.837839  9788 net.cpp:408] conv7_2_mbox_conf_flat -> conv7_2_mbox_conf_flat
I0602 16:55:09.837862  9788 net.cpp:150] Setting up conv7_2_mbox_conf_flat
I0602 16:55:09.837867  9788 net.cpp:157] Top shape: 32 600 (19200)
I0602 16:55:09.837872  9788 net.cpp:165] Memory required for data: 7934483424
I0602 16:55:09.837875  9788 layer_factory.hpp:77] Creating layer conv7_2_mbox_priorbox
I0602 16:55:09.837883  9788 net.cpp:100] Creating Layer conv7_2_mbox_priorbox
I0602 16:55:09.837888  9788 net.cpp:434] conv7_2_mbox_priorbox <- conv7_2_conv7_2_relu_0_split_3
I0602 16:55:09.837904  9788 net.cpp:434] conv7_2_mbox_priorbox <- data_data_0_split_4
I0602 16:55:09.837913  9788 net.cpp:408] conv7_2_mbox_priorbox -> conv7_2_mbox_priorbox
I0602 16:55:09.837939  9788 net.cpp:150] Setting up conv7_2_mbox_priorbox
I0602 16:55:09.837945  9788 net.cpp:157] Top shape: 1 2 600 (1200)
I0602 16:55:09.837949  9788 net.cpp:165] Memory required for data: 7934488224
I0602 16:55:09.837952  9788 layer_factory.hpp:77] Creating layer conv8_2_mbox_loc
I0602 16:55:09.837965  9788 net.cpp:100] Creating Layer conv8_2_mbox_loc
I0602 16:55:09.837968  9788 net.cpp:434] conv8_2_mbox_loc <- conv8_2_conv8_2_relu_0_split_1
I0602 16:55:09.837977  9788 net.cpp:408] conv8_2_mbox_loc -> conv8_2_mbox_loc
I0602 16:55:09.839668  9788 net.cpp:150] Setting up conv8_2_mbox_loc
I0602 16:55:09.839680  9788 net.cpp:157] Top shape: 32 16 3 3 (4608)
I0602 16:55:09.839684  9788 net.cpp:165] Memory required for data: 7934506656
I0602 16:55:09.839702  9788 layer_factory.hpp:77] Creating layer conv8_2_mbox_loc_perm
I0602 16:55:09.839712  9788 net.cpp:100] Creating Layer conv8_2_mbox_loc_perm
I0602 16:55:09.839718  9788 net.cpp:434] conv8_2_mbox_loc_perm <- conv8_2_mbox_loc
I0602 16:55:09.839727  9788 net.cpp:408] conv8_2_mbox_loc_perm -> conv8_2_mbox_loc_perm
I0602 16:55:09.839819  9788 net.cpp:150] Setting up conv8_2_mbox_loc_perm
I0602 16:55:09.839828  9788 net.cpp:157] Top shape: 32 3 3 16 (4608)
I0602 16:55:09.839833  9788 net.cpp:165] Memory required for data: 7934525088
I0602 16:55:09.839836  9788 layer_factory.hpp:77] Creating layer conv8_2_mbox_loc_flat
I0602 16:55:09.839841  9788 net.cpp:100] Creating Layer conv8_2_mbox_loc_flat
I0602 16:55:09.839848  9788 net.cpp:434] conv8_2_mbox_loc_flat <- conv8_2_mbox_loc_perm
I0602 16:55:09.839854  9788 net.cpp:408] conv8_2_mbox_loc_flat -> conv8_2_mbox_loc_flat
I0602 16:55:09.839879  9788 net.cpp:150] Setting up conv8_2_mbox_loc_flat
I0602 16:55:09.839885  9788 net.cpp:157] Top shape: 32 144 (4608)
I0602 16:55:09.839890  9788 net.cpp:165] Memory required for data: 7934543520
I0602 16:55:09.839892  9788 layer_factory.hpp:77] Creating layer conv8_2_mbox_conf
I0602 16:55:09.839903  9788 net.cpp:100] Creating Layer conv8_2_mbox_conf
I0602 16:55:09.839908  9788 net.cpp:434] conv8_2_mbox_conf <- conv8_2_conv8_2_relu_0_split_2
I0602 16:55:09.839916  9788 net.cpp:408] conv8_2_mbox_conf -> conv8_2_mbox_conf
I0602 16:55:09.841543  9788 net.cpp:150] Setting up conv8_2_mbox_conf
I0602 16:55:09.841554  9788 net.cpp:157] Top shape: 32 16 3 3 (4608)
I0602 16:55:09.841558  9788 net.cpp:165] Memory required for data: 7934561952
I0602 16:55:09.841567  9788 layer_factory.hpp:77] Creating layer conv8_2_mbox_conf_perm
I0602 16:55:09.841575  9788 net.cpp:100] Creating Layer conv8_2_mbox_conf_perm
I0602 16:55:09.841580  9788 net.cpp:434] conv8_2_mbox_conf_perm <- conv8_2_mbox_conf
I0602 16:55:09.841588  9788 net.cpp:408] conv8_2_mbox_conf_perm -> conv8_2_mbox_conf_perm
I0602 16:55:09.841676  9788 net.cpp:150] Setting up conv8_2_mbox_conf_perm
I0602 16:55:09.841682  9788 net.cpp:157] Top shape: 32 3 3 16 (4608)
I0602 16:55:09.841686  9788 net.cpp:165] Memory required for data: 7934580384
I0602 16:55:09.841691  9788 layer_factory.hpp:77] Creating layer conv8_2_mbox_conf_flat
I0602 16:55:09.841696  9788 net.cpp:100] Creating Layer conv8_2_mbox_conf_flat
I0602 16:55:09.841701  9788 net.cpp:434] conv8_2_mbox_conf_flat <- conv8_2_mbox_conf_perm
I0602 16:55:09.841709  9788 net.cpp:408] conv8_2_mbox_conf_flat -> conv8_2_mbox_conf_flat
I0602 16:55:09.841732  9788 net.cpp:150] Setting up conv8_2_mbox_conf_flat
I0602 16:55:09.841738  9788 net.cpp:157] Top shape: 32 144 (4608)
I0602 16:55:09.841742  9788 net.cpp:165] Memory required for data: 7934598816
I0602 16:55:09.841745  9788 layer_factory.hpp:77] Creating layer conv8_2_mbox_priorbox
I0602 16:55:09.841753  9788 net.cpp:100] Creating Layer conv8_2_mbox_priorbox
I0602 16:55:09.841758  9788 net.cpp:434] conv8_2_mbox_priorbox <- conv8_2_conv8_2_relu_0_split_3
I0602 16:55:09.841763  9788 net.cpp:434] conv8_2_mbox_priorbox <- data_data_0_split_5
I0602 16:55:09.841780  9788 net.cpp:408] conv8_2_mbox_priorbox -> conv8_2_mbox_priorbox
I0602 16:55:09.841807  9788 net.cpp:150] Setting up conv8_2_mbox_priorbox
I0602 16:55:09.841814  9788 net.cpp:157] Top shape: 1 2 144 (288)
I0602 16:55:09.841817  9788 net.cpp:165] Memory required for data: 7934599968
I0602 16:55:09.841821  9788 layer_factory.hpp:77] Creating layer conv9_2_mbox_loc
I0602 16:55:09.841831  9788 net.cpp:100] Creating Layer conv9_2_mbox_loc
I0602 16:55:09.841836  9788 net.cpp:434] conv9_2_mbox_loc <- conv9_2_conv9_2_relu_0_split_0
I0602 16:55:09.841843  9788 net.cpp:408] conv9_2_mbox_loc -> conv9_2_mbox_loc
I0602 16:55:09.843469  9788 net.cpp:150] Setting up conv9_2_mbox_loc
I0602 16:55:09.843482  9788 net.cpp:157] Top shape: 32 16 1 1 (512)
I0602 16:55:09.843485  9788 net.cpp:165] Memory required for data: 7934602016
I0602 16:55:09.843492  9788 layer_factory.hpp:77] Creating layer conv9_2_mbox_loc_perm
I0602 16:55:09.843502  9788 net.cpp:100] Creating Layer conv9_2_mbox_loc_perm
I0602 16:55:09.843519  9788 net.cpp:434] conv9_2_mbox_loc_perm <- conv9_2_mbox_loc
I0602 16:55:09.843530  9788 net.cpp:408] conv9_2_mbox_loc_perm -> conv9_2_mbox_loc_perm
I0602 16:55:09.843673  9788 net.cpp:150] Setting up conv9_2_mbox_loc_perm
I0602 16:55:09.843684  9788 net.cpp:157] Top shape: 32 1 1 16 (512)
I0602 16:55:09.843688  9788 net.cpp:165] Memory required for data: 7934604064
I0602 16:55:09.843693  9788 layer_factory.hpp:77] Creating layer conv9_2_mbox_loc_flat
I0602 16:55:09.843698  9788 net.cpp:100] Creating Layer conv9_2_mbox_loc_flat
I0602 16:55:09.843704  9788 net.cpp:434] conv9_2_mbox_loc_flat <- conv9_2_mbox_loc_perm
I0602 16:55:09.843713  9788 net.cpp:408] conv9_2_mbox_loc_flat -> conv9_2_mbox_loc_flat
I0602 16:55:09.843744  9788 net.cpp:150] Setting up conv9_2_mbox_loc_flat
I0602 16:55:09.843752  9788 net.cpp:157] Top shape: 32 16 (512)
I0602 16:55:09.843756  9788 net.cpp:165] Memory required for data: 7934606112
I0602 16:55:09.843760  9788 layer_factory.hpp:77] Creating layer conv9_2_mbox_conf
I0602 16:55:09.843773  9788 net.cpp:100] Creating Layer conv9_2_mbox_conf
I0602 16:55:09.843778  9788 net.cpp:434] conv9_2_mbox_conf <- conv9_2_conv9_2_relu_0_split_1
I0602 16:55:09.843789  9788 net.cpp:408] conv9_2_mbox_conf -> conv9_2_mbox_conf
I0602 16:55:09.846333  9788 net.cpp:150] Setting up conv9_2_mbox_conf
I0602 16:55:09.846345  9788 net.cpp:157] Top shape: 32 16 1 1 (512)
I0602 16:55:09.846348  9788 net.cpp:165] Memory required for data: 7934608160
I0602 16:55:09.846354  9788 layer_factory.hpp:77] Creating layer conv9_2_mbox_conf_perm
I0602 16:55:09.846361  9788 net.cpp:100] Creating Layer conv9_2_mbox_conf_perm
I0602 16:55:09.846369  9788 net.cpp:434] conv9_2_mbox_conf_perm <- conv9_2_mbox_conf
I0602 16:55:09.846379  9788 net.cpp:408] conv9_2_mbox_conf_perm -> conv9_2_mbox_conf_perm
I0602 16:55:09.846511  9788 net.cpp:150] Setting up conv9_2_mbox_conf_perm
I0602 16:55:09.846521  9788 net.cpp:157] Top shape: 32 1 1 16 (512)
I0602 16:55:09.846526  9788 net.cpp:165] Memory required for data: 7934610208
I0602 16:55:09.846530  9788 layer_factory.hpp:77] Creating layer conv9_2_mbox_conf_flat
I0602 16:55:09.846537  9788 net.cpp:100] Creating Layer conv9_2_mbox_conf_flat
I0602 16:55:09.846542  9788 net.cpp:434] conv9_2_mbox_conf_flat <- conv9_2_mbox_conf_perm
I0602 16:55:09.846549  9788 net.cpp:408] conv9_2_mbox_conf_flat -> conv9_2_mbox_conf_flat
I0602 16:55:09.846575  9788 net.cpp:150] Setting up conv9_2_mbox_conf_flat
I0602 16:55:09.846581  9788 net.cpp:157] Top shape: 32 16 (512)
I0602 16:55:09.846582  9788 net.cpp:165] Memory required for data: 7934612256
I0602 16:55:09.846585  9788 layer_factory.hpp:77] Creating layer conv9_2_mbox_priorbox
I0602 16:55:09.846591  9788 net.cpp:100] Creating Layer conv9_2_mbox_priorbox
I0602 16:55:09.846595  9788 net.cpp:434] conv9_2_mbox_priorbox <- conv9_2_conv9_2_relu_0_split_2
I0602 16:55:09.846597  9788 net.cpp:434] conv9_2_mbox_priorbox <- data_data_0_split_6
I0602 16:55:09.846601  9788 net.cpp:408] conv9_2_mbox_priorbox -> conv9_2_mbox_priorbox
I0602 16:55:09.846643  9788 net.cpp:150] Setting up conv9_2_mbox_priorbox
I0602 16:55:09.846652  9788 net.cpp:157] Top shape: 1 2 16 (32)
I0602 16:55:09.846654  9788 net.cpp:165] Memory required for data: 7934612384
I0602 16:55:09.846659  9788 layer_factory.hpp:77] Creating layer mbox_loc
I0602 16:55:09.846667  9788 net.cpp:100] Creating Layer mbox_loc
I0602 16:55:09.846673  9788 net.cpp:434] mbox_loc <- conv4_3_norm_mbox_loc_flat
I0602 16:55:09.846678  9788 net.cpp:434] mbox_loc <- fc7_mbox_loc_flat
I0602 16:55:09.846684  9788 net.cpp:434] mbox_loc <- conv6_2_mbox_loc_flat
I0602 16:55:09.846688  9788 net.cpp:434] mbox_loc <- conv7_2_mbox_loc_flat
I0602 16:55:09.846693  9788 net.cpp:434] mbox_loc <- conv8_2_mbox_loc_flat
I0602 16:55:09.846698  9788 net.cpp:434] mbox_loc <- conv9_2_mbox_loc_flat
I0602 16:55:09.846702  9788 net.cpp:408] mbox_loc -> mbox_loc
I0602 16:55:09.846735  9788 net.cpp:150] Setting up mbox_loc
I0602 16:55:09.846740  9788 net.cpp:157] Top shape: 32 34928 (1117696)
I0602 16:55:09.846743  9788 net.cpp:165] Memory required for data: 7939083168
I0602 16:55:09.846747  9788 layer_factory.hpp:77] Creating layer mbox_conf
I0602 16:55:09.846752  9788 net.cpp:100] Creating Layer mbox_conf
I0602 16:55:09.846755  9788 net.cpp:434] mbox_conf <- conv4_3_norm_mbox_conf_flat
I0602 16:55:09.846760  9788 net.cpp:434] mbox_conf <- fc7_mbox_conf_flat
I0602 16:55:09.846765  9788 net.cpp:434] mbox_conf <- conv6_2_mbox_conf_flat
I0602 16:55:09.846768  9788 net.cpp:434] mbox_conf <- conv7_2_mbox_conf_flat
I0602 16:55:09.846771  9788 net.cpp:434] mbox_conf <- conv8_2_mbox_conf_flat
I0602 16:55:09.846776  9788 net.cpp:434] mbox_conf <- conv9_2_mbox_conf_flat
I0602 16:55:09.846781  9788 net.cpp:408] mbox_conf -> mbox_conf
I0602 16:55:09.846807  9788 net.cpp:150] Setting up mbox_conf
I0602 16:55:09.846812  9788 net.cpp:157] Top shape: 32 34928 (1117696)
I0602 16:55:09.846815  9788 net.cpp:165] Memory required for data: 7943553952
I0602 16:55:09.846818  9788 layer_factory.hpp:77] Creating layer mbox_priorbox
I0602 16:55:09.846824  9788 net.cpp:100] Creating Layer mbox_priorbox
I0602 16:55:09.846829  9788 net.cpp:434] mbox_priorbox <- conv4_3_norm_mbox_priorbox
I0602 16:55:09.846833  9788 net.cpp:434] mbox_priorbox <- fc7_mbox_priorbox
I0602 16:55:09.846837  9788 net.cpp:434] mbox_priorbox <- conv6_2_mbox_priorbox
I0602 16:55:09.846842  9788 net.cpp:434] mbox_priorbox <- conv7_2_mbox_priorbox
I0602 16:55:09.846844  9788 net.cpp:434] mbox_priorbox <- conv8_2_mbox_priorbox
I0602 16:55:09.846848  9788 net.cpp:434] mbox_priorbox <- conv9_2_mbox_priorbox
I0602 16:55:09.846853  9788 net.cpp:408] mbox_priorbox -> mbox_priorbox
I0602 16:55:09.846879  9788 net.cpp:150] Setting up mbox_priorbox
I0602 16:55:09.846885  9788 net.cpp:157] Top shape: 1 2 34928 (69856)
I0602 16:55:09.846890  9788 net.cpp:165] Memory required for data: 7943833376
I0602 16:55:09.846895  9788 layer_factory.hpp:77] Creating layer mbox_loss
I0602 16:55:09.846906  9788 net.cpp:100] Creating Layer mbox_loss
I0602 16:55:09.846911  9788 net.cpp:434] mbox_loss <- mbox_loc
I0602 16:55:09.846916  9788 net.cpp:434] mbox_loss <- mbox_conf
I0602 16:55:09.846922  9788 net.cpp:434] mbox_loss <- mbox_priorbox
…
  name: "data"
  type: "AnnotatedData"
  top: "data"
  top: "label"
  include {
    phase: TEST
  }
  transform_param {
    mean_value: 104
    mean_value: 117
    mean_value: 123
    resize_param {
      prob: 1
      resize_mode: WARP
      height: 300
      width: 300
      interp_mode: LINEAR
    }
  }
  data_param {
    source: "examples/tbs_300x300_HSIL_10x/tbs_300x300_HSIL_10x_test_lmdb"
    batch_size: 4
    backend: LMDB
  }
  annotated_data_param {
    batch_sampler {
    }
    label_map_file: "data/tbs_300x300_HSIL_10x/labelmap_voc.prototxt"
  }
}
layer {
  name: "conv1_1"
  type: "Convolution"
  bottom: "data"
  top: "conv1_1"
  param {
    lr_mult: 1
    decay_mult: 1
  }
  param {
    lr_mult: 2
    decay_mult: 0
  }
  convolution_param {
    num_output: 64
    pad: 1
    kernel_size: 3
    weight_filler {
      type: "xavier"
    }
    bias_filler {
      type: "constant"
      value: 0
    }
  }
}
layer {
  name: "relu1_1"
  type: "ReLU"
  bottom: "conv1_1"
  top: "conv1_1"
}
layer {
  name: "conv1_2"
  type: "Convolution"
  bottom: "conv1_1"
  top: "conv1_2"
  param {
    lr_mult: 1
    decay_mult: 1
  }
  param {
    lr_mult: 2
    decay_mult: 0
  }
  convolution_param {
    num_output: 64
    pad: 1
    kernel_size: 3
    weight_filler {
      type: "xavier"
    }
    bias_filler {
      type: "constant"
      value: 0
    }
  }
}
layer {
  name: "relu1_2"
  type: "ReLU"
  bottom: "conv1_2"
  top: "conv1_2"
}
layer {
  name: "pool1"
  type: "Pooling"
  bottom: "conv1_2"
  top: "pool1"
  pooling_param {
    pool: MAX
    kernel_size: 2
    stride: 2
  }
}
layer {
  name: "conv2_1"
  type: "Convolution"
  bottom: "pool1"
  top: "conv2_1"
  param {
    lr_mult: 1
    decay_mult: 1
  }
  param {
    lr_mult: 2
    decay_mult: 0
  }
  convolution_param {
    num_output: 128
    pad: 1
    kernel_size: 3
    weight_filler {
      type: "xavier"
    }
    bias_filler {
      type: "constant"
      value: 0
    }
  }
}
layer {
  name: "relu2_1"
  type: "ReLU"
  bottom: "conv2_1"
  top: "conv2_1"
}
layer {
  name: "conv2_2"
  type: "Convolution"
  bottom: "conv2_1"
  top: "conv2_2"
  param {
    lr_mult: 1
    decay_mult: 1
  }
  param {
    lr_mult: 2
    decay_mult: 0
  }
  convolution_param {
    num_output: 128
    pad: 1
    kernel_size: 3
    weight_filler {
      type: "xavier"
    }
    bias_filler {
      type: "constant"
      value: 0
    }
  }
}
layer {
  name: "relu2_2"
  type: "ReLU"
  bottom: "conv2_2"
  top: "conv2_2"
}
layer {
  name: "pool2"
  type: "Pooling"
  bottom: "conv2_2"
  top: "pool2"
  pooling_param {
    pool: MAX
    kernel_size: 2
    stride: 2
  }
}
layer {
  name: "conv3_1"
  type: "Convolution"
  bottom: "pool2"
  top: "conv3_1"
  param {
    lr_mult: 1
    decay_mult: 1
  }
  param {
    lr_mult: 2
    decay_mult: 0
  }
  convolution_param {
    num_output: 256
    pad: 1
    kernel_size: 3
    weight_filler {
      type: "xavier"
    }
    bias_filler {
      type: "constant"
      value: 0
    }
  }
}
layer {
  name: "relu3_1"
  type: "ReLU"
  bottom: "conv3_1"
  top: "conv3_1"
}
layer {
  name: "conv3_2"
  type: "Convolution"
  bottom: "conv3_1"
  top: "conv3_2"
  param {
    lr_mult: 1
    decay_mult: 1
  }
  param {
    lr_mult: 2
    decay_mult: 0
  }
  convolution_param {
    num_output: 256
    pad: 1
    kernel_size: 3
    weight_filler {
      type: "xavier"
    }
    bias_filler {
      type: "constant"
      value: 0
    }
  }
}
layer {
  name: "relu3_2"
  type: "ReLU"
  bottom: "conv3_2"
  top: "conv3_2"
}
layer {
  name: "conv3_3"
  type: "Convolution"
  bottom: "conv3_2"
  top: "conv3_3"
  param {
    lr_mult: 1
    decay_mult: 1
  }
  param {
    lr_mult: 2
    decay_mult: 0
  }
  convolution_param {
    num_output: 256
    pad: 1
    kernel_size: 3
    weight_filler {
      type: "xavier"
    }
    bias_filler {
      type: "constant"
      value: 0
    }
  }
}
layer {
  name: "relu3_3"
  type: "ReLU"
  bottom: "conv3_3"
  top: "conv3_3"
}
layer {
  name: "pool3"
  type: "Pooling"
  bottom: "conv3_3"
  top: "pool3"
  pooling_param {
    pool: MAX
    kernel_size: 2
    stride: 2
  }
}
layer {
  name: "conv4_1"
  type: "Convolution"
  bottom: "pool3"
  top: "conv4_1"
  param {
    lr_mult: 1
    decay_mult: 1
  }
  param {
    lr_mult: 2
    decay_mult: 0
  }
  convolution_param {
    num_output: 512
    pad: 1
    kernel_size: 3
    weight_filler {
      type: "xavier"
    }
    bias_filler {
      type: "constant"
      value: 0
    }
  }
}
layer {
  name: "relu4_1"
  type: "ReLU"
  bottom: "conv4_1"
  top: "conv4_1"
}
layer {
  name: "conv4_2"
  type: "Convolution"
  bottom: "conv4_1"
  top: "conv4_2"
  param {
    lr_mult: 1
    decay_mult: 1
  }
  param {
    lr_mult: 2
    decay_mult: 0
  }
  convolution_param {
    num_output: 512
    pad: 1
    kernel_size: 3
    weight_filler {
      type: "xavier"
    }
    bias_filler {
      type: "constant"
      value: 0
    }
  }
}
layer {
  name: "relu4_2"
  type: "ReLU"
  bottom: "conv4_2"
  top: "conv4_2"
}
layer {
  name: "conv4_3"
  type: "Convolution"
  bottom: "conv4_2"
  top: "conv4_3"
  param {
    lr_mult: 1
    decay_mult: 1
  }
  param {
    lr_mult: 2
    decay_mult: 0
  }
  convolution_param {
    num_output: 512
    pad: 1
    kernel_size: 3
    weight_filler {
      type: "xavier"
    }
    bias_filler {
      type: "constant"
      value: 0
    }
  }
}
layer {
  name: "relu4_3"
  type: "ReLU"
  bottom: "conv4_3"
  top: "conv4_3"
}
layer {
  name: "pool4"
  type: "Pooling"
  bottom: "conv4_3"
  top: "pool4"
  pooling_param {
    pool: MAX
    kernel_size: 2
    stride: 2
  }
}
layer {
  name: "conv5_1"
  type: "Convolution"
  bottom: "pool4"
  top: "conv5_1"
  param {
    lr_mult: 1
    decay_mult: 1
  }
  param {
    lr_mult: 2
    decay_mult: 0
  }
  convolution_param {
    num_output: 512
    pad: 1
    kernel_size: 3
    weight_filler {
      type: "xavier"
    }
    bias_filler {
      type: "constant"
      value: 0
    }
    dilation: 1
  }
}
layer {
  name: "relu5_1"
  type: "ReLU"
  bottom: "conv5_1"
  top: "conv5_1"
}
layer {
  name: "conv5_2"
  type: "Convolution"
  bottom: "conv5_1"
  top: "conv5_2"
  param {
    lr_mult: 1
    decay_mult: 1
  }
  param {
    lr_mult: 2
    decay_mult: 0
  }
  convolution_param {
    num_output: 512
    pad: 1
    kernel_size: 3
    weight_filler {
      type: "xavier"
    }
    bias_filler {
      type: "constant"
      value: 0
    }
    dilation: 1
  }
}
layer {
  name: "relu5_2"
  type: "ReLU"
  bottom: "conv5_2"
  top: "conv5_2"
}
layer {
  name: "conv5_3"
  type: "Convolution"
  bottom: "conv5_2"
  top: "conv5_3"
  param {
    lr_mult: 1
    decay_mult: 1
  }
  param {
    lr_mult: 2
    decay_mult: 0
  }
  convolution_param {
    num_output: 512
    pad: 1
    kernel_size: 3
    weight_filler {
      type: "xavier"
    }
    bias_filler {
      type: "constant"
      value: 0
    }
    dilation: 1
  }
}
layer {
  name: "relu5_3"
  type: "ReLU"
  bottom: "conv5_3"
  top: "conv5_3"
}
layer {
  name: "pool5"
  type: "Pooling"
  bottom: "conv5_3"
  top: "pool5"
  pooling_param {
    pool: MAX
    kernel_size: 3
    stride: 1
    pad: 1
  }
}
layer {
  name: "fc6"
  type: "Convolution"
  bottom: "pool5"
  top: "fc6"
  param {
    lr_mult: 1
    decay_mult: 1
  }
  param {
    lr_mult: 2
    decay_mult: 0
  }
  convolution_param {
    num_output: 1024
    pad: 6
    kernel_size: 3
    weight_filler {
      type: "xavier"
    }
    bias_filler {
      type: "constant"
      value: 0
    }
    dilation: 6
  }
}
layer {
  name: "relu6"
  type: "ReLU"
  bottom: "fc6"
  top: "fc6"
}
layer {
  name: "fc7"
  type: "Convolution"
  bottom: "fc6"
  top: "fc7"
  param {
    lr_mult: 1
    decay_mult: 1
  }
  param {
    lr_mult: 2
    decay_mult: 0
  }
  convolution_param {
    num_output: 1024
    kernel_size: 1
    weight_filler {
      type: "xavier"
    }
    bias_filler {
      type: "constant"
      value: 0
    }
  }
}
layer {
  name: "relu7"
  type: "ReLU"
  bottom: "fc7"
  top: "fc7"
}
layer {
  name: "conv6_1"
  type: "Convolution"
  bottom: "fc7"
  top: "conv6_1"
  param {
    lr_mult: 1
    decay_mult: 1
  }
  param {
    lr_mult: 2
    decay_mult: 0
  }
  convolution_param {
    num_output: 256
    pad: 0
    kernel_size: 1
    stride: 1
    weight_filler {
      type: "xavier"
    }
    bias_filler {
      type: "constant"
      value: 0
    }
  }
}
layer {
  name: "conv6_1_relu"
  type: "ReLU"
  bottom: "conv6_1"
  top: "conv6_1"
}
layer {
  name: "conv6_2"
  type: "Convolution"
  bottom: "conv6_1"
  top: "conv6_2"
  param {
    lr_mult: 1
    decay_mult: 1
  }
  param {
    lr_mult: 2
    decay_mult: 0
  }
  convolution_param {
    num_output: 512
    pad: 1
    kernel_size: 3
    stride: 2
    weight_filler {
      type: "xavier"
    }
    bias_filler {
      type: "constant"
      value: 0
    }
  }
}
layer {
  name: "conv6_2_relu"
  type: "ReLU"
  bottom: "conv6_2"
  top: "conv6_2"
}
layer {
  name: "conv7_1"
  type: "Convolution"
  bottom: "conv6_2"
  top: "conv7_1"
  param {
    lr_mult: 1
    decay_mult: 1
  }
  param {
    lr_mult: 2
    decay_mult: 0
  }
  convolution_param {
    num_output: 128
    pad: 0
    kernel_size: 1
    stride: 1
    weight_filler {
      type: "xavier"
    }
    bias_filler {
      type: "constant"
      value: 0
    }
  }
}
layer {
  name: "conv7_1_relu"
  type: "ReLU"
  bottom: "conv7_1"
  top: "conv7_1"
}
layer {
  name: "conv7_2"
  type: "Convolution"
  bottom: "conv7_1"
  top: "conv7_2"
  param {
    lr_mult: 1
    decay_mult: 1
  }
  param {
    lr_mult: 2
    decay_mult: 0
  }
  convolution_param {
    num_output: 256
    pad: 1
    kernel_size: 3
    stride: 2
    weight_filler {
      type: "xavier"
    }
    bias_filler {
      type: "constant"
      value: 0
    }
  }
}
layer {
  name: "conv7_2_relu"
  type: "ReLU"
  bottom: "conv7_2"
  top: "conv7_2"
}
layer {
  name: "conv8_1"
  type: "Convolution"
  bottom: "conv7_2"
  top: "conv8_1"
  param {
    lr_mult: 1
    decay_mult: 1
  }
  param {
    lr_mult: 2
    decay_mult: 0
  }
  convolution_param {
    num_output: 128
    pad: 0
    kernel_size: 1
    stride: 1
    weight_filler {
      type: "xavier"
    }
    bias_filler {
      type: "constant"
      value: 0
    }
  }
}
layer {
  name: "conv8_1_relu"
  type: "ReLU"
  bottom: "conv8_1"
  top: "conv8_1"
}
layer {
  name: "conv8_2"
  type: "Convolution"
  bottom: "conv8_1"
  top: "conv8_2"
  param {
    lr_mult: 1
    decay_mult: 1
  }
  param {
    lr_mult: 2
    decay_mult: 0
  }
  convolution_param {
    num_output: 256
    pad: 0
    kernel_size: 3
    stride: 1
    weight_filler {
      type: "xavier"
    }
    bias_filler {
      type: "constant"
      value: 0
    }
  }
}
layer {
  name: "conv8_2_relu"
  type: "ReLU"
  bottom: "conv8_2"
  top: "conv8_2"
}
layer {
  name: "conv9_1"
  type: "Convolution"
  bottom: "conv8_2"
  top: "conv9_1"
  param {
    lr_mult: 1
    decay_mult: 1
  }
  param {
    lr_mult: 2
    decay_mult: 0
  }
  convolution_param {
    num_output: 128
    pad: 0
    kernel_size: 1
    stride: 1
    weight_filler {
      type: "xavier"
    }
    bias_filler {
      type: "constant"
      value: 0
    }
  }
}
layer {
  name: "conv9_1_relu"
  type: "ReLU"
  bottom: "conv9_1"
  top: "conv9_1"
}
layer {
  name: "conv9_2"
  type: "Convolution"
  bottom: "conv9_1"
  top: "conv9_2"
  param {
    lr_mult: 1
    decay_mult: 1
  }
  param {
    lr_mult: 2
    decay_mult: 0
  }
  convolution_param {
    num_output: 256
    pad: 0
    kernel_size: 3
    stride: 1
    weight_filler {
      type: "xavier"
    }
    bias_filler {
      type: "constant"
      value: 0
    }
  }
}
layer {
  name: "conv9_2_relu"
  type: "ReLU"
  bottom: "conv9_2"
  top: "conv9_2"
}
layer {
  name: "conv4_3_norm"
  type: "Normalize"
  bottom: "conv4_3"
  top: "conv4_3_norm"
  norm_param {
    across_spatial: false
    scale_filler {
      type: "constant"
      value: 20
    }
    channel_shared: false
  }
}
layer {
  name: "conv4_3_norm_mbox_loc"
  type: "Convolution"
  bottom: "conv4_3_norm"
  top: "conv4_3_norm_mbox_loc"
  param {
    lr_mult: 1
    decay_mult: 1
  }
  param {
    lr_mult: 2
    decay_mult: 0
  }
  convolution_param {
    num_output: 16
    pad: 1
    kernel_size: 3
    stride: 1
    weight_filler {
      type: "xavier"
    }
    bias_filler {
      type: "constant"
      value: 0
    }
  }
}
layer {
  name: "conv4_3_norm_mbox_loc_perm"
  type: "Permute"
  bottom: "conv4_3_norm_mbox_loc"
  top: "conv4_3_norm_mbox_loc_perm"
  permute_param {
    order: 0
    order: 2
    order: 3
    order: 1
  }
}
layer {
  name: "conv4_3_norm_mbox_loc_flat"
  type: "Flatten"
  bottom: "conv4_3_norm_mbox_loc_perm"
  top: "conv4_3_norm_mbox_loc_flat"
  flatten_param {
    axis: 1
  }
}
layer {
  name: "conv4_3_norm_mbox_conf"
  type: "Convolution"
  bottom: "conv4_3_norm"
  top: "conv4_3_norm_mbox_conf"
  param {
    lr_mult: 1
    decay_mult: 1
  }
  param {
    lr_mult: 2
    decay_mult: 0
  }
  convolution_param {
    num_output: 16
    pad: 1
    kernel_size: 3
    stride: 1
    weight_filler {
      type: "xavier"
    }
    bias_filler {
      type: "constant"
      value: 0
    }
  }
}
layer {
  name: "conv4_3_norm_mbox_conf_perm"
  type: "Permute"
  bottom: "conv4_3_norm_mbox_conf"
  top: "conv4_3_norm_mbox_conf_perm"
  permute_param {
    order: 0
    order: 2
    order: 3
    order: 1
  }
}
layer {
  name: "conv4_3_norm_mbox_conf_flat"
  type: "Flatten"
  bottom: "conv4_3_norm_mbox_conf_perm"
  top: "conv4_3_norm_mbox_conf_flat"
  flatten_param {
    axis: 1
  }
}
layer {
  name: "conv4_3_norm_mbox_priorbox"
  type: "PriorBox"
  bottom: "conv4_3_norm"
  bottom: "data"
  top: "conv4_3_norm_mbox_priorbox"
  prior_box_param {
    min_size: 30
    max_size: 60
    aspect_ratio: 2
    flip: true
    clip: false
    variance: 0.1
    variance: 0.1
    variance: 0.2
    variance: 0.2
    step: 8
    offset: 0.5
  }
}
layer {
  name: "fc7_mbox_loc"
  type: "Convolution"
  bottom: "fc7"
  top: "fc7_mbox_loc"
  param {
    lr_mult: 1
    decay_mult: 1
  }
  param {
    lr_mult: 2
    decay_mult: 0
  }
  convolution_param {
    num_output: 24
    pad: 1
    kernel_size: 3
    stride: 1
    weight_filler {
      type: "xavier"
    }
    bias_filler {
      type: "constant"
      value: 0
    }
  }
}
layer {
  name: "fc7_mbox_loc_perm"
  type: "Permute"
  bottom: "fc7_mbox_loc"
  top: "fc7_mbox_loc_perm"
  permute_param {
    order: 0
    order: 2
    order: 3
    order: 1
  }
}
layer {
  name: "fc7_mbox_loc_flat"
  type: "Flatten"
  bottom: "fc7_mbox_loc_perm"
  top: "fc7_mbox_loc_flat"
  flatten_param {
    axis: 1
  }
}
layer {
  name: "fc7_mbox_conf"
  type: "Convolution"
  bottom: "fc7"
  top: "fc7_mbox_conf"
  param {
    lr_mult: 1
    decay_mult: 1
  }
  param {
    lr_mult: 2
    decay_mult: 0
  }
  convolution_param {
    num_output: 24
    pad: 1
    kernel_size: 3
    stride: 1
    weight_filler {
      type: "xavier"
    }
    bias_filler {
      type: "constant"
      value: 0
    }
  }
}
layer {
  name: "fc7_mbox_conf_perm"
  type: "Permute"
  bottom: "fc7_mbox_conf"
  top: "fc7_mbox_conf_perm"
  permute_param {
    order: 0
    order: 2
    order: 3
    order: 1
  }
}
layer {
  name: "fc7_mbox_conf_flat"
  type: "Flatten"
  bottom: "fc7_mbox_conf_perm"
  top: "fc7_mbox_conf_flat"
  flatten_param {
    axis: 1
  }
}
layer {
  name: "fc7_mbox_priorbox"
  type: "PriorBox"
  bottom: "fc7"
  bottom: "data"
  top: "fc7_mbox_priorbox"
  prior_box_param {
    min_size: 60
    max_size: 111
    aspect_ratio: 2
    aspect_ratio: 3
    flip: true
    clip: false
    variance: 0.1
    variance: 0.1
    variance: 0.2
    variance: 0.2
    step: 16
    offset: 0.5
  }
}
layer {
  name: "conv6_2_mbox_loc"
  type: "Convolution"
  bottom: "conv6_2"
  top: "conv6_2_mbox_loc"
  param {
    lr_mult: 1
    decay_mult: 1
  }
  param {
    lr_mult: 2
    decay_mult: 0
  }
  convolution_param {
    num_output: 24
    pad: 1
    kernel_size: 3
    stride: 1
    weight_filler {
      type: "xavier"
    }
    bias_filler {
      type: "constant"
      value: 0
    }
  }
}
layer {
  name: "conv6_2_mbox_loc_perm"
  type: "Permute"
  bottom: "conv6_2_mbox_loc"
  top: "conv6_2_mbox_loc_perm"
  permute_param {
    order: 0
    order: 2
    order: 3
    order: 1
  }
}
layer {
  name: "conv6_2_mbox_loc_flat"
  type: "Flatten"
  bottom: "conv6_2_mbox_loc_perm"
  top: "conv6_2_mbox_loc_flat"
  flatten_param {
    axis: 1
  }
}
layer {
  name: "conv6_2_mbox_conf"
  type: "Convolution"
  bottom: "conv6_2"
  top: "conv6_2_mbox_conf"
  param {
    lr_mult: 1
    decay_mult: 1
  }
  param {
    lr_mult: 2
    decay_mult: 0
  }
  convolution_param {
    num_output: 24
    pad: 1
    kernel_size: 3
    stride: 1
    weight_filler {
      type: "xavier"
    }
    bias_filler {
      type: "constant"
      value: 0
    }
  }
}
layer {
  name: "conv6_2_mbox_conf_perm"
  type: "Permute"
  bottom: "conv6_2_mbox_conf"
  top: "conv6_2_mbox_conf_perm"
  permute_param {
    order: 0
    order: 2
    order: 3
    order: 1
  }
}
layer {
  name: "conv6_2_mbox_conf_flat"
  type: "Flatten"
  bottom: "conv6_2_mbox_conf_perm"
  top: "conv6_2_mbox_conf_flat"
  flatten_param {
    axis: 1
  }
}
layer {
  name: "conv6_2_mbox_priorbox"
  type: "PriorBox"
  bottom: "conv6_2"
  bottom: "data"
  top: "conv6_2_mbox_priorbox"
  prior_box_param {
    min_size: 111
    max_size: 162
    aspect_ratio: 2
    aspect_ratio: 3
    flip: true
    clip: false
    variance: 0.1
    variance: 0.1
    variance: 0.2
    variance: 0.2
    step: 32
    offset: 0.5
  }
}
layer {
  name: "conv7_2_mbox_loc"
  type: "Convolution"
  bottom: "conv7_2"
  top: "conv7_2_mbox_loc"
  param {
    lr_mult: 1
    decay_mult: 1
  }
  param {
    lr_mult: 2
    decay_mult: 0
  }
  convolution_param {
    num_output: 24
    pad: 1
    kernel_size: 3
    stride: 1
    weight_filler {
      type: "xavier"
    }
    bias_filler {
      type: "constant"
      value: 0
    }
  }
}
layer {
  name: "conv7_2_mbox_loc_perm"
  type: "Permute"
  bottom: "conv7_2_mbox_loc"
  top: "conv7_2_mbox_loc_perm"
  permute_param {
    order: 0
    order: 2
    order: 3
    order: 1
  }
}
layer {
  name: "conv7_2_mbox_loc_flat"
  type: "Flatten"
  bottom: "conv7_2_mbox_loc_perm"
  top: "conv7_2_mbox_loc_flat"
  flatten_param {
    axis: 1
  }
}
layer {
  name: "conv7_2_mbox_conf"
  type: "Convolution"
  bottom: "conv7_2"
  top: "conv7_2_mbox_conf"
  param {
    lr_mult: 1
    decay_mult: 1
  }
  param {
    lr_mult: 2
    decay_mult: 0
  }
  convolution_param {
    num_output: 24
    pad: 1
    kernel_size: 3
    stride: 1
    weight_filler {
      type: "xavier"
    }
    bias_filler {
      type: "constant"
      value: 0
    }
  }
}
layer {
  name: "conv7_2_mbox_conf_perm"
  type: "Permute"
  bottom: "conv7_2_mbox_conf"
  top: "conv7_2_mbox_conf_perm"
  permute_param {
    order: 0
    order: 2
    order: 3
    order: 1
  }
}
layer {
  name: "conv7_2_mbox_conf_flat"
  type: "Flatten"
  bottom: "conv7_2_mbox_conf_perm"
  top: "conv7_2_mbox_conf_flat"
  flatten_param {
    axis: 1
  }
}
layer {
  name: "conv7_2_mbox_priorbox"
  type: "PriorBox"
  bottom: "conv7_2"
  bottom: "data"
  top: "conv7_2_mbox_priorbox"
  prior_box_param {
    min_size: 162
    max_size: 213
    aspect_ratio: 2
    aspect_ratio: 3
    flip: true
    clip: false
    variance: 0.1
    variance: 0.1
    variance: 0.2
    variance: 0.2
    step: 64
    offset: 0.5
  }
}
layer {
  name: "conv8_2_mbox_loc"
  type: "Convolution"
  bottom: "conv8_2"
  top: "conv8_2_mbox_loc"
  param {
    lr_mult: 1
    decay_mult: 1
  }
  param {
    lr_mult: 2
    decay_mult: 0
  }
  convolution_param {
    num_output: 16
    pad: 1
    kernel_size: 3
    stride: 1
    weight_filler {
      type: "xavier"
    }
    bias_filler {
      type: "constant"
      value: 0
    }
  }
}
layer {
  name: "conv8_2_mbox_loc_perm"
  type: "Permute"
  bottom: "conv8_2_mbox_loc"
  top: "conv8_2_mbox_loc_perm"
  permute_param {
    order: 0
    order: 2
    order: 3
    order: 1
  }
}
layer {
  name: "conv8_2_mbox_loc_flat"
  type: "Flatten"
  bottom: "conv8_2_mbox_loc_perm"
  top: "conv8_2_mbox_loc_flat"
  flatten_param {
    axis: 1
  }
}
layer {
  name: "conv8_2_mbox_conf"
  type: "Convolution"
  bottom: "conv8_2"
  top: "conv8_2_mbox_conf"
  param {
    lr_mult: 1
    decay_mult: 1
  }
  param {
    lr_mult: 2
    decay_mult: 0
  }
  convolution_param {
    num_output: 16
    pad: 1
    kernel_size: 3
    stride: 1
    weight_filler {
      type: "xavier"
    }
    bias_filler {
      type: "constant"
      value: 0
    }
  }
}
layer {
  name: "conv8_2_mbox_conf_perm"
  type: "Permute"
  bottom: "conv8_2_mbox_conf"
  top: "conv8_2_mbox_conf_perm"
  permute_param {
    order: 0
    order: 2
    order: 3
    order: 1
  }
}
layer {
  name: "conv8_2_mbox_conf_flat"
  type: "Flatten"
  bottom: "conv8_2_mbox_conf_perm"
  top: "conv8_2_mbox_conf_flat"
  flatten_param {
    axis: 1
  }
}
layer {
  name: "conv8_2_mbox_priorbox"
  type: "PriorBox"
  bottom: "conv8_2"
  bottom: "data"
  top: "conv8_2_mbox_priorbox"
  prior_box_param {
    min_size: 213
    max_size: 264
    aspect_ratio: 2
    flip: true
    clip: false
    variance: 0.1
    variance: 0.1
    variance: 0.2
    variance: 0.2
    step: 100
    offset: 0.5
  }
}
layer {
  name: "conv9_2_mbox_loc"
  type: "Convolution"
  bottom: "conv9_2"
  top: "conv9_2_mbox_loc"
  param {
    lr_mult: 1
    decay_mult: 1
  }
  param {
    lr_mult: 2
    decay_mult: 0
  }
  convolution_param {
    num_output: 16
    pad: 1
    kernel_size: 3
    stride: 1
    weight_filler {
      type: "xavier"
    }
    bias_filler {
      type: "constant"
      value: 0
    }
  }
}
layer {
  name: "conv9_2_mbox_loc_perm"
  type: "Permute"
  bottom: "conv9_2_mbox_loc"
  top: "conv9_2_mbox_loc_perm"
  permute_param {
    order: 0
    order: 2
    order: 3
    order: 1
  }
}
layer {
  name: "conv9_2_mbox_loc_flat"
  type: "Flatten"
  bottom: "conv9_2_mbox_loc_perm"
  top: "conv9_2_mbox_loc_flat"
  flatten_param {
    axis: 1
  }
}
layer {
  name: "conv9_2_mbox_conf"
  type: "Convolution"
  bottom: "conv9_2"
  top: "conv9_2_mbox_conf"
  param {
    lr_mult: 1
    decay_mult: 1
  }
  param {
    lr_mult: 2
    decay_mult: 0
  }
  convolution_param {
    num_output: 16
    pad: 1
    kernel_size: 3
    stride: 1
    weight_filler {
      type: "xavier"
    }
    bias_filler {
      type: "constant"
      value: 0
    }
  }
}
layer {
  name: "conv9_2_mbox_conf_perm"
  type: "Permute"
  bottom: "conv9_2_mbox_conf"
  top: "conv9_2_mbox_conf_perm"
  permute_param {
    order: 0
    order: 2
    order: 3
    order: 1
  }
}
layer {
  name: "conv9_2_mbox_conf_flat"
  type: "Flatten"
  bottom: "conv9_2_mbox_conf_perm"
  top: "conv9_2_mbox_conf_flat"
  flatten_param {
    axis: 1
  }
}
layer {
  name: "conv9_2_mbox_priorbox"
  type: "PriorBox"
  bottom: "conv9_2"
  bottom: "data"
  top: "conv9_2_mbox_priorbox"
  prior_box_param {
    min_size: 264
    max_size: 315
    aspect_ratio: 2
    flip: true
    clip: false
    variance: 0.1
    variance: 0.1
    variance: 0.2
    variance: 0.2
    step: 300
    offset: 0.5
  }
}
layer {
  name: "mbox_loc"
  type: "Concat"
  bottom: "conv4_3_norm_mbox_loc_flat"
  bottom: "fc7_mbox_loc_flat"
  bottom: "conv6_2_mbox_loc_flat"
  bottom: "conv7_2_mbox_loc_flat"
  bottom: "conv8_2_mbox_loc_flat"
  bottom: "conv9_2_mbox_loc_flat"
  top: "mbox_loc"
  concat_param {
    axis: 1
  }
}
layer {
  name: "mbox_conf"
  type: "Concat"
  bottom: "conv4_3_norm_mbox_conf_flat"
  bottom: "fc7_mbox_conf_flat"
  bottom: "conv6_2_mbox_conf_flat"
  bottom: "conv7_2_mbox_conf_flat"
  bottom: "conv8_2_mbox_conf_flat"
  bottom: "conv9_2_mbox_conf_flat"
  top: "mbox_conf"
  concat_param {
    axis: 1
  }
}
layer {
  name: "mbox_priorbox"
  type: "Concat"
  bottom: "conv4_3_norm_mbox_priorbox"
  bottom: "fc7_mbox_priorbox"
  bottom: "conv6_2_mbox_priorbox"
  bottom: "conv7_2_mbox_priorbox"
  bottom: "conv8_2_mbox_priorbox"
  bottom: "conv9_2_mbox_priorbox"
  top: "mbox_priorbox"
  concat_param {
    axis: 2
  }
}
layer {
  name: "mbox_conf_reshape"
  type: "Reshape"
  bottom: "mbox_conf"
  top: "mbox_conf_reshape"
  reshape_param {
    shape {
      dim: 0
      dim: -1
      dim: 4
    }
  }
}
layer {
  name: "mbox_conf_softmax"
  type: "Softmax"
  bottom: "mbox_conf_reshape"
  top: "mbox_conf_softmax"
  softmax_param {
    axis: 2
  }
}
layer {
  name: "mbox_conf_flatten"
  type: "Flatten"
  bottom: "mbox_conf_softmax"
  top: "mbox_conf_flatten"
  flatten_param {
    axis: 1
  }
}
layer {
  name: "detection_out"
  type: "DetectionOutput"
  bottom: "mbox_loc"
  bottom: "mbox_conf_flatten"
  bottom: "mbox_priorbox"
  top: "detection_out"
  include {
    phase: TEST
  }
  detection_output_param {
    num_classes: 4
    share_location: true
    background_label_id: 0
    nms_param {
      nms_threshold: 0.45
      top_k: 400
    }
    save_output_param {
      output_directory: "/home/shangzw/data/tbs/results/tbs/SSD_300x300/Main"
      output_name_prefix: "comp4_det_test_"
      output_format: "VOC"
      label_map_file: "data/tbs_300x300_HSIL_10x/labelmap_voc.prototxt"
      name_size_file: "data/VOC0712/test_name_size.txt"
      num_test_image: 100
    }
    code_type: CENTER_SIZE
    keep_top_k: 200
    confidence_threshold: 0.01
  }
}
layer {
  name: "detection_eval"
  type: "DetectionEvaluate"
  bottom: "detection_out"
  bottom: "label"
  top: "detection_eval"
  include {
    phase: TEST
  }
  detection_evaluate_param {
    num_classes: 4
    background_label_id: 0
    overlap_threshold: 0.5
    evaluate_difficult_gt: false
    name_size_file: "data/VOC0712/test_name_size.txt"
  }
}
I0602 16:55:09.850687  9788 layer_factory.hpp:77] Creating layer data
I0602 16:55:09.850845  9788 net.cpp:100] Creating Layer data
I0602 16:55:09.850857  9788 net.cpp:408] data -> data
I0602 16:55:09.850870  9788 net.cpp:408] data -> label
I0602 16:55:09.851393  9804 db_lmdb.cpp:35] Opened lmdb examples/tbs_300x300_HSIL_10x/tbs_300x300_HSIL_10x_test_lmdb
I0602 16:55:09.852274  9788 annotated_data_layer.cpp:62] output data size: 4,3,300,300
I0602 16:55:09.862661  9788 net.cpp:150] Setting up data
I0602 16:55:09.862682  9788 net.cpp:157] Top shape: 4 3 300 300 (1080000)
I0602 16:55:09.862686  9788 net.cpp:157] Top shape: 1 1 2 8 (16)
I0602 16:55:09.862689  9788 net.cpp:165] Memory required for data: 4320064
I0602 16:55:09.862694  9788 layer_factory.hpp:77] Creating layer data_data_0_split
I0602 16:55:09.862702  9788 net.cpp:100] Creating Layer data_data_0_split
I0602 16:55:09.862705  9788 net.cpp:434] data_data_0_split <- data
I0602 16:55:09.862713  9788 net.cpp:408] data_data_0_split -> data_data_0_split_0
I0602 16:55:09.862723  9788 net.cpp:408] data_data_0_split -> data_data_0_split_1
I0602 16:55:09.862730  9788 net.cpp:408] data_data_0_split -> data_data_0_split_2
I0602 16:55:09.862735  9788 net.cpp:408] data_data_0_split -> data_data_0_split_3
I0602 16:55:09.862740  9788 net.cpp:408] data_data_0_split -> data_data_0_split_4
I0602 16:55:09.862746  9788 net.cpp:408] data_data_0_split -> data_data_0_split_5
I0602 16:55:09.862751  9788 net.cpp:408] data_data_0_split -> data_data_0_split_6
I0602 16:55:09.862995  9788 net.cpp:150] Setting up data_data_0_split
I0602 16:55:09.863023  9788 net.cpp:157] Top shape: 4 3 300 300 (1080000)
I0602 16:55:09.863029  9788 net.cpp:157] Top shape: 4 3 300 300 (1080000)
I0602 16:55:09.863032  9788 net.cpp:157] Top shape: 4 3 300 300 (1080000)
I0602 16:55:09.863036  9788 net.cpp:157] Top shape: 4 3 300 300 (1080000)
I0602 16:55:09.863041  9788 net.cpp:157] Top shape: 4 3 300 300 (1080000)
I0602 16:55:09.863059  9788 net.cpp:157] Top shape: 4 3 300 300 (1080000)
I0602 16:55:09.863078  9788 net.cpp:157] Top shape: 4 3 300 300 (1080000)
I0602 16:55:09.863082  9788 net.cpp:165] Memory required for data: 34560064
I0602 16:55:09.863086  9788 layer_factory.hpp:77] Creating layer conv1_1
I0602 16:55:09.863099  9788 net.cpp:100] Creating Layer conv1_1
I0602 16:55:09.863106  9788 net.cpp:434] conv1_1 <- data_data_0_split_0
I0602 16:55:09.863113  9788 net.cpp:408] conv1_1 -> conv1_1
I0602 16:55:09.864707  9788 net.cpp:150] Setting up conv1_1
I0602 16:55:09.864722  9788 net.cpp:157] Top shape: 4 64 300 300 (23040000)
I0602 16:55:09.864725  9788 net.cpp:165] Memory required for data: 126720064
I0602 16:55:09.864737  9788 layer_factory.hpp:77] Creating layer relu1_1
I0602 16:55:09.864744  9788 net.cpp:100] Creating Layer relu1_1
I0602 16:55:09.864763  9788 net.cpp:434] relu1_1 <- conv1_1
I0602 16:55:09.864779  9788 net.cpp:395] relu1_1 -> conv1_1 (in-place)
I0602 16:55:09.866240  9788 net.cpp:150] Setting up relu1_1
I0602 16:55:09.866266  9788 net.cpp:157] Top shape: 4 64 300 300 (23040000)
I0602 16:55:09.866278  9788 net.cpp:165] Memory required for data: 218880064
I0602 16:55:09.866303  9788 layer_factory.hpp:77] Creating layer conv1_2
I0602 16:55:09.866324  9788 net.cpp:100] Creating Layer conv1_2
I0602 16:55:09.866333  9788 net.cpp:434] conv1_2 <- conv1_1
I0602 16:55:09.866341  9788 net.cpp:408] conv1_2 -> conv1_2
I0602 16:55:09.868266  9788 net.cpp:150] Setting up conv1_2
I0602 16:55:09.868285  9788 net.cpp:157] Top shape: 4 64 300 300 (23040000)
I0602 16:55:09.868288  9788 net.cpp:165] Memory required for data: 311040064
I0602 16:55:09.868304  9788 layer_factory.hpp:77] Creating layer relu1_2
I0602 16:55:09.868312  9788 net.cpp:100] Creating Layer relu1_2
I0602 16:55:09.868317  9788 net.cpp:434] relu1_2 <- conv1_2
I0602 16:55:09.868324  9788 net.cpp:395] relu1_2 -> conv1_2 (in-place)
I0602 16:55:09.869134  9788 net.cpp:150] Setting up relu1_2
I0602 16:55:09.869148  9788 net.cpp:157] Top shape: 4 64 300 300 (23040000)
I0602 16:55:09.869153  9788 net.cpp:165] Memory required for data: 403200064
I0602 16:55:09.869158  9788 layer_factory.hpp:77] Creating layer pool1
I0602 16:55:09.869168  9788 net.cpp:100] Creating Layer pool1
I0602 16:55:09.869175  9788 net.cpp:434] pool1 <- conv1_2
I0602 16:55:09.869184  9788 net.cpp:408] pool1 -> pool1
I0602 16:55:09.869247  9788 net.cpp:150] Setting up pool1
I0602 16:55:09.869256  9788 net.cpp:157] Top shape: 4 64 150 150 (5760000)
I0602 16:55:09.869261  9788 net.cpp:165] Memory required for data: 426240064
I0602 16:55:09.869266  9788 layer_factory.hpp:77] Creating layer conv2_1
I0602 16:55:09.869277  9788 net.cpp:100] Creating Layer conv2_1
I0602 16:55:09.869283  9788 net.cpp:434] conv2_1 <- pool1
I0602 16:55:09.869293  9788 net.cpp:408] conv2_1 -> conv2_1
I0602 16:55:09.871310  9788 net.cpp:150] Setting up conv2_1
I0602 16:55:09.871325  9788 net.cpp:157] Top shape: 4 128 150 150 (11520000)
I0602 16:55:09.871328  9788 net.cpp:165] Memory required for data: 472320064
I0602 16:55:09.871338  9788 layer_factory.hpp:77] Creating layer relu2_1
I0602 16:55:09.871346  9788 net.cpp:100] Creating Layer relu2_1
I0602 16:55:09.871350  9788 net.cpp:434] relu2_1 <- conv2_1
I0602 16:55:09.871357  9788 net.cpp:395] relu2_1 -> conv2_1 (in-place)
I0602 16:55:09.872190  9788 net.cpp:150] Setting up relu2_1
I0602 16:55:09.872203  9788 net.cpp:157] Top shape: 4 128 150 150 (11520000)
I0602 16:55:09.872208  9788 net.cpp:165] Memory required for data: 518400064
I0602 16:55:09.872215  9788 layer_factory.hpp:77] Creating layer conv2_2
I0602 16:55:09.872226  9788 net.cpp:100] Creating Layer conv2_2
I0602 16:55:09.872232  9788 net.cpp:434] conv2_2 <- conv2_1
I0602 16:55:09.872243  9788 net.cpp:408] conv2_2 -> conv2_2
I0602 16:55:09.875820  9788 net.cpp:150] Setting up conv2_2
I0602 16:55:09.875835  9788 net.cpp:157] Top shape: 4 128 150 150 (11520000)
I0602 16:55:09.875838  9788 net.cpp:165] Memory required for data: 564480064
I0602 16:55:09.875844  9788 layer_factory.hpp:77] Creating layer relu2_2
I0602 16:55:09.875867  9788 net.cpp:100] Creating Layer relu2_2
I0602 16:55:09.875871  9788 net.cpp:434] relu2_2 <- conv2_2
I0602 16:55:09.875877  9788 net.cpp:395] relu2_2 -> conv2_2 (in-place)
I0602 16:55:09.876094  9788 net.cpp:150] Setting up relu2_2
I0602 16:55:09.876107  9788 net.cpp:157] Top shape: 4 128 150 150 (11520000)
I0602 16:55:09.876111  9788 net.cpp:165] Memory required for data: 610560064
I0602 16:55:09.876116  9788 layer_factory.hpp:77] Creating layer pool2
I0602 16:55:09.876124  9788 net.cpp:100] Creating Layer pool2
I0602 16:55:09.876130  9788 net.cpp:434] pool2 <- conv2_2
I0602 16:55:09.876137  9788 net.cpp:408] pool2 -> pool2
I0602 16:55:09.876199  9788 net.cpp:150] Setting up pool2
I0602 16:55:09.876207  9788 net.cpp:157] Top shape: 4 128 75 75 (2880000)
I0602 16:55:09.876211  9788 net.cpp:165] Memory required for data: 622080064
I0602 16:55:09.876215  9788 layer_factory.hpp:77] Creating layer conv3_1
I0602 16:55:09.876226  9788 net.cpp:100] Creating Layer conv3_1
I0602 16:55:09.876231  9788 net.cpp:434] conv3_1 <- pool2
I0602 16:55:09.876240  9788 net.cpp:408] conv3_1 -> conv3_1
I0602 16:55:09.880590  9788 net.cpp:150] Setting up conv3_1
I0602 16:55:09.880606  9788 net.cpp:157] Top shape: 4 256 75 75 (5760000)
I0602 16:55:09.880609  9788 net.cpp:165] Memory required for data: 645120064
I0602 16:55:09.880620  9788 layer_factory.hpp:77] Creating layer relu3_1
I0602 16:55:09.880625  9788 net.cpp:100] Creating Layer relu3_1
I0602 16:55:09.880630  9788 net.cpp:434] relu3_1 <- conv3_1
I0602 16:55:09.880637  9788 net.cpp:395] relu3_1 -> conv3_1 (in-place)
I0602 16:55:09.880872  9788 net.cpp:150] Setting up relu3_1
I0602 16:55:09.880897  9788 net.cpp:157] Top shape: 4 256 75 75 (5760000)
I0602 16:55:09.880911  9788 net.cpp:165] Memory required for data: 668160064
I0602 16:55:09.880925  9788 layer_factory.hpp:77] Creating layer conv3_2
I0602 16:55:09.880950  9788 net.cpp:100] Creating Layer conv3_2
I0602 16:55:09.880965  9788 net.cpp:434] conv3_2 <- conv3_1
I0602 16:55:09.880982  9788 net.cpp:408] conv3_2 -> conv3_2
I0602 16:55:09.887342  9788 net.cpp:150] Setting up conv3_2
I0602 16:55:09.887362  9788 net.cpp:157] Top shape: 4 256 75 75 (5760000)
I0602 16:55:09.887367  9788 net.cpp:165] Memory required for data: 691200064
I0602 16:55:09.887375  9788 layer_factory.hpp:77] Creating layer relu3_2
I0602 16:55:09.887383  9788 net.cpp:100] Creating Layer relu3_2
I0602 16:55:09.887390  9788 net.cpp:434] relu3_2 <- conv3_2
I0602 16:55:09.887398  9788 net.cpp:395] relu3_2 -> conv3_2 (in-place)
I0602 16:55:09.887603  9788 net.cpp:150] Setting up relu3_2
I0602 16:55:09.887629  9788 net.cpp:157] Top shape: 4 256 75 75 (5760000)
I0602 16:55:09.887645  9788 net.cpp:165] Memory required for data: 714240064
I0602 16:55:09.887658  9788 layer_factory.hpp:77] Creating layer conv3_3
I0602 16:55:09.887684  9788 net.cpp:100] Creating Layer conv3_3
I0602 16:55:09.887699  9788 net.cpp:434] conv3_3 <- conv3_2
I0602 16:55:09.887717  9788 net.cpp:408] conv3_3 -> conv3_3
I0602 16:55:09.893324  9788 net.cpp:150] Setting up conv3_3
I0602 16:55:09.893340  9788 net.cpp:157] Top shape: 4 256 75 75 (5760000)
I0602 16:55:09.893342  9788 net.cpp:165] Memory required for data: 737280064
I0602 16:55:09.893363  9788 layer_factory.hpp:77] Creating layer relu3_3
I0602 16:55:09.893370  9788 net.cpp:100] Creating Layer relu3_3
I0602 16:55:09.893373  9788 net.cpp:434] relu3_3 <- conv3_3
I0602 16:55:09.893378  9788 net.cpp:395] relu3_3 -> conv3_3 (in-place)
I0602 16:55:09.893615  9788 net.cpp:150] Setting up relu3_3
I0602 16:55:09.893641  9788 net.cpp:157] Top shape: 4 256 75 75 (5760000)
I0602 16:55:09.893646  9788 net.cpp:165] Memory required for data: 760320064
I0602 16:55:09.893649  9788 layer_factory.hpp:77] Creating layer pool3
I0602 16:55:09.893671  9788 net.cpp:100] Creating Layer pool3
I0602 16:55:09.893676  9788 net.cpp:434] pool3 <- conv3_3
I0602 16:55:09.893682  9788 net.cpp:408] pool3 -> pool3
I0602 16:55:09.893779  9788 net.cpp:150] Setting up pool3
I0602 16:55:09.893790  9788 net.cpp:157] Top shape: 4 256 38 38 (1478656)
I0602 16:55:09.893823  9788 net.cpp:165] Memory required for data: 766234688
I0602 16:55:09.893828  9788 layer_factory.hpp:77] Creating layer conv4_1
I0602 16:55:09.893841  9788 net.cpp:100] Creating Layer conv4_1
I0602 16:55:09.893848  9788 net.cpp:434] conv4_1 <- pool3
I0602 16:55:09.893856  9788 net.cpp:408] conv4_1 -> conv4_1
I0602 16:55:09.901989  9788 net.cpp:150] Setting up conv4_1
I0602 16:55:09.902009  9788 net.cpp:157] Top shape: 4 512 38 38 (2957312)
I0602 16:55:09.902011  9788 net.cpp:165] Memory required for data: 778063936
I0602 16:55:09.902017  9788 layer_factory.hpp:77] Creating layer relu4_1
I0602 16:55:09.902025  9788 net.cpp:100] Creating Layer relu4_1
I0602 16:55:09.902030  9788 net.cpp:434] relu4_1 <- conv4_1
I0602 16:55:09.902036  9788 net.cpp:395] relu4_1 -> conv4_1 (in-place)
I0602 16:55:09.903008  9788 net.cpp:150] Setting up relu4_1
I0602 16:55:09.903020  9788 net.cpp:157] Top shape: 4 512 38 38 (2957312)
I0602 16:55:09.903024  9788 net.cpp:165] Memory required for data: 789893184
I0602 16:55:09.903029  9788 layer_factory.hpp:77] Creating layer conv4_2
I0602 16:55:09.903043  9788 net.cpp:100] Creating Layer conv4_2
I0602 16:55:09.903064  9788 net.cpp:434] conv4_2 <- conv4_1
I0602 16:55:09.903081  9788 net.cpp:408] conv4_2 -> conv4_2
I0602 16:55:09.916214  9788 net.cpp:150] Setting up conv4_2
I0602 16:55:09.916232  9788 net.cpp:157] Top shape: 4 512 38 38 (2957312)
I0602 16:55:09.916235  9788 net.cpp:165] Memory required for data: 801722432
I0602 16:55:09.916247  9788 layer_factory.hpp:77] Creating layer relu4_2
I0602 16:55:09.916254  9788 net.cpp:100] Creating Layer relu4_2
I0602 16:55:09.916260  9788 net.cpp:434] relu4_2 <- conv4_2
I0602 16:55:09.916265  9788 net.cpp:395] relu4_2 -> conv4_2 (in-place)
I0602 16:55:09.917439  9788 net.cpp:150] Setting up relu4_2
I0602 16:55:09.917454  9788 net.cpp:157] Top shape: 4 512 38 38 (2957312)
I0602 16:55:09.917459  9788 net.cpp:165] Memory required for data: 813551680
I0602 16:55:09.917464  9788 layer_factory.hpp:77] Creating layer conv4_3
I0602 16:55:09.917475  9788 net.cpp:100] Creating Layer conv4_3
I0602 16:55:09.917482  9788 net.cpp:434] conv4_3 <- conv4_2
I0602 16:55:09.917492  9788 net.cpp:408] conv4_3 -> conv4_3
I0602 16:55:09.931479  9788 net.cpp:150] Setting up conv4_3
I0602 16:55:09.931495  9788 net.cpp:157] Top shape: 4 512 38 38 (2957312)
I0602 16:55:09.931499  9788 net.cpp:165] Memory required for data: 825380928
I0602 16:55:09.931519  9788 layer_factory.hpp:77] Creating layer relu4_3
I0602 16:55:09.931526  9788 net.cpp:100] Creating Layer relu4_3
I0602 16:55:09.931529  9788 net.cpp:434] relu4_3 <- conv4_3
I0602 16:55:09.931535  9788 net.cpp:395] relu4_3 -> conv4_3 (in-place)
I0602 16:55:09.931771  9788 net.cpp:150] Setting up relu4_3
I0602 16:55:09.931780  9788 net.cpp:157] Top shape: 4 512 38 38 (2957312)
I0602 16:55:09.931783  9788 net.cpp:165] Memory required for data: 837210176
I0602 16:55:09.931803  9788 layer_factory.hpp:77] Creating layer conv4_3_relu4_3_0_split
I0602 16:55:09.931809  9788 net.cpp:100] Creating Layer conv4_3_relu4_3_0_split
I0602 16:55:09.931825  9788 net.cpp:434] conv4_3_relu4_3_0_split <- conv4_3
I0602 16:55:09.931833  9788 net.cpp:408] conv4_3_relu4_3_0_split -> conv4_3_relu4_3_0_split_0
I0602 16:55:09.931855  9788 net.cpp:408] conv4_3_relu4_3_0_split -> conv4_3_relu4_3_0_split_1
I0602 16:55:09.931938  9788 net.cpp:150] Setting up conv4_3_relu4_3_0_split
I0602 16:55:09.931946  9788 net.cpp:157] Top shape: 4 512 38 38 (2957312)
I0602 16:55:09.931952  9788 net.cpp:157] Top shape: 4 512 38 38 (2957312)
I0602 16:55:09.931958  9788 net.cpp:165] Memory required for data: 860868672
I0602 16:55:09.931962  9788 layer_factory.hpp:77] Creating layer pool4
I0602 16:55:09.931982  9788 net.cpp:100] Creating Layer pool4
I0602 16:55:09.931985  9788 net.cpp:434] pool4 <- conv4_3_relu4_3_0_split_0
I0602 16:55:09.931994  9788 net.cpp:408] pool4 -> pool4
I0602 16:55:09.932050  9788 net.cpp:150] Setting up pool4
I0602 16:55:09.932060  9788 net.cpp:157] Top shape: 4 512 19 19 (739328)
I0602 16:55:09.932063  9788 net.cpp:165] Memory required for data: 863825984
I0602 16:55:09.932080  9788 layer_factory.hpp:77] Creating layer conv5_1
I0602 16:55:09.932092  9788 net.cpp:100] Creating Layer conv5_1
I0602 16:55:09.932098  9788 net.cpp:434] conv5_1 <- pool4
I0602 16:55:09.932106  9788 net.cpp:408] conv5_1 -> conv5_1
I0602 16:55:09.945572  9788 net.cpp:150] Setting up conv5_1
I0602 16:55:09.945603  9788 net.cpp:157] Top shape: 4 512 19 19 (739328)
I0602 16:55:09.945606  9788 net.cpp:165] Memory required for data: 866783296
I0602 16:55:09.945628  9788 layer_factory.hpp:77] Creating layer relu5_1
I0602 16:55:09.945650  9788 net.cpp:100] Creating Layer relu5_1
I0602 16:55:09.945654  9788 net.cpp:434] relu5_1 <- conv5_1
I0602 16:55:09.945658  9788 net.cpp:395] relu5_1 -> conv5_1 (in-place)
I0602 16:55:09.945883  9788 net.cpp:150] Setting up relu5_1
I0602 16:55:09.945909  9788 net.cpp:157] Top shape: 4 512 19 19 (739328)
I0602 16:55:09.945912  9788 net.cpp:165] Memory required for data: 869740608
I0602 16:55:09.945916  9788 layer_factory.hpp:77] Creating layer conv5_2
I0602 16:55:09.945942  9788 net.cpp:100] Creating Layer conv5_2
I0602 16:55:09.945947  9788 net.cpp:434] conv5_2 <- conv5_1
I0602 16:55:09.945955  9788 net.cpp:408] conv5_2 -> conv5_2
I0602 16:55:09.958927  9788 net.cpp:150] Setting up conv5_2
I0602 16:55:09.958943  9788 net.cpp:157] Top shape: 4 512 19 19 (739328)
I0602 16:55:09.958946  9788 net.cpp:165] Memory required for data: 872697920
I0602 16:55:09.958966  9788 layer_factory.hpp:77] Creating layer relu5_2
I0602 16:55:09.958972  9788 net.cpp:100] Creating Layer relu5_2
I0602 16:55:09.958989  9788 net.cpp:434] relu5_2 <- conv5_2
I0602 16:55:09.958995  9788 net.cpp:395] relu5_2 -> conv5_2 (in-place)
I0602 16:55:09.959208  9788 net.cpp:150] Setting up relu5_2
I0602 16:55:09.959233  9788 net.cpp:157] Top shape: 4 512 19 19 (739328)
I0602 16:55:09.959237  9788 net.cpp:165] Memory required for data: 875655232
I0602 16:55:09.959242  9788 layer_factory.hpp:77] Creating layer conv5_3
I0602 16:55:09.959282  9788 net.cpp:100] Creating Layer conv5_3
I0602 16:55:09.959290  9788 net.cpp:434] conv5_3 <- conv5_2
I0602 16:55:09.959301  9788 net.cpp:408] conv5_3 -> conv5_3
I0602 16:55:09.974033  9788 net.cpp:150] Setting up conv5_3
I0602 16:55:09.974050  9788 net.cpp:157] Top shape: 4 512 19 19 (739328)
I0602 16:55:09.974052  9788 net.cpp:165] Memory required for data: 878612544
I0602 16:55:09.974073  9788 layer_factory.hpp:77] Creating layer relu5_3
I0602 16:55:09.974083  9788 net.cpp:100] Creating Layer relu5_3
I0602 16:55:09.974087  9788 net.cpp:434] relu5_3 <- conv5_3
I0602 16:55:09.974092  9788 net.cpp:395] relu5_3 -> conv5_3 (in-place)
I0602 16:55:09.974257  9788 net.cpp:150] Setting up relu5_3
I0602 16:55:09.974264  9788 net.cpp:157] Top shape: 4 512 19 19 (739328)
I0602 16:55:09.974267  9788 net.cpp:165] Memory required for data: 881569856
I0602 16:55:09.974269  9788 layer_factory.hpp:77] Creating layer pool5
I0602 16:55:09.974273  9788 net.cpp:100] Creating Layer pool5
I0602 16:55:09.974277  9788 net.cpp:434] pool5 <- conv5_3
I0602 16:55:09.974280  9788 net.cpp:408] pool5 -> pool5
I0602 16:55:09.974334  9788 net.cpp:150] Setting up pool5
I0602 16:55:09.974339  9788 net.cpp:157] Top shape: 4 512 19 19 (739328)
I0602 16:55:09.974356  9788 net.cpp:165] Memory required for data: 884527168
I0602 16:55:09.974359  9788 layer_factory.hpp:77] Creating layer fc6
I0602 16:55:09.974381  9788 net.cpp:100] Creating Layer fc6
I0602 16:55:09.974383  9788 net.cpp:434] fc6 <- pool5
I0602 16:55:09.974388  9788 net.cpp:408] fc6 -> fc6
I0602 16:55:09.997829  9788 net.cpp:150] Setting up fc6
I0602 16:55:09.997846  9788 net.cpp:157] Top shape: 4 1024 19 19 (1478656)
I0602 16:55:09.997849  9788 net.cpp:165] Memory required for data: 890441792
I0602 16:55:09.997855  9788 layer_factory.hpp:77] Creating layer relu6
I0602 16:55:09.997877  9788 net.cpp:100] Creating Layer relu6
I0602 16:55:09.997880  9788 net.cpp:434] relu6 <- fc6
I0602 16:55:09.997885  9788 net.cpp:395] relu6 -> fc6 (in-place)
I0602 16:55:09.998692  9788 net.cpp:150] Setting up relu6
I0602 16:55:09.998706  9788 net.cpp:157] Top shape: 4 1024 19 19 (1478656)
I0602 16:55:09.998725  9788 net.cpp:165] Memory required for data: 896356416
I0602 16:55:09.998730  9788 layer_factory.hpp:77] Creating layer fc7
I0602 16:55:09.998744  9788 net.cpp:100] Creating Layer fc7
I0602 16:55:09.998750  9788 net.cpp:434] fc7 <- fc6
I0602 16:55:09.998759  9788 net.cpp:408] fc7 -> fc7
I0602 16:55:10.005615  9788 net.cpp:150] Setting up fc7
I0602 16:55:10.005635  9788 net.cpp:157] Top shape: 4 1024 19 19 (1478656)
I0602 16:55:10.005638  9788 net.cpp:165] Memory required for data: 902271040
I0602 16:55:10.005646  9788 layer_factory.hpp:77] Creating layer relu7
I0602 16:55:10.005655  9788 net.cpp:100] Creating Layer relu7
I0602 16:55:10.005676  9788 net.cpp:434] relu7 <- fc7
I0602 16:55:10.005722  9788 net.cpp:395] relu7 -> fc7 (in-place)
I0602 16:55:10.005890  9788 net.cpp:150] Setting up relu7
I0602 16:55:10.005898  9788 net.cpp:157] Top shape: 4 1024 19 19 (1478656)
I0602 16:55:10.005918  9788 net.cpp:165] Memory required for data: 908185664
I0602 16:55:10.005921  9788 layer_factory.hpp:77] Creating layer fc7_relu7_0_split
I0602 16:55:10.005941  9788 net.cpp:100] Creating Layer fc7_relu7_0_split
I0602 16:55:10.005961  9788 net.cpp:434] fc7_relu7_0_split <- fc7
I0602 16:55:10.005970  9788 net.cpp:408] fc7_relu7_0_split -> fc7_relu7_0_split_0
I0602 16:55:10.005995  9788 net.cpp:408] fc7_relu7_0_split -> fc7_relu7_0_split_1
I0602 16:55:10.006009  9788 net.cpp:408] fc7_relu7_0_split -> fc7_relu7_0_split_2
I0602 16:55:10.006018  9788 net.cpp:408] fc7_relu7_0_split -> fc7_relu7_0_split_3
I0602 16:55:10.006089  9788 net.cpp:150] Setting up fc7_relu7_0_split
I0602 16:55:10.006095  9788 net.cpp:157] Top shape: 4 1024 19 19 (1478656)
I0602 16:55:10.006101  9788 net.cpp:157] Top shape: 4 1024 19 19 (1478656)
I0602 16:55:10.006108  9788 net.cpp:157] Top shape: 4 1024 19 19 (1478656)
I0602 16:55:10.006114  9788 net.cpp:157] Top shape: 4 1024 19 19 (1478656)
I0602 16:55:10.006117  9788 net.cpp:165] Memory required for data: 931844160
I0602 16:55:10.006121  9788 layer_factory.hpp:77] Creating layer conv6_1
I0602 16:55:10.006150  9788 net.cpp:100] Creating Layer conv6_1
I0602 16:55:10.006155  9788 net.cpp:434] conv6_1 <- fc7_relu7_0_split_0
I0602 16:55:10.006165  9788 net.cpp:408] conv6_1 -> conv6_1
I0602 16:55:10.009913  9788 net.cpp:150] Setting up conv6_1
I0602 16:55:10.009927  9788 net.cpp:157] Top shape: 4 256 19 19 (369664)
I0602 16:55:10.009932  9788 net.cpp:165] Memory required for data: 933322816
I0602 16:55:10.009939  9788 layer_factory.hpp:77] Creating layer conv6_1_relu
I0602 16:55:10.009948  9788 net.cpp:100] Creating Layer conv6_1_relu
I0602 16:55:10.009954  9788 net.cpp:434] conv6_1_relu <- conv6_1
I0602 16:55:10.009963  9788 net.cpp:395] conv6_1_relu -> conv6_1 (in-place)
I0602 16:55:10.010102  9788 net.cpp:150] Setting up conv6_1_relu
I0602 16:55:10.010109  9788 net.cpp:157] Top shape: 4 256 19 19 (369664)
I0602 16:55:10.010113  9788 net.cpp:165] Memory required for data: 934801472
I0602 16:55:10.010118  9788 layer_factory.hpp:77] Creating layer conv6_2
I0602 16:55:10.010129  9788 net.cpp:100] Creating Layer conv6_2
I0602 16:55:10.010134  9788 net.cpp:434] conv6_2 <- conv6_1
I0602 16:55:10.010141  9788 net.cpp:408] conv6_2 -> conv6_2
I0602 16:55:10.017915  9788 net.cpp:150] Setting up conv6_2
I0602 16:55:10.017931  9788 net.cpp:157] Top shape: 4 512 10 10 (204800)
I0602 16:55:10.017935  9788 net.cpp:165] Memory required for data: 935620672
I0602 16:55:10.017951  9788 layer_factory.hpp:77] Creating layer conv6_2_relu
I0602 16:55:10.017978  9788 net.cpp:100] Creating Layer conv6_2_relu
I0602 16:55:10.017983  9788 net.cpp:434] conv6_2_relu <- conv6_2
I0602 16:55:10.017990  9788 net.cpp:395] conv6_2_relu -> conv6_2 (in-place)
I0602 16:55:10.018218  9788 net.cpp:150] Setting up conv6_2_relu
I0602 16:55:10.018225  9788 net.cpp:157] Top shape: 4 512 10 10 (204800)
I0602 16:55:10.018229  9788 net.cpp:165] Memory required for data: 936439872
I0602 16:55:10.018232  9788 layer_factory.hpp:77] Creating layer conv6_2_conv6_2_relu_0_split
I0602 16:55:10.018239  9788 net.cpp:100] Creating Layer conv6_2_conv6_2_relu_0_split
I0602 16:55:10.018252  9788 net.cpp:434] conv6_2_conv6_2_relu_0_split <- conv6_2
I0602 16:55:10.018260  9788 net.cpp:408] conv6_2_conv6_2_relu_0_split -> conv6_2_conv6_2_relu_0_split_0
I0602 16:55:10.018270  9788 net.cpp:408] conv6_2_conv6_2_relu_0_split -> conv6_2_conv6_2_relu_0_split_1
I0602 16:55:10.018278  9788 net.cpp:408] conv6_2_conv6_2_relu_0_split -> conv6_2_conv6_2_relu_0_split_2
I0602 16:55:10.018287  9788 net.cpp:408] conv6_2_conv6_2_relu_0_split -> conv6_2_conv6_2_relu_0_split_3
I0602 16:55:10.018354  9788 net.cpp:150] Setting up conv6_2_conv6_2_relu_0_split
I0602 16:55:10.018362  9788 net.cpp:157] Top shape: 4 512 10 10 (204800)
I0602 16:55:10.018365  9788 net.cpp:157] Top shape: 4 512 10 10 (204800)
I0602 16:55:10.018371  9788 net.cpp:157] Top shape: 4 512 10 10 (204800)
I0602 16:55:10.018375  9788 net.cpp:157] Top shape: 4 512 10 10 (204800)
I0602 16:55:10.018379  9788 net.cpp:165] Memory required for data: 939716672
I0602 16:55:10.018383  9788 layer_factory.hpp:77] Creating layer conv7_1
I0602 16:55:10.018394  9788 net.cpp:100] Creating Layer conv7_1
I0602 16:55:10.018399  9788 net.cpp:434] conv7_1 <- conv6_2_conv6_2_relu_0_split_0
I0602 16:55:10.018419  9788 net.cpp:408] conv7_1 -> conv7_1
I0602 16:55:10.020212  9788 net.cpp:150] Setting up conv7_1
I0602 16:55:10.020223  9788 net.cpp:157] Top shape: 4 128 10 10 (51200)
I0602 16:55:10.020227  9788 net.cpp:165] Memory required for data: 939921472
I0602 16:55:10.020236  9788 layer_factory.hpp:77] Creating layer conv7_1_relu
I0602 16:55:10.020243  9788 net.cpp:100] Creating Layer conv7_1_relu
I0602 16:55:10.020248  9788 net.cpp:434] conv7_1_relu <- conv7_1
I0602 16:55:10.020254  9788 net.cpp:395] conv7_1_relu -> conv7_1 (in-place)
I0602 16:55:10.020395  9788 net.cpp:150] Setting up conv7_1_relu
I0602 16:55:10.020403  9788 net.cpp:157] Top shape: 4 128 10 10 (51200)
I0602 16:55:10.020407  9788 net.cpp:165] Memory required for data: 940126272
I0602 16:55:10.020411  9788 layer_factory.hpp:77] Creating layer conv7_2
I0602 16:55:10.020422  9788 net.cpp:100] Creating Layer conv7_2
I0602 16:55:10.020427  9788 net.cpp:434] conv7_2 <- conv7_1
I0602 16:55:10.020436  9788 net.cpp:408] conv7_2 -> conv7_2
I0602 16:55:10.023409  9788 net.cpp:150] Setting up conv7_2
I0602 16:55:10.023422  9788 net.cpp:157] Top shape: 4 256 5 5 (25600)
I0602 16:55:10.023425  9788 net.cpp:165] Memory required for data: 940228672
I0602 16:55:10.023433  9788 layer_factory.hpp:77] Creating layer conv7_2_relu
I0602 16:55:10.023440  9788 net.cpp:100] Creating Layer conv7_2_relu
I0602 16:55:10.023452  9788 net.cpp:434] conv7_2_relu <- conv7_2
I0602 16:55:10.023458  9788 net.cpp:395] conv7_2_relu -> conv7_2 (in-place)
I0602 16:55:10.023604  9788 net.cpp:150] Setting up conv7_2_relu
I0602 16:55:10.023612  9788 net.cpp:157] Top shape: 4 256 5 5 (25600)
I0602 16:55:10.023615  9788 net.cpp:165] Memory required for data: 940331072
I0602 16:55:10.023619  9788 layer_factory.hpp:77] Creating layer conv7_2_conv7_2_relu_0_split
I0602 16:55:10.023628  9788 net.cpp:100] Creating Layer conv7_2_conv7_2_relu_0_split
I0602 16:55:10.023633  9788 net.cpp:434] conv7_2_conv7_2_relu_0_split <- conv7_2
I0602 16:55:10.023639  9788 net.cpp:408] conv7_2_conv7_2_relu_0_split -> conv7_2_conv7_2_relu_0_split_0
I0602 16:55:10.023648  9788 net.cpp:408] conv7_2_conv7_2_relu_0_split -> conv7_2_conv7_2_relu_0_split_1
I0602 16:55:10.023658  9788 net.cpp:408] conv7_2_conv7_2_relu_0_split -> conv7_2_conv7_2_relu_0_split_2
I0602 16:55:10.023665  9788 net.cpp:408] conv7_2_conv7_2_relu_0_split -> conv7_2_conv7_2_relu_0_split_3
I0602 16:55:10.023735  9788 net.cpp:150] Setting up conv7_2_conv7_2_relu_0_split
I0602 16:55:10.023741  9788 net.cpp:157] Top shape: 4 256 5 5 (25600)
I0602 16:55:10.023747  9788 net.cpp:157] Top shape: 4 256 5 5 (25600)
I0602 16:55:10.023752  9788 net.cpp:157] Top shape: 4 256 5 5 (25600)
I0602 16:55:10.023757  9788 net.cpp:157] Top shape: 4 256 5 5 (25600)
I0602 16:55:10.023761  9788 net.cpp:165] Memory required for data: 940740672
I0602 16:55:10.023766  9788 layer_factory.hpp:77] Creating layer conv8_1
I0602 16:55:10.023787  9788 net.cpp:100] Creating Layer conv8_1
I0602 16:55:10.023792  9788 net.cpp:434] conv8_1 <- conv7_2_conv7_2_relu_0_split_0
I0602 16:55:10.023798  9788 net.cpp:408] conv8_1 -> conv8_1
I0602 16:55:10.025073  9788 net.cpp:150] Setting up conv8_1
I0602 16:55:10.025084  9788 net.cpp:157] Top shape: 4 128 5 5 (12800)
I0602 16:55:10.025087  9788 net.cpp:165] Memory required for data: 940791872
I0602 16:55:10.025094  9788 layer_factory.hpp:77] Creating layer conv8_1_relu
I0602 16:55:10.025102  9788 net.cpp:100] Creating Layer conv8_1_relu
I0602 16:55:10.025107  9788 net.cpp:434] conv8_1_relu <- conv8_1
I0602 16:55:10.025115  9788 net.cpp:395] conv8_1_relu -> conv8_1 (in-place)
I0602 16:55:10.025713  9788 net.cpp:150] Setting up conv8_1_relu
I0602 16:55:10.025723  9788 net.cpp:157] Top shape: 4 128 5 5 (12800)
I0602 16:55:10.025727  9788 net.cpp:165] Memory required for data: 940843072
I0602 16:55:10.025732  9788 layer_factory.hpp:77] Creating layer conv8_2
I0602 16:55:10.025741  9788 net.cpp:100] Creating Layer conv8_2
I0602 16:55:10.025746  9788 net.cpp:434] conv8_2 <- conv8_1
I0602 16:55:10.025754  9788 net.cpp:408] conv8_2 -> conv8_2
I0602 16:55:10.029027  9788 net.cpp:150] Setting up conv8_2
I0602 16:55:10.029045  9788 net.cpp:157] Top shape: 4 256 3 3 (9216)
I0602 16:55:10.029063  9788 net.cpp:165] Memory required for data: 940879936
I0602 16:55:10.029072  9788 layer_factory.hpp:77] Creating layer conv8_2_relu
I0602 16:55:10.029083  9788 net.cpp:100] Creating Layer conv8_2_relu
I0602 16:55:10.029090  9788 net.cpp:434] conv8_2_relu <- conv8_2
I0602 16:55:10.029098  9788 net.cpp:395] conv8_2_relu -> conv8_2 (in-place)
I0602 16:55:10.029285  9788 net.cpp:150] Setting up conv8_2_relu
I0602 16:55:10.029294  9788 net.cpp:157] Top shape: 4 256 3 3 (9216)
I0602 16:55:10.029297  9788 net.cpp:165] Memory required for data: 940916800
I0602 16:55:10.029301  9788 layer_factory.hpp:77] Creating layer conv8_2_conv8_2_relu_0_split
I0602 16:55:10.029322  9788 net.cpp:100] Creating Layer conv8_2_conv8_2_relu_0_split
I0602 16:55:10.029326  9788 net.cpp:434] conv8_2_conv8_2_relu_0_split <- conv8_2
I0602 16:55:10.029335  9788 net.cpp:408] conv8_2_conv8_2_relu_0_split -> conv8_2_conv8_2_relu_0_split_0
I0602 16:55:10.029345  9788 net.cpp:408] conv8_2_conv8_2_relu_0_split -> conv8_2_conv8_2_relu_0_split_1
I0602 16:55:10.029351  9788 net.cpp:408] conv8_2_conv8_2_relu_0_split -> conv8_2_conv8_2_relu_0_split_2
I0602 16:55:10.029361  9788 net.cpp:408] conv8_2_conv8_2_relu_0_split -> conv8_2_conv8_2_relu_0_split_3
I0602 16:55:10.029448  9788 net.cpp:150] Setting up conv8_2_conv8_2_relu_0_split
I0602 16:55:10.029455  9788 net.cpp:157] Top shape: 4 256 3 3 (9216)
I0602 16:55:10.029459  9788 net.cpp:157] Top shape: 4 256 3 3 (9216)
I0602 16:55:10.029464  9788 net.cpp:157] Top shape: 4 256 3 3 (9216)
I0602 16:55:10.029469  9788 net.cpp:157] Top shape: 4 256 3 3 (9216)
I0602 16:55:10.029472  9788 net.cpp:165] Memory required for data: 941064256
I0602 16:55:10.029475  9788 layer_factory.hpp:77] Creating layer conv9_1
I0602 16:55:10.029489  9788 net.cpp:100] Creating Layer conv9_1
I0602 16:55:10.029492  9788 net.cpp:434] conv9_1 <- conv8_2_conv8_2_relu_0_split_0
I0602 16:55:10.029501  9788 net.cpp:408] conv9_1 -> conv9_1
I0602 16:55:10.030854  9788 net.cpp:150] Setting up conv9_1
I0602 16:55:10.030864  9788 net.cpp:157] Top shape: 4 128 3 3 (4608)
I0602 16:55:10.030869  9788 net.cpp:165] Memory required for data: 941082688
I0602 16:55:10.030877  9788 layer_factory.hpp:77] Creating layer conv9_1_relu
I0602 16:55:10.030884  9788 net.cpp:100] Creating Layer conv9_1_relu
I0602 16:55:10.030889  9788 net.cpp:434] conv9_1_relu <- conv9_1
I0602 16:55:10.030896  9788 net.cpp:395] conv9_1_relu -> conv9_1 (in-place)
I0602 16:55:10.031038  9788 net.cpp:150] Setting up conv9_1_relu
I0602 16:55:10.031045  9788 net.cpp:157] Top shape: 4 128 3 3 (4608)
I0602 16:55:10.031049  9788 net.cpp:165] Memory required for data: 941101120
I0602 16:55:10.031052  9788 layer_factory.hpp:77] Creating layer conv9_2
I0602 16:55:10.031075  9788 net.cpp:100] Creating Layer conv9_2
I0602 16:55:10.031080  9788 net.cpp:434] conv9_2 <- conv9_1
I0602 16:55:10.031090  9788 net.cpp:408] conv9_2 -> conv9_2
I0602 16:55:10.034139  9788 net.cpp:150] Setting up conv9_2
I0602 16:55:10.034159  9788 net.cpp:157] Top shape: 4 256 1 1 (1024)
I0602 16:55:10.034163  9788 net.cpp:165] Memory required for data: 941105216
I0602 16:55:10.034171  9788 layer_factory.hpp:77] Creating layer conv9_2_relu
I0602 16:55:10.034179  9788 net.cpp:100] Creating Layer conv9_2_relu
I0602 16:55:10.034185  9788 net.cpp:434] conv9_2_relu <- conv9_2
I0602 16:55:10.034193  9788 net.cpp:395] conv9_2_relu -> conv9_2 (in-place)
I0602 16:55:10.034334  9788 net.cpp:150] Setting up conv9_2_relu
I0602 16:55:10.034342  9788 net.cpp:157] Top shape: 4 256 1 1 (1024)
I0602 16:55:10.034344  9788 net.cpp:165] Memory required for data: 941109312
I0602 16:55:10.034346  9788 layer_factory.hpp:77] Creating layer conv9_2_conv9_2_relu_0_split
I0602 16:55:10.034350  9788 net.cpp:100] Creating Layer conv9_2_conv9_2_relu_0_split
I0602 16:55:10.034355  9788 net.cpp:434] conv9_2_conv9_2_relu_0_split <- conv9_2
I0602 16:55:10.034363  9788 net.cpp:408] conv9_2_conv9_2_relu_0_split -> conv9_2_conv9_2_relu_0_split_0
I0602 16:55:10.034371  9788 net.cpp:408] conv9_2_conv9_2_relu_0_split -> conv9_2_conv9_2_relu_0_split_1
I0602 16:55:10.034380  9788 net.cpp:408] conv9_2_conv9_2_relu_0_split -> conv9_2_conv9_2_relu_0_split_2
I0602 16:55:10.034437  9788 net.cpp:150] Setting up conv9_2_conv9_2_relu_0_split
I0602 16:55:10.034443  9788 net.cpp:157] Top shape: 4 256 1 1 (1024)
I0602 16:55:10.034448  9788 net.cpp:157] Top shape: 4 256 1 1 (1024)
I0602 16:55:10.034453  9788 net.cpp:157] Top shape: 4 256 1 1 (1024)
I0602 16:55:10.034456  9788 net.cpp:165] Memory required for data: 941121600
I0602 16:55:10.034461  9788 layer_factory.hpp:77] Creating layer conv4_3_norm
I0602 16:55:10.034468  9788 net.cpp:100] Creating Layer conv4_3_norm
I0602 16:55:10.034473  9788 net.cpp:434] conv4_3_norm <- conv4_3_relu4_3_0_split_1
I0602 16:55:10.034479  9788 net.cpp:408] conv4_3_norm -> conv4_3_norm
I0602 16:55:10.034636  9788 net.cpp:150] Setting up conv4_3_norm
I0602 16:55:10.034643  9788 net.cpp:157] Top shape: 4 512 38 38 (2957312)
I0602 16:55:10.034647  9788 net.cpp:165] Memory required for data: 952950848
I0602 16:55:10.034652  9788 layer_factory.hpp:77] Creating layer conv4_3_norm_conv4_3_norm_0_split
I0602 16:55:10.034659  9788 net.cpp:100] Creating Layer conv4_3_norm_conv4_3_norm_0_split
I0602 16:55:10.034663  9788 net.cpp:434] conv4_3_norm_conv4_3_norm_0_split <- conv4_3_norm
I0602 16:55:10.034669  9788 net.cpp:408] conv4_3_norm_conv4_3_norm_0_split -> conv4_3_norm_conv4_3_norm_0_split_0
I0602 16:55:10.034677  9788 net.cpp:408] conv4_3_norm_conv4_3_norm_0_split -> conv4_3_norm_conv4_3_norm_0_split_1
I0602 16:55:10.034685  9788 net.cpp:408] conv4_3_norm_conv4_3_norm_0_split -> conv4_3_norm_conv4_3_norm_0_split_2
I0602 16:55:10.034739  9788 net.cpp:150] Setting up conv4_3_norm_conv4_3_norm_0_split
I0602 16:55:10.034744  9788 net.cpp:157] Top shape: 4 512 38 38 (2957312)
I0602 16:55:10.034749  9788 net.cpp:157] Top shape: 4 512 38 38 (2957312)
I0602 16:55:10.034754  9788 net.cpp:157] Top shape: 4 512 38 38 (2957312)
I0602 16:55:10.034759  9788 net.cpp:165] Memory required for data: 988438592
I0602 16:55:10.034761  9788 layer_factory.hpp:77] Creating layer conv4_3_norm_mbox_loc
I0602 16:55:10.034771  9788 net.cpp:100] Creating Layer conv4_3_norm_mbox_loc
I0602 16:55:10.034776  9788 net.cpp:434] conv4_3_norm_mbox_loc <- conv4_3_norm_conv4_3_norm_0_split_0
I0602 16:55:10.034785  9788 net.cpp:408] conv4_3_norm_mbox_loc -> conv4_3_norm_mbox_loc
I0602 16:55:10.036736  9788 net.cpp:150] Setting up conv4_3_norm_mbox_loc
I0602 16:55:10.036747  9788 net.cpp:157] Top shape: 4 16 38 38 (92416)
I0602 16:55:10.036752  9788 net.cpp:165] Memory required for data: 988808256
I0602 16:55:10.036759  9788 layer_factory.hpp:77] Creating layer conv4_3_norm_mbox_loc_perm
I0602 16:55:10.036770  9788 net.cpp:100] Creating Layer conv4_3_norm_mbox_loc_perm
I0602 16:55:10.036784  9788 net.cpp:434] conv4_3_norm_mbox_loc_perm <- conv4_3_norm_mbox_loc
I0602 16:55:10.036793  9788 net.cpp:408] conv4_3_norm_mbox_loc_perm -> conv4_3_norm_mbox_loc_perm
I0602 16:55:10.036900  9788 net.cpp:150] Setting up conv4_3_norm_mbox_loc_perm
I0602 16:55:10.036906  9788 net.cpp:157] Top shape: 4 38 38 16 (92416)
I0602 16:55:10.036909  9788 net.cpp:165] Memory required for data: 989177920
I0602 16:55:10.036913  9788 layer_factory.hpp:77] Creating layer conv4_3_norm_mbox_loc_flat
I0602 16:55:10.036921  9788 net.cpp:100] Creating Layer conv4_3_norm_mbox_loc_flat
I0602 16:55:10.036926  9788 net.cpp:434] conv4_3_norm_mbox_loc_flat <- conv4_3_norm_mbox_loc_perm
I0602 16:55:10.036931  9788 net.cpp:408] conv4_3_norm_mbox_loc_flat -> conv4_3_norm_mbox_loc_flat
I0602 16:55:10.036968  9788 net.cpp:150] Setting up conv4_3_norm_mbox_loc_flat
I0602 16:55:10.036974  9788 net.cpp:157] Top shape: 4 23104 (92416)
I0602 16:55:10.036978  9788 net.cpp:165] Memory required for data: 989547584
I0602 16:55:10.036983  9788 layer_factory.hpp:77] Creating layer conv4_3_norm_mbox_conf
I0602 16:55:10.036998  9788 net.cpp:100] Creating Layer conv4_3_norm_mbox_conf
I0602 16:55:10.037001  9788 net.cpp:434] conv4_3_norm_mbox_conf <- conv4_3_norm_conv4_3_norm_0_split_1
I0602 16:55:10.037009  9788 net.cpp:408] conv4_3_norm_mbox_conf -> conv4_3_norm_mbox_conf
I0602 16:55:10.038908  9788 net.cpp:150] Setting up conv4_3_norm_mbox_conf
I0602 16:55:10.038918  9788 net.cpp:157] Top shape: 4 16 38 38 (92416)
I0602 16:55:10.038923  9788 net.cpp:165] Memory required for data: 989917248
I0602 16:55:10.038929  9788 layer_factory.hpp:77] Creating layer conv4_3_norm_mbox_conf_perm
I0602 16:55:10.038938  9788 net.cpp:100] Creating Layer conv4_3_norm_mbox_conf_perm
I0602 16:55:10.038944  9788 net.cpp:434] conv4_3_norm_mbox_conf_perm <- conv4_3_norm_mbox_conf
I0602 16:55:10.038950  9788 net.cpp:408] conv4_3_norm_mbox_conf_perm -> conv4_3_norm_mbox_conf_perm
I0602 16:55:10.039057  9788 net.cpp:150] Setting up conv4_3_norm_mbox_conf_perm
I0602 16:55:10.039064  9788 net.cpp:157] Top shape: 4 38 38 16 (92416)
I0602 16:55:10.039068  9788 net.cpp:165] Memory required for data: 990286912
I0602 16:55:10.039072  9788 layer_factory.hpp:77] Creating layer conv4_3_norm_mbox_conf_flat
I0602 16:55:10.039078  9788 net.cpp:100] Creating Layer conv4_3_norm_mbox_conf_flat
I0602 16:55:10.039084  9788 net.cpp:434] conv4_3_norm_mbox_conf_flat <- conv4_3_norm_mbox_conf_perm
I0602 16:55:10.039090  9788 net.cpp:408] conv4_3_norm_mbox_conf_flat -> conv4_3_norm_mbox_conf_flat
I0602 16:55:10.039116  9788 net.cpp:150] Setting up conv4_3_norm_mbox_conf_flat
I0602 16:55:10.039122  9788 net.cpp:157] Top shape: 4 23104 (92416)
I0602 16:55:10.039125  9788 net.cpp:165] Memory required for data: 990656576
I0602 16:55:10.039129  9788 layer_factory.hpp:77] Creating layer conv4_3_norm_mbox_priorbox
I0602 16:55:10.039139  9788 net.cpp:100] Creating Layer conv4_3_norm_mbox_priorbox
I0602 16:55:10.039142  9788 net.cpp:434] conv4_3_norm_mbox_priorbox <- conv4_3_norm_conv4_3_norm_0_split_2
I0602 16:55:10.039149  9788 net.cpp:434] conv4_3_norm_mbox_priorbox <- data_data_0_split_1
I0602 16:55:10.039156  9788 net.cpp:408] conv4_3_norm_mbox_priorbox -> conv4_3_norm_mbox_priorbox
I0602 16:55:10.039185  9788 net.cpp:150] Setting up conv4_3_norm_mbox_priorbox
I0602 16:55:10.039191  9788 net.cpp:157] Top shape: 1 2 23104 (46208)
I0602 16:55:10.039194  9788 net.cpp:165] Memory required for data: 990841408
I0602 16:55:10.039199  9788 layer_factory.hpp:77] Creating layer fc7_mbox_loc
I0602 16:55:10.039208  9788 net.cpp:100] Creating Layer fc7_mbox_loc
I0602 16:55:10.039213  9788 net.cpp:434] fc7_mbox_loc <- fc7_relu7_0_split_1
I0602 16:55:10.039222  9788 net.cpp:408] fc7_mbox_loc -> fc7_mbox_loc
I0602 16:55:10.041728  9788 net.cpp:150] Setting up fc7_mbox_loc
I0602 16:55:10.041739  9788 net.cpp:157] Top shape: 4 24 19 19 (34656)
I0602 16:55:10.041743  9788 net.cpp:165] Memory required for data: 990980032
I0602 16:55:10.041750  9788 layer_factory.hpp:77] Creating layer fc7_mbox_loc_perm
I0602 16:55:10.041759  9788 net.cpp:100] Creating Layer fc7_mbox_loc_perm
I0602 16:55:10.041774  9788 net.cpp:434] fc7_mbox_loc_perm <- fc7_mbox_loc
I0602 16:55:10.041782  9788 net.cpp:408] fc7_mbox_loc_perm -> fc7_mbox_loc_perm
I0602 16:55:10.041888  9788 net.cpp:150] Setting up fc7_mbox_loc_perm
I0602 16:55:10.041898  9788 net.cpp:157] Top shape: 4 19 19 24 (34656)
I0602 16:55:10.041901  9788 net.cpp:165] Memory required for data: 991118656
I0602 16:55:10.041904  9788 layer_factory.hpp:77] Creating layer fc7_mbox_loc_flat
I0602 16:55:10.041910  9788 net.cpp:100] Creating Layer fc7_mbox_loc_flat
I0602 16:55:10.041915  9788 net.cpp:434] fc7_mbox_loc_flat <- fc7_mbox_loc_perm
I0602 16:55:10.041923  9788 net.cpp:408] fc7_mbox_loc_flat -> fc7_mbox_loc_flat
I0602 16:55:10.041949  9788 net.cpp:150] Setting up fc7_mbox_loc_flat
I0602 16:55:10.041954  9788 net.cpp:157] Top shape: 4 8664 (34656)
I0602 16:55:10.041959  9788 net.cpp:165] Memory required for data: 991257280
I0602 16:55:10.041961  9788 layer_factory.hpp:77] Creating layer fc7_mbox_conf
I0602 16:55:10.041973  9788 net.cpp:100] Creating Layer fc7_mbox_conf
I0602 16:55:10.041977  9788 net.cpp:434] fc7_mbox_conf <- fc7_relu7_0_split_2
I0602 16:55:10.041985  9788 net.cpp:408] fc7_mbox_conf -> fc7_mbox_conf
I0602 16:55:10.044555  9788 net.cpp:150] Setting up fc7_mbox_conf
I0602 16:55:10.044569  9788 net.cpp:157] Top shape: 4 24 19 19 (34656)
I0602 16:55:10.044574  9788 net.cpp:165] Memory required for data: 991395904
I0602 16:55:10.044580  9788 layer_factory.hpp:77] Creating layer fc7_mbox_conf_perm
I0602 16:55:10.044589  9788 net.cpp:100] Creating Layer fc7_mbox_conf_perm
I0602 16:55:10.044595  9788 net.cpp:434] fc7_mbox_conf_perm <- fc7_mbox_conf
I0602 16:55:10.044602  9788 net.cpp:408] fc7_mbox_conf_perm -> fc7_mbox_conf_perm
I0602 16:55:10.044769  9788 net.cpp:150] Setting up fc7_mbox_conf_perm
I0602 16:55:10.044777  9788 net.cpp:157] Top shape: 4 19 19 24 (34656)
I0602 16:55:10.044780  9788 net.cpp:165] Memory required for data: 991534528
I0602 16:55:10.044785  9788 layer_factory.hpp:77] Creating layer fc7_mbox_conf_flat
I0602 16:55:10.044807  9788 net.cpp:100] Creating Layer fc7_mbox_conf_flat
I0602 16:55:10.044813  9788 net.cpp:434] fc7_mbox_conf_flat <- fc7_mbox_conf_perm
I0602 16:55:10.044821  9788 net.cpp:408] fc7_mbox_conf_flat -> fc7_mbox_conf_flat
I0602 16:55:10.044859  9788 net.cpp:150] Setting up fc7_mbox_conf_flat
I0602 16:55:10.044865  9788 net.cpp:157] Top shape: 4 8664 (34656)
I0602 16:55:10.044870  9788 net.cpp:165] Memory required for data: 991673152
I0602 16:55:10.044873  9788 layer_factory.hpp:77] Creating layer fc7_mbox_priorbox
I0602 16:55:10.044883  9788 net.cpp:100] Creating Layer fc7_mbox_priorbox
I0602 16:55:10.044886  9788 net.cpp:434] fc7_mbox_priorbox <- fc7_relu7_0_split_3
I0602 16:55:10.044893  9788 net.cpp:434] fc7_mbox_priorbox <- data_data_0_split_2
I0602 16:55:10.044903  9788 net.cpp:408] fc7_mbox_priorbox -> fc7_mbox_priorbox
I0602 16:55:10.044931  9788 net.cpp:150] Setting up fc7_mbox_priorbox
I0602 16:55:10.044939  9788 net.cpp:157] Top shape: 1 2 8664 (17328)
I0602 16:55:10.044944  9788 net.cpp:165] Memory required for data: 991742464
I0602 16:55:10.044947  9788 layer_factory.hpp:77] Creating layer conv6_2_mbox_loc
I0602 16:55:10.044958  9788 net.cpp:100] Creating Layer conv6_2_mbox_loc
I0602 16:55:10.044963  9788 net.cpp:434] conv6_2_mbox_loc <- conv6_2_conv6_2_relu_0_split_1
I0602 16:55:10.044971  9788 net.cpp:408] conv6_2_mbox_loc -> conv6_2_mbox_loc
I0602 16:55:10.047025  9788 net.cpp:150] Setting up conv6_2_mbox_loc
I0602 16:55:10.047035  9788 net.cpp:157] Top shape: 4 24 10 10 (9600)
I0602 16:55:10.047039  9788 net.cpp:165] Memory required for data: 991780864
I0602 16:55:10.047047  9788 layer_factory.hpp:77] Creating layer conv6_2_mbox_loc_perm
I0602 16:55:10.047055  9788 net.cpp:100] Creating Layer conv6_2_mbox_loc_perm
I0602 16:55:10.047060  9788 net.cpp:434] conv6_2_mbox_loc_perm <- conv6_2_mbox_loc
I0602 16:55:10.047068  9788 net.cpp:408] conv6_2_mbox_loc_perm -> conv6_2_mbox_loc_perm
I0602 16:55:10.047179  9788 net.cpp:150] Setting up conv6_2_mbox_loc_perm
I0602 16:55:10.047194  9788 net.cpp:157] Top shape: 4 10 10 24 (9600)
I0602 16:55:10.047199  9788 net.cpp:165] Memory required for data: 991819264
I0602 16:55:10.047202  9788 layer_factory.hpp:77] Creating layer conv6_2_mbox_loc_flat
I0602 16:55:10.047209  9788 net.cpp:100] Creating Layer conv6_2_mbox_loc_flat
I0602 16:55:10.047214  9788 net.cpp:434] conv6_2_mbox_loc_flat <- conv6_2_mbox_loc_perm
I0602 16:55:10.047224  9788 net.cpp:408] conv6_2_mbox_loc_flat -> conv6_2_mbox_loc_flat
I0602 16:55:10.047248  9788 net.cpp:150] Setting up conv6_2_mbox_loc_flat
I0602 16:55:10.047255  9788 net.cpp:157] Top shape: 4 2400 (9600)
I0602 16:55:10.047258  9788 net.cpp:165] Memory required for data: 991857664
I0602 16:55:10.047262  9788 layer_factory.hpp:77] Creating layer conv6_2_mbox_conf
I0602 16:55:10.047273  9788 net.cpp:100] Creating Layer conv6_2_mbox_conf
I0602 16:55:10.047278  9788 net.cpp:434] conv6_2_mbox_conf <- conv6_2_conv6_2_relu_0_split_2
I0602 16:55:10.047286  9788 net.cpp:408] conv6_2_mbox_conf -> conv6_2_mbox_conf
I0602 16:55:10.049418  9788 net.cpp:150] Setting up conv6_2_mbox_conf
I0602 16:55:10.049430  9788 net.cpp:157] Top shape: 4 24 10 10 (9600)
I0602 16:55:10.049435  9788 net.cpp:165] Memory required for data: 991896064
I0602 16:55:10.049443  9788 layer_factory.hpp:77] Creating layer conv6_2_mbox_conf_perm
I0602 16:55:10.049450  9788 net.cpp:100] Creating Layer conv6_2_mbox_conf_perm
I0602 16:55:10.049455  9788 net.cpp:434] conv6_2_mbox_conf_perm <- conv6_2_mbox_conf
I0602 16:55:10.049465  9788 net.cpp:408] conv6_2_mbox_conf_perm -> conv6_2_mbox_conf_perm
I0602 16:55:10.049592  9788 net.cpp:150] Setting up conv6_2_mbox_conf_perm
I0602 16:55:10.049599  9788 net.cpp:157] Top shape: 4 10 10 24 (9600)
I0602 16:55:10.049602  9788 net.cpp:165] Memory required for data: 991934464
I0602 16:55:10.049607  9788 layer_factory.hpp:77] Creating layer conv6_2_mbox_conf_flat
I0602 16:55:10.049613  9788 net.cpp:100] Creating Layer conv6_2_mbox_conf_flat
I0602 16:55:10.049618  9788 net.cpp:434] conv6_2_mbox_conf_flat <- conv6_2_mbox_conf_perm
I0602 16:55:10.049626  9788 net.cpp:408] conv6_2_mbox_conf_flat -> conv6_2_mbox_conf_flat
I0602 16:55:10.049654  9788 net.cpp:150] Setting up conv6_2_mbox_conf_flat
I0602 16:55:10.049659  9788 net.cpp:157] Top shape: 4 2400 (9600)
I0602 16:55:10.049662  9788 net.cpp:165] Memory required for data: 991972864
I0602 16:55:10.049665  9788 layer_factory.hpp:77] Creating layer conv6_2_mbox_priorbox
I0602 16:55:10.049675  9788 net.cpp:100] Creating Layer conv6_2_mbox_priorbox
I0602 16:55:10.049679  9788 net.cpp:434] conv6_2_mbox_priorbox <- conv6_2_conv6_2_relu_0_split_3
I0602 16:55:10.049685  9788 net.cpp:434] conv6_2_mbox_priorbox <- data_data_0_split_3
I0602 16:55:10.049695  9788 net.cpp:408] conv6_2_mbox_priorbox -> conv6_2_mbox_priorbox
I0602 16:55:10.049722  9788 net.cpp:150] Setting up conv6_2_mbox_priorbox
I0602 16:55:10.049728  9788 net.cpp:157] Top shape: 1 2 2400 (4800)
I0602 16:55:10.049732  9788 net.cpp:165] Memory required for data: 991992064
I0602 16:55:10.049736  9788 layer_factory.hpp:77] Creating layer conv7_2_mbox_loc
I0602 16:55:10.049747  9788 net.cpp:100] Creating Layer conv7_2_mbox_loc
I0602 16:55:10.049752  9788 net.cpp:434] conv7_2_mbox_loc <- conv7_2_conv7_2_relu_0_split_1
I0602 16:55:10.049760  9788 net.cpp:408] conv7_2_mbox_loc -> conv7_2_mbox_loc
I0602 16:55:10.051144  9788 net.cpp:150] Setting up conv7_2_mbox_loc
I0602 16:55:10.051154  9788 net.cpp:157] Top shape: 4 24 5 5 (2400)
I0602 16:55:10.051158  9788 net.cpp:165] Memory required for data: 992001664
I0602 16:55:10.051165  9788 layer_factory.hpp:77] Creating layer conv7_2_mbox_loc_perm
I0602 16:55:10.051174  9788 net.cpp:100] Creating Layer conv7_2_mbox_loc_perm
I0602 16:55:10.051180  9788 net.cpp:434] conv7_2_mbox_loc_perm <- conv7_2_mbox_loc
I0602 16:55:10.051187  9788 net.cpp:408] conv7_2_mbox_loc_perm -> conv7_2_mbox_loc_perm
I0602 16:55:10.051295  9788 net.cpp:150] Setting up conv7_2_mbox_loc_perm
I0602 16:55:10.051301  9788 net.cpp:157] Top shape: 4 5 5 24 (2400)
I0602 16:55:10.051306  9788 net.cpp:165] Memory required for data: 992011264
I0602 16:55:10.051317  9788 layer_factory.hpp:77] Creating layer conv7_2_mbox_loc_flat
I0602 16:55:10.051324  9788 net.cpp:100] Creating Layer conv7_2_mbox_loc_flat
I0602 16:55:10.051329  9788 net.cpp:434] conv7_2_mbox_loc_flat <- conv7_2_mbox_loc_perm
I0602 16:55:10.051337  9788 net.cpp:408] conv7_2_mbox_loc_flat -> conv7_2_mbox_loc_flat
I0602 16:55:10.051363  9788 net.cpp:150] Setting up conv7_2_mbox_loc_flat
I0602 16:55:10.051369  9788 net.cpp:157] Top shape: 4 600 (2400)
I0602 16:55:10.051373  9788 net.cpp:165] Memory required for data: 992020864
I0602 16:55:10.051376  9788 layer_factory.hpp:77] Creating layer conv7_2_mbox_conf
I0602 16:55:10.051386  9788 net.cpp:100] Creating Layer conv7_2_mbox_conf
I0602 16:55:10.051390  9788 net.cpp:434] conv7_2_mbox_conf <- conv7_2_conv7_2_relu_0_split_2
I0602 16:55:10.051399  9788 net.cpp:408] conv7_2_mbox_conf -> conv7_2_mbox_conf
I0602 16:55:10.053230  9788 net.cpp:150] Setting up conv7_2_mbox_conf
I0602 16:55:10.053241  9788 net.cpp:157] Top shape: 4 24 5 5 (2400)
I0602 16:55:10.053244  9788 net.cpp:165] Memory required for data: 992030464
I0602 16:55:10.053251  9788 layer_factory.hpp:77] Creating layer conv7_2_mbox_conf_perm
I0602 16:55:10.053258  9788 net.cpp:100] Creating Layer conv7_2_mbox_conf_perm
I0602 16:55:10.053264  9788 net.cpp:434] conv7_2_mbox_conf_perm <- conv7_2_mbox_conf
I0602 16:55:10.053273  9788 net.cpp:408] conv7_2_mbox_conf_perm -> conv7_2_mbox_conf_perm
I0602 16:55:10.053382  9788 net.cpp:150] Setting up conv7_2_mbox_conf_perm
I0602 16:55:10.053388  9788 net.cpp:157] Top shape: 4 5 5 24 (2400)
I0602 16:55:10.053392  9788 net.cpp:165] Memory required for data: 992040064
I0602 16:55:10.053396  9788 layer_factory.hpp:77] Creating layer conv7_2_mbox_conf_flat
I0602 16:55:10.053402  9788 net.cpp:100] Creating Layer conv7_2_mbox_conf_flat
I0602 16:55:10.053408  9788 net.cpp:434] conv7_2_mbox_conf_flat <- conv7_2_mbox_conf_perm
I0602 16:55:10.053417  9788 net.cpp:408] conv7_2_mbox_conf_flat -> conv7_2_mbox_conf_flat
I0602 16:55:10.053442  9788 net.cpp:150] Setting up conv7_2_mbox_conf_flat
I0602 16:55:10.053448  9788 net.cpp:157] Top shape: 4 600 (2400)
I0602 16:55:10.053452  9788 net.cpp:165] Memory required for data: 992049664
I0602 16:55:10.053457  9788 layer_factory.hpp:77] Creating layer conv7_2_mbox_priorbox
I0602 16:55:10.053464  9788 net.cpp:100] Creating Layer conv7_2_mbox_priorbox
I0602 16:55:10.053468  9788 net.cpp:434] conv7_2_mbox_priorbox <- conv7_2_conv7_2_relu_0_split_3
I0602 16:55:10.053474  9788 net.cpp:434] conv7_2_mbox_priorbox <- data_data_0_split_4
I0602 16:55:10.053483  9788 net.cpp:408] conv7_2_mbox_priorbox -> conv7_2_mbox_priorbox
I0602 16:55:10.053511  9788 net.cpp:150] Setting up conv7_2_mbox_priorbox
I0602 16:55:10.053517  9788 net.cpp:157] Top shape: 1 2 600 (1200)
I0602 16:55:10.053520  9788 net.cpp:165] Memory required for data: 992054464
I0602 16:55:10.053524  9788 layer_factory.hpp:77] Creating layer conv8_2_mbox_loc
I0602 16:55:10.053536  9788 net.cpp:100] Creating Layer conv8_2_mbox_loc
I0602 16:55:10.053541  9788 net.cpp:434] conv8_2_mbox_loc <- conv8_2_conv8_2_relu_0_split_1
I0602 16:55:10.053549  9788 net.cpp:408] conv8_2_mbox_loc -> conv8_2_mbox_loc
I0602 16:55:10.055299  9788 net.cpp:150] Setting up conv8_2_mbox_loc
I0602 16:55:10.055310  9788 net.cpp:157] Top shape: 4 16 3 3 (576)
I0602 16:55:10.055315  9788 net.cpp:165] Memory required for data: 992056768
I0602 16:55:10.055330  9788 layer_factory.hpp:77] Creating layer conv8_2_mbox_loc_perm
I0602 16:55:10.055339  9788 net.cpp:100] Creating Layer conv8_2_mbox_loc_perm
I0602 16:55:10.055346  9788 net.cpp:434] conv8_2_mbox_loc_perm <- conv8_2_mbox_loc
I0602 16:55:10.055352  9788 net.cpp:408] conv8_2_mbox_loc_perm -> conv8_2_mbox_loc_perm
I0602 16:55:10.055464  9788 net.cpp:150] Setting up conv8_2_mbox_loc_perm
I0602 16:55:10.055470  9788 net.cpp:157] Top shape: 4 3 3 16 (576)
I0602 16:55:10.055474  9788 net.cpp:165] Memory required for data: 992059072
I0602 16:55:10.055477  9788 layer_factory.hpp:77] Creating layer conv8_2_mbox_loc_flat
I0602 16:55:10.055492  9788 net.cpp:100] Creating Layer conv8_2_mbox_loc_flat
I0602 16:55:10.055497  9788 net.cpp:434] conv8_2_mbox_loc_flat <- conv8_2_mbox_loc_perm
I0602 16:55:10.055505  9788 net.cpp:408] conv8_2_mbox_loc_flat -> conv8_2_mbox_loc_flat
I0602 16:55:10.055531  9788 net.cpp:150] Setting up conv8_2_mbox_loc_flat
I0602 16:55:10.055536  9788 net.cpp:157] Top shape: 4 144 (576)
I0602 16:55:10.055541  9788 net.cpp:165] Memory required for data: 992061376
I0602 16:55:10.055544  9788 layer_factory.hpp:77] Creating layer conv8_2_mbox_conf
I0602 16:55:10.055553  9788 net.cpp:100] Creating Layer conv8_2_mbox_conf
I0602 16:55:10.055558  9788 net.cpp:434] conv8_2_mbox_conf <- conv8_2_conv8_2_relu_0_split_2
I0602 16:55:10.055567  9788 net.cpp:408] conv8_2_mbox_conf -> conv8_2_mbox_conf
I0602 16:55:10.057324  9788 net.cpp:150] Setting up conv8_2_mbox_conf
I0602 16:55:10.057334  9788 net.cpp:157] Top shape: 4 16 3 3 (576)
I0602 16:55:10.057338  9788 net.cpp:165] Memory required for data: 992063680
I0602 16:55:10.057345  9788 layer_factory.hpp:77] Creating layer conv8_2_mbox_conf_perm
I0602 16:55:10.057354  9788 net.cpp:100] Creating Layer conv8_2_mbox_conf_perm
I0602 16:55:10.057359  9788 net.cpp:434] conv8_2_mbox_conf_perm <- conv8_2_mbox_conf
I0602 16:55:10.057368  9788 net.cpp:408] conv8_2_mbox_conf_perm -> conv8_2_mbox_conf_perm
I0602 16:55:10.057473  9788 net.cpp:150] Setting up conv8_2_mbox_conf_perm
I0602 16:55:10.057481  9788 net.cpp:157] Top shape: 4 3 3 16 (576)
I0602 16:55:10.057483  9788 net.cpp:165] Memory required for data: 992065984
I0602 16:55:10.057487  9788 layer_factory.hpp:77] Creating layer conv8_2_mbox_conf_flat
I0602 16:55:10.057494  9788 net.cpp:100] Creating Layer conv8_2_mbox_conf_flat
I0602 16:55:10.057499  9788 net.cpp:434] conv8_2_mbox_conf_flat <- conv8_2_mbox_conf_perm
I0602 16:55:10.057507  9788 net.cpp:408] conv8_2_mbox_conf_flat -> conv8_2_mbox_conf_flat
I0602 16:55:10.057533  9788 net.cpp:150] Setting up conv8_2_mbox_conf_flat
I0602 16:55:10.057538  9788 net.cpp:157] Top shape: 4 144 (576)
I0602 16:55:10.057543  9788 net.cpp:165] Memory required for data: 992068288
I0602 16:55:10.057545  9788 layer_factory.hpp:77] Creating layer conv8_2_mbox_priorbox
I0602 16:55:10.057554  9788 net.cpp:100] Creating Layer conv8_2_mbox_priorbox
I0602 16:55:10.057559  9788 net.cpp:434] conv8_2_mbox_priorbox <- conv8_2_conv8_2_relu_0_split_3
I0602 16:55:10.057564  9788 net.cpp:434] conv8_2_mbox_priorbox <- data_data_0_split_5
I0602 16:55:10.057571  9788 net.cpp:408] conv8_2_mbox_priorbox -> conv8_2_mbox_priorbox
I0602 16:55:10.057601  9788 net.cpp:150] Setting up conv8_2_mbox_priorbox
I0602 16:55:10.057607  9788 net.cpp:157] Top shape: 1 2 144 (288)
I0602 16:55:10.057611  9788 net.cpp:165] Memory required for data: 992069440
I0602 16:55:10.057615  9788 layer_factory.hpp:77] Creating layer conv9_2_mbox_loc
I0602 16:55:10.057626  9788 net.cpp:100] Creating Layer conv9_2_mbox_loc
I0602 16:55:10.057629  9788 net.cpp:434] conv9_2_mbox_loc <- conv9_2_conv9_2_relu_0_split_0
I0602 16:55:10.057637  9788 net.cpp:408] conv9_2_mbox_loc -> conv9_2_mbox_loc
I0602 16:55:10.059880  9788 net.cpp:150] Setting up conv9_2_mbox_loc
I0602 16:55:10.059890  9788 net.cpp:157] Top shape: 4 16 1 1 (64)
I0602 16:55:10.059893  9788 net.cpp:165] Memory required for data: 992069696
I0602 16:55:10.059900  9788 layer_factory.hpp:77] Creating layer conv9_2_mbox_loc_perm
I0602 16:55:10.059911  9788 net.cpp:100] Creating Layer conv9_2_mbox_loc_perm
I0602 16:55:10.059916  9788 net.cpp:434] conv9_2_mbox_loc_perm <- conv9_2_mbox_loc
I0602 16:55:10.059922  9788 net.cpp:408] conv9_2_mbox_loc_perm -> conv9_2_mbox_loc_perm
I0602 16:55:10.060041  9788 net.cpp:150] Setting up conv9_2_mbox_loc_perm
I0602 16:55:10.060050  9788 net.cpp:157] Top shape: 4 1 1 16 (64)
I0602 16:55:10.060052  9788 net.cpp:165] Memory required for data: 992069952
I0602 16:55:10.060056  9788 layer_factory.hpp:77] Creating layer conv9_2_mbox_loc_flat
I0602 16:55:10.060063  9788 net.cpp:100] Creating Layer conv9_2_mbox_loc_flat
I0602 16:55:10.060068  9788 net.cpp:434] conv9_2_mbox_loc_flat <- conv9_2_mbox_loc_perm
I0602 16:55:10.060083  9788 net.cpp:408] conv9_2_mbox_loc_flat -> conv9_2_mbox_loc_flat
I0602 16:55:10.060111  9788 net.cpp:150] Setting up conv9_2_mbox_loc_flat
I0602 16:55:10.060117  9788 net.cpp:157] Top shape: 4 16 (64)
I0602 16:55:10.060122  9788 net.cpp:165] Memory required for data: 992070208
I0602 16:55:10.060125  9788 layer_factory.hpp:77] Creating layer conv9_2_mbox_conf
I0602 16:55:10.060137  9788 net.cpp:100] Creating Layer conv9_2_mbox_conf
I0602 16:55:10.060142  9788 net.cpp:434] conv9_2_mbox_conf <- conv9_2_conv9_2_relu_0_split_1
I0602 16:55:10.060149  9788 net.cpp:408] conv9_2_mbox_conf -> conv9_2_mbox_conf
I0602 16:55:10.061946  9788 net.cpp:150] Setting up conv9_2_mbox_conf
I0602 16:55:10.061956  9788 net.cpp:157] Top shape: 4 16 1 1 (64)
I0602 16:55:10.061960  9788 net.cpp:165] Memory required for data: 992070464
I0602 16:55:10.061969  9788 layer_factory.hpp:77] Creating layer conv9_2_mbox_conf_perm
I0602 16:55:10.061975  9788 net.cpp:100] Creating Layer conv9_2_mbox_conf_perm
I0602 16:55:10.061981  9788 net.cpp:434] conv9_2_mbox_conf_perm <- conv9_2_mbox_conf
I0602 16:55:10.061990  9788 net.cpp:408] conv9_2_mbox_conf_perm -> conv9_2_mbox_conf_perm
I0602 16:55:10.062101  9788 net.cpp:150] Setting up conv9_2_mbox_conf_perm
I0602 16:55:10.062108  9788 net.cpp:157] Top shape: 4 1 1 16 (64)
I0602 16:55:10.062111  9788 net.cpp:165] Memory required for data: 992070720
I0602 16:55:10.062114  9788 layer_factory.hpp:77] Creating layer conv9_2_mbox_conf_flat
I0602 16:55:10.062122  9788 net.cpp:100] Creating Layer conv9_2_mbox_conf_flat
I0602 16:55:10.062127  9788 net.cpp:434] conv9_2_mbox_conf_flat <- conv9_2_mbox_conf_perm
I0602 16:55:10.062134  9788 net.cpp:408] conv9_2_mbox_conf_flat -> conv9_2_mbox_conf_flat
I0602 16:55:10.062161  9788 net.cpp:150] Setting up conv9_2_mbox_conf_flat
I0602 16:55:10.062168  9788 net.cpp:157] Top shape: 4 16 (64)
I0602 16:55:10.062171  9788 net.cpp:165] Memory required for data: 992070976
I0602 16:55:10.062175  9788 layer_factory.hpp:77] Creating layer conv9_2_mbox_priorbox
I0602 16:55:10.062185  9788 net.cpp:100] Creating Layer conv9_2_mbox_priorbox
I0602 16:55:10.062191  9788 net.cpp:434] conv9_2_mbox_priorbox <- conv9_2_conv9_2_relu_0_split_2
I0602 16:55:10.062196  9788 net.cpp:434] conv9_2_mbox_priorbox <- data_data_0_split_6
I0602 16:55:10.062203  9788 net.cpp:408] conv9_2_mbox_priorbox -> conv9_2_mbox_priorbox
I0602 16:55:10.062232  9788 net.cpp:150] Setting up conv9_2_mbox_priorbox
I0602 16:55:10.062239  9788 net.cpp:157] Top shape: 1 2 16 (32)
I0602 16:55:10.062243  9788 net.cpp:165] Memory required for data: 992071104
I0602 16:55:10.062247  9788 layer_factory.hpp:77] Creating layer mbox_loc
I0602 16:55:10.062255  9788 net.cpp:100] Creating Layer mbox_loc
I0602 16:55:10.062261  9788 net.cpp:434] mbox_loc <- conv4_3_norm_mbox_loc_flat
I0602 16:55:10.062268  9788 net.cpp:434] mbox_loc <- fc7_mbox_loc_flat
I0602 16:55:10.062273  9788 net.cpp:434] mbox_loc <- conv6_2_mbox_loc_flat
I0602 16:55:10.062278  9788 net.cpp:434] mbox_loc <- conv7_2_mbox_loc_flat
I0602 16:55:10.062284  9788 net.cpp:434] mbox_loc <- conv8_2_mbox_loc_flat
I0602 16:55:10.062289  9788 net.cpp:434] mbox_loc <- conv9_2_mbox_loc_flat
I0602 16:55:10.062297  9788 net.cpp:408] mbox_loc -> mbox_loc
I0602 16:55:10.062325  9788 net.cpp:150] Setting up mbox_loc
I0602 16:55:10.062331  9788 net.cpp:157] Top shape: 4 34928 (139712)
I0602 16:55:10.062335  9788 net.cpp:165] Memory required for data: 992629952
I0602 16:55:10.062338  9788 layer_factory.hpp:77] Creating layer mbox_conf
I0602 16:55:10.062345  9788 net.cpp:100] Creating Layer mbox_conf
I0602 16:55:10.062351  9788 net.cpp:434] mbox_conf <- conv4_3_norm_mbox_conf_flat
I0602 16:55:10.062357  9788 net.cpp:434] mbox_conf <- fc7_mbox_conf_flat
I0602 16:55:10.062362  9788 net.cpp:434] mbox_conf <- conv6_2_mbox_conf_flat
I0602 16:55:10.062367  9788 net.cpp:434] mbox_conf <- conv7_2_mbox_conf_flat
I0602 16:55:10.062372  9788 net.cpp:434] mbox_conf <- conv8_2_mbox_conf_flat
I0602 16:55:10.062377  9788 net.cpp:434] mbox_conf <- conv9_2_mbox_conf_flat
I0602 16:55:10.062392  9788 net.cpp:408] mbox_conf -> mbox_conf
I0602 16:55:10.062420  9788 net.cpp:150] Setting up mbox_conf
I0602 16:55:10.062427  9788 net.cpp:157] Top shape: 4 34928 (139712)
I0602 16:55:10.062430  9788 net.cpp:165] Memory required for data: 993188800
I0602 16:55:10.062434  9788 layer_factory.hpp:77] Creating layer mbox_priorbox
I0602 16:55:10.062440  9788 net.cpp:100] Creating Layer mbox_priorbox
I0602 16:55:10.062445  9788 net.cpp:434] mbox_priorbox <- conv4_3_norm_mbox_priorbox
I0602 16:55:10.062450  9788 net.cpp:434] mbox_priorbox <- fc7_mbox_priorbox
I0602 16:55:10.062455  9788 net.cpp:434] mbox_priorbox <- conv6_2_mbox_priorbox
I0602 16:55:10.062460  9788 net.cpp:434] mbox_priorbox <- conv7_2_mbox_priorbox
I0602 16:55:10.062465  9788 net.cpp:434] mbox_priorbox <- conv8_2_mbox_priorbox
I0602 16:55:10.062469  9788 net.cpp:434] mbox_priorbox <- conv9_2_mbox_priorbox
I0602 16:55:10.062476  9788 net.cpp:408] mbox_priorbox -> mbox_priorbox
I0602 16:55:10.062502  9788 net.cpp:150] Setting up mbox_priorbox
I0602 16:55:10.062510  9788 net.cpp:157] Top shape: 1 2 34928 (69856)
I0602 16:55:10.062513  9788 net.cpp:165] Memory required for data: 993468224
I0602 16:55:10.062516  9788 layer_factory.hpp:77] Creating layer mbox_conf_reshape
I0602 16:55:10.062523  9788 net.cpp:100] Creating Layer mbox_conf_reshape
I0602 16:55:10.062528  9788 net.cpp:434] mbox_conf_reshape <- mbox_conf
I0602 16:55:10.062536  9788 net.cpp:408] mbox_conf_reshape -> mbox_conf_reshape
I0602 16:55:10.062569  9788 net.cpp:150] Setting up mbox_conf_reshape
I0602 16:55:10.062575  9788 net.cpp:157] Top shape: 4 8732 4 (139712)
I0602 16:55:10.062579  9788 net.cpp:165] Memory required for data: 994027072
I0602 16:55:10.062583  9788 layer_factory.hpp:77] Creating layer mbox_conf_softmax
I0602 16:55:10.062589  9788 net.cpp:100] Creating Layer mbox_conf_softmax
I0602 16:55:10.062594  9788 net.cpp:434] mbox_conf_softmax <- mbox_conf_reshape
I0602 16:55:10.062603  9788 net.cpp:408] mbox_conf_softmax -> mbox_conf_softmax
I0602 16:55:10.062813  9788 net.cpp:150] Setting up mbox_conf_softmax
I0602 16:55:10.062822  9788 net.cpp:157] Top shape: 4 8732 4 (139712)
I0602 16:55:10.062825  9788 net.cpp:165] Memory required for data: 994585920
I0602 16:55:10.062830  9788 layer_factory.hpp:77] Creating layer mbox_conf_flatten
I0602 16:55:10.062836  9788 net.cpp:100] Creating Layer mbox_conf_flatten
I0602 16:55:10.062840  9788 net.cpp:434] mbox_conf_flatten <- mbox_conf_softmax
I0602 16:55:10.062846  9788 net.cpp:408] mbox_conf_flatten -> mbox_conf_flatten
I0602 16:55:10.062875  9788 net.cpp:150] Setting up mbox_conf_flatten
I0602 16:55:10.062880  9788 net.cpp:157] Top shape: 4 34928 (139712)
I0602 16:55:10.062885  9788 net.cpp:165] Memory required for data: 995144768
I0602 16:55:10.062887  9788 layer_factory.hpp:77] Creating layer detection_out
I0602 16:55:10.062901  9788 net.cpp:100] Creating Layer detection_out
I0602 16:55:10.062904  9788 net.cpp:434] detection_out <- mbox_loc
I0602 16:55:10.062909  9788 net.cpp:434] detection_out <- mbox_conf_flatten
I0602 16:55:10.062914  9788 net.cpp:434] detection_out <- mbox_priorbox
I0602 16:55:10.062923  9788 net.cpp:408] detection_out -> detection_out
I0602 16:55:10.064056  9788 net.cpp:150] Setting up detection_out
I0602 16:55:10.064066  9788 net.cpp:157] Top shape: 1 1 1 7 (7)
I0602 16:55:10.064070  9788 net.cpp:165] Memory required for data: 995144796
I0602 16:55:10.064074  9788 layer_factory.hpp:77] Creating layer detection_eval
I0602 16:55:10.064082  9788 net.cpp:100] Creating Layer detection_eval
I0602 16:55:10.064087  9788 net.cpp:434] detection_eval <- detection_out
I0602 16:55:10.064092  9788 net.cpp:434] detection_eval <- label
I0602 16:55:10.064100  9788 net.cpp:408] detection_eval -> detection_eval
I0602 16:55:10.064828  9788 net.cpp:150] Setting up detection_eval
I0602 16:55:10.064837  9788 net.cpp:157] Top shape: 1 1 4 5 (20)
I0602 16:55:10.064841  9788 net.cpp:165] Memory required for data: 995144876
I0602 16:55:10.064843  9788 net.cpp:228] detection_eval does not need backward computation.
I0602 16:55:10.064857  9788 net.cpp:228] detection_out does not need backward computation.
I0602 16:55:10.064862  9788 net.cpp:228] mbox_conf_flatten does not need backward computation.
I0602 16:55:10.064864  9788 net.cpp:228] mbox_conf_softmax does not need backward computation.
…
