…
        min_scale: 0.3
        max_scale: 1
        min_aspect_ratio: 0.5
        max_aspect_ratio: 2
      }
      sample_constraint {
        min_jaccard_overlap: 0.9
      }
      max_sample: 1
      max_trials: 50
    }
    batch_sampler {
      sampler {
        min_scale: 0.3
        max_scale: 1
        min_aspect_ratio: 0.5
        max_aspect_ratio: 2
      }
      sample_constraint {
        max_jaccard_overlap: 1
      }
      max_sample: 1
      max_trials: 50
    }
    label_map_file: "data/tbs_300x300_HSIL_10x/labelmap_tbs.prototxt"
  }
}
layer {
  name: "conv1_1"
  type: "Convolution"
  bottom: "data"
  top: "conv1_1"
  param {
    lr_mult: 1
    decay_mult: 1
  }
  param {
    lr_mult: 2
    decay_mult: 0
  }
  convolution_param {
    num_output: 64
    pad: 1
    kernel_size: 3
    weight_filler {
      type: "xavier"
    }
    bias_filler {
      type: "constant"
      value: 0
    }
  }
}
layer {
  name: "relu1_1"
  type: "ReLU"
  bottom: "conv1_1"
  top: "conv1_1"
}
layer {
  name: "conv1_2"
  type: "Convolution"
  bottom: "conv1_1"
  top: "conv1_2"
  param {
    lr_mult: 1
    decay_mult: 1
  }
  param {
    lr_mult: 2
    decay_mult: 0
  }
  convolution_param {
    num_output: 64
    pad: 1
    kernel_size: 3
    weight_filler {
      type: "xavier"
    }
    bias_filler {
      type: "constant"
      value: 0
    }
  }
}
layer {
  name: "relu1_2"
  type: "ReLU"
  bottom: "conv1_2"
  top: "conv1_2"
}
layer {
  name: "pool1"
  type: "Pooling"
  bottom: "conv1_2"
  top: "pool1"
  pooling_param {
    pool: MAX
    kernel_size: 2
    stride: 2
  }
}
layer {
  name: "conv2_1"
  type: "Convolution"
  bottom: "pool1"
  top: "conv2_1"
  param {
    lr_mult: 1
    decay_mult: 1
  }
  param {
    lr_mult: 2
    decay_mult: 0
  }
  convolution_param {
    num_output: 128
    pad: 1
    kernel_size: 3
    weight_filler {
      type: "xavier"
    }
    bias_filler {
      type: "constant"
      value: 0
    }
  }
}
layer {
  name: "relu2_1"
  type: "ReLU"
  bottom: "conv2_1"
  top: "conv2_1"
}
layer {
  name: "conv2_2"
  type: "Convolution"
  bottom: "conv2_1"
  top: "conv2_2"
  param {
    lr_mult: 1
    decay_mult: 1
  }
  param {
    lr_mult: 2
    decay_mult: 0
  }
  convolution_param {
    num_output: 128
    pad: 1
    kernel_size: 3
    weight_filler {
      type: "xavier"
    }
    bias_filler {
      type: "constant"
      value: 0
    }
  }
}
layer {
  name: "relu2_2"
  type: "ReLU"
  bottom: "conv2_2"
  top: "conv2_2"
}
layer {
  name: "pool2"
  type: "Pooling"
  bottom: "conv2_2"
  top: "pool2"
  pooling_param {
    pool: MAX
    kernel_size: 2
    stride: 2
  }
}
layer {
  name: "conv3_1"
  type: "Convolution"
  bottom: "pool2"
  top: "conv3_1"
  param {
    lr_mult: 1
    decay_mult: 1
  }
  param {
    lr_mult: 2
    decay_mult: 0
  }
  convolution_param {
    num_output: 256
    pad: 1
    kernel_size: 3
    weight_filler {
      type: "xavier"
    }
    bias_filler {
      type: "constant"
      value: 0
    }
  }
}
layer {
  name: "relu3_1"
  type: "ReLU"
  bottom: "conv3_1"
  top: "conv3_1"
}
layer {
  name: "conv3_2"
  type: "Convolution"
  bottom: "conv3_1"
  top: "conv3_2"
  param {
    lr_mult: 1
    decay_mult: 1
  }
  param {
    lr_mult: 2
    decay_mult: 0
  }
  convolution_param {
    num_output: 256
    pad: 1
    kernel_size: 3
    weight_filler {
      type: "xavier"
    }
    bias_filler {
      type: "constant"
      value: 0
    }
  }
}
layer {
  name: "relu3_2"
  type: "ReLU"
  bottom: "conv3_2"
  top: "conv3_2"
}
layer {
  name: "conv3_3"
  type: "Convolution"
  bottom: "conv3_2"
  top: "conv3_3"
  param {
    lr_mult: 1
    decay_mult: 1
  }
  param {
    lr_mult: 2
    decay_mult: 0
  }
  convolution_param {
    num_output: 256
    pad: 1
    kernel_size: 3
    weight_filler {
      type: "xavier"
    }
    bias_filler {
      type: "constant"
      value: 0
    }
  }
}
layer {
  name: "relu3_3"
  type: "ReLU"
  bottom: "conv3_3"
  top: "conv3_3"
}
layer {
  name: "pool3"
  type: "Pooling"
  bottom: "conv3_3"
  top: "pool3"
  pooling_param {
    pool: MAX
    kernel_size: 2
    stride: 2
  }
}
layer {
  name: "conv4_1"
  type: "Convolution"
  bottom: "pool3"
  top: "conv4_1"
  param {
    lr_mult: 1
    decay_mult: 1
  }
  param {
    lr_mult: 2
    decay_mult: 0
  }
  convolution_param {
    num_output: 512
    pad: 1
    kernel_size: 3
    weight_filler {
      type: "xavier"
    }
    bias_filler {
      type: "constant"
      value: 0
    }
  }
}
layer {
  name: "relu4_1"
  type: "ReLU"
  bottom: "conv4_1"
  top: "conv4_1"
}
layer {
  name: "conv4_2"
  type: "Convolution"
  bottom: "conv4_1"
  top: "conv4_2"
  param {
    lr_mult: 1
    decay_mult: 1
  }
  param {
    lr_mult: 2
    decay_mult: 0
  }
  convolution_param {
    num_output: 512
    pad: 1
    kernel_size: 3
    weight_filler {
      type: "xavier"
    }
    bias_filler {
      type: "constant"
      value: 0
    }
  }
}
layer {
  name: "relu4_2"
  type: "ReLU"
  bottom: "conv4_2"
  top: "conv4_2"
}
layer {
  name: "conv4_3"
  type: "Convolution"
  bottom: "conv4_2"
  top: "conv4_3"
  param {
    lr_mult: 1
    decay_mult: 1
  }
  param {
    lr_mult: 2
    decay_mult: 0
  }
  convolution_param {
    num_output: 512
    pad: 1
    kernel_size: 3
    weight_filler {
      type: "xavier"
    }
    bias_filler {
      type: "constant"
      value: 0
    }
  }
}
layer {
  name: "relu4_3"
  type: "ReLU"
  bottom: "conv4_3"
  top: "conv4_3"
}
layer {
  name: "pool4"
  type: "Pooling"
  bottom: "conv4_3"
  top: "pool4"
  pooling_param {
    pool: MAX
    kernel_size: 2
    stride: 2
  }
}
layer {
  name: "conv5_1"
  type: "Convolution"
  bottom: "pool4"
  top: "conv5_1"
  param {
    lr_mult: 1
    decay_mult: 1
  }
  param {
    lr_mult: 2
    decay_mult: 0
  }
  convolution_param {
    num_output: 512
    pad: 1
    kernel_size: 3
    weight_filler {
      type: "xavier"
    }
    bias_filler {
      type: "constant"
      value: 0
    }
    dilation: 1
  }
}
layer {
  name: "relu5_1"
  type: "ReLU"
  bottom: "conv5_1"
  top: "conv5_1"
}
layer {
  name: "conv5_2"
  type: "Convolution"
  bottom: "conv5_1"
  top: "conv5_2"
  param {
    lr_mult: 1
    decay_mult: 1
  }
  param {
    lr_mult: 2
    decay_mult: 0
  }
  convolution_param {
    num_output: 512
    pad: 1
    kernel_size: 3
    weight_filler {
      type: "xavier"
    }
    bias_filler {
      type: "constant"
      value: 0
    }
    dilation: 1
  }
}
layer {
  name: "relu5_2"
  type: "ReLU"
  bottom: "conv5_2"
  top: "conv5_2"
}
layer {
  name: "conv5_3"
  type: "Convolution"
  bottom: "conv5_2"
  top: "conv5_3"
  param {
    lr_mult: 1
    decay_mult: 1
  }
  param {
    lr_mult: 2
    decay_mult: 0
  }
  convolution_param {
    num_output: 512
    pad: 1
    kernel_size: 3
    weight_filler {
      type: "xavier"
    }
    bias_filler {
      type: "constant"
      value: 0
    }
    dilation: 1
  }
}
layer {
  name: "relu5_3"
  type: "ReLU"
  bottom: "conv5_3"
  top: "conv5_3"
}
layer {
  name: "pool5"
  type: "Pooling"
  bottom: "conv5_3"
  top: "pool5"
  pooling_param {
    pool: MAX
    kernel_size: 3
    stride: 1
    pad: 1
  }
}
layer {
  name: "fc6"
  type: "Convolution"
  bottom: "pool5"
  top: "fc6"
  param {
    lr_mult: 1
    decay_mult: 1
  }
  param {
    lr_mult: 2
    decay_mult: 0
  }
  convolution_param {
    num_output: 1024
    pad: 6
    kernel_size: 3
    weight_filler {
      type: "xavier"
    }
    bias_filler {
      type: "constant"
      value: 0
    }
    dilation: 6
  }
}
layer {
  name: "relu6"
  type: "ReLU"
  bottom: "fc6"
  top: "fc6"
}
layer {
  name: "fc7"
  type: "Convolution"
  bottom: "fc6"
  top: "fc7"
  param {
    lr_mult: 1
    decay_mult: 1
  }
  param {
    lr_mult: 2
    decay_mult: 0
  }
  convolution_param {
    num_output: 1024
    kernel_size: 1
    weight_filler {
      type: "xavier"
    }
    bias_filler {
      type: "constant"
      value: 0
    }
  }
}
layer {
  name: "relu7"
  type: "ReLU"
  bottom: "fc7"
  top: "fc7"
}
layer {
  name: "conv6_1"
  type: "Convolution"
  bottom: "fc7"
  top: "conv6_1"
  param {
    lr_mult: 1
    decay_mult: 1
  }
  param {
    lr_mult: 2
    decay_mult: 0
  }
  convolution_param {
    num_output: 256
    pad: 0
    kernel_size: 1
    stride: 1
    weight_filler {
      type: "xavier"
    }
    bias_filler {
      type: "constant"
      value: 0
    }
  }
}
layer {
  name: "conv6_1_relu"
  type: "ReLU"
  bottom: "conv6_1"
  top: "conv6_1"
}
layer {
  name: "conv6_2"
  type: "Convolution"
  bottom: "conv6_1"
  top: "conv6_2"
  param {
    lr_mult: 1
    decay_mult: 1
  }
  param {
    lr_mult: 2
    decay_mult: 0
  }
  convolution_param {
    num_output: 512
    pad: 1
    kernel_size: 3
    stride: 2
    weight_filler {
      type: "xavier"
    }
    bias_filler {
      type: "constant"
      value: 0
    }
  }
}
layer {
  name: "conv6_2_relu"
  type: "ReLU"
  bottom: "conv6_2"
  top: "conv6_2"
}
layer {
  name: "conv7_1"
  type: "Convolution"
  bottom: "conv6_2"
  top: "conv7_1"
  param {
    lr_mult: 1
    decay_mult: 1
  }
  param {
    lr_mult: 2
    decay_mult: 0
  }
  convolution_param {
    num_output: 128
    pad: 0
    kernel_size: 1
    stride: 1
    weight_filler {
      type: "xavier"
    }
    bias_filler {
      type: "constant"
      value: 0
    }
  }
}
layer {
  name: "conv7_1_relu"
  type: "ReLU"
  bottom: "conv7_1"
  top: "conv7_1"
}
layer {
  name: "conv7_2"
  type: "Convolution"
  bottom: "conv7_1"
  top: "conv7_2"
  param {
    lr_mult: 1
    decay_mult: 1
  }
  param {
    lr_mult: 2
    decay_mult: 0
  }
  convolution_param {
    num_output: 256
    pad: 1
    kernel_size: 3
    stride: 2
    weight_filler {
      type: "xavier"
    }
    bias_filler {
      type: "constant"
      value: 0
    }
  }
}
layer {
  name: "conv7_2_relu"
  type: "ReLU"
  bottom: "conv7_2"
  top: "conv7_2"
}
layer {
  name: "conv8_1"
  type: "Convolution"
  bottom: "conv7_2"
  top: "conv8_1"
  param {
    lr_mult: 1
    decay_mult: 1
  }
  param {
    lr_mult: 2
    decay_mult: 0
  }
  convolution_param {
    num_output: 128
    pad: 0
    kernel_size: 1
    stride: 1
    weight_filler {
      type: "xavier"
    }
    bias_filler {
      type: "constant"
      value: 0
    }
  }
}
layer {
  name: "conv8_1_relu"
  type: "ReLU"
  bottom: "conv8_1"
  top: "conv8_1"
}
layer {
  name: "conv8_2"
  type: "Convolution"
  bottom: "conv8_1"
  top: "conv8_2"
  param {
    lr_mult: 1
    decay_mult: 1
  }
  param {
    lr_mult: 2
    decay_mult: 0
  }
  convolution_param {
    num_output: 256
    pad: 0
    kernel_size: 3
    stride: 1
    weight_filler {
      type: "xavier"
    }
    bias_filler {
      type: "constant"
      value: 0
    }
  }
}
layer {
  name: "conv8_2_relu"
  type: "ReLU"
  bottom: "conv8_2"
  top: "conv8_2"
}
layer {
  name: "conv9_1"
  type: "Convolution"
  bottom: "conv8_2"
  top: "conv9_1"
  param {
    lr_mult: 1
    decay_mult: 1
  }
  param {
    lr_mult: 2
    decay_mult: 0
  }
  convolution_param {
    num_output: 128
    pad: 0
    kernel_size: 1
    stride: 1
    weight_filler {
      type: "xavier"
    }
    bias_filler {
      type: "constant"
      value: 0
    }
  }
}
layer {
  name: "conv9_1_relu"
  type: "ReLU"
  bottom: "conv9_1"
  top: "conv9_1"
}
layer {
  name: "conv9_2"
  type: "Convolution"
  bottom: "conv9_1"
  top: "conv9_2"
  param {
    lr_mult: 1
    decay_mult: 1
  }
  param {
    lr_mult: 2
    decay_mult: 0
  }
  convolution_param {
    num_output: 256
    pad: 0
    kernel_size: 3
    stride: 1
    weight_filler {
      type: "xavier"
    }
    bias_filler {
      type: "constant"
      value: 0
    }
  }
}
layer {
  name: "conv9_2_relu"
  type: "ReLU"
  bottom: "conv9_2"
  top: "conv9_2"
}
layer {
  name: "conv4_3_norm"
  type: "Normalize"
  bottom: "conv4_3"
  top: "conv4_3_norm"
  norm_param {
    across_spatial: false
    scale_filler {
      type: "constant"
      value: 20
    }
    channel_shared: false
  }
}
layer {
  name: "conv4_3_norm_mbox_loc"
  type: "Convolution"
  bottom: "conv4_3_norm"
  top: "conv4_3_norm_mbox_loc"
  param {
    lr_mult: 1
    decay_mult: 1
  }
  param {
    lr_mult: 2
    decay_mult: 0
  }
  convolution_param {
    num_output: 16
    pad: 1
    kernel_size: 3
    stride: 1
    weight_filler {
      type: "xavier"
    }
    bias_filler {
      type: "constant"
      value: 0
    }
  }
}
layer {
  name: "conv4_3_norm_mbox_loc_perm"
  type: "Permute"
  bottom: "conv4_3_norm_mbox_loc"
  top: "conv4_3_norm_mbox_loc_perm"
  permute_param {
    order: 0
    order: 2
    order: 3
    order: 1
  }
}
layer {
  name: "conv4_3_norm_mbox_loc_flat"
  type: "Flatten"
  bottom: "conv4_3_norm_mbox_loc_perm"
  top: "conv4_3_norm_mbox_loc_flat"
  flatten_param {
    axis: 1
  }
}
layer {
  name: "conv4_3_norm_mbox_conf"
  type: "Convolution"
  bottom: "conv4_3_norm"
  top: "conv4_3_norm_mbox_conf"
  param {
    lr_mult: 1
    decay_mult: 1
  }
  param {
    lr_mult: 2
    decay_mult: 0
  }
  convolution_param {
    num_output: 16
    pad: 1
    kernel_size: 3
    stride: 1
    weight_filler {
      type: "xavier"
    }
    bias_filler {
      type: "constant"
      value: 0
    }
  }
}
layer {
  name: "conv4_3_norm_mbox_conf_perm"
  type: "Permute"
  bottom: "conv4_3_norm_mbox_conf"
  top: "conv4_3_norm_mbox_conf_perm"
  permute_param {
    order: 0
    order: 2
    order: 3
    order: 1
  }
}
layer {
  name: "conv4_3_norm_mbox_conf_flat"
  type: "Flatten"
  bottom: "conv4_3_norm_mbox_conf_perm"
  top: "conv4_3_norm_mbox_conf_flat"
  flatten_param {
    axis: 1
  }
}
layer {
  name: "conv4_3_norm_mbox_priorbox"
  type: "PriorBox"
  bottom: "conv4_3_norm"
  bottom: "data"
  top: "conv4_3_norm_mbox_priorbox"
  prior_box_param {
    min_size: 30
    max_size: 60
    aspect_ratio: 2
    flip: true
    clip: false
    variance: 0.1
    variance: 0.1
    variance: 0.2
    variance: 0.2
    step: 8
    offset: 0.5
  }
}
layer {
  name: "fc7_mbox_loc"
  type: "Convolution"
  bottom: "fc7"
  top: "fc7_mbox_loc"
  param {
    lr_mult: 1
    decay_mult: 1
  }
  param {
    lr_mult: 2
    decay_mult: 0
  }
  convolution_param {
    num_output: 24
    pad: 1
    kernel_size: 3
    stride: 1
    weight_filler {
      type: "xavier"
    }
    bias_filler {
      type: "constant"
      value: 0
    }
  }
}
layer {
  name: "fc7_mbox_loc_perm"
  type: "Permute"
  bottom: "fc7_mbox_loc"
  top: "fc7_mbox_loc_perm"
  permute_param {
    order: 0
    order: 2
    order: 3
    order: 1
  }
}
layer {
  name: "fc7_mbox_loc_flat"
  type: "Flatten"
  bottom: "fc7_mbox_loc_perm"
  top: "fc7_mbox_loc_flat"
  flatten_param {
    axis: 1
  }
}
layer {
  name: "fc7_mbox_conf"
  type: "Convolution"
  bottom: "fc7"
  top: "fc7_mbox_conf"
  param {
    lr_mult: 1
    decay_mult: 1
  }
  param {
    lr_mult: 2
    decay_mult: 0
  }
  convolution_param {
    num_output: 24
    pad: 1
    kernel_size: 3
    stride: 1
    weight_filler {
      type: "xavier"
    }
    bias_filler {
      type: "constant"
      value: 0
    }
  }
}
layer {
  name: "fc7_mbox_conf_perm"
  type: "Permute"
  bottom: "fc7_mbox_conf"
  top: "fc7_mbox_conf_perm"
  permute_param {
    order: 0
    order: 2
    order: 3
    order: 1
  }
}
layer {
  name: "fc7_mbox_conf_flat"
  type: "Flatten"
  bottom: "fc7_mbox_conf_perm"
  top: "fc7_mbox_conf_flat"
  flatten_param {
    axis: 1
  }
}
layer {
  name: "fc7_mbox_priorbox"
  type: "PriorBox"
  bottom: "fc7"
  bottom: "data"
  top: "fc7_mbox_priorbox"
  prior_box_param {
    min_size: 60
    max_size: 111
    aspect_ratio: 2
    aspect_ratio: 3
    flip: true
    clip: false
    variance: 0.1
    variance: 0.1
    variance: 0.2
    variance: 0.2
    step: 16
    offset: 0.5
  }
}
layer {
  name: "conv6_2_mbox_loc"
  type: "Convolution"
  bottom: "conv6_2"
  top: "conv6_2_mbox_loc"
  param {
    lr_mult: 1
    decay_mult: 1
  }
  param {
    lr_mult: 2
    decay_mult: 0
  }
  convolution_param {
    num_output: 24
    pad: 1
    kernel_size: 3
    stride: 1
    weight_filler {
      type: "xavier"
    }
    bias_filler {
      type: "constant"
      value: 0
    }
  }
}
layer {
  name: "conv6_2_mbox_loc_perm"
  type: "Permute"
  bottom: "conv6_2_mbox_loc"
  top: "conv6_2_mbox_loc_perm"
  permute_param {
    order: 0
    order: 2
    order: 3
    order: 1
  }
}
layer {
  name: "conv6_2_mbox_loc_flat"
  type: "Flatten"
  bottom: "conv6_2_mbox_loc_perm"
  top: "conv6_2_mbox_loc_flat"
  flatten_param {
    axis: 1
  }
}
layer {
  name: "conv6_2_mbox_conf"
  type: "Convolution"
  bottom: "conv6_2"
  top: "conv6_2_mbox_conf"
  param {
    lr_mult: 1
    decay_mult: 1
  }
  param {
    lr_mult: 2
    decay_mult: 0
  }
  convolution_param {
    num_output: 24
    pad: 1
    kernel_size: 3
    stride: 1
    weight_filler {
      type: "xavier"
    }
    bias_filler {
      type: "constant"
      value: 0
    }
  }
}
layer {
  name: "conv6_2_mbox_conf_perm"
  type: "Permute"
  bottom: "conv6_2_mbox_conf"
  top: "conv6_2_mbox_conf_perm"
  permute_param {
    order: 0
    order: 2
    order: 3
    order: 1
  }
}
layer {
  name: "conv6_2_mbox_conf_flat"
  type: "Flatten"
  bottom: "conv6_2_mbox_conf_perm"
  top: "conv6_2_mbox_conf_flat"
  flatten_param {
    axis: 1
  }
}
layer {
  name: "conv6_2_mbox_priorbox"
  type: "PriorBox"
  bottom: "conv6_2"
  bottom: "data"
  top: "conv6_2_mbox_priorbox"
  prior_box_param {
    min_size: 111
    max_size: 162
    aspect_ratio: 2
    aspect_ratio: 3
    flip: true
    clip: false
    variance: 0.1
    variance: 0.1
    variance: 0.2
    variance: 0.2
    step: 32
    offset: 0.5
  }
}
layer {
  name: "conv7_2_mbox_loc"
  type: "Convolution"
  bottom: "conv7_2"
  top: "conv7_2_mbox_loc"
  param {
    lr_mult: 1
    decay_mult: 1
  }
  param {
    lr_mult: 2
    decay_mult: 0
  }
  convolution_param {
    num_output: 24
    pad: 1
    kernel_size: 3
    stride: 1
    weight_filler {
      type: "xavier"
    }
    bias_filler {
      type: "constant"
      value: 0
    }
  }
}
layer {
  name: "conv7_2_mbox_loc_perm"
  type: "Permute"
  bottom: "conv7_2_mbox_loc"
  top: "conv7_2_mbox_loc_perm"
  permute_param {
    order: 0
    order: 2
    order: 3
    order: 1
  }
}
layer {
  name: "conv7_2_mbox_loc_flat"
  type: "Flatten"
  bottom: "conv7_2_mbox_loc_perm"
  top: "conv7_2_mbox_loc_flat"
  flatten_param {
    axis: 1
  }
}
layer {
  name: "conv7_2_mbox_conf"
  type: "Convolution"
  bottom: "conv7_2"
  top: "conv7_2_mbox_conf"
  param {
    lr_mult: 1
    decay_mult: 1
  }
  param {
    lr_mult: 2
    decay_mult: 0
  }
  convolution_param {
    num_output: 24
    pad: 1
    kernel_size: 3
    stride: 1
    weight_filler {
      type: "xavier"
    }
    bias_filler {
      type: "constant"
      value: 0
    }
  }
}
layer {
  name: "conv7_2_mbox_conf_perm"
  type: "Permute"
  bottom: "conv7_2_mbox_conf"
  top: "conv7_2_mbox_conf_perm"
  permute_param {
    order: 0
    order: 2
    order: 3
    order: 1
  }
}
layer {
  name: "conv7_2_mbox_conf_flat"
  type: "Flatten"
  bottom: "conv7_2_mbox_conf_perm"
  top: "conv7_2_mbox_conf_flat"
  flatten_param {
    axis: 1
  }
}
layer {
  name: "conv7_2_mbox_priorbox"
  type: "PriorBox"
  bottom: "conv7_2"
  bottom: "data"
  top: "conv7_2_mbox_priorbox"
  prior_box_param {
    min_size: 162
    max_size: 213
    aspect_ratio: 2
    aspect_ratio: 3
    flip: true
    clip: false
    variance: 0.1
    variance: 0.1
    variance: 0.2
    variance: 0.2
    step: 64
    offset: 0.5
  }
}
layer {
  name: "conv8_2_mbox_loc"
  type: "Convolution"
  bottom: "conv8_2"
  top: "conv8_2_mbox_loc"
  param {
    lr_mult: 1
    decay_mult: 1
  }
  param {
    lr_mult: 2
    decay_mult: 0
  }
  convolution_param {
    num_output: 16
    pad: 1
    kernel_size: 3
    stride: 1
    weight_filler {
      type: "xavier"
    }
    bias_filler {
      type: "constant"
      value: 0
    }
  }
}
layer {
  name: "conv8_2_mbox_loc_perm"
  type: "Permute"
  bottom: "conv8_2_mbox_loc"
  top: "conv8_2_mbox_loc_perm"
  permute_param {
    order: 0
    order: 2
    order: 3
    order: 1
  }
}
layer {
  name: "conv8_2_mbox_loc_flat"
  type: "Flatten"
  bottom: "conv8_2_mbox_loc_perm"
  top: "conv8_2_mbox_loc_flat"
  flatten_param {
    axis: 1
  }
}
layer {
  name: "conv8_2_mbox_conf"
  type: "Convolution"
  bottom: "conv8_2"
  top: "conv8_2_mbox_conf"
  param {
    lr_mult: 1
    decay_mult: 1
  }
  param {
    lr_mult: 2
    decay_mult: 0
  }
  convolution_param {
    num_output: 16
    pad: 1
    kernel_size: 3
    stride: 1
    weight_filler {
      type: "xavier"
    }
    bias_filler {
      type: "constant"
      value: 0
    }
  }
}
layer {
  name: "conv8_2_mbox_conf_perm"
  type: "Permute"
  bottom: "conv8_2_mbox_conf"
  top: "conv8_2_mbox_conf_perm"
  permute_param {
    order: 0
    order: 2
    order: 3
    order: 1
  }
}
layer {
  name: "conv8_2_mbox_conf_flat"
  type: "Flatten"
  bottom: "conv8_2_mbox_conf_perm"
  top: "conv8_2_mbox_conf_flat"
  flatten_param {
    axis: 1
  }
}
layer {
  name: "conv8_2_mbox_priorbox"
  type: "PriorBox"
  bottom: "conv8_2"
  bottom: "data"
  top: "conv8_2_mbox_priorbox"
  prior_box_param {
    min_size: 213
    max_size: 264
    aspect_ratio: 2
    flip: true
    clip: false
    variance: 0.1
    variance: 0.1
    variance: 0.2
    variance: 0.2
    step: 100
    offset: 0.5
  }
}
layer {
  name: "conv9_2_mbox_loc"
  type: "Convolution"
  bottom: "conv9_2"
  top: "conv9_2_mbox_loc"
  param {
    lr_mult: 1
    decay_mult: 1
  }
  param {
    lr_mult: 2
    decay_mult: 0
  }
  convolution_param {
    num_output: 16
    pad: 1
    kernel_size: 3
    stride: 1
    weight_filler {
      type: "xavier"
    }
    bias_filler {
      type: "constant"
      value: 0
    }
  }
}
layer {
  name: "conv9_2_mbox_loc_perm"
  type: "Permute"
  bottom: "conv9_2_mbox_loc"
  top: "conv9_2_mbox_loc_perm"
  permute_param {
    order: 0
    order: 2
    order: 3
    order: 1
  }
}
layer {
  name: "conv9_2_mbox_loc_flat"
  type: "Flatten"
  bottom: "conv9_2_mbox_loc_perm"
  top: "conv9_2_mbox_loc_flat"
  flatten_param {
    axis: 1
  }
}
layer {
  name: "conv9_2_mbox_conf"
  type: "Convolution"
  bottom: "conv9_2"
  top: "conv9_2_mbox_conf"
  param {
    lr_mult: 1
    decay_mult: 1
  }
  param {
    lr_mult: 2
    decay_mult: 0
  }
  convolution_param {
    num_output: 16
    pad: 1
    kernel_size: 3
    stride: 1
    weight_filler {
      type: "xavier"
    }
    bias_filler {
      type: "constant"
      value: 0
    }
  }
}
layer {
  name: "conv9_2_mbox_conf_perm"
  type: "Permute"
  bottom: "conv9_2_mbox_conf"
  top: "conv9_2_mbox_conf_perm"
  permute_param {
    order: 0
    order: 2
    order: 3
    order: 1
  }
}
layer {
  name: "conv9_2_mbox_conf_flat"
  type: "Flatten"
  bottom: "conv9_2_mbox_conf_perm"
  top: "conv9_2_mbox_conf_flat"
  flatten_param {
    axis: 1
  }
}
layer {
  name: "conv9_2_mbox_priorbox"
  type: "PriorBox"
  bottom: "conv9_2"
  bottom: "data"
  top: "conv9_2_mbox_priorbox"
  prior_box_param {
    min_size: 264
    max_size: 315
    aspect_ratio: 2
    flip: true
    clip: false
    variance: 0.1
    variance: 0.1
    variance: 0.2
    variance: 0.2
    step: 300
    offset: 0.5
  }
}
layer {
  name: "mbox_loc"
  type: "Concat"
  bottom: "conv4_3_norm_mbox_loc_flat"
  bottom: "fc7_mbox_loc_flat"
  bottom: "conv6_2_mbox_loc_flat"
  bottom: "conv7_2_mbox_loc_flat"
  bottom: "conv8_2_mbox_loc_flat"
  bottom: "conv9_2_mbox_loc_flat"
  top: "mbox_loc"
  concat_param {
    axis: 1
  }
}
layer {
  name: "mbox_conf"
  type: "Concat"
  bottom: "conv4_3_norm_mbox_conf_flat"
  bottom: "fc7_mbox_conf_flat"
  bottom: "conv6_2_mbox_conf_flat"
  bottom: "conv7_2_mbox_conf_flat"
  bottom: "conv8_2_mbox_conf_flat"
  bottom: "conv9_2_mbox_conf_flat"
  top: "mbox_conf"
  concat_param {
    axis: 1
  }
}
layer {
  name: "mbox_priorbox"
  type: "Concat"
  bottom: "conv4_3_norm_mbox_priorbox"
  bottom: "fc7_mbox_priorbox"
  bottom: "conv6_2_mbox_priorbox"
  bottom: "conv7_2_mbox_priorbox"
  bottom: "conv8_2_mbox_priorbox"
  bottom: "conv9_2_mbox_priorbox"
  top: "mbox_priorbox"
  concat_param {
    axis: 2
  }
}
layer {
  name: "mbox_loss"
  type: "MultiBoxLoss"
  bottom: "mbox_loc"
  bottom: "mbox_conf"
  bottom: "mbox_priorbox"
  bottom: "label"
  top: "mbox_loss"
  include {
    phase: TRAIN
  }
  propagate_down: true
  propagate_down: true
  propagate_down: false
  propagate_down: false
  loss_param {
    normalization: VALID
  }
  multibox_loss_param {
    loc_loss_type: SMOOTH_L1
    conf_loss_type: SOFTMAX
    loc_weight: 1
    num_classes: 4
    share_location: true
    match_type: PER_PREDICTION
    overlap_threshold: 0.5
    use_prior_for_matching: true
    background_label_id: 0
    use_difficult_gt: true
    neg_pos_ratio: 3
    neg_overlap: 0.5
    code_type: CENTER_SIZE
    ignore_cross_boundary_bbox: false
    mining_type: MAX_NEGATIVE
  }
}
I0601 17:38:00.519888  7900 layer_factory.hpp:77] Creating layer data
I0601 17:38:00.520174  7900 net.cpp:100] Creating Layer data
I0601 17:38:00.520196  7900 net.cpp:408] data -> data
I0601 17:38:00.520236  7900 net.cpp:408] data -> label
I0601 17:38:00.520730  7913 db_lmdb.cpp:35] Opened lmdb examples/tbs_300x300_HSIL_10x/tbs_300x300_HSIL_10x_trainval_lmdb
I0601 17:38:00.631271  7900 annotated_data_layer.cpp:62] output data size: 35,3,300,300
I0601 17:38:00.765265  7900 net.cpp:150] Setting up data
I0601 17:38:00.765291  7900 net.cpp:157] Top shape: 35 3 300 300 (9450000)
I0601 17:38:00.765297  7900 net.cpp:157] Top shape: 1 1 5 8 (40)
I0601 17:38:00.765317  7900 net.cpp:165] Memory required for data: 37800160
I0601 17:38:00.765331  7900 layer_factory.hpp:77] Creating layer data_data_0_split
I0601 17:38:00.765347  7900 net.cpp:100] Creating Layer data_data_0_split
I0601 17:38:00.765357  7900 net.cpp:434] data_data_0_split <- data
I0601 17:38:00.765372  7900 net.cpp:408] data_data_0_split -> data_data_0_split_0
I0601 17:38:00.765385  7900 net.cpp:408] data_data_0_split -> data_data_0_split_1
I0601 17:38:00.765395  7900 net.cpp:408] data_data_0_split -> data_data_0_split_2
I0601 17:38:00.765404  7900 net.cpp:408] data_data_0_split -> data_data_0_split_3
I0601 17:38:00.765414  7900 net.cpp:408] data_data_0_split -> data_data_0_split_4
I0601 17:38:00.765424  7900 net.cpp:408] data_data_0_split -> data_data_0_split_5
I0601 17:38:00.765430  7900 net.cpp:408] data_data_0_split -> data_data_0_split_6
I0601 17:38:00.765512  7900 net.cpp:150] Setting up data_data_0_split
I0601 17:38:00.765533  7900 net.cpp:157] Top shape: 35 3 300 300 (9450000)
I0601 17:38:00.765539  7900 net.cpp:157] Top shape: 35 3 300 300 (9450000)
I0601 17:38:00.765544  7900 net.cpp:157] Top shape: 35 3 300 300 (9450000)
I0601 17:38:00.765549  7900 net.cpp:157] Top shape: 35 3 300 300 (9450000)
I0601 17:38:00.765553  7900 net.cpp:157] Top shape: 35 3 300 300 (9450000)
I0601 17:38:00.765558  7900 net.cpp:157] Top shape: 35 3 300 300 (9450000)
I0601 17:38:00.765563  7900 net.cpp:157] Top shape: 35 3 300 300 (9450000)
I0601 17:38:00.765568  7900 net.cpp:165] Memory required for data: 302400160
I0601 17:38:00.765571  7900 layer_factory.hpp:77] Creating layer conv1_1
I0601 17:38:00.765589  7900 net.cpp:100] Creating Layer conv1_1
I0601 17:38:00.765594  7900 net.cpp:434] conv1_1 <- data_data_0_split_0
I0601 17:38:00.765602  7900 net.cpp:408] conv1_1 -> conv1_1
I0601 17:38:01.098079  7900 net.cpp:150] Setting up conv1_1
I0601 17:38:01.098103  7900 net.cpp:157] Top shape: 35 64 300 300 (201600000)
I0601 17:38:01.098109  7900 net.cpp:165] Memory required for data: 1108800160
I0601 17:38:01.098126  7900 layer_factory.hpp:77] Creating layer relu1_1
I0601 17:38:01.098137  7900 net.cpp:100] Creating Layer relu1_1
I0601 17:38:01.098143  7900 net.cpp:434] relu1_1 <- conv1_1
I0601 17:38:01.098151  7900 net.cpp:395] relu1_1 -> conv1_1 (in-place)
I0601 17:38:01.099421  7900 net.cpp:150] Setting up relu1_1
I0601 17:38:01.099431  7900 net.cpp:157] Top shape: 35 64 300 300 (201600000)
I0601 17:38:01.099434  7900 net.cpp:165] Memory required for data: 1915200160
I0601 17:38:01.099439  7900 layer_factory.hpp:77] Creating layer conv1_2
I0601 17:38:01.099452  7900 net.cpp:100] Creating Layer conv1_2
I0601 17:38:01.099457  7900 net.cpp:434] conv1_2 <- conv1_1
I0601 17:38:01.099464  7900 net.cpp:408] conv1_2 -> conv1_2
I0601 17:38:01.115427  7900 net.cpp:150] Setting up conv1_2
I0601 17:38:01.115459  7900 net.cpp:157] Top shape: 35 64 300 300 (201600000)
I0601 17:38:01.115468  7900 net.cpp:165] Memory required for data: 2721600160
I0601 17:38:01.115489  7900 layer_factory.hpp:77] Creating layer relu1_2
I0601 17:38:01.115502  7900 net.cpp:100] Creating Layer relu1_2
I0601 17:38:01.115512  7900 net.cpp:434] relu1_2 <- conv1_2
I0601 17:38:01.115520  7900 net.cpp:395] relu1_2 -> conv1_2 (in-place)
I0601 17:38:01.127286  7900 net.cpp:150] Setting up relu1_2
I0601 17:38:01.127312  7900 net.cpp:157] Top shape: 35 64 300 300 (201600000)
I0601 17:38:01.127316  7900 net.cpp:165] Memory required for data: 3528000160
I0601 17:38:01.127322  7900 layer_factory.hpp:77] Creating layer pool1
I0601 17:38:01.127332  7900 net.cpp:100] Creating Layer pool1
I0601 17:38:01.127337  7900 net.cpp:434] pool1 <- conv1_2
I0601 17:38:01.127344  7900 net.cpp:408] pool1 -> pool1
I0601 17:38:01.127411  7900 net.cpp:150] Setting up pool1
I0601 17:38:01.127419  7900 net.cpp:157] Top shape: 35 64 150 150 (50400000)
I0601 17:38:01.127424  7900 net.cpp:165] Memory required for data: 3729600160
I0601 17:38:01.127427  7900 layer_factory.hpp:77] Creating layer conv2_1
I0601 17:38:01.127439  7900 net.cpp:100] Creating Layer conv2_1
I0601 17:38:01.127459  7900 net.cpp:434] conv2_1 <- pool1
I0601 17:38:01.127466  7900 net.cpp:408] conv2_1 -> conv2_1
I0601 17:38:01.135960  7900 net.cpp:150] Setting up conv2_1
I0601 17:38:01.135979  7900 net.cpp:157] Top shape: 35 128 150 150 (100800000)
I0601 17:38:01.135983  7900 net.cpp:165] Memory required for data: 4132800160
I0601 17:38:01.135995  7900 layer_factory.hpp:77] Creating layer relu2_1
I0601 17:38:01.136005  7900 net.cpp:100] Creating Layer relu2_1
I0601 17:38:01.136009  7900 net.cpp:434] relu2_1 <- conv2_1
I0601 17:38:01.136020  7900 net.cpp:395] relu2_1 -> conv2_1 (in-place)
I0601 17:38:01.143976  7900 net.cpp:150] Setting up relu2_1
I0601 17:38:01.143992  7900 net.cpp:157] Top shape: 35 128 150 150 (100800000)
I0601 17:38:01.143996  7900 net.cpp:165] Memory required for data: 4536000160
I0601 17:38:01.144001  7900 layer_factory.hpp:77] Creating layer conv2_2
I0601 17:38:01.144013  7900 net.cpp:100] Creating Layer conv2_2
I0601 17:38:01.144026  7900 net.cpp:434] conv2_2 <- conv2_1
I0601 17:38:01.144033  7900 net.cpp:408] conv2_2 -> conv2_2
I0601 17:38:01.151487  7900 net.cpp:150] Setting up conv2_2
I0601 17:38:01.151628  7900 net.cpp:157] Top shape: 35 128 150 150 (100800000)
I0601 17:38:01.151666  7900 net.cpp:165] Memory required for data: 4939200160
I0601 17:38:01.151702  7900 layer_factory.hpp:77] Creating layer relu2_2
I0601 17:38:01.151739  7900 net.cpp:100] Creating Layer relu2_2
I0601 17:38:01.151770  7900 net.cpp:434] relu2_2 <- conv2_2
I0601 17:38:01.151803  7900 net.cpp:395] relu2_2 -> conv2_2 (in-place)
I0601 17:38:01.153066  7900 net.cpp:150] Setting up relu2_2
I0601 17:38:01.153137  7900 net.cpp:157] Top shape: 35 128 150 150 (100800000)
I0601 17:38:01.153187  7900 net.cpp:165] Memory required for data: 5342400160
I0601 17:38:01.153218  7900 layer_factory.hpp:77] Creating layer pool2
I0601 17:38:01.153255  7900 net.cpp:100] Creating Layer pool2
I0601 17:38:01.153286  7900 net.cpp:434] pool2 <- conv2_2
I0601 17:38:01.153321  7900 net.cpp:408] pool2 -> pool2
I0601 17:38:01.153398  7900 net.cpp:150] Setting up pool2
I0601 17:38:01.153446  7900 net.cpp:157] Top shape: 35 128 75 75 (25200000)
I0601 17:38:01.153478  7900 net.cpp:165] Memory required for data: 5443200160
I0601 17:38:01.153511  7900 layer_factory.hpp:77] Creating layer conv3_1
I0601 17:38:01.153550  7900 net.cpp:100] Creating Layer conv3_1
I0601 17:38:01.153581  7900 net.cpp:434] conv3_1 <- pool2
I0601 17:38:01.153614  7900 net.cpp:408] conv3_1 -> conv3_1
I0601 17:38:01.171422  7900 net.cpp:150] Setting up conv3_1
I0601 17:38:01.171443  7900 net.cpp:157] Top shape: 35 256 75 75 (50400000)
I0601 17:38:01.171447  7900 net.cpp:165] Memory required for data: 5644800160
I0601 17:38:01.171460  7900 layer_factory.hpp:77] Creating layer relu3_1
I0601 17:38:01.171469  7900 net.cpp:100] Creating Layer relu3_1
I0601 17:38:01.171473  7900 net.cpp:434] relu3_1 <- conv3_1
I0601 17:38:01.171478  7900 net.cpp:395] relu3_1 -> conv3_1 (in-place)
I0601 17:38:01.173382  7900 net.cpp:150] Setting up relu3_1
I0601 17:38:01.173465  7900 net.cpp:157] Top shape: 35 256 75 75 (50400000)
I0601 17:38:01.173563  7900 net.cpp:165] Memory required for data: 5846400160
I0601 17:38:01.173593  7900 layer_factory.hpp:77] Creating layer conv3_2
I0601 17:38:01.173630  7900 net.cpp:100] Creating Layer conv3_2
I0601 17:38:01.173660  7900 net.cpp:434] conv3_2 <- conv3_1
I0601 17:38:01.173693  7900 net.cpp:408] conv3_2 -> conv3_2
I0601 17:38:01.196852  7900 net.cpp:150] Setting up conv3_2
I0601 17:38:01.196873  7900 net.cpp:157] Top shape: 35 256 75 75 (50400000)
I0601 17:38:01.196878  7900 net.cpp:165] Memory required for data: 6048000160
I0601 17:38:01.196888  7900 layer_factory.hpp:77] Creating layer relu3_2
I0601 17:38:01.196898  7900 net.cpp:100] Creating Layer relu3_2
I0601 17:38:01.196904  7900 net.cpp:434] relu3_2 <- conv3_2
I0601 17:38:01.196912  7900 net.cpp:395] relu3_2 -> conv3_2 (in-place)
I0601 17:38:01.197770  7900 net.cpp:150] Setting up relu3_2
I0601 17:38:01.197783  7900 net.cpp:157] Top shape: 35 256 75 75 (50400000)
I0601 17:38:01.197788  7900 net.cpp:165] Memory required for data: 6249600160
I0601 17:38:01.197805  7900 layer_factory.hpp:77] Creating layer conv3_3
I0601 17:38:01.197824  7900 net.cpp:100] Creating Layer conv3_3
I0601 17:38:01.197829  7900 net.cpp:434] conv3_3 <- conv3_2
I0601 17:38:01.197836  7900 net.cpp:408] conv3_3 -> conv3_3
I0601 17:38:01.212568  7900 net.cpp:150] Setting up conv3_3
I0601 17:38:01.212587  7900 net.cpp:157] Top shape: 35 256 75 75 (50400000)
I0601 17:38:01.212592  7900 net.cpp:165] Memory required for data: 6451200160
I0601 17:38:01.212601  7900 layer_factory.hpp:77] Creating layer relu3_3
I0601 17:38:01.212613  7900 net.cpp:100] Creating Layer relu3_3
I0601 17:38:01.212618  7900 net.cpp:434] relu3_3 <- conv3_3
I0601 17:38:01.212625  7900 net.cpp:395] relu3_3 -> conv3_3 (in-place)
I0601 17:38:01.214438  7900 net.cpp:150] Setting up relu3_3
I0601 17:38:01.214453  7900 net.cpp:157] Top shape: 35 256 75 75 (50400000)
I0601 17:38:01.214457  7900 net.cpp:165] Memory required for data: 6652800160
I0601 17:38:01.214462  7900 layer_factory.hpp:77] Creating layer pool3
I0601 17:38:01.214473  7900 net.cpp:100] Creating Layer pool3
I0601 17:38:01.214479  7900 net.cpp:434] pool3 <- conv3_3
I0601 17:38:01.214488  7900 net.cpp:408] pool3 -> pool3
I0601 17:38:01.214550  7900 net.cpp:150] Setting up pool3
I0601 17:38:01.214581  7900 net.cpp:157] Top shape: 35 256 38 38 (12938240)
I0601 17:38:01.214596  7900 net.cpp:165] Memory required for data: 6704553120
I0601 17:38:01.214608  7900 layer_factory.hpp:77] Creating layer conv4_1
I0601 17:38:01.214630  7900 net.cpp:100] Creating Layer conv4_1
I0601 17:38:01.214644  7900 net.cpp:434] conv4_1 <- pool3
I0601 17:38:01.214663  7900 net.cpp:408] conv4_1 -> conv4_1
I0601 17:38:01.248251  7900 net.cpp:150] Setting up conv4_1
I0601 17:38:01.249454  7900 net.cpp:157] Top shape: 35 512 38 38 (25876480)
I0601 17:38:01.250336  7900 net.cpp:165] Memory required for data: 6808059040
I0601 17:38:01.250980  7900 layer_factory.hpp:77] Creating layer relu4_1
I0601 17:38:01.251009  7900 net.cpp:100] Creating Layer relu4_1
I0601 17:38:01.252298  7900 net.cpp:434] relu4_1 <- conv4_1
I0601 17:38:01.253134  7900 net.cpp:395] relu4_1 -> conv4_1 (in-place)
I0601 17:38:01.262420  7900 net.cpp:150] Setting up relu4_1
I0601 17:38:01.263344  7900 net.cpp:157] Top shape: 35 512 38 38 (25876480)
I0601 17:38:01.263362  7900 net.cpp:165] Memory required for data: 6911564960
I0601 17:38:01.263375  7900 layer_factory.hpp:77] Creating layer conv4_2
I0601 17:38:01.264704  7900 net.cpp:100] Creating Layer conv4_2
I0601 17:38:01.265974  7900 net.cpp:434] conv4_2 <- conv4_1
I0601 17:38:01.266613  7900 net.cpp:408] conv4_2 -> conv4_2
I0601 17:38:01.302431  7900 net.cpp:150] Setting up conv4_2
I0601 17:38:01.302454  7900 net.cpp:157] Top shape: 35 512 38 38 (25876480)
I0601 17:38:01.302459  7900 net.cpp:165] Memory required for data: 7015070880
I0601 17:38:01.302474  7900 layer_factory.hpp:77] Creating layer relu4_2
I0601 17:38:01.302484  7900 net.cpp:100] Creating Layer relu4_2
I0601 17:38:01.302489  7900 net.cpp:434] relu4_2 <- conv4_2
I0601 17:38:01.302496  7900 net.cpp:395] relu4_2 -> conv4_2 (in-place)
I0601 17:38:01.315920  7900 net.cpp:150] Setting up relu4_2
I0601 17:38:01.315954  7900 net.cpp:157] Top shape: 35 512 38 38 (25876480)
I0601 17:38:01.315959  7900 net.cpp:165] Memory required for data: 7118576800
I0601 17:38:01.315965  7900 layer_factory.hpp:77] Creating layer conv4_3
I0601 17:38:01.315987  7900 net.cpp:100] Creating Layer conv4_3
I0601 17:38:01.315992  7900 net.cpp:434] conv4_3 <- conv4_2
I0601 17:38:01.316002  7900 net.cpp:408] conv4_3 -> conv4_3
I0601 17:38:01.350162  7900 net.cpp:150] Setting up conv4_3
I0601 17:38:01.350180  7900 net.cpp:157] Top shape: 35 512 38 38 (25876480)
I0601 17:38:01.350184  7900 net.cpp:165] Memory required for data: 7222082720
I0601 17:38:01.350194  7900 layer_factory.hpp:77] Creating layer relu4_3
I0601 17:38:01.350203  7900 net.cpp:100] Creating Layer relu4_3
I0601 17:38:01.350209  7900 net.cpp:434] relu4_3 <- conv4_3
I0601 17:38:01.350215  7900 net.cpp:395] relu4_3 -> conv4_3 (in-place)
I0601 17:38:01.353186  7900 net.cpp:150] Setting up relu4_3
I0601 17:38:01.353196  7900 net.cpp:157] Top shape: 35 512 38 38 (25876480)
I0601 17:38:01.353199  7900 net.cpp:165] Memory required for data: 7325588640
I0601 17:38:01.353202  7900 layer_factory.hpp:77] Creating layer conv4_3_relu4_3_0_split
I0601 17:38:01.353209  7900 net.cpp:100] Creating Layer conv4_3_relu4_3_0_split
I0601 17:38:01.353211  7900 net.cpp:434] conv4_3_relu4_3_0_split <- conv4_3
I0601 17:38:01.353217  7900 net.cpp:408] conv4_3_relu4_3_0_split -> conv4_3_relu4_3_0_split_0
I0601 17:38:01.353230  7900 net.cpp:408] conv4_3_relu4_3_0_split -> conv4_3_relu4_3_0_split_1
I0601 17:38:01.353279  7900 net.cpp:150] Setting up conv4_3_relu4_3_0_split
I0601 17:38:01.353288  7900 net.cpp:157] Top shape: 35 512 38 38 (25876480)
I0601 17:38:01.353294  7900 net.cpp:157] Top shape: 35 512 38 38 (25876480)
I0601 17:38:01.353298  7900 net.cpp:165] Memory required for data: 7532600480
I0601 17:38:01.353305  7900 layer_factory.hpp:77] Creating layer pool4
I0601 17:38:01.353317  7900 net.cpp:100] Creating Layer pool4
I0601 17:38:01.353322  7900 net.cpp:434] pool4 <- conv4_3_relu4_3_0_split_0
I0601 17:38:01.353332  7900 net.cpp:408] pool4 -> pool4
I0601 17:38:01.353366  7900 net.cpp:150] Setting up pool4
I0601 17:38:01.353377  7900 net.cpp:157] Top shape: 35 512 19 19 (6469120)
I0601 17:38:01.353381  7900 net.cpp:165] Memory required for data: 7558476960
I0601 17:38:01.353387  7900 layer_factory.hpp:77] Creating layer conv5_1
I0601 17:38:01.353404  7900 net.cpp:100] Creating Layer conv5_1
I0601 17:38:01.353410  7900 net.cpp:434] conv5_1 <- pool4
I0601 17:38:01.353418  7900 net.cpp:408] conv5_1 -> conv5_1
I0601 17:38:01.379951  7900 net.cpp:150] Setting up conv5_1
I0601 17:38:01.380012  7900 net.cpp:157] Top shape: 35 512 19 19 (6469120)
I0601 17:38:01.380043  7900 net.cpp:165] Memory required for data: 7584353440
I0601 17:38:01.380064  7900 layer_factory.hpp:77] Creating layer relu5_1
I0601 17:38:01.380085  7900 net.cpp:100] Creating Layer relu5_1
I0601 17:38:01.380102  7900 net.cpp:434] relu5_1 <- conv5_1
I0601 17:38:01.380113  7900 net.cpp:395] relu5_1 -> conv5_1 (in-place)
I0601 17:38:01.381638  7900 net.cpp:150] Setting up relu5_1
I0601 17:38:01.381647  7900 net.cpp:157] Top shape: 35 512 19 19 (6469120)
I0601 17:38:01.381652  7900 net.cpp:165] Memory required for data: 7610229920
I0601 17:38:01.381656  7900 layer_factory.hpp:77] Creating layer conv5_2
I0601 17:38:01.381670  7900 net.cpp:100] Creating Layer conv5_2
I0601 17:38:01.381675  7900 net.cpp:434] conv5_2 <- conv5_1
I0601 17:38:01.381683  7900 net.cpp:408] conv5_2 -> conv5_2
I0601 17:38:01.418618  7900 net.cpp:150] Setting up conv5_2
I0601 17:38:01.418644  7900 net.cpp:157] Top shape: 35 512 19 19 (6469120)
I0601 17:38:01.418649  7900 net.cpp:165] Memory required for data: 7636106400
I0601 17:38:01.418658  7900 layer_factory.hpp:77] Creating layer relu5_2
I0601 17:38:01.418669  7900 net.cpp:100] Creating Layer relu5_2
I0601 17:38:01.418674  7900 net.cpp:434] relu5_2 <- conv5_2
I0601 17:38:01.418680  7900 net.cpp:395] relu5_2 -> conv5_2 (in-place)
I0601 17:38:01.420769  7900 net.cpp:150] Setting up relu5_2
I0601 17:38:01.420786  7900 net.cpp:157] Top shape: 35 512 19 19 (6469120)
I0601 17:38:01.420791  7900 net.cpp:165] Memory required for data: 7661982880
I0601 17:38:01.420795  7900 layer_factory.hpp:77] Creating layer conv5_3
I0601 17:38:01.420812  7900 net.cpp:100] Creating Layer conv5_3
I0601 17:38:01.420819  7900 net.cpp:434] conv5_3 <- conv5_2
I0601 17:38:01.420825  7900 net.cpp:408] conv5_3 -> conv5_3
I0601 17:38:01.447489  7900 net.cpp:150] Setting up conv5_3
I0601 17:38:01.447510  7900 net.cpp:157] Top shape: 35 512 19 19 (6469120)
I0601 17:38:01.447515  7900 net.cpp:165] Memory required for data: 7687859360
I0601 17:38:01.447525  7900 layer_factory.hpp:77] Creating layer relu5_3
I0601 17:38:01.447540  7900 net.cpp:100] Creating Layer relu5_3
I0601 17:38:01.447571  7900 net.cpp:434] relu5_3 <- conv5_3
I0601 17:38:01.447594  7900 net.cpp:395] relu5_3 -> conv5_3 (in-place)
I0601 17:38:01.449688  7900 net.cpp:150] Setting up relu5_3
I0601 17:38:01.449741  7900 net.cpp:157] Top shape: 35 512 19 19 (6469120)
I0601 17:38:01.449755  7900 net.cpp:165] Memory required for data: 7713735840
I0601 17:38:01.449770  7900 layer_factory.hpp:77] Creating layer pool5
I0601 17:38:01.449790  7900 net.cpp:100] Creating Layer pool5
I0601 17:38:01.449805  7900 net.cpp:434] pool5 <- conv5_3
I0601 17:38:01.449825  7900 net.cpp:408] pool5 -> pool5
I0601 17:38:01.449903  7900 net.cpp:150] Setting up pool5
I0601 17:38:01.449921  7900 net.cpp:157] Top shape: 35 512 19 19 (6469120)
I0601 17:38:01.449934  7900 net.cpp:165] Memory required for data: 7739612320
I0601 17:38:01.449947  7900 layer_factory.hpp:77] Creating layer fc6
I0601 17:38:01.449970  7900 net.cpp:100] Creating Layer fc6
I0601 17:38:01.449983  7900 net.cpp:434] fc6 <- pool5
I0601 17:38:01.450000  7900 net.cpp:408] fc6 -> fc6
I0601 17:38:01.494330  7900 net.cpp:150] Setting up fc6
I0601 17:38:01.494379  7900 net.cpp:157] Top shape: 35 1024 19 19 (12938240)
I0601 17:38:01.494393  7900 net.cpp:165] Memory required for data: 7791365280
I0601 17:38:01.494410  7900 layer_factory.hpp:77] Creating layer relu6
I0601 17:38:01.494426  7900 net.cpp:100] Creating Layer relu6
I0601 17:38:01.494439  7900 net.cpp:434] relu6 <- fc6
I0601 17:38:01.494455  7900 net.cpp:395] relu6 -> fc6 (in-place)
I0601 17:38:01.502653  7900 net.cpp:150] Setting up relu6
I0601 17:38:01.502706  7900 net.cpp:157] Top shape: 35 1024 19 19 (12938240)
I0601 17:38:01.502718  7900 net.cpp:165] Memory required for data: 7843118240
I0601 17:38:01.502732  7900 layer_factory.hpp:77] Creating layer fc7
I0601 17:38:01.502754  7900 net.cpp:100] Creating Layer fc7
I0601 17:38:01.502768  7900 net.cpp:434] fc7 <- fc6
I0601 17:38:01.502784  7900 net.cpp:408] fc7 -> fc7
I0601 17:38:01.516582  7900 net.cpp:150] Setting up fc7
I0601 17:38:01.516654  7900 net.cpp:157] Top shape: 35 1024 19 19 (12938240)
I0601 17:38:01.516669  7900 net.cpp:165] Memory required for data: 7894871200
I0601 17:38:01.516690  7900 layer_factory.hpp:77] Creating layer relu7
I0601 17:38:01.516712  7900 net.cpp:100] Creating Layer relu7
I0601 17:38:01.516726  7900 net.cpp:434] relu7 <- fc7
I0601 17:38:01.516742  7900 net.cpp:395] relu7 -> fc7 (in-place)
I0601 17:38:01.519184  7900 net.cpp:150] Setting up relu7
I0601 17:38:01.519208  7900 net.cpp:157] Top shape: 35 1024 19 19 (12938240)
I0601 17:38:01.519219  7900 net.cpp:165] Memory required for data: 7946624160
I0601 17:38:01.519232  7900 layer_factory.hpp:77] Creating layer fc7_relu7_0_split
I0601 17:38:01.519246  7900 net.cpp:100] Creating Layer fc7_relu7_0_split
I0601 17:38:01.519258  7900 net.cpp:434] fc7_relu7_0_split <- fc7
I0601 17:38:01.519274  7900 net.cpp:408] fc7_relu7_0_split -> fc7_relu7_0_split_0
I0601 17:38:01.519291  7900 net.cpp:408] fc7_relu7_0_split -> fc7_relu7_0_split_1
I0601 17:38:01.519314  7900 net.cpp:408] fc7_relu7_0_split -> fc7_relu7_0_split_2
I0601 17:38:01.519330  7900 net.cpp:408] fc7_relu7_0_split -> fc7_relu7_0_split_3
I0601 17:38:01.519420  7900 net.cpp:150] Setting up fc7_relu7_0_split
I0601 17:38:01.519435  7900 net.cpp:157] Top shape: 35 1024 19 19 (12938240)
I0601 17:38:01.519448  7900 net.cpp:157] Top shape: 35 1024 19 19 (12938240)
I0601 17:38:01.519461  7900 net.cpp:157] Top shape: 35 1024 19 19 (12938240)
I0601 17:38:01.519474  7900 net.cpp:157] Top shape: 35 1024 19 19 (12938240)
I0601 17:38:01.519484  7900 net.cpp:165] Memory required for data: 8153636000
I0601 17:38:01.519495  7900 layer_factory.hpp:77] Creating layer conv6_1
I0601 17:38:01.519513  7900 net.cpp:100] Creating Layer conv6_1
I0601 17:38:01.519526  7900 net.cpp:434] conv6_1 <- fc7_relu7_0_split_0
I0601 17:38:01.519541  7900 net.cpp:408] conv6_1 -> conv6_1
I0601 17:38:01.545621  7900 net.cpp:150] Setting up conv6_1
I0601 17:38:01.545640  7900 net.cpp:157] Top shape: 35 256 19 19 (3234560)
I0601 17:38:01.545644  7900 net.cpp:165] Memory required for data: 8166574240
I0601 17:38:01.545749  7900 layer_factory.hpp:77] Creating layer conv6_1_relu
I0601 17:38:01.545783  7900 net.cpp:100] Creating Layer conv6_1_relu
I0601 17:38:01.545806  7900 net.cpp:434] conv6_1_relu <- conv6_1
I0601 17:38:01.545820  7900 net.cpp:395] conv6_1_relu -> conv6_1 (in-place)
I0601 17:38:01.546569  7900 net.cpp:150] Setting up conv6_1_relu
I0601 17:38:01.546591  7900 net.cpp:157] Top shape: 35 256 19 19 (3234560)
I0601 17:38:01.546602  7900 net.cpp:165] Memory required for data: 8179512480
I0601 17:38:01.546613  7900 layer_factory.hpp:77] Creating layer conv6_2
I0601 17:38:01.546634  7900 net.cpp:100] Creating Layer conv6_2
I0601 17:38:01.546646  7900 net.cpp:434] conv6_2 <- conv6_1
I0601 17:38:01.546663  7900 net.cpp:408] conv6_2 -> conv6_2
I0601 17:38:01.563498  7900 net.cpp:150] Setting up conv6_2
I0601 17:38:01.563518  7900 net.cpp:157] Top shape: 35 512 10 10 (1792000)
I0601 17:38:01.563521  7900 net.cpp:165] Memory required for data: 8186680480
I0601 17:38:01.563552  7900 layer_factory.hpp:77] Creating layer conv6_2_relu
I0601 17:38:01.563561  7900 net.cpp:100] Creating Layer conv6_2_relu
I0601 17:38:01.563566  7900 net.cpp:434] conv6_2_relu <- conv6_2
I0601 17:38:01.563571  7900 net.cpp:395] conv6_2_relu -> conv6_2 (in-place)
I0601 17:38:01.565649  7900 net.cpp:150] Setting up conv6_2_relu
I0601 17:38:01.565659  7900 net.cpp:157] Top shape: 35 512 10 10 (1792000)
I0601 17:38:01.565662  7900 net.cpp:165] Memory required for data: 8193848480
I0601 17:38:01.565665  7900 layer_factory.hpp:77] Creating layer conv6_2_conv6_2_relu_0_split
I0601 17:38:01.565673  7900 net.cpp:100] Creating Layer conv6_2_conv6_2_relu_0_split
I0601 17:38:01.565678  7900 net.cpp:434] conv6_2_conv6_2_relu_0_split <- conv6_2
I0601 17:38:01.565686  7900 net.cpp:408] conv6_2_conv6_2_relu_0_split -> conv6_2_conv6_2_relu_0_split_0
I0601 17:38:01.565696  7900 net.cpp:408] conv6_2_conv6_2_relu_0_split -> conv6_2_conv6_2_relu_0_split_1
I0601 17:38:01.565703  7900 net.cpp:408] conv6_2_conv6_2_relu_0_split -> conv6_2_conv6_2_relu_0_split_2
I0601 17:38:01.565711  7900 net.cpp:408] conv6_2_conv6_2_relu_0_split -> conv6_2_conv6_2_relu_0_split_3
I0601 17:38:01.565791  7900 net.cpp:150] Setting up conv6_2_conv6_2_relu_0_split
I0601 17:38:01.565798  7900 net.cpp:157] Top shape: 35 512 10 10 (1792000)
I0601 17:38:01.565804  7900 net.cpp:157] Top shape: 35 512 10 10 (1792000)
I0601 17:38:01.565809  7900 net.cpp:157] Top shape: 35 512 10 10 (1792000)
I0601 17:38:01.565814  7900 net.cpp:157] Top shape: 35 512 10 10 (1792000)
I0601 17:38:01.565819  7900 net.cpp:165] Memory required for data: 8222520480
I0601 17:38:01.565824  7900 layer_factory.hpp:77] Creating layer conv7_1
I0601 17:38:01.565834  7900 net.cpp:100] Creating Layer conv7_1
I0601 17:38:01.565838  7900 net.cpp:434] conv7_1 <- conv6_2_conv6_2_relu_0_split_0
I0601 17:38:01.565847  7900 net.cpp:408] conv7_1 -> conv7_1
I0601 17:38:01.573457  7900 net.cpp:150] Setting up conv7_1
I0601 17:38:01.573477  7900 net.cpp:157] Top shape: 35 128 10 10 (448000)
I0601 17:38:01.573480  7900 net.cpp:165] Memory required for data: 8224312480
I0601 17:38:01.573489  7900 layer_factory.hpp:77] Creating layer conv7_1_relu
I0601 17:38:01.573513  7900 net.cpp:100] Creating Layer conv7_1_relu
I0601 17:38:01.573532  7900 net.cpp:434] conv7_1_relu <- conv7_1
I0601 17:38:01.573537  7900 net.cpp:395] conv7_1_relu -> conv7_1 (in-place)
I0601 17:38:01.575634  7900 net.cpp:150] Setting up conv7_1_relu
I0601 17:38:01.575649  7900 net.cpp:157] Top shape: 35 128 10 10 (448000)
I0601 17:38:01.575652  7900 net.cpp:165] Memory required for data: 8226104480
I0601 17:38:01.575656  7900 layer_factory.hpp:77] Creating layer conv7_2
I0601 17:38:01.575670  7900 net.cpp:100] Creating Layer conv7_2
I0601 17:38:01.575690  7900 net.cpp:434] conv7_2 <- conv7_1
I0601 17:38:01.575709  7900 net.cpp:408] conv7_2 -> conv7_2
I0601 17:38:01.602150  7900 net.cpp:150] Setting up conv7_2
I0601 17:38:01.602174  7900 net.cpp:157] Top shape: 35 256 5 5 (224000)
I0601 17:38:01.602177  7900 net.cpp:165] Memory required for data: 8227000480
I0601 17:38:01.602202  7900 layer_factory.hpp:77] Creating layer conv7_2_relu
I0601 17:38:01.602211  7900 net.cpp:100] Creating Layer conv7_2_relu
I0601 17:38:01.602244  7900 net.cpp:434] conv7_2_relu <- conv7_2
I0601 17:38:01.602254  7900 net.cpp:395] conv7_2_relu -> conv7_2 (in-place)
I0601 17:38:01.604287  7900 net.cpp:150] Setting up conv7_2_relu
I0601 17:38:01.604297  7900 net.cpp:157] Top shape: 35 256 5 5 (224000)
I0601 17:38:01.604301  7900 net.cpp:165] Memory required for data: 8227896480
I0601 17:38:01.604305  7900 layer_factory.hpp:77] Creating layer conv7_2_conv7_2_relu_0_split
I0601 17:38:01.604313  7900 net.cpp:100] Creating Layer conv7_2_conv7_2_relu_0_split
I0601 17:38:01.604318  7900 net.cpp:434] conv7_2_conv7_2_relu_0_split <- conv7_2
I0601 17:38:01.604326  7900 net.cpp:408] conv7_2_conv7_2_relu_0_split -> conv7_2_conv7_2_relu_0_split_0
I0601 17:38:01.604334  7900 net.cpp:408] conv7_2_conv7_2_relu_0_split -> conv7_2_conv7_2_relu_0_split_1
I0601 17:38:01.604343  7900 net.cpp:408] conv7_2_conv7_2_relu_0_split -> conv7_2_conv7_2_relu_0_split_2
I0601 17:38:01.604351  7900 net.cpp:408] conv7_2_conv7_2_relu_0_split -> conv7_2_conv7_2_relu_0_split_3
I0601 17:38:01.604420  7900 net.cpp:150] Setting up conv7_2_conv7_2_relu_0_split
I0601 17:38:01.604429  7900 net.cpp:157] Top shape: 35 256 5 5 (224000)
I0601 17:38:01.604434  7900 net.cpp:157] Top shape: 35 256 5 5 (224000)
I0601 17:38:01.604439  7900 net.cpp:157] Top shape: 35 256 5 5 (224000)
I0601 17:38:01.604444  7900 net.cpp:157] Top shape: 35 256 5 5 (224000)
I0601 17:38:01.604449  7900 net.cpp:165] Memory required for data: 8231480480
I0601 17:38:01.604451  7900 layer_factory.hpp:77] Creating layer conv8_1
I0601 17:38:01.604465  7900 net.cpp:100] Creating Layer conv8_1
I0601 17:38:01.604470  7900 net.cpp:434] conv8_1 <- conv7_2_conv7_2_relu_0_split_0
I0601 17:38:01.604478  7900 net.cpp:408] conv8_1 -> conv8_1
I0601 17:38:01.615775  7900 net.cpp:150] Setting up conv8_1
I0601 17:38:01.615795  7900 net.cpp:157] Top shape: 35 128 5 5 (112000)
I0601 17:38:01.615799  7900 net.cpp:165] Memory required for data: 8231928480
I0601 17:38:01.615821  7900 layer_factory.hpp:77] Creating layer conv8_1_relu
I0601 17:38:01.615831  7900 net.cpp:100] Creating Layer conv8_1_relu
I0601 17:38:01.615838  7900 net.cpp:434] conv8_1_relu <- conv8_1
I0601 17:38:01.615844  7900 net.cpp:395] conv8_1_relu -> conv8_1 (in-place)
I0601 17:38:01.619148  7900 net.cpp:150] Setting up conv8_1_relu
I0601 17:38:01.619168  7900 net.cpp:157] Top shape: 35 128 5 5 (112000)
I0601 17:38:01.619173  7900 net.cpp:165] Memory required for data: 8232376480
I0601 17:38:01.619177  7900 layer_factory.hpp:77] Creating layer conv8_2
I0601 17:38:01.619194  7900 net.cpp:100] Creating Layer conv8_2
I0601 17:38:01.619199  7900 net.cpp:434] conv8_2 <- conv8_1
I0601 17:38:01.619210  7900 net.cpp:408] conv8_2 -> conv8_2
I0601 17:38:01.632803  7900 net.cpp:150] Setting up conv8_2
I0601 17:38:01.632827  7900 net.cpp:157] Top shape: 35 256 3 3 (80640)
I0601 17:38:01.632830  7900 net.cpp:165] Memory required for data: 8232699040
I0601 17:38:01.632841  7900 layer_factory.hpp:77] Creating layer conv8_2_relu
I0601 17:38:01.632850  7900 net.cpp:100] Creating Layer conv8_2_relu
I0601 17:38:01.632856  7900 net.cpp:434] conv8_2_relu <- conv8_2
I0601 17:38:01.632865  7900 net.cpp:395] conv8_2_relu -> conv8_2 (in-place)
I0601 17:38:01.635730  7900 net.cpp:150] Setting up conv8_2_relu
I0601 17:38:01.635740  7900 net.cpp:157] Top shape: 35 256 3 3 (80640)
I0601 17:38:01.635745  7900 net.cpp:165] Memory required for data: 8233021600
I0601 17:38:01.635749  7900 layer_factory.hpp:77] Creating layer conv8_2_conv8_2_relu_0_split
I0601 17:38:01.635758  7900 net.cpp:100] Creating Layer conv8_2_conv8_2_relu_0_split
I0601 17:38:01.635763  7900 net.cpp:434] conv8_2_conv8_2_relu_0_split <- conv8_2
I0601 17:38:01.635771  7900 net.cpp:408] conv8_2_conv8_2_relu_0_split -> conv8_2_conv8_2_relu_0_split_0
I0601 17:38:01.635782  7900 net.cpp:408] conv8_2_conv8_2_relu_0_split -> conv8_2_conv8_2_relu_0_split_1
I0601 17:38:01.635792  7900 net.cpp:408] conv8_2_conv8_2_relu_0_split -> conv8_2_conv8_2_relu_0_split_2
I0601 17:38:01.635797  7900 net.cpp:408] conv8_2_conv8_2_relu_0_split -> conv8_2_conv8_2_relu_0_split_3
I0601 17:38:01.635886  7900 net.cpp:150] Setting up conv8_2_conv8_2_relu_0_split
I0601 17:38:01.635895  7900 net.cpp:157] Top shape: 35 256 3 3 (80640)
I0601 17:38:01.635900  7900 net.cpp:157] Top shape: 35 256 3 3 (80640)
I0601 17:38:01.635905  7900 net.cpp:157] Top shape: 35 256 3 3 (80640)
I0601 17:38:01.635910  7900 net.cpp:157] Top shape: 35 256 3 3 (80640)
I0601 17:38:01.635913  7900 net.cpp:165] Memory required for data: 8234311840
I0601 17:38:01.635917  7900 layer_factory.hpp:77] Creating layer conv9_1
I0601 17:38:01.635931  7900 net.cpp:100] Creating Layer conv9_1
I0601 17:38:01.635937  7900 net.cpp:434] conv9_1 <- conv8_2_conv8_2_relu_0_split_0
I0601 17:38:01.635946  7900 net.cpp:408] conv9_1 -> conv9_1
I0601 17:38:01.645671  7900 net.cpp:150] Setting up conv9_1
I0601 17:38:01.645686  7900 net.cpp:157] Top shape: 35 128 3 3 (40320)
I0601 17:38:01.645692  7900 net.cpp:165] Memory required for data: 8234473120
I0601 17:38:01.645700  7900 layer_factory.hpp:77] Creating layer conv9_1_relu
I0601 17:38:01.645707  7900 net.cpp:100] Creating Layer conv9_1_relu
I0601 17:38:01.645712  7900 net.cpp:434] conv9_1_relu <- conv9_1
I0601 17:38:01.645721  7900 net.cpp:395] conv9_1_relu -> conv9_1 (in-place)
I0601 17:38:01.647307  7900 net.cpp:150] Setting up conv9_1_relu
I0601 17:38:01.647320  7900 net.cpp:157] Top shape: 35 128 3 3 (40320)
I0601 17:38:01.647325  7900 net.cpp:165] Memory required for data: 8234634400
I0601 17:38:01.647328  7900 layer_factory.hpp:77] Creating layer conv9_2
I0601 17:38:01.647339  7900 net.cpp:100] Creating Layer conv9_2
I0601 17:38:01.647343  7900 net.cpp:434] conv9_2 <- conv9_1
I0601 17:38:01.647351  7900 net.cpp:408] conv9_2 -> conv9_2
I0601 17:38:01.663549  7900 net.cpp:150] Setting up conv9_2
I0601 17:38:01.663571  7900 net.cpp:157] Top shape: 35 256 1 1 (8960)
I0601 17:38:01.663575  7900 net.cpp:165] Memory required for data: 8234670240
I0601 17:38:01.663583  7900 layer_factory.hpp:77] Creating layer conv9_2_relu
I0601 17:38:01.663609  7900 net.cpp:100] Creating Layer conv9_2_relu
I0601 17:38:01.663614  7900 net.cpp:434] conv9_2_relu <- conv9_2
I0601 17:38:01.663622  7900 net.cpp:395] conv9_2_relu -> conv9_2 (in-place)
I0601 17:38:01.665657  7900 net.cpp:150] Setting up conv9_2_relu
I0601 17:38:01.665668  7900 net.cpp:157] Top shape: 35 256 1 1 (8960)
I0601 17:38:01.665671  7900 net.cpp:165] Memory required for data: 8234706080
I0601 17:38:01.665675  7900 layer_factory.hpp:77] Creating layer conv9_2_conv9_2_relu_0_split
I0601 17:38:01.665683  7900 net.cpp:100] Creating Layer conv9_2_conv9_2_relu_0_split
I0601 17:38:01.665688  7900 net.cpp:434] conv9_2_conv9_2_relu_0_split <- conv9_2
I0601 17:38:01.665694  7900 net.cpp:408] conv9_2_conv9_2_relu_0_split -> conv9_2_conv9_2_relu_0_split_0
I0601 17:38:01.665702  7900 net.cpp:408] conv9_2_conv9_2_relu_0_split -> conv9_2_conv9_2_relu_0_split_1
I0601 17:38:01.665709  7900 net.cpp:408] conv9_2_conv9_2_relu_0_split -> conv9_2_conv9_2_relu_0_split_2
I0601 17:38:01.665771  7900 net.cpp:150] Setting up conv9_2_conv9_2_relu_0_split
I0601 17:38:01.665778  7900 net.cpp:157] Top shape: 35 256 1 1 (8960)
I0601 17:38:01.665783  7900 net.cpp:157] Top shape: 35 256 1 1 (8960)
I0601 17:38:01.665787  7900 net.cpp:157] Top shape: 35 256 1 1 (8960)
I0601 17:38:01.665791  7900 net.cpp:165] Memory required for data: 8234813600
I0601 17:38:01.665794  7900 layer_factory.hpp:77] Creating layer conv4_3_norm
I0601 17:38:01.665802  7900 net.cpp:100] Creating Layer conv4_3_norm
I0601 17:38:01.665807  7900 net.cpp:434] conv4_3_norm <- conv4_3_relu4_3_0_split_1
I0601 17:38:01.665813  7900 net.cpp:408] conv4_3_norm -> conv4_3_norm
I0601 17:38:01.665983  7900 net.cpp:150] Setting up conv4_3_norm
I0601 17:38:01.665992  7900 net.cpp:157] Top shape: 35 512 38 38 (25876480)
I0601 17:38:01.665994  7900 net.cpp:165] Memory required for data: 8338319520
I0601 17:38:01.666000  7900 layer_factory.hpp:77] Creating layer conv4_3_norm_conv4_3_norm_0_split
I0601 17:38:01.666007  7900 net.cpp:100] Creating Layer conv4_3_norm_conv4_3_norm_0_split
I0601 17:38:01.666010  7900 net.cpp:434] conv4_3_norm_conv4_3_norm_0_split <- conv4_3_norm
I0601 17:38:01.666030  7900 net.cpp:408] conv4_3_norm_conv4_3_norm_0_split -> conv4_3_norm_conv4_3_norm_0_split_0
I0601 17:38:01.666040  7900 net.cpp:408] conv4_3_norm_conv4_3_norm_0_split -> conv4_3_norm_conv4_3_norm_0_split_1
I0601 17:38:01.666046  7900 net.cpp:408] conv4_3_norm_conv4_3_norm_0_split -> conv4_3_norm_conv4_3_norm_0_split_2
I0601 17:38:01.666100  7900 net.cpp:150] Setting up conv4_3_norm_conv4_3_norm_0_split
I0601 17:38:01.666107  7900 net.cpp:157] Top shape: 35 512 38 38 (25876480)
I0601 17:38:01.666112  7900 net.cpp:157] Top shape: 35 512 38 38 (25876480)
I0601 17:38:01.666116  7900 net.cpp:157] Top shape: 35 512 38 38 (25876480)
I0601 17:38:01.666119  7900 net.cpp:165] Memory required for data: 8648837280
I0601 17:38:01.666122  7900 layer_factory.hpp:77] Creating layer conv4_3_norm_mbox_loc
I0601 17:38:01.666134  7900 net.cpp:100] Creating Layer conv4_3_norm_mbox_loc
I0601 17:38:01.666138  7900 net.cpp:434] conv4_3_norm_mbox_loc <- conv4_3_norm_conv4_3_norm_0_split_0
I0601 17:38:01.666147  7900 net.cpp:408] conv4_3_norm_mbox_loc -> conv4_3_norm_mbox_loc
I0601 17:38:01.681579  7900 net.cpp:150] Setting up conv4_3_norm_mbox_loc
I0601 17:38:01.681602  7900 net.cpp:157] Top shape: 35 16 38 38 (808640)
I0601 17:38:01.681604  7900 net.cpp:165] Memory required for data: 8652071840
I0601 17:38:01.681613  7900 layer_factory.hpp:77] Creating layer conv4_3_norm_mbox_loc_perm
I0601 17:38:01.681623  7900 net.cpp:100] Creating Layer conv4_3_norm_mbox_loc_perm
I0601 17:38:01.681628  7900 net.cpp:434] conv4_3_norm_mbox_loc_perm <- conv4_3_norm_mbox_loc
I0601 17:38:01.681634  7900 net.cpp:408] conv4_3_norm_mbox_loc_perm -> conv4_3_norm_mbox_loc_perm
I0601 17:38:01.681756  7900 net.cpp:150] Setting up conv4_3_norm_mbox_loc_perm
I0601 17:38:01.681766  7900 net.cpp:157] Top shape: 35 38 38 16 (808640)
I0601 17:38:01.681769  7900 net.cpp:165] Memory required for data: 8655306400
I0601 17:38:01.681773  7900 layer_factory.hpp:77] Creating layer conv4_3_norm_mbox_loc_flat
I0601 17:38:01.681782  7900 net.cpp:100] Creating Layer conv4_3_norm_mbox_loc_flat
I0601 17:38:01.681785  7900 net.cpp:434] conv4_3_norm_mbox_loc_flat <- conv4_3_norm_mbox_loc_perm
I0601 17:38:01.681792  7900 net.cpp:408] conv4_3_norm_mbox_loc_flat -> conv4_3_norm_mbox_loc_flat
I0601 17:38:01.681829  7900 net.cpp:150] Setting up conv4_3_norm_mbox_loc_flat
I0601 17:38:01.681838  7900 net.cpp:157] Top shape: 35 23104 (808640)
I0601 17:38:01.681840  7900 net.cpp:165] Memory required for data: 8658540960
I0601 17:38:01.681845  7900 layer_factory.hpp:77] Creating layer conv4_3_norm_mbox_conf
I0601 17:38:01.681860  7900 net.cpp:100] Creating Layer conv4_3_norm_mbox_conf
I0601 17:38:01.681865  7900 net.cpp:434] conv4_3_norm_mbox_conf <- conv4_3_norm_conv4_3_norm_0_split_1
I0601 17:38:01.681871  7900 net.cpp:408] conv4_3_norm_mbox_conf -> conv4_3_norm_mbox_conf
I0601 17:38:01.711596  7900 net.cpp:150] Setting up conv4_3_norm_mbox_conf
I0601 17:38:01.711647  7900 net.cpp:157] Top shape: 35 16 38 38 (808640)
I0601 17:38:01.711663  7900 net.cpp:165] Memory required for data: 8661775520
I0601 17:38:01.711683  7900 layer_factory.hpp:77] Creating layer conv4_3_norm_mbox_conf_perm
I0601 17:38:01.711702  7900 net.cpp:100] Creating Layer conv4_3_norm_mbox_conf_perm
I0601 17:38:01.711717  7900 net.cpp:434] conv4_3_norm_mbox_conf_perm <- conv4_3_norm_mbox_conf
I0601 17:38:01.711736  7900 net.cpp:408] conv4_3_norm_mbox_conf_perm -> conv4_3_norm_mbox_conf_perm
I0601 17:38:01.711884  7900 net.cpp:150] Setting up conv4_3_norm_mbox_conf_perm
I0601 17:38:01.711902  7900 net.cpp:157] Top shape: 35 38 38 16 (808640)
I0601 17:38:01.711915  7900 net.cpp:165] Memory required for data: 8665010080
I0601 17:38:01.711928  7900 layer_factory.hpp:77] Creating layer conv4_3_norm_mbox_conf_flat
I0601 17:38:01.711946  7900 net.cpp:100] Creating Layer conv4_3_norm_mbox_conf_flat
I0601 17:38:01.711959  7900 net.cpp:434] conv4_3_norm_mbox_conf_flat <- conv4_3_norm_mbox_conf_perm
I0601 17:38:01.711984  7900 net.cpp:408] conv4_3_norm_mbox_conf_flat -> conv4_3_norm_mbox_conf_flat
I0601 17:38:01.712038  7900 net.cpp:150] Setting up conv4_3_norm_mbox_conf_flat
I0601 17:38:01.712056  7900 net.cpp:157] Top shape: 35 23104 (808640)
I0601 17:38:01.712070  7900 net.cpp:165] Memory required for data: 8668244640
I0601 17:38:01.712083  7900 layer_factory.hpp:77] Creating layer conv4_3_norm_mbox_priorbox
I0601 17:38:01.712101  7900 net.cpp:100] Creating Layer conv4_3_norm_mbox_priorbox
I0601 17:38:01.712116  7900 net.cpp:434] conv4_3_norm_mbox_priorbox <- conv4_3_norm_conv4_3_norm_0_split_2
I0601 17:38:01.712131  7900 net.cpp:434] conv4_3_norm_mbox_priorbox <- data_data_0_split_1
I0601 17:38:01.712149  7900 net.cpp:408] conv4_3_norm_mbox_priorbox -> conv4_3_norm_mbox_priorbox
I0601 17:38:01.712194  7900 net.cpp:150] Setting up conv4_3_norm_mbox_priorbox
I0601 17:38:01.712213  7900 net.cpp:157] Top shape: 1 2 23104 (46208)
I0601 17:38:01.712226  7900 net.cpp:165] Memory required for data: 8668429472
I0601 17:38:01.712239  7900 layer_factory.hpp:77] Creating layer fc7_mbox_loc
I0601 17:38:01.712260  7900 net.cpp:100] Creating Layer fc7_mbox_loc
I0601 17:38:01.712275  7900 net.cpp:434] fc7_mbox_loc <- fc7_relu7_0_split_1
I0601 17:38:01.712293  7900 net.cpp:408] fc7_mbox_loc -> fc7_mbox_loc
I0601 17:38:01.731441  7900 net.cpp:150] Setting up fc7_mbox_loc
I0601 17:38:01.731467  7900 net.cpp:157] Top shape: 35 24 19 19 (303240)
I0601 17:38:01.731484  7900 net.cpp:165] Memory required for data: 8669642432
I0601 17:38:01.731510  7900 layer_factory.hpp:77] Creating layer fc7_mbox_loc_perm
I0601 17:38:01.731523  7900 net.cpp:100] Creating Layer fc7_mbox_loc_perm
I0601 17:38:01.731541  7900 net.cpp:434] fc7_mbox_loc_perm <- fc7_mbox_loc
I0601 17:38:01.731549  7900 net.cpp:408] fc7_mbox_loc_perm -> fc7_mbox_loc_perm
I0601 17:38:01.731678  7900 net.cpp:150] Setting up fc7_mbox_loc_perm
I0601 17:38:01.731684  7900 net.cpp:157] Top shape: 35 19 19 24 (303240)
I0601 17:38:01.731686  7900 net.cpp:165] Memory required for data: 8670855392
I0601 17:38:01.731689  7900 layer_factory.hpp:77] Creating layer fc7_mbox_loc_flat
I0601 17:38:01.731694  7900 net.cpp:100] Creating Layer fc7_mbox_loc_flat
I0601 17:38:01.731699  7900 net.cpp:434] fc7_mbox_loc_flat <- fc7_mbox_loc_perm
I0601 17:38:01.731703  7900 net.cpp:408] fc7_mbox_loc_flat -> fc7_mbox_loc_flat
I0601 17:38:01.731725  7900 net.cpp:150] Setting up fc7_mbox_loc_flat
I0601 17:38:01.731731  7900 net.cpp:157] Top shape: 35 8664 (303240)
I0601 17:38:01.731734  7900 net.cpp:165] Memory required for data: 8672068352
I0601 17:38:01.731735  7900 layer_factory.hpp:77] Creating layer fc7_mbox_conf
I0601 17:38:01.731745  7900 net.cpp:100] Creating Layer fc7_mbox_conf
I0601 17:38:01.731748  7900 net.cpp:434] fc7_mbox_conf <- fc7_relu7_0_split_2
I0601 17:38:01.731753  7900 net.cpp:408] fc7_mbox_conf -> fc7_mbox_conf
I0601 17:38:01.749261  7900 net.cpp:150] Setting up fc7_mbox_conf
I0601 17:38:01.749282  7900 net.cpp:157] Top shape: 35 24 19 19 (303240)
I0601 17:38:01.749287  7900 net.cpp:165] Memory required for data: 8673281312
I0601 17:38:01.749296  7900 layer_factory.hpp:77] Creating layer fc7_mbox_conf_perm
I0601 17:38:01.749305  7900 net.cpp:100] Creating Layer fc7_mbox_conf_perm
I0601 17:38:01.749311  7900 net.cpp:434] fc7_mbox_conf_perm <- fc7_mbox_conf
I0601 17:38:01.749320  7900 net.cpp:408] fc7_mbox_conf_perm -> fc7_mbox_conf_perm
I0601 17:38:01.749532  7900 net.cpp:150] Setting up fc7_mbox_conf_perm
I0601 17:38:01.749541  7900 net.cpp:157] Top shape: 35 19 19 24 (303240)
I0601 17:38:01.749544  7900 net.cpp:165] Memory required for data: 8674494272
I0601 17:38:01.749548  7900 layer_factory.hpp:77] Creating layer fc7_mbox_conf_flat
I0601 17:38:01.749554  7900 net.cpp:100] Creating Layer fc7_mbox_conf_flat
I0601 17:38:01.749558  7900 net.cpp:434] fc7_mbox_conf_flat <- fc7_mbox_conf_perm
I0601 17:38:01.749565  7900 net.cpp:408] fc7_mbox_conf_flat -> fc7_mbox_conf_flat
I0601 17:38:01.749593  7900 net.cpp:150] Setting up fc7_mbox_conf_flat
I0601 17:38:01.749598  7900 net.cpp:157] Top shape: 35 8664 (303240)
I0601 17:38:01.749601  7900 net.cpp:165] Memory required for data: 8675707232
I0601 17:38:01.749622  7900 layer_factory.hpp:77] Creating layer fc7_mbox_priorbox
I0601 17:38:01.749631  7900 net.cpp:100] Creating Layer fc7_mbox_priorbox
I0601 17:38:01.749634  7900 net.cpp:434] fc7_mbox_priorbox <- fc7_relu7_0_split_3
I0601 17:38:01.749639  7900 net.cpp:434] fc7_mbox_priorbox <- data_data_0_split_2
I0601 17:38:01.749646  7900 net.cpp:408] fc7_mbox_priorbox -> fc7_mbox_priorbox
I0601 17:38:01.749678  7900 net.cpp:150] Setting up fc7_mbox_priorbox
I0601 17:38:01.749686  7900 net.cpp:157] Top shape: 1 2 8664 (17328)
I0601 17:38:01.749688  7900 net.cpp:165] Memory required for data: 8675776544
I0601 17:38:01.749691  7900 layer_factory.hpp:77] Creating layer conv6_2_mbox_loc
I0601 17:38:01.749703  7900 net.cpp:100] Creating Layer conv6_2_mbox_loc
I0601 17:38:01.749707  7900 net.cpp:434] conv6_2_mbox_loc <- conv6_2_conv6_2_relu_0_split_1
I0601 17:38:01.749716  7900 net.cpp:408] conv6_2_mbox_loc -> conv6_2_mbox_loc
I0601 17:38:01.763222  7900 net.cpp:150] Setting up conv6_2_mbox_loc
I0601 17:38:01.763267  7900 net.cpp:157] Top shape: 35 24 10 10 (84000)
I0601 17:38:01.763279  7900 net.cpp:165] Memory required for data: 8676112544
I0601 17:38:01.763295  7900 layer_factory.hpp:77] Creating layer conv6_2_mbox_loc_perm
I0601 17:38:01.763314  7900 net.cpp:100] Creating Layer conv6_2_mbox_loc_perm
I0601 17:38:01.763327  7900 net.cpp:434] conv6_2_mbox_loc_perm <- conv6_2_mbox_loc
I0601 17:38:01.763342  7900 net.cpp:408] conv6_2_mbox_loc_perm -> conv6_2_mbox_loc_perm
I0601 17:38:01.763481  7900 net.cpp:150] Setting up conv6_2_mbox_loc_perm
I0601 17:38:01.763499  7900 net.cpp:157] Top shape: 35 10 10 24 (84000)
I0601 17:38:01.763509  7900 net.cpp:165] Memory required for data: 8676448544
I0601 17:38:01.763520  7900 layer_factory.hpp:77] Creating layer conv6_2_mbox_loc_flat
I0601 17:38:01.763535  7900 net.cpp:100] Creating Layer conv6_2_mbox_loc_flat
I0601 17:38:01.763546  7900 net.cpp:434] conv6_2_mbox_loc_flat <- conv6_2_mbox_loc_perm
I0601 17:38:01.763561  7900 net.cpp:408] conv6_2_mbox_loc_flat -> conv6_2_mbox_loc_flat
I0601 17:38:01.763597  7900 net.cpp:150] Setting up conv6_2_mbox_loc_flat
I0601 17:38:01.763612  7900 net.cpp:157] Top shape: 35 2400 (84000)
I0601 17:38:01.763622  7900 net.cpp:165] Memory required for data: 8676784544
I0601 17:38:01.763633  7900 layer_factory.hpp:77] Creating layer conv6_2_mbox_conf
I0601 17:38:01.763651  7900 net.cpp:100] Creating Layer conv6_2_mbox_conf
I0601 17:38:01.763664  7900 net.cpp:434] conv6_2_mbox_conf <- conv6_2_conv6_2_relu_0_split_2
I0601 17:38:01.763679  7900 net.cpp:408] conv6_2_mbox_conf -> conv6_2_mbox_conf
I0601 17:38:01.777688  7900 net.cpp:150] Setting up conv6_2_mbox_conf
I0601 17:38:01.777711  7900 net.cpp:157] Top shape: 35 24 10 10 (84000)
I0601 17:38:01.777730  7900 net.cpp:165] Memory required for data: 8677120544
I0601 17:38:01.777741  7900 layer_factory.hpp:77] Creating layer conv6_2_mbox_conf_perm
I0601 17:38:01.777755  7900 net.cpp:100] Creating Layer conv6_2_mbox_conf_perm
I0601 17:38:01.777760  7900 net.cpp:434] conv6_2_mbox_conf_perm <- conv6_2_mbox_conf
I0601 17:38:01.777777  7900 net.cpp:408] conv6_2_mbox_conf_perm -> conv6_2_mbox_conf_perm
I0601 17:38:01.777941  7900 net.cpp:150] Setting up conv6_2_mbox_conf_perm
I0601 17:38:01.777950  7900 net.cpp:157] Top shape: 35 10 10 24 (84000)
I0601 17:38:01.777952  7900 net.cpp:165] Memory required for data: 8677456544
I0601 17:38:01.777956  7900 layer_factory.hpp:77] Creating layer conv6_2_mbox_conf_flat
I0601 17:38:01.777962  7900 net.cpp:100] Creating Layer conv6_2_mbox_conf_flat
I0601 17:38:01.777967  7900 net.cpp:434] conv6_2_mbox_conf_flat <- conv6_2_mbox_conf_perm
I0601 17:38:01.777972  7900 net.cpp:408] conv6_2_mbox_conf_flat -> conv6_2_mbox_conf_flat
I0601 17:38:01.778002  7900 net.cpp:150] Setting up conv6_2_mbox_conf_flat
I0601 17:38:01.778008  7900 net.cpp:157] Top shape: 35 2400 (84000)
I0601 17:38:01.778012  7900 net.cpp:165] Memory required for data: 8677792544
I0601 17:38:01.778015  7900 layer_factory.hpp:77] Creating layer conv6_2_mbox_priorbox
I0601 17:38:01.778035  7900 net.cpp:100] Creating Layer conv6_2_mbox_priorbox
I0601 17:38:01.778040  7900 net.cpp:434] conv6_2_mbox_priorbox <- conv6_2_conv6_2_relu_0_split_3
I0601 17:38:01.778046  7900 net.cpp:434] conv6_2_mbox_priorbox <- data_data_0_split_3
I0601 17:38:01.778053  7900 net.cpp:408] conv6_2_mbox_priorbox -> conv6_2_mbox_priorbox
I0601 17:38:01.778084  7900 net.cpp:150] Setting up conv6_2_mbox_priorbox
I0601 17:38:01.778090  7900 net.cpp:157] Top shape: 1 2 2400 (4800)
I0601 17:38:01.778095  7900 net.cpp:165] Memory required for data: 8677811744
I0601 17:38:01.778097  7900 layer_factory.hpp:77] Creating layer conv7_2_mbox_loc
I0601 17:38:01.778110  7900 net.cpp:100] Creating Layer conv7_2_mbox_loc
I0601 17:38:01.778115  7900 net.cpp:434] conv7_2_mbox_loc <- conv7_2_conv7_2_relu_0_split_1
I0601 17:38:01.778121  7900 net.cpp:408] conv7_2_mbox_loc -> conv7_2_mbox_loc
I0601 17:38:01.782721  7900 net.cpp:150] Setting up conv7_2_mbox_loc
I0601 17:38:01.782738  7900 net.cpp:157] Top shape: 35 24 5 5 (21000)
I0601 17:38:01.782742  7900 net.cpp:165] Memory required for data: 8677895744
I0601 17:38:01.782749  7900 layer_factory.hpp:77] Creating layer conv7_2_mbox_loc_perm
I0601 17:38:01.782758  7900 net.cpp:100] Creating Layer conv7_2_mbox_loc_perm
I0601 17:38:01.782763  7900 net.cpp:434] conv7_2_mbox_loc_perm <- conv7_2_mbox_loc
I0601 17:38:01.782768  7900 net.cpp:408] conv7_2_mbox_loc_perm -> conv7_2_mbox_loc_perm
I0601 17:38:01.782871  7900 net.cpp:150] Setting up conv7_2_mbox_loc_perm
I0601 17:38:01.782876  7900 net.cpp:157] Top shape: 35 5 5 24 (21000)
I0601 17:38:01.782878  7900 net.cpp:165] Memory required for data: 8677979744
I0601 17:38:01.782881  7900 layer_factory.hpp:77] Creating layer conv7_2_mbox_loc_flat
I0601 17:38:01.782886  7900 net.cpp:100] Creating Layer conv7_2_mbox_loc_flat
I0601 17:38:01.782888  7900 net.cpp:434] conv7_2_mbox_loc_flat <- conv7_2_mbox_loc_perm
I0601 17:38:01.782894  7900 net.cpp:408] conv7_2_mbox_loc_flat -> conv7_2_mbox_loc_flat
I0601 17:38:01.782914  7900 net.cpp:150] Setting up conv7_2_mbox_loc_flat
I0601 17:38:01.782920  7900 net.cpp:157] Top shape: 35 600 (21000)
I0601 17:38:01.782922  7900 net.cpp:165] Memory required for data: 8678063744
I0601 17:38:01.782924  7900 layer_factory.hpp:77] Creating layer conv7_2_mbox_conf
I0601 17:38:01.782932  7900 net.cpp:100] Creating Layer conv7_2_mbox_conf
I0601 17:38:01.782937  7900 net.cpp:434] conv7_2_mbox_conf <- conv7_2_conv7_2_relu_0_split_2
I0601 17:38:01.782943  7900 net.cpp:408] conv7_2_mbox_conf -> conv7_2_mbox_conf
I0601 17:38:01.790820  7900 net.cpp:150] Setting up conv7_2_mbox_conf
I0601 17:38:01.790839  7900 net.cpp:157] Top shape: 35 24 5 5 (21000)
I0601 17:38:01.790843  7900 net.cpp:165] Memory required for data: 8678147744
I0601 17:38:01.790850  7900 layer_factory.hpp:77] Creating layer conv7_2_mbox_conf_perm
I0601 17:38:01.790859  7900 net.cpp:100] Creating Layer conv7_2_mbox_conf_perm
I0601 17:38:01.790870  7900 net.cpp:434] conv7_2_mbox_conf_perm <- conv7_2_mbox_conf
I0601 17:38:01.790876  7900 net.cpp:408] conv7_2_mbox_conf_perm -> conv7_2_mbox_conf_perm
I0601 17:38:01.790968  7900 net.cpp:150] Setting up conv7_2_mbox_conf_perm
I0601 17:38:01.790974  7900 net.cpp:157] Top shape: 35 5 5 24 (21000)
I0601 17:38:01.790977  7900 net.cpp:165] Memory required for data: 8678231744
I0601 17:38:01.790979  7900 layer_factory.hpp:77] Creating layer conv7_2_mbox_conf_flat
I0601 17:38:01.790983  7900 net.cpp:100] Creating Layer conv7_2_mbox_conf_flat
I0601 17:38:01.790987  7900 net.cpp:434] conv7_2_mbox_conf_flat <- conv7_2_mbox_conf_perm
I0601 17:38:01.790990  7900 net.cpp:408] conv7_2_mbox_conf_flat -> conv7_2_mbox_conf_flat
I0601 17:38:01.791009  7900 net.cpp:150] Setting up conv7_2_mbox_conf_flat
I0601 17:38:01.791015  7900 net.cpp:157] Top shape: 35 600 (21000)
I0601 17:38:01.791018  7900 net.cpp:165] Memory required for data: 8678315744
I0601 17:38:01.791019  7900 layer_factory.hpp:77] Creating layer conv7_2_mbox_priorbox
I0601 17:38:01.791024  7900 net.cpp:100] Creating Layer conv7_2_mbox_priorbox
I0601 17:38:01.791028  7900 net.cpp:434] conv7_2_mbox_priorbox <- conv7_2_conv7_2_relu_0_split_3
I0601 17:38:01.791041  7900 net.cpp:434] conv7_2_mbox_priorbox <- data_data_0_split_4
I0601 17:38:01.791049  7900 net.cpp:408] conv7_2_mbox_priorbox -> conv7_2_mbox_priorbox
I0601 17:38:01.791074  7900 net.cpp:150] Setting up conv7_2_mbox_priorbox
I0601 17:38:01.791079  7900 net.cpp:157] Top shape: 1 2 600 (1200)
I0601 17:38:01.791081  7900 net.cpp:165] Memory required for data: 8678320544
I0601 17:38:01.791084  7900 layer_factory.hpp:77] Creating layer conv8_2_mbox_loc
I0601 17:38:01.791092  7900 net.cpp:100] Creating Layer conv8_2_mbox_loc
I0601 17:38:01.791095  7900 net.cpp:434] conv8_2_mbox_loc <- conv8_2_conv8_2_relu_0_split_1
I0601 17:38:01.791100  7900 net.cpp:408] conv8_2_mbox_loc -> conv8_2_mbox_loc
I0601 17:38:01.798213  7900 net.cpp:150] Setting up conv8_2_mbox_loc
I0601 17:38:01.798228  7900 net.cpp:157] Top shape: 35 16 3 3 (5040)
I0601 17:38:01.798229  7900 net.cpp:165] Memory required for data: 8678340704
I0601 17:38:01.798259  7900 layer_factory.hpp:77] Creating layer conv8_2_mbox_loc_perm
I0601 17:38:01.798265  7900 net.cpp:100] Creating Layer conv8_2_mbox_loc_perm
I0601 17:38:01.798270  7900 net.cpp:434] conv8_2_mbox_loc_perm <- conv8_2_mbox_loc
I0601 17:38:01.798275  7900 net.cpp:408] conv8_2_mbox_loc_perm -> conv8_2_mbox_loc_perm
I0601 17:38:01.798383  7900 net.cpp:150] Setting up conv8_2_mbox_loc_perm
I0601 17:38:01.798389  7900 net.cpp:157] Top shape: 35 3 3 16 (5040)
I0601 17:38:01.798393  7900 net.cpp:165] Memory required for data: 8678360864
I0601 17:38:01.798394  7900 layer_factory.hpp:77] Creating layer conv8_2_mbox_loc_flat
I0601 17:38:01.798399  7900 net.cpp:100] Creating Layer conv8_2_mbox_loc_flat
I0601 17:38:01.798403  7900 net.cpp:434] conv8_2_mbox_loc_flat <- conv8_2_mbox_loc_perm
I0601 17:38:01.798408  7900 net.cpp:408] conv8_2_mbox_loc_flat -> conv8_2_mbox_loc_flat
I0601 17:38:01.798426  7900 net.cpp:150] Setting up conv8_2_mbox_loc_flat
I0601 17:38:01.798431  7900 net.cpp:157] Top shape: 35 144 (5040)
I0601 17:38:01.798434  7900 net.cpp:165] Memory required for data: 8678381024
I0601 17:38:01.798435  7900 layer_factory.hpp:77] Creating layer conv8_2_mbox_conf
I0601 17:38:01.798444  7900 net.cpp:100] Creating Layer conv8_2_mbox_conf
I0601 17:38:01.798449  7900 net.cpp:434] conv8_2_mbox_conf <- conv8_2_conv8_2_relu_0_split_2
I0601 17:38:01.798454  7900 net.cpp:408] conv8_2_mbox_conf -> conv8_2_mbox_conf
I0601 17:38:01.805099  7900 net.cpp:150] Setting up conv8_2_mbox_conf
I0601 17:38:01.805115  7900 net.cpp:157] Top shape: 35 16 3 3 (5040)
I0601 17:38:01.805119  7900 net.cpp:165] Memory required for data: 8678401184
I0601 17:38:01.805125  7900 layer_factory.hpp:77] Creating layer conv8_2_mbox_conf_perm
I0601 17:38:01.805133  7900 net.cpp:100] Creating Layer conv8_2_mbox_conf_perm
I0601 17:38:01.805138  7900 net.cpp:434] conv8_2_mbox_conf_perm <- conv8_2_mbox_conf
I0601 17:38:01.805145  7900 net.cpp:408] conv8_2_mbox_conf_perm -> conv8_2_mbox_conf_perm
I0601 17:38:01.805239  7900 net.cpp:150] Setting up conv8_2_mbox_conf_perm
I0601 17:38:01.805245  7900 net.cpp:157] Top shape: 35 3 3 16 (5040)
I0601 17:38:01.805248  7900 net.cpp:165] Memory required for data: 8678421344
I0601 17:38:01.805249  7900 layer_factory.hpp:77] Creating layer conv8_2_mbox_conf_flat
I0601 17:38:01.805253  7900 net.cpp:100] Creating Layer conv8_2_mbox_conf_flat
I0601 17:38:01.805256  7900 net.cpp:434] conv8_2_mbox_conf_flat <- conv8_2_mbox_conf_perm
I0601 17:38:01.805261  7900 net.cpp:408] conv8_2_mbox_conf_flat -> conv8_2_mbox_conf_flat
I0601 17:38:01.805281  7900 net.cpp:150] Setting up conv8_2_mbox_conf_flat
I0601 17:38:01.805285  7900 net.cpp:157] Top shape: 35 144 (5040)
I0601 17:38:01.805289  7900 net.cpp:165] Memory required for data: 8678441504
I0601 17:38:01.805290  7900 layer_factory.hpp:77] Creating layer conv8_2_mbox_priorbox
I0601 17:38:01.805295  7900 net.cpp:100] Creating Layer conv8_2_mbox_priorbox
I0601 17:38:01.805299  7900 net.cpp:434] conv8_2_mbox_priorbox <- conv8_2_conv8_2_relu_0_split_3
I0601 17:38:01.805302  7900 net.cpp:434] conv8_2_mbox_priorbox <- data_data_0_split_5
I0601 17:38:01.805317  7900 net.cpp:408] conv8_2_mbox_priorbox -> conv8_2_mbox_priorbox
I0601 17:38:01.805342  7900 net.cpp:150] Setting up conv8_2_mbox_priorbox
I0601 17:38:01.805347  7900 net.cpp:157] Top shape: 1 2 144 (288)
I0601 17:38:01.805351  7900 net.cpp:165] Memory required for data: 8678442656
I0601 17:38:01.805352  7900 layer_factory.hpp:77] Creating layer conv9_2_mbox_loc
I0601 17:38:01.805361  7900 net.cpp:100] Creating Layer conv9_2_mbox_loc
I0601 17:38:01.805364  7900 net.cpp:434] conv9_2_mbox_loc <- conv9_2_conv9_2_relu_0_split_0
I0601 17:38:01.805371  7900 net.cpp:408] conv9_2_mbox_loc -> conv9_2_mbox_loc
I0601 17:38:01.812219  7900 net.cpp:150] Setting up conv9_2_mbox_loc
I0601 17:38:01.812235  7900 net.cpp:157] Top shape: 35 16 1 1 (560)
I0601 17:38:01.812238  7900 net.cpp:165] Memory required for data: 8678444896
I0601 17:38:01.812245  7900 layer_factory.hpp:77] Creating layer conv9_2_mbox_loc_perm
I0601 17:38:01.812268  7900 net.cpp:100] Creating Layer conv9_2_mbox_loc_perm
I0601 17:38:01.812273  7900 net.cpp:434] conv9_2_mbox_loc_perm <- conv9_2_mbox_loc
I0601 17:38:01.812278  7900 net.cpp:408] conv9_2_mbox_loc_perm -> conv9_2_mbox_loc_perm
I0601 17:38:01.812393  7900 net.cpp:150] Setting up conv9_2_mbox_loc_perm
I0601 17:38:01.812399  7900 net.cpp:157] Top shape: 35 1 1 16 (560)
I0601 17:38:01.812402  7900 net.cpp:165] Memory required for data: 8678447136
I0601 17:38:01.812404  7900 layer_factory.hpp:77] Creating layer conv9_2_mbox_loc_flat
I0601 17:38:01.812408  7900 net.cpp:100] Creating Layer conv9_2_mbox_loc_flat
I0601 17:38:01.812412  7900 net.cpp:434] conv9_2_mbox_loc_flat <- conv9_2_mbox_loc_perm
I0601 17:38:01.812417  7900 net.cpp:408] conv9_2_mbox_loc_flat -> conv9_2_mbox_loc_flat
I0601 17:38:01.812436  7900 net.cpp:150] Setting up conv9_2_mbox_loc_flat
I0601 17:38:01.812441  7900 net.cpp:157] Top shape: 35 16 (560)
I0601 17:38:01.812443  7900 net.cpp:165] Memory required for data: 8678449376
I0601 17:38:01.812445  7900 layer_factory.hpp:77] Creating layer conv9_2_mbox_conf
I0601 17:38:01.812454  7900 net.cpp:100] Creating Layer conv9_2_mbox_conf
I0601 17:38:01.812458  7900 net.cpp:434] conv9_2_mbox_conf <- conv9_2_conv9_2_relu_0_split_1
I0601 17:38:01.812463  7900 net.cpp:408] conv9_2_mbox_conf -> conv9_2_mbox_conf
I0601 17:38:01.819406  7900 net.cpp:150] Setting up conv9_2_mbox_conf
I0601 17:38:01.819419  7900 net.cpp:157] Top shape: 35 16 1 1 (560)
I0601 17:38:01.819422  7900 net.cpp:165] Memory required for data: 8678451616
I0601 17:38:01.819444  7900 layer_factory.hpp:77] Creating layer conv9_2_mbox_conf_perm
I0601 17:38:01.819452  7900 net.cpp:100] Creating Layer conv9_2_mbox_conf_perm
I0601 17:38:01.819456  7900 net.cpp:434] conv9_2_mbox_conf_perm <- conv9_2_mbox_conf
I0601 17:38:01.819461  7900 net.cpp:408] conv9_2_mbox_conf_perm -> conv9_2_mbox_conf_perm
I0601 17:38:01.819566  7900 net.cpp:150] Setting up conv9_2_mbox_conf_perm
I0601 17:38:01.819571  7900 net.cpp:157] Top shape: 35 1 1 16 (560)
I0601 17:38:01.819573  7900 net.cpp:165] Memory required for data: 8678453856
I0601 17:38:01.819576  7900 layer_factory.hpp:77] Creating layer conv9_2_mbox_conf_flat
I0601 17:38:01.819581  7900 net.cpp:100] Creating Layer conv9_2_mbox_conf_flat
I0601 17:38:01.819584  7900 net.cpp:434] conv9_2_mbox_conf_flat <- conv9_2_mbox_conf_perm
I0601 17:38:01.819587  7900 net.cpp:408] conv9_2_mbox_conf_flat -> conv9_2_mbox_conf_flat
I0601 17:38:01.819608  7900 net.cpp:150] Setting up conv9_2_mbox_conf_flat
I0601 17:38:01.819612  7900 net.cpp:157] Top shape: 35 16 (560)
I0601 17:38:01.819614  7900 net.cpp:165] Memory required for data: 8678456096
I0601 17:38:01.819617  7900 layer_factory.hpp:77] Creating layer conv9_2_mbox_priorbox
I0601 17:38:01.819622  7900 net.cpp:100] Creating Layer conv9_2_mbox_priorbox
I0601 17:38:01.819625  7900 net.cpp:434] conv9_2_mbox_priorbox <- conv9_2_conv9_2_relu_0_split_2
I0601 17:38:01.819628  7900 net.cpp:434] conv9_2_mbox_priorbox <- data_data_0_split_6
I0601 17:38:01.819633  7900 net.cpp:408] conv9_2_mbox_priorbox -> conv9_2_mbox_priorbox
I0601 17:38:01.819666  7900 net.cpp:150] Setting up conv9_2_mbox_priorbox
I0601 17:38:01.819672  7900 net.cpp:157] Top shape: 1 2 16 (32)
I0601 17:38:01.819674  7900 net.cpp:165] Memory required for data: 8678456224
I0601 17:38:01.819676  7900 layer_factory.hpp:77] Creating layer mbox_loc
I0601 17:38:01.819682  7900 net.cpp:100] Creating Layer mbox_loc
I0601 17:38:01.819685  7900 net.cpp:434] mbox_loc <- conv4_3_norm_mbox_loc_flat
I0601 17:38:01.819689  7900 net.cpp:434] mbox_loc <- fc7_mbox_loc_flat
I0601 17:38:01.819694  7900 net.cpp:434] mbox_loc <- conv6_2_mbox_loc_flat
I0601 17:38:01.819697  7900 net.cpp:434] mbox_loc <- conv7_2_mbox_loc_flat
I0601 17:38:01.819700  7900 net.cpp:434] mbox_loc <- conv8_2_mbox_loc_flat
I0601 17:38:01.819703  7900 net.cpp:434] mbox_loc <- conv9_2_mbox_loc_flat
I0601 17:38:01.819706  7900 net.cpp:408] mbox_loc -> mbox_loc
I0601 17:38:01.819730  7900 net.cpp:150] Setting up mbox_loc
I0601 17:38:01.819736  7900 net.cpp:157] Top shape: 35 34928 (1222480)
I0601 17:38:01.819738  7900 net.cpp:165] Memory required for data: 8683346144
I0601 17:38:01.819741  7900 layer_factory.hpp:77] Creating layer mbox_conf
I0601 17:38:01.819744  7900 net.cpp:100] Creating Layer mbox_conf
I0601 17:38:01.819746  7900 net.cpp:434] mbox_conf <- conv4_3_norm_mbox_conf_flat
I0601 17:38:01.819751  7900 net.cpp:434] mbox_conf <- fc7_mbox_conf_flat
I0601 17:38:01.819753  7900 net.cpp:434] mbox_conf <- conv6_2_mbox_conf_flat
I0601 17:38:01.819756  7900 net.cpp:434] mbox_conf <- conv7_2_mbox_conf_flat
I0601 17:38:01.819759  7900 net.cpp:434] mbox_conf <- conv8_2_mbox_conf_flat
I0601 17:38:01.819761  7900 net.cpp:434] mbox_conf <- conv9_2_mbox_conf_flat
I0601 17:38:01.819766  7900 net.cpp:408] mbox_conf -> mbox_conf
I0601 17:38:01.819785  7900 net.cpp:150] Setting up mbox_conf
I0601 17:38:01.819789  7900 net.cpp:157] Top shape: 35 34928 (1222480)
I0601 17:38:01.819792  7900 net.cpp:165] Memory required for data: 8688236064
I0601 17:38:01.819794  7900 layer_factory.hpp:77] Creating layer mbox_priorbox
I0601 17:38:01.819798  7900 net.cpp:100] Creating Layer mbox_priorbox
I0601 17:38:01.819800  7900 net.cpp:434] mbox_priorbox <- conv4_3_norm_mbox_priorbox
I0601 17:38:01.819803  7900 net.cpp:434] mbox_priorbox <- fc7_mbox_priorbox
I0601 17:38:01.819806  7900 net.cpp:434] mbox_priorbox <- conv6_2_mbox_priorbox
I0601 17:38:01.819809  7900 net.cpp:434] mbox_priorbox <- conv7_2_mbox_priorbox
I0601 17:38:01.819813  7900 net.cpp:434] mbox_priorbox <- conv8_2_mbox_priorbox
I0601 17:38:01.819814  7900 net.cpp:434] mbox_priorbox <- conv9_2_mbox_priorbox
I0601 17:38:01.819818  7900 net.cpp:408] mbox_priorbox -> mbox_priorbox
I0601 17:38:01.819836  7900 net.cpp:150] Setting up mbox_priorbox
I0601 17:38:01.819842  7900 net.cpp:157] Top shape: 1 2 34928 (69856)
I0601 17:38:01.819844  7900 net.cpp:165] Memory required for data: 8688515488
I0601 17:38:01.819846  7900 layer_factory.hpp:77] Creating layer mbox_loss
I0601 17:38:01.819854  7900 net.cpp:100] Creating Layer mbox_loss
I0601 17:38:01.819857  7900 net.cpp:434] mbox_loss <- mbox_loc
I0601 17:38:01.819860  7900 net.cpp:434] mbox_loss <- mbox_conf
I0601 17:38:01.819864  7900 net.cpp:434] mbox_loss <- mbox_priorbox
…
  name: "data"
  type: "AnnotatedData"
  top: "data"
  top: "label"
  include {
    phase: TEST
  }
  transform_param {
    mean_value: 104
    mean_value: 117
    mean_value: 123
    resize_param {
      prob: 1
      resize_mode: WARP
      height: 300
      width: 300
      interp_mode: LINEAR
    }
  }
  data_param {
    source: "examples/tbs_300x300_HSIL_10x/tbs_300x300_HSIL_10x_test_lmdb"
    batch_size: 4
    backend: LMDB
  }
  annotated_data_param {
    batch_sampler {
    }
    label_map_file: "data/tbs_300x300_HSIL_10x/labelmap_tbs.prototxt"
  }
}
layer {
  name: "conv1_1"
  type: "Convolution"
  bottom: "data"
  top: "conv1_1"
  param {
    lr_mult: 1
    decay_mult: 1
  }
  param {
    lr_mult: 2
    decay_mult: 0
  }
  convolution_param {
    num_output: 64
    pad: 1
    kernel_size: 3
    weight_filler {
      type: "xavier"
    }
    bias_filler {
      type: "constant"
      value: 0
    }
  }
}
layer {
  name: "relu1_1"
  type: "ReLU"
  bottom: "conv1_1"
  top: "conv1_1"
}
layer {
  name: "conv1_2"
  type: "Convolution"
  bottom: "conv1_1"
  top: "conv1_2"
  param {
    lr_mult: 1
    decay_mult: 1
  }
  param {
    lr_mult: 2
    decay_mult: 0
  }
  convolution_param {
    num_output: 64
    pad: 1
    kernel_size: 3
    weight_filler {
      type: "xavier"
    }
    bias_filler {
      type: "constant"
      value: 0
    }
  }
}
layer {
  name: "relu1_2"
  type: "ReLU"
  bottom: "conv1_2"
  top: "conv1_2"
}
layer {
  name: "pool1"
  type: "Pooling"
  bottom: "conv1_2"
  top: "pool1"
  pooling_param {
    pool: MAX
    kernel_size: 2
    stride: 2
  }
}
layer {
  name: "conv2_1"
  type: "Convolution"
  bottom: "pool1"
  top: "conv2_1"
  param {
    lr_mult: 1
    decay_mult: 1
  }
  param {
    lr_mult: 2
    decay_mult: 0
  }
  convolution_param {
    num_output: 128
    pad: 1
    kernel_size: 3
    weight_filler {
      type: "xavier"
    }
    bias_filler {
      type: "constant"
      value: 0
    }
  }
}
layer {
  name: "relu2_1"
  type: "ReLU"
  bottom: "conv2_1"
  top: "conv2_1"
}
layer {
  name: "conv2_2"
  type: "Convolution"
  bottom: "conv2_1"
  top: "conv2_2"
  param {
    lr_mult: 1
    decay_mult: 1
  }
  param {
    lr_mult: 2
    decay_mult: 0
  }
  convolution_param {
    num_output: 128
    pad: 1
    kernel_size: 3
    weight_filler {
      type: "xavier"
    }
    bias_filler {
      type: "constant"
      value: 0
    }
  }
}
layer {
  name: "relu2_2"
  type: "ReLU"
  bottom: "conv2_2"
  top: "conv2_2"
}
layer {
  name: "pool2"
  type: "Pooling"
  bottom: "conv2_2"
  top: "pool2"
  pooling_param {
    pool: MAX
    kernel_size: 2
    stride: 2
  }
}
layer {
  name: "conv3_1"
  type: "Convolution"
  bottom: "pool2"
  top: "conv3_1"
  param {
    lr_mult: 1
    decay_mult: 1
  }
  param {
    lr_mult: 2
    decay_mult: 0
  }
  convolution_param {
    num_output: 256
    pad: 1
    kernel_size: 3
    weight_filler {
      type: "xavier"
    }
    bias_filler {
      type: "constant"
      value: 0
    }
  }
}
layer {
  name: "relu3_1"
  type: "ReLU"
  bottom: "conv3_1"
  top: "conv3_1"
}
layer {
  name: "conv3_2"
  type: "Convolution"
  bottom: "conv3_1"
  top: "conv3_2"
  param {
    lr_mult: 1
    decay_mult: 1
  }
  param {
    lr_mult: 2
    decay_mult: 0
  }
  convolution_param {
    num_output: 256
    pad: 1
    kernel_size: 3
    weight_filler {
      type: "xavier"
    }
    bias_filler {
      type: "constant"
      value: 0
    }
  }
}
layer {
  name: "relu3_2"
  type: "ReLU"
  bottom: "conv3_2"
  top: "conv3_2"
}
layer {
  name: "conv3_3"
  type: "Convolution"
  bottom: "conv3_2"
  top: "conv3_3"
  param {
    lr_mult: 1
    decay_mult: 1
  }
  param {
    lr_mult: 2
    decay_mult: 0
  }
  convolution_param {
    num_output: 256
    pad: 1
    kernel_size: 3
    weight_filler {
      type: "xavier"
    }
    bias_filler {
      type: "constant"
      value: 0
    }
  }
}
layer {
  name: "relu3_3"
  type: "ReLU"
  bottom: "conv3_3"
  top: "conv3_3"
}
layer {
  name: "pool3"
  type: "Pooling"
  bottom: "conv3_3"
  top: "pool3"
  pooling_param {
    pool: MAX
    kernel_size: 2
    stride: 2
  }
}
layer {
  name: "conv4_1"
  type: "Convolution"
  bottom: "pool3"
  top: "conv4_1"
  param {
    lr_mult: 1
    decay_mult: 1
  }
  param {
    lr_mult: 2
    decay_mult: 0
  }
  convolution_param {
    num_output: 512
    pad: 1
    kernel_size: 3
    weight_filler {
      type: "xavier"
    }
    bias_filler {
      type: "constant"
      value: 0
    }
  }
}
layer {
  name: "relu4_1"
  type: "ReLU"
  bottom: "conv4_1"
  top: "conv4_1"
}
layer {
  name: "conv4_2"
  type: "Convolution"
  bottom: "conv4_1"
  top: "conv4_2"
  param {
    lr_mult: 1
    decay_mult: 1
  }
  param {
    lr_mult: 2
    decay_mult: 0
  }
  convolution_param {
    num_output: 512
    pad: 1
    kernel_size: 3
    weight_filler {
      type: "xavier"
    }
    bias_filler {
      type: "constant"
      value: 0
    }
  }
}
layer {
  name: "relu4_2"
  type: "ReLU"
  bottom: "conv4_2"
  top: "conv4_2"
}
layer {
  name: "conv4_3"
  type: "Convolution"
  bottom: "conv4_2"
  top: "conv4_3"
  param {
    lr_mult: 1
    decay_mult: 1
  }
  param {
    lr_mult: 2
    decay_mult: 0
  }
  convolution_param {
    num_output: 512
    pad: 1
    kernel_size: 3
    weight_filler {
      type: "xavier"
    }
    bias_filler {
      type: "constant"
      value: 0
    }
  }
}
layer {
  name: "relu4_3"
  type: "ReLU"
  bottom: "conv4_3"
  top: "conv4_3"
}
layer {
  name: "pool4"
  type: "Pooling"
  bottom: "conv4_3"
  top: "pool4"
  pooling_param {
    pool: MAX
    kernel_size: 2
    stride: 2
  }
}
layer {
  name: "conv5_1"
  type: "Convolution"
  bottom: "pool4"
  top: "conv5_1"
  param {
    lr_mult: 1
    decay_mult: 1
  }
  param {
    lr_mult: 2
    decay_mult: 0
  }
  convolution_param {
    num_output: 512
    pad: 1
    kernel_size: 3
    weight_filler {
      type: "xavier"
    }
    bias_filler {
      type: "constant"
      value: 0
    }
    dilation: 1
  }
}
layer {
  name: "relu5_1"
  type: "ReLU"
  bottom: "conv5_1"
  top: "conv5_1"
}
layer {
  name: "conv5_2"
  type: "Convolution"
  bottom: "conv5_1"
  top: "conv5_2"
  param {
    lr_mult: 1
    decay_mult: 1
  }
  param {
    lr_mult: 2
    decay_mult: 0
  }
  convolution_param {
    num_output: 512
    pad: 1
    kernel_size: 3
    weight_filler {
      type: "xavier"
    }
    bias_filler {
      type: "constant"
      value: 0
    }
    dilation: 1
  }
}
layer {
  name: "relu5_2"
  type: "ReLU"
  bottom: "conv5_2"
  top: "conv5_2"
}
layer {
  name: "conv5_3"
  type: "Convolution"
  bottom: "conv5_2"
  top: "conv5_3"
  param {
    lr_mult: 1
    decay_mult: 1
  }
  param {
    lr_mult: 2
    decay_mult: 0
  }
  convolution_param {
    num_output: 512
    pad: 1
    kernel_size: 3
    weight_filler {
      type: "xavier"
    }
    bias_filler {
      type: "constant"
      value: 0
    }
    dilation: 1
  }
}
layer {
  name: "relu5_3"
  type: "ReLU"
  bottom: "conv5_3"
  top: "conv5_3"
}
layer {
  name: "pool5"
  type: "Pooling"
  bottom: "conv5_3"
  top: "pool5"
  pooling_param {
    pool: MAX
    kernel_size: 3
    stride: 1
    pad: 1
  }
}
layer {
  name: "fc6"
  type: "Convolution"
  bottom: "pool5"
  top: "fc6"
  param {
    lr_mult: 1
    decay_mult: 1
  }
  param {
    lr_mult: 2
    decay_mult: 0
  }
  convolution_param {
    num_output: 1024
    pad: 6
    kernel_size: 3
    weight_filler {
      type: "xavier"
    }
    bias_filler {
      type: "constant"
      value: 0
    }
    dilation: 6
  }
}
layer {
  name: "relu6"
  type: "ReLU"
  bottom: "fc6"
  top: "fc6"
}
layer {
  name: "fc7"
  type: "Convolution"
  bottom: "fc6"
  top: "fc7"
  param {
    lr_mult: 1
    decay_mult: 1
  }
  param {
    lr_mult: 2
    decay_mult: 0
  }
  convolution_param {
    num_output: 1024
    kernel_size: 1
    weight_filler {
      type: "xavier"
    }
    bias_filler {
      type: "constant"
      value: 0
    }
  }
}
layer {
  name: "relu7"
  type: "ReLU"
  bottom: "fc7"
  top: "fc7"
}
layer {
  name: "conv6_1"
  type: "Convolution"
  bottom: "fc7"
  top: "conv6_1"
  param {
    lr_mult: 1
    decay_mult: 1
  }
  param {
    lr_mult: 2
    decay_mult: 0
  }
  convolution_param {
    num_output: 256
    pad: 0
    kernel_size: 1
    stride: 1
    weight_filler {
      type: "xavier"
    }
    bias_filler {
      type: "constant"
      value: 0
    }
  }
}
layer {
  name: "conv6_1_relu"
  type: "ReLU"
  bottom: "conv6_1"
  top: "conv6_1"
}
layer {
  name: "conv6_2"
  type: "Convolution"
  bottom: "conv6_1"
  top: "conv6_2"
  param {
    lr_mult: 1
    decay_mult: 1
  }
  param {
    lr_mult: 2
    decay_mult: 0
  }
  convolution_param {
    num_output: 512
    pad: 1
    kernel_size: 3
    stride: 2
    weight_filler {
      type: "xavier"
    }
    bias_filler {
      type: "constant"
      value: 0
    }
  }
}
layer {
  name: "conv6_2_relu"
  type: "ReLU"
  bottom: "conv6_2"
  top: "conv6_2"
}
layer {
  name: "conv7_1"
  type: "Convolution"
  bottom: "conv6_2"
  top: "conv7_1"
  param {
    lr_mult: 1
    decay_mult: 1
  }
  param {
    lr_mult: 2
    decay_mult: 0
  }
  convolution_param {
    num_output: 128
    pad: 0
    kernel_size: 1
    stride: 1
    weight_filler {
      type: "xavier"
    }
    bias_filler {
      type: "constant"
      value: 0
    }
  }
}
layer {
  name: "conv7_1_relu"
  type: "ReLU"
  bottom: "conv7_1"
  top: "conv7_1"
}
layer {
  name: "conv7_2"
  type: "Convolution"
  bottom: "conv7_1"
  top: "conv7_2"
  param {
    lr_mult: 1
    decay_mult: 1
  }
  param {
    lr_mult: 2
    decay_mult: 0
  }
  convolution_param {
    num_output: 256
    pad: 1
    kernel_size: 3
    stride: 2
    weight_filler {
      type: "xavier"
    }
    bias_filler {
      type: "constant"
      value: 0
    }
  }
}
layer {
  name: "conv7_2_relu"
  type: "ReLU"
  bottom: "conv7_2"
  top: "conv7_2"
}
layer {
  name: "conv8_1"
  type: "Convolution"
  bottom: "conv7_2"
  top: "conv8_1"
  param {
    lr_mult: 1
    decay_mult: 1
  }
  param {
    lr_mult: 2
    decay_mult: 0
  }
  convolution_param {
    num_output: 128
    pad: 0
    kernel_size: 1
    stride: 1
    weight_filler {
      type: "xavier"
    }
    bias_filler {
      type: "constant"
      value: 0
    }
  }
}
layer {
  name: "conv8_1_relu"
  type: "ReLU"
  bottom: "conv8_1"
  top: "conv8_1"
}
layer {
  name: "conv8_2"
  type: "Convolution"
  bottom: "conv8_1"
  top: "conv8_2"
  param {
    lr_mult: 1
    decay_mult: 1
  }
  param {
    lr_mult: 2
    decay_mult: 0
  }
  convolution_param {
    num_output: 256
    pad: 0
    kernel_size: 3
    stride: 1
    weight_filler {
      type: "xavier"
    }
    bias_filler {
      type: "constant"
      value: 0
    }
  }
}
layer {
  name: "conv8_2_relu"
  type: "ReLU"
  bottom: "conv8_2"
  top: "conv8_2"
}
layer {
  name: "conv9_1"
  type: "Convolution"
  bottom: "conv8_2"
  top: "conv9_1"
  param {
    lr_mult: 1
    decay_mult: 1
  }
  param {
    lr_mult: 2
    decay_mult: 0
  }
  convolution_param {
    num_output: 128
    pad: 0
    kernel_size: 1
    stride: 1
    weight_filler {
      type: "xavier"
    }
    bias_filler {
      type: "constant"
      value: 0
    }
  }
}
layer {
  name: "conv9_1_relu"
  type: "ReLU"
  bottom: "conv9_1"
  top: "conv9_1"
}
layer {
  name: "conv9_2"
  type: "Convolution"
  bottom: "conv9_1"
  top: "conv9_2"
  param {
    lr_mult: 1
    decay_mult: 1
  }
  param {
    lr_mult: 2
    decay_mult: 0
  }
  convolution_param {
    num_output: 256
    pad: 0
    kernel_size: 3
    stride: 1
    weight_filler {
      type: "xavier"
    }
    bias_filler {
      type: "constant"
      value: 0
    }
  }
}
layer {
  name: "conv9_2_relu"
  type: "ReLU"
  bottom: "conv9_2"
  top: "conv9_2"
}
layer {
  name: "conv4_3_norm"
  type: "Normalize"
  bottom: "conv4_3"
  top: "conv4_3_norm"
  norm_param {
    across_spatial: false
    scale_filler {
      type: "constant"
      value: 20
    }
    channel_shared: false
  }
}
layer {
  name: "conv4_3_norm_mbox_loc"
  type: "Convolution"
  bottom: "conv4_3_norm"
  top: "conv4_3_norm_mbox_loc"
  param {
    lr_mult: 1
    decay_mult: 1
  }
  param {
    lr_mult: 2
    decay_mult: 0
  }
  convolution_param {
    num_output: 16
    pad: 1
    kernel_size: 3
    stride: 1
    weight_filler {
      type: "xavier"
    }
    bias_filler {
      type: "constant"
      value: 0
    }
  }
}
layer {
  name: "conv4_3_norm_mbox_loc_perm"
  type: "Permute"
  bottom: "conv4_3_norm_mbox_loc"
  top: "conv4_3_norm_mbox_loc_perm"
  permute_param {
    order: 0
    order: 2
    order: 3
    order: 1
  }
}
layer {
  name: "conv4_3_norm_mbox_loc_flat"
  type: "Flatten"
  bottom: "conv4_3_norm_mbox_loc_perm"
  top: "conv4_3_norm_mbox_loc_flat"
  flatten_param {
    axis: 1
  }
}
layer {
  name: "conv4_3_norm_mbox_conf"
  type: "Convolution"
  bottom: "conv4_3_norm"
  top: "conv4_3_norm_mbox_conf"
  param {
    lr_mult: 1
    decay_mult: 1
  }
  param {
    lr_mult: 2
    decay_mult: 0
  }
  convolution_param {
    num_output: 16
    pad: 1
    kernel_size: 3
    stride: 1
    weight_filler {
      type: "xavier"
    }
    bias_filler {
      type: "constant"
      value: 0
    }
  }
}
layer {
  name: "conv4_3_norm_mbox_conf_perm"
  type: "Permute"
  bottom: "conv4_3_norm_mbox_conf"
  top: "conv4_3_norm_mbox_conf_perm"
  permute_param {
    order: 0
    order: 2
    order: 3
    order: 1
  }
}
layer {
  name: "conv4_3_norm_mbox_conf_flat"
  type: "Flatten"
  bottom: "conv4_3_norm_mbox_conf_perm"
  top: "conv4_3_norm_mbox_conf_flat"
  flatten_param {
    axis: 1
  }
}
layer {
  name: "conv4_3_norm_mbox_priorbox"
  type: "PriorBox"
  bottom: "conv4_3_norm"
  bottom: "data"
  top: "conv4_3_norm_mbox_priorbox"
  prior_box_param {
    min_size: 30
    max_size: 60
    aspect_ratio: 2
    flip: true
    clip: false
    variance: 0.1
    variance: 0.1
    variance: 0.2
    variance: 0.2
    step: 8
    offset: 0.5
  }
}
layer {
  name: "fc7_mbox_loc"
  type: "Convolution"
  bottom: "fc7"
  top: "fc7_mbox_loc"
  param {
    lr_mult: 1
    decay_mult: 1
  }
  param {
    lr_mult: 2
    decay_mult: 0
  }
  convolution_param {
    num_output: 24
    pad: 1
    kernel_size: 3
    stride: 1
    weight_filler {
      type: "xavier"
    }
    bias_filler {
      type: "constant"
      value: 0
    }
  }
}
layer {
  name: "fc7_mbox_loc_perm"
  type: "Permute"
  bottom: "fc7_mbox_loc"
  top: "fc7_mbox_loc_perm"
  permute_param {
    order: 0
    order: 2
    order: 3
    order: 1
  }
}
layer {
  name: "fc7_mbox_loc_flat"
  type: "Flatten"
  bottom: "fc7_mbox_loc_perm"
  top: "fc7_mbox_loc_flat"
  flatten_param {
    axis: 1
  }
}
layer {
  name: "fc7_mbox_conf"
  type: "Convolution"
  bottom: "fc7"
  top: "fc7_mbox_conf"
  param {
    lr_mult: 1
    decay_mult: 1
  }
  param {
    lr_mult: 2
    decay_mult: 0
  }
  convolution_param {
    num_output: 24
    pad: 1
    kernel_size: 3
    stride: 1
    weight_filler {
      type: "xavier"
    }
    bias_filler {
      type: "constant"
      value: 0
    }
  }
}
layer {
  name: "fc7_mbox_conf_perm"
  type: "Permute"
  bottom: "fc7_mbox_conf"
  top: "fc7_mbox_conf_perm"
  permute_param {
    order: 0
    order: 2
    order: 3
    order: 1
  }
}
layer {
  name: "fc7_mbox_conf_flat"
  type: "Flatten"
  bottom: "fc7_mbox_conf_perm"
  top: "fc7_mbox_conf_flat"
  flatten_param {
    axis: 1
  }
}
layer {
  name: "fc7_mbox_priorbox"
  type: "PriorBox"
  bottom: "fc7"
  bottom: "data"
  top: "fc7_mbox_priorbox"
  prior_box_param {
    min_size: 60
    max_size: 111
    aspect_ratio: 2
    aspect_ratio: 3
    flip: true
    clip: false
    variance: 0.1
    variance: 0.1
    variance: 0.2
    variance: 0.2
    step: 16
    offset: 0.5
  }
}
layer {
  name: "conv6_2_mbox_loc"
  type: "Convolution"
  bottom: "conv6_2"
  top: "conv6_2_mbox_loc"
  param {
    lr_mult: 1
    decay_mult: 1
  }
  param {
    lr_mult: 2
    decay_mult: 0
  }
  convolution_param {
    num_output: 24
    pad: 1
    kernel_size: 3
    stride: 1
    weight_filler {
      type: "xavier"
    }
    bias_filler {
      type: "constant"
      value: 0
    }
  }
}
layer {
  name: "conv6_2_mbox_loc_perm"
  type: "Permute"
  bottom: "conv6_2_mbox_loc"
  top: "conv6_2_mbox_loc_perm"
  permute_param {
    order: 0
    order: 2
    order: 3
    order: 1
  }
}
layer {
  name: "conv6_2_mbox_loc_flat"
  type: "Flatten"
  bottom: "conv6_2_mbox_loc_perm"
  top: "conv6_2_mbox_loc_flat"
  flatten_param {
    axis: 1
  }
}
layer {
  name: "conv6_2_mbox_conf"
  type: "Convolution"
  bottom: "conv6_2"
  top: "conv6_2_mbox_conf"
  param {
    lr_mult: 1
    decay_mult: 1
  }
  param {
    lr_mult: 2
    decay_mult: 0
  }
  convolution_param {
    num_output: 24
    pad: 1
    kernel_size: 3
    stride: 1
    weight_filler {
      type: "xavier"
    }
    bias_filler {
      type: "constant"
      value: 0
    }
  }
}
layer {
  name: "conv6_2_mbox_conf_perm"
  type: "Permute"
  bottom: "conv6_2_mbox_conf"
  top: "conv6_2_mbox_conf_perm"
  permute_param {
    order: 0
    order: 2
    order: 3
    order: 1
  }
}
layer {
  name: "conv6_2_mbox_conf_flat"
  type: "Flatten"
  bottom: "conv6_2_mbox_conf_perm"
  top: "conv6_2_mbox_conf_flat"
  flatten_param {
    axis: 1
  }
}
layer {
  name: "conv6_2_mbox_priorbox"
  type: "PriorBox"
  bottom: "conv6_2"
  bottom: "data"
  top: "conv6_2_mbox_priorbox"
  prior_box_param {
    min_size: 111
    max_size: 162
    aspect_ratio: 2
    aspect_ratio: 3
    flip: true
    clip: false
    variance: 0.1
    variance: 0.1
    variance: 0.2
    variance: 0.2
    step: 32
    offset: 0.5
  }
}
layer {
  name: "conv7_2_mbox_loc"
  type: "Convolution"
  bottom: "conv7_2"
  top: "conv7_2_mbox_loc"
  param {
    lr_mult: 1
    decay_mult: 1
  }
  param {
    lr_mult: 2
    decay_mult: 0
  }
  convolution_param {
    num_output: 24
    pad: 1
    kernel_size: 3
    stride: 1
    weight_filler {
      type: "xavier"
    }
    bias_filler {
      type: "constant"
      value: 0
    }
  }
}
layer {
  name: "conv7_2_mbox_loc_perm"
  type: "Permute"
  bottom: "conv7_2_mbox_loc"
  top: "conv7_2_mbox_loc_perm"
  permute_param {
    order: 0
    order: 2
    order: 3
    order: 1
  }
}
layer {
  name: "conv7_2_mbox_loc_flat"
  type: "Flatten"
  bottom: "conv7_2_mbox_loc_perm"
  top: "conv7_2_mbox_loc_flat"
  flatten_param {
    axis: 1
  }
}
layer {
  name: "conv7_2_mbox_conf"
  type: "Convolution"
  bottom: "conv7_2"
  top: "conv7_2_mbox_conf"
  param {
    lr_mult: 1
    decay_mult: 1
  }
  param {
    lr_mult: 2
    decay_mult: 0
  }
  convolution_param {
    num_output: 24
    pad: 1
    kernel_size: 3
    stride: 1
    weight_filler {
      type: "xavier"
    }
    bias_filler {
      type: "constant"
      value: 0
    }
  }
}
layer {
  name: "conv7_2_mbox_conf_perm"
  type: "Permute"
  bottom: "conv7_2_mbox_conf"
  top: "conv7_2_mbox_conf_perm"
  permute_param {
    order: 0
    order: 2
    order: 3
    order: 1
  }
}
layer {
  name: "conv7_2_mbox_conf_flat"
  type: "Flatten"
  bottom: "conv7_2_mbox_conf_perm"
  top: "conv7_2_mbox_conf_flat"
  flatten_param {
    axis: 1
  }
}
layer {
  name: "conv7_2_mbox_priorbox"
  type: "PriorBox"
  bottom: "conv7_2"
  bottom: "data"
  top: "conv7_2_mbox_priorbox"
  prior_box_param {
    min_size: 162
    max_size: 213
    aspect_ratio: 2
    aspect_ratio: 3
    flip: true
    clip: false
    variance: 0.1
    variance: 0.1
    variance: 0.2
    variance: 0.2
    step: 64
    offset: 0.5
  }
}
layer {
  name: "conv8_2_mbox_loc"
  type: "Convolution"
  bottom: "conv8_2"
  top: "conv8_2_mbox_loc"
  param {
    lr_mult: 1
    decay_mult: 1
  }
  param {
    lr_mult: 2
    decay_mult: 0
  }
  convolution_param {
    num_output: 16
    pad: 1
    kernel_size: 3
    stride: 1
    weight_filler {
      type: "xavier"
    }
    bias_filler {
      type: "constant"
      value: 0
    }
  }
}
layer {
  name: "conv8_2_mbox_loc_perm"
  type: "Permute"
  bottom: "conv8_2_mbox_loc"
  top: "conv8_2_mbox_loc_perm"
  permute_param {
    order: 0
    order: 2
    order: 3
    order: 1
  }
}
layer {
  name: "conv8_2_mbox_loc_flat"
  type: "Flatten"
  bottom: "conv8_2_mbox_loc_perm"
  top: "conv8_2_mbox_loc_flat"
  flatten_param {
    axis: 1
  }
}
layer {
  name: "conv8_2_mbox_conf"
  type: "Convolution"
  bottom: "conv8_2"
  top: "conv8_2_mbox_conf"
  param {
    lr_mult: 1
    decay_mult: 1
  }
  param {
    lr_mult: 2
    decay_mult: 0
  }
  convolution_param {
    num_output: 16
    pad: 1
    kernel_size: 3
    stride: 1
    weight_filler {
      type: "xavier"
    }
    bias_filler {
      type: "constant"
      value: 0
    }
  }
}
layer {
  name: "conv8_2_mbox_conf_perm"
  type: "Permute"
  bottom: "conv8_2_mbox_conf"
  top: "conv8_2_mbox_conf_perm"
  permute_param {
    order: 0
    order: 2
    order: 3
    order: 1
  }
}
layer {
  name: "conv8_2_mbox_conf_flat"
  type: "Flatten"
  bottom: "conv8_2_mbox_conf_perm"
  top: "conv8_2_mbox_conf_flat"
  flatten_param {
    axis: 1
  }
}
layer {
  name: "conv8_2_mbox_priorbox"
  type: "PriorBox"
  bottom: "conv8_2"
  bottom: "data"
  top: "conv8_2_mbox_priorbox"
  prior_box_param {
    min_size: 213
    max_size: 264
    aspect_ratio: 2
    flip: true
    clip: false
    variance: 0.1
    variance: 0.1
    variance: 0.2
    variance: 0.2
    step: 100
    offset: 0.5
  }
}
layer {
  name: "conv9_2_mbox_loc"
  type: "Convolution"
  bottom: "conv9_2"
  top: "conv9_2_mbox_loc"
  param {
    lr_mult: 1
    decay_mult: 1
  }
  param {
    lr_mult: 2
    decay_mult: 0
  }
  convolution_param {
    num_output: 16
    pad: 1
    kernel_size: 3
    stride: 1
    weight_filler {
      type: "xavier"
    }
    bias_filler {
      type: "constant"
      value: 0
    }
  }
}
layer {
  name: "conv9_2_mbox_loc_perm"
  type: "Permute"
  bottom: "conv9_2_mbox_loc"
  top: "conv9_2_mbox_loc_perm"
  permute_param {
    order: 0
    order: 2
    order: 3
    order: 1
  }
}
layer {
  name: "conv9_2_mbox_loc_flat"
  type: "Flatten"
  bottom: "conv9_2_mbox_loc_perm"
  top: "conv9_2_mbox_loc_flat"
  flatten_param {
    axis: 1
  }
}
layer {
  name: "conv9_2_mbox_conf"
  type: "Convolution"
  bottom: "conv9_2"
  top: "conv9_2_mbox_conf"
  param {
    lr_mult: 1
    decay_mult: 1
  }
  param {
    lr_mult: 2
    decay_mult: 0
  }
  convolution_param {
    num_output: 16
    pad: 1
    kernel_size: 3
    stride: 1
    weight_filler {
      type: "xavier"
    }
    bias_filler {
      type: "constant"
      value: 0
    }
  }
}
layer {
  name: "conv9_2_mbox_conf_perm"
  type: "Permute"
  bottom: "conv9_2_mbox_conf"
  top: "conv9_2_mbox_conf_perm"
  permute_param {
    order: 0
    order: 2
    order: 3
    order: 1
  }
}
layer {
  name: "conv9_2_mbox_conf_flat"
  type: "Flatten"
  bottom: "conv9_2_mbox_conf_perm"
  top: "conv9_2_mbox_conf_flat"
  flatten_param {
    axis: 1
  }
}
layer {
  name: "conv9_2_mbox_priorbox"
  type: "PriorBox"
  bottom: "conv9_2"
  bottom: "data"
  top: "conv9_2_mbox_priorbox"
  prior_box_param {
    min_size: 264
    max_size: 315
    aspect_ratio: 2
    flip: true
    clip: false
    variance: 0.1
    variance: 0.1
    variance: 0.2
    variance: 0.2
    step: 300
    offset: 0.5
  }
}
layer {
  name: "mbox_loc"
  type: "Concat"
  bottom: "conv4_3_norm_mbox_loc_flat"
  bottom: "fc7_mbox_loc_flat"
  bottom: "conv6_2_mbox_loc_flat"
  bottom: "conv7_2_mbox_loc_flat"
  bottom: "conv8_2_mbox_loc_flat"
  bottom: "conv9_2_mbox_loc_flat"
  top: "mbox_loc"
  concat_param {
    axis: 1
  }
}
layer {
  name: "mbox_conf"
  type: "Concat"
  bottom: "conv4_3_norm_mbox_conf_flat"
  bottom: "fc7_mbox_conf_flat"
  bottom: "conv6_2_mbox_conf_flat"
  bottom: "conv7_2_mbox_conf_flat"
  bottom: "conv8_2_mbox_conf_flat"
  bottom: "conv9_2_mbox_conf_flat"
  top: "mbox_conf"
  concat_param {
    axis: 1
  }
}
layer {
  name: "mbox_priorbox"
  type: "Concat"
  bottom: "conv4_3_norm_mbox_priorbox"
  bottom: "fc7_mbox_priorbox"
  bottom: "conv6_2_mbox_priorbox"
  bottom: "conv7_2_mbox_priorbox"
  bottom: "conv8_2_mbox_priorbox"
  bottom: "conv9_2_mbox_priorbox"
  top: "mbox_priorbox"
  concat_param {
    axis: 2
  }
}
layer {
  name: "mbox_conf_reshape"
  type: "Reshape"
  bottom: "mbox_conf"
  top: "mbox_conf_reshape"
  reshape_param {
    shape {
      dim: 0
      dim: -1
      dim: 4
    }
  }
}
layer {
  name: "mbox_conf_softmax"
  type: "Softmax"
  bottom: "mbox_conf_reshape"
  top: "mbox_conf_softmax"
  softmax_param {
    axis: 2
  }
}
layer {
  name: "mbox_conf_flatten"
  type: "Flatten"
  bottom: "mbox_conf_softmax"
  top: "mbox_conf_flatten"
  flatten_param {
    axis: 1
  }
}
layer {
  name: "detection_out"
  type: "DetectionOutput"
  bottom: "mbox_loc"
  bottom: "mbox_conf_flatten"
  bottom: "mbox_priorbox"
  top: "detection_out"
  include {
    phase: TEST
  }
  detection_output_param {
    num_classes: 4
    share_location: true
    background_label_id: 0
    nms_param {
      nms_threshold: 0.45
      top_k: 400
    }
    save_output_param {
      output_directory: "/home/shangzw/data/tbs/results/tbs/SSD_300x300/Main"
      output_name_prefix: "comp4_det_test_"
      output_format: "VOC"
      label_map_file: "data/tbs_300x300_HSIL_10x/labelmap_tbs.prototxt"
      name_size_file: "data/VOC0712/test_name_size.txt"
      num_test_image: 100
    }
    code_type: CENTER_SIZE
    keep_top_k: 200
    confidence_threshold: 0.01
  }
}
layer {
  name: "detection_eval"
  type: "DetectionEvaluate"
  bottom: "detection_out"
  bottom: "label"
  top: "detection_eval"
  include {
    phase: TEST
  }
  detection_evaluate_param {
    num_classes: 4
    background_label_id: 0
    overlap_threshold: 0.5
    evaluate_difficult_gt: false
    name_size_file: "data/VOC0712/test_name_size.txt"
  }
}
I0601 17:38:01.823676  7900 layer_factory.hpp:77] Creating layer data
I0601 17:38:01.823725  7900 net.cpp:100] Creating Layer data
I0601 17:38:01.823734  7900 net.cpp:408] data -> data
I0601 17:38:01.823741  7900 net.cpp:408] data -> label
I0601 17:38:01.824930  7915 db_lmdb.cpp:35] Opened lmdb examples/tbs_300x300_HSIL_10x/tbs_300x300_HSIL_10x_test_lmdb
I0601 17:38:01.826395  7900 annotated_data_layer.cpp:62] output data size: 4,3,300,300
I0601 17:38:01.838605  7900 net.cpp:150] Setting up data
I0601 17:38:01.838654  7900 net.cpp:157] Top shape: 4 3 300 300 (1080000)
I0601 17:38:01.838660  7900 net.cpp:157] Top shape: 1 1 1 8 (8)
I0601 17:38:01.838663  7900 net.cpp:165] Memory required for data: 4320032
I0601 17:38:01.838668  7900 layer_factory.hpp:77] Creating layer data_data_0_split
I0601 17:38:01.838680  7900 net.cpp:100] Creating Layer data_data_0_split
I0601 17:38:01.838685  7900 net.cpp:434] data_data_0_split <- data
I0601 17:38:01.838695  7900 net.cpp:408] data_data_0_split -> data_data_0_split_0
I0601 17:38:01.838706  7900 net.cpp:408] data_data_0_split -> data_data_0_split_1
I0601 17:38:01.838732  7900 net.cpp:408] data_data_0_split -> data_data_0_split_2
I0601 17:38:01.838750  7900 net.cpp:408] data_data_0_split -> data_data_0_split_3
I0601 17:38:01.838766  7900 net.cpp:408] data_data_0_split -> data_data_0_split_4
I0601 17:38:01.838783  7900 net.cpp:408] data_data_0_split -> data_data_0_split_5
I0601 17:38:01.838798  7900 net.cpp:408] data_data_0_split -> data_data_0_split_6
I0601 17:38:01.838942  7900 net.cpp:150] Setting up data_data_0_split
I0601 17:38:01.838964  7900 net.cpp:157] Top shape: 4 3 300 300 (1080000)
I0601 17:38:01.838980  7900 net.cpp:157] Top shape: 4 3 300 300 (1080000)
I0601 17:38:01.838994  7900 net.cpp:157] Top shape: 4 3 300 300 (1080000)
I0601 17:38:01.839009  7900 net.cpp:157] Top shape: 4 3 300 300 (1080000)
I0601 17:38:01.839031  7900 net.cpp:157] Top shape: 4 3 300 300 (1080000)
I0601 17:38:01.839056  7900 net.cpp:157] Top shape: 4 3 300 300 (1080000)
I0601 17:38:01.839071  7900 net.cpp:157] Top shape: 4 3 300 300 (1080000)
I0601 17:38:01.839084  7900 net.cpp:165] Memory required for data: 34560032
I0601 17:38:01.839098  7900 layer_factory.hpp:77] Creating layer conv1_1
I0601 17:38:01.839119  7900 net.cpp:100] Creating Layer conv1_1
I0601 17:38:01.839133  7900 net.cpp:434] conv1_1 <- data_data_0_split_0
I0601 17:38:01.839150  7900 net.cpp:408] conv1_1 -> conv1_1
I0601 17:38:01.846099  7900 net.cpp:150] Setting up conv1_1
I0601 17:38:01.846117  7900 net.cpp:157] Top shape: 4 64 300 300 (23040000)
I0601 17:38:01.846120  7900 net.cpp:165] Memory required for data: 126720032
I0601 17:38:01.846132  7900 layer_factory.hpp:77] Creating layer relu1_1
I0601 17:38:01.846143  7900 net.cpp:100] Creating Layer relu1_1
I0601 17:38:01.846148  7900 net.cpp:434] relu1_1 <- conv1_1
I0601 17:38:01.846155  7900 net.cpp:395] relu1_1 -> conv1_1 (in-place)
I0601 17:38:01.848330  7900 net.cpp:150] Setting up relu1_1
I0601 17:38:01.848438  7900 net.cpp:157] Top shape: 4 64 300 300 (23040000)
I0601 17:38:01.848448  7900 net.cpp:165] Memory required for data: 218880032
I0601 17:38:01.848453  7900 layer_factory.hpp:77] Creating layer conv1_2
I0601 17:38:01.848465  7900 net.cpp:100] Creating Layer conv1_2
I0601 17:38:01.848472  7900 net.cpp:434] conv1_2 <- conv1_1
I0601 17:38:01.848480  7900 net.cpp:408] conv1_2 -> conv1_2
I0601 17:38:01.855453  7900 net.cpp:150] Setting up conv1_2
I0601 17:38:01.855466  7900 net.cpp:157] Top shape: 4 64 300 300 (23040000)
I0601 17:38:01.855471  7900 net.cpp:165] Memory required for data: 311040032
I0601 17:38:01.855482  7900 layer_factory.hpp:77] Creating layer relu1_2
I0601 17:38:01.855492  7900 net.cpp:100] Creating Layer relu1_2
I0601 17:38:01.855499  7900 net.cpp:434] relu1_2 <- conv1_2
I0601 17:38:01.855505  7900 net.cpp:395] relu1_2 -> conv1_2 (in-place)
I0601 17:38:01.860194  7900 net.cpp:150] Setting up relu1_2
I0601 17:38:01.860211  7900 net.cpp:157] Top shape: 4 64 300 300 (23040000)
I0601 17:38:01.860214  7900 net.cpp:165] Memory required for data: 403200032
I0601 17:38:01.860219  7900 layer_factory.hpp:77] Creating layer pool1
I0601 17:38:01.860225  7900 net.cpp:100] Creating Layer pool1
I0601 17:38:01.860229  7900 net.cpp:434] pool1 <- conv1_2
I0601 17:38:01.860234  7900 net.cpp:408] pool1 -> pool1
I0601 17:38:01.860286  7900 net.cpp:150] Setting up pool1
I0601 17:38:01.860293  7900 net.cpp:157] Top shape: 4 64 150 150 (5760000)
I0601 17:38:01.860297  7900 net.cpp:165] Memory required for data: 426240032
I0601 17:38:01.860301  7900 layer_factory.hpp:77] Creating layer conv2_1
I0601 17:38:01.860313  7900 net.cpp:100] Creating Layer conv2_1
I0601 17:38:01.860319  7900 net.cpp:434] conv2_1 <- pool1
I0601 17:38:01.860327  7900 net.cpp:408] conv2_1 -> conv2_1
I0601 17:38:01.875869  7900 net.cpp:150] Setting up conv2_1
I0601 17:38:01.875887  7900 net.cpp:157] Top shape: 4 128 150 150 (11520000)
I0601 17:38:01.875891  7900 net.cpp:165] Memory required for data: 472320032
I0601 17:38:01.875905  7900 layer_factory.hpp:77] Creating layer relu2_1
I0601 17:38:01.875916  7900 net.cpp:100] Creating Layer relu2_1
I0601 17:38:01.875921  7900 net.cpp:434] relu2_1 <- conv2_1
I0601 17:38:01.875929  7900 net.cpp:395] relu2_1 -> conv2_1 (in-place)
I0601 17:38:01.889103  7900 net.cpp:150] Setting up relu2_1
I0601 17:38:01.889122  7900 net.cpp:157] Top shape: 4 128 150 150 (11520000)
I0601 17:38:01.889127  7900 net.cpp:165] Memory required for data: 518400032
I0601 17:38:01.889132  7900 layer_factory.hpp:77] Creating layer conv2_2
I0601 17:38:01.889144  7900 net.cpp:100] Creating Layer conv2_2
I0601 17:38:01.889150  7900 net.cpp:434] conv2_2 <- conv2_1
I0601 17:38:01.889161  7900 net.cpp:408] conv2_2 -> conv2_2
I0601 17:38:01.898048  7900 net.cpp:150] Setting up conv2_2
I0601 17:38:01.898098  7900 net.cpp:157] Top shape: 4 128 150 150 (11520000)
I0601 17:38:01.898114  7900 net.cpp:165] Memory required for data: 564480032
I0601 17:38:01.898142  7900 layer_factory.hpp:77] Creating layer relu2_2
I0601 17:38:01.898167  7900 net.cpp:100] Creating Layer relu2_2
I0601 17:38:01.898180  7900 net.cpp:434] relu2_2 <- conv2_2
I0601 17:38:01.898196  7900 net.cpp:395] relu2_2 -> conv2_2 (in-place)
I0601 17:38:01.899754  7900 net.cpp:150] Setting up relu2_2
I0601 17:38:01.899768  7900 net.cpp:157] Top shape: 4 128 150 150 (11520000)
I0601 17:38:01.899772  7900 net.cpp:165] Memory required for data: 610560032
I0601 17:38:01.899776  7900 layer_factory.hpp:77] Creating layer pool2
I0601 17:38:01.899786  7900 net.cpp:100] Creating Layer pool2
I0601 17:38:01.899791  7900 net.cpp:434] pool2 <- conv2_2
I0601 17:38:01.899796  7900 net.cpp:408] pool2 -> pool2
I0601 17:38:01.899870  7900 net.cpp:150] Setting up pool2
I0601 17:38:01.899893  7900 net.cpp:157] Top shape: 4 128 75 75 (2880000)
I0601 17:38:01.899906  7900 net.cpp:165] Memory required for data: 622080032
I0601 17:38:01.899919  7900 layer_factory.hpp:77] Creating layer conv3_1
I0601 17:38:01.899942  7900 net.cpp:100] Creating Layer conv3_1
I0601 17:38:01.899957  7900 net.cpp:434] conv3_1 <- pool2
I0601 17:38:01.899976  7900 net.cpp:408] conv3_1 -> conv3_1
I0601 17:38:01.908061  7900 net.cpp:150] Setting up conv3_1
I0601 17:38:01.908084  7900 net.cpp:157] Top shape: 4 256 75 75 (5760000)
I0601 17:38:01.908088  7900 net.cpp:165] Memory required for data: 645120032
I0601 17:38:01.908103  7900 layer_factory.hpp:77] Creating layer relu3_1
I0601 17:38:01.908114  7900 net.cpp:100] Creating Layer relu3_1
I0601 17:38:01.908121  7900 net.cpp:434] relu3_1 <- conv3_1
I0601 17:38:01.908130  7900 net.cpp:395] relu3_1 -> conv3_1 (in-place)
I0601 17:38:01.912473  7900 net.cpp:150] Setting up relu3_1
I0601 17:38:01.913065  7900 net.cpp:157] Top shape: 4 256 75 75 (5760000)
I0601 17:38:01.913251  7900 net.cpp:165] Memory required for data: 668160032
I0601 17:38:01.913792  7900 layer_factory.hpp:77] Creating layer conv3_2
I0601 17:38:01.914223  7900 net.cpp:100] Creating Layer conv3_2
I0601 17:38:01.914343  7900 net.cpp:434] conv3_2 <- conv3_1
I0601 17:38:01.914438  7900 net.cpp:408] conv3_2 -> conv3_2
I0601 17:38:01.931089  7900 net.cpp:150] Setting up conv3_2
I0601 17:38:01.931110  7900 net.cpp:157] Top shape: 4 256 75 75 (5760000)
I0601 17:38:01.931113  7900 net.cpp:165] Memory required for data: 691200032
I0601 17:38:01.931123  7900 layer_factory.hpp:77] Creating layer relu3_2
I0601 17:38:01.931129  7900 net.cpp:100] Creating Layer relu3_2
I0601 17:38:01.931133  7900 net.cpp:434] relu3_2 <- conv3_2
I0601 17:38:01.931138  7900 net.cpp:395] relu3_2 -> conv3_2 (in-place)
I0601 17:38:01.931516  7900 net.cpp:150] Setting up relu3_2
I0601 17:38:01.931522  7900 net.cpp:157] Top shape: 4 256 75 75 (5760000)
I0601 17:38:01.931525  7900 net.cpp:165] Memory required for data: 714240032
I0601 17:38:01.931527  7900 layer_factory.hpp:77] Creating layer conv3_3
I0601 17:38:01.931538  7900 net.cpp:100] Creating Layer conv3_3
I0601 17:38:01.931541  7900 net.cpp:434] conv3_3 <- conv3_2
I0601 17:38:01.931546  7900 net.cpp:408] conv3_3 -> conv3_3
I0601 17:38:01.942543  7900 net.cpp:150] Setting up conv3_3
I0601 17:38:01.942562  7900 net.cpp:157] Top shape: 4 256 75 75 (5760000)
I0601 17:38:01.942566  7900 net.cpp:165] Memory required for data: 737280032
I0601 17:38:01.942591  7900 layer_factory.hpp:77] Creating layer relu3_3
I0601 17:38:01.942602  7900 net.cpp:100] Creating Layer relu3_3
I0601 17:38:01.942607  7900 net.cpp:434] relu3_3 <- conv3_3
I0601 17:38:01.942613  7900 net.cpp:395] relu3_3 -> conv3_3 (in-place)
I0601 17:38:01.945004  7900 net.cpp:150] Setting up relu3_3
I0601 17:38:01.945019  7900 net.cpp:157] Top shape: 4 256 75 75 (5760000)
I0601 17:38:01.945024  7900 net.cpp:165] Memory required for data: 760320032
I0601 17:38:01.945029  7900 layer_factory.hpp:77] Creating layer pool3
I0601 17:38:01.945039  7900 net.cpp:100] Creating Layer pool3
I0601 17:38:01.945044  7900 net.cpp:434] pool3 <- conv3_3
I0601 17:38:01.945050  7900 net.cpp:408] pool3 -> pool3
I0601 17:38:01.945113  7900 net.cpp:150] Setting up pool3
I0601 17:38:01.945123  7900 net.cpp:157] Top shape: 4 256 38 38 (1478656)
I0601 17:38:01.945142  7900 net.cpp:165] Memory required for data: 766234656
I0601 17:38:01.945147  7900 layer_factory.hpp:77] Creating layer conv4_1
I0601 17:38:01.945158  7900 net.cpp:100] Creating Layer conv4_1
I0601 17:38:01.945164  7900 net.cpp:434] conv4_1 <- pool3
I0601 17:38:01.945171  7900 net.cpp:408] conv4_1 -> conv4_1
I0601 17:38:01.955222  7900 net.cpp:150] Setting up conv4_1
I0601 17:38:01.955240  7900 net.cpp:157] Top shape: 4 512 38 38 (2957312)
I0601 17:38:01.955258  7900 net.cpp:165] Memory required for data: 778063904
I0601 17:38:01.955265  7900 layer_factory.hpp:77] Creating layer relu4_1
I0601 17:38:01.955272  7900 net.cpp:100] Creating Layer relu4_1
I0601 17:38:01.955276  7900 net.cpp:434] relu4_1 <- conv4_1
I0601 17:38:01.955281  7900 net.cpp:395] relu4_1 -> conv4_1 (in-place)
I0601 17:38:01.957083  7900 net.cpp:150] Setting up relu4_1
I0601 17:38:01.957094  7900 net.cpp:157] Top shape: 4 512 38 38 (2957312)
I0601 17:38:01.957098  7900 net.cpp:165] Memory required for data: 789893152
I0601 17:38:01.957103  7900 layer_factory.hpp:77] Creating layer conv4_2
I0601 17:38:01.957113  7900 net.cpp:100] Creating Layer conv4_2
I0601 17:38:01.957119  7900 net.cpp:434] conv4_2 <- conv4_1
I0601 17:38:01.957126  7900 net.cpp:408] conv4_2 -> conv4_2
I0601 17:38:01.973851  7900 net.cpp:150] Setting up conv4_2
I0601 17:38:01.973870  7900 net.cpp:157] Top shape: 4 512 38 38 (2957312)
I0601 17:38:01.973872  7900 net.cpp:165] Memory required for data: 801722400
I0601 17:38:01.973897  7900 layer_factory.hpp:77] Creating layer relu4_2
I0601 17:38:01.973906  7900 net.cpp:100] Creating Layer relu4_2
I0601 17:38:01.973908  7900 net.cpp:434] relu4_2 <- conv4_2
I0601 17:38:01.973912  7900 net.cpp:395] relu4_2 -> conv4_2 (in-place)
I0601 17:38:01.976101  7900 net.cpp:150] Setting up relu4_2
I0601 17:38:01.976112  7900 net.cpp:157] Top shape: 4 512 38 38 (2957312)
I0601 17:38:01.976115  7900 net.cpp:165] Memory required for data: 813551648
I0601 17:38:01.976119  7900 layer_factory.hpp:77] Creating layer conv4_3
I0601 17:38:01.976127  7900 net.cpp:100] Creating Layer conv4_3
I0601 17:38:01.976130  7900 net.cpp:434] conv4_3 <- conv4_2
I0601 17:38:01.976138  7900 net.cpp:408] conv4_3 -> conv4_3
I0601 17:38:01.991773  7900 net.cpp:150] Setting up conv4_3
I0601 17:38:01.991791  7900 net.cpp:157] Top shape: 4 512 38 38 (2957312)
I0601 17:38:01.991796  7900 net.cpp:165] Memory required for data: 825380896
I0601 17:38:01.991816  7900 layer_factory.hpp:77] Creating layer relu4_3
I0601 17:38:01.991824  7900 net.cpp:100] Creating Layer relu4_3
I0601 17:38:01.991827  7900 net.cpp:434] relu4_3 <- conv4_3
I0601 17:38:01.991833  7900 net.cpp:395] relu4_3 -> conv4_3 (in-place)
I0601 17:38:01.993940  7900 net.cpp:150] Setting up relu4_3
I0601 17:38:01.993950  7900 net.cpp:157] Top shape: 4 512 38 38 (2957312)
I0601 17:38:01.993952  7900 net.cpp:165] Memory required for data: 837210144
I0601 17:38:01.993955  7900 layer_factory.hpp:77] Creating layer conv4_3_relu4_3_0_split
I0601 17:38:01.993960  7900 net.cpp:100] Creating Layer conv4_3_relu4_3_0_split
I0601 17:38:01.993963  7900 net.cpp:434] conv4_3_relu4_3_0_split <- conv4_3
I0601 17:38:01.993968  7900 net.cpp:408] conv4_3_relu4_3_0_split -> conv4_3_relu4_3_0_split_0
I0601 17:38:01.993976  7900 net.cpp:408] conv4_3_relu4_3_0_split -> conv4_3_relu4_3_0_split_1
I0601 17:38:01.994016  7900 net.cpp:150] Setting up conv4_3_relu4_3_0_split
I0601 17:38:01.994022  7900 net.cpp:157] Top shape: 4 512 38 38 (2957312)
I0601 17:38:01.994025  7900 net.cpp:157] Top shape: 4 512 38 38 (2957312)
I0601 17:38:01.994027  7900 net.cpp:165] Memory required for data: 860868640
I0601 17:38:01.994029  7900 layer_factory.hpp:77] Creating layer pool4
I0601 17:38:01.994035  7900 net.cpp:100] Creating Layer pool4
I0601 17:38:01.994037  7900 net.cpp:434] pool4 <- conv4_3_relu4_3_0_split_0
I0601 17:38:01.994041  7900 net.cpp:408] pool4 -> pool4
I0601 17:38:01.994076  7900 net.cpp:150] Setting up pool4
I0601 17:38:01.994081  7900 net.cpp:157] Top shape: 4 512 19 19 (739328)
I0601 17:38:01.994083  7900 net.cpp:165] Memory required for data: 863825952
I0601 17:38:01.994096  7900 layer_factory.hpp:77] Creating layer conv5_1
I0601 17:38:01.994105  7900 net.cpp:100] Creating Layer conv5_1
I0601 17:38:01.994108  7900 net.cpp:434] conv5_1 <- pool4
I0601 17:38:01.994113  7900 net.cpp:408] conv5_1 -> conv5_1
I0601 17:38:02.010591  7900 net.cpp:150] Setting up conv5_1
I0601 17:38:02.010607  7900 net.cpp:157] Top shape: 4 512 19 19 (739328)
I0601 17:38:02.010610  7900 net.cpp:165] Memory required for data: 866783264
I0601 17:38:02.010617  7900 layer_factory.hpp:77] Creating layer relu5_1
I0601 17:38:02.010625  7900 net.cpp:100] Creating Layer relu5_1
I0601 17:38:02.010629  7900 net.cpp:434] relu5_1 <- conv5_1
I0601 17:38:02.010633  7900 net.cpp:395] relu5_1 -> conv5_1 (in-place)
I0601 17:38:02.012778  7900 net.cpp:150] Setting up relu5_1
I0601 17:38:02.012789  7900 net.cpp:157] Top shape: 4 512 19 19 (739328)
I0601 17:38:02.012791  7900 net.cpp:165] Memory required for data: 869740576
I0601 17:38:02.012794  7900 layer_factory.hpp:77] Creating layer conv5_2
I0601 17:38:02.012804  7900 net.cpp:100] Creating Layer conv5_2
I0601 17:38:02.012807  7900 net.cpp:434] conv5_2 <- conv5_1
I0601 17:38:02.012812  7900 net.cpp:408] conv5_2 -> conv5_2
I0601 17:38:02.028137  7900 net.cpp:150] Setting up conv5_2
I0601 17:38:02.028153  7900 net.cpp:157] Top shape: 4 512 19 19 (739328)
I0601 17:38:02.028156  7900 net.cpp:165] Memory required for data: 872697888
I0601 17:38:02.028163  7900 layer_factory.hpp:77] Creating layer relu5_2
I0601 17:38:02.028170  7900 net.cpp:100] Creating Layer relu5_2
I0601 17:38:02.028173  7900 net.cpp:434] relu5_2 <- conv5_2
I0601 17:38:02.028180  7900 net.cpp:395] relu5_2 -> conv5_2 (in-place)
I0601 17:38:02.030256  7900 net.cpp:150] Setting up relu5_2
I0601 17:38:02.030264  7900 net.cpp:157] Top shape: 4 512 19 19 (739328)
I0601 17:38:02.030267  7900 net.cpp:165] Memory required for data: 875655200
I0601 17:38:02.030269  7900 layer_factory.hpp:77] Creating layer conv5_3
I0601 17:38:02.030278  7900 net.cpp:100] Creating Layer conv5_3
I0601 17:38:02.030282  7900 net.cpp:434] conv5_3 <- conv5_2
I0601 17:38:02.030287  7900 net.cpp:408] conv5_3 -> conv5_3
I0601 17:38:02.045933  7900 net.cpp:150] Setting up conv5_3
I0601 17:38:02.045949  7900 net.cpp:157] Top shape: 4 512 19 19 (739328)
I0601 17:38:02.045953  7900 net.cpp:165] Memory required for data: 878612512
I0601 17:38:02.045959  7900 layer_factory.hpp:77] Creating layer relu5_3
I0601 17:38:02.045971  7900 net.cpp:100] Creating Layer relu5_3
I0601 17:38:02.045974  7900 net.cpp:434] relu5_3 <- conv5_3
I0601 17:38:02.045979  7900 net.cpp:395] relu5_3 -> conv5_3 (in-place)
I0601 17:38:02.046114  7900 net.cpp:150] Setting up relu5_3
I0601 17:38:02.046123  7900 net.cpp:157] Top shape: 4 512 19 19 (739328)
I0601 17:38:02.046125  7900 net.cpp:165] Memory required for data: 881569824
I0601 17:38:02.046128  7900 layer_factory.hpp:77] Creating layer pool5
I0601 17:38:02.046133  7900 net.cpp:100] Creating Layer pool5
I0601 17:38:02.046136  7900 net.cpp:434] pool5 <- conv5_3
I0601 17:38:02.046139  7900 net.cpp:408] pool5 -> pool5
I0601 17:38:02.046180  7900 net.cpp:150] Setting up pool5
I0601 17:38:02.046185  7900 net.cpp:157] Top shape: 4 512 19 19 (739328)
I0601 17:38:02.046187  7900 net.cpp:165] Memory required for data: 884527136
I0601 17:38:02.046190  7900 layer_factory.hpp:77] Creating layer fc6
I0601 17:38:02.046197  7900 net.cpp:100] Creating Layer fc6
I0601 17:38:02.046200  7900 net.cpp:434] fc6 <- pool5
I0601 17:38:02.046205  7900 net.cpp:408] fc6 -> fc6
I0601 17:38:02.069699  7900 net.cpp:150] Setting up fc6
I0601 17:38:02.069720  7900 net.cpp:157] Top shape: 4 1024 19 19 (1478656)
I0601 17:38:02.069723  7900 net.cpp:165] Memory required for data: 890441760
I0601 17:38:02.069730  7900 layer_factory.hpp:77] Creating layer relu6
I0601 17:38:02.069737  7900 net.cpp:100] Creating Layer relu6
I0601 17:38:02.069741  7900 net.cpp:434] relu6 <- fc6
I0601 17:38:02.069744  7900 net.cpp:395] relu6 -> fc6 (in-place)
I0601 17:38:02.070466  7900 net.cpp:150] Setting up relu6
I0601 17:38:02.070480  7900 net.cpp:157] Top shape: 4 1024 19 19 (1478656)
I0601 17:38:02.070499  7900 net.cpp:165] Memory required for data: 896356384
I0601 17:38:02.070503  7900 layer_factory.hpp:77] Creating layer fc7
I0601 17:38:02.070514  7900 net.cpp:100] Creating Layer fc7
I0601 17:38:02.070518  7900 net.cpp:434] fc7 <- fc6
I0601 17:38:02.070523  7900 net.cpp:408] fc7 -> fc7
I0601 17:38:02.077070  7900 net.cpp:150] Setting up fc7
I0601 17:38:02.077090  7900 net.cpp:157] Top shape: 4 1024 19 19 (1478656)
I0601 17:38:02.077093  7900 net.cpp:165] Memory required for data: 902271008
I0601 17:38:02.077100  7900 layer_factory.hpp:77] Creating layer relu7
I0601 17:38:02.077107  7900 net.cpp:100] Creating Layer relu7
I0601 17:38:02.077111  7900 net.cpp:434] relu7 <- fc7
I0601 17:38:02.077116  7900 net.cpp:395] relu7 -> fc7 (in-place)
I0601 17:38:02.077252  7900 net.cpp:150] Setting up relu7
I0601 17:38:02.077261  7900 net.cpp:157] Top shape: 4 1024 19 19 (1478656)
I0601 17:38:02.077263  7900 net.cpp:165] Memory required for data: 908185632
I0601 17:38:02.077266  7900 layer_factory.hpp:77] Creating layer fc7_relu7_0_split
I0601 17:38:02.077271  7900 net.cpp:100] Creating Layer fc7_relu7_0_split
I0601 17:38:02.077273  7900 net.cpp:434] fc7_relu7_0_split <- fc7
I0601 17:38:02.077278  7900 net.cpp:408] fc7_relu7_0_split -> fc7_relu7_0_split_0
I0601 17:38:02.077283  7900 net.cpp:408] fc7_relu7_0_split -> fc7_relu7_0_split_1
I0601 17:38:02.077292  7900 net.cpp:408] fc7_relu7_0_split -> fc7_relu7_0_split_2
I0601 17:38:02.077296  7900 net.cpp:408] fc7_relu7_0_split -> fc7_relu7_0_split_3
I0601 17:38:02.077359  7900 net.cpp:150] Setting up fc7_relu7_0_split
I0601 17:38:02.077365  7900 net.cpp:157] Top shape: 4 1024 19 19 (1478656)
I0601 17:38:02.077369  7900 net.cpp:157] Top shape: 4 1024 19 19 (1478656)
I0601 17:38:02.077373  7900 net.cpp:157] Top shape: 4 1024 19 19 (1478656)
I0601 17:38:02.077375  7900 net.cpp:157] Top shape: 4 1024 19 19 (1478656)
I0601 17:38:02.077378  7900 net.cpp:165] Memory required for data: 931844128
I0601 17:38:02.077379  7900 layer_factory.hpp:77] Creating layer conv6_1
I0601 17:38:02.077388  7900 net.cpp:100] Creating Layer conv6_1
I0601 17:38:02.077390  7900 net.cpp:434] conv6_1 <- fc7_relu7_0_split_0
I0601 17:38:02.077395  7900 net.cpp:408] conv6_1 -> conv6_1
I0601 17:38:02.080971  7900 net.cpp:150] Setting up conv6_1
I0601 17:38:02.080988  7900 net.cpp:157] Top shape: 4 256 19 19 (369664)
I0601 17:38:02.080992  7900 net.cpp:165] Memory required for data: 933322784
I0601 17:38:02.080999  7900 layer_factory.hpp:77] Creating layer conv6_1_relu
I0601 17:38:02.081007  7900 net.cpp:100] Creating Layer conv6_1_relu
I0601 17:38:02.081009  7900 net.cpp:434] conv6_1_relu <- conv6_1
I0601 17:38:02.081015  7900 net.cpp:395] conv6_1_relu -> conv6_1 (in-place)
I0601 17:38:02.081153  7900 net.cpp:150] Setting up conv6_1_relu
I0601 17:38:02.081162  7900 net.cpp:157] Top shape: 4 256 19 19 (369664)
I0601 17:38:02.081164  7900 net.cpp:165] Memory required for data: 934801440
I0601 17:38:02.081167  7900 layer_factory.hpp:77] Creating layer conv6_2
I0601 17:38:02.081176  7900 net.cpp:100] Creating Layer conv6_2
I0601 17:38:02.081178  7900 net.cpp:434] conv6_2 <- conv6_1
I0601 17:38:02.081183  7900 net.cpp:408] conv6_2 -> conv6_2
I0601 17:38:02.089103  7900 net.cpp:150] Setting up conv6_2
I0601 17:38:02.089125  7900 net.cpp:157] Top shape: 4 512 10 10 (204800)
I0601 17:38:02.089129  7900 net.cpp:165] Memory required for data: 935620640
I0601 17:38:02.089144  7900 layer_factory.hpp:77] Creating layer conv6_2_relu
I0601 17:38:02.089154  7900 net.cpp:100] Creating Layer conv6_2_relu
I0601 17:38:02.089157  7900 net.cpp:434] conv6_2_relu <- conv6_2
I0601 17:38:02.089162  7900 net.cpp:395] conv6_2_relu -> conv6_2 (in-place)
I0601 17:38:02.089298  7900 net.cpp:150] Setting up conv6_2_relu
I0601 17:38:02.089308  7900 net.cpp:157] Top shape: 4 512 10 10 (204800)
I0601 17:38:02.089309  7900 net.cpp:165] Memory required for data: 936439840
I0601 17:38:02.089313  7900 layer_factory.hpp:77] Creating layer conv6_2_conv6_2_relu_0_split
I0601 17:38:02.089318  7900 net.cpp:100] Creating Layer conv6_2_conv6_2_relu_0_split
I0601 17:38:02.089331  7900 net.cpp:434] conv6_2_conv6_2_relu_0_split <- conv6_2
I0601 17:38:02.089336  7900 net.cpp:408] conv6_2_conv6_2_relu_0_split -> conv6_2_conv6_2_relu_0_split_0
I0601 17:38:02.089344  7900 net.cpp:408] conv6_2_conv6_2_relu_0_split -> conv6_2_conv6_2_relu_0_split_1
I0601 17:38:02.089347  7900 net.cpp:408] conv6_2_conv6_2_relu_0_split -> conv6_2_conv6_2_relu_0_split_2
I0601 17:38:02.089352  7900 net.cpp:408] conv6_2_conv6_2_relu_0_split -> conv6_2_conv6_2_relu_0_split_3
I0601 17:38:02.089414  7900 net.cpp:150] Setting up conv6_2_conv6_2_relu_0_split
I0601 17:38:02.089421  7900 net.cpp:157] Top shape: 4 512 10 10 (204800)
I0601 17:38:02.089423  7900 net.cpp:157] Top shape: 4 512 10 10 (204800)
I0601 17:38:02.089426  7900 net.cpp:157] Top shape: 4 512 10 10 (204800)
I0601 17:38:02.089428  7900 net.cpp:157] Top shape: 4 512 10 10 (204800)
I0601 17:38:02.089431  7900 net.cpp:165] Memory required for data: 939716640
I0601 17:38:02.089432  7900 layer_factory.hpp:77] Creating layer conv7_1
I0601 17:38:02.089440  7900 net.cpp:100] Creating Layer conv7_1
I0601 17:38:02.089443  7900 net.cpp:434] conv7_1 <- conv6_2_conv6_2_relu_0_split_0
I0601 17:38:02.089448  7900 net.cpp:408] conv7_1 -> conv7_1
I0601 17:38:02.090844  7900 net.cpp:150] Setting up conv7_1
I0601 17:38:02.090857  7900 net.cpp:157] Top shape: 4 128 10 10 (51200)
I0601 17:38:02.090859  7900 net.cpp:165] Memory required for data: 939921440
I0601 17:38:02.090864  7900 layer_factory.hpp:77] Creating layer conv7_1_relu
I0601 17:38:02.090869  7900 net.cpp:100] Creating Layer conv7_1_relu
I0601 17:38:02.090873  7900 net.cpp:434] conv7_1_relu <- conv7_1
I0601 17:38:02.090876  7900 net.cpp:395] conv7_1_relu -> conv7_1 (in-place)
I0601 17:38:02.091007  7900 net.cpp:150] Setting up conv7_1_relu
I0601 17:38:02.091015  7900 net.cpp:157] Top shape: 4 128 10 10 (51200)
I0601 17:38:02.091017  7900 net.cpp:165] Memory required for data: 940126240
I0601 17:38:02.091020  7900 layer_factory.hpp:77] Creating layer conv7_2
I0601 17:38:02.091027  7900 net.cpp:100] Creating Layer conv7_2
I0601 17:38:02.091029  7900 net.cpp:434] conv7_2 <- conv7_1
I0601 17:38:02.091035  7900 net.cpp:408] conv7_2 -> conv7_2
I0601 17:38:02.094012  7900 net.cpp:150] Setting up conv7_2
I0601 17:38:02.094027  7900 net.cpp:157] Top shape: 4 256 5 5 (25600)
I0601 17:38:02.094030  7900 net.cpp:165] Memory required for data: 940228640
I0601 17:38:02.094036  7900 layer_factory.hpp:77] Creating layer conv7_2_relu
I0601 17:38:02.094043  7900 net.cpp:100] Creating Layer conv7_2_relu
I0601 17:38:02.094045  7900 net.cpp:434] conv7_2_relu <- conv7_2
I0601 17:38:02.094049  7900 net.cpp:395] conv7_2_relu -> conv7_2 (in-place)
I0601 17:38:02.094183  7900 net.cpp:150] Setting up conv7_2_relu
I0601 17:38:02.094192  7900 net.cpp:157] Top shape: 4 256 5 5 (25600)
I0601 17:38:02.094193  7900 net.cpp:165] Memory required for data: 940331040
I0601 17:38:02.094197  7900 layer_factory.hpp:77] Creating layer conv7_2_conv7_2_relu_0_split
I0601 17:38:02.094202  7900 net.cpp:100] Creating Layer conv7_2_conv7_2_relu_0_split
I0601 17:38:02.094204  7900 net.cpp:434] conv7_2_conv7_2_relu_0_split <- conv7_2
I0601 17:38:02.094208  7900 net.cpp:408] conv7_2_conv7_2_relu_0_split -> conv7_2_conv7_2_relu_0_split_0
I0601 17:38:02.094214  7900 net.cpp:408] conv7_2_conv7_2_relu_0_split -> conv7_2_conv7_2_relu_0_split_1
I0601 17:38:02.094219  7900 net.cpp:408] conv7_2_conv7_2_relu_0_split -> conv7_2_conv7_2_relu_0_split_2
I0601 17:38:02.094224  7900 net.cpp:408] conv7_2_conv7_2_relu_0_split -> conv7_2_conv7_2_relu_0_split_3
I0601 17:38:02.094286  7900 net.cpp:150] Setting up conv7_2_conv7_2_relu_0_split
I0601 17:38:02.094292  7900 net.cpp:157] Top shape: 4 256 5 5 (25600)
I0601 17:38:02.094295  7900 net.cpp:157] Top shape: 4 256 5 5 (25600)
I0601 17:38:02.094298  7900 net.cpp:157] Top shape: 4 256 5 5 (25600)
I0601 17:38:02.094300  7900 net.cpp:157] Top shape: 4 256 5 5 (25600)
I0601 17:38:02.094302  7900 net.cpp:165] Memory required for data: 940740640
I0601 17:38:02.094305  7900 layer_factory.hpp:77] Creating layer conv8_1
I0601 17:38:02.094324  7900 net.cpp:100] Creating Layer conv8_1
I0601 17:38:02.094327  7900 net.cpp:434] conv8_1 <- conv7_2_conv7_2_relu_0_split_0
I0601 17:38:02.094332  7900 net.cpp:408] conv8_1 -> conv8_1
I0601 17:38:02.095557  7900 net.cpp:150] Setting up conv8_1
I0601 17:38:02.095567  7900 net.cpp:157] Top shape: 4 128 5 5 (12800)
I0601 17:38:02.095569  7900 net.cpp:165] Memory required for data: 940791840
I0601 17:38:02.095574  7900 layer_factory.hpp:77] Creating layer conv8_1_relu
I0601 17:38:02.095579  7900 net.cpp:100] Creating Layer conv8_1_relu
I0601 17:38:02.095582  7900 net.cpp:434] conv8_1_relu <- conv8_1
I0601 17:38:02.095587  7900 net.cpp:395] conv8_1_relu -> conv8_1 (in-place)
I0601 17:38:02.096150  7900 net.cpp:150] Setting up conv8_1_relu
I0601 17:38:02.096163  7900 net.cpp:157] Top shape: 4 128 5 5 (12800)
I0601 17:38:02.096166  7900 net.cpp:165] Memory required for data: 940843040
I0601 17:38:02.096168  7900 layer_factory.hpp:77] Creating layer conv8_2
I0601 17:38:02.096176  7900 net.cpp:100] Creating Layer conv8_2
I0601 17:38:02.096180  7900 net.cpp:434] conv8_2 <- conv8_1
I0601 17:38:02.096184  7900 net.cpp:408] conv8_2 -> conv8_2
I0601 17:38:02.099191  7900 net.cpp:150] Setting up conv8_2
I0601 17:38:02.099205  7900 net.cpp:157] Top shape: 4 256 3 3 (9216)
I0601 17:38:02.099207  7900 net.cpp:165] Memory required for data: 940879904
I0601 17:38:02.099213  7900 layer_factory.hpp:77] Creating layer conv8_2_relu
I0601 17:38:02.099220  7900 net.cpp:100] Creating Layer conv8_2_relu
I0601 17:38:02.099222  7900 net.cpp:434] conv8_2_relu <- conv8_2
I0601 17:38:02.099227  7900 net.cpp:395] conv8_2_relu -> conv8_2 (in-place)
I0601 17:38:02.099362  7900 net.cpp:150] Setting up conv8_2_relu
I0601 17:38:02.099369  7900 net.cpp:157] Top shape: 4 256 3 3 (9216)
I0601 17:38:02.099370  7900 net.cpp:165] Memory required for data: 940916768
I0601 17:38:02.099373  7900 layer_factory.hpp:77] Creating layer conv8_2_conv8_2_relu_0_split
I0601 17:38:02.099378  7900 net.cpp:100] Creating Layer conv8_2_conv8_2_relu_0_split
I0601 17:38:02.099380  7900 net.cpp:434] conv8_2_conv8_2_relu_0_split <- conv8_2
I0601 17:38:02.099385  7900 net.cpp:408] conv8_2_conv8_2_relu_0_split -> conv8_2_conv8_2_relu_0_split_0
I0601 17:38:02.099391  7900 net.cpp:408] conv8_2_conv8_2_relu_0_split -> conv8_2_conv8_2_relu_0_split_1
I0601 17:38:02.099395  7900 net.cpp:408] conv8_2_conv8_2_relu_0_split -> conv8_2_conv8_2_relu_0_split_2
I0601 17:38:02.099400  7900 net.cpp:408] conv8_2_conv8_2_relu_0_split -> conv8_2_conv8_2_relu_0_split_3
I0601 17:38:02.099463  7900 net.cpp:150] Setting up conv8_2_conv8_2_relu_0_split
I0601 17:38:02.099468  7900 net.cpp:157] Top shape: 4 256 3 3 (9216)
I0601 17:38:02.099472  7900 net.cpp:157] Top shape: 4 256 3 3 (9216)
I0601 17:38:02.099473  7900 net.cpp:157] Top shape: 4 256 3 3 (9216)
I0601 17:38:02.099476  7900 net.cpp:157] Top shape: 4 256 3 3 (9216)
I0601 17:38:02.099478  7900 net.cpp:165] Memory required for data: 941064224
I0601 17:38:02.099480  7900 layer_factory.hpp:77] Creating layer conv9_1
I0601 17:38:02.099489  7900 net.cpp:100] Creating Layer conv9_1
I0601 17:38:02.099491  7900 net.cpp:434] conv9_1 <- conv8_2_conv8_2_relu_0_split_0
I0601 17:38:02.099498  7900 net.cpp:408] conv9_1 -> conv9_1
I0601 17:38:02.100697  7900 net.cpp:150] Setting up conv9_1
I0601 17:38:02.100709  7900 net.cpp:157] Top shape: 4 128 3 3 (4608)
I0601 17:38:02.100713  7900 net.cpp:165] Memory required for data: 941082656
I0601 17:38:02.100718  7900 layer_factory.hpp:77] Creating layer conv9_1_relu
I0601 17:38:02.100723  7900 net.cpp:100] Creating Layer conv9_1_relu
I0601 17:38:02.100726  7900 net.cpp:434] conv9_1_relu <- conv9_1
I0601 17:38:02.100729  7900 net.cpp:395] conv9_1_relu -> conv9_1 (in-place)
I0601 17:38:02.100869  7900 net.cpp:150] Setting up conv9_1_relu
I0601 17:38:02.100878  7900 net.cpp:157] Top shape: 4 128 3 3 (4608)
I0601 17:38:02.100879  7900 net.cpp:165] Memory required for data: 941101088
I0601 17:38:02.100881  7900 layer_factory.hpp:77] Creating layer conv9_2
I0601 17:38:02.100898  7900 net.cpp:100] Creating Layer conv9_2
I0601 17:38:02.100901  7900 net.cpp:434] conv9_2 <- conv9_1
I0601 17:38:02.100905  7900 net.cpp:408] conv9_2 -> conv9_2
I0601 17:38:02.104995  7900 net.cpp:150] Setting up conv9_2
I0601 17:38:02.105013  7900 net.cpp:157] Top shape: 4 256 1 1 (1024)
I0601 17:38:02.105016  7900 net.cpp:165] Memory required for data: 941105184
I0601 17:38:02.105023  7900 layer_factory.hpp:77] Creating layer conv9_2_relu
I0601 17:38:02.105029  7900 net.cpp:100] Creating Layer conv9_2_relu
I0601 17:38:02.105033  7900 net.cpp:434] conv9_2_relu <- conv9_2
I0601 17:38:02.105039  7900 net.cpp:395] conv9_2_relu -> conv9_2 (in-place)
I0601 17:38:02.105181  7900 net.cpp:150] Setting up conv9_2_relu
I0601 17:38:02.105190  7900 net.cpp:157] Top shape: 4 256 1 1 (1024)
I0601 17:38:02.105192  7900 net.cpp:165] Memory required for data: 941109280
I0601 17:38:02.105195  7900 layer_factory.hpp:77] Creating layer conv9_2_conv9_2_relu_0_split
I0601 17:38:02.105202  7900 net.cpp:100] Creating Layer conv9_2_conv9_2_relu_0_split
I0601 17:38:02.105207  7900 net.cpp:434] conv9_2_conv9_2_relu_0_split <- conv9_2
I0601 17:38:02.105212  7900 net.cpp:408] conv9_2_conv9_2_relu_0_split -> conv9_2_conv9_2_relu_0_split_0
I0601 17:38:02.105222  7900 net.cpp:408] conv9_2_conv9_2_relu_0_split -> conv9_2_conv9_2_relu_0_split_1
I0601 17:38:02.105229  7900 net.cpp:408] conv9_2_conv9_2_relu_0_split -> conv9_2_conv9_2_relu_0_split_2
I0601 17:38:02.105285  7900 net.cpp:150] Setting up conv9_2_conv9_2_relu_0_split
I0601 17:38:02.105293  7900 net.cpp:157] Top shape: 4 256 1 1 (1024)
I0601 17:38:02.105298  7900 net.cpp:157] Top shape: 4 256 1 1 (1024)
I0601 17:38:02.105304  7900 net.cpp:157] Top shape: 4 256 1 1 (1024)
I0601 17:38:02.105306  7900 net.cpp:165] Memory required for data: 941121568
I0601 17:38:02.105309  7900 layer_factory.hpp:77] Creating layer conv4_3_norm
I0601 17:38:02.105317  7900 net.cpp:100] Creating Layer conv4_3_norm
I0601 17:38:02.105321  7900 net.cpp:434] conv4_3_norm <- conv4_3_relu4_3_0_split_1
I0601 17:38:02.105327  7900 net.cpp:408] conv4_3_norm -> conv4_3_norm
I0601 17:38:02.105481  7900 net.cpp:150] Setting up conv4_3_norm
I0601 17:38:02.105489  7900 net.cpp:157] Top shape: 4 512 38 38 (2957312)
I0601 17:38:02.105491  7900 net.cpp:165] Memory required for data: 952950816
I0601 17:38:02.105496  7900 layer_factory.hpp:77] Creating layer conv4_3_norm_conv4_3_norm_0_split
I0601 17:38:02.105502  7900 net.cpp:100] Creating Layer conv4_3_norm_conv4_3_norm_0_split
I0601 17:38:02.105509  7900 net.cpp:434] conv4_3_norm_conv4_3_norm_0_split <- conv4_3_norm
I0601 17:38:02.105512  7900 net.cpp:408] conv4_3_norm_conv4_3_norm_0_split -> conv4_3_norm_conv4_3_norm_0_split_0
I0601 17:38:02.105520  7900 net.cpp:408] conv4_3_norm_conv4_3_norm_0_split -> conv4_3_norm_conv4_3_norm_0_split_1
I0601 17:38:02.105526  7900 net.cpp:408] conv4_3_norm_conv4_3_norm_0_split -> conv4_3_norm_conv4_3_norm_0_split_2
I0601 17:38:02.105573  7900 net.cpp:150] Setting up conv4_3_norm_conv4_3_norm_0_split
I0601 17:38:02.105578  7900 net.cpp:157] Top shape: 4 512 38 38 (2957312)
I0601 17:38:02.105582  7900 net.cpp:157] Top shape: 4 512 38 38 (2957312)
I0601 17:38:02.105587  7900 net.cpp:157] Top shape: 4 512 38 38 (2957312)
I0601 17:38:02.105590  7900 net.cpp:165] Memory required for data: 988438560
I0601 17:38:02.105593  7900 layer_factory.hpp:77] Creating layer conv4_3_norm_mbox_loc
I0601 17:38:02.105603  7900 net.cpp:100] Creating Layer conv4_3_norm_mbox_loc
I0601 17:38:02.105607  7900 net.cpp:434] conv4_3_norm_mbox_loc <- conv4_3_norm_conv4_3_norm_0_split_0
I0601 17:38:02.105615  7900 net.cpp:408] conv4_3_norm_mbox_loc -> conv4_3_norm_mbox_loc
I0601 17:38:02.107502  7900 net.cpp:150] Setting up conv4_3_norm_mbox_loc
I0601 17:38:02.107518  7900 net.cpp:157] Top shape: 4 16 38 38 (92416)
I0601 17:38:02.107522  7900 net.cpp:165] Memory required for data: 988808224
I0601 17:38:02.107530  7900 layer_factory.hpp:77] Creating layer conv4_3_norm_mbox_loc_perm
I0601 17:38:02.107539  7900 net.cpp:100] Creating Layer conv4_3_norm_mbox_loc_perm
I0601 17:38:02.107561  7900 net.cpp:434] conv4_3_norm_mbox_loc_perm <- conv4_3_norm_mbox_loc
I0601 17:38:02.107569  7900 net.cpp:408] conv4_3_norm_mbox_loc_perm -> conv4_3_norm_mbox_loc_perm
I0601 17:38:02.107681  7900 net.cpp:150] Setting up conv4_3_norm_mbox_loc_perm
I0601 17:38:02.107687  7900 net.cpp:157] Top shape: 4 38 38 16 (92416)
I0601 17:38:02.107689  7900 net.cpp:165] Memory required for data: 989177888
I0601 17:38:02.107693  7900 layer_factory.hpp:77] Creating layer conv4_3_norm_mbox_loc_flat
I0601 17:38:02.107699  7900 net.cpp:100] Creating Layer conv4_3_norm_mbox_loc_flat
I0601 17:38:02.107704  7900 net.cpp:434] conv4_3_norm_mbox_loc_flat <- conv4_3_norm_mbox_loc_perm
I0601 17:38:02.107712  7900 net.cpp:408] conv4_3_norm_mbox_loc_flat -> conv4_3_norm_mbox_loc_flat
I0601 17:38:02.107745  7900 net.cpp:150] Setting up conv4_3_norm_mbox_loc_flat
I0601 17:38:02.107751  7900 net.cpp:157] Top shape: 4 23104 (92416)
I0601 17:38:02.107754  7900 net.cpp:165] Memory required for data: 989547552
I0601 17:38:02.107756  7900 layer_factory.hpp:77] Creating layer conv4_3_norm_mbox_conf
I0601 17:38:02.107772  7900 net.cpp:100] Creating Layer conv4_3_norm_mbox_conf
I0601 17:38:02.107777  7900 net.cpp:434] conv4_3_norm_mbox_conf <- conv4_3_norm_conv4_3_norm_0_split_1
I0601 17:38:02.107784  7900 net.cpp:408] conv4_3_norm_mbox_conf -> conv4_3_norm_mbox_conf
I0601 17:38:02.109668  7900 net.cpp:150] Setting up conv4_3_norm_mbox_conf
I0601 17:38:02.109678  7900 net.cpp:157] Top shape: 4 16 38 38 (92416)
I0601 17:38:02.109683  7900 net.cpp:165] Memory required for data: 989917216
I0601 17:38:02.109690  7900 layer_factory.hpp:77] Creating layer conv4_3_norm_mbox_conf_perm
I0601 17:38:02.109697  7900 net.cpp:100] Creating Layer conv4_3_norm_mbox_conf_perm
I0601 17:38:02.109704  7900 net.cpp:434] conv4_3_norm_mbox_conf_perm <- conv4_3_norm_mbox_conf
I0601 17:38:02.109711  7900 net.cpp:408] conv4_3_norm_mbox_conf_perm -> conv4_3_norm_mbox_conf_perm
I0601 17:38:02.109820  7900 net.cpp:150] Setting up conv4_3_norm_mbox_conf_perm
I0601 17:38:02.109827  7900 net.cpp:157] Top shape: 4 38 38 16 (92416)
I0601 17:38:02.109829  7900 net.cpp:165] Memory required for data: 990286880
I0601 17:38:02.109833  7900 layer_factory.hpp:77] Creating layer conv4_3_norm_mbox_conf_flat
I0601 17:38:02.109839  7900 net.cpp:100] Creating Layer conv4_3_norm_mbox_conf_flat
I0601 17:38:02.109843  7900 net.cpp:434] conv4_3_norm_mbox_conf_flat <- conv4_3_norm_mbox_conf_perm
I0601 17:38:02.109850  7900 net.cpp:408] conv4_3_norm_mbox_conf_flat -> conv4_3_norm_mbox_conf_flat
I0601 17:38:02.109875  7900 net.cpp:150] Setting up conv4_3_norm_mbox_conf_flat
I0601 17:38:02.109880  7900 net.cpp:157] Top shape: 4 23104 (92416)
I0601 17:38:02.109882  7900 net.cpp:165] Memory required for data: 990656544
I0601 17:38:02.109886  7900 layer_factory.hpp:77] Creating layer conv4_3_norm_mbox_priorbox
I0601 17:38:02.109895  7900 net.cpp:100] Creating Layer conv4_3_norm_mbox_priorbox
I0601 17:38:02.109899  7900 net.cpp:434] conv4_3_norm_mbox_priorbox <- conv4_3_norm_conv4_3_norm_0_split_2
I0601 17:38:02.109905  7900 net.cpp:434] conv4_3_norm_mbox_priorbox <- data_data_0_split_1
I0601 17:38:02.109912  7900 net.cpp:408] conv4_3_norm_mbox_priorbox -> conv4_3_norm_mbox_priorbox
I0601 17:38:02.109941  7900 net.cpp:150] Setting up conv4_3_norm_mbox_priorbox
I0601 17:38:02.109946  7900 net.cpp:157] Top shape: 1 2 23104 (46208)
I0601 17:38:02.109949  7900 net.cpp:165] Memory required for data: 990841376
I0601 17:38:02.109953  7900 layer_factory.hpp:77] Creating layer fc7_mbox_loc
I0601 17:38:02.109966  7900 net.cpp:100] Creating Layer fc7_mbox_loc
I0601 17:38:02.109969  7900 net.cpp:434] fc7_mbox_loc <- fc7_relu7_0_split_1
I0601 17:38:02.109974  7900 net.cpp:408] fc7_mbox_loc -> fc7_mbox_loc
I0601 17:38:02.112610  7900 net.cpp:150] Setting up fc7_mbox_loc
I0601 17:38:02.112628  7900 net.cpp:157] Top shape: 4 24 19 19 (34656)
I0601 17:38:02.112632  7900 net.cpp:165] Memory required for data: 990980000
I0601 17:38:02.112638  7900 layer_factory.hpp:77] Creating layer fc7_mbox_loc_perm
I0601 17:38:02.112661  7900 net.cpp:100] Creating Layer fc7_mbox_loc_perm
I0601 17:38:02.112668  7900 net.cpp:434] fc7_mbox_loc_perm <- fc7_mbox_loc
I0601 17:38:02.112674  7900 net.cpp:408] fc7_mbox_loc_perm -> fc7_mbox_loc_perm
I0601 17:38:02.112782  7900 net.cpp:150] Setting up fc7_mbox_loc_perm
I0601 17:38:02.112789  7900 net.cpp:157] Top shape: 4 19 19 24 (34656)
I0601 17:38:02.112792  7900 net.cpp:165] Memory required for data: 991118624
I0601 17:38:02.112795  7900 layer_factory.hpp:77] Creating layer fc7_mbox_loc_flat
I0601 17:38:02.112802  7900 net.cpp:100] Creating Layer fc7_mbox_loc_flat
I0601 17:38:02.112805  7900 net.cpp:434] fc7_mbox_loc_flat <- fc7_mbox_loc_perm
I0601 17:38:02.112812  7900 net.cpp:408] fc7_mbox_loc_flat -> fc7_mbox_loc_flat
I0601 17:38:02.112840  7900 net.cpp:150] Setting up fc7_mbox_loc_flat
I0601 17:38:02.112848  7900 net.cpp:157] Top shape: 4 8664 (34656)
I0601 17:38:02.112850  7900 net.cpp:165] Memory required for data: 991257248
I0601 17:38:02.112854  7900 layer_factory.hpp:77] Creating layer fc7_mbox_conf
I0601 17:38:02.112861  7900 net.cpp:100] Creating Layer fc7_mbox_conf
I0601 17:38:02.112864  7900 net.cpp:434] fc7_mbox_conf <- fc7_relu7_0_split_2
I0601 17:38:02.112870  7900 net.cpp:408] fc7_mbox_conf -> fc7_mbox_conf
I0601 17:38:02.116489  7900 net.cpp:150] Setting up fc7_mbox_conf
I0601 17:38:02.116500  7900 net.cpp:157] Top shape: 4 24 19 19 (34656)
I0601 17:38:02.116503  7900 net.cpp:165] Memory required for data: 991395872
I0601 17:38:02.116508  7900 layer_factory.hpp:77] Creating layer fc7_mbox_conf_perm
I0601 17:38:02.116515  7900 net.cpp:100] Creating Layer fc7_mbox_conf_perm
I0601 17:38:02.116518  7900 net.cpp:434] fc7_mbox_conf_perm <- fc7_mbox_conf
I0601 17:38:02.116523  7900 net.cpp:408] fc7_mbox_conf_perm -> fc7_mbox_conf_perm
I0601 17:38:02.116626  7900 net.cpp:150] Setting up fc7_mbox_conf_perm
I0601 17:38:02.116631  7900 net.cpp:157] Top shape: 4 19 19 24 (34656)
I0601 17:38:02.116634  7900 net.cpp:165] Memory required for data: 991534496
I0601 17:38:02.116636  7900 layer_factory.hpp:77] Creating layer fc7_mbox_conf_flat
I0601 17:38:02.116641  7900 net.cpp:100] Creating Layer fc7_mbox_conf_flat
I0601 17:38:02.116642  7900 net.cpp:434] fc7_mbox_conf_flat <- fc7_mbox_conf_perm
I0601 17:38:02.116647  7900 net.cpp:408] fc7_mbox_conf_flat -> fc7_mbox_conf_flat
I0601 17:38:02.116669  7900 net.cpp:150] Setting up fc7_mbox_conf_flat
I0601 17:38:02.116673  7900 net.cpp:157] Top shape: 4 8664 (34656)
I0601 17:38:02.116675  7900 net.cpp:165] Memory required for data: 991673120
I0601 17:38:02.116677  7900 layer_factory.hpp:77] Creating layer fc7_mbox_priorbox
I0601 17:38:02.116683  7900 net.cpp:100] Creating Layer fc7_mbox_priorbox
I0601 17:38:02.116684  7900 net.cpp:434] fc7_mbox_priorbox <- fc7_relu7_0_split_3
I0601 17:38:02.116688  7900 net.cpp:434] fc7_mbox_priorbox <- data_data_0_split_2
I0601 17:38:02.116693  7900 net.cpp:408] fc7_mbox_priorbox -> fc7_mbox_priorbox
I0601 17:38:02.116719  7900 net.cpp:150] Setting up fc7_mbox_priorbox
I0601 17:38:02.116722  7900 net.cpp:157] Top shape: 1 2 8664 (17328)
I0601 17:38:02.116724  7900 net.cpp:165] Memory required for data: 991742432
I0601 17:38:02.116727  7900 layer_factory.hpp:77] Creating layer conv6_2_mbox_loc
I0601 17:38:02.116734  7900 net.cpp:100] Creating Layer conv6_2_mbox_loc
I0601 17:38:02.116737  7900 net.cpp:434] conv6_2_mbox_loc <- conv6_2_conv6_2_relu_0_split_1
I0601 17:38:02.116744  7900 net.cpp:408] conv6_2_mbox_loc -> conv6_2_mbox_loc
I0601 17:38:02.122728  7900 net.cpp:150] Setting up conv6_2_mbox_loc
I0601 17:38:02.122740  7900 net.cpp:157] Top shape: 4 24 10 10 (9600)
I0601 17:38:02.122743  7900 net.cpp:165] Memory required for data: 991780832
I0601 17:38:02.122748  7900 layer_factory.hpp:77] Creating layer conv6_2_mbox_loc_perm
I0601 17:38:02.122756  7900 net.cpp:100] Creating Layer conv6_2_mbox_loc_perm
I0601 17:38:02.122759  7900 net.cpp:434] conv6_2_mbox_loc_perm <- conv6_2_mbox_loc
I0601 17:38:02.122763  7900 net.cpp:408] conv6_2_mbox_loc_perm -> conv6_2_mbox_loc_perm
I0601 17:38:02.122870  7900 net.cpp:150] Setting up conv6_2_mbox_loc_perm
I0601 17:38:02.122884  7900 net.cpp:157] Top shape: 4 10 10 24 (9600)
I0601 17:38:02.122887  7900 net.cpp:165] Memory required for data: 991819232
I0601 17:38:02.122889  7900 layer_factory.hpp:77] Creating layer conv6_2_mbox_loc_flat
I0601 17:38:02.122894  7900 net.cpp:100] Creating Layer conv6_2_mbox_loc_flat
I0601 17:38:02.122896  7900 net.cpp:434] conv6_2_mbox_loc_flat <- conv6_2_mbox_loc_perm
I0601 17:38:02.122901  7900 net.cpp:408] conv6_2_mbox_loc_flat -> conv6_2_mbox_loc_flat
I0601 17:38:02.122928  7900 net.cpp:150] Setting up conv6_2_mbox_loc_flat
I0601 17:38:02.122934  7900 net.cpp:157] Top shape: 4 2400 (9600)
I0601 17:38:02.122937  7900 net.cpp:165] Memory required for data: 991857632
I0601 17:38:02.122939  7900 layer_factory.hpp:77] Creating layer conv6_2_mbox_conf
I0601 17:38:02.122947  7900 net.cpp:100] Creating Layer conv6_2_mbox_conf
I0601 17:38:02.122951  7900 net.cpp:434] conv6_2_mbox_conf <- conv6_2_conv6_2_relu_0_split_2
I0601 17:38:02.122956  7900 net.cpp:408] conv6_2_mbox_conf -> conv6_2_mbox_conf
I0601 17:38:02.128695  7900 net.cpp:150] Setting up conv6_2_mbox_conf
I0601 17:38:02.128710  7900 net.cpp:157] Top shape: 4 24 10 10 (9600)
I0601 17:38:02.128711  7900 net.cpp:165] Memory required for data: 991896032
I0601 17:38:02.128718  7900 layer_factory.hpp:77] Creating layer conv6_2_mbox_conf_perm
I0601 17:38:02.128726  7900 net.cpp:100] Creating Layer conv6_2_mbox_conf_perm
I0601 17:38:02.128731  7900 net.cpp:434] conv6_2_mbox_conf_perm <- conv6_2_mbox_conf
I0601 17:38:02.128734  7900 net.cpp:408] conv6_2_mbox_conf_perm -> conv6_2_mbox_conf_perm
I0601 17:38:02.128847  7900 net.cpp:150] Setting up conv6_2_mbox_conf_perm
I0601 17:38:02.128854  7900 net.cpp:157] Top shape: 4 10 10 24 (9600)
I0601 17:38:02.128855  7900 net.cpp:165] Memory required for data: 991934432
I0601 17:38:02.128857  7900 layer_factory.hpp:77] Creating layer conv6_2_mbox_conf_flat
I0601 17:38:02.128862  7900 net.cpp:100] Creating Layer conv6_2_mbox_conf_flat
I0601 17:38:02.128865  7900 net.cpp:434] conv6_2_mbox_conf_flat <- conv6_2_mbox_conf_perm
I0601 17:38:02.128870  7900 net.cpp:408] conv6_2_mbox_conf_flat -> conv6_2_mbox_conf_flat
I0601 17:38:02.128897  7900 net.cpp:150] Setting up conv6_2_mbox_conf_flat
I0601 17:38:02.128904  7900 net.cpp:157] Top shape: 4 2400 (9600)
I0601 17:38:02.128906  7900 net.cpp:165] Memory required for data: 991972832
I0601 17:38:02.128909  7900 layer_factory.hpp:77] Creating layer conv6_2_mbox_priorbox
I0601 17:38:02.128916  7900 net.cpp:100] Creating Layer conv6_2_mbox_priorbox
I0601 17:38:02.128918  7900 net.cpp:434] conv6_2_mbox_priorbox <- conv6_2_conv6_2_relu_0_split_3
I0601 17:38:02.128922  7900 net.cpp:434] conv6_2_mbox_priorbox <- data_data_0_split_3
I0601 17:38:02.128926  7900 net.cpp:408] conv6_2_mbox_priorbox -> conv6_2_mbox_priorbox
I0601 17:38:02.128953  7900 net.cpp:150] Setting up conv6_2_mbox_priorbox
I0601 17:38:02.128959  7900 net.cpp:157] Top shape: 1 2 2400 (4800)
I0601 17:38:02.128962  7900 net.cpp:165] Memory required for data: 991992032
I0601 17:38:02.128963  7900 layer_factory.hpp:77] Creating layer conv7_2_mbox_loc
I0601 17:38:02.128971  7900 net.cpp:100] Creating Layer conv7_2_mbox_loc
I0601 17:38:02.128974  7900 net.cpp:434] conv7_2_mbox_loc <- conv7_2_conv7_2_relu_0_split_1
I0601 17:38:02.128979  7900 net.cpp:408] conv7_2_mbox_loc -> conv7_2_mbox_loc
I0601 17:38:02.135483  7900 net.cpp:150] Setting up conv7_2_mbox_loc
I0601 17:38:02.135496  7900 net.cpp:157] Top shape: 4 24 5 5 (2400)
I0601 17:38:02.135499  7900 net.cpp:165] Memory required for data: 992001632
I0601 17:38:02.135505  7900 layer_factory.hpp:77] Creating layer conv7_2_mbox_loc_perm
I0601 17:38:02.135512  7900 net.cpp:100] Creating Layer conv7_2_mbox_loc_perm
I0601 17:38:02.135516  7900 net.cpp:434] conv7_2_mbox_loc_perm <- conv7_2_mbox_loc
I0601 17:38:02.135522  7900 net.cpp:408] conv7_2_mbox_loc_perm -> conv7_2_mbox_loc_perm
I0601 17:38:02.135632  7900 net.cpp:150] Setting up conv7_2_mbox_loc_perm
I0601 17:38:02.135637  7900 net.cpp:157] Top shape: 4 5 5 24 (2400)
I0601 17:38:02.135639  7900 net.cpp:165] Memory required for data: 992011232
I0601 17:38:02.135654  7900 layer_factory.hpp:77] Creating layer conv7_2_mbox_loc_flat
I0601 17:38:02.135658  7900 net.cpp:100] Creating Layer conv7_2_mbox_loc_flat
I0601 17:38:02.135661  7900 net.cpp:434] conv7_2_mbox_loc_flat <- conv7_2_mbox_loc_perm
I0601 17:38:02.135664  7900 net.cpp:408] conv7_2_mbox_loc_flat -> conv7_2_mbox_loc_flat
I0601 17:38:02.135687  7900 net.cpp:150] Setting up conv7_2_mbox_loc_flat
I0601 17:38:02.135691  7900 net.cpp:157] Top shape: 4 600 (2400)
I0601 17:38:02.135694  7900 net.cpp:165] Memory required for data: 992020832
I0601 17:38:02.135695  7900 layer_factory.hpp:77] Creating layer conv7_2_mbox_conf
I0601 17:38:02.135704  7900 net.cpp:100] Creating Layer conv7_2_mbox_conf
I0601 17:38:02.135707  7900 net.cpp:434] conv7_2_mbox_conf <- conv7_2_conv7_2_relu_0_split_2
I0601 17:38:02.135712  7900 net.cpp:408] conv7_2_mbox_conf -> conv7_2_mbox_conf
I0601 17:38:02.143326  7900 net.cpp:150] Setting up conv7_2_mbox_conf
I0601 17:38:02.143344  7900 net.cpp:157] Top shape: 4 24 5 5 (2400)
I0601 17:38:02.143347  7900 net.cpp:165] Memory required for data: 992030432
I0601 17:38:02.143353  7900 layer_factory.hpp:77] Creating layer conv7_2_mbox_conf_perm
I0601 17:38:02.143362  7900 net.cpp:100] Creating Layer conv7_2_mbox_conf_perm
I0601 17:38:02.143366  7900 net.cpp:434] conv7_2_mbox_conf_perm <- conv7_2_mbox_conf
I0601 17:38:02.143371  7900 net.cpp:408] conv7_2_mbox_conf_perm -> conv7_2_mbox_conf_perm
I0601 17:38:02.143482  7900 net.cpp:150] Setting up conv7_2_mbox_conf_perm
I0601 17:38:02.143487  7900 net.cpp:157] Top shape: 4 5 5 24 (2400)
I0601 17:38:02.143491  7900 net.cpp:165] Memory required for data: 992040032
I0601 17:38:02.143492  7900 layer_factory.hpp:77] Creating layer conv7_2_mbox_conf_flat
I0601 17:38:02.143498  7900 net.cpp:100] Creating Layer conv7_2_mbox_conf_flat
I0601 17:38:02.143501  7900 net.cpp:434] conv7_2_mbox_conf_flat <- conv7_2_mbox_conf_perm
I0601 17:38:02.143509  7900 net.cpp:408] conv7_2_mbox_conf_flat -> conv7_2_mbox_conf_flat
I0601 17:38:02.143537  7900 net.cpp:150] Setting up conv7_2_mbox_conf_flat
I0601 17:38:02.143542  7900 net.cpp:157] Top shape: 4 600 (2400)
I0601 17:38:02.143543  7900 net.cpp:165] Memory required for data: 992049632
I0601 17:38:02.143546  7900 layer_factory.hpp:77] Creating layer conv7_2_mbox_priorbox
I0601 17:38:02.143550  7900 net.cpp:100] Creating Layer conv7_2_mbox_priorbox
I0601 17:38:02.143553  7900 net.cpp:434] conv7_2_mbox_priorbox <- conv7_2_conv7_2_relu_0_split_3
I0601 17:38:02.143558  7900 net.cpp:434] conv7_2_mbox_priorbox <- data_data_0_split_4
I0601 17:38:02.143563  7900 net.cpp:408] conv7_2_mbox_priorbox -> conv7_2_mbox_priorbox
I0601 17:38:02.143589  7900 net.cpp:150] Setting up conv7_2_mbox_priorbox
I0601 17:38:02.143594  7900 net.cpp:157] Top shape: 1 2 600 (1200)
I0601 17:38:02.143596  7900 net.cpp:165] Memory required for data: 992054432
I0601 17:38:02.143599  7900 layer_factory.hpp:77] Creating layer conv8_2_mbox_loc
I0601 17:38:02.143610  7900 net.cpp:100] Creating Layer conv8_2_mbox_loc
I0601 17:38:02.143612  7900 net.cpp:434] conv8_2_mbox_loc <- conv8_2_conv8_2_relu_0_split_1
I0601 17:38:02.143617  7900 net.cpp:408] conv8_2_mbox_loc -> conv8_2_mbox_loc
I0601 17:38:02.150843  7900 net.cpp:150] Setting up conv8_2_mbox_loc
I0601 17:38:02.150858  7900 net.cpp:157] Top shape: 4 16 3 3 (576)
I0601 17:38:02.150861  7900 net.cpp:165] Memory required for data: 992056736
I0601 17:38:02.150876  7900 layer_factory.hpp:77] Creating layer conv8_2_mbox_loc_perm
I0601 17:38:02.150883  7900 net.cpp:100] Creating Layer conv8_2_mbox_loc_perm
I0601 17:38:02.150888  7900 net.cpp:434] conv8_2_mbox_loc_perm <- conv8_2_mbox_loc
I0601 17:38:02.150894  7900 net.cpp:408] conv8_2_mbox_loc_perm -> conv8_2_mbox_loc_perm
I0601 17:38:02.151031  7900 net.cpp:150] Setting up conv8_2_mbox_loc_perm
I0601 17:38:02.151038  7900 net.cpp:157] Top shape: 4 3 3 16 (576)
I0601 17:38:02.151041  7900 net.cpp:165] Memory required for data: 992059040
I0601 17:38:02.151043  7900 layer_factory.hpp:77] Creating layer conv8_2_mbox_loc_flat
I0601 17:38:02.151060  7900 net.cpp:100] Creating Layer conv8_2_mbox_loc_flat
I0601 17:38:02.151064  7900 net.cpp:434] conv8_2_mbox_loc_flat <- conv8_2_mbox_loc_perm
I0601 17:38:02.151069  7900 net.cpp:408] conv8_2_mbox_loc_flat -> conv8_2_mbox_loc_flat
I0601 17:38:02.151094  7900 net.cpp:150] Setting up conv8_2_mbox_loc_flat
I0601 17:38:02.151099  7900 net.cpp:157] Top shape: 4 144 (576)
I0601 17:38:02.151103  7900 net.cpp:165] Memory required for data: 992061344
I0601 17:38:02.151104  7900 layer_factory.hpp:77] Creating layer conv8_2_mbox_conf
I0601 17:38:02.151113  7900 net.cpp:100] Creating Layer conv8_2_mbox_conf
I0601 17:38:02.151116  7900 net.cpp:434] conv8_2_mbox_conf <- conv8_2_conv8_2_relu_0_split_2
I0601 17:38:02.151121  7900 net.cpp:408] conv8_2_mbox_conf -> conv8_2_mbox_conf
I0601 17:38:02.156658  7900 net.cpp:150] Setting up conv8_2_mbox_conf
I0601 17:38:02.156672  7900 net.cpp:157] Top shape: 4 16 3 3 (576)
I0601 17:38:02.156673  7900 net.cpp:165] Memory required for data: 992063648
I0601 17:38:02.156680  7900 layer_factory.hpp:77] Creating layer conv8_2_mbox_conf_perm
I0601 17:38:02.156685  7900 net.cpp:100] Creating Layer conv8_2_mbox_conf_perm
I0601 17:38:02.156689  7900 net.cpp:434] conv8_2_mbox_conf_perm <- conv8_2_mbox_conf
I0601 17:38:02.156694  7900 net.cpp:408] conv8_2_mbox_conf_perm -> conv8_2_mbox_conf_perm
I0601 17:38:02.156810  7900 net.cpp:150] Setting up conv8_2_mbox_conf_perm
I0601 17:38:02.156817  7900 net.cpp:157] Top shape: 4 3 3 16 (576)
I0601 17:38:02.156821  7900 net.cpp:165] Memory required for data: 992065952
I0601 17:38:02.156822  7900 layer_factory.hpp:77] Creating layer conv8_2_mbox_conf_flat
I0601 17:38:02.156827  7900 net.cpp:100] Creating Layer conv8_2_mbox_conf_flat
I0601 17:38:02.156831  7900 net.cpp:434] conv8_2_mbox_conf_flat <- conv8_2_mbox_conf_perm
I0601 17:38:02.156836  7900 net.cpp:408] conv8_2_mbox_conf_flat -> conv8_2_mbox_conf_flat
I0601 17:38:02.156857  7900 net.cpp:150] Setting up conv8_2_mbox_conf_flat
I0601 17:38:02.156867  7900 net.cpp:157] Top shape: 4 144 (576)
I0601 17:38:02.156868  7900 net.cpp:165] Memory required for data: 992068256
I0601 17:38:02.156870  7900 layer_factory.hpp:77] Creating layer conv8_2_mbox_priorbox
I0601 17:38:02.156875  7900 net.cpp:100] Creating Layer conv8_2_mbox_priorbox
I0601 17:38:02.156879  7900 net.cpp:434] conv8_2_mbox_priorbox <- conv8_2_conv8_2_relu_0_split_3
I0601 17:38:02.156883  7900 net.cpp:434] conv8_2_mbox_priorbox <- data_data_0_split_5
I0601 17:38:02.156888  7900 net.cpp:408] conv8_2_mbox_priorbox -> conv8_2_mbox_priorbox
I0601 17:38:02.156914  7900 net.cpp:150] Setting up conv8_2_mbox_priorbox
I0601 17:38:02.156919  7900 net.cpp:157] Top shape: 1 2 144 (288)
I0601 17:38:02.156922  7900 net.cpp:165] Memory required for data: 992069408
I0601 17:38:02.156924  7900 layer_factory.hpp:77] Creating layer conv9_2_mbox_loc
I0601 17:38:02.156934  7900 net.cpp:100] Creating Layer conv9_2_mbox_loc
I0601 17:38:02.156936  7900 net.cpp:434] conv9_2_mbox_loc <- conv9_2_conv9_2_relu_0_split_0
I0601 17:38:02.156942  7900 net.cpp:408] conv9_2_mbox_loc -> conv9_2_mbox_loc
I0601 17:38:02.163736  7900 net.cpp:150] Setting up conv9_2_mbox_loc
I0601 17:38:02.163749  7900 net.cpp:157] Top shape: 4 16 1 1 (64)
I0601 17:38:02.163751  7900 net.cpp:165] Memory required for data: 992069664
I0601 17:38:02.163758  7900 layer_factory.hpp:77] Creating layer conv9_2_mbox_loc_perm
I0601 17:38:02.163764  7900 net.cpp:100] Creating Layer conv9_2_mbox_loc_perm
I0601 17:38:02.163767  7900 net.cpp:434] conv9_2_mbox_loc_perm <- conv9_2_mbox_loc
I0601 17:38:02.163772  7900 net.cpp:408] conv9_2_mbox_loc_perm -> conv9_2_mbox_loc_perm
I0601 17:38:02.163877  7900 net.cpp:150] Setting up conv9_2_mbox_loc_perm
I0601 17:38:02.163882  7900 net.cpp:157] Top shape: 4 1 1 16 (64)
I0601 17:38:02.163883  7900 net.cpp:165] Memory required for data: 992069920
I0601 17:38:02.163887  7900 layer_factory.hpp:77] Creating layer conv9_2_mbox_loc_flat
I0601 17:38:02.163892  7900 net.cpp:100] Creating Layer conv9_2_mbox_loc_flat
I0601 17:38:02.163897  7900 net.cpp:434] conv9_2_mbox_loc_flat <- conv9_2_mbox_loc_perm
I0601 17:38:02.163915  7900 net.cpp:408] conv9_2_mbox_loc_flat -> conv9_2_mbox_loc_flat
I0601 17:38:02.163939  7900 net.cpp:150] Setting up conv9_2_mbox_loc_flat
I0601 17:38:02.163946  7900 net.cpp:157] Top shape: 4 16 (64)
I0601 17:38:02.163949  7900 net.cpp:165] Memory required for data: 992070176
I0601 17:38:02.163950  7900 layer_factory.hpp:77] Creating layer conv9_2_mbox_conf
I0601 17:38:02.163957  7900 net.cpp:100] Creating Layer conv9_2_mbox_conf
I0601 17:38:02.163961  7900 net.cpp:434] conv9_2_mbox_conf <- conv9_2_conv9_2_relu_0_split_1
I0601 17:38:02.163966  7900 net.cpp:408] conv9_2_mbox_conf -> conv9_2_mbox_conf
I0601 17:38:02.170668  7900 net.cpp:150] Setting up conv9_2_mbox_conf
I0601 17:38:02.170687  7900 net.cpp:157] Top shape: 4 16 1 1 (64)
I0601 17:38:02.170692  7900 net.cpp:165] Memory required for data: 992070432
I0601 17:38:02.170701  7900 layer_factory.hpp:77] Creating layer conv9_2_mbox_conf_perm
I0601 17:38:02.170712  7900 net.cpp:100] Creating Layer conv9_2_mbox_conf_perm
I0601 17:38:02.170717  7900 net.cpp:434] conv9_2_mbox_conf_perm <- conv9_2_mbox_conf
I0601 17:38:02.170722  7900 net.cpp:408] conv9_2_mbox_conf_perm -> conv9_2_mbox_conf_perm
I0601 17:38:02.170883  7900 net.cpp:150] Setting up conv9_2_mbox_conf_perm
I0601 17:38:02.170893  7900 net.cpp:157] Top shape: 4 1 1 16 (64)
I0601 17:38:02.170897  7900 net.cpp:165] Memory required for data: 992070688
I0601 17:38:02.170902  7900 layer_factory.hpp:77] Creating layer conv9_2_mbox_conf_flat
I0601 17:38:02.170907  7900 net.cpp:100] Creating Layer conv9_2_mbox_conf_flat
I0601 17:38:02.170912  7900 net.cpp:434] conv9_2_mbox_conf_flat <- conv9_2_mbox_conf_perm
I0601 17:38:02.170919  7900 net.cpp:408] conv9_2_mbox_conf_flat -> conv9_2_mbox_conf_flat
I0601 17:38:02.170955  7900 net.cpp:150] Setting up conv9_2_mbox_conf_flat
I0601 17:38:02.170963  7900 net.cpp:157] Top shape: 4 16 (64)
I0601 17:38:02.170964  7900 net.cpp:165] Memory required for data: 992070944
I0601 17:38:02.170969  7900 layer_factory.hpp:77] Creating layer conv9_2_mbox_priorbox
I0601 17:38:02.170974  7900 net.cpp:100] Creating Layer conv9_2_mbox_priorbox
I0601 17:38:02.170979  7900 net.cpp:434] conv9_2_mbox_priorbox <- conv9_2_conv9_2_relu_0_split_2
I0601 17:38:02.170984  7900 net.cpp:434] conv9_2_mbox_priorbox <- data_data_0_split_6
I0601 17:38:02.170991  7900 net.cpp:408] conv9_2_mbox_priorbox -> conv9_2_mbox_priorbox
I0601 17:38:02.171031  7900 net.cpp:150] Setting up conv9_2_mbox_priorbox
I0601 17:38:02.171038  7900 net.cpp:157] Top shape: 1 2 16 (32)
I0601 17:38:02.171041  7900 net.cpp:165] Memory required for data: 992071072
I0601 17:38:02.171046  7900 layer_factory.hpp:77] Creating layer mbox_loc
I0601 17:38:02.171052  7900 net.cpp:100] Creating Layer mbox_loc
I0601 17:38:02.171057  7900 net.cpp:434] mbox_loc <- conv4_3_norm_mbox_loc_flat
I0601 17:38:02.171062  7900 net.cpp:434] mbox_loc <- fc7_mbox_loc_flat
I0601 17:38:02.171068  7900 net.cpp:434] mbox_loc <- conv6_2_mbox_loc_flat
I0601 17:38:02.171073  7900 net.cpp:434] mbox_loc <- conv7_2_mbox_loc_flat
I0601 17:38:02.171078  7900 net.cpp:434] mbox_loc <- conv8_2_mbox_loc_flat
I0601 17:38:02.171082  7900 net.cpp:434] mbox_loc <- conv9_2_mbox_loc_flat
I0601 17:38:02.171089  7900 net.cpp:408] mbox_loc -> mbox_loc
I0601 17:38:02.171128  7900 net.cpp:150] Setting up mbox_loc
I0601 17:38:02.171135  7900 net.cpp:157] Top shape: 4 34928 (139712)
I0601 17:38:02.171139  7900 net.cpp:165] Memory required for data: 992629920
I0601 17:38:02.171141  7900 layer_factory.hpp:77] Creating layer mbox_conf
I0601 17:38:02.171149  7900 net.cpp:100] Creating Layer mbox_conf
I0601 17:38:02.171152  7900 net.cpp:434] mbox_conf <- conv4_3_norm_mbox_conf_flat
I0601 17:38:02.171157  7900 net.cpp:434] mbox_conf <- fc7_mbox_conf_flat
I0601 17:38:02.171162  7900 net.cpp:434] mbox_conf <- conv6_2_mbox_conf_flat
I0601 17:38:02.171167  7900 net.cpp:434] mbox_conf <- conv7_2_mbox_conf_flat
I0601 17:38:02.171171  7900 net.cpp:434] mbox_conf <- conv8_2_mbox_conf_flat
I0601 17:38:02.171175  7900 net.cpp:434] mbox_conf <- conv9_2_mbox_conf_flat
I0601 17:38:02.171195  7900 net.cpp:408] mbox_conf -> mbox_conf
I0601 17:38:02.171227  7900 net.cpp:150] Setting up mbox_conf
I0601 17:38:02.171233  7900 net.cpp:157] Top shape: 4 34928 (139712)
I0601 17:38:02.171236  7900 net.cpp:165] Memory required for data: 993188768
I0601 17:38:02.171239  7900 layer_factory.hpp:77] Creating layer mbox_priorbox
I0601 17:38:02.171245  7900 net.cpp:100] Creating Layer mbox_priorbox
I0601 17:38:02.171249  7900 net.cpp:434] mbox_priorbox <- conv4_3_norm_mbox_priorbox
I0601 17:38:02.171254  7900 net.cpp:434] mbox_priorbox <- fc7_mbox_priorbox
I0601 17:38:02.171258  7900 net.cpp:434] mbox_priorbox <- conv6_2_mbox_priorbox
I0601 17:38:02.171262  7900 net.cpp:434] mbox_priorbox <- conv7_2_mbox_priorbox
I0601 17:38:02.171267  7900 net.cpp:434] mbox_priorbox <- conv8_2_mbox_priorbox
I0601 17:38:02.171269  7900 net.cpp:434] mbox_priorbox <- conv9_2_mbox_priorbox
I0601 17:38:02.171274  7900 net.cpp:408] mbox_priorbox -> mbox_priorbox
I0601 17:38:02.171305  7900 net.cpp:150] Setting up mbox_priorbox
I0601 17:38:02.171313  7900 net.cpp:157] Top shape: 1 2 34928 (69856)
I0601 17:38:02.171315  7900 net.cpp:165] Memory required for data: 993468192
I0601 17:38:02.171319  7900 layer_factory.hpp:77] Creating layer mbox_conf_reshape
I0601 17:38:02.171327  7900 net.cpp:100] Creating Layer mbox_conf_reshape
I0601 17:38:02.171331  7900 net.cpp:434] mbox_conf_reshape <- mbox_conf
I0601 17:38:02.171337  7900 net.cpp:408] mbox_conf_reshape -> mbox_conf_reshape
I0601 17:38:02.171375  7900 net.cpp:150] Setting up mbox_conf_reshape
I0601 17:38:02.171383  7900 net.cpp:157] Top shape: 4 8732 4 (139712)
I0601 17:38:02.171386  7900 net.cpp:165] Memory required for data: 994027040
I0601 17:38:02.171389  7900 layer_factory.hpp:77] Creating layer mbox_conf_softmax
I0601 17:38:02.171396  7900 net.cpp:100] Creating Layer mbox_conf_softmax
I0601 17:38:02.171401  7900 net.cpp:434] mbox_conf_softmax <- mbox_conf_reshape
I0601 17:38:02.171407  7900 net.cpp:408] mbox_conf_softmax -> mbox_conf_softmax
I0601 17:38:02.172037  7900 net.cpp:150] Setting up mbox_conf_softmax
I0601 17:38:02.172049  7900 net.cpp:157] Top shape: 4 8732 4 (139712)
I0601 17:38:02.172055  7900 net.cpp:165] Memory required for data: 994585888
I0601 17:38:02.172058  7900 layer_factory.hpp:77] Creating layer mbox_conf_flatten
I0601 17:38:02.172065  7900 net.cpp:100] Creating Layer mbox_conf_flatten
I0601 17:38:02.172068  7900 net.cpp:434] mbox_conf_flatten <- mbox_conf_softmax
I0601 17:38:02.172076  7900 net.cpp:408] mbox_conf_flatten -> mbox_conf_flatten
I0601 17:38:02.172107  7900 net.cpp:150] Setting up mbox_conf_flatten
I0601 17:38:02.172114  7900 net.cpp:157] Top shape: 4 34928 (139712)
I0601 17:38:02.172118  7900 net.cpp:165] Memory required for data: 995144736
I0601 17:38:02.172122  7900 layer_factory.hpp:77] Creating layer detection_out
I0601 17:38:02.172135  7900 net.cpp:100] Creating Layer detection_out
I0601 17:38:02.172142  7900 net.cpp:434] detection_out <- mbox_loc
I0601 17:38:02.172145  7900 net.cpp:434] detection_out <- mbox_conf_flatten
I0601 17:38:02.172150  7900 net.cpp:434] detection_out <- mbox_priorbox
…
