…
        min_scale: 0.3
        max_scale: 1
        min_aspect_ratio: 0.5
        max_aspect_ratio: 2
      }
      sample_constraint {
        min_jaccard_overlap: 0.9
      }
      max_sample: 1
      max_trials: 50
    }
    batch_sampler {
      sampler {
        min_scale: 0.3
        max_scale: 1
        min_aspect_ratio: 0.5
        max_aspect_ratio: 2
      }
      sample_constraint {
        max_jaccard_overlap: 1
      }
      max_sample: 1
      max_trials: 50
    }
    label_map_file: "data/tbs_300x300_HSIL_10x/labelmap_voc.prototxt"
  }
}
layer {
  name: "conv1_1"
  type: "Convolution"
  bottom: "data"
  top: "conv1_1"
  param {
    lr_mult: 1
    decay_mult: 1
  }
  param {
    lr_mult: 2
    decay_mult: 0
  }
  convolution_param {
    num_output: 64
    pad: 1
    kernel_size: 3
    weight_filler {
      type: "xavier"
    }
    bias_filler {
      type: "constant"
      value: 0
    }
  }
}
layer {
  name: "relu1_1"
  type: "ReLU"
  bottom: "conv1_1"
  top: "conv1_1"
}
layer {
  name: "conv1_2"
  type: "Convolution"
  bottom: "conv1_1"
  top: "conv1_2"
  param {
    lr_mult: 1
    decay_mult: 1
  }
  param {
    lr_mult: 2
    decay_mult: 0
  }
  convolution_param {
    num_output: 64
    pad: 1
    kernel_size: 3
    weight_filler {
      type: "xavier"
    }
    bias_filler {
      type: "constant"
      value: 0
    }
  }
}
layer {
  name: "relu1_2"
  type: "ReLU"
  bottom: "conv1_2"
  top: "conv1_2"
}
layer {
  name: "pool1"
  type: "Pooling"
  bottom: "conv1_2"
  top: "pool1"
  pooling_param {
    pool: MAX
    kernel_size: 2
    stride: 2
  }
}
layer {
  name: "conv2_1"
  type: "Convolution"
  bottom: "pool1"
  top: "conv2_1"
  param {
    lr_mult: 1
    decay_mult: 1
  }
  param {
    lr_mult: 2
    decay_mult: 0
  }
  convolution_param {
    num_output: 128
    pad: 1
    kernel_size: 3
    weight_filler {
      type: "xavier"
    }
    bias_filler {
      type: "constant"
      value: 0
    }
  }
}
layer {
  name: "relu2_1"
  type: "ReLU"
  bottom: "conv2_1"
  top: "conv2_1"
}
layer {
  name: "conv2_2"
  type: "Convolution"
  bottom: "conv2_1"
  top: "conv2_2"
  param {
    lr_mult: 1
    decay_mult: 1
  }
  param {
    lr_mult: 2
    decay_mult: 0
  }
  convolution_param {
    num_output: 128
    pad: 1
    kernel_size: 3
    weight_filler {
      type: "xavier"
    }
    bias_filler {
      type: "constant"
      value: 0
    }
  }
}
layer {
  name: "relu2_2"
  type: "ReLU"
  bottom: "conv2_2"
  top: "conv2_2"
}
layer {
  name: "pool2"
  type: "Pooling"
  bottom: "conv2_2"
  top: "pool2"
  pooling_param {
    pool: MAX
    kernel_size: 2
    stride: 2
  }
}
layer {
  name: "conv3_1"
  type: "Convolution"
  bottom: "pool2"
  top: "conv3_1"
  param {
    lr_mult: 1
    decay_mult: 1
  }
  param {
    lr_mult: 2
    decay_mult: 0
  }
  convolution_param {
    num_output: 256
    pad: 1
    kernel_size: 3
    weight_filler {
      type: "xavier"
    }
    bias_filler {
      type: "constant"
      value: 0
    }
  }
}
layer {
  name: "relu3_1"
  type: "ReLU"
  bottom: "conv3_1"
  top: "conv3_1"
}
layer {
  name: "conv3_2"
  type: "Convolution"
  bottom: "conv3_1"
  top: "conv3_2"
  param {
    lr_mult: 1
    decay_mult: 1
  }
  param {
    lr_mult: 2
    decay_mult: 0
  }
  convolution_param {
    num_output: 256
    pad: 1
    kernel_size: 3
    weight_filler {
      type: "xavier"
    }
    bias_filler {
      type: "constant"
      value: 0
    }
  }
}
layer {
  name: "relu3_2"
  type: "ReLU"
  bottom: "conv3_2"
  top: "conv3_2"
}
layer {
  name: "conv3_3"
  type: "Convolution"
  bottom: "conv3_2"
  top: "conv3_3"
  param {
    lr_mult: 1
    decay_mult: 1
  }
  param {
    lr_mult: 2
    decay_mult: 0
  }
  convolution_param {
    num_output: 256
    pad: 1
    kernel_size: 3
    weight_filler {
      type: "xavier"
    }
    bias_filler {
      type: "constant"
      value: 0
    }
  }
}
layer {
  name: "relu3_3"
  type: "ReLU"
  bottom: "conv3_3"
  top: "conv3_3"
}
layer {
  name: "pool3"
  type: "Pooling"
  bottom: "conv3_3"
  top: "pool3"
  pooling_param {
    pool: MAX
    kernel_size: 2
    stride: 2
  }
}
layer {
  name: "conv4_1"
  type: "Convolution"
  bottom: "pool3"
  top: "conv4_1"
  param {
    lr_mult: 1
    decay_mult: 1
  }
  param {
    lr_mult: 2
    decay_mult: 0
  }
  convolution_param {
    num_output: 512
    pad: 1
    kernel_size: 3
    weight_filler {
      type: "xavier"
    }
    bias_filler {
      type: "constant"
      value: 0
    }
  }
}
layer {
  name: "relu4_1"
  type: "ReLU"
  bottom: "conv4_1"
  top: "conv4_1"
}
layer {
  name: "conv4_2"
  type: "Convolution"
  bottom: "conv4_1"
  top: "conv4_2"
  param {
    lr_mult: 1
    decay_mult: 1
  }
  param {
    lr_mult: 2
    decay_mult: 0
  }
  convolution_param {
    num_output: 512
    pad: 1
    kernel_size: 3
    weight_filler {
      type: "xavier"
    }
    bias_filler {
      type: "constant"
      value: 0
    }
  }
}
layer {
  name: "relu4_2"
  type: "ReLU"
  bottom: "conv4_2"
  top: "conv4_2"
}
layer {
  name: "conv4_3"
  type: "Convolution"
  bottom: "conv4_2"
  top: "conv4_3"
  param {
    lr_mult: 1
    decay_mult: 1
  }
  param {
    lr_mult: 2
    decay_mult: 0
  }
  convolution_param {
    num_output: 512
    pad: 1
    kernel_size: 3
    weight_filler {
      type: "xavier"
    }
    bias_filler {
      type: "constant"
      value: 0
    }
  }
}
layer {
  name: "relu4_3"
  type: "ReLU"
  bottom: "conv4_3"
  top: "conv4_3"
}
layer {
  name: "pool4"
  type: "Pooling"
  bottom: "conv4_3"
  top: "pool4"
  pooling_param {
    pool: MAX
    kernel_size: 2
    stride: 2
  }
}
layer {
  name: "conv5_1"
  type: "Convolution"
  bottom: "pool4"
  top: "conv5_1"
  param {
    lr_mult: 1
    decay_mult: 1
  }
  param {
    lr_mult: 2
    decay_mult: 0
  }
  convolution_param {
    num_output: 512
    pad: 1
    kernel_size: 3
    weight_filler {
      type: "xavier"
    }
    bias_filler {
      type: "constant"
      value: 0
    }
    dilation: 1
  }
}
layer {
  name: "relu5_1"
  type: "ReLU"
  bottom: "conv5_1"
  top: "conv5_1"
}
layer {
  name: "conv5_2"
  type: "Convolution"
  bottom: "conv5_1"
  top: "conv5_2"
  param {
    lr_mult: 1
    decay_mult: 1
  }
  param {
    lr_mult: 2
    decay_mult: 0
  }
  convolution_param {
    num_output: 512
    pad: 1
    kernel_size: 3
    weight_filler {
      type: "xavier"
    }
    bias_filler {
      type: "constant"
      value: 0
    }
    dilation: 1
  }
}
layer {
  name: "relu5_2"
  type: "ReLU"
  bottom: "conv5_2"
  top: "conv5_2"
}
layer {
  name: "conv5_3"
  type: "Convolution"
  bottom: "conv5_2"
  top: "conv5_3"
  param {
    lr_mult: 1
    decay_mult: 1
  }
  param {
    lr_mult: 2
    decay_mult: 0
  }
  convolution_param {
    num_output: 512
    pad: 1
    kernel_size: 3
    weight_filler {
      type: "xavier"
    }
    bias_filler {
      type: "constant"
      value: 0
    }
    dilation: 1
  }
}
layer {
  name: "relu5_3"
  type: "ReLU"
  bottom: "conv5_3"
  top: "conv5_3"
}
layer {
  name: "pool5"
  type: "Pooling"
  bottom: "conv5_3"
  top: "pool5"
  pooling_param {
    pool: MAX
    kernel_size: 3
    stride: 1
    pad: 1
  }
}
layer {
  name: "fc6"
  type: "Convolution"
  bottom: "pool5"
  top: "fc6"
  param {
    lr_mult: 1
    decay_mult: 1
  }
  param {
    lr_mult: 2
    decay_mult: 0
  }
  convolution_param {
    num_output: 1024
    pad: 6
    kernel_size: 3
    weight_filler {
      type: "xavier"
    }
    bias_filler {
      type: "constant"
      value: 0
    }
    dilation: 6
  }
}
layer {
  name: "relu6"
  type: "ReLU"
  bottom: "fc6"
  top: "fc6"
}
layer {
  name: "fc7"
  type: "Convolution"
  bottom: "fc6"
  top: "fc7"
  param {
    lr_mult: 1
    decay_mult: 1
  }
  param {
    lr_mult: 2
    decay_mult: 0
  }
  convolution_param {
    num_output: 1024
    kernel_size: 1
    weight_filler {
      type: "xavier"
    }
    bias_filler {
      type: "constant"
      value: 0
    }
  }
}
layer {
  name: "relu7"
  type: "ReLU"
  bottom: "fc7"
  top: "fc7"
}
layer {
  name: "conv6_1"
  type: "Convolution"
  bottom: "fc7"
  top: "conv6_1"
  param {
    lr_mult: 1
    decay_mult: 1
  }
  param {
    lr_mult: 2
    decay_mult: 0
  }
  convolution_param {
    num_output: 256
    pad: 0
    kernel_size: 1
    stride: 1
    weight_filler {
      type: "xavier"
    }
    bias_filler {
      type: "constant"
      value: 0
    }
  }
}
layer {
  name: "conv6_1_relu"
  type: "ReLU"
  bottom: "conv6_1"
  top: "conv6_1"
}
layer {
  name: "conv6_2"
  type: "Convolution"
  bottom: "conv6_1"
  top: "conv6_2"
  param {
    lr_mult: 1
    decay_mult: 1
  }
  param {
    lr_mult: 2
    decay_mult: 0
  }
  convolution_param {
    num_output: 512
    pad: 1
    kernel_size: 3
    stride: 2
    weight_filler {
      type: "xavier"
    }
    bias_filler {
      type: "constant"
      value: 0
    }
  }
}
layer {
  name: "conv6_2_relu"
  type: "ReLU"
  bottom: "conv6_2"
  top: "conv6_2"
}
layer {
  name: "conv7_1"
  type: "Convolution"
  bottom: "conv6_2"
  top: "conv7_1"
  param {
    lr_mult: 1
    decay_mult: 1
  }
  param {
    lr_mult: 2
    decay_mult: 0
  }
  convolution_param {
    num_output: 128
    pad: 0
    kernel_size: 1
    stride: 1
    weight_filler {
      type: "xavier"
    }
    bias_filler {
      type: "constant"
      value: 0
    }
  }
}
layer {
  name: "conv7_1_relu"
  type: "ReLU"
  bottom: "conv7_1"
  top: "conv7_1"
}
layer {
  name: "conv7_2"
  type: "Convolution"
  bottom: "conv7_1"
  top: "conv7_2"
  param {
    lr_mult: 1
    decay_mult: 1
  }
  param {
    lr_mult: 2
    decay_mult: 0
  }
  convolution_param {
    num_output: 256
    pad: 1
    kernel_size: 3
    stride: 2
    weight_filler {
      type: "xavier"
    }
    bias_filler {
      type: "constant"
      value: 0
    }
  }
}
layer {
  name: "conv7_2_relu"
  type: "ReLU"
  bottom: "conv7_2"
  top: "conv7_2"
}
layer {
  name: "conv8_1"
  type: "Convolution"
  bottom: "conv7_2"
  top: "conv8_1"
  param {
    lr_mult: 1
    decay_mult: 1
  }
  param {
    lr_mult: 2
    decay_mult: 0
  }
  convolution_param {
    num_output: 128
    pad: 0
    kernel_size: 1
    stride: 1
    weight_filler {
      type: "xavier"
    }
    bias_filler {
      type: "constant"
      value: 0
    }
  }
}
layer {
  name: "conv8_1_relu"
  type: "ReLU"
  bottom: "conv8_1"
  top: "conv8_1"
}
layer {
  name: "conv8_2"
  type: "Convolution"
  bottom: "conv8_1"
  top: "conv8_2"
  param {
    lr_mult: 1
    decay_mult: 1
  }
  param {
    lr_mult: 2
    decay_mult: 0
  }
  convolution_param {
    num_output: 256
    pad: 0
    kernel_size: 3
    stride: 1
    weight_filler {
      type: "xavier"
    }
    bias_filler {
      type: "constant"
      value: 0
    }
  }
}
layer {
  name: "conv8_2_relu"
  type: "ReLU"
  bottom: "conv8_2"
  top: "conv8_2"
}
layer {
  name: "conv9_1"
  type: "Convolution"
  bottom: "conv8_2"
  top: "conv9_1"
  param {
    lr_mult: 1
    decay_mult: 1
  }
  param {
    lr_mult: 2
    decay_mult: 0
  }
  convolution_param {
    num_output: 128
    pad: 0
    kernel_size: 1
    stride: 1
    weight_filler {
      type: "xavier"
    }
    bias_filler {
      type: "constant"
      value: 0
    }
  }
}
layer {
  name: "conv9_1_relu"
  type: "ReLU"
  bottom: "conv9_1"
  top: "conv9_1"
}
layer {
  name: "conv9_2"
  type: "Convolution"
  bottom: "conv9_1"
  top: "conv9_2"
  param {
    lr_mult: 1
    decay_mult: 1
  }
  param {
    lr_mult: 2
    decay_mult: 0
  }
  convolution_param {
    num_output: 256
    pad: 0
    kernel_size: 3
    stride: 1
    weight_filler {
      type: "xavier"
    }
    bias_filler {
      type: "constant"
      value: 0
    }
  }
}
layer {
  name: "conv9_2_relu"
  type: "ReLU"
  bottom: "conv9_2"
  top: "conv9_2"
}
layer {
  name: "conv4_3_norm"
  type: "Normalize"
  bottom: "conv4_3"
  top: "conv4_3_norm"
  norm_param {
    across_spatial: false
    scale_filler {
      type: "constant"
      value: 20
    }
    channel_shared: false
  }
}
layer {
  name: "conv4_3_norm_mbox_loc"
  type: "Convolution"
  bottom: "conv4_3_norm"
  top: "conv4_3_norm_mbox_loc"
  param {
    lr_mult: 1
    decay_mult: 1
  }
  param {
    lr_mult: 2
    decay_mult: 0
  }
  convolution_param {
    num_output: 16
    pad: 1
    kernel_size: 3
    stride: 1
    weight_filler {
      type: "xavier"
    }
    bias_filler {
      type: "constant"
      value: 0
    }
  }
}
layer {
  name: "conv4_3_norm_mbox_loc_perm"
  type: "Permute"
  bottom: "conv4_3_norm_mbox_loc"
  top: "conv4_3_norm_mbox_loc_perm"
  permute_param {
    order: 0
    order: 2
    order: 3
    order: 1
  }
}
layer {
  name: "conv4_3_norm_mbox_loc_flat"
  type: "Flatten"
  bottom: "conv4_3_norm_mbox_loc_perm"
  top: "conv4_3_norm_mbox_loc_flat"
  flatten_param {
    axis: 1
  }
}
layer {
  name: "conv4_3_norm_mbox_conf"
  type: "Convolution"
  bottom: "conv4_3_norm"
  top: "conv4_3_norm_mbox_conf"
  param {
    lr_mult: 1
    decay_mult: 1
  }
  param {
    lr_mult: 2
    decay_mult: 0
  }
  convolution_param {
    num_output: 16
    pad: 1
    kernel_size: 3
    stride: 1
    weight_filler {
      type: "xavier"
    }
    bias_filler {
      type: "constant"
      value: 0
    }
  }
}
layer {
  name: "conv4_3_norm_mbox_conf_perm"
  type: "Permute"
  bottom: "conv4_3_norm_mbox_conf"
  top: "conv4_3_norm_mbox_conf_perm"
  permute_param {
    order: 0
    order: 2
    order: 3
    order: 1
  }
}
layer {
  name: "conv4_3_norm_mbox_conf_flat"
  type: "Flatten"
  bottom: "conv4_3_norm_mbox_conf_perm"
  top: "conv4_3_norm_mbox_conf_flat"
  flatten_param {
    axis: 1
  }
}
layer {
  name: "conv4_3_norm_mbox_priorbox"
  type: "PriorBox"
  bottom: "conv4_3_norm"
  bottom: "data"
  top: "conv4_3_norm_mbox_priorbox"
  prior_box_param {
    min_size: 30
    max_size: 60
    aspect_ratio: 2
    flip: true
    clip: false
    variance: 0.1
    variance: 0.1
    variance: 0.2
    variance: 0.2
    step: 8
    offset: 0.5
  }
}
layer {
  name: "fc7_mbox_loc"
  type: "Convolution"
  bottom: "fc7"
  top: "fc7_mbox_loc"
  param {
    lr_mult: 1
    decay_mult: 1
  }
  param {
    lr_mult: 2
    decay_mult: 0
  }
  convolution_param {
    num_output: 24
    pad: 1
    kernel_size: 3
    stride: 1
    weight_filler {
      type: "xavier"
    }
    bias_filler {
      type: "constant"
      value: 0
    }
  }
}
layer {
  name: "fc7_mbox_loc_perm"
  type: "Permute"
  bottom: "fc7_mbox_loc"
  top: "fc7_mbox_loc_perm"
  permute_param {
    order: 0
    order: 2
    order: 3
    order: 1
  }
}
layer {
  name: "fc7_mbox_loc_flat"
  type: "Flatten"
  bottom: "fc7_mbox_loc_perm"
  top: "fc7_mbox_loc_flat"
  flatten_param {
    axis: 1
  }
}
layer {
  name: "fc7_mbox_conf"
  type: "Convolution"
  bottom: "fc7"
  top: "fc7_mbox_conf"
  param {
    lr_mult: 1
    decay_mult: 1
  }
  param {
    lr_mult: 2
    decay_mult: 0
  }
  convolution_param {
    num_output: 24
    pad: 1
    kernel_size: 3
    stride: 1
    weight_filler {
      type: "xavier"
    }
    bias_filler {
      type: "constant"
      value: 0
    }
  }
}
layer {
  name: "fc7_mbox_conf_perm"
  type: "Permute"
  bottom: "fc7_mbox_conf"
  top: "fc7_mbox_conf_perm"
  permute_param {
    order: 0
    order: 2
    order: 3
    order: 1
  }
}
layer {
  name: "fc7_mbox_conf_flat"
  type: "Flatten"
  bottom: "fc7_mbox_conf_perm"
  top: "fc7_mbox_conf_flat"
  flatten_param {
    axis: 1
  }
}
layer {
  name: "fc7_mbox_priorbox"
  type: "PriorBox"
  bottom: "fc7"
  bottom: "data"
  top: "fc7_mbox_priorbox"
  prior_box_param {
    min_size: 60
    max_size: 111
    aspect_ratio: 2
    aspect_ratio: 3
    flip: true
    clip: false
    variance: 0.1
    variance: 0.1
    variance: 0.2
    variance: 0.2
    step: 16
    offset: 0.5
  }
}
layer {
  name: "conv6_2_mbox_loc"
  type: "Convolution"
  bottom: "conv6_2"
  top: "conv6_2_mbox_loc"
  param {
    lr_mult: 1
    decay_mult: 1
  }
  param {
    lr_mult: 2
    decay_mult: 0
  }
  convolution_param {
    num_output: 24
    pad: 1
    kernel_size: 3
    stride: 1
    weight_filler {
      type: "xavier"
    }
    bias_filler {
      type: "constant"
      value: 0
    }
  }
}
layer {
  name: "conv6_2_mbox_loc_perm"
  type: "Permute"
  bottom: "conv6_2_mbox_loc"
  top: "conv6_2_mbox_loc_perm"
  permute_param {
    order: 0
    order: 2
    order: 3
    order: 1
  }
}
layer {
  name: "conv6_2_mbox_loc_flat"
  type: "Flatten"
  bottom: "conv6_2_mbox_loc_perm"
  top: "conv6_2_mbox_loc_flat"
  flatten_param {
    axis: 1
  }
}
layer {
  name: "conv6_2_mbox_conf"
  type: "Convolution"
  bottom: "conv6_2"
  top: "conv6_2_mbox_conf"
  param {
    lr_mult: 1
    decay_mult: 1
  }
  param {
    lr_mult: 2
    decay_mult: 0
  }
  convolution_param {
    num_output: 24
    pad: 1
    kernel_size: 3
    stride: 1
    weight_filler {
      type: "xavier"
    }
    bias_filler {
      type: "constant"
      value: 0
    }
  }
}
layer {
  name: "conv6_2_mbox_conf_perm"
  type: "Permute"
  bottom: "conv6_2_mbox_conf"
  top: "conv6_2_mbox_conf_perm"
  permute_param {
    order: 0
    order: 2
    order: 3
    order: 1
  }
}
layer {
  name: "conv6_2_mbox_conf_flat"
  type: "Flatten"
  bottom: "conv6_2_mbox_conf_perm"
  top: "conv6_2_mbox_conf_flat"
  flatten_param {
    axis: 1
  }
}
layer {
  name: "conv6_2_mbox_priorbox"
  type: "PriorBox"
  bottom: "conv6_2"
  bottom: "data"
  top: "conv6_2_mbox_priorbox"
  prior_box_param {
    min_size: 111
    max_size: 162
    aspect_ratio: 2
    aspect_ratio: 3
    flip: true
    clip: false
    variance: 0.1
    variance: 0.1
    variance: 0.2
    variance: 0.2
    step: 32
    offset: 0.5
  }
}
layer {
  name: "conv7_2_mbox_loc"
  type: "Convolution"
  bottom: "conv7_2"
  top: "conv7_2_mbox_loc"
  param {
    lr_mult: 1
    decay_mult: 1
  }
  param {
    lr_mult: 2
    decay_mult: 0
  }
  convolution_param {
    num_output: 24
    pad: 1
    kernel_size: 3
    stride: 1
    weight_filler {
      type: "xavier"
    }
    bias_filler {
      type: "constant"
      value: 0
    }
  }
}
layer {
  name: "conv7_2_mbox_loc_perm"
  type: "Permute"
  bottom: "conv7_2_mbox_loc"
  top: "conv7_2_mbox_loc_perm"
  permute_param {
    order: 0
    order: 2
    order: 3
    order: 1
  }
}
layer {
  name: "conv7_2_mbox_loc_flat"
  type: "Flatten"
  bottom: "conv7_2_mbox_loc_perm"
  top: "conv7_2_mbox_loc_flat"
  flatten_param {
    axis: 1
  }
}
layer {
  name: "conv7_2_mbox_conf"
  type: "Convolution"
  bottom: "conv7_2"
  top: "conv7_2_mbox_conf"
  param {
    lr_mult: 1
    decay_mult: 1
  }
  param {
    lr_mult: 2
    decay_mult: 0
  }
  convolution_param {
    num_output: 24
    pad: 1
    kernel_size: 3
    stride: 1
    weight_filler {
      type: "xavier"
    }
    bias_filler {
      type: "constant"
      value: 0
    }
  }
}
layer {
  name: "conv7_2_mbox_conf_perm"
  type: "Permute"
  bottom: "conv7_2_mbox_conf"
  top: "conv7_2_mbox_conf_perm"
  permute_param {
    order: 0
    order: 2
    order: 3
    order: 1
  }
}
layer {
  name: "conv7_2_mbox_conf_flat"
  type: "Flatten"
  bottom: "conv7_2_mbox_conf_perm"
  top: "conv7_2_mbox_conf_flat"
  flatten_param {
    axis: 1
  }
}
layer {
  name: "conv7_2_mbox_priorbox"
  type: "PriorBox"
  bottom: "conv7_2"
  bottom: "data"
  top: "conv7_2_mbox_priorbox"
  prior_box_param {
    min_size: 162
    max_size: 213
    aspect_ratio: 2
    aspect_ratio: 3
    flip: true
    clip: false
    variance: 0.1
    variance: 0.1
    variance: 0.2
    variance: 0.2
    step: 64
    offset: 0.5
  }
}
layer {
  name: "conv8_2_mbox_loc"
  type: "Convolution"
  bottom: "conv8_2"
  top: "conv8_2_mbox_loc"
  param {
    lr_mult: 1
    decay_mult: 1
  }
  param {
    lr_mult: 2
    decay_mult: 0
  }
  convolution_param {
    num_output: 16
    pad: 1
    kernel_size: 3
    stride: 1
    weight_filler {
      type: "xavier"
    }
    bias_filler {
      type: "constant"
      value: 0
    }
  }
}
layer {
  name: "conv8_2_mbox_loc_perm"
  type: "Permute"
  bottom: "conv8_2_mbox_loc"
  top: "conv8_2_mbox_loc_perm"
  permute_param {
    order: 0
    order: 2
    order: 3
    order: 1
  }
}
layer {
  name: "conv8_2_mbox_loc_flat"
  type: "Flatten"
  bottom: "conv8_2_mbox_loc_perm"
  top: "conv8_2_mbox_loc_flat"
  flatten_param {
    axis: 1
  }
}
layer {
  name: "conv8_2_mbox_conf"
  type: "Convolution"
  bottom: "conv8_2"
  top: "conv8_2_mbox_conf"
  param {
    lr_mult: 1
    decay_mult: 1
  }
  param {
    lr_mult: 2
    decay_mult: 0
  }
  convolution_param {
    num_output: 16
    pad: 1
    kernel_size: 3
    stride: 1
    weight_filler {
      type: "xavier"
    }
    bias_filler {
      type: "constant"
      value: 0
    }
  }
}
layer {
  name: "conv8_2_mbox_conf_perm"
  type: "Permute"
  bottom: "conv8_2_mbox_conf"
  top: "conv8_2_mbox_conf_perm"
  permute_param {
    order: 0
    order: 2
    order: 3
    order: 1
  }
}
layer {
  name: "conv8_2_mbox_conf_flat"
  type: "Flatten"
  bottom: "conv8_2_mbox_conf_perm"
  top: "conv8_2_mbox_conf_flat"
  flatten_param {
    axis: 1
  }
}
layer {
  name: "conv8_2_mbox_priorbox"
  type: "PriorBox"
  bottom: "conv8_2"
  bottom: "data"
  top: "conv8_2_mbox_priorbox"
  prior_box_param {
    min_size: 213
    max_size: 264
    aspect_ratio: 2
    flip: true
    clip: false
    variance: 0.1
    variance: 0.1
    variance: 0.2
    variance: 0.2
    step: 100
    offset: 0.5
  }
}
layer {
  name: "conv9_2_mbox_loc"
  type: "Convolution"
  bottom: "conv9_2"
  top: "conv9_2_mbox_loc"
  param {
    lr_mult: 1
    decay_mult: 1
  }
  param {
    lr_mult: 2
    decay_mult: 0
  }
  convolution_param {
    num_output: 16
    pad: 1
    kernel_size: 3
    stride: 1
    weight_filler {
      type: "xavier"
    }
    bias_filler {
      type: "constant"
      value: 0
    }
  }
}
layer {
  name: "conv9_2_mbox_loc_perm"
  type: "Permute"
  bottom: "conv9_2_mbox_loc"
  top: "conv9_2_mbox_loc_perm"
  permute_param {
    order: 0
    order: 2
    order: 3
    order: 1
  }
}
layer {
  name: "conv9_2_mbox_loc_flat"
  type: "Flatten"
  bottom: "conv9_2_mbox_loc_perm"
  top: "conv9_2_mbox_loc_flat"
  flatten_param {
    axis: 1
  }
}
layer {
  name: "conv9_2_mbox_conf"
  type: "Convolution"
  bottom: "conv9_2"
  top: "conv9_2_mbox_conf"
  param {
    lr_mult: 1
    decay_mult: 1
  }
  param {
    lr_mult: 2
    decay_mult: 0
  }
  convolution_param {
    num_output: 16
    pad: 1
    kernel_size: 3
    stride: 1
    weight_filler {
      type: "xavier"
    }
    bias_filler {
      type: "constant"
      value: 0
    }
  }
}
layer {
  name: "conv9_2_mbox_conf_perm"
  type: "Permute"
  bottom: "conv9_2_mbox_conf"
  top: "conv9_2_mbox_conf_perm"
  permute_param {
    order: 0
    order: 2
    order: 3
    order: 1
  }
}
layer {
  name: "conv9_2_mbox_conf_flat"
  type: "Flatten"
  bottom: "conv9_2_mbox_conf_perm"
  top: "conv9_2_mbox_conf_flat"
  flatten_param {
    axis: 1
  }
}
layer {
  name: "conv9_2_mbox_priorbox"
  type: "PriorBox"
  bottom: "conv9_2"
  bottom: "data"
  top: "conv9_2_mbox_priorbox"
  prior_box_param {
    min_size: 264
    max_size: 315
    aspect_ratio: 2
    flip: true
    clip: false
    variance: 0.1
    variance: 0.1
    variance: 0.2
    variance: 0.2
    step: 300
    offset: 0.5
  }
}
layer {
  name: "mbox_loc"
  type: "Concat"
  bottom: "conv4_3_norm_mbox_loc_flat"
  bottom: "fc7_mbox_loc_flat"
  bottom: "conv6_2_mbox_loc_flat"
  bottom: "conv7_2_mbox_loc_flat"
  bottom: "conv8_2_mbox_loc_flat"
  bottom: "conv9_2_mbox_loc_flat"
  top: "mbox_loc"
  concat_param {
    axis: 1
  }
}
layer {
  name: "mbox_conf"
  type: "Concat"
  bottom: "conv4_3_norm_mbox_conf_flat"
  bottom: "fc7_mbox_conf_flat"
  bottom: "conv6_2_mbox_conf_flat"
  bottom: "conv7_2_mbox_conf_flat"
  bottom: "conv8_2_mbox_conf_flat"
  bottom: "conv9_2_mbox_conf_flat"
  top: "mbox_conf"
  concat_param {
    axis: 1
  }
}
layer {
  name: "mbox_priorbox"
  type: "Concat"
  bottom: "conv4_3_norm_mbox_priorbox"
  bottom: "fc7_mbox_priorbox"
  bottom: "conv6_2_mbox_priorbox"
  bottom: "conv7_2_mbox_priorbox"
  bottom: "conv8_2_mbox_priorbox"
  bottom: "conv9_2_mbox_priorbox"
  top: "mbox_priorbox"
  concat_param {
    axis: 2
  }
}
layer {
  name: "mbox_loss"
  type: "MultiBoxLoss"
  bottom: "mbox_loc"
  bottom: "mbox_conf"
  bottom: "mbox_priorbox"
  bottom: "label"
  top: "mbox_loss"
  include {
    phase: TRAIN
  }
  propagate_down: true
  propagate_down: true
  propagate_down: false
  propagate_down: false
  loss_param {
    normalization: VALID
  }
  multibox_loss_param {
    loc_loss_type: SMOOTH_L1
    conf_loss_type: SOFTMAX
    loc_weight: 1
    num_classes: 4
    share_location: true
    match_type: PER_PREDICTION
    overlap_threshold: 0.5
    use_prior_for_matching: true
    background_label_id: 0
    use_difficult_gt: true
    neg_pos_ratio: 3
    neg_overlap: 0.5
    code_type: CENTER_SIZE
    ignore_cross_boundary_bbox: false
    mining_type: MAX_NEGATIVE
  }
}
I0602 13:04:28.260643 29350 layer_factory.hpp:77] Creating layer data
I0602 13:04:28.260784 29350 net.cpp:100] Creating Layer data
I0602 13:04:28.260797 29350 net.cpp:408] data -> data
I0602 13:04:28.260826 29350 net.cpp:408] data -> label
I0602 13:04:28.261278 29367 db_lmdb.cpp:35] Opened lmdb examples/tbs_300x300_HSIL_10x/tbs_300x300_HSIL_10x_trainval_lmdb
I0602 13:04:28.270032 29350 annotated_data_layer.cpp:62] output data size: 32,3,300,300
I0602 13:04:28.329097 29350 net.cpp:150] Setting up data
I0602 13:04:28.329116 29350 net.cpp:157] Top shape: 32 3 300 300 (8640000)
I0602 13:04:28.329120 29350 net.cpp:157] Top shape: 1 1 1 8 (8)
I0602 13:04:28.329136 29350 net.cpp:165] Memory required for data: 34560032
I0602 13:04:28.329144 29350 layer_factory.hpp:77] Creating layer data_data_0_split
I0602 13:04:28.329169 29350 net.cpp:100] Creating Layer data_data_0_split
I0602 13:04:28.329190 29350 net.cpp:434] data_data_0_split <- data
I0602 13:04:28.329215 29350 net.cpp:408] data_data_0_split -> data_data_0_split_0
I0602 13:04:28.329222 29350 net.cpp:408] data_data_0_split -> data_data_0_split_1
I0602 13:04:28.329227 29350 net.cpp:408] data_data_0_split -> data_data_0_split_2
I0602 13:04:28.329231 29350 net.cpp:408] data_data_0_split -> data_data_0_split_3
I0602 13:04:28.329236 29350 net.cpp:408] data_data_0_split -> data_data_0_split_4
I0602 13:04:28.329241 29350 net.cpp:408] data_data_0_split -> data_data_0_split_5
I0602 13:04:28.329265 29350 net.cpp:408] data_data_0_split -> data_data_0_split_6
I0602 13:04:28.329350 29350 net.cpp:150] Setting up data_data_0_split
I0602 13:04:28.329375 29350 net.cpp:157] Top shape: 32 3 300 300 (8640000)
I0602 13:04:28.329378 29350 net.cpp:157] Top shape: 32 3 300 300 (8640000)
I0602 13:04:28.329394 29350 net.cpp:157] Top shape: 32 3 300 300 (8640000)
I0602 13:04:28.329397 29350 net.cpp:157] Top shape: 32 3 300 300 (8640000)
I0602 13:04:28.329401 29350 net.cpp:157] Top shape: 32 3 300 300 (8640000)
I0602 13:04:28.329402 29350 net.cpp:157] Top shape: 32 3 300 300 (8640000)
I0602 13:04:28.329406 29350 net.cpp:157] Top shape: 32 3 300 300 (8640000)
I0602 13:04:28.329407 29350 net.cpp:165] Memory required for data: 276480032
I0602 13:04:28.329409 29350 layer_factory.hpp:77] Creating layer conv1_1
I0602 13:04:28.329422 29350 net.cpp:100] Creating Layer conv1_1
I0602 13:04:28.329426 29350 net.cpp:434] conv1_1 <- data_data_0_split_0
I0602 13:04:28.329430 29350 net.cpp:408] conv1_1 -> conv1_1
I0602 13:04:28.501391 29350 net.cpp:150] Setting up conv1_1
I0602 13:04:28.501410 29350 net.cpp:157] Top shape: 32 64 300 300 (184320000)
I0602 13:04:28.501413 29350 net.cpp:165] Memory required for data: 1013760032
I0602 13:04:28.501430 29350 layer_factory.hpp:77] Creating layer relu1_1
I0602 13:04:28.501438 29350 net.cpp:100] Creating Layer relu1_1
I0602 13:04:28.501461 29350 net.cpp:434] relu1_1 <- conv1_1
I0602 13:04:28.501480 29350 net.cpp:395] relu1_1 -> conv1_1 (in-place)
I0602 13:04:28.501653 29350 net.cpp:150] Setting up relu1_1
I0602 13:04:28.501660 29350 net.cpp:157] Top shape: 32 64 300 300 (184320000)
I0602 13:04:28.501663 29350 net.cpp:165] Memory required for data: 1751040032
I0602 13:04:28.501667 29350 layer_factory.hpp:77] Creating layer conv1_2
I0602 13:04:28.501678 29350 net.cpp:100] Creating Layer conv1_2
I0602 13:04:28.501698 29350 net.cpp:434] conv1_2 <- conv1_1
I0602 13:04:28.501703 29350 net.cpp:408] conv1_2 -> conv1_2
I0602 13:04:28.503909 29350 net.cpp:150] Setting up conv1_2
I0602 13:04:28.503922 29350 net.cpp:157] Top shape: 32 64 300 300 (184320000)
I0602 13:04:28.503926 29350 net.cpp:165] Memory required for data: 2488320032
I0602 13:04:28.503937 29350 layer_factory.hpp:77] Creating layer relu1_2
I0602 13:04:28.503957 29350 net.cpp:100] Creating Layer relu1_2
I0602 13:04:28.503962 29350 net.cpp:434] relu1_2 <- conv1_2
I0602 13:04:28.503968 29350 net.cpp:395] relu1_2 -> conv1_2 (in-place)
I0602 13:04:28.504571 29350 net.cpp:150] Setting up relu1_2
I0602 13:04:28.504580 29350 net.cpp:157] Top shape: 32 64 300 300 (184320000)
I0602 13:04:28.504583 29350 net.cpp:165] Memory required for data: 3225600032
I0602 13:04:28.504586 29350 layer_factory.hpp:77] Creating layer pool1
I0602 13:04:28.504609 29350 net.cpp:100] Creating Layer pool1
I0602 13:04:28.504614 29350 net.cpp:434] pool1 <- conv1_2
I0602 13:04:28.504619 29350 net.cpp:408] pool1 -> pool1
I0602 13:04:28.504678 29350 net.cpp:150] Setting up pool1
I0602 13:04:28.504685 29350 net.cpp:157] Top shape: 32 64 150 150 (46080000)
I0602 13:04:28.504688 29350 net.cpp:165] Memory required for data: 3409920032
I0602 13:04:28.504690 29350 layer_factory.hpp:77] Creating layer conv2_1
I0602 13:04:28.504710 29350 net.cpp:100] Creating Layer conv2_1
I0602 13:04:28.504727 29350 net.cpp:434] conv2_1 <- pool1
I0602 13:04:28.504750 29350 net.cpp:408] conv2_1 -> conv2_1
I0602 13:04:28.505985 29350 net.cpp:150] Setting up conv2_1
I0602 13:04:28.505993 29350 net.cpp:157] Top shape: 32 128 150 150 (92160000)
I0602 13:04:28.505996 29350 net.cpp:165] Memory required for data: 3778560032
I0602 13:04:28.506006 29350 layer_factory.hpp:77] Creating layer relu2_1
I0602 13:04:28.506016 29350 net.cpp:100] Creating Layer relu2_1
I0602 13:04:28.506021 29350 net.cpp:434] relu2_1 <- conv2_1
I0602 13:04:28.506028 29350 net.cpp:395] relu2_1 -> conv2_1 (in-place)
I0602 13:04:28.506552 29350 net.cpp:150] Setting up relu2_1
I0602 13:04:28.506561 29350 net.cpp:157] Top shape: 32 128 150 150 (92160000)
I0602 13:04:28.506564 29350 net.cpp:165] Memory required for data: 4147200032
I0602 13:04:28.506568 29350 layer_factory.hpp:77] Creating layer conv2_2
I0602 13:04:28.506578 29350 net.cpp:100] Creating Layer conv2_2
I0602 13:04:28.506583 29350 net.cpp:434] conv2_2 <- conv2_1
I0602 13:04:28.506590 29350 net.cpp:408] conv2_2 -> conv2_2
I0602 13:04:28.508622 29350 net.cpp:150] Setting up conv2_2
I0602 13:04:28.508632 29350 net.cpp:157] Top shape: 32 128 150 150 (92160000)
I0602 13:04:28.508635 29350 net.cpp:165] Memory required for data: 4515840032
I0602 13:04:28.508641 29350 layer_factory.hpp:77] Creating layer relu2_2
I0602 13:04:28.508647 29350 net.cpp:100] Creating Layer relu2_2
I0602 13:04:28.508653 29350 net.cpp:434] relu2_2 <- conv2_2
I0602 13:04:28.508659 29350 net.cpp:395] relu2_2 -> conv2_2 (in-place)
I0602 13:04:28.508790 29350 net.cpp:150] Setting up relu2_2
I0602 13:04:28.508796 29350 net.cpp:157] Top shape: 32 128 150 150 (92160000)
I0602 13:04:28.508800 29350 net.cpp:165] Memory required for data: 4884480032
I0602 13:04:28.508802 29350 layer_factory.hpp:77] Creating layer pool2
I0602 13:04:28.508810 29350 net.cpp:100] Creating Layer pool2
I0602 13:04:28.508813 29350 net.cpp:434] pool2 <- conv2_2
I0602 13:04:28.508819 29350 net.cpp:408] pool2 -> pool2
I0602 13:04:28.508857 29350 net.cpp:150] Setting up pool2
I0602 13:04:28.508863 29350 net.cpp:157] Top shape: 32 128 75 75 (23040000)
I0602 13:04:28.508865 29350 net.cpp:165] Memory required for data: 4976640032
I0602 13:04:28.508868 29350 layer_factory.hpp:77] Creating layer conv3_1
I0602 13:04:28.508877 29350 net.cpp:100] Creating Layer conv3_1
I0602 13:04:28.508882 29350 net.cpp:434] conv3_1 <- pool2
I0602 13:04:28.508888 29350 net.cpp:408] conv3_1 -> conv3_1
I0602 13:04:28.512943 29350 net.cpp:150] Setting up conv3_1
I0602 13:04:28.512962 29350 net.cpp:157] Top shape: 32 256 75 75 (46080000)
I0602 13:04:28.512966 29350 net.cpp:165] Memory required for data: 5160960032
I0602 13:04:28.512980 29350 layer_factory.hpp:77] Creating layer relu3_1
I0602 13:04:28.512996 29350 net.cpp:100] Creating Layer relu3_1
I0602 13:04:28.513001 29350 net.cpp:434] relu3_1 <- conv3_1
I0602 13:04:28.513008 29350 net.cpp:395] relu3_1 -> conv3_1 (in-place)
I0602 13:04:28.513197 29350 net.cpp:150] Setting up relu3_1
I0602 13:04:28.513211 29350 net.cpp:157] Top shape: 32 256 75 75 (46080000)
I0602 13:04:28.513214 29350 net.cpp:165] Memory required for data: 5345280032
I0602 13:04:28.513217 29350 layer_factory.hpp:77] Creating layer conv3_2
I0602 13:04:28.513229 29350 net.cpp:100] Creating Layer conv3_2
I0602 13:04:28.513250 29350 net.cpp:434] conv3_2 <- conv3_1
I0602 13:04:28.513272 29350 net.cpp:408] conv3_2 -> conv3_2
I0602 13:04:28.518157 29350 net.cpp:150] Setting up conv3_2
I0602 13:04:28.518177 29350 net.cpp:157] Top shape: 32 256 75 75 (46080000)
I0602 13:04:28.518179 29350 net.cpp:165] Memory required for data: 5529600032
I0602 13:04:28.518187 29350 layer_factory.hpp:77] Creating layer relu3_2
I0602 13:04:28.518195 29350 net.cpp:100] Creating Layer relu3_2
I0602 13:04:28.518201 29350 net.cpp:434] relu3_2 <- conv3_2
I0602 13:04:28.518210 29350 net.cpp:395] relu3_2 -> conv3_2 (in-place)
I0602 13:04:28.518363 29350 net.cpp:150] Setting up relu3_2
I0602 13:04:28.518370 29350 net.cpp:157] Top shape: 32 256 75 75 (46080000)
I0602 13:04:28.518373 29350 net.cpp:165] Memory required for data: 5713920032
I0602 13:04:28.518389 29350 layer_factory.hpp:77] Creating layer conv3_3
I0602 13:04:28.518419 29350 net.cpp:100] Creating Layer conv3_3
I0602 13:04:28.518425 29350 net.cpp:434] conv3_3 <- conv3_2
I0602 13:04:28.518434 29350 net.cpp:408] conv3_3 -> conv3_3
I0602 13:04:28.522872 29350 net.cpp:150] Setting up conv3_3
I0602 13:04:28.522889 29350 net.cpp:157] Top shape: 32 256 75 75 (46080000)
I0602 13:04:28.522893 29350 net.cpp:165] Memory required for data: 5898240032
I0602 13:04:28.522902 29350 layer_factory.hpp:77] Creating layer relu3_3
I0602 13:04:28.522910 29350 net.cpp:100] Creating Layer relu3_3
I0602 13:04:28.522915 29350 net.cpp:434] relu3_3 <- conv3_3
I0602 13:04:28.522922 29350 net.cpp:395] relu3_3 -> conv3_3 (in-place)
I0602 13:04:28.523063 29350 net.cpp:150] Setting up relu3_3
I0602 13:04:28.523072 29350 net.cpp:157] Top shape: 32 256 75 75 (46080000)
I0602 13:04:28.523075 29350 net.cpp:165] Memory required for data: 6082560032
I0602 13:04:28.523079 29350 layer_factory.hpp:77] Creating layer pool3
I0602 13:04:28.523087 29350 net.cpp:100] Creating Layer pool3
I0602 13:04:28.523094 29350 net.cpp:434] pool3 <- conv3_3
I0602 13:04:28.523102 29350 net.cpp:408] pool3 -> pool3
I0602 13:04:28.523142 29350 net.cpp:150] Setting up pool3
I0602 13:04:28.523149 29350 net.cpp:157] Top shape: 32 256 38 38 (11829248)
I0602 13:04:28.523151 29350 net.cpp:165] Memory required for data: 6129877024
I0602 13:04:28.523156 29350 layer_factory.hpp:77] Creating layer conv4_1
I0602 13:04:28.523167 29350 net.cpp:100] Creating Layer conv4_1
I0602 13:04:28.523171 29350 net.cpp:434] conv4_1 <- pool3
I0602 13:04:28.523178 29350 net.cpp:408] conv4_1 -> conv4_1
I0602 13:04:28.531112 29350 net.cpp:150] Setting up conv4_1
I0602 13:04:28.531131 29350 net.cpp:157] Top shape: 32 512 38 38 (23658496)
I0602 13:04:28.531134 29350 net.cpp:165] Memory required for data: 6224511008
I0602 13:04:28.531143 29350 layer_factory.hpp:77] Creating layer relu4_1
I0602 13:04:28.531170 29350 net.cpp:100] Creating Layer relu4_1
I0602 13:04:28.531177 29350 net.cpp:434] relu4_1 <- conv4_1
I0602 13:04:28.531196 29350 net.cpp:395] relu4_1 -> conv4_1 (in-place)
I0602 13:04:28.532032 29350 net.cpp:150] Setting up relu4_1
I0602 13:04:28.532047 29350 net.cpp:157] Top shape: 32 512 38 38 (23658496)
I0602 13:04:28.532052 29350 net.cpp:165] Memory required for data: 6319144992
I0602 13:04:28.532057 29350 layer_factory.hpp:77] Creating layer conv4_2
I0602 13:04:28.532070 29350 net.cpp:100] Creating Layer conv4_2
I0602 13:04:28.532074 29350 net.cpp:434] conv4_2 <- conv4_1
I0602 13:04:28.532081 29350 net.cpp:408] conv4_2 -> conv4_2
I0602 13:04:28.544239 29350 net.cpp:150] Setting up conv4_2
I0602 13:04:28.544257 29350 net.cpp:157] Top shape: 32 512 38 38 (23658496)
I0602 13:04:28.544260 29350 net.cpp:165] Memory required for data: 6413778976
I0602 13:04:28.544286 29350 layer_factory.hpp:77] Creating layer relu4_2
I0602 13:04:28.544293 29350 net.cpp:100] Creating Layer relu4_2
I0602 13:04:28.544296 29350 net.cpp:434] relu4_2 <- conv4_2
I0602 13:04:28.544302 29350 net.cpp:395] relu4_2 -> conv4_2 (in-place)
I0602 13:04:28.545343 29350 net.cpp:150] Setting up relu4_2
I0602 13:04:28.545367 29350 net.cpp:157] Top shape: 32 512 38 38 (23658496)
I0602 13:04:28.545369 29350 net.cpp:165] Memory required for data: 6508412960
I0602 13:04:28.545372 29350 layer_factory.hpp:77] Creating layer conv4_3
I0602 13:04:28.545380 29350 net.cpp:100] Creating Layer conv4_3
I0602 13:04:28.545383 29350 net.cpp:434] conv4_3 <- conv4_2
I0602 13:04:28.545387 29350 net.cpp:408] conv4_3 -> conv4_3
I0602 13:04:28.558068 29350 net.cpp:150] Setting up conv4_3
I0602 13:04:28.558082 29350 net.cpp:157] Top shape: 32 512 38 38 (23658496)
I0602 13:04:28.558085 29350 net.cpp:165] Memory required for data: 6603046944
I0602 13:04:28.558106 29350 layer_factory.hpp:77] Creating layer relu4_3
I0602 13:04:28.558112 29350 net.cpp:100] Creating Layer relu4_3
I0602 13:04:28.558130 29350 net.cpp:434] relu4_3 <- conv4_3
I0602 13:04:28.558133 29350 net.cpp:395] relu4_3 -> conv4_3 (in-place)
I0602 13:04:28.558306 29350 net.cpp:150] Setting up relu4_3
I0602 13:04:28.558312 29350 net.cpp:157] Top shape: 32 512 38 38 (23658496)
I0602 13:04:28.558315 29350 net.cpp:165] Memory required for data: 6697680928
I0602 13:04:28.558317 29350 layer_factory.hpp:77] Creating layer conv4_3_relu4_3_0_split
I0602 13:04:28.558321 29350 net.cpp:100] Creating Layer conv4_3_relu4_3_0_split
I0602 13:04:28.558323 29350 net.cpp:434] conv4_3_relu4_3_0_split <- conv4_3
I0602 13:04:28.558343 29350 net.cpp:408] conv4_3_relu4_3_0_split -> conv4_3_relu4_3_0_split_0
I0602 13:04:28.558348 29350 net.cpp:408] conv4_3_relu4_3_0_split -> conv4_3_relu4_3_0_split_1
I0602 13:04:28.558393 29350 net.cpp:150] Setting up conv4_3_relu4_3_0_split
I0602 13:04:28.558398 29350 net.cpp:157] Top shape: 32 512 38 38 (23658496)
I0602 13:04:28.558400 29350 net.cpp:157] Top shape: 32 512 38 38 (23658496)
I0602 13:04:28.558403 29350 net.cpp:165] Memory required for data: 6886948896
I0602 13:04:28.558404 29350 layer_factory.hpp:77] Creating layer pool4
I0602 13:04:28.558408 29350 net.cpp:100] Creating Layer pool4
I0602 13:04:28.558411 29350 net.cpp:434] pool4 <- conv4_3_relu4_3_0_split_0
I0602 13:04:28.558415 29350 net.cpp:408] pool4 -> pool4
I0602 13:04:28.558441 29350 net.cpp:150] Setting up pool4
I0602 13:04:28.558449 29350 net.cpp:157] Top shape: 32 512 19 19 (5914624)
I0602 13:04:28.558451 29350 net.cpp:165] Memory required for data: 6910607392
I0602 13:04:28.558454 29350 layer_factory.hpp:77] Creating layer conv5_1
I0602 13:04:28.558460 29350 net.cpp:100] Creating Layer conv5_1
I0602 13:04:28.558464 29350 net.cpp:434] conv5_1 <- pool4
I0602 13:04:28.558468 29350 net.cpp:408] conv5_1 -> conv5_1
I0602 13:04:28.571568 29350 net.cpp:150] Setting up conv5_1
I0602 13:04:28.571585 29350 net.cpp:157] Top shape: 32 512 19 19 (5914624)
I0602 13:04:28.571588 29350 net.cpp:165] Memory required for data: 6934265888
I0602 13:04:28.571610 29350 layer_factory.hpp:77] Creating layer relu5_1
I0602 13:04:28.571616 29350 net.cpp:100] Creating Layer relu5_1
I0602 13:04:28.571620 29350 net.cpp:434] relu5_1 <- conv5_1
I0602 13:04:28.571624 29350 net.cpp:395] relu5_1 -> conv5_1 (in-place)
I0602 13:04:28.571789 29350 net.cpp:150] Setting up relu5_1
I0602 13:04:28.571795 29350 net.cpp:157] Top shape: 32 512 19 19 (5914624)
I0602 13:04:28.571799 29350 net.cpp:165] Memory required for data: 6957924384
I0602 13:04:28.571800 29350 layer_factory.hpp:77] Creating layer conv5_2
I0602 13:04:28.571808 29350 net.cpp:100] Creating Layer conv5_2
I0602 13:04:28.571812 29350 net.cpp:434] conv5_2 <- conv5_1
I0602 13:04:28.571817 29350 net.cpp:408] conv5_2 -> conv5_2
I0602 13:04:28.584394 29350 net.cpp:150] Setting up conv5_2
I0602 13:04:28.584411 29350 net.cpp:157] Top shape: 32 512 19 19 (5914624)
I0602 13:04:28.584414 29350 net.cpp:165] Memory required for data: 6981582880
I0602 13:04:28.584434 29350 layer_factory.hpp:77] Creating layer relu5_2
I0602 13:04:28.584455 29350 net.cpp:100] Creating Layer relu5_2
I0602 13:04:28.584458 29350 net.cpp:434] relu5_2 <- conv5_2
I0602 13:04:28.584463 29350 net.cpp:395] relu5_2 -> conv5_2 (in-place)
I0602 13:04:28.584599 29350 net.cpp:150] Setting up relu5_2
I0602 13:04:28.584605 29350 net.cpp:157] Top shape: 32 512 19 19 (5914624)
I0602 13:04:28.584623 29350 net.cpp:165] Memory required for data: 7005241376
I0602 13:04:28.584625 29350 layer_factory.hpp:77] Creating layer conv5_3
I0602 13:04:28.584633 29350 net.cpp:100] Creating Layer conv5_3
I0602 13:04:28.584650 29350 net.cpp:434] conv5_3 <- conv5_2
I0602 13:04:28.584656 29350 net.cpp:408] conv5_3 -> conv5_3
I0602 13:04:28.598351 29350 net.cpp:150] Setting up conv5_3
I0602 13:04:28.598367 29350 net.cpp:157] Top shape: 32 512 19 19 (5914624)
I0602 13:04:28.598371 29350 net.cpp:165] Memory required for data: 7028899872
I0602 13:04:28.598392 29350 layer_factory.hpp:77] Creating layer relu5_3
I0602 13:04:28.598414 29350 net.cpp:100] Creating Layer relu5_3
I0602 13:04:28.598418 29350 net.cpp:434] relu5_3 <- conv5_3
I0602 13:04:28.598423 29350 net.cpp:395] relu5_3 -> conv5_3 (in-place)
I0602 13:04:28.598562 29350 net.cpp:150] Setting up relu5_3
I0602 13:04:28.598577 29350 net.cpp:157] Top shape: 32 512 19 19 (5914624)
I0602 13:04:28.598579 29350 net.cpp:165] Memory required for data: 7052558368
I0602 13:04:28.598582 29350 layer_factory.hpp:77] Creating layer pool5
I0602 13:04:28.598587 29350 net.cpp:100] Creating Layer pool5
I0602 13:04:28.598588 29350 net.cpp:434] pool5 <- conv5_3
I0602 13:04:28.598608 29350 net.cpp:408] pool5 -> pool5
I0602 13:04:28.598642 29350 net.cpp:150] Setting up pool5
I0602 13:04:28.598650 29350 net.cpp:157] Top shape: 32 512 19 19 (5914624)
I0602 13:04:28.598666 29350 net.cpp:165] Memory required for data: 7076216864
I0602 13:04:28.598668 29350 layer_factory.hpp:77] Creating layer fc6
I0602 13:04:28.598676 29350 net.cpp:100] Creating Layer fc6
I0602 13:04:28.598680 29350 net.cpp:434] fc6 <- pool5
I0602 13:04:28.598685 29350 net.cpp:408] fc6 -> fc6
I0602 13:04:28.620932 29350 net.cpp:150] Setting up fc6
I0602 13:04:28.620946 29350 net.cpp:157] Top shape: 32 1024 19 19 (11829248)
I0602 13:04:28.620949 29350 net.cpp:165] Memory required for data: 7123533856
I0602 13:04:28.620955 29350 layer_factory.hpp:77] Creating layer relu6
I0602 13:04:28.620975 29350 net.cpp:100] Creating Layer relu6
I0602 13:04:28.620978 29350 net.cpp:434] relu6 <- fc6
I0602 13:04:28.620985 29350 net.cpp:395] relu6 -> fc6 (in-place)
I0602 13:04:28.622010 29350 net.cpp:150] Setting up relu6
I0602 13:04:28.622020 29350 net.cpp:157] Top shape: 32 1024 19 19 (11829248)
I0602 13:04:28.622022 29350 net.cpp:165] Memory required for data: 7170850848
I0602 13:04:28.622025 29350 layer_factory.hpp:77] Creating layer fc7
I0602 13:04:28.622048 29350 net.cpp:100] Creating Layer fc7
I0602 13:04:28.622051 29350 net.cpp:434] fc7 <- fc6
I0602 13:04:28.622056 29350 net.cpp:408] fc7 -> fc7
I0602 13:04:28.628680 29350 net.cpp:150] Setting up fc7
I0602 13:04:28.628703 29350 net.cpp:157] Top shape: 32 1024 19 19 (11829248)
I0602 13:04:28.628707 29350 net.cpp:165] Memory required for data: 7218167840
I0602 13:04:28.628715 29350 layer_factory.hpp:77] Creating layer relu7
I0602 13:04:28.628738 29350 net.cpp:100] Creating Layer relu7
I0602 13:04:28.628744 29350 net.cpp:434] relu7 <- fc7
I0602 13:04:28.628751 29350 net.cpp:395] relu7 -> fc7 (in-place)
I0602 13:04:28.628944 29350 net.cpp:150] Setting up relu7
I0602 13:04:28.628969 29350 net.cpp:157] Top shape: 32 1024 19 19 (11829248)
I0602 13:04:28.628974 29350 net.cpp:165] Memory required for data: 7265484832
I0602 13:04:28.628978 29350 layer_factory.hpp:77] Creating layer fc7_relu7_0_split
I0602 13:04:28.628983 29350 net.cpp:100] Creating Layer fc7_relu7_0_split
I0602 13:04:28.628988 29350 net.cpp:434] fc7_relu7_0_split <- fc7
I0602 13:04:28.628994 29350 net.cpp:408] fc7_relu7_0_split -> fc7_relu7_0_split_0
I0602 13:04:28.629003 29350 net.cpp:408] fc7_relu7_0_split -> fc7_relu7_0_split_1
I0602 13:04:28.629027 29350 net.cpp:408] fc7_relu7_0_split -> fc7_relu7_0_split_2
I0602 13:04:28.629035 29350 net.cpp:408] fc7_relu7_0_split -> fc7_relu7_0_split_3
I0602 13:04:28.629112 29350 net.cpp:150] Setting up fc7_relu7_0_split
I0602 13:04:28.629122 29350 net.cpp:157] Top shape: 32 1024 19 19 (11829248)
I0602 13:04:28.629127 29350 net.cpp:157] Top shape: 32 1024 19 19 (11829248)
I0602 13:04:28.629132 29350 net.cpp:157] Top shape: 32 1024 19 19 (11829248)
I0602 13:04:28.629134 29350 net.cpp:157] Top shape: 32 1024 19 19 (11829248)
I0602 13:04:28.629137 29350 net.cpp:165] Memory required for data: 7454752800
I0602 13:04:28.629139 29350 layer_factory.hpp:77] Creating layer conv6_1
I0602 13:04:28.629148 29350 net.cpp:100] Creating Layer conv6_1
I0602 13:04:28.629151 29350 net.cpp:434] conv6_1 <- fc7_relu7_0_split_0
I0602 13:04:28.629158 29350 net.cpp:408] conv6_1 -> conv6_1
I0602 13:04:28.632468 29350 net.cpp:150] Setting up conv6_1
I0602 13:04:28.632488 29350 net.cpp:157] Top shape: 32 256 19 19 (2957312)
I0602 13:04:28.632490 29350 net.cpp:165] Memory required for data: 7466582048
I0602 13:04:28.632498 29350 layer_factory.hpp:77] Creating layer conv6_1_relu
I0602 13:04:28.632506 29350 net.cpp:100] Creating Layer conv6_1_relu
I0602 13:04:28.632524 29350 net.cpp:434] conv6_1_relu <- conv6_1
I0602 13:04:28.632529 29350 net.cpp:395] conv6_1_relu -> conv6_1 (in-place)
I0602 13:04:28.632671 29350 net.cpp:150] Setting up conv6_1_relu
I0602 13:04:28.632678 29350 net.cpp:157] Top shape: 32 256 19 19 (2957312)
I0602 13:04:28.632680 29350 net.cpp:165] Memory required for data: 7478411296
I0602 13:04:28.632683 29350 layer_factory.hpp:77] Creating layer conv6_2
I0602 13:04:28.632694 29350 net.cpp:100] Creating Layer conv6_2
I0602 13:04:28.632696 29350 net.cpp:434] conv6_2 <- conv6_1
I0602 13:04:28.632701 29350 net.cpp:408] conv6_2 -> conv6_2
I0602 13:04:28.640269 29350 net.cpp:150] Setting up conv6_2
I0602 13:04:28.640288 29350 net.cpp:157] Top shape: 32 512 10 10 (1638400)
I0602 13:04:28.640290 29350 net.cpp:165] Memory required for data: 7484964896
I0602 13:04:28.640305 29350 layer_factory.hpp:77] Creating layer conv6_2_relu
I0602 13:04:28.640311 29350 net.cpp:100] Creating Layer conv6_2_relu
I0602 13:04:28.640318 29350 net.cpp:434] conv6_2_relu <- conv6_2
I0602 13:04:28.640322 29350 net.cpp:395] conv6_2_relu -> conv6_2 (in-place)
I0602 13:04:28.640455 29350 net.cpp:150] Setting up conv6_2_relu
I0602 13:04:28.640461 29350 net.cpp:157] Top shape: 32 512 10 10 (1638400)
I0602 13:04:28.640463 29350 net.cpp:165] Memory required for data: 7491518496
I0602 13:04:28.640466 29350 layer_factory.hpp:77] Creating layer conv6_2_conv6_2_relu_0_split
I0602 13:04:28.640471 29350 net.cpp:100] Creating Layer conv6_2_conv6_2_relu_0_split
I0602 13:04:28.640473 29350 net.cpp:434] conv6_2_conv6_2_relu_0_split <- conv6_2
I0602 13:04:28.640478 29350 net.cpp:408] conv6_2_conv6_2_relu_0_split -> conv6_2_conv6_2_relu_0_split_0
I0602 13:04:28.640483 29350 net.cpp:408] conv6_2_conv6_2_relu_0_split -> conv6_2_conv6_2_relu_0_split_1
I0602 13:04:28.640488 29350 net.cpp:408] conv6_2_conv6_2_relu_0_split -> conv6_2_conv6_2_relu_0_split_2
I0602 13:04:28.640493 29350 net.cpp:408] conv6_2_conv6_2_relu_0_split -> conv6_2_conv6_2_relu_0_split_3
I0602 13:04:28.640545 29350 net.cpp:150] Setting up conv6_2_conv6_2_relu_0_split
I0602 13:04:28.640550 29350 net.cpp:157] Top shape: 32 512 10 10 (1638400)
I0602 13:04:28.640553 29350 net.cpp:157] Top shape: 32 512 10 10 (1638400)
I0602 13:04:28.640557 29350 net.cpp:157] Top shape: 32 512 10 10 (1638400)
I0602 13:04:28.640558 29350 net.cpp:157] Top shape: 32 512 10 10 (1638400)
I0602 13:04:28.640560 29350 net.cpp:165] Memory required for data: 7517732896
I0602 13:04:28.640563 29350 layer_factory.hpp:77] Creating layer conv7_1
I0602 13:04:28.640570 29350 net.cpp:100] Creating Layer conv7_1
I0602 13:04:28.640573 29350 net.cpp:434] conv7_1 <- conv6_2_conv6_2_relu_0_split_0
I0602 13:04:28.640579 29350 net.cpp:408] conv7_1 -> conv7_1
I0602 13:04:28.641952 29350 net.cpp:150] Setting up conv7_1
I0602 13:04:28.641963 29350 net.cpp:157] Top shape: 32 128 10 10 (409600)
I0602 13:04:28.641964 29350 net.cpp:165] Memory required for data: 7519371296
I0602 13:04:28.641969 29350 layer_factory.hpp:77] Creating layer conv7_1_relu
I0602 13:04:28.641976 29350 net.cpp:100] Creating Layer conv7_1_relu
I0602 13:04:28.641980 29350 net.cpp:434] conv7_1_relu <- conv7_1
I0602 13:04:28.641983 29350 net.cpp:395] conv7_1_relu -> conv7_1 (in-place)
I0602 13:04:28.642105 29350 net.cpp:150] Setting up conv7_1_relu
I0602 13:04:28.642112 29350 net.cpp:157] Top shape: 32 128 10 10 (409600)
I0602 13:04:28.642114 29350 net.cpp:165] Memory required for data: 7521009696
I0602 13:04:28.642117 29350 layer_factory.hpp:77] Creating layer conv7_2
I0602 13:04:28.642124 29350 net.cpp:100] Creating Layer conv7_2
I0602 13:04:28.642128 29350 net.cpp:434] conv7_2 <- conv7_1
I0602 13:04:28.642132 29350 net.cpp:408] conv7_2 -> conv7_2
I0602 13:04:28.644991 29350 net.cpp:150] Setting up conv7_2
I0602 13:04:28.645004 29350 net.cpp:157] Top shape: 32 256 5 5 (204800)
I0602 13:04:28.645007 29350 net.cpp:165] Memory required for data: 7521828896
I0602 13:04:28.645014 29350 layer_factory.hpp:77] Creating layer conv7_2_relu
I0602 13:04:28.645018 29350 net.cpp:100] Creating Layer conv7_2_relu
I0602 13:04:28.645021 29350 net.cpp:434] conv7_2_relu <- conv7_2
I0602 13:04:28.645038 29350 net.cpp:395] conv7_2_relu -> conv7_2 (in-place)
I0602 13:04:28.645162 29350 net.cpp:150] Setting up conv7_2_relu
I0602 13:04:28.645169 29350 net.cpp:157] Top shape: 32 256 5 5 (204800)
I0602 13:04:28.645170 29350 net.cpp:165] Memory required for data: 7522648096
I0602 13:04:28.645174 29350 layer_factory.hpp:77] Creating layer conv7_2_conv7_2_relu_0_split
I0602 13:04:28.645179 29350 net.cpp:100] Creating Layer conv7_2_conv7_2_relu_0_split
I0602 13:04:28.645181 29350 net.cpp:434] conv7_2_conv7_2_relu_0_split <- conv7_2
I0602 13:04:28.645184 29350 net.cpp:408] conv7_2_conv7_2_relu_0_split -> conv7_2_conv7_2_relu_0_split_0
I0602 13:04:28.645191 29350 net.cpp:408] conv7_2_conv7_2_relu_0_split -> conv7_2_conv7_2_relu_0_split_1
I0602 13:04:28.645196 29350 net.cpp:408] conv7_2_conv7_2_relu_0_split -> conv7_2_conv7_2_relu_0_split_2
I0602 13:04:28.645200 29350 net.cpp:408] conv7_2_conv7_2_relu_0_split -> conv7_2_conv7_2_relu_0_split_3
I0602 13:04:28.645251 29350 net.cpp:150] Setting up conv7_2_conv7_2_relu_0_split
I0602 13:04:28.645256 29350 net.cpp:157] Top shape: 32 256 5 5 (204800)
I0602 13:04:28.645259 29350 net.cpp:157] Top shape: 32 256 5 5 (204800)
I0602 13:04:28.645262 29350 net.cpp:157] Top shape: 32 256 5 5 (204800)
I0602 13:04:28.645264 29350 net.cpp:157] Top shape: 32 256 5 5 (204800)
I0602 13:04:28.645267 29350 net.cpp:165] Memory required for data: 7525924896
I0602 13:04:28.645269 29350 layer_factory.hpp:77] Creating layer conv8_1
I0602 13:04:28.645277 29350 net.cpp:100] Creating Layer conv8_1
I0602 13:04:28.645282 29350 net.cpp:434] conv8_1 <- conv7_2_conv7_2_relu_0_split_0
I0602 13:04:28.645287 29350 net.cpp:408] conv8_1 -> conv8_1
I0602 13:04:28.646463 29350 net.cpp:150] Setting up conv8_1
I0602 13:04:28.646473 29350 net.cpp:157] Top shape: 32 128 5 5 (102400)
I0602 13:04:28.646476 29350 net.cpp:165] Memory required for data: 7526334496
I0602 13:04:28.646482 29350 layer_factory.hpp:77] Creating layer conv8_1_relu
I0602 13:04:28.646486 29350 net.cpp:100] Creating Layer conv8_1_relu
I0602 13:04:28.646491 29350 net.cpp:434] conv8_1_relu <- conv8_1
I0602 13:04:28.646494 29350 net.cpp:395] conv8_1_relu -> conv8_1 (in-place)
I0602 13:04:28.647056 29350 net.cpp:150] Setting up conv8_1_relu
I0602 13:04:28.647065 29350 net.cpp:157] Top shape: 32 128 5 5 (102400)
I0602 13:04:28.647068 29350 net.cpp:165] Memory required for data: 7526744096
I0602 13:04:28.647069 29350 layer_factory.hpp:77] Creating layer conv8_2
I0602 13:04:28.647078 29350 net.cpp:100] Creating Layer conv8_2
I0602 13:04:28.647081 29350 net.cpp:434] conv8_2 <- conv8_1
I0602 13:04:28.647088 29350 net.cpp:408] conv8_2 -> conv8_2
I0602 13:04:28.650224 29350 net.cpp:150] Setting up conv8_2
I0602 13:04:28.650241 29350 net.cpp:157] Top shape: 32 256 3 3 (73728)
I0602 13:04:28.650244 29350 net.cpp:165] Memory required for data: 7527039008
I0602 13:04:28.650251 29350 layer_factory.hpp:77] Creating layer conv8_2_relu
I0602 13:04:28.650260 29350 net.cpp:100] Creating Layer conv8_2_relu
I0602 13:04:28.650279 29350 net.cpp:434] conv8_2_relu <- conv8_2
I0602 13:04:28.650285 29350 net.cpp:395] conv8_2_relu -> conv8_2 (in-place)
I0602 13:04:28.650425 29350 net.cpp:150] Setting up conv8_2_relu
I0602 13:04:28.650434 29350 net.cpp:157] Top shape: 32 256 3 3 (73728)
I0602 13:04:28.650435 29350 net.cpp:165] Memory required for data: 7527333920
I0602 13:04:28.650437 29350 layer_factory.hpp:77] Creating layer conv8_2_conv8_2_relu_0_split
I0602 13:04:28.650444 29350 net.cpp:100] Creating Layer conv8_2_conv8_2_relu_0_split
I0602 13:04:28.650447 29350 net.cpp:434] conv8_2_conv8_2_relu_0_split <- conv8_2
I0602 13:04:28.650452 29350 net.cpp:408] conv8_2_conv8_2_relu_0_split -> conv8_2_conv8_2_relu_0_split_0
I0602 13:04:28.650459 29350 net.cpp:408] conv8_2_conv8_2_relu_0_split -> conv8_2_conv8_2_relu_0_split_1
I0602 13:04:28.650462 29350 net.cpp:408] conv8_2_conv8_2_relu_0_split -> conv8_2_conv8_2_relu_0_split_2
I0602 13:04:28.650466 29350 net.cpp:408] conv8_2_conv8_2_relu_0_split -> conv8_2_conv8_2_relu_0_split_3
I0602 13:04:28.650532 29350 net.cpp:150] Setting up conv8_2_conv8_2_relu_0_split
I0602 13:04:28.650537 29350 net.cpp:157] Top shape: 32 256 3 3 (73728)
I0602 13:04:28.650540 29350 net.cpp:157] Top shape: 32 256 3 3 (73728)
I0602 13:04:28.650543 29350 net.cpp:157] Top shape: 32 256 3 3 (73728)
I0602 13:04:28.650547 29350 net.cpp:157] Top shape: 32 256 3 3 (73728)
I0602 13:04:28.650548 29350 net.cpp:165] Memory required for data: 7528513568
I0602 13:04:28.650550 29350 layer_factory.hpp:77] Creating layer conv9_1
I0602 13:04:28.650560 29350 net.cpp:100] Creating Layer conv9_1
I0602 13:04:28.650565 29350 net.cpp:434] conv9_1 <- conv8_2_conv8_2_relu_0_split_0
I0602 13:04:28.650570 29350 net.cpp:408] conv9_1 -> conv9_1
I0602 13:04:28.651784 29350 net.cpp:150] Setting up conv9_1
I0602 13:04:28.651795 29350 net.cpp:157] Top shape: 32 128 3 3 (36864)
I0602 13:04:28.651799 29350 net.cpp:165] Memory required for data: 7528661024
I0602 13:04:28.651804 29350 layer_factory.hpp:77] Creating layer conv9_1_relu
I0602 13:04:28.651810 29350 net.cpp:100] Creating Layer conv9_1_relu
I0602 13:04:28.651814 29350 net.cpp:434] conv9_1_relu <- conv9_1
I0602 13:04:28.651819 29350 net.cpp:395] conv9_1_relu -> conv9_1 (in-place)
I0602 13:04:28.651948 29350 net.cpp:150] Setting up conv9_1_relu
I0602 13:04:28.651954 29350 net.cpp:157] Top shape: 32 128 3 3 (36864)
I0602 13:04:28.651957 29350 net.cpp:165] Memory required for data: 7528808480
I0602 13:04:28.651959 29350 layer_factory.hpp:77] Creating layer conv9_2
I0602 13:04:28.651967 29350 net.cpp:100] Creating Layer conv9_2
I0602 13:04:28.651969 29350 net.cpp:434] conv9_2 <- conv9_1
I0602 13:04:28.651974 29350 net.cpp:408] conv9_2 -> conv9_2
I0602 13:04:28.654965 29350 net.cpp:150] Setting up conv9_2
I0602 13:04:28.654980 29350 net.cpp:157] Top shape: 32 256 1 1 (8192)
I0602 13:04:28.654983 29350 net.cpp:165] Memory required for data: 7528841248
I0602 13:04:28.654989 29350 layer_factory.hpp:77] Creating layer conv9_2_relu
I0602 13:04:28.655009 29350 net.cpp:100] Creating Layer conv9_2_relu
I0602 13:04:28.655014 29350 net.cpp:434] conv9_2_relu <- conv9_2
I0602 13:04:28.655019 29350 net.cpp:395] conv9_2_relu -> conv9_2 (in-place)
I0602 13:04:28.655151 29350 net.cpp:150] Setting up conv9_2_relu
I0602 13:04:28.655158 29350 net.cpp:157] Top shape: 32 256 1 1 (8192)
I0602 13:04:28.655161 29350 net.cpp:165] Memory required for data: 7528874016
I0602 13:04:28.655164 29350 layer_factory.hpp:77] Creating layer conv9_2_conv9_2_relu_0_split
I0602 13:04:28.655171 29350 net.cpp:100] Creating Layer conv9_2_conv9_2_relu_0_split
I0602 13:04:28.655177 29350 net.cpp:434] conv9_2_conv9_2_relu_0_split <- conv9_2
I0602 13:04:28.655184 29350 net.cpp:408] conv9_2_conv9_2_relu_0_split -> conv9_2_conv9_2_relu_0_split_0
I0602 13:04:28.655192 29350 net.cpp:408] conv9_2_conv9_2_relu_0_split -> conv9_2_conv9_2_relu_0_split_1
I0602 13:04:28.655196 29350 net.cpp:408] conv9_2_conv9_2_relu_0_split -> conv9_2_conv9_2_relu_0_split_2
I0602 13:04:28.655243 29350 net.cpp:150] Setting up conv9_2_conv9_2_relu_0_split
I0602 13:04:28.655248 29350 net.cpp:157] Top shape: 32 256 1 1 (8192)
I0602 13:04:28.655251 29350 net.cpp:157] Top shape: 32 256 1 1 (8192)
I0602 13:04:28.655254 29350 net.cpp:157] Top shape: 32 256 1 1 (8192)
I0602 13:04:28.655256 29350 net.cpp:165] Memory required for data: 7528972320
I0602 13:04:28.655258 29350 layer_factory.hpp:77] Creating layer conv4_3_norm
I0602 13:04:28.655263 29350 net.cpp:100] Creating Layer conv4_3_norm
I0602 13:04:28.655267 29350 net.cpp:434] conv4_3_norm <- conv4_3_relu4_3_0_split_1
I0602 13:04:28.655273 29350 net.cpp:408] conv4_3_norm -> conv4_3_norm
I0602 13:04:28.655421 29350 net.cpp:150] Setting up conv4_3_norm
I0602 13:04:28.655431 29350 net.cpp:157] Top shape: 32 512 38 38 (23658496)
I0602 13:04:28.655433 29350 net.cpp:165] Memory required for data: 7623606304
I0602 13:04:28.655439 29350 layer_factory.hpp:77] Creating layer conv4_3_norm_conv4_3_norm_0_split
I0602 13:04:28.655447 29350 net.cpp:100] Creating Layer conv4_3_norm_conv4_3_norm_0_split
I0602 13:04:28.655449 29350 net.cpp:434] conv4_3_norm_conv4_3_norm_0_split <- conv4_3_norm
I0602 13:04:28.655463 29350 net.cpp:408] conv4_3_norm_conv4_3_norm_0_split -> conv4_3_norm_conv4_3_norm_0_split_0
I0602 13:04:28.655468 29350 net.cpp:408] conv4_3_norm_conv4_3_norm_0_split -> conv4_3_norm_conv4_3_norm_0_split_1
I0602 13:04:28.655472 29350 net.cpp:408] conv4_3_norm_conv4_3_norm_0_split -> conv4_3_norm_conv4_3_norm_0_split_2
I0602 13:04:28.655508 29350 net.cpp:150] Setting up conv4_3_norm_conv4_3_norm_0_split
I0602 13:04:28.655514 29350 net.cpp:157] Top shape: 32 512 38 38 (23658496)
I0602 13:04:28.655516 29350 net.cpp:157] Top shape: 32 512 38 38 (23658496)
I0602 13:04:28.655519 29350 net.cpp:157] Top shape: 32 512 38 38 (23658496)
I0602 13:04:28.655521 29350 net.cpp:165] Memory required for data: 7907508256
I0602 13:04:28.655524 29350 layer_factory.hpp:77] Creating layer conv4_3_norm_mbox_loc
I0602 13:04:28.655530 29350 net.cpp:100] Creating Layer conv4_3_norm_mbox_loc
I0602 13:04:28.655534 29350 net.cpp:434] conv4_3_norm_mbox_loc <- conv4_3_norm_conv4_3_norm_0_split_0
I0602 13:04:28.655541 29350 net.cpp:408] conv4_3_norm_mbox_loc -> conv4_3_norm_mbox_loc
I0602 13:04:28.657388 29350 net.cpp:150] Setting up conv4_3_norm_mbox_loc
I0602 13:04:28.657402 29350 net.cpp:157] Top shape: 32 16 38 38 (739328)
I0602 13:04:28.657404 29350 net.cpp:165] Memory required for data: 7910465568
I0602 13:04:28.657410 29350 layer_factory.hpp:77] Creating layer conv4_3_norm_mbox_loc_perm
I0602 13:04:28.657418 29350 net.cpp:100] Creating Layer conv4_3_norm_mbox_loc_perm
I0602 13:04:28.657423 29350 net.cpp:434] conv4_3_norm_mbox_loc_perm <- conv4_3_norm_mbox_loc
I0602 13:04:28.657429 29350 net.cpp:408] conv4_3_norm_mbox_loc_perm -> conv4_3_norm_mbox_loc_perm
I0602 13:04:28.657516 29350 net.cpp:150] Setting up conv4_3_norm_mbox_loc_perm
I0602 13:04:28.657521 29350 net.cpp:157] Top shape: 32 38 38 16 (739328)
I0602 13:04:28.657522 29350 net.cpp:165] Memory required for data: 7913422880
I0602 13:04:28.657524 29350 layer_factory.hpp:77] Creating layer conv4_3_norm_mbox_loc_flat
I0602 13:04:28.657531 29350 net.cpp:100] Creating Layer conv4_3_norm_mbox_loc_flat
I0602 13:04:28.657533 29350 net.cpp:434] conv4_3_norm_mbox_loc_flat <- conv4_3_norm_mbox_loc_perm
I0602 13:04:28.657536 29350 net.cpp:408] conv4_3_norm_mbox_loc_flat -> conv4_3_norm_mbox_loc_flat
I0602 13:04:28.657564 29350 net.cpp:150] Setting up conv4_3_norm_mbox_loc_flat
I0602 13:04:28.657570 29350 net.cpp:157] Top shape: 32 23104 (739328)
I0602 13:04:28.657572 29350 net.cpp:165] Memory required for data: 7916380192
I0602 13:04:28.657574 29350 layer_factory.hpp:77] Creating layer conv4_3_norm_mbox_conf
I0602 13:04:28.657588 29350 net.cpp:100] Creating Layer conv4_3_norm_mbox_conf
I0602 13:04:28.657591 29350 net.cpp:434] conv4_3_norm_mbox_conf <- conv4_3_norm_conv4_3_norm_0_split_1
I0602 13:04:28.657595 29350 net.cpp:408] conv4_3_norm_mbox_conf -> conv4_3_norm_mbox_conf
I0602 13:04:28.659476 29350 net.cpp:150] Setting up conv4_3_norm_mbox_conf
I0602 13:04:28.659490 29350 net.cpp:157] Top shape: 32 16 38 38 (739328)
I0602 13:04:28.659493 29350 net.cpp:165] Memory required for data: 7919337504
I0602 13:04:28.659499 29350 layer_factory.hpp:77] Creating layer conv4_3_norm_mbox_conf_perm
I0602 13:04:28.659507 29350 net.cpp:100] Creating Layer conv4_3_norm_mbox_conf_perm
I0602 13:04:28.659510 29350 net.cpp:434] conv4_3_norm_mbox_conf_perm <- conv4_3_norm_mbox_conf
I0602 13:04:28.659515 29350 net.cpp:408] conv4_3_norm_mbox_conf_perm -> conv4_3_norm_mbox_conf_perm
I0602 13:04:28.659602 29350 net.cpp:150] Setting up conv4_3_norm_mbox_conf_perm
I0602 13:04:28.659607 29350 net.cpp:157] Top shape: 32 38 38 16 (739328)
I0602 13:04:28.659610 29350 net.cpp:165] Memory required for data: 7922294816
I0602 13:04:28.659611 29350 layer_factory.hpp:77] Creating layer conv4_3_norm_mbox_conf_flat
I0602 13:04:28.659616 29350 net.cpp:100] Creating Layer conv4_3_norm_mbox_conf_flat
I0602 13:04:28.659618 29350 net.cpp:434] conv4_3_norm_mbox_conf_flat <- conv4_3_norm_mbox_conf_perm
I0602 13:04:28.659623 29350 net.cpp:408] conv4_3_norm_mbox_conf_flat -> conv4_3_norm_mbox_conf_flat
I0602 13:04:28.659651 29350 net.cpp:150] Setting up conv4_3_norm_mbox_conf_flat
I0602 13:04:28.659657 29350 net.cpp:157] Top shape: 32 23104 (739328)
I0602 13:04:28.659658 29350 net.cpp:165] Memory required for data: 7925252128
I0602 13:04:28.659660 29350 layer_factory.hpp:77] Creating layer conv4_3_norm_mbox_priorbox
I0602 13:04:28.659667 29350 net.cpp:100] Creating Layer conv4_3_norm_mbox_priorbox
I0602 13:04:28.659668 29350 net.cpp:434] conv4_3_norm_mbox_priorbox <- conv4_3_norm_conv4_3_norm_0_split_2
I0602 13:04:28.659672 29350 net.cpp:434] conv4_3_norm_mbox_priorbox <- data_data_0_split_1
I0602 13:04:28.659677 29350 net.cpp:408] conv4_3_norm_mbox_priorbox -> conv4_3_norm_mbox_priorbox
I0602 13:04:28.659700 29350 net.cpp:150] Setting up conv4_3_norm_mbox_priorbox
I0602 13:04:28.659705 29350 net.cpp:157] Top shape: 1 2 23104 (46208)
I0602 13:04:28.659708 29350 net.cpp:165] Memory required for data: 7925436960
I0602 13:04:28.659710 29350 layer_factory.hpp:77] Creating layer fc7_mbox_loc
I0602 13:04:28.659718 29350 net.cpp:100] Creating Layer fc7_mbox_loc
I0602 13:04:28.659720 29350 net.cpp:434] fc7_mbox_loc <- fc7_relu7_0_split_1
I0602 13:04:28.659726 29350 net.cpp:408] fc7_mbox_loc -> fc7_mbox_loc
I0602 13:04:28.662284 29350 net.cpp:150] Setting up fc7_mbox_loc
I0602 13:04:28.662304 29350 net.cpp:157] Top shape: 32 24 19 19 (277248)
I0602 13:04:28.662308 29350 net.cpp:165] Memory required for data: 7926545952
I0602 13:04:28.662318 29350 layer_factory.hpp:77] Creating layer fc7_mbox_loc_perm
I0602 13:04:28.662327 29350 net.cpp:100] Creating Layer fc7_mbox_loc_perm
I0602 13:04:28.662333 29350 net.cpp:434] fc7_mbox_loc_perm <- fc7_mbox_loc
I0602 13:04:28.662338 29350 net.cpp:408] fc7_mbox_loc_perm -> fc7_mbox_loc_perm
I0602 13:04:28.662451 29350 net.cpp:150] Setting up fc7_mbox_loc_perm
I0602 13:04:28.662457 29350 net.cpp:157] Top shape: 32 19 19 24 (277248)
I0602 13:04:28.662461 29350 net.cpp:165] Memory required for data: 7927654944
I0602 13:04:28.662464 29350 layer_factory.hpp:77] Creating layer fc7_mbox_loc_flat
I0602 13:04:28.662472 29350 net.cpp:100] Creating Layer fc7_mbox_loc_flat
I0602 13:04:28.662477 29350 net.cpp:434] fc7_mbox_loc_flat <- fc7_mbox_loc_perm
I0602 13:04:28.662484 29350 net.cpp:408] fc7_mbox_loc_flat -> fc7_mbox_loc_flat
I0602 13:04:28.662509 29350 net.cpp:150] Setting up fc7_mbox_loc_flat
I0602 13:04:28.662516 29350 net.cpp:157] Top shape: 32 8664 (277248)
I0602 13:04:28.662519 29350 net.cpp:165] Memory required for data: 7928763936
I0602 13:04:28.662523 29350 layer_factory.hpp:77] Creating layer fc7_mbox_conf
I0602 13:04:28.662534 29350 net.cpp:100] Creating Layer fc7_mbox_conf
I0602 13:04:28.662539 29350 net.cpp:434] fc7_mbox_conf <- fc7_relu7_0_split_2
I0602 13:04:28.662545 29350 net.cpp:408] fc7_mbox_conf -> fc7_mbox_conf
I0602 13:04:28.665264 29350 net.cpp:150] Setting up fc7_mbox_conf
I0602 13:04:28.665282 29350 net.cpp:157] Top shape: 32 24 19 19 (277248)
I0602 13:04:28.665285 29350 net.cpp:165] Memory required for data: 7929872928
I0602 13:04:28.665292 29350 layer_factory.hpp:77] Creating layer fc7_mbox_conf_perm
I0602 13:04:28.665299 29350 net.cpp:100] Creating Layer fc7_mbox_conf_perm
I0602 13:04:28.665305 29350 net.cpp:434] fc7_mbox_conf_perm <- fc7_mbox_conf
I0602 13:04:28.665310 29350 net.cpp:408] fc7_mbox_conf_perm -> fc7_mbox_conf_perm
I0602 13:04:28.665400 29350 net.cpp:150] Setting up fc7_mbox_conf_perm
I0602 13:04:28.665405 29350 net.cpp:157] Top shape: 32 19 19 24 (277248)
I0602 13:04:28.665407 29350 net.cpp:165] Memory required for data: 7930981920
I0602 13:04:28.665410 29350 layer_factory.hpp:77] Creating layer fc7_mbox_conf_flat
I0602 13:04:28.665415 29350 net.cpp:100] Creating Layer fc7_mbox_conf_flat
I0602 13:04:28.665417 29350 net.cpp:434] fc7_mbox_conf_flat <- fc7_mbox_conf_perm
I0602 13:04:28.665422 29350 net.cpp:408] fc7_mbox_conf_flat -> fc7_mbox_conf_flat
I0602 13:04:28.665441 29350 net.cpp:150] Setting up fc7_mbox_conf_flat
I0602 13:04:28.665444 29350 net.cpp:157] Top shape: 32 8664 (277248)
I0602 13:04:28.665446 29350 net.cpp:165] Memory required for data: 7932090912
I0602 13:04:28.665459 29350 layer_factory.hpp:77] Creating layer fc7_mbox_priorbox
I0602 13:04:28.665465 29350 net.cpp:100] Creating Layer fc7_mbox_priorbox
I0602 13:04:28.665467 29350 net.cpp:434] fc7_mbox_priorbox <- fc7_relu7_0_split_3
I0602 13:04:28.665472 29350 net.cpp:434] fc7_mbox_priorbox <- data_data_0_split_2
I0602 13:04:28.665477 29350 net.cpp:408] fc7_mbox_priorbox -> fc7_mbox_priorbox
I0602 13:04:28.665501 29350 net.cpp:150] Setting up fc7_mbox_priorbox
I0602 13:04:28.665506 29350 net.cpp:157] Top shape: 1 2 8664 (17328)
I0602 13:04:28.665508 29350 net.cpp:165] Memory required for data: 7932160224
I0602 13:04:28.665510 29350 layer_factory.hpp:77] Creating layer conv6_2_mbox_loc
I0602 13:04:28.665520 29350 net.cpp:100] Creating Layer conv6_2_mbox_loc
I0602 13:04:28.665524 29350 net.cpp:434] conv6_2_mbox_loc <- conv6_2_conv6_2_relu_0_split_1
I0602 13:04:28.665529 29350 net.cpp:408] conv6_2_mbox_loc -> conv6_2_mbox_loc
I0602 13:04:28.667467 29350 net.cpp:150] Setting up conv6_2_mbox_loc
I0602 13:04:28.667480 29350 net.cpp:157] Top shape: 32 24 10 10 (76800)
I0602 13:04:28.667482 29350 net.cpp:165] Memory required for data: 7932467424
I0602 13:04:28.667487 29350 layer_factory.hpp:77] Creating layer conv6_2_mbox_loc_perm
I0602 13:04:28.667492 29350 net.cpp:100] Creating Layer conv6_2_mbox_loc_perm
I0602 13:04:28.667497 29350 net.cpp:434] conv6_2_mbox_loc_perm <- conv6_2_mbox_loc
I0602 13:04:28.667503 29350 net.cpp:408] conv6_2_mbox_loc_perm -> conv6_2_mbox_loc_perm
I0602 13:04:28.667592 29350 net.cpp:150] Setting up conv6_2_mbox_loc_perm
I0602 13:04:28.667596 29350 net.cpp:157] Top shape: 32 10 10 24 (76800)
I0602 13:04:28.667599 29350 net.cpp:165] Memory required for data: 7932774624
I0602 13:04:28.667601 29350 layer_factory.hpp:77] Creating layer conv6_2_mbox_loc_flat
I0602 13:04:28.667605 29350 net.cpp:100] Creating Layer conv6_2_mbox_loc_flat
I0602 13:04:28.667608 29350 net.cpp:434] conv6_2_mbox_loc_flat <- conv6_2_mbox_loc_perm
I0602 13:04:28.667613 29350 net.cpp:408] conv6_2_mbox_loc_flat -> conv6_2_mbox_loc_flat
I0602 13:04:28.667630 29350 net.cpp:150] Setting up conv6_2_mbox_loc_flat
I0602 13:04:28.667634 29350 net.cpp:157] Top shape: 32 2400 (76800)
I0602 13:04:28.667636 29350 net.cpp:165] Memory required for data: 7933081824
I0602 13:04:28.667639 29350 layer_factory.hpp:77] Creating layer conv6_2_mbox_conf
I0602 13:04:28.667647 29350 net.cpp:100] Creating Layer conv6_2_mbox_conf
I0602 13:04:28.667651 29350 net.cpp:434] conv6_2_mbox_conf <- conv6_2_conv6_2_relu_0_split_2
I0602 13:04:28.667655 29350 net.cpp:408] conv6_2_mbox_conf -> conv6_2_mbox_conf
I0602 13:04:28.669940 29350 net.cpp:150] Setting up conv6_2_mbox_conf
I0602 13:04:28.669955 29350 net.cpp:157] Top shape: 32 24 10 10 (76800)
I0602 13:04:28.669958 29350 net.cpp:165] Memory required for data: 7933389024
I0602 13:04:28.669965 29350 layer_factory.hpp:77] Creating layer conv6_2_mbox_conf_perm
I0602 13:04:28.669971 29350 net.cpp:100] Creating Layer conv6_2_mbox_conf_perm
I0602 13:04:28.669975 29350 net.cpp:434] conv6_2_mbox_conf_perm <- conv6_2_mbox_conf
I0602 13:04:28.669981 29350 net.cpp:408] conv6_2_mbox_conf_perm -> conv6_2_mbox_conf_perm
I0602 13:04:28.670073 29350 net.cpp:150] Setting up conv6_2_mbox_conf_perm
I0602 13:04:28.670078 29350 net.cpp:157] Top shape: 32 10 10 24 (76800)
I0602 13:04:28.670080 29350 net.cpp:165] Memory required for data: 7933696224
I0602 13:04:28.670083 29350 layer_factory.hpp:77] Creating layer conv6_2_mbox_conf_flat
I0602 13:04:28.670087 29350 net.cpp:100] Creating Layer conv6_2_mbox_conf_flat
I0602 13:04:28.670090 29350 net.cpp:434] conv6_2_mbox_conf_flat <- conv6_2_mbox_conf_perm
I0602 13:04:28.670095 29350 net.cpp:408] conv6_2_mbox_conf_flat -> conv6_2_mbox_conf_flat
I0602 13:04:28.670114 29350 net.cpp:150] Setting up conv6_2_mbox_conf_flat
I0602 13:04:28.670116 29350 net.cpp:157] Top shape: 32 2400 (76800)
I0602 13:04:28.670120 29350 net.cpp:165] Memory required for data: 7934003424
I0602 13:04:28.670121 29350 layer_factory.hpp:77] Creating layer conv6_2_mbox_priorbox
I0602 13:04:28.670137 29350 net.cpp:100] Creating Layer conv6_2_mbox_priorbox
I0602 13:04:28.670140 29350 net.cpp:434] conv6_2_mbox_priorbox <- conv6_2_conv6_2_relu_0_split_3
I0602 13:04:28.670145 29350 net.cpp:434] conv6_2_mbox_priorbox <- data_data_0_split_3
I0602 13:04:28.670150 29350 net.cpp:408] conv6_2_mbox_priorbox -> conv6_2_mbox_priorbox
I0602 13:04:28.670171 29350 net.cpp:150] Setting up conv6_2_mbox_priorbox
I0602 13:04:28.670176 29350 net.cpp:157] Top shape: 1 2 2400 (4800)
I0602 13:04:28.670179 29350 net.cpp:165] Memory required for data: 7934022624
I0602 13:04:28.670181 29350 layer_factory.hpp:77] Creating layer conv7_2_mbox_loc
I0602 13:04:28.670189 29350 net.cpp:100] Creating Layer conv7_2_mbox_loc
I0602 13:04:28.670192 29350 net.cpp:434] conv7_2_mbox_loc <- conv7_2_conv7_2_relu_0_split_1
I0602 13:04:28.670197 29350 net.cpp:408] conv7_2_mbox_loc -> conv7_2_mbox_loc
I0602 13:04:28.671646 29350 net.cpp:150] Setting up conv7_2_mbox_loc
I0602 13:04:28.671663 29350 net.cpp:157] Top shape: 32 24 5 5 (19200)
I0602 13:04:28.671665 29350 net.cpp:165] Memory required for data: 7934099424
I0602 13:04:28.671672 29350 layer_factory.hpp:77] Creating layer conv7_2_mbox_loc_perm
I0602 13:04:28.671680 29350 net.cpp:100] Creating Layer conv7_2_mbox_loc_perm
I0602 13:04:28.671684 29350 net.cpp:434] conv7_2_mbox_loc_perm <- conv7_2_mbox_loc
I0602 13:04:28.671689 29350 net.cpp:408] conv7_2_mbox_loc_perm -> conv7_2_mbox_loc_perm
I0602 13:04:28.671784 29350 net.cpp:150] Setting up conv7_2_mbox_loc_perm
I0602 13:04:28.671789 29350 net.cpp:157] Top shape: 32 5 5 24 (19200)
I0602 13:04:28.671792 29350 net.cpp:165] Memory required for data: 7934176224
I0602 13:04:28.671793 29350 layer_factory.hpp:77] Creating layer conv7_2_mbox_loc_flat
I0602 13:04:28.671798 29350 net.cpp:100] Creating Layer conv7_2_mbox_loc_flat
I0602 13:04:28.671800 29350 net.cpp:434] conv7_2_mbox_loc_flat <- conv7_2_mbox_loc_perm
I0602 13:04:28.671804 29350 net.cpp:408] conv7_2_mbox_loc_flat -> conv7_2_mbox_loc_flat
I0602 13:04:28.671823 29350 net.cpp:150] Setting up conv7_2_mbox_loc_flat
I0602 13:04:28.671828 29350 net.cpp:157] Top shape: 32 600 (19200)
I0602 13:04:28.671830 29350 net.cpp:165] Memory required for data: 7934253024
I0602 13:04:28.671833 29350 layer_factory.hpp:77] Creating layer conv7_2_mbox_conf
I0602 13:04:28.671840 29350 net.cpp:100] Creating Layer conv7_2_mbox_conf
I0602 13:04:28.671844 29350 net.cpp:434] conv7_2_mbox_conf <- conv7_2_conv7_2_relu_0_split_2
I0602 13:04:28.671849 29350 net.cpp:408] conv7_2_mbox_conf -> conv7_2_mbox_conf
I0602 13:04:28.673677 29350 net.cpp:150] Setting up conv7_2_mbox_conf
I0602 13:04:28.673691 29350 net.cpp:157] Top shape: 32 24 5 5 (19200)
I0602 13:04:28.673694 29350 net.cpp:165] Memory required for data: 7934329824
I0602 13:04:28.673701 29350 layer_factory.hpp:77] Creating layer conv7_2_mbox_conf_perm
I0602 13:04:28.673707 29350 net.cpp:100] Creating Layer conv7_2_mbox_conf_perm
I0602 13:04:28.673712 29350 net.cpp:434] conv7_2_mbox_conf_perm <- conv7_2_mbox_conf
I0602 13:04:28.673717 29350 net.cpp:408] conv7_2_mbox_conf_perm -> conv7_2_mbox_conf_perm
I0602 13:04:28.673810 29350 net.cpp:150] Setting up conv7_2_mbox_conf_perm
I0602 13:04:28.673815 29350 net.cpp:157] Top shape: 32 5 5 24 (19200)
I0602 13:04:28.673817 29350 net.cpp:165] Memory required for data: 7934406624
I0602 13:04:28.673820 29350 layer_factory.hpp:77] Creating layer conv7_2_mbox_conf_flat
I0602 13:04:28.673825 29350 net.cpp:100] Creating Layer conv7_2_mbox_conf_flat
I0602 13:04:28.673827 29350 net.cpp:434] conv7_2_mbox_conf_flat <- conv7_2_mbox_conf_perm
I0602 13:04:28.673831 29350 net.cpp:408] conv7_2_mbox_conf_flat -> conv7_2_mbox_conf_flat
I0602 13:04:28.673851 29350 net.cpp:150] Setting up conv7_2_mbox_conf_flat
I0602 13:04:28.673856 29350 net.cpp:157] Top shape: 32 600 (19200)
I0602 13:04:28.673856 29350 net.cpp:165] Memory required for data: 7934483424
I0602 13:04:28.673858 29350 layer_factory.hpp:77] Creating layer conv7_2_mbox_priorbox
I0602 13:04:28.673863 29350 net.cpp:100] Creating Layer conv7_2_mbox_priorbox
I0602 13:04:28.673866 29350 net.cpp:434] conv7_2_mbox_priorbox <- conv7_2_conv7_2_relu_0_split_3
I0602 13:04:28.673882 29350 net.cpp:434] conv7_2_mbox_priorbox <- data_data_0_split_4
I0602 13:04:28.673887 29350 net.cpp:408] conv7_2_mbox_priorbox -> conv7_2_mbox_priorbox
I0602 13:04:28.673910 29350 net.cpp:150] Setting up conv7_2_mbox_priorbox
I0602 13:04:28.673915 29350 net.cpp:157] Top shape: 1 2 600 (1200)
I0602 13:04:28.673918 29350 net.cpp:165] Memory required for data: 7934488224
I0602 13:04:28.673919 29350 layer_factory.hpp:77] Creating layer conv8_2_mbox_loc
I0602 13:04:28.673928 29350 net.cpp:100] Creating Layer conv8_2_mbox_loc
I0602 13:04:28.673930 29350 net.cpp:434] conv8_2_mbox_loc <- conv8_2_conv8_2_relu_0_split_1
I0602 13:04:28.673935 29350 net.cpp:408] conv8_2_mbox_loc -> conv8_2_mbox_loc
I0602 13:04:28.675632 29350 net.cpp:150] Setting up conv8_2_mbox_loc
I0602 13:04:28.675645 29350 net.cpp:157] Top shape: 32 16 3 3 (4608)
I0602 13:04:28.675647 29350 net.cpp:165] Memory required for data: 7934506656
I0602 13:04:28.675660 29350 layer_factory.hpp:77] Creating layer conv8_2_mbox_loc_perm
I0602 13:04:28.675668 29350 net.cpp:100] Creating Layer conv8_2_mbox_loc_perm
I0602 13:04:28.675673 29350 net.cpp:434] conv8_2_mbox_loc_perm <- conv8_2_mbox_loc
I0602 13:04:28.675678 29350 net.cpp:408] conv8_2_mbox_loc_perm -> conv8_2_mbox_loc_perm
I0602 13:04:28.675768 29350 net.cpp:150] Setting up conv8_2_mbox_loc_perm
I0602 13:04:28.675773 29350 net.cpp:157] Top shape: 32 3 3 16 (4608)
I0602 13:04:28.675776 29350 net.cpp:165] Memory required for data: 7934525088
I0602 13:04:28.675778 29350 layer_factory.hpp:77] Creating layer conv8_2_mbox_loc_flat
I0602 13:04:28.675782 29350 net.cpp:100] Creating Layer conv8_2_mbox_loc_flat
I0602 13:04:28.675784 29350 net.cpp:434] conv8_2_mbox_loc_flat <- conv8_2_mbox_loc_perm
I0602 13:04:28.675789 29350 net.cpp:408] conv8_2_mbox_loc_flat -> conv8_2_mbox_loc_flat
I0602 13:04:28.675807 29350 net.cpp:150] Setting up conv8_2_mbox_loc_flat
I0602 13:04:28.675812 29350 net.cpp:157] Top shape: 32 144 (4608)
I0602 13:04:28.675813 29350 net.cpp:165] Memory required for data: 7934543520
I0602 13:04:28.675815 29350 layer_factory.hpp:77] Creating layer conv8_2_mbox_conf
I0602 13:04:28.675824 29350 net.cpp:100] Creating Layer conv8_2_mbox_conf
I0602 13:04:28.675827 29350 net.cpp:434] conv8_2_mbox_conf <- conv8_2_conv8_2_relu_0_split_2
I0602 13:04:28.675832 29350 net.cpp:408] conv8_2_mbox_conf -> conv8_2_mbox_conf
I0602 13:04:28.677505 29350 net.cpp:150] Setting up conv8_2_mbox_conf
I0602 13:04:28.677517 29350 net.cpp:157] Top shape: 32 16 3 3 (4608)
I0602 13:04:28.677520 29350 net.cpp:165] Memory required for data: 7934561952
I0602 13:04:28.677525 29350 layer_factory.hpp:77] Creating layer conv8_2_mbox_conf_perm
I0602 13:04:28.677531 29350 net.cpp:100] Creating Layer conv8_2_mbox_conf_perm
I0602 13:04:28.677534 29350 net.cpp:434] conv8_2_mbox_conf_perm <- conv8_2_mbox_conf
I0602 13:04:28.677541 29350 net.cpp:408] conv8_2_mbox_conf_perm -> conv8_2_mbox_conf_perm
I0602 13:04:28.677628 29350 net.cpp:150] Setting up conv8_2_mbox_conf_perm
I0602 13:04:28.677634 29350 net.cpp:157] Top shape: 32 3 3 16 (4608)
I0602 13:04:28.677635 29350 net.cpp:165] Memory required for data: 7934580384
I0602 13:04:28.677639 29350 layer_factory.hpp:77] Creating layer conv8_2_mbox_conf_flat
I0602 13:04:28.677642 29350 net.cpp:100] Creating Layer conv8_2_mbox_conf_flat
I0602 13:04:28.677645 29350 net.cpp:434] conv8_2_mbox_conf_flat <- conv8_2_mbox_conf_perm
I0602 13:04:28.677649 29350 net.cpp:408] conv8_2_mbox_conf_flat -> conv8_2_mbox_conf_flat
I0602 13:04:28.677669 29350 net.cpp:150] Setting up conv8_2_mbox_conf_flat
I0602 13:04:28.677672 29350 net.cpp:157] Top shape: 32 144 (4608)
I0602 13:04:28.677675 29350 net.cpp:165] Memory required for data: 7934598816
I0602 13:04:28.677677 29350 layer_factory.hpp:77] Creating layer conv8_2_mbox_priorbox
I0602 13:04:28.677682 29350 net.cpp:100] Creating Layer conv8_2_mbox_priorbox
I0602 13:04:28.677685 29350 net.cpp:434] conv8_2_mbox_priorbox <- conv8_2_conv8_2_relu_0_split_3
I0602 13:04:28.677690 29350 net.cpp:434] conv8_2_mbox_priorbox <- data_data_0_split_5
I0602 13:04:28.677702 29350 net.cpp:408] conv8_2_mbox_priorbox -> conv8_2_mbox_priorbox
I0602 13:04:28.677726 29350 net.cpp:150] Setting up conv8_2_mbox_priorbox
I0602 13:04:28.677731 29350 net.cpp:157] Top shape: 1 2 144 (288)
I0602 13:04:28.677732 29350 net.cpp:165] Memory required for data: 7934599968
I0602 13:04:28.677736 29350 layer_factory.hpp:77] Creating layer conv9_2_mbox_loc
I0602 13:04:28.677742 29350 net.cpp:100] Creating Layer conv9_2_mbox_loc
I0602 13:04:28.677745 29350 net.cpp:434] conv9_2_mbox_loc <- conv9_2_conv9_2_relu_0_split_0
I0602 13:04:28.677752 29350 net.cpp:408] conv9_2_mbox_loc -> conv9_2_mbox_loc
I0602 13:04:28.679527 29350 net.cpp:150] Setting up conv9_2_mbox_loc
I0602 13:04:28.679541 29350 net.cpp:157] Top shape: 32 16 1 1 (512)
I0602 13:04:28.679543 29350 net.cpp:165] Memory required for data: 7934602016
I0602 13:04:28.679549 29350 layer_factory.hpp:77] Creating layer conv9_2_mbox_loc_perm
I0602 13:04:28.679558 29350 net.cpp:100] Creating Layer conv9_2_mbox_loc_perm
I0602 13:04:28.679563 29350 net.cpp:434] conv9_2_mbox_loc_perm <- conv9_2_mbox_loc
I0602 13:04:28.679569 29350 net.cpp:408] conv9_2_mbox_loc_perm -> conv9_2_mbox_loc_perm
I0602 13:04:28.679663 29350 net.cpp:150] Setting up conv9_2_mbox_loc_perm
I0602 13:04:28.679669 29350 net.cpp:157] Top shape: 32 1 1 16 (512)
I0602 13:04:28.679672 29350 net.cpp:165] Memory required for data: 7934604064
I0602 13:04:28.679673 29350 layer_factory.hpp:77] Creating layer conv9_2_mbox_loc_flat
I0602 13:04:28.679678 29350 net.cpp:100] Creating Layer conv9_2_mbox_loc_flat
I0602 13:04:28.679682 29350 net.cpp:434] conv9_2_mbox_loc_flat <- conv9_2_mbox_loc_perm
I0602 13:04:28.679685 29350 net.cpp:408] conv9_2_mbox_loc_flat -> conv9_2_mbox_loc_flat
I0602 13:04:28.679704 29350 net.cpp:150] Setting up conv9_2_mbox_loc_flat
I0602 13:04:28.679708 29350 net.cpp:157] Top shape: 32 16 (512)
I0602 13:04:28.679710 29350 net.cpp:165] Memory required for data: 7934606112
I0602 13:04:28.679713 29350 layer_factory.hpp:77] Creating layer conv9_2_mbox_conf
I0602 13:04:28.679721 29350 net.cpp:100] Creating Layer conv9_2_mbox_conf
I0602 13:04:28.679724 29350 net.cpp:434] conv9_2_mbox_conf <- conv9_2_conv9_2_relu_0_split_1
I0602 13:04:28.679729 29350 net.cpp:408] conv9_2_mbox_conf -> conv9_2_mbox_conf
I0602 13:04:28.682353 29350 net.cpp:150] Setting up conv9_2_mbox_conf
I0602 13:04:28.682370 29350 net.cpp:157] Top shape: 32 16 1 1 (512)
I0602 13:04:28.682373 29350 net.cpp:165] Memory required for data: 7934608160
I0602 13:04:28.682380 29350 layer_factory.hpp:77] Creating layer conv9_2_mbox_conf_perm
I0602 13:04:28.682389 29350 net.cpp:100] Creating Layer conv9_2_mbox_conf_perm
I0602 13:04:28.682394 29350 net.cpp:434] conv9_2_mbox_conf_perm <- conv9_2_mbox_conf
I0602 13:04:28.682399 29350 net.cpp:408] conv9_2_mbox_conf_perm -> conv9_2_mbox_conf_perm
I0602 13:04:28.682497 29350 net.cpp:150] Setting up conv9_2_mbox_conf_perm
I0602 13:04:28.682503 29350 net.cpp:157] Top shape: 32 1 1 16 (512)
I0602 13:04:28.682505 29350 net.cpp:165] Memory required for data: 7934610208
I0602 13:04:28.682507 29350 layer_factory.hpp:77] Creating layer conv9_2_mbox_conf_flat
I0602 13:04:28.682512 29350 net.cpp:100] Creating Layer conv9_2_mbox_conf_flat
I0602 13:04:28.682516 29350 net.cpp:434] conv9_2_mbox_conf_flat <- conv9_2_mbox_conf_perm
I0602 13:04:28.682520 29350 net.cpp:408] conv9_2_mbox_conf_flat -> conv9_2_mbox_conf_flat
I0602 13:04:28.682538 29350 net.cpp:150] Setting up conv9_2_mbox_conf_flat
I0602 13:04:28.682543 29350 net.cpp:157] Top shape: 32 16 (512)
I0602 13:04:28.682545 29350 net.cpp:165] Memory required for data: 7934612256
I0602 13:04:28.682548 29350 layer_factory.hpp:77] Creating layer conv9_2_mbox_priorbox
I0602 13:04:28.682554 29350 net.cpp:100] Creating Layer conv9_2_mbox_priorbox
I0602 13:04:28.682555 29350 net.cpp:434] conv9_2_mbox_priorbox <- conv9_2_conv9_2_relu_0_split_2
I0602 13:04:28.682559 29350 net.cpp:434] conv9_2_mbox_priorbox <- data_data_0_split_6
I0602 13:04:28.682564 29350 net.cpp:408] conv9_2_mbox_priorbox -> conv9_2_mbox_priorbox
I0602 13:04:28.682601 29350 net.cpp:150] Setting up conv9_2_mbox_priorbox
I0602 13:04:28.682605 29350 net.cpp:157] Top shape: 1 2 16 (32)
I0602 13:04:28.682608 29350 net.cpp:165] Memory required for data: 7934612384
I0602 13:04:28.682610 29350 layer_factory.hpp:77] Creating layer mbox_loc
I0602 13:04:28.682615 29350 net.cpp:100] Creating Layer mbox_loc
I0602 13:04:28.682618 29350 net.cpp:434] mbox_loc <- conv4_3_norm_mbox_loc_flat
I0602 13:04:28.682622 29350 net.cpp:434] mbox_loc <- fc7_mbox_loc_flat
I0602 13:04:28.682626 29350 net.cpp:434] mbox_loc <- conv6_2_mbox_loc_flat
I0602 13:04:28.682628 29350 net.cpp:434] mbox_loc <- conv7_2_mbox_loc_flat
I0602 13:04:28.682631 29350 net.cpp:434] mbox_loc <- conv8_2_mbox_loc_flat
I0602 13:04:28.682634 29350 net.cpp:434] mbox_loc <- conv9_2_mbox_loc_flat
I0602 13:04:28.682639 29350 net.cpp:408] mbox_loc -> mbox_loc
I0602 13:04:28.682662 29350 net.cpp:150] Setting up mbox_loc
I0602 13:04:28.682665 29350 net.cpp:157] Top shape: 32 34928 (1117696)
I0602 13:04:28.682667 29350 net.cpp:165] Memory required for data: 7939083168
I0602 13:04:28.682669 29350 layer_factory.hpp:77] Creating layer mbox_conf
I0602 13:04:28.682673 29350 net.cpp:100] Creating Layer mbox_conf
I0602 13:04:28.682677 29350 net.cpp:434] mbox_conf <- conv4_3_norm_mbox_conf_flat
I0602 13:04:28.682680 29350 net.cpp:434] mbox_conf <- fc7_mbox_conf_flat
I0602 13:04:28.682683 29350 net.cpp:434] mbox_conf <- conv6_2_mbox_conf_flat
I0602 13:04:28.682685 29350 net.cpp:434] mbox_conf <- conv7_2_mbox_conf_flat
I0602 13:04:28.682688 29350 net.cpp:434] mbox_conf <- conv8_2_mbox_conf_flat
I0602 13:04:28.682692 29350 net.cpp:434] mbox_conf <- conv9_2_mbox_conf_flat
I0602 13:04:28.682694 29350 net.cpp:408] mbox_conf -> mbox_conf
I0602 13:04:28.682711 29350 net.cpp:150] Setting up mbox_conf
I0602 13:04:28.682715 29350 net.cpp:157] Top shape: 32 34928 (1117696)
I0602 13:04:28.682718 29350 net.cpp:165] Memory required for data: 7943553952
I0602 13:04:28.682719 29350 layer_factory.hpp:77] Creating layer mbox_priorbox
I0602 13:04:28.682723 29350 net.cpp:100] Creating Layer mbox_priorbox
I0602 13:04:28.682724 29350 net.cpp:434] mbox_priorbox <- conv4_3_norm_mbox_priorbox
I0602 13:04:28.682729 29350 net.cpp:434] mbox_priorbox <- fc7_mbox_priorbox
I0602 13:04:28.682731 29350 net.cpp:434] mbox_priorbox <- conv6_2_mbox_priorbox
I0602 13:04:28.682734 29350 net.cpp:434] mbox_priorbox <- conv7_2_mbox_priorbox
I0602 13:04:28.682735 29350 net.cpp:434] mbox_priorbox <- conv8_2_mbox_priorbox
I0602 13:04:28.682739 29350 net.cpp:434] mbox_priorbox <- conv9_2_mbox_priorbox
I0602 13:04:28.682742 29350 net.cpp:408] mbox_priorbox -> mbox_priorbox
I0602 13:04:28.682760 29350 net.cpp:150] Setting up mbox_priorbox
I0602 13:04:28.682763 29350 net.cpp:157] Top shape: 1 2 34928 (69856)
I0602 13:04:28.682765 29350 net.cpp:165] Memory required for data: 7943833376
I0602 13:04:28.682767 29350 layer_factory.hpp:77] Creating layer mbox_loss
I0602 13:04:28.682775 29350 net.cpp:100] Creating Layer mbox_loss
I0602 13:04:28.682776 29350 net.cpp:434] mbox_loss <- mbox_loc
I0602 13:04:28.682780 29350 net.cpp:434] mbox_loss <- mbox_conf
I0602 13:04:28.682782 29350 net.cpp:434] mbox_loss <- mbox_priorbox
…
  name: "data"
  type: "AnnotatedData"
  top: "data"
  top: "label"
  include {
    phase: TEST
  }
  transform_param {
    mean_value: 104
    mean_value: 117
    mean_value: 123
    resize_param {
      prob: 1
      resize_mode: WARP
      height: 300
      width: 300
      interp_mode: LINEAR
    }
  }
  data_param {
    source: "examples/tbs_300x300_HSIL_10x/tbs_300x300_HSIL_10x_test_lmdb"
    batch_size: 4
    backend: LMDB
  }
  annotated_data_param {
    batch_sampler {
    }
    label_map_file: "data/tbs_300x300_HSIL_10x/labelmap_voc.prototxt"
  }
}
layer {
  name: "conv1_1"
  type: "Convolution"
  bottom: "data"
  top: "conv1_1"
  param {
    lr_mult: 1
    decay_mult: 1
  }
  param {
    lr_mult: 2
    decay_mult: 0
  }
  convolution_param {
    num_output: 64
    pad: 1
    kernel_size: 3
    weight_filler {
      type: "xavier"
    }
    bias_filler {
      type: "constant"
      value: 0
    }
  }
}
layer {
  name: "relu1_1"
  type: "ReLU"
  bottom: "conv1_1"
  top: "conv1_1"
}
layer {
  name: "conv1_2"
  type: "Convolution"
  bottom: "conv1_1"
  top: "conv1_2"
  param {
    lr_mult: 1
    decay_mult: 1
  }
  param {
    lr_mult: 2
    decay_mult: 0
  }
  convolution_param {
    num_output: 64
    pad: 1
    kernel_size: 3
    weight_filler {
      type: "xavier"
    }
    bias_filler {
      type: "constant"
      value: 0
    }
  }
}
layer {
  name: "relu1_2"
  type: "ReLU"
  bottom: "conv1_2"
  top: "conv1_2"
}
layer {
  name: "pool1"
  type: "Pooling"
  bottom: "conv1_2"
  top: "pool1"
  pooling_param {
    pool: MAX
    kernel_size: 2
    stride: 2
  }
}
layer {
  name: "conv2_1"
  type: "Convolution"
  bottom: "pool1"
  top: "conv2_1"
  param {
    lr_mult: 1
    decay_mult: 1
  }
  param {
    lr_mult: 2
    decay_mult: 0
  }
  convolution_param {
    num_output: 128
    pad: 1
    kernel_size: 3
    weight_filler {
      type: "xavier"
    }
    bias_filler {
      type: "constant"
      value: 0
    }
  }
}
layer {
  name: "relu2_1"
  type: "ReLU"
  bottom: "conv2_1"
  top: "conv2_1"
}
layer {
  name: "conv2_2"
  type: "Convolution"
  bottom: "conv2_1"
  top: "conv2_2"
  param {
    lr_mult: 1
    decay_mult: 1
  }
  param {
    lr_mult: 2
    decay_mult: 0
  }
  convolution_param {
    num_output: 128
    pad: 1
    kernel_size: 3
    weight_filler {
      type: "xavier"
    }
    bias_filler {
      type: "constant"
      value: 0
    }
  }
}
layer {
  name: "relu2_2"
  type: "ReLU"
  bottom: "conv2_2"
  top: "conv2_2"
}
layer {
  name: "pool2"
  type: "Pooling"
  bottom: "conv2_2"
  top: "pool2"
  pooling_param {
    pool: MAX
    kernel_size: 2
    stride: 2
  }
}
layer {
  name: "conv3_1"
  type: "Convolution"
  bottom: "pool2"
  top: "conv3_1"
  param {
    lr_mult: 1
    decay_mult: 1
  }
  param {
    lr_mult: 2
    decay_mult: 0
  }
  convolution_param {
    num_output: 256
    pad: 1
    kernel_size: 3
    weight_filler {
      type: "xavier"
    }
    bias_filler {
      type: "constant"
      value: 0
    }
  }
}
layer {
  name: "relu3_1"
  type: "ReLU"
  bottom: "conv3_1"
  top: "conv3_1"
}
layer {
  name: "conv3_2"
  type: "Convolution"
  bottom: "conv3_1"
  top: "conv3_2"
  param {
    lr_mult: 1
    decay_mult: 1
  }
  param {
    lr_mult: 2
    decay_mult: 0
  }
  convolution_param {
    num_output: 256
    pad: 1
    kernel_size: 3
    weight_filler {
      type: "xavier"
    }
    bias_filler {
      type: "constant"
      value: 0
    }
  }
}
layer {
  name: "relu3_2"
  type: "ReLU"
  bottom: "conv3_2"
  top: "conv3_2"
}
layer {
  name: "conv3_3"
  type: "Convolution"
  bottom: "conv3_2"
  top: "conv3_3"
  param {
    lr_mult: 1
    decay_mult: 1
  }
  param {
    lr_mult: 2
    decay_mult: 0
  }
  convolution_param {
    num_output: 256
    pad: 1
    kernel_size: 3
    weight_filler {
      type: "xavier"
    }
    bias_filler {
      type: "constant"
      value: 0
    }
  }
}
layer {
  name: "relu3_3"
  type: "ReLU"
  bottom: "conv3_3"
  top: "conv3_3"
}
layer {
  name: "pool3"
  type: "Pooling"
  bottom: "conv3_3"
  top: "pool3"
  pooling_param {
    pool: MAX
    kernel_size: 2
    stride: 2
  }
}
layer {
  name: "conv4_1"
  type: "Convolution"
  bottom: "pool3"
  top: "conv4_1"
  param {
    lr_mult: 1
    decay_mult: 1
  }
  param {
    lr_mult: 2
    decay_mult: 0
  }
  convolution_param {
    num_output: 512
    pad: 1
    kernel_size: 3
    weight_filler {
      type: "xavier"
    }
    bias_filler {
      type: "constant"
      value: 0
    }
  }
}
layer {
  name: "relu4_1"
  type: "ReLU"
  bottom: "conv4_1"
  top: "conv4_1"
}
layer {
  name: "conv4_2"
  type: "Convolution"
  bottom: "conv4_1"
  top: "conv4_2"
  param {
    lr_mult: 1
    decay_mult: 1
  }
  param {
    lr_mult: 2
    decay_mult: 0
  }
  convolution_param {
    num_output: 512
    pad: 1
    kernel_size: 3
    weight_filler {
      type: "xavier"
    }
    bias_filler {
      type: "constant"
      value: 0
    }
  }
}
layer {
  name: "relu4_2"
  type: "ReLU"
  bottom: "conv4_2"
  top: "conv4_2"
}
layer {
  name: "conv4_3"
  type: "Convolution"
  bottom: "conv4_2"
  top: "conv4_3"
  param {
    lr_mult: 1
    decay_mult: 1
  }
  param {
    lr_mult: 2
    decay_mult: 0
  }
  convolution_param {
    num_output: 512
    pad: 1
    kernel_size: 3
    weight_filler {
      type: "xavier"
    }
    bias_filler {
      type: "constant"
      value: 0
    }
  }
}
layer {
  name: "relu4_3"
  type: "ReLU"
  bottom: "conv4_3"
  top: "conv4_3"
}
layer {
  name: "pool4"
  type: "Pooling"
  bottom: "conv4_3"
  top: "pool4"
  pooling_param {
    pool: MAX
    kernel_size: 2
    stride: 2
  }
}
layer {
  name: "conv5_1"
  type: "Convolution"
  bottom: "pool4"
  top: "conv5_1"
  param {
    lr_mult: 1
    decay_mult: 1
  }
  param {
    lr_mult: 2
    decay_mult: 0
  }
  convolution_param {
    num_output: 512
    pad: 1
    kernel_size: 3
    weight_filler {
      type: "xavier"
    }
    bias_filler {
      type: "constant"
      value: 0
    }
    dilation: 1
  }
}
layer {
  name: "relu5_1"
  type: "ReLU"
  bottom: "conv5_1"
  top: "conv5_1"
}
layer {
  name: "conv5_2"
  type: "Convolution"
  bottom: "conv5_1"
  top: "conv5_2"
  param {
    lr_mult: 1
    decay_mult: 1
  }
  param {
    lr_mult: 2
    decay_mult: 0
  }
  convolution_param {
    num_output: 512
    pad: 1
    kernel_size: 3
    weight_filler {
      type: "xavier"
    }
    bias_filler {
      type: "constant"
      value: 0
    }
    dilation: 1
  }
}
layer {
  name: "relu5_2"
  type: "ReLU"
  bottom: "conv5_2"
  top: "conv5_2"
}
layer {
  name: "conv5_3"
  type: "Convolution"
  bottom: "conv5_2"
  top: "conv5_3"
  param {
    lr_mult: 1
    decay_mult: 1
  }
  param {
    lr_mult: 2
    decay_mult: 0
  }
  convolution_param {
    num_output: 512
    pad: 1
    kernel_size: 3
    weight_filler {
      type: "xavier"
    }
    bias_filler {
      type: "constant"
      value: 0
    }
    dilation: 1
  }
}
layer {
  name: "relu5_3"
  type: "ReLU"
  bottom: "conv5_3"
  top: "conv5_3"
}
layer {
  name: "pool5"
  type: "Pooling"
  bottom: "conv5_3"
  top: "pool5"
  pooling_param {
    pool: MAX
    kernel_size: 3
    stride: 1
    pad: 1
  }
}
layer {
  name: "fc6"
  type: "Convolution"
  bottom: "pool5"
  top: "fc6"
  param {
    lr_mult: 1
    decay_mult: 1
  }
  param {
    lr_mult: 2
    decay_mult: 0
  }
  convolution_param {
    num_output: 1024
    pad: 6
    kernel_size: 3
    weight_filler {
      type: "xavier"
    }
    bias_filler {
      type: "constant"
      value: 0
    }
    dilation: 6
  }
}
layer {
  name: "relu6"
  type: "ReLU"
  bottom: "fc6"
  top: "fc6"
}
layer {
  name: "fc7"
  type: "Convolution"
  bottom: "fc6"
  top: "fc7"
  param {
    lr_mult: 1
    decay_mult: 1
  }
  param {
    lr_mult: 2
    decay_mult: 0
  }
  convolution_param {
    num_output: 1024
    kernel_size: 1
    weight_filler {
      type: "xavier"
    }
    bias_filler {
      type: "constant"
      value: 0
    }
  }
}
layer {
  name: "relu7"
  type: "ReLU"
  bottom: "fc7"
  top: "fc7"
}
layer {
  name: "conv6_1"
  type: "Convolution"
  bottom: "fc7"
  top: "conv6_1"
  param {
    lr_mult: 1
    decay_mult: 1
  }
  param {
    lr_mult: 2
    decay_mult: 0
  }
  convolution_param {
    num_output: 256
    pad: 0
    kernel_size: 1
    stride: 1
    weight_filler {
      type: "xavier"
    }
    bias_filler {
      type: "constant"
      value: 0
    }
  }
}
layer {
  name: "conv6_1_relu"
  type: "ReLU"
  bottom: "conv6_1"
  top: "conv6_1"
}
layer {
  name: "conv6_2"
  type: "Convolution"
  bottom: "conv6_1"
  top: "conv6_2"
  param {
    lr_mult: 1
    decay_mult: 1
  }
  param {
    lr_mult: 2
    decay_mult: 0
  }
  convolution_param {
    num_output: 512
    pad: 1
    kernel_size: 3
    stride: 2
    weight_filler {
      type: "xavier"
    }
    bias_filler {
      type: "constant"
      value: 0
    }
  }
}
layer {
  name: "conv6_2_relu"
  type: "ReLU"
  bottom: "conv6_2"
  top: "conv6_2"
}
layer {
  name: "conv7_1"
  type: "Convolution"
  bottom: "conv6_2"
  top: "conv7_1"
  param {
    lr_mult: 1
    decay_mult: 1
  }
  param {
    lr_mult: 2
    decay_mult: 0
  }
  convolution_param {
    num_output: 128
    pad: 0
    kernel_size: 1
    stride: 1
    weight_filler {
      type: "xavier"
    }
    bias_filler {
      type: "constant"
      value: 0
    }
  }
}
layer {
  name: "conv7_1_relu"
  type: "ReLU"
  bottom: "conv7_1"
  top: "conv7_1"
}
layer {
  name: "conv7_2"
  type: "Convolution"
  bottom: "conv7_1"
  top: "conv7_2"
  param {
    lr_mult: 1
    decay_mult: 1
  }
  param {
    lr_mult: 2
    decay_mult: 0
  }
  convolution_param {
    num_output: 256
    pad: 1
    kernel_size: 3
    stride: 2
    weight_filler {
      type: "xavier"
    }
    bias_filler {
      type: "constant"
      value: 0
    }
  }
}
layer {
  name: "conv7_2_relu"
  type: "ReLU"
  bottom: "conv7_2"
  top: "conv7_2"
}
layer {
  name: "conv8_1"
  type: "Convolution"
  bottom: "conv7_2"
  top: "conv8_1"
  param {
    lr_mult: 1
    decay_mult: 1
  }
  param {
    lr_mult: 2
    decay_mult: 0
  }
  convolution_param {
    num_output: 128
    pad: 0
    kernel_size: 1
    stride: 1
    weight_filler {
      type: "xavier"
    }
    bias_filler {
      type: "constant"
      value: 0
    }
  }
}
layer {
  name: "conv8_1_relu"
  type: "ReLU"
  bottom: "conv8_1"
  top: "conv8_1"
}
layer {
  name: "conv8_2"
  type: "Convolution"
  bottom: "conv8_1"
  top: "conv8_2"
  param {
    lr_mult: 1
    decay_mult: 1
  }
  param {
    lr_mult: 2
    decay_mult: 0
  }
  convolution_param {
    num_output: 256
    pad: 0
    kernel_size: 3
    stride: 1
    weight_filler {
      type: "xavier"
    }
    bias_filler {
      type: "constant"
      value: 0
    }
  }
}
layer {
  name: "conv8_2_relu"
  type: "ReLU"
  bottom: "conv8_2"
  top: "conv8_2"
}
layer {
  name: "conv9_1"
  type: "Convolution"
  bottom: "conv8_2"
  top: "conv9_1"
  param {
    lr_mult: 1
    decay_mult: 1
  }
  param {
    lr_mult: 2
    decay_mult: 0
  }
  convolution_param {
    num_output: 128
    pad: 0
    kernel_size: 1
    stride: 1
    weight_filler {
      type: "xavier"
    }
    bias_filler {
      type: "constant"
      value: 0
    }
  }
}
layer {
  name: "conv9_1_relu"
  type: "ReLU"
  bottom: "conv9_1"
  top: "conv9_1"
}
layer {
  name: "conv9_2"
  type: "Convolution"
  bottom: "conv9_1"
  top: "conv9_2"
  param {
    lr_mult: 1
    decay_mult: 1
  }
  param {
    lr_mult: 2
    decay_mult: 0
  }
  convolution_param {
    num_output: 256
    pad: 0
    kernel_size: 3
    stride: 1
    weight_filler {
      type: "xavier"
    }
    bias_filler {
      type: "constant"
      value: 0
    }
  }
}
layer {
  name: "conv9_2_relu"
  type: "ReLU"
  bottom: "conv9_2"
  top: "conv9_2"
}
layer {
  name: "conv4_3_norm"
  type: "Normalize"
  bottom: "conv4_3"
  top: "conv4_3_norm"
  norm_param {
    across_spatial: false
    scale_filler {
      type: "constant"
      value: 20
    }
    channel_shared: false
  }
}
layer {
  name: "conv4_3_norm_mbox_loc"
  type: "Convolution"
  bottom: "conv4_3_norm"
  top: "conv4_3_norm_mbox_loc"
  param {
    lr_mult: 1
    decay_mult: 1
  }
  param {
    lr_mult: 2
    decay_mult: 0
  }
  convolution_param {
    num_output: 16
    pad: 1
    kernel_size: 3
    stride: 1
    weight_filler {
      type: "xavier"
    }
    bias_filler {
      type: "constant"
      value: 0
    }
  }
}
layer {
  name: "conv4_3_norm_mbox_loc_perm"
  type: "Permute"
  bottom: "conv4_3_norm_mbox_loc"
  top: "conv4_3_norm_mbox_loc_perm"
  permute_param {
    order: 0
    order: 2
    order: 3
    order: 1
  }
}
layer {
  name: "conv4_3_norm_mbox_loc_flat"
  type: "Flatten"
  bottom: "conv4_3_norm_mbox_loc_perm"
  top: "conv4_3_norm_mbox_loc_flat"
  flatten_param {
    axis: 1
  }
}
layer {
  name: "conv4_3_norm_mbox_conf"
  type: "Convolution"
  bottom: "conv4_3_norm"
  top: "conv4_3_norm_mbox_conf"
  param {
    lr_mult: 1
    decay_mult: 1
  }
  param {
    lr_mult: 2
    decay_mult: 0
  }
  convolution_param {
    num_output: 16
    pad: 1
    kernel_size: 3
    stride: 1
    weight_filler {
      type: "xavier"
    }
    bias_filler {
      type: "constant"
      value: 0
    }
  }
}
layer {
  name: "conv4_3_norm_mbox_conf_perm"
  type: "Permute"
  bottom: "conv4_3_norm_mbox_conf"
  top: "conv4_3_norm_mbox_conf_perm"
  permute_param {
    order: 0
    order: 2
    order: 3
    order: 1
  }
}
layer {
  name: "conv4_3_norm_mbox_conf_flat"
  type: "Flatten"
  bottom: "conv4_3_norm_mbox_conf_perm"
  top: "conv4_3_norm_mbox_conf_flat"
  flatten_param {
    axis: 1
  }
}
layer {
  name: "conv4_3_norm_mbox_priorbox"
  type: "PriorBox"
  bottom: "conv4_3_norm"
  bottom: "data"
  top: "conv4_3_norm_mbox_priorbox"
  prior_box_param {
    min_size: 30
    max_size: 60
    aspect_ratio: 2
    flip: true
    clip: false
    variance: 0.1
    variance: 0.1
    variance: 0.2
    variance: 0.2
    step: 8
    offset: 0.5
  }
}
layer {
  name: "fc7_mbox_loc"
  type: "Convolution"
  bottom: "fc7"
  top: "fc7_mbox_loc"
  param {
    lr_mult: 1
    decay_mult: 1
  }
  param {
    lr_mult: 2
    decay_mult: 0
  }
  convolution_param {
    num_output: 24
    pad: 1
    kernel_size: 3
    stride: 1
    weight_filler {
      type: "xavier"
    }
    bias_filler {
      type: "constant"
      value: 0
    }
  }
}
layer {
  name: "fc7_mbox_loc_perm"
  type: "Permute"
  bottom: "fc7_mbox_loc"
  top: "fc7_mbox_loc_perm"
  permute_param {
    order: 0
    order: 2
    order: 3
    order: 1
  }
}
layer {
  name: "fc7_mbox_loc_flat"
  type: "Flatten"
  bottom: "fc7_mbox_loc_perm"
  top: "fc7_mbox_loc_flat"
  flatten_param {
    axis: 1
  }
}
layer {
  name: "fc7_mbox_conf"
  type: "Convolution"
  bottom: "fc7"
  top: "fc7_mbox_conf"
  param {
    lr_mult: 1
    decay_mult: 1
  }
  param {
    lr_mult: 2
    decay_mult: 0
  }
  convolution_param {
    num_output: 24
    pad: 1
    kernel_size: 3
    stride: 1
    weight_filler {
      type: "xavier"
    }
    bias_filler {
      type: "constant"
      value: 0
    }
  }
}
layer {
  name: "fc7_mbox_conf_perm"
  type: "Permute"
  bottom: "fc7_mbox_conf"
  top: "fc7_mbox_conf_perm"
  permute_param {
    order: 0
    order: 2
    order: 3
    order: 1
  }
}
layer {
  name: "fc7_mbox_conf_flat"
  type: "Flatten"
  bottom: "fc7_mbox_conf_perm"
  top: "fc7_mbox_conf_flat"
  flatten_param {
    axis: 1
  }
}
layer {
  name: "fc7_mbox_priorbox"
  type: "PriorBox"
  bottom: "fc7"
  bottom: "data"
  top: "fc7_mbox_priorbox"
  prior_box_param {
    min_size: 60
    max_size: 111
    aspect_ratio: 2
    aspect_ratio: 3
    flip: true
    clip: false
    variance: 0.1
    variance: 0.1
    variance: 0.2
    variance: 0.2
    step: 16
    offset: 0.5
  }
}
layer {
  name: "conv6_2_mbox_loc"
  type: "Convolution"
  bottom: "conv6_2"
  top: "conv6_2_mbox_loc"
  param {
    lr_mult: 1
    decay_mult: 1
  }
  param {
    lr_mult: 2
    decay_mult: 0
  }
  convolution_param {
    num_output: 24
    pad: 1
    kernel_size: 3
    stride: 1
    weight_filler {
      type: "xavier"
    }
    bias_filler {
      type: "constant"
      value: 0
    }
  }
}
layer {
  name: "conv6_2_mbox_loc_perm"
  type: "Permute"
  bottom: "conv6_2_mbox_loc"
  top: "conv6_2_mbox_loc_perm"
  permute_param {
    order: 0
    order: 2
    order: 3
    order: 1
  }
}
layer {
  name: "conv6_2_mbox_loc_flat"
  type: "Flatten"
  bottom: "conv6_2_mbox_loc_perm"
  top: "conv6_2_mbox_loc_flat"
  flatten_param {
    axis: 1
  }
}
layer {
  name: "conv6_2_mbox_conf"
  type: "Convolution"
  bottom: "conv6_2"
  top: "conv6_2_mbox_conf"
  param {
    lr_mult: 1
    decay_mult: 1
  }
  param {
    lr_mult: 2
    decay_mult: 0
  }
  convolution_param {
    num_output: 24
    pad: 1
    kernel_size: 3
    stride: 1
    weight_filler {
      type: "xavier"
    }
    bias_filler {
      type: "constant"
      value: 0
    }
  }
}
layer {
  name: "conv6_2_mbox_conf_perm"
  type: "Permute"
  bottom: "conv6_2_mbox_conf"
  top: "conv6_2_mbox_conf_perm"
  permute_param {
    order: 0
    order: 2
    order: 3
    order: 1
  }
}
layer {
  name: "conv6_2_mbox_conf_flat"
  type: "Flatten"
  bottom: "conv6_2_mbox_conf_perm"
  top: "conv6_2_mbox_conf_flat"
  flatten_param {
    axis: 1
  }
}
layer {
  name: "conv6_2_mbox_priorbox"
  type: "PriorBox"
  bottom: "conv6_2"
  bottom: "data"
  top: "conv6_2_mbox_priorbox"
  prior_box_param {
    min_size: 111
    max_size: 162
    aspect_ratio: 2
    aspect_ratio: 3
    flip: true
    clip: false
    variance: 0.1
    variance: 0.1
    variance: 0.2
    variance: 0.2
    step: 32
    offset: 0.5
  }
}
layer {
  name: "conv7_2_mbox_loc"
  type: "Convolution"
  bottom: "conv7_2"
  top: "conv7_2_mbox_loc"
  param {
    lr_mult: 1
    decay_mult: 1
  }
  param {
    lr_mult: 2
    decay_mult: 0
  }
  convolution_param {
    num_output: 24
    pad: 1
    kernel_size: 3
    stride: 1
    weight_filler {
      type: "xavier"
    }
    bias_filler {
      type: "constant"
      value: 0
    }
  }
}
layer {
  name: "conv7_2_mbox_loc_perm"
  type: "Permute"
  bottom: "conv7_2_mbox_loc"
  top: "conv7_2_mbox_loc_perm"
  permute_param {
    order: 0
    order: 2
    order: 3
    order: 1
  }
}
layer {
  name: "conv7_2_mbox_loc_flat"
  type: "Flatten"
  bottom: "conv7_2_mbox_loc_perm"
  top: "conv7_2_mbox_loc_flat"
  flatten_param {
    axis: 1
  }
}
layer {
  name: "conv7_2_mbox_conf"
  type: "Convolution"
  bottom: "conv7_2"
  top: "conv7_2_mbox_conf"
  param {
    lr_mult: 1
    decay_mult: 1
  }
  param {
    lr_mult: 2
    decay_mult: 0
  }
  convolution_param {
    num_output: 24
    pad: 1
    kernel_size: 3
    stride: 1
    weight_filler {
      type: "xavier"
    }
    bias_filler {
      type: "constant"
      value: 0
    }
  }
}
layer {
  name: "conv7_2_mbox_conf_perm"
  type: "Permute"
  bottom: "conv7_2_mbox_conf"
  top: "conv7_2_mbox_conf_perm"
  permute_param {
    order: 0
    order: 2
    order: 3
    order: 1
  }
}
layer {
  name: "conv7_2_mbox_conf_flat"
  type: "Flatten"
  bottom: "conv7_2_mbox_conf_perm"
  top: "conv7_2_mbox_conf_flat"
  flatten_param {
    axis: 1
  }
}
layer {
  name: "conv7_2_mbox_priorbox"
  type: "PriorBox"
  bottom: "conv7_2"
  bottom: "data"
  top: "conv7_2_mbox_priorbox"
  prior_box_param {
    min_size: 162
    max_size: 213
    aspect_ratio: 2
    aspect_ratio: 3
    flip: true
    clip: false
    variance: 0.1
    variance: 0.1
    variance: 0.2
    variance: 0.2
    step: 64
    offset: 0.5
  }
}
layer {
  name: "conv8_2_mbox_loc"
  type: "Convolution"
  bottom: "conv8_2"
  top: "conv8_2_mbox_loc"
  param {
    lr_mult: 1
    decay_mult: 1
  }
  param {
    lr_mult: 2
    decay_mult: 0
  }
  convolution_param {
    num_output: 16
    pad: 1
    kernel_size: 3
    stride: 1
    weight_filler {
      type: "xavier"
    }
    bias_filler {
      type: "constant"
      value: 0
    }
  }
}
layer {
  name: "conv8_2_mbox_loc_perm"
  type: "Permute"
  bottom: "conv8_2_mbox_loc"
  top: "conv8_2_mbox_loc_perm"
  permute_param {
    order: 0
    order: 2
    order: 3
    order: 1
  }
}
layer {
  name: "conv8_2_mbox_loc_flat"
  type: "Flatten"
  bottom: "conv8_2_mbox_loc_perm"
  top: "conv8_2_mbox_loc_flat"
  flatten_param {
    axis: 1
  }
}
layer {
  name: "conv8_2_mbox_conf"
  type: "Convolution"
  bottom: "conv8_2"
  top: "conv8_2_mbox_conf"
  param {
    lr_mult: 1
    decay_mult: 1
  }
  param {
    lr_mult: 2
    decay_mult: 0
  }
  convolution_param {
    num_output: 16
    pad: 1
    kernel_size: 3
    stride: 1
    weight_filler {
      type: "xavier"
    }
    bias_filler {
      type: "constant"
      value: 0
    }
  }
}
layer {
  name: "conv8_2_mbox_conf_perm"
  type: "Permute"
  bottom: "conv8_2_mbox_conf"
  top: "conv8_2_mbox_conf_perm"
  permute_param {
    order: 0
    order: 2
    order: 3
    order: 1
  }
}
layer {
  name: "conv8_2_mbox_conf_flat"
  type: "Flatten"
  bottom: "conv8_2_mbox_conf_perm"
  top: "conv8_2_mbox_conf_flat"
  flatten_param {
    axis: 1
  }
}
layer {
  name: "conv8_2_mbox_priorbox"
  type: "PriorBox"
  bottom: "conv8_2"
  bottom: "data"
  top: "conv8_2_mbox_priorbox"
  prior_box_param {
    min_size: 213
    max_size: 264
    aspect_ratio: 2
    flip: true
    clip: false
    variance: 0.1
    variance: 0.1
    variance: 0.2
    variance: 0.2
    step: 100
    offset: 0.5
  }
}
layer {
  name: "conv9_2_mbox_loc"
  type: "Convolution"
  bottom: "conv9_2"
  top: "conv9_2_mbox_loc"
  param {
    lr_mult: 1
    decay_mult: 1
  }
  param {
    lr_mult: 2
    decay_mult: 0
  }
  convolution_param {
    num_output: 16
    pad: 1
    kernel_size: 3
    stride: 1
    weight_filler {
      type: "xavier"
    }
    bias_filler {
      type: "constant"
      value: 0
    }
  }
}
layer {
  name: "conv9_2_mbox_loc_perm"
  type: "Permute"
  bottom: "conv9_2_mbox_loc"
  top: "conv9_2_mbox_loc_perm"
  permute_param {
    order: 0
    order: 2
    order: 3
    order: 1
  }
}
layer {
  name: "conv9_2_mbox_loc_flat"
  type: "Flatten"
  bottom: "conv9_2_mbox_loc_perm"
  top: "conv9_2_mbox_loc_flat"
  flatten_param {
    axis: 1
  }
}
layer {
  name: "conv9_2_mbox_conf"
  type: "Convolution"
  bottom: "conv9_2"
  top: "conv9_2_mbox_conf"
  param {
    lr_mult: 1
    decay_mult: 1
  }
  param {
    lr_mult: 2
    decay_mult: 0
  }
  convolution_param {
    num_output: 16
    pad: 1
    kernel_size: 3
    stride: 1
    weight_filler {
      type: "xavier"
    }
    bias_filler {
      type: "constant"
      value: 0
    }
  }
}
layer {
  name: "conv9_2_mbox_conf_perm"
  type: "Permute"
  bottom: "conv9_2_mbox_conf"
  top: "conv9_2_mbox_conf_perm"
  permute_param {
    order: 0
    order: 2
    order: 3
    order: 1
  }
}
layer {
  name: "conv9_2_mbox_conf_flat"
  type: "Flatten"
  bottom: "conv9_2_mbox_conf_perm"
  top: "conv9_2_mbox_conf_flat"
  flatten_param {
    axis: 1
  }
}
layer {
  name: "conv9_2_mbox_priorbox"
  type: "PriorBox"
  bottom: "conv9_2"
  bottom: "data"
  top: "conv9_2_mbox_priorbox"
  prior_box_param {
    min_size: 264
    max_size: 315
    aspect_ratio: 2
    flip: true
    clip: false
    variance: 0.1
    variance: 0.1
    variance: 0.2
    variance: 0.2
    step: 300
    offset: 0.5
  }
}
layer {
  name: "mbox_loc"
  type: "Concat"
  bottom: "conv4_3_norm_mbox_loc_flat"
  bottom: "fc7_mbox_loc_flat"
  bottom: "conv6_2_mbox_loc_flat"
  bottom: "conv7_2_mbox_loc_flat"
  bottom: "conv8_2_mbox_loc_flat"
  bottom: "conv9_2_mbox_loc_flat"
  top: "mbox_loc"
  concat_param {
    axis: 1
  }
}
layer {
  name: "mbox_conf"
  type: "Concat"
  bottom: "conv4_3_norm_mbox_conf_flat"
  bottom: "fc7_mbox_conf_flat"
  bottom: "conv6_2_mbox_conf_flat"
  bottom: "conv7_2_mbox_conf_flat"
  bottom: "conv8_2_mbox_conf_flat"
  bottom: "conv9_2_mbox_conf_flat"
  top: "mbox_conf"
  concat_param {
    axis: 1
  }
}
layer {
  name: "mbox_priorbox"
  type: "Concat"
  bottom: "conv4_3_norm_mbox_priorbox"
  bottom: "fc7_mbox_priorbox"
  bottom: "conv6_2_mbox_priorbox"
  bottom: "conv7_2_mbox_priorbox"
  bottom: "conv8_2_mbox_priorbox"
  bottom: "conv9_2_mbox_priorbox"
  top: "mbox_priorbox"
  concat_param {
    axis: 2
  }
}
layer {
  name: "mbox_conf_reshape"
  type: "Reshape"
  bottom: "mbox_conf"
  top: "mbox_conf_reshape"
  reshape_param {
    shape {
      dim: 0
      dim: -1
      dim: 4
    }
  }
}
layer {
  name: "mbox_conf_softmax"
  type: "Softmax"
  bottom: "mbox_conf_reshape"
  top: "mbox_conf_softmax"
  softmax_param {
    axis: 2
  }
}
layer {
  name: "mbox_conf_flatten"
  type: "Flatten"
  bottom: "mbox_conf_softmax"
  top: "mbox_conf_flatten"
  flatten_param {
    axis: 1
  }
}
layer {
  name: "detection_out"
  type: "DetectionOutput"
  bottom: "mbox_loc"
  bottom: "mbox_conf_flatten"
  bottom: "mbox_priorbox"
  top: "detection_out"
  include {
    phase: TEST
  }
  detection_output_param {
    num_classes: 4
    share_location: true
    background_label_id: 0
    nms_param {
      nms_threshold: 0.45
      top_k: 400
    }
    save_output_param {
      output_directory: "/home/shangzw/data/tbs/results/tbs/SSD_300x300/Main"
      output_name_prefix: "comp4_det_test_"
      output_format: "VOC"
      label_map_file: "data/tbs_300x300_HSIL_10x/labelmap_voc.prototxt"
      name_size_file: "data/VOC0712/test_name_size.txt"
      num_test_image: 100
    }
    code_type: CENTER_SIZE
    keep_top_k: 200
    confidence_threshold: 0.01
  }
}
layer {
  name: "detection_eval"
  type: "DetectionEvaluate"
  bottom: "detection_out"
  bottom: "label"
  top: "detection_eval"
  include {
    phase: TEST
  }
  detection_evaluate_param {
    num_classes: 4
    background_label_id: 0
    overlap_threshold: 0.5
    evaluate_difficult_gt: false
    name_size_file: "data/VOC0712/test_name_size.txt"
  }
}
I0602 13:04:28.685083 29350 layer_factory.hpp:77] Creating layer data
I0602 13:04:28.685228 29350 net.cpp:100] Creating Layer data
I0602 13:04:28.685236 29350 net.cpp:408] data -> data
I0602 13:04:28.685245 29350 net.cpp:408] data -> label
I0602 13:04:28.686780 29369 db_lmdb.cpp:35] Opened lmdb examples/tbs_300x300_HSIL_10x/tbs_300x300_HSIL_10x_test_lmdb
I0602 13:04:28.687734 29350 annotated_data_layer.cpp:62] output data size: 4,3,300,300
I0602 13:04:28.699517 29350 net.cpp:150] Setting up data
I0602 13:04:28.699537 29350 net.cpp:157] Top shape: 4 3 300 300 (1080000)
I0602 13:04:28.699554 29350 net.cpp:157] Top shape: 1 1 1 8 (8)
I0602 13:04:28.699556 29350 net.cpp:165] Memory required for data: 4320032
I0602 13:04:28.699561 29350 layer_factory.hpp:77] Creating layer data_data_0_split
I0602 13:04:28.699573 29350 net.cpp:100] Creating Layer data_data_0_split
I0602 13:04:28.699579 29350 net.cpp:434] data_data_0_split <- data
I0602 13:04:28.699585 29350 net.cpp:408] data_data_0_split -> data_data_0_split_0
I0602 13:04:28.699597 29350 net.cpp:408] data_data_0_split -> data_data_0_split_1
I0602 13:04:28.699604 29350 net.cpp:408] data_data_0_split -> data_data_0_split_2
I0602 13:04:28.699612 29350 net.cpp:408] data_data_0_split -> data_data_0_split_3
I0602 13:04:28.699620 29350 net.cpp:408] data_data_0_split -> data_data_0_split_4
I0602 13:04:28.699626 29350 net.cpp:408] data_data_0_split -> data_data_0_split_5
I0602 13:04:28.699632 29350 net.cpp:408] data_data_0_split -> data_data_0_split_6
I0602 13:04:28.699837 29350 net.cpp:150] Setting up data_data_0_split
I0602 13:04:28.699848 29350 net.cpp:157] Top shape: 4 3 300 300 (1080000)
I0602 13:04:28.699856 29350 net.cpp:157] Top shape: 4 3 300 300 (1080000)
I0602 13:04:28.699862 29350 net.cpp:157] Top shape: 4 3 300 300 (1080000)
I0602 13:04:28.699867 29350 net.cpp:157] Top shape: 4 3 300 300 (1080000)
I0602 13:04:28.699873 29350 net.cpp:157] Top shape: 4 3 300 300 (1080000)
I0602 13:04:28.699890 29350 net.cpp:157] Top shape: 4 3 300 300 (1080000)
I0602 13:04:28.699898 29350 net.cpp:157] Top shape: 4 3 300 300 (1080000)
I0602 13:04:28.699903 29350 net.cpp:165] Memory required for data: 34560032
I0602 13:04:28.699906 29350 layer_factory.hpp:77] Creating layer conv1_1
I0602 13:04:28.699921 29350 net.cpp:100] Creating Layer conv1_1
I0602 13:04:28.699926 29350 net.cpp:434] conv1_1 <- data_data_0_split_0
I0602 13:04:28.699935 29350 net.cpp:408] conv1_1 -> conv1_1
I0602 13:04:28.703171 29350 net.cpp:150] Setting up conv1_1
I0602 13:04:28.703191 29350 net.cpp:157] Top shape: 4 64 300 300 (23040000)
I0602 13:04:28.703196 29350 net.cpp:165] Memory required for data: 126720032
I0602 13:04:28.703210 29350 layer_factory.hpp:77] Creating layer relu1_1
I0602 13:04:28.703219 29350 net.cpp:100] Creating Layer relu1_1
I0602 13:04:28.703227 29350 net.cpp:434] relu1_1 <- conv1_1
I0602 13:04:28.703233 29350 net.cpp:395] relu1_1 -> conv1_1 (in-place)
I0602 13:04:28.703475 29350 net.cpp:150] Setting up relu1_1
I0602 13:04:28.703485 29350 net.cpp:157] Top shape: 4 64 300 300 (23040000)
I0602 13:04:28.703486 29350 net.cpp:165] Memory required for data: 218880032
I0602 13:04:28.703488 29350 layer_factory.hpp:77] Creating layer conv1_2
I0602 13:04:28.703500 29350 net.cpp:100] Creating Layer conv1_2
I0602 13:04:28.703503 29350 net.cpp:434] conv1_2 <- conv1_1
I0602 13:04:28.703510 29350 net.cpp:408] conv1_2 -> conv1_2
I0602 13:04:28.705257 29350 net.cpp:150] Setting up conv1_2
I0602 13:04:28.705276 29350 net.cpp:157] Top shape: 4 64 300 300 (23040000)
I0602 13:04:28.705279 29350 net.cpp:165] Memory required for data: 311040032
I0602 13:04:28.705289 29350 layer_factory.hpp:77] Creating layer relu1_2
I0602 13:04:28.705298 29350 net.cpp:100] Creating Layer relu1_2
I0602 13:04:28.705305 29350 net.cpp:434] relu1_2 <- conv1_2
I0602 13:04:28.705312 29350 net.cpp:395] relu1_2 -> conv1_2 (in-place)
I0602 13:04:28.706094 29350 net.cpp:150] Setting up relu1_2
I0602 13:04:28.706110 29350 net.cpp:157] Top shape: 4 64 300 300 (23040000)
I0602 13:04:28.706115 29350 net.cpp:165] Memory required for data: 403200032
I0602 13:04:28.706120 29350 layer_factory.hpp:77] Creating layer pool1
I0602 13:04:28.706128 29350 net.cpp:100] Creating Layer pool1
I0602 13:04:28.706133 29350 net.cpp:434] pool1 <- conv1_2
I0602 13:04:28.706141 29350 net.cpp:408] pool1 -> pool1
I0602 13:04:28.706219 29350 net.cpp:150] Setting up pool1
I0602 13:04:28.706228 29350 net.cpp:157] Top shape: 4 64 150 150 (5760000)
I0602 13:04:28.706231 29350 net.cpp:165] Memory required for data: 426240032
I0602 13:04:28.706236 29350 layer_factory.hpp:77] Creating layer conv2_1
I0602 13:04:28.706251 29350 net.cpp:100] Creating Layer conv2_1
I0602 13:04:28.706256 29350 net.cpp:434] conv2_1 <- pool1
I0602 13:04:28.706264 29350 net.cpp:408] conv2_1 -> conv2_1
I0602 13:04:28.708662 29350 net.cpp:150] Setting up conv2_1
I0602 13:04:28.708686 29350 net.cpp:157] Top shape: 4 128 150 150 (11520000)
I0602 13:04:28.708690 29350 net.cpp:165] Memory required for data: 472320032
I0602 13:04:28.708706 29350 layer_factory.hpp:77] Creating layer relu2_1
I0602 13:04:28.708720 29350 net.cpp:100] Creating Layer relu2_1
I0602 13:04:28.708725 29350 net.cpp:434] relu2_1 <- conv2_1
I0602 13:04:28.708732 29350 net.cpp:395] relu2_1 -> conv2_1 (in-place)
I0602 13:04:28.709568 29350 net.cpp:150] Setting up relu2_1
I0602 13:04:28.709583 29350 net.cpp:157] Top shape: 4 128 150 150 (11520000)
I0602 13:04:28.709586 29350 net.cpp:165] Memory required for data: 518400032
I0602 13:04:28.709591 29350 layer_factory.hpp:77] Creating layer conv2_2
I0602 13:04:28.709605 29350 net.cpp:100] Creating Layer conv2_2
I0602 13:04:28.709611 29350 net.cpp:434] conv2_2 <- conv2_1
I0602 13:04:28.709619 29350 net.cpp:408] conv2_2 -> conv2_2
I0602 13:04:28.712985 29350 net.cpp:150] Setting up conv2_2
I0602 13:04:28.713003 29350 net.cpp:157] Top shape: 4 128 150 150 (11520000)
I0602 13:04:28.713006 29350 net.cpp:165] Memory required for data: 564480032
I0602 13:04:28.713016 29350 layer_factory.hpp:77] Creating layer relu2_2
I0602 13:04:28.713043 29350 net.cpp:100] Creating Layer relu2_2
I0602 13:04:28.713049 29350 net.cpp:434] relu2_2 <- conv2_2
I0602 13:04:28.713057 29350 net.cpp:395] relu2_2 -> conv2_2 (in-place)
I0602 13:04:28.713232 29350 net.cpp:150] Setting up relu2_2
I0602 13:04:28.713239 29350 net.cpp:157] Top shape: 4 128 150 150 (11520000)
I0602 13:04:28.713243 29350 net.cpp:165] Memory required for data: 610560032
I0602 13:04:28.713246 29350 layer_factory.hpp:77] Creating layer pool2
I0602 13:04:28.713254 29350 net.cpp:100] Creating Layer pool2
I0602 13:04:28.713259 29350 net.cpp:434] pool2 <- conv2_2
I0602 13:04:28.713268 29350 net.cpp:408] pool2 -> pool2
I0602 13:04:28.713325 29350 net.cpp:150] Setting up pool2
I0602 13:04:28.713331 29350 net.cpp:157] Top shape: 4 128 75 75 (2880000)
I0602 13:04:28.713336 29350 net.cpp:165] Memory required for data: 622080032
I0602 13:04:28.713340 29350 layer_factory.hpp:77] Creating layer conv3_1
I0602 13:04:28.713352 29350 net.cpp:100] Creating Layer conv3_1
I0602 13:04:28.713356 29350 net.cpp:434] conv3_1 <- pool2
I0602 13:04:28.713362 29350 net.cpp:408] conv3_1 -> conv3_1
I0602 13:04:28.716387 29350 net.cpp:150] Setting up conv3_1
I0602 13:04:28.716401 29350 net.cpp:157] Top shape: 4 256 75 75 (5760000)
I0602 13:04:28.716403 29350 net.cpp:165] Memory required for data: 645120032
I0602 13:04:28.716414 29350 layer_factory.hpp:77] Creating layer relu3_1
I0602 13:04:28.716421 29350 net.cpp:100] Creating Layer relu3_1
I0602 13:04:28.716424 29350 net.cpp:434] relu3_1 <- conv3_1
I0602 13:04:28.716429 29350 net.cpp:395] relu3_1 -> conv3_1 (in-place)
I0602 13:04:28.716581 29350 net.cpp:150] Setting up relu3_1
I0602 13:04:28.716588 29350 net.cpp:157] Top shape: 4 256 75 75 (5760000)
I0602 13:04:28.716590 29350 net.cpp:165] Memory required for data: 668160032
I0602 13:04:28.716593 29350 layer_factory.hpp:77] Creating layer conv3_2
I0602 13:04:28.716603 29350 net.cpp:100] Creating Layer conv3_2
I0602 13:04:28.716608 29350 net.cpp:434] conv3_2 <- conv3_1
I0602 13:04:28.716615 29350 net.cpp:408] conv3_2 -> conv3_2
I0602 13:04:28.721793 29350 net.cpp:150] Setting up conv3_2
I0602 13:04:28.721809 29350 net.cpp:157] Top shape: 4 256 75 75 (5760000)
I0602 13:04:28.721812 29350 net.cpp:165] Memory required for data: 691200032
I0602 13:04:28.721819 29350 layer_factory.hpp:77] Creating layer relu3_2
I0602 13:04:28.721827 29350 net.cpp:100] Creating Layer relu3_2
I0602 13:04:28.721832 29350 net.cpp:434] relu3_2 <- conv3_2
I0602 13:04:28.721839 29350 net.cpp:395] relu3_2 -> conv3_2 (in-place)
I0602 13:04:28.723317 29350 net.cpp:150] Setting up relu3_2
I0602 13:04:28.723326 29350 net.cpp:157] Top shape: 4 256 75 75 (5760000)
I0602 13:04:28.723330 29350 net.cpp:165] Memory required for data: 714240032
I0602 13:04:28.723331 29350 layer_factory.hpp:77] Creating layer conv3_3
I0602 13:04:28.723348 29350 net.cpp:100] Creating Layer conv3_3
I0602 13:04:28.723353 29350 net.cpp:434] conv3_3 <- conv3_2
I0602 13:04:28.723362 29350 net.cpp:408] conv3_3 -> conv3_3
I0602 13:04:28.728214 29350 net.cpp:150] Setting up conv3_3
I0602 13:04:28.728229 29350 net.cpp:157] Top shape: 4 256 75 75 (5760000)
I0602 13:04:28.728232 29350 net.cpp:165] Memory required for data: 737280032
I0602 13:04:28.728240 29350 layer_factory.hpp:77] Creating layer relu3_3
I0602 13:04:28.728250 29350 net.cpp:100] Creating Layer relu3_3
I0602 13:04:28.728255 29350 net.cpp:434] relu3_3 <- conv3_3
I0602 13:04:28.728260 29350 net.cpp:395] relu3_3 -> conv3_3 (in-place)
I0602 13:04:28.728428 29350 net.cpp:150] Setting up relu3_3
I0602 13:04:28.728437 29350 net.cpp:157] Top shape: 4 256 75 75 (5760000)
I0602 13:04:28.728440 29350 net.cpp:165] Memory required for data: 760320032
I0602 13:04:28.728441 29350 layer_factory.hpp:77] Creating layer pool3
I0602 13:04:28.728448 29350 net.cpp:100] Creating Layer pool3
I0602 13:04:28.728453 29350 net.cpp:434] pool3 <- conv3_3
I0602 13:04:28.728461 29350 net.cpp:408] pool3 -> pool3
I0602 13:04:28.728508 29350 net.cpp:150] Setting up pool3
I0602 13:04:28.728515 29350 net.cpp:157] Top shape: 4 256 38 38 (1478656)
I0602 13:04:28.728519 29350 net.cpp:165] Memory required for data: 766234656
I0602 13:04:28.728535 29350 layer_factory.hpp:77] Creating layer conv4_1
I0602 13:04:28.728549 29350 net.cpp:100] Creating Layer conv4_1
I0602 13:04:28.728554 29350 net.cpp:434] conv4_1 <- pool3
I0602 13:04:28.728562 29350 net.cpp:408] conv4_1 -> conv4_1
I0602 13:04:28.739403 29350 net.cpp:150] Setting up conv4_1
I0602 13:04:28.739419 29350 net.cpp:157] Top shape: 4 512 38 38 (2957312)
I0602 13:04:28.739423 29350 net.cpp:165] Memory required for data: 778063904
I0602 13:04:28.739428 29350 layer_factory.hpp:77] Creating layer relu4_1
I0602 13:04:28.739437 29350 net.cpp:100] Creating Layer relu4_1
I0602 13:04:28.739441 29350 net.cpp:434] relu4_1 <- conv4_1
I0602 13:04:28.739447 29350 net.cpp:395] relu4_1 -> conv4_1 (in-place)
I0602 13:04:28.740298 29350 net.cpp:150] Setting up relu4_1
I0602 13:04:28.740309 29350 net.cpp:157] Top shape: 4 512 38 38 (2957312)
I0602 13:04:28.740311 29350 net.cpp:165] Memory required for data: 789893152
I0602 13:04:28.740314 29350 layer_factory.hpp:77] Creating layer conv4_2
I0602 13:04:28.740325 29350 net.cpp:100] Creating Layer conv4_2
I0602 13:04:28.740330 29350 net.cpp:434] conv4_2 <- conv4_1
I0602 13:04:28.740339 29350 net.cpp:408] conv4_2 -> conv4_2
I0602 13:04:28.752846 29350 net.cpp:150] Setting up conv4_2
I0602 13:04:28.752866 29350 net.cpp:157] Top shape: 4 512 38 38 (2957312)
I0602 13:04:28.752867 29350 net.cpp:165] Memory required for data: 801722400
I0602 13:04:28.752878 29350 layer_factory.hpp:77] Creating layer relu4_2
I0602 13:04:28.752887 29350 net.cpp:100] Creating Layer relu4_2
I0602 13:04:28.752892 29350 net.cpp:434] relu4_2 <- conv4_2
I0602 13:04:28.752899 29350 net.cpp:395] relu4_2 -> conv4_2 (in-place)
I0602 13:04:28.753618 29350 net.cpp:150] Setting up relu4_2
I0602 13:04:28.753633 29350 net.cpp:157] Top shape: 4 512 38 38 (2957312)
I0602 13:04:28.753635 29350 net.cpp:165] Memory required for data: 813551648
I0602 13:04:28.753639 29350 layer_factory.hpp:77] Creating layer conv4_3
I0602 13:04:28.753651 29350 net.cpp:100] Creating Layer conv4_3
I0602 13:04:28.753657 29350 net.cpp:434] conv4_3 <- conv4_2
I0602 13:04:28.753666 29350 net.cpp:408] conv4_3 -> conv4_3
I0602 13:04:28.766474 29350 net.cpp:150] Setting up conv4_3
I0602 13:04:28.766490 29350 net.cpp:157] Top shape: 4 512 38 38 (2957312)
I0602 13:04:28.766492 29350 net.cpp:165] Memory required for data: 825380896
I0602 13:04:28.766500 29350 layer_factory.hpp:77] Creating layer relu4_3
I0602 13:04:28.766508 29350 net.cpp:100] Creating Layer relu4_3
I0602 13:04:28.766512 29350 net.cpp:434] relu4_3 <- conv4_3
I0602 13:04:28.766520 29350 net.cpp:395] relu4_3 -> conv4_3 (in-place)
I0602 13:04:28.766670 29350 net.cpp:150] Setting up relu4_3
I0602 13:04:28.766679 29350 net.cpp:157] Top shape: 4 512 38 38 (2957312)
I0602 13:04:28.766680 29350 net.cpp:165] Memory required for data: 837210144
I0602 13:04:28.766683 29350 layer_factory.hpp:77] Creating layer conv4_3_relu4_3_0_split
I0602 13:04:28.766687 29350 net.cpp:100] Creating Layer conv4_3_relu4_3_0_split
I0602 13:04:28.766690 29350 net.cpp:434] conv4_3_relu4_3_0_split <- conv4_3
I0602 13:04:28.766695 29350 net.cpp:408] conv4_3_relu4_3_0_split -> conv4_3_relu4_3_0_split_0
I0602 13:04:28.766700 29350 net.cpp:408] conv4_3_relu4_3_0_split -> conv4_3_relu4_3_0_split_1
I0602 13:04:28.766737 29350 net.cpp:150] Setting up conv4_3_relu4_3_0_split
I0602 13:04:28.766741 29350 net.cpp:157] Top shape: 4 512 38 38 (2957312)
I0602 13:04:28.766744 29350 net.cpp:157] Top shape: 4 512 38 38 (2957312)
I0602 13:04:28.766746 29350 net.cpp:165] Memory required for data: 860868640
I0602 13:04:28.766747 29350 layer_factory.hpp:77] Creating layer pool4
I0602 13:04:28.766753 29350 net.cpp:100] Creating Layer pool4
I0602 13:04:28.766757 29350 net.cpp:434] pool4 <- conv4_3_relu4_3_0_split_0
I0602 13:04:28.766759 29350 net.cpp:408] pool4 -> pool4
I0602 13:04:28.766791 29350 net.cpp:150] Setting up pool4
I0602 13:04:28.766796 29350 net.cpp:157] Top shape: 4 512 19 19 (739328)
I0602 13:04:28.766798 29350 net.cpp:165] Memory required for data: 863825952
I0602 13:04:28.766811 29350 layer_factory.hpp:77] Creating layer conv5_1
I0602 13:04:28.766819 29350 net.cpp:100] Creating Layer conv5_1
I0602 13:04:28.766822 29350 net.cpp:434] conv5_1 <- pool4
I0602 13:04:28.766827 29350 net.cpp:408] conv5_1 -> conv5_1
I0602 13:04:28.780030 29350 net.cpp:150] Setting up conv5_1
I0602 13:04:28.780059 29350 net.cpp:157] Top shape: 4 512 19 19 (739328)
I0602 13:04:28.780062 29350 net.cpp:165] Memory required for data: 866783264
I0602 13:04:28.780083 29350 layer_factory.hpp:77] Creating layer relu5_1
I0602 13:04:28.780089 29350 net.cpp:100] Creating Layer relu5_1
I0602 13:04:28.780092 29350 net.cpp:434] relu5_1 <- conv5_1
I0602 13:04:28.780098 29350 net.cpp:395] relu5_1 -> conv5_1 (in-place)
I0602 13:04:28.780251 29350 net.cpp:150] Setting up relu5_1
I0602 13:04:28.780256 29350 net.cpp:157] Top shape: 4 512 19 19 (739328)
I0602 13:04:28.780258 29350 net.cpp:165] Memory required for data: 869740576
I0602 13:04:28.780261 29350 layer_factory.hpp:77] Creating layer conv5_2
I0602 13:04:28.780269 29350 net.cpp:100] Creating Layer conv5_2
I0602 13:04:28.780272 29350 net.cpp:434] conv5_2 <- conv5_1
I0602 13:04:28.780277 29350 net.cpp:408] conv5_2 -> conv5_2
I0602 13:04:28.793377 29350 net.cpp:150] Setting up conv5_2
I0602 13:04:28.793392 29350 net.cpp:157] Top shape: 4 512 19 19 (739328)
I0602 13:04:28.793395 29350 net.cpp:165] Memory required for data: 872697888
I0602 13:04:28.793401 29350 layer_factory.hpp:77] Creating layer relu5_2
I0602 13:04:28.793409 29350 net.cpp:100] Creating Layer relu5_2
I0602 13:04:28.793427 29350 net.cpp:434] relu5_2 <- conv5_2
I0602 13:04:28.793432 29350 net.cpp:395] relu5_2 -> conv5_2 (in-place)
I0602 13:04:28.793602 29350 net.cpp:150] Setting up relu5_2
I0602 13:04:28.793611 29350 net.cpp:157] Top shape: 4 512 19 19 (739328)
I0602 13:04:28.793612 29350 net.cpp:165] Memory required for data: 875655200
I0602 13:04:28.793615 29350 layer_factory.hpp:77] Creating layer conv5_3
I0602 13:04:28.793627 29350 net.cpp:100] Creating Layer conv5_3
I0602 13:04:28.793632 29350 net.cpp:434] conv5_3 <- conv5_2
I0602 13:04:28.793635 29350 net.cpp:408] conv5_3 -> conv5_3
I0602 13:04:28.823801 29350 net.cpp:150] Setting up conv5_3
I0602 13:04:28.823817 29350 net.cpp:157] Top shape: 4 512 19 19 (739328)
I0602 13:04:28.823822 29350 net.cpp:165] Memory required for data: 878612512
I0602 13:04:28.823843 29350 layer_factory.hpp:77] Creating layer relu5_3
I0602 13:04:28.823855 29350 net.cpp:100] Creating Layer relu5_3
I0602 13:04:28.823873 29350 net.cpp:434] relu5_3 <- conv5_3
I0602 13:04:28.823894 29350 net.cpp:395] relu5_3 -> conv5_3 (in-place)
I0602 13:04:28.824954 29350 net.cpp:150] Setting up relu5_3
I0602 13:04:28.824964 29350 net.cpp:157] Top shape: 4 512 19 19 (739328)
I0602 13:04:28.824965 29350 net.cpp:165] Memory required for data: 881569824
I0602 13:04:28.824968 29350 layer_factory.hpp:77] Creating layer pool5
I0602 13:04:28.824990 29350 net.cpp:100] Creating Layer pool5
I0602 13:04:28.824993 29350 net.cpp:434] pool5 <- conv5_3
I0602 13:04:28.824998 29350 net.cpp:408] pool5 -> pool5
I0602 13:04:28.825049 29350 net.cpp:150] Setting up pool5
I0602 13:04:28.825055 29350 net.cpp:157] Top shape: 4 512 19 19 (739328)
I0602 13:04:28.825057 29350 net.cpp:165] Memory required for data: 884527136
I0602 13:04:28.825060 29350 layer_factory.hpp:77] Creating layer fc6
I0602 13:04:28.825072 29350 net.cpp:100] Creating Layer fc6
I0602 13:04:28.825076 29350 net.cpp:434] fc6 <- pool5
I0602 13:04:28.825081 29350 net.cpp:408] fc6 -> fc6
I0602 13:04:28.848683 29350 net.cpp:150] Setting up fc6
I0602 13:04:28.848700 29350 net.cpp:157] Top shape: 4 1024 19 19 (1478656)
I0602 13:04:28.848701 29350 net.cpp:165] Memory required for data: 890441760
I0602 13:04:28.848722 29350 layer_factory.hpp:77] Creating layer relu6
I0602 13:04:28.848729 29350 net.cpp:100] Creating Layer relu6
I0602 13:04:28.848733 29350 net.cpp:434] relu6 <- fc6
I0602 13:04:28.848738 29350 net.cpp:395] relu6 -> fc6 (in-place)
I0602 13:04:28.849733 29350 net.cpp:150] Setting up relu6
I0602 13:04:28.849742 29350 net.cpp:157] Top shape: 4 1024 19 19 (1478656)
I0602 13:04:28.849758 29350 net.cpp:165] Memory required for data: 896356384
I0602 13:04:28.849763 29350 layer_factory.hpp:77] Creating layer fc7
I0602 13:04:28.849776 29350 net.cpp:100] Creating Layer fc7
I0602 13:04:28.849783 29350 net.cpp:434] fc7 <- fc6
I0602 13:04:28.849792 29350 net.cpp:408] fc7 -> fc7
I0602 13:04:28.856390 29350 net.cpp:150] Setting up fc7
I0602 13:04:28.856407 29350 net.cpp:157] Top shape: 4 1024 19 19 (1478656)
I0602 13:04:28.856411 29350 net.cpp:165] Memory required for data: 902271008
I0602 13:04:28.856420 29350 layer_factory.hpp:77] Creating layer relu7
I0602 13:04:28.856428 29350 net.cpp:100] Creating Layer relu7
I0602 13:04:28.856433 29350 net.cpp:434] relu7 <- fc7
I0602 13:04:28.856439 29350 net.cpp:395] relu7 -> fc7 (in-place)
I0602 13:04:28.856581 29350 net.cpp:150] Setting up relu7
I0602 13:04:28.856588 29350 net.cpp:157] Top shape: 4 1024 19 19 (1478656)
I0602 13:04:28.856590 29350 net.cpp:165] Memory required for data: 908185632
I0602 13:04:28.856593 29350 layer_factory.hpp:77] Creating layer fc7_relu7_0_split
I0602 13:04:28.856600 29350 net.cpp:100] Creating Layer fc7_relu7_0_split
I0602 13:04:28.856604 29350 net.cpp:434] fc7_relu7_0_split <- fc7
I0602 13:04:28.856609 29350 net.cpp:408] fc7_relu7_0_split -> fc7_relu7_0_split_0
I0602 13:04:28.856618 29350 net.cpp:408] fc7_relu7_0_split -> fc7_relu7_0_split_1
I0602 13:04:28.856631 29350 net.cpp:408] fc7_relu7_0_split -> fc7_relu7_0_split_2
I0602 13:04:28.856637 29350 net.cpp:408] fc7_relu7_0_split -> fc7_relu7_0_split_3
I0602 13:04:28.856700 29350 net.cpp:150] Setting up fc7_relu7_0_split
I0602 13:04:28.856708 29350 net.cpp:157] Top shape: 4 1024 19 19 (1478656)
I0602 13:04:28.856710 29350 net.cpp:157] Top shape: 4 1024 19 19 (1478656)
I0602 13:04:28.856712 29350 net.cpp:157] Top shape: 4 1024 19 19 (1478656)
I0602 13:04:28.856715 29350 net.cpp:157] Top shape: 4 1024 19 19 (1478656)
I0602 13:04:28.856717 29350 net.cpp:165] Memory required for data: 931844128
I0602 13:04:28.856719 29350 layer_factory.hpp:77] Creating layer conv6_1
I0602 13:04:28.856727 29350 net.cpp:100] Creating Layer conv6_1
I0602 13:04:28.856730 29350 net.cpp:434] conv6_1 <- fc7_relu7_0_split_0
I0602 13:04:28.856736 29350 net.cpp:408] conv6_1 -> conv6_1
I0602 13:04:28.860168 29350 net.cpp:150] Setting up conv6_1
I0602 13:04:28.860180 29350 net.cpp:157] Top shape: 4 256 19 19 (369664)
I0602 13:04:28.860183 29350 net.cpp:165] Memory required for data: 933322784
I0602 13:04:28.860188 29350 layer_factory.hpp:77] Creating layer conv6_1_relu
I0602 13:04:28.860193 29350 net.cpp:100] Creating Layer conv6_1_relu
I0602 13:04:28.860196 29350 net.cpp:434] conv6_1_relu <- conv6_1
I0602 13:04:28.860201 29350 net.cpp:395] conv6_1_relu -> conv6_1 (in-place)
I0602 13:04:28.860342 29350 net.cpp:150] Setting up conv6_1_relu
I0602 13:04:28.860349 29350 net.cpp:157] Top shape: 4 256 19 19 (369664)
I0602 13:04:28.860352 29350 net.cpp:165] Memory required for data: 934801440
I0602 13:04:28.860355 29350 layer_factory.hpp:77] Creating layer conv6_2
I0602 13:04:28.860366 29350 net.cpp:100] Creating Layer conv6_2
I0602 13:04:28.860373 29350 net.cpp:434] conv6_2 <- conv6_1
I0602 13:04:28.860380 29350 net.cpp:408] conv6_2 -> conv6_2
I0602 13:04:28.868484 29350 net.cpp:150] Setting up conv6_2
I0602 13:04:28.868502 29350 net.cpp:157] Top shape: 4 512 10 10 (204800)
I0602 13:04:28.868506 29350 net.cpp:165] Memory required for data: 935620640
I0602 13:04:28.868523 29350 layer_factory.hpp:77] Creating layer conv6_2_relu
I0602 13:04:28.868535 29350 net.cpp:100] Creating Layer conv6_2_relu
I0602 13:04:28.868552 29350 net.cpp:434] conv6_2_relu <- conv6_2
I0602 13:04:28.868561 29350 net.cpp:395] conv6_2_relu -> conv6_2 (in-place)
I0602 13:04:28.868715 29350 net.cpp:150] Setting up conv6_2_relu
I0602 13:04:28.868738 29350 net.cpp:157] Top shape: 4 512 10 10 (204800)
I0602 13:04:28.868741 29350 net.cpp:165] Memory required for data: 936439840
I0602 13:04:28.868743 29350 layer_factory.hpp:77] Creating layer conv6_2_conv6_2_relu_0_split
I0602 13:04:28.868747 29350 net.cpp:100] Creating Layer conv6_2_conv6_2_relu_0_split
I0602 13:04:28.868762 29350 net.cpp:434] conv6_2_conv6_2_relu_0_split <- conv6_2
I0602 13:04:28.868767 29350 net.cpp:408] conv6_2_conv6_2_relu_0_split -> conv6_2_conv6_2_relu_0_split_0
I0602 13:04:28.868774 29350 net.cpp:408] conv6_2_conv6_2_relu_0_split -> conv6_2_conv6_2_relu_0_split_1
I0602 13:04:28.868794 29350 net.cpp:408] conv6_2_conv6_2_relu_0_split -> conv6_2_conv6_2_relu_0_split_2
I0602 13:04:28.868798 29350 net.cpp:408] conv6_2_conv6_2_relu_0_split -> conv6_2_conv6_2_relu_0_split_3
I0602 13:04:28.868863 29350 net.cpp:150] Setting up conv6_2_conv6_2_relu_0_split
I0602 13:04:28.868868 29350 net.cpp:157] Top shape: 4 512 10 10 (204800)
I0602 13:04:28.868871 29350 net.cpp:157] Top shape: 4 512 10 10 (204800)
I0602 13:04:28.868875 29350 net.cpp:157] Top shape: 4 512 10 10 (204800)
I0602 13:04:28.868877 29350 net.cpp:157] Top shape: 4 512 10 10 (204800)
I0602 13:04:28.868880 29350 net.cpp:165] Memory required for data: 939716640
I0602 13:04:28.868881 29350 layer_factory.hpp:77] Creating layer conv7_1
I0602 13:04:28.868891 29350 net.cpp:100] Creating Layer conv7_1
I0602 13:04:28.868894 29350 net.cpp:434] conv7_1 <- conv6_2_conv6_2_relu_0_split_0
I0602 13:04:28.868901 29350 net.cpp:408] conv7_1 -> conv7_1
I0602 13:04:28.870337 29350 net.cpp:150] Setting up conv7_1
I0602 13:04:28.870347 29350 net.cpp:157] Top shape: 4 128 10 10 (51200)
I0602 13:04:28.870349 29350 net.cpp:165] Memory required for data: 939921440
I0602 13:04:28.870354 29350 layer_factory.hpp:77] Creating layer conv7_1_relu
I0602 13:04:28.870358 29350 net.cpp:100] Creating Layer conv7_1_relu
I0602 13:04:28.870360 29350 net.cpp:434] conv7_1_relu <- conv7_1
I0602 13:04:28.870365 29350 net.cpp:395] conv7_1_relu -> conv7_1 (in-place)
I0602 13:04:28.870498 29350 net.cpp:150] Setting up conv7_1_relu
I0602 13:04:28.870504 29350 net.cpp:157] Top shape: 4 128 10 10 (51200)
I0602 13:04:28.870507 29350 net.cpp:165] Memory required for data: 940126240
I0602 13:04:28.870509 29350 layer_factory.hpp:77] Creating layer conv7_2
I0602 13:04:28.870517 29350 net.cpp:100] Creating Layer conv7_2
I0602 13:04:28.870518 29350 net.cpp:434] conv7_2 <- conv7_1
I0602 13:04:28.870524 29350 net.cpp:408] conv7_2 -> conv7_2
I0602 13:04:28.873498 29350 net.cpp:150] Setting up conv7_2
I0602 13:04:28.873512 29350 net.cpp:157] Top shape: 4 256 5 5 (25600)
I0602 13:04:28.873514 29350 net.cpp:165] Memory required for data: 940228640
I0602 13:04:28.873519 29350 layer_factory.hpp:77] Creating layer conv7_2_relu
I0602 13:04:28.873525 29350 net.cpp:100] Creating Layer conv7_2_relu
I0602 13:04:28.873528 29350 net.cpp:434] conv7_2_relu <- conv7_2
I0602 13:04:28.873533 29350 net.cpp:395] conv7_2_relu -> conv7_2 (in-place)
I0602 13:04:28.873668 29350 net.cpp:150] Setting up conv7_2_relu
I0602 13:04:28.873675 29350 net.cpp:157] Top shape: 4 256 5 5 (25600)
I0602 13:04:28.873677 29350 net.cpp:165] Memory required for data: 940331040
I0602 13:04:28.873680 29350 layer_factory.hpp:77] Creating layer conv7_2_conv7_2_relu_0_split
I0602 13:04:28.873685 29350 net.cpp:100] Creating Layer conv7_2_conv7_2_relu_0_split
I0602 13:04:28.873688 29350 net.cpp:434] conv7_2_conv7_2_relu_0_split <- conv7_2
I0602 13:04:28.873692 29350 net.cpp:408] conv7_2_conv7_2_relu_0_split -> conv7_2_conv7_2_relu_0_split_0
I0602 13:04:28.873697 29350 net.cpp:408] conv7_2_conv7_2_relu_0_split -> conv7_2_conv7_2_relu_0_split_1
I0602 13:04:28.873703 29350 net.cpp:408] conv7_2_conv7_2_relu_0_split -> conv7_2_conv7_2_relu_0_split_2
I0602 13:04:28.873708 29350 net.cpp:408] conv7_2_conv7_2_relu_0_split -> conv7_2_conv7_2_relu_0_split_3
I0602 13:04:28.873770 29350 net.cpp:150] Setting up conv7_2_conv7_2_relu_0_split
I0602 13:04:28.873775 29350 net.cpp:157] Top shape: 4 256 5 5 (25600)
I0602 13:04:28.873778 29350 net.cpp:157] Top shape: 4 256 5 5 (25600)
I0602 13:04:28.873781 29350 net.cpp:157] Top shape: 4 256 5 5 (25600)
I0602 13:04:28.873785 29350 net.cpp:157] Top shape: 4 256 5 5 (25600)
I0602 13:04:28.873786 29350 net.cpp:165] Memory required for data: 940740640
I0602 13:04:28.873788 29350 layer_factory.hpp:77] Creating layer conv8_1
I0602 13:04:28.873806 29350 net.cpp:100] Creating Layer conv8_1
I0602 13:04:28.873811 29350 net.cpp:434] conv8_1 <- conv7_2_conv7_2_relu_0_split_0
I0602 13:04:28.873816 29350 net.cpp:408] conv8_1 -> conv8_1
I0602 13:04:28.875069 29350 net.cpp:150] Setting up conv8_1
I0602 13:04:28.875079 29350 net.cpp:157] Top shape: 4 128 5 5 (12800)
I0602 13:04:28.875082 29350 net.cpp:165] Memory required for data: 940791840
I0602 13:04:28.875085 29350 layer_factory.hpp:77] Creating layer conv8_1_relu
I0602 13:04:28.875090 29350 net.cpp:100] Creating Layer conv8_1_relu
I0602 13:04:28.875094 29350 net.cpp:434] conv8_1_relu <- conv8_1
I0602 13:04:28.875098 29350 net.cpp:395] conv8_1_relu -> conv8_1 (in-place)
I0602 13:04:28.875695 29350 net.cpp:150] Setting up conv8_1_relu
I0602 13:04:28.875705 29350 net.cpp:157] Top shape: 4 128 5 5 (12800)
I0602 13:04:28.875707 29350 net.cpp:165] Memory required for data: 940843040
I0602 13:04:28.875710 29350 layer_factory.hpp:77] Creating layer conv8_2
I0602 13:04:28.875716 29350 net.cpp:100] Creating Layer conv8_2
I0602 13:04:28.875720 29350 net.cpp:434] conv8_2 <- conv8_1
I0602 13:04:28.875726 29350 net.cpp:408] conv8_2 -> conv8_2
I0602 13:04:28.878720 29350 net.cpp:150] Setting up conv8_2
I0602 13:04:28.878732 29350 net.cpp:157] Top shape: 4 256 3 3 (9216)
I0602 13:04:28.878734 29350 net.cpp:165] Memory required for data: 940879904
I0602 13:04:28.878741 29350 layer_factory.hpp:77] Creating layer conv8_2_relu
I0602 13:04:28.878746 29350 net.cpp:100] Creating Layer conv8_2_relu
I0602 13:04:28.878751 29350 net.cpp:434] conv8_2_relu <- conv8_2
I0602 13:04:28.878756 29350 net.cpp:395] conv8_2_relu -> conv8_2 (in-place)
I0602 13:04:28.878895 29350 net.cpp:150] Setting up conv8_2_relu
I0602 13:04:28.878902 29350 net.cpp:157] Top shape: 4 256 3 3 (9216)
I0602 13:04:28.878904 29350 net.cpp:165] Memory required for data: 940916768
I0602 13:04:28.878907 29350 layer_factory.hpp:77] Creating layer conv8_2_conv8_2_relu_0_split
I0602 13:04:28.878912 29350 net.cpp:100] Creating Layer conv8_2_conv8_2_relu_0_split
I0602 13:04:28.878916 29350 net.cpp:434] conv8_2_conv8_2_relu_0_split <- conv8_2
I0602 13:04:28.878919 29350 net.cpp:408] conv8_2_conv8_2_relu_0_split -> conv8_2_conv8_2_relu_0_split_0
I0602 13:04:28.878924 29350 net.cpp:408] conv8_2_conv8_2_relu_0_split -> conv8_2_conv8_2_relu_0_split_1
I0602 13:04:28.878931 29350 net.cpp:408] conv8_2_conv8_2_relu_0_split -> conv8_2_conv8_2_relu_0_split_2
I0602 13:04:28.878937 29350 net.cpp:408] conv8_2_conv8_2_relu_0_split -> conv8_2_conv8_2_relu_0_split_3
I0602 13:04:28.879000 29350 net.cpp:150] Setting up conv8_2_conv8_2_relu_0_split
I0602 13:04:28.879006 29350 net.cpp:157] Top shape: 4 256 3 3 (9216)
I0602 13:04:28.879009 29350 net.cpp:157] Top shape: 4 256 3 3 (9216)
I0602 13:04:28.879011 29350 net.cpp:157] Top shape: 4 256 3 3 (9216)
I0602 13:04:28.879014 29350 net.cpp:157] Top shape: 4 256 3 3 (9216)
I0602 13:04:28.879016 29350 net.cpp:165] Memory required for data: 941064224
I0602 13:04:28.879019 29350 layer_factory.hpp:77] Creating layer conv9_1
I0602 13:04:28.879027 29350 net.cpp:100] Creating Layer conv9_1
I0602 13:04:28.879030 29350 net.cpp:434] conv9_1 <- conv8_2_conv8_2_relu_0_split_0
I0602 13:04:28.879035 29350 net.cpp:408] conv9_1 -> conv9_1
I0602 13:04:28.880296 29350 net.cpp:150] Setting up conv9_1
I0602 13:04:28.880306 29350 net.cpp:157] Top shape: 4 128 3 3 (4608)
I0602 13:04:28.880308 29350 net.cpp:165] Memory required for data: 941082656
I0602 13:04:28.880313 29350 layer_factory.hpp:77] Creating layer conv9_1_relu
I0602 13:04:28.880318 29350 net.cpp:100] Creating Layer conv9_1_relu
I0602 13:04:28.880322 29350 net.cpp:434] conv9_1_relu <- conv9_1
I0602 13:04:28.880326 29350 net.cpp:395] conv9_1_relu -> conv9_1 (in-place)
I0602 13:04:28.880460 29350 net.cpp:150] Setting up conv9_1_relu
I0602 13:04:28.880466 29350 net.cpp:157] Top shape: 4 128 3 3 (4608)
I0602 13:04:28.880470 29350 net.cpp:165] Memory required for data: 941101088
I0602 13:04:28.880471 29350 layer_factory.hpp:77] Creating layer conv9_2
I0602 13:04:28.880488 29350 net.cpp:100] Creating Layer conv9_2
I0602 13:04:28.880491 29350 net.cpp:434] conv9_2 <- conv9_1
I0602 13:04:28.880497 29350 net.cpp:408] conv9_2 -> conv9_2
I0602 13:04:28.883482 29350 net.cpp:150] Setting up conv9_2
I0602 13:04:28.883493 29350 net.cpp:157] Top shape: 4 256 1 1 (1024)
I0602 13:04:28.883496 29350 net.cpp:165] Memory required for data: 941105184
I0602 13:04:28.883502 29350 layer_factory.hpp:77] Creating layer conv9_2_relu
I0602 13:04:28.883507 29350 net.cpp:100] Creating Layer conv9_2_relu
I0602 13:04:28.883510 29350 net.cpp:434] conv9_2_relu <- conv9_2
I0602 13:04:28.883515 29350 net.cpp:395] conv9_2_relu -> conv9_2 (in-place)
I0602 13:04:28.883652 29350 net.cpp:150] Setting up conv9_2_relu
I0602 13:04:28.883658 29350 net.cpp:157] Top shape: 4 256 1 1 (1024)
I0602 13:04:28.883661 29350 net.cpp:165] Memory required for data: 941109280
I0602 13:04:28.883663 29350 layer_factory.hpp:77] Creating layer conv9_2_conv9_2_relu_0_split
I0602 13:04:28.883668 29350 net.cpp:100] Creating Layer conv9_2_conv9_2_relu_0_split
I0602 13:04:28.883671 29350 net.cpp:434] conv9_2_conv9_2_relu_0_split <- conv9_2
I0602 13:04:28.883677 29350 net.cpp:408] conv9_2_conv9_2_relu_0_split -> conv9_2_conv9_2_relu_0_split_0
I0602 13:04:28.883682 29350 net.cpp:408] conv9_2_conv9_2_relu_0_split -> conv9_2_conv9_2_relu_0_split_1
I0602 13:04:28.883688 29350 net.cpp:408] conv9_2_conv9_2_relu_0_split -> conv9_2_conv9_2_relu_0_split_2
I0602 13:04:28.883738 29350 net.cpp:150] Setting up conv9_2_conv9_2_relu_0_split
I0602 13:04:28.883744 29350 net.cpp:157] Top shape: 4 256 1 1 (1024)
I0602 13:04:28.883746 29350 net.cpp:157] Top shape: 4 256 1 1 (1024)
I0602 13:04:28.883749 29350 net.cpp:157] Top shape: 4 256 1 1 (1024)
I0602 13:04:28.883751 29350 net.cpp:165] Memory required for data: 941121568
I0602 13:04:28.883754 29350 layer_factory.hpp:77] Creating layer conv4_3_norm
I0602 13:04:28.883759 29350 net.cpp:100] Creating Layer conv4_3_norm
I0602 13:04:28.883764 29350 net.cpp:434] conv4_3_norm <- conv4_3_relu4_3_0_split_1
I0602 13:04:28.883767 29350 net.cpp:408] conv4_3_norm -> conv4_3_norm
I0602 13:04:28.883918 29350 net.cpp:150] Setting up conv4_3_norm
I0602 13:04:28.883922 29350 net.cpp:157] Top shape: 4 512 38 38 (2957312)
I0602 13:04:28.883925 29350 net.cpp:165] Memory required for data: 952950816
I0602 13:04:28.883929 29350 layer_factory.hpp:77] Creating layer conv4_3_norm_conv4_3_norm_0_split
I0602 13:04:28.883934 29350 net.cpp:100] Creating Layer conv4_3_norm_conv4_3_norm_0_split
I0602 13:04:28.883935 29350 net.cpp:434] conv4_3_norm_conv4_3_norm_0_split <- conv4_3_norm
I0602 13:04:28.883939 29350 net.cpp:408] conv4_3_norm_conv4_3_norm_0_split -> conv4_3_norm_conv4_3_norm_0_split_0
I0602 13:04:28.883944 29350 net.cpp:408] conv4_3_norm_conv4_3_norm_0_split -> conv4_3_norm_conv4_3_norm_0_split_1
I0602 13:04:28.883947 29350 net.cpp:408] conv4_3_norm_conv4_3_norm_0_split -> conv4_3_norm_conv4_3_norm_0_split_2
I0602 13:04:28.883991 29350 net.cpp:150] Setting up conv4_3_norm_conv4_3_norm_0_split
I0602 13:04:28.883996 29350 net.cpp:157] Top shape: 4 512 38 38 (2957312)
I0602 13:04:28.883999 29350 net.cpp:157] Top shape: 4 512 38 38 (2957312)
I0602 13:04:28.884001 29350 net.cpp:157] Top shape: 4 512 38 38 (2957312)
I0602 13:04:28.884003 29350 net.cpp:165] Memory required for data: 988438560
I0602 13:04:28.884006 29350 layer_factory.hpp:77] Creating layer conv4_3_norm_mbox_loc
I0602 13:04:28.884012 29350 net.cpp:100] Creating Layer conv4_3_norm_mbox_loc
I0602 13:04:28.884021 29350 net.cpp:434] conv4_3_norm_mbox_loc <- conv4_3_norm_conv4_3_norm_0_split_0
I0602 13:04:28.884027 29350 net.cpp:408] conv4_3_norm_mbox_loc -> conv4_3_norm_mbox_loc
I0602 13:04:28.885964 29350 net.cpp:150] Setting up conv4_3_norm_mbox_loc
I0602 13:04:28.885975 29350 net.cpp:157] Top shape: 4 16 38 38 (92416)
I0602 13:04:28.885978 29350 net.cpp:165] Memory required for data: 988808224
I0602 13:04:28.885983 29350 layer_factory.hpp:77] Creating layer conv4_3_norm_mbox_loc_perm
I0602 13:04:28.885990 29350 net.cpp:100] Creating Layer conv4_3_norm_mbox_loc_perm
I0602 13:04:28.886004 29350 net.cpp:434] conv4_3_norm_mbox_loc_perm <- conv4_3_norm_mbox_loc
I0602 13:04:28.886009 29350 net.cpp:408] conv4_3_norm_mbox_loc_perm -> conv4_3_norm_mbox_loc_perm
I0602 13:04:28.886114 29350 net.cpp:150] Setting up conv4_3_norm_mbox_loc_perm
I0602 13:04:28.886119 29350 net.cpp:157] Top shape: 4 38 38 16 (92416)
I0602 13:04:28.886121 29350 net.cpp:165] Memory required for data: 989177888
I0602 13:04:28.886123 29350 layer_factory.hpp:77] Creating layer conv4_3_norm_mbox_loc_flat
I0602 13:04:28.886129 29350 net.cpp:100] Creating Layer conv4_3_norm_mbox_loc_flat
I0602 13:04:28.886132 29350 net.cpp:434] conv4_3_norm_mbox_loc_flat <- conv4_3_norm_mbox_loc_perm
I0602 13:04:28.886135 29350 net.cpp:408] conv4_3_norm_mbox_loc_flat -> conv4_3_norm_mbox_loc_flat
I0602 13:04:28.886164 29350 net.cpp:150] Setting up conv4_3_norm_mbox_loc_flat
I0602 13:04:28.886170 29350 net.cpp:157] Top shape: 4 23104 (92416)
I0602 13:04:28.886173 29350 net.cpp:165] Memory required for data: 989547552
I0602 13:04:28.886175 29350 layer_factory.hpp:77] Creating layer conv4_3_norm_mbox_conf
I0602 13:04:28.886188 29350 net.cpp:100] Creating Layer conv4_3_norm_mbox_conf
I0602 13:04:28.886191 29350 net.cpp:434] conv4_3_norm_mbox_conf <- conv4_3_norm_conv4_3_norm_0_split_1
I0602 13:04:28.886196 29350 net.cpp:408] conv4_3_norm_mbox_conf -> conv4_3_norm_mbox_conf
I0602 13:04:28.888104 29350 net.cpp:150] Setting up conv4_3_norm_mbox_conf
I0602 13:04:28.888114 29350 net.cpp:157] Top shape: 4 16 38 38 (92416)
I0602 13:04:28.888116 29350 net.cpp:165] Memory required for data: 989917216
I0602 13:04:28.888121 29350 layer_factory.hpp:77] Creating layer conv4_3_norm_mbox_conf_perm
I0602 13:04:28.888126 29350 net.cpp:100] Creating Layer conv4_3_norm_mbox_conf_perm
I0602 13:04:28.888129 29350 net.cpp:434] conv4_3_norm_mbox_conf_perm <- conv4_3_norm_mbox_conf
I0602 13:04:28.888134 29350 net.cpp:408] conv4_3_norm_mbox_conf_perm -> conv4_3_norm_mbox_conf_perm
I0602 13:04:28.888237 29350 net.cpp:150] Setting up conv4_3_norm_mbox_conf_perm
I0602 13:04:28.888242 29350 net.cpp:157] Top shape: 4 38 38 16 (92416)
I0602 13:04:28.888244 29350 net.cpp:165] Memory required for data: 990286880
I0602 13:04:28.888247 29350 layer_factory.hpp:77] Creating layer conv4_3_norm_mbox_conf_flat
I0602 13:04:28.888252 29350 net.cpp:100] Creating Layer conv4_3_norm_mbox_conf_flat
I0602 13:04:28.888253 29350 net.cpp:434] conv4_3_norm_mbox_conf_flat <- conv4_3_norm_mbox_conf_perm
I0602 13:04:28.888258 29350 net.cpp:408] conv4_3_norm_mbox_conf_flat -> conv4_3_norm_mbox_conf_flat
I0602 13:04:28.888279 29350 net.cpp:150] Setting up conv4_3_norm_mbox_conf_flat
I0602 13:04:28.888284 29350 net.cpp:157] Top shape: 4 23104 (92416)
I0602 13:04:28.888286 29350 net.cpp:165] Memory required for data: 990656544
I0602 13:04:28.888288 29350 layer_factory.hpp:77] Creating layer conv4_3_norm_mbox_priorbox
I0602 13:04:28.888294 29350 net.cpp:100] Creating Layer conv4_3_norm_mbox_priorbox
I0602 13:04:28.888298 29350 net.cpp:434] conv4_3_norm_mbox_priorbox <- conv4_3_norm_conv4_3_norm_0_split_2
I0602 13:04:28.888301 29350 net.cpp:434] conv4_3_norm_mbox_priorbox <- data_data_0_split_1
I0602 13:04:28.888306 29350 net.cpp:408] conv4_3_norm_mbox_priorbox -> conv4_3_norm_mbox_priorbox
I0602 13:04:28.888329 29350 net.cpp:150] Setting up conv4_3_norm_mbox_priorbox
I0602 13:04:28.888334 29350 net.cpp:157] Top shape: 1 2 23104 (46208)
I0602 13:04:28.888336 29350 net.cpp:165] Memory required for data: 990841376
I0602 13:04:28.888339 29350 layer_factory.hpp:77] Creating layer fc7_mbox_loc
I0602 13:04:28.888346 29350 net.cpp:100] Creating Layer fc7_mbox_loc
I0602 13:04:28.888350 29350 net.cpp:434] fc7_mbox_loc <- fc7_relu7_0_split_1
I0602 13:04:28.888355 29350 net.cpp:408] fc7_mbox_loc -> fc7_mbox_loc
I0602 13:04:28.890861 29350 net.cpp:150] Setting up fc7_mbox_loc
I0602 13:04:28.890872 29350 net.cpp:157] Top shape: 4 24 19 19 (34656)
I0602 13:04:28.890874 29350 net.cpp:165] Memory required for data: 990980000
I0602 13:04:28.890879 29350 layer_factory.hpp:77] Creating layer fc7_mbox_loc_perm
I0602 13:04:28.890885 29350 net.cpp:100] Creating Layer fc7_mbox_loc_perm
I0602 13:04:28.890898 29350 net.cpp:434] fc7_mbox_loc_perm <- fc7_mbox_loc
I0602 13:04:28.890904 29350 net.cpp:408] fc7_mbox_loc_perm -> fc7_mbox_loc_perm
I0602 13:04:28.891007 29350 net.cpp:150] Setting up fc7_mbox_loc_perm
I0602 13:04:28.891012 29350 net.cpp:157] Top shape: 4 19 19 24 (34656)
I0602 13:04:28.891014 29350 net.cpp:165] Memory required for data: 991118624
I0602 13:04:28.891017 29350 layer_factory.hpp:77] Creating layer fc7_mbox_loc_flat
I0602 13:04:28.891021 29350 net.cpp:100] Creating Layer fc7_mbox_loc_flat
I0602 13:04:28.891024 29350 net.cpp:434] fc7_mbox_loc_flat <- fc7_mbox_loc_perm
I0602 13:04:28.891027 29350 net.cpp:408] fc7_mbox_loc_flat -> fc7_mbox_loc_flat
I0602 13:04:28.891048 29350 net.cpp:150] Setting up fc7_mbox_loc_flat
I0602 13:04:28.891052 29350 net.cpp:157] Top shape: 4 8664 (34656)
I0602 13:04:28.891054 29350 net.cpp:165] Memory required for data: 991257248
I0602 13:04:28.891057 29350 layer_factory.hpp:77] Creating layer fc7_mbox_conf
I0602 13:04:28.891064 29350 net.cpp:100] Creating Layer fc7_mbox_conf
I0602 13:04:28.891067 29350 net.cpp:434] fc7_mbox_conf <- fc7_relu7_0_split_2
I0602 13:04:28.891072 29350 net.cpp:408] fc7_mbox_conf -> fc7_mbox_conf
I0602 13:04:28.893589 29350 net.cpp:150] Setting up fc7_mbox_conf
I0602 13:04:28.893599 29350 net.cpp:157] Top shape: 4 24 19 19 (34656)
I0602 13:04:28.893601 29350 net.cpp:165] Memory required for data: 991395872
I0602 13:04:28.893606 29350 layer_factory.hpp:77] Creating layer fc7_mbox_conf_perm
I0602 13:04:28.893612 29350 net.cpp:100] Creating Layer fc7_mbox_conf_perm
I0602 13:04:28.893616 29350 net.cpp:434] fc7_mbox_conf_perm <- fc7_mbox_conf
I0602 13:04:28.893620 29350 net.cpp:408] fc7_mbox_conf_perm -> fc7_mbox_conf_perm
I0602 13:04:28.893726 29350 net.cpp:150] Setting up fc7_mbox_conf_perm
I0602 13:04:28.893731 29350 net.cpp:157] Top shape: 4 19 19 24 (34656)
I0602 13:04:28.893733 29350 net.cpp:165] Memory required for data: 991534496
I0602 13:04:28.893736 29350 layer_factory.hpp:77] Creating layer fc7_mbox_conf_flat
I0602 13:04:28.893740 29350 net.cpp:100] Creating Layer fc7_mbox_conf_flat
I0602 13:04:28.893743 29350 net.cpp:434] fc7_mbox_conf_flat <- fc7_mbox_conf_perm
I0602 13:04:28.893746 29350 net.cpp:408] fc7_mbox_conf_flat -> fc7_mbox_conf_flat
I0602 13:04:28.893769 29350 net.cpp:150] Setting up fc7_mbox_conf_flat
I0602 13:04:28.893772 29350 net.cpp:157] Top shape: 4 8664 (34656)
I0602 13:04:28.893774 29350 net.cpp:165] Memory required for data: 991673120
I0602 13:04:28.893776 29350 layer_factory.hpp:77] Creating layer fc7_mbox_priorbox
I0602 13:04:28.893795 29350 net.cpp:100] Creating Layer fc7_mbox_priorbox
I0602 13:04:28.893798 29350 net.cpp:434] fc7_mbox_priorbox <- fc7_relu7_0_split_3
I0602 13:04:28.893801 29350 net.cpp:434] fc7_mbox_priorbox <- data_data_0_split_2
I0602 13:04:28.893818 29350 net.cpp:408] fc7_mbox_priorbox -> fc7_mbox_priorbox
I0602 13:04:28.893857 29350 net.cpp:150] Setting up fc7_mbox_priorbox
I0602 13:04:28.893874 29350 net.cpp:157] Top shape: 1 2 8664 (17328)
I0602 13:04:28.893877 29350 net.cpp:165] Memory required for data: 991742432
I0602 13:04:28.893878 29350 layer_factory.hpp:77] Creating layer conv6_2_mbox_loc
I0602 13:04:28.893885 29350 net.cpp:100] Creating Layer conv6_2_mbox_loc
I0602 13:04:28.893890 29350 net.cpp:434] conv6_2_mbox_loc <- conv6_2_conv6_2_relu_0_split_1
I0602 13:04:28.893895 29350 net.cpp:408] conv6_2_mbox_loc -> conv6_2_mbox_loc
I0602 13:04:28.895965 29350 net.cpp:150] Setting up conv6_2_mbox_loc
I0602 13:04:28.895975 29350 net.cpp:157] Top shape: 4 24 10 10 (9600)
I0602 13:04:28.895978 29350 net.cpp:165] Memory required for data: 991780832
I0602 13:04:28.895983 29350 layer_factory.hpp:77] Creating layer conv6_2_mbox_loc_perm
I0602 13:04:28.895988 29350 net.cpp:100] Creating Layer conv6_2_mbox_loc_perm
I0602 13:04:28.895992 29350 net.cpp:434] conv6_2_mbox_loc_perm <- conv6_2_mbox_loc
I0602 13:04:28.895998 29350 net.cpp:408] conv6_2_mbox_loc_perm -> conv6_2_mbox_loc_perm
I0602 13:04:28.896109 29350 net.cpp:150] Setting up conv6_2_mbox_loc_perm
I0602 13:04:28.896124 29350 net.cpp:157] Top shape: 4 10 10 24 (9600)
I0602 13:04:28.896127 29350 net.cpp:165] Memory required for data: 991819232
I0602 13:04:28.896129 29350 layer_factory.hpp:77] Creating layer conv6_2_mbox_loc_flat
I0602 13:04:28.896134 29350 net.cpp:100] Creating Layer conv6_2_mbox_loc_flat
I0602 13:04:28.896136 29350 net.cpp:434] conv6_2_mbox_loc_flat <- conv6_2_mbox_loc_perm
I0602 13:04:28.896140 29350 net.cpp:408] conv6_2_mbox_loc_flat -> conv6_2_mbox_loc_flat
I0602 13:04:28.896162 29350 net.cpp:150] Setting up conv6_2_mbox_loc_flat
I0602 13:04:28.896167 29350 net.cpp:157] Top shape: 4 2400 (9600)
I0602 13:04:28.896168 29350 net.cpp:165] Memory required for data: 991857632
I0602 13:04:28.896172 29350 layer_factory.hpp:77] Creating layer conv6_2_mbox_conf
I0602 13:04:28.896179 29350 net.cpp:100] Creating Layer conv6_2_mbox_conf
I0602 13:04:28.896183 29350 net.cpp:434] conv6_2_mbox_conf <- conv6_2_conv6_2_relu_0_split_2
I0602 13:04:28.896188 29350 net.cpp:408] conv6_2_mbox_conf -> conv6_2_mbox_conf
I0602 13:04:28.898293 29350 net.cpp:150] Setting up conv6_2_mbox_conf
I0602 13:04:28.898305 29350 net.cpp:157] Top shape: 4 24 10 10 (9600)
I0602 13:04:28.898308 29350 net.cpp:165] Memory required for data: 991896032
I0602 13:04:28.898313 29350 layer_factory.hpp:77] Creating layer conv6_2_mbox_conf_perm
I0602 13:04:28.898319 29350 net.cpp:100] Creating Layer conv6_2_mbox_conf_perm
I0602 13:04:28.898324 29350 net.cpp:434] conv6_2_mbox_conf_perm <- conv6_2_mbox_conf
I0602 13:04:28.898329 29350 net.cpp:408] conv6_2_mbox_conf_perm -> conv6_2_mbox_conf_perm
I0602 13:04:28.898437 29350 net.cpp:150] Setting up conv6_2_mbox_conf_perm
I0602 13:04:28.898442 29350 net.cpp:157] Top shape: 4 10 10 24 (9600)
I0602 13:04:28.898443 29350 net.cpp:165] Memory required for data: 991934432
I0602 13:04:28.898445 29350 layer_factory.hpp:77] Creating layer conv6_2_mbox_conf_flat
I0602 13:04:28.898450 29350 net.cpp:100] Creating Layer conv6_2_mbox_conf_flat
I0602 13:04:28.898453 29350 net.cpp:434] conv6_2_mbox_conf_flat <- conv6_2_mbox_conf_perm
I0602 13:04:28.898458 29350 net.cpp:408] conv6_2_mbox_conf_flat -> conv6_2_mbox_conf_flat
I0602 13:04:28.898478 29350 net.cpp:150] Setting up conv6_2_mbox_conf_flat
I0602 13:04:28.898481 29350 net.cpp:157] Top shape: 4 2400 (9600)
I0602 13:04:28.898483 29350 net.cpp:165] Memory required for data: 991972832
I0602 13:04:28.898486 29350 layer_factory.hpp:77] Creating layer conv6_2_mbox_priorbox
I0602 13:04:28.898491 29350 net.cpp:100] Creating Layer conv6_2_mbox_priorbox
I0602 13:04:28.898494 29350 net.cpp:434] conv6_2_mbox_priorbox <- conv6_2_conv6_2_relu_0_split_3
I0602 13:04:28.898497 29350 net.cpp:434] conv6_2_mbox_priorbox <- data_data_0_split_3
I0602 13:04:28.898502 29350 net.cpp:408] conv6_2_mbox_priorbox -> conv6_2_mbox_priorbox
I0602 13:04:28.898527 29350 net.cpp:150] Setting up conv6_2_mbox_priorbox
I0602 13:04:28.898530 29350 net.cpp:157] Top shape: 1 2 2400 (4800)
I0602 13:04:28.898532 29350 net.cpp:165] Memory required for data: 991992032
I0602 13:04:28.898535 29350 layer_factory.hpp:77] Creating layer conv7_2_mbox_loc
I0602 13:04:28.898542 29350 net.cpp:100] Creating Layer conv7_2_mbox_loc
I0602 13:04:28.898545 29350 net.cpp:434] conv7_2_mbox_loc <- conv7_2_conv7_2_relu_0_split_1
I0602 13:04:28.898550 29350 net.cpp:408] conv7_2_mbox_loc -> conv7_2_mbox_loc
I0602 13:04:28.900283 29350 net.cpp:150] Setting up conv7_2_mbox_loc
I0602 13:04:28.900296 29350 net.cpp:157] Top shape: 4 24 5 5 (2400)
I0602 13:04:28.900298 29350 net.cpp:165] Memory required for data: 992001632
I0602 13:04:28.900305 29350 layer_factory.hpp:77] Creating layer conv7_2_mbox_loc_perm
I0602 13:04:28.900312 29350 net.cpp:100] Creating Layer conv7_2_mbox_loc_perm
I0602 13:04:28.900316 29350 net.cpp:434] conv7_2_mbox_loc_perm <- conv7_2_mbox_loc
I0602 13:04:28.900321 29350 net.cpp:408] conv7_2_mbox_loc_perm -> conv7_2_mbox_loc_perm
I0602 13:04:28.900434 29350 net.cpp:150] Setting up conv7_2_mbox_loc_perm
I0602 13:04:28.900440 29350 net.cpp:157] Top shape: 4 5 5 24 (2400)
I0602 13:04:28.900442 29350 net.cpp:165] Memory required for data: 992011232
I0602 13:04:28.900455 29350 layer_factory.hpp:77] Creating layer conv7_2_mbox_loc_flat
I0602 13:04:28.900460 29350 net.cpp:100] Creating Layer conv7_2_mbox_loc_flat
I0602 13:04:28.900462 29350 net.cpp:434] conv7_2_mbox_loc_flat <- conv7_2_mbox_loc_perm
I0602 13:04:28.900467 29350 net.cpp:408] conv7_2_mbox_loc_flat -> conv7_2_mbox_loc_flat
I0602 13:04:28.900490 29350 net.cpp:150] Setting up conv7_2_mbox_loc_flat
I0602 13:04:28.900494 29350 net.cpp:157] Top shape: 4 600 (2400)
I0602 13:04:28.900496 29350 net.cpp:165] Memory required for data: 992020832
I0602 13:04:28.900498 29350 layer_factory.hpp:77] Creating layer conv7_2_mbox_conf
I0602 13:04:28.900506 29350 net.cpp:100] Creating Layer conv7_2_mbox_conf
I0602 13:04:28.900509 29350 net.cpp:434] conv7_2_mbox_conf <- conv7_2_conv7_2_relu_0_split_2
I0602 13:04:28.900514 29350 net.cpp:408] conv7_2_mbox_conf -> conv7_2_mbox_conf
I0602 13:04:28.902518 29350 net.cpp:150] Setting up conv7_2_mbox_conf
I0602 13:04:28.902531 29350 net.cpp:157] Top shape: 4 24 5 5 (2400)
I0602 13:04:28.902534 29350 net.cpp:165] Memory required for data: 992030432
I0602 13:04:28.902539 29350 layer_factory.hpp:77] Creating layer conv7_2_mbox_conf_perm
I0602 13:04:28.902546 29350 net.cpp:100] Creating Layer conv7_2_mbox_conf_perm
I0602 13:04:28.902551 29350 net.cpp:434] conv7_2_mbox_conf_perm <- conv7_2_mbox_conf
I0602 13:04:28.902555 29350 net.cpp:408] conv7_2_mbox_conf_perm -> conv7_2_mbox_conf_perm
I0602 13:04:28.902664 29350 net.cpp:150] Setting up conv7_2_mbox_conf_perm
I0602 13:04:28.902669 29350 net.cpp:157] Top shape: 4 5 5 24 (2400)
I0602 13:04:28.902685 29350 net.cpp:165] Memory required for data: 992040032
I0602 13:04:28.902688 29350 layer_factory.hpp:77] Creating layer conv7_2_mbox_conf_flat
I0602 13:04:28.902691 29350 net.cpp:100] Creating Layer conv7_2_mbox_conf_flat
I0602 13:04:28.902694 29350 net.cpp:434] conv7_2_mbox_conf_flat <- conv7_2_mbox_conf_perm
I0602 13:04:28.902698 29350 net.cpp:408] conv7_2_mbox_conf_flat -> conv7_2_mbox_conf_flat
I0602 13:04:28.902720 29350 net.cpp:150] Setting up conv7_2_mbox_conf_flat
I0602 13:04:28.902725 29350 net.cpp:157] Top shape: 4 600 (2400)
I0602 13:04:28.902727 29350 net.cpp:165] Memory required for data: 992049632
I0602 13:04:28.902729 29350 layer_factory.hpp:77] Creating layer conv7_2_mbox_priorbox
I0602 13:04:28.902734 29350 net.cpp:100] Creating Layer conv7_2_mbox_priorbox
I0602 13:04:28.902736 29350 net.cpp:434] conv7_2_mbox_priorbox <- conv7_2_conv7_2_relu_0_split_3
I0602 13:04:28.902740 29350 net.cpp:434] conv7_2_mbox_priorbox <- data_data_0_split_4
I0602 13:04:28.902745 29350 net.cpp:408] conv7_2_mbox_priorbox -> conv7_2_mbox_priorbox
I0602 13:04:28.902786 29350 net.cpp:150] Setting up conv7_2_mbox_priorbox
I0602 13:04:28.902789 29350 net.cpp:157] Top shape: 1 2 600 (1200)
I0602 13:04:28.902791 29350 net.cpp:165] Memory required for data: 992054432
I0602 13:04:28.902794 29350 layer_factory.hpp:77] Creating layer conv8_2_mbox_loc
I0602 13:04:28.902803 29350 net.cpp:100] Creating Layer conv8_2_mbox_loc
I0602 13:04:28.902806 29350 net.cpp:434] conv8_2_mbox_loc <- conv8_2_conv8_2_relu_0_split_1
I0602 13:04:28.902812 29350 net.cpp:408] conv8_2_mbox_loc -> conv8_2_mbox_loc
I0602 13:04:28.904593 29350 net.cpp:150] Setting up conv8_2_mbox_loc
I0602 13:04:28.904603 29350 net.cpp:157] Top shape: 4 16 3 3 (576)
I0602 13:04:28.904605 29350 net.cpp:165] Memory required for data: 992056736
I0602 13:04:28.904618 29350 layer_factory.hpp:77] Creating layer conv8_2_mbox_loc_perm
I0602 13:04:28.904623 29350 net.cpp:100] Creating Layer conv8_2_mbox_loc_perm
I0602 13:04:28.904628 29350 net.cpp:434] conv8_2_mbox_loc_perm <- conv8_2_mbox_loc
I0602 13:04:28.904633 29350 net.cpp:408] conv8_2_mbox_loc_perm -> conv8_2_mbox_loc_perm
I0602 13:04:28.904741 29350 net.cpp:150] Setting up conv8_2_mbox_loc_perm
I0602 13:04:28.904745 29350 net.cpp:157] Top shape: 4 3 3 16 (576)
I0602 13:04:28.904747 29350 net.cpp:165] Memory required for data: 992059040
I0602 13:04:28.904749 29350 layer_factory.hpp:77] Creating layer conv8_2_mbox_loc_flat
I0602 13:04:28.904762 29350 net.cpp:100] Creating Layer conv8_2_mbox_loc_flat
I0602 13:04:28.904767 29350 net.cpp:434] conv8_2_mbox_loc_flat <- conv8_2_mbox_loc_perm
I0602 13:04:28.904772 29350 net.cpp:408] conv8_2_mbox_loc_flat -> conv8_2_mbox_loc_flat
I0602 13:04:28.904793 29350 net.cpp:150] Setting up conv8_2_mbox_loc_flat
I0602 13:04:28.904798 29350 net.cpp:157] Top shape: 4 144 (576)
I0602 13:04:28.904799 29350 net.cpp:165] Memory required for data: 992061344
I0602 13:04:28.904803 29350 layer_factory.hpp:77] Creating layer conv8_2_mbox_conf
I0602 13:04:28.904809 29350 net.cpp:100] Creating Layer conv8_2_mbox_conf
I0602 13:04:28.904813 29350 net.cpp:434] conv8_2_mbox_conf <- conv8_2_conv8_2_relu_0_split_2
I0602 13:04:28.904817 29350 net.cpp:408] conv8_2_mbox_conf -> conv8_2_mbox_conf
I0602 13:04:28.906582 29350 net.cpp:150] Setting up conv8_2_mbox_conf
I0602 13:04:28.906591 29350 net.cpp:157] Top shape: 4 16 3 3 (576)
I0602 13:04:28.906594 29350 net.cpp:165] Memory required for data: 992063648
I0602 13:04:28.906597 29350 layer_factory.hpp:77] Creating layer conv8_2_mbox_conf_perm
I0602 13:04:28.906605 29350 net.cpp:100] Creating Layer conv8_2_mbox_conf_perm
I0602 13:04:28.906607 29350 net.cpp:434] conv8_2_mbox_conf_perm <- conv8_2_mbox_conf
I0602 13:04:28.906612 29350 net.cpp:408] conv8_2_mbox_conf_perm -> conv8_2_mbox_conf_perm
I0602 13:04:28.906714 29350 net.cpp:150] Setting up conv8_2_mbox_conf_perm
I0602 13:04:28.906719 29350 net.cpp:157] Top shape: 4 3 3 16 (576)
I0602 13:04:28.906721 29350 net.cpp:165] Memory required for data: 992065952
I0602 13:04:28.906723 29350 layer_factory.hpp:77] Creating layer conv8_2_mbox_conf_flat
I0602 13:04:28.906728 29350 net.cpp:100] Creating Layer conv8_2_mbox_conf_flat
I0602 13:04:28.906731 29350 net.cpp:434] conv8_2_mbox_conf_flat <- conv8_2_mbox_conf_perm
I0602 13:04:28.906734 29350 net.cpp:408] conv8_2_mbox_conf_flat -> conv8_2_mbox_conf_flat
I0602 13:04:28.906755 29350 net.cpp:150] Setting up conv8_2_mbox_conf_flat
I0602 13:04:28.906760 29350 net.cpp:157] Top shape: 4 144 (576)
I0602 13:04:28.906762 29350 net.cpp:165] Memory required for data: 992068256
I0602 13:04:28.906764 29350 layer_factory.hpp:77] Creating layer conv8_2_mbox_priorbox
I0602 13:04:28.906769 29350 net.cpp:100] Creating Layer conv8_2_mbox_priorbox
I0602 13:04:28.906785 29350 net.cpp:434] conv8_2_mbox_priorbox <- conv8_2_conv8_2_relu_0_split_3
I0602 13:04:28.906790 29350 net.cpp:434] conv8_2_mbox_priorbox <- data_data_0_split_5
I0602 13:04:28.906795 29350 net.cpp:408] conv8_2_mbox_priorbox -> conv8_2_mbox_priorbox
I0602 13:04:28.906818 29350 net.cpp:150] Setting up conv8_2_mbox_priorbox
I0602 13:04:28.906822 29350 net.cpp:157] Top shape: 1 2 144 (288)
I0602 13:04:28.906826 29350 net.cpp:165] Memory required for data: 992069408
I0602 13:04:28.906827 29350 layer_factory.hpp:77] Creating layer conv9_2_mbox_loc
I0602 13:04:28.906833 29350 net.cpp:100] Creating Layer conv9_2_mbox_loc
I0602 13:04:28.906836 29350 net.cpp:434] conv9_2_mbox_loc <- conv9_2_conv9_2_relu_0_split_0
I0602 13:04:28.906842 29350 net.cpp:408] conv9_2_mbox_loc -> conv9_2_mbox_loc
I0602 13:04:28.909091 29350 net.cpp:150] Setting up conv9_2_mbox_loc
I0602 13:04:28.909101 29350 net.cpp:157] Top shape: 4 16 1 1 (64)
I0602 13:04:28.909104 29350 net.cpp:165] Memory required for data: 992069664
I0602 13:04:28.909109 29350 layer_factory.hpp:77] Creating layer conv9_2_mbox_loc_perm
I0602 13:04:28.909116 29350 net.cpp:100] Creating Layer conv9_2_mbox_loc_perm
I0602 13:04:28.909121 29350 net.cpp:434] conv9_2_mbox_loc_perm <- conv9_2_mbox_loc
I0602 13:04:28.909126 29350 net.cpp:408] conv9_2_mbox_loc_perm -> conv9_2_mbox_loc_perm
I0602 13:04:28.909230 29350 net.cpp:150] Setting up conv9_2_mbox_loc_perm
I0602 13:04:28.909235 29350 net.cpp:157] Top shape: 4 1 1 16 (64)
I0602 13:04:28.909237 29350 net.cpp:165] Memory required for data: 992069920
I0602 13:04:28.909240 29350 layer_factory.hpp:77] Creating layer conv9_2_mbox_loc_flat
I0602 13:04:28.909243 29350 net.cpp:100] Creating Layer conv9_2_mbox_loc_flat
I0602 13:04:28.909245 29350 net.cpp:434] conv9_2_mbox_loc_flat <- conv9_2_mbox_loc_perm
I0602 13:04:28.909260 29350 net.cpp:408] conv9_2_mbox_loc_flat -> conv9_2_mbox_loc_flat
I0602 13:04:28.909310 29350 net.cpp:150] Setting up conv9_2_mbox_loc_flat
I0602 13:04:28.909315 29350 net.cpp:157] Top shape: 4 16 (64)
I0602 13:04:28.909317 29350 net.cpp:165] Memory required for data: 992070176
I0602 13:04:28.909319 29350 layer_factory.hpp:77] Creating layer conv9_2_mbox_conf
I0602 13:04:28.909327 29350 net.cpp:100] Creating Layer conv9_2_mbox_conf
I0602 13:04:28.909330 29350 net.cpp:434] conv9_2_mbox_conf <- conv9_2_conv9_2_relu_0_split_1
I0602 13:04:28.909337 29350 net.cpp:408] conv9_2_mbox_conf -> conv9_2_mbox_conf
I0602 13:04:28.911100 29350 net.cpp:150] Setting up conv9_2_mbox_conf
I0602 13:04:28.911108 29350 net.cpp:157] Top shape: 4 16 1 1 (64)
I0602 13:04:28.911110 29350 net.cpp:165] Memory required for data: 992070432
I0602 13:04:28.911115 29350 layer_factory.hpp:77] Creating layer conv9_2_mbox_conf_perm
I0602 13:04:28.911121 29350 net.cpp:100] Creating Layer conv9_2_mbox_conf_perm
I0602 13:04:28.911125 29350 net.cpp:434] conv9_2_mbox_conf_perm <- conv9_2_mbox_conf
I0602 13:04:28.911130 29350 net.cpp:408] conv9_2_mbox_conf_perm -> conv9_2_mbox_conf_perm
I0602 13:04:28.911236 29350 net.cpp:150] Setting up conv9_2_mbox_conf_perm
I0602 13:04:28.911240 29350 net.cpp:157] Top shape: 4 1 1 16 (64)
I0602 13:04:28.911242 29350 net.cpp:165] Memory required for data: 992070688
I0602 13:04:28.911244 29350 layer_factory.hpp:77] Creating layer conv9_2_mbox_conf_flat
I0602 13:04:28.911248 29350 net.cpp:100] Creating Layer conv9_2_mbox_conf_flat
I0602 13:04:28.911252 29350 net.cpp:434] conv9_2_mbox_conf_flat <- conv9_2_mbox_conf_perm
I0602 13:04:28.911255 29350 net.cpp:408] conv9_2_mbox_conf_flat -> conv9_2_mbox_conf_flat
I0602 13:04:28.911278 29350 net.cpp:150] Setting up conv9_2_mbox_conf_flat
I0602 13:04:28.911281 29350 net.cpp:157] Top shape: 4 16 (64)
I0602 13:04:28.911283 29350 net.cpp:165] Memory required for data: 992070944
I0602 13:04:28.911285 29350 layer_factory.hpp:77] Creating layer conv9_2_mbox_priorbox
I0602 13:04:28.911290 29350 net.cpp:100] Creating Layer conv9_2_mbox_priorbox
I0602 13:04:28.911293 29350 net.cpp:434] conv9_2_mbox_priorbox <- conv9_2_conv9_2_relu_0_split_2
I0602 13:04:28.911298 29350 net.cpp:434] conv9_2_mbox_priorbox <- data_data_0_split_6
I0602 13:04:28.911301 29350 net.cpp:408] conv9_2_mbox_priorbox -> conv9_2_mbox_priorbox
I0602 13:04:28.911324 29350 net.cpp:150] Setting up conv9_2_mbox_priorbox
I0602 13:04:28.911329 29350 net.cpp:157] Top shape: 1 2 16 (32)
I0602 13:04:28.911331 29350 net.cpp:165] Memory required for data: 992071072
I0602 13:04:28.911334 29350 layer_factory.hpp:77] Creating layer mbox_loc
I0602 13:04:28.911339 29350 net.cpp:100] Creating Layer mbox_loc
I0602 13:04:28.911344 29350 net.cpp:434] mbox_loc <- conv4_3_norm_mbox_loc_flat
I0602 13:04:28.911346 29350 net.cpp:434] mbox_loc <- fc7_mbox_loc_flat
I0602 13:04:28.911350 29350 net.cpp:434] mbox_loc <- conv6_2_mbox_loc_flat
I0602 13:04:28.911353 29350 net.cpp:434] mbox_loc <- conv7_2_mbox_loc_flat
I0602 13:04:28.911356 29350 net.cpp:434] mbox_loc <- conv8_2_mbox_loc_flat
I0602 13:04:28.911360 29350 net.cpp:434] mbox_loc <- conv9_2_mbox_loc_flat
I0602 13:04:28.911362 29350 net.cpp:408] mbox_loc -> mbox_loc
I0602 13:04:28.911386 29350 net.cpp:150] Setting up mbox_loc
I0602 13:04:28.911391 29350 net.cpp:157] Top shape: 4 34928 (139712)
I0602 13:04:28.911392 29350 net.cpp:165] Memory required for data: 992629920
I0602 13:04:28.911394 29350 layer_factory.hpp:77] Creating layer mbox_conf
I0602 13:04:28.911398 29350 net.cpp:100] Creating Layer mbox_conf
I0602 13:04:28.911401 29350 net.cpp:434] mbox_conf <- conv4_3_norm_mbox_conf_flat
I0602 13:04:28.911404 29350 net.cpp:434] mbox_conf <- fc7_mbox_conf_flat
I0602 13:04:28.911408 29350 net.cpp:434] mbox_conf <- conv6_2_mbox_conf_flat
I0602 13:04:28.911411 29350 net.cpp:434] mbox_conf <- conv7_2_mbox_conf_flat
I0602 13:04:28.911413 29350 net.cpp:434] mbox_conf <- conv8_2_mbox_conf_flat
I0602 13:04:28.911417 29350 net.cpp:434] mbox_conf <- conv9_2_mbox_conf_flat
I0602 13:04:28.911429 29350 net.cpp:408] mbox_conf -> mbox_conf
I0602 13:04:28.911450 29350 net.cpp:150] Setting up mbox_conf
I0602 13:04:28.911455 29350 net.cpp:157] Top shape: 4 34928 (139712)
I0602 13:04:28.911458 29350 net.cpp:165] Memory required for data: 993188768
I0602 13:04:28.911459 29350 layer_factory.hpp:77] Creating layer mbox_priorbox
I0602 13:04:28.911463 29350 net.cpp:100] Creating Layer mbox_priorbox
I0602 13:04:28.911466 29350 net.cpp:434] mbox_priorbox <- conv4_3_norm_mbox_priorbox
I0602 13:04:28.911469 29350 net.cpp:434] mbox_priorbox <- fc7_mbox_priorbox
I0602 13:04:28.911471 29350 net.cpp:434] mbox_priorbox <- conv6_2_mbox_priorbox
I0602 13:04:28.911474 29350 net.cpp:434] mbox_priorbox <- conv7_2_mbox_priorbox
I0602 13:04:28.911478 29350 net.cpp:434] mbox_priorbox <- conv8_2_mbox_priorbox
I0602 13:04:28.911479 29350 net.cpp:434] mbox_priorbox <- conv9_2_mbox_priorbox
I0602 13:04:28.911484 29350 net.cpp:408] mbox_priorbox -> mbox_priorbox
I0602 13:04:28.911504 29350 net.cpp:150] Setting up mbox_priorbox
I0602 13:04:28.911509 29350 net.cpp:157] Top shape: 1 2 34928 (69856)
I0602 13:04:28.911512 29350 net.cpp:165] Memory required for data: 993468192
I0602 13:04:28.911514 29350 layer_factory.hpp:77] Creating layer mbox_conf_reshape
I0602 13:04:28.911519 29350 net.cpp:100] Creating Layer mbox_conf_reshape
I0602 13:04:28.911521 29350 net.cpp:434] mbox_conf_reshape <- mbox_conf
I0602 13:04:28.911525 29350 net.cpp:408] mbox_conf_reshape -> mbox_conf_reshape
I0602 13:04:28.911552 29350 net.cpp:150] Setting up mbox_conf_reshape
I0602 13:04:28.911556 29350 net.cpp:157] Top shape: 4 8732 4 (139712)
I0602 13:04:28.911559 29350 net.cpp:165] Memory required for data: 994027040
I0602 13:04:28.911561 29350 layer_factory.hpp:77] Creating layer mbox_conf_softmax
I0602 13:04:28.911566 29350 net.cpp:100] Creating Layer mbox_conf_softmax
I0602 13:04:28.911568 29350 net.cpp:434] mbox_conf_softmax <- mbox_conf_reshape
I0602 13:04:28.911572 29350 net.cpp:408] mbox_conf_softmax -> mbox_conf_softmax
I0602 13:04:28.911772 29350 net.cpp:150] Setting up mbox_conf_softmax
I0602 13:04:28.911778 29350 net.cpp:157] Top shape: 4 8732 4 (139712)
I0602 13:04:28.911780 29350 net.cpp:165] Memory required for data: 994585888
I0602 13:04:28.911783 29350 layer_factory.hpp:77] Creating layer mbox_conf_flatten
I0602 13:04:28.911787 29350 net.cpp:100] Creating Layer mbox_conf_flatten
I0602 13:04:28.911789 29350 net.cpp:434] mbox_conf_flatten <- mbox_conf_softmax
I0602 13:04:28.911793 29350 net.cpp:408] mbox_conf_flatten -> mbox_conf_flatten
I0602 13:04:28.911815 29350 net.cpp:150] Setting up mbox_conf_flatten
I0602 13:04:28.911819 29350 net.cpp:157] Top shape: 4 34928 (139712)
I0602 13:04:28.911821 29350 net.cpp:165] Memory required for data: 995144736
I0602 13:04:28.911823 29350 layer_factory.hpp:77] Creating layer detection_out
I0602 13:04:28.911834 29350 net.cpp:100] Creating Layer detection_out
I0602 13:04:28.911836 29350 net.cpp:434] detection_out <- mbox_loc
I0602 13:04:28.911839 29350 net.cpp:434] detection_out <- mbox_conf_flatten
I0602 13:04:28.911842 29350 net.cpp:434] detection_out <- mbox_priorbox
I0602 13:04:28.911847 29350 net.cpp:408] detection_out -> detection_out
I0602 13:04:28.912956 29350 net.cpp:150] Setting up detection_out
I0602 13:04:28.912966 29350 net.cpp:157] Top shape: 1 1 1 7 (7)
I0602 13:04:28.912967 29350 net.cpp:165] Memory required for data: 995144764
I0602 13:04:28.912971 29350 layer_factory.hpp:77] Creating layer detection_eval
I0602 13:04:28.912976 29350 net.cpp:100] Creating Layer detection_eval
I0602 13:04:28.912979 29350 net.cpp:434] detection_eval <- detection_out
I0602 13:04:28.912982 29350 net.cpp:434] detection_eval <- label
I0602 13:04:28.912987 29350 net.cpp:408] detection_eval -> detection_eval
I0602 13:04:28.913698 29350 net.cpp:150] Setting up detection_eval
I0602 13:04:28.913704 29350 net.cpp:157] Top shape: 1 1 4 5 (20)
I0602 13:04:28.913707 29350 net.cpp:165] Memory required for data: 995144844
I0602 13:04:28.913709 29350 net.cpp:228] detection_eval does not need backward computation.
I0602 13:04:28.913720 29350 net.cpp:228] detection_out does not need backward computation.
I0602 13:04:28.913723 29350 net.cpp:228] mbox_conf_flatten does not need backward computation.
I0602 13:04:28.913727 29350 net.cpp:228] mbox_conf_softmax does not need backward computation.
…
