…
        min_scale: 0.3
        max_scale: 1
        min_aspect_ratio: 0.5
        max_aspect_ratio: 2
      }
      sample_constraint {
        min_jaccard_overlap: 0.9
      }
      max_sample: 1
      max_trials: 50
    }
    batch_sampler {
      sampler {
        min_scale: 0.3
        max_scale: 1
        min_aspect_ratio: 0.5
        max_aspect_ratio: 2
      }
      sample_constraint {
        max_jaccard_overlap: 1
      }
      max_sample: 1
      max_trials: 50
    }
    label_map_file: "data/tbs_300x300_HSIL_10x/labelmap_voc.prototxt"
  }
}
layer {
  name: "conv1_1"
  type: "Convolution"
  bottom: "data"
  top: "conv1_1"
  param {
    lr_mult: 1
    decay_mult: 1
  }
  param {
    lr_mult: 2
    decay_mult: 0
  }
  convolution_param {
    num_output: 64
    pad: 1
    kernel_size: 3
    weight_filler {
      type: "xavier"
    }
    bias_filler {
      type: "constant"
      value: 0
    }
  }
}
layer {
  name: "relu1_1"
  type: "ReLU"
  bottom: "conv1_1"
  top: "conv1_1"
}
layer {
  name: "conv1_2"
  type: "Convolution"
  bottom: "conv1_1"
  top: "conv1_2"
  param {
    lr_mult: 1
    decay_mult: 1
  }
  param {
    lr_mult: 2
    decay_mult: 0
  }
  convolution_param {
    num_output: 64
    pad: 1
    kernel_size: 3
    weight_filler {
      type: "xavier"
    }
    bias_filler {
      type: "constant"
      value: 0
    }
  }
}
layer {
  name: "relu1_2"
  type: "ReLU"
  bottom: "conv1_2"
  top: "conv1_2"
}
layer {
  name: "pool1"
  type: "Pooling"
  bottom: "conv1_2"
  top: "pool1"
  pooling_param {
    pool: MAX
    kernel_size: 2
    stride: 2
  }
}
layer {
  name: "conv2_1"
  type: "Convolution"
  bottom: "pool1"
  top: "conv2_1"
  param {
    lr_mult: 1
    decay_mult: 1
  }
  param {
    lr_mult: 2
    decay_mult: 0
  }
  convolution_param {
    num_output: 128
    pad: 1
    kernel_size: 3
    weight_filler {
      type: "xavier"
    }
    bias_filler {
      type: "constant"
      value: 0
    }
  }
}
layer {
  name: "relu2_1"
  type: "ReLU"
  bottom: "conv2_1"
  top: "conv2_1"
}
layer {
  name: "conv2_2"
  type: "Convolution"
  bottom: "conv2_1"
  top: "conv2_2"
  param {
    lr_mult: 1
    decay_mult: 1
  }
  param {
    lr_mult: 2
    decay_mult: 0
  }
  convolution_param {
    num_output: 128
    pad: 1
    kernel_size: 3
    weight_filler {
      type: "xavier"
    }
    bias_filler {
      type: "constant"
      value: 0
    }
  }
}
layer {
  name: "relu2_2"
  type: "ReLU"
  bottom: "conv2_2"
  top: "conv2_2"
}
layer {
  name: "pool2"
  type: "Pooling"
  bottom: "conv2_2"
  top: "pool2"
  pooling_param {
    pool: MAX
    kernel_size: 2
    stride: 2
  }
}
layer {
  name: "conv3_1"
  type: "Convolution"
  bottom: "pool2"
  top: "conv3_1"
  param {
    lr_mult: 1
    decay_mult: 1
  }
  param {
    lr_mult: 2
    decay_mult: 0
  }
  convolution_param {
    num_output: 256
    pad: 1
    kernel_size: 3
    weight_filler {
      type: "xavier"
    }
    bias_filler {
      type: "constant"
      value: 0
    }
  }
}
layer {
  name: "relu3_1"
  type: "ReLU"
  bottom: "conv3_1"
  top: "conv3_1"
}
layer {
  name: "conv3_2"
  type: "Convolution"
  bottom: "conv3_1"
  top: "conv3_2"
  param {
    lr_mult: 1
    decay_mult: 1
  }
  param {
    lr_mult: 2
    decay_mult: 0
  }
  convolution_param {
    num_output: 256
    pad: 1
    kernel_size: 3
    weight_filler {
      type: "xavier"
    }
    bias_filler {
      type: "constant"
      value: 0
    }
  }
}
layer {
  name: "relu3_2"
  type: "ReLU"
  bottom: "conv3_2"
  top: "conv3_2"
}
layer {
  name: "conv3_3"
  type: "Convolution"
  bottom: "conv3_2"
  top: "conv3_3"
  param {
    lr_mult: 1
    decay_mult: 1
  }
  param {
    lr_mult: 2
    decay_mult: 0
  }
  convolution_param {
    num_output: 256
    pad: 1
    kernel_size: 3
    weight_filler {
      type: "xavier"
    }
    bias_filler {
      type: "constant"
      value: 0
    }
  }
}
layer {
  name: "relu3_3"
  type: "ReLU"
  bottom: "conv3_3"
  top: "conv3_3"
}
layer {
  name: "pool3"
  type: "Pooling"
  bottom: "conv3_3"
  top: "pool3"
  pooling_param {
    pool: MAX
    kernel_size: 2
    stride: 2
  }
}
layer {
  name: "conv4_1"
  type: "Convolution"
  bottom: "pool3"
  top: "conv4_1"
  param {
    lr_mult: 1
    decay_mult: 1
  }
  param {
    lr_mult: 2
    decay_mult: 0
  }
  convolution_param {
    num_output: 512
    pad: 1
    kernel_size: 3
    weight_filler {
      type: "xavier"
    }
    bias_filler {
      type: "constant"
      value: 0
    }
  }
}
layer {
  name: "relu4_1"
  type: "ReLU"
  bottom: "conv4_1"
  top: "conv4_1"
}
layer {
  name: "conv4_2"
  type: "Convolution"
  bottom: "conv4_1"
  top: "conv4_2"
  param {
    lr_mult: 1
    decay_mult: 1
  }
  param {
    lr_mult: 2
    decay_mult: 0
  }
  convolution_param {
    num_output: 512
    pad: 1
    kernel_size: 3
    weight_filler {
      type: "xavier"
    }
    bias_filler {
      type: "constant"
      value: 0
    }
  }
}
layer {
  name: "relu4_2"
  type: "ReLU"
  bottom: "conv4_2"
  top: "conv4_2"
}
layer {
  name: "conv4_3"
  type: "Convolution"
  bottom: "conv4_2"
  top: "conv4_3"
  param {
    lr_mult: 1
    decay_mult: 1
  }
  param {
    lr_mult: 2
    decay_mult: 0
  }
  convolution_param {
    num_output: 512
    pad: 1
    kernel_size: 3
    weight_filler {
      type: "xavier"
    }
    bias_filler {
      type: "constant"
      value: 0
    }
  }
}
layer {
  name: "relu4_3"
  type: "ReLU"
  bottom: "conv4_3"
  top: "conv4_3"
}
layer {
  name: "pool4"
  type: "Pooling"
  bottom: "conv4_3"
  top: "pool4"
  pooling_param {
    pool: MAX
    kernel_size: 2
    stride: 2
  }
}
layer {
  name: "conv5_1"
  type: "Convolution"
  bottom: "pool4"
  top: "conv5_1"
  param {
    lr_mult: 1
    decay_mult: 1
  }
  param {
    lr_mult: 2
    decay_mult: 0
  }
  convolution_param {
    num_output: 512
    pad: 1
    kernel_size: 3
    weight_filler {
      type: "xavier"
    }
    bias_filler {
      type: "constant"
      value: 0
    }
    dilation: 1
  }
}
layer {
  name: "relu5_1"
  type: "ReLU"
  bottom: "conv5_1"
  top: "conv5_1"
}
layer {
  name: "conv5_2"
  type: "Convolution"
  bottom: "conv5_1"
  top: "conv5_2"
  param {
    lr_mult: 1
    decay_mult: 1
  }
  param {
    lr_mult: 2
    decay_mult: 0
  }
  convolution_param {
    num_output: 512
    pad: 1
    kernel_size: 3
    weight_filler {
      type: "xavier"
    }
    bias_filler {
      type: "constant"
      value: 0
    }
    dilation: 1
  }
}
layer {
  name: "relu5_2"
  type: "ReLU"
  bottom: "conv5_2"
  top: "conv5_2"
}
layer {
  name: "conv5_3"
  type: "Convolution"
  bottom: "conv5_2"
  top: "conv5_3"
  param {
    lr_mult: 1
    decay_mult: 1
  }
  param {
    lr_mult: 2
    decay_mult: 0
  }
  convolution_param {
    num_output: 512
    pad: 1
    kernel_size: 3
    weight_filler {
      type: "xavier"
    }
    bias_filler {
      type: "constant"
      value: 0
    }
    dilation: 1
  }
}
layer {
  name: "relu5_3"
  type: "ReLU"
  bottom: "conv5_3"
  top: "conv5_3"
}
layer {
  name: "pool5"
  type: "Pooling"
  bottom: "conv5_3"
  top: "pool5"
  pooling_param {
    pool: MAX
    kernel_size: 3
    stride: 1
    pad: 1
  }
}
layer {
  name: "fc6"
  type: "Convolution"
  bottom: "pool5"
  top: "fc6"
  param {
    lr_mult: 1
    decay_mult: 1
  }
  param {
    lr_mult: 2
    decay_mult: 0
  }
  convolution_param {
    num_output: 1024
    pad: 6
    kernel_size: 3
    weight_filler {
      type: "xavier"
    }
    bias_filler {
      type: "constant"
      value: 0
    }
    dilation: 6
  }
}
layer {
  name: "relu6"
  type: "ReLU"
  bottom: "fc6"
  top: "fc6"
}
layer {
  name: "fc7"
  type: "Convolution"
  bottom: "fc6"
  top: "fc7"
  param {
    lr_mult: 1
    decay_mult: 1
  }
  param {
    lr_mult: 2
    decay_mult: 0
  }
  convolution_param {
    num_output: 1024
    kernel_size: 1
    weight_filler {
      type: "xavier"
    }
    bias_filler {
      type: "constant"
      value: 0
    }
  }
}
layer {
  name: "relu7"
  type: "ReLU"
  bottom: "fc7"
  top: "fc7"
}
layer {
  name: "conv6_1"
  type: "Convolution"
  bottom: "fc7"
  top: "conv6_1"
  param {
    lr_mult: 1
    decay_mult: 1
  }
  param {
    lr_mult: 2
    decay_mult: 0
  }
  convolution_param {
    num_output: 256
    pad: 0
    kernel_size: 1
    stride: 1
    weight_filler {
      type: "xavier"
    }
    bias_filler {
      type: "constant"
      value: 0
    }
  }
}
layer {
  name: "conv6_1_relu"
  type: "ReLU"
  bottom: "conv6_1"
  top: "conv6_1"
}
layer {
  name: "conv6_2"
  type: "Convolution"
  bottom: "conv6_1"
  top: "conv6_2"
  param {
    lr_mult: 1
    decay_mult: 1
  }
  param {
    lr_mult: 2
    decay_mult: 0
  }
  convolution_param {
    num_output: 512
    pad: 1
    kernel_size: 3
    stride: 2
    weight_filler {
      type: "xavier"
    }
    bias_filler {
      type: "constant"
      value: 0
    }
  }
}
layer {
  name: "conv6_2_relu"
  type: "ReLU"
  bottom: "conv6_2"
  top: "conv6_2"
}
layer {
  name: "conv7_1"
  type: "Convolution"
  bottom: "conv6_2"
  top: "conv7_1"
  param {
    lr_mult: 1
    decay_mult: 1
  }
  param {
    lr_mult: 2
    decay_mult: 0
  }
  convolution_param {
    num_output: 128
    pad: 0
    kernel_size: 1
    stride: 1
    weight_filler {
      type: "xavier"
    }
    bias_filler {
      type: "constant"
      value: 0
    }
  }
}
layer {
  name: "conv7_1_relu"
  type: "ReLU"
  bottom: "conv7_1"
  top: "conv7_1"
}
layer {
  name: "conv7_2"
  type: "Convolution"
  bottom: "conv7_1"
  top: "conv7_2"
  param {
    lr_mult: 1
    decay_mult: 1
  }
  param {
    lr_mult: 2
    decay_mult: 0
  }
  convolution_param {
    num_output: 256
    pad: 1
    kernel_size: 3
    stride: 2
    weight_filler {
      type: "xavier"
    }
    bias_filler {
      type: "constant"
      value: 0
    }
  }
}
layer {
  name: "conv7_2_relu"
  type: "ReLU"
  bottom: "conv7_2"
  top: "conv7_2"
}
layer {
  name: "conv8_1"
  type: "Convolution"
  bottom: "conv7_2"
  top: "conv8_1"
  param {
    lr_mult: 1
    decay_mult: 1
  }
  param {
    lr_mult: 2
    decay_mult: 0
  }
  convolution_param {
    num_output: 128
    pad: 0
    kernel_size: 1
    stride: 1
    weight_filler {
      type: "xavier"
    }
    bias_filler {
      type: "constant"
      value: 0
    }
  }
}
layer {
  name: "conv8_1_relu"
  type: "ReLU"
  bottom: "conv8_1"
  top: "conv8_1"
}
layer {
  name: "conv8_2"
  type: "Convolution"
  bottom: "conv8_1"
  top: "conv8_2"
  param {
    lr_mult: 1
    decay_mult: 1
  }
  param {
    lr_mult: 2
    decay_mult: 0
  }
  convolution_param {
    num_output: 256
    pad: 0
    kernel_size: 3
    stride: 1
    weight_filler {
      type: "xavier"
    }
    bias_filler {
      type: "constant"
      value: 0
    }
  }
}
layer {
  name: "conv8_2_relu"
  type: "ReLU"
  bottom: "conv8_2"
  top: "conv8_2"
}
layer {
  name: "conv9_1"
  type: "Convolution"
  bottom: "conv8_2"
  top: "conv9_1"
  param {
    lr_mult: 1
    decay_mult: 1
  }
  param {
    lr_mult: 2
    decay_mult: 0
  }
  convolution_param {
    num_output: 128
    pad: 0
    kernel_size: 1
    stride: 1
    weight_filler {
      type: "xavier"
    }
    bias_filler {
      type: "constant"
      value: 0
    }
  }
}
layer {
  name: "conv9_1_relu"
  type: "ReLU"
  bottom: "conv9_1"
  top: "conv9_1"
}
layer {
  name: "conv9_2"
  type: "Convolution"
  bottom: "conv9_1"
  top: "conv9_2"
  param {
    lr_mult: 1
    decay_mult: 1
  }
  param {
    lr_mult: 2
    decay_mult: 0
  }
  convolution_param {
    num_output: 256
    pad: 0
    kernel_size: 3
    stride: 1
    weight_filler {
      type: "xavier"
    }
    bias_filler {
      type: "constant"
      value: 0
    }
  }
}
layer {
  name: "conv9_2_relu"
  type: "ReLU"
  bottom: "conv9_2"
  top: "conv9_2"
}
layer {
  name: "conv4_3_norm"
  type: "Normalize"
  bottom: "conv4_3"
  top: "conv4_3_norm"
  norm_param {
    across_spatial: false
    scale_filler {
      type: "constant"
      value: 20
    }
    channel_shared: false
  }
}
layer {
  name: "conv4_3_norm_mbox_loc"
  type: "Convolution"
  bottom: "conv4_3_norm"
  top: "conv4_3_norm_mbox_loc"
  param {
    lr_mult: 1
    decay_mult: 1
  }
  param {
    lr_mult: 2
    decay_mult: 0
  }
  convolution_param {
    num_output: 16
    pad: 1
    kernel_size: 3
    stride: 1
    weight_filler {
      type: "xavier"
    }
    bias_filler {
      type: "constant"
      value: 0
    }
  }
}
layer {
  name: "conv4_3_norm_mbox_loc_perm"
  type: "Permute"
  bottom: "conv4_3_norm_mbox_loc"
  top: "conv4_3_norm_mbox_loc_perm"
  permute_param {
    order: 0
    order: 2
    order: 3
    order: 1
  }
}
layer {
  name: "conv4_3_norm_mbox_loc_flat"
  type: "Flatten"
  bottom: "conv4_3_norm_mbox_loc_perm"
  top: "conv4_3_norm_mbox_loc_flat"
  flatten_param {
    axis: 1
  }
}
layer {
  name: "conv4_3_norm_mbox_conf"
  type: "Convolution"
  bottom: "conv4_3_norm"
  top: "conv4_3_norm_mbox_conf"
  param {
    lr_mult: 1
    decay_mult: 1
  }
  param {
    lr_mult: 2
    decay_mult: 0
  }
  convolution_param {
    num_output: 16
    pad: 1
    kernel_size: 3
    stride: 1
    weight_filler {
      type: "xavier"
    }
    bias_filler {
      type: "constant"
      value: 0
    }
  }
}
layer {
  name: "conv4_3_norm_mbox_conf_perm"
  type: "Permute"
  bottom: "conv4_3_norm_mbox_conf"
  top: "conv4_3_norm_mbox_conf_perm"
  permute_param {
    order: 0
    order: 2
    order: 3
    order: 1
  }
}
layer {
  name: "conv4_3_norm_mbox_conf_flat"
  type: "Flatten"
  bottom: "conv4_3_norm_mbox_conf_perm"
  top: "conv4_3_norm_mbox_conf_flat"
  flatten_param {
    axis: 1
  }
}
layer {
  name: "conv4_3_norm_mbox_priorbox"
  type: "PriorBox"
  bottom: "conv4_3_norm"
  bottom: "data"
  top: "conv4_3_norm_mbox_priorbox"
  prior_box_param {
    min_size: 30
    max_size: 60
    aspect_ratio: 2
    flip: true
    clip: false
    variance: 0.1
    variance: 0.1
    variance: 0.2
    variance: 0.2
    step: 8
    offset: 0.5
  }
}
layer {
  name: "fc7_mbox_loc"
  type: "Convolution"
  bottom: "fc7"
  top: "fc7_mbox_loc"
  param {
    lr_mult: 1
    decay_mult: 1
  }
  param {
    lr_mult: 2
    decay_mult: 0
  }
  convolution_param {
    num_output: 24
    pad: 1
    kernel_size: 3
    stride: 1
    weight_filler {
      type: "xavier"
    }
    bias_filler {
      type: "constant"
      value: 0
    }
  }
}
layer {
  name: "fc7_mbox_loc_perm"
  type: "Permute"
  bottom: "fc7_mbox_loc"
  top: "fc7_mbox_loc_perm"
  permute_param {
    order: 0
    order: 2
    order: 3
    order: 1
  }
}
layer {
  name: "fc7_mbox_loc_flat"
  type: "Flatten"
  bottom: "fc7_mbox_loc_perm"
  top: "fc7_mbox_loc_flat"
  flatten_param {
    axis: 1
  }
}
layer {
  name: "fc7_mbox_conf"
  type: "Convolution"
  bottom: "fc7"
  top: "fc7_mbox_conf"
  param {
    lr_mult: 1
    decay_mult: 1
  }
  param {
    lr_mult: 2
    decay_mult: 0
  }
  convolution_param {
    num_output: 24
    pad: 1
    kernel_size: 3
    stride: 1
    weight_filler {
      type: "xavier"
    }
    bias_filler {
      type: "constant"
      value: 0
    }
  }
}
layer {
  name: "fc7_mbox_conf_perm"
  type: "Permute"
  bottom: "fc7_mbox_conf"
  top: "fc7_mbox_conf_perm"
  permute_param {
    order: 0
    order: 2
    order: 3
    order: 1
  }
}
layer {
  name: "fc7_mbox_conf_flat"
  type: "Flatten"
  bottom: "fc7_mbox_conf_perm"
  top: "fc7_mbox_conf_flat"
  flatten_param {
    axis: 1
  }
}
layer {
  name: "fc7_mbox_priorbox"
  type: "PriorBox"
  bottom: "fc7"
  bottom: "data"
  top: "fc7_mbox_priorbox"
  prior_box_param {
    min_size: 60
    max_size: 111
    aspect_ratio: 2
    aspect_ratio: 3
    flip: true
    clip: false
    variance: 0.1
    variance: 0.1
    variance: 0.2
    variance: 0.2
    step: 16
    offset: 0.5
  }
}
layer {
  name: "conv6_2_mbox_loc"
  type: "Convolution"
  bottom: "conv6_2"
  top: "conv6_2_mbox_loc"
  param {
    lr_mult: 1
    decay_mult: 1
  }
  param {
    lr_mult: 2
    decay_mult: 0
  }
  convolution_param {
    num_output: 24
    pad: 1
    kernel_size: 3
    stride: 1
    weight_filler {
      type: "xavier"
    }
    bias_filler {
      type: "constant"
      value: 0
    }
  }
}
layer {
  name: "conv6_2_mbox_loc_perm"
  type: "Permute"
  bottom: "conv6_2_mbox_loc"
  top: "conv6_2_mbox_loc_perm"
  permute_param {
    order: 0
    order: 2
    order: 3
    order: 1
  }
}
layer {
  name: "conv6_2_mbox_loc_flat"
  type: "Flatten"
  bottom: "conv6_2_mbox_loc_perm"
  top: "conv6_2_mbox_loc_flat"
  flatten_param {
    axis: 1
  }
}
layer {
  name: "conv6_2_mbox_conf"
  type: "Convolution"
  bottom: "conv6_2"
  top: "conv6_2_mbox_conf"
  param {
    lr_mult: 1
    decay_mult: 1
  }
  param {
    lr_mult: 2
    decay_mult: 0
  }
  convolution_param {
    num_output: 24
    pad: 1
    kernel_size: 3
    stride: 1
    weight_filler {
      type: "xavier"
    }
    bias_filler {
      type: "constant"
      value: 0
    }
  }
}
layer {
  name: "conv6_2_mbox_conf_perm"
  type: "Permute"
  bottom: "conv6_2_mbox_conf"
  top: "conv6_2_mbox_conf_perm"
  permute_param {
    order: 0
    order: 2
    order: 3
    order: 1
  }
}
layer {
  name: "conv6_2_mbox_conf_flat"
  type: "Flatten"
  bottom: "conv6_2_mbox_conf_perm"
  top: "conv6_2_mbox_conf_flat"
  flatten_param {
    axis: 1
  }
}
layer {
  name: "conv6_2_mbox_priorbox"
  type: "PriorBox"
  bottom: "conv6_2"
  bottom: "data"
  top: "conv6_2_mbox_priorbox"
  prior_box_param {
    min_size: 111
    max_size: 162
    aspect_ratio: 2
    aspect_ratio: 3
    flip: true
    clip: false
    variance: 0.1
    variance: 0.1
    variance: 0.2
    variance: 0.2
    step: 32
    offset: 0.5
  }
}
layer {
  name: "conv7_2_mbox_loc"
  type: "Convolution"
  bottom: "conv7_2"
  top: "conv7_2_mbox_loc"
  param {
    lr_mult: 1
    decay_mult: 1
  }
  param {
    lr_mult: 2
    decay_mult: 0
  }
  convolution_param {
    num_output: 24
    pad: 1
    kernel_size: 3
    stride: 1
    weight_filler {
      type: "xavier"
    }
    bias_filler {
      type: "constant"
      value: 0
    }
  }
}
layer {
  name: "conv7_2_mbox_loc_perm"
  type: "Permute"
  bottom: "conv7_2_mbox_loc"
  top: "conv7_2_mbox_loc_perm"
  permute_param {
    order: 0
    order: 2
    order: 3
    order: 1
  }
}
layer {
  name: "conv7_2_mbox_loc_flat"
  type: "Flatten"
  bottom: "conv7_2_mbox_loc_perm"
  top: "conv7_2_mbox_loc_flat"
  flatten_param {
    axis: 1
  }
}
layer {
  name: "conv7_2_mbox_conf"
  type: "Convolution"
  bottom: "conv7_2"
  top: "conv7_2_mbox_conf"
  param {
    lr_mult: 1
    decay_mult: 1
  }
  param {
    lr_mult: 2
    decay_mult: 0
  }
  convolution_param {
    num_output: 24
    pad: 1
    kernel_size: 3
    stride: 1
    weight_filler {
      type: "xavier"
    }
    bias_filler {
      type: "constant"
      value: 0
    }
  }
}
layer {
  name: "conv7_2_mbox_conf_perm"
  type: "Permute"
  bottom: "conv7_2_mbox_conf"
  top: "conv7_2_mbox_conf_perm"
  permute_param {
    order: 0
    order: 2
    order: 3
    order: 1
  }
}
layer {
  name: "conv7_2_mbox_conf_flat"
  type: "Flatten"
  bottom: "conv7_2_mbox_conf_perm"
  top: "conv7_2_mbox_conf_flat"
  flatten_param {
    axis: 1
  }
}
layer {
  name: "conv7_2_mbox_priorbox"
  type: "PriorBox"
  bottom: "conv7_2"
  bottom: "data"
  top: "conv7_2_mbox_priorbox"
  prior_box_param {
    min_size: 162
    max_size: 213
    aspect_ratio: 2
    aspect_ratio: 3
    flip: true
    clip: false
    variance: 0.1
    variance: 0.1
    variance: 0.2
    variance: 0.2
    step: 64
    offset: 0.5
  }
}
layer {
  name: "conv8_2_mbox_loc"
  type: "Convolution"
  bottom: "conv8_2"
  top: "conv8_2_mbox_loc"
  param {
    lr_mult: 1
    decay_mult: 1
  }
  param {
    lr_mult: 2
    decay_mult: 0
  }
  convolution_param {
    num_output: 16
    pad: 1
    kernel_size: 3
    stride: 1
    weight_filler {
      type: "xavier"
    }
    bias_filler {
      type: "constant"
      value: 0
    }
  }
}
layer {
  name: "conv8_2_mbox_loc_perm"
  type: "Permute"
  bottom: "conv8_2_mbox_loc"
  top: "conv8_2_mbox_loc_perm"
  permute_param {
    order: 0
    order: 2
    order: 3
    order: 1
  }
}
layer {
  name: "conv8_2_mbox_loc_flat"
  type: "Flatten"
  bottom: "conv8_2_mbox_loc_perm"
  top: "conv8_2_mbox_loc_flat"
  flatten_param {
    axis: 1
  }
}
layer {
  name: "conv8_2_mbox_conf"
  type: "Convolution"
  bottom: "conv8_2"
  top: "conv8_2_mbox_conf"
  param {
    lr_mult: 1
    decay_mult: 1
  }
  param {
    lr_mult: 2
    decay_mult: 0
  }
  convolution_param {
    num_output: 16
    pad: 1
    kernel_size: 3
    stride: 1
    weight_filler {
      type: "xavier"
    }
    bias_filler {
      type: "constant"
      value: 0
    }
  }
}
layer {
  name: "conv8_2_mbox_conf_perm"
  type: "Permute"
  bottom: "conv8_2_mbox_conf"
  top: "conv8_2_mbox_conf_perm"
  permute_param {
    order: 0
    order: 2
    order: 3
    order: 1
  }
}
layer {
  name: "conv8_2_mbox_conf_flat"
  type: "Flatten"
  bottom: "conv8_2_mbox_conf_perm"
  top: "conv8_2_mbox_conf_flat"
  flatten_param {
    axis: 1
  }
}
layer {
  name: "conv8_2_mbox_priorbox"
  type: "PriorBox"
  bottom: "conv8_2"
  bottom: "data"
  top: "conv8_2_mbox_priorbox"
  prior_box_param {
    min_size: 213
    max_size: 264
    aspect_ratio: 2
    flip: true
    clip: false
    variance: 0.1
    variance: 0.1
    variance: 0.2
    variance: 0.2
    step: 100
    offset: 0.5
  }
}
layer {
  name: "conv9_2_mbox_loc"
  type: "Convolution"
  bottom: "conv9_2"
  top: "conv9_2_mbox_loc"
  param {
    lr_mult: 1
    decay_mult: 1
  }
  param {
    lr_mult: 2
    decay_mult: 0
  }
  convolution_param {
    num_output: 16
    pad: 1
    kernel_size: 3
    stride: 1
    weight_filler {
      type: "xavier"
    }
    bias_filler {
      type: "constant"
      value: 0
    }
  }
}
layer {
  name: "conv9_2_mbox_loc_perm"
  type: "Permute"
  bottom: "conv9_2_mbox_loc"
  top: "conv9_2_mbox_loc_perm"
  permute_param {
    order: 0
    order: 2
    order: 3
    order: 1
  }
}
layer {
  name: "conv9_2_mbox_loc_flat"
  type: "Flatten"
  bottom: "conv9_2_mbox_loc_perm"
  top: "conv9_2_mbox_loc_flat"
  flatten_param {
    axis: 1
  }
}
layer {
  name: "conv9_2_mbox_conf"
  type: "Convolution"
  bottom: "conv9_2"
  top: "conv9_2_mbox_conf"
  param {
    lr_mult: 1
    decay_mult: 1
  }
  param {
    lr_mult: 2
    decay_mult: 0
  }
  convolution_param {
    num_output: 16
    pad: 1
    kernel_size: 3
    stride: 1
    weight_filler {
      type: "xavier"
    }
    bias_filler {
      type: "constant"
      value: 0
    }
  }
}
layer {
  name: "conv9_2_mbox_conf_perm"
  type: "Permute"
  bottom: "conv9_2_mbox_conf"
  top: "conv9_2_mbox_conf_perm"
  permute_param {
    order: 0
    order: 2
    order: 3
    order: 1
  }
}
layer {
  name: "conv9_2_mbox_conf_flat"
  type: "Flatten"
  bottom: "conv9_2_mbox_conf_perm"
  top: "conv9_2_mbox_conf_flat"
  flatten_param {
    axis: 1
  }
}
layer {
  name: "conv9_2_mbox_priorbox"
  type: "PriorBox"
  bottom: "conv9_2"
  bottom: "data"
  top: "conv9_2_mbox_priorbox"
  prior_box_param {
    min_size: 264
    max_size: 315
    aspect_ratio: 2
    flip: true
    clip: false
    variance: 0.1
    variance: 0.1
    variance: 0.2
    variance: 0.2
    step: 300
    offset: 0.5
  }
}
layer {
  name: "mbox_loc"
  type: "Concat"
  bottom: "conv4_3_norm_mbox_loc_flat"
  bottom: "fc7_mbox_loc_flat"
  bottom: "conv6_2_mbox_loc_flat"
  bottom: "conv7_2_mbox_loc_flat"
  bottom: "conv8_2_mbox_loc_flat"
  bottom: "conv9_2_mbox_loc_flat"
  top: "mbox_loc"
  concat_param {
    axis: 1
  }
}
layer {
  name: "mbox_conf"
  type: "Concat"
  bottom: "conv4_3_norm_mbox_conf_flat"
  bottom: "fc7_mbox_conf_flat"
  bottom: "conv6_2_mbox_conf_flat"
  bottom: "conv7_2_mbox_conf_flat"
  bottom: "conv8_2_mbox_conf_flat"
  bottom: "conv9_2_mbox_conf_flat"
  top: "mbox_conf"
  concat_param {
    axis: 1
  }
}
layer {
  name: "mbox_priorbox"
  type: "Concat"
  bottom: "conv4_3_norm_mbox_priorbox"
  bottom: "fc7_mbox_priorbox"
  bottom: "conv6_2_mbox_priorbox"
  bottom: "conv7_2_mbox_priorbox"
  bottom: "conv8_2_mbox_priorbox"
  bottom: "conv9_2_mbox_priorbox"
  top: "mbox_priorbox"
  concat_param {
    axis: 2
  }
}
layer {
  name: "mbox_loss"
  type: "MultiBoxLoss"
  bottom: "mbox_loc"
  bottom: "mbox_conf"
  bottom: "mbox_priorbox"
  bottom: "label"
  top: "mbox_loss"
  include {
    phase: TRAIN
  }
  propagate_down: true
  propagate_down: true
  propagate_down: false
  propagate_down: false
  loss_param {
    normalization: VALID
  }
  multibox_loss_param {
    loc_loss_type: SMOOTH_L1
    conf_loss_type: SOFTMAX
    loc_weight: 1
    num_classes: 4
    share_location: true
    match_type: PER_PREDICTION
    overlap_threshold: 0.5
    use_prior_for_matching: true
    background_label_id: 0
    use_difficult_gt: true
    neg_pos_ratio: 3
    neg_overlap: 0.5
    code_type: CENTER_SIZE
    ignore_cross_boundary_bbox: false
    mining_type: MAX_NEGATIVE
  }
}
I0601 17:38:23.142457  7964 layer_factory.hpp:77] Creating layer data
I0601 17:38:23.142580  7964 net.cpp:100] Creating Layer data
I0601 17:38:23.142588  7964 net.cpp:408] data -> data
I0601 17:38:23.142617  7964 net.cpp:408] data -> label
I0601 17:38:23.143115  7977 db_lmdb.cpp:35] Opened lmdb examples/tbs_300x300_HSIL_10x/tbs_300x300_HSIL_10x_trainval_lmdb
I0601 17:38:23.250772  7964 annotated_data_layer.cpp:62] output data size: 35,3,300,300
I0601 17:38:23.360911  7964 net.cpp:150] Setting up data
I0601 17:38:23.360945  7964 net.cpp:157] Top shape: 35 3 300 300 (9450000)
I0601 17:38:23.360950  7964 net.cpp:157] Top shape: 1 1 5 8 (40)
I0601 17:38:23.360996  7964 net.cpp:165] Memory required for data: 37800160
I0601 17:38:23.361004  7964 layer_factory.hpp:77] Creating layer data_data_0_split
I0601 17:38:23.361016  7964 net.cpp:100] Creating Layer data_data_0_split
I0601 17:38:23.361021  7964 net.cpp:434] data_data_0_split <- data
I0601 17:38:23.361034  7964 net.cpp:408] data_data_0_split -> data_data_0_split_0
I0601 17:38:23.361044  7964 net.cpp:408] data_data_0_split -> data_data_0_split_1
I0601 17:38:23.361063  7964 net.cpp:408] data_data_0_split -> data_data_0_split_2
I0601 17:38:23.361068  7964 net.cpp:408] data_data_0_split -> data_data_0_split_3
I0601 17:38:23.361085  7964 net.cpp:408] data_data_0_split -> data_data_0_split_4
I0601 17:38:23.361090  7964 net.cpp:408] data_data_0_split -> data_data_0_split_5
I0601 17:38:23.361110  7964 net.cpp:408] data_data_0_split -> data_data_0_split_6
I0601 17:38:23.361212  7964 net.cpp:150] Setting up data_data_0_split
I0601 17:38:23.361217  7964 net.cpp:157] Top shape: 35 3 300 300 (9450000)
I0601 17:38:23.361220  7964 net.cpp:157] Top shape: 35 3 300 300 (9450000)
I0601 17:38:23.361223  7964 net.cpp:157] Top shape: 35 3 300 300 (9450000)
I0601 17:38:23.361227  7964 net.cpp:157] Top shape: 35 3 300 300 (9450000)
I0601 17:38:23.361228  7964 net.cpp:157] Top shape: 35 3 300 300 (9450000)
I0601 17:38:23.361245  7964 net.cpp:157] Top shape: 35 3 300 300 (9450000)
I0601 17:38:23.361248  7964 net.cpp:157] Top shape: 35 3 300 300 (9450000)
I0601 17:38:23.361251  7964 net.cpp:165] Memory required for data: 302400160
I0601 17:38:23.361253  7964 layer_factory.hpp:77] Creating layer conv1_1
I0601 17:38:23.361268  7964 net.cpp:100] Creating Layer conv1_1
I0601 17:38:23.361274  7964 net.cpp:434] conv1_1 <- data_data_0_split_0
I0601 17:38:23.361281  7964 net.cpp:408] conv1_1 -> conv1_1
I0601 17:38:23.629475  7964 net.cpp:150] Setting up conv1_1
I0601 17:38:23.629500  7964 net.cpp:157] Top shape: 35 64 300 300 (201600000)
I0601 17:38:23.629504  7964 net.cpp:165] Memory required for data: 1108800160
I0601 17:38:23.629525  7964 layer_factory.hpp:77] Creating layer relu1_1
I0601 17:38:23.629537  7964 net.cpp:100] Creating Layer relu1_1
I0601 17:38:23.629544  7964 net.cpp:434] relu1_1 <- conv1_1
I0601 17:38:23.629551  7964 net.cpp:395] relu1_1 -> conv1_1 (in-place)
I0601 17:38:23.630944  7964 net.cpp:150] Setting up relu1_1
I0601 17:38:23.630954  7964 net.cpp:157] Top shape: 35 64 300 300 (201600000)
I0601 17:38:23.630957  7964 net.cpp:165] Memory required for data: 1915200160
I0601 17:38:23.630961  7964 layer_factory.hpp:77] Creating layer conv1_2
I0601 17:38:23.630975  7964 net.cpp:100] Creating Layer conv1_2
I0601 17:38:23.630980  7964 net.cpp:434] conv1_2 <- conv1_1
I0601 17:38:23.630986  7964 net.cpp:408] conv1_2 -> conv1_2
I0601 17:38:23.637846  7964 net.cpp:150] Setting up conv1_2
I0601 17:38:23.637866  7964 net.cpp:157] Top shape: 35 64 300 300 (201600000)
I0601 17:38:23.637869  7964 net.cpp:165] Memory required for data: 2721600160
I0601 17:38:23.637881  7964 layer_factory.hpp:77] Creating layer relu1_2
I0601 17:38:23.637890  7964 net.cpp:100] Creating Layer relu1_2
I0601 17:38:23.637895  7964 net.cpp:434] relu1_2 <- conv1_2
I0601 17:38:23.637902  7964 net.cpp:395] relu1_2 -> conv1_2 (in-place)
I0601 17:38:23.639992  7964 net.cpp:150] Setting up relu1_2
I0601 17:38:23.640004  7964 net.cpp:157] Top shape: 35 64 300 300 (201600000)
I0601 17:38:23.640008  7964 net.cpp:165] Memory required for data: 3528000160
I0601 17:38:23.640013  7964 layer_factory.hpp:77] Creating layer pool1
I0601 17:38:23.640027  7964 net.cpp:100] Creating Layer pool1
I0601 17:38:23.640031  7964 net.cpp:434] pool1 <- conv1_2
I0601 17:38:23.640038  7964 net.cpp:408] pool1 -> pool1
I0601 17:38:23.640101  7964 net.cpp:150] Setting up pool1
I0601 17:38:23.640125  7964 net.cpp:157] Top shape: 35 64 150 150 (50400000)
I0601 17:38:23.640139  7964 net.cpp:165] Memory required for data: 3729600160
I0601 17:38:23.640154  7964 layer_factory.hpp:77] Creating layer conv2_1
I0601 17:38:23.640182  7964 net.cpp:100] Creating Layer conv2_1
I0601 17:38:23.640205  7964 net.cpp:434] conv2_1 <- pool1
I0601 17:38:23.640223  7964 net.cpp:408] conv2_1 -> conv2_1
I0601 17:38:23.648787  7964 net.cpp:150] Setting up conv2_1
I0601 17:38:23.648807  7964 net.cpp:157] Top shape: 35 128 150 150 (100800000)
I0601 17:38:23.648810  7964 net.cpp:165] Memory required for data: 4132800160
I0601 17:38:23.648821  7964 layer_factory.hpp:77] Creating layer relu2_1
I0601 17:38:23.648834  7964 net.cpp:100] Creating Layer relu2_1
I0601 17:38:23.648838  7964 net.cpp:434] relu2_1 <- conv2_1
I0601 17:38:23.648845  7964 net.cpp:395] relu2_1 -> conv2_1 (in-place)
I0601 17:38:23.650951  7964 net.cpp:150] Setting up relu2_1
I0601 17:38:23.650962  7964 net.cpp:157] Top shape: 35 128 150 150 (100800000)
I0601 17:38:23.650966  7964 net.cpp:165] Memory required for data: 4536000160
I0601 17:38:23.650970  7964 layer_factory.hpp:77] Creating layer conv2_2
I0601 17:38:23.650984  7964 net.cpp:100] Creating Layer conv2_2
I0601 17:38:23.650990  7964 net.cpp:434] conv2_2 <- conv2_1
I0601 17:38:23.650998  7964 net.cpp:408] conv2_2 -> conv2_2
I0601 17:38:23.658113  7964 net.cpp:150] Setting up conv2_2
I0601 17:38:23.658133  7964 net.cpp:157] Top shape: 35 128 150 150 (100800000)
I0601 17:38:23.658136  7964 net.cpp:165] Memory required for data: 4939200160
I0601 17:38:23.658145  7964 layer_factory.hpp:77] Creating layer relu2_2
I0601 17:38:23.658155  7964 net.cpp:100] Creating Layer relu2_2
I0601 17:38:23.658160  7964 net.cpp:434] relu2_2 <- conv2_2
I0601 17:38:23.658167  7964 net.cpp:395] relu2_2 -> conv2_2 (in-place)
I0601 17:38:23.660768  7964 net.cpp:150] Setting up relu2_2
I0601 17:38:23.660781  7964 net.cpp:157] Top shape: 35 128 150 150 (100800000)
I0601 17:38:23.660784  7964 net.cpp:165] Memory required for data: 5342400160
I0601 17:38:23.660789  7964 layer_factory.hpp:77] Creating layer pool2
I0601 17:38:23.660796  7964 net.cpp:100] Creating Layer pool2
I0601 17:38:23.660801  7964 net.cpp:434] pool2 <- conv2_2
I0601 17:38:23.660810  7964 net.cpp:408] pool2 -> pool2
I0601 17:38:23.660862  7964 net.cpp:150] Setting up pool2
I0601 17:38:23.660871  7964 net.cpp:157] Top shape: 35 128 75 75 (25200000)
I0601 17:38:23.660874  7964 net.cpp:165] Memory required for data: 5443200160
I0601 17:38:23.660877  7964 layer_factory.hpp:77] Creating layer conv3_1
I0601 17:38:23.660889  7964 net.cpp:100] Creating Layer conv3_1
I0601 17:38:23.660894  7964 net.cpp:434] conv3_1 <- pool2
I0601 17:38:23.660902  7964 net.cpp:408] conv3_1 -> conv3_1
I0601 17:38:23.670030  7964 net.cpp:150] Setting up conv3_1
I0601 17:38:23.670049  7964 net.cpp:157] Top shape: 35 256 75 75 (50400000)
I0601 17:38:23.670053  7964 net.cpp:165] Memory required for data: 5644800160
I0601 17:38:23.670065  7964 layer_factory.hpp:77] Creating layer relu3_1
I0601 17:38:23.670076  7964 net.cpp:100] Creating Layer relu3_1
I0601 17:38:23.670081  7964 net.cpp:434] relu3_1 <- conv3_1
I0601 17:38:23.670089  7964 net.cpp:395] relu3_1 -> conv3_1 (in-place)
I0601 17:38:23.671300  7964 net.cpp:150] Setting up relu3_1
I0601 17:38:23.671311  7964 net.cpp:157] Top shape: 35 256 75 75 (50400000)
I0601 17:38:23.671315  7964 net.cpp:165] Memory required for data: 5846400160
I0601 17:38:23.671320  7964 layer_factory.hpp:77] Creating layer conv3_2
I0601 17:38:23.671334  7964 net.cpp:100] Creating Layer conv3_2
I0601 17:38:23.671337  7964 net.cpp:434] conv3_2 <- conv3_1
I0601 17:38:23.671345  7964 net.cpp:408] conv3_2 -> conv3_2
I0601 17:38:23.678458  7964 net.cpp:150] Setting up conv3_2
I0601 17:38:23.678478  7964 net.cpp:157] Top shape: 35 256 75 75 (50400000)
I0601 17:38:23.678483  7964 net.cpp:165] Memory required for data: 6048000160
I0601 17:38:23.678491  7964 layer_factory.hpp:77] Creating layer relu3_2
I0601 17:38:23.678500  7964 net.cpp:100] Creating Layer relu3_2
I0601 17:38:23.678505  7964 net.cpp:434] relu3_2 <- conv3_2
I0601 17:38:23.678513  7964 net.cpp:395] relu3_2 -> conv3_2 (in-place)
I0601 17:38:23.680349  7964 net.cpp:150] Setting up relu3_2
I0601 17:38:23.680366  7964 net.cpp:157] Top shape: 35 256 75 75 (50400000)
I0601 17:38:23.680368  7964 net.cpp:165] Memory required for data: 6249600160
I0601 17:38:23.680387  7964 layer_factory.hpp:77] Creating layer conv3_3
I0601 17:38:23.680405  7964 net.cpp:100] Creating Layer conv3_3
I0601 17:38:23.680424  7964 net.cpp:434] conv3_3 <- conv3_2
I0601 17:38:23.680444  7964 net.cpp:408] conv3_3 -> conv3_3
I0601 17:38:23.689875  7964 net.cpp:150] Setting up conv3_3
I0601 17:38:23.689926  7964 net.cpp:157] Top shape: 35 256 75 75 (50400000)
I0601 17:38:23.689945  7964 net.cpp:165] Memory required for data: 6451200160
I0601 17:38:23.689965  7964 layer_factory.hpp:77] Creating layer relu3_3
I0601 17:38:23.689986  7964 net.cpp:100] Creating Layer relu3_3
I0601 17:38:23.689998  7964 net.cpp:434] relu3_3 <- conv3_3
I0601 17:38:23.690013  7964 net.cpp:395] relu3_3 -> conv3_3 (in-place)
I0601 17:38:23.691556  7964 net.cpp:150] Setting up relu3_3
I0601 17:38:23.691581  7964 net.cpp:157] Top shape: 35 256 75 75 (50400000)
I0601 17:38:23.691592  7964 net.cpp:165] Memory required for data: 6652800160
I0601 17:38:23.691603  7964 layer_factory.hpp:77] Creating layer pool3
I0601 17:38:23.691617  7964 net.cpp:100] Creating Layer pool3
I0601 17:38:23.691628  7964 net.cpp:434] pool3 <- conv3_3
I0601 17:38:23.691642  7964 net.cpp:408] pool3 -> pool3
I0601 17:38:23.691704  7964 net.cpp:150] Setting up pool3
I0601 17:38:23.691718  7964 net.cpp:157] Top shape: 35 256 38 38 (12938240)
I0601 17:38:23.691728  7964 net.cpp:165] Memory required for data: 6704553120
I0601 17:38:23.691738  7964 layer_factory.hpp:77] Creating layer conv4_1
I0601 17:38:23.691758  7964 net.cpp:100] Creating Layer conv4_1
I0601 17:38:23.691769  7964 net.cpp:434] conv4_1 <- pool3
I0601 17:38:23.691784  7964 net.cpp:408] conv4_1 -> conv4_1
I0601 17:38:23.708261  7964 net.cpp:150] Setting up conv4_1
I0601 17:38:23.708283  7964 net.cpp:157] Top shape: 35 512 38 38 (25876480)
I0601 17:38:23.708287  7964 net.cpp:165] Memory required for data: 6808059040
I0601 17:38:23.708297  7964 layer_factory.hpp:77] Creating layer relu4_1
I0601 17:38:23.708310  7964 net.cpp:100] Creating Layer relu4_1
I0601 17:38:23.708318  7964 net.cpp:434] relu4_1 <- conv4_1
I0601 17:38:23.708328  7964 net.cpp:395] relu4_1 -> conv4_1 (in-place)
I0601 17:38:23.708870  7964 net.cpp:150] Setting up relu4_1
I0601 17:38:23.708881  7964 net.cpp:157] Top shape: 35 512 38 38 (25876480)
I0601 17:38:23.708886  7964 net.cpp:165] Memory required for data: 6911564960
I0601 17:38:23.708889  7964 layer_factory.hpp:77] Creating layer conv4_2
I0601 17:38:23.708904  7964 net.cpp:100] Creating Layer conv4_2
I0601 17:38:23.708909  7964 net.cpp:434] conv4_2 <- conv4_1
I0601 17:38:23.708919  7964 net.cpp:408] conv4_2 -> conv4_2
I0601 17:38:23.725540  7964 net.cpp:150] Setting up conv4_2
I0601 17:38:23.725594  7964 net.cpp:157] Top shape: 35 512 38 38 (25876480)
I0601 17:38:23.725610  7964 net.cpp:165] Memory required for data: 7015070880
I0601 17:38:23.725632  7964 layer_factory.hpp:77] Creating layer relu4_2
I0601 17:38:23.725651  7964 net.cpp:100] Creating Layer relu4_2
I0601 17:38:23.725666  7964 net.cpp:434] relu4_2 <- conv4_2
I0601 17:38:23.725680  7964 net.cpp:395] relu4_2 -> conv4_2 (in-place)
I0601 17:38:23.729532  7964 net.cpp:150] Setting up relu4_2
I0601 17:38:23.729553  7964 net.cpp:157] Top shape: 35 512 38 38 (25876480)
I0601 17:38:23.729558  7964 net.cpp:165] Memory required for data: 7118576800
I0601 17:38:23.729563  7964 layer_factory.hpp:77] Creating layer conv4_3
I0601 17:38:23.729580  7964 net.cpp:100] Creating Layer conv4_3
I0601 17:38:23.729586  7964 net.cpp:434] conv4_3 <- conv4_2
I0601 17:38:23.729598  7964 net.cpp:408] conv4_3 -> conv4_3
I0601 17:38:23.744794  7964 net.cpp:150] Setting up conv4_3
I0601 17:38:23.744814  7964 net.cpp:157] Top shape: 35 512 38 38 (25876480)
I0601 17:38:23.744818  7964 net.cpp:165] Memory required for data: 7222082720
I0601 17:38:23.744827  7964 layer_factory.hpp:77] Creating layer relu4_3
I0601 17:38:23.744837  7964 net.cpp:100] Creating Layer relu4_3
I0601 17:38:23.744841  7964 net.cpp:434] relu4_3 <- conv4_3
I0601 17:38:23.744850  7964 net.cpp:395] relu4_3 -> conv4_3 (in-place)
I0601 17:38:23.746943  7964 net.cpp:150] Setting up relu4_3
I0601 17:38:23.746953  7964 net.cpp:157] Top shape: 35 512 38 38 (25876480)
I0601 17:38:23.746958  7964 net.cpp:165] Memory required for data: 7325588640
I0601 17:38:23.746961  7964 layer_factory.hpp:77] Creating layer conv4_3_relu4_3_0_split
I0601 17:38:23.746969  7964 net.cpp:100] Creating Layer conv4_3_relu4_3_0_split
I0601 17:38:23.746973  7964 net.cpp:434] conv4_3_relu4_3_0_split <- conv4_3
I0601 17:38:23.746980  7964 net.cpp:408] conv4_3_relu4_3_0_split -> conv4_3_relu4_3_0_split_0
I0601 17:38:23.746989  7964 net.cpp:408] conv4_3_relu4_3_0_split -> conv4_3_relu4_3_0_split_1
I0601 17:38:23.747032  7964 net.cpp:150] Setting up conv4_3_relu4_3_0_split
I0601 17:38:23.747040  7964 net.cpp:157] Top shape: 35 512 38 38 (25876480)
I0601 17:38:23.747045  7964 net.cpp:157] Top shape: 35 512 38 38 (25876480)
I0601 17:38:23.747050  7964 net.cpp:165] Memory required for data: 7532600480
I0601 17:38:23.747052  7964 layer_factory.hpp:77] Creating layer pool4
I0601 17:38:23.747061  7964 net.cpp:100] Creating Layer pool4
I0601 17:38:23.747064  7964 net.cpp:434] pool4 <- conv4_3_relu4_3_0_split_0
I0601 17:38:23.747071  7964 net.cpp:408] pool4 -> pool4
I0601 17:38:23.747107  7964 net.cpp:150] Setting up pool4
I0601 17:38:23.747113  7964 net.cpp:157] Top shape: 35 512 19 19 (6469120)
I0601 17:38:23.747117  7964 net.cpp:165] Memory required for data: 7558476960
I0601 17:38:23.747122  7964 layer_factory.hpp:77] Creating layer conv5_1
I0601 17:38:23.747133  7964 net.cpp:100] Creating Layer conv5_1
I0601 17:38:23.747138  7964 net.cpp:434] conv5_1 <- pool4
I0601 17:38:23.747146  7964 net.cpp:408] conv5_1 -> conv5_1
I0601 17:38:23.763603  7964 net.cpp:150] Setting up conv5_1
I0601 17:38:23.763622  7964 net.cpp:157] Top shape: 35 512 19 19 (6469120)
I0601 17:38:23.763625  7964 net.cpp:165] Memory required for data: 7584353440
I0601 17:38:23.763635  7964 layer_factory.hpp:77] Creating layer relu5_1
I0601 17:38:23.763646  7964 net.cpp:100] Creating Layer relu5_1
I0601 17:38:23.763651  7964 net.cpp:434] relu5_1 <- conv5_1
I0601 17:38:23.763658  7964 net.cpp:395] relu5_1 -> conv5_1 (in-place)
I0601 17:38:23.765530  7964 net.cpp:150] Setting up relu5_1
I0601 17:38:23.765540  7964 net.cpp:157] Top shape: 35 512 19 19 (6469120)
I0601 17:38:23.765544  7964 net.cpp:165] Memory required for data: 7610229920
I0601 17:38:23.765549  7964 layer_factory.hpp:77] Creating layer conv5_2
I0601 17:38:23.765563  7964 net.cpp:100] Creating Layer conv5_2
I0601 17:38:23.765568  7964 net.cpp:434] conv5_2 <- conv5_1
I0601 17:38:23.765575  7964 net.cpp:408] conv5_2 -> conv5_2
I0601 17:38:23.783000  7964 net.cpp:150] Setting up conv5_2
I0601 17:38:23.783021  7964 net.cpp:157] Top shape: 35 512 19 19 (6469120)
I0601 17:38:23.783025  7964 net.cpp:165] Memory required for data: 7636106400
I0601 17:38:23.783035  7964 layer_factory.hpp:77] Creating layer relu5_2
I0601 17:38:23.783048  7964 net.cpp:100] Creating Layer relu5_2
I0601 17:38:23.783056  7964 net.cpp:434] relu5_2 <- conv5_2
I0601 17:38:23.783062  7964 net.cpp:395] relu5_2 -> conv5_2 (in-place)
I0601 17:38:23.785167  7964 net.cpp:150] Setting up relu5_2
I0601 17:38:23.785177  7964 net.cpp:157] Top shape: 35 512 19 19 (6469120)
I0601 17:38:23.785181  7964 net.cpp:165] Memory required for data: 7661982880
I0601 17:38:23.785185  7964 layer_factory.hpp:77] Creating layer conv5_3
I0601 17:38:23.785197  7964 net.cpp:100] Creating Layer conv5_3
I0601 17:38:23.785202  7964 net.cpp:434] conv5_3 <- conv5_2
I0601 17:38:23.785210  7964 net.cpp:408] conv5_3 -> conv5_3
I0601 17:38:23.803860  7964 net.cpp:150] Setting up conv5_3
I0601 17:38:23.803880  7964 net.cpp:157] Top shape: 35 512 19 19 (6469120)
I0601 17:38:23.803884  7964 net.cpp:165] Memory required for data: 7687859360
I0601 17:38:23.803894  7964 layer_factory.hpp:77] Creating layer relu5_3
I0601 17:38:23.803908  7964 net.cpp:100] Creating Layer relu5_3
I0601 17:38:23.803913  7964 net.cpp:434] relu5_3 <- conv5_3
I0601 17:38:23.803920  7964 net.cpp:395] relu5_3 -> conv5_3 (in-place)
I0601 17:38:23.806026  7964 net.cpp:150] Setting up relu5_3
I0601 17:38:23.806046  7964 net.cpp:157] Top shape: 35 512 19 19 (6469120)
I0601 17:38:23.806049  7964 net.cpp:165] Memory required for data: 7713735840
I0601 17:38:23.806053  7964 layer_factory.hpp:77] Creating layer pool5
I0601 17:38:23.806062  7964 net.cpp:100] Creating Layer pool5
I0601 17:38:23.806067  7964 net.cpp:434] pool5 <- conv5_3
I0601 17:38:23.806073  7964 net.cpp:408] pool5 -> pool5
I0601 17:38:23.806118  7964 net.cpp:150] Setting up pool5
I0601 17:38:23.806124  7964 net.cpp:157] Top shape: 35 512 19 19 (6469120)
I0601 17:38:23.806128  7964 net.cpp:165] Memory required for data: 7739612320
I0601 17:38:23.806133  7964 layer_factory.hpp:77] Creating layer fc6
I0601 17:38:23.806143  7964 net.cpp:100] Creating Layer fc6
I0601 17:38:23.806147  7964 net.cpp:434] fc6 <- pool5
I0601 17:38:23.806154  7964 net.cpp:408] fc6 -> fc6
I0601 17:38:23.830241  7964 net.cpp:150] Setting up fc6
I0601 17:38:23.830261  7964 net.cpp:157] Top shape: 35 1024 19 19 (12938240)
I0601 17:38:23.830265  7964 net.cpp:165] Memory required for data: 7791365280
I0601 17:38:23.830274  7964 layer_factory.hpp:77] Creating layer relu6
I0601 17:38:23.830284  7964 net.cpp:100] Creating Layer relu6
I0601 17:38:23.830289  7964 net.cpp:434] relu6 <- fc6
I0601 17:38:23.830296  7964 net.cpp:395] relu6 -> fc6 (in-place)
I0601 17:38:23.831001  7964 net.cpp:150] Setting up relu6
I0601 17:38:23.831012  7964 net.cpp:157] Top shape: 35 1024 19 19 (12938240)
I0601 17:38:23.831014  7964 net.cpp:165] Memory required for data: 7843118240
I0601 17:38:23.831019  7964 layer_factory.hpp:77] Creating layer fc7
I0601 17:38:23.831032  7964 net.cpp:100] Creating Layer fc7
I0601 17:38:23.831038  7964 net.cpp:434] fc7 <- fc6
I0601 17:38:23.831045  7964 net.cpp:408] fc7 -> fc7
I0601 17:38:23.839814  7964 net.cpp:150] Setting up fc7
I0601 17:38:23.839834  7964 net.cpp:157] Top shape: 35 1024 19 19 (12938240)
I0601 17:38:23.839838  7964 net.cpp:165] Memory required for data: 7894871200
I0601 17:38:23.839848  7964 layer_factory.hpp:77] Creating layer relu7
I0601 17:38:23.839856  7964 net.cpp:100] Creating Layer relu7
I0601 17:38:23.839862  7964 net.cpp:434] relu7 <- fc7
I0601 17:38:23.839869  7964 net.cpp:395] relu7 -> fc7 (in-place)
I0601 17:38:23.841984  7964 net.cpp:150] Setting up relu7
I0601 17:38:23.841995  7964 net.cpp:157] Top shape: 35 1024 19 19 (12938240)
I0601 17:38:23.841998  7964 net.cpp:165] Memory required for data: 7946624160
I0601 17:38:23.842002  7964 layer_factory.hpp:77] Creating layer fc7_relu7_0_split
I0601 17:38:23.842010  7964 net.cpp:100] Creating Layer fc7_relu7_0_split
I0601 17:38:23.842015  7964 net.cpp:434] fc7_relu7_0_split <- fc7
I0601 17:38:23.842020  7964 net.cpp:408] fc7_relu7_0_split -> fc7_relu7_0_split_0
I0601 17:38:23.842031  7964 net.cpp:408] fc7_relu7_0_split -> fc7_relu7_0_split_1
I0601 17:38:23.842043  7964 net.cpp:408] fc7_relu7_0_split -> fc7_relu7_0_split_2
I0601 17:38:23.842051  7964 net.cpp:408] fc7_relu7_0_split -> fc7_relu7_0_split_3
I0601 17:38:23.842109  7964 net.cpp:150] Setting up fc7_relu7_0_split
I0601 17:38:23.842115  7964 net.cpp:157] Top shape: 35 1024 19 19 (12938240)
I0601 17:38:23.842123  7964 net.cpp:157] Top shape: 35 1024 19 19 (12938240)
I0601 17:38:23.842128  7964 net.cpp:157] Top shape: 35 1024 19 19 (12938240)
I0601 17:38:23.842133  7964 net.cpp:157] Top shape: 35 1024 19 19 (12938240)
I0601 17:38:23.842136  7964 net.cpp:165] Memory required for data: 8153636000
I0601 17:38:23.842139  7964 layer_factory.hpp:77] Creating layer conv6_1
I0601 17:38:23.842151  7964 net.cpp:100] Creating Layer conv6_1
I0601 17:38:23.842156  7964 net.cpp:434] conv6_1 <- fc7_relu7_0_split_0
I0601 17:38:23.842164  7964 net.cpp:408] conv6_1 -> conv6_1
I0601 17:38:23.850698  7964 net.cpp:150] Setting up conv6_1
I0601 17:38:23.850718  7964 net.cpp:157] Top shape: 35 256 19 19 (3234560)
I0601 17:38:23.850723  7964 net.cpp:165] Memory required for data: 8166574240
I0601 17:38:23.850731  7964 layer_factory.hpp:77] Creating layer conv6_1_relu
I0601 17:38:23.850742  7964 net.cpp:100] Creating Layer conv6_1_relu
I0601 17:38:23.850760  7964 net.cpp:434] conv6_1_relu <- conv6_1
I0601 17:38:23.850769  7964 net.cpp:395] conv6_1_relu -> conv6_1 (in-place)
I0601 17:38:23.851096  7964 net.cpp:150] Setting up conv6_1_relu
I0601 17:38:23.851116  7964 net.cpp:157] Top shape: 35 256 19 19 (3234560)
I0601 17:38:23.851121  7964 net.cpp:165] Memory required for data: 8179512480
I0601 17:38:23.851125  7964 layer_factory.hpp:77] Creating layer conv6_2
I0601 17:38:23.851137  7964 net.cpp:100] Creating Layer conv6_2
I0601 17:38:23.851143  7964 net.cpp:434] conv6_2 <- conv6_1
I0601 17:38:23.851153  7964 net.cpp:408] conv6_2 -> conv6_2
I0601 17:38:23.860117  7964 net.cpp:150] Setting up conv6_2
I0601 17:38:23.860136  7964 net.cpp:157] Top shape: 35 512 10 10 (1792000)
I0601 17:38:23.860141  7964 net.cpp:165] Memory required for data: 8186680480
I0601 17:38:23.860157  7964 layer_factory.hpp:77] Creating layer conv6_2_relu
I0601 17:38:23.860167  7964 net.cpp:100] Creating Layer conv6_2_relu
I0601 17:38:23.860172  7964 net.cpp:434] conv6_2_relu <- conv6_2
I0601 17:38:23.860179  7964 net.cpp:395] conv6_2_relu -> conv6_2 (in-place)
I0601 17:38:23.862296  7964 net.cpp:150] Setting up conv6_2_relu
I0601 17:38:23.862310  7964 net.cpp:157] Top shape: 35 512 10 10 (1792000)
I0601 17:38:23.862314  7964 net.cpp:165] Memory required for data: 8193848480
I0601 17:38:23.862318  7964 layer_factory.hpp:77] Creating layer conv6_2_conv6_2_relu_0_split
I0601 17:38:23.862326  7964 net.cpp:100] Creating Layer conv6_2_conv6_2_relu_0_split
I0601 17:38:23.862330  7964 net.cpp:434] conv6_2_conv6_2_relu_0_split <- conv6_2
I0601 17:38:23.862336  7964 net.cpp:408] conv6_2_conv6_2_relu_0_split -> conv6_2_conv6_2_relu_0_split_0
I0601 17:38:23.862347  7964 net.cpp:408] conv6_2_conv6_2_relu_0_split -> conv6_2_conv6_2_relu_0_split_1
I0601 17:38:23.862354  7964 net.cpp:408] conv6_2_conv6_2_relu_0_split -> conv6_2_conv6_2_relu_0_split_2
I0601 17:38:23.862361  7964 net.cpp:408] conv6_2_conv6_2_relu_0_split -> conv6_2_conv6_2_relu_0_split_3
I0601 17:38:23.862440  7964 net.cpp:150] Setting up conv6_2_conv6_2_relu_0_split
I0601 17:38:23.862447  7964 net.cpp:157] Top shape: 35 512 10 10 (1792000)
I0601 17:38:23.862452  7964 net.cpp:157] Top shape: 35 512 10 10 (1792000)
I0601 17:38:23.862455  7964 net.cpp:157] Top shape: 35 512 10 10 (1792000)
I0601 17:38:23.862460  7964 net.cpp:157] Top shape: 35 512 10 10 (1792000)
I0601 17:38:23.862462  7964 net.cpp:165] Memory required for data: 8222520480
I0601 17:38:23.862467  7964 layer_factory.hpp:77] Creating layer conv7_1
I0601 17:38:23.862478  7964 net.cpp:100] Creating Layer conv7_1
I0601 17:38:23.862483  7964 net.cpp:434] conv7_1 <- conv6_2_conv6_2_relu_0_split_0
I0601 17:38:23.862488  7964 net.cpp:408] conv7_1 -> conv7_1
I0601 17:38:23.870373  7964 net.cpp:150] Setting up conv7_1
I0601 17:38:23.870390  7964 net.cpp:157] Top shape: 35 128 10 10 (448000)
I0601 17:38:23.870394  7964 net.cpp:165] Memory required for data: 8224312480
I0601 17:38:23.870404  7964 layer_factory.hpp:77] Creating layer conv7_1_relu
I0601 17:38:23.870412  7964 net.cpp:100] Creating Layer conv7_1_relu
I0601 17:38:23.870417  7964 net.cpp:434] conv7_1_relu <- conv7_1
I0601 17:38:23.870426  7964 net.cpp:395] conv7_1_relu -> conv7_1 (in-place)
I0601 17:38:23.872537  7964 net.cpp:150] Setting up conv7_1_relu
I0601 17:38:23.872548  7964 net.cpp:157] Top shape: 35 128 10 10 (448000)
I0601 17:38:23.872551  7964 net.cpp:165] Memory required for data: 8226104480
I0601 17:38:23.872555  7964 layer_factory.hpp:77] Creating layer conv7_2
I0601 17:38:23.872566  7964 net.cpp:100] Creating Layer conv7_2
I0601 17:38:23.872572  7964 net.cpp:434] conv7_2 <- conv7_1
I0601 17:38:23.872581  7964 net.cpp:408] conv7_2 -> conv7_2
I0601 17:38:23.879428  7964 net.cpp:150] Setting up conv7_2
I0601 17:38:23.879446  7964 net.cpp:157] Top shape: 35 256 5 5 (224000)
I0601 17:38:23.879449  7964 net.cpp:165] Memory required for data: 8227000480
I0601 17:38:23.879457  7964 layer_factory.hpp:77] Creating layer conv7_2_relu
I0601 17:38:23.879480  7964 net.cpp:100] Creating Layer conv7_2_relu
I0601 17:38:23.879513  7964 net.cpp:434] conv7_2_relu <- conv7_2
I0601 17:38:23.879535  7964 net.cpp:395] conv7_2_relu -> conv7_2 (in-place)
I0601 17:38:23.881677  7964 net.cpp:150] Setting up conv7_2_relu
I0601 17:38:23.881685  7964 net.cpp:157] Top shape: 35 256 5 5 (224000)
I0601 17:38:23.881687  7964 net.cpp:165] Memory required for data: 8227896480
I0601 17:38:23.881690  7964 layer_factory.hpp:77] Creating layer conv7_2_conv7_2_relu_0_split
I0601 17:38:23.881698  7964 net.cpp:100] Creating Layer conv7_2_conv7_2_relu_0_split
I0601 17:38:23.881702  7964 net.cpp:434] conv7_2_conv7_2_relu_0_split <- conv7_2
I0601 17:38:23.881709  7964 net.cpp:408] conv7_2_conv7_2_relu_0_split -> conv7_2_conv7_2_relu_0_split_0
I0601 17:38:23.881719  7964 net.cpp:408] conv7_2_conv7_2_relu_0_split -> conv7_2_conv7_2_relu_0_split_1
I0601 17:38:23.881728  7964 net.cpp:408] conv7_2_conv7_2_relu_0_split -> conv7_2_conv7_2_relu_0_split_2
I0601 17:38:23.881736  7964 net.cpp:408] conv7_2_conv7_2_relu_0_split -> conv7_2_conv7_2_relu_0_split_3
I0601 17:38:23.881798  7964 net.cpp:150] Setting up conv7_2_conv7_2_relu_0_split
I0601 17:38:23.881805  7964 net.cpp:157] Top shape: 35 256 5 5 (224000)
I0601 17:38:23.881810  7964 net.cpp:157] Top shape: 35 256 5 5 (224000)
I0601 17:38:23.881815  7964 net.cpp:157] Top shape: 35 256 5 5 (224000)
I0601 17:38:23.881820  7964 net.cpp:157] Top shape: 35 256 5 5 (224000)
I0601 17:38:23.881825  7964 net.cpp:165] Memory required for data: 8231480480
I0601 17:38:23.881830  7964 layer_factory.hpp:77] Creating layer conv8_1
I0601 17:38:23.881842  7964 net.cpp:100] Creating Layer conv8_1
I0601 17:38:23.881849  7964 net.cpp:434] conv8_1 <- conv7_2_conv7_2_relu_0_split_0
I0601 17:38:23.881860  7964 net.cpp:408] conv8_1 -> conv8_1
I0601 17:38:23.888561  7964 net.cpp:150] Setting up conv8_1
I0601 17:38:23.888572  7964 net.cpp:157] Top shape: 35 128 5 5 (112000)
I0601 17:38:23.888576  7964 net.cpp:165] Memory required for data: 8231928480
I0601 17:38:23.888584  7964 layer_factory.hpp:77] Creating layer conv8_1_relu
I0601 17:38:23.888592  7964 net.cpp:100] Creating Layer conv8_1_relu
I0601 17:38:23.888597  7964 net.cpp:434] conv8_1_relu <- conv8_1
I0601 17:38:23.888604  7964 net.cpp:395] conv8_1_relu -> conv8_1 (in-place)
I0601 17:38:23.890740  7964 net.cpp:150] Setting up conv8_1_relu
I0601 17:38:23.890750  7964 net.cpp:157] Top shape: 35 128 5 5 (112000)
I0601 17:38:23.890754  7964 net.cpp:165] Memory required for data: 8232376480
I0601 17:38:23.890758  7964 layer_factory.hpp:77] Creating layer conv8_2
I0601 17:38:23.890770  7964 net.cpp:100] Creating Layer conv8_2
I0601 17:38:23.890774  7964 net.cpp:434] conv8_2 <- conv8_1
I0601 17:38:23.890784  7964 net.cpp:408] conv8_2 -> conv8_2
I0601 17:38:23.898605  7964 net.cpp:150] Setting up conv8_2
I0601 17:38:23.898624  7964 net.cpp:157] Top shape: 35 256 3 3 (80640)
I0601 17:38:23.898628  7964 net.cpp:165] Memory required for data: 8232699040
I0601 17:38:23.898638  7964 layer_factory.hpp:77] Creating layer conv8_2_relu
I0601 17:38:23.898651  7964 net.cpp:100] Creating Layer conv8_2_relu
I0601 17:38:23.898658  7964 net.cpp:434] conv8_2_relu <- conv8_2
I0601 17:38:23.898664  7964 net.cpp:395] conv8_2_relu -> conv8_2 (in-place)
I0601 17:38:23.901008  7964 net.cpp:150] Setting up conv8_2_relu
I0601 17:38:23.901018  7964 net.cpp:157] Top shape: 35 256 3 3 (80640)
I0601 17:38:23.901021  7964 net.cpp:165] Memory required for data: 8233021600
I0601 17:38:23.901026  7964 layer_factory.hpp:77] Creating layer conv8_2_conv8_2_relu_0_split
I0601 17:38:23.901034  7964 net.cpp:100] Creating Layer conv8_2_conv8_2_relu_0_split
I0601 17:38:23.901041  7964 net.cpp:434] conv8_2_conv8_2_relu_0_split <- conv8_2
I0601 17:38:23.901048  7964 net.cpp:408] conv8_2_conv8_2_relu_0_split -> conv8_2_conv8_2_relu_0_split_0
I0601 17:38:23.901057  7964 net.cpp:408] conv8_2_conv8_2_relu_0_split -> conv8_2_conv8_2_relu_0_split_1
I0601 17:38:23.901067  7964 net.cpp:408] conv8_2_conv8_2_relu_0_split -> conv8_2_conv8_2_relu_0_split_2
I0601 17:38:23.901077  7964 net.cpp:408] conv8_2_conv8_2_relu_0_split -> conv8_2_conv8_2_relu_0_split_3
I0601 17:38:23.901151  7964 net.cpp:150] Setting up conv8_2_conv8_2_relu_0_split
I0601 17:38:23.901159  7964 net.cpp:157] Top shape: 35 256 3 3 (80640)
I0601 17:38:23.901165  7964 net.cpp:157] Top shape: 35 256 3 3 (80640)
I0601 17:38:23.901170  7964 net.cpp:157] Top shape: 35 256 3 3 (80640)
I0601 17:38:23.901175  7964 net.cpp:157] Top shape: 35 256 3 3 (80640)
I0601 17:38:23.901178  7964 net.cpp:165] Memory required for data: 8234311840
I0601 17:38:23.901182  7964 layer_factory.hpp:77] Creating layer conv9_1
I0601 17:38:23.901193  7964 net.cpp:100] Creating Layer conv9_1
I0601 17:38:23.901197  7964 net.cpp:434] conv9_1 <- conv8_2_conv8_2_relu_0_split_0
I0601 17:38:23.901206  7964 net.cpp:408] conv9_1 -> conv9_1
I0601 17:38:23.907908  7964 net.cpp:150] Setting up conv9_1
I0601 17:38:23.907920  7964 net.cpp:157] Top shape: 35 128 3 3 (40320)
I0601 17:38:23.907924  7964 net.cpp:165] Memory required for data: 8234473120
I0601 17:38:23.907932  7964 layer_factory.hpp:77] Creating layer conv9_1_relu
I0601 17:38:23.907941  7964 net.cpp:100] Creating Layer conv9_1_relu
I0601 17:38:23.907946  7964 net.cpp:434] conv9_1_relu <- conv9_1
I0601 17:38:23.907953  7964 net.cpp:395] conv9_1_relu -> conv9_1 (in-place)
I0601 17:38:23.910073  7964 net.cpp:150] Setting up conv9_1_relu
I0601 17:38:23.910081  7964 net.cpp:157] Top shape: 35 128 3 3 (40320)
I0601 17:38:23.910085  7964 net.cpp:165] Memory required for data: 8234634400
I0601 17:38:23.910089  7964 layer_factory.hpp:77] Creating layer conv9_2
I0601 17:38:23.910100  7964 net.cpp:100] Creating Layer conv9_2
I0601 17:38:23.910105  7964 net.cpp:434] conv9_2 <- conv9_1
I0601 17:38:23.910112  7964 net.cpp:408] conv9_2 -> conv9_2
I0601 17:38:23.917037  7964 net.cpp:150] Setting up conv9_2
I0601 17:38:23.917055  7964 net.cpp:157] Top shape: 35 256 1 1 (8960)
I0601 17:38:23.917059  7964 net.cpp:165] Memory required for data: 8234670240
I0601 17:38:23.917068  7964 layer_factory.hpp:77] Creating layer conv9_2_relu
I0601 17:38:23.917075  7964 net.cpp:100] Creating Layer conv9_2_relu
I0601 17:38:23.917096  7964 net.cpp:434] conv9_2_relu <- conv9_2
I0601 17:38:23.917104  7964 net.cpp:395] conv9_2_relu -> conv9_2 (in-place)
I0601 17:38:23.919209  7964 net.cpp:150] Setting up conv9_2_relu
I0601 17:38:23.919216  7964 net.cpp:157] Top shape: 35 256 1 1 (8960)
I0601 17:38:23.919219  7964 net.cpp:165] Memory required for data: 8234706080
I0601 17:38:23.919224  7964 layer_factory.hpp:77] Creating layer conv9_2_conv9_2_relu_0_split
I0601 17:38:23.919230  7964 net.cpp:100] Creating Layer conv9_2_conv9_2_relu_0_split
I0601 17:38:23.919234  7964 net.cpp:434] conv9_2_conv9_2_relu_0_split <- conv9_2
I0601 17:38:23.919242  7964 net.cpp:408] conv9_2_conv9_2_relu_0_split -> conv9_2_conv9_2_relu_0_split_0
I0601 17:38:23.919251  7964 net.cpp:408] conv9_2_conv9_2_relu_0_split -> conv9_2_conv9_2_relu_0_split_1
I0601 17:38:23.919260  7964 net.cpp:408] conv9_2_conv9_2_relu_0_split -> conv9_2_conv9_2_relu_0_split_2
I0601 17:38:23.919312  7964 net.cpp:150] Setting up conv9_2_conv9_2_relu_0_split
I0601 17:38:23.919317  7964 net.cpp:157] Top shape: 35 256 1 1 (8960)
I0601 17:38:23.919323  7964 net.cpp:157] Top shape: 35 256 1 1 (8960)
I0601 17:38:23.919327  7964 net.cpp:157] Top shape: 35 256 1 1 (8960)
I0601 17:38:23.919332  7964 net.cpp:165] Memory required for data: 8234813600
I0601 17:38:23.919334  7964 layer_factory.hpp:77] Creating layer conv4_3_norm
I0601 17:38:23.919342  7964 net.cpp:100] Creating Layer conv4_3_norm
I0601 17:38:23.919348  7964 net.cpp:434] conv4_3_norm <- conv4_3_relu4_3_0_split_1
I0601 17:38:23.919353  7964 net.cpp:408] conv4_3_norm -> conv4_3_norm
I0601 17:38:23.919481  7964 net.cpp:150] Setting up conv4_3_norm
I0601 17:38:23.919488  7964 net.cpp:157] Top shape: 35 512 38 38 (25876480)
I0601 17:38:23.919492  7964 net.cpp:165] Memory required for data: 8338319520
I0601 17:38:23.919497  7964 layer_factory.hpp:77] Creating layer conv4_3_norm_conv4_3_norm_0_split
I0601 17:38:23.919503  7964 net.cpp:100] Creating Layer conv4_3_norm_conv4_3_norm_0_split
I0601 17:38:23.919508  7964 net.cpp:434] conv4_3_norm_conv4_3_norm_0_split <- conv4_3_norm
I0601 17:38:23.919524  7964 net.cpp:408] conv4_3_norm_conv4_3_norm_0_split -> conv4_3_norm_conv4_3_norm_0_split_0
I0601 17:38:23.919533  7964 net.cpp:408] conv4_3_norm_conv4_3_norm_0_split -> conv4_3_norm_conv4_3_norm_0_split_1
I0601 17:38:23.919540  7964 net.cpp:408] conv4_3_norm_conv4_3_norm_0_split -> conv4_3_norm_conv4_3_norm_0_split_2
I0601 17:38:23.919580  7964 net.cpp:150] Setting up conv4_3_norm_conv4_3_norm_0_split
I0601 17:38:23.919587  7964 net.cpp:157] Top shape: 35 512 38 38 (25876480)
I0601 17:38:23.919592  7964 net.cpp:157] Top shape: 35 512 38 38 (25876480)
I0601 17:38:23.919597  7964 net.cpp:157] Top shape: 35 512 38 38 (25876480)
I0601 17:38:23.919601  7964 net.cpp:165] Memory required for data: 8648837280
I0601 17:38:23.919605  7964 layer_factory.hpp:77] Creating layer conv4_3_norm_mbox_loc
I0601 17:38:23.919615  7964 net.cpp:100] Creating Layer conv4_3_norm_mbox_loc
I0601 17:38:23.919620  7964 net.cpp:434] conv4_3_norm_mbox_loc <- conv4_3_norm_conv4_3_norm_0_split_0
I0601 17:38:23.919626  7964 net.cpp:408] conv4_3_norm_mbox_loc -> conv4_3_norm_mbox_loc
I0601 17:38:23.928376  7964 net.cpp:150] Setting up conv4_3_norm_mbox_loc
I0601 17:38:23.928392  7964 net.cpp:157] Top shape: 35 16 38 38 (808640)
I0601 17:38:23.928395  7964 net.cpp:165] Memory required for data: 8652071840
I0601 17:38:23.928403  7964 layer_factory.hpp:77] Creating layer conv4_3_norm_mbox_loc_perm
I0601 17:38:23.928414  7964 net.cpp:100] Creating Layer conv4_3_norm_mbox_loc_perm
I0601 17:38:23.928419  7964 net.cpp:434] conv4_3_norm_mbox_loc_perm <- conv4_3_norm_mbox_loc
I0601 17:38:23.928426  7964 net.cpp:408] conv4_3_norm_mbox_loc_perm -> conv4_3_norm_mbox_loc_perm
I0601 17:38:23.928541  7964 net.cpp:150] Setting up conv4_3_norm_mbox_loc_perm
I0601 17:38:23.928549  7964 net.cpp:157] Top shape: 35 38 38 16 (808640)
I0601 17:38:23.928552  7964 net.cpp:165] Memory required for data: 8655306400
I0601 17:38:23.928556  7964 layer_factory.hpp:77] Creating layer conv4_3_norm_mbox_loc_flat
I0601 17:38:23.928563  7964 net.cpp:100] Creating Layer conv4_3_norm_mbox_loc_flat
I0601 17:38:23.928568  7964 net.cpp:434] conv4_3_norm_mbox_loc_flat <- conv4_3_norm_mbox_loc_perm
I0601 17:38:23.928575  7964 net.cpp:408] conv4_3_norm_mbox_loc_flat -> conv4_3_norm_mbox_loc_flat
I0601 17:38:23.928612  7964 net.cpp:150] Setting up conv4_3_norm_mbox_loc_flat
I0601 17:38:23.928619  7964 net.cpp:157] Top shape: 35 23104 (808640)
I0601 17:38:23.928624  7964 net.cpp:165] Memory required for data: 8658540960
I0601 17:38:23.928627  7964 layer_factory.hpp:77] Creating layer conv4_3_norm_mbox_conf
I0601 17:38:23.928644  7964 net.cpp:100] Creating Layer conv4_3_norm_mbox_conf
I0601 17:38:23.928649  7964 net.cpp:434] conv4_3_norm_mbox_conf <- conv4_3_norm_conv4_3_norm_0_split_1
I0601 17:38:23.928658  7964 net.cpp:408] conv4_3_norm_mbox_conf -> conv4_3_norm_mbox_conf
I0601 17:38:23.936908  7964 net.cpp:150] Setting up conv4_3_norm_mbox_conf
I0601 17:38:23.936918  7964 net.cpp:157] Top shape: 35 16 38 38 (808640)
I0601 17:38:23.936921  7964 net.cpp:165] Memory required for data: 8661775520
I0601 17:38:23.936942  7964 layer_factory.hpp:77] Creating layer conv4_3_norm_mbox_conf_perm
I0601 17:38:23.936947  7964 net.cpp:100] Creating Layer conv4_3_norm_mbox_conf_perm
I0601 17:38:23.936950  7964 net.cpp:434] conv4_3_norm_mbox_conf_perm <- conv4_3_norm_mbox_conf
I0601 17:38:23.936957  7964 net.cpp:408] conv4_3_norm_mbox_conf_perm -> conv4_3_norm_mbox_conf_perm
I0601 17:38:23.937060  7964 net.cpp:150] Setting up conv4_3_norm_mbox_conf_perm
I0601 17:38:23.937083  7964 net.cpp:157] Top shape: 35 38 38 16 (808640)
I0601 17:38:23.937086  7964 net.cpp:165] Memory required for data: 8665010080
I0601 17:38:23.937089  7964 layer_factory.hpp:77] Creating layer conv4_3_norm_mbox_conf_flat
I0601 17:38:23.937096  7964 net.cpp:100] Creating Layer conv4_3_norm_mbox_conf_flat
I0601 17:38:23.937101  7964 net.cpp:434] conv4_3_norm_mbox_conf_flat <- conv4_3_norm_mbox_conf_perm
I0601 17:38:23.937109  7964 net.cpp:408] conv4_3_norm_mbox_conf_flat -> conv4_3_norm_mbox_conf_flat
I0601 17:38:23.937186  7964 net.cpp:150] Setting up conv4_3_norm_mbox_conf_flat
I0601 17:38:23.937191  7964 net.cpp:157] Top shape: 35 23104 (808640)
I0601 17:38:23.937196  7964 net.cpp:165] Memory required for data: 8668244640
I0601 17:38:23.937211  7964 layer_factory.hpp:77] Creating layer conv4_3_norm_mbox_priorbox
I0601 17:38:23.937218  7964 net.cpp:100] Creating Layer conv4_3_norm_mbox_priorbox
I0601 17:38:23.937224  7964 net.cpp:434] conv4_3_norm_mbox_priorbox <- conv4_3_norm_conv4_3_norm_0_split_2
I0601 17:38:23.937229  7964 net.cpp:434] conv4_3_norm_mbox_priorbox <- data_data_0_split_1
I0601 17:38:23.937238  7964 net.cpp:408] conv4_3_norm_mbox_priorbox -> conv4_3_norm_mbox_priorbox
I0601 17:38:23.937265  7964 net.cpp:150] Setting up conv4_3_norm_mbox_priorbox
I0601 17:38:23.937273  7964 net.cpp:157] Top shape: 1 2 23104 (46208)
I0601 17:38:23.937278  7964 net.cpp:165] Memory required for data: 8668429472
I0601 17:38:23.937280  7964 layer_factory.hpp:77] Creating layer fc7_mbox_loc
I0601 17:38:23.937291  7964 net.cpp:100] Creating Layer fc7_mbox_loc
I0601 17:38:23.937296  7964 net.cpp:434] fc7_mbox_loc <- fc7_relu7_0_split_1
I0601 17:38:23.937305  7964 net.cpp:408] fc7_mbox_loc -> fc7_mbox_loc
I0601 17:38:23.957116  7964 net.cpp:150] Setting up fc7_mbox_loc
I0601 17:38:23.957128  7964 net.cpp:157] Top shape: 35 24 19 19 (303240)
I0601 17:38:23.957132  7964 net.cpp:165] Memory required for data: 8669642432
I0601 17:38:23.957154  7964 layer_factory.hpp:77] Creating layer fc7_mbox_loc_perm
I0601 17:38:23.957162  7964 net.cpp:100] Creating Layer fc7_mbox_loc_perm
I0601 17:38:23.957168  7964 net.cpp:434] fc7_mbox_loc_perm <- fc7_mbox_loc
I0601 17:38:23.957178  7964 net.cpp:408] fc7_mbox_loc_perm -> fc7_mbox_loc_perm
I0601 17:38:23.957291  7964 net.cpp:150] Setting up fc7_mbox_loc_perm
I0601 17:38:23.957299  7964 net.cpp:157] Top shape: 35 19 19 24 (303240)
I0601 17:38:23.957316  7964 net.cpp:165] Memory required for data: 8670855392
I0601 17:38:23.957321  7964 layer_factory.hpp:77] Creating layer fc7_mbox_loc_flat
I0601 17:38:23.957341  7964 net.cpp:100] Creating Layer fc7_mbox_loc_flat
I0601 17:38:23.957346  7964 net.cpp:434] fc7_mbox_loc_flat <- fc7_mbox_loc_perm
I0601 17:38:23.957366  7964 net.cpp:408] fc7_mbox_loc_flat -> fc7_mbox_loc_flat
I0601 17:38:23.957389  7964 net.cpp:150] Setting up fc7_mbox_loc_flat
I0601 17:38:23.957396  7964 net.cpp:157] Top shape: 35 8664 (303240)
I0601 17:38:23.957398  7964 net.cpp:165] Memory required for data: 8672068352
I0601 17:38:23.957402  7964 layer_factory.hpp:77] Creating layer fc7_mbox_conf
I0601 17:38:23.957414  7964 net.cpp:100] Creating Layer fc7_mbox_conf
I0601 17:38:23.957418  7964 net.cpp:434] fc7_mbox_conf <- fc7_relu7_0_split_2
I0601 17:38:23.957425  7964 net.cpp:408] fc7_mbox_conf -> fc7_mbox_conf
I0601 17:38:23.962903  7964 net.cpp:150] Setting up fc7_mbox_conf
I0601 17:38:23.962914  7964 net.cpp:157] Top shape: 35 24 19 19 (303240)
I0601 17:38:23.962918  7964 net.cpp:165] Memory required for data: 8673281312
I0601 17:38:23.962926  7964 layer_factory.hpp:77] Creating layer fc7_mbox_conf_perm
I0601 17:38:23.962934  7964 net.cpp:100] Creating Layer fc7_mbox_conf_perm
I0601 17:38:23.962939  7964 net.cpp:434] fc7_mbox_conf_perm <- fc7_mbox_conf
I0601 17:38:23.962947  7964 net.cpp:408] fc7_mbox_conf_perm -> fc7_mbox_conf_perm
I0601 17:38:23.963037  7964 net.cpp:150] Setting up fc7_mbox_conf_perm
I0601 17:38:23.963045  7964 net.cpp:157] Top shape: 35 19 19 24 (303240)
I0601 17:38:23.963048  7964 net.cpp:165] Memory required for data: 8674494272
I0601 17:38:23.963060  7964 layer_factory.hpp:77] Creating layer fc7_mbox_conf_flat
I0601 17:38:23.963065  7964 net.cpp:100] Creating Layer fc7_mbox_conf_flat
I0601 17:38:23.963070  7964 net.cpp:434] fc7_mbox_conf_flat <- fc7_mbox_conf_perm
I0601 17:38:23.963078  7964 net.cpp:408] fc7_mbox_conf_flat -> fc7_mbox_conf_flat
I0601 17:38:23.963101  7964 net.cpp:150] Setting up fc7_mbox_conf_flat
I0601 17:38:23.963107  7964 net.cpp:157] Top shape: 35 8664 (303240)
I0601 17:38:23.963111  7964 net.cpp:165] Memory required for data: 8675707232
I0601 17:38:23.963122  7964 layer_factory.hpp:77] Creating layer fc7_mbox_priorbox
I0601 17:38:23.963132  7964 net.cpp:100] Creating Layer fc7_mbox_priorbox
I0601 17:38:23.963136  7964 net.cpp:434] fc7_mbox_priorbox <- fc7_relu7_0_split_3
I0601 17:38:23.963142  7964 net.cpp:434] fc7_mbox_priorbox <- data_data_0_split_2
I0601 17:38:23.963152  7964 net.cpp:408] fc7_mbox_priorbox -> fc7_mbox_priorbox
I0601 17:38:23.963178  7964 net.cpp:150] Setting up fc7_mbox_priorbox
I0601 17:38:23.963186  7964 net.cpp:157] Top shape: 1 2 8664 (17328)
I0601 17:38:23.963188  7964 net.cpp:165] Memory required for data: 8675776544
I0601 17:38:23.963192  7964 layer_factory.hpp:77] Creating layer conv6_2_mbox_loc
I0601 17:38:23.963203  7964 net.cpp:100] Creating Layer conv6_2_mbox_loc
I0601 17:38:23.963208  7964 net.cpp:434] conv6_2_mbox_loc <- conv6_2_conv6_2_relu_0_split_1
I0601 17:38:23.963215  7964 net.cpp:408] conv6_2_mbox_loc -> conv6_2_mbox_loc
I0601 17:38:23.970470  7964 net.cpp:150] Setting up conv6_2_mbox_loc
I0601 17:38:23.970489  7964 net.cpp:157] Top shape: 35 24 10 10 (84000)
I0601 17:38:23.970492  7964 net.cpp:165] Memory required for data: 8676112544
I0601 17:38:23.970501  7964 layer_factory.hpp:77] Creating layer conv6_2_mbox_loc_perm
I0601 17:38:23.970525  7964 net.cpp:100] Creating Layer conv6_2_mbox_loc_perm
I0601 17:38:23.970535  7964 net.cpp:434] conv6_2_mbox_loc_perm <- conv6_2_mbox_loc
I0601 17:38:23.970544  7964 net.cpp:408] conv6_2_mbox_loc_perm -> conv6_2_mbox_loc_perm
I0601 17:38:23.970726  7964 net.cpp:150] Setting up conv6_2_mbox_loc_perm
I0601 17:38:23.970733  7964 net.cpp:157] Top shape: 35 10 10 24 (84000)
I0601 17:38:23.970736  7964 net.cpp:165] Memory required for data: 8676448544
I0601 17:38:23.970738  7964 layer_factory.hpp:77] Creating layer conv6_2_mbox_loc_flat
I0601 17:38:23.970744  7964 net.cpp:100] Creating Layer conv6_2_mbox_loc_flat
I0601 17:38:23.970748  7964 net.cpp:434] conv6_2_mbox_loc_flat <- conv6_2_mbox_loc_perm
I0601 17:38:23.970757  7964 net.cpp:408] conv6_2_mbox_loc_flat -> conv6_2_mbox_loc_flat
I0601 17:38:23.970784  7964 net.cpp:150] Setting up conv6_2_mbox_loc_flat
I0601 17:38:23.970790  7964 net.cpp:157] Top shape: 35 2400 (84000)
I0601 17:38:23.970793  7964 net.cpp:165] Memory required for data: 8676784544
I0601 17:38:23.970808  7964 layer_factory.hpp:77] Creating layer conv6_2_mbox_conf
I0601 17:38:23.970823  7964 net.cpp:100] Creating Layer conv6_2_mbox_conf
I0601 17:38:23.970829  7964 net.cpp:434] conv6_2_mbox_conf <- conv6_2_conv6_2_relu_0_split_2
I0601 17:38:23.970837  7964 net.cpp:408] conv6_2_mbox_conf -> conv6_2_mbox_conf
I0601 17:38:23.977175  7964 net.cpp:150] Setting up conv6_2_mbox_conf
I0601 17:38:23.977186  7964 net.cpp:157] Top shape: 35 24 10 10 (84000)
I0601 17:38:23.977188  7964 net.cpp:165] Memory required for data: 8677120544
I0601 17:38:23.977195  7964 layer_factory.hpp:77] Creating layer conv6_2_mbox_conf_perm
I0601 17:38:23.977203  7964 net.cpp:100] Creating Layer conv6_2_mbox_conf_perm
I0601 17:38:23.977210  7964 net.cpp:434] conv6_2_mbox_conf_perm <- conv6_2_mbox_conf
I0601 17:38:23.977217  7964 net.cpp:408] conv6_2_mbox_conf_perm -> conv6_2_mbox_conf_perm
I0601 17:38:23.977313  7964 net.cpp:150] Setting up conv6_2_mbox_conf_perm
I0601 17:38:23.977320  7964 net.cpp:157] Top shape: 35 10 10 24 (84000)
I0601 17:38:23.977324  7964 net.cpp:165] Memory required for data: 8677456544
I0601 17:38:23.977326  7964 layer_factory.hpp:77] Creating layer conv6_2_mbox_conf_flat
I0601 17:38:23.977331  7964 net.cpp:100] Creating Layer conv6_2_mbox_conf_flat
I0601 17:38:23.977335  7964 net.cpp:434] conv6_2_mbox_conf_flat <- conv6_2_mbox_conf_perm
I0601 17:38:23.977345  7964 net.cpp:408] conv6_2_mbox_conf_flat -> conv6_2_mbox_conf_flat
I0601 17:38:23.977372  7964 net.cpp:150] Setting up conv6_2_mbox_conf_flat
I0601 17:38:23.977378  7964 net.cpp:157] Top shape: 35 2400 (84000)
I0601 17:38:23.977380  7964 net.cpp:165] Memory required for data: 8677792544
I0601 17:38:23.977383  7964 layer_factory.hpp:77] Creating layer conv6_2_mbox_priorbox
I0601 17:38:23.977406  7964 net.cpp:100] Creating Layer conv6_2_mbox_priorbox
I0601 17:38:23.977411  7964 net.cpp:434] conv6_2_mbox_priorbox <- conv6_2_conv6_2_relu_0_split_3
I0601 17:38:23.977418  7964 net.cpp:434] conv6_2_mbox_priorbox <- data_data_0_split_3
I0601 17:38:23.977429  7964 net.cpp:408] conv6_2_mbox_priorbox -> conv6_2_mbox_priorbox
I0601 17:38:23.977458  7964 net.cpp:150] Setting up conv6_2_mbox_priorbox
I0601 17:38:23.977463  7964 net.cpp:157] Top shape: 1 2 2400 (4800)
I0601 17:38:23.977464  7964 net.cpp:165] Memory required for data: 8677811744
I0601 17:38:23.977468  7964 layer_factory.hpp:77] Creating layer conv7_2_mbox_loc
I0601 17:38:23.977474  7964 net.cpp:100] Creating Layer conv7_2_mbox_loc
I0601 17:38:23.977478  7964 net.cpp:434] conv7_2_mbox_loc <- conv7_2_conv7_2_relu_0_split_1
I0601 17:38:23.977483  7964 net.cpp:408] conv7_2_mbox_loc -> conv7_2_mbox_loc
I0601 17:38:23.986449  7964 net.cpp:150] Setting up conv7_2_mbox_loc
I0601 17:38:23.986464  7964 net.cpp:157] Top shape: 35 24 5 5 (21000)
I0601 17:38:23.986466  7964 net.cpp:165] Memory required for data: 8677895744
I0601 17:38:23.986474  7964 layer_factory.hpp:77] Creating layer conv7_2_mbox_loc_perm
I0601 17:38:23.986485  7964 net.cpp:100] Creating Layer conv7_2_mbox_loc_perm
I0601 17:38:23.986491  7964 net.cpp:434] conv7_2_mbox_loc_perm <- conv7_2_mbox_loc
I0601 17:38:23.986500  7964 net.cpp:408] conv7_2_mbox_loc_perm -> conv7_2_mbox_loc_perm
I0601 17:38:23.986598  7964 net.cpp:150] Setting up conv7_2_mbox_loc_perm
I0601 17:38:23.986605  7964 net.cpp:157] Top shape: 35 5 5 24 (21000)
I0601 17:38:23.986608  7964 net.cpp:165] Memory required for data: 8677979744
I0601 17:38:23.986610  7964 layer_factory.hpp:77] Creating layer conv7_2_mbox_loc_flat
I0601 17:38:23.986618  7964 net.cpp:100] Creating Layer conv7_2_mbox_loc_flat
I0601 17:38:23.986624  7964 net.cpp:434] conv7_2_mbox_loc_flat <- conv7_2_mbox_loc_perm
I0601 17:38:23.986630  7964 net.cpp:408] conv7_2_mbox_loc_flat -> conv7_2_mbox_loc_flat
I0601 17:38:23.986660  7964 net.cpp:150] Setting up conv7_2_mbox_loc_flat
I0601 17:38:23.986665  7964 net.cpp:157] Top shape: 35 600 (21000)
I0601 17:38:23.986668  7964 net.cpp:165] Memory required for data: 8678063744
I0601 17:38:23.986670  7964 layer_factory.hpp:77] Creating layer conv7_2_mbox_conf
I0601 17:38:23.986681  7964 net.cpp:100] Creating Layer conv7_2_mbox_conf
I0601 17:38:23.986686  7964 net.cpp:434] conv7_2_mbox_conf <- conv7_2_conv7_2_relu_0_split_2
I0601 17:38:23.986697  7964 net.cpp:408] conv7_2_mbox_conf -> conv7_2_mbox_conf
I0601 17:38:23.990814  7964 net.cpp:150] Setting up conv7_2_mbox_conf
I0601 17:38:23.990825  7964 net.cpp:157] Top shape: 35 24 5 5 (21000)
I0601 17:38:23.990828  7964 net.cpp:165] Memory required for data: 8678147744
I0601 17:38:23.990834  7964 layer_factory.hpp:77] Creating layer conv7_2_mbox_conf_perm
I0601 17:38:23.990844  7964 net.cpp:100] Creating Layer conv7_2_mbox_conf_perm
I0601 17:38:23.990849  7964 net.cpp:434] conv7_2_mbox_conf_perm <- conv7_2_mbox_conf
I0601 17:38:23.990856  7964 net.cpp:408] conv7_2_mbox_conf_perm -> conv7_2_mbox_conf_perm
I0601 17:38:23.990952  7964 net.cpp:150] Setting up conv7_2_mbox_conf_perm
I0601 17:38:23.990958  7964 net.cpp:157] Top shape: 35 5 5 24 (21000)
I0601 17:38:23.990962  7964 net.cpp:165] Memory required for data: 8678231744
I0601 17:38:23.990965  7964 layer_factory.hpp:77] Creating layer conv7_2_mbox_conf_flat
I0601 17:38:23.990974  7964 net.cpp:100] Creating Layer conv7_2_mbox_conf_flat
I0601 17:38:23.990979  7964 net.cpp:434] conv7_2_mbox_conf_flat <- conv7_2_mbox_conf_perm
I0601 17:38:23.990986  7964 net.cpp:408] conv7_2_mbox_conf_flat -> conv7_2_mbox_conf_flat
I0601 17:38:23.991013  7964 net.cpp:150] Setting up conv7_2_mbox_conf_flat
I0601 17:38:23.991019  7964 net.cpp:157] Top shape: 35 600 (21000)
I0601 17:38:23.991020  7964 net.cpp:165] Memory required for data: 8678315744
I0601 17:38:23.991024  7964 layer_factory.hpp:77] Creating layer conv7_2_mbox_priorbox
I0601 17:38:23.991031  7964 net.cpp:100] Creating Layer conv7_2_mbox_priorbox
I0601 17:38:23.991037  7964 net.cpp:434] conv7_2_mbox_priorbox <- conv7_2_conv7_2_relu_0_split_3
I0601 17:38:23.991055  7964 net.cpp:434] conv7_2_mbox_priorbox <- data_data_0_split_4
I0601 17:38:23.991065  7964 net.cpp:408] conv7_2_mbox_priorbox -> conv7_2_mbox_priorbox
I0601 17:38:23.991096  7964 net.cpp:150] Setting up conv7_2_mbox_priorbox
I0601 17:38:23.991101  7964 net.cpp:157] Top shape: 1 2 600 (1200)
I0601 17:38:23.991103  7964 net.cpp:165] Memory required for data: 8678320544
I0601 17:38:23.991106  7964 layer_factory.hpp:77] Creating layer conv8_2_mbox_loc
I0601 17:38:23.991117  7964 net.cpp:100] Creating Layer conv8_2_mbox_loc
I0601 17:38:23.991124  7964 net.cpp:434] conv8_2_mbox_loc <- conv8_2_conv8_2_relu_0_split_1
I0601 17:38:23.991132  7964 net.cpp:408] conv8_2_mbox_loc -> conv8_2_mbox_loc
I0601 17:38:23.997845  7964 net.cpp:150] Setting up conv8_2_mbox_loc
I0601 17:38:23.997862  7964 net.cpp:157] Top shape: 35 16 3 3 (5040)
I0601 17:38:23.997867  7964 net.cpp:165] Memory required for data: 8678340704
I0601 17:38:23.997887  7964 layer_factory.hpp:77] Creating layer conv8_2_mbox_loc_perm
I0601 17:38:23.997898  7964 net.cpp:100] Creating Layer conv8_2_mbox_loc_perm
I0601 17:38:23.997905  7964 net.cpp:434] conv8_2_mbox_loc_perm <- conv8_2_mbox_loc
I0601 17:38:23.997915  7964 net.cpp:408] conv8_2_mbox_loc_perm -> conv8_2_mbox_loc_perm
I0601 17:38:23.998044  7964 net.cpp:150] Setting up conv8_2_mbox_loc_perm
I0601 17:38:23.998052  7964 net.cpp:157] Top shape: 35 3 3 16 (5040)
I0601 17:38:23.998056  7964 net.cpp:165] Memory required for data: 8678360864
I0601 17:38:23.998060  7964 layer_factory.hpp:77] Creating layer conv8_2_mbox_loc_flat
I0601 17:38:23.998070  7964 net.cpp:100] Creating Layer conv8_2_mbox_loc_flat
I0601 17:38:23.998075  7964 net.cpp:434] conv8_2_mbox_loc_flat <- conv8_2_mbox_loc_perm
I0601 17:38:23.998080  7964 net.cpp:408] conv8_2_mbox_loc_flat -> conv8_2_mbox_loc_flat
I0601 17:38:23.998107  7964 net.cpp:150] Setting up conv8_2_mbox_loc_flat
I0601 17:38:23.998113  7964 net.cpp:157] Top shape: 35 144 (5040)
I0601 17:38:23.998117  7964 net.cpp:165] Memory required for data: 8678381024
I0601 17:38:23.998121  7964 layer_factory.hpp:77] Creating layer conv8_2_mbox_conf
I0601 17:38:23.998132  7964 net.cpp:100] Creating Layer conv8_2_mbox_conf
I0601 17:38:23.998137  7964 net.cpp:434] conv8_2_mbox_conf <- conv8_2_conv8_2_relu_0_split_2
I0601 17:38:23.998145  7964 net.cpp:408] conv8_2_mbox_conf -> conv8_2_mbox_conf
I0601 17:38:24.006197  7964 net.cpp:150] Setting up conv8_2_mbox_conf
I0601 17:38:24.006211  7964 net.cpp:157] Top shape: 35 16 3 3 (5040)
I0601 17:38:24.006214  7964 net.cpp:165] Memory required for data: 8678401184
I0601 17:38:24.006219  7964 layer_factory.hpp:77] Creating layer conv8_2_mbox_conf_perm
I0601 17:38:24.006242  7964 net.cpp:100] Creating Layer conv8_2_mbox_conf_perm
I0601 17:38:24.006247  7964 net.cpp:434] conv8_2_mbox_conf_perm <- conv8_2_mbox_conf
I0601 17:38:24.006252  7964 net.cpp:408] conv8_2_mbox_conf_perm -> conv8_2_mbox_conf_perm
I0601 17:38:24.006352  7964 net.cpp:150] Setting up conv8_2_mbox_conf_perm
I0601 17:38:24.006371  7964 net.cpp:157] Top shape: 35 3 3 16 (5040)
I0601 17:38:24.006373  7964 net.cpp:165] Memory required for data: 8678421344
I0601 17:38:24.006376  7964 layer_factory.hpp:77] Creating layer conv8_2_mbox_conf_flat
I0601 17:38:24.006378  7964 net.cpp:100] Creating Layer conv8_2_mbox_conf_flat
I0601 17:38:24.006381  7964 net.cpp:434] conv8_2_mbox_conf_flat <- conv8_2_mbox_conf_perm
I0601 17:38:24.006400  7964 net.cpp:408] conv8_2_mbox_conf_flat -> conv8_2_mbox_conf_flat
I0601 17:38:24.006433  7964 net.cpp:150] Setting up conv8_2_mbox_conf_flat
I0601 17:38:24.006438  7964 net.cpp:157] Top shape: 35 144 (5040)
I0601 17:38:24.006439  7964 net.cpp:165] Memory required for data: 8678441504
I0601 17:38:24.006443  7964 layer_factory.hpp:77] Creating layer conv8_2_mbox_priorbox
I0601 17:38:24.006448  7964 net.cpp:100] Creating Layer conv8_2_mbox_priorbox
I0601 17:38:24.006451  7964 net.cpp:434] conv8_2_mbox_priorbox <- conv8_2_conv8_2_relu_0_split_3
I0601 17:38:24.006454  7964 net.cpp:434] conv8_2_mbox_priorbox <- data_data_0_split_5
I0601 17:38:24.006470  7964 net.cpp:408] conv8_2_mbox_priorbox -> conv8_2_mbox_priorbox
I0601 17:38:24.006494  7964 net.cpp:150] Setting up conv8_2_mbox_priorbox
I0601 17:38:24.006498  7964 net.cpp:157] Top shape: 1 2 144 (288)
I0601 17:38:24.006500  7964 net.cpp:165] Memory required for data: 8678442656
I0601 17:38:24.006503  7964 layer_factory.hpp:77] Creating layer conv9_2_mbox_loc
I0601 17:38:24.006510  7964 net.cpp:100] Creating Layer conv9_2_mbox_loc
I0601 17:38:24.006513  7964 net.cpp:434] conv9_2_mbox_loc <- conv9_2_conv9_2_relu_0_split_0
I0601 17:38:24.006518  7964 net.cpp:408] conv9_2_mbox_loc -> conv9_2_mbox_loc
I0601 17:38:24.012892  7964 net.cpp:150] Setting up conv9_2_mbox_loc
I0601 17:38:24.012902  7964 net.cpp:157] Top shape: 35 16 1 1 (560)
I0601 17:38:24.012905  7964 net.cpp:165] Memory required for data: 8678444896
I0601 17:38:24.012910  7964 layer_factory.hpp:77] Creating layer conv9_2_mbox_loc_perm
I0601 17:38:24.012917  7964 net.cpp:100] Creating Layer conv9_2_mbox_loc_perm
I0601 17:38:24.012920  7964 net.cpp:434] conv9_2_mbox_loc_perm <- conv9_2_mbox_loc
I0601 17:38:24.012925  7964 net.cpp:408] conv9_2_mbox_loc_perm -> conv9_2_mbox_loc_perm
I0601 17:38:24.013036  7964 net.cpp:150] Setting up conv9_2_mbox_loc_perm
I0601 17:38:24.013044  7964 net.cpp:157] Top shape: 35 1 1 16 (560)
I0601 17:38:24.013061  7964 net.cpp:165] Memory required for data: 8678447136
I0601 17:38:24.013062  7964 layer_factory.hpp:77] Creating layer conv9_2_mbox_loc_flat
I0601 17:38:24.013065  7964 net.cpp:100] Creating Layer conv9_2_mbox_loc_flat
I0601 17:38:24.013068  7964 net.cpp:434] conv9_2_mbox_loc_flat <- conv9_2_mbox_loc_perm
I0601 17:38:24.013072  7964 net.cpp:408] conv9_2_mbox_loc_flat -> conv9_2_mbox_loc_flat
I0601 17:38:24.013090  7964 net.cpp:150] Setting up conv9_2_mbox_loc_flat
I0601 17:38:24.013094  7964 net.cpp:157] Top shape: 35 16 (560)
I0601 17:38:24.013098  7964 net.cpp:165] Memory required for data: 8678449376
I0601 17:38:24.013099  7964 layer_factory.hpp:77] Creating layer conv9_2_mbox_conf
I0601 17:38:24.013106  7964 net.cpp:100] Creating Layer conv9_2_mbox_conf
I0601 17:38:24.013109  7964 net.cpp:434] conv9_2_mbox_conf <- conv9_2_conv9_2_relu_0_split_1
I0601 17:38:24.013114  7964 net.cpp:408] conv9_2_mbox_conf -> conv9_2_mbox_conf
I0601 17:38:24.019769  7964 net.cpp:150] Setting up conv9_2_mbox_conf
I0601 17:38:24.019780  7964 net.cpp:157] Top shape: 35 16 1 1 (560)
I0601 17:38:24.019783  7964 net.cpp:165] Memory required for data: 8678451616
I0601 17:38:24.019788  7964 layer_factory.hpp:77] Creating layer conv9_2_mbox_conf_perm
I0601 17:38:24.019793  7964 net.cpp:100] Creating Layer conv9_2_mbox_conf_perm
I0601 17:38:24.019798  7964 net.cpp:434] conv9_2_mbox_conf_perm <- conv9_2_mbox_conf
I0601 17:38:24.019804  7964 net.cpp:408] conv9_2_mbox_conf_perm -> conv9_2_mbox_conf_perm
I0601 17:38:24.019888  7964 net.cpp:150] Setting up conv9_2_mbox_conf_perm
I0601 17:38:24.019893  7964 net.cpp:157] Top shape: 35 1 1 16 (560)
I0601 17:38:24.019896  7964 net.cpp:165] Memory required for data: 8678453856
I0601 17:38:24.019897  7964 layer_factory.hpp:77] Creating layer conv9_2_mbox_conf_flat
I0601 17:38:24.019902  7964 net.cpp:100] Creating Layer conv9_2_mbox_conf_flat
I0601 17:38:24.019906  7964 net.cpp:434] conv9_2_mbox_conf_flat <- conv9_2_mbox_conf_perm
I0601 17:38:24.019909  7964 net.cpp:408] conv9_2_mbox_conf_flat -> conv9_2_mbox_conf_flat
I0601 17:38:24.019928  7964 net.cpp:150] Setting up conv9_2_mbox_conf_flat
I0601 17:38:24.019932  7964 net.cpp:157] Top shape: 35 16 (560)
I0601 17:38:24.019934  7964 net.cpp:165] Memory required for data: 8678456096
I0601 17:38:24.019937  7964 layer_factory.hpp:77] Creating layer conv9_2_mbox_priorbox
I0601 17:38:24.019942  7964 net.cpp:100] Creating Layer conv9_2_mbox_priorbox
I0601 17:38:24.019946  7964 net.cpp:434] conv9_2_mbox_priorbox <- conv9_2_conv9_2_relu_0_split_2
I0601 17:38:24.019949  7964 net.cpp:434] conv9_2_mbox_priorbox <- data_data_0_split_6
I0601 17:38:24.019954  7964 net.cpp:408] conv9_2_mbox_priorbox -> conv9_2_mbox_priorbox
I0601 17:38:24.019984  7964 net.cpp:150] Setting up conv9_2_mbox_priorbox
I0601 17:38:24.019989  7964 net.cpp:157] Top shape: 1 2 16 (32)
I0601 17:38:24.019991  7964 net.cpp:165] Memory required for data: 8678456224
I0601 17:38:24.019994  7964 layer_factory.hpp:77] Creating layer mbox_loc
I0601 17:38:24.019999  7964 net.cpp:100] Creating Layer mbox_loc
I0601 17:38:24.020004  7964 net.cpp:434] mbox_loc <- conv4_3_norm_mbox_loc_flat
I0601 17:38:24.020006  7964 net.cpp:434] mbox_loc <- fc7_mbox_loc_flat
I0601 17:38:24.020010  7964 net.cpp:434] mbox_loc <- conv6_2_mbox_loc_flat
I0601 17:38:24.020015  7964 net.cpp:434] mbox_loc <- conv7_2_mbox_loc_flat
I0601 17:38:24.020025  7964 net.cpp:434] mbox_loc <- conv8_2_mbox_loc_flat
I0601 17:38:24.020030  7964 net.cpp:434] mbox_loc <- conv9_2_mbox_loc_flat
I0601 17:38:24.020036  7964 net.cpp:408] mbox_loc -> mbox_loc
I0601 17:38:24.020059  7964 net.cpp:150] Setting up mbox_loc
I0601 17:38:24.020064  7964 net.cpp:157] Top shape: 35 34928 (1222480)
I0601 17:38:24.020066  7964 net.cpp:165] Memory required for data: 8683346144
I0601 17:38:24.020068  7964 layer_factory.hpp:77] Creating layer mbox_conf
I0601 17:38:24.020073  7964 net.cpp:100] Creating Layer mbox_conf
I0601 17:38:24.020076  7964 net.cpp:434] mbox_conf <- conv4_3_norm_mbox_conf_flat
I0601 17:38:24.020079  7964 net.cpp:434] mbox_conf <- fc7_mbox_conf_flat
I0601 17:38:24.020083  7964 net.cpp:434] mbox_conf <- conv6_2_mbox_conf_flat
I0601 17:38:24.020086  7964 net.cpp:434] mbox_conf <- conv7_2_mbox_conf_flat
I0601 17:38:24.020089  7964 net.cpp:434] mbox_conf <- conv8_2_mbox_conf_flat
I0601 17:38:24.020092  7964 net.cpp:434] mbox_conf <- conv9_2_mbox_conf_flat
I0601 17:38:24.020095  7964 net.cpp:408] mbox_conf -> mbox_conf
I0601 17:38:24.020112  7964 net.cpp:150] Setting up mbox_conf
I0601 17:38:24.020117  7964 net.cpp:157] Top shape: 35 34928 (1222480)
I0601 17:38:24.020119  7964 net.cpp:165] Memory required for data: 8688236064
I0601 17:38:24.020122  7964 layer_factory.hpp:77] Creating layer mbox_priorbox
I0601 17:38:24.020126  7964 net.cpp:100] Creating Layer mbox_priorbox
I0601 17:38:24.020129  7964 net.cpp:434] mbox_priorbox <- conv4_3_norm_mbox_priorbox
I0601 17:38:24.020133  7964 net.cpp:434] mbox_priorbox <- fc7_mbox_priorbox
I0601 17:38:24.020135  7964 net.cpp:434] mbox_priorbox <- conv6_2_mbox_priorbox
I0601 17:38:24.020138  7964 net.cpp:434] mbox_priorbox <- conv7_2_mbox_priorbox
I0601 17:38:24.020140  7964 net.cpp:434] mbox_priorbox <- conv8_2_mbox_priorbox
I0601 17:38:24.020143  7964 net.cpp:434] mbox_priorbox <- conv9_2_mbox_priorbox
I0601 17:38:24.020146  7964 net.cpp:408] mbox_priorbox -> mbox_priorbox
I0601 17:38:24.020164  7964 net.cpp:150] Setting up mbox_priorbox
I0601 17:38:24.020169  7964 net.cpp:157] Top shape: 1 2 34928 (69856)
I0601 17:38:24.020170  7964 net.cpp:165] Memory required for data: 8688515488
I0601 17:38:24.020171  7964 layer_factory.hpp:77] Creating layer mbox_loss
I0601 17:38:24.020179  7964 net.cpp:100] Creating Layer mbox_loss
I0601 17:38:24.020182  7964 net.cpp:434] mbox_loss <- mbox_loc
I0601 17:38:24.020185  7964 net.cpp:434] mbox_loss <- mbox_conf
I0601 17:38:24.020189  7964 net.cpp:434] mbox_loss <- mbox_priorbox
…
  name: "data"
  type: "AnnotatedData"
  top: "data"
  top: "label"
  include {
    phase: TEST
  }
  transform_param {
    mean_value: 104
    mean_value: 117
    mean_value: 123
    resize_param {
      prob: 1
      resize_mode: WARP
      height: 300
      width: 300
      interp_mode: LINEAR
    }
  }
  data_param {
    source: "examples/tbs_300x300_HSIL_10x/tbs_300x300_HSIL_10x_test_lmdb"
    batch_size: 4
    backend: LMDB
  }
  annotated_data_param {
    batch_sampler {
    }
    label_map_file: "data/tbs_300x300_HSIL_10x/labelmap_voc.prototxt"
  }
}
layer {
  name: "conv1_1"
  type: "Convolution"
  bottom: "data"
  top: "conv1_1"
  param {
    lr_mult: 1
    decay_mult: 1
  }
  param {
    lr_mult: 2
    decay_mult: 0
  }
  convolution_param {
    num_output: 64
    pad: 1
    kernel_size: 3
    weight_filler {
      type: "xavier"
    }
    bias_filler {
      type: "constant"
      value: 0
    }
  }
}
layer {
  name: "relu1_1"
  type: "ReLU"
  bottom: "conv1_1"
  top: "conv1_1"
}
layer {
  name: "conv1_2"
  type: "Convolution"
  bottom: "conv1_1"
  top: "conv1_2"
  param {
    lr_mult: 1
    decay_mult: 1
  }
  param {
    lr_mult: 2
    decay_mult: 0
  }
  convolution_param {
    num_output: 64
    pad: 1
    kernel_size: 3
    weight_filler {
      type: "xavier"
    }
    bias_filler {
      type: "constant"
      value: 0
    }
  }
}
layer {
  name: "relu1_2"
  type: "ReLU"
  bottom: "conv1_2"
  top: "conv1_2"
}
layer {
  name: "pool1"
  type: "Pooling"
  bottom: "conv1_2"
  top: "pool1"
  pooling_param {
    pool: MAX
    kernel_size: 2
    stride: 2
  }
}
layer {
  name: "conv2_1"
  type: "Convolution"
  bottom: "pool1"
  top: "conv2_1"
  param {
    lr_mult: 1
    decay_mult: 1
  }
  param {
    lr_mult: 2
    decay_mult: 0
  }
  convolution_param {
    num_output: 128
    pad: 1
    kernel_size: 3
    weight_filler {
      type: "xavier"
    }
    bias_filler {
      type: "constant"
      value: 0
    }
  }
}
layer {
  name: "relu2_1"
  type: "ReLU"
  bottom: "conv2_1"
  top: "conv2_1"
}
layer {
  name: "conv2_2"
  type: "Convolution"
  bottom: "conv2_1"
  top: "conv2_2"
  param {
    lr_mult: 1
    decay_mult: 1
  }
  param {
    lr_mult: 2
    decay_mult: 0
  }
  convolution_param {
    num_output: 128
    pad: 1
    kernel_size: 3
    weight_filler {
      type: "xavier"
    }
    bias_filler {
      type: "constant"
      value: 0
    }
  }
}
layer {
  name: "relu2_2"
  type: "ReLU"
  bottom: "conv2_2"
  top: "conv2_2"
}
layer {
  name: "pool2"
  type: "Pooling"
  bottom: "conv2_2"
  top: "pool2"
  pooling_param {
    pool: MAX
    kernel_size: 2
    stride: 2
  }
}
layer {
  name: "conv3_1"
  type: "Convolution"
  bottom: "pool2"
  top: "conv3_1"
  param {
    lr_mult: 1
    decay_mult: 1
  }
  param {
    lr_mult: 2
    decay_mult: 0
  }
  convolution_param {
    num_output: 256
    pad: 1
    kernel_size: 3
    weight_filler {
      type: "xavier"
    }
    bias_filler {
      type: "constant"
      value: 0
    }
  }
}
layer {
  name: "relu3_1"
  type: "ReLU"
  bottom: "conv3_1"
  top: "conv3_1"
}
layer {
  name: "conv3_2"
  type: "Convolution"
  bottom: "conv3_1"
  top: "conv3_2"
  param {
    lr_mult: 1
    decay_mult: 1
  }
  param {
    lr_mult: 2
    decay_mult: 0
  }
  convolution_param {
    num_output: 256
    pad: 1
    kernel_size: 3
    weight_filler {
      type: "xavier"
    }
    bias_filler {
      type: "constant"
      value: 0
    }
  }
}
layer {
  name: "relu3_2"
  type: "ReLU"
  bottom: "conv3_2"
  top: "conv3_2"
}
layer {
  name: "conv3_3"
  type: "Convolution"
  bottom: "conv3_2"
  top: "conv3_3"
  param {
    lr_mult: 1
    decay_mult: 1
  }
  param {
    lr_mult: 2
    decay_mult: 0
  }
  convolution_param {
    num_output: 256
    pad: 1
    kernel_size: 3
    weight_filler {
      type: "xavier"
    }
    bias_filler {
      type: "constant"
      value: 0
    }
  }
}
layer {
  name: "relu3_3"
  type: "ReLU"
  bottom: "conv3_3"
  top: "conv3_3"
}
layer {
  name: "pool3"
  type: "Pooling"
  bottom: "conv3_3"
  top: "pool3"
  pooling_param {
    pool: MAX
    kernel_size: 2
    stride: 2
  }
}
layer {
  name: "conv4_1"
  type: "Convolution"
  bottom: "pool3"
  top: "conv4_1"
  param {
    lr_mult: 1
    decay_mult: 1
  }
  param {
    lr_mult: 2
    decay_mult: 0
  }
  convolution_param {
    num_output: 512
    pad: 1
    kernel_size: 3
    weight_filler {
      type: "xavier"
    }
    bias_filler {
      type: "constant"
      value: 0
    }
  }
}
layer {
  name: "relu4_1"
  type: "ReLU"
  bottom: "conv4_1"
  top: "conv4_1"
}
layer {
  name: "conv4_2"
  type: "Convolution"
  bottom: "conv4_1"
  top: "conv4_2"
  param {
    lr_mult: 1
    decay_mult: 1
  }
  param {
    lr_mult: 2
    decay_mult: 0
  }
  convolution_param {
    num_output: 512
    pad: 1
    kernel_size: 3
    weight_filler {
      type: "xavier"
    }
    bias_filler {
      type: "constant"
      value: 0
    }
  }
}
layer {
  name: "relu4_2"
  type: "ReLU"
  bottom: "conv4_2"
  top: "conv4_2"
}
layer {
  name: "conv4_3"
  type: "Convolution"
  bottom: "conv4_2"
  top: "conv4_3"
  param {
    lr_mult: 1
    decay_mult: 1
  }
  param {
    lr_mult: 2
    decay_mult: 0
  }
  convolution_param {
    num_output: 512
    pad: 1
    kernel_size: 3
    weight_filler {
      type: "xavier"
    }
    bias_filler {
      type: "constant"
      value: 0
    }
  }
}
layer {
  name: "relu4_3"
  type: "ReLU"
  bottom: "conv4_3"
  top: "conv4_3"
}
layer {
  name: "pool4"
  type: "Pooling"
  bottom: "conv4_3"
  top: "pool4"
  pooling_param {
    pool: MAX
    kernel_size: 2
    stride: 2
  }
}
layer {
  name: "conv5_1"
  type: "Convolution"
  bottom: "pool4"
  top: "conv5_1"
  param {
    lr_mult: 1
    decay_mult: 1
  }
  param {
    lr_mult: 2
    decay_mult: 0
  }
  convolution_param {
    num_output: 512
    pad: 1
    kernel_size: 3
    weight_filler {
      type: "xavier"
    }
    bias_filler {
      type: "constant"
      value: 0
    }
    dilation: 1
  }
}
layer {
  name: "relu5_1"
  type: "ReLU"
  bottom: "conv5_1"
  top: "conv5_1"
}
layer {
  name: "conv5_2"
  type: "Convolution"
  bottom: "conv5_1"
  top: "conv5_2"
  param {
    lr_mult: 1
    decay_mult: 1
  }
  param {
    lr_mult: 2
    decay_mult: 0
  }
  convolution_param {
    num_output: 512
    pad: 1
    kernel_size: 3
    weight_filler {
      type: "xavier"
    }
    bias_filler {
      type: "constant"
      value: 0
    }
    dilation: 1
  }
}
layer {
  name: "relu5_2"
  type: "ReLU"
  bottom: "conv5_2"
  top: "conv5_2"
}
layer {
  name: "conv5_3"
  type: "Convolution"
  bottom: "conv5_2"
  top: "conv5_3"
  param {
    lr_mult: 1
    decay_mult: 1
  }
  param {
    lr_mult: 2
    decay_mult: 0
  }
  convolution_param {
    num_output: 512
    pad: 1
    kernel_size: 3
    weight_filler {
      type: "xavier"
    }
    bias_filler {
      type: "constant"
      value: 0
    }
    dilation: 1
  }
}
layer {
  name: "relu5_3"
  type: "ReLU"
  bottom: "conv5_3"
  top: "conv5_3"
}
layer {
  name: "pool5"
  type: "Pooling"
  bottom: "conv5_3"
  top: "pool5"
  pooling_param {
    pool: MAX
    kernel_size: 3
    stride: 1
    pad: 1
  }
}
layer {
  name: "fc6"
  type: "Convolution"
  bottom: "pool5"
  top: "fc6"
  param {
    lr_mult: 1
    decay_mult: 1
  }
  param {
    lr_mult: 2
    decay_mult: 0
  }
  convolution_param {
    num_output: 1024
    pad: 6
    kernel_size: 3
    weight_filler {
      type: "xavier"
    }
    bias_filler {
      type: "constant"
      value: 0
    }
    dilation: 6
  }
}
layer {
  name: "relu6"
  type: "ReLU"
  bottom: "fc6"
  top: "fc6"
}
layer {
  name: "fc7"
  type: "Convolution"
  bottom: "fc6"
  top: "fc7"
  param {
    lr_mult: 1
    decay_mult: 1
  }
  param {
    lr_mult: 2
    decay_mult: 0
  }
  convolution_param {
    num_output: 1024
    kernel_size: 1
    weight_filler {
      type: "xavier"
    }
    bias_filler {
      type: "constant"
      value: 0
    }
  }
}
layer {
  name: "relu7"
  type: "ReLU"
  bottom: "fc7"
  top: "fc7"
}
layer {
  name: "conv6_1"
  type: "Convolution"
  bottom: "fc7"
  top: "conv6_1"
  param {
    lr_mult: 1
    decay_mult: 1
  }
  param {
    lr_mult: 2
    decay_mult: 0
  }
  convolution_param {
    num_output: 256
    pad: 0
    kernel_size: 1
    stride: 1
    weight_filler {
      type: "xavier"
    }
    bias_filler {
      type: "constant"
      value: 0
    }
  }
}
layer {
  name: "conv6_1_relu"
  type: "ReLU"
  bottom: "conv6_1"
  top: "conv6_1"
}
layer {
  name: "conv6_2"
  type: "Convolution"
  bottom: "conv6_1"
  top: "conv6_2"
  param {
    lr_mult: 1
    decay_mult: 1
  }
  param {
    lr_mult: 2
    decay_mult: 0
  }
  convolution_param {
    num_output: 512
    pad: 1
    kernel_size: 3
    stride: 2
    weight_filler {
      type: "xavier"
    }
    bias_filler {
      type: "constant"
      value: 0
    }
  }
}
layer {
  name: "conv6_2_relu"
  type: "ReLU"
  bottom: "conv6_2"
  top: "conv6_2"
}
layer {
  name: "conv7_1"
  type: "Convolution"
  bottom: "conv6_2"
  top: "conv7_1"
  param {
    lr_mult: 1
    decay_mult: 1
  }
  param {
    lr_mult: 2
    decay_mult: 0
  }
  convolution_param {
    num_output: 128
    pad: 0
    kernel_size: 1
    stride: 1
    weight_filler {
      type: "xavier"
    }
    bias_filler {
      type: "constant"
      value: 0
    }
  }
}
layer {
  name: "conv7_1_relu"
  type: "ReLU"
  bottom: "conv7_1"
  top: "conv7_1"
}
layer {
  name: "conv7_2"
  type: "Convolution"
  bottom: "conv7_1"
  top: "conv7_2"
  param {
    lr_mult: 1
    decay_mult: 1
  }
  param {
    lr_mult: 2
    decay_mult: 0
  }
  convolution_param {
    num_output: 256
    pad: 1
    kernel_size: 3
    stride: 2
    weight_filler {
      type: "xavier"
    }
    bias_filler {
      type: "constant"
      value: 0
    }
  }
}
layer {
  name: "conv7_2_relu"
  type: "ReLU"
  bottom: "conv7_2"
  top: "conv7_2"
}
layer {
  name: "conv8_1"
  type: "Convolution"
  bottom: "conv7_2"
  top: "conv8_1"
  param {
    lr_mult: 1
    decay_mult: 1
  }
  param {
    lr_mult: 2
    decay_mult: 0
  }
  convolution_param {
    num_output: 128
    pad: 0
    kernel_size: 1
    stride: 1
    weight_filler {
      type: "xavier"
    }
    bias_filler {
      type: "constant"
      value: 0
    }
  }
}
layer {
  name: "conv8_1_relu"
  type: "ReLU"
  bottom: "conv8_1"
  top: "conv8_1"
}
layer {
  name: "conv8_2"
  type: "Convolution"
  bottom: "conv8_1"
  top: "conv8_2"
  param {
    lr_mult: 1
    decay_mult: 1
  }
  param {
    lr_mult: 2
    decay_mult: 0
  }
  convolution_param {
    num_output: 256
    pad: 0
    kernel_size: 3
    stride: 1
    weight_filler {
      type: "xavier"
    }
    bias_filler {
      type: "constant"
      value: 0
    }
  }
}
layer {
  name: "conv8_2_relu"
  type: "ReLU"
  bottom: "conv8_2"
  top: "conv8_2"
}
layer {
  name: "conv9_1"
  type: "Convolution"
  bottom: "conv8_2"
  top: "conv9_1"
  param {
    lr_mult: 1
    decay_mult: 1
  }
  param {
    lr_mult: 2
    decay_mult: 0
  }
  convolution_param {
    num_output: 128
    pad: 0
    kernel_size: 1
    stride: 1
    weight_filler {
      type: "xavier"
    }
    bias_filler {
      type: "constant"
      value: 0
    }
  }
}
layer {
  name: "conv9_1_relu"
  type: "ReLU"
  bottom: "conv9_1"
  top: "conv9_1"
}
layer {
  name: "conv9_2"
  type: "Convolution"
  bottom: "conv9_1"
  top: "conv9_2"
  param {
    lr_mult: 1
    decay_mult: 1
  }
  param {
    lr_mult: 2
    decay_mult: 0
  }
  convolution_param {
    num_output: 256
    pad: 0
    kernel_size: 3
    stride: 1
    weight_filler {
      type: "xavier"
    }
    bias_filler {
      type: "constant"
      value: 0
    }
  }
}
layer {
  name: "conv9_2_relu"
  type: "ReLU"
  bottom: "conv9_2"
  top: "conv9_2"
}
layer {
  name: "conv4_3_norm"
  type: "Normalize"
  bottom: "conv4_3"
  top: "conv4_3_norm"
  norm_param {
    across_spatial: false
    scale_filler {
      type: "constant"
      value: 20
    }
    channel_shared: false
  }
}
layer {
  name: "conv4_3_norm_mbox_loc"
  type: "Convolution"
  bottom: "conv4_3_norm"
  top: "conv4_3_norm_mbox_loc"
  param {
    lr_mult: 1
    decay_mult: 1
  }
  param {
    lr_mult: 2
    decay_mult: 0
  }
  convolution_param {
    num_output: 16
    pad: 1
    kernel_size: 3
    stride: 1
    weight_filler {
      type: "xavier"
    }
    bias_filler {
      type: "constant"
      value: 0
    }
  }
}
layer {
  name: "conv4_3_norm_mbox_loc_perm"
  type: "Permute"
  bottom: "conv4_3_norm_mbox_loc"
  top: "conv4_3_norm_mbox_loc_perm"
  permute_param {
    order: 0
    order: 2
    order: 3
    order: 1
  }
}
layer {
  name: "conv4_3_norm_mbox_loc_flat"
  type: "Flatten"
  bottom: "conv4_3_norm_mbox_loc_perm"
  top: "conv4_3_norm_mbox_loc_flat"
  flatten_param {
    axis: 1
  }
}
layer {
  name: "conv4_3_norm_mbox_conf"
  type: "Convolution"
  bottom: "conv4_3_norm"
  top: "conv4_3_norm_mbox_conf"
  param {
    lr_mult: 1
    decay_mult: 1
  }
  param {
    lr_mult: 2
    decay_mult: 0
  }
  convolution_param {
    num_output: 16
    pad: 1
    kernel_size: 3
    stride: 1
    weight_filler {
      type: "xavier"
    }
    bias_filler {
      type: "constant"
      value: 0
    }
  }
}
layer {
  name: "conv4_3_norm_mbox_conf_perm"
  type: "Permute"
  bottom: "conv4_3_norm_mbox_conf"
  top: "conv4_3_norm_mbox_conf_perm"
  permute_param {
    order: 0
    order: 2
    order: 3
    order: 1
  }
}
layer {
  name: "conv4_3_norm_mbox_conf_flat"
  type: "Flatten"
  bottom: "conv4_3_norm_mbox_conf_perm"
  top: "conv4_3_norm_mbox_conf_flat"
  flatten_param {
    axis: 1
  }
}
layer {
  name: "conv4_3_norm_mbox_priorbox"
  type: "PriorBox"
  bottom: "conv4_3_norm"
  bottom: "data"
  top: "conv4_3_norm_mbox_priorbox"
  prior_box_param {
    min_size: 30
    max_size: 60
    aspect_ratio: 2
    flip: true
    clip: false
    variance: 0.1
    variance: 0.1
    variance: 0.2
    variance: 0.2
    step: 8
    offset: 0.5
  }
}
layer {
  name: "fc7_mbox_loc"
  type: "Convolution"
  bottom: "fc7"
  top: "fc7_mbox_loc"
  param {
    lr_mult: 1
    decay_mult: 1
  }
  param {
    lr_mult: 2
    decay_mult: 0
  }
  convolution_param {
    num_output: 24
    pad: 1
    kernel_size: 3
    stride: 1
    weight_filler {
      type: "xavier"
    }
    bias_filler {
      type: "constant"
      value: 0
    }
  }
}
layer {
  name: "fc7_mbox_loc_perm"
  type: "Permute"
  bottom: "fc7_mbox_loc"
  top: "fc7_mbox_loc_perm"
  permute_param {
    order: 0
    order: 2
    order: 3
    order: 1
  }
}
layer {
  name: "fc7_mbox_loc_flat"
  type: "Flatten"
  bottom: "fc7_mbox_loc_perm"
  top: "fc7_mbox_loc_flat"
  flatten_param {
    axis: 1
  }
}
layer {
  name: "fc7_mbox_conf"
  type: "Convolution"
  bottom: "fc7"
  top: "fc7_mbox_conf"
  param {
    lr_mult: 1
    decay_mult: 1
  }
  param {
    lr_mult: 2
    decay_mult: 0
  }
  convolution_param {
    num_output: 24
    pad: 1
    kernel_size: 3
    stride: 1
    weight_filler {
      type: "xavier"
    }
    bias_filler {
      type: "constant"
      value: 0
    }
  }
}
layer {
  name: "fc7_mbox_conf_perm"
  type: "Permute"
  bottom: "fc7_mbox_conf"
  top: "fc7_mbox_conf_perm"
  permute_param {
    order: 0
    order: 2
    order: 3
    order: 1
  }
}
layer {
  name: "fc7_mbox_conf_flat"
  type: "Flatten"
  bottom: "fc7_mbox_conf_perm"
  top: "fc7_mbox_conf_flat"
  flatten_param {
    axis: 1
  }
}
layer {
  name: "fc7_mbox_priorbox"
  type: "PriorBox"
  bottom: "fc7"
  bottom: "data"
  top: "fc7_mbox_priorbox"
  prior_box_param {
    min_size: 60
    max_size: 111
    aspect_ratio: 2
    aspect_ratio: 3
    flip: true
    clip: false
    variance: 0.1
    variance: 0.1
    variance: 0.2
    variance: 0.2
    step: 16
    offset: 0.5
  }
}
layer {
  name: "conv6_2_mbox_loc"
  type: "Convolution"
  bottom: "conv6_2"
  top: "conv6_2_mbox_loc"
  param {
    lr_mult: 1
    decay_mult: 1
  }
  param {
    lr_mult: 2
    decay_mult: 0
  }
  convolution_param {
    num_output: 24
    pad: 1
    kernel_size: 3
    stride: 1
    weight_filler {
      type: "xavier"
    }
    bias_filler {
      type: "constant"
      value: 0
    }
  }
}
layer {
  name: "conv6_2_mbox_loc_perm"
  type: "Permute"
  bottom: "conv6_2_mbox_loc"
  top: "conv6_2_mbox_loc_perm"
  permute_param {
    order: 0
    order: 2
    order: 3
    order: 1
  }
}
layer {
  name: "conv6_2_mbox_loc_flat"
  type: "Flatten"
  bottom: "conv6_2_mbox_loc_perm"
  top: "conv6_2_mbox_loc_flat"
  flatten_param {
    axis: 1
  }
}
layer {
  name: "conv6_2_mbox_conf"
  type: "Convolution"
  bottom: "conv6_2"
  top: "conv6_2_mbox_conf"
  param {
    lr_mult: 1
    decay_mult: 1
  }
  param {
    lr_mult: 2
    decay_mult: 0
  }
  convolution_param {
    num_output: 24
    pad: 1
    kernel_size: 3
    stride: 1
    weight_filler {
      type: "xavier"
    }
    bias_filler {
      type: "constant"
      value: 0
    }
  }
}
layer {
  name: "conv6_2_mbox_conf_perm"
  type: "Permute"
  bottom: "conv6_2_mbox_conf"
  top: "conv6_2_mbox_conf_perm"
  permute_param {
    order: 0
    order: 2
    order: 3
    order: 1
  }
}
layer {
  name: "conv6_2_mbox_conf_flat"
  type: "Flatten"
  bottom: "conv6_2_mbox_conf_perm"
  top: "conv6_2_mbox_conf_flat"
  flatten_param {
    axis: 1
  }
}
layer {
  name: "conv6_2_mbox_priorbox"
  type: "PriorBox"
  bottom: "conv6_2"
  bottom: "data"
  top: "conv6_2_mbox_priorbox"
  prior_box_param {
    min_size: 111
    max_size: 162
    aspect_ratio: 2
    aspect_ratio: 3
    flip: true
    clip: false
    variance: 0.1
    variance: 0.1
    variance: 0.2
    variance: 0.2
    step: 32
    offset: 0.5
  }
}
layer {
  name: "conv7_2_mbox_loc"
  type: "Convolution"
  bottom: "conv7_2"
  top: "conv7_2_mbox_loc"
  param {
    lr_mult: 1
    decay_mult: 1
  }
  param {
    lr_mult: 2
    decay_mult: 0
  }
  convolution_param {
    num_output: 24
    pad: 1
    kernel_size: 3
    stride: 1
    weight_filler {
      type: "xavier"
    }
    bias_filler {
      type: "constant"
      value: 0
    }
  }
}
layer {
  name: "conv7_2_mbox_loc_perm"
  type: "Permute"
  bottom: "conv7_2_mbox_loc"
  top: "conv7_2_mbox_loc_perm"
  permute_param {
    order: 0
    order: 2
    order: 3
    order: 1
  }
}
layer {
  name: "conv7_2_mbox_loc_flat"
  type: "Flatten"
  bottom: "conv7_2_mbox_loc_perm"
  top: "conv7_2_mbox_loc_flat"
  flatten_param {
    axis: 1
  }
}
layer {
  name: "conv7_2_mbox_conf"
  type: "Convolution"
  bottom: "conv7_2"
  top: "conv7_2_mbox_conf"
  param {
    lr_mult: 1
    decay_mult: 1
  }
  param {
    lr_mult: 2
    decay_mult: 0
  }
  convolution_param {
    num_output: 24
    pad: 1
    kernel_size: 3
    stride: 1
    weight_filler {
      type: "xavier"
    }
    bias_filler {
      type: "constant"
      value: 0
    }
  }
}
layer {
  name: "conv7_2_mbox_conf_perm"
  type: "Permute"
  bottom: "conv7_2_mbox_conf"
  top: "conv7_2_mbox_conf_perm"
  permute_param {
    order: 0
    order: 2
    order: 3
    order: 1
  }
}
layer {
  name: "conv7_2_mbox_conf_flat"
  type: "Flatten"
  bottom: "conv7_2_mbox_conf_perm"
  top: "conv7_2_mbox_conf_flat"
  flatten_param {
    axis: 1
  }
}
layer {
  name: "conv7_2_mbox_priorbox"
  type: "PriorBox"
  bottom: "conv7_2"
  bottom: "data"
  top: "conv7_2_mbox_priorbox"
  prior_box_param {
    min_size: 162
    max_size: 213
    aspect_ratio: 2
    aspect_ratio: 3
    flip: true
    clip: false
    variance: 0.1
    variance: 0.1
    variance: 0.2
    variance: 0.2
    step: 64
    offset: 0.5
  }
}
layer {
  name: "conv8_2_mbox_loc"
  type: "Convolution"
  bottom: "conv8_2"
  top: "conv8_2_mbox_loc"
  param {
    lr_mult: 1
    decay_mult: 1
  }
  param {
    lr_mult: 2
    decay_mult: 0
  }
  convolution_param {
    num_output: 16
    pad: 1
    kernel_size: 3
    stride: 1
    weight_filler {
      type: "xavier"
    }
    bias_filler {
      type: "constant"
      value: 0
    }
  }
}
layer {
  name: "conv8_2_mbox_loc_perm"
  type: "Permute"
  bottom: "conv8_2_mbox_loc"
  top: "conv8_2_mbox_loc_perm"
  permute_param {
    order: 0
    order: 2
    order: 3
    order: 1
  }
}
layer {
  name: "conv8_2_mbox_loc_flat"
  type: "Flatten"
  bottom: "conv8_2_mbox_loc_perm"
  top: "conv8_2_mbox_loc_flat"
  flatten_param {
    axis: 1
  }
}
layer {
  name: "conv8_2_mbox_conf"
  type: "Convolution"
  bottom: "conv8_2"
  top: "conv8_2_mbox_conf"
  param {
    lr_mult: 1
    decay_mult: 1
  }
  param {
    lr_mult: 2
    decay_mult: 0
  }
  convolution_param {
    num_output: 16
    pad: 1
    kernel_size: 3
    stride: 1
    weight_filler {
      type: "xavier"
    }
    bias_filler {
      type: "constant"
      value: 0
    }
  }
}
layer {
  name: "conv8_2_mbox_conf_perm"
  type: "Permute"
  bottom: "conv8_2_mbox_conf"
  top: "conv8_2_mbox_conf_perm"
  permute_param {
    order: 0
    order: 2
    order: 3
    order: 1
  }
}
layer {
  name: "conv8_2_mbox_conf_flat"
  type: "Flatten"
  bottom: "conv8_2_mbox_conf_perm"
  top: "conv8_2_mbox_conf_flat"
  flatten_param {
    axis: 1
  }
}
layer {
  name: "conv8_2_mbox_priorbox"
  type: "PriorBox"
  bottom: "conv8_2"
  bottom: "data"
  top: "conv8_2_mbox_priorbox"
  prior_box_param {
    min_size: 213
    max_size: 264
    aspect_ratio: 2
    flip: true
    clip: false
    variance: 0.1
    variance: 0.1
    variance: 0.2
    variance: 0.2
    step: 100
    offset: 0.5
  }
}
layer {
  name: "conv9_2_mbox_loc"
  type: "Convolution"
  bottom: "conv9_2"
  top: "conv9_2_mbox_loc"
  param {
    lr_mult: 1
    decay_mult: 1
  }
  param {
    lr_mult: 2
    decay_mult: 0
  }
  convolution_param {
    num_output: 16
    pad: 1
    kernel_size: 3
    stride: 1
    weight_filler {
      type: "xavier"
    }
    bias_filler {
      type: "constant"
      value: 0
    }
  }
}
layer {
  name: "conv9_2_mbox_loc_perm"
  type: "Permute"
  bottom: "conv9_2_mbox_loc"
  top: "conv9_2_mbox_loc_perm"
  permute_param {
    order: 0
    order: 2
    order: 3
    order: 1
  }
}
layer {
  name: "conv9_2_mbox_loc_flat"
  type: "Flatten"
  bottom: "conv9_2_mbox_loc_perm"
  top: "conv9_2_mbox_loc_flat"
  flatten_param {
    axis: 1
  }
}
layer {
  name: "conv9_2_mbox_conf"
  type: "Convolution"
  bottom: "conv9_2"
  top: "conv9_2_mbox_conf"
  param {
    lr_mult: 1
    decay_mult: 1
  }
  param {
    lr_mult: 2
    decay_mult: 0
  }
  convolution_param {
    num_output: 16
    pad: 1
    kernel_size: 3
    stride: 1
    weight_filler {
      type: "xavier"
    }
    bias_filler {
      type: "constant"
      value: 0
    }
  }
}
layer {
  name: "conv9_2_mbox_conf_perm"
  type: "Permute"
  bottom: "conv9_2_mbox_conf"
  top: "conv9_2_mbox_conf_perm"
  permute_param {
    order: 0
    order: 2
    order: 3
    order: 1
  }
}
layer {
  name: "conv9_2_mbox_conf_flat"
  type: "Flatten"
  bottom: "conv9_2_mbox_conf_perm"
  top: "conv9_2_mbox_conf_flat"
  flatten_param {
    axis: 1
  }
}
layer {
  name: "conv9_2_mbox_priorbox"
  type: "PriorBox"
  bottom: "conv9_2"
  bottom: "data"
  top: "conv9_2_mbox_priorbox"
  prior_box_param {
    min_size: 264
    max_size: 315
    aspect_ratio: 2
    flip: true
    clip: false
    variance: 0.1
    variance: 0.1
    variance: 0.2
    variance: 0.2
    step: 300
    offset: 0.5
  }
}
layer {
  name: "mbox_loc"
  type: "Concat"
  bottom: "conv4_3_norm_mbox_loc_flat"
  bottom: "fc7_mbox_loc_flat"
  bottom: "conv6_2_mbox_loc_flat"
  bottom: "conv7_2_mbox_loc_flat"
  bottom: "conv8_2_mbox_loc_flat"
  bottom: "conv9_2_mbox_loc_flat"
  top: "mbox_loc"
  concat_param {
    axis: 1
  }
}
layer {
  name: "mbox_conf"
  type: "Concat"
  bottom: "conv4_3_norm_mbox_conf_flat"
  bottom: "fc7_mbox_conf_flat"
  bottom: "conv6_2_mbox_conf_flat"
  bottom: "conv7_2_mbox_conf_flat"
  bottom: "conv8_2_mbox_conf_flat"
  bottom: "conv9_2_mbox_conf_flat"
  top: "mbox_conf"
  concat_param {
    axis: 1
  }
}
layer {
  name: "mbox_priorbox"
  type: "Concat"
  bottom: "conv4_3_norm_mbox_priorbox"
  bottom: "fc7_mbox_priorbox"
  bottom: "conv6_2_mbox_priorbox"
  bottom: "conv7_2_mbox_priorbox"
  bottom: "conv8_2_mbox_priorbox"
  bottom: "conv9_2_mbox_priorbox"
  top: "mbox_priorbox"
  concat_param {
    axis: 2
  }
}
layer {
  name: "mbox_conf_reshape"
  type: "Reshape"
  bottom: "mbox_conf"
  top: "mbox_conf_reshape"
  reshape_param {
    shape {
      dim: 0
      dim: -1
      dim: 4
    }
  }
}
layer {
  name: "mbox_conf_softmax"
  type: "Softmax"
  bottom: "mbox_conf_reshape"
  top: "mbox_conf_softmax"
  softmax_param {
    axis: 2
  }
}
layer {
  name: "mbox_conf_flatten"
  type: "Flatten"
  bottom: "mbox_conf_softmax"
  top: "mbox_conf_flatten"
  flatten_param {
    axis: 1
  }
}
layer {
  name: "detection_out"
  type: "DetectionOutput"
  bottom: "mbox_loc"
  bottom: "mbox_conf_flatten"
  bottom: "mbox_priorbox"
  top: "detection_out"
  include {
    phase: TEST
  }
  detection_output_param {
    num_classes: 4
    share_location: true
    background_label_id: 0
    nms_param {
      nms_threshold: 0.45
      top_k: 400
    }
    save_output_param {
      output_directory: "/home/shangzw/data/tbs/results/tbs/SSD_300x300/Main"
      output_name_prefix: "comp4_det_test_"
      output_format: "VOC"
      label_map_file: "data/tbs_300x300_HSIL_10x/labelmap_voc.prototxt"
      name_size_file: "data/VOC0712/test_name_size.txt"
      num_test_image: 100
    }
    code_type: CENTER_SIZE
    keep_top_k: 200
    confidence_threshold: 0.01
  }
}
layer {
  name: "detection_eval"
  type: "DetectionEvaluate"
  bottom: "detection_out"
  bottom: "label"
  top: "detection_eval"
  include {
    phase: TEST
  }
  detection_evaluate_param {
    num_classes: 4
    background_label_id: 0
    overlap_threshold: 0.5
    evaluate_difficult_gt: false
    name_size_file: "data/VOC0712/test_name_size.txt"
  }
}
I0601 17:38:24.023587  7964 layer_factory.hpp:77] Creating layer data
I0601 17:38:24.023636  7964 net.cpp:100] Creating Layer data
I0601 17:38:24.023643  7964 net.cpp:408] data -> data
I0601 17:38:24.023650  7964 net.cpp:408] data -> label
I0601 17:38:24.024638  7979 db_lmdb.cpp:35] Opened lmdb examples/tbs_300x300_HSIL_10x/tbs_300x300_HSIL_10x_test_lmdb
I0601 17:38:24.025326  7964 annotated_data_layer.cpp:62] output data size: 4,3,300,300
I0601 17:38:24.037736  7964 net.cpp:150] Setting up data
I0601 17:38:24.037770  7964 net.cpp:157] Top shape: 4 3 300 300 (1080000)
I0601 17:38:24.037775  7964 net.cpp:157] Top shape: 1 1 1 8 (8)
I0601 17:38:24.037780  7964 net.cpp:165] Memory required for data: 4320032
I0601 17:38:24.037784  7964 layer_factory.hpp:77] Creating layer data_data_0_split
I0601 17:38:24.037796  7964 net.cpp:100] Creating Layer data_data_0_split
I0601 17:38:24.037802  7964 net.cpp:434] data_data_0_split <- data
I0601 17:38:24.037824  7964 net.cpp:408] data_data_0_split -> data_data_0_split_0
I0601 17:38:24.037835  7964 net.cpp:408] data_data_0_split -> data_data_0_split_1
I0601 17:38:24.037843  7964 net.cpp:408] data_data_0_split -> data_data_0_split_2
I0601 17:38:24.037852  7964 net.cpp:408] data_data_0_split -> data_data_0_split_3
I0601 17:38:24.037859  7964 net.cpp:408] data_data_0_split -> data_data_0_split_4
I0601 17:38:24.037866  7964 net.cpp:408] data_data_0_split -> data_data_0_split_5
I0601 17:38:24.037874  7964 net.cpp:408] data_data_0_split -> data_data_0_split_6
I0601 17:38:24.038069  7964 net.cpp:150] Setting up data_data_0_split
I0601 17:38:24.038080  7964 net.cpp:157] Top shape: 4 3 300 300 (1080000)
I0601 17:38:24.038086  7964 net.cpp:157] Top shape: 4 3 300 300 (1080000)
I0601 17:38:24.038091  7964 net.cpp:157] Top shape: 4 3 300 300 (1080000)
I0601 17:38:24.038096  7964 net.cpp:157] Top shape: 4 3 300 300 (1080000)
I0601 17:38:24.038101  7964 net.cpp:157] Top shape: 4 3 300 300 (1080000)
I0601 17:38:24.038117  7964 net.cpp:157] Top shape: 4 3 300 300 (1080000)
I0601 17:38:24.038123  7964 net.cpp:157] Top shape: 4 3 300 300 (1080000)
I0601 17:38:24.038126  7964 net.cpp:165] Memory required for data: 34560032
I0601 17:38:24.038130  7964 layer_factory.hpp:77] Creating layer conv1_1
I0601 17:38:24.038142  7964 net.cpp:100] Creating Layer conv1_1
I0601 17:38:24.038147  7964 net.cpp:434] conv1_1 <- data_data_0_split_0
I0601 17:38:24.038154  7964 net.cpp:408] conv1_1 -> conv1_1
I0601 17:38:24.044978  7964 net.cpp:150] Setting up conv1_1
I0601 17:38:24.044992  7964 net.cpp:157] Top shape: 4 64 300 300 (23040000)
I0601 17:38:24.044996  7964 net.cpp:165] Memory required for data: 126720032
I0601 17:38:24.045008  7964 layer_factory.hpp:77] Creating layer relu1_1
I0601 17:38:24.045017  7964 net.cpp:100] Creating Layer relu1_1
I0601 17:38:24.045022  7964 net.cpp:434] relu1_1 <- conv1_1
I0601 17:38:24.045030  7964 net.cpp:395] relu1_1 -> conv1_1 (in-place)
I0601 17:38:24.047108  7964 net.cpp:150] Setting up relu1_1
I0601 17:38:24.047119  7964 net.cpp:157] Top shape: 4 64 300 300 (23040000)
I0601 17:38:24.047123  7964 net.cpp:165] Memory required for data: 218880032
I0601 17:38:24.047127  7964 layer_factory.hpp:77] Creating layer conv1_2
I0601 17:38:24.047140  7964 net.cpp:100] Creating Layer conv1_2
I0601 17:38:24.047147  7964 net.cpp:434] conv1_2 <- conv1_1
I0601 17:38:24.047154  7964 net.cpp:408] conv1_2 -> conv1_2
I0601 17:38:24.056498  7964 net.cpp:150] Setting up conv1_2
I0601 17:38:24.056512  7964 net.cpp:157] Top shape: 4 64 300 300 (23040000)
I0601 17:38:24.056517  7964 net.cpp:165] Memory required for data: 311040032
I0601 17:38:24.056529  7964 layer_factory.hpp:77] Creating layer relu1_2
I0601 17:38:24.056536  7964 net.cpp:100] Creating Layer relu1_2
I0601 17:38:24.056540  7964 net.cpp:434] relu1_2 <- conv1_2
I0601 17:38:24.056548  7964 net.cpp:395] relu1_2 -> conv1_2 (in-place)
I0601 17:38:24.057974  7964 net.cpp:150] Setting up relu1_2
I0601 17:38:24.057986  7964 net.cpp:157] Top shape: 4 64 300 300 (23040000)
I0601 17:38:24.057989  7964 net.cpp:165] Memory required for data: 403200032
I0601 17:38:24.057994  7964 layer_factory.hpp:77] Creating layer pool1
I0601 17:38:24.058003  7964 net.cpp:100] Creating Layer pool1
I0601 17:38:24.058007  7964 net.cpp:434] pool1 <- conv1_2
I0601 17:38:24.058014  7964 net.cpp:408] pool1 -> pool1
I0601 17:38:24.058068  7964 net.cpp:150] Setting up pool1
I0601 17:38:24.058079  7964 net.cpp:157] Top shape: 4 64 150 150 (5760000)
I0601 17:38:24.058084  7964 net.cpp:165] Memory required for data: 426240032
I0601 17:38:24.058087  7964 layer_factory.hpp:77] Creating layer conv2_1
I0601 17:38:24.058099  7964 net.cpp:100] Creating Layer conv2_1
I0601 17:38:24.058104  7964 net.cpp:434] conv2_1 <- pool1
I0601 17:38:24.058110  7964 net.cpp:408] conv2_1 -> conv2_1
I0601 17:38:24.063784  7964 net.cpp:150] Setting up conv2_1
I0601 17:38:24.063797  7964 net.cpp:157] Top shape: 4 128 150 150 (11520000)
I0601 17:38:24.063802  7964 net.cpp:165] Memory required for data: 472320032
I0601 17:38:24.063813  7964 layer_factory.hpp:77] Creating layer relu2_1
I0601 17:38:24.063823  7964 net.cpp:100] Creating Layer relu2_1
I0601 17:38:24.063827  7964 net.cpp:434] relu2_1 <- conv2_1
I0601 17:38:24.063834  7964 net.cpp:395] relu2_1 -> conv2_1 (in-place)
I0601 17:38:24.065284  7964 net.cpp:150] Setting up relu2_1
I0601 17:38:24.065294  7964 net.cpp:157] Top shape: 4 128 150 150 (11520000)
I0601 17:38:24.065299  7964 net.cpp:165] Memory required for data: 518400032
I0601 17:38:24.065304  7964 layer_factory.hpp:77] Creating layer conv2_2
I0601 17:38:24.065315  7964 net.cpp:100] Creating Layer conv2_2
I0601 17:38:24.065320  7964 net.cpp:434] conv2_2 <- conv2_1
I0601 17:38:24.065327  7964 net.cpp:408] conv2_2 -> conv2_2
I0601 17:38:24.073674  7964 net.cpp:150] Setting up conv2_2
I0601 17:38:24.073691  7964 net.cpp:157] Top shape: 4 128 150 150 (11520000)
I0601 17:38:24.073695  7964 net.cpp:165] Memory required for data: 564480032
I0601 17:38:24.073704  7964 layer_factory.hpp:77] Creating layer relu2_2
I0601 17:38:24.073730  7964 net.cpp:100] Creating Layer relu2_2
I0601 17:38:24.073737  7964 net.cpp:434] relu2_2 <- conv2_2
I0601 17:38:24.073745  7964 net.cpp:395] relu2_2 -> conv2_2 (in-place)
I0601 17:38:24.075610  7964 net.cpp:150] Setting up relu2_2
I0601 17:38:24.075621  7964 net.cpp:157] Top shape: 4 128 150 150 (11520000)
I0601 17:38:24.075625  7964 net.cpp:165] Memory required for data: 610560032
I0601 17:38:24.075630  7964 layer_factory.hpp:77] Creating layer pool2
I0601 17:38:24.075639  7964 net.cpp:100] Creating Layer pool2
I0601 17:38:24.075645  7964 net.cpp:434] pool2 <- conv2_2
I0601 17:38:24.075652  7964 net.cpp:408] pool2 -> pool2
I0601 17:38:24.075714  7964 net.cpp:150] Setting up pool2
I0601 17:38:24.075724  7964 net.cpp:157] Top shape: 4 128 75 75 (2880000)
I0601 17:38:24.075729  7964 net.cpp:165] Memory required for data: 622080032
I0601 17:38:24.075733  7964 layer_factory.hpp:77] Creating layer conv3_1
I0601 17:38:24.075744  7964 net.cpp:100] Creating Layer conv3_1
I0601 17:38:24.075750  7964 net.cpp:434] conv3_1 <- pool2
I0601 17:38:24.075760  7964 net.cpp:408] conv3_1 -> conv3_1
I0601 17:38:24.082654  7964 net.cpp:150] Setting up conv3_1
I0601 17:38:24.082666  7964 net.cpp:157] Top shape: 4 256 75 75 (5760000)
I0601 17:38:24.082670  7964 net.cpp:165] Memory required for data: 645120032
I0601 17:38:24.082684  7964 layer_factory.hpp:77] Creating layer relu3_1
I0601 17:38:24.082695  7964 net.cpp:100] Creating Layer relu3_1
I0601 17:38:24.082700  7964 net.cpp:434] relu3_1 <- conv3_1
I0601 17:38:24.082706  7964 net.cpp:395] relu3_1 -> conv3_1 (in-place)
I0601 17:38:24.084482  7964 net.cpp:150] Setting up relu3_1
I0601 17:38:24.084493  7964 net.cpp:157] Top shape: 4 256 75 75 (5760000)
I0601 17:38:24.084497  7964 net.cpp:165] Memory required for data: 668160032
I0601 17:38:24.084501  7964 layer_factory.hpp:77] Creating layer conv3_2
I0601 17:38:24.084516  7964 net.cpp:100] Creating Layer conv3_2
I0601 17:38:24.084522  7964 net.cpp:434] conv3_2 <- conv3_1
I0601 17:38:24.084528  7964 net.cpp:408] conv3_2 -> conv3_2
I0601 17:38:24.091696  7964 net.cpp:150] Setting up conv3_2
I0601 17:38:24.091713  7964 net.cpp:157] Top shape: 4 256 75 75 (5760000)
I0601 17:38:24.091717  7964 net.cpp:165] Memory required for data: 691200032
I0601 17:38:24.091727  7964 layer_factory.hpp:77] Creating layer relu3_2
I0601 17:38:24.091737  7964 net.cpp:100] Creating Layer relu3_2
I0601 17:38:24.091742  7964 net.cpp:434] relu3_2 <- conv3_2
I0601 17:38:24.091747  7964 net.cpp:395] relu3_2 -> conv3_2 (in-place)
I0601 17:38:24.093714  7964 net.cpp:150] Setting up relu3_2
I0601 17:38:24.093726  7964 net.cpp:157] Top shape: 4 256 75 75 (5760000)
I0601 17:38:24.093731  7964 net.cpp:165] Memory required for data: 714240032
I0601 17:38:24.093735  7964 layer_factory.hpp:77] Creating layer conv3_3
I0601 17:38:24.093750  7964 net.cpp:100] Creating Layer conv3_3
I0601 17:38:24.093757  7964 net.cpp:434] conv3_3 <- conv3_2
I0601 17:38:24.093765  7964 net.cpp:408] conv3_3 -> conv3_3
I0601 17:38:24.102841  7964 net.cpp:150] Setting up conv3_3
I0601 17:38:24.102859  7964 net.cpp:157] Top shape: 4 256 75 75 (5760000)
I0601 17:38:24.102864  7964 net.cpp:165] Memory required for data: 737280032
I0601 17:38:24.102872  7964 layer_factory.hpp:77] Creating layer relu3_3
I0601 17:38:24.102882  7964 net.cpp:100] Creating Layer relu3_3
I0601 17:38:24.102890  7964 net.cpp:434] relu3_3 <- conv3_3
I0601 17:38:24.102896  7964 net.cpp:395] relu3_3 -> conv3_3 (in-place)
I0601 17:38:24.105446  7964 net.cpp:150] Setting up relu3_3
I0601 17:38:24.105460  7964 net.cpp:157] Top shape: 4 256 75 75 (5760000)
I0601 17:38:24.105464  7964 net.cpp:165] Memory required for data: 760320032
I0601 17:38:24.105468  7964 layer_factory.hpp:77] Creating layer pool3
I0601 17:38:24.105479  7964 net.cpp:100] Creating Layer pool3
I0601 17:38:24.105484  7964 net.cpp:434] pool3 <- conv3_3
I0601 17:38:24.105494  7964 net.cpp:408] pool3 -> pool3
I0601 17:38:24.105576  7964 net.cpp:150] Setting up pool3
I0601 17:38:24.105587  7964 net.cpp:157] Top shape: 4 256 38 38 (1478656)
I0601 17:38:24.105618  7964 net.cpp:165] Memory required for data: 766234656
I0601 17:38:24.105623  7964 layer_factory.hpp:77] Creating layer conv4_1
I0601 17:38:24.105634  7964 net.cpp:100] Creating Layer conv4_1
I0601 17:38:24.105640  7964 net.cpp:434] conv4_1 <- pool3
I0601 17:38:24.105649  7964 net.cpp:408] conv4_1 -> conv4_1
I0601 17:38:24.117255  7964 net.cpp:150] Setting up conv4_1
I0601 17:38:24.117270  7964 net.cpp:157] Top shape: 4 512 38 38 (2957312)
I0601 17:38:24.117274  7964 net.cpp:165] Memory required for data: 778063904
I0601 17:38:24.117280  7964 layer_factory.hpp:77] Creating layer relu4_1
I0601 17:38:24.117300  7964 net.cpp:100] Creating Layer relu4_1
I0601 17:38:24.117303  7964 net.cpp:434] relu4_1 <- conv4_1
I0601 17:38:24.117310  7964 net.cpp:395] relu4_1 -> conv4_1 (in-place)
I0601 17:38:24.119122  7964 net.cpp:150] Setting up relu4_1
I0601 17:38:24.119132  7964 net.cpp:157] Top shape: 4 512 38 38 (2957312)
I0601 17:38:24.119133  7964 net.cpp:165] Memory required for data: 789893152
I0601 17:38:24.119138  7964 layer_factory.hpp:77] Creating layer conv4_2
I0601 17:38:24.119150  7964 net.cpp:100] Creating Layer conv4_2
I0601 17:38:24.119156  7964 net.cpp:434] conv4_2 <- conv4_1
I0601 17:38:24.119166  7964 net.cpp:408] conv4_2 -> conv4_2
I0601 17:38:24.137061  7964 net.cpp:150] Setting up conv4_2
I0601 17:38:24.137079  7964 net.cpp:157] Top shape: 4 512 38 38 (2957312)
I0601 17:38:24.137082  7964 net.cpp:165] Memory required for data: 801722400
I0601 17:38:24.137094  7964 layer_factory.hpp:77] Creating layer relu4_2
I0601 17:38:24.137101  7964 net.cpp:100] Creating Layer relu4_2
I0601 17:38:24.137105  7964 net.cpp:434] relu4_2 <- conv4_2
I0601 17:38:24.137111  7964 net.cpp:395] relu4_2 -> conv4_2 (in-place)
I0601 17:38:24.140048  7964 net.cpp:150] Setting up relu4_2
I0601 17:38:24.140066  7964 net.cpp:157] Top shape: 4 512 38 38 (2957312)
I0601 17:38:24.140069  7964 net.cpp:165] Memory required for data: 813551648
I0601 17:38:24.140072  7964 layer_factory.hpp:77] Creating layer conv4_3
I0601 17:38:24.140084  7964 net.cpp:100] Creating Layer conv4_3
I0601 17:38:24.140087  7964 net.cpp:434] conv4_3 <- conv4_2
I0601 17:38:24.140097  7964 net.cpp:408] conv4_3 -> conv4_3
I0601 17:38:24.155627  7964 net.cpp:150] Setting up conv4_3
I0601 17:38:24.155644  7964 net.cpp:157] Top shape: 4 512 38 38 (2957312)
I0601 17:38:24.155648  7964 net.cpp:165] Memory required for data: 825380896
I0601 17:38:24.155654  7964 layer_factory.hpp:77] Creating layer relu4_3
I0601 17:38:24.155660  7964 net.cpp:100] Creating Layer relu4_3
I0601 17:38:24.155663  7964 net.cpp:434] relu4_3 <- conv4_3
I0601 17:38:24.155671  7964 net.cpp:395] relu4_3 -> conv4_3 (in-place)
I0601 17:38:24.157948  7964 net.cpp:150] Setting up relu4_3
I0601 17:38:24.157959  7964 net.cpp:157] Top shape: 4 512 38 38 (2957312)
I0601 17:38:24.157963  7964 net.cpp:165] Memory required for data: 837210144
I0601 17:38:24.157965  7964 layer_factory.hpp:77] Creating layer conv4_3_relu4_3_0_split
I0601 17:38:24.157973  7964 net.cpp:100] Creating Layer conv4_3_relu4_3_0_split
I0601 17:38:24.157979  7964 net.cpp:434] conv4_3_relu4_3_0_split <- conv4_3
I0601 17:38:24.157986  7964 net.cpp:408] conv4_3_relu4_3_0_split -> conv4_3_relu4_3_0_split_0
I0601 17:38:24.157995  7964 net.cpp:408] conv4_3_relu4_3_0_split -> conv4_3_relu4_3_0_split_1
I0601 17:38:24.158057  7964 net.cpp:150] Setting up conv4_3_relu4_3_0_split
I0601 17:38:24.158067  7964 net.cpp:157] Top shape: 4 512 38 38 (2957312)
I0601 17:38:24.158072  7964 net.cpp:157] Top shape: 4 512 38 38 (2957312)
I0601 17:38:24.158077  7964 net.cpp:165] Memory required for data: 860868640
I0601 17:38:24.158082  7964 layer_factory.hpp:77] Creating layer pool4
I0601 17:38:24.158089  7964 net.cpp:100] Creating Layer pool4
I0601 17:38:24.158095  7964 net.cpp:434] pool4 <- conv4_3_relu4_3_0_split_0
I0601 17:38:24.158102  7964 net.cpp:408] pool4 -> pool4
I0601 17:38:24.158176  7964 net.cpp:150] Setting up pool4
I0601 17:38:24.158196  7964 net.cpp:157] Top shape: 4 512 19 19 (739328)
I0601 17:38:24.158215  7964 net.cpp:165] Memory required for data: 863825952
I0601 17:38:24.158238  7964 layer_factory.hpp:77] Creating layer conv5_1
I0601 17:38:24.158259  7964 net.cpp:100] Creating Layer conv5_1
I0601 17:38:24.158274  7964 net.cpp:434] conv5_1 <- pool4
I0601 17:38:24.158293  7964 net.cpp:408] conv5_1 -> conv5_1
I0601 17:38:24.174144  7964 net.cpp:150] Setting up conv5_1
I0601 17:38:24.174160  7964 net.cpp:157] Top shape: 4 512 19 19 (739328)
I0601 17:38:24.174163  7964 net.cpp:165] Memory required for data: 866783264
I0601 17:38:24.174170  7964 layer_factory.hpp:77] Creating layer relu5_1
I0601 17:38:24.174176  7964 net.cpp:100] Creating Layer relu5_1
I0601 17:38:24.174180  7964 net.cpp:434] relu5_1 <- conv5_1
I0601 17:38:24.174201  7964 net.cpp:395] relu5_1 -> conv5_1 (in-place)
I0601 17:38:24.176580  7964 net.cpp:150] Setting up relu5_1
I0601 17:38:24.176591  7964 net.cpp:157] Top shape: 4 512 19 19 (739328)
I0601 17:38:24.176594  7964 net.cpp:165] Memory required for data: 869740576
I0601 17:38:24.176596  7964 layer_factory.hpp:77] Creating layer conv5_2
I0601 17:38:24.176609  7964 net.cpp:100] Creating Layer conv5_2
I0601 17:38:24.176616  7964 net.cpp:434] conv5_2 <- conv5_1
I0601 17:38:24.176627  7964 net.cpp:408] conv5_2 -> conv5_2
I0601 17:38:24.194227  7964 net.cpp:150] Setting up conv5_2
I0601 17:38:24.194243  7964 net.cpp:157] Top shape: 4 512 19 19 (739328)
I0601 17:38:24.194247  7964 net.cpp:165] Memory required for data: 872697888
I0601 17:38:24.194268  7964 layer_factory.hpp:77] Creating layer relu5_2
I0601 17:38:24.194274  7964 net.cpp:100] Creating Layer relu5_2
I0601 17:38:24.194293  7964 net.cpp:434] relu5_2 <- conv5_2
I0601 17:38:24.194298  7964 net.cpp:395] relu5_2 -> conv5_2 (in-place)
I0601 17:38:24.196414  7964 net.cpp:150] Setting up relu5_2
I0601 17:38:24.196425  7964 net.cpp:157] Top shape: 4 512 19 19 (739328)
I0601 17:38:24.196429  7964 net.cpp:165] Memory required for data: 875655200
I0601 17:38:24.196431  7964 layer_factory.hpp:77] Creating layer conv5_3
I0601 17:38:24.196444  7964 net.cpp:100] Creating Layer conv5_3
I0601 17:38:24.196449  7964 net.cpp:434] conv5_3 <- conv5_2
I0601 17:38:24.196458  7964 net.cpp:408] conv5_3 -> conv5_3
I0601 17:38:24.213152  7964 net.cpp:150] Setting up conv5_3
I0601 17:38:24.213168  7964 net.cpp:157] Top shape: 4 512 19 19 (739328)
I0601 17:38:24.213171  7964 net.cpp:165] Memory required for data: 878612512
I0601 17:38:24.213191  7964 layer_factory.hpp:77] Creating layer relu5_3
I0601 17:38:24.213204  7964 net.cpp:100] Creating Layer relu5_3
I0601 17:38:24.213210  7964 net.cpp:434] relu5_3 <- conv5_3
I0601 17:38:24.213229  7964 net.cpp:395] relu5_3 -> conv5_3 (in-place)
I0601 17:38:24.215380  7964 net.cpp:150] Setting up relu5_3
I0601 17:38:24.215391  7964 net.cpp:157] Top shape: 4 512 19 19 (739328)
I0601 17:38:24.215394  7964 net.cpp:165] Memory required for data: 881569824
I0601 17:38:24.215397  7964 layer_factory.hpp:77] Creating layer pool5
I0601 17:38:24.215406  7964 net.cpp:100] Creating Layer pool5
I0601 17:38:24.215414  7964 net.cpp:434] pool5 <- conv5_3
I0601 17:38:24.215421  7964 net.cpp:408] pool5 -> pool5
I0601 17:38:24.215487  7964 net.cpp:150] Setting up pool5
I0601 17:38:24.215495  7964 net.cpp:157] Top shape: 4 512 19 19 (739328)
I0601 17:38:24.215502  7964 net.cpp:165] Memory required for data: 884527136
I0601 17:38:24.215505  7964 layer_factory.hpp:77] Creating layer fc6
I0601 17:38:24.215517  7964 net.cpp:100] Creating Layer fc6
I0601 17:38:24.215523  7964 net.cpp:434] fc6 <- pool5
I0601 17:38:24.215533  7964 net.cpp:408] fc6 -> fc6
I0601 17:38:24.239050  7964 net.cpp:150] Setting up fc6
I0601 17:38:24.239069  7964 net.cpp:157] Top shape: 4 1024 19 19 (1478656)
I0601 17:38:24.239073  7964 net.cpp:165] Memory required for data: 890441760
I0601 17:38:24.239082  7964 layer_factory.hpp:77] Creating layer relu6
I0601 17:38:24.239092  7964 net.cpp:100] Creating Layer relu6
I0601 17:38:24.239112  7964 net.cpp:434] relu6 <- fc6
I0601 17:38:24.239128  7964 net.cpp:395] relu6 -> fc6 (in-place)
I0601 17:38:24.240012  7964 net.cpp:150] Setting up relu6
I0601 17:38:24.240031  7964 net.cpp:157] Top shape: 4 1024 19 19 (1478656)
I0601 17:38:24.240051  7964 net.cpp:165] Memory required for data: 896356384
I0601 17:38:24.240056  7964 layer_factory.hpp:77] Creating layer fc7
I0601 17:38:24.240069  7964 net.cpp:100] Creating Layer fc7
I0601 17:38:24.240074  7964 net.cpp:434] fc7 <- fc6
I0601 17:38:24.240083  7964 net.cpp:408] fc7 -> fc7
I0601 17:38:24.249128  7964 net.cpp:150] Setting up fc7
I0601 17:38:24.249148  7964 net.cpp:157] Top shape: 4 1024 19 19 (1478656)
I0601 17:38:24.249151  7964 net.cpp:165] Memory required for data: 902271008
I0601 17:38:24.249174  7964 layer_factory.hpp:77] Creating layer relu7
I0601 17:38:24.249183  7964 net.cpp:100] Creating Layer relu7
I0601 17:38:24.249202  7964 net.cpp:434] relu7 <- fc7
I0601 17:38:24.249207  7964 net.cpp:395] relu7 -> fc7 (in-place)
I0601 17:38:24.251269  7964 net.cpp:150] Setting up relu7
I0601 17:38:24.251281  7964 net.cpp:157] Top shape: 4 1024 19 19 (1478656)
I0601 17:38:24.251283  7964 net.cpp:165] Memory required for data: 908185632
I0601 17:38:24.251286  7964 layer_factory.hpp:77] Creating layer fc7_relu7_0_split
I0601 17:38:24.251294  7964 net.cpp:100] Creating Layer fc7_relu7_0_split
I0601 17:38:24.251301  7964 net.cpp:434] fc7_relu7_0_split <- fc7
I0601 17:38:24.251308  7964 net.cpp:408] fc7_relu7_0_split -> fc7_relu7_0_split_0
I0601 17:38:24.251320  7964 net.cpp:408] fc7_relu7_0_split -> fc7_relu7_0_split_1
I0601 17:38:24.251334  7964 net.cpp:408] fc7_relu7_0_split -> fc7_relu7_0_split_2
I0601 17:38:24.251344  7964 net.cpp:408] fc7_relu7_0_split -> fc7_relu7_0_split_3
I0601 17:38:24.251442  7964 net.cpp:150] Setting up fc7_relu7_0_split
I0601 17:38:24.251452  7964 net.cpp:157] Top shape: 4 1024 19 19 (1478656)
I0601 17:38:24.251458  7964 net.cpp:157] Top shape: 4 1024 19 19 (1478656)
I0601 17:38:24.251464  7964 net.cpp:157] Top shape: 4 1024 19 19 (1478656)
I0601 17:38:24.251471  7964 net.cpp:157] Top shape: 4 1024 19 19 (1478656)
I0601 17:38:24.251474  7964 net.cpp:165] Memory required for data: 931844128
I0601 17:38:24.251478  7964 layer_factory.hpp:77] Creating layer conv6_1
I0601 17:38:24.251490  7964 net.cpp:100] Creating Layer conv6_1
I0601 17:38:24.251497  7964 net.cpp:434] conv6_1 <- fc7_relu7_0_split_0
I0601 17:38:24.251505  7964 net.cpp:408] conv6_1 -> conv6_1
I0601 17:38:24.258167  7964 net.cpp:150] Setting up conv6_1
I0601 17:38:24.258184  7964 net.cpp:157] Top shape: 4 256 19 19 (369664)
I0601 17:38:24.258188  7964 net.cpp:165] Memory required for data: 933322784
I0601 17:38:24.258194  7964 layer_factory.hpp:77] Creating layer conv6_1_relu
I0601 17:38:24.258203  7964 net.cpp:100] Creating Layer conv6_1_relu
I0601 17:38:24.258208  7964 net.cpp:434] conv6_1_relu <- conv6_1
I0601 17:38:24.258214  7964 net.cpp:395] conv6_1_relu -> conv6_1 (in-place)
I0601 17:38:24.260324  7964 net.cpp:150] Setting up conv6_1_relu
I0601 17:38:24.260334  7964 net.cpp:157] Top shape: 4 256 19 19 (369664)
I0601 17:38:24.260336  7964 net.cpp:165] Memory required for data: 934801440
I0601 17:38:24.260339  7964 layer_factory.hpp:77] Creating layer conv6_2
I0601 17:38:24.260349  7964 net.cpp:100] Creating Layer conv6_2
I0601 17:38:24.260355  7964 net.cpp:434] conv6_2 <- conv6_1
I0601 17:38:24.260365  7964 net.cpp:408] conv6_2 -> conv6_2
I0601 17:38:24.271463  7964 net.cpp:150] Setting up conv6_2
I0601 17:38:24.271482  7964 net.cpp:157] Top shape: 4 512 10 10 (204800)
I0601 17:38:24.271486  7964 net.cpp:165] Memory required for data: 935620640
I0601 17:38:24.271497  7964 layer_factory.hpp:77] Creating layer conv6_2_relu
I0601 17:38:24.271504  7964 net.cpp:100] Creating Layer conv6_2_relu
I0601 17:38:24.271509  7964 net.cpp:434] conv6_2_relu <- conv6_2
I0601 17:38:24.271517  7964 net.cpp:395] conv6_2_relu -> conv6_2 (in-place)
I0601 17:38:24.273591  7964 net.cpp:150] Setting up conv6_2_relu
I0601 17:38:24.273602  7964 net.cpp:157] Top shape: 4 512 10 10 (204800)
I0601 17:38:24.273605  7964 net.cpp:165] Memory required for data: 936439840
I0601 17:38:24.273607  7964 layer_factory.hpp:77] Creating layer conv6_2_conv6_2_relu_0_split
I0601 17:38:24.273613  7964 net.cpp:100] Creating Layer conv6_2_conv6_2_relu_0_split
I0601 17:38:24.273630  7964 net.cpp:434] conv6_2_conv6_2_relu_0_split <- conv6_2
I0601 17:38:24.273638  7964 net.cpp:408] conv6_2_conv6_2_relu_0_split -> conv6_2_conv6_2_relu_0_split_0
I0601 17:38:24.273649  7964 net.cpp:408] conv6_2_conv6_2_relu_0_split -> conv6_2_conv6_2_relu_0_split_1
I0601 17:38:24.273659  7964 net.cpp:408] conv6_2_conv6_2_relu_0_split -> conv6_2_conv6_2_relu_0_split_2
I0601 17:38:24.273669  7964 net.cpp:408] conv6_2_conv6_2_relu_0_split -> conv6_2_conv6_2_relu_0_split_3
I0601 17:38:24.273769  7964 net.cpp:150] Setting up conv6_2_conv6_2_relu_0_split
I0601 17:38:24.273778  7964 net.cpp:157] Top shape: 4 512 10 10 (204800)
I0601 17:38:24.273783  7964 net.cpp:157] Top shape: 4 512 10 10 (204800)
I0601 17:38:24.273788  7964 net.cpp:157] Top shape: 4 512 10 10 (204800)
I0601 17:38:24.273793  7964 net.cpp:157] Top shape: 4 512 10 10 (204800)
I0601 17:38:24.273797  7964 net.cpp:165] Memory required for data: 939716640
I0601 17:38:24.273800  7964 layer_factory.hpp:77] Creating layer conv7_1
I0601 17:38:24.273813  7964 net.cpp:100] Creating Layer conv7_1
I0601 17:38:24.273818  7964 net.cpp:434] conv7_1 <- conv6_2_conv6_2_relu_0_split_0
I0601 17:38:24.273826  7964 net.cpp:408] conv7_1 -> conv7_1
I0601 17:38:24.281564  7964 net.cpp:150] Setting up conv7_1
I0601 17:38:24.281582  7964 net.cpp:157] Top shape: 4 128 10 10 (51200)
I0601 17:38:24.281600  7964 net.cpp:165] Memory required for data: 939921440
I0601 17:38:24.281607  7964 layer_factory.hpp:77] Creating layer conv7_1_relu
I0601 17:38:24.281615  7964 net.cpp:100] Creating Layer conv7_1_relu
I0601 17:38:24.281620  7964 net.cpp:434] conv7_1_relu <- conv7_1
I0601 17:38:24.281623  7964 net.cpp:395] conv7_1_relu -> conv7_1 (in-place)
I0601 17:38:24.283803  7964 net.cpp:150] Setting up conv7_1_relu
I0601 17:38:24.283814  7964 net.cpp:157] Top shape: 4 128 10 10 (51200)
I0601 17:38:24.283818  7964 net.cpp:165] Memory required for data: 940126240
I0601 17:38:24.283820  7964 layer_factory.hpp:77] Creating layer conv7_2
I0601 17:38:24.283834  7964 net.cpp:100] Creating Layer conv7_2
I0601 17:38:24.283841  7964 net.cpp:434] conv7_2 <- conv7_1
I0601 17:38:24.283851  7964 net.cpp:408] conv7_2 -> conv7_2
I0601 17:38:24.294956  7964 net.cpp:150] Setting up conv7_2
I0601 17:38:24.294972  7964 net.cpp:157] Top shape: 4 256 5 5 (25600)
I0601 17:38:24.294975  7964 net.cpp:165] Memory required for data: 940228640
I0601 17:38:24.294981  7964 layer_factory.hpp:77] Creating layer conv7_2_relu
I0601 17:38:24.294989  7964 net.cpp:100] Creating Layer conv7_2_relu
I0601 17:38:24.294996  7964 net.cpp:434] conv7_2_relu <- conv7_2
I0601 17:38:24.295002  7964 net.cpp:395] conv7_2_relu -> conv7_2 (in-place)
I0601 17:38:24.297133  7964 net.cpp:150] Setting up conv7_2_relu
I0601 17:38:24.297145  7964 net.cpp:157] Top shape: 4 256 5 5 (25600)
I0601 17:38:24.297147  7964 net.cpp:165] Memory required for data: 940331040
I0601 17:38:24.297150  7964 layer_factory.hpp:77] Creating layer conv7_2_conv7_2_relu_0_split
I0601 17:38:24.297159  7964 net.cpp:100] Creating Layer conv7_2_conv7_2_relu_0_split
I0601 17:38:24.297166  7964 net.cpp:434] conv7_2_conv7_2_relu_0_split <- conv7_2
I0601 17:38:24.297174  7964 net.cpp:408] conv7_2_conv7_2_relu_0_split -> conv7_2_conv7_2_relu_0_split_0
I0601 17:38:24.297185  7964 net.cpp:408] conv7_2_conv7_2_relu_0_split -> conv7_2_conv7_2_relu_0_split_1
I0601 17:38:24.297194  7964 net.cpp:408] conv7_2_conv7_2_relu_0_split -> conv7_2_conv7_2_relu_0_split_2
I0601 17:38:24.297201  7964 net.cpp:408] conv7_2_conv7_2_relu_0_split -> conv7_2_conv7_2_relu_0_split_3
I0601 17:38:24.297335  7964 net.cpp:150] Setting up conv7_2_conv7_2_relu_0_split
I0601 17:38:24.297345  7964 net.cpp:157] Top shape: 4 256 5 5 (25600)
I0601 17:38:24.297350  7964 net.cpp:157] Top shape: 4 256 5 5 (25600)
I0601 17:38:24.297370  7964 net.cpp:157] Top shape: 4 256 5 5 (25600)
I0601 17:38:24.297387  7964 net.cpp:157] Top shape: 4 256 5 5 (25600)
I0601 17:38:24.297391  7964 net.cpp:165] Memory required for data: 940740640
I0601 17:38:24.297394  7964 layer_factory.hpp:77] Creating layer conv8_1
I0601 17:38:24.297421  7964 net.cpp:100] Creating Layer conv8_1
I0601 17:38:24.297428  7964 net.cpp:434] conv8_1 <- conv7_2_conv7_2_relu_0_split_0
I0601 17:38:24.297438  7964 net.cpp:408] conv8_1 -> conv8_1
I0601 17:38:24.304122  7964 net.cpp:150] Setting up conv8_1
I0601 17:38:24.304144  7964 net.cpp:157] Top shape: 4 128 5 5 (12800)
I0601 17:38:24.304147  7964 net.cpp:165] Memory required for data: 940791840
I0601 17:38:24.304169  7964 layer_factory.hpp:77] Creating layer conv8_1_relu
I0601 17:38:24.304177  7964 net.cpp:100] Creating Layer conv8_1_relu
I0601 17:38:24.304181  7964 net.cpp:434] conv8_1_relu <- conv8_1
I0601 17:38:24.304200  7964 net.cpp:395] conv8_1_relu -> conv8_1 (in-place)
I0601 17:38:24.306219  7964 net.cpp:150] Setting up conv8_1_relu
I0601 17:38:24.306232  7964 net.cpp:157] Top shape: 4 128 5 5 (12800)
I0601 17:38:24.306237  7964 net.cpp:165] Memory required for data: 940843040
I0601 17:38:24.306242  7964 layer_factory.hpp:77] Creating layer conv8_2
I0601 17:38:24.306254  7964 net.cpp:100] Creating Layer conv8_2
I0601 17:38:24.306260  7964 net.cpp:434] conv8_2 <- conv8_1
I0601 17:38:24.306270  7964 net.cpp:408] conv8_2 -> conv8_2
I0601 17:38:24.314276  7964 net.cpp:150] Setting up conv8_2
I0601 17:38:24.314294  7964 net.cpp:157] Top shape: 4 256 3 3 (9216)
I0601 17:38:24.314297  7964 net.cpp:165] Memory required for data: 940879904
I0601 17:38:24.314319  7964 layer_factory.hpp:77] Creating layer conv8_2_relu
I0601 17:38:24.314327  7964 net.cpp:100] Creating Layer conv8_2_relu
I0601 17:38:24.314332  7964 net.cpp:434] conv8_2_relu <- conv8_2
I0601 17:38:24.314337  7964 net.cpp:395] conv8_2_relu -> conv8_2 (in-place)
I0601 17:38:24.316486  7964 net.cpp:150] Setting up conv8_2_relu
I0601 17:38:24.316498  7964 net.cpp:157] Top shape: 4 256 3 3 (9216)
I0601 17:38:24.316501  7964 net.cpp:165] Memory required for data: 940916768
I0601 17:38:24.316504  7964 layer_factory.hpp:77] Creating layer conv8_2_conv8_2_relu_0_split
I0601 17:38:24.316511  7964 net.cpp:100] Creating Layer conv8_2_conv8_2_relu_0_split
I0601 17:38:24.316517  7964 net.cpp:434] conv8_2_conv8_2_relu_0_split <- conv8_2
I0601 17:38:24.316526  7964 net.cpp:408] conv8_2_conv8_2_relu_0_split -> conv8_2_conv8_2_relu_0_split_0
I0601 17:38:24.316537  7964 net.cpp:408] conv8_2_conv8_2_relu_0_split -> conv8_2_conv8_2_relu_0_split_1
I0601 17:38:24.316546  7964 net.cpp:408] conv8_2_conv8_2_relu_0_split -> conv8_2_conv8_2_relu_0_split_2
I0601 17:38:24.316555  7964 net.cpp:408] conv8_2_conv8_2_relu_0_split -> conv8_2_conv8_2_relu_0_split_3
I0601 17:38:24.316659  7964 net.cpp:150] Setting up conv8_2_conv8_2_relu_0_split
I0601 17:38:24.316668  7964 net.cpp:157] Top shape: 4 256 3 3 (9216)
I0601 17:38:24.316675  7964 net.cpp:157] Top shape: 4 256 3 3 (9216)
I0601 17:38:24.316681  7964 net.cpp:157] Top shape: 4 256 3 3 (9216)
I0601 17:38:24.316686  7964 net.cpp:157] Top shape: 4 256 3 3 (9216)
I0601 17:38:24.316690  7964 net.cpp:165] Memory required for data: 941064224
I0601 17:38:24.316696  7964 layer_factory.hpp:77] Creating layer conv9_1
I0601 17:38:24.316709  7964 net.cpp:100] Creating Layer conv9_1
I0601 17:38:24.316715  7964 net.cpp:434] conv9_1 <- conv8_2_conv8_2_relu_0_split_0
I0601 17:38:24.316725  7964 net.cpp:408] conv9_1 -> conv9_1
I0601 17:38:24.323386  7964 net.cpp:150] Setting up conv9_1
I0601 17:38:24.323397  7964 net.cpp:157] Top shape: 4 128 3 3 (4608)
I0601 17:38:24.323400  7964 net.cpp:165] Memory required for data: 941082656
I0601 17:38:24.323406  7964 layer_factory.hpp:77] Creating layer conv9_1_relu
I0601 17:38:24.323415  7964 net.cpp:100] Creating Layer conv9_1_relu
I0601 17:38:24.323421  7964 net.cpp:434] conv9_1_relu <- conv9_1
I0601 17:38:24.323431  7964 net.cpp:395] conv9_1_relu -> conv9_1 (in-place)
I0601 17:38:24.325501  7964 net.cpp:150] Setting up conv9_1_relu
I0601 17:38:24.325511  7964 net.cpp:157] Top shape: 4 128 3 3 (4608)
I0601 17:38:24.325515  7964 net.cpp:165] Memory required for data: 941101088
I0601 17:38:24.325517  7964 layer_factory.hpp:77] Creating layer conv9_2
I0601 17:38:24.325543  7964 net.cpp:100] Creating Layer conv9_2
I0601 17:38:24.325551  7964 net.cpp:434] conv9_2 <- conv9_1
I0601 17:38:24.325562  7964 net.cpp:408] conv9_2 -> conv9_2
I0601 17:38:24.332412  7964 net.cpp:150] Setting up conv9_2
I0601 17:38:24.332425  7964 net.cpp:157] Top shape: 4 256 1 1 (1024)
I0601 17:38:24.332429  7964 net.cpp:165] Memory required for data: 941105184
I0601 17:38:24.332435  7964 layer_factory.hpp:77] Creating layer conv9_2_relu
I0601 17:38:24.332443  7964 net.cpp:100] Creating Layer conv9_2_relu
I0601 17:38:24.332448  7964 net.cpp:434] conv9_2_relu <- conv9_2
I0601 17:38:24.332468  7964 net.cpp:395] conv9_2_relu -> conv9_2 (in-place)
I0601 17:38:24.334573  7964 net.cpp:150] Setting up conv9_2_relu
I0601 17:38:24.334583  7964 net.cpp:157] Top shape: 4 256 1 1 (1024)
I0601 17:38:24.334585  7964 net.cpp:165] Memory required for data: 941109280
I0601 17:38:24.334589  7964 layer_factory.hpp:77] Creating layer conv9_2_conv9_2_relu_0_split
I0601 17:38:24.334595  7964 net.cpp:100] Creating Layer conv9_2_conv9_2_relu_0_split
I0601 17:38:24.334601  7964 net.cpp:434] conv9_2_conv9_2_relu_0_split <- conv9_2
I0601 17:38:24.334609  7964 net.cpp:408] conv9_2_conv9_2_relu_0_split -> conv9_2_conv9_2_relu_0_split_0
I0601 17:38:24.334620  7964 net.cpp:408] conv9_2_conv9_2_relu_0_split -> conv9_2_conv9_2_relu_0_split_1
I0601 17:38:24.334630  7964 net.cpp:408] conv9_2_conv9_2_relu_0_split -> conv9_2_conv9_2_relu_0_split_2
I0601 17:38:24.334712  7964 net.cpp:150] Setting up conv9_2_conv9_2_relu_0_split
I0601 17:38:24.334722  7964 net.cpp:157] Top shape: 4 256 1 1 (1024)
I0601 17:38:24.334729  7964 net.cpp:157] Top shape: 4 256 1 1 (1024)
I0601 17:38:24.334734  7964 net.cpp:157] Top shape: 4 256 1 1 (1024)
I0601 17:38:24.334739  7964 net.cpp:165] Memory required for data: 941121568
I0601 17:38:24.334743  7964 layer_factory.hpp:77] Creating layer conv4_3_norm
I0601 17:38:24.334753  7964 net.cpp:100] Creating Layer conv4_3_norm
I0601 17:38:24.334758  7964 net.cpp:434] conv4_3_norm <- conv4_3_relu4_3_0_split_1
I0601 17:38:24.334766  7964 net.cpp:408] conv4_3_norm -> conv4_3_norm
I0601 17:38:24.334982  7964 net.cpp:150] Setting up conv4_3_norm
I0601 17:38:24.334990  7964 net.cpp:157] Top shape: 4 512 38 38 (2957312)
I0601 17:38:24.334993  7964 net.cpp:165] Memory required for data: 952950816
I0601 17:38:24.334997  7964 layer_factory.hpp:77] Creating layer conv4_3_norm_conv4_3_norm_0_split
I0601 17:38:24.335001  7964 net.cpp:100] Creating Layer conv4_3_norm_conv4_3_norm_0_split
I0601 17:38:24.335007  7964 net.cpp:434] conv4_3_norm_conv4_3_norm_0_split <- conv4_3_norm
I0601 17:38:24.335013  7964 net.cpp:408] conv4_3_norm_conv4_3_norm_0_split -> conv4_3_norm_conv4_3_norm_0_split_0
I0601 17:38:24.335022  7964 net.cpp:408] conv4_3_norm_conv4_3_norm_0_split -> conv4_3_norm_conv4_3_norm_0_split_1
I0601 17:38:24.335029  7964 net.cpp:408] conv4_3_norm_conv4_3_norm_0_split -> conv4_3_norm_conv4_3_norm_0_split_2
I0601 17:38:24.335091  7964 net.cpp:150] Setting up conv4_3_norm_conv4_3_norm_0_split
I0601 17:38:24.335098  7964 net.cpp:157] Top shape: 4 512 38 38 (2957312)
I0601 17:38:24.335103  7964 net.cpp:157] Top shape: 4 512 38 38 (2957312)
I0601 17:38:24.335106  7964 net.cpp:157] Top shape: 4 512 38 38 (2957312)
I0601 17:38:24.335110  7964 net.cpp:165] Memory required for data: 988438560
I0601 17:38:24.335114  7964 layer_factory.hpp:77] Creating layer conv4_3_norm_mbox_loc
I0601 17:38:24.335124  7964 net.cpp:100] Creating Layer conv4_3_norm_mbox_loc
I0601 17:38:24.335129  7964 net.cpp:434] conv4_3_norm_mbox_loc <- conv4_3_norm_conv4_3_norm_0_split_0
I0601 17:38:24.335135  7964 net.cpp:408] conv4_3_norm_mbox_loc -> conv4_3_norm_mbox_loc
I0601 17:38:24.341872  7964 net.cpp:150] Setting up conv4_3_norm_mbox_loc
I0601 17:38:24.341886  7964 net.cpp:157] Top shape: 4 16 38 38 (92416)
I0601 17:38:24.341909  7964 net.cpp:165] Memory required for data: 988808224
I0601 17:38:24.341917  7964 layer_factory.hpp:77] Creating layer conv4_3_norm_mbox_loc_perm
I0601 17:38:24.341926  7964 net.cpp:100] Creating Layer conv4_3_norm_mbox_loc_perm
I0601 17:38:24.341943  7964 net.cpp:434] conv4_3_norm_mbox_loc_perm <- conv4_3_norm_mbox_loc
I0601 17:38:24.341951  7964 net.cpp:408] conv4_3_norm_mbox_loc_perm -> conv4_3_norm_mbox_loc_perm
I0601 17:38:24.342167  7964 net.cpp:150] Setting up conv4_3_norm_mbox_loc_perm
I0601 17:38:24.342178  7964 net.cpp:157] Top shape: 4 38 38 16 (92416)
I0601 17:38:24.342181  7964 net.cpp:165] Memory required for data: 989177888
I0601 17:38:24.342185  7964 layer_factory.hpp:77] Creating layer conv4_3_norm_mbox_loc_flat
I0601 17:38:24.342207  7964 net.cpp:100] Creating Layer conv4_3_norm_mbox_loc_flat
I0601 17:38:24.342212  7964 net.cpp:434] conv4_3_norm_mbox_loc_flat <- conv4_3_norm_mbox_loc_perm
I0601 17:38:24.342232  7964 net.cpp:408] conv4_3_norm_mbox_loc_flat -> conv4_3_norm_mbox_loc_flat
I0601 17:38:24.342277  7964 net.cpp:150] Setting up conv4_3_norm_mbox_loc_flat
I0601 17:38:24.342285  7964 net.cpp:157] Top shape: 4 23104 (92416)
I0601 17:38:24.342289  7964 net.cpp:165] Memory required for data: 989547552
I0601 17:38:24.342306  7964 layer_factory.hpp:77] Creating layer conv4_3_norm_mbox_conf
I0601 17:38:24.342339  7964 net.cpp:100] Creating Layer conv4_3_norm_mbox_conf
I0601 17:38:24.342344  7964 net.cpp:434] conv4_3_norm_mbox_conf <- conv4_3_norm_conv4_3_norm_0_split_1
I0601 17:38:24.342353  7964 net.cpp:408] conv4_3_norm_mbox_conf -> conv4_3_norm_mbox_conf
I0601 17:38:24.350054  7964 net.cpp:150] Setting up conv4_3_norm_mbox_conf
I0601 17:38:24.350066  7964 net.cpp:157] Top shape: 4 16 38 38 (92416)
I0601 17:38:24.350069  7964 net.cpp:165] Memory required for data: 989917216
I0601 17:38:24.350075  7964 layer_factory.hpp:77] Creating layer conv4_3_norm_mbox_conf_perm
I0601 17:38:24.350097  7964 net.cpp:100] Creating Layer conv4_3_norm_mbox_conf_perm
I0601 17:38:24.350101  7964 net.cpp:434] conv4_3_norm_mbox_conf_perm <- conv4_3_norm_mbox_conf
I0601 17:38:24.350106  7964 net.cpp:408] conv4_3_norm_mbox_conf_perm -> conv4_3_norm_mbox_conf_perm
I0601 17:38:24.350225  7964 net.cpp:150] Setting up conv4_3_norm_mbox_conf_perm
I0601 17:38:24.350231  7964 net.cpp:157] Top shape: 4 38 38 16 (92416)
I0601 17:38:24.350234  7964 net.cpp:165] Memory required for data: 990286880
I0601 17:38:24.350234  7964 layer_factory.hpp:77] Creating layer conv4_3_norm_mbox_conf_flat
I0601 17:38:24.350239  7964 net.cpp:100] Creating Layer conv4_3_norm_mbox_conf_flat
I0601 17:38:24.350242  7964 net.cpp:434] conv4_3_norm_mbox_conf_flat <- conv4_3_norm_mbox_conf_perm
I0601 17:38:24.350246  7964 net.cpp:408] conv4_3_norm_mbox_conf_flat -> conv4_3_norm_mbox_conf_flat
I0601 17:38:24.350267  7964 net.cpp:150] Setting up conv4_3_norm_mbox_conf_flat
I0601 17:38:24.350273  7964 net.cpp:157] Top shape: 4 23104 (92416)
I0601 17:38:24.350276  7964 net.cpp:165] Memory required for data: 990656544
I0601 17:38:24.350281  7964 layer_factory.hpp:77] Creating layer conv4_3_norm_mbox_priorbox
I0601 17:38:24.350286  7964 net.cpp:100] Creating Layer conv4_3_norm_mbox_priorbox
I0601 17:38:24.350291  7964 net.cpp:434] conv4_3_norm_mbox_priorbox <- conv4_3_norm_conv4_3_norm_0_split_2
I0601 17:38:24.350297  7964 net.cpp:434] conv4_3_norm_mbox_priorbox <- data_data_0_split_1
I0601 17:38:24.350306  7964 net.cpp:408] conv4_3_norm_mbox_priorbox -> conv4_3_norm_mbox_priorbox
I0601 17:38:24.350342  7964 net.cpp:150] Setting up conv4_3_norm_mbox_priorbox
I0601 17:38:24.350348  7964 net.cpp:157] Top shape: 1 2 23104 (46208)
I0601 17:38:24.350352  7964 net.cpp:165] Memory required for data: 990841376
I0601 17:38:24.350354  7964 layer_factory.hpp:77] Creating layer fc7_mbox_loc
I0601 17:38:24.350365  7964 net.cpp:100] Creating Layer fc7_mbox_loc
I0601 17:38:24.350371  7964 net.cpp:434] fc7_mbox_loc <- fc7_relu7_0_split_1
I0601 17:38:24.350378  7964 net.cpp:408] fc7_mbox_loc -> fc7_mbox_loc
I0601 17:38:24.356931  7964 net.cpp:150] Setting up fc7_mbox_loc
I0601 17:38:24.356946  7964 net.cpp:157] Top shape: 4 24 19 19 (34656)
I0601 17:38:24.356951  7964 net.cpp:165] Memory required for data: 990980000
I0601 17:38:24.356959  7964 layer_factory.hpp:77] Creating layer fc7_mbox_loc_perm
I0601 17:38:24.356984  7964 net.cpp:100] Creating Layer fc7_mbox_loc_perm
I0601 17:38:24.356992  7964 net.cpp:434] fc7_mbox_loc_perm <- fc7_mbox_loc
I0601 17:38:24.357003  7964 net.cpp:408] fc7_mbox_loc_perm -> fc7_mbox_loc_perm
I0601 17:38:24.357117  7964 net.cpp:150] Setting up fc7_mbox_loc_perm
I0601 17:38:24.357127  7964 net.cpp:157] Top shape: 4 19 19 24 (34656)
I0601 17:38:24.357131  7964 net.cpp:165] Memory required for data: 991118624
I0601 17:38:24.357136  7964 layer_factory.hpp:77] Creating layer fc7_mbox_loc_flat
I0601 17:38:24.357141  7964 net.cpp:100] Creating Layer fc7_mbox_loc_flat
I0601 17:38:24.357146  7964 net.cpp:434] fc7_mbox_loc_flat <- fc7_mbox_loc_perm
I0601 17:38:24.357151  7964 net.cpp:408] fc7_mbox_loc_flat -> fc7_mbox_loc_flat
I0601 17:38:24.357179  7964 net.cpp:150] Setting up fc7_mbox_loc_flat
I0601 17:38:24.357185  7964 net.cpp:157] Top shape: 4 8664 (34656)
I0601 17:38:24.357188  7964 net.cpp:165] Memory required for data: 991257248
I0601 17:38:24.357192  7964 layer_factory.hpp:77] Creating layer fc7_mbox_conf
I0601 17:38:24.357204  7964 net.cpp:100] Creating Layer fc7_mbox_conf
I0601 17:38:24.357208  7964 net.cpp:434] fc7_mbox_conf <- fc7_relu7_0_split_2
I0601 17:38:24.357215  7964 net.cpp:408] fc7_mbox_conf -> fc7_mbox_conf
I0601 17:38:24.363979  7964 net.cpp:150] Setting up fc7_mbox_conf
I0601 17:38:24.363994  7964 net.cpp:157] Top shape: 4 24 19 19 (34656)
I0601 17:38:24.363998  7964 net.cpp:165] Memory required for data: 991395872
I0601 17:38:24.364006  7964 layer_factory.hpp:77] Creating layer fc7_mbox_conf_perm
I0601 17:38:24.364025  7964 net.cpp:100] Creating Layer fc7_mbox_conf_perm
I0601 17:38:24.364033  7964 net.cpp:434] fc7_mbox_conf_perm <- fc7_mbox_conf
I0601 17:38:24.364042  7964 net.cpp:408] fc7_mbox_conf_perm -> fc7_mbox_conf_perm
I0601 17:38:24.364156  7964 net.cpp:150] Setting up fc7_mbox_conf_perm
I0601 17:38:24.364162  7964 net.cpp:157] Top shape: 4 19 19 24 (34656)
I0601 17:38:24.364167  7964 net.cpp:165] Memory required for data: 991534496
I0601 17:38:24.364171  7964 layer_factory.hpp:77] Creating layer fc7_mbox_conf_flat
I0601 17:38:24.364176  7964 net.cpp:100] Creating Layer fc7_mbox_conf_flat
I0601 17:38:24.364181  7964 net.cpp:434] fc7_mbox_conf_flat <- fc7_mbox_conf_perm
I0601 17:38:24.364188  7964 net.cpp:408] fc7_mbox_conf_flat -> fc7_mbox_conf_flat
I0601 17:38:24.364215  7964 net.cpp:150] Setting up fc7_mbox_conf_flat
I0601 17:38:24.364222  7964 net.cpp:157] Top shape: 4 8664 (34656)
I0601 17:38:24.364224  7964 net.cpp:165] Memory required for data: 991673120
I0601 17:38:24.364228  7964 layer_factory.hpp:77] Creating layer fc7_mbox_priorbox
I0601 17:38:24.364235  7964 net.cpp:100] Creating Layer fc7_mbox_priorbox
I0601 17:38:24.364240  7964 net.cpp:434] fc7_mbox_priorbox <- fc7_relu7_0_split_3
I0601 17:38:24.364246  7964 net.cpp:434] fc7_mbox_priorbox <- data_data_0_split_2
I0601 17:38:24.364254  7964 net.cpp:408] fc7_mbox_priorbox -> fc7_mbox_priorbox
I0601 17:38:24.364285  7964 net.cpp:150] Setting up fc7_mbox_priorbox
I0601 17:38:24.364293  7964 net.cpp:157] Top shape: 1 2 8664 (17328)
I0601 17:38:24.364297  7964 net.cpp:165] Memory required for data: 991742432
I0601 17:38:24.364302  7964 layer_factory.hpp:77] Creating layer conv6_2_mbox_loc
I0601 17:38:24.364313  7964 net.cpp:100] Creating Layer conv6_2_mbox_loc
I0601 17:38:24.364317  7964 net.cpp:434] conv6_2_mbox_loc <- conv6_2_conv6_2_relu_0_split_1
I0601 17:38:24.364326  7964 net.cpp:408] conv6_2_mbox_loc -> conv6_2_mbox_loc
I0601 17:38:24.370573  7964 net.cpp:150] Setting up conv6_2_mbox_loc
I0601 17:38:24.370586  7964 net.cpp:157] Top shape: 4 24 10 10 (9600)
I0601 17:38:24.370590  7964 net.cpp:165] Memory required for data: 991780832
I0601 17:38:24.370599  7964 layer_factory.hpp:77] Creating layer conv6_2_mbox_loc_perm
I0601 17:38:24.370607  7964 net.cpp:100] Creating Layer conv6_2_mbox_loc_perm
I0601 17:38:24.370613  7964 net.cpp:434] conv6_2_mbox_loc_perm <- conv6_2_mbox_loc
I0601 17:38:24.370621  7964 net.cpp:408] conv6_2_mbox_loc_perm -> conv6_2_mbox_loc_perm
I0601 17:38:24.370733  7964 net.cpp:150] Setting up conv6_2_mbox_loc_perm
I0601 17:38:24.370748  7964 net.cpp:157] Top shape: 4 10 10 24 (9600)
I0601 17:38:24.370753  7964 net.cpp:165] Memory required for data: 991819232
I0601 17:38:24.370756  7964 layer_factory.hpp:77] Creating layer conv6_2_mbox_loc_flat
I0601 17:38:24.370761  7964 net.cpp:100] Creating Layer conv6_2_mbox_loc_flat
I0601 17:38:24.370766  7964 net.cpp:434] conv6_2_mbox_loc_flat <- conv6_2_mbox_loc_perm
I0601 17:38:24.370774  7964 net.cpp:408] conv6_2_mbox_loc_flat -> conv6_2_mbox_loc_flat
I0601 17:38:24.370800  7964 net.cpp:150] Setting up conv6_2_mbox_loc_flat
I0601 17:38:24.370808  7964 net.cpp:157] Top shape: 4 2400 (9600)
I0601 17:38:24.370813  7964 net.cpp:165] Memory required for data: 991857632
I0601 17:38:24.370816  7964 layer_factory.hpp:77] Creating layer conv6_2_mbox_conf
I0601 17:38:24.370827  7964 net.cpp:100] Creating Layer conv6_2_mbox_conf
I0601 17:38:24.370831  7964 net.cpp:434] conv6_2_mbox_conf <- conv6_2_conv6_2_relu_0_split_2
I0601 17:38:24.370841  7964 net.cpp:408] conv6_2_mbox_conf -> conv6_2_mbox_conf
I0601 17:38:24.377307  7964 net.cpp:150] Setting up conv6_2_mbox_conf
I0601 17:38:24.377322  7964 net.cpp:157] Top shape: 4 24 10 10 (9600)
I0601 17:38:24.377326  7964 net.cpp:165] Memory required for data: 991896032
I0601 17:38:24.377336  7964 layer_factory.hpp:77] Creating layer conv6_2_mbox_conf_perm
I0601 17:38:24.377344  7964 net.cpp:100] Creating Layer conv6_2_mbox_conf_perm
I0601 17:38:24.377351  7964 net.cpp:434] conv6_2_mbox_conf_perm <- conv6_2_mbox_conf
I0601 17:38:24.377359  7964 net.cpp:408] conv6_2_mbox_conf_perm -> conv6_2_mbox_conf_perm
I0601 17:38:24.377473  7964 net.cpp:150] Setting up conv6_2_mbox_conf_perm
I0601 17:38:24.377480  7964 net.cpp:157] Top shape: 4 10 10 24 (9600)
I0601 17:38:24.377483  7964 net.cpp:165] Memory required for data: 991934432
I0601 17:38:24.377486  7964 layer_factory.hpp:77] Creating layer conv6_2_mbox_conf_flat
I0601 17:38:24.377493  7964 net.cpp:100] Creating Layer conv6_2_mbox_conf_flat
I0601 17:38:24.377503  7964 net.cpp:434] conv6_2_mbox_conf_flat <- conv6_2_mbox_conf_perm
I0601 17:38:24.377511  7964 net.cpp:408] conv6_2_mbox_conf_flat -> conv6_2_mbox_conf_flat
I0601 17:38:24.377538  7964 net.cpp:150] Setting up conv6_2_mbox_conf_flat
I0601 17:38:24.377545  7964 net.cpp:157] Top shape: 4 2400 (9600)
I0601 17:38:24.377549  7964 net.cpp:165] Memory required for data: 991972832
I0601 17:38:24.377552  7964 layer_factory.hpp:77] Creating layer conv6_2_mbox_priorbox
I0601 17:38:24.377559  7964 net.cpp:100] Creating Layer conv6_2_mbox_priorbox
I0601 17:38:24.377565  7964 net.cpp:434] conv6_2_mbox_priorbox <- conv6_2_conv6_2_relu_0_split_3
I0601 17:38:24.377570  7964 net.cpp:434] conv6_2_mbox_priorbox <- data_data_0_split_3
I0601 17:38:24.377581  7964 net.cpp:408] conv6_2_mbox_priorbox -> conv6_2_mbox_priorbox
I0601 17:38:24.377619  7964 net.cpp:150] Setting up conv6_2_mbox_priorbox
I0601 17:38:24.377627  7964 net.cpp:157] Top shape: 1 2 2400 (4800)
I0601 17:38:24.377630  7964 net.cpp:165] Memory required for data: 991992032
I0601 17:38:24.377634  7964 layer_factory.hpp:77] Creating layer conv7_2_mbox_loc
I0601 17:38:24.377645  7964 net.cpp:100] Creating Layer conv7_2_mbox_loc
I0601 17:38:24.377650  7964 net.cpp:434] conv7_2_mbox_loc <- conv7_2_conv7_2_relu_0_split_1
I0601 17:38:24.377657  7964 net.cpp:408] conv7_2_mbox_loc -> conv7_2_mbox_loc
I0601 17:38:24.384230  7964 net.cpp:150] Setting up conv7_2_mbox_loc
I0601 17:38:24.384248  7964 net.cpp:157] Top shape: 4 24 5 5 (2400)
I0601 17:38:24.384253  7964 net.cpp:165] Memory required for data: 992001632
I0601 17:38:24.384261  7964 layer_factory.hpp:77] Creating layer conv7_2_mbox_loc_perm
I0601 17:38:24.384272  7964 net.cpp:100] Creating Layer conv7_2_mbox_loc_perm
I0601 17:38:24.384284  7964 net.cpp:434] conv7_2_mbox_loc_perm <- conv7_2_mbox_loc
I0601 17:38:24.384294  7964 net.cpp:408] conv7_2_mbox_loc_perm -> conv7_2_mbox_loc_perm
I0601 17:38:24.384428  7964 net.cpp:150] Setting up conv7_2_mbox_loc_perm
I0601 17:38:24.384435  7964 net.cpp:157] Top shape: 4 5 5 24 (2400)
I0601 17:38:24.384438  7964 net.cpp:165] Memory required for data: 992011232
I0601 17:38:24.384454  7964 layer_factory.hpp:77] Creating layer conv7_2_mbox_loc_flat
I0601 17:38:24.384461  7964 net.cpp:100] Creating Layer conv7_2_mbox_loc_flat
I0601 17:38:24.384467  7964 net.cpp:434] conv7_2_mbox_loc_flat <- conv7_2_mbox_loc_perm
I0601 17:38:24.384472  7964 net.cpp:408] conv7_2_mbox_loc_flat -> conv7_2_mbox_loc_flat
I0601 17:38:24.384503  7964 net.cpp:150] Setting up conv7_2_mbox_loc_flat
I0601 17:38:24.384508  7964 net.cpp:157] Top shape: 4 600 (2400)
I0601 17:38:24.384511  7964 net.cpp:165] Memory required for data: 992020832
I0601 17:38:24.384516  7964 layer_factory.hpp:77] Creating layer conv7_2_mbox_conf
I0601 17:38:24.384527  7964 net.cpp:100] Creating Layer conv7_2_mbox_conf
I0601 17:38:24.384531  7964 net.cpp:434] conv7_2_mbox_conf <- conv7_2_conv7_2_relu_0_split_2
I0601 17:38:24.384539  7964 net.cpp:408] conv7_2_mbox_conf -> conv7_2_mbox_conf
I0601 17:38:24.390087  7964 net.cpp:150] Setting up conv7_2_mbox_conf
I0601 17:38:24.390099  7964 net.cpp:157] Top shape: 4 24 5 5 (2400)
I0601 17:38:24.390101  7964 net.cpp:165] Memory required for data: 992030432
I0601 17:38:24.390110  7964 layer_factory.hpp:77] Creating layer conv7_2_mbox_conf_perm
I0601 17:38:24.390118  7964 net.cpp:100] Creating Layer conv7_2_mbox_conf_perm
I0601 17:38:24.390130  7964 net.cpp:434] conv7_2_mbox_conf_perm <- conv7_2_mbox_conf
I0601 17:38:24.390138  7964 net.cpp:408] conv7_2_mbox_conf_perm -> conv7_2_mbox_conf_perm
I0601 17:38:24.390249  7964 net.cpp:150] Setting up conv7_2_mbox_conf_perm
I0601 17:38:24.390255  7964 net.cpp:157] Top shape: 4 5 5 24 (2400)
I0601 17:38:24.390259  7964 net.cpp:165] Memory required for data: 992040032
I0601 17:38:24.390262  7964 layer_factory.hpp:77] Creating layer conv7_2_mbox_conf_flat
I0601 17:38:24.390269  7964 net.cpp:100] Creating Layer conv7_2_mbox_conf_flat
I0601 17:38:24.390275  7964 net.cpp:434] conv7_2_mbox_conf_flat <- conv7_2_mbox_conf_perm
I0601 17:38:24.390280  7964 net.cpp:408] conv7_2_mbox_conf_flat -> conv7_2_mbox_conf_flat
I0601 17:38:24.390307  7964 net.cpp:150] Setting up conv7_2_mbox_conf_flat
I0601 17:38:24.390313  7964 net.cpp:157] Top shape: 4 600 (2400)
I0601 17:38:24.390316  7964 net.cpp:165] Memory required for data: 992049632
I0601 17:38:24.390321  7964 layer_factory.hpp:77] Creating layer conv7_2_mbox_priorbox
I0601 17:38:24.390329  7964 net.cpp:100] Creating Layer conv7_2_mbox_priorbox
I0601 17:38:24.390333  7964 net.cpp:434] conv7_2_mbox_priorbox <- conv7_2_conv7_2_relu_0_split_3
I0601 17:38:24.390339  7964 net.cpp:434] conv7_2_mbox_priorbox <- data_data_0_split_4
I0601 17:38:24.390347  7964 net.cpp:408] conv7_2_mbox_priorbox -> conv7_2_mbox_priorbox
I0601 17:38:24.390378  7964 net.cpp:150] Setting up conv7_2_mbox_priorbox
I0601 17:38:24.390384  7964 net.cpp:157] Top shape: 1 2 600 (1200)
I0601 17:38:24.390388  7964 net.cpp:165] Memory required for data: 992054432
I0601 17:38:24.390390  7964 layer_factory.hpp:77] Creating layer conv8_2_mbox_loc
I0601 17:38:24.390401  7964 net.cpp:100] Creating Layer conv8_2_mbox_loc
I0601 17:38:24.390405  7964 net.cpp:434] conv8_2_mbox_loc <- conv8_2_conv8_2_relu_0_split_1
I0601 17:38:24.390416  7964 net.cpp:408] conv8_2_mbox_loc -> conv8_2_mbox_loc
I0601 17:38:24.396888  7964 net.cpp:150] Setting up conv8_2_mbox_loc
I0601 17:38:24.396900  7964 net.cpp:157] Top shape: 4 16 3 3 (576)
I0601 17:38:24.396904  7964 net.cpp:165] Memory required for data: 992056736
I0601 17:38:24.396924  7964 layer_factory.hpp:77] Creating layer conv8_2_mbox_loc_perm
I0601 17:38:24.396932  7964 net.cpp:100] Creating Layer conv8_2_mbox_loc_perm
I0601 17:38:24.396939  7964 net.cpp:434] conv8_2_mbox_loc_perm <- conv8_2_mbox_loc
I0601 17:38:24.396946  7964 net.cpp:408] conv8_2_mbox_loc_perm -> conv8_2_mbox_loc_perm
I0601 17:38:24.397059  7964 net.cpp:150] Setting up conv8_2_mbox_loc_perm
I0601 17:38:24.397065  7964 net.cpp:157] Top shape: 4 3 3 16 (576)
I0601 17:38:24.397069  7964 net.cpp:165] Memory required for data: 992059040
I0601 17:38:24.397073  7964 layer_factory.hpp:77] Creating layer conv8_2_mbox_loc_flat
I0601 17:38:24.397088  7964 net.cpp:100] Creating Layer conv8_2_mbox_loc_flat
I0601 17:38:24.397095  7964 net.cpp:434] conv8_2_mbox_loc_flat <- conv8_2_mbox_loc_perm
I0601 17:38:24.397104  7964 net.cpp:408] conv8_2_mbox_loc_flat -> conv8_2_mbox_loc_flat
I0601 17:38:24.397133  7964 net.cpp:150] Setting up conv8_2_mbox_loc_flat
I0601 17:38:24.397140  7964 net.cpp:157] Top shape: 4 144 (576)
I0601 17:38:24.397142  7964 net.cpp:165] Memory required for data: 992061344
I0601 17:38:24.397146  7964 layer_factory.hpp:77] Creating layer conv8_2_mbox_conf
I0601 17:38:24.397157  7964 net.cpp:100] Creating Layer conv8_2_mbox_conf
I0601 17:38:24.397162  7964 net.cpp:434] conv8_2_mbox_conf <- conv8_2_conv8_2_relu_0_split_2
I0601 17:38:24.397169  7964 net.cpp:408] conv8_2_mbox_conf -> conv8_2_mbox_conf
I0601 17:38:24.403579  7964 net.cpp:150] Setting up conv8_2_mbox_conf
I0601 17:38:24.403591  7964 net.cpp:157] Top shape: 4 16 3 3 (576)
I0601 17:38:24.403594  7964 net.cpp:165] Memory required for data: 992063648
I0601 17:38:24.403602  7964 layer_factory.hpp:77] Creating layer conv8_2_mbox_conf_perm
I0601 17:38:24.403612  7964 net.cpp:100] Creating Layer conv8_2_mbox_conf_perm
I0601 17:38:24.403619  7964 net.cpp:434] conv8_2_mbox_conf_perm <- conv8_2_mbox_conf
I0601 17:38:24.403626  7964 net.cpp:408] conv8_2_mbox_conf_perm -> conv8_2_mbox_conf_perm
I0601 17:38:24.403741  7964 net.cpp:150] Setting up conv8_2_mbox_conf_perm
I0601 17:38:24.403748  7964 net.cpp:157] Top shape: 4 3 3 16 (576)
I0601 17:38:24.403751  7964 net.cpp:165] Memory required for data: 992065952
I0601 17:38:24.403755  7964 layer_factory.hpp:77] Creating layer conv8_2_mbox_conf_flat
I0601 17:38:24.403762  7964 net.cpp:100] Creating Layer conv8_2_mbox_conf_flat
I0601 17:38:24.403771  7964 net.cpp:434] conv8_2_mbox_conf_flat <- conv8_2_mbox_conf_perm
I0601 17:38:24.403777  7964 net.cpp:408] conv8_2_mbox_conf_flat -> conv8_2_mbox_conf_flat
I0601 17:38:24.403808  7964 net.cpp:150] Setting up conv8_2_mbox_conf_flat
I0601 17:38:24.403815  7964 net.cpp:157] Top shape: 4 144 (576)
I0601 17:38:24.403817  7964 net.cpp:165] Memory required for data: 992068256
I0601 17:38:24.403821  7964 layer_factory.hpp:77] Creating layer conv8_2_mbox_priorbox
I0601 17:38:24.403830  7964 net.cpp:100] Creating Layer conv8_2_mbox_priorbox
I0601 17:38:24.403834  7964 net.cpp:434] conv8_2_mbox_priorbox <- conv8_2_conv8_2_relu_0_split_3
I0601 17:38:24.403839  7964 net.cpp:434] conv8_2_mbox_priorbox <- data_data_0_split_5
I0601 17:38:24.403847  7964 net.cpp:408] conv8_2_mbox_priorbox -> conv8_2_mbox_priorbox
I0601 17:38:24.403880  7964 net.cpp:150] Setting up conv8_2_mbox_priorbox
I0601 17:38:24.403887  7964 net.cpp:157] Top shape: 1 2 144 (288)
I0601 17:38:24.403890  7964 net.cpp:165] Memory required for data: 992069408
I0601 17:38:24.403894  7964 layer_factory.hpp:77] Creating layer conv9_2_mbox_loc
I0601 17:38:24.403905  7964 net.cpp:100] Creating Layer conv9_2_mbox_loc
I0601 17:38:24.403911  7964 net.cpp:434] conv9_2_mbox_loc <- conv9_2_conv9_2_relu_0_split_0
I0601 17:38:24.403918  7964 net.cpp:408] conv9_2_mbox_loc -> conv9_2_mbox_loc
I0601 17:38:24.414144  7964 net.cpp:150] Setting up conv9_2_mbox_loc
I0601 17:38:24.414161  7964 net.cpp:157] Top shape: 4 16 1 1 (64)
I0601 17:38:24.414165  7964 net.cpp:165] Memory required for data: 992069664
I0601 17:38:24.414173  7964 layer_factory.hpp:77] Creating layer conv9_2_mbox_loc_perm
I0601 17:38:24.414185  7964 net.cpp:100] Creating Layer conv9_2_mbox_loc_perm
I0601 17:38:24.414193  7964 net.cpp:434] conv9_2_mbox_loc_perm <- conv9_2_mbox_loc
I0601 17:38:24.414202  7964 net.cpp:408] conv9_2_mbox_loc_perm -> conv9_2_mbox_loc_perm
I0601 17:38:24.414357  7964 net.cpp:150] Setting up conv9_2_mbox_loc_perm
I0601 17:38:24.414367  7964 net.cpp:157] Top shape: 4 1 1 16 (64)
I0601 17:38:24.414371  7964 net.cpp:165] Memory required for data: 992069920
I0601 17:38:24.414376  7964 layer_factory.hpp:77] Creating layer conv9_2_mbox_loc_flat
I0601 17:38:24.414381  7964 net.cpp:100] Creating Layer conv9_2_mbox_loc_flat
I0601 17:38:24.414386  7964 net.cpp:434] conv9_2_mbox_loc_flat <- conv9_2_mbox_loc_perm
I0601 17:38:24.414407  7964 net.cpp:408] conv9_2_mbox_loc_flat -> conv9_2_mbox_loc_flat
I0601 17:38:24.414440  7964 net.cpp:150] Setting up conv9_2_mbox_loc_flat
I0601 17:38:24.414448  7964 net.cpp:157] Top shape: 4 16 (64)
I0601 17:38:24.414451  7964 net.cpp:165] Memory required for data: 992070176
I0601 17:38:24.414455  7964 layer_factory.hpp:77] Creating layer conv9_2_mbox_conf
I0601 17:38:24.414466  7964 net.cpp:100] Creating Layer conv9_2_mbox_conf
I0601 17:38:24.414471  7964 net.cpp:434] conv9_2_mbox_conf <- conv9_2_conv9_2_relu_0_split_1
I0601 17:38:24.414481  7964 net.cpp:408] conv9_2_mbox_conf -> conv9_2_mbox_conf
I0601 17:38:24.420565  7964 net.cpp:150] Setting up conv9_2_mbox_conf
I0601 17:38:24.420578  7964 net.cpp:157] Top shape: 4 16 1 1 (64)
I0601 17:38:24.420581  7964 net.cpp:165] Memory required for data: 992070432
I0601 17:38:24.420590  7964 layer_factory.hpp:77] Creating layer conv9_2_mbox_conf_perm
I0601 17:38:24.420600  7964 net.cpp:100] Creating Layer conv9_2_mbox_conf_perm
I0601 17:38:24.420613  7964 net.cpp:434] conv9_2_mbox_conf_perm <- conv9_2_mbox_conf
I0601 17:38:24.420622  7964 net.cpp:408] conv9_2_mbox_conf_perm -> conv9_2_mbox_conf_perm
I0601 17:38:24.420740  7964 net.cpp:150] Setting up conv9_2_mbox_conf_perm
I0601 17:38:24.420747  7964 net.cpp:157] Top shape: 4 1 1 16 (64)
I0601 17:38:24.420750  7964 net.cpp:165] Memory required for data: 992070688
I0601 17:38:24.420754  7964 layer_factory.hpp:77] Creating layer conv9_2_mbox_conf_flat
I0601 17:38:24.420760  7964 net.cpp:100] Creating Layer conv9_2_mbox_conf_flat
I0601 17:38:24.420768  7964 net.cpp:434] conv9_2_mbox_conf_flat <- conv9_2_mbox_conf_perm
I0601 17:38:24.420776  7964 net.cpp:408] conv9_2_mbox_conf_flat -> conv9_2_mbox_conf_flat
I0601 17:38:24.420807  7964 net.cpp:150] Setting up conv9_2_mbox_conf_flat
I0601 17:38:24.420812  7964 net.cpp:157] Top shape: 4 16 (64)
I0601 17:38:24.420816  7964 net.cpp:165] Memory required for data: 992070944
I0601 17:38:24.420820  7964 layer_factory.hpp:77] Creating layer conv9_2_mbox_priorbox
I0601 17:38:24.420827  7964 net.cpp:100] Creating Layer conv9_2_mbox_priorbox
I0601 17:38:24.420832  7964 net.cpp:434] conv9_2_mbox_priorbox <- conv9_2_conv9_2_relu_0_split_2
I0601 17:38:24.420837  7964 net.cpp:434] conv9_2_mbox_priorbox <- data_data_0_split_6
I0601 17:38:24.420846  7964 net.cpp:408] conv9_2_mbox_priorbox -> conv9_2_mbox_priorbox
I0601 17:38:24.420878  7964 net.cpp:150] Setting up conv9_2_mbox_priorbox
I0601 17:38:24.420884  7964 net.cpp:157] Top shape: 1 2 16 (32)
I0601 17:38:24.420888  7964 net.cpp:165] Memory required for data: 992071072
I0601 17:38:24.420892  7964 layer_factory.hpp:77] Creating layer mbox_loc
I0601 17:38:24.420898  7964 net.cpp:100] Creating Layer mbox_loc
I0601 17:38:24.420903  7964 net.cpp:434] mbox_loc <- conv4_3_norm_mbox_loc_flat
I0601 17:38:24.420912  7964 net.cpp:434] mbox_loc <- fc7_mbox_loc_flat
I0601 17:38:24.420917  7964 net.cpp:434] mbox_loc <- conv6_2_mbox_loc_flat
I0601 17:38:24.420923  7964 net.cpp:434] mbox_loc <- conv7_2_mbox_loc_flat
I0601 17:38:24.420929  7964 net.cpp:434] mbox_loc <- conv8_2_mbox_loc_flat
I0601 17:38:24.420935  7964 net.cpp:434] mbox_loc <- conv9_2_mbox_loc_flat
I0601 17:38:24.420945  7964 net.cpp:408] mbox_loc -> mbox_loc
I0601 17:38:24.420974  7964 net.cpp:150] Setting up mbox_loc
I0601 17:38:24.420980  7964 net.cpp:157] Top shape: 4 34928 (139712)
I0601 17:38:24.420984  7964 net.cpp:165] Memory required for data: 992629920
I0601 17:38:24.420989  7964 layer_factory.hpp:77] Creating layer mbox_conf
I0601 17:38:24.420994  7964 net.cpp:100] Creating Layer mbox_conf
I0601 17:38:24.420999  7964 net.cpp:434] mbox_conf <- conv4_3_norm_mbox_conf_flat
I0601 17:38:24.421005  7964 net.cpp:434] mbox_conf <- fc7_mbox_conf_flat
I0601 17:38:24.421010  7964 net.cpp:434] mbox_conf <- conv6_2_mbox_conf_flat
I0601 17:38:24.421016  7964 net.cpp:434] mbox_conf <- conv7_2_mbox_conf_flat
I0601 17:38:24.421022  7964 net.cpp:434] mbox_conf <- conv8_2_mbox_conf_flat
I0601 17:38:24.421028  7964 net.cpp:434] mbox_conf <- conv9_2_mbox_conf_flat
I0601 17:38:24.421044  7964 net.cpp:408] mbox_conf -> mbox_conf
I0601 17:38:24.421072  7964 net.cpp:150] Setting up mbox_conf
I0601 17:38:24.421077  7964 net.cpp:157] Top shape: 4 34928 (139712)
I0601 17:38:24.421082  7964 net.cpp:165] Memory required for data: 993188768
I0601 17:38:24.421085  7964 layer_factory.hpp:77] Creating layer mbox_priorbox
I0601 17:38:24.421090  7964 net.cpp:100] Creating Layer mbox_priorbox
I0601 17:38:24.421095  7964 net.cpp:434] mbox_priorbox <- conv4_3_norm_mbox_priorbox
I0601 17:38:24.421102  7964 net.cpp:434] mbox_priorbox <- fc7_mbox_priorbox
I0601 17:38:24.421108  7964 net.cpp:434] mbox_priorbox <- conv6_2_mbox_priorbox
I0601 17:38:24.421113  7964 net.cpp:434] mbox_priorbox <- conv7_2_mbox_priorbox
I0601 17:38:24.421118  7964 net.cpp:434] mbox_priorbox <- conv8_2_mbox_priorbox
I0601 17:38:24.421123  7964 net.cpp:434] mbox_priorbox <- conv9_2_mbox_priorbox
I0601 17:38:24.421128  7964 net.cpp:408] mbox_priorbox -> mbox_priorbox
I0601 17:38:24.421155  7964 net.cpp:150] Setting up mbox_priorbox
I0601 17:38:24.421162  7964 net.cpp:157] Top shape: 1 2 34928 (69856)
I0601 17:38:24.421166  7964 net.cpp:165] Memory required for data: 993468192
I0601 17:38:24.421169  7964 layer_factory.hpp:77] Creating layer mbox_conf_reshape
I0601 17:38:24.421178  7964 net.cpp:100] Creating Layer mbox_conf_reshape
I0601 17:38:24.421182  7964 net.cpp:434] mbox_conf_reshape <- mbox_conf
I0601 17:38:24.421190  7964 net.cpp:408] mbox_conf_reshape -> mbox_conf_reshape
I0601 17:38:24.421221  7964 net.cpp:150] Setting up mbox_conf_reshape
I0601 17:38:24.421227  7964 net.cpp:157] Top shape: 4 8732 4 (139712)
I0601 17:38:24.421231  7964 net.cpp:165] Memory required for data: 994027040
I0601 17:38:24.421236  7964 layer_factory.hpp:77] Creating layer mbox_conf_softmax
I0601 17:38:24.421242  7964 net.cpp:100] Creating Layer mbox_conf_softmax
I0601 17:38:24.421247  7964 net.cpp:434] mbox_conf_softmax <- mbox_conf_reshape
I0601 17:38:24.421253  7964 net.cpp:408] mbox_conf_softmax -> mbox_conf_softmax
I0601 17:38:24.421461  7964 net.cpp:150] Setting up mbox_conf_softmax
I0601 17:38:24.421469  7964 net.cpp:157] Top shape: 4 8732 4 (139712)
I0601 17:38:24.421473  7964 net.cpp:165] Memory required for data: 994585888
I0601 17:38:24.421476  7964 layer_factory.hpp:77] Creating layer mbox_conf_flatten
I0601 17:38:24.421483  7964 net.cpp:100] Creating Layer mbox_conf_flatten
I0601 17:38:24.421486  7964 net.cpp:434] mbox_conf_flatten <- mbox_conf_softmax
I0601 17:38:24.421494  7964 net.cpp:408] mbox_conf_flatten -> mbox_conf_flatten
I0601 17:38:24.421521  7964 net.cpp:150] Setting up mbox_conf_flatten
I0601 17:38:24.421528  7964 net.cpp:157] Top shape: 4 34928 (139712)
I0601 17:38:24.421532  7964 net.cpp:165] Memory required for data: 995144736
I0601 17:38:24.421535  7964 layer_factory.hpp:77] Creating layer detection_out
I0601 17:38:24.421547  7964 net.cpp:100] Creating Layer detection_out
I0601 17:38:24.421552  7964 net.cpp:434] detection_out <- mbox_loc
I0601 17:38:24.421557  7964 net.cpp:434] detection_out <- mbox_conf_flatten
I0601 17:38:24.421563  7964 net.cpp:434] detection_out <- mbox_priorbox
I0601 17:38:24.421571  7964 net.cpp:408] detection_out -> detection_out
I0601 17:38:24.437382  7964 net.cpp:150] Setting up detection_out
I0601 17:38:24.437397  7964 net.cpp:157] Top shape: 1 1 1 7 (7)
I0601 17:38:24.437400  7964 net.cpp:165] Memory required for data: 995144764
I0601 17:38:24.437405  7964 layer_factory.hpp:77] Creating layer detection_eval
I0601 17:38:24.437414  7964 net.cpp:100] Creating Layer detection_eval
I0601 17:38:24.437425  7964 net.cpp:434] detection_eval <- detection_out
I0601 17:38:24.437432  7964 net.cpp:434] detection_eval <- label
I0601 17:38:24.437440  7964 net.cpp:408] detection_eval -> detection_eval
I0601 17:38:24.438228  7964 net.cpp:150] Setting up detection_eval
I0601 17:38:24.438237  7964 net.cpp:157] Top shape: 1 1 4 5 (20)
I0601 17:38:24.438241  7964 net.cpp:165] Memory required for data: 995144844
I0601 17:38:24.438244  7964 net.cpp:228] detection_eval does not need backward computation.
I0601 17:38:24.438261  7964 net.cpp:228] detection_out does not need backward computation.
I0601 17:38:24.438266  7964 net.cpp:228] mbox_conf_flatten does not need backward computation.
I0601 17:38:24.438271  7964 net.cpp:228] mbox_conf_softmax does not need backward computation.
…
