…
        min_scale: 0.3
        max_scale: 1
        min_aspect_ratio: 0.5
        max_aspect_ratio: 2
      }
      sample_constraint {
        min_jaccard_overlap: 0.9
      }
      max_sample: 1
      max_trials: 50
    }
    batch_sampler {
      sampler {
        min_scale: 0.3
        max_scale: 1
        min_aspect_ratio: 0.5
        max_aspect_ratio: 2
      }
      sample_constraint {
        max_jaccard_overlap: 1
      }
      max_sample: 1
      max_trials: 50
    }
    label_map_file: "data/sharpen_tbs_v2.0/labelmap_voc.prototxt"
  }
}
layer {
  name: "conv1_1"
  type: "Convolution"
  bottom: "data"
  top: "conv1_1"
  param {
    lr_mult: 1
    decay_mult: 1
  }
  param {
    lr_mult: 2
    decay_mult: 0
  }
  convolution_param {
    num_output: 64
    pad: 1
    kernel_size: 3
    weight_filler {
      type: "xavier"
    }
    bias_filler {
      type: "constant"
      value: 0
    }
  }
}
layer {
  name: "relu1_1"
  type: "ReLU"
  bottom: "conv1_1"
  top: "conv1_1"
}
layer {
  name: "conv1_2"
  type: "Convolution"
  bottom: "conv1_1"
  top: "conv1_2"
  param {
    lr_mult: 1
    decay_mult: 1
  }
  param {
    lr_mult: 2
    decay_mult: 0
  }
  convolution_param {
    num_output: 64
    pad: 1
    kernel_size: 3
    weight_filler {
      type: "xavier"
    }
    bias_filler {
      type: "constant"
      value: 0
    }
  }
}
layer {
  name: "relu1_2"
  type: "ReLU"
  bottom: "conv1_2"
  top: "conv1_2"
}
layer {
  name: "pool1"
  type: "Pooling"
  bottom: "conv1_2"
  top: "pool1"
  pooling_param {
    pool: MAX
    kernel_size: 2
    stride: 2
  }
}
layer {
  name: "conv2_1"
  type: "Convolution"
  bottom: "pool1"
  top: "conv2_1"
  param {
    lr_mult: 1
    decay_mult: 1
  }
  param {
    lr_mult: 2
    decay_mult: 0
  }
  convolution_param {
    num_output: 128
    pad: 1
    kernel_size: 3
    weight_filler {
      type: "xavier"
    }
    bias_filler {
      type: "constant"
      value: 0
    }
  }
}
layer {
  name: "relu2_1"
  type: "ReLU"
  bottom: "conv2_1"
  top: "conv2_1"
}
layer {
  name: "conv2_2"
  type: "Convolution"
  bottom: "conv2_1"
  top: "conv2_2"
  param {
    lr_mult: 1
    decay_mult: 1
  }
  param {
    lr_mult: 2
    decay_mult: 0
  }
  convolution_param {
    num_output: 128
    pad: 1
    kernel_size: 3
    weight_filler {
      type: "xavier"
    }
    bias_filler {
      type: "constant"
      value: 0
    }
  }
}
layer {
  name: "relu2_2"
  type: "ReLU"
  bottom: "conv2_2"
  top: "conv2_2"
}
layer {
  name: "pool2"
  type: "Pooling"
  bottom: "conv2_2"
  top: "pool2"
  pooling_param {
    pool: MAX
    kernel_size: 2
    stride: 2
  }
}
layer {
  name: "conv3_1"
  type: "Convolution"
  bottom: "pool2"
  top: "conv3_1"
  param {
    lr_mult: 1
    decay_mult: 1
  }
  param {
    lr_mult: 2
    decay_mult: 0
  }
  convolution_param {
    num_output: 256
    pad: 1
    kernel_size: 3
    weight_filler {
      type: "xavier"
    }
    bias_filler {
      type: "constant"
      value: 0
    }
  }
}
layer {
  name: "relu3_1"
  type: "ReLU"
  bottom: "conv3_1"
  top: "conv3_1"
}
layer {
  name: "conv3_2"
  type: "Convolution"
  bottom: "conv3_1"
  top: "conv3_2"
  param {
    lr_mult: 1
    decay_mult: 1
  }
  param {
    lr_mult: 2
    decay_mult: 0
  }
  convolution_param {
    num_output: 256
    pad: 1
    kernel_size: 3
    weight_filler {
      type: "xavier"
    }
    bias_filler {
      type: "constant"
      value: 0
    }
  }
}
layer {
  name: "relu3_2"
  type: "ReLU"
  bottom: "conv3_2"
  top: "conv3_2"
}
layer {
  name: "conv3_3"
  type: "Convolution"
  bottom: "conv3_2"
  top: "conv3_3"
  param {
    lr_mult: 1
    decay_mult: 1
  }
  param {
    lr_mult: 2
    decay_mult: 0
  }
  convolution_param {
    num_output: 256
    pad: 1
    kernel_size: 3
    weight_filler {
      type: "xavier"
    }
    bias_filler {
      type: "constant"
      value: 0
    }
  }
}
layer {
  name: "relu3_3"
  type: "ReLU"
  bottom: "conv3_3"
  top: "conv3_3"
}
layer {
  name: "pool3"
  type: "Pooling"
  bottom: "conv3_3"
  top: "pool3"
  pooling_param {
    pool: MAX
    kernel_size: 2
    stride: 2
  }
}
layer {
  name: "conv4_1"
  type: "Convolution"
  bottom: "pool3"
  top: "conv4_1"
  param {
    lr_mult: 1
    decay_mult: 1
  }
  param {
    lr_mult: 2
    decay_mult: 0
  }
  convolution_param {
    num_output: 512
    pad: 1
    kernel_size: 3
    weight_filler {
      type: "xavier"
    }
    bias_filler {
      type: "constant"
      value: 0
    }
  }
}
layer {
  name: "relu4_1"
  type: "ReLU"
  bottom: "conv4_1"
  top: "conv4_1"
}
layer {
  name: "conv4_2"
  type: "Convolution"
  bottom: "conv4_1"
  top: "conv4_2"
  param {
    lr_mult: 1
    decay_mult: 1
  }
  param {
    lr_mult: 2
    decay_mult: 0
  }
  convolution_param {
    num_output: 512
    pad: 1
    kernel_size: 3
    weight_filler {
      type: "xavier"
    }
    bias_filler {
      type: "constant"
      value: 0
    }
  }
}
layer {
  name: "relu4_2"
  type: "ReLU"
  bottom: "conv4_2"
  top: "conv4_2"
}
layer {
  name: "conv4_3"
  type: "Convolution"
  bottom: "conv4_2"
  top: "conv4_3"
  param {
    lr_mult: 1
    decay_mult: 1
  }
  param {
    lr_mult: 2
    decay_mult: 0
  }
  convolution_param {
    num_output: 512
    pad: 1
    kernel_size: 3
    weight_filler {
      type: "xavier"
    }
    bias_filler {
      type: "constant"
      value: 0
    }
  }
}
layer {
  name: "relu4_3"
  type: "ReLU"
  bottom: "conv4_3"
  top: "conv4_3"
}
layer {
  name: "pool4"
  type: "Pooling"
  bottom: "conv4_3"
  top: "pool4"
  pooling_param {
    pool: MAX
    kernel_size: 2
    stride: 2
  }
}
layer {
  name: "conv5_1"
  type: "Convolution"
  bottom: "pool4"
  top: "conv5_1"
  param {
    lr_mult: 1
    decay_mult: 1
  }
  param {
    lr_mult: 2
    decay_mult: 0
  }
  convolution_param {
    num_output: 512
    pad: 1
    kernel_size: 3
    weight_filler {
      type: "xavier"
    }
    bias_filler {
      type: "constant"
      value: 0
    }
    dilation: 1
  }
}
layer {
  name: "relu5_1"
  type: "ReLU"
  bottom: "conv5_1"
  top: "conv5_1"
}
layer {
  name: "conv5_2"
  type: "Convolution"
  bottom: "conv5_1"
  top: "conv5_2"
  param {
    lr_mult: 1
    decay_mult: 1
  }
  param {
    lr_mult: 2
    decay_mult: 0
  }
  convolution_param {
    num_output: 512
    pad: 1
    kernel_size: 3
    weight_filler {
      type: "xavier"
    }
    bias_filler {
      type: "constant"
      value: 0
    }
    dilation: 1
  }
}
layer {
  name: "relu5_2"
  type: "ReLU"
  bottom: "conv5_2"
  top: "conv5_2"
}
layer {
  name: "conv5_3"
  type: "Convolution"
  bottom: "conv5_2"
  top: "conv5_3"
  param {
    lr_mult: 1
    decay_mult: 1
  }
  param {
    lr_mult: 2
    decay_mult: 0
  }
  convolution_param {
    num_output: 512
    pad: 1
    kernel_size: 3
    weight_filler {
      type: "xavier"
    }
    bias_filler {
      type: "constant"
      value: 0
    }
    dilation: 1
  }
}
layer {
  name: "relu5_3"
  type: "ReLU"
  bottom: "conv5_3"
  top: "conv5_3"
}
layer {
  name: "pool5"
  type: "Pooling"
  bottom: "conv5_3"
  top: "pool5"
  pooling_param {
    pool: MAX
    kernel_size: 3
    stride: 1
    pad: 1
  }
}
layer {
  name: "fc6"
  type: "Convolution"
  bottom: "pool5"
  top: "fc6"
  param {
    lr_mult: 1
    decay_mult: 1
  }
  param {
    lr_mult: 2
    decay_mult: 0
  }
  convolution_param {
    num_output: 1024
    pad: 6
    kernel_size: 3
    weight_filler {
      type: "xavier"
    }
    bias_filler {
      type: "constant"
      value: 0
    }
    dilation: 6
  }
}
layer {
  name: "relu6"
  type: "ReLU"
  bottom: "fc6"
  top: "fc6"
}
layer {
  name: "fc7"
  type: "Convolution"
  bottom: "fc6"
  top: "fc7"
  param {
    lr_mult: 1
    decay_mult: 1
  }
  param {
    lr_mult: 2
    decay_mult: 0
  }
  convolution_param {
    num_output: 1024
    kernel_size: 1
    weight_filler {
      type: "xavier"
    }
    bias_filler {
      type: "constant"
      value: 0
    }
  }
}
layer {
  name: "relu7"
  type: "ReLU"
  bottom: "fc7"
  top: "fc7"
}
layer {
  name: "conv6_1"
  type: "Convolution"
  bottom: "fc7"
  top: "conv6_1"
  param {
    lr_mult: 1
    decay_mult: 1
  }
  param {
    lr_mult: 2
    decay_mult: 0
  }
  convolution_param {
    num_output: 256
    pad: 0
    kernel_size: 1
    stride: 1
    weight_filler {
      type: "xavier"
    }
    bias_filler {
      type: "constant"
      value: 0
    }
  }
}
layer {
  name: "conv6_1_relu"
  type: "ReLU"
  bottom: "conv6_1"
  top: "conv6_1"
}
layer {
  name: "conv6_2"
  type: "Convolution"
  bottom: "conv6_1"
  top: "conv6_2"
  param {
    lr_mult: 1
    decay_mult: 1
  }
  param {
    lr_mult: 2
    decay_mult: 0
  }
  convolution_param {
    num_output: 512
    pad: 1
    kernel_size: 3
    stride: 2
    weight_filler {
      type: "xavier"
    }
    bias_filler {
      type: "constant"
      value: 0
    }
  }
}
layer {
  name: "conv6_2_relu"
  type: "ReLU"
  bottom: "conv6_2"
  top: "conv6_2"
}
layer {
  name: "conv7_1"
  type: "Convolution"
  bottom: "conv6_2"
  top: "conv7_1"
  param {
    lr_mult: 1
    decay_mult: 1
  }
  param {
    lr_mult: 2
    decay_mult: 0
  }
  convolution_param {
    num_output: 128
    pad: 0
    kernel_size: 1
    stride: 1
    weight_filler {
      type: "xavier"
    }
    bias_filler {
      type: "constant"
      value: 0
    }
  }
}
layer {
  name: "conv7_1_relu"
  type: "ReLU"
  bottom: "conv7_1"
  top: "conv7_1"
}
layer {
  name: "conv7_2"
  type: "Convolution"
  bottom: "conv7_1"
  top: "conv7_2"
  param {
    lr_mult: 1
    decay_mult: 1
  }
  param {
    lr_mult: 2
    decay_mult: 0
  }
  convolution_param {
    num_output: 256
    pad: 1
    kernel_size: 3
    stride: 2
    weight_filler {
      type: "xavier"
    }
    bias_filler {
      type: "constant"
      value: 0
    }
  }
}
layer {
  name: "conv7_2_relu"
  type: "ReLU"
  bottom: "conv7_2"
  top: "conv7_2"
}
layer {
  name: "conv8_1"
  type: "Convolution"
  bottom: "conv7_2"
  top: "conv8_1"
  param {
    lr_mult: 1
    decay_mult: 1
  }
  param {
    lr_mult: 2
    decay_mult: 0
  }
  convolution_param {
    num_output: 128
    pad: 0
    kernel_size: 1
    stride: 1
    weight_filler {
      type: "xavier"
    }
    bias_filler {
      type: "constant"
      value: 0
    }
  }
}
layer {
  name: "conv8_1_relu"
  type: "ReLU"
  bottom: "conv8_1"
  top: "conv8_1"
}
layer {
  name: "conv8_2"
  type: "Convolution"
  bottom: "conv8_1"
  top: "conv8_2"
  param {
    lr_mult: 1
    decay_mult: 1
  }
  param {
    lr_mult: 2
    decay_mult: 0
  }
  convolution_param {
    num_output: 256
    pad: 0
    kernel_size: 3
    stride: 1
    weight_filler {
      type: "xavier"
    }
    bias_filler {
      type: "constant"
      value: 0
    }
  }
}
layer {
  name: "conv8_2_relu"
  type: "ReLU"
  bottom: "conv8_2"
  top: "conv8_2"
}
layer {
  name: "conv9_1"
  type: "Convolution"
  bottom: "conv8_2"
  top: "conv9_1"
  param {
    lr_mult: 1
    decay_mult: 1
  }
  param {
    lr_mult: 2
    decay_mult: 0
  }
  convolution_param {
    num_output: 128
    pad: 0
    kernel_size: 1
    stride: 1
    weight_filler {
      type: "xavier"
    }
    bias_filler {
      type: "constant"
      value: 0
    }
  }
}
layer {
  name: "conv9_1_relu"
  type: "ReLU"
  bottom: "conv9_1"
  top: "conv9_1"
}
layer {
  name: "conv9_2"
  type: "Convolution"
  bottom: "conv9_1"
  top: "conv9_2"
  param {
    lr_mult: 1
    decay_mult: 1
  }
  param {
    lr_mult: 2
    decay_mult: 0
  }
  convolution_param {
    num_output: 256
    pad: 0
    kernel_size: 3
    stride: 1
    weight_filler {
      type: "xavier"
    }
    bias_filler {
      type: "constant"
      value: 0
    }
  }
}
layer {
  name: "conv9_2_relu"
  type: "ReLU"
  bottom: "conv9_2"
  top: "conv9_2"
}
layer {
  name: "conv4_3_norm"
  type: "Normalize"
  bottom: "conv4_3"
  top: "conv4_3_norm"
  norm_param {
    across_spatial: false
    scale_filler {
      type: "constant"
      value: 20
    }
    channel_shared: false
  }
}
layer {
  name: "conv4_3_norm_mbox_loc"
  type: "Convolution"
  bottom: "conv4_3_norm"
  top: "conv4_3_norm_mbox_loc"
  param {
    lr_mult: 1
    decay_mult: 1
  }
  param {
    lr_mult: 2
    decay_mult: 0
  }
  convolution_param {
    num_output: 16
    pad: 1
    kernel_size: 3
    stride: 1
    weight_filler {
      type: "xavier"
    }
    bias_filler {
      type: "constant"
      value: 0
    }
  }
}
layer {
  name: "conv4_3_norm_mbox_loc_perm"
  type: "Permute"
  bottom: "conv4_3_norm_mbox_loc"
  top: "conv4_3_norm_mbox_loc_perm"
  permute_param {
    order: 0
    order: 2
    order: 3
    order: 1
  }
}
layer {
  name: "conv4_3_norm_mbox_loc_flat"
  type: "Flatten"
  bottom: "conv4_3_norm_mbox_loc_perm"
  top: "conv4_3_norm_mbox_loc_flat"
  flatten_param {
    axis: 1
  }
}
layer {
  name: "conv4_3_norm_mbox_conf"
  type: "Convolution"
  bottom: "conv4_3_norm"
  top: "conv4_3_norm_mbox_conf"
  param {
    lr_mult: 1
    decay_mult: 1
  }
  param {
    lr_mult: 2
    decay_mult: 0
  }
  convolution_param {
    num_output: 8
    pad: 1
    kernel_size: 3
    stride: 1
    weight_filler {
      type: "xavier"
    }
    bias_filler {
      type: "constant"
      value: 0
    }
  }
}
layer {
  name: "conv4_3_norm_mbox_conf_perm"
  type: "Permute"
  bottom: "conv4_3_norm_mbox_conf"
  top: "conv4_3_norm_mbox_conf_perm"
  permute_param {
    order: 0
    order: 2
    order: 3
    order: 1
  }
}
layer {
  name: "conv4_3_norm_mbox_conf_flat"
  type: "Flatten"
  bottom: "conv4_3_norm_mbox_conf_perm"
  top: "conv4_3_norm_mbox_conf_flat"
  flatten_param {
    axis: 1
  }
}
layer {
  name: "conv4_3_norm_mbox_priorbox"
  type: "PriorBox"
  bottom: "conv4_3_norm"
  bottom: "data"
  top: "conv4_3_norm_mbox_priorbox"
  prior_box_param {
    min_size: 30
    max_size: 60
    aspect_ratio: 2
    flip: true
    clip: false
    variance: 0.1
    variance: 0.1
    variance: 0.2
    variance: 0.2
    step: 8
    offset: 0.5
  }
}
layer {
  name: "fc7_mbox_loc"
  type: "Convolution"
  bottom: "fc7"
  top: "fc7_mbox_loc"
  param {
    lr_mult: 1
    decay_mult: 1
  }
  param {
    lr_mult: 2
    decay_mult: 0
  }
  convolution_param {
    num_output: 24
    pad: 1
    kernel_size: 3
    stride: 1
    weight_filler {
      type: "xavier"
    }
    bias_filler {
      type: "constant"
      value: 0
    }
  }
}
layer {
  name: "fc7_mbox_loc_perm"
  type: "Permute"
  bottom: "fc7_mbox_loc"
  top: "fc7_mbox_loc_perm"
  permute_param {
    order: 0
    order: 2
    order: 3
    order: 1
  }
}
layer {
  name: "fc7_mbox_loc_flat"
  type: "Flatten"
  bottom: "fc7_mbox_loc_perm"
  top: "fc7_mbox_loc_flat"
  flatten_param {
    axis: 1
  }
}
layer {
  name: "fc7_mbox_conf"
  type: "Convolution"
  bottom: "fc7"
  top: "fc7_mbox_conf"
  param {
    lr_mult: 1
    decay_mult: 1
  }
  param {
    lr_mult: 2
    decay_mult: 0
  }
  convolution_param {
    num_output: 12
    pad: 1
    kernel_size: 3
    stride: 1
    weight_filler {
      type: "xavier"
    }
    bias_filler {
      type: "constant"
      value: 0
    }
  }
}
layer {
  name: "fc7_mbox_conf_perm"
  type: "Permute"
  bottom: "fc7_mbox_conf"
  top: "fc7_mbox_conf_perm"
  permute_param {
    order: 0
    order: 2
    order: 3
    order: 1
  }
}
layer {
  name: "fc7_mbox_conf_flat"
  type: "Flatten"
  bottom: "fc7_mbox_conf_perm"
  top: "fc7_mbox_conf_flat"
  flatten_param {
    axis: 1
  }
}
layer {
  name: "fc7_mbox_priorbox"
  type: "PriorBox"
  bottom: "fc7"
  bottom: "data"
  top: "fc7_mbox_priorbox"
  prior_box_param {
    min_size: 60
    max_size: 111
    aspect_ratio: 2
    aspect_ratio: 3
    flip: true
    clip: false
    variance: 0.1
    variance: 0.1
    variance: 0.2
    variance: 0.2
    step: 16
    offset: 0.5
  }
}
layer {
  name: "conv6_2_mbox_loc"
  type: "Convolution"
  bottom: "conv6_2"
  top: "conv6_2_mbox_loc"
  param {
    lr_mult: 1
    decay_mult: 1
  }
  param {
    lr_mult: 2
    decay_mult: 0
  }
  convolution_param {
    num_output: 24
    pad: 1
    kernel_size: 3
    stride: 1
    weight_filler {
      type: "xavier"
    }
    bias_filler {
      type: "constant"
      value: 0
    }
  }
}
layer {
  name: "conv6_2_mbox_loc_perm"
  type: "Permute"
  bottom: "conv6_2_mbox_loc"
  top: "conv6_2_mbox_loc_perm"
  permute_param {
    order: 0
    order: 2
    order: 3
    order: 1
  }
}
layer {
  name: "conv6_2_mbox_loc_flat"
  type: "Flatten"
  bottom: "conv6_2_mbox_loc_perm"
  top: "conv6_2_mbox_loc_flat"
  flatten_param {
    axis: 1
  }
}
layer {
  name: "conv6_2_mbox_conf"
  type: "Convolution"
  bottom: "conv6_2"
  top: "conv6_2_mbox_conf"
  param {
    lr_mult: 1
    decay_mult: 1
  }
  param {
    lr_mult: 2
    decay_mult: 0
  }
  convolution_param {
    num_output: 12
    pad: 1
    kernel_size: 3
    stride: 1
    weight_filler {
      type: "xavier"
    }
    bias_filler {
      type: "constant"
      value: 0
    }
  }
}
layer {
  name: "conv6_2_mbox_conf_perm"
  type: "Permute"
  bottom: "conv6_2_mbox_conf"
  top: "conv6_2_mbox_conf_perm"
  permute_param {
    order: 0
    order: 2
    order: 3
    order: 1
  }
}
layer {
  name: "conv6_2_mbox_conf_flat"
  type: "Flatten"
  bottom: "conv6_2_mbox_conf_perm"
  top: "conv6_2_mbox_conf_flat"
  flatten_param {
    axis: 1
  }
}
layer {
  name: "conv6_2_mbox_priorbox"
  type: "PriorBox"
  bottom: "conv6_2"
  bottom: "data"
  top: "conv6_2_mbox_priorbox"
  prior_box_param {
    min_size: 111
    max_size: 162
    aspect_ratio: 2
    aspect_ratio: 3
    flip: true
    clip: false
    variance: 0.1
    variance: 0.1
    variance: 0.2
    variance: 0.2
    step: 32
    offset: 0.5
  }
}
layer {
  name: "conv7_2_mbox_loc"
  type: "Convolution"
  bottom: "conv7_2"
  top: "conv7_2_mbox_loc"
  param {
    lr_mult: 1
    decay_mult: 1
  }
  param {
    lr_mult: 2
    decay_mult: 0
  }
  convolution_param {
    num_output: 24
    pad: 1
    kernel_size: 3
    stride: 1
    weight_filler {
      type: "xavier"
    }
    bias_filler {
      type: "constant"
      value: 0
    }
  }
}
layer {
  name: "conv7_2_mbox_loc_perm"
  type: "Permute"
  bottom: "conv7_2_mbox_loc"
  top: "conv7_2_mbox_loc_perm"
  permute_param {
    order: 0
    order: 2
    order: 3
    order: 1
  }
}
layer {
  name: "conv7_2_mbox_loc_flat"
  type: "Flatten"
  bottom: "conv7_2_mbox_loc_perm"
  top: "conv7_2_mbox_loc_flat"
  flatten_param {
    axis: 1
  }
}
layer {
  name: "conv7_2_mbox_conf"
  type: "Convolution"
  bottom: "conv7_2"
  top: "conv7_2_mbox_conf"
  param {
    lr_mult: 1
    decay_mult: 1
  }
  param {
    lr_mult: 2
    decay_mult: 0
  }
  convolution_param {
    num_output: 12
    pad: 1
    kernel_size: 3
    stride: 1
    weight_filler {
      type: "xavier"
    }
    bias_filler {
      type: "constant"
      value: 0
    }
  }
}
layer {
  name: "conv7_2_mbox_conf_perm"
  type: "Permute"
  bottom: "conv7_2_mbox_conf"
  top: "conv7_2_mbox_conf_perm"
  permute_param {
    order: 0
    order: 2
    order: 3
    order: 1
  }
}
layer {
  name: "conv7_2_mbox_conf_flat"
  type: "Flatten"
  bottom: "conv7_2_mbox_conf_perm"
  top: "conv7_2_mbox_conf_flat"
  flatten_param {
    axis: 1
  }
}
layer {
  name: "conv7_2_mbox_priorbox"
  type: "PriorBox"
  bottom: "conv7_2"
  bottom: "data"
  top: "conv7_2_mbox_priorbox"
  prior_box_param {
    min_size: 162
    max_size: 213
    aspect_ratio: 2
    aspect_ratio: 3
    flip: true
    clip: false
    variance: 0.1
    variance: 0.1
    variance: 0.2
    variance: 0.2
    step: 64
    offset: 0.5
  }
}
layer {
  name: "conv8_2_mbox_loc"
  type: "Convolution"
  bottom: "conv8_2"
  top: "conv8_2_mbox_loc"
  param {
    lr_mult: 1
    decay_mult: 1
  }
  param {
    lr_mult: 2
    decay_mult: 0
  }
  convolution_param {
    num_output: 16
    pad: 1
    kernel_size: 3
    stride: 1
    weight_filler {
      type: "xavier"
    }
    bias_filler {
      type: "constant"
      value: 0
    }
  }
}
layer {
  name: "conv8_2_mbox_loc_perm"
  type: "Permute"
  bottom: "conv8_2_mbox_loc"
  top: "conv8_2_mbox_loc_perm"
  permute_param {
    order: 0
    order: 2
    order: 3
    order: 1
  }
}
layer {
  name: "conv8_2_mbox_loc_flat"
  type: "Flatten"
  bottom: "conv8_2_mbox_loc_perm"
  top: "conv8_2_mbox_loc_flat"
  flatten_param {
    axis: 1
  }
}
layer {
  name: "conv8_2_mbox_conf"
  type: "Convolution"
  bottom: "conv8_2"
  top: "conv8_2_mbox_conf"
  param {
    lr_mult: 1
    decay_mult: 1
  }
  param {
    lr_mult: 2
    decay_mult: 0
  }
  convolution_param {
    num_output: 8
    pad: 1
    kernel_size: 3
    stride: 1
    weight_filler {
      type: "xavier"
    }
    bias_filler {
      type: "constant"
      value: 0
    }
  }
}
layer {
  name: "conv8_2_mbox_conf_perm"
  type: "Permute"
  bottom: "conv8_2_mbox_conf"
  top: "conv8_2_mbox_conf_perm"
  permute_param {
    order: 0
    order: 2
    order: 3
    order: 1
  }
}
layer {
  name: "conv8_2_mbox_conf_flat"
  type: "Flatten"
  bottom: "conv8_2_mbox_conf_perm"
  top: "conv8_2_mbox_conf_flat"
  flatten_param {
    axis: 1
  }
}
layer {
  name: "conv8_2_mbox_priorbox"
  type: "PriorBox"
  bottom: "conv8_2"
  bottom: "data"
  top: "conv8_2_mbox_priorbox"
  prior_box_param {
    min_size: 213
    max_size: 264
    aspect_ratio: 2
    flip: true
    clip: false
    variance: 0.1
    variance: 0.1
    variance: 0.2
    variance: 0.2
    step: 100
    offset: 0.5
  }
}
layer {
  name: "conv9_2_mbox_loc"
  type: "Convolution"
  bottom: "conv9_2"
  top: "conv9_2_mbox_loc"
  param {
    lr_mult: 1
    decay_mult: 1
  }
  param {
    lr_mult: 2
    decay_mult: 0
  }
  convolution_param {
    num_output: 16
    pad: 1
    kernel_size: 3
    stride: 1
    weight_filler {
      type: "xavier"
    }
    bias_filler {
      type: "constant"
      value: 0
    }
  }
}
layer {
  name: "conv9_2_mbox_loc_perm"
  type: "Permute"
  bottom: "conv9_2_mbox_loc"
  top: "conv9_2_mbox_loc_perm"
  permute_param {
    order: 0
    order: 2
    order: 3
    order: 1
  }
}
layer {
  name: "conv9_2_mbox_loc_flat"
  type: "Flatten"
  bottom: "conv9_2_mbox_loc_perm"
  top: "conv9_2_mbox_loc_flat"
  flatten_param {
    axis: 1
  }
}
layer {
  name: "conv9_2_mbox_conf"
  type: "Convolution"
  bottom: "conv9_2"
  top: "conv9_2_mbox_conf"
  param {
    lr_mult: 1
    decay_mult: 1
  }
  param {
    lr_mult: 2
    decay_mult: 0
  }
  convolution_param {
    num_output: 8
    pad: 1
    kernel_size: 3
    stride: 1
    weight_filler {
      type: "xavier"
    }
    bias_filler {
      type: "constant"
      value: 0
    }
  }
}
layer {
  name: "conv9_2_mbox_conf_perm"
  type: "Permute"
  bottom: "conv9_2_mbox_conf"
  top: "conv9_2_mbox_conf_perm"
  permute_param {
    order: 0
    order: 2
    order: 3
    order: 1
  }
}
layer {
  name: "conv9_2_mbox_conf_flat"
  type: "Flatten"
  bottom: "conv9_2_mbox_conf_perm"
  top: "conv9_2_mbox_conf_flat"
  flatten_param {
    axis: 1
  }
}
layer {
  name: "conv9_2_mbox_priorbox"
  type: "PriorBox"
  bottom: "conv9_2"
  bottom: "data"
  top: "conv9_2_mbox_priorbox"
  prior_box_param {
    min_size: 264
    max_size: 315
    aspect_ratio: 2
    flip: true
    clip: false
    variance: 0.1
    variance: 0.1
    variance: 0.2
    variance: 0.2
    step: 300
    offset: 0.5
  }
}
layer {
  name: "mbox_loc"
  type: "Concat"
  bottom: "conv4_3_norm_mbox_loc_flat"
  bottom: "fc7_mbox_loc_flat"
  bottom: "conv6_2_mbox_loc_flat"
  bottom: "conv7_2_mbox_loc_flat"
  bottom: "conv8_2_mbox_loc_flat"
  bottom: "conv9_2_mbox_loc_flat"
  top: "mbox_loc"
  concat_param {
    axis: 1
  }
}
layer {
  name: "mbox_conf"
  type: "Concat"
  bottom: "conv4_3_norm_mbox_conf_flat"
  bottom: "fc7_mbox_conf_flat"
  bottom: "conv6_2_mbox_conf_flat"
  bottom: "conv7_2_mbox_conf_flat"
  bottom: "conv8_2_mbox_conf_flat"
  bottom: "conv9_2_mbox_conf_flat"
  top: "mbox_conf"
  concat_param {
    axis: 1
  }
}
layer {
  name: "mbox_priorbox"
  type: "Concat"
  bottom: "conv4_3_norm_mbox_priorbox"
  bottom: "fc7_mbox_priorbox"
  bottom: "conv6_2_mbox_priorbox"
  bottom: "conv7_2_mbox_priorbox"
  bottom: "conv8_2_mbox_priorbox"
  bottom: "conv9_2_mbox_priorbox"
  top: "mbox_priorbox"
  concat_param {
    axis: 2
  }
}
layer {
  name: "mbox_loss"
  type: "MultiBoxLoss"
  bottom: "mbox_loc"
  bottom: "mbox_conf"
  bottom: "mbox_priorbox"
  bottom: "label"
  top: "mbox_loss"
  include {
    phase: TRAIN
  }
  propagate_down: true
  propagate_down: true
  propagate_down: false
  propagate_down: false
  loss_param {
    normalization: VALID
  }
  multibox_loss_param {
    loc_loss_type: SMOOTH_L1
    conf_loss_type: SOFTMAX
    loc_weight: 1
    num_classes: 2
    share_location: true
    match_type: PER_PREDICTION
    overlap_threshold: 0.5
    use_prior_for_matching: true
    background_label_id: 0
    use_difficult_gt: true
    neg_pos_ratio: 3
    neg_overlap: 0.5
    code_type: CENTER_SIZE
    ignore_cross_boundary_bbox: false
    mining_type: MAX_NEGATIVE
  }
}
I0608 17:25:21.145715 10448 layer_factory.hpp:77] Creating layer data
I0608 17:25:21.145833 10448 net.cpp:100] Creating Layer data
I0608 17:25:21.145843 10448 net.cpp:408] data -> data
I0608 17:25:21.145871 10448 net.cpp:408] data -> label
I0608 17:25:21.146271 10465 db_lmdb.cpp:35] Opened lmdb examples/sharpen_tbs_v2.0/sharpen_tbs_v2.0_trainval_lmdb
I0608 17:25:21.155643 10448 annotated_data_layer.cpp:62] output data size: 32,3,300,300
I0608 17:25:21.213958 10448 net.cpp:150] Setting up data
I0608 17:25:21.213976 10448 net.cpp:157] Top shape: 32 3 300 300 (8640000)
I0608 17:25:21.213980 10448 net.cpp:157] Top shape: 1 1 1 8 (8)
I0608 17:25:21.213995 10448 net.cpp:165] Memory required for data: 34560032
I0608 17:25:21.214020 10448 layer_factory.hpp:77] Creating layer data_data_0_split
I0608 17:25:21.214043 10448 net.cpp:100] Creating Layer data_data_0_split
I0608 17:25:21.214049 10448 net.cpp:434] data_data_0_split <- data
I0608 17:25:21.214061 10448 net.cpp:408] data_data_0_split -> data_data_0_split_0
I0608 17:25:21.214074 10448 net.cpp:408] data_data_0_split -> data_data_0_split_1
I0608 17:25:21.214081 10448 net.cpp:408] data_data_0_split -> data_data_0_split_2
I0608 17:25:21.214085 10448 net.cpp:408] data_data_0_split -> data_data_0_split_3
I0608 17:25:21.214090 10448 net.cpp:408] data_data_0_split -> data_data_0_split_4
I0608 17:25:21.214097 10448 net.cpp:408] data_data_0_split -> data_data_0_split_5
I0608 17:25:21.214099 10448 net.cpp:408] data_data_0_split -> data_data_0_split_6
I0608 17:25:21.214170 10448 net.cpp:150] Setting up data_data_0_split
I0608 17:25:21.214175 10448 net.cpp:157] Top shape: 32 3 300 300 (8640000)
I0608 17:25:21.214179 10448 net.cpp:157] Top shape: 32 3 300 300 (8640000)
I0608 17:25:21.214181 10448 net.cpp:157] Top shape: 32 3 300 300 (8640000)
I0608 17:25:21.214184 10448 net.cpp:157] Top shape: 32 3 300 300 (8640000)
I0608 17:25:21.214186 10448 net.cpp:157] Top shape: 32 3 300 300 (8640000)
I0608 17:25:21.214190 10448 net.cpp:157] Top shape: 32 3 300 300 (8640000)
I0608 17:25:21.214191 10448 net.cpp:157] Top shape: 32 3 300 300 (8640000)
I0608 17:25:21.214195 10448 net.cpp:165] Memory required for data: 276480032
I0608 17:25:21.214196 10448 layer_factory.hpp:77] Creating layer conv1_1
I0608 17:25:21.214208 10448 net.cpp:100] Creating Layer conv1_1
I0608 17:25:21.214212 10448 net.cpp:434] conv1_1 <- data_data_0_split_0
I0608 17:25:21.214217 10448 net.cpp:408] conv1_1 -> conv1_1
I0608 17:25:21.387094 10448 net.cpp:150] Setting up conv1_1
I0608 17:25:21.387115 10448 net.cpp:157] Top shape: 32 64 300 300 (184320000)
I0608 17:25:21.387116 10448 net.cpp:165] Memory required for data: 1013760032
I0608 17:25:21.387133 10448 layer_factory.hpp:77] Creating layer relu1_1
I0608 17:25:21.387143 10448 net.cpp:100] Creating Layer relu1_1
I0608 17:25:21.387163 10448 net.cpp:434] relu1_1 <- conv1_1
I0608 17:25:21.387187 10448 net.cpp:395] relu1_1 -> conv1_1 (in-place)
I0608 17:25:21.387342 10448 net.cpp:150] Setting up relu1_1
I0608 17:25:21.387349 10448 net.cpp:157] Top shape: 32 64 300 300 (184320000)
I0608 17:25:21.387351 10448 net.cpp:165] Memory required for data: 1751040032
I0608 17:25:21.387356 10448 layer_factory.hpp:77] Creating layer conv1_2
I0608 17:25:21.387367 10448 net.cpp:100] Creating Layer conv1_2
I0608 17:25:21.387385 10448 net.cpp:434] conv1_2 <- conv1_1
I0608 17:25:21.387392 10448 net.cpp:408] conv1_2 -> conv1_2
I0608 17:25:21.389468 10448 net.cpp:150] Setting up conv1_2
I0608 17:25:21.389480 10448 net.cpp:157] Top shape: 32 64 300 300 (184320000)
I0608 17:25:21.389483 10448 net.cpp:165] Memory required for data: 2488320032
I0608 17:25:21.389492 10448 layer_factory.hpp:77] Creating layer relu1_2
I0608 17:25:21.389498 10448 net.cpp:100] Creating Layer relu1_2
I0608 17:25:21.389503 10448 net.cpp:434] relu1_2 <- conv1_2
I0608 17:25:21.389508 10448 net.cpp:395] relu1_2 -> conv1_2 (in-place)
I0608 17:25:21.390019 10448 net.cpp:150] Setting up relu1_2
I0608 17:25:21.390028 10448 net.cpp:157] Top shape: 32 64 300 300 (184320000)
I0608 17:25:21.390031 10448 net.cpp:165] Memory required for data: 3225600032
I0608 17:25:21.390035 10448 layer_factory.hpp:77] Creating layer pool1
I0608 17:25:21.390043 10448 net.cpp:100] Creating Layer pool1
I0608 17:25:21.390048 10448 net.cpp:434] pool1 <- conv1_2
I0608 17:25:21.390053 10448 net.cpp:408] pool1 -> pool1
I0608 17:25:21.390094 10448 net.cpp:150] Setting up pool1
I0608 17:25:21.390100 10448 net.cpp:157] Top shape: 32 64 150 150 (46080000)
I0608 17:25:21.390102 10448 net.cpp:165] Memory required for data: 3409920032
I0608 17:25:21.390107 10448 layer_factory.hpp:77] Creating layer conv2_1
I0608 17:25:21.390115 10448 net.cpp:100] Creating Layer conv2_1
I0608 17:25:21.390130 10448 net.cpp:434] conv2_1 <- pool1
I0608 17:25:21.390136 10448 net.cpp:408] conv2_1 -> conv2_1
I0608 17:25:21.391326 10448 net.cpp:150] Setting up conv2_1
I0608 17:25:21.391335 10448 net.cpp:157] Top shape: 32 128 150 150 (92160000)
I0608 17:25:21.391338 10448 net.cpp:165] Memory required for data: 3778560032
I0608 17:25:21.391348 10448 layer_factory.hpp:77] Creating layer relu2_1
I0608 17:25:21.391357 10448 net.cpp:100] Creating Layer relu2_1
I0608 17:25:21.391361 10448 net.cpp:434] relu2_1 <- conv2_1
I0608 17:25:21.391366 10448 net.cpp:395] relu2_1 -> conv2_1 (in-place)
I0608 17:25:21.391880 10448 net.cpp:150] Setting up relu2_1
I0608 17:25:21.391888 10448 net.cpp:157] Top shape: 32 128 150 150 (92160000)
I0608 17:25:21.391891 10448 net.cpp:165] Memory required for data: 4147200032
I0608 17:25:21.391896 10448 layer_factory.hpp:77] Creating layer conv2_2
I0608 17:25:21.391904 10448 net.cpp:100] Creating Layer conv2_2
I0608 17:25:21.391908 10448 net.cpp:434] conv2_2 <- conv2_1
I0608 17:25:21.391914 10448 net.cpp:408] conv2_2 -> conv2_2
I0608 17:25:21.393848 10448 net.cpp:150] Setting up conv2_2
I0608 17:25:21.393858 10448 net.cpp:157] Top shape: 32 128 150 150 (92160000)
I0608 17:25:21.393862 10448 net.cpp:165] Memory required for data: 4515840032
I0608 17:25:21.393870 10448 layer_factory.hpp:77] Creating layer relu2_2
I0608 17:25:21.393877 10448 net.cpp:100] Creating Layer relu2_2
I0608 17:25:21.393882 10448 net.cpp:434] relu2_2 <- conv2_2
I0608 17:25:21.393887 10448 net.cpp:395] relu2_2 -> conv2_2 (in-place)
I0608 17:25:21.394007 10448 net.cpp:150] Setting up relu2_2
I0608 17:25:21.394014 10448 net.cpp:157] Top shape: 32 128 150 150 (92160000)
I0608 17:25:21.394017 10448 net.cpp:165] Memory required for data: 4884480032
I0608 17:25:21.394022 10448 layer_factory.hpp:77] Creating layer pool2
I0608 17:25:21.394028 10448 net.cpp:100] Creating Layer pool2
I0608 17:25:21.394032 10448 net.cpp:434] pool2 <- conv2_2
I0608 17:25:21.394037 10448 net.cpp:408] pool2 -> pool2
I0608 17:25:21.394069 10448 net.cpp:150] Setting up pool2
I0608 17:25:21.394078 10448 net.cpp:157] Top shape: 32 128 75 75 (23040000)
I0608 17:25:21.394081 10448 net.cpp:165] Memory required for data: 4976640032
I0608 17:25:21.394084 10448 layer_factory.hpp:77] Creating layer conv3_1
I0608 17:25:21.394093 10448 net.cpp:100] Creating Layer conv3_1
I0608 17:25:21.394098 10448 net.cpp:434] conv3_1 <- pool2
I0608 17:25:21.394103 10448 net.cpp:408] conv3_1 -> conv3_1
I0608 17:25:21.397845 10448 net.cpp:150] Setting up conv3_1
I0608 17:25:21.397861 10448 net.cpp:157] Top shape: 32 256 75 75 (46080000)
I0608 17:25:21.397863 10448 net.cpp:165] Memory required for data: 5160960032
I0608 17:25:21.397876 10448 layer_factory.hpp:77] Creating layer relu3_1
I0608 17:25:21.397884 10448 net.cpp:100] Creating Layer relu3_1
I0608 17:25:21.397888 10448 net.cpp:434] relu3_1 <- conv3_1
I0608 17:25:21.397909 10448 net.cpp:395] relu3_1 -> conv3_1 (in-place)
I0608 17:25:21.398063 10448 net.cpp:150] Setting up relu3_1
I0608 17:25:21.398071 10448 net.cpp:157] Top shape: 32 256 75 75 (46080000)
I0608 17:25:21.398073 10448 net.cpp:165] Memory required for data: 5345280032
I0608 17:25:21.398077 10448 layer_factory.hpp:77] Creating layer conv3_2
I0608 17:25:21.398087 10448 net.cpp:100] Creating Layer conv3_2
I0608 17:25:21.398090 10448 net.cpp:434] conv3_2 <- conv3_1
I0608 17:25:21.398097 10448 net.cpp:408] conv3_2 -> conv3_2
I0608 17:25:21.402789 10448 net.cpp:150] Setting up conv3_2
I0608 17:25:21.402806 10448 net.cpp:157] Top shape: 32 256 75 75 (46080000)
I0608 17:25:21.402807 10448 net.cpp:165] Memory required for data: 5529600032
I0608 17:25:21.402815 10448 layer_factory.hpp:77] Creating layer relu3_2
I0608 17:25:21.402823 10448 net.cpp:100] Creating Layer relu3_2
I0608 17:25:21.402842 10448 net.cpp:434] relu3_2 <- conv3_2
I0608 17:25:21.402851 10448 net.cpp:395] relu3_2 -> conv3_2 (in-place)
I0608 17:25:21.403012 10448 net.cpp:150] Setting up relu3_2
I0608 17:25:21.403018 10448 net.cpp:157] Top shape: 32 256 75 75 (46080000)
I0608 17:25:21.403022 10448 net.cpp:165] Memory required for data: 5713920032
I0608 17:25:21.403048 10448 layer_factory.hpp:77] Creating layer conv3_3
I0608 17:25:21.403077 10448 net.cpp:100] Creating Layer conv3_3
I0608 17:25:21.403081 10448 net.cpp:434] conv3_3 <- conv3_2
I0608 17:25:21.403087 10448 net.cpp:408] conv3_3 -> conv3_3
I0608 17:25:21.407797 10448 net.cpp:150] Setting up conv3_3
I0608 17:25:21.407811 10448 net.cpp:157] Top shape: 32 256 75 75 (46080000)
I0608 17:25:21.407814 10448 net.cpp:165] Memory required for data: 5898240032
I0608 17:25:21.407820 10448 layer_factory.hpp:77] Creating layer relu3_3
I0608 17:25:21.407827 10448 net.cpp:100] Creating Layer relu3_3
I0608 17:25:21.407832 10448 net.cpp:434] relu3_3 <- conv3_3
I0608 17:25:21.407853 10448 net.cpp:395] relu3_3 -> conv3_3 (in-place)
I0608 17:25:21.408013 10448 net.cpp:150] Setting up relu3_3
I0608 17:25:21.408033 10448 net.cpp:157] Top shape: 32 256 75 75 (46080000)
I0608 17:25:21.408037 10448 net.cpp:165] Memory required for data: 6082560032
I0608 17:25:21.408041 10448 layer_factory.hpp:77] Creating layer pool3
I0608 17:25:21.408062 10448 net.cpp:100] Creating Layer pool3
I0608 17:25:21.408066 10448 net.cpp:434] pool3 <- conv3_3
I0608 17:25:21.408071 10448 net.cpp:408] pool3 -> pool3
I0608 17:25:21.408148 10448 net.cpp:150] Setting up pool3
I0608 17:25:21.408152 10448 net.cpp:157] Top shape: 32 256 38 38 (11829248)
I0608 17:25:21.408154 10448 net.cpp:165] Memory required for data: 6129877024
I0608 17:25:21.408157 10448 layer_factory.hpp:77] Creating layer conv4_1
I0608 17:25:21.408164 10448 net.cpp:100] Creating Layer conv4_1
I0608 17:25:21.408166 10448 net.cpp:434] conv4_1 <- pool3
I0608 17:25:21.408171 10448 net.cpp:408] conv4_1 -> conv4_1
I0608 17:25:21.416637 10448 net.cpp:150] Setting up conv4_1
I0608 17:25:21.416654 10448 net.cpp:157] Top shape: 32 512 38 38 (23658496)
I0608 17:25:21.416657 10448 net.cpp:165] Memory required for data: 6224511008
I0608 17:25:21.416663 10448 layer_factory.hpp:77] Creating layer relu4_1
I0608 17:25:21.416671 10448 net.cpp:100] Creating Layer relu4_1
I0608 17:25:21.416690 10448 net.cpp:434] relu4_1 <- conv4_1
I0608 17:25:21.416695 10448 net.cpp:395] relu4_1 -> conv4_1 (in-place)
I0608 17:25:21.417356 10448 net.cpp:150] Setting up relu4_1
I0608 17:25:21.417366 10448 net.cpp:157] Top shape: 32 512 38 38 (23658496)
I0608 17:25:21.417369 10448 net.cpp:165] Memory required for data: 6319144992
I0608 17:25:21.417372 10448 layer_factory.hpp:77] Creating layer conv4_2
I0608 17:25:21.417385 10448 net.cpp:100] Creating Layer conv4_2
I0608 17:25:21.417390 10448 net.cpp:434] conv4_2 <- conv4_1
I0608 17:25:21.417397 10448 net.cpp:408] conv4_2 -> conv4_2
I0608 17:25:21.429460 10448 net.cpp:150] Setting up conv4_2
I0608 17:25:21.429479 10448 net.cpp:157] Top shape: 32 512 38 38 (23658496)
I0608 17:25:21.429482 10448 net.cpp:165] Memory required for data: 6413778976
I0608 17:25:21.429494 10448 layer_factory.hpp:77] Creating layer relu4_2
I0608 17:25:21.429502 10448 net.cpp:100] Creating Layer relu4_2
I0608 17:25:21.429522 10448 net.cpp:434] relu4_2 <- conv4_2
I0608 17:25:21.429529 10448 net.cpp:395] relu4_2 -> conv4_2 (in-place)
I0608 17:25:21.430158 10448 net.cpp:150] Setting up relu4_2
I0608 17:25:21.430166 10448 net.cpp:157] Top shape: 32 512 38 38 (23658496)
I0608 17:25:21.430169 10448 net.cpp:165] Memory required for data: 6508412960
I0608 17:25:21.430173 10448 layer_factory.hpp:77] Creating layer conv4_3
I0608 17:25:21.430186 10448 net.cpp:100] Creating Layer conv4_3
I0608 17:25:21.430188 10448 net.cpp:434] conv4_3 <- conv4_2
I0608 17:25:21.430194 10448 net.cpp:408] conv4_3 -> conv4_3
I0608 17:25:21.442680 10448 net.cpp:150] Setting up conv4_3
I0608 17:25:21.442698 10448 net.cpp:157] Top shape: 32 512 38 38 (23658496)
I0608 17:25:21.442700 10448 net.cpp:165] Memory required for data: 6603046944
I0608 17:25:21.442708 10448 layer_factory.hpp:77] Creating layer relu4_3
I0608 17:25:21.442715 10448 net.cpp:100] Creating Layer relu4_3
I0608 17:25:21.442719 10448 net.cpp:434] relu4_3 <- conv4_3
I0608 17:25:21.442739 10448 net.cpp:395] relu4_3 -> conv4_3 (in-place)
I0608 17:25:21.442895 10448 net.cpp:150] Setting up relu4_3
I0608 17:25:21.442903 10448 net.cpp:157] Top shape: 32 512 38 38 (23658496)
I0608 17:25:21.442904 10448 net.cpp:165] Memory required for data: 6697680928
I0608 17:25:21.442909 10448 layer_factory.hpp:77] Creating layer conv4_3_relu4_3_0_split
I0608 17:25:21.442914 10448 net.cpp:100] Creating Layer conv4_3_relu4_3_0_split
I0608 17:25:21.442932 10448 net.cpp:434] conv4_3_relu4_3_0_split <- conv4_3
I0608 17:25:21.442940 10448 net.cpp:408] conv4_3_relu4_3_0_split -> conv4_3_relu4_3_0_split_0
I0608 17:25:21.442960 10448 net.cpp:408] conv4_3_relu4_3_0_split -> conv4_3_relu4_3_0_split_1
I0608 17:25:21.442993 10448 net.cpp:150] Setting up conv4_3_relu4_3_0_split
I0608 17:25:21.442999 10448 net.cpp:157] Top shape: 32 512 38 38 (23658496)
I0608 17:25:21.443002 10448 net.cpp:157] Top shape: 32 512 38 38 (23658496)
I0608 17:25:21.443006 10448 net.cpp:165] Memory required for data: 6886948896
I0608 17:25:21.443008 10448 layer_factory.hpp:77] Creating layer pool4
I0608 17:25:21.443015 10448 net.cpp:100] Creating Layer pool4
I0608 17:25:21.443019 10448 net.cpp:434] pool4 <- conv4_3_relu4_3_0_split_0
I0608 17:25:21.443025 10448 net.cpp:408] pool4 -> pool4
I0608 17:25:21.443053 10448 net.cpp:150] Setting up pool4
I0608 17:25:21.443060 10448 net.cpp:157] Top shape: 32 512 19 19 (5914624)
I0608 17:25:21.443064 10448 net.cpp:165] Memory required for data: 6910607392
I0608 17:25:21.443068 10448 layer_factory.hpp:77] Creating layer conv5_1
I0608 17:25:21.443078 10448 net.cpp:100] Creating Layer conv5_1
I0608 17:25:21.443081 10448 net.cpp:434] conv5_1 <- pool4
I0608 17:25:21.443087 10448 net.cpp:408] conv5_1 -> conv5_1
I0608 17:25:21.457587 10448 net.cpp:150] Setting up conv5_1
I0608 17:25:21.457604 10448 net.cpp:157] Top shape: 32 512 19 19 (5914624)
I0608 17:25:21.457607 10448 net.cpp:165] Memory required for data: 6934265888
I0608 17:25:21.457615 10448 layer_factory.hpp:77] Creating layer relu5_1
I0608 17:25:21.457622 10448 net.cpp:100] Creating Layer relu5_1
I0608 17:25:21.457625 10448 net.cpp:434] relu5_1 <- conv5_1
I0608 17:25:21.457646 10448 net.cpp:395] relu5_1 -> conv5_1 (in-place)
I0608 17:25:21.457792 10448 net.cpp:150] Setting up relu5_1
I0608 17:25:21.457798 10448 net.cpp:157] Top shape: 32 512 19 19 (5914624)
I0608 17:25:21.457800 10448 net.cpp:165] Memory required for data: 6957924384
I0608 17:25:21.457804 10448 layer_factory.hpp:77] Creating layer conv5_2
I0608 17:25:21.457814 10448 net.cpp:100] Creating Layer conv5_2
I0608 17:25:21.457832 10448 net.cpp:434] conv5_2 <- conv5_1
I0608 17:25:21.457839 10448 net.cpp:408] conv5_2 -> conv5_2
I0608 17:25:21.471716 10448 net.cpp:150] Setting up conv5_2
I0608 17:25:21.471731 10448 net.cpp:157] Top shape: 32 512 19 19 (5914624)
I0608 17:25:21.471735 10448 net.cpp:165] Memory required for data: 6981582880
I0608 17:25:21.471740 10448 layer_factory.hpp:77] Creating layer relu5_2
I0608 17:25:21.471748 10448 net.cpp:100] Creating Layer relu5_2
I0608 17:25:21.471752 10448 net.cpp:434] relu5_2 <- conv5_2
I0608 17:25:21.471774 10448 net.cpp:395] relu5_2 -> conv5_2 (in-place)
I0608 17:25:21.471909 10448 net.cpp:150] Setting up relu5_2
I0608 17:25:21.471916 10448 net.cpp:157] Top shape: 32 512 19 19 (5914624)
I0608 17:25:21.471918 10448 net.cpp:165] Memory required for data: 7005241376
I0608 17:25:21.471921 10448 layer_factory.hpp:77] Creating layer conv5_3
I0608 17:25:21.471931 10448 net.cpp:100] Creating Layer conv5_3
I0608 17:25:21.471935 10448 net.cpp:434] conv5_3 <- conv5_2
I0608 17:25:21.471957 10448 net.cpp:408] conv5_3 -> conv5_3
I0608 17:25:21.486959 10448 net.cpp:150] Setting up conv5_3
I0608 17:25:21.486979 10448 net.cpp:157] Top shape: 32 512 19 19 (5914624)
I0608 17:25:21.486982 10448 net.cpp:165] Memory required for data: 7028899872
I0608 17:25:21.486990 10448 layer_factory.hpp:77] Creating layer relu5_3
I0608 17:25:21.487017 10448 net.cpp:100] Creating Layer relu5_3
I0608 17:25:21.487052 10448 net.cpp:434] relu5_3 <- conv5_3
I0608 17:25:21.487068 10448 net.cpp:395] relu5_3 -> conv5_3 (in-place)
I0608 17:25:21.487306 10448 net.cpp:150] Setting up relu5_3
I0608 17:25:21.487314 10448 net.cpp:157] Top shape: 32 512 19 19 (5914624)
I0608 17:25:21.487318 10448 net.cpp:165] Memory required for data: 7052558368
I0608 17:25:21.487321 10448 layer_factory.hpp:77] Creating layer pool5
I0608 17:25:21.487326 10448 net.cpp:100] Creating Layer pool5
I0608 17:25:21.487329 10448 net.cpp:434] pool5 <- conv5_3
I0608 17:25:21.487350 10448 net.cpp:408] pool5 -> pool5
I0608 17:25:21.487406 10448 net.cpp:150] Setting up pool5
I0608 17:25:21.487411 10448 net.cpp:157] Top shape: 32 512 19 19 (5914624)
I0608 17:25:21.487414 10448 net.cpp:165] Memory required for data: 7076216864
I0608 17:25:21.487417 10448 layer_factory.hpp:77] Creating layer fc6
I0608 17:25:21.487427 10448 net.cpp:100] Creating Layer fc6
I0608 17:25:21.487432 10448 net.cpp:434] fc6 <- pool5
I0608 17:25:21.487437 10448 net.cpp:408] fc6 -> fc6
I0608 17:25:21.510067 10448 net.cpp:150] Setting up fc6
I0608 17:25:21.510085 10448 net.cpp:157] Top shape: 32 1024 19 19 (11829248)
I0608 17:25:21.510088 10448 net.cpp:165] Memory required for data: 7123533856
I0608 17:25:21.510093 10448 layer_factory.hpp:77] Creating layer relu6
I0608 17:25:21.510114 10448 net.cpp:100] Creating Layer relu6
I0608 17:25:21.510118 10448 net.cpp:434] relu6 <- fc6
I0608 17:25:21.510123 10448 net.cpp:395] relu6 -> fc6 (in-place)
I0608 17:25:21.511080 10448 net.cpp:150] Setting up relu6
I0608 17:25:21.511102 10448 net.cpp:157] Top shape: 32 1024 19 19 (11829248)
I0608 17:25:21.511106 10448 net.cpp:165] Memory required for data: 7170850848
I0608 17:25:21.511108 10448 layer_factory.hpp:77] Creating layer fc7
I0608 17:25:21.511118 10448 net.cpp:100] Creating Layer fc7
I0608 17:25:21.511121 10448 net.cpp:434] fc7 <- fc6
I0608 17:25:21.511127 10448 net.cpp:408] fc7 -> fc7
I0608 17:25:21.518405 10448 net.cpp:150] Setting up fc7
I0608 17:25:21.518424 10448 net.cpp:157] Top shape: 32 1024 19 19 (11829248)
I0608 17:25:21.518429 10448 net.cpp:165] Memory required for data: 7218167840
I0608 17:25:21.518451 10448 layer_factory.hpp:77] Creating layer relu7
I0608 17:25:21.518460 10448 net.cpp:100] Creating Layer relu7
I0608 17:25:21.518465 10448 net.cpp:434] relu7 <- fc7
I0608 17:25:21.518471 10448 net.cpp:395] relu7 -> fc7 (in-place)
I0608 17:25:21.518678 10448 net.cpp:150] Setting up relu7
I0608 17:25:21.518687 10448 net.cpp:157] Top shape: 32 1024 19 19 (11829248)
I0608 17:25:21.518689 10448 net.cpp:165] Memory required for data: 7265484832
I0608 17:25:21.518693 10448 layer_factory.hpp:77] Creating layer fc7_relu7_0_split
I0608 17:25:21.518712 10448 net.cpp:100] Creating Layer fc7_relu7_0_split
I0608 17:25:21.518715 10448 net.cpp:434] fc7_relu7_0_split <- fc7
I0608 17:25:21.518721 10448 net.cpp:408] fc7_relu7_0_split -> fc7_relu7_0_split_0
I0608 17:25:21.518733 10448 net.cpp:408] fc7_relu7_0_split -> fc7_relu7_0_split_1
I0608 17:25:21.518745 10448 net.cpp:408] fc7_relu7_0_split -> fc7_relu7_0_split_2
I0608 17:25:21.518751 10448 net.cpp:408] fc7_relu7_0_split -> fc7_relu7_0_split_3
I0608 17:25:21.518816 10448 net.cpp:150] Setting up fc7_relu7_0_split
I0608 17:25:21.518822 10448 net.cpp:157] Top shape: 32 1024 19 19 (11829248)
I0608 17:25:21.518827 10448 net.cpp:157] Top shape: 32 1024 19 19 (11829248)
I0608 17:25:21.518831 10448 net.cpp:157] Top shape: 32 1024 19 19 (11829248)
I0608 17:25:21.518836 10448 net.cpp:157] Top shape: 32 1024 19 19 (11829248)
I0608 17:25:21.518837 10448 net.cpp:165] Memory required for data: 7454752800
I0608 17:25:21.518841 10448 layer_factory.hpp:77] Creating layer conv6_1
I0608 17:25:21.518851 10448 net.cpp:100] Creating Layer conv6_1
I0608 17:25:21.518853 10448 net.cpp:434] conv6_1 <- fc7_relu7_0_split_0
I0608 17:25:21.518860 10448 net.cpp:408] conv6_1 -> conv6_1
I0608 17:25:21.523119 10448 net.cpp:150] Setting up conv6_1
I0608 17:25:21.523133 10448 net.cpp:157] Top shape: 32 256 19 19 (2957312)
I0608 17:25:21.523136 10448 net.cpp:165] Memory required for data: 7466582048
I0608 17:25:21.523142 10448 layer_factory.hpp:77] Creating layer conv6_1_relu
I0608 17:25:21.523169 10448 net.cpp:100] Creating Layer conv6_1_relu
I0608 17:25:21.523198 10448 net.cpp:434] conv6_1_relu <- conv6_1
I0608 17:25:21.523205 10448 net.cpp:395] conv6_1_relu -> conv6_1 (in-place)
I0608 17:25:21.523447 10448 net.cpp:150] Setting up conv6_1_relu
I0608 17:25:21.523455 10448 net.cpp:157] Top shape: 32 256 19 19 (2957312)
I0608 17:25:21.523458 10448 net.cpp:165] Memory required for data: 7478411296
I0608 17:25:21.523461 10448 layer_factory.hpp:77] Creating layer conv6_2
I0608 17:25:21.523488 10448 net.cpp:100] Creating Layer conv6_2
I0608 17:25:21.523492 10448 net.cpp:434] conv6_2 <- conv6_1
I0608 17:25:21.523499 10448 net.cpp:408] conv6_2 -> conv6_2
I0608 17:25:21.530900 10448 net.cpp:150] Setting up conv6_2
I0608 17:25:21.530916 10448 net.cpp:157] Top shape: 32 512 10 10 (1638400)
I0608 17:25:21.530920 10448 net.cpp:165] Memory required for data: 7484964896
I0608 17:25:21.530932 10448 layer_factory.hpp:77] Creating layer conv6_2_relu
I0608 17:25:21.530939 10448 net.cpp:100] Creating Layer conv6_2_relu
I0608 17:25:21.530943 10448 net.cpp:434] conv6_2_relu <- conv6_2
I0608 17:25:21.530948 10448 net.cpp:395] conv6_2_relu -> conv6_2 (in-place)
I0608 17:25:21.531103 10448 net.cpp:150] Setting up conv6_2_relu
I0608 17:25:21.531111 10448 net.cpp:157] Top shape: 32 512 10 10 (1638400)
I0608 17:25:21.531112 10448 net.cpp:165] Memory required for data: 7491518496
I0608 17:25:21.531116 10448 layer_factory.hpp:77] Creating layer conv6_2_conv6_2_relu_0_split
I0608 17:25:21.531119 10448 net.cpp:100] Creating Layer conv6_2_conv6_2_relu_0_split
I0608 17:25:21.531121 10448 net.cpp:434] conv6_2_conv6_2_relu_0_split <- conv6_2
I0608 17:25:21.531126 10448 net.cpp:408] conv6_2_conv6_2_relu_0_split -> conv6_2_conv6_2_relu_0_split_0
I0608 17:25:21.531131 10448 net.cpp:408] conv6_2_conv6_2_relu_0_split -> conv6_2_conv6_2_relu_0_split_1
I0608 17:25:21.531136 10448 net.cpp:408] conv6_2_conv6_2_relu_0_split -> conv6_2_conv6_2_relu_0_split_2
I0608 17:25:21.531141 10448 net.cpp:408] conv6_2_conv6_2_relu_0_split -> conv6_2_conv6_2_relu_0_split_3
I0608 17:25:21.531234 10448 net.cpp:150] Setting up conv6_2_conv6_2_relu_0_split
I0608 17:25:21.531239 10448 net.cpp:157] Top shape: 32 512 10 10 (1638400)
I0608 17:25:21.531255 10448 net.cpp:157] Top shape: 32 512 10 10 (1638400)
I0608 17:25:21.531258 10448 net.cpp:157] Top shape: 32 512 10 10 (1638400)
I0608 17:25:21.531260 10448 net.cpp:157] Top shape: 32 512 10 10 (1638400)
I0608 17:25:21.531262 10448 net.cpp:165] Memory required for data: 7517732896
I0608 17:25:21.531265 10448 layer_factory.hpp:77] Creating layer conv7_1
I0608 17:25:21.531271 10448 net.cpp:100] Creating Layer conv7_1
I0608 17:25:21.531275 10448 net.cpp:434] conv7_1 <- conv6_2_conv6_2_relu_0_split_0
I0608 17:25:21.531280 10448 net.cpp:408] conv7_1 -> conv7_1
I0608 17:25:21.532788 10448 net.cpp:150] Setting up conv7_1
I0608 17:25:21.532799 10448 net.cpp:157] Top shape: 32 128 10 10 (409600)
I0608 17:25:21.532800 10448 net.cpp:165] Memory required for data: 7519371296
I0608 17:25:21.532805 10448 layer_factory.hpp:77] Creating layer conv7_1_relu
I0608 17:25:21.532824 10448 net.cpp:100] Creating Layer conv7_1_relu
I0608 17:25:21.532826 10448 net.cpp:434] conv7_1_relu <- conv7_1
I0608 17:25:21.532830 10448 net.cpp:395] conv7_1_relu -> conv7_1 (in-place)
I0608 17:25:21.532989 10448 net.cpp:150] Setting up conv7_1_relu
I0608 17:25:21.532995 10448 net.cpp:157] Top shape: 32 128 10 10 (409600)
I0608 17:25:21.532996 10448 net.cpp:165] Memory required for data: 7521009696
I0608 17:25:21.532999 10448 layer_factory.hpp:77] Creating layer conv7_2
I0608 17:25:21.533020 10448 net.cpp:100] Creating Layer conv7_2
I0608 17:25:21.533022 10448 net.cpp:434] conv7_2 <- conv7_1
I0608 17:25:21.533026 10448 net.cpp:408] conv7_2 -> conv7_2
I0608 17:25:21.535871 10448 net.cpp:150] Setting up conv7_2
I0608 17:25:21.535882 10448 net.cpp:157] Top shape: 32 256 5 5 (204800)
I0608 17:25:21.535884 10448 net.cpp:165] Memory required for data: 7521828896
I0608 17:25:21.535889 10448 layer_factory.hpp:77] Creating layer conv7_2_relu
I0608 17:25:21.535893 10448 net.cpp:100] Creating Layer conv7_2_relu
I0608 17:25:21.535907 10448 net.cpp:434] conv7_2_relu <- conv7_2
I0608 17:25:21.535912 10448 net.cpp:395] conv7_2_relu -> conv7_2 (in-place)
I0608 17:25:21.536034 10448 net.cpp:150] Setting up conv7_2_relu
I0608 17:25:21.536041 10448 net.cpp:157] Top shape: 32 256 5 5 (204800)
I0608 17:25:21.536043 10448 net.cpp:165] Memory required for data: 7522648096
I0608 17:25:21.536046 10448 layer_factory.hpp:77] Creating layer conv7_2_conv7_2_relu_0_split
I0608 17:25:21.536051 10448 net.cpp:100] Creating Layer conv7_2_conv7_2_relu_0_split
I0608 17:25:21.536053 10448 net.cpp:434] conv7_2_conv7_2_relu_0_split <- conv7_2
I0608 17:25:21.536057 10448 net.cpp:408] conv7_2_conv7_2_relu_0_split -> conv7_2_conv7_2_relu_0_split_0
I0608 17:25:21.536062 10448 net.cpp:408] conv7_2_conv7_2_relu_0_split -> conv7_2_conv7_2_relu_0_split_1
I0608 17:25:21.536067 10448 net.cpp:408] conv7_2_conv7_2_relu_0_split -> conv7_2_conv7_2_relu_0_split_2
I0608 17:25:21.536072 10448 net.cpp:408] conv7_2_conv7_2_relu_0_split -> conv7_2_conv7_2_relu_0_split_3
I0608 17:25:21.536121 10448 net.cpp:150] Setting up conv7_2_conv7_2_relu_0_split
I0608 17:25:21.536125 10448 net.cpp:157] Top shape: 32 256 5 5 (204800)
I0608 17:25:21.536128 10448 net.cpp:157] Top shape: 32 256 5 5 (204800)
I0608 17:25:21.536131 10448 net.cpp:157] Top shape: 32 256 5 5 (204800)
I0608 17:25:21.536134 10448 net.cpp:157] Top shape: 32 256 5 5 (204800)
I0608 17:25:21.536136 10448 net.cpp:165] Memory required for data: 7525924896
I0608 17:25:21.536139 10448 layer_factory.hpp:77] Creating layer conv8_1
I0608 17:25:21.536146 10448 net.cpp:100] Creating Layer conv8_1
I0608 17:25:21.536149 10448 net.cpp:434] conv8_1 <- conv7_2_conv7_2_relu_0_split_0
I0608 17:25:21.536154 10448 net.cpp:408] conv8_1 -> conv8_1
I0608 17:25:21.537379 10448 net.cpp:150] Setting up conv8_1
I0608 17:25:21.537389 10448 net.cpp:157] Top shape: 32 128 5 5 (102400)
I0608 17:25:21.537392 10448 net.cpp:165] Memory required for data: 7526334496
I0608 17:25:21.537397 10448 layer_factory.hpp:77] Creating layer conv8_1_relu
I0608 17:25:21.537401 10448 net.cpp:100] Creating Layer conv8_1_relu
I0608 17:25:21.537403 10448 net.cpp:434] conv8_1_relu <- conv8_1
I0608 17:25:21.537410 10448 net.cpp:395] conv8_1_relu -> conv8_1 (in-place)
I0608 17:25:21.537976 10448 net.cpp:150] Setting up conv8_1_relu
I0608 17:25:21.537984 10448 net.cpp:157] Top shape: 32 128 5 5 (102400)
I0608 17:25:21.537986 10448 net.cpp:165] Memory required for data: 7526744096
I0608 17:25:21.537989 10448 layer_factory.hpp:77] Creating layer conv8_2
I0608 17:25:21.537997 10448 net.cpp:100] Creating Layer conv8_2
I0608 17:25:21.538000 10448 net.cpp:434] conv8_2 <- conv8_1
I0608 17:25:21.538005 10448 net.cpp:408] conv8_2 -> conv8_2
I0608 17:25:21.540863 10448 net.cpp:150] Setting up conv8_2
I0608 17:25:21.540875 10448 net.cpp:157] Top shape: 32 256 3 3 (73728)
I0608 17:25:21.540877 10448 net.cpp:165] Memory required for data: 7527039008
I0608 17:25:21.540884 10448 layer_factory.hpp:77] Creating layer conv8_2_relu
I0608 17:25:21.540889 10448 net.cpp:100] Creating Layer conv8_2_relu
I0608 17:25:21.540892 10448 net.cpp:434] conv8_2_relu <- conv8_2
I0608 17:25:21.540897 10448 net.cpp:395] conv8_2_relu -> conv8_2 (in-place)
I0608 17:25:21.541039 10448 net.cpp:150] Setting up conv8_2_relu
I0608 17:25:21.541049 10448 net.cpp:157] Top shape: 32 256 3 3 (73728)
I0608 17:25:21.541051 10448 net.cpp:165] Memory required for data: 7527333920
I0608 17:25:21.541054 10448 layer_factory.hpp:77] Creating layer conv8_2_conv8_2_relu_0_split
I0608 17:25:21.541061 10448 net.cpp:100] Creating Layer conv8_2_conv8_2_relu_0_split
I0608 17:25:21.541066 10448 net.cpp:434] conv8_2_conv8_2_relu_0_split <- conv8_2
I0608 17:25:21.541072 10448 net.cpp:408] conv8_2_conv8_2_relu_0_split -> conv8_2_conv8_2_relu_0_split_0
I0608 17:25:21.541081 10448 net.cpp:408] conv8_2_conv8_2_relu_0_split -> conv8_2_conv8_2_relu_0_split_1
I0608 17:25:21.541095 10448 net.cpp:408] conv8_2_conv8_2_relu_0_split -> conv8_2_conv8_2_relu_0_split_2
I0608 17:25:21.541105 10448 net.cpp:408] conv8_2_conv8_2_relu_0_split -> conv8_2_conv8_2_relu_0_split_3
I0608 17:25:21.541175 10448 net.cpp:150] Setting up conv8_2_conv8_2_relu_0_split
I0608 17:25:21.541182 10448 net.cpp:157] Top shape: 32 256 3 3 (73728)
I0608 17:25:21.541188 10448 net.cpp:157] Top shape: 32 256 3 3 (73728)
I0608 17:25:21.541193 10448 net.cpp:157] Top shape: 32 256 3 3 (73728)
I0608 17:25:21.541196 10448 net.cpp:157] Top shape: 32 256 3 3 (73728)
I0608 17:25:21.541199 10448 net.cpp:165] Memory required for data: 7528513568
I0608 17:25:21.541203 10448 layer_factory.hpp:77] Creating layer conv9_1
I0608 17:25:21.541216 10448 net.cpp:100] Creating Layer conv9_1
I0608 17:25:21.541220 10448 net.cpp:434] conv9_1 <- conv8_2_conv8_2_relu_0_split_0
I0608 17:25:21.541227 10448 net.cpp:408] conv9_1 -> conv9_1
I0608 17:25:21.542579 10448 net.cpp:150] Setting up conv9_1
I0608 17:25:21.542593 10448 net.cpp:157] Top shape: 32 128 3 3 (36864)
I0608 17:25:21.542596 10448 net.cpp:165] Memory required for data: 7528661024
I0608 17:25:21.542616 10448 layer_factory.hpp:77] Creating layer conv9_1_relu
I0608 17:25:21.542623 10448 net.cpp:100] Creating Layer conv9_1_relu
I0608 17:25:21.542629 10448 net.cpp:434] conv9_1_relu <- conv9_1
I0608 17:25:21.542636 10448 net.cpp:395] conv9_1_relu -> conv9_1 (in-place)
I0608 17:25:21.542765 10448 net.cpp:150] Setting up conv9_1_relu
I0608 17:25:21.542773 10448 net.cpp:157] Top shape: 32 128 3 3 (36864)
I0608 17:25:21.542776 10448 net.cpp:165] Memory required for data: 7528808480
I0608 17:25:21.542780 10448 layer_factory.hpp:77] Creating layer conv9_2
I0608 17:25:21.542789 10448 net.cpp:100] Creating Layer conv9_2
I0608 17:25:21.542794 10448 net.cpp:434] conv9_2 <- conv9_1
I0608 17:25:21.542803 10448 net.cpp:408] conv9_2 -> conv9_2
I0608 17:25:21.545794 10448 net.cpp:150] Setting up conv9_2
I0608 17:25:21.545811 10448 net.cpp:157] Top shape: 32 256 1 1 (8192)
I0608 17:25:21.545814 10448 net.cpp:165] Memory required for data: 7528841248
I0608 17:25:21.545824 10448 layer_factory.hpp:77] Creating layer conv9_2_relu
I0608 17:25:21.545845 10448 net.cpp:100] Creating Layer conv9_2_relu
I0608 17:25:21.545852 10448 net.cpp:434] conv9_2_relu <- conv9_2
I0608 17:25:21.545862 10448 net.cpp:395] conv9_2_relu -> conv9_2 (in-place)
I0608 17:25:21.546007 10448 net.cpp:150] Setting up conv9_2_relu
I0608 17:25:21.546015 10448 net.cpp:157] Top shape: 32 256 1 1 (8192)
I0608 17:25:21.546018 10448 net.cpp:165] Memory required for data: 7528874016
I0608 17:25:21.546021 10448 layer_factory.hpp:77] Creating layer conv9_2_conv9_2_relu_0_split
I0608 17:25:21.546030 10448 net.cpp:100] Creating Layer conv9_2_conv9_2_relu_0_split
I0608 17:25:21.546051 10448 net.cpp:434] conv9_2_conv9_2_relu_0_split <- conv9_2
I0608 17:25:21.546057 10448 net.cpp:408] conv9_2_conv9_2_relu_0_split -> conv9_2_conv9_2_relu_0_split_0
I0608 17:25:21.546078 10448 net.cpp:408] conv9_2_conv9_2_relu_0_split -> conv9_2_conv9_2_relu_0_split_1
I0608 17:25:21.546087 10448 net.cpp:408] conv9_2_conv9_2_relu_0_split -> conv9_2_conv9_2_relu_0_split_2
I0608 17:25:21.546133 10448 net.cpp:150] Setting up conv9_2_conv9_2_relu_0_split
I0608 17:25:21.546151 10448 net.cpp:157] Top shape: 32 256 1 1 (8192)
I0608 17:25:21.546155 10448 net.cpp:157] Top shape: 32 256 1 1 (8192)
I0608 17:25:21.546160 10448 net.cpp:157] Top shape: 32 256 1 1 (8192)
I0608 17:25:21.546164 10448 net.cpp:165] Memory required for data: 7528972320
I0608 17:25:21.546166 10448 layer_factory.hpp:77] Creating layer conv4_3_norm
I0608 17:25:21.546190 10448 net.cpp:100] Creating Layer conv4_3_norm
I0608 17:25:21.546208 10448 net.cpp:434] conv4_3_norm <- conv4_3_relu4_3_0_split_1
I0608 17:25:21.546217 10448 net.cpp:408] conv4_3_norm -> conv4_3_norm
I0608 17:25:21.546355 10448 net.cpp:150] Setting up conv4_3_norm
I0608 17:25:21.546361 10448 net.cpp:157] Top shape: 32 512 38 38 (23658496)
I0608 17:25:21.546365 10448 net.cpp:165] Memory required for data: 7623606304
I0608 17:25:21.546370 10448 layer_factory.hpp:77] Creating layer conv4_3_norm_conv4_3_norm_0_split
I0608 17:25:21.546376 10448 net.cpp:100] Creating Layer conv4_3_norm_conv4_3_norm_0_split
I0608 17:25:21.546396 10448 net.cpp:434] conv4_3_norm_conv4_3_norm_0_split <- conv4_3_norm
I0608 17:25:21.546411 10448 net.cpp:408] conv4_3_norm_conv4_3_norm_0_split -> conv4_3_norm_conv4_3_norm_0_split_0
I0608 17:25:21.546421 10448 net.cpp:408] conv4_3_norm_conv4_3_norm_0_split -> conv4_3_norm_conv4_3_norm_0_split_1
I0608 17:25:21.546427 10448 net.cpp:408] conv4_3_norm_conv4_3_norm_0_split -> conv4_3_norm_conv4_3_norm_0_split_2
I0608 17:25:21.546483 10448 net.cpp:150] Setting up conv4_3_norm_conv4_3_norm_0_split
I0608 17:25:21.546489 10448 net.cpp:157] Top shape: 32 512 38 38 (23658496)
I0608 17:25:21.546495 10448 net.cpp:157] Top shape: 32 512 38 38 (23658496)
I0608 17:25:21.546500 10448 net.cpp:157] Top shape: 32 512 38 38 (23658496)
I0608 17:25:21.546504 10448 net.cpp:165] Memory required for data: 7907508256
I0608 17:25:21.546507 10448 layer_factory.hpp:77] Creating layer conv4_3_norm_mbox_loc
I0608 17:25:21.546519 10448 net.cpp:100] Creating Layer conv4_3_norm_mbox_loc
I0608 17:25:21.546522 10448 net.cpp:434] conv4_3_norm_mbox_loc <- conv4_3_norm_conv4_3_norm_0_split_0
I0608 17:25:21.546530 10448 net.cpp:408] conv4_3_norm_mbox_loc -> conv4_3_norm_mbox_loc
I0608 17:25:21.548308 10448 net.cpp:150] Setting up conv4_3_norm_mbox_loc
I0608 17:25:21.548318 10448 net.cpp:157] Top shape: 32 16 38 38 (739328)
I0608 17:25:21.548322 10448 net.cpp:165] Memory required for data: 7910465568
I0608 17:25:21.548329 10448 layer_factory.hpp:77] Creating layer conv4_3_norm_mbox_loc_perm
I0608 17:25:21.548339 10448 net.cpp:100] Creating Layer conv4_3_norm_mbox_loc_perm
I0608 17:25:21.548344 10448 net.cpp:434] conv4_3_norm_mbox_loc_perm <- conv4_3_norm_mbox_loc
I0608 17:25:21.548352 10448 net.cpp:408] conv4_3_norm_mbox_loc_perm -> conv4_3_norm_mbox_loc_perm
I0608 17:25:21.548437 10448 net.cpp:150] Setting up conv4_3_norm_mbox_loc_perm
I0608 17:25:21.548444 10448 net.cpp:157] Top shape: 32 38 38 16 (739328)
I0608 17:25:21.548447 10448 net.cpp:165] Memory required for data: 7913422880
I0608 17:25:21.548451 10448 layer_factory.hpp:77] Creating layer conv4_3_norm_mbox_loc_flat
I0608 17:25:21.548458 10448 net.cpp:100] Creating Layer conv4_3_norm_mbox_loc_flat
I0608 17:25:21.548463 10448 net.cpp:434] conv4_3_norm_mbox_loc_flat <- conv4_3_norm_mbox_loc_perm
I0608 17:25:21.548470 10448 net.cpp:408] conv4_3_norm_mbox_loc_flat -> conv4_3_norm_mbox_loc_flat
I0608 17:25:21.548501 10448 net.cpp:150] Setting up conv4_3_norm_mbox_loc_flat
I0608 17:25:21.548507 10448 net.cpp:157] Top shape: 32 23104 (739328)
I0608 17:25:21.548511 10448 net.cpp:165] Memory required for data: 7916380192
I0608 17:25:21.548516 10448 layer_factory.hpp:77] Creating layer conv4_3_norm_mbox_conf
I0608 17:25:21.548529 10448 net.cpp:100] Creating Layer conv4_3_norm_mbox_conf
I0608 17:25:21.548533 10448 net.cpp:434] conv4_3_norm_mbox_conf <- conv4_3_norm_conv4_3_norm_0_split_1
I0608 17:25:21.548540 10448 net.cpp:408] conv4_3_norm_mbox_conf -> conv4_3_norm_mbox_conf
I0608 17:25:21.550165 10448 net.cpp:150] Setting up conv4_3_norm_mbox_conf
I0608 17:25:21.550176 10448 net.cpp:157] Top shape: 32 8 38 38 (369664)
I0608 17:25:21.550179 10448 net.cpp:165] Memory required for data: 7917858848
I0608 17:25:21.550186 10448 layer_factory.hpp:77] Creating layer conv4_3_norm_mbox_conf_perm
I0608 17:25:21.550195 10448 net.cpp:100] Creating Layer conv4_3_norm_mbox_conf_perm
I0608 17:25:21.550199 10448 net.cpp:434] conv4_3_norm_mbox_conf_perm <- conv4_3_norm_mbox_conf
I0608 17:25:21.550207 10448 net.cpp:408] conv4_3_norm_mbox_conf_perm -> conv4_3_norm_mbox_conf_perm
I0608 17:25:21.550295 10448 net.cpp:150] Setting up conv4_3_norm_mbox_conf_perm
I0608 17:25:21.550302 10448 net.cpp:157] Top shape: 32 38 38 8 (369664)
I0608 17:25:21.550305 10448 net.cpp:165] Memory required for data: 7919337504
I0608 17:25:21.550309 10448 layer_factory.hpp:77] Creating layer conv4_3_norm_mbox_conf_flat
I0608 17:25:21.550314 10448 net.cpp:100] Creating Layer conv4_3_norm_mbox_conf_flat
I0608 17:25:21.550319 10448 net.cpp:434] conv4_3_norm_mbox_conf_flat <- conv4_3_norm_mbox_conf_perm
I0608 17:25:21.550328 10448 net.cpp:408] conv4_3_norm_mbox_conf_flat -> conv4_3_norm_mbox_conf_flat
I0608 17:25:21.550359 10448 net.cpp:150] Setting up conv4_3_norm_mbox_conf_flat
I0608 17:25:21.550365 10448 net.cpp:157] Top shape: 32 11552 (369664)
I0608 17:25:21.550369 10448 net.cpp:165] Memory required for data: 7920816160
I0608 17:25:21.550374 10448 layer_factory.hpp:77] Creating layer conv4_3_norm_mbox_priorbox
I0608 17:25:21.550380 10448 net.cpp:100] Creating Layer conv4_3_norm_mbox_priorbox
I0608 17:25:21.550385 10448 net.cpp:434] conv4_3_norm_mbox_priorbox <- conv4_3_norm_conv4_3_norm_0_split_2
I0608 17:25:21.550390 10448 net.cpp:434] conv4_3_norm_mbox_priorbox <- data_data_0_split_1
I0608 17:25:21.550400 10448 net.cpp:408] conv4_3_norm_mbox_priorbox -> conv4_3_norm_mbox_priorbox
I0608 17:25:21.550424 10448 net.cpp:150] Setting up conv4_3_norm_mbox_priorbox
I0608 17:25:21.550431 10448 net.cpp:157] Top shape: 1 2 23104 (46208)
I0608 17:25:21.550436 10448 net.cpp:165] Memory required for data: 7921000992
I0608 17:25:21.550441 10448 layer_factory.hpp:77] Creating layer fc7_mbox_loc
I0608 17:25:21.550451 10448 net.cpp:100] Creating Layer fc7_mbox_loc
I0608 17:25:21.550454 10448 net.cpp:434] fc7_mbox_loc <- fc7_relu7_0_split_1
I0608 17:25:21.550463 10448 net.cpp:408] fc7_mbox_loc -> fc7_mbox_loc
I0608 17:25:21.552786 10448 net.cpp:150] Setting up fc7_mbox_loc
I0608 17:25:21.552798 10448 net.cpp:157] Top shape: 32 24 19 19 (277248)
I0608 17:25:21.552801 10448 net.cpp:165] Memory required for data: 7922109984
I0608 17:25:21.552809 10448 layer_factory.hpp:77] Creating layer fc7_mbox_loc_perm
I0608 17:25:21.552815 10448 net.cpp:100] Creating Layer fc7_mbox_loc_perm
I0608 17:25:21.552821 10448 net.cpp:434] fc7_mbox_loc_perm <- fc7_mbox_loc
I0608 17:25:21.552829 10448 net.cpp:408] fc7_mbox_loc_perm -> fc7_mbox_loc_perm
I0608 17:25:21.552913 10448 net.cpp:150] Setting up fc7_mbox_loc_perm
I0608 17:25:21.552919 10448 net.cpp:157] Top shape: 32 19 19 24 (277248)
I0608 17:25:21.552923 10448 net.cpp:165] Memory required for data: 7923218976
I0608 17:25:21.552927 10448 layer_factory.hpp:77] Creating layer fc7_mbox_loc_flat
I0608 17:25:21.552933 10448 net.cpp:100] Creating Layer fc7_mbox_loc_flat
I0608 17:25:21.552938 10448 net.cpp:434] fc7_mbox_loc_flat <- fc7_mbox_loc_perm
I0608 17:25:21.552945 10448 net.cpp:408] fc7_mbox_loc_flat -> fc7_mbox_loc_flat
I0608 17:25:21.552966 10448 net.cpp:150] Setting up fc7_mbox_loc_flat
I0608 17:25:21.552973 10448 net.cpp:157] Top shape: 32 8664 (277248)
I0608 17:25:21.552976 10448 net.cpp:165] Memory required for data: 7924327968
I0608 17:25:21.552980 10448 layer_factory.hpp:77] Creating layer fc7_mbox_conf
I0608 17:25:21.552991 10448 net.cpp:100] Creating Layer fc7_mbox_conf
I0608 17:25:21.552995 10448 net.cpp:434] fc7_mbox_conf <- fc7_relu7_0_split_2
I0608 17:25:21.553002 10448 net.cpp:408] fc7_mbox_conf -> fc7_mbox_conf
I0608 17:25:21.554898 10448 net.cpp:150] Setting up fc7_mbox_conf
I0608 17:25:21.554908 10448 net.cpp:157] Top shape: 32 12 19 19 (138624)
I0608 17:25:21.554913 10448 net.cpp:165] Memory required for data: 7924882464
I0608 17:25:21.554920 10448 layer_factory.hpp:77] Creating layer fc7_mbox_conf_perm
I0608 17:25:21.554927 10448 net.cpp:100] Creating Layer fc7_mbox_conf_perm
I0608 17:25:21.554932 10448 net.cpp:434] fc7_mbox_conf_perm <- fc7_mbox_conf
I0608 17:25:21.554940 10448 net.cpp:408] fc7_mbox_conf_perm -> fc7_mbox_conf_perm
I0608 17:25:21.555043 10448 net.cpp:150] Setting up fc7_mbox_conf_perm
I0608 17:25:21.555049 10448 net.cpp:157] Top shape: 32 19 19 12 (138624)
I0608 17:25:21.555053 10448 net.cpp:165] Memory required for data: 7925436960
I0608 17:25:21.555057 10448 layer_factory.hpp:77] Creating layer fc7_mbox_conf_flat
I0608 17:25:21.555076 10448 net.cpp:100] Creating Layer fc7_mbox_conf_flat
I0608 17:25:21.555083 10448 net.cpp:434] fc7_mbox_conf_flat <- fc7_mbox_conf_perm
I0608 17:25:21.555089 10448 net.cpp:408] fc7_mbox_conf_flat -> fc7_mbox_conf_flat
I0608 17:25:21.555111 10448 net.cpp:150] Setting up fc7_mbox_conf_flat
I0608 17:25:21.555117 10448 net.cpp:157] Top shape: 32 4332 (138624)
I0608 17:25:21.555121 10448 net.cpp:165] Memory required for data: 7925991456
I0608 17:25:21.555135 10448 layer_factory.hpp:77] Creating layer fc7_mbox_priorbox
I0608 17:25:21.555143 10448 net.cpp:100] Creating Layer fc7_mbox_priorbox
I0608 17:25:21.555148 10448 net.cpp:434] fc7_mbox_priorbox <- fc7_relu7_0_split_3
I0608 17:25:21.555155 10448 net.cpp:434] fc7_mbox_priorbox <- data_data_0_split_2
I0608 17:25:21.555162 10448 net.cpp:408] fc7_mbox_priorbox -> fc7_mbox_priorbox
I0608 17:25:21.555186 10448 net.cpp:150] Setting up fc7_mbox_priorbox
I0608 17:25:21.555192 10448 net.cpp:157] Top shape: 1 2 8664 (17328)
I0608 17:25:21.555197 10448 net.cpp:165] Memory required for data: 7926060768
I0608 17:25:21.555199 10448 layer_factory.hpp:77] Creating layer conv6_2_mbox_loc
I0608 17:25:21.555210 10448 net.cpp:100] Creating Layer conv6_2_mbox_loc
I0608 17:25:21.555214 10448 net.cpp:434] conv6_2_mbox_loc <- conv6_2_conv6_2_relu_0_split_1
I0608 17:25:21.555222 10448 net.cpp:408] conv6_2_mbox_loc -> conv6_2_mbox_loc
I0608 17:25:21.557104 10448 net.cpp:150] Setting up conv6_2_mbox_loc
I0608 17:25:21.557116 10448 net.cpp:157] Top shape: 32 24 10 10 (76800)
I0608 17:25:21.557119 10448 net.cpp:165] Memory required for data: 7926367968
I0608 17:25:21.557127 10448 layer_factory.hpp:77] Creating layer conv6_2_mbox_loc_perm
I0608 17:25:21.557134 10448 net.cpp:100] Creating Layer conv6_2_mbox_loc_perm
I0608 17:25:21.557140 10448 net.cpp:434] conv6_2_mbox_loc_perm <- conv6_2_mbox_loc
I0608 17:25:21.557147 10448 net.cpp:408] conv6_2_mbox_loc_perm -> conv6_2_mbox_loc_perm
I0608 17:25:21.557235 10448 net.cpp:150] Setting up conv6_2_mbox_loc_perm
I0608 17:25:21.557242 10448 net.cpp:157] Top shape: 32 10 10 24 (76800)
I0608 17:25:21.557245 10448 net.cpp:165] Memory required for data: 7926675168
I0608 17:25:21.557250 10448 layer_factory.hpp:77] Creating layer conv6_2_mbox_loc_flat
I0608 17:25:21.557256 10448 net.cpp:100] Creating Layer conv6_2_mbox_loc_flat
I0608 17:25:21.557260 10448 net.cpp:434] conv6_2_mbox_loc_flat <- conv6_2_mbox_loc_perm
I0608 17:25:21.557268 10448 net.cpp:408] conv6_2_mbox_loc_flat -> conv6_2_mbox_loc_flat
I0608 17:25:21.557291 10448 net.cpp:150] Setting up conv6_2_mbox_loc_flat
I0608 17:25:21.557296 10448 net.cpp:157] Top shape: 32 2400 (76800)
I0608 17:25:21.557303 10448 net.cpp:165] Memory required for data: 7926982368
I0608 17:25:21.557307 10448 layer_factory.hpp:77] Creating layer conv6_2_mbox_conf
I0608 17:25:21.557317 10448 net.cpp:100] Creating Layer conv6_2_mbox_conf
I0608 17:25:21.557323 10448 net.cpp:434] conv6_2_mbox_conf <- conv6_2_conv6_2_relu_0_split_2
I0608 17:25:21.557330 10448 net.cpp:408] conv6_2_mbox_conf -> conv6_2_mbox_conf
I0608 17:25:21.559001 10448 net.cpp:150] Setting up conv6_2_mbox_conf
I0608 17:25:21.559011 10448 net.cpp:157] Top shape: 32 12 10 10 (38400)
I0608 17:25:21.559016 10448 net.cpp:165] Memory required for data: 7927135968
I0608 17:25:21.559025 10448 layer_factory.hpp:77] Creating layer conv6_2_mbox_conf_perm
I0608 17:25:21.559031 10448 net.cpp:100] Creating Layer conv6_2_mbox_conf_perm
I0608 17:25:21.559036 10448 net.cpp:434] conv6_2_mbox_conf_perm <- conv6_2_mbox_conf
I0608 17:25:21.559043 10448 net.cpp:408] conv6_2_mbox_conf_perm -> conv6_2_mbox_conf_perm
I0608 17:25:21.559129 10448 net.cpp:150] Setting up conv6_2_mbox_conf_perm
I0608 17:25:21.559136 10448 net.cpp:157] Top shape: 32 10 10 12 (38400)
I0608 17:25:21.559139 10448 net.cpp:165] Memory required for data: 7927289568
I0608 17:25:21.559144 10448 layer_factory.hpp:77] Creating layer conv6_2_mbox_conf_flat
I0608 17:25:21.559151 10448 net.cpp:100] Creating Layer conv6_2_mbox_conf_flat
I0608 17:25:21.559156 10448 net.cpp:434] conv6_2_mbox_conf_flat <- conv6_2_mbox_conf_perm
I0608 17:25:21.559164 10448 net.cpp:408] conv6_2_mbox_conf_flat -> conv6_2_mbox_conf_flat
I0608 17:25:21.559185 10448 net.cpp:150] Setting up conv6_2_mbox_conf_flat
I0608 17:25:21.559190 10448 net.cpp:157] Top shape: 32 1200 (38400)
I0608 17:25:21.559193 10448 net.cpp:165] Memory required for data: 7927443168
I0608 17:25:21.559197 10448 layer_factory.hpp:77] Creating layer conv6_2_mbox_priorbox
I0608 17:25:21.559214 10448 net.cpp:100] Creating Layer conv6_2_mbox_priorbox
I0608 17:25:21.559219 10448 net.cpp:434] conv6_2_mbox_priorbox <- conv6_2_conv6_2_relu_0_split_3
I0608 17:25:21.559226 10448 net.cpp:434] conv6_2_mbox_priorbox <- data_data_0_split_3
I0608 17:25:21.559233 10448 net.cpp:408] conv6_2_mbox_priorbox -> conv6_2_mbox_priorbox
I0608 17:25:21.559257 10448 net.cpp:150] Setting up conv6_2_mbox_priorbox
I0608 17:25:21.559263 10448 net.cpp:157] Top shape: 1 2 2400 (4800)
I0608 17:25:21.559267 10448 net.cpp:165] Memory required for data: 7927462368
I0608 17:25:21.559269 10448 layer_factory.hpp:77] Creating layer conv7_2_mbox_loc
I0608 17:25:21.559280 10448 net.cpp:100] Creating Layer conv7_2_mbox_loc
I0608 17:25:21.559285 10448 net.cpp:434] conv7_2_mbox_loc <- conv7_2_conv7_2_relu_0_split_1
I0608 17:25:21.559291 10448 net.cpp:408] conv7_2_mbox_loc -> conv7_2_mbox_loc
I0608 17:25:21.560540 10448 net.cpp:150] Setting up conv7_2_mbox_loc
I0608 17:25:21.560550 10448 net.cpp:157] Top shape: 32 24 5 5 (19200)
I0608 17:25:21.560554 10448 net.cpp:165] Memory required for data: 7927539168
I0608 17:25:21.560561 10448 layer_factory.hpp:77] Creating layer conv7_2_mbox_loc_perm
I0608 17:25:21.560571 10448 net.cpp:100] Creating Layer conv7_2_mbox_loc_perm
I0608 17:25:21.560575 10448 net.cpp:434] conv7_2_mbox_loc_perm <- conv7_2_mbox_loc
I0608 17:25:21.560582 10448 net.cpp:408] conv7_2_mbox_loc_perm -> conv7_2_mbox_loc_perm
I0608 17:25:21.560667 10448 net.cpp:150] Setting up conv7_2_mbox_loc_perm
I0608 17:25:21.560674 10448 net.cpp:157] Top shape: 32 5 5 24 (19200)
I0608 17:25:21.560678 10448 net.cpp:165] Memory required for data: 7927615968
I0608 17:25:21.560681 10448 layer_factory.hpp:77] Creating layer conv7_2_mbox_loc_flat
I0608 17:25:21.560686 10448 net.cpp:100] Creating Layer conv7_2_mbox_loc_flat
I0608 17:25:21.560690 10448 net.cpp:434] conv7_2_mbox_loc_flat <- conv7_2_mbox_loc_perm
I0608 17:25:21.560698 10448 net.cpp:408] conv7_2_mbox_loc_flat -> conv7_2_mbox_loc_flat
I0608 17:25:21.560720 10448 net.cpp:150] Setting up conv7_2_mbox_loc_flat
I0608 17:25:21.560725 10448 net.cpp:157] Top shape: 32 600 (19200)
I0608 17:25:21.560729 10448 net.cpp:165] Memory required for data: 7927692768
I0608 17:25:21.560732 10448 layer_factory.hpp:77] Creating layer conv7_2_mbox_conf
I0608 17:25:21.560742 10448 net.cpp:100] Creating Layer conv7_2_mbox_conf
I0608 17:25:21.560746 10448 net.cpp:434] conv7_2_mbox_conf <- conv7_2_conv7_2_relu_0_split_2
I0608 17:25:21.560755 10448 net.cpp:408] conv7_2_mbox_conf -> conv7_2_mbox_conf
I0608 17:25:21.562346 10448 net.cpp:150] Setting up conv7_2_mbox_conf
I0608 17:25:21.562358 10448 net.cpp:157] Top shape: 32 12 5 5 (9600)
I0608 17:25:21.562362 10448 net.cpp:165] Memory required for data: 7927731168
I0608 17:25:21.562369 10448 layer_factory.hpp:77] Creating layer conv7_2_mbox_conf_perm
I0608 17:25:21.562377 10448 net.cpp:100] Creating Layer conv7_2_mbox_conf_perm
I0608 17:25:21.562384 10448 net.cpp:434] conv7_2_mbox_conf_perm <- conv7_2_mbox_conf
I0608 17:25:21.562391 10448 net.cpp:408] conv7_2_mbox_conf_perm -> conv7_2_mbox_conf_perm
I0608 17:25:21.562479 10448 net.cpp:150] Setting up conv7_2_mbox_conf_perm
I0608 17:25:21.562486 10448 net.cpp:157] Top shape: 32 5 5 12 (9600)
I0608 17:25:21.562490 10448 net.cpp:165] Memory required for data: 7927769568
I0608 17:25:21.562494 10448 layer_factory.hpp:77] Creating layer conv7_2_mbox_conf_flat
I0608 17:25:21.562500 10448 net.cpp:100] Creating Layer conv7_2_mbox_conf_flat
I0608 17:25:21.562505 10448 net.cpp:434] conv7_2_mbox_conf_flat <- conv7_2_mbox_conf_perm
I0608 17:25:21.562512 10448 net.cpp:408] conv7_2_mbox_conf_flat -> conv7_2_mbox_conf_flat
I0608 17:25:21.562536 10448 net.cpp:150] Setting up conv7_2_mbox_conf_flat
I0608 17:25:21.562541 10448 net.cpp:157] Top shape: 32 300 (9600)
I0608 17:25:21.562544 10448 net.cpp:165] Memory required for data: 7927807968
I0608 17:25:21.562548 10448 layer_factory.hpp:77] Creating layer conv7_2_mbox_priorbox
I0608 17:25:21.562554 10448 net.cpp:100] Creating Layer conv7_2_mbox_priorbox
I0608 17:25:21.562559 10448 net.cpp:434] conv7_2_mbox_priorbox <- conv7_2_conv7_2_relu_0_split_3
I0608 17:25:21.562573 10448 net.cpp:434] conv7_2_mbox_priorbox <- data_data_0_split_4
I0608 17:25:21.562583 10448 net.cpp:408] conv7_2_mbox_priorbox -> conv7_2_mbox_priorbox
I0608 17:25:21.562608 10448 net.cpp:150] Setting up conv7_2_mbox_priorbox
I0608 17:25:21.562614 10448 net.cpp:157] Top shape: 1 2 600 (1200)
I0608 17:25:21.562618 10448 net.cpp:165] Memory required for data: 7927812768
I0608 17:25:21.562623 10448 layer_factory.hpp:77] Creating layer conv8_2_mbox_loc
I0608 17:25:21.562631 10448 net.cpp:100] Creating Layer conv8_2_mbox_loc
I0608 17:25:21.562636 10448 net.cpp:434] conv8_2_mbox_loc <- conv8_2_conv8_2_relu_0_split_1
I0608 17:25:21.562644 10448 net.cpp:408] conv8_2_mbox_loc -> conv8_2_mbox_loc
I0608 17:25:21.564271 10448 net.cpp:150] Setting up conv8_2_mbox_loc
I0608 17:25:21.564281 10448 net.cpp:157] Top shape: 32 16 3 3 (4608)
I0608 17:25:21.564285 10448 net.cpp:165] Memory required for data: 7927831200
I0608 17:25:21.564301 10448 layer_factory.hpp:77] Creating layer conv8_2_mbox_loc_perm
I0608 17:25:21.564311 10448 net.cpp:100] Creating Layer conv8_2_mbox_loc_perm
I0608 17:25:21.564316 10448 net.cpp:434] conv8_2_mbox_loc_perm <- conv8_2_mbox_loc
I0608 17:25:21.564323 10448 net.cpp:408] conv8_2_mbox_loc_perm -> conv8_2_mbox_loc_perm
I0608 17:25:21.564414 10448 net.cpp:150] Setting up conv8_2_mbox_loc_perm
I0608 17:25:21.564421 10448 net.cpp:157] Top shape: 32 3 3 16 (4608)
I0608 17:25:21.564424 10448 net.cpp:165] Memory required for data: 7927849632
I0608 17:25:21.564429 10448 layer_factory.hpp:77] Creating layer conv8_2_mbox_loc_flat
I0608 17:25:21.564433 10448 net.cpp:100] Creating Layer conv8_2_mbox_loc_flat
I0608 17:25:21.564438 10448 net.cpp:434] conv8_2_mbox_loc_flat <- conv8_2_mbox_loc_perm
I0608 17:25:21.564446 10448 net.cpp:408] conv8_2_mbox_loc_flat -> conv8_2_mbox_loc_flat
I0608 17:25:21.564469 10448 net.cpp:150] Setting up conv8_2_mbox_loc_flat
I0608 17:25:21.564474 10448 net.cpp:157] Top shape: 32 144 (4608)
I0608 17:25:21.564478 10448 net.cpp:165] Memory required for data: 7927868064
I0608 17:25:21.564482 10448 layer_factory.hpp:77] Creating layer conv8_2_mbox_conf
I0608 17:25:21.564492 10448 net.cpp:100] Creating Layer conv8_2_mbox_conf
I0608 17:25:21.564496 10448 net.cpp:434] conv8_2_mbox_conf <- conv8_2_conv8_2_relu_0_split_2
I0608 17:25:21.564504 10448 net.cpp:408] conv8_2_mbox_conf -> conv8_2_mbox_conf
I0608 17:25:21.566033 10448 net.cpp:150] Setting up conv8_2_mbox_conf
I0608 17:25:21.566042 10448 net.cpp:157] Top shape: 32 8 3 3 (2304)
I0608 17:25:21.566046 10448 net.cpp:165] Memory required for data: 7927877280
I0608 17:25:21.566053 10448 layer_factory.hpp:77] Creating layer conv8_2_mbox_conf_perm
I0608 17:25:21.566062 10448 net.cpp:100] Creating Layer conv8_2_mbox_conf_perm
I0608 17:25:21.566067 10448 net.cpp:434] conv8_2_mbox_conf_perm <- conv8_2_mbox_conf
I0608 17:25:21.566074 10448 net.cpp:408] conv8_2_mbox_conf_perm -> conv8_2_mbox_conf_perm
I0608 17:25:21.566161 10448 net.cpp:150] Setting up conv8_2_mbox_conf_perm
I0608 17:25:21.566167 10448 net.cpp:157] Top shape: 32 3 3 8 (2304)
I0608 17:25:21.566170 10448 net.cpp:165] Memory required for data: 7927886496
I0608 17:25:21.566174 10448 layer_factory.hpp:77] Creating layer conv8_2_mbox_conf_flat
I0608 17:25:21.566182 10448 net.cpp:100] Creating Layer conv8_2_mbox_conf_flat
I0608 17:25:21.566187 10448 net.cpp:434] conv8_2_mbox_conf_flat <- conv8_2_mbox_conf_perm
I0608 17:25:21.566193 10448 net.cpp:408] conv8_2_mbox_conf_flat -> conv8_2_mbox_conf_flat
I0608 17:25:21.566215 10448 net.cpp:150] Setting up conv8_2_mbox_conf_flat
I0608 17:25:21.566221 10448 net.cpp:157] Top shape: 32 72 (2304)
I0608 17:25:21.566224 10448 net.cpp:165] Memory required for data: 7927895712
I0608 17:25:21.566227 10448 layer_factory.hpp:77] Creating layer conv8_2_mbox_priorbox
I0608 17:25:21.566236 10448 net.cpp:100] Creating Layer conv8_2_mbox_priorbox
I0608 17:25:21.566241 10448 net.cpp:434] conv8_2_mbox_priorbox <- conv8_2_conv8_2_relu_0_split_3
I0608 17:25:21.566246 10448 net.cpp:434] conv8_2_mbox_priorbox <- data_data_0_split_5
I0608 17:25:21.566260 10448 net.cpp:408] conv8_2_mbox_priorbox -> conv8_2_mbox_priorbox
I0608 17:25:21.566287 10448 net.cpp:150] Setting up conv8_2_mbox_priorbox
I0608 17:25:21.566293 10448 net.cpp:157] Top shape: 1 2 144 (288)
I0608 17:25:21.566295 10448 net.cpp:165] Memory required for data: 7927896864
I0608 17:25:21.566299 10448 layer_factory.hpp:77] Creating layer conv9_2_mbox_loc
I0608 17:25:21.566308 10448 net.cpp:100] Creating Layer conv9_2_mbox_loc
I0608 17:25:21.566313 10448 net.cpp:434] conv9_2_mbox_loc <- conv9_2_conv9_2_relu_0_split_0
I0608 17:25:21.566321 10448 net.cpp:408] conv9_2_mbox_loc -> conv9_2_mbox_loc
I0608 17:25:21.567927 10448 net.cpp:150] Setting up conv9_2_mbox_loc
I0608 17:25:21.567936 10448 net.cpp:157] Top shape: 32 16 1 1 (512)
I0608 17:25:21.567940 10448 net.cpp:165] Memory required for data: 7927898912
I0608 17:25:21.567948 10448 layer_factory.hpp:77] Creating layer conv9_2_mbox_loc_perm
I0608 17:25:21.567956 10448 net.cpp:100] Creating Layer conv9_2_mbox_loc_perm
I0608 17:25:21.567961 10448 net.cpp:434] conv9_2_mbox_loc_perm <- conv9_2_mbox_loc
I0608 17:25:21.567970 10448 net.cpp:408] conv9_2_mbox_loc_perm -> conv9_2_mbox_loc_perm
I0608 17:25:21.568058 10448 net.cpp:150] Setting up conv9_2_mbox_loc_perm
I0608 17:25:21.568064 10448 net.cpp:157] Top shape: 32 1 1 16 (512)
I0608 17:25:21.568068 10448 net.cpp:165] Memory required for data: 7927900960
I0608 17:25:21.568073 10448 layer_factory.hpp:77] Creating layer conv9_2_mbox_loc_flat
I0608 17:25:21.568078 10448 net.cpp:100] Creating Layer conv9_2_mbox_loc_flat
I0608 17:25:21.568084 10448 net.cpp:434] conv9_2_mbox_loc_flat <- conv9_2_mbox_loc_perm
I0608 17:25:21.568089 10448 net.cpp:408] conv9_2_mbox_loc_flat -> conv9_2_mbox_loc_flat
I0608 17:25:21.568112 10448 net.cpp:150] Setting up conv9_2_mbox_loc_flat
I0608 17:25:21.568119 10448 net.cpp:157] Top shape: 32 16 (512)
I0608 17:25:21.568121 10448 net.cpp:165] Memory required for data: 7927903008
I0608 17:25:21.568125 10448 layer_factory.hpp:77] Creating layer conv9_2_mbox_conf
I0608 17:25:21.568135 10448 net.cpp:100] Creating Layer conv9_2_mbox_conf
I0608 17:25:21.568140 10448 net.cpp:434] conv9_2_mbox_conf <- conv9_2_conv9_2_relu_0_split_1
I0608 17:25:21.568147 10448 net.cpp:408] conv9_2_mbox_conf -> conv9_2_mbox_conf
I0608 17:25:21.570104 10448 net.cpp:150] Setting up conv9_2_mbox_conf
I0608 17:25:21.570116 10448 net.cpp:157] Top shape: 32 8 1 1 (256)
I0608 17:25:21.570121 10448 net.cpp:165] Memory required for data: 7927904032
I0608 17:25:21.570127 10448 layer_factory.hpp:77] Creating layer conv9_2_mbox_conf_perm
I0608 17:25:21.570134 10448 net.cpp:100] Creating Layer conv9_2_mbox_conf_perm
I0608 17:25:21.570140 10448 net.cpp:434] conv9_2_mbox_conf_perm <- conv9_2_mbox_conf
I0608 17:25:21.570148 10448 net.cpp:408] conv9_2_mbox_conf_perm -> conv9_2_mbox_conf_perm
I0608 17:25:21.570251 10448 net.cpp:150] Setting up conv9_2_mbox_conf_perm
I0608 17:25:21.570257 10448 net.cpp:157] Top shape: 32 1 1 8 (256)
I0608 17:25:21.570261 10448 net.cpp:165] Memory required for data: 7927905056
I0608 17:25:21.570264 10448 layer_factory.hpp:77] Creating layer conv9_2_mbox_conf_flat
I0608 17:25:21.570271 10448 net.cpp:100] Creating Layer conv9_2_mbox_conf_flat
I0608 17:25:21.570276 10448 net.cpp:434] conv9_2_mbox_conf_flat <- conv9_2_mbox_conf_perm
I0608 17:25:21.570283 10448 net.cpp:408] conv9_2_mbox_conf_flat -> conv9_2_mbox_conf_flat
I0608 17:25:21.570305 10448 net.cpp:150] Setting up conv9_2_mbox_conf_flat
I0608 17:25:21.570310 10448 net.cpp:157] Top shape: 32 8 (256)
I0608 17:25:21.570327 10448 net.cpp:165] Memory required for data: 7927906080
I0608 17:25:21.570332 10448 layer_factory.hpp:77] Creating layer conv9_2_mbox_priorbox
I0608 17:25:21.570338 10448 net.cpp:100] Creating Layer conv9_2_mbox_priorbox
I0608 17:25:21.570343 10448 net.cpp:434] conv9_2_mbox_priorbox <- conv9_2_conv9_2_relu_0_split_2
I0608 17:25:21.570348 10448 net.cpp:434] conv9_2_mbox_priorbox <- data_data_0_split_6
I0608 17:25:21.570358 10448 net.cpp:408] conv9_2_mbox_priorbox -> conv9_2_mbox_priorbox
I0608 17:25:21.570387 10448 net.cpp:150] Setting up conv9_2_mbox_priorbox
I0608 17:25:21.570394 10448 net.cpp:157] Top shape: 1 2 16 (32)
I0608 17:25:21.570397 10448 net.cpp:165] Memory required for data: 7927906208
I0608 17:25:21.570401 10448 layer_factory.hpp:77] Creating layer mbox_loc
I0608 17:25:21.570410 10448 net.cpp:100] Creating Layer mbox_loc
I0608 17:25:21.570413 10448 net.cpp:434] mbox_loc <- conv4_3_norm_mbox_loc_flat
I0608 17:25:21.570420 10448 net.cpp:434] mbox_loc <- fc7_mbox_loc_flat
I0608 17:25:21.570425 10448 net.cpp:434] mbox_loc <- conv6_2_mbox_loc_flat
I0608 17:25:21.570430 10448 net.cpp:434] mbox_loc <- conv7_2_mbox_loc_flat
I0608 17:25:21.570435 10448 net.cpp:434] mbox_loc <- conv8_2_mbox_loc_flat
I0608 17:25:21.570439 10448 net.cpp:434] mbox_loc <- conv9_2_mbox_loc_flat
I0608 17:25:21.570447 10448 net.cpp:408] mbox_loc -> mbox_loc
I0608 17:25:21.570473 10448 net.cpp:150] Setting up mbox_loc
I0608 17:25:21.570478 10448 net.cpp:157] Top shape: 32 34928 (1117696)
I0608 17:25:21.570482 10448 net.cpp:165] Memory required for data: 7932376992
I0608 17:25:21.570487 10448 layer_factory.hpp:77] Creating layer mbox_conf
I0608 17:25:21.570493 10448 net.cpp:100] Creating Layer mbox_conf
I0608 17:25:21.570497 10448 net.cpp:434] mbox_conf <- conv4_3_norm_mbox_conf_flat
I0608 17:25:21.570502 10448 net.cpp:434] mbox_conf <- fc7_mbox_conf_flat
I0608 17:25:21.570509 10448 net.cpp:434] mbox_conf <- conv6_2_mbox_conf_flat
I0608 17:25:21.570514 10448 net.cpp:434] mbox_conf <- conv7_2_mbox_conf_flat
I0608 17:25:21.570519 10448 net.cpp:434] mbox_conf <- conv8_2_mbox_conf_flat
I0608 17:25:21.570524 10448 net.cpp:434] mbox_conf <- conv9_2_mbox_conf_flat
I0608 17:25:21.570531 10448 net.cpp:408] mbox_conf -> mbox_conf
I0608 17:25:21.570554 10448 net.cpp:150] Setting up mbox_conf
I0608 17:25:21.570559 10448 net.cpp:157] Top shape: 32 17464 (558848)
I0608 17:25:21.570562 10448 net.cpp:165] Memory required for data: 7934612384
I0608 17:25:21.570566 10448 layer_factory.hpp:77] Creating layer mbox_priorbox
I0608 17:25:21.570571 10448 net.cpp:100] Creating Layer mbox_priorbox
I0608 17:25:21.570575 10448 net.cpp:434] mbox_priorbox <- conv4_3_norm_mbox_priorbox
I0608 17:25:21.570580 10448 net.cpp:434] mbox_priorbox <- fc7_mbox_priorbox
I0608 17:25:21.570586 10448 net.cpp:434] mbox_priorbox <- conv6_2_mbox_priorbox
I0608 17:25:21.570590 10448 net.cpp:434] mbox_priorbox <- conv7_2_mbox_priorbox
I0608 17:25:21.570595 10448 net.cpp:434] mbox_priorbox <- conv8_2_mbox_priorbox
I0608 17:25:21.570600 10448 net.cpp:434] mbox_priorbox <- conv9_2_mbox_priorbox
I0608 17:25:21.570607 10448 net.cpp:408] mbox_priorbox -> mbox_priorbox
I0608 17:25:21.570628 10448 net.cpp:150] Setting up mbox_priorbox
I0608 17:25:21.570634 10448 net.cpp:157] Top shape: 1 2 34928 (69856)
I0608 17:25:21.570637 10448 net.cpp:165] Memory required for data: 7934891808
I0608 17:25:21.570641 10448 layer_factory.hpp:77] Creating layer mbox_loss
I0608 17:25:21.570652 10448 net.cpp:100] Creating Layer mbox_loss
I0608 17:25:21.570654 10448 net.cpp:434] mbox_loss <- mbox_loc
I0608 17:25:21.570659 10448 net.cpp:434] mbox_loss <- mbox_conf
I0608 17:25:21.570664 10448 net.cpp:434] mbox_loss <- mbox_priorbox
…
  name: "data"
  type: "AnnotatedData"
  top: "data"
  top: "label"
  include {
    phase: TEST
  }
  transform_param {
    mean_value: 104
    mean_value: 117
    mean_value: 123
    resize_param {
      prob: 1
      resize_mode: WARP
      height: 300
      width: 300
      interp_mode: LINEAR
    }
  }
  data_param {
    source: "examples/sharpen_tbs_v2.0/sharpen_tbs_v2.0_test_lmdb"
    batch_size: 4
    backend: LMDB
  }
  annotated_data_param {
    batch_sampler {
    }
    label_map_file: "data/sharpen_tbs_v2.0/labelmap_voc.prototxt"
  }
}
layer {
  name: "conv1_1"
  type: "Convolution"
  bottom: "data"
  top: "conv1_1"
  param {
    lr_mult: 1
    decay_mult: 1
  }
  param {
    lr_mult: 2
    decay_mult: 0
  }
  convolution_param {
    num_output: 64
    pad: 1
    kernel_size: 3
    weight_filler {
      type: "xavier"
    }
    bias_filler {
      type: "constant"
      value: 0
    }
  }
}
layer {
  name: "relu1_1"
  type: "ReLU"
  bottom: "conv1_1"
  top: "conv1_1"
}
layer {
  name: "conv1_2"
  type: "Convolution"
  bottom: "conv1_1"
  top: "conv1_2"
  param {
    lr_mult: 1
    decay_mult: 1
  }
  param {
    lr_mult: 2
    decay_mult: 0
  }
  convolution_param {
    num_output: 64
    pad: 1
    kernel_size: 3
    weight_filler {
      type: "xavier"
    }
    bias_filler {
      type: "constant"
      value: 0
    }
  }
}
layer {
  name: "relu1_2"
  type: "ReLU"
  bottom: "conv1_2"
  top: "conv1_2"
}
layer {
  name: "pool1"
  type: "Pooling"
  bottom: "conv1_2"
  top: "pool1"
  pooling_param {
    pool: MAX
    kernel_size: 2
    stride: 2
  }
}
layer {
  name: "conv2_1"
  type: "Convolution"
  bottom: "pool1"
  top: "conv2_1"
  param {
    lr_mult: 1
    decay_mult: 1
  }
  param {
    lr_mult: 2
    decay_mult: 0
  }
  convolution_param {
    num_output: 128
    pad: 1
    kernel_size: 3
    weight_filler {
      type: "xavier"
    }
    bias_filler {
      type: "constant"
      value: 0
    }
  }
}
layer {
  name: "relu2_1"
  type: "ReLU"
  bottom: "conv2_1"
  top: "conv2_1"
}
layer {
  name: "conv2_2"
  type: "Convolution"
  bottom: "conv2_1"
  top: "conv2_2"
  param {
    lr_mult: 1
    decay_mult: 1
  }
  param {
    lr_mult: 2
    decay_mult: 0
  }
  convolution_param {
    num_output: 128
    pad: 1
    kernel_size: 3
    weight_filler {
      type: "xavier"
    }
    bias_filler {
      type: "constant"
      value: 0
    }
  }
}
layer {
  name: "relu2_2"
  type: "ReLU"
  bottom: "conv2_2"
  top: "conv2_2"
}
layer {
  name: "pool2"
  type: "Pooling"
  bottom: "conv2_2"
  top: "pool2"
  pooling_param {
    pool: MAX
    kernel_size: 2
    stride: 2
  }
}
layer {
  name: "conv3_1"
  type: "Convolution"
  bottom: "pool2"
  top: "conv3_1"
  param {
    lr_mult: 1
    decay_mult: 1
  }
  param {
    lr_mult: 2
    decay_mult: 0
  }
  convolution_param {
    num_output: 256
    pad: 1
    kernel_size: 3
    weight_filler {
      type: "xavier"
    }
    bias_filler {
      type: "constant"
      value: 0
    }
  }
}
layer {
  name: "relu3_1"
  type: "ReLU"
  bottom: "conv3_1"
  top: "conv3_1"
}
layer {
  name: "conv3_2"
  type: "Convolution"
  bottom: "conv3_1"
  top: "conv3_2"
  param {
    lr_mult: 1
    decay_mult: 1
  }
  param {
    lr_mult: 2
    decay_mult: 0
  }
  convolution_param {
    num_output: 256
    pad: 1
    kernel_size: 3
    weight_filler {
      type: "xavier"
    }
    bias_filler {
      type: "constant"
      value: 0
    }
  }
}
layer {
  name: "relu3_2"
  type: "ReLU"
  bottom: "conv3_2"
  top: "conv3_2"
}
layer {
  name: "conv3_3"
  type: "Convolution"
  bottom: "conv3_2"
  top: "conv3_3"
  param {
    lr_mult: 1
    decay_mult: 1
  }
  param {
    lr_mult: 2
    decay_mult: 0
  }
  convolution_param {
    num_output: 256
    pad: 1
    kernel_size: 3
    weight_filler {
      type: "xavier"
    }
    bias_filler {
      type: "constant"
      value: 0
    }
  }
}
layer {
  name: "relu3_3"
  type: "ReLU"
  bottom: "conv3_3"
  top: "conv3_3"
}
layer {
  name: "pool3"
  type: "Pooling"
  bottom: "conv3_3"
  top: "pool3"
  pooling_param {
    pool: MAX
    kernel_size: 2
    stride: 2
  }
}
layer {
  name: "conv4_1"
  type: "Convolution"
  bottom: "pool3"
  top: "conv4_1"
  param {
    lr_mult: 1
    decay_mult: 1
  }
  param {
    lr_mult: 2
    decay_mult: 0
  }
  convolution_param {
    num_output: 512
    pad: 1
    kernel_size: 3
    weight_filler {
      type: "xavier"
    }
    bias_filler {
      type: "constant"
      value: 0
    }
  }
}
layer {
  name: "relu4_1"
  type: "ReLU"
  bottom: "conv4_1"
  top: "conv4_1"
}
layer {
  name: "conv4_2"
  type: "Convolution"
  bottom: "conv4_1"
  top: "conv4_2"
  param {
    lr_mult: 1
    decay_mult: 1
  }
  param {
    lr_mult: 2
    decay_mult: 0
  }
  convolution_param {
    num_output: 512
    pad: 1
    kernel_size: 3
    weight_filler {
      type: "xavier"
    }
    bias_filler {
      type: "constant"
      value: 0
    }
  }
}
layer {
  name: "relu4_2"
  type: "ReLU"
  bottom: "conv4_2"
  top: "conv4_2"
}
layer {
  name: "conv4_3"
  type: "Convolution"
  bottom: "conv4_2"
  top: "conv4_3"
  param {
    lr_mult: 1
    decay_mult: 1
  }
  param {
    lr_mult: 2
    decay_mult: 0
  }
  convolution_param {
    num_output: 512
    pad: 1
    kernel_size: 3
    weight_filler {
      type: "xavier"
    }
    bias_filler {
      type: "constant"
      value: 0
    }
  }
}
layer {
  name: "relu4_3"
  type: "ReLU"
  bottom: "conv4_3"
  top: "conv4_3"
}
layer {
  name: "pool4"
  type: "Pooling"
  bottom: "conv4_3"
  top: "pool4"
  pooling_param {
    pool: MAX
    kernel_size: 2
    stride: 2
  }
}
layer {
  name: "conv5_1"
  type: "Convolution"
  bottom: "pool4"
  top: "conv5_1"
  param {
    lr_mult: 1
    decay_mult: 1
  }
  param {
    lr_mult: 2
    decay_mult: 0
  }
  convolution_param {
    num_output: 512
    pad: 1
    kernel_size: 3
    weight_filler {
      type: "xavier"
    }
    bias_filler {
      type: "constant"
      value: 0
    }
    dilation: 1
  }
}
layer {
  name: "relu5_1"
  type: "ReLU"
  bottom: "conv5_1"
  top: "conv5_1"
}
layer {
  name: "conv5_2"
  type: "Convolution"
  bottom: "conv5_1"
  top: "conv5_2"
  param {
    lr_mult: 1
    decay_mult: 1
  }
  param {
    lr_mult: 2
    decay_mult: 0
  }
  convolution_param {
    num_output: 512
    pad: 1
    kernel_size: 3
    weight_filler {
      type: "xavier"
    }
    bias_filler {
      type: "constant"
      value: 0
    }
    dilation: 1
  }
}
layer {
  name: "relu5_2"
  type: "ReLU"
  bottom: "conv5_2"
  top: "conv5_2"
}
layer {
  name: "conv5_3"
  type: "Convolution"
  bottom: "conv5_2"
  top: "conv5_3"
  param {
    lr_mult: 1
    decay_mult: 1
  }
  param {
    lr_mult: 2
    decay_mult: 0
  }
  convolution_param {
    num_output: 512
    pad: 1
    kernel_size: 3
    weight_filler {
      type: "xavier"
    }
    bias_filler {
      type: "constant"
      value: 0
    }
    dilation: 1
  }
}
layer {
  name: "relu5_3"
  type: "ReLU"
  bottom: "conv5_3"
  top: "conv5_3"
}
layer {
  name: "pool5"
  type: "Pooling"
  bottom: "conv5_3"
  top: "pool5"
  pooling_param {
    pool: MAX
    kernel_size: 3
    stride: 1
    pad: 1
  }
}
layer {
  name: "fc6"
  type: "Convolution"
  bottom: "pool5"
  top: "fc6"
  param {
    lr_mult: 1
    decay_mult: 1
  }
  param {
    lr_mult: 2
    decay_mult: 0
  }
  convolution_param {
    num_output: 1024
    pad: 6
    kernel_size: 3
    weight_filler {
      type: "xavier"
    }
    bias_filler {
      type: "constant"
      value: 0
    }
    dilation: 6
  }
}
layer {
  name: "relu6"
  type: "ReLU"
  bottom: "fc6"
  top: "fc6"
}
layer {
  name: "fc7"
  type: "Convolution"
  bottom: "fc6"
  top: "fc7"
  param {
    lr_mult: 1
    decay_mult: 1
  }
  param {
    lr_mult: 2
    decay_mult: 0
  }
  convolution_param {
    num_output: 1024
    kernel_size: 1
    weight_filler {
      type: "xavier"
    }
    bias_filler {
      type: "constant"
      value: 0
    }
  }
}
layer {
  name: "relu7"
  type: "ReLU"
  bottom: "fc7"
  top: "fc7"
}
layer {
  name: "conv6_1"
  type: "Convolution"
  bottom: "fc7"
  top: "conv6_1"
  param {
    lr_mult: 1
    decay_mult: 1
  }
  param {
    lr_mult: 2
    decay_mult: 0
  }
  convolution_param {
    num_output: 256
    pad: 0
    kernel_size: 1
    stride: 1
    weight_filler {
      type: "xavier"
    }
    bias_filler {
      type: "constant"
      value: 0
    }
  }
}
layer {
  name: "conv6_1_relu"
  type: "ReLU"
  bottom: "conv6_1"
  top: "conv6_1"
}
layer {
  name: "conv6_2"
  type: "Convolution"
  bottom: "conv6_1"
  top: "conv6_2"
  param {
    lr_mult: 1
    decay_mult: 1
  }
  param {
    lr_mult: 2
    decay_mult: 0
  }
  convolution_param {
    num_output: 512
    pad: 1
    kernel_size: 3
    stride: 2
    weight_filler {
      type: "xavier"
    }
    bias_filler {
      type: "constant"
      value: 0
    }
  }
}
layer {
  name: "conv6_2_relu"
  type: "ReLU"
  bottom: "conv6_2"
  top: "conv6_2"
}
layer {
  name: "conv7_1"
  type: "Convolution"
  bottom: "conv6_2"
  top: "conv7_1"
  param {
    lr_mult: 1
    decay_mult: 1
  }
  param {
    lr_mult: 2
    decay_mult: 0
  }
  convolution_param {
    num_output: 128
    pad: 0
    kernel_size: 1
    stride: 1
    weight_filler {
      type: "xavier"
    }
    bias_filler {
      type: "constant"
      value: 0
    }
  }
}
layer {
  name: "conv7_1_relu"
  type: "ReLU"
  bottom: "conv7_1"
  top: "conv7_1"
}
layer {
  name: "conv7_2"
  type: "Convolution"
  bottom: "conv7_1"
  top: "conv7_2"
  param {
    lr_mult: 1
    decay_mult: 1
  }
  param {
    lr_mult: 2
    decay_mult: 0
  }
  convolution_param {
    num_output: 256
    pad: 1
    kernel_size: 3
    stride: 2
    weight_filler {
      type: "xavier"
    }
    bias_filler {
      type: "constant"
      value: 0
    }
  }
}
layer {
  name: "conv7_2_relu"
  type: "ReLU"
  bottom: "conv7_2"
  top: "conv7_2"
}
layer {
  name: "conv8_1"
  type: "Convolution"
  bottom: "conv7_2"
  top: "conv8_1"
  param {
    lr_mult: 1
    decay_mult: 1
  }
  param {
    lr_mult: 2
    decay_mult: 0
  }
  convolution_param {
    num_output: 128
    pad: 0
    kernel_size: 1
    stride: 1
    weight_filler {
      type: "xavier"
    }
    bias_filler {
      type: "constant"
      value: 0
    }
  }
}
layer {
  name: "conv8_1_relu"
  type: "ReLU"
  bottom: "conv8_1"
  top: "conv8_1"
}
layer {
  name: "conv8_2"
  type: "Convolution"
  bottom: "conv8_1"
  top: "conv8_2"
  param {
    lr_mult: 1
    decay_mult: 1
  }
  param {
    lr_mult: 2
    decay_mult: 0
  }
  convolution_param {
    num_output: 256
    pad: 0
    kernel_size: 3
    stride: 1
    weight_filler {
      type: "xavier"
    }
    bias_filler {
      type: "constant"
      value: 0
    }
  }
}
layer {
  name: "conv8_2_relu"
  type: "ReLU"
  bottom: "conv8_2"
  top: "conv8_2"
}
layer {
  name: "conv9_1"
  type: "Convolution"
  bottom: "conv8_2"
  top: "conv9_1"
  param {
    lr_mult: 1
    decay_mult: 1
  }
  param {
    lr_mult: 2
    decay_mult: 0
  }
  convolution_param {
    num_output: 128
    pad: 0
    kernel_size: 1
    stride: 1
    weight_filler {
      type: "xavier"
    }
    bias_filler {
      type: "constant"
      value: 0
    }
  }
}
layer {
  name: "conv9_1_relu"
  type: "ReLU"
  bottom: "conv9_1"
  top: "conv9_1"
}
layer {
  name: "conv9_2"
  type: "Convolution"
  bottom: "conv9_1"
  top: "conv9_2"
  param {
    lr_mult: 1
    decay_mult: 1
  }
  param {
    lr_mult: 2
    decay_mult: 0
  }
  convolution_param {
    num_output: 256
    pad: 0
    kernel_size: 3
    stride: 1
    weight_filler {
      type: "xavier"
    }
    bias_filler {
      type: "constant"
      value: 0
    }
  }
}
layer {
  name: "conv9_2_relu"
  type: "ReLU"
  bottom: "conv9_2"
  top: "conv9_2"
}
layer {
  name: "conv4_3_norm"
  type: "Normalize"
  bottom: "conv4_3"
  top: "conv4_3_norm"
  norm_param {
    across_spatial: false
    scale_filler {
      type: "constant"
      value: 20
    }
    channel_shared: false
  }
}
layer {
  name: "conv4_3_norm_mbox_loc"
  type: "Convolution"
  bottom: "conv4_3_norm"
  top: "conv4_3_norm_mbox_loc"
  param {
    lr_mult: 1
    decay_mult: 1
  }
  param {
    lr_mult: 2
    decay_mult: 0
  }
  convolution_param {
    num_output: 16
    pad: 1
    kernel_size: 3
    stride: 1
    weight_filler {
      type: "xavier"
    }
    bias_filler {
      type: "constant"
      value: 0
    }
  }
}
layer {
  name: "conv4_3_norm_mbox_loc_perm"
  type: "Permute"
  bottom: "conv4_3_norm_mbox_loc"
  top: "conv4_3_norm_mbox_loc_perm"
  permute_param {
    order: 0
    order: 2
    order: 3
    order: 1
  }
}
layer {
  name: "conv4_3_norm_mbox_loc_flat"
  type: "Flatten"
  bottom: "conv4_3_norm_mbox_loc_perm"
  top: "conv4_3_norm_mbox_loc_flat"
  flatten_param {
    axis: 1
  }
}
layer {
  name: "conv4_3_norm_mbox_conf"
  type: "Convolution"
  bottom: "conv4_3_norm"
  top: "conv4_3_norm_mbox_conf"
  param {
    lr_mult: 1
    decay_mult: 1
  }
  param {
    lr_mult: 2
    decay_mult: 0
  }
  convolution_param {
    num_output: 8
    pad: 1
    kernel_size: 3
    stride: 1
    weight_filler {
      type: "xavier"
    }
    bias_filler {
      type: "constant"
      value: 0
    }
  }
}
layer {
  name: "conv4_3_norm_mbox_conf_perm"
  type: "Permute"
  bottom: "conv4_3_norm_mbox_conf"
  top: "conv4_3_norm_mbox_conf_perm"
  permute_param {
    order: 0
    order: 2
    order: 3
    order: 1
  }
}
layer {
  name: "conv4_3_norm_mbox_conf_flat"
  type: "Flatten"
  bottom: "conv4_3_norm_mbox_conf_perm"
  top: "conv4_3_norm_mbox_conf_flat"
  flatten_param {
    axis: 1
  }
}
layer {
  name: "conv4_3_norm_mbox_priorbox"
  type: "PriorBox"
  bottom: "conv4_3_norm"
  bottom: "data"
  top: "conv4_3_norm_mbox_priorbox"
  prior_box_param {
    min_size: 30
    max_size: 60
    aspect_ratio: 2
    flip: true
    clip: false
    variance: 0.1
    variance: 0.1
    variance: 0.2
    variance: 0.2
    step: 8
    offset: 0.5
  }
}
layer {
  name: "fc7_mbox_loc"
  type: "Convolution"
  bottom: "fc7"
  top: "fc7_mbox_loc"
  param {
    lr_mult: 1
    decay_mult: 1
  }
  param {
    lr_mult: 2
    decay_mult: 0
  }
  convolution_param {
    num_output: 24
    pad: 1
    kernel_size: 3
    stride: 1
    weight_filler {
      type: "xavier"
    }
    bias_filler {
      type: "constant"
      value: 0
    }
  }
}
layer {
  name: "fc7_mbox_loc_perm"
  type: "Permute"
  bottom: "fc7_mbox_loc"
  top: "fc7_mbox_loc_perm"
  permute_param {
    order: 0
    order: 2
    order: 3
    order: 1
  }
}
layer {
  name: "fc7_mbox_loc_flat"
  type: "Flatten"
  bottom: "fc7_mbox_loc_perm"
  top: "fc7_mbox_loc_flat"
  flatten_param {
    axis: 1
  }
}
layer {
  name: "fc7_mbox_conf"
  type: "Convolution"
  bottom: "fc7"
  top: "fc7_mbox_conf"
  param {
    lr_mult: 1
    decay_mult: 1
  }
  param {
    lr_mult: 2
    decay_mult: 0
  }
  convolution_param {
    num_output: 12
    pad: 1
    kernel_size: 3
    stride: 1
    weight_filler {
      type: "xavier"
    }
    bias_filler {
      type: "constant"
      value: 0
    }
  }
}
layer {
  name: "fc7_mbox_conf_perm"
  type: "Permute"
  bottom: "fc7_mbox_conf"
  top: "fc7_mbox_conf_perm"
  permute_param {
    order: 0
    order: 2
    order: 3
    order: 1
  }
}
layer {
  name: "fc7_mbox_conf_flat"
  type: "Flatten"
  bottom: "fc7_mbox_conf_perm"
  top: "fc7_mbox_conf_flat"
  flatten_param {
    axis: 1
  }
}
layer {
  name: "fc7_mbox_priorbox"
  type: "PriorBox"
  bottom: "fc7"
  bottom: "data"
  top: "fc7_mbox_priorbox"
  prior_box_param {
    min_size: 60
    max_size: 111
    aspect_ratio: 2
    aspect_ratio: 3
    flip: true
    clip: false
    variance: 0.1
    variance: 0.1
    variance: 0.2
    variance: 0.2
    step: 16
    offset: 0.5
  }
}
layer {
  name: "conv6_2_mbox_loc"
  type: "Convolution"
  bottom: "conv6_2"
  top: "conv6_2_mbox_loc"
  param {
    lr_mult: 1
    decay_mult: 1
  }
  param {
    lr_mult: 2
    decay_mult: 0
  }
  convolution_param {
    num_output: 24
    pad: 1
    kernel_size: 3
    stride: 1
    weight_filler {
      type: "xavier"
    }
    bias_filler {
      type: "constant"
      value: 0
    }
  }
}
layer {
  name: "conv6_2_mbox_loc_perm"
  type: "Permute"
  bottom: "conv6_2_mbox_loc"
  top: "conv6_2_mbox_loc_perm"
  permute_param {
    order: 0
    order: 2
    order: 3
    order: 1
  }
}
layer {
  name: "conv6_2_mbox_loc_flat"
  type: "Flatten"
  bottom: "conv6_2_mbox_loc_perm"
  top: "conv6_2_mbox_loc_flat"
  flatten_param {
    axis: 1
  }
}
layer {
  name: "conv6_2_mbox_conf"
  type: "Convolution"
  bottom: "conv6_2"
  top: "conv6_2_mbox_conf"
  param {
    lr_mult: 1
    decay_mult: 1
  }
  param {
    lr_mult: 2
    decay_mult: 0
  }
  convolution_param {
    num_output: 12
    pad: 1
    kernel_size: 3
    stride: 1
    weight_filler {
      type: "xavier"
    }
    bias_filler {
      type: "constant"
      value: 0
    }
  }
}
layer {
  name: "conv6_2_mbox_conf_perm"
  type: "Permute"
  bottom: "conv6_2_mbox_conf"
  top: "conv6_2_mbox_conf_perm"
  permute_param {
    order: 0
    order: 2
    order: 3
    order: 1
  }
}
layer {
  name: "conv6_2_mbox_conf_flat"
  type: "Flatten"
  bottom: "conv6_2_mbox_conf_perm"
  top: "conv6_2_mbox_conf_flat"
  flatten_param {
    axis: 1
  }
}
layer {
  name: "conv6_2_mbox_priorbox"
  type: "PriorBox"
  bottom: "conv6_2"
  bottom: "data"
  top: "conv6_2_mbox_priorbox"
  prior_box_param {
    min_size: 111
    max_size: 162
    aspect_ratio: 2
    aspect_ratio: 3
    flip: true
    clip: false
    variance: 0.1
    variance: 0.1
    variance: 0.2
    variance: 0.2
    step: 32
    offset: 0.5
  }
}
layer {
  name: "conv7_2_mbox_loc"
  type: "Convolution"
  bottom: "conv7_2"
  top: "conv7_2_mbox_loc"
  param {
    lr_mult: 1
    decay_mult: 1
  }
  param {
    lr_mult: 2
    decay_mult: 0
  }
  convolution_param {
    num_output: 24
    pad: 1
    kernel_size: 3
    stride: 1
    weight_filler {
      type: "xavier"
    }
    bias_filler {
      type: "constant"
      value: 0
    }
  }
}
layer {
  name: "conv7_2_mbox_loc_perm"
  type: "Permute"
  bottom: "conv7_2_mbox_loc"
  top: "conv7_2_mbox_loc_perm"
  permute_param {
    order: 0
    order: 2
    order: 3
    order: 1
  }
}
layer {
  name: "conv7_2_mbox_loc_flat"
  type: "Flatten"
  bottom: "conv7_2_mbox_loc_perm"
  top: "conv7_2_mbox_loc_flat"
  flatten_param {
    axis: 1
  }
}
layer {
  name: "conv7_2_mbox_conf"
  type: "Convolution"
  bottom: "conv7_2"
  top: "conv7_2_mbox_conf"
  param {
    lr_mult: 1
    decay_mult: 1
  }
  param {
    lr_mult: 2
    decay_mult: 0
  }
  convolution_param {
    num_output: 12
    pad: 1
    kernel_size: 3
    stride: 1
    weight_filler {
      type: "xavier"
    }
    bias_filler {
      type: "constant"
      value: 0
    }
  }
}
layer {
  name: "conv7_2_mbox_conf_perm"
  type: "Permute"
  bottom: "conv7_2_mbox_conf"
  top: "conv7_2_mbox_conf_perm"
  permute_param {
    order: 0
    order: 2
    order: 3
    order: 1
  }
}
layer {
  name: "conv7_2_mbox_conf_flat"
  type: "Flatten"
  bottom: "conv7_2_mbox_conf_perm"
  top: "conv7_2_mbox_conf_flat"
  flatten_param {
    axis: 1
  }
}
layer {
  name: "conv7_2_mbox_priorbox"
  type: "PriorBox"
  bottom: "conv7_2"
  bottom: "data"
  top: "conv7_2_mbox_priorbox"
  prior_box_param {
    min_size: 162
    max_size: 213
    aspect_ratio: 2
    aspect_ratio: 3
    flip: true
    clip: false
    variance: 0.1
    variance: 0.1
    variance: 0.2
    variance: 0.2
    step: 64
    offset: 0.5
  }
}
layer {
  name: "conv8_2_mbox_loc"
  type: "Convolution"
  bottom: "conv8_2"
  top: "conv8_2_mbox_loc"
  param {
    lr_mult: 1
    decay_mult: 1
  }
  param {
    lr_mult: 2
    decay_mult: 0
  }
  convolution_param {
    num_output: 16
    pad: 1
    kernel_size: 3
    stride: 1
    weight_filler {
      type: "xavier"
    }
    bias_filler {
      type: "constant"
      value: 0
    }
  }
}
layer {
  name: "conv8_2_mbox_loc_perm"
  type: "Permute"
  bottom: "conv8_2_mbox_loc"
  top: "conv8_2_mbox_loc_perm"
  permute_param {
    order: 0
    order: 2
    order: 3
    order: 1
  }
}
layer {
  name: "conv8_2_mbox_loc_flat"
  type: "Flatten"
  bottom: "conv8_2_mbox_loc_perm"
  top: "conv8_2_mbox_loc_flat"
  flatten_param {
    axis: 1
  }
}
layer {
  name: "conv8_2_mbox_conf"
  type: "Convolution"
  bottom: "conv8_2"
  top: "conv8_2_mbox_conf"
  param {
    lr_mult: 1
    decay_mult: 1
  }
  param {
    lr_mult: 2
    decay_mult: 0
  }
  convolution_param {
    num_output: 8
    pad: 1
    kernel_size: 3
    stride: 1
    weight_filler {
      type: "xavier"
    }
    bias_filler {
      type: "constant"
      value: 0
    }
  }
}
layer {
  name: "conv8_2_mbox_conf_perm"
  type: "Permute"
  bottom: "conv8_2_mbox_conf"
  top: "conv8_2_mbox_conf_perm"
  permute_param {
    order: 0
    order: 2
    order: 3
    order: 1
  }
}
layer {
  name: "conv8_2_mbox_conf_flat"
  type: "Flatten"
  bottom: "conv8_2_mbox_conf_perm"
  top: "conv8_2_mbox_conf_flat"
  flatten_param {
    axis: 1
  }
}
layer {
  name: "conv8_2_mbox_priorbox"
  type: "PriorBox"
  bottom: "conv8_2"
  bottom: "data"
  top: "conv8_2_mbox_priorbox"
  prior_box_param {
    min_size: 213
    max_size: 264
    aspect_ratio: 2
    flip: true
    clip: false
    variance: 0.1
    variance: 0.1
    variance: 0.2
    variance: 0.2
    step: 100
    offset: 0.5
  }
}
layer {
  name: "conv9_2_mbox_loc"
  type: "Convolution"
  bottom: "conv9_2"
  top: "conv9_2_mbox_loc"
  param {
    lr_mult: 1
    decay_mult: 1
  }
  param {
    lr_mult: 2
    decay_mult: 0
  }
  convolution_param {
    num_output: 16
    pad: 1
    kernel_size: 3
    stride: 1
    weight_filler {
      type: "xavier"
    }
    bias_filler {
      type: "constant"
      value: 0
    }
  }
}
layer {
  name: "conv9_2_mbox_loc_perm"
  type: "Permute"
  bottom: "conv9_2_mbox_loc"
  top: "conv9_2_mbox_loc_perm"
  permute_param {
    order: 0
    order: 2
    order: 3
    order: 1
  }
}
layer {
  name: "conv9_2_mbox_loc_flat"
  type: "Flatten"
  bottom: "conv9_2_mbox_loc_perm"
  top: "conv9_2_mbox_loc_flat"
  flatten_param {
    axis: 1
  }
}
layer {
  name: "conv9_2_mbox_conf"
  type: "Convolution"
  bottom: "conv9_2"
  top: "conv9_2_mbox_conf"
  param {
    lr_mult: 1
    decay_mult: 1
  }
  param {
    lr_mult: 2
    decay_mult: 0
  }
  convolution_param {
    num_output: 8
    pad: 1
    kernel_size: 3
    stride: 1
    weight_filler {
      type: "xavier"
    }
    bias_filler {
      type: "constant"
      value: 0
    }
  }
}
layer {
  name: "conv9_2_mbox_conf_perm"
  type: "Permute"
  bottom: "conv9_2_mbox_conf"
  top: "conv9_2_mbox_conf_perm"
  permute_param {
    order: 0
    order: 2
    order: 3
    order: 1
  }
}
layer {
  name: "conv9_2_mbox_conf_flat"
  type: "Flatten"
  bottom: "conv9_2_mbox_conf_perm"
  top: "conv9_2_mbox_conf_flat"
  flatten_param {
    axis: 1
  }
}
layer {
  name: "conv9_2_mbox_priorbox"
  type: "PriorBox"
  bottom: "conv9_2"
  bottom: "data"
  top: "conv9_2_mbox_priorbox"
  prior_box_param {
    min_size: 264
    max_size: 315
    aspect_ratio: 2
    flip: true
    clip: false
    variance: 0.1
    variance: 0.1
    variance: 0.2
    variance: 0.2
    step: 300
    offset: 0.5
  }
}
layer {
  name: "mbox_loc"
  type: "Concat"
  bottom: "conv4_3_norm_mbox_loc_flat"
  bottom: "fc7_mbox_loc_flat"
  bottom: "conv6_2_mbox_loc_flat"
  bottom: "conv7_2_mbox_loc_flat"
  bottom: "conv8_2_mbox_loc_flat"
  bottom: "conv9_2_mbox_loc_flat"
  top: "mbox_loc"
  concat_param {
    axis: 1
  }
}
layer {
  name: "mbox_conf"
  type: "Concat"
  bottom: "conv4_3_norm_mbox_conf_flat"
  bottom: "fc7_mbox_conf_flat"
  bottom: "conv6_2_mbox_conf_flat"
  bottom: "conv7_2_mbox_conf_flat"
  bottom: "conv8_2_mbox_conf_flat"
  bottom: "conv9_2_mbox_conf_flat"
  top: "mbox_conf"
  concat_param {
    axis: 1
  }
}
layer {
  name: "mbox_priorbox"
  type: "Concat"
  bottom: "conv4_3_norm_mbox_priorbox"
  bottom: "fc7_mbox_priorbox"
  bottom: "conv6_2_mbox_priorbox"
  bottom: "conv7_2_mbox_priorbox"
  bottom: "conv8_2_mbox_priorbox"
  bottom: "conv9_2_mbox_priorbox"
  top: "mbox_priorbox"
  concat_param {
    axis: 2
  }
}
layer {
  name: "mbox_conf_reshape"
  type: "Reshape"
  bottom: "mbox_conf"
  top: "mbox_conf_reshape"
  reshape_param {
    shape {
      dim: 0
      dim: -1
      dim: 2
    }
  }
}
layer {
  name: "mbox_conf_softmax"
  type: "Softmax"
  bottom: "mbox_conf_reshape"
  top: "mbox_conf_softmax"
  softmax_param {
    axis: 2
  }
}
layer {
  name: "mbox_conf_flatten"
  type: "Flatten"
  bottom: "mbox_conf_softmax"
  top: "mbox_conf_flatten"
  flatten_param {
    axis: 1
  }
}
layer {
  name: "detection_out"
  type: "DetectionOutput"
  bottom: "mbox_loc"
  bottom: "mbox_conf_flatten"
  bottom: "mbox_priorbox"
  top: "detection_out"
  include {
    phase: TEST
  }
  detection_output_param {
    num_classes: 2
    share_location: true
    background_label_id: 0
    nms_param {
      nms_threshold: 0.45
      top_k: 400
    }
    save_output_param {
      output_directory: "/home/shangzw/data/sharpen_tbs_v2.0/results/tbs/SSD_300x300/Main"
      output_name_prefix: "comp4_det_test_"
      output_format: "VOC"
      label_map_file: "data/sharpen_tbs_v2.0/labelmap_voc.prototxt"
      name_size_file: "data/sharpen_tbs_v2.0/test_name_size"
      num_test_image: 100
    }
    code_type: CENTER_SIZE
    keep_top_k: 200
    confidence_threshold: 0.01
  }
}
layer {
  name: "detection_eval"
  type: "DetectionEvaluate"
  bottom: "detection_out"
  bottom: "label"
  top: "detection_eval"
  include {
    phase: TEST
  }
  detection_evaluate_param {
    num_classes: 2
    background_label_id: 0
    overlap_threshold: 0.5
    evaluate_difficult_gt: false
    name_size_file: "data/sharpen_tbs_v2.0/test_name_size"
  }
}
I0608 17:25:21.573232 10448 layer_factory.hpp:77] Creating layer data
I0608 17:25:21.573288 10448 net.cpp:100] Creating Layer data
I0608 17:25:21.573314 10448 net.cpp:408] data -> data
I0608 17:25:21.573325 10448 net.cpp:408] data -> label
I0608 17:25:21.573741 10474 db_lmdb.cpp:35] Opened lmdb examples/sharpen_tbs_v2.0/sharpen_tbs_v2.0_test_lmdb
I0608 17:25:21.575278 10448 annotated_data_layer.cpp:62] output data size: 4,3,300,300
I0608 17:25:21.585028 10448 net.cpp:150] Setting up data
I0608 17:25:21.585048 10448 net.cpp:157] Top shape: 4 3 300 300 (1080000)
I0608 17:25:21.585053 10448 net.cpp:157] Top shape: 1 1 1 8 (8)
I0608 17:25:21.585057 10448 net.cpp:165] Memory required for data: 4320032
I0608 17:25:21.585062 10448 layer_factory.hpp:77] Creating layer data_data_0_split
I0608 17:25:21.585074 10448 net.cpp:100] Creating Layer data_data_0_split
I0608 17:25:21.585079 10448 net.cpp:434] data_data_0_split <- data
I0608 17:25:21.585088 10448 net.cpp:408] data_data_0_split -> data_data_0_split_0
I0608 17:25:21.585100 10448 net.cpp:408] data_data_0_split -> data_data_0_split_1
I0608 17:25:21.585108 10448 net.cpp:408] data_data_0_split -> data_data_0_split_2
I0608 17:25:21.585116 10448 net.cpp:408] data_data_0_split -> data_data_0_split_3
I0608 17:25:21.585124 10448 net.cpp:408] data_data_0_split -> data_data_0_split_4
I0608 17:25:21.585131 10448 net.cpp:408] data_data_0_split -> data_data_0_split_5
I0608 17:25:21.585137 10448 net.cpp:408] data_data_0_split -> data_data_0_split_6
I0608 17:25:21.585235 10448 net.cpp:150] Setting up data_data_0_split
I0608 17:25:21.585242 10448 net.cpp:157] Top shape: 4 3 300 300 (1080000)
I0608 17:25:21.585247 10448 net.cpp:157] Top shape: 4 3 300 300 (1080000)
I0608 17:25:21.585253 10448 net.cpp:157] Top shape: 4 3 300 300 (1080000)
I0608 17:25:21.585256 10448 net.cpp:157] Top shape: 4 3 300 300 (1080000)
I0608 17:25:21.585263 10448 net.cpp:157] Top shape: 4 3 300 300 (1080000)
I0608 17:25:21.585279 10448 net.cpp:157] Top shape: 4 3 300 300 (1080000)
I0608 17:25:21.585284 10448 net.cpp:157] Top shape: 4 3 300 300 (1080000)
I0608 17:25:21.585289 10448 net.cpp:165] Memory required for data: 34560032
I0608 17:25:21.585294 10448 layer_factory.hpp:77] Creating layer conv1_1
I0608 17:25:21.585312 10448 net.cpp:100] Creating Layer conv1_1
I0608 17:25:21.585317 10448 net.cpp:434] conv1_1 <- data_data_0_split_0
I0608 17:25:21.585324 10448 net.cpp:408] conv1_1 -> conv1_1
I0608 17:25:21.586484 10448 net.cpp:150] Setting up conv1_1
I0608 17:25:21.586494 10448 net.cpp:157] Top shape: 4 64 300 300 (23040000)
I0608 17:25:21.586498 10448 net.cpp:165] Memory required for data: 126720032
I0608 17:25:21.586508 10448 layer_factory.hpp:77] Creating layer relu1_1
I0608 17:25:21.586516 10448 net.cpp:100] Creating Layer relu1_1
I0608 17:25:21.586520 10448 net.cpp:434] relu1_1 <- conv1_1
I0608 17:25:21.586525 10448 net.cpp:395] relu1_1 -> conv1_1 (in-place)
I0608 17:25:21.586654 10448 net.cpp:150] Setting up relu1_1
I0608 17:25:21.586663 10448 net.cpp:157] Top shape: 4 64 300 300 (23040000)
I0608 17:25:21.586665 10448 net.cpp:165] Memory required for data: 218880032
I0608 17:25:21.586669 10448 layer_factory.hpp:77] Creating layer conv1_2
I0608 17:25:21.586678 10448 net.cpp:100] Creating Layer conv1_2
I0608 17:25:21.586683 10448 net.cpp:434] conv1_2 <- conv1_1
I0608 17:25:21.586689 10448 net.cpp:408] conv1_2 -> conv1_2
I0608 17:25:21.589726 10448 net.cpp:150] Setting up conv1_2
I0608 17:25:21.589738 10448 net.cpp:157] Top shape: 4 64 300 300 (23040000)
I0608 17:25:21.589742 10448 net.cpp:165] Memory required for data: 311040032
I0608 17:25:21.589753 10448 layer_factory.hpp:77] Creating layer relu1_2
I0608 17:25:21.589761 10448 net.cpp:100] Creating Layer relu1_2
I0608 17:25:21.589766 10448 net.cpp:434] relu1_2 <- conv1_2
I0608 17:25:21.589771 10448 net.cpp:395] relu1_2 -> conv1_2 (in-place)
I0608 17:25:21.590334 10448 net.cpp:150] Setting up relu1_2
I0608 17:25:21.590343 10448 net.cpp:157] Top shape: 4 64 300 300 (23040000)
I0608 17:25:21.590346 10448 net.cpp:165] Memory required for data: 403200032
I0608 17:25:21.590351 10448 layer_factory.hpp:77] Creating layer pool1
I0608 17:25:21.590358 10448 net.cpp:100] Creating Layer pool1
I0608 17:25:21.590363 10448 net.cpp:434] pool1 <- conv1_2
I0608 17:25:21.590368 10448 net.cpp:408] pool1 -> pool1
I0608 17:25:21.590411 10448 net.cpp:150] Setting up pool1
I0608 17:25:21.590417 10448 net.cpp:157] Top shape: 4 64 150 150 (5760000)
I0608 17:25:21.590421 10448 net.cpp:165] Memory required for data: 426240032
I0608 17:25:21.590425 10448 layer_factory.hpp:77] Creating layer conv2_1
I0608 17:25:21.590433 10448 net.cpp:100] Creating Layer conv2_1
I0608 17:25:21.590438 10448 net.cpp:434] conv2_1 <- pool1
I0608 17:25:21.590445 10448 net.cpp:408] conv2_1 -> conv2_1
I0608 17:25:21.591323 10448 net.cpp:150] Setting up conv2_1
I0608 17:25:21.591332 10448 net.cpp:157] Top shape: 4 128 150 150 (11520000)
I0608 17:25:21.591336 10448 net.cpp:165] Memory required for data: 472320032
I0608 17:25:21.591346 10448 layer_factory.hpp:77] Creating layer relu2_1
I0608 17:25:21.591353 10448 net.cpp:100] Creating Layer relu2_1
I0608 17:25:21.591358 10448 net.cpp:434] relu2_1 <- conv2_1
I0608 17:25:21.591364 10448 net.cpp:395] relu2_1 -> conv2_1 (in-place)
I0608 17:25:21.592003 10448 net.cpp:150] Setting up relu2_1
I0608 17:25:21.592012 10448 net.cpp:157] Top shape: 4 128 150 150 (11520000)
I0608 17:25:21.592017 10448 net.cpp:165] Memory required for data: 518400032
I0608 17:25:21.592020 10448 layer_factory.hpp:77] Creating layer conv2_2
I0608 17:25:21.592043 10448 net.cpp:100] Creating Layer conv2_2
I0608 17:25:21.592048 10448 net.cpp:434] conv2_2 <- conv2_1
I0608 17:25:21.592056 10448 net.cpp:408] conv2_2 -> conv2_2
I0608 17:25:21.594125 10448 net.cpp:150] Setting up conv2_2
I0608 17:25:21.594135 10448 net.cpp:157] Top shape: 4 128 150 150 (11520000)
I0608 17:25:21.594139 10448 net.cpp:165] Memory required for data: 564480032
I0608 17:25:21.594147 10448 layer_factory.hpp:77] Creating layer relu2_2
I0608 17:25:21.594163 10448 net.cpp:100] Creating Layer relu2_2
I0608 17:25:21.594168 10448 net.cpp:434] relu2_2 <- conv2_2
I0608 17:25:21.594174 10448 net.cpp:395] relu2_2 -> conv2_2 (in-place)
I0608 17:25:21.594327 10448 net.cpp:150] Setting up relu2_2
I0608 17:25:21.594334 10448 net.cpp:157] Top shape: 4 128 150 150 (11520000)
I0608 17:25:21.594338 10448 net.cpp:165] Memory required for data: 610560032
I0608 17:25:21.594341 10448 layer_factory.hpp:77] Creating layer pool2
I0608 17:25:21.594349 10448 net.cpp:100] Creating Layer pool2
I0608 17:25:21.594353 10448 net.cpp:434] pool2 <- conv2_2
I0608 17:25:21.594359 10448 net.cpp:408] pool2 -> pool2
I0608 17:25:21.594400 10448 net.cpp:150] Setting up pool2
I0608 17:25:21.594408 10448 net.cpp:157] Top shape: 4 128 75 75 (2880000)
I0608 17:25:21.594410 10448 net.cpp:165] Memory required for data: 622080032
I0608 17:25:21.594414 10448 layer_factory.hpp:77] Creating layer conv3_1
I0608 17:25:21.594424 10448 net.cpp:100] Creating Layer conv3_1
I0608 17:25:21.594427 10448 net.cpp:434] conv3_1 <- pool2
I0608 17:25:21.594434 10448 net.cpp:408] conv3_1 -> conv3_1
I0608 17:25:21.597798 10448 net.cpp:150] Setting up conv3_1
I0608 17:25:21.597811 10448 net.cpp:157] Top shape: 4 256 75 75 (5760000)
I0608 17:25:21.597816 10448 net.cpp:165] Memory required for data: 645120032
I0608 17:25:21.597829 10448 layer_factory.hpp:77] Creating layer relu3_1
I0608 17:25:21.597846 10448 net.cpp:100] Creating Layer relu3_1
I0608 17:25:21.597851 10448 net.cpp:434] relu3_1 <- conv3_1
I0608 17:25:21.597858 10448 net.cpp:395] relu3_1 -> conv3_1 (in-place)
I0608 17:25:21.598006 10448 net.cpp:150] Setting up relu3_1
I0608 17:25:21.598013 10448 net.cpp:157] Top shape: 4 256 75 75 (5760000)
I0608 17:25:21.598017 10448 net.cpp:165] Memory required for data: 668160032
I0608 17:25:21.598021 10448 layer_factory.hpp:77] Creating layer conv3_2
I0608 17:25:21.598031 10448 net.cpp:100] Creating Layer conv3_2
I0608 17:25:21.598036 10448 net.cpp:434] conv3_2 <- conv3_1
I0608 17:25:21.598043 10448 net.cpp:408] conv3_2 -> conv3_2
I0608 17:25:21.602622 10448 net.cpp:150] Setting up conv3_2
I0608 17:25:21.602639 10448 net.cpp:157] Top shape: 4 256 75 75 (5760000)
I0608 17:25:21.602643 10448 net.cpp:165] Memory required for data: 691200032
I0608 17:25:21.602650 10448 layer_factory.hpp:77] Creating layer relu3_2
I0608 17:25:21.602659 10448 net.cpp:100] Creating Layer relu3_2
I0608 17:25:21.602663 10448 net.cpp:434] relu3_2 <- conv3_2
I0608 17:25:21.602669 10448 net.cpp:395] relu3_2 -> conv3_2 (in-place)
I0608 17:25:21.602816 10448 net.cpp:150] Setting up relu3_2
I0608 17:25:21.602824 10448 net.cpp:157] Top shape: 4 256 75 75 (5760000)
I0608 17:25:21.602828 10448 net.cpp:165] Memory required for data: 714240032
I0608 17:25:21.602831 10448 layer_factory.hpp:77] Creating layer conv3_3
I0608 17:25:21.602844 10448 net.cpp:100] Creating Layer conv3_3
I0608 17:25:21.602849 10448 net.cpp:434] conv3_3 <- conv3_2
I0608 17:25:21.602855 10448 net.cpp:408] conv3_3 -> conv3_3
I0608 17:25:21.607456 10448 net.cpp:150] Setting up conv3_3
I0608 17:25:21.607472 10448 net.cpp:157] Top shape: 4 256 75 75 (5760000)
I0608 17:25:21.607476 10448 net.cpp:165] Memory required for data: 737280032
I0608 17:25:21.607484 10448 layer_factory.hpp:77] Creating layer relu3_3
I0608 17:25:21.607492 10448 net.cpp:100] Creating Layer relu3_3
I0608 17:25:21.607497 10448 net.cpp:434] relu3_3 <- conv3_3
I0608 17:25:21.607506 10448 net.cpp:395] relu3_3 -> conv3_3 (in-place)
I0608 17:25:21.607655 10448 net.cpp:150] Setting up relu3_3
I0608 17:25:21.607661 10448 net.cpp:157] Top shape: 4 256 75 75 (5760000)
I0608 17:25:21.607664 10448 net.cpp:165] Memory required for data: 760320032
I0608 17:25:21.607668 10448 layer_factory.hpp:77] Creating layer pool3
I0608 17:25:21.607676 10448 net.cpp:100] Creating Layer pool3
I0608 17:25:21.607688 10448 net.cpp:434] pool3 <- conv3_3
I0608 17:25:21.607694 10448 net.cpp:408] pool3 -> pool3
I0608 17:25:21.607740 10448 net.cpp:150] Setting up pool3
I0608 17:25:21.607746 10448 net.cpp:157] Top shape: 4 256 38 38 (1478656)
I0608 17:25:21.607761 10448 net.cpp:165] Memory required for data: 766234656
I0608 17:25:21.607765 10448 layer_factory.hpp:77] Creating layer conv4_1
I0608 17:25:21.607776 10448 net.cpp:100] Creating Layer conv4_1
I0608 17:25:21.607780 10448 net.cpp:434] conv4_1 <- pool3
I0608 17:25:21.607787 10448 net.cpp:408] conv4_1 -> conv4_1
I0608 17:25:21.615358 10448 net.cpp:150] Setting up conv4_1
I0608 17:25:21.615375 10448 net.cpp:157] Top shape: 4 512 38 38 (2957312)
I0608 17:25:21.615380 10448 net.cpp:165] Memory required for data: 778063904
I0608 17:25:21.615387 10448 layer_factory.hpp:77] Creating layer relu4_1
I0608 17:25:21.615397 10448 net.cpp:100] Creating Layer relu4_1
I0608 17:25:21.615417 10448 net.cpp:434] relu4_1 <- conv4_1
I0608 17:25:21.615423 10448 net.cpp:395] relu4_1 -> conv4_1 (in-place)
I0608 17:25:21.616243 10448 net.cpp:150] Setting up relu4_1
I0608 17:25:21.616252 10448 net.cpp:157] Top shape: 4 512 38 38 (2957312)
I0608 17:25:21.616255 10448 net.cpp:165] Memory required for data: 789893152
I0608 17:25:21.616261 10448 layer_factory.hpp:77] Creating layer conv4_2
I0608 17:25:21.616272 10448 net.cpp:100] Creating Layer conv4_2
I0608 17:25:21.616279 10448 net.cpp:434] conv4_2 <- conv4_1
I0608 17:25:21.616286 10448 net.cpp:408] conv4_2 -> conv4_2
I0608 17:25:21.629457 10448 net.cpp:150] Setting up conv4_2
I0608 17:25:21.629477 10448 net.cpp:157] Top shape: 4 512 38 38 (2957312)
I0608 17:25:21.629482 10448 net.cpp:165] Memory required for data: 801722400
I0608 17:25:21.629494 10448 layer_factory.hpp:77] Creating layer relu4_2
I0608 17:25:21.629518 10448 net.cpp:100] Creating Layer relu4_2
I0608 17:25:21.629539 10448 net.cpp:434] relu4_2 <- conv4_2
I0608 17:25:21.629546 10448 net.cpp:395] relu4_2 -> conv4_2 (in-place)
I0608 17:25:21.630457 10448 net.cpp:150] Setting up relu4_2
I0608 17:25:21.630481 10448 net.cpp:157] Top shape: 4 512 38 38 (2957312)
I0608 17:25:21.630484 10448 net.cpp:165] Memory required for data: 813551648
I0608 17:25:21.630488 10448 layer_factory.hpp:77] Creating layer conv4_3
I0608 17:25:21.630514 10448 net.cpp:100] Creating Layer conv4_3
I0608 17:25:21.630519 10448 net.cpp:434] conv4_3 <- conv4_2
I0608 17:25:21.630527 10448 net.cpp:408] conv4_3 -> conv4_3
I0608 17:25:21.643239 10448 net.cpp:150] Setting up conv4_3
I0608 17:25:21.643256 10448 net.cpp:157] Top shape: 4 512 38 38 (2957312)
I0608 17:25:21.643260 10448 net.cpp:165] Memory required for data: 825380896
I0608 17:25:21.643268 10448 layer_factory.hpp:77] Creating layer relu4_3
I0608 17:25:21.643292 10448 net.cpp:100] Creating Layer relu4_3
I0608 17:25:21.643296 10448 net.cpp:434] relu4_3 <- conv4_3
I0608 17:25:21.643306 10448 net.cpp:395] relu4_3 -> conv4_3 (in-place)
I0608 17:25:21.643470 10448 net.cpp:150] Setting up relu4_3
I0608 17:25:21.643476 10448 net.cpp:157] Top shape: 4 512 38 38 (2957312)
I0608 17:25:21.643479 10448 net.cpp:165] Memory required for data: 837210144
I0608 17:25:21.643483 10448 layer_factory.hpp:77] Creating layer conv4_3_relu4_3_0_split
I0608 17:25:21.643491 10448 net.cpp:100] Creating Layer conv4_3_relu4_3_0_split
I0608 17:25:21.643496 10448 net.cpp:434] conv4_3_relu4_3_0_split <- conv4_3
I0608 17:25:21.643502 10448 net.cpp:408] conv4_3_relu4_3_0_split -> conv4_3_relu4_3_0_split_0
I0608 17:25:21.643512 10448 net.cpp:408] conv4_3_relu4_3_0_split -> conv4_3_relu4_3_0_split_1
I0608 17:25:21.643565 10448 net.cpp:150] Setting up conv4_3_relu4_3_0_split
I0608 17:25:21.643575 10448 net.cpp:157] Top shape: 4 512 38 38 (2957312)
I0608 17:25:21.643579 10448 net.cpp:157] Top shape: 4 512 38 38 (2957312)
I0608 17:25:21.643584 10448 net.cpp:165] Memory required for data: 860868640
I0608 17:25:21.643587 10448 layer_factory.hpp:77] Creating layer pool4
I0608 17:25:21.643594 10448 net.cpp:100] Creating Layer pool4
I0608 17:25:21.643599 10448 net.cpp:434] pool4 <- conv4_3_relu4_3_0_split_0
I0608 17:25:21.643605 10448 net.cpp:408] pool4 -> pool4
I0608 17:25:21.643653 10448 net.cpp:150] Setting up pool4
I0608 17:25:21.643661 10448 net.cpp:157] Top shape: 4 512 19 19 (739328)
I0608 17:25:21.643663 10448 net.cpp:165] Memory required for data: 863825952
I0608 17:25:21.643679 10448 layer_factory.hpp:77] Creating layer conv5_1
I0608 17:25:21.643693 10448 net.cpp:100] Creating Layer conv5_1
I0608 17:25:21.643699 10448 net.cpp:434] conv5_1 <- pool4
I0608 17:25:21.643707 10448 net.cpp:408] conv5_1 -> conv5_1
I0608 17:25:21.656806 10448 net.cpp:150] Setting up conv5_1
I0608 17:25:21.656824 10448 net.cpp:157] Top shape: 4 512 19 19 (739328)
I0608 17:25:21.656828 10448 net.cpp:165] Memory required for data: 866783264
I0608 17:25:21.656836 10448 layer_factory.hpp:77] Creating layer relu5_1
I0608 17:25:21.656862 10448 net.cpp:100] Creating Layer relu5_1
I0608 17:25:21.656867 10448 net.cpp:434] relu5_1 <- conv5_1
I0608 17:25:21.656888 10448 net.cpp:395] relu5_1 -> conv5_1 (in-place)
I0608 17:25:21.657057 10448 net.cpp:150] Setting up relu5_1
I0608 17:25:21.657080 10448 net.cpp:157] Top shape: 4 512 19 19 (739328)
I0608 17:25:21.657084 10448 net.cpp:165] Memory required for data: 869740576
I0608 17:25:21.657088 10448 layer_factory.hpp:77] Creating layer conv5_2
I0608 17:25:21.657100 10448 net.cpp:100] Creating Layer conv5_2
I0608 17:25:21.657105 10448 net.cpp:434] conv5_2 <- conv5_1
I0608 17:25:21.657111 10448 net.cpp:408] conv5_2 -> conv5_2
I0608 17:25:21.670184 10448 net.cpp:150] Setting up conv5_2
I0608 17:25:21.670199 10448 net.cpp:157] Top shape: 4 512 19 19 (739328)
I0608 17:25:21.670203 10448 net.cpp:165] Memory required for data: 872697888
I0608 17:25:21.670212 10448 layer_factory.hpp:77] Creating layer relu5_2
I0608 17:25:21.670222 10448 net.cpp:100] Creating Layer relu5_2
I0608 17:25:21.670241 10448 net.cpp:434] relu5_2 <- conv5_2
I0608 17:25:21.670250 10448 net.cpp:395] relu5_2 -> conv5_2 (in-place)
I0608 17:25:21.670429 10448 net.cpp:150] Setting up relu5_2
I0608 17:25:21.670450 10448 net.cpp:157] Top shape: 4 512 19 19 (739328)
I0608 17:25:21.670454 10448 net.cpp:165] Memory required for data: 875655200
I0608 17:25:21.670459 10448 layer_factory.hpp:77] Creating layer conv5_3
I0608 17:25:21.670469 10448 net.cpp:100] Creating Layer conv5_3
I0608 17:25:21.670487 10448 net.cpp:434] conv5_3 <- conv5_2
I0608 17:25:21.670495 10448 net.cpp:408] conv5_3 -> conv5_3
I0608 17:25:21.683792 10448 net.cpp:150] Setting up conv5_3
I0608 17:25:21.683809 10448 net.cpp:157] Top shape: 4 512 19 19 (739328)
I0608 17:25:21.683812 10448 net.cpp:165] Memory required for data: 878612512
I0608 17:25:21.683820 10448 layer_factory.hpp:77] Creating layer relu5_3
I0608 17:25:21.683850 10448 net.cpp:100] Creating Layer relu5_3
I0608 17:25:21.683856 10448 net.cpp:434] relu5_3 <- conv5_3
I0608 17:25:21.683863 10448 net.cpp:395] relu5_3 -> conv5_3 (in-place)
I0608 17:25:21.684028 10448 net.cpp:150] Setting up relu5_3
I0608 17:25:21.684036 10448 net.cpp:157] Top shape: 4 512 19 19 (739328)
I0608 17:25:21.684039 10448 net.cpp:165] Memory required for data: 881569824
I0608 17:25:21.684057 10448 layer_factory.hpp:77] Creating layer pool5
I0608 17:25:21.684064 10448 net.cpp:100] Creating Layer pool5
I0608 17:25:21.684069 10448 net.cpp:434] pool5 <- conv5_3
I0608 17:25:21.684077 10448 net.cpp:408] pool5 -> pool5
I0608 17:25:21.684134 10448 net.cpp:150] Setting up pool5
I0608 17:25:21.684141 10448 net.cpp:157] Top shape: 4 512 19 19 (739328)
I0608 17:25:21.684145 10448 net.cpp:165] Memory required for data: 884527136
I0608 17:25:21.684149 10448 layer_factory.hpp:77] Creating layer fc6
I0608 17:25:21.684175 10448 net.cpp:100] Creating Layer fc6
I0608 17:25:21.684178 10448 net.cpp:434] fc6 <- pool5
I0608 17:25:21.684185 10448 net.cpp:408] fc6 -> fc6
I0608 17:25:21.708708 10448 net.cpp:150] Setting up fc6
I0608 17:25:21.708725 10448 net.cpp:157] Top shape: 4 1024 19 19 (1478656)
I0608 17:25:21.708729 10448 net.cpp:165] Memory required for data: 890441760
I0608 17:25:21.708735 10448 layer_factory.hpp:77] Creating layer relu6
I0608 17:25:21.708744 10448 net.cpp:100] Creating Layer relu6
I0608 17:25:21.708762 10448 net.cpp:434] relu6 <- fc6
I0608 17:25:21.708770 10448 net.cpp:395] relu6 -> fc6 (in-place)
I0608 17:25:21.709671 10448 net.cpp:150] Setting up relu6
I0608 17:25:21.709681 10448 net.cpp:157] Top shape: 4 1024 19 19 (1478656)
I0608 17:25:21.709709 10448 net.cpp:165] Memory required for data: 896356384
I0608 17:25:21.709713 10448 layer_factory.hpp:77] Creating layer fc7
I0608 17:25:21.709728 10448 net.cpp:100] Creating Layer fc7
I0608 17:25:21.709731 10448 net.cpp:434] fc7 <- fc6
I0608 17:25:21.709739 10448 net.cpp:408] fc7 -> fc7
I0608 17:25:21.716260 10448 net.cpp:150] Setting up fc7
I0608 17:25:21.716277 10448 net.cpp:157] Top shape: 4 1024 19 19 (1478656)
I0608 17:25:21.716280 10448 net.cpp:165] Memory required for data: 902271008
I0608 17:25:21.716289 10448 layer_factory.hpp:77] Creating layer relu7
I0608 17:25:21.716310 10448 net.cpp:100] Creating Layer relu7
I0608 17:25:21.716315 10448 net.cpp:434] relu7 <- fc7
I0608 17:25:21.716322 10448 net.cpp:395] relu7 -> fc7 (in-place)
I0608 17:25:21.716473 10448 net.cpp:150] Setting up relu7
I0608 17:25:21.716495 10448 net.cpp:157] Top shape: 4 1024 19 19 (1478656)
I0608 17:25:21.716497 10448 net.cpp:165] Memory required for data: 908185632
I0608 17:25:21.716501 10448 layer_factory.hpp:77] Creating layer fc7_relu7_0_split
I0608 17:25:21.716508 10448 net.cpp:100] Creating Layer fc7_relu7_0_split
I0608 17:25:21.716513 10448 net.cpp:434] fc7_relu7_0_split <- fc7
I0608 17:25:21.716519 10448 net.cpp:408] fc7_relu7_0_split -> fc7_relu7_0_split_0
I0608 17:25:21.716527 10448 net.cpp:408] fc7_relu7_0_split -> fc7_relu7_0_split_1
I0608 17:25:21.716554 10448 net.cpp:408] fc7_relu7_0_split -> fc7_relu7_0_split_2
I0608 17:25:21.716575 10448 net.cpp:408] fc7_relu7_0_split -> fc7_relu7_0_split_3
I0608 17:25:21.716644 10448 net.cpp:150] Setting up fc7_relu7_0_split
I0608 17:25:21.716650 10448 net.cpp:157] Top shape: 4 1024 19 19 (1478656)
I0608 17:25:21.716655 10448 net.cpp:157] Top shape: 4 1024 19 19 (1478656)
I0608 17:25:21.716660 10448 net.cpp:157] Top shape: 4 1024 19 19 (1478656)
I0608 17:25:21.716665 10448 net.cpp:157] Top shape: 4 1024 19 19 (1478656)
I0608 17:25:21.716668 10448 net.cpp:165] Memory required for data: 931844128
I0608 17:25:21.716686 10448 layer_factory.hpp:77] Creating layer conv6_1
I0608 17:25:21.716696 10448 net.cpp:100] Creating Layer conv6_1
I0608 17:25:21.716701 10448 net.cpp:434] conv6_1 <- fc7_relu7_0_split_0
I0608 17:25:21.716708 10448 net.cpp:408] conv6_1 -> conv6_1
I0608 17:25:21.720067 10448 net.cpp:150] Setting up conv6_1
I0608 17:25:21.720078 10448 net.cpp:157] Top shape: 4 256 19 19 (369664)
I0608 17:25:21.720084 10448 net.cpp:165] Memory required for data: 933322784
I0608 17:25:21.720093 10448 layer_factory.hpp:77] Creating layer conv6_1_relu
I0608 17:25:21.720108 10448 net.cpp:100] Creating Layer conv6_1_relu
I0608 17:25:21.720113 10448 net.cpp:434] conv6_1_relu <- conv6_1
I0608 17:25:21.720119 10448 net.cpp:395] conv6_1_relu -> conv6_1 (in-place)
I0608 17:25:21.720280 10448 net.cpp:150] Setting up conv6_1_relu
I0608 17:25:21.720288 10448 net.cpp:157] Top shape: 4 256 19 19 (369664)
I0608 17:25:21.720290 10448 net.cpp:165] Memory required for data: 934801440
I0608 17:25:21.720294 10448 layer_factory.hpp:77] Creating layer conv6_2
I0608 17:25:21.720320 10448 net.cpp:100] Creating Layer conv6_2
I0608 17:25:21.720324 10448 net.cpp:434] conv6_2 <- conv6_1
I0608 17:25:21.720345 10448 net.cpp:408] conv6_2 -> conv6_2
I0608 17:25:21.727658 10448 net.cpp:150] Setting up conv6_2
I0608 17:25:21.727676 10448 net.cpp:157] Top shape: 4 512 10 10 (204800)
I0608 17:25:21.727679 10448 net.cpp:165] Memory required for data: 935620640
I0608 17:25:21.727694 10448 layer_factory.hpp:77] Creating layer conv6_2_relu
I0608 17:25:21.727736 10448 net.cpp:100] Creating Layer conv6_2_relu
I0608 17:25:21.727741 10448 net.cpp:434] conv6_2_relu <- conv6_2
I0608 17:25:21.727749 10448 net.cpp:395] conv6_2_relu -> conv6_2 (in-place)
I0608 17:25:21.727900 10448 net.cpp:150] Setting up conv6_2_relu
I0608 17:25:21.727908 10448 net.cpp:157] Top shape: 4 512 10 10 (204800)
I0608 17:25:21.727911 10448 net.cpp:165] Memory required for data: 936439840
I0608 17:25:21.727916 10448 layer_factory.hpp:77] Creating layer conv6_2_conv6_2_relu_0_split
I0608 17:25:21.727921 10448 net.cpp:100] Creating Layer conv6_2_conv6_2_relu_0_split
I0608 17:25:21.727951 10448 net.cpp:434] conv6_2_conv6_2_relu_0_split <- conv6_2
I0608 17:25:21.727972 10448 net.cpp:408] conv6_2_conv6_2_relu_0_split -> conv6_2_conv6_2_relu_0_split_0
I0608 17:25:21.727980 10448 net.cpp:408] conv6_2_conv6_2_relu_0_split -> conv6_2_conv6_2_relu_0_split_1
I0608 17:25:21.727988 10448 net.cpp:408] conv6_2_conv6_2_relu_0_split -> conv6_2_conv6_2_relu_0_split_2
I0608 17:25:21.727998 10448 net.cpp:408] conv6_2_conv6_2_relu_0_split -> conv6_2_conv6_2_relu_0_split_3
I0608 17:25:21.728065 10448 net.cpp:150] Setting up conv6_2_conv6_2_relu_0_split
I0608 17:25:21.728070 10448 net.cpp:157] Top shape: 4 512 10 10 (204800)
I0608 17:25:21.728075 10448 net.cpp:157] Top shape: 4 512 10 10 (204800)
I0608 17:25:21.728080 10448 net.cpp:157] Top shape: 4 512 10 10 (204800)
I0608 17:25:21.728085 10448 net.cpp:157] Top shape: 4 512 10 10 (204800)
I0608 17:25:21.728088 10448 net.cpp:165] Memory required for data: 939716640
I0608 17:25:21.728091 10448 layer_factory.hpp:77] Creating layer conv7_1
I0608 17:25:21.728103 10448 net.cpp:100] Creating Layer conv7_1
I0608 17:25:21.728107 10448 net.cpp:434] conv7_1 <- conv6_2_conv6_2_relu_0_split_0
I0608 17:25:21.728113 10448 net.cpp:408] conv7_1 -> conv7_1
I0608 17:25:21.729612 10448 net.cpp:150] Setting up conv7_1
I0608 17:25:21.729624 10448 net.cpp:157] Top shape: 4 128 10 10 (51200)
I0608 17:25:21.729627 10448 net.cpp:165] Memory required for data: 939921440
I0608 17:25:21.729635 10448 layer_factory.hpp:77] Creating layer conv7_1_relu
I0608 17:25:21.729642 10448 net.cpp:100] Creating Layer conv7_1_relu
I0608 17:25:21.729661 10448 net.cpp:434] conv7_1_relu <- conv7_1
I0608 17:25:21.729681 10448 net.cpp:395] conv7_1_relu -> conv7_1 (in-place)
I0608 17:25:21.729856 10448 net.cpp:150] Setting up conv7_1_relu
I0608 17:25:21.729862 10448 net.cpp:157] Top shape: 4 128 10 10 (51200)
I0608 17:25:21.729866 10448 net.cpp:165] Memory required for data: 940126240
I0608 17:25:21.729871 10448 layer_factory.hpp:77] Creating layer conv7_2
I0608 17:25:21.729895 10448 net.cpp:100] Creating Layer conv7_2
I0608 17:25:21.729900 10448 net.cpp:434] conv7_2 <- conv7_1
I0608 17:25:21.729923 10448 net.cpp:408] conv7_2 -> conv7_2
I0608 17:25:21.733265 10448 net.cpp:150] Setting up conv7_2
I0608 17:25:21.733278 10448 net.cpp:157] Top shape: 4 256 5 5 (25600)
I0608 17:25:21.733280 10448 net.cpp:165] Memory required for data: 940228640
I0608 17:25:21.733288 10448 layer_factory.hpp:77] Creating layer conv7_2_relu
I0608 17:25:21.733294 10448 net.cpp:100] Creating Layer conv7_2_relu
I0608 17:25:21.733322 10448 net.cpp:434] conv7_2_relu <- conv7_2
I0608 17:25:21.733330 10448 net.cpp:395] conv7_2_relu -> conv7_2 (in-place)
I0608 17:25:21.733508 10448 net.cpp:150] Setting up conv7_2_relu
I0608 17:25:21.733515 10448 net.cpp:157] Top shape: 4 256 5 5 (25600)
I0608 17:25:21.733518 10448 net.cpp:165] Memory required for data: 940331040
I0608 17:25:21.733522 10448 layer_factory.hpp:77] Creating layer conv7_2_conv7_2_relu_0_split
I0608 17:25:21.733530 10448 net.cpp:100] Creating Layer conv7_2_conv7_2_relu_0_split
I0608 17:25:21.733551 10448 net.cpp:434] conv7_2_conv7_2_relu_0_split <- conv7_2
I0608 17:25:21.733570 10448 net.cpp:408] conv7_2_conv7_2_relu_0_split -> conv7_2_conv7_2_relu_0_split_0
I0608 17:25:21.733593 10448 net.cpp:408] conv7_2_conv7_2_relu_0_split -> conv7_2_conv7_2_relu_0_split_1
I0608 17:25:21.733602 10448 net.cpp:408] conv7_2_conv7_2_relu_0_split -> conv7_2_conv7_2_relu_0_split_2
I0608 17:25:21.733623 10448 net.cpp:408] conv7_2_conv7_2_relu_0_split -> conv7_2_conv7_2_relu_0_split_3
I0608 17:25:21.733757 10448 net.cpp:150] Setting up conv7_2_conv7_2_relu_0_split
I0608 17:25:21.733764 10448 net.cpp:157] Top shape: 4 256 5 5 (25600)
I0608 17:25:21.733769 10448 net.cpp:157] Top shape: 4 256 5 5 (25600)
I0608 17:25:21.733774 10448 net.cpp:157] Top shape: 4 256 5 5 (25600)
I0608 17:25:21.733780 10448 net.cpp:157] Top shape: 4 256 5 5 (25600)
I0608 17:25:21.733798 10448 net.cpp:165] Memory required for data: 940740640
I0608 17:25:21.733803 10448 layer_factory.hpp:77] Creating layer conv8_1
I0608 17:25:21.733834 10448 net.cpp:100] Creating Layer conv8_1
I0608 17:25:21.733855 10448 net.cpp:434] conv8_1 <- conv7_2_conv7_2_relu_0_split_0
I0608 17:25:21.733862 10448 net.cpp:408] conv8_1 -> conv8_1
I0608 17:25:21.735518 10448 net.cpp:150] Setting up conv8_1
I0608 17:25:21.735528 10448 net.cpp:157] Top shape: 4 128 5 5 (12800)
I0608 17:25:21.735532 10448 net.cpp:165] Memory required for data: 940791840
I0608 17:25:21.735539 10448 layer_factory.hpp:77] Creating layer conv8_1_relu
I0608 17:25:21.735559 10448 net.cpp:100] Creating Layer conv8_1_relu
I0608 17:25:21.735563 10448 net.cpp:434] conv8_1_relu <- conv8_1
I0608 17:25:21.735571 10448 net.cpp:395] conv8_1_relu -> conv8_1 (in-place)
I0608 17:25:21.736407 10448 net.cpp:150] Setting up conv8_1_relu
I0608 17:25:21.736415 10448 net.cpp:157] Top shape: 4 128 5 5 (12800)
I0608 17:25:21.736419 10448 net.cpp:165] Memory required for data: 940843040
I0608 17:25:21.736423 10448 layer_factory.hpp:77] Creating layer conv8_2
I0608 17:25:21.736433 10448 net.cpp:100] Creating Layer conv8_2
I0608 17:25:21.736438 10448 net.cpp:434] conv8_2 <- conv8_1
I0608 17:25:21.736446 10448 net.cpp:408] conv8_2 -> conv8_2
I0608 17:25:21.739572 10448 net.cpp:150] Setting up conv8_2
I0608 17:25:21.739588 10448 net.cpp:157] Top shape: 4 256 3 3 (9216)
I0608 17:25:21.739591 10448 net.cpp:165] Memory required for data: 940879904
I0608 17:25:21.739600 10448 layer_factory.hpp:77] Creating layer conv8_2_relu
I0608 17:25:21.739609 10448 net.cpp:100] Creating Layer conv8_2_relu
I0608 17:25:21.739615 10448 net.cpp:434] conv8_2_relu <- conv8_2
I0608 17:25:21.739624 10448 net.cpp:395] conv8_2_relu -> conv8_2 (in-place)
I0608 17:25:21.739768 10448 net.cpp:150] Setting up conv8_2_relu
I0608 17:25:21.739776 10448 net.cpp:157] Top shape: 4 256 3 3 (9216)
I0608 17:25:21.739780 10448 net.cpp:165] Memory required for data: 940916768
I0608 17:25:21.739784 10448 layer_factory.hpp:77] Creating layer conv8_2_conv8_2_relu_0_split
I0608 17:25:21.739791 10448 net.cpp:100] Creating Layer conv8_2_conv8_2_relu_0_split
I0608 17:25:21.739797 10448 net.cpp:434] conv8_2_conv8_2_relu_0_split <- conv8_2
I0608 17:25:21.739804 10448 net.cpp:408] conv8_2_conv8_2_relu_0_split -> conv8_2_conv8_2_relu_0_split_0
I0608 17:25:21.739814 10448 net.cpp:408] conv8_2_conv8_2_relu_0_split -> conv8_2_conv8_2_relu_0_split_1
I0608 17:25:21.739820 10448 net.cpp:408] conv8_2_conv8_2_relu_0_split -> conv8_2_conv8_2_relu_0_split_2
I0608 17:25:21.739828 10448 net.cpp:408] conv8_2_conv8_2_relu_0_split -> conv8_2_conv8_2_relu_0_split_3
I0608 17:25:21.739903 10448 net.cpp:150] Setting up conv8_2_conv8_2_relu_0_split
I0608 17:25:21.739909 10448 net.cpp:157] Top shape: 4 256 3 3 (9216)
I0608 17:25:21.739914 10448 net.cpp:157] Top shape: 4 256 3 3 (9216)
I0608 17:25:21.739919 10448 net.cpp:157] Top shape: 4 256 3 3 (9216)
I0608 17:25:21.739923 10448 net.cpp:157] Top shape: 4 256 3 3 (9216)
I0608 17:25:21.739928 10448 net.cpp:165] Memory required for data: 941064224
I0608 17:25:21.739931 10448 layer_factory.hpp:77] Creating layer conv9_1
I0608 17:25:21.739943 10448 net.cpp:100] Creating Layer conv9_1
I0608 17:25:21.739948 10448 net.cpp:434] conv9_1 <- conv8_2_conv8_2_relu_0_split_0
I0608 17:25:21.739956 10448 net.cpp:408] conv9_1 -> conv9_1
I0608 17:25:21.741237 10448 net.cpp:150] Setting up conv9_1
I0608 17:25:21.741247 10448 net.cpp:157] Top shape: 4 128 3 3 (4608)
I0608 17:25:21.741251 10448 net.cpp:165] Memory required for data: 941082656
I0608 17:25:21.741258 10448 layer_factory.hpp:77] Creating layer conv9_1_relu
I0608 17:25:21.741264 10448 net.cpp:100] Creating Layer conv9_1_relu
I0608 17:25:21.741269 10448 net.cpp:434] conv9_1_relu <- conv9_1
I0608 17:25:21.741276 10448 net.cpp:395] conv9_1_relu -> conv9_1 (in-place)
I0608 17:25:21.741422 10448 net.cpp:150] Setting up conv9_1_relu
I0608 17:25:21.741430 10448 net.cpp:157] Top shape: 4 128 3 3 (4608)
I0608 17:25:21.741435 10448 net.cpp:165] Memory required for data: 941101088
I0608 17:25:21.741437 10448 layer_factory.hpp:77] Creating layer conv9_2
I0608 17:25:21.741457 10448 net.cpp:100] Creating Layer conv9_2
I0608 17:25:21.741463 10448 net.cpp:434] conv9_2 <- conv9_1
I0608 17:25:21.741473 10448 net.cpp:408] conv9_2 -> conv9_2
I0608 17:25:21.744442 10448 net.cpp:150] Setting up conv9_2
I0608 17:25:21.744454 10448 net.cpp:157] Top shape: 4 256 1 1 (1024)
I0608 17:25:21.744458 10448 net.cpp:165] Memory required for data: 941105184
I0608 17:25:21.744467 10448 layer_factory.hpp:77] Creating layer conv9_2_relu
I0608 17:25:21.744473 10448 net.cpp:100] Creating Layer conv9_2_relu
I0608 17:25:21.744478 10448 net.cpp:434] conv9_2_relu <- conv9_2
I0608 17:25:21.744484 10448 net.cpp:395] conv9_2_relu -> conv9_2 (in-place)
I0608 17:25:21.744623 10448 net.cpp:150] Setting up conv9_2_relu
I0608 17:25:21.744630 10448 net.cpp:157] Top shape: 4 256 1 1 (1024)
I0608 17:25:21.744633 10448 net.cpp:165] Memory required for data: 941109280
I0608 17:25:21.744637 10448 layer_factory.hpp:77] Creating layer conv9_2_conv9_2_relu_0_split
I0608 17:25:21.744644 10448 net.cpp:100] Creating Layer conv9_2_conv9_2_relu_0_split
I0608 17:25:21.744648 10448 net.cpp:434] conv9_2_conv9_2_relu_0_split <- conv9_2
I0608 17:25:21.744655 10448 net.cpp:408] conv9_2_conv9_2_relu_0_split -> conv9_2_conv9_2_relu_0_split_0
I0608 17:25:21.744663 10448 net.cpp:408] conv9_2_conv9_2_relu_0_split -> conv9_2_conv9_2_relu_0_split_1
I0608 17:25:21.744671 10448 net.cpp:408] conv9_2_conv9_2_relu_0_split -> conv9_2_conv9_2_relu_0_split_2
I0608 17:25:21.744729 10448 net.cpp:150] Setting up conv9_2_conv9_2_relu_0_split
I0608 17:25:21.744735 10448 net.cpp:157] Top shape: 4 256 1 1 (1024)
I0608 17:25:21.744738 10448 net.cpp:157] Top shape: 4 256 1 1 (1024)
I0608 17:25:21.744745 10448 net.cpp:157] Top shape: 4 256 1 1 (1024)
I0608 17:25:21.744747 10448 net.cpp:165] Memory required for data: 941121568
I0608 17:25:21.744750 10448 layer_factory.hpp:77] Creating layer conv4_3_norm
I0608 17:25:21.744757 10448 net.cpp:100] Creating Layer conv4_3_norm
I0608 17:25:21.744763 10448 net.cpp:434] conv4_3_norm <- conv4_3_relu4_3_0_split_1
I0608 17:25:21.744768 10448 net.cpp:408] conv4_3_norm -> conv4_3_norm
I0608 17:25:21.744921 10448 net.cpp:150] Setting up conv4_3_norm
I0608 17:25:21.744928 10448 net.cpp:157] Top shape: 4 512 38 38 (2957312)
I0608 17:25:21.744932 10448 net.cpp:165] Memory required for data: 952950816
I0608 17:25:21.744937 10448 layer_factory.hpp:77] Creating layer conv4_3_norm_conv4_3_norm_0_split
I0608 17:25:21.744942 10448 net.cpp:100] Creating Layer conv4_3_norm_conv4_3_norm_0_split
I0608 17:25:21.744946 10448 net.cpp:434] conv4_3_norm_conv4_3_norm_0_split <- conv4_3_norm
I0608 17:25:21.744953 10448 net.cpp:408] conv4_3_norm_conv4_3_norm_0_split -> conv4_3_norm_conv4_3_norm_0_split_0
I0608 17:25:21.744961 10448 net.cpp:408] conv4_3_norm_conv4_3_norm_0_split -> conv4_3_norm_conv4_3_norm_0_split_1
I0608 17:25:21.744968 10448 net.cpp:408] conv4_3_norm_conv4_3_norm_0_split -> conv4_3_norm_conv4_3_norm_0_split_2
I0608 17:25:21.745016 10448 net.cpp:150] Setting up conv4_3_norm_conv4_3_norm_0_split
I0608 17:25:21.745023 10448 net.cpp:157] Top shape: 4 512 38 38 (2957312)
I0608 17:25:21.745028 10448 net.cpp:157] Top shape: 4 512 38 38 (2957312)
I0608 17:25:21.745031 10448 net.cpp:157] Top shape: 4 512 38 38 (2957312)
I0608 17:25:21.745035 10448 net.cpp:165] Memory required for data: 988438560
I0608 17:25:21.745039 10448 layer_factory.hpp:77] Creating layer conv4_3_norm_mbox_loc
I0608 17:25:21.745050 10448 net.cpp:100] Creating Layer conv4_3_norm_mbox_loc
I0608 17:25:21.745055 10448 net.cpp:434] conv4_3_norm_mbox_loc <- conv4_3_norm_conv4_3_norm_0_split_0
I0608 17:25:21.745061 10448 net.cpp:408] conv4_3_norm_mbox_loc -> conv4_3_norm_mbox_loc
I0608 17:25:21.746995 10448 net.cpp:150] Setting up conv4_3_norm_mbox_loc
I0608 17:25:21.747005 10448 net.cpp:157] Top shape: 4 16 38 38 (92416)
I0608 17:25:21.747011 10448 net.cpp:165] Memory required for data: 988808224
I0608 17:25:21.747018 10448 layer_factory.hpp:77] Creating layer conv4_3_norm_mbox_loc_perm
I0608 17:25:21.747026 10448 net.cpp:100] Creating Layer conv4_3_norm_mbox_loc_perm
I0608 17:25:21.747041 10448 net.cpp:434] conv4_3_norm_mbox_loc_perm <- conv4_3_norm_mbox_loc
I0608 17:25:21.747050 10448 net.cpp:408] conv4_3_norm_mbox_loc_perm -> conv4_3_norm_mbox_loc_perm
I0608 17:25:21.747155 10448 net.cpp:150] Setting up conv4_3_norm_mbox_loc_perm
I0608 17:25:21.747162 10448 net.cpp:157] Top shape: 4 38 38 16 (92416)
I0608 17:25:21.747165 10448 net.cpp:165] Memory required for data: 989177888
I0608 17:25:21.747169 10448 layer_factory.hpp:77] Creating layer conv4_3_norm_mbox_loc_flat
I0608 17:25:21.747176 10448 net.cpp:100] Creating Layer conv4_3_norm_mbox_loc_flat
I0608 17:25:21.747181 10448 net.cpp:434] conv4_3_norm_mbox_loc_flat <- conv4_3_norm_mbox_loc_perm
I0608 17:25:21.747189 10448 net.cpp:408] conv4_3_norm_mbox_loc_flat -> conv4_3_norm_mbox_loc_flat
I0608 17:25:21.747222 10448 net.cpp:150] Setting up conv4_3_norm_mbox_loc_flat
I0608 17:25:21.747228 10448 net.cpp:157] Top shape: 4 23104 (92416)
I0608 17:25:21.747232 10448 net.cpp:165] Memory required for data: 989547552
I0608 17:25:21.747236 10448 layer_factory.hpp:77] Creating layer conv4_3_norm_mbox_conf
I0608 17:25:21.747251 10448 net.cpp:100] Creating Layer conv4_3_norm_mbox_conf
I0608 17:25:21.747256 10448 net.cpp:434] conv4_3_norm_mbox_conf <- conv4_3_norm_conv4_3_norm_0_split_1
I0608 17:25:21.747263 10448 net.cpp:408] conv4_3_norm_mbox_conf -> conv4_3_norm_mbox_conf
I0608 17:25:21.749044 10448 net.cpp:150] Setting up conv4_3_norm_mbox_conf
I0608 17:25:21.749054 10448 net.cpp:157] Top shape: 4 8 38 38 (46208)
I0608 17:25:21.749058 10448 net.cpp:165] Memory required for data: 989732384
I0608 17:25:21.749066 10448 layer_factory.hpp:77] Creating layer conv4_3_norm_mbox_conf_perm
I0608 17:25:21.749075 10448 net.cpp:100] Creating Layer conv4_3_norm_mbox_conf_perm
I0608 17:25:21.749080 10448 net.cpp:434] conv4_3_norm_mbox_conf_perm <- conv4_3_norm_mbox_conf
I0608 17:25:21.749086 10448 net.cpp:408] conv4_3_norm_mbox_conf_perm -> conv4_3_norm_mbox_conf_perm
I0608 17:25:21.749192 10448 net.cpp:150] Setting up conv4_3_norm_mbox_conf_perm
I0608 17:25:21.749198 10448 net.cpp:157] Top shape: 4 38 38 8 (46208)
I0608 17:25:21.749202 10448 net.cpp:165] Memory required for data: 989917216
I0608 17:25:21.749205 10448 layer_factory.hpp:77] Creating layer conv4_3_norm_mbox_conf_flat
I0608 17:25:21.749212 10448 net.cpp:100] Creating Layer conv4_3_norm_mbox_conf_flat
I0608 17:25:21.749217 10448 net.cpp:434] conv4_3_norm_mbox_conf_flat <- conv4_3_norm_mbox_conf_perm
I0608 17:25:21.749223 10448 net.cpp:408] conv4_3_norm_mbox_conf_flat -> conv4_3_norm_mbox_conf_flat
I0608 17:25:21.749250 10448 net.cpp:150] Setting up conv4_3_norm_mbox_conf_flat
I0608 17:25:21.749256 10448 net.cpp:157] Top shape: 4 11552 (46208)
I0608 17:25:21.749259 10448 net.cpp:165] Memory required for data: 990102048
I0608 17:25:21.749264 10448 layer_factory.hpp:77] Creating layer conv4_3_norm_mbox_priorbox
I0608 17:25:21.749270 10448 net.cpp:100] Creating Layer conv4_3_norm_mbox_priorbox
I0608 17:25:21.749275 10448 net.cpp:434] conv4_3_norm_mbox_priorbox <- conv4_3_norm_conv4_3_norm_0_split_2
I0608 17:25:21.749281 10448 net.cpp:434] conv4_3_norm_mbox_priorbox <- data_data_0_split_1
I0608 17:25:21.749289 10448 net.cpp:408] conv4_3_norm_mbox_priorbox -> conv4_3_norm_mbox_priorbox
I0608 17:25:21.749323 10448 net.cpp:150] Setting up conv4_3_norm_mbox_priorbox
I0608 17:25:21.749330 10448 net.cpp:157] Top shape: 1 2 23104 (46208)
I0608 17:25:21.749333 10448 net.cpp:165] Memory required for data: 990286880
I0608 17:25:21.749337 10448 layer_factory.hpp:77] Creating layer fc7_mbox_loc
I0608 17:25:21.749347 10448 net.cpp:100] Creating Layer fc7_mbox_loc
I0608 17:25:21.749352 10448 net.cpp:434] fc7_mbox_loc <- fc7_relu7_0_split_1
I0608 17:25:21.749361 10448 net.cpp:408] fc7_mbox_loc -> fc7_mbox_loc
I0608 17:25:21.751931 10448 net.cpp:150] Setting up fc7_mbox_loc
I0608 17:25:21.751941 10448 net.cpp:157] Top shape: 4 24 19 19 (34656)
I0608 17:25:21.751946 10448 net.cpp:165] Memory required for data: 990425504
I0608 17:25:21.751953 10448 layer_factory.hpp:77] Creating layer fc7_mbox_loc_perm
I0608 17:25:21.751971 10448 net.cpp:100] Creating Layer fc7_mbox_loc_perm
I0608 17:25:21.751976 10448 net.cpp:434] fc7_mbox_loc_perm <- fc7_mbox_loc
I0608 17:25:21.751984 10448 net.cpp:408] fc7_mbox_loc_perm -> fc7_mbox_loc_perm
I0608 17:25:21.752092 10448 net.cpp:150] Setting up fc7_mbox_loc_perm
I0608 17:25:21.752099 10448 net.cpp:157] Top shape: 4 19 19 24 (34656)
I0608 17:25:21.752101 10448 net.cpp:165] Memory required for data: 990564128
I0608 17:25:21.752105 10448 layer_factory.hpp:77] Creating layer fc7_mbox_loc_flat
I0608 17:25:21.752111 10448 net.cpp:100] Creating Layer fc7_mbox_loc_flat
I0608 17:25:21.752115 10448 net.cpp:434] fc7_mbox_loc_flat <- fc7_mbox_loc_perm
I0608 17:25:21.752122 10448 net.cpp:408] fc7_mbox_loc_flat -> fc7_mbox_loc_flat
I0608 17:25:21.752149 10448 net.cpp:150] Setting up fc7_mbox_loc_flat
I0608 17:25:21.752156 10448 net.cpp:157] Top shape: 4 8664 (34656)
I0608 17:25:21.752159 10448 net.cpp:165] Memory required for data: 990702752
I0608 17:25:21.752163 10448 layer_factory.hpp:77] Creating layer fc7_mbox_conf
I0608 17:25:21.752173 10448 net.cpp:100] Creating Layer fc7_mbox_conf
I0608 17:25:21.752177 10448 net.cpp:434] fc7_mbox_conf <- fc7_relu7_0_split_2
I0608 17:25:21.752184 10448 net.cpp:408] fc7_mbox_conf -> fc7_mbox_conf
I0608 17:25:21.754266 10448 net.cpp:150] Setting up fc7_mbox_conf
I0608 17:25:21.754276 10448 net.cpp:157] Top shape: 4 12 19 19 (17328)
I0608 17:25:21.754279 10448 net.cpp:165] Memory required for data: 990772064
I0608 17:25:21.754287 10448 layer_factory.hpp:77] Creating layer fc7_mbox_conf_perm
I0608 17:25:21.754295 10448 net.cpp:100] Creating Layer fc7_mbox_conf_perm
I0608 17:25:21.754300 10448 net.cpp:434] fc7_mbox_conf_perm <- fc7_mbox_conf
I0608 17:25:21.754308 10448 net.cpp:408] fc7_mbox_conf_perm -> fc7_mbox_conf_perm
I0608 17:25:21.754428 10448 net.cpp:150] Setting up fc7_mbox_conf_perm
I0608 17:25:21.754436 10448 net.cpp:157] Top shape: 4 19 19 12 (17328)
I0608 17:25:21.754441 10448 net.cpp:165] Memory required for data: 990841376
I0608 17:25:21.754444 10448 layer_factory.hpp:77] Creating layer fc7_mbox_conf_flat
I0608 17:25:21.754449 10448 net.cpp:100] Creating Layer fc7_mbox_conf_flat
I0608 17:25:21.754453 10448 net.cpp:434] fc7_mbox_conf_flat <- fc7_mbox_conf_perm
I0608 17:25:21.754462 10448 net.cpp:408] fc7_mbox_conf_flat -> fc7_mbox_conf_flat
I0608 17:25:21.754487 10448 net.cpp:150] Setting up fc7_mbox_conf_flat
I0608 17:25:21.754494 10448 net.cpp:157] Top shape: 4 4332 (17328)
I0608 17:25:21.754499 10448 net.cpp:165] Memory required for data: 990910688
I0608 17:25:21.754503 10448 layer_factory.hpp:77] Creating layer fc7_mbox_priorbox
I0608 17:25:21.754523 10448 net.cpp:100] Creating Layer fc7_mbox_priorbox
I0608 17:25:21.754528 10448 net.cpp:434] fc7_mbox_priorbox <- fc7_relu7_0_split_3
I0608 17:25:21.754545 10448 net.cpp:434] fc7_mbox_priorbox <- data_data_0_split_2
I0608 17:25:21.754554 10448 net.cpp:408] fc7_mbox_priorbox -> fc7_mbox_priorbox
I0608 17:25:21.754581 10448 net.cpp:150] Setting up fc7_mbox_priorbox
I0608 17:25:21.754590 10448 net.cpp:157] Top shape: 1 2 8664 (17328)
I0608 17:25:21.754593 10448 net.cpp:165] Memory required for data: 990980000
I0608 17:25:21.754597 10448 layer_factory.hpp:77] Creating layer conv6_2_mbox_loc
I0608 17:25:21.754607 10448 net.cpp:100] Creating Layer conv6_2_mbox_loc
I0608 17:25:21.754611 10448 net.cpp:434] conv6_2_mbox_loc <- conv6_2_conv6_2_relu_0_split_1
I0608 17:25:21.754618 10448 net.cpp:408] conv6_2_mbox_loc -> conv6_2_mbox_loc
I0608 17:25:21.756650 10448 net.cpp:150] Setting up conv6_2_mbox_loc
I0608 17:25:21.756660 10448 net.cpp:157] Top shape: 4 24 10 10 (9600)
I0608 17:25:21.756664 10448 net.cpp:165] Memory required for data: 991018400
I0608 17:25:21.756670 10448 layer_factory.hpp:77] Creating layer conv6_2_mbox_loc_perm
I0608 17:25:21.756680 10448 net.cpp:100] Creating Layer conv6_2_mbox_loc_perm
I0608 17:25:21.756685 10448 net.cpp:434] conv6_2_mbox_loc_perm <- conv6_2_mbox_loc
I0608 17:25:21.756692 10448 net.cpp:408] conv6_2_mbox_loc_perm -> conv6_2_mbox_loc_perm
I0608 17:25:21.756803 10448 net.cpp:150] Setting up conv6_2_mbox_loc_perm
I0608 17:25:21.756816 10448 net.cpp:157] Top shape: 4 10 10 24 (9600)
I0608 17:25:21.756820 10448 net.cpp:165] Memory required for data: 991056800
I0608 17:25:21.756824 10448 layer_factory.hpp:77] Creating layer conv6_2_mbox_loc_flat
I0608 17:25:21.756829 10448 net.cpp:100] Creating Layer conv6_2_mbox_loc_flat
I0608 17:25:21.756834 10448 net.cpp:434] conv6_2_mbox_loc_flat <- conv6_2_mbox_loc_perm
I0608 17:25:21.756841 10448 net.cpp:408] conv6_2_mbox_loc_flat -> conv6_2_mbox_loc_flat
I0608 17:25:21.756868 10448 net.cpp:150] Setting up conv6_2_mbox_loc_flat
I0608 17:25:21.756873 10448 net.cpp:157] Top shape: 4 2400 (9600)
I0608 17:25:21.756877 10448 net.cpp:165] Memory required for data: 991095200
I0608 17:25:21.756881 10448 layer_factory.hpp:77] Creating layer conv6_2_mbox_conf
I0608 17:25:21.756891 10448 net.cpp:100] Creating Layer conv6_2_mbox_conf
I0608 17:25:21.756894 10448 net.cpp:434] conv6_2_mbox_conf <- conv6_2_conv6_2_relu_0_split_2
I0608 17:25:21.756903 10448 net.cpp:408] conv6_2_mbox_conf -> conv6_2_mbox_conf
I0608 17:25:21.758755 10448 net.cpp:150] Setting up conv6_2_mbox_conf
I0608 17:25:21.758766 10448 net.cpp:157] Top shape: 4 12 10 10 (4800)
I0608 17:25:21.758770 10448 net.cpp:165] Memory required for data: 991114400
I0608 17:25:21.758779 10448 layer_factory.hpp:77] Creating layer conv6_2_mbox_conf_perm
I0608 17:25:21.758785 10448 net.cpp:100] Creating Layer conv6_2_mbox_conf_perm
I0608 17:25:21.758790 10448 net.cpp:434] conv6_2_mbox_conf_perm <- conv6_2_mbox_conf
I0608 17:25:21.758798 10448 net.cpp:408] conv6_2_mbox_conf_perm -> conv6_2_mbox_conf_perm
I0608 17:25:21.758904 10448 net.cpp:150] Setting up conv6_2_mbox_conf_perm
I0608 17:25:21.758910 10448 net.cpp:157] Top shape: 4 10 10 12 (4800)
I0608 17:25:21.758913 10448 net.cpp:165] Memory required for data: 991133600
I0608 17:25:21.758918 10448 layer_factory.hpp:77] Creating layer conv6_2_mbox_conf_flat
I0608 17:25:21.758924 10448 net.cpp:100] Creating Layer conv6_2_mbox_conf_flat
I0608 17:25:21.758927 10448 net.cpp:434] conv6_2_mbox_conf_flat <- conv6_2_mbox_conf_perm
I0608 17:25:21.758935 10448 net.cpp:408] conv6_2_mbox_conf_flat -> conv6_2_mbox_conf_flat
I0608 17:25:21.758962 10448 net.cpp:150] Setting up conv6_2_mbox_conf_flat
I0608 17:25:21.758968 10448 net.cpp:157] Top shape: 4 1200 (4800)
I0608 17:25:21.758972 10448 net.cpp:165] Memory required for data: 991152800
I0608 17:25:21.758975 10448 layer_factory.hpp:77] Creating layer conv6_2_mbox_priorbox
I0608 17:25:21.758981 10448 net.cpp:100] Creating Layer conv6_2_mbox_priorbox
I0608 17:25:21.758987 10448 net.cpp:434] conv6_2_mbox_priorbox <- conv6_2_conv6_2_relu_0_split_3
I0608 17:25:21.758992 10448 net.cpp:434] conv6_2_mbox_priorbox <- data_data_0_split_3
I0608 17:25:21.759001 10448 net.cpp:408] conv6_2_mbox_priorbox -> conv6_2_mbox_priorbox
I0608 17:25:21.759027 10448 net.cpp:150] Setting up conv6_2_mbox_priorbox
I0608 17:25:21.759034 10448 net.cpp:157] Top shape: 1 2 2400 (4800)
I0608 17:25:21.759037 10448 net.cpp:165] Memory required for data: 991172000
I0608 17:25:21.759040 10448 layer_factory.hpp:77] Creating layer conv7_2_mbox_loc
I0608 17:25:21.759049 10448 net.cpp:100] Creating Layer conv7_2_mbox_loc
I0608 17:25:21.759054 10448 net.cpp:434] conv7_2_mbox_loc <- conv7_2_conv7_2_relu_0_split_1
I0608 17:25:21.759061 10448 net.cpp:408] conv7_2_mbox_loc -> conv7_2_mbox_loc
I0608 17:25:21.760411 10448 net.cpp:150] Setting up conv7_2_mbox_loc
I0608 17:25:21.760421 10448 net.cpp:157] Top shape: 4 24 5 5 (2400)
I0608 17:25:21.760424 10448 net.cpp:165] Memory required for data: 991181600
I0608 17:25:21.760432 10448 layer_factory.hpp:77] Creating layer conv7_2_mbox_loc_perm
I0608 17:25:21.760440 10448 net.cpp:100] Creating Layer conv7_2_mbox_loc_perm
I0608 17:25:21.760445 10448 net.cpp:434] conv7_2_mbox_loc_perm <- conv7_2_mbox_loc
I0608 17:25:21.760452 10448 net.cpp:408] conv7_2_mbox_loc_perm -> conv7_2_mbox_loc_perm
I0608 17:25:21.760560 10448 net.cpp:150] Setting up conv7_2_mbox_loc_perm
I0608 17:25:21.760565 10448 net.cpp:157] Top shape: 4 5 5 24 (2400)
I0608 17:25:21.760577 10448 net.cpp:165] Memory required for data: 991191200
I0608 17:25:21.760581 10448 layer_factory.hpp:77] Creating layer conv7_2_mbox_loc_flat
I0608 17:25:21.760588 10448 net.cpp:100] Creating Layer conv7_2_mbox_loc_flat
I0608 17:25:21.760593 10448 net.cpp:434] conv7_2_mbox_loc_flat <- conv7_2_mbox_loc_perm
I0608 17:25:21.760599 10448 net.cpp:408] conv7_2_mbox_loc_flat -> conv7_2_mbox_loc_flat
I0608 17:25:21.760625 10448 net.cpp:150] Setting up conv7_2_mbox_loc_flat
I0608 17:25:21.760630 10448 net.cpp:157] Top shape: 4 600 (2400)
I0608 17:25:21.760634 10448 net.cpp:165] Memory required for data: 991200800
I0608 17:25:21.760638 10448 layer_factory.hpp:77] Creating layer conv7_2_mbox_conf
I0608 17:25:21.760648 10448 net.cpp:100] Creating Layer conv7_2_mbox_conf
I0608 17:25:21.760651 10448 net.cpp:434] conv7_2_mbox_conf <- conv7_2_conv7_2_relu_0_split_2
I0608 17:25:21.760660 10448 net.cpp:408] conv7_2_mbox_conf -> conv7_2_mbox_conf
I0608 17:25:21.762352 10448 net.cpp:150] Setting up conv7_2_mbox_conf
I0608 17:25:21.762362 10448 net.cpp:157] Top shape: 4 12 5 5 (1200)
I0608 17:25:21.762365 10448 net.cpp:165] Memory required for data: 991205600
I0608 17:25:21.762373 10448 layer_factory.hpp:77] Creating layer conv7_2_mbox_conf_perm
I0608 17:25:21.762382 10448 net.cpp:100] Creating Layer conv7_2_mbox_conf_perm
I0608 17:25:21.762387 10448 net.cpp:434] conv7_2_mbox_conf_perm <- conv7_2_mbox_conf
I0608 17:25:21.762394 10448 net.cpp:408] conv7_2_mbox_conf_perm -> conv7_2_mbox_conf_perm
I0608 17:25:21.762498 10448 net.cpp:150] Setting up conv7_2_mbox_conf_perm
I0608 17:25:21.762504 10448 net.cpp:157] Top shape: 4 5 5 12 (1200)
I0608 17:25:21.762508 10448 net.cpp:165] Memory required for data: 991210400
I0608 17:25:21.762511 10448 layer_factory.hpp:77] Creating layer conv7_2_mbox_conf_flat
I0608 17:25:21.762518 10448 net.cpp:100] Creating Layer conv7_2_mbox_conf_flat
I0608 17:25:21.762523 10448 net.cpp:434] conv7_2_mbox_conf_flat <- conv7_2_mbox_conf_perm
I0608 17:25:21.762529 10448 net.cpp:408] conv7_2_mbox_conf_flat -> conv7_2_mbox_conf_flat
I0608 17:25:21.762555 10448 net.cpp:150] Setting up conv7_2_mbox_conf_flat
I0608 17:25:21.762562 10448 net.cpp:157] Top shape: 4 300 (1200)
I0608 17:25:21.762564 10448 net.cpp:165] Memory required for data: 991215200
I0608 17:25:21.762568 10448 layer_factory.hpp:77] Creating layer conv7_2_mbox_priorbox
I0608 17:25:21.762575 10448 net.cpp:100] Creating Layer conv7_2_mbox_priorbox
I0608 17:25:21.762580 10448 net.cpp:434] conv7_2_mbox_priorbox <- conv7_2_conv7_2_relu_0_split_3
I0608 17:25:21.762585 10448 net.cpp:434] conv7_2_mbox_priorbox <- data_data_0_split_4
I0608 17:25:21.762593 10448 net.cpp:408] conv7_2_mbox_priorbox -> conv7_2_mbox_priorbox
I0608 17:25:21.762620 10448 net.cpp:150] Setting up conv7_2_mbox_priorbox
I0608 17:25:21.762627 10448 net.cpp:157] Top shape: 1 2 600 (1200)
I0608 17:25:21.762630 10448 net.cpp:165] Memory required for data: 991220000
I0608 17:25:21.762634 10448 layer_factory.hpp:77] Creating layer conv8_2_mbox_loc
I0608 17:25:21.762645 10448 net.cpp:100] Creating Layer conv8_2_mbox_loc
I0608 17:25:21.762650 10448 net.cpp:434] conv8_2_mbox_loc <- conv8_2_conv8_2_relu_0_split_1
I0608 17:25:21.762657 10448 net.cpp:408] conv8_2_mbox_loc -> conv8_2_mbox_loc
I0608 17:25:21.764391 10448 net.cpp:150] Setting up conv8_2_mbox_loc
I0608 17:25:21.764400 10448 net.cpp:157] Top shape: 4 16 3 3 (576)
I0608 17:25:21.764403 10448 net.cpp:165] Memory required for data: 991222304
I0608 17:25:21.764421 10448 layer_factory.hpp:77] Creating layer conv8_2_mbox_loc_perm
I0608 17:25:21.764428 10448 net.cpp:100] Creating Layer conv8_2_mbox_loc_perm
I0608 17:25:21.764433 10448 net.cpp:434] conv8_2_mbox_loc_perm <- conv8_2_mbox_loc
I0608 17:25:21.764441 10448 net.cpp:408] conv8_2_mbox_loc_perm -> conv8_2_mbox_loc_perm
I0608 17:25:21.764550 10448 net.cpp:150] Setting up conv8_2_mbox_loc_perm
I0608 17:25:21.764557 10448 net.cpp:157] Top shape: 4 3 3 16 (576)
I0608 17:25:21.764560 10448 net.cpp:165] Memory required for data: 991224608
I0608 17:25:21.764564 10448 layer_factory.hpp:77] Creating layer conv8_2_mbox_loc_flat
I0608 17:25:21.764577 10448 net.cpp:100] Creating Layer conv8_2_mbox_loc_flat
I0608 17:25:21.764582 10448 net.cpp:434] conv8_2_mbox_loc_flat <- conv8_2_mbox_loc_perm
I0608 17:25:21.764590 10448 net.cpp:408] conv8_2_mbox_loc_flat -> conv8_2_mbox_loc_flat
I0608 17:25:21.764617 10448 net.cpp:150] Setting up conv8_2_mbox_loc_flat
I0608 17:25:21.764622 10448 net.cpp:157] Top shape: 4 144 (576)
I0608 17:25:21.764626 10448 net.cpp:165] Memory required for data: 991226912
I0608 17:25:21.764629 10448 layer_factory.hpp:77] Creating layer conv8_2_mbox_conf
I0608 17:25:21.764641 10448 net.cpp:100] Creating Layer conv8_2_mbox_conf
I0608 17:25:21.764644 10448 net.cpp:434] conv8_2_mbox_conf <- conv8_2_conv8_2_relu_0_split_2
I0608 17:25:21.764652 10448 net.cpp:408] conv8_2_mbox_conf -> conv8_2_mbox_conf
I0608 17:25:21.766335 10448 net.cpp:150] Setting up conv8_2_mbox_conf
I0608 17:25:21.766345 10448 net.cpp:157] Top shape: 4 8 3 3 (288)
I0608 17:25:21.766348 10448 net.cpp:165] Memory required for data: 991228064
I0608 17:25:21.766355 10448 layer_factory.hpp:77] Creating layer conv8_2_mbox_conf_perm
I0608 17:25:21.766362 10448 net.cpp:100] Creating Layer conv8_2_mbox_conf_perm
I0608 17:25:21.766368 10448 net.cpp:434] conv8_2_mbox_conf_perm <- conv8_2_mbox_conf
I0608 17:25:21.766376 10448 net.cpp:408] conv8_2_mbox_conf_perm -> conv8_2_mbox_conf_perm
I0608 17:25:21.766481 10448 net.cpp:150] Setting up conv8_2_mbox_conf_perm
I0608 17:25:21.766487 10448 net.cpp:157] Top shape: 4 3 3 8 (288)
I0608 17:25:21.766491 10448 net.cpp:165] Memory required for data: 991229216
I0608 17:25:21.766495 10448 layer_factory.hpp:77] Creating layer conv8_2_mbox_conf_flat
I0608 17:25:21.766501 10448 net.cpp:100] Creating Layer conv8_2_mbox_conf_flat
I0608 17:25:21.766506 10448 net.cpp:434] conv8_2_mbox_conf_flat <- conv8_2_mbox_conf_perm
I0608 17:25:21.766512 10448 net.cpp:408] conv8_2_mbox_conf_flat -> conv8_2_mbox_conf_flat
I0608 17:25:21.766538 10448 net.cpp:150] Setting up conv8_2_mbox_conf_flat
I0608 17:25:21.766544 10448 net.cpp:157] Top shape: 4 72 (288)
I0608 17:25:21.766547 10448 net.cpp:165] Memory required for data: 991230368
I0608 17:25:21.766551 10448 layer_factory.hpp:77] Creating layer conv8_2_mbox_priorbox
I0608 17:25:21.766559 10448 net.cpp:100] Creating Layer conv8_2_mbox_priorbox
I0608 17:25:21.766564 10448 net.cpp:434] conv8_2_mbox_priorbox <- conv8_2_conv8_2_relu_0_split_3
I0608 17:25:21.766569 10448 net.cpp:434] conv8_2_mbox_priorbox <- data_data_0_split_5
I0608 17:25:21.766578 10448 net.cpp:408] conv8_2_mbox_priorbox -> conv8_2_mbox_priorbox
I0608 17:25:21.766605 10448 net.cpp:150] Setting up conv8_2_mbox_priorbox
I0608 17:25:21.766610 10448 net.cpp:157] Top shape: 1 2 144 (288)
I0608 17:25:21.766613 10448 net.cpp:165] Memory required for data: 991231520
I0608 17:25:21.766618 10448 layer_factory.hpp:77] Creating layer conv9_2_mbox_loc
I0608 17:25:21.766628 10448 net.cpp:100] Creating Layer conv9_2_mbox_loc
I0608 17:25:21.766633 10448 net.cpp:434] conv9_2_mbox_loc <- conv9_2_conv9_2_relu_0_split_0
I0608 17:25:21.766639 10448 net.cpp:408] conv9_2_mbox_loc -> conv9_2_mbox_loc
I0608 17:25:21.768853 10448 net.cpp:150] Setting up conv9_2_mbox_loc
I0608 17:25:21.768862 10448 net.cpp:157] Top shape: 4 16 1 1 (64)
I0608 17:25:21.768867 10448 net.cpp:165] Memory required for data: 991231776
I0608 17:25:21.768873 10448 layer_factory.hpp:77] Creating layer conv9_2_mbox_loc_perm
I0608 17:25:21.768882 10448 net.cpp:100] Creating Layer conv9_2_mbox_loc_perm
I0608 17:25:21.768887 10448 net.cpp:434] conv9_2_mbox_loc_perm <- conv9_2_mbox_loc
I0608 17:25:21.768894 10448 net.cpp:408] conv9_2_mbox_loc_perm -> conv9_2_mbox_loc_perm
I0608 17:25:21.768999 10448 net.cpp:150] Setting up conv9_2_mbox_loc_perm
I0608 17:25:21.769006 10448 net.cpp:157] Top shape: 4 1 1 16 (64)
I0608 17:25:21.769008 10448 net.cpp:165] Memory required for data: 991232032
I0608 17:25:21.769012 10448 layer_factory.hpp:77] Creating layer conv9_2_mbox_loc_flat
I0608 17:25:21.769018 10448 net.cpp:100] Creating Layer conv9_2_mbox_loc_flat
I0608 17:25:21.769023 10448 net.cpp:434] conv9_2_mbox_loc_flat <- conv9_2_mbox_loc_perm
I0608 17:25:21.769039 10448 net.cpp:408] conv9_2_mbox_loc_flat -> conv9_2_mbox_loc_flat
I0608 17:25:21.769067 10448 net.cpp:150] Setting up conv9_2_mbox_loc_flat
I0608 17:25:21.769073 10448 net.cpp:157] Top shape: 4 16 (64)
I0608 17:25:21.769075 10448 net.cpp:165] Memory required for data: 991232288
I0608 17:25:21.769079 10448 layer_factory.hpp:77] Creating layer conv9_2_mbox_conf
I0608 17:25:21.769089 10448 net.cpp:100] Creating Layer conv9_2_mbox_conf
I0608 17:25:21.769093 10448 net.cpp:434] conv9_2_mbox_conf <- conv9_2_conv9_2_relu_0_split_1
I0608 17:25:21.769103 10448 net.cpp:408] conv9_2_mbox_conf -> conv9_2_mbox_conf
I0608 17:25:21.770965 10448 net.cpp:150] Setting up conv9_2_mbox_conf
I0608 17:25:21.770977 10448 net.cpp:157] Top shape: 4 8 1 1 (32)
I0608 17:25:21.770980 10448 net.cpp:165] Memory required for data: 991232416
I0608 17:25:21.770987 10448 layer_factory.hpp:77] Creating layer conv9_2_mbox_conf_perm
I0608 17:25:21.770997 10448 net.cpp:100] Creating Layer conv9_2_mbox_conf_perm
I0608 17:25:21.771001 10448 net.cpp:434] conv9_2_mbox_conf_perm <- conv9_2_mbox_conf
I0608 17:25:21.771009 10448 net.cpp:408] conv9_2_mbox_conf_perm -> conv9_2_mbox_conf_perm
I0608 17:25:21.771122 10448 net.cpp:150] Setting up conv9_2_mbox_conf_perm
I0608 17:25:21.771131 10448 net.cpp:157] Top shape: 4 1 1 8 (32)
I0608 17:25:21.771134 10448 net.cpp:165] Memory required for data: 991232544
I0608 17:25:21.771137 10448 layer_factory.hpp:77] Creating layer conv9_2_mbox_conf_flat
I0608 17:25:21.771143 10448 net.cpp:100] Creating Layer conv9_2_mbox_conf_flat
I0608 17:25:21.771148 10448 net.cpp:434] conv9_2_mbox_conf_flat <- conv9_2_mbox_conf_perm
I0608 17:25:21.771155 10448 net.cpp:408] conv9_2_mbox_conf_flat -> conv9_2_mbox_conf_flat
I0608 17:25:21.771183 10448 net.cpp:150] Setting up conv9_2_mbox_conf_flat
I0608 17:25:21.771189 10448 net.cpp:157] Top shape: 4 8 (32)
I0608 17:25:21.771193 10448 net.cpp:165] Memory required for data: 991232672
I0608 17:25:21.771198 10448 layer_factory.hpp:77] Creating layer conv9_2_mbox_priorbox
I0608 17:25:21.771204 10448 net.cpp:100] Creating Layer conv9_2_mbox_priorbox
I0608 17:25:21.771209 10448 net.cpp:434] conv9_2_mbox_priorbox <- conv9_2_conv9_2_relu_0_split_2
I0608 17:25:21.771214 10448 net.cpp:434] conv9_2_mbox_priorbox <- data_data_0_split_6
I0608 17:25:21.771224 10448 net.cpp:408] conv9_2_mbox_priorbox -> conv9_2_mbox_priorbox
I0608 17:25:21.771252 10448 net.cpp:150] Setting up conv9_2_mbox_priorbox
I0608 17:25:21.771258 10448 net.cpp:157] Top shape: 1 2 16 (32)
I0608 17:25:21.771262 10448 net.cpp:165] Memory required for data: 991232800
I0608 17:25:21.771266 10448 layer_factory.hpp:77] Creating layer mbox_loc
I0608 17:25:21.771273 10448 net.cpp:100] Creating Layer mbox_loc
I0608 17:25:21.771278 10448 net.cpp:434] mbox_loc <- conv4_3_norm_mbox_loc_flat
I0608 17:25:21.771284 10448 net.cpp:434] mbox_loc <- fc7_mbox_loc_flat
I0608 17:25:21.771291 10448 net.cpp:434] mbox_loc <- conv6_2_mbox_loc_flat
I0608 17:25:21.771296 10448 net.cpp:434] mbox_loc <- conv7_2_mbox_loc_flat
I0608 17:25:21.771301 10448 net.cpp:434] mbox_loc <- conv8_2_mbox_loc_flat
I0608 17:25:21.771306 10448 net.cpp:434] mbox_loc <- conv9_2_mbox_loc_flat
I0608 17:25:21.771313 10448 net.cpp:408] mbox_loc -> mbox_loc
I0608 17:25:21.771340 10448 net.cpp:150] Setting up mbox_loc
I0608 17:25:21.771347 10448 net.cpp:157] Top shape: 4 34928 (139712)
I0608 17:25:21.771349 10448 net.cpp:165] Memory required for data: 991791648
I0608 17:25:21.771354 10448 layer_factory.hpp:77] Creating layer mbox_conf
I0608 17:25:21.771360 10448 net.cpp:100] Creating Layer mbox_conf
I0608 17:25:21.771364 10448 net.cpp:434] mbox_conf <- conv4_3_norm_mbox_conf_flat
I0608 17:25:21.771369 10448 net.cpp:434] mbox_conf <- fc7_mbox_conf_flat
I0608 17:25:21.771375 10448 net.cpp:434] mbox_conf <- conv6_2_mbox_conf_flat
I0608 17:25:21.771380 10448 net.cpp:434] mbox_conf <- conv7_2_mbox_conf_flat
I0608 17:25:21.771384 10448 net.cpp:434] mbox_conf <- conv8_2_mbox_conf_flat
I0608 17:25:21.771389 10448 net.cpp:434] mbox_conf <- conv9_2_mbox_conf_flat
I0608 17:25:21.771404 10448 net.cpp:408] mbox_conf -> mbox_conf
I0608 17:25:21.771432 10448 net.cpp:150] Setting up mbox_conf
I0608 17:25:21.771437 10448 net.cpp:157] Top shape: 4 17464 (69856)
I0608 17:25:21.771440 10448 net.cpp:165] Memory required for data: 992071072
I0608 17:25:21.771443 10448 layer_factory.hpp:77] Creating layer mbox_priorbox
I0608 17:25:21.771450 10448 net.cpp:100] Creating Layer mbox_priorbox
I0608 17:25:21.771455 10448 net.cpp:434] mbox_priorbox <- conv4_3_norm_mbox_priorbox
I0608 17:25:21.771459 10448 net.cpp:434] mbox_priorbox <- fc7_mbox_priorbox
I0608 17:25:21.771464 10448 net.cpp:434] mbox_priorbox <- conv6_2_mbox_priorbox
I0608 17:25:21.771471 10448 net.cpp:434] mbox_priorbox <- conv7_2_mbox_priorbox
I0608 17:25:21.771474 10448 net.cpp:434] mbox_priorbox <- conv8_2_mbox_priorbox
I0608 17:25:21.771478 10448 net.cpp:434] mbox_priorbox <- conv9_2_mbox_priorbox
I0608 17:25:21.771486 10448 net.cpp:408] mbox_priorbox -> mbox_priorbox
I0608 17:25:21.771512 10448 net.cpp:150] Setting up mbox_priorbox
I0608 17:25:21.771517 10448 net.cpp:157] Top shape: 1 2 34928 (69856)
I0608 17:25:21.771522 10448 net.cpp:165] Memory required for data: 992350496
I0608 17:25:21.771524 10448 layer_factory.hpp:77] Creating layer mbox_conf_reshape
I0608 17:25:21.771533 10448 net.cpp:100] Creating Layer mbox_conf_reshape
I0608 17:25:21.771538 10448 net.cpp:434] mbox_conf_reshape <- mbox_conf
I0608 17:25:21.771543 10448 net.cpp:408] mbox_conf_reshape -> mbox_conf_reshape
I0608 17:25:21.771574 10448 net.cpp:150] Setting up mbox_conf_reshape
I0608 17:25:21.771581 10448 net.cpp:157] Top shape: 4 8732 2 (69856)
I0608 17:25:21.771584 10448 net.cpp:165] Memory required for data: 992629920
I0608 17:25:21.771589 10448 layer_factory.hpp:77] Creating layer mbox_conf_softmax
I0608 17:25:21.771595 10448 net.cpp:100] Creating Layer mbox_conf_softmax
I0608 17:25:21.771600 10448 net.cpp:434] mbox_conf_softmax <- mbox_conf_reshape
I0608 17:25:21.771607 10448 net.cpp:408] mbox_conf_softmax -> mbox_conf_softmax
I0608 17:25:21.771812 10448 net.cpp:150] Setting up mbox_conf_softmax
I0608 17:25:21.771821 10448 net.cpp:157] Top shape: 4 8732 2 (69856)
I0608 17:25:21.771824 10448 net.cpp:165] Memory required for data: 992909344
I0608 17:25:21.771827 10448 layer_factory.hpp:77] Creating layer mbox_conf_flatten
I0608 17:25:21.771834 10448 net.cpp:100] Creating Layer mbox_conf_flatten
I0608 17:25:21.771839 10448 net.cpp:434] mbox_conf_flatten <- mbox_conf_softmax
I0608 17:25:21.771847 10448 net.cpp:408] mbox_conf_flatten -> mbox_conf_flatten
I0608 17:25:21.771872 10448 net.cpp:150] Setting up mbox_conf_flatten
I0608 17:25:21.771878 10448 net.cpp:157] Top shape: 4 17464 (69856)
I0608 17:25:21.771881 10448 net.cpp:165] Memory required for data: 993188768
I0608 17:25:21.771885 10448 layer_factory.hpp:77] Creating layer detection_out
I0608 17:25:21.771898 10448 net.cpp:100] Creating Layer detection_out
I0608 17:25:21.771901 10448 net.cpp:434] detection_out <- mbox_loc
I0608 17:25:21.771906 10448 net.cpp:434] detection_out <- mbox_conf_flatten
I0608 17:25:21.771911 10448 net.cpp:434] detection_out <- mbox_priorbox
I0608 17:25:21.771919 10448 net.cpp:408] detection_out -> detection_out
I0608 17:25:21.772215 10448 net.cpp:150] Setting up detection_out
I0608 17:25:21.772224 10448 net.cpp:157] Top shape: 1 1 1 7 (7)
I0608 17:25:21.772228 10448 net.cpp:165] Memory required for data: 993188796
I0608 17:25:21.772233 10448 layer_factory.hpp:77] Creating layer detection_eval
I0608 17:25:21.772239 10448 net.cpp:100] Creating Layer detection_eval
I0608 17:25:21.772244 10448 net.cpp:434] detection_eval <- detection_out
I0608 17:25:21.772251 10448 net.cpp:434] detection_eval <- label
I0608 17:25:21.772258 10448 net.cpp:408] detection_eval -> detection_eval
I0608 17:25:21.772346 10448 net.cpp:150] Setting up detection_eval
I0608 17:25:21.772353 10448 net.cpp:157] Top shape: 1 1 2 5 (10)
I0608 17:25:21.772357 10448 net.cpp:165] Memory required for data: 993188836
I0608 17:25:21.772361 10448 net.cpp:228] detection_eval does not need backward computation.
I0608 17:25:21.772372 10448 net.cpp:228] detection_out does not need backward computation.
I0608 17:25:21.772377 10448 net.cpp:228] mbox_conf_flatten does not need backward computation.
I0608 17:25:21.772382 10448 net.cpp:228] mbox_conf_softmax does not need backward computation.
…
