…
        min_scale: 0.3
        max_scale: 1
        min_aspect_ratio: 0.5
        max_aspect_ratio: 2
      }
      sample_constraint {
        min_jaccard_overlap: 0.9
      }
      max_sample: 1
      max_trials: 50
    }
    batch_sampler {
      sampler {
        min_scale: 0.3
        max_scale: 1
        min_aspect_ratio: 0.5
        max_aspect_ratio: 2
      }
      sample_constraint {
        max_jaccard_overlap: 1
      }
      max_sample: 1
      max_trials: 50
    }
    label_map_file: "data/sharpen_tbs_v2.0/labelmap_voc.prototxt"
  }
}
layer {
  name: "conv1_1"
  type: "Convolution"
  bottom: "data"
  top: "conv1_1"
  param {
    lr_mult: 1
    decay_mult: 1
  }
  param {
    lr_mult: 2
    decay_mult: 0
  }
  convolution_param {
    num_output: 64
    pad: 1
    kernel_size: 3
    weight_filler {
      type: "xavier"
    }
    bias_filler {
      type: "constant"
      value: 0
    }
  }
}
layer {
  name: "relu1_1"
  type: "ReLU"
  bottom: "conv1_1"
  top: "conv1_1"
}
layer {
  name: "conv1_2"
  type: "Convolution"
  bottom: "conv1_1"
  top: "conv1_2"
  param {
    lr_mult: 1
    decay_mult: 1
  }
  param {
    lr_mult: 2
    decay_mult: 0
  }
  convolution_param {
    num_output: 64
    pad: 1
    kernel_size: 3
    weight_filler {
      type: "xavier"
    }
    bias_filler {
      type: "constant"
      value: 0
    }
  }
}
layer {
  name: "relu1_2"
  type: "ReLU"
  bottom: "conv1_2"
  top: "conv1_2"
}
layer {
  name: "pool1"
  type: "Pooling"
  bottom: "conv1_2"
  top: "pool1"
  pooling_param {
    pool: MAX
    kernel_size: 2
    stride: 2
  }
}
layer {
  name: "conv2_1"
  type: "Convolution"
  bottom: "pool1"
  top: "conv2_1"
  param {
    lr_mult: 1
    decay_mult: 1
  }
  param {
    lr_mult: 2
    decay_mult: 0
  }
  convolution_param {
    num_output: 128
    pad: 1
    kernel_size: 3
    weight_filler {
      type: "xavier"
    }
    bias_filler {
      type: "constant"
      value: 0
    }
  }
}
layer {
  name: "relu2_1"
  type: "ReLU"
  bottom: "conv2_1"
  top: "conv2_1"
}
layer {
  name: "conv2_2"
  type: "Convolution"
  bottom: "conv2_1"
  top: "conv2_2"
  param {
    lr_mult: 1
    decay_mult: 1
  }
  param {
    lr_mult: 2
    decay_mult: 0
  }
  convolution_param {
    num_output: 128
    pad: 1
    kernel_size: 3
    weight_filler {
      type: "xavier"
    }
    bias_filler {
      type: "constant"
      value: 0
    }
  }
}
layer {
  name: "relu2_2"
  type: "ReLU"
  bottom: "conv2_2"
  top: "conv2_2"
}
layer {
  name: "pool2"
  type: "Pooling"
  bottom: "conv2_2"
  top: "pool2"
  pooling_param {
    pool: MAX
    kernel_size: 2
    stride: 2
  }
}
layer {
  name: "conv3_1"
  type: "Convolution"
  bottom: "pool2"
  top: "conv3_1"
  param {
    lr_mult: 1
    decay_mult: 1
  }
  param {
    lr_mult: 2
    decay_mult: 0
  }
  convolution_param {
    num_output: 256
    pad: 1
    kernel_size: 3
    weight_filler {
      type: "xavier"
    }
    bias_filler {
      type: "constant"
      value: 0
    }
  }
}
layer {
  name: "relu3_1"
  type: "ReLU"
  bottom: "conv3_1"
  top: "conv3_1"
}
layer {
  name: "conv3_2"
  type: "Convolution"
  bottom: "conv3_1"
  top: "conv3_2"
  param {
    lr_mult: 1
    decay_mult: 1
  }
  param {
    lr_mult: 2
    decay_mult: 0
  }
  convolution_param {
    num_output: 256
    pad: 1
    kernel_size: 3
    weight_filler {
      type: "xavier"
    }
    bias_filler {
      type: "constant"
      value: 0
    }
  }
}
layer {
  name: "relu3_2"
  type: "ReLU"
  bottom: "conv3_2"
  top: "conv3_2"
}
layer {
  name: "conv3_3"
  type: "Convolution"
  bottom: "conv3_2"
  top: "conv3_3"
  param {
    lr_mult: 1
    decay_mult: 1
  }
  param {
    lr_mult: 2
    decay_mult: 0
  }
  convolution_param {
    num_output: 256
    pad: 1
    kernel_size: 3
    weight_filler {
      type: "xavier"
    }
    bias_filler {
      type: "constant"
      value: 0
    }
  }
}
layer {
  name: "relu3_3"
  type: "ReLU"
  bottom: "conv3_3"
  top: "conv3_3"
}
layer {
  name: "pool3"
  type: "Pooling"
  bottom: "conv3_3"
  top: "pool3"
  pooling_param {
    pool: MAX
    kernel_size: 2
    stride: 2
  }
}
layer {
  name: "conv4_1"
  type: "Convolution"
  bottom: "pool3"
  top: "conv4_1"
  param {
    lr_mult: 1
    decay_mult: 1
  }
  param {
    lr_mult: 2
    decay_mult: 0
  }
  convolution_param {
    num_output: 512
    pad: 1
    kernel_size: 3
    weight_filler {
      type: "xavier"
    }
    bias_filler {
      type: "constant"
      value: 0
    }
  }
}
layer {
  name: "relu4_1"
  type: "ReLU"
  bottom: "conv4_1"
  top: "conv4_1"
}
layer {
  name: "conv4_2"
  type: "Convolution"
  bottom: "conv4_1"
  top: "conv4_2"
  param {
    lr_mult: 1
    decay_mult: 1
  }
  param {
    lr_mult: 2
    decay_mult: 0
  }
  convolution_param {
    num_output: 512
    pad: 1
    kernel_size: 3
    weight_filler {
      type: "xavier"
    }
    bias_filler {
      type: "constant"
      value: 0
    }
  }
}
layer {
  name: "relu4_2"
  type: "ReLU"
  bottom: "conv4_2"
  top: "conv4_2"
}
layer {
  name: "conv4_3"
  type: "Convolution"
  bottom: "conv4_2"
  top: "conv4_3"
  param {
    lr_mult: 1
    decay_mult: 1
  }
  param {
    lr_mult: 2
    decay_mult: 0
  }
  convolution_param {
    num_output: 512
    pad: 1
    kernel_size: 3
    weight_filler {
      type: "xavier"
    }
    bias_filler {
      type: "constant"
      value: 0
    }
  }
}
layer {
  name: "relu4_3"
  type: "ReLU"
  bottom: "conv4_3"
  top: "conv4_3"
}
layer {
  name: "pool4"
  type: "Pooling"
  bottom: "conv4_3"
  top: "pool4"
  pooling_param {
    pool: MAX
    kernel_size: 2
    stride: 2
  }
}
layer {
  name: "conv5_1"
  type: "Convolution"
  bottom: "pool4"
  top: "conv5_1"
  param {
    lr_mult: 1
    decay_mult: 1
  }
  param {
    lr_mult: 2
    decay_mult: 0
  }
  convolution_param {
    num_output: 512
    pad: 1
    kernel_size: 3
    weight_filler {
      type: "xavier"
    }
    bias_filler {
      type: "constant"
      value: 0
    }
    dilation: 1
  }
}
layer {
  name: "relu5_1"
  type: "ReLU"
  bottom: "conv5_1"
  top: "conv5_1"
}
layer {
  name: "conv5_2"
  type: "Convolution"
  bottom: "conv5_1"
  top: "conv5_2"
  param {
    lr_mult: 1
    decay_mult: 1
  }
  param {
    lr_mult: 2
    decay_mult: 0
  }
  convolution_param {
    num_output: 512
    pad: 1
    kernel_size: 3
    weight_filler {
      type: "xavier"
    }
    bias_filler {
      type: "constant"
      value: 0
    }
    dilation: 1
  }
}
layer {
  name: "relu5_2"
  type: "ReLU"
  bottom: "conv5_2"
  top: "conv5_2"
}
layer {
  name: "conv5_3"
  type: "Convolution"
  bottom: "conv5_2"
  top: "conv5_3"
  param {
    lr_mult: 1
    decay_mult: 1
  }
  param {
    lr_mult: 2
    decay_mult: 0
  }
  convolution_param {
    num_output: 512
    pad: 1
    kernel_size: 3
    weight_filler {
      type: "xavier"
    }
    bias_filler {
      type: "constant"
      value: 0
    }
    dilation: 1
  }
}
layer {
  name: "relu5_3"
  type: "ReLU"
  bottom: "conv5_3"
  top: "conv5_3"
}
layer {
  name: "pool5"
  type: "Pooling"
  bottom: "conv5_3"
  top: "pool5"
  pooling_param {
    pool: MAX
    kernel_size: 3
    stride: 1
    pad: 1
  }
}
layer {
  name: "fc6"
  type: "Convolution"
  bottom: "pool5"
  top: "fc6"
  param {
    lr_mult: 1
    decay_mult: 1
  }
  param {
    lr_mult: 2
    decay_mult: 0
  }
  convolution_param {
    num_output: 1024
    pad: 6
    kernel_size: 3
    weight_filler {
      type: "xavier"
    }
    bias_filler {
      type: "constant"
      value: 0
    }
    dilation: 6
  }
}
layer {
  name: "relu6"
  type: "ReLU"
  bottom: "fc6"
  top: "fc6"
}
layer {
  name: "fc7"
  type: "Convolution"
  bottom: "fc6"
  top: "fc7"
  param {
    lr_mult: 1
    decay_mult: 1
  }
  param {
    lr_mult: 2
    decay_mult: 0
  }
  convolution_param {
    num_output: 1024
    kernel_size: 1
    weight_filler {
      type: "xavier"
    }
    bias_filler {
      type: "constant"
      value: 0
    }
  }
}
layer {
  name: "relu7"
  type: "ReLU"
  bottom: "fc7"
  top: "fc7"
}
layer {
  name: "conv6_1"
  type: "Convolution"
  bottom: "fc7"
  top: "conv6_1"
  param {
    lr_mult: 1
    decay_mult: 1
  }
  param {
    lr_mult: 2
    decay_mult: 0
  }
  convolution_param {
    num_output: 256
    pad: 0
    kernel_size: 1
    stride: 1
    weight_filler {
      type: "xavier"
    }
    bias_filler {
      type: "constant"
      value: 0
    }
  }
}
layer {
  name: "conv6_1_relu"
  type: "ReLU"
  bottom: "conv6_1"
  top: "conv6_1"
}
layer {
  name: "conv6_2"
  type: "Convolution"
  bottom: "conv6_1"
  top: "conv6_2"
  param {
    lr_mult: 1
    decay_mult: 1
  }
  param {
    lr_mult: 2
    decay_mult: 0
  }
  convolution_param {
    num_output: 512
    pad: 1
    kernel_size: 3
    stride: 2
    weight_filler {
      type: "xavier"
    }
    bias_filler {
      type: "constant"
      value: 0
    }
  }
}
layer {
  name: "conv6_2_relu"
  type: "ReLU"
  bottom: "conv6_2"
  top: "conv6_2"
}
layer {
  name: "conv7_1"
  type: "Convolution"
  bottom: "conv6_2"
  top: "conv7_1"
  param {
    lr_mult: 1
    decay_mult: 1
  }
  param {
    lr_mult: 2
    decay_mult: 0
  }
  convolution_param {
    num_output: 128
    pad: 0
    kernel_size: 1
    stride: 1
    weight_filler {
      type: "xavier"
    }
    bias_filler {
      type: "constant"
      value: 0
    }
  }
}
layer {
  name: "conv7_1_relu"
  type: "ReLU"
  bottom: "conv7_1"
  top: "conv7_1"
}
layer {
  name: "conv7_2"
  type: "Convolution"
  bottom: "conv7_1"
  top: "conv7_2"
  param {
    lr_mult: 1
    decay_mult: 1
  }
  param {
    lr_mult: 2
    decay_mult: 0
  }
  convolution_param {
    num_output: 256
    pad: 1
    kernel_size: 3
    stride: 2
    weight_filler {
      type: "xavier"
    }
    bias_filler {
      type: "constant"
      value: 0
    }
  }
}
layer {
  name: "conv7_2_relu"
  type: "ReLU"
  bottom: "conv7_2"
  top: "conv7_2"
}
layer {
  name: "conv8_1"
  type: "Convolution"
  bottom: "conv7_2"
  top: "conv8_1"
  param {
    lr_mult: 1
    decay_mult: 1
  }
  param {
    lr_mult: 2
    decay_mult: 0
  }
  convolution_param {
    num_output: 128
    pad: 0
    kernel_size: 1
    stride: 1
    weight_filler {
      type: "xavier"
    }
    bias_filler {
      type: "constant"
      value: 0
    }
  }
}
layer {
  name: "conv8_1_relu"
  type: "ReLU"
  bottom: "conv8_1"
  top: "conv8_1"
}
layer {
  name: "conv8_2"
  type: "Convolution"
  bottom: "conv8_1"
  top: "conv8_2"
  param {
    lr_mult: 1
    decay_mult: 1
  }
  param {
    lr_mult: 2
    decay_mult: 0
  }
  convolution_param {
    num_output: 256
    pad: 0
    kernel_size: 3
    stride: 1
    weight_filler {
      type: "xavier"
    }
    bias_filler {
      type: "constant"
      value: 0
    }
  }
}
layer {
  name: "conv8_2_relu"
  type: "ReLU"
  bottom: "conv8_2"
  top: "conv8_2"
}
layer {
  name: "conv9_1"
  type: "Convolution"
  bottom: "conv8_2"
  top: "conv9_1"
  param {
    lr_mult: 1
    decay_mult: 1
  }
  param {
    lr_mult: 2
    decay_mult: 0
  }
  convolution_param {
    num_output: 128
    pad: 0
    kernel_size: 1
    stride: 1
    weight_filler {
      type: "xavier"
    }
    bias_filler {
      type: "constant"
      value: 0
    }
  }
}
layer {
  name: "conv9_1_relu"
  type: "ReLU"
  bottom: "conv9_1"
  top: "conv9_1"
}
layer {
  name: "conv9_2"
  type: "Convolution"
  bottom: "conv9_1"
  top: "conv9_2"
  param {
    lr_mult: 1
    decay_mult: 1
  }
  param {
    lr_mult: 2
    decay_mult: 0
  }
  convolution_param {
    num_output: 256
    pad: 0
    kernel_size: 3
    stride: 1
    weight_filler {
      type: "xavier"
    }
    bias_filler {
      type: "constant"
      value: 0
    }
  }
}
layer {
  name: "conv9_2_relu"
  type: "ReLU"
  bottom: "conv9_2"
  top: "conv9_2"
}
layer {
  name: "conv4_3_norm"
  type: "Normalize"
  bottom: "conv4_3"
  top: "conv4_3_norm"
  norm_param {
    across_spatial: false
    scale_filler {
      type: "constant"
      value: 20
    }
    channel_shared: false
  }
}
layer {
  name: "conv4_3_norm_mbox_loc"
  type: "Convolution"
  bottom: "conv4_3_norm"
  top: "conv4_3_norm_mbox_loc"
  param {
    lr_mult: 1
    decay_mult: 1
  }
  param {
    lr_mult: 2
    decay_mult: 0
  }
  convolution_param {
    num_output: 16
    pad: 1
    kernel_size: 3
    stride: 1
    weight_filler {
      type: "xavier"
    }
    bias_filler {
      type: "constant"
      value: 0
    }
  }
}
layer {
  name: "conv4_3_norm_mbox_loc_perm"
  type: "Permute"
  bottom: "conv4_3_norm_mbox_loc"
  top: "conv4_3_norm_mbox_loc_perm"
  permute_param {
    order: 0
    order: 2
    order: 3
    order: 1
  }
}
layer {
  name: "conv4_3_norm_mbox_loc_flat"
  type: "Flatten"
  bottom: "conv4_3_norm_mbox_loc_perm"
  top: "conv4_3_norm_mbox_loc_flat"
  flatten_param {
    axis: 1
  }
}
layer {
  name: "conv4_3_norm_mbox_conf"
  type: "Convolution"
  bottom: "conv4_3_norm"
  top: "conv4_3_norm_mbox_conf"
  param {
    lr_mult: 1
    decay_mult: 1
  }
  param {
    lr_mult: 2
    decay_mult: 0
  }
  convolution_param {
    num_output: 8
    pad: 1
    kernel_size: 3
    stride: 1
    weight_filler {
      type: "xavier"
    }
    bias_filler {
      type: "constant"
      value: 0
    }
  }
}
layer {
  name: "conv4_3_norm_mbox_conf_perm"
  type: "Permute"
  bottom: "conv4_3_norm_mbox_conf"
  top: "conv4_3_norm_mbox_conf_perm"
  permute_param {
    order: 0
    order: 2
    order: 3
    order: 1
  }
}
layer {
  name: "conv4_3_norm_mbox_conf_flat"
  type: "Flatten"
  bottom: "conv4_3_norm_mbox_conf_perm"
  top: "conv4_3_norm_mbox_conf_flat"
  flatten_param {
    axis: 1
  }
}
layer {
  name: "conv4_3_norm_mbox_priorbox"
  type: "PriorBox"
  bottom: "conv4_3_norm"
  bottom: "data"
  top: "conv4_3_norm_mbox_priorbox"
  prior_box_param {
    min_size: 30
    max_size: 60
    aspect_ratio: 2
    flip: true
    clip: false
    variance: 0.1
    variance: 0.1
    variance: 0.2
    variance: 0.2
    step: 8
    offset: 0.5
  }
}
layer {
  name: "fc7_mbox_loc"
  type: "Convolution"
  bottom: "fc7"
  top: "fc7_mbox_loc"
  param {
    lr_mult: 1
    decay_mult: 1
  }
  param {
    lr_mult: 2
    decay_mult: 0
  }
  convolution_param {
    num_output: 24
    pad: 1
    kernel_size: 3
    stride: 1
    weight_filler {
      type: "xavier"
    }
    bias_filler {
      type: "constant"
      value: 0
    }
  }
}
layer {
  name: "fc7_mbox_loc_perm"
  type: "Permute"
  bottom: "fc7_mbox_loc"
  top: "fc7_mbox_loc_perm"
  permute_param {
    order: 0
    order: 2
    order: 3
    order: 1
  }
}
layer {
  name: "fc7_mbox_loc_flat"
  type: "Flatten"
  bottom: "fc7_mbox_loc_perm"
  top: "fc7_mbox_loc_flat"
  flatten_param {
    axis: 1
  }
}
layer {
  name: "fc7_mbox_conf"
  type: "Convolution"
  bottom: "fc7"
  top: "fc7_mbox_conf"
  param {
    lr_mult: 1
    decay_mult: 1
  }
  param {
    lr_mult: 2
    decay_mult: 0
  }
  convolution_param {
    num_output: 12
    pad: 1
    kernel_size: 3
    stride: 1
    weight_filler {
      type: "xavier"
    }
    bias_filler {
      type: "constant"
      value: 0
    }
  }
}
layer {
  name: "fc7_mbox_conf_perm"
  type: "Permute"
  bottom: "fc7_mbox_conf"
  top: "fc7_mbox_conf_perm"
  permute_param {
    order: 0
    order: 2
    order: 3
    order: 1
  }
}
layer {
  name: "fc7_mbox_conf_flat"
  type: "Flatten"
  bottom: "fc7_mbox_conf_perm"
  top: "fc7_mbox_conf_flat"
  flatten_param {
    axis: 1
  }
}
layer {
  name: "fc7_mbox_priorbox"
  type: "PriorBox"
  bottom: "fc7"
  bottom: "data"
  top: "fc7_mbox_priorbox"
  prior_box_param {
    min_size: 60
    max_size: 111
    aspect_ratio: 2
    aspect_ratio: 3
    flip: true
    clip: false
    variance: 0.1
    variance: 0.1
    variance: 0.2
    variance: 0.2
    step: 16
    offset: 0.5
  }
}
layer {
  name: "conv6_2_mbox_loc"
  type: "Convolution"
  bottom: "conv6_2"
  top: "conv6_2_mbox_loc"
  param {
    lr_mult: 1
    decay_mult: 1
  }
  param {
    lr_mult: 2
    decay_mult: 0
  }
  convolution_param {
    num_output: 24
    pad: 1
    kernel_size: 3
    stride: 1
    weight_filler {
      type: "xavier"
    }
    bias_filler {
      type: "constant"
      value: 0
    }
  }
}
layer {
  name: "conv6_2_mbox_loc_perm"
  type: "Permute"
  bottom: "conv6_2_mbox_loc"
  top: "conv6_2_mbox_loc_perm"
  permute_param {
    order: 0
    order: 2
    order: 3
    order: 1
  }
}
layer {
  name: "conv6_2_mbox_loc_flat"
  type: "Flatten"
  bottom: "conv6_2_mbox_loc_perm"
  top: "conv6_2_mbox_loc_flat"
  flatten_param {
    axis: 1
  }
}
layer {
  name: "conv6_2_mbox_conf"
  type: "Convolution"
  bottom: "conv6_2"
  top: "conv6_2_mbox_conf"
  param {
    lr_mult: 1
    decay_mult: 1
  }
  param {
    lr_mult: 2
    decay_mult: 0
  }
  convolution_param {
    num_output: 12
    pad: 1
    kernel_size: 3
    stride: 1
    weight_filler {
      type: "xavier"
    }
    bias_filler {
      type: "constant"
      value: 0
    }
  }
}
layer {
  name: "conv6_2_mbox_conf_perm"
  type: "Permute"
  bottom: "conv6_2_mbox_conf"
  top: "conv6_2_mbox_conf_perm"
  permute_param {
    order: 0
    order: 2
    order: 3
    order: 1
  }
}
layer {
  name: "conv6_2_mbox_conf_flat"
  type: "Flatten"
  bottom: "conv6_2_mbox_conf_perm"
  top: "conv6_2_mbox_conf_flat"
  flatten_param {
    axis: 1
  }
}
layer {
  name: "conv6_2_mbox_priorbox"
  type: "PriorBox"
  bottom: "conv6_2"
  bottom: "data"
  top: "conv6_2_mbox_priorbox"
  prior_box_param {
    min_size: 111
    max_size: 162
    aspect_ratio: 2
    aspect_ratio: 3
    flip: true
    clip: false
    variance: 0.1
    variance: 0.1
    variance: 0.2
    variance: 0.2
    step: 32
    offset: 0.5
  }
}
layer {
  name: "conv7_2_mbox_loc"
  type: "Convolution"
  bottom: "conv7_2"
  top: "conv7_2_mbox_loc"
  param {
    lr_mult: 1
    decay_mult: 1
  }
  param {
    lr_mult: 2
    decay_mult: 0
  }
  convolution_param {
    num_output: 24
    pad: 1
    kernel_size: 3
    stride: 1
    weight_filler {
      type: "xavier"
    }
    bias_filler {
      type: "constant"
      value: 0
    }
  }
}
layer {
  name: "conv7_2_mbox_loc_perm"
  type: "Permute"
  bottom: "conv7_2_mbox_loc"
  top: "conv7_2_mbox_loc_perm"
  permute_param {
    order: 0
    order: 2
    order: 3
    order: 1
  }
}
layer {
  name: "conv7_2_mbox_loc_flat"
  type: "Flatten"
  bottom: "conv7_2_mbox_loc_perm"
  top: "conv7_2_mbox_loc_flat"
  flatten_param {
    axis: 1
  }
}
layer {
  name: "conv7_2_mbox_conf"
  type: "Convolution"
  bottom: "conv7_2"
  top: "conv7_2_mbox_conf"
  param {
    lr_mult: 1
    decay_mult: 1
  }
  param {
    lr_mult: 2
    decay_mult: 0
  }
  convolution_param {
    num_output: 12
    pad: 1
    kernel_size: 3
    stride: 1
    weight_filler {
      type: "xavier"
    }
    bias_filler {
      type: "constant"
      value: 0
    }
  }
}
layer {
  name: "conv7_2_mbox_conf_perm"
  type: "Permute"
  bottom: "conv7_2_mbox_conf"
  top: "conv7_2_mbox_conf_perm"
  permute_param {
    order: 0
    order: 2
    order: 3
    order: 1
  }
}
layer {
  name: "conv7_2_mbox_conf_flat"
  type: "Flatten"
  bottom: "conv7_2_mbox_conf_perm"
  top: "conv7_2_mbox_conf_flat"
  flatten_param {
    axis: 1
  }
}
layer {
  name: "conv7_2_mbox_priorbox"
  type: "PriorBox"
  bottom: "conv7_2"
  bottom: "data"
  top: "conv7_2_mbox_priorbox"
  prior_box_param {
    min_size: 162
    max_size: 213
    aspect_ratio: 2
    aspect_ratio: 3
    flip: true
    clip: false
    variance: 0.1
    variance: 0.1
    variance: 0.2
    variance: 0.2
    step: 64
    offset: 0.5
  }
}
layer {
  name: "conv8_2_mbox_loc"
  type: "Convolution"
  bottom: "conv8_2"
  top: "conv8_2_mbox_loc"
  param {
    lr_mult: 1
    decay_mult: 1
  }
  param {
    lr_mult: 2
    decay_mult: 0
  }
  convolution_param {
    num_output: 16
    pad: 1
    kernel_size: 3
    stride: 1
    weight_filler {
      type: "xavier"
    }
    bias_filler {
      type: "constant"
      value: 0
    }
  }
}
layer {
  name: "conv8_2_mbox_loc_perm"
  type: "Permute"
  bottom: "conv8_2_mbox_loc"
  top: "conv8_2_mbox_loc_perm"
  permute_param {
    order: 0
    order: 2
    order: 3
    order: 1
  }
}
layer {
  name: "conv8_2_mbox_loc_flat"
  type: "Flatten"
  bottom: "conv8_2_mbox_loc_perm"
  top: "conv8_2_mbox_loc_flat"
  flatten_param {
    axis: 1
  }
}
layer {
  name: "conv8_2_mbox_conf"
  type: "Convolution"
  bottom: "conv8_2"
  top: "conv8_2_mbox_conf"
  param {
    lr_mult: 1
    decay_mult: 1
  }
  param {
    lr_mult: 2
    decay_mult: 0
  }
  convolution_param {
    num_output: 8
    pad: 1
    kernel_size: 3
    stride: 1
    weight_filler {
      type: "xavier"
    }
    bias_filler {
      type: "constant"
      value: 0
    }
  }
}
layer {
  name: "conv8_2_mbox_conf_perm"
  type: "Permute"
  bottom: "conv8_2_mbox_conf"
  top: "conv8_2_mbox_conf_perm"
  permute_param {
    order: 0
    order: 2
    order: 3
    order: 1
  }
}
layer {
  name: "conv8_2_mbox_conf_flat"
  type: "Flatten"
  bottom: "conv8_2_mbox_conf_perm"
  top: "conv8_2_mbox_conf_flat"
  flatten_param {
    axis: 1
  }
}
layer {
  name: "conv8_2_mbox_priorbox"
  type: "PriorBox"
  bottom: "conv8_2"
  bottom: "data"
  top: "conv8_2_mbox_priorbox"
  prior_box_param {
    min_size: 213
    max_size: 264
    aspect_ratio: 2
    flip: true
    clip: false
    variance: 0.1
    variance: 0.1
    variance: 0.2
    variance: 0.2
    step: 100
    offset: 0.5
  }
}
layer {
  name: "conv9_2_mbox_loc"
  type: "Convolution"
  bottom: "conv9_2"
  top: "conv9_2_mbox_loc"
  param {
    lr_mult: 1
    decay_mult: 1
  }
  param {
    lr_mult: 2
    decay_mult: 0
  }
  convolution_param {
    num_output: 16
    pad: 1
    kernel_size: 3
    stride: 1
    weight_filler {
      type: "xavier"
    }
    bias_filler {
      type: "constant"
      value: 0
    }
  }
}
layer {
  name: "conv9_2_mbox_loc_perm"
  type: "Permute"
  bottom: "conv9_2_mbox_loc"
  top: "conv9_2_mbox_loc_perm"
  permute_param {
    order: 0
    order: 2
    order: 3
    order: 1
  }
}
layer {
  name: "conv9_2_mbox_loc_flat"
  type: "Flatten"
  bottom: "conv9_2_mbox_loc_perm"
  top: "conv9_2_mbox_loc_flat"
  flatten_param {
    axis: 1
  }
}
layer {
  name: "conv9_2_mbox_conf"
  type: "Convolution"
  bottom: "conv9_2"
  top: "conv9_2_mbox_conf"
  param {
    lr_mult: 1
    decay_mult: 1
  }
  param {
    lr_mult: 2
    decay_mult: 0
  }
  convolution_param {
    num_output: 8
    pad: 1
    kernel_size: 3
    stride: 1
    weight_filler {
      type: "xavier"
    }
    bias_filler {
      type: "constant"
      value: 0
    }
  }
}
layer {
  name: "conv9_2_mbox_conf_perm"
  type: "Permute"
  bottom: "conv9_2_mbox_conf"
  top: "conv9_2_mbox_conf_perm"
  permute_param {
    order: 0
    order: 2
    order: 3
    order: 1
  }
}
layer {
  name: "conv9_2_mbox_conf_flat"
  type: "Flatten"
  bottom: "conv9_2_mbox_conf_perm"
  top: "conv9_2_mbox_conf_flat"
  flatten_param {
    axis: 1
  }
}
layer {
  name: "conv9_2_mbox_priorbox"
  type: "PriorBox"
  bottom: "conv9_2"
  bottom: "data"
  top: "conv9_2_mbox_priorbox"
  prior_box_param {
    min_size: 264
    max_size: 315
    aspect_ratio: 2
    flip: true
    clip: false
    variance: 0.1
    variance: 0.1
    variance: 0.2
    variance: 0.2
    step: 300
    offset: 0.5
  }
}
layer {
  name: "mbox_loc"
  type: "Concat"
  bottom: "conv4_3_norm_mbox_loc_flat"
  bottom: "fc7_mbox_loc_flat"
  bottom: "conv6_2_mbox_loc_flat"
  bottom: "conv7_2_mbox_loc_flat"
  bottom: "conv8_2_mbox_loc_flat"
  bottom: "conv9_2_mbox_loc_flat"
  top: "mbox_loc"
  concat_param {
    axis: 1
  }
}
layer {
  name: "mbox_conf"
  type: "Concat"
  bottom: "conv4_3_norm_mbox_conf_flat"
  bottom: "fc7_mbox_conf_flat"
  bottom: "conv6_2_mbox_conf_flat"
  bottom: "conv7_2_mbox_conf_flat"
  bottom: "conv8_2_mbox_conf_flat"
  bottom: "conv9_2_mbox_conf_flat"
  top: "mbox_conf"
  concat_param {
    axis: 1
  }
}
layer {
  name: "mbox_priorbox"
  type: "Concat"
  bottom: "conv4_3_norm_mbox_priorbox"
  bottom: "fc7_mbox_priorbox"
  bottom: "conv6_2_mbox_priorbox"
  bottom: "conv7_2_mbox_priorbox"
  bottom: "conv8_2_mbox_priorbox"
  bottom: "conv9_2_mbox_priorbox"
  top: "mbox_priorbox"
  concat_param {
    axis: 2
  }
}
layer {
  name: "mbox_loss"
  type: "MultiBoxLoss"
  bottom: "mbox_loc"
  bottom: "mbox_conf"
  bottom: "mbox_priorbox"
  bottom: "label"
  top: "mbox_loss"
  include {
    phase: TRAIN
  }
  propagate_down: true
  propagate_down: true
  propagate_down: false
  propagate_down: false
  loss_param {
    normalization: VALID
  }
  multibox_loss_param {
    loc_loss_type: SMOOTH_L1
    conf_loss_type: SOFTMAX
    loc_weight: 1
    num_classes: 2
    share_location: true
    match_type: PER_PREDICTION
    overlap_threshold: 0.5
    use_prior_for_matching: true
    background_label_id: 0
    use_difficult_gt: true
    neg_pos_ratio: 3
    neg_overlap: 0.5
    code_type: CENTER_SIZE
    ignore_cross_boundary_bbox: false
    mining_type: MAX_NEGATIVE
  }
}
I0608 12:20:22.096057 30581 layer_factory.hpp:77] Creating layer data
I0608 12:20:22.096238 30581 net.cpp:100] Creating Layer data
I0608 12:20:22.096257 30581 net.cpp:408] data -> data
I0608 12:20:22.096298 30581 net.cpp:408] data -> label
I0608 12:20:22.096858 30599 db_lmdb.cpp:35] Opened lmdb examples/sharpen_tbs_v2.0/sharpen_tbs_v2.0_trainval_lmdb
I0608 12:20:22.124303 30581 annotated_data_layer.cpp:62] output data size: 32,3,300,300
I0608 12:20:22.183904 30581 net.cpp:150] Setting up data
I0608 12:20:22.183928 30581 net.cpp:157] Top shape: 32 3 300 300 (8640000)
I0608 12:20:22.183948 30581 net.cpp:157] Top shape: 1 1 1 8 (8)
I0608 12:20:22.183962 30581 net.cpp:165] Memory required for data: 34560032
I0608 12:20:22.183971 30581 layer_factory.hpp:77] Creating layer data_data_0_split
I0608 12:20:22.184000 30581 net.cpp:100] Creating Layer data_data_0_split
I0608 12:20:22.184020 30581 net.cpp:434] data_data_0_split <- data
I0608 12:20:22.184029 30581 net.cpp:408] data_data_0_split -> data_data_0_split_0
I0608 12:20:22.184038 30581 net.cpp:408] data_data_0_split -> data_data_0_split_1
I0608 12:20:22.184046 30581 net.cpp:408] data_data_0_split -> data_data_0_split_2
I0608 12:20:22.184065 30581 net.cpp:408] data_data_0_split -> data_data_0_split_3
I0608 12:20:22.184072 30581 net.cpp:408] data_data_0_split -> data_data_0_split_4
I0608 12:20:22.184077 30581 net.cpp:408] data_data_0_split -> data_data_0_split_5
I0608 12:20:22.184084 30581 net.cpp:408] data_data_0_split -> data_data_0_split_6
I0608 12:20:22.184186 30581 net.cpp:150] Setting up data_data_0_split
I0608 12:20:22.184192 30581 net.cpp:157] Top shape: 32 3 300 300 (8640000)
I0608 12:20:22.184195 30581 net.cpp:157] Top shape: 32 3 300 300 (8640000)
I0608 12:20:22.184200 30581 net.cpp:157] Top shape: 32 3 300 300 (8640000)
I0608 12:20:22.184206 30581 net.cpp:157] Top shape: 32 3 300 300 (8640000)
I0608 12:20:22.184211 30581 net.cpp:157] Top shape: 32 3 300 300 (8640000)
I0608 12:20:22.184231 30581 net.cpp:157] Top shape: 32 3 300 300 (8640000)
I0608 12:20:22.184237 30581 net.cpp:157] Top shape: 32 3 300 300 (8640000)
I0608 12:20:22.184242 30581 net.cpp:165] Memory required for data: 276480032
I0608 12:20:22.184244 30581 layer_factory.hpp:77] Creating layer conv1_1
I0608 12:20:22.184273 30581 net.cpp:100] Creating Layer conv1_1
I0608 12:20:22.184276 30581 net.cpp:434] conv1_1 <- data_data_0_split_0
I0608 12:20:22.184283 30581 net.cpp:408] conv1_1 -> conv1_1
I0608 12:20:22.505749 30581 net.cpp:150] Setting up conv1_1
I0608 12:20:22.505769 30581 net.cpp:157] Top shape: 32 64 300 300 (184320000)
I0608 12:20:22.505772 30581 net.cpp:165] Memory required for data: 1013760032
I0608 12:20:22.505801 30581 layer_factory.hpp:77] Creating layer relu1_1
I0608 12:20:22.505810 30581 net.cpp:100] Creating Layer relu1_1
I0608 12:20:22.505815 30581 net.cpp:434] relu1_1 <- conv1_1
I0608 12:20:22.505818 30581 net.cpp:395] relu1_1 -> conv1_1 (in-place)
I0608 12:20:22.506006 30581 net.cpp:150] Setting up relu1_1
I0608 12:20:22.506014 30581 net.cpp:157] Top shape: 32 64 300 300 (184320000)
I0608 12:20:22.506016 30581 net.cpp:165] Memory required for data: 1751040032
I0608 12:20:22.506018 30581 layer_factory.hpp:77] Creating layer conv1_2
I0608 12:20:22.506029 30581 net.cpp:100] Creating Layer conv1_2
I0608 12:20:22.506047 30581 net.cpp:434] conv1_2 <- conv1_1
I0608 12:20:22.506052 30581 net.cpp:408] conv1_2 -> conv1_2
I0608 12:20:22.508458 30581 net.cpp:150] Setting up conv1_2
I0608 12:20:22.508471 30581 net.cpp:157] Top shape: 32 64 300 300 (184320000)
I0608 12:20:22.508473 30581 net.cpp:165] Memory required for data: 2488320032
I0608 12:20:22.508481 30581 layer_factory.hpp:77] Creating layer relu1_2
I0608 12:20:22.508486 30581 net.cpp:100] Creating Layer relu1_2
I0608 12:20:22.508488 30581 net.cpp:434] relu1_2 <- conv1_2
I0608 12:20:22.508492 30581 net.cpp:395] relu1_2 -> conv1_2 (in-place)
I0608 12:20:22.509039 30581 net.cpp:150] Setting up relu1_2
I0608 12:20:22.509048 30581 net.cpp:157] Top shape: 32 64 300 300 (184320000)
I0608 12:20:22.509052 30581 net.cpp:165] Memory required for data: 3225600032
I0608 12:20:22.509055 30581 layer_factory.hpp:77] Creating layer pool1
I0608 12:20:22.509063 30581 net.cpp:100] Creating Layer pool1
I0608 12:20:22.509068 30581 net.cpp:434] pool1 <- conv1_2
I0608 12:20:22.509073 30581 net.cpp:408] pool1 -> pool1
I0608 12:20:22.509115 30581 net.cpp:150] Setting up pool1
I0608 12:20:22.509121 30581 net.cpp:157] Top shape: 32 64 150 150 (46080000)
I0608 12:20:22.509124 30581 net.cpp:165] Memory required for data: 3409920032
I0608 12:20:22.509127 30581 layer_factory.hpp:77] Creating layer conv2_1
I0608 12:20:22.509136 30581 net.cpp:100] Creating Layer conv2_1
I0608 12:20:22.509150 30581 net.cpp:434] conv2_1 <- pool1
I0608 12:20:22.509156 30581 net.cpp:408] conv2_1 -> conv2_1
I0608 12:20:22.510777 30581 net.cpp:150] Setting up conv2_1
I0608 12:20:22.510787 30581 net.cpp:157] Top shape: 32 128 150 150 (92160000)
I0608 12:20:22.510790 30581 net.cpp:165] Memory required for data: 3778560032
I0608 12:20:22.510800 30581 layer_factory.hpp:77] Creating layer relu2_1
I0608 12:20:22.510807 30581 net.cpp:100] Creating Layer relu2_1
I0608 12:20:22.510812 30581 net.cpp:434] relu2_1 <- conv2_1
I0608 12:20:22.510817 30581 net.cpp:395] relu2_1 -> conv2_1 (in-place)
I0608 12:20:22.511354 30581 net.cpp:150] Setting up relu2_1
I0608 12:20:22.511363 30581 net.cpp:157] Top shape: 32 128 150 150 (92160000)
I0608 12:20:22.511366 30581 net.cpp:165] Memory required for data: 4147200032
I0608 12:20:22.511369 30581 layer_factory.hpp:77] Creating layer conv2_2
I0608 12:20:22.511379 30581 net.cpp:100] Creating Layer conv2_2
I0608 12:20:22.511384 30581 net.cpp:434] conv2_2 <- conv2_1
I0608 12:20:22.511389 30581 net.cpp:408] conv2_2 -> conv2_2
I0608 12:20:22.513272 30581 net.cpp:150] Setting up conv2_2
I0608 12:20:22.513280 30581 net.cpp:157] Top shape: 32 128 150 150 (92160000)
I0608 12:20:22.513284 30581 net.cpp:165] Memory required for data: 4515840032
I0608 12:20:22.513293 30581 layer_factory.hpp:77] Creating layer relu2_2
I0608 12:20:22.513298 30581 net.cpp:100] Creating Layer relu2_2
I0608 12:20:22.513312 30581 net.cpp:434] relu2_2 <- conv2_2
I0608 12:20:22.513320 30581 net.cpp:395] relu2_2 -> conv2_2 (in-place)
I0608 12:20:22.513447 30581 net.cpp:150] Setting up relu2_2
I0608 12:20:22.513453 30581 net.cpp:157] Top shape: 32 128 150 150 (92160000)
I0608 12:20:22.513456 30581 net.cpp:165] Memory required for data: 4884480032
I0608 12:20:22.513460 30581 layer_factory.hpp:77] Creating layer pool2
I0608 12:20:22.513468 30581 net.cpp:100] Creating Layer pool2
I0608 12:20:22.513471 30581 net.cpp:434] pool2 <- conv2_2
I0608 12:20:22.513476 30581 net.cpp:408] pool2 -> pool2
I0608 12:20:22.513509 30581 net.cpp:150] Setting up pool2
I0608 12:20:22.513515 30581 net.cpp:157] Top shape: 32 128 75 75 (23040000)
I0608 12:20:22.513519 30581 net.cpp:165] Memory required for data: 4976640032
I0608 12:20:22.513521 30581 layer_factory.hpp:77] Creating layer conv3_1
I0608 12:20:22.513530 30581 net.cpp:100] Creating Layer conv3_1
I0608 12:20:22.513532 30581 net.cpp:434] conv3_1 <- pool2
I0608 12:20:22.513536 30581 net.cpp:408] conv3_1 -> conv3_1
I0608 12:20:22.517175 30581 net.cpp:150] Setting up conv3_1
I0608 12:20:22.517191 30581 net.cpp:157] Top shape: 32 256 75 75 (46080000)
I0608 12:20:22.517194 30581 net.cpp:165] Memory required for data: 5160960032
I0608 12:20:22.517204 30581 layer_factory.hpp:77] Creating layer relu3_1
I0608 12:20:22.517211 30581 net.cpp:100] Creating Layer relu3_1
I0608 12:20:22.517215 30581 net.cpp:434] relu3_1 <- conv3_1
I0608 12:20:22.517220 30581 net.cpp:395] relu3_1 -> conv3_1 (in-place)
I0608 12:20:22.517361 30581 net.cpp:150] Setting up relu3_1
I0608 12:20:22.517369 30581 net.cpp:157] Top shape: 32 256 75 75 (46080000)
I0608 12:20:22.517372 30581 net.cpp:165] Memory required for data: 5345280032
I0608 12:20:22.517375 30581 layer_factory.hpp:77] Creating layer conv3_2
I0608 12:20:22.517382 30581 net.cpp:100] Creating Layer conv3_2
I0608 12:20:22.517385 30581 net.cpp:434] conv3_2 <- conv3_1
I0608 12:20:22.517390 30581 net.cpp:408] conv3_2 -> conv3_2
I0608 12:20:22.522009 30581 net.cpp:150] Setting up conv3_2
I0608 12:20:22.522027 30581 net.cpp:157] Top shape: 32 256 75 75 (46080000)
I0608 12:20:22.522030 30581 net.cpp:165] Memory required for data: 5529600032
I0608 12:20:22.522037 30581 layer_factory.hpp:77] Creating layer relu3_2
I0608 12:20:22.522044 30581 net.cpp:100] Creating Layer relu3_2
I0608 12:20:22.522049 30581 net.cpp:434] relu3_2 <- conv3_2
I0608 12:20:22.522053 30581 net.cpp:395] relu3_2 -> conv3_2 (in-place)
I0608 12:20:22.522192 30581 net.cpp:150] Setting up relu3_2
I0608 12:20:22.522198 30581 net.cpp:157] Top shape: 32 256 75 75 (46080000)
I0608 12:20:22.522200 30581 net.cpp:165] Memory required for data: 5713920032
I0608 12:20:22.522213 30581 layer_factory.hpp:77] Creating layer conv3_3
I0608 12:20:22.522225 30581 net.cpp:100] Creating Layer conv3_3
I0608 12:20:22.522229 30581 net.cpp:434] conv3_3 <- conv3_2
I0608 12:20:22.522233 30581 net.cpp:408] conv3_3 -> conv3_3
I0608 12:20:22.526746 30581 net.cpp:150] Setting up conv3_3
I0608 12:20:22.526762 30581 net.cpp:157] Top shape: 32 256 75 75 (46080000)
I0608 12:20:22.526763 30581 net.cpp:165] Memory required for data: 5898240032
I0608 12:20:22.526784 30581 layer_factory.hpp:77] Creating layer relu3_3
I0608 12:20:22.526790 30581 net.cpp:100] Creating Layer relu3_3
I0608 12:20:22.526794 30581 net.cpp:434] relu3_3 <- conv3_3
I0608 12:20:22.526798 30581 net.cpp:395] relu3_3 -> conv3_3 (in-place)
I0608 12:20:22.526934 30581 net.cpp:150] Setting up relu3_3
I0608 12:20:22.526954 30581 net.cpp:157] Top shape: 32 256 75 75 (46080000)
I0608 12:20:22.526957 30581 net.cpp:165] Memory required for data: 6082560032
I0608 12:20:22.526958 30581 layer_factory.hpp:77] Creating layer pool3
I0608 12:20:22.526978 30581 net.cpp:100] Creating Layer pool3
I0608 12:20:22.526981 30581 net.cpp:434] pool3 <- conv3_3
I0608 12:20:22.526985 30581 net.cpp:408] pool3 -> pool3
I0608 12:20:22.527030 30581 net.cpp:150] Setting up pool3
I0608 12:20:22.527035 30581 net.cpp:157] Top shape: 32 256 38 38 (11829248)
I0608 12:20:22.527037 30581 net.cpp:165] Memory required for data: 6129877024
I0608 12:20:22.527040 30581 layer_factory.hpp:77] Creating layer conv4_1
I0608 12:20:22.527047 30581 net.cpp:100] Creating Layer conv4_1
I0608 12:20:22.527065 30581 net.cpp:434] conv4_1 <- pool3
I0608 12:20:22.527070 30581 net.cpp:408] conv4_1 -> conv4_1
I0608 12:20:22.535387 30581 net.cpp:150] Setting up conv4_1
I0608 12:20:22.535404 30581 net.cpp:157] Top shape: 32 512 38 38 (23658496)
I0608 12:20:22.535408 30581 net.cpp:165] Memory required for data: 6224511008
I0608 12:20:22.535415 30581 layer_factory.hpp:77] Creating layer relu4_1
I0608 12:20:22.535424 30581 net.cpp:100] Creating Layer relu4_1
I0608 12:20:22.535428 30581 net.cpp:434] relu4_1 <- conv4_1
I0608 12:20:22.535447 30581 net.cpp:395] relu4_1 -> conv4_1 (in-place)
I0608 12:20:22.536290 30581 net.cpp:150] Setting up relu4_1
I0608 12:20:22.536303 30581 net.cpp:157] Top shape: 32 512 38 38 (23658496)
I0608 12:20:22.536309 30581 net.cpp:165] Memory required for data: 6319144992
I0608 12:20:22.536312 30581 layer_factory.hpp:77] Creating layer conv4_2
I0608 12:20:22.536324 30581 net.cpp:100] Creating Layer conv4_2
I0608 12:20:22.536330 30581 net.cpp:434] conv4_2 <- conv4_1
I0608 12:20:22.536337 30581 net.cpp:408] conv4_2 -> conv4_2
I0608 12:20:22.548243 30581 net.cpp:150] Setting up conv4_2
I0608 12:20:22.548261 30581 net.cpp:157] Top shape: 32 512 38 38 (23658496)
I0608 12:20:22.548266 30581 net.cpp:165] Memory required for data: 6413778976
I0608 12:20:22.548280 30581 layer_factory.hpp:77] Creating layer relu4_2
I0608 12:20:22.548302 30581 net.cpp:100] Creating Layer relu4_2
I0608 12:20:22.548310 30581 net.cpp:434] relu4_2 <- conv4_2
I0608 12:20:22.548317 30581 net.cpp:395] relu4_2 -> conv4_2 (in-place)
I0608 12:20:22.549165 30581 net.cpp:150] Setting up relu4_2
I0608 12:20:22.549175 30581 net.cpp:157] Top shape: 32 512 38 38 (23658496)
I0608 12:20:22.549180 30581 net.cpp:165] Memory required for data: 6508412960
I0608 12:20:22.549183 30581 layer_factory.hpp:77] Creating layer conv4_3
I0608 12:20:22.549195 30581 net.cpp:100] Creating Layer conv4_3
I0608 12:20:22.549198 30581 net.cpp:434] conv4_3 <- conv4_2
I0608 12:20:22.549206 30581 net.cpp:408] conv4_3 -> conv4_3
I0608 12:20:22.562216 30581 net.cpp:150] Setting up conv4_3
I0608 12:20:22.562233 30581 net.cpp:157] Top shape: 32 512 38 38 (23658496)
I0608 12:20:22.562237 30581 net.cpp:165] Memory required for data: 6603046944
I0608 12:20:22.562245 30581 layer_factory.hpp:77] Creating layer relu4_3
I0608 12:20:22.562269 30581 net.cpp:100] Creating Layer relu4_3
I0608 12:20:22.562275 30581 net.cpp:434] relu4_3 <- conv4_3
I0608 12:20:22.562296 30581 net.cpp:395] relu4_3 -> conv4_3 (in-place)
I0608 12:20:22.562476 30581 net.cpp:150] Setting up relu4_3
I0608 12:20:22.562485 30581 net.cpp:157] Top shape: 32 512 38 38 (23658496)
I0608 12:20:22.562489 30581 net.cpp:165] Memory required for data: 6697680928
I0608 12:20:22.562492 30581 layer_factory.hpp:77] Creating layer conv4_3_relu4_3_0_split
I0608 12:20:22.562499 30581 net.cpp:100] Creating Layer conv4_3_relu4_3_0_split
I0608 12:20:22.562503 30581 net.cpp:434] conv4_3_relu4_3_0_split <- conv4_3
I0608 12:20:22.562525 30581 net.cpp:408] conv4_3_relu4_3_0_split -> conv4_3_relu4_3_0_split_0
I0608 12:20:22.562533 30581 net.cpp:408] conv4_3_relu4_3_0_split -> conv4_3_relu4_3_0_split_1
I0608 12:20:22.562579 30581 net.cpp:150] Setting up conv4_3_relu4_3_0_split
I0608 12:20:22.562587 30581 net.cpp:157] Top shape: 32 512 38 38 (23658496)
I0608 12:20:22.562592 30581 net.cpp:157] Top shape: 32 512 38 38 (23658496)
I0608 12:20:22.562595 30581 net.cpp:165] Memory required for data: 6886948896
I0608 12:20:22.562599 30581 layer_factory.hpp:77] Creating layer pool4
I0608 12:20:22.562623 30581 net.cpp:100] Creating Layer pool4
I0608 12:20:22.562626 30581 net.cpp:434] pool4 <- conv4_3_relu4_3_0_split_0
I0608 12:20:22.562633 30581 net.cpp:408] pool4 -> pool4
I0608 12:20:22.562676 30581 net.cpp:150] Setting up pool4
I0608 12:20:22.562683 30581 net.cpp:157] Top shape: 32 512 19 19 (5914624)
I0608 12:20:22.562686 30581 net.cpp:165] Memory required for data: 6910607392
I0608 12:20:22.562690 30581 layer_factory.hpp:77] Creating layer conv5_1
I0608 12:20:22.562700 30581 net.cpp:100] Creating Layer conv5_1
I0608 12:20:22.562705 30581 net.cpp:434] conv5_1 <- pool4
I0608 12:20:22.562711 30581 net.cpp:408] conv5_1 -> conv5_1
I0608 12:20:22.575742 30581 net.cpp:150] Setting up conv5_1
I0608 12:20:22.575762 30581 net.cpp:157] Top shape: 32 512 19 19 (5914624)
I0608 12:20:22.575767 30581 net.cpp:165] Memory required for data: 6934265888
I0608 12:20:22.575790 30581 layer_factory.hpp:77] Creating layer relu5_1
I0608 12:20:22.575799 30581 net.cpp:100] Creating Layer relu5_1
I0608 12:20:22.575805 30581 net.cpp:434] relu5_1 <- conv5_1
I0608 12:20:22.575827 30581 net.cpp:395] relu5_1 -> conv5_1 (in-place)
I0608 12:20:22.576025 30581 net.cpp:150] Setting up relu5_1
I0608 12:20:22.576031 30581 net.cpp:157] Top shape: 32 512 19 19 (5914624)
I0608 12:20:22.576035 30581 net.cpp:165] Memory required for data: 6957924384
I0608 12:20:22.576056 30581 layer_factory.hpp:77] Creating layer conv5_2
I0608 12:20:22.576066 30581 net.cpp:100] Creating Layer conv5_2
I0608 12:20:22.576071 30581 net.cpp:434] conv5_2 <- conv5_1
I0608 12:20:22.576089 30581 net.cpp:408] conv5_2 -> conv5_2
I0608 12:20:22.588614 30581 net.cpp:150] Setting up conv5_2
I0608 12:20:22.588634 30581 net.cpp:157] Top shape: 32 512 19 19 (5914624)
I0608 12:20:22.588637 30581 net.cpp:165] Memory required for data: 6981582880
I0608 12:20:22.588645 30581 layer_factory.hpp:77] Creating layer relu5_2
I0608 12:20:22.588654 30581 net.cpp:100] Creating Layer relu5_2
I0608 12:20:22.588675 30581 net.cpp:434] relu5_2 <- conv5_2
I0608 12:20:22.588696 30581 net.cpp:395] relu5_2 -> conv5_2 (in-place)
I0608 12:20:22.588853 30581 net.cpp:150] Setting up relu5_2
I0608 12:20:22.588862 30581 net.cpp:157] Top shape: 32 512 19 19 (5914624)
I0608 12:20:22.588866 30581 net.cpp:165] Memory required for data: 7005241376
I0608 12:20:22.588871 30581 layer_factory.hpp:77] Creating layer conv5_3
I0608 12:20:22.588897 30581 net.cpp:100] Creating Layer conv5_3
I0608 12:20:22.588903 30581 net.cpp:434] conv5_3 <- conv5_2
I0608 12:20:22.588923 30581 net.cpp:408] conv5_3 -> conv5_3
I0608 12:20:22.602154 30581 net.cpp:150] Setting up conv5_3
I0608 12:20:22.602171 30581 net.cpp:157] Top shape: 32 512 19 19 (5914624)
I0608 12:20:22.602175 30581 net.cpp:165] Memory required for data: 7028899872
I0608 12:20:22.602183 30581 layer_factory.hpp:77] Creating layer relu5_3
I0608 12:20:22.602211 30581 net.cpp:100] Creating Layer relu5_3
I0608 12:20:22.602231 30581 net.cpp:434] relu5_3 <- conv5_3
I0608 12:20:22.602252 30581 net.cpp:395] relu5_3 -> conv5_3 (in-place)
I0608 12:20:22.602427 30581 net.cpp:150] Setting up relu5_3
I0608 12:20:22.602434 30581 net.cpp:157] Top shape: 32 512 19 19 (5914624)
I0608 12:20:22.602437 30581 net.cpp:165] Memory required for data: 7052558368
I0608 12:20:22.602442 30581 layer_factory.hpp:77] Creating layer pool5
I0608 12:20:22.602465 30581 net.cpp:100] Creating Layer pool5
I0608 12:20:22.602470 30581 net.cpp:434] pool5 <- conv5_3
I0608 12:20:22.602476 30581 net.cpp:408] pool5 -> pool5
I0608 12:20:22.602514 30581 net.cpp:150] Setting up pool5
I0608 12:20:22.602520 30581 net.cpp:157] Top shape: 32 512 19 19 (5914624)
I0608 12:20:22.602524 30581 net.cpp:165] Memory required for data: 7076216864
I0608 12:20:22.602527 30581 layer_factory.hpp:77] Creating layer fc6
I0608 12:20:22.602550 30581 net.cpp:100] Creating Layer fc6
I0608 12:20:22.602555 30581 net.cpp:434] fc6 <- pool5
I0608 12:20:22.602561 30581 net.cpp:408] fc6 -> fc6
I0608 12:20:22.624781 30581 net.cpp:150] Setting up fc6
I0608 12:20:22.624800 30581 net.cpp:157] Top shape: 32 1024 19 19 (11829248)
I0608 12:20:22.624804 30581 net.cpp:165] Memory required for data: 7123533856
I0608 12:20:22.624811 30581 layer_factory.hpp:77] Creating layer relu6
I0608 12:20:22.624819 30581 net.cpp:100] Creating Layer relu6
I0608 12:20:22.624840 30581 net.cpp:434] relu6 <- fc6
I0608 12:20:22.624862 30581 net.cpp:395] relu6 -> fc6 (in-place)
I0608 12:20:22.625916 30581 net.cpp:150] Setting up relu6
I0608 12:20:22.625941 30581 net.cpp:157] Top shape: 32 1024 19 19 (11829248)
I0608 12:20:22.625946 30581 net.cpp:165] Memory required for data: 7170850848
I0608 12:20:22.625962 30581 layer_factory.hpp:77] Creating layer fc7
I0608 12:20:22.625988 30581 net.cpp:100] Creating Layer fc7
I0608 12:20:22.625993 30581 net.cpp:434] fc7 <- fc6
I0608 12:20:22.626013 30581 net.cpp:408] fc7 -> fc7
I0608 12:20:22.633251 30581 net.cpp:150] Setting up fc7
I0608 12:20:22.633267 30581 net.cpp:157] Top shape: 32 1024 19 19 (11829248)
I0608 12:20:22.633270 30581 net.cpp:165] Memory required for data: 7218167840
I0608 12:20:22.633293 30581 layer_factory.hpp:77] Creating layer relu7
I0608 12:20:22.633304 30581 net.cpp:100] Creating Layer relu7
I0608 12:20:22.633311 30581 net.cpp:434] relu7 <- fc7
I0608 12:20:22.633332 30581 net.cpp:395] relu7 -> fc7 (in-place)
I0608 12:20:22.633507 30581 net.cpp:150] Setting up relu7
I0608 12:20:22.633517 30581 net.cpp:157] Top shape: 32 1024 19 19 (11829248)
I0608 12:20:22.633522 30581 net.cpp:165] Memory required for data: 7265484832
I0608 12:20:22.633539 30581 layer_factory.hpp:77] Creating layer fc7_relu7_0_split
I0608 12:20:22.633548 30581 net.cpp:100] Creating Layer fc7_relu7_0_split
I0608 12:20:22.633550 30581 net.cpp:434] fc7_relu7_0_split <- fc7
I0608 12:20:22.633558 30581 net.cpp:408] fc7_relu7_0_split -> fc7_relu7_0_split_0
I0608 12:20:22.633582 30581 net.cpp:408] fc7_relu7_0_split -> fc7_relu7_0_split_1
I0608 12:20:22.633622 30581 net.cpp:408] fc7_relu7_0_split -> fc7_relu7_0_split_2
I0608 12:20:22.633643 30581 net.cpp:408] fc7_relu7_0_split -> fc7_relu7_0_split_3
I0608 12:20:22.633764 30581 net.cpp:150] Setting up fc7_relu7_0_split
I0608 12:20:22.633772 30581 net.cpp:157] Top shape: 32 1024 19 19 (11829248)
I0608 12:20:22.633793 30581 net.cpp:157] Top shape: 32 1024 19 19 (11829248)
I0608 12:20:22.633800 30581 net.cpp:157] Top shape: 32 1024 19 19 (11829248)
I0608 12:20:22.633805 30581 net.cpp:157] Top shape: 32 1024 19 19 (11829248)
I0608 12:20:22.633821 30581 net.cpp:165] Memory required for data: 7454752800
I0608 12:20:22.633826 30581 layer_factory.hpp:77] Creating layer conv6_1
I0608 12:20:22.633852 30581 net.cpp:100] Creating Layer conv6_1
I0608 12:20:22.633857 30581 net.cpp:434] conv6_1 <- fc7_relu7_0_split_0
I0608 12:20:22.633877 30581 net.cpp:408] conv6_1 -> conv6_1
I0608 12:20:22.637450 30581 net.cpp:150] Setting up conv6_1
I0608 12:20:22.637464 30581 net.cpp:157] Top shape: 32 256 19 19 (2957312)
I0608 12:20:22.637466 30581 net.cpp:165] Memory required for data: 7466582048
I0608 12:20:22.637471 30581 layer_factory.hpp:77] Creating layer conv6_1_relu
I0608 12:20:22.637477 30581 net.cpp:100] Creating Layer conv6_1_relu
I0608 12:20:22.637509 30581 net.cpp:434] conv6_1_relu <- conv6_1
I0608 12:20:22.637517 30581 net.cpp:395] conv6_1_relu -> conv6_1 (in-place)
I0608 12:20:22.637701 30581 net.cpp:150] Setting up conv6_1_relu
I0608 12:20:22.637712 30581 net.cpp:157] Top shape: 32 256 19 19 (2957312)
I0608 12:20:22.637717 30581 net.cpp:165] Memory required for data: 7478411296
I0608 12:20:22.637722 30581 layer_factory.hpp:77] Creating layer conv6_2
I0608 12:20:22.637747 30581 net.cpp:100] Creating Layer conv6_2
I0608 12:20:22.637753 30581 net.cpp:434] conv6_2 <- conv6_1
I0608 12:20:22.637761 30581 net.cpp:408] conv6_2 -> conv6_2
I0608 12:20:22.646607 30581 net.cpp:150] Setting up conv6_2
I0608 12:20:22.646625 30581 net.cpp:157] Top shape: 32 512 10 10 (1638400)
I0608 12:20:22.646627 30581 net.cpp:165] Memory required for data: 7484964896
I0608 12:20:22.646654 30581 layer_factory.hpp:77] Creating layer conv6_2_relu
I0608 12:20:22.646661 30581 net.cpp:100] Creating Layer conv6_2_relu
I0608 12:20:22.646666 30581 net.cpp:434] conv6_2_relu <- conv6_2
I0608 12:20:22.646669 30581 net.cpp:395] conv6_2_relu -> conv6_2 (in-place)
I0608 12:20:22.646868 30581 net.cpp:150] Setting up conv6_2_relu
I0608 12:20:22.646878 30581 net.cpp:157] Top shape: 32 512 10 10 (1638400)
I0608 12:20:22.646883 30581 net.cpp:165] Memory required for data: 7491518496
I0608 12:20:22.646885 30581 layer_factory.hpp:77] Creating layer conv6_2_conv6_2_relu_0_split
I0608 12:20:22.646906 30581 net.cpp:100] Creating Layer conv6_2_conv6_2_relu_0_split
I0608 12:20:22.646910 30581 net.cpp:434] conv6_2_conv6_2_relu_0_split <- conv6_2
I0608 12:20:22.646929 30581 net.cpp:408] conv6_2_conv6_2_relu_0_split -> conv6_2_conv6_2_relu_0_split_0
I0608 12:20:22.646937 30581 net.cpp:408] conv6_2_conv6_2_relu_0_split -> conv6_2_conv6_2_relu_0_split_1
I0608 12:20:22.646961 30581 net.cpp:408] conv6_2_conv6_2_relu_0_split -> conv6_2_conv6_2_relu_0_split_2
I0608 12:20:22.646966 30581 net.cpp:408] conv6_2_conv6_2_relu_0_split -> conv6_2_conv6_2_relu_0_split_3
I0608 12:20:22.647044 30581 net.cpp:150] Setting up conv6_2_conv6_2_relu_0_split
I0608 12:20:22.647053 30581 net.cpp:157] Top shape: 32 512 10 10 (1638400)
I0608 12:20:22.647058 30581 net.cpp:157] Top shape: 32 512 10 10 (1638400)
I0608 12:20:22.647061 30581 net.cpp:157] Top shape: 32 512 10 10 (1638400)
I0608 12:20:22.647078 30581 net.cpp:157] Top shape: 32 512 10 10 (1638400)
I0608 12:20:22.647080 30581 net.cpp:165] Memory required for data: 7517732896
I0608 12:20:22.647099 30581 layer_factory.hpp:77] Creating layer conv7_1
I0608 12:20:22.647109 30581 net.cpp:100] Creating Layer conv7_1
I0608 12:20:22.647114 30581 net.cpp:434] conv7_1 <- conv6_2_conv6_2_relu_0_split_0
I0608 12:20:22.647120 30581 net.cpp:408] conv7_1 -> conv7_1
I0608 12:20:22.649055 30581 net.cpp:150] Setting up conv7_1
I0608 12:20:22.649065 30581 net.cpp:157] Top shape: 32 128 10 10 (409600)
I0608 12:20:22.649067 30581 net.cpp:165] Memory required for data: 7519371296
I0608 12:20:22.649075 30581 layer_factory.hpp:77] Creating layer conv7_1_relu
I0608 12:20:22.649097 30581 net.cpp:100] Creating Layer conv7_1_relu
I0608 12:20:22.649103 30581 net.cpp:434] conv7_1_relu <- conv7_1
I0608 12:20:22.649111 30581 net.cpp:395] conv7_1_relu -> conv7_1 (in-place)
I0608 12:20:22.649278 30581 net.cpp:150] Setting up conv7_1_relu
I0608 12:20:22.649291 30581 net.cpp:157] Top shape: 32 128 10 10 (409600)
I0608 12:20:22.649296 30581 net.cpp:165] Memory required for data: 7521009696
I0608 12:20:22.649307 30581 layer_factory.hpp:77] Creating layer conv7_2
I0608 12:20:22.649317 30581 net.cpp:100] Creating Layer conv7_2
I0608 12:20:22.649338 30581 net.cpp:434] conv7_2 <- conv7_1
I0608 12:20:22.649346 30581 net.cpp:408] conv7_2 -> conv7_2
I0608 12:20:22.652519 30581 net.cpp:150] Setting up conv7_2
I0608 12:20:22.652534 30581 net.cpp:157] Top shape: 32 256 5 5 (204800)
I0608 12:20:22.652537 30581 net.cpp:165] Memory required for data: 7521828896
I0608 12:20:22.652559 30581 layer_factory.hpp:77] Creating layer conv7_2_relu
I0608 12:20:22.652565 30581 net.cpp:100] Creating Layer conv7_2_relu
I0608 12:20:22.652581 30581 net.cpp:434] conv7_2_relu <- conv7_2
I0608 12:20:22.652587 30581 net.cpp:395] conv7_2_relu -> conv7_2 (in-place)
I0608 12:20:22.652753 30581 net.cpp:150] Setting up conv7_2_relu
I0608 12:20:22.652762 30581 net.cpp:157] Top shape: 32 256 5 5 (204800)
I0608 12:20:22.652765 30581 net.cpp:165] Memory required for data: 7522648096
I0608 12:20:22.652768 30581 layer_factory.hpp:77] Creating layer conv7_2_conv7_2_relu_0_split
I0608 12:20:22.652776 30581 net.cpp:100] Creating Layer conv7_2_conv7_2_relu_0_split
I0608 12:20:22.652779 30581 net.cpp:434] conv7_2_conv7_2_relu_0_split <- conv7_2
I0608 12:20:22.652784 30581 net.cpp:408] conv7_2_conv7_2_relu_0_split -> conv7_2_conv7_2_relu_0_split_0
I0608 12:20:22.652791 30581 net.cpp:408] conv7_2_conv7_2_relu_0_split -> conv7_2_conv7_2_relu_0_split_1
I0608 12:20:22.652799 30581 net.cpp:408] conv7_2_conv7_2_relu_0_split -> conv7_2_conv7_2_relu_0_split_2
I0608 12:20:22.652806 30581 net.cpp:408] conv7_2_conv7_2_relu_0_split -> conv7_2_conv7_2_relu_0_split_3
I0608 12:20:22.652861 30581 net.cpp:150] Setting up conv7_2_conv7_2_relu_0_split
I0608 12:20:22.652866 30581 net.cpp:157] Top shape: 32 256 5 5 (204800)
I0608 12:20:22.652870 30581 net.cpp:157] Top shape: 32 256 5 5 (204800)
I0608 12:20:22.652873 30581 net.cpp:157] Top shape: 32 256 5 5 (204800)
I0608 12:20:22.652875 30581 net.cpp:157] Top shape: 32 256 5 5 (204800)
I0608 12:20:22.652878 30581 net.cpp:165] Memory required for data: 7525924896
I0608 12:20:22.652879 30581 layer_factory.hpp:77] Creating layer conv8_1
I0608 12:20:22.652886 30581 net.cpp:100] Creating Layer conv8_1
I0608 12:20:22.652889 30581 net.cpp:434] conv8_1 <- conv7_2_conv7_2_relu_0_split_0
I0608 12:20:22.652894 30581 net.cpp:408] conv8_1 -> conv8_1
I0608 12:20:22.654355 30581 net.cpp:150] Setting up conv8_1
I0608 12:20:22.654367 30581 net.cpp:157] Top shape: 32 128 5 5 (102400)
I0608 12:20:22.654371 30581 net.cpp:165] Memory required for data: 7526334496
I0608 12:20:22.654377 30581 layer_factory.hpp:77] Creating layer conv8_1_relu
I0608 12:20:22.654384 30581 net.cpp:100] Creating Layer conv8_1_relu
I0608 12:20:22.654389 30581 net.cpp:434] conv8_1_relu <- conv8_1
I0608 12:20:22.654395 30581 net.cpp:395] conv8_1_relu -> conv8_1 (in-place)
I0608 12:20:22.655169 30581 net.cpp:150] Setting up conv8_1_relu
I0608 12:20:22.655179 30581 net.cpp:157] Top shape: 32 128 5 5 (102400)
I0608 12:20:22.655182 30581 net.cpp:165] Memory required for data: 7526744096
I0608 12:20:22.655186 30581 layer_factory.hpp:77] Creating layer conv8_2
I0608 12:20:22.655194 30581 net.cpp:100] Creating Layer conv8_2
I0608 12:20:22.655200 30581 net.cpp:434] conv8_2 <- conv8_1
I0608 12:20:22.655205 30581 net.cpp:408] conv8_2 -> conv8_2
I0608 12:20:22.658242 30581 net.cpp:150] Setting up conv8_2
I0608 12:20:22.658253 30581 net.cpp:157] Top shape: 32 256 3 3 (73728)
I0608 12:20:22.658257 30581 net.cpp:165] Memory required for data: 7527039008
I0608 12:20:22.658262 30581 layer_factory.hpp:77] Creating layer conv8_2_relu
I0608 12:20:22.658267 30581 net.cpp:100] Creating Layer conv8_2_relu
I0608 12:20:22.658270 30581 net.cpp:434] conv8_2_relu <- conv8_2
I0608 12:20:22.658274 30581 net.cpp:395] conv8_2_relu -> conv8_2 (in-place)
I0608 12:20:22.658386 30581 net.cpp:150] Setting up conv8_2_relu
I0608 12:20:22.658393 30581 net.cpp:157] Top shape: 32 256 3 3 (73728)
I0608 12:20:22.658396 30581 net.cpp:165] Memory required for data: 7527333920
I0608 12:20:22.658398 30581 layer_factory.hpp:77] Creating layer conv8_2_conv8_2_relu_0_split
I0608 12:20:22.658401 30581 net.cpp:100] Creating Layer conv8_2_conv8_2_relu_0_split
I0608 12:20:22.658404 30581 net.cpp:434] conv8_2_conv8_2_relu_0_split <- conv8_2
I0608 12:20:22.658408 30581 net.cpp:408] conv8_2_conv8_2_relu_0_split -> conv8_2_conv8_2_relu_0_split_0
I0608 12:20:22.658416 30581 net.cpp:408] conv8_2_conv8_2_relu_0_split -> conv8_2_conv8_2_relu_0_split_1
I0608 12:20:22.658421 30581 net.cpp:408] conv8_2_conv8_2_relu_0_split -> conv8_2_conv8_2_relu_0_split_2
I0608 12:20:22.658426 30581 net.cpp:408] conv8_2_conv8_2_relu_0_split -> conv8_2_conv8_2_relu_0_split_3
I0608 12:20:22.658495 30581 net.cpp:150] Setting up conv8_2_conv8_2_relu_0_split
I0608 12:20:22.658501 30581 net.cpp:157] Top shape: 32 256 3 3 (73728)
I0608 12:20:22.658504 30581 net.cpp:157] Top shape: 32 256 3 3 (73728)
I0608 12:20:22.658507 30581 net.cpp:157] Top shape: 32 256 3 3 (73728)
I0608 12:20:22.658509 30581 net.cpp:157] Top shape: 32 256 3 3 (73728)
I0608 12:20:22.658512 30581 net.cpp:165] Memory required for data: 7528513568
I0608 12:20:22.658514 30581 layer_factory.hpp:77] Creating layer conv9_1
I0608 12:20:22.658520 30581 net.cpp:100] Creating Layer conv9_1
I0608 12:20:22.658524 30581 net.cpp:434] conv9_1 <- conv8_2_conv8_2_relu_0_split_0
I0608 12:20:22.658527 30581 net.cpp:408] conv9_1 -> conv9_1
I0608 12:20:22.659729 30581 net.cpp:150] Setting up conv9_1
I0608 12:20:22.659739 30581 net.cpp:157] Top shape: 32 128 3 3 (36864)
I0608 12:20:22.659740 30581 net.cpp:165] Memory required for data: 7528661024
I0608 12:20:22.659746 30581 layer_factory.hpp:77] Creating layer conv9_1_relu
I0608 12:20:22.659751 30581 net.cpp:100] Creating Layer conv9_1_relu
I0608 12:20:22.659754 30581 net.cpp:434] conv9_1_relu <- conv9_1
I0608 12:20:22.659757 30581 net.cpp:395] conv9_1_relu -> conv9_1 (in-place)
I0608 12:20:22.659870 30581 net.cpp:150] Setting up conv9_1_relu
I0608 12:20:22.659876 30581 net.cpp:157] Top shape: 32 128 3 3 (36864)
I0608 12:20:22.659878 30581 net.cpp:165] Memory required for data: 7528808480
I0608 12:20:22.659880 30581 layer_factory.hpp:77] Creating layer conv9_2
I0608 12:20:22.659888 30581 net.cpp:100] Creating Layer conv9_2
I0608 12:20:22.659890 30581 net.cpp:434] conv9_2 <- conv9_1
I0608 12:20:22.659894 30581 net.cpp:408] conv9_2 -> conv9_2
I0608 12:20:22.663317 30581 net.cpp:150] Setting up conv9_2
I0608 12:20:22.663337 30581 net.cpp:157] Top shape: 32 256 1 1 (8192)
I0608 12:20:22.663341 30581 net.cpp:165] Memory required for data: 7528841248
I0608 12:20:22.663348 30581 layer_factory.hpp:77] Creating layer conv9_2_relu
I0608 12:20:22.663355 30581 net.cpp:100] Creating Layer conv9_2_relu
I0608 12:20:22.663360 30581 net.cpp:434] conv9_2_relu <- conv9_2
I0608 12:20:22.663367 30581 net.cpp:395] conv9_2_relu -> conv9_2 (in-place)
I0608 12:20:22.663485 30581 net.cpp:150] Setting up conv9_2_relu
I0608 12:20:22.663491 30581 net.cpp:157] Top shape: 32 256 1 1 (8192)
I0608 12:20:22.663494 30581 net.cpp:165] Memory required for data: 7528874016
I0608 12:20:22.663496 30581 layer_factory.hpp:77] Creating layer conv9_2_conv9_2_relu_0_split
I0608 12:20:22.663501 30581 net.cpp:100] Creating Layer conv9_2_conv9_2_relu_0_split
I0608 12:20:22.663503 30581 net.cpp:434] conv9_2_conv9_2_relu_0_split <- conv9_2
I0608 12:20:22.663508 30581 net.cpp:408] conv9_2_conv9_2_relu_0_split -> conv9_2_conv9_2_relu_0_split_0
I0608 12:20:22.663514 30581 net.cpp:408] conv9_2_conv9_2_relu_0_split -> conv9_2_conv9_2_relu_0_split_1
I0608 12:20:22.663522 30581 net.cpp:408] conv9_2_conv9_2_relu_0_split -> conv9_2_conv9_2_relu_0_split_2
I0608 12:20:22.663571 30581 net.cpp:150] Setting up conv9_2_conv9_2_relu_0_split
I0608 12:20:22.663594 30581 net.cpp:157] Top shape: 32 256 1 1 (8192)
I0608 12:20:22.663609 30581 net.cpp:157] Top shape: 32 256 1 1 (8192)
I0608 12:20:22.663614 30581 net.cpp:157] Top shape: 32 256 1 1 (8192)
I0608 12:20:22.663617 30581 net.cpp:165] Memory required for data: 7528972320
I0608 12:20:22.663621 30581 layer_factory.hpp:77] Creating layer conv4_3_norm
I0608 12:20:22.663630 30581 net.cpp:100] Creating Layer conv4_3_norm
I0608 12:20:22.663635 30581 net.cpp:434] conv4_3_norm <- conv4_3_relu4_3_0_split_1
I0608 12:20:22.663641 30581 net.cpp:408] conv4_3_norm -> conv4_3_norm
I0608 12:20:22.663777 30581 net.cpp:150] Setting up conv4_3_norm
I0608 12:20:22.663784 30581 net.cpp:157] Top shape: 32 512 38 38 (23658496)
I0608 12:20:22.663787 30581 net.cpp:165] Memory required for data: 7623606304
I0608 12:20:22.663792 30581 layer_factory.hpp:77] Creating layer conv4_3_norm_conv4_3_norm_0_split
I0608 12:20:22.663800 30581 net.cpp:100] Creating Layer conv4_3_norm_conv4_3_norm_0_split
I0608 12:20:22.663818 30581 net.cpp:434] conv4_3_norm_conv4_3_norm_0_split <- conv4_3_norm
I0608 12:20:22.663835 30581 net.cpp:408] conv4_3_norm_conv4_3_norm_0_split -> conv4_3_norm_conv4_3_norm_0_split_0
I0608 12:20:22.663856 30581 net.cpp:408] conv4_3_norm_conv4_3_norm_0_split -> conv4_3_norm_conv4_3_norm_0_split_1
I0608 12:20:22.663878 30581 net.cpp:408] conv4_3_norm_conv4_3_norm_0_split -> conv4_3_norm_conv4_3_norm_0_split_2
I0608 12:20:22.663929 30581 net.cpp:150] Setting up conv4_3_norm_conv4_3_norm_0_split
I0608 12:20:22.663935 30581 net.cpp:157] Top shape: 32 512 38 38 (23658496)
I0608 12:20:22.663940 30581 net.cpp:157] Top shape: 32 512 38 38 (23658496)
I0608 12:20:22.663946 30581 net.cpp:157] Top shape: 32 512 38 38 (23658496)
I0608 12:20:22.663950 30581 net.cpp:165] Memory required for data: 7907508256
I0608 12:20:22.663954 30581 layer_factory.hpp:77] Creating layer conv4_3_norm_mbox_loc
I0608 12:20:22.663964 30581 net.cpp:100] Creating Layer conv4_3_norm_mbox_loc
I0608 12:20:22.663969 30581 net.cpp:434] conv4_3_norm_mbox_loc <- conv4_3_norm_conv4_3_norm_0_split_0
I0608 12:20:22.663975 30581 net.cpp:408] conv4_3_norm_mbox_loc -> conv4_3_norm_mbox_loc
I0608 12:20:22.665802 30581 net.cpp:150] Setting up conv4_3_norm_mbox_loc
I0608 12:20:22.665812 30581 net.cpp:157] Top shape: 32 16 38 38 (739328)
I0608 12:20:22.665817 30581 net.cpp:165] Memory required for data: 7910465568
I0608 12:20:22.665824 30581 layer_factory.hpp:77] Creating layer conv4_3_norm_mbox_loc_perm
I0608 12:20:22.665832 30581 net.cpp:100] Creating Layer conv4_3_norm_mbox_loc_perm
I0608 12:20:22.665838 30581 net.cpp:434] conv4_3_norm_mbox_loc_perm <- conv4_3_norm_mbox_loc
I0608 12:20:22.665845 30581 net.cpp:408] conv4_3_norm_mbox_loc_perm -> conv4_3_norm_mbox_loc_perm
I0608 12:20:22.665931 30581 net.cpp:150] Setting up conv4_3_norm_mbox_loc_perm
I0608 12:20:22.665938 30581 net.cpp:157] Top shape: 32 38 38 16 (739328)
I0608 12:20:22.665942 30581 net.cpp:165] Memory required for data: 7913422880
I0608 12:20:22.665946 30581 layer_factory.hpp:77] Creating layer conv4_3_norm_mbox_loc_flat
I0608 12:20:22.665952 30581 net.cpp:100] Creating Layer conv4_3_norm_mbox_loc_flat
I0608 12:20:22.665957 30581 net.cpp:434] conv4_3_norm_mbox_loc_flat <- conv4_3_norm_mbox_loc_perm
I0608 12:20:22.665963 30581 net.cpp:408] conv4_3_norm_mbox_loc_flat -> conv4_3_norm_mbox_loc_flat
I0608 12:20:22.665994 30581 net.cpp:150] Setting up conv4_3_norm_mbox_loc_flat
I0608 12:20:22.666002 30581 net.cpp:157] Top shape: 32 23104 (739328)
I0608 12:20:22.666004 30581 net.cpp:165] Memory required for data: 7916380192
I0608 12:20:22.666008 30581 layer_factory.hpp:77] Creating layer conv4_3_norm_mbox_conf
I0608 12:20:22.666023 30581 net.cpp:100] Creating Layer conv4_3_norm_mbox_conf
I0608 12:20:22.666028 30581 net.cpp:434] conv4_3_norm_mbox_conf <- conv4_3_norm_conv4_3_norm_0_split_1
I0608 12:20:22.666034 30581 net.cpp:408] conv4_3_norm_mbox_conf -> conv4_3_norm_mbox_conf
I0608 12:20:22.667577 30581 net.cpp:150] Setting up conv4_3_norm_mbox_conf
I0608 12:20:22.667587 30581 net.cpp:157] Top shape: 32 8 38 38 (369664)
I0608 12:20:22.667593 30581 net.cpp:165] Memory required for data: 7917858848
I0608 12:20:22.667601 30581 layer_factory.hpp:77] Creating layer conv4_3_norm_mbox_conf_perm
I0608 12:20:22.667608 30581 net.cpp:100] Creating Layer conv4_3_norm_mbox_conf_perm
I0608 12:20:22.667614 30581 net.cpp:434] conv4_3_norm_mbox_conf_perm <- conv4_3_norm_mbox_conf
I0608 12:20:22.667623 30581 net.cpp:408] conv4_3_norm_mbox_conf_perm -> conv4_3_norm_mbox_conf_perm
I0608 12:20:22.667701 30581 net.cpp:150] Setting up conv4_3_norm_mbox_conf_perm
I0608 12:20:22.667706 30581 net.cpp:157] Top shape: 32 38 38 8 (369664)
I0608 12:20:22.667711 30581 net.cpp:165] Memory required for data: 7919337504
I0608 12:20:22.667716 30581 layer_factory.hpp:77] Creating layer conv4_3_norm_mbox_conf_flat
I0608 12:20:22.667722 30581 net.cpp:100] Creating Layer conv4_3_norm_mbox_conf_flat
I0608 12:20:22.667727 30581 net.cpp:434] conv4_3_norm_mbox_conf_flat <- conv4_3_norm_mbox_conf_perm
I0608 12:20:22.667733 30581 net.cpp:408] conv4_3_norm_mbox_conf_flat -> conv4_3_norm_mbox_conf_flat
I0608 12:20:22.667764 30581 net.cpp:150] Setting up conv4_3_norm_mbox_conf_flat
I0608 12:20:22.667770 30581 net.cpp:157] Top shape: 32 11552 (369664)
I0608 12:20:22.667774 30581 net.cpp:165] Memory required for data: 7920816160
I0608 12:20:22.667778 30581 layer_factory.hpp:77] Creating layer conv4_3_norm_mbox_priorbox
I0608 12:20:22.667786 30581 net.cpp:100] Creating Layer conv4_3_norm_mbox_priorbox
I0608 12:20:22.667791 30581 net.cpp:434] conv4_3_norm_mbox_priorbox <- conv4_3_norm_conv4_3_norm_0_split_2
I0608 12:20:22.667798 30581 net.cpp:434] conv4_3_norm_mbox_priorbox <- data_data_0_split_1
I0608 12:20:22.667804 30581 net.cpp:408] conv4_3_norm_mbox_priorbox -> conv4_3_norm_mbox_priorbox
I0608 12:20:22.667831 30581 net.cpp:150] Setting up conv4_3_norm_mbox_priorbox
I0608 12:20:22.667839 30581 net.cpp:157] Top shape: 1 2 23104 (46208)
I0608 12:20:22.667842 30581 net.cpp:165] Memory required for data: 7921000992
I0608 12:20:22.667845 30581 layer_factory.hpp:77] Creating layer fc7_mbox_loc
I0608 12:20:22.667855 30581 net.cpp:100] Creating Layer fc7_mbox_loc
I0608 12:20:22.667860 30581 net.cpp:434] fc7_mbox_loc <- fc7_relu7_0_split_1
I0608 12:20:22.667866 30581 net.cpp:408] fc7_mbox_loc -> fc7_mbox_loc
I0608 12:20:22.670148 30581 net.cpp:150] Setting up fc7_mbox_loc
I0608 12:20:22.670161 30581 net.cpp:157] Top shape: 32 24 19 19 (277248)
I0608 12:20:22.670164 30581 net.cpp:165] Memory required for data: 7922109984
I0608 12:20:22.670172 30581 layer_factory.hpp:77] Creating layer fc7_mbox_loc_perm
I0608 12:20:22.670181 30581 net.cpp:100] Creating Layer fc7_mbox_loc_perm
I0608 12:20:22.670187 30581 net.cpp:434] fc7_mbox_loc_perm <- fc7_mbox_loc
I0608 12:20:22.670193 30581 net.cpp:408] fc7_mbox_loc_perm -> fc7_mbox_loc_perm
I0608 12:20:22.670272 30581 net.cpp:150] Setting up fc7_mbox_loc_perm
I0608 12:20:22.670279 30581 net.cpp:157] Top shape: 32 19 19 24 (277248)
I0608 12:20:22.670284 30581 net.cpp:165] Memory required for data: 7923218976
I0608 12:20:22.670287 30581 layer_factory.hpp:77] Creating layer fc7_mbox_loc_flat
I0608 12:20:22.670294 30581 net.cpp:100] Creating Layer fc7_mbox_loc_flat
I0608 12:20:22.670298 30581 net.cpp:434] fc7_mbox_loc_flat <- fc7_mbox_loc_perm
I0608 12:20:22.670306 30581 net.cpp:408] fc7_mbox_loc_flat -> fc7_mbox_loc_flat
I0608 12:20:22.670328 30581 net.cpp:150] Setting up fc7_mbox_loc_flat
I0608 12:20:22.670334 30581 net.cpp:157] Top shape: 32 8664 (277248)
I0608 12:20:22.670337 30581 net.cpp:165] Memory required for data: 7924327968
I0608 12:20:22.670342 30581 layer_factory.hpp:77] Creating layer fc7_mbox_conf
I0608 12:20:22.670351 30581 net.cpp:100] Creating Layer fc7_mbox_conf
I0608 12:20:22.670356 30581 net.cpp:434] fc7_mbox_conf <- fc7_relu7_0_split_2
I0608 12:20:22.670361 30581 net.cpp:408] fc7_mbox_conf -> fc7_mbox_conf
I0608 12:20:22.672266 30581 net.cpp:150] Setting up fc7_mbox_conf
I0608 12:20:22.672276 30581 net.cpp:157] Top shape: 32 12 19 19 (138624)
I0608 12:20:22.672281 30581 net.cpp:165] Memory required for data: 7924882464
I0608 12:20:22.672287 30581 layer_factory.hpp:77] Creating layer fc7_mbox_conf_perm
I0608 12:20:22.672296 30581 net.cpp:100] Creating Layer fc7_mbox_conf_perm
I0608 12:20:22.672302 30581 net.cpp:434] fc7_mbox_conf_perm <- fc7_mbox_conf
I0608 12:20:22.672308 30581 net.cpp:408] fc7_mbox_conf_perm -> fc7_mbox_conf_perm
I0608 12:20:22.672389 30581 net.cpp:150] Setting up fc7_mbox_conf_perm
I0608 12:20:22.672395 30581 net.cpp:157] Top shape: 32 19 19 12 (138624)
I0608 12:20:22.672400 30581 net.cpp:165] Memory required for data: 7925436960
I0608 12:20:22.672404 30581 layer_factory.hpp:77] Creating layer fc7_mbox_conf_flat
I0608 12:20:22.672410 30581 net.cpp:100] Creating Layer fc7_mbox_conf_flat
I0608 12:20:22.672415 30581 net.cpp:434] fc7_mbox_conf_flat <- fc7_mbox_conf_perm
I0608 12:20:22.672421 30581 net.cpp:408] fc7_mbox_conf_flat -> fc7_mbox_conf_flat
I0608 12:20:22.672443 30581 net.cpp:150] Setting up fc7_mbox_conf_flat
I0608 12:20:22.672449 30581 net.cpp:157] Top shape: 32 4332 (138624)
I0608 12:20:22.672453 30581 net.cpp:165] Memory required for data: 7925991456
I0608 12:20:22.672466 30581 layer_factory.hpp:77] Creating layer fc7_mbox_priorbox
I0608 12:20:22.672474 30581 net.cpp:100] Creating Layer fc7_mbox_priorbox
I0608 12:20:22.672478 30581 net.cpp:434] fc7_mbox_priorbox <- fc7_relu7_0_split_3
I0608 12:20:22.672484 30581 net.cpp:434] fc7_mbox_priorbox <- data_data_0_split_2
I0608 12:20:22.672492 30581 net.cpp:408] fc7_mbox_priorbox -> fc7_mbox_priorbox
I0608 12:20:22.672518 30581 net.cpp:150] Setting up fc7_mbox_priorbox
I0608 12:20:22.672524 30581 net.cpp:157] Top shape: 1 2 8664 (17328)
I0608 12:20:22.672528 30581 net.cpp:165] Memory required for data: 7926060768
I0608 12:20:22.672533 30581 layer_factory.hpp:77] Creating layer conv6_2_mbox_loc
I0608 12:20:22.672541 30581 net.cpp:100] Creating Layer conv6_2_mbox_loc
I0608 12:20:22.672546 30581 net.cpp:434] conv6_2_mbox_loc <- conv6_2_conv6_2_relu_0_split_1
I0608 12:20:22.672554 30581 net.cpp:408] conv6_2_mbox_loc -> conv6_2_mbox_loc
I0608 12:20:22.674383 30581 net.cpp:150] Setting up conv6_2_mbox_loc
I0608 12:20:22.674393 30581 net.cpp:157] Top shape: 32 24 10 10 (76800)
I0608 12:20:22.674397 30581 net.cpp:165] Memory required for data: 7926367968
I0608 12:20:22.674405 30581 layer_factory.hpp:77] Creating layer conv6_2_mbox_loc_perm
I0608 12:20:22.674413 30581 net.cpp:100] Creating Layer conv6_2_mbox_loc_perm
I0608 12:20:22.674418 30581 net.cpp:434] conv6_2_mbox_loc_perm <- conv6_2_mbox_loc
I0608 12:20:22.674425 30581 net.cpp:408] conv6_2_mbox_loc_perm -> conv6_2_mbox_loc_perm
I0608 12:20:22.674507 30581 net.cpp:150] Setting up conv6_2_mbox_loc_perm
I0608 12:20:22.674515 30581 net.cpp:157] Top shape: 32 10 10 24 (76800)
I0608 12:20:22.674518 30581 net.cpp:165] Memory required for data: 7926675168
I0608 12:20:22.674521 30581 layer_factory.hpp:77] Creating layer conv6_2_mbox_loc_flat
I0608 12:20:22.674527 30581 net.cpp:100] Creating Layer conv6_2_mbox_loc_flat
I0608 12:20:22.674532 30581 net.cpp:434] conv6_2_mbox_loc_flat <- conv6_2_mbox_loc_perm
I0608 12:20:22.674538 30581 net.cpp:408] conv6_2_mbox_loc_flat -> conv6_2_mbox_loc_flat
I0608 12:20:22.674559 30581 net.cpp:150] Setting up conv6_2_mbox_loc_flat
I0608 12:20:22.674566 30581 net.cpp:157] Top shape: 32 2400 (76800)
I0608 12:20:22.674569 30581 net.cpp:165] Memory required for data: 7926982368
I0608 12:20:22.674573 30581 layer_factory.hpp:77] Creating layer conv6_2_mbox_conf
I0608 12:20:22.674582 30581 net.cpp:100] Creating Layer conv6_2_mbox_conf
I0608 12:20:22.674587 30581 net.cpp:434] conv6_2_mbox_conf <- conv6_2_conv6_2_relu_0_split_2
I0608 12:20:22.674593 30581 net.cpp:408] conv6_2_mbox_conf -> conv6_2_mbox_conf
I0608 12:20:22.676219 30581 net.cpp:150] Setting up conv6_2_mbox_conf
I0608 12:20:22.676231 30581 net.cpp:157] Top shape: 32 12 10 10 (38400)
I0608 12:20:22.676235 30581 net.cpp:165] Memory required for data: 7927135968
I0608 12:20:22.676244 30581 layer_factory.hpp:77] Creating layer conv6_2_mbox_conf_perm
I0608 12:20:22.676251 30581 net.cpp:100] Creating Layer conv6_2_mbox_conf_perm
I0608 12:20:22.676257 30581 net.cpp:434] conv6_2_mbox_conf_perm <- conv6_2_mbox_conf
I0608 12:20:22.676265 30581 net.cpp:408] conv6_2_mbox_conf_perm -> conv6_2_mbox_conf_perm
I0608 12:20:22.676348 30581 net.cpp:150] Setting up conv6_2_mbox_conf_perm
I0608 12:20:22.676355 30581 net.cpp:157] Top shape: 32 10 10 12 (38400)
I0608 12:20:22.676359 30581 net.cpp:165] Memory required for data: 7927289568
I0608 12:20:22.676362 30581 layer_factory.hpp:77] Creating layer conv6_2_mbox_conf_flat
I0608 12:20:22.676368 30581 net.cpp:100] Creating Layer conv6_2_mbox_conf_flat
I0608 12:20:22.676373 30581 net.cpp:434] conv6_2_mbox_conf_flat <- conv6_2_mbox_conf_perm
I0608 12:20:22.676379 30581 net.cpp:408] conv6_2_mbox_conf_flat -> conv6_2_mbox_conf_flat
I0608 12:20:22.676400 30581 net.cpp:150] Setting up conv6_2_mbox_conf_flat
I0608 12:20:22.676407 30581 net.cpp:157] Top shape: 32 1200 (38400)
I0608 12:20:22.676410 30581 net.cpp:165] Memory required for data: 7927443168
I0608 12:20:22.676414 30581 layer_factory.hpp:77] Creating layer conv6_2_mbox_priorbox
I0608 12:20:22.676430 30581 net.cpp:100] Creating Layer conv6_2_mbox_priorbox
I0608 12:20:22.676437 30581 net.cpp:434] conv6_2_mbox_priorbox <- conv6_2_conv6_2_relu_0_split_3
I0608 12:20:22.676443 30581 net.cpp:434] conv6_2_mbox_priorbox <- data_data_0_split_3
I0608 12:20:22.676450 30581 net.cpp:408] conv6_2_mbox_priorbox -> conv6_2_mbox_priorbox
I0608 12:20:22.676476 30581 net.cpp:150] Setting up conv6_2_mbox_priorbox
I0608 12:20:22.676483 30581 net.cpp:157] Top shape: 1 2 2400 (4800)
I0608 12:20:22.676487 30581 net.cpp:165] Memory required for data: 7927462368
I0608 12:20:22.676491 30581 layer_factory.hpp:77] Creating layer conv7_2_mbox_loc
I0608 12:20:22.676499 30581 net.cpp:100] Creating Layer conv7_2_mbox_loc
I0608 12:20:22.676504 30581 net.cpp:434] conv7_2_mbox_loc <- conv7_2_conv7_2_relu_0_split_1
I0608 12:20:22.676512 30581 net.cpp:408] conv7_2_mbox_loc -> conv7_2_mbox_loc
I0608 12:20:22.677755 30581 net.cpp:150] Setting up conv7_2_mbox_loc
I0608 12:20:22.677767 30581 net.cpp:157] Top shape: 32 24 5 5 (19200)
I0608 12:20:22.677772 30581 net.cpp:165] Memory required for data: 7927539168
I0608 12:20:22.677778 30581 layer_factory.hpp:77] Creating layer conv7_2_mbox_loc_perm
I0608 12:20:22.677786 30581 net.cpp:100] Creating Layer conv7_2_mbox_loc_perm
I0608 12:20:22.677791 30581 net.cpp:434] conv7_2_mbox_loc_perm <- conv7_2_mbox_loc
I0608 12:20:22.677799 30581 net.cpp:408] conv7_2_mbox_loc_perm -> conv7_2_mbox_loc_perm
I0608 12:20:22.677880 30581 net.cpp:150] Setting up conv7_2_mbox_loc_perm
I0608 12:20:22.677886 30581 net.cpp:157] Top shape: 32 5 5 24 (19200)
I0608 12:20:22.677891 30581 net.cpp:165] Memory required for data: 7927615968
I0608 12:20:22.677896 30581 layer_factory.hpp:77] Creating layer conv7_2_mbox_loc_flat
I0608 12:20:22.677901 30581 net.cpp:100] Creating Layer conv7_2_mbox_loc_flat
I0608 12:20:22.677906 30581 net.cpp:434] conv7_2_mbox_loc_flat <- conv7_2_mbox_loc_perm
I0608 12:20:22.677911 30581 net.cpp:408] conv7_2_mbox_loc_flat -> conv7_2_mbox_loc_flat
I0608 12:20:22.677933 30581 net.cpp:150] Setting up conv7_2_mbox_loc_flat
I0608 12:20:22.677939 30581 net.cpp:157] Top shape: 32 600 (19200)
I0608 12:20:22.677943 30581 net.cpp:165] Memory required for data: 7927692768
I0608 12:20:22.677947 30581 layer_factory.hpp:77] Creating layer conv7_2_mbox_conf
I0608 12:20:22.677955 30581 net.cpp:100] Creating Layer conv7_2_mbox_conf
I0608 12:20:22.677959 30581 net.cpp:434] conv7_2_mbox_conf <- conv7_2_conv7_2_relu_0_split_2
I0608 12:20:22.677966 30581 net.cpp:408] conv7_2_mbox_conf -> conv7_2_mbox_conf
I0608 12:20:22.679457 30581 net.cpp:150] Setting up conv7_2_mbox_conf
I0608 12:20:22.679468 30581 net.cpp:157] Top shape: 32 12 5 5 (9600)
I0608 12:20:22.679472 30581 net.cpp:165] Memory required for data: 7927731168
I0608 12:20:22.679479 30581 layer_factory.hpp:77] Creating layer conv7_2_mbox_conf_perm
I0608 12:20:22.679487 30581 net.cpp:100] Creating Layer conv7_2_mbox_conf_perm
I0608 12:20:22.679492 30581 net.cpp:434] conv7_2_mbox_conf_perm <- conv7_2_mbox_conf
I0608 12:20:22.679499 30581 net.cpp:408] conv7_2_mbox_conf_perm -> conv7_2_mbox_conf_perm
I0608 12:20:22.679579 30581 net.cpp:150] Setting up conv7_2_mbox_conf_perm
I0608 12:20:22.679586 30581 net.cpp:157] Top shape: 32 5 5 12 (9600)
I0608 12:20:22.679591 30581 net.cpp:165] Memory required for data: 7927769568
I0608 12:20:22.679595 30581 layer_factory.hpp:77] Creating layer conv7_2_mbox_conf_flat
I0608 12:20:22.679600 30581 net.cpp:100] Creating Layer conv7_2_mbox_conf_flat
I0608 12:20:22.679605 30581 net.cpp:434] conv7_2_mbox_conf_flat <- conv7_2_mbox_conf_perm
I0608 12:20:22.679612 30581 net.cpp:408] conv7_2_mbox_conf_flat -> conv7_2_mbox_conf_flat
I0608 12:20:22.679636 30581 net.cpp:150] Setting up conv7_2_mbox_conf_flat
I0608 12:20:22.679641 30581 net.cpp:157] Top shape: 32 300 (9600)
I0608 12:20:22.679644 30581 net.cpp:165] Memory required for data: 7927807968
I0608 12:20:22.679649 30581 layer_factory.hpp:77] Creating layer conv7_2_mbox_priorbox
I0608 12:20:22.679656 30581 net.cpp:100] Creating Layer conv7_2_mbox_priorbox
I0608 12:20:22.679659 30581 net.cpp:434] conv7_2_mbox_priorbox <- conv7_2_conv7_2_relu_0_split_3
I0608 12:20:22.679674 30581 net.cpp:434] conv7_2_mbox_priorbox <- data_data_0_split_4
I0608 12:20:22.679682 30581 net.cpp:408] conv7_2_mbox_priorbox -> conv7_2_mbox_priorbox
I0608 12:20:22.679707 30581 net.cpp:150] Setting up conv7_2_mbox_priorbox
I0608 12:20:22.679713 30581 net.cpp:157] Top shape: 1 2 600 (1200)
I0608 12:20:22.679716 30581 net.cpp:165] Memory required for data: 7927812768
I0608 12:20:22.679720 30581 layer_factory.hpp:77] Creating layer conv8_2_mbox_loc
I0608 12:20:22.679729 30581 net.cpp:100] Creating Layer conv8_2_mbox_loc
I0608 12:20:22.679733 30581 net.cpp:434] conv8_2_mbox_loc <- conv8_2_conv8_2_relu_0_split_1
I0608 12:20:22.679740 30581 net.cpp:408] conv8_2_mbox_loc -> conv8_2_mbox_loc
I0608 12:20:22.681315 30581 net.cpp:150] Setting up conv8_2_mbox_loc
I0608 12:20:22.681326 30581 net.cpp:157] Top shape: 32 16 3 3 (4608)
I0608 12:20:22.681330 30581 net.cpp:165] Memory required for data: 7927831200
I0608 12:20:22.681344 30581 layer_factory.hpp:77] Creating layer conv8_2_mbox_loc_perm
I0608 12:20:22.681351 30581 net.cpp:100] Creating Layer conv8_2_mbox_loc_perm
I0608 12:20:22.681357 30581 net.cpp:434] conv8_2_mbox_loc_perm <- conv8_2_mbox_loc
I0608 12:20:22.681365 30581 net.cpp:408] conv8_2_mbox_loc_perm -> conv8_2_mbox_loc_perm
I0608 12:20:22.681445 30581 net.cpp:150] Setting up conv8_2_mbox_loc_perm
I0608 12:20:22.681453 30581 net.cpp:157] Top shape: 32 3 3 16 (4608)
I0608 12:20:22.681457 30581 net.cpp:165] Memory required for data: 7927849632
I0608 12:20:22.681460 30581 layer_factory.hpp:77] Creating layer conv8_2_mbox_loc_flat
I0608 12:20:22.681465 30581 net.cpp:100] Creating Layer conv8_2_mbox_loc_flat
I0608 12:20:22.681471 30581 net.cpp:434] conv8_2_mbox_loc_flat <- conv8_2_mbox_loc_perm
I0608 12:20:22.681476 30581 net.cpp:408] conv8_2_mbox_loc_flat -> conv8_2_mbox_loc_flat
I0608 12:20:22.681499 30581 net.cpp:150] Setting up conv8_2_mbox_loc_flat
I0608 12:20:22.681504 30581 net.cpp:157] Top shape: 32 144 (4608)
I0608 12:20:22.681507 30581 net.cpp:165] Memory required for data: 7927868064
I0608 12:20:22.681511 30581 layer_factory.hpp:77] Creating layer conv8_2_mbox_conf
I0608 12:20:22.681519 30581 net.cpp:100] Creating Layer conv8_2_mbox_conf
I0608 12:20:22.681524 30581 net.cpp:434] conv8_2_mbox_conf <- conv8_2_conv8_2_relu_0_split_2
I0608 12:20:22.681531 30581 net.cpp:408] conv8_2_mbox_conf -> conv8_2_mbox_conf
I0608 12:20:22.682987 30581 net.cpp:150] Setting up conv8_2_mbox_conf
I0608 12:20:22.682996 30581 net.cpp:157] Top shape: 32 8 3 3 (2304)
I0608 12:20:22.683001 30581 net.cpp:165] Memory required for data: 7927877280
I0608 12:20:22.683008 30581 layer_factory.hpp:77] Creating layer conv8_2_mbox_conf_perm
I0608 12:20:22.683017 30581 net.cpp:100] Creating Layer conv8_2_mbox_conf_perm
I0608 12:20:22.683022 30581 net.cpp:434] conv8_2_mbox_conf_perm <- conv8_2_mbox_conf
I0608 12:20:22.683028 30581 net.cpp:408] conv8_2_mbox_conf_perm -> conv8_2_mbox_conf_perm
I0608 12:20:22.683109 30581 net.cpp:150] Setting up conv8_2_mbox_conf_perm
I0608 12:20:22.683115 30581 net.cpp:157] Top shape: 32 3 3 8 (2304)
I0608 12:20:22.683120 30581 net.cpp:165] Memory required for data: 7927886496
I0608 12:20:22.683122 30581 layer_factory.hpp:77] Creating layer conv8_2_mbox_conf_flat
I0608 12:20:22.683128 30581 net.cpp:100] Creating Layer conv8_2_mbox_conf_flat
I0608 12:20:22.683133 30581 net.cpp:434] conv8_2_mbox_conf_flat <- conv8_2_mbox_conf_perm
I0608 12:20:22.683140 30581 net.cpp:408] conv8_2_mbox_conf_flat -> conv8_2_mbox_conf_flat
I0608 12:20:22.683161 30581 net.cpp:150] Setting up conv8_2_mbox_conf_flat
I0608 12:20:22.683167 30581 net.cpp:157] Top shape: 32 72 (2304)
I0608 12:20:22.683171 30581 net.cpp:165] Memory required for data: 7927895712
I0608 12:20:22.683174 30581 layer_factory.hpp:77] Creating layer conv8_2_mbox_priorbox
I0608 12:20:22.683179 30581 net.cpp:100] Creating Layer conv8_2_mbox_priorbox
I0608 12:20:22.683185 30581 net.cpp:434] conv8_2_mbox_priorbox <- conv8_2_conv8_2_relu_0_split_3
I0608 12:20:22.683190 30581 net.cpp:434] conv8_2_mbox_priorbox <- data_data_0_split_5
I0608 12:20:22.683207 30581 net.cpp:408] conv8_2_mbox_priorbox -> conv8_2_mbox_priorbox
I0608 12:20:22.683230 30581 net.cpp:150] Setting up conv8_2_mbox_priorbox
I0608 12:20:22.683238 30581 net.cpp:157] Top shape: 1 2 144 (288)
I0608 12:20:22.683240 30581 net.cpp:165] Memory required for data: 7927896864
I0608 12:20:22.683243 30581 layer_factory.hpp:77] Creating layer conv9_2_mbox_loc
I0608 12:20:22.683253 30581 net.cpp:100] Creating Layer conv9_2_mbox_loc
I0608 12:20:22.683257 30581 net.cpp:434] conv9_2_mbox_loc <- conv9_2_conv9_2_relu_0_split_0
I0608 12:20:22.683264 30581 net.cpp:408] conv9_2_mbox_loc -> conv9_2_mbox_loc
I0608 12:20:22.684803 30581 net.cpp:150] Setting up conv9_2_mbox_loc
I0608 12:20:22.684811 30581 net.cpp:157] Top shape: 32 16 1 1 (512)
I0608 12:20:22.684815 30581 net.cpp:165] Memory required for data: 7927898912
I0608 12:20:22.684824 30581 layer_factory.hpp:77] Creating layer conv9_2_mbox_loc_perm
I0608 12:20:22.684830 30581 net.cpp:100] Creating Layer conv9_2_mbox_loc_perm
I0608 12:20:22.684836 30581 net.cpp:434] conv9_2_mbox_loc_perm <- conv9_2_mbox_loc
I0608 12:20:22.684842 30581 net.cpp:408] conv9_2_mbox_loc_perm -> conv9_2_mbox_loc_perm
I0608 12:20:22.684923 30581 net.cpp:150] Setting up conv9_2_mbox_loc_perm
I0608 12:20:22.684929 30581 net.cpp:157] Top shape: 32 1 1 16 (512)
I0608 12:20:22.684933 30581 net.cpp:165] Memory required for data: 7927900960
I0608 12:20:22.684937 30581 layer_factory.hpp:77] Creating layer conv9_2_mbox_loc_flat
I0608 12:20:22.684942 30581 net.cpp:100] Creating Layer conv9_2_mbox_loc_flat
I0608 12:20:22.684947 30581 net.cpp:434] conv9_2_mbox_loc_flat <- conv9_2_mbox_loc_perm
I0608 12:20:22.684953 30581 net.cpp:408] conv9_2_mbox_loc_flat -> conv9_2_mbox_loc_flat
I0608 12:20:22.684974 30581 net.cpp:150] Setting up conv9_2_mbox_loc_flat
I0608 12:20:22.684981 30581 net.cpp:157] Top shape: 32 16 (512)
I0608 12:20:22.684984 30581 net.cpp:165] Memory required for data: 7927903008
I0608 12:20:22.684988 30581 layer_factory.hpp:77] Creating layer conv9_2_mbox_conf
I0608 12:20:22.684996 30581 net.cpp:100] Creating Layer conv9_2_mbox_conf
I0608 12:20:22.685001 30581 net.cpp:434] conv9_2_mbox_conf <- conv9_2_conv9_2_relu_0_split_1
I0608 12:20:22.685008 30581 net.cpp:408] conv9_2_mbox_conf -> conv9_2_mbox_conf
I0608 12:20:22.686892 30581 net.cpp:150] Setting up conv9_2_mbox_conf
I0608 12:20:22.686902 30581 net.cpp:157] Top shape: 32 8 1 1 (256)
I0608 12:20:22.686905 30581 net.cpp:165] Memory required for data: 7927904032
I0608 12:20:22.686913 30581 layer_factory.hpp:77] Creating layer conv9_2_mbox_conf_perm
I0608 12:20:22.686920 30581 net.cpp:100] Creating Layer conv9_2_mbox_conf_perm
I0608 12:20:22.686925 30581 net.cpp:434] conv9_2_mbox_conf_perm <- conv9_2_mbox_conf
I0608 12:20:22.686933 30581 net.cpp:408] conv9_2_mbox_conf_perm -> conv9_2_mbox_conf_perm
I0608 12:20:22.687013 30581 net.cpp:150] Setting up conv9_2_mbox_conf_perm
I0608 12:20:22.687021 30581 net.cpp:157] Top shape: 32 1 1 8 (256)
I0608 12:20:22.687023 30581 net.cpp:165] Memory required for data: 7927905056
I0608 12:20:22.687028 30581 layer_factory.hpp:77] Creating layer conv9_2_mbox_conf_flat
I0608 12:20:22.687033 30581 net.cpp:100] Creating Layer conv9_2_mbox_conf_flat
I0608 12:20:22.687038 30581 net.cpp:434] conv9_2_mbox_conf_flat <- conv9_2_mbox_conf_perm
I0608 12:20:22.687044 30581 net.cpp:408] conv9_2_mbox_conf_flat -> conv9_2_mbox_conf_flat
I0608 12:20:22.687067 30581 net.cpp:150] Setting up conv9_2_mbox_conf_flat
I0608 12:20:22.687072 30581 net.cpp:157] Top shape: 32 8 (256)
I0608 12:20:22.687075 30581 net.cpp:165] Memory required for data: 7927906080
I0608 12:20:22.687078 30581 layer_factory.hpp:77] Creating layer conv9_2_mbox_priorbox
I0608 12:20:22.687085 30581 net.cpp:100] Creating Layer conv9_2_mbox_priorbox
I0608 12:20:22.687089 30581 net.cpp:434] conv9_2_mbox_priorbox <- conv9_2_conv9_2_relu_0_split_2
I0608 12:20:22.687095 30581 net.cpp:434] conv9_2_mbox_priorbox <- data_data_0_split_6
I0608 12:20:22.687103 30581 net.cpp:408] conv9_2_mbox_priorbox -> conv9_2_mbox_priorbox
I0608 12:20:22.687135 30581 net.cpp:150] Setting up conv9_2_mbox_priorbox
I0608 12:20:22.687142 30581 net.cpp:157] Top shape: 1 2 16 (32)
I0608 12:20:22.687145 30581 net.cpp:165] Memory required for data: 7927906208
I0608 12:20:22.687149 30581 layer_factory.hpp:77] Creating layer mbox_loc
I0608 12:20:22.687155 30581 net.cpp:100] Creating Layer mbox_loc
I0608 12:20:22.687160 30581 net.cpp:434] mbox_loc <- conv4_3_norm_mbox_loc_flat
I0608 12:20:22.687166 30581 net.cpp:434] mbox_loc <- fc7_mbox_loc_flat
I0608 12:20:22.687172 30581 net.cpp:434] mbox_loc <- conv6_2_mbox_loc_flat
I0608 12:20:22.687178 30581 net.cpp:434] mbox_loc <- conv7_2_mbox_loc_flat
I0608 12:20:22.687185 30581 net.cpp:434] mbox_loc <- conv8_2_mbox_loc_flat
I0608 12:20:22.687189 30581 net.cpp:434] mbox_loc <- conv9_2_mbox_loc_flat
I0608 12:20:22.687196 30581 net.cpp:408] mbox_loc -> mbox_loc
I0608 12:20:22.687221 30581 net.cpp:150] Setting up mbox_loc
I0608 12:20:22.687227 30581 net.cpp:157] Top shape: 32 34928 (1117696)
I0608 12:20:22.687230 30581 net.cpp:165] Memory required for data: 7932376992
I0608 12:20:22.687234 30581 layer_factory.hpp:77] Creating layer mbox_conf
I0608 12:20:22.687240 30581 net.cpp:100] Creating Layer mbox_conf
I0608 12:20:22.687244 30581 net.cpp:434] mbox_conf <- conv4_3_norm_mbox_conf_flat
I0608 12:20:22.687250 30581 net.cpp:434] mbox_conf <- fc7_mbox_conf_flat
I0608 12:20:22.687257 30581 net.cpp:434] mbox_conf <- conv6_2_mbox_conf_flat
I0608 12:20:22.687263 30581 net.cpp:434] mbox_conf <- conv7_2_mbox_conf_flat
I0608 12:20:22.687266 30581 net.cpp:434] mbox_conf <- conv8_2_mbox_conf_flat
I0608 12:20:22.687271 30581 net.cpp:434] mbox_conf <- conv9_2_mbox_conf_flat
I0608 12:20:22.687278 30581 net.cpp:408] mbox_conf -> mbox_conf
I0608 12:20:22.687300 30581 net.cpp:150] Setting up mbox_conf
I0608 12:20:22.687306 30581 net.cpp:157] Top shape: 32 17464 (558848)
I0608 12:20:22.687310 30581 net.cpp:165] Memory required for data: 7934612384
I0608 12:20:22.687314 30581 layer_factory.hpp:77] Creating layer mbox_priorbox
I0608 12:20:22.687319 30581 net.cpp:100] Creating Layer mbox_priorbox
I0608 12:20:22.687325 30581 net.cpp:434] mbox_priorbox <- conv4_3_norm_mbox_priorbox
I0608 12:20:22.687330 30581 net.cpp:434] mbox_priorbox <- fc7_mbox_priorbox
I0608 12:20:22.687333 30581 net.cpp:434] mbox_priorbox <- conv6_2_mbox_priorbox
I0608 12:20:22.687340 30581 net.cpp:434] mbox_priorbox <- conv7_2_mbox_priorbox
I0608 12:20:22.687343 30581 net.cpp:434] mbox_priorbox <- conv8_2_mbox_priorbox
I0608 12:20:22.687347 30581 net.cpp:434] mbox_priorbox <- conv9_2_mbox_priorbox
I0608 12:20:22.687353 30581 net.cpp:408] mbox_priorbox -> mbox_priorbox
I0608 12:20:22.687376 30581 net.cpp:150] Setting up mbox_priorbox
I0608 12:20:22.687381 30581 net.cpp:157] Top shape: 1 2 34928 (69856)
I0608 12:20:22.687386 30581 net.cpp:165] Memory required for data: 7934891808
I0608 12:20:22.687388 30581 layer_factory.hpp:77] Creating layer mbox_loss
I0608 12:20:22.687398 30581 net.cpp:100] Creating Layer mbox_loss
I0608 12:20:22.687402 30581 net.cpp:434] mbox_loss <- mbox_loc
I0608 12:20:22.687407 30581 net.cpp:434] mbox_loss <- mbox_conf
I0608 12:20:22.687412 30581 net.cpp:434] mbox_loss <- mbox_priorbox
…
  name: "data"
  type: "AnnotatedData"
  top: "data"
  top: "label"
  include {
    phase: TEST
  }
  transform_param {
    mean_value: 104
    mean_value: 117
    mean_value: 123
    resize_param {
      prob: 1
      resize_mode: WARP
      height: 300
      width: 300
      interp_mode: LINEAR
    }
  }
  data_param {
    source: "examples/sharpen_tbs_v2.0/sharpen_tbs_v2.0_test_lmdb"
    batch_size: 4
    backend: LMDB
  }
  annotated_data_param {
    batch_sampler {
    }
    label_map_file: "data/sharpen_tbs_v2.0/labelmap_voc.prototxt"
  }
}
layer {
  name: "conv1_1"
  type: "Convolution"
  bottom: "data"
  top: "conv1_1"
  param {
    lr_mult: 1
    decay_mult: 1
  }
  param {
    lr_mult: 2
    decay_mult: 0
  }
  convolution_param {
    num_output: 64
    pad: 1
    kernel_size: 3
    weight_filler {
      type: "xavier"
    }
    bias_filler {
      type: "constant"
      value: 0
    }
  }
}
layer {
  name: "relu1_1"
  type: "ReLU"
  bottom: "conv1_1"
  top: "conv1_1"
}
layer {
  name: "conv1_2"
  type: "Convolution"
  bottom: "conv1_1"
  top: "conv1_2"
  param {
    lr_mult: 1
    decay_mult: 1
  }
  param {
    lr_mult: 2
    decay_mult: 0
  }
  convolution_param {
    num_output: 64
    pad: 1
    kernel_size: 3
    weight_filler {
      type: "xavier"
    }
    bias_filler {
      type: "constant"
      value: 0
    }
  }
}
layer {
  name: "relu1_2"
  type: "ReLU"
  bottom: "conv1_2"
  top: "conv1_2"
}
layer {
  name: "pool1"
  type: "Pooling"
  bottom: "conv1_2"
  top: "pool1"
  pooling_param {
    pool: MAX
    kernel_size: 2
    stride: 2
  }
}
layer {
  name: "conv2_1"
  type: "Convolution"
  bottom: "pool1"
  top: "conv2_1"
  param {
    lr_mult: 1
    decay_mult: 1
  }
  param {
    lr_mult: 2
    decay_mult: 0
  }
  convolution_param {
    num_output: 128
    pad: 1
    kernel_size: 3
    weight_filler {
      type: "xavier"
    }
    bias_filler {
      type: "constant"
      value: 0
    }
  }
}
layer {
  name: "relu2_1"
  type: "ReLU"
  bottom: "conv2_1"
  top: "conv2_1"
}
layer {
  name: "conv2_2"
  type: "Convolution"
  bottom: "conv2_1"
  top: "conv2_2"
  param {
    lr_mult: 1
    decay_mult: 1
  }
  param {
    lr_mult: 2
    decay_mult: 0
  }
  convolution_param {
    num_output: 128
    pad: 1
    kernel_size: 3
    weight_filler {
      type: "xavier"
    }
    bias_filler {
      type: "constant"
      value: 0
    }
  }
}
layer {
  name: "relu2_2"
  type: "ReLU"
  bottom: "conv2_2"
  top: "conv2_2"
}
layer {
  name: "pool2"
  type: "Pooling"
  bottom: "conv2_2"
  top: "pool2"
  pooling_param {
    pool: MAX
    kernel_size: 2
    stride: 2
  }
}
layer {
  name: "conv3_1"
  type: "Convolution"
  bottom: "pool2"
  top: "conv3_1"
  param {
    lr_mult: 1
    decay_mult: 1
  }
  param {
    lr_mult: 2
    decay_mult: 0
  }
  convolution_param {
    num_output: 256
    pad: 1
    kernel_size: 3
    weight_filler {
      type: "xavier"
    }
    bias_filler {
      type: "constant"
      value: 0
    }
  }
}
layer {
  name: "relu3_1"
  type: "ReLU"
  bottom: "conv3_1"
  top: "conv3_1"
}
layer {
  name: "conv3_2"
  type: "Convolution"
  bottom: "conv3_1"
  top: "conv3_2"
  param {
    lr_mult: 1
    decay_mult: 1
  }
  param {
    lr_mult: 2
    decay_mult: 0
  }
  convolution_param {
    num_output: 256
    pad: 1
    kernel_size: 3
    weight_filler {
      type: "xavier"
    }
    bias_filler {
      type: "constant"
      value: 0
    }
  }
}
layer {
  name: "relu3_2"
  type: "ReLU"
  bottom: "conv3_2"
  top: "conv3_2"
}
layer {
  name: "conv3_3"
  type: "Convolution"
  bottom: "conv3_2"
  top: "conv3_3"
  param {
    lr_mult: 1
    decay_mult: 1
  }
  param {
    lr_mult: 2
    decay_mult: 0
  }
  convolution_param {
    num_output: 256
    pad: 1
    kernel_size: 3
    weight_filler {
      type: "xavier"
    }
    bias_filler {
      type: "constant"
      value: 0
    }
  }
}
layer {
  name: "relu3_3"
  type: "ReLU"
  bottom: "conv3_3"
  top: "conv3_3"
}
layer {
  name: "pool3"
  type: "Pooling"
  bottom: "conv3_3"
  top: "pool3"
  pooling_param {
    pool: MAX
    kernel_size: 2
    stride: 2
  }
}
layer {
  name: "conv4_1"
  type: "Convolution"
  bottom: "pool3"
  top: "conv4_1"
  param {
    lr_mult: 1
    decay_mult: 1
  }
  param {
    lr_mult: 2
    decay_mult: 0
  }
  convolution_param {
    num_output: 512
    pad: 1
    kernel_size: 3
    weight_filler {
      type: "xavier"
    }
    bias_filler {
      type: "constant"
      value: 0
    }
  }
}
layer {
  name: "relu4_1"
  type: "ReLU"
  bottom: "conv4_1"
  top: "conv4_1"
}
layer {
  name: "conv4_2"
  type: "Convolution"
  bottom: "conv4_1"
  top: "conv4_2"
  param {
    lr_mult: 1
    decay_mult: 1
  }
  param {
    lr_mult: 2
    decay_mult: 0
  }
  convolution_param {
    num_output: 512
    pad: 1
    kernel_size: 3
    weight_filler {
      type: "xavier"
    }
    bias_filler {
      type: "constant"
      value: 0
    }
  }
}
layer {
  name: "relu4_2"
  type: "ReLU"
  bottom: "conv4_2"
  top: "conv4_2"
}
layer {
  name: "conv4_3"
  type: "Convolution"
  bottom: "conv4_2"
  top: "conv4_3"
  param {
    lr_mult: 1
    decay_mult: 1
  }
  param {
    lr_mult: 2
    decay_mult: 0
  }
  convolution_param {
    num_output: 512
    pad: 1
    kernel_size: 3
    weight_filler {
      type: "xavier"
    }
    bias_filler {
      type: "constant"
      value: 0
    }
  }
}
layer {
  name: "relu4_3"
  type: "ReLU"
  bottom: "conv4_3"
  top: "conv4_3"
}
layer {
  name: "pool4"
  type: "Pooling"
  bottom: "conv4_3"
  top: "pool4"
  pooling_param {
    pool: MAX
    kernel_size: 2
    stride: 2
  }
}
layer {
  name: "conv5_1"
  type: "Convolution"
  bottom: "pool4"
  top: "conv5_1"
  param {
    lr_mult: 1
    decay_mult: 1
  }
  param {
    lr_mult: 2
    decay_mult: 0
  }
  convolution_param {
    num_output: 512
    pad: 1
    kernel_size: 3
    weight_filler {
      type: "xavier"
    }
    bias_filler {
      type: "constant"
      value: 0
    }
    dilation: 1
  }
}
layer {
  name: "relu5_1"
  type: "ReLU"
  bottom: "conv5_1"
  top: "conv5_1"
}
layer {
  name: "conv5_2"
  type: "Convolution"
  bottom: "conv5_1"
  top: "conv5_2"
  param {
    lr_mult: 1
    decay_mult: 1
  }
  param {
    lr_mult: 2
    decay_mult: 0
  }
  convolution_param {
    num_output: 512
    pad: 1
    kernel_size: 3
    weight_filler {
      type: "xavier"
    }
    bias_filler {
      type: "constant"
      value: 0
    }
    dilation: 1
  }
}
layer {
  name: "relu5_2"
  type: "ReLU"
  bottom: "conv5_2"
  top: "conv5_2"
}
layer {
  name: "conv5_3"
  type: "Convolution"
  bottom: "conv5_2"
  top: "conv5_3"
  param {
    lr_mult: 1
    decay_mult: 1
  }
  param {
    lr_mult: 2
    decay_mult: 0
  }
  convolution_param {
    num_output: 512
    pad: 1
    kernel_size: 3
    weight_filler {
      type: "xavier"
    }
    bias_filler {
      type: "constant"
      value: 0
    }
    dilation: 1
  }
}
layer {
  name: "relu5_3"
  type: "ReLU"
  bottom: "conv5_3"
  top: "conv5_3"
}
layer {
  name: "pool5"
  type: "Pooling"
  bottom: "conv5_3"
  top: "pool5"
  pooling_param {
    pool: MAX
    kernel_size: 3
    stride: 1
    pad: 1
  }
}
layer {
  name: "fc6"
  type: "Convolution"
  bottom: "pool5"
  top: "fc6"
  param {
    lr_mult: 1
    decay_mult: 1
  }
  param {
    lr_mult: 2
    decay_mult: 0
  }
  convolution_param {
    num_output: 1024
    pad: 6
    kernel_size: 3
    weight_filler {
      type: "xavier"
    }
    bias_filler {
      type: "constant"
      value: 0
    }
    dilation: 6
  }
}
layer {
  name: "relu6"
  type: "ReLU"
  bottom: "fc6"
  top: "fc6"
}
layer {
  name: "fc7"
  type: "Convolution"
  bottom: "fc6"
  top: "fc7"
  param {
    lr_mult: 1
    decay_mult: 1
  }
  param {
    lr_mult: 2
    decay_mult: 0
  }
  convolution_param {
    num_output: 1024
    kernel_size: 1
    weight_filler {
      type: "xavier"
    }
    bias_filler {
      type: "constant"
      value: 0
    }
  }
}
layer {
  name: "relu7"
  type: "ReLU"
  bottom: "fc7"
  top: "fc7"
}
layer {
  name: "conv6_1"
  type: "Convolution"
  bottom: "fc7"
  top: "conv6_1"
  param {
    lr_mult: 1
    decay_mult: 1
  }
  param {
    lr_mult: 2
    decay_mult: 0
  }
  convolution_param {
    num_output: 256
    pad: 0
    kernel_size: 1
    stride: 1
    weight_filler {
      type: "xavier"
    }
    bias_filler {
      type: "constant"
      value: 0
    }
  }
}
layer {
  name: "conv6_1_relu"
  type: "ReLU"
  bottom: "conv6_1"
  top: "conv6_1"
}
layer {
  name: "conv6_2"
  type: "Convolution"
  bottom: "conv6_1"
  top: "conv6_2"
  param {
    lr_mult: 1
    decay_mult: 1
  }
  param {
    lr_mult: 2
    decay_mult: 0
  }
  convolution_param {
    num_output: 512
    pad: 1
    kernel_size: 3
    stride: 2
    weight_filler {
      type: "xavier"
    }
    bias_filler {
      type: "constant"
      value: 0
    }
  }
}
layer {
  name: "conv6_2_relu"
  type: "ReLU"
  bottom: "conv6_2"
  top: "conv6_2"
}
layer {
  name: "conv7_1"
  type: "Convolution"
  bottom: "conv6_2"
  top: "conv7_1"
  param {
    lr_mult: 1
    decay_mult: 1
  }
  param {
    lr_mult: 2
    decay_mult: 0
  }
  convolution_param {
    num_output: 128
    pad: 0
    kernel_size: 1
    stride: 1
    weight_filler {
      type: "xavier"
    }
    bias_filler {
      type: "constant"
      value: 0
    }
  }
}
layer {
  name: "conv7_1_relu"
  type: "ReLU"
  bottom: "conv7_1"
  top: "conv7_1"
}
layer {
  name: "conv7_2"
  type: "Convolution"
  bottom: "conv7_1"
  top: "conv7_2"
  param {
    lr_mult: 1
    decay_mult: 1
  }
  param {
    lr_mult: 2
    decay_mult: 0
  }
  convolution_param {
    num_output: 256
    pad: 1
    kernel_size: 3
    stride: 2
    weight_filler {
      type: "xavier"
    }
    bias_filler {
      type: "constant"
      value: 0
    }
  }
}
layer {
  name: "conv7_2_relu"
  type: "ReLU"
  bottom: "conv7_2"
  top: "conv7_2"
}
layer {
  name: "conv8_1"
  type: "Convolution"
  bottom: "conv7_2"
  top: "conv8_1"
  param {
    lr_mult: 1
    decay_mult: 1
  }
  param {
    lr_mult: 2
    decay_mult: 0
  }
  convolution_param {
    num_output: 128
    pad: 0
    kernel_size: 1
    stride: 1
    weight_filler {
      type: "xavier"
    }
    bias_filler {
      type: "constant"
      value: 0
    }
  }
}
layer {
  name: "conv8_1_relu"
  type: "ReLU"
  bottom: "conv8_1"
  top: "conv8_1"
}
layer {
  name: "conv8_2"
  type: "Convolution"
  bottom: "conv8_1"
  top: "conv8_2"
  param {
    lr_mult: 1
    decay_mult: 1
  }
  param {
    lr_mult: 2
    decay_mult: 0
  }
  convolution_param {
    num_output: 256
    pad: 0
    kernel_size: 3
    stride: 1
    weight_filler {
      type: "xavier"
    }
    bias_filler {
      type: "constant"
      value: 0
    }
  }
}
layer {
  name: "conv8_2_relu"
  type: "ReLU"
  bottom: "conv8_2"
  top: "conv8_2"
}
layer {
  name: "conv9_1"
  type: "Convolution"
  bottom: "conv8_2"
  top: "conv9_1"
  param {
    lr_mult: 1
    decay_mult: 1
  }
  param {
    lr_mult: 2
    decay_mult: 0
  }
  convolution_param {
    num_output: 128
    pad: 0
    kernel_size: 1
    stride: 1
    weight_filler {
      type: "xavier"
    }
    bias_filler {
      type: "constant"
      value: 0
    }
  }
}
layer {
  name: "conv9_1_relu"
  type: "ReLU"
  bottom: "conv9_1"
  top: "conv9_1"
}
layer {
  name: "conv9_2"
  type: "Convolution"
  bottom: "conv9_1"
  top: "conv9_2"
  param {
    lr_mult: 1
    decay_mult: 1
  }
  param {
    lr_mult: 2
    decay_mult: 0
  }
  convolution_param {
    num_output: 256
    pad: 0
    kernel_size: 3
    stride: 1
    weight_filler {
      type: "xavier"
    }
    bias_filler {
      type: "constant"
      value: 0
    }
  }
}
layer {
  name: "conv9_2_relu"
  type: "ReLU"
  bottom: "conv9_2"
  top: "conv9_2"
}
layer {
  name: "conv4_3_norm"
  type: "Normalize"
  bottom: "conv4_3"
  top: "conv4_3_norm"
  norm_param {
    across_spatial: false
    scale_filler {
      type: "constant"
      value: 20
    }
    channel_shared: false
  }
}
layer {
  name: "conv4_3_norm_mbox_loc"
  type: "Convolution"
  bottom: "conv4_3_norm"
  top: "conv4_3_norm_mbox_loc"
  param {
    lr_mult: 1
    decay_mult: 1
  }
  param {
    lr_mult: 2
    decay_mult: 0
  }
  convolution_param {
    num_output: 16
    pad: 1
    kernel_size: 3
    stride: 1
    weight_filler {
      type: "xavier"
    }
    bias_filler {
      type: "constant"
      value: 0
    }
  }
}
layer {
  name: "conv4_3_norm_mbox_loc_perm"
  type: "Permute"
  bottom: "conv4_3_norm_mbox_loc"
  top: "conv4_3_norm_mbox_loc_perm"
  permute_param {
    order: 0
    order: 2
    order: 3
    order: 1
  }
}
layer {
  name: "conv4_3_norm_mbox_loc_flat"
  type: "Flatten"
  bottom: "conv4_3_norm_mbox_loc_perm"
  top: "conv4_3_norm_mbox_loc_flat"
  flatten_param {
    axis: 1
  }
}
layer {
  name: "conv4_3_norm_mbox_conf"
  type: "Convolution"
  bottom: "conv4_3_norm"
  top: "conv4_3_norm_mbox_conf"
  param {
    lr_mult: 1
    decay_mult: 1
  }
  param {
    lr_mult: 2
    decay_mult: 0
  }
  convolution_param {
    num_output: 8
    pad: 1
    kernel_size: 3
    stride: 1
    weight_filler {
      type: "xavier"
    }
    bias_filler {
      type: "constant"
      value: 0
    }
  }
}
layer {
  name: "conv4_3_norm_mbox_conf_perm"
  type: "Permute"
  bottom: "conv4_3_norm_mbox_conf"
  top: "conv4_3_norm_mbox_conf_perm"
  permute_param {
    order: 0
    order: 2
    order: 3
    order: 1
  }
}
layer {
  name: "conv4_3_norm_mbox_conf_flat"
  type: "Flatten"
  bottom: "conv4_3_norm_mbox_conf_perm"
  top: "conv4_3_norm_mbox_conf_flat"
  flatten_param {
    axis: 1
  }
}
layer {
  name: "conv4_3_norm_mbox_priorbox"
  type: "PriorBox"
  bottom: "conv4_3_norm"
  bottom: "data"
  top: "conv4_3_norm_mbox_priorbox"
  prior_box_param {
    min_size: 30
    max_size: 60
    aspect_ratio: 2
    flip: true
    clip: false
    variance: 0.1
    variance: 0.1
    variance: 0.2
    variance: 0.2
    step: 8
    offset: 0.5
  }
}
layer {
  name: "fc7_mbox_loc"
  type: "Convolution"
  bottom: "fc7"
  top: "fc7_mbox_loc"
  param {
    lr_mult: 1
    decay_mult: 1
  }
  param {
    lr_mult: 2
    decay_mult: 0
  }
  convolution_param {
    num_output: 24
    pad: 1
    kernel_size: 3
    stride: 1
    weight_filler {
      type: "xavier"
    }
    bias_filler {
      type: "constant"
      value: 0
    }
  }
}
layer {
  name: "fc7_mbox_loc_perm"
  type: "Permute"
  bottom: "fc7_mbox_loc"
  top: "fc7_mbox_loc_perm"
  permute_param {
    order: 0
    order: 2
    order: 3
    order: 1
  }
}
layer {
  name: "fc7_mbox_loc_flat"
  type: "Flatten"
  bottom: "fc7_mbox_loc_perm"
  top: "fc7_mbox_loc_flat"
  flatten_param {
    axis: 1
  }
}
layer {
  name: "fc7_mbox_conf"
  type: "Convolution"
  bottom: "fc7"
  top: "fc7_mbox_conf"
  param {
    lr_mult: 1
    decay_mult: 1
  }
  param {
    lr_mult: 2
    decay_mult: 0
  }
  convolution_param {
    num_output: 12
    pad: 1
    kernel_size: 3
    stride: 1
    weight_filler {
      type: "xavier"
    }
    bias_filler {
      type: "constant"
      value: 0
    }
  }
}
layer {
  name: "fc7_mbox_conf_perm"
  type: "Permute"
  bottom: "fc7_mbox_conf"
  top: "fc7_mbox_conf_perm"
  permute_param {
    order: 0
    order: 2
    order: 3
    order: 1
  }
}
layer {
  name: "fc7_mbox_conf_flat"
  type: "Flatten"
  bottom: "fc7_mbox_conf_perm"
  top: "fc7_mbox_conf_flat"
  flatten_param {
    axis: 1
  }
}
layer {
  name: "fc7_mbox_priorbox"
  type: "PriorBox"
  bottom: "fc7"
  bottom: "data"
  top: "fc7_mbox_priorbox"
  prior_box_param {
    min_size: 60
    max_size: 111
    aspect_ratio: 2
    aspect_ratio: 3
    flip: true
    clip: false
    variance: 0.1
    variance: 0.1
    variance: 0.2
    variance: 0.2
    step: 16
    offset: 0.5
  }
}
layer {
  name: "conv6_2_mbox_loc"
  type: "Convolution"
  bottom: "conv6_2"
  top: "conv6_2_mbox_loc"
  param {
    lr_mult: 1
    decay_mult: 1
  }
  param {
    lr_mult: 2
    decay_mult: 0
  }
  convolution_param {
    num_output: 24
    pad: 1
    kernel_size: 3
    stride: 1
    weight_filler {
      type: "xavier"
    }
    bias_filler {
      type: "constant"
      value: 0
    }
  }
}
layer {
  name: "conv6_2_mbox_loc_perm"
  type: "Permute"
  bottom: "conv6_2_mbox_loc"
  top: "conv6_2_mbox_loc_perm"
  permute_param {
    order: 0
    order: 2
    order: 3
    order: 1
  }
}
layer {
  name: "conv6_2_mbox_loc_flat"
  type: "Flatten"
  bottom: "conv6_2_mbox_loc_perm"
  top: "conv6_2_mbox_loc_flat"
  flatten_param {
    axis: 1
  }
}
layer {
  name: "conv6_2_mbox_conf"
  type: "Convolution"
  bottom: "conv6_2"
  top: "conv6_2_mbox_conf"
  param {
    lr_mult: 1
    decay_mult: 1
  }
  param {
    lr_mult: 2
    decay_mult: 0
  }
  convolution_param {
    num_output: 12
    pad: 1
    kernel_size: 3
    stride: 1
    weight_filler {
      type: "xavier"
    }
    bias_filler {
      type: "constant"
      value: 0
    }
  }
}
layer {
  name: "conv6_2_mbox_conf_perm"
  type: "Permute"
  bottom: "conv6_2_mbox_conf"
  top: "conv6_2_mbox_conf_perm"
  permute_param {
    order: 0
    order: 2
    order: 3
    order: 1
  }
}
layer {
  name: "conv6_2_mbox_conf_flat"
  type: "Flatten"
  bottom: "conv6_2_mbox_conf_perm"
  top: "conv6_2_mbox_conf_flat"
  flatten_param {
    axis: 1
  }
}
layer {
  name: "conv6_2_mbox_priorbox"
  type: "PriorBox"
  bottom: "conv6_2"
  bottom: "data"
  top: "conv6_2_mbox_priorbox"
  prior_box_param {
    min_size: 111
    max_size: 162
    aspect_ratio: 2
    aspect_ratio: 3
    flip: true
    clip: false
    variance: 0.1
    variance: 0.1
    variance: 0.2
    variance: 0.2
    step: 32
    offset: 0.5
  }
}
layer {
  name: "conv7_2_mbox_loc"
  type: "Convolution"
  bottom: "conv7_2"
  top: "conv7_2_mbox_loc"
  param {
    lr_mult: 1
    decay_mult: 1
  }
  param {
    lr_mult: 2
    decay_mult: 0
  }
  convolution_param {
    num_output: 24
    pad: 1
    kernel_size: 3
    stride: 1
    weight_filler {
      type: "xavier"
    }
    bias_filler {
      type: "constant"
      value: 0
    }
  }
}
layer {
  name: "conv7_2_mbox_loc_perm"
  type: "Permute"
  bottom: "conv7_2_mbox_loc"
  top: "conv7_2_mbox_loc_perm"
  permute_param {
    order: 0
    order: 2
    order: 3
    order: 1
  }
}
layer {
  name: "conv7_2_mbox_loc_flat"
  type: "Flatten"
  bottom: "conv7_2_mbox_loc_perm"
  top: "conv7_2_mbox_loc_flat"
  flatten_param {
    axis: 1
  }
}
layer {
  name: "conv7_2_mbox_conf"
  type: "Convolution"
  bottom: "conv7_2"
  top: "conv7_2_mbox_conf"
  param {
    lr_mult: 1
    decay_mult: 1
  }
  param {
    lr_mult: 2
    decay_mult: 0
  }
  convolution_param {
    num_output: 12
    pad: 1
    kernel_size: 3
    stride: 1
    weight_filler {
      type: "xavier"
    }
    bias_filler {
      type: "constant"
      value: 0
    }
  }
}
layer {
  name: "conv7_2_mbox_conf_perm"
  type: "Permute"
  bottom: "conv7_2_mbox_conf"
  top: "conv7_2_mbox_conf_perm"
  permute_param {
    order: 0
    order: 2
    order: 3
    order: 1
  }
}
layer {
  name: "conv7_2_mbox_conf_flat"
  type: "Flatten"
  bottom: "conv7_2_mbox_conf_perm"
  top: "conv7_2_mbox_conf_flat"
  flatten_param {
    axis: 1
  }
}
layer {
  name: "conv7_2_mbox_priorbox"
  type: "PriorBox"
  bottom: "conv7_2"
  bottom: "data"
  top: "conv7_2_mbox_priorbox"
  prior_box_param {
    min_size: 162
    max_size: 213
    aspect_ratio: 2
    aspect_ratio: 3
    flip: true
    clip: false
    variance: 0.1
    variance: 0.1
    variance: 0.2
    variance: 0.2
    step: 64
    offset: 0.5
  }
}
layer {
  name: "conv8_2_mbox_loc"
  type: "Convolution"
  bottom: "conv8_2"
  top: "conv8_2_mbox_loc"
  param {
    lr_mult: 1
    decay_mult: 1
  }
  param {
    lr_mult: 2
    decay_mult: 0
  }
  convolution_param {
    num_output: 16
    pad: 1
    kernel_size: 3
    stride: 1
    weight_filler {
      type: "xavier"
    }
    bias_filler {
      type: "constant"
      value: 0
    }
  }
}
layer {
  name: "conv8_2_mbox_loc_perm"
  type: "Permute"
  bottom: "conv8_2_mbox_loc"
  top: "conv8_2_mbox_loc_perm"
  permute_param {
    order: 0
    order: 2
    order: 3
    order: 1
  }
}
layer {
  name: "conv8_2_mbox_loc_flat"
  type: "Flatten"
  bottom: "conv8_2_mbox_loc_perm"
  top: "conv8_2_mbox_loc_flat"
  flatten_param {
    axis: 1
  }
}
layer {
  name: "conv8_2_mbox_conf"
  type: "Convolution"
  bottom: "conv8_2"
  top: "conv8_2_mbox_conf"
  param {
    lr_mult: 1
    decay_mult: 1
  }
  param {
    lr_mult: 2
    decay_mult: 0
  }
  convolution_param {
    num_output: 8
    pad: 1
    kernel_size: 3
    stride: 1
    weight_filler {
      type: "xavier"
    }
    bias_filler {
      type: "constant"
      value: 0
    }
  }
}
layer {
  name: "conv8_2_mbox_conf_perm"
  type: "Permute"
  bottom: "conv8_2_mbox_conf"
  top: "conv8_2_mbox_conf_perm"
  permute_param {
    order: 0
    order: 2
    order: 3
    order: 1
  }
}
layer {
  name: "conv8_2_mbox_conf_flat"
  type: "Flatten"
  bottom: "conv8_2_mbox_conf_perm"
  top: "conv8_2_mbox_conf_flat"
  flatten_param {
    axis: 1
  }
}
layer {
  name: "conv8_2_mbox_priorbox"
  type: "PriorBox"
  bottom: "conv8_2"
  bottom: "data"
  top: "conv8_2_mbox_priorbox"
  prior_box_param {
    min_size: 213
    max_size: 264
    aspect_ratio: 2
    flip: true
    clip: false
    variance: 0.1
    variance: 0.1
    variance: 0.2
    variance: 0.2
    step: 100
    offset: 0.5
  }
}
layer {
  name: "conv9_2_mbox_loc"
  type: "Convolution"
  bottom: "conv9_2"
  top: "conv9_2_mbox_loc"
  param {
    lr_mult: 1
    decay_mult: 1
  }
  param {
    lr_mult: 2
    decay_mult: 0
  }
  convolution_param {
    num_output: 16
    pad: 1
    kernel_size: 3
    stride: 1
    weight_filler {
      type: "xavier"
    }
    bias_filler {
      type: "constant"
      value: 0
    }
  }
}
layer {
  name: "conv9_2_mbox_loc_perm"
  type: "Permute"
  bottom: "conv9_2_mbox_loc"
  top: "conv9_2_mbox_loc_perm"
  permute_param {
    order: 0
    order: 2
    order: 3
    order: 1
  }
}
layer {
  name: "conv9_2_mbox_loc_flat"
  type: "Flatten"
  bottom: "conv9_2_mbox_loc_perm"
  top: "conv9_2_mbox_loc_flat"
  flatten_param {
    axis: 1
  }
}
layer {
  name: "conv9_2_mbox_conf"
  type: "Convolution"
  bottom: "conv9_2"
  top: "conv9_2_mbox_conf"
  param {
    lr_mult: 1
    decay_mult: 1
  }
  param {
    lr_mult: 2
    decay_mult: 0
  }
  convolution_param {
    num_output: 8
    pad: 1
    kernel_size: 3
    stride: 1
    weight_filler {
      type: "xavier"
    }
    bias_filler {
      type: "constant"
      value: 0
    }
  }
}
layer {
  name: "conv9_2_mbox_conf_perm"
  type: "Permute"
  bottom: "conv9_2_mbox_conf"
  top: "conv9_2_mbox_conf_perm"
  permute_param {
    order: 0
    order: 2
    order: 3
    order: 1
  }
}
layer {
  name: "conv9_2_mbox_conf_flat"
  type: "Flatten"
  bottom: "conv9_2_mbox_conf_perm"
  top: "conv9_2_mbox_conf_flat"
  flatten_param {
    axis: 1
  }
}
layer {
  name: "conv9_2_mbox_priorbox"
  type: "PriorBox"
  bottom: "conv9_2"
  bottom: "data"
  top: "conv9_2_mbox_priorbox"
  prior_box_param {
    min_size: 264
    max_size: 315
    aspect_ratio: 2
    flip: true
    clip: false
    variance: 0.1
    variance: 0.1
    variance: 0.2
    variance: 0.2
    step: 300
    offset: 0.5
  }
}
layer {
  name: "mbox_loc"
  type: "Concat"
  bottom: "conv4_3_norm_mbox_loc_flat"
  bottom: "fc7_mbox_loc_flat"
  bottom: "conv6_2_mbox_loc_flat"
  bottom: "conv7_2_mbox_loc_flat"
  bottom: "conv8_2_mbox_loc_flat"
  bottom: "conv9_2_mbox_loc_flat"
  top: "mbox_loc"
  concat_param {
    axis: 1
  }
}
layer {
  name: "mbox_conf"
  type: "Concat"
  bottom: "conv4_3_norm_mbox_conf_flat"
  bottom: "fc7_mbox_conf_flat"
  bottom: "conv6_2_mbox_conf_flat"
  bottom: "conv7_2_mbox_conf_flat"
  bottom: "conv8_2_mbox_conf_flat"
  bottom: "conv9_2_mbox_conf_flat"
  top: "mbox_conf"
  concat_param {
    axis: 1
  }
}
layer {
  name: "mbox_priorbox"
  type: "Concat"
  bottom: "conv4_3_norm_mbox_priorbox"
  bottom: "fc7_mbox_priorbox"
  bottom: "conv6_2_mbox_priorbox"
  bottom: "conv7_2_mbox_priorbox"
  bottom: "conv8_2_mbox_priorbox"
  bottom: "conv9_2_mbox_priorbox"
  top: "mbox_priorbox"
  concat_param {
    axis: 2
  }
}
layer {
  name: "mbox_conf_reshape"
  type: "Reshape"
  bottom: "mbox_conf"
  top: "mbox_conf_reshape"
  reshape_param {
    shape {
      dim: 0
      dim: -1
      dim: 2
    }
  }
}
layer {
  name: "mbox_conf_softmax"
  type: "Softmax"
  bottom: "mbox_conf_reshape"
  top: "mbox_conf_softmax"
  softmax_param {
    axis: 2
  }
}
layer {
  name: "mbox_conf_flatten"
  type: "Flatten"
  bottom: "mbox_conf_softmax"
  top: "mbox_conf_flatten"
  flatten_param {
    axis: 1
  }
}
layer {
  name: "detection_out"
  type: "DetectionOutput"
  bottom: "mbox_loc"
  bottom: "mbox_conf_flatten"
  bottom: "mbox_priorbox"
  top: "detection_out"
  include {
    phase: TEST
  }
  detection_output_param {
    num_classes: 2
    share_location: true
    background_label_id: 0
    nms_param {
      nms_threshold: 0.45
      top_k: 400
    }
    save_output_param {
      output_directory: "/home/shangzw/data/sharpen_tbs_v2.0/results/tbs/SSD_300x300/Main"
      output_name_prefix: "comp4_det_test_"
      output_format: "VOC"
      label_map_file: "data/sharpen_tbs_v2.0/labelmap_voc.prototxt"
      name_size_file: "data/sharpen_tbs_v2.0/test_name_size"
      num_test_image: 100
    }
    code_type: CENTER_SIZE
    keep_top_k: 200
    confidence_threshold: 0.01
  }
}
layer {
  name: "detection_eval"
  type: "DetectionEvaluate"
  bottom: "detection_out"
  bottom: "label"
  top: "detection_eval"
  include {
    phase: TEST
  }
  detection_evaluate_param {
    num_classes: 2
    background_label_id: 0
    overlap_threshold: 0.5
    evaluate_difficult_gt: false
    name_size_file: "data/sharpen_tbs_v2.0/test_name_size"
  }
}
I0608 12:20:22.689982 30581 layer_factory.hpp:77] Creating layer data
I0608 12:20:22.690035 30581 net.cpp:100] Creating Layer data
I0608 12:20:22.690044 30581 net.cpp:408] data -> data
I0608 12:20:22.690054 30581 net.cpp:408] data -> label
I0608 12:20:22.690513 30608 db_lmdb.cpp:35] Opened lmdb examples/sharpen_tbs_v2.0/sharpen_tbs_v2.0_test_lmdb
I0608 12:20:22.692020 30581 annotated_data_layer.cpp:62] output data size: 4,3,300,300
I0608 12:20:22.701752 30581 net.cpp:150] Setting up data
I0608 12:20:22.701786 30581 net.cpp:157] Top shape: 4 3 300 300 (1080000)
I0608 12:20:22.701792 30581 net.cpp:157] Top shape: 1 1 1 8 (8)
I0608 12:20:22.701795 30581 net.cpp:165] Memory required for data: 4320032
I0608 12:20:22.701802 30581 layer_factory.hpp:77] Creating layer data_data_0_split
I0608 12:20:22.701828 30581 net.cpp:100] Creating Layer data_data_0_split
I0608 12:20:22.701848 30581 net.cpp:434] data_data_0_split <- data
I0608 12:20:22.701856 30581 net.cpp:408] data_data_0_split -> data_data_0_split_0
I0608 12:20:22.701869 30581 net.cpp:408] data_data_0_split -> data_data_0_split_1
I0608 12:20:22.701876 30581 net.cpp:408] data_data_0_split -> data_data_0_split_2
I0608 12:20:22.701885 30581 net.cpp:408] data_data_0_split -> data_data_0_split_3
I0608 12:20:22.701906 30581 net.cpp:408] data_data_0_split -> data_data_0_split_4
I0608 12:20:22.701915 30581 net.cpp:408] data_data_0_split -> data_data_0_split_5
I0608 12:20:22.701921 30581 net.cpp:408] data_data_0_split -> data_data_0_split_6
I0608 12:20:22.702018 30581 net.cpp:150] Setting up data_data_0_split
I0608 12:20:22.702024 30581 net.cpp:157] Top shape: 4 3 300 300 (1080000)
I0608 12:20:22.702029 30581 net.cpp:157] Top shape: 4 3 300 300 (1080000)
I0608 12:20:22.702034 30581 net.cpp:157] Top shape: 4 3 300 300 (1080000)
I0608 12:20:22.702040 30581 net.cpp:157] Top shape: 4 3 300 300 (1080000)
I0608 12:20:22.702045 30581 net.cpp:157] Top shape: 4 3 300 300 (1080000)
I0608 12:20:22.702059 30581 net.cpp:157] Top shape: 4 3 300 300 (1080000)
I0608 12:20:22.702065 30581 net.cpp:157] Top shape: 4 3 300 300 (1080000)
I0608 12:20:22.702070 30581 net.cpp:165] Memory required for data: 34560032
I0608 12:20:22.702075 30581 layer_factory.hpp:77] Creating layer conv1_1
I0608 12:20:22.702086 30581 net.cpp:100] Creating Layer conv1_1
I0608 12:20:22.702091 30581 net.cpp:434] conv1_1 <- data_data_0_split_0
I0608 12:20:22.702100 30581 net.cpp:408] conv1_1 -> conv1_1
I0608 12:20:22.703332 30581 net.cpp:150] Setting up conv1_1
I0608 12:20:22.703343 30581 net.cpp:157] Top shape: 4 64 300 300 (23040000)
I0608 12:20:22.703347 30581 net.cpp:165] Memory required for data: 126720032
I0608 12:20:22.703359 30581 layer_factory.hpp:77] Creating layer relu1_1
I0608 12:20:22.703367 30581 net.cpp:100] Creating Layer relu1_1
I0608 12:20:22.703372 30581 net.cpp:434] relu1_1 <- conv1_1
I0608 12:20:22.703377 30581 net.cpp:395] relu1_1 -> conv1_1 (in-place)
I0608 12:20:22.703496 30581 net.cpp:150] Setting up relu1_1
I0608 12:20:22.703505 30581 net.cpp:157] Top shape: 4 64 300 300 (23040000)
I0608 12:20:22.703508 30581 net.cpp:165] Memory required for data: 218880032
I0608 12:20:22.703512 30581 layer_factory.hpp:77] Creating layer conv1_2
I0608 12:20:22.703523 30581 net.cpp:100] Creating Layer conv1_2
I0608 12:20:22.703527 30581 net.cpp:434] conv1_2 <- conv1_1
I0608 12:20:22.703533 30581 net.cpp:408] conv1_2 -> conv1_2
I0608 12:20:22.706645 30581 net.cpp:150] Setting up conv1_2
I0608 12:20:22.706658 30581 net.cpp:157] Top shape: 4 64 300 300 (23040000)
I0608 12:20:22.706662 30581 net.cpp:165] Memory required for data: 311040032
I0608 12:20:22.706672 30581 layer_factory.hpp:77] Creating layer relu1_2
I0608 12:20:22.706681 30581 net.cpp:100] Creating Layer relu1_2
I0608 12:20:22.706686 30581 net.cpp:434] relu1_2 <- conv1_2
I0608 12:20:22.706691 30581 net.cpp:395] relu1_2 -> conv1_2 (in-place)
I0608 12:20:22.707289 30581 net.cpp:150] Setting up relu1_2
I0608 12:20:22.707299 30581 net.cpp:157] Top shape: 4 64 300 300 (23040000)
I0608 12:20:22.707304 30581 net.cpp:165] Memory required for data: 403200032
I0608 12:20:22.707309 30581 layer_factory.hpp:77] Creating layer pool1
I0608 12:20:22.707315 30581 net.cpp:100] Creating Layer pool1
I0608 12:20:22.707320 30581 net.cpp:434] pool1 <- conv1_2
I0608 12:20:22.707327 30581 net.cpp:408] pool1 -> pool1
I0608 12:20:22.707367 30581 net.cpp:150] Setting up pool1
I0608 12:20:22.707375 30581 net.cpp:157] Top shape: 4 64 150 150 (5760000)
I0608 12:20:22.707378 30581 net.cpp:165] Memory required for data: 426240032
I0608 12:20:22.707382 30581 layer_factory.hpp:77] Creating layer conv2_1
I0608 12:20:22.707391 30581 net.cpp:100] Creating Layer conv2_1
I0608 12:20:22.707396 30581 net.cpp:434] conv2_1 <- pool1
I0608 12:20:22.707402 30581 net.cpp:408] conv2_1 -> conv2_1
I0608 12:20:22.708325 30581 net.cpp:150] Setting up conv2_1
I0608 12:20:22.708334 30581 net.cpp:157] Top shape: 4 128 150 150 (11520000)
I0608 12:20:22.708338 30581 net.cpp:165] Memory required for data: 472320032
I0608 12:20:22.708348 30581 layer_factory.hpp:77] Creating layer relu2_1
I0608 12:20:22.708355 30581 net.cpp:100] Creating Layer relu2_1
I0608 12:20:22.708360 30581 net.cpp:434] relu2_1 <- conv2_1
I0608 12:20:22.708366 30581 net.cpp:395] relu2_1 -> conv2_1 (in-place)
I0608 12:20:22.708933 30581 net.cpp:150] Setting up relu2_1
I0608 12:20:22.708942 30581 net.cpp:157] Top shape: 4 128 150 150 (11520000)
I0608 12:20:22.708947 30581 net.cpp:165] Memory required for data: 518400032
I0608 12:20:22.708951 30581 layer_factory.hpp:77] Creating layer conv2_2
I0608 12:20:22.708961 30581 net.cpp:100] Creating Layer conv2_2
I0608 12:20:22.708966 30581 net.cpp:434] conv2_2 <- conv2_1
I0608 12:20:22.708972 30581 net.cpp:408] conv2_2 -> conv2_2
I0608 12:20:22.711042 30581 net.cpp:150] Setting up conv2_2
I0608 12:20:22.711053 30581 net.cpp:157] Top shape: 4 128 150 150 (11520000)
I0608 12:20:22.711057 30581 net.cpp:165] Memory required for data: 564480032
I0608 12:20:22.711066 30581 layer_factory.hpp:77] Creating layer relu2_2
I0608 12:20:22.711082 30581 net.cpp:100] Creating Layer relu2_2
I0608 12:20:22.711087 30581 net.cpp:434] relu2_2 <- conv2_2
I0608 12:20:22.711092 30581 net.cpp:395] relu2_2 -> conv2_2 (in-place)
I0608 12:20:22.711225 30581 net.cpp:150] Setting up relu2_2
I0608 12:20:22.711233 30581 net.cpp:157] Top shape: 4 128 150 150 (11520000)
I0608 12:20:22.711236 30581 net.cpp:165] Memory required for data: 610560032
I0608 12:20:22.711241 30581 layer_factory.hpp:77] Creating layer pool2
I0608 12:20:22.711247 30581 net.cpp:100] Creating Layer pool2
I0608 12:20:22.711252 30581 net.cpp:434] pool2 <- conv2_2
I0608 12:20:22.711257 30581 net.cpp:408] pool2 -> pool2
I0608 12:20:22.711297 30581 net.cpp:150] Setting up pool2
I0608 12:20:22.711303 30581 net.cpp:157] Top shape: 4 128 75 75 (2880000)
I0608 12:20:22.711307 30581 net.cpp:165] Memory required for data: 622080032
I0608 12:20:22.711310 30581 layer_factory.hpp:77] Creating layer conv3_1
I0608 12:20:22.711318 30581 net.cpp:100] Creating Layer conv3_1
I0608 12:20:22.711323 30581 net.cpp:434] conv3_1 <- pool2
I0608 12:20:22.711329 30581 net.cpp:408] conv3_1 -> conv3_1
I0608 12:20:22.714640 30581 net.cpp:150] Setting up conv3_1
I0608 12:20:22.714653 30581 net.cpp:157] Top shape: 4 256 75 75 (5760000)
I0608 12:20:22.714658 30581 net.cpp:165] Memory required for data: 645120032
I0608 12:20:22.714670 30581 layer_factory.hpp:77] Creating layer relu3_1
I0608 12:20:22.714679 30581 net.cpp:100] Creating Layer relu3_1
I0608 12:20:22.714684 30581 net.cpp:434] relu3_1 <- conv3_1
I0608 12:20:22.714690 30581 net.cpp:395] relu3_1 -> conv3_1 (in-place)
I0608 12:20:22.714833 30581 net.cpp:150] Setting up relu3_1
I0608 12:20:22.714841 30581 net.cpp:157] Top shape: 4 256 75 75 (5760000)
I0608 12:20:22.714844 30581 net.cpp:165] Memory required for data: 668160032
I0608 12:20:22.714861 30581 layer_factory.hpp:77] Creating layer conv3_2
I0608 12:20:22.714885 30581 net.cpp:100] Creating Layer conv3_2
I0608 12:20:22.714890 30581 net.cpp:434] conv3_2 <- conv3_1
I0608 12:20:22.714896 30581 net.cpp:408] conv3_2 -> conv3_2
I0608 12:20:22.719507 30581 net.cpp:150] Setting up conv3_2
I0608 12:20:22.719521 30581 net.cpp:157] Top shape: 4 256 75 75 (5760000)
I0608 12:20:22.719525 30581 net.cpp:165] Memory required for data: 691200032
I0608 12:20:22.719532 30581 layer_factory.hpp:77] Creating layer relu3_2
I0608 12:20:22.719542 30581 net.cpp:100] Creating Layer relu3_2
I0608 12:20:22.719547 30581 net.cpp:434] relu3_2 <- conv3_2
I0608 12:20:22.719553 30581 net.cpp:395] relu3_2 -> conv3_2 (in-place)
I0608 12:20:22.719692 30581 net.cpp:150] Setting up relu3_2
I0608 12:20:22.719700 30581 net.cpp:157] Top shape: 4 256 75 75 (5760000)
I0608 12:20:22.719703 30581 net.cpp:165] Memory required for data: 714240032
I0608 12:20:22.719707 30581 layer_factory.hpp:77] Creating layer conv3_3
I0608 12:20:22.719720 30581 net.cpp:100] Creating Layer conv3_3
I0608 12:20:22.719725 30581 net.cpp:434] conv3_3 <- conv3_2
I0608 12:20:22.719732 30581 net.cpp:408] conv3_3 -> conv3_3
I0608 12:20:22.724323 30581 net.cpp:150] Setting up conv3_3
I0608 12:20:22.724337 30581 net.cpp:157] Top shape: 4 256 75 75 (5760000)
I0608 12:20:22.724341 30581 net.cpp:165] Memory required for data: 737280032
I0608 12:20:22.724349 30581 layer_factory.hpp:77] Creating layer relu3_3
I0608 12:20:22.724356 30581 net.cpp:100] Creating Layer relu3_3
I0608 12:20:22.724360 30581 net.cpp:434] relu3_3 <- conv3_3
I0608 12:20:22.724371 30581 net.cpp:395] relu3_3 -> conv3_3 (in-place)
I0608 12:20:22.724526 30581 net.cpp:150] Setting up relu3_3
I0608 12:20:22.724534 30581 net.cpp:157] Top shape: 4 256 75 75 (5760000)
I0608 12:20:22.724537 30581 net.cpp:165] Memory required for data: 760320032
I0608 12:20:22.724541 30581 layer_factory.hpp:77] Creating layer pool3
I0608 12:20:22.724551 30581 net.cpp:100] Creating Layer pool3
I0608 12:20:22.724555 30581 net.cpp:434] pool3 <- conv3_3
I0608 12:20:22.724560 30581 net.cpp:408] pool3 -> pool3
I0608 12:20:22.724617 30581 net.cpp:150] Setting up pool3
I0608 12:20:22.724623 30581 net.cpp:157] Top shape: 4 256 38 38 (1478656)
I0608 12:20:22.724638 30581 net.cpp:165] Memory required for data: 766234656
I0608 12:20:22.724642 30581 layer_factory.hpp:77] Creating layer conv4_1
I0608 12:20:22.724654 30581 net.cpp:100] Creating Layer conv4_1
I0608 12:20:22.724658 30581 net.cpp:434] conv4_1 <- pool3
I0608 12:20:22.724666 30581 net.cpp:408] conv4_1 -> conv4_1
I0608 12:20:22.733902 30581 net.cpp:150] Setting up conv4_1
I0608 12:20:22.733921 30581 net.cpp:157] Top shape: 4 512 38 38 (2957312)
I0608 12:20:22.733924 30581 net.cpp:165] Memory required for data: 778063904
I0608 12:20:22.733932 30581 layer_factory.hpp:77] Creating layer relu4_1
I0608 12:20:22.733956 30581 net.cpp:100] Creating Layer relu4_1
I0608 12:20:22.733979 30581 net.cpp:434] relu4_1 <- conv4_1
I0608 12:20:22.733988 30581 net.cpp:395] relu4_1 -> conv4_1 (in-place)
I0608 12:20:22.734808 30581 net.cpp:150] Setting up relu4_1
I0608 12:20:22.734819 30581 net.cpp:157] Top shape: 4 512 38 38 (2957312)
I0608 12:20:22.734823 30581 net.cpp:165] Memory required for data: 789893152
I0608 12:20:22.734839 30581 layer_factory.hpp:77] Creating layer conv4_2
I0608 12:20:22.734848 30581 net.cpp:100] Creating Layer conv4_2
I0608 12:20:22.734853 30581 net.cpp:434] conv4_2 <- conv4_1
I0608 12:20:22.734875 30581 net.cpp:408] conv4_2 -> conv4_2
I0608 12:20:22.748001 30581 net.cpp:150] Setting up conv4_2
I0608 12:20:22.748019 30581 net.cpp:157] Top shape: 4 512 38 38 (2957312)
I0608 12:20:22.748023 30581 net.cpp:165] Memory required for data: 801722400
I0608 12:20:22.748031 30581 layer_factory.hpp:77] Creating layer relu4_2
I0608 12:20:22.748054 30581 net.cpp:100] Creating Layer relu4_2
I0608 12:20:22.748057 30581 net.cpp:434] relu4_2 <- conv4_2
I0608 12:20:22.748061 30581 net.cpp:395] relu4_2 -> conv4_2 (in-place)
I0608 12:20:22.748903 30581 net.cpp:150] Setting up relu4_2
I0608 12:20:22.748911 30581 net.cpp:157] Top shape: 4 512 38 38 (2957312)
I0608 12:20:22.748914 30581 net.cpp:165] Memory required for data: 813551648
I0608 12:20:22.748917 30581 layer_factory.hpp:77] Creating layer conv4_3
I0608 12:20:22.748942 30581 net.cpp:100] Creating Layer conv4_3
I0608 12:20:22.748950 30581 net.cpp:434] conv4_3 <- conv4_2
I0608 12:20:22.748961 30581 net.cpp:408] conv4_3 -> conv4_3
I0608 12:20:22.761762 30581 net.cpp:150] Setting up conv4_3
I0608 12:20:22.761778 30581 net.cpp:157] Top shape: 4 512 38 38 (2957312)
I0608 12:20:22.761781 30581 net.cpp:165] Memory required for data: 825380896
I0608 12:20:22.761802 30581 layer_factory.hpp:77] Creating layer relu4_3
I0608 12:20:22.761809 30581 net.cpp:100] Creating Layer relu4_3
I0608 12:20:22.761814 30581 net.cpp:434] relu4_3 <- conv4_3
I0608 12:20:22.761818 30581 net.cpp:395] relu4_3 -> conv4_3 (in-place)
I0608 12:20:22.762009 30581 net.cpp:150] Setting up relu4_3
I0608 12:20:22.762020 30581 net.cpp:157] Top shape: 4 512 38 38 (2957312)
I0608 12:20:22.762024 30581 net.cpp:165] Memory required for data: 837210144
I0608 12:20:22.762042 30581 layer_factory.hpp:77] Creating layer conv4_3_relu4_3_0_split
I0608 12:20:22.762063 30581 net.cpp:100] Creating Layer conv4_3_relu4_3_0_split
I0608 12:20:22.762066 30581 net.cpp:434] conv4_3_relu4_3_0_split <- conv4_3
I0608 12:20:22.762073 30581 net.cpp:408] conv4_3_relu4_3_0_split -> conv4_3_relu4_3_0_split_0
I0608 12:20:22.762081 30581 net.cpp:408] conv4_3_relu4_3_0_split -> conv4_3_relu4_3_0_split_1
I0608 12:20:22.762140 30581 net.cpp:150] Setting up conv4_3_relu4_3_0_split
I0608 12:20:22.762147 30581 net.cpp:157] Top shape: 4 512 38 38 (2957312)
I0608 12:20:22.762152 30581 net.cpp:157] Top shape: 4 512 38 38 (2957312)
I0608 12:20:22.762171 30581 net.cpp:165] Memory required for data: 860868640
I0608 12:20:22.762173 30581 layer_factory.hpp:77] Creating layer pool4
I0608 12:20:22.762194 30581 net.cpp:100] Creating Layer pool4
I0608 12:20:22.762199 30581 net.cpp:434] pool4 <- conv4_3_relu4_3_0_split_0
I0608 12:20:22.762205 30581 net.cpp:408] pool4 -> pool4
I0608 12:20:22.762250 30581 net.cpp:150] Setting up pool4
I0608 12:20:22.762257 30581 net.cpp:157] Top shape: 4 512 19 19 (739328)
I0608 12:20:22.762262 30581 net.cpp:165] Memory required for data: 863825952
I0608 12:20:22.762277 30581 layer_factory.hpp:77] Creating layer conv5_1
I0608 12:20:22.762290 30581 net.cpp:100] Creating Layer conv5_1
I0608 12:20:22.762293 30581 net.cpp:434] conv5_1 <- pool4
I0608 12:20:22.762301 30581 net.cpp:408] conv5_1 -> conv5_1
I0608 12:20:22.776082 30581 net.cpp:150] Setting up conv5_1
I0608 12:20:22.776098 30581 net.cpp:157] Top shape: 4 512 19 19 (739328)
I0608 12:20:22.776101 30581 net.cpp:165] Memory required for data: 866783264
I0608 12:20:22.776123 30581 layer_factory.hpp:77] Creating layer relu5_1
I0608 12:20:22.776127 30581 net.cpp:100] Creating Layer relu5_1
I0608 12:20:22.776131 30581 net.cpp:434] relu5_1 <- conv5_1
I0608 12:20:22.776136 30581 net.cpp:395] relu5_1 -> conv5_1 (in-place)
I0608 12:20:22.776291 30581 net.cpp:150] Setting up relu5_1
I0608 12:20:22.776299 30581 net.cpp:157] Top shape: 4 512 19 19 (739328)
I0608 12:20:22.776301 30581 net.cpp:165] Memory required for data: 869740576
I0608 12:20:22.776304 30581 layer_factory.hpp:77] Creating layer conv5_2
I0608 12:20:22.776327 30581 net.cpp:100] Creating Layer conv5_2
I0608 12:20:22.776329 30581 net.cpp:434] conv5_2 <- conv5_1
I0608 12:20:22.776335 30581 net.cpp:408] conv5_2 -> conv5_2
I0608 12:20:22.789361 30581 net.cpp:150] Setting up conv5_2
I0608 12:20:22.789377 30581 net.cpp:157] Top shape: 4 512 19 19 (739328)
I0608 12:20:22.789381 30581 net.cpp:165] Memory required for data: 872697888
I0608 12:20:22.789386 30581 layer_factory.hpp:77] Creating layer relu5_2
I0608 12:20:22.789394 30581 net.cpp:100] Creating Layer relu5_2
I0608 12:20:22.789398 30581 net.cpp:434] relu5_2 <- conv5_2
I0608 12:20:22.789402 30581 net.cpp:395] relu5_2 -> conv5_2 (in-place)
I0608 12:20:22.789561 30581 net.cpp:150] Setting up relu5_2
I0608 12:20:22.789569 30581 net.cpp:157] Top shape: 4 512 19 19 (739328)
I0608 12:20:22.789572 30581 net.cpp:165] Memory required for data: 875655200
I0608 12:20:22.789574 30581 layer_factory.hpp:77] Creating layer conv5_3
I0608 12:20:22.789598 30581 net.cpp:100] Creating Layer conv5_3
I0608 12:20:22.789600 30581 net.cpp:434] conv5_3 <- conv5_2
I0608 12:20:22.789619 30581 net.cpp:408] conv5_3 -> conv5_3
I0608 12:20:22.804875 30581 net.cpp:150] Setting up conv5_3
I0608 12:20:22.804893 30581 net.cpp:157] Top shape: 4 512 19 19 (739328)
I0608 12:20:22.804896 30581 net.cpp:165] Memory required for data: 878612512
I0608 12:20:22.804918 30581 layer_factory.hpp:77] Creating layer relu5_3
I0608 12:20:22.804929 30581 net.cpp:100] Creating Layer relu5_3
I0608 12:20:22.804932 30581 net.cpp:434] relu5_3 <- conv5_3
I0608 12:20:22.804939 30581 net.cpp:395] relu5_3 -> conv5_3 (in-place)
I0608 12:20:22.805090 30581 net.cpp:150] Setting up relu5_3
I0608 12:20:22.805097 30581 net.cpp:157] Top shape: 4 512 19 19 (739328)
I0608 12:20:22.805100 30581 net.cpp:165] Memory required for data: 881569824
I0608 12:20:22.805104 30581 layer_factory.hpp:77] Creating layer pool5
I0608 12:20:22.805111 30581 net.cpp:100] Creating Layer pool5
I0608 12:20:22.805116 30581 net.cpp:434] pool5 <- conv5_3
I0608 12:20:22.805124 30581 net.cpp:408] pool5 -> pool5
I0608 12:20:22.805186 30581 net.cpp:150] Setting up pool5
I0608 12:20:22.805192 30581 net.cpp:157] Top shape: 4 512 19 19 (739328)
I0608 12:20:22.805196 30581 net.cpp:165] Memory required for data: 884527136
I0608 12:20:22.805198 30581 layer_factory.hpp:77] Creating layer fc6
I0608 12:20:22.805209 30581 net.cpp:100] Creating Layer fc6
I0608 12:20:22.805217 30581 net.cpp:434] fc6 <- pool5
I0608 12:20:22.805223 30581 net.cpp:408] fc6 -> fc6
I0608 12:20:22.828673 30581 net.cpp:150] Setting up fc6
I0608 12:20:22.828692 30581 net.cpp:157] Top shape: 4 1024 19 19 (1478656)
I0608 12:20:22.828696 30581 net.cpp:165] Memory required for data: 890441760
I0608 12:20:22.828716 30581 layer_factory.hpp:77] Creating layer relu6
I0608 12:20:22.828724 30581 net.cpp:100] Creating Layer relu6
I0608 12:20:22.828727 30581 net.cpp:434] relu6 <- fc6
I0608 12:20:22.828734 30581 net.cpp:395] relu6 -> fc6 (in-place)
I0608 12:20:22.829540 30581 net.cpp:150] Setting up relu6
I0608 12:20:22.829552 30581 net.cpp:157] Top shape: 4 1024 19 19 (1478656)
I0608 12:20:22.829567 30581 net.cpp:165] Memory required for data: 896356384
I0608 12:20:22.829573 30581 layer_factory.hpp:77] Creating layer fc7
I0608 12:20:22.829586 30581 net.cpp:100] Creating Layer fc7
I0608 12:20:22.829591 30581 net.cpp:434] fc7 <- fc6
I0608 12:20:22.829601 30581 net.cpp:408] fc7 -> fc7
I0608 12:20:22.836083 30581 net.cpp:150] Setting up fc7
I0608 12:20:22.836102 30581 net.cpp:157] Top shape: 4 1024 19 19 (1478656)
I0608 12:20:22.836104 30581 net.cpp:165] Memory required for data: 902271008
I0608 12:20:22.836113 30581 layer_factory.hpp:77] Creating layer relu7
I0608 12:20:22.836122 30581 net.cpp:100] Creating Layer relu7
I0608 12:20:22.836127 30581 net.cpp:434] relu7 <- fc7
I0608 12:20:22.836134 30581 net.cpp:395] relu7 -> fc7 (in-place)
I0608 12:20:22.836269 30581 net.cpp:150] Setting up relu7
I0608 12:20:22.836278 30581 net.cpp:157] Top shape: 4 1024 19 19 (1478656)
I0608 12:20:22.836280 30581 net.cpp:165] Memory required for data: 908185632
I0608 12:20:22.836282 30581 layer_factory.hpp:77] Creating layer fc7_relu7_0_split
I0608 12:20:22.836289 30581 net.cpp:100] Creating Layer fc7_relu7_0_split
I0608 12:20:22.836294 30581 net.cpp:434] fc7_relu7_0_split <- fc7
I0608 12:20:22.836302 30581 net.cpp:408] fc7_relu7_0_split -> fc7_relu7_0_split_0
I0608 12:20:22.836308 30581 net.cpp:408] fc7_relu7_0_split -> fc7_relu7_0_split_1
I0608 12:20:22.836320 30581 net.cpp:408] fc7_relu7_0_split -> fc7_relu7_0_split_2
I0608 12:20:22.836328 30581 net.cpp:408] fc7_relu7_0_split -> fc7_relu7_0_split_3
I0608 12:20:22.836390 30581 net.cpp:150] Setting up fc7_relu7_0_split
I0608 12:20:22.836395 30581 net.cpp:157] Top shape: 4 1024 19 19 (1478656)
I0608 12:20:22.836400 30581 net.cpp:157] Top shape: 4 1024 19 19 (1478656)
I0608 12:20:22.836405 30581 net.cpp:157] Top shape: 4 1024 19 19 (1478656)
I0608 12:20:22.836421 30581 net.cpp:157] Top shape: 4 1024 19 19 (1478656)
I0608 12:20:22.836423 30581 net.cpp:165] Memory required for data: 931844128
I0608 12:20:22.836426 30581 layer_factory.hpp:77] Creating layer conv6_1
I0608 12:20:22.836450 30581 net.cpp:100] Creating Layer conv6_1
I0608 12:20:22.836453 30581 net.cpp:434] conv6_1 <- fc7_relu7_0_split_0
I0608 12:20:22.836460 30581 net.cpp:408] conv6_1 -> conv6_1
I0608 12:20:22.839754 30581 net.cpp:150] Setting up conv6_1
I0608 12:20:22.839766 30581 net.cpp:157] Top shape: 4 256 19 19 (369664)
I0608 12:20:22.839769 30581 net.cpp:165] Memory required for data: 933322784
I0608 12:20:22.839776 30581 layer_factory.hpp:77] Creating layer conv6_1_relu
I0608 12:20:22.839799 30581 net.cpp:100] Creating Layer conv6_1_relu
I0608 12:20:22.839804 30581 net.cpp:434] conv6_1_relu <- conv6_1
I0608 12:20:22.839808 30581 net.cpp:395] conv6_1_relu -> conv6_1 (in-place)
I0608 12:20:22.839967 30581 net.cpp:150] Setting up conv6_1_relu
I0608 12:20:22.839973 30581 net.cpp:157] Top shape: 4 256 19 19 (369664)
I0608 12:20:22.839977 30581 net.cpp:165] Memory required for data: 934801440
I0608 12:20:22.839979 30581 layer_factory.hpp:77] Creating layer conv6_2
I0608 12:20:22.840004 30581 net.cpp:100] Creating Layer conv6_2
I0608 12:20:22.840008 30581 net.cpp:434] conv6_2 <- conv6_1
I0608 12:20:22.840013 30581 net.cpp:408] conv6_2 -> conv6_2
I0608 12:20:22.847237 30581 net.cpp:150] Setting up conv6_2
I0608 12:20:22.847255 30581 net.cpp:157] Top shape: 4 512 10 10 (204800)
I0608 12:20:22.847259 30581 net.cpp:165] Memory required for data: 935620640
I0608 12:20:22.847285 30581 layer_factory.hpp:77] Creating layer conv6_2_relu
I0608 12:20:22.847295 30581 net.cpp:100] Creating Layer conv6_2_relu
I0608 12:20:22.847299 30581 net.cpp:434] conv6_2_relu <- conv6_2
I0608 12:20:22.847304 30581 net.cpp:395] conv6_2_relu -> conv6_2 (in-place)
I0608 12:20:22.847467 30581 net.cpp:150] Setting up conv6_2_relu
I0608 12:20:22.847474 30581 net.cpp:157] Top shape: 4 512 10 10 (204800)
I0608 12:20:22.847476 30581 net.cpp:165] Memory required for data: 936439840
I0608 12:20:22.847479 30581 layer_factory.hpp:77] Creating layer conv6_2_conv6_2_relu_0_split
I0608 12:20:22.847486 30581 net.cpp:100] Creating Layer conv6_2_conv6_2_relu_0_split
I0608 12:20:22.847498 30581 net.cpp:434] conv6_2_conv6_2_relu_0_split <- conv6_2
I0608 12:20:22.847504 30581 net.cpp:408] conv6_2_conv6_2_relu_0_split -> conv6_2_conv6_2_relu_0_split_0
I0608 12:20:22.847510 30581 net.cpp:408] conv6_2_conv6_2_relu_0_split -> conv6_2_conv6_2_relu_0_split_1
I0608 12:20:22.847530 30581 net.cpp:408] conv6_2_conv6_2_relu_0_split -> conv6_2_conv6_2_relu_0_split_2
I0608 12:20:22.847550 30581 net.cpp:408] conv6_2_conv6_2_relu_0_split -> conv6_2_conv6_2_relu_0_split_3
I0608 12:20:22.847615 30581 net.cpp:150] Setting up conv6_2_conv6_2_relu_0_split
I0608 12:20:22.847620 30581 net.cpp:157] Top shape: 4 512 10 10 (204800)
I0608 12:20:22.847623 30581 net.cpp:157] Top shape: 4 512 10 10 (204800)
I0608 12:20:22.847627 30581 net.cpp:157] Top shape: 4 512 10 10 (204800)
I0608 12:20:22.847631 30581 net.cpp:157] Top shape: 4 512 10 10 (204800)
I0608 12:20:22.847635 30581 net.cpp:165] Memory required for data: 939716640
I0608 12:20:22.847638 30581 layer_factory.hpp:77] Creating layer conv7_1
I0608 12:20:22.847648 30581 net.cpp:100] Creating Layer conv7_1
I0608 12:20:22.847666 30581 net.cpp:434] conv7_1 <- conv6_2_conv6_2_relu_0_split_0
I0608 12:20:22.847672 30581 net.cpp:408] conv7_1 -> conv7_1
I0608 12:20:22.849119 30581 net.cpp:150] Setting up conv7_1
I0608 12:20:22.849128 30581 net.cpp:157] Top shape: 4 128 10 10 (51200)
I0608 12:20:22.849131 30581 net.cpp:165] Memory required for data: 939921440
I0608 12:20:22.849138 30581 layer_factory.hpp:77] Creating layer conv7_1_relu
I0608 12:20:22.849146 30581 net.cpp:100] Creating Layer conv7_1_relu
I0608 12:20:22.849150 30581 net.cpp:434] conv7_1_relu <- conv7_1
I0608 12:20:22.849155 30581 net.cpp:395] conv7_1_relu -> conv7_1 (in-place)
I0608 12:20:22.849318 30581 net.cpp:150] Setting up conv7_1_relu
I0608 12:20:22.849328 30581 net.cpp:157] Top shape: 4 128 10 10 (51200)
I0608 12:20:22.849330 30581 net.cpp:165] Memory required for data: 940126240
I0608 12:20:22.849333 30581 layer_factory.hpp:77] Creating layer conv7_2
I0608 12:20:22.849339 30581 net.cpp:100] Creating Layer conv7_2
I0608 12:20:22.849344 30581 net.cpp:434] conv7_2 <- conv7_1
I0608 12:20:22.849364 30581 net.cpp:408] conv7_2 -> conv7_2
I0608 12:20:22.852290 30581 net.cpp:150] Setting up conv7_2
I0608 12:20:22.852301 30581 net.cpp:157] Top shape: 4 256 5 5 (25600)
I0608 12:20:22.852304 30581 net.cpp:165] Memory required for data: 940228640
I0608 12:20:22.852308 30581 layer_factory.hpp:77] Creating layer conv7_2_relu
I0608 12:20:22.852313 30581 net.cpp:100] Creating Layer conv7_2_relu
I0608 12:20:22.852316 30581 net.cpp:434] conv7_2_relu <- conv7_2
I0608 12:20:22.852321 30581 net.cpp:395] conv7_2_relu -> conv7_2 (in-place)
I0608 12:20:22.852453 30581 net.cpp:150] Setting up conv7_2_relu
I0608 12:20:22.852460 30581 net.cpp:157] Top shape: 4 256 5 5 (25600)
I0608 12:20:22.852463 30581 net.cpp:165] Memory required for data: 940331040
I0608 12:20:22.852466 30581 layer_factory.hpp:77] Creating layer conv7_2_conv7_2_relu_0_split
I0608 12:20:22.852473 30581 net.cpp:100] Creating Layer conv7_2_conv7_2_relu_0_split
I0608 12:20:22.852478 30581 net.cpp:434] conv7_2_conv7_2_relu_0_split <- conv7_2
I0608 12:20:22.852481 30581 net.cpp:408] conv7_2_conv7_2_relu_0_split -> conv7_2_conv7_2_relu_0_split_0
I0608 12:20:22.852490 30581 net.cpp:408] conv7_2_conv7_2_relu_0_split -> conv7_2_conv7_2_relu_0_split_1
I0608 12:20:22.852497 30581 net.cpp:408] conv7_2_conv7_2_relu_0_split -> conv7_2_conv7_2_relu_0_split_2
I0608 12:20:22.852501 30581 net.cpp:408] conv7_2_conv7_2_relu_0_split -> conv7_2_conv7_2_relu_0_split_3
I0608 12:20:22.852563 30581 net.cpp:150] Setting up conv7_2_conv7_2_relu_0_split
I0608 12:20:22.852568 30581 net.cpp:157] Top shape: 4 256 5 5 (25600)
I0608 12:20:22.852571 30581 net.cpp:157] Top shape: 4 256 5 5 (25600)
I0608 12:20:22.852574 30581 net.cpp:157] Top shape: 4 256 5 5 (25600)
I0608 12:20:22.852576 30581 net.cpp:157] Top shape: 4 256 5 5 (25600)
I0608 12:20:22.852578 30581 net.cpp:165] Memory required for data: 940740640
I0608 12:20:22.852581 30581 layer_factory.hpp:77] Creating layer conv8_1
I0608 12:20:22.852597 30581 net.cpp:100] Creating Layer conv8_1
I0608 12:20:22.852602 30581 net.cpp:434] conv8_1 <- conv7_2_conv7_2_relu_0_split_0
I0608 12:20:22.852607 30581 net.cpp:408] conv8_1 -> conv8_1
I0608 12:20:22.853827 30581 net.cpp:150] Setting up conv8_1
I0608 12:20:22.853837 30581 net.cpp:157] Top shape: 4 128 5 5 (12800)
I0608 12:20:22.853839 30581 net.cpp:165] Memory required for data: 940791840
I0608 12:20:22.853844 30581 layer_factory.hpp:77] Creating layer conv8_1_relu
I0608 12:20:22.853849 30581 net.cpp:100] Creating Layer conv8_1_relu
I0608 12:20:22.853852 30581 net.cpp:434] conv8_1_relu <- conv8_1
I0608 12:20:22.853857 30581 net.cpp:395] conv8_1_relu -> conv8_1 (in-place)
I0608 12:20:22.854434 30581 net.cpp:150] Setting up conv8_1_relu
I0608 12:20:22.854442 30581 net.cpp:157] Top shape: 4 128 5 5 (12800)
I0608 12:20:22.854444 30581 net.cpp:165] Memory required for data: 940843040
I0608 12:20:22.854446 30581 layer_factory.hpp:77] Creating layer conv8_2
I0608 12:20:22.854454 30581 net.cpp:100] Creating Layer conv8_2
I0608 12:20:22.854456 30581 net.cpp:434] conv8_2 <- conv8_1
I0608 12:20:22.854462 30581 net.cpp:408] conv8_2 -> conv8_2
I0608 12:20:22.857385 30581 net.cpp:150] Setting up conv8_2
I0608 12:20:22.857398 30581 net.cpp:157] Top shape: 4 256 3 3 (9216)
I0608 12:20:22.857400 30581 net.cpp:165] Memory required for data: 940879904
I0608 12:20:22.857404 30581 layer_factory.hpp:77] Creating layer conv8_2_relu
I0608 12:20:22.857409 30581 net.cpp:100] Creating Layer conv8_2_relu
I0608 12:20:22.857414 30581 net.cpp:434] conv8_2_relu <- conv8_2
I0608 12:20:22.857417 30581 net.cpp:395] conv8_2_relu -> conv8_2 (in-place)
I0608 12:20:22.857548 30581 net.cpp:150] Setting up conv8_2_relu
I0608 12:20:22.857554 30581 net.cpp:157] Top shape: 4 256 3 3 (9216)
I0608 12:20:22.857558 30581 net.cpp:165] Memory required for data: 940916768
I0608 12:20:22.857559 30581 layer_factory.hpp:77] Creating layer conv8_2_conv8_2_relu_0_split
I0608 12:20:22.857563 30581 net.cpp:100] Creating Layer conv8_2_conv8_2_relu_0_split
I0608 12:20:22.857566 30581 net.cpp:434] conv8_2_conv8_2_relu_0_split <- conv8_2
I0608 12:20:22.857570 30581 net.cpp:408] conv8_2_conv8_2_relu_0_split -> conv8_2_conv8_2_relu_0_split_0
I0608 12:20:22.857576 30581 net.cpp:408] conv8_2_conv8_2_relu_0_split -> conv8_2_conv8_2_relu_0_split_1
I0608 12:20:22.857583 30581 net.cpp:408] conv8_2_conv8_2_relu_0_split -> conv8_2_conv8_2_relu_0_split_2
I0608 12:20:22.857586 30581 net.cpp:408] conv8_2_conv8_2_relu_0_split -> conv8_2_conv8_2_relu_0_split_3
I0608 12:20:22.857646 30581 net.cpp:150] Setting up conv8_2_conv8_2_relu_0_split
I0608 12:20:22.857651 30581 net.cpp:157] Top shape: 4 256 3 3 (9216)
I0608 12:20:22.857655 30581 net.cpp:157] Top shape: 4 256 3 3 (9216)
I0608 12:20:22.857656 30581 net.cpp:157] Top shape: 4 256 3 3 (9216)
I0608 12:20:22.857659 30581 net.cpp:157] Top shape: 4 256 3 3 (9216)
I0608 12:20:22.857661 30581 net.cpp:165] Memory required for data: 941064224
I0608 12:20:22.857663 30581 layer_factory.hpp:77] Creating layer conv9_1
I0608 12:20:22.857673 30581 net.cpp:100] Creating Layer conv9_1
I0608 12:20:22.857679 30581 net.cpp:434] conv9_1 <- conv8_2_conv8_2_relu_0_split_0
I0608 12:20:22.857686 30581 net.cpp:408] conv9_1 -> conv9_1
I0608 12:20:22.858904 30581 net.cpp:150] Setting up conv9_1
I0608 12:20:22.858913 30581 net.cpp:157] Top shape: 4 128 3 3 (4608)
I0608 12:20:22.858916 30581 net.cpp:165] Memory required for data: 941082656
I0608 12:20:22.858923 30581 layer_factory.hpp:77] Creating layer conv9_1_relu
I0608 12:20:22.858928 30581 net.cpp:100] Creating Layer conv9_1_relu
I0608 12:20:22.858932 30581 net.cpp:434] conv9_1_relu <- conv9_1
I0608 12:20:22.858938 30581 net.cpp:395] conv9_1_relu -> conv9_1 (in-place)
I0608 12:20:22.859071 30581 net.cpp:150] Setting up conv9_1_relu
I0608 12:20:22.859077 30581 net.cpp:157] Top shape: 4 128 3 3 (4608)
I0608 12:20:22.859079 30581 net.cpp:165] Memory required for data: 941101088
I0608 12:20:22.859082 30581 layer_factory.hpp:77] Creating layer conv9_2
I0608 12:20:22.859100 30581 net.cpp:100] Creating Layer conv9_2
I0608 12:20:22.859104 30581 net.cpp:434] conv9_2 <- conv9_1
I0608 12:20:22.859110 30581 net.cpp:408] conv9_2 -> conv9_2
I0608 12:20:22.862525 30581 net.cpp:150] Setting up conv9_2
I0608 12:20:22.862571 30581 net.cpp:157] Top shape: 4 256 1 1 (1024)
I0608 12:20:22.862574 30581 net.cpp:165] Memory required for data: 941105184
I0608 12:20:22.862584 30581 layer_factory.hpp:77] Creating layer conv9_2_relu
I0608 12:20:22.862609 30581 net.cpp:100] Creating Layer conv9_2_relu
I0608 12:20:22.862617 30581 net.cpp:434] conv9_2_relu <- conv9_2
I0608 12:20:22.862624 30581 net.cpp:395] conv9_2_relu -> conv9_2 (in-place)
I0608 12:20:22.862784 30581 net.cpp:150] Setting up conv9_2_relu
I0608 12:20:22.862792 30581 net.cpp:157] Top shape: 4 256 1 1 (1024)
I0608 12:20:22.862797 30581 net.cpp:165] Memory required for data: 941109280
I0608 12:20:22.862800 30581 layer_factory.hpp:77] Creating layer conv9_2_conv9_2_relu_0_split
I0608 12:20:22.862808 30581 net.cpp:100] Creating Layer conv9_2_conv9_2_relu_0_split
I0608 12:20:22.862813 30581 net.cpp:434] conv9_2_conv9_2_relu_0_split <- conv9_2
I0608 12:20:22.862820 30581 net.cpp:408] conv9_2_conv9_2_relu_0_split -> conv9_2_conv9_2_relu_0_split_0
I0608 12:20:22.862828 30581 net.cpp:408] conv9_2_conv9_2_relu_0_split -> conv9_2_conv9_2_relu_0_split_1
I0608 12:20:22.862833 30581 net.cpp:408] conv9_2_conv9_2_relu_0_split -> conv9_2_conv9_2_relu_0_split_2
I0608 12:20:22.862900 30581 net.cpp:150] Setting up conv9_2_conv9_2_relu_0_split
I0608 12:20:22.862905 30581 net.cpp:157] Top shape: 4 256 1 1 (1024)
I0608 12:20:22.862907 30581 net.cpp:157] Top shape: 4 256 1 1 (1024)
I0608 12:20:22.862910 30581 net.cpp:157] Top shape: 4 256 1 1 (1024)
I0608 12:20:22.862911 30581 net.cpp:165] Memory required for data: 941121568
I0608 12:20:22.862915 30581 layer_factory.hpp:77] Creating layer conv4_3_norm
I0608 12:20:22.862922 30581 net.cpp:100] Creating Layer conv4_3_norm
I0608 12:20:22.862926 30581 net.cpp:434] conv4_3_norm <- conv4_3_relu4_3_0_split_1
I0608 12:20:22.862931 30581 net.cpp:408] conv4_3_norm -> conv4_3_norm
I0608 12:20:22.863082 30581 net.cpp:150] Setting up conv4_3_norm
I0608 12:20:22.863088 30581 net.cpp:157] Top shape: 4 512 38 38 (2957312)
I0608 12:20:22.863091 30581 net.cpp:165] Memory required for data: 952950816
I0608 12:20:22.863096 30581 layer_factory.hpp:77] Creating layer conv4_3_norm_conv4_3_norm_0_split
I0608 12:20:22.863102 30581 net.cpp:100] Creating Layer conv4_3_norm_conv4_3_norm_0_split
I0608 12:20:22.863106 30581 net.cpp:434] conv4_3_norm_conv4_3_norm_0_split <- conv4_3_norm
I0608 12:20:22.863112 30581 net.cpp:408] conv4_3_norm_conv4_3_norm_0_split -> conv4_3_norm_conv4_3_norm_0_split_0
I0608 12:20:22.863119 30581 net.cpp:408] conv4_3_norm_conv4_3_norm_0_split -> conv4_3_norm_conv4_3_norm_0_split_1
I0608 12:20:22.863126 30581 net.cpp:408] conv4_3_norm_conv4_3_norm_0_split -> conv4_3_norm_conv4_3_norm_0_split_2
I0608 12:20:22.863170 30581 net.cpp:150] Setting up conv4_3_norm_conv4_3_norm_0_split
I0608 12:20:22.863176 30581 net.cpp:157] Top shape: 4 512 38 38 (2957312)
I0608 12:20:22.863180 30581 net.cpp:157] Top shape: 4 512 38 38 (2957312)
I0608 12:20:22.863185 30581 net.cpp:157] Top shape: 4 512 38 38 (2957312)
I0608 12:20:22.863189 30581 net.cpp:165] Memory required for data: 988438560
I0608 12:20:22.863193 30581 layer_factory.hpp:77] Creating layer conv4_3_norm_mbox_loc
I0608 12:20:22.863204 30581 net.cpp:100] Creating Layer conv4_3_norm_mbox_loc
I0608 12:20:22.863210 30581 net.cpp:434] conv4_3_norm_mbox_loc <- conv4_3_norm_conv4_3_norm_0_split_0
I0608 12:20:22.863219 30581 net.cpp:408] conv4_3_norm_mbox_loc -> conv4_3_norm_mbox_loc
I0608 12:20:22.865151 30581 net.cpp:150] Setting up conv4_3_norm_mbox_loc
I0608 12:20:22.865160 30581 net.cpp:157] Top shape: 4 16 38 38 (92416)
I0608 12:20:22.865165 30581 net.cpp:165] Memory required for data: 988808224
I0608 12:20:22.865173 30581 layer_factory.hpp:77] Creating layer conv4_3_norm_mbox_loc_perm
I0608 12:20:22.865185 30581 net.cpp:100] Creating Layer conv4_3_norm_mbox_loc_perm
I0608 12:20:22.865201 30581 net.cpp:434] conv4_3_norm_mbox_loc_perm <- conv4_3_norm_mbox_loc
I0608 12:20:22.865211 30581 net.cpp:408] conv4_3_norm_mbox_loc_perm -> conv4_3_norm_mbox_loc_perm
I0608 12:20:22.865329 30581 net.cpp:150] Setting up conv4_3_norm_mbox_loc_perm
I0608 12:20:22.865336 30581 net.cpp:157] Top shape: 4 38 38 16 (92416)
I0608 12:20:22.865339 30581 net.cpp:165] Memory required for data: 989177888
I0608 12:20:22.865345 30581 layer_factory.hpp:77] Creating layer conv4_3_norm_mbox_loc_flat
I0608 12:20:22.865352 30581 net.cpp:100] Creating Layer conv4_3_norm_mbox_loc_flat
I0608 12:20:22.865357 30581 net.cpp:434] conv4_3_norm_mbox_loc_flat <- conv4_3_norm_mbox_loc_perm
I0608 12:20:22.865363 30581 net.cpp:408] conv4_3_norm_mbox_loc_flat -> conv4_3_norm_mbox_loc_flat
I0608 12:20:22.865401 30581 net.cpp:150] Setting up conv4_3_norm_mbox_loc_flat
I0608 12:20:22.865407 30581 net.cpp:157] Top shape: 4 23104 (92416)
I0608 12:20:22.865411 30581 net.cpp:165] Memory required for data: 989547552
I0608 12:20:22.865413 30581 layer_factory.hpp:77] Creating layer conv4_3_norm_mbox_conf
I0608 12:20:22.865432 30581 net.cpp:100] Creating Layer conv4_3_norm_mbox_conf
I0608 12:20:22.865437 30581 net.cpp:434] conv4_3_norm_mbox_conf <- conv4_3_norm_conv4_3_norm_0_split_1
I0608 12:20:22.865442 30581 net.cpp:408] conv4_3_norm_mbox_conf -> conv4_3_norm_mbox_conf
I0608 12:20:22.867163 30581 net.cpp:150] Setting up conv4_3_norm_mbox_conf
I0608 12:20:22.867173 30581 net.cpp:157] Top shape: 4 8 38 38 (46208)
I0608 12:20:22.867177 30581 net.cpp:165] Memory required for data: 989732384
I0608 12:20:22.867183 30581 layer_factory.hpp:77] Creating layer conv4_3_norm_mbox_conf_perm
I0608 12:20:22.867190 30581 net.cpp:100] Creating Layer conv4_3_norm_mbox_conf_perm
I0608 12:20:22.867197 30581 net.cpp:434] conv4_3_norm_mbox_conf_perm <- conv4_3_norm_mbox_conf
I0608 12:20:22.867205 30581 net.cpp:408] conv4_3_norm_mbox_conf_perm -> conv4_3_norm_mbox_conf_perm
I0608 12:20:22.867311 30581 net.cpp:150] Setting up conv4_3_norm_mbox_conf_perm
I0608 12:20:22.867317 30581 net.cpp:157] Top shape: 4 38 38 8 (46208)
I0608 12:20:22.867321 30581 net.cpp:165] Memory required for data: 989917216
I0608 12:20:22.867323 30581 layer_factory.hpp:77] Creating layer conv4_3_norm_mbox_conf_flat
I0608 12:20:22.867328 30581 net.cpp:100] Creating Layer conv4_3_norm_mbox_conf_flat
I0608 12:20:22.867332 30581 net.cpp:434] conv4_3_norm_mbox_conf_flat <- conv4_3_norm_mbox_conf_perm
I0608 12:20:22.867341 30581 net.cpp:408] conv4_3_norm_mbox_conf_flat -> conv4_3_norm_mbox_conf_flat
I0608 12:20:22.867370 30581 net.cpp:150] Setting up conv4_3_norm_mbox_conf_flat
I0608 12:20:22.867375 30581 net.cpp:157] Top shape: 4 11552 (46208)
I0608 12:20:22.867378 30581 net.cpp:165] Memory required for data: 990102048
I0608 12:20:22.867383 30581 layer_factory.hpp:77] Creating layer conv4_3_norm_mbox_priorbox
I0608 12:20:22.867390 30581 net.cpp:100] Creating Layer conv4_3_norm_mbox_priorbox
I0608 12:20:22.867396 30581 net.cpp:434] conv4_3_norm_mbox_priorbox <- conv4_3_norm_conv4_3_norm_0_split_2
I0608 12:20:22.867403 30581 net.cpp:434] conv4_3_norm_mbox_priorbox <- data_data_0_split_1
I0608 12:20:22.867411 30581 net.cpp:408] conv4_3_norm_mbox_priorbox -> conv4_3_norm_mbox_priorbox
I0608 12:20:22.867442 30581 net.cpp:150] Setting up conv4_3_norm_mbox_priorbox
I0608 12:20:22.867449 30581 net.cpp:157] Top shape: 1 2 23104 (46208)
I0608 12:20:22.867452 30581 net.cpp:165] Memory required for data: 990286880
I0608 12:20:22.867456 30581 layer_factory.hpp:77] Creating layer fc7_mbox_loc
I0608 12:20:22.867465 30581 net.cpp:100] Creating Layer fc7_mbox_loc
I0608 12:20:22.867470 30581 net.cpp:434] fc7_mbox_loc <- fc7_relu7_0_split_1
I0608 12:20:22.867477 30581 net.cpp:408] fc7_mbox_loc -> fc7_mbox_loc
I0608 12:20:22.869997 30581 net.cpp:150] Setting up fc7_mbox_loc
I0608 12:20:22.870009 30581 net.cpp:157] Top shape: 4 24 19 19 (34656)
I0608 12:20:22.870012 30581 net.cpp:165] Memory required for data: 990425504
I0608 12:20:22.870020 30581 layer_factory.hpp:77] Creating layer fc7_mbox_loc_perm
I0608 12:20:22.870052 30581 net.cpp:100] Creating Layer fc7_mbox_loc_perm
I0608 12:20:22.870057 30581 net.cpp:434] fc7_mbox_loc_perm <- fc7_mbox_loc
I0608 12:20:22.870064 30581 net.cpp:408] fc7_mbox_loc_perm -> fc7_mbox_loc_perm
I0608 12:20:22.870183 30581 net.cpp:150] Setting up fc7_mbox_loc_perm
I0608 12:20:22.870189 30581 net.cpp:157] Top shape: 4 19 19 24 (34656)
I0608 12:20:22.870192 30581 net.cpp:165] Memory required for data: 990564128
I0608 12:20:22.870193 30581 layer_factory.hpp:77] Creating layer fc7_mbox_loc_flat
I0608 12:20:22.870198 30581 net.cpp:100] Creating Layer fc7_mbox_loc_flat
I0608 12:20:22.870203 30581 net.cpp:434] fc7_mbox_loc_flat <- fc7_mbox_loc_perm
I0608 12:20:22.870206 30581 net.cpp:408] fc7_mbox_loc_flat -> fc7_mbox_loc_flat
I0608 12:20:22.870226 30581 net.cpp:150] Setting up fc7_mbox_loc_flat
I0608 12:20:22.870230 30581 net.cpp:157] Top shape: 4 8664 (34656)
I0608 12:20:22.870232 30581 net.cpp:165] Memory required for data: 990702752
I0608 12:20:22.870234 30581 layer_factory.hpp:77] Creating layer fc7_mbox_conf
I0608 12:20:22.870244 30581 net.cpp:100] Creating Layer fc7_mbox_conf
I0608 12:20:22.870247 30581 net.cpp:434] fc7_mbox_conf <- fc7_relu7_0_split_2
I0608 12:20:22.870251 30581 net.cpp:408] fc7_mbox_conf -> fc7_mbox_conf
I0608 12:20:22.872331 30581 net.cpp:150] Setting up fc7_mbox_conf
I0608 12:20:22.872341 30581 net.cpp:157] Top shape: 4 12 19 19 (17328)
I0608 12:20:22.872344 30581 net.cpp:165] Memory required for data: 990772064
I0608 12:20:22.872349 30581 layer_factory.hpp:77] Creating layer fc7_mbox_conf_perm
I0608 12:20:22.872354 30581 net.cpp:100] Creating Layer fc7_mbox_conf_perm
I0608 12:20:22.872356 30581 net.cpp:434] fc7_mbox_conf_perm <- fc7_mbox_conf
I0608 12:20:22.872361 30581 net.cpp:408] fc7_mbox_conf_perm -> fc7_mbox_conf_perm
I0608 12:20:22.872462 30581 net.cpp:150] Setting up fc7_mbox_conf_perm
I0608 12:20:22.872467 30581 net.cpp:157] Top shape: 4 19 19 12 (17328)
I0608 12:20:22.872469 30581 net.cpp:165] Memory required for data: 990841376
I0608 12:20:22.872472 30581 layer_factory.hpp:77] Creating layer fc7_mbox_conf_flat
I0608 12:20:22.872476 30581 net.cpp:100] Creating Layer fc7_mbox_conf_flat
I0608 12:20:22.872478 30581 net.cpp:434] fc7_mbox_conf_flat <- fc7_mbox_conf_perm
I0608 12:20:22.872483 30581 net.cpp:408] fc7_mbox_conf_flat -> fc7_mbox_conf_flat
I0608 12:20:22.872503 30581 net.cpp:150] Setting up fc7_mbox_conf_flat
I0608 12:20:22.872508 30581 net.cpp:157] Top shape: 4 4332 (17328)
I0608 12:20:22.872509 30581 net.cpp:165] Memory required for data: 990910688
I0608 12:20:22.872511 30581 layer_factory.hpp:77] Creating layer fc7_mbox_priorbox
I0608 12:20:22.872517 30581 net.cpp:100] Creating Layer fc7_mbox_priorbox
I0608 12:20:22.872520 30581 net.cpp:434] fc7_mbox_priorbox <- fc7_relu7_0_split_3
I0608 12:20:22.872524 30581 net.cpp:434] fc7_mbox_priorbox <- data_data_0_split_2
I0608 12:20:22.872529 30581 net.cpp:408] fc7_mbox_priorbox -> fc7_mbox_priorbox
I0608 12:20:22.872553 30581 net.cpp:150] Setting up fc7_mbox_priorbox
I0608 12:20:22.872558 30581 net.cpp:157] Top shape: 1 2 8664 (17328)
I0608 12:20:22.872560 30581 net.cpp:165] Memory required for data: 990980000
I0608 12:20:22.872562 30581 layer_factory.hpp:77] Creating layer conv6_2_mbox_loc
I0608 12:20:22.872570 30581 net.cpp:100] Creating Layer conv6_2_mbox_loc
I0608 12:20:22.872576 30581 net.cpp:434] conv6_2_mbox_loc <- conv6_2_conv6_2_relu_0_split_1
I0608 12:20:22.872583 30581 net.cpp:408] conv6_2_mbox_loc -> conv6_2_mbox_loc
I0608 12:20:22.874603 30581 net.cpp:150] Setting up conv6_2_mbox_loc
I0608 12:20:22.874611 30581 net.cpp:157] Top shape: 4 24 10 10 (9600)
I0608 12:20:22.874615 30581 net.cpp:165] Memory required for data: 991018400
I0608 12:20:22.874622 30581 layer_factory.hpp:77] Creating layer conv6_2_mbox_loc_perm
I0608 12:20:22.874629 30581 net.cpp:100] Creating Layer conv6_2_mbox_loc_perm
I0608 12:20:22.874634 30581 net.cpp:434] conv6_2_mbox_loc_perm <- conv6_2_mbox_loc
I0608 12:20:22.874641 30581 net.cpp:408] conv6_2_mbox_loc_perm -> conv6_2_mbox_loc_perm
I0608 12:20:22.874744 30581 net.cpp:150] Setting up conv6_2_mbox_loc_perm
I0608 12:20:22.874759 30581 net.cpp:157] Top shape: 4 10 10 24 (9600)
I0608 12:20:22.874763 30581 net.cpp:165] Memory required for data: 991056800
I0608 12:20:22.874766 30581 layer_factory.hpp:77] Creating layer conv6_2_mbox_loc_flat
I0608 12:20:22.874773 30581 net.cpp:100] Creating Layer conv6_2_mbox_loc_flat
I0608 12:20:22.874776 30581 net.cpp:434] conv6_2_mbox_loc_flat <- conv6_2_mbox_loc_perm
I0608 12:20:22.874784 30581 net.cpp:408] conv6_2_mbox_loc_flat -> conv6_2_mbox_loc_flat
I0608 12:20:22.874809 30581 net.cpp:150] Setting up conv6_2_mbox_loc_flat
I0608 12:20:22.874814 30581 net.cpp:157] Top shape: 4 2400 (9600)
I0608 12:20:22.874817 30581 net.cpp:165] Memory required for data: 991095200
I0608 12:20:22.874820 30581 layer_factory.hpp:77] Creating layer conv6_2_mbox_conf
I0608 12:20:22.874831 30581 net.cpp:100] Creating Layer conv6_2_mbox_conf
I0608 12:20:22.874835 30581 net.cpp:434] conv6_2_mbox_conf <- conv6_2_conv6_2_relu_0_split_2
I0608 12:20:22.874841 30581 net.cpp:408] conv6_2_mbox_conf -> conv6_2_mbox_conf
I0608 12:20:22.876652 30581 net.cpp:150] Setting up conv6_2_mbox_conf
I0608 12:20:22.876660 30581 net.cpp:157] Top shape: 4 12 10 10 (4800)
I0608 12:20:22.876663 30581 net.cpp:165] Memory required for data: 991114400
I0608 12:20:22.876667 30581 layer_factory.hpp:77] Creating layer conv6_2_mbox_conf_perm
I0608 12:20:22.876672 30581 net.cpp:100] Creating Layer conv6_2_mbox_conf_perm
I0608 12:20:22.876677 30581 net.cpp:434] conv6_2_mbox_conf_perm <- conv6_2_mbox_conf
I0608 12:20:22.876680 30581 net.cpp:408] conv6_2_mbox_conf_perm -> conv6_2_mbox_conf_perm
I0608 12:20:22.876783 30581 net.cpp:150] Setting up conv6_2_mbox_conf_perm
I0608 12:20:22.876790 30581 net.cpp:157] Top shape: 4 10 10 12 (4800)
I0608 12:20:22.876792 30581 net.cpp:165] Memory required for data: 991133600
I0608 12:20:22.876794 30581 layer_factory.hpp:77] Creating layer conv6_2_mbox_conf_flat
I0608 12:20:22.876798 30581 net.cpp:100] Creating Layer conv6_2_mbox_conf_flat
I0608 12:20:22.876801 30581 net.cpp:434] conv6_2_mbox_conf_flat <- conv6_2_mbox_conf_perm
I0608 12:20:22.876806 30581 net.cpp:408] conv6_2_mbox_conf_flat -> conv6_2_mbox_conf_flat
I0608 12:20:22.876824 30581 net.cpp:150] Setting up conv6_2_mbox_conf_flat
I0608 12:20:22.876829 30581 net.cpp:157] Top shape: 4 1200 (4800)
I0608 12:20:22.876830 30581 net.cpp:165] Memory required for data: 991152800
I0608 12:20:22.876833 30581 layer_factory.hpp:77] Creating layer conv6_2_mbox_priorbox
I0608 12:20:22.876838 30581 net.cpp:100] Creating Layer conv6_2_mbox_priorbox
I0608 12:20:22.876843 30581 net.cpp:434] conv6_2_mbox_priorbox <- conv6_2_conv6_2_relu_0_split_3
I0608 12:20:22.876848 30581 net.cpp:434] conv6_2_mbox_priorbox <- data_data_0_split_3
I0608 12:20:22.876857 30581 net.cpp:408] conv6_2_mbox_priorbox -> conv6_2_mbox_priorbox
I0608 12:20:22.876881 30581 net.cpp:150] Setting up conv6_2_mbox_priorbox
I0608 12:20:22.876886 30581 net.cpp:157] Top shape: 1 2 2400 (4800)
I0608 12:20:22.876890 30581 net.cpp:165] Memory required for data: 991172000
I0608 12:20:22.876894 30581 layer_factory.hpp:77] Creating layer conv7_2_mbox_loc
I0608 12:20:22.876904 30581 net.cpp:100] Creating Layer conv7_2_mbox_loc
I0608 12:20:22.876907 30581 net.cpp:434] conv7_2_mbox_loc <- conv7_2_conv7_2_relu_0_split_1
I0608 12:20:22.876914 30581 net.cpp:408] conv7_2_mbox_loc -> conv7_2_mbox_loc
I0608 12:20:22.878247 30581 net.cpp:150] Setting up conv7_2_mbox_loc
I0608 12:20:22.878254 30581 net.cpp:157] Top shape: 4 24 5 5 (2400)
I0608 12:20:22.878257 30581 net.cpp:165] Memory required for data: 991181600
I0608 12:20:22.878262 30581 layer_factory.hpp:77] Creating layer conv7_2_mbox_loc_perm
I0608 12:20:22.878268 30581 net.cpp:100] Creating Layer conv7_2_mbox_loc_perm
I0608 12:20:22.878270 30581 net.cpp:434] conv7_2_mbox_loc_perm <- conv7_2_mbox_loc
I0608 12:20:22.878274 30581 net.cpp:408] conv7_2_mbox_loc_perm -> conv7_2_mbox_loc_perm
I0608 12:20:22.878374 30581 net.cpp:150] Setting up conv7_2_mbox_loc_perm
I0608 12:20:22.878379 30581 net.cpp:157] Top shape: 4 5 5 24 (2400)
I0608 12:20:22.878391 30581 net.cpp:165] Memory required for data: 991191200
I0608 12:20:22.878394 30581 layer_factory.hpp:77] Creating layer conv7_2_mbox_loc_flat
I0608 12:20:22.878399 30581 net.cpp:100] Creating Layer conv7_2_mbox_loc_flat
I0608 12:20:22.878403 30581 net.cpp:434] conv7_2_mbox_loc_flat <- conv7_2_mbox_loc_perm
I0608 12:20:22.878410 30581 net.cpp:408] conv7_2_mbox_loc_flat -> conv7_2_mbox_loc_flat
I0608 12:20:22.878434 30581 net.cpp:150] Setting up conv7_2_mbox_loc_flat
I0608 12:20:22.878439 30581 net.cpp:157] Top shape: 4 600 (2400)
I0608 12:20:22.878443 30581 net.cpp:165] Memory required for data: 991200800
I0608 12:20:22.878448 30581 layer_factory.hpp:77] Creating layer conv7_2_mbox_conf
I0608 12:20:22.878455 30581 net.cpp:100] Creating Layer conv7_2_mbox_conf
I0608 12:20:22.878459 30581 net.cpp:434] conv7_2_mbox_conf <- conv7_2_conv7_2_relu_0_split_2
I0608 12:20:22.878465 30581 net.cpp:408] conv7_2_mbox_conf -> conv7_2_mbox_conf
I0608 12:20:22.880129 30581 net.cpp:150] Setting up conv7_2_mbox_conf
I0608 12:20:22.880138 30581 net.cpp:157] Top shape: 4 12 5 5 (1200)
I0608 12:20:22.880141 30581 net.cpp:165] Memory required for data: 991205600
I0608 12:20:22.880146 30581 layer_factory.hpp:77] Creating layer conv7_2_mbox_conf_perm
I0608 12:20:22.880151 30581 net.cpp:100] Creating Layer conv7_2_mbox_conf_perm
I0608 12:20:22.880154 30581 net.cpp:434] conv7_2_mbox_conf_perm <- conv7_2_mbox_conf
I0608 12:20:22.880159 30581 net.cpp:408] conv7_2_mbox_conf_perm -> conv7_2_mbox_conf_perm
I0608 12:20:22.880259 30581 net.cpp:150] Setting up conv7_2_mbox_conf_perm
I0608 12:20:22.880264 30581 net.cpp:157] Top shape: 4 5 5 12 (1200)
I0608 12:20:22.880266 30581 net.cpp:165] Memory required for data: 991210400
I0608 12:20:22.880269 30581 layer_factory.hpp:77] Creating layer conv7_2_mbox_conf_flat
I0608 12:20:22.880272 30581 net.cpp:100] Creating Layer conv7_2_mbox_conf_flat
I0608 12:20:22.880275 30581 net.cpp:434] conv7_2_mbox_conf_flat <- conv7_2_mbox_conf_perm
I0608 12:20:22.880278 30581 net.cpp:408] conv7_2_mbox_conf_flat -> conv7_2_mbox_conf_flat
I0608 12:20:22.880298 30581 net.cpp:150] Setting up conv7_2_mbox_conf_flat
I0608 12:20:22.880303 30581 net.cpp:157] Top shape: 4 300 (1200)
I0608 12:20:22.880306 30581 net.cpp:165] Memory required for data: 991215200
I0608 12:20:22.880307 30581 layer_factory.hpp:77] Creating layer conv7_2_mbox_priorbox
I0608 12:20:22.880312 30581 net.cpp:100] Creating Layer conv7_2_mbox_priorbox
I0608 12:20:22.880316 30581 net.cpp:434] conv7_2_mbox_priorbox <- conv7_2_conv7_2_relu_0_split_3
I0608 12:20:22.880319 30581 net.cpp:434] conv7_2_mbox_priorbox <- data_data_0_split_4
I0608 12:20:22.880324 30581 net.cpp:408] conv7_2_mbox_priorbox -> conv7_2_mbox_priorbox
I0608 12:20:22.880347 30581 net.cpp:150] Setting up conv7_2_mbox_priorbox
I0608 12:20:22.880352 30581 net.cpp:157] Top shape: 1 2 600 (1200)
I0608 12:20:22.880353 30581 net.cpp:165] Memory required for data: 991220000
I0608 12:20:22.880355 30581 layer_factory.hpp:77] Creating layer conv8_2_mbox_loc
I0608 12:20:22.880363 30581 net.cpp:100] Creating Layer conv8_2_mbox_loc
I0608 12:20:22.880367 30581 net.cpp:434] conv8_2_mbox_loc <- conv8_2_conv8_2_relu_0_split_1
I0608 12:20:22.880373 30581 net.cpp:408] conv8_2_mbox_loc -> conv8_2_mbox_loc
I0608 12:20:22.882086 30581 net.cpp:150] Setting up conv8_2_mbox_loc
I0608 12:20:22.882095 30581 net.cpp:157] Top shape: 4 16 3 3 (576)
I0608 12:20:22.882099 30581 net.cpp:165] Memory required for data: 991222304
I0608 12:20:22.882113 30581 layer_factory.hpp:77] Creating layer conv8_2_mbox_loc_perm
I0608 12:20:22.882120 30581 net.cpp:100] Creating Layer conv8_2_mbox_loc_perm
I0608 12:20:22.882123 30581 net.cpp:434] conv8_2_mbox_loc_perm <- conv8_2_mbox_loc
I0608 12:20:22.882128 30581 net.cpp:408] conv8_2_mbox_loc_perm -> conv8_2_mbox_loc_perm
I0608 12:20:22.882231 30581 net.cpp:150] Setting up conv8_2_mbox_loc_perm
I0608 12:20:22.882236 30581 net.cpp:157] Top shape: 4 3 3 16 (576)
I0608 12:20:22.882238 30581 net.cpp:165] Memory required for data: 991224608
I0608 12:20:22.882241 30581 layer_factory.hpp:77] Creating layer conv8_2_mbox_loc_flat
I0608 12:20:22.882251 30581 net.cpp:100] Creating Layer conv8_2_mbox_loc_flat
I0608 12:20:22.882254 30581 net.cpp:434] conv8_2_mbox_loc_flat <- conv8_2_mbox_loc_perm
I0608 12:20:22.882259 30581 net.cpp:408] conv8_2_mbox_loc_flat -> conv8_2_mbox_loc_flat
I0608 12:20:22.882287 30581 net.cpp:150] Setting up conv8_2_mbox_loc_flat
I0608 12:20:22.882292 30581 net.cpp:157] Top shape: 4 144 (576)
I0608 12:20:22.882294 30581 net.cpp:165] Memory required for data: 991226912
I0608 12:20:22.882298 30581 layer_factory.hpp:77] Creating layer conv8_2_mbox_conf
I0608 12:20:22.882308 30581 net.cpp:100] Creating Layer conv8_2_mbox_conf
I0608 12:20:22.882313 30581 net.cpp:434] conv8_2_mbox_conf <- conv8_2_conv8_2_relu_0_split_2
I0608 12:20:22.882319 30581 net.cpp:408] conv8_2_mbox_conf -> conv8_2_mbox_conf
I0608 12:20:22.883960 30581 net.cpp:150] Setting up conv8_2_mbox_conf
I0608 12:20:22.883970 30581 net.cpp:157] Top shape: 4 8 3 3 (288)
I0608 12:20:22.883972 30581 net.cpp:165] Memory required for data: 991228064
I0608 12:20:22.883976 30581 layer_factory.hpp:77] Creating layer conv8_2_mbox_conf_perm
I0608 12:20:22.883982 30581 net.cpp:100] Creating Layer conv8_2_mbox_conf_perm
I0608 12:20:22.883986 30581 net.cpp:434] conv8_2_mbox_conf_perm <- conv8_2_mbox_conf
I0608 12:20:22.883991 30581 net.cpp:408] conv8_2_mbox_conf_perm -> conv8_2_mbox_conf_perm
I0608 12:20:22.884093 30581 net.cpp:150] Setting up conv8_2_mbox_conf_perm
I0608 12:20:22.884096 30581 net.cpp:157] Top shape: 4 3 3 8 (288)
I0608 12:20:22.884099 30581 net.cpp:165] Memory required for data: 991229216
I0608 12:20:22.884101 30581 layer_factory.hpp:77] Creating layer conv8_2_mbox_conf_flat
I0608 12:20:22.884105 30581 net.cpp:100] Creating Layer conv8_2_mbox_conf_flat
I0608 12:20:22.884109 30581 net.cpp:434] conv8_2_mbox_conf_flat <- conv8_2_mbox_conf_perm
I0608 12:20:22.884112 30581 net.cpp:408] conv8_2_mbox_conf_flat -> conv8_2_mbox_conf_flat
I0608 12:20:22.884133 30581 net.cpp:150] Setting up conv8_2_mbox_conf_flat
I0608 12:20:22.884137 30581 net.cpp:157] Top shape: 4 72 (288)
I0608 12:20:22.884140 30581 net.cpp:165] Memory required for data: 991230368
I0608 12:20:22.884141 30581 layer_factory.hpp:77] Creating layer conv8_2_mbox_priorbox
I0608 12:20:22.884146 30581 net.cpp:100] Creating Layer conv8_2_mbox_priorbox
I0608 12:20:22.884150 30581 net.cpp:434] conv8_2_mbox_priorbox <- conv8_2_conv8_2_relu_0_split_3
I0608 12:20:22.884152 30581 net.cpp:434] conv8_2_mbox_priorbox <- data_data_0_split_5
I0608 12:20:22.884156 30581 net.cpp:408] conv8_2_mbox_priorbox -> conv8_2_mbox_priorbox
I0608 12:20:22.884182 30581 net.cpp:150] Setting up conv8_2_mbox_priorbox
I0608 12:20:22.884187 30581 net.cpp:157] Top shape: 1 2 144 (288)
I0608 12:20:22.884191 30581 net.cpp:165] Memory required for data: 991231520
I0608 12:20:22.884196 30581 layer_factory.hpp:77] Creating layer conv9_2_mbox_loc
I0608 12:20:22.884205 30581 net.cpp:100] Creating Layer conv9_2_mbox_loc
I0608 12:20:22.884209 30581 net.cpp:434] conv9_2_mbox_loc <- conv9_2_conv9_2_relu_0_split_0
I0608 12:20:22.884217 30581 net.cpp:408] conv9_2_mbox_loc -> conv9_2_mbox_loc
I0608 12:20:22.886366 30581 net.cpp:150] Setting up conv9_2_mbox_loc
I0608 12:20:22.886374 30581 net.cpp:157] Top shape: 4 16 1 1 (64)
I0608 12:20:22.886378 30581 net.cpp:165] Memory required for data: 991231776
I0608 12:20:22.886381 30581 layer_factory.hpp:77] Creating layer conv9_2_mbox_loc_perm
I0608 12:20:22.886389 30581 net.cpp:100] Creating Layer conv9_2_mbox_loc_perm
I0608 12:20:22.886392 30581 net.cpp:434] conv9_2_mbox_loc_perm <- conv9_2_mbox_loc
I0608 12:20:22.886396 30581 net.cpp:408] conv9_2_mbox_loc_perm -> conv9_2_mbox_loc_perm
I0608 12:20:22.886494 30581 net.cpp:150] Setting up conv9_2_mbox_loc_perm
I0608 12:20:22.886500 30581 net.cpp:157] Top shape: 4 1 1 16 (64)
I0608 12:20:22.886502 30581 net.cpp:165] Memory required for data: 991232032
I0608 12:20:22.886504 30581 layer_factory.hpp:77] Creating layer conv9_2_mbox_loc_flat
I0608 12:20:22.886508 30581 net.cpp:100] Creating Layer conv9_2_mbox_loc_flat
I0608 12:20:22.886512 30581 net.cpp:434] conv9_2_mbox_loc_flat <- conv9_2_mbox_loc_perm
I0608 12:20:22.886523 30581 net.cpp:408] conv9_2_mbox_loc_flat -> conv9_2_mbox_loc_flat
I0608 12:20:22.886545 30581 net.cpp:150] Setting up conv9_2_mbox_loc_flat
I0608 12:20:22.886549 30581 net.cpp:157] Top shape: 4 16 (64)
I0608 12:20:22.886553 30581 net.cpp:165] Memory required for data: 991232288
I0608 12:20:22.886554 30581 layer_factory.hpp:77] Creating layer conv9_2_mbox_conf
I0608 12:20:22.886560 30581 net.cpp:100] Creating Layer conv9_2_mbox_conf
I0608 12:20:22.886564 30581 net.cpp:434] conv9_2_mbox_conf <- conv9_2_conv9_2_relu_0_split_1
I0608 12:20:22.886569 30581 net.cpp:408] conv9_2_mbox_conf -> conv9_2_mbox_conf
I0608 12:20:22.888208 30581 net.cpp:150] Setting up conv9_2_mbox_conf
I0608 12:20:22.888218 30581 net.cpp:157] Top shape: 4 8 1 1 (32)
I0608 12:20:22.888221 30581 net.cpp:165] Memory required for data: 991232416
I0608 12:20:22.888226 30581 layer_factory.hpp:77] Creating layer conv9_2_mbox_conf_perm
I0608 12:20:22.888229 30581 net.cpp:100] Creating Layer conv9_2_mbox_conf_perm
I0608 12:20:22.888234 30581 net.cpp:434] conv9_2_mbox_conf_perm <- conv9_2_mbox_conf
I0608 12:20:22.888242 30581 net.cpp:408] conv9_2_mbox_conf_perm -> conv9_2_mbox_conf_perm
I0608 12:20:22.888348 30581 net.cpp:150] Setting up conv9_2_mbox_conf_perm
I0608 12:20:22.888353 30581 net.cpp:157] Top shape: 4 1 1 8 (32)
I0608 12:20:22.888357 30581 net.cpp:165] Memory required for data: 991232544
I0608 12:20:22.888360 30581 layer_factory.hpp:77] Creating layer conv9_2_mbox_conf_flat
I0608 12:20:22.888368 30581 net.cpp:100] Creating Layer conv9_2_mbox_conf_flat
I0608 12:20:22.888372 30581 net.cpp:434] conv9_2_mbox_conf_flat <- conv9_2_mbox_conf_perm
I0608 12:20:22.888380 30581 net.cpp:408] conv9_2_mbox_conf_flat -> conv9_2_mbox_conf_flat
I0608 12:20:22.888402 30581 net.cpp:150] Setting up conv9_2_mbox_conf_flat
I0608 12:20:22.888407 30581 net.cpp:157] Top shape: 4 8 (32)
I0608 12:20:22.888411 30581 net.cpp:165] Memory required for data: 991232672
I0608 12:20:22.888414 30581 layer_factory.hpp:77] Creating layer conv9_2_mbox_priorbox
I0608 12:20:22.888423 30581 net.cpp:100] Creating Layer conv9_2_mbox_priorbox
I0608 12:20:22.888428 30581 net.cpp:434] conv9_2_mbox_priorbox <- conv9_2_conv9_2_relu_0_split_2
I0608 12:20:22.888432 30581 net.cpp:434] conv9_2_mbox_priorbox <- data_data_0_split_6
I0608 12:20:22.888439 30581 net.cpp:408] conv9_2_mbox_priorbox -> conv9_2_mbox_priorbox
I0608 12:20:22.888464 30581 net.cpp:150] Setting up conv9_2_mbox_priorbox
I0608 12:20:22.888469 30581 net.cpp:157] Top shape: 1 2 16 (32)
I0608 12:20:22.888473 30581 net.cpp:165] Memory required for data: 991232800
I0608 12:20:22.888476 30581 layer_factory.hpp:77] Creating layer mbox_loc
I0608 12:20:22.888484 30581 net.cpp:100] Creating Layer mbox_loc
I0608 12:20:22.888489 30581 net.cpp:434] mbox_loc <- conv4_3_norm_mbox_loc_flat
I0608 12:20:22.888495 30581 net.cpp:434] mbox_loc <- fc7_mbox_loc_flat
I0608 12:20:22.888501 30581 net.cpp:434] mbox_loc <- conv6_2_mbox_loc_flat
I0608 12:20:22.888506 30581 net.cpp:434] mbox_loc <- conv7_2_mbox_loc_flat
I0608 12:20:22.888512 30581 net.cpp:434] mbox_loc <- conv8_2_mbox_loc_flat
I0608 12:20:22.888516 30581 net.cpp:434] mbox_loc <- conv9_2_mbox_loc_flat
I0608 12:20:22.888525 30581 net.cpp:408] mbox_loc -> mbox_loc
I0608 12:20:22.888550 30581 net.cpp:150] Setting up mbox_loc
I0608 12:20:22.888555 30581 net.cpp:157] Top shape: 4 34928 (139712)
I0608 12:20:22.888558 30581 net.cpp:165] Memory required for data: 991791648
I0608 12:20:22.888561 30581 layer_factory.hpp:77] Creating layer mbox_conf
I0608 12:20:22.888568 30581 net.cpp:100] Creating Layer mbox_conf
I0608 12:20:22.888572 30581 net.cpp:434] mbox_conf <- conv4_3_norm_mbox_conf_flat
I0608 12:20:22.888576 30581 net.cpp:434] mbox_conf <- fc7_mbox_conf_flat
I0608 12:20:22.888579 30581 net.cpp:434] mbox_conf <- conv6_2_mbox_conf_flat
I0608 12:20:22.888581 30581 net.cpp:434] mbox_conf <- conv7_2_mbox_conf_flat
I0608 12:20:22.888584 30581 net.cpp:434] mbox_conf <- conv8_2_mbox_conf_flat
I0608 12:20:22.888587 30581 net.cpp:434] mbox_conf <- conv9_2_mbox_conf_flat
I0608 12:20:22.888599 30581 net.cpp:408] mbox_conf -> mbox_conf
I0608 12:20:22.888623 30581 net.cpp:150] Setting up mbox_conf
I0608 12:20:22.888628 30581 net.cpp:157] Top shape: 4 17464 (69856)
I0608 12:20:22.888631 30581 net.cpp:165] Memory required for data: 992071072
I0608 12:20:22.888635 30581 layer_factory.hpp:77] Creating layer mbox_priorbox
I0608 12:20:22.888640 30581 net.cpp:100] Creating Layer mbox_priorbox
I0608 12:20:22.888645 30581 net.cpp:434] mbox_priorbox <- conv4_3_norm_mbox_priorbox
I0608 12:20:22.888649 30581 net.cpp:434] mbox_priorbox <- fc7_mbox_priorbox
I0608 12:20:22.888653 30581 net.cpp:434] mbox_priorbox <- conv6_2_mbox_priorbox
I0608 12:20:22.888656 30581 net.cpp:434] mbox_priorbox <- conv7_2_mbox_priorbox
I0608 12:20:22.888659 30581 net.cpp:434] mbox_priorbox <- conv8_2_mbox_priorbox
I0608 12:20:22.888661 30581 net.cpp:434] mbox_priorbox <- conv9_2_mbox_priorbox
I0608 12:20:22.888665 30581 net.cpp:408] mbox_priorbox -> mbox_priorbox
I0608 12:20:22.888687 30581 net.cpp:150] Setting up mbox_priorbox
I0608 12:20:22.888692 30581 net.cpp:157] Top shape: 1 2 34928 (69856)
I0608 12:20:22.888695 30581 net.cpp:165] Memory required for data: 992350496
I0608 12:20:22.888696 30581 layer_factory.hpp:77] Creating layer mbox_conf_reshape
I0608 12:20:22.888701 30581 net.cpp:100] Creating Layer mbox_conf_reshape
I0608 12:20:22.888706 30581 net.cpp:434] mbox_conf_reshape <- mbox_conf
I0608 12:20:22.888712 30581 net.cpp:408] mbox_conf_reshape -> mbox_conf_reshape
I0608 12:20:22.888743 30581 net.cpp:150] Setting up mbox_conf_reshape
I0608 12:20:22.888749 30581 net.cpp:157] Top shape: 4 8732 2 (69856)
I0608 12:20:22.888754 30581 net.cpp:165] Memory required for data: 992629920
I0608 12:20:22.888757 30581 layer_factory.hpp:77] Creating layer mbox_conf_softmax
I0608 12:20:22.888762 30581 net.cpp:100] Creating Layer mbox_conf_softmax
I0608 12:20:22.888766 30581 net.cpp:434] mbox_conf_softmax <- mbox_conf_reshape
I0608 12:20:22.888769 30581 net.cpp:408] mbox_conf_softmax -> mbox_conf_softmax
I0608 12:20:22.888970 30581 net.cpp:150] Setting up mbox_conf_softmax
I0608 12:20:22.888977 30581 net.cpp:157] Top shape: 4 8732 2 (69856)
I0608 12:20:22.888979 30581 net.cpp:165] Memory required for data: 992909344
I0608 12:20:22.888981 30581 layer_factory.hpp:77] Creating layer mbox_conf_flatten
I0608 12:20:22.888986 30581 net.cpp:100] Creating Layer mbox_conf_flatten
I0608 12:20:22.888988 30581 net.cpp:434] mbox_conf_flatten <- mbox_conf_softmax
I0608 12:20:22.888993 30581 net.cpp:408] mbox_conf_flatten -> mbox_conf_flatten
I0608 12:20:22.889016 30581 net.cpp:150] Setting up mbox_conf_flatten
I0608 12:20:22.889021 30581 net.cpp:157] Top shape: 4 17464 (69856)
I0608 12:20:22.889024 30581 net.cpp:165] Memory required for data: 993188768
I0608 12:20:22.889027 30581 layer_factory.hpp:77] Creating layer detection_out
I0608 12:20:22.889041 30581 net.cpp:100] Creating Layer detection_out
I0608 12:20:22.889045 30581 net.cpp:434] detection_out <- mbox_loc
I0608 12:20:22.889050 30581 net.cpp:434] detection_out <- mbox_conf_flatten
I0608 12:20:22.889053 30581 net.cpp:434] detection_out <- mbox_priorbox
I0608 12:20:22.889060 30581 net.cpp:408] detection_out -> detection_out
I0608 12:20:22.889329 30581 net.cpp:150] Setting up detection_out
I0608 12:20:22.889338 30581 net.cpp:157] Top shape: 1 1 1 7 (7)
I0608 12:20:22.889340 30581 net.cpp:165] Memory required for data: 993188796
I0608 12:20:22.889343 30581 layer_factory.hpp:77] Creating layer detection_eval
I0608 12:20:22.889348 30581 net.cpp:100] Creating Layer detection_eval
I0608 12:20:22.889353 30581 net.cpp:434] detection_eval <- detection_out
I0608 12:20:22.889355 30581 net.cpp:434] detection_eval <- label
I0608 12:20:22.889359 30581 net.cpp:408] detection_eval -> detection_eval
I0608 12:20:22.889446 30581 net.cpp:150] Setting up detection_eval
I0608 12:20:22.889451 30581 net.cpp:157] Top shape: 1 1 2 5 (10)
I0608 12:20:22.889453 30581 net.cpp:165] Memory required for data: 993188836
I0608 12:20:22.889456 30581 net.cpp:228] detection_eval does not need backward computation.
I0608 12:20:22.889467 30581 net.cpp:228] detection_out does not need backward computation.
I0608 12:20:22.889469 30581 net.cpp:228] mbox_conf_flatten does not need backward computation.
I0608 12:20:22.889472 30581 net.cpp:228] mbox_conf_softmax does not need backward computation.
…
