…
        min_scale: 0.3
        max_scale: 1
        min_aspect_ratio: 0.5
        max_aspect_ratio: 2
      }
      sample_constraint {
        min_jaccard_overlap: 0.9
      }
      max_sample: 1
      max_trials: 50
    }
    batch_sampler {
      sampler {
        min_scale: 0.3
        max_scale: 1
        min_aspect_ratio: 0.5
        max_aspect_ratio: 2
      }
      sample_constraint {
        max_jaccard_overlap: 1
      }
      max_sample: 1
      max_trials: 50
    }
    label_map_file: "data/sharpen_tbs_v2.0/labelmap_voc.prototxt"
  }
}
layer {
  name: "conv1_1"
  type: "Convolution"
  bottom: "data"
  top: "conv1_1"
  param {
    lr_mult: 1
    decay_mult: 1
  }
  param {
    lr_mult: 2
    decay_mult: 0
  }
  convolution_param {
    num_output: 64
    pad: 1
    kernel_size: 3
    weight_filler {
      type: "xavier"
    }
    bias_filler {
      type: "constant"
      value: 0
    }
  }
}
layer {
  name: "relu1_1"
  type: "ReLU"
  bottom: "conv1_1"
  top: "conv1_1"
}
layer {
  name: "conv1_2"
  type: "Convolution"
  bottom: "conv1_1"
  top: "conv1_2"
  param {
    lr_mult: 1
    decay_mult: 1
  }
  param {
    lr_mult: 2
    decay_mult: 0
  }
  convolution_param {
    num_output: 64
    pad: 1
    kernel_size: 3
    weight_filler {
      type: "xavier"
    }
    bias_filler {
      type: "constant"
      value: 0
    }
  }
}
layer {
  name: "relu1_2"
  type: "ReLU"
  bottom: "conv1_2"
  top: "conv1_2"
}
layer {
  name: "pool1"
  type: "Pooling"
  bottom: "conv1_2"
  top: "pool1"
  pooling_param {
    pool: MAX
    kernel_size: 2
    stride: 2
  }
}
layer {
  name: "conv2_1"
  type: "Convolution"
  bottom: "pool1"
  top: "conv2_1"
  param {
    lr_mult: 1
    decay_mult: 1
  }
  param {
    lr_mult: 2
    decay_mult: 0
  }
  convolution_param {
    num_output: 128
    pad: 1
    kernel_size: 3
    weight_filler {
      type: "xavier"
    }
    bias_filler {
      type: "constant"
      value: 0
    }
  }
}
layer {
  name: "relu2_1"
  type: "ReLU"
  bottom: "conv2_1"
  top: "conv2_1"
}
layer {
  name: "conv2_2"
  type: "Convolution"
  bottom: "conv2_1"
  top: "conv2_2"
  param {
    lr_mult: 1
    decay_mult: 1
  }
  param {
    lr_mult: 2
    decay_mult: 0
  }
  convolution_param {
    num_output: 128
    pad: 1
    kernel_size: 3
    weight_filler {
      type: "xavier"
    }
    bias_filler {
      type: "constant"
      value: 0
    }
  }
}
layer {
  name: "relu2_2"
  type: "ReLU"
  bottom: "conv2_2"
  top: "conv2_2"
}
layer {
  name: "pool2"
  type: "Pooling"
  bottom: "conv2_2"
  top: "pool2"
  pooling_param {
    pool: MAX
    kernel_size: 2
    stride: 2
  }
}
layer {
  name: "conv3_1"
  type: "Convolution"
  bottom: "pool2"
  top: "conv3_1"
  param {
    lr_mult: 1
    decay_mult: 1
  }
  param {
    lr_mult: 2
    decay_mult: 0
  }
  convolution_param {
    num_output: 256
    pad: 1
    kernel_size: 3
    weight_filler {
      type: "xavier"
    }
    bias_filler {
      type: "constant"
      value: 0
    }
  }
}
layer {
  name: "relu3_1"
  type: "ReLU"
  bottom: "conv3_1"
  top: "conv3_1"
}
layer {
  name: "conv3_2"
  type: "Convolution"
  bottom: "conv3_1"
  top: "conv3_2"
  param {
    lr_mult: 1
    decay_mult: 1
  }
  param {
    lr_mult: 2
    decay_mult: 0
  }
  convolution_param {
    num_output: 256
    pad: 1
    kernel_size: 3
    weight_filler {
      type: "xavier"
    }
    bias_filler {
      type: "constant"
      value: 0
    }
  }
}
layer {
  name: "relu3_2"
  type: "ReLU"
  bottom: "conv3_2"
  top: "conv3_2"
}
layer {
  name: "conv3_3"
  type: "Convolution"
  bottom: "conv3_2"
  top: "conv3_3"
  param {
    lr_mult: 1
    decay_mult: 1
  }
  param {
    lr_mult: 2
    decay_mult: 0
  }
  convolution_param {
    num_output: 256
    pad: 1
    kernel_size: 3
    weight_filler {
      type: "xavier"
    }
    bias_filler {
      type: "constant"
      value: 0
    }
  }
}
layer {
  name: "relu3_3"
  type: "ReLU"
  bottom: "conv3_3"
  top: "conv3_3"
}
layer {
  name: "pool3"
  type: "Pooling"
  bottom: "conv3_3"
  top: "pool3"
  pooling_param {
    pool: MAX
    kernel_size: 2
    stride: 2
  }
}
layer {
  name: "conv4_1"
  type: "Convolution"
  bottom: "pool3"
  top: "conv4_1"
  param {
    lr_mult: 1
    decay_mult: 1
  }
  param {
    lr_mult: 2
    decay_mult: 0
  }
  convolution_param {
    num_output: 512
    pad: 1
    kernel_size: 3
    weight_filler {
      type: "xavier"
    }
    bias_filler {
      type: "constant"
      value: 0
    }
  }
}
layer {
  name: "relu4_1"
  type: "ReLU"
  bottom: "conv4_1"
  top: "conv4_1"
}
layer {
  name: "conv4_2"
  type: "Convolution"
  bottom: "conv4_1"
  top: "conv4_2"
  param {
    lr_mult: 1
    decay_mult: 1
  }
  param {
    lr_mult: 2
    decay_mult: 0
  }
  convolution_param {
    num_output: 512
    pad: 1
    kernel_size: 3
    weight_filler {
      type: "xavier"
    }
    bias_filler {
      type: "constant"
      value: 0
    }
  }
}
layer {
  name: "relu4_2"
  type: "ReLU"
  bottom: "conv4_2"
  top: "conv4_2"
}
layer {
  name: "conv4_3"
  type: "Convolution"
  bottom: "conv4_2"
  top: "conv4_3"
  param {
    lr_mult: 1
    decay_mult: 1
  }
  param {
    lr_mult: 2
    decay_mult: 0
  }
  convolution_param {
    num_output: 512
    pad: 1
    kernel_size: 3
    weight_filler {
      type: "xavier"
    }
    bias_filler {
      type: "constant"
      value: 0
    }
  }
}
layer {
  name: "relu4_3"
  type: "ReLU"
  bottom: "conv4_3"
  top: "conv4_3"
}
layer {
  name: "pool4"
  type: "Pooling"
  bottom: "conv4_3"
  top: "pool4"
  pooling_param {
    pool: MAX
    kernel_size: 2
    stride: 2
  }
}
layer {
  name: "conv5_1"
  type: "Convolution"
  bottom: "pool4"
  top: "conv5_1"
  param {
    lr_mult: 1
    decay_mult: 1
  }
  param {
    lr_mult: 2
    decay_mult: 0
  }
  convolution_param {
    num_output: 512
    pad: 1
    kernel_size: 3
    weight_filler {
      type: "xavier"
    }
    bias_filler {
      type: "constant"
      value: 0
    }
    dilation: 1
  }
}
layer {
  name: "relu5_1"
  type: "ReLU"
  bottom: "conv5_1"
  top: "conv5_1"
}
layer {
  name: "conv5_2"
  type: "Convolution"
  bottom: "conv5_1"
  top: "conv5_2"
  param {
    lr_mult: 1
    decay_mult: 1
  }
  param {
    lr_mult: 2
    decay_mult: 0
  }
  convolution_param {
    num_output: 512
    pad: 1
    kernel_size: 3
    weight_filler {
      type: "xavier"
    }
    bias_filler {
      type: "constant"
      value: 0
    }
    dilation: 1
  }
}
layer {
  name: "relu5_2"
  type: "ReLU"
  bottom: "conv5_2"
  top: "conv5_2"
}
layer {
  name: "conv5_3"
  type: "Convolution"
  bottom: "conv5_2"
  top: "conv5_3"
  param {
    lr_mult: 1
    decay_mult: 1
  }
  param {
    lr_mult: 2
    decay_mult: 0
  }
  convolution_param {
    num_output: 512
    pad: 1
    kernel_size: 3
    weight_filler {
      type: "xavier"
    }
    bias_filler {
      type: "constant"
      value: 0
    }
    dilation: 1
  }
}
layer {
  name: "relu5_3"
  type: "ReLU"
  bottom: "conv5_3"
  top: "conv5_3"
}
layer {
  name: "pool5"
  type: "Pooling"
  bottom: "conv5_3"
  top: "pool5"
  pooling_param {
    pool: MAX
    kernel_size: 3
    stride: 1
    pad: 1
  }
}
layer {
  name: "fc6"
  type: "Convolution"
  bottom: "pool5"
  top: "fc6"
  param {
    lr_mult: 1
    decay_mult: 1
  }
  param {
    lr_mult: 2
    decay_mult: 0
  }
  convolution_param {
    num_output: 1024
    pad: 6
    kernel_size: 3
    weight_filler {
      type: "xavier"
    }
    bias_filler {
      type: "constant"
      value: 0
    }
    dilation: 6
  }
}
layer {
  name: "relu6"
  type: "ReLU"
  bottom: "fc6"
  top: "fc6"
}
layer {
  name: "fc7"
  type: "Convolution"
  bottom: "fc6"
  top: "fc7"
  param {
    lr_mult: 1
    decay_mult: 1
  }
  param {
    lr_mult: 2
    decay_mult: 0
  }
  convolution_param {
    num_output: 1024
    kernel_size: 1
    weight_filler {
      type: "xavier"
    }
    bias_filler {
      type: "constant"
      value: 0
    }
  }
}
layer {
  name: "relu7"
  type: "ReLU"
  bottom: "fc7"
  top: "fc7"
}
layer {
  name: "conv6_1"
  type: "Convolution"
  bottom: "fc7"
  top: "conv6_1"
  param {
    lr_mult: 1
    decay_mult: 1
  }
  param {
    lr_mult: 2
    decay_mult: 0
  }
  convolution_param {
    num_output: 256
    pad: 0
    kernel_size: 1
    stride: 1
    weight_filler {
      type: "xavier"
    }
    bias_filler {
      type: "constant"
      value: 0
    }
  }
}
layer {
  name: "conv6_1_relu"
  type: "ReLU"
  bottom: "conv6_1"
  top: "conv6_1"
}
layer {
  name: "conv6_2"
  type: "Convolution"
  bottom: "conv6_1"
  top: "conv6_2"
  param {
    lr_mult: 1
    decay_mult: 1
  }
  param {
    lr_mult: 2
    decay_mult: 0
  }
  convolution_param {
    num_output: 512
    pad: 1
    kernel_size: 3
    stride: 2
    weight_filler {
      type: "xavier"
    }
    bias_filler {
      type: "constant"
      value: 0
    }
  }
}
layer {
  name: "conv6_2_relu"
  type: "ReLU"
  bottom: "conv6_2"
  top: "conv6_2"
}
layer {
  name: "conv7_1"
  type: "Convolution"
  bottom: "conv6_2"
  top: "conv7_1"
  param {
    lr_mult: 1
    decay_mult: 1
  }
  param {
    lr_mult: 2
    decay_mult: 0
  }
  convolution_param {
    num_output: 128
    pad: 0
    kernel_size: 1
    stride: 1
    weight_filler {
      type: "xavier"
    }
    bias_filler {
      type: "constant"
      value: 0
    }
  }
}
layer {
  name: "conv7_1_relu"
  type: "ReLU"
  bottom: "conv7_1"
  top: "conv7_1"
}
layer {
  name: "conv7_2"
  type: "Convolution"
  bottom: "conv7_1"
  top: "conv7_2"
  param {
    lr_mult: 1
    decay_mult: 1
  }
  param {
    lr_mult: 2
    decay_mult: 0
  }
  convolution_param {
    num_output: 256
    pad: 1
    kernel_size: 3
    stride: 2
    weight_filler {
      type: "xavier"
    }
    bias_filler {
      type: "constant"
      value: 0
    }
  }
}
layer {
  name: "conv7_2_relu"
  type: "ReLU"
  bottom: "conv7_2"
  top: "conv7_2"
}
layer {
  name: "conv8_1"
  type: "Convolution"
  bottom: "conv7_2"
  top: "conv8_1"
  param {
    lr_mult: 1
    decay_mult: 1
  }
  param {
    lr_mult: 2
    decay_mult: 0
  }
  convolution_param {
    num_output: 128
    pad: 0
    kernel_size: 1
    stride: 1
    weight_filler {
      type: "xavier"
    }
    bias_filler {
      type: "constant"
      value: 0
    }
  }
}
layer {
  name: "conv8_1_relu"
  type: "ReLU"
  bottom: "conv8_1"
  top: "conv8_1"
}
layer {
  name: "conv8_2"
  type: "Convolution"
  bottom: "conv8_1"
  top: "conv8_2"
  param {
    lr_mult: 1
    decay_mult: 1
  }
  param {
    lr_mult: 2
    decay_mult: 0
  }
  convolution_param {
    num_output: 256
    pad: 0
    kernel_size: 3
    stride: 1
    weight_filler {
      type: "xavier"
    }
    bias_filler {
      type: "constant"
      value: 0
    }
  }
}
layer {
  name: "conv8_2_relu"
  type: "ReLU"
  bottom: "conv8_2"
  top: "conv8_2"
}
layer {
  name: "conv9_1"
  type: "Convolution"
  bottom: "conv8_2"
  top: "conv9_1"
  param {
    lr_mult: 1
    decay_mult: 1
  }
  param {
    lr_mult: 2
    decay_mult: 0
  }
  convolution_param {
    num_output: 128
    pad: 0
    kernel_size: 1
    stride: 1
    weight_filler {
      type: "xavier"
    }
    bias_filler {
      type: "constant"
      value: 0
    }
  }
}
layer {
  name: "conv9_1_relu"
  type: "ReLU"
  bottom: "conv9_1"
  top: "conv9_1"
}
layer {
  name: "conv9_2"
  type: "Convolution"
  bottom: "conv9_1"
  top: "conv9_2"
  param {
    lr_mult: 1
    decay_mult: 1
  }
  param {
    lr_mult: 2
    decay_mult: 0
  }
  convolution_param {
    num_output: 256
    pad: 0
    kernel_size: 3
    stride: 1
    weight_filler {
      type: "xavier"
    }
    bias_filler {
      type: "constant"
      value: 0
    }
  }
}
layer {
  name: "conv9_2_relu"
  type: "ReLU"
  bottom: "conv9_2"
  top: "conv9_2"
}
layer {
  name: "conv4_3_norm"
  type: "Normalize"
  bottom: "conv4_3"
  top: "conv4_3_norm"
  norm_param {
    across_spatial: false
    scale_filler {
      type: "constant"
      value: 20
    }
    channel_shared: false
  }
}
layer {
  name: "conv4_3_norm_mbox_loc"
  type: "Convolution"
  bottom: "conv4_3_norm"
  top: "conv4_3_norm_mbox_loc"
  param {
    lr_mult: 1
    decay_mult: 1
  }
  param {
    lr_mult: 2
    decay_mult: 0
  }
  convolution_param {
    num_output: 16
    pad: 1
    kernel_size: 3
    stride: 1
    weight_filler {
      type: "xavier"
    }
    bias_filler {
      type: "constant"
      value: 0
    }
  }
}
layer {
  name: "conv4_3_norm_mbox_loc_perm"
  type: "Permute"
  bottom: "conv4_3_norm_mbox_loc"
  top: "conv4_3_norm_mbox_loc_perm"
  permute_param {
    order: 0
    order: 2
    order: 3
    order: 1
  }
}
layer {
  name: "conv4_3_norm_mbox_loc_flat"
  type: "Flatten"
  bottom: "conv4_3_norm_mbox_loc_perm"
  top: "conv4_3_norm_mbox_loc_flat"
  flatten_param {
    axis: 1
  }
}
layer {
  name: "conv4_3_norm_mbox_conf"
  type: "Convolution"
  bottom: "conv4_3_norm"
  top: "conv4_3_norm_mbox_conf"
  param {
    lr_mult: 1
    decay_mult: 1
  }
  param {
    lr_mult: 2
    decay_mult: 0
  }
  convolution_param {
    num_output: 8
    pad: 1
    kernel_size: 3
    stride: 1
    weight_filler {
      type: "xavier"
    }
    bias_filler {
      type: "constant"
      value: 0
    }
  }
}
layer {
  name: "conv4_3_norm_mbox_conf_perm"
  type: "Permute"
  bottom: "conv4_3_norm_mbox_conf"
  top: "conv4_3_norm_mbox_conf_perm"
  permute_param {
    order: 0
    order: 2
    order: 3
    order: 1
  }
}
layer {
  name: "conv4_3_norm_mbox_conf_flat"
  type: "Flatten"
  bottom: "conv4_3_norm_mbox_conf_perm"
  top: "conv4_3_norm_mbox_conf_flat"
  flatten_param {
    axis: 1
  }
}
layer {
  name: "conv4_3_norm_mbox_priorbox"
  type: "PriorBox"
  bottom: "conv4_3_norm"
  bottom: "data"
  top: "conv4_3_norm_mbox_priorbox"
  prior_box_param {
    min_size: 30
    max_size: 60
    aspect_ratio: 2
    flip: true
    clip: false
    variance: 0.1
    variance: 0.1
    variance: 0.2
    variance: 0.2
    step: 8
    offset: 0.5
  }
}
layer {
  name: "fc7_mbox_loc"
  type: "Convolution"
  bottom: "fc7"
  top: "fc7_mbox_loc"
  param {
    lr_mult: 1
    decay_mult: 1
  }
  param {
    lr_mult: 2
    decay_mult: 0
  }
  convolution_param {
    num_output: 24
    pad: 1
    kernel_size: 3
    stride: 1
    weight_filler {
      type: "xavier"
    }
    bias_filler {
      type: "constant"
      value: 0
    }
  }
}
layer {
  name: "fc7_mbox_loc_perm"
  type: "Permute"
  bottom: "fc7_mbox_loc"
  top: "fc7_mbox_loc_perm"
  permute_param {
    order: 0
    order: 2
    order: 3
    order: 1
  }
}
layer {
  name: "fc7_mbox_loc_flat"
  type: "Flatten"
  bottom: "fc7_mbox_loc_perm"
  top: "fc7_mbox_loc_flat"
  flatten_param {
    axis: 1
  }
}
layer {
  name: "fc7_mbox_conf"
  type: "Convolution"
  bottom: "fc7"
  top: "fc7_mbox_conf"
  param {
    lr_mult: 1
    decay_mult: 1
  }
  param {
    lr_mult: 2
    decay_mult: 0
  }
  convolution_param {
    num_output: 12
    pad: 1
    kernel_size: 3
    stride: 1
    weight_filler {
      type: "xavier"
    }
    bias_filler {
      type: "constant"
      value: 0
    }
  }
}
layer {
  name: "fc7_mbox_conf_perm"
  type: "Permute"
  bottom: "fc7_mbox_conf"
  top: "fc7_mbox_conf_perm"
  permute_param {
    order: 0
    order: 2
    order: 3
    order: 1
  }
}
layer {
  name: "fc7_mbox_conf_flat"
  type: "Flatten"
  bottom: "fc7_mbox_conf_perm"
  top: "fc7_mbox_conf_flat"
  flatten_param {
    axis: 1
  }
}
layer {
  name: "fc7_mbox_priorbox"
  type: "PriorBox"
  bottom: "fc7"
  bottom: "data"
  top: "fc7_mbox_priorbox"
  prior_box_param {
    min_size: 60
    max_size: 111
    aspect_ratio: 2
    aspect_ratio: 3
    flip: true
    clip: false
    variance: 0.1
    variance: 0.1
    variance: 0.2
    variance: 0.2
    step: 16
    offset: 0.5
  }
}
layer {
  name: "conv6_2_mbox_loc"
  type: "Convolution"
  bottom: "conv6_2"
  top: "conv6_2_mbox_loc"
  param {
    lr_mult: 1
    decay_mult: 1
  }
  param {
    lr_mult: 2
    decay_mult: 0
  }
  convolution_param {
    num_output: 24
    pad: 1
    kernel_size: 3
    stride: 1
    weight_filler {
      type: "xavier"
    }
    bias_filler {
      type: "constant"
      value: 0
    }
  }
}
layer {
  name: "conv6_2_mbox_loc_perm"
  type: "Permute"
  bottom: "conv6_2_mbox_loc"
  top: "conv6_2_mbox_loc_perm"
  permute_param {
    order: 0
    order: 2
    order: 3
    order: 1
  }
}
layer {
  name: "conv6_2_mbox_loc_flat"
  type: "Flatten"
  bottom: "conv6_2_mbox_loc_perm"
  top: "conv6_2_mbox_loc_flat"
  flatten_param {
    axis: 1
  }
}
layer {
  name: "conv6_2_mbox_conf"
  type: "Convolution"
  bottom: "conv6_2"
  top: "conv6_2_mbox_conf"
  param {
    lr_mult: 1
    decay_mult: 1
  }
  param {
    lr_mult: 2
    decay_mult: 0
  }
  convolution_param {
    num_output: 12
    pad: 1
    kernel_size: 3
    stride: 1
    weight_filler {
      type: "xavier"
    }
    bias_filler {
      type: "constant"
      value: 0
    }
  }
}
layer {
  name: "conv6_2_mbox_conf_perm"
  type: "Permute"
  bottom: "conv6_2_mbox_conf"
  top: "conv6_2_mbox_conf_perm"
  permute_param {
    order: 0
    order: 2
    order: 3
    order: 1
  }
}
layer {
  name: "conv6_2_mbox_conf_flat"
  type: "Flatten"
  bottom: "conv6_2_mbox_conf_perm"
  top: "conv6_2_mbox_conf_flat"
  flatten_param {
    axis: 1
  }
}
layer {
  name: "conv6_2_mbox_priorbox"
  type: "PriorBox"
  bottom: "conv6_2"
  bottom: "data"
  top: "conv6_2_mbox_priorbox"
  prior_box_param {
    min_size: 111
    max_size: 162
    aspect_ratio: 2
    aspect_ratio: 3
    flip: true
    clip: false
    variance: 0.1
    variance: 0.1
    variance: 0.2
    variance: 0.2
    step: 32
    offset: 0.5
  }
}
layer {
  name: "conv7_2_mbox_loc"
  type: "Convolution"
  bottom: "conv7_2"
  top: "conv7_2_mbox_loc"
  param {
    lr_mult: 1
    decay_mult: 1
  }
  param {
    lr_mult: 2
    decay_mult: 0
  }
  convolution_param {
    num_output: 24
    pad: 1
    kernel_size: 3
    stride: 1
    weight_filler {
      type: "xavier"
    }
    bias_filler {
      type: "constant"
      value: 0
    }
  }
}
layer {
  name: "conv7_2_mbox_loc_perm"
  type: "Permute"
  bottom: "conv7_2_mbox_loc"
  top: "conv7_2_mbox_loc_perm"
  permute_param {
    order: 0
    order: 2
    order: 3
    order: 1
  }
}
layer {
  name: "conv7_2_mbox_loc_flat"
  type: "Flatten"
  bottom: "conv7_2_mbox_loc_perm"
  top: "conv7_2_mbox_loc_flat"
  flatten_param {
    axis: 1
  }
}
layer {
  name: "conv7_2_mbox_conf"
  type: "Convolution"
  bottom: "conv7_2"
  top: "conv7_2_mbox_conf"
  param {
    lr_mult: 1
    decay_mult: 1
  }
  param {
    lr_mult: 2
    decay_mult: 0
  }
  convolution_param {
    num_output: 12
    pad: 1
    kernel_size: 3
    stride: 1
    weight_filler {
      type: "xavier"
    }
    bias_filler {
      type: "constant"
      value: 0
    }
  }
}
layer {
  name: "conv7_2_mbox_conf_perm"
  type: "Permute"
  bottom: "conv7_2_mbox_conf"
  top: "conv7_2_mbox_conf_perm"
  permute_param {
    order: 0
    order: 2
    order: 3
    order: 1
  }
}
layer {
  name: "conv7_2_mbox_conf_flat"
  type: "Flatten"
  bottom: "conv7_2_mbox_conf_perm"
  top: "conv7_2_mbox_conf_flat"
  flatten_param {
    axis: 1
  }
}
layer {
  name: "conv7_2_mbox_priorbox"
  type: "PriorBox"
  bottom: "conv7_2"
  bottom: "data"
  top: "conv7_2_mbox_priorbox"
  prior_box_param {
    min_size: 162
    max_size: 213
    aspect_ratio: 2
    aspect_ratio: 3
    flip: true
    clip: false
    variance: 0.1
    variance: 0.1
    variance: 0.2
    variance: 0.2
    step: 64
    offset: 0.5
  }
}
layer {
  name: "conv8_2_mbox_loc"
  type: "Convolution"
  bottom: "conv8_2"
  top: "conv8_2_mbox_loc"
  param {
    lr_mult: 1
    decay_mult: 1
  }
  param {
    lr_mult: 2
    decay_mult: 0
  }
  convolution_param {
    num_output: 16
    pad: 1
    kernel_size: 3
    stride: 1
    weight_filler {
      type: "xavier"
    }
    bias_filler {
      type: "constant"
      value: 0
    }
  }
}
layer {
  name: "conv8_2_mbox_loc_perm"
  type: "Permute"
  bottom: "conv8_2_mbox_loc"
  top: "conv8_2_mbox_loc_perm"
  permute_param {
    order: 0
    order: 2
    order: 3
    order: 1
  }
}
layer {
  name: "conv8_2_mbox_loc_flat"
  type: "Flatten"
  bottom: "conv8_2_mbox_loc_perm"
  top: "conv8_2_mbox_loc_flat"
  flatten_param {
    axis: 1
  }
}
layer {
  name: "conv8_2_mbox_conf"
  type: "Convolution"
  bottom: "conv8_2"
  top: "conv8_2_mbox_conf"
  param {
    lr_mult: 1
    decay_mult: 1
  }
  param {
    lr_mult: 2
    decay_mult: 0
  }
  convolution_param {
    num_output: 8
    pad: 1
    kernel_size: 3
    stride: 1
    weight_filler {
      type: "xavier"
    }
    bias_filler {
      type: "constant"
      value: 0
    }
  }
}
layer {
  name: "conv8_2_mbox_conf_perm"
  type: "Permute"
  bottom: "conv8_2_mbox_conf"
  top: "conv8_2_mbox_conf_perm"
  permute_param {
    order: 0
    order: 2
    order: 3
    order: 1
  }
}
layer {
  name: "conv8_2_mbox_conf_flat"
  type: "Flatten"
  bottom: "conv8_2_mbox_conf_perm"
  top: "conv8_2_mbox_conf_flat"
  flatten_param {
    axis: 1
  }
}
layer {
  name: "conv8_2_mbox_priorbox"
  type: "PriorBox"
  bottom: "conv8_2"
  bottom: "data"
  top: "conv8_2_mbox_priorbox"
  prior_box_param {
    min_size: 213
    max_size: 264
    aspect_ratio: 2
    flip: true
    clip: false
    variance: 0.1
    variance: 0.1
    variance: 0.2
    variance: 0.2
    step: 100
    offset: 0.5
  }
}
layer {
  name: "conv9_2_mbox_loc"
  type: "Convolution"
  bottom: "conv9_2"
  top: "conv9_2_mbox_loc"
  param {
    lr_mult: 1
    decay_mult: 1
  }
  param {
    lr_mult: 2
    decay_mult: 0
  }
  convolution_param {
    num_output: 16
    pad: 1
    kernel_size: 3
    stride: 1
    weight_filler {
      type: "xavier"
    }
    bias_filler {
      type: "constant"
      value: 0
    }
  }
}
layer {
  name: "conv9_2_mbox_loc_perm"
  type: "Permute"
  bottom: "conv9_2_mbox_loc"
  top: "conv9_2_mbox_loc_perm"
  permute_param {
    order: 0
    order: 2
    order: 3
    order: 1
  }
}
layer {
  name: "conv9_2_mbox_loc_flat"
  type: "Flatten"
  bottom: "conv9_2_mbox_loc_perm"
  top: "conv9_2_mbox_loc_flat"
  flatten_param {
    axis: 1
  }
}
layer {
  name: "conv9_2_mbox_conf"
  type: "Convolution"
  bottom: "conv9_2"
  top: "conv9_2_mbox_conf"
  param {
    lr_mult: 1
    decay_mult: 1
  }
  param {
    lr_mult: 2
    decay_mult: 0
  }
  convolution_param {
    num_output: 8
    pad: 1
    kernel_size: 3
    stride: 1
    weight_filler {
      type: "xavier"
    }
    bias_filler {
      type: "constant"
      value: 0
    }
  }
}
layer {
  name: "conv9_2_mbox_conf_perm"
  type: "Permute"
  bottom: "conv9_2_mbox_conf"
  top: "conv9_2_mbox_conf_perm"
  permute_param {
    order: 0
    order: 2
    order: 3
    order: 1
  }
}
layer {
  name: "conv9_2_mbox_conf_flat"
  type: "Flatten"
  bottom: "conv9_2_mbox_conf_perm"
  top: "conv9_2_mbox_conf_flat"
  flatten_param {
    axis: 1
  }
}
layer {
  name: "conv9_2_mbox_priorbox"
  type: "PriorBox"
  bottom: "conv9_2"
  bottom: "data"
  top: "conv9_2_mbox_priorbox"
  prior_box_param {
    min_size: 264
    max_size: 315
    aspect_ratio: 2
    flip: true
    clip: false
    variance: 0.1
    variance: 0.1
    variance: 0.2
    variance: 0.2
    step: 300
    offset: 0.5
  }
}
layer {
  name: "mbox_loc"
  type: "Concat"
  bottom: "conv4_3_norm_mbox_loc_flat"
  bottom: "fc7_mbox_loc_flat"
  bottom: "conv6_2_mbox_loc_flat"
  bottom: "conv7_2_mbox_loc_flat"
  bottom: "conv8_2_mbox_loc_flat"
  bottom: "conv9_2_mbox_loc_flat"
  top: "mbox_loc"
  concat_param {
    axis: 1
  }
}
layer {
  name: "mbox_conf"
  type: "Concat"
  bottom: "conv4_3_norm_mbox_conf_flat"
  bottom: "fc7_mbox_conf_flat"
  bottom: "conv6_2_mbox_conf_flat"
  bottom: "conv7_2_mbox_conf_flat"
  bottom: "conv8_2_mbox_conf_flat"
  bottom: "conv9_2_mbox_conf_flat"
  top: "mbox_conf"
  concat_param {
    axis: 1
  }
}
layer {
  name: "mbox_priorbox"
  type: "Concat"
  bottom: "conv4_3_norm_mbox_priorbox"
  bottom: "fc7_mbox_priorbox"
  bottom: "conv6_2_mbox_priorbox"
  bottom: "conv7_2_mbox_priorbox"
  bottom: "conv8_2_mbox_priorbox"
  bottom: "conv9_2_mbox_priorbox"
  top: "mbox_priorbox"
  concat_param {
    axis: 2
  }
}
layer {
  name: "mbox_loss"
  type: "MultiBoxLoss"
  bottom: "mbox_loc"
  bottom: "mbox_conf"
  bottom: "mbox_priorbox"
  bottom: "label"
  top: "mbox_loss"
  include {
    phase: TRAIN
  }
  propagate_down: true
  propagate_down: true
  propagate_down: false
  propagate_down: false
  loss_param {
    normalization: VALID
  }
  multibox_loss_param {
    loc_loss_type: SMOOTH_L1
    conf_loss_type: SOFTMAX
    loc_weight: 1
    num_classes: 2
    share_location: true
    match_type: PER_PREDICTION
    overlap_threshold: 0.5
    use_prior_for_matching: true
    background_label_id: 0
    use_difficult_gt: true
    neg_pos_ratio: 3
    neg_overlap: 0.5
    code_type: CENTER_SIZE
    ignore_cross_boundary_bbox: false
    mining_type: MAX_NEGATIVE
  }
}
I0609 15:32:12.328002 31566 layer_factory.hpp:77] Creating layer data
I0609 15:32:12.328126 31566 net.cpp:100] Creating Layer data
I0609 15:32:12.328155 31566 net.cpp:408] data -> data
I0609 15:32:12.328186 31566 net.cpp:408] data -> label
I0609 15:32:12.328573 31579 db_lmdb.cpp:35] Opened lmdb examples/sharpen_tbs_v2.0/sharpen_tbs_v2.0_trainval_lmdb
I0609 15:32:12.338030 31566 annotated_data_layer.cpp:62] output data size: 32,3,300,300
I0609 15:32:12.397032 31566 net.cpp:150] Setting up data
I0609 15:32:12.397079 31566 net.cpp:157] Top shape: 32 3 300 300 (8640000)
I0609 15:32:12.397083 31566 net.cpp:157] Top shape: 1 1 1 8 (8)
I0609 15:32:12.397094 31566 net.cpp:165] Memory required for data: 34560032
I0609 15:32:12.397117 31566 layer_factory.hpp:77] Creating layer data_data_0_split
I0609 15:32:12.397140 31566 net.cpp:100] Creating Layer data_data_0_split
I0609 15:32:12.397146 31566 net.cpp:434] data_data_0_split <- data
I0609 15:32:12.397157 31566 net.cpp:408] data_data_0_split -> data_data_0_split_0
I0609 15:32:12.397167 31566 net.cpp:408] data_data_0_split -> data_data_0_split_1
I0609 15:32:12.397172 31566 net.cpp:408] data_data_0_split -> data_data_0_split_2
I0609 15:32:12.397178 31566 net.cpp:408] data_data_0_split -> data_data_0_split_3
I0609 15:32:12.397182 31566 net.cpp:408] data_data_0_split -> data_data_0_split_4
I0609 15:32:12.397186 31566 net.cpp:408] data_data_0_split -> data_data_0_split_5
I0609 15:32:12.397192 31566 net.cpp:408] data_data_0_split -> data_data_0_split_6
I0609 15:32:12.397263 31566 net.cpp:150] Setting up data_data_0_split
I0609 15:32:12.397269 31566 net.cpp:157] Top shape: 32 3 300 300 (8640000)
I0609 15:32:12.397271 31566 net.cpp:157] Top shape: 32 3 300 300 (8640000)
I0609 15:32:12.397274 31566 net.cpp:157] Top shape: 32 3 300 300 (8640000)
I0609 15:32:12.397277 31566 net.cpp:157] Top shape: 32 3 300 300 (8640000)
I0609 15:32:12.397280 31566 net.cpp:157] Top shape: 32 3 300 300 (8640000)
I0609 15:32:12.397282 31566 net.cpp:157] Top shape: 32 3 300 300 (8640000)
I0609 15:32:12.397285 31566 net.cpp:157] Top shape: 32 3 300 300 (8640000)
I0609 15:32:12.397287 31566 net.cpp:165] Memory required for data: 276480032
I0609 15:32:12.397289 31566 layer_factory.hpp:77] Creating layer conv1_1
I0609 15:32:12.397305 31566 net.cpp:100] Creating Layer conv1_1
I0609 15:32:12.397310 31566 net.cpp:434] conv1_1 <- data_data_0_split_0
I0609 15:32:12.397315 31566 net.cpp:408] conv1_1 -> conv1_1
I0609 15:32:12.578711 31566 net.cpp:150] Setting up conv1_1
I0609 15:32:12.578730 31566 net.cpp:157] Top shape: 32 64 300 300 (184320000)
I0609 15:32:12.578733 31566 net.cpp:165] Memory required for data: 1013760032
I0609 15:32:12.578748 31566 layer_factory.hpp:77] Creating layer relu1_1
I0609 15:32:12.578771 31566 net.cpp:100] Creating Layer relu1_1
I0609 15:32:12.578775 31566 net.cpp:434] relu1_1 <- conv1_1
I0609 15:32:12.578780 31566 net.cpp:395] relu1_1 -> conv1_1 (in-place)
I0609 15:32:12.578960 31566 net.cpp:150] Setting up relu1_1
I0609 15:32:12.578968 31566 net.cpp:157] Top shape: 32 64 300 300 (184320000)
I0609 15:32:12.578969 31566 net.cpp:165] Memory required for data: 1751040032
I0609 15:32:12.578972 31566 layer_factory.hpp:77] Creating layer conv1_2
I0609 15:32:12.578982 31566 net.cpp:100] Creating Layer conv1_2
I0609 15:32:12.579000 31566 net.cpp:434] conv1_2 <- conv1_1
I0609 15:32:12.579005 31566 net.cpp:408] conv1_2 -> conv1_2
I0609 15:32:12.581368 31566 net.cpp:150] Setting up conv1_2
I0609 15:32:12.581380 31566 net.cpp:157] Top shape: 32 64 300 300 (184320000)
I0609 15:32:12.581384 31566 net.cpp:165] Memory required for data: 2488320032
I0609 15:32:12.581405 31566 layer_factory.hpp:77] Creating layer relu1_2
I0609 15:32:12.581425 31566 net.cpp:100] Creating Layer relu1_2
I0609 15:32:12.581429 31566 net.cpp:434] relu1_2 <- conv1_2
I0609 15:32:12.581434 31566 net.cpp:395] relu1_2 -> conv1_2 (in-place)
I0609 15:32:12.582015 31566 net.cpp:150] Setting up relu1_2
I0609 15:32:12.582023 31566 net.cpp:157] Top shape: 32 64 300 300 (184320000)
I0609 15:32:12.582026 31566 net.cpp:165] Memory required for data: 3225600032
I0609 15:32:12.582029 31566 layer_factory.hpp:77] Creating layer pool1
I0609 15:32:12.582034 31566 net.cpp:100] Creating Layer pool1
I0609 15:32:12.582038 31566 net.cpp:434] pool1 <- conv1_2
I0609 15:32:12.582042 31566 net.cpp:408] pool1 -> pool1
I0609 15:32:12.582094 31566 net.cpp:150] Setting up pool1
I0609 15:32:12.582099 31566 net.cpp:157] Top shape: 32 64 150 150 (46080000)
I0609 15:32:12.582101 31566 net.cpp:165] Memory required for data: 3409920032
I0609 15:32:12.582103 31566 layer_factory.hpp:77] Creating layer conv2_1
I0609 15:32:12.582110 31566 net.cpp:100] Creating Layer conv2_1
I0609 15:32:12.582124 31566 net.cpp:434] conv2_1 <- pool1
I0609 15:32:12.582129 31566 net.cpp:408] conv2_1 -> conv2_1
I0609 15:32:12.583386 31566 net.cpp:150] Setting up conv2_1
I0609 15:32:12.583396 31566 net.cpp:157] Top shape: 32 128 150 150 (92160000)
I0609 15:32:12.583398 31566 net.cpp:165] Memory required for data: 3778560032
I0609 15:32:12.583405 31566 layer_factory.hpp:77] Creating layer relu2_1
I0609 15:32:12.583412 31566 net.cpp:100] Creating Layer relu2_1
I0609 15:32:12.583416 31566 net.cpp:434] relu2_1 <- conv2_1
I0609 15:32:12.583420 31566 net.cpp:395] relu2_1 -> conv2_1 (in-place)
I0609 15:32:12.583971 31566 net.cpp:150] Setting up relu2_1
I0609 15:32:12.583979 31566 net.cpp:157] Top shape: 32 128 150 150 (92160000)
I0609 15:32:12.583982 31566 net.cpp:165] Memory required for data: 4147200032
I0609 15:32:12.583986 31566 layer_factory.hpp:77] Creating layer conv2_2
I0609 15:32:12.583992 31566 net.cpp:100] Creating Layer conv2_2
I0609 15:32:12.583995 31566 net.cpp:434] conv2_2 <- conv2_1
I0609 15:32:12.584002 31566 net.cpp:408] conv2_2 -> conv2_2
I0609 15:32:12.585939 31566 net.cpp:150] Setting up conv2_2
I0609 15:32:12.585948 31566 net.cpp:157] Top shape: 32 128 150 150 (92160000)
I0609 15:32:12.585950 31566 net.cpp:165] Memory required for data: 4515840032
I0609 15:32:12.585957 31566 layer_factory.hpp:77] Creating layer relu2_2
I0609 15:32:12.585960 31566 net.cpp:100] Creating Layer relu2_2
I0609 15:32:12.585963 31566 net.cpp:434] relu2_2 <- conv2_2
I0609 15:32:12.585966 31566 net.cpp:395] relu2_2 -> conv2_2 (in-place)
I0609 15:32:12.586099 31566 net.cpp:150] Setting up relu2_2
I0609 15:32:12.586105 31566 net.cpp:157] Top shape: 32 128 150 150 (92160000)
I0609 15:32:12.586107 31566 net.cpp:165] Memory required for data: 4884480032
I0609 15:32:12.586110 31566 layer_factory.hpp:77] Creating layer pool2
I0609 15:32:12.586114 31566 net.cpp:100] Creating Layer pool2
I0609 15:32:12.586117 31566 net.cpp:434] pool2 <- conv2_2
I0609 15:32:12.586122 31566 net.cpp:408] pool2 -> pool2
I0609 15:32:12.586153 31566 net.cpp:150] Setting up pool2
I0609 15:32:12.586158 31566 net.cpp:157] Top shape: 32 128 75 75 (23040000)
I0609 15:32:12.586160 31566 net.cpp:165] Memory required for data: 4976640032
I0609 15:32:12.586163 31566 layer_factory.hpp:77] Creating layer conv3_1
I0609 15:32:12.586168 31566 net.cpp:100] Creating Layer conv3_1
I0609 15:32:12.586185 31566 net.cpp:434] conv3_1 <- pool2
I0609 15:32:12.586189 31566 net.cpp:408] conv3_1 -> conv3_1
I0609 15:32:12.589989 31566 net.cpp:150] Setting up conv3_1
I0609 15:32:12.590006 31566 net.cpp:157] Top shape: 32 256 75 75 (46080000)
I0609 15:32:12.590009 31566 net.cpp:165] Memory required for data: 5160960032
I0609 15:32:12.590034 31566 layer_factory.hpp:77] Creating layer relu3_1
I0609 15:32:12.590041 31566 net.cpp:100] Creating Layer relu3_1
I0609 15:32:12.590044 31566 net.cpp:434] relu3_1 <- conv3_1
I0609 15:32:12.590060 31566 net.cpp:395] relu3_1 -> conv3_1 (in-place)
I0609 15:32:12.590206 31566 net.cpp:150] Setting up relu3_1
I0609 15:32:12.590214 31566 net.cpp:157] Top shape: 32 256 75 75 (46080000)
I0609 15:32:12.590216 31566 net.cpp:165] Memory required for data: 5345280032
I0609 15:32:12.590219 31566 layer_factory.hpp:77] Creating layer conv3_2
I0609 15:32:12.590227 31566 net.cpp:100] Creating Layer conv3_2
I0609 15:32:12.590229 31566 net.cpp:434] conv3_2 <- conv3_1
I0609 15:32:12.590234 31566 net.cpp:408] conv3_2 -> conv3_2
I0609 15:32:12.594707 31566 net.cpp:150] Setting up conv3_2
I0609 15:32:12.594725 31566 net.cpp:157] Top shape: 32 256 75 75 (46080000)
I0609 15:32:12.594727 31566 net.cpp:165] Memory required for data: 5529600032
I0609 15:32:12.594735 31566 layer_factory.hpp:77] Creating layer relu3_2
I0609 15:32:12.594743 31566 net.cpp:100] Creating Layer relu3_2
I0609 15:32:12.594746 31566 net.cpp:434] relu3_2 <- conv3_2
I0609 15:32:12.594750 31566 net.cpp:395] relu3_2 -> conv3_2 (in-place)
I0609 15:32:12.594872 31566 net.cpp:150] Setting up relu3_2
I0609 15:32:12.594879 31566 net.cpp:157] Top shape: 32 256 75 75 (46080000)
I0609 15:32:12.594882 31566 net.cpp:165] Memory required for data: 5713920032
I0609 15:32:12.594897 31566 layer_factory.hpp:77] Creating layer conv3_3
I0609 15:32:12.594905 31566 net.cpp:100] Creating Layer conv3_3
I0609 15:32:12.594908 31566 net.cpp:434] conv3_3 <- conv3_2
I0609 15:32:12.594913 31566 net.cpp:408] conv3_3 -> conv3_3
I0609 15:32:12.599431 31566 net.cpp:150] Setting up conv3_3
I0609 15:32:12.599444 31566 net.cpp:157] Top shape: 32 256 75 75 (46080000)
I0609 15:32:12.599448 31566 net.cpp:165] Memory required for data: 5898240032
I0609 15:32:12.599454 31566 layer_factory.hpp:77] Creating layer relu3_3
I0609 15:32:12.599460 31566 net.cpp:100] Creating Layer relu3_3
I0609 15:32:12.599462 31566 net.cpp:434] relu3_3 <- conv3_3
I0609 15:32:12.599468 31566 net.cpp:395] relu3_3 -> conv3_3 (in-place)
I0609 15:32:12.599603 31566 net.cpp:150] Setting up relu3_3
I0609 15:32:12.599611 31566 net.cpp:157] Top shape: 32 256 75 75 (46080000)
I0609 15:32:12.599612 31566 net.cpp:165] Memory required for data: 6082560032
I0609 15:32:12.599616 31566 layer_factory.hpp:77] Creating layer pool3
I0609 15:32:12.599620 31566 net.cpp:100] Creating Layer pool3
I0609 15:32:12.599622 31566 net.cpp:434] pool3 <- conv3_3
I0609 15:32:12.599627 31566 net.cpp:408] pool3 -> pool3
I0609 15:32:12.599658 31566 net.cpp:150] Setting up pool3
I0609 15:32:12.599663 31566 net.cpp:157] Top shape: 32 256 38 38 (11829248)
I0609 15:32:12.599664 31566 net.cpp:165] Memory required for data: 6129877024
I0609 15:32:12.599666 31566 layer_factory.hpp:77] Creating layer conv4_1
I0609 15:32:12.599673 31566 net.cpp:100] Creating Layer conv4_1
I0609 15:32:12.599674 31566 net.cpp:434] conv4_1 <- pool3
I0609 15:32:12.599678 31566 net.cpp:408] conv4_1 -> conv4_1
I0609 15:32:12.607743 31566 net.cpp:150] Setting up conv4_1
I0609 15:32:12.607761 31566 net.cpp:157] Top shape: 32 512 38 38 (23658496)
I0609 15:32:12.607764 31566 net.cpp:165] Memory required for data: 6224511008
I0609 15:32:12.607771 31566 layer_factory.hpp:77] Creating layer relu4_1
I0609 15:32:12.607777 31566 net.cpp:100] Creating Layer relu4_1
I0609 15:32:12.607796 31566 net.cpp:434] relu4_1 <- conv4_1
I0609 15:32:12.607802 31566 net.cpp:395] relu4_1 -> conv4_1 (in-place)
I0609 15:32:12.608726 31566 net.cpp:150] Setting up relu4_1
I0609 15:32:12.608736 31566 net.cpp:157] Top shape: 32 512 38 38 (23658496)
I0609 15:32:12.608739 31566 net.cpp:165] Memory required for data: 6319144992
I0609 15:32:12.608742 31566 layer_factory.hpp:77] Creating layer conv4_2
I0609 15:32:12.608752 31566 net.cpp:100] Creating Layer conv4_2
I0609 15:32:12.608770 31566 net.cpp:434] conv4_2 <- conv4_1
I0609 15:32:12.608777 31566 net.cpp:408] conv4_2 -> conv4_2
I0609 15:32:12.620939 31566 net.cpp:150] Setting up conv4_2
I0609 15:32:12.620965 31566 net.cpp:157] Top shape: 32 512 38 38 (23658496)
I0609 15:32:12.620967 31566 net.cpp:165] Memory required for data: 6413778976
I0609 15:32:12.620980 31566 layer_factory.hpp:77] Creating layer relu4_2
I0609 15:32:12.620987 31566 net.cpp:100] Creating Layer relu4_2
I0609 15:32:12.620990 31566 net.cpp:434] relu4_2 <- conv4_2
I0609 15:32:12.620995 31566 net.cpp:395] relu4_2 -> conv4_2 (in-place)
I0609 15:32:12.621966 31566 net.cpp:150] Setting up relu4_2
I0609 15:32:12.621975 31566 net.cpp:157] Top shape: 32 512 38 38 (23658496)
I0609 15:32:12.621978 31566 net.cpp:165] Memory required for data: 6508412960
I0609 15:32:12.621980 31566 layer_factory.hpp:77] Creating layer conv4_3
I0609 15:32:12.621989 31566 net.cpp:100] Creating Layer conv4_3
I0609 15:32:12.621992 31566 net.cpp:434] conv4_3 <- conv4_2
I0609 15:32:12.622011 31566 net.cpp:408] conv4_3 -> conv4_3
I0609 15:32:12.634938 31566 net.cpp:150] Setting up conv4_3
I0609 15:32:12.634958 31566 net.cpp:157] Top shape: 32 512 38 38 (23658496)
I0609 15:32:12.634959 31566 net.cpp:165] Memory required for data: 6603046944
I0609 15:32:12.634966 31566 layer_factory.hpp:77] Creating layer relu4_3
I0609 15:32:12.634974 31566 net.cpp:100] Creating Layer relu4_3
I0609 15:32:12.634977 31566 net.cpp:434] relu4_3 <- conv4_3
I0609 15:32:12.634982 31566 net.cpp:395] relu4_3 -> conv4_3 (in-place)
I0609 15:32:12.635154 31566 net.cpp:150] Setting up relu4_3
I0609 15:32:12.635161 31566 net.cpp:157] Top shape: 32 512 38 38 (23658496)
I0609 15:32:12.635179 31566 net.cpp:165] Memory required for data: 6697680928
I0609 15:32:12.635181 31566 layer_factory.hpp:77] Creating layer conv4_3_relu4_3_0_split
I0609 15:32:12.635187 31566 net.cpp:100] Creating Layer conv4_3_relu4_3_0_split
I0609 15:32:12.635205 31566 net.cpp:434] conv4_3_relu4_3_0_split <- conv4_3
I0609 15:32:12.635211 31566 net.cpp:408] conv4_3_relu4_3_0_split -> conv4_3_relu4_3_0_split_0
I0609 15:32:12.635218 31566 net.cpp:408] conv4_3_relu4_3_0_split -> conv4_3_relu4_3_0_split_1
I0609 15:32:12.635249 31566 net.cpp:150] Setting up conv4_3_relu4_3_0_split
I0609 15:32:12.635253 31566 net.cpp:157] Top shape: 32 512 38 38 (23658496)
I0609 15:32:12.635257 31566 net.cpp:157] Top shape: 32 512 38 38 (23658496)
I0609 15:32:12.635258 31566 net.cpp:165] Memory required for data: 6886948896
I0609 15:32:12.635260 31566 layer_factory.hpp:77] Creating layer pool4
I0609 15:32:12.635265 31566 net.cpp:100] Creating Layer pool4
I0609 15:32:12.635269 31566 net.cpp:434] pool4 <- conv4_3_relu4_3_0_split_0
I0609 15:32:12.635287 31566 net.cpp:408] pool4 -> pool4
I0609 15:32:12.635326 31566 net.cpp:150] Setting up pool4
I0609 15:32:12.635344 31566 net.cpp:157] Top shape: 32 512 19 19 (5914624)
I0609 15:32:12.635347 31566 net.cpp:165] Memory required for data: 6910607392
I0609 15:32:12.635349 31566 layer_factory.hpp:77] Creating layer conv5_1
I0609 15:32:12.635356 31566 net.cpp:100] Creating Layer conv5_1
I0609 15:32:12.635360 31566 net.cpp:434] conv5_1 <- pool4
I0609 15:32:12.635365 31566 net.cpp:408] conv5_1 -> conv5_1
I0609 15:32:12.648531 31566 net.cpp:150] Setting up conv5_1
I0609 15:32:12.648547 31566 net.cpp:157] Top shape: 32 512 19 19 (5914624)
I0609 15:32:12.648550 31566 net.cpp:165] Memory required for data: 6934265888
I0609 15:32:12.648556 31566 layer_factory.hpp:77] Creating layer relu5_1
I0609 15:32:12.648562 31566 net.cpp:100] Creating Layer relu5_1
I0609 15:32:12.648566 31566 net.cpp:434] relu5_1 <- conv5_1
I0609 15:32:12.648586 31566 net.cpp:395] relu5_1 -> conv5_1 (in-place)
I0609 15:32:12.648798 31566 net.cpp:150] Setting up relu5_1
I0609 15:32:12.648808 31566 net.cpp:157] Top shape: 32 512 19 19 (5914624)
I0609 15:32:12.648811 31566 net.cpp:165] Memory required for data: 6957924384
I0609 15:32:12.648814 31566 layer_factory.hpp:77] Creating layer conv5_2
I0609 15:32:12.648840 31566 net.cpp:100] Creating Layer conv5_2
I0609 15:32:12.648845 31566 net.cpp:434] conv5_2 <- conv5_1
I0609 15:32:12.648849 31566 net.cpp:408] conv5_2 -> conv5_2
I0609 15:32:12.661810 31566 net.cpp:150] Setting up conv5_2
I0609 15:32:12.661829 31566 net.cpp:157] Top shape: 32 512 19 19 (5914624)
I0609 15:32:12.661833 31566 net.cpp:165] Memory required for data: 6981582880
I0609 15:32:12.661839 31566 layer_factory.hpp:77] Creating layer relu5_2
I0609 15:32:12.661861 31566 net.cpp:100] Creating Layer relu5_2
I0609 15:32:12.661864 31566 net.cpp:434] relu5_2 <- conv5_2
I0609 15:32:12.661870 31566 net.cpp:395] relu5_2 -> conv5_2 (in-place)
I0609 15:32:12.662022 31566 net.cpp:150] Setting up relu5_2
I0609 15:32:12.662045 31566 net.cpp:157] Top shape: 32 512 19 19 (5914624)
I0609 15:32:12.662046 31566 net.cpp:165] Memory required for data: 7005241376
I0609 15:32:12.662048 31566 layer_factory.hpp:77] Creating layer conv5_3
I0609 15:32:12.662070 31566 net.cpp:100] Creating Layer conv5_3
I0609 15:32:12.662072 31566 net.cpp:434] conv5_3 <- conv5_2
I0609 15:32:12.662078 31566 net.cpp:408] conv5_3 -> conv5_3
I0609 15:32:12.675549 31566 net.cpp:150] Setting up conv5_3
I0609 15:32:12.675565 31566 net.cpp:157] Top shape: 32 512 19 19 (5914624)
I0609 15:32:12.675567 31566 net.cpp:165] Memory required for data: 7028899872
I0609 15:32:12.675575 31566 layer_factory.hpp:77] Creating layer relu5_3
I0609 15:32:12.675601 31566 net.cpp:100] Creating Layer relu5_3
I0609 15:32:12.675606 31566 net.cpp:434] relu5_3 <- conv5_3
I0609 15:32:12.675624 31566 net.cpp:395] relu5_3 -> conv5_3 (in-place)
I0609 15:32:12.675788 31566 net.cpp:150] Setting up relu5_3
I0609 15:32:12.675796 31566 net.cpp:157] Top shape: 32 512 19 19 (5914624)
I0609 15:32:12.675798 31566 net.cpp:165] Memory required for data: 7052558368
I0609 15:32:12.675801 31566 layer_factory.hpp:77] Creating layer pool5
I0609 15:32:12.675806 31566 net.cpp:100] Creating Layer pool5
I0609 15:32:12.675809 31566 net.cpp:434] pool5 <- conv5_3
I0609 15:32:12.675813 31566 net.cpp:408] pool5 -> pool5
I0609 15:32:12.675876 31566 net.cpp:150] Setting up pool5
I0609 15:32:12.675881 31566 net.cpp:157] Top shape: 32 512 19 19 (5914624)
I0609 15:32:12.675884 31566 net.cpp:165] Memory required for data: 7076216864
I0609 15:32:12.675885 31566 layer_factory.hpp:77] Creating layer fc6
I0609 15:32:12.675892 31566 net.cpp:100] Creating Layer fc6
I0609 15:32:12.675896 31566 net.cpp:434] fc6 <- pool5
I0609 15:32:12.675902 31566 net.cpp:408] fc6 -> fc6
I0609 15:32:12.698361 31566 net.cpp:150] Setting up fc6
I0609 15:32:12.698379 31566 net.cpp:157] Top shape: 32 1024 19 19 (11829248)
I0609 15:32:12.698382 31566 net.cpp:165] Memory required for data: 7123533856
I0609 15:32:12.698388 31566 layer_factory.hpp:77] Creating layer relu6
I0609 15:32:12.698411 31566 net.cpp:100] Creating Layer relu6
I0609 15:32:12.698415 31566 net.cpp:434] relu6 <- fc6
I0609 15:32:12.698420 31566 net.cpp:395] relu6 -> fc6 (in-place)
I0609 15:32:12.699206 31566 net.cpp:150] Setting up relu6
I0609 15:32:12.699215 31566 net.cpp:157] Top shape: 32 1024 19 19 (11829248)
I0609 15:32:12.699218 31566 net.cpp:165] Memory required for data: 7170850848
I0609 15:32:12.699220 31566 layer_factory.hpp:77] Creating layer fc7
I0609 15:32:12.699229 31566 net.cpp:100] Creating Layer fc7
I0609 15:32:12.699231 31566 net.cpp:434] fc7 <- fc6
I0609 15:32:12.699252 31566 net.cpp:408] fc7 -> fc7
I0609 15:32:12.706208 31566 net.cpp:150] Setting up fc7
I0609 15:32:12.706225 31566 net.cpp:157] Top shape: 32 1024 19 19 (11829248)
I0609 15:32:12.706228 31566 net.cpp:165] Memory required for data: 7218167840
I0609 15:32:12.706235 31566 layer_factory.hpp:77] Creating layer relu7
I0609 15:32:12.706241 31566 net.cpp:100] Creating Layer relu7
I0609 15:32:12.706245 31566 net.cpp:434] relu7 <- fc7
I0609 15:32:12.706266 31566 net.cpp:395] relu7 -> fc7 (in-place)
I0609 15:32:12.706398 31566 net.cpp:150] Setting up relu7
I0609 15:32:12.706404 31566 net.cpp:157] Top shape: 32 1024 19 19 (11829248)
I0609 15:32:12.706406 31566 net.cpp:165] Memory required for data: 7265484832
I0609 15:32:12.706409 31566 layer_factory.hpp:77] Creating layer fc7_relu7_0_split
I0609 15:32:12.706413 31566 net.cpp:100] Creating Layer fc7_relu7_0_split
I0609 15:32:12.706416 31566 net.cpp:434] fc7_relu7_0_split <- fc7
I0609 15:32:12.706421 31566 net.cpp:408] fc7_relu7_0_split -> fc7_relu7_0_split_0
I0609 15:32:12.706428 31566 net.cpp:408] fc7_relu7_0_split -> fc7_relu7_0_split_1
I0609 15:32:12.706454 31566 net.cpp:408] fc7_relu7_0_split -> fc7_relu7_0_split_2
I0609 15:32:12.706459 31566 net.cpp:408] fc7_relu7_0_split -> fc7_relu7_0_split_3
I0609 15:32:12.706508 31566 net.cpp:150] Setting up fc7_relu7_0_split
I0609 15:32:12.706513 31566 net.cpp:157] Top shape: 32 1024 19 19 (11829248)
I0609 15:32:12.706516 31566 net.cpp:157] Top shape: 32 1024 19 19 (11829248)
I0609 15:32:12.706519 31566 net.cpp:157] Top shape: 32 1024 19 19 (11829248)
I0609 15:32:12.706521 31566 net.cpp:157] Top shape: 32 1024 19 19 (11829248)
I0609 15:32:12.706523 31566 net.cpp:165] Memory required for data: 7454752800
I0609 15:32:12.706526 31566 layer_factory.hpp:77] Creating layer conv6_1
I0609 15:32:12.706535 31566 net.cpp:100] Creating Layer conv6_1
I0609 15:32:12.706538 31566 net.cpp:434] conv6_1 <- fc7_relu7_0_split_0
I0609 15:32:12.706543 31566 net.cpp:408] conv6_1 -> conv6_1
I0609 15:32:12.709803 31566 net.cpp:150] Setting up conv6_1
I0609 15:32:12.709820 31566 net.cpp:157] Top shape: 32 256 19 19 (2957312)
I0609 15:32:12.709821 31566 net.cpp:165] Memory required for data: 7466582048
I0609 15:32:12.709828 31566 layer_factory.hpp:77] Creating layer conv6_1_relu
I0609 15:32:12.709836 31566 net.cpp:100] Creating Layer conv6_1_relu
I0609 15:32:12.709851 31566 net.cpp:434] conv6_1_relu <- conv6_1
I0609 15:32:12.709858 31566 net.cpp:395] conv6_1_relu -> conv6_1 (in-place)
I0609 15:32:12.709995 31566 net.cpp:150] Setting up conv6_1_relu
I0609 15:32:12.710001 31566 net.cpp:157] Top shape: 32 256 19 19 (2957312)
I0609 15:32:12.710005 31566 net.cpp:165] Memory required for data: 7478411296
I0609 15:32:12.710006 31566 layer_factory.hpp:77] Creating layer conv6_2
I0609 15:32:12.710016 31566 net.cpp:100] Creating Layer conv6_2
I0609 15:32:12.710018 31566 net.cpp:434] conv6_2 <- conv6_1
I0609 15:32:12.710024 31566 net.cpp:408] conv6_2 -> conv6_2
I0609 15:32:12.716904 31566 net.cpp:150] Setting up conv6_2
I0609 15:32:12.716923 31566 net.cpp:157] Top shape: 32 512 10 10 (1638400)
I0609 15:32:12.716925 31566 net.cpp:165] Memory required for data: 7484964896
I0609 15:32:12.716938 31566 layer_factory.hpp:77] Creating layer conv6_2_relu
I0609 15:32:12.716944 31566 net.cpp:100] Creating Layer conv6_2_relu
I0609 15:32:12.716950 31566 net.cpp:434] conv6_2_relu <- conv6_2
I0609 15:32:12.716956 31566 net.cpp:395] conv6_2_relu -> conv6_2 (in-place)
I0609 15:32:12.717110 31566 net.cpp:150] Setting up conv6_2_relu
I0609 15:32:12.717118 31566 net.cpp:157] Top shape: 32 512 10 10 (1638400)
I0609 15:32:12.717119 31566 net.cpp:165] Memory required for data: 7491518496
I0609 15:32:12.717121 31566 layer_factory.hpp:77] Creating layer conv6_2_conv6_2_relu_0_split
I0609 15:32:12.717126 31566 net.cpp:100] Creating Layer conv6_2_conv6_2_relu_0_split
I0609 15:32:12.717144 31566 net.cpp:434] conv6_2_conv6_2_relu_0_split <- conv6_2
I0609 15:32:12.717149 31566 net.cpp:408] conv6_2_conv6_2_relu_0_split -> conv6_2_conv6_2_relu_0_split_0
I0609 15:32:12.717155 31566 net.cpp:408] conv6_2_conv6_2_relu_0_split -> conv6_2_conv6_2_relu_0_split_1
I0609 15:32:12.717160 31566 net.cpp:408] conv6_2_conv6_2_relu_0_split -> conv6_2_conv6_2_relu_0_split_2
I0609 15:32:12.717164 31566 net.cpp:408] conv6_2_conv6_2_relu_0_split -> conv6_2_conv6_2_relu_0_split_3
I0609 15:32:12.717232 31566 net.cpp:150] Setting up conv6_2_conv6_2_relu_0_split
I0609 15:32:12.717237 31566 net.cpp:157] Top shape: 32 512 10 10 (1638400)
I0609 15:32:12.717241 31566 net.cpp:157] Top shape: 32 512 10 10 (1638400)
I0609 15:32:12.717242 31566 net.cpp:157] Top shape: 32 512 10 10 (1638400)
I0609 15:32:12.717245 31566 net.cpp:157] Top shape: 32 512 10 10 (1638400)
I0609 15:32:12.717247 31566 net.cpp:165] Memory required for data: 7517732896
I0609 15:32:12.717249 31566 layer_factory.hpp:77] Creating layer conv7_1
I0609 15:32:12.717257 31566 net.cpp:100] Creating Layer conv7_1
I0609 15:32:12.717260 31566 net.cpp:434] conv7_1 <- conv6_2_conv6_2_relu_0_split_0
I0609 15:32:12.717265 31566 net.cpp:408] conv7_1 -> conv7_1
I0609 15:32:12.718618 31566 net.cpp:150] Setting up conv7_1
I0609 15:32:12.718628 31566 net.cpp:157] Top shape: 32 128 10 10 (409600)
I0609 15:32:12.718631 31566 net.cpp:165] Memory required for data: 7519371296
I0609 15:32:12.718636 31566 layer_factory.hpp:77] Creating layer conv7_1_relu
I0609 15:32:12.718639 31566 net.cpp:100] Creating Layer conv7_1_relu
I0609 15:32:12.718642 31566 net.cpp:434] conv7_1_relu <- conv7_1
I0609 15:32:12.718647 31566 net.cpp:395] conv7_1_relu -> conv7_1 (in-place)
I0609 15:32:12.718770 31566 net.cpp:150] Setting up conv7_1_relu
I0609 15:32:12.718776 31566 net.cpp:157] Top shape: 32 128 10 10 (409600)
I0609 15:32:12.718780 31566 net.cpp:165] Memory required for data: 7521009696
I0609 15:32:12.718783 31566 layer_factory.hpp:77] Creating layer conv7_2
I0609 15:32:12.718791 31566 net.cpp:100] Creating Layer conv7_2
I0609 15:32:12.718794 31566 net.cpp:434] conv7_2 <- conv7_1
I0609 15:32:12.718801 31566 net.cpp:408] conv7_2 -> conv7_2
I0609 15:32:12.721617 31566 net.cpp:150] Setting up conv7_2
I0609 15:32:12.721627 31566 net.cpp:157] Top shape: 32 256 5 5 (204800)
I0609 15:32:12.721632 31566 net.cpp:165] Memory required for data: 7521828896
I0609 15:32:12.721637 31566 layer_factory.hpp:77] Creating layer conv7_2_relu
I0609 15:32:12.721642 31566 net.cpp:100] Creating Layer conv7_2_relu
I0609 15:32:12.721654 31566 net.cpp:434] conv7_2_relu <- conv7_2
I0609 15:32:12.721658 31566 net.cpp:395] conv7_2_relu -> conv7_2 (in-place)
I0609 15:32:12.721786 31566 net.cpp:150] Setting up conv7_2_relu
I0609 15:32:12.721793 31566 net.cpp:157] Top shape: 32 256 5 5 (204800)
I0609 15:32:12.721796 31566 net.cpp:165] Memory required for data: 7522648096
I0609 15:32:12.721798 31566 layer_factory.hpp:77] Creating layer conv7_2_conv7_2_relu_0_split
I0609 15:32:12.721802 31566 net.cpp:100] Creating Layer conv7_2_conv7_2_relu_0_split
I0609 15:32:12.721806 31566 net.cpp:434] conv7_2_conv7_2_relu_0_split <- conv7_2
I0609 15:32:12.721810 31566 net.cpp:408] conv7_2_conv7_2_relu_0_split -> conv7_2_conv7_2_relu_0_split_0
I0609 15:32:12.721815 31566 net.cpp:408] conv7_2_conv7_2_relu_0_split -> conv7_2_conv7_2_relu_0_split_1
I0609 15:32:12.721827 31566 net.cpp:408] conv7_2_conv7_2_relu_0_split -> conv7_2_conv7_2_relu_0_split_2
I0609 15:32:12.721832 31566 net.cpp:408] conv7_2_conv7_2_relu_0_split -> conv7_2_conv7_2_relu_0_split_3
I0609 15:32:12.721881 31566 net.cpp:150] Setting up conv7_2_conv7_2_relu_0_split
I0609 15:32:12.721886 31566 net.cpp:157] Top shape: 32 256 5 5 (204800)
I0609 15:32:12.721889 31566 net.cpp:157] Top shape: 32 256 5 5 (204800)
I0609 15:32:12.721891 31566 net.cpp:157] Top shape: 32 256 5 5 (204800)
I0609 15:32:12.721894 31566 net.cpp:157] Top shape: 32 256 5 5 (204800)
I0609 15:32:12.721895 31566 net.cpp:165] Memory required for data: 7525924896
I0609 15:32:12.721897 31566 layer_factory.hpp:77] Creating layer conv8_1
I0609 15:32:12.721905 31566 net.cpp:100] Creating Layer conv8_1
I0609 15:32:12.721909 31566 net.cpp:434] conv8_1 <- conv7_2_conv7_2_relu_0_split_0
I0609 15:32:12.721915 31566 net.cpp:408] conv8_1 -> conv8_1
I0609 15:32:12.723124 31566 net.cpp:150] Setting up conv8_1
I0609 15:32:12.723134 31566 net.cpp:157] Top shape: 32 128 5 5 (102400)
I0609 15:32:12.723136 31566 net.cpp:165] Memory required for data: 7526334496
I0609 15:32:12.723140 31566 layer_factory.hpp:77] Creating layer conv8_1_relu
I0609 15:32:12.723145 31566 net.cpp:100] Creating Layer conv8_1_relu
I0609 15:32:12.723150 31566 net.cpp:434] conv8_1_relu <- conv8_1
I0609 15:32:12.723153 31566 net.cpp:395] conv8_1_relu -> conv8_1 (in-place)
I0609 15:32:12.723716 31566 net.cpp:150] Setting up conv8_1_relu
I0609 15:32:12.723723 31566 net.cpp:157] Top shape: 32 128 5 5 (102400)
I0609 15:32:12.723726 31566 net.cpp:165] Memory required for data: 7526744096
I0609 15:32:12.723729 31566 layer_factory.hpp:77] Creating layer conv8_2
I0609 15:32:12.723737 31566 net.cpp:100] Creating Layer conv8_2
I0609 15:32:12.723739 31566 net.cpp:434] conv8_2 <- conv8_1
I0609 15:32:12.723744 31566 net.cpp:408] conv8_2 -> conv8_2
I0609 15:32:12.726591 31566 net.cpp:150] Setting up conv8_2
I0609 15:32:12.726603 31566 net.cpp:157] Top shape: 32 256 3 3 (73728)
I0609 15:32:12.726606 31566 net.cpp:165] Memory required for data: 7527039008
I0609 15:32:12.726610 31566 layer_factory.hpp:77] Creating layer conv8_2_relu
I0609 15:32:12.726616 31566 net.cpp:100] Creating Layer conv8_2_relu
I0609 15:32:12.726619 31566 net.cpp:434] conv8_2_relu <- conv8_2
I0609 15:32:12.726622 31566 net.cpp:395] conv8_2_relu -> conv8_2 (in-place)
I0609 15:32:12.726755 31566 net.cpp:150] Setting up conv8_2_relu
I0609 15:32:12.726763 31566 net.cpp:157] Top shape: 32 256 3 3 (73728)
I0609 15:32:12.726764 31566 net.cpp:165] Memory required for data: 7527333920
I0609 15:32:12.726766 31566 layer_factory.hpp:77] Creating layer conv8_2_conv8_2_relu_0_split
I0609 15:32:12.726770 31566 net.cpp:100] Creating Layer conv8_2_conv8_2_relu_0_split
I0609 15:32:12.726773 31566 net.cpp:434] conv8_2_conv8_2_relu_0_split <- conv8_2
I0609 15:32:12.726779 31566 net.cpp:408] conv8_2_conv8_2_relu_0_split -> conv8_2_conv8_2_relu_0_split_0
I0609 15:32:12.726786 31566 net.cpp:408] conv8_2_conv8_2_relu_0_split -> conv8_2_conv8_2_relu_0_split_1
I0609 15:32:12.726794 31566 net.cpp:408] conv8_2_conv8_2_relu_0_split -> conv8_2_conv8_2_relu_0_split_2
I0609 15:32:12.726797 31566 net.cpp:408] conv8_2_conv8_2_relu_0_split -> conv8_2_conv8_2_relu_0_split_3
I0609 15:32:12.726858 31566 net.cpp:150] Setting up conv8_2_conv8_2_relu_0_split
I0609 15:32:12.726864 31566 net.cpp:157] Top shape: 32 256 3 3 (73728)
I0609 15:32:12.726866 31566 net.cpp:157] Top shape: 32 256 3 3 (73728)
I0609 15:32:12.726869 31566 net.cpp:157] Top shape: 32 256 3 3 (73728)
I0609 15:32:12.726872 31566 net.cpp:157] Top shape: 32 256 3 3 (73728)
I0609 15:32:12.726873 31566 net.cpp:165] Memory required for data: 7528513568
I0609 15:32:12.726876 31566 layer_factory.hpp:77] Creating layer conv9_1
I0609 15:32:12.726882 31566 net.cpp:100] Creating Layer conv9_1
I0609 15:32:12.726886 31566 net.cpp:434] conv9_1 <- conv8_2_conv8_2_relu_0_split_0
I0609 15:32:12.726891 31566 net.cpp:408] conv9_1 -> conv9_1
I0609 15:32:12.728060 31566 net.cpp:150] Setting up conv9_1
I0609 15:32:12.728070 31566 net.cpp:157] Top shape: 32 128 3 3 (36864)
I0609 15:32:12.728072 31566 net.cpp:165] Memory required for data: 7528661024
I0609 15:32:12.728077 31566 layer_factory.hpp:77] Creating layer conv9_1_relu
I0609 15:32:12.728082 31566 net.cpp:100] Creating Layer conv9_1_relu
I0609 15:32:12.728085 31566 net.cpp:434] conv9_1_relu <- conv9_1
I0609 15:32:12.728090 31566 net.cpp:395] conv9_1_relu -> conv9_1 (in-place)
I0609 15:32:12.728210 31566 net.cpp:150] Setting up conv9_1_relu
I0609 15:32:12.728219 31566 net.cpp:157] Top shape: 32 128 3 3 (36864)
I0609 15:32:12.728220 31566 net.cpp:165] Memory required for data: 7528808480
I0609 15:32:12.728222 31566 layer_factory.hpp:77] Creating layer conv9_2
I0609 15:32:12.728229 31566 net.cpp:100] Creating Layer conv9_2
I0609 15:32:12.728235 31566 net.cpp:434] conv9_2 <- conv9_1
I0609 15:32:12.728240 31566 net.cpp:408] conv9_2 -> conv9_2
I0609 15:32:12.731189 31566 net.cpp:150] Setting up conv9_2
I0609 15:32:12.731200 31566 net.cpp:157] Top shape: 32 256 1 1 (8192)
I0609 15:32:12.731204 31566 net.cpp:165] Memory required for data: 7528841248
I0609 15:32:12.731207 31566 layer_factory.hpp:77] Creating layer conv9_2_relu
I0609 15:32:12.731212 31566 net.cpp:100] Creating Layer conv9_2_relu
I0609 15:32:12.731215 31566 net.cpp:434] conv9_2_relu <- conv9_2
I0609 15:32:12.731220 31566 net.cpp:395] conv9_2_relu -> conv9_2 (in-place)
I0609 15:32:12.731343 31566 net.cpp:150] Setting up conv9_2_relu
I0609 15:32:12.731348 31566 net.cpp:157] Top shape: 32 256 1 1 (8192)
I0609 15:32:12.731351 31566 net.cpp:165] Memory required for data: 7528874016
I0609 15:32:12.731353 31566 layer_factory.hpp:77] Creating layer conv9_2_conv9_2_relu_0_split
I0609 15:32:12.731356 31566 net.cpp:100] Creating Layer conv9_2_conv9_2_relu_0_split
I0609 15:32:12.731360 31566 net.cpp:434] conv9_2_conv9_2_relu_0_split <- conv9_2
I0609 15:32:12.731364 31566 net.cpp:408] conv9_2_conv9_2_relu_0_split -> conv9_2_conv9_2_relu_0_split_0
I0609 15:32:12.731369 31566 net.cpp:408] conv9_2_conv9_2_relu_0_split -> conv9_2_conv9_2_relu_0_split_1
I0609 15:32:12.731374 31566 net.cpp:408] conv9_2_conv9_2_relu_0_split -> conv9_2_conv9_2_relu_0_split_2
I0609 15:32:12.731417 31566 net.cpp:150] Setting up conv9_2_conv9_2_relu_0_split
I0609 15:32:12.731422 31566 net.cpp:157] Top shape: 32 256 1 1 (8192)
I0609 15:32:12.731426 31566 net.cpp:157] Top shape: 32 256 1 1 (8192)
I0609 15:32:12.731427 31566 net.cpp:157] Top shape: 32 256 1 1 (8192)
I0609 15:32:12.731431 31566 net.cpp:165] Memory required for data: 7528972320
I0609 15:32:12.731431 31566 layer_factory.hpp:77] Creating layer conv4_3_norm
I0609 15:32:12.731436 31566 net.cpp:100] Creating Layer conv4_3_norm
I0609 15:32:12.731439 31566 net.cpp:434] conv4_3_norm <- conv4_3_relu4_3_0_split_1
I0609 15:32:12.731443 31566 net.cpp:408] conv4_3_norm -> conv4_3_norm
I0609 15:32:12.731562 31566 net.cpp:150] Setting up conv4_3_norm
I0609 15:32:12.731568 31566 net.cpp:157] Top shape: 32 512 38 38 (23658496)
I0609 15:32:12.731570 31566 net.cpp:165] Memory required for data: 7623606304
I0609 15:32:12.731573 31566 layer_factory.hpp:77] Creating layer conv4_3_norm_conv4_3_norm_0_split
I0609 15:32:12.731576 31566 net.cpp:100] Creating Layer conv4_3_norm_conv4_3_norm_0_split
I0609 15:32:12.731580 31566 net.cpp:434] conv4_3_norm_conv4_3_norm_0_split <- conv4_3_norm
I0609 15:32:12.731592 31566 net.cpp:408] conv4_3_norm_conv4_3_norm_0_split -> conv4_3_norm_conv4_3_norm_0_split_0
I0609 15:32:12.731598 31566 net.cpp:408] conv4_3_norm_conv4_3_norm_0_split -> conv4_3_norm_conv4_3_norm_0_split_1
I0609 15:32:12.731603 31566 net.cpp:408] conv4_3_norm_conv4_3_norm_0_split -> conv4_3_norm_conv4_3_norm_0_split_2
I0609 15:32:12.731658 31566 net.cpp:150] Setting up conv4_3_norm_conv4_3_norm_0_split
I0609 15:32:12.731664 31566 net.cpp:157] Top shape: 32 512 38 38 (23658496)
I0609 15:32:12.731667 31566 net.cpp:157] Top shape: 32 512 38 38 (23658496)
I0609 15:32:12.731670 31566 net.cpp:157] Top shape: 32 512 38 38 (23658496)
I0609 15:32:12.731672 31566 net.cpp:165] Memory required for data: 7907508256
I0609 15:32:12.731673 31566 layer_factory.hpp:77] Creating layer conv4_3_norm_mbox_loc
I0609 15:32:12.731680 31566 net.cpp:100] Creating Layer conv4_3_norm_mbox_loc
I0609 15:32:12.731683 31566 net.cpp:434] conv4_3_norm_mbox_loc <- conv4_3_norm_conv4_3_norm_0_split_0
I0609 15:32:12.731688 31566 net.cpp:408] conv4_3_norm_mbox_loc -> conv4_3_norm_mbox_loc
I0609 15:32:12.733809 31566 net.cpp:150] Setting up conv4_3_norm_mbox_loc
I0609 15:32:12.733821 31566 net.cpp:157] Top shape: 32 16 38 38 (739328)
I0609 15:32:12.733825 31566 net.cpp:165] Memory required for data: 7910465568
I0609 15:32:12.733831 31566 layer_factory.hpp:77] Creating layer conv4_3_norm_mbox_loc_perm
I0609 15:32:12.733839 31566 net.cpp:100] Creating Layer conv4_3_norm_mbox_loc_perm
I0609 15:32:12.733845 31566 net.cpp:434] conv4_3_norm_mbox_loc_perm <- conv4_3_norm_mbox_loc
I0609 15:32:12.733851 31566 net.cpp:408] conv4_3_norm_mbox_loc_perm -> conv4_3_norm_mbox_loc_perm
I0609 15:32:12.733963 31566 net.cpp:150] Setting up conv4_3_norm_mbox_loc_perm
I0609 15:32:12.733968 31566 net.cpp:157] Top shape: 32 38 38 16 (739328)
I0609 15:32:12.733973 31566 net.cpp:165] Memory required for data: 7913422880
I0609 15:32:12.733975 31566 layer_factory.hpp:77] Creating layer conv4_3_norm_mbox_loc_flat
I0609 15:32:12.733980 31566 net.cpp:100] Creating Layer conv4_3_norm_mbox_loc_flat
I0609 15:32:12.733984 31566 net.cpp:434] conv4_3_norm_mbox_loc_flat <- conv4_3_norm_mbox_loc_perm
I0609 15:32:12.733990 31566 net.cpp:408] conv4_3_norm_mbox_loc_flat -> conv4_3_norm_mbox_loc_flat
I0609 15:32:12.734026 31566 net.cpp:150] Setting up conv4_3_norm_mbox_loc_flat
I0609 15:32:12.734033 31566 net.cpp:157] Top shape: 32 23104 (739328)
I0609 15:32:12.734036 31566 net.cpp:165] Memory required for data: 7916380192
I0609 15:32:12.734040 31566 layer_factory.hpp:77] Creating layer conv4_3_norm_mbox_conf
I0609 15:32:12.734053 31566 net.cpp:100] Creating Layer conv4_3_norm_mbox_conf
I0609 15:32:12.734060 31566 net.cpp:434] conv4_3_norm_mbox_conf <- conv4_3_norm_conv4_3_norm_0_split_1
I0609 15:32:12.734064 31566 net.cpp:408] conv4_3_norm_mbox_conf -> conv4_3_norm_mbox_conf
I0609 15:32:12.735967 31566 net.cpp:150] Setting up conv4_3_norm_mbox_conf
I0609 15:32:12.735976 31566 net.cpp:157] Top shape: 32 8 38 38 (369664)
I0609 15:32:12.735980 31566 net.cpp:165] Memory required for data: 7917858848
I0609 15:32:12.735983 31566 layer_factory.hpp:77] Creating layer conv4_3_norm_mbox_conf_perm
I0609 15:32:12.735990 31566 net.cpp:100] Creating Layer conv4_3_norm_mbox_conf_perm
I0609 15:32:12.735992 31566 net.cpp:434] conv4_3_norm_mbox_conf_perm <- conv4_3_norm_mbox_conf
I0609 15:32:12.735997 31566 net.cpp:408] conv4_3_norm_mbox_conf_perm -> conv4_3_norm_mbox_conf_perm
I0609 15:32:12.736074 31566 net.cpp:150] Setting up conv4_3_norm_mbox_conf_perm
I0609 15:32:12.736080 31566 net.cpp:157] Top shape: 32 38 38 8 (369664)
I0609 15:32:12.736083 31566 net.cpp:165] Memory required for data: 7919337504
I0609 15:32:12.736084 31566 layer_factory.hpp:77] Creating layer conv4_3_norm_mbox_conf_flat
I0609 15:32:12.736088 31566 net.cpp:100] Creating Layer conv4_3_norm_mbox_conf_flat
I0609 15:32:12.736091 31566 net.cpp:434] conv4_3_norm_mbox_conf_flat <- conv4_3_norm_mbox_conf_perm
I0609 15:32:12.736095 31566 net.cpp:408] conv4_3_norm_mbox_conf_flat -> conv4_3_norm_mbox_conf_flat
I0609 15:32:12.736121 31566 net.cpp:150] Setting up conv4_3_norm_mbox_conf_flat
I0609 15:32:12.736126 31566 net.cpp:157] Top shape: 32 11552 (369664)
I0609 15:32:12.736129 31566 net.cpp:165] Memory required for data: 7920816160
I0609 15:32:12.736130 31566 layer_factory.hpp:77] Creating layer conv4_3_norm_mbox_priorbox
I0609 15:32:12.736136 31566 net.cpp:100] Creating Layer conv4_3_norm_mbox_priorbox
I0609 15:32:12.736138 31566 net.cpp:434] conv4_3_norm_mbox_priorbox <- conv4_3_norm_conv4_3_norm_0_split_2
I0609 15:32:12.736142 31566 net.cpp:434] conv4_3_norm_mbox_priorbox <- data_data_0_split_1
I0609 15:32:12.736146 31566 net.cpp:408] conv4_3_norm_mbox_priorbox -> conv4_3_norm_mbox_priorbox
I0609 15:32:12.736168 31566 net.cpp:150] Setting up conv4_3_norm_mbox_priorbox
I0609 15:32:12.736174 31566 net.cpp:157] Top shape: 1 2 23104 (46208)
I0609 15:32:12.736176 31566 net.cpp:165] Memory required for data: 7921000992
I0609 15:32:12.736178 31566 layer_factory.hpp:77] Creating layer fc7_mbox_loc
I0609 15:32:12.736184 31566 net.cpp:100] Creating Layer fc7_mbox_loc
I0609 15:32:12.736186 31566 net.cpp:434] fc7_mbox_loc <- fc7_relu7_0_split_1
I0609 15:32:12.736192 31566 net.cpp:408] fc7_mbox_loc -> fc7_mbox_loc
I0609 15:32:12.738567 31566 net.cpp:150] Setting up fc7_mbox_loc
I0609 15:32:12.738581 31566 net.cpp:157] Top shape: 32 24 19 19 (277248)
I0609 15:32:12.738584 31566 net.cpp:165] Memory required for data: 7922109984
I0609 15:32:12.738590 31566 layer_factory.hpp:77] Creating layer fc7_mbox_loc_perm
I0609 15:32:12.738597 31566 net.cpp:100] Creating Layer fc7_mbox_loc_perm
I0609 15:32:12.738601 31566 net.cpp:434] fc7_mbox_loc_perm <- fc7_mbox_loc
I0609 15:32:12.738605 31566 net.cpp:408] fc7_mbox_loc_perm -> fc7_mbox_loc_perm
I0609 15:32:12.738689 31566 net.cpp:150] Setting up fc7_mbox_loc_perm
I0609 15:32:12.738694 31566 net.cpp:157] Top shape: 32 19 19 24 (277248)
I0609 15:32:12.738696 31566 net.cpp:165] Memory required for data: 7923218976
I0609 15:32:12.738698 31566 layer_factory.hpp:77] Creating layer fc7_mbox_loc_flat
I0609 15:32:12.738703 31566 net.cpp:100] Creating Layer fc7_mbox_loc_flat
I0609 15:32:12.738706 31566 net.cpp:434] fc7_mbox_loc_flat <- fc7_mbox_loc_perm
I0609 15:32:12.738709 31566 net.cpp:408] fc7_mbox_loc_flat -> fc7_mbox_loc_flat
I0609 15:32:12.738728 31566 net.cpp:150] Setting up fc7_mbox_loc_flat
I0609 15:32:12.738732 31566 net.cpp:157] Top shape: 32 8664 (277248)
I0609 15:32:12.738734 31566 net.cpp:165] Memory required for data: 7924327968
I0609 15:32:12.738736 31566 layer_factory.hpp:77] Creating layer fc7_mbox_conf
I0609 15:32:12.738744 31566 net.cpp:100] Creating Layer fc7_mbox_conf
I0609 15:32:12.738747 31566 net.cpp:434] fc7_mbox_conf <- fc7_relu7_0_split_2
I0609 15:32:12.738751 31566 net.cpp:408] fc7_mbox_conf -> fc7_mbox_conf
I0609 15:32:12.740826 31566 net.cpp:150] Setting up fc7_mbox_conf
I0609 15:32:12.740838 31566 net.cpp:157] Top shape: 32 12 19 19 (138624)
I0609 15:32:12.740840 31566 net.cpp:165] Memory required for data: 7924882464
I0609 15:32:12.740845 31566 layer_factory.hpp:77] Creating layer fc7_mbox_conf_perm
I0609 15:32:12.740850 31566 net.cpp:100] Creating Layer fc7_mbox_conf_perm
I0609 15:32:12.740854 31566 net.cpp:434] fc7_mbox_conf_perm <- fc7_mbox_conf
I0609 15:32:12.740859 31566 net.cpp:408] fc7_mbox_conf_perm -> fc7_mbox_conf_perm
I0609 15:32:12.740942 31566 net.cpp:150] Setting up fc7_mbox_conf_perm
I0609 15:32:12.740962 31566 net.cpp:157] Top shape: 32 19 19 12 (138624)
I0609 15:32:12.740963 31566 net.cpp:165] Memory required for data: 7925436960
I0609 15:32:12.740965 31566 layer_factory.hpp:77] Creating layer fc7_mbox_conf_flat
I0609 15:32:12.740969 31566 net.cpp:100] Creating Layer fc7_mbox_conf_flat
I0609 15:32:12.740972 31566 net.cpp:434] fc7_mbox_conf_flat <- fc7_mbox_conf_perm
I0609 15:32:12.740977 31566 net.cpp:408] fc7_mbox_conf_flat -> fc7_mbox_conf_flat
I0609 15:32:12.740994 31566 net.cpp:150] Setting up fc7_mbox_conf_flat
I0609 15:32:12.741014 31566 net.cpp:157] Top shape: 32 4332 (138624)
I0609 15:32:12.741015 31566 net.cpp:165] Memory required for data: 7925991456
I0609 15:32:12.741025 31566 layer_factory.hpp:77] Creating layer fc7_mbox_priorbox
I0609 15:32:12.741031 31566 net.cpp:100] Creating Layer fc7_mbox_priorbox
I0609 15:32:12.741036 31566 net.cpp:434] fc7_mbox_priorbox <- fc7_relu7_0_split_3
I0609 15:32:12.741040 31566 net.cpp:434] fc7_mbox_priorbox <- data_data_0_split_2
I0609 15:32:12.741044 31566 net.cpp:408] fc7_mbox_priorbox -> fc7_mbox_priorbox
I0609 15:32:12.741067 31566 net.cpp:150] Setting up fc7_mbox_priorbox
I0609 15:32:12.741072 31566 net.cpp:157] Top shape: 1 2 8664 (17328)
I0609 15:32:12.741075 31566 net.cpp:165] Memory required for data: 7926060768
I0609 15:32:12.741076 31566 layer_factory.hpp:77] Creating layer conv6_2_mbox_loc
I0609 15:32:12.741083 31566 net.cpp:100] Creating Layer conv6_2_mbox_loc
I0609 15:32:12.741086 31566 net.cpp:434] conv6_2_mbox_loc <- conv6_2_conv6_2_relu_0_split_1
I0609 15:32:12.741091 31566 net.cpp:408] conv6_2_mbox_loc -> conv6_2_mbox_loc
I0609 15:32:12.743032 31566 net.cpp:150] Setting up conv6_2_mbox_loc
I0609 15:32:12.743044 31566 net.cpp:157] Top shape: 32 24 10 10 (76800)
I0609 15:32:12.743046 31566 net.cpp:165] Memory required for data: 7926367968
I0609 15:32:12.743052 31566 layer_factory.hpp:77] Creating layer conv6_2_mbox_loc_perm
I0609 15:32:12.743059 31566 net.cpp:100] Creating Layer conv6_2_mbox_loc_perm
I0609 15:32:12.743064 31566 net.cpp:434] conv6_2_mbox_loc_perm <- conv6_2_mbox_loc
I0609 15:32:12.743068 31566 net.cpp:408] conv6_2_mbox_loc_perm -> conv6_2_mbox_loc_perm
I0609 15:32:12.743150 31566 net.cpp:150] Setting up conv6_2_mbox_loc_perm
I0609 15:32:12.743155 31566 net.cpp:157] Top shape: 32 10 10 24 (76800)
I0609 15:32:12.743158 31566 net.cpp:165] Memory required for data: 7926675168
I0609 15:32:12.743160 31566 layer_factory.hpp:77] Creating layer conv6_2_mbox_loc_flat
I0609 15:32:12.743165 31566 net.cpp:100] Creating Layer conv6_2_mbox_loc_flat
I0609 15:32:12.743168 31566 net.cpp:434] conv6_2_mbox_loc_flat <- conv6_2_mbox_loc_perm
I0609 15:32:12.743172 31566 net.cpp:408] conv6_2_mbox_loc_flat -> conv6_2_mbox_loc_flat
I0609 15:32:12.743190 31566 net.cpp:150] Setting up conv6_2_mbox_loc_flat
I0609 15:32:12.743194 31566 net.cpp:157] Top shape: 32 2400 (76800)
I0609 15:32:12.743196 31566 net.cpp:165] Memory required for data: 7926982368
I0609 15:32:12.743198 31566 layer_factory.hpp:77] Creating layer conv6_2_mbox_conf
I0609 15:32:12.743206 31566 net.cpp:100] Creating Layer conv6_2_mbox_conf
I0609 15:32:12.743209 31566 net.cpp:434] conv6_2_mbox_conf <- conv6_2_conv6_2_relu_0_split_2
I0609 15:32:12.743214 31566 net.cpp:408] conv6_2_mbox_conf -> conv6_2_mbox_conf
I0609 15:32:12.744874 31566 net.cpp:150] Setting up conv6_2_mbox_conf
I0609 15:32:12.744884 31566 net.cpp:157] Top shape: 32 12 10 10 (38400)
I0609 15:32:12.744886 31566 net.cpp:165] Memory required for data: 7927135968
I0609 15:32:12.744890 31566 layer_factory.hpp:77] Creating layer conv6_2_mbox_conf_perm
I0609 15:32:12.744896 31566 net.cpp:100] Creating Layer conv6_2_mbox_conf_perm
I0609 15:32:12.744900 31566 net.cpp:434] conv6_2_mbox_conf_perm <- conv6_2_mbox_conf
I0609 15:32:12.744904 31566 net.cpp:408] conv6_2_mbox_conf_perm -> conv6_2_mbox_conf_perm
I0609 15:32:12.744983 31566 net.cpp:150] Setting up conv6_2_mbox_conf_perm
I0609 15:32:12.744989 31566 net.cpp:157] Top shape: 32 10 10 12 (38400)
I0609 15:32:12.744992 31566 net.cpp:165] Memory required for data: 7927289568
I0609 15:32:12.744993 31566 layer_factory.hpp:77] Creating layer conv6_2_mbox_conf_flat
I0609 15:32:12.744997 31566 net.cpp:100] Creating Layer conv6_2_mbox_conf_flat
I0609 15:32:12.745002 31566 net.cpp:434] conv6_2_mbox_conf_flat <- conv6_2_mbox_conf_perm
I0609 15:32:12.745005 31566 net.cpp:408] conv6_2_mbox_conf_flat -> conv6_2_mbox_conf_flat
I0609 15:32:12.745023 31566 net.cpp:150] Setting up conv6_2_mbox_conf_flat
I0609 15:32:12.745028 31566 net.cpp:157] Top shape: 32 1200 (38400)
I0609 15:32:12.745030 31566 net.cpp:165] Memory required for data: 7927443168
I0609 15:32:12.745033 31566 layer_factory.hpp:77] Creating layer conv6_2_mbox_priorbox
I0609 15:32:12.745048 31566 net.cpp:100] Creating Layer conv6_2_mbox_priorbox
I0609 15:32:12.745050 31566 net.cpp:434] conv6_2_mbox_priorbox <- conv6_2_conv6_2_relu_0_split_3
I0609 15:32:12.745055 31566 net.cpp:434] conv6_2_mbox_priorbox <- data_data_0_split_3
I0609 15:32:12.745059 31566 net.cpp:408] conv6_2_mbox_priorbox -> conv6_2_mbox_priorbox
I0609 15:32:12.745080 31566 net.cpp:150] Setting up conv6_2_mbox_priorbox
I0609 15:32:12.745085 31566 net.cpp:157] Top shape: 1 2 2400 (4800)
I0609 15:32:12.745087 31566 net.cpp:165] Memory required for data: 7927462368
I0609 15:32:12.745090 31566 layer_factory.hpp:77] Creating layer conv7_2_mbox_loc
I0609 15:32:12.745096 31566 net.cpp:100] Creating Layer conv7_2_mbox_loc
I0609 15:32:12.745100 31566 net.cpp:434] conv7_2_mbox_loc <- conv7_2_conv7_2_relu_0_split_1
I0609 15:32:12.745105 31566 net.cpp:408] conv7_2_mbox_loc -> conv7_2_mbox_loc
I0609 15:32:12.746359 31566 net.cpp:150] Setting up conv7_2_mbox_loc
I0609 15:32:12.746369 31566 net.cpp:157] Top shape: 32 24 5 5 (19200)
I0609 15:32:12.746372 31566 net.cpp:165] Memory required for data: 7927539168
I0609 15:32:12.746377 31566 layer_factory.hpp:77] Creating layer conv7_2_mbox_loc_perm
I0609 15:32:12.746381 31566 net.cpp:100] Creating Layer conv7_2_mbox_loc_perm
I0609 15:32:12.746384 31566 net.cpp:434] conv7_2_mbox_loc_perm <- conv7_2_mbox_loc
I0609 15:32:12.746388 31566 net.cpp:408] conv7_2_mbox_loc_perm -> conv7_2_mbox_loc_perm
I0609 15:32:12.746470 31566 net.cpp:150] Setting up conv7_2_mbox_loc_perm
I0609 15:32:12.746475 31566 net.cpp:157] Top shape: 32 5 5 24 (19200)
I0609 15:32:12.746477 31566 net.cpp:165] Memory required for data: 7927615968
I0609 15:32:12.746479 31566 layer_factory.hpp:77] Creating layer conv7_2_mbox_loc_flat
I0609 15:32:12.746484 31566 net.cpp:100] Creating Layer conv7_2_mbox_loc_flat
I0609 15:32:12.746486 31566 net.cpp:434] conv7_2_mbox_loc_flat <- conv7_2_mbox_loc_perm
I0609 15:32:12.746490 31566 net.cpp:408] conv7_2_mbox_loc_flat -> conv7_2_mbox_loc_flat
I0609 15:32:12.746507 31566 net.cpp:150] Setting up conv7_2_mbox_loc_flat
I0609 15:32:12.746512 31566 net.cpp:157] Top shape: 32 600 (19200)
I0609 15:32:12.746515 31566 net.cpp:165] Memory required for data: 7927692768
I0609 15:32:12.746515 31566 layer_factory.hpp:77] Creating layer conv7_2_mbox_conf
I0609 15:32:12.746522 31566 net.cpp:100] Creating Layer conv7_2_mbox_conf
I0609 15:32:12.746526 31566 net.cpp:434] conv7_2_mbox_conf <- conv7_2_conv7_2_relu_0_split_2
I0609 15:32:12.746531 31566 net.cpp:408] conv7_2_mbox_conf -> conv7_2_mbox_conf
I0609 15:32:12.748085 31566 net.cpp:150] Setting up conv7_2_mbox_conf
I0609 15:32:12.748096 31566 net.cpp:157] Top shape: 32 12 5 5 (9600)
I0609 15:32:12.748100 31566 net.cpp:165] Memory required for data: 7927731168
I0609 15:32:12.748105 31566 layer_factory.hpp:77] Creating layer conv7_2_mbox_conf_perm
I0609 15:32:12.748108 31566 net.cpp:100] Creating Layer conv7_2_mbox_conf_perm
I0609 15:32:12.748112 31566 net.cpp:434] conv7_2_mbox_conf_perm <- conv7_2_mbox_conf
I0609 15:32:12.748118 31566 net.cpp:408] conv7_2_mbox_conf_perm -> conv7_2_mbox_conf_perm
I0609 15:32:12.748203 31566 net.cpp:150] Setting up conv7_2_mbox_conf_perm
I0609 15:32:12.748208 31566 net.cpp:157] Top shape: 32 5 5 12 (9600)
I0609 15:32:12.748210 31566 net.cpp:165] Memory required for data: 7927769568
I0609 15:32:12.748212 31566 layer_factory.hpp:77] Creating layer conv7_2_mbox_conf_flat
I0609 15:32:12.748217 31566 net.cpp:100] Creating Layer conv7_2_mbox_conf_flat
I0609 15:32:12.748219 31566 net.cpp:434] conv7_2_mbox_conf_flat <- conv7_2_mbox_conf_perm
I0609 15:32:12.748224 31566 net.cpp:408] conv7_2_mbox_conf_flat -> conv7_2_mbox_conf_flat
I0609 15:32:12.748242 31566 net.cpp:150] Setting up conv7_2_mbox_conf_flat
I0609 15:32:12.748246 31566 net.cpp:157] Top shape: 32 300 (9600)
I0609 15:32:12.748248 31566 net.cpp:165] Memory required for data: 7927807968
I0609 15:32:12.748250 31566 layer_factory.hpp:77] Creating layer conv7_2_mbox_priorbox
I0609 15:32:12.748256 31566 net.cpp:100] Creating Layer conv7_2_mbox_priorbox
I0609 15:32:12.748260 31566 net.cpp:434] conv7_2_mbox_priorbox <- conv7_2_conv7_2_relu_0_split_3
I0609 15:32:12.748272 31566 net.cpp:434] conv7_2_mbox_priorbox <- data_data_0_split_4
I0609 15:32:12.748277 31566 net.cpp:408] conv7_2_mbox_priorbox -> conv7_2_mbox_priorbox
I0609 15:32:12.748298 31566 net.cpp:150] Setting up conv7_2_mbox_priorbox
I0609 15:32:12.748303 31566 net.cpp:157] Top shape: 1 2 600 (1200)
I0609 15:32:12.748304 31566 net.cpp:165] Memory required for data: 7927812768
I0609 15:32:12.748307 31566 layer_factory.hpp:77] Creating layer conv8_2_mbox_loc
I0609 15:32:12.748316 31566 net.cpp:100] Creating Layer conv8_2_mbox_loc
I0609 15:32:12.748318 31566 net.cpp:434] conv8_2_mbox_loc <- conv8_2_conv8_2_relu_0_split_1
I0609 15:32:12.748322 31566 net.cpp:408] conv8_2_mbox_loc -> conv8_2_mbox_loc
I0609 15:32:12.750010 31566 net.cpp:150] Setting up conv8_2_mbox_loc
I0609 15:32:12.750021 31566 net.cpp:157] Top shape: 32 16 3 3 (4608)
I0609 15:32:12.750023 31566 net.cpp:165] Memory required for data: 7927831200
I0609 15:32:12.750036 31566 layer_factory.hpp:77] Creating layer conv8_2_mbox_loc_perm
I0609 15:32:12.750041 31566 net.cpp:100] Creating Layer conv8_2_mbox_loc_perm
I0609 15:32:12.750046 31566 net.cpp:434] conv8_2_mbox_loc_perm <- conv8_2_mbox_loc
I0609 15:32:12.750051 31566 net.cpp:408] conv8_2_mbox_loc_perm -> conv8_2_mbox_loc_perm
I0609 15:32:12.750133 31566 net.cpp:150] Setting up conv8_2_mbox_loc_perm
I0609 15:32:12.750138 31566 net.cpp:157] Top shape: 32 3 3 16 (4608)
I0609 15:32:12.750141 31566 net.cpp:165] Memory required for data: 7927849632
I0609 15:32:12.750144 31566 layer_factory.hpp:77] Creating layer conv8_2_mbox_loc_flat
I0609 15:32:12.750147 31566 net.cpp:100] Creating Layer conv8_2_mbox_loc_flat
I0609 15:32:12.750150 31566 net.cpp:434] conv8_2_mbox_loc_flat <- conv8_2_mbox_loc_perm
I0609 15:32:12.750154 31566 net.cpp:408] conv8_2_mbox_loc_flat -> conv8_2_mbox_loc_flat
I0609 15:32:12.750172 31566 net.cpp:150] Setting up conv8_2_mbox_loc_flat
I0609 15:32:12.750177 31566 net.cpp:157] Top shape: 32 144 (4608)
I0609 15:32:12.750180 31566 net.cpp:165] Memory required for data: 7927868064
I0609 15:32:12.750181 31566 layer_factory.hpp:77] Creating layer conv8_2_mbox_conf
I0609 15:32:12.750188 31566 net.cpp:100] Creating Layer conv8_2_mbox_conf
I0609 15:32:12.750192 31566 net.cpp:434] conv8_2_mbox_conf <- conv8_2_conv8_2_relu_0_split_2
I0609 15:32:12.750198 31566 net.cpp:408] conv8_2_mbox_conf -> conv8_2_mbox_conf
I0609 15:32:12.751705 31566 net.cpp:150] Setting up conv8_2_mbox_conf
I0609 15:32:12.751714 31566 net.cpp:157] Top shape: 32 8 3 3 (2304)
I0609 15:32:12.751716 31566 net.cpp:165] Memory required for data: 7927877280
I0609 15:32:12.751720 31566 layer_factory.hpp:77] Creating layer conv8_2_mbox_conf_perm
I0609 15:32:12.751726 31566 net.cpp:100] Creating Layer conv8_2_mbox_conf_perm
I0609 15:32:12.751730 31566 net.cpp:434] conv8_2_mbox_conf_perm <- conv8_2_mbox_conf
I0609 15:32:12.751735 31566 net.cpp:408] conv8_2_mbox_conf_perm -> conv8_2_mbox_conf_perm
I0609 15:32:12.751816 31566 net.cpp:150] Setting up conv8_2_mbox_conf_perm
I0609 15:32:12.751821 31566 net.cpp:157] Top shape: 32 3 3 8 (2304)
I0609 15:32:12.751822 31566 net.cpp:165] Memory required for data: 7927886496
I0609 15:32:12.751824 31566 layer_factory.hpp:77] Creating layer conv8_2_mbox_conf_flat
I0609 15:32:12.751828 31566 net.cpp:100] Creating Layer conv8_2_mbox_conf_flat
I0609 15:32:12.751830 31566 net.cpp:434] conv8_2_mbox_conf_flat <- conv8_2_mbox_conf_perm
I0609 15:32:12.751837 31566 net.cpp:408] conv8_2_mbox_conf_flat -> conv8_2_mbox_conf_flat
I0609 15:32:12.751853 31566 net.cpp:150] Setting up conv8_2_mbox_conf_flat
I0609 15:32:12.751857 31566 net.cpp:157] Top shape: 32 72 (2304)
I0609 15:32:12.751860 31566 net.cpp:165] Memory required for data: 7927895712
I0609 15:32:12.751863 31566 layer_factory.hpp:77] Creating layer conv8_2_mbox_priorbox
I0609 15:32:12.751866 31566 net.cpp:100] Creating Layer conv8_2_mbox_priorbox
I0609 15:32:12.751868 31566 net.cpp:434] conv8_2_mbox_priorbox <- conv8_2_conv8_2_relu_0_split_3
I0609 15:32:12.751873 31566 net.cpp:434] conv8_2_mbox_priorbox <- data_data_0_split_5
I0609 15:32:12.751888 31566 net.cpp:408] conv8_2_mbox_priorbox -> conv8_2_mbox_priorbox
I0609 15:32:12.751909 31566 net.cpp:150] Setting up conv8_2_mbox_priorbox
I0609 15:32:12.751914 31566 net.cpp:157] Top shape: 1 2 144 (288)
I0609 15:32:12.751916 31566 net.cpp:165] Memory required for data: 7927896864
I0609 15:32:12.751919 31566 layer_factory.hpp:77] Creating layer conv9_2_mbox_loc
I0609 15:32:12.751925 31566 net.cpp:100] Creating Layer conv9_2_mbox_loc
I0609 15:32:12.751929 31566 net.cpp:434] conv9_2_mbox_loc <- conv9_2_conv9_2_relu_0_split_0
I0609 15:32:12.751933 31566 net.cpp:408] conv9_2_mbox_loc -> conv9_2_mbox_loc
I0609 15:32:12.753535 31566 net.cpp:150] Setting up conv9_2_mbox_loc
I0609 15:32:12.753545 31566 net.cpp:157] Top shape: 32 16 1 1 (512)
I0609 15:32:12.753546 31566 net.cpp:165] Memory required for data: 7927898912
I0609 15:32:12.753552 31566 layer_factory.hpp:77] Creating layer conv9_2_mbox_loc_perm
I0609 15:32:12.753557 31566 net.cpp:100] Creating Layer conv9_2_mbox_loc_perm
I0609 15:32:12.753561 31566 net.cpp:434] conv9_2_mbox_loc_perm <- conv9_2_mbox_loc
I0609 15:32:12.753566 31566 net.cpp:408] conv9_2_mbox_loc_perm -> conv9_2_mbox_loc_perm
I0609 15:32:12.753651 31566 net.cpp:150] Setting up conv9_2_mbox_loc_perm
I0609 15:32:12.753656 31566 net.cpp:157] Top shape: 32 1 1 16 (512)
I0609 15:32:12.753659 31566 net.cpp:165] Memory required for data: 7927900960
I0609 15:32:12.753660 31566 layer_factory.hpp:77] Creating layer conv9_2_mbox_loc_flat
I0609 15:32:12.753664 31566 net.cpp:100] Creating Layer conv9_2_mbox_loc_flat
I0609 15:32:12.753667 31566 net.cpp:434] conv9_2_mbox_loc_flat <- conv9_2_mbox_loc_perm
I0609 15:32:12.753671 31566 net.cpp:408] conv9_2_mbox_loc_flat -> conv9_2_mbox_loc_flat
I0609 15:32:12.753690 31566 net.cpp:150] Setting up conv9_2_mbox_loc_flat
I0609 15:32:12.753695 31566 net.cpp:157] Top shape: 32 16 (512)
I0609 15:32:12.753695 31566 net.cpp:165] Memory required for data: 7927903008
I0609 15:32:12.753697 31566 layer_factory.hpp:77] Creating layer conv9_2_mbox_conf
I0609 15:32:12.753705 31566 net.cpp:100] Creating Layer conv9_2_mbox_conf
I0609 15:32:12.753707 31566 net.cpp:434] conv9_2_mbox_conf <- conv9_2_conv9_2_relu_0_split_1
I0609 15:32:12.753713 31566 net.cpp:408] conv9_2_mbox_conf -> conv9_2_mbox_conf
I0609 15:32:12.755642 31566 net.cpp:150] Setting up conv9_2_mbox_conf
I0609 15:32:12.755650 31566 net.cpp:157] Top shape: 32 8 1 1 (256)
I0609 15:32:12.755653 31566 net.cpp:165] Memory required for data: 7927904032
I0609 15:32:12.755657 31566 layer_factory.hpp:77] Creating layer conv9_2_mbox_conf_perm
I0609 15:32:12.755662 31566 net.cpp:100] Creating Layer conv9_2_mbox_conf_perm
I0609 15:32:12.755666 31566 net.cpp:434] conv9_2_mbox_conf_perm <- conv9_2_mbox_conf
I0609 15:32:12.755671 31566 net.cpp:408] conv9_2_mbox_conf_perm -> conv9_2_mbox_conf_perm
I0609 15:32:12.755755 31566 net.cpp:150] Setting up conv9_2_mbox_conf_perm
I0609 15:32:12.755760 31566 net.cpp:157] Top shape: 32 1 1 8 (256)
I0609 15:32:12.755762 31566 net.cpp:165] Memory required for data: 7927905056
I0609 15:32:12.755764 31566 layer_factory.hpp:77] Creating layer conv9_2_mbox_conf_flat
I0609 15:32:12.755769 31566 net.cpp:100] Creating Layer conv9_2_mbox_conf_flat
I0609 15:32:12.755771 31566 net.cpp:434] conv9_2_mbox_conf_flat <- conv9_2_mbox_conf_perm
I0609 15:32:12.755775 31566 net.cpp:408] conv9_2_mbox_conf_flat -> conv9_2_mbox_conf_flat
I0609 15:32:12.755795 31566 net.cpp:150] Setting up conv9_2_mbox_conf_flat
I0609 15:32:12.755800 31566 net.cpp:157] Top shape: 32 8 (256)
I0609 15:32:12.755801 31566 net.cpp:165] Memory required for data: 7927906080
I0609 15:32:12.755803 31566 layer_factory.hpp:77] Creating layer conv9_2_mbox_priorbox
I0609 15:32:12.755808 31566 net.cpp:100] Creating Layer conv9_2_mbox_priorbox
I0609 15:32:12.755811 31566 net.cpp:434] conv9_2_mbox_priorbox <- conv9_2_conv9_2_relu_0_split_2
I0609 15:32:12.755815 31566 net.cpp:434] conv9_2_mbox_priorbox <- data_data_0_split_6
I0609 15:32:12.755818 31566 net.cpp:408] conv9_2_mbox_priorbox -> conv9_2_mbox_priorbox
I0609 15:32:12.755847 31566 net.cpp:150] Setting up conv9_2_mbox_priorbox
I0609 15:32:12.755852 31566 net.cpp:157] Top shape: 1 2 16 (32)
I0609 15:32:12.755854 31566 net.cpp:165] Memory required for data: 7927906208
I0609 15:32:12.755856 31566 layer_factory.hpp:77] Creating layer mbox_loc
I0609 15:32:12.755861 31566 net.cpp:100] Creating Layer mbox_loc
I0609 15:32:12.755867 31566 net.cpp:434] mbox_loc <- conv4_3_norm_mbox_loc_flat
I0609 15:32:12.755869 31566 net.cpp:434] mbox_loc <- fc7_mbox_loc_flat
I0609 15:32:12.755873 31566 net.cpp:434] mbox_loc <- conv6_2_mbox_loc_flat
I0609 15:32:12.755877 31566 net.cpp:434] mbox_loc <- conv7_2_mbox_loc_flat
I0609 15:32:12.755879 31566 net.cpp:434] mbox_loc <- conv8_2_mbox_loc_flat
I0609 15:32:12.755882 31566 net.cpp:434] mbox_loc <- conv9_2_mbox_loc_flat
I0609 15:32:12.755885 31566 net.cpp:408] mbox_loc -> mbox_loc
I0609 15:32:12.755909 31566 net.cpp:150] Setting up mbox_loc
I0609 15:32:12.755914 31566 net.cpp:157] Top shape: 32 34928 (1117696)
I0609 15:32:12.755916 31566 net.cpp:165] Memory required for data: 7932376992
I0609 15:32:12.755918 31566 layer_factory.hpp:77] Creating layer mbox_conf
I0609 15:32:12.755923 31566 net.cpp:100] Creating Layer mbox_conf
I0609 15:32:12.755924 31566 net.cpp:434] mbox_conf <- conv4_3_norm_mbox_conf_flat
I0609 15:32:12.755928 31566 net.cpp:434] mbox_conf <- fc7_mbox_conf_flat
I0609 15:32:12.755930 31566 net.cpp:434] mbox_conf <- conv6_2_mbox_conf_flat
I0609 15:32:12.755934 31566 net.cpp:434] mbox_conf <- conv7_2_mbox_conf_flat
I0609 15:32:12.755936 31566 net.cpp:434] mbox_conf <- conv8_2_mbox_conf_flat
I0609 15:32:12.755939 31566 net.cpp:434] mbox_conf <- conv9_2_mbox_conf_flat
I0609 15:32:12.755942 31566 net.cpp:408] mbox_conf -> mbox_conf
I0609 15:32:12.755960 31566 net.cpp:150] Setting up mbox_conf
I0609 15:32:12.755964 31566 net.cpp:157] Top shape: 32 17464 (558848)
I0609 15:32:12.755966 31566 net.cpp:165] Memory required for data: 7934612384
I0609 15:32:12.755969 31566 layer_factory.hpp:77] Creating layer mbox_priorbox
I0609 15:32:12.755973 31566 net.cpp:100] Creating Layer mbox_priorbox
I0609 15:32:12.755975 31566 net.cpp:434] mbox_priorbox <- conv4_3_norm_mbox_priorbox
I0609 15:32:12.755978 31566 net.cpp:434] mbox_priorbox <- fc7_mbox_priorbox
I0609 15:32:12.755981 31566 net.cpp:434] mbox_priorbox <- conv6_2_mbox_priorbox
I0609 15:32:12.755985 31566 net.cpp:434] mbox_priorbox <- conv7_2_mbox_priorbox
I0609 15:32:12.755986 31566 net.cpp:434] mbox_priorbox <- conv8_2_mbox_priorbox
I0609 15:32:12.755990 31566 net.cpp:434] mbox_priorbox <- conv9_2_mbox_priorbox
I0609 15:32:12.755992 31566 net.cpp:408] mbox_priorbox -> mbox_priorbox
I0609 15:32:12.756011 31566 net.cpp:150] Setting up mbox_priorbox
I0609 15:32:12.756016 31566 net.cpp:157] Top shape: 1 2 34928 (69856)
I0609 15:32:12.756016 31566 net.cpp:165] Memory required for data: 7934891808
I0609 15:32:12.756018 31566 layer_factory.hpp:77] Creating layer mbox_loss
I0609 15:32:12.756027 31566 net.cpp:100] Creating Layer mbox_loss
I0609 15:32:12.756031 31566 net.cpp:434] mbox_loss <- mbox_loc
I0609 15:32:12.756033 31566 net.cpp:434] mbox_loss <- mbox_conf
I0609 15:32:12.756036 31566 net.cpp:434] mbox_loss <- mbox_priorbox
…
  name: "data"
  type: "AnnotatedData"
  top: "data"
  top: "label"
  include {
    phase: TEST
  }
  transform_param {
    mean_value: 104
    mean_value: 117
    mean_value: 123
    resize_param {
      prob: 1
      resize_mode: WARP
      height: 300
      width: 300
      interp_mode: LINEAR
    }
  }
  data_param {
    source: "examples/sharpen_tbs_v2.0/sharpen_tbs_v2.0_test_lmdb"
    batch_size: 4
    backend: LMDB
  }
  annotated_data_param {
    batch_sampler {
    }
    label_map_file: "data/sharpen_tbs_v2.0/labelmap_voc.prototxt"
  }
}
layer {
  name: "conv1_1"
  type: "Convolution"
  bottom: "data"
  top: "conv1_1"
  param {
    lr_mult: 1
    decay_mult: 1
  }
  param {
    lr_mult: 2
    decay_mult: 0
  }
  convolution_param {
    num_output: 64
    pad: 1
    kernel_size: 3
    weight_filler {
      type: "xavier"
    }
    bias_filler {
      type: "constant"
      value: 0
    }
  }
}
layer {
  name: "relu1_1"
  type: "ReLU"
  bottom: "conv1_1"
  top: "conv1_1"
}
layer {
  name: "conv1_2"
  type: "Convolution"
  bottom: "conv1_1"
  top: "conv1_2"
  param {
    lr_mult: 1
    decay_mult: 1
  }
  param {
    lr_mult: 2
    decay_mult: 0
  }
  convolution_param {
    num_output: 64
    pad: 1
    kernel_size: 3
    weight_filler {
      type: "xavier"
    }
    bias_filler {
      type: "constant"
      value: 0
    }
  }
}
layer {
  name: "relu1_2"
  type: "ReLU"
  bottom: "conv1_2"
  top: "conv1_2"
}
layer {
  name: "pool1"
  type: "Pooling"
  bottom: "conv1_2"
  top: "pool1"
  pooling_param {
    pool: MAX
    kernel_size: 2
    stride: 2
  }
}
layer {
  name: "conv2_1"
  type: "Convolution"
  bottom: "pool1"
  top: "conv2_1"
  param {
    lr_mult: 1
    decay_mult: 1
  }
  param {
    lr_mult: 2
    decay_mult: 0
  }
  convolution_param {
    num_output: 128
    pad: 1
    kernel_size: 3
    weight_filler {
      type: "xavier"
    }
    bias_filler {
      type: "constant"
      value: 0
    }
  }
}
layer {
  name: "relu2_1"
  type: "ReLU"
  bottom: "conv2_1"
  top: "conv2_1"
}
layer {
  name: "conv2_2"
  type: "Convolution"
  bottom: "conv2_1"
  top: "conv2_2"
  param {
    lr_mult: 1
    decay_mult: 1
  }
  param {
    lr_mult: 2
    decay_mult: 0
  }
  convolution_param {
    num_output: 128
    pad: 1
    kernel_size: 3
    weight_filler {
      type: "xavier"
    }
    bias_filler {
      type: "constant"
      value: 0
    }
  }
}
layer {
  name: "relu2_2"
  type: "ReLU"
  bottom: "conv2_2"
  top: "conv2_2"
}
layer {
  name: "pool2"
  type: "Pooling"
  bottom: "conv2_2"
  top: "pool2"
  pooling_param {
    pool: MAX
    kernel_size: 2
    stride: 2
  }
}
layer {
  name: "conv3_1"
  type: "Convolution"
  bottom: "pool2"
  top: "conv3_1"
  param {
    lr_mult: 1
    decay_mult: 1
  }
  param {
    lr_mult: 2
    decay_mult: 0
  }
  convolution_param {
    num_output: 256
    pad: 1
    kernel_size: 3
    weight_filler {
      type: "xavier"
    }
    bias_filler {
      type: "constant"
      value: 0
    }
  }
}
layer {
  name: "relu3_1"
  type: "ReLU"
  bottom: "conv3_1"
  top: "conv3_1"
}
layer {
  name: "conv3_2"
  type: "Convolution"
  bottom: "conv3_1"
  top: "conv3_2"
  param {
    lr_mult: 1
    decay_mult: 1
  }
  param {
    lr_mult: 2
    decay_mult: 0
  }
  convolution_param {
    num_output: 256
    pad: 1
    kernel_size: 3
    weight_filler {
      type: "xavier"
    }
    bias_filler {
      type: "constant"
      value: 0
    }
  }
}
layer {
  name: "relu3_2"
  type: "ReLU"
  bottom: "conv3_2"
  top: "conv3_2"
}
layer {
  name: "conv3_3"
  type: "Convolution"
  bottom: "conv3_2"
  top: "conv3_3"
  param {
    lr_mult: 1
    decay_mult: 1
  }
  param {
    lr_mult: 2
    decay_mult: 0
  }
  convolution_param {
    num_output: 256
    pad: 1
    kernel_size: 3
    weight_filler {
      type: "xavier"
    }
    bias_filler {
      type: "constant"
      value: 0
    }
  }
}
layer {
  name: "relu3_3"
  type: "ReLU"
  bottom: "conv3_3"
  top: "conv3_3"
}
layer {
  name: "pool3"
  type: "Pooling"
  bottom: "conv3_3"
  top: "pool3"
  pooling_param {
    pool: MAX
    kernel_size: 2
    stride: 2
  }
}
layer {
  name: "conv4_1"
  type: "Convolution"
  bottom: "pool3"
  top: "conv4_1"
  param {
    lr_mult: 1
    decay_mult: 1
  }
  param {
    lr_mult: 2
    decay_mult: 0
  }
  convolution_param {
    num_output: 512
    pad: 1
    kernel_size: 3
    weight_filler {
      type: "xavier"
    }
    bias_filler {
      type: "constant"
      value: 0
    }
  }
}
layer {
  name: "relu4_1"
  type: "ReLU"
  bottom: "conv4_1"
  top: "conv4_1"
}
layer {
  name: "conv4_2"
  type: "Convolution"
  bottom: "conv4_1"
  top: "conv4_2"
  param {
    lr_mult: 1
    decay_mult: 1
  }
  param {
    lr_mult: 2
    decay_mult: 0
  }
  convolution_param {
    num_output: 512
    pad: 1
    kernel_size: 3
    weight_filler {
      type: "xavier"
    }
    bias_filler {
      type: "constant"
      value: 0
    }
  }
}
layer {
  name: "relu4_2"
  type: "ReLU"
  bottom: "conv4_2"
  top: "conv4_2"
}
layer {
  name: "conv4_3"
  type: "Convolution"
  bottom: "conv4_2"
  top: "conv4_3"
  param {
    lr_mult: 1
    decay_mult: 1
  }
  param {
    lr_mult: 2
    decay_mult: 0
  }
  convolution_param {
    num_output: 512
    pad: 1
    kernel_size: 3
    weight_filler {
      type: "xavier"
    }
    bias_filler {
      type: "constant"
      value: 0
    }
  }
}
layer {
  name: "relu4_3"
  type: "ReLU"
  bottom: "conv4_3"
  top: "conv4_3"
}
layer {
  name: "pool4"
  type: "Pooling"
  bottom: "conv4_3"
  top: "pool4"
  pooling_param {
    pool: MAX
    kernel_size: 2
    stride: 2
  }
}
layer {
  name: "conv5_1"
  type: "Convolution"
  bottom: "pool4"
  top: "conv5_1"
  param {
    lr_mult: 1
    decay_mult: 1
  }
  param {
    lr_mult: 2
    decay_mult: 0
  }
  convolution_param {
    num_output: 512
    pad: 1
    kernel_size: 3
    weight_filler {
      type: "xavier"
    }
    bias_filler {
      type: "constant"
      value: 0
    }
    dilation: 1
  }
}
layer {
  name: "relu5_1"
  type: "ReLU"
  bottom: "conv5_1"
  top: "conv5_1"
}
layer {
  name: "conv5_2"
  type: "Convolution"
  bottom: "conv5_1"
  top: "conv5_2"
  param {
    lr_mult: 1
    decay_mult: 1
  }
  param {
    lr_mult: 2
    decay_mult: 0
  }
  convolution_param {
    num_output: 512
    pad: 1
    kernel_size: 3
    weight_filler {
      type: "xavier"
    }
    bias_filler {
      type: "constant"
      value: 0
    }
    dilation: 1
  }
}
layer {
  name: "relu5_2"
  type: "ReLU"
  bottom: "conv5_2"
  top: "conv5_2"
}
layer {
  name: "conv5_3"
  type: "Convolution"
  bottom: "conv5_2"
  top: "conv5_3"
  param {
    lr_mult: 1
    decay_mult: 1
  }
  param {
    lr_mult: 2
    decay_mult: 0
  }
  convolution_param {
    num_output: 512
    pad: 1
    kernel_size: 3
    weight_filler {
      type: "xavier"
    }
    bias_filler {
      type: "constant"
      value: 0
    }
    dilation: 1
  }
}
layer {
  name: "relu5_3"
  type: "ReLU"
  bottom: "conv5_3"
  top: "conv5_3"
}
layer {
  name: "pool5"
  type: "Pooling"
  bottom: "conv5_3"
  top: "pool5"
  pooling_param {
    pool: MAX
    kernel_size: 3
    stride: 1
    pad: 1
  }
}
layer {
  name: "fc6"
  type: "Convolution"
  bottom: "pool5"
  top: "fc6"
  param {
    lr_mult: 1
    decay_mult: 1
  }
  param {
    lr_mult: 2
    decay_mult: 0
  }
  convolution_param {
    num_output: 1024
    pad: 6
    kernel_size: 3
    weight_filler {
      type: "xavier"
    }
    bias_filler {
      type: "constant"
      value: 0
    }
    dilation: 6
  }
}
layer {
  name: "relu6"
  type: "ReLU"
  bottom: "fc6"
  top: "fc6"
}
layer {
  name: "fc7"
  type: "Convolution"
  bottom: "fc6"
  top: "fc7"
  param {
    lr_mult: 1
    decay_mult: 1
  }
  param {
    lr_mult: 2
    decay_mult: 0
  }
  convolution_param {
    num_output: 1024
    kernel_size: 1
    weight_filler {
      type: "xavier"
    }
    bias_filler {
      type: "constant"
      value: 0
    }
  }
}
layer {
  name: "relu7"
  type: "ReLU"
  bottom: "fc7"
  top: "fc7"
}
layer {
  name: "conv6_1"
  type: "Convolution"
  bottom: "fc7"
  top: "conv6_1"
  param {
    lr_mult: 1
    decay_mult: 1
  }
  param {
    lr_mult: 2
    decay_mult: 0
  }
  convolution_param {
    num_output: 256
    pad: 0
    kernel_size: 1
    stride: 1
    weight_filler {
      type: "xavier"
    }
    bias_filler {
      type: "constant"
      value: 0
    }
  }
}
layer {
  name: "conv6_1_relu"
  type: "ReLU"
  bottom: "conv6_1"
  top: "conv6_1"
}
layer {
  name: "conv6_2"
  type: "Convolution"
  bottom: "conv6_1"
  top: "conv6_2"
  param {
    lr_mult: 1
    decay_mult: 1
  }
  param {
    lr_mult: 2
    decay_mult: 0
  }
  convolution_param {
    num_output: 512
    pad: 1
    kernel_size: 3
    stride: 2
    weight_filler {
      type: "xavier"
    }
    bias_filler {
      type: "constant"
      value: 0
    }
  }
}
layer {
  name: "conv6_2_relu"
  type: "ReLU"
  bottom: "conv6_2"
  top: "conv6_2"
}
layer {
  name: "conv7_1"
  type: "Convolution"
  bottom: "conv6_2"
  top: "conv7_1"
  param {
    lr_mult: 1
    decay_mult: 1
  }
  param {
    lr_mult: 2
    decay_mult: 0
  }
  convolution_param {
    num_output: 128
    pad: 0
    kernel_size: 1
    stride: 1
    weight_filler {
      type: "xavier"
    }
    bias_filler {
      type: "constant"
      value: 0
    }
  }
}
layer {
  name: "conv7_1_relu"
  type: "ReLU"
  bottom: "conv7_1"
  top: "conv7_1"
}
layer {
  name: "conv7_2"
  type: "Convolution"
  bottom: "conv7_1"
  top: "conv7_2"
  param {
    lr_mult: 1
    decay_mult: 1
  }
  param {
    lr_mult: 2
    decay_mult: 0
  }
  convolution_param {
    num_output: 256
    pad: 1
    kernel_size: 3
    stride: 2
    weight_filler {
      type: "xavier"
    }
    bias_filler {
      type: "constant"
      value: 0
    }
  }
}
layer {
  name: "conv7_2_relu"
  type: "ReLU"
  bottom: "conv7_2"
  top: "conv7_2"
}
layer {
  name: "conv8_1"
  type: "Convolution"
  bottom: "conv7_2"
  top: "conv8_1"
  param {
    lr_mult: 1
    decay_mult: 1
  }
  param {
    lr_mult: 2
    decay_mult: 0
  }
  convolution_param {
    num_output: 128
    pad: 0
    kernel_size: 1
    stride: 1
    weight_filler {
      type: "xavier"
    }
    bias_filler {
      type: "constant"
      value: 0
    }
  }
}
layer {
  name: "conv8_1_relu"
  type: "ReLU"
  bottom: "conv8_1"
  top: "conv8_1"
}
layer {
  name: "conv8_2"
  type: "Convolution"
  bottom: "conv8_1"
  top: "conv8_2"
  param {
    lr_mult: 1
    decay_mult: 1
  }
  param {
    lr_mult: 2
    decay_mult: 0
  }
  convolution_param {
    num_output: 256
    pad: 0
    kernel_size: 3
    stride: 1
    weight_filler {
      type: "xavier"
    }
    bias_filler {
      type: "constant"
      value: 0
    }
  }
}
layer {
  name: "conv8_2_relu"
  type: "ReLU"
  bottom: "conv8_2"
  top: "conv8_2"
}
layer {
  name: "conv9_1"
  type: "Convolution"
  bottom: "conv8_2"
  top: "conv9_1"
  param {
    lr_mult: 1
    decay_mult: 1
  }
  param {
    lr_mult: 2
    decay_mult: 0
  }
  convolution_param {
    num_output: 128
    pad: 0
    kernel_size: 1
    stride: 1
    weight_filler {
      type: "xavier"
    }
    bias_filler {
      type: "constant"
      value: 0
    }
  }
}
layer {
  name: "conv9_1_relu"
  type: "ReLU"
  bottom: "conv9_1"
  top: "conv9_1"
}
layer {
  name: "conv9_2"
  type: "Convolution"
  bottom: "conv9_1"
  top: "conv9_2"
  param {
    lr_mult: 1
    decay_mult: 1
  }
  param {
    lr_mult: 2
    decay_mult: 0
  }
  convolution_param {
    num_output: 256
    pad: 0
    kernel_size: 3
    stride: 1
    weight_filler {
      type: "xavier"
    }
    bias_filler {
      type: "constant"
      value: 0
    }
  }
}
layer {
  name: "conv9_2_relu"
  type: "ReLU"
  bottom: "conv9_2"
  top: "conv9_2"
}
layer {
  name: "conv4_3_norm"
  type: "Normalize"
  bottom: "conv4_3"
  top: "conv4_3_norm"
  norm_param {
    across_spatial: false
    scale_filler {
      type: "constant"
      value: 20
    }
    channel_shared: false
  }
}
layer {
  name: "conv4_3_norm_mbox_loc"
  type: "Convolution"
  bottom: "conv4_3_norm"
  top: "conv4_3_norm_mbox_loc"
  param {
    lr_mult: 1
    decay_mult: 1
  }
  param {
    lr_mult: 2
    decay_mult: 0
  }
  convolution_param {
    num_output: 16
    pad: 1
    kernel_size: 3
    stride: 1
    weight_filler {
      type: "xavier"
    }
    bias_filler {
      type: "constant"
      value: 0
    }
  }
}
layer {
  name: "conv4_3_norm_mbox_loc_perm"
  type: "Permute"
  bottom: "conv4_3_norm_mbox_loc"
  top: "conv4_3_norm_mbox_loc_perm"
  permute_param {
    order: 0
    order: 2
    order: 3
    order: 1
  }
}
layer {
  name: "conv4_3_norm_mbox_loc_flat"
  type: "Flatten"
  bottom: "conv4_3_norm_mbox_loc_perm"
  top: "conv4_3_norm_mbox_loc_flat"
  flatten_param {
    axis: 1
  }
}
layer {
  name: "conv4_3_norm_mbox_conf"
  type: "Convolution"
  bottom: "conv4_3_norm"
  top: "conv4_3_norm_mbox_conf"
  param {
    lr_mult: 1
    decay_mult: 1
  }
  param {
    lr_mult: 2
    decay_mult: 0
  }
  convolution_param {
    num_output: 8
    pad: 1
    kernel_size: 3
    stride: 1
    weight_filler {
      type: "xavier"
    }
    bias_filler {
      type: "constant"
      value: 0
    }
  }
}
layer {
  name: "conv4_3_norm_mbox_conf_perm"
  type: "Permute"
  bottom: "conv4_3_norm_mbox_conf"
  top: "conv4_3_norm_mbox_conf_perm"
  permute_param {
    order: 0
    order: 2
    order: 3
    order: 1
  }
}
layer {
  name: "conv4_3_norm_mbox_conf_flat"
  type: "Flatten"
  bottom: "conv4_3_norm_mbox_conf_perm"
  top: "conv4_3_norm_mbox_conf_flat"
  flatten_param {
    axis: 1
  }
}
layer {
  name: "conv4_3_norm_mbox_priorbox"
  type: "PriorBox"
  bottom: "conv4_3_norm"
  bottom: "data"
  top: "conv4_3_norm_mbox_priorbox"
  prior_box_param {
    min_size: 30
    max_size: 60
    aspect_ratio: 2
    flip: true
    clip: false
    variance: 0.1
    variance: 0.1
    variance: 0.2
    variance: 0.2
    step: 8
    offset: 0.5
  }
}
layer {
  name: "fc7_mbox_loc"
  type: "Convolution"
  bottom: "fc7"
  top: "fc7_mbox_loc"
  param {
    lr_mult: 1
    decay_mult: 1
  }
  param {
    lr_mult: 2
    decay_mult: 0
  }
  convolution_param {
    num_output: 24
    pad: 1
    kernel_size: 3
    stride: 1
    weight_filler {
      type: "xavier"
    }
    bias_filler {
      type: "constant"
      value: 0
    }
  }
}
layer {
  name: "fc7_mbox_loc_perm"
  type: "Permute"
  bottom: "fc7_mbox_loc"
  top: "fc7_mbox_loc_perm"
  permute_param {
    order: 0
    order: 2
    order: 3
    order: 1
  }
}
layer {
  name: "fc7_mbox_loc_flat"
  type: "Flatten"
  bottom: "fc7_mbox_loc_perm"
  top: "fc7_mbox_loc_flat"
  flatten_param {
    axis: 1
  }
}
layer {
  name: "fc7_mbox_conf"
  type: "Convolution"
  bottom: "fc7"
  top: "fc7_mbox_conf"
  param {
    lr_mult: 1
    decay_mult: 1
  }
  param {
    lr_mult: 2
    decay_mult: 0
  }
  convolution_param {
    num_output: 12
    pad: 1
    kernel_size: 3
    stride: 1
    weight_filler {
      type: "xavier"
    }
    bias_filler {
      type: "constant"
      value: 0
    }
  }
}
layer {
  name: "fc7_mbox_conf_perm"
  type: "Permute"
  bottom: "fc7_mbox_conf"
  top: "fc7_mbox_conf_perm"
  permute_param {
    order: 0
    order: 2
    order: 3
    order: 1
  }
}
layer {
  name: "fc7_mbox_conf_flat"
  type: "Flatten"
  bottom: "fc7_mbox_conf_perm"
  top: "fc7_mbox_conf_flat"
  flatten_param {
    axis: 1
  }
}
layer {
  name: "fc7_mbox_priorbox"
  type: "PriorBox"
  bottom: "fc7"
  bottom: "data"
  top: "fc7_mbox_priorbox"
  prior_box_param {
    min_size: 60
    max_size: 111
    aspect_ratio: 2
    aspect_ratio: 3
    flip: true
    clip: false
    variance: 0.1
    variance: 0.1
    variance: 0.2
    variance: 0.2
    step: 16
    offset: 0.5
  }
}
layer {
  name: "conv6_2_mbox_loc"
  type: "Convolution"
  bottom: "conv6_2"
  top: "conv6_2_mbox_loc"
  param {
    lr_mult: 1
    decay_mult: 1
  }
  param {
    lr_mult: 2
    decay_mult: 0
  }
  convolution_param {
    num_output: 24
    pad: 1
    kernel_size: 3
    stride: 1
    weight_filler {
      type: "xavier"
    }
    bias_filler {
      type: "constant"
      value: 0
    }
  }
}
layer {
  name: "conv6_2_mbox_loc_perm"
  type: "Permute"
  bottom: "conv6_2_mbox_loc"
  top: "conv6_2_mbox_loc_perm"
  permute_param {
    order: 0
    order: 2
    order: 3
    order: 1
  }
}
layer {
  name: "conv6_2_mbox_loc_flat"
  type: "Flatten"
  bottom: "conv6_2_mbox_loc_perm"
  top: "conv6_2_mbox_loc_flat"
  flatten_param {
    axis: 1
  }
}
layer {
  name: "conv6_2_mbox_conf"
  type: "Convolution"
  bottom: "conv6_2"
  top: "conv6_2_mbox_conf"
  param {
    lr_mult: 1
    decay_mult: 1
  }
  param {
    lr_mult: 2
    decay_mult: 0
  }
  convolution_param {
    num_output: 12
    pad: 1
    kernel_size: 3
    stride: 1
    weight_filler {
      type: "xavier"
    }
    bias_filler {
      type: "constant"
      value: 0
    }
  }
}
layer {
  name: "conv6_2_mbox_conf_perm"
  type: "Permute"
  bottom: "conv6_2_mbox_conf"
  top: "conv6_2_mbox_conf_perm"
  permute_param {
    order: 0
    order: 2
    order: 3
    order: 1
  }
}
layer {
  name: "conv6_2_mbox_conf_flat"
  type: "Flatten"
  bottom: "conv6_2_mbox_conf_perm"
  top: "conv6_2_mbox_conf_flat"
  flatten_param {
    axis: 1
  }
}
layer {
  name: "conv6_2_mbox_priorbox"
  type: "PriorBox"
  bottom: "conv6_2"
  bottom: "data"
  top: "conv6_2_mbox_priorbox"
  prior_box_param {
    min_size: 111
    max_size: 162
    aspect_ratio: 2
    aspect_ratio: 3
    flip: true
    clip: false
    variance: 0.1
    variance: 0.1
    variance: 0.2
    variance: 0.2
    step: 32
    offset: 0.5
  }
}
layer {
  name: "conv7_2_mbox_loc"
  type: "Convolution"
  bottom: "conv7_2"
  top: "conv7_2_mbox_loc"
  param {
    lr_mult: 1
    decay_mult: 1
  }
  param {
    lr_mult: 2
    decay_mult: 0
  }
  convolution_param {
    num_output: 24
    pad: 1
    kernel_size: 3
    stride: 1
    weight_filler {
      type: "xavier"
    }
    bias_filler {
      type: "constant"
      value: 0
    }
  }
}
layer {
  name: "conv7_2_mbox_loc_perm"
  type: "Permute"
  bottom: "conv7_2_mbox_loc"
  top: "conv7_2_mbox_loc_perm"
  permute_param {
    order: 0
    order: 2
    order: 3
    order: 1
  }
}
layer {
  name: "conv7_2_mbox_loc_flat"
  type: "Flatten"
  bottom: "conv7_2_mbox_loc_perm"
  top: "conv7_2_mbox_loc_flat"
  flatten_param {
    axis: 1
  }
}
layer {
  name: "conv7_2_mbox_conf"
  type: "Convolution"
  bottom: "conv7_2"
  top: "conv7_2_mbox_conf"
  param {
    lr_mult: 1
    decay_mult: 1
  }
  param {
    lr_mult: 2
    decay_mult: 0
  }
  convolution_param {
    num_output: 12
    pad: 1
    kernel_size: 3
    stride: 1
    weight_filler {
      type: "xavier"
    }
    bias_filler {
      type: "constant"
      value: 0
    }
  }
}
layer {
  name: "conv7_2_mbox_conf_perm"
  type: "Permute"
  bottom: "conv7_2_mbox_conf"
  top: "conv7_2_mbox_conf_perm"
  permute_param {
    order: 0
    order: 2
    order: 3
    order: 1
  }
}
layer {
  name: "conv7_2_mbox_conf_flat"
  type: "Flatten"
  bottom: "conv7_2_mbox_conf_perm"
  top: "conv7_2_mbox_conf_flat"
  flatten_param {
    axis: 1
  }
}
layer {
  name: "conv7_2_mbox_priorbox"
  type: "PriorBox"
  bottom: "conv7_2"
  bottom: "data"
  top: "conv7_2_mbox_priorbox"
  prior_box_param {
    min_size: 162
    max_size: 213
    aspect_ratio: 2
    aspect_ratio: 3
    flip: true
    clip: false
    variance: 0.1
    variance: 0.1
    variance: 0.2
    variance: 0.2
    step: 64
    offset: 0.5
  }
}
layer {
  name: "conv8_2_mbox_loc"
  type: "Convolution"
  bottom: "conv8_2"
  top: "conv8_2_mbox_loc"
  param {
    lr_mult: 1
    decay_mult: 1
  }
  param {
    lr_mult: 2
    decay_mult: 0
  }
  convolution_param {
    num_output: 16
    pad: 1
    kernel_size: 3
    stride: 1
    weight_filler {
      type: "xavier"
    }
    bias_filler {
      type: "constant"
      value: 0
    }
  }
}
layer {
  name: "conv8_2_mbox_loc_perm"
  type: "Permute"
  bottom: "conv8_2_mbox_loc"
  top: "conv8_2_mbox_loc_perm"
  permute_param {
    order: 0
    order: 2
    order: 3
    order: 1
  }
}
layer {
  name: "conv8_2_mbox_loc_flat"
  type: "Flatten"
  bottom: "conv8_2_mbox_loc_perm"
  top: "conv8_2_mbox_loc_flat"
  flatten_param {
    axis: 1
  }
}
layer {
  name: "conv8_2_mbox_conf"
  type: "Convolution"
  bottom: "conv8_2"
  top: "conv8_2_mbox_conf"
  param {
    lr_mult: 1
    decay_mult: 1
  }
  param {
    lr_mult: 2
    decay_mult: 0
  }
  convolution_param {
    num_output: 8
    pad: 1
    kernel_size: 3
    stride: 1
    weight_filler {
      type: "xavier"
    }
    bias_filler {
      type: "constant"
      value: 0
    }
  }
}
layer {
  name: "conv8_2_mbox_conf_perm"
  type: "Permute"
  bottom: "conv8_2_mbox_conf"
  top: "conv8_2_mbox_conf_perm"
  permute_param {
    order: 0
    order: 2
    order: 3
    order: 1
  }
}
layer {
  name: "conv8_2_mbox_conf_flat"
  type: "Flatten"
  bottom: "conv8_2_mbox_conf_perm"
  top: "conv8_2_mbox_conf_flat"
  flatten_param {
    axis: 1
  }
}
layer {
  name: "conv8_2_mbox_priorbox"
  type: "PriorBox"
  bottom: "conv8_2"
  bottom: "data"
  top: "conv8_2_mbox_priorbox"
  prior_box_param {
    min_size: 213
    max_size: 264
    aspect_ratio: 2
    flip: true
    clip: false
    variance: 0.1
    variance: 0.1
    variance: 0.2
    variance: 0.2
    step: 100
    offset: 0.5
  }
}
layer {
  name: "conv9_2_mbox_loc"
  type: "Convolution"
  bottom: "conv9_2"
  top: "conv9_2_mbox_loc"
  param {
    lr_mult: 1
    decay_mult: 1
  }
  param {
    lr_mult: 2
    decay_mult: 0
  }
  convolution_param {
    num_output: 16
    pad: 1
    kernel_size: 3
    stride: 1
    weight_filler {
      type: "xavier"
    }
    bias_filler {
      type: "constant"
      value: 0
    }
  }
}
layer {
  name: "conv9_2_mbox_loc_perm"
  type: "Permute"
  bottom: "conv9_2_mbox_loc"
  top: "conv9_2_mbox_loc_perm"
  permute_param {
    order: 0
    order: 2
    order: 3
    order: 1
  }
}
layer {
  name: "conv9_2_mbox_loc_flat"
  type: "Flatten"
  bottom: "conv9_2_mbox_loc_perm"
  top: "conv9_2_mbox_loc_flat"
  flatten_param {
    axis: 1
  }
}
layer {
  name: "conv9_2_mbox_conf"
  type: "Convolution"
  bottom: "conv9_2"
  top: "conv9_2_mbox_conf"
  param {
    lr_mult: 1
    decay_mult: 1
  }
  param {
    lr_mult: 2
    decay_mult: 0
  }
  convolution_param {
    num_output: 8
    pad: 1
    kernel_size: 3
    stride: 1
    weight_filler {
      type: "xavier"
    }
    bias_filler {
      type: "constant"
      value: 0
    }
  }
}
layer {
  name: "conv9_2_mbox_conf_perm"
  type: "Permute"
  bottom: "conv9_2_mbox_conf"
  top: "conv9_2_mbox_conf_perm"
  permute_param {
    order: 0
    order: 2
    order: 3
    order: 1
  }
}
layer {
  name: "conv9_2_mbox_conf_flat"
  type: "Flatten"
  bottom: "conv9_2_mbox_conf_perm"
  top: "conv9_2_mbox_conf_flat"
  flatten_param {
    axis: 1
  }
}
layer {
  name: "conv9_2_mbox_priorbox"
  type: "PriorBox"
  bottom: "conv9_2"
  bottom: "data"
  top: "conv9_2_mbox_priorbox"
  prior_box_param {
    min_size: 264
    max_size: 315
    aspect_ratio: 2
    flip: true
    clip: false
    variance: 0.1
    variance: 0.1
    variance: 0.2
    variance: 0.2
    step: 300
    offset: 0.5
  }
}
layer {
  name: "mbox_loc"
  type: "Concat"
  bottom: "conv4_3_norm_mbox_loc_flat"
  bottom: "fc7_mbox_loc_flat"
  bottom: "conv6_2_mbox_loc_flat"
  bottom: "conv7_2_mbox_loc_flat"
  bottom: "conv8_2_mbox_loc_flat"
  bottom: "conv9_2_mbox_loc_flat"
  top: "mbox_loc"
  concat_param {
    axis: 1
  }
}
layer {
  name: "mbox_conf"
  type: "Concat"
  bottom: "conv4_3_norm_mbox_conf_flat"
  bottom: "fc7_mbox_conf_flat"
  bottom: "conv6_2_mbox_conf_flat"
  bottom: "conv7_2_mbox_conf_flat"
  bottom: "conv8_2_mbox_conf_flat"
  bottom: "conv9_2_mbox_conf_flat"
  top: "mbox_conf"
  concat_param {
    axis: 1
  }
}
layer {
  name: "mbox_priorbox"
  type: "Concat"
  bottom: "conv4_3_norm_mbox_priorbox"
  bottom: "fc7_mbox_priorbox"
  bottom: "conv6_2_mbox_priorbox"
  bottom: "conv7_2_mbox_priorbox"
  bottom: "conv8_2_mbox_priorbox"
  bottom: "conv9_2_mbox_priorbox"
  top: "mbox_priorbox"
  concat_param {
    axis: 2
  }
}
layer {
  name: "mbox_conf_reshape"
  type: "Reshape"
  bottom: "mbox_conf"
  top: "mbox_conf_reshape"
  reshape_param {
    shape {
      dim: 0
      dim: -1
      dim: 2
    }
  }
}
layer {
  name: "mbox_conf_softmax"
  type: "Softmax"
  bottom: "mbox_conf_reshape"
  top: "mbox_conf_softmax"
  softmax_param {
    axis: 2
  }
}
layer {
  name: "mbox_conf_flatten"
  type: "Flatten"
  bottom: "mbox_conf_softmax"
  top: "mbox_conf_flatten"
  flatten_param {
    axis: 1
  }
}
layer {
  name: "detection_out"
  type: "DetectionOutput"
  bottom: "mbox_loc"
  bottom: "mbox_conf_flatten"
  bottom: "mbox_priorbox"
  top: "detection_out"
  include {
    phase: TEST
  }
  detection_output_param {
    num_classes: 2
    share_location: true
    background_label_id: 0
    nms_param {
      nms_threshold: 0.45
      top_k: 400
    }
    save_output_param {
      output_directory: "/home/shangzw/data/sharpen_tbs_v2.0/results/tbs/SSD_300x300/Main"
      output_name_prefix: "comp4_det_test_"
      output_format: "VOC"
      label_map_file: "data/sharpen_tbs_v2.0/labelmap_voc.prototxt"
      name_size_file: "data/sharpen_tbs_v2.0/test_name_size"
      num_test_image: 100
    }
    code_type: CENTER_SIZE
    keep_top_k: 200
    confidence_threshold: 0.01
  }
}
layer {
  name: "detection_eval"
  type: "DetectionEvaluate"
  bottom: "detection_out"
  bottom: "label"
  top: "detection_eval"
  include {
    phase: TEST
  }
  detection_evaluate_param {
    num_classes: 2
    background_label_id: 0
    overlap_threshold: 0.5
    evaluate_difficult_gt: false
    name_size_file: "data/sharpen_tbs_v2.0/test_name_size"
  }
}
I0609 15:32:12.758410 31566 layer_factory.hpp:77] Creating layer data
I0609 15:32:12.758461 31566 net.cpp:100] Creating Layer data
I0609 15:32:12.758476 31566 net.cpp:408] data -> data
I0609 15:32:12.758483 31566 net.cpp:408] data -> label
I0609 15:32:12.758920 31588 db_lmdb.cpp:35] Opened lmdb examples/sharpen_tbs_v2.0/sharpen_tbs_v2.0_test_lmdb
I0609 15:32:12.760572 31566 annotated_data_layer.cpp:62] output data size: 4,3,300,300
I0609 15:32:12.770025 31566 net.cpp:150] Setting up data
I0609 15:32:12.770041 31566 net.cpp:157] Top shape: 4 3 300 300 (1080000)
I0609 15:32:12.770045 31566 net.cpp:157] Top shape: 1 1 1 8 (8)
I0609 15:32:12.770047 31566 net.cpp:165] Memory required for data: 4320032
I0609 15:32:12.770051 31566 layer_factory.hpp:77] Creating layer data_data_0_split
I0609 15:32:12.770059 31566 net.cpp:100] Creating Layer data_data_0_split
I0609 15:32:12.770062 31566 net.cpp:434] data_data_0_split <- data
I0609 15:32:12.770067 31566 net.cpp:408] data_data_0_split -> data_data_0_split_0
I0609 15:32:12.770076 31566 net.cpp:408] data_data_0_split -> data_data_0_split_1
I0609 15:32:12.770079 31566 net.cpp:408] data_data_0_split -> data_data_0_split_2
I0609 15:32:12.770087 31566 net.cpp:408] data_data_0_split -> data_data_0_split_3
I0609 15:32:12.770092 31566 net.cpp:408] data_data_0_split -> data_data_0_split_4
I0609 15:32:12.770095 31566 net.cpp:408] data_data_0_split -> data_data_0_split_5
I0609 15:32:12.770098 31566 net.cpp:408] data_data_0_split -> data_data_0_split_6
I0609 15:32:12.770207 31566 net.cpp:150] Setting up data_data_0_split
I0609 15:32:12.770213 31566 net.cpp:157] Top shape: 4 3 300 300 (1080000)
I0609 15:32:12.770215 31566 net.cpp:157] Top shape: 4 3 300 300 (1080000)
I0609 15:32:12.770218 31566 net.cpp:157] Top shape: 4 3 300 300 (1080000)
I0609 15:32:12.770221 31566 net.cpp:157] Top shape: 4 3 300 300 (1080000)
I0609 15:32:12.770223 31566 net.cpp:157] Top shape: 4 3 300 300 (1080000)
I0609 15:32:12.770238 31566 net.cpp:157] Top shape: 4 3 300 300 (1080000)
I0609 15:32:12.770241 31566 net.cpp:157] Top shape: 4 3 300 300 (1080000)
I0609 15:32:12.770243 31566 net.cpp:165] Memory required for data: 34560032
I0609 15:32:12.770246 31566 layer_factory.hpp:77] Creating layer conv1_1
I0609 15:32:12.770254 31566 net.cpp:100] Creating Layer conv1_1
I0609 15:32:12.770257 31566 net.cpp:434] conv1_1 <- data_data_0_split_0
I0609 15:32:12.770262 31566 net.cpp:408] conv1_1 -> conv1_1
I0609 15:32:12.771597 31566 net.cpp:150] Setting up conv1_1
I0609 15:32:12.771608 31566 net.cpp:157] Top shape: 4 64 300 300 (23040000)
I0609 15:32:12.771611 31566 net.cpp:165] Memory required for data: 126720032
I0609 15:32:12.771620 31566 layer_factory.hpp:77] Creating layer relu1_1
I0609 15:32:12.771625 31566 net.cpp:100] Creating Layer relu1_1
I0609 15:32:12.771627 31566 net.cpp:434] relu1_1 <- conv1_1
I0609 15:32:12.771631 31566 net.cpp:395] relu1_1 -> conv1_1 (in-place)
I0609 15:32:12.771762 31566 net.cpp:150] Setting up relu1_1
I0609 15:32:12.771770 31566 net.cpp:157] Top shape: 4 64 300 300 (23040000)
I0609 15:32:12.771772 31566 net.cpp:165] Memory required for data: 218880032
I0609 15:32:12.771775 31566 layer_factory.hpp:77] Creating layer conv1_2
I0609 15:32:12.771782 31566 net.cpp:100] Creating Layer conv1_2
I0609 15:32:12.771785 31566 net.cpp:434] conv1_2 <- conv1_1
I0609 15:32:12.771790 31566 net.cpp:408] conv1_2 -> conv1_2
I0609 15:32:12.775230 31566 net.cpp:150] Setting up conv1_2
I0609 15:32:12.775254 31566 net.cpp:157] Top shape: 4 64 300 300 (23040000)
I0609 15:32:12.775256 31566 net.cpp:165] Memory required for data: 311040032
I0609 15:32:12.775267 31566 layer_factory.hpp:77] Creating layer relu1_2
I0609 15:32:12.775276 31566 net.cpp:100] Creating Layer relu1_2
I0609 15:32:12.775281 31566 net.cpp:434] relu1_2 <- conv1_2
I0609 15:32:12.775286 31566 net.cpp:395] relu1_2 -> conv1_2 (in-place)
I0609 15:32:12.776065 31566 net.cpp:150] Setting up relu1_2
I0609 15:32:12.776082 31566 net.cpp:157] Top shape: 4 64 300 300 (23040000)
I0609 15:32:12.776085 31566 net.cpp:165] Memory required for data: 403200032
I0609 15:32:12.776090 31566 layer_factory.hpp:77] Creating layer pool1
I0609 15:32:12.776098 31566 net.cpp:100] Creating Layer pool1
I0609 15:32:12.776103 31566 net.cpp:434] pool1 <- conv1_2
I0609 15:32:12.776113 31566 net.cpp:408] pool1 -> pool1
I0609 15:32:12.776180 31566 net.cpp:150] Setting up pool1
I0609 15:32:12.776188 31566 net.cpp:157] Top shape: 4 64 150 150 (5760000)
I0609 15:32:12.776191 31566 net.cpp:165] Memory required for data: 426240032
I0609 15:32:12.776193 31566 layer_factory.hpp:77] Creating layer conv2_1
I0609 15:32:12.776202 31566 net.cpp:100] Creating Layer conv2_1
I0609 15:32:12.776206 31566 net.cpp:434] conv2_1 <- pool1
I0609 15:32:12.776209 31566 net.cpp:408] conv2_1 -> conv2_1
I0609 15:32:12.777607 31566 net.cpp:150] Setting up conv2_1
I0609 15:32:12.777624 31566 net.cpp:157] Top shape: 4 128 150 150 (11520000)
I0609 15:32:12.777626 31566 net.cpp:165] Memory required for data: 472320032
I0609 15:32:12.777637 31566 layer_factory.hpp:77] Creating layer relu2_1
I0609 15:32:12.777645 31566 net.cpp:100] Creating Layer relu2_1
I0609 15:32:12.777648 31566 net.cpp:434] relu2_1 <- conv2_1
I0609 15:32:12.777652 31566 net.cpp:395] relu2_1 -> conv2_1 (in-place)
I0609 15:32:12.778426 31566 net.cpp:150] Setting up relu2_1
I0609 15:32:12.778440 31566 net.cpp:157] Top shape: 4 128 150 150 (11520000)
I0609 15:32:12.778443 31566 net.cpp:165] Memory required for data: 518400032
I0609 15:32:12.778446 31566 layer_factory.hpp:77] Creating layer conv2_2
I0609 15:32:12.778455 31566 net.cpp:100] Creating Layer conv2_2
I0609 15:32:12.778460 31566 net.cpp:434] conv2_2 <- conv2_1
I0609 15:32:12.778465 31566 net.cpp:408] conv2_2 -> conv2_2
I0609 15:32:12.780711 31566 net.cpp:150] Setting up conv2_2
I0609 15:32:12.780726 31566 net.cpp:157] Top shape: 4 128 150 150 (11520000)
I0609 15:32:12.780728 31566 net.cpp:165] Memory required for data: 564480032
I0609 15:32:12.780736 31566 layer_factory.hpp:77] Creating layer relu2_2
I0609 15:32:12.780767 31566 net.cpp:100] Creating Layer relu2_2
I0609 15:32:12.780772 31566 net.cpp:434] relu2_2 <- conv2_2
I0609 15:32:12.780776 31566 net.cpp:395] relu2_2 -> conv2_2 (in-place)
I0609 15:32:12.780920 31566 net.cpp:150] Setting up relu2_2
I0609 15:32:12.780927 31566 net.cpp:157] Top shape: 4 128 150 150 (11520000)
I0609 15:32:12.780930 31566 net.cpp:165] Memory required for data: 610560032
I0609 15:32:12.780931 31566 layer_factory.hpp:77] Creating layer pool2
I0609 15:32:12.780936 31566 net.cpp:100] Creating Layer pool2
I0609 15:32:12.780939 31566 net.cpp:434] pool2 <- conv2_2
I0609 15:32:12.780946 31566 net.cpp:408] pool2 -> pool2
I0609 15:32:12.780988 31566 net.cpp:150] Setting up pool2
I0609 15:32:12.780993 31566 net.cpp:157] Top shape: 4 128 75 75 (2880000)
I0609 15:32:12.780995 31566 net.cpp:165] Memory required for data: 622080032
I0609 15:32:12.780997 31566 layer_factory.hpp:77] Creating layer conv3_1
I0609 15:32:12.781005 31566 net.cpp:100] Creating Layer conv3_1
I0609 15:32:12.781009 31566 net.cpp:434] conv3_1 <- pool2
I0609 15:32:12.781013 31566 net.cpp:408] conv3_1 -> conv3_1
I0609 15:32:12.784412 31566 net.cpp:150] Setting up conv3_1
I0609 15:32:12.784425 31566 net.cpp:157] Top shape: 4 256 75 75 (5760000)
I0609 15:32:12.784428 31566 net.cpp:165] Memory required for data: 645120032
I0609 15:32:12.784437 31566 layer_factory.hpp:77] Creating layer relu3_1
I0609 15:32:12.784443 31566 net.cpp:100] Creating Layer relu3_1
I0609 15:32:12.784447 31566 net.cpp:434] relu3_1 <- conv3_1
I0609 15:32:12.784451 31566 net.cpp:395] relu3_1 -> conv3_1 (in-place)
I0609 15:32:12.784592 31566 net.cpp:150] Setting up relu3_1
I0609 15:32:12.784600 31566 net.cpp:157] Top shape: 4 256 75 75 (5760000)
I0609 15:32:12.784602 31566 net.cpp:165] Memory required for data: 668160032
I0609 15:32:12.784605 31566 layer_factory.hpp:77] Creating layer conv3_2
I0609 15:32:12.784616 31566 net.cpp:100] Creating Layer conv3_2
I0609 15:32:12.784621 31566 net.cpp:434] conv3_2 <- conv3_1
I0609 15:32:12.784624 31566 net.cpp:408] conv3_2 -> conv3_2
I0609 15:32:12.789337 31566 net.cpp:150] Setting up conv3_2
I0609 15:32:12.789352 31566 net.cpp:157] Top shape: 4 256 75 75 (5760000)
I0609 15:32:12.789355 31566 net.cpp:165] Memory required for data: 691200032
I0609 15:32:12.789361 31566 layer_factory.hpp:77] Creating layer relu3_2
I0609 15:32:12.789367 31566 net.cpp:100] Creating Layer relu3_2
I0609 15:32:12.789371 31566 net.cpp:434] relu3_2 <- conv3_2
I0609 15:32:12.789376 31566 net.cpp:395] relu3_2 -> conv3_2 (in-place)
I0609 15:32:12.789527 31566 net.cpp:150] Setting up relu3_2
I0609 15:32:12.789535 31566 net.cpp:157] Top shape: 4 256 75 75 (5760000)
I0609 15:32:12.789537 31566 net.cpp:165] Memory required for data: 714240032
I0609 15:32:12.789539 31566 layer_factory.hpp:77] Creating layer conv3_3
I0609 15:32:12.789552 31566 net.cpp:100] Creating Layer conv3_3
I0609 15:32:12.789556 31566 net.cpp:434] conv3_3 <- conv3_2
I0609 15:32:12.789561 31566 net.cpp:408] conv3_3 -> conv3_3
I0609 15:32:12.794301 31566 net.cpp:150] Setting up conv3_3
I0609 15:32:12.794315 31566 net.cpp:157] Top shape: 4 256 75 75 (5760000)
I0609 15:32:12.794318 31566 net.cpp:165] Memory required for data: 737280032
I0609 15:32:12.794325 31566 layer_factory.hpp:77] Creating layer relu3_3
I0609 15:32:12.794332 31566 net.cpp:100] Creating Layer relu3_3
I0609 15:32:12.794335 31566 net.cpp:434] relu3_3 <- conv3_3
I0609 15:32:12.794339 31566 net.cpp:395] relu3_3 -> conv3_3 (in-place)
I0609 15:32:12.794481 31566 net.cpp:150] Setting up relu3_3
I0609 15:32:12.794488 31566 net.cpp:157] Top shape: 4 256 75 75 (5760000)
I0609 15:32:12.794490 31566 net.cpp:165] Memory required for data: 760320032
I0609 15:32:12.794492 31566 layer_factory.hpp:77] Creating layer pool3
I0609 15:32:12.794497 31566 net.cpp:100] Creating Layer pool3
I0609 15:32:12.794500 31566 net.cpp:434] pool3 <- conv3_3
I0609 15:32:12.794504 31566 net.cpp:408] pool3 -> pool3
I0609 15:32:12.794543 31566 net.cpp:150] Setting up pool3
I0609 15:32:12.794548 31566 net.cpp:157] Top shape: 4 256 38 38 (1478656)
I0609 15:32:12.794562 31566 net.cpp:165] Memory required for data: 766234656
I0609 15:32:12.794564 31566 layer_factory.hpp:77] Creating layer conv4_1
I0609 15:32:12.794572 31566 net.cpp:100] Creating Layer conv4_1
I0609 15:32:12.794575 31566 net.cpp:434] conv4_1 <- pool3
I0609 15:32:12.794579 31566 net.cpp:408] conv4_1 -> conv4_1
I0609 15:32:12.802234 31566 net.cpp:150] Setting up conv4_1
I0609 15:32:12.802253 31566 net.cpp:157] Top shape: 4 512 38 38 (2957312)
I0609 15:32:12.802255 31566 net.cpp:165] Memory required for data: 778063904
I0609 15:32:12.802263 31566 layer_factory.hpp:77] Creating layer relu4_1
I0609 15:32:12.802268 31566 net.cpp:100] Creating Layer relu4_1
I0609 15:32:12.802273 31566 net.cpp:434] relu4_1 <- conv4_1
I0609 15:32:12.802279 31566 net.cpp:395] relu4_1 -> conv4_1 (in-place)
I0609 15:32:12.802953 31566 net.cpp:150] Setting up relu4_1
I0609 15:32:12.802963 31566 net.cpp:157] Top shape: 4 512 38 38 (2957312)
I0609 15:32:12.802964 31566 net.cpp:165] Memory required for data: 789893152
I0609 15:32:12.802968 31566 layer_factory.hpp:77] Creating layer conv4_2
I0609 15:32:12.802976 31566 net.cpp:100] Creating Layer conv4_2
I0609 15:32:12.802983 31566 net.cpp:434] conv4_2 <- conv4_1
I0609 15:32:12.802989 31566 net.cpp:408] conv4_2 -> conv4_2
I0609 15:32:12.815423 31566 net.cpp:150] Setting up conv4_2
I0609 15:32:12.815440 31566 net.cpp:157] Top shape: 4 512 38 38 (2957312)
I0609 15:32:12.815443 31566 net.cpp:165] Memory required for data: 801722400
I0609 15:32:12.815454 31566 layer_factory.hpp:77] Creating layer relu4_2
I0609 15:32:12.815460 31566 net.cpp:100] Creating Layer relu4_2
I0609 15:32:12.815464 31566 net.cpp:434] relu4_2 <- conv4_2
I0609 15:32:12.815469 31566 net.cpp:395] relu4_2 -> conv4_2 (in-place)
I0609 15:32:12.816205 31566 net.cpp:150] Setting up relu4_2
I0609 15:32:12.816215 31566 net.cpp:157] Top shape: 4 512 38 38 (2957312)
I0609 15:32:12.816218 31566 net.cpp:165] Memory required for data: 813551648
I0609 15:32:12.816220 31566 layer_factory.hpp:77] Creating layer conv4_3
I0609 15:32:12.816228 31566 net.cpp:100] Creating Layer conv4_3
I0609 15:32:12.816232 31566 net.cpp:434] conv4_3 <- conv4_2
I0609 15:32:12.816236 31566 net.cpp:408] conv4_3 -> conv4_3
I0609 15:32:12.829107 31566 net.cpp:150] Setting up conv4_3
I0609 15:32:12.829124 31566 net.cpp:157] Top shape: 4 512 38 38 (2957312)
I0609 15:32:12.829128 31566 net.cpp:165] Memory required for data: 825380896
I0609 15:32:12.829134 31566 layer_factory.hpp:77] Creating layer relu4_3
I0609 15:32:12.829141 31566 net.cpp:100] Creating Layer relu4_3
I0609 15:32:12.829145 31566 net.cpp:434] relu4_3 <- conv4_3
I0609 15:32:12.829151 31566 net.cpp:395] relu4_3 -> conv4_3 (in-place)
I0609 15:32:12.829298 31566 net.cpp:150] Setting up relu4_3
I0609 15:32:12.829313 31566 net.cpp:157] Top shape: 4 512 38 38 (2957312)
I0609 15:32:12.829316 31566 net.cpp:165] Memory required for data: 837210144
I0609 15:32:12.829319 31566 layer_factory.hpp:77] Creating layer conv4_3_relu4_3_0_split
I0609 15:32:12.829324 31566 net.cpp:100] Creating Layer conv4_3_relu4_3_0_split
I0609 15:32:12.829326 31566 net.cpp:434] conv4_3_relu4_3_0_split <- conv4_3
I0609 15:32:12.829330 31566 net.cpp:408] conv4_3_relu4_3_0_split -> conv4_3_relu4_3_0_split_0
I0609 15:32:12.829336 31566 net.cpp:408] conv4_3_relu4_3_0_split -> conv4_3_relu4_3_0_split_1
I0609 15:32:12.829380 31566 net.cpp:150] Setting up conv4_3_relu4_3_0_split
I0609 15:32:12.829385 31566 net.cpp:157] Top shape: 4 512 38 38 (2957312)
I0609 15:32:12.829387 31566 net.cpp:157] Top shape: 4 512 38 38 (2957312)
I0609 15:32:12.829390 31566 net.cpp:165] Memory required for data: 860868640
I0609 15:32:12.829392 31566 layer_factory.hpp:77] Creating layer pool4
I0609 15:32:12.829396 31566 net.cpp:100] Creating Layer pool4
I0609 15:32:12.829398 31566 net.cpp:434] pool4 <- conv4_3_relu4_3_0_split_0
I0609 15:32:12.829403 31566 net.cpp:408] pool4 -> pool4
I0609 15:32:12.829434 31566 net.cpp:150] Setting up pool4
I0609 15:32:12.829439 31566 net.cpp:157] Top shape: 4 512 19 19 (739328)
I0609 15:32:12.829442 31566 net.cpp:165] Memory required for data: 863825952
I0609 15:32:12.829455 31566 layer_factory.hpp:77] Creating layer conv5_1
I0609 15:32:12.829465 31566 net.cpp:100] Creating Layer conv5_1
I0609 15:32:12.829468 31566 net.cpp:434] conv5_1 <- pool4
I0609 15:32:12.829473 31566 net.cpp:408] conv5_1 -> conv5_1
I0609 15:32:12.843881 31566 net.cpp:150] Setting up conv5_1
I0609 15:32:12.843902 31566 net.cpp:157] Top shape: 4 512 19 19 (739328)
I0609 15:32:12.843906 31566 net.cpp:165] Memory required for data: 866783264
I0609 15:32:12.843914 31566 layer_factory.hpp:77] Creating layer relu5_1
I0609 15:32:12.843926 31566 net.cpp:100] Creating Layer relu5_1
I0609 15:32:12.843930 31566 net.cpp:434] relu5_1 <- conv5_1
I0609 15:32:12.843937 31566 net.cpp:395] relu5_1 -> conv5_1 (in-place)
I0609 15:32:12.844117 31566 net.cpp:150] Setting up relu5_1
I0609 15:32:12.844131 31566 net.cpp:157] Top shape: 4 512 19 19 (739328)
I0609 15:32:12.844136 31566 net.cpp:165] Memory required for data: 869740576
I0609 15:32:12.844141 31566 layer_factory.hpp:77] Creating layer conv5_2
I0609 15:32:12.844152 31566 net.cpp:100] Creating Layer conv5_2
I0609 15:32:12.844159 31566 net.cpp:434] conv5_2 <- conv5_1
I0609 15:32:12.844167 31566 net.cpp:408] conv5_2 -> conv5_2
I0609 15:32:12.858249 31566 net.cpp:150] Setting up conv5_2
I0609 15:32:12.858268 31566 net.cpp:157] Top shape: 4 512 19 19 (739328)
I0609 15:32:12.858271 31566 net.cpp:165] Memory required for data: 872697888
I0609 15:32:12.858280 31566 layer_factory.hpp:77] Creating layer relu5_2
I0609 15:32:12.858289 31566 net.cpp:100] Creating Layer relu5_2
I0609 15:32:12.858294 31566 net.cpp:434] relu5_2 <- conv5_2
I0609 15:32:12.858304 31566 net.cpp:395] relu5_2 -> conv5_2 (in-place)
I0609 15:32:12.858485 31566 net.cpp:150] Setting up relu5_2
I0609 15:32:12.858497 31566 net.cpp:157] Top shape: 4 512 19 19 (739328)
I0609 15:32:12.858501 31566 net.cpp:165] Memory required for data: 875655200
I0609 15:32:12.858506 31566 layer_factory.hpp:77] Creating layer conv5_3
I0609 15:32:12.858520 31566 net.cpp:100] Creating Layer conv5_3
I0609 15:32:12.858526 31566 net.cpp:434] conv5_3 <- conv5_2
I0609 15:32:12.858535 31566 net.cpp:408] conv5_3 -> conv5_3
I0609 15:32:12.871487 31566 net.cpp:150] Setting up conv5_3
I0609 15:32:12.871508 31566 net.cpp:157] Top shape: 4 512 19 19 (739328)
I0609 15:32:12.871512 31566 net.cpp:165] Memory required for data: 878612512
I0609 15:32:12.871537 31566 layer_factory.hpp:77] Creating layer relu5_3
I0609 15:32:12.871553 31566 net.cpp:100] Creating Layer relu5_3
I0609 15:32:12.871559 31566 net.cpp:434] relu5_3 <- conv5_3
I0609 15:32:12.871567 31566 net.cpp:395] relu5_3 -> conv5_3 (in-place)
I0609 15:32:12.871798 31566 net.cpp:150] Setting up relu5_3
I0609 15:32:12.871812 31566 net.cpp:157] Top shape: 4 512 19 19 (739328)
I0609 15:32:12.871817 31566 net.cpp:165] Memory required for data: 881569824
I0609 15:32:12.871822 31566 layer_factory.hpp:77] Creating layer pool5
I0609 15:32:12.871830 31566 net.cpp:100] Creating Layer pool5
I0609 15:32:12.871834 31566 net.cpp:434] pool5 <- conv5_3
I0609 15:32:12.871840 31566 net.cpp:408] pool5 -> pool5
I0609 15:32:12.871892 31566 net.cpp:150] Setting up pool5
I0609 15:32:12.871899 31566 net.cpp:157] Top shape: 4 512 19 19 (739328)
I0609 15:32:12.871903 31566 net.cpp:165] Memory required for data: 884527136
I0609 15:32:12.871906 31566 layer_factory.hpp:77] Creating layer fc6
I0609 15:32:12.871917 31566 net.cpp:100] Creating Layer fc6
I0609 15:32:12.871922 31566 net.cpp:434] fc6 <- pool5
I0609 15:32:12.871929 31566 net.cpp:408] fc6 -> fc6
I0609 15:32:12.894799 31566 net.cpp:150] Setting up fc6
I0609 15:32:12.894819 31566 net.cpp:157] Top shape: 4 1024 19 19 (1478656)
I0609 15:32:12.894822 31566 net.cpp:165] Memory required for data: 890441760
I0609 15:32:12.894830 31566 layer_factory.hpp:77] Creating layer relu6
I0609 15:32:12.894839 31566 net.cpp:100] Creating Layer relu6
I0609 15:32:12.894858 31566 net.cpp:434] relu6 <- fc6
I0609 15:32:12.894881 31566 net.cpp:395] relu6 -> fc6 (in-place)
I0609 15:32:12.895836 31566 net.cpp:150] Setting up relu6
I0609 15:32:12.895859 31566 net.cpp:157] Top shape: 4 1024 19 19 (1478656)
I0609 15:32:12.895875 31566 net.cpp:165] Memory required for data: 896356384
I0609 15:32:12.895895 31566 layer_factory.hpp:77] Creating layer fc7
I0609 15:32:12.895908 31566 net.cpp:100] Creating Layer fc7
I0609 15:32:12.895916 31566 net.cpp:434] fc7 <- fc6
I0609 15:32:12.895937 31566 net.cpp:408] fc7 -> fc7
I0609 15:32:12.902362 31566 net.cpp:150] Setting up fc7
I0609 15:32:12.902381 31566 net.cpp:157] Top shape: 4 1024 19 19 (1478656)
I0609 15:32:12.902384 31566 net.cpp:165] Memory required for data: 902271008
I0609 15:32:12.902393 31566 layer_factory.hpp:77] Creating layer relu7
I0609 15:32:12.902416 31566 net.cpp:100] Creating Layer relu7
I0609 15:32:12.902422 31566 net.cpp:434] relu7 <- fc7
I0609 15:32:12.902429 31566 net.cpp:395] relu7 -> fc7 (in-place)
I0609 15:32:12.902627 31566 net.cpp:150] Setting up relu7
I0609 15:32:12.902637 31566 net.cpp:157] Top shape: 4 1024 19 19 (1478656)
I0609 15:32:12.902640 31566 net.cpp:165] Memory required for data: 908185632
I0609 15:32:12.902643 31566 layer_factory.hpp:77] Creating layer fc7_relu7_0_split
I0609 15:32:12.902665 31566 net.cpp:100] Creating Layer fc7_relu7_0_split
I0609 15:32:12.902670 31566 net.cpp:434] fc7_relu7_0_split <- fc7
I0609 15:32:12.902678 31566 net.cpp:408] fc7_relu7_0_split -> fc7_relu7_0_split_0
I0609 15:32:12.902688 31566 net.cpp:408] fc7_relu7_0_split -> fc7_relu7_0_split_1
I0609 15:32:12.902703 31566 net.cpp:408] fc7_relu7_0_split -> fc7_relu7_0_split_2
I0609 15:32:12.902709 31566 net.cpp:408] fc7_relu7_0_split -> fc7_relu7_0_split_3
I0609 15:32:12.902776 31566 net.cpp:150] Setting up fc7_relu7_0_split
I0609 15:32:12.902783 31566 net.cpp:157] Top shape: 4 1024 19 19 (1478656)
I0609 15:32:12.902791 31566 net.cpp:157] Top shape: 4 1024 19 19 (1478656)
I0609 15:32:12.902796 31566 net.cpp:157] Top shape: 4 1024 19 19 (1478656)
I0609 15:32:12.902801 31566 net.cpp:157] Top shape: 4 1024 19 19 (1478656)
I0609 15:32:12.902804 31566 net.cpp:165] Memory required for data: 931844128
I0609 15:32:12.902808 31566 layer_factory.hpp:77] Creating layer conv6_1
I0609 15:32:12.902819 31566 net.cpp:100] Creating Layer conv6_1
I0609 15:32:12.902823 31566 net.cpp:434] conv6_1 <- fc7_relu7_0_split_0
I0609 15:32:12.902832 31566 net.cpp:408] conv6_1 -> conv6_1
I0609 15:32:12.906235 31566 net.cpp:150] Setting up conv6_1
I0609 15:32:12.906250 31566 net.cpp:157] Top shape: 4 256 19 19 (369664)
I0609 15:32:12.906253 31566 net.cpp:165] Memory required for data: 933322784
I0609 15:32:12.906261 31566 layer_factory.hpp:77] Creating layer conv6_1_relu
I0609 15:32:12.906270 31566 net.cpp:100] Creating Layer conv6_1_relu
I0609 15:32:12.906275 31566 net.cpp:434] conv6_1_relu <- conv6_1
I0609 15:32:12.906285 31566 net.cpp:395] conv6_1_relu -> conv6_1 (in-place)
I0609 15:32:12.906422 31566 net.cpp:150] Setting up conv6_1_relu
I0609 15:32:12.906430 31566 net.cpp:157] Top shape: 4 256 19 19 (369664)
I0609 15:32:12.906435 31566 net.cpp:165] Memory required for data: 934801440
I0609 15:32:12.906437 31566 layer_factory.hpp:77] Creating layer conv6_2
I0609 15:32:12.906448 31566 net.cpp:100] Creating Layer conv6_2
I0609 15:32:12.906455 31566 net.cpp:434] conv6_2 <- conv6_1
I0609 15:32:12.906461 31566 net.cpp:408] conv6_2 -> conv6_2
I0609 15:32:12.913842 31566 net.cpp:150] Setting up conv6_2
I0609 15:32:12.913861 31566 net.cpp:157] Top shape: 4 512 10 10 (204800)
I0609 15:32:12.913866 31566 net.cpp:165] Memory required for data: 935620640
I0609 15:32:12.913908 31566 layer_factory.hpp:77] Creating layer conv6_2_relu
I0609 15:32:12.913919 31566 net.cpp:100] Creating Layer conv6_2_relu
I0609 15:32:12.913938 31566 net.cpp:434] conv6_2_relu <- conv6_2
I0609 15:32:12.913959 31566 net.cpp:395] conv6_2_relu -> conv6_2 (in-place)
I0609 15:32:12.914160 31566 net.cpp:150] Setting up conv6_2_relu
I0609 15:32:12.914168 31566 net.cpp:157] Top shape: 4 512 10 10 (204800)
I0609 15:32:12.914171 31566 net.cpp:165] Memory required for data: 936439840
I0609 15:32:12.914175 31566 layer_factory.hpp:77] Creating layer conv6_2_conv6_2_relu_0_split
I0609 15:32:12.914183 31566 net.cpp:100] Creating Layer conv6_2_conv6_2_relu_0_split
I0609 15:32:12.914211 31566 net.cpp:434] conv6_2_conv6_2_relu_0_split <- conv6_2
I0609 15:32:12.914232 31566 net.cpp:408] conv6_2_conv6_2_relu_0_split -> conv6_2_conv6_2_relu_0_split_0
I0609 15:32:12.914257 31566 net.cpp:408] conv6_2_conv6_2_relu_0_split -> conv6_2_conv6_2_relu_0_split_1
I0609 15:32:12.914265 31566 net.cpp:408] conv6_2_conv6_2_relu_0_split -> conv6_2_conv6_2_relu_0_split_2
I0609 15:32:12.914273 31566 net.cpp:408] conv6_2_conv6_2_relu_0_split -> conv6_2_conv6_2_relu_0_split_3
I0609 15:32:12.914369 31566 net.cpp:150] Setting up conv6_2_conv6_2_relu_0_split
I0609 15:32:12.914376 31566 net.cpp:157] Top shape: 4 512 10 10 (204800)
I0609 15:32:12.914381 31566 net.cpp:157] Top shape: 4 512 10 10 (204800)
I0609 15:32:12.914387 31566 net.cpp:157] Top shape: 4 512 10 10 (204800)
I0609 15:32:12.914391 31566 net.cpp:157] Top shape: 4 512 10 10 (204800)
I0609 15:32:12.914396 31566 net.cpp:165] Memory required for data: 939716640
I0609 15:32:12.914413 31566 layer_factory.hpp:77] Creating layer conv7_1
I0609 15:32:12.914425 31566 net.cpp:100] Creating Layer conv7_1
I0609 15:32:12.914429 31566 net.cpp:434] conv7_1 <- conv6_2_conv6_2_relu_0_split_0
I0609 15:32:12.914438 31566 net.cpp:408] conv7_1 -> conv7_1
I0609 15:32:12.915868 31566 net.cpp:150] Setting up conv7_1
I0609 15:32:12.915879 31566 net.cpp:157] Top shape: 4 128 10 10 (51200)
I0609 15:32:12.915882 31566 net.cpp:165] Memory required for data: 939921440
I0609 15:32:12.915889 31566 layer_factory.hpp:77] Creating layer conv7_1_relu
I0609 15:32:12.915896 31566 net.cpp:100] Creating Layer conv7_1_relu
I0609 15:32:12.915901 31566 net.cpp:434] conv7_1_relu <- conv7_1
I0609 15:32:12.915908 31566 net.cpp:395] conv7_1_relu -> conv7_1 (in-place)
I0609 15:32:12.916044 31566 net.cpp:150] Setting up conv7_1_relu
I0609 15:32:12.916052 31566 net.cpp:157] Top shape: 4 128 10 10 (51200)
I0609 15:32:12.916055 31566 net.cpp:165] Memory required for data: 940126240
I0609 15:32:12.916059 31566 layer_factory.hpp:77] Creating layer conv7_2
I0609 15:32:12.916069 31566 net.cpp:100] Creating Layer conv7_2
I0609 15:32:12.916074 31566 net.cpp:434] conv7_2 <- conv7_1
I0609 15:32:12.916081 31566 net.cpp:408] conv7_2 -> conv7_2
I0609 15:32:12.919174 31566 net.cpp:150] Setting up conv7_2
I0609 15:32:12.919188 31566 net.cpp:157] Top shape: 4 256 5 5 (25600)
I0609 15:32:12.919191 31566 net.cpp:165] Memory required for data: 940228640
I0609 15:32:12.919198 31566 layer_factory.hpp:77] Creating layer conv7_2_relu
I0609 15:32:12.919206 31566 net.cpp:100] Creating Layer conv7_2_relu
I0609 15:32:12.919212 31566 net.cpp:434] conv7_2_relu <- conv7_2
I0609 15:32:12.919235 31566 net.cpp:395] conv7_2_relu -> conv7_2 (in-place)
I0609 15:32:12.919374 31566 net.cpp:150] Setting up conv7_2_relu
I0609 15:32:12.919381 31566 net.cpp:157] Top shape: 4 256 5 5 (25600)
I0609 15:32:12.919384 31566 net.cpp:165] Memory required for data: 940331040
I0609 15:32:12.919389 31566 layer_factory.hpp:77] Creating layer conv7_2_conv7_2_relu_0_split
I0609 15:32:12.919395 31566 net.cpp:100] Creating Layer conv7_2_conv7_2_relu_0_split
I0609 15:32:12.919399 31566 net.cpp:434] conv7_2_conv7_2_relu_0_split <- conv7_2
I0609 15:32:12.919406 31566 net.cpp:408] conv7_2_conv7_2_relu_0_split -> conv7_2_conv7_2_relu_0_split_0
I0609 15:32:12.919415 31566 net.cpp:408] conv7_2_conv7_2_relu_0_split -> conv7_2_conv7_2_relu_0_split_1
I0609 15:32:12.919422 31566 net.cpp:408] conv7_2_conv7_2_relu_0_split -> conv7_2_conv7_2_relu_0_split_2
I0609 15:32:12.919430 31566 net.cpp:408] conv7_2_conv7_2_relu_0_split -> conv7_2_conv7_2_relu_0_split_3
I0609 15:32:12.919500 31566 net.cpp:150] Setting up conv7_2_conv7_2_relu_0_split
I0609 15:32:12.919507 31566 net.cpp:157] Top shape: 4 256 5 5 (25600)
I0609 15:32:12.919512 31566 net.cpp:157] Top shape: 4 256 5 5 (25600)
I0609 15:32:12.919517 31566 net.cpp:157] Top shape: 4 256 5 5 (25600)
I0609 15:32:12.919522 31566 net.cpp:157] Top shape: 4 256 5 5 (25600)
I0609 15:32:12.919524 31566 net.cpp:165] Memory required for data: 940740640
I0609 15:32:12.919528 31566 layer_factory.hpp:77] Creating layer conv8_1
I0609 15:32:12.919550 31566 net.cpp:100] Creating Layer conv8_1
I0609 15:32:12.919558 31566 net.cpp:434] conv8_1 <- conv7_2_conv7_2_relu_0_split_0
I0609 15:32:12.919564 31566 net.cpp:408] conv8_1 -> conv8_1
I0609 15:32:12.920804 31566 net.cpp:150] Setting up conv8_1
I0609 15:32:12.920812 31566 net.cpp:157] Top shape: 4 128 5 5 (12800)
I0609 15:32:12.920816 31566 net.cpp:165] Memory required for data: 940791840
I0609 15:32:12.920824 31566 layer_factory.hpp:77] Creating layer conv8_1_relu
I0609 15:32:12.920832 31566 net.cpp:100] Creating Layer conv8_1_relu
I0609 15:32:12.920837 31566 net.cpp:434] conv8_1_relu <- conv8_1
I0609 15:32:12.920843 31566 net.cpp:395] conv8_1_relu -> conv8_1 (in-place)
I0609 15:32:12.921440 31566 net.cpp:150] Setting up conv8_1_relu
I0609 15:32:12.921452 31566 net.cpp:157] Top shape: 4 128 5 5 (12800)
I0609 15:32:12.921455 31566 net.cpp:165] Memory required for data: 940843040
I0609 15:32:12.921459 31566 layer_factory.hpp:77] Creating layer conv8_2
I0609 15:32:12.921469 31566 net.cpp:100] Creating Layer conv8_2
I0609 15:32:12.921475 31566 net.cpp:434] conv8_2 <- conv8_1
I0609 15:32:12.921483 31566 net.cpp:408] conv8_2 -> conv8_2
I0609 15:32:12.924540 31566 net.cpp:150] Setting up conv8_2
I0609 15:32:12.924553 31566 net.cpp:157] Top shape: 4 256 3 3 (9216)
I0609 15:32:12.924558 31566 net.cpp:165] Memory required for data: 940879904
I0609 15:32:12.924566 31566 layer_factory.hpp:77] Creating layer conv8_2_relu
I0609 15:32:12.924574 31566 net.cpp:100] Creating Layer conv8_2_relu
I0609 15:32:12.924581 31566 net.cpp:434] conv8_2_relu <- conv8_2
I0609 15:32:12.924589 31566 net.cpp:395] conv8_2_relu -> conv8_2 (in-place)
I0609 15:32:12.924746 31566 net.cpp:150] Setting up conv8_2_relu
I0609 15:32:12.924753 31566 net.cpp:157] Top shape: 4 256 3 3 (9216)
I0609 15:32:12.924757 31566 net.cpp:165] Memory required for data: 940916768
I0609 15:32:12.924760 31566 layer_factory.hpp:77] Creating layer conv8_2_conv8_2_relu_0_split
I0609 15:32:12.924768 31566 net.cpp:100] Creating Layer conv8_2_conv8_2_relu_0_split
I0609 15:32:12.924772 31566 net.cpp:434] conv8_2_conv8_2_relu_0_split <- conv8_2
I0609 15:32:12.924778 31566 net.cpp:408] conv8_2_conv8_2_relu_0_split -> conv8_2_conv8_2_relu_0_split_0
I0609 15:32:12.924787 31566 net.cpp:408] conv8_2_conv8_2_relu_0_split -> conv8_2_conv8_2_relu_0_split_1
I0609 15:32:12.924795 31566 net.cpp:408] conv8_2_conv8_2_relu_0_split -> conv8_2_conv8_2_relu_0_split_2
I0609 15:32:12.924803 31566 net.cpp:408] conv8_2_conv8_2_relu_0_split -> conv8_2_conv8_2_relu_0_split_3
I0609 15:32:12.924873 31566 net.cpp:150] Setting up conv8_2_conv8_2_relu_0_split
I0609 15:32:12.924880 31566 net.cpp:157] Top shape: 4 256 3 3 (9216)
I0609 15:32:12.924885 31566 net.cpp:157] Top shape: 4 256 3 3 (9216)
I0609 15:32:12.924890 31566 net.cpp:157] Top shape: 4 256 3 3 (9216)
I0609 15:32:12.924893 31566 net.cpp:157] Top shape: 4 256 3 3 (9216)
I0609 15:32:12.924897 31566 net.cpp:165] Memory required for data: 941064224
I0609 15:32:12.924901 31566 layer_factory.hpp:77] Creating layer conv9_1
I0609 15:32:12.924912 31566 net.cpp:100] Creating Layer conv9_1
I0609 15:32:12.924917 31566 net.cpp:434] conv9_1 <- conv8_2_conv8_2_relu_0_split_0
I0609 15:32:12.924926 31566 net.cpp:408] conv9_1 -> conv9_1
I0609 15:32:12.926198 31566 net.cpp:150] Setting up conv9_1
I0609 15:32:12.926208 31566 net.cpp:157] Top shape: 4 128 3 3 (4608)
I0609 15:32:12.926211 31566 net.cpp:165] Memory required for data: 941082656
I0609 15:32:12.926218 31566 layer_factory.hpp:77] Creating layer conv9_1_relu
I0609 15:32:12.926226 31566 net.cpp:100] Creating Layer conv9_1_relu
I0609 15:32:12.926231 31566 net.cpp:434] conv9_1_relu <- conv9_1
I0609 15:32:12.926236 31566 net.cpp:395] conv9_1_relu -> conv9_1 (in-place)
I0609 15:32:12.926378 31566 net.cpp:150] Setting up conv9_1_relu
I0609 15:32:12.926386 31566 net.cpp:157] Top shape: 4 128 3 3 (4608)
I0609 15:32:12.926389 31566 net.cpp:165] Memory required for data: 941101088
I0609 15:32:12.926393 31566 layer_factory.hpp:77] Creating layer conv9_2
I0609 15:32:12.926414 31566 net.cpp:100] Creating Layer conv9_2
I0609 15:32:12.926420 31566 net.cpp:434] conv9_2 <- conv9_1
I0609 15:32:12.926429 31566 net.cpp:408] conv9_2 -> conv9_2
I0609 15:32:12.929391 31566 net.cpp:150] Setting up conv9_2
I0609 15:32:12.929401 31566 net.cpp:157] Top shape: 4 256 1 1 (1024)
I0609 15:32:12.929405 31566 net.cpp:165] Memory required for data: 941105184
I0609 15:32:12.929414 31566 layer_factory.hpp:77] Creating layer conv9_2_relu
I0609 15:32:12.929422 31566 net.cpp:100] Creating Layer conv9_2_relu
I0609 15:32:12.929427 31566 net.cpp:434] conv9_2_relu <- conv9_2
I0609 15:32:12.929435 31566 net.cpp:395] conv9_2_relu -> conv9_2 (in-place)
I0609 15:32:12.929592 31566 net.cpp:150] Setting up conv9_2_relu
I0609 15:32:12.929615 31566 net.cpp:157] Top shape: 4 256 1 1 (1024)
I0609 15:32:12.929617 31566 net.cpp:165] Memory required for data: 941109280
I0609 15:32:12.929621 31566 layer_factory.hpp:77] Creating layer conv9_2_conv9_2_relu_0_split
I0609 15:32:12.929643 31566 net.cpp:100] Creating Layer conv9_2_conv9_2_relu_0_split
I0609 15:32:12.929649 31566 net.cpp:434] conv9_2_conv9_2_relu_0_split <- conv9_2
I0609 15:32:12.929656 31566 net.cpp:408] conv9_2_conv9_2_relu_0_split -> conv9_2_conv9_2_relu_0_split_0
I0609 15:32:12.929664 31566 net.cpp:408] conv9_2_conv9_2_relu_0_split -> conv9_2_conv9_2_relu_0_split_1
I0609 15:32:12.929672 31566 net.cpp:408] conv9_2_conv9_2_relu_0_split -> conv9_2_conv9_2_relu_0_split_2
I0609 15:32:12.929728 31566 net.cpp:150] Setting up conv9_2_conv9_2_relu_0_split
I0609 15:32:12.929749 31566 net.cpp:157] Top shape: 4 256 1 1 (1024)
I0609 15:32:12.929754 31566 net.cpp:157] Top shape: 4 256 1 1 (1024)
I0609 15:32:12.929759 31566 net.cpp:157] Top shape: 4 256 1 1 (1024)
I0609 15:32:12.929762 31566 net.cpp:165] Memory required for data: 941121568
I0609 15:32:12.929765 31566 layer_factory.hpp:77] Creating layer conv4_3_norm
I0609 15:32:12.929774 31566 net.cpp:100] Creating Layer conv4_3_norm
I0609 15:32:12.929778 31566 net.cpp:434] conv4_3_norm <- conv4_3_relu4_3_0_split_1
I0609 15:32:12.929786 31566 net.cpp:408] conv4_3_norm -> conv4_3_norm
I0609 15:32:12.929947 31566 net.cpp:150] Setting up conv4_3_norm
I0609 15:32:12.929955 31566 net.cpp:157] Top shape: 4 512 38 38 (2957312)
I0609 15:32:12.929957 31566 net.cpp:165] Memory required for data: 952950816
I0609 15:32:12.929963 31566 layer_factory.hpp:77] Creating layer conv4_3_norm_conv4_3_norm_0_split
I0609 15:32:12.929970 31566 net.cpp:100] Creating Layer conv4_3_norm_conv4_3_norm_0_split
I0609 15:32:12.929975 31566 net.cpp:434] conv4_3_norm_conv4_3_norm_0_split <- conv4_3_norm
I0609 15:32:12.929980 31566 net.cpp:408] conv4_3_norm_conv4_3_norm_0_split -> conv4_3_norm_conv4_3_norm_0_split_0
I0609 15:32:12.929989 31566 net.cpp:408] conv4_3_norm_conv4_3_norm_0_split -> conv4_3_norm_conv4_3_norm_0_split_1
I0609 15:32:12.929996 31566 net.cpp:408] conv4_3_norm_conv4_3_norm_0_split -> conv4_3_norm_conv4_3_norm_0_split_2
I0609 15:32:12.930045 31566 net.cpp:150] Setting up conv4_3_norm_conv4_3_norm_0_split
I0609 15:32:12.930052 31566 net.cpp:157] Top shape: 4 512 38 38 (2957312)
I0609 15:32:12.930058 31566 net.cpp:157] Top shape: 4 512 38 38 (2957312)
I0609 15:32:12.930061 31566 net.cpp:157] Top shape: 4 512 38 38 (2957312)
I0609 15:32:12.930064 31566 net.cpp:165] Memory required for data: 988438560
I0609 15:32:12.930068 31566 layer_factory.hpp:77] Creating layer conv4_3_norm_mbox_loc
I0609 15:32:12.930078 31566 net.cpp:100] Creating Layer conv4_3_norm_mbox_loc
I0609 15:32:12.930083 31566 net.cpp:434] conv4_3_norm_mbox_loc <- conv4_3_norm_conv4_3_norm_0_split_0
I0609 15:32:12.930091 31566 net.cpp:408] conv4_3_norm_mbox_loc -> conv4_3_norm_mbox_loc
I0609 15:32:12.932034 31566 net.cpp:150] Setting up conv4_3_norm_mbox_loc
I0609 15:32:12.932044 31566 net.cpp:157] Top shape: 4 16 38 38 (92416)
I0609 15:32:12.932049 31566 net.cpp:165] Memory required for data: 988808224
I0609 15:32:12.932055 31566 layer_factory.hpp:77] Creating layer conv4_3_norm_mbox_loc_perm
I0609 15:32:12.932065 31566 net.cpp:100] Creating Layer conv4_3_norm_mbox_loc_perm
I0609 15:32:12.932080 31566 net.cpp:434] conv4_3_norm_mbox_loc_perm <- conv4_3_norm_mbox_loc
I0609 15:32:12.932087 31566 net.cpp:408] conv4_3_norm_mbox_loc_perm -> conv4_3_norm_mbox_loc_perm
I0609 15:32:12.932196 31566 net.cpp:150] Setting up conv4_3_norm_mbox_loc_perm
I0609 15:32:12.932204 31566 net.cpp:157] Top shape: 4 38 38 16 (92416)
I0609 15:32:12.932207 31566 net.cpp:165] Memory required for data: 989177888
I0609 15:32:12.932210 31566 layer_factory.hpp:77] Creating layer conv4_3_norm_mbox_loc_flat
I0609 15:32:12.932217 31566 net.cpp:100] Creating Layer conv4_3_norm_mbox_loc_flat
I0609 15:32:12.932222 31566 net.cpp:434] conv4_3_norm_mbox_loc_flat <- conv4_3_norm_mbox_loc_perm
I0609 15:32:12.932230 31566 net.cpp:408] conv4_3_norm_mbox_loc_flat -> conv4_3_norm_mbox_loc_flat
I0609 15:32:12.932265 31566 net.cpp:150] Setting up conv4_3_norm_mbox_loc_flat
I0609 15:32:12.932272 31566 net.cpp:157] Top shape: 4 23104 (92416)
I0609 15:32:12.932276 31566 net.cpp:165] Memory required for data: 989547552
I0609 15:32:12.932281 31566 layer_factory.hpp:77] Creating layer conv4_3_norm_mbox_conf
I0609 15:32:12.932296 31566 net.cpp:100] Creating Layer conv4_3_norm_mbox_conf
I0609 15:32:12.932299 31566 net.cpp:434] conv4_3_norm_mbox_conf <- conv4_3_norm_conv4_3_norm_0_split_1
I0609 15:32:12.932307 31566 net.cpp:408] conv4_3_norm_mbox_conf -> conv4_3_norm_mbox_conf
I0609 15:32:12.934103 31566 net.cpp:150] Setting up conv4_3_norm_mbox_conf
I0609 15:32:12.934114 31566 net.cpp:157] Top shape: 4 8 38 38 (46208)
I0609 15:32:12.934118 31566 net.cpp:165] Memory required for data: 989732384
I0609 15:32:12.934125 31566 layer_factory.hpp:77] Creating layer conv4_3_norm_mbox_conf_perm
I0609 15:32:12.934135 31566 net.cpp:100] Creating Layer conv4_3_norm_mbox_conf_perm
I0609 15:32:12.934140 31566 net.cpp:434] conv4_3_norm_mbox_conf_perm <- conv4_3_norm_mbox_conf
I0609 15:32:12.934149 31566 net.cpp:408] conv4_3_norm_mbox_conf_perm -> conv4_3_norm_mbox_conf_perm
I0609 15:32:12.934258 31566 net.cpp:150] Setting up conv4_3_norm_mbox_conf_perm
I0609 15:32:12.934265 31566 net.cpp:157] Top shape: 4 38 38 8 (46208)
I0609 15:32:12.934268 31566 net.cpp:165] Memory required for data: 989917216
I0609 15:32:12.934273 31566 layer_factory.hpp:77] Creating layer conv4_3_norm_mbox_conf_flat
I0609 15:32:12.934279 31566 net.cpp:100] Creating Layer conv4_3_norm_mbox_conf_flat
I0609 15:32:12.934284 31566 net.cpp:434] conv4_3_norm_mbox_conf_flat <- conv4_3_norm_mbox_conf_perm
I0609 15:32:12.934293 31566 net.cpp:408] conv4_3_norm_mbox_conf_flat -> conv4_3_norm_mbox_conf_flat
I0609 15:32:12.934321 31566 net.cpp:150] Setting up conv4_3_norm_mbox_conf_flat
I0609 15:32:12.934327 31566 net.cpp:157] Top shape: 4 11552 (46208)
I0609 15:32:12.934331 31566 net.cpp:165] Memory required for data: 990102048
I0609 15:32:12.934335 31566 layer_factory.hpp:77] Creating layer conv4_3_norm_mbox_priorbox
I0609 15:32:12.934345 31566 net.cpp:100] Creating Layer conv4_3_norm_mbox_priorbox
I0609 15:32:12.934348 31566 net.cpp:434] conv4_3_norm_mbox_priorbox <- conv4_3_norm_conv4_3_norm_0_split_2
I0609 15:32:12.934355 31566 net.cpp:434] conv4_3_norm_mbox_priorbox <- data_data_0_split_1
I0609 15:32:12.934363 31566 net.cpp:408] conv4_3_norm_mbox_priorbox -> conv4_3_norm_mbox_priorbox
I0609 15:32:12.934394 31566 net.cpp:150] Setting up conv4_3_norm_mbox_priorbox
I0609 15:32:12.934401 31566 net.cpp:157] Top shape: 1 2 23104 (46208)
I0609 15:32:12.934403 31566 net.cpp:165] Memory required for data: 990286880
I0609 15:32:12.934408 31566 layer_factory.hpp:77] Creating layer fc7_mbox_loc
I0609 15:32:12.934419 31566 net.cpp:100] Creating Layer fc7_mbox_loc
I0609 15:32:12.934424 31566 net.cpp:434] fc7_mbox_loc <- fc7_relu7_0_split_1
I0609 15:32:12.934432 31566 net.cpp:408] fc7_mbox_loc -> fc7_mbox_loc
I0609 15:32:12.936972 31566 net.cpp:150] Setting up fc7_mbox_loc
I0609 15:32:12.936982 31566 net.cpp:157] Top shape: 4 24 19 19 (34656)
I0609 15:32:12.936985 31566 net.cpp:165] Memory required for data: 990425504
I0609 15:32:12.936992 31566 layer_factory.hpp:77] Creating layer fc7_mbox_loc_perm
I0609 15:32:12.937012 31566 net.cpp:100] Creating Layer fc7_mbox_loc_perm
I0609 15:32:12.937018 31566 net.cpp:434] fc7_mbox_loc_perm <- fc7_mbox_loc
I0609 15:32:12.937026 31566 net.cpp:408] fc7_mbox_loc_perm -> fc7_mbox_loc_perm
I0609 15:32:12.937134 31566 net.cpp:150] Setting up fc7_mbox_loc_perm
I0609 15:32:12.937140 31566 net.cpp:157] Top shape: 4 19 19 24 (34656)
I0609 15:32:12.937144 31566 net.cpp:165] Memory required for data: 990564128
I0609 15:32:12.937147 31566 layer_factory.hpp:77] Creating layer fc7_mbox_loc_flat
I0609 15:32:12.937155 31566 net.cpp:100] Creating Layer fc7_mbox_loc_flat
I0609 15:32:12.937160 31566 net.cpp:434] fc7_mbox_loc_flat <- fc7_mbox_loc_perm
I0609 15:32:12.937165 31566 net.cpp:408] fc7_mbox_loc_flat -> fc7_mbox_loc_flat
I0609 15:32:12.937192 31566 net.cpp:150] Setting up fc7_mbox_loc_flat
I0609 15:32:12.937197 31566 net.cpp:157] Top shape: 4 8664 (34656)
I0609 15:32:12.937201 31566 net.cpp:165] Memory required for data: 990702752
I0609 15:32:12.937206 31566 layer_factory.hpp:77] Creating layer fc7_mbox_conf
I0609 15:32:12.937214 31566 net.cpp:100] Creating Layer fc7_mbox_conf
I0609 15:32:12.937218 31566 net.cpp:434] fc7_mbox_conf <- fc7_relu7_0_split_2
I0609 15:32:12.937227 31566 net.cpp:408] fc7_mbox_conf -> fc7_mbox_conf
I0609 15:32:12.939345 31566 net.cpp:150] Setting up fc7_mbox_conf
I0609 15:32:12.939355 31566 net.cpp:157] Top shape: 4 12 19 19 (17328)
I0609 15:32:12.939358 31566 net.cpp:165] Memory required for data: 990772064
I0609 15:32:12.939366 31566 layer_factory.hpp:77] Creating layer fc7_mbox_conf_perm
I0609 15:32:12.939374 31566 net.cpp:100] Creating Layer fc7_mbox_conf_perm
I0609 15:32:12.939379 31566 net.cpp:434] fc7_mbox_conf_perm <- fc7_mbox_conf
I0609 15:32:12.939385 31566 net.cpp:408] fc7_mbox_conf_perm -> fc7_mbox_conf_perm
I0609 15:32:12.939510 31566 net.cpp:150] Setting up fc7_mbox_conf_perm
I0609 15:32:12.939517 31566 net.cpp:157] Top shape: 4 19 19 12 (17328)
I0609 15:32:12.939520 31566 net.cpp:165] Memory required for data: 990841376
I0609 15:32:12.939524 31566 layer_factory.hpp:77] Creating layer fc7_mbox_conf_flat
I0609 15:32:12.939532 31566 net.cpp:100] Creating Layer fc7_mbox_conf_flat
I0609 15:32:12.939535 31566 net.cpp:434] fc7_mbox_conf_flat <- fc7_mbox_conf_perm
I0609 15:32:12.939541 31566 net.cpp:408] fc7_mbox_conf_flat -> fc7_mbox_conf_flat
I0609 15:32:12.939570 31566 net.cpp:150] Setting up fc7_mbox_conf_flat
I0609 15:32:12.939576 31566 net.cpp:157] Top shape: 4 4332 (17328)
I0609 15:32:12.939579 31566 net.cpp:165] Memory required for data: 990910688
I0609 15:32:12.939584 31566 layer_factory.hpp:77] Creating layer fc7_mbox_priorbox
I0609 15:32:12.939590 31566 net.cpp:100] Creating Layer fc7_mbox_priorbox
I0609 15:32:12.939596 31566 net.cpp:434] fc7_mbox_priorbox <- fc7_relu7_0_split_3
I0609 15:32:12.939601 31566 net.cpp:434] fc7_mbox_priorbox <- data_data_0_split_2
I0609 15:32:12.939609 31566 net.cpp:408] fc7_mbox_priorbox -> fc7_mbox_priorbox
I0609 15:32:12.939638 31566 net.cpp:150] Setting up fc7_mbox_priorbox
I0609 15:32:12.939646 31566 net.cpp:157] Top shape: 1 2 8664 (17328)
I0609 15:32:12.939648 31566 net.cpp:165] Memory required for data: 990980000
I0609 15:32:12.939652 31566 layer_factory.hpp:77] Creating layer conv6_2_mbox_loc
I0609 15:32:12.939661 31566 net.cpp:100] Creating Layer conv6_2_mbox_loc
I0609 15:32:12.939667 31566 net.cpp:434] conv6_2_mbox_loc <- conv6_2_conv6_2_relu_0_split_1
I0609 15:32:12.939677 31566 net.cpp:408] conv6_2_mbox_loc -> conv6_2_mbox_loc
I0609 15:32:12.941740 31566 net.cpp:150] Setting up conv6_2_mbox_loc
I0609 15:32:12.941751 31566 net.cpp:157] Top shape: 4 24 10 10 (9600)
I0609 15:32:12.941754 31566 net.cpp:165] Memory required for data: 991018400
I0609 15:32:12.941762 31566 layer_factory.hpp:77] Creating layer conv6_2_mbox_loc_perm
I0609 15:32:12.941783 31566 net.cpp:100] Creating Layer conv6_2_mbox_loc_perm
I0609 15:32:12.941789 31566 net.cpp:434] conv6_2_mbox_loc_perm <- conv6_2_mbox_loc
I0609 15:32:12.941795 31566 net.cpp:408] conv6_2_mbox_loc_perm -> conv6_2_mbox_loc_perm
I0609 15:32:12.941906 31566 net.cpp:150] Setting up conv6_2_mbox_loc_perm
I0609 15:32:12.941920 31566 net.cpp:157] Top shape: 4 10 10 24 (9600)
I0609 15:32:12.941925 31566 net.cpp:165] Memory required for data: 991056800
I0609 15:32:12.941927 31566 layer_factory.hpp:77] Creating layer conv6_2_mbox_loc_flat
I0609 15:32:12.941934 31566 net.cpp:100] Creating Layer conv6_2_mbox_loc_flat
I0609 15:32:12.941939 31566 net.cpp:434] conv6_2_mbox_loc_flat <- conv6_2_mbox_loc_perm
I0609 15:32:12.941946 31566 net.cpp:408] conv6_2_mbox_loc_flat -> conv6_2_mbox_loc_flat
I0609 15:32:12.941972 31566 net.cpp:150] Setting up conv6_2_mbox_loc_flat
I0609 15:32:12.941977 31566 net.cpp:157] Top shape: 4 2400 (9600)
I0609 15:32:12.941982 31566 net.cpp:165] Memory required for data: 991095200
I0609 15:32:12.941984 31566 layer_factory.hpp:77] Creating layer conv6_2_mbox_conf
I0609 15:32:12.941995 31566 net.cpp:100] Creating Layer conv6_2_mbox_conf
I0609 15:32:12.941999 31566 net.cpp:434] conv6_2_mbox_conf <- conv6_2_conv6_2_relu_0_split_2
I0609 15:32:12.942008 31566 net.cpp:408] conv6_2_mbox_conf -> conv6_2_mbox_conf
I0609 15:32:12.944201 31566 net.cpp:150] Setting up conv6_2_mbox_conf
I0609 15:32:12.944219 31566 net.cpp:157] Top shape: 4 12 10 10 (4800)
I0609 15:32:12.944223 31566 net.cpp:165] Memory required for data: 991114400
I0609 15:32:12.944232 31566 layer_factory.hpp:77] Creating layer conv6_2_mbox_conf_perm
I0609 15:32:12.944243 31566 net.cpp:100] Creating Layer conv6_2_mbox_conf_perm
I0609 15:32:12.944248 31566 net.cpp:434] conv6_2_mbox_conf_perm <- conv6_2_mbox_conf
I0609 15:32:12.944255 31566 net.cpp:408] conv6_2_mbox_conf_perm -> conv6_2_mbox_conf_perm
I0609 15:32:12.944417 31566 net.cpp:150] Setting up conv6_2_mbox_conf_perm
I0609 15:32:12.944427 31566 net.cpp:157] Top shape: 4 10 10 12 (4800)
I0609 15:32:12.944429 31566 net.cpp:165] Memory required for data: 991133600
I0609 15:32:12.944432 31566 layer_factory.hpp:77] Creating layer conv6_2_mbox_conf_flat
I0609 15:32:12.944438 31566 net.cpp:100] Creating Layer conv6_2_mbox_conf_flat
I0609 15:32:12.944442 31566 net.cpp:434] conv6_2_mbox_conf_flat <- conv6_2_mbox_conf_perm
I0609 15:32:12.944445 31566 net.cpp:408] conv6_2_mbox_conf_flat -> conv6_2_mbox_conf_flat
I0609 15:32:12.944471 31566 net.cpp:150] Setting up conv6_2_mbox_conf_flat
I0609 15:32:12.944476 31566 net.cpp:157] Top shape: 4 1200 (4800)
I0609 15:32:12.944478 31566 net.cpp:165] Memory required for data: 991152800
I0609 15:32:12.944480 31566 layer_factory.hpp:77] Creating layer conv6_2_mbox_priorbox
I0609 15:32:12.944486 31566 net.cpp:100] Creating Layer conv6_2_mbox_priorbox
I0609 15:32:12.944489 31566 net.cpp:434] conv6_2_mbox_priorbox <- conv6_2_conv6_2_relu_0_split_3
I0609 15:32:12.944494 31566 net.cpp:434] conv6_2_mbox_priorbox <- data_data_0_split_3
I0609 15:32:12.944497 31566 net.cpp:408] conv6_2_mbox_priorbox -> conv6_2_mbox_priorbox
I0609 15:32:12.944525 31566 net.cpp:150] Setting up conv6_2_mbox_priorbox
I0609 15:32:12.944530 31566 net.cpp:157] Top shape: 1 2 2400 (4800)
I0609 15:32:12.944532 31566 net.cpp:165] Memory required for data: 991172000
I0609 15:32:12.944535 31566 layer_factory.hpp:77] Creating layer conv7_2_mbox_loc
I0609 15:32:12.944543 31566 net.cpp:100] Creating Layer conv7_2_mbox_loc
I0609 15:32:12.944546 31566 net.cpp:434] conv7_2_mbox_loc <- conv7_2_conv7_2_relu_0_split_1
I0609 15:32:12.944550 31566 net.cpp:408] conv7_2_mbox_loc -> conv7_2_mbox_loc
I0609 15:32:12.946048 31566 net.cpp:150] Setting up conv7_2_mbox_loc
I0609 15:32:12.946059 31566 net.cpp:157] Top shape: 4 24 5 5 (2400)
I0609 15:32:12.946061 31566 net.cpp:165] Memory required for data: 991181600
I0609 15:32:12.946069 31566 layer_factory.hpp:77] Creating layer conv7_2_mbox_loc_perm
I0609 15:32:12.946075 31566 net.cpp:100] Creating Layer conv7_2_mbox_loc_perm
I0609 15:32:12.946079 31566 net.cpp:434] conv7_2_mbox_loc_perm <- conv7_2_mbox_loc
I0609 15:32:12.946084 31566 net.cpp:408] conv7_2_mbox_loc_perm -> conv7_2_mbox_loc_perm
I0609 15:32:12.946190 31566 net.cpp:150] Setting up conv7_2_mbox_loc_perm
I0609 15:32:12.946197 31566 net.cpp:157] Top shape: 4 5 5 24 (2400)
I0609 15:32:12.946209 31566 net.cpp:165] Memory required for data: 991191200
I0609 15:32:12.946213 31566 layer_factory.hpp:77] Creating layer conv7_2_mbox_loc_flat
I0609 15:32:12.946216 31566 net.cpp:100] Creating Layer conv7_2_mbox_loc_flat
I0609 15:32:12.946219 31566 net.cpp:434] conv7_2_mbox_loc_flat <- conv7_2_mbox_loc_perm
I0609 15:32:12.946224 31566 net.cpp:408] conv7_2_mbox_loc_flat -> conv7_2_mbox_loc_flat
I0609 15:32:12.946245 31566 net.cpp:150] Setting up conv7_2_mbox_loc_flat
I0609 15:32:12.946251 31566 net.cpp:157] Top shape: 4 600 (2400)
I0609 15:32:12.946254 31566 net.cpp:165] Memory required for data: 991200800
I0609 15:32:12.946255 31566 layer_factory.hpp:77] Creating layer conv7_2_mbox_conf
I0609 15:32:12.946262 31566 net.cpp:100] Creating Layer conv7_2_mbox_conf
I0609 15:32:12.946265 31566 net.cpp:434] conv7_2_mbox_conf <- conv7_2_conv7_2_relu_0_split_2
I0609 15:32:12.946271 31566 net.cpp:408] conv7_2_mbox_conf -> conv7_2_mbox_conf
I0609 15:32:12.948115 31566 net.cpp:150] Setting up conv7_2_mbox_conf
I0609 15:32:12.948132 31566 net.cpp:157] Top shape: 4 12 5 5 (1200)
I0609 15:32:12.948133 31566 net.cpp:165] Memory required for data: 991205600
I0609 15:32:12.948140 31566 layer_factory.hpp:77] Creating layer conv7_2_mbox_conf_perm
I0609 15:32:12.948148 31566 net.cpp:100] Creating Layer conv7_2_mbox_conf_perm
I0609 15:32:12.948153 31566 net.cpp:434] conv7_2_mbox_conf_perm <- conv7_2_mbox_conf
I0609 15:32:12.948156 31566 net.cpp:408] conv7_2_mbox_conf_perm -> conv7_2_mbox_conf_perm
I0609 15:32:12.948318 31566 net.cpp:150] Setting up conv7_2_mbox_conf_perm
I0609 15:32:12.948328 31566 net.cpp:157] Top shape: 4 5 5 12 (1200)
I0609 15:32:12.948333 31566 net.cpp:165] Memory required for data: 991210400
I0609 15:32:12.948335 31566 layer_factory.hpp:77] Creating layer conv7_2_mbox_conf_flat
I0609 15:32:12.948341 31566 net.cpp:100] Creating Layer conv7_2_mbox_conf_flat
I0609 15:32:12.948348 31566 net.cpp:434] conv7_2_mbox_conf_flat <- conv7_2_mbox_conf_perm
I0609 15:32:12.948355 31566 net.cpp:408] conv7_2_mbox_conf_flat -> conv7_2_mbox_conf_flat
I0609 15:32:12.948385 31566 net.cpp:150] Setting up conv7_2_mbox_conf_flat
I0609 15:32:12.948390 31566 net.cpp:157] Top shape: 4 300 (1200)
I0609 15:32:12.948392 31566 net.cpp:165] Memory required for data: 991215200
I0609 15:32:12.948395 31566 layer_factory.hpp:77] Creating layer conv7_2_mbox_priorbox
I0609 15:32:12.948398 31566 net.cpp:100] Creating Layer conv7_2_mbox_priorbox
I0609 15:32:12.948401 31566 net.cpp:434] conv7_2_mbox_priorbox <- conv7_2_conv7_2_relu_0_split_3
I0609 15:32:12.948405 31566 net.cpp:434] conv7_2_mbox_priorbox <- data_data_0_split_4
I0609 15:32:12.948410 31566 net.cpp:408] conv7_2_mbox_priorbox -> conv7_2_mbox_priorbox
I0609 15:32:12.948438 31566 net.cpp:150] Setting up conv7_2_mbox_priorbox
I0609 15:32:12.948442 31566 net.cpp:157] Top shape: 1 2 600 (1200)
I0609 15:32:12.948444 31566 net.cpp:165] Memory required for data: 991220000
I0609 15:32:12.948446 31566 layer_factory.hpp:77] Creating layer conv8_2_mbox_loc
I0609 15:32:12.948457 31566 net.cpp:100] Creating Layer conv8_2_mbox_loc
I0609 15:32:12.948459 31566 net.cpp:434] conv8_2_mbox_loc <- conv8_2_conv8_2_relu_0_split_1
I0609 15:32:12.948465 31566 net.cpp:408] conv8_2_mbox_loc -> conv8_2_mbox_loc
I0609 15:32:12.950562 31566 net.cpp:150] Setting up conv8_2_mbox_loc
I0609 15:32:12.950575 31566 net.cpp:157] Top shape: 4 16 3 3 (576)
I0609 15:32:12.950577 31566 net.cpp:165] Memory required for data: 991222304
I0609 15:32:12.950598 31566 layer_factory.hpp:77] Creating layer conv8_2_mbox_loc_perm
I0609 15:32:12.950608 31566 net.cpp:100] Creating Layer conv8_2_mbox_loc_perm
I0609 15:32:12.950613 31566 net.cpp:434] conv8_2_mbox_loc_perm <- conv8_2_mbox_loc
I0609 15:32:12.950623 31566 net.cpp:408] conv8_2_mbox_loc_perm -> conv8_2_mbox_loc_perm
I0609 15:32:12.950803 31566 net.cpp:150] Setting up conv8_2_mbox_loc_perm
I0609 15:32:12.950814 31566 net.cpp:157] Top shape: 4 3 3 16 (576)
I0609 15:32:12.950819 31566 net.cpp:165] Memory required for data: 991224608
I0609 15:32:12.950822 31566 layer_factory.hpp:77] Creating layer conv8_2_mbox_loc_flat
I0609 15:32:12.950856 31566 net.cpp:100] Creating Layer conv8_2_mbox_loc_flat
I0609 15:32:12.950862 31566 net.cpp:434] conv8_2_mbox_loc_flat <- conv8_2_mbox_loc_perm
I0609 15:32:12.950870 31566 net.cpp:408] conv8_2_mbox_loc_flat -> conv8_2_mbox_loc_flat
I0609 15:32:12.950903 31566 net.cpp:150] Setting up conv8_2_mbox_loc_flat
I0609 15:32:12.950911 31566 net.cpp:157] Top shape: 4 144 (576)
I0609 15:32:12.950914 31566 net.cpp:165] Memory required for data: 991226912
I0609 15:32:12.950918 31566 layer_factory.hpp:77] Creating layer conv8_2_mbox_conf
I0609 15:32:12.950932 31566 net.cpp:100] Creating Layer conv8_2_mbox_conf
I0609 15:32:12.950937 31566 net.cpp:434] conv8_2_mbox_conf <- conv8_2_conv8_2_relu_0_split_2
I0609 15:32:12.950945 31566 net.cpp:408] conv8_2_mbox_conf -> conv8_2_mbox_conf
I0609 15:32:12.952827 31566 net.cpp:150] Setting up conv8_2_mbox_conf
I0609 15:32:12.952841 31566 net.cpp:157] Top shape: 4 8 3 3 (288)
I0609 15:32:12.952842 31566 net.cpp:165] Memory required for data: 991228064
I0609 15:32:12.952849 31566 layer_factory.hpp:77] Creating layer conv8_2_mbox_conf_perm
I0609 15:32:12.952857 31566 net.cpp:100] Creating Layer conv8_2_mbox_conf_perm
I0609 15:32:12.952862 31566 net.cpp:434] conv8_2_mbox_conf_perm <- conv8_2_mbox_conf
I0609 15:32:12.952872 31566 net.cpp:408] conv8_2_mbox_conf_perm -> conv8_2_mbox_conf_perm
I0609 15:32:12.953006 31566 net.cpp:150] Setting up conv8_2_mbox_conf_perm
I0609 15:32:12.953013 31566 net.cpp:157] Top shape: 4 3 3 8 (288)
I0609 15:32:12.953016 31566 net.cpp:165] Memory required for data: 991229216
I0609 15:32:12.953017 31566 layer_factory.hpp:77] Creating layer conv8_2_mbox_conf_flat
I0609 15:32:12.953023 31566 net.cpp:100] Creating Layer conv8_2_mbox_conf_flat
I0609 15:32:12.953027 31566 net.cpp:434] conv8_2_mbox_conf_flat <- conv8_2_mbox_conf_perm
I0609 15:32:12.953034 31566 net.cpp:408] conv8_2_mbox_conf_flat -> conv8_2_mbox_conf_flat
I0609 15:32:12.953068 31566 net.cpp:150] Setting up conv8_2_mbox_conf_flat
I0609 15:32:12.953073 31566 net.cpp:157] Top shape: 4 72 (288)
I0609 15:32:12.953074 31566 net.cpp:165] Memory required for data: 991230368
I0609 15:32:12.953078 31566 layer_factory.hpp:77] Creating layer conv8_2_mbox_priorbox
I0609 15:32:12.953085 31566 net.cpp:100] Creating Layer conv8_2_mbox_priorbox
I0609 15:32:12.953089 31566 net.cpp:434] conv8_2_mbox_priorbox <- conv8_2_conv8_2_relu_0_split_3
I0609 15:32:12.953096 31566 net.cpp:434] conv8_2_mbox_priorbox <- data_data_0_split_5
I0609 15:32:12.953104 31566 net.cpp:408] conv8_2_mbox_priorbox -> conv8_2_mbox_priorbox
I0609 15:32:12.953138 31566 net.cpp:150] Setting up conv8_2_mbox_priorbox
I0609 15:32:12.953145 31566 net.cpp:157] Top shape: 1 2 144 (288)
I0609 15:32:12.953147 31566 net.cpp:165] Memory required for data: 991231520
I0609 15:32:12.953151 31566 layer_factory.hpp:77] Creating layer conv9_2_mbox_loc
I0609 15:32:12.953162 31566 net.cpp:100] Creating Layer conv9_2_mbox_loc
I0609 15:32:12.953167 31566 net.cpp:434] conv9_2_mbox_loc <- conv9_2_conv9_2_relu_0_split_0
I0609 15:32:12.953176 31566 net.cpp:408] conv9_2_mbox_loc -> conv9_2_mbox_loc
I0609 15:32:12.955960 31566 net.cpp:150] Setting up conv9_2_mbox_loc
I0609 15:32:12.955976 31566 net.cpp:157] Top shape: 4 16 1 1 (64)
I0609 15:32:12.955979 31566 net.cpp:165] Memory required for data: 991231776
I0609 15:32:12.955987 31566 layer_factory.hpp:77] Creating layer conv9_2_mbox_loc_perm
I0609 15:32:12.955997 31566 net.cpp:100] Creating Layer conv9_2_mbox_loc_perm
I0609 15:32:12.956004 31566 net.cpp:434] conv9_2_mbox_loc_perm <- conv9_2_mbox_loc
I0609 15:32:12.956010 31566 net.cpp:408] conv9_2_mbox_loc_perm -> conv9_2_mbox_loc_perm
I0609 15:32:12.956130 31566 net.cpp:150] Setting up conv9_2_mbox_loc_perm
I0609 15:32:12.956136 31566 net.cpp:157] Top shape: 4 1 1 16 (64)
I0609 15:32:12.956140 31566 net.cpp:165] Memory required for data: 991232032
I0609 15:32:12.956141 31566 layer_factory.hpp:77] Creating layer conv9_2_mbox_loc_flat
I0609 15:32:12.956146 31566 net.cpp:100] Creating Layer conv9_2_mbox_loc_flat
I0609 15:32:12.956149 31566 net.cpp:434] conv9_2_mbox_loc_flat <- conv9_2_mbox_loc_perm
I0609 15:32:12.956169 31566 net.cpp:408] conv9_2_mbox_loc_flat -> conv9_2_mbox_loc_flat
I0609 15:32:12.956202 31566 net.cpp:150] Setting up conv9_2_mbox_loc_flat
I0609 15:32:12.956207 31566 net.cpp:157] Top shape: 4 16 (64)
I0609 15:32:12.956209 31566 net.cpp:165] Memory required for data: 991232288
I0609 15:32:12.956212 31566 layer_factory.hpp:77] Creating layer conv9_2_mbox_conf
I0609 15:32:12.956224 31566 net.cpp:100] Creating Layer conv9_2_mbox_conf
I0609 15:32:12.956229 31566 net.cpp:434] conv9_2_mbox_conf <- conv9_2_conv9_2_relu_0_split_1
I0609 15:32:12.956240 31566 net.cpp:408] conv9_2_mbox_conf -> conv9_2_mbox_conf
I0609 15:32:12.958372 31566 net.cpp:150] Setting up conv9_2_mbox_conf
I0609 15:32:12.958389 31566 net.cpp:157] Top shape: 4 8 1 1 (32)
I0609 15:32:12.958390 31566 net.cpp:165] Memory required for data: 991232416
I0609 15:32:12.958396 31566 layer_factory.hpp:77] Creating layer conv9_2_mbox_conf_perm
I0609 15:32:12.958417 31566 net.cpp:100] Creating Layer conv9_2_mbox_conf_perm
I0609 15:32:12.958436 31566 net.cpp:434] conv9_2_mbox_conf_perm <- conv9_2_mbox_conf
I0609 15:32:12.958441 31566 net.cpp:408] conv9_2_mbox_conf_perm -> conv9_2_mbox_conf_perm
I0609 15:32:12.958607 31566 net.cpp:150] Setting up conv9_2_mbox_conf_perm
I0609 15:32:12.958618 31566 net.cpp:157] Top shape: 4 1 1 8 (32)
I0609 15:32:12.958621 31566 net.cpp:165] Memory required for data: 991232544
I0609 15:32:12.958626 31566 layer_factory.hpp:77] Creating layer conv9_2_mbox_conf_flat
I0609 15:32:12.958633 31566 net.cpp:100] Creating Layer conv9_2_mbox_conf_flat
I0609 15:32:12.958640 31566 net.cpp:434] conv9_2_mbox_conf_flat <- conv9_2_mbox_conf_perm
I0609 15:32:12.958647 31566 net.cpp:408] conv9_2_mbox_conf_flat -> conv9_2_mbox_conf_flat
I0609 15:32:12.958684 31566 net.cpp:150] Setting up conv9_2_mbox_conf_flat
I0609 15:32:12.958691 31566 net.cpp:157] Top shape: 4 8 (32)
I0609 15:32:12.958694 31566 net.cpp:165] Memory required for data: 991232672
I0609 15:32:12.958698 31566 layer_factory.hpp:77] Creating layer conv9_2_mbox_priorbox
I0609 15:32:12.958706 31566 net.cpp:100] Creating Layer conv9_2_mbox_priorbox
I0609 15:32:12.958711 31566 net.cpp:434] conv9_2_mbox_priorbox <- conv9_2_conv9_2_relu_0_split_2
I0609 15:32:12.958719 31566 net.cpp:434] conv9_2_mbox_priorbox <- data_data_0_split_6
I0609 15:32:12.958726 31566 net.cpp:408] conv9_2_mbox_priorbox -> conv9_2_mbox_priorbox
I0609 15:32:12.958760 31566 net.cpp:150] Setting up conv9_2_mbox_priorbox
I0609 15:32:12.958766 31566 net.cpp:157] Top shape: 1 2 16 (32)
I0609 15:32:12.958768 31566 net.cpp:165] Memory required for data: 991232800
I0609 15:32:12.958771 31566 layer_factory.hpp:77] Creating layer mbox_loc
I0609 15:32:12.958781 31566 net.cpp:100] Creating Layer mbox_loc
I0609 15:32:12.958786 31566 net.cpp:434] mbox_loc <- conv4_3_norm_mbox_loc_flat
I0609 15:32:12.958792 31566 net.cpp:434] mbox_loc <- fc7_mbox_loc_flat
I0609 15:32:12.958801 31566 net.cpp:434] mbox_loc <- conv6_2_mbox_loc_flat
I0609 15:32:12.958806 31566 net.cpp:434] mbox_loc <- conv7_2_mbox_loc_flat
I0609 15:32:12.958812 31566 net.cpp:434] mbox_loc <- conv8_2_mbox_loc_flat
I0609 15:32:12.958818 31566 net.cpp:434] mbox_loc <- conv9_2_mbox_loc_flat
I0609 15:32:12.958827 31566 net.cpp:408] mbox_loc -> mbox_loc
I0609 15:32:12.958863 31566 net.cpp:150] Setting up mbox_loc
I0609 15:32:12.958869 31566 net.cpp:157] Top shape: 4 34928 (139712)
I0609 15:32:12.958871 31566 net.cpp:165] Memory required for data: 991791648
I0609 15:32:12.958875 31566 layer_factory.hpp:77] Creating layer mbox_conf
I0609 15:32:12.958881 31566 net.cpp:100] Creating Layer mbox_conf
I0609 15:32:12.958885 31566 net.cpp:434] mbox_conf <- conv4_3_norm_mbox_conf_flat
I0609 15:32:12.958892 31566 net.cpp:434] mbox_conf <- fc7_mbox_conf_flat
I0609 15:32:12.958899 31566 net.cpp:434] mbox_conf <- conv6_2_mbox_conf_flat
I0609 15:32:12.958904 31566 net.cpp:434] mbox_conf <- conv7_2_mbox_conf_flat
I0609 15:32:12.958909 31566 net.cpp:434] mbox_conf <- conv8_2_mbox_conf_flat
I0609 15:32:12.958914 31566 net.cpp:434] mbox_conf <- conv9_2_mbox_conf_flat
I0609 15:32:12.958935 31566 net.cpp:408] mbox_conf -> mbox_conf
I0609 15:32:12.958967 31566 net.cpp:150] Setting up mbox_conf
I0609 15:32:12.958972 31566 net.cpp:157] Top shape: 4 17464 (69856)
I0609 15:32:12.958976 31566 net.cpp:165] Memory required for data: 992071072
I0609 15:32:12.958979 31566 layer_factory.hpp:77] Creating layer mbox_priorbox
I0609 15:32:12.958984 31566 net.cpp:100] Creating Layer mbox_priorbox
I0609 15:32:12.958988 31566 net.cpp:434] mbox_priorbox <- conv4_3_norm_mbox_priorbox
I0609 15:32:12.958993 31566 net.cpp:434] mbox_priorbox <- fc7_mbox_priorbox
I0609 15:32:12.959000 31566 net.cpp:434] mbox_priorbox <- conv6_2_mbox_priorbox
I0609 15:32:12.959004 31566 net.cpp:434] mbox_priorbox <- conv7_2_mbox_priorbox
I0609 15:32:12.959010 31566 net.cpp:434] mbox_priorbox <- conv8_2_mbox_priorbox
I0609 15:32:12.959014 31566 net.cpp:434] mbox_priorbox <- conv9_2_mbox_priorbox
I0609 15:32:12.959023 31566 net.cpp:408] mbox_priorbox -> mbox_priorbox
I0609 15:32:12.959053 31566 net.cpp:150] Setting up mbox_priorbox
I0609 15:32:12.959059 31566 net.cpp:157] Top shape: 1 2 34928 (69856)
I0609 15:32:12.959064 31566 net.cpp:165] Memory required for data: 992350496
I0609 15:32:12.959067 31566 layer_factory.hpp:77] Creating layer mbox_conf_reshape
I0609 15:32:12.959075 31566 net.cpp:100] Creating Layer mbox_conf_reshape
I0609 15:32:12.959080 31566 net.cpp:434] mbox_conf_reshape <- mbox_conf
I0609 15:32:12.959086 31566 net.cpp:408] mbox_conf_reshape -> mbox_conf_reshape
I0609 15:32:12.959126 31566 net.cpp:150] Setting up mbox_conf_reshape
I0609 15:32:12.959132 31566 net.cpp:157] Top shape: 4 8732 2 (69856)
I0609 15:32:12.959136 31566 net.cpp:165] Memory required for data: 992629920
I0609 15:32:12.959138 31566 layer_factory.hpp:77] Creating layer mbox_conf_softmax
I0609 15:32:12.959146 31566 net.cpp:100] Creating Layer mbox_conf_softmax
I0609 15:32:12.959151 31566 net.cpp:434] mbox_conf_softmax <- mbox_conf_reshape
I0609 15:32:12.959157 31566 net.cpp:408] mbox_conf_softmax -> mbox_conf_softmax
I0609 15:32:12.959403 31566 net.cpp:150] Setting up mbox_conf_softmax
I0609 15:32:12.959410 31566 net.cpp:157] Top shape: 4 8732 2 (69856)
I0609 15:32:12.959414 31566 net.cpp:165] Memory required for data: 992909344
I0609 15:32:12.959419 31566 layer_factory.hpp:77] Creating layer mbox_conf_flatten
I0609 15:32:12.959424 31566 net.cpp:100] Creating Layer mbox_conf_flatten
I0609 15:32:12.959429 31566 net.cpp:434] mbox_conf_flatten <- mbox_conf_softmax
I0609 15:32:12.959435 31566 net.cpp:408] mbox_conf_flatten -> mbox_conf_flatten
I0609 15:32:12.959467 31566 net.cpp:150] Setting up mbox_conf_flatten
I0609 15:32:12.959472 31566 net.cpp:157] Top shape: 4 17464 (69856)
I0609 15:32:12.959475 31566 net.cpp:165] Memory required for data: 993188768
I0609 15:32:12.959478 31566 layer_factory.hpp:77] Creating layer detection_out
I0609 15:32:12.959493 31566 net.cpp:100] Creating Layer detection_out
I0609 15:32:12.959498 31566 net.cpp:434] detection_out <- mbox_loc
I0609 15:32:12.959503 31566 net.cpp:434] detection_out <- mbox_conf_flatten
I0609 15:32:12.959509 31566 net.cpp:434] detection_out <- mbox_priorbox
I0609 15:32:12.959519 31566 net.cpp:408] detection_out -> detection_out
I0609 15:32:12.959844 31566 net.cpp:150] Setting up detection_out
I0609 15:32:12.959853 31566 net.cpp:157] Top shape: 1 1 1 7 (7)
I0609 15:32:12.959856 31566 net.cpp:165] Memory required for data: 993188796
I0609 15:32:12.959859 31566 layer_factory.hpp:77] Creating layer detection_eval
I0609 15:32:12.959867 31566 net.cpp:100] Creating Layer detection_eval
I0609 15:32:12.959872 31566 net.cpp:434] detection_eval <- detection_out
I0609 15:32:12.959877 31566 net.cpp:434] detection_eval <- label
I0609 15:32:12.959884 31566 net.cpp:408] detection_eval -> detection_eval
I0609 15:32:12.959982 31566 net.cpp:150] Setting up detection_eval
I0609 15:32:12.959990 31566 net.cpp:157] Top shape: 1 1 2 5 (10)
I0609 15:32:12.959992 31566 net.cpp:165] Memory required for data: 993188836
I0609 15:32:12.959996 31566 net.cpp:228] detection_eval does not need backward computation.
I0609 15:32:12.960011 31566 net.cpp:228] detection_out does not need backward computation.
I0609 15:32:12.960017 31566 net.cpp:228] mbox_conf_flatten does not need backward computation.
I0609 15:32:12.960021 31566 net.cpp:228] mbox_conf_softmax does not need backward computation.
…
