…
        min_scale: 0.3
        max_scale: 1
        min_aspect_ratio: 0.5
        max_aspect_ratio: 2
      }
      sample_constraint {
        min_jaccard_overlap: 0.9
      }
      max_sample: 1
      max_trials: 50
    }
    batch_sampler {
      sampler {
        min_scale: 0.3
        max_scale: 1
        min_aspect_ratio: 0.5
        max_aspect_ratio: 2
      }
      sample_constraint {
        max_jaccard_overlap: 1
      }
      max_sample: 1
      max_trials: 50
    }
    label_map_file: "data/sharpen_tbs_v2.0/labelmap_voc.prototxt"
  }
}
layer {
  name: "conv1_1"
  type: "Convolution"
  bottom: "data"
  top: "conv1_1"
  param {
    lr_mult: 1
    decay_mult: 1
  }
  param {
    lr_mult: 2
    decay_mult: 0
  }
  convolution_param {
    num_output: 64
    pad: 1
    kernel_size: 3
    weight_filler {
      type: "xavier"
    }
    bias_filler {
      type: "constant"
      value: 0
    }
  }
}
layer {
  name: "relu1_1"
  type: "ReLU"
  bottom: "conv1_1"
  top: "conv1_1"
}
layer {
  name: "conv1_2"
  type: "Convolution"
  bottom: "conv1_1"
  top: "conv1_2"
  param {
    lr_mult: 1
    decay_mult: 1
  }
  param {
    lr_mult: 2
    decay_mult: 0
  }
  convolution_param {
    num_output: 64
    pad: 1
    kernel_size: 3
    weight_filler {
      type: "xavier"
    }
    bias_filler {
      type: "constant"
      value: 0
    }
  }
}
layer {
  name: "relu1_2"
  type: "ReLU"
  bottom: "conv1_2"
  top: "conv1_2"
}
layer {
  name: "pool1"
  type: "Pooling"
  bottom: "conv1_2"
  top: "pool1"
  pooling_param {
    pool: MAX
    kernel_size: 2
    stride: 2
  }
}
layer {
  name: "conv2_1"
  type: "Convolution"
  bottom: "pool1"
  top: "conv2_1"
  param {
    lr_mult: 1
    decay_mult: 1
  }
  param {
    lr_mult: 2
    decay_mult: 0
  }
  convolution_param {
    num_output: 128
    pad: 1
    kernel_size: 3
    weight_filler {
      type: "xavier"
    }
    bias_filler {
      type: "constant"
      value: 0
    }
  }
}
layer {
  name: "relu2_1"
  type: "ReLU"
  bottom: "conv2_1"
  top: "conv2_1"
}
layer {
  name: "conv2_2"
  type: "Convolution"
  bottom: "conv2_1"
  top: "conv2_2"
  param {
    lr_mult: 1
    decay_mult: 1
  }
  param {
    lr_mult: 2
    decay_mult: 0
  }
  convolution_param {
    num_output: 128
    pad: 1
    kernel_size: 3
    weight_filler {
      type: "xavier"
    }
    bias_filler {
      type: "constant"
      value: 0
    }
  }
}
layer {
  name: "relu2_2"
  type: "ReLU"
  bottom: "conv2_2"
  top: "conv2_2"
}
layer {
  name: "pool2"
  type: "Pooling"
  bottom: "conv2_2"
  top: "pool2"
  pooling_param {
    pool: MAX
    kernel_size: 2
    stride: 2
  }
}
layer {
  name: "conv3_1"
  type: "Convolution"
  bottom: "pool2"
  top: "conv3_1"
  param {
    lr_mult: 1
    decay_mult: 1
  }
  param {
    lr_mult: 2
    decay_mult: 0
  }
  convolution_param {
    num_output: 256
    pad: 1
    kernel_size: 3
    weight_filler {
      type: "xavier"
    }
    bias_filler {
      type: "constant"
      value: 0
    }
  }
}
layer {
  name: "relu3_1"
  type: "ReLU"
  bottom: "conv3_1"
  top: "conv3_1"
}
layer {
  name: "conv3_2"
  type: "Convolution"
  bottom: "conv3_1"
  top: "conv3_2"
  param {
    lr_mult: 1
    decay_mult: 1
  }
  param {
    lr_mult: 2
    decay_mult: 0
  }
  convolution_param {
    num_output: 256
    pad: 1
    kernel_size: 3
    weight_filler {
      type: "xavier"
    }
    bias_filler {
      type: "constant"
      value: 0
    }
  }
}
layer {
  name: "relu3_2"
  type: "ReLU"
  bottom: "conv3_2"
  top: "conv3_2"
}
layer {
  name: "conv3_3"
  type: "Convolution"
  bottom: "conv3_2"
  top: "conv3_3"
  param {
    lr_mult: 1
    decay_mult: 1
  }
  param {
    lr_mult: 2
    decay_mult: 0
  }
  convolution_param {
    num_output: 256
    pad: 1
    kernel_size: 3
    weight_filler {
      type: "xavier"
    }
    bias_filler {
      type: "constant"
      value: 0
    }
  }
}
layer {
  name: "relu3_3"
  type: "ReLU"
  bottom: "conv3_3"
  top: "conv3_3"
}
layer {
  name: "pool3"
  type: "Pooling"
  bottom: "conv3_3"
  top: "pool3"
  pooling_param {
    pool: MAX
    kernel_size: 2
    stride: 2
  }
}
layer {
  name: "conv4_1"
  type: "Convolution"
  bottom: "pool3"
  top: "conv4_1"
  param {
    lr_mult: 1
    decay_mult: 1
  }
  param {
    lr_mult: 2
    decay_mult: 0
  }
  convolution_param {
    num_output: 512
    pad: 1
    kernel_size: 3
    weight_filler {
      type: "xavier"
    }
    bias_filler {
      type: "constant"
      value: 0
    }
  }
}
layer {
  name: "relu4_1"
  type: "ReLU"
  bottom: "conv4_1"
  top: "conv4_1"
}
layer {
  name: "conv4_2"
  type: "Convolution"
  bottom: "conv4_1"
  top: "conv4_2"
  param {
    lr_mult: 1
    decay_mult: 1
  }
  param {
    lr_mult: 2
    decay_mult: 0
  }
  convolution_param {
    num_output: 512
    pad: 1
    kernel_size: 3
    weight_filler {
      type: "xavier"
    }
    bias_filler {
      type: "constant"
      value: 0
    }
  }
}
layer {
  name: "relu4_2"
  type: "ReLU"
  bottom: "conv4_2"
  top: "conv4_2"
}
layer {
  name: "conv4_3"
  type: "Convolution"
  bottom: "conv4_2"
  top: "conv4_3"
  param {
    lr_mult: 1
    decay_mult: 1
  }
  param {
    lr_mult: 2
    decay_mult: 0
  }
  convolution_param {
    num_output: 512
    pad: 1
    kernel_size: 3
    weight_filler {
      type: "xavier"
    }
    bias_filler {
      type: "constant"
      value: 0
    }
  }
}
layer {
  name: "relu4_3"
  type: "ReLU"
  bottom: "conv4_3"
  top: "conv4_3"
}
layer {
  name: "pool4"
  type: "Pooling"
  bottom: "conv4_3"
  top: "pool4"
  pooling_param {
    pool: MAX
    kernel_size: 2
    stride: 2
  }
}
layer {
  name: "conv5_1"
  type: "Convolution"
  bottom: "pool4"
  top: "conv5_1"
  param {
    lr_mult: 1
    decay_mult: 1
  }
  param {
    lr_mult: 2
    decay_mult: 0
  }
  convolution_param {
    num_output: 512
    pad: 1
    kernel_size: 3
    weight_filler {
      type: "xavier"
    }
    bias_filler {
      type: "constant"
      value: 0
    }
    dilation: 1
  }
}
layer {
  name: "relu5_1"
  type: "ReLU"
  bottom: "conv5_1"
  top: "conv5_1"
}
layer {
  name: "conv5_2"
  type: "Convolution"
  bottom: "conv5_1"
  top: "conv5_2"
  param {
    lr_mult: 1
    decay_mult: 1
  }
  param {
    lr_mult: 2
    decay_mult: 0
  }
  convolution_param {
    num_output: 512
    pad: 1
    kernel_size: 3
    weight_filler {
      type: "xavier"
    }
    bias_filler {
      type: "constant"
      value: 0
    }
    dilation: 1
  }
}
layer {
  name: "relu5_2"
  type: "ReLU"
  bottom: "conv5_2"
  top: "conv5_2"
}
layer {
  name: "conv5_3"
  type: "Convolution"
  bottom: "conv5_2"
  top: "conv5_3"
  param {
    lr_mult: 1
    decay_mult: 1
  }
  param {
    lr_mult: 2
    decay_mult: 0
  }
  convolution_param {
    num_output: 512
    pad: 1
    kernel_size: 3
    weight_filler {
      type: "xavier"
    }
    bias_filler {
      type: "constant"
      value: 0
    }
    dilation: 1
  }
}
layer {
  name: "relu5_3"
  type: "ReLU"
  bottom: "conv5_3"
  top: "conv5_3"
}
layer {
  name: "pool5"
  type: "Pooling"
  bottom: "conv5_3"
  top: "pool5"
  pooling_param {
    pool: MAX
    kernel_size: 3
    stride: 1
    pad: 1
  }
}
layer {
  name: "fc6"
  type: "Convolution"
  bottom: "pool5"
  top: "fc6"
  param {
    lr_mult: 1
    decay_mult: 1
  }
  param {
    lr_mult: 2
    decay_mult: 0
  }
  convolution_param {
    num_output: 1024
    pad: 6
    kernel_size: 3
    weight_filler {
      type: "xavier"
    }
    bias_filler {
      type: "constant"
      value: 0
    }
    dilation: 6
  }
}
layer {
  name: "relu6"
  type: "ReLU"
  bottom: "fc6"
  top: "fc6"
}
layer {
  name: "fc7"
  type: "Convolution"
  bottom: "fc6"
  top: "fc7"
  param {
    lr_mult: 1
    decay_mult: 1
  }
  param {
    lr_mult: 2
    decay_mult: 0
  }
  convolution_param {
    num_output: 1024
    kernel_size: 1
    weight_filler {
      type: "xavier"
    }
    bias_filler {
      type: "constant"
      value: 0
    }
  }
}
layer {
  name: "relu7"
  type: "ReLU"
  bottom: "fc7"
  top: "fc7"
}
layer {
  name: "conv6_1"
  type: "Convolution"
  bottom: "fc7"
  top: "conv6_1"
  param {
    lr_mult: 1
    decay_mult: 1
  }
  param {
    lr_mult: 2
    decay_mult: 0
  }
  convolution_param {
    num_output: 256
    pad: 0
    kernel_size: 1
    stride: 1
    weight_filler {
      type: "xavier"
    }
    bias_filler {
      type: "constant"
      value: 0
    }
  }
}
layer {
  name: "conv6_1_relu"
  type: "ReLU"
  bottom: "conv6_1"
  top: "conv6_1"
}
layer {
  name: "conv6_2"
  type: "Convolution"
  bottom: "conv6_1"
  top: "conv6_2"
  param {
    lr_mult: 1
    decay_mult: 1
  }
  param {
    lr_mult: 2
    decay_mult: 0
  }
  convolution_param {
    num_output: 512
    pad: 1
    kernel_size: 3
    stride: 2
    weight_filler {
      type: "xavier"
    }
    bias_filler {
      type: "constant"
      value: 0
    }
  }
}
layer {
  name: "conv6_2_relu"
  type: "ReLU"
  bottom: "conv6_2"
  top: "conv6_2"
}
layer {
  name: "conv7_1"
  type: "Convolution"
  bottom: "conv6_2"
  top: "conv7_1"
  param {
    lr_mult: 1
    decay_mult: 1
  }
  param {
    lr_mult: 2
    decay_mult: 0
  }
  convolution_param {
    num_output: 128
    pad: 0
    kernel_size: 1
    stride: 1
    weight_filler {
      type: "xavier"
    }
    bias_filler {
      type: "constant"
      value: 0
    }
  }
}
layer {
  name: "conv7_1_relu"
  type: "ReLU"
  bottom: "conv7_1"
  top: "conv7_1"
}
layer {
  name: "conv7_2"
  type: "Convolution"
  bottom: "conv7_1"
  top: "conv7_2"
  param {
    lr_mult: 1
    decay_mult: 1
  }
  param {
    lr_mult: 2
    decay_mult: 0
  }
  convolution_param {
    num_output: 256
    pad: 1
    kernel_size: 3
    stride: 2
    weight_filler {
      type: "xavier"
    }
    bias_filler {
      type: "constant"
      value: 0
    }
  }
}
layer {
  name: "conv7_2_relu"
  type: "ReLU"
  bottom: "conv7_2"
  top: "conv7_2"
}
layer {
  name: "conv8_1"
  type: "Convolution"
  bottom: "conv7_2"
  top: "conv8_1"
  param {
    lr_mult: 1
    decay_mult: 1
  }
  param {
    lr_mult: 2
    decay_mult: 0
  }
  convolution_param {
    num_output: 128
    pad: 0
    kernel_size: 1
    stride: 1
    weight_filler {
      type: "xavier"
    }
    bias_filler {
      type: "constant"
      value: 0
    }
  }
}
layer {
  name: "conv8_1_relu"
  type: "ReLU"
  bottom: "conv8_1"
  top: "conv8_1"
}
layer {
  name: "conv8_2"
  type: "Convolution"
  bottom: "conv8_1"
  top: "conv8_2"
  param {
    lr_mult: 1
    decay_mult: 1
  }
  param {
    lr_mult: 2
    decay_mult: 0
  }
  convolution_param {
    num_output: 256
    pad: 0
    kernel_size: 3
    stride: 1
    weight_filler {
      type: "xavier"
    }
    bias_filler {
      type: "constant"
      value: 0
    }
  }
}
layer {
  name: "conv8_2_relu"
  type: "ReLU"
  bottom: "conv8_2"
  top: "conv8_2"
}
layer {
  name: "conv9_1"
  type: "Convolution"
  bottom: "conv8_2"
  top: "conv9_1"
  param {
    lr_mult: 1
    decay_mult: 1
  }
  param {
    lr_mult: 2
    decay_mult: 0
  }
  convolution_param {
    num_output: 128
    pad: 0
    kernel_size: 1
    stride: 1
    weight_filler {
      type: "xavier"
    }
    bias_filler {
      type: "constant"
      value: 0
    }
  }
}
layer {
  name: "conv9_1_relu"
  type: "ReLU"
  bottom: "conv9_1"
  top: "conv9_1"
}
layer {
  name: "conv9_2"
  type: "Convolution"
  bottom: "conv9_1"
  top: "conv9_2"
  param {
    lr_mult: 1
    decay_mult: 1
  }
  param {
    lr_mult: 2
    decay_mult: 0
  }
  convolution_param {
    num_output: 256
    pad: 0
    kernel_size: 3
    stride: 1
    weight_filler {
      type: "xavier"
    }
    bias_filler {
      type: "constant"
      value: 0
    }
  }
}
layer {
  name: "conv9_2_relu"
  type: "ReLU"
  bottom: "conv9_2"
  top: "conv9_2"
}
layer {
  name: "conv4_3_norm"
  type: "Normalize"
  bottom: "conv4_3"
  top: "conv4_3_norm"
  norm_param {
    across_spatial: false
    scale_filler {
      type: "constant"
      value: 20
    }
    channel_shared: false
  }
}
layer {
  name: "conv4_3_norm_mbox_loc"
  type: "Convolution"
  bottom: "conv4_3_norm"
  top: "conv4_3_norm_mbox_loc"
  param {
    lr_mult: 1
    decay_mult: 1
  }
  param {
    lr_mult: 2
    decay_mult: 0
  }
  convolution_param {
    num_output: 16
    pad: 1
    kernel_size: 3
    stride: 1
    weight_filler {
      type: "xavier"
    }
    bias_filler {
      type: "constant"
      value: 0
    }
  }
}
layer {
  name: "conv4_3_norm_mbox_loc_perm"
  type: "Permute"
  bottom: "conv4_3_norm_mbox_loc"
  top: "conv4_3_norm_mbox_loc_perm"
  permute_param {
    order: 0
    order: 2
    order: 3
    order: 1
  }
}
layer {
  name: "conv4_3_norm_mbox_loc_flat"
  type: "Flatten"
  bottom: "conv4_3_norm_mbox_loc_perm"
  top: "conv4_3_norm_mbox_loc_flat"
  flatten_param {
    axis: 1
  }
}
layer {
  name: "conv4_3_norm_mbox_conf"
  type: "Convolution"
  bottom: "conv4_3_norm"
  top: "conv4_3_norm_mbox_conf"
  param {
    lr_mult: 1
    decay_mult: 1
  }
  param {
    lr_mult: 2
    decay_mult: 0
  }
  convolution_param {
    num_output: 8
    pad: 1
    kernel_size: 3
    stride: 1
    weight_filler {
      type: "xavier"
    }
    bias_filler {
      type: "constant"
      value: 0
    }
  }
}
layer {
  name: "conv4_3_norm_mbox_conf_perm"
  type: "Permute"
  bottom: "conv4_3_norm_mbox_conf"
  top: "conv4_3_norm_mbox_conf_perm"
  permute_param {
    order: 0
    order: 2
    order: 3
    order: 1
  }
}
layer {
  name: "conv4_3_norm_mbox_conf_flat"
  type: "Flatten"
  bottom: "conv4_3_norm_mbox_conf_perm"
  top: "conv4_3_norm_mbox_conf_flat"
  flatten_param {
    axis: 1
  }
}
layer {
  name: "conv4_3_norm_mbox_priorbox"
  type: "PriorBox"
  bottom: "conv4_3_norm"
  bottom: "data"
  top: "conv4_3_norm_mbox_priorbox"
  prior_box_param {
    min_size: 30
    max_size: 60
    aspect_ratio: 2
    flip: true
    clip: false
    variance: 0.1
    variance: 0.1
    variance: 0.2
    variance: 0.2
    step: 8
    offset: 0.5
  }
}
layer {
  name: "fc7_mbox_loc"
  type: "Convolution"
  bottom: "fc7"
  top: "fc7_mbox_loc"
  param {
    lr_mult: 1
    decay_mult: 1
  }
  param {
    lr_mult: 2
    decay_mult: 0
  }
  convolution_param {
    num_output: 24
    pad: 1
    kernel_size: 3
    stride: 1
    weight_filler {
      type: "xavier"
    }
    bias_filler {
      type: "constant"
      value: 0
    }
  }
}
layer {
  name: "fc7_mbox_loc_perm"
  type: "Permute"
  bottom: "fc7_mbox_loc"
  top: "fc7_mbox_loc_perm"
  permute_param {
    order: 0
    order: 2
    order: 3
    order: 1
  }
}
layer {
  name: "fc7_mbox_loc_flat"
  type: "Flatten"
  bottom: "fc7_mbox_loc_perm"
  top: "fc7_mbox_loc_flat"
  flatten_param {
    axis: 1
  }
}
layer {
  name: "fc7_mbox_conf"
  type: "Convolution"
  bottom: "fc7"
  top: "fc7_mbox_conf"
  param {
    lr_mult: 1
    decay_mult: 1
  }
  param {
    lr_mult: 2
    decay_mult: 0
  }
  convolution_param {
    num_output: 12
    pad: 1
    kernel_size: 3
    stride: 1
    weight_filler {
      type: "xavier"
    }
    bias_filler {
      type: "constant"
      value: 0
    }
  }
}
layer {
  name: "fc7_mbox_conf_perm"
  type: "Permute"
  bottom: "fc7_mbox_conf"
  top: "fc7_mbox_conf_perm"
  permute_param {
    order: 0
    order: 2
    order: 3
    order: 1
  }
}
layer {
  name: "fc7_mbox_conf_flat"
  type: "Flatten"
  bottom: "fc7_mbox_conf_perm"
  top: "fc7_mbox_conf_flat"
  flatten_param {
    axis: 1
  }
}
layer {
  name: "fc7_mbox_priorbox"
  type: "PriorBox"
  bottom: "fc7"
  bottom: "data"
  top: "fc7_mbox_priorbox"
  prior_box_param {
    min_size: 60
    max_size: 111
    aspect_ratio: 2
    aspect_ratio: 3
    flip: true
    clip: false
    variance: 0.1
    variance: 0.1
    variance: 0.2
    variance: 0.2
    step: 16
    offset: 0.5
  }
}
layer {
  name: "conv6_2_mbox_loc"
  type: "Convolution"
  bottom: "conv6_2"
  top: "conv6_2_mbox_loc"
  param {
    lr_mult: 1
    decay_mult: 1
  }
  param {
    lr_mult: 2
    decay_mult: 0
  }
  convolution_param {
    num_output: 24
    pad: 1
    kernel_size: 3
    stride: 1
    weight_filler {
      type: "xavier"
    }
    bias_filler {
      type: "constant"
      value: 0
    }
  }
}
layer {
  name: "conv6_2_mbox_loc_perm"
  type: "Permute"
  bottom: "conv6_2_mbox_loc"
  top: "conv6_2_mbox_loc_perm"
  permute_param {
    order: 0
    order: 2
    order: 3
    order: 1
  }
}
layer {
  name: "conv6_2_mbox_loc_flat"
  type: "Flatten"
  bottom: "conv6_2_mbox_loc_perm"
  top: "conv6_2_mbox_loc_flat"
  flatten_param {
    axis: 1
  }
}
layer {
  name: "conv6_2_mbox_conf"
  type: "Convolution"
  bottom: "conv6_2"
  top: "conv6_2_mbox_conf"
  param {
    lr_mult: 1
    decay_mult: 1
  }
  param {
    lr_mult: 2
    decay_mult: 0
  }
  convolution_param {
    num_output: 12
    pad: 1
    kernel_size: 3
    stride: 1
    weight_filler {
      type: "xavier"
    }
    bias_filler {
      type: "constant"
      value: 0
    }
  }
}
layer {
  name: "conv6_2_mbox_conf_perm"
  type: "Permute"
  bottom: "conv6_2_mbox_conf"
  top: "conv6_2_mbox_conf_perm"
  permute_param {
    order: 0
    order: 2
    order: 3
    order: 1
  }
}
layer {
  name: "conv6_2_mbox_conf_flat"
  type: "Flatten"
  bottom: "conv6_2_mbox_conf_perm"
  top: "conv6_2_mbox_conf_flat"
  flatten_param {
    axis: 1
  }
}
layer {
  name: "conv6_2_mbox_priorbox"
  type: "PriorBox"
  bottom: "conv6_2"
  bottom: "data"
  top: "conv6_2_mbox_priorbox"
  prior_box_param {
    min_size: 111
    max_size: 162
    aspect_ratio: 2
    aspect_ratio: 3
    flip: true
    clip: false
    variance: 0.1
    variance: 0.1
    variance: 0.2
    variance: 0.2
    step: 32
    offset: 0.5
  }
}
layer {
  name: "conv7_2_mbox_loc"
  type: "Convolution"
  bottom: "conv7_2"
  top: "conv7_2_mbox_loc"
  param {
    lr_mult: 1
    decay_mult: 1
  }
  param {
    lr_mult: 2
    decay_mult: 0
  }
  convolution_param {
    num_output: 24
    pad: 1
    kernel_size: 3
    stride: 1
    weight_filler {
      type: "xavier"
    }
    bias_filler {
      type: "constant"
      value: 0
    }
  }
}
layer {
  name: "conv7_2_mbox_loc_perm"
  type: "Permute"
  bottom: "conv7_2_mbox_loc"
  top: "conv7_2_mbox_loc_perm"
  permute_param {
    order: 0
    order: 2
    order: 3
    order: 1
  }
}
layer {
  name: "conv7_2_mbox_loc_flat"
  type: "Flatten"
  bottom: "conv7_2_mbox_loc_perm"
  top: "conv7_2_mbox_loc_flat"
  flatten_param {
    axis: 1
  }
}
layer {
  name: "conv7_2_mbox_conf"
  type: "Convolution"
  bottom: "conv7_2"
  top: "conv7_2_mbox_conf"
  param {
    lr_mult: 1
    decay_mult: 1
  }
  param {
    lr_mult: 2
    decay_mult: 0
  }
  convolution_param {
    num_output: 12
    pad: 1
    kernel_size: 3
    stride: 1
    weight_filler {
      type: "xavier"
    }
    bias_filler {
      type: "constant"
      value: 0
    }
  }
}
layer {
  name: "conv7_2_mbox_conf_perm"
  type: "Permute"
  bottom: "conv7_2_mbox_conf"
  top: "conv7_2_mbox_conf_perm"
  permute_param {
    order: 0
    order: 2
    order: 3
    order: 1
  }
}
layer {
  name: "conv7_2_mbox_conf_flat"
  type: "Flatten"
  bottom: "conv7_2_mbox_conf_perm"
  top: "conv7_2_mbox_conf_flat"
  flatten_param {
    axis: 1
  }
}
layer {
  name: "conv7_2_mbox_priorbox"
  type: "PriorBox"
  bottom: "conv7_2"
  bottom: "data"
  top: "conv7_2_mbox_priorbox"
  prior_box_param {
    min_size: 162
    max_size: 213
    aspect_ratio: 2
    aspect_ratio: 3
    flip: true
    clip: false
    variance: 0.1
    variance: 0.1
    variance: 0.2
    variance: 0.2
    step: 64
    offset: 0.5
  }
}
layer {
  name: "conv8_2_mbox_loc"
  type: "Convolution"
  bottom: "conv8_2"
  top: "conv8_2_mbox_loc"
  param {
    lr_mult: 1
    decay_mult: 1
  }
  param {
    lr_mult: 2
    decay_mult: 0
  }
  convolution_param {
    num_output: 16
    pad: 1
    kernel_size: 3
    stride: 1
    weight_filler {
      type: "xavier"
    }
    bias_filler {
      type: "constant"
      value: 0
    }
  }
}
layer {
  name: "conv8_2_mbox_loc_perm"
  type: "Permute"
  bottom: "conv8_2_mbox_loc"
  top: "conv8_2_mbox_loc_perm"
  permute_param {
    order: 0
    order: 2
    order: 3
    order: 1
  }
}
layer {
  name: "conv8_2_mbox_loc_flat"
  type: "Flatten"
  bottom: "conv8_2_mbox_loc_perm"
  top: "conv8_2_mbox_loc_flat"
  flatten_param {
    axis: 1
  }
}
layer {
  name: "conv8_2_mbox_conf"
  type: "Convolution"
  bottom: "conv8_2"
  top: "conv8_2_mbox_conf"
  param {
    lr_mult: 1
    decay_mult: 1
  }
  param {
    lr_mult: 2
    decay_mult: 0
  }
  convolution_param {
    num_output: 8
    pad: 1
    kernel_size: 3
    stride: 1
    weight_filler {
      type: "xavier"
    }
    bias_filler {
      type: "constant"
      value: 0
    }
  }
}
layer {
  name: "conv8_2_mbox_conf_perm"
  type: "Permute"
  bottom: "conv8_2_mbox_conf"
  top: "conv8_2_mbox_conf_perm"
  permute_param {
    order: 0
    order: 2
    order: 3
    order: 1
  }
}
layer {
  name: "conv8_2_mbox_conf_flat"
  type: "Flatten"
  bottom: "conv8_2_mbox_conf_perm"
  top: "conv8_2_mbox_conf_flat"
  flatten_param {
    axis: 1
  }
}
layer {
  name: "conv8_2_mbox_priorbox"
  type: "PriorBox"
  bottom: "conv8_2"
  bottom: "data"
  top: "conv8_2_mbox_priorbox"
  prior_box_param {
    min_size: 213
    max_size: 264
    aspect_ratio: 2
    flip: true
    clip: false
    variance: 0.1
    variance: 0.1
    variance: 0.2
    variance: 0.2
    step: 100
    offset: 0.5
  }
}
layer {
  name: "conv9_2_mbox_loc"
  type: "Convolution"
  bottom: "conv9_2"
  top: "conv9_2_mbox_loc"
  param {
    lr_mult: 1
    decay_mult: 1
  }
  param {
    lr_mult: 2
    decay_mult: 0
  }
  convolution_param {
    num_output: 16
    pad: 1
    kernel_size: 3
    stride: 1
    weight_filler {
      type: "xavier"
    }
    bias_filler {
      type: "constant"
      value: 0
    }
  }
}
layer {
  name: "conv9_2_mbox_loc_perm"
  type: "Permute"
  bottom: "conv9_2_mbox_loc"
  top: "conv9_2_mbox_loc_perm"
  permute_param {
    order: 0
    order: 2
    order: 3
    order: 1
  }
}
layer {
  name: "conv9_2_mbox_loc_flat"
  type: "Flatten"
  bottom: "conv9_2_mbox_loc_perm"
  top: "conv9_2_mbox_loc_flat"
  flatten_param {
    axis: 1
  }
}
layer {
  name: "conv9_2_mbox_conf"
  type: "Convolution"
  bottom: "conv9_2"
  top: "conv9_2_mbox_conf"
  param {
    lr_mult: 1
    decay_mult: 1
  }
  param {
    lr_mult: 2
    decay_mult: 0
  }
  convolution_param {
    num_output: 8
    pad: 1
    kernel_size: 3
    stride: 1
    weight_filler {
      type: "xavier"
    }
    bias_filler {
      type: "constant"
      value: 0
    }
  }
}
layer {
  name: "conv9_2_mbox_conf_perm"
  type: "Permute"
  bottom: "conv9_2_mbox_conf"
  top: "conv9_2_mbox_conf_perm"
  permute_param {
    order: 0
    order: 2
    order: 3
    order: 1
  }
}
layer {
  name: "conv9_2_mbox_conf_flat"
  type: "Flatten"
  bottom: "conv9_2_mbox_conf_perm"
  top: "conv9_2_mbox_conf_flat"
  flatten_param {
    axis: 1
  }
}
layer {
  name: "conv9_2_mbox_priorbox"
  type: "PriorBox"
  bottom: "conv9_2"
  bottom: "data"
  top: "conv9_2_mbox_priorbox"
  prior_box_param {
    min_size: 264
    max_size: 315
    aspect_ratio: 2
    flip: true
    clip: false
    variance: 0.1
    variance: 0.1
    variance: 0.2
    variance: 0.2
    step: 300
    offset: 0.5
  }
}
layer {
  name: "mbox_loc"
  type: "Concat"
  bottom: "conv4_3_norm_mbox_loc_flat"
  bottom: "fc7_mbox_loc_flat"
  bottom: "conv6_2_mbox_loc_flat"
  bottom: "conv7_2_mbox_loc_flat"
  bottom: "conv8_2_mbox_loc_flat"
  bottom: "conv9_2_mbox_loc_flat"
  top: "mbox_loc"
  concat_param {
    axis: 1
  }
}
layer {
  name: "mbox_conf"
  type: "Concat"
  bottom: "conv4_3_norm_mbox_conf_flat"
  bottom: "fc7_mbox_conf_flat"
  bottom: "conv6_2_mbox_conf_flat"
  bottom: "conv7_2_mbox_conf_flat"
  bottom: "conv8_2_mbox_conf_flat"
  bottom: "conv9_2_mbox_conf_flat"
  top: "mbox_conf"
  concat_param {
    axis: 1
  }
}
layer {
  name: "mbox_priorbox"
  type: "Concat"
  bottom: "conv4_3_norm_mbox_priorbox"
  bottom: "fc7_mbox_priorbox"
  bottom: "conv6_2_mbox_priorbox"
  bottom: "conv7_2_mbox_priorbox"
  bottom: "conv8_2_mbox_priorbox"
  bottom: "conv9_2_mbox_priorbox"
  top: "mbox_priorbox"
  concat_param {
    axis: 2
  }
}
layer {
  name: "mbox_loss"
  type: "MultiBoxLoss"
  bottom: "mbox_loc"
  bottom: "mbox_conf"
  bottom: "mbox_priorbox"
  bottom: "label"
  top: "mbox_loss"
  include {
    phase: TRAIN
  }
  propagate_down: true
  propagate_down: true
  propagate_down: false
  propagate_down: false
  loss_param {
    normalization: VALID
  }
  multibox_loss_param {
    loc_loss_type: SMOOTH_L1
    conf_loss_type: SOFTMAX
    loc_weight: 1
    num_classes: 2
    share_location: true
    match_type: PER_PREDICTION
    overlap_threshold: 0.5
    use_prior_for_matching: true
    background_label_id: 0
    use_difficult_gt: true
    neg_pos_ratio: 3
    neg_overlap: 0.5
    code_type: CENTER_SIZE
    ignore_cross_boundary_bbox: false
    mining_type: MAX_NEGATIVE
  }
}
I0609 14:01:56.542861 26996 layer_factory.hpp:77] Creating layer data
I0609 14:01:56.543006 26996 net.cpp:100] Creating Layer data
I0609 14:01:56.543021 26996 net.cpp:408] data -> data
I0609 14:01:56.543050 26996 net.cpp:408] data -> label
I0609 14:01:56.543412 27012 db_lmdb.cpp:35] Opened lmdb examples/sharpen_tbs_v2.0/sharpen_tbs_v2.0_trainval_lmdb
I0609 14:01:56.552747 26996 annotated_data_layer.cpp:62] output data size: 32,3,300,300
I0609 14:01:56.611003 26996 net.cpp:150] Setting up data
I0609 14:01:56.611022 26996 net.cpp:157] Top shape: 32 3 300 300 (8640000)
I0609 14:01:56.611027 26996 net.cpp:157] Top shape: 1 1 1 8 (8)
I0609 14:01:56.611042 26996 net.cpp:165] Memory required for data: 34560032
I0609 14:01:56.611065 26996 layer_factory.hpp:77] Creating layer data_data_0_split
I0609 14:01:56.611075 26996 net.cpp:100] Creating Layer data_data_0_split
I0609 14:01:56.611080 26996 net.cpp:434] data_data_0_split <- data
I0609 14:01:56.611119 26996 net.cpp:408] data_data_0_split -> data_data_0_split_0
I0609 14:01:56.611142 26996 net.cpp:408] data_data_0_split -> data_data_0_split_1
I0609 14:01:56.611147 26996 net.cpp:408] data_data_0_split -> data_data_0_split_2
I0609 14:01:56.611166 26996 net.cpp:408] data_data_0_split -> data_data_0_split_3
I0609 14:01:56.611174 26996 net.cpp:408] data_data_0_split -> data_data_0_split_4
I0609 14:01:56.611196 26996 net.cpp:408] data_data_0_split -> data_data_0_split_5
I0609 14:01:56.611202 26996 net.cpp:408] data_data_0_split -> data_data_0_split_6
I0609 14:01:56.611273 26996 net.cpp:150] Setting up data_data_0_split
I0609 14:01:56.611279 26996 net.cpp:157] Top shape: 32 3 300 300 (8640000)
I0609 14:01:56.611284 26996 net.cpp:157] Top shape: 32 3 300 300 (8640000)
I0609 14:01:56.611300 26996 net.cpp:157] Top shape: 32 3 300 300 (8640000)
I0609 14:01:56.611305 26996 net.cpp:157] Top shape: 32 3 300 300 (8640000)
I0609 14:01:56.611325 26996 net.cpp:157] Top shape: 32 3 300 300 (8640000)
I0609 14:01:56.611330 26996 net.cpp:157] Top shape: 32 3 300 300 (8640000)
I0609 14:01:56.611335 26996 net.cpp:157] Top shape: 32 3 300 300 (8640000)
I0609 14:01:56.611338 26996 net.cpp:165] Memory required for data: 276480032
I0609 14:01:56.611341 26996 layer_factory.hpp:77] Creating layer conv1_1
I0609 14:01:56.611369 26996 net.cpp:100] Creating Layer conv1_1
I0609 14:01:56.611372 26996 net.cpp:434] conv1_1 <- data_data_0_split_0
I0609 14:01:56.611377 26996 net.cpp:408] conv1_1 -> conv1_1
I0609 14:01:56.787408 26996 net.cpp:150] Setting up conv1_1
I0609 14:01:56.787431 26996 net.cpp:157] Top shape: 32 64 300 300 (184320000)
I0609 14:01:56.787434 26996 net.cpp:165] Memory required for data: 1013760032
I0609 14:01:56.787449 26996 layer_factory.hpp:77] Creating layer relu1_1
I0609 14:01:56.787472 26996 net.cpp:100] Creating Layer relu1_1
I0609 14:01:56.787477 26996 net.cpp:434] relu1_1 <- conv1_1
I0609 14:01:56.787480 26996 net.cpp:395] relu1_1 -> conv1_1 (in-place)
I0609 14:01:56.787657 26996 net.cpp:150] Setting up relu1_1
I0609 14:01:56.787664 26996 net.cpp:157] Top shape: 32 64 300 300 (184320000)
I0609 14:01:56.787667 26996 net.cpp:165] Memory required for data: 1751040032
I0609 14:01:56.787669 26996 layer_factory.hpp:77] Creating layer conv1_2
I0609 14:01:56.787678 26996 net.cpp:100] Creating Layer conv1_2
I0609 14:01:56.787695 26996 net.cpp:434] conv1_2 <- conv1_1
I0609 14:01:56.787700 26996 net.cpp:408] conv1_2 -> conv1_2
I0609 14:01:56.789412 26996 net.cpp:150] Setting up conv1_2
I0609 14:01:56.789422 26996 net.cpp:157] Top shape: 32 64 300 300 (184320000)
I0609 14:01:56.789425 26996 net.cpp:165] Memory required for data: 2488320032
I0609 14:01:56.789432 26996 layer_factory.hpp:77] Creating layer relu1_2
I0609 14:01:56.789436 26996 net.cpp:100] Creating Layer relu1_2
I0609 14:01:56.789440 26996 net.cpp:434] relu1_2 <- conv1_2
I0609 14:01:56.789458 26996 net.cpp:395] relu1_2 -> conv1_2 (in-place)
I0609 14:01:56.790011 26996 net.cpp:150] Setting up relu1_2
I0609 14:01:56.790019 26996 net.cpp:157] Top shape: 32 64 300 300 (184320000)
I0609 14:01:56.790021 26996 net.cpp:165] Memory required for data: 3225600032
I0609 14:01:56.790024 26996 layer_factory.hpp:77] Creating layer pool1
I0609 14:01:56.790029 26996 net.cpp:100] Creating Layer pool1
I0609 14:01:56.790031 26996 net.cpp:434] pool1 <- conv1_2
I0609 14:01:56.790036 26996 net.cpp:408] pool1 -> pool1
I0609 14:01:56.790129 26996 net.cpp:150] Setting up pool1
I0609 14:01:56.790134 26996 net.cpp:157] Top shape: 32 64 150 150 (46080000)
I0609 14:01:56.790136 26996 net.cpp:165] Memory required for data: 3409920032
I0609 14:01:56.790139 26996 layer_factory.hpp:77] Creating layer conv2_1
I0609 14:01:56.790146 26996 net.cpp:100] Creating Layer conv2_1
I0609 14:01:56.790187 26996 net.cpp:434] conv2_1 <- pool1
I0609 14:01:56.790192 26996 net.cpp:408] conv2_1 -> conv2_1
I0609 14:01:56.791383 26996 net.cpp:150] Setting up conv2_1
I0609 14:01:56.791391 26996 net.cpp:157] Top shape: 32 128 150 150 (92160000)
I0609 14:01:56.791394 26996 net.cpp:165] Memory required for data: 3778560032
I0609 14:01:56.791400 26996 layer_factory.hpp:77] Creating layer relu2_1
I0609 14:01:56.791422 26996 net.cpp:100] Creating Layer relu2_1
I0609 14:01:56.791425 26996 net.cpp:434] relu2_1 <- conv2_1
I0609 14:01:56.791442 26996 net.cpp:395] relu2_1 -> conv2_1 (in-place)
I0609 14:01:56.792019 26996 net.cpp:150] Setting up relu2_1
I0609 14:01:56.792027 26996 net.cpp:157] Top shape: 32 128 150 150 (92160000)
I0609 14:01:56.792029 26996 net.cpp:165] Memory required for data: 4147200032
I0609 14:01:56.792032 26996 layer_factory.hpp:77] Creating layer conv2_2
I0609 14:01:56.792038 26996 net.cpp:100] Creating Layer conv2_2
I0609 14:01:56.792042 26996 net.cpp:434] conv2_2 <- conv2_1
I0609 14:01:56.792060 26996 net.cpp:408] conv2_2 -> conv2_2
I0609 14:01:56.794001 26996 net.cpp:150] Setting up conv2_2
I0609 14:01:56.794010 26996 net.cpp:157] Top shape: 32 128 150 150 (92160000)
I0609 14:01:56.794013 26996 net.cpp:165] Memory required for data: 4515840032
I0609 14:01:56.794018 26996 layer_factory.hpp:77] Creating layer relu2_2
I0609 14:01:56.794023 26996 net.cpp:100] Creating Layer relu2_2
I0609 14:01:56.794028 26996 net.cpp:434] relu2_2 <- conv2_2
I0609 14:01:56.794046 26996 net.cpp:395] relu2_2 -> conv2_2 (in-place)
I0609 14:01:56.794209 26996 net.cpp:150] Setting up relu2_2
I0609 14:01:56.794227 26996 net.cpp:157] Top shape: 32 128 150 150 (92160000)
I0609 14:01:56.794229 26996 net.cpp:165] Memory required for data: 4884480032
I0609 14:01:56.794232 26996 layer_factory.hpp:77] Creating layer pool2
I0609 14:01:56.794236 26996 net.cpp:100] Creating Layer pool2
I0609 14:01:56.794255 26996 net.cpp:434] pool2 <- conv2_2
I0609 14:01:56.794258 26996 net.cpp:408] pool2 -> pool2
I0609 14:01:56.794314 26996 net.cpp:150] Setting up pool2
I0609 14:01:56.794319 26996 net.cpp:157] Top shape: 32 128 75 75 (23040000)
I0609 14:01:56.794322 26996 net.cpp:165] Memory required for data: 4976640032
I0609 14:01:56.794323 26996 layer_factory.hpp:77] Creating layer conv3_1
I0609 14:01:56.794329 26996 net.cpp:100] Creating Layer conv3_1
I0609 14:01:56.794332 26996 net.cpp:434] conv3_1 <- pool2
I0609 14:01:56.794337 26996 net.cpp:408] conv3_1 -> conv3_1
I0609 14:01:56.797962 26996 net.cpp:150] Setting up conv3_1
I0609 14:01:56.797976 26996 net.cpp:157] Top shape: 32 256 75 75 (46080000)
I0609 14:01:56.797979 26996 net.cpp:165] Memory required for data: 5160960032
I0609 14:01:56.797989 26996 layer_factory.hpp:77] Creating layer relu3_1
I0609 14:01:56.798009 26996 net.cpp:100] Creating Layer relu3_1
I0609 14:01:56.798013 26996 net.cpp:434] relu3_1 <- conv3_1
I0609 14:01:56.798017 26996 net.cpp:395] relu3_1 -> conv3_1 (in-place)
I0609 14:01:56.798159 26996 net.cpp:150] Setting up relu3_1
I0609 14:01:56.798166 26996 net.cpp:157] Top shape: 32 256 75 75 (46080000)
I0609 14:01:56.798168 26996 net.cpp:165] Memory required for data: 5345280032
I0609 14:01:56.798171 26996 layer_factory.hpp:77] Creating layer conv3_2
I0609 14:01:56.798177 26996 net.cpp:100] Creating Layer conv3_2
I0609 14:01:56.798180 26996 net.cpp:434] conv3_2 <- conv3_1
I0609 14:01:56.798185 26996 net.cpp:408] conv3_2 -> conv3_2
I0609 14:01:56.802765 26996 net.cpp:150] Setting up conv3_2
I0609 14:01:56.802783 26996 net.cpp:157] Top shape: 32 256 75 75 (46080000)
I0609 14:01:56.802785 26996 net.cpp:165] Memory required for data: 5529600032
I0609 14:01:56.802793 26996 layer_factory.hpp:77] Creating layer relu3_2
I0609 14:01:56.802798 26996 net.cpp:100] Creating Layer relu3_2
I0609 14:01:56.802803 26996 net.cpp:434] relu3_2 <- conv3_2
I0609 14:01:56.802808 26996 net.cpp:395] relu3_2 -> conv3_2 (in-place)
I0609 14:01:56.802952 26996 net.cpp:150] Setting up relu3_2
I0609 14:01:56.802958 26996 net.cpp:157] Top shape: 32 256 75 75 (46080000)
I0609 14:01:56.802960 26996 net.cpp:165] Memory required for data: 5713920032
I0609 14:01:56.802973 26996 layer_factory.hpp:77] Creating layer conv3_3
I0609 14:01:56.802999 26996 net.cpp:100] Creating Layer conv3_3
I0609 14:01:56.803002 26996 net.cpp:434] conv3_3 <- conv3_2
I0609 14:01:56.803009 26996 net.cpp:408] conv3_3 -> conv3_3
I0609 14:01:56.807409 26996 net.cpp:150] Setting up conv3_3
I0609 14:01:56.807420 26996 net.cpp:157] Top shape: 32 256 75 75 (46080000)
I0609 14:01:56.807421 26996 net.cpp:165] Memory required for data: 5898240032
I0609 14:01:56.807426 26996 layer_factory.hpp:77] Creating layer relu3_3
I0609 14:01:56.807431 26996 net.cpp:100] Creating Layer relu3_3
I0609 14:01:56.807449 26996 net.cpp:434] relu3_3 <- conv3_3
I0609 14:01:56.807456 26996 net.cpp:395] relu3_3 -> conv3_3 (in-place)
I0609 14:01:56.807624 26996 net.cpp:150] Setting up relu3_3
I0609 14:01:56.807636 26996 net.cpp:157] Top shape: 32 256 75 75 (46080000)
I0609 14:01:56.807638 26996 net.cpp:165] Memory required for data: 6082560032
I0609 14:01:56.807654 26996 layer_factory.hpp:77] Creating layer pool3
I0609 14:01:56.807660 26996 net.cpp:100] Creating Layer pool3
I0609 14:01:56.807667 26996 net.cpp:434] pool3 <- conv3_3
I0609 14:01:56.807670 26996 net.cpp:408] pool3 -> pool3
I0609 14:01:56.807701 26996 net.cpp:150] Setting up pool3
I0609 14:01:56.807708 26996 net.cpp:157] Top shape: 32 256 38 38 (11829248)
I0609 14:01:56.807709 26996 net.cpp:165] Memory required for data: 6129877024
I0609 14:01:56.807711 26996 layer_factory.hpp:77] Creating layer conv4_1
I0609 14:01:56.807718 26996 net.cpp:100] Creating Layer conv4_1
I0609 14:01:56.807723 26996 net.cpp:434] conv4_1 <- pool3
I0609 14:01:56.807727 26996 net.cpp:408] conv4_1 -> conv4_1
I0609 14:01:56.815759 26996 net.cpp:150] Setting up conv4_1
I0609 14:01:56.815780 26996 net.cpp:157] Top shape: 32 512 38 38 (23658496)
I0609 14:01:56.815783 26996 net.cpp:165] Memory required for data: 6224511008
I0609 14:01:56.815806 26996 layer_factory.hpp:77] Creating layer relu4_1
I0609 14:01:56.815816 26996 net.cpp:100] Creating Layer relu4_1
I0609 14:01:56.815820 26996 net.cpp:434] relu4_1 <- conv4_1
I0609 14:01:56.815826 26996 net.cpp:395] relu4_1 -> conv4_1 (in-place)
I0609 14:01:56.816467 26996 net.cpp:150] Setting up relu4_1
I0609 14:01:56.816476 26996 net.cpp:157] Top shape: 32 512 38 38 (23658496)
I0609 14:01:56.816478 26996 net.cpp:165] Memory required for data: 6319144992
I0609 14:01:56.816481 26996 layer_factory.hpp:77] Creating layer conv4_2
I0609 14:01:56.816505 26996 net.cpp:100] Creating Layer conv4_2
I0609 14:01:56.816509 26996 net.cpp:434] conv4_2 <- conv4_1
I0609 14:01:56.816512 26996 net.cpp:408] conv4_2 -> conv4_2
I0609 14:01:56.828433 26996 net.cpp:150] Setting up conv4_2
I0609 14:01:56.828457 26996 net.cpp:157] Top shape: 32 512 38 38 (23658496)
I0609 14:01:56.828459 26996 net.cpp:165] Memory required for data: 6413778976
I0609 14:01:56.828486 26996 layer_factory.hpp:77] Creating layer relu4_2
I0609 14:01:56.828508 26996 net.cpp:100] Creating Layer relu4_2
I0609 14:01:56.828511 26996 net.cpp:434] relu4_2 <- conv4_2
I0609 14:01:56.828518 26996 net.cpp:395] relu4_2 -> conv4_2 (in-place)
I0609 14:01:56.829200 26996 net.cpp:150] Setting up relu4_2
I0609 14:01:56.829208 26996 net.cpp:157] Top shape: 32 512 38 38 (23658496)
I0609 14:01:56.829210 26996 net.cpp:165] Memory required for data: 6508412960
I0609 14:01:56.829212 26996 layer_factory.hpp:77] Creating layer conv4_3
I0609 14:01:56.829236 26996 net.cpp:100] Creating Layer conv4_3
I0609 14:01:56.829239 26996 net.cpp:434] conv4_3 <- conv4_2
I0609 14:01:56.829243 26996 net.cpp:408] conv4_3 -> conv4_3
I0609 14:01:56.841275 26996 net.cpp:150] Setting up conv4_3
I0609 14:01:56.841294 26996 net.cpp:157] Top shape: 32 512 38 38 (23658496)
I0609 14:01:56.841297 26996 net.cpp:165] Memory required for data: 6603046944
I0609 14:01:56.841323 26996 layer_factory.hpp:77] Creating layer relu4_3
I0609 14:01:56.841343 26996 net.cpp:100] Creating Layer relu4_3
I0609 14:01:56.841346 26996 net.cpp:434] relu4_3 <- conv4_3
I0609 14:01:56.841351 26996 net.cpp:395] relu4_3 -> conv4_3 (in-place)
I0609 14:01:56.841564 26996 net.cpp:150] Setting up relu4_3
I0609 14:01:56.841572 26996 net.cpp:157] Top shape: 32 512 38 38 (23658496)
I0609 14:01:56.841572 26996 net.cpp:165] Memory required for data: 6697680928
I0609 14:01:56.841575 26996 layer_factory.hpp:77] Creating layer conv4_3_relu4_3_0_split
I0609 14:01:56.841579 26996 net.cpp:100] Creating Layer conv4_3_relu4_3_0_split
I0609 14:01:56.841596 26996 net.cpp:434] conv4_3_relu4_3_0_split <- conv4_3
I0609 14:01:56.841600 26996 net.cpp:408] conv4_3_relu4_3_0_split -> conv4_3_relu4_3_0_split_0
I0609 14:01:56.841606 26996 net.cpp:408] conv4_3_relu4_3_0_split -> conv4_3_relu4_3_0_split_1
I0609 14:01:56.841665 26996 net.cpp:150] Setting up conv4_3_relu4_3_0_split
I0609 14:01:56.841682 26996 net.cpp:157] Top shape: 32 512 38 38 (23658496)
I0609 14:01:56.841686 26996 net.cpp:157] Top shape: 32 512 38 38 (23658496)
I0609 14:01:56.841687 26996 net.cpp:165] Memory required for data: 6886948896
I0609 14:01:56.841689 26996 layer_factory.hpp:77] Creating layer pool4
I0609 14:01:56.841708 26996 net.cpp:100] Creating Layer pool4
I0609 14:01:56.841711 26996 net.cpp:434] pool4 <- conv4_3_relu4_3_0_split_0
I0609 14:01:56.841716 26996 net.cpp:408] pool4 -> pool4
I0609 14:01:56.841756 26996 net.cpp:150] Setting up pool4
I0609 14:01:56.841761 26996 net.cpp:157] Top shape: 32 512 19 19 (5914624)
I0609 14:01:56.841763 26996 net.cpp:165] Memory required for data: 6910607392
I0609 14:01:56.841766 26996 layer_factory.hpp:77] Creating layer conv5_1
I0609 14:01:56.841773 26996 net.cpp:100] Creating Layer conv5_1
I0609 14:01:56.841775 26996 net.cpp:434] conv5_1 <- pool4
I0609 14:01:56.841779 26996 net.cpp:408] conv5_1 -> conv5_1
I0609 14:01:56.854653 26996 net.cpp:150] Setting up conv5_1
I0609 14:01:56.854671 26996 net.cpp:157] Top shape: 32 512 19 19 (5914624)
I0609 14:01:56.854674 26996 net.cpp:165] Memory required for data: 6934265888
I0609 14:01:56.854681 26996 layer_factory.hpp:77] Creating layer relu5_1
I0609 14:01:56.854688 26996 net.cpp:100] Creating Layer relu5_1
I0609 14:01:56.854707 26996 net.cpp:434] relu5_1 <- conv5_1
I0609 14:01:56.854712 26996 net.cpp:395] relu5_1 -> conv5_1 (in-place)
I0609 14:01:56.854883 26996 net.cpp:150] Setting up relu5_1
I0609 14:01:56.854889 26996 net.cpp:157] Top shape: 32 512 19 19 (5914624)
I0609 14:01:56.854892 26996 net.cpp:165] Memory required for data: 6957924384
I0609 14:01:56.854893 26996 layer_factory.hpp:77] Creating layer conv5_2
I0609 14:01:56.854917 26996 net.cpp:100] Creating Layer conv5_2
I0609 14:01:56.854919 26996 net.cpp:434] conv5_2 <- conv5_1
I0609 14:01:56.854923 26996 net.cpp:408] conv5_2 -> conv5_2
I0609 14:01:56.866950 26996 net.cpp:150] Setting up conv5_2
I0609 14:01:56.866967 26996 net.cpp:157] Top shape: 32 512 19 19 (5914624)
I0609 14:01:56.866971 26996 net.cpp:165] Memory required for data: 6981582880
I0609 14:01:56.866992 26996 layer_factory.hpp:77] Creating layer relu5_2
I0609 14:01:56.866999 26996 net.cpp:100] Creating Layer relu5_2
I0609 14:01:56.867002 26996 net.cpp:434] relu5_2 <- conv5_2
I0609 14:01:56.867008 26996 net.cpp:395] relu5_2 -> conv5_2 (in-place)
I0609 14:01:56.867171 26996 net.cpp:150] Setting up relu5_2
I0609 14:01:56.867177 26996 net.cpp:157] Top shape: 32 512 19 19 (5914624)
I0609 14:01:56.867179 26996 net.cpp:165] Memory required for data: 7005241376
I0609 14:01:56.867182 26996 layer_factory.hpp:77] Creating layer conv5_3
I0609 14:01:56.867189 26996 net.cpp:100] Creating Layer conv5_3
I0609 14:01:56.867204 26996 net.cpp:434] conv5_3 <- conv5_2
I0609 14:01:56.867209 26996 net.cpp:408] conv5_3 -> conv5_3
I0609 14:01:56.879727 26996 net.cpp:150] Setting up conv5_3
I0609 14:01:56.879747 26996 net.cpp:157] Top shape: 32 512 19 19 (5914624)
I0609 14:01:56.879750 26996 net.cpp:165] Memory required for data: 7028899872
I0609 14:01:56.879771 26996 layer_factory.hpp:77] Creating layer relu5_3
I0609 14:01:56.879783 26996 net.cpp:100] Creating Layer relu5_3
I0609 14:01:56.879787 26996 net.cpp:434] relu5_3 <- conv5_3
I0609 14:01:56.879807 26996 net.cpp:395] relu5_3 -> conv5_3 (in-place)
I0609 14:01:56.879958 26996 net.cpp:150] Setting up relu5_3
I0609 14:01:56.879978 26996 net.cpp:157] Top shape: 32 512 19 19 (5914624)
I0609 14:01:56.879981 26996 net.cpp:165] Memory required for data: 7052558368
I0609 14:01:56.879983 26996 layer_factory.hpp:77] Creating layer pool5
I0609 14:01:56.880002 26996 net.cpp:100] Creating Layer pool5
I0609 14:01:56.880004 26996 net.cpp:434] pool5 <- conv5_3
I0609 14:01:56.880009 26996 net.cpp:408] pool5 -> pool5
I0609 14:01:56.880086 26996 net.cpp:150] Setting up pool5
I0609 14:01:56.880091 26996 net.cpp:157] Top shape: 32 512 19 19 (5914624)
I0609 14:01:56.880094 26996 net.cpp:165] Memory required for data: 7076216864
I0609 14:01:56.880095 26996 layer_factory.hpp:77] Creating layer fc6
I0609 14:01:56.880103 26996 net.cpp:100] Creating Layer fc6
I0609 14:01:56.880120 26996 net.cpp:434] fc6 <- pool5
I0609 14:01:56.880125 26996 net.cpp:408] fc6 -> fc6
I0609 14:01:56.902477 26996 net.cpp:150] Setting up fc6
I0609 14:01:56.902498 26996 net.cpp:157] Top shape: 32 1024 19 19 (11829248)
I0609 14:01:56.902499 26996 net.cpp:165] Memory required for data: 7123533856
I0609 14:01:56.902523 26996 layer_factory.hpp:77] Creating layer relu6
I0609 14:01:56.902529 26996 net.cpp:100] Creating Layer relu6
I0609 14:01:56.902531 26996 net.cpp:434] relu6 <- fc6
I0609 14:01:56.902554 26996 net.cpp:395] relu6 -> fc6 (in-place)
I0609 14:01:56.903260 26996 net.cpp:150] Setting up relu6
I0609 14:01:56.903268 26996 net.cpp:157] Top shape: 32 1024 19 19 (11829248)
I0609 14:01:56.903270 26996 net.cpp:165] Memory required for data: 7170850848
I0609 14:01:56.903273 26996 layer_factory.hpp:77] Creating layer fc7
I0609 14:01:56.903297 26996 net.cpp:100] Creating Layer fc7
I0609 14:01:56.903301 26996 net.cpp:434] fc7 <- fc6
I0609 14:01:56.903304 26996 net.cpp:408] fc7 -> fc7
I0609 14:01:56.909307 26996 net.cpp:150] Setting up fc7
I0609 14:01:56.909363 26996 net.cpp:157] Top shape: 32 1024 19 19 (11829248)
I0609 14:01:56.909366 26996 net.cpp:165] Memory required for data: 7218167840
I0609 14:01:56.909389 26996 layer_factory.hpp:77] Creating layer relu7
I0609 14:01:56.909415 26996 net.cpp:100] Creating Layer relu7
I0609 14:01:56.909422 26996 net.cpp:434] relu7 <- fc7
I0609 14:01:56.909430 26996 net.cpp:395] relu7 -> fc7 (in-place)
I0609 14:01:56.909603 26996 net.cpp:150] Setting up relu7
I0609 14:01:56.909610 26996 net.cpp:157] Top shape: 32 1024 19 19 (11829248)
I0609 14:01:56.909626 26996 net.cpp:165] Memory required for data: 7265484832
I0609 14:01:56.909628 26996 layer_factory.hpp:77] Creating layer fc7_relu7_0_split
I0609 14:01:56.909632 26996 net.cpp:100] Creating Layer fc7_relu7_0_split
I0609 14:01:56.909649 26996 net.cpp:434] fc7_relu7_0_split <- fc7
I0609 14:01:56.909654 26996 net.cpp:408] fc7_relu7_0_split -> fc7_relu7_0_split_0
I0609 14:01:56.909659 26996 net.cpp:408] fc7_relu7_0_split -> fc7_relu7_0_split_1
I0609 14:01:56.909667 26996 net.cpp:408] fc7_relu7_0_split -> fc7_relu7_0_split_2
I0609 14:01:56.909673 26996 net.cpp:408] fc7_relu7_0_split -> fc7_relu7_0_split_3
I0609 14:01:56.909766 26996 net.cpp:150] Setting up fc7_relu7_0_split
I0609 14:01:56.909770 26996 net.cpp:157] Top shape: 32 1024 19 19 (11829248)
I0609 14:01:56.909775 26996 net.cpp:157] Top shape: 32 1024 19 19 (11829248)
I0609 14:01:56.909776 26996 net.cpp:157] Top shape: 32 1024 19 19 (11829248)
I0609 14:01:56.909780 26996 net.cpp:157] Top shape: 32 1024 19 19 (11829248)
I0609 14:01:56.909781 26996 net.cpp:165] Memory required for data: 7454752800
I0609 14:01:56.909782 26996 layer_factory.hpp:77] Creating layer conv6_1
I0609 14:01:56.909790 26996 net.cpp:100] Creating Layer conv6_1
I0609 14:01:56.909792 26996 net.cpp:434] conv6_1 <- fc7_relu7_0_split_0
I0609 14:01:56.909798 26996 net.cpp:408] conv6_1 -> conv6_1
I0609 14:01:56.912979 26996 net.cpp:150] Setting up conv6_1
I0609 14:01:56.912992 26996 net.cpp:157] Top shape: 32 256 19 19 (2957312)
I0609 14:01:56.912994 26996 net.cpp:165] Memory required for data: 7466582048
I0609 14:01:56.912999 26996 layer_factory.hpp:77] Creating layer conv6_1_relu
I0609 14:01:56.913004 26996 net.cpp:100] Creating Layer conv6_1_relu
I0609 14:01:56.913017 26996 net.cpp:434] conv6_1_relu <- conv6_1
I0609 14:01:56.913023 26996 net.cpp:395] conv6_1_relu -> conv6_1 (in-place)
I0609 14:01:56.913163 26996 net.cpp:150] Setting up conv6_1_relu
I0609 14:01:56.913170 26996 net.cpp:157] Top shape: 32 256 19 19 (2957312)
I0609 14:01:56.913172 26996 net.cpp:165] Memory required for data: 7478411296
I0609 14:01:56.913175 26996 layer_factory.hpp:77] Creating layer conv6_2
I0609 14:01:56.913184 26996 net.cpp:100] Creating Layer conv6_2
I0609 14:01:56.913187 26996 net.cpp:434] conv6_2 <- conv6_1
I0609 14:01:56.913192 26996 net.cpp:408] conv6_2 -> conv6_2
I0609 14:01:56.920123 26996 net.cpp:150] Setting up conv6_2
I0609 14:01:56.920140 26996 net.cpp:157] Top shape: 32 512 10 10 (1638400)
I0609 14:01:56.920143 26996 net.cpp:165] Memory required for data: 7484964896
I0609 14:01:56.920169 26996 layer_factory.hpp:77] Creating layer conv6_2_relu
I0609 14:01:56.920176 26996 net.cpp:100] Creating Layer conv6_2_relu
I0609 14:01:56.920181 26996 net.cpp:434] conv6_2_relu <- conv6_2
I0609 14:01:56.920184 26996 net.cpp:395] conv6_2_relu -> conv6_2 (in-place)
I0609 14:01:56.920375 26996 net.cpp:150] Setting up conv6_2_relu
I0609 14:01:56.920382 26996 net.cpp:157] Top shape: 32 512 10 10 (1638400)
I0609 14:01:56.920384 26996 net.cpp:165] Memory required for data: 7491518496
I0609 14:01:56.920387 26996 layer_factory.hpp:77] Creating layer conv6_2_conv6_2_relu_0_split
I0609 14:01:56.920390 26996 net.cpp:100] Creating Layer conv6_2_conv6_2_relu_0_split
I0609 14:01:56.920393 26996 net.cpp:434] conv6_2_conv6_2_relu_0_split <- conv6_2
I0609 14:01:56.920397 26996 net.cpp:408] conv6_2_conv6_2_relu_0_split -> conv6_2_conv6_2_relu_0_split_0
I0609 14:01:56.920403 26996 net.cpp:408] conv6_2_conv6_2_relu_0_split -> conv6_2_conv6_2_relu_0_split_1
I0609 14:01:56.920408 26996 net.cpp:408] conv6_2_conv6_2_relu_0_split -> conv6_2_conv6_2_relu_0_split_2
I0609 14:01:56.920429 26996 net.cpp:408] conv6_2_conv6_2_relu_0_split -> conv6_2_conv6_2_relu_0_split_3
I0609 14:01:56.920511 26996 net.cpp:150] Setting up conv6_2_conv6_2_relu_0_split
I0609 14:01:56.920516 26996 net.cpp:157] Top shape: 32 512 10 10 (1638400)
I0609 14:01:56.920518 26996 net.cpp:157] Top shape: 32 512 10 10 (1638400)
I0609 14:01:56.920521 26996 net.cpp:157] Top shape: 32 512 10 10 (1638400)
I0609 14:01:56.920523 26996 net.cpp:157] Top shape: 32 512 10 10 (1638400)
I0609 14:01:56.920526 26996 net.cpp:165] Memory required for data: 7517732896
I0609 14:01:56.920527 26996 layer_factory.hpp:77] Creating layer conv7_1
I0609 14:01:56.920552 26996 net.cpp:100] Creating Layer conv7_1
I0609 14:01:56.920557 26996 net.cpp:434] conv7_1 <- conv6_2_conv6_2_relu_0_split_0
I0609 14:01:56.920574 26996 net.cpp:408] conv7_1 -> conv7_1
I0609 14:01:56.921927 26996 net.cpp:150] Setting up conv7_1
I0609 14:01:56.921936 26996 net.cpp:157] Top shape: 32 128 10 10 (409600)
I0609 14:01:56.921938 26996 net.cpp:165] Memory required for data: 7519371296
I0609 14:01:56.921943 26996 layer_factory.hpp:77] Creating layer conv7_1_relu
I0609 14:01:56.921947 26996 net.cpp:100] Creating Layer conv7_1_relu
I0609 14:01:56.921965 26996 net.cpp:434] conv7_1_relu <- conv7_1
I0609 14:01:56.921969 26996 net.cpp:395] conv7_1_relu -> conv7_1 (in-place)
I0609 14:01:56.922154 26996 net.cpp:150] Setting up conv7_1_relu
I0609 14:01:56.922160 26996 net.cpp:157] Top shape: 32 128 10 10 (409600)
I0609 14:01:56.922163 26996 net.cpp:165] Memory required for data: 7521009696
I0609 14:01:56.922165 26996 layer_factory.hpp:77] Creating layer conv7_2
I0609 14:01:56.922184 26996 net.cpp:100] Creating Layer conv7_2
I0609 14:01:56.922186 26996 net.cpp:434] conv7_2 <- conv7_1
I0609 14:01:56.922206 26996 net.cpp:408] conv7_2 -> conv7_2
I0609 14:01:56.924909 26996 net.cpp:150] Setting up conv7_2
I0609 14:01:56.924919 26996 net.cpp:157] Top shape: 32 256 5 5 (204800)
I0609 14:01:56.924921 26996 net.cpp:165] Memory required for data: 7521828896
I0609 14:01:56.924926 26996 layer_factory.hpp:77] Creating layer conv7_2_relu
I0609 14:01:56.924929 26996 net.cpp:100] Creating Layer conv7_2_relu
I0609 14:01:56.924971 26996 net.cpp:434] conv7_2_relu <- conv7_2
I0609 14:01:56.924976 26996 net.cpp:395] conv7_2_relu -> conv7_2 (in-place)
I0609 14:01:56.925142 26996 net.cpp:150] Setting up conv7_2_relu
I0609 14:01:56.925148 26996 net.cpp:157] Top shape: 32 256 5 5 (204800)
I0609 14:01:56.925150 26996 net.cpp:165] Memory required for data: 7522648096
I0609 14:01:56.925153 26996 layer_factory.hpp:77] Creating layer conv7_2_conv7_2_relu_0_split
I0609 14:01:56.925158 26996 net.cpp:100] Creating Layer conv7_2_conv7_2_relu_0_split
I0609 14:01:56.925159 26996 net.cpp:434] conv7_2_conv7_2_relu_0_split <- conv7_2
I0609 14:01:56.925179 26996 net.cpp:408] conv7_2_conv7_2_relu_0_split -> conv7_2_conv7_2_relu_0_split_0
I0609 14:01:56.925184 26996 net.cpp:408] conv7_2_conv7_2_relu_0_split -> conv7_2_conv7_2_relu_0_split_1
I0609 14:01:56.925189 26996 net.cpp:408] conv7_2_conv7_2_relu_0_split -> conv7_2_conv7_2_relu_0_split_2
I0609 14:01:56.925194 26996 net.cpp:408] conv7_2_conv7_2_relu_0_split -> conv7_2_conv7_2_relu_0_split_3
I0609 14:01:56.925297 26996 net.cpp:150] Setting up conv7_2_conv7_2_relu_0_split
I0609 14:01:56.925319 26996 net.cpp:157] Top shape: 32 256 5 5 (204800)
I0609 14:01:56.925323 26996 net.cpp:157] Top shape: 32 256 5 5 (204800)
I0609 14:01:56.925325 26996 net.cpp:157] Top shape: 32 256 5 5 (204800)
I0609 14:01:56.925341 26996 net.cpp:157] Top shape: 32 256 5 5 (204800)
I0609 14:01:56.925343 26996 net.cpp:165] Memory required for data: 7525924896
I0609 14:01:56.925346 26996 layer_factory.hpp:77] Creating layer conv8_1
I0609 14:01:56.925367 26996 net.cpp:100] Creating Layer conv8_1
I0609 14:01:56.925369 26996 net.cpp:434] conv8_1 <- conv7_2_conv7_2_relu_0_split_0
I0609 14:01:56.925389 26996 net.cpp:408] conv8_1 -> conv8_1
I0609 14:01:56.926499 26996 net.cpp:150] Setting up conv8_1
I0609 14:01:56.926507 26996 net.cpp:157] Top shape: 32 128 5 5 (102400)
I0609 14:01:56.926511 26996 net.cpp:165] Memory required for data: 7526334496
I0609 14:01:56.926514 26996 layer_factory.hpp:77] Creating layer conv8_1_relu
I0609 14:01:56.926519 26996 net.cpp:100] Creating Layer conv8_1_relu
I0609 14:01:56.926537 26996 net.cpp:434] conv8_1_relu <- conv8_1
I0609 14:01:56.926540 26996 net.cpp:395] conv8_1_relu -> conv8_1 (in-place)
I0609 14:01:56.927108 26996 net.cpp:150] Setting up conv8_1_relu
I0609 14:01:56.927116 26996 net.cpp:157] Top shape: 32 128 5 5 (102400)
I0609 14:01:56.927119 26996 net.cpp:165] Memory required for data: 7526744096
I0609 14:01:56.927120 26996 layer_factory.hpp:77] Creating layer conv8_2
I0609 14:01:56.927126 26996 net.cpp:100] Creating Layer conv8_2
I0609 14:01:56.927145 26996 net.cpp:434] conv8_2 <- conv8_1
I0609 14:01:56.927150 26996 net.cpp:408] conv8_2 -> conv8_2
I0609 14:01:56.929889 26996 net.cpp:150] Setting up conv8_2
I0609 14:01:56.929900 26996 net.cpp:157] Top shape: 32 256 3 3 (73728)
I0609 14:01:56.929903 26996 net.cpp:165] Memory required for data: 7527039008
I0609 14:01:56.929908 26996 layer_factory.hpp:77] Creating layer conv8_2_relu
I0609 14:01:56.929926 26996 net.cpp:100] Creating Layer conv8_2_relu
I0609 14:01:56.929929 26996 net.cpp:434] conv8_2_relu <- conv8_2
I0609 14:01:56.929934 26996 net.cpp:395] conv8_2_relu -> conv8_2 (in-place)
I0609 14:01:56.930095 26996 net.cpp:150] Setting up conv8_2_relu
I0609 14:01:56.930102 26996 net.cpp:157] Top shape: 32 256 3 3 (73728)
I0609 14:01:56.930104 26996 net.cpp:165] Memory required for data: 7527333920
I0609 14:01:56.930106 26996 layer_factory.hpp:77] Creating layer conv8_2_conv8_2_relu_0_split
I0609 14:01:56.930111 26996 net.cpp:100] Creating Layer conv8_2_conv8_2_relu_0_split
I0609 14:01:56.930114 26996 net.cpp:434] conv8_2_conv8_2_relu_0_split <- conv8_2
I0609 14:01:56.930132 26996 net.cpp:408] conv8_2_conv8_2_relu_0_split -> conv8_2_conv8_2_relu_0_split_0
I0609 14:01:56.930138 26996 net.cpp:408] conv8_2_conv8_2_relu_0_split -> conv8_2_conv8_2_relu_0_split_1
I0609 14:01:56.930143 26996 net.cpp:408] conv8_2_conv8_2_relu_0_split -> conv8_2_conv8_2_relu_0_split_2
I0609 14:01:56.930147 26996 net.cpp:408] conv8_2_conv8_2_relu_0_split -> conv8_2_conv8_2_relu_0_split_3
I0609 14:01:56.930261 26996 net.cpp:150] Setting up conv8_2_conv8_2_relu_0_split
I0609 14:01:56.930268 26996 net.cpp:157] Top shape: 32 256 3 3 (73728)
I0609 14:01:56.930269 26996 net.cpp:157] Top shape: 32 256 3 3 (73728)
I0609 14:01:56.930272 26996 net.cpp:157] Top shape: 32 256 3 3 (73728)
I0609 14:01:56.930274 26996 net.cpp:157] Top shape: 32 256 3 3 (73728)
I0609 14:01:56.930276 26996 net.cpp:165] Memory required for data: 7528513568
I0609 14:01:56.930279 26996 layer_factory.hpp:77] Creating layer conv9_1
I0609 14:01:56.930286 26996 net.cpp:100] Creating Layer conv9_1
I0609 14:01:56.930289 26996 net.cpp:434] conv9_1 <- conv8_2_conv8_2_relu_0_split_0
I0609 14:01:56.930294 26996 net.cpp:408] conv9_1 -> conv9_1
I0609 14:01:56.931447 26996 net.cpp:150] Setting up conv9_1
I0609 14:01:56.931457 26996 net.cpp:157] Top shape: 32 128 3 3 (36864)
I0609 14:01:56.931459 26996 net.cpp:165] Memory required for data: 7528661024
I0609 14:01:56.931464 26996 layer_factory.hpp:77] Creating layer conv9_1_relu
I0609 14:01:56.931468 26996 net.cpp:100] Creating Layer conv9_1_relu
I0609 14:01:56.931486 26996 net.cpp:434] conv9_1_relu <- conv9_1
I0609 14:01:56.931491 26996 net.cpp:395] conv9_1_relu -> conv9_1 (in-place)
I0609 14:01:56.931639 26996 net.cpp:150] Setting up conv9_1_relu
I0609 14:01:56.931645 26996 net.cpp:157] Top shape: 32 128 3 3 (36864)
I0609 14:01:56.931648 26996 net.cpp:165] Memory required for data: 7528808480
I0609 14:01:56.931650 26996 layer_factory.hpp:77] Creating layer conv9_2
I0609 14:01:56.931656 26996 net.cpp:100] Creating Layer conv9_2
I0609 14:01:56.931659 26996 net.cpp:434] conv9_2 <- conv9_1
I0609 14:01:56.931679 26996 net.cpp:408] conv9_2 -> conv9_2
I0609 14:01:56.934455 26996 net.cpp:150] Setting up conv9_2
I0609 14:01:56.934465 26996 net.cpp:157] Top shape: 32 256 1 1 (8192)
I0609 14:01:56.934468 26996 net.cpp:165] Memory required for data: 7528841248
I0609 14:01:56.934473 26996 layer_factory.hpp:77] Creating layer conv9_2_relu
I0609 14:01:56.934478 26996 net.cpp:100] Creating Layer conv9_2_relu
I0609 14:01:56.934481 26996 net.cpp:434] conv9_2_relu <- conv9_2
I0609 14:01:56.934485 26996 net.cpp:395] conv9_2_relu -> conv9_2 (in-place)
I0609 14:01:56.934648 26996 net.cpp:150] Setting up conv9_2_relu
I0609 14:01:56.934655 26996 net.cpp:157] Top shape: 32 256 1 1 (8192)
I0609 14:01:56.934659 26996 net.cpp:165] Memory required for data: 7528874016
I0609 14:01:56.934660 26996 layer_factory.hpp:77] Creating layer conv9_2_conv9_2_relu_0_split
I0609 14:01:56.934664 26996 net.cpp:100] Creating Layer conv9_2_conv9_2_relu_0_split
I0609 14:01:56.934667 26996 net.cpp:434] conv9_2_conv9_2_relu_0_split <- conv9_2
I0609 14:01:56.934689 26996 net.cpp:408] conv9_2_conv9_2_relu_0_split -> conv9_2_conv9_2_relu_0_split_0
I0609 14:01:56.934695 26996 net.cpp:408] conv9_2_conv9_2_relu_0_split -> conv9_2_conv9_2_relu_0_split_1
I0609 14:01:56.934700 26996 net.cpp:408] conv9_2_conv9_2_relu_0_split -> conv9_2_conv9_2_relu_0_split_2
I0609 14:01:56.934753 26996 net.cpp:150] Setting up conv9_2_conv9_2_relu_0_split
I0609 14:01:56.934759 26996 net.cpp:157] Top shape: 32 256 1 1 (8192)
I0609 14:01:56.934762 26996 net.cpp:157] Top shape: 32 256 1 1 (8192)
I0609 14:01:56.934764 26996 net.cpp:157] Top shape: 32 256 1 1 (8192)
I0609 14:01:56.934765 26996 net.cpp:165] Memory required for data: 7528972320
I0609 14:01:56.934768 26996 layer_factory.hpp:77] Creating layer conv4_3_norm
I0609 14:01:56.934773 26996 net.cpp:100] Creating Layer conv4_3_norm
I0609 14:01:56.934777 26996 net.cpp:434] conv4_3_norm <- conv4_3_relu4_3_0_split_1
I0609 14:01:56.934782 26996 net.cpp:408] conv4_3_norm -> conv4_3_norm
I0609 14:01:56.934914 26996 net.cpp:150] Setting up conv4_3_norm
I0609 14:01:56.934921 26996 net.cpp:157] Top shape: 32 512 38 38 (23658496)
I0609 14:01:56.934922 26996 net.cpp:165] Memory required for data: 7623606304
I0609 14:01:56.934926 26996 layer_factory.hpp:77] Creating layer conv4_3_norm_conv4_3_norm_0_split
I0609 14:01:56.934929 26996 net.cpp:100] Creating Layer conv4_3_norm_conv4_3_norm_0_split
I0609 14:01:56.934932 26996 net.cpp:434] conv4_3_norm_conv4_3_norm_0_split <- conv4_3_norm
I0609 14:01:56.934960 26996 net.cpp:408] conv4_3_norm_conv4_3_norm_0_split -> conv4_3_norm_conv4_3_norm_0_split_0
I0609 14:01:56.934967 26996 net.cpp:408] conv4_3_norm_conv4_3_norm_0_split -> conv4_3_norm_conv4_3_norm_0_split_1
I0609 14:01:56.934973 26996 net.cpp:408] conv4_3_norm_conv4_3_norm_0_split -> conv4_3_norm_conv4_3_norm_0_split_2
I0609 14:01:56.935024 26996 net.cpp:150] Setting up conv4_3_norm_conv4_3_norm_0_split
I0609 14:01:56.935029 26996 net.cpp:157] Top shape: 32 512 38 38 (23658496)
I0609 14:01:56.935032 26996 net.cpp:157] Top shape: 32 512 38 38 (23658496)
I0609 14:01:56.935036 26996 net.cpp:157] Top shape: 32 512 38 38 (23658496)
I0609 14:01:56.935039 26996 net.cpp:165] Memory required for data: 7907508256
I0609 14:01:56.935040 26996 layer_factory.hpp:77] Creating layer conv4_3_norm_mbox_loc
I0609 14:01:56.935047 26996 net.cpp:100] Creating Layer conv4_3_norm_mbox_loc
I0609 14:01:56.935050 26996 net.cpp:434] conv4_3_norm_mbox_loc <- conv4_3_norm_conv4_3_norm_0_split_0
I0609 14:01:56.935055 26996 net.cpp:408] conv4_3_norm_mbox_loc -> conv4_3_norm_mbox_loc
I0609 14:01:56.936780 26996 net.cpp:150] Setting up conv4_3_norm_mbox_loc
I0609 14:01:56.936789 26996 net.cpp:157] Top shape: 32 16 38 38 (739328)
I0609 14:01:56.936792 26996 net.cpp:165] Memory required for data: 7910465568
I0609 14:01:56.936797 26996 layer_factory.hpp:77] Creating layer conv4_3_norm_mbox_loc_perm
I0609 14:01:56.936805 26996 net.cpp:100] Creating Layer conv4_3_norm_mbox_loc_perm
I0609 14:01:56.936808 26996 net.cpp:434] conv4_3_norm_mbox_loc_perm <- conv4_3_norm_mbox_loc
I0609 14:01:56.936813 26996 net.cpp:408] conv4_3_norm_mbox_loc_perm -> conv4_3_norm_mbox_loc_perm
I0609 14:01:56.936909 26996 net.cpp:150] Setting up conv4_3_norm_mbox_loc_perm
I0609 14:01:56.936928 26996 net.cpp:157] Top shape: 32 38 38 16 (739328)
I0609 14:01:56.936930 26996 net.cpp:165] Memory required for data: 7913422880
I0609 14:01:56.936933 26996 layer_factory.hpp:77] Creating layer conv4_3_norm_mbox_loc_flat
I0609 14:01:56.936954 26996 net.cpp:100] Creating Layer conv4_3_norm_mbox_loc_flat
I0609 14:01:56.936956 26996 net.cpp:434] conv4_3_norm_mbox_loc_flat <- conv4_3_norm_mbox_loc_perm
I0609 14:01:56.936959 26996 net.cpp:408] conv4_3_norm_mbox_loc_flat -> conv4_3_norm_mbox_loc_flat
I0609 14:01:56.937002 26996 net.cpp:150] Setting up conv4_3_norm_mbox_loc_flat
I0609 14:01:56.937008 26996 net.cpp:157] Top shape: 32 23104 (739328)
I0609 14:01:56.937011 26996 net.cpp:165] Memory required for data: 7916380192
I0609 14:01:56.937012 26996 layer_factory.hpp:77] Creating layer conv4_3_norm_mbox_conf
I0609 14:01:56.937024 26996 net.cpp:100] Creating Layer conv4_3_norm_mbox_conf
I0609 14:01:56.937028 26996 net.cpp:434] conv4_3_norm_mbox_conf <- conv4_3_norm_conv4_3_norm_0_split_1
I0609 14:01:56.937032 26996 net.cpp:408] conv4_3_norm_mbox_conf -> conv4_3_norm_mbox_conf
I0609 14:01:56.938652 26996 net.cpp:150] Setting up conv4_3_norm_mbox_conf
I0609 14:01:56.938661 26996 net.cpp:157] Top shape: 32 8 38 38 (369664)
I0609 14:01:56.938664 26996 net.cpp:165] Memory required for data: 7917858848
I0609 14:01:56.938669 26996 layer_factory.hpp:77] Creating layer conv4_3_norm_mbox_conf_perm
I0609 14:01:56.938689 26996 net.cpp:100] Creating Layer conv4_3_norm_mbox_conf_perm
I0609 14:01:56.938694 26996 net.cpp:434] conv4_3_norm_mbox_conf_perm <- conv4_3_norm_mbox_conf
I0609 14:01:56.938699 26996 net.cpp:408] conv4_3_norm_mbox_conf_perm -> conv4_3_norm_mbox_conf_perm
I0609 14:01:56.938794 26996 net.cpp:150] Setting up conv4_3_norm_mbox_conf_perm
I0609 14:01:56.938799 26996 net.cpp:157] Top shape: 32 38 38 8 (369664)
I0609 14:01:56.938802 26996 net.cpp:165] Memory required for data: 7919337504
I0609 14:01:56.938804 26996 layer_factory.hpp:77] Creating layer conv4_3_norm_mbox_conf_flat
I0609 14:01:56.938807 26996 net.cpp:100] Creating Layer conv4_3_norm_mbox_conf_flat
I0609 14:01:56.938809 26996 net.cpp:434] conv4_3_norm_mbox_conf_flat <- conv4_3_norm_mbox_conf_perm
I0609 14:01:56.938815 26996 net.cpp:408] conv4_3_norm_mbox_conf_flat -> conv4_3_norm_mbox_conf_flat
I0609 14:01:56.938841 26996 net.cpp:150] Setting up conv4_3_norm_mbox_conf_flat
I0609 14:01:56.938846 26996 net.cpp:157] Top shape: 32 11552 (369664)
I0609 14:01:56.938848 26996 net.cpp:165] Memory required for data: 7920816160
I0609 14:01:56.938850 26996 layer_factory.hpp:77] Creating layer conv4_3_norm_mbox_priorbox
I0609 14:01:56.938858 26996 net.cpp:100] Creating Layer conv4_3_norm_mbox_priorbox
I0609 14:01:56.938860 26996 net.cpp:434] conv4_3_norm_mbox_priorbox <- conv4_3_norm_conv4_3_norm_0_split_2
I0609 14:01:56.938863 26996 net.cpp:434] conv4_3_norm_mbox_priorbox <- data_data_0_split_1
I0609 14:01:56.938869 26996 net.cpp:408] conv4_3_norm_mbox_priorbox -> conv4_3_norm_mbox_priorbox
I0609 14:01:56.938890 26996 net.cpp:150] Setting up conv4_3_norm_mbox_priorbox
I0609 14:01:56.938896 26996 net.cpp:157] Top shape: 1 2 23104 (46208)
I0609 14:01:56.938899 26996 net.cpp:165] Memory required for data: 7921000992
I0609 14:01:56.938901 26996 layer_factory.hpp:77] Creating layer fc7_mbox_loc
I0609 14:01:56.938907 26996 net.cpp:100] Creating Layer fc7_mbox_loc
I0609 14:01:56.938911 26996 net.cpp:434] fc7_mbox_loc <- fc7_relu7_0_split_1
I0609 14:01:56.938916 26996 net.cpp:408] fc7_mbox_loc -> fc7_mbox_loc
I0609 14:01:56.941234 26996 net.cpp:150] Setting up fc7_mbox_loc
I0609 14:01:56.941246 26996 net.cpp:157] Top shape: 32 24 19 19 (277248)
I0609 14:01:56.941247 26996 net.cpp:165] Memory required for data: 7922109984
I0609 14:01:56.941252 26996 layer_factory.hpp:77] Creating layer fc7_mbox_loc_perm
I0609 14:01:56.941258 26996 net.cpp:100] Creating Layer fc7_mbox_loc_perm
I0609 14:01:56.941262 26996 net.cpp:434] fc7_mbox_loc_perm <- fc7_mbox_loc
I0609 14:01:56.941267 26996 net.cpp:408] fc7_mbox_loc_perm -> fc7_mbox_loc_perm
I0609 14:01:56.941352 26996 net.cpp:150] Setting up fc7_mbox_loc_perm
I0609 14:01:56.941359 26996 net.cpp:157] Top shape: 32 19 19 24 (277248)
I0609 14:01:56.941361 26996 net.cpp:165] Memory required for data: 7923218976
I0609 14:01:56.941364 26996 layer_factory.hpp:77] Creating layer fc7_mbox_loc_flat
I0609 14:01:56.941367 26996 net.cpp:100] Creating Layer fc7_mbox_loc_flat
I0609 14:01:56.941370 26996 net.cpp:434] fc7_mbox_loc_flat <- fc7_mbox_loc_perm
I0609 14:01:56.941375 26996 net.cpp:408] fc7_mbox_loc_flat -> fc7_mbox_loc_flat
I0609 14:01:56.941392 26996 net.cpp:150] Setting up fc7_mbox_loc_flat
I0609 14:01:56.941397 26996 net.cpp:157] Top shape: 32 8664 (277248)
I0609 14:01:56.941401 26996 net.cpp:165] Memory required for data: 7924327968
I0609 14:01:56.941402 26996 layer_factory.hpp:77] Creating layer fc7_mbox_conf
I0609 14:01:56.941409 26996 net.cpp:100] Creating Layer fc7_mbox_conf
I0609 14:01:56.941413 26996 net.cpp:434] fc7_mbox_conf <- fc7_relu7_0_split_2
I0609 14:01:56.941417 26996 net.cpp:408] fc7_mbox_conf -> fc7_mbox_conf
I0609 14:01:56.943303 26996 net.cpp:150] Setting up fc7_mbox_conf
I0609 14:01:56.943313 26996 net.cpp:157] Top shape: 32 12 19 19 (138624)
I0609 14:01:56.943316 26996 net.cpp:165] Memory required for data: 7924882464
I0609 14:01:56.943321 26996 layer_factory.hpp:77] Creating layer fc7_mbox_conf_perm
I0609 14:01:56.943326 26996 net.cpp:100] Creating Layer fc7_mbox_conf_perm
I0609 14:01:56.943330 26996 net.cpp:434] fc7_mbox_conf_perm <- fc7_mbox_conf
I0609 14:01:56.943333 26996 net.cpp:408] fc7_mbox_conf_perm -> fc7_mbox_conf_perm
I0609 14:01:56.943419 26996 net.cpp:150] Setting up fc7_mbox_conf_perm
I0609 14:01:56.943424 26996 net.cpp:157] Top shape: 32 19 19 12 (138624)
I0609 14:01:56.943428 26996 net.cpp:165] Memory required for data: 7925436960
I0609 14:01:56.943429 26996 layer_factory.hpp:77] Creating layer fc7_mbox_conf_flat
I0609 14:01:56.943434 26996 net.cpp:100] Creating Layer fc7_mbox_conf_flat
I0609 14:01:56.943437 26996 net.cpp:434] fc7_mbox_conf_flat <- fc7_mbox_conf_perm
I0609 14:01:56.943442 26996 net.cpp:408] fc7_mbox_conf_flat -> fc7_mbox_conf_flat
I0609 14:01:56.943460 26996 net.cpp:150] Setting up fc7_mbox_conf_flat
I0609 14:01:56.943465 26996 net.cpp:157] Top shape: 32 4332 (138624)
I0609 14:01:56.943467 26996 net.cpp:165] Memory required for data: 7925991456
I0609 14:01:56.943478 26996 layer_factory.hpp:77] Creating layer fc7_mbox_priorbox
I0609 14:01:56.943483 26996 net.cpp:100] Creating Layer fc7_mbox_priorbox
I0609 14:01:56.943487 26996 net.cpp:434] fc7_mbox_priorbox <- fc7_relu7_0_split_3
I0609 14:01:56.943490 26996 net.cpp:434] fc7_mbox_priorbox <- data_data_0_split_2
I0609 14:01:56.943496 26996 net.cpp:408] fc7_mbox_priorbox -> fc7_mbox_priorbox
I0609 14:01:56.943529 26996 net.cpp:150] Setting up fc7_mbox_priorbox
I0609 14:01:56.943536 26996 net.cpp:157] Top shape: 1 2 8664 (17328)
I0609 14:01:56.943537 26996 net.cpp:165] Memory required for data: 7926060768
I0609 14:01:56.943539 26996 layer_factory.hpp:77] Creating layer conv6_2_mbox_loc
I0609 14:01:56.943547 26996 net.cpp:100] Creating Layer conv6_2_mbox_loc
I0609 14:01:56.943550 26996 net.cpp:434] conv6_2_mbox_loc <- conv6_2_conv6_2_relu_0_split_1
I0609 14:01:56.943569 26996 net.cpp:408] conv6_2_mbox_loc -> conv6_2_mbox_loc
I0609 14:01:56.945451 26996 net.cpp:150] Setting up conv6_2_mbox_loc
I0609 14:01:56.945461 26996 net.cpp:157] Top shape: 32 24 10 10 (76800)
I0609 14:01:56.945466 26996 net.cpp:165] Memory required for data: 7926367968
I0609 14:01:56.945469 26996 layer_factory.hpp:77] Creating layer conv6_2_mbox_loc_perm
I0609 14:01:56.945474 26996 net.cpp:100] Creating Layer conv6_2_mbox_loc_perm
I0609 14:01:56.945477 26996 net.cpp:434] conv6_2_mbox_loc_perm <- conv6_2_mbox_loc
I0609 14:01:56.945484 26996 net.cpp:408] conv6_2_mbox_loc_perm -> conv6_2_mbox_loc_perm
I0609 14:01:56.945569 26996 net.cpp:150] Setting up conv6_2_mbox_loc_perm
I0609 14:01:56.945574 26996 net.cpp:157] Top shape: 32 10 10 24 (76800)
I0609 14:01:56.945577 26996 net.cpp:165] Memory required for data: 7926675168
I0609 14:01:56.945580 26996 layer_factory.hpp:77] Creating layer conv6_2_mbox_loc_flat
I0609 14:01:56.945583 26996 net.cpp:100] Creating Layer conv6_2_mbox_loc_flat
I0609 14:01:56.945586 26996 net.cpp:434] conv6_2_mbox_loc_flat <- conv6_2_mbox_loc_perm
I0609 14:01:56.945591 26996 net.cpp:408] conv6_2_mbox_loc_flat -> conv6_2_mbox_loc_flat
I0609 14:01:56.945610 26996 net.cpp:150] Setting up conv6_2_mbox_loc_flat
I0609 14:01:56.945613 26996 net.cpp:157] Top shape: 32 2400 (76800)
I0609 14:01:56.945616 26996 net.cpp:165] Memory required for data: 7926982368
I0609 14:01:56.945617 26996 layer_factory.hpp:77] Creating layer conv6_2_mbox_conf
I0609 14:01:56.945626 26996 net.cpp:100] Creating Layer conv6_2_mbox_conf
I0609 14:01:56.945629 26996 net.cpp:434] conv6_2_mbox_conf <- conv6_2_conv6_2_relu_0_split_2
I0609 14:01:56.945633 26996 net.cpp:408] conv6_2_mbox_conf -> conv6_2_mbox_conf
I0609 14:01:56.947343 26996 net.cpp:150] Setting up conv6_2_mbox_conf
I0609 14:01:56.947356 26996 net.cpp:157] Top shape: 32 12 10 10 (38400)
I0609 14:01:56.947360 26996 net.cpp:165] Memory required for data: 7927135968
I0609 14:01:56.947365 26996 layer_factory.hpp:77] Creating layer conv6_2_mbox_conf_perm
I0609 14:01:56.947369 26996 net.cpp:100] Creating Layer conv6_2_mbox_conf_perm
I0609 14:01:56.947374 26996 net.cpp:434] conv6_2_mbox_conf_perm <- conv6_2_mbox_conf
I0609 14:01:56.947379 26996 net.cpp:408] conv6_2_mbox_conf_perm -> conv6_2_mbox_conf_perm
I0609 14:01:56.947468 26996 net.cpp:150] Setting up conv6_2_mbox_conf_perm
I0609 14:01:56.947474 26996 net.cpp:157] Top shape: 32 10 10 12 (38400)
I0609 14:01:56.947475 26996 net.cpp:165] Memory required for data: 7927289568
I0609 14:01:56.947477 26996 layer_factory.hpp:77] Creating layer conv6_2_mbox_conf_flat
I0609 14:01:56.947482 26996 net.cpp:100] Creating Layer conv6_2_mbox_conf_flat
I0609 14:01:56.947485 26996 net.cpp:434] conv6_2_mbox_conf_flat <- conv6_2_mbox_conf_perm
I0609 14:01:56.947491 26996 net.cpp:408] conv6_2_mbox_conf_flat -> conv6_2_mbox_conf_flat
I0609 14:01:56.947510 26996 net.cpp:150] Setting up conv6_2_mbox_conf_flat
I0609 14:01:56.947515 26996 net.cpp:157] Top shape: 32 1200 (38400)
I0609 14:01:56.947515 26996 net.cpp:165] Memory required for data: 7927443168
I0609 14:01:56.947518 26996 layer_factory.hpp:77] Creating layer conv6_2_mbox_priorbox
I0609 14:01:56.947535 26996 net.cpp:100] Creating Layer conv6_2_mbox_priorbox
I0609 14:01:56.947538 26996 net.cpp:434] conv6_2_mbox_priorbox <- conv6_2_conv6_2_relu_0_split_3
I0609 14:01:56.947541 26996 net.cpp:434] conv6_2_mbox_priorbox <- data_data_0_split_3
I0609 14:01:56.947548 26996 net.cpp:408] conv6_2_mbox_priorbox -> conv6_2_mbox_priorbox
I0609 14:01:56.947571 26996 net.cpp:150] Setting up conv6_2_mbox_priorbox
I0609 14:01:56.947576 26996 net.cpp:157] Top shape: 1 2 2400 (4800)
I0609 14:01:56.947577 26996 net.cpp:165] Memory required for data: 7927462368
I0609 14:01:56.947579 26996 layer_factory.hpp:77] Creating layer conv7_2_mbox_loc
I0609 14:01:56.947588 26996 net.cpp:100] Creating Layer conv7_2_mbox_loc
I0609 14:01:56.947592 26996 net.cpp:434] conv7_2_mbox_loc <- conv7_2_conv7_2_relu_0_split_1
I0609 14:01:56.947597 26996 net.cpp:408] conv7_2_mbox_loc -> conv7_2_mbox_loc
I0609 14:01:56.949225 26996 net.cpp:150] Setting up conv7_2_mbox_loc
I0609 14:01:56.949234 26996 net.cpp:157] Top shape: 32 24 5 5 (19200)
I0609 14:01:56.949236 26996 net.cpp:165] Memory required for data: 7927539168
I0609 14:01:56.949241 26996 layer_factory.hpp:77] Creating layer conv7_2_mbox_loc_perm
I0609 14:01:56.949247 26996 net.cpp:100] Creating Layer conv7_2_mbox_loc_perm
I0609 14:01:56.949266 26996 net.cpp:434] conv7_2_mbox_loc_perm <- conv7_2_mbox_loc
I0609 14:01:56.949270 26996 net.cpp:408] conv7_2_mbox_loc_perm -> conv7_2_mbox_loc_perm
I0609 14:01:56.949388 26996 net.cpp:150] Setting up conv7_2_mbox_loc_perm
I0609 14:01:56.949395 26996 net.cpp:157] Top shape: 32 5 5 24 (19200)
I0609 14:01:56.949398 26996 net.cpp:165] Memory required for data: 7927615968
I0609 14:01:56.949399 26996 layer_factory.hpp:77] Creating layer conv7_2_mbox_loc_flat
I0609 14:01:56.949403 26996 net.cpp:100] Creating Layer conv7_2_mbox_loc_flat
I0609 14:01:56.949405 26996 net.cpp:434] conv7_2_mbox_loc_flat <- conv7_2_mbox_loc_perm
I0609 14:01:56.949410 26996 net.cpp:408] conv7_2_mbox_loc_flat -> conv7_2_mbox_loc_flat
I0609 14:01:56.949429 26996 net.cpp:150] Setting up conv7_2_mbox_loc_flat
I0609 14:01:56.949434 26996 net.cpp:157] Top shape: 32 600 (19200)
I0609 14:01:56.949435 26996 net.cpp:165] Memory required for data: 7927692768
I0609 14:01:56.949437 26996 layer_factory.hpp:77] Creating layer conv7_2_mbox_conf
I0609 14:01:56.949445 26996 net.cpp:100] Creating Layer conv7_2_mbox_conf
I0609 14:01:56.949448 26996 net.cpp:434] conv7_2_mbox_conf <- conv7_2_conv7_2_relu_0_split_2
I0609 14:01:56.949455 26996 net.cpp:408] conv7_2_mbox_conf -> conv7_2_mbox_conf
I0609 14:01:56.951123 26996 net.cpp:150] Setting up conv7_2_mbox_conf
I0609 14:01:56.951134 26996 net.cpp:157] Top shape: 32 12 5 5 (9600)
I0609 14:01:56.951136 26996 net.cpp:165] Memory required for data: 7927731168
I0609 14:01:56.951143 26996 layer_factory.hpp:77] Creating layer conv7_2_mbox_conf_perm
I0609 14:01:56.951150 26996 net.cpp:100] Creating Layer conv7_2_mbox_conf_perm
I0609 14:01:56.951154 26996 net.cpp:434] conv7_2_mbox_conf_perm <- conv7_2_mbox_conf
I0609 14:01:56.951159 26996 net.cpp:408] conv7_2_mbox_conf_perm -> conv7_2_mbox_conf_perm
I0609 14:01:56.951273 26996 net.cpp:150] Setting up conv7_2_mbox_conf_perm
I0609 14:01:56.951279 26996 net.cpp:157] Top shape: 32 5 5 12 (9600)
I0609 14:01:56.951282 26996 net.cpp:165] Memory required for data: 7927769568
I0609 14:01:56.951283 26996 layer_factory.hpp:77] Creating layer conv7_2_mbox_conf_flat
I0609 14:01:56.951287 26996 net.cpp:100] Creating Layer conv7_2_mbox_conf_flat
I0609 14:01:56.951289 26996 net.cpp:434] conv7_2_mbox_conf_flat <- conv7_2_mbox_conf_perm
I0609 14:01:56.951309 26996 net.cpp:408] conv7_2_mbox_conf_flat -> conv7_2_mbox_conf_flat
I0609 14:01:56.951328 26996 net.cpp:150] Setting up conv7_2_mbox_conf_flat
I0609 14:01:56.951333 26996 net.cpp:157] Top shape: 32 300 (9600)
I0609 14:01:56.951335 26996 net.cpp:165] Memory required for data: 7927807968
I0609 14:01:56.951337 26996 layer_factory.hpp:77] Creating layer conv7_2_mbox_priorbox
I0609 14:01:56.951342 26996 net.cpp:100] Creating Layer conv7_2_mbox_priorbox
I0609 14:01:56.951345 26996 net.cpp:434] conv7_2_mbox_priorbox <- conv7_2_conv7_2_relu_0_split_3
I0609 14:01:56.951359 26996 net.cpp:434] conv7_2_mbox_priorbox <- data_data_0_split_4
I0609 14:01:56.951364 26996 net.cpp:408] conv7_2_mbox_priorbox -> conv7_2_mbox_priorbox
I0609 14:01:56.951387 26996 net.cpp:150] Setting up conv7_2_mbox_priorbox
I0609 14:01:56.951392 26996 net.cpp:157] Top shape: 1 2 600 (1200)
I0609 14:01:56.951395 26996 net.cpp:165] Memory required for data: 7927812768
I0609 14:01:56.951396 26996 layer_factory.hpp:77] Creating layer conv8_2_mbox_loc
I0609 14:01:56.951403 26996 net.cpp:100] Creating Layer conv8_2_mbox_loc
I0609 14:01:56.951406 26996 net.cpp:434] conv8_2_mbox_loc <- conv8_2_conv8_2_relu_0_split_1
I0609 14:01:56.951411 26996 net.cpp:408] conv8_2_mbox_loc -> conv8_2_mbox_loc
I0609 14:01:56.953029 26996 net.cpp:150] Setting up conv8_2_mbox_loc
I0609 14:01:56.953038 26996 net.cpp:157] Top shape: 32 16 3 3 (4608)
I0609 14:01:56.953042 26996 net.cpp:165] Memory required for data: 7927831200
I0609 14:01:56.953054 26996 layer_factory.hpp:77] Creating layer conv8_2_mbox_loc_perm
I0609 14:01:56.953060 26996 net.cpp:100] Creating Layer conv8_2_mbox_loc_perm
I0609 14:01:56.953064 26996 net.cpp:434] conv8_2_mbox_loc_perm <- conv8_2_mbox_loc
I0609 14:01:56.953069 26996 net.cpp:408] conv8_2_mbox_loc_perm -> conv8_2_mbox_loc_perm
I0609 14:01:56.953155 26996 net.cpp:150] Setting up conv8_2_mbox_loc_perm
I0609 14:01:56.953161 26996 net.cpp:157] Top shape: 32 3 3 16 (4608)
I0609 14:01:56.953163 26996 net.cpp:165] Memory required for data: 7927849632
I0609 14:01:56.953166 26996 layer_factory.hpp:77] Creating layer conv8_2_mbox_loc_flat
I0609 14:01:56.953169 26996 net.cpp:100] Creating Layer conv8_2_mbox_loc_flat
I0609 14:01:56.953173 26996 net.cpp:434] conv8_2_mbox_loc_flat <- conv8_2_mbox_loc_perm
I0609 14:01:56.953177 26996 net.cpp:408] conv8_2_mbox_loc_flat -> conv8_2_mbox_loc_flat
I0609 14:01:56.953197 26996 net.cpp:150] Setting up conv8_2_mbox_loc_flat
I0609 14:01:56.953202 26996 net.cpp:157] Top shape: 32 144 (4608)
I0609 14:01:56.953203 26996 net.cpp:165] Memory required for data: 7927868064
I0609 14:01:56.953205 26996 layer_factory.hpp:77] Creating layer conv8_2_mbox_conf
I0609 14:01:56.953212 26996 net.cpp:100] Creating Layer conv8_2_mbox_conf
I0609 14:01:56.953217 26996 net.cpp:434] conv8_2_mbox_conf <- conv8_2_conv8_2_relu_0_split_2
I0609 14:01:56.953222 26996 net.cpp:408] conv8_2_mbox_conf -> conv8_2_mbox_conf
I0609 14:01:56.954735 26996 net.cpp:150] Setting up conv8_2_mbox_conf
I0609 14:01:56.954744 26996 net.cpp:157] Top shape: 32 8 3 3 (2304)
I0609 14:01:56.954746 26996 net.cpp:165] Memory required for data: 7927877280
I0609 14:01:56.954751 26996 layer_factory.hpp:77] Creating layer conv8_2_mbox_conf_perm
I0609 14:01:56.954756 26996 net.cpp:100] Creating Layer conv8_2_mbox_conf_perm
I0609 14:01:56.954761 26996 net.cpp:434] conv8_2_mbox_conf_perm <- conv8_2_mbox_conf
I0609 14:01:56.954766 26996 net.cpp:408] conv8_2_mbox_conf_perm -> conv8_2_mbox_conf_perm
I0609 14:01:56.954848 26996 net.cpp:150] Setting up conv8_2_mbox_conf_perm
I0609 14:01:56.954852 26996 net.cpp:157] Top shape: 32 3 3 8 (2304)
I0609 14:01:56.954855 26996 net.cpp:165] Memory required for data: 7927886496
I0609 14:01:56.954857 26996 layer_factory.hpp:77] Creating layer conv8_2_mbox_conf_flat
I0609 14:01:56.954861 26996 net.cpp:100] Creating Layer conv8_2_mbox_conf_flat
I0609 14:01:56.954865 26996 net.cpp:434] conv8_2_mbox_conf_flat <- conv8_2_mbox_conf_perm
I0609 14:01:56.954870 26996 net.cpp:408] conv8_2_mbox_conf_flat -> conv8_2_mbox_conf_flat
I0609 14:01:56.954890 26996 net.cpp:150] Setting up conv8_2_mbox_conf_flat
I0609 14:01:56.954893 26996 net.cpp:157] Top shape: 32 72 (2304)
I0609 14:01:56.954895 26996 net.cpp:165] Memory required for data: 7927895712
I0609 14:01:56.954897 26996 layer_factory.hpp:77] Creating layer conv8_2_mbox_priorbox
I0609 14:01:56.954902 26996 net.cpp:100] Creating Layer conv8_2_mbox_priorbox
I0609 14:01:56.954906 26996 net.cpp:434] conv8_2_mbox_priorbox <- conv8_2_conv8_2_relu_0_split_3
I0609 14:01:56.954910 26996 net.cpp:434] conv8_2_mbox_priorbox <- data_data_0_split_5
I0609 14:01:56.954921 26996 net.cpp:408] conv8_2_mbox_priorbox -> conv8_2_mbox_priorbox
I0609 14:01:56.954943 26996 net.cpp:150] Setting up conv8_2_mbox_priorbox
I0609 14:01:56.954948 26996 net.cpp:157] Top shape: 1 2 144 (288)
I0609 14:01:56.954951 26996 net.cpp:165] Memory required for data: 7927896864
I0609 14:01:56.954952 26996 layer_factory.hpp:77] Creating layer conv9_2_mbox_loc
I0609 14:01:56.954959 26996 net.cpp:100] Creating Layer conv9_2_mbox_loc
I0609 14:01:56.954962 26996 net.cpp:434] conv9_2_mbox_loc <- conv9_2_conv9_2_relu_0_split_0
I0609 14:01:56.954967 26996 net.cpp:408] conv9_2_mbox_loc -> conv9_2_mbox_loc
I0609 14:01:56.956562 26996 net.cpp:150] Setting up conv9_2_mbox_loc
I0609 14:01:56.956571 26996 net.cpp:157] Top shape: 32 16 1 1 (512)
I0609 14:01:56.956573 26996 net.cpp:165] Memory required for data: 7927898912
I0609 14:01:56.956578 26996 layer_factory.hpp:77] Creating layer conv9_2_mbox_loc_perm
I0609 14:01:56.956584 26996 net.cpp:100] Creating Layer conv9_2_mbox_loc_perm
I0609 14:01:56.956588 26996 net.cpp:434] conv9_2_mbox_loc_perm <- conv9_2_mbox_loc
I0609 14:01:56.956593 26996 net.cpp:408] conv9_2_mbox_loc_perm -> conv9_2_mbox_loc_perm
I0609 14:01:56.956677 26996 net.cpp:150] Setting up conv9_2_mbox_loc_perm
I0609 14:01:56.956683 26996 net.cpp:157] Top shape: 32 1 1 16 (512)
I0609 14:01:56.956686 26996 net.cpp:165] Memory required for data: 7927900960
I0609 14:01:56.956687 26996 layer_factory.hpp:77] Creating layer conv9_2_mbox_loc_flat
I0609 14:01:56.956691 26996 net.cpp:100] Creating Layer conv9_2_mbox_loc_flat
I0609 14:01:56.956696 26996 net.cpp:434] conv9_2_mbox_loc_flat <- conv9_2_mbox_loc_perm
I0609 14:01:56.956698 26996 net.cpp:408] conv9_2_mbox_loc_flat -> conv9_2_mbox_loc_flat
I0609 14:01:56.956717 26996 net.cpp:150] Setting up conv9_2_mbox_loc_flat
I0609 14:01:56.956722 26996 net.cpp:157] Top shape: 32 16 (512)
I0609 14:01:56.956723 26996 net.cpp:165] Memory required for data: 7927903008
I0609 14:01:56.956725 26996 layer_factory.hpp:77] Creating layer conv9_2_mbox_conf
I0609 14:01:56.956732 26996 net.cpp:100] Creating Layer conv9_2_mbox_conf
I0609 14:01:56.956735 26996 net.cpp:434] conv9_2_mbox_conf <- conv9_2_conv9_2_relu_0_split_1
I0609 14:01:56.956742 26996 net.cpp:408] conv9_2_mbox_conf -> conv9_2_mbox_conf
I0609 14:01:56.958689 26996 net.cpp:150] Setting up conv9_2_mbox_conf
I0609 14:01:56.958699 26996 net.cpp:157] Top shape: 32 8 1 1 (256)
I0609 14:01:56.958701 26996 net.cpp:165] Memory required for data: 7927904032
I0609 14:01:56.958708 26996 layer_factory.hpp:77] Creating layer conv9_2_mbox_conf_perm
I0609 14:01:56.958711 26996 net.cpp:100] Creating Layer conv9_2_mbox_conf_perm
I0609 14:01:56.958715 26996 net.cpp:434] conv9_2_mbox_conf_perm <- conv9_2_mbox_conf
I0609 14:01:56.958720 26996 net.cpp:408] conv9_2_mbox_conf_perm -> conv9_2_mbox_conf_perm
I0609 14:01:56.958806 26996 net.cpp:150] Setting up conv9_2_mbox_conf_perm
I0609 14:01:56.958811 26996 net.cpp:157] Top shape: 32 1 1 8 (256)
I0609 14:01:56.958812 26996 net.cpp:165] Memory required for data: 7927905056
I0609 14:01:56.958814 26996 layer_factory.hpp:77] Creating layer conv9_2_mbox_conf_flat
I0609 14:01:56.958818 26996 net.cpp:100] Creating Layer conv9_2_mbox_conf_flat
I0609 14:01:56.958822 26996 net.cpp:434] conv9_2_mbox_conf_flat <- conv9_2_mbox_conf_perm
I0609 14:01:56.958827 26996 net.cpp:408] conv9_2_mbox_conf_flat -> conv9_2_mbox_conf_flat
I0609 14:01:56.958844 26996 net.cpp:150] Setting up conv9_2_mbox_conf_flat
I0609 14:01:56.958848 26996 net.cpp:157] Top shape: 32 8 (256)
I0609 14:01:56.958850 26996 net.cpp:165] Memory required for data: 7927906080
I0609 14:01:56.958853 26996 layer_factory.hpp:77] Creating layer conv9_2_mbox_priorbox
I0609 14:01:56.958858 26996 net.cpp:100] Creating Layer conv9_2_mbox_priorbox
I0609 14:01:56.958861 26996 net.cpp:434] conv9_2_mbox_priorbox <- conv9_2_conv9_2_relu_0_split_2
I0609 14:01:56.958864 26996 net.cpp:434] conv9_2_mbox_priorbox <- data_data_0_split_6
I0609 14:01:56.958870 26996 net.cpp:408] conv9_2_mbox_priorbox -> conv9_2_mbox_priorbox
I0609 14:01:56.958899 26996 net.cpp:150] Setting up conv9_2_mbox_priorbox
I0609 14:01:56.958904 26996 net.cpp:157] Top shape: 1 2 16 (32)
I0609 14:01:56.958905 26996 net.cpp:165] Memory required for data: 7927906208
I0609 14:01:56.958907 26996 layer_factory.hpp:77] Creating layer mbox_loc
I0609 14:01:56.958912 26996 net.cpp:100] Creating Layer mbox_loc
I0609 14:01:56.958916 26996 net.cpp:434] mbox_loc <- conv4_3_norm_mbox_loc_flat
I0609 14:01:56.958920 26996 net.cpp:434] mbox_loc <- fc7_mbox_loc_flat
I0609 14:01:56.958925 26996 net.cpp:434] mbox_loc <- conv6_2_mbox_loc_flat
I0609 14:01:56.958927 26996 net.cpp:434] mbox_loc <- conv7_2_mbox_loc_flat
I0609 14:01:56.958932 26996 net.cpp:434] mbox_loc <- conv8_2_mbox_loc_flat
I0609 14:01:56.958935 26996 net.cpp:434] mbox_loc <- conv9_2_mbox_loc_flat
I0609 14:01:56.958940 26996 net.cpp:408] mbox_loc -> mbox_loc
I0609 14:01:56.958976 26996 net.cpp:150] Setting up mbox_loc
I0609 14:01:56.958981 26996 net.cpp:157] Top shape: 32 34928 (1117696)
I0609 14:01:56.958997 26996 net.cpp:165] Memory required for data: 7932376992
I0609 14:01:56.958998 26996 layer_factory.hpp:77] Creating layer mbox_conf
I0609 14:01:56.959002 26996 net.cpp:100] Creating Layer mbox_conf
I0609 14:01:56.959019 26996 net.cpp:434] mbox_conf <- conv4_3_norm_mbox_conf_flat
I0609 14:01:56.959023 26996 net.cpp:434] mbox_conf <- fc7_mbox_conf_flat
I0609 14:01:56.959026 26996 net.cpp:434] mbox_conf <- conv6_2_mbox_conf_flat
I0609 14:01:56.959029 26996 net.cpp:434] mbox_conf <- conv7_2_mbox_conf_flat
I0609 14:01:56.959033 26996 net.cpp:434] mbox_conf <- conv8_2_mbox_conf_flat
I0609 14:01:56.959036 26996 net.cpp:434] mbox_conf <- conv9_2_mbox_conf_flat
I0609 14:01:56.959039 26996 net.cpp:408] mbox_conf -> mbox_conf
I0609 14:01:56.959058 26996 net.cpp:150] Setting up mbox_conf
I0609 14:01:56.959062 26996 net.cpp:157] Top shape: 32 17464 (558848)
I0609 14:01:56.959064 26996 net.cpp:165] Memory required for data: 7934612384
I0609 14:01:56.959065 26996 layer_factory.hpp:77] Creating layer mbox_priorbox
I0609 14:01:56.959069 26996 net.cpp:100] Creating Layer mbox_priorbox
I0609 14:01:56.959072 26996 net.cpp:434] mbox_priorbox <- conv4_3_norm_mbox_priorbox
I0609 14:01:56.959075 26996 net.cpp:434] mbox_priorbox <- fc7_mbox_priorbox
I0609 14:01:56.959079 26996 net.cpp:434] mbox_priorbox <- conv6_2_mbox_priorbox
I0609 14:01:56.959080 26996 net.cpp:434] mbox_priorbox <- conv7_2_mbox_priorbox
I0609 14:01:56.959084 26996 net.cpp:434] mbox_priorbox <- conv8_2_mbox_priorbox
I0609 14:01:56.959086 26996 net.cpp:434] mbox_priorbox <- conv9_2_mbox_priorbox
I0609 14:01:56.959090 26996 net.cpp:408] mbox_priorbox -> mbox_priorbox
I0609 14:01:56.959122 26996 net.cpp:150] Setting up mbox_priorbox
I0609 14:01:56.959127 26996 net.cpp:157] Top shape: 1 2 34928 (69856)
I0609 14:01:56.959130 26996 net.cpp:165] Memory required for data: 7934891808
I0609 14:01:56.959131 26996 layer_factory.hpp:77] Creating layer mbox_loss
I0609 14:01:56.959138 26996 net.cpp:100] Creating Layer mbox_loss
I0609 14:01:56.959141 26996 net.cpp:434] mbox_loss <- mbox_loc
I0609 14:01:56.959144 26996 net.cpp:434] mbox_loss <- mbox_conf
I0609 14:01:56.959147 26996 net.cpp:434] mbox_loss <- mbox_priorbox
…
  name: "data"
  type: "AnnotatedData"
  top: "data"
  top: "label"
  include {
    phase: TEST
  }
  transform_param {
    mean_value: 104
    mean_value: 117
    mean_value: 123
    resize_param {
      prob: 1
      resize_mode: WARP
      height: 300
      width: 300
      interp_mode: LINEAR
    }
  }
  data_param {
    source: "examples/sharpen_tbs_v2.0/sharpen_tbs_v2.0_test_lmdb"
    batch_size: 4
    backend: LMDB
  }
  annotated_data_param {
    batch_sampler {
    }
    label_map_file: "data/sharpen_tbs_v2.0/labelmap_voc.prototxt"
  }
}
layer {
  name: "conv1_1"
  type: "Convolution"
  bottom: "data"
  top: "conv1_1"
  param {
    lr_mult: 1
    decay_mult: 1
  }
  param {
    lr_mult: 2
    decay_mult: 0
  }
  convolution_param {
    num_output: 64
    pad: 1
    kernel_size: 3
    weight_filler {
      type: "xavier"
    }
    bias_filler {
      type: "constant"
      value: 0
    }
  }
}
layer {
  name: "relu1_1"
  type: "ReLU"
  bottom: "conv1_1"
  top: "conv1_1"
}
layer {
  name: "conv1_2"
  type: "Convolution"
  bottom: "conv1_1"
  top: "conv1_2"
  param {
    lr_mult: 1
    decay_mult: 1
  }
  param {
    lr_mult: 2
    decay_mult: 0
  }
  convolution_param {
    num_output: 64
    pad: 1
    kernel_size: 3
    weight_filler {
      type: "xavier"
    }
    bias_filler {
      type: "constant"
      value: 0
    }
  }
}
layer {
  name: "relu1_2"
  type: "ReLU"
  bottom: "conv1_2"
  top: "conv1_2"
}
layer {
  name: "pool1"
  type: "Pooling"
  bottom: "conv1_2"
  top: "pool1"
  pooling_param {
    pool: MAX
    kernel_size: 2
    stride: 2
  }
}
layer {
  name: "conv2_1"
  type: "Convolution"
  bottom: "pool1"
  top: "conv2_1"
  param {
    lr_mult: 1
    decay_mult: 1
  }
  param {
    lr_mult: 2
    decay_mult: 0
  }
  convolution_param {
    num_output: 128
    pad: 1
    kernel_size: 3
    weight_filler {
      type: "xavier"
    }
    bias_filler {
      type: "constant"
      value: 0
    }
  }
}
layer {
  name: "relu2_1"
  type: "ReLU"
  bottom: "conv2_1"
  top: "conv2_1"
}
layer {
  name: "conv2_2"
  type: "Convolution"
  bottom: "conv2_1"
  top: "conv2_2"
  param {
    lr_mult: 1
    decay_mult: 1
  }
  param {
    lr_mult: 2
    decay_mult: 0
  }
  convolution_param {
    num_output: 128
    pad: 1
    kernel_size: 3
    weight_filler {
      type: "xavier"
    }
    bias_filler {
      type: "constant"
      value: 0
    }
  }
}
layer {
  name: "relu2_2"
  type: "ReLU"
  bottom: "conv2_2"
  top: "conv2_2"
}
layer {
  name: "pool2"
  type: "Pooling"
  bottom: "conv2_2"
  top: "pool2"
  pooling_param {
    pool: MAX
    kernel_size: 2
    stride: 2
  }
}
layer {
  name: "conv3_1"
  type: "Convolution"
  bottom: "pool2"
  top: "conv3_1"
  param {
    lr_mult: 1
    decay_mult: 1
  }
  param {
    lr_mult: 2
    decay_mult: 0
  }
  convolution_param {
    num_output: 256
    pad: 1
    kernel_size: 3
    weight_filler {
      type: "xavier"
    }
    bias_filler {
      type: "constant"
      value: 0
    }
  }
}
layer {
  name: "relu3_1"
  type: "ReLU"
  bottom: "conv3_1"
  top: "conv3_1"
}
layer {
  name: "conv3_2"
  type: "Convolution"
  bottom: "conv3_1"
  top: "conv3_2"
  param {
    lr_mult: 1
    decay_mult: 1
  }
  param {
    lr_mult: 2
    decay_mult: 0
  }
  convolution_param {
    num_output: 256
    pad: 1
    kernel_size: 3
    weight_filler {
      type: "xavier"
    }
    bias_filler {
      type: "constant"
      value: 0
    }
  }
}
layer {
  name: "relu3_2"
  type: "ReLU"
  bottom: "conv3_2"
  top: "conv3_2"
}
layer {
  name: "conv3_3"
  type: "Convolution"
  bottom: "conv3_2"
  top: "conv3_3"
  param {
    lr_mult: 1
    decay_mult: 1
  }
  param {
    lr_mult: 2
    decay_mult: 0
  }
  convolution_param {
    num_output: 256
    pad: 1
    kernel_size: 3
    weight_filler {
      type: "xavier"
    }
    bias_filler {
      type: "constant"
      value: 0
    }
  }
}
layer {
  name: "relu3_3"
  type: "ReLU"
  bottom: "conv3_3"
  top: "conv3_3"
}
layer {
  name: "pool3"
  type: "Pooling"
  bottom: "conv3_3"
  top: "pool3"
  pooling_param {
    pool: MAX
    kernel_size: 2
    stride: 2
  }
}
layer {
  name: "conv4_1"
  type: "Convolution"
  bottom: "pool3"
  top: "conv4_1"
  param {
    lr_mult: 1
    decay_mult: 1
  }
  param {
    lr_mult: 2
    decay_mult: 0
  }
  convolution_param {
    num_output: 512
    pad: 1
    kernel_size: 3
    weight_filler {
      type: "xavier"
    }
    bias_filler {
      type: "constant"
      value: 0
    }
  }
}
layer {
  name: "relu4_1"
  type: "ReLU"
  bottom: "conv4_1"
  top: "conv4_1"
}
layer {
  name: "conv4_2"
  type: "Convolution"
  bottom: "conv4_1"
  top: "conv4_2"
  param {
    lr_mult: 1
    decay_mult: 1
  }
  param {
    lr_mult: 2
    decay_mult: 0
  }
  convolution_param {
    num_output: 512
    pad: 1
    kernel_size: 3
    weight_filler {
      type: "xavier"
    }
    bias_filler {
      type: "constant"
      value: 0
    }
  }
}
layer {
  name: "relu4_2"
  type: "ReLU"
  bottom: "conv4_2"
  top: "conv4_2"
}
layer {
  name: "conv4_3"
  type: "Convolution"
  bottom: "conv4_2"
  top: "conv4_3"
  param {
    lr_mult: 1
    decay_mult: 1
  }
  param {
    lr_mult: 2
    decay_mult: 0
  }
  convolution_param {
    num_output: 512
    pad: 1
    kernel_size: 3
    weight_filler {
      type: "xavier"
    }
    bias_filler {
      type: "constant"
      value: 0
    }
  }
}
layer {
  name: "relu4_3"
  type: "ReLU"
  bottom: "conv4_3"
  top: "conv4_3"
}
layer {
  name: "pool4"
  type: "Pooling"
  bottom: "conv4_3"
  top: "pool4"
  pooling_param {
    pool: MAX
    kernel_size: 2
    stride: 2
  }
}
layer {
  name: "conv5_1"
  type: "Convolution"
  bottom: "pool4"
  top: "conv5_1"
  param {
    lr_mult: 1
    decay_mult: 1
  }
  param {
    lr_mult: 2
    decay_mult: 0
  }
  convolution_param {
    num_output: 512
    pad: 1
    kernel_size: 3
    weight_filler {
      type: "xavier"
    }
    bias_filler {
      type: "constant"
      value: 0
    }
    dilation: 1
  }
}
layer {
  name: "relu5_1"
  type: "ReLU"
  bottom: "conv5_1"
  top: "conv5_1"
}
layer {
  name: "conv5_2"
  type: "Convolution"
  bottom: "conv5_1"
  top: "conv5_2"
  param {
    lr_mult: 1
    decay_mult: 1
  }
  param {
    lr_mult: 2
    decay_mult: 0
  }
  convolution_param {
    num_output: 512
    pad: 1
    kernel_size: 3
    weight_filler {
      type: "xavier"
    }
    bias_filler {
      type: "constant"
      value: 0
    }
    dilation: 1
  }
}
layer {
  name: "relu5_2"
  type: "ReLU"
  bottom: "conv5_2"
  top: "conv5_2"
}
layer {
  name: "conv5_3"
  type: "Convolution"
  bottom: "conv5_2"
  top: "conv5_3"
  param {
    lr_mult: 1
    decay_mult: 1
  }
  param {
    lr_mult: 2
    decay_mult: 0
  }
  convolution_param {
    num_output: 512
    pad: 1
    kernel_size: 3
    weight_filler {
      type: "xavier"
    }
    bias_filler {
      type: "constant"
      value: 0
    }
    dilation: 1
  }
}
layer {
  name: "relu5_3"
  type: "ReLU"
  bottom: "conv5_3"
  top: "conv5_3"
}
layer {
  name: "pool5"
  type: "Pooling"
  bottom: "conv5_3"
  top: "pool5"
  pooling_param {
    pool: MAX
    kernel_size: 3
    stride: 1
    pad: 1
  }
}
layer {
  name: "fc6"
  type: "Convolution"
  bottom: "pool5"
  top: "fc6"
  param {
    lr_mult: 1
    decay_mult: 1
  }
  param {
    lr_mult: 2
    decay_mult: 0
  }
  convolution_param {
    num_output: 1024
    pad: 6
    kernel_size: 3
    weight_filler {
      type: "xavier"
    }
    bias_filler {
      type: "constant"
      value: 0
    }
    dilation: 6
  }
}
layer {
  name: "relu6"
  type: "ReLU"
  bottom: "fc6"
  top: "fc6"
}
layer {
  name: "fc7"
  type: "Convolution"
  bottom: "fc6"
  top: "fc7"
  param {
    lr_mult: 1
    decay_mult: 1
  }
  param {
    lr_mult: 2
    decay_mult: 0
  }
  convolution_param {
    num_output: 1024
    kernel_size: 1
    weight_filler {
      type: "xavier"
    }
    bias_filler {
      type: "constant"
      value: 0
    }
  }
}
layer {
  name: "relu7"
  type: "ReLU"
  bottom: "fc7"
  top: "fc7"
}
layer {
  name: "conv6_1"
  type: "Convolution"
  bottom: "fc7"
  top: "conv6_1"
  param {
    lr_mult: 1
    decay_mult: 1
  }
  param {
    lr_mult: 2
    decay_mult: 0
  }
  convolution_param {
    num_output: 256
    pad: 0
    kernel_size: 1
    stride: 1
    weight_filler {
      type: "xavier"
    }
    bias_filler {
      type: "constant"
      value: 0
    }
  }
}
layer {
  name: "conv6_1_relu"
  type: "ReLU"
  bottom: "conv6_1"
  top: "conv6_1"
}
layer {
  name: "conv6_2"
  type: "Convolution"
  bottom: "conv6_1"
  top: "conv6_2"
  param {
    lr_mult: 1
    decay_mult: 1
  }
  param {
    lr_mult: 2
    decay_mult: 0
  }
  convolution_param {
    num_output: 512
    pad: 1
    kernel_size: 3
    stride: 2
    weight_filler {
      type: "xavier"
    }
    bias_filler {
      type: "constant"
      value: 0
    }
  }
}
layer {
  name: "conv6_2_relu"
  type: "ReLU"
  bottom: "conv6_2"
  top: "conv6_2"
}
layer {
  name: "conv7_1"
  type: "Convolution"
  bottom: "conv6_2"
  top: "conv7_1"
  param {
    lr_mult: 1
    decay_mult: 1
  }
  param {
    lr_mult: 2
    decay_mult: 0
  }
  convolution_param {
    num_output: 128
    pad: 0
    kernel_size: 1
    stride: 1
    weight_filler {
      type: "xavier"
    }
    bias_filler {
      type: "constant"
      value: 0
    }
  }
}
layer {
  name: "conv7_1_relu"
  type: "ReLU"
  bottom: "conv7_1"
  top: "conv7_1"
}
layer {
  name: "conv7_2"
  type: "Convolution"
  bottom: "conv7_1"
  top: "conv7_2"
  param {
    lr_mult: 1
    decay_mult: 1
  }
  param {
    lr_mult: 2
    decay_mult: 0
  }
  convolution_param {
    num_output: 256
    pad: 1
    kernel_size: 3
    stride: 2
    weight_filler {
      type: "xavier"
    }
    bias_filler {
      type: "constant"
      value: 0
    }
  }
}
layer {
  name: "conv7_2_relu"
  type: "ReLU"
  bottom: "conv7_2"
  top: "conv7_2"
}
layer {
  name: "conv8_1"
  type: "Convolution"
  bottom: "conv7_2"
  top: "conv8_1"
  param {
    lr_mult: 1
    decay_mult: 1
  }
  param {
    lr_mult: 2
    decay_mult: 0
  }
  convolution_param {
    num_output: 128
    pad: 0
    kernel_size: 1
    stride: 1
    weight_filler {
      type: "xavier"
    }
    bias_filler {
      type: "constant"
      value: 0
    }
  }
}
layer {
  name: "conv8_1_relu"
  type: "ReLU"
  bottom: "conv8_1"
  top: "conv8_1"
}
layer {
  name: "conv8_2"
  type: "Convolution"
  bottom: "conv8_1"
  top: "conv8_2"
  param {
    lr_mult: 1
    decay_mult: 1
  }
  param {
    lr_mult: 2
    decay_mult: 0
  }
  convolution_param {
    num_output: 256
    pad: 0
    kernel_size: 3
    stride: 1
    weight_filler {
      type: "xavier"
    }
    bias_filler {
      type: "constant"
      value: 0
    }
  }
}
layer {
  name: "conv8_2_relu"
  type: "ReLU"
  bottom: "conv8_2"
  top: "conv8_2"
}
layer {
  name: "conv9_1"
  type: "Convolution"
  bottom: "conv8_2"
  top: "conv9_1"
  param {
    lr_mult: 1
    decay_mult: 1
  }
  param {
    lr_mult: 2
    decay_mult: 0
  }
  convolution_param {
    num_output: 128
    pad: 0
    kernel_size: 1
    stride: 1
    weight_filler {
      type: "xavier"
    }
    bias_filler {
      type: "constant"
      value: 0
    }
  }
}
layer {
  name: "conv9_1_relu"
  type: "ReLU"
  bottom: "conv9_1"
  top: "conv9_1"
}
layer {
  name: "conv9_2"
  type: "Convolution"
  bottom: "conv9_1"
  top: "conv9_2"
  param {
    lr_mult: 1
    decay_mult: 1
  }
  param {
    lr_mult: 2
    decay_mult: 0
  }
  convolution_param {
    num_output: 256
    pad: 0
    kernel_size: 3
    stride: 1
    weight_filler {
      type: "xavier"
    }
    bias_filler {
      type: "constant"
      value: 0
    }
  }
}
layer {
  name: "conv9_2_relu"
  type: "ReLU"
  bottom: "conv9_2"
  top: "conv9_2"
}
layer {
  name: "conv4_3_norm"
  type: "Normalize"
  bottom: "conv4_3"
  top: "conv4_3_norm"
  norm_param {
    across_spatial: false
    scale_filler {
      type: "constant"
      value: 20
    }
    channel_shared: false
  }
}
layer {
  name: "conv4_3_norm_mbox_loc"
  type: "Convolution"
  bottom: "conv4_3_norm"
  top: "conv4_3_norm_mbox_loc"
  param {
    lr_mult: 1
    decay_mult: 1
  }
  param {
    lr_mult: 2
    decay_mult: 0
  }
  convolution_param {
    num_output: 16
    pad: 1
    kernel_size: 3
    stride: 1
    weight_filler {
      type: "xavier"
    }
    bias_filler {
      type: "constant"
      value: 0
    }
  }
}
layer {
  name: "conv4_3_norm_mbox_loc_perm"
  type: "Permute"
  bottom: "conv4_3_norm_mbox_loc"
  top: "conv4_3_norm_mbox_loc_perm"
  permute_param {
    order: 0
    order: 2
    order: 3
    order: 1
  }
}
layer {
  name: "conv4_3_norm_mbox_loc_flat"
  type: "Flatten"
  bottom: "conv4_3_norm_mbox_loc_perm"
  top: "conv4_3_norm_mbox_loc_flat"
  flatten_param {
    axis: 1
  }
}
layer {
  name: "conv4_3_norm_mbox_conf"
  type: "Convolution"
  bottom: "conv4_3_norm"
  top: "conv4_3_norm_mbox_conf"
  param {
    lr_mult: 1
    decay_mult: 1
  }
  param {
    lr_mult: 2
    decay_mult: 0
  }
  convolution_param {
    num_output: 8
    pad: 1
    kernel_size: 3
    stride: 1
    weight_filler {
      type: "xavier"
    }
    bias_filler {
      type: "constant"
      value: 0
    }
  }
}
layer {
  name: "conv4_3_norm_mbox_conf_perm"
  type: "Permute"
  bottom: "conv4_3_norm_mbox_conf"
  top: "conv4_3_norm_mbox_conf_perm"
  permute_param {
    order: 0
    order: 2
    order: 3
    order: 1
  }
}
layer {
  name: "conv4_3_norm_mbox_conf_flat"
  type: "Flatten"
  bottom: "conv4_3_norm_mbox_conf_perm"
  top: "conv4_3_norm_mbox_conf_flat"
  flatten_param {
    axis: 1
  }
}
layer {
  name: "conv4_3_norm_mbox_priorbox"
  type: "PriorBox"
  bottom: "conv4_3_norm"
  bottom: "data"
  top: "conv4_3_norm_mbox_priorbox"
  prior_box_param {
    min_size: 30
    max_size: 60
    aspect_ratio: 2
    flip: true
    clip: false
    variance: 0.1
    variance: 0.1
    variance: 0.2
    variance: 0.2
    step: 8
    offset: 0.5
  }
}
layer {
  name: "fc7_mbox_loc"
  type: "Convolution"
  bottom: "fc7"
  top: "fc7_mbox_loc"
  param {
    lr_mult: 1
    decay_mult: 1
  }
  param {
    lr_mult: 2
    decay_mult: 0
  }
  convolution_param {
    num_output: 24
    pad: 1
    kernel_size: 3
    stride: 1
    weight_filler {
      type: "xavier"
    }
    bias_filler {
      type: "constant"
      value: 0
    }
  }
}
layer {
  name: "fc7_mbox_loc_perm"
  type: "Permute"
  bottom: "fc7_mbox_loc"
  top: "fc7_mbox_loc_perm"
  permute_param {
    order: 0
    order: 2
    order: 3
    order: 1
  }
}
layer {
  name: "fc7_mbox_loc_flat"
  type: "Flatten"
  bottom: "fc7_mbox_loc_perm"
  top: "fc7_mbox_loc_flat"
  flatten_param {
    axis: 1
  }
}
layer {
  name: "fc7_mbox_conf"
  type: "Convolution"
  bottom: "fc7"
  top: "fc7_mbox_conf"
  param {
    lr_mult: 1
    decay_mult: 1
  }
  param {
    lr_mult: 2
    decay_mult: 0
  }
  convolution_param {
    num_output: 12
    pad: 1
    kernel_size: 3
    stride: 1
    weight_filler {
      type: "xavier"
    }
    bias_filler {
      type: "constant"
      value: 0
    }
  }
}
layer {
  name: "fc7_mbox_conf_perm"
  type: "Permute"
  bottom: "fc7_mbox_conf"
  top: "fc7_mbox_conf_perm"
  permute_param {
    order: 0
    order: 2
    order: 3
    order: 1
  }
}
layer {
  name: "fc7_mbox_conf_flat"
  type: "Flatten"
  bottom: "fc7_mbox_conf_perm"
  top: "fc7_mbox_conf_flat"
  flatten_param {
    axis: 1
  }
}
layer {
  name: "fc7_mbox_priorbox"
  type: "PriorBox"
  bottom: "fc7"
  bottom: "data"
  top: "fc7_mbox_priorbox"
  prior_box_param {
    min_size: 60
    max_size: 111
    aspect_ratio: 2
    aspect_ratio: 3
    flip: true
    clip: false
    variance: 0.1
    variance: 0.1
    variance: 0.2
    variance: 0.2
    step: 16
    offset: 0.5
  }
}
layer {
  name: "conv6_2_mbox_loc"
  type: "Convolution"
  bottom: "conv6_2"
  top: "conv6_2_mbox_loc"
  param {
    lr_mult: 1
    decay_mult: 1
  }
  param {
    lr_mult: 2
    decay_mult: 0
  }
  convolution_param {
    num_output: 24
    pad: 1
    kernel_size: 3
    stride: 1
    weight_filler {
      type: "xavier"
    }
    bias_filler {
      type: "constant"
      value: 0
    }
  }
}
layer {
  name: "conv6_2_mbox_loc_perm"
  type: "Permute"
  bottom: "conv6_2_mbox_loc"
  top: "conv6_2_mbox_loc_perm"
  permute_param {
    order: 0
    order: 2
    order: 3
    order: 1
  }
}
layer {
  name: "conv6_2_mbox_loc_flat"
  type: "Flatten"
  bottom: "conv6_2_mbox_loc_perm"
  top: "conv6_2_mbox_loc_flat"
  flatten_param {
    axis: 1
  }
}
layer {
  name: "conv6_2_mbox_conf"
  type: "Convolution"
  bottom: "conv6_2"
  top: "conv6_2_mbox_conf"
  param {
    lr_mult: 1
    decay_mult: 1
  }
  param {
    lr_mult: 2
    decay_mult: 0
  }
  convolution_param {
    num_output: 12
    pad: 1
    kernel_size: 3
    stride: 1
    weight_filler {
      type: "xavier"
    }
    bias_filler {
      type: "constant"
      value: 0
    }
  }
}
layer {
  name: "conv6_2_mbox_conf_perm"
  type: "Permute"
  bottom: "conv6_2_mbox_conf"
  top: "conv6_2_mbox_conf_perm"
  permute_param {
    order: 0
    order: 2
    order: 3
    order: 1
  }
}
layer {
  name: "conv6_2_mbox_conf_flat"
  type: "Flatten"
  bottom: "conv6_2_mbox_conf_perm"
  top: "conv6_2_mbox_conf_flat"
  flatten_param {
    axis: 1
  }
}
layer {
  name: "conv6_2_mbox_priorbox"
  type: "PriorBox"
  bottom: "conv6_2"
  bottom: "data"
  top: "conv6_2_mbox_priorbox"
  prior_box_param {
    min_size: 111
    max_size: 162
    aspect_ratio: 2
    aspect_ratio: 3
    flip: true
    clip: false
    variance: 0.1
    variance: 0.1
    variance: 0.2
    variance: 0.2
    step: 32
    offset: 0.5
  }
}
layer {
  name: "conv7_2_mbox_loc"
  type: "Convolution"
  bottom: "conv7_2"
  top: "conv7_2_mbox_loc"
  param {
    lr_mult: 1
    decay_mult: 1
  }
  param {
    lr_mult: 2
    decay_mult: 0
  }
  convolution_param {
    num_output: 24
    pad: 1
    kernel_size: 3
    stride: 1
    weight_filler {
      type: "xavier"
    }
    bias_filler {
      type: "constant"
      value: 0
    }
  }
}
layer {
  name: "conv7_2_mbox_loc_perm"
  type: "Permute"
  bottom: "conv7_2_mbox_loc"
  top: "conv7_2_mbox_loc_perm"
  permute_param {
    order: 0
    order: 2
    order: 3
    order: 1
  }
}
layer {
  name: "conv7_2_mbox_loc_flat"
  type: "Flatten"
  bottom: "conv7_2_mbox_loc_perm"
  top: "conv7_2_mbox_loc_flat"
  flatten_param {
    axis: 1
  }
}
layer {
  name: "conv7_2_mbox_conf"
  type: "Convolution"
  bottom: "conv7_2"
  top: "conv7_2_mbox_conf"
  param {
    lr_mult: 1
    decay_mult: 1
  }
  param {
    lr_mult: 2
    decay_mult: 0
  }
  convolution_param {
    num_output: 12
    pad: 1
    kernel_size: 3
    stride: 1
    weight_filler {
      type: "xavier"
    }
    bias_filler {
      type: "constant"
      value: 0
    }
  }
}
layer {
  name: "conv7_2_mbox_conf_perm"
  type: "Permute"
  bottom: "conv7_2_mbox_conf"
  top: "conv7_2_mbox_conf_perm"
  permute_param {
    order: 0
    order: 2
    order: 3
    order: 1
  }
}
layer {
  name: "conv7_2_mbox_conf_flat"
  type: "Flatten"
  bottom: "conv7_2_mbox_conf_perm"
  top: "conv7_2_mbox_conf_flat"
  flatten_param {
    axis: 1
  }
}
layer {
  name: "conv7_2_mbox_priorbox"
  type: "PriorBox"
  bottom: "conv7_2"
  bottom: "data"
  top: "conv7_2_mbox_priorbox"
  prior_box_param {
    min_size: 162
    max_size: 213
    aspect_ratio: 2
    aspect_ratio: 3
    flip: true
    clip: false
    variance: 0.1
    variance: 0.1
    variance: 0.2
    variance: 0.2
    step: 64
    offset: 0.5
  }
}
layer {
  name: "conv8_2_mbox_loc"
  type: "Convolution"
  bottom: "conv8_2"
  top: "conv8_2_mbox_loc"
  param {
    lr_mult: 1
    decay_mult: 1
  }
  param {
    lr_mult: 2
    decay_mult: 0
  }
  convolution_param {
    num_output: 16
    pad: 1
    kernel_size: 3
    stride: 1
    weight_filler {
      type: "xavier"
    }
    bias_filler {
      type: "constant"
      value: 0
    }
  }
}
layer {
  name: "conv8_2_mbox_loc_perm"
  type: "Permute"
  bottom: "conv8_2_mbox_loc"
  top: "conv8_2_mbox_loc_perm"
  permute_param {
    order: 0
    order: 2
    order: 3
    order: 1
  }
}
layer {
  name: "conv8_2_mbox_loc_flat"
  type: "Flatten"
  bottom: "conv8_2_mbox_loc_perm"
  top: "conv8_2_mbox_loc_flat"
  flatten_param {
    axis: 1
  }
}
layer {
  name: "conv8_2_mbox_conf"
  type: "Convolution"
  bottom: "conv8_2"
  top: "conv8_2_mbox_conf"
  param {
    lr_mult: 1
    decay_mult: 1
  }
  param {
    lr_mult: 2
    decay_mult: 0
  }
  convolution_param {
    num_output: 8
    pad: 1
    kernel_size: 3
    stride: 1
    weight_filler {
      type: "xavier"
    }
    bias_filler {
      type: "constant"
      value: 0
    }
  }
}
layer {
  name: "conv8_2_mbox_conf_perm"
  type: "Permute"
  bottom: "conv8_2_mbox_conf"
  top: "conv8_2_mbox_conf_perm"
  permute_param {
    order: 0
    order: 2
    order: 3
    order: 1
  }
}
layer {
  name: "conv8_2_mbox_conf_flat"
  type: "Flatten"
  bottom: "conv8_2_mbox_conf_perm"
  top: "conv8_2_mbox_conf_flat"
  flatten_param {
    axis: 1
  }
}
layer {
  name: "conv8_2_mbox_priorbox"
  type: "PriorBox"
  bottom: "conv8_2"
  bottom: "data"
  top: "conv8_2_mbox_priorbox"
  prior_box_param {
    min_size: 213
    max_size: 264
    aspect_ratio: 2
    flip: true
    clip: false
    variance: 0.1
    variance: 0.1
    variance: 0.2
    variance: 0.2
    step: 100
    offset: 0.5
  }
}
layer {
  name: "conv9_2_mbox_loc"
  type: "Convolution"
  bottom: "conv9_2"
  top: "conv9_2_mbox_loc"
  param {
    lr_mult: 1
    decay_mult: 1
  }
  param {
    lr_mult: 2
    decay_mult: 0
  }
  convolution_param {
    num_output: 16
    pad: 1
    kernel_size: 3
    stride: 1
    weight_filler {
      type: "xavier"
    }
    bias_filler {
      type: "constant"
      value: 0
    }
  }
}
layer {
  name: "conv9_2_mbox_loc_perm"
  type: "Permute"
  bottom: "conv9_2_mbox_loc"
  top: "conv9_2_mbox_loc_perm"
  permute_param {
    order: 0
    order: 2
    order: 3
    order: 1
  }
}
layer {
  name: "conv9_2_mbox_loc_flat"
  type: "Flatten"
  bottom: "conv9_2_mbox_loc_perm"
  top: "conv9_2_mbox_loc_flat"
  flatten_param {
    axis: 1
  }
}
layer {
  name: "conv9_2_mbox_conf"
  type: "Convolution"
  bottom: "conv9_2"
  top: "conv9_2_mbox_conf"
  param {
    lr_mult: 1
    decay_mult: 1
  }
  param {
    lr_mult: 2
    decay_mult: 0
  }
  convolution_param {
    num_output: 8
    pad: 1
    kernel_size: 3
    stride: 1
    weight_filler {
      type: "xavier"
    }
    bias_filler {
      type: "constant"
      value: 0
    }
  }
}
layer {
  name: "conv9_2_mbox_conf_perm"
  type: "Permute"
  bottom: "conv9_2_mbox_conf"
  top: "conv9_2_mbox_conf_perm"
  permute_param {
    order: 0
    order: 2
    order: 3
    order: 1
  }
}
layer {
  name: "conv9_2_mbox_conf_flat"
  type: "Flatten"
  bottom: "conv9_2_mbox_conf_perm"
  top: "conv9_2_mbox_conf_flat"
  flatten_param {
    axis: 1
  }
}
layer {
  name: "conv9_2_mbox_priorbox"
  type: "PriorBox"
  bottom: "conv9_2"
  bottom: "data"
  top: "conv9_2_mbox_priorbox"
  prior_box_param {
    min_size: 264
    max_size: 315
    aspect_ratio: 2
    flip: true
    clip: false
    variance: 0.1
    variance: 0.1
    variance: 0.2
    variance: 0.2
    step: 300
    offset: 0.5
  }
}
layer {
  name: "mbox_loc"
  type: "Concat"
  bottom: "conv4_3_norm_mbox_loc_flat"
  bottom: "fc7_mbox_loc_flat"
  bottom: "conv6_2_mbox_loc_flat"
  bottom: "conv7_2_mbox_loc_flat"
  bottom: "conv8_2_mbox_loc_flat"
  bottom: "conv9_2_mbox_loc_flat"
  top: "mbox_loc"
  concat_param {
    axis: 1
  }
}
layer {
  name: "mbox_conf"
  type: "Concat"
  bottom: "conv4_3_norm_mbox_conf_flat"
  bottom: "fc7_mbox_conf_flat"
  bottom: "conv6_2_mbox_conf_flat"
  bottom: "conv7_2_mbox_conf_flat"
  bottom: "conv8_2_mbox_conf_flat"
  bottom: "conv9_2_mbox_conf_flat"
  top: "mbox_conf"
  concat_param {
    axis: 1
  }
}
layer {
  name: "mbox_priorbox"
  type: "Concat"
  bottom: "conv4_3_norm_mbox_priorbox"
  bottom: "fc7_mbox_priorbox"
  bottom: "conv6_2_mbox_priorbox"
  bottom: "conv7_2_mbox_priorbox"
  bottom: "conv8_2_mbox_priorbox"
  bottom: "conv9_2_mbox_priorbox"
  top: "mbox_priorbox"
  concat_param {
    axis: 2
  }
}
layer {
  name: "mbox_conf_reshape"
  type: "Reshape"
  bottom: "mbox_conf"
  top: "mbox_conf_reshape"
  reshape_param {
    shape {
      dim: 0
      dim: -1
      dim: 2
    }
  }
}
layer {
  name: "mbox_conf_softmax"
  type: "Softmax"
  bottom: "mbox_conf_reshape"
  top: "mbox_conf_softmax"
  softmax_param {
    axis: 2
  }
}
layer {
  name: "mbox_conf_flatten"
  type: "Flatten"
  bottom: "mbox_conf_softmax"
  top: "mbox_conf_flatten"
  flatten_param {
    axis: 1
  }
}
layer {
  name: "detection_out"
  type: "DetectionOutput"
  bottom: "mbox_loc"
  bottom: "mbox_conf_flatten"
  bottom: "mbox_priorbox"
  top: "detection_out"
  include {
    phase: TEST
  }
  detection_output_param {
    num_classes: 2
    share_location: true
    background_label_id: 0
    nms_param {
      nms_threshold: 0.45
      top_k: 400
    }
    save_output_param {
      output_directory: "/home/shangzw/data/sharpen_tbs_v2.0/results/tbs/SSD_300x300/Main"
      output_name_prefix: "comp4_det_test_"
      output_format: "VOC"
      label_map_file: "data/sharpen_tbs_v2.0/labelmap_voc.prototxt"
      name_size_file: "data/sharpen_tbs_v2.0/test_name_size"
      num_test_image: 100
    }
    code_type: CENTER_SIZE
    keep_top_k: 200
    confidence_threshold: 0.01
  }
}
layer {
  name: "detection_eval"
  type: "DetectionEvaluate"
  bottom: "detection_out"
  bottom: "label"
  top: "detection_eval"
  include {
    phase: TEST
  }
  detection_evaluate_param {
    num_classes: 2
    background_label_id: 0
    overlap_threshold: 0.5
    evaluate_difficult_gt: false
    name_size_file: "data/sharpen_tbs_v2.0/test_name_size"
  }
}
I0609 14:01:56.961385 26996 layer_factory.hpp:77] Creating layer data
I0609 14:01:56.961429 26996 net.cpp:100] Creating Layer data
I0609 14:01:56.961441 26996 net.cpp:408] data -> data
I0609 14:01:56.961448 26996 net.cpp:408] data -> label
I0609 14:01:56.961859 27021 db_lmdb.cpp:35] Opened lmdb examples/sharpen_tbs_v2.0/sharpen_tbs_v2.0_test_lmdb
I0609 14:01:56.963414 26996 annotated_data_layer.cpp:62] output data size: 4,3,300,300
I0609 14:01:56.972769 26996 net.cpp:150] Setting up data
I0609 14:01:56.972786 26996 net.cpp:157] Top shape: 4 3 300 300 (1080000)
I0609 14:01:56.972790 26996 net.cpp:157] Top shape: 1 1 1 8 (8)
I0609 14:01:56.972792 26996 net.cpp:165] Memory required for data: 4320032
I0609 14:01:56.972797 26996 layer_factory.hpp:77] Creating layer data_data_0_split
I0609 14:01:56.972815 26996 net.cpp:100] Creating Layer data_data_0_split
I0609 14:01:56.972820 26996 net.cpp:434] data_data_0_split <- data
I0609 14:01:56.972825 26996 net.cpp:408] data_data_0_split -> data_data_0_split_0
I0609 14:01:56.972831 26996 net.cpp:408] data_data_0_split -> data_data_0_split_1
I0609 14:01:56.972836 26996 net.cpp:408] data_data_0_split -> data_data_0_split_2
I0609 14:01:56.972842 26996 net.cpp:408] data_data_0_split -> data_data_0_split_3
I0609 14:01:56.972847 26996 net.cpp:408] data_data_0_split -> data_data_0_split_4
I0609 14:01:56.972854 26996 net.cpp:408] data_data_0_split -> data_data_0_split_5
I0609 14:01:56.972859 26996 net.cpp:408] data_data_0_split -> data_data_0_split_6
I0609 14:01:56.972964 26996 net.cpp:150] Setting up data_data_0_split
I0609 14:01:56.972968 26996 net.cpp:157] Top shape: 4 3 300 300 (1080000)
I0609 14:01:56.972971 26996 net.cpp:157] Top shape: 4 3 300 300 (1080000)
I0609 14:01:56.972973 26996 net.cpp:157] Top shape: 4 3 300 300 (1080000)
I0609 14:01:56.972976 26996 net.cpp:157] Top shape: 4 3 300 300 (1080000)
I0609 14:01:56.972995 26996 net.cpp:157] Top shape: 4 3 300 300 (1080000)
I0609 14:01:56.973022 26996 net.cpp:157] Top shape: 4 3 300 300 (1080000)
I0609 14:01:56.973026 26996 net.cpp:157] Top shape: 4 3 300 300 (1080000)
I0609 14:01:56.973027 26996 net.cpp:165] Memory required for data: 34560032
I0609 14:01:56.973029 26996 layer_factory.hpp:77] Creating layer conv1_1
I0609 14:01:56.973038 26996 net.cpp:100] Creating Layer conv1_1
I0609 14:01:56.973040 26996 net.cpp:434] conv1_1 <- data_data_0_split_0
I0609 14:01:56.973045 26996 net.cpp:408] conv1_1 -> conv1_1
I0609 14:01:56.974171 26996 net.cpp:150] Setting up conv1_1
I0609 14:01:56.974181 26996 net.cpp:157] Top shape: 4 64 300 300 (23040000)
I0609 14:01:56.974184 26996 net.cpp:165] Memory required for data: 126720032
I0609 14:01:56.974207 26996 layer_factory.hpp:77] Creating layer relu1_1
I0609 14:01:56.974212 26996 net.cpp:100] Creating Layer relu1_1
I0609 14:01:56.974215 26996 net.cpp:434] relu1_1 <- conv1_1
I0609 14:01:56.974218 26996 net.cpp:395] relu1_1 -> conv1_1 (in-place)
I0609 14:01:56.974367 26996 net.cpp:150] Setting up relu1_1
I0609 14:01:56.974375 26996 net.cpp:157] Top shape: 4 64 300 300 (23040000)
I0609 14:01:56.974376 26996 net.cpp:165] Memory required for data: 218880032
I0609 14:01:56.974378 26996 layer_factory.hpp:77] Creating layer conv1_2
I0609 14:01:56.974400 26996 net.cpp:100] Creating Layer conv1_2
I0609 14:01:56.974403 26996 net.cpp:434] conv1_2 <- conv1_1
I0609 14:01:56.974407 26996 net.cpp:408] conv1_2 -> conv1_2
I0609 14:01:56.977468 26996 net.cpp:150] Setting up conv1_2
I0609 14:01:56.977479 26996 net.cpp:157] Top shape: 4 64 300 300 (23040000)
I0609 14:01:56.977483 26996 net.cpp:165] Memory required for data: 311040032
I0609 14:01:56.977504 26996 layer_factory.hpp:77] Creating layer relu1_2
I0609 14:01:56.977509 26996 net.cpp:100] Creating Layer relu1_2
I0609 14:01:56.977510 26996 net.cpp:434] relu1_2 <- conv1_2
I0609 14:01:56.977514 26996 net.cpp:395] relu1_2 -> conv1_2 (in-place)
I0609 14:01:56.978090 26996 net.cpp:150] Setting up relu1_2
I0609 14:01:56.978098 26996 net.cpp:157] Top shape: 4 64 300 300 (23040000)
I0609 14:01:56.978101 26996 net.cpp:165] Memory required for data: 403200032
I0609 14:01:56.978103 26996 layer_factory.hpp:77] Creating layer pool1
I0609 14:01:56.978123 26996 net.cpp:100] Creating Layer pool1
I0609 14:01:56.978126 26996 net.cpp:434] pool1 <- conv1_2
I0609 14:01:56.978129 26996 net.cpp:408] pool1 -> pool1
I0609 14:01:56.978166 26996 net.cpp:150] Setting up pool1
I0609 14:01:56.978171 26996 net.cpp:157] Top shape: 4 64 150 150 (5760000)
I0609 14:01:56.978173 26996 net.cpp:165] Memory required for data: 426240032
I0609 14:01:56.978175 26996 layer_factory.hpp:77] Creating layer conv2_1
I0609 14:01:56.978181 26996 net.cpp:100] Creating Layer conv2_1
I0609 14:01:56.978201 26996 net.cpp:434] conv2_1 <- pool1
I0609 14:01:56.978205 26996 net.cpp:408] conv2_1 -> conv2_1
I0609 14:01:56.979100 26996 net.cpp:150] Setting up conv2_1
I0609 14:01:56.979109 26996 net.cpp:157] Top shape: 4 128 150 150 (11520000)
I0609 14:01:56.979110 26996 net.cpp:165] Memory required for data: 472320032
I0609 14:01:56.979130 26996 layer_factory.hpp:77] Creating layer relu2_1
I0609 14:01:56.979135 26996 net.cpp:100] Creating Layer relu2_1
I0609 14:01:56.979137 26996 net.cpp:434] relu2_1 <- conv2_1
I0609 14:01:56.979154 26996 net.cpp:395] relu2_1 -> conv2_1 (in-place)
I0609 14:01:56.979717 26996 net.cpp:150] Setting up relu2_1
I0609 14:01:56.979727 26996 net.cpp:157] Top shape: 4 128 150 150 (11520000)
I0609 14:01:56.979728 26996 net.cpp:165] Memory required for data: 518400032
I0609 14:01:56.979732 26996 layer_factory.hpp:77] Creating layer conv2_2
I0609 14:01:56.979737 26996 net.cpp:100] Creating Layer conv2_2
I0609 14:01:56.979743 26996 net.cpp:434] conv2_2 <- conv2_1
I0609 14:01:56.979748 26996 net.cpp:408] conv2_2 -> conv2_2
I0609 14:01:56.981837 26996 net.cpp:150] Setting up conv2_2
I0609 14:01:56.981847 26996 net.cpp:157] Top shape: 4 128 150 150 (11520000)
I0609 14:01:56.981848 26996 net.cpp:165] Memory required for data: 564480032
I0609 14:01:56.981853 26996 layer_factory.hpp:77] Creating layer relu2_2
I0609 14:01:56.981871 26996 net.cpp:100] Creating Layer relu2_2
I0609 14:01:56.981875 26996 net.cpp:434] relu2_2 <- conv2_2
I0609 14:01:56.981878 26996 net.cpp:395] relu2_2 -> conv2_2 (in-place)
I0609 14:01:56.982015 26996 net.cpp:150] Setting up relu2_2
I0609 14:01:56.982023 26996 net.cpp:157] Top shape: 4 128 150 150 (11520000)
I0609 14:01:56.982024 26996 net.cpp:165] Memory required for data: 610560032
I0609 14:01:56.982026 26996 layer_factory.hpp:77] Creating layer pool2
I0609 14:01:56.982031 26996 net.cpp:100] Creating Layer pool2
I0609 14:01:56.982034 26996 net.cpp:434] pool2 <- conv2_2
I0609 14:01:56.982038 26996 net.cpp:408] pool2 -> pool2
I0609 14:01:56.982074 26996 net.cpp:150] Setting up pool2
I0609 14:01:56.982079 26996 net.cpp:157] Top shape: 4 128 75 75 (2880000)
I0609 14:01:56.982081 26996 net.cpp:165] Memory required for data: 622080032
I0609 14:01:56.982084 26996 layer_factory.hpp:77] Creating layer conv3_1
I0609 14:01:56.982089 26996 net.cpp:100] Creating Layer conv3_1
I0609 14:01:56.982092 26996 net.cpp:434] conv3_1 <- pool2
I0609 14:01:56.982097 26996 net.cpp:408] conv3_1 -> conv3_1
I0609 14:01:56.985828 26996 net.cpp:150] Setting up conv3_1
I0609 14:01:56.985844 26996 net.cpp:157] Top shape: 4 256 75 75 (5760000)
I0609 14:01:56.985847 26996 net.cpp:165] Memory required for data: 645120032
I0609 14:01:56.985872 26996 layer_factory.hpp:77] Creating layer relu3_1
I0609 14:01:56.985879 26996 net.cpp:100] Creating Layer relu3_1
I0609 14:01:56.985882 26996 net.cpp:434] relu3_1 <- conv3_1
I0609 14:01:56.985888 26996 net.cpp:395] relu3_1 -> conv3_1 (in-place)
I0609 14:01:56.986062 26996 net.cpp:150] Setting up relu3_1
I0609 14:01:56.986068 26996 net.cpp:157] Top shape: 4 256 75 75 (5760000)
I0609 14:01:56.986070 26996 net.cpp:165] Memory required for data: 668160032
I0609 14:01:56.986073 26996 layer_factory.hpp:77] Creating layer conv3_2
I0609 14:01:56.986079 26996 net.cpp:100] Creating Layer conv3_2
I0609 14:01:56.986098 26996 net.cpp:434] conv3_2 <- conv3_1
I0609 14:01:56.986102 26996 net.cpp:408] conv3_2 -> conv3_2
I0609 14:01:56.990727 26996 net.cpp:150] Setting up conv3_2
I0609 14:01:56.990749 26996 net.cpp:157] Top shape: 4 256 75 75 (5760000)
I0609 14:01:56.990752 26996 net.cpp:165] Memory required for data: 691200032
I0609 14:01:56.990775 26996 layer_factory.hpp:77] Creating layer relu3_2
I0609 14:01:56.990783 26996 net.cpp:100] Creating Layer relu3_2
I0609 14:01:56.990787 26996 net.cpp:434] relu3_2 <- conv3_2
I0609 14:01:56.990792 26996 net.cpp:395] relu3_2 -> conv3_2 (in-place)
I0609 14:01:56.990967 26996 net.cpp:150] Setting up relu3_2
I0609 14:01:56.990975 26996 net.cpp:157] Top shape: 4 256 75 75 (5760000)
I0609 14:01:56.990977 26996 net.cpp:165] Memory required for data: 714240032
I0609 14:01:56.990979 26996 layer_factory.hpp:77] Creating layer conv3_3
I0609 14:01:56.991008 26996 net.cpp:100] Creating Layer conv3_3
I0609 14:01:56.991011 26996 net.cpp:434] conv3_3 <- conv3_2
I0609 14:01:56.991015 26996 net.cpp:408] conv3_3 -> conv3_3
I0609 14:01:56.995537 26996 net.cpp:150] Setting up conv3_3
I0609 14:01:56.995549 26996 net.cpp:157] Top shape: 4 256 75 75 (5760000)
I0609 14:01:56.995553 26996 net.cpp:165] Memory required for data: 737280032
I0609 14:01:56.995558 26996 layer_factory.hpp:77] Creating layer relu3_3
I0609 14:01:56.995579 26996 net.cpp:100] Creating Layer relu3_3
I0609 14:01:56.995580 26996 net.cpp:434] relu3_3 <- conv3_3
I0609 14:01:56.995600 26996 net.cpp:395] relu3_3 -> conv3_3 (in-place)
I0609 14:01:56.995753 26996 net.cpp:150] Setting up relu3_3
I0609 14:01:56.995759 26996 net.cpp:157] Top shape: 4 256 75 75 (5760000)
I0609 14:01:56.995761 26996 net.cpp:165] Memory required for data: 760320032
I0609 14:01:56.995764 26996 layer_factory.hpp:77] Creating layer pool3
I0609 14:01:56.995769 26996 net.cpp:100] Creating Layer pool3
I0609 14:01:56.995771 26996 net.cpp:434] pool3 <- conv3_3
I0609 14:01:56.995790 26996 net.cpp:408] pool3 -> pool3
I0609 14:01:56.995831 26996 net.cpp:150] Setting up pool3
I0609 14:01:56.995836 26996 net.cpp:157] Top shape: 4 256 38 38 (1478656)
I0609 14:01:56.995862 26996 net.cpp:165] Memory required for data: 766234656
I0609 14:01:56.995864 26996 layer_factory.hpp:77] Creating layer conv4_1
I0609 14:01:56.995872 26996 net.cpp:100] Creating Layer conv4_1
I0609 14:01:56.995875 26996 net.cpp:434] conv4_1 <- pool3
I0609 14:01:56.995879 26996 net.cpp:408] conv4_1 -> conv4_1
I0609 14:01:57.003186 26996 net.cpp:150] Setting up conv4_1
I0609 14:01:57.003202 26996 net.cpp:157] Top shape: 4 512 38 38 (2957312)
I0609 14:01:57.003206 26996 net.cpp:165] Memory required for data: 778063904
I0609 14:01:57.003211 26996 layer_factory.hpp:77] Creating layer relu4_1
I0609 14:01:57.003233 26996 net.cpp:100] Creating Layer relu4_1
I0609 14:01:57.003237 26996 net.cpp:434] relu4_1 <- conv4_1
I0609 14:01:57.003242 26996 net.cpp:395] relu4_1 -> conv4_1 (in-place)
I0609 14:01:57.003831 26996 net.cpp:150] Setting up relu4_1
I0609 14:01:57.003840 26996 net.cpp:157] Top shape: 4 512 38 38 (2957312)
I0609 14:01:57.003842 26996 net.cpp:165] Memory required for data: 789893152
I0609 14:01:57.003845 26996 layer_factory.hpp:77] Creating layer conv4_2
I0609 14:01:57.003868 26996 net.cpp:100] Creating Layer conv4_2
I0609 14:01:57.003871 26996 net.cpp:434] conv4_2 <- conv4_1
I0609 14:01:57.003876 26996 net.cpp:408] conv4_2 -> conv4_2
I0609 14:01:57.016000 26996 net.cpp:150] Setting up conv4_2
I0609 14:01:57.016022 26996 net.cpp:157] Top shape: 4 512 38 38 (2957312)
I0609 14:01:57.016026 26996 net.cpp:165] Memory required for data: 801722400
I0609 14:01:57.016039 26996 layer_factory.hpp:77] Creating layer relu4_2
I0609 14:01:57.016047 26996 net.cpp:100] Creating Layer relu4_2
I0609 14:01:57.016050 26996 net.cpp:434] relu4_2 <- conv4_2
I0609 14:01:57.016054 26996 net.cpp:395] relu4_2 -> conv4_2 (in-place)
I0609 14:01:57.016775 26996 net.cpp:150] Setting up relu4_2
I0609 14:01:57.016785 26996 net.cpp:157] Top shape: 4 512 38 38 (2957312)
I0609 14:01:57.016788 26996 net.cpp:165] Memory required for data: 813551648
I0609 14:01:57.016789 26996 layer_factory.hpp:77] Creating layer conv4_3
I0609 14:01:57.016813 26996 net.cpp:100] Creating Layer conv4_3
I0609 14:01:57.016816 26996 net.cpp:434] conv4_3 <- conv4_2
I0609 14:01:57.016821 26996 net.cpp:408] conv4_3 -> conv4_3
I0609 14:01:57.029939 26996 net.cpp:150] Setting up conv4_3
I0609 14:01:57.029958 26996 net.cpp:157] Top shape: 4 512 38 38 (2957312)
I0609 14:01:57.029960 26996 net.cpp:165] Memory required for data: 825380896
I0609 14:01:57.029968 26996 layer_factory.hpp:77] Creating layer relu4_3
I0609 14:01:57.029973 26996 net.cpp:100] Creating Layer relu4_3
I0609 14:01:57.029978 26996 net.cpp:434] relu4_3 <- conv4_3
I0609 14:01:57.029983 26996 net.cpp:395] relu4_3 -> conv4_3 (in-place)
I0609 14:01:57.030122 26996 net.cpp:150] Setting up relu4_3
I0609 14:01:57.030130 26996 net.cpp:157] Top shape: 4 512 38 38 (2957312)
I0609 14:01:57.030133 26996 net.cpp:165] Memory required for data: 837210144
I0609 14:01:57.030135 26996 layer_factory.hpp:77] Creating layer conv4_3_relu4_3_0_split
I0609 14:01:57.030140 26996 net.cpp:100] Creating Layer conv4_3_relu4_3_0_split
I0609 14:01:57.030143 26996 net.cpp:434] conv4_3_relu4_3_0_split <- conv4_3
I0609 14:01:57.030148 26996 net.cpp:408] conv4_3_relu4_3_0_split -> conv4_3_relu4_3_0_split_0
I0609 14:01:57.030153 26996 net.cpp:408] conv4_3_relu4_3_0_split -> conv4_3_relu4_3_0_split_1
I0609 14:01:57.030189 26996 net.cpp:150] Setting up conv4_3_relu4_3_0_split
I0609 14:01:57.030195 26996 net.cpp:157] Top shape: 4 512 38 38 (2957312)
I0609 14:01:57.030199 26996 net.cpp:157] Top shape: 4 512 38 38 (2957312)
I0609 14:01:57.030200 26996 net.cpp:165] Memory required for data: 860868640
I0609 14:01:57.030202 26996 layer_factory.hpp:77] Creating layer pool4
I0609 14:01:57.030206 26996 net.cpp:100] Creating Layer pool4
I0609 14:01:57.030210 26996 net.cpp:434] pool4 <- conv4_3_relu4_3_0_split_0
I0609 14:01:57.030213 26996 net.cpp:408] pool4 -> pool4
I0609 14:01:57.030246 26996 net.cpp:150] Setting up pool4
I0609 14:01:57.030251 26996 net.cpp:157] Top shape: 4 512 19 19 (739328)
I0609 14:01:57.030253 26996 net.cpp:165] Memory required for data: 863825952
I0609 14:01:57.030266 26996 layer_factory.hpp:77] Creating layer conv5_1
I0609 14:01:57.030275 26996 net.cpp:100] Creating Layer conv5_1
I0609 14:01:57.030278 26996 net.cpp:434] conv5_1 <- pool4
I0609 14:01:57.030283 26996 net.cpp:408] conv5_1 -> conv5_1
I0609 14:01:57.044138 26996 net.cpp:150] Setting up conv5_1
I0609 14:01:57.044154 26996 net.cpp:157] Top shape: 4 512 19 19 (739328)
I0609 14:01:57.044157 26996 net.cpp:165] Memory required for data: 866783264
I0609 14:01:57.044178 26996 layer_factory.hpp:77] Creating layer relu5_1
I0609 14:01:57.044185 26996 net.cpp:100] Creating Layer relu5_1
I0609 14:01:57.044189 26996 net.cpp:434] relu5_1 <- conv5_1
I0609 14:01:57.044194 26996 net.cpp:395] relu5_1 -> conv5_1 (in-place)
I0609 14:01:57.044353 26996 net.cpp:150] Setting up relu5_1
I0609 14:01:57.044359 26996 net.cpp:157] Top shape: 4 512 19 19 (739328)
I0609 14:01:57.044361 26996 net.cpp:165] Memory required for data: 869740576
I0609 14:01:57.044363 26996 layer_factory.hpp:77] Creating layer conv5_2
I0609 14:01:57.044387 26996 net.cpp:100] Creating Layer conv5_2
I0609 14:01:57.044390 26996 net.cpp:434] conv5_2 <- conv5_1
I0609 14:01:57.044394 26996 net.cpp:408] conv5_2 -> conv5_2
I0609 14:01:57.058495 26996 net.cpp:150] Setting up conv5_2
I0609 14:01:57.058514 26996 net.cpp:157] Top shape: 4 512 19 19 (739328)
I0609 14:01:57.058532 26996 net.cpp:165] Memory required for data: 872697888
I0609 14:01:57.058540 26996 layer_factory.hpp:77] Creating layer relu5_2
I0609 14:01:57.058550 26996 net.cpp:100] Creating Layer relu5_2
I0609 14:01:57.058555 26996 net.cpp:434] relu5_2 <- conv5_2
I0609 14:01:57.058562 26996 net.cpp:395] relu5_2 -> conv5_2 (in-place)
I0609 14:01:57.058763 26996 net.cpp:150] Setting up relu5_2
I0609 14:01:57.058771 26996 net.cpp:157] Top shape: 4 512 19 19 (739328)
I0609 14:01:57.058775 26996 net.cpp:165] Memory required for data: 875655200
I0609 14:01:57.058794 26996 layer_factory.hpp:77] Creating layer conv5_3
I0609 14:01:57.058804 26996 net.cpp:100] Creating Layer conv5_3
I0609 14:01:57.058806 26996 net.cpp:434] conv5_3 <- conv5_2
I0609 14:01:57.058815 26996 net.cpp:408] conv5_3 -> conv5_3
I0609 14:01:57.071604 26996 net.cpp:150] Setting up conv5_3
I0609 14:01:57.071620 26996 net.cpp:157] Top shape: 4 512 19 19 (739328)
I0609 14:01:57.071622 26996 net.cpp:165] Memory required for data: 878612512
I0609 14:01:57.071645 26996 layer_factory.hpp:77] Creating layer relu5_3
I0609 14:01:57.071656 26996 net.cpp:100] Creating Layer relu5_3
I0609 14:01:57.071660 26996 net.cpp:434] relu5_3 <- conv5_3
I0609 14:01:57.071665 26996 net.cpp:395] relu5_3 -> conv5_3 (in-place)
I0609 14:01:57.071825 26996 net.cpp:150] Setting up relu5_3
I0609 14:01:57.071831 26996 net.cpp:157] Top shape: 4 512 19 19 (739328)
I0609 14:01:57.071833 26996 net.cpp:165] Memory required for data: 881569824
I0609 14:01:57.071835 26996 layer_factory.hpp:77] Creating layer pool5
I0609 14:01:57.071841 26996 net.cpp:100] Creating Layer pool5
I0609 14:01:57.071842 26996 net.cpp:434] pool5 <- conv5_3
I0609 14:01:57.071862 26996 net.cpp:408] pool5 -> pool5
I0609 14:01:57.071914 26996 net.cpp:150] Setting up pool5
I0609 14:01:57.071920 26996 net.cpp:157] Top shape: 4 512 19 19 (739328)
I0609 14:01:57.071923 26996 net.cpp:165] Memory required for data: 884527136
I0609 14:01:57.071924 26996 layer_factory.hpp:77] Creating layer fc6
I0609 14:01:57.071931 26996 net.cpp:100] Creating Layer fc6
I0609 14:01:57.071934 26996 net.cpp:434] fc6 <- pool5
I0609 14:01:57.071938 26996 net.cpp:408] fc6 -> fc6
I0609 14:01:57.094969 26996 net.cpp:150] Setting up fc6
I0609 14:01:57.094988 26996 net.cpp:157] Top shape: 4 1024 19 19 (1478656)
I0609 14:01:57.094991 26996 net.cpp:165] Memory required for data: 890441760
I0609 14:01:57.095012 26996 layer_factory.hpp:77] Creating layer relu6
I0609 14:01:57.095018 26996 net.cpp:100] Creating Layer relu6
I0609 14:01:57.095022 26996 net.cpp:434] relu6 <- fc6
I0609 14:01:57.095027 26996 net.cpp:395] relu6 -> fc6 (in-place)
I0609 14:01:57.095721 26996 net.cpp:150] Setting up relu6
I0609 14:01:57.095731 26996 net.cpp:157] Top shape: 4 1024 19 19 (1478656)
I0609 14:01:57.095757 26996 net.cpp:165] Memory required for data: 896356384
I0609 14:01:57.095762 26996 layer_factory.hpp:77] Creating layer fc7
I0609 14:01:57.095769 26996 net.cpp:100] Creating Layer fc7
I0609 14:01:57.095772 26996 net.cpp:434] fc7 <- fc6
I0609 14:01:57.095777 26996 net.cpp:408] fc7 -> fc7
I0609 14:01:57.102015 26996 net.cpp:150] Setting up fc7
I0609 14:01:57.102030 26996 net.cpp:157] Top shape: 4 1024 19 19 (1478656)
I0609 14:01:57.102032 26996 net.cpp:165] Memory required for data: 902271008
I0609 14:01:57.102037 26996 layer_factory.hpp:77] Creating layer relu7
I0609 14:01:57.102059 26996 net.cpp:100] Creating Layer relu7
I0609 14:01:57.102062 26996 net.cpp:434] relu7 <- fc7
I0609 14:01:57.102066 26996 net.cpp:395] relu7 -> fc7 (in-place)
I0609 14:01:57.102221 26996 net.cpp:150] Setting up relu7
I0609 14:01:57.102226 26996 net.cpp:157] Top shape: 4 1024 19 19 (1478656)
I0609 14:01:57.102228 26996 net.cpp:165] Memory required for data: 908185632
I0609 14:01:57.102231 26996 layer_factory.hpp:77] Creating layer fc7_relu7_0_split
I0609 14:01:57.102236 26996 net.cpp:100] Creating Layer fc7_relu7_0_split
I0609 14:01:57.102237 26996 net.cpp:434] fc7_relu7_0_split <- fc7
I0609 14:01:57.102241 26996 net.cpp:408] fc7_relu7_0_split -> fc7_relu7_0_split_0
I0609 14:01:57.102262 26996 net.cpp:408] fc7_relu7_0_split -> fc7_relu7_0_split_1
I0609 14:01:57.102272 26996 net.cpp:408] fc7_relu7_0_split -> fc7_relu7_0_split_2
I0609 14:01:57.102277 26996 net.cpp:408] fc7_relu7_0_split -> fc7_relu7_0_split_3
I0609 14:01:57.102393 26996 net.cpp:150] Setting up fc7_relu7_0_split
I0609 14:01:57.102398 26996 net.cpp:157] Top shape: 4 1024 19 19 (1478656)
I0609 14:01:57.102401 26996 net.cpp:157] Top shape: 4 1024 19 19 (1478656)
I0609 14:01:57.102403 26996 net.cpp:157] Top shape: 4 1024 19 19 (1478656)
I0609 14:01:57.102406 26996 net.cpp:157] Top shape: 4 1024 19 19 (1478656)
I0609 14:01:57.102407 26996 net.cpp:165] Memory required for data: 931844128
I0609 14:01:57.102409 26996 layer_factory.hpp:77] Creating layer conv6_1
I0609 14:01:57.102430 26996 net.cpp:100] Creating Layer conv6_1
I0609 14:01:57.102434 26996 net.cpp:434] conv6_1 <- fc7_relu7_0_split_0
I0609 14:01:57.102439 26996 net.cpp:408] conv6_1 -> conv6_1
I0609 14:01:57.105644 26996 net.cpp:150] Setting up conv6_1
I0609 14:01:57.105655 26996 net.cpp:157] Top shape: 4 256 19 19 (369664)
I0609 14:01:57.105659 26996 net.cpp:165] Memory required for data: 933322784
I0609 14:01:57.105664 26996 layer_factory.hpp:77] Creating layer conv6_1_relu
I0609 14:01:57.105681 26996 net.cpp:100] Creating Layer conv6_1_relu
I0609 14:01:57.105684 26996 net.cpp:434] conv6_1_relu <- conv6_1
I0609 14:01:57.105689 26996 net.cpp:395] conv6_1_relu -> conv6_1 (in-place)
I0609 14:01:57.105854 26996 net.cpp:150] Setting up conv6_1_relu
I0609 14:01:57.105859 26996 net.cpp:157] Top shape: 4 256 19 19 (369664)
I0609 14:01:57.105861 26996 net.cpp:165] Memory required for data: 934801440
I0609 14:01:57.105865 26996 layer_factory.hpp:77] Creating layer conv6_2
I0609 14:01:57.105870 26996 net.cpp:100] Creating Layer conv6_2
I0609 14:01:57.105888 26996 net.cpp:434] conv6_2 <- conv6_1
I0609 14:01:57.105892 26996 net.cpp:408] conv6_2 -> conv6_2
I0609 14:01:57.112591 26996 net.cpp:150] Setting up conv6_2
I0609 14:01:57.112607 26996 net.cpp:157] Top shape: 4 512 10 10 (204800)
I0609 14:01:57.112609 26996 net.cpp:165] Memory required for data: 935620640
I0609 14:01:57.112635 26996 layer_factory.hpp:77] Creating layer conv6_2_relu
I0609 14:01:57.112645 26996 net.cpp:100] Creating Layer conv6_2_relu
I0609 14:01:57.112649 26996 net.cpp:434] conv6_2_relu <- conv6_2
I0609 14:01:57.112654 26996 net.cpp:395] conv6_2_relu -> conv6_2 (in-place)
I0609 14:01:57.112840 26996 net.cpp:150] Setting up conv6_2_relu
I0609 14:01:57.112848 26996 net.cpp:157] Top shape: 4 512 10 10 (204800)
I0609 14:01:57.112849 26996 net.cpp:165] Memory required for data: 936439840
I0609 14:01:57.112851 26996 layer_factory.hpp:77] Creating layer conv6_2_conv6_2_relu_0_split
I0609 14:01:57.112855 26996 net.cpp:100] Creating Layer conv6_2_conv6_2_relu_0_split
I0609 14:01:57.112882 26996 net.cpp:434] conv6_2_conv6_2_relu_0_split <- conv6_2
I0609 14:01:57.112887 26996 net.cpp:408] conv6_2_conv6_2_relu_0_split -> conv6_2_conv6_2_relu_0_split_0
I0609 14:01:57.112892 26996 net.cpp:408] conv6_2_conv6_2_relu_0_split -> conv6_2_conv6_2_relu_0_split_1
I0609 14:01:57.112913 26996 net.cpp:408] conv6_2_conv6_2_relu_0_split -> conv6_2_conv6_2_relu_0_split_2
I0609 14:01:57.112920 26996 net.cpp:408] conv6_2_conv6_2_relu_0_split -> conv6_2_conv6_2_relu_0_split_3
I0609 14:01:57.113008 26996 net.cpp:150] Setting up conv6_2_conv6_2_relu_0_split
I0609 14:01:57.113013 26996 net.cpp:157] Top shape: 4 512 10 10 (204800)
I0609 14:01:57.113014 26996 net.cpp:157] Top shape: 4 512 10 10 (204800)
I0609 14:01:57.113018 26996 net.cpp:157] Top shape: 4 512 10 10 (204800)
I0609 14:01:57.113019 26996 net.cpp:157] Top shape: 4 512 10 10 (204800)
I0609 14:01:57.113021 26996 net.cpp:165] Memory required for data: 939716640
I0609 14:01:57.113023 26996 layer_factory.hpp:77] Creating layer conv7_1
I0609 14:01:57.113045 26996 net.cpp:100] Creating Layer conv7_1
I0609 14:01:57.113049 26996 net.cpp:434] conv7_1 <- conv6_2_conv6_2_relu_0_split_0
I0609 14:01:57.113054 26996 net.cpp:408] conv7_1 -> conv7_1
I0609 14:01:57.114490 26996 net.cpp:150] Setting up conv7_1
I0609 14:01:57.114500 26996 net.cpp:157] Top shape: 4 128 10 10 (51200)
I0609 14:01:57.114503 26996 net.cpp:165] Memory required for data: 939921440
I0609 14:01:57.114507 26996 layer_factory.hpp:77] Creating layer conv7_1_relu
I0609 14:01:57.114527 26996 net.cpp:100] Creating Layer conv7_1_relu
I0609 14:01:57.114531 26996 net.cpp:434] conv7_1_relu <- conv7_1
I0609 14:01:57.114533 26996 net.cpp:395] conv7_1_relu -> conv7_1 (in-place)
I0609 14:01:57.114697 26996 net.cpp:150] Setting up conv7_1_relu
I0609 14:01:57.114703 26996 net.cpp:157] Top shape: 4 128 10 10 (51200)
I0609 14:01:57.114706 26996 net.cpp:165] Memory required for data: 940126240
I0609 14:01:57.114707 26996 layer_factory.hpp:77] Creating layer conv7_2
I0609 14:01:57.114714 26996 net.cpp:100] Creating Layer conv7_2
I0609 14:01:57.114717 26996 net.cpp:434] conv7_2 <- conv7_1
I0609 14:01:57.114737 26996 net.cpp:408] conv7_2 -> conv7_2
I0609 14:01:57.118044 26996 net.cpp:150] Setting up conv7_2
I0609 14:01:57.118058 26996 net.cpp:157] Top shape: 4 256 5 5 (25600)
I0609 14:01:57.118060 26996 net.cpp:165] Memory required for data: 940228640
I0609 14:01:57.118067 26996 layer_factory.hpp:77] Creating layer conv7_2_relu
I0609 14:01:57.118086 26996 net.cpp:100] Creating Layer conv7_2_relu
I0609 14:01:57.118089 26996 net.cpp:434] conv7_2_relu <- conv7_2
I0609 14:01:57.118094 26996 net.cpp:395] conv7_2_relu -> conv7_2 (in-place)
I0609 14:01:57.118257 26996 net.cpp:150] Setting up conv7_2_relu
I0609 14:01:57.118263 26996 net.cpp:157] Top shape: 4 256 5 5 (25600)
I0609 14:01:57.118265 26996 net.cpp:165] Memory required for data: 940331040
I0609 14:01:57.118268 26996 layer_factory.hpp:77] Creating layer conv7_2_conv7_2_relu_0_split
I0609 14:01:57.118273 26996 net.cpp:100] Creating Layer conv7_2_conv7_2_relu_0_split
I0609 14:01:57.118274 26996 net.cpp:434] conv7_2_conv7_2_relu_0_split <- conv7_2
I0609 14:01:57.118293 26996 net.cpp:408] conv7_2_conv7_2_relu_0_split -> conv7_2_conv7_2_relu_0_split_0
I0609 14:01:57.118297 26996 net.cpp:408] conv7_2_conv7_2_relu_0_split -> conv7_2_conv7_2_relu_0_split_1
I0609 14:01:57.118302 26996 net.cpp:408] conv7_2_conv7_2_relu_0_split -> conv7_2_conv7_2_relu_0_split_2
I0609 14:01:57.118309 26996 net.cpp:408] conv7_2_conv7_2_relu_0_split -> conv7_2_conv7_2_relu_0_split_3
I0609 14:01:57.118371 26996 net.cpp:150] Setting up conv7_2_conv7_2_relu_0_split
I0609 14:01:57.118377 26996 net.cpp:157] Top shape: 4 256 5 5 (25600)
I0609 14:01:57.118381 26996 net.cpp:157] Top shape: 4 256 5 5 (25600)
I0609 14:01:57.118383 26996 net.cpp:157] Top shape: 4 256 5 5 (25600)
I0609 14:01:57.118386 26996 net.cpp:157] Top shape: 4 256 5 5 (25600)
I0609 14:01:57.118388 26996 net.cpp:165] Memory required for data: 940740640
I0609 14:01:57.118391 26996 layer_factory.hpp:77] Creating layer conv8_1
I0609 14:01:57.118424 26996 net.cpp:100] Creating Layer conv8_1
I0609 14:01:57.118427 26996 net.cpp:434] conv8_1 <- conv7_2_conv7_2_relu_0_split_0
I0609 14:01:57.118432 26996 net.cpp:408] conv8_1 -> conv8_1
I0609 14:01:57.119806 26996 net.cpp:150] Setting up conv8_1
I0609 14:01:57.119815 26996 net.cpp:157] Top shape: 4 128 5 5 (12800)
I0609 14:01:57.119818 26996 net.cpp:165] Memory required for data: 940791840
I0609 14:01:57.119822 26996 layer_factory.hpp:77] Creating layer conv8_1_relu
I0609 14:01:57.119828 26996 net.cpp:100] Creating Layer conv8_1_relu
I0609 14:01:57.119830 26996 net.cpp:434] conv8_1_relu <- conv8_1
I0609 14:01:57.119837 26996 net.cpp:395] conv8_1_relu -> conv8_1 (in-place)
I0609 14:01:57.120456 26996 net.cpp:150] Setting up conv8_1_relu
I0609 14:01:57.120466 26996 net.cpp:157] Top shape: 4 128 5 5 (12800)
I0609 14:01:57.120468 26996 net.cpp:165] Memory required for data: 940843040
I0609 14:01:57.120471 26996 layer_factory.hpp:77] Creating layer conv8_2
I0609 14:01:57.120478 26996 net.cpp:100] Creating Layer conv8_2
I0609 14:01:57.120482 26996 net.cpp:434] conv8_2 <- conv8_1
I0609 14:01:57.120488 26996 net.cpp:408] conv8_2 -> conv8_2
I0609 14:01:57.123708 26996 net.cpp:150] Setting up conv8_2
I0609 14:01:57.123720 26996 net.cpp:157] Top shape: 4 256 3 3 (9216)
I0609 14:01:57.123723 26996 net.cpp:165] Memory required for data: 940879904
I0609 14:01:57.123729 26996 layer_factory.hpp:77] Creating layer conv8_2_relu
I0609 14:01:57.123734 26996 net.cpp:100] Creating Layer conv8_2_relu
I0609 14:01:57.123739 26996 net.cpp:434] conv8_2_relu <- conv8_2
I0609 14:01:57.123744 26996 net.cpp:395] conv8_2_relu -> conv8_2 (in-place)
I0609 14:01:57.123880 26996 net.cpp:150] Setting up conv8_2_relu
I0609 14:01:57.123886 26996 net.cpp:157] Top shape: 4 256 3 3 (9216)
I0609 14:01:57.123889 26996 net.cpp:165] Memory required for data: 940916768
I0609 14:01:57.123891 26996 layer_factory.hpp:77] Creating layer conv8_2_conv8_2_relu_0_split
I0609 14:01:57.123896 26996 net.cpp:100] Creating Layer conv8_2_conv8_2_relu_0_split
I0609 14:01:57.123899 26996 net.cpp:434] conv8_2_conv8_2_relu_0_split <- conv8_2
I0609 14:01:57.123904 26996 net.cpp:408] conv8_2_conv8_2_relu_0_split -> conv8_2_conv8_2_relu_0_split_0
I0609 14:01:57.123911 26996 net.cpp:408] conv8_2_conv8_2_relu_0_split -> conv8_2_conv8_2_relu_0_split_1
I0609 14:01:57.123916 26996 net.cpp:408] conv8_2_conv8_2_relu_0_split -> conv8_2_conv8_2_relu_0_split_2
I0609 14:01:57.123921 26996 net.cpp:408] conv8_2_conv8_2_relu_0_split -> conv8_2_conv8_2_relu_0_split_3
I0609 14:01:57.123986 26996 net.cpp:150] Setting up conv8_2_conv8_2_relu_0_split
I0609 14:01:57.123991 26996 net.cpp:157] Top shape: 4 256 3 3 (9216)
I0609 14:01:57.123994 26996 net.cpp:157] Top shape: 4 256 3 3 (9216)
I0609 14:01:57.123997 26996 net.cpp:157] Top shape: 4 256 3 3 (9216)
I0609 14:01:57.123999 26996 net.cpp:157] Top shape: 4 256 3 3 (9216)
I0609 14:01:57.124001 26996 net.cpp:165] Memory required for data: 941064224
I0609 14:01:57.124003 26996 layer_factory.hpp:77] Creating layer conv9_1
I0609 14:01:57.124011 26996 net.cpp:100] Creating Layer conv9_1
I0609 14:01:57.124014 26996 net.cpp:434] conv9_1 <- conv8_2_conv8_2_relu_0_split_0
I0609 14:01:57.124020 26996 net.cpp:408] conv9_1 -> conv9_1
I0609 14:01:57.125344 26996 net.cpp:150] Setting up conv9_1
I0609 14:01:57.125355 26996 net.cpp:157] Top shape: 4 128 3 3 (4608)
I0609 14:01:57.125356 26996 net.cpp:165] Memory required for data: 941082656
I0609 14:01:57.125361 26996 layer_factory.hpp:77] Creating layer conv9_1_relu
I0609 14:01:57.125365 26996 net.cpp:100] Creating Layer conv9_1_relu
I0609 14:01:57.125382 26996 net.cpp:434] conv9_1_relu <- conv9_1
I0609 14:01:57.125386 26996 net.cpp:395] conv9_1_relu -> conv9_1 (in-place)
I0609 14:01:57.125546 26996 net.cpp:150] Setting up conv9_1_relu
I0609 14:01:57.125552 26996 net.cpp:157] Top shape: 4 128 3 3 (4608)
I0609 14:01:57.125555 26996 net.cpp:165] Memory required for data: 941101088
I0609 14:01:57.125556 26996 layer_factory.hpp:77] Creating layer conv9_2
I0609 14:01:57.125587 26996 net.cpp:100] Creating Layer conv9_2
I0609 14:01:57.125591 26996 net.cpp:434] conv9_2 <- conv9_1
I0609 14:01:57.125609 26996 net.cpp:408] conv9_2 -> conv9_2
I0609 14:01:57.129724 26996 net.cpp:150] Setting up conv9_2
I0609 14:01:57.129736 26996 net.cpp:157] Top shape: 4 256 1 1 (1024)
I0609 14:01:57.129739 26996 net.cpp:165] Memory required for data: 941105184
I0609 14:01:57.129742 26996 layer_factory.hpp:77] Creating layer conv9_2_relu
I0609 14:01:57.129761 26996 net.cpp:100] Creating Layer conv9_2_relu
I0609 14:01:57.129765 26996 net.cpp:434] conv9_2_relu <- conv9_2
I0609 14:01:57.129768 26996 net.cpp:395] conv9_2_relu -> conv9_2 (in-place)
I0609 14:01:57.129935 26996 net.cpp:150] Setting up conv9_2_relu
I0609 14:01:57.129941 26996 net.cpp:157] Top shape: 4 256 1 1 (1024)
I0609 14:01:57.129943 26996 net.cpp:165] Memory required for data: 941109280
I0609 14:01:57.129946 26996 layer_factory.hpp:77] Creating layer conv9_2_conv9_2_relu_0_split
I0609 14:01:57.129950 26996 net.cpp:100] Creating Layer conv9_2_conv9_2_relu_0_split
I0609 14:01:57.129951 26996 net.cpp:434] conv9_2_conv9_2_relu_0_split <- conv9_2
I0609 14:01:57.129971 26996 net.cpp:408] conv9_2_conv9_2_relu_0_split -> conv9_2_conv9_2_relu_0_split_0
I0609 14:01:57.129976 26996 net.cpp:408] conv9_2_conv9_2_relu_0_split -> conv9_2_conv9_2_relu_0_split_1
I0609 14:01:57.129994 26996 net.cpp:408] conv9_2_conv9_2_relu_0_split -> conv9_2_conv9_2_relu_0_split_2
I0609 14:01:57.130074 26996 net.cpp:150] Setting up conv9_2_conv9_2_relu_0_split
I0609 14:01:57.130079 26996 net.cpp:157] Top shape: 4 256 1 1 (1024)
I0609 14:01:57.130081 26996 net.cpp:157] Top shape: 4 256 1 1 (1024)
I0609 14:01:57.130084 26996 net.cpp:157] Top shape: 4 256 1 1 (1024)
I0609 14:01:57.130085 26996 net.cpp:165] Memory required for data: 941121568
I0609 14:01:57.130087 26996 layer_factory.hpp:77] Creating layer conv4_3_norm
I0609 14:01:57.130091 26996 net.cpp:100] Creating Layer conv4_3_norm
I0609 14:01:57.130095 26996 net.cpp:434] conv4_3_norm <- conv4_3_relu4_3_0_split_1
I0609 14:01:57.130098 26996 net.cpp:408] conv4_3_norm -> conv4_3_norm
I0609 14:01:57.130281 26996 net.cpp:150] Setting up conv4_3_norm
I0609 14:01:57.130286 26996 net.cpp:157] Top shape: 4 512 38 38 (2957312)
I0609 14:01:57.130288 26996 net.cpp:165] Memory required for data: 952950816
I0609 14:01:57.130291 26996 layer_factory.hpp:77] Creating layer conv4_3_norm_conv4_3_norm_0_split
I0609 14:01:57.130295 26996 net.cpp:100] Creating Layer conv4_3_norm_conv4_3_norm_0_split
I0609 14:01:57.130296 26996 net.cpp:434] conv4_3_norm_conv4_3_norm_0_split <- conv4_3_norm
I0609 14:01:57.130316 26996 net.cpp:408] conv4_3_norm_conv4_3_norm_0_split -> conv4_3_norm_conv4_3_norm_0_split_0
I0609 14:01:57.130321 26996 net.cpp:408] conv4_3_norm_conv4_3_norm_0_split -> conv4_3_norm_conv4_3_norm_0_split_1
I0609 14:01:57.130326 26996 net.cpp:408] conv4_3_norm_conv4_3_norm_0_split -> conv4_3_norm_conv4_3_norm_0_split_2
I0609 14:01:57.130405 26996 net.cpp:150] Setting up conv4_3_norm_conv4_3_norm_0_split
I0609 14:01:57.130409 26996 net.cpp:157] Top shape: 4 512 38 38 (2957312)
I0609 14:01:57.130412 26996 net.cpp:157] Top shape: 4 512 38 38 (2957312)
I0609 14:01:57.130415 26996 net.cpp:157] Top shape: 4 512 38 38 (2957312)
I0609 14:01:57.130416 26996 net.cpp:165] Memory required for data: 988438560
I0609 14:01:57.130419 26996 layer_factory.hpp:77] Creating layer conv4_3_norm_mbox_loc
I0609 14:01:57.130441 26996 net.cpp:100] Creating Layer conv4_3_norm_mbox_loc
I0609 14:01:57.130445 26996 net.cpp:434] conv4_3_norm_mbox_loc <- conv4_3_norm_conv4_3_norm_0_split_0
I0609 14:01:57.130462 26996 net.cpp:408] conv4_3_norm_mbox_loc -> conv4_3_norm_mbox_loc
I0609 14:01:57.132269 26996 net.cpp:150] Setting up conv4_3_norm_mbox_loc
I0609 14:01:57.132278 26996 net.cpp:157] Top shape: 4 16 38 38 (92416)
I0609 14:01:57.132282 26996 net.cpp:165] Memory required for data: 988808224
I0609 14:01:57.132287 26996 layer_factory.hpp:77] Creating layer conv4_3_norm_mbox_loc_perm
I0609 14:01:57.132292 26996 net.cpp:100] Creating Layer conv4_3_norm_mbox_loc_perm
I0609 14:01:57.132320 26996 net.cpp:434] conv4_3_norm_mbox_loc_perm <- conv4_3_norm_mbox_loc
I0609 14:01:57.132325 26996 net.cpp:408] conv4_3_norm_mbox_loc_perm -> conv4_3_norm_mbox_loc_perm
I0609 14:01:57.132467 26996 net.cpp:150] Setting up conv4_3_norm_mbox_loc_perm
I0609 14:01:57.132472 26996 net.cpp:157] Top shape: 4 38 38 16 (92416)
I0609 14:01:57.132473 26996 net.cpp:165] Memory required for data: 989177888
I0609 14:01:57.132475 26996 layer_factory.hpp:77] Creating layer conv4_3_norm_mbox_loc_flat
I0609 14:01:57.132480 26996 net.cpp:100] Creating Layer conv4_3_norm_mbox_loc_flat
I0609 14:01:57.132483 26996 net.cpp:434] conv4_3_norm_mbox_loc_flat <- conv4_3_norm_mbox_loc_perm
I0609 14:01:57.132503 26996 net.cpp:408] conv4_3_norm_mbox_loc_flat -> conv4_3_norm_mbox_loc_flat
I0609 14:01:57.132560 26996 net.cpp:150] Setting up conv4_3_norm_mbox_loc_flat
I0609 14:01:57.132565 26996 net.cpp:157] Top shape: 4 23104 (92416)
I0609 14:01:57.132580 26996 net.cpp:165] Memory required for data: 989547552
I0609 14:01:57.132582 26996 layer_factory.hpp:77] Creating layer conv4_3_norm_mbox_conf
I0609 14:01:57.132594 26996 net.cpp:100] Creating Layer conv4_3_norm_mbox_conf
I0609 14:01:57.132597 26996 net.cpp:434] conv4_3_norm_mbox_conf <- conv4_3_norm_conv4_3_norm_0_split_1
I0609 14:01:57.132601 26996 net.cpp:408] conv4_3_norm_mbox_conf -> conv4_3_norm_mbox_conf
I0609 14:01:57.134366 26996 net.cpp:150] Setting up conv4_3_norm_mbox_conf
I0609 14:01:57.134374 26996 net.cpp:157] Top shape: 4 8 38 38 (46208)
I0609 14:01:57.134377 26996 net.cpp:165] Memory required for data: 989732384
I0609 14:01:57.134382 26996 layer_factory.hpp:77] Creating layer conv4_3_norm_mbox_conf_perm
I0609 14:01:57.134402 26996 net.cpp:100] Creating Layer conv4_3_norm_mbox_conf_perm
I0609 14:01:57.134405 26996 net.cpp:434] conv4_3_norm_mbox_conf_perm <- conv4_3_norm_mbox_conf
I0609 14:01:57.134409 26996 net.cpp:408] conv4_3_norm_mbox_conf_perm -> conv4_3_norm_mbox_conf_perm
I0609 14:01:57.134559 26996 net.cpp:150] Setting up conv4_3_norm_mbox_conf_perm
I0609 14:01:57.134564 26996 net.cpp:157] Top shape: 4 38 38 8 (46208)
I0609 14:01:57.134567 26996 net.cpp:165] Memory required for data: 989917216
I0609 14:01:57.134568 26996 layer_factory.hpp:77] Creating layer conv4_3_norm_mbox_conf_flat
I0609 14:01:57.134572 26996 net.cpp:100] Creating Layer conv4_3_norm_mbox_conf_flat
I0609 14:01:57.134574 26996 net.cpp:434] conv4_3_norm_mbox_conf_flat <- conv4_3_norm_mbox_conf_perm
I0609 14:01:57.134593 26996 net.cpp:408] conv4_3_norm_mbox_conf_flat -> conv4_3_norm_mbox_conf_flat
I0609 14:01:57.134614 26996 net.cpp:150] Setting up conv4_3_norm_mbox_conf_flat
I0609 14:01:57.134634 26996 net.cpp:157] Top shape: 4 11552 (46208)
I0609 14:01:57.134635 26996 net.cpp:165] Memory required for data: 990102048
I0609 14:01:57.134639 26996 layer_factory.hpp:77] Creating layer conv4_3_norm_mbox_priorbox
I0609 14:01:57.134655 26996 net.cpp:100] Creating Layer conv4_3_norm_mbox_priorbox
I0609 14:01:57.134657 26996 net.cpp:434] conv4_3_norm_mbox_priorbox <- conv4_3_norm_conv4_3_norm_0_split_2
I0609 14:01:57.134675 26996 net.cpp:434] conv4_3_norm_mbox_priorbox <- data_data_0_split_1
I0609 14:01:57.134681 26996 net.cpp:408] conv4_3_norm_mbox_priorbox -> conv4_3_norm_mbox_priorbox
I0609 14:01:57.134745 26996 net.cpp:150] Setting up conv4_3_norm_mbox_priorbox
I0609 14:01:57.134750 26996 net.cpp:157] Top shape: 1 2 23104 (46208)
I0609 14:01:57.134752 26996 net.cpp:165] Memory required for data: 990286880
I0609 14:01:57.134754 26996 layer_factory.hpp:77] Creating layer fc7_mbox_loc
I0609 14:01:57.134760 26996 net.cpp:100] Creating Layer fc7_mbox_loc
I0609 14:01:57.134763 26996 net.cpp:434] fc7_mbox_loc <- fc7_relu7_0_split_1
I0609 14:01:57.134768 26996 net.cpp:408] fc7_mbox_loc -> fc7_mbox_loc
I0609 14:01:57.137234 26996 net.cpp:150] Setting up fc7_mbox_loc
I0609 14:01:57.137243 26996 net.cpp:157] Top shape: 4 24 19 19 (34656)
I0609 14:01:57.137245 26996 net.cpp:165] Memory required for data: 990425504
I0609 14:01:57.137249 26996 layer_factory.hpp:77] Creating layer fc7_mbox_loc_perm
I0609 14:01:57.137277 26996 net.cpp:100] Creating Layer fc7_mbox_loc_perm
I0609 14:01:57.137280 26996 net.cpp:434] fc7_mbox_loc_perm <- fc7_mbox_loc
I0609 14:01:57.137285 26996 net.cpp:408] fc7_mbox_loc_perm -> fc7_mbox_loc_perm
I0609 14:01:57.137428 26996 net.cpp:150] Setting up fc7_mbox_loc_perm
I0609 14:01:57.137435 26996 net.cpp:157] Top shape: 4 19 19 24 (34656)
I0609 14:01:57.137437 26996 net.cpp:165] Memory required for data: 990564128
I0609 14:01:57.137439 26996 layer_factory.hpp:77] Creating layer fc7_mbox_loc_flat
I0609 14:01:57.137442 26996 net.cpp:100] Creating Layer fc7_mbox_loc_flat
I0609 14:01:57.137445 26996 net.cpp:434] fc7_mbox_loc_flat <- fc7_mbox_loc_perm
I0609 14:01:57.137465 26996 net.cpp:408] fc7_mbox_loc_flat -> fc7_mbox_loc_flat
I0609 14:01:57.137513 26996 net.cpp:150] Setting up fc7_mbox_loc_flat
I0609 14:01:57.137519 26996 net.cpp:157] Top shape: 4 8664 (34656)
I0609 14:01:57.137536 26996 net.cpp:165] Memory required for data: 990702752
I0609 14:01:57.137537 26996 layer_factory.hpp:77] Creating layer fc7_mbox_conf
I0609 14:01:57.137557 26996 net.cpp:100] Creating Layer fc7_mbox_conf
I0609 14:01:57.137560 26996 net.cpp:434] fc7_mbox_conf <- fc7_relu7_0_split_2
I0609 14:01:57.137564 26996 net.cpp:408] fc7_mbox_conf -> fc7_mbox_conf
I0609 14:01:57.139547 26996 net.cpp:150] Setting up fc7_mbox_conf
I0609 14:01:57.139556 26996 net.cpp:157] Top shape: 4 12 19 19 (17328)
I0609 14:01:57.139559 26996 net.cpp:165] Memory required for data: 990772064
I0609 14:01:57.139564 26996 layer_factory.hpp:77] Creating layer fc7_mbox_conf_perm
I0609 14:01:57.139569 26996 net.cpp:100] Creating Layer fc7_mbox_conf_perm
I0609 14:01:57.139571 26996 net.cpp:434] fc7_mbox_conf_perm <- fc7_mbox_conf
I0609 14:01:57.139590 26996 net.cpp:408] fc7_mbox_conf_perm -> fc7_mbox_conf_perm
I0609 14:01:57.139732 26996 net.cpp:150] Setting up fc7_mbox_conf_perm
I0609 14:01:57.139739 26996 net.cpp:157] Top shape: 4 19 19 12 (17328)
I0609 14:01:57.139740 26996 net.cpp:165] Memory required for data: 990841376
I0609 14:01:57.139741 26996 layer_factory.hpp:77] Creating layer fc7_mbox_conf_flat
I0609 14:01:57.139745 26996 net.cpp:100] Creating Layer fc7_mbox_conf_flat
I0609 14:01:57.139747 26996 net.cpp:434] fc7_mbox_conf_flat <- fc7_mbox_conf_perm
I0609 14:01:57.139766 26996 net.cpp:408] fc7_mbox_conf_flat -> fc7_mbox_conf_flat
I0609 14:01:57.139801 26996 net.cpp:150] Setting up fc7_mbox_conf_flat
I0609 14:01:57.139807 26996 net.cpp:157] Top shape: 4 4332 (17328)
I0609 14:01:57.139822 26996 net.cpp:165] Memory required for data: 990910688
I0609 14:01:57.139824 26996 layer_factory.hpp:77] Creating layer fc7_mbox_priorbox
I0609 14:01:57.139828 26996 net.cpp:100] Creating Layer fc7_mbox_priorbox
I0609 14:01:57.139830 26996 net.cpp:434] fc7_mbox_priorbox <- fc7_relu7_0_split_3
I0609 14:01:57.139848 26996 net.cpp:434] fc7_mbox_priorbox <- data_data_0_split_2
I0609 14:01:57.139853 26996 net.cpp:408] fc7_mbox_priorbox -> fc7_mbox_priorbox
I0609 14:01:57.139915 26996 net.cpp:150] Setting up fc7_mbox_priorbox
I0609 14:01:57.139936 26996 net.cpp:157] Top shape: 1 2 8664 (17328)
I0609 14:01:57.139938 26996 net.cpp:165] Memory required for data: 990980000
I0609 14:01:57.139940 26996 layer_factory.hpp:77] Creating layer conv6_2_mbox_loc
I0609 14:01:57.139946 26996 net.cpp:100] Creating Layer conv6_2_mbox_loc
I0609 14:01:57.139950 26996 net.cpp:434] conv6_2_mbox_loc <- conv6_2_conv6_2_relu_0_split_1
I0609 14:01:57.139953 26996 net.cpp:408] conv6_2_mbox_loc -> conv6_2_mbox_loc
I0609 14:01:57.141948 26996 net.cpp:150] Setting up conv6_2_mbox_loc
I0609 14:01:57.141957 26996 net.cpp:157] Top shape: 4 24 10 10 (9600)
I0609 14:01:57.141960 26996 net.cpp:165] Memory required for data: 991018400
I0609 14:01:57.141964 26996 layer_factory.hpp:77] Creating layer conv6_2_mbox_loc_perm
I0609 14:01:57.141984 26996 net.cpp:100] Creating Layer conv6_2_mbox_loc_perm
I0609 14:01:57.141988 26996 net.cpp:434] conv6_2_mbox_loc_perm <- conv6_2_mbox_loc
I0609 14:01:57.141993 26996 net.cpp:408] conv6_2_mbox_loc_perm -> conv6_2_mbox_loc_perm
I0609 14:01:57.142132 26996 net.cpp:150] Setting up conv6_2_mbox_loc_perm
I0609 14:01:57.142144 26996 net.cpp:157] Top shape: 4 10 10 24 (9600)
I0609 14:01:57.142146 26996 net.cpp:165] Memory required for data: 991056800
I0609 14:01:57.142149 26996 layer_factory.hpp:77] Creating layer conv6_2_mbox_loc_flat
I0609 14:01:57.142153 26996 net.cpp:100] Creating Layer conv6_2_mbox_loc_flat
I0609 14:01:57.142154 26996 net.cpp:434] conv6_2_mbox_loc_flat <- conv6_2_mbox_loc_perm
I0609 14:01:57.142158 26996 net.cpp:408] conv6_2_mbox_loc_flat -> conv6_2_mbox_loc_flat
I0609 14:01:57.142208 26996 net.cpp:150] Setting up conv6_2_mbox_loc_flat
I0609 14:01:57.142213 26996 net.cpp:157] Top shape: 4 2400 (9600)
I0609 14:01:57.142215 26996 net.cpp:165] Memory required for data: 991095200
I0609 14:01:57.142217 26996 layer_factory.hpp:77] Creating layer conv6_2_mbox_conf
I0609 14:01:57.142236 26996 net.cpp:100] Creating Layer conv6_2_mbox_conf
I0609 14:01:57.142238 26996 net.cpp:434] conv6_2_mbox_conf <- conv6_2_conv6_2_relu_0_split_2
I0609 14:01:57.142243 26996 net.cpp:408] conv6_2_mbox_conf -> conv6_2_mbox_conf
I0609 14:01:57.144121 26996 net.cpp:150] Setting up conv6_2_mbox_conf
I0609 14:01:57.144131 26996 net.cpp:157] Top shape: 4 12 10 10 (4800)
I0609 14:01:57.144134 26996 net.cpp:165] Memory required for data: 991114400
I0609 14:01:57.144137 26996 layer_factory.hpp:77] Creating layer conv6_2_mbox_conf_perm
I0609 14:01:57.144141 26996 net.cpp:100] Creating Layer conv6_2_mbox_conf_perm
I0609 14:01:57.144160 26996 net.cpp:434] conv6_2_mbox_conf_perm <- conv6_2_mbox_conf
I0609 14:01:57.144165 26996 net.cpp:408] conv6_2_mbox_conf_perm -> conv6_2_mbox_conf_perm
I0609 14:01:57.144302 26996 net.cpp:150] Setting up conv6_2_mbox_conf_perm
I0609 14:01:57.144307 26996 net.cpp:157] Top shape: 4 10 10 12 (4800)
I0609 14:01:57.144309 26996 net.cpp:165] Memory required for data: 991133600
I0609 14:01:57.144311 26996 layer_factory.hpp:77] Creating layer conv6_2_mbox_conf_flat
I0609 14:01:57.144315 26996 net.cpp:100] Creating Layer conv6_2_mbox_conf_flat
I0609 14:01:57.144316 26996 net.cpp:434] conv6_2_mbox_conf_flat <- conv6_2_mbox_conf_perm
I0609 14:01:57.144321 26996 net.cpp:408] conv6_2_mbox_conf_flat -> conv6_2_mbox_conf_flat
I0609 14:01:57.144356 26996 net.cpp:150] Setting up conv6_2_mbox_conf_flat
I0609 14:01:57.144361 26996 net.cpp:157] Top shape: 4 1200 (4800)
I0609 14:01:57.144377 26996 net.cpp:165] Memory required for data: 991152800
I0609 14:01:57.144379 26996 layer_factory.hpp:77] Creating layer conv6_2_mbox_priorbox
I0609 14:01:57.144383 26996 net.cpp:100] Creating Layer conv6_2_mbox_priorbox
I0609 14:01:57.144398 26996 net.cpp:434] conv6_2_mbox_priorbox <- conv6_2_conv6_2_relu_0_split_3
I0609 14:01:57.144402 26996 net.cpp:434] conv6_2_mbox_priorbox <- data_data_0_split_3
I0609 14:01:57.144407 26996 net.cpp:408] conv6_2_mbox_priorbox -> conv6_2_mbox_priorbox
I0609 14:01:57.144475 26996 net.cpp:150] Setting up conv6_2_mbox_priorbox
I0609 14:01:57.144492 26996 net.cpp:157] Top shape: 1 2 2400 (4800)
I0609 14:01:57.144495 26996 net.cpp:165] Memory required for data: 991172000
I0609 14:01:57.144496 26996 layer_factory.hpp:77] Creating layer conv7_2_mbox_loc
I0609 14:01:57.144517 26996 net.cpp:100] Creating Layer conv7_2_mbox_loc
I0609 14:01:57.144520 26996 net.cpp:434] conv7_2_mbox_loc <- conv7_2_conv7_2_relu_0_split_1
I0609 14:01:57.144537 26996 net.cpp:408] conv7_2_mbox_loc -> conv7_2_mbox_loc
I0609 14:01:57.145938 26996 net.cpp:150] Setting up conv7_2_mbox_loc
I0609 14:01:57.145947 26996 net.cpp:157] Top shape: 4 24 5 5 (2400)
I0609 14:01:57.145949 26996 net.cpp:165] Memory required for data: 991181600
I0609 14:01:57.145953 26996 layer_factory.hpp:77] Creating layer conv7_2_mbox_loc_perm
I0609 14:01:57.145958 26996 net.cpp:100] Creating Layer conv7_2_mbox_loc_perm
I0609 14:01:57.145977 26996 net.cpp:434] conv7_2_mbox_loc_perm <- conv7_2_mbox_loc
I0609 14:01:57.145979 26996 net.cpp:408] conv7_2_mbox_loc_perm -> conv7_2_mbox_loc_perm
I0609 14:01:57.146118 26996 net.cpp:150] Setting up conv7_2_mbox_loc_perm
I0609 14:01:57.146124 26996 net.cpp:157] Top shape: 4 5 5 24 (2400)
I0609 14:01:57.146132 26996 net.cpp:165] Memory required for data: 991191200
I0609 14:01:57.146134 26996 layer_factory.hpp:77] Creating layer conv7_2_mbox_loc_flat
I0609 14:01:57.146154 26996 net.cpp:100] Creating Layer conv7_2_mbox_loc_flat
I0609 14:01:57.146157 26996 net.cpp:434] conv7_2_mbox_loc_flat <- conv7_2_mbox_loc_perm
I0609 14:01:57.146162 26996 net.cpp:408] conv7_2_mbox_loc_flat -> conv7_2_mbox_loc_flat
I0609 14:01:57.146211 26996 net.cpp:150] Setting up conv7_2_mbox_loc_flat
I0609 14:01:57.146216 26996 net.cpp:157] Top shape: 4 600 (2400)
I0609 14:01:57.146219 26996 net.cpp:165] Memory required for data: 991200800
I0609 14:01:57.146220 26996 layer_factory.hpp:77] Creating layer conv7_2_mbox_conf
I0609 14:01:57.146239 26996 net.cpp:100] Creating Layer conv7_2_mbox_conf
I0609 14:01:57.146242 26996 net.cpp:434] conv7_2_mbox_conf <- conv7_2_conv7_2_relu_0_split_2
I0609 14:01:57.146248 26996 net.cpp:408] conv7_2_mbox_conf -> conv7_2_mbox_conf
I0609 14:01:57.147896 26996 net.cpp:150] Setting up conv7_2_mbox_conf
I0609 14:01:57.147904 26996 net.cpp:157] Top shape: 4 12 5 5 (1200)
I0609 14:01:57.147907 26996 net.cpp:165] Memory required for data: 991205600
I0609 14:01:57.147910 26996 layer_factory.hpp:77] Creating layer conv7_2_mbox_conf_perm
I0609 14:01:57.147915 26996 net.cpp:100] Creating Layer conv7_2_mbox_conf_perm
I0609 14:01:57.147933 26996 net.cpp:434] conv7_2_mbox_conf_perm <- conv7_2_mbox_conf
I0609 14:01:57.147938 26996 net.cpp:408] conv7_2_mbox_conf_perm -> conv7_2_mbox_conf_perm
I0609 14:01:57.148092 26996 net.cpp:150] Setting up conv7_2_mbox_conf_perm
I0609 14:01:57.148097 26996 net.cpp:157] Top shape: 4 5 5 12 (1200)
I0609 14:01:57.148099 26996 net.cpp:165] Memory required for data: 991210400
I0609 14:01:57.148100 26996 layer_factory.hpp:77] Creating layer conv7_2_mbox_conf_flat
I0609 14:01:57.148105 26996 net.cpp:100] Creating Layer conv7_2_mbox_conf_flat
I0609 14:01:57.148108 26996 net.cpp:434] conv7_2_mbox_conf_flat <- conv7_2_mbox_conf_perm
I0609 14:01:57.148125 26996 net.cpp:408] conv7_2_mbox_conf_flat -> conv7_2_mbox_conf_flat
I0609 14:01:57.148146 26996 net.cpp:150] Setting up conv7_2_mbox_conf_flat
I0609 14:01:57.148166 26996 net.cpp:157] Top shape: 4 300 (1200)
I0609 14:01:57.148167 26996 net.cpp:165] Memory required for data: 991215200
I0609 14:01:57.148169 26996 layer_factory.hpp:77] Creating layer conv7_2_mbox_priorbox
I0609 14:01:57.148187 26996 net.cpp:100] Creating Layer conv7_2_mbox_priorbox
I0609 14:01:57.148190 26996 net.cpp:434] conv7_2_mbox_priorbox <- conv7_2_conv7_2_relu_0_split_3
I0609 14:01:57.148208 26996 net.cpp:434] conv7_2_mbox_priorbox <- data_data_0_split_4
I0609 14:01:57.148211 26996 net.cpp:408] conv7_2_mbox_priorbox -> conv7_2_mbox_priorbox
I0609 14:01:57.148277 26996 net.cpp:150] Setting up conv7_2_mbox_priorbox
I0609 14:01:57.148283 26996 net.cpp:157] Top shape: 1 2 600 (1200)
I0609 14:01:57.148284 26996 net.cpp:165] Memory required for data: 991220000
I0609 14:01:57.148285 26996 layer_factory.hpp:77] Creating layer conv8_2_mbox_loc
I0609 14:01:57.148291 26996 net.cpp:100] Creating Layer conv8_2_mbox_loc
I0609 14:01:57.148294 26996 net.cpp:434] conv8_2_mbox_loc <- conv8_2_conv8_2_relu_0_split_1
I0609 14:01:57.148301 26996 net.cpp:408] conv8_2_mbox_loc -> conv8_2_mbox_loc
I0609 14:01:57.150056 26996 net.cpp:150] Setting up conv8_2_mbox_loc
I0609 14:01:57.150065 26996 net.cpp:157] Top shape: 4 16 3 3 (576)
I0609 14:01:57.150068 26996 net.cpp:165] Memory required for data: 991222304
I0609 14:01:57.150094 26996 layer_factory.hpp:77] Creating layer conv8_2_mbox_loc_perm
I0609 14:01:57.150099 26996 net.cpp:100] Creating Layer conv8_2_mbox_loc_perm
I0609 14:01:57.150102 26996 net.cpp:434] conv8_2_mbox_loc_perm <- conv8_2_mbox_loc
I0609 14:01:57.150107 26996 net.cpp:408] conv8_2_mbox_loc_perm -> conv8_2_mbox_loc_perm
I0609 14:01:57.150251 26996 net.cpp:150] Setting up conv8_2_mbox_loc_perm
I0609 14:01:57.150256 26996 net.cpp:157] Top shape: 4 3 3 16 (576)
I0609 14:01:57.150257 26996 net.cpp:165] Memory required for data: 991224608
I0609 14:01:57.150260 26996 layer_factory.hpp:77] Creating layer conv8_2_mbox_loc_flat
I0609 14:01:57.150285 26996 net.cpp:100] Creating Layer conv8_2_mbox_loc_flat
I0609 14:01:57.150288 26996 net.cpp:434] conv8_2_mbox_loc_flat <- conv8_2_mbox_loc_perm
I0609 14:01:57.150293 26996 net.cpp:408] conv8_2_mbox_loc_flat -> conv8_2_mbox_loc_flat
I0609 14:01:57.150346 26996 net.cpp:150] Setting up conv8_2_mbox_loc_flat
I0609 14:01:57.150349 26996 net.cpp:157] Top shape: 4 144 (576)
I0609 14:01:57.150352 26996 net.cpp:165] Memory required for data: 991226912
I0609 14:01:57.150367 26996 layer_factory.hpp:77] Creating layer conv8_2_mbox_conf
I0609 14:01:57.150373 26996 net.cpp:100] Creating Layer conv8_2_mbox_conf
I0609 14:01:57.150390 26996 net.cpp:434] conv8_2_mbox_conf <- conv8_2_conv8_2_relu_0_split_2
I0609 14:01:57.150394 26996 net.cpp:408] conv8_2_mbox_conf -> conv8_2_mbox_conf
I0609 14:01:57.152305 26996 net.cpp:150] Setting up conv8_2_mbox_conf
I0609 14:01:57.152315 26996 net.cpp:157] Top shape: 4 8 3 3 (288)
I0609 14:01:57.152318 26996 net.cpp:165] Memory required for data: 991228064
I0609 14:01:57.152321 26996 layer_factory.hpp:77] Creating layer conv8_2_mbox_conf_perm
I0609 14:01:57.152328 26996 net.cpp:100] Creating Layer conv8_2_mbox_conf_perm
I0609 14:01:57.152331 26996 net.cpp:434] conv8_2_mbox_conf_perm <- conv8_2_mbox_conf
I0609 14:01:57.152350 26996 net.cpp:408] conv8_2_mbox_conf_perm -> conv8_2_mbox_conf_perm
I0609 14:01:57.152468 26996 net.cpp:150] Setting up conv8_2_mbox_conf_perm
I0609 14:01:57.152472 26996 net.cpp:157] Top shape: 4 3 3 8 (288)
I0609 14:01:57.152475 26996 net.cpp:165] Memory required for data: 991229216
I0609 14:01:57.152477 26996 layer_factory.hpp:77] Creating layer conv8_2_mbox_conf_flat
I0609 14:01:57.152482 26996 net.cpp:100] Creating Layer conv8_2_mbox_conf_flat
I0609 14:01:57.152484 26996 net.cpp:434] conv8_2_mbox_conf_flat <- conv8_2_mbox_conf_perm
I0609 14:01:57.152488 26996 net.cpp:408] conv8_2_mbox_conf_flat -> conv8_2_mbox_conf_flat
I0609 14:01:57.152537 26996 net.cpp:150] Setting up conv8_2_mbox_conf_flat
I0609 14:01:57.152542 26996 net.cpp:157] Top shape: 4 72 (288)
I0609 14:01:57.152544 26996 net.cpp:165] Memory required for data: 991230368
I0609 14:01:57.152546 26996 layer_factory.hpp:77] Creating layer conv8_2_mbox_priorbox
I0609 14:01:57.152551 26996 net.cpp:100] Creating Layer conv8_2_mbox_priorbox
I0609 14:01:57.152554 26996 net.cpp:434] conv8_2_mbox_priorbox <- conv8_2_conv8_2_relu_0_split_3
I0609 14:01:57.152557 26996 net.cpp:434] conv8_2_mbox_priorbox <- data_data_0_split_5
I0609 14:01:57.152578 26996 net.cpp:408] conv8_2_mbox_priorbox -> conv8_2_mbox_priorbox
I0609 14:01:57.152631 26996 net.cpp:150] Setting up conv8_2_mbox_priorbox
I0609 14:01:57.152634 26996 net.cpp:157] Top shape: 1 2 144 (288)
I0609 14:01:57.152637 26996 net.cpp:165] Memory required for data: 991231520
I0609 14:01:57.152652 26996 layer_factory.hpp:77] Creating layer conv9_2_mbox_loc
I0609 14:01:57.152660 26996 net.cpp:100] Creating Layer conv9_2_mbox_loc
I0609 14:01:57.152678 26996 net.cpp:434] conv9_2_mbox_loc <- conv9_2_conv9_2_relu_0_split_0
I0609 14:01:57.152681 26996 net.cpp:408] conv9_2_mbox_loc -> conv9_2_mbox_loc
I0609 14:01:57.154969 26996 net.cpp:150] Setting up conv9_2_mbox_loc
I0609 14:01:57.154995 26996 net.cpp:157] Top shape: 4 16 1 1 (64)
I0609 14:01:57.154997 26996 net.cpp:165] Memory required for data: 991231776
I0609 14:01:57.155004 26996 layer_factory.hpp:77] Creating layer conv9_2_mbox_loc_perm
I0609 14:01:57.155009 26996 net.cpp:100] Creating Layer conv9_2_mbox_loc_perm
I0609 14:01:57.155014 26996 net.cpp:434] conv9_2_mbox_loc_perm <- conv9_2_mbox_loc
I0609 14:01:57.155019 26996 net.cpp:408] conv9_2_mbox_loc_perm -> conv9_2_mbox_loc_perm
I0609 14:01:57.155151 26996 net.cpp:150] Setting up conv9_2_mbox_loc_perm
I0609 14:01:57.155158 26996 net.cpp:157] Top shape: 4 1 1 16 (64)
I0609 14:01:57.155160 26996 net.cpp:165] Memory required for data: 991232032
I0609 14:01:57.155163 26996 layer_factory.hpp:77] Creating layer conv9_2_mbox_loc_flat
I0609 14:01:57.155181 26996 net.cpp:100] Creating Layer conv9_2_mbox_loc_flat
I0609 14:01:57.155185 26996 net.cpp:434] conv9_2_mbox_loc_flat <- conv9_2_mbox_loc_perm
I0609 14:01:57.155212 26996 net.cpp:408] conv9_2_mbox_loc_flat -> conv9_2_mbox_loc_flat
I0609 14:01:57.155236 26996 net.cpp:150] Setting up conv9_2_mbox_loc_flat
I0609 14:01:57.155241 26996 net.cpp:157] Top shape: 4 16 (64)
I0609 14:01:57.155242 26996 net.cpp:165] Memory required for data: 991232288
I0609 14:01:57.155244 26996 layer_factory.hpp:77] Creating layer conv9_2_mbox_conf
I0609 14:01:57.155251 26996 net.cpp:100] Creating Layer conv9_2_mbox_conf
I0609 14:01:57.155253 26996 net.cpp:434] conv9_2_mbox_conf <- conv9_2_conv9_2_relu_0_split_1
I0609 14:01:57.155261 26996 net.cpp:408] conv9_2_mbox_conf -> conv9_2_mbox_conf
I0609 14:01:57.156973 26996 net.cpp:150] Setting up conv9_2_mbox_conf
I0609 14:01:57.156982 26996 net.cpp:157] Top shape: 4 8 1 1 (32)
I0609 14:01:57.156985 26996 net.cpp:165] Memory required for data: 991232416
I0609 14:01:57.156990 26996 layer_factory.hpp:77] Creating layer conv9_2_mbox_conf_perm
I0609 14:01:57.156996 26996 net.cpp:100] Creating Layer conv9_2_mbox_conf_perm
I0609 14:01:57.156999 26996 net.cpp:434] conv9_2_mbox_conf_perm <- conv9_2_mbox_conf
I0609 14:01:57.157004 26996 net.cpp:408] conv9_2_mbox_conf_perm -> conv9_2_mbox_conf_perm
I0609 14:01:57.157110 26996 net.cpp:150] Setting up conv9_2_mbox_conf_perm
I0609 14:01:57.157116 26996 net.cpp:157] Top shape: 4 1 1 8 (32)
I0609 14:01:57.157119 26996 net.cpp:165] Memory required for data: 991232544
I0609 14:01:57.157121 26996 layer_factory.hpp:77] Creating layer conv9_2_mbox_conf_flat
I0609 14:01:57.157125 26996 net.cpp:100] Creating Layer conv9_2_mbox_conf_flat
I0609 14:01:57.157129 26996 net.cpp:434] conv9_2_mbox_conf_flat <- conv9_2_mbox_conf_perm
I0609 14:01:57.157132 26996 net.cpp:408] conv9_2_mbox_conf_flat -> conv9_2_mbox_conf_flat
I0609 14:01:57.157153 26996 net.cpp:150] Setting up conv9_2_mbox_conf_flat
I0609 14:01:57.157160 26996 net.cpp:157] Top shape: 4 8 (32)
I0609 14:01:57.157162 26996 net.cpp:165] Memory required for data: 991232672
I0609 14:01:57.157165 26996 layer_factory.hpp:77] Creating layer conv9_2_mbox_priorbox
I0609 14:01:57.157169 26996 net.cpp:100] Creating Layer conv9_2_mbox_priorbox
I0609 14:01:57.157172 26996 net.cpp:434] conv9_2_mbox_priorbox <- conv9_2_conv9_2_relu_0_split_2
I0609 14:01:57.157176 26996 net.cpp:434] conv9_2_mbox_priorbox <- data_data_0_split_6
I0609 14:01:57.157181 26996 net.cpp:408] conv9_2_mbox_priorbox -> conv9_2_mbox_priorbox
I0609 14:01:57.157204 26996 net.cpp:150] Setting up conv9_2_mbox_priorbox
I0609 14:01:57.157210 26996 net.cpp:157] Top shape: 1 2 16 (32)
I0609 14:01:57.157212 26996 net.cpp:165] Memory required for data: 991232800
I0609 14:01:57.157214 26996 layer_factory.hpp:77] Creating layer mbox_loc
I0609 14:01:57.157219 26996 net.cpp:100] Creating Layer mbox_loc
I0609 14:01:57.157223 26996 net.cpp:434] mbox_loc <- conv4_3_norm_mbox_loc_flat
I0609 14:01:57.157227 26996 net.cpp:434] mbox_loc <- fc7_mbox_loc_flat
I0609 14:01:57.157232 26996 net.cpp:434] mbox_loc <- conv6_2_mbox_loc_flat
I0609 14:01:57.157235 26996 net.cpp:434] mbox_loc <- conv7_2_mbox_loc_flat
I0609 14:01:57.157240 26996 net.cpp:434] mbox_loc <- conv8_2_mbox_loc_flat
I0609 14:01:57.157243 26996 net.cpp:434] mbox_loc <- conv9_2_mbox_loc_flat
I0609 14:01:57.157248 26996 net.cpp:408] mbox_loc -> mbox_loc
I0609 14:01:57.157270 26996 net.cpp:150] Setting up mbox_loc
I0609 14:01:57.157276 26996 net.cpp:157] Top shape: 4 34928 (139712)
I0609 14:01:57.157277 26996 net.cpp:165] Memory required for data: 991791648
I0609 14:01:57.157279 26996 layer_factory.hpp:77] Creating layer mbox_conf
I0609 14:01:57.157284 26996 net.cpp:100] Creating Layer mbox_conf
I0609 14:01:57.157286 26996 net.cpp:434] mbox_conf <- conv4_3_norm_mbox_conf_flat
I0609 14:01:57.157289 26996 net.cpp:434] mbox_conf <- fc7_mbox_conf_flat
I0609 14:01:57.157292 26996 net.cpp:434] mbox_conf <- conv6_2_mbox_conf_flat
I0609 14:01:57.157296 26996 net.cpp:434] mbox_conf <- conv7_2_mbox_conf_flat
I0609 14:01:57.157310 26996 net.cpp:434] mbox_conf <- conv8_2_mbox_conf_flat
I0609 14:01:57.157312 26996 net.cpp:434] mbox_conf <- conv9_2_mbox_conf_flat
I0609 14:01:57.157323 26996 net.cpp:408] mbox_conf -> mbox_conf
I0609 14:01:57.157347 26996 net.cpp:150] Setting up mbox_conf
I0609 14:01:57.157352 26996 net.cpp:157] Top shape: 4 17464 (69856)
I0609 14:01:57.157354 26996 net.cpp:165] Memory required for data: 992071072
I0609 14:01:57.157356 26996 layer_factory.hpp:77] Creating layer mbox_priorbox
I0609 14:01:57.157359 26996 net.cpp:100] Creating Layer mbox_priorbox
I0609 14:01:57.157362 26996 net.cpp:434] mbox_priorbox <- conv4_3_norm_mbox_priorbox
I0609 14:01:57.157366 26996 net.cpp:434] mbox_priorbox <- fc7_mbox_priorbox
I0609 14:01:57.157368 26996 net.cpp:434] mbox_priorbox <- conv6_2_mbox_priorbox
I0609 14:01:57.157371 26996 net.cpp:434] mbox_priorbox <- conv7_2_mbox_priorbox
I0609 14:01:57.157374 26996 net.cpp:434] mbox_priorbox <- conv8_2_mbox_priorbox
I0609 14:01:57.157377 26996 net.cpp:434] mbox_priorbox <- conv9_2_mbox_priorbox
I0609 14:01:57.157380 26996 net.cpp:408] mbox_priorbox -> mbox_priorbox
I0609 14:01:57.157402 26996 net.cpp:150] Setting up mbox_priorbox
I0609 14:01:57.157407 26996 net.cpp:157] Top shape: 1 2 34928 (69856)
I0609 14:01:57.157408 26996 net.cpp:165] Memory required for data: 992350496
I0609 14:01:57.157410 26996 layer_factory.hpp:77] Creating layer mbox_conf_reshape
I0609 14:01:57.157414 26996 net.cpp:100] Creating Layer mbox_conf_reshape
I0609 14:01:57.157418 26996 net.cpp:434] mbox_conf_reshape <- mbox_conf
I0609 14:01:57.157423 26996 net.cpp:408] mbox_conf_reshape -> mbox_conf_reshape
I0609 14:01:57.157449 26996 net.cpp:150] Setting up mbox_conf_reshape
I0609 14:01:57.157454 26996 net.cpp:157] Top shape: 4 8732 2 (69856)
I0609 14:01:57.157457 26996 net.cpp:165] Memory required for data: 992629920
I0609 14:01:57.157459 26996 layer_factory.hpp:77] Creating layer mbox_conf_softmax
I0609 14:01:57.157464 26996 net.cpp:100] Creating Layer mbox_conf_softmax
I0609 14:01:57.157467 26996 net.cpp:434] mbox_conf_softmax <- mbox_conf_reshape
I0609 14:01:57.157471 26996 net.cpp:408] mbox_conf_softmax -> mbox_conf_softmax
I0609 14:01:57.157670 26996 net.cpp:150] Setting up mbox_conf_softmax
I0609 14:01:57.157676 26996 net.cpp:157] Top shape: 4 8732 2 (69856)
I0609 14:01:57.157680 26996 net.cpp:165] Memory required for data: 992909344
I0609 14:01:57.157682 26996 layer_factory.hpp:77] Creating layer mbox_conf_flatten
I0609 14:01:57.157686 26996 net.cpp:100] Creating Layer mbox_conf_flatten
I0609 14:01:57.157690 26996 net.cpp:434] mbox_conf_flatten <- mbox_conf_softmax
I0609 14:01:57.157694 26996 net.cpp:408] mbox_conf_flatten -> mbox_conf_flatten
I0609 14:01:57.157716 26996 net.cpp:150] Setting up mbox_conf_flatten
I0609 14:01:57.157721 26996 net.cpp:157] Top shape: 4 17464 (69856)
I0609 14:01:57.157722 26996 net.cpp:165] Memory required for data: 993188768
I0609 14:01:57.157724 26996 layer_factory.hpp:77] Creating layer detection_out
I0609 14:01:57.157740 26996 net.cpp:100] Creating Layer detection_out
I0609 14:01:57.157743 26996 net.cpp:434] detection_out <- mbox_loc
I0609 14:01:57.157747 26996 net.cpp:434] detection_out <- mbox_conf_flatten
I0609 14:01:57.157748 26996 net.cpp:434] detection_out <- mbox_priorbox
I0609 14:01:57.157753 26996 net.cpp:408] detection_out -> detection_out
I0609 14:01:57.159582 26996 net.cpp:150] Setting up detection_out
I0609 14:01:57.159591 26996 net.cpp:157] Top shape: 1 1 1 7 (7)
I0609 14:01:57.159593 26996 net.cpp:165] Memory required for data: 993188796
I0609 14:01:57.159596 26996 layer_factory.hpp:77] Creating layer detection_eval
I0609 14:01:57.159601 26996 net.cpp:100] Creating Layer detection_eval
I0609 14:01:57.159605 26996 net.cpp:434] detection_eval <- detection_out
I0609 14:01:57.159607 26996 net.cpp:434] detection_eval <- label
I0609 14:01:57.159612 26996 net.cpp:408] detection_eval -> detection_eval
I0609 14:01:57.159696 26996 net.cpp:150] Setting up detection_eval
I0609 14:01:57.159703 26996 net.cpp:157] Top shape: 1 1 2 5 (10)
I0609 14:01:57.159705 26996 net.cpp:165] Memory required for data: 993188836
I0609 14:01:57.159708 26996 net.cpp:228] detection_eval does not need backward computation.
I0609 14:01:57.159718 26996 net.cpp:228] detection_out does not need backward computation.
I0609 14:01:57.159721 26996 net.cpp:228] mbox_conf_flatten does not need backward computation.
I0609 14:01:57.159723 26996 net.cpp:228] mbox_conf_softmax does not need backward computation.
…
