…
        min_scale: 0.3
        max_scale: 1
        min_aspect_ratio: 0.5
        max_aspect_ratio: 2
      }
      sample_constraint {
        min_jaccard_overlap: 0.9
      }
      max_sample: 1
      max_trials: 50
    }
    batch_sampler {
      sampler {
        min_scale: 0.3
        max_scale: 1
        min_aspect_ratio: 0.5
        max_aspect_ratio: 2
      }
      sample_constraint {
        max_jaccard_overlap: 1
      }
      max_sample: 1
      max_trials: 50
    }
    label_map_file: "data/sharpen_tbs_v2.0/labelmap_voc.prototxt"
  }
}
layer {
  name: "conv1_1"
  type: "Convolution"
  bottom: "data"
  top: "conv1_1"
  param {
    lr_mult: 1
    decay_mult: 1
  }
  param {
    lr_mult: 2
    decay_mult: 0
  }
  convolution_param {
    num_output: 64
    pad: 1
    kernel_size: 3
    weight_filler {
      type: "xavier"
    }
    bias_filler {
      type: "constant"
      value: 0
    }
  }
}
layer {
  name: "relu1_1"
  type: "ReLU"
  bottom: "conv1_1"
  top: "conv1_1"
}
layer {
  name: "conv1_2"
  type: "Convolution"
  bottom: "conv1_1"
  top: "conv1_2"
  param {
    lr_mult: 1
    decay_mult: 1
  }
  param {
    lr_mult: 2
    decay_mult: 0
  }
  convolution_param {
    num_output: 64
    pad: 1
    kernel_size: 3
    weight_filler {
      type: "xavier"
    }
    bias_filler {
      type: "constant"
      value: 0
    }
  }
}
layer {
  name: "relu1_2"
  type: "ReLU"
  bottom: "conv1_2"
  top: "conv1_2"
}
layer {
  name: "pool1"
  type: "Pooling"
  bottom: "conv1_2"
  top: "pool1"
  pooling_param {
    pool: MAX
    kernel_size: 2
    stride: 2
  }
}
layer {
  name: "conv2_1"
  type: "Convolution"
  bottom: "pool1"
  top: "conv2_1"
  param {
    lr_mult: 1
    decay_mult: 1
  }
  param {
    lr_mult: 2
    decay_mult: 0
  }
  convolution_param {
    num_output: 128
    pad: 1
    kernel_size: 3
    weight_filler {
      type: "xavier"
    }
    bias_filler {
      type: "constant"
      value: 0
    }
  }
}
layer {
  name: "relu2_1"
  type: "ReLU"
  bottom: "conv2_1"
  top: "conv2_1"
}
layer {
  name: "conv2_2"
  type: "Convolution"
  bottom: "conv2_1"
  top: "conv2_2"
  param {
    lr_mult: 1
    decay_mult: 1
  }
  param {
    lr_mult: 2
    decay_mult: 0
  }
  convolution_param {
    num_output: 128
    pad: 1
    kernel_size: 3
    weight_filler {
      type: "xavier"
    }
    bias_filler {
      type: "constant"
      value: 0
    }
  }
}
layer {
  name: "relu2_2"
  type: "ReLU"
  bottom: "conv2_2"
  top: "conv2_2"
}
layer {
  name: "pool2"
  type: "Pooling"
  bottom: "conv2_2"
  top: "pool2"
  pooling_param {
    pool: MAX
    kernel_size: 2
    stride: 2
  }
}
layer {
  name: "conv3_1"
  type: "Convolution"
  bottom: "pool2"
  top: "conv3_1"
  param {
    lr_mult: 1
    decay_mult: 1
  }
  param {
    lr_mult: 2
    decay_mult: 0
  }
  convolution_param {
    num_output: 256
    pad: 1
    kernel_size: 3
    weight_filler {
      type: "xavier"
    }
    bias_filler {
      type: "constant"
      value: 0
    }
  }
}
layer {
  name: "relu3_1"
  type: "ReLU"
  bottom: "conv3_1"
  top: "conv3_1"
}
layer {
  name: "conv3_2"
  type: "Convolution"
  bottom: "conv3_1"
  top: "conv3_2"
  param {
    lr_mult: 1
    decay_mult: 1
  }
  param {
    lr_mult: 2
    decay_mult: 0
  }
  convolution_param {
    num_output: 256
    pad: 1
    kernel_size: 3
    weight_filler {
      type: "xavier"
    }
    bias_filler {
      type: "constant"
      value: 0
    }
  }
}
layer {
  name: "relu3_2"
  type: "ReLU"
  bottom: "conv3_2"
  top: "conv3_2"
}
layer {
  name: "conv3_3"
  type: "Convolution"
  bottom: "conv3_2"
  top: "conv3_3"
  param {
    lr_mult: 1
    decay_mult: 1
  }
  param {
    lr_mult: 2
    decay_mult: 0
  }
  convolution_param {
    num_output: 256
    pad: 1
    kernel_size: 3
    weight_filler {
      type: "xavier"
    }
    bias_filler {
      type: "constant"
      value: 0
    }
  }
}
layer {
  name: "relu3_3"
  type: "ReLU"
  bottom: "conv3_3"
  top: "conv3_3"
}
layer {
  name: "pool3"
  type: "Pooling"
  bottom: "conv3_3"
  top: "pool3"
  pooling_param {
    pool: MAX
    kernel_size: 2
    stride: 2
  }
}
layer {
  name: "conv4_1"
  type: "Convolution"
  bottom: "pool3"
  top: "conv4_1"
  param {
    lr_mult: 1
    decay_mult: 1
  }
  param {
    lr_mult: 2
    decay_mult: 0
  }
  convolution_param {
    num_output: 512
    pad: 1
    kernel_size: 3
    weight_filler {
      type: "xavier"
    }
    bias_filler {
      type: "constant"
      value: 0
    }
  }
}
layer {
  name: "relu4_1"
  type: "ReLU"
  bottom: "conv4_1"
  top: "conv4_1"
}
layer {
  name: "conv4_2"
  type: "Convolution"
  bottom: "conv4_1"
  top: "conv4_2"
  param {
    lr_mult: 1
    decay_mult: 1
  }
  param {
    lr_mult: 2
    decay_mult: 0
  }
  convolution_param {
    num_output: 512
    pad: 1
    kernel_size: 3
    weight_filler {
      type: "xavier"
    }
    bias_filler {
      type: "constant"
      value: 0
    }
  }
}
layer {
  name: "relu4_2"
  type: "ReLU"
  bottom: "conv4_2"
  top: "conv4_2"
}
layer {
  name: "conv4_3"
  type: "Convolution"
  bottom: "conv4_2"
  top: "conv4_3"
  param {
    lr_mult: 1
    decay_mult: 1
  }
  param {
    lr_mult: 2
    decay_mult: 0
  }
  convolution_param {
    num_output: 512
    pad: 1
    kernel_size: 3
    weight_filler {
      type: "xavier"
    }
    bias_filler {
      type: "constant"
      value: 0
    }
  }
}
layer {
  name: "relu4_3"
  type: "ReLU"
  bottom: "conv4_3"
  top: "conv4_3"
}
layer {
  name: "pool4"
  type: "Pooling"
  bottom: "conv4_3"
  top: "pool4"
  pooling_param {
    pool: MAX
    kernel_size: 2
    stride: 2
  }
}
layer {
  name: "conv5_1"
  type: "Convolution"
  bottom: "pool4"
  top: "conv5_1"
  param {
    lr_mult: 1
    decay_mult: 1
  }
  param {
    lr_mult: 2
    decay_mult: 0
  }
  convolution_param {
    num_output: 512
    pad: 1
    kernel_size: 3
    weight_filler {
      type: "xavier"
    }
    bias_filler {
      type: "constant"
      value: 0
    }
    dilation: 1
  }
}
layer {
  name: "relu5_1"
  type: "ReLU"
  bottom: "conv5_1"
  top: "conv5_1"
}
layer {
  name: "conv5_2"
  type: "Convolution"
  bottom: "conv5_1"
  top: "conv5_2"
  param {
    lr_mult: 1
    decay_mult: 1
  }
  param {
    lr_mult: 2
    decay_mult: 0
  }
  convolution_param {
    num_output: 512
    pad: 1
    kernel_size: 3
    weight_filler {
      type: "xavier"
    }
    bias_filler {
      type: "constant"
      value: 0
    }
    dilation: 1
  }
}
layer {
  name: "relu5_2"
  type: "ReLU"
  bottom: "conv5_2"
  top: "conv5_2"
}
layer {
  name: "conv5_3"
  type: "Convolution"
  bottom: "conv5_2"
  top: "conv5_3"
  param {
    lr_mult: 1
    decay_mult: 1
  }
  param {
    lr_mult: 2
    decay_mult: 0
  }
  convolution_param {
    num_output: 512
    pad: 1
    kernel_size: 3
    weight_filler {
      type: "xavier"
    }
    bias_filler {
      type: "constant"
      value: 0
    }
    dilation: 1
  }
}
layer {
  name: "relu5_3"
  type: "ReLU"
  bottom: "conv5_3"
  top: "conv5_3"
}
layer {
  name: "pool5"
  type: "Pooling"
  bottom: "conv5_3"
  top: "pool5"
  pooling_param {
    pool: MAX
    kernel_size: 3
    stride: 1
    pad: 1
  }
}
layer {
  name: "fc6"
  type: "Convolution"
  bottom: "pool5"
  top: "fc6"
  param {
    lr_mult: 1
    decay_mult: 1
  }
  param {
    lr_mult: 2
    decay_mult: 0
  }
  convolution_param {
    num_output: 1024
    pad: 6
    kernel_size: 3
    weight_filler {
      type: "xavier"
    }
    bias_filler {
      type: "constant"
      value: 0
    }
    dilation: 6
  }
}
layer {
  name: "relu6"
  type: "ReLU"
  bottom: "fc6"
  top: "fc6"
}
layer {
  name: "fc7"
  type: "Convolution"
  bottom: "fc6"
  top: "fc7"
  param {
    lr_mult: 1
    decay_mult: 1
  }
  param {
    lr_mult: 2
    decay_mult: 0
  }
  convolution_param {
    num_output: 1024
    kernel_size: 1
    weight_filler {
      type: "xavier"
    }
    bias_filler {
      type: "constant"
      value: 0
    }
  }
}
layer {
  name: "relu7"
  type: "ReLU"
  bottom: "fc7"
  top: "fc7"
}
layer {
  name: "conv6_1"
  type: "Convolution"
  bottom: "fc7"
  top: "conv6_1"
  param {
    lr_mult: 1
    decay_mult: 1
  }
  param {
    lr_mult: 2
    decay_mult: 0
  }
  convolution_param {
    num_output: 256
    pad: 0
    kernel_size: 1
    stride: 1
    weight_filler {
      type: "xavier"
    }
    bias_filler {
      type: "constant"
      value: 0
    }
  }
}
layer {
  name: "conv6_1_relu"
  type: "ReLU"
  bottom: "conv6_1"
  top: "conv6_1"
}
layer {
  name: "conv6_2"
  type: "Convolution"
  bottom: "conv6_1"
  top: "conv6_2"
  param {
    lr_mult: 1
    decay_mult: 1
  }
  param {
    lr_mult: 2
    decay_mult: 0
  }
  convolution_param {
    num_output: 512
    pad: 1
    kernel_size: 3
    stride: 2
    weight_filler {
      type: "xavier"
    }
    bias_filler {
      type: "constant"
      value: 0
    }
  }
}
layer {
  name: "conv6_2_relu"
  type: "ReLU"
  bottom: "conv6_2"
  top: "conv6_2"
}
layer {
  name: "conv7_1"
  type: "Convolution"
  bottom: "conv6_2"
  top: "conv7_1"
  param {
    lr_mult: 1
    decay_mult: 1
  }
  param {
    lr_mult: 2
    decay_mult: 0
  }
  convolution_param {
    num_output: 128
    pad: 0
    kernel_size: 1
    stride: 1
    weight_filler {
      type: "xavier"
    }
    bias_filler {
      type: "constant"
      value: 0
    }
  }
}
layer {
  name: "conv7_1_relu"
  type: "ReLU"
  bottom: "conv7_1"
  top: "conv7_1"
}
layer {
  name: "conv7_2"
  type: "Convolution"
  bottom: "conv7_1"
  top: "conv7_2"
  param {
    lr_mult: 1
    decay_mult: 1
  }
  param {
    lr_mult: 2
    decay_mult: 0
  }
  convolution_param {
    num_output: 256
    pad: 1
    kernel_size: 3
    stride: 2
    weight_filler {
      type: "xavier"
    }
    bias_filler {
      type: "constant"
      value: 0
    }
  }
}
layer {
  name: "conv7_2_relu"
  type: "ReLU"
  bottom: "conv7_2"
  top: "conv7_2"
}
layer {
  name: "conv8_1"
  type: "Convolution"
  bottom: "conv7_2"
  top: "conv8_1"
  param {
    lr_mult: 1
    decay_mult: 1
  }
  param {
    lr_mult: 2
    decay_mult: 0
  }
  convolution_param {
    num_output: 128
    pad: 0
    kernel_size: 1
    stride: 1
    weight_filler {
      type: "xavier"
    }
    bias_filler {
      type: "constant"
      value: 0
    }
  }
}
layer {
  name: "conv8_1_relu"
  type: "ReLU"
  bottom: "conv8_1"
  top: "conv8_1"
}
layer {
  name: "conv8_2"
  type: "Convolution"
  bottom: "conv8_1"
  top: "conv8_2"
  param {
    lr_mult: 1
    decay_mult: 1
  }
  param {
    lr_mult: 2
    decay_mult: 0
  }
  convolution_param {
    num_output: 256
    pad: 0
    kernel_size: 3
    stride: 1
    weight_filler {
      type: "xavier"
    }
    bias_filler {
      type: "constant"
      value: 0
    }
  }
}
layer {
  name: "conv8_2_relu"
  type: "ReLU"
  bottom: "conv8_2"
  top: "conv8_2"
}
layer {
  name: "conv9_1"
  type: "Convolution"
  bottom: "conv8_2"
  top: "conv9_1"
  param {
    lr_mult: 1
    decay_mult: 1
  }
  param {
    lr_mult: 2
    decay_mult: 0
  }
  convolution_param {
    num_output: 128
    pad: 0
    kernel_size: 1
    stride: 1
    weight_filler {
      type: "xavier"
    }
    bias_filler {
      type: "constant"
      value: 0
    }
  }
}
layer {
  name: "conv9_1_relu"
  type: "ReLU"
  bottom: "conv9_1"
  top: "conv9_1"
}
layer {
  name: "conv9_2"
  type: "Convolution"
  bottom: "conv9_1"
  top: "conv9_2"
  param {
    lr_mult: 1
    decay_mult: 1
  }
  param {
    lr_mult: 2
    decay_mult: 0
  }
  convolution_param {
    num_output: 256
    pad: 0
    kernel_size: 3
    stride: 1
    weight_filler {
      type: "xavier"
    }
    bias_filler {
      type: "constant"
      value: 0
    }
  }
}
layer {
  name: "conv9_2_relu"
  type: "ReLU"
  bottom: "conv9_2"
  top: "conv9_2"
}
layer {
  name: "conv4_3_norm"
  type: "Normalize"
  bottom: "conv4_3"
  top: "conv4_3_norm"
  norm_param {
    across_spatial: false
    scale_filler {
      type: "constant"
      value: 20
    }
    channel_shared: false
  }
}
layer {
  name: "conv4_3_norm_mbox_loc"
  type: "Convolution"
  bottom: "conv4_3_norm"
  top: "conv4_3_norm_mbox_loc"
  param {
    lr_mult: 1
    decay_mult: 1
  }
  param {
    lr_mult: 2
    decay_mult: 0
  }
  convolution_param {
    num_output: 16
    pad: 1
    kernel_size: 3
    stride: 1
    weight_filler {
      type: "xavier"
    }
    bias_filler {
      type: "constant"
      value: 0
    }
  }
}
layer {
  name: "conv4_3_norm_mbox_loc_perm"
  type: "Permute"
  bottom: "conv4_3_norm_mbox_loc"
  top: "conv4_3_norm_mbox_loc_perm"
  permute_param {
    order: 0
    order: 2
    order: 3
    order: 1
  }
}
layer {
  name: "conv4_3_norm_mbox_loc_flat"
  type: "Flatten"
  bottom: "conv4_3_norm_mbox_loc_perm"
  top: "conv4_3_norm_mbox_loc_flat"
  flatten_param {
    axis: 1
  }
}
layer {
  name: "conv4_3_norm_mbox_conf"
  type: "Convolution"
  bottom: "conv4_3_norm"
  top: "conv4_3_norm_mbox_conf"
  param {
    lr_mult: 1
    decay_mult: 1
  }
  param {
    lr_mult: 2
    decay_mult: 0
  }
  convolution_param {
    num_output: 8
    pad: 1
    kernel_size: 3
    stride: 1
    weight_filler {
      type: "xavier"
    }
    bias_filler {
      type: "constant"
      value: 0
    }
  }
}
layer {
  name: "conv4_3_norm_mbox_conf_perm"
  type: "Permute"
  bottom: "conv4_3_norm_mbox_conf"
  top: "conv4_3_norm_mbox_conf_perm"
  permute_param {
    order: 0
    order: 2
    order: 3
    order: 1
  }
}
layer {
  name: "conv4_3_norm_mbox_conf_flat"
  type: "Flatten"
  bottom: "conv4_3_norm_mbox_conf_perm"
  top: "conv4_3_norm_mbox_conf_flat"
  flatten_param {
    axis: 1
  }
}
layer {
  name: "conv4_3_norm_mbox_priorbox"
  type: "PriorBox"
  bottom: "conv4_3_norm"
  bottom: "data"
  top: "conv4_3_norm_mbox_priorbox"
  prior_box_param {
    min_size: 30
    max_size: 60
    aspect_ratio: 2
    flip: true
    clip: false
    variance: 0.1
    variance: 0.1
    variance: 0.2
    variance: 0.2
    step: 8
    offset: 0.5
  }
}
layer {
  name: "fc7_mbox_loc"
  type: "Convolution"
  bottom: "fc7"
  top: "fc7_mbox_loc"
  param {
    lr_mult: 1
    decay_mult: 1
  }
  param {
    lr_mult: 2
    decay_mult: 0
  }
  convolution_param {
    num_output: 24
    pad: 1
    kernel_size: 3
    stride: 1
    weight_filler {
      type: "xavier"
    }
    bias_filler {
      type: "constant"
      value: 0
    }
  }
}
layer {
  name: "fc7_mbox_loc_perm"
  type: "Permute"
  bottom: "fc7_mbox_loc"
  top: "fc7_mbox_loc_perm"
  permute_param {
    order: 0
    order: 2
    order: 3
    order: 1
  }
}
layer {
  name: "fc7_mbox_loc_flat"
  type: "Flatten"
  bottom: "fc7_mbox_loc_perm"
  top: "fc7_mbox_loc_flat"
  flatten_param {
    axis: 1
  }
}
layer {
  name: "fc7_mbox_conf"
  type: "Convolution"
  bottom: "fc7"
  top: "fc7_mbox_conf"
  param {
    lr_mult: 1
    decay_mult: 1
  }
  param {
    lr_mult: 2
    decay_mult: 0
  }
  convolution_param {
    num_output: 12
    pad: 1
    kernel_size: 3
    stride: 1
    weight_filler {
      type: "xavier"
    }
    bias_filler {
      type: "constant"
      value: 0
    }
  }
}
layer {
  name: "fc7_mbox_conf_perm"
  type: "Permute"
  bottom: "fc7_mbox_conf"
  top: "fc7_mbox_conf_perm"
  permute_param {
    order: 0
    order: 2
    order: 3
    order: 1
  }
}
layer {
  name: "fc7_mbox_conf_flat"
  type: "Flatten"
  bottom: "fc7_mbox_conf_perm"
  top: "fc7_mbox_conf_flat"
  flatten_param {
    axis: 1
  }
}
layer {
  name: "fc7_mbox_priorbox"
  type: "PriorBox"
  bottom: "fc7"
  bottom: "data"
  top: "fc7_mbox_priorbox"
  prior_box_param {
    min_size: 60
    max_size: 111
    aspect_ratio: 2
    aspect_ratio: 3
    flip: true
    clip: false
    variance: 0.1
    variance: 0.1
    variance: 0.2
    variance: 0.2
    step: 16
    offset: 0.5
  }
}
layer {
  name: "conv6_2_mbox_loc"
  type: "Convolution"
  bottom: "conv6_2"
  top: "conv6_2_mbox_loc"
  param {
    lr_mult: 1
    decay_mult: 1
  }
  param {
    lr_mult: 2
    decay_mult: 0
  }
  convolution_param {
    num_output: 24
    pad: 1
    kernel_size: 3
    stride: 1
    weight_filler {
      type: "xavier"
    }
    bias_filler {
      type: "constant"
      value: 0
    }
  }
}
layer {
  name: "conv6_2_mbox_loc_perm"
  type: "Permute"
  bottom: "conv6_2_mbox_loc"
  top: "conv6_2_mbox_loc_perm"
  permute_param {
    order: 0
    order: 2
    order: 3
    order: 1
  }
}
layer {
  name: "conv6_2_mbox_loc_flat"
  type: "Flatten"
  bottom: "conv6_2_mbox_loc_perm"
  top: "conv6_2_mbox_loc_flat"
  flatten_param {
    axis: 1
  }
}
layer {
  name: "conv6_2_mbox_conf"
  type: "Convolution"
  bottom: "conv6_2"
  top: "conv6_2_mbox_conf"
  param {
    lr_mult: 1
    decay_mult: 1
  }
  param {
    lr_mult: 2
    decay_mult: 0
  }
  convolution_param {
    num_output: 12
    pad: 1
    kernel_size: 3
    stride: 1
    weight_filler {
      type: "xavier"
    }
    bias_filler {
      type: "constant"
      value: 0
    }
  }
}
layer {
  name: "conv6_2_mbox_conf_perm"
  type: "Permute"
  bottom: "conv6_2_mbox_conf"
  top: "conv6_2_mbox_conf_perm"
  permute_param {
    order: 0
    order: 2
    order: 3
    order: 1
  }
}
layer {
  name: "conv6_2_mbox_conf_flat"
  type: "Flatten"
  bottom: "conv6_2_mbox_conf_perm"
  top: "conv6_2_mbox_conf_flat"
  flatten_param {
    axis: 1
  }
}
layer {
  name: "conv6_2_mbox_priorbox"
  type: "PriorBox"
  bottom: "conv6_2"
  bottom: "data"
  top: "conv6_2_mbox_priorbox"
  prior_box_param {
    min_size: 111
    max_size: 162
    aspect_ratio: 2
    aspect_ratio: 3
    flip: true
    clip: false
    variance: 0.1
    variance: 0.1
    variance: 0.2
    variance: 0.2
    step: 32
    offset: 0.5
  }
}
layer {
  name: "conv7_2_mbox_loc"
  type: "Convolution"
  bottom: "conv7_2"
  top: "conv7_2_mbox_loc"
  param {
    lr_mult: 1
    decay_mult: 1
  }
  param {
    lr_mult: 2
    decay_mult: 0
  }
  convolution_param {
    num_output: 24
    pad: 1
    kernel_size: 3
    stride: 1
    weight_filler {
      type: "xavier"
    }
    bias_filler {
      type: "constant"
      value: 0
    }
  }
}
layer {
  name: "conv7_2_mbox_loc_perm"
  type: "Permute"
  bottom: "conv7_2_mbox_loc"
  top: "conv7_2_mbox_loc_perm"
  permute_param {
    order: 0
    order: 2
    order: 3
    order: 1
  }
}
layer {
  name: "conv7_2_mbox_loc_flat"
  type: "Flatten"
  bottom: "conv7_2_mbox_loc_perm"
  top: "conv7_2_mbox_loc_flat"
  flatten_param {
    axis: 1
  }
}
layer {
  name: "conv7_2_mbox_conf"
  type: "Convolution"
  bottom: "conv7_2"
  top: "conv7_2_mbox_conf"
  param {
    lr_mult: 1
    decay_mult: 1
  }
  param {
    lr_mult: 2
    decay_mult: 0
  }
  convolution_param {
    num_output: 12
    pad: 1
    kernel_size: 3
    stride: 1
    weight_filler {
      type: "xavier"
    }
    bias_filler {
      type: "constant"
      value: 0
    }
  }
}
layer {
  name: "conv7_2_mbox_conf_perm"
  type: "Permute"
  bottom: "conv7_2_mbox_conf"
  top: "conv7_2_mbox_conf_perm"
  permute_param {
    order: 0
    order: 2
    order: 3
    order: 1
  }
}
layer {
  name: "conv7_2_mbox_conf_flat"
  type: "Flatten"
  bottom: "conv7_2_mbox_conf_perm"
  top: "conv7_2_mbox_conf_flat"
  flatten_param {
    axis: 1
  }
}
layer {
  name: "conv7_2_mbox_priorbox"
  type: "PriorBox"
  bottom: "conv7_2"
  bottom: "data"
  top: "conv7_2_mbox_priorbox"
  prior_box_param {
    min_size: 162
    max_size: 213
    aspect_ratio: 2
    aspect_ratio: 3
    flip: true
    clip: false
    variance: 0.1
    variance: 0.1
    variance: 0.2
    variance: 0.2
    step: 64
    offset: 0.5
  }
}
layer {
  name: "conv8_2_mbox_loc"
  type: "Convolution"
  bottom: "conv8_2"
  top: "conv8_2_mbox_loc"
  param {
    lr_mult: 1
    decay_mult: 1
  }
  param {
    lr_mult: 2
    decay_mult: 0
  }
  convolution_param {
    num_output: 16
    pad: 1
    kernel_size: 3
    stride: 1
    weight_filler {
      type: "xavier"
    }
    bias_filler {
      type: "constant"
      value: 0
    }
  }
}
layer {
  name: "conv8_2_mbox_loc_perm"
  type: "Permute"
  bottom: "conv8_2_mbox_loc"
  top: "conv8_2_mbox_loc_perm"
  permute_param {
    order: 0
    order: 2
    order: 3
    order: 1
  }
}
layer {
  name: "conv8_2_mbox_loc_flat"
  type: "Flatten"
  bottom: "conv8_2_mbox_loc_perm"
  top: "conv8_2_mbox_loc_flat"
  flatten_param {
    axis: 1
  }
}
layer {
  name: "conv8_2_mbox_conf"
  type: "Convolution"
  bottom: "conv8_2"
  top: "conv8_2_mbox_conf"
  param {
    lr_mult: 1
    decay_mult: 1
  }
  param {
    lr_mult: 2
    decay_mult: 0
  }
  convolution_param {
    num_output: 8
    pad: 1
    kernel_size: 3
    stride: 1
    weight_filler {
      type: "xavier"
    }
    bias_filler {
      type: "constant"
      value: 0
    }
  }
}
layer {
  name: "conv8_2_mbox_conf_perm"
  type: "Permute"
  bottom: "conv8_2_mbox_conf"
  top: "conv8_2_mbox_conf_perm"
  permute_param {
    order: 0
    order: 2
    order: 3
    order: 1
  }
}
layer {
  name: "conv8_2_mbox_conf_flat"
  type: "Flatten"
  bottom: "conv8_2_mbox_conf_perm"
  top: "conv8_2_mbox_conf_flat"
  flatten_param {
    axis: 1
  }
}
layer {
  name: "conv8_2_mbox_priorbox"
  type: "PriorBox"
  bottom: "conv8_2"
  bottom: "data"
  top: "conv8_2_mbox_priorbox"
  prior_box_param {
    min_size: 213
    max_size: 264
    aspect_ratio: 2
    flip: true
    clip: false
    variance: 0.1
    variance: 0.1
    variance: 0.2
    variance: 0.2
    step: 100
    offset: 0.5
  }
}
layer {
  name: "conv9_2_mbox_loc"
  type: "Convolution"
  bottom: "conv9_2"
  top: "conv9_2_mbox_loc"
  param {
    lr_mult: 1
    decay_mult: 1
  }
  param {
    lr_mult: 2
    decay_mult: 0
  }
  convolution_param {
    num_output: 16
    pad: 1
    kernel_size: 3
    stride: 1
    weight_filler {
      type: "xavier"
    }
    bias_filler {
      type: "constant"
      value: 0
    }
  }
}
layer {
  name: "conv9_2_mbox_loc_perm"
  type: "Permute"
  bottom: "conv9_2_mbox_loc"
  top: "conv9_2_mbox_loc_perm"
  permute_param {
    order: 0
    order: 2
    order: 3
    order: 1
  }
}
layer {
  name: "conv9_2_mbox_loc_flat"
  type: "Flatten"
  bottom: "conv9_2_mbox_loc_perm"
  top: "conv9_2_mbox_loc_flat"
  flatten_param {
    axis: 1
  }
}
layer {
  name: "conv9_2_mbox_conf"
  type: "Convolution"
  bottom: "conv9_2"
  top: "conv9_2_mbox_conf"
  param {
    lr_mult: 1
    decay_mult: 1
  }
  param {
    lr_mult: 2
    decay_mult: 0
  }
  convolution_param {
    num_output: 8
    pad: 1
    kernel_size: 3
    stride: 1
    weight_filler {
      type: "xavier"
    }
    bias_filler {
      type: "constant"
      value: 0
    }
  }
}
layer {
  name: "conv9_2_mbox_conf_perm"
  type: "Permute"
  bottom: "conv9_2_mbox_conf"
  top: "conv9_2_mbox_conf_perm"
  permute_param {
    order: 0
    order: 2
    order: 3
    order: 1
  }
}
layer {
  name: "conv9_2_mbox_conf_flat"
  type: "Flatten"
  bottom: "conv9_2_mbox_conf_perm"
  top: "conv9_2_mbox_conf_flat"
  flatten_param {
    axis: 1
  }
}
layer {
  name: "conv9_2_mbox_priorbox"
  type: "PriorBox"
  bottom: "conv9_2"
  bottom: "data"
  top: "conv9_2_mbox_priorbox"
  prior_box_param {
    min_size: 264
    max_size: 315
    aspect_ratio: 2
    flip: true
    clip: false
    variance: 0.1
    variance: 0.1
    variance: 0.2
    variance: 0.2
    step: 300
    offset: 0.5
  }
}
layer {
  name: "mbox_loc"
  type: "Concat"
  bottom: "conv4_3_norm_mbox_loc_flat"
  bottom: "fc7_mbox_loc_flat"
  bottom: "conv6_2_mbox_loc_flat"
  bottom: "conv7_2_mbox_loc_flat"
  bottom: "conv8_2_mbox_loc_flat"
  bottom: "conv9_2_mbox_loc_flat"
  top: "mbox_loc"
  concat_param {
    axis: 1
  }
}
layer {
  name: "mbox_conf"
  type: "Concat"
  bottom: "conv4_3_norm_mbox_conf_flat"
  bottom: "fc7_mbox_conf_flat"
  bottom: "conv6_2_mbox_conf_flat"
  bottom: "conv7_2_mbox_conf_flat"
  bottom: "conv8_2_mbox_conf_flat"
  bottom: "conv9_2_mbox_conf_flat"
  top: "mbox_conf"
  concat_param {
    axis: 1
  }
}
layer {
  name: "mbox_priorbox"
  type: "Concat"
  bottom: "conv4_3_norm_mbox_priorbox"
  bottom: "fc7_mbox_priorbox"
  bottom: "conv6_2_mbox_priorbox"
  bottom: "conv7_2_mbox_priorbox"
  bottom: "conv8_2_mbox_priorbox"
  bottom: "conv9_2_mbox_priorbox"
  top: "mbox_priorbox"
  concat_param {
    axis: 2
  }
}
layer {
  name: "mbox_loss"
  type: "MultiBoxLoss"
  bottom: "mbox_loc"
  bottom: "mbox_conf"
  bottom: "mbox_priorbox"
  bottom: "label"
  top: "mbox_loss"
  include {
    phase: TRAIN
  }
  propagate_down: true
  propagate_down: true
  propagate_down: false
  propagate_down: false
  loss_param {
    normalization: VALID
  }
  multibox_loss_param {
    loc_loss_type: SMOOTH_L1
    conf_loss_type: SOFTMAX
    loc_weight: 1
    num_classes: 2
    share_location: true
    match_type: PER_PREDICTION
    overlap_threshold: 0.5
    use_prior_for_matching: true
    background_label_id: 0
    use_difficult_gt: true
    neg_pos_ratio: 3
    neg_overlap: 0.5
    code_type: CENTER_SIZE
    ignore_cross_boundary_bbox: false
    mining_type: MAX_NEGATIVE
  }
}
I0609 17:50:08.916770 16776 layer_factory.hpp:77] Creating layer data
I0609 17:50:08.916891 16776 net.cpp:100] Creating Layer data
I0609 17:50:08.916913 16776 net.cpp:409] data -> data
I0609 17:50:08.916944 16776 net.cpp:409] data -> label
I0609 17:50:08.916955 16776 layer.hpp:71] 
I0609 17:50:08.917397 16789 db_lmdb.cpp:35] Opened lmdb examples/sharpen_tbs_v2.0/sharpen_tbs_v2.0_trainval_lmdb
I0609 17:50:08.927754 16776 annotated_data_layer.cpp:62] output data size: 32,3,300,300
I0609 17:50:08.986701 16776 net.cpp:151] Setting up data
I0609 17:50:08.986721 16776 net.cpp:158] Top shape: 32 3 300 300 (8640000)
I0609 17:50:08.986752 16776 net.cpp:158] Top shape: 1 1 1 8 (8)
I0609 17:50:08.986755 16776 net.cpp:166] Memory required for data: 34560032
I0609 17:50:08.986763 16776 layer_factory.hpp:77] Creating layer data_data_0_split
I0609 17:50:08.986786 16776 net.cpp:100] Creating Layer data_data_0_split
I0609 17:50:08.986793 16776 net.cpp:435] data_data_0_split <- data
I0609 17:50:08.986817 16776 net.cpp:409] data_data_0_split -> data_data_0_split_0
I0609 17:50:08.986827 16776 net.cpp:409] data_data_0_split -> data_data_0_split_1
I0609 17:50:08.986834 16776 net.cpp:409] data_data_0_split -> data_data_0_split_2
I0609 17:50:08.986838 16776 net.cpp:409] data_data_0_split -> data_data_0_split_3
I0609 17:50:08.986842 16776 net.cpp:409] data_data_0_split -> data_data_0_split_4
I0609 17:50:08.986846 16776 net.cpp:409] data_data_0_split -> data_data_0_split_5
I0609 17:50:08.986852 16776 net.cpp:409] data_data_0_split -> data_data_0_split_6
I0609 17:50:08.986857 16776 layer.hpp:71] 
I0609 17:50:08.986927 16776 net.cpp:151] Setting up data_data_0_split
I0609 17:50:08.986933 16776 net.cpp:158] Top shape: 32 3 300 300 (8640000)
I0609 17:50:08.986937 16776 net.cpp:158] Top shape: 32 3 300 300 (8640000)
I0609 17:50:08.986940 16776 net.cpp:158] Top shape: 32 3 300 300 (8640000)
I0609 17:50:08.986943 16776 net.cpp:158] Top shape: 32 3 300 300 (8640000)
I0609 17:50:08.986945 16776 net.cpp:158] Top shape: 32 3 300 300 (8640000)
I0609 17:50:08.986948 16776 net.cpp:158] Top shape: 32 3 300 300 (8640000)
I0609 17:50:08.986951 16776 net.cpp:158] Top shape: 32 3 300 300 (8640000)
I0609 17:50:08.986953 16776 net.cpp:166] Memory required for data: 276480032
I0609 17:50:08.986955 16776 layer_factory.hpp:77] Creating layer conv1_1
I0609 17:50:08.986968 16776 net.cpp:100] Creating Layer conv1_1
I0609 17:50:08.986970 16776 net.cpp:435] conv1_1 <- data_data_0_split_0
I0609 17:50:08.986977 16776 net.cpp:409] conv1_1 -> conv1_1
I0609 17:50:08.986982 16776 layer.hpp:71] 
I0609 17:50:09.163367 16776 net.cpp:151] Setting up conv1_1
I0609 17:50:09.163388 16776 net.cpp:158] Top shape: 32 64 300 300 (184320000)
I0609 17:50:09.163391 16776 net.cpp:166] Memory required for data: 1013760032
I0609 17:50:09.163424 16776 layer_factory.hpp:77] Creating layer relu1_1
I0609 17:50:09.163446 16776 net.cpp:100] Creating Layer relu1_1
I0609 17:50:09.163450 16776 net.cpp:435] relu1_1 <- conv1_1
I0609 17:50:09.163455 16776 net.cpp:396] relu1_1 -> conv1_1 (in-place)
I0609 17:50:09.163462 16776 layer.hpp:71] 
I0609 17:50:09.163622 16776 net.cpp:151] Setting up relu1_1
I0609 17:50:09.163630 16776 net.cpp:158] Top shape: 32 64 300 300 (184320000)
I0609 17:50:09.163631 16776 net.cpp:166] Memory required for data: 1751040032
I0609 17:50:09.163633 16776 layer_factory.hpp:77] Creating layer conv1_2
I0609 17:50:09.163658 16776 net.cpp:100] Creating Layer conv1_2
I0609 17:50:09.163661 16776 net.cpp:435] conv1_2 <- conv1_1
I0609 17:50:09.163666 16776 net.cpp:409] conv1_2 -> conv1_2
I0609 17:50:09.163671 16776 layer.hpp:71] 
I0609 17:50:09.165364 16776 net.cpp:151] Setting up conv1_2
I0609 17:50:09.165375 16776 net.cpp:158] Top shape: 32 64 300 300 (184320000)
I0609 17:50:09.165379 16776 net.cpp:166] Memory required for data: 2488320032
I0609 17:50:09.165385 16776 layer_factory.hpp:77] Creating layer relu1_2
I0609 17:50:09.165405 16776 net.cpp:100] Creating Layer relu1_2
I0609 17:50:09.165408 16776 net.cpp:435] relu1_2 <- conv1_2
I0609 17:50:09.165412 16776 net.cpp:396] relu1_2 -> conv1_2 (in-place)
I0609 17:50:09.165417 16776 layer.hpp:71] 
I0609 17:50:09.166069 16776 net.cpp:151] Setting up relu1_2
I0609 17:50:09.166079 16776 net.cpp:158] Top shape: 32 64 300 300 (184320000)
I0609 17:50:09.166080 16776 net.cpp:166] Memory required for data: 3225600032
I0609 17:50:09.166084 16776 layer_factory.hpp:77] Creating layer pool1
I0609 17:50:09.166088 16776 net.cpp:100] Creating Layer pool1
I0609 17:50:09.166091 16776 net.cpp:435] pool1 <- conv1_2
I0609 17:50:09.166110 16776 net.cpp:409] pool1 -> pool1
I0609 17:50:09.166115 16776 layer.hpp:71] 
I0609 17:50:09.166151 16776 net.cpp:151] Setting up pool1
I0609 17:50:09.166167 16776 net.cpp:158] Top shape: 32 64 150 150 (46080000)
I0609 17:50:09.166169 16776 net.cpp:166] Memory required for data: 3409920032
I0609 17:50:09.166172 16776 layer_factory.hpp:77] Creating layer conv2_1
I0609 17:50:09.166191 16776 net.cpp:100] Creating Layer conv2_1
I0609 17:50:09.166193 16776 net.cpp:435] conv2_1 <- pool1
I0609 17:50:09.166198 16776 net.cpp:409] conv2_1 -> conv2_1
I0609 17:50:09.166218 16776 layer.hpp:71] 
I0609 17:50:09.167505 16776 net.cpp:151] Setting up conv2_1
I0609 17:50:09.167515 16776 net.cpp:158] Top shape: 32 128 150 150 (92160000)
I0609 17:50:09.167517 16776 net.cpp:166] Memory required for data: 3778560032
I0609 17:50:09.167537 16776 layer_factory.hpp:77] Creating layer relu2_1
I0609 17:50:09.167543 16776 net.cpp:100] Creating Layer relu2_1
I0609 17:50:09.167551 16776 net.cpp:435] relu2_1 <- conv2_1
I0609 17:50:09.167554 16776 net.cpp:396] relu2_1 -> conv2_1 (in-place)
I0609 17:50:09.167558 16776 layer.hpp:71] 
I0609 17:50:09.168078 16776 net.cpp:151] Setting up relu2_1
I0609 17:50:09.168087 16776 net.cpp:158] Top shape: 32 128 150 150 (92160000)
I0609 17:50:09.168089 16776 net.cpp:166] Memory required for data: 4147200032
I0609 17:50:09.168092 16776 layer_factory.hpp:77] Creating layer conv2_2
I0609 17:50:09.168099 16776 net.cpp:100] Creating Layer conv2_2
I0609 17:50:09.168102 16776 net.cpp:435] conv2_2 <- conv2_1
I0609 17:50:09.168107 16776 net.cpp:409] conv2_2 -> conv2_2
I0609 17:50:09.168112 16776 layer.hpp:71] 
I0609 17:50:09.170181 16776 net.cpp:151] Setting up conv2_2
I0609 17:50:09.170191 16776 net.cpp:158] Top shape: 32 128 150 150 (92160000)
I0609 17:50:09.170193 16776 net.cpp:166] Memory required for data: 4515840032
I0609 17:50:09.170198 16776 layer_factory.hpp:77] Creating layer relu2_2
I0609 17:50:09.170217 16776 net.cpp:100] Creating Layer relu2_2
I0609 17:50:09.170220 16776 net.cpp:435] relu2_2 <- conv2_2
I0609 17:50:09.170224 16776 net.cpp:396] relu2_2 -> conv2_2 (in-place)
I0609 17:50:09.170229 16776 layer.hpp:71] 
I0609 17:50:09.170363 16776 net.cpp:151] Setting up relu2_2
I0609 17:50:09.170370 16776 net.cpp:158] Top shape: 32 128 150 150 (92160000)
I0609 17:50:09.170372 16776 net.cpp:166] Memory required for data: 4884480032
I0609 17:50:09.170374 16776 layer_factory.hpp:77] Creating layer pool2
I0609 17:50:09.170380 16776 net.cpp:100] Creating Layer pool2
I0609 17:50:09.170382 16776 net.cpp:435] pool2 <- conv2_2
I0609 17:50:09.170387 16776 net.cpp:409] pool2 -> pool2
I0609 17:50:09.170392 16776 layer.hpp:71] 
I0609 17:50:09.170419 16776 net.cpp:151] Setting up pool2
I0609 17:50:09.170424 16776 net.cpp:158] Top shape: 32 128 75 75 (23040000)
I0609 17:50:09.170426 16776 net.cpp:166] Memory required for data: 4976640032
I0609 17:50:09.170428 16776 layer_factory.hpp:77] Creating layer conv3_1
I0609 17:50:09.170434 16776 net.cpp:100] Creating Layer conv3_1
I0609 17:50:09.170436 16776 net.cpp:435] conv3_1 <- pool2
I0609 17:50:09.170442 16776 net.cpp:409] conv3_1 -> conv3_1
I0609 17:50:09.170449 16776 layer.hpp:71] 
I0609 17:50:09.174135 16776 net.cpp:151] Setting up conv3_1
I0609 17:50:09.174149 16776 net.cpp:158] Top shape: 32 256 75 75 (46080000)
I0609 17:50:09.174151 16776 net.cpp:166] Memory required for data: 5160960032
I0609 17:50:09.174161 16776 layer_factory.hpp:77] Creating layer relu3_1
I0609 17:50:09.174168 16776 net.cpp:100] Creating Layer relu3_1
I0609 17:50:09.174171 16776 net.cpp:435] relu3_1 <- conv3_1
I0609 17:50:09.174176 16776 net.cpp:396] relu3_1 -> conv3_1 (in-place)
I0609 17:50:09.174183 16776 layer.hpp:71] 
I0609 17:50:09.174315 16776 net.cpp:151] Setting up relu3_1
I0609 17:50:09.174321 16776 net.cpp:158] Top shape: 32 256 75 75 (46080000)
I0609 17:50:09.174324 16776 net.cpp:166] Memory required for data: 5345280032
I0609 17:50:09.174325 16776 layer_factory.hpp:77] Creating layer conv3_2
I0609 17:50:09.174334 16776 net.cpp:100] Creating Layer conv3_2
I0609 17:50:09.174336 16776 net.cpp:435] conv3_2 <- conv3_1
I0609 17:50:09.174341 16776 net.cpp:409] conv3_2 -> conv3_2
I0609 17:50:09.174350 16776 layer.hpp:71] 
I0609 17:50:09.178941 16776 net.cpp:151] Setting up conv3_2
I0609 17:50:09.178956 16776 net.cpp:158] Top shape: 32 256 75 75 (46080000)
I0609 17:50:09.178958 16776 net.cpp:166] Memory required for data: 5529600032
I0609 17:50:09.178966 16776 layer_factory.hpp:77] Creating layer relu3_2
I0609 17:50:09.178972 16776 net.cpp:100] Creating Layer relu3_2
I0609 17:50:09.178975 16776 net.cpp:435] relu3_2 <- conv3_2
I0609 17:50:09.178980 16776 net.cpp:396] relu3_2 -> conv3_2 (in-place)
I0609 17:50:09.179000 16776 layer.hpp:71] 
I0609 17:50:09.179195 16776 net.cpp:151] Setting up relu3_2
I0609 17:50:09.179203 16776 net.cpp:158] Top shape: 32 256 75 75 (46080000)
I0609 17:50:09.179204 16776 net.cpp:166] Memory required for data: 5713920032
I0609 17:50:09.179206 16776 layer_factory.hpp:77] Creating layer conv3_3
I0609 17:50:09.179216 16776 net.cpp:100] Creating Layer conv3_3
I0609 17:50:09.179220 16776 net.cpp:435] conv3_3 <- conv3_2
I0609 17:50:09.179225 16776 net.cpp:409] conv3_3 -> conv3_3
I0609 17:50:09.179230 16776 layer.hpp:71] 
I0609 17:50:09.183912 16776 net.cpp:151] Setting up conv3_3
I0609 17:50:09.183925 16776 net.cpp:158] Top shape: 32 256 75 75 (46080000)
I0609 17:50:09.183928 16776 net.cpp:166] Memory required for data: 5898240032
I0609 17:50:09.183933 16776 layer_factory.hpp:77] Creating layer relu3_3
I0609 17:50:09.183940 16776 net.cpp:100] Creating Layer relu3_3
I0609 17:50:09.183943 16776 net.cpp:435] relu3_3 <- conv3_3
I0609 17:50:09.183948 16776 net.cpp:396] relu3_3 -> conv3_3 (in-place)
I0609 17:50:09.183954 16776 layer.hpp:71] 
I0609 17:50:09.184079 16776 net.cpp:151] Setting up relu3_3
I0609 17:50:09.184085 16776 net.cpp:158] Top shape: 32 256 75 75 (46080000)
I0609 17:50:09.184088 16776 net.cpp:166] Memory required for data: 6082560032
I0609 17:50:09.184090 16776 layer_factory.hpp:77] Creating layer pool3
I0609 17:50:09.184095 16776 net.cpp:100] Creating Layer pool3
I0609 17:50:09.184098 16776 net.cpp:435] pool3 <- conv3_3
I0609 17:50:09.184101 16776 net.cpp:409] pool3 -> pool3
I0609 17:50:09.184106 16776 layer.hpp:71] 
I0609 17:50:09.184137 16776 net.cpp:151] Setting up pool3
I0609 17:50:09.184144 16776 net.cpp:158] Top shape: 32 256 38 38 (11829248)
I0609 17:50:09.184145 16776 net.cpp:166] Memory required for data: 6129877024
I0609 17:50:09.184147 16776 layer_factory.hpp:77] Creating layer conv4_1
I0609 17:50:09.184154 16776 net.cpp:100] Creating Layer conv4_1
I0609 17:50:09.184156 16776 net.cpp:435] conv4_1 <- pool3
I0609 17:50:09.184161 16776 net.cpp:409] conv4_1 -> conv4_1
I0609 17:50:09.184166 16776 layer.hpp:71] 
I0609 17:50:09.192867 16776 net.cpp:151] Setting up conv4_1
I0609 17:50:09.192883 16776 net.cpp:158] Top shape: 32 512 38 38 (23658496)
I0609 17:50:09.192885 16776 net.cpp:166] Memory required for data: 6224511008
I0609 17:50:09.192906 16776 layer_factory.hpp:77] Creating layer relu4_1
I0609 17:50:09.192912 16776 net.cpp:100] Creating Layer relu4_1
I0609 17:50:09.192915 16776 net.cpp:435] relu4_1 <- conv4_1
I0609 17:50:09.192921 16776 net.cpp:396] relu4_1 -> conv4_1 (in-place)
I0609 17:50:09.192927 16776 layer.hpp:71] 
I0609 17:50:09.193608 16776 net.cpp:151] Setting up relu4_1
I0609 17:50:09.193617 16776 net.cpp:158] Top shape: 32 512 38 38 (23658496)
I0609 17:50:09.193619 16776 net.cpp:166] Memory required for data: 6319144992
I0609 17:50:09.193622 16776 layer_factory.hpp:77] Creating layer conv4_2
I0609 17:50:09.193631 16776 net.cpp:100] Creating Layer conv4_2
I0609 17:50:09.193634 16776 net.cpp:435] conv4_2 <- conv4_1
I0609 17:50:09.193640 16776 net.cpp:409] conv4_2 -> conv4_2
I0609 17:50:09.193647 16776 layer.hpp:71] 
I0609 17:50:09.205669 16776 net.cpp:151] Setting up conv4_2
I0609 17:50:09.205693 16776 net.cpp:158] Top shape: 32 512 38 38 (23658496)
I0609 17:50:09.205695 16776 net.cpp:166] Memory required for data: 6413778976
I0609 17:50:09.205706 16776 layer_factory.hpp:77] Creating layer relu4_2
I0609 17:50:09.205729 16776 net.cpp:100] Creating Layer relu4_2
I0609 17:50:09.205731 16776 net.cpp:435] relu4_2 <- conv4_2
I0609 17:50:09.205735 16776 net.cpp:396] relu4_2 -> conv4_2 (in-place)
I0609 17:50:09.205754 16776 layer.hpp:71] 
I0609 17:50:09.206651 16776 net.cpp:151] Setting up relu4_2
I0609 17:50:09.206673 16776 net.cpp:158] Top shape: 32 512 38 38 (23658496)
I0609 17:50:09.206691 16776 net.cpp:166] Memory required for data: 6508412960
I0609 17:50:09.206692 16776 layer_factory.hpp:77] Creating layer conv4_3
I0609 17:50:09.206701 16776 net.cpp:100] Creating Layer conv4_3
I0609 17:50:09.206706 16776 net.cpp:435] conv4_3 <- conv4_2
I0609 17:50:09.206710 16776 net.cpp:409] conv4_3 -> conv4_3
I0609 17:50:09.206717 16776 layer.hpp:71] 
I0609 17:50:09.219928 16776 net.cpp:151] Setting up conv4_3
I0609 17:50:09.219944 16776 net.cpp:158] Top shape: 32 512 38 38 (23658496)
I0609 17:50:09.219947 16776 net.cpp:166] Memory required for data: 6603046944
I0609 17:50:09.219954 16776 layer_factory.hpp:77] Creating layer relu4_3
I0609 17:50:09.219975 16776 net.cpp:100] Creating Layer relu4_3
I0609 17:50:09.219993 16776 net.cpp:435] relu4_3 <- conv4_3
I0609 17:50:09.219997 16776 net.cpp:396] relu4_3 -> conv4_3 (in-place)
I0609 17:50:09.220003 16776 layer.hpp:71] 
I0609 17:50:09.220170 16776 net.cpp:151] Setting up relu4_3
I0609 17:50:09.220178 16776 net.cpp:158] Top shape: 32 512 38 38 (23658496)
I0609 17:50:09.220180 16776 net.cpp:166] Memory required for data: 6697680928
I0609 17:50:09.220182 16776 layer_factory.hpp:77] Creating layer conv4_3_relu4_3_0_split
I0609 17:50:09.220186 16776 net.cpp:100] Creating Layer conv4_3_relu4_3_0_split
I0609 17:50:09.220188 16776 net.cpp:435] conv4_3_relu4_3_0_split <- conv4_3
I0609 17:50:09.220193 16776 net.cpp:409] conv4_3_relu4_3_0_split -> conv4_3_relu4_3_0_split_0
I0609 17:50:09.220222 16776 net.cpp:409] conv4_3_relu4_3_0_split -> conv4_3_relu4_3_0_split_1
I0609 17:50:09.220227 16776 layer.hpp:71] 
I0609 17:50:09.220269 16776 net.cpp:151] Setting up conv4_3_relu4_3_0_split
I0609 17:50:09.220274 16776 net.cpp:158] Top shape: 32 512 38 38 (23658496)
I0609 17:50:09.220276 16776 net.cpp:158] Top shape: 32 512 38 38 (23658496)
I0609 17:50:09.220279 16776 net.cpp:166] Memory required for data: 6886948896
I0609 17:50:09.220281 16776 layer_factory.hpp:77] Creating layer pool4
I0609 17:50:09.220285 16776 net.cpp:100] Creating Layer pool4
I0609 17:50:09.220288 16776 net.cpp:435] pool4 <- conv4_3_relu4_3_0_split_0
I0609 17:50:09.220293 16776 net.cpp:409] pool4 -> pool4
I0609 17:50:09.220299 16776 layer.hpp:71] 
I0609 17:50:09.220324 16776 net.cpp:151] Setting up pool4
I0609 17:50:09.220329 16776 net.cpp:158] Top shape: 32 512 19 19 (5914624)
I0609 17:50:09.220331 16776 net.cpp:166] Memory required for data: 6910607392
I0609 17:50:09.220333 16776 layer_factory.hpp:77] Creating layer conv5_1
I0609 17:50:09.220341 16776 net.cpp:100] Creating Layer conv5_1
I0609 17:50:09.220345 16776 net.cpp:435] conv5_1 <- pool4
I0609 17:50:09.220350 16776 net.cpp:409] conv5_1 -> conv5_1
I0609 17:50:09.220355 16776 layer.hpp:71] 
I0609 17:50:09.233646 16776 net.cpp:151] Setting up conv5_1
I0609 17:50:09.233662 16776 net.cpp:158] Top shape: 32 512 19 19 (5914624)
I0609 17:50:09.233665 16776 net.cpp:166] Memory required for data: 6934265888
I0609 17:50:09.233685 16776 layer_factory.hpp:77] Creating layer relu5_1
I0609 17:50:09.233693 16776 net.cpp:100] Creating Layer relu5_1
I0609 17:50:09.233696 16776 net.cpp:435] relu5_1 <- conv5_1
I0609 17:50:09.233701 16776 net.cpp:396] relu5_1 -> conv5_1 (in-place)
I0609 17:50:09.233707 16776 layer.hpp:71] 
I0609 17:50:09.233875 16776 net.cpp:151] Setting up relu5_1
I0609 17:50:09.233881 16776 net.cpp:158] Top shape: 32 512 19 19 (5914624)
I0609 17:50:09.233883 16776 net.cpp:166] Memory required for data: 6957924384
I0609 17:50:09.233886 16776 layer_factory.hpp:77] Creating layer conv5_2
I0609 17:50:09.233893 16776 net.cpp:100] Creating Layer conv5_2
I0609 17:50:09.233896 16776 net.cpp:435] conv5_2 <- conv5_1
I0609 17:50:09.233916 16776 net.cpp:409] conv5_2 -> conv5_2
I0609 17:50:09.233923 16776 layer.hpp:71] 
I0609 17:50:09.246855 16776 net.cpp:151] Setting up conv5_2
I0609 17:50:09.246888 16776 net.cpp:158] Top shape: 32 512 19 19 (5914624)
I0609 17:50:09.246893 16776 net.cpp:166] Memory required for data: 6981582880
I0609 17:50:09.246934 16776 layer_factory.hpp:77] Creating layer relu5_2
I0609 17:50:09.246942 16776 net.cpp:100] Creating Layer relu5_2
I0609 17:50:09.246947 16776 net.cpp:435] relu5_2 <- conv5_2
I0609 17:50:09.246956 16776 net.cpp:396] relu5_2 -> conv5_2 (in-place)
I0609 17:50:09.246983 16776 layer.hpp:71] 
I0609 17:50:09.247138 16776 net.cpp:151] Setting up relu5_2
I0609 17:50:09.247146 16776 net.cpp:158] Top shape: 32 512 19 19 (5914624)
I0609 17:50:09.247150 16776 net.cpp:166] Memory required for data: 7005241376
I0609 17:50:09.247154 16776 layer_factory.hpp:77] Creating layer conv5_3
I0609 17:50:09.247166 16776 net.cpp:100] Creating Layer conv5_3
I0609 17:50:09.247171 16776 net.cpp:435] conv5_3 <- conv5_2
I0609 17:50:09.247179 16776 net.cpp:409] conv5_3 -> conv5_3
I0609 17:50:09.247189 16776 layer.hpp:71] 
I0609 17:50:09.260602 16776 net.cpp:151] Setting up conv5_3
I0609 17:50:09.260620 16776 net.cpp:158] Top shape: 32 512 19 19 (5914624)
I0609 17:50:09.260625 16776 net.cpp:166] Memory required for data: 7028899872
I0609 17:50:09.260633 16776 layer_factory.hpp:77] Creating layer relu5_3
I0609 17:50:09.260679 16776 net.cpp:100] Creating Layer relu5_3
I0609 17:50:09.260685 16776 net.cpp:435] relu5_3 <- conv5_3
I0609 17:50:09.260705 16776 net.cpp:396] relu5_3 -> conv5_3 (in-place)
I0609 17:50:09.260730 16776 layer.hpp:71] 
I0609 17:50:09.260882 16776 net.cpp:151] Setting up relu5_3
I0609 17:50:09.260890 16776 net.cpp:158] Top shape: 32 512 19 19 (5914624)
I0609 17:50:09.260895 16776 net.cpp:166] Memory required for data: 7052558368
I0609 17:50:09.260897 16776 layer_factory.hpp:77] Creating layer pool5
I0609 17:50:09.260905 16776 net.cpp:100] Creating Layer pool5
I0609 17:50:09.260924 16776 net.cpp:435] pool5 <- conv5_3
I0609 17:50:09.260931 16776 net.cpp:409] pool5 -> pool5
I0609 17:50:09.260939 16776 layer.hpp:71] 
I0609 17:50:09.260988 16776 net.cpp:151] Setting up pool5
I0609 17:50:09.260995 16776 net.cpp:158] Top shape: 32 512 19 19 (5914624)
I0609 17:50:09.260999 16776 net.cpp:166] Memory required for data: 7076216864
I0609 17:50:09.261003 16776 layer_factory.hpp:77] Creating layer fc6
I0609 17:50:09.261013 16776 net.cpp:100] Creating Layer fc6
I0609 17:50:09.261018 16776 net.cpp:435] fc6 <- pool5
I0609 17:50:09.261026 16776 net.cpp:409] fc6 -> fc6
I0609 17:50:09.261035 16776 layer.hpp:71] 
I0609 17:50:09.283833 16776 net.cpp:151] Setting up fc6
I0609 17:50:09.283854 16776 net.cpp:158] Top shape: 32 1024 19 19 (11829248)
I0609 17:50:09.283857 16776 net.cpp:166] Memory required for data: 7123533856
I0609 17:50:09.283865 16776 layer_factory.hpp:77] Creating layer relu6
I0609 17:50:09.283874 16776 net.cpp:100] Creating Layer relu6
I0609 17:50:09.283879 16776 net.cpp:435] relu6 <- fc6
I0609 17:50:09.283887 16776 net.cpp:396] relu6 -> fc6 (in-place)
I0609 17:50:09.283912 16776 layer.hpp:71] 
I0609 17:50:09.284598 16776 net.cpp:151] Setting up relu6
I0609 17:50:09.284608 16776 net.cpp:158] Top shape: 32 1024 19 19 (11829248)
I0609 17:50:09.284613 16776 net.cpp:166] Memory required for data: 7170850848
I0609 17:50:09.284617 16776 layer_factory.hpp:77] Creating layer fc7
I0609 17:50:09.284629 16776 net.cpp:100] Creating Layer fc7
I0609 17:50:09.284634 16776 net.cpp:435] fc7 <- fc6
I0609 17:50:09.284643 16776 net.cpp:409] fc7 -> fc7
I0609 17:50:09.284653 16776 layer.hpp:71] 
I0609 17:50:09.291213 16776 net.cpp:151] Setting up fc7
I0609 17:50:09.291260 16776 net.cpp:158] Top shape: 32 1024 19 19 (11829248)
I0609 17:50:09.291265 16776 net.cpp:166] Memory required for data: 7218167840
I0609 17:50:09.291273 16776 layer_factory.hpp:77] Creating layer relu7
I0609 17:50:09.291283 16776 net.cpp:100] Creating Layer relu7
I0609 17:50:09.291302 16776 net.cpp:435] relu7 <- fc7
I0609 17:50:09.291326 16776 net.cpp:396] relu7 -> fc7 (in-place)
I0609 17:50:09.291350 16776 layer.hpp:71] 
I0609 17:50:09.291496 16776 net.cpp:151] Setting up relu7
I0609 17:50:09.291504 16776 net.cpp:158] Top shape: 32 1024 19 19 (11829248)
I0609 17:50:09.291517 16776 net.cpp:166] Memory required for data: 7265484832
I0609 17:50:09.291532 16776 layer_factory.hpp:77] Creating layer fc7_relu7_0_split
I0609 17:50:09.291540 16776 net.cpp:100] Creating Layer fc7_relu7_0_split
I0609 17:50:09.291544 16776 net.cpp:435] fc7_relu7_0_split <- fc7
I0609 17:50:09.291553 16776 net.cpp:409] fc7_relu7_0_split -> fc7_relu7_0_split_0
I0609 17:50:09.291563 16776 net.cpp:409] fc7_relu7_0_split -> fc7_relu7_0_split_1
I0609 17:50:09.291577 16776 net.cpp:409] fc7_relu7_0_split -> fc7_relu7_0_split_2
I0609 17:50:09.291585 16776 net.cpp:409] fc7_relu7_0_split -> fc7_relu7_0_split_3
I0609 17:50:09.291594 16776 layer.hpp:71] 
I0609 17:50:09.291647 16776 net.cpp:151] Setting up fc7_relu7_0_split
I0609 17:50:09.291654 16776 net.cpp:158] Top shape: 32 1024 19 19 (11829248)
I0609 17:50:09.291661 16776 net.cpp:158] Top shape: 32 1024 19 19 (11829248)
I0609 17:50:09.291667 16776 net.cpp:158] Top shape: 32 1024 19 19 (11829248)
I0609 17:50:09.291671 16776 net.cpp:158] Top shape: 32 1024 19 19 (11829248)
I0609 17:50:09.291676 16776 net.cpp:166] Memory required for data: 7454752800
I0609 17:50:09.291679 16776 layer_factory.hpp:77] Creating layer conv6_1
I0609 17:50:09.291690 16776 net.cpp:100] Creating Layer conv6_1
I0609 17:50:09.291694 16776 net.cpp:435] conv6_1 <- fc7_relu7_0_split_0
I0609 17:50:09.291703 16776 net.cpp:409] conv6_1 -> conv6_1
I0609 17:50:09.291712 16776 layer.hpp:71] 
I0609 17:50:09.294924 16776 net.cpp:151] Setting up conv6_1
I0609 17:50:09.294937 16776 net.cpp:158] Top shape: 32 256 19 19 (2957312)
I0609 17:50:09.294940 16776 net.cpp:166] Memory required for data: 7466582048
I0609 17:50:09.294948 16776 layer_factory.hpp:77] Creating layer conv6_1_relu
I0609 17:50:09.294956 16776 net.cpp:100] Creating Layer conv6_1_relu
I0609 17:50:09.294963 16776 net.cpp:435] conv6_1_relu <- conv6_1
I0609 17:50:09.294970 16776 net.cpp:396] conv6_1_relu -> conv6_1 (in-place)
I0609 17:50:09.294978 16776 layer.hpp:71] 
I0609 17:50:09.295109 16776 net.cpp:151] Setting up conv6_1_relu
I0609 17:50:09.295119 16776 net.cpp:158] Top shape: 32 256 19 19 (2957312)
I0609 17:50:09.295123 16776 net.cpp:166] Memory required for data: 7478411296
I0609 17:50:09.295127 16776 layer_factory.hpp:77] Creating layer conv6_2
I0609 17:50:09.295136 16776 net.cpp:100] Creating Layer conv6_2
I0609 17:50:09.295141 16776 net.cpp:435] conv6_2 <- conv6_1
I0609 17:50:09.295148 16776 net.cpp:409] conv6_2 -> conv6_2
I0609 17:50:09.295159 16776 layer.hpp:71] 
I0609 17:50:09.302076 16776 net.cpp:151] Setting up conv6_2
I0609 17:50:09.302093 16776 net.cpp:158] Top shape: 32 512 10 10 (1638400)
I0609 17:50:09.302098 16776 net.cpp:166] Memory required for data: 7484964896
I0609 17:50:09.302111 16776 layer_factory.hpp:77] Creating layer conv6_2_relu
I0609 17:50:09.302121 16776 net.cpp:100] Creating Layer conv6_2_relu
I0609 17:50:09.302129 16776 net.cpp:435] conv6_2_relu <- conv6_2
I0609 17:50:09.302134 16776 net.cpp:396] conv6_2_relu -> conv6_2 (in-place)
I0609 17:50:09.302144 16776 layer.hpp:71] 
I0609 17:50:09.302275 16776 net.cpp:151] Setting up conv6_2_relu
I0609 17:50:09.302284 16776 net.cpp:158] Top shape: 32 512 10 10 (1638400)
I0609 17:50:09.302287 16776 net.cpp:166] Memory required for data: 7491518496
I0609 17:50:09.302290 16776 layer_factory.hpp:77] Creating layer conv6_2_conv6_2_relu_0_split
I0609 17:50:09.302297 16776 net.cpp:100] Creating Layer conv6_2_conv6_2_relu_0_split
I0609 17:50:09.302304 16776 net.cpp:435] conv6_2_conv6_2_relu_0_split <- conv6_2
I0609 17:50:09.302310 16776 net.cpp:409] conv6_2_conv6_2_relu_0_split -> conv6_2_conv6_2_relu_0_split_0
I0609 17:50:09.302320 16776 net.cpp:409] conv6_2_conv6_2_relu_0_split -> conv6_2_conv6_2_relu_0_split_1
I0609 17:50:09.302326 16776 net.cpp:409] conv6_2_conv6_2_relu_0_split -> conv6_2_conv6_2_relu_0_split_2
I0609 17:50:09.302336 16776 net.cpp:409] conv6_2_conv6_2_relu_0_split -> conv6_2_conv6_2_relu_0_split_3
I0609 17:50:09.302343 16776 layer.hpp:71] 
I0609 17:50:09.302397 16776 net.cpp:151] Setting up conv6_2_conv6_2_relu_0_split
I0609 17:50:09.302404 16776 net.cpp:158] Top shape: 32 512 10 10 (1638400)
I0609 17:50:09.302409 16776 net.cpp:158] Top shape: 32 512 10 10 (1638400)
I0609 17:50:09.302423 16776 net.cpp:158] Top shape: 32 512 10 10 (1638400)
I0609 17:50:09.302429 16776 net.cpp:158] Top shape: 32 512 10 10 (1638400)
I0609 17:50:09.302433 16776 net.cpp:166] Memory required for data: 7517732896
I0609 17:50:09.302438 16776 layer_factory.hpp:77] Creating layer conv7_1
I0609 17:50:09.302448 16776 net.cpp:100] Creating Layer conv7_1
I0609 17:50:09.302453 16776 net.cpp:435] conv7_1 <- conv6_2_conv6_2_relu_0_split_0
I0609 17:50:09.302461 16776 net.cpp:409] conv7_1 -> conv7_1
I0609 17:50:09.302470 16776 layer.hpp:71] 
I0609 17:50:09.303759 16776 net.cpp:151] Setting up conv7_1
I0609 17:50:09.303769 16776 net.cpp:158] Top shape: 32 128 10 10 (409600)
I0609 17:50:09.303773 16776 net.cpp:166] Memory required for data: 7519371296
I0609 17:50:09.303781 16776 layer_factory.hpp:77] Creating layer conv7_1_relu
I0609 17:50:09.303788 16776 net.cpp:100] Creating Layer conv7_1_relu
I0609 17:50:09.303793 16776 net.cpp:435] conv7_1_relu <- conv7_1
I0609 17:50:09.303800 16776 net.cpp:396] conv7_1_relu -> conv7_1 (in-place)
I0609 17:50:09.303808 16776 layer.hpp:71] 
I0609 17:50:09.303935 16776 net.cpp:151] Setting up conv7_1_relu
I0609 17:50:09.303942 16776 net.cpp:158] Top shape: 32 128 10 10 (409600)
I0609 17:50:09.303946 16776 net.cpp:166] Memory required for data: 7521009696
I0609 17:50:09.303951 16776 layer_factory.hpp:77] Creating layer conv7_2
I0609 17:50:09.303961 16776 net.cpp:100] Creating Layer conv7_2
I0609 17:50:09.303966 16776 net.cpp:435] conv7_2 <- conv7_1
I0609 17:50:09.303972 16776 net.cpp:409] conv7_2 -> conv7_2
I0609 17:50:09.303982 16776 layer.hpp:71] 
I0609 17:50:09.306793 16776 net.cpp:151] Setting up conv7_2
I0609 17:50:09.306804 16776 net.cpp:158] Top shape: 32 256 5 5 (204800)
I0609 17:50:09.306808 16776 net.cpp:166] Memory required for data: 7521828896
I0609 17:50:09.306816 16776 layer_factory.hpp:77] Creating layer conv7_2_relu
I0609 17:50:09.306823 16776 net.cpp:100] Creating Layer conv7_2_relu
I0609 17:50:09.306828 16776 net.cpp:435] conv7_2_relu <- conv7_2
I0609 17:50:09.306836 16776 net.cpp:396] conv7_2_relu -> conv7_2 (in-place)
I0609 17:50:09.306844 16776 layer.hpp:71] 
I0609 17:50:09.306972 16776 net.cpp:151] Setting up conv7_2_relu
I0609 17:50:09.306979 16776 net.cpp:158] Top shape: 32 256 5 5 (204800)
I0609 17:50:09.306983 16776 net.cpp:166] Memory required for data: 7522648096
I0609 17:50:09.306988 16776 layer_factory.hpp:77] Creating layer conv7_2_conv7_2_relu_0_split
I0609 17:50:09.306994 16776 net.cpp:100] Creating Layer conv7_2_conv7_2_relu_0_split
I0609 17:50:09.306999 16776 net.cpp:435] conv7_2_conv7_2_relu_0_split <- conv7_2
I0609 17:50:09.307006 16776 net.cpp:409] conv7_2_conv7_2_relu_0_split -> conv7_2_conv7_2_relu_0_split_0
I0609 17:50:09.307018 16776 net.cpp:409] conv7_2_conv7_2_relu_0_split -> conv7_2_conv7_2_relu_0_split_1
I0609 17:50:09.307026 16776 net.cpp:409] conv7_2_conv7_2_relu_0_split -> conv7_2_conv7_2_relu_0_split_2
I0609 17:50:09.307034 16776 net.cpp:409] conv7_2_conv7_2_relu_0_split -> conv7_2_conv7_2_relu_0_split_3
I0609 17:50:09.307041 16776 layer.hpp:71] 
I0609 17:50:09.307093 16776 net.cpp:151] Setting up conv7_2_conv7_2_relu_0_split
I0609 17:50:09.307099 16776 net.cpp:158] Top shape: 32 256 5 5 (204800)
I0609 17:50:09.307104 16776 net.cpp:158] Top shape: 32 256 5 5 (204800)
I0609 17:50:09.307111 16776 net.cpp:158] Top shape: 32 256 5 5 (204800)
I0609 17:50:09.307116 16776 net.cpp:158] Top shape: 32 256 5 5 (204800)
I0609 17:50:09.307119 16776 net.cpp:166] Memory required for data: 7525924896
I0609 17:50:09.307123 16776 layer_factory.hpp:77] Creating layer conv8_1
I0609 17:50:09.307134 16776 net.cpp:100] Creating Layer conv8_1
I0609 17:50:09.307139 16776 net.cpp:435] conv8_1 <- conv7_2_conv7_2_relu_0_split_0
I0609 17:50:09.307147 16776 net.cpp:409] conv8_1 -> conv8_1
I0609 17:50:09.307154 16776 layer.hpp:71] 
I0609 17:50:09.308300 16776 net.cpp:151] Setting up conv8_1
I0609 17:50:09.308311 16776 net.cpp:158] Top shape: 32 128 5 5 (102400)
I0609 17:50:09.308315 16776 net.cpp:166] Memory required for data: 7526334496
I0609 17:50:09.308333 16776 layer_factory.hpp:77] Creating layer conv8_1_relu
I0609 17:50:09.308341 16776 net.cpp:100] Creating Layer conv8_1_relu
I0609 17:50:09.308346 16776 net.cpp:435] conv8_1_relu <- conv8_1
I0609 17:50:09.308352 16776 net.cpp:396] conv8_1_relu -> conv8_1 (in-place)
I0609 17:50:09.308360 16776 layer.hpp:71] 
I0609 17:50:09.308917 16776 net.cpp:151] Setting up conv8_1_relu
I0609 17:50:09.308926 16776 net.cpp:158] Top shape: 32 128 5 5 (102400)
I0609 17:50:09.308930 16776 net.cpp:166] Memory required for data: 7526744096
I0609 17:50:09.308933 16776 layer_factory.hpp:77] Creating layer conv8_2
I0609 17:50:09.308943 16776 net.cpp:100] Creating Layer conv8_2
I0609 17:50:09.308948 16776 net.cpp:435] conv8_2 <- conv8_1
I0609 17:50:09.308956 16776 net.cpp:409] conv8_2 -> conv8_2
I0609 17:50:09.308965 16776 layer.hpp:71] 
I0609 17:50:09.311823 16776 net.cpp:151] Setting up conv8_2
I0609 17:50:09.311836 16776 net.cpp:158] Top shape: 32 256 3 3 (73728)
I0609 17:50:09.311841 16776 net.cpp:166] Memory required for data: 7527039008
I0609 17:50:09.311848 16776 layer_factory.hpp:77] Creating layer conv8_2_relu
I0609 17:50:09.311854 16776 net.cpp:100] Creating Layer conv8_2_relu
I0609 17:50:09.311861 16776 net.cpp:435] conv8_2_relu <- conv8_2
I0609 17:50:09.311868 16776 net.cpp:396] conv8_2_relu -> conv8_2 (in-place)
I0609 17:50:09.311877 16776 layer.hpp:71] 
I0609 17:50:09.312006 16776 net.cpp:151] Setting up conv8_2_relu
I0609 17:50:09.312016 16776 net.cpp:158] Top shape: 32 256 3 3 (73728)
I0609 17:50:09.312018 16776 net.cpp:166] Memory required for data: 7527333920
I0609 17:50:09.312022 16776 layer_factory.hpp:77] Creating layer conv8_2_conv8_2_relu_0_split
I0609 17:50:09.312029 16776 net.cpp:100] Creating Layer conv8_2_conv8_2_relu_0_split
I0609 17:50:09.312036 16776 net.cpp:435] conv8_2_conv8_2_relu_0_split <- conv8_2
I0609 17:50:09.312042 16776 net.cpp:409] conv8_2_conv8_2_relu_0_split -> conv8_2_conv8_2_relu_0_split_0
I0609 17:50:09.312052 16776 net.cpp:409] conv8_2_conv8_2_relu_0_split -> conv8_2_conv8_2_relu_0_split_1
I0609 17:50:09.312059 16776 net.cpp:409] conv8_2_conv8_2_relu_0_split -> conv8_2_conv8_2_relu_0_split_2
I0609 17:50:09.312068 16776 net.cpp:409] conv8_2_conv8_2_relu_0_split -> conv8_2_conv8_2_relu_0_split_3
I0609 17:50:09.312075 16776 layer.hpp:71] 
I0609 17:50:09.312129 16776 net.cpp:151] Setting up conv8_2_conv8_2_relu_0_split
I0609 17:50:09.312136 16776 net.cpp:158] Top shape: 32 256 3 3 (73728)
I0609 17:50:09.312142 16776 net.cpp:158] Top shape: 32 256 3 3 (73728)
I0609 17:50:09.312149 16776 net.cpp:158] Top shape: 32 256 3 3 (73728)
I0609 17:50:09.312152 16776 net.cpp:158] Top shape: 32 256 3 3 (73728)
I0609 17:50:09.312156 16776 net.cpp:166] Memory required for data: 7528513568
I0609 17:50:09.312160 16776 layer_factory.hpp:77] Creating layer conv9_1
I0609 17:50:09.312170 16776 net.cpp:100] Creating Layer conv9_1
I0609 17:50:09.312175 16776 net.cpp:435] conv9_1 <- conv8_2_conv8_2_relu_0_split_0
I0609 17:50:09.312183 16776 net.cpp:409] conv9_1 -> conv9_1
I0609 17:50:09.312192 16776 layer.hpp:71] 
I0609 17:50:09.313352 16776 net.cpp:151] Setting up conv9_1
I0609 17:50:09.313364 16776 net.cpp:158] Top shape: 32 128 3 3 (36864)
I0609 17:50:09.313367 16776 net.cpp:166] Memory required for data: 7528661024
I0609 17:50:09.313375 16776 layer_factory.hpp:77] Creating layer conv9_1_relu
I0609 17:50:09.313381 16776 net.cpp:100] Creating Layer conv9_1_relu
I0609 17:50:09.313385 16776 net.cpp:435] conv9_1_relu <- conv9_1
I0609 17:50:09.313393 16776 net.cpp:396] conv9_1_relu -> conv9_1 (in-place)
I0609 17:50:09.313400 16776 layer.hpp:71] 
I0609 17:50:09.313534 16776 net.cpp:151] Setting up conv9_1_relu
I0609 17:50:09.313540 16776 net.cpp:158] Top shape: 32 128 3 3 (36864)
I0609 17:50:09.313544 16776 net.cpp:166] Memory required for data: 7528808480
I0609 17:50:09.313549 16776 layer_factory.hpp:77] Creating layer conv9_2
I0609 17:50:09.313557 16776 net.cpp:100] Creating Layer conv9_2
I0609 17:50:09.313563 16776 net.cpp:435] conv9_2 <- conv9_1
I0609 17:50:09.313571 16776 net.cpp:409] conv9_2 -> conv9_2
I0609 17:50:09.313588 16776 layer.hpp:71] 
I0609 17:50:09.316413 16776 net.cpp:151] Setting up conv9_2
I0609 17:50:09.316424 16776 net.cpp:158] Top shape: 32 256 1 1 (8192)
I0609 17:50:09.316428 16776 net.cpp:166] Memory required for data: 7528841248
I0609 17:50:09.316437 16776 layer_factory.hpp:77] Creating layer conv9_2_relu
I0609 17:50:09.316445 16776 net.cpp:100] Creating Layer conv9_2_relu
I0609 17:50:09.316452 16776 net.cpp:435] conv9_2_relu <- conv9_2
I0609 17:50:09.316457 16776 net.cpp:396] conv9_2_relu -> conv9_2 (in-place)
I0609 17:50:09.316464 16776 layer.hpp:71] 
I0609 17:50:09.316594 16776 net.cpp:151] Setting up conv9_2_relu
I0609 17:50:09.316601 16776 net.cpp:158] Top shape: 32 256 1 1 (8192)
I0609 17:50:09.316606 16776 net.cpp:166] Memory required for data: 7528874016
I0609 17:50:09.316609 16776 layer_factory.hpp:77] Creating layer conv9_2_conv9_2_relu_0_split
I0609 17:50:09.316617 16776 net.cpp:100] Creating Layer conv9_2_conv9_2_relu_0_split
I0609 17:50:09.316622 16776 net.cpp:435] conv9_2_conv9_2_relu_0_split <- conv9_2
I0609 17:50:09.316627 16776 net.cpp:409] conv9_2_conv9_2_relu_0_split -> conv9_2_conv9_2_relu_0_split_0
I0609 17:50:09.316638 16776 net.cpp:409] conv9_2_conv9_2_relu_0_split -> conv9_2_conv9_2_relu_0_split_1
I0609 17:50:09.316648 16776 net.cpp:409] conv9_2_conv9_2_relu_0_split -> conv9_2_conv9_2_relu_0_split_2
I0609 17:50:09.316655 16776 layer.hpp:71] 
I0609 17:50:09.316701 16776 net.cpp:151] Setting up conv9_2_conv9_2_relu_0_split
I0609 17:50:09.316709 16776 net.cpp:158] Top shape: 32 256 1 1 (8192)
I0609 17:50:09.316715 16776 net.cpp:158] Top shape: 32 256 1 1 (8192)
I0609 17:50:09.316720 16776 net.cpp:158] Top shape: 32 256 1 1 (8192)
I0609 17:50:09.316725 16776 net.cpp:166] Memory required for data: 7528972320
I0609 17:50:09.316730 16776 layer_factory.hpp:77] Creating layer conv4_3_norm
I0609 17:50:09.316735 16776 net.cpp:100] Creating Layer conv4_3_norm
I0609 17:50:09.316740 16776 net.cpp:435] conv4_3_norm <- conv4_3_relu4_3_0_split_1
I0609 17:50:09.316747 16776 net.cpp:409] conv4_3_norm -> conv4_3_norm
I0609 17:50:09.316758 16776 layer.hpp:71] 
I0609 17:50:09.316884 16776 net.cpp:151] Setting up conv4_3_norm
I0609 17:50:09.316890 16776 net.cpp:158] Top shape: 32 512 38 38 (23658496)
I0609 17:50:09.316893 16776 net.cpp:166] Memory required for data: 7623606304
I0609 17:50:09.316900 16776 layer_factory.hpp:77] Creating layer conv4_3_norm_conv4_3_norm_0_split
I0609 17:50:09.316906 16776 net.cpp:100] Creating Layer conv4_3_norm_conv4_3_norm_0_split
I0609 17:50:09.316910 16776 net.cpp:435] conv4_3_norm_conv4_3_norm_0_split <- conv4_3_norm
I0609 17:50:09.316918 16776 net.cpp:409] conv4_3_norm_conv4_3_norm_0_split -> conv4_3_norm_conv4_3_norm_0_split_0
I0609 17:50:09.316927 16776 net.cpp:409] conv4_3_norm_conv4_3_norm_0_split -> conv4_3_norm_conv4_3_norm_0_split_1
I0609 17:50:09.316936 16776 net.cpp:409] conv4_3_norm_conv4_3_norm_0_split -> conv4_3_norm_conv4_3_norm_0_split_2
I0609 17:50:09.316942 16776 layer.hpp:71] 
I0609 17:50:09.316982 16776 net.cpp:151] Setting up conv4_3_norm_conv4_3_norm_0_split
I0609 17:50:09.316988 16776 net.cpp:158] Top shape: 32 512 38 38 (23658496)
I0609 17:50:09.316993 16776 net.cpp:158] Top shape: 32 512 38 38 (23658496)
I0609 17:50:09.316998 16776 net.cpp:158] Top shape: 32 512 38 38 (23658496)
I0609 17:50:09.317003 16776 net.cpp:166] Memory required for data: 7907508256
I0609 17:50:09.317008 16776 layer_factory.hpp:77] Creating layer conv4_3_norm_mbox_loc
I0609 17:50:09.317018 16776 net.cpp:100] Creating Layer conv4_3_norm_mbox_loc
I0609 17:50:09.317023 16776 net.cpp:435] conv4_3_norm_mbox_loc <- conv4_3_norm_conv4_3_norm_0_split_0
I0609 17:50:09.317029 16776 net.cpp:409] conv4_3_norm_mbox_loc -> conv4_3_norm_mbox_loc
I0609 17:50:09.317039 16776 layer.hpp:71] 
I0609 17:50:09.318991 16776 net.cpp:151] Setting up conv4_3_norm_mbox_loc
I0609 17:50:09.319002 16776 net.cpp:158] Top shape: 32 16 38 38 (739328)
I0609 17:50:09.319006 16776 net.cpp:166] Memory required for data: 7910465568
I0609 17:50:09.319015 16776 layer_factory.hpp:77] Creating layer conv4_3_norm_mbox_loc_perm
I0609 17:50:09.319033 16776 net.cpp:100] Creating Layer conv4_3_norm_mbox_loc_perm
I0609 17:50:09.319038 16776 net.cpp:435] conv4_3_norm_mbox_loc_perm <- conv4_3_norm_mbox_loc
I0609 17:50:09.319046 16776 net.cpp:409] conv4_3_norm_mbox_loc_perm -> conv4_3_norm_mbox_loc_perm
I0609 17:50:09.319056 16776 layer.hpp:71] 
I0609 17:50:09.319141 16776 net.cpp:151] Setting up conv4_3_norm_mbox_loc_perm
I0609 17:50:09.319147 16776 net.cpp:158] Top shape: 32 38 38 16 (739328)
I0609 17:50:09.319151 16776 net.cpp:166] Memory required for data: 7913422880
I0609 17:50:09.319155 16776 layer_factory.hpp:77] Creating layer conv4_3_norm_mbox_loc_flat
I0609 17:50:09.319164 16776 net.cpp:100] Creating Layer conv4_3_norm_mbox_loc_flat
I0609 17:50:09.319169 16776 net.cpp:435] conv4_3_norm_mbox_loc_flat <- conv4_3_norm_mbox_loc_perm
I0609 17:50:09.319174 16776 net.cpp:409] conv4_3_norm_mbox_loc_flat -> conv4_3_norm_mbox_loc_flat
I0609 17:50:09.319193 16776 layer.hpp:71] 
I0609 17:50:09.319214 16776 net.cpp:151] Setting up conv4_3_norm_mbox_loc_flat
I0609 17:50:09.319221 16776 net.cpp:158] Top shape: 32 23104 (739328)
I0609 17:50:09.319226 16776 net.cpp:166] Memory required for data: 7916380192
I0609 17:50:09.319229 16776 layer_factory.hpp:77] Creating layer conv4_3_norm_mbox_conf
I0609 17:50:09.319245 16776 net.cpp:100] Creating Layer conv4_3_norm_mbox_conf
I0609 17:50:09.319250 16776 net.cpp:435] conv4_3_norm_mbox_conf <- conv4_3_norm_conv4_3_norm_0_split_1
I0609 17:50:09.319257 16776 net.cpp:409] conv4_3_norm_mbox_conf -> conv4_3_norm_mbox_conf
I0609 17:50:09.319267 16776 layer.hpp:71] 
I0609 17:50:09.321169 16776 net.cpp:151] Setting up conv4_3_norm_mbox_conf
I0609 17:50:09.321198 16776 net.cpp:158] Top shape: 32 8 38 38 (369664)
I0609 17:50:09.321210 16776 net.cpp:166] Memory required for data: 7917858848
I0609 17:50:09.321225 16776 layer_factory.hpp:77] Creating layer conv4_3_norm_mbox_conf_perm
I0609 17:50:09.321240 16776 net.cpp:100] Creating Layer conv4_3_norm_mbox_conf_perm
I0609 17:50:09.321252 16776 net.cpp:435] conv4_3_norm_mbox_conf_perm <- conv4_3_norm_mbox_conf
I0609 17:50:09.321266 16776 net.cpp:409] conv4_3_norm_mbox_conf_perm -> conv4_3_norm_mbox_conf_perm
I0609 17:50:09.321282 16776 layer.hpp:71] 
I0609 17:50:09.321406 16776 net.cpp:151] Setting up conv4_3_norm_mbox_conf_perm
I0609 17:50:09.321424 16776 net.cpp:158] Top shape: 32 38 38 8 (369664)
I0609 17:50:09.321434 16776 net.cpp:166] Memory required for data: 7919337504
I0609 17:50:09.321444 16776 layer_factory.hpp:77] Creating layer conv4_3_norm_mbox_conf_flat
I0609 17:50:09.321456 16776 net.cpp:100] Creating Layer conv4_3_norm_mbox_conf_flat
I0609 17:50:09.321467 16776 net.cpp:435] conv4_3_norm_mbox_conf_flat <- conv4_3_norm_mbox_conf_perm
I0609 17:50:09.321481 16776 net.cpp:409] conv4_3_norm_mbox_conf_flat -> conv4_3_norm_mbox_conf_flat
I0609 17:50:09.321496 16776 layer.hpp:71] 
I0609 17:50:09.321527 16776 net.cpp:151] Setting up conv4_3_norm_mbox_conf_flat
I0609 17:50:09.321542 16776 net.cpp:158] Top shape: 32 11552 (369664)
I0609 17:50:09.321552 16776 net.cpp:166] Memory required for data: 7920816160
I0609 17:50:09.321561 16776 layer_factory.hpp:77] Creating layer conv4_3_norm_mbox_priorbox
I0609 17:50:09.321574 16776 net.cpp:100] Creating Layer conv4_3_norm_mbox_priorbox
I0609 17:50:09.321585 16776 net.cpp:435] conv4_3_norm_mbox_priorbox <- conv4_3_norm_conv4_3_norm_0_split_2
I0609 17:50:09.321597 16776 net.cpp:435] conv4_3_norm_mbox_priorbox <- data_data_0_split_1
I0609 17:50:09.321612 16776 net.cpp:409] conv4_3_norm_mbox_priorbox -> conv4_3_norm_mbox_priorbox
I0609 17:50:09.321630 16776 layer.hpp:71] 
I0609 17:50:09.321663 16776 net.cpp:151] Setting up conv4_3_norm_mbox_priorbox
I0609 17:50:09.321678 16776 net.cpp:158] Top shape: 1 2 23104 (46208)
I0609 17:50:09.321688 16776 net.cpp:166] Memory required for data: 7921000992
I0609 17:50:09.321698 16776 layer_factory.hpp:77] Creating layer fc7_mbox_loc
I0609 17:50:09.321715 16776 net.cpp:100] Creating Layer fc7_mbox_loc
I0609 17:50:09.321732 16776 net.cpp:435] fc7_mbox_loc <- fc7_relu7_0_split_1
I0609 17:50:09.321753 16776 net.cpp:409] fc7_mbox_loc -> fc7_mbox_loc
I0609 17:50:09.321768 16776 layer.hpp:71] 
I0609 17:50:09.324404 16776 net.cpp:151] Setting up fc7_mbox_loc
I0609 17:50:09.324415 16776 net.cpp:158] Top shape: 32 24 19 19 (277248)
I0609 17:50:09.324419 16776 net.cpp:166] Memory required for data: 7922109984
I0609 17:50:09.324424 16776 layer_factory.hpp:77] Creating layer fc7_mbox_loc_perm
I0609 17:50:09.324431 16776 net.cpp:100] Creating Layer fc7_mbox_loc_perm
I0609 17:50:09.324435 16776 net.cpp:435] fc7_mbox_loc_perm <- fc7_mbox_loc
I0609 17:50:09.324441 16776 net.cpp:409] fc7_mbox_loc_perm -> fc7_mbox_loc_perm
I0609 17:50:09.324448 16776 layer.hpp:71] 
I0609 17:50:09.324530 16776 net.cpp:151] Setting up fc7_mbox_loc_perm
I0609 17:50:09.324537 16776 net.cpp:158] Top shape: 32 19 19 24 (277248)
I0609 17:50:09.324538 16776 net.cpp:166] Memory required for data: 7923218976
I0609 17:50:09.324542 16776 layer_factory.hpp:77] Creating layer fc7_mbox_loc_flat
I0609 17:50:09.324545 16776 net.cpp:100] Creating Layer fc7_mbox_loc_flat
I0609 17:50:09.324548 16776 net.cpp:435] fc7_mbox_loc_flat <- fc7_mbox_loc_perm
I0609 17:50:09.324551 16776 net.cpp:409] fc7_mbox_loc_flat -> fc7_mbox_loc_flat
I0609 17:50:09.324556 16776 layer.hpp:71] 
I0609 17:50:09.324573 16776 net.cpp:151] Setting up fc7_mbox_loc_flat
I0609 17:50:09.324578 16776 net.cpp:158] Top shape: 32 8664 (277248)
I0609 17:50:09.324579 16776 net.cpp:166] Memory required for data: 7924327968
I0609 17:50:09.324581 16776 layer_factory.hpp:77] Creating layer fc7_mbox_conf
I0609 17:50:09.324590 16776 net.cpp:100] Creating Layer fc7_mbox_conf
I0609 17:50:09.324594 16776 net.cpp:435] fc7_mbox_conf <- fc7_relu7_0_split_2
I0609 17:50:09.324599 16776 net.cpp:409] fc7_mbox_conf -> fc7_mbox_conf
I0609 17:50:09.324604 16776 layer.hpp:71] 
I0609 17:50:09.327225 16776 net.cpp:151] Setting up fc7_mbox_conf
I0609 17:50:09.327239 16776 net.cpp:158] Top shape: 32 12 19 19 (138624)
I0609 17:50:09.327242 16776 net.cpp:166] Memory required for data: 7924882464
I0609 17:50:09.327249 16776 layer_factory.hpp:77] Creating layer fc7_mbox_conf_perm
I0609 17:50:09.327258 16776 net.cpp:100] Creating Layer fc7_mbox_conf_perm
I0609 17:50:09.327263 16776 net.cpp:435] fc7_mbox_conf_perm <- fc7_mbox_conf
I0609 17:50:09.327270 16776 net.cpp:409] fc7_mbox_conf_perm -> fc7_mbox_conf_perm
I0609 17:50:09.327278 16776 layer.hpp:71] 
I0609 17:50:09.327364 16776 net.cpp:151] Setting up fc7_mbox_conf_perm
I0609 17:50:09.327370 16776 net.cpp:158] Top shape: 32 19 19 12 (138624)
I0609 17:50:09.327373 16776 net.cpp:166] Memory required for data: 7925436960
I0609 17:50:09.327375 16776 layer_factory.hpp:77] Creating layer fc7_mbox_conf_flat
I0609 17:50:09.327378 16776 net.cpp:100] Creating Layer fc7_mbox_conf_flat
I0609 17:50:09.327381 16776 net.cpp:435] fc7_mbox_conf_flat <- fc7_mbox_conf_perm
I0609 17:50:09.327385 16776 net.cpp:409] fc7_mbox_conf_flat -> fc7_mbox_conf_flat
I0609 17:50:09.327389 16776 layer.hpp:71] 
I0609 17:50:09.327405 16776 net.cpp:151] Setting up fc7_mbox_conf_flat
I0609 17:50:09.327410 16776 net.cpp:158] Top shape: 32 4332 (138624)
I0609 17:50:09.327414 16776 net.cpp:166] Memory required for data: 7925991456
I0609 17:50:09.327414 16776 layer_factory.hpp:77] Creating layer fc7_mbox_priorbox
I0609 17:50:09.327419 16776 net.cpp:100] Creating Layer fc7_mbox_priorbox
I0609 17:50:09.327422 16776 net.cpp:435] fc7_mbox_priorbox <- fc7_relu7_0_split_3
I0609 17:50:09.327426 16776 net.cpp:435] fc7_mbox_priorbox <- data_data_0_split_2
I0609 17:50:09.327431 16776 net.cpp:409] fc7_mbox_priorbox -> fc7_mbox_priorbox
I0609 17:50:09.327436 16776 layer.hpp:71] 
I0609 17:50:09.327453 16776 net.cpp:151] Setting up fc7_mbox_priorbox
I0609 17:50:09.327458 16776 net.cpp:158] Top shape: 1 2 8664 (17328)
I0609 17:50:09.327461 16776 net.cpp:166] Memory required for data: 7926060768
I0609 17:50:09.327462 16776 layer_factory.hpp:77] Creating layer conv6_2_mbox_loc
I0609 17:50:09.327469 16776 net.cpp:100] Creating Layer conv6_2_mbox_loc
I0609 17:50:09.327473 16776 net.cpp:435] conv6_2_mbox_loc <- conv6_2_conv6_2_relu_0_split_1
I0609 17:50:09.327487 16776 net.cpp:409] conv6_2_mbox_loc -> conv6_2_mbox_loc
I0609 17:50:09.327493 16776 layer.hpp:71] 
I0609 17:50:09.329466 16776 net.cpp:151] Setting up conv6_2_mbox_loc
I0609 17:50:09.329476 16776 net.cpp:158] Top shape: 32 24 10 10 (76800)
I0609 17:50:09.329479 16776 net.cpp:166] Memory required for data: 7926367968
I0609 17:50:09.329483 16776 layer_factory.hpp:77] Creating layer conv6_2_mbox_loc_perm
I0609 17:50:09.329489 16776 net.cpp:100] Creating Layer conv6_2_mbox_loc_perm
I0609 17:50:09.329493 16776 net.cpp:435] conv6_2_mbox_loc_perm <- conv6_2_mbox_loc
I0609 17:50:09.329497 16776 net.cpp:409] conv6_2_mbox_loc_perm -> conv6_2_mbox_loc_perm
I0609 17:50:09.329504 16776 layer.hpp:71] 
I0609 17:50:09.329584 16776 net.cpp:151] Setting up conv6_2_mbox_loc_perm
I0609 17:50:09.329591 16776 net.cpp:158] Top shape: 32 10 10 24 (76800)
I0609 17:50:09.329593 16776 net.cpp:166] Memory required for data: 7926675168
I0609 17:50:09.329596 16776 layer_factory.hpp:77] Creating layer conv6_2_mbox_loc_flat
I0609 17:50:09.329598 16776 net.cpp:100] Creating Layer conv6_2_mbox_loc_flat
I0609 17:50:09.329602 16776 net.cpp:435] conv6_2_mbox_loc_flat <- conv6_2_mbox_loc_perm
I0609 17:50:09.329607 16776 net.cpp:409] conv6_2_mbox_loc_flat -> conv6_2_mbox_loc_flat
I0609 17:50:09.329610 16776 layer.hpp:71] 
I0609 17:50:09.329625 16776 net.cpp:151] Setting up conv6_2_mbox_loc_flat
I0609 17:50:09.329630 16776 net.cpp:158] Top shape: 32 2400 (76800)
I0609 17:50:09.329632 16776 net.cpp:166] Memory required for data: 7926982368
I0609 17:50:09.329634 16776 layer_factory.hpp:77] Creating layer conv6_2_mbox_conf
I0609 17:50:09.329641 16776 net.cpp:100] Creating Layer conv6_2_mbox_conf
I0609 17:50:09.329645 16776 net.cpp:435] conv6_2_mbox_conf <- conv6_2_conv6_2_relu_0_split_2
I0609 17:50:09.329650 16776 net.cpp:409] conv6_2_mbox_conf -> conv6_2_mbox_conf
I0609 17:50:09.329655 16776 layer.hpp:71] 
I0609 17:50:09.331321 16776 net.cpp:151] Setting up conv6_2_mbox_conf
I0609 17:50:09.331331 16776 net.cpp:158] Top shape: 32 12 10 10 (38400)
I0609 17:50:09.331332 16776 net.cpp:166] Memory required for data: 7927135968
I0609 17:50:09.331337 16776 layer_factory.hpp:77] Creating layer conv6_2_mbox_conf_perm
I0609 17:50:09.331342 16776 net.cpp:100] Creating Layer conv6_2_mbox_conf_perm
I0609 17:50:09.331346 16776 net.cpp:435] conv6_2_mbox_conf_perm <- conv6_2_mbox_conf
I0609 17:50:09.331351 16776 net.cpp:409] conv6_2_mbox_conf_perm -> conv6_2_mbox_conf_perm
I0609 17:50:09.331357 16776 layer.hpp:71] 
I0609 17:50:09.331439 16776 net.cpp:151] Setting up conv6_2_mbox_conf_perm
I0609 17:50:09.331444 16776 net.cpp:158] Top shape: 32 10 10 12 (38400)
I0609 17:50:09.331447 16776 net.cpp:166] Memory required for data: 7927289568
I0609 17:50:09.331449 16776 layer_factory.hpp:77] Creating layer conv6_2_mbox_conf_flat
I0609 17:50:09.331452 16776 net.cpp:100] Creating Layer conv6_2_mbox_conf_flat
I0609 17:50:09.331455 16776 net.cpp:435] conv6_2_mbox_conf_flat <- conv6_2_mbox_conf_perm
I0609 17:50:09.331460 16776 net.cpp:409] conv6_2_mbox_conf_flat -> conv6_2_mbox_conf_flat
I0609 17:50:09.331465 16776 layer.hpp:71] 
I0609 17:50:09.331481 16776 net.cpp:151] Setting up conv6_2_mbox_conf_flat
I0609 17:50:09.331486 16776 net.cpp:158] Top shape: 32 1200 (38400)
I0609 17:50:09.331488 16776 net.cpp:166] Memory required for data: 7927443168
I0609 17:50:09.331490 16776 layer_factory.hpp:77] Creating layer conv6_2_mbox_priorbox
I0609 17:50:09.331496 16776 net.cpp:100] Creating Layer conv6_2_mbox_priorbox
I0609 17:50:09.331498 16776 net.cpp:435] conv6_2_mbox_priorbox <- conv6_2_conv6_2_relu_0_split_3
I0609 17:50:09.331501 16776 net.cpp:435] conv6_2_mbox_priorbox <- data_data_0_split_3
I0609 17:50:09.331506 16776 net.cpp:409] conv6_2_mbox_priorbox -> conv6_2_mbox_priorbox
I0609 17:50:09.331511 16776 layer.hpp:71] 
I0609 17:50:09.331529 16776 net.cpp:151] Setting up conv6_2_mbox_priorbox
I0609 17:50:09.331533 16776 net.cpp:158] Top shape: 1 2 2400 (4800)
I0609 17:50:09.331535 16776 net.cpp:166] Memory required for data: 7927462368
I0609 17:50:09.331547 16776 layer_factory.hpp:77] Creating layer conv7_2_mbox_loc
I0609 17:50:09.331554 16776 net.cpp:100] Creating Layer conv7_2_mbox_loc
I0609 17:50:09.331557 16776 net.cpp:435] conv7_2_mbox_loc <- conv7_2_conv7_2_relu_0_split_1
I0609 17:50:09.331562 16776 net.cpp:409] conv7_2_mbox_loc -> conv7_2_mbox_loc
I0609 17:50:09.331567 16776 layer.hpp:71] 
I0609 17:50:09.332821 16776 net.cpp:151] Setting up conv7_2_mbox_loc
I0609 17:50:09.332830 16776 net.cpp:158] Top shape: 32 24 5 5 (19200)
I0609 17:50:09.332834 16776 net.cpp:166] Memory required for data: 7927539168
I0609 17:50:09.332837 16776 layer_factory.hpp:77] Creating layer conv7_2_mbox_loc_perm
I0609 17:50:09.332844 16776 net.cpp:100] Creating Layer conv7_2_mbox_loc_perm
I0609 17:50:09.332847 16776 net.cpp:435] conv7_2_mbox_loc_perm <- conv7_2_mbox_loc
I0609 17:50:09.332851 16776 net.cpp:409] conv7_2_mbox_loc_perm -> conv7_2_mbox_loc_perm
I0609 17:50:09.332856 16776 layer.hpp:71] 
I0609 17:50:09.332938 16776 net.cpp:151] Setting up conv7_2_mbox_loc_perm
I0609 17:50:09.332943 16776 net.cpp:158] Top shape: 32 5 5 24 (19200)
I0609 17:50:09.332945 16776 net.cpp:166] Memory required for data: 7927615968
I0609 17:50:09.332947 16776 layer_factory.hpp:77] Creating layer conv7_2_mbox_loc_flat
I0609 17:50:09.332952 16776 net.cpp:100] Creating Layer conv7_2_mbox_loc_flat
I0609 17:50:09.332955 16776 net.cpp:435] conv7_2_mbox_loc_flat <- conv7_2_mbox_loc_perm
I0609 17:50:09.332958 16776 net.cpp:409] conv7_2_mbox_loc_flat -> conv7_2_mbox_loc_flat
I0609 17:50:09.332962 16776 layer.hpp:71] 
I0609 17:50:09.332978 16776 net.cpp:151] Setting up conv7_2_mbox_loc_flat
I0609 17:50:09.332983 16776 net.cpp:158] Top shape: 32 600 (19200)
I0609 17:50:09.332983 16776 net.cpp:166] Memory required for data: 7927692768
I0609 17:50:09.332985 16776 layer_factory.hpp:77] Creating layer conv7_2_mbox_conf
I0609 17:50:09.332993 16776 net.cpp:100] Creating Layer conv7_2_mbox_conf
I0609 17:50:09.332996 16776 net.cpp:435] conv7_2_mbox_conf <- conv7_2_conv7_2_relu_0_split_2
I0609 17:50:09.333001 16776 net.cpp:409] conv7_2_mbox_conf -> conv7_2_mbox_conf
I0609 17:50:09.333006 16776 layer.hpp:71] 
I0609 17:50:09.334599 16776 net.cpp:151] Setting up conv7_2_mbox_conf
I0609 17:50:09.334611 16776 net.cpp:158] Top shape: 32 12 5 5 (9600)
I0609 17:50:09.334614 16776 net.cpp:166] Memory required for data: 7927731168
I0609 17:50:09.334619 16776 layer_factory.hpp:77] Creating layer conv7_2_mbox_conf_perm
I0609 17:50:09.334625 16776 net.cpp:100] Creating Layer conv7_2_mbox_conf_perm
I0609 17:50:09.334630 16776 net.cpp:435] conv7_2_mbox_conf_perm <- conv7_2_mbox_conf
I0609 17:50:09.334635 16776 net.cpp:409] conv7_2_mbox_conf_perm -> conv7_2_mbox_conf_perm
I0609 17:50:09.334640 16776 layer.hpp:71] 
I0609 17:50:09.334723 16776 net.cpp:151] Setting up conv7_2_mbox_conf_perm
I0609 17:50:09.334728 16776 net.cpp:158] Top shape: 32 5 5 12 (9600)
I0609 17:50:09.334729 16776 net.cpp:166] Memory required for data: 7927769568
I0609 17:50:09.334731 16776 layer_factory.hpp:77] Creating layer conv7_2_mbox_conf_flat
I0609 17:50:09.334736 16776 net.cpp:100] Creating Layer conv7_2_mbox_conf_flat
I0609 17:50:09.334739 16776 net.cpp:435] conv7_2_mbox_conf_flat <- conv7_2_mbox_conf_perm
I0609 17:50:09.334743 16776 net.cpp:409] conv7_2_mbox_conf_flat -> conv7_2_mbox_conf_flat
I0609 17:50:09.334748 16776 layer.hpp:71] 
I0609 17:50:09.334763 16776 net.cpp:151] Setting up conv7_2_mbox_conf_flat
I0609 17:50:09.334766 16776 net.cpp:158] Top shape: 32 300 (9600)
I0609 17:50:09.334769 16776 net.cpp:166] Memory required for data: 7927807968
I0609 17:50:09.334770 16776 layer_factory.hpp:77] Creating layer conv7_2_mbox_priorbox
I0609 17:50:09.334777 16776 net.cpp:100] Creating Layer conv7_2_mbox_priorbox
I0609 17:50:09.334779 16776 net.cpp:435] conv7_2_mbox_priorbox <- conv7_2_conv7_2_relu_0_split_3
I0609 17:50:09.334782 16776 net.cpp:435] conv7_2_mbox_priorbox <- data_data_0_split_4
I0609 17:50:09.334786 16776 net.cpp:409] conv7_2_mbox_priorbox -> conv7_2_mbox_priorbox
I0609 17:50:09.334791 16776 layer.hpp:71] 
I0609 17:50:09.334811 16776 net.cpp:151] Setting up conv7_2_mbox_priorbox
I0609 17:50:09.334823 16776 net.cpp:158] Top shape: 1 2 600 (1200)
I0609 17:50:09.334825 16776 net.cpp:166] Memory required for data: 7927812768
I0609 17:50:09.334828 16776 layer_factory.hpp:77] Creating layer conv8_2_mbox_loc
I0609 17:50:09.334836 16776 net.cpp:100] Creating Layer conv8_2_mbox_loc
I0609 17:50:09.334838 16776 net.cpp:435] conv8_2_mbox_loc <- conv8_2_conv8_2_relu_0_split_1
I0609 17:50:09.334844 16776 net.cpp:409] conv8_2_mbox_loc -> conv8_2_mbox_loc
I0609 17:50:09.334851 16776 layer.hpp:71] 
I0609 17:50:09.336491 16776 net.cpp:151] Setting up conv8_2_mbox_loc
I0609 17:50:09.336501 16776 net.cpp:158] Top shape: 32 16 3 3 (4608)
I0609 17:50:09.336503 16776 net.cpp:166] Memory required for data: 7927831200
I0609 17:50:09.336515 16776 layer_factory.hpp:77] Creating layer conv8_2_mbox_loc_perm
I0609 17:50:09.336522 16776 net.cpp:100] Creating Layer conv8_2_mbox_loc_perm
I0609 17:50:09.336526 16776 net.cpp:435] conv8_2_mbox_loc_perm <- conv8_2_mbox_loc
I0609 17:50:09.336530 16776 net.cpp:409] conv8_2_mbox_loc_perm -> conv8_2_mbox_loc_perm
I0609 17:50:09.336537 16776 layer.hpp:71] 
I0609 17:50:09.336622 16776 net.cpp:151] Setting up conv8_2_mbox_loc_perm
I0609 17:50:09.336627 16776 net.cpp:158] Top shape: 32 3 3 16 (4608)
I0609 17:50:09.336629 16776 net.cpp:166] Memory required for data: 7927849632
I0609 17:50:09.336632 16776 layer_factory.hpp:77] Creating layer conv8_2_mbox_loc_flat
I0609 17:50:09.336635 16776 net.cpp:100] Creating Layer conv8_2_mbox_loc_flat
I0609 17:50:09.336637 16776 net.cpp:435] conv8_2_mbox_loc_flat <- conv8_2_mbox_loc_perm
I0609 17:50:09.336642 16776 net.cpp:409] conv8_2_mbox_loc_flat -> conv8_2_mbox_loc_flat
I0609 17:50:09.336647 16776 layer.hpp:71] 
I0609 17:50:09.336663 16776 net.cpp:151] Setting up conv8_2_mbox_loc_flat
I0609 17:50:09.336668 16776 net.cpp:158] Top shape: 32 144 (4608)
I0609 17:50:09.336669 16776 net.cpp:166] Memory required for data: 7927868064
I0609 17:50:09.336673 16776 layer_factory.hpp:77] Creating layer conv8_2_mbox_conf
I0609 17:50:09.336678 16776 net.cpp:100] Creating Layer conv8_2_mbox_conf
I0609 17:50:09.336683 16776 net.cpp:435] conv8_2_mbox_conf <- conv8_2_conv8_2_relu_0_split_2
I0609 17:50:09.336688 16776 net.cpp:409] conv8_2_mbox_conf -> conv8_2_mbox_conf
I0609 17:50:09.336693 16776 layer.hpp:71] 
I0609 17:50:09.338209 16776 net.cpp:151] Setting up conv8_2_mbox_conf
I0609 17:50:09.338218 16776 net.cpp:158] Top shape: 32 8 3 3 (2304)
I0609 17:50:09.338220 16776 net.cpp:166] Memory required for data: 7927877280
I0609 17:50:09.338225 16776 layer_factory.hpp:77] Creating layer conv8_2_mbox_conf_perm
I0609 17:50:09.338232 16776 net.cpp:100] Creating Layer conv8_2_mbox_conf_perm
I0609 17:50:09.338233 16776 net.cpp:435] conv8_2_mbox_conf_perm <- conv8_2_mbox_conf
I0609 17:50:09.338238 16776 net.cpp:409] conv8_2_mbox_conf_perm -> conv8_2_mbox_conf_perm
I0609 17:50:09.338243 16776 layer.hpp:71] 
I0609 17:50:09.338323 16776 net.cpp:151] Setting up conv8_2_mbox_conf_perm
I0609 17:50:09.338327 16776 net.cpp:158] Top shape: 32 3 3 8 (2304)
I0609 17:50:09.338330 16776 net.cpp:166] Memory required for data: 7927886496
I0609 17:50:09.338332 16776 layer_factory.hpp:77] Creating layer conv8_2_mbox_conf_flat
I0609 17:50:09.338337 16776 net.cpp:100] Creating Layer conv8_2_mbox_conf_flat
I0609 17:50:09.338340 16776 net.cpp:435] conv8_2_mbox_conf_flat <- conv8_2_mbox_conf_perm
I0609 17:50:09.338343 16776 net.cpp:409] conv8_2_mbox_conf_flat -> conv8_2_mbox_conf_flat
I0609 17:50:09.338347 16776 layer.hpp:71] 
I0609 17:50:09.338363 16776 net.cpp:151] Setting up conv8_2_mbox_conf_flat
I0609 17:50:09.338367 16776 net.cpp:158] Top shape: 32 72 (2304)
I0609 17:50:09.338369 16776 net.cpp:166] Memory required for data: 7927895712
I0609 17:50:09.338372 16776 layer_factory.hpp:77] Creating layer conv8_2_mbox_priorbox
I0609 17:50:09.338377 16776 net.cpp:100] Creating Layer conv8_2_mbox_priorbox
I0609 17:50:09.338379 16776 net.cpp:435] conv8_2_mbox_priorbox <- conv8_2_conv8_2_relu_0_split_3
I0609 17:50:09.338382 16776 net.cpp:435] conv8_2_mbox_priorbox <- data_data_0_split_5
I0609 17:50:09.338397 16776 net.cpp:409] conv8_2_mbox_priorbox -> conv8_2_mbox_priorbox
I0609 17:50:09.338403 16776 layer.hpp:71] 
I0609 17:50:09.338423 16776 net.cpp:151] Setting up conv8_2_mbox_priorbox
I0609 17:50:09.338426 16776 net.cpp:158] Top shape: 1 2 144 (288)
I0609 17:50:09.338428 16776 net.cpp:166] Memory required for data: 7927896864
I0609 17:50:09.338430 16776 layer_factory.hpp:77] Creating layer conv9_2_mbox_loc
I0609 17:50:09.338438 16776 net.cpp:100] Creating Layer conv9_2_mbox_loc
I0609 17:50:09.338441 16776 net.cpp:435] conv9_2_mbox_loc <- conv9_2_conv9_2_relu_0_split_0
I0609 17:50:09.338448 16776 net.cpp:409] conv9_2_mbox_loc -> conv9_2_mbox_loc
I0609 17:50:09.338454 16776 layer.hpp:71] 
I0609 17:50:09.340054 16776 net.cpp:151] Setting up conv9_2_mbox_loc
I0609 17:50:09.340062 16776 net.cpp:158] Top shape: 32 16 1 1 (512)
I0609 17:50:09.340065 16776 net.cpp:166] Memory required for data: 7927898912
I0609 17:50:09.340070 16776 layer_factory.hpp:77] Creating layer conv9_2_mbox_loc_perm
I0609 17:50:09.340075 16776 net.cpp:100] Creating Layer conv9_2_mbox_loc_perm
I0609 17:50:09.340078 16776 net.cpp:435] conv9_2_mbox_loc_perm <- conv9_2_mbox_loc
I0609 17:50:09.340082 16776 net.cpp:409] conv9_2_mbox_loc_perm -> conv9_2_mbox_loc_perm
I0609 17:50:09.340088 16776 layer.hpp:71] 
I0609 17:50:09.340171 16776 net.cpp:151] Setting up conv9_2_mbox_loc_perm
I0609 17:50:09.340175 16776 net.cpp:158] Top shape: 32 1 1 16 (512)
I0609 17:50:09.340178 16776 net.cpp:166] Memory required for data: 7927900960
I0609 17:50:09.340180 16776 layer_factory.hpp:77] Creating layer conv9_2_mbox_loc_flat
I0609 17:50:09.340184 16776 net.cpp:100] Creating Layer conv9_2_mbox_loc_flat
I0609 17:50:09.340188 16776 net.cpp:435] conv9_2_mbox_loc_flat <- conv9_2_mbox_loc_perm
I0609 17:50:09.340191 16776 net.cpp:409] conv9_2_mbox_loc_flat -> conv9_2_mbox_loc_flat
I0609 17:50:09.340195 16776 layer.hpp:71] 
I0609 17:50:09.340211 16776 net.cpp:151] Setting up conv9_2_mbox_loc_flat
I0609 17:50:09.340215 16776 net.cpp:158] Top shape: 32 16 (512)
I0609 17:50:09.340219 16776 net.cpp:166] Memory required for data: 7927903008
I0609 17:50:09.340220 16776 layer_factory.hpp:77] Creating layer conv9_2_mbox_conf
I0609 17:50:09.340226 16776 net.cpp:100] Creating Layer conv9_2_mbox_conf
I0609 17:50:09.340229 16776 net.cpp:435] conv9_2_mbox_conf <- conv9_2_conv9_2_relu_0_split_1
I0609 17:50:09.340235 16776 net.cpp:409] conv9_2_mbox_conf -> conv9_2_mbox_conf
I0609 17:50:09.340241 16776 layer.hpp:71] 
I0609 17:50:09.342201 16776 net.cpp:151] Setting up conv9_2_mbox_conf
I0609 17:50:09.342211 16776 net.cpp:158] Top shape: 32 8 1 1 (256)
I0609 17:50:09.342214 16776 net.cpp:166] Memory required for data: 7927904032
I0609 17:50:09.342219 16776 layer_factory.hpp:77] Creating layer conv9_2_mbox_conf_perm
I0609 17:50:09.342224 16776 net.cpp:100] Creating Layer conv9_2_mbox_conf_perm
I0609 17:50:09.342227 16776 net.cpp:435] conv9_2_mbox_conf_perm <- conv9_2_mbox_conf
I0609 17:50:09.342234 16776 net.cpp:409] conv9_2_mbox_conf_perm -> conv9_2_mbox_conf_perm
I0609 17:50:09.342241 16776 layer.hpp:71] 
I0609 17:50:09.342322 16776 net.cpp:151] Setting up conv9_2_mbox_conf_perm
I0609 17:50:09.342327 16776 net.cpp:158] Top shape: 32 1 1 8 (256)
I0609 17:50:09.342330 16776 net.cpp:166] Memory required for data: 7927905056
I0609 17:50:09.342331 16776 layer_factory.hpp:77] Creating layer conv9_2_mbox_conf_flat
I0609 17:50:09.342335 16776 net.cpp:100] Creating Layer conv9_2_mbox_conf_flat
I0609 17:50:09.342339 16776 net.cpp:435] conv9_2_mbox_conf_flat <- conv9_2_mbox_conf_perm
I0609 17:50:09.342342 16776 net.cpp:409] conv9_2_mbox_conf_flat -> conv9_2_mbox_conf_flat
I0609 17:50:09.342346 16776 layer.hpp:71] 
I0609 17:50:09.342363 16776 net.cpp:151] Setting up conv9_2_mbox_conf_flat
I0609 17:50:09.342367 16776 net.cpp:158] Top shape: 32 8 (256)
I0609 17:50:09.342370 16776 net.cpp:166] Memory required for data: 7927906080
I0609 17:50:09.342371 16776 layer_factory.hpp:77] Creating layer conv9_2_mbox_priorbox
I0609 17:50:09.342376 16776 net.cpp:100] Creating Layer conv9_2_mbox_priorbox
I0609 17:50:09.342387 16776 net.cpp:435] conv9_2_mbox_priorbox <- conv9_2_conv9_2_relu_0_split_2
I0609 17:50:09.342392 16776 net.cpp:435] conv9_2_mbox_priorbox <- data_data_0_split_6
I0609 17:50:09.342397 16776 net.cpp:409] conv9_2_mbox_priorbox -> conv9_2_mbox_priorbox
I0609 17:50:09.342401 16776 layer.hpp:71] 
I0609 17:50:09.342420 16776 net.cpp:151] Setting up conv9_2_mbox_priorbox
I0609 17:50:09.342425 16776 net.cpp:158] Top shape: 1 2 16 (32)
I0609 17:50:09.342427 16776 net.cpp:166] Memory required for data: 7927906208
I0609 17:50:09.342429 16776 layer_factory.hpp:77] Creating layer mbox_loc
I0609 17:50:09.342434 16776 net.cpp:100] Creating Layer mbox_loc
I0609 17:50:09.342438 16776 net.cpp:435] mbox_loc <- conv4_3_norm_mbox_loc_flat
I0609 17:50:09.342442 16776 net.cpp:435] mbox_loc <- fc7_mbox_loc_flat
I0609 17:50:09.342444 16776 net.cpp:435] mbox_loc <- conv6_2_mbox_loc_flat
I0609 17:50:09.342447 16776 net.cpp:435] mbox_loc <- conv7_2_mbox_loc_flat
I0609 17:50:09.342450 16776 net.cpp:435] mbox_loc <- conv8_2_mbox_loc_flat
I0609 17:50:09.342453 16776 net.cpp:435] mbox_loc <- conv9_2_mbox_loc_flat
I0609 17:50:09.342458 16776 net.cpp:409] mbox_loc -> mbox_loc
I0609 17:50:09.342464 16776 layer.hpp:71] 
I0609 17:50:09.342483 16776 net.cpp:151] Setting up mbox_loc
I0609 17:50:09.342489 16776 net.cpp:158] Top shape: 32 34928 (1117696)
I0609 17:50:09.342490 16776 net.cpp:166] Memory required for data: 7932376992
I0609 17:50:09.342492 16776 layer_factory.hpp:77] Creating layer mbox_conf
I0609 17:50:09.342496 16776 net.cpp:100] Creating Layer mbox_conf
I0609 17:50:09.342499 16776 net.cpp:435] mbox_conf <- conv4_3_norm_mbox_conf_flat
I0609 17:50:09.342501 16776 net.cpp:435] mbox_conf <- fc7_mbox_conf_flat
I0609 17:50:09.342504 16776 net.cpp:435] mbox_conf <- conv6_2_mbox_conf_flat
I0609 17:50:09.342509 16776 net.cpp:435] mbox_conf <- conv7_2_mbox_conf_flat
I0609 17:50:09.342511 16776 net.cpp:435] mbox_conf <- conv8_2_mbox_conf_flat
I0609 17:50:09.342514 16776 net.cpp:435] mbox_conf <- conv9_2_mbox_conf_flat
I0609 17:50:09.342517 16776 net.cpp:409] mbox_conf -> mbox_conf
I0609 17:50:09.342522 16776 layer.hpp:71] 
I0609 17:50:09.342538 16776 net.cpp:151] Setting up mbox_conf
I0609 17:50:09.342542 16776 net.cpp:158] Top shape: 32 17464 (558848)
I0609 17:50:09.342545 16776 net.cpp:166] Memory required for data: 7934612384
I0609 17:50:09.342547 16776 layer_factory.hpp:77] Creating layer mbox_priorbox
I0609 17:50:09.342550 16776 net.cpp:100] Creating Layer mbox_priorbox
I0609 17:50:09.342553 16776 net.cpp:435] mbox_priorbox <- conv4_3_norm_mbox_priorbox
I0609 17:50:09.342556 16776 net.cpp:435] mbox_priorbox <- fc7_mbox_priorbox
I0609 17:50:09.342559 16776 net.cpp:435] mbox_priorbox <- conv6_2_mbox_priorbox
I0609 17:50:09.342562 16776 net.cpp:435] mbox_priorbox <- conv7_2_mbox_priorbox
I0609 17:50:09.342564 16776 net.cpp:435] mbox_priorbox <- conv8_2_mbox_priorbox
I0609 17:50:09.342567 16776 net.cpp:435] mbox_priorbox <- conv9_2_mbox_priorbox
I0609 17:50:09.342571 16776 net.cpp:409] mbox_priorbox -> mbox_priorbox
I0609 17:50:09.342576 16776 layer.hpp:71] 
I0609 17:50:09.342591 16776 net.cpp:151] Setting up mbox_priorbox
I0609 17:50:09.342595 16776 net.cpp:158] Top shape: 1 2 34928 (69856)
I0609 17:50:09.342597 16776 net.cpp:166] Memory required for data: 7934891808
I0609 17:50:09.342599 16776 layer_factory.hpp:77] Creating layer mbox_loss
I0609 17:50:09.342607 16776 net.cpp:100] Creating Layer mbox_loss
I0609 17:50:09.342610 16776 net.cpp:435] mbox_loss <- mbox_loc
I0609 17:50:09.342613 16776 net.cpp:435] mbox_loss <- mbox_conf
I0609 17:50:09.342617 16776 net.cpp:435] mbox_loss <- mbox_priorbox
…
  name: "data"
  type: "AnnotatedData"
  top: "data"
  top: "label"
  include {
    phase: TEST
  }
  transform_param {
    mean_value: 104
    mean_value: 117
    mean_value: 123
    resize_param {
      prob: 1
      resize_mode: WARP
      height: 300
      width: 300
      interp_mode: LINEAR
    }
  }
  data_param {
    source: "examples/sharpen_tbs_v2.0/sharpen_tbs_v2.0_test_lmdb"
    batch_size: 4
    backend: LMDB
  }
  annotated_data_param {
    batch_sampler {
    }
    label_map_file: "data/sharpen_tbs_v2.0/labelmap_voc.prototxt"
  }
}
layer {
  name: "conv1_1"
  type: "Convolution"
  bottom: "data"
  top: "conv1_1"
  param {
    lr_mult: 1
    decay_mult: 1
  }
  param {
    lr_mult: 2
    decay_mult: 0
  }
  convolution_param {
    num_output: 64
    pad: 1
    kernel_size: 3
    weight_filler {
      type: "xavier"
    }
    bias_filler {
      type: "constant"
      value: 0
    }
  }
}
layer {
  name: "relu1_1"
  type: "ReLU"
  bottom: "conv1_1"
  top: "conv1_1"
}
layer {
  name: "conv1_2"
  type: "Convolution"
  bottom: "conv1_1"
  top: "conv1_2"
  param {
    lr_mult: 1
    decay_mult: 1
  }
  param {
    lr_mult: 2
    decay_mult: 0
  }
  convolution_param {
    num_output: 64
    pad: 1
    kernel_size: 3
    weight_filler {
      type: "xavier"
    }
    bias_filler {
      type: "constant"
      value: 0
    }
  }
}
layer {
  name: "relu1_2"
  type: "ReLU"
  bottom: "conv1_2"
  top: "conv1_2"
}
layer {
  name: "pool1"
  type: "Pooling"
  bottom: "conv1_2"
  top: "pool1"
  pooling_param {
    pool: MAX
    kernel_size: 2
    stride: 2
  }
}
layer {
  name: "conv2_1"
  type: "Convolution"
  bottom: "pool1"
  top: "conv2_1"
  param {
    lr_mult: 1
    decay_mult: 1
  }
  param {
    lr_mult: 2
    decay_mult: 0
  }
  convolution_param {
    num_output: 128
    pad: 1
    kernel_size: 3
    weight_filler {
      type: "xavier"
    }
    bias_filler {
      type: "constant"
      value: 0
    }
  }
}
layer {
  name: "relu2_1"
  type: "ReLU"
  bottom: "conv2_1"
  top: "conv2_1"
}
layer {
  name: "conv2_2"
  type: "Convolution"
  bottom: "conv2_1"
  top: "conv2_2"
  param {
    lr_mult: 1
    decay_mult: 1
  }
  param {
    lr_mult: 2
    decay_mult: 0
  }
  convolution_param {
    num_output: 128
    pad: 1
    kernel_size: 3
    weight_filler {
      type: "xavier"
    }
    bias_filler {
      type: "constant"
      value: 0
    }
  }
}
layer {
  name: "relu2_2"
  type: "ReLU"
  bottom: "conv2_2"
  top: "conv2_2"
}
layer {
  name: "pool2"
  type: "Pooling"
  bottom: "conv2_2"
  top: "pool2"
  pooling_param {
    pool: MAX
    kernel_size: 2
    stride: 2
  }
}
layer {
  name: "conv3_1"
  type: "Convolution"
  bottom: "pool2"
  top: "conv3_1"
  param {
    lr_mult: 1
    decay_mult: 1
  }
  param {
    lr_mult: 2
    decay_mult: 0
  }
  convolution_param {
    num_output: 256
    pad: 1
    kernel_size: 3
    weight_filler {
      type: "xavier"
    }
    bias_filler {
      type: "constant"
      value: 0
    }
  }
}
layer {
  name: "relu3_1"
  type: "ReLU"
  bottom: "conv3_1"
  top: "conv3_1"
}
layer {
  name: "conv3_2"
  type: "Convolution"
  bottom: "conv3_1"
  top: "conv3_2"
  param {
    lr_mult: 1
    decay_mult: 1
  }
  param {
    lr_mult: 2
    decay_mult: 0
  }
  convolution_param {
    num_output: 256
    pad: 1
    kernel_size: 3
    weight_filler {
      type: "xavier"
    }
    bias_filler {
      type: "constant"
      value: 0
    }
  }
}
layer {
  name: "relu3_2"
  type: "ReLU"
  bottom: "conv3_2"
  top: "conv3_2"
}
layer {
  name: "conv3_3"
  type: "Convolution"
  bottom: "conv3_2"
  top: "conv3_3"
  param {
    lr_mult: 1
    decay_mult: 1
  }
  param {
    lr_mult: 2
    decay_mult: 0
  }
  convolution_param {
    num_output: 256
    pad: 1
    kernel_size: 3
    weight_filler {
      type: "xavier"
    }
    bias_filler {
      type: "constant"
      value: 0
    }
  }
}
layer {
  name: "relu3_3"
  type: "ReLU"
  bottom: "conv3_3"
  top: "conv3_3"
}
layer {
  name: "pool3"
  type: "Pooling"
  bottom: "conv3_3"
  top: "pool3"
  pooling_param {
    pool: MAX
    kernel_size: 2
    stride: 2
  }
}
layer {
  name: "conv4_1"
  type: "Convolution"
  bottom: "pool3"
  top: "conv4_1"
  param {
    lr_mult: 1
    decay_mult: 1
  }
  param {
    lr_mult: 2
    decay_mult: 0
  }
  convolution_param {
    num_output: 512
    pad: 1
    kernel_size: 3
    weight_filler {
      type: "xavier"
    }
    bias_filler {
      type: "constant"
      value: 0
    }
  }
}
layer {
  name: "relu4_1"
  type: "ReLU"
  bottom: "conv4_1"
  top: "conv4_1"
}
layer {
  name: "conv4_2"
  type: "Convolution"
  bottom: "conv4_1"
  top: "conv4_2"
  param {
    lr_mult: 1
    decay_mult: 1
  }
  param {
    lr_mult: 2
    decay_mult: 0
  }
  convolution_param {
    num_output: 512
    pad: 1
    kernel_size: 3
    weight_filler {
      type: "xavier"
    }
    bias_filler {
      type: "constant"
      value: 0
    }
  }
}
layer {
  name: "relu4_2"
  type: "ReLU"
  bottom: "conv4_2"
  top: "conv4_2"
}
layer {
  name: "conv4_3"
  type: "Convolution"
  bottom: "conv4_2"
  top: "conv4_3"
  param {
    lr_mult: 1
    decay_mult: 1
  }
  param {
    lr_mult: 2
    decay_mult: 0
  }
  convolution_param {
    num_output: 512
    pad: 1
    kernel_size: 3
    weight_filler {
      type: "xavier"
    }
    bias_filler {
      type: "constant"
      value: 0
    }
  }
}
layer {
  name: "relu4_3"
  type: "ReLU"
  bottom: "conv4_3"
  top: "conv4_3"
}
layer {
  name: "pool4"
  type: "Pooling"
  bottom: "conv4_3"
  top: "pool4"
  pooling_param {
    pool: MAX
    kernel_size: 2
    stride: 2
  }
}
layer {
  name: "conv5_1"
  type: "Convolution"
  bottom: "pool4"
  top: "conv5_1"
  param {
    lr_mult: 1
    decay_mult: 1
  }
  param {
    lr_mult: 2
    decay_mult: 0
  }
  convolution_param {
    num_output: 512
    pad: 1
    kernel_size: 3
    weight_filler {
      type: "xavier"
    }
    bias_filler {
      type: "constant"
      value: 0
    }
    dilation: 1
  }
}
layer {
  name: "relu5_1"
  type: "ReLU"
  bottom: "conv5_1"
  top: "conv5_1"
}
layer {
  name: "conv5_2"
  type: "Convolution"
  bottom: "conv5_1"
  top: "conv5_2"
  param {
    lr_mult: 1
    decay_mult: 1
  }
  param {
    lr_mult: 2
    decay_mult: 0
  }
  convolution_param {
    num_output: 512
    pad: 1
    kernel_size: 3
    weight_filler {
      type: "xavier"
    }
    bias_filler {
      type: "constant"
      value: 0
    }
    dilation: 1
  }
}
layer {
  name: "relu5_2"
  type: "ReLU"
  bottom: "conv5_2"
  top: "conv5_2"
}
layer {
  name: "conv5_3"
  type: "Convolution"
  bottom: "conv5_2"
  top: "conv5_3"
  param {
    lr_mult: 1
    decay_mult: 1
  }
  param {
    lr_mult: 2
    decay_mult: 0
  }
  convolution_param {
    num_output: 512
    pad: 1
    kernel_size: 3
    weight_filler {
      type: "xavier"
    }
    bias_filler {
      type: "constant"
      value: 0
    }
    dilation: 1
  }
}
layer {
  name: "relu5_3"
  type: "ReLU"
  bottom: "conv5_3"
  top: "conv5_3"
}
layer {
  name: "pool5"
  type: "Pooling"
  bottom: "conv5_3"
  top: "pool5"
  pooling_param {
    pool: MAX
    kernel_size: 3
    stride: 1
    pad: 1
  }
}
layer {
  name: "fc6"
  type: "Convolution"
  bottom: "pool5"
  top: "fc6"
  param {
    lr_mult: 1
    decay_mult: 1
  }
  param {
    lr_mult: 2
    decay_mult: 0
  }
  convolution_param {
    num_output: 1024
    pad: 6
    kernel_size: 3
    weight_filler {
      type: "xavier"
    }
    bias_filler {
      type: "constant"
      value: 0
    }
    dilation: 6
  }
}
layer {
  name: "relu6"
  type: "ReLU"
  bottom: "fc6"
  top: "fc6"
}
layer {
  name: "fc7"
  type: "Convolution"
  bottom: "fc6"
  top: "fc7"
  param {
    lr_mult: 1
    decay_mult: 1
  }
  param {
    lr_mult: 2
    decay_mult: 0
  }
  convolution_param {
    num_output: 1024
    kernel_size: 1
    weight_filler {
      type: "xavier"
    }
    bias_filler {
      type: "constant"
      value: 0
    }
  }
}
layer {
  name: "relu7"
  type: "ReLU"
  bottom: "fc7"
  top: "fc7"
}
layer {
  name: "conv6_1"
  type: "Convolution"
  bottom: "fc7"
  top: "conv6_1"
  param {
    lr_mult: 1
    decay_mult: 1
  }
  param {
    lr_mult: 2
    decay_mult: 0
  }
  convolution_param {
    num_output: 256
    pad: 0
    kernel_size: 1
    stride: 1
    weight_filler {
      type: "xavier"
    }
    bias_filler {
      type: "constant"
      value: 0
    }
  }
}
layer {
  name: "conv6_1_relu"
  type: "ReLU"
  bottom: "conv6_1"
  top: "conv6_1"
}
layer {
  name: "conv6_2"
  type: "Convolution"
  bottom: "conv6_1"
  top: "conv6_2"
  param {
    lr_mult: 1
    decay_mult: 1
  }
  param {
    lr_mult: 2
    decay_mult: 0
  }
  convolution_param {
    num_output: 512
    pad: 1
    kernel_size: 3
    stride: 2
    weight_filler {
      type: "xavier"
    }
    bias_filler {
      type: "constant"
      value: 0
    }
  }
}
layer {
  name: "conv6_2_relu"
  type: "ReLU"
  bottom: "conv6_2"
  top: "conv6_2"
}
layer {
  name: "conv7_1"
  type: "Convolution"
  bottom: "conv6_2"
  top: "conv7_1"
  param {
    lr_mult: 1
    decay_mult: 1
  }
  param {
    lr_mult: 2
    decay_mult: 0
  }
  convolution_param {
    num_output: 128
    pad: 0
    kernel_size: 1
    stride: 1
    weight_filler {
      type: "xavier"
    }
    bias_filler {
      type: "constant"
      value: 0
    }
  }
}
layer {
  name: "conv7_1_relu"
  type: "ReLU"
  bottom: "conv7_1"
  top: "conv7_1"
}
layer {
  name: "conv7_2"
  type: "Convolution"
  bottom: "conv7_1"
  top: "conv7_2"
  param {
    lr_mult: 1
    decay_mult: 1
  }
  param {
    lr_mult: 2
    decay_mult: 0
  }
  convolution_param {
    num_output: 256
    pad: 1
    kernel_size: 3
    stride: 2
    weight_filler {
      type: "xavier"
    }
    bias_filler {
      type: "constant"
      value: 0
    }
  }
}
layer {
  name: "conv7_2_relu"
  type: "ReLU"
  bottom: "conv7_2"
  top: "conv7_2"
}
layer {
  name: "conv8_1"
  type: "Convolution"
  bottom: "conv7_2"
  top: "conv8_1"
  param {
    lr_mult: 1
    decay_mult: 1
  }
  param {
    lr_mult: 2
    decay_mult: 0
  }
  convolution_param {
    num_output: 128
    pad: 0
    kernel_size: 1
    stride: 1
    weight_filler {
      type: "xavier"
    }
    bias_filler {
      type: "constant"
      value: 0
    }
  }
}
layer {
  name: "conv8_1_relu"
  type: "ReLU"
  bottom: "conv8_1"
  top: "conv8_1"
}
layer {
  name: "conv8_2"
  type: "Convolution"
  bottom: "conv8_1"
  top: "conv8_2"
  param {
    lr_mult: 1
    decay_mult: 1
  }
  param {
    lr_mult: 2
    decay_mult: 0
  }
  convolution_param {
    num_output: 256
    pad: 0
    kernel_size: 3
    stride: 1
    weight_filler {
      type: "xavier"
    }
    bias_filler {
      type: "constant"
      value: 0
    }
  }
}
layer {
  name: "conv8_2_relu"
  type: "ReLU"
  bottom: "conv8_2"
  top: "conv8_2"
}
layer {
  name: "conv9_1"
  type: "Convolution"
  bottom: "conv8_2"
  top: "conv9_1"
  param {
    lr_mult: 1
    decay_mult: 1
  }
  param {
    lr_mult: 2
    decay_mult: 0
  }
  convolution_param {
    num_output: 128
    pad: 0
    kernel_size: 1
    stride: 1
    weight_filler {
      type: "xavier"
    }
    bias_filler {
      type: "constant"
      value: 0
    }
  }
}
layer {
  name: "conv9_1_relu"
  type: "ReLU"
  bottom: "conv9_1"
  top: "conv9_1"
}
layer {
  name: "conv9_2"
  type: "Convolution"
  bottom: "conv9_1"
  top: "conv9_2"
  param {
    lr_mult: 1
    decay_mult: 1
  }
  param {
    lr_mult: 2
    decay_mult: 0
  }
  convolution_param {
    num_output: 256
    pad: 0
    kernel_size: 3
    stride: 1
    weight_filler {
      type: "xavier"
    }
    bias_filler {
      type: "constant"
      value: 0
    }
  }
}
layer {
  name: "conv9_2_relu"
  type: "ReLU"
  bottom: "conv9_2"
  top: "conv9_2"
}
layer {
  name: "conv4_3_norm"
  type: "Normalize"
  bottom: "conv4_3"
  top: "conv4_3_norm"
  norm_param {
    across_spatial: false
    scale_filler {
      type: "constant"
      value: 20
    }
    channel_shared: false
  }
}
layer {
  name: "conv4_3_norm_mbox_loc"
  type: "Convolution"
  bottom: "conv4_3_norm"
  top: "conv4_3_norm_mbox_loc"
  param {
    lr_mult: 1
    decay_mult: 1
  }
  param {
    lr_mult: 2
    decay_mult: 0
  }
  convolution_param {
    num_output: 16
    pad: 1
    kernel_size: 3
    stride: 1
    weight_filler {
      type: "xavier"
    }
    bias_filler {
      type: "constant"
      value: 0
    }
  }
}
layer {
  name: "conv4_3_norm_mbox_loc_perm"
  type: "Permute"
  bottom: "conv4_3_norm_mbox_loc"
  top: "conv4_3_norm_mbox_loc_perm"
  permute_param {
    order: 0
    order: 2
    order: 3
    order: 1
  }
}
layer {
  name: "conv4_3_norm_mbox_loc_flat"
  type: "Flatten"
  bottom: "conv4_3_norm_mbox_loc_perm"
  top: "conv4_3_norm_mbox_loc_flat"
  flatten_param {
    axis: 1
  }
}
layer {
  name: "conv4_3_norm_mbox_conf"
  type: "Convolution"
  bottom: "conv4_3_norm"
  top: "conv4_3_norm_mbox_conf"
  param {
    lr_mult: 1
    decay_mult: 1
  }
  param {
    lr_mult: 2
    decay_mult: 0
  }
  convolution_param {
    num_output: 8
    pad: 1
    kernel_size: 3
    stride: 1
    weight_filler {
      type: "xavier"
    }
    bias_filler {
      type: "constant"
      value: 0
    }
  }
}
layer {
  name: "conv4_3_norm_mbox_conf_perm"
  type: "Permute"
  bottom: "conv4_3_norm_mbox_conf"
  top: "conv4_3_norm_mbox_conf_perm"
  permute_param {
    order: 0
    order: 2
    order: 3
    order: 1
  }
}
layer {
  name: "conv4_3_norm_mbox_conf_flat"
  type: "Flatten"
  bottom: "conv4_3_norm_mbox_conf_perm"
  top: "conv4_3_norm_mbox_conf_flat"
  flatten_param {
    axis: 1
  }
}
layer {
  name: "conv4_3_norm_mbox_priorbox"
  type: "PriorBox"
  bottom: "conv4_3_norm"
  bottom: "data"
  top: "conv4_3_norm_mbox_priorbox"
  prior_box_param {
    min_size: 30
    max_size: 60
    aspect_ratio: 2
    flip: true
    clip: false
    variance: 0.1
    variance: 0.1
    variance: 0.2
    variance: 0.2
    step: 8
    offset: 0.5
  }
}
layer {
  name: "fc7_mbox_loc"
  type: "Convolution"
  bottom: "fc7"
  top: "fc7_mbox_loc"
  param {
    lr_mult: 1
    decay_mult: 1
  }
  param {
    lr_mult: 2
    decay_mult: 0
  }
  convolution_param {
    num_output: 24
    pad: 1
    kernel_size: 3
    stride: 1
    weight_filler {
      type: "xavier"
    }
    bias_filler {
      type: "constant"
      value: 0
    }
  }
}
layer {
  name: "fc7_mbox_loc_perm"
  type: "Permute"
  bottom: "fc7_mbox_loc"
  top: "fc7_mbox_loc_perm"
  permute_param {
    order: 0
    order: 2
    order: 3
    order: 1
  }
}
layer {
  name: "fc7_mbox_loc_flat"
  type: "Flatten"
  bottom: "fc7_mbox_loc_perm"
  top: "fc7_mbox_loc_flat"
  flatten_param {
    axis: 1
  }
}
layer {
  name: "fc7_mbox_conf"
  type: "Convolution"
  bottom: "fc7"
  top: "fc7_mbox_conf"
  param {
    lr_mult: 1
    decay_mult: 1
  }
  param {
    lr_mult: 2
    decay_mult: 0
  }
  convolution_param {
    num_output: 12
    pad: 1
    kernel_size: 3
    stride: 1
    weight_filler {
      type: "xavier"
    }
    bias_filler {
      type: "constant"
      value: 0
    }
  }
}
layer {
  name: "fc7_mbox_conf_perm"
  type: "Permute"
  bottom: "fc7_mbox_conf"
  top: "fc7_mbox_conf_perm"
  permute_param {
    order: 0
    order: 2
    order: 3
    order: 1
  }
}
layer {
  name: "fc7_mbox_conf_flat"
  type: "Flatten"
  bottom: "fc7_mbox_conf_perm"
  top: "fc7_mbox_conf_flat"
  flatten_param {
    axis: 1
  }
}
layer {
  name: "fc7_mbox_priorbox"
  type: "PriorBox"
  bottom: "fc7"
  bottom: "data"
  top: "fc7_mbox_priorbox"
  prior_box_param {
    min_size: 60
    max_size: 111
    aspect_ratio: 2
    aspect_ratio: 3
    flip: true
    clip: false
    variance: 0.1
    variance: 0.1
    variance: 0.2
    variance: 0.2
    step: 16
    offset: 0.5
  }
}
layer {
  name: "conv6_2_mbox_loc"
  type: "Convolution"
  bottom: "conv6_2"
  top: "conv6_2_mbox_loc"
  param {
    lr_mult: 1
    decay_mult: 1
  }
  param {
    lr_mult: 2
    decay_mult: 0
  }
  convolution_param {
    num_output: 24
    pad: 1
    kernel_size: 3
    stride: 1
    weight_filler {
      type: "xavier"
    }
    bias_filler {
      type: "constant"
      value: 0
    }
  }
}
layer {
  name: "conv6_2_mbox_loc_perm"
  type: "Permute"
  bottom: "conv6_2_mbox_loc"
  top: "conv6_2_mbox_loc_perm"
  permute_param {
    order: 0
    order: 2
    order: 3
    order: 1
  }
}
layer {
  name: "conv6_2_mbox_loc_flat"
  type: "Flatten"
  bottom: "conv6_2_mbox_loc_perm"
  top: "conv6_2_mbox_loc_flat"
  flatten_param {
    axis: 1
  }
}
layer {
  name: "conv6_2_mbox_conf"
  type: "Convolution"
  bottom: "conv6_2"
  top: "conv6_2_mbox_conf"
  param {
    lr_mult: 1
    decay_mult: 1
  }
  param {
    lr_mult: 2
    decay_mult: 0
  }
  convolution_param {
    num_output: 12
    pad: 1
    kernel_size: 3
    stride: 1
    weight_filler {
      type: "xavier"
    }
    bias_filler {
      type: "constant"
      value: 0
    }
  }
}
layer {
  name: "conv6_2_mbox_conf_perm"
  type: "Permute"
  bottom: "conv6_2_mbox_conf"
  top: "conv6_2_mbox_conf_perm"
  permute_param {
    order: 0
    order: 2
    order: 3
    order: 1
  }
}
layer {
  name: "conv6_2_mbox_conf_flat"
  type: "Flatten"
  bottom: "conv6_2_mbox_conf_perm"
  top: "conv6_2_mbox_conf_flat"
  flatten_param {
    axis: 1
  }
}
layer {
  name: "conv6_2_mbox_priorbox"
  type: "PriorBox"
  bottom: "conv6_2"
  bottom: "data"
  top: "conv6_2_mbox_priorbox"
  prior_box_param {
    min_size: 111
    max_size: 162
    aspect_ratio: 2
    aspect_ratio: 3
    flip: true
    clip: false
    variance: 0.1
    variance: 0.1
    variance: 0.2
    variance: 0.2
    step: 32
    offset: 0.5
  }
}
layer {
  name: "conv7_2_mbox_loc"
  type: "Convolution"
  bottom: "conv7_2"
  top: "conv7_2_mbox_loc"
  param {
    lr_mult: 1
    decay_mult: 1
  }
  param {
    lr_mult: 2
    decay_mult: 0
  }
  convolution_param {
    num_output: 24
    pad: 1
    kernel_size: 3
    stride: 1
    weight_filler {
      type: "xavier"
    }
    bias_filler {
      type: "constant"
      value: 0
    }
  }
}
layer {
  name: "conv7_2_mbox_loc_perm"
  type: "Permute"
  bottom: "conv7_2_mbox_loc"
  top: "conv7_2_mbox_loc_perm"
  permute_param {
    order: 0
    order: 2
    order: 3
    order: 1
  }
}
layer {
  name: "conv7_2_mbox_loc_flat"
  type: "Flatten"
  bottom: "conv7_2_mbox_loc_perm"
  top: "conv7_2_mbox_loc_flat"
  flatten_param {
    axis: 1
  }
}
layer {
  name: "conv7_2_mbox_conf"
  type: "Convolution"
  bottom: "conv7_2"
  top: "conv7_2_mbox_conf"
  param {
    lr_mult: 1
    decay_mult: 1
  }
  param {
    lr_mult: 2
    decay_mult: 0
  }
  convolution_param {
    num_output: 12
    pad: 1
    kernel_size: 3
    stride: 1
    weight_filler {
      type: "xavier"
    }
    bias_filler {
      type: "constant"
      value: 0
    }
  }
}
layer {
  name: "conv7_2_mbox_conf_perm"
  type: "Permute"
  bottom: "conv7_2_mbox_conf"
  top: "conv7_2_mbox_conf_perm"
  permute_param {
    order: 0
    order: 2
    order: 3
    order: 1
  }
}
layer {
  name: "conv7_2_mbox_conf_flat"
  type: "Flatten"
  bottom: "conv7_2_mbox_conf_perm"
  top: "conv7_2_mbox_conf_flat"
  flatten_param {
    axis: 1
  }
}
layer {
  name: "conv7_2_mbox_priorbox"
  type: "PriorBox"
  bottom: "conv7_2"
  bottom: "data"
  top: "conv7_2_mbox_priorbox"
  prior_box_param {
    min_size: 162
    max_size: 213
    aspect_ratio: 2
    aspect_ratio: 3
    flip: true
    clip: false
    variance: 0.1
    variance: 0.1
    variance: 0.2
    variance: 0.2
    step: 64
    offset: 0.5
  }
}
layer {
  name: "conv8_2_mbox_loc"
  type: "Convolution"
  bottom: "conv8_2"
  top: "conv8_2_mbox_loc"
  param {
    lr_mult: 1
    decay_mult: 1
  }
  param {
    lr_mult: 2
    decay_mult: 0
  }
  convolution_param {
    num_output: 16
    pad: 1
    kernel_size: 3
    stride: 1
    weight_filler {
      type: "xavier"
    }
    bias_filler {
      type: "constant"
      value: 0
    }
  }
}
layer {
  name: "conv8_2_mbox_loc_perm"
  type: "Permute"
  bottom: "conv8_2_mbox_loc"
  top: "conv8_2_mbox_loc_perm"
  permute_param {
    order: 0
    order: 2
    order: 3
    order: 1
  }
}
layer {
  name: "conv8_2_mbox_loc_flat"
  type: "Flatten"
  bottom: "conv8_2_mbox_loc_perm"
  top: "conv8_2_mbox_loc_flat"
  flatten_param {
    axis: 1
  }
}
layer {
  name: "conv8_2_mbox_conf"
  type: "Convolution"
  bottom: "conv8_2"
  top: "conv8_2_mbox_conf"
  param {
    lr_mult: 1
    decay_mult: 1
  }
  param {
    lr_mult: 2
    decay_mult: 0
  }
  convolution_param {
    num_output: 8
    pad: 1
    kernel_size: 3
    stride: 1
    weight_filler {
      type: "xavier"
    }
    bias_filler {
      type: "constant"
      value: 0
    }
  }
}
layer {
  name: "conv8_2_mbox_conf_perm"
  type: "Permute"
  bottom: "conv8_2_mbox_conf"
  top: "conv8_2_mbox_conf_perm"
  permute_param {
    order: 0
    order: 2
    order: 3
    order: 1
  }
}
layer {
  name: "conv8_2_mbox_conf_flat"
  type: "Flatten"
  bottom: "conv8_2_mbox_conf_perm"
  top: "conv8_2_mbox_conf_flat"
  flatten_param {
    axis: 1
  }
}
layer {
  name: "conv8_2_mbox_priorbox"
  type: "PriorBox"
  bottom: "conv8_2"
  bottom: "data"
  top: "conv8_2_mbox_priorbox"
  prior_box_param {
    min_size: 213
    max_size: 264
    aspect_ratio: 2
    flip: true
    clip: false
    variance: 0.1
    variance: 0.1
    variance: 0.2
    variance: 0.2
    step: 100
    offset: 0.5
  }
}
layer {
  name: "conv9_2_mbox_loc"
  type: "Convolution"
  bottom: "conv9_2"
  top: "conv9_2_mbox_loc"
  param {
    lr_mult: 1
    decay_mult: 1
  }
  param {
    lr_mult: 2
    decay_mult: 0
  }
  convolution_param {
    num_output: 16
    pad: 1
    kernel_size: 3
    stride: 1
    weight_filler {
      type: "xavier"
    }
    bias_filler {
      type: "constant"
      value: 0
    }
  }
}
layer {
  name: "conv9_2_mbox_loc_perm"
  type: "Permute"
  bottom: "conv9_2_mbox_loc"
  top: "conv9_2_mbox_loc_perm"
  permute_param {
    order: 0
    order: 2
    order: 3
    order: 1
  }
}
layer {
  name: "conv9_2_mbox_loc_flat"
  type: "Flatten"
  bottom: "conv9_2_mbox_loc_perm"
  top: "conv9_2_mbox_loc_flat"
  flatten_param {
    axis: 1
  }
}
layer {
  name: "conv9_2_mbox_conf"
  type: "Convolution"
  bottom: "conv9_2"
  top: "conv9_2_mbox_conf"
  param {
    lr_mult: 1
    decay_mult: 1
  }
  param {
    lr_mult: 2
    decay_mult: 0
  }
  convolution_param {
    num_output: 8
    pad: 1
    kernel_size: 3
    stride: 1
    weight_filler {
      type: "xavier"
    }
    bias_filler {
      type: "constant"
      value: 0
    }
  }
}
layer {
  name: "conv9_2_mbox_conf_perm"
  type: "Permute"
  bottom: "conv9_2_mbox_conf"
  top: "conv9_2_mbox_conf_perm"
  permute_param {
    order: 0
    order: 2
    order: 3
    order: 1
  }
}
layer {
  name: "conv9_2_mbox_conf_flat"
  type: "Flatten"
  bottom: "conv9_2_mbox_conf_perm"
  top: "conv9_2_mbox_conf_flat"
  flatten_param {
    axis: 1
  }
}
layer {
  name: "conv9_2_mbox_priorbox"
  type: "PriorBox"
  bottom: "conv9_2"
  bottom: "data"
  top: "conv9_2_mbox_priorbox"
  prior_box_param {
    min_size: 264
    max_size: 315
    aspect_ratio: 2
    flip: true
    clip: false
    variance: 0.1
    variance: 0.1
    variance: 0.2
    variance: 0.2
    step: 300
    offset: 0.5
  }
}
layer {
  name: "mbox_loc"
  type: "Concat"
  bottom: "conv4_3_norm_mbox_loc_flat"
  bottom: "fc7_mbox_loc_flat"
  bottom: "conv6_2_mbox_loc_flat"
  bottom: "conv7_2_mbox_loc_flat"
  bottom: "conv8_2_mbox_loc_flat"
  bottom: "conv9_2_mbox_loc_flat"
  top: "mbox_loc"
  concat_param {
    axis: 1
  }
}
layer {
  name: "mbox_conf"
  type: "Concat"
  bottom: "conv4_3_norm_mbox_conf_flat"
  bottom: "fc7_mbox_conf_flat"
  bottom: "conv6_2_mbox_conf_flat"
  bottom: "conv7_2_mbox_conf_flat"
  bottom: "conv8_2_mbox_conf_flat"
  bottom: "conv9_2_mbox_conf_flat"
  top: "mbox_conf"
  concat_param {
    axis: 1
  }
}
layer {
  name: "mbox_priorbox"
  type: "Concat"
  bottom: "conv4_3_norm_mbox_priorbox"
  bottom: "fc7_mbox_priorbox"
  bottom: "conv6_2_mbox_priorbox"
  bottom: "conv7_2_mbox_priorbox"
  bottom: "conv8_2_mbox_priorbox"
  bottom: "conv9_2_mbox_priorbox"
  top: "mbox_priorbox"
  concat_param {
    axis: 2
  }
}
layer {
  name: "mbox_conf_reshape"
  type: "Reshape"
  bottom: "mbox_conf"
  top: "mbox_conf_reshape"
  reshape_param {
    shape {
      dim: 0
      dim: -1
      dim: 2
    }
  }
}
layer {
  name: "mbox_conf_softmax"
  type: "Softmax"
  bottom: "mbox_conf_reshape"
  top: "mbox_conf_softmax"
  softmax_param {
    axis: 2
  }
}
layer {
  name: "mbox_conf_flatten"
  type: "Flatten"
  bottom: "mbox_conf_softmax"
  top: "mbox_conf_flatten"
  flatten_param {
    axis: 1
  }
}
layer {
  name: "detection_out"
  type: "DetectionOutput"
  bottom: "mbox_loc"
  bottom: "mbox_conf_flatten"
  bottom: "mbox_priorbox"
  top: "detection_out"
  include {
    phase: TEST
  }
  detection_output_param {
    num_classes: 2
    share_location: true
    background_label_id: 0
    nms_param {
      nms_threshold: 0.45
      top_k: 400
    }
    save_output_param {
      output_directory: "/home/shangzw/data/sharpen_tbs_v2.0/results/tbs/SSD_300x300/Main"
      output_name_prefix: "comp4_det_test_"
      output_format: "VOC"
      label_map_file: "data/sharpen_tbs_v2.0/labelmap_voc.prototxt"
      name_size_file: "data/sharpen_tbs_v2.0/test_name_size"
      num_test_image: 100
    }
    code_type: CENTER_SIZE
    keep_top_k: 200
    confidence_threshold: 0.01
  }
}
layer {
  name: "detection_eval"
  type: "DetectionEvaluate"
  bottom: "detection_out"
  bottom: "label"
  top: "detection_eval"
  include {
    phase: TEST
  }
  detection_evaluate_param {
    num_classes: 2
    background_label_id: 0
    overlap_threshold: 0.5
    evaluate_difficult_gt: false
    name_size_file: "data/sharpen_tbs_v2.0/test_name_size"
  }
}
I0609 17:50:09.345048 16776 layer_factory.hpp:77] Creating layer data
I0609 17:50:09.345093 16776 net.cpp:100] Creating Layer data
I0609 17:50:09.345100 16776 net.cpp:409] data -> data
I0609 17:50:09.345108 16776 net.cpp:409] data -> label
I0609 17:50:09.345113 16776 layer.hpp:71] 
I0609 17:50:09.345542 16798 db_lmdb.cpp:35] Opened lmdb examples/sharpen_tbs_v2.0/sharpen_tbs_v2.0_test_lmdb
I0609 17:50:09.347188 16776 annotated_data_layer.cpp:62] output data size: 4,3,300,300
I0609 17:50:09.356570 16776 net.cpp:151] Setting up data
I0609 17:50:09.356602 16776 net.cpp:158] Top shape: 4 3 300 300 (1080000)
I0609 17:50:09.356606 16776 net.cpp:158] Top shape: 1 1 1 8 (8)
I0609 17:50:09.356608 16776 net.cpp:166] Memory required for data: 4320032
I0609 17:50:09.356613 16776 layer_factory.hpp:77] Creating layer data_data_0_split
I0609 17:50:09.356622 16776 net.cpp:100] Creating Layer data_data_0_split
I0609 17:50:09.356626 16776 net.cpp:435] data_data_0_split <- data
I0609 17:50:09.356632 16776 net.cpp:409] data_data_0_split -> data_data_0_split_0
I0609 17:50:09.356640 16776 net.cpp:409] data_data_0_split -> data_data_0_split_1
I0609 17:50:09.356645 16776 net.cpp:409] data_data_0_split -> data_data_0_split_2
I0609 17:50:09.356665 16776 net.cpp:409] data_data_0_split -> data_data_0_split_3
I0609 17:50:09.356683 16776 net.cpp:409] data_data_0_split -> data_data_0_split_4
I0609 17:50:09.356688 16776 net.cpp:409] data_data_0_split -> data_data_0_split_5
I0609 17:50:09.356691 16776 net.cpp:409] data_data_0_split -> data_data_0_split_6
I0609 17:50:09.356698 16776 layer.hpp:71] 
I0609 17:50:09.356807 16776 net.cpp:151] Setting up data_data_0_split
I0609 17:50:09.356817 16776 net.cpp:158] Top shape: 4 3 300 300 (1080000)
I0609 17:50:09.356820 16776 net.cpp:158] Top shape: 4 3 300 300 (1080000)
I0609 17:50:09.356825 16776 net.cpp:158] Top shape: 4 3 300 300 (1080000)
I0609 17:50:09.356829 16776 net.cpp:158] Top shape: 4 3 300 300 (1080000)
I0609 17:50:09.356833 16776 net.cpp:158] Top shape: 4 3 300 300 (1080000)
I0609 17:50:09.356840 16776 net.cpp:158] Top shape: 4 3 300 300 (1080000)
I0609 17:50:09.356844 16776 net.cpp:158] Top shape: 4 3 300 300 (1080000)
I0609 17:50:09.356848 16776 net.cpp:166] Memory required for data: 34560032
I0609 17:50:09.356851 16776 layer_factory.hpp:77] Creating layer conv1_1
I0609 17:50:09.356861 16776 net.cpp:100] Creating Layer conv1_1
I0609 17:50:09.356866 16776 net.cpp:435] conv1_1 <- data_data_0_split_0
I0609 17:50:09.356873 16776 net.cpp:409] conv1_1 -> conv1_1
I0609 17:50:09.356881 16776 layer.hpp:71] 
I0609 17:50:09.358299 16776 net.cpp:151] Setting up conv1_1
I0609 17:50:09.358311 16776 net.cpp:158] Top shape: 4 64 300 300 (23040000)
I0609 17:50:09.358314 16776 net.cpp:166] Memory required for data: 126720032
I0609 17:50:09.358325 16776 layer_factory.hpp:77] Creating layer relu1_1
I0609 17:50:09.358332 16776 net.cpp:100] Creating Layer relu1_1
I0609 17:50:09.358337 16776 net.cpp:435] relu1_1 <- conv1_1
I0609 17:50:09.358343 16776 net.cpp:396] relu1_1 -> conv1_1 (in-place)
I0609 17:50:09.358350 16776 layer.hpp:71] 
I0609 17:50:09.358474 16776 net.cpp:151] Setting up relu1_1
I0609 17:50:09.358481 16776 net.cpp:158] Top shape: 4 64 300 300 (23040000)
I0609 17:50:09.358484 16776 net.cpp:166] Memory required for data: 218880032
I0609 17:50:09.358489 16776 layer_factory.hpp:77] Creating layer conv1_2
I0609 17:50:09.358497 16776 net.cpp:100] Creating Layer conv1_2
I0609 17:50:09.358501 16776 net.cpp:435] conv1_2 <- conv1_1
I0609 17:50:09.358506 16776 net.cpp:409] conv1_2 -> conv1_2
I0609 17:50:09.358513 16776 layer.hpp:71] 
I0609 17:50:09.361982 16776 net.cpp:151] Setting up conv1_2
I0609 17:50:09.361997 16776 net.cpp:158] Top shape: 4 64 300 300 (23040000)
I0609 17:50:09.362001 16776 net.cpp:166] Memory required for data: 311040032
I0609 17:50:09.362011 16776 layer_factory.hpp:77] Creating layer relu1_2
I0609 17:50:09.362020 16776 net.cpp:100] Creating Layer relu1_2
I0609 17:50:09.362025 16776 net.cpp:435] relu1_2 <- conv1_2
I0609 17:50:09.362030 16776 net.cpp:396] relu1_2 -> conv1_2 (in-place)
I0609 17:50:09.362037 16776 layer.hpp:71] 
I0609 17:50:09.362785 16776 net.cpp:151] Setting up relu1_2
I0609 17:50:09.362794 16776 net.cpp:158] Top shape: 4 64 300 300 (23040000)
I0609 17:50:09.362798 16776 net.cpp:166] Memory required for data: 403200032
I0609 17:50:09.362802 16776 layer_factory.hpp:77] Creating layer pool1
I0609 17:50:09.362808 16776 net.cpp:100] Creating Layer pool1
I0609 17:50:09.362812 16776 net.cpp:435] pool1 <- conv1_2
I0609 17:50:09.362818 16776 net.cpp:409] pool1 -> pool1
I0609 17:50:09.362826 16776 layer.hpp:71] 
I0609 17:50:09.362871 16776 net.cpp:151] Setting up pool1
I0609 17:50:09.362876 16776 net.cpp:158] Top shape: 4 64 150 150 (5760000)
I0609 17:50:09.362880 16776 net.cpp:166] Memory required for data: 426240032
I0609 17:50:09.362884 16776 layer_factory.hpp:77] Creating layer conv2_1
I0609 17:50:09.362893 16776 net.cpp:100] Creating Layer conv2_1
I0609 17:50:09.362898 16776 net.cpp:435] conv2_1 <- pool1
I0609 17:50:09.362907 16776 net.cpp:409] conv2_1 -> conv2_1
I0609 17:50:09.362916 16776 layer.hpp:71] 
I0609 17:50:09.363809 16776 net.cpp:151] Setting up conv2_1
I0609 17:50:09.363817 16776 net.cpp:158] Top shape: 4 128 150 150 (11520000)
I0609 17:50:09.363821 16776 net.cpp:166] Memory required for data: 472320032
I0609 17:50:09.363829 16776 layer_factory.hpp:77] Creating layer relu2_1
I0609 17:50:09.363847 16776 net.cpp:100] Creating Layer relu2_1
I0609 17:50:09.363853 16776 net.cpp:435] relu2_1 <- conv2_1
I0609 17:50:09.363862 16776 net.cpp:396] relu2_1 -> conv2_1 (in-place)
I0609 17:50:09.363869 16776 layer.hpp:71] 
I0609 17:50:09.364451 16776 net.cpp:151] Setting up relu2_1
I0609 17:50:09.364460 16776 net.cpp:158] Top shape: 4 128 150 150 (11520000)
I0609 17:50:09.364462 16776 net.cpp:166] Memory required for data: 518400032
I0609 17:50:09.364465 16776 layer_factory.hpp:77] Creating layer conv2_2
I0609 17:50:09.364473 16776 net.cpp:100] Creating Layer conv2_2
I0609 17:50:09.364478 16776 net.cpp:435] conv2_2 <- conv2_1
I0609 17:50:09.364487 16776 net.cpp:409] conv2_2 -> conv2_2
I0609 17:50:09.364496 16776 layer.hpp:71] 
I0609 17:50:09.366581 16776 net.cpp:151] Setting up conv2_2
I0609 17:50:09.366592 16776 net.cpp:158] Top shape: 4 128 150 150 (11520000)
I0609 17:50:09.366595 16776 net.cpp:166] Memory required for data: 564480032
I0609 17:50:09.366601 16776 layer_factory.hpp:77] Creating layer relu2_2
I0609 17:50:09.366607 16776 net.cpp:100] Creating Layer relu2_2
I0609 17:50:09.366611 16776 net.cpp:435] relu2_2 <- conv2_2
I0609 17:50:09.366619 16776 net.cpp:396] relu2_2 -> conv2_2 (in-place)
I0609 17:50:09.366628 16776 layer.hpp:71] 
I0609 17:50:09.366768 16776 net.cpp:151] Setting up relu2_2
I0609 17:50:09.366776 16776 net.cpp:158] Top shape: 4 128 150 150 (11520000)
I0609 17:50:09.366778 16776 net.cpp:166] Memory required for data: 610560032
I0609 17:50:09.366781 16776 layer_factory.hpp:77] Creating layer pool2
I0609 17:50:09.366788 16776 net.cpp:100] Creating Layer pool2
I0609 17:50:09.366793 16776 net.cpp:435] pool2 <- conv2_2
I0609 17:50:09.366799 16776 net.cpp:409] pool2 -> pool2
I0609 17:50:09.366808 16776 layer.hpp:71] 
I0609 17:50:09.366855 16776 net.cpp:151] Setting up pool2
I0609 17:50:09.366861 16776 net.cpp:158] Top shape: 4 128 75 75 (2880000)
I0609 17:50:09.366863 16776 net.cpp:166] Memory required for data: 622080032
I0609 17:50:09.366868 16776 layer_factory.hpp:77] Creating layer conv3_1
I0609 17:50:09.366876 16776 net.cpp:100] Creating Layer conv3_1
I0609 17:50:09.366883 16776 net.cpp:435] conv3_1 <- pool2
I0609 17:50:09.366890 16776 net.cpp:409] conv3_1 -> conv3_1
I0609 17:50:09.366899 16776 layer.hpp:71] 
I0609 17:50:09.370272 16776 net.cpp:151] Setting up conv3_1
I0609 17:50:09.370285 16776 net.cpp:158] Top shape: 4 256 75 75 (5760000)
I0609 17:50:09.370288 16776 net.cpp:166] Memory required for data: 645120032
I0609 17:50:09.370299 16776 layer_factory.hpp:77] Creating layer relu3_1
I0609 17:50:09.370307 16776 net.cpp:100] Creating Layer relu3_1
I0609 17:50:09.370311 16776 net.cpp:435] relu3_1 <- conv3_1
I0609 17:50:09.370318 16776 net.cpp:396] relu3_1 -> conv3_1 (in-place)
I0609 17:50:09.370326 16776 layer.hpp:71] 
I0609 17:50:09.370476 16776 net.cpp:151] Setting up relu3_1
I0609 17:50:09.370486 16776 net.cpp:158] Top shape: 4 256 75 75 (5760000)
I0609 17:50:09.370487 16776 net.cpp:166] Memory required for data: 668160032
I0609 17:50:09.370491 16776 layer_factory.hpp:77] Creating layer conv3_2
I0609 17:50:09.370501 16776 net.cpp:100] Creating Layer conv3_2
I0609 17:50:09.370507 16776 net.cpp:435] conv3_2 <- conv3_1
I0609 17:50:09.370514 16776 net.cpp:409] conv3_2 -> conv3_2
I0609 17:50:09.370525 16776 layer.hpp:71] 
I0609 17:50:09.375216 16776 net.cpp:151] Setting up conv3_2
I0609 17:50:09.375233 16776 net.cpp:158] Top shape: 4 256 75 75 (5760000)
I0609 17:50:09.375236 16776 net.cpp:166] Memory required for data: 691200032
I0609 17:50:09.375243 16776 layer_factory.hpp:77] Creating layer relu3_2
I0609 17:50:09.375252 16776 net.cpp:100] Creating Layer relu3_2
I0609 17:50:09.375255 16776 net.cpp:435] relu3_2 <- conv3_2
I0609 17:50:09.375262 16776 net.cpp:396] relu3_2 -> conv3_2 (in-place)
I0609 17:50:09.375269 16776 layer.hpp:71] 
I0609 17:50:09.375417 16776 net.cpp:151] Setting up relu3_2
I0609 17:50:09.375424 16776 net.cpp:158] Top shape: 4 256 75 75 (5760000)
I0609 17:50:09.375427 16776 net.cpp:166] Memory required for data: 714240032
I0609 17:50:09.375444 16776 layer_factory.hpp:77] Creating layer conv3_3
I0609 17:50:09.375459 16776 net.cpp:100] Creating Layer conv3_3
I0609 17:50:09.375464 16776 net.cpp:435] conv3_3 <- conv3_2
I0609 17:50:09.375473 16776 net.cpp:409] conv3_3 -> conv3_3
I0609 17:50:09.375483 16776 layer.hpp:71] 
I0609 17:50:09.380177 16776 net.cpp:151] Setting up conv3_3
I0609 17:50:09.380192 16776 net.cpp:158] Top shape: 4 256 75 75 (5760000)
I0609 17:50:09.380193 16776 net.cpp:166] Memory required for data: 737280032
I0609 17:50:09.380200 16776 layer_factory.hpp:77] Creating layer relu3_3
I0609 17:50:09.380208 16776 net.cpp:100] Creating Layer relu3_3
I0609 17:50:09.380211 16776 net.cpp:435] relu3_3 <- conv3_3
I0609 17:50:09.380218 16776 net.cpp:396] relu3_3 -> conv3_3 (in-place)
I0609 17:50:09.380228 16776 layer.hpp:71] 
I0609 17:50:09.380373 16776 net.cpp:151] Setting up relu3_3
I0609 17:50:09.380381 16776 net.cpp:158] Top shape: 4 256 75 75 (5760000)
I0609 17:50:09.380383 16776 net.cpp:166] Memory required for data: 760320032
I0609 17:50:09.380386 16776 layer_factory.hpp:77] Creating layer pool3
I0609 17:50:09.380393 16776 net.cpp:100] Creating Layer pool3
I0609 17:50:09.380399 16776 net.cpp:435] pool3 <- conv3_3
I0609 17:50:09.380405 16776 net.cpp:409] pool3 -> pool3
I0609 17:50:09.380414 16776 layer.hpp:71] 
I0609 17:50:09.380462 16776 net.cpp:151] Setting up pool3
I0609 17:50:09.380467 16776 net.cpp:158] Top shape: 4 256 38 38 (1478656)
I0609 17:50:09.380470 16776 net.cpp:166] Memory required for data: 766234656
I0609 17:50:09.380473 16776 layer_factory.hpp:77] Creating layer conv4_1
I0609 17:50:09.380483 16776 net.cpp:100] Creating Layer conv4_1
I0609 17:50:09.380488 16776 net.cpp:435] conv4_1 <- pool3
I0609 17:50:09.380496 16776 net.cpp:409] conv4_1 -> conv4_1
I0609 17:50:09.380506 16776 layer.hpp:71] 
I0609 17:50:09.388020 16776 net.cpp:151] Setting up conv4_1
I0609 17:50:09.388036 16776 net.cpp:158] Top shape: 4 512 38 38 (2957312)
I0609 17:50:09.388039 16776 net.cpp:166] Memory required for data: 778063904
I0609 17:50:09.388046 16776 layer_factory.hpp:77] Creating layer relu4_1
I0609 17:50:09.388056 16776 net.cpp:100] Creating Layer relu4_1
I0609 17:50:09.388061 16776 net.cpp:435] relu4_1 <- conv4_1
I0609 17:50:09.388067 16776 net.cpp:396] relu4_1 -> conv4_1 (in-place)
I0609 17:50:09.388082 16776 layer.hpp:71] 
I0609 17:50:09.388892 16776 net.cpp:151] Setting up relu4_1
I0609 17:50:09.388903 16776 net.cpp:158] Top shape: 4 512 38 38 (2957312)
I0609 17:50:09.388907 16776 net.cpp:166] Memory required for data: 789893152
I0609 17:50:09.388911 16776 layer_factory.hpp:77] Creating layer conv4_2
I0609 17:50:09.388921 16776 net.cpp:100] Creating Layer conv4_2
I0609 17:50:09.388926 16776 net.cpp:435] conv4_2 <- conv4_1
I0609 17:50:09.388932 16776 net.cpp:409] conv4_2 -> conv4_2
I0609 17:50:09.388942 16776 layer.hpp:71] 
I0609 17:50:09.401670 16776 net.cpp:151] Setting up conv4_2
I0609 17:50:09.401688 16776 net.cpp:158] Top shape: 4 512 38 38 (2957312)
I0609 17:50:09.401690 16776 net.cpp:166] Memory required for data: 801722400
I0609 17:50:09.401701 16776 layer_factory.hpp:77] Creating layer relu4_2
I0609 17:50:09.401711 16776 net.cpp:100] Creating Layer relu4_2
I0609 17:50:09.401716 16776 net.cpp:435] relu4_2 <- conv4_2
I0609 17:50:09.401722 16776 net.cpp:396] relu4_2 -> conv4_2 (in-place)
I0609 17:50:09.401736 16776 layer.hpp:71] 
I0609 17:50:09.402425 16776 net.cpp:151] Setting up relu4_2
I0609 17:50:09.402433 16776 net.cpp:158] Top shape: 4 512 38 38 (2957312)
I0609 17:50:09.402436 16776 net.cpp:166] Memory required for data: 813551648
I0609 17:50:09.402439 16776 layer_factory.hpp:77] Creating layer conv4_3
I0609 17:50:09.402451 16776 net.cpp:100] Creating Layer conv4_3
I0609 17:50:09.402457 16776 net.cpp:435] conv4_3 <- conv4_2
I0609 17:50:09.402467 16776 net.cpp:409] conv4_3 -> conv4_3
I0609 17:50:09.402477 16776 layer.hpp:71] 
I0609 17:50:09.415287 16776 net.cpp:151] Setting up conv4_3
I0609 17:50:09.415302 16776 net.cpp:158] Top shape: 4 512 38 38 (2957312)
I0609 17:50:09.415304 16776 net.cpp:166] Memory required for data: 825380896
I0609 17:50:09.415328 16776 layer_factory.hpp:77] Creating layer relu4_3
I0609 17:50:09.415340 16776 net.cpp:100] Creating Layer relu4_3
I0609 17:50:09.415346 16776 net.cpp:435] relu4_3 <- conv4_3
I0609 17:50:09.415354 16776 net.cpp:396] relu4_3 -> conv4_3 (in-place)
I0609 17:50:09.415367 16776 layer.hpp:71] 
I0609 17:50:09.415521 16776 net.cpp:151] Setting up relu4_3
I0609 17:50:09.415530 16776 net.cpp:158] Top shape: 4 512 38 38 (2957312)
I0609 17:50:09.415532 16776 net.cpp:166] Memory required for data: 837210144
I0609 17:50:09.415535 16776 layer_factory.hpp:77] Creating layer conv4_3_relu4_3_0_split
I0609 17:50:09.415541 16776 net.cpp:100] Creating Layer conv4_3_relu4_3_0_split
I0609 17:50:09.415546 16776 net.cpp:435] conv4_3_relu4_3_0_split <- conv4_3
I0609 17:50:09.415554 16776 net.cpp:409] conv4_3_relu4_3_0_split -> conv4_3_relu4_3_0_split_0
I0609 17:50:09.415563 16776 net.cpp:409] conv4_3_relu4_3_0_split -> conv4_3_relu4_3_0_split_1
I0609 17:50:09.415572 16776 layer.hpp:71] 
I0609 17:50:09.415616 16776 net.cpp:151] Setting up conv4_3_relu4_3_0_split
I0609 17:50:09.415622 16776 net.cpp:158] Top shape: 4 512 38 38 (2957312)
I0609 17:50:09.415626 16776 net.cpp:158] Top shape: 4 512 38 38 (2957312)
I0609 17:50:09.415628 16776 net.cpp:166] Memory required for data: 860868640
I0609 17:50:09.415632 16776 layer_factory.hpp:77] Creating layer pool4
I0609 17:50:09.415640 16776 net.cpp:100] Creating Layer pool4
I0609 17:50:09.415645 16776 net.cpp:435] pool4 <- conv4_3_relu4_3_0_split_0
I0609 17:50:09.415653 16776 net.cpp:409] pool4 -> pool4
I0609 17:50:09.415663 16776 layer.hpp:71] 
I0609 17:50:09.415704 16776 net.cpp:151] Setting up pool4
I0609 17:50:09.415709 16776 net.cpp:158] Top shape: 4 512 19 19 (739328)
I0609 17:50:09.415711 16776 net.cpp:166] Memory required for data: 863825952
I0609 17:50:09.415714 16776 layer_factory.hpp:77] Creating layer conv5_1
I0609 17:50:09.415725 16776 net.cpp:100] Creating Layer conv5_1
I0609 17:50:09.415731 16776 net.cpp:435] conv5_1 <- pool4
I0609 17:50:09.415740 16776 net.cpp:409] conv5_1 -> conv5_1
I0609 17:50:09.415750 16776 layer.hpp:71] 
I0609 17:50:09.429601 16776 net.cpp:151] Setting up conv5_1
I0609 17:50:09.429625 16776 net.cpp:158] Top shape: 4 512 19 19 (739328)
I0609 17:50:09.429627 16776 net.cpp:166] Memory required for data: 866783264
I0609 17:50:09.429636 16776 layer_factory.hpp:77] Creating layer relu5_1
I0609 17:50:09.429646 16776 net.cpp:100] Creating Layer relu5_1
I0609 17:50:09.429652 16776 net.cpp:435] relu5_1 <- conv5_1
I0609 17:50:09.429661 16776 net.cpp:396] relu5_1 -> conv5_1 (in-place)
I0609 17:50:09.429672 16776 layer.hpp:71] 
I0609 17:50:09.429817 16776 net.cpp:151] Setting up relu5_1
I0609 17:50:09.429826 16776 net.cpp:158] Top shape: 4 512 19 19 (739328)
I0609 17:50:09.429828 16776 net.cpp:166] Memory required for data: 869740576
I0609 17:50:09.429831 16776 layer_factory.hpp:77] Creating layer conv5_2
I0609 17:50:09.429841 16776 net.cpp:100] Creating Layer conv5_2
I0609 17:50:09.429847 16776 net.cpp:435] conv5_2 <- conv5_1
I0609 17:50:09.429857 16776 net.cpp:409] conv5_2 -> conv5_2
I0609 17:50:09.429867 16776 layer.hpp:71] 
I0609 17:50:09.442766 16776 net.cpp:151] Setting up conv5_2
I0609 17:50:09.442783 16776 net.cpp:158] Top shape: 4 512 19 19 (739328)
I0609 17:50:09.442786 16776 net.cpp:166] Memory required for data: 872697888
I0609 17:50:09.442793 16776 layer_factory.hpp:77] Creating layer relu5_2
I0609 17:50:09.442803 16776 net.cpp:100] Creating Layer relu5_2
I0609 17:50:09.442808 16776 net.cpp:435] relu5_2 <- conv5_2
I0609 17:50:09.442814 16776 net.cpp:396] relu5_2 -> conv5_2 (in-place)
I0609 17:50:09.442822 16776 layer.hpp:71] 
I0609 17:50:09.442966 16776 net.cpp:151] Setting up relu5_2
I0609 17:50:09.442975 16776 net.cpp:158] Top shape: 4 512 19 19 (739328)
I0609 17:50:09.442976 16776 net.cpp:166] Memory required for data: 875655200
I0609 17:50:09.442980 16776 layer_factory.hpp:77] Creating layer conv5_3
I0609 17:50:09.442991 16776 net.cpp:100] Creating Layer conv5_3
I0609 17:50:09.442997 16776 net.cpp:435] conv5_3 <- conv5_2
I0609 17:50:09.443006 16776 net.cpp:409] conv5_3 -> conv5_3
I0609 17:50:09.443027 16776 layer.hpp:71] 
I0609 17:50:09.457012 16776 net.cpp:151] Setting up conv5_3
I0609 17:50:09.457028 16776 net.cpp:158] Top shape: 4 512 19 19 (739328)
I0609 17:50:09.457031 16776 net.cpp:166] Memory required for data: 878612512
I0609 17:50:09.457038 16776 layer_factory.hpp:77] Creating layer relu5_3
I0609 17:50:09.457051 16776 net.cpp:100] Creating Layer relu5_3
I0609 17:50:09.457057 16776 net.cpp:435] relu5_3 <- conv5_3
I0609 17:50:09.457080 16776 net.cpp:396] relu5_3 -> conv5_3 (in-place)
I0609 17:50:09.457088 16776 layer.hpp:71] 
I0609 17:50:09.457288 16776 net.cpp:151] Setting up relu5_3
I0609 17:50:09.457295 16776 net.cpp:158] Top shape: 4 512 19 19 (739328)
I0609 17:50:09.457316 16776 net.cpp:166] Memory required for data: 881569824
I0609 17:50:09.457319 16776 layer_factory.hpp:77] Creating layer pool5
I0609 17:50:09.457339 16776 net.cpp:100] Creating Layer pool5
I0609 17:50:09.457341 16776 net.cpp:435] pool5 <- conv5_3
I0609 17:50:09.457348 16776 net.cpp:409] pool5 -> pool5
I0609 17:50:09.457356 16776 layer.hpp:71] 
I0609 17:50:09.457420 16776 net.cpp:151] Setting up pool5
I0609 17:50:09.457427 16776 net.cpp:158] Top shape: 4 512 19 19 (739328)
I0609 17:50:09.457428 16776 net.cpp:166] Memory required for data: 884527136
I0609 17:50:09.457522 16776 layer_factory.hpp:77] Creating layer fc6
I0609 17:50:09.457533 16776 net.cpp:100] Creating Layer fc6
I0609 17:50:09.457536 16776 net.cpp:435] fc6 <- pool5
I0609 17:50:09.457541 16776 net.cpp:409] fc6 -> fc6
I0609 17:50:09.457546 16776 layer.hpp:71] 
I0609 17:50:09.480422 16776 net.cpp:151] Setting up fc6
I0609 17:50:09.480437 16776 net.cpp:158] Top shape: 4 1024 19 19 (1478656)
I0609 17:50:09.480442 16776 net.cpp:166] Memory required for data: 890441760
I0609 17:50:09.480449 16776 layer_factory.hpp:77] Creating layer relu6
I0609 17:50:09.480458 16776 net.cpp:100] Creating Layer relu6
I0609 17:50:09.480463 16776 net.cpp:435] relu6 <- fc6
I0609 17:50:09.480470 16776 net.cpp:396] relu6 -> fc6 (in-place)
I0609 17:50:09.480479 16776 layer.hpp:71] 
I0609 17:50:09.481263 16776 net.cpp:151] Setting up relu6
I0609 17:50:09.481273 16776 net.cpp:158] Top shape: 4 1024 19 19 (1478656)
I0609 17:50:09.481278 16776 net.cpp:166] Memory required for data: 896356384
I0609 17:50:09.481282 16776 layer_factory.hpp:77] Creating layer fc7
I0609 17:50:09.481294 16776 net.cpp:100] Creating Layer fc7
I0609 17:50:09.481317 16776 net.cpp:435] fc7 <- fc6
I0609 17:50:09.481328 16776 net.cpp:409] fc7 -> fc7
I0609 17:50:09.481339 16776 layer.hpp:71] 
I0609 17:50:09.487969 16776 net.cpp:151] Setting up fc7
I0609 17:50:09.487987 16776 net.cpp:158] Top shape: 4 1024 19 19 (1478656)
I0609 17:50:09.487992 16776 net.cpp:166] Memory required for data: 902271008
I0609 17:50:09.488000 16776 layer_factory.hpp:77] Creating layer relu7
I0609 17:50:09.488009 16776 net.cpp:100] Creating Layer relu7
I0609 17:50:09.488016 16776 net.cpp:435] relu7 <- fc7
I0609 17:50:09.488028 16776 net.cpp:396] relu7 -> fc7 (in-place)
I0609 17:50:09.488036 16776 layer.hpp:71] 
I0609 17:50:09.488535 16776 net.cpp:151] Setting up relu7
I0609 17:50:09.488544 16776 net.cpp:158] Top shape: 4 1024 19 19 (1478656)
I0609 17:50:09.488549 16776 net.cpp:166] Memory required for data: 908185632
I0609 17:50:09.488554 16776 layer_factory.hpp:77] Creating layer fc7_relu7_0_split
I0609 17:50:09.488561 16776 net.cpp:100] Creating Layer fc7_relu7_0_split
I0609 17:50:09.488571 16776 net.cpp:435] fc7_relu7_0_split <- fc7
I0609 17:50:09.488579 16776 net.cpp:409] fc7_relu7_0_split -> fc7_relu7_0_split_0
I0609 17:50:09.488591 16776 net.cpp:409] fc7_relu7_0_split -> fc7_relu7_0_split_1
I0609 17:50:09.488605 16776 net.cpp:409] fc7_relu7_0_split -> fc7_relu7_0_split_2
I0609 17:50:09.488613 16776 net.cpp:409] fc7_relu7_0_split -> fc7_relu7_0_split_3
I0609 17:50:09.488622 16776 layer.hpp:71] 
I0609 17:50:09.488698 16776 net.cpp:151] Setting up fc7_relu7_0_split
I0609 17:50:09.488705 16776 net.cpp:158] Top shape: 4 1024 19 19 (1478656)
I0609 17:50:09.488711 16776 net.cpp:158] Top shape: 4 1024 19 19 (1478656)
I0609 17:50:09.488729 16776 net.cpp:158] Top shape: 4 1024 19 19 (1478656)
I0609 17:50:09.488734 16776 net.cpp:158] Top shape: 4 1024 19 19 (1478656)
I0609 17:50:09.488737 16776 net.cpp:166] Memory required for data: 931844128
I0609 17:50:09.488741 16776 layer_factory.hpp:77] Creating layer conv6_1
I0609 17:50:09.488754 16776 net.cpp:100] Creating Layer conv6_1
I0609 17:50:09.488759 16776 net.cpp:435] conv6_1 <- fc7_relu7_0_split_0
I0609 17:50:09.488767 16776 net.cpp:409] conv6_1 -> conv6_1
I0609 17:50:09.488776 16776 layer.hpp:71] 
I0609 17:50:09.492377 16776 net.cpp:151] Setting up conv6_1
I0609 17:50:09.492395 16776 net.cpp:158] Top shape: 4 256 19 19 (369664)
I0609 17:50:09.492398 16776 net.cpp:166] Memory required for data: 933322784
I0609 17:50:09.492408 16776 layer_factory.hpp:77] Creating layer conv6_1_relu
I0609 17:50:09.492418 16776 net.cpp:100] Creating Layer conv6_1_relu
I0609 17:50:09.492430 16776 net.cpp:435] conv6_1_relu <- conv6_1
I0609 17:50:09.492437 16776 net.cpp:396] conv6_1_relu -> conv6_1 (in-place)
I0609 17:50:09.492447 16776 layer.hpp:71] 
I0609 17:50:09.492586 16776 net.cpp:151] Setting up conv6_1_relu
I0609 17:50:09.492594 16776 net.cpp:158] Top shape: 4 256 19 19 (369664)
I0609 17:50:09.492599 16776 net.cpp:166] Memory required for data: 934801440
I0609 17:50:09.492601 16776 layer_factory.hpp:77] Creating layer conv6_2
I0609 17:50:09.492614 16776 net.cpp:100] Creating Layer conv6_2
I0609 17:50:09.492619 16776 net.cpp:435] conv6_2 <- conv6_1
I0609 17:50:09.492627 16776 net.cpp:409] conv6_2 -> conv6_2
I0609 17:50:09.492636 16776 layer.hpp:71] 
I0609 17:50:09.499855 16776 net.cpp:151] Setting up conv6_2
I0609 17:50:09.499872 16776 net.cpp:158] Top shape: 4 512 10 10 (204800)
I0609 17:50:09.499876 16776 net.cpp:166] Memory required for data: 935620640
I0609 17:50:09.499894 16776 layer_factory.hpp:77] Creating layer conv6_2_relu
I0609 17:50:09.499904 16776 net.cpp:100] Creating Layer conv6_2_relu
I0609 17:50:09.499912 16776 net.cpp:435] conv6_2_relu <- conv6_2
I0609 17:50:09.499918 16776 net.cpp:396] conv6_2_relu -> conv6_2 (in-place)
I0609 17:50:09.499927 16776 layer.hpp:71] 
I0609 17:50:09.500068 16776 net.cpp:151] Setting up conv6_2_relu
I0609 17:50:09.500077 16776 net.cpp:158] Top shape: 4 512 10 10 (204800)
I0609 17:50:09.500080 16776 net.cpp:166] Memory required for data: 936439840
I0609 17:50:09.500084 16776 layer_factory.hpp:77] Creating layer conv6_2_conv6_2_relu_0_split
I0609 17:50:09.500092 16776 net.cpp:100] Creating Layer conv6_2_conv6_2_relu_0_split
I0609 17:50:09.500097 16776 net.cpp:435] conv6_2_conv6_2_relu_0_split <- conv6_2
I0609 17:50:09.500104 16776 net.cpp:409] conv6_2_conv6_2_relu_0_split -> conv6_2_conv6_2_relu_0_split_0
I0609 17:50:09.500130 16776 net.cpp:409] conv6_2_conv6_2_relu_0_split -> conv6_2_conv6_2_relu_0_split_1
I0609 17:50:09.500154 16776 net.cpp:409] conv6_2_conv6_2_relu_0_split -> conv6_2_conv6_2_relu_0_split_2
I0609 17:50:09.500160 16776 net.cpp:409] conv6_2_conv6_2_relu_0_split -> conv6_2_conv6_2_relu_0_split_3
I0609 17:50:09.500169 16776 layer.hpp:71] 
I0609 17:50:09.500234 16776 net.cpp:151] Setting up conv6_2_conv6_2_relu_0_split
I0609 17:50:09.500241 16776 net.cpp:158] Top shape: 4 512 10 10 (204800)
I0609 17:50:09.500246 16776 net.cpp:158] Top shape: 4 512 10 10 (204800)
I0609 17:50:09.500252 16776 net.cpp:158] Top shape: 4 512 10 10 (204800)
I0609 17:50:09.500257 16776 net.cpp:158] Top shape: 4 512 10 10 (204800)
I0609 17:50:09.500262 16776 net.cpp:166] Memory required for data: 939716640
I0609 17:50:09.500264 16776 layer_factory.hpp:77] Creating layer conv7_1
I0609 17:50:09.500275 16776 net.cpp:100] Creating Layer conv7_1
I0609 17:50:09.500279 16776 net.cpp:435] conv7_1 <- conv6_2_conv6_2_relu_0_split_0
I0609 17:50:09.500288 16776 net.cpp:409] conv7_1 -> conv7_1
I0609 17:50:09.500298 16776 layer.hpp:71] 
I0609 17:50:09.501716 16776 net.cpp:151] Setting up conv7_1
I0609 17:50:09.501727 16776 net.cpp:158] Top shape: 4 128 10 10 (51200)
I0609 17:50:09.501731 16776 net.cpp:166] Memory required for data: 939921440
I0609 17:50:09.501739 16776 layer_factory.hpp:77] Creating layer conv7_1_relu
I0609 17:50:09.501755 16776 net.cpp:100] Creating Layer conv7_1_relu
I0609 17:50:09.501761 16776 net.cpp:435] conv7_1_relu <- conv7_1
I0609 17:50:09.501767 16776 net.cpp:396] conv7_1_relu -> conv7_1 (in-place)
I0609 17:50:09.501775 16776 layer.hpp:71] 
I0609 17:50:09.501910 16776 net.cpp:151] Setting up conv7_1_relu
I0609 17:50:09.501919 16776 net.cpp:158] Top shape: 4 128 10 10 (51200)
I0609 17:50:09.501924 16776 net.cpp:166] Memory required for data: 940126240
I0609 17:50:09.501927 16776 layer_factory.hpp:77] Creating layer conv7_2
I0609 17:50:09.501936 16776 net.cpp:100] Creating Layer conv7_2
I0609 17:50:09.501941 16776 net.cpp:435] conv7_2 <- conv7_1
I0609 17:50:09.501951 16776 net.cpp:409] conv7_2 -> conv7_2
I0609 17:50:09.501960 16776 layer.hpp:71] 
I0609 17:50:09.504921 16776 net.cpp:151] Setting up conv7_2
I0609 17:50:09.504935 16776 net.cpp:158] Top shape: 4 256 5 5 (25600)
I0609 17:50:09.504940 16776 net.cpp:166] Memory required for data: 940228640
I0609 17:50:09.504946 16776 layer_factory.hpp:77] Creating layer conv7_2_relu
I0609 17:50:09.504956 16776 net.cpp:100] Creating Layer conv7_2_relu
I0609 17:50:09.504961 16776 net.cpp:435] conv7_2_relu <- conv7_2
I0609 17:50:09.504968 16776 net.cpp:396] conv7_2_relu -> conv7_2 (in-place)
I0609 17:50:09.504977 16776 layer.hpp:71] 
I0609 17:50:09.505115 16776 net.cpp:151] Setting up conv7_2_relu
I0609 17:50:09.505122 16776 net.cpp:158] Top shape: 4 256 5 5 (25600)
I0609 17:50:09.505126 16776 net.cpp:166] Memory required for data: 940331040
I0609 17:50:09.505131 16776 layer_factory.hpp:77] Creating layer conv7_2_conv7_2_relu_0_split
I0609 17:50:09.505138 16776 net.cpp:100] Creating Layer conv7_2_conv7_2_relu_0_split
I0609 17:50:09.505143 16776 net.cpp:435] conv7_2_conv7_2_relu_0_split <- conv7_2
I0609 17:50:09.505151 16776 net.cpp:409] conv7_2_conv7_2_relu_0_split -> conv7_2_conv7_2_relu_0_split_0
I0609 17:50:09.505161 16776 net.cpp:409] conv7_2_conv7_2_relu_0_split -> conv7_2_conv7_2_relu_0_split_1
I0609 17:50:09.505169 16776 net.cpp:409] conv7_2_conv7_2_relu_0_split -> conv7_2_conv7_2_relu_0_split_2
I0609 17:50:09.505177 16776 net.cpp:409] conv7_2_conv7_2_relu_0_split -> conv7_2_conv7_2_relu_0_split_3
I0609 17:50:09.505184 16776 layer.hpp:71] 
I0609 17:50:09.505254 16776 net.cpp:151] Setting up conv7_2_conv7_2_relu_0_split
I0609 17:50:09.505260 16776 net.cpp:158] Top shape: 4 256 5 5 (25600)
I0609 17:50:09.505265 16776 net.cpp:158] Top shape: 4 256 5 5 (25600)
I0609 17:50:09.505270 16776 net.cpp:158] Top shape: 4 256 5 5 (25600)
I0609 17:50:09.505275 16776 net.cpp:158] Top shape: 4 256 5 5 (25600)
I0609 17:50:09.505278 16776 net.cpp:166] Memory required for data: 940740640
I0609 17:50:09.505282 16776 layer_factory.hpp:77] Creating layer conv8_1
I0609 17:50:09.505295 16776 net.cpp:100] Creating Layer conv8_1
I0609 17:50:09.505306 16776 net.cpp:435] conv8_1 <- conv7_2_conv7_2_relu_0_split_0
I0609 17:50:09.505314 16776 net.cpp:409] conv8_1 -> conv8_1
I0609 17:50:09.505322 16776 layer.hpp:71] 
I0609 17:50:09.506579 16776 net.cpp:151] Setting up conv8_1
I0609 17:50:09.506590 16776 net.cpp:158] Top shape: 4 128 5 5 (12800)
I0609 17:50:09.506594 16776 net.cpp:166] Memory required for data: 940791840
I0609 17:50:09.506603 16776 layer_factory.hpp:77] Creating layer conv8_1_relu
I0609 17:50:09.506609 16776 net.cpp:100] Creating Layer conv8_1_relu
I0609 17:50:09.506614 16776 net.cpp:435] conv8_1_relu <- conv8_1
I0609 17:50:09.506623 16776 net.cpp:396] conv8_1_relu -> conv8_1 (in-place)
I0609 17:50:09.506629 16776 layer.hpp:71] 
I0609 17:50:09.507236 16776 net.cpp:151] Setting up conv8_1_relu
I0609 17:50:09.507246 16776 net.cpp:158] Top shape: 4 128 5 5 (12800)
I0609 17:50:09.507249 16776 net.cpp:166] Memory required for data: 940843040
I0609 17:50:09.507253 16776 layer_factory.hpp:77] Creating layer conv8_2
I0609 17:50:09.507263 16776 net.cpp:100] Creating Layer conv8_2
I0609 17:50:09.507269 16776 net.cpp:435] conv8_2 <- conv8_1
I0609 17:50:09.507277 16776 net.cpp:409] conv8_2 -> conv8_2
I0609 17:50:09.507287 16776 layer.hpp:71] 
I0609 17:50:09.510269 16776 net.cpp:151] Setting up conv8_2
I0609 17:50:09.510282 16776 net.cpp:158] Top shape: 4 256 3 3 (9216)
I0609 17:50:09.510285 16776 net.cpp:166] Memory required for data: 940879904
I0609 17:50:09.510293 16776 layer_factory.hpp:77] Creating layer conv8_2_relu
I0609 17:50:09.510303 16776 net.cpp:100] Creating Layer conv8_2_relu
I0609 17:50:09.510308 16776 net.cpp:435] conv8_2_relu <- conv8_2
I0609 17:50:09.510314 16776 net.cpp:396] conv8_2_relu -> conv8_2 (in-place)
I0609 17:50:09.510323 16776 layer.hpp:71] 
I0609 17:50:09.510462 16776 net.cpp:151] Setting up conv8_2_relu
I0609 17:50:09.510471 16776 net.cpp:158] Top shape: 4 256 3 3 (9216)
I0609 17:50:09.510476 16776 net.cpp:166] Memory required for data: 940916768
I0609 17:50:09.510479 16776 layer_factory.hpp:77] Creating layer conv8_2_conv8_2_relu_0_split
I0609 17:50:09.510486 16776 net.cpp:100] Creating Layer conv8_2_conv8_2_relu_0_split
I0609 17:50:09.510491 16776 net.cpp:435] conv8_2_conv8_2_relu_0_split <- conv8_2
I0609 17:50:09.510499 16776 net.cpp:409] conv8_2_conv8_2_relu_0_split -> conv8_2_conv8_2_relu_0_split_0
I0609 17:50:09.510507 16776 net.cpp:409] conv8_2_conv8_2_relu_0_split -> conv8_2_conv8_2_relu_0_split_1
I0609 17:50:09.510515 16776 net.cpp:409] conv8_2_conv8_2_relu_0_split -> conv8_2_conv8_2_relu_0_split_2
I0609 17:50:09.510524 16776 net.cpp:409] conv8_2_conv8_2_relu_0_split -> conv8_2_conv8_2_relu_0_split_3
I0609 17:50:09.510532 16776 layer.hpp:71] 
I0609 17:50:09.510598 16776 net.cpp:151] Setting up conv8_2_conv8_2_relu_0_split
I0609 17:50:09.510606 16776 net.cpp:158] Top shape: 4 256 3 3 (9216)
I0609 17:50:09.510612 16776 net.cpp:158] Top shape: 4 256 3 3 (9216)
I0609 17:50:09.510617 16776 net.cpp:158] Top shape: 4 256 3 3 (9216)
I0609 17:50:09.510620 16776 net.cpp:158] Top shape: 4 256 3 3 (9216)
I0609 17:50:09.510624 16776 net.cpp:166] Memory required for data: 941064224
I0609 17:50:09.510629 16776 layer_factory.hpp:77] Creating layer conv9_1
I0609 17:50:09.510640 16776 net.cpp:100] Creating Layer conv9_1
I0609 17:50:09.510645 16776 net.cpp:435] conv9_1 <- conv8_2_conv8_2_relu_0_split_0
I0609 17:50:09.510653 16776 net.cpp:409] conv9_1 -> conv9_1
I0609 17:50:09.510663 16776 layer.hpp:71] 
I0609 17:50:09.511912 16776 net.cpp:151] Setting up conv9_1
I0609 17:50:09.511922 16776 net.cpp:158] Top shape: 4 128 3 3 (4608)
I0609 17:50:09.511926 16776 net.cpp:166] Memory required for data: 941082656
I0609 17:50:09.511934 16776 layer_factory.hpp:77] Creating layer conv9_1_relu
I0609 17:50:09.511941 16776 net.cpp:100] Creating Layer conv9_1_relu
I0609 17:50:09.511946 16776 net.cpp:435] conv9_1_relu <- conv9_1
I0609 17:50:09.511953 16776 net.cpp:396] conv9_1_relu -> conv9_1 (in-place)
I0609 17:50:09.511961 16776 layer.hpp:71] 
I0609 17:50:09.512097 16776 net.cpp:151] Setting up conv9_1_relu
I0609 17:50:09.512105 16776 net.cpp:158] Top shape: 4 128 3 3 (4608)
I0609 17:50:09.512109 16776 net.cpp:166] Memory required for data: 941101088
I0609 17:50:09.512114 16776 layer_factory.hpp:77] Creating layer conv9_2
I0609 17:50:09.512122 16776 net.cpp:100] Creating Layer conv9_2
I0609 17:50:09.512127 16776 net.cpp:435] conv9_2 <- conv9_1
I0609 17:50:09.512135 16776 net.cpp:409] conv9_2 -> conv9_2
I0609 17:50:09.512143 16776 layer.hpp:71] 
I0609 17:50:09.515136 16776 net.cpp:151] Setting up conv9_2
I0609 17:50:09.515149 16776 net.cpp:158] Top shape: 4 256 1 1 (1024)
I0609 17:50:09.515153 16776 net.cpp:166] Memory required for data: 941105184
I0609 17:50:09.515162 16776 layer_factory.hpp:77] Creating layer conv9_2_relu
I0609 17:50:09.515171 16776 net.cpp:100] Creating Layer conv9_2_relu
I0609 17:50:09.515175 16776 net.cpp:435] conv9_2_relu <- conv9_2
I0609 17:50:09.515183 16776 net.cpp:396] conv9_2_relu -> conv9_2 (in-place)
I0609 17:50:09.515192 16776 layer.hpp:71] 
I0609 17:50:09.515331 16776 net.cpp:151] Setting up conv9_2_relu
I0609 17:50:09.515339 16776 net.cpp:158] Top shape: 4 256 1 1 (1024)
I0609 17:50:09.515342 16776 net.cpp:166] Memory required for data: 941109280
I0609 17:50:09.515347 16776 layer_factory.hpp:77] Creating layer conv9_2_conv9_2_relu_0_split
I0609 17:50:09.515364 16776 net.cpp:100] Creating Layer conv9_2_conv9_2_relu_0_split
I0609 17:50:09.515370 16776 net.cpp:435] conv9_2_conv9_2_relu_0_split <- conv9_2
I0609 17:50:09.515377 16776 net.cpp:409] conv9_2_conv9_2_relu_0_split -> conv9_2_conv9_2_relu_0_split_0
I0609 17:50:09.515386 16776 net.cpp:409] conv9_2_conv9_2_relu_0_split -> conv9_2_conv9_2_relu_0_split_1
I0609 17:50:09.515394 16776 net.cpp:409] conv9_2_conv9_2_relu_0_split -> conv9_2_conv9_2_relu_0_split_2
I0609 17:50:09.515403 16776 layer.hpp:71] 
I0609 17:50:09.515457 16776 net.cpp:151] Setting up conv9_2_conv9_2_relu_0_split
I0609 17:50:09.515465 16776 net.cpp:158] Top shape: 4 256 1 1 (1024)
I0609 17:50:09.515470 16776 net.cpp:158] Top shape: 4 256 1 1 (1024)
I0609 17:50:09.515475 16776 net.cpp:158] Top shape: 4 256 1 1 (1024)
I0609 17:50:09.515478 16776 net.cpp:166] Memory required for data: 941121568
I0609 17:50:09.515485 16776 layer_factory.hpp:77] Creating layer conv4_3_norm
I0609 17:50:09.515492 16776 net.cpp:100] Creating Layer conv4_3_norm
I0609 17:50:09.515497 16776 net.cpp:435] conv4_3_norm <- conv4_3_relu4_3_0_split_1
I0609 17:50:09.515503 16776 net.cpp:409] conv4_3_norm -> conv4_3_norm
I0609 17:50:09.515511 16776 layer.hpp:71] 
I0609 17:50:09.515667 16776 net.cpp:151] Setting up conv4_3_norm
I0609 17:50:09.515674 16776 net.cpp:158] Top shape: 4 512 38 38 (2957312)
I0609 17:50:09.515678 16776 net.cpp:166] Memory required for data: 952950816
I0609 17:50:09.515684 16776 layer_factory.hpp:77] Creating layer conv4_3_norm_conv4_3_norm_0_split
I0609 17:50:09.515691 16776 net.cpp:100] Creating Layer conv4_3_norm_conv4_3_norm_0_split
I0609 17:50:09.515696 16776 net.cpp:435] conv4_3_norm_conv4_3_norm_0_split <- conv4_3_norm
I0609 17:50:09.515702 16776 net.cpp:409] conv4_3_norm_conv4_3_norm_0_split -> conv4_3_norm_conv4_3_norm_0_split_0
I0609 17:50:09.515710 16776 net.cpp:409] conv4_3_norm_conv4_3_norm_0_split -> conv4_3_norm_conv4_3_norm_0_split_1
I0609 17:50:09.515719 16776 net.cpp:409] conv4_3_norm_conv4_3_norm_0_split -> conv4_3_norm_conv4_3_norm_0_split_2
I0609 17:50:09.515727 16776 layer.hpp:71] 
I0609 17:50:09.515775 16776 net.cpp:151] Setting up conv4_3_norm_conv4_3_norm_0_split
I0609 17:50:09.515782 16776 net.cpp:158] Top shape: 4 512 38 38 (2957312)
I0609 17:50:09.515787 16776 net.cpp:158] Top shape: 4 512 38 38 (2957312)
I0609 17:50:09.515791 16776 net.cpp:158] Top shape: 4 512 38 38 (2957312)
I0609 17:50:09.515795 16776 net.cpp:166] Memory required for data: 988438560
I0609 17:50:09.515799 16776 layer_factory.hpp:77] Creating layer conv4_3_norm_mbox_loc
I0609 17:50:09.515810 16776 net.cpp:100] Creating Layer conv4_3_norm_mbox_loc
I0609 17:50:09.515813 16776 net.cpp:435] conv4_3_norm_mbox_loc <- conv4_3_norm_conv4_3_norm_0_split_0
I0609 17:50:09.515820 16776 net.cpp:409] conv4_3_norm_mbox_loc -> conv4_3_norm_mbox_loc
I0609 17:50:09.515831 16776 layer.hpp:71] 
I0609 17:50:09.517729 16776 net.cpp:151] Setting up conv4_3_norm_mbox_loc
I0609 17:50:09.517738 16776 net.cpp:158] Top shape: 4 16 38 38 (92416)
I0609 17:50:09.517742 16776 net.cpp:166] Memory required for data: 988808224
I0609 17:50:09.517750 16776 layer_factory.hpp:77] Creating layer conv4_3_norm_mbox_loc_perm
I0609 17:50:09.517760 16776 net.cpp:100] Creating Layer conv4_3_norm_mbox_loc_perm
I0609 17:50:09.517765 16776 net.cpp:435] conv4_3_norm_mbox_loc_perm <- conv4_3_norm_mbox_loc
I0609 17:50:09.517773 16776 net.cpp:409] conv4_3_norm_mbox_loc_perm -> conv4_3_norm_mbox_loc_perm
I0609 17:50:09.517783 16776 layer.hpp:71] 
I0609 17:50:09.517886 16776 net.cpp:151] Setting up conv4_3_norm_mbox_loc_perm
I0609 17:50:09.517894 16776 net.cpp:158] Top shape: 4 38 38 16 (92416)
I0609 17:50:09.517899 16776 net.cpp:166] Memory required for data: 989177888
I0609 17:50:09.517904 16776 layer_factory.hpp:77] Creating layer conv4_3_norm_mbox_loc_flat
I0609 17:50:09.517910 16776 net.cpp:100] Creating Layer conv4_3_norm_mbox_loc_flat
I0609 17:50:09.517915 16776 net.cpp:435] conv4_3_norm_mbox_loc_flat <- conv4_3_norm_mbox_loc_perm
I0609 17:50:09.517920 16776 net.cpp:409] conv4_3_norm_mbox_loc_flat -> conv4_3_norm_mbox_loc_flat
I0609 17:50:09.517946 16776 layer.hpp:71] 
I0609 17:50:09.517971 16776 net.cpp:151] Setting up conv4_3_norm_mbox_loc_flat
I0609 17:50:09.517977 16776 net.cpp:158] Top shape: 4 23104 (92416)
I0609 17:50:09.517982 16776 net.cpp:166] Memory required for data: 989547552
I0609 17:50:09.517985 16776 layer_factory.hpp:77] Creating layer conv4_3_norm_mbox_conf
I0609 17:50:09.518000 16776 net.cpp:100] Creating Layer conv4_3_norm_mbox_conf
I0609 17:50:09.518004 16776 net.cpp:435] conv4_3_norm_mbox_conf <- conv4_3_norm_conv4_3_norm_0_split_1
I0609 17:50:09.518012 16776 net.cpp:409] conv4_3_norm_mbox_conf -> conv4_3_norm_mbox_conf
I0609 17:50:09.518021 16776 layer.hpp:71] 
I0609 17:50:09.519762 16776 net.cpp:151] Setting up conv4_3_norm_mbox_conf
I0609 17:50:09.519771 16776 net.cpp:158] Top shape: 4 8 38 38 (46208)
I0609 17:50:09.519775 16776 net.cpp:166] Memory required for data: 989732384
I0609 17:50:09.519783 16776 layer_factory.hpp:77] Creating layer conv4_3_norm_mbox_conf_perm
I0609 17:50:09.519793 16776 net.cpp:100] Creating Layer conv4_3_norm_mbox_conf_perm
I0609 17:50:09.519798 16776 net.cpp:435] conv4_3_norm_mbox_conf_perm <- conv4_3_norm_mbox_conf
I0609 17:50:09.519805 16776 net.cpp:409] conv4_3_norm_mbox_conf_perm -> conv4_3_norm_mbox_conf_perm
I0609 17:50:09.519816 16776 layer.hpp:71] 
I0609 17:50:09.519917 16776 net.cpp:151] Setting up conv4_3_norm_mbox_conf_perm
I0609 17:50:09.519924 16776 net.cpp:158] Top shape: 4 38 38 8 (46208)
I0609 17:50:09.519928 16776 net.cpp:166] Memory required for data: 989917216
I0609 17:50:09.519932 16776 layer_factory.hpp:77] Creating layer conv4_3_norm_mbox_conf_flat
I0609 17:50:09.519939 16776 net.cpp:100] Creating Layer conv4_3_norm_mbox_conf_flat
I0609 17:50:09.519944 16776 net.cpp:435] conv4_3_norm_mbox_conf_flat <- conv4_3_norm_mbox_conf_perm
I0609 17:50:09.519950 16776 net.cpp:409] conv4_3_norm_mbox_conf_flat -> conv4_3_norm_mbox_conf_flat
I0609 17:50:09.519958 16776 layer.hpp:71] 
I0609 17:50:09.519984 16776 net.cpp:151] Setting up conv4_3_norm_mbox_conf_flat
I0609 17:50:09.519989 16776 net.cpp:158] Top shape: 4 11552 (46208)
I0609 17:50:09.519992 16776 net.cpp:166] Memory required for data: 990102048
I0609 17:50:09.519996 16776 layer_factory.hpp:77] Creating layer conv4_3_norm_mbox_priorbox
I0609 17:50:09.520004 16776 net.cpp:100] Creating Layer conv4_3_norm_mbox_priorbox
I0609 17:50:09.520009 16776 net.cpp:435] conv4_3_norm_mbox_priorbox <- conv4_3_norm_conv4_3_norm_0_split_2
I0609 17:50:09.520015 16776 net.cpp:435] conv4_3_norm_mbox_priorbox <- data_data_0_split_1
I0609 17:50:09.520022 16776 net.cpp:409] conv4_3_norm_mbox_priorbox -> conv4_3_norm_mbox_priorbox
I0609 17:50:09.520031 16776 layer.hpp:71] 
I0609 17:50:09.520057 16776 net.cpp:151] Setting up conv4_3_norm_mbox_priorbox
I0609 17:50:09.520063 16776 net.cpp:158] Top shape: 1 2 23104 (46208)
I0609 17:50:09.520068 16776 net.cpp:166] Memory required for data: 990286880
I0609 17:50:09.520071 16776 layer_factory.hpp:77] Creating layer fc7_mbox_loc
I0609 17:50:09.520081 16776 net.cpp:100] Creating Layer fc7_mbox_loc
I0609 17:50:09.520086 16776 net.cpp:435] fc7_mbox_loc <- fc7_relu7_0_split_1
I0609 17:50:09.520095 16776 net.cpp:409] fc7_mbox_loc -> fc7_mbox_loc
I0609 17:50:09.520103 16776 layer.hpp:71] 
I0609 17:50:09.522966 16776 net.cpp:151] Setting up fc7_mbox_loc
I0609 17:50:09.522979 16776 net.cpp:158] Top shape: 4 24 19 19 (34656)
I0609 17:50:09.522984 16776 net.cpp:166] Memory required for data: 990425504
I0609 17:50:09.522991 16776 layer_factory.hpp:77] Creating layer fc7_mbox_loc_perm
I0609 17:50:09.523000 16776 net.cpp:100] Creating Layer fc7_mbox_loc_perm
I0609 17:50:09.523005 16776 net.cpp:435] fc7_mbox_loc_perm <- fc7_mbox_loc
I0609 17:50:09.523015 16776 net.cpp:409] fc7_mbox_loc_perm -> fc7_mbox_loc_perm
I0609 17:50:09.523025 16776 layer.hpp:71] 
I0609 17:50:09.523133 16776 net.cpp:151] Setting up fc7_mbox_loc_perm
I0609 17:50:09.523140 16776 net.cpp:158] Top shape: 4 19 19 24 (34656)
I0609 17:50:09.523145 16776 net.cpp:166] Memory required for data: 990564128
I0609 17:50:09.523159 16776 layer_factory.hpp:77] Creating layer fc7_mbox_loc_flat
I0609 17:50:09.523166 16776 net.cpp:100] Creating Layer fc7_mbox_loc_flat
I0609 17:50:09.523170 16776 net.cpp:435] fc7_mbox_loc_flat <- fc7_mbox_loc_perm
I0609 17:50:09.523177 16776 net.cpp:409] fc7_mbox_loc_flat -> fc7_mbox_loc_flat
I0609 17:50:09.523185 16776 layer.hpp:71] 
I0609 17:50:09.523211 16776 net.cpp:151] Setting up fc7_mbox_loc_flat
I0609 17:50:09.523216 16776 net.cpp:158] Top shape: 4 8664 (34656)
I0609 17:50:09.523219 16776 net.cpp:166] Memory required for data: 990702752
I0609 17:50:09.523223 16776 layer_factory.hpp:77] Creating layer fc7_mbox_conf
I0609 17:50:09.523236 16776 net.cpp:100] Creating Layer fc7_mbox_conf
I0609 17:50:09.523241 16776 net.cpp:435] fc7_mbox_conf <- fc7_relu7_0_split_2
I0609 17:50:09.523247 16776 net.cpp:409] fc7_mbox_conf -> fc7_mbox_conf
I0609 17:50:09.523257 16776 layer.hpp:71] 
I0609 17:50:09.525480 16776 net.cpp:151] Setting up fc7_mbox_conf
I0609 17:50:09.525493 16776 net.cpp:158] Top shape: 4 12 19 19 (17328)
I0609 17:50:09.525497 16776 net.cpp:166] Memory required for data: 990772064
I0609 17:50:09.525506 16776 layer_factory.hpp:77] Creating layer fc7_mbox_conf_perm
I0609 17:50:09.525513 16776 net.cpp:100] Creating Layer fc7_mbox_conf_perm
I0609 17:50:09.525518 16776 net.cpp:435] fc7_mbox_conf_perm <- fc7_mbox_conf
I0609 17:50:09.525527 16776 net.cpp:409] fc7_mbox_conf_perm -> fc7_mbox_conf_perm
I0609 17:50:09.525537 16776 layer.hpp:71] 
I0609 17:50:09.525648 16776 net.cpp:151] Setting up fc7_mbox_conf_perm
I0609 17:50:09.525656 16776 net.cpp:158] Top shape: 4 19 19 12 (17328)
I0609 17:50:09.525660 16776 net.cpp:166] Memory required for data: 990841376
I0609 17:50:09.525665 16776 layer_factory.hpp:77] Creating layer fc7_mbox_conf_flat
I0609 17:50:09.525671 16776 net.cpp:100] Creating Layer fc7_mbox_conf_flat
I0609 17:50:09.525674 16776 net.cpp:435] fc7_mbox_conf_flat <- fc7_mbox_conf_perm
I0609 17:50:09.525682 16776 net.cpp:409] fc7_mbox_conf_flat -> fc7_mbox_conf_flat
I0609 17:50:09.525691 16776 layer.hpp:71] 
I0609 17:50:09.525714 16776 net.cpp:151] Setting up fc7_mbox_conf_flat
I0609 17:50:09.525720 16776 net.cpp:158] Top shape: 4 4332 (17328)
I0609 17:50:09.525723 16776 net.cpp:166] Memory required for data: 990910688
I0609 17:50:09.525727 16776 layer_factory.hpp:77] Creating layer fc7_mbox_priorbox
I0609 17:50:09.525737 16776 net.cpp:100] Creating Layer fc7_mbox_priorbox
I0609 17:50:09.525741 16776 net.cpp:435] fc7_mbox_priorbox <- fc7_relu7_0_split_3
I0609 17:50:09.525746 16776 net.cpp:435] fc7_mbox_priorbox <- data_data_0_split_2
I0609 17:50:09.525755 16776 net.cpp:409] fc7_mbox_priorbox -> fc7_mbox_priorbox
I0609 17:50:09.525764 16776 layer.hpp:71] 
I0609 17:50:09.525790 16776 net.cpp:151] Setting up fc7_mbox_priorbox
I0609 17:50:09.525796 16776 net.cpp:158] Top shape: 1 2 8664 (17328)
I0609 17:50:09.525800 16776 net.cpp:166] Memory required for data: 990980000
I0609 17:50:09.525804 16776 layer_factory.hpp:77] Creating layer conv6_2_mbox_loc
I0609 17:50:09.525815 16776 net.cpp:100] Creating Layer conv6_2_mbox_loc
I0609 17:50:09.525820 16776 net.cpp:435] conv6_2_mbox_loc <- conv6_2_conv6_2_relu_0_split_1
I0609 17:50:09.525828 16776 net.cpp:409] conv6_2_mbox_loc -> conv6_2_mbox_loc
I0609 17:50:09.525837 16776 layer.hpp:71] 
I0609 17:50:09.527890 16776 net.cpp:151] Setting up conv6_2_mbox_loc
I0609 17:50:09.527901 16776 net.cpp:158] Top shape: 4 24 10 10 (9600)
I0609 17:50:09.527905 16776 net.cpp:166] Memory required for data: 991018400
I0609 17:50:09.527914 16776 layer_factory.hpp:77] Creating layer conv6_2_mbox_loc_perm
I0609 17:50:09.527921 16776 net.cpp:100] Creating Layer conv6_2_mbox_loc_perm
I0609 17:50:09.527927 16776 net.cpp:435] conv6_2_mbox_loc_perm <- conv6_2_mbox_loc
I0609 17:50:09.527935 16776 net.cpp:409] conv6_2_mbox_loc_perm -> conv6_2_mbox_loc_perm
I0609 17:50:09.527945 16776 layer.hpp:71] 
I0609 17:50:09.528050 16776 net.cpp:151] Setting up conv6_2_mbox_loc_perm
I0609 17:50:09.528056 16776 net.cpp:158] Top shape: 4 10 10 24 (9600)
I0609 17:50:09.528060 16776 net.cpp:166] Memory required for data: 991056800
I0609 17:50:09.528074 16776 layer_factory.hpp:77] Creating layer conv6_2_mbox_loc_flat
I0609 17:50:09.528079 16776 net.cpp:100] Creating Layer conv6_2_mbox_loc_flat
I0609 17:50:09.528084 16776 net.cpp:435] conv6_2_mbox_loc_flat <- conv6_2_mbox_loc_perm
I0609 17:50:09.528091 16776 net.cpp:409] conv6_2_mbox_loc_flat -> conv6_2_mbox_loc_flat
I0609 17:50:09.528100 16776 layer.hpp:71] 
I0609 17:50:09.528125 16776 net.cpp:151] Setting up conv6_2_mbox_loc_flat
I0609 17:50:09.528131 16776 net.cpp:158] Top shape: 4 2400 (9600)
I0609 17:50:09.528133 16776 net.cpp:166] Memory required for data: 991095200
I0609 17:50:09.528137 16776 layer_factory.hpp:77] Creating layer conv6_2_mbox_conf
I0609 17:50:09.528147 16776 net.cpp:100] Creating Layer conv6_2_mbox_conf
I0609 17:50:09.528152 16776 net.cpp:435] conv6_2_mbox_conf <- conv6_2_conv6_2_relu_0_split_2
I0609 17:50:09.528162 16776 net.cpp:409] conv6_2_mbox_conf -> conv6_2_mbox_conf
I0609 17:50:09.528170 16776 layer.hpp:71] 
I0609 17:50:09.530019 16776 net.cpp:151] Setting up conv6_2_mbox_conf
I0609 17:50:09.530030 16776 net.cpp:158] Top shape: 4 12 10 10 (4800)
I0609 17:50:09.530033 16776 net.cpp:166] Memory required for data: 991114400
I0609 17:50:09.530041 16776 layer_factory.hpp:77] Creating layer conv6_2_mbox_conf_perm
I0609 17:50:09.530048 16776 net.cpp:100] Creating Layer conv6_2_mbox_conf_perm
I0609 17:50:09.530055 16776 net.cpp:435] conv6_2_mbox_conf_perm <- conv6_2_mbox_conf
I0609 17:50:09.530062 16776 net.cpp:409] conv6_2_mbox_conf_perm -> conv6_2_mbox_conf_perm
I0609 17:50:09.530071 16776 layer.hpp:71] 
I0609 17:50:09.530177 16776 net.cpp:151] Setting up conv6_2_mbox_conf_perm
I0609 17:50:09.530184 16776 net.cpp:158] Top shape: 4 10 10 12 (4800)
I0609 17:50:09.530189 16776 net.cpp:166] Memory required for data: 991133600
I0609 17:50:09.530192 16776 layer_factory.hpp:77] Creating layer conv6_2_mbox_conf_flat
I0609 17:50:09.530197 16776 net.cpp:100] Creating Layer conv6_2_mbox_conf_flat
I0609 17:50:09.530202 16776 net.cpp:435] conv6_2_mbox_conf_flat <- conv6_2_mbox_conf_perm
I0609 17:50:09.530210 16776 net.cpp:409] conv6_2_mbox_conf_flat -> conv6_2_mbox_conf_flat
I0609 17:50:09.530218 16776 layer.hpp:71] 
I0609 17:50:09.530242 16776 net.cpp:151] Setting up conv6_2_mbox_conf_flat
I0609 17:50:09.530248 16776 net.cpp:158] Top shape: 4 1200 (4800)
I0609 17:50:09.530251 16776 net.cpp:166] Memory required for data: 991152800
I0609 17:50:09.530256 16776 layer_factory.hpp:77] Creating layer conv6_2_mbox_priorbox
I0609 17:50:09.530263 16776 net.cpp:100] Creating Layer conv6_2_mbox_priorbox
I0609 17:50:09.530268 16776 net.cpp:435] conv6_2_mbox_priorbox <- conv6_2_conv6_2_relu_0_split_3
I0609 17:50:09.530273 16776 net.cpp:435] conv6_2_mbox_priorbox <- data_data_0_split_3
I0609 17:50:09.530282 16776 net.cpp:409] conv6_2_mbox_priorbox -> conv6_2_mbox_priorbox
I0609 17:50:09.530292 16776 layer.hpp:71] 
I0609 17:50:09.530316 16776 net.cpp:151] Setting up conv6_2_mbox_priorbox
I0609 17:50:09.530323 16776 net.cpp:158] Top shape: 1 2 2400 (4800)
I0609 17:50:09.530325 16776 net.cpp:166] Memory required for data: 991172000
I0609 17:50:09.530329 16776 layer_factory.hpp:77] Creating layer conv7_2_mbox_loc
I0609 17:50:09.530339 16776 net.cpp:100] Creating Layer conv7_2_mbox_loc
I0609 17:50:09.530344 16776 net.cpp:435] conv7_2_mbox_loc <- conv7_2_conv7_2_relu_0_split_1
I0609 17:50:09.530352 16776 net.cpp:409] conv7_2_mbox_loc -> conv7_2_mbox_loc
I0609 17:50:09.530361 16776 layer.hpp:71] 
I0609 17:50:09.531714 16776 net.cpp:151] Setting up conv7_2_mbox_loc
I0609 17:50:09.531724 16776 net.cpp:158] Top shape: 4 24 5 5 (2400)
I0609 17:50:09.531728 16776 net.cpp:166] Memory required for data: 991181600
I0609 17:50:09.531735 16776 layer_factory.hpp:77] Creating layer conv7_2_mbox_loc_perm
I0609 17:50:09.531744 16776 net.cpp:100] Creating Layer conv7_2_mbox_loc_perm
I0609 17:50:09.531749 16776 net.cpp:435] conv7_2_mbox_loc_perm <- conv7_2_mbox_loc
I0609 17:50:09.531755 16776 net.cpp:409] conv7_2_mbox_loc_perm -> conv7_2_mbox_loc_perm
I0609 17:50:09.531765 16776 layer.hpp:71] 
I0609 17:50:09.531877 16776 net.cpp:151] Setting up conv7_2_mbox_loc_perm
I0609 17:50:09.531884 16776 net.cpp:158] Top shape: 4 5 5 24 (2400)
I0609 17:50:09.531888 16776 net.cpp:166] Memory required for data: 991191200
I0609 17:50:09.531891 16776 layer_factory.hpp:77] Creating layer conv7_2_mbox_loc_flat
I0609 17:50:09.531898 16776 net.cpp:100] Creating Layer conv7_2_mbox_loc_flat
I0609 17:50:09.531903 16776 net.cpp:435] conv7_2_mbox_loc_flat <- conv7_2_mbox_loc_perm
I0609 17:50:09.531908 16776 net.cpp:409] conv7_2_mbox_loc_flat -> conv7_2_mbox_loc_flat
I0609 17:50:09.531918 16776 layer.hpp:71] 
I0609 17:50:09.531941 16776 net.cpp:151] Setting up conv7_2_mbox_loc_flat
I0609 17:50:09.531947 16776 net.cpp:158] Top shape: 4 600 (2400)
I0609 17:50:09.531950 16776 net.cpp:166] Memory required for data: 991200800
I0609 17:50:09.531955 16776 layer_factory.hpp:77] Creating layer conv7_2_mbox_conf
I0609 17:50:09.531963 16776 net.cpp:100] Creating Layer conv7_2_mbox_conf
I0609 17:50:09.531968 16776 net.cpp:435] conv7_2_mbox_conf <- conv7_2_conv7_2_relu_0_split_2
I0609 17:50:09.531976 16776 net.cpp:409] conv7_2_mbox_conf -> conv7_2_mbox_conf
I0609 17:50:09.531985 16776 layer.hpp:71] 
I0609 17:50:09.533690 16776 net.cpp:151] Setting up conv7_2_mbox_conf
I0609 17:50:09.533701 16776 net.cpp:158] Top shape: 4 12 5 5 (1200)
I0609 17:50:09.533704 16776 net.cpp:166] Memory required for data: 991205600
I0609 17:50:09.533713 16776 layer_factory.hpp:77] Creating layer conv7_2_mbox_conf_perm
I0609 17:50:09.533720 16776 net.cpp:100] Creating Layer conv7_2_mbox_conf_perm
I0609 17:50:09.533725 16776 net.cpp:435] conv7_2_mbox_conf_perm <- conv7_2_mbox_conf
I0609 17:50:09.533735 16776 net.cpp:409] conv7_2_mbox_conf_perm -> conv7_2_mbox_conf_perm
I0609 17:50:09.533743 16776 layer.hpp:71] 
I0609 17:50:09.533849 16776 net.cpp:151] Setting up conv7_2_mbox_conf_perm
I0609 17:50:09.533855 16776 net.cpp:158] Top shape: 4 5 5 12 (1200)
I0609 17:50:09.533859 16776 net.cpp:166] Memory required for data: 991210400
I0609 17:50:09.533864 16776 layer_factory.hpp:77] Creating layer conv7_2_mbox_conf_flat
I0609 17:50:09.533869 16776 net.cpp:100] Creating Layer conv7_2_mbox_conf_flat
I0609 17:50:09.533874 16776 net.cpp:435] conv7_2_mbox_conf_flat <- conv7_2_mbox_conf_perm
I0609 17:50:09.533882 16776 net.cpp:409] conv7_2_mbox_conf_flat -> conv7_2_mbox_conf_flat
I0609 17:50:09.533890 16776 layer.hpp:71] 
I0609 17:50:09.533915 16776 net.cpp:151] Setting up conv7_2_mbox_conf_flat
I0609 17:50:09.533920 16776 net.cpp:158] Top shape: 4 300 (1200)
I0609 17:50:09.533923 16776 net.cpp:166] Memory required for data: 991215200
I0609 17:50:09.533927 16776 layer_factory.hpp:77] Creating layer conv7_2_mbox_priorbox
I0609 17:50:09.533934 16776 net.cpp:100] Creating Layer conv7_2_mbox_priorbox
I0609 17:50:09.533939 16776 net.cpp:435] conv7_2_mbox_priorbox <- conv7_2_conv7_2_relu_0_split_3
I0609 17:50:09.533944 16776 net.cpp:435] conv7_2_mbox_priorbox <- data_data_0_split_4
I0609 17:50:09.533954 16776 net.cpp:409] conv7_2_mbox_priorbox -> conv7_2_mbox_priorbox
I0609 17:50:09.533962 16776 layer.hpp:71] 
I0609 17:50:09.533987 16776 net.cpp:151] Setting up conv7_2_mbox_priorbox
I0609 17:50:09.533993 16776 net.cpp:158] Top shape: 1 2 600 (1200)
I0609 17:50:09.533996 16776 net.cpp:166] Memory required for data: 991220000
I0609 17:50:09.533999 16776 layer_factory.hpp:77] Creating layer conv8_2_mbox_loc
I0609 17:50:09.534011 16776 net.cpp:100] Creating Layer conv8_2_mbox_loc
I0609 17:50:09.534016 16776 net.cpp:435] conv8_2_mbox_loc <- conv8_2_conv8_2_relu_0_split_1
I0609 17:50:09.534024 16776 net.cpp:409] conv8_2_mbox_loc -> conv8_2_mbox_loc
I0609 17:50:09.534034 16776 layer.hpp:71] 
I0609 17:50:09.535773 16776 net.cpp:151] Setting up conv8_2_mbox_loc
I0609 17:50:09.535784 16776 net.cpp:158] Top shape: 4 16 3 3 (576)
I0609 17:50:09.535787 16776 net.cpp:166] Memory required for data: 991222304
I0609 17:50:09.535804 16776 layer_factory.hpp:77] Creating layer conv8_2_mbox_loc_perm
I0609 17:50:09.535811 16776 net.cpp:100] Creating Layer conv8_2_mbox_loc_perm
I0609 17:50:09.535817 16776 net.cpp:435] conv8_2_mbox_loc_perm <- conv8_2_mbox_loc
I0609 17:50:09.535835 16776 net.cpp:409] conv8_2_mbox_loc_perm -> conv8_2_mbox_loc_perm
I0609 17:50:09.535845 16776 layer.hpp:71] 
I0609 17:50:09.535949 16776 net.cpp:151] Setting up conv8_2_mbox_loc_perm
I0609 17:50:09.535956 16776 net.cpp:158] Top shape: 4 3 3 16 (576)
I0609 17:50:09.535960 16776 net.cpp:166] Memory required for data: 991224608
I0609 17:50:09.535964 16776 layer_factory.hpp:77] Creating layer conv8_2_mbox_loc_flat
I0609 17:50:09.535970 16776 net.cpp:100] Creating Layer conv8_2_mbox_loc_flat
I0609 17:50:09.535975 16776 net.cpp:435] conv8_2_mbox_loc_flat <- conv8_2_mbox_loc_perm
I0609 17:50:09.535982 16776 net.cpp:409] conv8_2_mbox_loc_flat -> conv8_2_mbox_loc_flat
I0609 17:50:09.535990 16776 layer.hpp:71] 
I0609 17:50:09.536015 16776 net.cpp:151] Setting up conv8_2_mbox_loc_flat
I0609 17:50:09.536021 16776 net.cpp:158] Top shape: 4 144 (576)
I0609 17:50:09.536026 16776 net.cpp:166] Memory required for data: 991226912
I0609 17:50:09.536028 16776 layer_factory.hpp:77] Creating layer conv8_2_mbox_conf
I0609 17:50:09.536037 16776 net.cpp:100] Creating Layer conv8_2_mbox_conf
I0609 17:50:09.536042 16776 net.cpp:435] conv8_2_mbox_conf <- conv8_2_conv8_2_relu_0_split_2
I0609 17:50:09.536051 16776 net.cpp:409] conv8_2_mbox_conf -> conv8_2_mbox_conf
I0609 17:50:09.536059 16776 layer.hpp:71] 
I0609 17:50:09.537791 16776 net.cpp:151] Setting up conv8_2_mbox_conf
I0609 17:50:09.537801 16776 net.cpp:158] Top shape: 4 8 3 3 (288)
I0609 17:50:09.537804 16776 net.cpp:166] Memory required for data: 991228064
I0609 17:50:09.537812 16776 layer_factory.hpp:77] Creating layer conv8_2_mbox_conf_perm
I0609 17:50:09.537822 16776 net.cpp:100] Creating Layer conv8_2_mbox_conf_perm
I0609 17:50:09.537827 16776 net.cpp:435] conv8_2_mbox_conf_perm <- conv8_2_mbox_conf
I0609 17:50:09.537837 16776 net.cpp:409] conv8_2_mbox_conf_perm -> conv8_2_mbox_conf_perm
I0609 17:50:09.537844 16776 layer.hpp:71] 
I0609 17:50:09.537952 16776 net.cpp:151] Setting up conv8_2_mbox_conf_perm
I0609 17:50:09.537959 16776 net.cpp:158] Top shape: 4 3 3 8 (288)
I0609 17:50:09.537964 16776 net.cpp:166] Memory required for data: 991229216
I0609 17:50:09.537967 16776 layer_factory.hpp:77] Creating layer conv8_2_mbox_conf_flat
I0609 17:50:09.537973 16776 net.cpp:100] Creating Layer conv8_2_mbox_conf_flat
I0609 17:50:09.537977 16776 net.cpp:435] conv8_2_mbox_conf_flat <- conv8_2_mbox_conf_perm
I0609 17:50:09.537984 16776 net.cpp:409] conv8_2_mbox_conf_flat -> conv8_2_mbox_conf_flat
I0609 17:50:09.537992 16776 layer.hpp:71] 
I0609 17:50:09.538018 16776 net.cpp:151] Setting up conv8_2_mbox_conf_flat
I0609 17:50:09.538024 16776 net.cpp:158] Top shape: 4 72 (288)
I0609 17:50:09.538028 16776 net.cpp:166] Memory required for data: 991230368
I0609 17:50:09.538031 16776 layer_factory.hpp:77] Creating layer conv8_2_mbox_priorbox
I0609 17:50:09.538038 16776 net.cpp:100] Creating Layer conv8_2_mbox_priorbox
I0609 17:50:09.538043 16776 net.cpp:435] conv8_2_mbox_priorbox <- conv8_2_conv8_2_relu_0_split_3
I0609 17:50:09.538049 16776 net.cpp:435] conv8_2_mbox_priorbox <- data_data_0_split_5
I0609 17:50:09.538058 16776 net.cpp:409] conv8_2_mbox_priorbox -> conv8_2_mbox_priorbox
I0609 17:50:09.538067 16776 layer.hpp:71] 
I0609 17:50:09.538092 16776 net.cpp:151] Setting up conv8_2_mbox_priorbox
I0609 17:50:09.538099 16776 net.cpp:158] Top shape: 1 2 144 (288)
I0609 17:50:09.538102 16776 net.cpp:166] Memory required for data: 991231520
I0609 17:50:09.538105 16776 layer_factory.hpp:77] Creating layer conv9_2_mbox_loc
I0609 17:50:09.538116 16776 net.cpp:100] Creating Layer conv9_2_mbox_loc
I0609 17:50:09.538121 16776 net.cpp:435] conv9_2_mbox_loc <- conv9_2_conv9_2_relu_0_split_0
I0609 17:50:09.538128 16776 net.cpp:409] conv9_2_mbox_loc -> conv9_2_mbox_loc
I0609 17:50:09.538137 16776 layer.hpp:71] 
I0609 17:50:09.540329 16776 net.cpp:151] Setting up conv9_2_mbox_loc
I0609 17:50:09.540340 16776 net.cpp:158] Top shape: 4 16 1 1 (64)
I0609 17:50:09.540343 16776 net.cpp:166] Memory required for data: 991231776
I0609 17:50:09.540350 16776 layer_factory.hpp:77] Creating layer conv9_2_mbox_loc_perm
I0609 17:50:09.540367 16776 net.cpp:100] Creating Layer conv9_2_mbox_loc_perm
I0609 17:50:09.540374 16776 net.cpp:435] conv9_2_mbox_loc_perm <- conv9_2_mbox_loc
I0609 17:50:09.540381 16776 net.cpp:409] conv9_2_mbox_loc_perm -> conv9_2_mbox_loc_perm
I0609 17:50:09.540390 16776 layer.hpp:71] 
I0609 17:50:09.540498 16776 net.cpp:151] Setting up conv9_2_mbox_loc_perm
I0609 17:50:09.540504 16776 net.cpp:158] Top shape: 4 1 1 16 (64)
I0609 17:50:09.540508 16776 net.cpp:166] Memory required for data: 991232032
I0609 17:50:09.540511 16776 layer_factory.hpp:77] Creating layer conv9_2_mbox_loc_flat
I0609 17:50:09.540518 16776 net.cpp:100] Creating Layer conv9_2_mbox_loc_flat
I0609 17:50:09.540522 16776 net.cpp:435] conv9_2_mbox_loc_flat <- conv9_2_mbox_loc_perm
I0609 17:50:09.540531 16776 net.cpp:409] conv9_2_mbox_loc_flat -> conv9_2_mbox_loc_flat
I0609 17:50:09.540539 16776 layer.hpp:71] 
I0609 17:50:09.540562 16776 net.cpp:151] Setting up conv9_2_mbox_loc_flat
I0609 17:50:09.540567 16776 net.cpp:158] Top shape: 4 16 (64)
I0609 17:50:09.540571 16776 net.cpp:166] Memory required for data: 991232288
I0609 17:50:09.540575 16776 layer_factory.hpp:77] Creating layer conv9_2_mbox_conf
I0609 17:50:09.540585 16776 net.cpp:100] Creating Layer conv9_2_mbox_conf
I0609 17:50:09.540591 16776 net.cpp:435] conv9_2_mbox_conf <- conv9_2_conv9_2_relu_0_split_1
I0609 17:50:09.540597 16776 net.cpp:409] conv9_2_mbox_conf -> conv9_2_mbox_conf
I0609 17:50:09.540606 16776 layer.hpp:71] 
I0609 17:50:09.542294 16776 net.cpp:151] Setting up conv9_2_mbox_conf
I0609 17:50:09.542305 16776 net.cpp:158] Top shape: 4 8 1 1 (32)
I0609 17:50:09.542309 16776 net.cpp:166] Memory required for data: 991232416
I0609 17:50:09.542316 16776 layer_factory.hpp:77] Creating layer conv9_2_mbox_conf_perm
I0609 17:50:09.542322 16776 net.cpp:100] Creating Layer conv9_2_mbox_conf_perm
I0609 17:50:09.542328 16776 net.cpp:435] conv9_2_mbox_conf_perm <- conv9_2_mbox_conf
I0609 17:50:09.542336 16776 net.cpp:409] conv9_2_mbox_conf_perm -> conv9_2_mbox_conf_perm
I0609 17:50:09.542346 16776 layer.hpp:71] 
I0609 17:50:09.542454 16776 net.cpp:151] Setting up conv9_2_mbox_conf_perm
I0609 17:50:09.542461 16776 net.cpp:158] Top shape: 4 1 1 8 (32)
I0609 17:50:09.542465 16776 net.cpp:166] Memory required for data: 991232544
I0609 17:50:09.542469 16776 layer_factory.hpp:77] Creating layer conv9_2_mbox_conf_flat
I0609 17:50:09.542474 16776 net.cpp:100] Creating Layer conv9_2_mbox_conf_flat
I0609 17:50:09.542480 16776 net.cpp:435] conv9_2_mbox_conf_flat <- conv9_2_mbox_conf_perm
I0609 17:50:09.542490 16776 net.cpp:409] conv9_2_mbox_conf_flat -> conv9_2_mbox_conf_flat
I0609 17:50:09.542496 16776 layer.hpp:71] 
I0609 17:50:09.542520 16776 net.cpp:151] Setting up conv9_2_mbox_conf_flat
I0609 17:50:09.542526 16776 net.cpp:158] Top shape: 4 8 (32)
I0609 17:50:09.542531 16776 net.cpp:166] Memory required for data: 991232672
I0609 17:50:09.542533 16776 layer_factory.hpp:77] Creating layer conv9_2_mbox_priorbox
I0609 17:50:09.542541 16776 net.cpp:100] Creating Layer conv9_2_mbox_priorbox
I0609 17:50:09.542547 16776 net.cpp:435] conv9_2_mbox_priorbox <- conv9_2_conv9_2_relu_0_split_2
I0609 17:50:09.542552 16776 net.cpp:435] conv9_2_mbox_priorbox <- data_data_0_split_6
I0609 17:50:09.542562 16776 net.cpp:409] conv9_2_mbox_priorbox -> conv9_2_mbox_priorbox
I0609 17:50:09.542570 16776 layer.hpp:71] 
I0609 17:50:09.542595 16776 net.cpp:151] Setting up conv9_2_mbox_priorbox
I0609 17:50:09.542601 16776 net.cpp:158] Top shape: 1 2 16 (32)
I0609 17:50:09.542604 16776 net.cpp:166] Memory required for data: 991232800
I0609 17:50:09.542608 16776 layer_factory.hpp:77] Creating layer mbox_loc
I0609 17:50:09.542616 16776 net.cpp:100] Creating Layer mbox_loc
I0609 17:50:09.542623 16776 net.cpp:435] mbox_loc <- conv4_3_norm_mbox_loc_flat
I0609 17:50:09.542629 16776 net.cpp:435] mbox_loc <- fc7_mbox_loc_flat
I0609 17:50:09.542634 16776 net.cpp:435] mbox_loc <- conv6_2_mbox_loc_flat
I0609 17:50:09.542640 16776 net.cpp:435] mbox_loc <- conv7_2_mbox_loc_flat
I0609 17:50:09.542654 16776 net.cpp:435] mbox_loc <- conv8_2_mbox_loc_flat
I0609 17:50:09.542659 16776 net.cpp:435] mbox_loc <- conv9_2_mbox_loc_flat
I0609 17:50:09.542666 16776 net.cpp:409] mbox_loc -> mbox_loc
I0609 17:50:09.542675 16776 layer.hpp:71] 
I0609 17:50:09.542701 16776 net.cpp:151] Setting up mbox_loc
I0609 17:50:09.542707 16776 net.cpp:158] Top shape: 4 34928 (139712)
I0609 17:50:09.542711 16776 net.cpp:166] Memory required for data: 991791648
I0609 17:50:09.542714 16776 layer_factory.hpp:77] Creating layer mbox_conf
I0609 17:50:09.542721 16776 net.cpp:100] Creating Layer mbox_conf
I0609 17:50:09.542726 16776 net.cpp:435] mbox_conf <- conv4_3_norm_mbox_conf_flat
I0609 17:50:09.542732 16776 net.cpp:435] mbox_conf <- fc7_mbox_conf_flat
I0609 17:50:09.542737 16776 net.cpp:435] mbox_conf <- conv6_2_mbox_conf_flat
I0609 17:50:09.542744 16776 net.cpp:435] mbox_conf <- conv7_2_mbox_conf_flat
I0609 17:50:09.542749 16776 net.cpp:435] mbox_conf <- conv8_2_mbox_conf_flat
I0609 17:50:09.542753 16776 net.cpp:435] mbox_conf <- conv9_2_mbox_conf_flat
I0609 17:50:09.542760 16776 net.cpp:409] mbox_conf -> mbox_conf
I0609 17:50:09.542768 16776 layer.hpp:71] 
I0609 17:50:09.542793 16776 net.cpp:151] Setting up mbox_conf
I0609 17:50:09.542798 16776 net.cpp:158] Top shape: 4 17464 (69856)
I0609 17:50:09.542801 16776 net.cpp:166] Memory required for data: 992071072
I0609 17:50:09.542804 16776 layer_factory.hpp:77] Creating layer mbox_priorbox
I0609 17:50:09.542810 16776 net.cpp:100] Creating Layer mbox_priorbox
I0609 17:50:09.542815 16776 net.cpp:435] mbox_priorbox <- conv4_3_norm_mbox_priorbox
I0609 17:50:09.542822 16776 net.cpp:435] mbox_priorbox <- fc7_mbox_priorbox
I0609 17:50:09.542827 16776 net.cpp:435] mbox_priorbox <- conv6_2_mbox_priorbox
I0609 17:50:09.542834 16776 net.cpp:435] mbox_priorbox <- conv7_2_mbox_priorbox
I0609 17:50:09.542839 16776 net.cpp:435] mbox_priorbox <- conv8_2_mbox_priorbox
I0609 17:50:09.542842 16776 net.cpp:435] mbox_priorbox <- conv9_2_mbox_priorbox
I0609 17:50:09.542848 16776 net.cpp:409] mbox_priorbox -> mbox_priorbox
I0609 17:50:09.542856 16776 layer.hpp:71] 
I0609 17:50:09.542879 16776 net.cpp:151] Setting up mbox_priorbox
I0609 17:50:09.542886 16776 net.cpp:158] Top shape: 1 2 34928 (69856)
I0609 17:50:09.542888 16776 net.cpp:166] Memory required for data: 992350496
I0609 17:50:09.542892 16776 layer_factory.hpp:77] Creating layer mbox_conf_reshape
I0609 17:50:09.542899 16776 net.cpp:100] Creating Layer mbox_conf_reshape
I0609 17:50:09.542903 16776 net.cpp:435] mbox_conf_reshape <- mbox_conf
I0609 17:50:09.542910 16776 net.cpp:409] mbox_conf_reshape -> mbox_conf_reshape
I0609 17:50:09.542922 16776 layer.hpp:71] 
I0609 17:50:09.542948 16776 net.cpp:151] Setting up mbox_conf_reshape
I0609 17:50:09.542956 16776 net.cpp:158] Top shape: 4 8732 2 (69856)
I0609 17:50:09.542960 16776 net.cpp:166] Memory required for data: 992629920
I0609 17:50:09.542964 16776 layer_factory.hpp:77] Creating layer mbox_conf_softmax
I0609 17:50:09.542970 16776 net.cpp:100] Creating Layer mbox_conf_softmax
I0609 17:50:09.542974 16776 net.cpp:435] mbox_conf_softmax <- mbox_conf_reshape
I0609 17:50:09.542982 16776 net.cpp:409] mbox_conf_softmax -> mbox_conf_softmax
I0609 17:50:09.542990 16776 layer.hpp:71] 
I0609 17:50:09.543192 16776 net.cpp:151] Setting up mbox_conf_softmax
I0609 17:50:09.543202 16776 net.cpp:158] Top shape: 4 8732 2 (69856)
I0609 17:50:09.543207 16776 net.cpp:166] Memory required for data: 992909344
I0609 17:50:09.543212 16776 layer_factory.hpp:77] Creating layer mbox_conf_flatten
I0609 17:50:09.543217 16776 net.cpp:100] Creating Layer mbox_conf_flatten
I0609 17:50:09.543221 16776 net.cpp:435] mbox_conf_flatten <- mbox_conf_softmax
I0609 17:50:09.543227 16776 net.cpp:409] mbox_conf_flatten -> mbox_conf_flatten
I0609 17:50:09.543236 16776 layer.hpp:71] 
I0609 17:50:09.543262 16776 net.cpp:151] Setting up mbox_conf_flatten
I0609 17:50:09.543267 16776 net.cpp:158] Top shape: 4 17464 (69856)
I0609 17:50:09.543270 16776 net.cpp:166] Memory required for data: 993188768
I0609 17:50:09.543274 16776 layer_factory.hpp:77] Creating layer detection_out
I0609 17:50:09.543292 16776 net.cpp:100] Creating Layer detection_out
I0609 17:50:09.543296 16776 net.cpp:435] detection_out <- mbox_loc
I0609 17:50:09.543301 16776 net.cpp:435] detection_out <- mbox_conf_flatten
I0609 17:50:09.543308 16776 net.cpp:435] detection_out <- mbox_priorbox
I0609 17:50:09.543316 16776 net.cpp:409] detection_out -> detection_out
I0609 17:50:09.543329 16776 layer.hpp:71] 
I0609 17:50:09.543603 16776 net.cpp:151] Setting up detection_out
I0609 17:50:09.543613 16776 net.cpp:158] Top shape: 1 1 1 7 (7)
I0609 17:50:09.543617 16776 net.cpp:166] Memory required for data: 993188796
I0609 17:50:09.543620 16776 layer_factory.hpp:77] Creating layer detection_eval
I0609 17:50:09.543627 16776 net.cpp:100] Creating Layer detection_eval
I0609 17:50:09.543632 16776 net.cpp:435] detection_eval <- detection_out
I0609 17:50:09.543638 16776 net.cpp:435] detection_eval <- label
I0609 17:50:09.543645 16776 net.cpp:409] detection_eval -> detection_eval
I0609 17:50:09.543655 16776 layer.hpp:71] 
I0609 17:50:09.543740 16776 net.cpp:151] Setting up detection_eval
I0609 17:50:09.543747 16776 net.cpp:158] Top shape: 1 1 2 5 (10)
I0609 17:50:09.543751 16776 net.cpp:166] Memory required for data: 993188836
I0609 17:50:09.543754 16776 net.cpp:229] detection_eval does not need backward computation.
I0609 17:50:09.543761 16776 net.cpp:229] detection_out does not need backward computation.
I0609 17:50:09.543764 16776 net.cpp:229] mbox_conf_flatten does not need backward computation.
I0609 17:50:09.543769 16776 net.cpp:229] mbox_conf_softmax does not need backward computation.
…
