…
        min_scale: 0.3
        max_scale: 1
        min_aspect_ratio: 0.5
        max_aspect_ratio: 2
      }
      sample_constraint {
        min_jaccard_overlap: 0.9
      }
      max_sample: 1
      max_trials: 50
    }
    batch_sampler {
      sampler {
        min_scale: 0.3
        max_scale: 1
        min_aspect_ratio: 0.5
        max_aspect_ratio: 2
      }
      sample_constraint {
        max_jaccard_overlap: 1
      }
      max_sample: 1
      max_trials: 50
    }
    label_map_file: "data/sharpen_tbs_v2.0/labelmap_voc.prototxt"
  }
}
layer {
  name: "conv1_1"
  type: "Convolution"
  bottom: "data"
  top: "conv1_1"
  param {
    lr_mult: 1
    decay_mult: 1
  }
  param {
    lr_mult: 2
    decay_mult: 0
  }
  convolution_param {
    num_output: 64
    pad: 1
    kernel_size: 3
    weight_filler {
      type: "xavier"
    }
    bias_filler {
      type: "constant"
      value: 0
    }
  }
}
layer {
  name: "relu1_1"
  type: "ReLU"
  bottom: "conv1_1"
  top: "conv1_1"
}
layer {
  name: "conv1_2"
  type: "Convolution"
  bottom: "conv1_1"
  top: "conv1_2"
  param {
    lr_mult: 1
    decay_mult: 1
  }
  param {
    lr_mult: 2
    decay_mult: 0
  }
  convolution_param {
    num_output: 64
    pad: 1
    kernel_size: 3
    weight_filler {
      type: "xavier"
    }
    bias_filler {
      type: "constant"
      value: 0
    }
  }
}
layer {
  name: "relu1_2"
  type: "ReLU"
  bottom: "conv1_2"
  top: "conv1_2"
}
layer {
  name: "pool1"
  type: "Pooling"
  bottom: "conv1_2"
  top: "pool1"
  pooling_param {
    pool: MAX
    kernel_size: 2
    stride: 2
  }
}
layer {
  name: "conv2_1"
  type: "Convolution"
  bottom: "pool1"
  top: "conv2_1"
  param {
    lr_mult: 1
    decay_mult: 1
  }
  param {
    lr_mult: 2
    decay_mult: 0
  }
  convolution_param {
    num_output: 128
    pad: 1
    kernel_size: 3
    weight_filler {
      type: "xavier"
    }
    bias_filler {
      type: "constant"
      value: 0
    }
  }
}
layer {
  name: "relu2_1"
  type: "ReLU"
  bottom: "conv2_1"
  top: "conv2_1"
}
layer {
  name: "conv2_2"
  type: "Convolution"
  bottom: "conv2_1"
  top: "conv2_2"
  param {
    lr_mult: 1
    decay_mult: 1
  }
  param {
    lr_mult: 2
    decay_mult: 0
  }
  convolution_param {
    num_output: 128
    pad: 1
    kernel_size: 3
    weight_filler {
      type: "xavier"
    }
    bias_filler {
      type: "constant"
      value: 0
    }
  }
}
layer {
  name: "relu2_2"
  type: "ReLU"
  bottom: "conv2_2"
  top: "conv2_2"
}
layer {
  name: "pool2"
  type: "Pooling"
  bottom: "conv2_2"
  top: "pool2"
  pooling_param {
    pool: MAX
    kernel_size: 2
    stride: 2
  }
}
layer {
  name: "conv3_1"
  type: "Convolution"
  bottom: "pool2"
  top: "conv3_1"
  param {
    lr_mult: 1
    decay_mult: 1
  }
  param {
    lr_mult: 2
    decay_mult: 0
  }
  convolution_param {
    num_output: 256
    pad: 1
    kernel_size: 3
    weight_filler {
      type: "xavier"
    }
    bias_filler {
      type: "constant"
      value: 0
    }
  }
}
layer {
  name: "relu3_1"
  type: "ReLU"
  bottom: "conv3_1"
  top: "conv3_1"
}
layer {
  name: "conv3_2"
  type: "Convolution"
  bottom: "conv3_1"
  top: "conv3_2"
  param {
    lr_mult: 1
    decay_mult: 1
  }
  param {
    lr_mult: 2
    decay_mult: 0
  }
  convolution_param {
    num_output: 256
    pad: 1
    kernel_size: 3
    weight_filler {
      type: "xavier"
    }
    bias_filler {
      type: "constant"
      value: 0
    }
  }
}
layer {
  name: "relu3_2"
  type: "ReLU"
  bottom: "conv3_2"
  top: "conv3_2"
}
layer {
  name: "conv3_3"
  type: "Convolution"
  bottom: "conv3_2"
  top: "conv3_3"
  param {
    lr_mult: 1
    decay_mult: 1
  }
  param {
    lr_mult: 2
    decay_mult: 0
  }
  convolution_param {
    num_output: 256
    pad: 1
    kernel_size: 3
    weight_filler {
      type: "xavier"
    }
    bias_filler {
      type: "constant"
      value: 0
    }
  }
}
layer {
  name: "relu3_3"
  type: "ReLU"
  bottom: "conv3_3"
  top: "conv3_3"
}
layer {
  name: "pool3"
  type: "Pooling"
  bottom: "conv3_3"
  top: "pool3"
  pooling_param {
    pool: MAX
    kernel_size: 2
    stride: 2
  }
}
layer {
  name: "conv4_1"
  type: "Convolution"
  bottom: "pool3"
  top: "conv4_1"
  param {
    lr_mult: 1
    decay_mult: 1
  }
  param {
    lr_mult: 2
    decay_mult: 0
  }
  convolution_param {
    num_output: 512
    pad: 1
    kernel_size: 3
    weight_filler {
      type: "xavier"
    }
    bias_filler {
      type: "constant"
      value: 0
    }
  }
}
layer {
  name: "relu4_1"
  type: "ReLU"
  bottom: "conv4_1"
  top: "conv4_1"
}
layer {
  name: "conv4_2"
  type: "Convolution"
  bottom: "conv4_1"
  top: "conv4_2"
  param {
    lr_mult: 1
    decay_mult: 1
  }
  param {
    lr_mult: 2
    decay_mult: 0
  }
  convolution_param {
    num_output: 512
    pad: 1
    kernel_size: 3
    weight_filler {
      type: "xavier"
    }
    bias_filler {
      type: "constant"
      value: 0
    }
  }
}
layer {
  name: "relu4_2"
  type: "ReLU"
  bottom: "conv4_2"
  top: "conv4_2"
}
layer {
  name: "conv4_3"
  type: "Convolution"
  bottom: "conv4_2"
  top: "conv4_3"
  param {
    lr_mult: 1
    decay_mult: 1
  }
  param {
    lr_mult: 2
    decay_mult: 0
  }
  convolution_param {
    num_output: 512
    pad: 1
    kernel_size: 3
    weight_filler {
      type: "xavier"
    }
    bias_filler {
      type: "constant"
      value: 0
    }
  }
}
layer {
  name: "relu4_3"
  type: "ReLU"
  bottom: "conv4_3"
  top: "conv4_3"
}
layer {
  name: "pool4"
  type: "Pooling"
  bottom: "conv4_3"
  top: "pool4"
  pooling_param {
    pool: MAX
    kernel_size: 2
    stride: 2
  }
}
layer {
  name: "conv5_1"
  type: "Convolution"
  bottom: "pool4"
  top: "conv5_1"
  param {
    lr_mult: 1
    decay_mult: 1
  }
  param {
    lr_mult: 2
    decay_mult: 0
  }
  convolution_param {
    num_output: 512
    pad: 1
    kernel_size: 3
    weight_filler {
      type: "xavier"
    }
    bias_filler {
      type: "constant"
      value: 0
    }
    dilation: 1
  }
}
layer {
  name: "relu5_1"
  type: "ReLU"
  bottom: "conv5_1"
  top: "conv5_1"
}
layer {
  name: "conv5_2"
  type: "Convolution"
  bottom: "conv5_1"
  top: "conv5_2"
  param {
    lr_mult: 1
    decay_mult: 1
  }
  param {
    lr_mult: 2
    decay_mult: 0
  }
  convolution_param {
    num_output: 512
    pad: 1
    kernel_size: 3
    weight_filler {
      type: "xavier"
    }
    bias_filler {
      type: "constant"
      value: 0
    }
    dilation: 1
  }
}
layer {
  name: "relu5_2"
  type: "ReLU"
  bottom: "conv5_2"
  top: "conv5_2"
}
layer {
  name: "conv5_3"
  type: "Convolution"
  bottom: "conv5_2"
  top: "conv5_3"
  param {
    lr_mult: 1
    decay_mult: 1
  }
  param {
    lr_mult: 2
    decay_mult: 0
  }
  convolution_param {
    num_output: 512
    pad: 1
    kernel_size: 3
    weight_filler {
      type: "xavier"
    }
    bias_filler {
      type: "constant"
      value: 0
    }
    dilation: 1
  }
}
layer {
  name: "relu5_3"
  type: "ReLU"
  bottom: "conv5_3"
  top: "conv5_3"
}
layer {
  name: "pool5"
  type: "Pooling"
  bottom: "conv5_3"
  top: "pool5"
  pooling_param {
    pool: MAX
    kernel_size: 3
    stride: 1
    pad: 1
  }
}
layer {
  name: "fc6"
  type: "Convolution"
  bottom: "pool5"
  top: "fc6"
  param {
    lr_mult: 1
    decay_mult: 1
  }
  param {
    lr_mult: 2
    decay_mult: 0
  }
  convolution_param {
    num_output: 1024
    pad: 6
    kernel_size: 3
    weight_filler {
      type: "xavier"
    }
    bias_filler {
      type: "constant"
      value: 0
    }
    dilation: 6
  }
}
layer {
  name: "relu6"
  type: "ReLU"
  bottom: "fc6"
  top: "fc6"
}
layer {
  name: "fc7"
  type: "Convolution"
  bottom: "fc6"
  top: "fc7"
  param {
    lr_mult: 1
    decay_mult: 1
  }
  param {
    lr_mult: 2
    decay_mult: 0
  }
  convolution_param {
    num_output: 1024
    kernel_size: 1
    weight_filler {
      type: "xavier"
    }
    bias_filler {
      type: "constant"
      value: 0
    }
  }
}
layer {
  name: "relu7"
  type: "ReLU"
  bottom: "fc7"
  top: "fc7"
}
layer {
  name: "conv6_1"
  type: "Convolution"
  bottom: "fc7"
  top: "conv6_1"
  param {
    lr_mult: 1
    decay_mult: 1
  }
  param {
    lr_mult: 2
    decay_mult: 0
  }
  convolution_param {
    num_output: 256
    pad: 0
    kernel_size: 1
    stride: 1
    weight_filler {
      type: "xavier"
    }
    bias_filler {
      type: "constant"
      value: 0
    }
  }
}
layer {
  name: "conv6_1_relu"
  type: "ReLU"
  bottom: "conv6_1"
  top: "conv6_1"
}
layer {
  name: "conv6_2"
  type: "Convolution"
  bottom: "conv6_1"
  top: "conv6_2"
  param {
    lr_mult: 1
    decay_mult: 1
  }
  param {
    lr_mult: 2
    decay_mult: 0
  }
  convolution_param {
    num_output: 512
    pad: 1
    kernel_size: 3
    stride: 2
    weight_filler {
      type: "xavier"
    }
    bias_filler {
      type: "constant"
      value: 0
    }
  }
}
layer {
  name: "conv6_2_relu"
  type: "ReLU"
  bottom: "conv6_2"
  top: "conv6_2"
}
layer {
  name: "conv7_1"
  type: "Convolution"
  bottom: "conv6_2"
  top: "conv7_1"
  param {
    lr_mult: 1
    decay_mult: 1
  }
  param {
    lr_mult: 2
    decay_mult: 0
  }
  convolution_param {
    num_output: 128
    pad: 0
    kernel_size: 1
    stride: 1
    weight_filler {
      type: "xavier"
    }
    bias_filler {
      type: "constant"
      value: 0
    }
  }
}
layer {
  name: "conv7_1_relu"
  type: "ReLU"
  bottom: "conv7_1"
  top: "conv7_1"
}
layer {
  name: "conv7_2"
  type: "Convolution"
  bottom: "conv7_1"
  top: "conv7_2"
  param {
    lr_mult: 1
    decay_mult: 1
  }
  param {
    lr_mult: 2
    decay_mult: 0
  }
  convolution_param {
    num_output: 256
    pad: 1
    kernel_size: 3
    stride: 2
    weight_filler {
      type: "xavier"
    }
    bias_filler {
      type: "constant"
      value: 0
    }
  }
}
layer {
  name: "conv7_2_relu"
  type: "ReLU"
  bottom: "conv7_2"
  top: "conv7_2"
}
layer {
  name: "conv8_1"
  type: "Convolution"
  bottom: "conv7_2"
  top: "conv8_1"
  param {
    lr_mult: 1
    decay_mult: 1
  }
  param {
    lr_mult: 2
    decay_mult: 0
  }
  convolution_param {
    num_output: 128
    pad: 0
    kernel_size: 1
    stride: 1
    weight_filler {
      type: "xavier"
    }
    bias_filler {
      type: "constant"
      value: 0
    }
  }
}
layer {
  name: "conv8_1_relu"
  type: "ReLU"
  bottom: "conv8_1"
  top: "conv8_1"
}
layer {
  name: "conv8_2"
  type: "Convolution"
  bottom: "conv8_1"
  top: "conv8_2"
  param {
    lr_mult: 1
    decay_mult: 1
  }
  param {
    lr_mult: 2
    decay_mult: 0
  }
  convolution_param {
    num_output: 256
    pad: 0
    kernel_size: 3
    stride: 1
    weight_filler {
      type: "xavier"
    }
    bias_filler {
      type: "constant"
      value: 0
    }
  }
}
layer {
  name: "conv8_2_relu"
  type: "ReLU"
  bottom: "conv8_2"
  top: "conv8_2"
}
layer {
  name: "conv9_1"
  type: "Convolution"
  bottom: "conv8_2"
  top: "conv9_1"
  param {
    lr_mult: 1
    decay_mult: 1
  }
  param {
    lr_mult: 2
    decay_mult: 0
  }
  convolution_param {
    num_output: 128
    pad: 0
    kernel_size: 1
    stride: 1
    weight_filler {
      type: "xavier"
    }
    bias_filler {
      type: "constant"
      value: 0
    }
  }
}
layer {
  name: "conv9_1_relu"
  type: "ReLU"
  bottom: "conv9_1"
  top: "conv9_1"
}
layer {
  name: "conv9_2"
  type: "Convolution"
  bottom: "conv9_1"
  top: "conv9_2"
  param {
    lr_mult: 1
    decay_mult: 1
  }
  param {
    lr_mult: 2
    decay_mult: 0
  }
  convolution_param {
    num_output: 256
    pad: 0
    kernel_size: 3
    stride: 1
    weight_filler {
      type: "xavier"
    }
    bias_filler {
      type: "constant"
      value: 0
    }
  }
}
layer {
  name: "conv9_2_relu"
  type: "ReLU"
  bottom: "conv9_2"
  top: "conv9_2"
}
layer {
  name: "conv4_3_norm"
  type: "Normalize"
  bottom: "conv4_3"
  top: "conv4_3_norm"
  norm_param {
    across_spatial: false
    scale_filler {
      type: "constant"
      value: 20
    }
    channel_shared: false
  }
}
layer {
  name: "conv4_3_norm_mbox_loc"
  type: "Convolution"
  bottom: "conv4_3_norm"
  top: "conv4_3_norm_mbox_loc"
  param {
    lr_mult: 1
    decay_mult: 1
  }
  param {
    lr_mult: 2
    decay_mult: 0
  }
  convolution_param {
    num_output: 16
    pad: 1
    kernel_size: 3
    stride: 1
    weight_filler {
      type: "xavier"
    }
    bias_filler {
      type: "constant"
      value: 0
    }
  }
}
layer {
  name: "conv4_3_norm_mbox_loc_perm"
  type: "Permute"
  bottom: "conv4_3_norm_mbox_loc"
  top: "conv4_3_norm_mbox_loc_perm"
  permute_param {
    order: 0
    order: 2
    order: 3
    order: 1
  }
}
layer {
  name: "conv4_3_norm_mbox_loc_flat"
  type: "Flatten"
  bottom: "conv4_3_norm_mbox_loc_perm"
  top: "conv4_3_norm_mbox_loc_flat"
  flatten_param {
    axis: 1
  }
}
layer {
  name: "conv4_3_norm_mbox_conf"
  type: "Convolution"
  bottom: "conv4_3_norm"
  top: "conv4_3_norm_mbox_conf"
  param {
    lr_mult: 1
    decay_mult: 1
  }
  param {
    lr_mult: 2
    decay_mult: 0
  }
  convolution_param {
    num_output: 8
    pad: 1
    kernel_size: 3
    stride: 1
    weight_filler {
      type: "xavier"
    }
    bias_filler {
      type: "constant"
      value: 0
    }
  }
}
layer {
  name: "conv4_3_norm_mbox_conf_perm"
  type: "Permute"
  bottom: "conv4_3_norm_mbox_conf"
  top: "conv4_3_norm_mbox_conf_perm"
  permute_param {
    order: 0
    order: 2
    order: 3
    order: 1
  }
}
layer {
  name: "conv4_3_norm_mbox_conf_flat"
  type: "Flatten"
  bottom: "conv4_3_norm_mbox_conf_perm"
  top: "conv4_3_norm_mbox_conf_flat"
  flatten_param {
    axis: 1
  }
}
layer {
  name: "conv4_3_norm_mbox_priorbox"
  type: "PriorBox"
  bottom: "conv4_3_norm"
  bottom: "data"
  top: "conv4_3_norm_mbox_priorbox"
  prior_box_param {
    min_size: 30
    max_size: 60
    aspect_ratio: 2
    flip: true
    clip: false
    variance: 0.1
    variance: 0.1
    variance: 0.2
    variance: 0.2
    step: 8
    offset: 0.5
  }
}
layer {
  name: "fc7_mbox_loc"
  type: "Convolution"
  bottom: "fc7"
  top: "fc7_mbox_loc"
  param {
    lr_mult: 1
    decay_mult: 1
  }
  param {
    lr_mult: 2
    decay_mult: 0
  }
  convolution_param {
    num_output: 24
    pad: 1
    kernel_size: 3
    stride: 1
    weight_filler {
      type: "xavier"
    }
    bias_filler {
      type: "constant"
      value: 0
    }
  }
}
layer {
  name: "fc7_mbox_loc_perm"
  type: "Permute"
  bottom: "fc7_mbox_loc"
  top: "fc7_mbox_loc_perm"
  permute_param {
    order: 0
    order: 2
    order: 3
    order: 1
  }
}
layer {
  name: "fc7_mbox_loc_flat"
  type: "Flatten"
  bottom: "fc7_mbox_loc_perm"
  top: "fc7_mbox_loc_flat"
  flatten_param {
    axis: 1
  }
}
layer {
  name: "fc7_mbox_conf"
  type: "Convolution"
  bottom: "fc7"
  top: "fc7_mbox_conf"
  param {
    lr_mult: 1
    decay_mult: 1
  }
  param {
    lr_mult: 2
    decay_mult: 0
  }
  convolution_param {
    num_output: 12
    pad: 1
    kernel_size: 3
    stride: 1
    weight_filler {
      type: "xavier"
    }
    bias_filler {
      type: "constant"
      value: 0
    }
  }
}
layer {
  name: "fc7_mbox_conf_perm"
  type: "Permute"
  bottom: "fc7_mbox_conf"
  top: "fc7_mbox_conf_perm"
  permute_param {
    order: 0
    order: 2
    order: 3
    order: 1
  }
}
layer {
  name: "fc7_mbox_conf_flat"
  type: "Flatten"
  bottom: "fc7_mbox_conf_perm"
  top: "fc7_mbox_conf_flat"
  flatten_param {
    axis: 1
  }
}
layer {
  name: "fc7_mbox_priorbox"
  type: "PriorBox"
  bottom: "fc7"
  bottom: "data"
  top: "fc7_mbox_priorbox"
  prior_box_param {
    min_size: 60
    max_size: 111
    aspect_ratio: 2
    aspect_ratio: 3
    flip: true
    clip: false
    variance: 0.1
    variance: 0.1
    variance: 0.2
    variance: 0.2
    step: 16
    offset: 0.5
  }
}
layer {
  name: "conv6_2_mbox_loc"
  type: "Convolution"
  bottom: "conv6_2"
  top: "conv6_2_mbox_loc"
  param {
    lr_mult: 1
    decay_mult: 1
  }
  param {
    lr_mult: 2
    decay_mult: 0
  }
  convolution_param {
    num_output: 24
    pad: 1
    kernel_size: 3
    stride: 1
    weight_filler {
      type: "xavier"
    }
    bias_filler {
      type: "constant"
      value: 0
    }
  }
}
layer {
  name: "conv6_2_mbox_loc_perm"
  type: "Permute"
  bottom: "conv6_2_mbox_loc"
  top: "conv6_2_mbox_loc_perm"
  permute_param {
    order: 0
    order: 2
    order: 3
    order: 1
  }
}
layer {
  name: "conv6_2_mbox_loc_flat"
  type: "Flatten"
  bottom: "conv6_2_mbox_loc_perm"
  top: "conv6_2_mbox_loc_flat"
  flatten_param {
    axis: 1
  }
}
layer {
  name: "conv6_2_mbox_conf"
  type: "Convolution"
  bottom: "conv6_2"
  top: "conv6_2_mbox_conf"
  param {
    lr_mult: 1
    decay_mult: 1
  }
  param {
    lr_mult: 2
    decay_mult: 0
  }
  convolution_param {
    num_output: 12
    pad: 1
    kernel_size: 3
    stride: 1
    weight_filler {
      type: "xavier"
    }
    bias_filler {
      type: "constant"
      value: 0
    }
  }
}
layer {
  name: "conv6_2_mbox_conf_perm"
  type: "Permute"
  bottom: "conv6_2_mbox_conf"
  top: "conv6_2_mbox_conf_perm"
  permute_param {
    order: 0
    order: 2
    order: 3
    order: 1
  }
}
layer {
  name: "conv6_2_mbox_conf_flat"
  type: "Flatten"
  bottom: "conv6_2_mbox_conf_perm"
  top: "conv6_2_mbox_conf_flat"
  flatten_param {
    axis: 1
  }
}
layer {
  name: "conv6_2_mbox_priorbox"
  type: "PriorBox"
  bottom: "conv6_2"
  bottom: "data"
  top: "conv6_2_mbox_priorbox"
  prior_box_param {
    min_size: 111
    max_size: 162
    aspect_ratio: 2
    aspect_ratio: 3
    flip: true
    clip: false
    variance: 0.1
    variance: 0.1
    variance: 0.2
    variance: 0.2
    step: 32
    offset: 0.5
  }
}
layer {
  name: "conv7_2_mbox_loc"
  type: "Convolution"
  bottom: "conv7_2"
  top: "conv7_2_mbox_loc"
  param {
    lr_mult: 1
    decay_mult: 1
  }
  param {
    lr_mult: 2
    decay_mult: 0
  }
  convolution_param {
    num_output: 24
    pad: 1
    kernel_size: 3
    stride: 1
    weight_filler {
      type: "xavier"
    }
    bias_filler {
      type: "constant"
      value: 0
    }
  }
}
layer {
  name: "conv7_2_mbox_loc_perm"
  type: "Permute"
  bottom: "conv7_2_mbox_loc"
  top: "conv7_2_mbox_loc_perm"
  permute_param {
    order: 0
    order: 2
    order: 3
    order: 1
  }
}
layer {
  name: "conv7_2_mbox_loc_flat"
  type: "Flatten"
  bottom: "conv7_2_mbox_loc_perm"
  top: "conv7_2_mbox_loc_flat"
  flatten_param {
    axis: 1
  }
}
layer {
  name: "conv7_2_mbox_conf"
  type: "Convolution"
  bottom: "conv7_2"
  top: "conv7_2_mbox_conf"
  param {
    lr_mult: 1
    decay_mult: 1
  }
  param {
    lr_mult: 2
    decay_mult: 0
  }
  convolution_param {
    num_output: 12
    pad: 1
    kernel_size: 3
    stride: 1
    weight_filler {
      type: "xavier"
    }
    bias_filler {
      type: "constant"
      value: 0
    }
  }
}
layer {
  name: "conv7_2_mbox_conf_perm"
  type: "Permute"
  bottom: "conv7_2_mbox_conf"
  top: "conv7_2_mbox_conf_perm"
  permute_param {
    order: 0
    order: 2
    order: 3
    order: 1
  }
}
layer {
  name: "conv7_2_mbox_conf_flat"
  type: "Flatten"
  bottom: "conv7_2_mbox_conf_perm"
  top: "conv7_2_mbox_conf_flat"
  flatten_param {
    axis: 1
  }
}
layer {
  name: "conv7_2_mbox_priorbox"
  type: "PriorBox"
  bottom: "conv7_2"
  bottom: "data"
  top: "conv7_2_mbox_priorbox"
  prior_box_param {
    min_size: 162
    max_size: 213
    aspect_ratio: 2
    aspect_ratio: 3
    flip: true
    clip: false
    variance: 0.1
    variance: 0.1
    variance: 0.2
    variance: 0.2
    step: 64
    offset: 0.5
  }
}
layer {
  name: "conv8_2_mbox_loc"
  type: "Convolution"
  bottom: "conv8_2"
  top: "conv8_2_mbox_loc"
  param {
    lr_mult: 1
    decay_mult: 1
  }
  param {
    lr_mult: 2
    decay_mult: 0
  }
  convolution_param {
    num_output: 16
    pad: 1
    kernel_size: 3
    stride: 1
    weight_filler {
      type: "xavier"
    }
    bias_filler {
      type: "constant"
      value: 0
    }
  }
}
layer {
  name: "conv8_2_mbox_loc_perm"
  type: "Permute"
  bottom: "conv8_2_mbox_loc"
  top: "conv8_2_mbox_loc_perm"
  permute_param {
    order: 0
    order: 2
    order: 3
    order: 1
  }
}
layer {
  name: "conv8_2_mbox_loc_flat"
  type: "Flatten"
  bottom: "conv8_2_mbox_loc_perm"
  top: "conv8_2_mbox_loc_flat"
  flatten_param {
    axis: 1
  }
}
layer {
  name: "conv8_2_mbox_conf"
  type: "Convolution"
  bottom: "conv8_2"
  top: "conv8_2_mbox_conf"
  param {
    lr_mult: 1
    decay_mult: 1
  }
  param {
    lr_mult: 2
    decay_mult: 0
  }
  convolution_param {
    num_output: 8
    pad: 1
    kernel_size: 3
    stride: 1
    weight_filler {
      type: "xavier"
    }
    bias_filler {
      type: "constant"
      value: 0
    }
  }
}
layer {
  name: "conv8_2_mbox_conf_perm"
  type: "Permute"
  bottom: "conv8_2_mbox_conf"
  top: "conv8_2_mbox_conf_perm"
  permute_param {
    order: 0
    order: 2
    order: 3
    order: 1
  }
}
layer {
  name: "conv8_2_mbox_conf_flat"
  type: "Flatten"
  bottom: "conv8_2_mbox_conf_perm"
  top: "conv8_2_mbox_conf_flat"
  flatten_param {
    axis: 1
  }
}
layer {
  name: "conv8_2_mbox_priorbox"
  type: "PriorBox"
  bottom: "conv8_2"
  bottom: "data"
  top: "conv8_2_mbox_priorbox"
  prior_box_param {
    min_size: 213
    max_size: 264
    aspect_ratio: 2
    flip: true
    clip: false
    variance: 0.1
    variance: 0.1
    variance: 0.2
    variance: 0.2
    step: 100
    offset: 0.5
  }
}
layer {
  name: "conv9_2_mbox_loc"
  type: "Convolution"
  bottom: "conv9_2"
  top: "conv9_2_mbox_loc"
  param {
    lr_mult: 1
    decay_mult: 1
  }
  param {
    lr_mult: 2
    decay_mult: 0
  }
  convolution_param {
    num_output: 16
    pad: 1
    kernel_size: 3
    stride: 1
    weight_filler {
      type: "xavier"
    }
    bias_filler {
      type: "constant"
      value: 0
    }
  }
}
layer {
  name: "conv9_2_mbox_loc_perm"
  type: "Permute"
  bottom: "conv9_2_mbox_loc"
  top: "conv9_2_mbox_loc_perm"
  permute_param {
    order: 0
    order: 2
    order: 3
    order: 1
  }
}
layer {
  name: "conv9_2_mbox_loc_flat"
  type: "Flatten"
  bottom: "conv9_2_mbox_loc_perm"
  top: "conv9_2_mbox_loc_flat"
  flatten_param {
    axis: 1
  }
}
layer {
  name: "conv9_2_mbox_conf"
  type: "Convolution"
  bottom: "conv9_2"
  top: "conv9_2_mbox_conf"
  param {
    lr_mult: 1
    decay_mult: 1
  }
  param {
    lr_mult: 2
    decay_mult: 0
  }
  convolution_param {
    num_output: 8
    pad: 1
    kernel_size: 3
    stride: 1
    weight_filler {
      type: "xavier"
    }
    bias_filler {
      type: "constant"
      value: 0
    }
  }
}
layer {
  name: "conv9_2_mbox_conf_perm"
  type: "Permute"
  bottom: "conv9_2_mbox_conf"
  top: "conv9_2_mbox_conf_perm"
  permute_param {
    order: 0
    order: 2
    order: 3
    order: 1
  }
}
layer {
  name: "conv9_2_mbox_conf_flat"
  type: "Flatten"
  bottom: "conv9_2_mbox_conf_perm"
  top: "conv9_2_mbox_conf_flat"
  flatten_param {
    axis: 1
  }
}
layer {
  name: "conv9_2_mbox_priorbox"
  type: "PriorBox"
  bottom: "conv9_2"
  bottom: "data"
  top: "conv9_2_mbox_priorbox"
  prior_box_param {
    min_size: 264
    max_size: 315
    aspect_ratio: 2
    flip: true
    clip: false
    variance: 0.1
    variance: 0.1
    variance: 0.2
    variance: 0.2
    step: 300
    offset: 0.5
  }
}
layer {
  name: "mbox_loc"
  type: "Concat"
  bottom: "conv4_3_norm_mbox_loc_flat"
  bottom: "fc7_mbox_loc_flat"
  bottom: "conv6_2_mbox_loc_flat"
  bottom: "conv7_2_mbox_loc_flat"
  bottom: "conv8_2_mbox_loc_flat"
  bottom: "conv9_2_mbox_loc_flat"
  top: "mbox_loc"
  concat_param {
    axis: 1
  }
}
layer {
  name: "mbox_conf"
  type: "Concat"
  bottom: "conv4_3_norm_mbox_conf_flat"
  bottom: "fc7_mbox_conf_flat"
  bottom: "conv6_2_mbox_conf_flat"
  bottom: "conv7_2_mbox_conf_flat"
  bottom: "conv8_2_mbox_conf_flat"
  bottom: "conv9_2_mbox_conf_flat"
  top: "mbox_conf"
  concat_param {
    axis: 1
  }
}
layer {
  name: "mbox_priorbox"
  type: "Concat"
  bottom: "conv4_3_norm_mbox_priorbox"
  bottom: "fc7_mbox_priorbox"
  bottom: "conv6_2_mbox_priorbox"
  bottom: "conv7_2_mbox_priorbox"
  bottom: "conv8_2_mbox_priorbox"
  bottom: "conv9_2_mbox_priorbox"
  top: "mbox_priorbox"
  concat_param {
    axis: 2
  }
}
layer {
  name: "mbox_loss"
  type: "MultiBoxLoss"
  bottom: "mbox_loc"
  bottom: "mbox_conf"
  bottom: "mbox_priorbox"
  bottom: "label"
  top: "mbox_loss"
  include {
    phase: TRAIN
  }
  propagate_down: true
  propagate_down: true
  propagate_down: false
  propagate_down: false
  loss_param {
    normalization: VALID
  }
  multibox_loss_param {
    loc_loss_type: SMOOTH_L1
    conf_loss_type: SOFTMAX
    loc_weight: 1
    num_classes: 2
    share_location: true
    match_type: PER_PREDICTION
    overlap_threshold: 0.5
    use_prior_for_matching: true
    background_label_id: 0
    use_difficult_gt: true
    neg_pos_ratio: 3
    neg_overlap: 0.5
    code_type: CENTER_SIZE
    ignore_cross_boundary_bbox: false
    mining_type: MAX_NEGATIVE
  }
}
I0608 14:19:54.904846  3354 layer_factory.hpp:77] Creating layer data
I0608 14:19:54.904988  3354 net.cpp:100] Creating Layer data
I0608 14:19:54.905001  3354 net.cpp:408] data -> data
I0608 14:19:54.905032  3354 net.cpp:408] data -> label
I0608 14:19:54.905421  3371 db_lmdb.cpp:35] Opened lmdb examples/sharpen_tbs_v2.0/sharpen_tbs_v2.0_trainval_lmdb
I0608 14:19:54.914968  3354 annotated_data_layer.cpp:62] output data size: 32,3,300,300
I0608 14:19:54.974052  3354 net.cpp:150] Setting up data
I0608 14:19:54.974071  3354 net.cpp:157] Top shape: 32 3 300 300 (8640000)
I0608 14:19:54.974077  3354 net.cpp:157] Top shape: 1 1 1 8 (8)
I0608 14:19:54.974092  3354 net.cpp:165] Memory required for data: 34560032
I0608 14:19:54.974117  3354 layer_factory.hpp:77] Creating layer data_data_0_split
I0608 14:19:54.974156  3354 net.cpp:100] Creating Layer data_data_0_split
I0608 14:19:54.974167  3354 net.cpp:434] data_data_0_split <- data
I0608 14:19:54.974182  3354 net.cpp:408] data_data_0_split -> data_data_0_split_0
I0608 14:19:54.974195  3354 net.cpp:408] data_data_0_split -> data_data_0_split_1
I0608 14:19:54.974202  3354 net.cpp:408] data_data_0_split -> data_data_0_split_2
I0608 14:19:54.974212  3354 net.cpp:408] data_data_0_split -> data_data_0_split_3
I0608 14:19:54.974220  3354 net.cpp:408] data_data_0_split -> data_data_0_split_4
I0608 14:19:54.974227  3354 net.cpp:408] data_data_0_split -> data_data_0_split_5
I0608 14:19:54.974234  3354 net.cpp:408] data_data_0_split -> data_data_0_split_6
I0608 14:19:54.974315  3354 net.cpp:150] Setting up data_data_0_split
I0608 14:19:54.974323  3354 net.cpp:157] Top shape: 32 3 300 300 (8640000)
I0608 14:19:54.974328  3354 net.cpp:157] Top shape: 32 3 300 300 (8640000)
I0608 14:19:54.974334  3354 net.cpp:157] Top shape: 32 3 300 300 (8640000)
I0608 14:19:54.974339  3354 net.cpp:157] Top shape: 32 3 300 300 (8640000)
I0608 14:19:54.974344  3354 net.cpp:157] Top shape: 32 3 300 300 (8640000)
I0608 14:19:54.974349  3354 net.cpp:157] Top shape: 32 3 300 300 (8640000)
I0608 14:19:54.974354  3354 net.cpp:157] Top shape: 32 3 300 300 (8640000)
I0608 14:19:54.974359  3354 net.cpp:165] Memory required for data: 276480032
I0608 14:19:54.974362  3354 layer_factory.hpp:77] Creating layer conv1_1
I0608 14:19:54.974376  3354 net.cpp:100] Creating Layer conv1_1
I0608 14:19:54.974381  3354 net.cpp:434] conv1_1 <- data_data_0_split_0
I0608 14:19:54.974388  3354 net.cpp:408] conv1_1 -> conv1_1
I0608 14:19:55.150447  3354 net.cpp:150] Setting up conv1_1
I0608 14:19:55.150465  3354 net.cpp:157] Top shape: 32 64 300 300 (184320000)
I0608 14:19:55.150468  3354 net.cpp:165] Memory required for data: 1013760032
I0608 14:19:55.150498  3354 layer_factory.hpp:77] Creating layer relu1_1
I0608 14:19:55.150506  3354 net.cpp:100] Creating Layer relu1_1
I0608 14:19:55.150511  3354 net.cpp:434] relu1_1 <- conv1_1
I0608 14:19:55.150514  3354 net.cpp:395] relu1_1 -> conv1_1 (in-place)
I0608 14:19:55.150713  3354 net.cpp:150] Setting up relu1_1
I0608 14:19:55.150720  3354 net.cpp:157] Top shape: 32 64 300 300 (184320000)
I0608 14:19:55.150723  3354 net.cpp:165] Memory required for data: 1751040032
I0608 14:19:55.150725  3354 layer_factory.hpp:77] Creating layer conv1_2
I0608 14:19:55.150737  3354 net.cpp:100] Creating Layer conv1_2
I0608 14:19:55.150738  3354 net.cpp:434] conv1_2 <- conv1_1
I0608 14:19:55.150743  3354 net.cpp:408] conv1_2 -> conv1_2
I0608 14:19:55.152621  3354 net.cpp:150] Setting up conv1_2
I0608 14:19:55.152634  3354 net.cpp:157] Top shape: 32 64 300 300 (184320000)
I0608 14:19:55.152637  3354 net.cpp:165] Memory required for data: 2488320032
I0608 14:19:55.152643  3354 layer_factory.hpp:77] Creating layer relu1_2
I0608 14:19:55.152664  3354 net.cpp:100] Creating Layer relu1_2
I0608 14:19:55.152667  3354 net.cpp:434] relu1_2 <- conv1_2
I0608 14:19:55.152671  3354 net.cpp:395] relu1_2 -> conv1_2 (in-place)
I0608 14:19:55.153246  3354 net.cpp:150] Setting up relu1_2
I0608 14:19:55.153254  3354 net.cpp:157] Top shape: 32 64 300 300 (184320000)
I0608 14:19:55.153257  3354 net.cpp:165] Memory required for data: 3225600032
I0608 14:19:55.153260  3354 layer_factory.hpp:77] Creating layer pool1
I0608 14:19:55.153265  3354 net.cpp:100] Creating Layer pool1
I0608 14:19:55.153285  3354 net.cpp:434] pool1 <- conv1_2
I0608 14:19:55.153290  3354 net.cpp:408] pool1 -> pool1
I0608 14:19:55.153352  3354 net.cpp:150] Setting up pool1
I0608 14:19:55.153358  3354 net.cpp:157] Top shape: 32 64 150 150 (46080000)
I0608 14:19:55.153360  3354 net.cpp:165] Memory required for data: 3409920032
I0608 14:19:55.153362  3354 layer_factory.hpp:77] Creating layer conv2_1
I0608 14:19:55.153369  3354 net.cpp:100] Creating Layer conv2_1
I0608 14:19:55.153383  3354 net.cpp:434] conv2_1 <- pool1
I0608 14:19:55.153388  3354 net.cpp:408] conv2_1 -> conv2_1
I0608 14:19:55.154767  3354 net.cpp:150] Setting up conv2_1
I0608 14:19:55.154774  3354 net.cpp:157] Top shape: 32 128 150 150 (92160000)
I0608 14:19:55.154778  3354 net.cpp:165] Memory required for data: 3778560032
I0608 14:19:55.154784  3354 layer_factory.hpp:77] Creating layer relu2_1
I0608 14:19:55.154805  3354 net.cpp:100] Creating Layer relu2_1
I0608 14:19:55.154808  3354 net.cpp:434] relu2_1 <- conv2_1
I0608 14:19:55.154825  3354 net.cpp:395] relu2_1 -> conv2_1 (in-place)
I0608 14:19:55.155377  3354 net.cpp:150] Setting up relu2_1
I0608 14:19:55.155386  3354 net.cpp:157] Top shape: 32 128 150 150 (92160000)
I0608 14:19:55.155390  3354 net.cpp:165] Memory required for data: 4147200032
I0608 14:19:55.155391  3354 layer_factory.hpp:77] Creating layer conv2_2
I0608 14:19:55.155398  3354 net.cpp:100] Creating Layer conv2_2
I0608 14:19:55.155401  3354 net.cpp:434] conv2_2 <- conv2_1
I0608 14:19:55.155405  3354 net.cpp:408] conv2_2 -> conv2_2
I0608 14:19:55.157323  3354 net.cpp:150] Setting up conv2_2
I0608 14:19:55.157332  3354 net.cpp:157] Top shape: 32 128 150 150 (92160000)
I0608 14:19:55.157336  3354 net.cpp:165] Memory required for data: 4515840032
I0608 14:19:55.157341  3354 layer_factory.hpp:77] Creating layer relu2_2
I0608 14:19:55.157346  3354 net.cpp:100] Creating Layer relu2_2
I0608 14:19:55.157349  3354 net.cpp:434] relu2_2 <- conv2_2
I0608 14:19:55.157353  3354 net.cpp:395] relu2_2 -> conv2_2 (in-place)
I0608 14:19:55.157485  3354 net.cpp:150] Setting up relu2_2
I0608 14:19:55.157491  3354 net.cpp:157] Top shape: 32 128 150 150 (92160000)
I0608 14:19:55.157493  3354 net.cpp:165] Memory required for data: 4884480032
I0608 14:19:55.157496  3354 layer_factory.hpp:77] Creating layer pool2
I0608 14:19:55.157500  3354 net.cpp:100] Creating Layer pool2
I0608 14:19:55.157503  3354 net.cpp:434] pool2 <- conv2_2
I0608 14:19:55.157506  3354 net.cpp:408] pool2 -> pool2
I0608 14:19:55.157534  3354 net.cpp:150] Setting up pool2
I0608 14:19:55.157538  3354 net.cpp:157] Top shape: 32 128 75 75 (23040000)
I0608 14:19:55.157541  3354 net.cpp:165] Memory required for data: 4976640032
I0608 14:19:55.157543  3354 layer_factory.hpp:77] Creating layer conv3_1
I0608 14:19:55.157548  3354 net.cpp:100] Creating Layer conv3_1
I0608 14:19:55.157552  3354 net.cpp:434] conv3_1 <- pool2
I0608 14:19:55.157555  3354 net.cpp:408] conv3_1 -> conv3_1
I0608 14:19:55.161283  3354 net.cpp:150] Setting up conv3_1
I0608 14:19:55.161298  3354 net.cpp:157] Top shape: 32 256 75 75 (46080000)
I0608 14:19:55.161306  3354 net.cpp:165] Memory required for data: 5160960032
I0608 14:19:55.161319  3354 layer_factory.hpp:77] Creating layer relu3_1
I0608 14:19:55.161341  3354 net.cpp:100] Creating Layer relu3_1
I0608 14:19:55.161345  3354 net.cpp:434] relu3_1 <- conv3_1
I0608 14:19:55.161350  3354 net.cpp:395] relu3_1 -> conv3_1 (in-place)
I0608 14:19:55.161483  3354 net.cpp:150] Setting up relu3_1
I0608 14:19:55.161489  3354 net.cpp:157] Top shape: 32 256 75 75 (46080000)
I0608 14:19:55.161492  3354 net.cpp:165] Memory required for data: 5345280032
I0608 14:19:55.161494  3354 layer_factory.hpp:77] Creating layer conv3_2
I0608 14:19:55.161501  3354 net.cpp:100] Creating Layer conv3_2
I0608 14:19:55.161505  3354 net.cpp:434] conv3_2 <- conv3_1
I0608 14:19:55.161509  3354 net.cpp:408] conv3_2 -> conv3_2
I0608 14:19:55.166177  3354 net.cpp:150] Setting up conv3_2
I0608 14:19:55.166193  3354 net.cpp:157] Top shape: 32 256 75 75 (46080000)
I0608 14:19:55.166196  3354 net.cpp:165] Memory required for data: 5529600032
I0608 14:19:55.166218  3354 layer_factory.hpp:77] Creating layer relu3_2
I0608 14:19:55.166224  3354 net.cpp:100] Creating Layer relu3_2
I0608 14:19:55.166227  3354 net.cpp:434] relu3_2 <- conv3_2
I0608 14:19:55.166232  3354 net.cpp:395] relu3_2 -> conv3_2 (in-place)
I0608 14:19:55.166389  3354 net.cpp:150] Setting up relu3_2
I0608 14:19:55.166395  3354 net.cpp:157] Top shape: 32 256 75 75 (46080000)
I0608 14:19:55.166398  3354 net.cpp:165] Memory required for data: 5713920032
I0608 14:19:55.166424  3354 layer_factory.hpp:77] Creating layer conv3_3
I0608 14:19:55.166435  3354 net.cpp:100] Creating Layer conv3_3
I0608 14:19:55.166438  3354 net.cpp:434] conv3_3 <- conv3_2
I0608 14:19:55.166445  3354 net.cpp:408] conv3_3 -> conv3_3
I0608 14:19:55.170963  3354 net.cpp:150] Setting up conv3_3
I0608 14:19:55.170974  3354 net.cpp:157] Top shape: 32 256 75 75 (46080000)
I0608 14:19:55.170977  3354 net.cpp:165] Memory required for data: 5898240032
I0608 14:19:55.170984  3354 layer_factory.hpp:77] Creating layer relu3_3
I0608 14:19:55.170989  3354 net.cpp:100] Creating Layer relu3_3
I0608 14:19:55.170991  3354 net.cpp:434] relu3_3 <- conv3_3
I0608 14:19:55.170996  3354 net.cpp:395] relu3_3 -> conv3_3 (in-place)
I0608 14:19:55.171150  3354 net.cpp:150] Setting up relu3_3
I0608 14:19:55.171156  3354 net.cpp:157] Top shape: 32 256 75 75 (46080000)
I0608 14:19:55.171159  3354 net.cpp:165] Memory required for data: 6082560032
I0608 14:19:55.171161  3354 layer_factory.hpp:77] Creating layer pool3
I0608 14:19:55.171167  3354 net.cpp:100] Creating Layer pool3
I0608 14:19:55.171182  3354 net.cpp:434] pool3 <- conv3_3
I0608 14:19:55.171187  3354 net.cpp:408] pool3 -> pool3
I0608 14:19:55.171218  3354 net.cpp:150] Setting up pool3
I0608 14:19:55.171223  3354 net.cpp:157] Top shape: 32 256 38 38 (11829248)
I0608 14:19:55.171226  3354 net.cpp:165] Memory required for data: 6129877024
I0608 14:19:55.171227  3354 layer_factory.hpp:77] Creating layer conv4_1
I0608 14:19:55.171234  3354 net.cpp:100] Creating Layer conv4_1
I0608 14:19:55.171236  3354 net.cpp:434] conv4_1 <- pool3
I0608 14:19:55.171241  3354 net.cpp:408] conv4_1 -> conv4_1
I0608 14:19:55.180142  3354 net.cpp:150] Setting up conv4_1
I0608 14:19:55.180158  3354 net.cpp:157] Top shape: 32 512 38 38 (23658496)
I0608 14:19:55.180161  3354 net.cpp:165] Memory required for data: 6224511008
I0608 14:19:55.180182  3354 layer_factory.hpp:77] Creating layer relu4_1
I0608 14:19:55.180204  3354 net.cpp:100] Creating Layer relu4_1
I0608 14:19:55.180208  3354 net.cpp:434] relu4_1 <- conv4_1
I0608 14:19:55.180212  3354 net.cpp:395] relu4_1 -> conv4_1 (in-place)
I0608 14:19:55.180965  3354 net.cpp:150] Setting up relu4_1
I0608 14:19:55.180979  3354 net.cpp:157] Top shape: 32 512 38 38 (23658496)
I0608 14:19:55.180981  3354 net.cpp:165] Memory required for data: 6319144992
I0608 14:19:55.180985  3354 layer_factory.hpp:77] Creating layer conv4_2
I0608 14:19:55.181015  3354 net.cpp:100] Creating Layer conv4_2
I0608 14:19:55.181027  3354 net.cpp:434] conv4_2 <- conv4_1
I0608 14:19:55.181035  3354 net.cpp:408] conv4_2 -> conv4_2
I0608 14:19:55.193156  3354 net.cpp:150] Setting up conv4_2
I0608 14:19:55.193176  3354 net.cpp:157] Top shape: 32 512 38 38 (23658496)
I0608 14:19:55.193179  3354 net.cpp:165] Memory required for data: 6413778976
I0608 14:19:55.193207  3354 layer_factory.hpp:77] Creating layer relu4_2
I0608 14:19:55.193217  3354 net.cpp:100] Creating Layer relu4_2
I0608 14:19:55.193223  3354 net.cpp:434] relu4_2 <- conv4_2
I0608 14:19:55.193245  3354 net.cpp:395] relu4_2 -> conv4_2 (in-place)
I0608 14:19:55.194234  3354 net.cpp:150] Setting up relu4_2
I0608 14:19:55.194247  3354 net.cpp:157] Top shape: 32 512 38 38 (23658496)
I0608 14:19:55.194252  3354 net.cpp:165] Memory required for data: 6508412960
I0608 14:19:55.194254  3354 layer_factory.hpp:77] Creating layer conv4_3
I0608 14:19:55.194281  3354 net.cpp:100] Creating Layer conv4_3
I0608 14:19:55.194288  3354 net.cpp:434] conv4_3 <- conv4_2
I0608 14:19:55.194294  3354 net.cpp:408] conv4_3 -> conv4_3
I0608 14:19:55.207317  3354 net.cpp:150] Setting up conv4_3
I0608 14:19:55.207335  3354 net.cpp:157] Top shape: 32 512 38 38 (23658496)
I0608 14:19:55.207339  3354 net.cpp:165] Memory required for data: 6603046944
I0608 14:19:55.207360  3354 layer_factory.hpp:77] Creating layer relu4_3
I0608 14:19:55.207366  3354 net.cpp:100] Creating Layer relu4_3
I0608 14:19:55.207370  3354 net.cpp:434] relu4_3 <- conv4_3
I0608 14:19:55.207375  3354 net.cpp:395] relu4_3 -> conv4_3 (in-place)
I0608 14:19:55.207633  3354 net.cpp:150] Setting up relu4_3
I0608 14:19:55.207657  3354 net.cpp:157] Top shape: 32 512 38 38 (23658496)
I0608 14:19:55.207661  3354 net.cpp:165] Memory required for data: 6697680928
I0608 14:19:55.207665  3354 layer_factory.hpp:77] Creating layer conv4_3_relu4_3_0_split
I0608 14:19:55.207686  3354 net.cpp:100] Creating Layer conv4_3_relu4_3_0_split
I0608 14:19:55.207690  3354 net.cpp:434] conv4_3_relu4_3_0_split <- conv4_3
I0608 14:19:55.207697  3354 net.cpp:408] conv4_3_relu4_3_0_split -> conv4_3_relu4_3_0_split_0
I0608 14:19:55.207722  3354 net.cpp:408] conv4_3_relu4_3_0_split -> conv4_3_relu4_3_0_split_1
I0608 14:19:55.207808  3354 net.cpp:150] Setting up conv4_3_relu4_3_0_split
I0608 14:19:55.207816  3354 net.cpp:157] Top shape: 32 512 38 38 (23658496)
I0608 14:19:55.207821  3354 net.cpp:157] Top shape: 32 512 38 38 (23658496)
I0608 14:19:55.207825  3354 net.cpp:165] Memory required for data: 6886948896
I0608 14:19:55.207844  3354 layer_factory.hpp:77] Creating layer pool4
I0608 14:19:55.207850  3354 net.cpp:100] Creating Layer pool4
I0608 14:19:55.207868  3354 net.cpp:434] pool4 <- conv4_3_relu4_3_0_split_0
I0608 14:19:55.207875  3354 net.cpp:408] pool4 -> pool4
I0608 14:19:55.207929  3354 net.cpp:150] Setting up pool4
I0608 14:19:55.207939  3354 net.cpp:157] Top shape: 32 512 19 19 (5914624)
I0608 14:19:55.207957  3354 net.cpp:165] Memory required for data: 6910607392
I0608 14:19:55.207962  3354 layer_factory.hpp:77] Creating layer conv5_1
I0608 14:19:55.207990  3354 net.cpp:100] Creating Layer conv5_1
I0608 14:19:55.207995  3354 net.cpp:434] conv5_1 <- pool4
I0608 14:19:55.208004  3354 net.cpp:408] conv5_1 -> conv5_1
I0608 14:19:55.222571  3354 net.cpp:150] Setting up conv5_1
I0608 14:19:55.222589  3354 net.cpp:157] Top shape: 32 512 19 19 (5914624)
I0608 14:19:55.222591  3354 net.cpp:165] Memory required for data: 6934265888
I0608 14:19:55.222612  3354 layer_factory.hpp:77] Creating layer relu5_1
I0608 14:19:55.222620  3354 net.cpp:100] Creating Layer relu5_1
I0608 14:19:55.222635  3354 net.cpp:434] relu5_1 <- conv5_1
I0608 14:19:55.222640  3354 net.cpp:395] relu5_1 -> conv5_1 (in-place)
I0608 14:19:55.222800  3354 net.cpp:150] Setting up relu5_1
I0608 14:19:55.222806  3354 net.cpp:157] Top shape: 32 512 19 19 (5914624)
I0608 14:19:55.222810  3354 net.cpp:165] Memory required for data: 6957924384
I0608 14:19:55.222811  3354 layer_factory.hpp:77] Creating layer conv5_2
I0608 14:19:55.222832  3354 net.cpp:100] Creating Layer conv5_2
I0608 14:19:55.222836  3354 net.cpp:434] conv5_2 <- conv5_1
I0608 14:19:55.222841  3354 net.cpp:408] conv5_2 -> conv5_2
I0608 14:19:55.236044  3354 net.cpp:150] Setting up conv5_2
I0608 14:19:55.236058  3354 net.cpp:157] Top shape: 32 512 19 19 (5914624)
I0608 14:19:55.236062  3354 net.cpp:165] Memory required for data: 6981582880
I0608 14:19:55.236068  3354 layer_factory.hpp:77] Creating layer relu5_2
I0608 14:19:55.236088  3354 net.cpp:100] Creating Layer relu5_2
I0608 14:19:55.236105  3354 net.cpp:434] relu5_2 <- conv5_2
I0608 14:19:55.236110  3354 net.cpp:395] relu5_2 -> conv5_2 (in-place)
I0608 14:19:55.236287  3354 net.cpp:150] Setting up relu5_2
I0608 14:19:55.236294  3354 net.cpp:157] Top shape: 32 512 19 19 (5914624)
I0608 14:19:55.236295  3354 net.cpp:165] Memory required for data: 7005241376
I0608 14:19:55.236299  3354 layer_factory.hpp:77] Creating layer conv5_3
I0608 14:19:55.236320  3354 net.cpp:100] Creating Layer conv5_3
I0608 14:19:55.236323  3354 net.cpp:434] conv5_3 <- conv5_2
I0608 14:19:55.236330  3354 net.cpp:408] conv5_3 -> conv5_3
I0608 14:19:55.249402  3354 net.cpp:150] Setting up conv5_3
I0608 14:19:55.249423  3354 net.cpp:157] Top shape: 32 512 19 19 (5914624)
I0608 14:19:55.249426  3354 net.cpp:165] Memory required for data: 7028899872
I0608 14:19:55.249449  3354 layer_factory.hpp:77] Creating layer relu5_3
I0608 14:19:55.249460  3354 net.cpp:100] Creating Layer relu5_3
I0608 14:19:55.249464  3354 net.cpp:434] relu5_3 <- conv5_3
I0608 14:19:55.249469  3354 net.cpp:395] relu5_3 -> conv5_3 (in-place)
I0608 14:19:55.249636  3354 net.cpp:150] Setting up relu5_3
I0608 14:19:55.249644  3354 net.cpp:157] Top shape: 32 512 19 19 (5914624)
I0608 14:19:55.249645  3354 net.cpp:165] Memory required for data: 7052558368
I0608 14:19:55.249649  3354 layer_factory.hpp:77] Creating layer pool5
I0608 14:19:55.249667  3354 net.cpp:100] Creating Layer pool5
I0608 14:19:55.249670  3354 net.cpp:434] pool5 <- conv5_3
I0608 14:19:55.249675  3354 net.cpp:408] pool5 -> pool5
I0608 14:19:55.249721  3354 net.cpp:150] Setting up pool5
I0608 14:19:55.249725  3354 net.cpp:157] Top shape: 32 512 19 19 (5914624)
I0608 14:19:55.249727  3354 net.cpp:165] Memory required for data: 7076216864
I0608 14:19:55.249730  3354 layer_factory.hpp:77] Creating layer fc6
I0608 14:19:55.249738  3354 net.cpp:100] Creating Layer fc6
I0608 14:19:55.249742  3354 net.cpp:434] fc6 <- pool5
I0608 14:19:55.249745  3354 net.cpp:408] fc6 -> fc6
I0608 14:19:55.272725  3354 net.cpp:150] Setting up fc6
I0608 14:19:55.272740  3354 net.cpp:157] Top shape: 32 1024 19 19 (11829248)
I0608 14:19:55.272742  3354 net.cpp:165] Memory required for data: 7123533856
I0608 14:19:55.272748  3354 layer_factory.hpp:77] Creating layer relu6
I0608 14:19:55.272770  3354 net.cpp:100] Creating Layer relu6
I0608 14:19:55.272773  3354 net.cpp:434] relu6 <- fc6
I0608 14:19:55.272778  3354 net.cpp:395] relu6 -> fc6 (in-place)
I0608 14:19:55.273619  3354 net.cpp:150] Setting up relu6
I0608 14:19:55.273628  3354 net.cpp:157] Top shape: 32 1024 19 19 (11829248)
I0608 14:19:55.273632  3354 net.cpp:165] Memory required for data: 7170850848
I0608 14:19:55.273634  3354 layer_factory.hpp:77] Creating layer fc7
I0608 14:19:55.273643  3354 net.cpp:100] Creating Layer fc7
I0608 14:19:55.273648  3354 net.cpp:434] fc7 <- fc6
I0608 14:19:55.273653  3354 net.cpp:408] fc7 -> fc7
I0608 14:19:55.280728  3354 net.cpp:150] Setting up fc7
I0608 14:19:55.280748  3354 net.cpp:157] Top shape: 32 1024 19 19 (11829248)
I0608 14:19:55.280752  3354 net.cpp:165] Memory required for data: 7218167840
I0608 14:19:55.280761  3354 layer_factory.hpp:77] Creating layer relu7
I0608 14:19:55.280769  3354 net.cpp:100] Creating Layer relu7
I0608 14:19:55.280787  3354 net.cpp:434] relu7 <- fc7
I0608 14:19:55.280792  3354 net.cpp:395] relu7 -> fc7 (in-place)
I0608 14:19:55.280958  3354 net.cpp:150] Setting up relu7
I0608 14:19:55.280983  3354 net.cpp:157] Top shape: 32 1024 19 19 (11829248)
I0608 14:19:55.280995  3354 net.cpp:165] Memory required for data: 7265484832
I0608 14:19:55.281007  3354 layer_factory.hpp:77] Creating layer fc7_relu7_0_split
I0608 14:19:55.281020  3354 net.cpp:100] Creating Layer fc7_relu7_0_split
I0608 14:19:55.281031  3354 net.cpp:434] fc7_relu7_0_split <- fc7
I0608 14:19:55.281045  3354 net.cpp:408] fc7_relu7_0_split -> fc7_relu7_0_split_0
I0608 14:19:55.281060  3354 net.cpp:408] fc7_relu7_0_split -> fc7_relu7_0_split_1
I0608 14:19:55.281081  3354 net.cpp:408] fc7_relu7_0_split -> fc7_relu7_0_split_2
I0608 14:19:55.281096  3354 net.cpp:408] fc7_relu7_0_split -> fc7_relu7_0_split_3
I0608 14:19:55.281170  3354 net.cpp:150] Setting up fc7_relu7_0_split
I0608 14:19:55.281184  3354 net.cpp:157] Top shape: 32 1024 19 19 (11829248)
I0608 14:19:55.281198  3354 net.cpp:157] Top shape: 32 1024 19 19 (11829248)
I0608 14:19:55.281208  3354 net.cpp:157] Top shape: 32 1024 19 19 (11829248)
I0608 14:19:55.281219  3354 net.cpp:157] Top shape: 32 1024 19 19 (11829248)
I0608 14:19:55.281229  3354 net.cpp:165] Memory required for data: 7454752800
I0608 14:19:55.281239  3354 layer_factory.hpp:77] Creating layer conv6_1
I0608 14:19:55.281256  3354 net.cpp:100] Creating Layer conv6_1
I0608 14:19:55.281267  3354 net.cpp:434] conv6_1 <- fc7_relu7_0_split_0
I0608 14:19:55.281282  3354 net.cpp:408] conv6_1 -> conv6_1
I0608 14:19:55.284492  3354 net.cpp:150] Setting up conv6_1
I0608 14:19:55.284504  3354 net.cpp:157] Top shape: 32 256 19 19 (2957312)
I0608 14:19:55.284507  3354 net.cpp:165] Memory required for data: 7466582048
I0608 14:19:55.284513  3354 layer_factory.hpp:77] Creating layer conv6_1_relu
I0608 14:19:55.284519  3354 net.cpp:100] Creating Layer conv6_1_relu
I0608 14:19:55.284533  3354 net.cpp:434] conv6_1_relu <- conv6_1
I0608 14:19:55.284538  3354 net.cpp:395] conv6_1_relu -> conv6_1 (in-place)
I0608 14:19:55.284677  3354 net.cpp:150] Setting up conv6_1_relu
I0608 14:19:55.284684  3354 net.cpp:157] Top shape: 32 256 19 19 (2957312)
I0608 14:19:55.284687  3354 net.cpp:165] Memory required for data: 7478411296
I0608 14:19:55.284689  3354 layer_factory.hpp:77] Creating layer conv6_2
I0608 14:19:55.284698  3354 net.cpp:100] Creating Layer conv6_2
I0608 14:19:55.284701  3354 net.cpp:434] conv6_2 <- conv6_1
I0608 14:19:55.284705  3354 net.cpp:408] conv6_2 -> conv6_2
I0608 14:19:55.291791  3354 net.cpp:150] Setting up conv6_2
I0608 14:19:55.291810  3354 net.cpp:157] Top shape: 32 512 10 10 (1638400)
I0608 14:19:55.291813  3354 net.cpp:165] Memory required for data: 7484964896
I0608 14:19:55.291827  3354 layer_factory.hpp:77] Creating layer conv6_2_relu
I0608 14:19:55.291834  3354 net.cpp:100] Creating Layer conv6_2_relu
I0608 14:19:55.291837  3354 net.cpp:434] conv6_2_relu <- conv6_2
I0608 14:19:55.291844  3354 net.cpp:395] conv6_2_relu -> conv6_2 (in-place)
I0608 14:19:55.291971  3354 net.cpp:150] Setting up conv6_2_relu
I0608 14:19:55.291978  3354 net.cpp:157] Top shape: 32 512 10 10 (1638400)
I0608 14:19:55.291980  3354 net.cpp:165] Memory required for data: 7491518496
I0608 14:19:55.291983  3354 layer_factory.hpp:77] Creating layer conv6_2_conv6_2_relu_0_split
I0608 14:19:55.291987  3354 net.cpp:100] Creating Layer conv6_2_conv6_2_relu_0_split
I0608 14:19:55.291990  3354 net.cpp:434] conv6_2_conv6_2_relu_0_split <- conv6_2
I0608 14:19:55.291995  3354 net.cpp:408] conv6_2_conv6_2_relu_0_split -> conv6_2_conv6_2_relu_0_split_0
I0608 14:19:55.291999  3354 net.cpp:408] conv6_2_conv6_2_relu_0_split -> conv6_2_conv6_2_relu_0_split_1
I0608 14:19:55.292004  3354 net.cpp:408] conv6_2_conv6_2_relu_0_split -> conv6_2_conv6_2_relu_0_split_2
I0608 14:19:55.292008  3354 net.cpp:408] conv6_2_conv6_2_relu_0_split -> conv6_2_conv6_2_relu_0_split_3
I0608 14:19:55.292058  3354 net.cpp:150] Setting up conv6_2_conv6_2_relu_0_split
I0608 14:19:55.292063  3354 net.cpp:157] Top shape: 32 512 10 10 (1638400)
I0608 14:19:55.292067  3354 net.cpp:157] Top shape: 32 512 10 10 (1638400)
I0608 14:19:55.292068  3354 net.cpp:157] Top shape: 32 512 10 10 (1638400)
I0608 14:19:55.292071  3354 net.cpp:157] Top shape: 32 512 10 10 (1638400)
I0608 14:19:55.292073  3354 net.cpp:165] Memory required for data: 7517732896
I0608 14:19:55.292075  3354 layer_factory.hpp:77] Creating layer conv7_1
I0608 14:19:55.292083  3354 net.cpp:100] Creating Layer conv7_1
I0608 14:19:55.292091  3354 net.cpp:434] conv7_1 <- conv6_2_conv6_2_relu_0_split_0
I0608 14:19:55.292098  3354 net.cpp:408] conv7_1 -> conv7_1
I0608 14:19:55.293377  3354 net.cpp:150] Setting up conv7_1
I0608 14:19:55.293386  3354 net.cpp:157] Top shape: 32 128 10 10 (409600)
I0608 14:19:55.293390  3354 net.cpp:165] Memory required for data: 7519371296
I0608 14:19:55.293395  3354 layer_factory.hpp:77] Creating layer conv7_1_relu
I0608 14:19:55.293400  3354 net.cpp:100] Creating Layer conv7_1_relu
I0608 14:19:55.293402  3354 net.cpp:434] conv7_1_relu <- conv7_1
I0608 14:19:55.293406  3354 net.cpp:395] conv7_1_relu -> conv7_1 (in-place)
I0608 14:19:55.293527  3354 net.cpp:150] Setting up conv7_1_relu
I0608 14:19:55.293532  3354 net.cpp:157] Top shape: 32 128 10 10 (409600)
I0608 14:19:55.293535  3354 net.cpp:165] Memory required for data: 7521009696
I0608 14:19:55.293537  3354 layer_factory.hpp:77] Creating layer conv7_2
I0608 14:19:55.293545  3354 net.cpp:100] Creating Layer conv7_2
I0608 14:19:55.293547  3354 net.cpp:434] conv7_2 <- conv7_1
I0608 14:19:55.293551  3354 net.cpp:408] conv7_2 -> conv7_2
I0608 14:19:55.296411  3354 net.cpp:150] Setting up conv7_2
I0608 14:19:55.296422  3354 net.cpp:157] Top shape: 32 256 5 5 (204800)
I0608 14:19:55.296424  3354 net.cpp:165] Memory required for data: 7521828896
I0608 14:19:55.296429  3354 layer_factory.hpp:77] Creating layer conv7_2_relu
I0608 14:19:55.296434  3354 net.cpp:100] Creating Layer conv7_2_relu
I0608 14:19:55.296447  3354 net.cpp:434] conv7_2_relu <- conv7_2
I0608 14:19:55.296453  3354 net.cpp:395] conv7_2_relu -> conv7_2 (in-place)
I0608 14:19:55.296577  3354 net.cpp:150] Setting up conv7_2_relu
I0608 14:19:55.296584  3354 net.cpp:157] Top shape: 32 256 5 5 (204800)
I0608 14:19:55.296587  3354 net.cpp:165] Memory required for data: 7522648096
I0608 14:19:55.296589  3354 layer_factory.hpp:77] Creating layer conv7_2_conv7_2_relu_0_split
I0608 14:19:55.296594  3354 net.cpp:100] Creating Layer conv7_2_conv7_2_relu_0_split
I0608 14:19:55.296597  3354 net.cpp:434] conv7_2_conv7_2_relu_0_split <- conv7_2
I0608 14:19:55.296600  3354 net.cpp:408] conv7_2_conv7_2_relu_0_split -> conv7_2_conv7_2_relu_0_split_0
I0608 14:19:55.296607  3354 net.cpp:408] conv7_2_conv7_2_relu_0_split -> conv7_2_conv7_2_relu_0_split_1
I0608 14:19:55.296612  3354 net.cpp:408] conv7_2_conv7_2_relu_0_split -> conv7_2_conv7_2_relu_0_split_2
I0608 14:19:55.296618  3354 net.cpp:408] conv7_2_conv7_2_relu_0_split -> conv7_2_conv7_2_relu_0_split_3
I0608 14:19:55.296667  3354 net.cpp:150] Setting up conv7_2_conv7_2_relu_0_split
I0608 14:19:55.296672  3354 net.cpp:157] Top shape: 32 256 5 5 (204800)
I0608 14:19:55.296675  3354 net.cpp:157] Top shape: 32 256 5 5 (204800)
I0608 14:19:55.296677  3354 net.cpp:157] Top shape: 32 256 5 5 (204800)
I0608 14:19:55.296680  3354 net.cpp:157] Top shape: 32 256 5 5 (204800)
I0608 14:19:55.296682  3354 net.cpp:165] Memory required for data: 7525924896
I0608 14:19:55.296684  3354 layer_factory.hpp:77] Creating layer conv8_1
I0608 14:19:55.296692  3354 net.cpp:100] Creating Layer conv8_1
I0608 14:19:55.296696  3354 net.cpp:434] conv8_1 <- conv7_2_conv7_2_relu_0_split_0
I0608 14:19:55.296700  3354 net.cpp:408] conv8_1 -> conv8_1
I0608 14:19:55.297834  3354 net.cpp:150] Setting up conv8_1
I0608 14:19:55.297844  3354 net.cpp:157] Top shape: 32 128 5 5 (102400)
I0608 14:19:55.297847  3354 net.cpp:165] Memory required for data: 7526334496
I0608 14:19:55.297852  3354 layer_factory.hpp:77] Creating layer conv8_1_relu
I0608 14:19:55.297857  3354 net.cpp:100] Creating Layer conv8_1_relu
I0608 14:19:55.297858  3354 net.cpp:434] conv8_1_relu <- conv8_1
I0608 14:19:55.297863  3354 net.cpp:395] conv8_1_relu -> conv8_1 (in-place)
I0608 14:19:55.298418  3354 net.cpp:150] Setting up conv8_1_relu
I0608 14:19:55.298425  3354 net.cpp:157] Top shape: 32 128 5 5 (102400)
I0608 14:19:55.298429  3354 net.cpp:165] Memory required for data: 7526744096
I0608 14:19:55.298431  3354 layer_factory.hpp:77] Creating layer conv8_2
I0608 14:19:55.298437  3354 net.cpp:100] Creating Layer conv8_2
I0608 14:19:55.298440  3354 net.cpp:434] conv8_2 <- conv8_1
I0608 14:19:55.298445  3354 net.cpp:408] conv8_2 -> conv8_2
I0608 14:19:55.301292  3354 net.cpp:150] Setting up conv8_2
I0608 14:19:55.301316  3354 net.cpp:157] Top shape: 32 256 3 3 (73728)
I0608 14:19:55.301318  3354 net.cpp:165] Memory required for data: 7527039008
I0608 14:19:55.301324  3354 layer_factory.hpp:77] Creating layer conv8_2_relu
I0608 14:19:55.301331  3354 net.cpp:100] Creating Layer conv8_2_relu
I0608 14:19:55.301333  3354 net.cpp:434] conv8_2_relu <- conv8_2
I0608 14:19:55.301338  3354 net.cpp:395] conv8_2_relu -> conv8_2 (in-place)
I0608 14:19:55.301467  3354 net.cpp:150] Setting up conv8_2_relu
I0608 14:19:55.301475  3354 net.cpp:157] Top shape: 32 256 3 3 (73728)
I0608 14:19:55.301476  3354 net.cpp:165] Memory required for data: 7527333920
I0608 14:19:55.301478  3354 layer_factory.hpp:77] Creating layer conv8_2_conv8_2_relu_0_split
I0608 14:19:55.301483  3354 net.cpp:100] Creating Layer conv8_2_conv8_2_relu_0_split
I0608 14:19:55.301487  3354 net.cpp:434] conv8_2_conv8_2_relu_0_split <- conv8_2
I0608 14:19:55.301491  3354 net.cpp:408] conv8_2_conv8_2_relu_0_split -> conv8_2_conv8_2_relu_0_split_0
I0608 14:19:55.301497  3354 net.cpp:408] conv8_2_conv8_2_relu_0_split -> conv8_2_conv8_2_relu_0_split_1
I0608 14:19:55.301503  3354 net.cpp:408] conv8_2_conv8_2_relu_0_split -> conv8_2_conv8_2_relu_0_split_2
I0608 14:19:55.301508  3354 net.cpp:408] conv8_2_conv8_2_relu_0_split -> conv8_2_conv8_2_relu_0_split_3
I0608 14:19:55.301570  3354 net.cpp:150] Setting up conv8_2_conv8_2_relu_0_split
I0608 14:19:55.301575  3354 net.cpp:157] Top shape: 32 256 3 3 (73728)
I0608 14:19:55.301578  3354 net.cpp:157] Top shape: 32 256 3 3 (73728)
I0608 14:19:55.301581  3354 net.cpp:157] Top shape: 32 256 3 3 (73728)
I0608 14:19:55.301584  3354 net.cpp:157] Top shape: 32 256 3 3 (73728)
I0608 14:19:55.301585  3354 net.cpp:165] Memory required for data: 7528513568
I0608 14:19:55.301587  3354 layer_factory.hpp:77] Creating layer conv9_1
I0608 14:19:55.301596  3354 net.cpp:100] Creating Layer conv9_1
I0608 14:19:55.301600  3354 net.cpp:434] conv9_1 <- conv8_2_conv8_2_relu_0_split_0
I0608 14:19:55.301604  3354 net.cpp:408] conv9_1 -> conv9_1
I0608 14:19:55.302744  3354 net.cpp:150] Setting up conv9_1
I0608 14:19:55.302754  3354 net.cpp:157] Top shape: 32 128 3 3 (36864)
I0608 14:19:55.302757  3354 net.cpp:165] Memory required for data: 7528661024
I0608 14:19:55.302762  3354 layer_factory.hpp:77] Creating layer conv9_1_relu
I0608 14:19:55.302765  3354 net.cpp:100] Creating Layer conv9_1_relu
I0608 14:19:55.302769  3354 net.cpp:434] conv9_1_relu <- conv9_1
I0608 14:19:55.302774  3354 net.cpp:395] conv9_1_relu -> conv9_1 (in-place)
I0608 14:19:55.302894  3354 net.cpp:150] Setting up conv9_1_relu
I0608 14:19:55.302901  3354 net.cpp:157] Top shape: 32 128 3 3 (36864)
I0608 14:19:55.302903  3354 net.cpp:165] Memory required for data: 7528808480
I0608 14:19:55.302906  3354 layer_factory.hpp:77] Creating layer conv9_2
I0608 14:19:55.302912  3354 net.cpp:100] Creating Layer conv9_2
I0608 14:19:55.302914  3354 net.cpp:434] conv9_2 <- conv9_1
I0608 14:19:55.302920  3354 net.cpp:408] conv9_2 -> conv9_2
I0608 14:19:55.305721  3354 net.cpp:150] Setting up conv9_2
I0608 14:19:55.305733  3354 net.cpp:157] Top shape: 32 256 1 1 (8192)
I0608 14:19:55.305735  3354 net.cpp:165] Memory required for data: 7528841248
I0608 14:19:55.305740  3354 layer_factory.hpp:77] Creating layer conv9_2_relu
I0608 14:19:55.305744  3354 net.cpp:100] Creating Layer conv9_2_relu
I0608 14:19:55.305747  3354 net.cpp:434] conv9_2_relu <- conv9_2
I0608 14:19:55.305753  3354 net.cpp:395] conv9_2_relu -> conv9_2 (in-place)
I0608 14:19:55.305876  3354 net.cpp:150] Setting up conv9_2_relu
I0608 14:19:55.305882  3354 net.cpp:157] Top shape: 32 256 1 1 (8192)
I0608 14:19:55.305884  3354 net.cpp:165] Memory required for data: 7528874016
I0608 14:19:55.305887  3354 layer_factory.hpp:77] Creating layer conv9_2_conv9_2_relu_0_split
I0608 14:19:55.305892  3354 net.cpp:100] Creating Layer conv9_2_conv9_2_relu_0_split
I0608 14:19:55.305894  3354 net.cpp:434] conv9_2_conv9_2_relu_0_split <- conv9_2
I0608 14:19:55.305899  3354 net.cpp:408] conv9_2_conv9_2_relu_0_split -> conv9_2_conv9_2_relu_0_split_0
I0608 14:19:55.305904  3354 net.cpp:408] conv9_2_conv9_2_relu_0_split -> conv9_2_conv9_2_relu_0_split_1
I0608 14:19:55.305909  3354 net.cpp:408] conv9_2_conv9_2_relu_0_split -> conv9_2_conv9_2_relu_0_split_2
I0608 14:19:55.305948  3354 net.cpp:150] Setting up conv9_2_conv9_2_relu_0_split
I0608 14:19:55.305953  3354 net.cpp:157] Top shape: 32 256 1 1 (8192)
I0608 14:19:55.305955  3354 net.cpp:157] Top shape: 32 256 1 1 (8192)
I0608 14:19:55.305958  3354 net.cpp:157] Top shape: 32 256 1 1 (8192)
I0608 14:19:55.305960  3354 net.cpp:165] Memory required for data: 7528972320
I0608 14:19:55.305963  3354 layer_factory.hpp:77] Creating layer conv4_3_norm
I0608 14:19:55.305968  3354 net.cpp:100] Creating Layer conv4_3_norm
I0608 14:19:55.305971  3354 net.cpp:434] conv4_3_norm <- conv4_3_relu4_3_0_split_1
I0608 14:19:55.305976  3354 net.cpp:408] conv4_3_norm -> conv4_3_norm
I0608 14:19:55.306098  3354 net.cpp:150] Setting up conv4_3_norm
I0608 14:19:55.306103  3354 net.cpp:157] Top shape: 32 512 38 38 (23658496)
I0608 14:19:55.306105  3354 net.cpp:165] Memory required for data: 7623606304
I0608 14:19:55.306108  3354 layer_factory.hpp:77] Creating layer conv4_3_norm_conv4_3_norm_0_split
I0608 14:19:55.306113  3354 net.cpp:100] Creating Layer conv4_3_norm_conv4_3_norm_0_split
I0608 14:19:55.306115  3354 net.cpp:434] conv4_3_norm_conv4_3_norm_0_split <- conv4_3_norm
I0608 14:19:55.306128  3354 net.cpp:408] conv4_3_norm_conv4_3_norm_0_split -> conv4_3_norm_conv4_3_norm_0_split_0
I0608 14:19:55.306134  3354 net.cpp:408] conv4_3_norm_conv4_3_norm_0_split -> conv4_3_norm_conv4_3_norm_0_split_1
I0608 14:19:55.306138  3354 net.cpp:408] conv4_3_norm_conv4_3_norm_0_split -> conv4_3_norm_conv4_3_norm_0_split_2
I0608 14:19:55.306175  3354 net.cpp:150] Setting up conv4_3_norm_conv4_3_norm_0_split
I0608 14:19:55.306180  3354 net.cpp:157] Top shape: 32 512 38 38 (23658496)
I0608 14:19:55.306183  3354 net.cpp:157] Top shape: 32 512 38 38 (23658496)
I0608 14:19:55.306186  3354 net.cpp:157] Top shape: 32 512 38 38 (23658496)
I0608 14:19:55.306188  3354 net.cpp:165] Memory required for data: 7907508256
I0608 14:19:55.306190  3354 layer_factory.hpp:77] Creating layer conv4_3_norm_mbox_loc
I0608 14:19:55.306197  3354 net.cpp:100] Creating Layer conv4_3_norm_mbox_loc
I0608 14:19:55.306200  3354 net.cpp:434] conv4_3_norm_mbox_loc <- conv4_3_norm_conv4_3_norm_0_split_0
I0608 14:19:55.306205  3354 net.cpp:408] conv4_3_norm_mbox_loc -> conv4_3_norm_mbox_loc
I0608 14:19:55.307986  3354 net.cpp:150] Setting up conv4_3_norm_mbox_loc
I0608 14:19:55.307996  3354 net.cpp:157] Top shape: 32 16 38 38 (739328)
I0608 14:19:55.307998  3354 net.cpp:165] Memory required for data: 7910465568
I0608 14:19:55.308002  3354 layer_factory.hpp:77] Creating layer conv4_3_norm_mbox_loc_perm
I0608 14:19:55.308009  3354 net.cpp:100] Creating Layer conv4_3_norm_mbox_loc_perm
I0608 14:19:55.308013  3354 net.cpp:434] conv4_3_norm_mbox_loc_perm <- conv4_3_norm_mbox_loc
I0608 14:19:55.308017  3354 net.cpp:408] conv4_3_norm_mbox_loc_perm -> conv4_3_norm_mbox_loc_perm
I0608 14:19:55.308111  3354 net.cpp:150] Setting up conv4_3_norm_mbox_loc_perm
I0608 14:19:55.308117  3354 net.cpp:157] Top shape: 32 38 38 16 (739328)
I0608 14:19:55.308120  3354 net.cpp:165] Memory required for data: 7913422880
I0608 14:19:55.308121  3354 layer_factory.hpp:77] Creating layer conv4_3_norm_mbox_loc_flat
I0608 14:19:55.308126  3354 net.cpp:100] Creating Layer conv4_3_norm_mbox_loc_flat
I0608 14:19:55.308130  3354 net.cpp:434] conv4_3_norm_mbox_loc_flat <- conv4_3_norm_mbox_loc_perm
I0608 14:19:55.308132  3354 net.cpp:408] conv4_3_norm_mbox_loc_flat -> conv4_3_norm_mbox_loc_flat
I0608 14:19:55.308159  3354 net.cpp:150] Setting up conv4_3_norm_mbox_loc_flat
I0608 14:19:55.308164  3354 net.cpp:157] Top shape: 32 23104 (739328)
I0608 14:19:55.308167  3354 net.cpp:165] Memory required for data: 7916380192
I0608 14:19:55.308169  3354 layer_factory.hpp:77] Creating layer conv4_3_norm_mbox_conf
I0608 14:19:55.308181  3354 net.cpp:100] Creating Layer conv4_3_norm_mbox_conf
I0608 14:19:55.308184  3354 net.cpp:434] conv4_3_norm_mbox_conf <- conv4_3_norm_conv4_3_norm_0_split_1
I0608 14:19:55.308188  3354 net.cpp:408] conv4_3_norm_mbox_conf -> conv4_3_norm_mbox_conf
I0608 14:19:55.309887  3354 net.cpp:150] Setting up conv4_3_norm_mbox_conf
I0608 14:19:55.309898  3354 net.cpp:157] Top shape: 32 8 38 38 (369664)
I0608 14:19:55.309901  3354 net.cpp:165] Memory required for data: 7917858848
I0608 14:19:55.309907  3354 layer_factory.hpp:77] Creating layer conv4_3_norm_mbox_conf_perm
I0608 14:19:55.309912  3354 net.cpp:100] Creating Layer conv4_3_norm_mbox_conf_perm
I0608 14:19:55.309916  3354 net.cpp:434] conv4_3_norm_mbox_conf_perm <- conv4_3_norm_mbox_conf
I0608 14:19:55.309921  3354 net.cpp:408] conv4_3_norm_mbox_conf_perm -> conv4_3_norm_mbox_conf_perm
I0608 14:19:55.310020  3354 net.cpp:150] Setting up conv4_3_norm_mbox_conf_perm
I0608 14:19:55.310026  3354 net.cpp:157] Top shape: 32 38 38 8 (369664)
I0608 14:19:55.310029  3354 net.cpp:165] Memory required for data: 7919337504
I0608 14:19:55.310030  3354 layer_factory.hpp:77] Creating layer conv4_3_norm_mbox_conf_flat
I0608 14:19:55.310034  3354 net.cpp:100] Creating Layer conv4_3_norm_mbox_conf_flat
I0608 14:19:55.310037  3354 net.cpp:434] conv4_3_norm_mbox_conf_flat <- conv4_3_norm_mbox_conf_perm
I0608 14:19:55.310041  3354 net.cpp:408] conv4_3_norm_mbox_conf_flat -> conv4_3_norm_mbox_conf_flat
I0608 14:19:55.310070  3354 net.cpp:150] Setting up conv4_3_norm_mbox_conf_flat
I0608 14:19:55.310075  3354 net.cpp:157] Top shape: 32 11552 (369664)
I0608 14:19:55.310077  3354 net.cpp:165] Memory required for data: 7920816160
I0608 14:19:55.310080  3354 layer_factory.hpp:77] Creating layer conv4_3_norm_mbox_priorbox
I0608 14:19:55.310083  3354 net.cpp:100] Creating Layer conv4_3_norm_mbox_priorbox
I0608 14:19:55.310086  3354 net.cpp:434] conv4_3_norm_mbox_priorbox <- conv4_3_norm_conv4_3_norm_0_split_2
I0608 14:19:55.310091  3354 net.cpp:434] conv4_3_norm_mbox_priorbox <- data_data_0_split_1
I0608 14:19:55.310096  3354 net.cpp:408] conv4_3_norm_mbox_priorbox -> conv4_3_norm_mbox_priorbox
I0608 14:19:55.310118  3354 net.cpp:150] Setting up conv4_3_norm_mbox_priorbox
I0608 14:19:55.310124  3354 net.cpp:157] Top shape: 1 2 23104 (46208)
I0608 14:19:55.310127  3354 net.cpp:165] Memory required for data: 7921000992
I0608 14:19:55.310128  3354 layer_factory.hpp:77] Creating layer fc7_mbox_loc
I0608 14:19:55.310135  3354 net.cpp:100] Creating Layer fc7_mbox_loc
I0608 14:19:55.310140  3354 net.cpp:434] fc7_mbox_loc <- fc7_relu7_0_split_1
I0608 14:19:55.310145  3354 net.cpp:408] fc7_mbox_loc -> fc7_mbox_loc
I0608 14:19:55.312644  3354 net.cpp:150] Setting up fc7_mbox_loc
I0608 14:19:55.312655  3354 net.cpp:157] Top shape: 32 24 19 19 (277248)
I0608 14:19:55.312659  3354 net.cpp:165] Memory required for data: 7922109984
I0608 14:19:55.312664  3354 layer_factory.hpp:77] Creating layer fc7_mbox_loc_perm
I0608 14:19:55.312669  3354 net.cpp:100] Creating Layer fc7_mbox_loc_perm
I0608 14:19:55.312672  3354 net.cpp:434] fc7_mbox_loc_perm <- fc7_mbox_loc
I0608 14:19:55.312678  3354 net.cpp:408] fc7_mbox_loc_perm -> fc7_mbox_loc_perm
I0608 14:19:55.312760  3354 net.cpp:150] Setting up fc7_mbox_loc_perm
I0608 14:19:55.312765  3354 net.cpp:157] Top shape: 32 19 19 24 (277248)
I0608 14:19:55.312767  3354 net.cpp:165] Memory required for data: 7923218976
I0608 14:19:55.312784  3354 layer_factory.hpp:77] Creating layer fc7_mbox_loc_flat
I0608 14:19:55.312789  3354 net.cpp:100] Creating Layer fc7_mbox_loc_flat
I0608 14:19:55.312793  3354 net.cpp:434] fc7_mbox_loc_flat <- fc7_mbox_loc_perm
I0608 14:19:55.312796  3354 net.cpp:408] fc7_mbox_loc_flat -> fc7_mbox_loc_flat
I0608 14:19:55.312814  3354 net.cpp:150] Setting up fc7_mbox_loc_flat
I0608 14:19:55.312820  3354 net.cpp:157] Top shape: 32 8664 (277248)
I0608 14:19:55.312824  3354 net.cpp:165] Memory required for data: 7924327968
I0608 14:19:55.312826  3354 layer_factory.hpp:77] Creating layer fc7_mbox_conf
I0608 14:19:55.312840  3354 net.cpp:100] Creating Layer fc7_mbox_conf
I0608 14:19:55.312847  3354 net.cpp:434] fc7_mbox_conf <- fc7_relu7_0_split_2
I0608 14:19:55.312855  3354 net.cpp:408] fc7_mbox_conf -> fc7_mbox_conf
I0608 14:19:55.314862  3354 net.cpp:150] Setting up fc7_mbox_conf
I0608 14:19:55.314875  3354 net.cpp:157] Top shape: 32 12 19 19 (138624)
I0608 14:19:55.314879  3354 net.cpp:165] Memory required for data: 7924882464
I0608 14:19:55.314887  3354 layer_factory.hpp:77] Creating layer fc7_mbox_conf_perm
I0608 14:19:55.314894  3354 net.cpp:100] Creating Layer fc7_mbox_conf_perm
I0608 14:19:55.314900  3354 net.cpp:434] fc7_mbox_conf_perm <- fc7_mbox_conf
I0608 14:19:55.314908  3354 net.cpp:408] fc7_mbox_conf_perm -> fc7_mbox_conf_perm
I0608 14:19:55.314999  3354 net.cpp:150] Setting up fc7_mbox_conf_perm
I0608 14:19:55.315006  3354 net.cpp:157] Top shape: 32 19 19 12 (138624)
I0608 14:19:55.315011  3354 net.cpp:165] Memory required for data: 7925436960
I0608 14:19:55.315014  3354 layer_factory.hpp:77] Creating layer fc7_mbox_conf_flat
I0608 14:19:55.315022  3354 net.cpp:100] Creating Layer fc7_mbox_conf_flat
I0608 14:19:55.315027  3354 net.cpp:434] fc7_mbox_conf_flat <- fc7_mbox_conf_perm
I0608 14:19:55.315035  3354 net.cpp:408] fc7_mbox_conf_flat -> fc7_mbox_conf_flat
I0608 14:19:55.315060  3354 net.cpp:150] Setting up fc7_mbox_conf_flat
I0608 14:19:55.315068  3354 net.cpp:157] Top shape: 32 4332 (138624)
I0608 14:19:55.315070  3354 net.cpp:165] Memory required for data: 7925991456
I0608 14:19:55.315086  3354 layer_factory.hpp:77] Creating layer fc7_mbox_priorbox
I0608 14:19:55.315096  3354 net.cpp:100] Creating Layer fc7_mbox_priorbox
I0608 14:19:55.315100  3354 net.cpp:434] fc7_mbox_priorbox <- fc7_relu7_0_split_3
I0608 14:19:55.315105  3354 net.cpp:434] fc7_mbox_priorbox <- data_data_0_split_2
I0608 14:19:55.315114  3354 net.cpp:408] fc7_mbox_priorbox -> fc7_mbox_priorbox
I0608 14:19:55.315140  3354 net.cpp:150] Setting up fc7_mbox_priorbox
I0608 14:19:55.315146  3354 net.cpp:157] Top shape: 1 2 8664 (17328)
I0608 14:19:55.315150  3354 net.cpp:165] Memory required for data: 7926060768
I0608 14:19:55.315155  3354 layer_factory.hpp:77] Creating layer conv6_2_mbox_loc
I0608 14:19:55.315165  3354 net.cpp:100] Creating Layer conv6_2_mbox_loc
I0608 14:19:55.315171  3354 net.cpp:434] conv6_2_mbox_loc <- conv6_2_conv6_2_relu_0_split_1
I0608 14:19:55.315177  3354 net.cpp:408] conv6_2_mbox_loc -> conv6_2_mbox_loc
I0608 14:19:55.317071  3354 net.cpp:150] Setting up conv6_2_mbox_loc
I0608 14:19:55.317082  3354 net.cpp:157] Top shape: 32 24 10 10 (76800)
I0608 14:19:55.317086  3354 net.cpp:165] Memory required for data: 7926367968
I0608 14:19:55.317093  3354 layer_factory.hpp:77] Creating layer conv6_2_mbox_loc_perm
I0608 14:19:55.317101  3354 net.cpp:100] Creating Layer conv6_2_mbox_loc_perm
I0608 14:19:55.317106  3354 net.cpp:434] conv6_2_mbox_loc_perm <- conv6_2_mbox_loc
I0608 14:19:55.317114  3354 net.cpp:408] conv6_2_mbox_loc_perm -> conv6_2_mbox_loc_perm
I0608 14:19:55.317201  3354 net.cpp:150] Setting up conv6_2_mbox_loc_perm
I0608 14:19:55.317207  3354 net.cpp:157] Top shape: 32 10 10 24 (76800)
I0608 14:19:55.317211  3354 net.cpp:165] Memory required for data: 7926675168
I0608 14:19:55.317216  3354 layer_factory.hpp:77] Creating layer conv6_2_mbox_loc_flat
I0608 14:19:55.317224  3354 net.cpp:100] Creating Layer conv6_2_mbox_loc_flat
I0608 14:19:55.317227  3354 net.cpp:434] conv6_2_mbox_loc_flat <- conv6_2_mbox_loc_perm
I0608 14:19:55.317235  3354 net.cpp:408] conv6_2_mbox_loc_flat -> conv6_2_mbox_loc_flat
I0608 14:19:55.317257  3354 net.cpp:150] Setting up conv6_2_mbox_loc_flat
I0608 14:19:55.317263  3354 net.cpp:157] Top shape: 32 2400 (76800)
I0608 14:19:55.317266  3354 net.cpp:165] Memory required for data: 7926982368
I0608 14:19:55.317270  3354 layer_factory.hpp:77] Creating layer conv6_2_mbox_conf
I0608 14:19:55.317281  3354 net.cpp:100] Creating Layer conv6_2_mbox_conf
I0608 14:19:55.317286  3354 net.cpp:434] conv6_2_mbox_conf <- conv6_2_conv6_2_relu_0_split_2
I0608 14:19:55.317292  3354 net.cpp:408] conv6_2_mbox_conf -> conv6_2_mbox_conf
I0608 14:19:55.318970  3354 net.cpp:150] Setting up conv6_2_mbox_conf
I0608 14:19:55.318981  3354 net.cpp:157] Top shape: 32 12 10 10 (38400)
I0608 14:19:55.318985  3354 net.cpp:165] Memory required for data: 7927135968
I0608 14:19:55.318992  3354 layer_factory.hpp:77] Creating layer conv6_2_mbox_conf_perm
I0608 14:19:55.319000  3354 net.cpp:100] Creating Layer conv6_2_mbox_conf_perm
I0608 14:19:55.319005  3354 net.cpp:434] conv6_2_mbox_conf_perm <- conv6_2_mbox_conf
I0608 14:19:55.319013  3354 net.cpp:408] conv6_2_mbox_conf_perm -> conv6_2_mbox_conf_perm
I0608 14:19:55.319100  3354 net.cpp:150] Setting up conv6_2_mbox_conf_perm
I0608 14:19:55.319106  3354 net.cpp:157] Top shape: 32 10 10 12 (38400)
I0608 14:19:55.319111  3354 net.cpp:165] Memory required for data: 7927289568
I0608 14:19:55.319115  3354 layer_factory.hpp:77] Creating layer conv6_2_mbox_conf_flat
I0608 14:19:55.319123  3354 net.cpp:100] Creating Layer conv6_2_mbox_conf_flat
I0608 14:19:55.319128  3354 net.cpp:434] conv6_2_mbox_conf_flat <- conv6_2_mbox_conf_perm
I0608 14:19:55.319135  3354 net.cpp:408] conv6_2_mbox_conf_flat -> conv6_2_mbox_conf_flat
I0608 14:19:55.319156  3354 net.cpp:150] Setting up conv6_2_mbox_conf_flat
I0608 14:19:55.319162  3354 net.cpp:157] Top shape: 32 1200 (38400)
I0608 14:19:55.319165  3354 net.cpp:165] Memory required for data: 7927443168
I0608 14:19:55.319170  3354 layer_factory.hpp:77] Creating layer conv6_2_mbox_priorbox
I0608 14:19:55.319186  3354 net.cpp:100] Creating Layer conv6_2_mbox_priorbox
I0608 14:19:55.319191  3354 net.cpp:434] conv6_2_mbox_priorbox <- conv6_2_conv6_2_relu_0_split_3
I0608 14:19:55.319197  3354 net.cpp:434] conv6_2_mbox_priorbox <- data_data_0_split_3
I0608 14:19:55.319206  3354 net.cpp:408] conv6_2_mbox_priorbox -> conv6_2_mbox_priorbox
I0608 14:19:55.319231  3354 net.cpp:150] Setting up conv6_2_mbox_priorbox
I0608 14:19:55.319236  3354 net.cpp:157] Top shape: 1 2 2400 (4800)
I0608 14:19:55.319239  3354 net.cpp:165] Memory required for data: 7927462368
I0608 14:19:55.319244  3354 layer_factory.hpp:77] Creating layer conv7_2_mbox_loc
I0608 14:19:55.319257  3354 net.cpp:100] Creating Layer conv7_2_mbox_loc
I0608 14:19:55.319260  3354 net.cpp:434] conv7_2_mbox_loc <- conv7_2_conv7_2_relu_0_split_1
I0608 14:19:55.319267  3354 net.cpp:408] conv7_2_mbox_loc -> conv7_2_mbox_loc
I0608 14:19:55.320574  3354 net.cpp:150] Setting up conv7_2_mbox_loc
I0608 14:19:55.320585  3354 net.cpp:157] Top shape: 32 24 5 5 (19200)
I0608 14:19:55.320588  3354 net.cpp:165] Memory required for data: 7927539168
I0608 14:19:55.320595  3354 layer_factory.hpp:77] Creating layer conv7_2_mbox_loc_perm
I0608 14:19:55.320603  3354 net.cpp:100] Creating Layer conv7_2_mbox_loc_perm
I0608 14:19:55.320608  3354 net.cpp:434] conv7_2_mbox_loc_perm <- conv7_2_mbox_loc
I0608 14:19:55.320614  3354 net.cpp:408] conv7_2_mbox_loc_perm -> conv7_2_mbox_loc_perm
I0608 14:19:55.320700  3354 net.cpp:150] Setting up conv7_2_mbox_loc_perm
I0608 14:19:55.320708  3354 net.cpp:157] Top shape: 32 5 5 24 (19200)
I0608 14:19:55.320711  3354 net.cpp:165] Memory required for data: 7927615968
I0608 14:19:55.320714  3354 layer_factory.hpp:77] Creating layer conv7_2_mbox_loc_flat
I0608 14:19:55.320719  3354 net.cpp:100] Creating Layer conv7_2_mbox_loc_flat
I0608 14:19:55.320725  3354 net.cpp:434] conv7_2_mbox_loc_flat <- conv7_2_mbox_loc_perm
I0608 14:19:55.320732  3354 net.cpp:408] conv7_2_mbox_loc_flat -> conv7_2_mbox_loc_flat
I0608 14:19:55.320755  3354 net.cpp:150] Setting up conv7_2_mbox_loc_flat
I0608 14:19:55.320760  3354 net.cpp:157] Top shape: 32 600 (19200)
I0608 14:19:55.320765  3354 net.cpp:165] Memory required for data: 7927692768
I0608 14:19:55.320770  3354 layer_factory.hpp:77] Creating layer conv7_2_mbox_conf
I0608 14:19:55.320778  3354 net.cpp:100] Creating Layer conv7_2_mbox_conf
I0608 14:19:55.320782  3354 net.cpp:434] conv7_2_mbox_conf <- conv7_2_conv7_2_relu_0_split_2
I0608 14:19:55.320791  3354 net.cpp:408] conv7_2_mbox_conf -> conv7_2_mbox_conf
I0608 14:19:55.322360  3354 net.cpp:150] Setting up conv7_2_mbox_conf
I0608 14:19:55.322371  3354 net.cpp:157] Top shape: 32 12 5 5 (9600)
I0608 14:19:55.322374  3354 net.cpp:165] Memory required for data: 7927731168
I0608 14:19:55.322382  3354 layer_factory.hpp:77] Creating layer conv7_2_mbox_conf_perm
I0608 14:19:55.322391  3354 net.cpp:100] Creating Layer conv7_2_mbox_conf_perm
I0608 14:19:55.322396  3354 net.cpp:434] conv7_2_mbox_conf_perm <- conv7_2_mbox_conf
I0608 14:19:55.322403  3354 net.cpp:408] conv7_2_mbox_conf_perm -> conv7_2_mbox_conf_perm
I0608 14:19:55.322492  3354 net.cpp:150] Setting up conv7_2_mbox_conf_perm
I0608 14:19:55.322499  3354 net.cpp:157] Top shape: 32 5 5 12 (9600)
I0608 14:19:55.322504  3354 net.cpp:165] Memory required for data: 7927769568
I0608 14:19:55.322506  3354 layer_factory.hpp:77] Creating layer conv7_2_mbox_conf_flat
I0608 14:19:55.322512  3354 net.cpp:100] Creating Layer conv7_2_mbox_conf_flat
I0608 14:19:55.322517  3354 net.cpp:434] conv7_2_mbox_conf_flat <- conv7_2_mbox_conf_perm
I0608 14:19:55.322525  3354 net.cpp:408] conv7_2_mbox_conf_flat -> conv7_2_mbox_conf_flat
I0608 14:19:55.322548  3354 net.cpp:150] Setting up conv7_2_mbox_conf_flat
I0608 14:19:55.322554  3354 net.cpp:157] Top shape: 32 300 (9600)
I0608 14:19:55.322557  3354 net.cpp:165] Memory required for data: 7927807968
I0608 14:19:55.322561  3354 layer_factory.hpp:77] Creating layer conv7_2_mbox_priorbox
I0608 14:19:55.322567  3354 net.cpp:100] Creating Layer conv7_2_mbox_priorbox
I0608 14:19:55.322572  3354 net.cpp:434] conv7_2_mbox_priorbox <- conv7_2_conv7_2_relu_0_split_3
I0608 14:19:55.322587  3354 net.cpp:434] conv7_2_mbox_priorbox <- data_data_0_split_4
I0608 14:19:55.322597  3354 net.cpp:408] conv7_2_mbox_priorbox -> conv7_2_mbox_priorbox
I0608 14:19:55.322621  3354 net.cpp:150] Setting up conv7_2_mbox_priorbox
I0608 14:19:55.322628  3354 net.cpp:157] Top shape: 1 2 600 (1200)
I0608 14:19:55.322631  3354 net.cpp:165] Memory required for data: 7927812768
I0608 14:19:55.322634  3354 layer_factory.hpp:77] Creating layer conv8_2_mbox_loc
I0608 14:19:55.322644  3354 net.cpp:100] Creating Layer conv8_2_mbox_loc
I0608 14:19:55.322649  3354 net.cpp:434] conv8_2_mbox_loc <- conv8_2_conv8_2_relu_0_split_1
I0608 14:19:55.322657  3354 net.cpp:408] conv8_2_mbox_loc -> conv8_2_mbox_loc
I0608 14:19:55.324399  3354 net.cpp:150] Setting up conv8_2_mbox_loc
I0608 14:19:55.324412  3354 net.cpp:157] Top shape: 32 16 3 3 (4608)
I0608 14:19:55.324415  3354 net.cpp:165] Memory required for data: 7927831200
I0608 14:19:55.324434  3354 layer_factory.hpp:77] Creating layer conv8_2_mbox_loc_perm
I0608 14:19:55.324445  3354 net.cpp:100] Creating Layer conv8_2_mbox_loc_perm
I0608 14:19:55.324450  3354 net.cpp:434] conv8_2_mbox_loc_perm <- conv8_2_mbox_loc
I0608 14:19:55.324458  3354 net.cpp:408] conv8_2_mbox_loc_perm -> conv8_2_mbox_loc_perm
I0608 14:19:55.324550  3354 net.cpp:150] Setting up conv8_2_mbox_loc_perm
I0608 14:19:55.324558  3354 net.cpp:157] Top shape: 32 3 3 16 (4608)
I0608 14:19:55.324561  3354 net.cpp:165] Memory required for data: 7927849632
I0608 14:19:55.324564  3354 layer_factory.hpp:77] Creating layer conv8_2_mbox_loc_flat
I0608 14:19:55.324570  3354 net.cpp:100] Creating Layer conv8_2_mbox_loc_flat
I0608 14:19:55.324575  3354 net.cpp:434] conv8_2_mbox_loc_flat <- conv8_2_mbox_loc_perm
I0608 14:19:55.324582  3354 net.cpp:408] conv8_2_mbox_loc_flat -> conv8_2_mbox_loc_flat
I0608 14:19:55.324605  3354 net.cpp:150] Setting up conv8_2_mbox_loc_flat
I0608 14:19:55.324611  3354 net.cpp:157] Top shape: 32 144 (4608)
I0608 14:19:55.324615  3354 net.cpp:165] Memory required for data: 7927868064
I0608 14:19:55.324618  3354 layer_factory.hpp:77] Creating layer conv8_2_mbox_conf
I0608 14:19:55.324630  3354 net.cpp:100] Creating Layer conv8_2_mbox_conf
I0608 14:19:55.324635  3354 net.cpp:434] conv8_2_mbox_conf <- conv8_2_conv8_2_relu_0_split_2
I0608 14:19:55.324643  3354 net.cpp:408] conv8_2_mbox_conf -> conv8_2_mbox_conf
I0608 14:19:55.326181  3354 net.cpp:150] Setting up conv8_2_mbox_conf
I0608 14:19:55.326192  3354 net.cpp:157] Top shape: 32 8 3 3 (2304)
I0608 14:19:55.326195  3354 net.cpp:165] Memory required for data: 7927877280
I0608 14:19:55.326203  3354 layer_factory.hpp:77] Creating layer conv8_2_mbox_conf_perm
I0608 14:19:55.326212  3354 net.cpp:100] Creating Layer conv8_2_mbox_conf_perm
I0608 14:19:55.326217  3354 net.cpp:434] conv8_2_mbox_conf_perm <- conv8_2_mbox_conf
I0608 14:19:55.326225  3354 net.cpp:408] conv8_2_mbox_conf_perm -> conv8_2_mbox_conf_perm
I0608 14:19:55.326313  3354 net.cpp:150] Setting up conv8_2_mbox_conf_perm
I0608 14:19:55.326318  3354 net.cpp:157] Top shape: 32 3 3 8 (2304)
I0608 14:19:55.326321  3354 net.cpp:165] Memory required for data: 7927886496
I0608 14:19:55.326325  3354 layer_factory.hpp:77] Creating layer conv8_2_mbox_conf_flat
I0608 14:19:55.326333  3354 net.cpp:100] Creating Layer conv8_2_mbox_conf_flat
I0608 14:19:55.326339  3354 net.cpp:434] conv8_2_mbox_conf_flat <- conv8_2_mbox_conf_perm
I0608 14:19:55.326344  3354 net.cpp:408] conv8_2_mbox_conf_flat -> conv8_2_mbox_conf_flat
I0608 14:19:55.326366  3354 net.cpp:150] Setting up conv8_2_mbox_conf_flat
I0608 14:19:55.326372  3354 net.cpp:157] Top shape: 32 72 (2304)
I0608 14:19:55.326375  3354 net.cpp:165] Memory required for data: 7927895712
I0608 14:19:55.326380  3354 layer_factory.hpp:77] Creating layer conv8_2_mbox_priorbox
I0608 14:19:55.326387  3354 net.cpp:100] Creating Layer conv8_2_mbox_priorbox
I0608 14:19:55.326393  3354 net.cpp:434] conv8_2_mbox_priorbox <- conv8_2_conv8_2_relu_0_split_3
I0608 14:19:55.326398  3354 net.cpp:434] conv8_2_mbox_priorbox <- data_data_0_split_5
I0608 14:19:55.326413  3354 net.cpp:408] conv8_2_mbox_priorbox -> conv8_2_mbox_priorbox
I0608 14:19:55.326439  3354 net.cpp:150] Setting up conv8_2_mbox_priorbox
I0608 14:19:55.326445  3354 net.cpp:157] Top shape: 1 2 144 (288)
I0608 14:19:55.326450  3354 net.cpp:165] Memory required for data: 7927896864
I0608 14:19:55.326454  3354 layer_factory.hpp:77] Creating layer conv9_2_mbox_loc
I0608 14:19:55.326464  3354 net.cpp:100] Creating Layer conv9_2_mbox_loc
I0608 14:19:55.326468  3354 net.cpp:434] conv9_2_mbox_loc <- conv9_2_conv9_2_relu_0_split_0
I0608 14:19:55.326478  3354 net.cpp:408] conv9_2_mbox_loc -> conv9_2_mbox_loc
I0608 14:19:55.328096  3354 net.cpp:150] Setting up conv9_2_mbox_loc
I0608 14:19:55.328105  3354 net.cpp:157] Top shape: 32 16 1 1 (512)
I0608 14:19:55.328109  3354 net.cpp:165] Memory required for data: 7927898912
I0608 14:19:55.328117  3354 layer_factory.hpp:77] Creating layer conv9_2_mbox_loc_perm
I0608 14:19:55.328126  3354 net.cpp:100] Creating Layer conv9_2_mbox_loc_perm
I0608 14:19:55.328130  3354 net.cpp:434] conv9_2_mbox_loc_perm <- conv9_2_mbox_loc
I0608 14:19:55.328140  3354 net.cpp:408] conv9_2_mbox_loc_perm -> conv9_2_mbox_loc_perm
I0608 14:19:55.328229  3354 net.cpp:150] Setting up conv9_2_mbox_loc_perm
I0608 14:19:55.328235  3354 net.cpp:157] Top shape: 32 1 1 16 (512)
I0608 14:19:55.328239  3354 net.cpp:165] Memory required for data: 7927900960
I0608 14:19:55.328243  3354 layer_factory.hpp:77] Creating layer conv9_2_mbox_loc_flat
I0608 14:19:55.328249  3354 net.cpp:100] Creating Layer conv9_2_mbox_loc_flat
I0608 14:19:55.328254  3354 net.cpp:434] conv9_2_mbox_loc_flat <- conv9_2_mbox_loc_perm
I0608 14:19:55.328260  3354 net.cpp:408] conv9_2_mbox_loc_flat -> conv9_2_mbox_loc_flat
I0608 14:19:55.328284  3354 net.cpp:150] Setting up conv9_2_mbox_loc_flat
I0608 14:19:55.328289  3354 net.cpp:157] Top shape: 32 16 (512)
I0608 14:19:55.328294  3354 net.cpp:165] Memory required for data: 7927903008
I0608 14:19:55.328296  3354 layer_factory.hpp:77] Creating layer conv9_2_mbox_conf
I0608 14:19:55.328306  3354 net.cpp:100] Creating Layer conv9_2_mbox_conf
I0608 14:19:55.328310  3354 net.cpp:434] conv9_2_mbox_conf <- conv9_2_conv9_2_relu_0_split_1
I0608 14:19:55.328320  3354 net.cpp:408] conv9_2_mbox_conf -> conv9_2_mbox_conf
I0608 14:19:55.330282  3354 net.cpp:150] Setting up conv9_2_mbox_conf
I0608 14:19:55.330293  3354 net.cpp:157] Top shape: 32 8 1 1 (256)
I0608 14:19:55.330298  3354 net.cpp:165] Memory required for data: 7927904032
I0608 14:19:55.330305  3354 layer_factory.hpp:77] Creating layer conv9_2_mbox_conf_perm
I0608 14:19:55.330313  3354 net.cpp:100] Creating Layer conv9_2_mbox_conf_perm
I0608 14:19:55.330318  3354 net.cpp:434] conv9_2_mbox_conf_perm <- conv9_2_mbox_conf
I0608 14:19:55.330327  3354 net.cpp:408] conv9_2_mbox_conf_perm -> conv9_2_mbox_conf_perm
I0608 14:19:55.330415  3354 net.cpp:150] Setting up conv9_2_mbox_conf_perm
I0608 14:19:55.330422  3354 net.cpp:157] Top shape: 32 1 1 8 (256)
I0608 14:19:55.330425  3354 net.cpp:165] Memory required for data: 7927905056
I0608 14:19:55.330430  3354 layer_factory.hpp:77] Creating layer conv9_2_mbox_conf_flat
I0608 14:19:55.330435  3354 net.cpp:100] Creating Layer conv9_2_mbox_conf_flat
I0608 14:19:55.330440  3354 net.cpp:434] conv9_2_mbox_conf_flat <- conv9_2_mbox_conf_perm
I0608 14:19:55.330447  3354 net.cpp:408] conv9_2_mbox_conf_flat -> conv9_2_mbox_conf_flat
I0608 14:19:55.330471  3354 net.cpp:150] Setting up conv9_2_mbox_conf_flat
I0608 14:19:55.330476  3354 net.cpp:157] Top shape: 32 8 (256)
I0608 14:19:55.330479  3354 net.cpp:165] Memory required for data: 7927906080
I0608 14:19:55.330483  3354 layer_factory.hpp:77] Creating layer conv9_2_mbox_priorbox
I0608 14:19:55.330492  3354 net.cpp:100] Creating Layer conv9_2_mbox_priorbox
I0608 14:19:55.330497  3354 net.cpp:434] conv9_2_mbox_priorbox <- conv9_2_conv9_2_relu_0_split_2
I0608 14:19:55.330502  3354 net.cpp:434] conv9_2_mbox_priorbox <- data_data_0_split_6
I0608 14:19:55.330509  3354 net.cpp:408] conv9_2_mbox_priorbox -> conv9_2_mbox_priorbox
I0608 14:19:55.330543  3354 net.cpp:150] Setting up conv9_2_mbox_priorbox
I0608 14:19:55.330549  3354 net.cpp:157] Top shape: 1 2 16 (32)
I0608 14:19:55.330551  3354 net.cpp:165] Memory required for data: 7927906208
I0608 14:19:55.330555  3354 layer_factory.hpp:77] Creating layer mbox_loc
I0608 14:19:55.330564  3354 net.cpp:100] Creating Layer mbox_loc
I0608 14:19:55.330569  3354 net.cpp:434] mbox_loc <- conv4_3_norm_mbox_loc_flat
I0608 14:19:55.330575  3354 net.cpp:434] mbox_loc <- fc7_mbox_loc_flat
I0608 14:19:55.330581  3354 net.cpp:434] mbox_loc <- conv6_2_mbox_loc_flat
I0608 14:19:55.330587  3354 net.cpp:434] mbox_loc <- conv7_2_mbox_loc_flat
I0608 14:19:55.330592  3354 net.cpp:434] mbox_loc <- conv8_2_mbox_loc_flat
I0608 14:19:55.330598  3354 net.cpp:434] mbox_loc <- conv9_2_mbox_loc_flat
I0608 14:19:55.330606  3354 net.cpp:408] mbox_loc -> mbox_loc
I0608 14:19:55.330631  3354 net.cpp:150] Setting up mbox_loc
I0608 14:19:55.330637  3354 net.cpp:157] Top shape: 32 34928 (1117696)
I0608 14:19:55.330641  3354 net.cpp:165] Memory required for data: 7932376992
I0608 14:19:55.330644  3354 layer_factory.hpp:77] Creating layer mbox_conf
I0608 14:19:55.330652  3354 net.cpp:100] Creating Layer mbox_conf
I0608 14:19:55.330657  3354 net.cpp:434] mbox_conf <- conv4_3_norm_mbox_conf_flat
I0608 14:19:55.330662  3354 net.cpp:434] mbox_conf <- fc7_mbox_conf_flat
I0608 14:19:55.330667  3354 net.cpp:434] mbox_conf <- conv6_2_mbox_conf_flat
I0608 14:19:55.330673  3354 net.cpp:434] mbox_conf <- conv7_2_mbox_conf_flat
I0608 14:19:55.330678  3354 net.cpp:434] mbox_conf <- conv8_2_mbox_conf_flat
I0608 14:19:55.330684  3354 net.cpp:434] mbox_conf <- conv9_2_mbox_conf_flat
I0608 14:19:55.330690  3354 net.cpp:408] mbox_conf -> mbox_conf
I0608 14:19:55.330713  3354 net.cpp:150] Setting up mbox_conf
I0608 14:19:55.330719  3354 net.cpp:157] Top shape: 32 17464 (558848)
I0608 14:19:55.330723  3354 net.cpp:165] Memory required for data: 7934612384
I0608 14:19:55.330726  3354 layer_factory.hpp:77] Creating layer mbox_priorbox
I0608 14:19:55.330732  3354 net.cpp:100] Creating Layer mbox_priorbox
I0608 14:19:55.330736  3354 net.cpp:434] mbox_priorbox <- conv4_3_norm_mbox_priorbox
I0608 14:19:55.330742  3354 net.cpp:434] mbox_priorbox <- fc7_mbox_priorbox
I0608 14:19:55.330747  3354 net.cpp:434] mbox_priorbox <- conv6_2_mbox_priorbox
I0608 14:19:55.330754  3354 net.cpp:434] mbox_priorbox <- conv7_2_mbox_priorbox
I0608 14:19:55.330759  3354 net.cpp:434] mbox_priorbox <- conv8_2_mbox_priorbox
I0608 14:19:55.330762  3354 net.cpp:434] mbox_priorbox <- conv9_2_mbox_priorbox
I0608 14:19:55.330770  3354 net.cpp:408] mbox_priorbox -> mbox_priorbox
I0608 14:19:55.330792  3354 net.cpp:150] Setting up mbox_priorbox
I0608 14:19:55.330798  3354 net.cpp:157] Top shape: 1 2 34928 (69856)
I0608 14:19:55.330801  3354 net.cpp:165] Memory required for data: 7934891808
I0608 14:19:55.330806  3354 layer_factory.hpp:77] Creating layer mbox_loss
I0608 14:19:55.330816  3354 net.cpp:100] Creating Layer mbox_loss
I0608 14:19:55.330819  3354 net.cpp:434] mbox_loss <- mbox_loc
I0608 14:19:55.330824  3354 net.cpp:434] mbox_loss <- mbox_conf
I0608 14:19:55.330831  3354 net.cpp:434] mbox_loss <- mbox_priorbox
…
  name: "data"
  type: "AnnotatedData"
  top: "data"
  top: "label"
  include {
    phase: TEST
  }
  transform_param {
    mean_value: 104
    mean_value: 117
    mean_value: 123
    resize_param {
      prob: 1
      resize_mode: WARP
      height: 300
      width: 300
      interp_mode: LINEAR
    }
  }
  data_param {
    source: "examples/sharpen_tbs_v2.0/sharpen_tbs_v2.0_test_lmdb"
    batch_size: 4
    backend: LMDB
  }
  annotated_data_param {
    batch_sampler {
    }
    label_map_file: "data/sharpen_tbs_v2.0/labelmap_voc.prototxt"
  }
}
layer {
  name: "conv1_1"
  type: "Convolution"
  bottom: "data"
  top: "conv1_1"
  param {
    lr_mult: 1
    decay_mult: 1
  }
  param {
    lr_mult: 2
    decay_mult: 0
  }
  convolution_param {
    num_output: 64
    pad: 1
    kernel_size: 3
    weight_filler {
      type: "xavier"
    }
    bias_filler {
      type: "constant"
      value: 0
    }
  }
}
layer {
  name: "relu1_1"
  type: "ReLU"
  bottom: "conv1_1"
  top: "conv1_1"
}
layer {
  name: "conv1_2"
  type: "Convolution"
  bottom: "conv1_1"
  top: "conv1_2"
  param {
    lr_mult: 1
    decay_mult: 1
  }
  param {
    lr_mult: 2
    decay_mult: 0
  }
  convolution_param {
    num_output: 64
    pad: 1
    kernel_size: 3
    weight_filler {
      type: "xavier"
    }
    bias_filler {
      type: "constant"
      value: 0
    }
  }
}
layer {
  name: "relu1_2"
  type: "ReLU"
  bottom: "conv1_2"
  top: "conv1_2"
}
layer {
  name: "pool1"
  type: "Pooling"
  bottom: "conv1_2"
  top: "pool1"
  pooling_param {
    pool: MAX
    kernel_size: 2
    stride: 2
  }
}
layer {
  name: "conv2_1"
  type: "Convolution"
  bottom: "pool1"
  top: "conv2_1"
  param {
    lr_mult: 1
    decay_mult: 1
  }
  param {
    lr_mult: 2
    decay_mult: 0
  }
  convolution_param {
    num_output: 128
    pad: 1
    kernel_size: 3
    weight_filler {
      type: "xavier"
    }
    bias_filler {
      type: "constant"
      value: 0
    }
  }
}
layer {
  name: "relu2_1"
  type: "ReLU"
  bottom: "conv2_1"
  top: "conv2_1"
}
layer {
  name: "conv2_2"
  type: "Convolution"
  bottom: "conv2_1"
  top: "conv2_2"
  param {
    lr_mult: 1
    decay_mult: 1
  }
  param {
    lr_mult: 2
    decay_mult: 0
  }
  convolution_param {
    num_output: 128
    pad: 1
    kernel_size: 3
    weight_filler {
      type: "xavier"
    }
    bias_filler {
      type: "constant"
      value: 0
    }
  }
}
layer {
  name: "relu2_2"
  type: "ReLU"
  bottom: "conv2_2"
  top: "conv2_2"
}
layer {
  name: "pool2"
  type: "Pooling"
  bottom: "conv2_2"
  top: "pool2"
  pooling_param {
    pool: MAX
    kernel_size: 2
    stride: 2
  }
}
layer {
  name: "conv3_1"
  type: "Convolution"
  bottom: "pool2"
  top: "conv3_1"
  param {
    lr_mult: 1
    decay_mult: 1
  }
  param {
    lr_mult: 2
    decay_mult: 0
  }
  convolution_param {
    num_output: 256
    pad: 1
    kernel_size: 3
    weight_filler {
      type: "xavier"
    }
    bias_filler {
      type: "constant"
      value: 0
    }
  }
}
layer {
  name: "relu3_1"
  type: "ReLU"
  bottom: "conv3_1"
  top: "conv3_1"
}
layer {
  name: "conv3_2"
  type: "Convolution"
  bottom: "conv3_1"
  top: "conv3_2"
  param {
    lr_mult: 1
    decay_mult: 1
  }
  param {
    lr_mult: 2
    decay_mult: 0
  }
  convolution_param {
    num_output: 256
    pad: 1
    kernel_size: 3
    weight_filler {
      type: "xavier"
    }
    bias_filler {
      type: "constant"
      value: 0
    }
  }
}
layer {
  name: "relu3_2"
  type: "ReLU"
  bottom: "conv3_2"
  top: "conv3_2"
}
layer {
  name: "conv3_3"
  type: "Convolution"
  bottom: "conv3_2"
  top: "conv3_3"
  param {
    lr_mult: 1
    decay_mult: 1
  }
  param {
    lr_mult: 2
    decay_mult: 0
  }
  convolution_param {
    num_output: 256
    pad: 1
    kernel_size: 3
    weight_filler {
      type: "xavier"
    }
    bias_filler {
      type: "constant"
      value: 0
    }
  }
}
layer {
  name: "relu3_3"
  type: "ReLU"
  bottom: "conv3_3"
  top: "conv3_3"
}
layer {
  name: "pool3"
  type: "Pooling"
  bottom: "conv3_3"
  top: "pool3"
  pooling_param {
    pool: MAX
    kernel_size: 2
    stride: 2
  }
}
layer {
  name: "conv4_1"
  type: "Convolution"
  bottom: "pool3"
  top: "conv4_1"
  param {
    lr_mult: 1
    decay_mult: 1
  }
  param {
    lr_mult: 2
    decay_mult: 0
  }
  convolution_param {
    num_output: 512
    pad: 1
    kernel_size: 3
    weight_filler {
      type: "xavier"
    }
    bias_filler {
      type: "constant"
      value: 0
    }
  }
}
layer {
  name: "relu4_1"
  type: "ReLU"
  bottom: "conv4_1"
  top: "conv4_1"
}
layer {
  name: "conv4_2"
  type: "Convolution"
  bottom: "conv4_1"
  top: "conv4_2"
  param {
    lr_mult: 1
    decay_mult: 1
  }
  param {
    lr_mult: 2
    decay_mult: 0
  }
  convolution_param {
    num_output: 512
    pad: 1
    kernel_size: 3
    weight_filler {
      type: "xavier"
    }
    bias_filler {
      type: "constant"
      value: 0
    }
  }
}
layer {
  name: "relu4_2"
  type: "ReLU"
  bottom: "conv4_2"
  top: "conv4_2"
}
layer {
  name: "conv4_3"
  type: "Convolution"
  bottom: "conv4_2"
  top: "conv4_3"
  param {
    lr_mult: 1
    decay_mult: 1
  }
  param {
    lr_mult: 2
    decay_mult: 0
  }
  convolution_param {
    num_output: 512
    pad: 1
    kernel_size: 3
    weight_filler {
      type: "xavier"
    }
    bias_filler {
      type: "constant"
      value: 0
    }
  }
}
layer {
  name: "relu4_3"
  type: "ReLU"
  bottom: "conv4_3"
  top: "conv4_3"
}
layer {
  name: "pool4"
  type: "Pooling"
  bottom: "conv4_3"
  top: "pool4"
  pooling_param {
    pool: MAX
    kernel_size: 2
    stride: 2
  }
}
layer {
  name: "conv5_1"
  type: "Convolution"
  bottom: "pool4"
  top: "conv5_1"
  param {
    lr_mult: 1
    decay_mult: 1
  }
  param {
    lr_mult: 2
    decay_mult: 0
  }
  convolution_param {
    num_output: 512
    pad: 1
    kernel_size: 3
    weight_filler {
      type: "xavier"
    }
    bias_filler {
      type: "constant"
      value: 0
    }
    dilation: 1
  }
}
layer {
  name: "relu5_1"
  type: "ReLU"
  bottom: "conv5_1"
  top: "conv5_1"
}
layer {
  name: "conv5_2"
  type: "Convolution"
  bottom: "conv5_1"
  top: "conv5_2"
  param {
    lr_mult: 1
    decay_mult: 1
  }
  param {
    lr_mult: 2
    decay_mult: 0
  }
  convolution_param {
    num_output: 512
    pad: 1
    kernel_size: 3
    weight_filler {
      type: "xavier"
    }
    bias_filler {
      type: "constant"
      value: 0
    }
    dilation: 1
  }
}
layer {
  name: "relu5_2"
  type: "ReLU"
  bottom: "conv5_2"
  top: "conv5_2"
}
layer {
  name: "conv5_3"
  type: "Convolution"
  bottom: "conv5_2"
  top: "conv5_3"
  param {
    lr_mult: 1
    decay_mult: 1
  }
  param {
    lr_mult: 2
    decay_mult: 0
  }
  convolution_param {
    num_output: 512
    pad: 1
    kernel_size: 3
    weight_filler {
      type: "xavier"
    }
    bias_filler {
      type: "constant"
      value: 0
    }
    dilation: 1
  }
}
layer {
  name: "relu5_3"
  type: "ReLU"
  bottom: "conv5_3"
  top: "conv5_3"
}
layer {
  name: "pool5"
  type: "Pooling"
  bottom: "conv5_3"
  top: "pool5"
  pooling_param {
    pool: MAX
    kernel_size: 3
    stride: 1
    pad: 1
  }
}
layer {
  name: "fc6"
  type: "Convolution"
  bottom: "pool5"
  top: "fc6"
  param {
    lr_mult: 1
    decay_mult: 1
  }
  param {
    lr_mult: 2
    decay_mult: 0
  }
  convolution_param {
    num_output: 1024
    pad: 6
    kernel_size: 3
    weight_filler {
      type: "xavier"
    }
    bias_filler {
      type: "constant"
      value: 0
    }
    dilation: 6
  }
}
layer {
  name: "relu6"
  type: "ReLU"
  bottom: "fc6"
  top: "fc6"
}
layer {
  name: "fc7"
  type: "Convolution"
  bottom: "fc6"
  top: "fc7"
  param {
    lr_mult: 1
    decay_mult: 1
  }
  param {
    lr_mult: 2
    decay_mult: 0
  }
  convolution_param {
    num_output: 1024
    kernel_size: 1
    weight_filler {
      type: "xavier"
    }
    bias_filler {
      type: "constant"
      value: 0
    }
  }
}
layer {
  name: "relu7"
  type: "ReLU"
  bottom: "fc7"
  top: "fc7"
}
layer {
  name: "conv6_1"
  type: "Convolution"
  bottom: "fc7"
  top: "conv6_1"
  param {
    lr_mult: 1
    decay_mult: 1
  }
  param {
    lr_mult: 2
    decay_mult: 0
  }
  convolution_param {
    num_output: 256
    pad: 0
    kernel_size: 1
    stride: 1
    weight_filler {
      type: "xavier"
    }
    bias_filler {
      type: "constant"
      value: 0
    }
  }
}
layer {
  name: "conv6_1_relu"
  type: "ReLU"
  bottom: "conv6_1"
  top: "conv6_1"
}
layer {
  name: "conv6_2"
  type: "Convolution"
  bottom: "conv6_1"
  top: "conv6_2"
  param {
    lr_mult: 1
    decay_mult: 1
  }
  param {
    lr_mult: 2
    decay_mult: 0
  }
  convolution_param {
    num_output: 512
    pad: 1
    kernel_size: 3
    stride: 2
    weight_filler {
      type: "xavier"
    }
    bias_filler {
      type: "constant"
      value: 0
    }
  }
}
layer {
  name: "conv6_2_relu"
  type: "ReLU"
  bottom: "conv6_2"
  top: "conv6_2"
}
layer {
  name: "conv7_1"
  type: "Convolution"
  bottom: "conv6_2"
  top: "conv7_1"
  param {
    lr_mult: 1
    decay_mult: 1
  }
  param {
    lr_mult: 2
    decay_mult: 0
  }
  convolution_param {
    num_output: 128
    pad: 0
    kernel_size: 1
    stride: 1
    weight_filler {
      type: "xavier"
    }
    bias_filler {
      type: "constant"
      value: 0
    }
  }
}
layer {
  name: "conv7_1_relu"
  type: "ReLU"
  bottom: "conv7_1"
  top: "conv7_1"
}
layer {
  name: "conv7_2"
  type: "Convolution"
  bottom: "conv7_1"
  top: "conv7_2"
  param {
    lr_mult: 1
    decay_mult: 1
  }
  param {
    lr_mult: 2
    decay_mult: 0
  }
  convolution_param {
    num_output: 256
    pad: 1
    kernel_size: 3
    stride: 2
    weight_filler {
      type: "xavier"
    }
    bias_filler {
      type: "constant"
      value: 0
    }
  }
}
layer {
  name: "conv7_2_relu"
  type: "ReLU"
  bottom: "conv7_2"
  top: "conv7_2"
}
layer {
  name: "conv8_1"
  type: "Convolution"
  bottom: "conv7_2"
  top: "conv8_1"
  param {
    lr_mult: 1
    decay_mult: 1
  }
  param {
    lr_mult: 2
    decay_mult: 0
  }
  convolution_param {
    num_output: 128
    pad: 0
    kernel_size: 1
    stride: 1
    weight_filler {
      type: "xavier"
    }
    bias_filler {
      type: "constant"
      value: 0
    }
  }
}
layer {
  name: "conv8_1_relu"
  type: "ReLU"
  bottom: "conv8_1"
  top: "conv8_1"
}
layer {
  name: "conv8_2"
  type: "Convolution"
  bottom: "conv8_1"
  top: "conv8_2"
  param {
    lr_mult: 1
    decay_mult: 1
  }
  param {
    lr_mult: 2
    decay_mult: 0
  }
  convolution_param {
    num_output: 256
    pad: 0
    kernel_size: 3
    stride: 1
    weight_filler {
      type: "xavier"
    }
    bias_filler {
      type: "constant"
      value: 0
    }
  }
}
layer {
  name: "conv8_2_relu"
  type: "ReLU"
  bottom: "conv8_2"
  top: "conv8_2"
}
layer {
  name: "conv9_1"
  type: "Convolution"
  bottom: "conv8_2"
  top: "conv9_1"
  param {
    lr_mult: 1
    decay_mult: 1
  }
  param {
    lr_mult: 2
    decay_mult: 0
  }
  convolution_param {
    num_output: 128
    pad: 0
    kernel_size: 1
    stride: 1
    weight_filler {
      type: "xavier"
    }
    bias_filler {
      type: "constant"
      value: 0
    }
  }
}
layer {
  name: "conv9_1_relu"
  type: "ReLU"
  bottom: "conv9_1"
  top: "conv9_1"
}
layer {
  name: "conv9_2"
  type: "Convolution"
  bottom: "conv9_1"
  top: "conv9_2"
  param {
    lr_mult: 1
    decay_mult: 1
  }
  param {
    lr_mult: 2
    decay_mult: 0
  }
  convolution_param {
    num_output: 256
    pad: 0
    kernel_size: 3
    stride: 1
    weight_filler {
      type: "xavier"
    }
    bias_filler {
      type: "constant"
      value: 0
    }
  }
}
layer {
  name: "conv9_2_relu"
  type: "ReLU"
  bottom: "conv9_2"
  top: "conv9_2"
}
layer {
  name: "conv4_3_norm"
  type: "Normalize"
  bottom: "conv4_3"
  top: "conv4_3_norm"
  norm_param {
    across_spatial: false
    scale_filler {
      type: "constant"
      value: 20
    }
    channel_shared: false
  }
}
layer {
  name: "conv4_3_norm_mbox_loc"
  type: "Convolution"
  bottom: "conv4_3_norm"
  top: "conv4_3_norm_mbox_loc"
  param {
    lr_mult: 1
    decay_mult: 1
  }
  param {
    lr_mult: 2
    decay_mult: 0
  }
  convolution_param {
    num_output: 16
    pad: 1
    kernel_size: 3
    stride: 1
    weight_filler {
      type: "xavier"
    }
    bias_filler {
      type: "constant"
      value: 0
    }
  }
}
layer {
  name: "conv4_3_norm_mbox_loc_perm"
  type: "Permute"
  bottom: "conv4_3_norm_mbox_loc"
  top: "conv4_3_norm_mbox_loc_perm"
  permute_param {
    order: 0
    order: 2
    order: 3
    order: 1
  }
}
layer {
  name: "conv4_3_norm_mbox_loc_flat"
  type: "Flatten"
  bottom: "conv4_3_norm_mbox_loc_perm"
  top: "conv4_3_norm_mbox_loc_flat"
  flatten_param {
    axis: 1
  }
}
layer {
  name: "conv4_3_norm_mbox_conf"
  type: "Convolution"
  bottom: "conv4_3_norm"
  top: "conv4_3_norm_mbox_conf"
  param {
    lr_mult: 1
    decay_mult: 1
  }
  param {
    lr_mult: 2
    decay_mult: 0
  }
  convolution_param {
    num_output: 8
    pad: 1
    kernel_size: 3
    stride: 1
    weight_filler {
      type: "xavier"
    }
    bias_filler {
      type: "constant"
      value: 0
    }
  }
}
layer {
  name: "conv4_3_norm_mbox_conf_perm"
  type: "Permute"
  bottom: "conv4_3_norm_mbox_conf"
  top: "conv4_3_norm_mbox_conf_perm"
  permute_param {
    order: 0
    order: 2
    order: 3
    order: 1
  }
}
layer {
  name: "conv4_3_norm_mbox_conf_flat"
  type: "Flatten"
  bottom: "conv4_3_norm_mbox_conf_perm"
  top: "conv4_3_norm_mbox_conf_flat"
  flatten_param {
    axis: 1
  }
}
layer {
  name: "conv4_3_norm_mbox_priorbox"
  type: "PriorBox"
  bottom: "conv4_3_norm"
  bottom: "data"
  top: "conv4_3_norm_mbox_priorbox"
  prior_box_param {
    min_size: 30
    max_size: 60
    aspect_ratio: 2
    flip: true
    clip: false
    variance: 0.1
    variance: 0.1
    variance: 0.2
    variance: 0.2
    step: 8
    offset: 0.5
  }
}
layer {
  name: "fc7_mbox_loc"
  type: "Convolution"
  bottom: "fc7"
  top: "fc7_mbox_loc"
  param {
    lr_mult: 1
    decay_mult: 1
  }
  param {
    lr_mult: 2
    decay_mult: 0
  }
  convolution_param {
    num_output: 24
    pad: 1
    kernel_size: 3
    stride: 1
    weight_filler {
      type: "xavier"
    }
    bias_filler {
      type: "constant"
      value: 0
    }
  }
}
layer {
  name: "fc7_mbox_loc_perm"
  type: "Permute"
  bottom: "fc7_mbox_loc"
  top: "fc7_mbox_loc_perm"
  permute_param {
    order: 0
    order: 2
    order: 3
    order: 1
  }
}
layer {
  name: "fc7_mbox_loc_flat"
  type: "Flatten"
  bottom: "fc7_mbox_loc_perm"
  top: "fc7_mbox_loc_flat"
  flatten_param {
    axis: 1
  }
}
layer {
  name: "fc7_mbox_conf"
  type: "Convolution"
  bottom: "fc7"
  top: "fc7_mbox_conf"
  param {
    lr_mult: 1
    decay_mult: 1
  }
  param {
    lr_mult: 2
    decay_mult: 0
  }
  convolution_param {
    num_output: 12
    pad: 1
    kernel_size: 3
    stride: 1
    weight_filler {
      type: "xavier"
    }
    bias_filler {
      type: "constant"
      value: 0
    }
  }
}
layer {
  name: "fc7_mbox_conf_perm"
  type: "Permute"
  bottom: "fc7_mbox_conf"
  top: "fc7_mbox_conf_perm"
  permute_param {
    order: 0
    order: 2
    order: 3
    order: 1
  }
}
layer {
  name: "fc7_mbox_conf_flat"
  type: "Flatten"
  bottom: "fc7_mbox_conf_perm"
  top: "fc7_mbox_conf_flat"
  flatten_param {
    axis: 1
  }
}
layer {
  name: "fc7_mbox_priorbox"
  type: "PriorBox"
  bottom: "fc7"
  bottom: "data"
  top: "fc7_mbox_priorbox"
  prior_box_param {
    min_size: 60
    max_size: 111
    aspect_ratio: 2
    aspect_ratio: 3
    flip: true
    clip: false
    variance: 0.1
    variance: 0.1
    variance: 0.2
    variance: 0.2
    step: 16
    offset: 0.5
  }
}
layer {
  name: "conv6_2_mbox_loc"
  type: "Convolution"
  bottom: "conv6_2"
  top: "conv6_2_mbox_loc"
  param {
    lr_mult: 1
    decay_mult: 1
  }
  param {
    lr_mult: 2
    decay_mult: 0
  }
  convolution_param {
    num_output: 24
    pad: 1
    kernel_size: 3
    stride: 1
    weight_filler {
      type: "xavier"
    }
    bias_filler {
      type: "constant"
      value: 0
    }
  }
}
layer {
  name: "conv6_2_mbox_loc_perm"
  type: "Permute"
  bottom: "conv6_2_mbox_loc"
  top: "conv6_2_mbox_loc_perm"
  permute_param {
    order: 0
    order: 2
    order: 3
    order: 1
  }
}
layer {
  name: "conv6_2_mbox_loc_flat"
  type: "Flatten"
  bottom: "conv6_2_mbox_loc_perm"
  top: "conv6_2_mbox_loc_flat"
  flatten_param {
    axis: 1
  }
}
layer {
  name: "conv6_2_mbox_conf"
  type: "Convolution"
  bottom: "conv6_2"
  top: "conv6_2_mbox_conf"
  param {
    lr_mult: 1
    decay_mult: 1
  }
  param {
    lr_mult: 2
    decay_mult: 0
  }
  convolution_param {
    num_output: 12
    pad: 1
    kernel_size: 3
    stride: 1
    weight_filler {
      type: "xavier"
    }
    bias_filler {
      type: "constant"
      value: 0
    }
  }
}
layer {
  name: "conv6_2_mbox_conf_perm"
  type: "Permute"
  bottom: "conv6_2_mbox_conf"
  top: "conv6_2_mbox_conf_perm"
  permute_param {
    order: 0
    order: 2
    order: 3
    order: 1
  }
}
layer {
  name: "conv6_2_mbox_conf_flat"
  type: "Flatten"
  bottom: "conv6_2_mbox_conf_perm"
  top: "conv6_2_mbox_conf_flat"
  flatten_param {
    axis: 1
  }
}
layer {
  name: "conv6_2_mbox_priorbox"
  type: "PriorBox"
  bottom: "conv6_2"
  bottom: "data"
  top: "conv6_2_mbox_priorbox"
  prior_box_param {
    min_size: 111
    max_size: 162
    aspect_ratio: 2
    aspect_ratio: 3
    flip: true
    clip: false
    variance: 0.1
    variance: 0.1
    variance: 0.2
    variance: 0.2
    step: 32
    offset: 0.5
  }
}
layer {
  name: "conv7_2_mbox_loc"
  type: "Convolution"
  bottom: "conv7_2"
  top: "conv7_2_mbox_loc"
  param {
    lr_mult: 1
    decay_mult: 1
  }
  param {
    lr_mult: 2
    decay_mult: 0
  }
  convolution_param {
    num_output: 24
    pad: 1
    kernel_size: 3
    stride: 1
    weight_filler {
      type: "xavier"
    }
    bias_filler {
      type: "constant"
      value: 0
    }
  }
}
layer {
  name: "conv7_2_mbox_loc_perm"
  type: "Permute"
  bottom: "conv7_2_mbox_loc"
  top: "conv7_2_mbox_loc_perm"
  permute_param {
    order: 0
    order: 2
    order: 3
    order: 1
  }
}
layer {
  name: "conv7_2_mbox_loc_flat"
  type: "Flatten"
  bottom: "conv7_2_mbox_loc_perm"
  top: "conv7_2_mbox_loc_flat"
  flatten_param {
    axis: 1
  }
}
layer {
  name: "conv7_2_mbox_conf"
  type: "Convolution"
  bottom: "conv7_2"
  top: "conv7_2_mbox_conf"
  param {
    lr_mult: 1
    decay_mult: 1
  }
  param {
    lr_mult: 2
    decay_mult: 0
  }
  convolution_param {
    num_output: 12
    pad: 1
    kernel_size: 3
    stride: 1
    weight_filler {
      type: "xavier"
    }
    bias_filler {
      type: "constant"
      value: 0
    }
  }
}
layer {
  name: "conv7_2_mbox_conf_perm"
  type: "Permute"
  bottom: "conv7_2_mbox_conf"
  top: "conv7_2_mbox_conf_perm"
  permute_param {
    order: 0
    order: 2
    order: 3
    order: 1
  }
}
layer {
  name: "conv7_2_mbox_conf_flat"
  type: "Flatten"
  bottom: "conv7_2_mbox_conf_perm"
  top: "conv7_2_mbox_conf_flat"
  flatten_param {
    axis: 1
  }
}
layer {
  name: "conv7_2_mbox_priorbox"
  type: "PriorBox"
  bottom: "conv7_2"
  bottom: "data"
  top: "conv7_2_mbox_priorbox"
  prior_box_param {
    min_size: 162
    max_size: 213
    aspect_ratio: 2
    aspect_ratio: 3
    flip: true
    clip: false
    variance: 0.1
    variance: 0.1
    variance: 0.2
    variance: 0.2
    step: 64
    offset: 0.5
  }
}
layer {
  name: "conv8_2_mbox_loc"
  type: "Convolution"
  bottom: "conv8_2"
  top: "conv8_2_mbox_loc"
  param {
    lr_mult: 1
    decay_mult: 1
  }
  param {
    lr_mult: 2
    decay_mult: 0
  }
  convolution_param {
    num_output: 16
    pad: 1
    kernel_size: 3
    stride: 1
    weight_filler {
      type: "xavier"
    }
    bias_filler {
      type: "constant"
      value: 0
    }
  }
}
layer {
  name: "conv8_2_mbox_loc_perm"
  type: "Permute"
  bottom: "conv8_2_mbox_loc"
  top: "conv8_2_mbox_loc_perm"
  permute_param {
    order: 0
    order: 2
    order: 3
    order: 1
  }
}
layer {
  name: "conv8_2_mbox_loc_flat"
  type: "Flatten"
  bottom: "conv8_2_mbox_loc_perm"
  top: "conv8_2_mbox_loc_flat"
  flatten_param {
    axis: 1
  }
}
layer {
  name: "conv8_2_mbox_conf"
  type: "Convolution"
  bottom: "conv8_2"
  top: "conv8_2_mbox_conf"
  param {
    lr_mult: 1
    decay_mult: 1
  }
  param {
    lr_mult: 2
    decay_mult: 0
  }
  convolution_param {
    num_output: 8
    pad: 1
    kernel_size: 3
    stride: 1
    weight_filler {
      type: "xavier"
    }
    bias_filler {
      type: "constant"
      value: 0
    }
  }
}
layer {
  name: "conv8_2_mbox_conf_perm"
  type: "Permute"
  bottom: "conv8_2_mbox_conf"
  top: "conv8_2_mbox_conf_perm"
  permute_param {
    order: 0
    order: 2
    order: 3
    order: 1
  }
}
layer {
  name: "conv8_2_mbox_conf_flat"
  type: "Flatten"
  bottom: "conv8_2_mbox_conf_perm"
  top: "conv8_2_mbox_conf_flat"
  flatten_param {
    axis: 1
  }
}
layer {
  name: "conv8_2_mbox_priorbox"
  type: "PriorBox"
  bottom: "conv8_2"
  bottom: "data"
  top: "conv8_2_mbox_priorbox"
  prior_box_param {
    min_size: 213
    max_size: 264
    aspect_ratio: 2
    flip: true
    clip: false
    variance: 0.1
    variance: 0.1
    variance: 0.2
    variance: 0.2
    step: 100
    offset: 0.5
  }
}
layer {
  name: "conv9_2_mbox_loc"
  type: "Convolution"
  bottom: "conv9_2"
  top: "conv9_2_mbox_loc"
  param {
    lr_mult: 1
    decay_mult: 1
  }
  param {
    lr_mult: 2
    decay_mult: 0
  }
  convolution_param {
    num_output: 16
    pad: 1
    kernel_size: 3
    stride: 1
    weight_filler {
      type: "xavier"
    }
    bias_filler {
      type: "constant"
      value: 0
    }
  }
}
layer {
  name: "conv9_2_mbox_loc_perm"
  type: "Permute"
  bottom: "conv9_2_mbox_loc"
  top: "conv9_2_mbox_loc_perm"
  permute_param {
    order: 0
    order: 2
    order: 3
    order: 1
  }
}
layer {
  name: "conv9_2_mbox_loc_flat"
  type: "Flatten"
  bottom: "conv9_2_mbox_loc_perm"
  top: "conv9_2_mbox_loc_flat"
  flatten_param {
    axis: 1
  }
}
layer {
  name: "conv9_2_mbox_conf"
  type: "Convolution"
  bottom: "conv9_2"
  top: "conv9_2_mbox_conf"
  param {
    lr_mult: 1
    decay_mult: 1
  }
  param {
    lr_mult: 2
    decay_mult: 0
  }
  convolution_param {
    num_output: 8
    pad: 1
    kernel_size: 3
    stride: 1
    weight_filler {
      type: "xavier"
    }
    bias_filler {
      type: "constant"
      value: 0
    }
  }
}
layer {
  name: "conv9_2_mbox_conf_perm"
  type: "Permute"
  bottom: "conv9_2_mbox_conf"
  top: "conv9_2_mbox_conf_perm"
  permute_param {
    order: 0
    order: 2
    order: 3
    order: 1
  }
}
layer {
  name: "conv9_2_mbox_conf_flat"
  type: "Flatten"
  bottom: "conv9_2_mbox_conf_perm"
  top: "conv9_2_mbox_conf_flat"
  flatten_param {
    axis: 1
  }
}
layer {
  name: "conv9_2_mbox_priorbox"
  type: "PriorBox"
  bottom: "conv9_2"
  bottom: "data"
  top: "conv9_2_mbox_priorbox"
  prior_box_param {
    min_size: 264
    max_size: 315
    aspect_ratio: 2
    flip: true
    clip: false
    variance: 0.1
    variance: 0.1
    variance: 0.2
    variance: 0.2
    step: 300
    offset: 0.5
  }
}
layer {
  name: "mbox_loc"
  type: "Concat"
  bottom: "conv4_3_norm_mbox_loc_flat"
  bottom: "fc7_mbox_loc_flat"
  bottom: "conv6_2_mbox_loc_flat"
  bottom: "conv7_2_mbox_loc_flat"
  bottom: "conv8_2_mbox_loc_flat"
  bottom: "conv9_2_mbox_loc_flat"
  top: "mbox_loc"
  concat_param {
    axis: 1
  }
}
layer {
  name: "mbox_conf"
  type: "Concat"
  bottom: "conv4_3_norm_mbox_conf_flat"
  bottom: "fc7_mbox_conf_flat"
  bottom: "conv6_2_mbox_conf_flat"
  bottom: "conv7_2_mbox_conf_flat"
  bottom: "conv8_2_mbox_conf_flat"
  bottom: "conv9_2_mbox_conf_flat"
  top: "mbox_conf"
  concat_param {
    axis: 1
  }
}
layer {
  name: "mbox_priorbox"
  type: "Concat"
  bottom: "conv4_3_norm_mbox_priorbox"
  bottom: "fc7_mbox_priorbox"
  bottom: "conv6_2_mbox_priorbox"
  bottom: "conv7_2_mbox_priorbox"
  bottom: "conv8_2_mbox_priorbox"
  bottom: "conv9_2_mbox_priorbox"
  top: "mbox_priorbox"
  concat_param {
    axis: 2
  }
}
layer {
  name: "mbox_conf_reshape"
  type: "Reshape"
  bottom: "mbox_conf"
  top: "mbox_conf_reshape"
  reshape_param {
    shape {
      dim: 0
      dim: -1
      dim: 2
    }
  }
}
layer {
  name: "mbox_conf_softmax"
  type: "Softmax"
  bottom: "mbox_conf_reshape"
  top: "mbox_conf_softmax"
  softmax_param {
    axis: 2
  }
}
layer {
  name: "mbox_conf_flatten"
  type: "Flatten"
  bottom: "mbox_conf_softmax"
  top: "mbox_conf_flatten"
  flatten_param {
    axis: 1
  }
}
layer {
  name: "detection_out"
  type: "DetectionOutput"
  bottom: "mbox_loc"
  bottom: "mbox_conf_flatten"
  bottom: "mbox_priorbox"
  top: "detection_out"
  include {
    phase: TEST
  }
  detection_output_param {
    num_classes: 2
    share_location: true
    background_label_id: 0
    nms_param {
      nms_threshold: 0.45
      top_k: 400
    }
    save_output_param {
      output_directory: "/home/shangzw/data/sharpen_tbs_v2.0/results/tbs/SSD_300x300/Main"
      output_name_prefix: "comp4_det_test_"
      output_format: "VOC"
      label_map_file: "data/sharpen_tbs_v2.0/labelmap_voc.prototxt"
      name_size_file: "data/sharpen_tbs_v2.0/test_name_size"
      num_test_image: 100
    }
    code_type: CENTER_SIZE
    keep_top_k: 200
    confidence_threshold: 0.01
  }
}
layer {
  name: "detection_eval"
  type: "DetectionEvaluate"
  bottom: "detection_out"
  bottom: "label"
  top: "detection_eval"
  include {
    phase: TEST
  }
  detection_evaluate_param {
    num_classes: 2
    background_label_id: 0
    overlap_threshold: 0.5
    evaluate_difficult_gt: false
    name_size_file: "data/sharpen_tbs_v2.0/test_name_size"
  }
}
I0608 14:19:55.333504  3354 layer_factory.hpp:77] Creating layer data
I0608 14:19:55.333561  3354 net.cpp:100] Creating Layer data
I0608 14:19:55.333570  3354 net.cpp:408] data -> data
I0608 14:19:55.333580  3354 net.cpp:408] data -> label
I0608 14:19:55.334002  3382 db_lmdb.cpp:35] Opened lmdb examples/sharpen_tbs_v2.0/sharpen_tbs_v2.0_test_lmdb
I0608 14:19:55.335621  3354 annotated_data_layer.cpp:62] output data size: 4,3,300,300
I0608 14:19:55.345299  3354 net.cpp:150] Setting up data
I0608 14:19:55.345340  3354 net.cpp:157] Top shape: 4 3 300 300 (1080000)
I0608 14:19:55.345358  3354 net.cpp:157] Top shape: 1 1 1 8 (8)
I0608 14:19:55.345362  3354 net.cpp:165] Memory required for data: 4320032
I0608 14:19:55.345382  3354 layer_factory.hpp:77] Creating layer data_data_0_split
I0608 14:19:55.345394  3354 net.cpp:100] Creating Layer data_data_0_split
I0608 14:19:55.345399  3354 net.cpp:434] data_data_0_split <- data
I0608 14:19:55.345423  3354 net.cpp:408] data_data_0_split -> data_data_0_split_0
I0608 14:19:55.345450  3354 net.cpp:408] data_data_0_split -> data_data_0_split_1
I0608 14:19:55.345458  3354 net.cpp:408] data_data_0_split -> data_data_0_split_2
I0608 14:19:55.345479  3354 net.cpp:408] data_data_0_split -> data_data_0_split_3
I0608 14:19:55.345501  3354 net.cpp:408] data_data_0_split -> data_data_0_split_4
I0608 14:19:55.345523  3354 net.cpp:408] data_data_0_split -> data_data_0_split_5
I0608 14:19:55.345530  3354 net.cpp:408] data_data_0_split -> data_data_0_split_6
I0608 14:19:55.345688  3354 net.cpp:150] Setting up data_data_0_split
I0608 14:19:55.345695  3354 net.cpp:157] Top shape: 4 3 300 300 (1080000)
I0608 14:19:55.345700  3354 net.cpp:157] Top shape: 4 3 300 300 (1080000)
I0608 14:19:55.345705  3354 net.cpp:157] Top shape: 4 3 300 300 (1080000)
I0608 14:19:55.345710  3354 net.cpp:157] Top shape: 4 3 300 300 (1080000)
I0608 14:19:55.345715  3354 net.cpp:157] Top shape: 4 3 300 300 (1080000)
I0608 14:19:55.345731  3354 net.cpp:157] Top shape: 4 3 300 300 (1080000)
I0608 14:19:55.345737  3354 net.cpp:157] Top shape: 4 3 300 300 (1080000)
I0608 14:19:55.345742  3354 net.cpp:165] Memory required for data: 34560032
I0608 14:19:55.345746  3354 layer_factory.hpp:77] Creating layer conv1_1
I0608 14:19:55.345758  3354 net.cpp:100] Creating Layer conv1_1
I0608 14:19:55.345762  3354 net.cpp:434] conv1_1 <- data_data_0_split_0
I0608 14:19:55.345769  3354 net.cpp:408] conv1_1 -> conv1_1
I0608 14:19:55.347172  3354 net.cpp:150] Setting up conv1_1
I0608 14:19:55.347183  3354 net.cpp:157] Top shape: 4 64 300 300 (23040000)
I0608 14:19:55.347187  3354 net.cpp:165] Memory required for data: 126720032
I0608 14:19:55.347198  3354 layer_factory.hpp:77] Creating layer relu1_1
I0608 14:19:55.347206  3354 net.cpp:100] Creating Layer relu1_1
I0608 14:19:55.347211  3354 net.cpp:434] relu1_1 <- conv1_1
I0608 14:19:55.347218  3354 net.cpp:395] relu1_1 -> conv1_1 (in-place)
I0608 14:19:55.347343  3354 net.cpp:150] Setting up relu1_1
I0608 14:19:55.347352  3354 net.cpp:157] Top shape: 4 64 300 300 (23040000)
I0608 14:19:55.347355  3354 net.cpp:165] Memory required for data: 218880032
I0608 14:19:55.347359  3354 layer_factory.hpp:77] Creating layer conv1_2
I0608 14:19:55.347368  3354 net.cpp:100] Creating Layer conv1_2
I0608 14:19:55.347373  3354 net.cpp:434] conv1_2 <- conv1_1
I0608 14:19:55.347378  3354 net.cpp:408] conv1_2 -> conv1_2
I0608 14:19:55.350682  3354 net.cpp:150] Setting up conv1_2
I0608 14:19:55.350698  3354 net.cpp:157] Top shape: 4 64 300 300 (23040000)
I0608 14:19:55.350703  3354 net.cpp:165] Memory required for data: 311040032
I0608 14:19:55.350713  3354 layer_factory.hpp:77] Creating layer relu1_2
I0608 14:19:55.350723  3354 net.cpp:100] Creating Layer relu1_2
I0608 14:19:55.350728  3354 net.cpp:434] relu1_2 <- conv1_2
I0608 14:19:55.350735  3354 net.cpp:395] relu1_2 -> conv1_2 (in-place)
I0608 14:19:55.351529  3354 net.cpp:150] Setting up relu1_2
I0608 14:19:55.351539  3354 net.cpp:157] Top shape: 4 64 300 300 (23040000)
I0608 14:19:55.351543  3354 net.cpp:165] Memory required for data: 403200032
I0608 14:19:55.351547  3354 layer_factory.hpp:77] Creating layer pool1
I0608 14:19:55.351554  3354 net.cpp:100] Creating Layer pool1
I0608 14:19:55.351559  3354 net.cpp:434] pool1 <- conv1_2
I0608 14:19:55.351565  3354 net.cpp:408] pool1 -> pool1
I0608 14:19:55.351610  3354 net.cpp:150] Setting up pool1
I0608 14:19:55.351616  3354 net.cpp:157] Top shape: 4 64 150 150 (5760000)
I0608 14:19:55.351620  3354 net.cpp:165] Memory required for data: 426240032
I0608 14:19:55.351624  3354 layer_factory.hpp:77] Creating layer conv2_1
I0608 14:19:55.351634  3354 net.cpp:100] Creating Layer conv2_1
I0608 14:19:55.351639  3354 net.cpp:434] conv2_1 <- pool1
I0608 14:19:55.351644  3354 net.cpp:408] conv2_1 -> conv2_1
I0608 14:19:55.352527  3354 net.cpp:150] Setting up conv2_1
I0608 14:19:55.352536  3354 net.cpp:157] Top shape: 4 128 150 150 (11520000)
I0608 14:19:55.352541  3354 net.cpp:165] Memory required for data: 472320032
I0608 14:19:55.352550  3354 layer_factory.hpp:77] Creating layer relu2_1
I0608 14:19:55.352560  3354 net.cpp:100] Creating Layer relu2_1
I0608 14:19:55.352563  3354 net.cpp:434] relu2_1 <- conv2_1
I0608 14:19:55.352568  3354 net.cpp:395] relu2_1 -> conv2_1 (in-place)
I0608 14:19:55.353137  3354 net.cpp:150] Setting up relu2_1
I0608 14:19:55.353147  3354 net.cpp:157] Top shape: 4 128 150 150 (11520000)
I0608 14:19:55.353152  3354 net.cpp:165] Memory required for data: 518400032
I0608 14:19:55.353154  3354 layer_factory.hpp:77] Creating layer conv2_2
I0608 14:19:55.353163  3354 net.cpp:100] Creating Layer conv2_2
I0608 14:19:55.353168  3354 net.cpp:434] conv2_2 <- conv2_1
I0608 14:19:55.353175  3354 net.cpp:408] conv2_2 -> conv2_2
I0608 14:19:55.355237  3354 net.cpp:150] Setting up conv2_2
I0608 14:19:55.355248  3354 net.cpp:157] Top shape: 4 128 150 150 (11520000)
I0608 14:19:55.355252  3354 net.cpp:165] Memory required for data: 564480032
I0608 14:19:55.355260  3354 layer_factory.hpp:77] Creating layer relu2_2
I0608 14:19:55.355278  3354 net.cpp:100] Creating Layer relu2_2
I0608 14:19:55.355283  3354 net.cpp:434] relu2_2 <- conv2_2
I0608 14:19:55.355289  3354 net.cpp:395] relu2_2 -> conv2_2 (in-place)
I0608 14:19:55.355428  3354 net.cpp:150] Setting up relu2_2
I0608 14:19:55.355437  3354 net.cpp:157] Top shape: 4 128 150 150 (11520000)
I0608 14:19:55.355439  3354 net.cpp:165] Memory required for data: 610560032
I0608 14:19:55.355443  3354 layer_factory.hpp:77] Creating layer pool2
I0608 14:19:55.355451  3354 net.cpp:100] Creating Layer pool2
I0608 14:19:55.355455  3354 net.cpp:434] pool2 <- conv2_2
I0608 14:19:55.355461  3354 net.cpp:408] pool2 -> pool2
I0608 14:19:55.355504  3354 net.cpp:150] Setting up pool2
I0608 14:19:55.355510  3354 net.cpp:157] Top shape: 4 128 75 75 (2880000)
I0608 14:19:55.355515  3354 net.cpp:165] Memory required for data: 622080032
I0608 14:19:55.355517  3354 layer_factory.hpp:77] Creating layer conv3_1
I0608 14:19:55.355526  3354 net.cpp:100] Creating Layer conv3_1
I0608 14:19:55.355531  3354 net.cpp:434] conv3_1 <- pool2
I0608 14:19:55.355538  3354 net.cpp:408] conv3_1 -> conv3_1
I0608 14:19:55.358901  3354 net.cpp:150] Setting up conv3_1
I0608 14:19:55.358914  3354 net.cpp:157] Top shape: 4 256 75 75 (5760000)
I0608 14:19:55.358921  3354 net.cpp:165] Memory required for data: 645120032
I0608 14:19:55.358932  3354 layer_factory.hpp:77] Creating layer relu3_1
I0608 14:19:55.358940  3354 net.cpp:100] Creating Layer relu3_1
I0608 14:19:55.358945  3354 net.cpp:434] relu3_1 <- conv3_1
I0608 14:19:55.358954  3354 net.cpp:395] relu3_1 -> conv3_1 (in-place)
I0608 14:19:55.359110  3354 net.cpp:150] Setting up relu3_1
I0608 14:19:55.359117  3354 net.cpp:157] Top shape: 4 256 75 75 (5760000)
I0608 14:19:55.359122  3354 net.cpp:165] Memory required for data: 668160032
I0608 14:19:55.359140  3354 layer_factory.hpp:77] Creating layer conv3_2
I0608 14:19:55.359153  3354 net.cpp:100] Creating Layer conv3_2
I0608 14:19:55.359156  3354 net.cpp:434] conv3_2 <- conv3_1
I0608 14:19:55.359164  3354 net.cpp:408] conv3_2 -> conv3_2
I0608 14:19:55.364786  3354 net.cpp:150] Setting up conv3_2
I0608 14:19:55.364802  3354 net.cpp:157] Top shape: 4 256 75 75 (5760000)
I0608 14:19:55.364806  3354 net.cpp:165] Memory required for data: 691200032
I0608 14:19:55.364814  3354 layer_factory.hpp:77] Creating layer relu3_2
I0608 14:19:55.364825  3354 net.cpp:100] Creating Layer relu3_2
I0608 14:19:55.364837  3354 net.cpp:434] relu3_2 <- conv3_2
I0608 14:19:55.364845  3354 net.cpp:395] relu3_2 -> conv3_2 (in-place)
I0608 14:19:55.365017  3354 net.cpp:150] Setting up relu3_2
I0608 14:19:55.365025  3354 net.cpp:157] Top shape: 4 256 75 75 (5760000)
I0608 14:19:55.365028  3354 net.cpp:165] Memory required for data: 714240032
I0608 14:19:55.365032  3354 layer_factory.hpp:77] Creating layer conv3_3
I0608 14:19:55.365046  3354 net.cpp:100] Creating Layer conv3_3
I0608 14:19:55.365051  3354 net.cpp:434] conv3_3 <- conv3_2
I0608 14:19:55.365057  3354 net.cpp:408] conv3_3 -> conv3_3
I0608 14:19:55.369714  3354 net.cpp:150] Setting up conv3_3
I0608 14:19:55.369736  3354 net.cpp:157] Top shape: 4 256 75 75 (5760000)
I0608 14:19:55.369740  3354 net.cpp:165] Memory required for data: 737280032
I0608 14:19:55.369750  3354 layer_factory.hpp:77] Creating layer relu3_3
I0608 14:19:55.369758  3354 net.cpp:100] Creating Layer relu3_3
I0608 14:19:55.369763  3354 net.cpp:434] relu3_3 <- conv3_3
I0608 14:19:55.369771  3354 net.cpp:395] relu3_3 -> conv3_3 (in-place)
I0608 14:19:55.369932  3354 net.cpp:150] Setting up relu3_3
I0608 14:19:55.369941  3354 net.cpp:157] Top shape: 4 256 75 75 (5760000)
I0608 14:19:55.369945  3354 net.cpp:165] Memory required for data: 760320032
I0608 14:19:55.369963  3354 layer_factory.hpp:77] Creating layer pool3
I0608 14:19:55.369974  3354 net.cpp:100] Creating Layer pool3
I0608 14:19:55.369985  3354 net.cpp:434] pool3 <- conv3_3
I0608 14:19:55.369992  3354 net.cpp:408] pool3 -> pool3
I0608 14:19:55.370050  3354 net.cpp:150] Setting up pool3
I0608 14:19:55.370057  3354 net.cpp:157] Top shape: 4 256 38 38 (1478656)
I0608 14:19:55.370072  3354 net.cpp:165] Memory required for data: 766234656
I0608 14:19:55.370076  3354 layer_factory.hpp:77] Creating layer conv4_1
I0608 14:19:55.370087  3354 net.cpp:100] Creating Layer conv4_1
I0608 14:19:55.370092  3354 net.cpp:434] conv4_1 <- pool3
I0608 14:19:55.370100  3354 net.cpp:408] conv4_1 -> conv4_1
I0608 14:19:55.378626  3354 net.cpp:150] Setting up conv4_1
I0608 14:19:55.378643  3354 net.cpp:157] Top shape: 4 512 38 38 (2957312)
I0608 14:19:55.378648  3354 net.cpp:165] Memory required for data: 778063904
I0608 14:19:55.378657  3354 layer_factory.hpp:77] Creating layer relu4_1
I0608 14:19:55.378665  3354 net.cpp:100] Creating Layer relu4_1
I0608 14:19:55.378671  3354 net.cpp:434] relu4_1 <- conv4_1
I0608 14:19:55.378680  3354 net.cpp:395] relu4_1 -> conv4_1 (in-place)
I0608 14:19:55.379410  3354 net.cpp:150] Setting up relu4_1
I0608 14:19:55.379420  3354 net.cpp:157] Top shape: 4 512 38 38 (2957312)
I0608 14:19:55.379423  3354 net.cpp:165] Memory required for data: 789893152
I0608 14:19:55.379428  3354 layer_factory.hpp:77] Creating layer conv4_2
I0608 14:19:55.379441  3354 net.cpp:100] Creating Layer conv4_2
I0608 14:19:55.379444  3354 net.cpp:434] conv4_2 <- conv4_1
I0608 14:19:55.379452  3354 net.cpp:408] conv4_2 -> conv4_2
I0608 14:19:55.391630  3354 net.cpp:150] Setting up conv4_2
I0608 14:19:55.391649  3354 net.cpp:157] Top shape: 4 512 38 38 (2957312)
I0608 14:19:55.391652  3354 net.cpp:165] Memory required for data: 801722400
I0608 14:19:55.391664  3354 layer_factory.hpp:77] Creating layer relu4_2
I0608 14:19:55.391690  3354 net.cpp:100] Creating Layer relu4_2
I0608 14:19:55.391695  3354 net.cpp:434] relu4_2 <- conv4_2
I0608 14:19:55.391702  3354 net.cpp:395] relu4_2 -> conv4_2 (in-place)
I0608 14:19:55.392654  3354 net.cpp:150] Setting up relu4_2
I0608 14:19:55.392664  3354 net.cpp:157] Top shape: 4 512 38 38 (2957312)
I0608 14:19:55.392668  3354 net.cpp:165] Memory required for data: 813551648
I0608 14:19:55.392673  3354 layer_factory.hpp:77] Creating layer conv4_3
I0608 14:19:55.392683  3354 net.cpp:100] Creating Layer conv4_3
I0608 14:19:55.392689  3354 net.cpp:434] conv4_3 <- conv4_2
I0608 14:19:55.392698  3354 net.cpp:408] conv4_3 -> conv4_3
I0608 14:19:55.405526  3354 net.cpp:150] Setting up conv4_3
I0608 14:19:55.405544  3354 net.cpp:157] Top shape: 4 512 38 38 (2957312)
I0608 14:19:55.405547  3354 net.cpp:165] Memory required for data: 825380896
I0608 14:19:55.405555  3354 layer_factory.hpp:77] Creating layer relu4_3
I0608 14:19:55.405563  3354 net.cpp:100] Creating Layer relu4_3
I0608 14:19:55.405583  3354 net.cpp:434] relu4_3 <- conv4_3
I0608 14:19:55.405603  3354 net.cpp:395] relu4_3 -> conv4_3 (in-place)
I0608 14:19:55.405776  3354 net.cpp:150] Setting up relu4_3
I0608 14:19:55.405784  3354 net.cpp:157] Top shape: 4 512 38 38 (2957312)
I0608 14:19:55.405802  3354 net.cpp:165] Memory required for data: 837210144
I0608 14:19:55.405807  3354 layer_factory.hpp:77] Creating layer conv4_3_relu4_3_0_split
I0608 14:19:55.405813  3354 net.cpp:100] Creating Layer conv4_3_relu4_3_0_split
I0608 14:19:55.405817  3354 net.cpp:434] conv4_3_relu4_3_0_split <- conv4_3
I0608 14:19:55.405824  3354 net.cpp:408] conv4_3_relu4_3_0_split -> conv4_3_relu4_3_0_split_0
I0608 14:19:55.405833  3354 net.cpp:408] conv4_3_relu4_3_0_split -> conv4_3_relu4_3_0_split_1
I0608 14:19:55.405917  3354 net.cpp:150] Setting up conv4_3_relu4_3_0_split
I0608 14:19:55.405923  3354 net.cpp:157] Top shape: 4 512 38 38 (2957312)
I0608 14:19:55.405928  3354 net.cpp:157] Top shape: 4 512 38 38 (2957312)
I0608 14:19:55.405931  3354 net.cpp:165] Memory required for data: 860868640
I0608 14:19:55.405951  3354 layer_factory.hpp:77] Creating layer pool4
I0608 14:19:55.405961  3354 net.cpp:100] Creating Layer pool4
I0608 14:19:55.405964  3354 net.cpp:434] pool4 <- conv4_3_relu4_3_0_split_0
I0608 14:19:55.405984  3354 net.cpp:408] pool4 -> pool4
I0608 14:19:55.406051  3354 net.cpp:150] Setting up pool4
I0608 14:19:55.406057  3354 net.cpp:157] Top shape: 4 512 19 19 (739328)
I0608 14:19:55.406060  3354 net.cpp:165] Memory required for data: 863825952
I0608 14:19:55.406090  3354 layer_factory.hpp:77] Creating layer conv5_1
I0608 14:19:55.406103  3354 net.cpp:100] Creating Layer conv5_1
I0608 14:19:55.406107  3354 net.cpp:434] conv5_1 <- pool4
I0608 14:19:55.406116  3354 net.cpp:408] conv5_1 -> conv5_1
I0608 14:19:55.419761  3354 net.cpp:150] Setting up conv5_1
I0608 14:19:55.419777  3354 net.cpp:157] Top shape: 4 512 19 19 (739328)
I0608 14:19:55.419780  3354 net.cpp:165] Memory required for data: 866783264
I0608 14:19:55.419788  3354 layer_factory.hpp:77] Creating layer relu5_1
I0608 14:19:55.419811  3354 net.cpp:100] Creating Layer relu5_1
I0608 14:19:55.419817  3354 net.cpp:434] relu5_1 <- conv5_1
I0608 14:19:55.419826  3354 net.cpp:395] relu5_1 -> conv5_1 (in-place)
I0608 14:19:55.419991  3354 net.cpp:150] Setting up relu5_1
I0608 14:19:55.419999  3354 net.cpp:157] Top shape: 4 512 19 19 (739328)
I0608 14:19:55.420003  3354 net.cpp:165] Memory required for data: 869740576
I0608 14:19:55.420022  3354 layer_factory.hpp:77] Creating layer conv5_2
I0608 14:19:55.420033  3354 net.cpp:100] Creating Layer conv5_2
I0608 14:19:55.420037  3354 net.cpp:434] conv5_2 <- conv5_1
I0608 14:19:55.420058  3354 net.cpp:408] conv5_2 -> conv5_2
I0608 14:19:55.433174  3354 net.cpp:150] Setting up conv5_2
I0608 14:19:55.433194  3354 net.cpp:157] Top shape: 4 512 19 19 (739328)
I0608 14:19:55.433198  3354 net.cpp:165] Memory required for data: 872697888
I0608 14:19:55.433207  3354 layer_factory.hpp:77] Creating layer relu5_2
I0608 14:19:55.433233  3354 net.cpp:100] Creating Layer relu5_2
I0608 14:19:55.433238  3354 net.cpp:434] relu5_2 <- conv5_2
I0608 14:19:55.433245  3354 net.cpp:395] relu5_2 -> conv5_2 (in-place)
I0608 14:19:55.433425  3354 net.cpp:150] Setting up relu5_2
I0608 14:19:55.433434  3354 net.cpp:157] Top shape: 4 512 19 19 (739328)
I0608 14:19:55.433437  3354 net.cpp:165] Memory required for data: 875655200
I0608 14:19:55.433441  3354 layer_factory.hpp:77] Creating layer conv5_3
I0608 14:19:55.433466  3354 net.cpp:100] Creating Layer conv5_3
I0608 14:19:55.433470  3354 net.cpp:434] conv5_3 <- conv5_2
I0608 14:19:55.433477  3354 net.cpp:408] conv5_3 -> conv5_3
I0608 14:19:55.446238  3354 net.cpp:150] Setting up conv5_3
I0608 14:19:55.446254  3354 net.cpp:157] Top shape: 4 512 19 19 (739328)
I0608 14:19:55.446259  3354 net.cpp:165] Memory required for data: 878612512
I0608 14:19:55.446266  3354 layer_factory.hpp:77] Creating layer relu5_3
I0608 14:19:55.446297  3354 net.cpp:100] Creating Layer relu5_3
I0608 14:19:55.446318  3354 net.cpp:434] relu5_3 <- conv5_3
I0608 14:19:55.446338  3354 net.cpp:395] relu5_3 -> conv5_3 (in-place)
I0608 14:19:55.446506  3354 net.cpp:150] Setting up relu5_3
I0608 14:19:55.446527  3354 net.cpp:157] Top shape: 4 512 19 19 (739328)
I0608 14:19:55.446530  3354 net.cpp:165] Memory required for data: 881569824
I0608 14:19:55.446534  3354 layer_factory.hpp:77] Creating layer pool5
I0608 14:19:55.446542  3354 net.cpp:100] Creating Layer pool5
I0608 14:19:55.446552  3354 net.cpp:434] pool5 <- conv5_3
I0608 14:19:55.446570  3354 net.cpp:408] pool5 -> pool5
I0608 14:19:55.446630  3354 net.cpp:150] Setting up pool5
I0608 14:19:55.446636  3354 net.cpp:157] Top shape: 4 512 19 19 (739328)
I0608 14:19:55.446640  3354 net.cpp:165] Memory required for data: 884527136
I0608 14:19:55.446643  3354 layer_factory.hpp:77] Creating layer fc6
I0608 14:19:55.446653  3354 net.cpp:100] Creating Layer fc6
I0608 14:19:55.446657  3354 net.cpp:434] fc6 <- pool5
I0608 14:19:55.446666  3354 net.cpp:408] fc6 -> fc6
I0608 14:19:55.471366  3354 net.cpp:150] Setting up fc6
I0608 14:19:55.471385  3354 net.cpp:157] Top shape: 4 1024 19 19 (1478656)
I0608 14:19:55.471388  3354 net.cpp:165] Memory required for data: 890441760
I0608 14:19:55.471396  3354 layer_factory.hpp:77] Creating layer relu6
I0608 14:19:55.471420  3354 net.cpp:100] Creating Layer relu6
I0608 14:19:55.471424  3354 net.cpp:434] relu6 <- fc6
I0608 14:19:55.471432  3354 net.cpp:395] relu6 -> fc6 (in-place)
I0608 14:19:55.472550  3354 net.cpp:150] Setting up relu6
I0608 14:19:55.472575  3354 net.cpp:157] Top shape: 4 1024 19 19 (1478656)
I0608 14:19:55.472589  3354 net.cpp:165] Memory required for data: 896356384
I0608 14:19:55.472607  3354 layer_factory.hpp:77] Creating layer fc7
I0608 14:19:55.472638  3354 net.cpp:100] Creating Layer fc7
I0608 14:19:55.472642  3354 net.cpp:434] fc7 <- fc6
I0608 14:19:55.472663  3354 net.cpp:408] fc7 -> fc7
I0608 14:19:55.479683  3354 net.cpp:150] Setting up fc7
I0608 14:19:55.479702  3354 net.cpp:157] Top shape: 4 1024 19 19 (1478656)
I0608 14:19:55.479706  3354 net.cpp:165] Memory required for data: 902271008
I0608 14:19:55.479714  3354 layer_factory.hpp:77] Creating layer relu7
I0608 14:19:55.479722  3354 net.cpp:100] Creating Layer relu7
I0608 14:19:55.479743  3354 net.cpp:434] relu7 <- fc7
I0608 14:19:55.479763  3354 net.cpp:395] relu7 -> fc7 (in-place)
I0608 14:19:55.479954  3354 net.cpp:150] Setting up relu7
I0608 14:19:55.479962  3354 net.cpp:157] Top shape: 4 1024 19 19 (1478656)
I0608 14:19:55.479967  3354 net.cpp:165] Memory required for data: 908185632
I0608 14:19:55.479970  3354 layer_factory.hpp:77] Creating layer fc7_relu7_0_split
I0608 14:19:55.479976  3354 net.cpp:100] Creating Layer fc7_relu7_0_split
I0608 14:19:55.479988  3354 net.cpp:434] fc7_relu7_0_split <- fc7
I0608 14:19:55.480000  3354 net.cpp:408] fc7_relu7_0_split -> fc7_relu7_0_split_0
I0608 14:19:55.480010  3354 net.cpp:408] fc7_relu7_0_split -> fc7_relu7_0_split_1
I0608 14:19:55.480026  3354 net.cpp:408] fc7_relu7_0_split -> fc7_relu7_0_split_2
I0608 14:19:55.480034  3354 net.cpp:408] fc7_relu7_0_split -> fc7_relu7_0_split_3
I0608 14:19:55.480144  3354 net.cpp:150] Setting up fc7_relu7_0_split
I0608 14:19:55.480151  3354 net.cpp:157] Top shape: 4 1024 19 19 (1478656)
I0608 14:19:55.480156  3354 net.cpp:157] Top shape: 4 1024 19 19 (1478656)
I0608 14:19:55.480160  3354 net.cpp:157] Top shape: 4 1024 19 19 (1478656)
I0608 14:19:55.480166  3354 net.cpp:157] Top shape: 4 1024 19 19 (1478656)
I0608 14:19:55.480185  3354 net.cpp:165] Memory required for data: 931844128
I0608 14:19:55.480188  3354 layer_factory.hpp:77] Creating layer conv6_1
I0608 14:19:55.480199  3354 net.cpp:100] Creating Layer conv6_1
I0608 14:19:55.480204  3354 net.cpp:434] conv6_1 <- fc7_relu7_0_split_0
I0608 14:19:55.480211  3354 net.cpp:408] conv6_1 -> conv6_1
I0608 14:19:55.483657  3354 net.cpp:150] Setting up conv6_1
I0608 14:19:55.483672  3354 net.cpp:157] Top shape: 4 256 19 19 (369664)
I0608 14:19:55.483677  3354 net.cpp:165] Memory required for data: 933322784
I0608 14:19:55.483685  3354 layer_factory.hpp:77] Creating layer conv6_1_relu
I0608 14:19:55.483695  3354 net.cpp:100] Creating Layer conv6_1_relu
I0608 14:19:55.483700  3354 net.cpp:434] conv6_1_relu <- conv6_1
I0608 14:19:55.483708  3354 net.cpp:395] conv6_1_relu -> conv6_1 (in-place)
I0608 14:19:55.483847  3354 net.cpp:150] Setting up conv6_1_relu
I0608 14:19:55.483855  3354 net.cpp:157] Top shape: 4 256 19 19 (369664)
I0608 14:19:55.483871  3354 net.cpp:165] Memory required for data: 934801440
I0608 14:19:55.483875  3354 layer_factory.hpp:77] Creating layer conv6_2
I0608 14:19:55.483902  3354 net.cpp:100] Creating Layer conv6_2
I0608 14:19:55.483906  3354 net.cpp:434] conv6_2 <- conv6_1
I0608 14:19:55.483912  3354 net.cpp:408] conv6_2 -> conv6_2
I0608 14:19:55.491128  3354 net.cpp:150] Setting up conv6_2
I0608 14:19:55.491147  3354 net.cpp:157] Top shape: 4 512 10 10 (204800)
I0608 14:19:55.491149  3354 net.cpp:165] Memory required for data: 935620640
I0608 14:19:55.491165  3354 layer_factory.hpp:77] Creating layer conv6_2_relu
I0608 14:19:55.491190  3354 net.cpp:100] Creating Layer conv6_2_relu
I0608 14:19:55.491196  3354 net.cpp:434] conv6_2_relu <- conv6_2
I0608 14:19:55.491217  3354 net.cpp:395] conv6_2_relu -> conv6_2 (in-place)
I0608 14:19:55.491394  3354 net.cpp:150] Setting up conv6_2_relu
I0608 14:19:55.491416  3354 net.cpp:157] Top shape: 4 512 10 10 (204800)
I0608 14:19:55.491433  3354 net.cpp:165] Memory required for data: 936439840
I0608 14:19:55.491437  3354 layer_factory.hpp:77] Creating layer conv6_2_conv6_2_relu_0_split
I0608 14:19:55.491456  3354 net.cpp:100] Creating Layer conv6_2_conv6_2_relu_0_split
I0608 14:19:55.491484  3354 net.cpp:434] conv6_2_conv6_2_relu_0_split <- conv6_2
I0608 14:19:55.491494  3354 net.cpp:408] conv6_2_conv6_2_relu_0_split -> conv6_2_conv6_2_relu_0_split_0
I0608 14:19:55.491503  3354 net.cpp:408] conv6_2_conv6_2_relu_0_split -> conv6_2_conv6_2_relu_0_split_1
I0608 14:19:55.491513  3354 net.cpp:408] conv6_2_conv6_2_relu_0_split -> conv6_2_conv6_2_relu_0_split_2
I0608 14:19:55.491521  3354 net.cpp:408] conv6_2_conv6_2_relu_0_split -> conv6_2_conv6_2_relu_0_split_3
I0608 14:19:55.491631  3354 net.cpp:150] Setting up conv6_2_conv6_2_relu_0_split
I0608 14:19:55.491638  3354 net.cpp:157] Top shape: 4 512 10 10 (204800)
I0608 14:19:55.491643  3354 net.cpp:157] Top shape: 4 512 10 10 (204800)
I0608 14:19:55.491648  3354 net.cpp:157] Top shape: 4 512 10 10 (204800)
I0608 14:19:55.491652  3354 net.cpp:157] Top shape: 4 512 10 10 (204800)
I0608 14:19:55.491657  3354 net.cpp:165] Memory required for data: 939716640
I0608 14:19:55.491659  3354 layer_factory.hpp:77] Creating layer conv7_1
I0608 14:19:55.491670  3354 net.cpp:100] Creating Layer conv7_1
I0608 14:19:55.491675  3354 net.cpp:434] conv7_1 <- conv6_2_conv6_2_relu_0_split_0
I0608 14:19:55.491698  3354 net.cpp:408] conv7_1 -> conv7_1
I0608 14:19:55.493489  3354 net.cpp:150] Setting up conv7_1
I0608 14:19:55.493499  3354 net.cpp:157] Top shape: 4 128 10 10 (51200)
I0608 14:19:55.493502  3354 net.cpp:165] Memory required for data: 939921440
I0608 14:19:55.493510  3354 layer_factory.hpp:77] Creating layer conv7_1_relu
I0608 14:19:55.493532  3354 net.cpp:100] Creating Layer conv7_1_relu
I0608 14:19:55.493538  3354 net.cpp:434] conv7_1_relu <- conv7_1
I0608 14:19:55.493557  3354 net.cpp:395] conv7_1_relu -> conv7_1 (in-place)
I0608 14:19:55.493788  3354 net.cpp:150] Setting up conv7_1_relu
I0608 14:19:55.493795  3354 net.cpp:157] Top shape: 4 128 10 10 (51200)
I0608 14:19:55.493798  3354 net.cpp:165] Memory required for data: 940126240
I0608 14:19:55.493803  3354 layer_factory.hpp:77] Creating layer conv7_2
I0608 14:19:55.493827  3354 net.cpp:100] Creating Layer conv7_2
I0608 14:19:55.493831  3354 net.cpp:434] conv7_2 <- conv7_1
I0608 14:19:55.493852  3354 net.cpp:408] conv7_2 -> conv7_2
I0608 14:19:55.496971  3354 net.cpp:150] Setting up conv7_2
I0608 14:19:55.496983  3354 net.cpp:157] Top shape: 4 256 5 5 (25600)
I0608 14:19:55.496986  3354 net.cpp:165] Memory required for data: 940228640
I0608 14:19:55.496994  3354 layer_factory.hpp:77] Creating layer conv7_2_relu
I0608 14:19:55.497016  3354 net.cpp:100] Creating Layer conv7_2_relu
I0608 14:19:55.497021  3354 net.cpp:434] conv7_2_relu <- conv7_2
I0608 14:19:55.497027  3354 net.cpp:395] conv7_2_relu -> conv7_2 (in-place)
I0608 14:19:55.497179  3354 net.cpp:150] Setting up conv7_2_relu
I0608 14:19:55.497186  3354 net.cpp:157] Top shape: 4 256 5 5 (25600)
I0608 14:19:55.497189  3354 net.cpp:165] Memory required for data: 940331040
I0608 14:19:55.497193  3354 layer_factory.hpp:77] Creating layer conv7_2_conv7_2_relu_0_split
I0608 14:19:55.497200  3354 net.cpp:100] Creating Layer conv7_2_conv7_2_relu_0_split
I0608 14:19:55.497206  3354 net.cpp:434] conv7_2_conv7_2_relu_0_split <- conv7_2
I0608 14:19:55.497212  3354 net.cpp:408] conv7_2_conv7_2_relu_0_split -> conv7_2_conv7_2_relu_0_split_0
I0608 14:19:55.497221  3354 net.cpp:408] conv7_2_conv7_2_relu_0_split -> conv7_2_conv7_2_relu_0_split_1
I0608 14:19:55.497228  3354 net.cpp:408] conv7_2_conv7_2_relu_0_split -> conv7_2_conv7_2_relu_0_split_2
I0608 14:19:55.497236  3354 net.cpp:408] conv7_2_conv7_2_relu_0_split -> conv7_2_conv7_2_relu_0_split_3
I0608 14:19:55.497310  3354 net.cpp:150] Setting up conv7_2_conv7_2_relu_0_split
I0608 14:19:55.497318  3354 net.cpp:157] Top shape: 4 256 5 5 (25600)
I0608 14:19:55.497323  3354 net.cpp:157] Top shape: 4 256 5 5 (25600)
I0608 14:19:55.497326  3354 net.cpp:157] Top shape: 4 256 5 5 (25600)
I0608 14:19:55.497330  3354 net.cpp:157] Top shape: 4 256 5 5 (25600)
I0608 14:19:55.497334  3354 net.cpp:165] Memory required for data: 940740640
I0608 14:19:55.497337  3354 layer_factory.hpp:77] Creating layer conv8_1
I0608 14:19:55.497359  3354 net.cpp:100] Creating Layer conv8_1
I0608 14:19:55.497364  3354 net.cpp:434] conv8_1 <- conv7_2_conv7_2_relu_0_split_0
I0608 14:19:55.497370  3354 net.cpp:408] conv8_1 -> conv8_1
I0608 14:19:55.498612  3354 net.cpp:150] Setting up conv8_1
I0608 14:19:55.498622  3354 net.cpp:157] Top shape: 4 128 5 5 (12800)
I0608 14:19:55.498626  3354 net.cpp:165] Memory required for data: 940791840
I0608 14:19:55.498634  3354 layer_factory.hpp:77] Creating layer conv8_1_relu
I0608 14:19:55.498641  3354 net.cpp:100] Creating Layer conv8_1_relu
I0608 14:19:55.498646  3354 net.cpp:434] conv8_1_relu <- conv8_1
I0608 14:19:55.498653  3354 net.cpp:395] conv8_1_relu -> conv8_1 (in-place)
I0608 14:19:55.499261  3354 net.cpp:150] Setting up conv8_1_relu
I0608 14:19:55.499271  3354 net.cpp:157] Top shape: 4 128 5 5 (12800)
I0608 14:19:55.499274  3354 net.cpp:165] Memory required for data: 940843040
I0608 14:19:55.499279  3354 layer_factory.hpp:77] Creating layer conv8_2
I0608 14:19:55.499289  3354 net.cpp:100] Creating Layer conv8_2
I0608 14:19:55.499294  3354 net.cpp:434] conv8_2 <- conv8_1
I0608 14:19:55.499316  3354 net.cpp:408] conv8_2 -> conv8_2
I0608 14:19:55.502326  3354 net.cpp:150] Setting up conv8_2
I0608 14:19:55.502338  3354 net.cpp:157] Top shape: 4 256 3 3 (9216)
I0608 14:19:55.502341  3354 net.cpp:165] Memory required for data: 940879904
I0608 14:19:55.502348  3354 layer_factory.hpp:77] Creating layer conv8_2_relu
I0608 14:19:55.502370  3354 net.cpp:100] Creating Layer conv8_2_relu
I0608 14:19:55.502389  3354 net.cpp:434] conv8_2_relu <- conv8_2
I0608 14:19:55.502394  3354 net.cpp:395] conv8_2_relu -> conv8_2 (in-place)
I0608 14:19:55.502605  3354 net.cpp:150] Setting up conv8_2_relu
I0608 14:19:55.502614  3354 net.cpp:157] Top shape: 4 256 3 3 (9216)
I0608 14:19:55.502617  3354 net.cpp:165] Memory required for data: 940916768
I0608 14:19:55.502620  3354 layer_factory.hpp:77] Creating layer conv8_2_conv8_2_relu_0_split
I0608 14:19:55.502646  3354 net.cpp:100] Creating Layer conv8_2_conv8_2_relu_0_split
I0608 14:19:55.502651  3354 net.cpp:434] conv8_2_conv8_2_relu_0_split <- conv8_2
I0608 14:19:55.502671  3354 net.cpp:408] conv8_2_conv8_2_relu_0_split -> conv8_2_conv8_2_relu_0_split_0
I0608 14:19:55.502693  3354 net.cpp:408] conv8_2_conv8_2_relu_0_split -> conv8_2_conv8_2_relu_0_split_1
I0608 14:19:55.502701  3354 net.cpp:408] conv8_2_conv8_2_relu_0_split -> conv8_2_conv8_2_relu_0_split_2
I0608 14:19:55.502708  3354 net.cpp:408] conv8_2_conv8_2_relu_0_split -> conv8_2_conv8_2_relu_0_split_3
I0608 14:19:55.502871  3354 net.cpp:150] Setting up conv8_2_conv8_2_relu_0_split
I0608 14:19:55.502877  3354 net.cpp:157] Top shape: 4 256 3 3 (9216)
I0608 14:19:55.502883  3354 net.cpp:157] Top shape: 4 256 3 3 (9216)
I0608 14:19:55.502903  3354 net.cpp:157] Top shape: 4 256 3 3 (9216)
I0608 14:19:55.502909  3354 net.cpp:157] Top shape: 4 256 3 3 (9216)
I0608 14:19:55.502912  3354 net.cpp:165] Memory required for data: 941064224
I0608 14:19:55.502917  3354 layer_factory.hpp:77] Creating layer conv9_1
I0608 14:19:55.502926  3354 net.cpp:100] Creating Layer conv9_1
I0608 14:19:55.502945  3354 net.cpp:434] conv9_1 <- conv8_2_conv8_2_relu_0_split_0
I0608 14:19:55.502954  3354 net.cpp:408] conv9_1 -> conv9_1
I0608 14:19:55.504220  3354 net.cpp:150] Setting up conv9_1
I0608 14:19:55.504230  3354 net.cpp:157] Top shape: 4 128 3 3 (4608)
I0608 14:19:55.504233  3354 net.cpp:165] Memory required for data: 941082656
I0608 14:19:55.504241  3354 layer_factory.hpp:77] Creating layer conv9_1_relu
I0608 14:19:55.504248  3354 net.cpp:100] Creating Layer conv9_1_relu
I0608 14:19:55.504253  3354 net.cpp:434] conv9_1_relu <- conv9_1
I0608 14:19:55.504261  3354 net.cpp:395] conv9_1_relu -> conv9_1 (in-place)
I0608 14:19:55.504395  3354 net.cpp:150] Setting up conv9_1_relu
I0608 14:19:55.504403  3354 net.cpp:157] Top shape: 4 128 3 3 (4608)
I0608 14:19:55.504406  3354 net.cpp:165] Memory required for data: 941101088
I0608 14:19:55.504410  3354 layer_factory.hpp:77] Creating layer conv9_2
I0608 14:19:55.504431  3354 net.cpp:100] Creating Layer conv9_2
I0608 14:19:55.504436  3354 net.cpp:434] conv9_2 <- conv9_1
I0608 14:19:55.504443  3354 net.cpp:408] conv9_2 -> conv9_2
I0608 14:19:55.507441  3354 net.cpp:150] Setting up conv9_2
I0608 14:19:55.507453  3354 net.cpp:157] Top shape: 4 256 1 1 (1024)
I0608 14:19:55.507457  3354 net.cpp:165] Memory required for data: 941105184
I0608 14:19:55.507464  3354 layer_factory.hpp:77] Creating layer conv9_2_relu
I0608 14:19:55.507472  3354 net.cpp:100] Creating Layer conv9_2_relu
I0608 14:19:55.507477  3354 net.cpp:434] conv9_2_relu <- conv9_2
I0608 14:19:55.507485  3354 net.cpp:395] conv9_2_relu -> conv9_2 (in-place)
I0608 14:19:55.507625  3354 net.cpp:150] Setting up conv9_2_relu
I0608 14:19:55.507633  3354 net.cpp:157] Top shape: 4 256 1 1 (1024)
I0608 14:19:55.507637  3354 net.cpp:165] Memory required for data: 941109280
I0608 14:19:55.507640  3354 layer_factory.hpp:77] Creating layer conv9_2_conv9_2_relu_0_split
I0608 14:19:55.507647  3354 net.cpp:100] Creating Layer conv9_2_conv9_2_relu_0_split
I0608 14:19:55.507650  3354 net.cpp:434] conv9_2_conv9_2_relu_0_split <- conv9_2
I0608 14:19:55.507658  3354 net.cpp:408] conv9_2_conv9_2_relu_0_split -> conv9_2_conv9_2_relu_0_split_0
I0608 14:19:55.507666  3354 net.cpp:408] conv9_2_conv9_2_relu_0_split -> conv9_2_conv9_2_relu_0_split_1
I0608 14:19:55.507674  3354 net.cpp:408] conv9_2_conv9_2_relu_0_split -> conv9_2_conv9_2_relu_0_split_2
I0608 14:19:55.507741  3354 net.cpp:150] Setting up conv9_2_conv9_2_relu_0_split
I0608 14:19:55.507748  3354 net.cpp:157] Top shape: 4 256 1 1 (1024)
I0608 14:19:55.507753  3354 net.cpp:157] Top shape: 4 256 1 1 (1024)
I0608 14:19:55.507757  3354 net.cpp:157] Top shape: 4 256 1 1 (1024)
I0608 14:19:55.507761  3354 net.cpp:165] Memory required for data: 941121568
I0608 14:19:55.507764  3354 layer_factory.hpp:77] Creating layer conv4_3_norm
I0608 14:19:55.507772  3354 net.cpp:100] Creating Layer conv4_3_norm
I0608 14:19:55.507776  3354 net.cpp:434] conv4_3_norm <- conv4_3_relu4_3_0_split_1
I0608 14:19:55.507782  3354 net.cpp:408] conv4_3_norm -> conv4_3_norm
I0608 14:19:55.507936  3354 net.cpp:150] Setting up conv4_3_norm
I0608 14:19:55.507941  3354 net.cpp:157] Top shape: 4 512 38 38 (2957312)
I0608 14:19:55.507946  3354 net.cpp:165] Memory required for data: 952950816
I0608 14:19:55.507951  3354 layer_factory.hpp:77] Creating layer conv4_3_norm_conv4_3_norm_0_split
I0608 14:19:55.507957  3354 net.cpp:100] Creating Layer conv4_3_norm_conv4_3_norm_0_split
I0608 14:19:55.507962  3354 net.cpp:434] conv4_3_norm_conv4_3_norm_0_split <- conv4_3_norm
I0608 14:19:55.507968  3354 net.cpp:408] conv4_3_norm_conv4_3_norm_0_split -> conv4_3_norm_conv4_3_norm_0_split_0
I0608 14:19:55.507975  3354 net.cpp:408] conv4_3_norm_conv4_3_norm_0_split -> conv4_3_norm_conv4_3_norm_0_split_1
I0608 14:19:55.507984  3354 net.cpp:408] conv4_3_norm_conv4_3_norm_0_split -> conv4_3_norm_conv4_3_norm_0_split_2
I0608 14:19:55.508033  3354 net.cpp:150] Setting up conv4_3_norm_conv4_3_norm_0_split
I0608 14:19:55.508038  3354 net.cpp:157] Top shape: 4 512 38 38 (2957312)
I0608 14:19:55.508044  3354 net.cpp:157] Top shape: 4 512 38 38 (2957312)
I0608 14:19:55.508049  3354 net.cpp:157] Top shape: 4 512 38 38 (2957312)
I0608 14:19:55.508052  3354 net.cpp:165] Memory required for data: 988438560
I0608 14:19:55.508055  3354 layer_factory.hpp:77] Creating layer conv4_3_norm_mbox_loc
I0608 14:19:55.508064  3354 net.cpp:100] Creating Layer conv4_3_norm_mbox_loc
I0608 14:19:55.508069  3354 net.cpp:434] conv4_3_norm_mbox_loc <- conv4_3_norm_conv4_3_norm_0_split_0
I0608 14:19:55.508076  3354 net.cpp:408] conv4_3_norm_mbox_loc -> conv4_3_norm_mbox_loc
I0608 14:19:55.509997  3354 net.cpp:150] Setting up conv4_3_norm_mbox_loc
I0608 14:19:55.510009  3354 net.cpp:157] Top shape: 4 16 38 38 (92416)
I0608 14:19:55.510012  3354 net.cpp:165] Memory required for data: 988808224
I0608 14:19:55.510020  3354 layer_factory.hpp:77] Creating layer conv4_3_norm_mbox_loc_perm
I0608 14:19:55.510030  3354 net.cpp:100] Creating Layer conv4_3_norm_mbox_loc_perm
I0608 14:19:55.510042  3354 net.cpp:434] conv4_3_norm_mbox_loc_perm <- conv4_3_norm_mbox_loc
I0608 14:19:55.510051  3354 net.cpp:408] conv4_3_norm_mbox_loc_perm -> conv4_3_norm_mbox_loc_perm
I0608 14:19:55.510157  3354 net.cpp:150] Setting up conv4_3_norm_mbox_loc_perm
I0608 14:19:55.510164  3354 net.cpp:157] Top shape: 4 38 38 16 (92416)
I0608 14:19:55.510167  3354 net.cpp:165] Memory required for data: 989177888
I0608 14:19:55.510170  3354 layer_factory.hpp:77] Creating layer conv4_3_norm_mbox_loc_flat
I0608 14:19:55.510179  3354 net.cpp:100] Creating Layer conv4_3_norm_mbox_loc_flat
I0608 14:19:55.510182  3354 net.cpp:434] conv4_3_norm_mbox_loc_flat <- conv4_3_norm_mbox_loc_perm
I0608 14:19:55.510188  3354 net.cpp:408] conv4_3_norm_mbox_loc_flat -> conv4_3_norm_mbox_loc_flat
I0608 14:19:55.510222  3354 net.cpp:150] Setting up conv4_3_norm_mbox_loc_flat
I0608 14:19:55.510228  3354 net.cpp:157] Top shape: 4 23104 (92416)
I0608 14:19:55.510232  3354 net.cpp:165] Memory required for data: 989547552
I0608 14:19:55.510236  3354 layer_factory.hpp:77] Creating layer conv4_3_norm_mbox_conf
I0608 14:19:55.510251  3354 net.cpp:100] Creating Layer conv4_3_norm_mbox_conf
I0608 14:19:55.510257  3354 net.cpp:434] conv4_3_norm_mbox_conf <- conv4_3_norm_conv4_3_norm_0_split_1
I0608 14:19:55.510262  3354 net.cpp:408] conv4_3_norm_mbox_conf -> conv4_3_norm_mbox_conf
I0608 14:19:55.512035  3354 net.cpp:150] Setting up conv4_3_norm_mbox_conf
I0608 14:19:55.512048  3354 net.cpp:157] Top shape: 4 8 38 38 (46208)
I0608 14:19:55.512051  3354 net.cpp:165] Memory required for data: 989732384
I0608 14:19:55.512059  3354 layer_factory.hpp:77] Creating layer conv4_3_norm_mbox_conf_perm
I0608 14:19:55.512070  3354 net.cpp:100] Creating Layer conv4_3_norm_mbox_conf_perm
I0608 14:19:55.512074  3354 net.cpp:434] conv4_3_norm_mbox_conf_perm <- conv4_3_norm_mbox_conf
I0608 14:19:55.512082  3354 net.cpp:408] conv4_3_norm_mbox_conf_perm -> conv4_3_norm_mbox_conf_perm
I0608 14:19:55.512189  3354 net.cpp:150] Setting up conv4_3_norm_mbox_conf_perm
I0608 14:19:55.512197  3354 net.cpp:157] Top shape: 4 38 38 8 (46208)
I0608 14:19:55.512199  3354 net.cpp:165] Memory required for data: 989917216
I0608 14:19:55.512203  3354 layer_factory.hpp:77] Creating layer conv4_3_norm_mbox_conf_flat
I0608 14:19:55.512212  3354 net.cpp:100] Creating Layer conv4_3_norm_mbox_conf_flat
I0608 14:19:55.512217  3354 net.cpp:434] conv4_3_norm_mbox_conf_flat <- conv4_3_norm_mbox_conf_perm
I0608 14:19:55.512223  3354 net.cpp:408] conv4_3_norm_mbox_conf_flat -> conv4_3_norm_mbox_conf_flat
I0608 14:19:55.512248  3354 net.cpp:150] Setting up conv4_3_norm_mbox_conf_flat
I0608 14:19:55.512253  3354 net.cpp:157] Top shape: 4 11552 (46208)
I0608 14:19:55.512257  3354 net.cpp:165] Memory required for data: 990102048
I0608 14:19:55.512260  3354 layer_factory.hpp:77] Creating layer conv4_3_norm_mbox_priorbox
I0608 14:19:55.512269  3354 net.cpp:100] Creating Layer conv4_3_norm_mbox_priorbox
I0608 14:19:55.512274  3354 net.cpp:434] conv4_3_norm_mbox_priorbox <- conv4_3_norm_conv4_3_norm_0_split_2
I0608 14:19:55.512279  3354 net.cpp:434] conv4_3_norm_mbox_priorbox <- data_data_0_split_1
I0608 14:19:55.512286  3354 net.cpp:408] conv4_3_norm_mbox_priorbox -> conv4_3_norm_mbox_priorbox
I0608 14:19:55.512316  3354 net.cpp:150] Setting up conv4_3_norm_mbox_priorbox
I0608 14:19:55.512322  3354 net.cpp:157] Top shape: 1 2 23104 (46208)
I0608 14:19:55.512326  3354 net.cpp:165] Memory required for data: 990286880
I0608 14:19:55.512329  3354 layer_factory.hpp:77] Creating layer fc7_mbox_loc
I0608 14:19:55.512339  3354 net.cpp:100] Creating Layer fc7_mbox_loc
I0608 14:19:55.512344  3354 net.cpp:434] fc7_mbox_loc <- fc7_relu7_0_split_1
I0608 14:19:55.512356  3354 net.cpp:408] fc7_mbox_loc -> fc7_mbox_loc
I0608 14:19:55.515105  3354 net.cpp:150] Setting up fc7_mbox_loc
I0608 14:19:55.515132  3354 net.cpp:157] Top shape: 4 24 19 19 (34656)
I0608 14:19:55.515136  3354 net.cpp:165] Memory required for data: 990425504
I0608 14:19:55.515144  3354 layer_factory.hpp:77] Creating layer fc7_mbox_loc_perm
I0608 14:19:55.515177  3354 net.cpp:100] Creating Layer fc7_mbox_loc_perm
I0608 14:19:55.515197  3354 net.cpp:434] fc7_mbox_loc_perm <- fc7_mbox_loc
I0608 14:19:55.515218  3354 net.cpp:408] fc7_mbox_loc_perm -> fc7_mbox_loc_perm
I0608 14:19:55.515419  3354 net.cpp:150] Setting up fc7_mbox_loc_perm
I0608 14:19:55.515425  3354 net.cpp:157] Top shape: 4 19 19 24 (34656)
I0608 14:19:55.515430  3354 net.cpp:165] Memory required for data: 990564128
I0608 14:19:55.515434  3354 layer_factory.hpp:77] Creating layer fc7_mbox_loc_flat
I0608 14:19:55.515455  3354 net.cpp:100] Creating Layer fc7_mbox_loc_flat
I0608 14:19:55.515458  3354 net.cpp:434] fc7_mbox_loc_flat <- fc7_mbox_loc_perm
I0608 14:19:55.515478  3354 net.cpp:408] fc7_mbox_loc_flat -> fc7_mbox_loc_flat
I0608 14:19:55.515544  3354 net.cpp:150] Setting up fc7_mbox_loc_flat
I0608 14:19:55.515549  3354 net.cpp:157] Top shape: 4 8664 (34656)
I0608 14:19:55.515566  3354 net.cpp:165] Memory required for data: 990702752
I0608 14:19:55.515569  3354 layer_factory.hpp:77] Creating layer fc7_mbox_conf
I0608 14:19:55.515583  3354 net.cpp:100] Creating Layer fc7_mbox_conf
I0608 14:19:55.515586  3354 net.cpp:434] fc7_mbox_conf <- fc7_relu7_0_split_2
I0608 14:19:55.515592  3354 net.cpp:408] fc7_mbox_conf -> fc7_mbox_conf
I0608 14:19:55.517810  3354 net.cpp:150] Setting up fc7_mbox_conf
I0608 14:19:55.517822  3354 net.cpp:157] Top shape: 4 12 19 19 (17328)
I0608 14:19:55.517825  3354 net.cpp:165] Memory required for data: 990772064
I0608 14:19:55.517832  3354 layer_factory.hpp:77] Creating layer fc7_mbox_conf_perm
I0608 14:19:55.517855  3354 net.cpp:100] Creating Layer fc7_mbox_conf_perm
I0608 14:19:55.517860  3354 net.cpp:434] fc7_mbox_conf_perm <- fc7_mbox_conf
I0608 14:19:55.517881  3354 net.cpp:408] fc7_mbox_conf_perm -> fc7_mbox_conf_perm
I0608 14:19:55.518002  3354 net.cpp:150] Setting up fc7_mbox_conf_perm
I0608 14:19:55.518007  3354 net.cpp:157] Top shape: 4 19 19 12 (17328)
I0608 14:19:55.518013  3354 net.cpp:165] Memory required for data: 990841376
I0608 14:19:55.518015  3354 layer_factory.hpp:77] Creating layer fc7_mbox_conf_flat
I0608 14:19:55.518038  3354 net.cpp:100] Creating Layer fc7_mbox_conf_flat
I0608 14:19:55.518043  3354 net.cpp:434] fc7_mbox_conf_flat <- fc7_mbox_conf_perm
I0608 14:19:55.518064  3354 net.cpp:408] fc7_mbox_conf_flat -> fc7_mbox_conf_flat
I0608 14:19:55.518088  3354 net.cpp:150] Setting up fc7_mbox_conf_flat
I0608 14:19:55.518095  3354 net.cpp:157] Top shape: 4 4332 (17328)
I0608 14:19:55.518097  3354 net.cpp:165] Memory required for data: 990910688
I0608 14:19:55.518101  3354 layer_factory.hpp:77] Creating layer fc7_mbox_priorbox
I0608 14:19:55.518110  3354 net.cpp:100] Creating Layer fc7_mbox_priorbox
I0608 14:19:55.518115  3354 net.cpp:434] fc7_mbox_priorbox <- fc7_relu7_0_split_3
I0608 14:19:55.518120  3354 net.cpp:434] fc7_mbox_priorbox <- data_data_0_split_2
I0608 14:19:55.518146  3354 net.cpp:408] fc7_mbox_priorbox -> fc7_mbox_priorbox
I0608 14:19:55.518187  3354 net.cpp:150] Setting up fc7_mbox_priorbox
I0608 14:19:55.518193  3354 net.cpp:157] Top shape: 1 2 8664 (17328)
I0608 14:19:55.518196  3354 net.cpp:165] Memory required for data: 990980000
I0608 14:19:55.518201  3354 layer_factory.hpp:77] Creating layer conv6_2_mbox_loc
I0608 14:19:55.518226  3354 net.cpp:100] Creating Layer conv6_2_mbox_loc
I0608 14:19:55.518231  3354 net.cpp:434] conv6_2_mbox_loc <- conv6_2_conv6_2_relu_0_split_1
I0608 14:19:55.518239  3354 net.cpp:408] conv6_2_mbox_loc -> conv6_2_mbox_loc
I0608 14:19:55.520483  3354 net.cpp:150] Setting up conv6_2_mbox_loc
I0608 14:19:55.520493  3354 net.cpp:157] Top shape: 4 24 10 10 (9600)
I0608 14:19:55.520496  3354 net.cpp:165] Memory required for data: 991018400
I0608 14:19:55.520503  3354 layer_factory.hpp:77] Creating layer conv6_2_mbox_loc_perm
I0608 14:19:55.520512  3354 net.cpp:100] Creating Layer conv6_2_mbox_loc_perm
I0608 14:19:55.520517  3354 net.cpp:434] conv6_2_mbox_loc_perm <- conv6_2_mbox_loc
I0608 14:19:55.520525  3354 net.cpp:408] conv6_2_mbox_loc_perm -> conv6_2_mbox_loc_perm
I0608 14:19:55.520663  3354 net.cpp:150] Setting up conv6_2_mbox_loc_perm
I0608 14:19:55.520680  3354 net.cpp:157] Top shape: 4 10 10 24 (9600)
I0608 14:19:55.520685  3354 net.cpp:165] Memory required for data: 991056800
I0608 14:19:55.520689  3354 layer_factory.hpp:77] Creating layer conv6_2_mbox_loc_flat
I0608 14:19:55.520694  3354 net.cpp:100] Creating Layer conv6_2_mbox_loc_flat
I0608 14:19:55.520699  3354 net.cpp:434] conv6_2_mbox_loc_flat <- conv6_2_mbox_loc_perm
I0608 14:19:55.520709  3354 net.cpp:408] conv6_2_mbox_loc_flat -> conv6_2_mbox_loc_flat
I0608 14:19:55.520733  3354 net.cpp:150] Setting up conv6_2_mbox_loc_flat
I0608 14:19:55.520751  3354 net.cpp:157] Top shape: 4 2400 (9600)
I0608 14:19:55.520756  3354 net.cpp:165] Memory required for data: 991095200
I0608 14:19:55.520759  3354 layer_factory.hpp:77] Creating layer conv6_2_mbox_conf
I0608 14:19:55.520771  3354 net.cpp:100] Creating Layer conv6_2_mbox_conf
I0608 14:19:55.520774  3354 net.cpp:434] conv6_2_mbox_conf <- conv6_2_conv6_2_relu_0_split_2
I0608 14:19:55.520783  3354 net.cpp:408] conv6_2_mbox_conf -> conv6_2_mbox_conf
I0608 14:19:55.522675  3354 net.cpp:150] Setting up conv6_2_mbox_conf
I0608 14:19:55.522686  3354 net.cpp:157] Top shape: 4 12 10 10 (4800)
I0608 14:19:55.522689  3354 net.cpp:165] Memory required for data: 991114400
I0608 14:19:55.522697  3354 layer_factory.hpp:77] Creating layer conv6_2_mbox_conf_perm
I0608 14:19:55.522706  3354 net.cpp:100] Creating Layer conv6_2_mbox_conf_perm
I0608 14:19:55.522711  3354 net.cpp:434] conv6_2_mbox_conf_perm <- conv6_2_mbox_conf
I0608 14:19:55.522718  3354 net.cpp:408] conv6_2_mbox_conf_perm -> conv6_2_mbox_conf_perm
I0608 14:19:55.522827  3354 net.cpp:150] Setting up conv6_2_mbox_conf_perm
I0608 14:19:55.522836  3354 net.cpp:157] Top shape: 4 10 10 12 (4800)
I0608 14:19:55.522840  3354 net.cpp:165] Memory required for data: 991133600
I0608 14:19:55.522845  3354 layer_factory.hpp:77] Creating layer conv6_2_mbox_conf_flat
I0608 14:19:55.522850  3354 net.cpp:100] Creating Layer conv6_2_mbox_conf_flat
I0608 14:19:55.522855  3354 net.cpp:434] conv6_2_mbox_conf_flat <- conv6_2_mbox_conf_perm
I0608 14:19:55.522863  3354 net.cpp:408] conv6_2_mbox_conf_flat -> conv6_2_mbox_conf_flat
I0608 14:19:55.522889  3354 net.cpp:150] Setting up conv6_2_mbox_conf_flat
I0608 14:19:55.522896  3354 net.cpp:157] Top shape: 4 1200 (4800)
I0608 14:19:55.522898  3354 net.cpp:165] Memory required for data: 991152800
I0608 14:19:55.522902  3354 layer_factory.hpp:77] Creating layer conv6_2_mbox_priorbox
I0608 14:19:55.522910  3354 net.cpp:100] Creating Layer conv6_2_mbox_priorbox
I0608 14:19:55.522914  3354 net.cpp:434] conv6_2_mbox_priorbox <- conv6_2_conv6_2_relu_0_split_3
I0608 14:19:55.522920  3354 net.cpp:434] conv6_2_mbox_priorbox <- data_data_0_split_3
I0608 14:19:55.522929  3354 net.cpp:408] conv6_2_mbox_priorbox -> conv6_2_mbox_priorbox
I0608 14:19:55.522956  3354 net.cpp:150] Setting up conv6_2_mbox_priorbox
I0608 14:19:55.522963  3354 net.cpp:157] Top shape: 1 2 2400 (4800)
I0608 14:19:55.522965  3354 net.cpp:165] Memory required for data: 991172000
I0608 14:19:55.522969  3354 layer_factory.hpp:77] Creating layer conv7_2_mbox_loc
I0608 14:19:55.522980  3354 net.cpp:100] Creating Layer conv7_2_mbox_loc
I0608 14:19:55.522984  3354 net.cpp:434] conv7_2_mbox_loc <- conv7_2_conv7_2_relu_0_split_1
I0608 14:19:55.522992  3354 net.cpp:408] conv7_2_mbox_loc -> conv7_2_mbox_loc
I0608 14:19:55.524377  3354 net.cpp:150] Setting up conv7_2_mbox_loc
I0608 14:19:55.524386  3354 net.cpp:157] Top shape: 4 24 5 5 (2400)
I0608 14:19:55.524389  3354 net.cpp:165] Memory required for data: 991181600
I0608 14:19:55.524396  3354 layer_factory.hpp:77] Creating layer conv7_2_mbox_loc_perm
I0608 14:19:55.524406  3354 net.cpp:100] Creating Layer conv7_2_mbox_loc_perm
I0608 14:19:55.524411  3354 net.cpp:434] conv7_2_mbox_loc_perm <- conv7_2_mbox_loc
I0608 14:19:55.524417  3354 net.cpp:408] conv7_2_mbox_loc_perm -> conv7_2_mbox_loc_perm
I0608 14:19:55.524524  3354 net.cpp:150] Setting up conv7_2_mbox_loc_perm
I0608 14:19:55.524531  3354 net.cpp:157] Top shape: 4 5 5 24 (2400)
I0608 14:19:55.524544  3354 net.cpp:165] Memory required for data: 991191200
I0608 14:19:55.524546  3354 layer_factory.hpp:77] Creating layer conv7_2_mbox_loc_flat
I0608 14:19:55.524552  3354 net.cpp:100] Creating Layer conv7_2_mbox_loc_flat
I0608 14:19:55.524557  3354 net.cpp:434] conv7_2_mbox_loc_flat <- conv7_2_mbox_loc_perm
I0608 14:19:55.524564  3354 net.cpp:408] conv7_2_mbox_loc_flat -> conv7_2_mbox_loc_flat
I0608 14:19:55.524590  3354 net.cpp:150] Setting up conv7_2_mbox_loc_flat
I0608 14:19:55.524596  3354 net.cpp:157] Top shape: 4 600 (2400)
I0608 14:19:55.524600  3354 net.cpp:165] Memory required for data: 991200800
I0608 14:19:55.524605  3354 layer_factory.hpp:77] Creating layer conv7_2_mbox_conf
I0608 14:19:55.524613  3354 net.cpp:100] Creating Layer conv7_2_mbox_conf
I0608 14:19:55.524617  3354 net.cpp:434] conv7_2_mbox_conf <- conv7_2_conv7_2_relu_0_split_2
I0608 14:19:55.524626  3354 net.cpp:408] conv7_2_mbox_conf -> conv7_2_mbox_conf
I0608 14:19:55.526329  3354 net.cpp:150] Setting up conv7_2_mbox_conf
I0608 14:19:55.526340  3354 net.cpp:157] Top shape: 4 12 5 5 (1200)
I0608 14:19:55.526345  3354 net.cpp:165] Memory required for data: 991205600
I0608 14:19:55.526352  3354 layer_factory.hpp:77] Creating layer conv7_2_mbox_conf_perm
I0608 14:19:55.526360  3354 net.cpp:100] Creating Layer conv7_2_mbox_conf_perm
I0608 14:19:55.526365  3354 net.cpp:434] conv7_2_mbox_conf_perm <- conv7_2_mbox_conf
I0608 14:19:55.526372  3354 net.cpp:408] conv7_2_mbox_conf_perm -> conv7_2_mbox_conf_perm
I0608 14:19:55.526479  3354 net.cpp:150] Setting up conv7_2_mbox_conf_perm
I0608 14:19:55.526485  3354 net.cpp:157] Top shape: 4 5 5 12 (1200)
I0608 14:19:55.526489  3354 net.cpp:165] Memory required for data: 991210400
I0608 14:19:55.526491  3354 layer_factory.hpp:77] Creating layer conv7_2_mbox_conf_flat
I0608 14:19:55.526499  3354 net.cpp:100] Creating Layer conv7_2_mbox_conf_flat
I0608 14:19:55.526504  3354 net.cpp:434] conv7_2_mbox_conf_flat <- conv7_2_mbox_conf_perm
I0608 14:19:55.526510  3354 net.cpp:408] conv7_2_mbox_conf_flat -> conv7_2_mbox_conf_flat
I0608 14:19:55.526536  3354 net.cpp:150] Setting up conv7_2_mbox_conf_flat
I0608 14:19:55.526541  3354 net.cpp:157] Top shape: 4 300 (1200)
I0608 14:19:55.526546  3354 net.cpp:165] Memory required for data: 991215200
I0608 14:19:55.526548  3354 layer_factory.hpp:77] Creating layer conv7_2_mbox_priorbox
I0608 14:19:55.526557  3354 net.cpp:100] Creating Layer conv7_2_mbox_priorbox
I0608 14:19:55.526562  3354 net.cpp:434] conv7_2_mbox_priorbox <- conv7_2_conv7_2_relu_0_split_3
I0608 14:19:55.526568  3354 net.cpp:434] conv7_2_mbox_priorbox <- data_data_0_split_4
I0608 14:19:55.526576  3354 net.cpp:408] conv7_2_mbox_priorbox -> conv7_2_mbox_priorbox
I0608 14:19:55.526604  3354 net.cpp:150] Setting up conv7_2_mbox_priorbox
I0608 14:19:55.526610  3354 net.cpp:157] Top shape: 1 2 600 (1200)
I0608 14:19:55.526614  3354 net.cpp:165] Memory required for data: 991220000
I0608 14:19:55.526618  3354 layer_factory.hpp:77] Creating layer conv8_2_mbox_loc
I0608 14:19:55.526629  3354 net.cpp:100] Creating Layer conv8_2_mbox_loc
I0608 14:19:55.526633  3354 net.cpp:434] conv8_2_mbox_loc <- conv8_2_conv8_2_relu_0_split_1
I0608 14:19:55.526641  3354 net.cpp:408] conv8_2_mbox_loc -> conv8_2_mbox_loc
I0608 14:19:55.528374  3354 net.cpp:150] Setting up conv8_2_mbox_loc
I0608 14:19:55.528386  3354 net.cpp:157] Top shape: 4 16 3 3 (576)
I0608 14:19:55.528390  3354 net.cpp:165] Memory required for data: 991222304
I0608 14:19:55.528405  3354 layer_factory.hpp:77] Creating layer conv8_2_mbox_loc_perm
I0608 14:19:55.528414  3354 net.cpp:100] Creating Layer conv8_2_mbox_loc_perm
I0608 14:19:55.528419  3354 net.cpp:434] conv8_2_mbox_loc_perm <- conv8_2_mbox_loc
I0608 14:19:55.528426  3354 net.cpp:408] conv8_2_mbox_loc_perm -> conv8_2_mbox_loc_perm
I0608 14:19:55.528535  3354 net.cpp:150] Setting up conv8_2_mbox_loc_perm
I0608 14:19:55.528542  3354 net.cpp:157] Top shape: 4 3 3 16 (576)
I0608 14:19:55.528544  3354 net.cpp:165] Memory required for data: 991224608
I0608 14:19:55.528548  3354 layer_factory.hpp:77] Creating layer conv8_2_mbox_loc_flat
I0608 14:19:55.528563  3354 net.cpp:100] Creating Layer conv8_2_mbox_loc_flat
I0608 14:19:55.528568  3354 net.cpp:434] conv8_2_mbox_loc_flat <- conv8_2_mbox_loc_perm
I0608 14:19:55.528574  3354 net.cpp:408] conv8_2_mbox_loc_flat -> conv8_2_mbox_loc_flat
I0608 14:19:55.528601  3354 net.cpp:150] Setting up conv8_2_mbox_loc_flat
I0608 14:19:55.528607  3354 net.cpp:157] Top shape: 4 144 (576)
I0608 14:19:55.528610  3354 net.cpp:165] Memory required for data: 991226912
I0608 14:19:55.528614  3354 layer_factory.hpp:77] Creating layer conv8_2_mbox_conf
I0608 14:19:55.528623  3354 net.cpp:100] Creating Layer conv8_2_mbox_conf
I0608 14:19:55.528627  3354 net.cpp:434] conv8_2_mbox_conf <- conv8_2_conv8_2_relu_0_split_2
I0608 14:19:55.528636  3354 net.cpp:408] conv8_2_mbox_conf -> conv8_2_mbox_conf
I0608 14:19:55.530313  3354 net.cpp:150] Setting up conv8_2_mbox_conf
I0608 14:19:55.530323  3354 net.cpp:157] Top shape: 4 8 3 3 (288)
I0608 14:19:55.530328  3354 net.cpp:165] Memory required for data: 991228064
I0608 14:19:55.530334  3354 layer_factory.hpp:77] Creating layer conv8_2_mbox_conf_perm
I0608 14:19:55.530344  3354 net.cpp:100] Creating Layer conv8_2_mbox_conf_perm
I0608 14:19:55.530349  3354 net.cpp:434] conv8_2_mbox_conf_perm <- conv8_2_mbox_conf
I0608 14:19:55.530356  3354 net.cpp:408] conv8_2_mbox_conf_perm -> conv8_2_mbox_conf_perm
I0608 14:19:55.530460  3354 net.cpp:150] Setting up conv8_2_mbox_conf_perm
I0608 14:19:55.530467  3354 net.cpp:157] Top shape: 4 3 3 8 (288)
I0608 14:19:55.530469  3354 net.cpp:165] Memory required for data: 991229216
I0608 14:19:55.530473  3354 layer_factory.hpp:77] Creating layer conv8_2_mbox_conf_flat
I0608 14:19:55.530480  3354 net.cpp:100] Creating Layer conv8_2_mbox_conf_flat
I0608 14:19:55.530485  3354 net.cpp:434] conv8_2_mbox_conf_flat <- conv8_2_mbox_conf_perm
I0608 14:19:55.530490  3354 net.cpp:408] conv8_2_mbox_conf_flat -> conv8_2_mbox_conf_flat
I0608 14:19:55.530517  3354 net.cpp:150] Setting up conv8_2_mbox_conf_flat
I0608 14:19:55.530522  3354 net.cpp:157] Top shape: 4 72 (288)
I0608 14:19:55.530525  3354 net.cpp:165] Memory required for data: 991230368
I0608 14:19:55.530529  3354 layer_factory.hpp:77] Creating layer conv8_2_mbox_priorbox
I0608 14:19:55.530537  3354 net.cpp:100] Creating Layer conv8_2_mbox_priorbox
I0608 14:19:55.530542  3354 net.cpp:434] conv8_2_mbox_priorbox <- conv8_2_conv8_2_relu_0_split_3
I0608 14:19:55.530547  3354 net.cpp:434] conv8_2_mbox_priorbox <- data_data_0_split_5
I0608 14:19:55.530555  3354 net.cpp:408] conv8_2_mbox_priorbox -> conv8_2_mbox_priorbox
I0608 14:19:55.530582  3354 net.cpp:150] Setting up conv8_2_mbox_priorbox
I0608 14:19:55.530588  3354 net.cpp:157] Top shape: 1 2 144 (288)
I0608 14:19:55.530591  3354 net.cpp:165] Memory required for data: 991231520
I0608 14:19:55.530594  3354 layer_factory.hpp:77] Creating layer conv9_2_mbox_loc
I0608 14:19:55.530604  3354 net.cpp:100] Creating Layer conv9_2_mbox_loc
I0608 14:19:55.530609  3354 net.cpp:434] conv9_2_mbox_loc <- conv9_2_conv9_2_relu_0_split_0
I0608 14:19:55.530617  3354 net.cpp:408] conv9_2_mbox_loc -> conv9_2_mbox_loc
I0608 14:19:55.532799  3354 net.cpp:150] Setting up conv9_2_mbox_loc
I0608 14:19:55.532809  3354 net.cpp:157] Top shape: 4 16 1 1 (64)
I0608 14:19:55.532812  3354 net.cpp:165] Memory required for data: 991231776
I0608 14:19:55.532819  3354 layer_factory.hpp:77] Creating layer conv9_2_mbox_loc_perm
I0608 14:19:55.532829  3354 net.cpp:100] Creating Layer conv9_2_mbox_loc_perm
I0608 14:19:55.532833  3354 net.cpp:434] conv9_2_mbox_loc_perm <- conv9_2_mbox_loc
I0608 14:19:55.532840  3354 net.cpp:408] conv9_2_mbox_loc_perm -> conv9_2_mbox_loc_perm
I0608 14:19:55.532945  3354 net.cpp:150] Setting up conv9_2_mbox_loc_perm
I0608 14:19:55.532953  3354 net.cpp:157] Top shape: 4 1 1 16 (64)
I0608 14:19:55.532955  3354 net.cpp:165] Memory required for data: 991232032
I0608 14:19:55.532959  3354 layer_factory.hpp:77] Creating layer conv9_2_mbox_loc_flat
I0608 14:19:55.532965  3354 net.cpp:100] Creating Layer conv9_2_mbox_loc_flat
I0608 14:19:55.532970  3354 net.cpp:434] conv9_2_mbox_loc_flat <- conv9_2_mbox_loc_perm
I0608 14:19:55.532984  3354 net.cpp:408] conv9_2_mbox_loc_flat -> conv9_2_mbox_loc_flat
I0608 14:19:55.533011  3354 net.cpp:150] Setting up conv9_2_mbox_loc_flat
I0608 14:19:55.533017  3354 net.cpp:157] Top shape: 4 16 (64)
I0608 14:19:55.533020  3354 net.cpp:165] Memory required for data: 991232288
I0608 14:19:55.533025  3354 layer_factory.hpp:77] Creating layer conv9_2_mbox_conf
I0608 14:19:55.533035  3354 net.cpp:100] Creating Layer conv9_2_mbox_conf
I0608 14:19:55.533040  3354 net.cpp:434] conv9_2_mbox_conf <- conv9_2_conv9_2_relu_0_split_1
I0608 14:19:55.533046  3354 net.cpp:408] conv9_2_mbox_conf -> conv9_2_mbox_conf
I0608 14:19:55.534729  3354 net.cpp:150] Setting up conv9_2_mbox_conf
I0608 14:19:55.534739  3354 net.cpp:157] Top shape: 4 8 1 1 (32)
I0608 14:19:55.534742  3354 net.cpp:165] Memory required for data: 991232416
I0608 14:19:55.534750  3354 layer_factory.hpp:77] Creating layer conv9_2_mbox_conf_perm
I0608 14:19:55.534757  3354 net.cpp:100] Creating Layer conv9_2_mbox_conf_perm
I0608 14:19:55.534764  3354 net.cpp:434] conv9_2_mbox_conf_perm <- conv9_2_mbox_conf
I0608 14:19:55.534771  3354 net.cpp:408] conv9_2_mbox_conf_perm -> conv9_2_mbox_conf_perm
I0608 14:19:55.534878  3354 net.cpp:150] Setting up conv9_2_mbox_conf_perm
I0608 14:19:55.534885  3354 net.cpp:157] Top shape: 4 1 1 8 (32)
I0608 14:19:55.534888  3354 net.cpp:165] Memory required for data: 991232544
I0608 14:19:55.534893  3354 layer_factory.hpp:77] Creating layer conv9_2_mbox_conf_flat
I0608 14:19:55.534899  3354 net.cpp:100] Creating Layer conv9_2_mbox_conf_flat
I0608 14:19:55.534904  3354 net.cpp:434] conv9_2_mbox_conf_flat <- conv9_2_mbox_conf_perm
I0608 14:19:55.534911  3354 net.cpp:408] conv9_2_mbox_conf_flat -> conv9_2_mbox_conf_flat
I0608 14:19:55.534935  3354 net.cpp:150] Setting up conv9_2_mbox_conf_flat
I0608 14:19:55.534941  3354 net.cpp:157] Top shape: 4 8 (32)
I0608 14:19:55.534945  3354 net.cpp:165] Memory required for data: 991232672
I0608 14:19:55.534948  3354 layer_factory.hpp:77] Creating layer conv9_2_mbox_priorbox
I0608 14:19:55.534957  3354 net.cpp:100] Creating Layer conv9_2_mbox_priorbox
I0608 14:19:55.534961  3354 net.cpp:434] conv9_2_mbox_priorbox <- conv9_2_conv9_2_relu_0_split_2
I0608 14:19:55.534966  3354 net.cpp:434] conv9_2_mbox_priorbox <- data_data_0_split_6
I0608 14:19:55.534974  3354 net.cpp:408] conv9_2_mbox_priorbox -> conv9_2_mbox_priorbox
I0608 14:19:55.535001  3354 net.cpp:150] Setting up conv9_2_mbox_priorbox
I0608 14:19:55.535008  3354 net.cpp:157] Top shape: 1 2 16 (32)
I0608 14:19:55.535012  3354 net.cpp:165] Memory required for data: 991232800
I0608 14:19:55.535014  3354 layer_factory.hpp:77] Creating layer mbox_loc
I0608 14:19:55.535022  3354 net.cpp:100] Creating Layer mbox_loc
I0608 14:19:55.535028  3354 net.cpp:434] mbox_loc <- conv4_3_norm_mbox_loc_flat
I0608 14:19:55.535033  3354 net.cpp:434] mbox_loc <- fc7_mbox_loc_flat
I0608 14:19:55.535039  3354 net.cpp:434] mbox_loc <- conv6_2_mbox_loc_flat
I0608 14:19:55.535045  3354 net.cpp:434] mbox_loc <- conv7_2_mbox_loc_flat
I0608 14:19:55.535051  3354 net.cpp:434] mbox_loc <- conv8_2_mbox_loc_flat
I0608 14:19:55.535055  3354 net.cpp:434] mbox_loc <- conv9_2_mbox_loc_flat
I0608 14:19:55.535063  3354 net.cpp:408] mbox_loc -> mbox_loc
I0608 14:19:55.535089  3354 net.cpp:150] Setting up mbox_loc
I0608 14:19:55.535096  3354 net.cpp:157] Top shape: 4 34928 (139712)
I0608 14:19:55.535099  3354 net.cpp:165] Memory required for data: 991791648
I0608 14:19:55.535104  3354 layer_factory.hpp:77] Creating layer mbox_conf
I0608 14:19:55.535110  3354 net.cpp:100] Creating Layer mbox_conf
I0608 14:19:55.535115  3354 net.cpp:434] mbox_conf <- conv4_3_norm_mbox_conf_flat
I0608 14:19:55.535120  3354 net.cpp:434] mbox_conf <- fc7_mbox_conf_flat
I0608 14:19:55.535125  3354 net.cpp:434] mbox_conf <- conv6_2_mbox_conf_flat
I0608 14:19:55.535131  3354 net.cpp:434] mbox_conf <- conv7_2_mbox_conf_flat
I0608 14:19:55.535136  3354 net.cpp:434] mbox_conf <- conv8_2_mbox_conf_flat
I0608 14:19:55.535142  3354 net.cpp:434] mbox_conf <- conv9_2_mbox_conf_flat
I0608 14:19:55.535156  3354 net.cpp:408] mbox_conf -> mbox_conf
I0608 14:19:55.535181  3354 net.cpp:150] Setting up mbox_conf
I0608 14:19:55.535187  3354 net.cpp:157] Top shape: 4 17464 (69856)
I0608 14:19:55.535192  3354 net.cpp:165] Memory required for data: 992071072
I0608 14:19:55.535194  3354 layer_factory.hpp:77] Creating layer mbox_priorbox
I0608 14:19:55.535199  3354 net.cpp:100] Creating Layer mbox_priorbox
I0608 14:19:55.535205  3354 net.cpp:434] mbox_priorbox <- conv4_3_norm_mbox_priorbox
I0608 14:19:55.535210  3354 net.cpp:434] mbox_priorbox <- fc7_mbox_priorbox
I0608 14:19:55.535215  3354 net.cpp:434] mbox_priorbox <- conv6_2_mbox_priorbox
I0608 14:19:55.535221  3354 net.cpp:434] mbox_priorbox <- conv7_2_mbox_priorbox
I0608 14:19:55.535226  3354 net.cpp:434] mbox_priorbox <- conv8_2_mbox_priorbox
I0608 14:19:55.535230  3354 net.cpp:434] mbox_priorbox <- conv9_2_mbox_priorbox
I0608 14:19:55.535238  3354 net.cpp:408] mbox_priorbox -> mbox_priorbox
I0608 14:19:55.535262  3354 net.cpp:150] Setting up mbox_priorbox
I0608 14:19:55.535269  3354 net.cpp:157] Top shape: 1 2 34928 (69856)
I0608 14:19:55.535271  3354 net.cpp:165] Memory required for data: 992350496
I0608 14:19:55.535275  3354 layer_factory.hpp:77] Creating layer mbox_conf_reshape
I0608 14:19:55.535282  3354 net.cpp:100] Creating Layer mbox_conf_reshape
I0608 14:19:55.535286  3354 net.cpp:434] mbox_conf_reshape <- mbox_conf
I0608 14:19:55.535293  3354 net.cpp:408] mbox_conf_reshape -> mbox_conf_reshape
I0608 14:19:55.535326  3354 net.cpp:150] Setting up mbox_conf_reshape
I0608 14:19:55.535332  3354 net.cpp:157] Top shape: 4 8732 2 (69856)
I0608 14:19:55.535337  3354 net.cpp:165] Memory required for data: 992629920
I0608 14:19:55.535341  3354 layer_factory.hpp:77] Creating layer mbox_conf_softmax
I0608 14:19:55.535347  3354 net.cpp:100] Creating Layer mbox_conf_softmax
I0608 14:19:55.535351  3354 net.cpp:434] mbox_conf_softmax <- mbox_conf_reshape
I0608 14:19:55.535359  3354 net.cpp:408] mbox_conf_softmax -> mbox_conf_softmax
I0608 14:19:55.535562  3354 net.cpp:150] Setting up mbox_conf_softmax
I0608 14:19:55.535570  3354 net.cpp:157] Top shape: 4 8732 2 (69856)
I0608 14:19:55.535574  3354 net.cpp:165] Memory required for data: 992909344
I0608 14:19:55.535578  3354 layer_factory.hpp:77] Creating layer mbox_conf_flatten
I0608 14:19:55.535583  3354 net.cpp:100] Creating Layer mbox_conf_flatten
I0608 14:19:55.535588  3354 net.cpp:434] mbox_conf_flatten <- mbox_conf_softmax
I0608 14:19:55.535594  3354 net.cpp:408] mbox_conf_flatten -> mbox_conf_flatten
I0608 14:19:55.535621  3354 net.cpp:150] Setting up mbox_conf_flatten
I0608 14:19:55.535627  3354 net.cpp:157] Top shape: 4 17464 (69856)
I0608 14:19:55.535630  3354 net.cpp:165] Memory required for data: 993188768
I0608 14:19:55.535634  3354 layer_factory.hpp:77] Creating layer detection_out
I0608 14:19:55.535646  3354 net.cpp:100] Creating Layer detection_out
I0608 14:19:55.535650  3354 net.cpp:434] detection_out <- mbox_loc
I0608 14:19:55.535655  3354 net.cpp:434] detection_out <- mbox_conf_flatten
I0608 14:19:55.535660  3354 net.cpp:434] detection_out <- mbox_priorbox
I0608 14:19:55.535668  3354 net.cpp:408] detection_out -> detection_out
I0608 14:19:55.536025  3354 net.cpp:150] Setting up detection_out
I0608 14:19:55.536033  3354 net.cpp:157] Top shape: 1 1 1 7 (7)
I0608 14:19:55.536036  3354 net.cpp:165] Memory required for data: 993188796
I0608 14:19:55.536041  3354 layer_factory.hpp:77] Creating layer detection_eval
I0608 14:19:55.536048  3354 net.cpp:100] Creating Layer detection_eval
I0608 14:19:55.536053  3354 net.cpp:434] detection_eval <- detection_out
I0608 14:19:55.536058  3354 net.cpp:434] detection_eval <- label
I0608 14:19:55.536065  3354 net.cpp:408] detection_eval -> detection_eval
I0608 14:19:55.536154  3354 net.cpp:150] Setting up detection_eval
I0608 14:19:55.536161  3354 net.cpp:157] Top shape: 1 1 2 5 (10)
I0608 14:19:55.536165  3354 net.cpp:165] Memory required for data: 993188836
I0608 14:19:55.536170  3354 net.cpp:228] detection_eval does not need backward computation.
I0608 14:19:55.536180  3354 net.cpp:228] detection_out does not need backward computation.
I0608 14:19:55.536186  3354 net.cpp:228] mbox_conf_flatten does not need backward computation.
I0608 14:19:55.536191  3354 net.cpp:228] mbox_conf_softmax does not need backward computation.
…
