…
      sampler {
        min_scale: 0.3
        max_scale: 1
        min_aspect_ratio: 0.5
        max_aspect_ratio: 2
      }
      sample_constraint {
        min_jaccard_overlap: 0.9
      }
      max_sample: 1
      max_trials: 50
    }
    batch_sampler {
      sampler {
        min_scale: 0.3
        max_scale: 1
        min_aspect_ratio: 0.5
        max_aspect_ratio: 2
      }
      sample_constraint {
        max_jaccard_overlap: 1
      }
      max_sample: 1
      max_trials: 50
    }
    label_map_file: "data/VOC0712/labelmap_voc.prototxt"
  }
}
layer {
  name: "conv1_1"
  type: "Convolution"
  bottom: "data"
  top: "conv1_1"
  param {
    lr_mult: 1
    decay_mult: 1
  }
  param {
    lr_mult: 2
    decay_mult: 0
  }
  convolution_param {
    num_output: 64
    pad: 1
    kernel_size: 3
    weight_filler {
      type: "xavier"
    }
    bias_filler {
      type: "constant"
      value: 0
    }
  }
}
layer {
  name: "relu1_1"
  type: "ReLU"
  bottom: "conv1_1"
  top: "conv1_1"
}
layer {
  name: "conv1_2"
  type: "Convolution"
  bottom: "conv1_1"
  top: "conv1_2"
  param {
    lr_mult: 1
    decay_mult: 1
  }
  param {
    lr_mult: 2
    decay_mult: 0
  }
  convolution_param {
    num_output: 64
    pad: 1
    kernel_size: 3
    weight_filler {
      type: "xavier"
    }
    bias_filler {
      type: "constant"
      value: 0
    }
  }
}
layer {
  name: "relu1_2"
  type: "ReLU"
  bottom: "conv1_2"
  top: "conv1_2"
}
layer {
  name: "pool1"
  type: "Pooling"
  bottom: "conv1_2"
  top: "pool1"
  pooling_param {
    pool: MAX
    kernel_size: 2
    stride: 2
  }
}
layer {
  name: "conv2_1"
  type: "Convolution"
  bottom: "pool1"
  top: "conv2_1"
  param {
    lr_mult: 1
    decay_mult: 1
  }
  param {
    lr_mult: 2
    decay_mult: 0
  }
  convolution_param {
    num_output: 128
    pad: 1
    kernel_size: 3
    weight_filler {
      type: "xavier"
    }
    bias_filler {
      type: "constant"
      value: 0
    }
  }
}
layer {
  name: "relu2_1"
  type: "ReLU"
  bottom: "conv2_1"
  top: "conv2_1"
}
layer {
  name: "conv2_2"
  type: "Convolution"
  bottom: "conv2_1"
  top: "conv2_2"
  param {
    lr_mult: 1
    decay_mult: 1
  }
  param {
    lr_mult: 2
    decay_mult: 0
  }
  convolution_param {
    num_output: 128
    pad: 1
    kernel_size: 3
    weight_filler {
      type: "xavier"
    }
    bias_filler {
      type: "constant"
      value: 0
    }
  }
}
layer {
  name: "relu2_2"
  type: "ReLU"
  bottom: "conv2_2"
  top: "conv2_2"
}
layer {
  name: "pool2"
  type: "Pooling"
  bottom: "conv2_2"
  top: "pool2"
  pooling_param {
    pool: MAX
    kernel_size: 2
    stride: 2
  }
}
layer {
  name: "conv3_1"
  type: "Convolution"
  bottom: "pool2"
  top: "conv3_1"
  param {
    lr_mult: 1
    decay_mult: 1
  }
  param {
    lr_mult: 2
    decay_mult: 0
  }
  convolution_param {
    num_output: 256
    pad: 1
    kernel_size: 3
    weight_filler {
      type: "xavier"
    }
    bias_filler {
      type: "constant"
      value: 0
    }
  }
}
layer {
  name: "relu3_1"
  type: "ReLU"
  bottom: "conv3_1"
  top: "conv3_1"
}
layer {
  name: "conv3_2"
  type: "Convolution"
  bottom: "conv3_1"
  top: "conv3_2"
  param {
    lr_mult: 1
    decay_mult: 1
  }
  param {
    lr_mult: 2
    decay_mult: 0
  }
  convolution_param {
    num_output: 256
    pad: 1
    kernel_size: 3
    weight_filler {
      type: "xavier"
    }
    bias_filler {
      type: "constant"
      value: 0
    }
  }
}
layer {
  name: "relu3_2"
  type: "ReLU"
  bottom: "conv3_2"
  top: "conv3_2"
}
layer {
  name: "conv3_3"
  type: "Convolution"
  bottom: "conv3_2"
  top: "conv3_3"
  param {
    lr_mult: 1
    decay_mult: 1
  }
  param {
    lr_mult: 2
    decay_mult: 0
  }
  convolution_param {
    num_output: 256
    pad: 1
    kernel_size: 3
    weight_filler {
      type: "xavier"
    }
    bias_filler {
      type: "constant"
      value: 0
    }
  }
}
layer {
  name: "relu3_3"
  type: "ReLU"
  bottom: "conv3_3"
  top: "conv3_3"
}
layer {
  name: "pool3"
  type: "Pooling"
  bottom: "conv3_3"
  top: "pool3"
  pooling_param {
    pool: MAX
    kernel_size: 2
    stride: 2
  }
}
layer {
  name: "conv4_1"
  type: "Convolution"
  bottom: "pool3"
  top: "conv4_1"
  param {
    lr_mult: 1
    decay_mult: 1
  }
  param {
    lr_mult: 2
    decay_mult: 0
  }
  convolution_param {
    num_output: 512
    pad: 1
    kernel_size: 3
    weight_filler {
      type: "xavier"
    }
    bias_filler {
      type: "constant"
      value: 0
    }
  }
}
layer {
  name: "relu4_1"
  type: "ReLU"
  bottom: "conv4_1"
  top: "conv4_1"
}
layer {
  name: "conv4_2"
  type: "Convolution"
  bottom: "conv4_1"
  top: "conv4_2"
  param {
    lr_mult: 1
    decay_mult: 1
  }
  param {
    lr_mult: 2
    decay_mult: 0
  }
  convolution_param {
    num_output: 512
    pad: 1
    kernel_size: 3
    weight_filler {
      type: "xavier"
    }
    bias_filler {
      type: "constant"
      value: 0
    }
  }
}
layer {
  name: "relu4_2"
  type: "ReLU"
  bottom: "conv4_2"
  top: "conv4_2"
}
layer {
  name: "conv4_3"
  type: "Convolution"
  bottom: "conv4_2"
  top: "conv4_3"
  param {
    lr_mult: 1
    decay_mult: 1
  }
  param {
    lr_mult: 2
    decay_mult: 0
  }
  convolution_param {
    num_output: 512
    pad: 1
    kernel_size: 3
    weight_filler {
      type: "xavier"
    }
    bias_filler {
      type: "constant"
      value: 0
    }
  }
}
layer {
  name: "relu4_3"
  type: "ReLU"
  bottom: "conv4_3"
  top: "conv4_3"
}
layer {
  name: "pool4"
  type: "Pooling"
  bottom: "conv4_3"
  top: "pool4"
  pooling_param {
    pool: MAX
    kernel_size: 2
    stride: 2
  }
}
layer {
  name: "conv5_1"
  type: "Convolution"
  bottom: "pool4"
  top: "conv5_1"
  param {
    lr_mult: 1
    decay_mult: 1
  }
  param {
    lr_mult: 2
    decay_mult: 0
  }
  convolution_param {
    num_output: 512
    pad: 1
    kernel_size: 3
    weight_filler {
      type: "xavier"
    }
    bias_filler {
      type: "constant"
      value: 0
    }
    dilation: 1
  }
}
layer {
  name: "relu5_1"
  type: "ReLU"
  bottom: "conv5_1"
  top: "conv5_1"
}
layer {
  name: "conv5_2"
  type: "Convolution"
  bottom: "conv5_1"
  top: "conv5_2"
  param {
    lr_mult: 1
    decay_mult: 1
  }
  param {
    lr_mult: 2
    decay_mult: 0
  }
  convolution_param {
    num_output: 512
    pad: 1
    kernel_size: 3
    weight_filler {
      type: "xavier"
    }
    bias_filler {
      type: "constant"
      value: 0
    }
    dilation: 1
  }
}
layer {
  name: "relu5_2"
  type: "ReLU"
  bottom: "conv5_2"
  top: "conv5_2"
}
layer {
  name: "conv5_3"
  type: "Convolution"
  bottom: "conv5_2"
  top: "conv5_3"
  param {
    lr_mult: 1
    decay_mult: 1
  }
  param {
    lr_mult: 2
    decay_mult: 0
  }
  convolution_param {
    num_output: 512
    pad: 1
    kernel_size: 3
    weight_filler {
      type: "xavier"
    }
    bias_filler {
      type: "constant"
      value: 0
    }
    dilation: 1
  }
}
layer {
  name: "relu5_3"
  type: "ReLU"
  bottom: "conv5_3"
  top: "conv5_3"
}
layer {
  name: "pool5"
  type: "Pooling"
  bottom: "conv5_3"
  top: "pool5"
  pooling_param {
    pool: MAX
    kernel_size: 3
    stride: 1
    pad: 1
  }
}
layer {
  name: "fc6"
  type: "Convolution"
  bottom: "pool5"
  top: "fc6"
  param {
    lr_mult: 1
    decay_mult: 1
  }
  param {
    lr_mult: 2
    decay_mult: 0
  }
  convolution_param {
    num_output: 1024
    pad: 6
    kernel_size: 3
    weight_filler {
      type: "xavier"
    }
    bias_filler {
      type: "constant"
      value: 0
    }
    dilation: 6
  }
}
layer {
  name: "relu6"
  type: "ReLU"
  bottom: "fc6"
  top: "fc6"
}
layer {
  name: "fc7"
  type: "Convolution"
  bottom: "fc6"
  top: "fc7"
  param {
    lr_mult: 1
    decay_mult: 1
  }
  param {
    lr_mult: 2
    decay_mult: 0
  }
  convolution_param {
    num_output: 1024
    kernel_size: 1
    weight_filler {
      type: "xavier"
    }
    bias_filler {
      type: "constant"
      value: 0
    }
  }
}
layer {
  name: "relu7"
  type: "ReLU"
  bottom: "fc7"
  top: "fc7"
}
layer {
  name: "conv6_1"
  type: "Convolution"
  bottom: "fc7"
  top: "conv6_1"
  param {
    lr_mult: 1
    decay_mult: 1
  }
  param {
    lr_mult: 2
    decay_mult: 0
  }
  convolution_param {
    num_output: 256
    pad: 0
    kernel_size: 1
    stride: 1
    weight_filler {
      type: "xavier"
    }
    bias_filler {
      type: "constant"
      value: 0
    }
  }
}
layer {
  name: "conv6_1_relu"
  type: "ReLU"
  bottom: "conv6_1"
  top: "conv6_1"
}
layer {
  name: "conv6_2"
  type: "Convolution"
  bottom: "conv6_1"
  top: "conv6_2"
  param {
    lr_mult: 1
    decay_mult: 1
  }
  param {
    lr_mult: 2
    decay_mult: 0
  }
  convolution_param {
    num_output: 512
    pad: 1
    kernel_size: 3
    stride: 2
    weight_filler {
      type: "xavier"
    }
    bias_filler {
      type: "constant"
      value: 0
    }
  }
}
layer {
  name: "conv6_2_relu"
  type: "ReLU"
  bottom: "conv6_2"
  top: "conv6_2"
}
layer {
  name: "conv7_1"
  type: "Convolution"
  bottom: "conv6_2"
  top: "conv7_1"
  param {
    lr_mult: 1
    decay_mult: 1
  }
  param {
    lr_mult: 2
    decay_mult: 0
  }
  convolution_param {
    num_output: 128
    pad: 0
    kernel_size: 1
    stride: 1
    weight_filler {
      type: "xavier"
    }
    bias_filler {
      type: "constant"
      value: 0
    }
  }
}
layer {
  name: "conv7_1_relu"
  type: "ReLU"
  bottom: "conv7_1"
  top: "conv7_1"
}
layer {
  name: "conv7_2"
  type: "Convolution"
  bottom: "conv7_1"
  top: "conv7_2"
  param {
    lr_mult: 1
    decay_mult: 1
  }
  param {
    lr_mult: 2
    decay_mult: 0
  }
  convolution_param {
    num_output: 256
    pad: 1
    kernel_size: 3
    stride: 2
    weight_filler {
      type: "xavier"
    }
    bias_filler {
      type: "constant"
      value: 0
    }
  }
}
layer {
  name: "conv7_2_relu"
  type: "ReLU"
  bottom: "conv7_2"
  top: "conv7_2"
}
layer {
  name: "conv8_1"
  type: "Convolution"
  bottom: "conv7_2"
  top: "conv8_1"
  param {
    lr_mult: 1
    decay_mult: 1
  }
  param {
    lr_mult: 2
    decay_mult: 0
  }
  convolution_param {
    num_output: 128
    pad: 0
    kernel_size: 1
    stride: 1
    weight_filler {
      type: "xavier"
    }
    bias_filler {
      type: "constant"
      value: 0
    }
  }
}
layer {
  name: "conv8_1_relu"
  type: "ReLU"
  bottom: "conv8_1"
  top: "conv8_1"
}
layer {
  name: "conv8_2"
  type: "Convolution"
  bottom: "conv8_1"
  top: "conv8_2"
  param {
    lr_mult: 1
    decay_mult: 1
  }
  param {
    lr_mult: 2
    decay_mult: 0
  }
  convolution_param {
    num_output: 256
    pad: 0
    kernel_size: 3
    stride: 1
    weight_filler {
      type: "xavier"
    }
    bias_filler {
      type: "constant"
      value: 0
    }
  }
}
layer {
  name: "conv8_2_relu"
  type: "ReLU"
  bottom: "conv8_2"
  top: "conv8_2"
}
layer {
  name: "conv9_1"
  type: "Convolution"
  bottom: "conv8_2"
  top: "conv9_1"
  param {
    lr_mult: 1
    decay_mult: 1
  }
  param {
    lr_mult: 2
    decay_mult: 0
  }
  convolution_param {
    num_output: 128
    pad: 0
    kernel_size: 1
    stride: 1
    weight_filler {
      type: "xavier"
    }
    bias_filler {
      type: "constant"
      value: 0
    }
  }
}
layer {
  name: "conv9_1_relu"
  type: "ReLU"
  bottom: "conv9_1"
  top: "conv9_1"
}
layer {
  name: "conv9_2"
  type: "Convolution"
  bottom: "conv9_1"
  top: "conv9_2"
  param {
    lr_mult: 1
    decay_mult: 1
  }
  param {
    lr_mult: 2
    decay_mult: 0
  }
  convolution_param {
    num_output: 256
    pad: 0
    kernel_size: 3
    stride: 1
    weight_filler {
      type: "xavier"
    }
    bias_filler {
      type: "constant"
      value: 0
    }
  }
}
layer {
  name: "conv9_2_relu"
  type: "ReLU"
  bottom: "conv9_2"
  top: "conv9_2"
}
layer {
  name: "conv4_3_norm"
  type: "Normalize"
  bottom: "conv4_3"
  top: "conv4_3_norm"
  norm_param {
    across_spatial: false
    scale_filler {
      type: "constant"
      value: 20
    }
    channel_shared: false
  }
}
layer {
  name: "conv4_3_norm_mbox_loc"
  type: "Convolution"
  bottom: "conv4_3_norm"
  top: "conv4_3_norm_mbox_loc"
  param {
    lr_mult: 1
    decay_mult: 1
  }
  param {
    lr_mult: 2
    decay_mult: 0
  }
  convolution_param {
    num_output: 16
    pad: 1
    kernel_size: 3
    stride: 1
    weight_filler {
      type: "xavier"
    }
    bias_filler {
      type: "constant"
      value: 0
    }
  }
}
layer {
  name: "conv4_3_norm_mbox_loc_perm"
  type: "Permute"
  bottom: "conv4_3_norm_mbox_loc"
  top: "conv4_3_norm_mbox_loc_perm"
  permute_param {
    order: 0
    order: 2
    order: 3
    order: 1
  }
}
layer {
  name: "conv4_3_norm_mbox_loc_flat"
  type: "Flatten"
  bottom: "conv4_3_norm_mbox_loc_perm"
  top: "conv4_3_norm_mbox_loc_flat"
  flatten_param {
    axis: 1
  }
}
layer {
  name: "conv4_3_norm_mbox_conf"
  type: "Convolution"
  bottom: "conv4_3_norm"
  top: "conv4_3_norm_mbox_conf"
  param {
    lr_mult: 1
    decay_mult: 1
  }
  param {
    lr_mult: 2
    decay_mult: 0
  }
  convolution_param {
    num_output: 84
    pad: 1
    kernel_size: 3
    stride: 1
    weight_filler {
      type: "xavier"
    }
    bias_filler {
      type: "constant"
      value: 0
    }
  }
}
layer {
  name: "conv4_3_norm_mbox_conf_perm"
  type: "Permute"
  bottom: "conv4_3_norm_mbox_conf"
  top: "conv4_3_norm_mbox_conf_perm"
  permute_param {
    order: 0
    order: 2
    order: 3
    order: 1
  }
}
layer {
  name: "conv4_3_norm_mbox_conf_flat"
  type: "Flatten"
  bottom: "conv4_3_norm_mbox_conf_perm"
  top: "conv4_3_norm_mbox_conf_flat"
  flatten_param {
    axis: 1
  }
}
layer {
  name: "conv4_3_norm_mbox_priorbox"
  type: "PriorBox"
  bottom: "conv4_3_norm"
  bottom: "data"
  top: "conv4_3_norm_mbox_priorbox"
  prior_box_param {
    min_size: 30
    max_size: 60
    aspect_ratio: 2
    flip: true
    clip: false
    variance: 0.1
    variance: 0.1
    variance: 0.2
    variance: 0.2
    step: 8
    offset: 0.5
  }
}
layer {
  name: "fc7_mbox_loc"
  type: "Convolution"
  bottom: "fc7"
  top: "fc7_mbox_loc"
  param {
    lr_mult: 1
    decay_mult: 1
  }
  param {
    lr_mult: 2
    decay_mult: 0
  }
  convolution_param {
    num_output: 24
    pad: 1
    kernel_size: 3
    stride: 1
    weight_filler {
      type: "xavier"
    }
    bias_filler {
      type: "constant"
      value: 0
    }
  }
}
layer {
  name: "fc7_mbox_loc_perm"
  type: "Permute"
  bottom: "fc7_mbox_loc"
  top: "fc7_mbox_loc_perm"
  permute_param {
    order: 0
    order: 2
    order: 3
    order: 1
  }
}
layer {
  name: "fc7_mbox_loc_flat"
  type: "Flatten"
  bottom: "fc7_mbox_loc_perm"
  top: "fc7_mbox_loc_flat"
  flatten_param {
    axis: 1
  }
}
layer {
  name: "fc7_mbox_conf"
  type: "Convolution"
  bottom: "fc7"
  top: "fc7_mbox_conf"
  param {
    lr_mult: 1
    decay_mult: 1
  }
  param {
    lr_mult: 2
    decay_mult: 0
  }
  convolution_param {
    num_output: 126
    pad: 1
    kernel_size: 3
    stride: 1
    weight_filler {
      type: "xavier"
    }
    bias_filler {
      type: "constant"
      value: 0
    }
  }
}
layer {
  name: "fc7_mbox_conf_perm"
  type: "Permute"
  bottom: "fc7_mbox_conf"
  top: "fc7_mbox_conf_perm"
  permute_param {
    order: 0
    order: 2
    order: 3
    order: 1
  }
}
layer {
  name: "fc7_mbox_conf_flat"
  type: "Flatten"
  bottom: "fc7_mbox_conf_perm"
  top: "fc7_mbox_conf_flat"
  flatten_param {
    axis: 1
  }
}
layer {
  name: "fc7_mbox_priorbox"
  type: "PriorBox"
  bottom: "fc7"
  bottom: "data"
  top: "fc7_mbox_priorbox"
  prior_box_param {
    min_size: 60
    max_size: 111
    aspect_ratio: 2
    aspect_ratio: 3
    flip: true
    clip: false
    variance: 0.1
    variance: 0.1
    variance: 0.2
    variance: 0.2
    step: 16
    offset: 0.5
  }
}
layer {
  name: "conv6_2_mbox_loc"
  type: "Convolution"
  bottom: "conv6_2"
  top: "conv6_2_mbox_loc"
  param {
    lr_mult: 1
    decay_mult: 1
  }
  param {
    lr_mult: 2
    decay_mult: 0
  }
  convolution_param {
    num_output: 24
    pad: 1
    kernel_size: 3
    stride: 1
    weight_filler {
      type: "xavier"
    }
    bias_filler {
      type: "constant"
      value: 0
    }
  }
}
layer {
  name: "conv6_2_mbox_loc_perm"
  type: "Permute"
  bottom: "conv6_2_mbox_loc"
  top: "conv6_2_mbox_loc_perm"
  permute_param {
    order: 0
    order: 2
    order: 3
    order: 1
  }
}
layer {
  name: "conv6_2_mbox_loc_flat"
  type: "Flatten"
  bottom: "conv6_2_mbox_loc_perm"
  top: "conv6_2_mbox_loc_flat"
  flatten_param {
    axis: 1
  }
}
layer {
  name: "conv6_2_mbox_conf"
  type: "Convolution"
  bottom: "conv6_2"
  top: "conv6_2_mbox_conf"
  param {
    lr_mult: 1
    decay_mult: 1
  }
  param {
    lr_mult: 2
    decay_mult: 0
  }
  convolution_param {
    num_output: 126
    pad: 1
    kernel_size: 3
    stride: 1
    weight_filler {
      type: "xavier"
    }
    bias_filler {
      type: "constant"
      value: 0
    }
  }
}
layer {
  name: "conv6_2_mbox_conf_perm"
  type: "Permute"
  bottom: "conv6_2_mbox_conf"
  top: "conv6_2_mbox_conf_perm"
  permute_param {
    order: 0
    order: 2
    order: 3
    order: 1
  }
}
layer {
  name: "conv6_2_mbox_conf_flat"
  type: "Flatten"
  bottom: "conv6_2_mbox_conf_perm"
  top: "conv6_2_mbox_conf_flat"
  flatten_param {
    axis: 1
  }
}
layer {
  name: "conv6_2_mbox_priorbox"
  type: "PriorBox"
  bottom: "conv6_2"
  bottom: "data"
  top: "conv6_2_mbox_priorbox"
  prior_box_param {
    min_size: 111
    max_size: 162
    aspect_ratio: 2
    aspect_ratio: 3
    flip: true
    clip: false
    variance: 0.1
    variance: 0.1
    variance: 0.2
    variance: 0.2
    step: 32
    offset: 0.5
  }
}
layer {
  name: "conv7_2_mbox_loc"
  type: "Convolution"
  bottom: "conv7_2"
  top: "conv7_2_mbox_loc"
  param {
    lr_mult: 1
    decay_mult: 1
  }
  param {
    lr_mult: 2
    decay_mult: 0
  }
  convolution_param {
    num_output: 24
    pad: 1
    kernel_size: 3
    stride: 1
    weight_filler {
      type: "xavier"
    }
    bias_filler {
      type: "constant"
      value: 0
    }
  }
}
layer {
  name: "conv7_2_mbox_loc_perm"
  type: "Permute"
  bottom: "conv7_2_mbox_loc"
  top: "conv7_2_mbox_loc_perm"
  permute_param {
    order: 0
    order: 2
    order: 3
    order: 1
  }
}
layer {
  name: "conv7_2_mbox_loc_flat"
  type: "Flatten"
  bottom: "conv7_2_mbox_loc_perm"
  top: "conv7_2_mbox_loc_flat"
  flatten_param {
    axis: 1
  }
}
layer {
  name: "conv7_2_mbox_conf"
  type: "Convolution"
  bottom: "conv7_2"
  top: "conv7_2_mbox_conf"
  param {
    lr_mult: 1
    decay_mult: 1
  }
  param {
    lr_mult: 2
    decay_mult: 0
  }
  convolution_param {
    num_output: 126
    pad: 1
    kernel_size: 3
    stride: 1
    weight_filler {
      type: "xavier"
    }
    bias_filler {
      type: "constant"
      value: 0
    }
  }
}
layer {
  name: "conv7_2_mbox_conf_perm"
  type: "Permute"
  bottom: "conv7_2_mbox_conf"
  top: "conv7_2_mbox_conf_perm"
  permute_param {
    order: 0
    order: 2
    order: 3
    order: 1
  }
}
layer {
  name: "conv7_2_mbox_conf_flat"
  type: "Flatten"
  bottom: "conv7_2_mbox_conf_perm"
  top: "conv7_2_mbox_conf_flat"
  flatten_param {
    axis: 1
  }
}
layer {
  name: "conv7_2_mbox_priorbox"
  type: "PriorBox"
  bottom: "conv7_2"
  bottom: "data"
  top: "conv7_2_mbox_priorbox"
  prior_box_param {
    min_size: 162
    max_size: 213
    aspect_ratio: 2
    aspect_ratio: 3
    flip: true
    clip: false
    variance: 0.1
    variance: 0.1
    variance: 0.2
    variance: 0.2
    step: 64
    offset: 0.5
  }
}
layer {
  name: "conv8_2_mbox_loc"
  type: "Convolution"
  bottom: "conv8_2"
  top: "conv8_2_mbox_loc"
  param {
    lr_mult: 1
    decay_mult: 1
  }
  param {
    lr_mult: 2
    decay_mult: 0
  }
  convolution_param {
    num_output: 16
    pad: 1
    kernel_size: 3
    stride: 1
    weight_filler {
      type: "xavier"
    }
    bias_filler {
      type: "constant"
      value: 0
    }
  }
}
layer {
  name: "conv8_2_mbox_loc_perm"
  type: "Permute"
  bottom: "conv8_2_mbox_loc"
  top: "conv8_2_mbox_loc_perm"
  permute_param {
    order: 0
    order: 2
    order: 3
    order: 1
  }
}
layer {
  name: "conv8_2_mbox_loc_flat"
  type: "Flatten"
  bottom: "conv8_2_mbox_loc_perm"
  top: "conv8_2_mbox_loc_flat"
  flatten_param {
    axis: 1
  }
}
layer {
  name: "conv8_2_mbox_conf"
  type: "Convolution"
  bottom: "conv8_2"
  top: "conv8_2_mbox_conf"
  param {
    lr_mult: 1
    decay_mult: 1
  }
  param {
    lr_mult: 2
    decay_mult: 0
  }
  convolution_param {
    num_output: 84
    pad: 1
    kernel_size: 3
    stride: 1
    weight_filler {
      type: "xavier"
    }
    bias_filler {
      type: "constant"
      value: 0
    }
  }
}
layer {
  name: "conv8_2_mbox_conf_perm"
  type: "Permute"
  bottom: "conv8_2_mbox_conf"
  top: "conv8_2_mbox_conf_perm"
  permute_param {
    order: 0
    order: 2
    order: 3
    order: 1
  }
}
layer {
  name: "conv8_2_mbox_conf_flat"
  type: "Flatten"
  bottom: "conv8_2_mbox_conf_perm"
  top: "conv8_2_mbox_conf_flat"
  flatten_param {
    axis: 1
  }
}
layer {
  name: "conv8_2_mbox_priorbox"
  type: "PriorBox"
  bottom: "conv8_2"
  bottom: "data"
  top: "conv8_2_mbox_priorbox"
  prior_box_param {
    min_size: 213
    max_size: 264
    aspect_ratio: 2
    flip: true
    clip: false
    variance: 0.1
    variance: 0.1
    variance: 0.2
    variance: 0.2
    step: 100
    offset: 0.5
  }
}
layer {
  name: "conv9_2_mbox_loc"
  type: "Convolution"
  bottom: "conv9_2"
  top: "conv9_2_mbox_loc"
  param {
    lr_mult: 1
    decay_mult: 1
  }
  param {
    lr_mult: 2
    decay_mult: 0
  }
  convolution_param {
    num_output: 16
    pad: 1
    kernel_size: 3
    stride: 1
    weight_filler {
      type: "xavier"
    }
    bias_filler {
      type: "constant"
      value: 0
    }
  }
}
layer {
  name: "conv9_2_mbox_loc_perm"
  type: "Permute"
  bottom: "conv9_2_mbox_loc"
  top: "conv9_2_mbox_loc_perm"
  permute_param {
    order: 0
    order: 2
    order: 3
    order: 1
  }
}
layer {
  name: "conv9_2_mbox_loc_flat"
  type: "Flatten"
  bottom: "conv9_2_mbox_loc_perm"
  top: "conv9_2_mbox_loc_flat"
  flatten_param {
    axis: 1
  }
}
layer {
  name: "conv9_2_mbox_conf"
  type: "Convolution"
  bottom: "conv9_2"
  top: "conv9_2_mbox_conf"
  param {
    lr_mult: 1
    decay_mult: 1
  }
  param {
    lr_mult: 2
    decay_mult: 0
  }
  convolution_param {
    num_output: 84
    pad: 1
    kernel_size: 3
    stride: 1
    weight_filler {
      type: "xavier"
    }
    bias_filler {
      type: "constant"
      value: 0
    }
  }
}
layer {
  name: "conv9_2_mbox_conf_perm"
  type: "Permute"
  bottom: "conv9_2_mbox_conf"
  top: "conv9_2_mbox_conf_perm"
  permute_param {
    order: 0
    order: 2
    order: 3
    order: 1
  }
}
layer {
  name: "conv9_2_mbox_conf_flat"
  type: "Flatten"
  bottom: "conv9_2_mbox_conf_perm"
  top: "conv9_2_mbox_conf_flat"
  flatten_param {
    axis: 1
  }
}
layer {
  name: "conv9_2_mbox_priorbox"
  type: "PriorBox"
  bottom: "conv9_2"
  bottom: "data"
  top: "conv9_2_mbox_priorbox"
  prior_box_param {
    min_size: 264
    max_size: 315
    aspect_ratio: 2
    flip: true
    clip: false
    variance: 0.1
    variance: 0.1
    variance: 0.2
    variance: 0.2
    step: 300
    offset: 0.5
  }
}
layer {
  name: "mbox_loc"
  type: "Concat"
  bottom: "conv4_3_norm_mbox_loc_flat"
  bottom: "fc7_mbox_loc_flat"
  bottom: "conv6_2_mbox_loc_flat"
  bottom: "conv7_2_mbox_loc_flat"
  bottom: "conv8_2_mbox_loc_flat"
  bottom: "conv9_2_mbox_loc_flat"
  top: "mbox_loc"
  concat_param {
    axis: 1
  }
}
layer {
  name: "mbox_conf"
  type: "Concat"
  bottom: "conv4_3_norm_mbox_conf_flat"
  bottom: "fc7_mbox_conf_flat"
  bottom: "conv6_2_mbox_conf_flat"
  bottom: "conv7_2_mbox_conf_flat"
  bottom: "conv8_2_mbox_conf_flat"
  bottom: "conv9_2_mbox_conf_flat"
  top: "mbox_conf"
  concat_param {
    axis: 1
  }
}
layer {
  name: "mbox_priorbox"
  type: "Concat"
  bottom: "conv4_3_norm_mbox_priorbox"
  bottom: "fc7_mbox_priorbox"
  bottom: "conv6_2_mbox_priorbox"
  bottom: "conv7_2_mbox_priorbox"
  bottom: "conv8_2_mbox_priorbox"
  bottom: "conv9_2_mbox_priorbox"
  top: "mbox_priorbox"
  concat_param {
    axis: 2
  }
}
layer {
  name: "mbox_loss"
  type: "MultiBoxLoss"
  bottom: "mbox_loc"
  bottom: "mbox_conf"
  bottom: "mbox_priorbox"
  bottom: "label"
  top: "mbox_loss"
  include {
    phase: TRAIN
  }
  propagate_down: true
  propagate_down: true
  propagate_down: false
  propagate_down: false
  loss_param {
    normalization: VALID
  }
  multibox_loss_param {
    loc_loss_type: SMOOTH_L1
    conf_loss_type: SOFTMAX
    loc_weight: 1
    num_classes: 21
    share_location: true
    match_type: PER_PREDICTION
    overlap_threshold: 0.5
    use_prior_for_matching: true
    background_label_id: 0
    use_difficult_gt: true
    neg_pos_ratio: 3
    neg_overlap: 0.5
    code_type: CENTER_SIZE
    ignore_cross_boundary_bbox: false
    mining_type: MAX_NEGATIVE
  }
}
I0524 17:38:16.341696 20451 layer_factory.hpp:77] Creating layer data
I0524 17:38:16.341845 20451 net.cpp:100] Creating Layer data
I0524 17:38:16.341859 20451 net.cpp:408] data -> data
I0524 17:38:16.341892 20451 net.cpp:408] data -> label
I0524 17:38:16.342293 20464 db_lmdb.cpp:35] Opened lmdb examples/VOC0712/VOC0712_trainval_lmdb
I0524 17:38:16.352093 20451 annotated_data_layer.cpp:62] output data size: 1,3,300,300
I0524 17:38:16.356616 20451 net.cpp:150] Setting up data
I0524 17:38:16.356633 20451 net.cpp:157] Top shape: 1 3 300 300 (270000)
I0524 17:38:16.356637 20451 net.cpp:157] Top shape: 1 1 5 8 (40)
I0524 17:38:16.356639 20451 net.cpp:165] Memory required for data: 1080160
I0524 17:38:16.356678 20451 layer_factory.hpp:77] Creating layer data_data_0_split
I0524 17:38:16.356701 20451 net.cpp:100] Creating Layer data_data_0_split
I0524 17:38:16.356708 20451 net.cpp:434] data_data_0_split <- data
I0524 17:38:16.356719 20451 net.cpp:408] data_data_0_split -> data_data_0_split_0
I0524 17:38:16.356741 20451 net.cpp:408] data_data_0_split -> data_data_0_split_1
I0524 17:38:16.356752 20451 net.cpp:408] data_data_0_split -> data_data_0_split_2
I0524 17:38:16.356760 20451 net.cpp:408] data_data_0_split -> data_data_0_split_3
I0524 17:38:16.356765 20451 net.cpp:408] data_data_0_split -> data_data_0_split_4
I0524 17:38:16.356768 20451 net.cpp:408] data_data_0_split -> data_data_0_split_5
I0524 17:38:16.356772 20451 net.cpp:408] data_data_0_split -> data_data_0_split_6
I0524 17:38:16.356853 20451 net.cpp:150] Setting up data_data_0_split
I0524 17:38:16.356858 20451 net.cpp:157] Top shape: 1 3 300 300 (270000)
I0524 17:38:16.356861 20451 net.cpp:157] Top shape: 1 3 300 300 (270000)
I0524 17:38:16.356864 20451 net.cpp:157] Top shape: 1 3 300 300 (270000)
I0524 17:38:16.356868 20451 net.cpp:157] Top shape: 1 3 300 300 (270000)
I0524 17:38:16.356869 20451 net.cpp:157] Top shape: 1 3 300 300 (270000)
I0524 17:38:16.356884 20451 net.cpp:157] Top shape: 1 3 300 300 (270000)
I0524 17:38:16.356887 20451 net.cpp:157] Top shape: 1 3 300 300 (270000)
I0524 17:38:16.356889 20451 net.cpp:165] Memory required for data: 8640160
I0524 17:38:16.356891 20451 layer_factory.hpp:77] Creating layer conv1_1
I0524 17:38:16.356920 20451 net.cpp:100] Creating Layer conv1_1
I0524 17:38:16.356923 20451 net.cpp:434] conv1_1 <- data_data_0_split_0
I0524 17:38:16.356927 20451 net.cpp:408] conv1_1 -> conv1_1
I0524 17:38:16.358125 20451 net.cpp:150] Setting up conv1_1
I0524 17:38:16.358151 20451 net.cpp:157] Top shape: 1 64 300 300 (5760000)
I0524 17:38:16.358155 20451 net.cpp:165] Memory required for data: 31680160
I0524 17:38:16.358188 20451 layer_factory.hpp:77] Creating layer relu1_1
I0524 17:38:16.358196 20451 net.cpp:100] Creating Layer relu1_1
I0524 17:38:16.358201 20451 net.cpp:434] relu1_1 <- conv1_1
I0524 17:38:16.358208 20451 net.cpp:395] relu1_1 -> conv1_1 (in-place)
I0524 17:38:16.358230 20451 net.cpp:150] Setting up relu1_1
I0524 17:38:16.358235 20451 net.cpp:157] Top shape: 1 64 300 300 (5760000)
I0524 17:38:16.358239 20451 net.cpp:165] Memory required for data: 54720160
I0524 17:38:16.358244 20451 layer_factory.hpp:77] Creating layer conv1_2
I0524 17:38:16.358256 20451 net.cpp:100] Creating Layer conv1_2
I0524 17:38:16.358260 20451 net.cpp:434] conv1_2 <- conv1_1
I0524 17:38:16.358268 20451 net.cpp:408] conv1_2 -> conv1_2
I0524 17:38:16.359458 20451 net.cpp:150] Setting up conv1_2
I0524 17:38:16.359470 20451 net.cpp:157] Top shape: 1 64 300 300 (5760000)
I0524 17:38:16.359472 20451 net.cpp:165] Memory required for data: 77760160
I0524 17:38:16.359480 20451 layer_factory.hpp:77] Creating layer relu1_2
I0524 17:38:16.359485 20451 net.cpp:100] Creating Layer relu1_2
I0524 17:38:16.359489 20451 net.cpp:434] relu1_2 <- conv1_2
I0524 17:38:16.359494 20451 net.cpp:395] relu1_2 -> conv1_2 (in-place)
I0524 17:38:16.359499 20451 net.cpp:150] Setting up relu1_2
I0524 17:38:16.359503 20451 net.cpp:157] Top shape: 1 64 300 300 (5760000)
I0524 17:38:16.359505 20451 net.cpp:165] Memory required for data: 100800160
I0524 17:38:16.359508 20451 layer_factory.hpp:77] Creating layer pool1
I0524 17:38:16.359510 20451 net.cpp:100] Creating Layer pool1
I0524 17:38:16.359513 20451 net.cpp:434] pool1 <- conv1_2
I0524 17:38:16.359516 20451 net.cpp:408] pool1 -> pool1
I0524 17:38:16.359550 20451 net.cpp:150] Setting up pool1
I0524 17:38:16.359555 20451 net.cpp:157] Top shape: 1 64 150 150 (1440000)
I0524 17:38:16.359557 20451 net.cpp:165] Memory required for data: 106560160
I0524 17:38:16.359560 20451 layer_factory.hpp:77] Creating layer conv2_1
I0524 17:38:16.359565 20451 net.cpp:100] Creating Layer conv2_1
I0524 17:38:16.359568 20451 net.cpp:434] conv2_1 <- pool1
I0524 17:38:16.359572 20451 net.cpp:408] conv2_1 -> conv2_1
I0524 17:38:16.360272 20451 net.cpp:150] Setting up conv2_1
I0524 17:38:16.360278 20451 net.cpp:157] Top shape: 1 128 150 150 (2880000)
I0524 17:38:16.360280 20451 net.cpp:165] Memory required for data: 118080160
I0524 17:38:16.360285 20451 layer_factory.hpp:77] Creating layer relu2_1
I0524 17:38:16.360292 20451 net.cpp:100] Creating Layer relu2_1
I0524 17:38:16.360296 20451 net.cpp:434] relu2_1 <- conv2_1
I0524 17:38:16.360299 20451 net.cpp:395] relu2_1 -> conv2_1 (in-place)
I0524 17:38:16.360304 20451 net.cpp:150] Setting up relu2_1
I0524 17:38:16.360308 20451 net.cpp:157] Top shape: 1 128 150 150 (2880000)
I0524 17:38:16.360311 20451 net.cpp:165] Memory required for data: 129600160
I0524 17:38:16.360311 20451 layer_factory.hpp:77] Creating layer conv2_2
I0524 17:38:16.360316 20451 net.cpp:100] Creating Layer conv2_2
I0524 17:38:16.360321 20451 net.cpp:434] conv2_2 <- conv2_1
I0524 17:38:16.360324 20451 net.cpp:408] conv2_2 -> conv2_2
I0524 17:38:16.361052 20451 net.cpp:150] Setting up conv2_2
I0524 17:38:16.361057 20451 net.cpp:157] Top shape: 1 128 150 150 (2880000)
I0524 17:38:16.361060 20451 net.cpp:165] Memory required for data: 141120160
I0524 17:38:16.361064 20451 layer_factory.hpp:77] Creating layer relu2_2
I0524 17:38:16.361068 20451 net.cpp:100] Creating Layer relu2_2
I0524 17:38:16.361085 20451 net.cpp:434] relu2_2 <- conv2_2
I0524 17:38:16.361088 20451 net.cpp:395] relu2_2 -> conv2_2 (in-place)
I0524 17:38:16.361093 20451 net.cpp:150] Setting up relu2_2
I0524 17:38:16.361098 20451 net.cpp:157] Top shape: 1 128 150 150 (2880000)
I0524 17:38:16.361099 20451 net.cpp:165] Memory required for data: 152640160
I0524 17:38:16.361101 20451 layer_factory.hpp:77] Creating layer pool2
I0524 17:38:16.361105 20451 net.cpp:100] Creating Layer pool2
I0524 17:38:16.361109 20451 net.cpp:434] pool2 <- conv2_2
I0524 17:38:16.361125 20451 net.cpp:408] pool2 -> pool2
I0524 17:38:16.361148 20451 net.cpp:150] Setting up pool2
I0524 17:38:16.361152 20451 net.cpp:157] Top shape: 1 128 75 75 (720000)
I0524 17:38:16.361155 20451 net.cpp:165] Memory required for data: 155520160
I0524 17:38:16.361156 20451 layer_factory.hpp:77] Creating layer conv3_1
I0524 17:38:16.361162 20451 net.cpp:100] Creating Layer conv3_1
I0524 17:38:16.361166 20451 net.cpp:434] conv3_1 <- pool2
I0524 17:38:16.361169 20451 net.cpp:408] conv3_1 -> conv3_1
I0524 17:38:16.363586 20451 net.cpp:150] Setting up conv3_1
I0524 17:38:16.363598 20451 net.cpp:157] Top shape: 1 256 75 75 (1440000)
I0524 17:38:16.363601 20451 net.cpp:165] Memory required for data: 161280160
I0524 17:38:16.363607 20451 layer_factory.hpp:77] Creating layer relu3_1
I0524 17:38:16.363612 20451 net.cpp:100] Creating Layer relu3_1
I0524 17:38:16.363631 20451 net.cpp:434] relu3_1 <- conv3_1
I0524 17:38:16.363636 20451 net.cpp:395] relu3_1 -> conv3_1 (in-place)
I0524 17:38:16.363641 20451 net.cpp:150] Setting up relu3_1
I0524 17:38:16.363644 20451 net.cpp:157] Top shape: 1 256 75 75 (1440000)
I0524 17:38:16.363647 20451 net.cpp:165] Memory required for data: 167040160
I0524 17:38:16.363651 20451 layer_factory.hpp:77] Creating layer conv3_2
I0524 17:38:16.363656 20451 net.cpp:100] Creating Layer conv3_2
I0524 17:38:16.363658 20451 net.cpp:434] conv3_2 <- conv3_1
I0524 17:38:16.363677 20451 net.cpp:408] conv3_2 -> conv3_2
I0524 17:38:16.366721 20451 net.cpp:150] Setting up conv3_2
I0524 17:38:16.366730 20451 net.cpp:157] Top shape: 1 256 75 75 (1440000)
I0524 17:38:16.366732 20451 net.cpp:165] Memory required for data: 172800160
I0524 17:38:16.366737 20451 layer_factory.hpp:77] Creating layer relu3_2
I0524 17:38:16.366742 20451 net.cpp:100] Creating Layer relu3_2
I0524 17:38:16.366760 20451 net.cpp:434] relu3_2 <- conv3_2
I0524 17:38:16.366765 20451 net.cpp:395] relu3_2 -> conv3_2 (in-place)
I0524 17:38:16.366768 20451 net.cpp:150] Setting up relu3_2
I0524 17:38:16.366772 20451 net.cpp:157] Top shape: 1 256 75 75 (1440000)
I0524 17:38:16.366775 20451 net.cpp:165] Memory required for data: 178560160
I0524 17:38:16.366777 20451 layer_factory.hpp:77] Creating layer conv3_3
I0524 17:38:16.366798 20451 net.cpp:100] Creating Layer conv3_3
I0524 17:38:16.366811 20451 net.cpp:434] conv3_3 <- conv3_2
I0524 17:38:16.366816 20451 net.cpp:408] conv3_3 -> conv3_3
I0524 17:38:16.370059 20451 net.cpp:150] Setting up conv3_3
I0524 17:38:16.370080 20451 net.cpp:157] Top shape: 1 256 75 75 (1440000)
I0524 17:38:16.370082 20451 net.cpp:165] Memory required for data: 184320160
I0524 17:38:16.370090 20451 layer_factory.hpp:77] Creating layer relu3_3
I0524 17:38:16.370096 20451 net.cpp:100] Creating Layer relu3_3
I0524 17:38:16.370100 20451 net.cpp:434] relu3_3 <- conv3_3
I0524 17:38:16.370107 20451 net.cpp:395] relu3_3 -> conv3_3 (in-place)
I0524 17:38:16.370113 20451 net.cpp:150] Setting up relu3_3
I0524 17:38:16.370117 20451 net.cpp:157] Top shape: 1 256 75 75 (1440000)
I0524 17:38:16.370120 20451 net.cpp:165] Memory required for data: 190080160
I0524 17:38:16.370121 20451 layer_factory.hpp:77] Creating layer pool3
I0524 17:38:16.370126 20451 net.cpp:100] Creating Layer pool3
I0524 17:38:16.370127 20451 net.cpp:434] pool3 <- conv3_3
I0524 17:38:16.370131 20451 net.cpp:408] pool3 -> pool3
I0524 17:38:16.370159 20451 net.cpp:150] Setting up pool3
I0524 17:38:16.370163 20451 net.cpp:157] Top shape: 1 256 38 38 (369664)
I0524 17:38:16.370165 20451 net.cpp:165] Memory required for data: 191558816
I0524 17:38:16.370167 20451 layer_factory.hpp:77] Creating layer conv4_1
I0524 17:38:16.370174 20451 net.cpp:100] Creating Layer conv4_1
I0524 17:38:16.370177 20451 net.cpp:434] conv4_1 <- pool3
I0524 17:38:16.370182 20451 net.cpp:408] conv4_1 -> conv4_1
I0524 17:38:16.377995 20451 net.cpp:150] Setting up conv4_1
I0524 17:38:16.378011 20451 net.cpp:157] Top shape: 1 512 38 38 (739328)
I0524 17:38:16.378013 20451 net.cpp:165] Memory required for data: 194516128
I0524 17:38:16.378021 20451 layer_factory.hpp:77] Creating layer relu4_1
I0524 17:38:16.378041 20451 net.cpp:100] Creating Layer relu4_1
I0524 17:38:16.378046 20451 net.cpp:434] relu4_1 <- conv4_1
I0524 17:38:16.378051 20451 net.cpp:395] relu4_1 -> conv4_1 (in-place)
I0524 17:38:16.378057 20451 net.cpp:150] Setting up relu4_1
I0524 17:38:16.378059 20451 net.cpp:157] Top shape: 1 512 38 38 (739328)
I0524 17:38:16.378062 20451 net.cpp:165] Memory required for data: 197473440
I0524 17:38:16.378064 20451 layer_factory.hpp:77] Creating layer conv4_2
I0524 17:38:16.378085 20451 net.cpp:100] Creating Layer conv4_2
I0524 17:38:16.378088 20451 net.cpp:434] conv4_2 <- conv4_1
I0524 17:38:16.378106 20451 net.cpp:408] conv4_2 -> conv4_2
I0524 17:38:16.389919 20451 net.cpp:150] Setting up conv4_2
I0524 17:38:16.389933 20451 net.cpp:157] Top shape: 1 512 38 38 (739328)
I0524 17:38:16.389936 20451 net.cpp:165] Memory required for data: 200430752
I0524 17:38:16.389961 20451 layer_factory.hpp:77] Creating layer relu4_2
I0524 17:38:16.389971 20451 net.cpp:100] Creating Layer relu4_2
I0524 17:38:16.389976 20451 net.cpp:434] relu4_2 <- conv4_2
I0524 17:38:16.389981 20451 net.cpp:395] relu4_2 -> conv4_2 (in-place)
I0524 17:38:16.390005 20451 net.cpp:150] Setting up relu4_2
I0524 17:38:16.390012 20451 net.cpp:157] Top shape: 1 512 38 38 (739328)
I0524 17:38:16.390027 20451 net.cpp:165] Memory required for data: 203388064
I0524 17:38:16.390030 20451 layer_factory.hpp:77] Creating layer conv4_3
I0524 17:38:16.390055 20451 net.cpp:100] Creating Layer conv4_3
I0524 17:38:16.390060 20451 net.cpp:434] conv4_3 <- conv4_2
I0524 17:38:16.390067 20451 net.cpp:408] conv4_3 -> conv4_3
I0524 17:38:16.402417 20451 net.cpp:150] Setting up conv4_3
I0524 17:38:16.402438 20451 net.cpp:157] Top shape: 1 512 38 38 (739328)
I0524 17:38:16.402441 20451 net.cpp:165] Memory required for data: 206345376
I0524 17:38:16.402462 20451 layer_factory.hpp:77] Creating layer relu4_3
I0524 17:38:16.402469 20451 net.cpp:100] Creating Layer relu4_3
I0524 17:38:16.402472 20451 net.cpp:434] relu4_3 <- conv4_3
I0524 17:38:16.402477 20451 net.cpp:395] relu4_3 -> conv4_3 (in-place)
I0524 17:38:16.402483 20451 net.cpp:150] Setting up relu4_3
I0524 17:38:16.402487 20451 net.cpp:157] Top shape: 1 512 38 38 (739328)
I0524 17:38:16.402488 20451 net.cpp:165] Memory required for data: 209302688
I0524 17:38:16.402523 20451 layer_factory.hpp:77] Creating layer conv4_3_relu4_3_0_split
I0524 17:38:16.402526 20451 net.cpp:100] Creating Layer conv4_3_relu4_3_0_split
I0524 17:38:16.402529 20451 net.cpp:434] conv4_3_relu4_3_0_split <- conv4_3
I0524 17:38:16.402534 20451 net.cpp:408] conv4_3_relu4_3_0_split -> conv4_3_relu4_3_0_split_0
I0524 17:38:16.402539 20451 net.cpp:408] conv4_3_relu4_3_0_split -> conv4_3_relu4_3_0_split_1
I0524 17:38:16.402570 20451 net.cpp:150] Setting up conv4_3_relu4_3_0_split
I0524 17:38:16.402573 20451 net.cpp:157] Top shape: 1 512 38 38 (739328)
I0524 17:38:16.402577 20451 net.cpp:157] Top shape: 1 512 38 38 (739328)
I0524 17:38:16.402578 20451 net.cpp:165] Memory required for data: 215217312
I0524 17:38:16.402580 20451 layer_factory.hpp:77] Creating layer pool4
I0524 17:38:16.402585 20451 net.cpp:100] Creating Layer pool4
I0524 17:38:16.402588 20451 net.cpp:434] pool4 <- conv4_3_relu4_3_0_split_0
I0524 17:38:16.402604 20451 net.cpp:408] pool4 -> pool4
I0524 17:38:16.402643 20451 net.cpp:150] Setting up pool4
I0524 17:38:16.402660 20451 net.cpp:157] Top shape: 1 512 19 19 (184832)
I0524 17:38:16.402662 20451 net.cpp:165] Memory required for data: 215956640
I0524 17:38:16.402664 20451 layer_factory.hpp:77] Creating layer conv5_1
I0524 17:38:16.402671 20451 net.cpp:100] Creating Layer conv5_1
I0524 17:38:16.402674 20451 net.cpp:434] conv5_1 <- pool4
I0524 17:38:16.402680 20451 net.cpp:408] conv5_1 -> conv5_1
I0524 17:38:16.415385 20451 net.cpp:150] Setting up conv5_1
I0524 17:38:16.415417 20451 net.cpp:157] Top shape: 1 512 19 19 (184832)
I0524 17:38:16.415421 20451 net.cpp:165] Memory required for data: 216695968
I0524 17:38:16.415426 20451 layer_factory.hpp:77] Creating layer relu5_1
I0524 17:38:16.415433 20451 net.cpp:100] Creating Layer relu5_1
I0524 17:38:16.415437 20451 net.cpp:434] relu5_1 <- conv5_1
I0524 17:38:16.415457 20451 net.cpp:395] relu5_1 -> conv5_1 (in-place)
I0524 17:38:16.415462 20451 net.cpp:150] Setting up relu5_1
I0524 17:38:16.415465 20451 net.cpp:157] Top shape: 1 512 19 19 (184832)
I0524 17:38:16.415467 20451 net.cpp:165] Memory required for data: 217435296
I0524 17:38:16.415469 20451 layer_factory.hpp:77] Creating layer conv5_2
I0524 17:38:16.415493 20451 net.cpp:100] Creating Layer conv5_2
I0524 17:38:16.415495 20451 net.cpp:434] conv5_2 <- conv5_1
I0524 17:38:16.415499 20451 net.cpp:408] conv5_2 -> conv5_2
I0524 17:38:16.428135 20451 net.cpp:150] Setting up conv5_2
I0524 17:38:16.428156 20451 net.cpp:157] Top shape: 1 512 19 19 (184832)
I0524 17:38:16.428159 20451 net.cpp:165] Memory required for data: 218174624
I0524 17:38:16.428180 20451 layer_factory.hpp:77] Creating layer relu5_2
I0524 17:38:16.428187 20451 net.cpp:100] Creating Layer relu5_2
I0524 17:38:16.428191 20451 net.cpp:434] relu5_2 <- conv5_2
I0524 17:38:16.428197 20451 net.cpp:395] relu5_2 -> conv5_2 (in-place)
I0524 17:38:16.428206 20451 net.cpp:150] Setting up relu5_2
I0524 17:38:16.428210 20451 net.cpp:157] Top shape: 1 512 19 19 (184832)
I0524 17:38:16.428215 20451 net.cpp:165] Memory required for data: 218913952
I0524 17:38:16.428217 20451 layer_factory.hpp:77] Creating layer conv5_3
I0524 17:38:16.428228 20451 net.cpp:100] Creating Layer conv5_3
I0524 17:38:16.428233 20451 net.cpp:434] conv5_3 <- conv5_2
I0524 17:38:16.428256 20451 net.cpp:408] conv5_3 -> conv5_3
I0524 17:38:16.440081 20451 net.cpp:150] Setting up conv5_3
I0524 17:38:16.440100 20451 net.cpp:157] Top shape: 1 512 19 19 (184832)
I0524 17:38:16.440102 20451 net.cpp:165] Memory required for data: 219653280
I0524 17:38:16.440124 20451 layer_factory.hpp:77] Creating layer relu5_3
I0524 17:38:16.440150 20451 net.cpp:100] Creating Layer relu5_3
I0524 17:38:16.440155 20451 net.cpp:434] relu5_3 <- conv5_3
I0524 17:38:16.440174 20451 net.cpp:395] relu5_3 -> conv5_3 (in-place)
I0524 17:38:16.440197 20451 net.cpp:150] Setting up relu5_3
I0524 17:38:16.440210 20451 net.cpp:157] Top shape: 1 512 19 19 (184832)
I0524 17:38:16.440214 20451 net.cpp:165] Memory required for data: 220392608
I0524 17:38:16.440235 20451 layer_factory.hpp:77] Creating layer pool5
I0524 17:38:16.440243 20451 net.cpp:100] Creating Layer pool5
I0524 17:38:16.440246 20451 net.cpp:434] pool5 <- conv5_3
I0524 17:38:16.440250 20451 net.cpp:408] pool5 -> pool5
I0524 17:38:16.440285 20451 net.cpp:150] Setting up pool5
I0524 17:38:16.440290 20451 net.cpp:157] Top shape: 1 512 19 19 (184832)
I0524 17:38:16.440294 20451 net.cpp:165] Memory required for data: 221131936
I0524 17:38:16.440295 20451 layer_factory.hpp:77] Creating layer fc6
I0524 17:38:16.440302 20451 net.cpp:100] Creating Layer fc6
I0524 17:38:16.440304 20451 net.cpp:434] fc6 <- pool5
I0524 17:38:16.440313 20451 net.cpp:408] fc6 -> fc6
I0524 17:38:16.463351 20451 net.cpp:150] Setting up fc6
I0524 17:38:16.463367 20451 net.cpp:157] Top shape: 1 1024 19 19 (369664)
I0524 17:38:16.463371 20451 net.cpp:165] Memory required for data: 222610592
I0524 17:38:16.463392 20451 layer_factory.hpp:77] Creating layer relu6
I0524 17:38:16.463399 20451 net.cpp:100] Creating Layer relu6
I0524 17:38:16.463404 20451 net.cpp:434] relu6 <- fc6
I0524 17:38:16.463410 20451 net.cpp:395] relu6 -> fc6 (in-place)
I0524 17:38:16.463438 20451 net.cpp:150] Setting up relu6
I0524 17:38:16.463443 20451 net.cpp:157] Top shape: 1 1024 19 19 (369664)
I0524 17:38:16.463444 20451 net.cpp:165] Memory required for data: 224089248
I0524 17:38:16.463446 20451 layer_factory.hpp:77] Creating layer fc7
I0524 17:38:16.463466 20451 net.cpp:100] Creating Layer fc7
I0524 17:38:16.463469 20451 net.cpp:434] fc7 <- fc6
I0524 17:38:16.463487 20451 net.cpp:408] fc7 -> fc7
I0524 17:38:16.469220 20451 net.cpp:150] Setting up fc7
I0524 17:38:16.469238 20451 net.cpp:157] Top shape: 1 1024 19 19 (369664)
I0524 17:38:16.469240 20451 net.cpp:165] Memory required for data: 225567904
I0524 17:38:16.469247 20451 layer_factory.hpp:77] Creating layer relu7
I0524 17:38:16.469274 20451 net.cpp:100] Creating Layer relu7
I0524 17:38:16.469280 20451 net.cpp:434] relu7 <- fc7
I0524 17:38:16.469283 20451 net.cpp:395] relu7 -> fc7 (in-place)
I0524 17:38:16.469302 20451 net.cpp:150] Setting up relu7
I0524 17:38:16.469307 20451 net.cpp:157] Top shape: 1 1024 19 19 (369664)
I0524 17:38:16.469311 20451 net.cpp:165] Memory required for data: 227046560
I0524 17:38:16.469313 20451 layer_factory.hpp:77] Creating layer fc7_relu7_0_split
I0524 17:38:16.469321 20451 net.cpp:100] Creating Layer fc7_relu7_0_split
I0524 17:38:16.469324 20451 net.cpp:434] fc7_relu7_0_split <- fc7
I0524 17:38:16.469328 20451 net.cpp:408] fc7_relu7_0_split -> fc7_relu7_0_split_0
I0524 17:38:16.469334 20451 net.cpp:408] fc7_relu7_0_split -> fc7_relu7_0_split_1
I0524 17:38:16.469347 20451 net.cpp:408] fc7_relu7_0_split -> fc7_relu7_0_split_2
I0524 17:38:16.469352 20451 net.cpp:408] fc7_relu7_0_split -> fc7_relu7_0_split_3
I0524 17:38:16.469427 20451 net.cpp:150] Setting up fc7_relu7_0_split
I0524 17:38:16.469432 20451 net.cpp:157] Top shape: 1 1024 19 19 (369664)
I0524 17:38:16.469435 20451 net.cpp:157] Top shape: 1 1024 19 19 (369664)
I0524 17:38:16.469437 20451 net.cpp:157] Top shape: 1 1024 19 19 (369664)
I0524 17:38:16.469441 20451 net.cpp:157] Top shape: 1 1024 19 19 (369664)
I0524 17:38:16.469444 20451 net.cpp:165] Memory required for data: 232961184
I0524 17:38:16.469445 20451 layer_factory.hpp:77] Creating layer conv6_1
I0524 17:38:16.469454 20451 net.cpp:100] Creating Layer conv6_1
I0524 17:38:16.469456 20451 net.cpp:434] conv6_1 <- fc7_relu7_0_split_0
I0524 17:38:16.469462 20451 net.cpp:408] conv6_1 -> conv6_1
I0524 17:38:16.471309 20451 net.cpp:150] Setting up conv6_1
I0524 17:38:16.471318 20451 net.cpp:157] Top shape: 1 256 19 19 (92416)
I0524 17:38:16.471321 20451 net.cpp:165] Memory required for data: 233330848
I0524 17:38:16.471325 20451 layer_factory.hpp:77] Creating layer conv6_1_relu
I0524 17:38:16.471330 20451 net.cpp:100] Creating Layer conv6_1_relu
I0524 17:38:16.471333 20451 net.cpp:434] conv6_1_relu <- conv6_1
I0524 17:38:16.471338 20451 net.cpp:395] conv6_1_relu -> conv6_1 (in-place)
I0524 17:38:16.471343 20451 net.cpp:150] Setting up conv6_1_relu
I0524 17:38:16.471348 20451 net.cpp:157] Top shape: 1 256 19 19 (92416)
I0524 17:38:16.471359 20451 net.cpp:165] Memory required for data: 233700512
I0524 17:38:16.471362 20451 layer_factory.hpp:77] Creating layer conv6_2
I0524 17:38:16.471369 20451 net.cpp:100] Creating Layer conv6_2
I0524 17:38:16.471371 20451 net.cpp:434] conv6_2 <- conv6_1
I0524 17:38:16.471376 20451 net.cpp:408] conv6_2 -> conv6_2
I0524 17:38:16.477582 20451 net.cpp:150] Setting up conv6_2
I0524 17:38:16.477601 20451 net.cpp:157] Top shape: 1 512 10 10 (51200)
I0524 17:38:16.477602 20451 net.cpp:165] Memory required for data: 233905312
I0524 17:38:16.477628 20451 layer_factory.hpp:77] Creating layer conv6_2_relu
I0524 17:38:16.477638 20451 net.cpp:100] Creating Layer conv6_2_relu
I0524 17:38:16.477640 20451 net.cpp:434] conv6_2_relu <- conv6_2
I0524 17:38:16.477645 20451 net.cpp:395] conv6_2_relu -> conv6_2 (in-place)
I0524 17:38:16.477651 20451 net.cpp:150] Setting up conv6_2_relu
I0524 17:38:16.477655 20451 net.cpp:157] Top shape: 1 512 10 10 (51200)
I0524 17:38:16.477658 20451 net.cpp:165] Memory required for data: 234110112
I0524 17:38:16.477674 20451 layer_factory.hpp:77] Creating layer conv6_2_conv6_2_relu_0_split
I0524 17:38:16.477680 20451 net.cpp:100] Creating Layer conv6_2_conv6_2_relu_0_split
I0524 17:38:16.477685 20451 net.cpp:434] conv6_2_conv6_2_relu_0_split <- conv6_2
I0524 17:38:16.477690 20451 net.cpp:408] conv6_2_conv6_2_relu_0_split -> conv6_2_conv6_2_relu_0_split_0
I0524 17:38:16.477696 20451 net.cpp:408] conv6_2_conv6_2_relu_0_split -> conv6_2_conv6_2_relu_0_split_1
I0524 17:38:16.477702 20451 net.cpp:408] conv6_2_conv6_2_relu_0_split -> conv6_2_conv6_2_relu_0_split_2
I0524 17:38:16.477708 20451 net.cpp:408] conv6_2_conv6_2_relu_0_split -> conv6_2_conv6_2_relu_0_split_3
I0524 17:38:16.477784 20451 net.cpp:150] Setting up conv6_2_conv6_2_relu_0_split
I0524 17:38:16.477790 20451 net.cpp:157] Top shape: 1 512 10 10 (51200)
I0524 17:38:16.477793 20451 net.cpp:157] Top shape: 1 512 10 10 (51200)
I0524 17:38:16.477797 20451 net.cpp:157] Top shape: 1 512 10 10 (51200)
I0524 17:38:16.477798 20451 net.cpp:157] Top shape: 1 512 10 10 (51200)
I0524 17:38:16.477800 20451 net.cpp:165] Memory required for data: 234929312
I0524 17:38:16.477802 20451 layer_factory.hpp:77] Creating layer conv7_1
I0524 17:38:16.477810 20451 net.cpp:100] Creating Layer conv7_1
I0524 17:38:16.477813 20451 net.cpp:434] conv7_1 <- conv6_2_conv6_2_relu_0_split_0
I0524 17:38:16.477818 20451 net.cpp:408] conv7_1 -> conv7_1
I0524 17:38:16.478271 20451 net.cpp:150] Setting up conv7_1
I0524 17:38:16.478277 20451 net.cpp:157] Top shape: 1 128 10 10 (12800)
I0524 17:38:16.478278 20451 net.cpp:165] Memory required for data: 234980512
I0524 17:38:16.478282 20451 layer_factory.hpp:77] Creating layer conv7_1_relu
I0524 17:38:16.478286 20451 net.cpp:100] Creating Layer conv7_1_relu
I0524 17:38:16.478287 20451 net.cpp:434] conv7_1_relu <- conv7_1
I0524 17:38:16.478291 20451 net.cpp:395] conv7_1_relu -> conv7_1 (in-place)
I0524 17:38:16.478308 20451 net.cpp:150] Setting up conv7_1_relu
I0524 17:38:16.478312 20451 net.cpp:157] Top shape: 1 128 10 10 (12800)
I0524 17:38:16.478317 20451 net.cpp:165] Memory required for data: 235031712
I0524 17:38:16.478322 20451 layer_factory.hpp:77] Creating layer conv7_2
I0524 17:38:16.478344 20451 net.cpp:100] Creating Layer conv7_2
I0524 17:38:16.478361 20451 net.cpp:434] conv7_2 <- conv7_1
I0524 17:38:16.478368 20451 net.cpp:408] conv7_2 -> conv7_2
I0524 17:38:16.480331 20451 net.cpp:150] Setting up conv7_2
I0524 17:38:16.480340 20451 net.cpp:157] Top shape: 1 256 5 5 (6400)
I0524 17:38:16.480343 20451 net.cpp:165] Memory required for data: 235057312
I0524 17:38:16.480350 20451 layer_factory.hpp:77] Creating layer conv7_2_relu
I0524 17:38:16.480371 20451 net.cpp:100] Creating Layer conv7_2_relu
I0524 17:38:16.480376 20451 net.cpp:434] conv7_2_relu <- conv7_2
I0524 17:38:16.480378 20451 net.cpp:395] conv7_2_relu -> conv7_2 (in-place)
I0524 17:38:16.480384 20451 net.cpp:150] Setting up conv7_2_relu
I0524 17:38:16.480387 20451 net.cpp:157] Top shape: 1 256 5 5 (6400)
I0524 17:38:16.480414 20451 net.cpp:165] Memory required for data: 235082912
I0524 17:38:16.480417 20451 layer_factory.hpp:77] Creating layer conv7_2_conv7_2_relu_0_split
I0524 17:38:16.480422 20451 net.cpp:100] Creating Layer conv7_2_conv7_2_relu_0_split
I0524 17:38:16.480425 20451 net.cpp:434] conv7_2_conv7_2_relu_0_split <- conv7_2
I0524 17:38:16.480428 20451 net.cpp:408] conv7_2_conv7_2_relu_0_split -> conv7_2_conv7_2_relu_0_split_0
I0524 17:38:16.480434 20451 net.cpp:408] conv7_2_conv7_2_relu_0_split -> conv7_2_conv7_2_relu_0_split_1
I0524 17:38:16.480440 20451 net.cpp:408] conv7_2_conv7_2_relu_0_split -> conv7_2_conv7_2_relu_0_split_2
I0524 17:38:16.480445 20451 net.cpp:408] conv7_2_conv7_2_relu_0_split -> conv7_2_conv7_2_relu_0_split_3
I0524 17:38:16.480484 20451 net.cpp:150] Setting up conv7_2_conv7_2_relu_0_split
I0524 17:38:16.480489 20451 net.cpp:157] Top shape: 1 256 5 5 (6400)
I0524 17:38:16.480492 20451 net.cpp:157] Top shape: 1 256 5 5 (6400)
I0524 17:38:16.480495 20451 net.cpp:157] Top shape: 1 256 5 5 (6400)
I0524 17:38:16.480497 20451 net.cpp:157] Top shape: 1 256 5 5 (6400)
I0524 17:38:16.480499 20451 net.cpp:165] Memory required for data: 235185312
I0524 17:38:16.480501 20451 layer_factory.hpp:77] Creating layer conv8_1
I0524 17:38:16.480507 20451 net.cpp:100] Creating Layer conv8_1
I0524 17:38:16.480510 20451 net.cpp:434] conv8_1 <- conv7_2_conv7_2_relu_0_split_0
I0524 17:38:16.480515 20451 net.cpp:408] conv8_1 -> conv8_1
I0524 17:38:16.480795 20451 net.cpp:150] Setting up conv8_1
I0524 17:38:16.480800 20451 net.cpp:157] Top shape: 1 128 5 5 (3200)
I0524 17:38:16.480803 20451 net.cpp:165] Memory required for data: 235198112
I0524 17:38:16.480821 20451 layer_factory.hpp:77] Creating layer conv8_1_relu
I0524 17:38:16.480829 20451 net.cpp:100] Creating Layer conv8_1_relu
I0524 17:38:16.480832 20451 net.cpp:434] conv8_1_relu <- conv8_1
I0524 17:38:16.480835 20451 net.cpp:395] conv8_1_relu -> conv8_1 (in-place)
I0524 17:38:16.480839 20451 net.cpp:150] Setting up conv8_1_relu
I0524 17:38:16.480842 20451 net.cpp:157] Top shape: 1 128 5 5 (3200)
I0524 17:38:16.480844 20451 net.cpp:165] Memory required for data: 235210912
I0524 17:38:16.480846 20451 layer_factory.hpp:77] Creating layer conv8_2
I0524 17:38:16.480851 20451 net.cpp:100] Creating Layer conv8_2
I0524 17:38:16.480854 20451 net.cpp:434] conv8_2 <- conv8_1
I0524 17:38:16.480859 20451 net.cpp:408] conv8_2 -> conv8_2
I0524 17:38:16.482762 20451 net.cpp:150] Setting up conv8_2
I0524 17:38:16.482770 20451 net.cpp:157] Top shape: 1 256 3 3 (2304)
I0524 17:38:16.482774 20451 net.cpp:165] Memory required for data: 235220128
I0524 17:38:16.482777 20451 layer_factory.hpp:77] Creating layer conv8_2_relu
I0524 17:38:16.482797 20451 net.cpp:100] Creating Layer conv8_2_relu
I0524 17:38:16.482800 20451 net.cpp:434] conv8_2_relu <- conv8_2
I0524 17:38:16.482805 20451 net.cpp:395] conv8_2_relu -> conv8_2 (in-place)
I0524 17:38:16.482810 20451 net.cpp:150] Setting up conv8_2_relu
I0524 17:38:16.482813 20451 net.cpp:157] Top shape: 1 256 3 3 (2304)
I0524 17:38:16.482815 20451 net.cpp:165] Memory required for data: 235229344
I0524 17:38:16.482817 20451 layer_factory.hpp:77] Creating layer conv8_2_conv8_2_relu_0_split
I0524 17:38:16.482821 20451 net.cpp:100] Creating Layer conv8_2_conv8_2_relu_0_split
I0524 17:38:16.482839 20451 net.cpp:434] conv8_2_conv8_2_relu_0_split <- conv8_2
I0524 17:38:16.482846 20451 net.cpp:408] conv8_2_conv8_2_relu_0_split -> conv8_2_conv8_2_relu_0_split_0
I0524 17:38:16.482856 20451 net.cpp:408] conv8_2_conv8_2_relu_0_split -> conv8_2_conv8_2_relu_0_split_1
I0524 17:38:16.482862 20451 net.cpp:408] conv8_2_conv8_2_relu_0_split -> conv8_2_conv8_2_relu_0_split_2
I0524 17:38:16.482869 20451 net.cpp:408] conv8_2_conv8_2_relu_0_split -> conv8_2_conv8_2_relu_0_split_3
I0524 17:38:16.482913 20451 net.cpp:150] Setting up conv8_2_conv8_2_relu_0_split
I0524 17:38:16.482919 20451 net.cpp:157] Top shape: 1 256 3 3 (2304)
I0524 17:38:16.482924 20451 net.cpp:157] Top shape: 1 256 3 3 (2304)
I0524 17:38:16.482929 20451 net.cpp:157] Top shape: 1 256 3 3 (2304)
I0524 17:38:16.482941 20451 net.cpp:157] Top shape: 1 256 3 3 (2304)
I0524 17:38:16.482945 20451 net.cpp:165] Memory required for data: 235266208
I0524 17:38:16.482950 20451 layer_factory.hpp:77] Creating layer conv9_1
I0524 17:38:16.482959 20451 net.cpp:100] Creating Layer conv9_1
I0524 17:38:16.482962 20451 net.cpp:434] conv9_1 <- conv8_2_conv8_2_relu_0_split_0
I0524 17:38:16.482969 20451 net.cpp:408] conv9_1 -> conv9_1
I0524 17:38:16.483244 20451 net.cpp:150] Setting up conv9_1
I0524 17:38:16.483249 20451 net.cpp:157] Top shape: 1 128 3 3 (1152)
I0524 17:38:16.483252 20451 net.cpp:165] Memory required for data: 235270816
I0524 17:38:16.483255 20451 layer_factory.hpp:77] Creating layer conv9_1_relu
I0524 17:38:16.483259 20451 net.cpp:100] Creating Layer conv9_1_relu
I0524 17:38:16.483263 20451 net.cpp:434] conv9_1_relu <- conv9_1
I0524 17:38:16.483268 20451 net.cpp:395] conv9_1_relu -> conv9_1 (in-place)
I0524 17:38:16.483271 20451 net.cpp:150] Setting up conv9_1_relu
I0524 17:38:16.483275 20451 net.cpp:157] Top shape: 1 128 3 3 (1152)
I0524 17:38:16.483278 20451 net.cpp:165] Memory required for data: 235275424
I0524 17:38:16.483279 20451 layer_factory.hpp:77] Creating layer conv9_2
I0524 17:38:16.483284 20451 net.cpp:100] Creating Layer conv9_2
I0524 17:38:16.483289 20451 net.cpp:434] conv9_2 <- conv9_1
I0524 17:38:16.483295 20451 net.cpp:408] conv9_2 -> conv9_2
I0524 17:38:16.485203 20451 net.cpp:150] Setting up conv9_2
I0524 17:38:16.485214 20451 net.cpp:157] Top shape: 1 256 1 1 (256)
I0524 17:38:16.485218 20451 net.cpp:165] Memory required for data: 235276448
I0524 17:38:16.485225 20451 layer_factory.hpp:77] Creating layer conv9_2_relu
I0524 17:38:16.485231 20451 net.cpp:100] Creating Layer conv9_2_relu
I0524 17:38:16.485235 20451 net.cpp:434] conv9_2_relu <- conv9_2
I0524 17:38:16.485241 20451 net.cpp:395] conv9_2_relu -> conv9_2 (in-place)
I0524 17:38:16.485247 20451 net.cpp:150] Setting up conv9_2_relu
I0524 17:38:16.485256 20451 net.cpp:157] Top shape: 1 256 1 1 (256)
I0524 17:38:16.485260 20451 net.cpp:165] Memory required for data: 235277472
I0524 17:38:16.485261 20451 layer_factory.hpp:77] Creating layer conv9_2_conv9_2_relu_0_split
I0524 17:38:16.485265 20451 net.cpp:100] Creating Layer conv9_2_conv9_2_relu_0_split
I0524 17:38:16.485267 20451 net.cpp:434] conv9_2_conv9_2_relu_0_split <- conv9_2
I0524 17:38:16.485270 20451 net.cpp:408] conv9_2_conv9_2_relu_0_split -> conv9_2_conv9_2_relu_0_split_0
I0524 17:38:16.485277 20451 net.cpp:408] conv9_2_conv9_2_relu_0_split -> conv9_2_conv9_2_relu_0_split_1
I0524 17:38:16.485285 20451 net.cpp:408] conv9_2_conv9_2_relu_0_split -> conv9_2_conv9_2_relu_0_split_2
I0524 17:38:16.485323 20451 net.cpp:150] Setting up conv9_2_conv9_2_relu_0_split
I0524 17:38:16.485328 20451 net.cpp:157] Top shape: 1 256 1 1 (256)
I0524 17:38:16.485334 20451 net.cpp:157] Top shape: 1 256 1 1 (256)
I0524 17:38:16.485338 20451 net.cpp:157] Top shape: 1 256 1 1 (256)
I0524 17:38:16.485342 20451 net.cpp:165] Memory required for data: 235280544
I0524 17:38:16.485345 20451 layer_factory.hpp:77] Creating layer conv4_3_norm
I0524 17:38:16.485352 20451 net.cpp:100] Creating Layer conv4_3_norm
I0524 17:38:16.485357 20451 net.cpp:434] conv4_3_norm <- conv4_3_relu4_3_0_split_1
I0524 17:38:16.485363 20451 net.cpp:408] conv4_3_norm -> conv4_3_norm
I0524 17:38:16.485471 20451 net.cpp:150] Setting up conv4_3_norm
I0524 17:38:16.485476 20451 net.cpp:157] Top shape: 1 512 38 38 (739328)
I0524 17:38:16.485481 20451 net.cpp:165] Memory required for data: 238237856
I0524 17:38:16.485483 20451 layer_factory.hpp:77] Creating layer conv4_3_norm_conv4_3_norm_0_split
I0524 17:38:16.485486 20451 net.cpp:100] Creating Layer conv4_3_norm_conv4_3_norm_0_split
I0524 17:38:16.485491 20451 net.cpp:434] conv4_3_norm_conv4_3_norm_0_split <- conv4_3_norm
I0524 17:38:16.485494 20451 net.cpp:408] conv4_3_norm_conv4_3_norm_0_split -> conv4_3_norm_conv4_3_norm_0_split_0
I0524 17:38:16.485498 20451 net.cpp:408] conv4_3_norm_conv4_3_norm_0_split -> conv4_3_norm_conv4_3_norm_0_split_1
I0524 17:38:16.485503 20451 net.cpp:408] conv4_3_norm_conv4_3_norm_0_split -> conv4_3_norm_conv4_3_norm_0_split_2
I0524 17:38:16.485541 20451 net.cpp:150] Setting up conv4_3_norm_conv4_3_norm_0_split
I0524 17:38:16.485545 20451 net.cpp:157] Top shape: 1 512 38 38 (739328)
I0524 17:38:16.485548 20451 net.cpp:157] Top shape: 1 512 38 38 (739328)
I0524 17:38:16.485551 20451 net.cpp:157] Top shape: 1 512 38 38 (739328)
I0524 17:38:16.485553 20451 net.cpp:165] Memory required for data: 247109792
I0524 17:38:16.485555 20451 layer_factory.hpp:77] Creating layer conv4_3_norm_mbox_loc
I0524 17:38:16.485561 20451 net.cpp:100] Creating Layer conv4_3_norm_mbox_loc
I0524 17:38:16.485565 20451 net.cpp:434] conv4_3_norm_mbox_loc <- conv4_3_norm_conv4_3_norm_0_split_0
I0524 17:38:16.485569 20451 net.cpp:408] conv4_3_norm_mbox_loc -> conv4_3_norm_mbox_loc
I0524 17:38:16.486044 20451 net.cpp:150] Setting up conv4_3_norm_mbox_loc
I0524 17:38:16.486050 20451 net.cpp:157] Top shape: 1 16 38 38 (23104)
I0524 17:38:16.486053 20451 net.cpp:165] Memory required for data: 247202208
I0524 17:38:16.486057 20451 layer_factory.hpp:77] Creating layer conv4_3_norm_mbox_loc_perm
I0524 17:38:16.486063 20451 net.cpp:100] Creating Layer conv4_3_norm_mbox_loc_perm
I0524 17:38:16.486083 20451 net.cpp:434] conv4_3_norm_mbox_loc_perm <- conv4_3_norm_mbox_loc
I0524 17:38:16.486086 20451 net.cpp:408] conv4_3_norm_mbox_loc_perm -> conv4_3_norm_mbox_loc_perm
I0524 17:38:16.486165 20451 net.cpp:150] Setting up conv4_3_norm_mbox_loc_perm
I0524 17:38:16.486181 20451 net.cpp:157] Top shape: 1 38 38 16 (23104)
I0524 17:38:16.486184 20451 net.cpp:165] Memory required for data: 247294624
I0524 17:38:16.486186 20451 layer_factory.hpp:77] Creating layer conv4_3_norm_mbox_loc_flat
I0524 17:38:16.486191 20451 net.cpp:100] Creating Layer conv4_3_norm_mbox_loc_flat
I0524 17:38:16.486194 20451 net.cpp:434] conv4_3_norm_mbox_loc_flat <- conv4_3_norm_mbox_loc_perm
I0524 17:38:16.486197 20451 net.cpp:408] conv4_3_norm_mbox_loc_flat -> conv4_3_norm_mbox_loc_flat
I0524 17:38:16.486251 20451 net.cpp:150] Setting up conv4_3_norm_mbox_loc_flat
I0524 17:38:16.486256 20451 net.cpp:157] Top shape: 1 23104 (23104)
I0524 17:38:16.486259 20451 net.cpp:165] Memory required for data: 247387040
I0524 17:38:16.486261 20451 layer_factory.hpp:77] Creating layer conv4_3_norm_mbox_conf
I0524 17:38:16.486273 20451 net.cpp:100] Creating Layer conv4_3_norm_mbox_conf
I0524 17:38:16.486276 20451 net.cpp:434] conv4_3_norm_mbox_conf <- conv4_3_norm_conv4_3_norm_0_split_1
I0524 17:38:16.486279 20451 net.cpp:408] conv4_3_norm_mbox_conf -> conv4_3_norm_mbox_conf
I0524 17:38:16.488554 20451 net.cpp:150] Setting up conv4_3_norm_mbox_conf
I0524 17:38:16.488562 20451 net.cpp:157] Top shape: 1 84 38 38 (121296)
I0524 17:38:16.488565 20451 net.cpp:165] Memory required for data: 247872224
I0524 17:38:16.488569 20451 layer_factory.hpp:77] Creating layer conv4_3_norm_mbox_conf_perm
I0524 17:38:16.488575 20451 net.cpp:100] Creating Layer conv4_3_norm_mbox_conf_perm
I0524 17:38:16.488579 20451 net.cpp:434] conv4_3_norm_mbox_conf_perm <- conv4_3_norm_mbox_conf
I0524 17:38:16.488596 20451 net.cpp:408] conv4_3_norm_mbox_conf_perm -> conv4_3_norm_mbox_conf_perm
I0524 17:38:16.488673 20451 net.cpp:150] Setting up conv4_3_norm_mbox_conf_perm
I0524 17:38:16.488678 20451 net.cpp:157] Top shape: 1 38 38 84 (121296)
I0524 17:38:16.488680 20451 net.cpp:165] Memory required for data: 248357408
I0524 17:38:16.488682 20451 layer_factory.hpp:77] Creating layer conv4_3_norm_mbox_conf_flat
I0524 17:38:16.488687 20451 net.cpp:100] Creating Layer conv4_3_norm_mbox_conf_flat
I0524 17:38:16.488689 20451 net.cpp:434] conv4_3_norm_mbox_conf_flat <- conv4_3_norm_mbox_conf_perm
I0524 17:38:16.488693 20451 net.cpp:408] conv4_3_norm_mbox_conf_flat -> conv4_3_norm_mbox_conf_flat
I0524 17:38:16.488723 20451 net.cpp:150] Setting up conv4_3_norm_mbox_conf_flat
I0524 17:38:16.488729 20451 net.cpp:157] Top shape: 1 121296 (121296)
I0524 17:38:16.488730 20451 net.cpp:165] Memory required for data: 248842592
I0524 17:38:16.488732 20451 layer_factory.hpp:77] Creating layer conv4_3_norm_mbox_priorbox
I0524 17:38:16.488746 20451 net.cpp:100] Creating Layer conv4_3_norm_mbox_priorbox
I0524 17:38:16.488749 20451 net.cpp:434] conv4_3_norm_mbox_priorbox <- conv4_3_norm_conv4_3_norm_0_split_2
I0524 17:38:16.488754 20451 net.cpp:434] conv4_3_norm_mbox_priorbox <- data_data_0_split_1
I0524 17:38:16.488771 20451 net.cpp:408] conv4_3_norm_mbox_priorbox -> conv4_3_norm_mbox_priorbox
I0524 17:38:16.488792 20451 net.cpp:150] Setting up conv4_3_norm_mbox_priorbox
I0524 17:38:16.488797 20451 net.cpp:157] Top shape: 1 2 23104 (46208)
I0524 17:38:16.488800 20451 net.cpp:165] Memory required for data: 249027424
I0524 17:38:16.488801 20451 layer_factory.hpp:77] Creating layer fc7_mbox_loc
I0524 17:38:16.488807 20451 net.cpp:100] Creating Layer fc7_mbox_loc
I0524 17:38:16.488811 20451 net.cpp:434] fc7_mbox_loc <- fc7_relu7_0_split_1
I0524 17:38:16.488816 20451 net.cpp:408] fc7_mbox_loc -> fc7_mbox_loc
I0524 17:38:16.489941 20451 net.cpp:150] Setting up fc7_mbox_loc
I0524 17:38:16.489951 20451 net.cpp:157] Top shape: 1 24 19 19 (8664)
I0524 17:38:16.489953 20451 net.cpp:165] Memory required for data: 249062080
I0524 17:38:16.489959 20451 layer_factory.hpp:77] Creating layer fc7_mbox_loc_perm
I0524 17:38:16.489962 20451 net.cpp:100] Creating Layer fc7_mbox_loc_perm
I0524 17:38:16.489982 20451 net.cpp:434] fc7_mbox_loc_perm <- fc7_mbox_loc
I0524 17:38:16.489987 20451 net.cpp:408] fc7_mbox_loc_perm -> fc7_mbox_loc_perm
I0524 17:38:16.490100 20451 net.cpp:150] Setting up fc7_mbox_loc_perm
I0524 17:38:16.490123 20451 net.cpp:157] Top shape: 1 19 19 24 (8664)
I0524 17:38:16.490124 20451 net.cpp:165] Memory required for data: 249096736
I0524 17:38:16.490128 20451 layer_factory.hpp:77] Creating layer fc7_mbox_loc_flat
I0524 17:38:16.490131 20451 net.cpp:100] Creating Layer fc7_mbox_loc_flat
I0524 17:38:16.490134 20451 net.cpp:434] fc7_mbox_loc_flat <- fc7_mbox_loc_perm
I0524 17:38:16.490139 20451 net.cpp:408] fc7_mbox_loc_flat -> fc7_mbox_loc_flat
I0524 17:38:16.490155 20451 net.cpp:150] Setting up fc7_mbox_loc_flat
I0524 17:38:16.490159 20451 net.cpp:157] Top shape: 1 8664 (8664)
I0524 17:38:16.490161 20451 net.cpp:165] Memory required for data: 249131392
I0524 17:38:16.490164 20451 layer_factory.hpp:77] Creating layer fc7_mbox_conf
I0524 17:38:16.490170 20451 net.cpp:100] Creating Layer fc7_mbox_conf
I0524 17:38:16.490173 20451 net.cpp:434] fc7_mbox_conf <- fc7_relu7_0_split_2
I0524 17:38:16.490177 20451 net.cpp:408] fc7_mbox_conf -> fc7_mbox_conf
I0524 17:38:16.496932 20451 net.cpp:150] Setting up fc7_mbox_conf
I0524 17:38:16.496951 20451 net.cpp:157] Top shape: 1 126 19 19 (45486)
I0524 17:38:16.496954 20451 net.cpp:165] Memory required for data: 249313336
I0524 17:38:16.496963 20451 layer_factory.hpp:77] Creating layer fc7_mbox_conf_perm
I0524 17:38:16.496970 20451 net.cpp:100] Creating Layer fc7_mbox_conf_perm
I0524 17:38:16.496978 20451 net.cpp:434] fc7_mbox_conf_perm <- fc7_mbox_conf
I0524 17:38:16.496984 20451 net.cpp:408] fc7_mbox_conf_perm -> fc7_mbox_conf_perm
I0524 17:38:16.497069 20451 net.cpp:150] Setting up fc7_mbox_conf_perm
I0524 17:38:16.497087 20451 net.cpp:157] Top shape: 1 19 19 126 (45486)
I0524 17:38:16.497089 20451 net.cpp:165] Memory required for data: 249495280
I0524 17:38:16.497092 20451 layer_factory.hpp:77] Creating layer fc7_mbox_conf_flat
I0524 17:38:16.497112 20451 net.cpp:100] Creating Layer fc7_mbox_conf_flat
I0524 17:38:16.497114 20451 net.cpp:434] fc7_mbox_conf_flat <- fc7_mbox_conf_perm
I0524 17:38:16.497119 20451 net.cpp:408] fc7_mbox_conf_flat -> fc7_mbox_conf_flat
I0524 17:38:16.497151 20451 net.cpp:150] Setting up fc7_mbox_conf_flat
I0524 17:38:16.497155 20451 net.cpp:157] Top shape: 1 45486 (45486)
I0524 17:38:16.497158 20451 net.cpp:165] Memory required for data: 249677224
I0524 17:38:16.497160 20451 layer_factory.hpp:77] Creating layer fc7_mbox_priorbox
I0524 17:38:16.497167 20451 net.cpp:100] Creating Layer fc7_mbox_priorbox
I0524 17:38:16.497172 20451 net.cpp:434] fc7_mbox_priorbox <- fc7_relu7_0_split_3
I0524 17:38:16.497176 20451 net.cpp:434] fc7_mbox_priorbox <- data_data_0_split_2
I0524 17:38:16.497184 20451 net.cpp:408] fc7_mbox_priorbox -> fc7_mbox_priorbox
I0524 17:38:16.497211 20451 net.cpp:150] Setting up fc7_mbox_priorbox
I0524 17:38:16.497217 20451 net.cpp:157] Top shape: 1 2 8664 (17328)
I0524 17:38:16.497233 20451 net.cpp:165] Memory required for data: 249746536
I0524 17:38:16.497237 20451 layer_factory.hpp:77] Creating layer conv6_2_mbox_loc
I0524 17:38:16.497269 20451 net.cpp:100] Creating Layer conv6_2_mbox_loc
I0524 17:38:16.497274 20451 net.cpp:434] conv6_2_mbox_loc <- conv6_2_conv6_2_relu_0_split_1
I0524 17:38:16.497280 20451 net.cpp:408] conv6_2_mbox_loc -> conv6_2_mbox_loc
I0524 17:38:16.497961 20451 net.cpp:150] Setting up conv6_2_mbox_loc
I0524 17:38:16.497968 20451 net.cpp:157] Top shape: 1 24 10 10 (2400)
I0524 17:38:16.497972 20451 net.cpp:165] Memory required for data: 249756136
I0524 17:38:16.497977 20451 layer_factory.hpp:77] Creating layer conv6_2_mbox_loc_perm
I0524 17:38:16.497985 20451 net.cpp:100] Creating Layer conv6_2_mbox_loc_perm
I0524 17:38:16.497989 20451 net.cpp:434] conv6_2_mbox_loc_perm <- conv6_2_mbox_loc
I0524 17:38:16.498009 20451 net.cpp:408] conv6_2_mbox_loc_perm -> conv6_2_mbox_loc_perm
I0524 17:38:16.498086 20451 net.cpp:150] Setting up conv6_2_mbox_loc_perm
I0524 17:38:16.498092 20451 net.cpp:157] Top shape: 1 10 10 24 (2400)
I0524 17:38:16.498095 20451 net.cpp:165] Memory required for data: 249765736
I0524 17:38:16.498097 20451 layer_factory.hpp:77] Creating layer conv6_2_mbox_loc_flat
I0524 17:38:16.498102 20451 net.cpp:100] Creating Layer conv6_2_mbox_loc_flat
I0524 17:38:16.498107 20451 net.cpp:434] conv6_2_mbox_loc_flat <- conv6_2_mbox_loc_perm
I0524 17:38:16.498112 20451 net.cpp:408] conv6_2_mbox_loc_flat -> conv6_2_mbox_loc_flat
I0524 17:38:16.498131 20451 net.cpp:150] Setting up conv6_2_mbox_loc_flat
I0524 17:38:16.498134 20451 net.cpp:157] Top shape: 1 2400 (2400)
I0524 17:38:16.498137 20451 net.cpp:165] Memory required for data: 249775336
I0524 17:38:16.498142 20451 layer_factory.hpp:77] Creating layer conv6_2_mbox_conf
I0524 17:38:16.498149 20451 net.cpp:100] Creating Layer conv6_2_mbox_conf
I0524 17:38:16.498152 20451 net.cpp:434] conv6_2_mbox_conf <- conv6_2_conv6_2_relu_0_split_2
I0524 17:38:16.498174 20451 net.cpp:408] conv6_2_mbox_conf -> conv6_2_mbox_conf
I0524 17:38:16.501703 20451 net.cpp:150] Setting up conv6_2_mbox_conf
I0524 17:38:16.501729 20451 net.cpp:157] Top shape: 1 126 10 10 (12600)
I0524 17:38:16.501734 20451 net.cpp:165] Memory required for data: 249825736
I0524 17:38:16.501744 20451 layer_factory.hpp:77] Creating layer conv6_2_mbox_conf_perm
I0524 17:38:16.501754 20451 net.cpp:100] Creating Layer conv6_2_mbox_conf_perm
I0524 17:38:16.501773 20451 net.cpp:434] conv6_2_mbox_conf_perm <- conv6_2_mbox_conf
I0524 17:38:16.501781 20451 net.cpp:408] conv6_2_mbox_conf_perm -> conv6_2_mbox_conf_perm
I0524 17:38:16.501906 20451 net.cpp:150] Setting up conv6_2_mbox_conf_perm
I0524 17:38:16.501914 20451 net.cpp:157] Top shape: 1 10 10 126 (12600)
I0524 17:38:16.501917 20451 net.cpp:165] Memory required for data: 249876136
I0524 17:38:16.501921 20451 layer_factory.hpp:77] Creating layer conv6_2_mbox_conf_flat
I0524 17:38:16.501929 20451 net.cpp:100] Creating Layer conv6_2_mbox_conf_flat
I0524 17:38:16.501934 20451 net.cpp:434] conv6_2_mbox_conf_flat <- conv6_2_mbox_conf_perm
I0524 17:38:16.501940 20451 net.cpp:408] conv6_2_mbox_conf_flat -> conv6_2_mbox_conf_flat
I0524 17:38:16.501977 20451 net.cpp:150] Setting up conv6_2_mbox_conf_flat
I0524 17:38:16.501996 20451 net.cpp:157] Top shape: 1 12600 (12600)
I0524 17:38:16.501999 20451 net.cpp:165] Memory required for data: 249926536
I0524 17:38:16.502002 20451 layer_factory.hpp:77] Creating layer conv6_2_mbox_priorbox
I0524 17:38:16.502010 20451 net.cpp:100] Creating Layer conv6_2_mbox_priorbox
I0524 17:38:16.502014 20451 net.cpp:434] conv6_2_mbox_priorbox <- conv6_2_conv6_2_relu_0_split_3
I0524 17:38:16.502020 20451 net.cpp:434] conv6_2_mbox_priorbox <- data_data_0_split_3
I0524 17:38:16.502027 20451 net.cpp:408] conv6_2_mbox_priorbox -> conv6_2_mbox_priorbox
I0524 17:38:16.502053 20451 net.cpp:150] Setting up conv6_2_mbox_priorbox
I0524 17:38:16.502079 20451 net.cpp:157] Top shape: 1 2 2400 (4800)
I0524 17:38:16.502082 20451 net.cpp:165] Memory required for data: 249945736
I0524 17:38:16.502085 20451 layer_factory.hpp:77] Creating layer conv7_2_mbox_loc
I0524 17:38:16.502097 20451 net.cpp:100] Creating Layer conv7_2_mbox_loc
I0524 17:38:16.502123 20451 net.cpp:434] conv7_2_mbox_loc <- conv7_2_conv7_2_relu_0_split_1
I0524 17:38:16.502130 20451 net.cpp:408] conv7_2_mbox_loc -> conv7_2_mbox_loc
I0524 17:38:16.502933 20451 net.cpp:150] Setting up conv7_2_mbox_loc
I0524 17:38:16.502945 20451 net.cpp:157] Top shape: 1 24 5 5 (600)
I0524 17:38:16.502949 20451 net.cpp:165] Memory required for data: 249948136
I0524 17:38:16.502957 20451 layer_factory.hpp:77] Creating layer conv7_2_mbox_loc_perm
I0524 17:38:16.502980 20451 net.cpp:100] Creating Layer conv7_2_mbox_loc_perm
I0524 17:38:16.502986 20451 net.cpp:434] conv7_2_mbox_loc_perm <- conv7_2_mbox_loc
I0524 17:38:16.503005 20451 net.cpp:408] conv7_2_mbox_loc_perm -> conv7_2_mbox_loc_perm
I0524 17:38:16.503149 20451 net.cpp:150] Setting up conv7_2_mbox_loc_perm
I0524 17:38:16.503155 20451 net.cpp:157] Top shape: 1 5 5 24 (600)
I0524 17:38:16.503159 20451 net.cpp:165] Memory required for data: 249950536
I0524 17:38:16.503161 20451 layer_factory.hpp:77] Creating layer conv7_2_mbox_loc_flat
I0524 17:38:16.503182 20451 net.cpp:100] Creating Layer conv7_2_mbox_loc_flat
I0524 17:38:16.503187 20451 net.cpp:434] conv7_2_mbox_loc_flat <- conv7_2_mbox_loc_perm
I0524 17:38:16.503208 20451 net.cpp:408] conv7_2_mbox_loc_flat -> conv7_2_mbox_loc_flat
I0524 17:38:16.503259 20451 net.cpp:150] Setting up conv7_2_mbox_loc_flat
I0524 17:38:16.503265 20451 net.cpp:157] Top shape: 1 600 (600)
I0524 17:38:16.503269 20451 net.cpp:165] Memory required for data: 249952936
I0524 17:38:16.503273 20451 layer_factory.hpp:77] Creating layer conv7_2_mbox_conf
I0524 17:38:16.503296 20451 net.cpp:100] Creating Layer conv7_2_mbox_conf
I0524 17:38:16.503303 20451 net.cpp:434] conv7_2_mbox_conf <- conv7_2_conv7_2_relu_0_split_2
I0524 17:38:16.503309 20451 net.cpp:408] conv7_2_mbox_conf -> conv7_2_mbox_conf
I0524 17:38:16.506443 20451 net.cpp:150] Setting up conv7_2_mbox_conf
I0524 17:38:16.506474 20451 net.cpp:157] Top shape: 1 126 5 5 (3150)
I0524 17:38:16.506494 20451 net.cpp:165] Memory required for data: 249965536
I0524 17:38:16.506502 20451 layer_factory.hpp:77] Creating layer conv7_2_mbox_conf_perm
I0524 17:38:16.506513 20451 net.cpp:100] Creating Layer conv7_2_mbox_conf_perm
I0524 17:38:16.506532 20451 net.cpp:434] conv7_2_mbox_conf_perm <- conv7_2_mbox_conf
I0524 17:38:16.506544 20451 net.cpp:408] conv7_2_mbox_conf_perm -> conv7_2_mbox_conf_perm
I0524 17:38:16.506646 20451 net.cpp:150] Setting up conv7_2_mbox_conf_perm
I0524 17:38:16.506654 20451 net.cpp:157] Top shape: 1 5 5 126 (3150)
I0524 17:38:16.506669 20451 net.cpp:165] Memory required for data: 249978136
I0524 17:38:16.506672 20451 layer_factory.hpp:77] Creating layer conv7_2_mbox_conf_flat
I0524 17:38:16.506695 20451 net.cpp:100] Creating Layer conv7_2_mbox_conf_flat
I0524 17:38:16.506698 20451 net.cpp:434] conv7_2_mbox_conf_flat <- conv7_2_mbox_conf_perm
I0524 17:38:16.506703 20451 net.cpp:408] conv7_2_mbox_conf_flat -> conv7_2_mbox_conf_flat
I0524 17:38:16.506772 20451 net.cpp:150] Setting up conv7_2_mbox_conf_flat
I0524 17:38:16.506778 20451 net.cpp:157] Top shape: 1 3150 (3150)
I0524 17:38:16.506781 20451 net.cpp:165] Memory required for data: 249990736
I0524 17:38:16.506783 20451 layer_factory.hpp:77] Creating layer conv7_2_mbox_priorbox
I0524 17:38:16.506808 20451 net.cpp:100] Creating Layer conv7_2_mbox_priorbox
I0524 17:38:16.506811 20451 net.cpp:434] conv7_2_mbox_priorbox <- conv7_2_conv7_2_relu_0_split_3
I0524 17:38:16.506816 20451 net.cpp:434] conv7_2_mbox_priorbox <- data_data_0_split_4
I0524 17:38:16.506824 20451 net.cpp:408] conv7_2_mbox_priorbox -> conv7_2_mbox_priorbox
I0524 17:38:16.506861 20451 net.cpp:150] Setting up conv7_2_mbox_priorbox
I0524 17:38:16.506867 20451 net.cpp:157] Top shape: 1 2 600 (1200)
I0524 17:38:16.506870 20451 net.cpp:165] Memory required for data: 249995536
I0524 17:38:16.506886 20451 layer_factory.hpp:77] Creating layer conv8_2_mbox_loc
I0524 17:38:16.506903 20451 net.cpp:100] Creating Layer conv8_2_mbox_loc
I0524 17:38:16.506907 20451 net.cpp:434] conv8_2_mbox_loc <- conv8_2_conv8_2_relu_0_split_1
I0524 17:38:16.506914 20451 net.cpp:408] conv8_2_mbox_loc -> conv8_2_mbox_loc
I0524 17:38:16.507388 20451 net.cpp:150] Setting up conv8_2_mbox_loc
I0524 17:38:16.507400 20451 net.cpp:157] Top shape: 1 16 3 3 (144)
I0524 17:38:16.507403 20451 net.cpp:165] Memory required for data: 249996112
I0524 17:38:16.507419 20451 layer_factory.hpp:77] Creating layer conv8_2_mbox_loc_perm
I0524 17:38:16.507427 20451 net.cpp:100] Creating Layer conv8_2_mbox_loc_perm
I0524 17:38:16.507432 20451 net.cpp:434] conv8_2_mbox_loc_perm <- conv8_2_mbox_loc
I0524 17:38:16.507438 20451 net.cpp:408] conv8_2_mbox_loc_perm -> conv8_2_mbox_loc_perm
I0524 17:38:16.507530 20451 net.cpp:150] Setting up conv8_2_mbox_loc_perm
I0524 17:38:16.507539 20451 net.cpp:157] Top shape: 1 3 3 16 (144)
I0524 17:38:16.507544 20451 net.cpp:165] Memory required for data: 249996688
I0524 17:38:16.507546 20451 layer_factory.hpp:77] Creating layer conv8_2_mbox_loc_flat
I0524 17:38:16.507553 20451 net.cpp:100] Creating Layer conv8_2_mbox_loc_flat
I0524 17:38:16.507558 20451 net.cpp:434] conv8_2_mbox_loc_flat <- conv8_2_mbox_loc_perm
I0524 17:38:16.507565 20451 net.cpp:408] conv8_2_mbox_loc_flat -> conv8_2_mbox_loc_flat
I0524 17:38:16.507588 20451 net.cpp:150] Setting up conv8_2_mbox_loc_flat
I0524 17:38:16.507594 20451 net.cpp:157] Top shape: 1 144 (144)
I0524 17:38:16.507598 20451 net.cpp:165] Memory required for data: 249997264
I0524 17:38:16.507601 20451 layer_factory.hpp:77] Creating layer conv8_2_mbox_conf
I0524 17:38:16.507611 20451 net.cpp:100] Creating Layer conv8_2_mbox_conf
I0524 17:38:16.507616 20451 net.cpp:434] conv8_2_mbox_conf <- conv8_2_conv8_2_relu_0_split_2
I0524 17:38:16.507624 20451 net.cpp:408] conv8_2_mbox_conf -> conv8_2_mbox_conf
I0524 17:38:16.509368 20451 net.cpp:150] Setting up conv8_2_mbox_conf
I0524 17:38:16.509387 20451 net.cpp:157] Top shape: 1 84 3 3 (756)
I0524 17:38:16.509390 20451 net.cpp:165] Memory required for data: 250000288
I0524 17:38:16.509413 20451 layer_factory.hpp:77] Creating layer conv8_2_mbox_conf_perm
I0524 17:38:16.509423 20451 net.cpp:100] Creating Layer conv8_2_mbox_conf_perm
I0524 17:38:16.509428 20451 net.cpp:434] conv8_2_mbox_conf_perm <- conv8_2_mbox_conf
I0524 17:38:16.509451 20451 net.cpp:408] conv8_2_mbox_conf_perm -> conv8_2_mbox_conf_perm
I0524 17:38:16.509623 20451 net.cpp:150] Setting up conv8_2_mbox_conf_perm
I0524 17:38:16.509630 20451 net.cpp:157] Top shape: 1 3 3 84 (756)
I0524 17:38:16.509634 20451 net.cpp:165] Memory required for data: 250003312
I0524 17:38:16.509649 20451 layer_factory.hpp:77] Creating layer conv8_2_mbox_conf_flat
I0524 17:38:16.509654 20451 net.cpp:100] Creating Layer conv8_2_mbox_conf_flat
I0524 17:38:16.509670 20451 net.cpp:434] conv8_2_mbox_conf_flat <- conv8_2_mbox_conf_perm
I0524 17:38:16.509676 20451 net.cpp:408] conv8_2_mbox_conf_flat -> conv8_2_mbox_conf_flat
I0524 17:38:16.509726 20451 net.cpp:150] Setting up conv8_2_mbox_conf_flat
I0524 17:38:16.509745 20451 net.cpp:157] Top shape: 1 756 (756)
I0524 17:38:16.509749 20451 net.cpp:165] Memory required for data: 250006336
I0524 17:38:16.509752 20451 layer_factory.hpp:77] Creating layer conv8_2_mbox_priorbox
I0524 17:38:16.509770 20451 net.cpp:100] Creating Layer conv8_2_mbox_priorbox
I0524 17:38:16.509775 20451 net.cpp:434] conv8_2_mbox_priorbox <- conv8_2_conv8_2_relu_0_split_3
I0524 17:38:16.509795 20451 net.cpp:434] conv8_2_mbox_priorbox <- data_data_0_split_5
I0524 17:38:16.509804 20451 net.cpp:408] conv8_2_mbox_priorbox -> conv8_2_mbox_priorbox
I0524 17:38:16.509857 20451 net.cpp:150] Setting up conv8_2_mbox_priorbox
I0524 17:38:16.509879 20451 net.cpp:157] Top shape: 1 2 144 (288)
I0524 17:38:16.509883 20451 net.cpp:165] Memory required for data: 250007488
I0524 17:38:16.509887 20451 layer_factory.hpp:77] Creating layer conv9_2_mbox_loc
I0524 17:38:16.509949 20451 net.cpp:100] Creating Layer conv9_2_mbox_loc
I0524 17:38:16.509954 20451 net.cpp:434] conv9_2_mbox_loc <- conv9_2_conv9_2_relu_0_split_0
I0524 17:38:16.509975 20451 net.cpp:408] conv9_2_mbox_loc -> conv9_2_mbox_loc
I0524 17:38:16.510444 20451 net.cpp:150] Setting up conv9_2_mbox_loc
I0524 17:38:16.510453 20451 net.cpp:157] Top shape: 1 16 1 1 (16)
I0524 17:38:16.510457 20451 net.cpp:165] Memory required for data: 250007552
I0524 17:38:16.510465 20451 layer_factory.hpp:77] Creating layer conv9_2_mbox_loc_perm
I0524 17:38:16.510471 20451 net.cpp:100] Creating Layer conv9_2_mbox_loc_perm
I0524 17:38:16.510476 20451 net.cpp:434] conv9_2_mbox_loc_perm <- conv9_2_mbox_loc
I0524 17:38:16.510483 20451 net.cpp:408] conv9_2_mbox_loc_perm -> conv9_2_mbox_loc_perm
I0524 17:38:16.510573 20451 net.cpp:150] Setting up conv9_2_mbox_loc_perm
I0524 17:38:16.510581 20451 net.cpp:157] Top shape: 1 1 1 16 (16)
I0524 17:38:16.510584 20451 net.cpp:165] Memory required for data: 250007616
I0524 17:38:16.510587 20451 layer_factory.hpp:77] Creating layer conv9_2_mbox_loc_flat
I0524 17:38:16.510592 20451 net.cpp:100] Creating Layer conv9_2_mbox_loc_flat
I0524 17:38:16.510597 20451 net.cpp:434] conv9_2_mbox_loc_flat <- conv9_2_mbox_loc_perm
I0524 17:38:16.510603 20451 net.cpp:408] conv9_2_mbox_loc_flat -> conv9_2_mbox_loc_flat
I0524 17:38:16.510625 20451 net.cpp:150] Setting up conv9_2_mbox_loc_flat
I0524 17:38:16.510632 20451 net.cpp:157] Top shape: 1 16 (16)
I0524 17:38:16.510635 20451 net.cpp:165] Memory required for data: 250007680
I0524 17:38:16.510638 20451 layer_factory.hpp:77] Creating layer conv9_2_mbox_conf
I0524 17:38:16.510646 20451 net.cpp:100] Creating Layer conv9_2_mbox_conf
I0524 17:38:16.510653 20451 net.cpp:434] conv9_2_mbox_conf <- conv9_2_conv9_2_relu_0_split_1
I0524 17:38:16.510658 20451 net.cpp:408] conv9_2_mbox_conf -> conv9_2_mbox_conf
I0524 17:38:16.512186 20451 net.cpp:150] Setting up conv9_2_mbox_conf
I0524 17:38:16.512203 20451 net.cpp:157] Top shape: 1 84 1 1 (84)
I0524 17:38:16.512208 20451 net.cpp:165] Memory required for data: 250008016
I0524 17:38:16.512217 20451 layer_factory.hpp:77] Creating layer conv9_2_mbox_conf_perm
I0524 17:38:16.512226 20451 net.cpp:100] Creating Layer conv9_2_mbox_conf_perm
I0524 17:38:16.512233 20451 net.cpp:434] conv9_2_mbox_conf_perm <- conv9_2_mbox_conf
I0524 17:38:16.512240 20451 net.cpp:408] conv9_2_mbox_conf_perm -> conv9_2_mbox_conf_perm
I0524 17:38:16.512336 20451 net.cpp:150] Setting up conv9_2_mbox_conf_perm
I0524 17:38:16.512346 20451 net.cpp:157] Top shape: 1 1 1 84 (84)
I0524 17:38:16.512349 20451 net.cpp:165] Memory required for data: 250008352
I0524 17:38:16.512354 20451 layer_factory.hpp:77] Creating layer conv9_2_mbox_conf_flat
I0524 17:38:16.512361 20451 net.cpp:100] Creating Layer conv9_2_mbox_conf_flat
I0524 17:38:16.512367 20451 net.cpp:434] conv9_2_mbox_conf_flat <- conv9_2_mbox_conf_perm
I0524 17:38:16.512373 20451 net.cpp:408] conv9_2_mbox_conf_flat -> conv9_2_mbox_conf_flat
I0524 17:38:16.512399 20451 net.cpp:150] Setting up conv9_2_mbox_conf_flat
I0524 17:38:16.512405 20451 net.cpp:157] Top shape: 1 84 (84)
I0524 17:38:16.512409 20451 net.cpp:165] Memory required for data: 250008688
I0524 17:38:16.512413 20451 layer_factory.hpp:77] Creating layer conv9_2_mbox_priorbox
I0524 17:38:16.512423 20451 net.cpp:100] Creating Layer conv9_2_mbox_priorbox
I0524 17:38:16.512428 20451 net.cpp:434] conv9_2_mbox_priorbox <- conv9_2_conv9_2_relu_0_split_2
I0524 17:38:16.512432 20451 net.cpp:434] conv9_2_mbox_priorbox <- data_data_0_split_6
I0524 17:38:16.512439 20451 net.cpp:408] conv9_2_mbox_priorbox -> conv9_2_mbox_priorbox
I0524 17:38:16.512467 20451 net.cpp:150] Setting up conv9_2_mbox_priorbox
I0524 17:38:16.512475 20451 net.cpp:157] Top shape: 1 2 16 (32)
I0524 17:38:16.512478 20451 net.cpp:165] Memory required for data: 250008816
I0524 17:38:16.512481 20451 layer_factory.hpp:77] Creating layer mbox_loc
I0524 17:38:16.512490 20451 net.cpp:100] Creating Layer mbox_loc
I0524 17:38:16.512496 20451 net.cpp:434] mbox_loc <- conv4_3_norm_mbox_loc_flat
I0524 17:38:16.512514 20451 net.cpp:434] mbox_loc <- fc7_mbox_loc_flat
I0524 17:38:16.512521 20451 net.cpp:434] mbox_loc <- conv6_2_mbox_loc_flat
I0524 17:38:16.512526 20451 net.cpp:434] mbox_loc <- conv7_2_mbox_loc_flat
I0524 17:38:16.512531 20451 net.cpp:434] mbox_loc <- conv8_2_mbox_loc_flat
I0524 17:38:16.512536 20451 net.cpp:434] mbox_loc <- conv9_2_mbox_loc_flat
I0524 17:38:16.512542 20451 net.cpp:408] mbox_loc -> mbox_loc
I0524 17:38:16.512573 20451 net.cpp:150] Setting up mbox_loc
I0524 17:38:16.512580 20451 net.cpp:157] Top shape: 1 34928 (34928)
I0524 17:38:16.512584 20451 net.cpp:165] Memory required for data: 250148528
I0524 17:38:16.512588 20451 layer_factory.hpp:77] Creating layer mbox_conf
I0524 17:38:16.512594 20451 net.cpp:100] Creating Layer mbox_conf
I0524 17:38:16.512599 20451 net.cpp:434] mbox_conf <- conv4_3_norm_mbox_conf_flat
I0524 17:38:16.512604 20451 net.cpp:434] mbox_conf <- fc7_mbox_conf_flat
I0524 17:38:16.512610 20451 net.cpp:434] mbox_conf <- conv6_2_mbox_conf_flat
I0524 17:38:16.512630 20451 net.cpp:434] mbox_conf <- conv7_2_mbox_conf_flat
I0524 17:38:16.512635 20451 net.cpp:434] mbox_conf <- conv8_2_mbox_conf_flat
I0524 17:38:16.512640 20451 net.cpp:434] mbox_conf <- conv9_2_mbox_conf_flat
I0524 17:38:16.512650 20451 net.cpp:408] mbox_conf -> mbox_conf
I0524 17:38:16.512688 20451 net.cpp:150] Setting up mbox_conf
I0524 17:38:16.512696 20451 net.cpp:157] Top shape: 1 183372 (183372)
I0524 17:38:16.512699 20451 net.cpp:165] Memory required for data: 250882016
I0524 17:38:16.512703 20451 layer_factory.hpp:77] Creating layer mbox_priorbox
I0524 17:38:16.512711 20451 net.cpp:100] Creating Layer mbox_priorbox
I0524 17:38:16.512714 20451 net.cpp:434] mbox_priorbox <- conv4_3_norm_mbox_priorbox
I0524 17:38:16.512719 20451 net.cpp:434] mbox_priorbox <- fc7_mbox_priorbox
I0524 17:38:16.512724 20451 net.cpp:434] mbox_priorbox <- conv6_2_mbox_priorbox
I0524 17:38:16.512729 20451 net.cpp:434] mbox_priorbox <- conv7_2_mbox_priorbox
I0524 17:38:16.512733 20451 net.cpp:434] mbox_priorbox <- conv8_2_mbox_priorbox
I0524 17:38:16.512737 20451 net.cpp:434] mbox_priorbox <- conv9_2_mbox_priorbox
I0524 17:38:16.512745 20451 net.cpp:408] mbox_priorbox -> mbox_priorbox
I0524 17:38:16.512769 20451 net.cpp:150] Setting up mbox_priorbox
I0524 17:38:16.512778 20451 net.cpp:157] Top shape: 1 2 34928 (69856)
I0524 17:38:16.512781 20451 net.cpp:165] Memory required for data: 251161440
I0524 17:38:16.512785 20451 layer_factory.hpp:77] Creating layer mbox_loss
I0524 17:38:16.512795 20451 net.cpp:100] Creating Layer mbox_loss
I0524 17:38:16.512799 20451 net.cpp:434] mbox_loss <- mbox_loc
I0524 17:38:16.512804 20451 net.cpp:434] mbox_loss <- mbox_conf
I0524 17:38:16.512809 20451 net.cpp:434] mbox_loss <- mbox_priorbox
…
state {
  phase: TEST
}
layer {
  name: "data"
  type: "AnnotatedData"
  top: "data"
  top: "label"
  include {
    phase: TEST
  }
  transform_param {
    mean_value: 104
    mean_value: 117
    mean_value: 123
    resize_param {
      prob: 1
      resize_mode: WARP
      height: 300
      width: 300
      interp_mode: LINEAR
    }
  }
  data_param {
    source: "examples/VOC0712/VOC0712_test_lmdb"
    batch_size: 8
    backend: LMDB
  }
  annotated_data_param {
    batch_sampler {
    }
    label_map_file: "data/VOC0712/labelmap_voc.prototxt"
  }
}
layer {
  name: "conv1_1"
  type: "Convolution"
  bottom: "data"
  top: "conv1_1"
  param {
    lr_mult: 1
    decay_mult: 1
  }
  param {
    lr_mult: 2
    decay_mult: 0
  }
  convolution_param {
    num_output: 64
    pad: 1
    kernel_size: 3
    weight_filler {
      type: "xavier"
    }
    bias_filler {
      type: "constant"
      value: 0
    }
  }
}
layer {
  name: "relu1_1"
  type: "ReLU"
  bottom: "conv1_1"
  top: "conv1_1"
}
layer {
  name: "conv1_2"
  type: "Convolution"
  bottom: "conv1_1"
  top: "conv1_2"
  param {
    lr_mult: 1
    decay_mult: 1
  }
  param {
    lr_mult: 2
    decay_mult: 0
  }
  convolution_param {
    num_output: 64
    pad: 1
    kernel_size: 3
    weight_filler {
      type: "xavier"
    }
    bias_filler {
      type: "constant"
      value: 0
    }
  }
}
layer {
  name: "relu1_2"
  type: "ReLU"
  bottom: "conv1_2"
  top: "conv1_2"
}
layer {
  name: "pool1"
  type: "Pooling"
  bottom: "conv1_2"
  top: "pool1"
  pooling_param {
    pool: MAX
    kernel_size: 2
    stride: 2
  }
}
layer {
  name: "conv2_1"
  type: "Convolution"
  bottom: "pool1"
  top: "conv2_1"
  param {
    lr_mult: 1
    decay_mult: 1
  }
  param {
    lr_mult: 2
    decay_mult: 0
  }
  convolution_param {
    num_output: 128
    pad: 1
    kernel_size: 3
    weight_filler {
      type: "xavier"
    }
    bias_filler {
      type: "constant"
      value: 0
    }
  }
}
layer {
  name: "relu2_1"
  type: "ReLU"
  bottom: "conv2_1"
  top: "conv2_1"
}
layer {
  name: "conv2_2"
  type: "Convolution"
  bottom: "conv2_1"
  top: "conv2_2"
  param {
    lr_mult: 1
    decay_mult: 1
  }
  param {
    lr_mult: 2
    decay_mult: 0
  }
  convolution_param {
    num_output: 128
    pad: 1
    kernel_size: 3
    weight_filler {
      type: "xavier"
    }
    bias_filler {
      type: "constant"
      value: 0
    }
  }
}
layer {
  name: "relu2_2"
  type: "ReLU"
  bottom: "conv2_2"
  top: "conv2_2"
}
layer {
  name: "pool2"
  type: "Pooling"
  bottom: "conv2_2"
  top: "pool2"
  pooling_param {
    pool: MAX
    kernel_size: 2
    stride: 2
  }
}
layer {
  name: "conv3_1"
  type: "Convolution"
  bottom: "pool2"
  top: "conv3_1"
  param {
    lr_mult: 1
    decay_mult: 1
  }
  param {
    lr_mult: 2
    decay_mult: 0
  }
  convolution_param {
    num_output: 256
    pad: 1
    kernel_size: 3
    weight_filler {
      type: "xavier"
    }
    bias_filler {
      type: "constant"
      value: 0
    }
  }
}
layer {
  name: "relu3_1"
  type: "ReLU"
  bottom: "conv3_1"
  top: "conv3_1"
}
layer {
  name: "conv3_2"
  type: "Convolution"
  bottom: "conv3_1"
  top: "conv3_2"
  param {
    lr_mult: 1
    decay_mult: 1
  }
  param {
    lr_mult: 2
    decay_mult: 0
  }
  convolution_param {
    num_output: 256
    pad: 1
    kernel_size: 3
    weight_filler {
      type: "xavier"
    }
    bias_filler {
      type: "constant"
      value: 0
    }
  }
}
layer {
  name: "relu3_2"
  type: "ReLU"
  bottom: "conv3_2"
  top: "conv3_2"
}
layer {
  name: "conv3_3"
  type: "Convolution"
  bottom: "conv3_2"
  top: "conv3_3"
  param {
    lr_mult: 1
    decay_mult: 1
  }
  param {
    lr_mult: 2
    decay_mult: 0
  }
  convolution_param {
    num_output: 256
    pad: 1
    kernel_size: 3
    weight_filler {
      type: "xavier"
    }
    bias_filler {
      type: "constant"
      value: 0
    }
  }
}
layer {
  name: "relu3_3"
  type: "ReLU"
  bottom: "conv3_3"
  top: "conv3_3"
}
layer {
  name: "pool3"
  type: "Pooling"
  bottom: "conv3_3"
  top: "pool3"
  pooling_param {
    pool: MAX
    kernel_size: 2
    stride: 2
  }
}
layer {
  name: "conv4_1"
  type: "Convolution"
  bottom: "pool3"
  top: "conv4_1"
  param {
    lr_mult: 1
    decay_mult: 1
  }
  param {
    lr_mult: 2
    decay_mult: 0
  }
  convolution_param {
    num_output: 512
    pad: 1
    kernel_size: 3
    weight_filler {
      type: "xavier"
    }
    bias_filler {
      type: "constant"
      value: 0
    }
  }
}
layer {
  name: "relu4_1"
  type: "ReLU"
  bottom: "conv4_1"
  top: "conv4_1"
}
layer {
  name: "conv4_2"
  type: "Convolution"
  bottom: "conv4_1"
  top: "conv4_2"
  param {
    lr_mult: 1
    decay_mult: 1
  }
  param {
    lr_mult: 2
    decay_mult: 0
  }
  convolution_param {
    num_output: 512
    pad: 1
    kernel_size: 3
    weight_filler {
      type: "xavier"
    }
    bias_filler {
      type: "constant"
      value: 0
    }
  }
}
layer {
  name: "relu4_2"
  type: "ReLU"
  bottom: "conv4_2"
  top: "conv4_2"
}
layer {
  name: "conv4_3"
  type: "Convolution"
  bottom: "conv4_2"
  top: "conv4_3"
  param {
    lr_mult: 1
    decay_mult: 1
  }
  param {
    lr_mult: 2
    decay_mult: 0
  }
  convolution_param {
    num_output: 512
    pad: 1
    kernel_size: 3
    weight_filler {
      type: "xavier"
    }
    bias_filler {
      type: "constant"
      value: 0
    }
  }
}
layer {
  name: "relu4_3"
  type: "ReLU"
  bottom: "conv4_3"
  top: "conv4_3"
}
layer {
  name: "pool4"
  type: "Pooling"
  bottom: "conv4_3"
  top: "pool4"
  pooling_param {
    pool: MAX
    kernel_size: 2
    stride: 2
  }
}
layer {
  name: "conv5_1"
  type: "Convolution"
  bottom: "pool4"
  top: "conv5_1"
  param {
    lr_mult: 1
    decay_mult: 1
  }
  param {
    lr_mult: 2
    decay_mult: 0
  }
  convolution_param {
    num_output: 512
    pad: 1
    kernel_size: 3
    weight_filler {
      type: "xavier"
    }
    bias_filler {
      type: "constant"
      value: 0
    }
    dilation: 1
  }
}
layer {
  name: "relu5_1"
  type: "ReLU"
  bottom: "conv5_1"
  top: "conv5_1"
}
layer {
  name: "conv5_2"
  type: "Convolution"
  bottom: "conv5_1"
  top: "conv5_2"
  param {
    lr_mult: 1
    decay_mult: 1
  }
  param {
    lr_mult: 2
    decay_mult: 0
  }
  convolution_param {
    num_output: 512
    pad: 1
    kernel_size: 3
    weight_filler {
      type: "xavier"
    }
    bias_filler {
      type: "constant"
      value: 0
    }
    dilation: 1
  }
}
layer {
  name: "relu5_2"
  type: "ReLU"
  bottom: "conv5_2"
  top: "conv5_2"
}
layer {
  name: "conv5_3"
  type: "Convolution"
  bottom: "conv5_2"
  top: "conv5_3"
  param {
    lr_mult: 1
    decay_mult: 1
  }
  param {
    lr_mult: 2
    decay_mult: 0
  }
  convolution_param {
    num_output: 512
    pad: 1
    kernel_size: 3
    weight_filler {
      type: "xavier"
    }
    bias_filler {
      type: "constant"
      value: 0
    }
    dilation: 1
  }
}
layer {
  name: "relu5_3"
  type: "ReLU"
  bottom: "conv5_3"
  top: "conv5_3"
}
layer {
  name: "pool5"
  type: "Pooling"
  bottom: "conv5_3"
  top: "pool5"
  pooling_param {
    pool: MAX
    kernel_size: 3
    stride: 1
    pad: 1
  }
}
layer {
  name: "fc6"
  type: "Convolution"
  bottom: "pool5"
  top: "fc6"
  param {
    lr_mult: 1
    decay_mult: 1
  }
  param {
    lr_mult: 2
    decay_mult: 0
  }
  convolution_param {
    num_output: 1024
    pad: 6
    kernel_size: 3
    weight_filler {
      type: "xavier"
    }
    bias_filler {
      type: "constant"
      value: 0
    }
    dilation: 6
  }
}
layer {
  name: "relu6"
  type: "ReLU"
  bottom: "fc6"
  top: "fc6"
}
layer {
  name: "fc7"
  type: "Convolution"
  bottom: "fc6"
  top: "fc7"
  param {
    lr_mult: 1
    decay_mult: 1
  }
  param {
    lr_mult: 2
    decay_mult: 0
  }
  convolution_param {
    num_output: 1024
    kernel_size: 1
    weight_filler {
      type: "xavier"
    }
    bias_filler {
      type: "constant"
      value: 0
    }
  }
}
layer {
  name: "relu7"
  type: "ReLU"
  bottom: "fc7"
  top: "fc7"
}
layer {
  name: "conv6_1"
  type: "Convolution"
  bottom: "fc7"
  top: "conv6_1"
  param {
    lr_mult: 1
    decay_mult: 1
  }
  param {
    lr_mult: 2
    decay_mult: 0
  }
  convolution_param {
    num_output: 256
    pad: 0
    kernel_size: 1
    stride: 1
    weight_filler {
      type: "xavier"
    }
    bias_filler {
      type: "constant"
      value: 0
    }
  }
}
layer {
  name: "conv6_1_relu"
  type: "ReLU"
  bottom: "conv6_1"
  top: "conv6_1"
}
layer {
  name: "conv6_2"
  type: "Convolution"
  bottom: "conv6_1"
  top: "conv6_2"
  param {
    lr_mult: 1
    decay_mult: 1
  }
  param {
    lr_mult: 2
    decay_mult: 0
  }
  convolution_param {
    num_output: 512
    pad: 1
    kernel_size: 3
    stride: 2
    weight_filler {
      type: "xavier"
    }
    bias_filler {
      type: "constant"
      value: 0
    }
  }
}
layer {
  name: "conv6_2_relu"
  type: "ReLU"
  bottom: "conv6_2"
  top: "conv6_2"
}
layer {
  name: "conv7_1"
  type: "Convolution"
  bottom: "conv6_2"
  top: "conv7_1"
  param {
    lr_mult: 1
    decay_mult: 1
  }
  param {
    lr_mult: 2
    decay_mult: 0
  }
  convolution_param {
    num_output: 128
    pad: 0
    kernel_size: 1
    stride: 1
    weight_filler {
      type: "xavier"
    }
    bias_filler {
      type: "constant"
      value: 0
    }
  }
}
layer {
  name: "conv7_1_relu"
  type: "ReLU"
  bottom: "conv7_1"
  top: "conv7_1"
}
layer {
  name: "conv7_2"
  type: "Convolution"
  bottom: "conv7_1"
  top: "conv7_2"
  param {
    lr_mult: 1
    decay_mult: 1
  }
  param {
    lr_mult: 2
    decay_mult: 0
  }
  convolution_param {
    num_output: 256
    pad: 1
    kernel_size: 3
    stride: 2
    weight_filler {
      type: "xavier"
    }
    bias_filler {
      type: "constant"
      value: 0
    }
  }
}
layer {
  name: "conv7_2_relu"
  type: "ReLU"
  bottom: "conv7_2"
  top: "conv7_2"
}
layer {
  name: "conv8_1"
  type: "Convolution"
  bottom: "conv7_2"
  top: "conv8_1"
  param {
    lr_mult: 1
    decay_mult: 1
  }
  param {
    lr_mult: 2
    decay_mult: 0
  }
  convolution_param {
    num_output: 128
    pad: 0
    kernel_size: 1
    stride: 1
    weight_filler {
      type: "xavier"
    }
    bias_filler {
      type: "constant"
      value: 0
    }
  }
}
layer {
  name: "conv8_1_relu"
  type: "ReLU"
  bottom: "conv8_1"
  top: "conv8_1"
}
layer {
  name: "conv8_2"
  type: "Convolution"
  bottom: "conv8_1"
  top: "conv8_2"
  param {
    lr_mult: 1
    decay_mult: 1
  }
  param {
    lr_mult: 2
    decay_mult: 0
  }
  convolution_param {
    num_output: 256
    pad: 0
    kernel_size: 3
    stride: 1
    weight_filler {
      type: "xavier"
    }
    bias_filler {
      type: "constant"
      value: 0
    }
  }
}
layer {
  name: "conv8_2_relu"
  type: "ReLU"
  bottom: "conv8_2"
  top: "conv8_2"
}
layer {
  name: "conv9_1"
  type: "Convolution"
  bottom: "conv8_2"
  top: "conv9_1"
  param {
    lr_mult: 1
    decay_mult: 1
  }
  param {
    lr_mult: 2
    decay_mult: 0
  }
  convolution_param {
    num_output: 128
    pad: 0
    kernel_size: 1
    stride: 1
    weight_filler {
      type: "xavier"
    }
    bias_filler {
      type: "constant"
      value: 0
    }
  }
}
layer {
  name: "conv9_1_relu"
  type: "ReLU"
  bottom: "conv9_1"
  top: "conv9_1"
}
layer {
  name: "conv9_2"
  type: "Convolution"
  bottom: "conv9_1"
  top: "conv9_2"
  param {
    lr_mult: 1
    decay_mult: 1
  }
  param {
    lr_mult: 2
    decay_mult: 0
  }
  convolution_param {
    num_output: 256
    pad: 0
    kernel_size: 3
    stride: 1
    weight_filler {
      type: "xavier"
    }
    bias_filler {
      type: "constant"
      value: 0
    }
  }
}
layer {
  name: "conv9_2_relu"
  type: "ReLU"
  bottom: "conv9_2"
  top: "conv9_2"
}
layer {
  name: "conv4_3_norm"
  type: "Normalize"
  bottom: "conv4_3"
  top: "conv4_3_norm"
  norm_param {
    across_spatial: false
    scale_filler {
      type: "constant"
      value: 20
    }
    channel_shared: false
  }
}
layer {
  name: "conv4_3_norm_mbox_loc"
  type: "Convolution"
  bottom: "conv4_3_norm"
  top: "conv4_3_norm_mbox_loc"
  param {
    lr_mult: 1
    decay_mult: 1
  }
  param {
    lr_mult: 2
    decay_mult: 0
  }
  convolution_param {
    num_output: 16
    pad: 1
    kernel_size: 3
    stride: 1
    weight_filler {
      type: "xavier"
    }
    bias_filler {
      type: "constant"
      value: 0
    }
  }
}
layer {
  name: "conv4_3_norm_mbox_loc_perm"
  type: "Permute"
  bottom: "conv4_3_norm_mbox_loc"
  top: "conv4_3_norm_mbox_loc_perm"
  permute_param {
    order: 0
    order: 2
    order: 3
    order: 1
  }
}
layer {
  name: "conv4_3_norm_mbox_loc_flat"
  type: "Flatten"
  bottom: "conv4_3_norm_mbox_loc_perm"
  top: "conv4_3_norm_mbox_loc_flat"
  flatten_param {
    axis: 1
  }
}
layer {
  name: "conv4_3_norm_mbox_conf"
  type: "Convolution"
  bottom: "conv4_3_norm"
  top: "conv4_3_norm_mbox_conf"
  param {
    lr_mult: 1
    decay_mult: 1
  }
  param {
    lr_mult: 2
    decay_mult: 0
  }
  convolution_param {
    num_output: 84
    pad: 1
    kernel_size: 3
    stride: 1
    weight_filler {
      type: "xavier"
    }
    bias_filler {
      type: "constant"
      value: 0
    }
  }
}
layer {
  name: "conv4_3_norm_mbox_conf_perm"
  type: "Permute"
  bottom: "conv4_3_norm_mbox_conf"
  top: "conv4_3_norm_mbox_conf_perm"
  permute_param {
    order: 0
    order: 2
    order: 3
    order: 1
  }
}
layer {
  name: "conv4_3_norm_mbox_conf_flat"
  type: "Flatten"
  bottom: "conv4_3_norm_mbox_conf_perm"
  top: "conv4_3_norm_mbox_conf_flat"
  flatten_param {
    axis: 1
  }
}
layer {
  name: "conv4_3_norm_mbox_priorbox"
  type: "PriorBox"
  bottom: "conv4_3_norm"
  bottom: "data"
  top: "conv4_3_norm_mbox_priorbox"
  prior_box_param {
    min_size: 30
    max_size: 60
    aspect_ratio: 2
    flip: true
    clip: false
    variance: 0.1
    variance: 0.1
    variance: 0.2
    variance: 0.2
    step: 8
    offset: 0.5
  }
}
layer {
  name: "fc7_mbox_loc"
  type: "Convolution"
  bottom: "fc7"
  top: "fc7_mbox_loc"
  param {
    lr_mult: 1
    decay_mult: 1
  }
  param {
    lr_mult: 2
    decay_mult: 0
  }
  convolution_param {
    num_output: 24
    pad: 1
    kernel_size: 3
    stride: 1
    weight_filler {
      type: "xavier"
    }
    bias_filler {
      type: "constant"
      value: 0
    }
  }
}
layer {
  name: "fc7_mbox_loc_perm"
  type: "Permute"
  bottom: "fc7_mbox_loc"
  top: "fc7_mbox_loc_perm"
  permute_param {
    order: 0
    order: 2
    order: 3
    order: 1
  }
}
layer {
  name: "fc7_mbox_loc_flat"
  type: "Flatten"
  bottom: "fc7_mbox_loc_perm"
  top: "fc7_mbox_loc_flat"
  flatten_param {
    axis: 1
  }
}
layer {
  name: "fc7_mbox_conf"
  type: "Convolution"
  bottom: "fc7"
  top: "fc7_mbox_conf"
  param {
    lr_mult: 1
    decay_mult: 1
  }
  param {
    lr_mult: 2
    decay_mult: 0
  }
  convolution_param {
    num_output: 126
    pad: 1
    kernel_size: 3
    stride: 1
    weight_filler {
      type: "xavier"
    }
    bias_filler {
      type: "constant"
      value: 0
    }
  }
}
layer {
  name: "fc7_mbox_conf_perm"
  type: "Permute"
  bottom: "fc7_mbox_conf"
  top: "fc7_mbox_conf_perm"
  permute_param {
    order: 0
    order: 2
    order: 3
    order: 1
  }
}
layer {
  name: "fc7_mbox_conf_flat"
  type: "Flatten"
  bottom: "fc7_mbox_conf_perm"
  top: "fc7_mbox_conf_flat"
  flatten_param {
    axis: 1
  }
}
layer {
  name: "fc7_mbox_priorbox"
  type: "PriorBox"
  bottom: "fc7"
  bottom: "data"
  top: "fc7_mbox_priorbox"
  prior_box_param {
    min_size: 60
    max_size: 111
    aspect_ratio: 2
    aspect_ratio: 3
    flip: true
    clip: false
    variance: 0.1
    variance: 0.1
    variance: 0.2
    variance: 0.2
    step: 16
    offset: 0.5
  }
}
layer {
  name: "conv6_2_mbox_loc"
  type: "Convolution"
  bottom: "conv6_2"
  top: "conv6_2_mbox_loc"
  param {
    lr_mult: 1
    decay_mult: 1
  }
  param {
    lr_mult: 2
    decay_mult: 0
  }
  convolution_param {
    num_output: 24
    pad: 1
    kernel_size: 3
    stride: 1
    weight_filler {
      type: "xavier"
    }
    bias_filler {
      type: "constant"
      value: 0
    }
  }
}
layer {
  name: "conv6_2_mbox_loc_perm"
  type: "Permute"
  bottom: "conv6_2_mbox_loc"
  top: "conv6_2_mbox_loc_perm"
  permute_param {
    order: 0
    order: 2
    order: 3
    order: 1
  }
}
layer {
  name: "conv6_2_mbox_loc_flat"
  type: "Flatten"
  bottom: "conv6_2_mbox_loc_perm"
  top: "conv6_2_mbox_loc_flat"
  flatten_param {
    axis: 1
  }
}
layer {
  name: "conv6_2_mbox_conf"
  type: "Convolution"
  bottom: "conv6_2"
  top: "conv6_2_mbox_conf"
  param {
    lr_mult: 1
    decay_mult: 1
  }
  param {
    lr_mult: 2
    decay_mult: 0
  }
  convolution_param {
    num_output: 126
    pad: 1
    kernel_size: 3
    stride: 1
    weight_filler {
      type: "xavier"
    }
    bias_filler {
      type: "constant"
      value: 0
    }
  }
}
layer {
  name: "conv6_2_mbox_conf_perm"
  type: "Permute"
  bottom: "conv6_2_mbox_conf"
  top: "conv6_2_mbox_conf_perm"
  permute_param {
    order: 0
    order: 2
    order: 3
    order: 1
  }
}
layer {
  name: "conv6_2_mbox_conf_flat"
  type: "Flatten"
  bottom: "conv6_2_mbox_conf_perm"
  top: "conv6_2_mbox_conf_flat"
  flatten_param {
    axis: 1
  }
}
layer {
  name: "conv6_2_mbox_priorbox"
  type: "PriorBox"
  bottom: "conv6_2"
  bottom: "data"
  top: "conv6_2_mbox_priorbox"
  prior_box_param {
    min_size: 111
    max_size: 162
    aspect_ratio: 2
    aspect_ratio: 3
    flip: true
    clip: false
    variance: 0.1
    variance: 0.1
    variance: 0.2
    variance: 0.2
    step: 32
    offset: 0.5
  }
}
layer {
  name: "conv7_2_mbox_loc"
  type: "Convolution"
  bottom: "conv7_2"
  top: "conv7_2_mbox_loc"
  param {
    lr_mult: 1
    decay_mult: 1
  }
  param {
    lr_mult: 2
    decay_mult: 0
  }
  convolution_param {
    num_output: 24
    pad: 1
    kernel_size: 3
    stride: 1
    weight_filler {
      type: "xavier"
    }
    bias_filler {
      type: "constant"
      value: 0
    }
  }
}
layer {
  name: "conv7_2_mbox_loc_perm"
  type: "Permute"
  bottom: "conv7_2_mbox_loc"
  top: "conv7_2_mbox_loc_perm"
  permute_param {
    order: 0
    order: 2
    order: 3
    order: 1
  }
}
layer {
  name: "conv7_2_mbox_loc_flat"
  type: "Flatten"
  bottom: "conv7_2_mbox_loc_perm"
  top: "conv7_2_mbox_loc_flat"
  flatten_param {
    axis: 1
  }
}
layer {
  name: "conv7_2_mbox_conf"
  type: "Convolution"
  bottom: "conv7_2"
  top: "conv7_2_mbox_conf"
  param {
    lr_mult: 1
    decay_mult: 1
  }
  param {
    lr_mult: 2
    decay_mult: 0
  }
  convolution_param {
    num_output: 126
    pad: 1
    kernel_size: 3
    stride: 1
    weight_filler {
      type: "xavier"
    }
    bias_filler {
      type: "constant"
      value: 0
    }
  }
}
layer {
  name: "conv7_2_mbox_conf_perm"
  type: "Permute"
  bottom: "conv7_2_mbox_conf"
  top: "conv7_2_mbox_conf_perm"
  permute_param {
    order: 0
    order: 2
    order: 3
    order: 1
  }
}
layer {
  name: "conv7_2_mbox_conf_flat"
  type: "Flatten"
  bottom: "conv7_2_mbox_conf_perm"
  top: "conv7_2_mbox_conf_flat"
  flatten_param {
    axis: 1
  }
}
layer {
  name: "conv7_2_mbox_priorbox"
  type: "PriorBox"
  bottom: "conv7_2"
  bottom: "data"
  top: "conv7_2_mbox_priorbox"
  prior_box_param {
    min_size: 162
    max_size: 213
    aspect_ratio: 2
    aspect_ratio: 3
    flip: true
    clip: false
    variance: 0.1
    variance: 0.1
    variance: 0.2
    variance: 0.2
    step: 64
    offset: 0.5
  }
}
layer {
  name: "conv8_2_mbox_loc"
  type: "Convolution"
  bottom: "conv8_2"
  top: "conv8_2_mbox_loc"
  param {
    lr_mult: 1
    decay_mult: 1
  }
  param {
    lr_mult: 2
    decay_mult: 0
  }
  convolution_param {
    num_output: 16
    pad: 1
    kernel_size: 3
    stride: 1
    weight_filler {
      type: "xavier"
    }
    bias_filler {
      type: "constant"
      value: 0
    }
  }
}
layer {
  name: "conv8_2_mbox_loc_perm"
  type: "Permute"
  bottom: "conv8_2_mbox_loc"
  top: "conv8_2_mbox_loc_perm"
  permute_param {
    order: 0
    order: 2
    order: 3
    order: 1
  }
}
layer {
  name: "conv8_2_mbox_loc_flat"
  type: "Flatten"
  bottom: "conv8_2_mbox_loc_perm"
  top: "conv8_2_mbox_loc_flat"
  flatten_param {
    axis: 1
  }
}
layer {
  name: "conv8_2_mbox_conf"
  type: "Convolution"
  bottom: "conv8_2"
  top: "conv8_2_mbox_conf"
  param {
    lr_mult: 1
    decay_mult: 1
  }
  param {
    lr_mult: 2
    decay_mult: 0
  }
  convolution_param {
    num_output: 84
    pad: 1
    kernel_size: 3
    stride: 1
    weight_filler {
      type: "xavier"
    }
    bias_filler {
      type: "constant"
      value: 0
    }
  }
}
layer {
  name: "conv8_2_mbox_conf_perm"
  type: "Permute"
  bottom: "conv8_2_mbox_conf"
  top: "conv8_2_mbox_conf_perm"
  permute_param {
    order: 0
    order: 2
    order: 3
    order: 1
  }
}
layer {
  name: "conv8_2_mbox_conf_flat"
  type: "Flatten"
  bottom: "conv8_2_mbox_conf_perm"
  top: "conv8_2_mbox_conf_flat"
  flatten_param {
    axis: 1
  }
}
layer {
  name: "conv8_2_mbox_priorbox"
  type: "PriorBox"
  bottom: "conv8_2"
  bottom: "data"
  top: "conv8_2_mbox_priorbox"
  prior_box_param {
    min_size: 213
    max_size: 264
    aspect_ratio: 2
    flip: true
    clip: false
    variance: 0.1
    variance: 0.1
    variance: 0.2
    variance: 0.2
    step: 100
    offset: 0.5
  }
}
layer {
  name: "conv9_2_mbox_loc"
  type: "Convolution"
  bottom: "conv9_2"
  top: "conv9_2_mbox_loc"
  param {
    lr_mult: 1
    decay_mult: 1
  }
  param {
    lr_mult: 2
    decay_mult: 0
  }
  convolution_param {
    num_output: 16
    pad: 1
    kernel_size: 3
    stride: 1
    weight_filler {
      type: "xavier"
    }
    bias_filler {
      type: "constant"
      value: 0
    }
  }
}
layer {
  name: "conv9_2_mbox_loc_perm"
  type: "Permute"
  bottom: "conv9_2_mbox_loc"
  top: "conv9_2_mbox_loc_perm"
  permute_param {
    order: 0
    order: 2
    order: 3
    order: 1
  }
}
layer {
  name: "conv9_2_mbox_loc_flat"
  type: "Flatten"
  bottom: "conv9_2_mbox_loc_perm"
  top: "conv9_2_mbox_loc_flat"
  flatten_param {
    axis: 1
  }
}
layer {
  name: "conv9_2_mbox_conf"
  type: "Convolution"
  bottom: "conv9_2"
  top: "conv9_2_mbox_conf"
  param {
    lr_mult: 1
    decay_mult: 1
  }
  param {
    lr_mult: 2
    decay_mult: 0
  }
  convolution_param {
    num_output: 84
    pad: 1
    kernel_size: 3
    stride: 1
    weight_filler {
      type: "xavier"
    }
    bias_filler {
      type: "constant"
      value: 0
    }
  }
}
layer {
  name: "conv9_2_mbox_conf_perm"
  type: "Permute"
  bottom: "conv9_2_mbox_conf"
  top: "conv9_2_mbox_conf_perm"
  permute_param {
    order: 0
    order: 2
    order: 3
    order: 1
  }
}
layer {
  name: "conv9_2_mbox_conf_flat"
  type: "Flatten"
  bottom: "conv9_2_mbox_conf_perm"
  top: "conv9_2_mbox_conf_flat"
  flatten_param {
    axis: 1
  }
}
layer {
  name: "conv9_2_mbox_priorbox"
  type: "PriorBox"
  bottom: "conv9_2"
  bottom: "data"
  top: "conv9_2_mbox_priorbox"
  prior_box_param {
    min_size: 264
    max_size: 315
    aspect_ratio: 2
    flip: true
    clip: false
    variance: 0.1
    variance: 0.1
    variance: 0.2
    variance: 0.2
    step: 300
    offset: 0.5
  }
}
layer {
  name: "mbox_loc"
  type: "Concat"
  bottom: "conv4_3_norm_mbox_loc_flat"
  bottom: "fc7_mbox_loc_flat"
  bottom: "conv6_2_mbox_loc_flat"
  bottom: "conv7_2_mbox_loc_flat"
  bottom: "conv8_2_mbox_loc_flat"
  bottom: "conv9_2_mbox_loc_flat"
  top: "mbox_loc"
  concat_param {
    axis: 1
  }
}
layer {
  name: "mbox_conf"
  type: "Concat"
  bottom: "conv4_3_norm_mbox_conf_flat"
  bottom: "fc7_mbox_conf_flat"
  bottom: "conv6_2_mbox_conf_flat"
  bottom: "conv7_2_mbox_conf_flat"
  bottom: "conv8_2_mbox_conf_flat"
  bottom: "conv9_2_mbox_conf_flat"
  top: "mbox_conf"
  concat_param {
    axis: 1
  }
}
layer {
  name: "mbox_priorbox"
  type: "Concat"
  bottom: "conv4_3_norm_mbox_priorbox"
  bottom: "fc7_mbox_priorbox"
  bottom: "conv6_2_mbox_priorbox"
  bottom: "conv7_2_mbox_priorbox"
  bottom: "conv8_2_mbox_priorbox"
  bottom: "conv9_2_mbox_priorbox"
  top: "mbox_priorbox"
  concat_param {
    axis: 2
  }
}
layer {
  name: "mbox_conf_reshape"
  type: "Reshape"
  bottom: "mbox_conf"
  top: "mbox_conf_reshape"
  reshape_param {
    shape {
      dim: 0
      dim: -1
      dim: 21
    }
  }
}
layer {
  name: "mbox_conf_softmax"
  type: "Softmax"
  bottom: "mbox_conf_reshape"
  top: "mbox_conf_softmax"
  softmax_param {
    axis: 2
  }
}
layer {
  name: "mbox_conf_flatten"
  type: "Flatten"
  bottom: "mbox_conf_softmax"
  top: "mbox_conf_flatten"
  flatten_param {
    axis: 1
  }
}
layer {
  name: "detection_out"
  type: "DetectionOutput"
  bottom: "mbox_loc"
  bottom: "mbox_conf_flatten"
  bottom: "mbox_priorbox"
  top: "detection_out"
  include {
    phase: TEST
  }
  detection_output_param {
    num_classes: 21
    share_location: true
    background_label_id: 0
    nms_param {
      nms_threshold: 0.45
      top_k: 400
    }
    save_output_param {
      output_name_prefix: "comp4_det_test_"
      output_format: "VOC"
      label_map_file: "data/VOC0712/labelmap_voc.prototxt"
      name_size_file: "data/VOC0712/test_name_size.txt"
      num_test_image: 4952
    }
    code_type: CENTER_SIZE
    keep_top_k: 200
    confidence_threshold: 0.01
  }
}
layer {
  name: "detection_eval"
  type: "DetectionEvaluate"
  bottom: "detection_out"
  bottom: "label"
  top: "detection_eval"
  include {
    phase: TEST
  }
  detection_evaluate_param {
    num_classes: 21
    background_label_id: 0
    overlap_threshold: 0.5
    evaluate_difficult_gt: false
    name_size_file: "data/VOC0712/test_name_size.txt"
  }
}
I0524 17:38:16.515395 20451 layer_factory.hpp:77] Creating layer data
I0524 17:38:16.515451 20451 net.cpp:100] Creating Layer data
I0524 17:38:16.515461 20451 net.cpp:408] data -> data
I0524 17:38:16.515468 20451 net.cpp:408] data -> label
I0524 17:38:16.515923 20473 db_lmdb.cpp:35] Opened lmdb examples/VOC0712/VOC0712_test_lmdb
I0524 17:38:16.517688 20451 annotated_data_layer.cpp:62] output data size: 8,3,300,300
I0524 17:38:16.535339 20451 net.cpp:150] Setting up data
I0524 17:38:16.535357 20451 net.cpp:157] Top shape: 8 3 300 300 (2160000)
I0524 17:38:16.535362 20451 net.cpp:157] Top shape: 1 1 2 8 (16)
I0524 17:38:16.535363 20451 net.cpp:165] Memory required for data: 8640064
I0524 17:38:16.535384 20451 layer_factory.hpp:77] Creating layer data_data_0_split
I0524 17:38:16.535393 20451 net.cpp:100] Creating Layer data_data_0_split
I0524 17:38:16.535409 20451 net.cpp:434] data_data_0_split <- data
I0524 17:38:16.535415 20451 net.cpp:408] data_data_0_split -> data_data_0_split_0
I0524 17:38:16.535423 20451 net.cpp:408] data_data_0_split -> data_data_0_split_1
I0524 17:38:16.535432 20451 net.cpp:408] data_data_0_split -> data_data_0_split_2
I0524 17:38:16.535437 20451 net.cpp:408] data_data_0_split -> data_data_0_split_3
I0524 17:38:16.535441 20451 net.cpp:408] data_data_0_split -> data_data_0_split_4
I0524 17:38:16.535445 20451 net.cpp:408] data_data_0_split -> data_data_0_split_5
I0524 17:38:16.535449 20451 net.cpp:408] data_data_0_split -> data_data_0_split_6
I0524 17:38:16.535547 20451 net.cpp:150] Setting up data_data_0_split
I0524 17:38:16.535552 20451 net.cpp:157] Top shape: 8 3 300 300 (2160000)
I0524 17:38:16.535567 20451 net.cpp:157] Top shape: 8 3 300 300 (2160000)
I0524 17:38:16.535570 20451 net.cpp:157] Top shape: 8 3 300 300 (2160000)
I0524 17:38:16.535573 20451 net.cpp:157] Top shape: 8 3 300 300 (2160000)
I0524 17:38:16.535590 20451 net.cpp:157] Top shape: 8 3 300 300 (2160000)
I0524 17:38:16.535593 20451 net.cpp:157] Top shape: 8 3 300 300 (2160000)
I0524 17:38:16.535595 20451 net.cpp:157] Top shape: 8 3 300 300 (2160000)
I0524 17:38:16.535598 20451 net.cpp:165] Memory required for data: 69120064
I0524 17:38:16.535600 20451 layer_factory.hpp:77] Creating layer conv1_1
I0524 17:38:16.535609 20451 net.cpp:100] Creating Layer conv1_1
I0524 17:38:16.535612 20451 net.cpp:434] conv1_1 <- data_data_0_split_0
I0524 17:38:16.535631 20451 net.cpp:408] conv1_1 -> conv1_1
I0524 17:38:16.535883 20451 net.cpp:150] Setting up conv1_1
I0524 17:38:16.535888 20451 net.cpp:157] Top shape: 8 64 300 300 (46080000)
I0524 17:38:16.535902 20451 net.cpp:165] Memory required for data: 253440064
I0524 17:38:16.535923 20451 layer_factory.hpp:77] Creating layer relu1_1
I0524 17:38:16.535928 20451 net.cpp:100] Creating Layer relu1_1
I0524 17:38:16.535930 20451 net.cpp:434] relu1_1 <- conv1_1
I0524 17:38:16.535934 20451 net.cpp:395] relu1_1 -> conv1_1 (in-place)
I0524 17:38:16.535953 20451 net.cpp:150] Setting up relu1_1
I0524 17:38:16.535957 20451 net.cpp:157] Top shape: 8 64 300 300 (46080000)
I0524 17:38:16.535959 20451 net.cpp:165] Memory required for data: 437760064
I0524 17:38:16.535961 20451 layer_factory.hpp:77] Creating layer conv1_2
I0524 17:38:16.535967 20451 net.cpp:100] Creating Layer conv1_2
I0524 17:38:16.535984 20451 net.cpp:434] conv1_2 <- conv1_1
I0524 17:38:16.535987 20451 net.cpp:408] conv1_2 -> conv1_2
I0524 17:38:16.536470 20451 net.cpp:150] Setting up conv1_2
I0524 17:38:16.536481 20451 net.cpp:157] Top shape: 8 64 300 300 (46080000)
I0524 17:38:16.536484 20451 net.cpp:165] Memory required for data: 622080064
I0524 17:38:16.536504 20451 layer_factory.hpp:77] Creating layer relu1_2
I0524 17:38:16.536509 20451 net.cpp:100] Creating Layer relu1_2
I0524 17:38:16.536511 20451 net.cpp:434] relu1_2 <- conv1_2
I0524 17:38:16.536516 20451 net.cpp:395] relu1_2 -> conv1_2 (in-place)
I0524 17:38:16.536521 20451 net.cpp:150] Setting up relu1_2
I0524 17:38:16.536542 20451 net.cpp:157] Top shape: 8 64 300 300 (46080000)
I0524 17:38:16.536545 20451 net.cpp:165] Memory required for data: 806400064
I0524 17:38:16.536547 20451 layer_factory.hpp:77] Creating layer pool1
I0524 17:38:16.536551 20451 net.cpp:100] Creating Layer pool1
I0524 17:38:16.536553 20451 net.cpp:434] pool1 <- conv1_2
I0524 17:38:16.536557 20451 net.cpp:408] pool1 -> pool1
I0524 17:38:16.536624 20451 net.cpp:150] Setting up pool1
I0524 17:38:16.536641 20451 net.cpp:157] Top shape: 8 64 150 150 (11520000)
I0524 17:38:16.536643 20451 net.cpp:165] Memory required for data: 852480064
I0524 17:38:16.536645 20451 layer_factory.hpp:77] Creating layer conv2_1
I0524 17:38:16.536664 20451 net.cpp:100] Creating Layer conv2_1
I0524 17:38:16.536666 20451 net.cpp:434] conv2_1 <- pool1
I0524 17:38:16.536670 20451 net.cpp:408] conv2_1 -> conv2_1
I0524 17:38:16.537155 20451 net.cpp:150] Setting up conv2_1
I0524 17:38:16.537160 20451 net.cpp:157] Top shape: 8 128 150 150 (23040000)
I0524 17:38:16.537163 20451 net.cpp:165] Memory required for data: 944640064
I0524 17:38:16.537168 20451 layer_factory.hpp:77] Creating layer relu2_1
I0524 17:38:16.537173 20451 net.cpp:100] Creating Layer relu2_1
I0524 17:38:16.537176 20451 net.cpp:434] relu2_1 <- conv2_1
I0524 17:38:16.537194 20451 net.cpp:395] relu2_1 -> conv2_1 (in-place)
I0524 17:38:16.537199 20451 net.cpp:150] Setting up relu2_1
I0524 17:38:16.537201 20451 net.cpp:157] Top shape: 8 128 150 150 (23040000)
I0524 17:38:16.537204 20451 net.cpp:165] Memory required for data: 1036800064
I0524 17:38:16.537220 20451 layer_factory.hpp:77] Creating layer conv2_2
I0524 17:38:16.537225 20451 net.cpp:100] Creating Layer conv2_2
I0524 17:38:16.537227 20451 net.cpp:434] conv2_2 <- conv2_1
I0524 17:38:16.537231 20451 net.cpp:408] conv2_2 -> conv2_2
I0524 17:38:16.537993 20451 net.cpp:150] Setting up conv2_2
I0524 17:38:16.537999 20451 net.cpp:157] Top shape: 8 128 150 150 (23040000)
I0524 17:38:16.538002 20451 net.cpp:165] Memory required for data: 1128960064
I0524 17:38:16.538005 20451 layer_factory.hpp:77] Creating layer relu2_2
I0524 17:38:16.538009 20451 net.cpp:100] Creating Layer relu2_2
I0524 17:38:16.538012 20451 net.cpp:434] relu2_2 <- conv2_2
I0524 17:38:16.538015 20451 net.cpp:395] relu2_2 -> conv2_2 (in-place)
I0524 17:38:16.538020 20451 net.cpp:150] Setting up relu2_2
I0524 17:38:16.538023 20451 net.cpp:157] Top shape: 8 128 150 150 (23040000)
I0524 17:38:16.538028 20451 net.cpp:165] Memory required for data: 1221120064
I0524 17:38:16.538029 20451 layer_factory.hpp:77] Creating layer pool2
I0524 17:38:16.538033 20451 net.cpp:100] Creating Layer pool2
I0524 17:38:16.538035 20451 net.cpp:434] pool2 <- conv2_2
I0524 17:38:16.538049 20451 net.cpp:408] pool2 -> pool2
I0524 17:38:16.538075 20451 net.cpp:150] Setting up pool2
I0524 17:38:16.538080 20451 net.cpp:157] Top shape: 8 128 75 75 (5760000)
I0524 17:38:16.538084 20451 net.cpp:165] Memory required for data: 1244160064
I0524 17:38:16.538085 20451 layer_factory.hpp:77] Creating layer conv3_1
I0524 17:38:16.538090 20451 net.cpp:100] Creating Layer conv3_1
I0524 17:38:16.538094 20451 net.cpp:434] conv3_1 <- pool2
I0524 17:38:16.538097 20451 net.cpp:408] conv3_1 -> conv3_1
I0524 17:38:16.541993 20451 net.cpp:150] Setting up conv3_1
I0524 17:38:16.542040 20451 net.cpp:157] Top shape: 8 256 75 75 (11520000)
I0524 17:38:16.542043 20451 net.cpp:165] Memory required for data: 1290240064
I0524 17:38:16.542053 20451 layer_factory.hpp:77] Creating layer relu3_1
I0524 17:38:16.542060 20451 net.cpp:100] Creating Layer relu3_1
I0524 17:38:16.542063 20451 net.cpp:434] relu3_1 <- conv3_1
I0524 17:38:16.542068 20451 net.cpp:395] relu3_1 -> conv3_1 (in-place)
I0524 17:38:16.542074 20451 net.cpp:150] Setting up relu3_1
I0524 17:38:16.542078 20451 net.cpp:157] Top shape: 8 256 75 75 (11520000)
I0524 17:38:16.542079 20451 net.cpp:165] Memory required for data: 1336320064
I0524 17:38:16.542083 20451 layer_factory.hpp:77] Creating layer conv3_2
I0524 17:38:16.542088 20451 net.cpp:100] Creating Layer conv3_2
I0524 17:38:16.542090 20451 net.cpp:434] conv3_2 <- conv3_1
I0524 17:38:16.542093 20451 net.cpp:408] conv3_2 -> conv3_2
I0524 17:38:16.545302 20451 net.cpp:150] Setting up conv3_2
I0524 17:38:16.545327 20451 net.cpp:157] Top shape: 8 256 75 75 (11520000)
I0524 17:38:16.545331 20451 net.cpp:165] Memory required for data: 1382400064
I0524 17:38:16.545336 20451 layer_factory.hpp:77] Creating layer relu3_2
I0524 17:38:16.545341 20451 net.cpp:100] Creating Layer relu3_2
I0524 17:38:16.545342 20451 net.cpp:434] relu3_2 <- conv3_2
I0524 17:38:16.545346 20451 net.cpp:395] relu3_2 -> conv3_2 (in-place)
I0524 17:38:16.545351 20451 net.cpp:150] Setting up relu3_2
I0524 17:38:16.545354 20451 net.cpp:157] Top shape: 8 256 75 75 (11520000)
I0524 17:38:16.545356 20451 net.cpp:165] Memory required for data: 1428480064
I0524 17:38:16.545358 20451 layer_factory.hpp:77] Creating layer conv3_3
I0524 17:38:16.545366 20451 net.cpp:100] Creating Layer conv3_3
I0524 17:38:16.545367 20451 net.cpp:434] conv3_3 <- conv3_2
I0524 17:38:16.545387 20451 net.cpp:408] conv3_3 -> conv3_3
I0524 17:38:16.548513 20451 net.cpp:150] Setting up conv3_3
I0524 17:38:16.548523 20451 net.cpp:157] Top shape: 8 256 75 75 (11520000)
I0524 17:38:16.548527 20451 net.cpp:165] Memory required for data: 1474560064
I0524 17:38:16.548532 20451 layer_factory.hpp:77] Creating layer relu3_3
I0524 17:38:16.548537 20451 net.cpp:100] Creating Layer relu3_3
I0524 17:38:16.548539 20451 net.cpp:434] relu3_3 <- conv3_3
I0524 17:38:16.548559 20451 net.cpp:395] relu3_3 -> conv3_3 (in-place)
I0524 17:38:16.548564 20451 net.cpp:150] Setting up relu3_3
I0524 17:38:16.548568 20451 net.cpp:157] Top shape: 8 256 75 75 (11520000)
I0524 17:38:16.548569 20451 net.cpp:165] Memory required for data: 1520640064
I0524 17:38:16.548573 20451 layer_factory.hpp:77] Creating layer pool3
I0524 17:38:16.548576 20451 net.cpp:100] Creating Layer pool3
I0524 17:38:16.548593 20451 net.cpp:434] pool3 <- conv3_3
I0524 17:38:16.548596 20451 net.cpp:408] pool3 -> pool3
I0524 17:38:16.548640 20451 net.cpp:150] Setting up pool3
I0524 17:38:16.548645 20451 net.cpp:157] Top shape: 8 256 38 38 (2957312)
I0524 17:38:16.548647 20451 net.cpp:165] Memory required for data: 1532469312
I0524 17:38:16.548650 20451 layer_factory.hpp:77] Creating layer conv4_1
I0524 17:38:16.548655 20451 net.cpp:100] Creating Layer conv4_1
I0524 17:38:16.548658 20451 net.cpp:434] conv4_1 <- pool3
I0524 17:38:16.548663 20451 net.cpp:408] conv4_1 -> conv4_1
I0524 17:38:16.555263 20451 net.cpp:150] Setting up conv4_1
I0524 17:38:16.555281 20451 net.cpp:157] Top shape: 8 512 38 38 (5914624)
I0524 17:38:16.555284 20451 net.cpp:165] Memory required for data: 1556127808
I0524 17:38:16.555289 20451 layer_factory.hpp:77] Creating layer relu4_1
I0524 17:38:16.555341 20451 net.cpp:100] Creating Layer relu4_1
I0524 17:38:16.555346 20451 net.cpp:434] relu4_1 <- conv4_1
I0524 17:38:16.555349 20451 net.cpp:395] relu4_1 -> conv4_1 (in-place)
I0524 17:38:16.555356 20451 net.cpp:150] Setting up relu4_1
I0524 17:38:16.555361 20451 net.cpp:157] Top shape: 8 512 38 38 (5914624)
I0524 17:38:16.555363 20451 net.cpp:165] Memory required for data: 1579786304
I0524 17:38:16.555366 20451 layer_factory.hpp:77] Creating layer conv4_2
I0524 17:38:16.555371 20451 net.cpp:100] Creating Layer conv4_2
I0524 17:38:16.555372 20451 net.cpp:434] conv4_2 <- conv4_1
I0524 17:38:16.555377 20451 net.cpp:408] conv4_2 -> conv4_2
I0524 17:38:16.567508 20451 net.cpp:150] Setting up conv4_2
I0524 17:38:16.567524 20451 net.cpp:157] Top shape: 8 512 38 38 (5914624)
I0524 17:38:16.567528 20451 net.cpp:165] Memory required for data: 1603444800
I0524 17:38:16.567538 20451 layer_factory.hpp:77] Creating layer relu4_2
I0524 17:38:16.567544 20451 net.cpp:100] Creating Layer relu4_2
I0524 17:38:16.567562 20451 net.cpp:434] relu4_2 <- conv4_2
I0524 17:38:16.567566 20451 net.cpp:395] relu4_2 -> conv4_2 (in-place)
I0524 17:38:16.567574 20451 net.cpp:150] Setting up relu4_2
I0524 17:38:16.567591 20451 net.cpp:157] Top shape: 8 512 38 38 (5914624)
I0524 17:38:16.567592 20451 net.cpp:165] Memory required for data: 1627103296
I0524 17:38:16.567595 20451 layer_factory.hpp:77] Creating layer conv4_3
I0524 17:38:16.567615 20451 net.cpp:100] Creating Layer conv4_3
I0524 17:38:16.567617 20451 net.cpp:434] conv4_3 <- conv4_2
I0524 17:38:16.567636 20451 net.cpp:408] conv4_3 -> conv4_3
I0524 17:38:16.580026 20451 net.cpp:150] Setting up conv4_3
I0524 17:38:16.580044 20451 net.cpp:157] Top shape: 8 512 38 38 (5914624)
I0524 17:38:16.580046 20451 net.cpp:165] Memory required for data: 1650761792
I0524 17:38:16.580067 20451 layer_factory.hpp:77] Creating layer relu4_3
I0524 17:38:16.580075 20451 net.cpp:100] Creating Layer relu4_3
I0524 17:38:16.580077 20451 net.cpp:434] relu4_3 <- conv4_3
I0524 17:38:16.580081 20451 net.cpp:395] relu4_3 -> conv4_3 (in-place)
I0524 17:38:16.580087 20451 net.cpp:150] Setting up relu4_3
I0524 17:38:16.580106 20451 net.cpp:157] Top shape: 8 512 38 38 (5914624)
I0524 17:38:16.580109 20451 net.cpp:165] Memory required for data: 1674420288
I0524 17:38:16.580111 20451 layer_factory.hpp:77] Creating layer conv4_3_relu4_3_0_split
I0524 17:38:16.580129 20451 net.cpp:100] Creating Layer conv4_3_relu4_3_0_split
I0524 17:38:16.580132 20451 net.cpp:434] conv4_3_relu4_3_0_split <- conv4_3
I0524 17:38:16.580137 20451 net.cpp:408] conv4_3_relu4_3_0_split -> conv4_3_relu4_3_0_split_0
I0524 17:38:16.580140 20451 net.cpp:408] conv4_3_relu4_3_0_split -> conv4_3_relu4_3_0_split_1
I0524 17:38:16.580168 20451 net.cpp:150] Setting up conv4_3_relu4_3_0_split
I0524 17:38:16.580173 20451 net.cpp:157] Top shape: 8 512 38 38 (5914624)
I0524 17:38:16.580175 20451 net.cpp:157] Top shape: 8 512 38 38 (5914624)
I0524 17:38:16.580178 20451 net.cpp:165] Memory required for data: 1721737280
I0524 17:38:16.580179 20451 layer_factory.hpp:77] Creating layer pool4
I0524 17:38:16.580183 20451 net.cpp:100] Creating Layer pool4
I0524 17:38:16.580186 20451 net.cpp:434] pool4 <- conv4_3_relu4_3_0_split_0
I0524 17:38:16.580189 20451 net.cpp:408] pool4 -> pool4
I0524 17:38:16.580214 20451 net.cpp:150] Setting up pool4
I0524 17:38:16.580217 20451 net.cpp:157] Top shape: 8 512 19 19 (1478656)
I0524 17:38:16.580219 20451 net.cpp:165] Memory required for data: 1727651904
I0524 17:38:16.580221 20451 layer_factory.hpp:77] Creating layer conv5_1
I0524 17:38:16.580229 20451 net.cpp:100] Creating Layer conv5_1
I0524 17:38:16.580230 20451 net.cpp:434] conv5_1 <- pool4
I0524 17:38:16.580235 20451 net.cpp:408] conv5_1 -> conv5_1
I0524 17:38:16.592563 20451 net.cpp:150] Setting up conv5_1
I0524 17:38:16.592581 20451 net.cpp:157] Top shape: 8 512 19 19 (1478656)
I0524 17:38:16.592583 20451 net.cpp:165] Memory required for data: 1733566528
I0524 17:38:16.592588 20451 layer_factory.hpp:77] Creating layer relu5_1
I0524 17:38:16.592594 20451 net.cpp:100] Creating Layer relu5_1
I0524 17:38:16.592627 20451 net.cpp:434] relu5_1 <- conv5_1
I0524 17:38:16.592631 20451 net.cpp:395] relu5_1 -> conv5_1 (in-place)
I0524 17:38:16.592653 20451 net.cpp:150] Setting up relu5_1
I0524 17:38:16.592656 20451 net.cpp:157] Top shape: 8 512 19 19 (1478656)
I0524 17:38:16.592660 20451 net.cpp:165] Memory required for data: 1739481152
I0524 17:38:16.592663 20451 layer_factory.hpp:77] Creating layer conv5_2
I0524 17:38:16.592684 20451 net.cpp:100] Creating Layer conv5_2
I0524 17:38:16.592685 20451 net.cpp:434] conv5_2 <- conv5_1
I0524 17:38:16.592689 20451 net.cpp:408] conv5_2 -> conv5_2
I0524 17:38:16.604246 20451 net.cpp:150] Setting up conv5_2
I0524 17:38:16.604264 20451 net.cpp:157] Top shape: 8 512 19 19 (1478656)
I0524 17:38:16.604266 20451 net.cpp:165] Memory required for data: 1745395776
I0524 17:38:16.604272 20451 layer_factory.hpp:77] Creating layer relu5_2
I0524 17:38:16.604292 20451 net.cpp:100] Creating Layer relu5_2
I0524 17:38:16.604296 20451 net.cpp:434] relu5_2 <- conv5_2
I0524 17:38:16.604300 20451 net.cpp:395] relu5_2 -> conv5_2 (in-place)
I0524 17:38:16.604306 20451 net.cpp:150] Setting up relu5_2
I0524 17:38:16.604310 20451 net.cpp:157] Top shape: 8 512 19 19 (1478656)
I0524 17:38:16.604311 20451 net.cpp:165] Memory required for data: 1751310400
I0524 17:38:16.604313 20451 layer_factory.hpp:77] Creating layer conv5_3
I0524 17:38:16.604334 20451 net.cpp:100] Creating Layer conv5_3
I0524 17:38:16.604337 20451 net.cpp:434] conv5_3 <- conv5_2
I0524 17:38:16.604357 20451 net.cpp:408] conv5_3 -> conv5_3
I0524 17:38:16.616690 20451 net.cpp:150] Setting up conv5_3
I0524 17:38:16.616708 20451 net.cpp:157] Top shape: 8 512 19 19 (1478656)
I0524 17:38:16.616709 20451 net.cpp:165] Memory required for data: 1757225024
I0524 17:38:16.616716 20451 layer_factory.hpp:77] Creating layer relu5_3
I0524 17:38:16.616741 20451 net.cpp:100] Creating Layer relu5_3
I0524 17:38:16.616744 20451 net.cpp:434] relu5_3 <- conv5_3
I0524 17:38:16.616749 20451 net.cpp:395] relu5_3 -> conv5_3 (in-place)
I0524 17:38:16.616755 20451 net.cpp:150] Setting up relu5_3
I0524 17:38:16.616758 20451 net.cpp:157] Top shape: 8 512 19 19 (1478656)
I0524 17:38:16.616776 20451 net.cpp:165] Memory required for data: 1763139648
I0524 17:38:16.616778 20451 layer_factory.hpp:77] Creating layer pool5
I0524 17:38:16.616796 20451 net.cpp:100] Creating Layer pool5
I0524 17:38:16.616801 20451 net.cpp:434] pool5 <- conv5_3
I0524 17:38:16.616804 20451 net.cpp:408] pool5 -> pool5
I0524 17:38:16.616832 20451 net.cpp:150] Setting up pool5
I0524 17:38:16.616837 20451 net.cpp:157] Top shape: 8 512 19 19 (1478656)
I0524 17:38:16.616837 20451 net.cpp:165] Memory required for data: 1769054272
I0524 17:38:16.616839 20451 layer_factory.hpp:77] Creating layer fc6
I0524 17:38:16.616847 20451 net.cpp:100] Creating Layer fc6
I0524 17:38:16.616848 20451 net.cpp:434] fc6 <- pool5
I0524 17:38:16.616852 20451 net.cpp:408] fc6 -> fc6
I0524 17:38:16.641371 20451 net.cpp:150] Setting up fc6
I0524 17:38:16.641388 20451 net.cpp:157] Top shape: 8 1024 19 19 (2957312)
I0524 17:38:16.641391 20451 net.cpp:165] Memory required for data: 1780883520
I0524 17:38:16.641398 20451 layer_factory.hpp:77] Creating layer relu6
I0524 17:38:16.641420 20451 net.cpp:100] Creating Layer relu6
I0524 17:38:16.641423 20451 net.cpp:434] relu6 <- fc6
I0524 17:38:16.641428 20451 net.cpp:395] relu6 -> fc6 (in-place)
I0524 17:38:16.641435 20451 net.cpp:150] Setting up relu6
I0524 17:38:16.641438 20451 net.cpp:157] Top shape: 8 1024 19 19 (2957312)
I0524 17:38:16.641439 20451 net.cpp:165] Memory required for data: 1792712768
I0524 17:38:16.641443 20451 layer_factory.hpp:77] Creating layer fc7
I0524 17:38:16.641448 20451 net.cpp:100] Creating Layer fc7
I0524 17:38:16.641464 20451 net.cpp:434] fc7 <- fc6
I0524 17:38:16.641469 20451 net.cpp:408] fc7 -> fc7
I0524 17:38:16.647091 20451 net.cpp:150] Setting up fc7
I0524 17:38:16.647106 20451 net.cpp:157] Top shape: 8 1024 19 19 (2957312)
I0524 17:38:16.647109 20451 net.cpp:165] Memory required for data: 1804542016
I0524 17:38:16.647143 20451 layer_factory.hpp:77] Creating layer relu7
I0524 17:38:16.647150 20451 net.cpp:100] Creating Layer relu7
I0524 17:38:16.647155 20451 net.cpp:434] relu7 <- fc7
I0524 17:38:16.647157 20451 net.cpp:395] relu7 -> fc7 (in-place)
I0524 17:38:16.647164 20451 net.cpp:150] Setting up relu7
I0524 17:38:16.647167 20451 net.cpp:157] Top shape: 8 1024 19 19 (2957312)
I0524 17:38:16.647171 20451 net.cpp:165] Memory required for data: 1816371264
I0524 17:38:16.647172 20451 layer_factory.hpp:77] Creating layer fc7_relu7_0_split
I0524 17:38:16.647192 20451 net.cpp:100] Creating Layer fc7_relu7_0_split
I0524 17:38:16.647194 20451 net.cpp:434] fc7_relu7_0_split <- fc7
I0524 17:38:16.647199 20451 net.cpp:408] fc7_relu7_0_split -> fc7_relu7_0_split_0
I0524 17:38:16.647205 20451 net.cpp:408] fc7_relu7_0_split -> fc7_relu7_0_split_1
I0524 17:38:16.647214 20451 net.cpp:408] fc7_relu7_0_split -> fc7_relu7_0_split_2
I0524 17:38:16.647219 20451 net.cpp:408] fc7_relu7_0_split -> fc7_relu7_0_split_3
I0524 17:38:16.647270 20451 net.cpp:150] Setting up fc7_relu7_0_split
I0524 17:38:16.647275 20451 net.cpp:157] Top shape: 8 1024 19 19 (2957312)
I0524 17:38:16.647279 20451 net.cpp:157] Top shape: 8 1024 19 19 (2957312)
I0524 17:38:16.647281 20451 net.cpp:157] Top shape: 8 1024 19 19 (2957312)
I0524 17:38:16.647285 20451 net.cpp:157] Top shape: 8 1024 19 19 (2957312)
I0524 17:38:16.647287 20451 net.cpp:165] Memory required for data: 1863688256
I0524 17:38:16.647289 20451 layer_factory.hpp:77] Creating layer conv6_1
I0524 17:38:16.647297 20451 net.cpp:100] Creating Layer conv6_1
I0524 17:38:16.647301 20451 net.cpp:434] conv6_1 <- fc7_relu7_0_split_0
I0524 17:38:16.647305 20451 net.cpp:408] conv6_1 -> conv6_1
I0524 17:38:16.649222 20451 net.cpp:150] Setting up conv6_1
I0524 17:38:16.649230 20451 net.cpp:157] Top shape: 8 256 19 19 (739328)
I0524 17:38:16.649235 20451 net.cpp:165] Memory required for data: 1866645568
I0524 17:38:16.649238 20451 layer_factory.hpp:77] Creating layer conv6_1_relu
I0524 17:38:16.649242 20451 net.cpp:100] Creating Layer conv6_1_relu
I0524 17:38:16.649246 20451 net.cpp:434] conv6_1_relu <- conv6_1
I0524 17:38:16.649255 20451 net.cpp:395] conv6_1_relu -> conv6_1 (in-place)
I0524 17:38:16.649260 20451 net.cpp:150] Setting up conv6_1_relu
I0524 17:38:16.649262 20451 net.cpp:157] Top shape: 8 256 19 19 (739328)
I0524 17:38:16.649265 20451 net.cpp:165] Memory required for data: 1869602880
I0524 17:38:16.649267 20451 layer_factory.hpp:77] Creating layer conv6_2
I0524 17:38:16.649273 20451 net.cpp:100] Creating Layer conv6_2
I0524 17:38:16.649276 20451 net.cpp:434] conv6_2 <- conv6_1
I0524 17:38:16.649281 20451 net.cpp:408] conv6_2 -> conv6_2
I0524 17:38:16.655477 20451 net.cpp:150] Setting up conv6_2
I0524 17:38:16.655491 20451 net.cpp:157] Top shape: 8 512 10 10 (409600)
I0524 17:38:16.655494 20451 net.cpp:165] Memory required for data: 1871241280
I0524 17:38:16.655520 20451 layer_factory.hpp:77] Creating layer conv6_2_relu
I0524 17:38:16.655529 20451 net.cpp:100] Creating Layer conv6_2_relu
I0524 17:38:16.655531 20451 net.cpp:434] conv6_2_relu <- conv6_2
I0524 17:38:16.655550 20451 net.cpp:395] conv6_2_relu -> conv6_2 (in-place)
I0524 17:38:16.655570 20451 net.cpp:150] Setting up conv6_2_relu
I0524 17:38:16.655575 20451 net.cpp:157] Top shape: 8 512 10 10 (409600)
I0524 17:38:16.655576 20451 net.cpp:165] Memory required for data: 1872879680
I0524 17:38:16.655578 20451 layer_factory.hpp:77] Creating layer conv6_2_conv6_2_relu_0_split
I0524 17:38:16.655582 20451 net.cpp:100] Creating Layer conv6_2_conv6_2_relu_0_split
I0524 17:38:16.655586 20451 net.cpp:434] conv6_2_conv6_2_relu_0_split <- conv6_2
I0524 17:38:16.655591 20451 net.cpp:408] conv6_2_conv6_2_relu_0_split -> conv6_2_conv6_2_relu_0_split_0
I0524 17:38:16.655611 20451 net.cpp:408] conv6_2_conv6_2_relu_0_split -> conv6_2_conv6_2_relu_0_split_1
I0524 17:38:16.655614 20451 net.cpp:408] conv6_2_conv6_2_relu_0_split -> conv6_2_conv6_2_relu_0_split_2
I0524 17:38:16.655622 20451 net.cpp:408] conv6_2_conv6_2_relu_0_split -> conv6_2_conv6_2_relu_0_split_3
I0524 17:38:16.655710 20451 net.cpp:150] Setting up conv6_2_conv6_2_relu_0_split
I0524 17:38:16.655715 20451 net.cpp:157] Top shape: 8 512 10 10 (409600)
I0524 17:38:16.655719 20451 net.cpp:157] Top shape: 8 512 10 10 (409600)
I0524 17:38:16.655721 20451 net.cpp:157] Top shape: 8 512 10 10 (409600)
I0524 17:38:16.655724 20451 net.cpp:157] Top shape: 8 512 10 10 (409600)
I0524 17:38:16.655726 20451 net.cpp:165] Memory required for data: 1879433280
I0524 17:38:16.655728 20451 layer_factory.hpp:77] Creating layer conv7_1
I0524 17:38:16.655750 20451 net.cpp:100] Creating Layer conv7_1
I0524 17:38:16.655752 20451 net.cpp:434] conv7_1 <- conv6_2_conv6_2_relu_0_split_0
I0524 17:38:16.655758 20451 net.cpp:408] conv7_1 -> conv7_1
I0524 17:38:16.656244 20451 net.cpp:150] Setting up conv7_1
I0524 17:38:16.656250 20451 net.cpp:157] Top shape: 8 128 10 10 (102400)
I0524 17:38:16.656252 20451 net.cpp:165] Memory required for data: 1879842880
I0524 17:38:16.656256 20451 layer_factory.hpp:77] Creating layer conv7_1_relu
I0524 17:38:16.656260 20451 net.cpp:100] Creating Layer conv7_1_relu
I0524 17:38:16.656263 20451 net.cpp:434] conv7_1_relu <- conv7_1
I0524 17:38:16.656266 20451 net.cpp:395] conv7_1_relu -> conv7_1 (in-place)
I0524 17:38:16.656270 20451 net.cpp:150] Setting up conv7_1_relu
I0524 17:38:16.656272 20451 net.cpp:157] Top shape: 8 128 10 10 (102400)
I0524 17:38:16.656275 20451 net.cpp:165] Memory required for data: 1880252480
I0524 17:38:16.656277 20451 layer_factory.hpp:77] Creating layer conv7_2
I0524 17:38:16.656282 20451 net.cpp:100] Creating Layer conv7_2
I0524 17:38:16.656286 20451 net.cpp:434] conv7_2 <- conv7_1
I0524 17:38:16.656291 20451 net.cpp:408] conv7_2 -> conv7_2
I0524 17:38:16.658540 20451 net.cpp:150] Setting up conv7_2
I0524 17:38:16.658570 20451 net.cpp:157] Top shape: 8 256 5 5 (51200)
I0524 17:38:16.658571 20451 net.cpp:165] Memory required for data: 1880457280
I0524 17:38:16.658592 20451 layer_factory.hpp:77] Creating layer conv7_2_relu
I0524 17:38:16.658612 20451 net.cpp:100] Creating Layer conv7_2_relu
I0524 17:38:16.658615 20451 net.cpp:434] conv7_2_relu <- conv7_2
I0524 17:38:16.658619 20451 net.cpp:395] conv7_2_relu -> conv7_2 (in-place)
I0524 17:38:16.658627 20451 net.cpp:150] Setting up conv7_2_relu
I0524 17:38:16.658629 20451 net.cpp:157] Top shape: 8 256 5 5 (51200)
I0524 17:38:16.658632 20451 net.cpp:165] Memory required for data: 1880662080
I0524 17:38:16.658633 20451 layer_factory.hpp:77] Creating layer conv7_2_conv7_2_relu_0_split
I0524 17:38:16.658638 20451 net.cpp:100] Creating Layer conv7_2_conv7_2_relu_0_split
I0524 17:38:16.658641 20451 net.cpp:434] conv7_2_conv7_2_relu_0_split <- conv7_2
I0524 17:38:16.658645 20451 net.cpp:408] conv7_2_conv7_2_relu_0_split -> conv7_2_conv7_2_relu_0_split_0
I0524 17:38:16.658650 20451 net.cpp:408] conv7_2_conv7_2_relu_0_split -> conv7_2_conv7_2_relu_0_split_1
I0524 17:38:16.658656 20451 net.cpp:408] conv7_2_conv7_2_relu_0_split -> conv7_2_conv7_2_relu_0_split_2
I0524 17:38:16.658660 20451 net.cpp:408] conv7_2_conv7_2_relu_0_split -> conv7_2_conv7_2_relu_0_split_3
I0524 17:38:16.658735 20451 net.cpp:150] Setting up conv7_2_conv7_2_relu_0_split
I0524 17:38:16.658740 20451 net.cpp:157] Top shape: 8 256 5 5 (51200)
I0524 17:38:16.658743 20451 net.cpp:157] Top shape: 8 256 5 5 (51200)
I0524 17:38:16.658746 20451 net.cpp:157] Top shape: 8 256 5 5 (51200)
I0524 17:38:16.658749 20451 net.cpp:157] Top shape: 8 256 5 5 (51200)
I0524 17:38:16.658751 20451 net.cpp:165] Memory required for data: 1881481280
I0524 17:38:16.658754 20451 layer_factory.hpp:77] Creating layer conv8_1
I0524 17:38:16.658777 20451 net.cpp:100] Creating Layer conv8_1
I0524 17:38:16.658780 20451 net.cpp:434] conv8_1 <- conv7_2_conv7_2_relu_0_split_0
I0524 17:38:16.658785 20451 net.cpp:408] conv8_1 -> conv8_1
I0524 17:38:16.659128 20451 net.cpp:150] Setting up conv8_1
I0524 17:38:16.659133 20451 net.cpp:157] Top shape: 8 128 5 5 (25600)
I0524 17:38:16.659137 20451 net.cpp:165] Memory required for data: 1881583680
I0524 17:38:16.659140 20451 layer_factory.hpp:77] Creating layer conv8_1_relu
I0524 17:38:16.659154 20451 net.cpp:100] Creating Layer conv8_1_relu
I0524 17:38:16.659157 20451 net.cpp:434] conv8_1_relu <- conv8_1
I0524 17:38:16.659165 20451 net.cpp:395] conv8_1_relu -> conv8_1 (in-place)
I0524 17:38:16.659169 20451 net.cpp:150] Setting up conv8_1_relu
I0524 17:38:16.659173 20451 net.cpp:157] Top shape: 8 128 5 5 (25600)
I0524 17:38:16.659175 20451 net.cpp:165] Memory required for data: 1881686080
I0524 17:38:16.659178 20451 layer_factory.hpp:77] Creating layer conv8_2
I0524 17:38:16.659183 20451 net.cpp:100] Creating Layer conv8_2
I0524 17:38:16.659186 20451 net.cpp:434] conv8_2 <- conv8_1
I0524 17:38:16.659189 20451 net.cpp:408] conv8_2 -> conv8_2
I0524 17:38:16.661211 20451 net.cpp:150] Setting up conv8_2
I0524 17:38:16.661221 20451 net.cpp:157] Top shape: 8 256 3 3 (18432)
I0524 17:38:16.661223 20451 net.cpp:165] Memory required for data: 1881759808
I0524 17:38:16.661227 20451 layer_factory.hpp:77] Creating layer conv8_2_relu
I0524 17:38:16.661231 20451 net.cpp:100] Creating Layer conv8_2_relu
I0524 17:38:16.661234 20451 net.cpp:434] conv8_2_relu <- conv8_2
I0524 17:38:16.661239 20451 net.cpp:395] conv8_2_relu -> conv8_2 (in-place)
I0524 17:38:16.661243 20451 net.cpp:150] Setting up conv8_2_relu
I0524 17:38:16.661247 20451 net.cpp:157] Top shape: 8 256 3 3 (18432)
I0524 17:38:16.661249 20451 net.cpp:165] Memory required for data: 1881833536
I0524 17:38:16.661257 20451 layer_factory.hpp:77] Creating layer conv8_2_conv8_2_relu_0_split
I0524 17:38:16.661259 20451 net.cpp:100] Creating Layer conv8_2_conv8_2_relu_0_split
I0524 17:38:16.661262 20451 net.cpp:434] conv8_2_conv8_2_relu_0_split <- conv8_2
I0524 17:38:16.661265 20451 net.cpp:408] conv8_2_conv8_2_relu_0_split -> conv8_2_conv8_2_relu_0_split_0
I0524 17:38:16.661272 20451 net.cpp:408] conv8_2_conv8_2_relu_0_split -> conv8_2_conv8_2_relu_0_split_1
I0524 17:38:16.661276 20451 net.cpp:408] conv8_2_conv8_2_relu_0_split -> conv8_2_conv8_2_relu_0_split_2
I0524 17:38:16.661281 20451 net.cpp:408] conv8_2_conv8_2_relu_0_split -> conv8_2_conv8_2_relu_0_split_3
I0524 17:38:16.661329 20451 net.cpp:150] Setting up conv8_2_conv8_2_relu_0_split
I0524 17:38:16.661334 20451 net.cpp:157] Top shape: 8 256 3 3 (18432)
I0524 17:38:16.661337 20451 net.cpp:157] Top shape: 8 256 3 3 (18432)
I0524 17:38:16.661340 20451 net.cpp:157] Top shape: 8 256 3 3 (18432)
I0524 17:38:16.661344 20451 net.cpp:157] Top shape: 8 256 3 3 (18432)
I0524 17:38:16.661346 20451 net.cpp:165] Memory required for data: 1882128448
I0524 17:38:16.661348 20451 layer_factory.hpp:77] Creating layer conv9_1
I0524 17:38:16.661353 20451 net.cpp:100] Creating Layer conv9_1
I0524 17:38:16.661357 20451 net.cpp:434] conv9_1 <- conv8_2_conv8_2_relu_0_split_0
I0524 17:38:16.661362 20451 net.cpp:408] conv9_1 -> conv9_1
I0524 17:38:16.662302 20451 net.cpp:150] Setting up conv9_1
I0524 17:38:16.662310 20451 net.cpp:157] Top shape: 8 128 3 3 (9216)
I0524 17:38:16.662313 20451 net.cpp:165] Memory required for data: 1882165312
I0524 17:38:16.662317 20451 layer_factory.hpp:77] Creating layer conv9_1_relu
I0524 17:38:16.662322 20451 net.cpp:100] Creating Layer conv9_1_relu
I0524 17:38:16.662325 20451 net.cpp:434] conv9_1_relu <- conv9_1
I0524 17:38:16.662329 20451 net.cpp:395] conv9_1_relu -> conv9_1 (in-place)
I0524 17:38:16.662334 20451 net.cpp:150] Setting up conv9_1_relu
I0524 17:38:16.662338 20451 net.cpp:157] Top shape: 8 128 3 3 (9216)
I0524 17:38:16.662340 20451 net.cpp:165] Memory required for data: 1882202176
I0524 17:38:16.662343 20451 layer_factory.hpp:77] Creating layer conv9_2
I0524 17:38:16.662348 20451 net.cpp:100] Creating Layer conv9_2
I0524 17:38:16.662351 20451 net.cpp:434] conv9_2 <- conv9_1
I0524 17:38:16.662355 20451 net.cpp:408] conv9_2 -> conv9_2
I0524 17:38:16.664309 20451 net.cpp:150] Setting up conv9_2
I0524 17:38:16.664319 20451 net.cpp:157] Top shape: 8 256 1 1 (2048)
I0524 17:38:16.664320 20451 net.cpp:165] Memory required for data: 1882210368
I0524 17:38:16.664324 20451 layer_factory.hpp:77] Creating layer conv9_2_relu
I0524 17:38:16.664328 20451 net.cpp:100] Creating Layer conv9_2_relu
I0524 17:38:16.664342 20451 net.cpp:434] conv9_2_relu <- conv9_2
I0524 17:38:16.664346 20451 net.cpp:395] conv9_2_relu -> conv9_2 (in-place)
I0524 17:38:16.664350 20451 net.cpp:150] Setting up conv9_2_relu
I0524 17:38:16.664353 20451 net.cpp:157] Top shape: 8 256 1 1 (2048)
I0524 17:38:16.664357 20451 net.cpp:165] Memory required for data: 1882218560
I0524 17:38:16.664360 20451 layer_factory.hpp:77] Creating layer conv9_2_conv9_2_relu_0_split
I0524 17:38:16.664362 20451 net.cpp:100] Creating Layer conv9_2_conv9_2_relu_0_split
I0524 17:38:16.664366 20451 net.cpp:434] conv9_2_conv9_2_relu_0_split <- conv9_2
I0524 17:38:16.664371 20451 net.cpp:408] conv9_2_conv9_2_relu_0_split -> conv9_2_conv9_2_relu_0_split_0
I0524 17:38:16.664377 20451 net.cpp:408] conv9_2_conv9_2_relu_0_split -> conv9_2_conv9_2_relu_0_split_1
I0524 17:38:16.664397 20451 net.cpp:408] conv9_2_conv9_2_relu_0_split -> conv9_2_conv9_2_relu_0_split_2
I0524 17:38:16.664446 20451 net.cpp:150] Setting up conv9_2_conv9_2_relu_0_split
I0524 17:38:16.664451 20451 net.cpp:157] Top shape: 8 256 1 1 (2048)
I0524 17:38:16.664454 20451 net.cpp:157] Top shape: 8 256 1 1 (2048)
I0524 17:38:16.664456 20451 net.cpp:157] Top shape: 8 256 1 1 (2048)
I0524 17:38:16.664458 20451 net.cpp:165] Memory required for data: 1882243136
I0524 17:38:16.664460 20451 layer_factory.hpp:77] Creating layer conv4_3_norm
I0524 17:38:16.664465 20451 net.cpp:100] Creating Layer conv4_3_norm
I0524 17:38:16.664469 20451 net.cpp:434] conv4_3_norm <- conv4_3_relu4_3_0_split_1
I0524 17:38:16.664472 20451 net.cpp:408] conv4_3_norm -> conv4_3_norm
I0524 17:38:16.664587 20451 net.cpp:150] Setting up conv4_3_norm
I0524 17:38:16.664592 20451 net.cpp:157] Top shape: 8 512 38 38 (5914624)
I0524 17:38:16.664594 20451 net.cpp:165] Memory required for data: 1905901632
I0524 17:38:16.664598 20451 layer_factory.hpp:77] Creating layer conv4_3_norm_conv4_3_norm_0_split
I0524 17:38:16.664603 20451 net.cpp:100] Creating Layer conv4_3_norm_conv4_3_norm_0_split
I0524 17:38:16.664607 20451 net.cpp:434] conv4_3_norm_conv4_3_norm_0_split <- conv4_3_norm
I0524 17:38:16.664609 20451 net.cpp:408] conv4_3_norm_conv4_3_norm_0_split -> conv4_3_norm_conv4_3_norm_0_split_0
I0524 17:38:16.664614 20451 net.cpp:408] conv4_3_norm_conv4_3_norm_0_split -> conv4_3_norm_conv4_3_norm_0_split_1
I0524 17:38:16.664619 20451 net.cpp:408] conv4_3_norm_conv4_3_norm_0_split -> conv4_3_norm_conv4_3_norm_0_split_2
I0524 17:38:16.664651 20451 net.cpp:150] Setting up conv4_3_norm_conv4_3_norm_0_split
I0524 17:38:16.664656 20451 net.cpp:157] Top shape: 8 512 38 38 (5914624)
I0524 17:38:16.664659 20451 net.cpp:157] Top shape: 8 512 38 38 (5914624)
I0524 17:38:16.664662 20451 net.cpp:157] Top shape: 8 512 38 38 (5914624)
I0524 17:38:16.664664 20451 net.cpp:165] Memory required for data: 1976877120
I0524 17:38:16.664666 20451 layer_factory.hpp:77] Creating layer conv4_3_norm_mbox_loc
I0524 17:38:16.664672 20451 net.cpp:100] Creating Layer conv4_3_norm_mbox_loc
I0524 17:38:16.664676 20451 net.cpp:434] conv4_3_norm_mbox_loc <- conv4_3_norm_conv4_3_norm_0_split_0
I0524 17:38:16.664680 20451 net.cpp:408] conv4_3_norm_mbox_loc -> conv4_3_norm_mbox_loc
I0524 17:38:16.665144 20451 net.cpp:150] Setting up conv4_3_norm_mbox_loc
I0524 17:38:16.665150 20451 net.cpp:157] Top shape: 8 16 38 38 (184832)
I0524 17:38:16.665153 20451 net.cpp:165] Memory required for data: 1977616448
I0524 17:38:16.665158 20451 layer_factory.hpp:77] Creating layer conv4_3_norm_mbox_loc_perm
I0524 17:38:16.665163 20451 net.cpp:100] Creating Layer conv4_3_norm_mbox_loc_perm
I0524 17:38:16.665168 20451 net.cpp:434] conv4_3_norm_mbox_loc_perm <- conv4_3_norm_mbox_loc
I0524 17:38:16.665171 20451 net.cpp:408] conv4_3_norm_mbox_loc_perm -> conv4_3_norm_mbox_loc_perm
I0524 17:38:16.665282 20451 net.cpp:150] Setting up conv4_3_norm_mbox_loc_perm
I0524 17:38:16.665288 20451 net.cpp:157] Top shape: 8 38 38 16 (184832)
I0524 17:38:16.665290 20451 net.cpp:165] Memory required for data: 1978355776
I0524 17:38:16.665292 20451 layer_factory.hpp:77] Creating layer conv4_3_norm_mbox_loc_flat
I0524 17:38:16.665297 20451 net.cpp:100] Creating Layer conv4_3_norm_mbox_loc_flat
I0524 17:38:16.665305 20451 net.cpp:434] conv4_3_norm_mbox_loc_flat <- conv4_3_norm_mbox_loc_perm
I0524 17:38:16.665310 20451 net.cpp:408] conv4_3_norm_mbox_loc_flat -> conv4_3_norm_mbox_loc_flat
I0524 17:38:16.665336 20451 net.cpp:150] Setting up conv4_3_norm_mbox_loc_flat
I0524 17:38:16.665355 20451 net.cpp:157] Top shape: 8 23104 (184832)
I0524 17:38:16.665359 20451 net.cpp:165] Memory required for data: 1979095104
I0524 17:38:16.665360 20451 layer_factory.hpp:77] Creating layer conv4_3_norm_mbox_conf
I0524 17:38:16.665385 20451 net.cpp:100] Creating Layer conv4_3_norm_mbox_conf
I0524 17:38:16.665390 20451 net.cpp:434] conv4_3_norm_mbox_conf <- conv4_3_norm_conv4_3_norm_0_split_1
I0524 17:38:16.665395 20451 net.cpp:408] conv4_3_norm_mbox_conf -> conv4_3_norm_mbox_conf
I0524 17:38:16.667803 20451 net.cpp:150] Setting up conv4_3_norm_mbox_conf
I0524 17:38:16.667812 20451 net.cpp:157] Top shape: 8 84 38 38 (970368)
I0524 17:38:16.667829 20451 net.cpp:165] Memory required for data: 1982976576
I0524 17:38:16.667834 20451 layer_factory.hpp:77] Creating layer conv4_3_norm_mbox_conf_perm
I0524 17:38:16.667840 20451 net.cpp:100] Creating Layer conv4_3_norm_mbox_conf_perm
I0524 17:38:16.667845 20451 net.cpp:434] conv4_3_norm_mbox_conf_perm <- conv4_3_norm_mbox_conf
I0524 17:38:16.667850 20451 net.cpp:408] conv4_3_norm_mbox_conf_perm -> conv4_3_norm_mbox_conf_perm
I0524 17:38:16.667937 20451 net.cpp:150] Setting up conv4_3_norm_mbox_conf_perm
I0524 17:38:16.667943 20451 net.cpp:157] Top shape: 8 38 38 84 (970368)
I0524 17:38:16.667948 20451 net.cpp:165] Memory required for data: 1986858048
I0524 17:38:16.667950 20451 layer_factory.hpp:77] Creating layer conv4_3_norm_mbox_conf_flat
I0524 17:38:16.667954 20451 net.cpp:100] Creating Layer conv4_3_norm_mbox_conf_flat
I0524 17:38:16.667956 20451 net.cpp:434] conv4_3_norm_mbox_conf_flat <- conv4_3_norm_mbox_conf_perm
I0524 17:38:16.667961 20451 net.cpp:408] conv4_3_norm_mbox_conf_flat -> conv4_3_norm_mbox_conf_flat
I0524 17:38:16.667981 20451 net.cpp:150] Setting up conv4_3_norm_mbox_conf_flat
I0524 17:38:16.667985 20451 net.cpp:157] Top shape: 8 121296 (970368)
I0524 17:38:16.667987 20451 net.cpp:165] Memory required for data: 1990739520
I0524 17:38:16.667989 20451 layer_factory.hpp:77] Creating layer conv4_3_norm_mbox_priorbox
I0524 17:38:16.667995 20451 net.cpp:100] Creating Layer conv4_3_norm_mbox_priorbox
I0524 17:38:16.667999 20451 net.cpp:434] conv4_3_norm_mbox_priorbox <- conv4_3_norm_conv4_3_norm_0_split_2
I0524 17:38:16.668002 20451 net.cpp:434] conv4_3_norm_mbox_priorbox <- data_data_0_split_1
I0524 17:38:16.668006 20451 net.cpp:408] conv4_3_norm_mbox_priorbox -> conv4_3_norm_mbox_priorbox
I0524 17:38:16.668028 20451 net.cpp:150] Setting up conv4_3_norm_mbox_priorbox
I0524 17:38:16.668032 20451 net.cpp:157] Top shape: 1 2 23104 (46208)
I0524 17:38:16.668035 20451 net.cpp:165] Memory required for data: 1990924352
I0524 17:38:16.668037 20451 layer_factory.hpp:77] Creating layer fc7_mbox_loc
I0524 17:38:16.668045 20451 net.cpp:100] Creating Layer fc7_mbox_loc
I0524 17:38:16.668048 20451 net.cpp:434] fc7_mbox_loc <- fc7_relu7_0_split_1
I0524 17:38:16.668052 20451 net.cpp:408] fc7_mbox_loc -> fc7_mbox_loc
I0524 17:38:16.669116 20451 net.cpp:150] Setting up fc7_mbox_loc
I0524 17:38:16.669124 20451 net.cpp:157] Top shape: 8 24 19 19 (69312)
I0524 17:38:16.669126 20451 net.cpp:165] Memory required for data: 1991201600
I0524 17:38:16.669131 20451 layer_factory.hpp:77] Creating layer fc7_mbox_loc_perm
I0524 17:38:16.669134 20451 net.cpp:100] Creating Layer fc7_mbox_loc_perm
I0524 17:38:16.669138 20451 net.cpp:434] fc7_mbox_loc_perm <- fc7_mbox_loc
I0524 17:38:16.669142 20451 net.cpp:408] fc7_mbox_loc_perm -> fc7_mbox_loc_perm
I0524 17:38:16.669214 20451 net.cpp:150] Setting up fc7_mbox_loc_perm
I0524 17:38:16.669219 20451 net.cpp:157] Top shape: 8 19 19 24 (69312)
I0524 17:38:16.669222 20451 net.cpp:165] Memory required for data: 1991478848
I0524 17:38:16.669224 20451 layer_factory.hpp:77] Creating layer fc7_mbox_loc_flat
I0524 17:38:16.669239 20451 net.cpp:100] Creating Layer fc7_mbox_loc_flat
I0524 17:38:16.669241 20451 net.cpp:434] fc7_mbox_loc_flat <- fc7_mbox_loc_perm
I0524 17:38:16.669245 20451 net.cpp:408] fc7_mbox_loc_flat -> fc7_mbox_loc_flat
I0524 17:38:16.669266 20451 net.cpp:150] Setting up fc7_mbox_loc_flat
I0524 17:38:16.669271 20451 net.cpp:157] Top shape: 8 8664 (69312)
I0524 17:38:16.669273 20451 net.cpp:165] Memory required for data: 1991756096
I0524 17:38:16.669276 20451 layer_factory.hpp:77] Creating layer fc7_mbox_conf
I0524 17:38:16.669283 20451 net.cpp:100] Creating Layer fc7_mbox_conf
I0524 17:38:16.669286 20451 net.cpp:434] fc7_mbox_conf <- fc7_relu7_0_split_2
I0524 17:38:16.669291 20451 net.cpp:408] fc7_mbox_conf -> fc7_mbox_conf
I0524 17:38:16.675730 20451 net.cpp:150] Setting up fc7_mbox_conf
I0524 17:38:16.675750 20451 net.cpp:157] Top shape: 8 126 19 19 (363888)
I0524 17:38:16.675752 20451 net.cpp:165] Memory required for data: 1993211648
I0524 17:38:16.675758 20451 layer_factory.hpp:77] Creating layer fc7_mbox_conf_perm
I0524 17:38:16.675781 20451 net.cpp:100] Creating Layer fc7_mbox_conf_perm
I0524 17:38:16.675784 20451 net.cpp:434] fc7_mbox_conf_perm <- fc7_mbox_conf
I0524 17:38:16.675789 20451 net.cpp:408] fc7_mbox_conf_perm -> fc7_mbox_conf_perm
I0524 17:38:16.675880 20451 net.cpp:150] Setting up fc7_mbox_conf_perm
I0524 17:38:16.675885 20451 net.cpp:157] Top shape: 8 19 19 126 (363888)
I0524 17:38:16.675887 20451 net.cpp:165] Memory required for data: 1994667200
I0524 17:38:16.675889 20451 layer_factory.hpp:77] Creating layer fc7_mbox_conf_flat
I0524 17:38:16.675894 20451 net.cpp:100] Creating Layer fc7_mbox_conf_flat
I0524 17:38:16.675897 20451 net.cpp:434] fc7_mbox_conf_flat <- fc7_mbox_conf_perm
I0524 17:38:16.675914 20451 net.cpp:408] fc7_mbox_conf_flat -> fc7_mbox_conf_flat
I0524 17:38:16.675931 20451 net.cpp:150] Setting up fc7_mbox_conf_flat
I0524 17:38:16.675948 20451 net.cpp:157] Top shape: 8 45486 (363888)
I0524 17:38:16.675951 20451 net.cpp:165] Memory required for data: 1996122752
I0524 17:38:16.675952 20451 layer_factory.hpp:77] Creating layer fc7_mbox_priorbox
I0524 17:38:16.675957 20451 net.cpp:100] Creating Layer fc7_mbox_priorbox
I0524 17:38:16.675959 20451 net.cpp:434] fc7_mbox_priorbox <- fc7_relu7_0_split_3
I0524 17:38:16.675978 20451 net.cpp:434] fc7_mbox_priorbox <- data_data_0_split_2
I0524 17:38:16.675981 20451 net.cpp:408] fc7_mbox_priorbox -> fc7_mbox_priorbox
I0524 17:38:16.676015 20451 net.cpp:150] Setting up fc7_mbox_priorbox
I0524 17:38:16.676033 20451 net.cpp:157] Top shape: 1 2 8664 (17328)
I0524 17:38:16.676034 20451 net.cpp:165] Memory required for data: 1996192064
I0524 17:38:16.676036 20451 layer_factory.hpp:77] Creating layer conv6_2_mbox_loc
I0524 17:38:16.676056 20451 net.cpp:100] Creating Layer conv6_2_mbox_loc
I0524 17:38:16.676059 20451 net.cpp:434] conv6_2_mbox_loc <- conv6_2_conv6_2_relu_0_split_1
I0524 17:38:16.676064 20451 net.cpp:408] conv6_2_mbox_loc -> conv6_2_mbox_loc
I0524 17:38:16.676723 20451 net.cpp:150] Setting up conv6_2_mbox_loc
I0524 17:38:16.676728 20451 net.cpp:157] Top shape: 8 24 10 10 (19200)
I0524 17:38:16.676729 20451 net.cpp:165] Memory required for data: 1996268864
I0524 17:38:16.676734 20451 layer_factory.hpp:77] Creating layer conv6_2_mbox_loc_perm
I0524 17:38:16.676738 20451 net.cpp:100] Creating Layer conv6_2_mbox_loc_perm
I0524 17:38:16.676740 20451 net.cpp:434] conv6_2_mbox_loc_perm <- conv6_2_mbox_loc
I0524 17:38:16.676759 20451 net.cpp:408] conv6_2_mbox_loc_perm -> conv6_2_mbox_loc_perm
I0524 17:38:16.676857 20451 net.cpp:150] Setting up conv6_2_mbox_loc_perm
I0524 17:38:16.676862 20451 net.cpp:157] Top shape: 8 10 10 24 (19200)
I0524 17:38:16.676864 20451 net.cpp:165] Memory required for data: 1996345664
I0524 17:38:16.676867 20451 layer_factory.hpp:77] Creating layer conv6_2_mbox_loc_flat
I0524 17:38:16.676870 20451 net.cpp:100] Creating Layer conv6_2_mbox_loc_flat
I0524 17:38:16.676873 20451 net.cpp:434] conv6_2_mbox_loc_flat <- conv6_2_mbox_loc_perm
I0524 17:38:16.676877 20451 net.cpp:408] conv6_2_mbox_loc_flat -> conv6_2_mbox_loc_flat
I0524 17:38:16.676923 20451 net.cpp:150] Setting up conv6_2_mbox_loc_flat
I0524 17:38:16.676928 20451 net.cpp:157] Top shape: 8 2400 (19200)
I0524 17:38:16.676930 20451 net.cpp:165] Memory required for data: 1996422464
I0524 17:38:16.676933 20451 layer_factory.hpp:77] Creating layer conv6_2_mbox_conf
I0524 17:38:16.676939 20451 net.cpp:100] Creating Layer conv6_2_mbox_conf
I0524 17:38:16.676944 20451 net.cpp:434] conv6_2_mbox_conf <- conv6_2_conv6_2_relu_0_split_2
I0524 17:38:16.676947 20451 net.cpp:408] conv6_2_mbox_conf -> conv6_2_mbox_conf
I0524 17:38:16.680150 20451 net.cpp:150] Setting up conv6_2_mbox_conf
I0524 17:38:16.680160 20451 net.cpp:157] Top shape: 8 126 10 10 (100800)
I0524 17:38:16.680163 20451 net.cpp:165] Memory required for data: 1996825664
I0524 17:38:16.680167 20451 layer_factory.hpp:77] Creating layer conv6_2_mbox_conf_perm
I0524 17:38:16.680173 20451 net.cpp:100] Creating Layer conv6_2_mbox_conf_perm
I0524 17:38:16.680177 20451 net.cpp:434] conv6_2_mbox_conf_perm <- conv6_2_mbox_conf
I0524 17:38:16.680183 20451 net.cpp:408] conv6_2_mbox_conf_perm -> conv6_2_mbox_conf_perm
I0524 17:38:16.680258 20451 net.cpp:150] Setting up conv6_2_mbox_conf_perm
I0524 17:38:16.680261 20451 net.cpp:157] Top shape: 8 10 10 126 (100800)
I0524 17:38:16.680263 20451 net.cpp:165] Memory required for data: 1997228864
I0524 17:38:16.680266 20451 layer_factory.hpp:77] Creating layer conv6_2_mbox_conf_flat
I0524 17:38:16.680270 20451 net.cpp:100] Creating Layer conv6_2_mbox_conf_flat
I0524 17:38:16.680274 20451 net.cpp:434] conv6_2_mbox_conf_flat <- conv6_2_mbox_conf_perm
I0524 17:38:16.680276 20451 net.cpp:408] conv6_2_mbox_conf_flat -> conv6_2_mbox_conf_flat
I0524 17:38:16.680294 20451 net.cpp:150] Setting up conv6_2_mbox_conf_flat
I0524 17:38:16.680297 20451 net.cpp:157] Top shape: 8 12600 (100800)
I0524 17:38:16.680299 20451 net.cpp:165] Memory required for data: 1997632064
I0524 17:38:16.680301 20451 layer_factory.hpp:77] Creating layer conv6_2_mbox_priorbox
I0524 17:38:16.680307 20451 net.cpp:100] Creating Layer conv6_2_mbox_priorbox
I0524 17:38:16.680310 20451 net.cpp:434] conv6_2_mbox_priorbox <- conv6_2_conv6_2_relu_0_split_3
I0524 17:38:16.680313 20451 net.cpp:434] conv6_2_mbox_priorbox <- data_data_0_split_3
I0524 17:38:16.680317 20451 net.cpp:408] conv6_2_mbox_priorbox -> conv6_2_mbox_priorbox
I0524 17:38:16.680335 20451 net.cpp:150] Setting up conv6_2_mbox_priorbox
I0524 17:38:16.680341 20451 net.cpp:157] Top shape: 1 2 2400 (4800)
I0524 17:38:16.680341 20451 net.cpp:165] Memory required for data: 1997651264
I0524 17:38:16.680343 20451 layer_factory.hpp:77] Creating layer conv7_2_mbox_loc
I0524 17:38:16.680351 20451 net.cpp:100] Creating Layer conv7_2_mbox_loc
I0524 17:38:16.680353 20451 net.cpp:434] conv7_2_mbox_loc <- conv7_2_conv7_2_relu_0_split_1
I0524 17:38:16.680358 20451 net.cpp:408] conv7_2_mbox_loc -> conv7_2_mbox_loc
I0524 17:38:16.680748 20451 net.cpp:150] Setting up conv7_2_mbox_loc
I0524 17:38:16.680754 20451 net.cpp:157] Top shape: 8 24 5 5 (4800)
I0524 17:38:16.680755 20451 net.cpp:165] Memory required for data: 1997670464
I0524 17:38:16.680759 20451 layer_factory.hpp:77] Creating layer conv7_2_mbox_loc_perm
I0524 17:38:16.680764 20451 net.cpp:100] Creating Layer conv7_2_mbox_loc_perm
I0524 17:38:16.680768 20451 net.cpp:434] conv7_2_mbox_loc_perm <- conv7_2_mbox_loc
I0524 17:38:16.680771 20451 net.cpp:408] conv7_2_mbox_loc_perm -> conv7_2_mbox_loc_perm
I0524 17:38:16.680842 20451 net.cpp:150] Setting up conv7_2_mbox_loc_perm
I0524 17:38:16.680846 20451 net.cpp:157] Top shape: 8 5 5 24 (4800)
I0524 17:38:16.680850 20451 net.cpp:165] Memory required for data: 1997689664
I0524 17:38:16.680851 20451 layer_factory.hpp:77] Creating layer conv7_2_mbox_loc_flat
I0524 17:38:16.680855 20451 net.cpp:100] Creating Layer conv7_2_mbox_loc_flat
I0524 17:38:16.680858 20451 net.cpp:434] conv7_2_mbox_loc_flat <- conv7_2_mbox_loc_perm
I0524 17:38:16.680863 20451 net.cpp:408] conv7_2_mbox_loc_flat -> conv7_2_mbox_loc_flat
I0524 17:38:16.680879 20451 net.cpp:150] Setting up conv7_2_mbox_loc_flat
I0524 17:38:16.680891 20451 net.cpp:157] Top shape: 8 600 (4800)
I0524 17:38:16.680893 20451 net.cpp:165] Memory required for data: 1997708864
I0524 17:38:16.680896 20451 layer_factory.hpp:77] Creating layer conv7_2_mbox_conf
I0524 17:38:16.680902 20451 net.cpp:100] Creating Layer conv7_2_mbox_conf
I0524 17:38:16.680905 20451 net.cpp:434] conv7_2_mbox_conf <- conv7_2_conv7_2_relu_0_split_2
I0524 17:38:16.680909 20451 net.cpp:408] conv7_2_mbox_conf -> conv7_2_mbox_conf
I0524 17:38:16.682869 20451 net.cpp:150] Setting up conv7_2_mbox_conf
I0524 17:38:16.682880 20451 net.cpp:157] Top shape: 8 126 5 5 (25200)
I0524 17:38:16.682883 20451 net.cpp:165] Memory required for data: 1997809664
I0524 17:38:16.682886 20451 layer_factory.hpp:77] Creating layer conv7_2_mbox_conf_perm
I0524 17:38:16.682893 20451 net.cpp:100] Creating Layer conv7_2_mbox_conf_perm
I0524 17:38:16.682898 20451 net.cpp:434] conv7_2_mbox_conf_perm <- conv7_2_mbox_conf
I0524 17:38:16.682901 20451 net.cpp:408] conv7_2_mbox_conf_perm -> conv7_2_mbox_conf_perm
I0524 17:38:16.682976 20451 net.cpp:150] Setting up conv7_2_mbox_conf_perm
I0524 17:38:16.682981 20451 net.cpp:157] Top shape: 8 5 5 126 (25200)
I0524 17:38:16.682982 20451 net.cpp:165] Memory required for data: 1997910464
I0524 17:38:16.682984 20451 layer_factory.hpp:77] Creating layer conv7_2_mbox_conf_flat
I0524 17:38:16.682989 20451 net.cpp:100] Creating Layer conv7_2_mbox_conf_flat
I0524 17:38:16.682992 20451 net.cpp:434] conv7_2_mbox_conf_flat <- conv7_2_mbox_conf_perm
I0524 17:38:16.682996 20451 net.cpp:408] conv7_2_mbox_conf_flat -> conv7_2_mbox_conf_flat
I0524 17:38:16.683028 20451 net.cpp:150] Setting up conv7_2_mbox_conf_flat
I0524 17:38:16.683050 20451 net.cpp:157] Top shape: 8 3150 (25200)
I0524 17:38:16.683053 20451 net.cpp:165] Memory required for data: 1998011264
I0524 17:38:16.683054 20451 layer_factory.hpp:77] Creating layer conv7_2_mbox_priorbox
I0524 17:38:16.683060 20451 net.cpp:100] Creating Layer conv7_2_mbox_priorbox
I0524 17:38:16.683063 20451 net.cpp:434] conv7_2_mbox_priorbox <- conv7_2_conv7_2_relu_0_split_3
I0524 17:38:16.683066 20451 net.cpp:434] conv7_2_mbox_priorbox <- data_data_0_split_4
I0524 17:38:16.683070 20451 net.cpp:408] conv7_2_mbox_priorbox -> conv7_2_mbox_priorbox
I0524 17:38:16.683210 20451 net.cpp:150] Setting up conv7_2_mbox_priorbox
I0524 17:38:16.683221 20451 net.cpp:157] Top shape: 1 2 600 (1200)
I0524 17:38:16.683224 20451 net.cpp:165] Memory required for data: 1998016064
I0524 17:38:16.683228 20451 layer_factory.hpp:77] Creating layer conv8_2_mbox_loc
I0524 17:38:16.683236 20451 net.cpp:100] Creating Layer conv8_2_mbox_loc
I0524 17:38:16.683240 20451 net.cpp:434] conv8_2_mbox_loc <- conv8_2_conv8_2_relu_0_split_1
I0524 17:38:16.683246 20451 net.cpp:408] conv8_2_mbox_loc -> conv8_2_mbox_loc
I0524 17:38:16.683653 20451 net.cpp:150] Setting up conv8_2_mbox_loc
I0524 17:38:16.683660 20451 net.cpp:157] Top shape: 8 16 3 3 (1152)
I0524 17:38:16.683662 20451 net.cpp:165] Memory required for data: 1998020672
I0524 17:38:16.683673 20451 layer_factory.hpp:77] Creating layer conv8_2_mbox_loc_perm
I0524 17:38:16.683681 20451 net.cpp:100] Creating Layer conv8_2_mbox_loc_perm
I0524 17:38:16.683682 20451 net.cpp:434] conv8_2_mbox_loc_perm <- conv8_2_mbox_loc
I0524 17:38:16.683687 20451 net.cpp:408] conv8_2_mbox_loc_perm -> conv8_2_mbox_loc_perm
I0524 17:38:16.683768 20451 net.cpp:150] Setting up conv8_2_mbox_loc_perm
I0524 17:38:16.683778 20451 net.cpp:157] Top shape: 8 3 3 16 (1152)
I0524 17:38:16.683782 20451 net.cpp:165] Memory required for data: 1998025280
I0524 17:38:16.683785 20451 layer_factory.hpp:77] Creating layer conv8_2_mbox_loc_flat
I0524 17:38:16.683794 20451 net.cpp:100] Creating Layer conv8_2_mbox_loc_flat
I0524 17:38:16.683799 20451 net.cpp:434] conv8_2_mbox_loc_flat <- conv8_2_mbox_loc_perm
I0524 17:38:16.683805 20451 net.cpp:408] conv8_2_mbox_loc_flat -> conv8_2_mbox_loc_flat
I0524 17:38:16.683828 20451 net.cpp:150] Setting up conv8_2_mbox_loc_flat
I0524 17:38:16.683835 20451 net.cpp:157] Top shape: 8 144 (1152)
I0524 17:38:16.683836 20451 net.cpp:165] Memory required for data: 1998029888
I0524 17:38:16.683850 20451 layer_factory.hpp:77] Creating layer conv8_2_mbox_conf
I0524 17:38:16.683856 20451 net.cpp:100] Creating Layer conv8_2_mbox_conf
I0524 17:38:16.683859 20451 net.cpp:434] conv8_2_mbox_conf <- conv8_2_conv8_2_relu_0_split_2
I0524 17:38:16.683864 20451 net.cpp:408] conv8_2_mbox_conf -> conv8_2_mbox_conf
I0524 17:38:16.684814 20451 net.cpp:150] Setting up conv8_2_mbox_conf
I0524 17:38:16.684820 20451 net.cpp:157] Top shape: 8 84 3 3 (6048)
I0524 17:38:16.684823 20451 net.cpp:165] Memory required for data: 1998054080
I0524 17:38:16.684826 20451 layer_factory.hpp:77] Creating layer conv8_2_mbox_conf_perm
I0524 17:38:16.684830 20451 net.cpp:100] Creating Layer conv8_2_mbox_conf_perm
I0524 17:38:16.684833 20451 net.cpp:434] conv8_2_mbox_conf_perm <- conv8_2_mbox_conf
I0524 17:38:16.684839 20451 net.cpp:408] conv8_2_mbox_conf_perm -> conv8_2_mbox_conf_perm
I0524 17:38:16.684913 20451 net.cpp:150] Setting up conv8_2_mbox_conf_perm
I0524 17:38:16.684917 20451 net.cpp:157] Top shape: 8 3 3 84 (6048)
I0524 17:38:16.684919 20451 net.cpp:165] Memory required for data: 1998078272
I0524 17:38:16.684922 20451 layer_factory.hpp:77] Creating layer conv8_2_mbox_conf_flat
I0524 17:38:16.684926 20451 net.cpp:100] Creating Layer conv8_2_mbox_conf_flat
I0524 17:38:16.684928 20451 net.cpp:434] conv8_2_mbox_conf_flat <- conv8_2_mbox_conf_perm
I0524 17:38:16.684932 20451 net.cpp:408] conv8_2_mbox_conf_flat -> conv8_2_mbox_conf_flat
I0524 17:38:16.684949 20451 net.cpp:150] Setting up conv8_2_mbox_conf_flat
I0524 17:38:16.684953 20451 net.cpp:157] Top shape: 8 756 (6048)
I0524 17:38:16.684955 20451 net.cpp:165] Memory required for data: 1998102464
I0524 17:38:16.684957 20451 layer_factory.hpp:77] Creating layer conv8_2_mbox_priorbox
I0524 17:38:16.684962 20451 net.cpp:100] Creating Layer conv8_2_mbox_priorbox
I0524 17:38:16.684965 20451 net.cpp:434] conv8_2_mbox_priorbox <- conv8_2_conv8_2_relu_0_split_3
I0524 17:38:16.684969 20451 net.cpp:434] conv8_2_mbox_priorbox <- data_data_0_split_5
I0524 17:38:16.684973 20451 net.cpp:408] conv8_2_mbox_priorbox -> conv8_2_mbox_priorbox
I0524 17:38:16.684993 20451 net.cpp:150] Setting up conv8_2_mbox_priorbox
I0524 17:38:16.684996 20451 net.cpp:157] Top shape: 1 2 144 (288)
I0524 17:38:16.684998 20451 net.cpp:165] Memory required for data: 1998103616
I0524 17:38:16.685000 20451 layer_factory.hpp:77] Creating layer conv9_2_mbox_loc
I0524 17:38:16.685010 20451 net.cpp:100] Creating Layer conv9_2_mbox_loc
I0524 17:38:16.685014 20451 net.cpp:434] conv9_2_mbox_loc <- conv9_2_conv9_2_relu_0_split_0
I0524 17:38:16.685019 20451 net.cpp:408] conv9_2_mbox_loc -> conv9_2_mbox_loc
I0524 17:38:16.685348 20451 net.cpp:150] Setting up conv9_2_mbox_loc
I0524 17:38:16.685354 20451 net.cpp:157] Top shape: 8 16 1 1 (128)
I0524 17:38:16.685356 20451 net.cpp:165] Memory required for data: 1998104128
I0524 17:38:16.685360 20451 layer_factory.hpp:77] Creating layer conv9_2_mbox_loc_perm
I0524 17:38:16.685365 20451 net.cpp:100] Creating Layer conv9_2_mbox_loc_perm
I0524 17:38:16.685369 20451 net.cpp:434] conv9_2_mbox_loc_perm <- conv9_2_mbox_loc
I0524 17:38:16.685374 20451 net.cpp:408] conv9_2_mbox_loc_perm -> conv9_2_mbox_loc_perm
I0524 17:38:16.685446 20451 net.cpp:150] Setting up conv9_2_mbox_loc_perm
I0524 17:38:16.685449 20451 net.cpp:157] Top shape: 8 1 1 16 (128)
I0524 17:38:16.685452 20451 net.cpp:165] Memory required for data: 1998104640
I0524 17:38:16.685454 20451 layer_factory.hpp:77] Creating layer conv9_2_mbox_loc_flat
I0524 17:38:16.685457 20451 net.cpp:100] Creating Layer conv9_2_mbox_loc_flat
I0524 17:38:16.685461 20451 net.cpp:434] conv9_2_mbox_loc_flat <- conv9_2_mbox_loc_perm
I0524 17:38:16.685464 20451 net.cpp:408] conv9_2_mbox_loc_flat -> conv9_2_mbox_loc_flat
I0524 17:38:16.685482 20451 net.cpp:150] Setting up conv9_2_mbox_loc_flat
I0524 17:38:16.685485 20451 net.cpp:157] Top shape: 8 16 (128)
I0524 17:38:16.685487 20451 net.cpp:165] Memory required for data: 1998105152
I0524 17:38:16.685490 20451 layer_factory.hpp:77] Creating layer conv9_2_mbox_conf
I0524 17:38:16.685503 20451 net.cpp:100] Creating Layer conv9_2_mbox_conf
I0524 17:38:16.685506 20451 net.cpp:434] conv9_2_mbox_conf <- conv9_2_conv9_2_relu_0_split_1
I0524 17:38:16.685511 20451 net.cpp:408] conv9_2_mbox_conf -> conv9_2_mbox_conf
I0524 17:38:16.686453 20451 net.cpp:150] Setting up conv9_2_mbox_conf
I0524 17:38:16.686460 20451 net.cpp:157] Top shape: 8 84 1 1 (672)
I0524 17:38:16.686461 20451 net.cpp:165] Memory required for data: 1998107840
I0524 17:38:16.686465 20451 layer_factory.hpp:77] Creating layer conv9_2_mbox_conf_perm
I0524 17:38:16.686470 20451 net.cpp:100] Creating Layer conv9_2_mbox_conf_perm
I0524 17:38:16.686473 20451 net.cpp:434] conv9_2_mbox_conf_perm <- conv9_2_mbox_conf
I0524 17:38:16.686478 20451 net.cpp:408] conv9_2_mbox_conf_perm -> conv9_2_mbox_conf_perm
I0524 17:38:16.686550 20451 net.cpp:150] Setting up conv9_2_mbox_conf_perm
I0524 17:38:16.686555 20451 net.cpp:157] Top shape: 8 1 1 84 (672)
I0524 17:38:16.686558 20451 net.cpp:165] Memory required for data: 1998110528
I0524 17:38:16.686558 20451 layer_factory.hpp:77] Creating layer conv9_2_mbox_conf_flat
I0524 17:38:16.686563 20451 net.cpp:100] Creating Layer conv9_2_mbox_conf_flat
I0524 17:38:16.686566 20451 net.cpp:434] conv9_2_mbox_conf_flat <- conv9_2_mbox_conf_perm
I0524 17:38:16.686569 20451 net.cpp:408] conv9_2_mbox_conf_flat -> conv9_2_mbox_conf_flat
I0524 17:38:16.686586 20451 net.cpp:150] Setting up conv9_2_mbox_conf_flat
I0524 17:38:16.686590 20451 net.cpp:157] Top shape: 8 84 (672)
I0524 17:38:16.686594 20451 net.cpp:165] Memory required for data: 1998113216
I0524 17:38:16.686595 20451 layer_factory.hpp:77] Creating layer conv9_2_mbox_priorbox
I0524 17:38:16.686599 20451 net.cpp:100] Creating Layer conv9_2_mbox_priorbox
I0524 17:38:16.686602 20451 net.cpp:434] conv9_2_mbox_priorbox <- conv9_2_conv9_2_relu_0_split_2
I0524 17:38:16.686606 20451 net.cpp:434] conv9_2_mbox_priorbox <- data_data_0_split_6
I0524 17:38:16.686610 20451 net.cpp:408] conv9_2_mbox_priorbox -> conv9_2_mbox_priorbox
I0524 17:38:16.686628 20451 net.cpp:150] Setting up conv9_2_mbox_priorbox
I0524 17:38:16.686633 20451 net.cpp:157] Top shape: 1 2 16 (32)
I0524 17:38:16.686636 20451 net.cpp:165] Memory required for data: 1998113344
I0524 17:38:16.686638 20451 layer_factory.hpp:77] Creating layer mbox_loc
I0524 17:38:16.686643 20451 net.cpp:100] Creating Layer mbox_loc
I0524 17:38:16.686646 20451 net.cpp:434] mbox_loc <- conv4_3_norm_mbox_loc_flat
I0524 17:38:16.686651 20451 net.cpp:434] mbox_loc <- fc7_mbox_loc_flat
I0524 17:38:16.686656 20451 net.cpp:434] mbox_loc <- conv6_2_mbox_loc_flat
I0524 17:38:16.686660 20451 net.cpp:434] mbox_loc <- conv7_2_mbox_loc_flat
I0524 17:38:16.686662 20451 net.cpp:434] mbox_loc <- conv8_2_mbox_loc_flat
I0524 17:38:16.686666 20451 net.cpp:434] mbox_loc <- conv9_2_mbox_loc_flat
I0524 17:38:16.686669 20451 net.cpp:408] mbox_loc -> mbox_loc
I0524 17:38:16.686689 20451 net.cpp:150] Setting up mbox_loc
I0524 17:38:16.686693 20451 net.cpp:157] Top shape: 8 34928 (279424)
I0524 17:38:16.686697 20451 net.cpp:165] Memory required for data: 1999231040
I0524 17:38:16.686698 20451 layer_factory.hpp:77] Creating layer mbox_conf
I0524 17:38:16.686702 20451 net.cpp:100] Creating Layer mbox_conf
I0524 17:38:16.686704 20451 net.cpp:434] mbox_conf <- conv4_3_norm_mbox_conf_flat
I0524 17:38:16.686709 20451 net.cpp:434] mbox_conf <- fc7_mbox_conf_flat
I0524 17:38:16.686712 20451 net.cpp:434] mbox_conf <- conv6_2_mbox_conf_flat
I0524 17:38:16.686715 20451 net.cpp:434] mbox_conf <- conv7_2_mbox_conf_flat
I0524 17:38:16.686717 20451 net.cpp:434] mbox_conf <- conv8_2_mbox_conf_flat
I0524 17:38:16.686722 20451 net.cpp:434] mbox_conf <- conv9_2_mbox_conf_flat
I0524 17:38:16.686724 20451 net.cpp:408] mbox_conf -> mbox_conf
I0524 17:38:16.686743 20451 net.cpp:150] Setting up mbox_conf
I0524 17:38:16.686746 20451 net.cpp:157] Top shape: 8 183372 (1466976)
I0524 17:38:16.686750 20451 net.cpp:165] Memory required for data: 2005098944
I0524 17:38:16.686753 20451 layer_factory.hpp:77] Creating layer mbox_priorbox
I0524 17:38:16.686755 20451 net.cpp:100] Creating Layer mbox_priorbox
I0524 17:38:16.686764 20451 net.cpp:434] mbox_priorbox <- conv4_3_norm_mbox_priorbox
I0524 17:38:16.686769 20451 net.cpp:434] mbox_priorbox <- fc7_mbox_priorbox
I0524 17:38:16.686771 20451 net.cpp:434] mbox_priorbox <- conv6_2_mbox_priorbox
I0524 17:38:16.686774 20451 net.cpp:434] mbox_priorbox <- conv7_2_mbox_priorbox
I0524 17:38:16.686777 20451 net.cpp:434] mbox_priorbox <- conv8_2_mbox_priorbox
I0524 17:38:16.686780 20451 net.cpp:434] mbox_priorbox <- conv9_2_mbox_priorbox
I0524 17:38:16.686784 20451 net.cpp:408] mbox_priorbox -> mbox_priorbox
I0524 17:38:16.686800 20451 net.cpp:150] Setting up mbox_priorbox
I0524 17:38:16.686805 20451 net.cpp:157] Top shape: 1 2 34928 (69856)
I0524 17:38:16.686807 20451 net.cpp:165] Memory required for data: 2005378368
I0524 17:38:16.686810 20451 layer_factory.hpp:77] Creating layer mbox_conf_reshape
I0524 17:38:16.686815 20451 net.cpp:100] Creating Layer mbox_conf_reshape
I0524 17:38:16.686818 20451 net.cpp:434] mbox_conf_reshape <- mbox_conf
I0524 17:38:16.686823 20451 net.cpp:408] mbox_conf_reshape -> mbox_conf_reshape
I0524 17:38:16.686847 20451 net.cpp:150] Setting up mbox_conf_reshape
I0524 17:38:16.686852 20451 net.cpp:157] Top shape: 8 8732 21 (1466976)
I0524 17:38:16.686854 20451 net.cpp:165] Memory required for data: 2011246272
I0524 17:38:16.686857 20451 layer_factory.hpp:77] Creating layer mbox_conf_softmax
I0524 17:38:16.686862 20451 net.cpp:100] Creating Layer mbox_conf_softmax
I0524 17:38:16.686866 20451 net.cpp:434] mbox_conf_softmax <- mbox_conf_reshape
I0524 17:38:16.686868 20451 net.cpp:408] mbox_conf_softmax -> mbox_conf_softmax
I0524 17:38:16.686916 20451 net.cpp:150] Setting up mbox_conf_softmax
I0524 17:38:16.686923 20451 net.cpp:157] Top shape: 8 8732 21 (1466976)
I0524 17:38:16.686925 20451 net.cpp:165] Memory required for data: 2017114176
I0524 17:38:16.686928 20451 layer_factory.hpp:77] Creating layer mbox_conf_flatten
I0524 17:38:16.686931 20451 net.cpp:100] Creating Layer mbox_conf_flatten
I0524 17:38:16.686933 20451 net.cpp:434] mbox_conf_flatten <- mbox_conf_softmax
I0524 17:38:16.686936 20451 net.cpp:408] mbox_conf_flatten -> mbox_conf_flatten
I0524 17:38:16.686954 20451 net.cpp:150] Setting up mbox_conf_flatten
I0524 17:38:16.686957 20451 net.cpp:157] Top shape: 8 183372 (1466976)
I0524 17:38:16.686959 20451 net.cpp:165] Memory required for data: 2022982080
I0524 17:38:16.686961 20451 layer_factory.hpp:77] Creating layer detection_out
I0524 17:38:16.686976 20451 net.cpp:100] Creating Layer detection_out
I0524 17:38:16.686980 20451 net.cpp:434] detection_out <- mbox_loc
I0524 17:38:16.686983 20451 net.cpp:434] detection_out <- mbox_conf_flatten
I0524 17:38:16.686986 20451 net.cpp:434] detection_out <- mbox_priorbox
I0524 17:38:16.686990 20451 net.cpp:408] detection_out -> detection_out
I0524 17:38:16.690659 20451 net.cpp:150] Setting up detection_out
I0524 17:38:16.690671 20451 net.cpp:157] Top shape: 1 1 1 7 (7)
I0524 17:38:16.690675 20451 net.cpp:165] Memory required for data: 2022982108
I0524 17:38:16.690677 20451 layer_factory.hpp:77] Creating layer detection_eval
I0524 17:38:16.690685 20451 net.cpp:100] Creating Layer detection_eval
I0524 17:38:16.690690 20451 net.cpp:434] detection_eval <- detection_out
I0524 17:38:16.690696 20451 net.cpp:434] detection_eval <- label
I0524 17:38:16.690699 20451 net.cpp:408] detection_eval -> detection_eval
I0524 17:38:16.691481 20451 net.cpp:150] Setting up detection_eval
I0524 17:38:16.691489 20451 net.cpp:157] Top shape: 1 1 21 5 (105)
I0524 17:38:16.691493 20451 net.cpp:165] Memory required for data: 2022982528
I0524 17:38:16.691494 20451 net.cpp:228] detection_eval does not need backward computation.
I0524 17:38:16.691498 20451 net.cpp:228] detection_out does not need backward computation.
I0524 17:38:16.691500 20451 net.cpp:228] mbox_conf_flatten does not need backward computation.
I0524 17:38:16.691504 20451 net.cpp:228] mbox_conf_softmax does not need backward computation.
…
