…
        min_scale: 0.3
        max_scale: 1
        min_aspect_ratio: 0.5
        max_aspect_ratio: 2
      }
      sample_constraint {
        min_jaccard_overlap: 0.9
      }
      max_sample: 1
      max_trials: 50
    }
    batch_sampler {
      sampler {
        min_scale: 0.3
        max_scale: 1
        min_aspect_ratio: 0.5
        max_aspect_ratio: 2
      }
      sample_constraint {
        max_jaccard_overlap: 1
      }
      max_sample: 1
      max_trials: 50
    }
    label_map_file: "data/tbs_300x300_HSIL_10x/labelmap_tbs.prototxt"
  }
}
layer {
  name: "conv1_1"
  type: "Convolution"
  bottom: "data"
  top: "conv1_1"
  param {
    lr_mult: 1
    decay_mult: 1
  }
  param {
    lr_mult: 2
    decay_mult: 0
  }
  convolution_param {
    num_output: 64
    pad: 1
    kernel_size: 3
    weight_filler {
      type: "xavier"
    }
    bias_filler {
      type: "constant"
      value: 0
    }
  }
}
layer {
  name: "relu1_1"
  type: "ReLU"
  bottom: "conv1_1"
  top: "conv1_1"
}
layer {
  name: "conv1_2"
  type: "Convolution"
  bottom: "conv1_1"
  top: "conv1_2"
  param {
    lr_mult: 1
    decay_mult: 1
  }
  param {
    lr_mult: 2
    decay_mult: 0
  }
  convolution_param {
    num_output: 64
    pad: 1
    kernel_size: 3
    weight_filler {
      type: "xavier"
    }
    bias_filler {
      type: "constant"
      value: 0
    }
  }
}
layer {
  name: "relu1_2"
  type: "ReLU"
  bottom: "conv1_2"
  top: "conv1_2"
}
layer {
  name: "pool1"
  type: "Pooling"
  bottom: "conv1_2"
  top: "pool1"
  pooling_param {
    pool: MAX
    kernel_size: 2
    stride: 2
  }
}
layer {
  name: "conv2_1"
  type: "Convolution"
  bottom: "pool1"
  top: "conv2_1"
  param {
    lr_mult: 1
    decay_mult: 1
  }
  param {
    lr_mult: 2
    decay_mult: 0
  }
  convolution_param {
    num_output: 128
    pad: 1
    kernel_size: 3
    weight_filler {
      type: "xavier"
    }
    bias_filler {
      type: "constant"
      value: 0
    }
  }
}
layer {
  name: "relu2_1"
  type: "ReLU"
  bottom: "conv2_1"
  top: "conv2_1"
}
layer {
  name: "conv2_2"
  type: "Convolution"
  bottom: "conv2_1"
  top: "conv2_2"
  param {
    lr_mult: 1
    decay_mult: 1
  }
  param {
    lr_mult: 2
    decay_mult: 0
  }
  convolution_param {
    num_output: 128
    pad: 1
    kernel_size: 3
    weight_filler {
      type: "xavier"
    }
    bias_filler {
      type: "constant"
      value: 0
    }
  }
}
layer {
  name: "relu2_2"
  type: "ReLU"
  bottom: "conv2_2"
  top: "conv2_2"
}
layer {
  name: "pool2"
  type: "Pooling"
  bottom: "conv2_2"
  top: "pool2"
  pooling_param {
    pool: MAX
    kernel_size: 2
    stride: 2
  }
}
layer {
  name: "conv3_1"
  type: "Convolution"
  bottom: "pool2"
  top: "conv3_1"
  param {
    lr_mult: 1
    decay_mult: 1
  }
  param {
    lr_mult: 2
    decay_mult: 0
  }
  convolution_param {
    num_output: 256
    pad: 1
    kernel_size: 3
    weight_filler {
      type: "xavier"
    }
    bias_filler {
      type: "constant"
      value: 0
    }
  }
}
layer {
  name: "relu3_1"
  type: "ReLU"
  bottom: "conv3_1"
  top: "conv3_1"
}
layer {
  name: "conv3_2"
  type: "Convolution"
  bottom: "conv3_1"
  top: "conv3_2"
  param {
    lr_mult: 1
    decay_mult: 1
  }
  param {
    lr_mult: 2
    decay_mult: 0
  }
  convolution_param {
    num_output: 256
    pad: 1
    kernel_size: 3
    weight_filler {
      type: "xavier"
    }
    bias_filler {
      type: "constant"
      value: 0
    }
  }
}
layer {
  name: "relu3_2"
  type: "ReLU"
  bottom: "conv3_2"
  top: "conv3_2"
}
layer {
  name: "conv3_3"
  type: "Convolution"
  bottom: "conv3_2"
  top: "conv3_3"
  param {
    lr_mult: 1
    decay_mult: 1
  }
  param {
    lr_mult: 2
    decay_mult: 0
  }
  convolution_param {
    num_output: 256
    pad: 1
    kernel_size: 3
    weight_filler {
      type: "xavier"
    }
    bias_filler {
      type: "constant"
      value: 0
    }
  }
}
layer {
  name: "relu3_3"
  type: "ReLU"
  bottom: "conv3_3"
  top: "conv3_3"
}
layer {
  name: "pool3"
  type: "Pooling"
  bottom: "conv3_3"
  top: "pool3"
  pooling_param {
    pool: MAX
    kernel_size: 2
    stride: 2
  }
}
layer {
  name: "conv4_1"
  type: "Convolution"
  bottom: "pool3"
  top: "conv4_1"
  param {
    lr_mult: 1
    decay_mult: 1
  }
  param {
    lr_mult: 2
    decay_mult: 0
  }
  convolution_param {
    num_output: 512
    pad: 1
    kernel_size: 3
    weight_filler {
      type: "xavier"
    }
    bias_filler {
      type: "constant"
      value: 0
    }
  }
}
layer {
  name: "relu4_1"
  type: "ReLU"
  bottom: "conv4_1"
  top: "conv4_1"
}
layer {
  name: "conv4_2"
  type: "Convolution"
  bottom: "conv4_1"
  top: "conv4_2"
  param {
    lr_mult: 1
    decay_mult: 1
  }
  param {
    lr_mult: 2
    decay_mult: 0
  }
  convolution_param {
    num_output: 512
    pad: 1
    kernel_size: 3
    weight_filler {
      type: "xavier"
    }
    bias_filler {
      type: "constant"
      value: 0
    }
  }
}
layer {
  name: "relu4_2"
  type: "ReLU"
  bottom: "conv4_2"
  top: "conv4_2"
}
layer {
  name: "conv4_3"
  type: "Convolution"
  bottom: "conv4_2"
  top: "conv4_3"
  param {
    lr_mult: 1
    decay_mult: 1
  }
  param {
    lr_mult: 2
    decay_mult: 0
  }
  convolution_param {
    num_output: 512
    pad: 1
    kernel_size: 3
    weight_filler {
      type: "xavier"
    }
    bias_filler {
      type: "constant"
      value: 0
    }
  }
}
layer {
  name: "relu4_3"
  type: "ReLU"
  bottom: "conv4_3"
  top: "conv4_3"
}
layer {
  name: "pool4"
  type: "Pooling"
  bottom: "conv4_3"
  top: "pool4"
  pooling_param {
    pool: MAX
    kernel_size: 2
    stride: 2
  }
}
layer {
  name: "conv5_1"
  type: "Convolution"
  bottom: "pool4"
  top: "conv5_1"
  param {
    lr_mult: 1
    decay_mult: 1
  }
  param {
    lr_mult: 2
    decay_mult: 0
  }
  convolution_param {
    num_output: 512
    pad: 1
    kernel_size: 3
    weight_filler {
      type: "xavier"
    }
    bias_filler {
      type: "constant"
      value: 0
    }
    dilation: 1
  }
}
layer {
  name: "relu5_1"
  type: "ReLU"
  bottom: "conv5_1"
  top: "conv5_1"
}
layer {
  name: "conv5_2"
  type: "Convolution"
  bottom: "conv5_1"
  top: "conv5_2"
  param {
    lr_mult: 1
    decay_mult: 1
  }
  param {
    lr_mult: 2
    decay_mult: 0
  }
  convolution_param {
    num_output: 512
    pad: 1
    kernel_size: 3
    weight_filler {
      type: "xavier"
    }
    bias_filler {
      type: "constant"
      value: 0
    }
    dilation: 1
  }
}
layer {
  name: "relu5_2"
  type: "ReLU"
  bottom: "conv5_2"
  top: "conv5_2"
}
layer {
  name: "conv5_3"
  type: "Convolution"
  bottom: "conv5_2"
  top: "conv5_3"
  param {
    lr_mult: 1
    decay_mult: 1
  }
  param {
    lr_mult: 2
    decay_mult: 0
  }
  convolution_param {
    num_output: 512
    pad: 1
    kernel_size: 3
    weight_filler {
      type: "xavier"
    }
    bias_filler {
      type: "constant"
      value: 0
    }
    dilation: 1
  }
}
layer {
  name: "relu5_3"
  type: "ReLU"
  bottom: "conv5_3"
  top: "conv5_3"
}
layer {
  name: "pool5"
  type: "Pooling"
  bottom: "conv5_3"
  top: "pool5"
  pooling_param {
    pool: MAX
    kernel_size: 3
    stride: 1
    pad: 1
  }
}
layer {
  name: "fc6"
  type: "Convolution"
  bottom: "pool5"
  top: "fc6"
  param {
    lr_mult: 1
    decay_mult: 1
  }
  param {
    lr_mult: 2
    decay_mult: 0
  }
  convolution_param {
    num_output: 1024
    pad: 6
    kernel_size: 3
    weight_filler {
      type: "xavier"
    }
    bias_filler {
      type: "constant"
      value: 0
    }
    dilation: 6
  }
}
layer {
  name: "relu6"
  type: "ReLU"
  bottom: "fc6"
  top: "fc6"
}
layer {
  name: "fc7"
  type: "Convolution"
  bottom: "fc6"
  top: "fc7"
  param {
    lr_mult: 1
    decay_mult: 1
  }
  param {
    lr_mult: 2
    decay_mult: 0
  }
  convolution_param {
    num_output: 1024
    kernel_size: 1
    weight_filler {
      type: "xavier"
    }
    bias_filler {
      type: "constant"
      value: 0
    }
  }
}
layer {
  name: "relu7"
  type: "ReLU"
  bottom: "fc7"
  top: "fc7"
}
layer {
  name: "conv6_1"
  type: "Convolution"
  bottom: "fc7"
  top: "conv6_1"
  param {
    lr_mult: 1
    decay_mult: 1
  }
  param {
    lr_mult: 2
    decay_mult: 0
  }
  convolution_param {
    num_output: 256
    pad: 0
    kernel_size: 1
    stride: 1
    weight_filler {
      type: "xavier"
    }
    bias_filler {
      type: "constant"
      value: 0
    }
  }
}
layer {
  name: "conv6_1_relu"
  type: "ReLU"
  bottom: "conv6_1"
  top: "conv6_1"
}
layer {
  name: "conv6_2"
  type: "Convolution"
  bottom: "conv6_1"
  top: "conv6_2"
  param {
    lr_mult: 1
    decay_mult: 1
  }
  param {
    lr_mult: 2
    decay_mult: 0
  }
  convolution_param {
    num_output: 512
    pad: 1
    kernel_size: 3
    stride: 2
    weight_filler {
      type: "xavier"
    }
    bias_filler {
      type: "constant"
      value: 0
    }
  }
}
layer {
  name: "conv6_2_relu"
  type: "ReLU"
  bottom: "conv6_2"
  top: "conv6_2"
}
layer {
  name: "conv7_1"
  type: "Convolution"
  bottom: "conv6_2"
  top: "conv7_1"
  param {
    lr_mult: 1
    decay_mult: 1
  }
  param {
    lr_mult: 2
    decay_mult: 0
  }
  convolution_param {
    num_output: 128
    pad: 0
    kernel_size: 1
    stride: 1
    weight_filler {
      type: "xavier"
    }
    bias_filler {
      type: "constant"
      value: 0
    }
  }
}
layer {
  name: "conv7_1_relu"
  type: "ReLU"
  bottom: "conv7_1"
  top: "conv7_1"
}
layer {
  name: "conv7_2"
  type: "Convolution"
  bottom: "conv7_1"
  top: "conv7_2"
  param {
    lr_mult: 1
    decay_mult: 1
  }
  param {
    lr_mult: 2
    decay_mult: 0
  }
  convolution_param {
    num_output: 256
    pad: 1
    kernel_size: 3
    stride: 2
    weight_filler {
      type: "xavier"
    }
    bias_filler {
      type: "constant"
      value: 0
    }
  }
}
layer {
  name: "conv7_2_relu"
  type: "ReLU"
  bottom: "conv7_2"
  top: "conv7_2"
}
layer {
  name: "conv8_1"
  type: "Convolution"
  bottom: "conv7_2"
  top: "conv8_1"
  param {
    lr_mult: 1
    decay_mult: 1
  }
  param {
    lr_mult: 2
    decay_mult: 0
  }
  convolution_param {
    num_output: 128
    pad: 0
    kernel_size: 1
    stride: 1
    weight_filler {
      type: "xavier"
    }
    bias_filler {
      type: "constant"
      value: 0
    }
  }
}
layer {
  name: "conv8_1_relu"
  type: "ReLU"
  bottom: "conv8_1"
  top: "conv8_1"
}
layer {
  name: "conv8_2"
  type: "Convolution"
  bottom: "conv8_1"
  top: "conv8_2"
  param {
    lr_mult: 1
    decay_mult: 1
  }
  param {
    lr_mult: 2
    decay_mult: 0
  }
  convolution_param {
    num_output: 256
    pad: 0
    kernel_size: 3
    stride: 1
    weight_filler {
      type: "xavier"
    }
    bias_filler {
      type: "constant"
      value: 0
    }
  }
}
layer {
  name: "conv8_2_relu"
  type: "ReLU"
  bottom: "conv8_2"
  top: "conv8_2"
}
layer {
  name: "conv9_1"
  type: "Convolution"
  bottom: "conv8_2"
  top: "conv9_1"
  param {
    lr_mult: 1
    decay_mult: 1
  }
  param {
    lr_mult: 2
    decay_mult: 0
  }
  convolution_param {
    num_output: 128
    pad: 0
    kernel_size: 1
    stride: 1
    weight_filler {
      type: "xavier"
    }
    bias_filler {
      type: "constant"
      value: 0
    }
  }
}
layer {
  name: "conv9_1_relu"
  type: "ReLU"
  bottom: "conv9_1"
  top: "conv9_1"
}
layer {
  name: "conv9_2"
  type: "Convolution"
  bottom: "conv9_1"
  top: "conv9_2"
  param {
    lr_mult: 1
    decay_mult: 1
  }
  param {
    lr_mult: 2
    decay_mult: 0
  }
  convolution_param {
    num_output: 256
    pad: 0
    kernel_size: 3
    stride: 1
    weight_filler {
      type: "xavier"
    }
    bias_filler {
      type: "constant"
      value: 0
    }
  }
}
layer {
  name: "conv9_2_relu"
  type: "ReLU"
  bottom: "conv9_2"
  top: "conv9_2"
}
layer {
  name: "conv4_3_norm"
  type: "Normalize"
  bottom: "conv4_3"
  top: "conv4_3_norm"
  norm_param {
    across_spatial: false
    scale_filler {
      type: "constant"
      value: 20
    }
    channel_shared: false
  }
}
layer {
  name: "conv4_3_norm_mbox_loc"
  type: "Convolution"
  bottom: "conv4_3_norm"
  top: "conv4_3_norm_mbox_loc"
  param {
    lr_mult: 1
    decay_mult: 1
  }
  param {
    lr_mult: 2
    decay_mult: 0
  }
  convolution_param {
    num_output: 16
    pad: 1
    kernel_size: 3
    stride: 1
    weight_filler {
      type: "xavier"
    }
    bias_filler {
      type: "constant"
      value: 0
    }
  }
}
layer {
  name: "conv4_3_norm_mbox_loc_perm"
  type: "Permute"
  bottom: "conv4_3_norm_mbox_loc"
  top: "conv4_3_norm_mbox_loc_perm"
  permute_param {
    order: 0
    order: 2
    order: 3
    order: 1
  }
}
layer {
  name: "conv4_3_norm_mbox_loc_flat"
  type: "Flatten"
  bottom: "conv4_3_norm_mbox_loc_perm"
  top: "conv4_3_norm_mbox_loc_flat"
  flatten_param {
    axis: 1
  }
}
layer {
  name: "conv4_3_norm_mbox_conf"
  type: "Convolution"
  bottom: "conv4_3_norm"
  top: "conv4_3_norm_mbox_conf"
  param {
    lr_mult: 1
    decay_mult: 1
  }
  param {
    lr_mult: 2
    decay_mult: 0
  }
  convolution_param {
    num_output: 16
    pad: 1
    kernel_size: 3
    stride: 1
    weight_filler {
      type: "xavier"
    }
    bias_filler {
      type: "constant"
      value: 0
    }
  }
}
layer {
  name: "conv4_3_norm_mbox_conf_perm"
  type: "Permute"
  bottom: "conv4_3_norm_mbox_conf"
  top: "conv4_3_norm_mbox_conf_perm"
  permute_param {
    order: 0
    order: 2
    order: 3
    order: 1
  }
}
layer {
  name: "conv4_3_norm_mbox_conf_flat"
  type: "Flatten"
  bottom: "conv4_3_norm_mbox_conf_perm"
  top: "conv4_3_norm_mbox_conf_flat"
  flatten_param {
    axis: 1
  }
}
layer {
  name: "conv4_3_norm_mbox_priorbox"
  type: "PriorBox"
  bottom: "conv4_3_norm"
  bottom: "data"
  top: "conv4_3_norm_mbox_priorbox"
  prior_box_param {
    min_size: 30
    max_size: 60
    aspect_ratio: 2
    flip: true
    clip: false
    variance: 0.1
    variance: 0.1
    variance: 0.2
    variance: 0.2
    step: 8
    offset: 0.5
  }
}
layer {
  name: "fc7_mbox_loc"
  type: "Convolution"
  bottom: "fc7"
  top: "fc7_mbox_loc"
  param {
    lr_mult: 1
    decay_mult: 1
  }
  param {
    lr_mult: 2
    decay_mult: 0
  }
  convolution_param {
    num_output: 24
    pad: 1
    kernel_size: 3
    stride: 1
    weight_filler {
      type: "xavier"
    }
    bias_filler {
      type: "constant"
      value: 0
    }
  }
}
layer {
  name: "fc7_mbox_loc_perm"
  type: "Permute"
  bottom: "fc7_mbox_loc"
  top: "fc7_mbox_loc_perm"
  permute_param {
    order: 0
    order: 2
    order: 3
    order: 1
  }
}
layer {
  name: "fc7_mbox_loc_flat"
  type: "Flatten"
  bottom: "fc7_mbox_loc_perm"
  top: "fc7_mbox_loc_flat"
  flatten_param {
    axis: 1
  }
}
layer {
  name: "fc7_mbox_conf"
  type: "Convolution"
  bottom: "fc7"
  top: "fc7_mbox_conf"
  param {
    lr_mult: 1
    decay_mult: 1
  }
  param {
    lr_mult: 2
    decay_mult: 0
  }
  convolution_param {
    num_output: 24
    pad: 1
    kernel_size: 3
    stride: 1
    weight_filler {
      type: "xavier"
    }
    bias_filler {
      type: "constant"
      value: 0
    }
  }
}
layer {
  name: "fc7_mbox_conf_perm"
  type: "Permute"
  bottom: "fc7_mbox_conf"
  top: "fc7_mbox_conf_perm"
  permute_param {
    order: 0
    order: 2
    order: 3
    order: 1
  }
}
layer {
  name: "fc7_mbox_conf_flat"
  type: "Flatten"
  bottom: "fc7_mbox_conf_perm"
  top: "fc7_mbox_conf_flat"
  flatten_param {
    axis: 1
  }
}
layer {
  name: "fc7_mbox_priorbox"
  type: "PriorBox"
  bottom: "fc7"
  bottom: "data"
  top: "fc7_mbox_priorbox"
  prior_box_param {
    min_size: 60
    max_size: 111
    aspect_ratio: 2
    aspect_ratio: 3
    flip: true
    clip: false
    variance: 0.1
    variance: 0.1
    variance: 0.2
    variance: 0.2
    step: 16
    offset: 0.5
  }
}
layer {
  name: "conv6_2_mbox_loc"
  type: "Convolution"
  bottom: "conv6_2"
  top: "conv6_2_mbox_loc"
  param {
    lr_mult: 1
    decay_mult: 1
  }
  param {
    lr_mult: 2
    decay_mult: 0
  }
  convolution_param {
    num_output: 24
    pad: 1
    kernel_size: 3
    stride: 1
    weight_filler {
      type: "xavier"
    }
    bias_filler {
      type: "constant"
      value: 0
    }
  }
}
layer {
  name: "conv6_2_mbox_loc_perm"
  type: "Permute"
  bottom: "conv6_2_mbox_loc"
  top: "conv6_2_mbox_loc_perm"
  permute_param {
    order: 0
    order: 2
    order: 3
    order: 1
  }
}
layer {
  name: "conv6_2_mbox_loc_flat"
  type: "Flatten"
  bottom: "conv6_2_mbox_loc_perm"
  top: "conv6_2_mbox_loc_flat"
  flatten_param {
    axis: 1
  }
}
layer {
  name: "conv6_2_mbox_conf"
  type: "Convolution"
  bottom: "conv6_2"
  top: "conv6_2_mbox_conf"
  param {
    lr_mult: 1
    decay_mult: 1
  }
  param {
    lr_mult: 2
    decay_mult: 0
  }
  convolution_param {
    num_output: 24
    pad: 1
    kernel_size: 3
    stride: 1
    weight_filler {
      type: "xavier"
    }
    bias_filler {
      type: "constant"
      value: 0
    }
  }
}
layer {
  name: "conv6_2_mbox_conf_perm"
  type: "Permute"
  bottom: "conv6_2_mbox_conf"
  top: "conv6_2_mbox_conf_perm"
  permute_param {
    order: 0
    order: 2
    order: 3
    order: 1
  }
}
layer {
  name: "conv6_2_mbox_conf_flat"
  type: "Flatten"
  bottom: "conv6_2_mbox_conf_perm"
  top: "conv6_2_mbox_conf_flat"
  flatten_param {
    axis: 1
  }
}
layer {
  name: "conv6_2_mbox_priorbox"
  type: "PriorBox"
  bottom: "conv6_2"
  bottom: "data"
  top: "conv6_2_mbox_priorbox"
  prior_box_param {
    min_size: 111
    max_size: 162
    aspect_ratio: 2
    aspect_ratio: 3
    flip: true
    clip: false
    variance: 0.1
    variance: 0.1
    variance: 0.2
    variance: 0.2
    step: 32
    offset: 0.5
  }
}
layer {
  name: "conv7_2_mbox_loc"
  type: "Convolution"
  bottom: "conv7_2"
  top: "conv7_2_mbox_loc"
  param {
    lr_mult: 1
    decay_mult: 1
  }
  param {
    lr_mult: 2
    decay_mult: 0
  }
  convolution_param {
    num_output: 24
    pad: 1
    kernel_size: 3
    stride: 1
    weight_filler {
      type: "xavier"
    }
    bias_filler {
      type: "constant"
      value: 0
    }
  }
}
layer {
  name: "conv7_2_mbox_loc_perm"
  type: "Permute"
  bottom: "conv7_2_mbox_loc"
  top: "conv7_2_mbox_loc_perm"
  permute_param {
    order: 0
    order: 2
    order: 3
    order: 1
  }
}
layer {
  name: "conv7_2_mbox_loc_flat"
  type: "Flatten"
  bottom: "conv7_2_mbox_loc_perm"
  top: "conv7_2_mbox_loc_flat"
  flatten_param {
    axis: 1
  }
}
layer {
  name: "conv7_2_mbox_conf"
  type: "Convolution"
  bottom: "conv7_2"
  top: "conv7_2_mbox_conf"
  param {
    lr_mult: 1
    decay_mult: 1
  }
  param {
    lr_mult: 2
    decay_mult: 0
  }
  convolution_param {
    num_output: 24
    pad: 1
    kernel_size: 3
    stride: 1
    weight_filler {
      type: "xavier"
    }
    bias_filler {
      type: "constant"
      value: 0
    }
  }
}
layer {
  name: "conv7_2_mbox_conf_perm"
  type: "Permute"
  bottom: "conv7_2_mbox_conf"
  top: "conv7_2_mbox_conf_perm"
  permute_param {
    order: 0
    order: 2
    order: 3
    order: 1
  }
}
layer {
  name: "conv7_2_mbox_conf_flat"
  type: "Flatten"
  bottom: "conv7_2_mbox_conf_perm"
  top: "conv7_2_mbox_conf_flat"
  flatten_param {
    axis: 1
  }
}
layer {
  name: "conv7_2_mbox_priorbox"
  type: "PriorBox"
  bottom: "conv7_2"
  bottom: "data"
  top: "conv7_2_mbox_priorbox"
  prior_box_param {
    min_size: 162
    max_size: 213
    aspect_ratio: 2
    aspect_ratio: 3
    flip: true
    clip: false
    variance: 0.1
    variance: 0.1
    variance: 0.2
    variance: 0.2
    step: 64
    offset: 0.5
  }
}
layer {
  name: "conv8_2_mbox_loc"
  type: "Convolution"
  bottom: "conv8_2"
  top: "conv8_2_mbox_loc"
  param {
    lr_mult: 1
    decay_mult: 1
  }
  param {
    lr_mult: 2
    decay_mult: 0
  }
  convolution_param {
    num_output: 16
    pad: 1
    kernel_size: 3
    stride: 1
    weight_filler {
      type: "xavier"
    }
    bias_filler {
      type: "constant"
      value: 0
    }
  }
}
layer {
  name: "conv8_2_mbox_loc_perm"
  type: "Permute"
  bottom: "conv8_2_mbox_loc"
  top: "conv8_2_mbox_loc_perm"
  permute_param {
    order: 0
    order: 2
    order: 3
    order: 1
  }
}
layer {
  name: "conv8_2_mbox_loc_flat"
  type: "Flatten"
  bottom: "conv8_2_mbox_loc_perm"
  top: "conv8_2_mbox_loc_flat"
  flatten_param {
    axis: 1
  }
}
layer {
  name: "conv8_2_mbox_conf"
  type: "Convolution"
  bottom: "conv8_2"
  top: "conv8_2_mbox_conf"
  param {
    lr_mult: 1
    decay_mult: 1
  }
  param {
    lr_mult: 2
    decay_mult: 0
  }
  convolution_param {
    num_output: 16
    pad: 1
    kernel_size: 3
    stride: 1
    weight_filler {
      type: "xavier"
    }
    bias_filler {
      type: "constant"
      value: 0
    }
  }
}
layer {
  name: "conv8_2_mbox_conf_perm"
  type: "Permute"
  bottom: "conv8_2_mbox_conf"
  top: "conv8_2_mbox_conf_perm"
  permute_param {
    order: 0
    order: 2
    order: 3
    order: 1
  }
}
layer {
  name: "conv8_2_mbox_conf_flat"
  type: "Flatten"
  bottom: "conv8_2_mbox_conf_perm"
  top: "conv8_2_mbox_conf_flat"
  flatten_param {
    axis: 1
  }
}
layer {
  name: "conv8_2_mbox_priorbox"
  type: "PriorBox"
  bottom: "conv8_2"
  bottom: "data"
  top: "conv8_2_mbox_priorbox"
  prior_box_param {
    min_size: 213
    max_size: 264
    aspect_ratio: 2
    flip: true
    clip: false
    variance: 0.1
    variance: 0.1
    variance: 0.2
    variance: 0.2
    step: 100
    offset: 0.5
  }
}
layer {
  name: "conv9_2_mbox_loc"
  type: "Convolution"
  bottom: "conv9_2"
  top: "conv9_2_mbox_loc"
  param {
    lr_mult: 1
    decay_mult: 1
  }
  param {
    lr_mult: 2
    decay_mult: 0
  }
  convolution_param {
    num_output: 16
    pad: 1
    kernel_size: 3
    stride: 1
    weight_filler {
      type: "xavier"
    }
    bias_filler {
      type: "constant"
      value: 0
    }
  }
}
layer {
  name: "conv9_2_mbox_loc_perm"
  type: "Permute"
  bottom: "conv9_2_mbox_loc"
  top: "conv9_2_mbox_loc_perm"
  permute_param {
    order: 0
    order: 2
    order: 3
    order: 1
  }
}
layer {
  name: "conv9_2_mbox_loc_flat"
  type: "Flatten"
  bottom: "conv9_2_mbox_loc_perm"
  top: "conv9_2_mbox_loc_flat"
  flatten_param {
    axis: 1
  }
}
layer {
  name: "conv9_2_mbox_conf"
  type: "Convolution"
  bottom: "conv9_2"
  top: "conv9_2_mbox_conf"
  param {
    lr_mult: 1
    decay_mult: 1
  }
  param {
    lr_mult: 2
    decay_mult: 0
  }
  convolution_param {
    num_output: 16
    pad: 1
    kernel_size: 3
    stride: 1
    weight_filler {
      type: "xavier"
    }
    bias_filler {
      type: "constant"
      value: 0
    }
  }
}
layer {
  name: "conv9_2_mbox_conf_perm"
  type: "Permute"
  bottom: "conv9_2_mbox_conf"
  top: "conv9_2_mbox_conf_perm"
  permute_param {
    order: 0
    order: 2
    order: 3
    order: 1
  }
}
layer {
  name: "conv9_2_mbox_conf_flat"
  type: "Flatten"
  bottom: "conv9_2_mbox_conf_perm"
  top: "conv9_2_mbox_conf_flat"
  flatten_param {
    axis: 1
  }
}
layer {
  name: "conv9_2_mbox_priorbox"
  type: "PriorBox"
  bottom: "conv9_2"
  bottom: "data"
  top: "conv9_2_mbox_priorbox"
  prior_box_param {
    min_size: 264
    max_size: 315
    aspect_ratio: 2
    flip: true
    clip: false
    variance: 0.1
    variance: 0.1
    variance: 0.2
    variance: 0.2
    step: 300
    offset: 0.5
  }
}
layer {
  name: "mbox_loc"
  type: "Concat"
  bottom: "conv4_3_norm_mbox_loc_flat"
  bottom: "fc7_mbox_loc_flat"
  bottom: "conv6_2_mbox_loc_flat"
  bottom: "conv7_2_mbox_loc_flat"
  bottom: "conv8_2_mbox_loc_flat"
  bottom: "conv9_2_mbox_loc_flat"
  top: "mbox_loc"
  concat_param {
    axis: 1
  }
}
layer {
  name: "mbox_conf"
  type: "Concat"
  bottom: "conv4_3_norm_mbox_conf_flat"
  bottom: "fc7_mbox_conf_flat"
  bottom: "conv6_2_mbox_conf_flat"
  bottom: "conv7_2_mbox_conf_flat"
  bottom: "conv8_2_mbox_conf_flat"
  bottom: "conv9_2_mbox_conf_flat"
  top: "mbox_conf"
  concat_param {
    axis: 1
  }
}
layer {
  name: "mbox_priorbox"
  type: "Concat"
  bottom: "conv4_3_norm_mbox_priorbox"
  bottom: "fc7_mbox_priorbox"
  bottom: "conv6_2_mbox_priorbox"
  bottom: "conv7_2_mbox_priorbox"
  bottom: "conv8_2_mbox_priorbox"
  bottom: "conv9_2_mbox_priorbox"
  top: "mbox_priorbox"
  concat_param {
    axis: 2
  }
}
layer {
  name: "mbox_loss"
  type: "MultiBoxLoss"
  bottom: "mbox_loc"
  bottom: "mbox_conf"
  bottom: "mbox_priorbox"
  bottom: "label"
  top: "mbox_loss"
  include {
    phase: TRAIN
  }
  propagate_down: true
  propagate_down: true
  propagate_down: false
  propagate_down: false
  loss_param {
    normalization: VALID
  }
  multibox_loss_param {
    loc_loss_type: SMOOTH_L1
    conf_loss_type: SOFTMAX
    loc_weight: 1
    num_classes: 4
    share_location: true
    match_type: PER_PREDICTION
    overlap_threshold: 0.5
    use_prior_for_matching: true
    background_label_id: 0
    use_difficult_gt: true
    neg_pos_ratio: 3
    neg_overlap: 0.5
    code_type: CENTER_SIZE
    ignore_cross_boundary_bbox: false
    mining_type: MAX_NEGATIVE
  }
}
I0531 18:02:12.517628  4249 layer_factory.hpp:77] Creating layer data
I0531 18:02:12.517781  4249 net.cpp:100] Creating Layer data
I0531 18:02:12.517793  4249 net.cpp:408] data -> data
I0531 18:02:12.517823  4249 net.cpp:408] data -> label
I0531 18:02:12.518196  4265 db_lmdb.cpp:35] Opened lmdb examples/tbs_300x300_HSIL_10x/tbs_300x300_HSIL_10x_trainval_lmdb
I0531 18:02:12.527168  4249 annotated_data_layer.cpp:62] output data size: 32,3,300,300
I0531 18:02:12.586874  4249 net.cpp:150] Setting up data
I0531 18:02:12.586894  4249 net.cpp:157] Top shape: 32 3 300 300 (8640000)
I0531 18:02:12.586897  4249 net.cpp:157] Top shape: 1 1 1 8 (8)
I0531 18:02:12.586928  4249 net.cpp:165] Memory required for data: 34560032
I0531 18:02:12.586936  4249 layer_factory.hpp:77] Creating layer data_data_0_split
I0531 18:02:12.586946  4249 net.cpp:100] Creating Layer data_data_0_split
I0531 18:02:12.586966  4249 net.cpp:434] data_data_0_split <- data
I0531 18:02:12.586977  4249 net.cpp:408] data_data_0_split -> data_data_0_split_0
I0531 18:02:12.586999  4249 net.cpp:408] data_data_0_split -> data_data_0_split_1
I0531 18:02:12.587018  4249 net.cpp:408] data_data_0_split -> data_data_0_split_2
I0531 18:02:12.587023  4249 net.cpp:408] data_data_0_split -> data_data_0_split_3
I0531 18:02:12.587044  4249 net.cpp:408] data_data_0_split -> data_data_0_split_4
I0531 18:02:12.587047  4249 net.cpp:408] data_data_0_split -> data_data_0_split_5
I0531 18:02:12.587051  4249 net.cpp:408] data_data_0_split -> data_data_0_split_6
I0531 18:02:12.587147  4249 net.cpp:150] Setting up data_data_0_split
I0531 18:02:12.587152  4249 net.cpp:157] Top shape: 32 3 300 300 (8640000)
I0531 18:02:12.587155  4249 net.cpp:157] Top shape: 32 3 300 300 (8640000)
I0531 18:02:12.587157  4249 net.cpp:157] Top shape: 32 3 300 300 (8640000)
I0531 18:02:12.587175  4249 net.cpp:157] Top shape: 32 3 300 300 (8640000)
I0531 18:02:12.587178  4249 net.cpp:157] Top shape: 32 3 300 300 (8640000)
I0531 18:02:12.587182  4249 net.cpp:157] Top shape: 32 3 300 300 (8640000)
I0531 18:02:12.587183  4249 net.cpp:157] Top shape: 32 3 300 300 (8640000)
I0531 18:02:12.587186  4249 net.cpp:165] Memory required for data: 276480032
I0531 18:02:12.587188  4249 layer_factory.hpp:77] Creating layer conv1_1
I0531 18:02:12.587214  4249 net.cpp:100] Creating Layer conv1_1
I0531 18:02:12.587218  4249 net.cpp:434] conv1_1 <- data_data_0_split_0
I0531 18:02:12.587224  4249 net.cpp:408] conv1_1 -> conv1_1
I0531 18:02:12.588901  4249 net.cpp:150] Setting up conv1_1
I0531 18:02:12.588915  4249 net.cpp:157] Top shape: 32 64 300 300 (184320000)
I0531 18:02:12.588918  4249 net.cpp:165] Memory required for data: 1013760032
I0531 18:02:12.588930  4249 layer_factory.hpp:77] Creating layer relu1_1
I0531 18:02:12.588937  4249 net.cpp:100] Creating Layer relu1_1
I0531 18:02:12.588940  4249 net.cpp:434] relu1_1 <- conv1_1
I0531 18:02:12.588945  4249 net.cpp:395] relu1_1 -> conv1_1 (in-place)
I0531 18:02:12.588953  4249 net.cpp:150] Setting up relu1_1
I0531 18:02:12.588955  4249 net.cpp:157] Top shape: 32 64 300 300 (184320000)
I0531 18:02:12.588958  4249 net.cpp:165] Memory required for data: 1751040032
I0531 18:02:12.588959  4249 layer_factory.hpp:77] Creating layer conv1_2
I0531 18:02:12.588968  4249 net.cpp:100] Creating Layer conv1_2
I0531 18:02:12.588971  4249 net.cpp:434] conv1_2 <- conv1_1
I0531 18:02:12.588976  4249 net.cpp:408] conv1_2 -> conv1_2
I0531 18:02:12.600579  4249 net.cpp:150] Setting up conv1_2
I0531 18:02:12.600596  4249 net.cpp:157] Top shape: 32 64 300 300 (184320000)
I0531 18:02:12.600600  4249 net.cpp:165] Memory required for data: 2488320032
I0531 18:02:12.600622  4249 layer_factory.hpp:77] Creating layer relu1_2
I0531 18:02:12.600630  4249 net.cpp:100] Creating Layer relu1_2
I0531 18:02:12.600632  4249 net.cpp:434] relu1_2 <- conv1_2
I0531 18:02:12.600636  4249 net.cpp:395] relu1_2 -> conv1_2 (in-place)
I0531 18:02:12.600642  4249 net.cpp:150] Setting up relu1_2
I0531 18:02:12.600661  4249 net.cpp:157] Top shape: 32 64 300 300 (184320000)
I0531 18:02:12.600664  4249 net.cpp:165] Memory required for data: 3225600032
I0531 18:02:12.600666  4249 layer_factory.hpp:77] Creating layer pool1
I0531 18:02:12.600672  4249 net.cpp:100] Creating Layer pool1
I0531 18:02:12.600674  4249 net.cpp:434] pool1 <- conv1_2
I0531 18:02:12.600678  4249 net.cpp:408] pool1 -> pool1
I0531 18:02:12.600726  4249 net.cpp:150] Setting up pool1
I0531 18:02:12.600731  4249 net.cpp:157] Top shape: 32 64 150 150 (46080000)
I0531 18:02:12.600733  4249 net.cpp:165] Memory required for data: 3409920032
I0531 18:02:12.600735  4249 layer_factory.hpp:77] Creating layer conv2_1
I0531 18:02:12.600744  4249 net.cpp:100] Creating Layer conv2_1
I0531 18:02:12.600759  4249 net.cpp:434] conv2_1 <- pool1
I0531 18:02:12.600778  4249 net.cpp:408] conv2_1 -> conv2_1
I0531 18:02:12.601301  4249 net.cpp:150] Setting up conv2_1
I0531 18:02:12.601310  4249 net.cpp:157] Top shape: 32 128 150 150 (92160000)
I0531 18:02:12.601311  4249 net.cpp:165] Memory required for data: 3778560032
I0531 18:02:12.601317  4249 layer_factory.hpp:77] Creating layer relu2_1
I0531 18:02:12.601325  4249 net.cpp:100] Creating Layer relu2_1
I0531 18:02:12.601327  4249 net.cpp:434] relu2_1 <- conv2_1
I0531 18:02:12.601331  4249 net.cpp:395] relu2_1 -> conv2_1 (in-place)
I0531 18:02:12.601336  4249 net.cpp:150] Setting up relu2_1
I0531 18:02:12.601341  4249 net.cpp:157] Top shape: 32 128 150 150 (92160000)
I0531 18:02:12.601342  4249 net.cpp:165] Memory required for data: 4147200032
I0531 18:02:12.601344  4249 layer_factory.hpp:77] Creating layer conv2_2
I0531 18:02:12.601364  4249 net.cpp:100] Creating Layer conv2_2
I0531 18:02:12.601368  4249 net.cpp:434] conv2_2 <- conv2_1
I0531 18:02:12.601372  4249 net.cpp:408] conv2_2 -> conv2_2
I0531 18:02:12.602236  4249 net.cpp:150] Setting up conv2_2
I0531 18:02:12.602243  4249 net.cpp:157] Top shape: 32 128 150 150 (92160000)
I0531 18:02:12.602246  4249 net.cpp:165] Memory required for data: 4515840032
I0531 18:02:12.602249  4249 layer_factory.hpp:77] Creating layer relu2_2
I0531 18:02:12.602254  4249 net.cpp:100] Creating Layer relu2_2
I0531 18:02:12.602257  4249 net.cpp:434] relu2_2 <- conv2_2
I0531 18:02:12.602260  4249 net.cpp:395] relu2_2 -> conv2_2 (in-place)
I0531 18:02:12.602263  4249 net.cpp:150] Setting up relu2_2
I0531 18:02:12.602267  4249 net.cpp:157] Top shape: 32 128 150 150 (92160000)
I0531 18:02:12.602268  4249 net.cpp:165] Memory required for data: 4884480032
I0531 18:02:12.602270  4249 layer_factory.hpp:77] Creating layer pool2
I0531 18:02:12.602275  4249 net.cpp:100] Creating Layer pool2
I0531 18:02:12.602277  4249 net.cpp:434] pool2 <- conv2_2
I0531 18:02:12.602280  4249 net.cpp:408] pool2 -> pool2
I0531 18:02:12.602308  4249 net.cpp:150] Setting up pool2
I0531 18:02:12.602313  4249 net.cpp:157] Top shape: 32 128 75 75 (23040000)
I0531 18:02:12.602314  4249 net.cpp:165] Memory required for data: 4976640032
I0531 18:02:12.602316  4249 layer_factory.hpp:77] Creating layer conv3_1
I0531 18:02:12.602335  4249 net.cpp:100] Creating Layer conv3_1
I0531 18:02:12.602337  4249 net.cpp:434] conv3_1 <- pool2
I0531 18:02:12.602342  4249 net.cpp:408] conv3_1 -> conv3_1
I0531 18:02:12.604976  4249 net.cpp:150] Setting up conv3_1
I0531 18:02:12.604990  4249 net.cpp:157] Top shape: 32 256 75 75 (46080000)
I0531 18:02:12.604992  4249 net.cpp:165] Memory required for data: 5160960032
I0531 18:02:12.605000  4249 layer_factory.hpp:77] Creating layer relu3_1
I0531 18:02:12.605005  4249 net.cpp:100] Creating Layer relu3_1
I0531 18:02:12.605023  4249 net.cpp:434] relu3_1 <- conv3_1
I0531 18:02:12.605027  4249 net.cpp:395] relu3_1 -> conv3_1 (in-place)
I0531 18:02:12.605032  4249 net.cpp:150] Setting up relu3_1
I0531 18:02:12.605036  4249 net.cpp:157] Top shape: 32 256 75 75 (46080000)
I0531 18:02:12.605038  4249 net.cpp:165] Memory required for data: 5345280032
I0531 18:02:12.605041  4249 layer_factory.hpp:77] Creating layer conv3_2
I0531 18:02:12.605048  4249 net.cpp:100] Creating Layer conv3_2
I0531 18:02:12.605051  4249 net.cpp:434] conv3_2 <- conv3_1
I0531 18:02:12.605057  4249 net.cpp:408] conv3_2 -> conv3_2
I0531 18:02:12.608160  4249 net.cpp:150] Setting up conv3_2
I0531 18:02:12.608171  4249 net.cpp:157] Top shape: 32 256 75 75 (46080000)
I0531 18:02:12.608173  4249 net.cpp:165] Memory required for data: 5529600032
I0531 18:02:12.608180  4249 layer_factory.hpp:77] Creating layer relu3_2
I0531 18:02:12.608184  4249 net.cpp:100] Creating Layer relu3_2
I0531 18:02:12.608186  4249 net.cpp:434] relu3_2 <- conv3_2
I0531 18:02:12.608191  4249 net.cpp:395] relu3_2 -> conv3_2 (in-place)
I0531 18:02:12.608198  4249 net.cpp:150] Setting up relu3_2
I0531 18:02:12.608202  4249 net.cpp:157] Top shape: 32 256 75 75 (46080000)
I0531 18:02:12.608204  4249 net.cpp:165] Memory required for data: 5713920032
I0531 18:02:12.608217  4249 layer_factory.hpp:77] Creating layer conv3_3
I0531 18:02:12.608227  4249 net.cpp:100] Creating Layer conv3_3
I0531 18:02:12.608230  4249 net.cpp:434] conv3_3 <- conv3_2
I0531 18:02:12.608235  4249 net.cpp:408] conv3_3 -> conv3_3
I0531 18:02:12.611410  4249 net.cpp:150] Setting up conv3_3
I0531 18:02:12.611424  4249 net.cpp:157] Top shape: 32 256 75 75 (46080000)
I0531 18:02:12.611426  4249 net.cpp:165] Memory required for data: 5898240032
I0531 18:02:12.611431  4249 layer_factory.hpp:77] Creating layer relu3_3
I0531 18:02:12.611438  4249 net.cpp:100] Creating Layer relu3_3
I0531 18:02:12.611443  4249 net.cpp:434] relu3_3 <- conv3_3
I0531 18:02:12.611446  4249 net.cpp:395] relu3_3 -> conv3_3 (in-place)
I0531 18:02:12.611450  4249 net.cpp:150] Setting up relu3_3
I0531 18:02:12.611454  4249 net.cpp:157] Top shape: 32 256 75 75 (46080000)
I0531 18:02:12.611456  4249 net.cpp:165] Memory required for data: 6082560032
I0531 18:02:12.611459  4249 layer_factory.hpp:77] Creating layer pool3
I0531 18:02:12.611462  4249 net.cpp:100] Creating Layer pool3
I0531 18:02:12.611464  4249 net.cpp:434] pool3 <- conv3_3
I0531 18:02:12.611469  4249 net.cpp:408] pool3 -> pool3
I0531 18:02:12.611496  4249 net.cpp:150] Setting up pool3
I0531 18:02:12.611500  4249 net.cpp:157] Top shape: 32 256 38 38 (11829248)
I0531 18:02:12.611502  4249 net.cpp:165] Memory required for data: 6129877024
I0531 18:02:12.611505  4249 layer_factory.hpp:77] Creating layer conv4_1
I0531 18:02:12.611512  4249 net.cpp:100] Creating Layer conv4_1
I0531 18:02:12.611515  4249 net.cpp:434] conv4_1 <- pool3
I0531 18:02:12.611519  4249 net.cpp:408] conv4_1 -> conv4_1
I0531 18:02:12.618557  4249 net.cpp:150] Setting up conv4_1
I0531 18:02:12.618576  4249 net.cpp:157] Top shape: 32 512 38 38 (23658496)
I0531 18:02:12.618577  4249 net.cpp:165] Memory required for data: 6224511008
I0531 18:02:12.618584  4249 layer_factory.hpp:77] Creating layer relu4_1
I0531 18:02:12.618592  4249 net.cpp:100] Creating Layer relu4_1
I0531 18:02:12.618594  4249 net.cpp:434] relu4_1 <- conv4_1
I0531 18:02:12.618614  4249 net.cpp:395] relu4_1 -> conv4_1 (in-place)
I0531 18:02:12.618620  4249 net.cpp:150] Setting up relu4_1
I0531 18:02:12.618625  4249 net.cpp:157] Top shape: 32 512 38 38 (23658496)
I0531 18:02:12.618628  4249 net.cpp:165] Memory required for data: 6319144992
I0531 18:02:12.618629  4249 layer_factory.hpp:77] Creating layer conv4_2
I0531 18:02:12.618638  4249 net.cpp:100] Creating Layer conv4_2
I0531 18:02:12.618640  4249 net.cpp:434] conv4_2 <- conv4_1
I0531 18:02:12.618645  4249 net.cpp:408] conv4_2 -> conv4_2
I0531 18:02:12.630787  4249 net.cpp:150] Setting up conv4_2
I0531 18:02:12.630820  4249 net.cpp:157] Top shape: 32 512 38 38 (23658496)
I0531 18:02:12.630823  4249 net.cpp:165] Memory required for data: 6413778976
I0531 18:02:12.630832  4249 layer_factory.hpp:77] Creating layer relu4_2
I0531 18:02:12.630838  4249 net.cpp:100] Creating Layer relu4_2
I0531 18:02:12.630843  4249 net.cpp:434] relu4_2 <- conv4_2
I0531 18:02:12.630849  4249 net.cpp:395] relu4_2 -> conv4_2 (in-place)
I0531 18:02:12.630856  4249 net.cpp:150] Setting up relu4_2
I0531 18:02:12.630861  4249 net.cpp:157] Top shape: 32 512 38 38 (23658496)
I0531 18:02:12.630862  4249 net.cpp:165] Memory required for data: 6508412960
I0531 18:02:12.630864  4249 layer_factory.hpp:77] Creating layer conv4_3
I0531 18:02:12.630872  4249 net.cpp:100] Creating Layer conv4_3
I0531 18:02:12.630874  4249 net.cpp:434] conv4_3 <- conv4_2
I0531 18:02:12.630878  4249 net.cpp:408] conv4_3 -> conv4_3
I0531 18:02:12.643096  4249 net.cpp:150] Setting up conv4_3
I0531 18:02:12.643113  4249 net.cpp:157] Top shape: 32 512 38 38 (23658496)
I0531 18:02:12.643116  4249 net.cpp:165] Memory required for data: 6603046944
I0531 18:02:12.643121  4249 layer_factory.hpp:77] Creating layer relu4_3
I0531 18:02:12.643143  4249 net.cpp:100] Creating Layer relu4_3
I0531 18:02:12.643146  4249 net.cpp:434] relu4_3 <- conv4_3
I0531 18:02:12.643164  4249 net.cpp:395] relu4_3 -> conv4_3 (in-place)
I0531 18:02:12.643199  4249 net.cpp:150] Setting up relu4_3
I0531 18:02:12.643204  4249 net.cpp:157] Top shape: 32 512 38 38 (23658496)
I0531 18:02:12.643206  4249 net.cpp:165] Memory required for data: 6697680928
I0531 18:02:12.643208  4249 layer_factory.hpp:77] Creating layer conv4_3_relu4_3_0_split
I0531 18:02:12.643226  4249 net.cpp:100] Creating Layer conv4_3_relu4_3_0_split
I0531 18:02:12.643229  4249 net.cpp:434] conv4_3_relu4_3_0_split <- conv4_3
I0531 18:02:12.643235  4249 net.cpp:408] conv4_3_relu4_3_0_split -> conv4_3_relu4_3_0_split_0
I0531 18:02:12.643241  4249 net.cpp:408] conv4_3_relu4_3_0_split -> conv4_3_relu4_3_0_split_1
I0531 18:02:12.643265  4249 net.cpp:150] Setting up conv4_3_relu4_3_0_split
I0531 18:02:12.643270  4249 net.cpp:157] Top shape: 32 512 38 38 (23658496)
I0531 18:02:12.643273  4249 net.cpp:157] Top shape: 32 512 38 38 (23658496)
I0531 18:02:12.643275  4249 net.cpp:165] Memory required for data: 6886948896
I0531 18:02:12.643277  4249 layer_factory.hpp:77] Creating layer pool4
I0531 18:02:12.643281  4249 net.cpp:100] Creating Layer pool4
I0531 18:02:12.643285  4249 net.cpp:434] pool4 <- conv4_3_relu4_3_0_split_0
I0531 18:02:12.643288  4249 net.cpp:408] pool4 -> pool4
I0531 18:02:12.643312  4249 net.cpp:150] Setting up pool4
I0531 18:02:12.643317  4249 net.cpp:157] Top shape: 32 512 19 19 (5914624)
I0531 18:02:12.643319  4249 net.cpp:165] Memory required for data: 6910607392
I0531 18:02:12.643321  4249 layer_factory.hpp:77] Creating layer conv5_1
I0531 18:02:12.643333  4249 net.cpp:100] Creating Layer conv5_1
I0531 18:02:12.643337  4249 net.cpp:434] conv5_1 <- pool4
I0531 18:02:12.643342  4249 net.cpp:408] conv5_1 -> conv5_1
I0531 18:02:12.656189  4249 net.cpp:150] Setting up conv5_1
I0531 18:02:12.656210  4249 net.cpp:157] Top shape: 32 512 19 19 (5914624)
I0531 18:02:12.656213  4249 net.cpp:165] Memory required for data: 6934265888
I0531 18:02:12.656234  4249 layer_factory.hpp:77] Creating layer relu5_1
I0531 18:02:12.656240  4249 net.cpp:100] Creating Layer relu5_1
I0531 18:02:12.656244  4249 net.cpp:434] relu5_1 <- conv5_1
I0531 18:02:12.656249  4249 net.cpp:395] relu5_1 -> conv5_1 (in-place)
I0531 18:02:12.656255  4249 net.cpp:150] Setting up relu5_1
I0531 18:02:12.656257  4249 net.cpp:157] Top shape: 32 512 19 19 (5914624)
I0531 18:02:12.656260  4249 net.cpp:165] Memory required for data: 6957924384
I0531 18:02:12.656262  4249 layer_factory.hpp:77] Creating layer conv5_2
I0531 18:02:12.656285  4249 net.cpp:100] Creating Layer conv5_2
I0531 18:02:12.656287  4249 net.cpp:434] conv5_2 <- conv5_1
I0531 18:02:12.656292  4249 net.cpp:408] conv5_2 -> conv5_2
I0531 18:02:12.668560  4249 net.cpp:150] Setting up conv5_2
I0531 18:02:12.668579  4249 net.cpp:157] Top shape: 32 512 19 19 (5914624)
I0531 18:02:12.668582  4249 net.cpp:165] Memory required for data: 6981582880
I0531 18:02:12.668588  4249 layer_factory.hpp:77] Creating layer relu5_2
I0531 18:02:12.668609  4249 net.cpp:100] Creating Layer relu5_2
I0531 18:02:12.668612  4249 net.cpp:434] relu5_2 <- conv5_2
I0531 18:02:12.668617  4249 net.cpp:395] relu5_2 -> conv5_2 (in-place)
I0531 18:02:12.668623  4249 net.cpp:150] Setting up relu5_2
I0531 18:02:12.668627  4249 net.cpp:157] Top shape: 32 512 19 19 (5914624)
I0531 18:02:12.668629  4249 net.cpp:165] Memory required for data: 7005241376
I0531 18:02:12.668632  4249 layer_factory.hpp:77] Creating layer conv5_3
I0531 18:02:12.668651  4249 net.cpp:100] Creating Layer conv5_3
I0531 18:02:12.668671  4249 net.cpp:434] conv5_3 <- conv5_2
I0531 18:02:12.668676  4249 net.cpp:408] conv5_3 -> conv5_3
I0531 18:02:12.680811  4249 net.cpp:150] Setting up conv5_3
I0531 18:02:12.680830  4249 net.cpp:157] Top shape: 32 512 19 19 (5914624)
I0531 18:02:12.680833  4249 net.cpp:165] Memory required for data: 7028899872
I0531 18:02:12.680855  4249 layer_factory.hpp:77] Creating layer relu5_3
I0531 18:02:12.680884  4249 net.cpp:100] Creating Layer relu5_3
I0531 18:02:12.680891  4249 net.cpp:434] relu5_3 <- conv5_3
I0531 18:02:12.680896  4249 net.cpp:395] relu5_3 -> conv5_3 (in-place)
I0531 18:02:12.680903  4249 net.cpp:150] Setting up relu5_3
I0531 18:02:12.680918  4249 net.cpp:157] Top shape: 32 512 19 19 (5914624)
I0531 18:02:12.680922  4249 net.cpp:165] Memory required for data: 7052558368
I0531 18:02:12.680923  4249 layer_factory.hpp:77] Creating layer pool5
I0531 18:02:12.680928  4249 net.cpp:100] Creating Layer pool5
I0531 18:02:12.680932  4249 net.cpp:434] pool5 <- conv5_3
I0531 18:02:12.680934  4249 net.cpp:408] pool5 -> pool5
I0531 18:02:12.680968  4249 net.cpp:150] Setting up pool5
I0531 18:02:12.680974  4249 net.cpp:157] Top shape: 32 512 19 19 (5914624)
I0531 18:02:12.680975  4249 net.cpp:165] Memory required for data: 7076216864
I0531 18:02:12.680977  4249 layer_factory.hpp:77] Creating layer fc6
I0531 18:02:12.680985  4249 net.cpp:100] Creating Layer fc6
I0531 18:02:12.680989  4249 net.cpp:434] fc6 <- pool5
I0531 18:02:12.680994  4249 net.cpp:408] fc6 -> fc6
I0531 18:02:12.704445  4249 net.cpp:150] Setting up fc6
I0531 18:02:12.704466  4249 net.cpp:157] Top shape: 32 1024 19 19 (11829248)
I0531 18:02:12.704468  4249 net.cpp:165] Memory required for data: 7123533856
I0531 18:02:12.704490  4249 layer_factory.hpp:77] Creating layer relu6
I0531 18:02:12.704511  4249 net.cpp:100] Creating Layer relu6
I0531 18:02:12.704516  4249 net.cpp:434] relu6 <- fc6
I0531 18:02:12.704524  4249 net.cpp:395] relu6 -> fc6 (in-place)
I0531 18:02:12.704545  4249 net.cpp:150] Setting up relu6
I0531 18:02:12.704551  4249 net.cpp:157] Top shape: 32 1024 19 19 (11829248)
I0531 18:02:12.704556  4249 net.cpp:165] Memory required for data: 7170850848
I0531 18:02:12.704572  4249 layer_factory.hpp:77] Creating layer fc7
I0531 18:02:12.704583  4249 net.cpp:100] Creating Layer fc7
I0531 18:02:12.704587  4249 net.cpp:434] fc7 <- fc6
I0531 18:02:12.704593  4249 net.cpp:408] fc7 -> fc7
I0531 18:02:12.710474  4249 net.cpp:150] Setting up fc7
I0531 18:02:12.710492  4249 net.cpp:157] Top shape: 32 1024 19 19 (11829248)
I0531 18:02:12.710495  4249 net.cpp:165] Memory required for data: 7218167840
I0531 18:02:12.710502  4249 layer_factory.hpp:77] Creating layer relu7
I0531 18:02:12.710510  4249 net.cpp:100] Creating Layer relu7
I0531 18:02:12.710515  4249 net.cpp:434] relu7 <- fc7
I0531 18:02:12.710522  4249 net.cpp:395] relu7 -> fc7 (in-place)
I0531 18:02:12.710530  4249 net.cpp:150] Setting up relu7
I0531 18:02:12.710536  4249 net.cpp:157] Top shape: 32 1024 19 19 (11829248)
I0531 18:02:12.710553  4249 net.cpp:165] Memory required for data: 7265484832
I0531 18:02:12.710557  4249 layer_factory.hpp:77] Creating layer fc7_relu7_0_split
I0531 18:02:12.710562  4249 net.cpp:100] Creating Layer fc7_relu7_0_split
I0531 18:02:12.710566  4249 net.cpp:434] fc7_relu7_0_split <- fc7
I0531 18:02:12.710572  4249 net.cpp:408] fc7_relu7_0_split -> fc7_relu7_0_split_0
I0531 18:02:12.710579  4249 net.cpp:408] fc7_relu7_0_split -> fc7_relu7_0_split_1
I0531 18:02:12.710592  4249 net.cpp:408] fc7_relu7_0_split -> fc7_relu7_0_split_2
I0531 18:02:12.710598  4249 net.cpp:408] fc7_relu7_0_split -> fc7_relu7_0_split_3
I0531 18:02:12.710647  4249 net.cpp:150] Setting up fc7_relu7_0_split
I0531 18:02:12.710654  4249 net.cpp:157] Top shape: 32 1024 19 19 (11829248)
I0531 18:02:12.710660  4249 net.cpp:157] Top shape: 32 1024 19 19 (11829248)
I0531 18:02:12.710665  4249 net.cpp:157] Top shape: 32 1024 19 19 (11829248)
I0531 18:02:12.710669  4249 net.cpp:157] Top shape: 32 1024 19 19 (11829248)
I0531 18:02:12.710672  4249 net.cpp:165] Memory required for data: 7454752800
I0531 18:02:12.710676  4249 layer_factory.hpp:77] Creating layer conv6_1
I0531 18:02:12.710685  4249 net.cpp:100] Creating Layer conv6_1
I0531 18:02:12.710690  4249 net.cpp:434] conv6_1 <- fc7_relu7_0_split_0
I0531 18:02:12.710696  4249 net.cpp:408] conv6_1 -> conv6_1
I0531 18:02:12.712620  4249 net.cpp:150] Setting up conv6_1
I0531 18:02:12.712631  4249 net.cpp:157] Top shape: 32 256 19 19 (2957312)
I0531 18:02:12.712635  4249 net.cpp:165] Memory required for data: 7466582048
I0531 18:02:12.712640  4249 layer_factory.hpp:77] Creating layer conv6_1_relu
I0531 18:02:12.712643  4249 net.cpp:100] Creating Layer conv6_1_relu
I0531 18:02:12.712658  4249 net.cpp:434] conv6_1_relu <- conv6_1
I0531 18:02:12.712664  4249 net.cpp:395] conv6_1_relu -> conv6_1 (in-place)
I0531 18:02:12.712669  4249 net.cpp:150] Setting up conv6_1_relu
I0531 18:02:12.712672  4249 net.cpp:157] Top shape: 32 256 19 19 (2957312)
I0531 18:02:12.712674  4249 net.cpp:165] Memory required for data: 7478411296
I0531 18:02:12.712677  4249 layer_factory.hpp:77] Creating layer conv6_2
I0531 18:02:12.712682  4249 net.cpp:100] Creating Layer conv6_2
I0531 18:02:12.712684  4249 net.cpp:434] conv6_2 <- conv6_1
I0531 18:02:12.712690  4249 net.cpp:408] conv6_2 -> conv6_2
I0531 18:02:12.719295  4249 net.cpp:150] Setting up conv6_2
I0531 18:02:12.719329  4249 net.cpp:157] Top shape: 32 512 10 10 (1638400)
I0531 18:02:12.719333  4249 net.cpp:165] Memory required for data: 7484964896
I0531 18:02:12.719362  4249 layer_factory.hpp:77] Creating layer conv6_2_relu
I0531 18:02:12.719373  4249 net.cpp:100] Creating Layer conv6_2_relu
I0531 18:02:12.719393  4249 net.cpp:434] conv6_2_relu <- conv6_2
I0531 18:02:12.719400  4249 net.cpp:395] conv6_2_relu -> conv6_2 (in-place)
I0531 18:02:12.719408  4249 net.cpp:150] Setting up conv6_2_relu
I0531 18:02:12.719411  4249 net.cpp:157] Top shape: 32 512 10 10 (1638400)
I0531 18:02:12.719413  4249 net.cpp:165] Memory required for data: 7491518496
I0531 18:02:12.719416  4249 layer_factory.hpp:77] Creating layer conv6_2_conv6_2_relu_0_split
I0531 18:02:12.719421  4249 net.cpp:100] Creating Layer conv6_2_conv6_2_relu_0_split
I0531 18:02:12.719424  4249 net.cpp:434] conv6_2_conv6_2_relu_0_split <- conv6_2
I0531 18:02:12.719426  4249 net.cpp:408] conv6_2_conv6_2_relu_0_split -> conv6_2_conv6_2_relu_0_split_0
I0531 18:02:12.719432  4249 net.cpp:408] conv6_2_conv6_2_relu_0_split -> conv6_2_conv6_2_relu_0_split_1
I0531 18:02:12.719439  4249 net.cpp:408] conv6_2_conv6_2_relu_0_split -> conv6_2_conv6_2_relu_0_split_2
I0531 18:02:12.719444  4249 net.cpp:408] conv6_2_conv6_2_relu_0_split -> conv6_2_conv6_2_relu_0_split_3
I0531 18:02:12.719491  4249 net.cpp:150] Setting up conv6_2_conv6_2_relu_0_split
I0531 18:02:12.719496  4249 net.cpp:157] Top shape: 32 512 10 10 (1638400)
I0531 18:02:12.719499  4249 net.cpp:157] Top shape: 32 512 10 10 (1638400)
I0531 18:02:12.719502  4249 net.cpp:157] Top shape: 32 512 10 10 (1638400)
I0531 18:02:12.719504  4249 net.cpp:157] Top shape: 32 512 10 10 (1638400)
I0531 18:02:12.719506  4249 net.cpp:165] Memory required for data: 7517732896
I0531 18:02:12.719508  4249 layer_factory.hpp:77] Creating layer conv7_1
I0531 18:02:12.719516  4249 net.cpp:100] Creating Layer conv7_1
I0531 18:02:12.719521  4249 net.cpp:434] conv7_1 <- conv6_2_conv6_2_relu_0_split_0
I0531 18:02:12.719527  4249 net.cpp:408] conv7_1 -> conv7_1
I0531 18:02:12.719952  4249 net.cpp:150] Setting up conv7_1
I0531 18:02:12.719959  4249 net.cpp:157] Top shape: 32 128 10 10 (409600)
I0531 18:02:12.719960  4249 net.cpp:165] Memory required for data: 7519371296
I0531 18:02:12.719965  4249 layer_factory.hpp:77] Creating layer conv7_1_relu
I0531 18:02:12.719969  4249 net.cpp:100] Creating Layer conv7_1_relu
I0531 18:02:12.719971  4249 net.cpp:434] conv7_1_relu <- conv7_1
I0531 18:02:12.719975  4249 net.cpp:395] conv7_1_relu -> conv7_1 (in-place)
I0531 18:02:12.719980  4249 net.cpp:150] Setting up conv7_1_relu
I0531 18:02:12.719985  4249 net.cpp:157] Top shape: 32 128 10 10 (409600)
I0531 18:02:12.719986  4249 net.cpp:165] Memory required for data: 7521009696
I0531 18:02:12.719988  4249 layer_factory.hpp:77] Creating layer conv7_2
I0531 18:02:12.719992  4249 net.cpp:100] Creating Layer conv7_2
I0531 18:02:12.719995  4249 net.cpp:434] conv7_2 <- conv7_1
I0531 18:02:12.720000  4249 net.cpp:408] conv7_2 -> conv7_2
I0531 18:02:12.721995  4249 net.cpp:150] Setting up conv7_2
I0531 18:02:12.722008  4249 net.cpp:157] Top shape: 32 256 5 5 (204800)
I0531 18:02:12.722010  4249 net.cpp:165] Memory required for data: 7521828896
I0531 18:02:12.722015  4249 layer_factory.hpp:77] Creating layer conv7_2_relu
I0531 18:02:12.722019  4249 net.cpp:100] Creating Layer conv7_2_relu
I0531 18:02:12.722023  4249 net.cpp:434] conv7_2_relu <- conv7_2
I0531 18:02:12.722038  4249 net.cpp:395] conv7_2_relu -> conv7_2 (in-place)
I0531 18:02:12.722044  4249 net.cpp:150] Setting up conv7_2_relu
I0531 18:02:12.722048  4249 net.cpp:157] Top shape: 32 256 5 5 (204800)
I0531 18:02:12.722049  4249 net.cpp:165] Memory required for data: 7522648096
I0531 18:02:12.722051  4249 layer_factory.hpp:77] Creating layer conv7_2_conv7_2_relu_0_split
I0531 18:02:12.722055  4249 net.cpp:100] Creating Layer conv7_2_conv7_2_relu_0_split
I0531 18:02:12.722057  4249 net.cpp:434] conv7_2_conv7_2_relu_0_split <- conv7_2
I0531 18:02:12.722062  4249 net.cpp:408] conv7_2_conv7_2_relu_0_split -> conv7_2_conv7_2_relu_0_split_0
I0531 18:02:12.722067  4249 net.cpp:408] conv7_2_conv7_2_relu_0_split -> conv7_2_conv7_2_relu_0_split_1
I0531 18:02:12.722072  4249 net.cpp:408] conv7_2_conv7_2_relu_0_split -> conv7_2_conv7_2_relu_0_split_2
I0531 18:02:12.722076  4249 net.cpp:408] conv7_2_conv7_2_relu_0_split -> conv7_2_conv7_2_relu_0_split_3
I0531 18:02:12.722117  4249 net.cpp:150] Setting up conv7_2_conv7_2_relu_0_split
I0531 18:02:12.722122  4249 net.cpp:157] Top shape: 32 256 5 5 (204800)
I0531 18:02:12.722124  4249 net.cpp:157] Top shape: 32 256 5 5 (204800)
I0531 18:02:12.722127  4249 net.cpp:157] Top shape: 32 256 5 5 (204800)
I0531 18:02:12.722129  4249 net.cpp:157] Top shape: 32 256 5 5 (204800)
I0531 18:02:12.722131  4249 net.cpp:165] Memory required for data: 7525924896
I0531 18:02:12.722133  4249 layer_factory.hpp:77] Creating layer conv8_1
I0531 18:02:12.722141  4249 net.cpp:100] Creating Layer conv8_1
I0531 18:02:12.722144  4249 net.cpp:434] conv8_1 <- conv7_2_conv7_2_relu_0_split_0
I0531 18:02:12.722149  4249 net.cpp:408] conv8_1 -> conv8_1
I0531 18:02:12.722429  4249 net.cpp:150] Setting up conv8_1
I0531 18:02:12.722436  4249 net.cpp:157] Top shape: 32 128 5 5 (102400)
I0531 18:02:12.722440  4249 net.cpp:165] Memory required for data: 7526334496
I0531 18:02:12.722443  4249 layer_factory.hpp:77] Creating layer conv8_1_relu
I0531 18:02:12.722446  4249 net.cpp:100] Creating Layer conv8_1_relu
I0531 18:02:12.722450  4249 net.cpp:434] conv8_1_relu <- conv8_1
I0531 18:02:12.722452  4249 net.cpp:395] conv8_1_relu -> conv8_1 (in-place)
I0531 18:02:12.722456  4249 net.cpp:150] Setting up conv8_1_relu
I0531 18:02:12.722460  4249 net.cpp:157] Top shape: 32 128 5 5 (102400)
I0531 18:02:12.722460  4249 net.cpp:165] Memory required for data: 7526744096
I0531 18:02:12.722463  4249 layer_factory.hpp:77] Creating layer conv8_2
I0531 18:02:12.722468  4249 net.cpp:100] Creating Layer conv8_2
I0531 18:02:12.722470  4249 net.cpp:434] conv8_2 <- conv8_1
I0531 18:02:12.722474  4249 net.cpp:408] conv8_2 -> conv8_2
I0531 18:02:12.724445  4249 net.cpp:150] Setting up conv8_2
I0531 18:02:12.724455  4249 net.cpp:157] Top shape: 32 256 3 3 (73728)
I0531 18:02:12.724457  4249 net.cpp:165] Memory required for data: 7527039008
I0531 18:02:12.724462  4249 layer_factory.hpp:77] Creating layer conv8_2_relu
I0531 18:02:12.724468  4249 net.cpp:100] Creating Layer conv8_2_relu
I0531 18:02:12.724472  4249 net.cpp:434] conv8_2_relu <- conv8_2
I0531 18:02:12.724474  4249 net.cpp:395] conv8_2_relu -> conv8_2 (in-place)
I0531 18:02:12.724479  4249 net.cpp:150] Setting up conv8_2_relu
I0531 18:02:12.724483  4249 net.cpp:157] Top shape: 32 256 3 3 (73728)
I0531 18:02:12.724485  4249 net.cpp:165] Memory required for data: 7527333920
I0531 18:02:12.724488  4249 layer_factory.hpp:77] Creating layer conv8_2_conv8_2_relu_0_split
I0531 18:02:12.724491  4249 net.cpp:100] Creating Layer conv8_2_conv8_2_relu_0_split
I0531 18:02:12.724493  4249 net.cpp:434] conv8_2_conv8_2_relu_0_split <- conv8_2
I0531 18:02:12.724498  4249 net.cpp:408] conv8_2_conv8_2_relu_0_split -> conv8_2_conv8_2_relu_0_split_0
I0531 18:02:12.724503  4249 net.cpp:408] conv8_2_conv8_2_relu_0_split -> conv8_2_conv8_2_relu_0_split_1
I0531 18:02:12.724509  4249 net.cpp:408] conv8_2_conv8_2_relu_0_split -> conv8_2_conv8_2_relu_0_split_2
I0531 18:02:12.724514  4249 net.cpp:408] conv8_2_conv8_2_relu_0_split -> conv8_2_conv8_2_relu_0_split_3
I0531 18:02:12.724566  4249 net.cpp:150] Setting up conv8_2_conv8_2_relu_0_split
I0531 18:02:12.724572  4249 net.cpp:157] Top shape: 32 256 3 3 (73728)
I0531 18:02:12.724575  4249 net.cpp:157] Top shape: 32 256 3 3 (73728)
I0531 18:02:12.724578  4249 net.cpp:157] Top shape: 32 256 3 3 (73728)
I0531 18:02:12.724581  4249 net.cpp:157] Top shape: 32 256 3 3 (73728)
I0531 18:02:12.724582  4249 net.cpp:165] Memory required for data: 7528513568
I0531 18:02:12.724584  4249 layer_factory.hpp:77] Creating layer conv9_1
I0531 18:02:12.724591  4249 net.cpp:100] Creating Layer conv9_1
I0531 18:02:12.724594  4249 net.cpp:434] conv9_1 <- conv8_2_conv8_2_relu_0_split_0
I0531 18:02:12.724599  4249 net.cpp:408] conv9_1 -> conv9_1
I0531 18:02:12.724891  4249 net.cpp:150] Setting up conv9_1
I0531 18:02:12.724900  4249 net.cpp:157] Top shape: 32 128 3 3 (36864)
I0531 18:02:12.724901  4249 net.cpp:165] Memory required for data: 7528661024
I0531 18:02:12.724905  4249 layer_factory.hpp:77] Creating layer conv9_1_relu
I0531 18:02:12.724908  4249 net.cpp:100] Creating Layer conv9_1_relu
I0531 18:02:12.724911  4249 net.cpp:434] conv9_1_relu <- conv9_1
I0531 18:02:12.724915  4249 net.cpp:395] conv9_1_relu -> conv9_1 (in-place)
I0531 18:02:12.724918  4249 net.cpp:150] Setting up conv9_1_relu
I0531 18:02:12.724921  4249 net.cpp:157] Top shape: 32 128 3 3 (36864)
I0531 18:02:12.724923  4249 net.cpp:165] Memory required for data: 7528808480
I0531 18:02:12.724925  4249 layer_factory.hpp:77] Creating layer conv9_2
I0531 18:02:12.724931  4249 net.cpp:100] Creating Layer conv9_2
I0531 18:02:12.724932  4249 net.cpp:434] conv9_2 <- conv9_1
I0531 18:02:12.724938  4249 net.cpp:408] conv9_2 -> conv9_2
I0531 18:02:12.726960  4249 net.cpp:150] Setting up conv9_2
I0531 18:02:12.726972  4249 net.cpp:157] Top shape: 32 256 1 1 (8192)
I0531 18:02:12.726974  4249 net.cpp:165] Memory required for data: 7528841248
I0531 18:02:12.726980  4249 layer_factory.hpp:77] Creating layer conv9_2_relu
I0531 18:02:12.726984  4249 net.cpp:100] Creating Layer conv9_2_relu
I0531 18:02:12.726987  4249 net.cpp:434] conv9_2_relu <- conv9_2
I0531 18:02:12.726990  4249 net.cpp:395] conv9_2_relu -> conv9_2 (in-place)
I0531 18:02:12.726995  4249 net.cpp:150] Setting up conv9_2_relu
I0531 18:02:12.726999  4249 net.cpp:157] Top shape: 32 256 1 1 (8192)
I0531 18:02:12.727001  4249 net.cpp:165] Memory required for data: 7528874016
I0531 18:02:12.727004  4249 layer_factory.hpp:77] Creating layer conv9_2_conv9_2_relu_0_split
I0531 18:02:12.727007  4249 net.cpp:100] Creating Layer conv9_2_conv9_2_relu_0_split
I0531 18:02:12.727010  4249 net.cpp:434] conv9_2_conv9_2_relu_0_split <- conv9_2
I0531 18:02:12.727015  4249 net.cpp:408] conv9_2_conv9_2_relu_0_split -> conv9_2_conv9_2_relu_0_split_0
I0531 18:02:12.727033  4249 net.cpp:408] conv9_2_conv9_2_relu_0_split -> conv9_2_conv9_2_relu_0_split_1
I0531 18:02:12.727039  4249 net.cpp:408] conv9_2_conv9_2_relu_0_split -> conv9_2_conv9_2_relu_0_split_2
I0531 18:02:12.727072  4249 net.cpp:150] Setting up conv9_2_conv9_2_relu_0_split
I0531 18:02:12.727075  4249 net.cpp:157] Top shape: 32 256 1 1 (8192)
I0531 18:02:12.727078  4249 net.cpp:157] Top shape: 32 256 1 1 (8192)
I0531 18:02:12.727082  4249 net.cpp:157] Top shape: 32 256 1 1 (8192)
I0531 18:02:12.727083  4249 net.cpp:165] Memory required for data: 7528972320
I0531 18:02:12.727085  4249 layer_factory.hpp:77] Creating layer conv4_3_norm
I0531 18:02:12.727090  4249 net.cpp:100] Creating Layer conv4_3_norm
I0531 18:02:12.727094  4249 net.cpp:434] conv4_3_norm <- conv4_3_relu4_3_0_split_1
I0531 18:02:12.727098  4249 net.cpp:408] conv4_3_norm -> conv4_3_norm
I0531 18:02:12.727197  4249 net.cpp:150] Setting up conv4_3_norm
I0531 18:02:12.727202  4249 net.cpp:157] Top shape: 32 512 38 38 (23658496)
I0531 18:02:12.727205  4249 net.cpp:165] Memory required for data: 7623606304
I0531 18:02:12.727207  4249 layer_factory.hpp:77] Creating layer conv4_3_norm_conv4_3_norm_0_split
I0531 18:02:12.727211  4249 net.cpp:100] Creating Layer conv4_3_norm_conv4_3_norm_0_split
I0531 18:02:12.727214  4249 net.cpp:434] conv4_3_norm_conv4_3_norm_0_split <- conv4_3_norm
I0531 18:02:12.727226  4249 net.cpp:408] conv4_3_norm_conv4_3_norm_0_split -> conv4_3_norm_conv4_3_norm_0_split_0
I0531 18:02:12.727231  4249 net.cpp:408] conv4_3_norm_conv4_3_norm_0_split -> conv4_3_norm_conv4_3_norm_0_split_1
I0531 18:02:12.727236  4249 net.cpp:408] conv4_3_norm_conv4_3_norm_0_split -> conv4_3_norm_conv4_3_norm_0_split_2
I0531 18:02:12.727263  4249 net.cpp:150] Setting up conv4_3_norm_conv4_3_norm_0_split
I0531 18:02:12.727268  4249 net.cpp:157] Top shape: 32 512 38 38 (23658496)
I0531 18:02:12.727272  4249 net.cpp:157] Top shape: 32 512 38 38 (23658496)
I0531 18:02:12.727274  4249 net.cpp:157] Top shape: 32 512 38 38 (23658496)
I0531 18:02:12.727275  4249 net.cpp:165] Memory required for data: 7907508256
I0531 18:02:12.727278  4249 layer_factory.hpp:77] Creating layer conv4_3_norm_mbox_loc
I0531 18:02:12.727284  4249 net.cpp:100] Creating Layer conv4_3_norm_mbox_loc
I0531 18:02:12.727288  4249 net.cpp:434] conv4_3_norm_mbox_loc <- conv4_3_norm_conv4_3_norm_0_split_0
I0531 18:02:12.727291  4249 net.cpp:408] conv4_3_norm_mbox_loc -> conv4_3_norm_mbox_loc
I0531 18:02:12.727738  4249 net.cpp:150] Setting up conv4_3_norm_mbox_loc
I0531 18:02:12.727744  4249 net.cpp:157] Top shape: 32 16 38 38 (739328)
I0531 18:02:12.727746  4249 net.cpp:165] Memory required for data: 7910465568
I0531 18:02:12.727751  4249 layer_factory.hpp:77] Creating layer conv4_3_norm_mbox_loc_perm
I0531 18:02:12.727756  4249 net.cpp:100] Creating Layer conv4_3_norm_mbox_loc_perm
I0531 18:02:12.727759  4249 net.cpp:434] conv4_3_norm_mbox_loc_perm <- conv4_3_norm_mbox_loc
I0531 18:02:12.727762  4249 net.cpp:408] conv4_3_norm_mbox_loc_perm -> conv4_3_norm_mbox_loc_perm
I0531 18:02:12.727826  4249 net.cpp:150] Setting up conv4_3_norm_mbox_loc_perm
I0531 18:02:12.727831  4249 net.cpp:157] Top shape: 32 38 38 16 (739328)
I0531 18:02:12.727833  4249 net.cpp:165] Memory required for data: 7913422880
I0531 18:02:12.727835  4249 layer_factory.hpp:77] Creating layer conv4_3_norm_mbox_loc_flat
I0531 18:02:12.727839  4249 net.cpp:100] Creating Layer conv4_3_norm_mbox_loc_flat
I0531 18:02:12.727841  4249 net.cpp:434] conv4_3_norm_mbox_loc_flat <- conv4_3_norm_mbox_loc_perm
I0531 18:02:12.727846  4249 net.cpp:408] conv4_3_norm_mbox_loc_flat -> conv4_3_norm_mbox_loc_flat
I0531 18:02:12.727869  4249 net.cpp:150] Setting up conv4_3_norm_mbox_loc_flat
I0531 18:02:12.727874  4249 net.cpp:157] Top shape: 32 23104 (739328)
I0531 18:02:12.727876  4249 net.cpp:165] Memory required for data: 7916380192
I0531 18:02:12.727879  4249 layer_factory.hpp:77] Creating layer conv4_3_norm_mbox_conf
I0531 18:02:12.727890  4249 net.cpp:100] Creating Layer conv4_3_norm_mbox_conf
I0531 18:02:12.727892  4249 net.cpp:434] conv4_3_norm_mbox_conf <- conv4_3_norm_conv4_3_norm_0_split_1
I0531 18:02:12.727897  4249 net.cpp:408] conv4_3_norm_mbox_conf -> conv4_3_norm_mbox_conf
I0531 18:02:12.728335  4249 net.cpp:150] Setting up conv4_3_norm_mbox_conf
I0531 18:02:12.728341  4249 net.cpp:157] Top shape: 32 16 38 38 (739328)
I0531 18:02:12.728343  4249 net.cpp:165] Memory required for data: 7919337504
I0531 18:02:12.728348  4249 layer_factory.hpp:77] Creating layer conv4_3_norm_mbox_conf_perm
I0531 18:02:12.728351  4249 net.cpp:100] Creating Layer conv4_3_norm_mbox_conf_perm
I0531 18:02:12.728353  4249 net.cpp:434] conv4_3_norm_mbox_conf_perm <- conv4_3_norm_mbox_conf
I0531 18:02:12.728358  4249 net.cpp:408] conv4_3_norm_mbox_conf_perm -> conv4_3_norm_mbox_conf_perm
I0531 18:02:12.728448  4249 net.cpp:150] Setting up conv4_3_norm_mbox_conf_perm
I0531 18:02:12.728453  4249 net.cpp:157] Top shape: 32 38 38 16 (739328)
I0531 18:02:12.728456  4249 net.cpp:165] Memory required for data: 7922294816
I0531 18:02:12.728457  4249 layer_factory.hpp:77] Creating layer conv4_3_norm_mbox_conf_flat
I0531 18:02:12.728461  4249 net.cpp:100] Creating Layer conv4_3_norm_mbox_conf_flat
I0531 18:02:12.728464  4249 net.cpp:434] conv4_3_norm_mbox_conf_flat <- conv4_3_norm_mbox_conf_perm
I0531 18:02:12.728468  4249 net.cpp:408] conv4_3_norm_mbox_conf_flat -> conv4_3_norm_mbox_conf_flat
I0531 18:02:12.728489  4249 net.cpp:150] Setting up conv4_3_norm_mbox_conf_flat
I0531 18:02:12.728494  4249 net.cpp:157] Top shape: 32 23104 (739328)
I0531 18:02:12.728497  4249 net.cpp:165] Memory required for data: 7925252128
I0531 18:02:12.728498  4249 layer_factory.hpp:77] Creating layer conv4_3_norm_mbox_priorbox
I0531 18:02:12.728504  4249 net.cpp:100] Creating Layer conv4_3_norm_mbox_priorbox
I0531 18:02:12.728507  4249 net.cpp:434] conv4_3_norm_mbox_priorbox <- conv4_3_norm_conv4_3_norm_0_split_2
I0531 18:02:12.728512  4249 net.cpp:434] conv4_3_norm_mbox_priorbox <- data_data_0_split_1
I0531 18:02:12.728515  4249 net.cpp:408] conv4_3_norm_mbox_priorbox -> conv4_3_norm_mbox_priorbox
I0531 18:02:12.728533  4249 net.cpp:150] Setting up conv4_3_norm_mbox_priorbox
I0531 18:02:12.728538  4249 net.cpp:157] Top shape: 1 2 23104 (46208)
I0531 18:02:12.728540  4249 net.cpp:165] Memory required for data: 7925436960
I0531 18:02:12.728543  4249 layer_factory.hpp:77] Creating layer fc7_mbox_loc
I0531 18:02:12.728549  4249 net.cpp:100] Creating Layer fc7_mbox_loc
I0531 18:02:12.728554  4249 net.cpp:434] fc7_mbox_loc <- fc7_relu7_0_split_1
I0531 18:02:12.728557  4249 net.cpp:408] fc7_mbox_loc -> fc7_mbox_loc
I0531 18:02:12.729594  4249 net.cpp:150] Setting up fc7_mbox_loc
I0531 18:02:12.729601  4249 net.cpp:157] Top shape: 32 24 19 19 (277248)
I0531 18:02:12.729604  4249 net.cpp:165] Memory required for data: 7926545952
I0531 18:02:12.729607  4249 layer_factory.hpp:77] Creating layer fc7_mbox_loc_perm
I0531 18:02:12.729612  4249 net.cpp:100] Creating Layer fc7_mbox_loc_perm
I0531 18:02:12.729615  4249 net.cpp:434] fc7_mbox_loc_perm <- fc7_mbox_loc
I0531 18:02:12.729620  4249 net.cpp:408] fc7_mbox_loc_perm -> fc7_mbox_loc_perm
I0531 18:02:12.729681  4249 net.cpp:150] Setting up fc7_mbox_loc_perm
I0531 18:02:12.729686  4249 net.cpp:157] Top shape: 32 19 19 24 (277248)
I0531 18:02:12.729687  4249 net.cpp:165] Memory required for data: 7927654944
I0531 18:02:12.729691  4249 layer_factory.hpp:77] Creating layer fc7_mbox_loc_flat
I0531 18:02:12.729694  4249 net.cpp:100] Creating Layer fc7_mbox_loc_flat
I0531 18:02:12.729696  4249 net.cpp:434] fc7_mbox_loc_flat <- fc7_mbox_loc_perm
I0531 18:02:12.729699  4249 net.cpp:408] fc7_mbox_loc_flat -> fc7_mbox_loc_flat
I0531 18:02:12.729714  4249 net.cpp:150] Setting up fc7_mbox_loc_flat
I0531 18:02:12.729718  4249 net.cpp:157] Top shape: 32 8664 (277248)
I0531 18:02:12.729720  4249 net.cpp:165] Memory required for data: 7928763936
I0531 18:02:12.729722  4249 layer_factory.hpp:77] Creating layer fc7_mbox_conf
I0531 18:02:12.729728  4249 net.cpp:100] Creating Layer fc7_mbox_conf
I0531 18:02:12.729732  4249 net.cpp:434] fc7_mbox_conf <- fc7_relu7_0_split_2
I0531 18:02:12.729738  4249 net.cpp:408] fc7_mbox_conf -> fc7_mbox_conf
I0531 18:02:12.730770  4249 net.cpp:150] Setting up fc7_mbox_conf
I0531 18:02:12.730777  4249 net.cpp:157] Top shape: 32 24 19 19 (277248)
I0531 18:02:12.730778  4249 net.cpp:165] Memory required for data: 7929872928
I0531 18:02:12.730782  4249 layer_factory.hpp:77] Creating layer fc7_mbox_conf_perm
I0531 18:02:12.730785  4249 net.cpp:100] Creating Layer fc7_mbox_conf_perm
I0531 18:02:12.730788  4249 net.cpp:434] fc7_mbox_conf_perm <- fc7_mbox_conf
I0531 18:02:12.730793  4249 net.cpp:408] fc7_mbox_conf_perm -> fc7_mbox_conf_perm
I0531 18:02:12.730854  4249 net.cpp:150] Setting up fc7_mbox_conf_perm
I0531 18:02:12.730859  4249 net.cpp:157] Top shape: 32 19 19 24 (277248)
I0531 18:02:12.730862  4249 net.cpp:165] Memory required for data: 7930981920
I0531 18:02:12.730865  4249 layer_factory.hpp:77] Creating layer fc7_mbox_conf_flat
I0531 18:02:12.730867  4249 net.cpp:100] Creating Layer fc7_mbox_conf_flat
I0531 18:02:12.730870  4249 net.cpp:434] fc7_mbox_conf_flat <- fc7_mbox_conf_perm
I0531 18:02:12.730875  4249 net.cpp:408] fc7_mbox_conf_flat -> fc7_mbox_conf_flat
I0531 18:02:12.730890  4249 net.cpp:150] Setting up fc7_mbox_conf_flat
I0531 18:02:12.730895  4249 net.cpp:157] Top shape: 32 8664 (277248)
I0531 18:02:12.730896  4249 net.cpp:165] Memory required for data: 7932090912
I0531 18:02:12.730907  4249 layer_factory.hpp:77] Creating layer fc7_mbox_priorbox
I0531 18:02:12.730912  4249 net.cpp:100] Creating Layer fc7_mbox_priorbox
I0531 18:02:12.730916  4249 net.cpp:434] fc7_mbox_priorbox <- fc7_relu7_0_split_3
I0531 18:02:12.730919  4249 net.cpp:434] fc7_mbox_priorbox <- data_data_0_split_2
I0531 18:02:12.730924  4249 net.cpp:408] fc7_mbox_priorbox -> fc7_mbox_priorbox
I0531 18:02:12.730942  4249 net.cpp:150] Setting up fc7_mbox_priorbox
I0531 18:02:12.730947  4249 net.cpp:157] Top shape: 1 2 8664 (17328)
I0531 18:02:12.730948  4249 net.cpp:165] Memory required for data: 7932160224
I0531 18:02:12.730950  4249 layer_factory.hpp:77] Creating layer conv6_2_mbox_loc
I0531 18:02:12.730957  4249 net.cpp:100] Creating Layer conv6_2_mbox_loc
I0531 18:02:12.730962  4249 net.cpp:434] conv6_2_mbox_loc <- conv6_2_conv6_2_relu_0_split_1
I0531 18:02:12.730967  4249 net.cpp:408] conv6_2_mbox_loc -> conv6_2_mbox_loc
I0531 18:02:12.731552  4249 net.cpp:150] Setting up conv6_2_mbox_loc
I0531 18:02:12.731557  4249 net.cpp:157] Top shape: 32 24 10 10 (76800)
I0531 18:02:12.731559  4249 net.cpp:165] Memory required for data: 7932467424
I0531 18:02:12.731564  4249 layer_factory.hpp:77] Creating layer conv6_2_mbox_loc_perm
I0531 18:02:12.731568  4249 net.cpp:100] Creating Layer conv6_2_mbox_loc_perm
I0531 18:02:12.731571  4249 net.cpp:434] conv6_2_mbox_loc_perm <- conv6_2_mbox_loc
I0531 18:02:12.731575  4249 net.cpp:408] conv6_2_mbox_loc_perm -> conv6_2_mbox_loc_perm
I0531 18:02:12.731637  4249 net.cpp:150] Setting up conv6_2_mbox_loc_perm
I0531 18:02:12.731642  4249 net.cpp:157] Top shape: 32 10 10 24 (76800)
I0531 18:02:12.731643  4249 net.cpp:165] Memory required for data: 7932774624
I0531 18:02:12.731645  4249 layer_factory.hpp:77] Creating layer conv6_2_mbox_loc_flat
I0531 18:02:12.731648  4249 net.cpp:100] Creating Layer conv6_2_mbox_loc_flat
I0531 18:02:12.731650  4249 net.cpp:434] conv6_2_mbox_loc_flat <- conv6_2_mbox_loc_perm
I0531 18:02:12.731655  4249 net.cpp:408] conv6_2_mbox_loc_flat -> conv6_2_mbox_loc_flat
I0531 18:02:12.731669  4249 net.cpp:150] Setting up conv6_2_mbox_loc_flat
I0531 18:02:12.731673  4249 net.cpp:157] Top shape: 32 2400 (76800)
I0531 18:02:12.731675  4249 net.cpp:165] Memory required for data: 7933081824
I0531 18:02:12.731678  4249 layer_factory.hpp:77] Creating layer conv6_2_mbox_conf
I0531 18:02:12.731683  4249 net.cpp:100] Creating Layer conv6_2_mbox_conf
I0531 18:02:12.731685  4249 net.cpp:434] conv6_2_mbox_conf <- conv6_2_conv6_2_relu_0_split_2
I0531 18:02:12.731690  4249 net.cpp:408] conv6_2_mbox_conf -> conv6_2_mbox_conf
I0531 18:02:12.732280  4249 net.cpp:150] Setting up conv6_2_mbox_conf
I0531 18:02:12.732286  4249 net.cpp:157] Top shape: 32 24 10 10 (76800)
I0531 18:02:12.732288  4249 net.cpp:165] Memory required for data: 7933389024
I0531 18:02:12.732292  4249 layer_factory.hpp:77] Creating layer conv6_2_mbox_conf_perm
I0531 18:02:12.732296  4249 net.cpp:100] Creating Layer conv6_2_mbox_conf_perm
I0531 18:02:12.732300  4249 net.cpp:434] conv6_2_mbox_conf_perm <- conv6_2_mbox_conf
I0531 18:02:12.732305  4249 net.cpp:408] conv6_2_mbox_conf_perm -> conv6_2_mbox_conf_perm
I0531 18:02:12.732367  4249 net.cpp:150] Setting up conv6_2_mbox_conf_perm
I0531 18:02:12.732370  4249 net.cpp:157] Top shape: 32 10 10 24 (76800)
I0531 18:02:12.732372  4249 net.cpp:165] Memory required for data: 7933696224
I0531 18:02:12.732374  4249 layer_factory.hpp:77] Creating layer conv6_2_mbox_conf_flat
I0531 18:02:12.732379  4249 net.cpp:100] Creating Layer conv6_2_mbox_conf_flat
I0531 18:02:12.732381  4249 net.cpp:434] conv6_2_mbox_conf_flat <- conv6_2_mbox_conf_perm
I0531 18:02:12.732384  4249 net.cpp:408] conv6_2_mbox_conf_flat -> conv6_2_mbox_conf_flat
I0531 18:02:12.732398  4249 net.cpp:150] Setting up conv6_2_mbox_conf_flat
I0531 18:02:12.732403  4249 net.cpp:157] Top shape: 32 2400 (76800)
I0531 18:02:12.732405  4249 net.cpp:165] Memory required for data: 7934003424
I0531 18:02:12.732408  4249 layer_factory.hpp:77] Creating layer conv6_2_mbox_priorbox
I0531 18:02:12.732419  4249 net.cpp:100] Creating Layer conv6_2_mbox_priorbox
I0531 18:02:12.732421  4249 net.cpp:434] conv6_2_mbox_priorbox <- conv6_2_conv6_2_relu_0_split_3
I0531 18:02:12.732424  4249 net.cpp:434] conv6_2_mbox_priorbox <- data_data_0_split_3
I0531 18:02:12.732429  4249 net.cpp:408] conv6_2_mbox_priorbox -> conv6_2_mbox_priorbox
I0531 18:02:12.732445  4249 net.cpp:150] Setting up conv6_2_mbox_priorbox
I0531 18:02:12.732450  4249 net.cpp:157] Top shape: 1 2 2400 (4800)
I0531 18:02:12.732451  4249 net.cpp:165] Memory required for data: 7934022624
I0531 18:02:12.732453  4249 layer_factory.hpp:77] Creating layer conv7_2_mbox_loc
I0531 18:02:12.732460  4249 net.cpp:100] Creating Layer conv7_2_mbox_loc
I0531 18:02:12.732463  4249 net.cpp:434] conv7_2_mbox_loc <- conv7_2_conv7_2_relu_0_split_1
I0531 18:02:12.732468  4249 net.cpp:408] conv7_2_mbox_loc -> conv7_2_mbox_loc
I0531 18:02:12.732836  4249 net.cpp:150] Setting up conv7_2_mbox_loc
I0531 18:02:12.732841  4249 net.cpp:157] Top shape: 32 24 5 5 (19200)
I0531 18:02:12.732843  4249 net.cpp:165] Memory required for data: 7934099424
I0531 18:02:12.732847  4249 layer_factory.hpp:77] Creating layer conv7_2_mbox_loc_perm
I0531 18:02:12.732851  4249 net.cpp:100] Creating Layer conv7_2_mbox_loc_perm
I0531 18:02:12.732853  4249 net.cpp:434] conv7_2_mbox_loc_perm <- conv7_2_mbox_loc
I0531 18:02:12.732858  4249 net.cpp:408] conv7_2_mbox_loc_perm -> conv7_2_mbox_loc_perm
I0531 18:02:12.732931  4249 net.cpp:150] Setting up conv7_2_mbox_loc_perm
I0531 18:02:12.732938  4249 net.cpp:157] Top shape: 32 5 5 24 (19200)
I0531 18:02:12.732939  4249 net.cpp:165] Memory required for data: 7934176224
I0531 18:02:12.732942  4249 layer_factory.hpp:77] Creating layer conv7_2_mbox_loc_flat
I0531 18:02:12.732945  4249 net.cpp:100] Creating Layer conv7_2_mbox_loc_flat
I0531 18:02:12.732949  4249 net.cpp:434] conv7_2_mbox_loc_flat <- conv7_2_mbox_loc_perm
I0531 18:02:12.732952  4249 net.cpp:408] conv7_2_mbox_loc_flat -> conv7_2_mbox_loc_flat
I0531 18:02:12.732966  4249 net.cpp:150] Setting up conv7_2_mbox_loc_flat
I0531 18:02:12.732970  4249 net.cpp:157] Top shape: 32 600 (19200)
I0531 18:02:12.732972  4249 net.cpp:165] Memory required for data: 7934253024
I0531 18:02:12.732975  4249 layer_factory.hpp:77] Creating layer conv7_2_mbox_conf
I0531 18:02:12.732981  4249 net.cpp:100] Creating Layer conv7_2_mbox_conf
I0531 18:02:12.732985  4249 net.cpp:434] conv7_2_mbox_conf <- conv7_2_conv7_2_relu_0_split_2
I0531 18:02:12.732988  4249 net.cpp:408] conv7_2_mbox_conf -> conv7_2_mbox_conf
I0531 18:02:12.733350  4249 net.cpp:150] Setting up conv7_2_mbox_conf
I0531 18:02:12.733356  4249 net.cpp:157] Top shape: 32 24 5 5 (19200)
I0531 18:02:12.733358  4249 net.cpp:165] Memory required for data: 7934329824
I0531 18:02:12.733361  4249 layer_factory.hpp:77] Creating layer conv7_2_mbox_conf_perm
I0531 18:02:12.733366  4249 net.cpp:100] Creating Layer conv7_2_mbox_conf_perm
I0531 18:02:12.733369  4249 net.cpp:434] conv7_2_mbox_conf_perm <- conv7_2_mbox_conf
I0531 18:02:12.733373  4249 net.cpp:408] conv7_2_mbox_conf_perm -> conv7_2_mbox_conf_perm
I0531 18:02:12.733435  4249 net.cpp:150] Setting up conv7_2_mbox_conf_perm
I0531 18:02:12.733439  4249 net.cpp:157] Top shape: 32 5 5 24 (19200)
I0531 18:02:12.733443  4249 net.cpp:165] Memory required for data: 7934406624
I0531 18:02:12.733444  4249 layer_factory.hpp:77] Creating layer conv7_2_mbox_conf_flat
I0531 18:02:12.733446  4249 net.cpp:100] Creating Layer conv7_2_mbox_conf_flat
I0531 18:02:12.733449  4249 net.cpp:434] conv7_2_mbox_conf_flat <- conv7_2_mbox_conf_perm
I0531 18:02:12.733453  4249 net.cpp:408] conv7_2_mbox_conf_flat -> conv7_2_mbox_conf_flat
I0531 18:02:12.733469  4249 net.cpp:150] Setting up conv7_2_mbox_conf_flat
I0531 18:02:12.733472  4249 net.cpp:157] Top shape: 32 600 (19200)
I0531 18:02:12.733474  4249 net.cpp:165] Memory required for data: 7934483424
I0531 18:02:12.733476  4249 layer_factory.hpp:77] Creating layer conv7_2_mbox_priorbox
I0531 18:02:12.733480  4249 net.cpp:100] Creating Layer conv7_2_mbox_priorbox
I0531 18:02:12.733482  4249 net.cpp:434] conv7_2_mbox_priorbox <- conv7_2_conv7_2_relu_0_split_3
I0531 18:02:12.733491  4249 net.cpp:434] conv7_2_mbox_priorbox <- data_data_0_split_4
I0531 18:02:12.733496  4249 net.cpp:408] conv7_2_mbox_priorbox -> conv7_2_mbox_priorbox
I0531 18:02:12.733515  4249 net.cpp:150] Setting up conv7_2_mbox_priorbox
I0531 18:02:12.733518  4249 net.cpp:157] Top shape: 1 2 600 (1200)
I0531 18:02:12.733520  4249 net.cpp:165] Memory required for data: 7934488224
I0531 18:02:12.733522  4249 layer_factory.hpp:77] Creating layer conv8_2_mbox_loc
I0531 18:02:12.733530  4249 net.cpp:100] Creating Layer conv8_2_mbox_loc
I0531 18:02:12.733533  4249 net.cpp:434] conv8_2_mbox_loc <- conv8_2_conv8_2_relu_0_split_1
I0531 18:02:12.733538  4249 net.cpp:408] conv8_2_mbox_loc -> conv8_2_mbox_loc
I0531 18:02:12.733834  4249 net.cpp:150] Setting up conv8_2_mbox_loc
I0531 18:02:12.733839  4249 net.cpp:157] Top shape: 32 16 3 3 (4608)
I0531 18:02:12.733840  4249 net.cpp:165] Memory required for data: 7934506656
I0531 18:02:12.733852  4249 layer_factory.hpp:77] Creating layer conv8_2_mbox_loc_perm
I0531 18:02:12.733857  4249 net.cpp:100] Creating Layer conv8_2_mbox_loc_perm
I0531 18:02:12.733860  4249 net.cpp:434] conv8_2_mbox_loc_perm <- conv8_2_mbox_loc
I0531 18:02:12.733865  4249 net.cpp:408] conv8_2_mbox_loc_perm -> conv8_2_mbox_loc_perm
I0531 18:02:12.733927  4249 net.cpp:150] Setting up conv8_2_mbox_loc_perm
I0531 18:02:12.733932  4249 net.cpp:157] Top shape: 32 3 3 16 (4608)
I0531 18:02:12.733933  4249 net.cpp:165] Memory required for data: 7934525088
I0531 18:02:12.733935  4249 layer_factory.hpp:77] Creating layer conv8_2_mbox_loc_flat
I0531 18:02:12.733938  4249 net.cpp:100] Creating Layer conv8_2_mbox_loc_flat
I0531 18:02:12.733942  4249 net.cpp:434] conv8_2_mbox_loc_flat <- conv8_2_mbox_loc_perm
I0531 18:02:12.733945  4249 net.cpp:408] conv8_2_mbox_loc_flat -> conv8_2_mbox_loc_flat
I0531 18:02:12.733960  4249 net.cpp:150] Setting up conv8_2_mbox_loc_flat
I0531 18:02:12.733964  4249 net.cpp:157] Top shape: 32 144 (4608)
I0531 18:02:12.733966  4249 net.cpp:165] Memory required for data: 7934543520
I0531 18:02:12.733968  4249 layer_factory.hpp:77] Creating layer conv8_2_mbox_conf
I0531 18:02:12.733974  4249 net.cpp:100] Creating Layer conv8_2_mbox_conf
I0531 18:02:12.733976  4249 net.cpp:434] conv8_2_mbox_conf <- conv8_2_conv8_2_relu_0_split_2
I0531 18:02:12.733981  4249 net.cpp:408] conv8_2_mbox_conf -> conv8_2_mbox_conf
I0531 18:02:12.734274  4249 net.cpp:150] Setting up conv8_2_mbox_conf
I0531 18:02:12.734279  4249 net.cpp:157] Top shape: 32 16 3 3 (4608)
I0531 18:02:12.734282  4249 net.cpp:165] Memory required for data: 7934561952
I0531 18:02:12.734285  4249 layer_factory.hpp:77] Creating layer conv8_2_mbox_conf_perm
I0531 18:02:12.734289  4249 net.cpp:100] Creating Layer conv8_2_mbox_conf_perm
I0531 18:02:12.734293  4249 net.cpp:434] conv8_2_mbox_conf_perm <- conv8_2_mbox_conf
I0531 18:02:12.734297  4249 net.cpp:408] conv8_2_mbox_conf_perm -> conv8_2_mbox_conf_perm
I0531 18:02:12.734357  4249 net.cpp:150] Setting up conv8_2_mbox_conf_perm
I0531 18:02:12.734362  4249 net.cpp:157] Top shape: 32 3 3 16 (4608)
I0531 18:02:12.734364  4249 net.cpp:165] Memory required for data: 7934580384
I0531 18:02:12.734366  4249 layer_factory.hpp:77] Creating layer conv8_2_mbox_conf_flat
I0531 18:02:12.734370  4249 net.cpp:100] Creating Layer conv8_2_mbox_conf_flat
I0531 18:02:12.734374  4249 net.cpp:434] conv8_2_mbox_conf_flat <- conv8_2_mbox_conf_perm
I0531 18:02:12.734376  4249 net.cpp:408] conv8_2_mbox_conf_flat -> conv8_2_mbox_conf_flat
I0531 18:02:12.734390  4249 net.cpp:150] Setting up conv8_2_mbox_conf_flat
I0531 18:02:12.734395  4249 net.cpp:157] Top shape: 32 144 (4608)
I0531 18:02:12.734396  4249 net.cpp:165] Memory required for data: 7934598816
I0531 18:02:12.734398  4249 layer_factory.hpp:77] Creating layer conv8_2_mbox_priorbox
I0531 18:02:12.734403  4249 net.cpp:100] Creating Layer conv8_2_mbox_priorbox
I0531 18:02:12.734406  4249 net.cpp:434] conv8_2_mbox_priorbox <- conv8_2_conv8_2_relu_0_split_3
I0531 18:02:12.734410  4249 net.cpp:434] conv8_2_mbox_priorbox <- data_data_0_split_5
I0531 18:02:12.734418  4249 net.cpp:408] conv8_2_mbox_priorbox -> conv8_2_mbox_priorbox
I0531 18:02:12.734436  4249 net.cpp:150] Setting up conv8_2_mbox_priorbox
I0531 18:02:12.734439  4249 net.cpp:157] Top shape: 1 2 144 (288)
I0531 18:02:12.734441  4249 net.cpp:165] Memory required for data: 7934599968
I0531 18:02:12.734443  4249 layer_factory.hpp:77] Creating layer conv9_2_mbox_loc
I0531 18:02:12.734449  4249 net.cpp:100] Creating Layer conv9_2_mbox_loc
I0531 18:02:12.734453  4249 net.cpp:434] conv9_2_mbox_loc <- conv9_2_conv9_2_relu_0_split_0
I0531 18:02:12.734458  4249 net.cpp:408] conv9_2_mbox_loc -> conv9_2_mbox_loc
I0531 18:02:12.734753  4249 net.cpp:150] Setting up conv9_2_mbox_loc
I0531 18:02:12.734758  4249 net.cpp:157] Top shape: 32 16 1 1 (512)
I0531 18:02:12.734761  4249 net.cpp:165] Memory required for data: 7934602016
I0531 18:02:12.734766  4249 layer_factory.hpp:77] Creating layer conv9_2_mbox_loc_perm
I0531 18:02:12.734768  4249 net.cpp:100] Creating Layer conv9_2_mbox_loc_perm
I0531 18:02:12.734771  4249 net.cpp:434] conv9_2_mbox_loc_perm <- conv9_2_mbox_loc
I0531 18:02:12.734776  4249 net.cpp:408] conv9_2_mbox_loc_perm -> conv9_2_mbox_loc_perm
I0531 18:02:12.734838  4249 net.cpp:150] Setting up conv9_2_mbox_loc_perm
I0531 18:02:12.734841  4249 net.cpp:157] Top shape: 32 1 1 16 (512)
I0531 18:02:12.734843  4249 net.cpp:165] Memory required for data: 7934604064
I0531 18:02:12.734846  4249 layer_factory.hpp:77] Creating layer conv9_2_mbox_loc_flat
I0531 18:02:12.734850  4249 net.cpp:100] Creating Layer conv9_2_mbox_loc_flat
I0531 18:02:12.734853  4249 net.cpp:434] conv9_2_mbox_loc_flat <- conv9_2_mbox_loc_perm
I0531 18:02:12.734858  4249 net.cpp:408] conv9_2_mbox_loc_flat -> conv9_2_mbox_loc_flat
I0531 18:02:12.734871  4249 net.cpp:150] Setting up conv9_2_mbox_loc_flat
I0531 18:02:12.734875  4249 net.cpp:157] Top shape: 32 16 (512)
I0531 18:02:12.734877  4249 net.cpp:165] Memory required for data: 7934606112
I0531 18:02:12.734879  4249 layer_factory.hpp:77] Creating layer conv9_2_mbox_conf
I0531 18:02:12.734885  4249 net.cpp:100] Creating Layer conv9_2_mbox_conf
I0531 18:02:12.734889  4249 net.cpp:434] conv9_2_mbox_conf <- conv9_2_conv9_2_relu_0_split_1
I0531 18:02:12.734894  4249 net.cpp:408] conv9_2_mbox_conf -> conv9_2_mbox_conf
I0531 18:02:12.735183  4249 net.cpp:150] Setting up conv9_2_mbox_conf
I0531 18:02:12.735188  4249 net.cpp:157] Top shape: 32 16 1 1 (512)
I0531 18:02:12.735190  4249 net.cpp:165] Memory required for data: 7934608160
I0531 18:02:12.735194  4249 layer_factory.hpp:77] Creating layer conv9_2_mbox_conf_perm
I0531 18:02:12.735199  4249 net.cpp:100] Creating Layer conv9_2_mbox_conf_perm
I0531 18:02:12.735203  4249 net.cpp:434] conv9_2_mbox_conf_perm <- conv9_2_mbox_conf
I0531 18:02:12.735205  4249 net.cpp:408] conv9_2_mbox_conf_perm -> conv9_2_mbox_conf_perm
I0531 18:02:12.735265  4249 net.cpp:150] Setting up conv9_2_mbox_conf_perm
I0531 18:02:12.735270  4249 net.cpp:157] Top shape: 32 1 1 16 (512)
I0531 18:02:12.735272  4249 net.cpp:165] Memory required for data: 7934610208
I0531 18:02:12.735275  4249 layer_factory.hpp:77] Creating layer conv9_2_mbox_conf_flat
I0531 18:02:12.735277  4249 net.cpp:100] Creating Layer conv9_2_mbox_conf_flat
I0531 18:02:12.735280  4249 net.cpp:434] conv9_2_mbox_conf_flat <- conv9_2_mbox_conf_perm
I0531 18:02:12.735285  4249 net.cpp:408] conv9_2_mbox_conf_flat -> conv9_2_mbox_conf_flat
I0531 18:02:12.735298  4249 net.cpp:150] Setting up conv9_2_mbox_conf_flat
I0531 18:02:12.735302  4249 net.cpp:157] Top shape: 32 16 (512)
I0531 18:02:12.735304  4249 net.cpp:165] Memory required for data: 7934612256
I0531 18:02:12.735307  4249 layer_factory.hpp:77] Creating layer conv9_2_mbox_priorbox
I0531 18:02:12.735311  4249 net.cpp:100] Creating Layer conv9_2_mbox_priorbox
I0531 18:02:12.735312  4249 net.cpp:434] conv9_2_mbox_priorbox <- conv9_2_conv9_2_relu_0_split_2
I0531 18:02:12.735316  4249 net.cpp:434] conv9_2_mbox_priorbox <- data_data_0_split_6
I0531 18:02:12.735321  4249 net.cpp:408] conv9_2_mbox_priorbox -> conv9_2_mbox_priorbox
I0531 18:02:12.735342  4249 net.cpp:150] Setting up conv9_2_mbox_priorbox
I0531 18:02:12.735347  4249 net.cpp:157] Top shape: 1 2 16 (32)
I0531 18:02:12.735349  4249 net.cpp:165] Memory required for data: 7934612384
I0531 18:02:12.735352  4249 layer_factory.hpp:77] Creating layer mbox_loc
I0531 18:02:12.735355  4249 net.cpp:100] Creating Layer mbox_loc
I0531 18:02:12.735359  4249 net.cpp:434] mbox_loc <- conv4_3_norm_mbox_loc_flat
I0531 18:02:12.735363  4249 net.cpp:434] mbox_loc <- fc7_mbox_loc_flat
I0531 18:02:12.735365  4249 net.cpp:434] mbox_loc <- conv6_2_mbox_loc_flat
I0531 18:02:12.735368  4249 net.cpp:434] mbox_loc <- conv7_2_mbox_loc_flat
I0531 18:02:12.735371  4249 net.cpp:434] mbox_loc <- conv8_2_mbox_loc_flat
I0531 18:02:12.735373  4249 net.cpp:434] mbox_loc <- conv9_2_mbox_loc_flat
I0531 18:02:12.735379  4249 net.cpp:408] mbox_loc -> mbox_loc
I0531 18:02:12.735399  4249 net.cpp:150] Setting up mbox_loc
I0531 18:02:12.735402  4249 net.cpp:157] Top shape: 32 34928 (1117696)
I0531 18:02:12.735404  4249 net.cpp:165] Memory required for data: 7939083168
I0531 18:02:12.735406  4249 layer_factory.hpp:77] Creating layer mbox_conf
I0531 18:02:12.735410  4249 net.cpp:100] Creating Layer mbox_conf
I0531 18:02:12.735414  4249 net.cpp:434] mbox_conf <- conv4_3_norm_mbox_conf_flat
I0531 18:02:12.735416  4249 net.cpp:434] mbox_conf <- fc7_mbox_conf_flat
I0531 18:02:12.735419  4249 net.cpp:434] mbox_conf <- conv6_2_mbox_conf_flat
I0531 18:02:12.735422  4249 net.cpp:434] mbox_conf <- conv7_2_mbox_conf_flat
I0531 18:02:12.735425  4249 net.cpp:434] mbox_conf <- conv8_2_mbox_conf_flat
I0531 18:02:12.735429  4249 net.cpp:434] mbox_conf <- conv9_2_mbox_conf_flat
I0531 18:02:12.735431  4249 net.cpp:408] mbox_conf -> mbox_conf
I0531 18:02:12.735447  4249 net.cpp:150] Setting up mbox_conf
I0531 18:02:12.735451  4249 net.cpp:157] Top shape: 32 34928 (1117696)
I0531 18:02:12.735453  4249 net.cpp:165] Memory required for data: 7943553952
I0531 18:02:12.735455  4249 layer_factory.hpp:77] Creating layer mbox_priorbox
I0531 18:02:12.735458  4249 net.cpp:100] Creating Layer mbox_priorbox
I0531 18:02:12.735461  4249 net.cpp:434] mbox_priorbox <- conv4_3_norm_mbox_priorbox
I0531 18:02:12.735465  4249 net.cpp:434] mbox_priorbox <- fc7_mbox_priorbox
I0531 18:02:12.735467  4249 net.cpp:434] mbox_priorbox <- conv6_2_mbox_priorbox
I0531 18:02:12.735471  4249 net.cpp:434] mbox_priorbox <- conv7_2_mbox_priorbox
I0531 18:02:12.735472  4249 net.cpp:434] mbox_priorbox <- conv8_2_mbox_priorbox
I0531 18:02:12.735474  4249 net.cpp:434] mbox_priorbox <- conv9_2_mbox_priorbox
I0531 18:02:12.735478  4249 net.cpp:408] mbox_priorbox -> mbox_priorbox
I0531 18:02:12.735493  4249 net.cpp:150] Setting up mbox_priorbox
I0531 18:02:12.735498  4249 net.cpp:157] Top shape: 1 2 34928 (69856)
I0531 18:02:12.735501  4249 net.cpp:165] Memory required for data: 7943833376
I0531 18:02:12.735502  4249 layer_factory.hpp:77] Creating layer mbox_loss
I0531 18:02:12.735510  4249 net.cpp:100] Creating Layer mbox_loss
I0531 18:02:12.735514  4249 net.cpp:434] mbox_loss <- mbox_loc
I0531 18:02:12.735517  4249 net.cpp:434] mbox_loss <- mbox_conf
I0531 18:02:12.735520  4249 net.cpp:434] mbox_loss <- mbox_priorbox
…
  name: "data"
  type: "AnnotatedData"
  top: "data"
  top: "label"
  include {
    phase: TEST
  }
  transform_param {
    mean_value: 104
    mean_value: 117
    mean_value: 123
    resize_param {
      prob: 1
      resize_mode: WARP
      height: 300
      width: 300
      interp_mode: LINEAR
    }
  }
  data_param {
    source: "examples/tbs_300x300_HSIL_10x/tbs_300x300_HSIL_10x_test_lmdb"
    batch_size: 4
    backend: LMDB
  }
  annotated_data_param {
    batch_sampler {
    }
    label_map_file: "data/tbs_300x300_HSIL_10x/labelmap_tbs.prototxt"
  }
}
layer {
  name: "conv1_1"
  type: "Convolution"
  bottom: "data"
  top: "conv1_1"
  param {
    lr_mult: 1
    decay_mult: 1
  }
  param {
    lr_mult: 2
    decay_mult: 0
  }
  convolution_param {
    num_output: 64
    pad: 1
    kernel_size: 3
    weight_filler {
      type: "xavier"
    }
    bias_filler {
      type: "constant"
      value: 0
    }
  }
}
layer {
  name: "relu1_1"
  type: "ReLU"
  bottom: "conv1_1"
  top: "conv1_1"
}
layer {
  name: "conv1_2"
  type: "Convolution"
  bottom: "conv1_1"
  top: "conv1_2"
  param {
    lr_mult: 1
    decay_mult: 1
  }
  param {
    lr_mult: 2
    decay_mult: 0
  }
  convolution_param {
    num_output: 64
    pad: 1
    kernel_size: 3
    weight_filler {
      type: "xavier"
    }
    bias_filler {
      type: "constant"
      value: 0
    }
  }
}
layer {
  name: "relu1_2"
  type: "ReLU"
  bottom: "conv1_2"
  top: "conv1_2"
}
layer {
  name: "pool1"
  type: "Pooling"
  bottom: "conv1_2"
  top: "pool1"
  pooling_param {
    pool: MAX
    kernel_size: 2
    stride: 2
  }
}
layer {
  name: "conv2_1"
  type: "Convolution"
  bottom: "pool1"
  top: "conv2_1"
  param {
    lr_mult: 1
    decay_mult: 1
  }
  param {
    lr_mult: 2
    decay_mult: 0
  }
  convolution_param {
    num_output: 128
    pad: 1
    kernel_size: 3
    weight_filler {
      type: "xavier"
    }
    bias_filler {
      type: "constant"
      value: 0
    }
  }
}
layer {
  name: "relu2_1"
  type: "ReLU"
  bottom: "conv2_1"
  top: "conv2_1"
}
layer {
  name: "conv2_2"
  type: "Convolution"
  bottom: "conv2_1"
  top: "conv2_2"
  param {
    lr_mult: 1
    decay_mult: 1
  }
  param {
    lr_mult: 2
    decay_mult: 0
  }
  convolution_param {
    num_output: 128
    pad: 1
    kernel_size: 3
    weight_filler {
      type: "xavier"
    }
    bias_filler {
      type: "constant"
      value: 0
    }
  }
}
layer {
  name: "relu2_2"
  type: "ReLU"
  bottom: "conv2_2"
  top: "conv2_2"
}
layer {
  name: "pool2"
  type: "Pooling"
  bottom: "conv2_2"
  top: "pool2"
  pooling_param {
    pool: MAX
    kernel_size: 2
    stride: 2
  }
}
layer {
  name: "conv3_1"
  type: "Convolution"
  bottom: "pool2"
  top: "conv3_1"
  param {
    lr_mult: 1
    decay_mult: 1
  }
  param {
    lr_mult: 2
    decay_mult: 0
  }
  convolution_param {
    num_output: 256
    pad: 1
    kernel_size: 3
    weight_filler {
      type: "xavier"
    }
    bias_filler {
      type: "constant"
      value: 0
    }
  }
}
layer {
  name: "relu3_1"
  type: "ReLU"
  bottom: "conv3_1"
  top: "conv3_1"
}
layer {
  name: "conv3_2"
  type: "Convolution"
  bottom: "conv3_1"
  top: "conv3_2"
  param {
    lr_mult: 1
    decay_mult: 1
  }
  param {
    lr_mult: 2
    decay_mult: 0
  }
  convolution_param {
    num_output: 256
    pad: 1
    kernel_size: 3
    weight_filler {
      type: "xavier"
    }
    bias_filler {
      type: "constant"
      value: 0
    }
  }
}
layer {
  name: "relu3_2"
  type: "ReLU"
  bottom: "conv3_2"
  top: "conv3_2"
}
layer {
  name: "conv3_3"
  type: "Convolution"
  bottom: "conv3_2"
  top: "conv3_3"
  param {
    lr_mult: 1
    decay_mult: 1
  }
  param {
    lr_mult: 2
    decay_mult: 0
  }
  convolution_param {
    num_output: 256
    pad: 1
    kernel_size: 3
    weight_filler {
      type: "xavier"
    }
    bias_filler {
      type: "constant"
      value: 0
    }
  }
}
layer {
  name: "relu3_3"
  type: "ReLU"
  bottom: "conv3_3"
  top: "conv3_3"
}
layer {
  name: "pool3"
  type: "Pooling"
  bottom: "conv3_3"
  top: "pool3"
  pooling_param {
    pool: MAX
    kernel_size: 2
    stride: 2
  }
}
layer {
  name: "conv4_1"
  type: "Convolution"
  bottom: "pool3"
  top: "conv4_1"
  param {
    lr_mult: 1
    decay_mult: 1
  }
  param {
    lr_mult: 2
    decay_mult: 0
  }
  convolution_param {
    num_output: 512
    pad: 1
    kernel_size: 3
    weight_filler {
      type: "xavier"
    }
    bias_filler {
      type: "constant"
      value: 0
    }
  }
}
layer {
  name: "relu4_1"
  type: "ReLU"
  bottom: "conv4_1"
  top: "conv4_1"
}
layer {
  name: "conv4_2"
  type: "Convolution"
  bottom: "conv4_1"
  top: "conv4_2"
  param {
    lr_mult: 1
    decay_mult: 1
  }
  param {
    lr_mult: 2
    decay_mult: 0
  }
  convolution_param {
    num_output: 512
    pad: 1
    kernel_size: 3
    weight_filler {
      type: "xavier"
    }
    bias_filler {
      type: "constant"
      value: 0
    }
  }
}
layer {
  name: "relu4_2"
  type: "ReLU"
  bottom: "conv4_2"
  top: "conv4_2"
}
layer {
  name: "conv4_3"
  type: "Convolution"
  bottom: "conv4_2"
  top: "conv4_3"
  param {
    lr_mult: 1
    decay_mult: 1
  }
  param {
    lr_mult: 2
    decay_mult: 0
  }
  convolution_param {
    num_output: 512
    pad: 1
    kernel_size: 3
    weight_filler {
      type: "xavier"
    }
    bias_filler {
      type: "constant"
      value: 0
    }
  }
}
layer {
  name: "relu4_3"
  type: "ReLU"
  bottom: "conv4_3"
  top: "conv4_3"
}
layer {
  name: "pool4"
  type: "Pooling"
  bottom: "conv4_3"
  top: "pool4"
  pooling_param {
    pool: MAX
    kernel_size: 2
    stride: 2
  }
}
layer {
  name: "conv5_1"
  type: "Convolution"
  bottom: "pool4"
  top: "conv5_1"
  param {
    lr_mult: 1
    decay_mult: 1
  }
  param {
    lr_mult: 2
    decay_mult: 0
  }
  convolution_param {
    num_output: 512
    pad: 1
    kernel_size: 3
    weight_filler {
      type: "xavier"
    }
    bias_filler {
      type: "constant"
      value: 0
    }
    dilation: 1
  }
}
layer {
  name: "relu5_1"
  type: "ReLU"
  bottom: "conv5_1"
  top: "conv5_1"
}
layer {
  name: "conv5_2"
  type: "Convolution"
  bottom: "conv5_1"
  top: "conv5_2"
  param {
    lr_mult: 1
    decay_mult: 1
  }
  param {
    lr_mult: 2
    decay_mult: 0
  }
  convolution_param {
    num_output: 512
    pad: 1
    kernel_size: 3
    weight_filler {
      type: "xavier"
    }
    bias_filler {
      type: "constant"
      value: 0
    }
    dilation: 1
  }
}
layer {
  name: "relu5_2"
  type: "ReLU"
  bottom: "conv5_2"
  top: "conv5_2"
}
layer {
  name: "conv5_3"
  type: "Convolution"
  bottom: "conv5_2"
  top: "conv5_3"
  param {
    lr_mult: 1
    decay_mult: 1
  }
  param {
    lr_mult: 2
    decay_mult: 0
  }
  convolution_param {
    num_output: 512
    pad: 1
    kernel_size: 3
    weight_filler {
      type: "xavier"
    }
    bias_filler {
      type: "constant"
      value: 0
    }
    dilation: 1
  }
}
layer {
  name: "relu5_3"
  type: "ReLU"
  bottom: "conv5_3"
  top: "conv5_3"
}
layer {
  name: "pool5"
  type: "Pooling"
  bottom: "conv5_3"
  top: "pool5"
  pooling_param {
    pool: MAX
    kernel_size: 3
    stride: 1
    pad: 1
  }
}
layer {
  name: "fc6"
  type: "Convolution"
  bottom: "pool5"
  top: "fc6"
  param {
    lr_mult: 1
    decay_mult: 1
  }
  param {
    lr_mult: 2
    decay_mult: 0
  }
  convolution_param {
    num_output: 1024
    pad: 6
    kernel_size: 3
    weight_filler {
      type: "xavier"
    }
    bias_filler {
      type: "constant"
      value: 0
    }
    dilation: 6
  }
}
layer {
  name: "relu6"
  type: "ReLU"
  bottom: "fc6"
  top: "fc6"
}
layer {
  name: "fc7"
  type: "Convolution"
  bottom: "fc6"
  top: "fc7"
  param {
    lr_mult: 1
    decay_mult: 1
  }
  param {
    lr_mult: 2
    decay_mult: 0
  }
  convolution_param {
    num_output: 1024
    kernel_size: 1
    weight_filler {
      type: "xavier"
    }
    bias_filler {
      type: "constant"
      value: 0
    }
  }
}
layer {
  name: "relu7"
  type: "ReLU"
  bottom: "fc7"
  top: "fc7"
}
layer {
  name: "conv6_1"
  type: "Convolution"
  bottom: "fc7"
  top: "conv6_1"
  param {
    lr_mult: 1
    decay_mult: 1
  }
  param {
    lr_mult: 2
    decay_mult: 0
  }
  convolution_param {
    num_output: 256
    pad: 0
    kernel_size: 1
    stride: 1
    weight_filler {
      type: "xavier"
    }
    bias_filler {
      type: "constant"
      value: 0
    }
  }
}
layer {
  name: "conv6_1_relu"
  type: "ReLU"
  bottom: "conv6_1"
  top: "conv6_1"
}
layer {
  name: "conv6_2"
  type: "Convolution"
  bottom: "conv6_1"
  top: "conv6_2"
  param {
    lr_mult: 1
    decay_mult: 1
  }
  param {
    lr_mult: 2
    decay_mult: 0
  }
  convolution_param {
    num_output: 512
    pad: 1
    kernel_size: 3
    stride: 2
    weight_filler {
      type: "xavier"
    }
    bias_filler {
      type: "constant"
      value: 0
    }
  }
}
layer {
  name: "conv6_2_relu"
  type: "ReLU"
  bottom: "conv6_2"
  top: "conv6_2"
}
layer {
  name: "conv7_1"
  type: "Convolution"
  bottom: "conv6_2"
  top: "conv7_1"
  param {
    lr_mult: 1
    decay_mult: 1
  }
  param {
    lr_mult: 2
    decay_mult: 0
  }
  convolution_param {
    num_output: 128
    pad: 0
    kernel_size: 1
    stride: 1
    weight_filler {
      type: "xavier"
    }
    bias_filler {
      type: "constant"
      value: 0
    }
  }
}
layer {
  name: "conv7_1_relu"
  type: "ReLU"
  bottom: "conv7_1"
  top: "conv7_1"
}
layer {
  name: "conv7_2"
  type: "Convolution"
  bottom: "conv7_1"
  top: "conv7_2"
  param {
    lr_mult: 1
    decay_mult: 1
  }
  param {
    lr_mult: 2
    decay_mult: 0
  }
  convolution_param {
    num_output: 256
    pad: 1
    kernel_size: 3
    stride: 2
    weight_filler {
      type: "xavier"
    }
    bias_filler {
      type: "constant"
      value: 0
    }
  }
}
layer {
  name: "conv7_2_relu"
  type: "ReLU"
  bottom: "conv7_2"
  top: "conv7_2"
}
layer {
  name: "conv8_1"
  type: "Convolution"
  bottom: "conv7_2"
  top: "conv8_1"
  param {
    lr_mult: 1
    decay_mult: 1
  }
  param {
    lr_mult: 2
    decay_mult: 0
  }
  convolution_param {
    num_output: 128
    pad: 0
    kernel_size: 1
    stride: 1
    weight_filler {
      type: "xavier"
    }
    bias_filler {
      type: "constant"
      value: 0
    }
  }
}
layer {
  name: "conv8_1_relu"
  type: "ReLU"
  bottom: "conv8_1"
  top: "conv8_1"
}
layer {
  name: "conv8_2"
  type: "Convolution"
  bottom: "conv8_1"
  top: "conv8_2"
  param {
    lr_mult: 1
    decay_mult: 1
  }
  param {
    lr_mult: 2
    decay_mult: 0
  }
  convolution_param {
    num_output: 256
    pad: 0
    kernel_size: 3
    stride: 1
    weight_filler {
      type: "xavier"
    }
    bias_filler {
      type: "constant"
      value: 0
    }
  }
}
layer {
  name: "conv8_2_relu"
  type: "ReLU"
  bottom: "conv8_2"
  top: "conv8_2"
}
layer {
  name: "conv9_1"
  type: "Convolution"
  bottom: "conv8_2"
  top: "conv9_1"
  param {
    lr_mult: 1
    decay_mult: 1
  }
  param {
    lr_mult: 2
    decay_mult: 0
  }
  convolution_param {
    num_output: 128
    pad: 0
    kernel_size: 1
    stride: 1
    weight_filler {
      type: "xavier"
    }
    bias_filler {
      type: "constant"
      value: 0
    }
  }
}
layer {
  name: "conv9_1_relu"
  type: "ReLU"
  bottom: "conv9_1"
  top: "conv9_1"
}
layer {
  name: "conv9_2"
  type: "Convolution"
  bottom: "conv9_1"
  top: "conv9_2"
  param {
    lr_mult: 1
    decay_mult: 1
  }
  param {
    lr_mult: 2
    decay_mult: 0
  }
  convolution_param {
    num_output: 256
    pad: 0
    kernel_size: 3
    stride: 1
    weight_filler {
      type: "xavier"
    }
    bias_filler {
      type: "constant"
      value: 0
    }
  }
}
layer {
  name: "conv9_2_relu"
  type: "ReLU"
  bottom: "conv9_2"
  top: "conv9_2"
}
layer {
  name: "conv4_3_norm"
  type: "Normalize"
  bottom: "conv4_3"
  top: "conv4_3_norm"
  norm_param {
    across_spatial: false
    scale_filler {
      type: "constant"
      value: 20
    }
    channel_shared: false
  }
}
layer {
  name: "conv4_3_norm_mbox_loc"
  type: "Convolution"
  bottom: "conv4_3_norm"
  top: "conv4_3_norm_mbox_loc"
  param {
    lr_mult: 1
    decay_mult: 1
  }
  param {
    lr_mult: 2
    decay_mult: 0
  }
  convolution_param {
    num_output: 16
    pad: 1
    kernel_size: 3
    stride: 1
    weight_filler {
      type: "xavier"
    }
    bias_filler {
      type: "constant"
      value: 0
    }
  }
}
layer {
  name: "conv4_3_norm_mbox_loc_perm"
  type: "Permute"
  bottom: "conv4_3_norm_mbox_loc"
  top: "conv4_3_norm_mbox_loc_perm"
  permute_param {
    order: 0
    order: 2
    order: 3
    order: 1
  }
}
layer {
  name: "conv4_3_norm_mbox_loc_flat"
  type: "Flatten"
  bottom: "conv4_3_norm_mbox_loc_perm"
  top: "conv4_3_norm_mbox_loc_flat"
  flatten_param {
    axis: 1
  }
}
layer {
  name: "conv4_3_norm_mbox_conf"
  type: "Convolution"
  bottom: "conv4_3_norm"
  top: "conv4_3_norm_mbox_conf"
  param {
    lr_mult: 1
    decay_mult: 1
  }
  param {
    lr_mult: 2
    decay_mult: 0
  }
  convolution_param {
    num_output: 16
    pad: 1
    kernel_size: 3
    stride: 1
    weight_filler {
      type: "xavier"
    }
    bias_filler {
      type: "constant"
      value: 0
    }
  }
}
layer {
  name: "conv4_3_norm_mbox_conf_perm"
  type: "Permute"
  bottom: "conv4_3_norm_mbox_conf"
  top: "conv4_3_norm_mbox_conf_perm"
  permute_param {
    order: 0
    order: 2
    order: 3
    order: 1
  }
}
layer {
  name: "conv4_3_norm_mbox_conf_flat"
  type: "Flatten"
  bottom: "conv4_3_norm_mbox_conf_perm"
  top: "conv4_3_norm_mbox_conf_flat"
  flatten_param {
    axis: 1
  }
}
layer {
  name: "conv4_3_norm_mbox_priorbox"
  type: "PriorBox"
  bottom: "conv4_3_norm"
  bottom: "data"
  top: "conv4_3_norm_mbox_priorbox"
  prior_box_param {
    min_size: 30
    max_size: 60
    aspect_ratio: 2
    flip: true
    clip: false
    variance: 0.1
    variance: 0.1
    variance: 0.2
    variance: 0.2
    step: 8
    offset: 0.5
  }
}
layer {
  name: "fc7_mbox_loc"
  type: "Convolution"
  bottom: "fc7"
  top: "fc7_mbox_loc"
  param {
    lr_mult: 1
    decay_mult: 1
  }
  param {
    lr_mult: 2
    decay_mult: 0
  }
  convolution_param {
    num_output: 24
    pad: 1
    kernel_size: 3
    stride: 1
    weight_filler {
      type: "xavier"
    }
    bias_filler {
      type: "constant"
      value: 0
    }
  }
}
layer {
  name: "fc7_mbox_loc_perm"
  type: "Permute"
  bottom: "fc7_mbox_loc"
  top: "fc7_mbox_loc_perm"
  permute_param {
    order: 0
    order: 2
    order: 3
    order: 1
  }
}
layer {
  name: "fc7_mbox_loc_flat"
  type: "Flatten"
  bottom: "fc7_mbox_loc_perm"
  top: "fc7_mbox_loc_flat"
  flatten_param {
    axis: 1
  }
}
layer {
  name: "fc7_mbox_conf"
  type: "Convolution"
  bottom: "fc7"
  top: "fc7_mbox_conf"
  param {
    lr_mult: 1
    decay_mult: 1
  }
  param {
    lr_mult: 2
    decay_mult: 0
  }
  convolution_param {
    num_output: 24
    pad: 1
    kernel_size: 3
    stride: 1
    weight_filler {
      type: "xavier"
    }
    bias_filler {
      type: "constant"
      value: 0
    }
  }
}
layer {
  name: "fc7_mbox_conf_perm"
  type: "Permute"
  bottom: "fc7_mbox_conf"
  top: "fc7_mbox_conf_perm"
  permute_param {
    order: 0
    order: 2
    order: 3
    order: 1
  }
}
layer {
  name: "fc7_mbox_conf_flat"
  type: "Flatten"
  bottom: "fc7_mbox_conf_perm"
  top: "fc7_mbox_conf_flat"
  flatten_param {
    axis: 1
  }
}
layer {
  name: "fc7_mbox_priorbox"
  type: "PriorBox"
  bottom: "fc7"
  bottom: "data"
  top: "fc7_mbox_priorbox"
  prior_box_param {
    min_size: 60
    max_size: 111
    aspect_ratio: 2
    aspect_ratio: 3
    flip: true
    clip: false
    variance: 0.1
    variance: 0.1
    variance: 0.2
    variance: 0.2
    step: 16
    offset: 0.5
  }
}
layer {
  name: "conv6_2_mbox_loc"
  type: "Convolution"
  bottom: "conv6_2"
  top: "conv6_2_mbox_loc"
  param {
    lr_mult: 1
    decay_mult: 1
  }
  param {
    lr_mult: 2
    decay_mult: 0
  }
  convolution_param {
    num_output: 24
    pad: 1
    kernel_size: 3
    stride: 1
    weight_filler {
      type: "xavier"
    }
    bias_filler {
      type: "constant"
      value: 0
    }
  }
}
layer {
  name: "conv6_2_mbox_loc_perm"
  type: "Permute"
  bottom: "conv6_2_mbox_loc"
  top: "conv6_2_mbox_loc_perm"
  permute_param {
    order: 0
    order: 2
    order: 3
    order: 1
  }
}
layer {
  name: "conv6_2_mbox_loc_flat"
  type: "Flatten"
  bottom: "conv6_2_mbox_loc_perm"
  top: "conv6_2_mbox_loc_flat"
  flatten_param {
    axis: 1
  }
}
layer {
  name: "conv6_2_mbox_conf"
  type: "Convolution"
  bottom: "conv6_2"
  top: "conv6_2_mbox_conf"
  param {
    lr_mult: 1
    decay_mult: 1
  }
  param {
    lr_mult: 2
    decay_mult: 0
  }
  convolution_param {
    num_output: 24
    pad: 1
    kernel_size: 3
    stride: 1
    weight_filler {
      type: "xavier"
    }
    bias_filler {
      type: "constant"
      value: 0
    }
  }
}
layer {
  name: "conv6_2_mbox_conf_perm"
  type: "Permute"
  bottom: "conv6_2_mbox_conf"
  top: "conv6_2_mbox_conf_perm"
  permute_param {
    order: 0
    order: 2
    order: 3
    order: 1
  }
}
layer {
  name: "conv6_2_mbox_conf_flat"
  type: "Flatten"
  bottom: "conv6_2_mbox_conf_perm"
  top: "conv6_2_mbox_conf_flat"
  flatten_param {
    axis: 1
  }
}
layer {
  name: "conv6_2_mbox_priorbox"
  type: "PriorBox"
  bottom: "conv6_2"
  bottom: "data"
  top: "conv6_2_mbox_priorbox"
  prior_box_param {
    min_size: 111
    max_size: 162
    aspect_ratio: 2
    aspect_ratio: 3
    flip: true
    clip: false
    variance: 0.1
    variance: 0.1
    variance: 0.2
    variance: 0.2
    step: 32
    offset: 0.5
  }
}
layer {
  name: "conv7_2_mbox_loc"
  type: "Convolution"
  bottom: "conv7_2"
  top: "conv7_2_mbox_loc"
  param {
    lr_mult: 1
    decay_mult: 1
  }
  param {
    lr_mult: 2
    decay_mult: 0
  }
  convolution_param {
    num_output: 24
    pad: 1
    kernel_size: 3
    stride: 1
    weight_filler {
      type: "xavier"
    }
    bias_filler {
      type: "constant"
      value: 0
    }
  }
}
layer {
  name: "conv7_2_mbox_loc_perm"
  type: "Permute"
  bottom: "conv7_2_mbox_loc"
  top: "conv7_2_mbox_loc_perm"
  permute_param {
    order: 0
    order: 2
    order: 3
    order: 1
  }
}
layer {
  name: "conv7_2_mbox_loc_flat"
  type: "Flatten"
  bottom: "conv7_2_mbox_loc_perm"
  top: "conv7_2_mbox_loc_flat"
  flatten_param {
    axis: 1
  }
}
layer {
  name: "conv7_2_mbox_conf"
  type: "Convolution"
  bottom: "conv7_2"
  top: "conv7_2_mbox_conf"
  param {
    lr_mult: 1
    decay_mult: 1
  }
  param {
    lr_mult: 2
    decay_mult: 0
  }
  convolution_param {
    num_output: 24
    pad: 1
    kernel_size: 3
    stride: 1
    weight_filler {
      type: "xavier"
    }
    bias_filler {
      type: "constant"
      value: 0
    }
  }
}
layer {
  name: "conv7_2_mbox_conf_perm"
  type: "Permute"
  bottom: "conv7_2_mbox_conf"
  top: "conv7_2_mbox_conf_perm"
  permute_param {
    order: 0
    order: 2
    order: 3
    order: 1
  }
}
layer {
  name: "conv7_2_mbox_conf_flat"
  type: "Flatten"
  bottom: "conv7_2_mbox_conf_perm"
  top: "conv7_2_mbox_conf_flat"
  flatten_param {
    axis: 1
  }
}
layer {
  name: "conv7_2_mbox_priorbox"
  type: "PriorBox"
  bottom: "conv7_2"
  bottom: "data"
  top: "conv7_2_mbox_priorbox"
  prior_box_param {
    min_size: 162
    max_size: 213
    aspect_ratio: 2
    aspect_ratio: 3
    flip: true
    clip: false
    variance: 0.1
    variance: 0.1
    variance: 0.2
    variance: 0.2
    step: 64
    offset: 0.5
  }
}
layer {
  name: "conv8_2_mbox_loc"
  type: "Convolution"
  bottom: "conv8_2"
  top: "conv8_2_mbox_loc"
  param {
    lr_mult: 1
    decay_mult: 1
  }
  param {
    lr_mult: 2
    decay_mult: 0
  }
  convolution_param {
    num_output: 16
    pad: 1
    kernel_size: 3
    stride: 1
    weight_filler {
      type: "xavier"
    }
    bias_filler {
      type: "constant"
      value: 0
    }
  }
}
layer {
  name: "conv8_2_mbox_loc_perm"
  type: "Permute"
  bottom: "conv8_2_mbox_loc"
  top: "conv8_2_mbox_loc_perm"
  permute_param {
    order: 0
    order: 2
    order: 3
    order: 1
  }
}
layer {
  name: "conv8_2_mbox_loc_flat"
  type: "Flatten"
  bottom: "conv8_2_mbox_loc_perm"
  top: "conv8_2_mbox_loc_flat"
  flatten_param {
    axis: 1
  }
}
layer {
  name: "conv8_2_mbox_conf"
  type: "Convolution"
  bottom: "conv8_2"
  top: "conv8_2_mbox_conf"
  param {
    lr_mult: 1
    decay_mult: 1
  }
  param {
    lr_mult: 2
    decay_mult: 0
  }
  convolution_param {
    num_output: 16
    pad: 1
    kernel_size: 3
    stride: 1
    weight_filler {
      type: "xavier"
    }
    bias_filler {
      type: "constant"
      value: 0
    }
  }
}
layer {
  name: "conv8_2_mbox_conf_perm"
  type: "Permute"
  bottom: "conv8_2_mbox_conf"
  top: "conv8_2_mbox_conf_perm"
  permute_param {
    order: 0
    order: 2
    order: 3
    order: 1
  }
}
layer {
  name: "conv8_2_mbox_conf_flat"
  type: "Flatten"
  bottom: "conv8_2_mbox_conf_perm"
  top: "conv8_2_mbox_conf_flat"
  flatten_param {
    axis: 1
  }
}
layer {
  name: "conv8_2_mbox_priorbox"
  type: "PriorBox"
  bottom: "conv8_2"
  bottom: "data"
  top: "conv8_2_mbox_priorbox"
  prior_box_param {
    min_size: 213
    max_size: 264
    aspect_ratio: 2
    flip: true
    clip: false
    variance: 0.1
    variance: 0.1
    variance: 0.2
    variance: 0.2
    step: 100
    offset: 0.5
  }
}
layer {
  name: "conv9_2_mbox_loc"
  type: "Convolution"
  bottom: "conv9_2"
  top: "conv9_2_mbox_loc"
  param {
    lr_mult: 1
    decay_mult: 1
  }
  param {
    lr_mult: 2
    decay_mult: 0
  }
  convolution_param {
    num_output: 16
    pad: 1
    kernel_size: 3
    stride: 1
    weight_filler {
      type: "xavier"
    }
    bias_filler {
      type: "constant"
      value: 0
    }
  }
}
layer {
  name: "conv9_2_mbox_loc_perm"
  type: "Permute"
  bottom: "conv9_2_mbox_loc"
  top: "conv9_2_mbox_loc_perm"
  permute_param {
    order: 0
    order: 2
    order: 3
    order: 1
  }
}
layer {
  name: "conv9_2_mbox_loc_flat"
  type: "Flatten"
  bottom: "conv9_2_mbox_loc_perm"
  top: "conv9_2_mbox_loc_flat"
  flatten_param {
    axis: 1
  }
}
layer {
  name: "conv9_2_mbox_conf"
  type: "Convolution"
  bottom: "conv9_2"
  top: "conv9_2_mbox_conf"
  param {
    lr_mult: 1
    decay_mult: 1
  }
  param {
    lr_mult: 2
    decay_mult: 0
  }
  convolution_param {
    num_output: 16
    pad: 1
    kernel_size: 3
    stride: 1
    weight_filler {
      type: "xavier"
    }
    bias_filler {
      type: "constant"
      value: 0
    }
  }
}
layer {
  name: "conv9_2_mbox_conf_perm"
  type: "Permute"
  bottom: "conv9_2_mbox_conf"
  top: "conv9_2_mbox_conf_perm"
  permute_param {
    order: 0
    order: 2
    order: 3
    order: 1
  }
}
layer {
  name: "conv9_2_mbox_conf_flat"
  type: "Flatten"
  bottom: "conv9_2_mbox_conf_perm"
  top: "conv9_2_mbox_conf_flat"
  flatten_param {
    axis: 1
  }
}
layer {
  name: "conv9_2_mbox_priorbox"
  type: "PriorBox"
  bottom: "conv9_2"
  bottom: "data"
  top: "conv9_2_mbox_priorbox"
  prior_box_param {
    min_size: 264
    max_size: 315
    aspect_ratio: 2
    flip: true
    clip: false
    variance: 0.1
    variance: 0.1
    variance: 0.2
    variance: 0.2
    step: 300
    offset: 0.5
  }
}
layer {
  name: "mbox_loc"
  type: "Concat"
  bottom: "conv4_3_norm_mbox_loc_flat"
  bottom: "fc7_mbox_loc_flat"
  bottom: "conv6_2_mbox_loc_flat"
  bottom: "conv7_2_mbox_loc_flat"
  bottom: "conv8_2_mbox_loc_flat"
  bottom: "conv9_2_mbox_loc_flat"
  top: "mbox_loc"
  concat_param {
    axis: 1
  }
}
layer {
  name: "mbox_conf"
  type: "Concat"
  bottom: "conv4_3_norm_mbox_conf_flat"
  bottom: "fc7_mbox_conf_flat"
  bottom: "conv6_2_mbox_conf_flat"
  bottom: "conv7_2_mbox_conf_flat"
  bottom: "conv8_2_mbox_conf_flat"
  bottom: "conv9_2_mbox_conf_flat"
  top: "mbox_conf"
  concat_param {
    axis: 1
  }
}
layer {
  name: "mbox_priorbox"
  type: "Concat"
  bottom: "conv4_3_norm_mbox_priorbox"
  bottom: "fc7_mbox_priorbox"
  bottom: "conv6_2_mbox_priorbox"
  bottom: "conv7_2_mbox_priorbox"
  bottom: "conv8_2_mbox_priorbox"
  bottom: "conv9_2_mbox_priorbox"
  top: "mbox_priorbox"
  concat_param {
    axis: 2
  }
}
layer {
  name: "mbox_conf_reshape"
  type: "Reshape"
  bottom: "mbox_conf"
  top: "mbox_conf_reshape"
  reshape_param {
    shape {
      dim: 0
      dim: -1
      dim: 4
    }
  }
}
layer {
  name: "mbox_conf_softmax"
  type: "Softmax"
  bottom: "mbox_conf_reshape"
  top: "mbox_conf_softmax"
  softmax_param {
    axis: 2
  }
}
layer {
  name: "mbox_conf_flatten"
  type: "Flatten"
  bottom: "mbox_conf_softmax"
  top: "mbox_conf_flatten"
  flatten_param {
    axis: 1
  }
}
layer {
  name: "detection_out"
  type: "DetectionOutput"
  bottom: "mbox_loc"
  bottom: "mbox_conf_flatten"
  bottom: "mbox_priorbox"
  top: "detection_out"
  include {
    phase: TEST
  }
  detection_output_param {
    num_classes: 4
    share_location: true
    background_label_id: 0
    nms_param {
      nms_threshold: 0.45
      top_k: 400
    }
    save_output_param {
      output_directory: "/home/shangzw/data/tbs/results/tbs/SSD_300x300/Main"
      output_name_prefix: "comp4_det_test_"
      output_format: "VOC"
      label_map_file: "data/tbs_300x300_HSIL_10x/labelmap_tbs.prototxt"
      name_size_file: "data/VOC0712/test_name_size.txt"
      num_test_image: 100
    }
    code_type: CENTER_SIZE
    keep_top_k: 200
    confidence_threshold: 0.01
  }
}
layer {
  name: "detection_eval"
  type: "DetectionEvaluate"
  bottom: "detection_out"
  bottom: "label"
  top: "detection_eval"
  include {
    phase: TEST
  }
  detection_evaluate_param {
    num_classes: 4
    background_label_id: 0
    overlap_threshold: 0.5
    evaluate_difficult_gt: false
    name_size_file: "data/VOC0712/test_name_size.txt"
  }
}
I0531 18:02:12.737606  4249 layer_factory.hpp:77] Creating layer data
I0531 18:02:12.737650  4249 net.cpp:100] Creating Layer data
I0531 18:02:12.737658  4249 net.cpp:408] data -> data
I0531 18:02:12.737664  4249 net.cpp:408] data -> label
I0531 18:02:12.738077  4271 db_lmdb.cpp:35] Opened lmdb examples/tbs_300x300_HSIL_10x/tbs_300x300_HSIL_10x_test_lmdb
I0531 18:02:12.738735  4249 annotated_data_layer.cpp:62] output data size: 4,3,300,300
I0531 18:02:12.748154  4249 net.cpp:150] Setting up data
I0531 18:02:12.748173  4249 net.cpp:157] Top shape: 4 3 300 300 (1080000)
I0531 18:02:12.748178  4249 net.cpp:157] Top shape: 1 1 1 8 (8)
I0531 18:02:12.748179  4249 net.cpp:165] Memory required for data: 4320032
I0531 18:02:12.748184  4249 layer_factory.hpp:77] Creating layer data_data_0_split
I0531 18:02:12.748208  4249 net.cpp:100] Creating Layer data_data_0_split
I0531 18:02:12.748211  4249 net.cpp:434] data_data_0_split <- data
I0531 18:02:12.748216  4249 net.cpp:408] data_data_0_split -> data_data_0_split_0
I0531 18:02:12.748224  4249 net.cpp:408] data_data_0_split -> data_data_0_split_1
I0531 18:02:12.748234  4249 net.cpp:408] data_data_0_split -> data_data_0_split_2
I0531 18:02:12.748241  4249 net.cpp:408] data_data_0_split -> data_data_0_split_3
I0531 18:02:12.748247  4249 net.cpp:408] data_data_0_split -> data_data_0_split_4
I0531 18:02:12.748251  4249 net.cpp:408] data_data_0_split -> data_data_0_split_5
I0531 18:02:12.748255  4249 net.cpp:408] data_data_0_split -> data_data_0_split_6
I0531 18:02:12.748337  4249 net.cpp:150] Setting up data_data_0_split
I0531 18:02:12.748342  4249 net.cpp:157] Top shape: 4 3 300 300 (1080000)
I0531 18:02:12.748345  4249 net.cpp:157] Top shape: 4 3 300 300 (1080000)
I0531 18:02:12.748347  4249 net.cpp:157] Top shape: 4 3 300 300 (1080000)
I0531 18:02:12.748350  4249 net.cpp:157] Top shape: 4 3 300 300 (1080000)
I0531 18:02:12.748353  4249 net.cpp:157] Top shape: 4 3 300 300 (1080000)
I0531 18:02:12.748368  4249 net.cpp:157] Top shape: 4 3 300 300 (1080000)
I0531 18:02:12.748373  4249 net.cpp:157] Top shape: 4 3 300 300 (1080000)
I0531 18:02:12.748374  4249 net.cpp:165] Memory required for data: 34560032
I0531 18:02:12.748376  4249 layer_factory.hpp:77] Creating layer conv1_1
I0531 18:02:12.748385  4249 net.cpp:100] Creating Layer conv1_1
I0531 18:02:12.748387  4249 net.cpp:434] conv1_1 <- data_data_0_split_0
I0531 18:02:12.748392  4249 net.cpp:408] conv1_1 -> conv1_1
I0531 18:02:12.748611  4249 net.cpp:150] Setting up conv1_1
I0531 18:02:12.748617  4249 net.cpp:157] Top shape: 4 64 300 300 (23040000)
I0531 18:02:12.748620  4249 net.cpp:165] Memory required for data: 126720032
I0531 18:02:12.748626  4249 layer_factory.hpp:77] Creating layer relu1_1
I0531 18:02:12.748642  4249 net.cpp:100] Creating Layer relu1_1
I0531 18:02:12.748644  4249 net.cpp:434] relu1_1 <- conv1_1
I0531 18:02:12.748647  4249 net.cpp:395] relu1_1 -> conv1_1 (in-place)
I0531 18:02:12.748652  4249 net.cpp:150] Setting up relu1_1
I0531 18:02:12.748656  4249 net.cpp:157] Top shape: 4 64 300 300 (23040000)
I0531 18:02:12.748657  4249 net.cpp:165] Memory required for data: 218880032
I0531 18:02:12.748659  4249 layer_factory.hpp:77] Creating layer conv1_2
I0531 18:02:12.748666  4249 net.cpp:100] Creating Layer conv1_2
I0531 18:02:12.748667  4249 net.cpp:434] conv1_2 <- conv1_1
I0531 18:02:12.748670  4249 net.cpp:408] conv1_2 -> conv1_2
I0531 18:02:12.749027  4249 net.cpp:150] Setting up conv1_2
I0531 18:02:12.749033  4249 net.cpp:157] Top shape: 4 64 300 300 (23040000)
I0531 18:02:12.749035  4249 net.cpp:165] Memory required for data: 311040032
I0531 18:02:12.749042  4249 layer_factory.hpp:77] Creating layer relu1_2
I0531 18:02:12.749044  4249 net.cpp:100] Creating Layer relu1_2
I0531 18:02:12.749047  4249 net.cpp:434] relu1_2 <- conv1_2
I0531 18:02:12.749050  4249 net.cpp:395] relu1_2 -> conv1_2 (in-place)
I0531 18:02:12.749053  4249 net.cpp:150] Setting up relu1_2
I0531 18:02:12.749056  4249 net.cpp:157] Top shape: 4 64 300 300 (23040000)
I0531 18:02:12.749059  4249 net.cpp:165] Memory required for data: 403200032
I0531 18:02:12.749061  4249 layer_factory.hpp:77] Creating layer pool1
I0531 18:02:12.749064  4249 net.cpp:100] Creating Layer pool1
I0531 18:02:12.749066  4249 net.cpp:434] pool1 <- conv1_2
I0531 18:02:12.749070  4249 net.cpp:408] pool1 -> pool1
I0531 18:02:12.749095  4249 net.cpp:150] Setting up pool1
I0531 18:02:12.749099  4249 net.cpp:157] Top shape: 4 64 150 150 (5760000)
I0531 18:02:12.749100  4249 net.cpp:165] Memory required for data: 426240032
I0531 18:02:12.749104  4249 layer_factory.hpp:77] Creating layer conv2_1
I0531 18:02:12.749107  4249 net.cpp:100] Creating Layer conv2_1
I0531 18:02:12.749110  4249 net.cpp:434] conv2_1 <- pool1
I0531 18:02:12.749114  4249 net.cpp:408] conv2_1 -> conv2_1
I0531 18:02:12.751641  4249 net.cpp:150] Setting up conv2_1
I0531 18:02:12.751654  4249 net.cpp:157] Top shape: 4 128 150 150 (11520000)
I0531 18:02:12.751657  4249 net.cpp:165] Memory required for data: 472320032
I0531 18:02:12.751665  4249 layer_factory.hpp:77] Creating layer relu2_1
I0531 18:02:12.751672  4249 net.cpp:100] Creating Layer relu2_1
I0531 18:02:12.751675  4249 net.cpp:434] relu2_1 <- conv2_1
I0531 18:02:12.751679  4249 net.cpp:395] relu2_1 -> conv2_1 (in-place)
I0531 18:02:12.751687  4249 net.cpp:150] Setting up relu2_1
I0531 18:02:12.751689  4249 net.cpp:157] Top shape: 4 128 150 150 (11520000)
I0531 18:02:12.751691  4249 net.cpp:165] Memory required for data: 518400032
I0531 18:02:12.751693  4249 layer_factory.hpp:77] Creating layer conv2_2
I0531 18:02:12.751700  4249 net.cpp:100] Creating Layer conv2_2
I0531 18:02:12.751703  4249 net.cpp:434] conv2_2 <- conv2_1
I0531 18:02:12.751706  4249 net.cpp:408] conv2_2 -> conv2_2
I0531 18:02:12.753132  4249 net.cpp:150] Setting up conv2_2
I0531 18:02:12.753144  4249 net.cpp:157] Top shape: 4 128 150 150 (11520000)
I0531 18:02:12.753146  4249 net.cpp:165] Memory required for data: 564480032
I0531 18:02:12.753151  4249 layer_factory.hpp:77] Creating layer relu2_2
I0531 18:02:12.753167  4249 net.cpp:100] Creating Layer relu2_2
I0531 18:02:12.753170  4249 net.cpp:434] relu2_2 <- conv2_2
I0531 18:02:12.753175  4249 net.cpp:395] relu2_2 -> conv2_2 (in-place)
I0531 18:02:12.753180  4249 net.cpp:150] Setting up relu2_2
I0531 18:02:12.753182  4249 net.cpp:157] Top shape: 4 128 150 150 (11520000)
I0531 18:02:12.753185  4249 net.cpp:165] Memory required for data: 610560032
I0531 18:02:12.753186  4249 layer_factory.hpp:77] Creating layer pool2
I0531 18:02:12.753190  4249 net.cpp:100] Creating Layer pool2
I0531 18:02:12.753192  4249 net.cpp:434] pool2 <- conv2_2
I0531 18:02:12.753196  4249 net.cpp:408] pool2 -> pool2
I0531 18:02:12.753224  4249 net.cpp:150] Setting up pool2
I0531 18:02:12.753229  4249 net.cpp:157] Top shape: 4 128 75 75 (2880000)
I0531 18:02:12.753232  4249 net.cpp:165] Memory required for data: 622080032
I0531 18:02:12.753233  4249 layer_factory.hpp:77] Creating layer conv3_1
I0531 18:02:12.753239  4249 net.cpp:100] Creating Layer conv3_1
I0531 18:02:12.753242  4249 net.cpp:434] conv3_1 <- pool2
I0531 18:02:12.753245  4249 net.cpp:408] conv3_1 -> conv3_1
I0531 18:02:12.754649  4249 net.cpp:150] Setting up conv3_1
I0531 18:02:12.754662  4249 net.cpp:157] Top shape: 4 256 75 75 (5760000)
I0531 18:02:12.754664  4249 net.cpp:165] Memory required for data: 645120032
I0531 18:02:12.754673  4249 layer_factory.hpp:77] Creating layer relu3_1
I0531 18:02:12.754678  4249 net.cpp:100] Creating Layer relu3_1
I0531 18:02:12.754681  4249 net.cpp:434] relu3_1 <- conv3_1
I0531 18:02:12.754685  4249 net.cpp:395] relu3_1 -> conv3_1 (in-place)
I0531 18:02:12.754689  4249 net.cpp:150] Setting up relu3_1
I0531 18:02:12.754693  4249 net.cpp:157] Top shape: 4 256 75 75 (5760000)
I0531 18:02:12.754695  4249 net.cpp:165] Memory required for data: 668160032
I0531 18:02:12.754698  4249 layer_factory.hpp:77] Creating layer conv3_2
I0531 18:02:12.754703  4249 net.cpp:100] Creating Layer conv3_2
I0531 18:02:12.754704  4249 net.cpp:434] conv3_2 <- conv3_1
I0531 18:02:12.754709  4249 net.cpp:408] conv3_2 -> conv3_2
I0531 18:02:12.758424  4249 net.cpp:150] Setting up conv3_2
I0531 18:02:12.758442  4249 net.cpp:157] Top shape: 4 256 75 75 (5760000)
I0531 18:02:12.758445  4249 net.cpp:165] Memory required for data: 691200032
I0531 18:02:12.758452  4249 layer_factory.hpp:77] Creating layer relu3_2
I0531 18:02:12.758460  4249 net.cpp:100] Creating Layer relu3_2
I0531 18:02:12.758464  4249 net.cpp:434] relu3_2 <- conv3_2
I0531 18:02:12.758468  4249 net.cpp:395] relu3_2 -> conv3_2 (in-place)
I0531 18:02:12.758476  4249 net.cpp:150] Setting up relu3_2
I0531 18:02:12.758478  4249 net.cpp:157] Top shape: 4 256 75 75 (5760000)
I0531 18:02:12.758481  4249 net.cpp:165] Memory required for data: 714240032
I0531 18:02:12.758482  4249 layer_factory.hpp:77] Creating layer conv3_3
I0531 18:02:12.758492  4249 net.cpp:100] Creating Layer conv3_3
I0531 18:02:12.758494  4249 net.cpp:434] conv3_3 <- conv3_2
I0531 18:02:12.758498  4249 net.cpp:408] conv3_3 -> conv3_3
I0531 18:02:12.761777  4249 net.cpp:150] Setting up conv3_3
I0531 18:02:12.761790  4249 net.cpp:157] Top shape: 4 256 75 75 (5760000)
I0531 18:02:12.761793  4249 net.cpp:165] Memory required for data: 737280032
I0531 18:02:12.761798  4249 layer_factory.hpp:77] Creating layer relu3_3
I0531 18:02:12.761803  4249 net.cpp:100] Creating Layer relu3_3
I0531 18:02:12.761806  4249 net.cpp:434] relu3_3 <- conv3_3
I0531 18:02:12.761811  4249 net.cpp:395] relu3_3 -> conv3_3 (in-place)
I0531 18:02:12.761816  4249 net.cpp:150] Setting up relu3_3
I0531 18:02:12.761819  4249 net.cpp:157] Top shape: 4 256 75 75 (5760000)
I0531 18:02:12.761821  4249 net.cpp:165] Memory required for data: 760320032
I0531 18:02:12.761823  4249 layer_factory.hpp:77] Creating layer pool3
I0531 18:02:12.761827  4249 net.cpp:100] Creating Layer pool3
I0531 18:02:12.761829  4249 net.cpp:434] pool3 <- conv3_3
I0531 18:02:12.761833  4249 net.cpp:408] pool3 -> pool3
I0531 18:02:12.761862  4249 net.cpp:150] Setting up pool3
I0531 18:02:12.761868  4249 net.cpp:157] Top shape: 4 256 38 38 (1478656)
I0531 18:02:12.761871  4249 net.cpp:165] Memory required for data: 766234656
I0531 18:02:12.761888  4249 layer_factory.hpp:77] Creating layer conv4_1
I0531 18:02:12.761898  4249 net.cpp:100] Creating Layer conv4_1
I0531 18:02:12.761904  4249 net.cpp:434] conv4_1 <- pool3
I0531 18:02:12.761912  4249 net.cpp:408] conv4_1 -> conv4_1
I0531 18:02:12.767951  4249 net.cpp:150] Setting up conv4_1
I0531 18:02:12.767969  4249 net.cpp:157] Top shape: 4 512 38 38 (2957312)
I0531 18:02:12.767973  4249 net.cpp:165] Memory required for data: 778063904
I0531 18:02:12.767982  4249 layer_factory.hpp:77] Creating layer relu4_1
I0531 18:02:12.767989  4249 net.cpp:100] Creating Layer relu4_1
I0531 18:02:12.767994  4249 net.cpp:434] relu4_1 <- conv4_1
I0531 18:02:12.768003  4249 net.cpp:395] relu4_1 -> conv4_1 (in-place)
I0531 18:02:12.768018  4249 net.cpp:150] Setting up relu4_1
I0531 18:02:12.768024  4249 net.cpp:157] Top shape: 4 512 38 38 (2957312)
I0531 18:02:12.768028  4249 net.cpp:165] Memory required for data: 789893152
I0531 18:02:12.768033  4249 layer_factory.hpp:77] Creating layer conv4_2
I0531 18:02:12.768040  4249 net.cpp:100] Creating Layer conv4_2
I0531 18:02:12.768045  4249 net.cpp:434] conv4_2 <- conv4_1
I0531 18:02:12.768054  4249 net.cpp:408] conv4_2 -> conv4_2
I0531 18:02:12.779769  4249 net.cpp:150] Setting up conv4_2
I0531 18:02:12.779786  4249 net.cpp:157] Top shape: 4 512 38 38 (2957312)
I0531 18:02:12.779790  4249 net.cpp:165] Memory required for data: 801722400
I0531 18:02:12.779816  4249 layer_factory.hpp:77] Creating layer relu4_2
I0531 18:02:12.779825  4249 net.cpp:100] Creating Layer relu4_2
I0531 18:02:12.779830  4249 net.cpp:434] relu4_2 <- conv4_2
I0531 18:02:12.779839  4249 net.cpp:395] relu4_2 -> conv4_2 (in-place)
I0531 18:02:12.779867  4249 net.cpp:150] Setting up relu4_2
I0531 18:02:12.779875  4249 net.cpp:157] Top shape: 4 512 38 38 (2957312)
I0531 18:02:12.779877  4249 net.cpp:165] Memory required for data: 813551648
I0531 18:02:12.779881  4249 layer_factory.hpp:77] Creating layer conv4_3
I0531 18:02:12.779891  4249 net.cpp:100] Creating Layer conv4_3
I0531 18:02:12.779897  4249 net.cpp:434] conv4_3 <- conv4_2
I0531 18:02:12.779904  4249 net.cpp:408] conv4_3 -> conv4_3
I0531 18:02:12.792073  4249 net.cpp:150] Setting up conv4_3
I0531 18:02:12.792091  4249 net.cpp:157] Top shape: 4 512 38 38 (2957312)
I0531 18:02:12.792095  4249 net.cpp:165] Memory required for data: 825380896
I0531 18:02:12.792104  4249 layer_factory.hpp:77] Creating layer relu4_3
I0531 18:02:12.792126  4249 net.cpp:100] Creating Layer relu4_3
I0531 18:02:12.792132  4249 net.cpp:434] relu4_3 <- conv4_3
I0531 18:02:12.792155  4249 net.cpp:395] relu4_3 -> conv4_3 (in-place)
I0531 18:02:12.792166  4249 net.cpp:150] Setting up relu4_3
I0531 18:02:12.792172  4249 net.cpp:157] Top shape: 4 512 38 38 (2957312)
I0531 18:02:12.792176  4249 net.cpp:165] Memory required for data: 837210144
I0531 18:02:12.792181  4249 layer_factory.hpp:77] Creating layer conv4_3_relu4_3_0_split
I0531 18:02:12.792186  4249 net.cpp:100] Creating Layer conv4_3_relu4_3_0_split
I0531 18:02:12.792191  4249 net.cpp:434] conv4_3_relu4_3_0_split <- conv4_3
I0531 18:02:12.792198  4249 net.cpp:408] conv4_3_relu4_3_0_split -> conv4_3_relu4_3_0_split_0
I0531 18:02:12.792207  4249 net.cpp:408] conv4_3_relu4_3_0_split -> conv4_3_relu4_3_0_split_1
I0531 18:02:12.792246  4249 net.cpp:150] Setting up conv4_3_relu4_3_0_split
I0531 18:02:12.792253  4249 net.cpp:157] Top shape: 4 512 38 38 (2957312)
I0531 18:02:12.792258  4249 net.cpp:157] Top shape: 4 512 38 38 (2957312)
I0531 18:02:12.792261  4249 net.cpp:165] Memory required for data: 860868640
I0531 18:02:12.792265  4249 layer_factory.hpp:77] Creating layer pool4
I0531 18:02:12.792271  4249 net.cpp:100] Creating Layer pool4
I0531 18:02:12.792276  4249 net.cpp:434] pool4 <- conv4_3_relu4_3_0_split_0
I0531 18:02:12.792284  4249 net.cpp:408] pool4 -> pool4
I0531 18:02:12.792315  4249 net.cpp:150] Setting up pool4
I0531 18:02:12.792320  4249 net.cpp:157] Top shape: 4 512 19 19 (739328)
I0531 18:02:12.792323  4249 net.cpp:165] Memory required for data: 863825952
I0531 18:02:12.792336  4249 layer_factory.hpp:77] Creating layer conv5_1
I0531 18:02:12.792349  4249 net.cpp:100] Creating Layer conv5_1
I0531 18:02:12.792353  4249 net.cpp:434] conv5_1 <- pool4
I0531 18:02:12.792361  4249 net.cpp:408] conv5_1 -> conv5_1
I0531 18:02:12.803972  4249 net.cpp:150] Setting up conv5_1
I0531 18:02:12.803990  4249 net.cpp:157] Top shape: 4 512 19 19 (739328)
I0531 18:02:12.803993  4249 net.cpp:165] Memory required for data: 866783264
I0531 18:02:12.804003  4249 layer_factory.hpp:77] Creating layer relu5_1
I0531 18:02:12.804013  4249 net.cpp:100] Creating Layer relu5_1
I0531 18:02:12.804018  4249 net.cpp:434] relu5_1 <- conv5_1
I0531 18:02:12.804041  4249 net.cpp:395] relu5_1 -> conv5_1 (in-place)
I0531 18:02:12.804051  4249 net.cpp:150] Setting up relu5_1
I0531 18:02:12.804059  4249 net.cpp:157] Top shape: 4 512 19 19 (739328)
I0531 18:02:12.804062  4249 net.cpp:165] Memory required for data: 869740576
I0531 18:02:12.804065  4249 layer_factory.hpp:77] Creating layer conv5_2
I0531 18:02:12.804077  4249 net.cpp:100] Creating Layer conv5_2
I0531 18:02:12.804081  4249 net.cpp:434] conv5_2 <- conv5_1
I0531 18:02:12.804102  4249 net.cpp:408] conv5_2 -> conv5_2
I0531 18:02:12.816226  4249 net.cpp:150] Setting up conv5_2
I0531 18:02:12.816247  4249 net.cpp:157] Top shape: 4 512 19 19 (739328)
I0531 18:02:12.816252  4249 net.cpp:165] Memory required for data: 872697888
I0531 18:02:12.816262  4249 layer_factory.hpp:77] Creating layer relu5_2
I0531 18:02:12.816285  4249 net.cpp:100] Creating Layer relu5_2
I0531 18:02:12.816292  4249 net.cpp:434] relu5_2 <- conv5_2
I0531 18:02:12.816298  4249 net.cpp:395] relu5_2 -> conv5_2 (in-place)
I0531 18:02:12.816323  4249 net.cpp:150] Setting up relu5_2
I0531 18:02:12.816329  4249 net.cpp:157] Top shape: 4 512 19 19 (739328)
I0531 18:02:12.816347  4249 net.cpp:165] Memory required for data: 875655200
I0531 18:02:12.816352  4249 layer_factory.hpp:77] Creating layer conv5_3
I0531 18:02:12.816364  4249 net.cpp:100] Creating Layer conv5_3
I0531 18:02:12.816367  4249 net.cpp:434] conv5_3 <- conv5_2
I0531 18:02:12.816388  4249 net.cpp:408] conv5_3 -> conv5_3
I0531 18:02:12.828802  4249 net.cpp:150] Setting up conv5_3
I0531 18:02:12.828836  4249 net.cpp:157] Top shape: 4 512 19 19 (739328)
I0531 18:02:12.828840  4249 net.cpp:165] Memory required for data: 878612512
I0531 18:02:12.828848  4249 layer_factory.hpp:77] Creating layer relu5_3
I0531 18:02:12.828896  4249 net.cpp:100] Creating Layer relu5_3
I0531 18:02:12.828903  4249 net.cpp:434] relu5_3 <- conv5_3
I0531 18:02:12.828912  4249 net.cpp:395] relu5_3 -> conv5_3 (in-place)
I0531 18:02:12.828935  4249 net.cpp:150] Setting up relu5_3
I0531 18:02:12.828943  4249 net.cpp:157] Top shape: 4 512 19 19 (739328)
I0531 18:02:12.828945  4249 net.cpp:165] Memory required for data: 881569824
I0531 18:02:12.828949  4249 layer_factory.hpp:77] Creating layer pool5
I0531 18:02:12.828958  4249 net.cpp:100] Creating Layer pool5
I0531 18:02:12.828963  4249 net.cpp:434] pool5 <- conv5_3
I0531 18:02:12.828969  4249 net.cpp:408] pool5 -> pool5
I0531 18:02:12.829008  4249 net.cpp:150] Setting up pool5
I0531 18:02:12.829027  4249 net.cpp:157] Top shape: 4 512 19 19 (739328)
I0531 18:02:12.829031  4249 net.cpp:165] Memory required for data: 884527136
I0531 18:02:12.829035  4249 layer_factory.hpp:77] Creating layer fc6
I0531 18:02:12.829063  4249 net.cpp:100] Creating Layer fc6
I0531 18:02:12.829067  4249 net.cpp:434] fc6 <- pool5
I0531 18:02:12.829088  4249 net.cpp:408] fc6 -> fc6
I0531 18:02:12.852306  4249 net.cpp:150] Setting up fc6
I0531 18:02:12.852324  4249 net.cpp:157] Top shape: 4 1024 19 19 (1478656)
I0531 18:02:12.852327  4249 net.cpp:165] Memory required for data: 890441760
I0531 18:02:12.852336  4249 layer_factory.hpp:77] Creating layer relu6
I0531 18:02:12.852344  4249 net.cpp:100] Creating Layer relu6
I0531 18:02:12.852363  4249 net.cpp:434] relu6 <- fc6
I0531 18:02:12.852385  4249 net.cpp:395] relu6 -> fc6 (in-place)
I0531 18:02:12.852409  4249 net.cpp:150] Setting up relu6
I0531 18:02:12.852416  4249 net.cpp:157] Top shape: 4 1024 19 19 (1478656)
I0531 18:02:12.852443  4249 net.cpp:165] Memory required for data: 896356384
I0531 18:02:12.852447  4249 layer_factory.hpp:77] Creating layer fc7
I0531 18:02:12.852460  4249 net.cpp:100] Creating Layer fc7
I0531 18:02:12.852464  4249 net.cpp:434] fc7 <- fc6
I0531 18:02:12.852470  4249 net.cpp:408] fc7 -> fc7
I0531 18:02:12.858306  4249 net.cpp:150] Setting up fc7
I0531 18:02:12.858325  4249 net.cpp:157] Top shape: 4 1024 19 19 (1478656)
I0531 18:02:12.858328  4249 net.cpp:165] Memory required for data: 902271008
I0531 18:02:12.858337  4249 layer_factory.hpp:77] Creating layer relu7
I0531 18:02:12.858345  4249 net.cpp:100] Creating Layer relu7
I0531 18:02:12.858352  4249 net.cpp:434] relu7 <- fc7
I0531 18:02:12.858361  4249 net.cpp:395] relu7 -> fc7 (in-place)
I0531 18:02:12.858371  4249 net.cpp:150] Setting up relu7
I0531 18:02:12.858377  4249 net.cpp:157] Top shape: 4 1024 19 19 (1478656)
I0531 18:02:12.858381  4249 net.cpp:165] Memory required for data: 908185632
I0531 18:02:12.858386  4249 layer_factory.hpp:77] Creating layer fc7_relu7_0_split
I0531 18:02:12.858392  4249 net.cpp:100] Creating Layer fc7_relu7_0_split
I0531 18:02:12.858397  4249 net.cpp:434] fc7_relu7_0_split <- fc7
I0531 18:02:12.858403  4249 net.cpp:408] fc7_relu7_0_split -> fc7_relu7_0_split_0
I0531 18:02:12.858413  4249 net.cpp:408] fc7_relu7_0_split -> fc7_relu7_0_split_1
I0531 18:02:12.858427  4249 net.cpp:408] fc7_relu7_0_split -> fc7_relu7_0_split_2
I0531 18:02:12.858433  4249 net.cpp:408] fc7_relu7_0_split -> fc7_relu7_0_split_3
I0531 18:02:12.858494  4249 net.cpp:150] Setting up fc7_relu7_0_split
I0531 18:02:12.858500  4249 net.cpp:157] Top shape: 4 1024 19 19 (1478656)
I0531 18:02:12.858505  4249 net.cpp:157] Top shape: 4 1024 19 19 (1478656)
I0531 18:02:12.858510  4249 net.cpp:157] Top shape: 4 1024 19 19 (1478656)
I0531 18:02:12.858515  4249 net.cpp:157] Top shape: 4 1024 19 19 (1478656)
I0531 18:02:12.858520  4249 net.cpp:165] Memory required for data: 931844128
I0531 18:02:12.858523  4249 layer_factory.hpp:77] Creating layer conv6_1
I0531 18:02:12.858535  4249 net.cpp:100] Creating Layer conv6_1
I0531 18:02:12.858538  4249 net.cpp:434] conv6_1 <- fc7_relu7_0_split_0
I0531 18:02:12.858546  4249 net.cpp:408] conv6_1 -> conv6_1
I0531 18:02:12.860448  4249 net.cpp:150] Setting up conv6_1
I0531 18:02:12.860460  4249 net.cpp:157] Top shape: 4 256 19 19 (369664)
I0531 18:02:12.860463  4249 net.cpp:165] Memory required for data: 933322784
I0531 18:02:12.860471  4249 layer_factory.hpp:77] Creating layer conv6_1_relu
I0531 18:02:12.860478  4249 net.cpp:100] Creating Layer conv6_1_relu
I0531 18:02:12.860483  4249 net.cpp:434] conv6_1_relu <- conv6_1
I0531 18:02:12.860489  4249 net.cpp:395] conv6_1_relu -> conv6_1 (in-place)
I0531 18:02:12.860497  4249 net.cpp:150] Setting up conv6_1_relu
I0531 18:02:12.860503  4249 net.cpp:157] Top shape: 4 256 19 19 (369664)
I0531 18:02:12.860507  4249 net.cpp:165] Memory required for data: 934801440
I0531 18:02:12.860512  4249 layer_factory.hpp:77] Creating layer conv6_2
I0531 18:02:12.860525  4249 net.cpp:100] Creating Layer conv6_2
I0531 18:02:12.860529  4249 net.cpp:434] conv6_2 <- conv6_1
I0531 18:02:12.860536  4249 net.cpp:408] conv6_2 -> conv6_2
I0531 18:02:12.866575  4249 net.cpp:150] Setting up conv6_2
I0531 18:02:12.866595  4249 net.cpp:157] Top shape: 4 512 10 10 (204800)
I0531 18:02:12.866597  4249 net.cpp:165] Memory required for data: 935620640
I0531 18:02:12.866614  4249 layer_factory.hpp:77] Creating layer conv6_2_relu
I0531 18:02:12.866623  4249 net.cpp:100] Creating Layer conv6_2_relu
I0531 18:02:12.866631  4249 net.cpp:434] conv6_2_relu <- conv6_2
I0531 18:02:12.866637  4249 net.cpp:395] conv6_2_relu -> conv6_2 (in-place)
I0531 18:02:12.866647  4249 net.cpp:150] Setting up conv6_2_relu
I0531 18:02:12.866652  4249 net.cpp:157] Top shape: 4 512 10 10 (204800)
I0531 18:02:12.866657  4249 net.cpp:165] Memory required for data: 936439840
I0531 18:02:12.866660  4249 layer_factory.hpp:77] Creating layer conv6_2_conv6_2_relu_0_split
I0531 18:02:12.866667  4249 net.cpp:100] Creating Layer conv6_2_conv6_2_relu_0_split
I0531 18:02:12.866680  4249 net.cpp:434] conv6_2_conv6_2_relu_0_split <- conv6_2
I0531 18:02:12.866689  4249 net.cpp:408] conv6_2_conv6_2_relu_0_split -> conv6_2_conv6_2_relu_0_split_0
I0531 18:02:12.866698  4249 net.cpp:408] conv6_2_conv6_2_relu_0_split -> conv6_2_conv6_2_relu_0_split_1
I0531 18:02:12.866708  4249 net.cpp:408] conv6_2_conv6_2_relu_0_split -> conv6_2_conv6_2_relu_0_split_2
I0531 18:02:12.866715  4249 net.cpp:408] conv6_2_conv6_2_relu_0_split -> conv6_2_conv6_2_relu_0_split_3
I0531 18:02:12.866776  4249 net.cpp:150] Setting up conv6_2_conv6_2_relu_0_split
I0531 18:02:12.866783  4249 net.cpp:157] Top shape: 4 512 10 10 (204800)
I0531 18:02:12.866787  4249 net.cpp:157] Top shape: 4 512 10 10 (204800)
I0531 18:02:12.866792  4249 net.cpp:157] Top shape: 4 512 10 10 (204800)
I0531 18:02:12.866798  4249 net.cpp:157] Top shape: 4 512 10 10 (204800)
I0531 18:02:12.866801  4249 net.cpp:165] Memory required for data: 939716640
I0531 18:02:12.866806  4249 layer_factory.hpp:77] Creating layer conv7_1
I0531 18:02:12.866816  4249 net.cpp:100] Creating Layer conv7_1
I0531 18:02:12.866821  4249 net.cpp:434] conv7_1 <- conv6_2_conv6_2_relu_0_split_0
I0531 18:02:12.866828  4249 net.cpp:408] conv7_1 -> conv7_1
I0531 18:02:12.867282  4249 net.cpp:150] Setting up conv7_1
I0531 18:02:12.867290  4249 net.cpp:157] Top shape: 4 128 10 10 (51200)
I0531 18:02:12.867295  4249 net.cpp:165] Memory required for data: 939921440
I0531 18:02:12.867300  4249 layer_factory.hpp:77] Creating layer conv7_1_relu
I0531 18:02:12.867306  4249 net.cpp:100] Creating Layer conv7_1_relu
I0531 18:02:12.867311  4249 net.cpp:434] conv7_1_relu <- conv7_1
I0531 18:02:12.867317  4249 net.cpp:395] conv7_1_relu -> conv7_1 (in-place)
I0531 18:02:12.867326  4249 net.cpp:150] Setting up conv7_1_relu
I0531 18:02:12.867331  4249 net.cpp:157] Top shape: 4 128 10 10 (51200)
I0531 18:02:12.867334  4249 net.cpp:165] Memory required for data: 940126240
I0531 18:02:12.867339  4249 layer_factory.hpp:77] Creating layer conv7_2
I0531 18:02:12.867348  4249 net.cpp:100] Creating Layer conv7_2
I0531 18:02:12.867353  4249 net.cpp:434] conv7_2 <- conv7_1
I0531 18:02:12.867359  4249 net.cpp:408] conv7_2 -> conv7_2
I0531 18:02:12.869422  4249 net.cpp:150] Setting up conv7_2
I0531 18:02:12.869436  4249 net.cpp:157] Top shape: 4 256 5 5 (25600)
I0531 18:02:12.869438  4249 net.cpp:165] Memory required for data: 940228640
I0531 18:02:12.869446  4249 layer_factory.hpp:77] Creating layer conv7_2_relu
I0531 18:02:12.869453  4249 net.cpp:100] Creating Layer conv7_2_relu
I0531 18:02:12.869457  4249 net.cpp:434] conv7_2_relu <- conv7_2
I0531 18:02:12.869467  4249 net.cpp:395] conv7_2_relu -> conv7_2 (in-place)
I0531 18:02:12.869474  4249 net.cpp:150] Setting up conv7_2_relu
I0531 18:02:12.869482  4249 net.cpp:157] Top shape: 4 256 5 5 (25600)
I0531 18:02:12.869484  4249 net.cpp:165] Memory required for data: 940331040
I0531 18:02:12.869488  4249 layer_factory.hpp:77] Creating layer conv7_2_conv7_2_relu_0_split
I0531 18:02:12.869494  4249 net.cpp:100] Creating Layer conv7_2_conv7_2_relu_0_split
I0531 18:02:12.869499  4249 net.cpp:434] conv7_2_conv7_2_relu_0_split <- conv7_2
I0531 18:02:12.869508  4249 net.cpp:408] conv7_2_conv7_2_relu_0_split -> conv7_2_conv7_2_relu_0_split_0
I0531 18:02:12.869515  4249 net.cpp:408] conv7_2_conv7_2_relu_0_split -> conv7_2_conv7_2_relu_0_split_1
I0531 18:02:12.869537  4249 net.cpp:408] conv7_2_conv7_2_relu_0_split -> conv7_2_conv7_2_relu_0_split_2
I0531 18:02:12.869545  4249 net.cpp:408] conv7_2_conv7_2_relu_0_split -> conv7_2_conv7_2_relu_0_split_3
I0531 18:02:12.869614  4249 net.cpp:150] Setting up conv7_2_conv7_2_relu_0_split
I0531 18:02:12.869621  4249 net.cpp:157] Top shape: 4 256 5 5 (25600)
I0531 18:02:12.869626  4249 net.cpp:157] Top shape: 4 256 5 5 (25600)
I0531 18:02:12.869632  4249 net.cpp:157] Top shape: 4 256 5 5 (25600)
I0531 18:02:12.869637  4249 net.cpp:157] Top shape: 4 256 5 5 (25600)
I0531 18:02:12.869640  4249 net.cpp:165] Memory required for data: 940740640
I0531 18:02:12.869644  4249 layer_factory.hpp:77] Creating layer conv8_1
I0531 18:02:12.869668  4249 net.cpp:100] Creating Layer conv8_1
I0531 18:02:12.869673  4249 net.cpp:434] conv8_1 <- conv7_2_conv7_2_relu_0_split_0
I0531 18:02:12.869680  4249 net.cpp:408] conv8_1 -> conv8_1
I0531 18:02:12.869988  4249 net.cpp:150] Setting up conv8_1
I0531 18:02:12.869997  4249 net.cpp:157] Top shape: 4 128 5 5 (12800)
I0531 18:02:12.870000  4249 net.cpp:165] Memory required for data: 940791840
I0531 18:02:12.870007  4249 layer_factory.hpp:77] Creating layer conv8_1_relu
I0531 18:02:12.870012  4249 net.cpp:100] Creating Layer conv8_1_relu
I0531 18:02:12.870018  4249 net.cpp:434] conv8_1_relu <- conv8_1
I0531 18:02:12.870024  4249 net.cpp:395] conv8_1_relu -> conv8_1 (in-place)
I0531 18:02:12.870030  4249 net.cpp:150] Setting up conv8_1_relu
I0531 18:02:12.870036  4249 net.cpp:157] Top shape: 4 128 5 5 (12800)
I0531 18:02:12.870041  4249 net.cpp:165] Memory required for data: 940843040
I0531 18:02:12.870045  4249 layer_factory.hpp:77] Creating layer conv8_2
I0531 18:02:12.870054  4249 net.cpp:100] Creating Layer conv8_2
I0531 18:02:12.870057  4249 net.cpp:434] conv8_2 <- conv8_1
I0531 18:02:12.870064  4249 net.cpp:408] conv8_2 -> conv8_2
I0531 18:02:12.872118  4249 net.cpp:150] Setting up conv8_2
I0531 18:02:12.872133  4249 net.cpp:157] Top shape: 4 256 3 3 (9216)
I0531 18:02:12.872135  4249 net.cpp:165] Memory required for data: 940879904
I0531 18:02:12.872143  4249 layer_factory.hpp:77] Creating layer conv8_2_relu
I0531 18:02:12.872150  4249 net.cpp:100] Creating Layer conv8_2_relu
I0531 18:02:12.872155  4249 net.cpp:434] conv8_2_relu <- conv8_2
I0531 18:02:12.872164  4249 net.cpp:395] conv8_2_relu -> conv8_2 (in-place)
I0531 18:02:12.872171  4249 net.cpp:150] Setting up conv8_2_relu
I0531 18:02:12.872179  4249 net.cpp:157] Top shape: 4 256 3 3 (9216)
I0531 18:02:12.872182  4249 net.cpp:165] Memory required for data: 940916768
I0531 18:02:12.872186  4249 layer_factory.hpp:77] Creating layer conv8_2_conv8_2_relu_0_split
I0531 18:02:12.872193  4249 net.cpp:100] Creating Layer conv8_2_conv8_2_relu_0_split
I0531 18:02:12.872198  4249 net.cpp:434] conv8_2_conv8_2_relu_0_split <- conv8_2
I0531 18:02:12.872206  4249 net.cpp:408] conv8_2_conv8_2_relu_0_split -> conv8_2_conv8_2_relu_0_split_0
I0531 18:02:12.872215  4249 net.cpp:408] conv8_2_conv8_2_relu_0_split -> conv8_2_conv8_2_relu_0_split_1
I0531 18:02:12.872223  4249 net.cpp:408] conv8_2_conv8_2_relu_0_split -> conv8_2_conv8_2_relu_0_split_2
I0531 18:02:12.872233  4249 net.cpp:408] conv8_2_conv8_2_relu_0_split -> conv8_2_conv8_2_relu_0_split_3
I0531 18:02:12.872287  4249 net.cpp:150] Setting up conv8_2_conv8_2_relu_0_split
I0531 18:02:12.872293  4249 net.cpp:157] Top shape: 4 256 3 3 (9216)
I0531 18:02:12.872299  4249 net.cpp:157] Top shape: 4 256 3 3 (9216)
I0531 18:02:12.872304  4249 net.cpp:157] Top shape: 4 256 3 3 (9216)
I0531 18:02:12.872308  4249 net.cpp:157] Top shape: 4 256 3 3 (9216)
I0531 18:02:12.872313  4249 net.cpp:165] Memory required for data: 941064224
I0531 18:02:12.872316  4249 layer_factory.hpp:77] Creating layer conv9_1
I0531 18:02:12.872326  4249 net.cpp:100] Creating Layer conv9_1
I0531 18:02:12.872330  4249 net.cpp:434] conv9_1 <- conv8_2_conv8_2_relu_0_split_0
I0531 18:02:12.872339  4249 net.cpp:408] conv9_1 -> conv9_1
I0531 18:02:12.872642  4249 net.cpp:150] Setting up conv9_1
I0531 18:02:12.872649  4249 net.cpp:157] Top shape: 4 128 3 3 (4608)
I0531 18:02:12.872653  4249 net.cpp:165] Memory required for data: 941082656
I0531 18:02:12.872659  4249 layer_factory.hpp:77] Creating layer conv9_1_relu
I0531 18:02:12.872668  4249 net.cpp:100] Creating Layer conv9_1_relu
I0531 18:02:12.872673  4249 net.cpp:434] conv9_1_relu <- conv9_1
I0531 18:02:12.872678  4249 net.cpp:395] conv9_1_relu -> conv9_1 (in-place)
I0531 18:02:12.872684  4249 net.cpp:150] Setting up conv9_1_relu
I0531 18:02:12.872691  4249 net.cpp:157] Top shape: 4 128 3 3 (4608)
I0531 18:02:12.872695  4249 net.cpp:165] Memory required for data: 941101088
I0531 18:02:12.872699  4249 layer_factory.hpp:77] Creating layer conv9_2
I0531 18:02:12.872709  4249 net.cpp:100] Creating Layer conv9_2
I0531 18:02:12.872720  4249 net.cpp:434] conv9_2 <- conv9_1
I0531 18:02:12.872730  4249 net.cpp:408] conv9_2 -> conv9_2
I0531 18:02:12.874775  4249 net.cpp:150] Setting up conv9_2
I0531 18:02:12.874788  4249 net.cpp:157] Top shape: 4 256 1 1 (1024)
I0531 18:02:12.874791  4249 net.cpp:165] Memory required for data: 941105184
I0531 18:02:12.874799  4249 layer_factory.hpp:77] Creating layer conv9_2_relu
I0531 18:02:12.874807  4249 net.cpp:100] Creating Layer conv9_2_relu
I0531 18:02:12.874812  4249 net.cpp:434] conv9_2_relu <- conv9_2
I0531 18:02:12.874819  4249 net.cpp:395] conv9_2_relu -> conv9_2 (in-place)
I0531 18:02:12.874826  4249 net.cpp:150] Setting up conv9_2_relu
I0531 18:02:12.874832  4249 net.cpp:157] Top shape: 4 256 1 1 (1024)
I0531 18:02:12.874837  4249 net.cpp:165] Memory required for data: 941109280
I0531 18:02:12.874841  4249 layer_factory.hpp:77] Creating layer conv9_2_conv9_2_relu_0_split
I0531 18:02:12.874847  4249 net.cpp:100] Creating Layer conv9_2_conv9_2_relu_0_split
I0531 18:02:12.874852  4249 net.cpp:434] conv9_2_conv9_2_relu_0_split <- conv9_2
I0531 18:02:12.874858  4249 net.cpp:408] conv9_2_conv9_2_relu_0_split -> conv9_2_conv9_2_relu_0_split_0
I0531 18:02:12.874867  4249 net.cpp:408] conv9_2_conv9_2_relu_0_split -> conv9_2_conv9_2_relu_0_split_1
I0531 18:02:12.874876  4249 net.cpp:408] conv9_2_conv9_2_relu_0_split -> conv9_2_conv9_2_relu_0_split_2
I0531 18:02:12.874918  4249 net.cpp:150] Setting up conv9_2_conv9_2_relu_0_split
I0531 18:02:12.874925  4249 net.cpp:157] Top shape: 4 256 1 1 (1024)
I0531 18:02:12.874929  4249 net.cpp:157] Top shape: 4 256 1 1 (1024)
I0531 18:02:12.874935  4249 net.cpp:157] Top shape: 4 256 1 1 (1024)
I0531 18:02:12.874939  4249 net.cpp:165] Memory required for data: 941121568
I0531 18:02:12.874943  4249 layer_factory.hpp:77] Creating layer conv4_3_norm
I0531 18:02:12.874951  4249 net.cpp:100] Creating Layer conv4_3_norm
I0531 18:02:12.874956  4249 net.cpp:434] conv4_3_norm <- conv4_3_relu4_3_0_split_1
I0531 18:02:12.874961  4249 net.cpp:408] conv4_3_norm -> conv4_3_norm
I0531 18:02:12.875082  4249 net.cpp:150] Setting up conv4_3_norm
I0531 18:02:12.875089  4249 net.cpp:157] Top shape: 4 512 38 38 (2957312)
I0531 18:02:12.875093  4249 net.cpp:165] Memory required for data: 952950816
I0531 18:02:12.875098  4249 layer_factory.hpp:77] Creating layer conv4_3_norm_conv4_3_norm_0_split
I0531 18:02:12.875104  4249 net.cpp:100] Creating Layer conv4_3_norm_conv4_3_norm_0_split
I0531 18:02:12.875109  4249 net.cpp:434] conv4_3_norm_conv4_3_norm_0_split <- conv4_3_norm
I0531 18:02:12.875115  4249 net.cpp:408] conv4_3_norm_conv4_3_norm_0_split -> conv4_3_norm_conv4_3_norm_0_split_0
I0531 18:02:12.875123  4249 net.cpp:408] conv4_3_norm_conv4_3_norm_0_split -> conv4_3_norm_conv4_3_norm_0_split_1
I0531 18:02:12.875133  4249 net.cpp:408] conv4_3_norm_conv4_3_norm_0_split -> conv4_3_norm_conv4_3_norm_0_split_2
I0531 18:02:12.875170  4249 net.cpp:150] Setting up conv4_3_norm_conv4_3_norm_0_split
I0531 18:02:12.875177  4249 net.cpp:157] Top shape: 4 512 38 38 (2957312)
I0531 18:02:12.875181  4249 net.cpp:157] Top shape: 4 512 38 38 (2957312)
I0531 18:02:12.875187  4249 net.cpp:157] Top shape: 4 512 38 38 (2957312)
I0531 18:02:12.875190  4249 net.cpp:165] Memory required for data: 988438560
I0531 18:02:12.875195  4249 layer_factory.hpp:77] Creating layer conv4_3_norm_mbox_loc
I0531 18:02:12.875203  4249 net.cpp:100] Creating Layer conv4_3_norm_mbox_loc
I0531 18:02:12.875207  4249 net.cpp:434] conv4_3_norm_mbox_loc <- conv4_3_norm_conv4_3_norm_0_split_0
I0531 18:02:12.875216  4249 net.cpp:408] conv4_3_norm_mbox_loc -> conv4_3_norm_mbox_loc
I0531 18:02:12.875691  4249 net.cpp:150] Setting up conv4_3_norm_mbox_loc
I0531 18:02:12.875699  4249 net.cpp:157] Top shape: 4 16 38 38 (92416)
I0531 18:02:12.875702  4249 net.cpp:165] Memory required for data: 988808224
I0531 18:02:12.875708  4249 layer_factory.hpp:77] Creating layer conv4_3_norm_mbox_loc_perm
I0531 18:02:12.875716  4249 net.cpp:100] Creating Layer conv4_3_norm_mbox_loc_perm
I0531 18:02:12.875730  4249 net.cpp:434] conv4_3_norm_mbox_loc_perm <- conv4_3_norm_mbox_loc
I0531 18:02:12.875736  4249 net.cpp:408] conv4_3_norm_mbox_loc_perm -> conv4_3_norm_mbox_loc_perm
I0531 18:02:12.875813  4249 net.cpp:150] Setting up conv4_3_norm_mbox_loc_perm
I0531 18:02:12.875820  4249 net.cpp:157] Top shape: 4 38 38 16 (92416)
I0531 18:02:12.875823  4249 net.cpp:165] Memory required for data: 989177888
I0531 18:02:12.875828  4249 layer_factory.hpp:77] Creating layer conv4_3_norm_mbox_loc_flat
I0531 18:02:12.875833  4249 net.cpp:100] Creating Layer conv4_3_norm_mbox_loc_flat
I0531 18:02:12.875838  4249 net.cpp:434] conv4_3_norm_mbox_loc_flat <- conv4_3_norm_mbox_loc_perm
I0531 18:02:12.875845  4249 net.cpp:408] conv4_3_norm_mbox_loc_flat -> conv4_3_norm_mbox_loc_flat
I0531 18:02:12.875874  4249 net.cpp:150] Setting up conv4_3_norm_mbox_loc_flat
I0531 18:02:12.875880  4249 net.cpp:157] Top shape: 4 23104 (92416)
I0531 18:02:12.875886  4249 net.cpp:165] Memory required for data: 989547552
I0531 18:02:12.875890  4249 layer_factory.hpp:77] Creating layer conv4_3_norm_mbox_conf
I0531 18:02:12.875905  4249 net.cpp:100] Creating Layer conv4_3_norm_mbox_conf
I0531 18:02:12.875908  4249 net.cpp:434] conv4_3_norm_mbox_conf <- conv4_3_norm_conv4_3_norm_0_split_1
I0531 18:02:12.875916  4249 net.cpp:408] conv4_3_norm_mbox_conf -> conv4_3_norm_mbox_conf
I0531 18:02:12.876391  4249 net.cpp:150] Setting up conv4_3_norm_mbox_conf
I0531 18:02:12.876399  4249 net.cpp:157] Top shape: 4 16 38 38 (92416)
I0531 18:02:12.876402  4249 net.cpp:165] Memory required for data: 989917216
I0531 18:02:12.876410  4249 layer_factory.hpp:77] Creating layer conv4_3_norm_mbox_conf_perm
I0531 18:02:12.876420  4249 net.cpp:100] Creating Layer conv4_3_norm_mbox_conf_perm
I0531 18:02:12.876425  4249 net.cpp:434] conv4_3_norm_mbox_conf_perm <- conv4_3_norm_mbox_conf
I0531 18:02:12.876430  4249 net.cpp:408] conv4_3_norm_mbox_conf_perm -> conv4_3_norm_mbox_conf_perm
I0531 18:02:12.876508  4249 net.cpp:150] Setting up conv4_3_norm_mbox_conf_perm
I0531 18:02:12.876514  4249 net.cpp:157] Top shape: 4 38 38 16 (92416)
I0531 18:02:12.876518  4249 net.cpp:165] Memory required for data: 990286880
I0531 18:02:12.876521  4249 layer_factory.hpp:77] Creating layer conv4_3_norm_mbox_conf_flat
I0531 18:02:12.876528  4249 net.cpp:100] Creating Layer conv4_3_norm_mbox_conf_flat
I0531 18:02:12.876533  4249 net.cpp:434] conv4_3_norm_mbox_conf_flat <- conv4_3_norm_mbox_conf_perm
I0531 18:02:12.876539  4249 net.cpp:408] conv4_3_norm_mbox_conf_flat -> conv4_3_norm_mbox_conf_flat
I0531 18:02:12.876560  4249 net.cpp:150] Setting up conv4_3_norm_mbox_conf_flat
I0531 18:02:12.876566  4249 net.cpp:157] Top shape: 4 23104 (92416)
I0531 18:02:12.876570  4249 net.cpp:165] Memory required for data: 990656544
I0531 18:02:12.876574  4249 layer_factory.hpp:77] Creating layer conv4_3_norm_mbox_priorbox
I0531 18:02:12.876582  4249 net.cpp:100] Creating Layer conv4_3_norm_mbox_priorbox
I0531 18:02:12.876587  4249 net.cpp:434] conv4_3_norm_mbox_priorbox <- conv4_3_norm_conv4_3_norm_0_split_2
I0531 18:02:12.876592  4249 net.cpp:434] conv4_3_norm_mbox_priorbox <- data_data_0_split_1
I0531 18:02:12.876600  4249 net.cpp:408] conv4_3_norm_mbox_priorbox -> conv4_3_norm_mbox_priorbox
I0531 18:02:12.876622  4249 net.cpp:150] Setting up conv4_3_norm_mbox_priorbox
I0531 18:02:12.876629  4249 net.cpp:157] Top shape: 1 2 23104 (46208)
I0531 18:02:12.876632  4249 net.cpp:165] Memory required for data: 990841376
I0531 18:02:12.876636  4249 layer_factory.hpp:77] Creating layer fc7_mbox_loc
I0531 18:02:12.876646  4249 net.cpp:100] Creating Layer fc7_mbox_loc
I0531 18:02:12.876651  4249 net.cpp:434] fc7_mbox_loc <- fc7_relu7_0_split_1
I0531 18:02:12.876658  4249 net.cpp:408] fc7_mbox_loc -> fc7_mbox_loc
I0531 18:02:12.877729  4249 net.cpp:150] Setting up fc7_mbox_loc
I0531 18:02:12.877737  4249 net.cpp:157] Top shape: 4 24 19 19 (34656)
I0531 18:02:12.877740  4249 net.cpp:165] Memory required for data: 990980000
I0531 18:02:12.877748  4249 layer_factory.hpp:77] Creating layer fc7_mbox_loc_perm
I0531 18:02:12.877754  4249 net.cpp:100] Creating Layer fc7_mbox_loc_perm
I0531 18:02:12.877766  4249 net.cpp:434] fc7_mbox_loc_perm <- fc7_mbox_loc
I0531 18:02:12.877774  4249 net.cpp:408] fc7_mbox_loc_perm -> fc7_mbox_loc_perm
I0531 18:02:12.877851  4249 net.cpp:150] Setting up fc7_mbox_loc_perm
I0531 18:02:12.877858  4249 net.cpp:157] Top shape: 4 19 19 24 (34656)
I0531 18:02:12.877861  4249 net.cpp:165] Memory required for data: 991118624
I0531 18:02:12.877866  4249 layer_factory.hpp:77] Creating layer fc7_mbox_loc_flat
I0531 18:02:12.877872  4249 net.cpp:100] Creating Layer fc7_mbox_loc_flat
I0531 18:02:12.877877  4249 net.cpp:434] fc7_mbox_loc_flat <- fc7_mbox_loc_perm
I0531 18:02:12.877883  4249 net.cpp:408] fc7_mbox_loc_flat -> fc7_mbox_loc_flat
I0531 18:02:12.877904  4249 net.cpp:150] Setting up fc7_mbox_loc_flat
I0531 18:02:12.877912  4249 net.cpp:157] Top shape: 4 8664 (34656)
I0531 18:02:12.877914  4249 net.cpp:165] Memory required for data: 991257248
I0531 18:02:12.877918  4249 layer_factory.hpp:77] Creating layer fc7_mbox_conf
I0531 18:02:12.877926  4249 net.cpp:100] Creating Layer fc7_mbox_conf
I0531 18:02:12.877931  4249 net.cpp:434] fc7_mbox_conf <- fc7_relu7_0_split_2
I0531 18:02:12.877939  4249 net.cpp:408] fc7_mbox_conf -> fc7_mbox_conf
I0531 18:02:12.878999  4249 net.cpp:150] Setting up fc7_mbox_conf
I0531 18:02:12.879006  4249 net.cpp:157] Top shape: 4 24 19 19 (34656)
I0531 18:02:12.879010  4249 net.cpp:165] Memory required for data: 991395872
I0531 18:02:12.879016  4249 layer_factory.hpp:77] Creating layer fc7_mbox_conf_perm
I0531 18:02:12.879024  4249 net.cpp:100] Creating Layer fc7_mbox_conf_perm
I0531 18:02:12.879029  4249 net.cpp:434] fc7_mbox_conf_perm <- fc7_mbox_conf
I0531 18:02:12.879037  4249 net.cpp:408] fc7_mbox_conf_perm -> fc7_mbox_conf_perm
I0531 18:02:12.879112  4249 net.cpp:150] Setting up fc7_mbox_conf_perm
I0531 18:02:12.879118  4249 net.cpp:157] Top shape: 4 19 19 24 (34656)
I0531 18:02:12.879122  4249 net.cpp:165] Memory required for data: 991534496
I0531 18:02:12.879127  4249 layer_factory.hpp:77] Creating layer fc7_mbox_conf_flat
I0531 18:02:12.879132  4249 net.cpp:100] Creating Layer fc7_mbox_conf_flat
I0531 18:02:12.879135  4249 net.cpp:434] fc7_mbox_conf_flat <- fc7_mbox_conf_perm
I0531 18:02:12.879142  4249 net.cpp:408] fc7_mbox_conf_flat -> fc7_mbox_conf_flat
I0531 18:02:12.879163  4249 net.cpp:150] Setting up fc7_mbox_conf_flat
I0531 18:02:12.879170  4249 net.cpp:157] Top shape: 4 8664 (34656)
I0531 18:02:12.879173  4249 net.cpp:165] Memory required for data: 991673120
I0531 18:02:12.879178  4249 layer_factory.hpp:77] Creating layer fc7_mbox_priorbox
I0531 18:02:12.879185  4249 net.cpp:100] Creating Layer fc7_mbox_priorbox
I0531 18:02:12.879190  4249 net.cpp:434] fc7_mbox_priorbox <- fc7_relu7_0_split_3
I0531 18:02:12.879195  4249 net.cpp:434] fc7_mbox_priorbox <- data_data_0_split_2
I0531 18:02:12.879204  4249 net.cpp:408] fc7_mbox_priorbox -> fc7_mbox_priorbox
I0531 18:02:12.879227  4249 net.cpp:150] Setting up fc7_mbox_priorbox
I0531 18:02:12.879235  4249 net.cpp:157] Top shape: 1 2 8664 (17328)
I0531 18:02:12.879237  4249 net.cpp:165] Memory required for data: 991742432
I0531 18:02:12.879241  4249 layer_factory.hpp:77] Creating layer conv6_2_mbox_loc
I0531 18:02:12.879251  4249 net.cpp:100] Creating Layer conv6_2_mbox_loc
I0531 18:02:12.879256  4249 net.cpp:434] conv6_2_mbox_loc <- conv6_2_conv6_2_relu_0_split_1
I0531 18:02:12.879262  4249 net.cpp:408] conv6_2_mbox_loc -> conv6_2_mbox_loc
I0531 18:02:12.879883  4249 net.cpp:150] Setting up conv6_2_mbox_loc
I0531 18:02:12.879889  4249 net.cpp:157] Top shape: 4 24 10 10 (9600)
I0531 18:02:12.879894  4249 net.cpp:165] Memory required for data: 991780832
I0531 18:02:12.879900  4249 layer_factory.hpp:77] Creating layer conv6_2_mbox_loc_perm
I0531 18:02:12.879909  4249 net.cpp:100] Creating Layer conv6_2_mbox_loc_perm
I0531 18:02:12.879914  4249 net.cpp:434] conv6_2_mbox_loc_perm <- conv6_2_mbox_loc
I0531 18:02:12.879920  4249 net.cpp:408] conv6_2_mbox_loc_perm -> conv6_2_mbox_loc_perm
I0531 18:02:12.879997  4249 net.cpp:150] Setting up conv6_2_mbox_loc_perm
I0531 18:02:12.880010  4249 net.cpp:157] Top shape: 4 10 10 24 (9600)
I0531 18:02:12.880014  4249 net.cpp:165] Memory required for data: 991819232
I0531 18:02:12.880019  4249 layer_factory.hpp:77] Creating layer conv6_2_mbox_loc_flat
I0531 18:02:12.880024  4249 net.cpp:100] Creating Layer conv6_2_mbox_loc_flat
I0531 18:02:12.880029  4249 net.cpp:434] conv6_2_mbox_loc_flat <- conv6_2_mbox_loc_perm
I0531 18:02:12.880036  4249 net.cpp:408] conv6_2_mbox_loc_flat -> conv6_2_mbox_loc_flat
I0531 18:02:12.880059  4249 net.cpp:150] Setting up conv6_2_mbox_loc_flat
I0531 18:02:12.880064  4249 net.cpp:157] Top shape: 4 2400 (9600)
I0531 18:02:12.880067  4249 net.cpp:165] Memory required for data: 991857632
I0531 18:02:12.880071  4249 layer_factory.hpp:77] Creating layer conv6_2_mbox_conf
I0531 18:02:12.880080  4249 net.cpp:100] Creating Layer conv6_2_mbox_conf
I0531 18:02:12.880085  4249 net.cpp:434] conv6_2_mbox_conf <- conv6_2_conv6_2_relu_0_split_2
I0531 18:02:12.880094  4249 net.cpp:408] conv6_2_mbox_conf -> conv6_2_mbox_conf
I0531 18:02:12.880707  4249 net.cpp:150] Setting up conv6_2_mbox_conf
I0531 18:02:12.880714  4249 net.cpp:157] Top shape: 4 24 10 10 (9600)
I0531 18:02:12.880718  4249 net.cpp:165] Memory required for data: 991896032
I0531 18:02:12.880724  4249 layer_factory.hpp:77] Creating layer conv6_2_mbox_conf_perm
I0531 18:02:12.880730  4249 net.cpp:100] Creating Layer conv6_2_mbox_conf_perm
I0531 18:02:12.880736  4249 net.cpp:434] conv6_2_mbox_conf_perm <- conv6_2_mbox_conf
I0531 18:02:12.880743  4249 net.cpp:408] conv6_2_mbox_conf_perm -> conv6_2_mbox_conf_perm
I0531 18:02:12.880818  4249 net.cpp:150] Setting up conv6_2_mbox_conf_perm
I0531 18:02:12.880825  4249 net.cpp:157] Top shape: 4 10 10 24 (9600)
I0531 18:02:12.880828  4249 net.cpp:165] Memory required for data: 991934432
I0531 18:02:12.880832  4249 layer_factory.hpp:77] Creating layer conv6_2_mbox_conf_flat
I0531 18:02:12.880838  4249 net.cpp:100] Creating Layer conv6_2_mbox_conf_flat
I0531 18:02:12.880843  4249 net.cpp:434] conv6_2_mbox_conf_flat <- conv6_2_mbox_conf_perm
I0531 18:02:12.880849  4249 net.cpp:408] conv6_2_mbox_conf_flat -> conv6_2_mbox_conf_flat
I0531 18:02:12.880877  4249 net.cpp:150] Setting up conv6_2_mbox_conf_flat
I0531 18:02:12.880883  4249 net.cpp:157] Top shape: 4 2400 (9600)
I0531 18:02:12.880887  4249 net.cpp:165] Memory required for data: 991972832
I0531 18:02:12.880889  4249 layer_factory.hpp:77] Creating layer conv6_2_mbox_priorbox
I0531 18:02:12.880898  4249 net.cpp:100] Creating Layer conv6_2_mbox_priorbox
I0531 18:02:12.880903  4249 net.cpp:434] conv6_2_mbox_priorbox <- conv6_2_conv6_2_relu_0_split_3
I0531 18:02:12.880908  4249 net.cpp:434] conv6_2_mbox_priorbox <- data_data_0_split_3
I0531 18:02:12.880915  4249 net.cpp:408] conv6_2_mbox_priorbox -> conv6_2_mbox_priorbox
I0531 18:02:12.880939  4249 net.cpp:150] Setting up conv6_2_mbox_priorbox
I0531 18:02:12.880944  4249 net.cpp:157] Top shape: 1 2 2400 (4800)
I0531 18:02:12.880947  4249 net.cpp:165] Memory required for data: 991992032
I0531 18:02:12.880950  4249 layer_factory.hpp:77] Creating layer conv7_2_mbox_loc
I0531 18:02:12.880960  4249 net.cpp:100] Creating Layer conv7_2_mbox_loc
I0531 18:02:12.880965  4249 net.cpp:434] conv7_2_mbox_loc <- conv7_2_conv7_2_relu_0_split_1
I0531 18:02:12.880973  4249 net.cpp:408] conv7_2_mbox_loc -> conv7_2_mbox_loc
I0531 18:02:12.881372  4249 net.cpp:150] Setting up conv7_2_mbox_loc
I0531 18:02:12.881379  4249 net.cpp:157] Top shape: 4 24 5 5 (2400)
I0531 18:02:12.881382  4249 net.cpp:165] Memory required for data: 992001632
I0531 18:02:12.881388  4249 layer_factory.hpp:77] Creating layer conv7_2_mbox_loc_perm
I0531 18:02:12.881394  4249 net.cpp:100] Creating Layer conv7_2_mbox_loc_perm
I0531 18:02:12.881399  4249 net.cpp:434] conv7_2_mbox_loc_perm <- conv7_2_mbox_loc
I0531 18:02:12.881407  4249 net.cpp:408] conv7_2_mbox_loc_perm -> conv7_2_mbox_loc_perm
I0531 18:02:12.881481  4249 net.cpp:150] Setting up conv7_2_mbox_loc_perm
I0531 18:02:12.881489  4249 net.cpp:157] Top shape: 4 5 5 24 (2400)
I0531 18:02:12.881492  4249 net.cpp:165] Memory required for data: 992011232
I0531 18:02:12.881502  4249 layer_factory.hpp:77] Creating layer conv7_2_mbox_loc_flat
I0531 18:02:12.881510  4249 net.cpp:100] Creating Layer conv7_2_mbox_loc_flat
I0531 18:02:12.881515  4249 net.cpp:434] conv7_2_mbox_loc_flat <- conv7_2_mbox_loc_perm
I0531 18:02:12.881522  4249 net.cpp:408] conv7_2_mbox_loc_flat -> conv7_2_mbox_loc_flat
I0531 18:02:12.881542  4249 net.cpp:150] Setting up conv7_2_mbox_loc_flat
I0531 18:02:12.881548  4249 net.cpp:157] Top shape: 4 600 (2400)
I0531 18:02:12.881553  4249 net.cpp:165] Memory required for data: 992020832
I0531 18:02:12.881557  4249 layer_factory.hpp:77] Creating layer conv7_2_mbox_conf
I0531 18:02:12.881567  4249 net.cpp:100] Creating Layer conv7_2_mbox_conf
I0531 18:02:12.881570  4249 net.cpp:434] conv7_2_mbox_conf <- conv7_2_conv7_2_relu_0_split_2
I0531 18:02:12.881577  4249 net.cpp:408] conv7_2_mbox_conf -> conv7_2_mbox_conf
I0531 18:02:12.881970  4249 net.cpp:150] Setting up conv7_2_mbox_conf
I0531 18:02:12.881978  4249 net.cpp:157] Top shape: 4 24 5 5 (2400)
I0531 18:02:12.881980  4249 net.cpp:165] Memory required for data: 992030432
I0531 18:02:12.881988  4249 layer_factory.hpp:77] Creating layer conv7_2_mbox_conf_perm
I0531 18:02:12.881997  4249 net.cpp:100] Creating Layer conv7_2_mbox_conf_perm
I0531 18:02:12.882001  4249 net.cpp:434] conv7_2_mbox_conf_perm <- conv7_2_mbox_conf
I0531 18:02:12.882007  4249 net.cpp:408] conv7_2_mbox_conf_perm -> conv7_2_mbox_conf_perm
I0531 18:02:12.882083  4249 net.cpp:150] Setting up conv7_2_mbox_conf_perm
I0531 18:02:12.882091  4249 net.cpp:157] Top shape: 4 5 5 24 (2400)
I0531 18:02:12.882093  4249 net.cpp:165] Memory required for data: 992040032
I0531 18:02:12.882097  4249 layer_factory.hpp:77] Creating layer conv7_2_mbox_conf_flat
I0531 18:02:12.882102  4249 net.cpp:100] Creating Layer conv7_2_mbox_conf_flat
I0531 18:02:12.882107  4249 net.cpp:434] conv7_2_mbox_conf_flat <- conv7_2_mbox_conf_perm
I0531 18:02:12.882113  4249 net.cpp:408] conv7_2_mbox_conf_flat -> conv7_2_mbox_conf_flat
I0531 18:02:12.882134  4249 net.cpp:150] Setting up conv7_2_mbox_conf_flat
I0531 18:02:12.882140  4249 net.cpp:157] Top shape: 4 600 (2400)
I0531 18:02:12.882144  4249 net.cpp:165] Memory required for data: 992049632
I0531 18:02:12.882148  4249 layer_factory.hpp:77] Creating layer conv7_2_mbox_priorbox
I0531 18:02:12.882153  4249 net.cpp:100] Creating Layer conv7_2_mbox_priorbox
I0531 18:02:12.882158  4249 net.cpp:434] conv7_2_mbox_priorbox <- conv7_2_conv7_2_relu_0_split_3
I0531 18:02:12.882164  4249 net.cpp:434] conv7_2_mbox_priorbox <- data_data_0_split_4
I0531 18:02:12.882172  4249 net.cpp:408] conv7_2_mbox_priorbox -> conv7_2_mbox_priorbox
I0531 18:02:12.882194  4249 net.cpp:150] Setting up conv7_2_mbox_priorbox
I0531 18:02:12.882201  4249 net.cpp:157] Top shape: 1 2 600 (1200)
I0531 18:02:12.882206  4249 net.cpp:165] Memory required for data: 992054432
I0531 18:02:12.882210  4249 layer_factory.hpp:77] Creating layer conv8_2_mbox_loc
I0531 18:02:12.882218  4249 net.cpp:100] Creating Layer conv8_2_mbox_loc
I0531 18:02:12.882223  4249 net.cpp:434] conv8_2_mbox_loc <- conv8_2_conv8_2_relu_0_split_1
I0531 18:02:12.882232  4249 net.cpp:408] conv8_2_mbox_loc -> conv8_2_mbox_loc
I0531 18:02:12.882550  4249 net.cpp:150] Setting up conv8_2_mbox_loc
I0531 18:02:12.882557  4249 net.cpp:157] Top shape: 4 16 3 3 (576)
I0531 18:02:12.882560  4249 net.cpp:165] Memory required for data: 992056736
I0531 18:02:12.882576  4249 layer_factory.hpp:77] Creating layer conv8_2_mbox_loc_perm
I0531 18:02:12.882583  4249 net.cpp:100] Creating Layer conv8_2_mbox_loc_perm
I0531 18:02:12.882588  4249 net.cpp:434] conv8_2_mbox_loc_perm <- conv8_2_mbox_loc
I0531 18:02:12.882596  4249 net.cpp:408] conv8_2_mbox_loc_perm -> conv8_2_mbox_loc_perm
I0531 18:02:12.882673  4249 net.cpp:150] Setting up conv8_2_mbox_loc_perm
I0531 18:02:12.882679  4249 net.cpp:157] Top shape: 4 3 3 16 (576)
I0531 18:02:12.882683  4249 net.cpp:165] Memory required for data: 992059040
I0531 18:02:12.882686  4249 layer_factory.hpp:77] Creating layer conv8_2_mbox_loc_flat
I0531 18:02:12.882699  4249 net.cpp:100] Creating Layer conv8_2_mbox_loc_flat
I0531 18:02:12.882704  4249 net.cpp:434] conv8_2_mbox_loc_flat <- conv8_2_mbox_loc_perm
I0531 18:02:12.882712  4249 net.cpp:408] conv8_2_mbox_loc_flat -> conv8_2_mbox_loc_flat
I0531 18:02:12.882733  4249 net.cpp:150] Setting up conv8_2_mbox_loc_flat
I0531 18:02:12.882740  4249 net.cpp:157] Top shape: 4 144 (576)
I0531 18:02:12.882742  4249 net.cpp:165] Memory required for data: 992061344
I0531 18:02:12.882746  4249 layer_factory.hpp:77] Creating layer conv8_2_mbox_conf
I0531 18:02:12.882755  4249 net.cpp:100] Creating Layer conv8_2_mbox_conf
I0531 18:02:12.882761  4249 net.cpp:434] conv8_2_mbox_conf <- conv8_2_conv8_2_relu_0_split_2
I0531 18:02:12.882767  4249 net.cpp:408] conv8_2_mbox_conf -> conv8_2_mbox_conf
I0531 18:02:12.883086  4249 net.cpp:150] Setting up conv8_2_mbox_conf
I0531 18:02:12.883092  4249 net.cpp:157] Top shape: 4 16 3 3 (576)
I0531 18:02:12.883097  4249 net.cpp:165] Memory required for data: 992063648
I0531 18:02:12.883103  4249 layer_factory.hpp:77] Creating layer conv8_2_mbox_conf_perm
I0531 18:02:12.883112  4249 net.cpp:100] Creating Layer conv8_2_mbox_conf_perm
I0531 18:02:12.883117  4249 net.cpp:434] conv8_2_mbox_conf_perm <- conv8_2_mbox_conf
I0531 18:02:12.883123  4249 net.cpp:408] conv8_2_mbox_conf_perm -> conv8_2_mbox_conf_perm
I0531 18:02:12.883198  4249 net.cpp:150] Setting up conv8_2_mbox_conf_perm
I0531 18:02:12.883204  4249 net.cpp:157] Top shape: 4 3 3 16 (576)
I0531 18:02:12.883208  4249 net.cpp:165] Memory required for data: 992065952
I0531 18:02:12.883211  4249 layer_factory.hpp:77] Creating layer conv8_2_mbox_conf_flat
I0531 18:02:12.883218  4249 net.cpp:100] Creating Layer conv8_2_mbox_conf_flat
I0531 18:02:12.883221  4249 net.cpp:434] conv8_2_mbox_conf_flat <- conv8_2_mbox_conf_perm
I0531 18:02:12.883227  4249 net.cpp:408] conv8_2_mbox_conf_flat -> conv8_2_mbox_conf_flat
I0531 18:02:12.883249  4249 net.cpp:150] Setting up conv8_2_mbox_conf_flat
I0531 18:02:12.883255  4249 net.cpp:157] Top shape: 4 144 (576)
I0531 18:02:12.883258  4249 net.cpp:165] Memory required for data: 992068256
I0531 18:02:12.883261  4249 layer_factory.hpp:77] Creating layer conv8_2_mbox_priorbox
I0531 18:02:12.883267  4249 net.cpp:100] Creating Layer conv8_2_mbox_priorbox
I0531 18:02:12.883272  4249 net.cpp:434] conv8_2_mbox_priorbox <- conv8_2_conv8_2_relu_0_split_3
I0531 18:02:12.883277  4249 net.cpp:434] conv8_2_mbox_priorbox <- data_data_0_split_5
I0531 18:02:12.883287  4249 net.cpp:408] conv8_2_mbox_priorbox -> conv8_2_mbox_priorbox
I0531 18:02:12.883311  4249 net.cpp:150] Setting up conv8_2_mbox_priorbox
I0531 18:02:12.883316  4249 net.cpp:157] Top shape: 1 2 144 (288)
I0531 18:02:12.883321  4249 net.cpp:165] Memory required for data: 992069408
I0531 18:02:12.883323  4249 layer_factory.hpp:77] Creating layer conv9_2_mbox_loc
I0531 18:02:12.883333  4249 net.cpp:100] Creating Layer conv9_2_mbox_loc
I0531 18:02:12.883337  4249 net.cpp:434] conv9_2_mbox_loc <- conv9_2_conv9_2_relu_0_split_0
I0531 18:02:12.883345  4249 net.cpp:408] conv9_2_mbox_loc -> conv9_2_mbox_loc
I0531 18:02:12.883662  4249 net.cpp:150] Setting up conv9_2_mbox_loc
I0531 18:02:12.883669  4249 net.cpp:157] Top shape: 4 16 1 1 (64)
I0531 18:02:12.883673  4249 net.cpp:165] Memory required for data: 992069664
I0531 18:02:12.883679  4249 layer_factory.hpp:77] Creating layer conv9_2_mbox_loc_perm
I0531 18:02:12.883688  4249 net.cpp:100] Creating Layer conv9_2_mbox_loc_perm
I0531 18:02:12.883694  4249 net.cpp:434] conv9_2_mbox_loc_perm <- conv9_2_mbox_loc
I0531 18:02:12.883702  4249 net.cpp:408] conv9_2_mbox_loc_perm -> conv9_2_mbox_loc_perm
I0531 18:02:12.883775  4249 net.cpp:150] Setting up conv9_2_mbox_loc_perm
I0531 18:02:12.883781  4249 net.cpp:157] Top shape: 4 1 1 16 (64)
I0531 18:02:12.883785  4249 net.cpp:165] Memory required for data: 992069920
I0531 18:02:12.883788  4249 layer_factory.hpp:77] Creating layer conv9_2_mbox_loc_flat
I0531 18:02:12.883795  4249 net.cpp:100] Creating Layer conv9_2_mbox_loc_flat
I0531 18:02:12.883800  4249 net.cpp:434] conv9_2_mbox_loc_flat <- conv9_2_mbox_loc_perm
I0531 18:02:12.883812  4249 net.cpp:408] conv9_2_mbox_loc_flat -> conv9_2_mbox_loc_flat
I0531 18:02:12.883833  4249 net.cpp:150] Setting up conv9_2_mbox_loc_flat
I0531 18:02:12.883838  4249 net.cpp:157] Top shape: 4 16 (64)
I0531 18:02:12.883842  4249 net.cpp:165] Memory required for data: 992070176
I0531 18:02:12.883846  4249 layer_factory.hpp:77] Creating layer conv9_2_mbox_conf
I0531 18:02:12.883855  4249 net.cpp:100] Creating Layer conv9_2_mbox_conf
I0531 18:02:12.883859  4249 net.cpp:434] conv9_2_mbox_conf <- conv9_2_conv9_2_relu_0_split_1
I0531 18:02:12.883867  4249 net.cpp:408] conv9_2_mbox_conf -> conv9_2_mbox_conf
I0531 18:02:12.884188  4249 net.cpp:150] Setting up conv9_2_mbox_conf
I0531 18:02:12.884194  4249 net.cpp:157] Top shape: 4 16 1 1 (64)
I0531 18:02:12.884198  4249 net.cpp:165] Memory required for data: 992070432
I0531 18:02:12.884204  4249 layer_factory.hpp:77] Creating layer conv9_2_mbox_conf_perm
I0531 18:02:12.884210  4249 net.cpp:100] Creating Layer conv9_2_mbox_conf_perm
I0531 18:02:12.884215  4249 net.cpp:434] conv9_2_mbox_conf_perm <- conv9_2_mbox_conf
I0531 18:02:12.884223  4249 net.cpp:408] conv9_2_mbox_conf_perm -> conv9_2_mbox_conf_perm
I0531 18:02:12.884299  4249 net.cpp:150] Setting up conv9_2_mbox_conf_perm
I0531 18:02:12.884305  4249 net.cpp:157] Top shape: 4 1 1 16 (64)
I0531 18:02:12.884308  4249 net.cpp:165] Memory required for data: 992070688
I0531 18:02:12.884312  4249 layer_factory.hpp:77] Creating layer conv9_2_mbox_conf_flat
I0531 18:02:12.884318  4249 net.cpp:100] Creating Layer conv9_2_mbox_conf_flat
I0531 18:02:12.884325  4249 net.cpp:434] conv9_2_mbox_conf_flat <- conv9_2_mbox_conf_perm
I0531 18:02:12.884331  4249 net.cpp:408] conv9_2_mbox_conf_flat -> conv9_2_mbox_conf_flat
I0531 18:02:12.884351  4249 net.cpp:150] Setting up conv9_2_mbox_conf_flat
I0531 18:02:12.884356  4249 net.cpp:157] Top shape: 4 16 (64)
I0531 18:02:12.884361  4249 net.cpp:165] Memory required for data: 992070944
I0531 18:02:12.884363  4249 layer_factory.hpp:77] Creating layer conv9_2_mbox_priorbox
I0531 18:02:12.884371  4249 net.cpp:100] Creating Layer conv9_2_mbox_priorbox
I0531 18:02:12.884376  4249 net.cpp:434] conv9_2_mbox_priorbox <- conv9_2_conv9_2_relu_0_split_2
I0531 18:02:12.884382  4249 net.cpp:434] conv9_2_mbox_priorbox <- data_data_0_split_6
I0531 18:02:12.884389  4249 net.cpp:408] conv9_2_mbox_priorbox -> conv9_2_mbox_priorbox
I0531 18:02:12.884410  4249 net.cpp:150] Setting up conv9_2_mbox_priorbox
I0531 18:02:12.884415  4249 net.cpp:157] Top shape: 1 2 16 (32)
I0531 18:02:12.884419  4249 net.cpp:165] Memory required for data: 992071072
I0531 18:02:12.884423  4249 layer_factory.hpp:77] Creating layer mbox_loc
I0531 18:02:12.884431  4249 net.cpp:100] Creating Layer mbox_loc
I0531 18:02:12.884436  4249 net.cpp:434] mbox_loc <- conv4_3_norm_mbox_loc_flat
I0531 18:02:12.884443  4249 net.cpp:434] mbox_loc <- fc7_mbox_loc_flat
I0531 18:02:12.884449  4249 net.cpp:434] mbox_loc <- conv6_2_mbox_loc_flat
I0531 18:02:12.884452  4249 net.cpp:434] mbox_loc <- conv7_2_mbox_loc_flat
I0531 18:02:12.884457  4249 net.cpp:434] mbox_loc <- conv8_2_mbox_loc_flat
I0531 18:02:12.884464  4249 net.cpp:434] mbox_loc <- conv9_2_mbox_loc_flat
I0531 18:02:12.884471  4249 net.cpp:408] mbox_loc -> mbox_loc
I0531 18:02:12.884492  4249 net.cpp:150] Setting up mbox_loc
I0531 18:02:12.884498  4249 net.cpp:157] Top shape: 4 34928 (139712)
I0531 18:02:12.884502  4249 net.cpp:165] Memory required for data: 992629920
I0531 18:02:12.884506  4249 layer_factory.hpp:77] Creating layer mbox_conf
I0531 18:02:12.884512  4249 net.cpp:100] Creating Layer mbox_conf
I0531 18:02:12.884517  4249 net.cpp:434] mbox_conf <- conv4_3_norm_mbox_conf_flat
I0531 18:02:12.884523  4249 net.cpp:434] mbox_conf <- fc7_mbox_conf_flat
I0531 18:02:12.884528  4249 net.cpp:434] mbox_conf <- conv6_2_mbox_conf_flat
I0531 18:02:12.884533  4249 net.cpp:434] mbox_conf <- conv7_2_mbox_conf_flat
I0531 18:02:12.884538  4249 net.cpp:434] mbox_conf <- conv8_2_mbox_conf_flat
I0531 18:02:12.884543  4249 net.cpp:434] mbox_conf <- conv9_2_mbox_conf_flat
I0531 18:02:12.884555  4249 net.cpp:408] mbox_conf -> mbox_conf
I0531 18:02:12.884577  4249 net.cpp:150] Setting up mbox_conf
I0531 18:02:12.884582  4249 net.cpp:157] Top shape: 4 34928 (139712)
I0531 18:02:12.884587  4249 net.cpp:165] Memory required for data: 993188768
I0531 18:02:12.884589  4249 layer_factory.hpp:77] Creating layer mbox_priorbox
I0531 18:02:12.884596  4249 net.cpp:100] Creating Layer mbox_priorbox
I0531 18:02:12.884601  4249 net.cpp:434] mbox_priorbox <- conv4_3_norm_mbox_priorbox
I0531 18:02:12.884606  4249 net.cpp:434] mbox_priorbox <- fc7_mbox_priorbox
I0531 18:02:12.884613  4249 net.cpp:434] mbox_priorbox <- conv6_2_mbox_priorbox
I0531 18:02:12.884616  4249 net.cpp:434] mbox_priorbox <- conv7_2_mbox_priorbox
I0531 18:02:12.884620  4249 net.cpp:434] mbox_priorbox <- conv8_2_mbox_priorbox
I0531 18:02:12.884626  4249 net.cpp:434] mbox_priorbox <- conv9_2_mbox_priorbox
I0531 18:02:12.884631  4249 net.cpp:408] mbox_priorbox -> mbox_priorbox
I0531 18:02:12.884652  4249 net.cpp:150] Setting up mbox_priorbox
I0531 18:02:12.884657  4249 net.cpp:157] Top shape: 1 2 34928 (69856)
I0531 18:02:12.884662  4249 net.cpp:165] Memory required for data: 993468192
I0531 18:02:12.884665  4249 layer_factory.hpp:77] Creating layer mbox_conf_reshape
I0531 18:02:12.884672  4249 net.cpp:100] Creating Layer mbox_conf_reshape
I0531 18:02:12.884676  4249 net.cpp:434] mbox_conf_reshape <- mbox_conf
I0531 18:02:12.884685  4249 net.cpp:408] mbox_conf_reshape -> mbox_conf_reshape
I0531 18:02:12.884713  4249 net.cpp:150] Setting up mbox_conf_reshape
I0531 18:02:12.884719  4249 net.cpp:157] Top shape: 4 8732 4 (139712)
I0531 18:02:12.884722  4249 net.cpp:165] Memory required for data: 994027040
I0531 18:02:12.884727  4249 layer_factory.hpp:77] Creating layer mbox_conf_softmax
I0531 18:02:12.884733  4249 net.cpp:100] Creating Layer mbox_conf_softmax
I0531 18:02:12.884737  4249 net.cpp:434] mbox_conf_softmax <- mbox_conf_reshape
I0531 18:02:12.884744  4249 net.cpp:408] mbox_conf_softmax -> mbox_conf_softmax
I0531 18:02:12.884793  4249 net.cpp:150] Setting up mbox_conf_softmax
I0531 18:02:12.884799  4249 net.cpp:157] Top shape: 4 8732 4 (139712)
I0531 18:02:12.884804  4249 net.cpp:165] Memory required for data: 994585888
I0531 18:02:12.884806  4249 layer_factory.hpp:77] Creating layer mbox_conf_flatten
I0531 18:02:12.884812  4249 net.cpp:100] Creating Layer mbox_conf_flatten
I0531 18:02:12.884816  4249 net.cpp:434] mbox_conf_flatten <- mbox_conf_softmax
I0531 18:02:12.884824  4249 net.cpp:408] mbox_conf_flatten -> mbox_conf_flatten
I0531 18:02:12.884845  4249 net.cpp:150] Setting up mbox_conf_flatten
I0531 18:02:12.884851  4249 net.cpp:157] Top shape: 4 34928 (139712)
I0531 18:02:12.884855  4249 net.cpp:165] Memory required for data: 995144736
I0531 18:02:12.884858  4249 layer_factory.hpp:77] Creating layer detection_out
I0531 18:02:12.884877  4249 net.cpp:100] Creating Layer detection_out
I0531 18:02:12.884884  4249 net.cpp:434] detection_out <- mbox_loc
I0531 18:02:12.884889  4249 net.cpp:434] detection_out <- mbox_conf_flatten
I0531 18:02:12.884894  4249 net.cpp:434] detection_out <- mbox_priorbox
I0531 18:02:12.884902  4249 net.cpp:408] detection_out -> detection_out
I0531 18:02:12.886077  4249 net.cpp:150] Setting up detection_out
I0531 18:02:12.886086  4249 net.cpp:157] Top shape: 1 1 1 7 (7)
I0531 18:02:12.886090  4249 net.cpp:165] Memory required for data: 995144764
I0531 18:02:12.886095  4249 layer_factory.hpp:77] Creating layer detection_eval
I0531 18:02:12.886102  4249 net.cpp:100] Creating Layer detection_eval
I0531 18:02:12.886107  4249 net.cpp:434] detection_eval <- detection_out
I0531 18:02:12.886112  4249 net.cpp:434] detection_eval <- label
I0531 18:02:12.886121  4249 net.cpp:408] detection_eval -> detection_eval
I0531 18:02:12.886839  4249 net.cpp:150] Setting up detection_eval
I0531 18:02:12.886847  4249 net.cpp:157] Top shape: 1 1 4 5 (20)
I0531 18:02:12.886850  4249 net.cpp:165] Memory required for data: 995144844
I0531 18:02:12.886853  4249 net.cpp:228] detection_eval does not need backward computation.
I0531 18:02:12.886868  4249 net.cpp:228] detection_out does not need backward computation.
I0531 18:02:12.886873  4249 net.cpp:228] mbox_conf_flatten does not need backward computation.
I0531 18:02:12.886878  4249 net.cpp:228] mbox_conf_softmax does not need backward computation.
…
