…
        min_scale: 0.3
        max_scale: 1
        min_aspect_ratio: 0.5
        max_aspect_ratio: 2
      }
      sample_constraint {
        min_jaccard_overlap: 0.9
      }
      max_sample: 1
      max_trials: 50
    }
    batch_sampler {
      sampler {
        min_scale: 0.3
        max_scale: 1
        min_aspect_ratio: 0.5
        max_aspect_ratio: 2
      }
      sample_constraint {
        max_jaccard_overlap: 1
      }
      max_sample: 1
      max_trials: 50
    }
    label_map_file: "data/tbs_300x300_HSIL_10x/labelmap_tbs.prototxt"
  }
}
layer {
  name: "conv1_1"
  type: "Convolution"
  bottom: "data"
  top: "conv1_1"
  param {
    lr_mult: 1
    decay_mult: 1
  }
  param {
    lr_mult: 2
    decay_mult: 0
  }
  convolution_param {
    num_output: 64
    pad: 1
    kernel_size: 3
    weight_filler {
      type: "xavier"
    }
    bias_filler {
      type: "constant"
      value: 0
    }
  }
}
layer {
  name: "relu1_1"
  type: "ReLU"
  bottom: "conv1_1"
  top: "conv1_1"
}
layer {
  name: "conv1_2"
  type: "Convolution"
  bottom: "conv1_1"
  top: "conv1_2"
  param {
    lr_mult: 1
    decay_mult: 1
  }
  param {
    lr_mult: 2
    decay_mult: 0
  }
  convolution_param {
    num_output: 64
    pad: 1
    kernel_size: 3
    weight_filler {
      type: "xavier"
    }
    bias_filler {
      type: "constant"
      value: 0
    }
  }
}
layer {
  name: "relu1_2"
  type: "ReLU"
  bottom: "conv1_2"
  top: "conv1_2"
}
layer {
  name: "pool1"
  type: "Pooling"
  bottom: "conv1_2"
  top: "pool1"
  pooling_param {
    pool: MAX
    kernel_size: 2
    stride: 2
  }
}
layer {
  name: "conv2_1"
  type: "Convolution"
  bottom: "pool1"
  top: "conv2_1"
  param {
    lr_mult: 1
    decay_mult: 1
  }
  param {
    lr_mult: 2
    decay_mult: 0
  }
  convolution_param {
    num_output: 128
    pad: 1
    kernel_size: 3
    weight_filler {
      type: "xavier"
    }
    bias_filler {
      type: "constant"
      value: 0
    }
  }
}
layer {
  name: "relu2_1"
  type: "ReLU"
  bottom: "conv2_1"
  top: "conv2_1"
}
layer {
  name: "conv2_2"
  type: "Convolution"
  bottom: "conv2_1"
  top: "conv2_2"
  param {
    lr_mult: 1
    decay_mult: 1
  }
  param {
    lr_mult: 2
    decay_mult: 0
  }
  convolution_param {
    num_output: 128
    pad: 1
    kernel_size: 3
    weight_filler {
      type: "xavier"
    }
    bias_filler {
      type: "constant"
      value: 0
    }
  }
}
layer {
  name: "relu2_2"
  type: "ReLU"
  bottom: "conv2_2"
  top: "conv2_2"
}
layer {
  name: "pool2"
  type: "Pooling"
  bottom: "conv2_2"
  top: "pool2"
  pooling_param {
    pool: MAX
    kernel_size: 2
    stride: 2
  }
}
layer {
  name: "conv3_1"
  type: "Convolution"
  bottom: "pool2"
  top: "conv3_1"
  param {
    lr_mult: 1
    decay_mult: 1
  }
  param {
    lr_mult: 2
    decay_mult: 0
  }
  convolution_param {
    num_output: 256
    pad: 1
    kernel_size: 3
    weight_filler {
      type: "xavier"
    }
    bias_filler {
      type: "constant"
      value: 0
    }
  }
}
layer {
  name: "relu3_1"
  type: "ReLU"
  bottom: "conv3_1"
  top: "conv3_1"
}
layer {
  name: "conv3_2"
  type: "Convolution"
  bottom: "conv3_1"
  top: "conv3_2"
  param {
    lr_mult: 1
    decay_mult: 1
  }
  param {
    lr_mult: 2
    decay_mult: 0
  }
  convolution_param {
    num_output: 256
    pad: 1
    kernel_size: 3
    weight_filler {
      type: "xavier"
    }
    bias_filler {
      type: "constant"
      value: 0
    }
  }
}
layer {
  name: "relu3_2"
  type: "ReLU"
  bottom: "conv3_2"
  top: "conv3_2"
}
layer {
  name: "conv3_3"
  type: "Convolution"
  bottom: "conv3_2"
  top: "conv3_3"
  param {
    lr_mult: 1
    decay_mult: 1
  }
  param {
    lr_mult: 2
    decay_mult: 0
  }
  convolution_param {
    num_output: 256
    pad: 1
    kernel_size: 3
    weight_filler {
      type: "xavier"
    }
    bias_filler {
      type: "constant"
      value: 0
    }
  }
}
layer {
  name: "relu3_3"
  type: "ReLU"
  bottom: "conv3_3"
  top: "conv3_3"
}
layer {
  name: "pool3"
  type: "Pooling"
  bottom: "conv3_3"
  top: "pool3"
  pooling_param {
    pool: MAX
    kernel_size: 2
    stride: 2
  }
}
layer {
  name: "conv4_1"
  type: "Convolution"
  bottom: "pool3"
  top: "conv4_1"
  param {
    lr_mult: 1
    decay_mult: 1
  }
  param {
    lr_mult: 2
    decay_mult: 0
  }
  convolution_param {
    num_output: 512
    pad: 1
    kernel_size: 3
    weight_filler {
      type: "xavier"
    }
    bias_filler {
      type: "constant"
      value: 0
    }
  }
}
layer {
  name: "relu4_1"
  type: "ReLU"
  bottom: "conv4_1"
  top: "conv4_1"
}
layer {
  name: "conv4_2"
  type: "Convolution"
  bottom: "conv4_1"
  top: "conv4_2"
  param {
    lr_mult: 1
    decay_mult: 1
  }
  param {
    lr_mult: 2
    decay_mult: 0
  }
  convolution_param {
    num_output: 512
    pad: 1
    kernel_size: 3
    weight_filler {
      type: "xavier"
    }
    bias_filler {
      type: "constant"
      value: 0
    }
  }
}
layer {
  name: "relu4_2"
  type: "ReLU"
  bottom: "conv4_2"
  top: "conv4_2"
}
layer {
  name: "conv4_3"
  type: "Convolution"
  bottom: "conv4_2"
  top: "conv4_3"
  param {
    lr_mult: 1
    decay_mult: 1
  }
  param {
    lr_mult: 2
    decay_mult: 0
  }
  convolution_param {
    num_output: 512
    pad: 1
    kernel_size: 3
    weight_filler {
      type: "xavier"
    }
    bias_filler {
      type: "constant"
      value: 0
    }
  }
}
layer {
  name: "relu4_3"
  type: "ReLU"
  bottom: "conv4_3"
  top: "conv4_3"
}
layer {
  name: "pool4"
  type: "Pooling"
  bottom: "conv4_3"
  top: "pool4"
  pooling_param {
    pool: MAX
    kernel_size: 2
    stride: 2
  }
}
layer {
  name: "conv5_1"
  type: "Convolution"
  bottom: "pool4"
  top: "conv5_1"
  param {
    lr_mult: 1
    decay_mult: 1
  }
  param {
    lr_mult: 2
    decay_mult: 0
  }
  convolution_param {
    num_output: 512
    pad: 1
    kernel_size: 3
    weight_filler {
      type: "xavier"
    }
    bias_filler {
      type: "constant"
      value: 0
    }
    dilation: 1
  }
}
layer {
  name: "relu5_1"
  type: "ReLU"
  bottom: "conv5_1"
  top: "conv5_1"
}
layer {
  name: "conv5_2"
  type: "Convolution"
  bottom: "conv5_1"
  top: "conv5_2"
  param {
    lr_mult: 1
    decay_mult: 1
  }
  param {
    lr_mult: 2
    decay_mult: 0
  }
  convolution_param {
    num_output: 512
    pad: 1
    kernel_size: 3
    weight_filler {
      type: "xavier"
    }
    bias_filler {
      type: "constant"
      value: 0
    }
    dilation: 1
  }
}
layer {
  name: "relu5_2"
  type: "ReLU"
  bottom: "conv5_2"
  top: "conv5_2"
}
layer {
  name: "conv5_3"
  type: "Convolution"
  bottom: "conv5_2"
  top: "conv5_3"
  param {
    lr_mult: 1
    decay_mult: 1
  }
  param {
    lr_mult: 2
    decay_mult: 0
  }
  convolution_param {
    num_output: 512
    pad: 1
    kernel_size: 3
    weight_filler {
      type: "xavier"
    }
    bias_filler {
      type: "constant"
      value: 0
    }
    dilation: 1
  }
}
layer {
  name: "relu5_3"
  type: "ReLU"
  bottom: "conv5_3"
  top: "conv5_3"
}
layer {
  name: "pool5"
  type: "Pooling"
  bottom: "conv5_3"
  top: "pool5"
  pooling_param {
    pool: MAX
    kernel_size: 3
    stride: 1
    pad: 1
  }
}
layer {
  name: "fc6"
  type: "Convolution"
  bottom: "pool5"
  top: "fc6"
  param {
    lr_mult: 1
    decay_mult: 1
  }
  param {
    lr_mult: 2
    decay_mult: 0
  }
  convolution_param {
    num_output: 1024
    pad: 6
    kernel_size: 3
    weight_filler {
      type: "xavier"
    }
    bias_filler {
      type: "constant"
      value: 0
    }
    dilation: 6
  }
}
layer {
  name: "relu6"
  type: "ReLU"
  bottom: "fc6"
  top: "fc6"
}
layer {
  name: "fc7"
  type: "Convolution"
  bottom: "fc6"
  top: "fc7"
  param {
    lr_mult: 1
    decay_mult: 1
  }
  param {
    lr_mult: 2
    decay_mult: 0
  }
  convolution_param {
    num_output: 1024
    kernel_size: 1
    weight_filler {
      type: "xavier"
    }
    bias_filler {
      type: "constant"
      value: 0
    }
  }
}
layer {
  name: "relu7"
  type: "ReLU"
  bottom: "fc7"
  top: "fc7"
}
layer {
  name: "conv6_1"
  type: "Convolution"
  bottom: "fc7"
  top: "conv6_1"
  param {
    lr_mult: 1
    decay_mult: 1
  }
  param {
    lr_mult: 2
    decay_mult: 0
  }
  convolution_param {
    num_output: 256
    pad: 0
    kernel_size: 1
    stride: 1
    weight_filler {
      type: "xavier"
    }
    bias_filler {
      type: "constant"
      value: 0
    }
  }
}
layer {
  name: "conv6_1_relu"
  type: "ReLU"
  bottom: "conv6_1"
  top: "conv6_1"
}
layer {
  name: "conv6_2"
  type: "Convolution"
  bottom: "conv6_1"
  top: "conv6_2"
  param {
    lr_mult: 1
    decay_mult: 1
  }
  param {
    lr_mult: 2
    decay_mult: 0
  }
  convolution_param {
    num_output: 512
    pad: 1
    kernel_size: 3
    stride: 2
    weight_filler {
      type: "xavier"
    }
    bias_filler {
      type: "constant"
      value: 0
    }
  }
}
layer {
  name: "conv6_2_relu"
  type: "ReLU"
  bottom: "conv6_2"
  top: "conv6_2"
}
layer {
  name: "conv7_1"
  type: "Convolution"
  bottom: "conv6_2"
  top: "conv7_1"
  param {
    lr_mult: 1
    decay_mult: 1
  }
  param {
    lr_mult: 2
    decay_mult: 0
  }
  convolution_param {
    num_output: 128
    pad: 0
    kernel_size: 1
    stride: 1
    weight_filler {
      type: "xavier"
    }
    bias_filler {
      type: "constant"
      value: 0
    }
  }
}
layer {
  name: "conv7_1_relu"
  type: "ReLU"
  bottom: "conv7_1"
  top: "conv7_1"
}
layer {
  name: "conv7_2"
  type: "Convolution"
  bottom: "conv7_1"
  top: "conv7_2"
  param {
    lr_mult: 1
    decay_mult: 1
  }
  param {
    lr_mult: 2
    decay_mult: 0
  }
  convolution_param {
    num_output: 256
    pad: 1
    kernel_size: 3
    stride: 2
    weight_filler {
      type: "xavier"
    }
    bias_filler {
      type: "constant"
      value: 0
    }
  }
}
layer {
  name: "conv7_2_relu"
  type: "ReLU"
  bottom: "conv7_2"
  top: "conv7_2"
}
layer {
  name: "conv8_1"
  type: "Convolution"
  bottom: "conv7_2"
  top: "conv8_1"
  param {
    lr_mult: 1
    decay_mult: 1
  }
  param {
    lr_mult: 2
    decay_mult: 0
  }
  convolution_param {
    num_output: 128
    pad: 0
    kernel_size: 1
    stride: 1
    weight_filler {
      type: "xavier"
    }
    bias_filler {
      type: "constant"
      value: 0
    }
  }
}
layer {
  name: "conv8_1_relu"
  type: "ReLU"
  bottom: "conv8_1"
  top: "conv8_1"
}
layer {
  name: "conv8_2"
  type: "Convolution"
  bottom: "conv8_1"
  top: "conv8_2"
  param {
    lr_mult: 1
    decay_mult: 1
  }
  param {
    lr_mult: 2
    decay_mult: 0
  }
  convolution_param {
    num_output: 256
    pad: 0
    kernel_size: 3
    stride: 1
    weight_filler {
      type: "xavier"
    }
    bias_filler {
      type: "constant"
      value: 0
    }
  }
}
layer {
  name: "conv8_2_relu"
  type: "ReLU"
  bottom: "conv8_2"
  top: "conv8_2"
}
layer {
  name: "conv9_1"
  type: "Convolution"
  bottom: "conv8_2"
  top: "conv9_1"
  param {
    lr_mult: 1
    decay_mult: 1
  }
  param {
    lr_mult: 2
    decay_mult: 0
  }
  convolution_param {
    num_output: 128
    pad: 0
    kernel_size: 1
    stride: 1
    weight_filler {
      type: "xavier"
    }
    bias_filler {
      type: "constant"
      value: 0
    }
  }
}
layer {
  name: "conv9_1_relu"
  type: "ReLU"
  bottom: "conv9_1"
  top: "conv9_1"
}
layer {
  name: "conv9_2"
  type: "Convolution"
  bottom: "conv9_1"
  top: "conv9_2"
  param {
    lr_mult: 1
    decay_mult: 1
  }
  param {
    lr_mult: 2
    decay_mult: 0
  }
  convolution_param {
    num_output: 256
    pad: 0
    kernel_size: 3
    stride: 1
    weight_filler {
      type: "xavier"
    }
    bias_filler {
      type: "constant"
      value: 0
    }
  }
}
layer {
  name: "conv9_2_relu"
  type: "ReLU"
  bottom: "conv9_2"
  top: "conv9_2"
}
layer {
  name: "conv4_3_norm"
  type: "Normalize"
  bottom: "conv4_3"
  top: "conv4_3_norm"
  norm_param {
    across_spatial: false
    scale_filler {
      type: "constant"
      value: 20
    }
    channel_shared: false
  }
}
layer {
  name: "conv4_3_norm_mbox_loc"
  type: "Convolution"
  bottom: "conv4_3_norm"
  top: "conv4_3_norm_mbox_loc"
  param {
    lr_mult: 1
    decay_mult: 1
  }
  param {
    lr_mult: 2
    decay_mult: 0
  }
  convolution_param {
    num_output: 16
    pad: 1
    kernel_size: 3
    stride: 1
    weight_filler {
      type: "xavier"
    }
    bias_filler {
      type: "constant"
      value: 0
    }
  }
}
layer {
  name: "conv4_3_norm_mbox_loc_perm"
  type: "Permute"
  bottom: "conv4_3_norm_mbox_loc"
  top: "conv4_3_norm_mbox_loc_perm"
  permute_param {
    order: 0
    order: 2
    order: 3
    order: 1
  }
}
layer {
  name: "conv4_3_norm_mbox_loc_flat"
  type: "Flatten"
  bottom: "conv4_3_norm_mbox_loc_perm"
  top: "conv4_3_norm_mbox_loc_flat"
  flatten_param {
    axis: 1
  }
}
layer {
  name: "conv4_3_norm_mbox_conf"
  type: "Convolution"
  bottom: "conv4_3_norm"
  top: "conv4_3_norm_mbox_conf"
  param {
    lr_mult: 1
    decay_mult: 1
  }
  param {
    lr_mult: 2
    decay_mult: 0
  }
  convolution_param {
    num_output: 16
    pad: 1
    kernel_size: 3
    stride: 1
    weight_filler {
      type: "xavier"
    }
    bias_filler {
      type: "constant"
      value: 0
    }
  }
}
layer {
  name: "conv4_3_norm_mbox_conf_perm"
  type: "Permute"
  bottom: "conv4_3_norm_mbox_conf"
  top: "conv4_3_norm_mbox_conf_perm"
  permute_param {
    order: 0
    order: 2
    order: 3
    order: 1
  }
}
layer {
  name: "conv4_3_norm_mbox_conf_flat"
  type: "Flatten"
  bottom: "conv4_3_norm_mbox_conf_perm"
  top: "conv4_3_norm_mbox_conf_flat"
  flatten_param {
    axis: 1
  }
}
layer {
  name: "conv4_3_norm_mbox_priorbox"
  type: "PriorBox"
  bottom: "conv4_3_norm"
  bottom: "data"
  top: "conv4_3_norm_mbox_priorbox"
  prior_box_param {
    min_size: 30
    max_size: 60
    aspect_ratio: 2
    flip: true
    clip: false
    variance: 0.1
    variance: 0.1
    variance: 0.2
    variance: 0.2
    step: 8
    offset: 0.5
  }
}
layer {
  name: "fc7_mbox_loc"
  type: "Convolution"
  bottom: "fc7"
  top: "fc7_mbox_loc"
  param {
    lr_mult: 1
    decay_mult: 1
  }
  param {
    lr_mult: 2
    decay_mult: 0
  }
  convolution_param {
    num_output: 24
    pad: 1
    kernel_size: 3
    stride: 1
    weight_filler {
      type: "xavier"
    }
    bias_filler {
      type: "constant"
      value: 0
    }
  }
}
layer {
  name: "fc7_mbox_loc_perm"
  type: "Permute"
  bottom: "fc7_mbox_loc"
  top: "fc7_mbox_loc_perm"
  permute_param {
    order: 0
    order: 2
    order: 3
    order: 1
  }
}
layer {
  name: "fc7_mbox_loc_flat"
  type: "Flatten"
  bottom: "fc7_mbox_loc_perm"
  top: "fc7_mbox_loc_flat"
  flatten_param {
    axis: 1
  }
}
layer {
  name: "fc7_mbox_conf"
  type: "Convolution"
  bottom: "fc7"
  top: "fc7_mbox_conf"
  param {
    lr_mult: 1
    decay_mult: 1
  }
  param {
    lr_mult: 2
    decay_mult: 0
  }
  convolution_param {
    num_output: 24
    pad: 1
    kernel_size: 3
    stride: 1
    weight_filler {
      type: "xavier"
    }
    bias_filler {
      type: "constant"
      value: 0
    }
  }
}
layer {
  name: "fc7_mbox_conf_perm"
  type: "Permute"
  bottom: "fc7_mbox_conf"
  top: "fc7_mbox_conf_perm"
  permute_param {
    order: 0
    order: 2
    order: 3
    order: 1
  }
}
layer {
  name: "fc7_mbox_conf_flat"
  type: "Flatten"
  bottom: "fc7_mbox_conf_perm"
  top: "fc7_mbox_conf_flat"
  flatten_param {
    axis: 1
  }
}
layer {
  name: "fc7_mbox_priorbox"
  type: "PriorBox"
  bottom: "fc7"
  bottom: "data"
  top: "fc7_mbox_priorbox"
  prior_box_param {
    min_size: 60
    max_size: 111
    aspect_ratio: 2
    aspect_ratio: 3
    flip: true
    clip: false
    variance: 0.1
    variance: 0.1
    variance: 0.2
    variance: 0.2
    step: 16
    offset: 0.5
  }
}
layer {
  name: "conv6_2_mbox_loc"
  type: "Convolution"
  bottom: "conv6_2"
  top: "conv6_2_mbox_loc"
  param {
    lr_mult: 1
    decay_mult: 1
  }
  param {
    lr_mult: 2
    decay_mult: 0
  }
  convolution_param {
    num_output: 24
    pad: 1
    kernel_size: 3
    stride: 1
    weight_filler {
      type: "xavier"
    }
    bias_filler {
      type: "constant"
      value: 0
    }
  }
}
layer {
  name: "conv6_2_mbox_loc_perm"
  type: "Permute"
  bottom: "conv6_2_mbox_loc"
  top: "conv6_2_mbox_loc_perm"
  permute_param {
    order: 0
    order: 2
    order: 3
    order: 1
  }
}
layer {
  name: "conv6_2_mbox_loc_flat"
  type: "Flatten"
  bottom: "conv6_2_mbox_loc_perm"
  top: "conv6_2_mbox_loc_flat"
  flatten_param {
    axis: 1
  }
}
layer {
  name: "conv6_2_mbox_conf"
  type: "Convolution"
  bottom: "conv6_2"
  top: "conv6_2_mbox_conf"
  param {
    lr_mult: 1
    decay_mult: 1
  }
  param {
    lr_mult: 2
    decay_mult: 0
  }
  convolution_param {
    num_output: 24
    pad: 1
    kernel_size: 3
    stride: 1
    weight_filler {
      type: "xavier"
    }
    bias_filler {
      type: "constant"
      value: 0
    }
  }
}
layer {
  name: "conv6_2_mbox_conf_perm"
  type: "Permute"
  bottom: "conv6_2_mbox_conf"
  top: "conv6_2_mbox_conf_perm"
  permute_param {
    order: 0
    order: 2
    order: 3
    order: 1
  }
}
layer {
  name: "conv6_2_mbox_conf_flat"
  type: "Flatten"
  bottom: "conv6_2_mbox_conf_perm"
  top: "conv6_2_mbox_conf_flat"
  flatten_param {
    axis: 1
  }
}
layer {
  name: "conv6_2_mbox_priorbox"
  type: "PriorBox"
  bottom: "conv6_2"
  bottom: "data"
  top: "conv6_2_mbox_priorbox"
  prior_box_param {
    min_size: 111
    max_size: 162
    aspect_ratio: 2
    aspect_ratio: 3
    flip: true
    clip: false
    variance: 0.1
    variance: 0.1
    variance: 0.2
    variance: 0.2
    step: 32
    offset: 0.5
  }
}
layer {
  name: "conv7_2_mbox_loc"
  type: "Convolution"
  bottom: "conv7_2"
  top: "conv7_2_mbox_loc"
  param {
    lr_mult: 1
    decay_mult: 1
  }
  param {
    lr_mult: 2
    decay_mult: 0
  }
  convolution_param {
    num_output: 24
    pad: 1
    kernel_size: 3
    stride: 1
    weight_filler {
      type: "xavier"
    }
    bias_filler {
      type: "constant"
      value: 0
    }
  }
}
layer {
  name: "conv7_2_mbox_loc_perm"
  type: "Permute"
  bottom: "conv7_2_mbox_loc"
  top: "conv7_2_mbox_loc_perm"
  permute_param {
    order: 0
    order: 2
    order: 3
    order: 1
  }
}
layer {
  name: "conv7_2_mbox_loc_flat"
  type: "Flatten"
  bottom: "conv7_2_mbox_loc_perm"
  top: "conv7_2_mbox_loc_flat"
  flatten_param {
    axis: 1
  }
}
layer {
  name: "conv7_2_mbox_conf"
  type: "Convolution"
  bottom: "conv7_2"
  top: "conv7_2_mbox_conf"
  param {
    lr_mult: 1
    decay_mult: 1
  }
  param {
    lr_mult: 2
    decay_mult: 0
  }
  convolution_param {
    num_output: 24
    pad: 1
    kernel_size: 3
    stride: 1
    weight_filler {
      type: "xavier"
    }
    bias_filler {
      type: "constant"
      value: 0
    }
  }
}
layer {
  name: "conv7_2_mbox_conf_perm"
  type: "Permute"
  bottom: "conv7_2_mbox_conf"
  top: "conv7_2_mbox_conf_perm"
  permute_param {
    order: 0
    order: 2
    order: 3
    order: 1
  }
}
layer {
  name: "conv7_2_mbox_conf_flat"
  type: "Flatten"
  bottom: "conv7_2_mbox_conf_perm"
  top: "conv7_2_mbox_conf_flat"
  flatten_param {
    axis: 1
  }
}
layer {
  name: "conv7_2_mbox_priorbox"
  type: "PriorBox"
  bottom: "conv7_2"
  bottom: "data"
  top: "conv7_2_mbox_priorbox"
  prior_box_param {
    min_size: 162
    max_size: 213
    aspect_ratio: 2
    aspect_ratio: 3
    flip: true
    clip: false
    variance: 0.1
    variance: 0.1
    variance: 0.2
    variance: 0.2
    step: 64
    offset: 0.5
  }
}
layer {
  name: "conv8_2_mbox_loc"
  type: "Convolution"
  bottom: "conv8_2"
  top: "conv8_2_mbox_loc"
  param {
    lr_mult: 1
    decay_mult: 1
  }
  param {
    lr_mult: 2
    decay_mult: 0
  }
  convolution_param {
    num_output: 16
    pad: 1
    kernel_size: 3
    stride: 1
    weight_filler {
      type: "xavier"
    }
    bias_filler {
      type: "constant"
      value: 0
    }
  }
}
layer {
  name: "conv8_2_mbox_loc_perm"
  type: "Permute"
  bottom: "conv8_2_mbox_loc"
  top: "conv8_2_mbox_loc_perm"
  permute_param {
    order: 0
    order: 2
    order: 3
    order: 1
  }
}
layer {
  name: "conv8_2_mbox_loc_flat"
  type: "Flatten"
  bottom: "conv8_2_mbox_loc_perm"
  top: "conv8_2_mbox_loc_flat"
  flatten_param {
    axis: 1
  }
}
layer {
  name: "conv8_2_mbox_conf"
  type: "Convolution"
  bottom: "conv8_2"
  top: "conv8_2_mbox_conf"
  param {
    lr_mult: 1
    decay_mult: 1
  }
  param {
    lr_mult: 2
    decay_mult: 0
  }
  convolution_param {
    num_output: 16
    pad: 1
    kernel_size: 3
    stride: 1
    weight_filler {
      type: "xavier"
    }
    bias_filler {
      type: "constant"
      value: 0
    }
  }
}
layer {
  name: "conv8_2_mbox_conf_perm"
  type: "Permute"
  bottom: "conv8_2_mbox_conf"
  top: "conv8_2_mbox_conf_perm"
  permute_param {
    order: 0
    order: 2
    order: 3
    order: 1
  }
}
layer {
  name: "conv8_2_mbox_conf_flat"
  type: "Flatten"
  bottom: "conv8_2_mbox_conf_perm"
  top: "conv8_2_mbox_conf_flat"
  flatten_param {
    axis: 1
  }
}
layer {
  name: "conv8_2_mbox_priorbox"
  type: "PriorBox"
  bottom: "conv8_2"
  bottom: "data"
  top: "conv8_2_mbox_priorbox"
  prior_box_param {
    min_size: 213
    max_size: 264
    aspect_ratio: 2
    flip: true
    clip: false
    variance: 0.1
    variance: 0.1
    variance: 0.2
    variance: 0.2
    step: 100
    offset: 0.5
  }
}
layer {
  name: "conv9_2_mbox_loc"
  type: "Convolution"
  bottom: "conv9_2"
  top: "conv9_2_mbox_loc"
  param {
    lr_mult: 1
    decay_mult: 1
  }
  param {
    lr_mult: 2
    decay_mult: 0
  }
  convolution_param {
    num_output: 16
    pad: 1
    kernel_size: 3
    stride: 1
    weight_filler {
      type: "xavier"
    }
    bias_filler {
      type: "constant"
      value: 0
    }
  }
}
layer {
  name: "conv9_2_mbox_loc_perm"
  type: "Permute"
  bottom: "conv9_2_mbox_loc"
  top: "conv9_2_mbox_loc_perm"
  permute_param {
    order: 0
    order: 2
    order: 3
    order: 1
  }
}
layer {
  name: "conv9_2_mbox_loc_flat"
  type: "Flatten"
  bottom: "conv9_2_mbox_loc_perm"
  top: "conv9_2_mbox_loc_flat"
  flatten_param {
    axis: 1
  }
}
layer {
  name: "conv9_2_mbox_conf"
  type: "Convolution"
  bottom: "conv9_2"
  top: "conv9_2_mbox_conf"
  param {
    lr_mult: 1
    decay_mult: 1
  }
  param {
    lr_mult: 2
    decay_mult: 0
  }
  convolution_param {
    num_output: 16
    pad: 1
    kernel_size: 3
    stride: 1
    weight_filler {
      type: "xavier"
    }
    bias_filler {
      type: "constant"
      value: 0
    }
  }
}
layer {
  name: "conv9_2_mbox_conf_perm"
  type: "Permute"
  bottom: "conv9_2_mbox_conf"
  top: "conv9_2_mbox_conf_perm"
  permute_param {
    order: 0
    order: 2
    order: 3
    order: 1
  }
}
layer {
  name: "conv9_2_mbox_conf_flat"
  type: "Flatten"
  bottom: "conv9_2_mbox_conf_perm"
  top: "conv9_2_mbox_conf_flat"
  flatten_param {
    axis: 1
  }
}
layer {
  name: "conv9_2_mbox_priorbox"
  type: "PriorBox"
  bottom: "conv9_2"
  bottom: "data"
  top: "conv9_2_mbox_priorbox"
  prior_box_param {
    min_size: 264
    max_size: 315
    aspect_ratio: 2
    flip: true
    clip: false
    variance: 0.1
    variance: 0.1
    variance: 0.2
    variance: 0.2
    step: 300
    offset: 0.5
  }
}
layer {
  name: "mbox_loc"
  type: "Concat"
  bottom: "conv4_3_norm_mbox_loc_flat"
  bottom: "fc7_mbox_loc_flat"
  bottom: "conv6_2_mbox_loc_flat"
  bottom: "conv7_2_mbox_loc_flat"
  bottom: "conv8_2_mbox_loc_flat"
  bottom: "conv9_2_mbox_loc_flat"
  top: "mbox_loc"
  concat_param {
    axis: 1
  }
}
layer {
  name: "mbox_conf"
  type: "Concat"
  bottom: "conv4_3_norm_mbox_conf_flat"
  bottom: "fc7_mbox_conf_flat"
  bottom: "conv6_2_mbox_conf_flat"
  bottom: "conv7_2_mbox_conf_flat"
  bottom: "conv8_2_mbox_conf_flat"
  bottom: "conv9_2_mbox_conf_flat"
  top: "mbox_conf"
  concat_param {
    axis: 1
  }
}
layer {
  name: "mbox_priorbox"
  type: "Concat"
  bottom: "conv4_3_norm_mbox_priorbox"
  bottom: "fc7_mbox_priorbox"
  bottom: "conv6_2_mbox_priorbox"
  bottom: "conv7_2_mbox_priorbox"
  bottom: "conv8_2_mbox_priorbox"
  bottom: "conv9_2_mbox_priorbox"
  top: "mbox_priorbox"
  concat_param {
    axis: 2
  }
}
layer {
  name: "mbox_loss"
  type: "MultiBoxLoss"
  bottom: "mbox_loc"
  bottom: "mbox_conf"
  bottom: "mbox_priorbox"
  bottom: "label"
  top: "mbox_loss"
  include {
    phase: TRAIN
  }
  propagate_down: true
  propagate_down: true
  propagate_down: false
  propagate_down: false
  loss_param {
    normalization: VALID
  }
  multibox_loss_param {
    loc_loss_type: SMOOTH_L1
    conf_loss_type: SOFTMAX
    loc_weight: 1
    num_classes: 4
    share_location: true
    match_type: PER_PREDICTION
    overlap_threshold: 0.5
    use_prior_for_matching: true
    background_label_id: 0
    use_difficult_gt: true
    neg_pos_ratio: 3
    neg_overlap: 0.5
    code_type: CENTER_SIZE
    ignore_cross_boundary_bbox: false
    mining_type: MAX_NEGATIVE
  }
}
I0601 10:17:57.231184 14411 layer_factory.hpp:77] Creating layer data
I0601 10:17:57.231338 14411 net.cpp:100] Creating Layer data
I0601 10:17:57.231353 14411 net.cpp:408] data -> data
I0601 10:17:57.231389 14411 net.cpp:408] data -> label
I0601 10:17:57.231750 14428 db_lmdb.cpp:35] Opened lmdb examples/tbs_300x300_HSIL_10x/tbs_300x300_HSIL_10x_trainval_lmdb
I0601 10:17:57.240511 14411 annotated_data_layer.cpp:62] output data size: 32,3,300,300
I0601 10:17:57.299783 14411 net.cpp:150] Setting up data
I0601 10:17:57.299803 14411 net.cpp:157] Top shape: 32 3 300 300 (8640000)
I0601 10:17:57.299821 14411 net.cpp:157] Top shape: 1 1 1 8 (8)
I0601 10:17:57.299839 14411 net.cpp:165] Memory required for data: 34560032
I0601 10:17:57.299847 14411 layer_factory.hpp:77] Creating layer data_data_0_split
I0601 10:17:57.299871 14411 net.cpp:100] Creating Layer data_data_0_split
I0601 10:17:57.299890 14411 net.cpp:434] data_data_0_split <- data
I0601 10:17:57.299901 14411 net.cpp:408] data_data_0_split -> data_data_0_split_0
I0601 10:17:57.299911 14411 net.cpp:408] data_data_0_split -> data_data_0_split_1
I0601 10:17:57.299916 14411 net.cpp:408] data_data_0_split -> data_data_0_split_2
I0601 10:17:57.299922 14411 net.cpp:408] data_data_0_split -> data_data_0_split_3
I0601 10:17:57.299928 14411 net.cpp:408] data_data_0_split -> data_data_0_split_4
I0601 10:17:57.299932 14411 net.cpp:408] data_data_0_split -> data_data_0_split_5
I0601 10:17:57.299937 14411 net.cpp:408] data_data_0_split -> data_data_0_split_6
I0601 10:17:57.300006 14411 net.cpp:150] Setting up data_data_0_split
I0601 10:17:57.300012 14411 net.cpp:157] Top shape: 32 3 300 300 (8640000)
I0601 10:17:57.300015 14411 net.cpp:157] Top shape: 32 3 300 300 (8640000)
I0601 10:17:57.300017 14411 net.cpp:157] Top shape: 32 3 300 300 (8640000)
I0601 10:17:57.300020 14411 net.cpp:157] Top shape: 32 3 300 300 (8640000)
I0601 10:17:57.300024 14411 net.cpp:157] Top shape: 32 3 300 300 (8640000)
I0601 10:17:57.300025 14411 net.cpp:157] Top shape: 32 3 300 300 (8640000)
I0601 10:17:57.300029 14411 net.cpp:157] Top shape: 32 3 300 300 (8640000)
I0601 10:17:57.300030 14411 net.cpp:165] Memory required for data: 276480032
I0601 10:17:57.300032 14411 layer_factory.hpp:77] Creating layer conv1_1
I0601 10:17:57.300045 14411 net.cpp:100] Creating Layer conv1_1
I0601 10:17:57.300050 14411 net.cpp:434] conv1_1 <- data_data_0_split_0
I0601 10:17:57.300055 14411 net.cpp:408] conv1_1 -> conv1_1
I0601 10:17:57.301534 14411 net.cpp:150] Setting up conv1_1
I0601 10:17:57.301548 14411 net.cpp:157] Top shape: 32 64 300 300 (184320000)
I0601 10:17:57.301551 14411 net.cpp:165] Memory required for data: 1013760032
I0601 10:17:57.301563 14411 layer_factory.hpp:77] Creating layer relu1_1
I0601 10:17:57.301571 14411 net.cpp:100] Creating Layer relu1_1
I0601 10:17:57.301575 14411 net.cpp:434] relu1_1 <- conv1_1
I0601 10:17:57.301579 14411 net.cpp:395] relu1_1 -> conv1_1 (in-place)
I0601 10:17:57.301584 14411 net.cpp:150] Setting up relu1_1
I0601 10:17:57.301589 14411 net.cpp:157] Top shape: 32 64 300 300 (184320000)
I0601 10:17:57.301590 14411 net.cpp:165] Memory required for data: 1751040032
I0601 10:17:57.301592 14411 layer_factory.hpp:77] Creating layer conv1_2
I0601 10:17:57.301599 14411 net.cpp:100] Creating Layer conv1_2
I0601 10:17:57.301602 14411 net.cpp:434] conv1_2 <- conv1_1
I0601 10:17:57.301606 14411 net.cpp:408] conv1_2 -> conv1_2
I0601 10:17:57.313282 14411 net.cpp:150] Setting up conv1_2
I0601 10:17:57.313298 14411 net.cpp:157] Top shape: 32 64 300 300 (184320000)
I0601 10:17:57.313302 14411 net.cpp:165] Memory required for data: 2488320032
I0601 10:17:57.313311 14411 layer_factory.hpp:77] Creating layer relu1_2
I0601 10:17:57.313331 14411 net.cpp:100] Creating Layer relu1_2
I0601 10:17:57.313335 14411 net.cpp:434] relu1_2 <- conv1_2
I0601 10:17:57.313354 14411 net.cpp:395] relu1_2 -> conv1_2 (in-place)
I0601 10:17:57.313361 14411 net.cpp:150] Setting up relu1_2
I0601 10:17:57.313364 14411 net.cpp:157] Top shape: 32 64 300 300 (184320000)
I0601 10:17:57.313366 14411 net.cpp:165] Memory required for data: 3225600032
I0601 10:17:57.313369 14411 layer_factory.hpp:77] Creating layer pool1
I0601 10:17:57.313374 14411 net.cpp:100] Creating Layer pool1
I0601 10:17:57.313375 14411 net.cpp:434] pool1 <- conv1_2
I0601 10:17:57.313379 14411 net.cpp:408] pool1 -> pool1
I0601 10:17:57.313429 14411 net.cpp:150] Setting up pool1
I0601 10:17:57.313436 14411 net.cpp:157] Top shape: 32 64 150 150 (46080000)
I0601 10:17:57.313437 14411 net.cpp:165] Memory required for data: 3409920032
I0601 10:17:57.313438 14411 layer_factory.hpp:77] Creating layer conv2_1
I0601 10:17:57.313447 14411 net.cpp:100] Creating Layer conv2_1
I0601 10:17:57.313462 14411 net.cpp:434] conv2_1 <- pool1
I0601 10:17:57.313467 14411 net.cpp:408] conv2_1 -> conv2_1
I0601 10:17:57.314028 14411 net.cpp:150] Setting up conv2_1
I0601 10:17:57.314034 14411 net.cpp:157] Top shape: 32 128 150 150 (92160000)
I0601 10:17:57.314038 14411 net.cpp:165] Memory required for data: 3778560032
I0601 10:17:57.314043 14411 layer_factory.hpp:77] Creating layer relu2_1
I0601 10:17:57.314049 14411 net.cpp:100] Creating Layer relu2_1
I0601 10:17:57.314050 14411 net.cpp:434] relu2_1 <- conv2_1
I0601 10:17:57.314055 14411 net.cpp:395] relu2_1 -> conv2_1 (in-place)
I0601 10:17:57.314059 14411 net.cpp:150] Setting up relu2_1
I0601 10:17:57.314062 14411 net.cpp:157] Top shape: 32 128 150 150 (92160000)
I0601 10:17:57.314064 14411 net.cpp:165] Memory required for data: 4147200032
I0601 10:17:57.314081 14411 layer_factory.hpp:77] Creating layer conv2_2
I0601 10:17:57.314087 14411 net.cpp:100] Creating Layer conv2_2
I0601 10:17:57.314090 14411 net.cpp:434] conv2_2 <- conv2_1
I0601 10:17:57.314093 14411 net.cpp:408] conv2_2 -> conv2_2
I0601 10:17:57.314882 14411 net.cpp:150] Setting up conv2_2
I0601 10:17:57.314888 14411 net.cpp:157] Top shape: 32 128 150 150 (92160000)
I0601 10:17:57.314890 14411 net.cpp:165] Memory required for data: 4515840032
I0601 10:17:57.314894 14411 layer_factory.hpp:77] Creating layer relu2_2
I0601 10:17:57.314900 14411 net.cpp:100] Creating Layer relu2_2
I0601 10:17:57.314903 14411 net.cpp:434] relu2_2 <- conv2_2
I0601 10:17:57.314905 14411 net.cpp:395] relu2_2 -> conv2_2 (in-place)
I0601 10:17:57.314911 14411 net.cpp:150] Setting up relu2_2
I0601 10:17:57.314929 14411 net.cpp:157] Top shape: 32 128 150 150 (92160000)
I0601 10:17:57.314931 14411 net.cpp:165] Memory required for data: 4884480032
I0601 10:17:57.314934 14411 layer_factory.hpp:77] Creating layer pool2
I0601 10:17:57.314937 14411 net.cpp:100] Creating Layer pool2
I0601 10:17:57.314940 14411 net.cpp:434] pool2 <- conv2_2
I0601 10:17:57.314944 14411 net.cpp:408] pool2 -> pool2
I0601 10:17:57.314966 14411 net.cpp:150] Setting up pool2
I0601 10:17:57.314971 14411 net.cpp:157] Top shape: 32 128 75 75 (23040000)
I0601 10:17:57.314973 14411 net.cpp:165] Memory required for data: 4976640032
I0601 10:17:57.314975 14411 layer_factory.hpp:77] Creating layer conv3_1
I0601 10:17:57.314981 14411 net.cpp:100] Creating Layer conv3_1
I0601 10:17:57.314985 14411 net.cpp:434] conv3_1 <- pool2
I0601 10:17:57.314990 14411 net.cpp:408] conv3_1 -> conv3_1
I0601 10:17:57.317498 14411 net.cpp:150] Setting up conv3_1
I0601 10:17:57.317512 14411 net.cpp:157] Top shape: 32 256 75 75 (46080000)
I0601 10:17:57.317513 14411 net.cpp:165] Memory required for data: 5160960032
I0601 10:17:57.317523 14411 layer_factory.hpp:77] Creating layer relu3_1
I0601 10:17:57.317529 14411 net.cpp:100] Creating Layer relu3_1
I0601 10:17:57.317533 14411 net.cpp:434] relu3_1 <- conv3_1
I0601 10:17:57.317538 14411 net.cpp:395] relu3_1 -> conv3_1 (in-place)
I0601 10:17:57.317543 14411 net.cpp:150] Setting up relu3_1
I0601 10:17:57.317548 14411 net.cpp:157] Top shape: 32 256 75 75 (46080000)
I0601 10:17:57.317549 14411 net.cpp:165] Memory required for data: 5345280032
I0601 10:17:57.317551 14411 layer_factory.hpp:77] Creating layer conv3_2
I0601 10:17:57.317558 14411 net.cpp:100] Creating Layer conv3_2
I0601 10:17:57.317559 14411 net.cpp:434] conv3_2 <- conv3_1
I0601 10:17:57.317564 14411 net.cpp:408] conv3_2 -> conv3_2
I0601 10:17:57.320662 14411 net.cpp:150] Setting up conv3_2
I0601 10:17:57.320673 14411 net.cpp:157] Top shape: 32 256 75 75 (46080000)
I0601 10:17:57.320677 14411 net.cpp:165] Memory required for data: 5529600032
I0601 10:17:57.320680 14411 layer_factory.hpp:77] Creating layer relu3_2
I0601 10:17:57.320685 14411 net.cpp:100] Creating Layer relu3_2
I0601 10:17:57.320689 14411 net.cpp:434] relu3_2 <- conv3_2
I0601 10:17:57.320693 14411 net.cpp:395] relu3_2 -> conv3_2 (in-place)
I0601 10:17:57.320698 14411 net.cpp:150] Setting up relu3_2
I0601 10:17:57.320700 14411 net.cpp:157] Top shape: 32 256 75 75 (46080000)
I0601 10:17:57.320703 14411 net.cpp:165] Memory required for data: 5713920032
I0601 10:17:57.320715 14411 layer_factory.hpp:77] Creating layer conv3_3
I0601 10:17:57.320724 14411 net.cpp:100] Creating Layer conv3_3
I0601 10:17:57.320729 14411 net.cpp:434] conv3_3 <- conv3_2
I0601 10:17:57.320732 14411 net.cpp:408] conv3_3 -> conv3_3
I0601 10:17:57.323954 14411 net.cpp:150] Setting up conv3_3
I0601 10:17:57.323967 14411 net.cpp:157] Top shape: 32 256 75 75 (46080000)
I0601 10:17:57.323971 14411 net.cpp:165] Memory required for data: 5898240032
I0601 10:17:57.323976 14411 layer_factory.hpp:77] Creating layer relu3_3
I0601 10:17:57.323994 14411 net.cpp:100] Creating Layer relu3_3
I0601 10:17:57.323997 14411 net.cpp:434] relu3_3 <- conv3_3
I0601 10:17:57.324002 14411 net.cpp:395] relu3_3 -> conv3_3 (in-place)
I0601 10:17:57.324007 14411 net.cpp:150] Setting up relu3_3
I0601 10:17:57.324009 14411 net.cpp:157] Top shape: 32 256 75 75 (46080000)
I0601 10:17:57.324012 14411 net.cpp:165] Memory required for data: 6082560032
I0601 10:17:57.324013 14411 layer_factory.hpp:77] Creating layer pool3
I0601 10:17:57.324018 14411 net.cpp:100] Creating Layer pool3
I0601 10:17:57.324020 14411 net.cpp:434] pool3 <- conv3_3
I0601 10:17:57.324023 14411 net.cpp:408] pool3 -> pool3
I0601 10:17:57.324050 14411 net.cpp:150] Setting up pool3
I0601 10:17:57.324056 14411 net.cpp:157] Top shape: 32 256 38 38 (11829248)
I0601 10:17:57.324059 14411 net.cpp:165] Memory required for data: 6129877024
I0601 10:17:57.324059 14411 layer_factory.hpp:77] Creating layer conv4_1
I0601 10:17:57.324066 14411 net.cpp:100] Creating Layer conv4_1
I0601 10:17:57.324070 14411 net.cpp:434] conv4_1 <- pool3
I0601 10:17:57.324074 14411 net.cpp:408] conv4_1 -> conv4_1
I0601 10:17:57.331027 14411 net.cpp:150] Setting up conv4_1
I0601 10:17:57.331044 14411 net.cpp:157] Top shape: 32 512 38 38 (23658496)
I0601 10:17:57.331048 14411 net.cpp:165] Memory required for data: 6224511008
I0601 10:17:57.331068 14411 layer_factory.hpp:77] Creating layer relu4_1
I0601 10:17:57.331074 14411 net.cpp:100] Creating Layer relu4_1
I0601 10:17:57.331077 14411 net.cpp:434] relu4_1 <- conv4_1
I0601 10:17:57.331081 14411 net.cpp:395] relu4_1 -> conv4_1 (in-place)
I0601 10:17:57.331087 14411 net.cpp:150] Setting up relu4_1
I0601 10:17:57.331091 14411 net.cpp:157] Top shape: 32 512 38 38 (23658496)
I0601 10:17:57.331092 14411 net.cpp:165] Memory required for data: 6319144992
I0601 10:17:57.331094 14411 layer_factory.hpp:77] Creating layer conv4_2
I0601 10:17:57.331118 14411 net.cpp:100] Creating Layer conv4_2
I0601 10:17:57.331140 14411 net.cpp:434] conv4_2 <- conv4_1
I0601 10:17:57.331146 14411 net.cpp:408] conv4_2 -> conv4_2
I0601 10:17:57.342901 14411 net.cpp:150] Setting up conv4_2
I0601 10:17:57.342918 14411 net.cpp:157] Top shape: 32 512 38 38 (23658496)
I0601 10:17:57.342921 14411 net.cpp:165] Memory required for data: 6413778976
I0601 10:17:57.342945 14411 layer_factory.hpp:77] Creating layer relu4_2
I0601 10:17:57.342967 14411 net.cpp:100] Creating Layer relu4_2
I0601 10:17:57.342970 14411 net.cpp:434] relu4_2 <- conv4_2
I0601 10:17:57.342974 14411 net.cpp:395] relu4_2 -> conv4_2 (in-place)
I0601 10:17:57.342995 14411 net.cpp:150] Setting up relu4_2
I0601 10:17:57.342998 14411 net.cpp:157] Top shape: 32 512 38 38 (23658496)
I0601 10:17:57.343001 14411 net.cpp:165] Memory required for data: 6508412960
I0601 10:17:57.343003 14411 layer_factory.hpp:77] Creating layer conv4_3
I0601 10:17:57.343010 14411 net.cpp:100] Creating Layer conv4_3
I0601 10:17:57.343029 14411 net.cpp:434] conv4_3 <- conv4_2
I0601 10:17:57.343036 14411 net.cpp:408] conv4_3 -> conv4_3
I0601 10:17:57.355115 14411 net.cpp:150] Setting up conv4_3
I0601 10:17:57.355134 14411 net.cpp:157] Top shape: 32 512 38 38 (23658496)
I0601 10:17:57.355137 14411 net.cpp:165] Memory required for data: 6603046944
I0601 10:17:57.355144 14411 layer_factory.hpp:77] Creating layer relu4_3
I0601 10:17:57.355151 14411 net.cpp:100] Creating Layer relu4_3
I0601 10:17:57.355154 14411 net.cpp:434] relu4_3 <- conv4_3
I0601 10:17:57.355173 14411 net.cpp:395] relu4_3 -> conv4_3 (in-place)
I0601 10:17:57.355206 14411 net.cpp:150] Setting up relu4_3
I0601 10:17:57.355209 14411 net.cpp:157] Top shape: 32 512 38 38 (23658496)
I0601 10:17:57.355211 14411 net.cpp:165] Memory required for data: 6697680928
I0601 10:17:57.355214 14411 layer_factory.hpp:77] Creating layer conv4_3_relu4_3_0_split
I0601 10:17:57.355218 14411 net.cpp:100] Creating Layer conv4_3_relu4_3_0_split
I0601 10:17:57.355221 14411 net.cpp:434] conv4_3_relu4_3_0_split <- conv4_3
I0601 10:17:57.355239 14411 net.cpp:408] conv4_3_relu4_3_0_split -> conv4_3_relu4_3_0_split_0
I0601 10:17:57.355244 14411 net.cpp:408] conv4_3_relu4_3_0_split -> conv4_3_relu4_3_0_split_1
I0601 10:17:57.355273 14411 net.cpp:150] Setting up conv4_3_relu4_3_0_split
I0601 10:17:57.355278 14411 net.cpp:157] Top shape: 32 512 38 38 (23658496)
I0601 10:17:57.355281 14411 net.cpp:157] Top shape: 32 512 38 38 (23658496)
I0601 10:17:57.355283 14411 net.cpp:165] Memory required for data: 6886948896
I0601 10:17:57.355285 14411 layer_factory.hpp:77] Creating layer pool4
I0601 10:17:57.355289 14411 net.cpp:100] Creating Layer pool4
I0601 10:17:57.355291 14411 net.cpp:434] pool4 <- conv4_3_relu4_3_0_split_0
I0601 10:17:57.355296 14411 net.cpp:408] pool4 -> pool4
I0601 10:17:57.355337 14411 net.cpp:150] Setting up pool4
I0601 10:17:57.355341 14411 net.cpp:157] Top shape: 32 512 19 19 (5914624)
I0601 10:17:57.355343 14411 net.cpp:165] Memory required for data: 6910607392
I0601 10:17:57.355345 14411 layer_factory.hpp:77] Creating layer conv5_1
I0601 10:17:57.355357 14411 net.cpp:100] Creating Layer conv5_1
I0601 10:17:57.355375 14411 net.cpp:434] conv5_1 <- pool4
I0601 10:17:57.355378 14411 net.cpp:408] conv5_1 -> conv5_1
I0601 10:17:57.367270 14411 net.cpp:150] Setting up conv5_1
I0601 10:17:57.367285 14411 net.cpp:157] Top shape: 32 512 19 19 (5914624)
I0601 10:17:57.367288 14411 net.cpp:165] Memory required for data: 6934265888
I0601 10:17:57.367293 14411 layer_factory.hpp:77] Creating layer relu5_1
I0601 10:17:57.367314 14411 net.cpp:100] Creating Layer relu5_1
I0601 10:17:57.367318 14411 net.cpp:434] relu5_1 <- conv5_1
I0601 10:17:57.367336 14411 net.cpp:395] relu5_1 -> conv5_1 (in-place)
I0601 10:17:57.367341 14411 net.cpp:150] Setting up relu5_1
I0601 10:17:57.367344 14411 net.cpp:157] Top shape: 32 512 19 19 (5914624)
I0601 10:17:57.367347 14411 net.cpp:165] Memory required for data: 6957924384
I0601 10:17:57.367348 14411 layer_factory.hpp:77] Creating layer conv5_2
I0601 10:17:57.367372 14411 net.cpp:100] Creating Layer conv5_2
I0601 10:17:57.367375 14411 net.cpp:434] conv5_2 <- conv5_1
I0601 10:17:57.367379 14411 net.cpp:408] conv5_2 -> conv5_2
I0601 10:17:57.379114 14411 net.cpp:150] Setting up conv5_2
I0601 10:17:57.379133 14411 net.cpp:157] Top shape: 32 512 19 19 (5914624)
I0601 10:17:57.379137 14411 net.cpp:165] Memory required for data: 6981582880
I0601 10:17:57.379142 14411 layer_factory.hpp:77] Creating layer relu5_2
I0601 10:17:57.379149 14411 net.cpp:100] Creating Layer relu5_2
I0601 10:17:57.379153 14411 net.cpp:434] relu5_2 <- conv5_2
I0601 10:17:57.379158 14411 net.cpp:395] relu5_2 -> conv5_2 (in-place)
I0601 10:17:57.379179 14411 net.cpp:150] Setting up relu5_2
I0601 10:17:57.379184 14411 net.cpp:157] Top shape: 32 512 19 19 (5914624)
I0601 10:17:57.379186 14411 net.cpp:165] Memory required for data: 7005241376
I0601 10:17:57.379189 14411 layer_factory.hpp:77] Creating layer conv5_3
I0601 10:17:57.379196 14411 net.cpp:100] Creating Layer conv5_3
I0601 10:17:57.379199 14411 net.cpp:434] conv5_3 <- conv5_2
I0601 10:17:57.379204 14411 net.cpp:408] conv5_3 -> conv5_3
I0601 10:17:57.391291 14411 net.cpp:150] Setting up conv5_3
I0601 10:17:57.391309 14411 net.cpp:157] Top shape: 32 512 19 19 (5914624)
I0601 10:17:57.391312 14411 net.cpp:165] Memory required for data: 7028899872
I0601 10:17:57.391319 14411 layer_factory.hpp:77] Creating layer relu5_3
I0601 10:17:57.391330 14411 net.cpp:100] Creating Layer relu5_3
I0601 10:17:57.391350 14411 net.cpp:434] relu5_3 <- conv5_3
I0601 10:17:57.391355 14411 net.cpp:395] relu5_3 -> conv5_3 (in-place)
I0601 10:17:57.391361 14411 net.cpp:150] Setting up relu5_3
I0601 10:17:57.391382 14411 net.cpp:157] Top shape: 32 512 19 19 (5914624)
I0601 10:17:57.391384 14411 net.cpp:165] Memory required for data: 7052558368
I0601 10:17:57.391387 14411 layer_factory.hpp:77] Creating layer pool5
I0601 10:17:57.391405 14411 net.cpp:100] Creating Layer pool5
I0601 10:17:57.391407 14411 net.cpp:434] pool5 <- conv5_3
I0601 10:17:57.391412 14411 net.cpp:408] pool5 -> pool5
I0601 10:17:57.391443 14411 net.cpp:150] Setting up pool5
I0601 10:17:57.391448 14411 net.cpp:157] Top shape: 32 512 19 19 (5914624)
I0601 10:17:57.391450 14411 net.cpp:165] Memory required for data: 7076216864
I0601 10:17:57.391453 14411 layer_factory.hpp:77] Creating layer fc6
I0601 10:17:57.391459 14411 net.cpp:100] Creating Layer fc6
I0601 10:17:57.391463 14411 net.cpp:434] fc6 <- pool5
I0601 10:17:57.391468 14411 net.cpp:408] fc6 -> fc6
I0601 10:17:57.414090 14411 net.cpp:150] Setting up fc6
I0601 10:17:57.414111 14411 net.cpp:157] Top shape: 32 1024 19 19 (11829248)
I0601 10:17:57.414114 14411 net.cpp:165] Memory required for data: 7123533856
I0601 10:17:57.414135 14411 layer_factory.hpp:77] Creating layer relu6
I0601 10:17:57.414141 14411 net.cpp:100] Creating Layer relu6
I0601 10:17:57.414145 14411 net.cpp:434] relu6 <- fc6
I0601 10:17:57.414150 14411 net.cpp:395] relu6 -> fc6 (in-place)
I0601 10:17:57.414156 14411 net.cpp:150] Setting up relu6
I0601 10:17:57.414160 14411 net.cpp:157] Top shape: 32 1024 19 19 (11829248)
I0601 10:17:57.414161 14411 net.cpp:165] Memory required for data: 7170850848
I0601 10:17:57.414163 14411 layer_factory.hpp:77] Creating layer fc7
I0601 10:17:57.414186 14411 net.cpp:100] Creating Layer fc7
I0601 10:17:57.414196 14411 net.cpp:434] fc7 <- fc6
I0601 10:17:57.414201 14411 net.cpp:408] fc7 -> fc7
I0601 10:17:57.420192 14411 net.cpp:150] Setting up fc7
I0601 10:17:57.420210 14411 net.cpp:157] Top shape: 32 1024 19 19 (11829248)
I0601 10:17:57.420212 14411 net.cpp:165] Memory required for data: 7218167840
I0601 10:17:57.420233 14411 layer_factory.hpp:77] Creating layer relu7
I0601 10:17:57.420240 14411 net.cpp:100] Creating Layer relu7
I0601 10:17:57.420243 14411 net.cpp:434] relu7 <- fc7
I0601 10:17:57.420248 14411 net.cpp:395] relu7 -> fc7 (in-place)
I0601 10:17:57.420253 14411 net.cpp:150] Setting up relu7
I0601 10:17:57.420258 14411 net.cpp:157] Top shape: 32 1024 19 19 (11829248)
I0601 10:17:57.420259 14411 net.cpp:165] Memory required for data: 7265484832
I0601 10:17:57.420261 14411 layer_factory.hpp:77] Creating layer fc7_relu7_0_split
I0601 10:17:57.420265 14411 net.cpp:100] Creating Layer fc7_relu7_0_split
I0601 10:17:57.420267 14411 net.cpp:434] fc7_relu7_0_split <- fc7
I0601 10:17:57.420271 14411 net.cpp:408] fc7_relu7_0_split -> fc7_relu7_0_split_0
I0601 10:17:57.420290 14411 net.cpp:408] fc7_relu7_0_split -> fc7_relu7_0_split_1
I0601 10:17:57.420300 14411 net.cpp:408] fc7_relu7_0_split -> fc7_relu7_0_split_2
I0601 10:17:57.420310 14411 net.cpp:408] fc7_relu7_0_split -> fc7_relu7_0_split_3
I0601 10:17:57.420369 14411 net.cpp:150] Setting up fc7_relu7_0_split
I0601 10:17:57.420374 14411 net.cpp:157] Top shape: 32 1024 19 19 (11829248)
I0601 10:17:57.420377 14411 net.cpp:157] Top shape: 32 1024 19 19 (11829248)
I0601 10:17:57.420380 14411 net.cpp:157] Top shape: 32 1024 19 19 (11829248)
I0601 10:17:57.420383 14411 net.cpp:157] Top shape: 32 1024 19 19 (11829248)
I0601 10:17:57.420385 14411 net.cpp:165] Memory required for data: 7454752800
I0601 10:17:57.420387 14411 layer_factory.hpp:77] Creating layer conv6_1
I0601 10:17:57.420395 14411 net.cpp:100] Creating Layer conv6_1
I0601 10:17:57.420414 14411 net.cpp:434] conv6_1 <- fc7_relu7_0_split_0
I0601 10:17:57.420423 14411 net.cpp:408] conv6_1 -> conv6_1
I0601 10:17:57.422411 14411 net.cpp:150] Setting up conv6_1
I0601 10:17:57.422422 14411 net.cpp:157] Top shape: 32 256 19 19 (2957312)
I0601 10:17:57.422425 14411 net.cpp:165] Memory required for data: 7466582048
I0601 10:17:57.422430 14411 layer_factory.hpp:77] Creating layer conv6_1_relu
I0601 10:17:57.422435 14411 net.cpp:100] Creating Layer conv6_1_relu
I0601 10:17:57.422448 14411 net.cpp:434] conv6_1_relu <- conv6_1
I0601 10:17:57.422454 14411 net.cpp:395] conv6_1_relu -> conv6_1 (in-place)
I0601 10:17:57.422459 14411 net.cpp:150] Setting up conv6_1_relu
I0601 10:17:57.422463 14411 net.cpp:157] Top shape: 32 256 19 19 (2957312)
I0601 10:17:57.422466 14411 net.cpp:165] Memory required for data: 7478411296
I0601 10:17:57.422468 14411 layer_factory.hpp:77] Creating layer conv6_2
I0601 10:17:57.422474 14411 net.cpp:100] Creating Layer conv6_2
I0601 10:17:57.422478 14411 net.cpp:434] conv6_2 <- conv6_1
I0601 10:17:57.422482 14411 net.cpp:408] conv6_2 -> conv6_2
I0601 10:17:57.428778 14411 net.cpp:150] Setting up conv6_2
I0601 10:17:57.428800 14411 net.cpp:157] Top shape: 32 512 10 10 (1638400)
I0601 10:17:57.428802 14411 net.cpp:165] Memory required for data: 7484964896
I0601 10:17:57.428828 14411 layer_factory.hpp:77] Creating layer conv6_2_relu
I0601 10:17:57.428851 14411 net.cpp:100] Creating Layer conv6_2_relu
I0601 10:17:57.428855 14411 net.cpp:434] conv6_2_relu <- conv6_2
I0601 10:17:57.428859 14411 net.cpp:395] conv6_2_relu -> conv6_2 (in-place)
I0601 10:17:57.428879 14411 net.cpp:150] Setting up conv6_2_relu
I0601 10:17:57.428897 14411 net.cpp:157] Top shape: 32 512 10 10 (1638400)
I0601 10:17:57.428900 14411 net.cpp:165] Memory required for data: 7491518496
I0601 10:17:57.428901 14411 layer_factory.hpp:77] Creating layer conv6_2_conv6_2_relu_0_split
I0601 10:17:57.428905 14411 net.cpp:100] Creating Layer conv6_2_conv6_2_relu_0_split
I0601 10:17:57.428907 14411 net.cpp:434] conv6_2_conv6_2_relu_0_split <- conv6_2
I0601 10:17:57.428911 14411 net.cpp:408] conv6_2_conv6_2_relu_0_split -> conv6_2_conv6_2_relu_0_split_0
I0601 10:17:57.428916 14411 net.cpp:408] conv6_2_conv6_2_relu_0_split -> conv6_2_conv6_2_relu_0_split_1
I0601 10:17:57.428921 14411 net.cpp:408] conv6_2_conv6_2_relu_0_split -> conv6_2_conv6_2_relu_0_split_2
I0601 10:17:57.428928 14411 net.cpp:408] conv6_2_conv6_2_relu_0_split -> conv6_2_conv6_2_relu_0_split_3
I0601 10:17:57.428975 14411 net.cpp:150] Setting up conv6_2_conv6_2_relu_0_split
I0601 10:17:57.428980 14411 net.cpp:157] Top shape: 32 512 10 10 (1638400)
I0601 10:17:57.428983 14411 net.cpp:157] Top shape: 32 512 10 10 (1638400)
I0601 10:17:57.428987 14411 net.cpp:157] Top shape: 32 512 10 10 (1638400)
I0601 10:17:57.428988 14411 net.cpp:157] Top shape: 32 512 10 10 (1638400)
I0601 10:17:57.428990 14411 net.cpp:165] Memory required for data: 7517732896
I0601 10:17:57.428992 14411 layer_factory.hpp:77] Creating layer conv7_1
I0601 10:17:57.429003 14411 net.cpp:100] Creating Layer conv7_1
I0601 10:17:57.429006 14411 net.cpp:434] conv7_1 <- conv6_2_conv6_2_relu_0_split_0
I0601 10:17:57.429010 14411 net.cpp:408] conv7_1 -> conv7_1
I0601 10:17:57.429435 14411 net.cpp:150] Setting up conv7_1
I0601 10:17:57.429442 14411 net.cpp:157] Top shape: 32 128 10 10 (409600)
I0601 10:17:57.429445 14411 net.cpp:165] Memory required for data: 7519371296
I0601 10:17:57.429450 14411 layer_factory.hpp:77] Creating layer conv7_1_relu
I0601 10:17:57.429452 14411 net.cpp:100] Creating Layer conv7_1_relu
I0601 10:17:57.429455 14411 net.cpp:434] conv7_1_relu <- conv7_1
I0601 10:17:57.429460 14411 net.cpp:395] conv7_1_relu -> conv7_1 (in-place)
I0601 10:17:57.429463 14411 net.cpp:150] Setting up conv7_1_relu
I0601 10:17:57.429466 14411 net.cpp:157] Top shape: 32 128 10 10 (409600)
I0601 10:17:57.429468 14411 net.cpp:165] Memory required for data: 7521009696
I0601 10:17:57.429471 14411 layer_factory.hpp:77] Creating layer conv7_2
I0601 10:17:57.429476 14411 net.cpp:100] Creating Layer conv7_2
I0601 10:17:57.429481 14411 net.cpp:434] conv7_2 <- conv7_1
I0601 10:17:57.429484 14411 net.cpp:408] conv7_2 -> conv7_2
I0601 10:17:57.431474 14411 net.cpp:150] Setting up conv7_2
I0601 10:17:57.431484 14411 net.cpp:157] Top shape: 32 256 5 5 (204800)
I0601 10:17:57.431486 14411 net.cpp:165] Memory required for data: 7521828896
I0601 10:17:57.431491 14411 layer_factory.hpp:77] Creating layer conv7_2_relu
I0601 10:17:57.431496 14411 net.cpp:100] Creating Layer conv7_2_relu
I0601 10:17:57.431500 14411 net.cpp:434] conv7_2_relu <- conv7_2
I0601 10:17:57.431514 14411 net.cpp:395] conv7_2_relu -> conv7_2 (in-place)
I0601 10:17:57.431519 14411 net.cpp:150] Setting up conv7_2_relu
I0601 10:17:57.431524 14411 net.cpp:157] Top shape: 32 256 5 5 (204800)
I0601 10:17:57.431525 14411 net.cpp:165] Memory required for data: 7522648096
I0601 10:17:57.431527 14411 layer_factory.hpp:77] Creating layer conv7_2_conv7_2_relu_0_split
I0601 10:17:57.431532 14411 net.cpp:100] Creating Layer conv7_2_conv7_2_relu_0_split
I0601 10:17:57.431535 14411 net.cpp:434] conv7_2_conv7_2_relu_0_split <- conv7_2
I0601 10:17:57.431538 14411 net.cpp:408] conv7_2_conv7_2_relu_0_split -> conv7_2_conv7_2_relu_0_split_0
I0601 10:17:57.431543 14411 net.cpp:408] conv7_2_conv7_2_relu_0_split -> conv7_2_conv7_2_relu_0_split_1
I0601 10:17:57.431550 14411 net.cpp:408] conv7_2_conv7_2_relu_0_split -> conv7_2_conv7_2_relu_0_split_2
I0601 10:17:57.431556 14411 net.cpp:408] conv7_2_conv7_2_relu_0_split -> conv7_2_conv7_2_relu_0_split_3
I0601 10:17:57.431596 14411 net.cpp:150] Setting up conv7_2_conv7_2_relu_0_split
I0601 10:17:57.431601 14411 net.cpp:157] Top shape: 32 256 5 5 (204800)
I0601 10:17:57.431603 14411 net.cpp:157] Top shape: 32 256 5 5 (204800)
I0601 10:17:57.431607 14411 net.cpp:157] Top shape: 32 256 5 5 (204800)
I0601 10:17:57.431608 14411 net.cpp:157] Top shape: 32 256 5 5 (204800)
I0601 10:17:57.431610 14411 net.cpp:165] Memory required for data: 7525924896
I0601 10:17:57.431613 14411 layer_factory.hpp:77] Creating layer conv8_1
I0601 10:17:57.431619 14411 net.cpp:100] Creating Layer conv8_1
I0601 10:17:57.431622 14411 net.cpp:434] conv8_1 <- conv7_2_conv7_2_relu_0_split_0
I0601 10:17:57.431627 14411 net.cpp:408] conv8_1 -> conv8_1
I0601 10:17:57.431905 14411 net.cpp:150] Setting up conv8_1
I0601 10:17:57.431910 14411 net.cpp:157] Top shape: 32 128 5 5 (102400)
I0601 10:17:57.431911 14411 net.cpp:165] Memory required for data: 7526334496
I0601 10:17:57.431915 14411 layer_factory.hpp:77] Creating layer conv8_1_relu
I0601 10:17:57.431919 14411 net.cpp:100] Creating Layer conv8_1_relu
I0601 10:17:57.431922 14411 net.cpp:434] conv8_1_relu <- conv8_1
I0601 10:17:57.431926 14411 net.cpp:395] conv8_1_relu -> conv8_1 (in-place)
I0601 10:17:57.431928 14411 net.cpp:150] Setting up conv8_1_relu
I0601 10:17:57.431932 14411 net.cpp:157] Top shape: 32 128 5 5 (102400)
I0601 10:17:57.431934 14411 net.cpp:165] Memory required for data: 7526744096
I0601 10:17:57.431936 14411 layer_factory.hpp:77] Creating layer conv8_2
I0601 10:17:57.431941 14411 net.cpp:100] Creating Layer conv8_2
I0601 10:17:57.431944 14411 net.cpp:434] conv8_2 <- conv8_1
I0601 10:17:57.431948 14411 net.cpp:408] conv8_2 -> conv8_2
I0601 10:17:57.433909 14411 net.cpp:150] Setting up conv8_2
I0601 10:17:57.433921 14411 net.cpp:157] Top shape: 32 256 3 3 (73728)
I0601 10:17:57.433924 14411 net.cpp:165] Memory required for data: 7527039008
I0601 10:17:57.433929 14411 layer_factory.hpp:77] Creating layer conv8_2_relu
I0601 10:17:57.433934 14411 net.cpp:100] Creating Layer conv8_2_relu
I0601 10:17:57.433938 14411 net.cpp:434] conv8_2_relu <- conv8_2
I0601 10:17:57.433943 14411 net.cpp:395] conv8_2_relu -> conv8_2 (in-place)
I0601 10:17:57.433948 14411 net.cpp:150] Setting up conv8_2_relu
I0601 10:17:57.433953 14411 net.cpp:157] Top shape: 32 256 3 3 (73728)
I0601 10:17:57.433954 14411 net.cpp:165] Memory required for data: 7527333920
I0601 10:17:57.433956 14411 layer_factory.hpp:77] Creating layer conv8_2_conv8_2_relu_0_split
I0601 10:17:57.433960 14411 net.cpp:100] Creating Layer conv8_2_conv8_2_relu_0_split
I0601 10:17:57.433962 14411 net.cpp:434] conv8_2_conv8_2_relu_0_split <- conv8_2
I0601 10:17:57.433966 14411 net.cpp:408] conv8_2_conv8_2_relu_0_split -> conv8_2_conv8_2_relu_0_split_0
I0601 10:17:57.433972 14411 net.cpp:408] conv8_2_conv8_2_relu_0_split -> conv8_2_conv8_2_relu_0_split_1
I0601 10:17:57.433977 14411 net.cpp:408] conv8_2_conv8_2_relu_0_split -> conv8_2_conv8_2_relu_0_split_2
I0601 10:17:57.433981 14411 net.cpp:408] conv8_2_conv8_2_relu_0_split -> conv8_2_conv8_2_relu_0_split_3
I0601 10:17:57.434033 14411 net.cpp:150] Setting up conv8_2_conv8_2_relu_0_split
I0601 10:17:57.434039 14411 net.cpp:157] Top shape: 32 256 3 3 (73728)
I0601 10:17:57.434042 14411 net.cpp:157] Top shape: 32 256 3 3 (73728)
I0601 10:17:57.434044 14411 net.cpp:157] Top shape: 32 256 3 3 (73728)
I0601 10:17:57.434047 14411 net.cpp:157] Top shape: 32 256 3 3 (73728)
I0601 10:17:57.434049 14411 net.cpp:165] Memory required for data: 7528513568
I0601 10:17:57.434051 14411 layer_factory.hpp:77] Creating layer conv9_1
I0601 10:17:57.434058 14411 net.cpp:100] Creating Layer conv9_1
I0601 10:17:57.434062 14411 net.cpp:434] conv9_1 <- conv8_2_conv8_2_relu_0_split_0
I0601 10:17:57.434067 14411 net.cpp:408] conv9_1 -> conv9_1
I0601 10:17:57.434353 14411 net.cpp:150] Setting up conv9_1
I0601 10:17:57.434360 14411 net.cpp:157] Top shape: 32 128 3 3 (36864)
I0601 10:17:57.434361 14411 net.cpp:165] Memory required for data: 7528661024
I0601 10:17:57.434365 14411 layer_factory.hpp:77] Creating layer conv9_1_relu
I0601 10:17:57.434370 14411 net.cpp:100] Creating Layer conv9_1_relu
I0601 10:17:57.434371 14411 net.cpp:434] conv9_1_relu <- conv9_1
I0601 10:17:57.434375 14411 net.cpp:395] conv9_1_relu -> conv9_1 (in-place)
I0601 10:17:57.434378 14411 net.cpp:150] Setting up conv9_1_relu
I0601 10:17:57.434382 14411 net.cpp:157] Top shape: 32 128 3 3 (36864)
I0601 10:17:57.434384 14411 net.cpp:165] Memory required for data: 7528808480
I0601 10:17:57.434386 14411 layer_factory.hpp:77] Creating layer conv9_2
I0601 10:17:57.434392 14411 net.cpp:100] Creating Layer conv9_2
I0601 10:17:57.434396 14411 net.cpp:434] conv9_2 <- conv9_1
I0601 10:17:57.434399 14411 net.cpp:408] conv9_2 -> conv9_2
I0601 10:17:57.436386 14411 net.cpp:150] Setting up conv9_2
I0601 10:17:57.436400 14411 net.cpp:157] Top shape: 32 256 1 1 (8192)
I0601 10:17:57.436403 14411 net.cpp:165] Memory required for data: 7528841248
I0601 10:17:57.436408 14411 layer_factory.hpp:77] Creating layer conv9_2_relu
I0601 10:17:57.436414 14411 net.cpp:100] Creating Layer conv9_2_relu
I0601 10:17:57.436416 14411 net.cpp:434] conv9_2_relu <- conv9_2
I0601 10:17:57.436422 14411 net.cpp:395] conv9_2_relu -> conv9_2 (in-place)
I0601 10:17:57.436427 14411 net.cpp:150] Setting up conv9_2_relu
I0601 10:17:57.436431 14411 net.cpp:157] Top shape: 32 256 1 1 (8192)
I0601 10:17:57.436434 14411 net.cpp:165] Memory required for data: 7528874016
I0601 10:17:57.436436 14411 layer_factory.hpp:77] Creating layer conv9_2_conv9_2_relu_0_split
I0601 10:17:57.436441 14411 net.cpp:100] Creating Layer conv9_2_conv9_2_relu_0_split
I0601 10:17:57.436444 14411 net.cpp:434] conv9_2_conv9_2_relu_0_split <- conv9_2
I0601 10:17:57.436446 14411 net.cpp:408] conv9_2_conv9_2_relu_0_split -> conv9_2_conv9_2_relu_0_split_0
I0601 10:17:57.436453 14411 net.cpp:408] conv9_2_conv9_2_relu_0_split -> conv9_2_conv9_2_relu_0_split_1
I0601 10:17:57.436458 14411 net.cpp:408] conv9_2_conv9_2_relu_0_split -> conv9_2_conv9_2_relu_0_split_2
I0601 10:17:57.436492 14411 net.cpp:150] Setting up conv9_2_conv9_2_relu_0_split
I0601 10:17:57.436497 14411 net.cpp:157] Top shape: 32 256 1 1 (8192)
I0601 10:17:57.436501 14411 net.cpp:157] Top shape: 32 256 1 1 (8192)
I0601 10:17:57.436503 14411 net.cpp:157] Top shape: 32 256 1 1 (8192)
I0601 10:17:57.436506 14411 net.cpp:165] Memory required for data: 7528972320
I0601 10:17:57.436507 14411 layer_factory.hpp:77] Creating layer conv4_3_norm
I0601 10:17:57.436512 14411 net.cpp:100] Creating Layer conv4_3_norm
I0601 10:17:57.436517 14411 net.cpp:434] conv4_3_norm <- conv4_3_relu4_3_0_split_1
I0601 10:17:57.436520 14411 net.cpp:408] conv4_3_norm -> conv4_3_norm
I0601 10:17:57.436621 14411 net.cpp:150] Setting up conv4_3_norm
I0601 10:17:57.436627 14411 net.cpp:157] Top shape: 32 512 38 38 (23658496)
I0601 10:17:57.436630 14411 net.cpp:165] Memory required for data: 7623606304
I0601 10:17:57.436632 14411 layer_factory.hpp:77] Creating layer conv4_3_norm_conv4_3_norm_0_split
I0601 10:17:57.436636 14411 net.cpp:100] Creating Layer conv4_3_norm_conv4_3_norm_0_split
I0601 10:17:57.436640 14411 net.cpp:434] conv4_3_norm_conv4_3_norm_0_split <- conv4_3_norm
I0601 10:17:57.436652 14411 net.cpp:408] conv4_3_norm_conv4_3_norm_0_split -> conv4_3_norm_conv4_3_norm_0_split_0
I0601 10:17:57.436657 14411 net.cpp:408] conv4_3_norm_conv4_3_norm_0_split -> conv4_3_norm_conv4_3_norm_0_split_1
I0601 10:17:57.436662 14411 net.cpp:408] conv4_3_norm_conv4_3_norm_0_split -> conv4_3_norm_conv4_3_norm_0_split_2
I0601 10:17:57.436692 14411 net.cpp:150] Setting up conv4_3_norm_conv4_3_norm_0_split
I0601 10:17:57.436697 14411 net.cpp:157] Top shape: 32 512 38 38 (23658496)
I0601 10:17:57.436700 14411 net.cpp:157] Top shape: 32 512 38 38 (23658496)
I0601 10:17:57.436702 14411 net.cpp:157] Top shape: 32 512 38 38 (23658496)
I0601 10:17:57.436704 14411 net.cpp:165] Memory required for data: 7907508256
I0601 10:17:57.436707 14411 layer_factory.hpp:77] Creating layer conv4_3_norm_mbox_loc
I0601 10:17:57.436714 14411 net.cpp:100] Creating Layer conv4_3_norm_mbox_loc
I0601 10:17:57.436717 14411 net.cpp:434] conv4_3_norm_mbox_loc <- conv4_3_norm_conv4_3_norm_0_split_0
I0601 10:17:57.436722 14411 net.cpp:408] conv4_3_norm_mbox_loc -> conv4_3_norm_mbox_loc
I0601 10:17:57.437188 14411 net.cpp:150] Setting up conv4_3_norm_mbox_loc
I0601 10:17:57.437194 14411 net.cpp:157] Top shape: 32 16 38 38 (739328)
I0601 10:17:57.437196 14411 net.cpp:165] Memory required for data: 7910465568
I0601 10:17:57.437201 14411 layer_factory.hpp:77] Creating layer conv4_3_norm_mbox_loc_perm
I0601 10:17:57.437206 14411 net.cpp:100] Creating Layer conv4_3_norm_mbox_loc_perm
I0601 10:17:57.437211 14411 net.cpp:434] conv4_3_norm_mbox_loc_perm <- conv4_3_norm_mbox_loc
I0601 10:17:57.437213 14411 net.cpp:408] conv4_3_norm_mbox_loc_perm -> conv4_3_norm_mbox_loc_perm
I0601 10:17:57.437278 14411 net.cpp:150] Setting up conv4_3_norm_mbox_loc_perm
I0601 10:17:57.437283 14411 net.cpp:157] Top shape: 32 38 38 16 (739328)
I0601 10:17:57.437285 14411 net.cpp:165] Memory required for data: 7913422880
I0601 10:17:57.437288 14411 layer_factory.hpp:77] Creating layer conv4_3_norm_mbox_loc_flat
I0601 10:17:57.437291 14411 net.cpp:100] Creating Layer conv4_3_norm_mbox_loc_flat
I0601 10:17:57.437294 14411 net.cpp:434] conv4_3_norm_mbox_loc_flat <- conv4_3_norm_mbox_loc_perm
I0601 10:17:57.437299 14411 net.cpp:408] conv4_3_norm_mbox_loc_flat -> conv4_3_norm_mbox_loc_flat
I0601 10:17:57.437324 14411 net.cpp:150] Setting up conv4_3_norm_mbox_loc_flat
I0601 10:17:57.437328 14411 net.cpp:157] Top shape: 32 23104 (739328)
I0601 10:17:57.437330 14411 net.cpp:165] Memory required for data: 7916380192
I0601 10:17:57.437333 14411 layer_factory.hpp:77] Creating layer conv4_3_norm_mbox_conf
I0601 10:17:57.437343 14411 net.cpp:100] Creating Layer conv4_3_norm_mbox_conf
I0601 10:17:57.437347 14411 net.cpp:434] conv4_3_norm_mbox_conf <- conv4_3_norm_conv4_3_norm_0_split_1
I0601 10:17:57.437352 14411 net.cpp:408] conv4_3_norm_mbox_conf -> conv4_3_norm_mbox_conf
I0601 10:17:57.437798 14411 net.cpp:150] Setting up conv4_3_norm_mbox_conf
I0601 10:17:57.437805 14411 net.cpp:157] Top shape: 32 16 38 38 (739328)
I0601 10:17:57.437808 14411 net.cpp:165] Memory required for data: 7919337504
I0601 10:17:57.437813 14411 layer_factory.hpp:77] Creating layer conv4_3_norm_mbox_conf_perm
I0601 10:17:57.437816 14411 net.cpp:100] Creating Layer conv4_3_norm_mbox_conf_perm
I0601 10:17:57.437819 14411 net.cpp:434] conv4_3_norm_mbox_conf_perm <- conv4_3_norm_mbox_conf
I0601 10:17:57.437824 14411 net.cpp:408] conv4_3_norm_mbox_conf_perm -> conv4_3_norm_mbox_conf_perm
I0601 10:17:57.437887 14411 net.cpp:150] Setting up conv4_3_norm_mbox_conf_perm
I0601 10:17:57.437892 14411 net.cpp:157] Top shape: 32 38 38 16 (739328)
I0601 10:17:57.437894 14411 net.cpp:165] Memory required for data: 7922294816
I0601 10:17:57.437896 14411 layer_factory.hpp:77] Creating layer conv4_3_norm_mbox_conf_flat
I0601 10:17:57.437901 14411 net.cpp:100] Creating Layer conv4_3_norm_mbox_conf_flat
I0601 10:17:57.437903 14411 net.cpp:434] conv4_3_norm_mbox_conf_flat <- conv4_3_norm_mbox_conf_perm
I0601 10:17:57.437908 14411 net.cpp:408] conv4_3_norm_mbox_conf_flat -> conv4_3_norm_mbox_conf_flat
I0601 10:17:57.437930 14411 net.cpp:150] Setting up conv4_3_norm_mbox_conf_flat
I0601 10:17:57.437935 14411 net.cpp:157] Top shape: 32 23104 (739328)
I0601 10:17:57.437937 14411 net.cpp:165] Memory required for data: 7925252128
I0601 10:17:57.437939 14411 layer_factory.hpp:77] Creating layer conv4_3_norm_mbox_priorbox
I0601 10:17:57.437945 14411 net.cpp:100] Creating Layer conv4_3_norm_mbox_priorbox
I0601 10:17:57.437949 14411 net.cpp:434] conv4_3_norm_mbox_priorbox <- conv4_3_norm_conv4_3_norm_0_split_2
I0601 10:17:57.437952 14411 net.cpp:434] conv4_3_norm_mbox_priorbox <- data_data_0_split_1
I0601 10:17:57.437958 14411 net.cpp:408] conv4_3_norm_mbox_priorbox -> conv4_3_norm_mbox_priorbox
I0601 10:17:57.437975 14411 net.cpp:150] Setting up conv4_3_norm_mbox_priorbox
I0601 10:17:57.437980 14411 net.cpp:157] Top shape: 1 2 23104 (46208)
I0601 10:17:57.437983 14411 net.cpp:165] Memory required for data: 7925436960
I0601 10:17:57.437984 14411 layer_factory.hpp:77] Creating layer fc7_mbox_loc
I0601 10:17:57.437993 14411 net.cpp:100] Creating Layer fc7_mbox_loc
I0601 10:17:57.437997 14411 net.cpp:434] fc7_mbox_loc <- fc7_relu7_0_split_1
I0601 10:17:57.438001 14411 net.cpp:408] fc7_mbox_loc -> fc7_mbox_loc
I0601 10:17:57.439049 14411 net.cpp:150] Setting up fc7_mbox_loc
I0601 10:17:57.439055 14411 net.cpp:157] Top shape: 32 24 19 19 (277248)
I0601 10:17:57.439059 14411 net.cpp:165] Memory required for data: 7926545952
I0601 10:17:57.439062 14411 layer_factory.hpp:77] Creating layer fc7_mbox_loc_perm
I0601 10:17:57.439066 14411 net.cpp:100] Creating Layer fc7_mbox_loc_perm
I0601 10:17:57.439069 14411 net.cpp:434] fc7_mbox_loc_perm <- fc7_mbox_loc
I0601 10:17:57.439074 14411 net.cpp:408] fc7_mbox_loc_perm -> fc7_mbox_loc_perm
I0601 10:17:57.439136 14411 net.cpp:150] Setting up fc7_mbox_loc_perm
I0601 10:17:57.439141 14411 net.cpp:157] Top shape: 32 19 19 24 (277248)
I0601 10:17:57.439143 14411 net.cpp:165] Memory required for data: 7927654944
I0601 10:17:57.439146 14411 layer_factory.hpp:77] Creating layer fc7_mbox_loc_flat
I0601 10:17:57.439149 14411 net.cpp:100] Creating Layer fc7_mbox_loc_flat
I0601 10:17:57.439152 14411 net.cpp:434] fc7_mbox_loc_flat <- fc7_mbox_loc_perm
I0601 10:17:57.439155 14411 net.cpp:408] fc7_mbox_loc_flat -> fc7_mbox_loc_flat
I0601 10:17:57.439170 14411 net.cpp:150] Setting up fc7_mbox_loc_flat
I0601 10:17:57.439175 14411 net.cpp:157] Top shape: 32 8664 (277248)
I0601 10:17:57.439178 14411 net.cpp:165] Memory required for data: 7928763936
I0601 10:17:57.439180 14411 layer_factory.hpp:77] Creating layer fc7_mbox_conf
I0601 10:17:57.439188 14411 net.cpp:100] Creating Layer fc7_mbox_conf
I0601 10:17:57.439193 14411 net.cpp:434] fc7_mbox_conf <- fc7_relu7_0_split_2
I0601 10:17:57.439196 14411 net.cpp:408] fc7_mbox_conf -> fc7_mbox_conf
I0601 10:17:57.440249 14411 net.cpp:150] Setting up fc7_mbox_conf
I0601 10:17:57.440256 14411 net.cpp:157] Top shape: 32 24 19 19 (277248)
I0601 10:17:57.440258 14411 net.cpp:165] Memory required for data: 7929872928
I0601 10:17:57.440263 14411 layer_factory.hpp:77] Creating layer fc7_mbox_conf_perm
I0601 10:17:57.440266 14411 net.cpp:100] Creating Layer fc7_mbox_conf_perm
I0601 10:17:57.440269 14411 net.cpp:434] fc7_mbox_conf_perm <- fc7_mbox_conf
I0601 10:17:57.440275 14411 net.cpp:408] fc7_mbox_conf_perm -> fc7_mbox_conf_perm
I0601 10:17:57.440337 14411 net.cpp:150] Setting up fc7_mbox_conf_perm
I0601 10:17:57.440342 14411 net.cpp:157] Top shape: 32 19 19 24 (277248)
I0601 10:17:57.440345 14411 net.cpp:165] Memory required for data: 7930981920
I0601 10:17:57.440346 14411 layer_factory.hpp:77] Creating layer fc7_mbox_conf_flat
I0601 10:17:57.440349 14411 net.cpp:100] Creating Layer fc7_mbox_conf_flat
I0601 10:17:57.440352 14411 net.cpp:434] fc7_mbox_conf_flat <- fc7_mbox_conf_perm
I0601 10:17:57.440356 14411 net.cpp:408] fc7_mbox_conf_flat -> fc7_mbox_conf_flat
I0601 10:17:57.440371 14411 net.cpp:150] Setting up fc7_mbox_conf_flat
I0601 10:17:57.440376 14411 net.cpp:157] Top shape: 32 8664 (277248)
I0601 10:17:57.440378 14411 net.cpp:165] Memory required for data: 7932090912
I0601 10:17:57.440387 14411 layer_factory.hpp:77] Creating layer fc7_mbox_priorbox
I0601 10:17:57.440392 14411 net.cpp:100] Creating Layer fc7_mbox_priorbox
I0601 10:17:57.440395 14411 net.cpp:434] fc7_mbox_priorbox <- fc7_relu7_0_split_3
I0601 10:17:57.440399 14411 net.cpp:434] fc7_mbox_priorbox <- data_data_0_split_2
I0601 10:17:57.440403 14411 net.cpp:408] fc7_mbox_priorbox -> fc7_mbox_priorbox
I0601 10:17:57.440421 14411 net.cpp:150] Setting up fc7_mbox_priorbox
I0601 10:17:57.440428 14411 net.cpp:157] Top shape: 1 2 8664 (17328)
I0601 10:17:57.440430 14411 net.cpp:165] Memory required for data: 7932160224
I0601 10:17:57.440433 14411 layer_factory.hpp:77] Creating layer conv6_2_mbox_loc
I0601 10:17:57.440439 14411 net.cpp:100] Creating Layer conv6_2_mbox_loc
I0601 10:17:57.440441 14411 net.cpp:434] conv6_2_mbox_loc <- conv6_2_conv6_2_relu_0_split_1
I0601 10:17:57.440448 14411 net.cpp:408] conv6_2_mbox_loc -> conv6_2_mbox_loc
I0601 10:17:57.441048 14411 net.cpp:150] Setting up conv6_2_mbox_loc
I0601 10:17:57.441056 14411 net.cpp:157] Top shape: 32 24 10 10 (76800)
I0601 10:17:57.441061 14411 net.cpp:165] Memory required for data: 7932467424
I0601 10:17:57.441066 14411 layer_factory.hpp:77] Creating layer conv6_2_mbox_loc_perm
I0601 10:17:57.441069 14411 net.cpp:100] Creating Layer conv6_2_mbox_loc_perm
I0601 10:17:57.441072 14411 net.cpp:434] conv6_2_mbox_loc_perm <- conv6_2_mbox_loc
I0601 10:17:57.441076 14411 net.cpp:408] conv6_2_mbox_loc_perm -> conv6_2_mbox_loc_perm
I0601 10:17:57.441138 14411 net.cpp:150] Setting up conv6_2_mbox_loc_perm
I0601 10:17:57.441143 14411 net.cpp:157] Top shape: 32 10 10 24 (76800)
I0601 10:17:57.441145 14411 net.cpp:165] Memory required for data: 7932774624
I0601 10:17:57.441148 14411 layer_factory.hpp:77] Creating layer conv6_2_mbox_loc_flat
I0601 10:17:57.441153 14411 net.cpp:100] Creating Layer conv6_2_mbox_loc_flat
I0601 10:17:57.441154 14411 net.cpp:434] conv6_2_mbox_loc_flat <- conv6_2_mbox_loc_perm
I0601 10:17:57.441159 14411 net.cpp:408] conv6_2_mbox_loc_flat -> conv6_2_mbox_loc_flat
I0601 10:17:57.441174 14411 net.cpp:150] Setting up conv6_2_mbox_loc_flat
I0601 10:17:57.441177 14411 net.cpp:157] Top shape: 32 2400 (76800)
I0601 10:17:57.441179 14411 net.cpp:165] Memory required for data: 7933081824
I0601 10:17:57.441180 14411 layer_factory.hpp:77] Creating layer conv6_2_mbox_conf
I0601 10:17:57.441187 14411 net.cpp:100] Creating Layer conv6_2_mbox_conf
I0601 10:17:57.441190 14411 net.cpp:434] conv6_2_mbox_conf <- conv6_2_conv6_2_relu_0_split_2
I0601 10:17:57.441195 14411 net.cpp:408] conv6_2_mbox_conf -> conv6_2_mbox_conf
I0601 10:17:57.441807 14411 net.cpp:150] Setting up conv6_2_mbox_conf
I0601 10:17:57.441814 14411 net.cpp:157] Top shape: 32 24 10 10 (76800)
I0601 10:17:57.441817 14411 net.cpp:165] Memory required for data: 7933389024
I0601 10:17:57.441820 14411 layer_factory.hpp:77] Creating layer conv6_2_mbox_conf_perm
I0601 10:17:57.441823 14411 net.cpp:100] Creating Layer conv6_2_mbox_conf_perm
I0601 10:17:57.441826 14411 net.cpp:434] conv6_2_mbox_conf_perm <- conv6_2_mbox_conf
I0601 10:17:57.441831 14411 net.cpp:408] conv6_2_mbox_conf_perm -> conv6_2_mbox_conf_perm
I0601 10:17:57.441893 14411 net.cpp:150] Setting up conv6_2_mbox_conf_perm
I0601 10:17:57.441900 14411 net.cpp:157] Top shape: 32 10 10 24 (76800)
I0601 10:17:57.441902 14411 net.cpp:165] Memory required for data: 7933696224
I0601 10:17:57.441905 14411 layer_factory.hpp:77] Creating layer conv6_2_mbox_conf_flat
I0601 10:17:57.441908 14411 net.cpp:100] Creating Layer conv6_2_mbox_conf_flat
I0601 10:17:57.441910 14411 net.cpp:434] conv6_2_mbox_conf_flat <- conv6_2_mbox_conf_perm
I0601 10:17:57.441915 14411 net.cpp:408] conv6_2_mbox_conf_flat -> conv6_2_mbox_conf_flat
I0601 10:17:57.441928 14411 net.cpp:150] Setting up conv6_2_mbox_conf_flat
I0601 10:17:57.441932 14411 net.cpp:157] Top shape: 32 2400 (76800)
I0601 10:17:57.441934 14411 net.cpp:165] Memory required for data: 7934003424
I0601 10:17:57.441937 14411 layer_factory.hpp:77] Creating layer conv6_2_mbox_priorbox
I0601 10:17:57.441951 14411 net.cpp:100] Creating Layer conv6_2_mbox_priorbox
I0601 10:17:57.441953 14411 net.cpp:434] conv6_2_mbox_priorbox <- conv6_2_conv6_2_relu_0_split_3
I0601 10:17:57.441956 14411 net.cpp:434] conv6_2_mbox_priorbox <- data_data_0_split_3
I0601 10:17:57.441962 14411 net.cpp:408] conv6_2_mbox_priorbox -> conv6_2_mbox_priorbox
I0601 10:17:57.441978 14411 net.cpp:150] Setting up conv6_2_mbox_priorbox
I0601 10:17:57.441983 14411 net.cpp:157] Top shape: 1 2 2400 (4800)
I0601 10:17:57.441987 14411 net.cpp:165] Memory required for data: 7934022624
I0601 10:17:57.441989 14411 layer_factory.hpp:77] Creating layer conv7_2_mbox_loc
I0601 10:17:57.441994 14411 net.cpp:100] Creating Layer conv7_2_mbox_loc
I0601 10:17:57.441997 14411 net.cpp:434] conv7_2_mbox_loc <- conv7_2_conv7_2_relu_0_split_1
I0601 10:17:57.442001 14411 net.cpp:408] conv7_2_mbox_loc -> conv7_2_mbox_loc
I0601 10:17:57.442394 14411 net.cpp:150] Setting up conv7_2_mbox_loc
I0601 10:17:57.442401 14411 net.cpp:157] Top shape: 32 24 5 5 (19200)
I0601 10:17:57.442404 14411 net.cpp:165] Memory required for data: 7934099424
I0601 10:17:57.442407 14411 layer_factory.hpp:77] Creating layer conv7_2_mbox_loc_perm
I0601 10:17:57.442412 14411 net.cpp:100] Creating Layer conv7_2_mbox_loc_perm
I0601 10:17:57.442414 14411 net.cpp:434] conv7_2_mbox_loc_perm <- conv7_2_mbox_loc
I0601 10:17:57.442420 14411 net.cpp:408] conv7_2_mbox_loc_perm -> conv7_2_mbox_loc_perm
I0601 10:17:57.442484 14411 net.cpp:150] Setting up conv7_2_mbox_loc_perm
I0601 10:17:57.442489 14411 net.cpp:157] Top shape: 32 5 5 24 (19200)
I0601 10:17:57.442492 14411 net.cpp:165] Memory required for data: 7934176224
I0601 10:17:57.442493 14411 layer_factory.hpp:77] Creating layer conv7_2_mbox_loc_flat
I0601 10:17:57.442497 14411 net.cpp:100] Creating Layer conv7_2_mbox_loc_flat
I0601 10:17:57.442499 14411 net.cpp:434] conv7_2_mbox_loc_flat <- conv7_2_mbox_loc_perm
I0601 10:17:57.442503 14411 net.cpp:408] conv7_2_mbox_loc_flat -> conv7_2_mbox_loc_flat
I0601 10:17:57.442517 14411 net.cpp:150] Setting up conv7_2_mbox_loc_flat
I0601 10:17:57.442522 14411 net.cpp:157] Top shape: 32 600 (19200)
I0601 10:17:57.442523 14411 net.cpp:165] Memory required for data: 7934253024
I0601 10:17:57.442525 14411 layer_factory.hpp:77] Creating layer conv7_2_mbox_conf
I0601 10:17:57.442533 14411 net.cpp:100] Creating Layer conv7_2_mbox_conf
I0601 10:17:57.442535 14411 net.cpp:434] conv7_2_mbox_conf <- conv7_2_conv7_2_relu_0_split_2
I0601 10:17:57.442541 14411 net.cpp:408] conv7_2_mbox_conf -> conv7_2_mbox_conf
I0601 10:17:57.442916 14411 net.cpp:150] Setting up conv7_2_mbox_conf
I0601 10:17:57.442922 14411 net.cpp:157] Top shape: 32 24 5 5 (19200)
I0601 10:17:57.442924 14411 net.cpp:165] Memory required for data: 7934329824
I0601 10:17:57.442929 14411 layer_factory.hpp:77] Creating layer conv7_2_mbox_conf_perm
I0601 10:17:57.442932 14411 net.cpp:100] Creating Layer conv7_2_mbox_conf_perm
I0601 10:17:57.442934 14411 net.cpp:434] conv7_2_mbox_conf_perm <- conv7_2_mbox_conf
I0601 10:17:57.442937 14411 net.cpp:408] conv7_2_mbox_conf_perm -> conv7_2_mbox_conf_perm
I0601 10:17:57.443002 14411 net.cpp:150] Setting up conv7_2_mbox_conf_perm
I0601 10:17:57.443008 14411 net.cpp:157] Top shape: 32 5 5 24 (19200)
I0601 10:17:57.443011 14411 net.cpp:165] Memory required for data: 7934406624
I0601 10:17:57.443013 14411 layer_factory.hpp:77] Creating layer conv7_2_mbox_conf_flat
I0601 10:17:57.443018 14411 net.cpp:100] Creating Layer conv7_2_mbox_conf_flat
I0601 10:17:57.443022 14411 net.cpp:434] conv7_2_mbox_conf_flat <- conv7_2_mbox_conf_perm
I0601 10:17:57.443024 14411 net.cpp:408] conv7_2_mbox_conf_flat -> conv7_2_mbox_conf_flat
I0601 10:17:57.443039 14411 net.cpp:150] Setting up conv7_2_mbox_conf_flat
I0601 10:17:57.443044 14411 net.cpp:157] Top shape: 32 600 (19200)
I0601 10:17:57.443047 14411 net.cpp:165] Memory required for data: 7934483424
I0601 10:17:57.443048 14411 layer_factory.hpp:77] Creating layer conv7_2_mbox_priorbox
I0601 10:17:57.443053 14411 net.cpp:100] Creating Layer conv7_2_mbox_priorbox
I0601 10:17:57.443056 14411 net.cpp:434] conv7_2_mbox_priorbox <- conv7_2_conv7_2_relu_0_split_3
I0601 10:17:57.443066 14411 net.cpp:434] conv7_2_mbox_priorbox <- data_data_0_split_4
I0601 10:17:57.443070 14411 net.cpp:408] conv7_2_mbox_priorbox -> conv7_2_mbox_priorbox
I0601 10:17:57.443087 14411 net.cpp:150] Setting up conv7_2_mbox_priorbox
I0601 10:17:57.443092 14411 net.cpp:157] Top shape: 1 2 600 (1200)
I0601 10:17:57.443094 14411 net.cpp:165] Memory required for data: 7934488224
I0601 10:17:57.443096 14411 layer_factory.hpp:77] Creating layer conv8_2_mbox_loc
I0601 10:17:57.443104 14411 net.cpp:100] Creating Layer conv8_2_mbox_loc
I0601 10:17:57.443107 14411 net.cpp:434] conv8_2_mbox_loc <- conv8_2_conv8_2_relu_0_split_1
I0601 10:17:57.443114 14411 net.cpp:408] conv8_2_mbox_loc -> conv8_2_mbox_loc
I0601 10:17:57.443416 14411 net.cpp:150] Setting up conv8_2_mbox_loc
I0601 10:17:57.443423 14411 net.cpp:157] Top shape: 32 16 3 3 (4608)
I0601 10:17:57.443424 14411 net.cpp:165] Memory required for data: 7934506656
I0601 10:17:57.443435 14411 layer_factory.hpp:77] Creating layer conv8_2_mbox_loc_perm
I0601 10:17:57.443440 14411 net.cpp:100] Creating Layer conv8_2_mbox_loc_perm
I0601 10:17:57.443444 14411 net.cpp:434] conv8_2_mbox_loc_perm <- conv8_2_mbox_loc
I0601 10:17:57.443447 14411 net.cpp:408] conv8_2_mbox_loc_perm -> conv8_2_mbox_loc_perm
I0601 10:17:57.443512 14411 net.cpp:150] Setting up conv8_2_mbox_loc_perm
I0601 10:17:57.443516 14411 net.cpp:157] Top shape: 32 3 3 16 (4608)
I0601 10:17:57.443519 14411 net.cpp:165] Memory required for data: 7934525088
I0601 10:17:57.443521 14411 layer_factory.hpp:77] Creating layer conv8_2_mbox_loc_flat
I0601 10:17:57.443524 14411 net.cpp:100] Creating Layer conv8_2_mbox_loc_flat
I0601 10:17:57.443527 14411 net.cpp:434] conv8_2_mbox_loc_flat <- conv8_2_mbox_loc_perm
I0601 10:17:57.443531 14411 net.cpp:408] conv8_2_mbox_loc_flat -> conv8_2_mbox_loc_flat
I0601 10:17:57.443547 14411 net.cpp:150] Setting up conv8_2_mbox_loc_flat
I0601 10:17:57.443552 14411 net.cpp:157] Top shape: 32 144 (4608)
I0601 10:17:57.443554 14411 net.cpp:165] Memory required for data: 7934543520
I0601 10:17:57.443557 14411 layer_factory.hpp:77] Creating layer conv8_2_mbox_conf
I0601 10:17:57.443562 14411 net.cpp:100] Creating Layer conv8_2_mbox_conf
I0601 10:17:57.443565 14411 net.cpp:434] conv8_2_mbox_conf <- conv8_2_conv8_2_relu_0_split_2
I0601 10:17:57.443569 14411 net.cpp:408] conv8_2_mbox_conf -> conv8_2_mbox_conf
I0601 10:17:57.443861 14411 net.cpp:150] Setting up conv8_2_mbox_conf
I0601 10:17:57.443869 14411 net.cpp:157] Top shape: 32 16 3 3 (4608)
I0601 10:17:57.443872 14411 net.cpp:165] Memory required for data: 7934561952
I0601 10:17:57.443877 14411 layer_factory.hpp:77] Creating layer conv8_2_mbox_conf_perm
I0601 10:17:57.443882 14411 net.cpp:100] Creating Layer conv8_2_mbox_conf_perm
I0601 10:17:57.443886 14411 net.cpp:434] conv8_2_mbox_conf_perm <- conv8_2_mbox_conf
I0601 10:17:57.443891 14411 net.cpp:408] conv8_2_mbox_conf_perm -> conv8_2_mbox_conf_perm
I0601 10:17:57.443951 14411 net.cpp:150] Setting up conv8_2_mbox_conf_perm
I0601 10:17:57.443956 14411 net.cpp:157] Top shape: 32 3 3 16 (4608)
I0601 10:17:57.443959 14411 net.cpp:165] Memory required for data: 7934580384
I0601 10:17:57.443960 14411 layer_factory.hpp:77] Creating layer conv8_2_mbox_conf_flat
I0601 10:17:57.443964 14411 net.cpp:100] Creating Layer conv8_2_mbox_conf_flat
I0601 10:17:57.443967 14411 net.cpp:434] conv8_2_mbox_conf_flat <- conv8_2_mbox_conf_perm
I0601 10:17:57.443971 14411 net.cpp:408] conv8_2_mbox_conf_flat -> conv8_2_mbox_conf_flat
I0601 10:17:57.443985 14411 net.cpp:150] Setting up conv8_2_mbox_conf_flat
I0601 10:17:57.443989 14411 net.cpp:157] Top shape: 32 144 (4608)
I0601 10:17:57.443991 14411 net.cpp:165] Memory required for data: 7934598816
I0601 10:17:57.443994 14411 layer_factory.hpp:77] Creating layer conv8_2_mbox_priorbox
I0601 10:17:57.443998 14411 net.cpp:100] Creating Layer conv8_2_mbox_priorbox
I0601 10:17:57.444001 14411 net.cpp:434] conv8_2_mbox_priorbox <- conv8_2_conv8_2_relu_0_split_3
I0601 10:17:57.444003 14411 net.cpp:434] conv8_2_mbox_priorbox <- data_data_0_split_5
I0601 10:17:57.444015 14411 net.cpp:408] conv8_2_mbox_priorbox -> conv8_2_mbox_priorbox
I0601 10:17:57.444032 14411 net.cpp:150] Setting up conv8_2_mbox_priorbox
I0601 10:17:57.444036 14411 net.cpp:157] Top shape: 1 2 144 (288)
I0601 10:17:57.444038 14411 net.cpp:165] Memory required for data: 7934599968
I0601 10:17:57.444041 14411 layer_factory.hpp:77] Creating layer conv9_2_mbox_loc
I0601 10:17:57.444046 14411 net.cpp:100] Creating Layer conv9_2_mbox_loc
I0601 10:17:57.444049 14411 net.cpp:434] conv9_2_mbox_loc <- conv9_2_conv9_2_relu_0_split_0
I0601 10:17:57.444054 14411 net.cpp:408] conv9_2_mbox_loc -> conv9_2_mbox_loc
I0601 10:17:57.444360 14411 net.cpp:150] Setting up conv9_2_mbox_loc
I0601 10:17:57.444365 14411 net.cpp:157] Top shape: 32 16 1 1 (512)
I0601 10:17:57.444367 14411 net.cpp:165] Memory required for data: 7934602016
I0601 10:17:57.444371 14411 layer_factory.hpp:77] Creating layer conv9_2_mbox_loc_perm
I0601 10:17:57.444375 14411 net.cpp:100] Creating Layer conv9_2_mbox_loc_perm
I0601 10:17:57.444377 14411 net.cpp:434] conv9_2_mbox_loc_perm <- conv9_2_mbox_loc
I0601 10:17:57.444382 14411 net.cpp:408] conv9_2_mbox_loc_perm -> conv9_2_mbox_loc_perm
I0601 10:17:57.444444 14411 net.cpp:150] Setting up conv9_2_mbox_loc_perm
I0601 10:17:57.444449 14411 net.cpp:157] Top shape: 32 1 1 16 (512)
I0601 10:17:57.444452 14411 net.cpp:165] Memory required for data: 7934604064
I0601 10:17:57.444453 14411 layer_factory.hpp:77] Creating layer conv9_2_mbox_loc_flat
I0601 10:17:57.444458 14411 net.cpp:100] Creating Layer conv9_2_mbox_loc_flat
I0601 10:17:57.444460 14411 net.cpp:434] conv9_2_mbox_loc_flat <- conv9_2_mbox_loc_perm
I0601 10:17:57.444465 14411 net.cpp:408] conv9_2_mbox_loc_flat -> conv9_2_mbox_loc_flat
I0601 10:17:57.444478 14411 net.cpp:150] Setting up conv9_2_mbox_loc_flat
I0601 10:17:57.444483 14411 net.cpp:157] Top shape: 32 16 (512)
I0601 10:17:57.444483 14411 net.cpp:165] Memory required for data: 7934606112
I0601 10:17:57.444486 14411 layer_factory.hpp:77] Creating layer conv9_2_mbox_conf
I0601 10:17:57.444494 14411 net.cpp:100] Creating Layer conv9_2_mbox_conf
I0601 10:17:57.444495 14411 net.cpp:434] conv9_2_mbox_conf <- conv9_2_conv9_2_relu_0_split_1
I0601 10:17:57.444499 14411 net.cpp:408] conv9_2_mbox_conf -> conv9_2_mbox_conf
I0601 10:17:57.444793 14411 net.cpp:150] Setting up conv9_2_mbox_conf
I0601 10:17:57.444802 14411 net.cpp:157] Top shape: 32 16 1 1 (512)
I0601 10:17:57.444804 14411 net.cpp:165] Memory required for data: 7934608160
I0601 10:17:57.444810 14411 layer_factory.hpp:77] Creating layer conv9_2_mbox_conf_perm
I0601 10:17:57.444819 14411 net.cpp:100] Creating Layer conv9_2_mbox_conf_perm
I0601 10:17:57.444824 14411 net.cpp:434] conv9_2_mbox_conf_perm <- conv9_2_mbox_conf
I0601 10:17:57.444830 14411 net.cpp:408] conv9_2_mbox_conf_perm -> conv9_2_mbox_conf_perm
I0601 10:17:57.444911 14411 net.cpp:150] Setting up conv9_2_mbox_conf_perm
I0601 10:17:57.444916 14411 net.cpp:157] Top shape: 32 1 1 16 (512)
I0601 10:17:57.444921 14411 net.cpp:165] Memory required for data: 7934610208
I0601 10:17:57.444923 14411 layer_factory.hpp:77] Creating layer conv9_2_mbox_conf_flat
I0601 10:17:57.444929 14411 net.cpp:100] Creating Layer conv9_2_mbox_conf_flat
I0601 10:17:57.444933 14411 net.cpp:434] conv9_2_mbox_conf_flat <- conv9_2_mbox_conf_perm
I0601 10:17:57.444941 14411 net.cpp:408] conv9_2_mbox_conf_flat -> conv9_2_mbox_conf_flat
I0601 10:17:57.444962 14411 net.cpp:150] Setting up conv9_2_mbox_conf_flat
I0601 10:17:57.444967 14411 net.cpp:157] Top shape: 32 16 (512)
I0601 10:17:57.444970 14411 net.cpp:165] Memory required for data: 7934612256
I0601 10:17:57.444974 14411 layer_factory.hpp:77] Creating layer conv9_2_mbox_priorbox
I0601 10:17:57.444981 14411 net.cpp:100] Creating Layer conv9_2_mbox_priorbox
I0601 10:17:57.444986 14411 net.cpp:434] conv9_2_mbox_priorbox <- conv9_2_conv9_2_relu_0_split_2
I0601 10:17:57.444991 14411 net.cpp:434] conv9_2_mbox_priorbox <- data_data_0_split_6
I0601 10:17:57.444999 14411 net.cpp:408] conv9_2_mbox_priorbox -> conv9_2_mbox_priorbox
I0601 10:17:57.445027 14411 net.cpp:150] Setting up conv9_2_mbox_priorbox
I0601 10:17:57.445034 14411 net.cpp:157] Top shape: 1 2 16 (32)
I0601 10:17:57.445037 14411 net.cpp:165] Memory required for data: 7934612384
I0601 10:17:57.445041 14411 layer_factory.hpp:77] Creating layer mbox_loc
I0601 10:17:57.445049 14411 net.cpp:100] Creating Layer mbox_loc
I0601 10:17:57.445053 14411 net.cpp:434] mbox_loc <- conv4_3_norm_mbox_loc_flat
I0601 10:17:57.445058 14411 net.cpp:434] mbox_loc <- fc7_mbox_loc_flat
I0601 10:17:57.445065 14411 net.cpp:434] mbox_loc <- conv6_2_mbox_loc_flat
I0601 10:17:57.445070 14411 net.cpp:434] mbox_loc <- conv7_2_mbox_loc_flat
I0601 10:17:57.445075 14411 net.cpp:434] mbox_loc <- conv8_2_mbox_loc_flat
I0601 10:17:57.445080 14411 net.cpp:434] mbox_loc <- conv9_2_mbox_loc_flat
I0601 10:17:57.445088 14411 net.cpp:408] mbox_loc -> mbox_loc
I0601 10:17:57.445111 14411 net.cpp:150] Setting up mbox_loc
I0601 10:17:57.445117 14411 net.cpp:157] Top shape: 32 34928 (1117696)
I0601 10:17:57.445122 14411 net.cpp:165] Memory required for data: 7939083168
I0601 10:17:57.445125 14411 layer_factory.hpp:77] Creating layer mbox_conf
I0601 10:17:57.445130 14411 net.cpp:100] Creating Layer mbox_conf
I0601 10:17:57.445135 14411 net.cpp:434] mbox_conf <- conv4_3_norm_mbox_conf_flat
I0601 10:17:57.445140 14411 net.cpp:434] mbox_conf <- fc7_mbox_conf_flat
I0601 10:17:57.445147 14411 net.cpp:434] mbox_conf <- conv6_2_mbox_conf_flat
I0601 10:17:57.445152 14411 net.cpp:434] mbox_conf <- conv7_2_mbox_conf_flat
I0601 10:17:57.445157 14411 net.cpp:434] mbox_conf <- conv8_2_mbox_conf_flat
I0601 10:17:57.445174 14411 net.cpp:434] mbox_conf <- conv9_2_mbox_conf_flat
I0601 10:17:57.445196 14411 net.cpp:408] mbox_conf -> mbox_conf
I0601 10:17:57.445215 14411 net.cpp:150] Setting up mbox_conf
I0601 10:17:57.445221 14411 net.cpp:157] Top shape: 32 34928 (1117696)
I0601 10:17:57.445225 14411 net.cpp:165] Memory required for data: 7943553952
I0601 10:17:57.445228 14411 layer_factory.hpp:77] Creating layer mbox_priorbox
I0601 10:17:57.445235 14411 net.cpp:100] Creating Layer mbox_priorbox
I0601 10:17:57.445238 14411 net.cpp:434] mbox_priorbox <- conv4_3_norm_mbox_priorbox
I0601 10:17:57.445243 14411 net.cpp:434] mbox_priorbox <- fc7_mbox_priorbox
I0601 10:17:57.445250 14411 net.cpp:434] mbox_priorbox <- conv6_2_mbox_priorbox
I0601 10:17:57.445255 14411 net.cpp:434] mbox_priorbox <- conv7_2_mbox_priorbox
I0601 10:17:57.445260 14411 net.cpp:434] mbox_priorbox <- conv8_2_mbox_priorbox
I0601 10:17:57.445264 14411 net.cpp:434] mbox_priorbox <- conv9_2_mbox_priorbox
I0601 10:17:57.445271 14411 net.cpp:408] mbox_priorbox -> mbox_priorbox
I0601 10:17:57.445292 14411 net.cpp:150] Setting up mbox_priorbox
I0601 10:17:57.445298 14411 net.cpp:157] Top shape: 1 2 34928 (69856)
I0601 10:17:57.445302 14411 net.cpp:165] Memory required for data: 7943833376
I0601 10:17:57.445305 14411 layer_factory.hpp:77] Creating layer mbox_loss
I0601 10:17:57.445317 14411 net.cpp:100] Creating Layer mbox_loss
I0601 10:17:57.445320 14411 net.cpp:434] mbox_loss <- mbox_loc
I0601 10:17:57.445325 14411 net.cpp:434] mbox_loss <- mbox_conf
I0601 10:17:57.445330 14411 net.cpp:434] mbox_loss <- mbox_priorbox
…
  name: "data"
  type: "AnnotatedData"
  top: "data"
  top: "label"
  include {
    phase: TEST
  }
  transform_param {
    mean_value: 104
    mean_value: 117
    mean_value: 123
    resize_param {
      prob: 1
      resize_mode: WARP
      height: 300
      width: 300
      interp_mode: LINEAR
    }
  }
  data_param {
    source: "examples/tbs_300x300_HSIL_10x/tbs_300x300_HSIL_10x_test_lmdb"
    batch_size: 4
    backend: LMDB
  }
  annotated_data_param {
    batch_sampler {
    }
    label_map_file: "data/tbs_300x300_HSIL_10x/labelmap_tbs.prototxt"
  }
}
layer {
  name: "conv1_1"
  type: "Convolution"
  bottom: "data"
  top: "conv1_1"
  param {
    lr_mult: 1
    decay_mult: 1
  }
  param {
    lr_mult: 2
    decay_mult: 0
  }
  convolution_param {
    num_output: 64
    pad: 1
    kernel_size: 3
    weight_filler {
      type: "xavier"
    }
    bias_filler {
      type: "constant"
      value: 0
    }
  }
}
layer {
  name: "relu1_1"
  type: "ReLU"
  bottom: "conv1_1"
  top: "conv1_1"
}
layer {
  name: "conv1_2"
  type: "Convolution"
  bottom: "conv1_1"
  top: "conv1_2"
  param {
    lr_mult: 1
    decay_mult: 1
  }
  param {
    lr_mult: 2
    decay_mult: 0
  }
  convolution_param {
    num_output: 64
    pad: 1
    kernel_size: 3
    weight_filler {
      type: "xavier"
    }
    bias_filler {
      type: "constant"
      value: 0
    }
  }
}
layer {
  name: "relu1_2"
  type: "ReLU"
  bottom: "conv1_2"
  top: "conv1_2"
}
layer {
  name: "pool1"
  type: "Pooling"
  bottom: "conv1_2"
  top: "pool1"
  pooling_param {
    pool: MAX
    kernel_size: 2
    stride: 2
  }
}
layer {
  name: "conv2_1"
  type: "Convolution"
  bottom: "pool1"
  top: "conv2_1"
  param {
    lr_mult: 1
    decay_mult: 1
  }
  param {
    lr_mult: 2
    decay_mult: 0
  }
  convolution_param {
    num_output: 128
    pad: 1
    kernel_size: 3
    weight_filler {
      type: "xavier"
    }
    bias_filler {
      type: "constant"
      value: 0
    }
  }
}
layer {
  name: "relu2_1"
  type: "ReLU"
  bottom: "conv2_1"
  top: "conv2_1"
}
layer {
  name: "conv2_2"
  type: "Convolution"
  bottom: "conv2_1"
  top: "conv2_2"
  param {
    lr_mult: 1
    decay_mult: 1
  }
  param {
    lr_mult: 2
    decay_mult: 0
  }
  convolution_param {
    num_output: 128
    pad: 1
    kernel_size: 3
    weight_filler {
      type: "xavier"
    }
    bias_filler {
      type: "constant"
      value: 0
    }
  }
}
layer {
  name: "relu2_2"
  type: "ReLU"
  bottom: "conv2_2"
  top: "conv2_2"
}
layer {
  name: "pool2"
  type: "Pooling"
  bottom: "conv2_2"
  top: "pool2"
  pooling_param {
    pool: MAX
    kernel_size: 2
    stride: 2
  }
}
layer {
  name: "conv3_1"
  type: "Convolution"
  bottom: "pool2"
  top: "conv3_1"
  param {
    lr_mult: 1
    decay_mult: 1
  }
  param {
    lr_mult: 2
    decay_mult: 0
  }
  convolution_param {
    num_output: 256
    pad: 1
    kernel_size: 3
    weight_filler {
      type: "xavier"
    }
    bias_filler {
      type: "constant"
      value: 0
    }
  }
}
layer {
  name: "relu3_1"
  type: "ReLU"
  bottom: "conv3_1"
  top: "conv3_1"
}
layer {
  name: "conv3_2"
  type: "Convolution"
  bottom: "conv3_1"
  top: "conv3_2"
  param {
    lr_mult: 1
    decay_mult: 1
  }
  param {
    lr_mult: 2
    decay_mult: 0
  }
  convolution_param {
    num_output: 256
    pad: 1
    kernel_size: 3
    weight_filler {
      type: "xavier"
    }
    bias_filler {
      type: "constant"
      value: 0
    }
  }
}
layer {
  name: "relu3_2"
  type: "ReLU"
  bottom: "conv3_2"
  top: "conv3_2"
}
layer {
  name: "conv3_3"
  type: "Convolution"
  bottom: "conv3_2"
  top: "conv3_3"
  param {
    lr_mult: 1
    decay_mult: 1
  }
  param {
    lr_mult: 2
    decay_mult: 0
  }
  convolution_param {
    num_output: 256
    pad: 1
    kernel_size: 3
    weight_filler {
      type: "xavier"
    }
    bias_filler {
      type: "constant"
      value: 0
    }
  }
}
layer {
  name: "relu3_3"
  type: "ReLU"
  bottom: "conv3_3"
  top: "conv3_3"
}
layer {
  name: "pool3"
  type: "Pooling"
  bottom: "conv3_3"
  top: "pool3"
  pooling_param {
    pool: MAX
    kernel_size: 2
    stride: 2
  }
}
layer {
  name: "conv4_1"
  type: "Convolution"
  bottom: "pool3"
  top: "conv4_1"
  param {
    lr_mult: 1
    decay_mult: 1
  }
  param {
    lr_mult: 2
    decay_mult: 0
  }
  convolution_param {
    num_output: 512
    pad: 1
    kernel_size: 3
    weight_filler {
      type: "xavier"
    }
    bias_filler {
      type: "constant"
      value: 0
    }
  }
}
layer {
  name: "relu4_1"
  type: "ReLU"
  bottom: "conv4_1"
  top: "conv4_1"
}
layer {
  name: "conv4_2"
  type: "Convolution"
  bottom: "conv4_1"
  top: "conv4_2"
  param {
    lr_mult: 1
    decay_mult: 1
  }
  param {
    lr_mult: 2
    decay_mult: 0
  }
  convolution_param {
    num_output: 512
    pad: 1
    kernel_size: 3
    weight_filler {
      type: "xavier"
    }
    bias_filler {
      type: "constant"
      value: 0
    }
  }
}
layer {
  name: "relu4_2"
  type: "ReLU"
  bottom: "conv4_2"
  top: "conv4_2"
}
layer {
  name: "conv4_3"
  type: "Convolution"
  bottom: "conv4_2"
  top: "conv4_3"
  param {
    lr_mult: 1
    decay_mult: 1
  }
  param {
    lr_mult: 2
    decay_mult: 0
  }
  convolution_param {
    num_output: 512
    pad: 1
    kernel_size: 3
    weight_filler {
      type: "xavier"
    }
    bias_filler {
      type: "constant"
      value: 0
    }
  }
}
layer {
  name: "relu4_3"
  type: "ReLU"
  bottom: "conv4_3"
  top: "conv4_3"
}
layer {
  name: "pool4"
  type: "Pooling"
  bottom: "conv4_3"
  top: "pool4"
  pooling_param {
    pool: MAX
    kernel_size: 2
    stride: 2
  }
}
layer {
  name: "conv5_1"
  type: "Convolution"
  bottom: "pool4"
  top: "conv5_1"
  param {
    lr_mult: 1
    decay_mult: 1
  }
  param {
    lr_mult: 2
    decay_mult: 0
  }
  convolution_param {
    num_output: 512
    pad: 1
    kernel_size: 3
    weight_filler {
      type: "xavier"
    }
    bias_filler {
      type: "constant"
      value: 0
    }
    dilation: 1
  }
}
layer {
  name: "relu5_1"
  type: "ReLU"
  bottom: "conv5_1"
  top: "conv5_1"
}
layer {
  name: "conv5_2"
  type: "Convolution"
  bottom: "conv5_1"
  top: "conv5_2"
  param {
    lr_mult: 1
    decay_mult: 1
  }
  param {
    lr_mult: 2
    decay_mult: 0
  }
  convolution_param {
    num_output: 512
    pad: 1
    kernel_size: 3
    weight_filler {
      type: "xavier"
    }
    bias_filler {
      type: "constant"
      value: 0
    }
    dilation: 1
  }
}
layer {
  name: "relu5_2"
  type: "ReLU"
  bottom: "conv5_2"
  top: "conv5_2"
}
layer {
  name: "conv5_3"
  type: "Convolution"
  bottom: "conv5_2"
  top: "conv5_3"
  param {
    lr_mult: 1
    decay_mult: 1
  }
  param {
    lr_mult: 2
    decay_mult: 0
  }
  convolution_param {
    num_output: 512
    pad: 1
    kernel_size: 3
    weight_filler {
      type: "xavier"
    }
    bias_filler {
      type: "constant"
      value: 0
    }
    dilation: 1
  }
}
layer {
  name: "relu5_3"
  type: "ReLU"
  bottom: "conv5_3"
  top: "conv5_3"
}
layer {
  name: "pool5"
  type: "Pooling"
  bottom: "conv5_3"
  top: "pool5"
  pooling_param {
    pool: MAX
    kernel_size: 3
    stride: 1
    pad: 1
  }
}
layer {
  name: "fc6"
  type: "Convolution"
  bottom: "pool5"
  top: "fc6"
  param {
    lr_mult: 1
    decay_mult: 1
  }
  param {
    lr_mult: 2
    decay_mult: 0
  }
  convolution_param {
    num_output: 1024
    pad: 6
    kernel_size: 3
    weight_filler {
      type: "xavier"
    }
    bias_filler {
      type: "constant"
      value: 0
    }
    dilation: 6
  }
}
layer {
  name: "relu6"
  type: "ReLU"
  bottom: "fc6"
  top: "fc6"
}
layer {
  name: "fc7"
  type: "Convolution"
  bottom: "fc6"
  top: "fc7"
  param {
    lr_mult: 1
    decay_mult: 1
  }
  param {
    lr_mult: 2
    decay_mult: 0
  }
  convolution_param {
    num_output: 1024
    kernel_size: 1
    weight_filler {
      type: "xavier"
    }
    bias_filler {
      type: "constant"
      value: 0
    }
  }
}
layer {
  name: "relu7"
  type: "ReLU"
  bottom: "fc7"
  top: "fc7"
}
layer {
  name: "conv6_1"
  type: "Convolution"
  bottom: "fc7"
  top: "conv6_1"
  param {
    lr_mult: 1
    decay_mult: 1
  }
  param {
    lr_mult: 2
    decay_mult: 0
  }
  convolution_param {
    num_output: 256
    pad: 0
    kernel_size: 1
    stride: 1
    weight_filler {
      type: "xavier"
    }
    bias_filler {
      type: "constant"
      value: 0
    }
  }
}
layer {
  name: "conv6_1_relu"
  type: "ReLU"
  bottom: "conv6_1"
  top: "conv6_1"
}
layer {
  name: "conv6_2"
  type: "Convolution"
  bottom: "conv6_1"
  top: "conv6_2"
  param {
    lr_mult: 1
    decay_mult: 1
  }
  param {
    lr_mult: 2
    decay_mult: 0
  }
  convolution_param {
    num_output: 512
    pad: 1
    kernel_size: 3
    stride: 2
    weight_filler {
      type: "xavier"
    }
    bias_filler {
      type: "constant"
      value: 0
    }
  }
}
layer {
  name: "conv6_2_relu"
  type: "ReLU"
  bottom: "conv6_2"
  top: "conv6_2"
}
layer {
  name: "conv7_1"
  type: "Convolution"
  bottom: "conv6_2"
  top: "conv7_1"
  param {
    lr_mult: 1
    decay_mult: 1
  }
  param {
    lr_mult: 2
    decay_mult: 0
  }
  convolution_param {
    num_output: 128
    pad: 0
    kernel_size: 1
    stride: 1
    weight_filler {
      type: "xavier"
    }
    bias_filler {
      type: "constant"
      value: 0
    }
  }
}
layer {
  name: "conv7_1_relu"
  type: "ReLU"
  bottom: "conv7_1"
  top: "conv7_1"
}
layer {
  name: "conv7_2"
  type: "Convolution"
  bottom: "conv7_1"
  top: "conv7_2"
  param {
    lr_mult: 1
    decay_mult: 1
  }
  param {
    lr_mult: 2
    decay_mult: 0
  }
  convolution_param {
    num_output: 256
    pad: 1
    kernel_size: 3
    stride: 2
    weight_filler {
      type: "xavier"
    }
    bias_filler {
      type: "constant"
      value: 0
    }
  }
}
layer {
  name: "conv7_2_relu"
  type: "ReLU"
  bottom: "conv7_2"
  top: "conv7_2"
}
layer {
  name: "conv8_1"
  type: "Convolution"
  bottom: "conv7_2"
  top: "conv8_1"
  param {
    lr_mult: 1
    decay_mult: 1
  }
  param {
    lr_mult: 2
    decay_mult: 0
  }
  convolution_param {
    num_output: 128
    pad: 0
    kernel_size: 1
    stride: 1
    weight_filler {
      type: "xavier"
    }
    bias_filler {
      type: "constant"
      value: 0
    }
  }
}
layer {
  name: "conv8_1_relu"
  type: "ReLU"
  bottom: "conv8_1"
  top: "conv8_1"
}
layer {
  name: "conv8_2"
  type: "Convolution"
  bottom: "conv8_1"
  top: "conv8_2"
  param {
    lr_mult: 1
    decay_mult: 1
  }
  param {
    lr_mult: 2
    decay_mult: 0
  }
  convolution_param {
    num_output: 256
    pad: 0
    kernel_size: 3
    stride: 1
    weight_filler {
      type: "xavier"
    }
    bias_filler {
      type: "constant"
      value: 0
    }
  }
}
layer {
  name: "conv8_2_relu"
  type: "ReLU"
  bottom: "conv8_2"
  top: "conv8_2"
}
layer {
  name: "conv9_1"
  type: "Convolution"
  bottom: "conv8_2"
  top: "conv9_1"
  param {
    lr_mult: 1
    decay_mult: 1
  }
  param {
    lr_mult: 2
    decay_mult: 0
  }
  convolution_param {
    num_output: 128
    pad: 0
    kernel_size: 1
    stride: 1
    weight_filler {
      type: "xavier"
    }
    bias_filler {
      type: "constant"
      value: 0
    }
  }
}
layer {
  name: "conv9_1_relu"
  type: "ReLU"
  bottom: "conv9_1"
  top: "conv9_1"
}
layer {
  name: "conv9_2"
  type: "Convolution"
  bottom: "conv9_1"
  top: "conv9_2"
  param {
    lr_mult: 1
    decay_mult: 1
  }
  param {
    lr_mult: 2
    decay_mult: 0
  }
  convolution_param {
    num_output: 256
    pad: 0
    kernel_size: 3
    stride: 1
    weight_filler {
      type: "xavier"
    }
    bias_filler {
      type: "constant"
      value: 0
    }
  }
}
layer {
  name: "conv9_2_relu"
  type: "ReLU"
  bottom: "conv9_2"
  top: "conv9_2"
}
layer {
  name: "conv4_3_norm"
  type: "Normalize"
  bottom: "conv4_3"
  top: "conv4_3_norm"
  norm_param {
    across_spatial: false
    scale_filler {
      type: "constant"
      value: 20
    }
    channel_shared: false
  }
}
layer {
  name: "conv4_3_norm_mbox_loc"
  type: "Convolution"
  bottom: "conv4_3_norm"
  top: "conv4_3_norm_mbox_loc"
  param {
    lr_mult: 1
    decay_mult: 1
  }
  param {
    lr_mult: 2
    decay_mult: 0
  }
  convolution_param {
    num_output: 16
    pad: 1
    kernel_size: 3
    stride: 1
    weight_filler {
      type: "xavier"
    }
    bias_filler {
      type: "constant"
      value: 0
    }
  }
}
layer {
  name: "conv4_3_norm_mbox_loc_perm"
  type: "Permute"
  bottom: "conv4_3_norm_mbox_loc"
  top: "conv4_3_norm_mbox_loc_perm"
  permute_param {
    order: 0
    order: 2
    order: 3
    order: 1
  }
}
layer {
  name: "conv4_3_norm_mbox_loc_flat"
  type: "Flatten"
  bottom: "conv4_3_norm_mbox_loc_perm"
  top: "conv4_3_norm_mbox_loc_flat"
  flatten_param {
    axis: 1
  }
}
layer {
  name: "conv4_3_norm_mbox_conf"
  type: "Convolution"
  bottom: "conv4_3_norm"
  top: "conv4_3_norm_mbox_conf"
  param {
    lr_mult: 1
    decay_mult: 1
  }
  param {
    lr_mult: 2
    decay_mult: 0
  }
  convolution_param {
    num_output: 16
    pad: 1
    kernel_size: 3
    stride: 1
    weight_filler {
      type: "xavier"
    }
    bias_filler {
      type: "constant"
      value: 0
    }
  }
}
layer {
  name: "conv4_3_norm_mbox_conf_perm"
  type: "Permute"
  bottom: "conv4_3_norm_mbox_conf"
  top: "conv4_3_norm_mbox_conf_perm"
  permute_param {
    order: 0
    order: 2
    order: 3
    order: 1
  }
}
layer {
  name: "conv4_3_norm_mbox_conf_flat"
  type: "Flatten"
  bottom: "conv4_3_norm_mbox_conf_perm"
  top: "conv4_3_norm_mbox_conf_flat"
  flatten_param {
    axis: 1
  }
}
layer {
  name: "conv4_3_norm_mbox_priorbox"
  type: "PriorBox"
  bottom: "conv4_3_norm"
  bottom: "data"
  top: "conv4_3_norm_mbox_priorbox"
  prior_box_param {
    min_size: 30
    max_size: 60
    aspect_ratio: 2
    flip: true
    clip: false
    variance: 0.1
    variance: 0.1
    variance: 0.2
    variance: 0.2
    step: 8
    offset: 0.5
  }
}
layer {
  name: "fc7_mbox_loc"
  type: "Convolution"
  bottom: "fc7"
  top: "fc7_mbox_loc"
  param {
    lr_mult: 1
    decay_mult: 1
  }
  param {
    lr_mult: 2
    decay_mult: 0
  }
  convolution_param {
    num_output: 24
    pad: 1
    kernel_size: 3
    stride: 1
    weight_filler {
      type: "xavier"
    }
    bias_filler {
      type: "constant"
      value: 0
    }
  }
}
layer {
  name: "fc7_mbox_loc_perm"
  type: "Permute"
  bottom: "fc7_mbox_loc"
  top: "fc7_mbox_loc_perm"
  permute_param {
    order: 0
    order: 2
    order: 3
    order: 1
  }
}
layer {
  name: "fc7_mbox_loc_flat"
  type: "Flatten"
  bottom: "fc7_mbox_loc_perm"
  top: "fc7_mbox_loc_flat"
  flatten_param {
    axis: 1
  }
}
layer {
  name: "fc7_mbox_conf"
  type: "Convolution"
  bottom: "fc7"
  top: "fc7_mbox_conf"
  param {
    lr_mult: 1
    decay_mult: 1
  }
  param {
    lr_mult: 2
    decay_mult: 0
  }
  convolution_param {
    num_output: 24
    pad: 1
    kernel_size: 3
    stride: 1
    weight_filler {
      type: "xavier"
    }
    bias_filler {
      type: "constant"
      value: 0
    }
  }
}
layer {
  name: "fc7_mbox_conf_perm"
  type: "Permute"
  bottom: "fc7_mbox_conf"
  top: "fc7_mbox_conf_perm"
  permute_param {
    order: 0
    order: 2
    order: 3
    order: 1
  }
}
layer {
  name: "fc7_mbox_conf_flat"
  type: "Flatten"
  bottom: "fc7_mbox_conf_perm"
  top: "fc7_mbox_conf_flat"
  flatten_param {
    axis: 1
  }
}
layer {
  name: "fc7_mbox_priorbox"
  type: "PriorBox"
  bottom: "fc7"
  bottom: "data"
  top: "fc7_mbox_priorbox"
  prior_box_param {
    min_size: 60
    max_size: 111
    aspect_ratio: 2
    aspect_ratio: 3
    flip: true
    clip: false
    variance: 0.1
    variance: 0.1
    variance: 0.2
    variance: 0.2
    step: 16
    offset: 0.5
  }
}
layer {
  name: "conv6_2_mbox_loc"
  type: "Convolution"
  bottom: "conv6_2"
  top: "conv6_2_mbox_loc"
  param {
    lr_mult: 1
    decay_mult: 1
  }
  param {
    lr_mult: 2
    decay_mult: 0
  }
  convolution_param {
    num_output: 24
    pad: 1
    kernel_size: 3
    stride: 1
    weight_filler {
      type: "xavier"
    }
    bias_filler {
      type: "constant"
      value: 0
    }
  }
}
layer {
  name: "conv6_2_mbox_loc_perm"
  type: "Permute"
  bottom: "conv6_2_mbox_loc"
  top: "conv6_2_mbox_loc_perm"
  permute_param {
    order: 0
    order: 2
    order: 3
    order: 1
  }
}
layer {
  name: "conv6_2_mbox_loc_flat"
  type: "Flatten"
  bottom: "conv6_2_mbox_loc_perm"
  top: "conv6_2_mbox_loc_flat"
  flatten_param {
    axis: 1
  }
}
layer {
  name: "conv6_2_mbox_conf"
  type: "Convolution"
  bottom: "conv6_2"
  top: "conv6_2_mbox_conf"
  param {
    lr_mult: 1
    decay_mult: 1
  }
  param {
    lr_mult: 2
    decay_mult: 0
  }
  convolution_param {
    num_output: 24
    pad: 1
    kernel_size: 3
    stride: 1
    weight_filler {
      type: "xavier"
    }
    bias_filler {
      type: "constant"
      value: 0
    }
  }
}
layer {
  name: "conv6_2_mbox_conf_perm"
  type: "Permute"
  bottom: "conv6_2_mbox_conf"
  top: "conv6_2_mbox_conf_perm"
  permute_param {
    order: 0
    order: 2
    order: 3
    order: 1
  }
}
layer {
  name: "conv6_2_mbox_conf_flat"
  type: "Flatten"
  bottom: "conv6_2_mbox_conf_perm"
  top: "conv6_2_mbox_conf_flat"
  flatten_param {
    axis: 1
  }
}
layer {
  name: "conv6_2_mbox_priorbox"
  type: "PriorBox"
  bottom: "conv6_2"
  bottom: "data"
  top: "conv6_2_mbox_priorbox"
  prior_box_param {
    min_size: 111
    max_size: 162
    aspect_ratio: 2
    aspect_ratio: 3
    flip: true
    clip: false
    variance: 0.1
    variance: 0.1
    variance: 0.2
    variance: 0.2
    step: 32
    offset: 0.5
  }
}
layer {
  name: "conv7_2_mbox_loc"
  type: "Convolution"
  bottom: "conv7_2"
  top: "conv7_2_mbox_loc"
  param {
    lr_mult: 1
    decay_mult: 1
  }
  param {
    lr_mult: 2
    decay_mult: 0
  }
  convolution_param {
    num_output: 24
    pad: 1
    kernel_size: 3
    stride: 1
    weight_filler {
      type: "xavier"
    }
    bias_filler {
      type: "constant"
      value: 0
    }
  }
}
layer {
  name: "conv7_2_mbox_loc_perm"
  type: "Permute"
  bottom: "conv7_2_mbox_loc"
  top: "conv7_2_mbox_loc_perm"
  permute_param {
    order: 0
    order: 2
    order: 3
    order: 1
  }
}
layer {
  name: "conv7_2_mbox_loc_flat"
  type: "Flatten"
  bottom: "conv7_2_mbox_loc_perm"
  top: "conv7_2_mbox_loc_flat"
  flatten_param {
    axis: 1
  }
}
layer {
  name: "conv7_2_mbox_conf"
  type: "Convolution"
  bottom: "conv7_2"
  top: "conv7_2_mbox_conf"
  param {
    lr_mult: 1
    decay_mult: 1
  }
  param {
    lr_mult: 2
    decay_mult: 0
  }
  convolution_param {
    num_output: 24
    pad: 1
    kernel_size: 3
    stride: 1
    weight_filler {
      type: "xavier"
    }
    bias_filler {
      type: "constant"
      value: 0
    }
  }
}
layer {
  name: "conv7_2_mbox_conf_perm"
  type: "Permute"
  bottom: "conv7_2_mbox_conf"
  top: "conv7_2_mbox_conf_perm"
  permute_param {
    order: 0
    order: 2
    order: 3
    order: 1
  }
}
layer {
  name: "conv7_2_mbox_conf_flat"
  type: "Flatten"
  bottom: "conv7_2_mbox_conf_perm"
  top: "conv7_2_mbox_conf_flat"
  flatten_param {
    axis: 1
  }
}
layer {
  name: "conv7_2_mbox_priorbox"
  type: "PriorBox"
  bottom: "conv7_2"
  bottom: "data"
  top: "conv7_2_mbox_priorbox"
  prior_box_param {
    min_size: 162
    max_size: 213
    aspect_ratio: 2
    aspect_ratio: 3
    flip: true
    clip: false
    variance: 0.1
    variance: 0.1
    variance: 0.2
    variance: 0.2
    step: 64
    offset: 0.5
  }
}
layer {
  name: "conv8_2_mbox_loc"
  type: "Convolution"
  bottom: "conv8_2"
  top: "conv8_2_mbox_loc"
  param {
    lr_mult: 1
    decay_mult: 1
  }
  param {
    lr_mult: 2
    decay_mult: 0
  }
  convolution_param {
    num_output: 16
    pad: 1
    kernel_size: 3
    stride: 1
    weight_filler {
      type: "xavier"
    }
    bias_filler {
      type: "constant"
      value: 0
    }
  }
}
layer {
  name: "conv8_2_mbox_loc_perm"
  type: "Permute"
  bottom: "conv8_2_mbox_loc"
  top: "conv8_2_mbox_loc_perm"
  permute_param {
    order: 0
    order: 2
    order: 3
    order: 1
  }
}
layer {
  name: "conv8_2_mbox_loc_flat"
  type: "Flatten"
  bottom: "conv8_2_mbox_loc_perm"
  top: "conv8_2_mbox_loc_flat"
  flatten_param {
    axis: 1
  }
}
layer {
  name: "conv8_2_mbox_conf"
  type: "Convolution"
  bottom: "conv8_2"
  top: "conv8_2_mbox_conf"
  param {
    lr_mult: 1
    decay_mult: 1
  }
  param {
    lr_mult: 2
    decay_mult: 0
  }
  convolution_param {
    num_output: 16
    pad: 1
    kernel_size: 3
    stride: 1
    weight_filler {
      type: "xavier"
    }
    bias_filler {
      type: "constant"
      value: 0
    }
  }
}
layer {
  name: "conv8_2_mbox_conf_perm"
  type: "Permute"
  bottom: "conv8_2_mbox_conf"
  top: "conv8_2_mbox_conf_perm"
  permute_param {
    order: 0
    order: 2
    order: 3
    order: 1
  }
}
layer {
  name: "conv8_2_mbox_conf_flat"
  type: "Flatten"
  bottom: "conv8_2_mbox_conf_perm"
  top: "conv8_2_mbox_conf_flat"
  flatten_param {
    axis: 1
  }
}
layer {
  name: "conv8_2_mbox_priorbox"
  type: "PriorBox"
  bottom: "conv8_2"
  bottom: "data"
  top: "conv8_2_mbox_priorbox"
  prior_box_param {
    min_size: 213
    max_size: 264
    aspect_ratio: 2
    flip: true
    clip: false
    variance: 0.1
    variance: 0.1
    variance: 0.2
    variance: 0.2
    step: 100
    offset: 0.5
  }
}
layer {
  name: "conv9_2_mbox_loc"
  type: "Convolution"
  bottom: "conv9_2"
  top: "conv9_2_mbox_loc"
  param {
    lr_mult: 1
    decay_mult: 1
  }
  param {
    lr_mult: 2
    decay_mult: 0
  }
  convolution_param {
    num_output: 16
    pad: 1
    kernel_size: 3
    stride: 1
    weight_filler {
      type: "xavier"
    }
    bias_filler {
      type: "constant"
      value: 0
    }
  }
}
layer {
  name: "conv9_2_mbox_loc_perm"
  type: "Permute"
  bottom: "conv9_2_mbox_loc"
  top: "conv9_2_mbox_loc_perm"
  permute_param {
    order: 0
    order: 2
    order: 3
    order: 1
  }
}
layer {
  name: "conv9_2_mbox_loc_flat"
  type: "Flatten"
  bottom: "conv9_2_mbox_loc_perm"
  top: "conv9_2_mbox_loc_flat"
  flatten_param {
    axis: 1
  }
}
layer {
  name: "conv9_2_mbox_conf"
  type: "Convolution"
  bottom: "conv9_2"
  top: "conv9_2_mbox_conf"
  param {
    lr_mult: 1
    decay_mult: 1
  }
  param {
    lr_mult: 2
    decay_mult: 0
  }
  convolution_param {
    num_output: 16
    pad: 1
    kernel_size: 3
    stride: 1
    weight_filler {
      type: "xavier"
    }
    bias_filler {
      type: "constant"
      value: 0
    }
  }
}
layer {
  name: "conv9_2_mbox_conf_perm"
  type: "Permute"
  bottom: "conv9_2_mbox_conf"
  top: "conv9_2_mbox_conf_perm"
  permute_param {
    order: 0
    order: 2
    order: 3
    order: 1
  }
}
layer {
  name: "conv9_2_mbox_conf_flat"
  type: "Flatten"
  bottom: "conv9_2_mbox_conf_perm"
  top: "conv9_2_mbox_conf_flat"
  flatten_param {
    axis: 1
  }
}
layer {
  name: "conv9_2_mbox_priorbox"
  type: "PriorBox"
  bottom: "conv9_2"
  bottom: "data"
  top: "conv9_2_mbox_priorbox"
  prior_box_param {
    min_size: 264
    max_size: 315
    aspect_ratio: 2
    flip: true
    clip: false
    variance: 0.1
    variance: 0.1
    variance: 0.2
    variance: 0.2
    step: 300
    offset: 0.5
  }
}
layer {
  name: "mbox_loc"
  type: "Concat"
  bottom: "conv4_3_norm_mbox_loc_flat"
  bottom: "fc7_mbox_loc_flat"
  bottom: "conv6_2_mbox_loc_flat"
  bottom: "conv7_2_mbox_loc_flat"
  bottom: "conv8_2_mbox_loc_flat"
  bottom: "conv9_2_mbox_loc_flat"
  top: "mbox_loc"
  concat_param {
    axis: 1
  }
}
layer {
  name: "mbox_conf"
  type: "Concat"
  bottom: "conv4_3_norm_mbox_conf_flat"
  bottom: "fc7_mbox_conf_flat"
  bottom: "conv6_2_mbox_conf_flat"
  bottom: "conv7_2_mbox_conf_flat"
  bottom: "conv8_2_mbox_conf_flat"
  bottom: "conv9_2_mbox_conf_flat"
  top: "mbox_conf"
  concat_param {
    axis: 1
  }
}
layer {
  name: "mbox_priorbox"
  type: "Concat"
  bottom: "conv4_3_norm_mbox_priorbox"
  bottom: "fc7_mbox_priorbox"
  bottom: "conv6_2_mbox_priorbox"
  bottom: "conv7_2_mbox_priorbox"
  bottom: "conv8_2_mbox_priorbox"
  bottom: "conv9_2_mbox_priorbox"
  top: "mbox_priorbox"
  concat_param {
    axis: 2
  }
}
layer {
  name: "mbox_conf_reshape"
  type: "Reshape"
  bottom: "mbox_conf"
  top: "mbox_conf_reshape"
  reshape_param {
    shape {
      dim: 0
      dim: -1
      dim: 4
    }
  }
}
layer {
  name: "mbox_conf_softmax"
  type: "Softmax"
  bottom: "mbox_conf_reshape"
  top: "mbox_conf_softmax"
  softmax_param {
    axis: 2
  }
}
layer {
  name: "mbox_conf_flatten"
  type: "Flatten"
  bottom: "mbox_conf_softmax"
  top: "mbox_conf_flatten"
  flatten_param {
    axis: 1
  }
}
layer {
  name: "detection_out"
  type: "DetectionOutput"
  bottom: "mbox_loc"
  bottom: "mbox_conf_flatten"
  bottom: "mbox_priorbox"
  top: "detection_out"
  include {
    phase: TEST
  }
  detection_output_param {
    num_classes: 4
    share_location: true
    background_label_id: 0
    nms_param {
      nms_threshold: 0.45
      top_k: 400
    }
    save_output_param {
      output_directory: "/home/shangzw/data/tbs/results/tbs/SSD_300x300/Main"
      output_name_prefix: "comp4_det_test_"
      output_format: "VOC"
      label_map_file: "data/tbs_300x300_HSIL_10x/labelmap_tbs.prototxt"
      name_size_file: "data/VOC0712/test_name_size.txt"
      num_test_image: 100
    }
    code_type: CENTER_SIZE
    keep_top_k: 200
    confidence_threshold: 0.01
  }
}
layer {
  name: "detection_eval"
  type: "DetectionEvaluate"
  bottom: "detection_out"
  bottom: "label"
  top: "detection_eval"
  include {
    phase: TEST
  }
  detection_evaluate_param {
    num_classes: 4
    background_label_id: 0
    overlap_threshold: 0.5
    evaluate_difficult_gt: false
    name_size_file: "data/VOC0712/test_name_size.txt"
  }
}
I0601 10:17:57.447784 14411 layer_factory.hpp:77] Creating layer data
I0601 10:17:57.447837 14411 net.cpp:100] Creating Layer data
I0601 10:17:57.447847 14411 net.cpp:408] data -> data
I0601 10:17:57.447859 14411 net.cpp:408] data -> label
I0601 10:17:57.448359 14430 db_lmdb.cpp:35] Opened lmdb examples/tbs_300x300_HSIL_10x/tbs_300x300_HSIL_10x_test_lmdb
I0601 10:17:57.448992 14411 annotated_data_layer.cpp:62] output data size: 4,3,300,300
I0601 10:17:57.458443 14411 net.cpp:150] Setting up data
I0601 10:17:57.458475 14411 net.cpp:157] Top shape: 4 3 300 300 (1080000)
I0601 10:17:57.458482 14411 net.cpp:157] Top shape: 1 1 1 8 (8)
I0601 10:17:57.458485 14411 net.cpp:165] Memory required for data: 4320032
I0601 10:17:57.458490 14411 layer_factory.hpp:77] Creating layer data_data_0_split
I0601 10:17:57.458501 14411 net.cpp:100] Creating Layer data_data_0_split
I0601 10:17:57.458520 14411 net.cpp:434] data_data_0_split <- data
I0601 10:17:57.458534 14411 net.cpp:408] data_data_0_split -> data_data_0_split_0
I0601 10:17:57.458546 14411 net.cpp:408] data_data_0_split -> data_data_0_split_1
I0601 10:17:57.458554 14411 net.cpp:408] data_data_0_split -> data_data_0_split_2
I0601 10:17:57.458566 14411 net.cpp:408] data_data_0_split -> data_data_0_split_3
I0601 10:17:57.458573 14411 net.cpp:408] data_data_0_split -> data_data_0_split_4
I0601 10:17:57.458581 14411 net.cpp:408] data_data_0_split -> data_data_0_split_5
I0601 10:17:57.458588 14411 net.cpp:408] data_data_0_split -> data_data_0_split_6
I0601 10:17:57.458668 14411 net.cpp:150] Setting up data_data_0_split
I0601 10:17:57.458675 14411 net.cpp:157] Top shape: 4 3 300 300 (1080000)
I0601 10:17:57.458679 14411 net.cpp:157] Top shape: 4 3 300 300 (1080000)
I0601 10:17:57.458684 14411 net.cpp:157] Top shape: 4 3 300 300 (1080000)
I0601 10:17:57.458689 14411 net.cpp:157] Top shape: 4 3 300 300 (1080000)
I0601 10:17:57.458695 14411 net.cpp:157] Top shape: 4 3 300 300 (1080000)
I0601 10:17:57.458709 14411 net.cpp:157] Top shape: 4 3 300 300 (1080000)
I0601 10:17:57.458714 14411 net.cpp:157] Top shape: 4 3 300 300 (1080000)
I0601 10:17:57.458719 14411 net.cpp:165] Memory required for data: 34560032
I0601 10:17:57.458724 14411 layer_factory.hpp:77] Creating layer conv1_1
I0601 10:17:57.458734 14411 net.cpp:100] Creating Layer conv1_1
I0601 10:17:57.458739 14411 net.cpp:434] conv1_1 <- data_data_0_split_0
I0601 10:17:57.458745 14411 net.cpp:408] conv1_1 -> conv1_1
I0601 10:17:57.459018 14411 net.cpp:150] Setting up conv1_1
I0601 10:17:57.459025 14411 net.cpp:157] Top shape: 4 64 300 300 (23040000)
I0601 10:17:57.459028 14411 net.cpp:165] Memory required for data: 126720032
I0601 10:17:57.459039 14411 layer_factory.hpp:77] Creating layer relu1_1
I0601 10:17:57.459045 14411 net.cpp:100] Creating Layer relu1_1
I0601 10:17:57.459050 14411 net.cpp:434] relu1_1 <- conv1_1
I0601 10:17:57.459055 14411 net.cpp:395] relu1_1 -> conv1_1 (in-place)
I0601 10:17:57.459062 14411 net.cpp:150] Setting up relu1_1
I0601 10:17:57.459069 14411 net.cpp:157] Top shape: 4 64 300 300 (23040000)
I0601 10:17:57.459074 14411 net.cpp:165] Memory required for data: 218880032
I0601 10:17:57.459076 14411 layer_factory.hpp:77] Creating layer conv1_2
I0601 10:17:57.459085 14411 net.cpp:100] Creating Layer conv1_2
I0601 10:17:57.459089 14411 net.cpp:434] conv1_2 <- conv1_1
I0601 10:17:57.459095 14411 net.cpp:408] conv1_2 -> conv1_2
I0601 10:17:57.459441 14411 net.cpp:150] Setting up conv1_2
I0601 10:17:57.459448 14411 net.cpp:157] Top shape: 4 64 300 300 (23040000)
I0601 10:17:57.459452 14411 net.cpp:165] Memory required for data: 311040032
I0601 10:17:57.459460 14411 layer_factory.hpp:77] Creating layer relu1_2
I0601 10:17:57.459466 14411 net.cpp:100] Creating Layer relu1_2
I0601 10:17:57.459471 14411 net.cpp:434] relu1_2 <- conv1_2
I0601 10:17:57.459477 14411 net.cpp:395] relu1_2 -> conv1_2 (in-place)
I0601 10:17:57.459484 14411 net.cpp:150] Setting up relu1_2
I0601 10:17:57.459491 14411 net.cpp:157] Top shape: 4 64 300 300 (23040000)
I0601 10:17:57.459494 14411 net.cpp:165] Memory required for data: 403200032
I0601 10:17:57.459498 14411 layer_factory.hpp:77] Creating layer pool1
I0601 10:17:57.459504 14411 net.cpp:100] Creating Layer pool1
I0601 10:17:57.459508 14411 net.cpp:434] pool1 <- conv1_2
I0601 10:17:57.459513 14411 net.cpp:408] pool1 -> pool1
I0601 10:17:57.459543 14411 net.cpp:150] Setting up pool1
I0601 10:17:57.459549 14411 net.cpp:157] Top shape: 4 64 150 150 (5760000)
I0601 10:17:57.459553 14411 net.cpp:165] Memory required for data: 426240032
I0601 10:17:57.459556 14411 layer_factory.hpp:77] Creating layer conv2_1
I0601 10:17:57.459564 14411 net.cpp:100] Creating Layer conv2_1
I0601 10:17:57.459568 14411 net.cpp:434] conv2_1 <- pool1
I0601 10:17:57.459574 14411 net.cpp:408] conv2_1 -> conv2_1
I0601 10:17:57.462047 14411 net.cpp:150] Setting up conv2_1
I0601 10:17:57.462081 14411 net.cpp:157] Top shape: 4 128 150 150 (11520000)
I0601 10:17:57.462085 14411 net.cpp:165] Memory required for data: 472320032
I0601 10:17:57.462097 14411 layer_factory.hpp:77] Creating layer relu2_1
I0601 10:17:57.462123 14411 net.cpp:100] Creating Layer relu2_1
I0601 10:17:57.462129 14411 net.cpp:434] relu2_1 <- conv2_1
I0601 10:17:57.462136 14411 net.cpp:395] relu2_1 -> conv2_1 (in-place)
I0601 10:17:57.462146 14411 net.cpp:150] Setting up relu2_1
I0601 10:17:57.462152 14411 net.cpp:157] Top shape: 4 128 150 150 (11520000)
I0601 10:17:57.462155 14411 net.cpp:165] Memory required for data: 518400032
I0601 10:17:57.462158 14411 layer_factory.hpp:77] Creating layer conv2_2
I0601 10:17:57.462182 14411 net.cpp:100] Creating Layer conv2_2
I0601 10:17:57.462186 14411 net.cpp:434] conv2_2 <- conv2_1
I0601 10:17:57.462193 14411 net.cpp:408] conv2_2 -> conv2_2
I0601 10:17:57.463840 14411 net.cpp:150] Setting up conv2_2
I0601 10:17:57.463855 14411 net.cpp:157] Top shape: 4 128 150 150 (11520000)
I0601 10:17:57.463858 14411 net.cpp:165] Memory required for data: 564480032
I0601 10:17:57.463867 14411 layer_factory.hpp:77] Creating layer relu2_2
I0601 10:17:57.463886 14411 net.cpp:100] Creating Layer relu2_2
I0601 10:17:57.463891 14411 net.cpp:434] relu2_2 <- conv2_2
I0601 10:17:57.463897 14411 net.cpp:395] relu2_2 -> conv2_2 (in-place)
I0601 10:17:57.463907 14411 net.cpp:150] Setting up relu2_2
I0601 10:17:57.463912 14411 net.cpp:157] Top shape: 4 128 150 150 (11520000)
I0601 10:17:57.463917 14411 net.cpp:165] Memory required for data: 610560032
I0601 10:17:57.463919 14411 layer_factory.hpp:77] Creating layer pool2
I0601 10:17:57.463927 14411 net.cpp:100] Creating Layer pool2
I0601 10:17:57.463930 14411 net.cpp:434] pool2 <- conv2_2
I0601 10:17:57.463937 14411 net.cpp:408] pool2 -> pool2
I0601 10:17:57.463974 14411 net.cpp:150] Setting up pool2
I0601 10:17:57.463981 14411 net.cpp:157] Top shape: 4 128 75 75 (2880000)
I0601 10:17:57.463984 14411 net.cpp:165] Memory required for data: 622080032
I0601 10:17:57.463989 14411 layer_factory.hpp:77] Creating layer conv3_1
I0601 10:17:57.463996 14411 net.cpp:100] Creating Layer conv3_1
I0601 10:17:57.464001 14411 net.cpp:434] conv3_1 <- pool2
I0601 10:17:57.464007 14411 net.cpp:408] conv3_1 -> conv3_1
I0601 10:17:57.465416 14411 net.cpp:150] Setting up conv3_1
I0601 10:17:57.465432 14411 net.cpp:157] Top shape: 4 256 75 75 (5760000)
I0601 10:17:57.465435 14411 net.cpp:165] Memory required for data: 645120032
I0601 10:17:57.465448 14411 layer_factory.hpp:77] Creating layer relu3_1
I0601 10:17:57.465457 14411 net.cpp:100] Creating Layer relu3_1
I0601 10:17:57.465463 14411 net.cpp:434] relu3_1 <- conv3_1
I0601 10:17:57.465469 14411 net.cpp:395] relu3_1 -> conv3_1 (in-place)
I0601 10:17:57.465477 14411 net.cpp:150] Setting up relu3_1
I0601 10:17:57.465483 14411 net.cpp:157] Top shape: 4 256 75 75 (5760000)
I0601 10:17:57.465487 14411 net.cpp:165] Memory required for data: 668160032
I0601 10:17:57.465492 14411 layer_factory.hpp:77] Creating layer conv3_2
I0601 10:17:57.465500 14411 net.cpp:100] Creating Layer conv3_2
I0601 10:17:57.465504 14411 net.cpp:434] conv3_2 <- conv3_1
I0601 10:17:57.465509 14411 net.cpp:408] conv3_2 -> conv3_2
I0601 10:17:57.468792 14411 net.cpp:150] Setting up conv3_2
I0601 10:17:57.468808 14411 net.cpp:157] Top shape: 4 256 75 75 (5760000)
I0601 10:17:57.468812 14411 net.cpp:165] Memory required for data: 691200032
I0601 10:17:57.468819 14411 layer_factory.hpp:77] Creating layer relu3_2
I0601 10:17:57.468829 14411 net.cpp:100] Creating Layer relu3_2
I0601 10:17:57.468835 14411 net.cpp:434] relu3_2 <- conv3_2
I0601 10:17:57.468843 14411 net.cpp:395] relu3_2 -> conv3_2 (in-place)
I0601 10:17:57.468852 14411 net.cpp:150] Setting up relu3_2
I0601 10:17:57.468858 14411 net.cpp:157] Top shape: 4 256 75 75 (5760000)
I0601 10:17:57.468861 14411 net.cpp:165] Memory required for data: 714240032
I0601 10:17:57.468875 14411 layer_factory.hpp:77] Creating layer conv3_3
I0601 10:17:57.468889 14411 net.cpp:100] Creating Layer conv3_3
I0601 10:17:57.468894 14411 net.cpp:434] conv3_3 <- conv3_2
I0601 10:17:57.468901 14411 net.cpp:408] conv3_3 -> conv3_3
I0601 10:17:57.472195 14411 net.cpp:150] Setting up conv3_3
I0601 10:17:57.472208 14411 net.cpp:157] Top shape: 4 256 75 75 (5760000)
I0601 10:17:57.472211 14411 net.cpp:165] Memory required for data: 737280032
I0601 10:17:57.472219 14411 layer_factory.hpp:77] Creating layer relu3_3
I0601 10:17:57.472226 14411 net.cpp:100] Creating Layer relu3_3
I0601 10:17:57.472232 14411 net.cpp:434] relu3_3 <- conv3_3
I0601 10:17:57.472241 14411 net.cpp:395] relu3_3 -> conv3_3 (in-place)
I0601 10:17:57.472249 14411 net.cpp:150] Setting up relu3_3
I0601 10:17:57.472255 14411 net.cpp:157] Top shape: 4 256 75 75 (5760000)
I0601 10:17:57.472259 14411 net.cpp:165] Memory required for data: 760320032
I0601 10:17:57.472264 14411 layer_factory.hpp:77] Creating layer pool3
I0601 10:17:57.472283 14411 net.cpp:100] Creating Layer pool3
I0601 10:17:57.472288 14411 net.cpp:434] pool3 <- conv3_3
I0601 10:17:57.472295 14411 net.cpp:408] pool3 -> pool3
I0601 10:17:57.472332 14411 net.cpp:150] Setting up pool3
I0601 10:17:57.472337 14411 net.cpp:157] Top shape: 4 256 38 38 (1478656)
I0601 10:17:57.472352 14411 net.cpp:165] Memory required for data: 766234656
I0601 10:17:57.472357 14411 layer_factory.hpp:77] Creating layer conv4_1
I0601 10:17:57.472368 14411 net.cpp:100] Creating Layer conv4_1
I0601 10:17:57.472373 14411 net.cpp:434] conv4_1 <- pool3
I0601 10:17:57.472378 14411 net.cpp:408] conv4_1 -> conv4_1
I0601 10:17:57.478721 14411 net.cpp:150] Setting up conv4_1
I0601 10:17:57.478741 14411 net.cpp:157] Top shape: 4 512 38 38 (2957312)
I0601 10:17:57.478745 14411 net.cpp:165] Memory required for data: 778063904
I0601 10:17:57.478754 14411 layer_factory.hpp:77] Creating layer relu4_1
I0601 10:17:57.478762 14411 net.cpp:100] Creating Layer relu4_1
I0601 10:17:57.478767 14411 net.cpp:434] relu4_1 <- conv4_1
I0601 10:17:57.478775 14411 net.cpp:395] relu4_1 -> conv4_1 (in-place)
I0601 10:17:57.478785 14411 net.cpp:150] Setting up relu4_1
I0601 10:17:57.478791 14411 net.cpp:157] Top shape: 4 512 38 38 (2957312)
I0601 10:17:57.478796 14411 net.cpp:165] Memory required for data: 789893152
I0601 10:17:57.478799 14411 layer_factory.hpp:77] Creating layer conv4_2
I0601 10:17:57.478811 14411 net.cpp:100] Creating Layer conv4_2
I0601 10:17:57.478814 14411 net.cpp:434] conv4_2 <- conv4_1
I0601 10:17:57.478821 14411 net.cpp:408] conv4_2 -> conv4_2
I0601 10:17:57.490752 14411 net.cpp:150] Setting up conv4_2
I0601 10:17:57.490772 14411 net.cpp:157] Top shape: 4 512 38 38 (2957312)
I0601 10:17:57.490775 14411 net.cpp:165] Memory required for data: 801722400
I0601 10:17:57.490790 14411 layer_factory.hpp:77] Creating layer relu4_2
I0601 10:17:57.490815 14411 net.cpp:100] Creating Layer relu4_2
I0601 10:17:57.490840 14411 net.cpp:434] relu4_2 <- conv4_2
I0601 10:17:57.490846 14411 net.cpp:395] relu4_2 -> conv4_2 (in-place)
I0601 10:17:57.490856 14411 net.cpp:150] Setting up relu4_2
I0601 10:17:57.490861 14411 net.cpp:157] Top shape: 4 512 38 38 (2957312)
I0601 10:17:57.490864 14411 net.cpp:165] Memory required for data: 813551648
I0601 10:17:57.490867 14411 layer_factory.hpp:77] Creating layer conv4_3
I0601 10:17:57.490878 14411 net.cpp:100] Creating Layer conv4_3
I0601 10:17:57.490883 14411 net.cpp:434] conv4_3 <- conv4_2
I0601 10:17:57.490891 14411 net.cpp:408] conv4_3 -> conv4_3
I0601 10:17:57.502974 14411 net.cpp:150] Setting up conv4_3
I0601 10:17:57.502995 14411 net.cpp:157] Top shape: 4 512 38 38 (2957312)
I0601 10:17:57.503000 14411 net.cpp:165] Memory required for data: 825380896
I0601 10:17:57.503007 14411 layer_factory.hpp:77] Creating layer relu4_3
I0601 10:17:57.503032 14411 net.cpp:100] Creating Layer relu4_3
I0601 10:17:57.503037 14411 net.cpp:434] relu4_3 <- conv4_3
I0601 10:17:57.503046 14411 net.cpp:395] relu4_3 -> conv4_3 (in-place)
I0601 10:17:57.503053 14411 net.cpp:150] Setting up relu4_3
I0601 10:17:57.503058 14411 net.cpp:157] Top shape: 4 512 38 38 (2957312)
I0601 10:17:57.503062 14411 net.cpp:165] Memory required for data: 837210144
I0601 10:17:57.503067 14411 layer_factory.hpp:77] Creating layer conv4_3_relu4_3_0_split
I0601 10:17:57.503072 14411 net.cpp:100] Creating Layer conv4_3_relu4_3_0_split
I0601 10:17:57.503084 14411 net.cpp:434] conv4_3_relu4_3_0_split <- conv4_3
I0601 10:17:57.503104 14411 net.cpp:408] conv4_3_relu4_3_0_split -> conv4_3_relu4_3_0_split_0
I0601 10:17:57.503114 14411 net.cpp:408] conv4_3_relu4_3_0_split -> conv4_3_relu4_3_0_split_1
I0601 10:17:57.503154 14411 net.cpp:150] Setting up conv4_3_relu4_3_0_split
I0601 10:17:57.503161 14411 net.cpp:157] Top shape: 4 512 38 38 (2957312)
I0601 10:17:57.503165 14411 net.cpp:157] Top shape: 4 512 38 38 (2957312)
I0601 10:17:57.503170 14411 net.cpp:165] Memory required for data: 860868640
I0601 10:17:57.503173 14411 layer_factory.hpp:77] Creating layer pool4
I0601 10:17:57.503180 14411 net.cpp:100] Creating Layer pool4
I0601 10:17:57.503186 14411 net.cpp:434] pool4 <- conv4_3_relu4_3_0_split_0
I0601 10:17:57.503195 14411 net.cpp:408] pool4 -> pool4
I0601 10:17:57.503227 14411 net.cpp:150] Setting up pool4
I0601 10:17:57.503233 14411 net.cpp:157] Top shape: 4 512 19 19 (739328)
I0601 10:17:57.503237 14411 net.cpp:165] Memory required for data: 863825952
I0601 10:17:57.503250 14411 layer_factory.hpp:77] Creating layer conv5_1
I0601 10:17:57.503264 14411 net.cpp:100] Creating Layer conv5_1
I0601 10:17:57.503268 14411 net.cpp:434] conv5_1 <- pool4
I0601 10:17:57.503274 14411 net.cpp:408] conv5_1 -> conv5_1
I0601 10:17:57.515102 14411 net.cpp:150] Setting up conv5_1
I0601 10:17:57.515121 14411 net.cpp:157] Top shape: 4 512 19 19 (739328)
I0601 10:17:57.515125 14411 net.cpp:165] Memory required for data: 866783264
I0601 10:17:57.515132 14411 layer_factory.hpp:77] Creating layer relu5_1
I0601 10:17:57.515156 14411 net.cpp:100] Creating Layer relu5_1
I0601 10:17:57.515163 14411 net.cpp:434] relu5_1 <- conv5_1
I0601 10:17:57.515194 14411 net.cpp:395] relu5_1 -> conv5_1 (in-place)
I0601 10:17:57.515202 14411 net.cpp:150] Setting up relu5_1
I0601 10:17:57.515208 14411 net.cpp:157] Top shape: 4 512 19 19 (739328)
I0601 10:17:57.515224 14411 net.cpp:165] Memory required for data: 869740576
I0601 10:17:57.515228 14411 layer_factory.hpp:77] Creating layer conv5_2
I0601 10:17:57.515239 14411 net.cpp:100] Creating Layer conv5_2
I0601 10:17:57.515244 14411 net.cpp:434] conv5_2 <- conv5_1
I0601 10:17:57.515251 14411 net.cpp:408] conv5_2 -> conv5_2
I0601 10:17:57.528213 14411 net.cpp:150] Setting up conv5_2
I0601 10:17:57.528233 14411 net.cpp:157] Top shape: 4 512 19 19 (739328)
I0601 10:17:57.528235 14411 net.cpp:165] Memory required for data: 872697888
I0601 10:17:57.528242 14411 layer_factory.hpp:77] Creating layer relu5_2
I0601 10:17:57.528254 14411 net.cpp:100] Creating Layer relu5_2
I0601 10:17:57.528259 14411 net.cpp:434] relu5_2 <- conv5_2
I0601 10:17:57.528290 14411 net.cpp:395] relu5_2 -> conv5_2 (in-place)
I0601 10:17:57.528301 14411 net.cpp:150] Setting up relu5_2
I0601 10:17:57.528306 14411 net.cpp:157] Top shape: 4 512 19 19 (739328)
I0601 10:17:57.528311 14411 net.cpp:165] Memory required for data: 875655200
I0601 10:17:57.528317 14411 layer_factory.hpp:77] Creating layer conv5_3
I0601 10:17:57.528327 14411 net.cpp:100] Creating Layer conv5_3
I0601 10:17:57.528332 14411 net.cpp:434] conv5_3 <- conv5_2
I0601 10:17:57.528340 14411 net.cpp:408] conv5_3 -> conv5_3
I0601 10:17:57.540011 14411 net.cpp:150] Setting up conv5_3
I0601 10:17:57.540029 14411 net.cpp:157] Top shape: 4 512 19 19 (739328)
I0601 10:17:57.540031 14411 net.cpp:165] Memory required for data: 878612512
I0601 10:17:57.540038 14411 layer_factory.hpp:77] Creating layer relu5_3
I0601 10:17:57.540053 14411 net.cpp:100] Creating Layer relu5_3
I0601 10:17:57.540060 14411 net.cpp:434] relu5_3 <- conv5_3
I0601 10:17:57.540067 14411 net.cpp:395] relu5_3 -> conv5_3 (in-place)
I0601 10:17:57.540076 14411 net.cpp:150] Setting up relu5_3
I0601 10:17:57.540083 14411 net.cpp:157] Top shape: 4 512 19 19 (739328)
I0601 10:17:57.540087 14411 net.cpp:165] Memory required for data: 881569824
I0601 10:17:57.540091 14411 layer_factory.hpp:77] Creating layer pool5
I0601 10:17:57.540101 14411 net.cpp:100] Creating Layer pool5
I0601 10:17:57.540107 14411 net.cpp:434] pool5 <- conv5_3
I0601 10:17:57.540113 14411 net.cpp:408] pool5 -> pool5
I0601 10:17:57.540160 14411 net.cpp:150] Setting up pool5
I0601 10:17:57.540166 14411 net.cpp:157] Top shape: 4 512 19 19 (739328)
I0601 10:17:57.540169 14411 net.cpp:165] Memory required for data: 884527136
I0601 10:17:57.540174 14411 layer_factory.hpp:77] Creating layer fc6
I0601 10:17:57.540184 14411 net.cpp:100] Creating Layer fc6
I0601 10:17:57.540208 14411 net.cpp:434] fc6 <- pool5
I0601 10:17:57.540220 14411 net.cpp:408] fc6 -> fc6
I0601 10:17:57.563347 14411 net.cpp:150] Setting up fc6
I0601 10:17:57.563365 14411 net.cpp:157] Top shape: 4 1024 19 19 (1478656)
I0601 10:17:57.563367 14411 net.cpp:165] Memory required for data: 890441760
I0601 10:17:57.563374 14411 layer_factory.hpp:77] Creating layer relu6
I0601 10:17:57.563397 14411 net.cpp:100] Creating Layer relu6
I0601 10:17:57.563402 14411 net.cpp:434] relu6 <- fc6
I0601 10:17:57.563408 14411 net.cpp:395] relu6 -> fc6 (in-place)
I0601 10:17:57.563418 14411 net.cpp:150] Setting up relu6
I0601 10:17:57.563426 14411 net.cpp:157] Top shape: 4 1024 19 19 (1478656)
I0601 10:17:57.563442 14411 net.cpp:165] Memory required for data: 896356384
I0601 10:17:57.563446 14411 layer_factory.hpp:77] Creating layer fc7
I0601 10:17:57.563459 14411 net.cpp:100] Creating Layer fc7
I0601 10:17:57.563464 14411 net.cpp:434] fc7 <- fc6
I0601 10:17:57.563486 14411 net.cpp:408] fc7 -> fc7
I0601 10:17:57.569221 14411 net.cpp:150] Setting up fc7
I0601 10:17:57.569239 14411 net.cpp:157] Top shape: 4 1024 19 19 (1478656)
I0601 10:17:57.569242 14411 net.cpp:165] Memory required for data: 902271008
I0601 10:17:57.569247 14411 layer_factory.hpp:77] Creating layer relu7
I0601 10:17:57.569268 14411 net.cpp:100] Creating Layer relu7
I0601 10:17:57.569272 14411 net.cpp:434] relu7 <- fc7
I0601 10:17:57.569277 14411 net.cpp:395] relu7 -> fc7 (in-place)
I0601 10:17:57.569283 14411 net.cpp:150] Setting up relu7
I0601 10:17:57.569285 14411 net.cpp:157] Top shape: 4 1024 19 19 (1478656)
I0601 10:17:57.569288 14411 net.cpp:165] Memory required for data: 908185632
I0601 10:17:57.569291 14411 layer_factory.hpp:77] Creating layer fc7_relu7_0_split
I0601 10:17:57.569296 14411 net.cpp:100] Creating Layer fc7_relu7_0_split
I0601 10:17:57.569301 14411 net.cpp:434] fc7_relu7_0_split <- fc7
I0601 10:17:57.569322 14411 net.cpp:408] fc7_relu7_0_split -> fc7_relu7_0_split_0
I0601 10:17:57.569330 14411 net.cpp:408] fc7_relu7_0_split -> fc7_relu7_0_split_1
I0601 10:17:57.569356 14411 net.cpp:408] fc7_relu7_0_split -> fc7_relu7_0_split_2
I0601 10:17:57.569377 14411 net.cpp:408] fc7_relu7_0_split -> fc7_relu7_0_split_3
I0601 10:17:57.569461 14411 net.cpp:150] Setting up fc7_relu7_0_split
I0601 10:17:57.569468 14411 net.cpp:157] Top shape: 4 1024 19 19 (1478656)
I0601 10:17:57.569470 14411 net.cpp:157] Top shape: 4 1024 19 19 (1478656)
I0601 10:17:57.569473 14411 net.cpp:157] Top shape: 4 1024 19 19 (1478656)
I0601 10:17:57.569475 14411 net.cpp:157] Top shape: 4 1024 19 19 (1478656)
I0601 10:17:57.569478 14411 net.cpp:165] Memory required for data: 931844128
I0601 10:17:57.569479 14411 layer_factory.hpp:77] Creating layer conv6_1
I0601 10:17:57.569504 14411 net.cpp:100] Creating Layer conv6_1
I0601 10:17:57.569506 14411 net.cpp:434] conv6_1 <- fc7_relu7_0_split_0
I0601 10:17:57.569527 14411 net.cpp:408] conv6_1 -> conv6_1
I0601 10:17:57.571887 14411 net.cpp:150] Setting up conv6_1
I0601 10:17:57.571895 14411 net.cpp:157] Top shape: 4 256 19 19 (369664)
I0601 10:17:57.571898 14411 net.cpp:165] Memory required for data: 933322784
I0601 10:17:57.571903 14411 layer_factory.hpp:77] Creating layer conv6_1_relu
I0601 10:17:57.571909 14411 net.cpp:100] Creating Layer conv6_1_relu
I0601 10:17:57.571914 14411 net.cpp:434] conv6_1_relu <- conv6_1
I0601 10:17:57.571926 14411 net.cpp:395] conv6_1_relu -> conv6_1 (in-place)
I0601 10:17:57.571935 14411 net.cpp:150] Setting up conv6_1_relu
I0601 10:17:57.571943 14411 net.cpp:157] Top shape: 4 256 19 19 (369664)
I0601 10:17:57.571948 14411 net.cpp:165] Memory required for data: 934801440
I0601 10:17:57.571952 14411 layer_factory.hpp:77] Creating layer conv6_2
I0601 10:17:57.571964 14411 net.cpp:100] Creating Layer conv6_2
I0601 10:17:57.571969 14411 net.cpp:434] conv6_2 <- conv6_1
I0601 10:17:57.571976 14411 net.cpp:408] conv6_2 -> conv6_2
I0601 10:17:57.578006 14411 net.cpp:150] Setting up conv6_2
I0601 10:17:57.578022 14411 net.cpp:157] Top shape: 4 512 10 10 (204800)
I0601 10:17:57.578024 14411 net.cpp:165] Memory required for data: 935620640
I0601 10:17:57.578040 14411 layer_factory.hpp:77] Creating layer conv6_2_relu
I0601 10:17:57.578050 14411 net.cpp:100] Creating Layer conv6_2_relu
I0601 10:17:57.578057 14411 net.cpp:434] conv6_2_relu <- conv6_2
I0601 10:17:57.578063 14411 net.cpp:395] conv6_2_relu -> conv6_2 (in-place)
I0601 10:17:57.578071 14411 net.cpp:150] Setting up conv6_2_relu
I0601 10:17:57.578078 14411 net.cpp:157] Top shape: 4 512 10 10 (204800)
I0601 10:17:57.578083 14411 net.cpp:165] Memory required for data: 936439840
I0601 10:17:57.578086 14411 layer_factory.hpp:77] Creating layer conv6_2_conv6_2_relu_0_split
I0601 10:17:57.578094 14411 net.cpp:100] Creating Layer conv6_2_conv6_2_relu_0_split
I0601 10:17:57.578110 14411 net.cpp:434] conv6_2_conv6_2_relu_0_split <- conv6_2
I0601 10:17:57.578121 14411 net.cpp:408] conv6_2_conv6_2_relu_0_split -> conv6_2_conv6_2_relu_0_split_0
I0601 10:17:57.578133 14411 net.cpp:408] conv6_2_conv6_2_relu_0_split -> conv6_2_conv6_2_relu_0_split_1
I0601 10:17:57.578142 14411 net.cpp:408] conv6_2_conv6_2_relu_0_split -> conv6_2_conv6_2_relu_0_split_2
I0601 10:17:57.578150 14411 net.cpp:408] conv6_2_conv6_2_relu_0_split -> conv6_2_conv6_2_relu_0_split_3
I0601 10:17:57.578214 14411 net.cpp:150] Setting up conv6_2_conv6_2_relu_0_split
I0601 10:17:57.578220 14411 net.cpp:157] Top shape: 4 512 10 10 (204800)
I0601 10:17:57.578223 14411 net.cpp:157] Top shape: 4 512 10 10 (204800)
I0601 10:17:57.578228 14411 net.cpp:157] Top shape: 4 512 10 10 (204800)
I0601 10:17:57.578234 14411 net.cpp:157] Top shape: 4 512 10 10 (204800)
I0601 10:17:57.578239 14411 net.cpp:165] Memory required for data: 939716640
I0601 10:17:57.578243 14411 layer_factory.hpp:77] Creating layer conv7_1
I0601 10:17:57.578254 14411 net.cpp:100] Creating Layer conv7_1
I0601 10:17:57.578261 14411 net.cpp:434] conv7_1 <- conv6_2_conv6_2_relu_0_split_0
I0601 10:17:57.578270 14411 net.cpp:408] conv7_1 -> conv7_1
I0601 10:17:57.578733 14411 net.cpp:150] Setting up conv7_1
I0601 10:17:57.578740 14411 net.cpp:157] Top shape: 4 128 10 10 (51200)
I0601 10:17:57.578743 14411 net.cpp:165] Memory required for data: 939921440
I0601 10:17:57.578749 14411 layer_factory.hpp:77] Creating layer conv7_1_relu
I0601 10:17:57.578757 14411 net.cpp:100] Creating Layer conv7_1_relu
I0601 10:17:57.578761 14411 net.cpp:434] conv7_1_relu <- conv7_1
I0601 10:17:57.578768 14411 net.cpp:395] conv7_1_relu -> conv7_1 (in-place)
I0601 10:17:57.578776 14411 net.cpp:150] Setting up conv7_1_relu
I0601 10:17:57.578783 14411 net.cpp:157] Top shape: 4 128 10 10 (51200)
I0601 10:17:57.578788 14411 net.cpp:165] Memory required for data: 940126240
I0601 10:17:57.578793 14411 layer_factory.hpp:77] Creating layer conv7_2
I0601 10:17:57.578802 14411 net.cpp:100] Creating Layer conv7_2
I0601 10:17:57.578809 14411 net.cpp:434] conv7_2 <- conv7_1
I0601 10:17:57.578815 14411 net.cpp:408] conv7_2 -> conv7_2
I0601 10:17:57.580852 14411 net.cpp:150] Setting up conv7_2
I0601 10:17:57.580860 14411 net.cpp:157] Top shape: 4 256 5 5 (25600)
I0601 10:17:57.580863 14411 net.cpp:165] Memory required for data: 940228640
I0601 10:17:57.580874 14411 layer_factory.hpp:77] Creating layer conv7_2_relu
I0601 10:17:57.580883 14411 net.cpp:100] Creating Layer conv7_2_relu
I0601 10:17:57.580888 14411 net.cpp:434] conv7_2_relu <- conv7_2
I0601 10:17:57.580895 14411 net.cpp:395] conv7_2_relu -> conv7_2 (in-place)
I0601 10:17:57.580904 14411 net.cpp:150] Setting up conv7_2_relu
I0601 10:17:57.580910 14411 net.cpp:157] Top shape: 4 256 5 5 (25600)
I0601 10:17:57.580915 14411 net.cpp:165] Memory required for data: 940331040
I0601 10:17:57.580920 14411 layer_factory.hpp:77] Creating layer conv7_2_conv7_2_relu_0_split
I0601 10:17:57.580927 14411 net.cpp:100] Creating Layer conv7_2_conv7_2_relu_0_split
I0601 10:17:57.580932 14411 net.cpp:434] conv7_2_conv7_2_relu_0_split <- conv7_2
I0601 10:17:57.580940 14411 net.cpp:408] conv7_2_conv7_2_relu_0_split -> conv7_2_conv7_2_relu_0_split_0
I0601 10:17:57.580948 14411 net.cpp:408] conv7_2_conv7_2_relu_0_split -> conv7_2_conv7_2_relu_0_split_1
I0601 10:17:57.580957 14411 net.cpp:408] conv7_2_conv7_2_relu_0_split -> conv7_2_conv7_2_relu_0_split_2
I0601 10:17:57.580966 14411 net.cpp:408] conv7_2_conv7_2_relu_0_split -> conv7_2_conv7_2_relu_0_split_3
I0601 10:17:57.581022 14411 net.cpp:150] Setting up conv7_2_conv7_2_relu_0_split
I0601 10:17:57.581029 14411 net.cpp:157] Top shape: 4 256 5 5 (25600)
I0601 10:17:57.581033 14411 net.cpp:157] Top shape: 4 256 5 5 (25600)
I0601 10:17:57.581039 14411 net.cpp:157] Top shape: 4 256 5 5 (25600)
I0601 10:17:57.581045 14411 net.cpp:157] Top shape: 4 256 5 5 (25600)
I0601 10:17:57.581049 14411 net.cpp:165] Memory required for data: 940740640
I0601 10:17:57.581053 14411 layer_factory.hpp:77] Creating layer conv8_1
I0601 10:17:57.581076 14411 net.cpp:100] Creating Layer conv8_1
I0601 10:17:57.581084 14411 net.cpp:434] conv8_1 <- conv7_2_conv7_2_relu_0_split_0
I0601 10:17:57.581094 14411 net.cpp:408] conv8_1 -> conv8_1
I0601 10:17:57.581403 14411 net.cpp:150] Setting up conv8_1
I0601 10:17:57.581409 14411 net.cpp:157] Top shape: 4 128 5 5 (12800)
I0601 10:17:57.581413 14411 net.cpp:165] Memory required for data: 940791840
I0601 10:17:57.581416 14411 layer_factory.hpp:77] Creating layer conv8_1_relu
I0601 10:17:57.581421 14411 net.cpp:100] Creating Layer conv8_1_relu
I0601 10:17:57.581425 14411 net.cpp:434] conv8_1_relu <- conv8_1
I0601 10:17:57.581432 14411 net.cpp:395] conv8_1_relu -> conv8_1 (in-place)
I0601 10:17:57.581440 14411 net.cpp:150] Setting up conv8_1_relu
I0601 10:17:57.581446 14411 net.cpp:157] Top shape: 4 128 5 5 (12800)
I0601 10:17:57.581451 14411 net.cpp:165] Memory required for data: 940843040
I0601 10:17:57.581455 14411 layer_factory.hpp:77] Creating layer conv8_2
I0601 10:17:57.581465 14411 net.cpp:100] Creating Layer conv8_2
I0601 10:17:57.581470 14411 net.cpp:434] conv8_2 <- conv8_1
I0601 10:17:57.581476 14411 net.cpp:408] conv8_2 -> conv8_2
I0601 10:17:57.583501 14411 net.cpp:150] Setting up conv8_2
I0601 10:17:57.583513 14411 net.cpp:157] Top shape: 4 256 3 3 (9216)
I0601 10:17:57.583514 14411 net.cpp:165] Memory required for data: 940879904
I0601 10:17:57.583520 14411 layer_factory.hpp:77] Creating layer conv8_2_relu
I0601 10:17:57.583530 14411 net.cpp:100] Creating Layer conv8_2_relu
I0601 10:17:57.583535 14411 net.cpp:434] conv8_2_relu <- conv8_2
I0601 10:17:57.583541 14411 net.cpp:395] conv8_2_relu -> conv8_2 (in-place)
I0601 10:17:57.583549 14411 net.cpp:150] Setting up conv8_2_relu
I0601 10:17:57.583556 14411 net.cpp:157] Top shape: 4 256 3 3 (9216)
I0601 10:17:57.583561 14411 net.cpp:165] Memory required for data: 940916768
I0601 10:17:57.583564 14411 layer_factory.hpp:77] Creating layer conv8_2_conv8_2_relu_0_split
I0601 10:17:57.583570 14411 net.cpp:100] Creating Layer conv8_2_conv8_2_relu_0_split
I0601 10:17:57.583577 14411 net.cpp:434] conv8_2_conv8_2_relu_0_split <- conv8_2
I0601 10:17:57.583583 14411 net.cpp:408] conv8_2_conv8_2_relu_0_split -> conv8_2_conv8_2_relu_0_split_0
I0601 10:17:57.583592 14411 net.cpp:408] conv8_2_conv8_2_relu_0_split -> conv8_2_conv8_2_relu_0_split_1
I0601 10:17:57.583600 14411 net.cpp:408] conv8_2_conv8_2_relu_0_split -> conv8_2_conv8_2_relu_0_split_2
I0601 10:17:57.583611 14411 net.cpp:408] conv8_2_conv8_2_relu_0_split -> conv8_2_conv8_2_relu_0_split_3
I0601 10:17:57.583669 14411 net.cpp:150] Setting up conv8_2_conv8_2_relu_0_split
I0601 10:17:57.583675 14411 net.cpp:157] Top shape: 4 256 3 3 (9216)
I0601 10:17:57.583678 14411 net.cpp:157] Top shape: 4 256 3 3 (9216)
I0601 10:17:57.583683 14411 net.cpp:157] Top shape: 4 256 3 3 (9216)
I0601 10:17:57.583688 14411 net.cpp:157] Top shape: 4 256 3 3 (9216)
I0601 10:17:57.583693 14411 net.cpp:165] Memory required for data: 941064224
I0601 10:17:57.583698 14411 layer_factory.hpp:77] Creating layer conv9_1
I0601 10:17:57.583709 14411 net.cpp:100] Creating Layer conv9_1
I0601 10:17:57.583714 14411 net.cpp:434] conv9_1 <- conv8_2_conv8_2_relu_0_split_0
I0601 10:17:57.583724 14411 net.cpp:408] conv9_1 -> conv9_1
I0601 10:17:57.584033 14411 net.cpp:150] Setting up conv9_1
I0601 10:17:57.584040 14411 net.cpp:157] Top shape: 4 128 3 3 (4608)
I0601 10:17:57.584043 14411 net.cpp:165] Memory required for data: 941082656
I0601 10:17:57.584046 14411 layer_factory.hpp:77] Creating layer conv9_1_relu
I0601 10:17:57.584053 14411 net.cpp:100] Creating Layer conv9_1_relu
I0601 10:17:57.584059 14411 net.cpp:434] conv9_1_relu <- conv9_1
I0601 10:17:57.584064 14411 net.cpp:395] conv9_1_relu -> conv9_1 (in-place)
I0601 10:17:57.584071 14411 net.cpp:150] Setting up conv9_1_relu
I0601 10:17:57.584077 14411 net.cpp:157] Top shape: 4 128 3 3 (4608)
I0601 10:17:57.584082 14411 net.cpp:165] Memory required for data: 941101088
I0601 10:17:57.584086 14411 layer_factory.hpp:77] Creating layer conv9_2
I0601 10:17:57.584106 14411 net.cpp:100] Creating Layer conv9_2
I0601 10:17:57.584111 14411 net.cpp:434] conv9_2 <- conv9_1
I0601 10:17:57.584120 14411 net.cpp:408] conv9_2 -> conv9_2
I0601 10:17:57.586159 14411 net.cpp:150] Setting up conv9_2
I0601 10:17:57.586169 14411 net.cpp:157] Top shape: 4 256 1 1 (1024)
I0601 10:17:57.586171 14411 net.cpp:165] Memory required for data: 941105184
I0601 10:17:57.586177 14411 layer_factory.hpp:77] Creating layer conv9_2_relu
I0601 10:17:57.586186 14411 net.cpp:100] Creating Layer conv9_2_relu
I0601 10:17:57.586191 14411 net.cpp:434] conv9_2_relu <- conv9_2
I0601 10:17:57.586196 14411 net.cpp:395] conv9_2_relu -> conv9_2 (in-place)
I0601 10:17:57.586205 14411 net.cpp:150] Setting up conv9_2_relu
I0601 10:17:57.586212 14411 net.cpp:157] Top shape: 4 256 1 1 (1024)
I0601 10:17:57.586216 14411 net.cpp:165] Memory required for data: 941109280
I0601 10:17:57.586220 14411 layer_factory.hpp:77] Creating layer conv9_2_conv9_2_relu_0_split
I0601 10:17:57.586228 14411 net.cpp:100] Creating Layer conv9_2_conv9_2_relu_0_split
I0601 10:17:57.586235 14411 net.cpp:434] conv9_2_conv9_2_relu_0_split <- conv9_2
I0601 10:17:57.586241 14411 net.cpp:408] conv9_2_conv9_2_relu_0_split -> conv9_2_conv9_2_relu_0_split_0
I0601 10:17:57.586248 14411 net.cpp:408] conv9_2_conv9_2_relu_0_split -> conv9_2_conv9_2_relu_0_split_1
I0601 10:17:57.586259 14411 net.cpp:408] conv9_2_conv9_2_relu_0_split -> conv9_2_conv9_2_relu_0_split_2
I0601 10:17:57.586307 14411 net.cpp:150] Setting up conv9_2_conv9_2_relu_0_split
I0601 10:17:57.586313 14411 net.cpp:157] Top shape: 4 256 1 1 (1024)
I0601 10:17:57.586315 14411 net.cpp:157] Top shape: 4 256 1 1 (1024)
I0601 10:17:57.586319 14411 net.cpp:157] Top shape: 4 256 1 1 (1024)
I0601 10:17:57.586323 14411 net.cpp:165] Memory required for data: 941121568
I0601 10:17:57.586326 14411 layer_factory.hpp:77] Creating layer conv4_3_norm
I0601 10:17:57.586334 14411 net.cpp:100] Creating Layer conv4_3_norm
I0601 10:17:57.586340 14411 net.cpp:434] conv4_3_norm <- conv4_3_relu4_3_0_split_1
I0601 10:17:57.586346 14411 net.cpp:408] conv4_3_norm -> conv4_3_norm
I0601 10:17:57.586470 14411 net.cpp:150] Setting up conv4_3_norm
I0601 10:17:57.586477 14411 net.cpp:157] Top shape: 4 512 38 38 (2957312)
I0601 10:17:57.586479 14411 net.cpp:165] Memory required for data: 952950816
I0601 10:17:57.586484 14411 layer_factory.hpp:77] Creating layer conv4_3_norm_conv4_3_norm_0_split
I0601 10:17:57.586490 14411 net.cpp:100] Creating Layer conv4_3_norm_conv4_3_norm_0_split
I0601 10:17:57.586495 14411 net.cpp:434] conv4_3_norm_conv4_3_norm_0_split <- conv4_3_norm
I0601 10:17:57.586501 14411 net.cpp:408] conv4_3_norm_conv4_3_norm_0_split -> conv4_3_norm_conv4_3_norm_0_split_0
I0601 10:17:57.586511 14411 net.cpp:408] conv4_3_norm_conv4_3_norm_0_split -> conv4_3_norm_conv4_3_norm_0_split_1
I0601 10:17:57.586520 14411 net.cpp:408] conv4_3_norm_conv4_3_norm_0_split -> conv4_3_norm_conv4_3_norm_0_split_2
I0601 10:17:57.586562 14411 net.cpp:150] Setting up conv4_3_norm_conv4_3_norm_0_split
I0601 10:17:57.586568 14411 net.cpp:157] Top shape: 4 512 38 38 (2957312)
I0601 10:17:57.586571 14411 net.cpp:157] Top shape: 4 512 38 38 (2957312)
I0601 10:17:57.586575 14411 net.cpp:157] Top shape: 4 512 38 38 (2957312)
I0601 10:17:57.586578 14411 net.cpp:165] Memory required for data: 988438560
I0601 10:17:57.586582 14411 layer_factory.hpp:77] Creating layer conv4_3_norm_mbox_loc
I0601 10:17:57.586592 14411 net.cpp:100] Creating Layer conv4_3_norm_mbox_loc
I0601 10:17:57.586598 14411 net.cpp:434] conv4_3_norm_mbox_loc <- conv4_3_norm_conv4_3_norm_0_split_0
I0601 10:17:57.586606 14411 net.cpp:408] conv4_3_norm_mbox_loc -> conv4_3_norm_mbox_loc
I0601 10:17:57.587088 14411 net.cpp:150] Setting up conv4_3_norm_mbox_loc
I0601 10:17:57.587095 14411 net.cpp:157] Top shape: 4 16 38 38 (92416)
I0601 10:17:57.587096 14411 net.cpp:165] Memory required for data: 988808224
I0601 10:17:57.587101 14411 layer_factory.hpp:77] Creating layer conv4_3_norm_mbox_loc_perm
I0601 10:17:57.587110 14411 net.cpp:100] Creating Layer conv4_3_norm_mbox_loc_perm
I0601 10:17:57.587126 14411 net.cpp:434] conv4_3_norm_mbox_loc_perm <- conv4_3_norm_mbox_loc
I0601 10:17:57.587131 14411 net.cpp:408] conv4_3_norm_mbox_loc_perm -> conv4_3_norm_mbox_loc_perm
I0601 10:17:57.587210 14411 net.cpp:150] Setting up conv4_3_norm_mbox_loc_perm
I0601 10:17:57.587218 14411 net.cpp:157] Top shape: 4 38 38 16 (92416)
I0601 10:17:57.587219 14411 net.cpp:165] Memory required for data: 989177888
I0601 10:17:57.587221 14411 layer_factory.hpp:77] Creating layer conv4_3_norm_mbox_loc_flat
I0601 10:17:57.587229 14411 net.cpp:100] Creating Layer conv4_3_norm_mbox_loc_flat
I0601 10:17:57.587235 14411 net.cpp:434] conv4_3_norm_mbox_loc_flat <- conv4_3_norm_mbox_loc_perm
I0601 10:17:57.587240 14411 net.cpp:408] conv4_3_norm_mbox_loc_flat -> conv4_3_norm_mbox_loc_flat
I0601 10:17:57.587272 14411 net.cpp:150] Setting up conv4_3_norm_mbox_loc_flat
I0601 10:17:57.587278 14411 net.cpp:157] Top shape: 4 23104 (92416)
I0601 10:17:57.587282 14411 net.cpp:165] Memory required for data: 989547552
I0601 10:17:57.587285 14411 layer_factory.hpp:77] Creating layer conv4_3_norm_mbox_conf
I0601 10:17:57.587301 14411 net.cpp:100] Creating Layer conv4_3_norm_mbox_conf
I0601 10:17:57.587306 14411 net.cpp:434] conv4_3_norm_mbox_conf <- conv4_3_norm_conv4_3_norm_0_split_1
I0601 10:17:57.587311 14411 net.cpp:408] conv4_3_norm_mbox_conf -> conv4_3_norm_mbox_conf
I0601 10:17:57.587819 14411 net.cpp:150] Setting up conv4_3_norm_mbox_conf
I0601 10:17:57.587826 14411 net.cpp:157] Top shape: 4 16 38 38 (92416)
I0601 10:17:57.587828 14411 net.cpp:165] Memory required for data: 989917216
I0601 10:17:57.587833 14411 layer_factory.hpp:77] Creating layer conv4_3_norm_mbox_conf_perm
I0601 10:17:57.587839 14411 net.cpp:100] Creating Layer conv4_3_norm_mbox_conf_perm
I0601 10:17:57.587843 14411 net.cpp:434] conv4_3_norm_mbox_conf_perm <- conv4_3_norm_mbox_conf
I0601 10:17:57.587848 14411 net.cpp:408] conv4_3_norm_mbox_conf_perm -> conv4_3_norm_mbox_conf_perm
I0601 10:17:57.587946 14411 net.cpp:150] Setting up conv4_3_norm_mbox_conf_perm
I0601 10:17:57.587954 14411 net.cpp:157] Top shape: 4 38 38 16 (92416)
I0601 10:17:57.587957 14411 net.cpp:165] Memory required for data: 990286880
I0601 10:17:57.587960 14411 layer_factory.hpp:77] Creating layer conv4_3_norm_mbox_conf_flat
I0601 10:17:57.587965 14411 net.cpp:100] Creating Layer conv4_3_norm_mbox_conf_flat
I0601 10:17:57.587970 14411 net.cpp:434] conv4_3_norm_mbox_conf_flat <- conv4_3_norm_mbox_conf_perm
I0601 10:17:57.587977 14411 net.cpp:408] conv4_3_norm_mbox_conf_flat -> conv4_3_norm_mbox_conf_flat
I0601 10:17:57.588001 14411 net.cpp:150] Setting up conv4_3_norm_mbox_conf_flat
I0601 10:17:57.588008 14411 net.cpp:157] Top shape: 4 23104 (92416)
I0601 10:17:57.588012 14411 net.cpp:165] Memory required for data: 990656544
I0601 10:17:57.588016 14411 layer_factory.hpp:77] Creating layer conv4_3_norm_mbox_priorbox
I0601 10:17:57.588022 14411 net.cpp:100] Creating Layer conv4_3_norm_mbox_priorbox
I0601 10:17:57.588028 14411 net.cpp:434] conv4_3_norm_mbox_priorbox <- conv4_3_norm_conv4_3_norm_0_split_2
I0601 10:17:57.588033 14411 net.cpp:434] conv4_3_norm_mbox_priorbox <- data_data_0_split_1
I0601 10:17:57.588040 14411 net.cpp:408] conv4_3_norm_mbox_priorbox -> conv4_3_norm_mbox_priorbox
I0601 10:17:57.588066 14411 net.cpp:150] Setting up conv4_3_norm_mbox_priorbox
I0601 10:17:57.588073 14411 net.cpp:157] Top shape: 1 2 23104 (46208)
I0601 10:17:57.588076 14411 net.cpp:165] Memory required for data: 990841376
I0601 10:17:57.588080 14411 layer_factory.hpp:77] Creating layer fc7_mbox_loc
I0601 10:17:57.588088 14411 net.cpp:100] Creating Layer fc7_mbox_loc
I0601 10:17:57.588094 14411 net.cpp:434] fc7_mbox_loc <- fc7_relu7_0_split_1
I0601 10:17:57.588100 14411 net.cpp:408] fc7_mbox_loc -> fc7_mbox_loc
I0601 10:17:57.589994 14411 net.cpp:150] Setting up fc7_mbox_loc
I0601 10:17:57.590009 14411 net.cpp:157] Top shape: 4 24 19 19 (34656)
I0601 10:17:57.590014 14411 net.cpp:165] Memory required for data: 990980000
I0601 10:17:57.590021 14411 layer_factory.hpp:77] Creating layer fc7_mbox_loc_perm
I0601 10:17:57.590029 14411 net.cpp:100] Creating Layer fc7_mbox_loc_perm
I0601 10:17:57.590045 14411 net.cpp:434] fc7_mbox_loc_perm <- fc7_mbox_loc
I0601 10:17:57.590068 14411 net.cpp:408] fc7_mbox_loc_perm -> fc7_mbox_loc_perm
I0601 10:17:57.590186 14411 net.cpp:150] Setting up fc7_mbox_loc_perm
I0601 10:17:57.590194 14411 net.cpp:157] Top shape: 4 19 19 24 (34656)
I0601 10:17:57.590196 14411 net.cpp:165] Memory required for data: 991118624
I0601 10:17:57.590199 14411 layer_factory.hpp:77] Creating layer fc7_mbox_loc_flat
I0601 10:17:57.590204 14411 net.cpp:100] Creating Layer fc7_mbox_loc_flat
I0601 10:17:57.590207 14411 net.cpp:434] fc7_mbox_loc_flat <- fc7_mbox_loc_perm
I0601 10:17:57.590211 14411 net.cpp:408] fc7_mbox_loc_flat -> fc7_mbox_loc_flat
I0601 10:17:57.590229 14411 net.cpp:150] Setting up fc7_mbox_loc_flat
I0601 10:17:57.590234 14411 net.cpp:157] Top shape: 4 8664 (34656)
I0601 10:17:57.590235 14411 net.cpp:165] Memory required for data: 991257248
I0601 10:17:57.590237 14411 layer_factory.hpp:77] Creating layer fc7_mbox_conf
I0601 10:17:57.590245 14411 net.cpp:100] Creating Layer fc7_mbox_conf
I0601 10:17:57.590248 14411 net.cpp:434] fc7_mbox_conf <- fc7_relu7_0_split_2
I0601 10:17:57.590252 14411 net.cpp:408] fc7_mbox_conf -> fc7_mbox_conf
I0601 10:17:57.591341 14411 net.cpp:150] Setting up fc7_mbox_conf
I0601 10:17:57.591349 14411 net.cpp:157] Top shape: 4 24 19 19 (34656)
I0601 10:17:57.591352 14411 net.cpp:165] Memory required for data: 991395872
I0601 10:17:57.591357 14411 layer_factory.hpp:77] Creating layer fc7_mbox_conf_perm
I0601 10:17:57.591367 14411 net.cpp:100] Creating Layer fc7_mbox_conf_perm
I0601 10:17:57.591372 14411 net.cpp:434] fc7_mbox_conf_perm <- fc7_mbox_conf
I0601 10:17:57.591379 14411 net.cpp:408] fc7_mbox_conf_perm -> fc7_mbox_conf_perm
I0601 10:17:57.591462 14411 net.cpp:150] Setting up fc7_mbox_conf_perm
I0601 10:17:57.591469 14411 net.cpp:157] Top shape: 4 19 19 24 (34656)
I0601 10:17:57.591470 14411 net.cpp:165] Memory required for data: 991534496
I0601 10:17:57.591473 14411 layer_factory.hpp:77] Creating layer fc7_mbox_conf_flat
I0601 10:17:57.591480 14411 net.cpp:100] Creating Layer fc7_mbox_conf_flat
I0601 10:17:57.591485 14411 net.cpp:434] fc7_mbox_conf_flat <- fc7_mbox_conf_perm
I0601 10:17:57.591500 14411 net.cpp:408] fc7_mbox_conf_flat -> fc7_mbox_conf_flat
I0601 10:17:57.591523 14411 net.cpp:150] Setting up fc7_mbox_conf_flat
I0601 10:17:57.591529 14411 net.cpp:157] Top shape: 4 8664 (34656)
I0601 10:17:57.591531 14411 net.cpp:165] Memory required for data: 991673120
I0601 10:17:57.591534 14411 layer_factory.hpp:77] Creating layer fc7_mbox_priorbox
I0601 10:17:57.591542 14411 net.cpp:100] Creating Layer fc7_mbox_priorbox
I0601 10:17:57.591547 14411 net.cpp:434] fc7_mbox_priorbox <- fc7_relu7_0_split_3
I0601 10:17:57.591553 14411 net.cpp:434] fc7_mbox_priorbox <- data_data_0_split_2
I0601 10:17:57.591562 14411 net.cpp:408] fc7_mbox_priorbox -> fc7_mbox_priorbox
I0601 10:17:57.591589 14411 net.cpp:150] Setting up fc7_mbox_priorbox
I0601 10:17:57.591595 14411 net.cpp:157] Top shape: 1 2 8664 (17328)
I0601 10:17:57.591599 14411 net.cpp:165] Memory required for data: 991742432
I0601 10:17:57.591603 14411 layer_factory.hpp:77] Creating layer conv6_2_mbox_loc
I0601 10:17:57.591614 14411 net.cpp:100] Creating Layer conv6_2_mbox_loc
I0601 10:17:57.591619 14411 net.cpp:434] conv6_2_mbox_loc <- conv6_2_conv6_2_relu_0_split_1
I0601 10:17:57.591629 14411 net.cpp:408] conv6_2_mbox_loc -> conv6_2_mbox_loc
I0601 10:17:57.592262 14411 net.cpp:150] Setting up conv6_2_mbox_loc
I0601 10:17:57.592268 14411 net.cpp:157] Top shape: 4 24 10 10 (9600)
I0601 10:17:57.592270 14411 net.cpp:165] Memory required for data: 991780832
I0601 10:17:57.592277 14411 layer_factory.hpp:77] Creating layer conv6_2_mbox_loc_perm
I0601 10:17:57.592284 14411 net.cpp:100] Creating Layer conv6_2_mbox_loc_perm
I0601 10:17:57.592290 14411 net.cpp:434] conv6_2_mbox_loc_perm <- conv6_2_mbox_loc
I0601 10:17:57.592298 14411 net.cpp:408] conv6_2_mbox_loc_perm -> conv6_2_mbox_loc_perm
I0601 10:17:57.592380 14411 net.cpp:150] Setting up conv6_2_mbox_loc_perm
I0601 10:17:57.592393 14411 net.cpp:157] Top shape: 4 10 10 24 (9600)
I0601 10:17:57.592396 14411 net.cpp:165] Memory required for data: 991819232
I0601 10:17:57.592399 14411 layer_factory.hpp:77] Creating layer conv6_2_mbox_loc_flat
I0601 10:17:57.592406 14411 net.cpp:100] Creating Layer conv6_2_mbox_loc_flat
I0601 10:17:57.592411 14411 net.cpp:434] conv6_2_mbox_loc_flat <- conv6_2_mbox_loc_perm
I0601 10:17:57.592417 14411 net.cpp:408] conv6_2_mbox_loc_flat -> conv6_2_mbox_loc_flat
I0601 10:17:57.592443 14411 net.cpp:150] Setting up conv6_2_mbox_loc_flat
I0601 10:17:57.592449 14411 net.cpp:157] Top shape: 4 2400 (9600)
I0601 10:17:57.592452 14411 net.cpp:165] Memory required for data: 991857632
I0601 10:17:57.592455 14411 layer_factory.hpp:77] Creating layer conv6_2_mbox_conf
I0601 10:17:57.592465 14411 net.cpp:100] Creating Layer conv6_2_mbox_conf
I0601 10:17:57.592471 14411 net.cpp:434] conv6_2_mbox_conf <- conv6_2_conv6_2_relu_0_split_2
I0601 10:17:57.592480 14411 net.cpp:408] conv6_2_mbox_conf -> conv6_2_mbox_conf
I0601 10:17:57.593117 14411 net.cpp:150] Setting up conv6_2_mbox_conf
I0601 10:17:57.593125 14411 net.cpp:157] Top shape: 4 24 10 10 (9600)
I0601 10:17:57.593127 14411 net.cpp:165] Memory required for data: 991896032
I0601 10:17:57.593132 14411 layer_factory.hpp:77] Creating layer conv6_2_mbox_conf_perm
I0601 10:17:57.593138 14411 net.cpp:100] Creating Layer conv6_2_mbox_conf_perm
I0601 10:17:57.593144 14411 net.cpp:434] conv6_2_mbox_conf_perm <- conv6_2_mbox_conf
I0601 10:17:57.593153 14411 net.cpp:408] conv6_2_mbox_conf_perm -> conv6_2_mbox_conf_perm
I0601 10:17:57.593232 14411 net.cpp:150] Setting up conv6_2_mbox_conf_perm
I0601 10:17:57.593238 14411 net.cpp:157] Top shape: 4 10 10 24 (9600)
I0601 10:17:57.593241 14411 net.cpp:165] Memory required for data: 991934432
I0601 10:17:57.593245 14411 layer_factory.hpp:77] Creating layer conv6_2_mbox_conf_flat
I0601 10:17:57.593252 14411 net.cpp:100] Creating Layer conv6_2_mbox_conf_flat
I0601 10:17:57.593257 14411 net.cpp:434] conv6_2_mbox_conf_flat <- conv6_2_mbox_conf_perm
I0601 10:17:57.593266 14411 net.cpp:408] conv6_2_mbox_conf_flat -> conv6_2_mbox_conf_flat
I0601 10:17:57.593288 14411 net.cpp:150] Setting up conv6_2_mbox_conf_flat
I0601 10:17:57.593293 14411 net.cpp:157] Top shape: 4 2400 (9600)
I0601 10:17:57.593296 14411 net.cpp:165] Memory required for data: 991972832
I0601 10:17:57.593299 14411 layer_factory.hpp:77] Creating layer conv6_2_mbox_priorbox
I0601 10:17:57.593307 14411 net.cpp:100] Creating Layer conv6_2_mbox_priorbox
I0601 10:17:57.593312 14411 net.cpp:434] conv6_2_mbox_priorbox <- conv6_2_conv6_2_relu_0_split_3
I0601 10:17:57.593318 14411 net.cpp:434] conv6_2_mbox_priorbox <- data_data_0_split_3
I0601 10:17:57.593327 14411 net.cpp:408] conv6_2_mbox_priorbox -> conv6_2_mbox_priorbox
I0601 10:17:57.593353 14411 net.cpp:150] Setting up conv6_2_mbox_priorbox
I0601 10:17:57.593358 14411 net.cpp:157] Top shape: 1 2 2400 (4800)
I0601 10:17:57.593360 14411 net.cpp:165] Memory required for data: 991992032
I0601 10:17:57.593364 14411 layer_factory.hpp:77] Creating layer conv7_2_mbox_loc
I0601 10:17:57.593374 14411 net.cpp:100] Creating Layer conv7_2_mbox_loc
I0601 10:17:57.593380 14411 net.cpp:434] conv7_2_mbox_loc <- conv7_2_conv7_2_relu_0_split_1
I0601 10:17:57.593389 14411 net.cpp:408] conv7_2_mbox_loc -> conv7_2_mbox_loc
I0601 10:17:57.593791 14411 net.cpp:150] Setting up conv7_2_mbox_loc
I0601 10:17:57.593797 14411 net.cpp:157] Top shape: 4 24 5 5 (2400)
I0601 10:17:57.593801 14411 net.cpp:165] Memory required for data: 992001632
I0601 10:17:57.593807 14411 layer_factory.hpp:77] Creating layer conv7_2_mbox_loc_perm
I0601 10:17:57.593816 14411 net.cpp:100] Creating Layer conv7_2_mbox_loc_perm
I0601 10:17:57.593822 14411 net.cpp:434] conv7_2_mbox_loc_perm <- conv7_2_mbox_loc
I0601 10:17:57.593827 14411 net.cpp:408] conv7_2_mbox_loc_perm -> conv7_2_mbox_loc_perm
I0601 10:17:57.593907 14411 net.cpp:150] Setting up conv7_2_mbox_loc_perm
I0601 10:17:57.593914 14411 net.cpp:157] Top shape: 4 5 5 24 (2400)
I0601 10:17:57.593916 14411 net.cpp:165] Memory required for data: 992011232
I0601 10:17:57.593930 14411 layer_factory.hpp:77] Creating layer conv7_2_mbox_loc_flat
I0601 10:17:57.593937 14411 net.cpp:100] Creating Layer conv7_2_mbox_loc_flat
I0601 10:17:57.593942 14411 net.cpp:434] conv7_2_mbox_loc_flat <- conv7_2_mbox_loc_perm
I0601 10:17:57.593951 14411 net.cpp:408] conv7_2_mbox_loc_flat -> conv7_2_mbox_loc_flat
I0601 10:17:57.593976 14411 net.cpp:150] Setting up conv7_2_mbox_loc_flat
I0601 10:17:57.593981 14411 net.cpp:157] Top shape: 4 600 (2400)
I0601 10:17:57.593986 14411 net.cpp:165] Memory required for data: 992020832
I0601 10:17:57.593989 14411 layer_factory.hpp:77] Creating layer conv7_2_mbox_conf
I0601 10:17:57.593998 14411 net.cpp:100] Creating Layer conv7_2_mbox_conf
I0601 10:17:57.594004 14411 net.cpp:434] conv7_2_mbox_conf <- conv7_2_conv7_2_relu_0_split_2
I0601 10:17:57.594014 14411 net.cpp:408] conv7_2_mbox_conf -> conv7_2_mbox_conf
I0601 10:17:57.594414 14411 net.cpp:150] Setting up conv7_2_mbox_conf
I0601 10:17:57.594420 14411 net.cpp:157] Top shape: 4 24 5 5 (2400)
I0601 10:17:57.594422 14411 net.cpp:165] Memory required for data: 992030432
I0601 10:17:57.594429 14411 layer_factory.hpp:77] Creating layer conv7_2_mbox_conf_perm
I0601 10:17:57.594437 14411 net.cpp:100] Creating Layer conv7_2_mbox_conf_perm
I0601 10:17:57.594444 14411 net.cpp:434] conv7_2_mbox_conf_perm <- conv7_2_mbox_conf
I0601 10:17:57.594450 14411 net.cpp:408] conv7_2_mbox_conf_perm -> conv7_2_mbox_conf_perm
I0601 10:17:57.594530 14411 net.cpp:150] Setting up conv7_2_mbox_conf_perm
I0601 10:17:57.594535 14411 net.cpp:157] Top shape: 4 5 5 24 (2400)
I0601 10:17:57.594537 14411 net.cpp:165] Memory required for data: 992040032
I0601 10:17:57.594540 14411 layer_factory.hpp:77] Creating layer conv7_2_mbox_conf_flat
I0601 10:17:57.594548 14411 net.cpp:100] Creating Layer conv7_2_mbox_conf_flat
I0601 10:17:57.594553 14411 net.cpp:434] conv7_2_mbox_conf_flat <- conv7_2_mbox_conf_perm
I0601 10:17:57.594560 14411 net.cpp:408] conv7_2_mbox_conf_flat -> conv7_2_mbox_conf_flat
I0601 10:17:57.594584 14411 net.cpp:150] Setting up conv7_2_mbox_conf_flat
I0601 10:17:57.594590 14411 net.cpp:157] Top shape: 4 600 (2400)
I0601 10:17:57.594593 14411 net.cpp:165] Memory required for data: 992049632
I0601 10:17:57.594595 14411 layer_factory.hpp:77] Creating layer conv7_2_mbox_priorbox
I0601 10:17:57.594604 14411 net.cpp:100] Creating Layer conv7_2_mbox_priorbox
I0601 10:17:57.594609 14411 net.cpp:434] conv7_2_mbox_priorbox <- conv7_2_conv7_2_relu_0_split_3
I0601 10:17:57.594615 14411 net.cpp:434] conv7_2_mbox_priorbox <- data_data_0_split_4
I0601 10:17:57.594622 14411 net.cpp:408] conv7_2_mbox_priorbox -> conv7_2_mbox_priorbox
I0601 10:17:57.594650 14411 net.cpp:150] Setting up conv7_2_mbox_priorbox
I0601 10:17:57.594655 14411 net.cpp:157] Top shape: 1 2 600 (1200)
I0601 10:17:57.594657 14411 net.cpp:165] Memory required for data: 992054432
I0601 10:17:57.594660 14411 layer_factory.hpp:77] Creating layer conv8_2_mbox_loc
I0601 10:17:57.594671 14411 net.cpp:100] Creating Layer conv8_2_mbox_loc
I0601 10:17:57.594676 14411 net.cpp:434] conv8_2_mbox_loc <- conv8_2_conv8_2_relu_0_split_1
I0601 10:17:57.594686 14411 net.cpp:408] conv8_2_mbox_loc -> conv8_2_mbox_loc
I0601 10:17:57.595011 14411 net.cpp:150] Setting up conv8_2_mbox_loc
I0601 10:17:57.595017 14411 net.cpp:157] Top shape: 4 16 3 3 (576)
I0601 10:17:57.595021 14411 net.cpp:165] Memory required for data: 992056736
I0601 10:17:57.595036 14411 layer_factory.hpp:77] Creating layer conv8_2_mbox_loc_perm
I0601 10:17:57.595043 14411 net.cpp:100] Creating Layer conv8_2_mbox_loc_perm
I0601 10:17:57.595048 14411 net.cpp:434] conv8_2_mbox_loc_perm <- conv8_2_mbox_loc
I0601 10:17:57.595057 14411 net.cpp:408] conv8_2_mbox_loc_perm -> conv8_2_mbox_loc_perm
I0601 10:17:57.595139 14411 net.cpp:150] Setting up conv8_2_mbox_loc_perm
I0601 10:17:57.595145 14411 net.cpp:157] Top shape: 4 3 3 16 (576)
I0601 10:17:57.595147 14411 net.cpp:165] Memory required for data: 992059040
I0601 10:17:57.595150 14411 layer_factory.hpp:77] Creating layer conv8_2_mbox_loc_flat
I0601 10:17:57.595165 14411 net.cpp:100] Creating Layer conv8_2_mbox_loc_flat
I0601 10:17:57.595170 14411 net.cpp:434] conv8_2_mbox_loc_flat <- conv8_2_mbox_loc_perm
I0601 10:17:57.595178 14411 net.cpp:408] conv8_2_mbox_loc_flat -> conv8_2_mbox_loc_flat
I0601 10:17:57.595206 14411 net.cpp:150] Setting up conv8_2_mbox_loc_flat
I0601 10:17:57.595211 14411 net.cpp:157] Top shape: 4 144 (576)
I0601 10:17:57.595212 14411 net.cpp:165] Memory required for data: 992061344
I0601 10:17:57.595216 14411 layer_factory.hpp:77] Creating layer conv8_2_mbox_conf
I0601 10:17:57.595227 14411 net.cpp:100] Creating Layer conv8_2_mbox_conf
I0601 10:17:57.595232 14411 net.cpp:434] conv8_2_mbox_conf <- conv8_2_conv8_2_relu_0_split_2
I0601 10:17:57.595240 14411 net.cpp:408] conv8_2_mbox_conf -> conv8_2_mbox_conf
I0601 10:17:57.595561 14411 net.cpp:150] Setting up conv8_2_mbox_conf
I0601 10:17:57.595568 14411 net.cpp:157] Top shape: 4 16 3 3 (576)
I0601 10:17:57.595571 14411 net.cpp:165] Memory required for data: 992063648
I0601 10:17:57.595577 14411 layer_factory.hpp:77] Creating layer conv8_2_mbox_conf_perm
I0601 10:17:57.595583 14411 net.cpp:100] Creating Layer conv8_2_mbox_conf_perm
I0601 10:17:57.595589 14411 net.cpp:434] conv8_2_mbox_conf_perm <- conv8_2_mbox_conf
I0601 10:17:57.595597 14411 net.cpp:408] conv8_2_mbox_conf_perm -> conv8_2_mbox_conf_perm
I0601 10:17:57.595674 14411 net.cpp:150] Setting up conv8_2_mbox_conf_perm
I0601 10:17:57.595679 14411 net.cpp:157] Top shape: 4 3 3 16 (576)
I0601 10:17:57.595682 14411 net.cpp:165] Memory required for data: 992065952
I0601 10:17:57.595685 14411 layer_factory.hpp:77] Creating layer conv8_2_mbox_conf_flat
I0601 10:17:57.595691 14411 net.cpp:100] Creating Layer conv8_2_mbox_conf_flat
I0601 10:17:57.595697 14411 net.cpp:434] conv8_2_mbox_conf_flat <- conv8_2_mbox_conf_perm
I0601 10:17:57.595705 14411 net.cpp:408] conv8_2_mbox_conf_flat -> conv8_2_mbox_conf_flat
I0601 10:17:57.595728 14411 net.cpp:150] Setting up conv8_2_mbox_conf_flat
I0601 10:17:57.595733 14411 net.cpp:157] Top shape: 4 144 (576)
I0601 10:17:57.595736 14411 net.cpp:165] Memory required for data: 992068256
I0601 10:17:57.595739 14411 layer_factory.hpp:77] Creating layer conv8_2_mbox_priorbox
I0601 10:17:57.595751 14411 net.cpp:100] Creating Layer conv8_2_mbox_priorbox
I0601 10:17:57.595757 14411 net.cpp:434] conv8_2_mbox_priorbox <- conv8_2_conv8_2_relu_0_split_3
I0601 10:17:57.595762 14411 net.cpp:434] conv8_2_mbox_priorbox <- data_data_0_split_5
I0601 10:17:57.595769 14411 net.cpp:408] conv8_2_mbox_priorbox -> conv8_2_mbox_priorbox
I0601 10:17:57.595796 14411 net.cpp:150] Setting up conv8_2_mbox_priorbox
I0601 10:17:57.595803 14411 net.cpp:157] Top shape: 1 2 144 (288)
I0601 10:17:57.595804 14411 net.cpp:165] Memory required for data: 992069408
I0601 10:17:57.595809 14411 layer_factory.hpp:77] Creating layer conv9_2_mbox_loc
I0601 10:17:57.595819 14411 net.cpp:100] Creating Layer conv9_2_mbox_loc
I0601 10:17:57.595824 14411 net.cpp:434] conv9_2_mbox_loc <- conv9_2_conv9_2_relu_0_split_0
I0601 10:17:57.595832 14411 net.cpp:408] conv9_2_mbox_loc -> conv9_2_mbox_loc
I0601 10:17:57.596182 14411 net.cpp:150] Setting up conv9_2_mbox_loc
I0601 10:17:57.596189 14411 net.cpp:157] Top shape: 4 16 1 1 (64)
I0601 10:17:57.596190 14411 net.cpp:165] Memory required for data: 992069664
I0601 10:17:57.596196 14411 layer_factory.hpp:77] Creating layer conv9_2_mbox_loc_perm
I0601 10:17:57.596204 14411 net.cpp:100] Creating Layer conv9_2_mbox_loc_perm
I0601 10:17:57.596210 14411 net.cpp:434] conv9_2_mbox_loc_perm <- conv9_2_mbox_loc
I0601 10:17:57.596217 14411 net.cpp:408] conv9_2_mbox_loc_perm -> conv9_2_mbox_loc_perm
I0601 10:17:57.596294 14411 net.cpp:150] Setting up conv9_2_mbox_loc_perm
I0601 10:17:57.596302 14411 net.cpp:157] Top shape: 4 1 1 16 (64)
I0601 10:17:57.596304 14411 net.cpp:165] Memory required for data: 992069920
I0601 10:17:57.596307 14411 layer_factory.hpp:77] Creating layer conv9_2_mbox_loc_flat
I0601 10:17:57.596312 14411 net.cpp:100] Creating Layer conv9_2_mbox_loc_flat
I0601 10:17:57.596318 14411 net.cpp:434] conv9_2_mbox_loc_flat <- conv9_2_mbox_loc_perm
I0601 10:17:57.596333 14411 net.cpp:408] conv9_2_mbox_loc_flat -> conv9_2_mbox_loc_flat
I0601 10:17:57.596356 14411 net.cpp:150] Setting up conv9_2_mbox_loc_flat
I0601 10:17:57.596364 14411 net.cpp:157] Top shape: 4 16 (64)
I0601 10:17:57.596367 14411 net.cpp:165] Memory required for data: 992070176
I0601 10:17:57.596371 14411 layer_factory.hpp:77] Creating layer conv9_2_mbox_conf
I0601 10:17:57.596379 14411 net.cpp:100] Creating Layer conv9_2_mbox_conf
I0601 10:17:57.596385 14411 net.cpp:434] conv9_2_mbox_conf <- conv9_2_conv9_2_relu_0_split_1
I0601 10:17:57.596395 14411 net.cpp:408] conv9_2_mbox_conf -> conv9_2_mbox_conf
I0601 10:17:57.596719 14411 net.cpp:150] Setting up conv9_2_mbox_conf
I0601 10:17:57.596725 14411 net.cpp:157] Top shape: 4 16 1 1 (64)
I0601 10:17:57.596729 14411 net.cpp:165] Memory required for data: 992070432
I0601 10:17:57.596735 14411 layer_factory.hpp:77] Creating layer conv9_2_mbox_conf_perm
I0601 10:17:57.596745 14411 net.cpp:100] Creating Layer conv9_2_mbox_conf_perm
I0601 10:17:57.596751 14411 net.cpp:434] conv9_2_mbox_conf_perm <- conv9_2_mbox_conf
I0601 10:17:57.596758 14411 net.cpp:408] conv9_2_mbox_conf_perm -> conv9_2_mbox_conf_perm
I0601 10:17:57.596839 14411 net.cpp:150] Setting up conv9_2_mbox_conf_perm
I0601 10:17:57.596844 14411 net.cpp:157] Top shape: 4 1 1 16 (64)
I0601 10:17:57.596846 14411 net.cpp:165] Memory required for data: 992070688
I0601 10:17:57.596850 14411 layer_factory.hpp:77] Creating layer conv9_2_mbox_conf_flat
I0601 10:17:57.596856 14411 net.cpp:100] Creating Layer conv9_2_mbox_conf_flat
I0601 10:17:57.596860 14411 net.cpp:434] conv9_2_mbox_conf_flat <- conv9_2_mbox_conf_perm
I0601 10:17:57.596874 14411 net.cpp:408] conv9_2_mbox_conf_flat -> conv9_2_mbox_conf_flat
I0601 10:17:57.596900 14411 net.cpp:150] Setting up conv9_2_mbox_conf_flat
I0601 10:17:57.596906 14411 net.cpp:157] Top shape: 4 16 (64)
I0601 10:17:57.596909 14411 net.cpp:165] Memory required for data: 992070944
I0601 10:17:57.596912 14411 layer_factory.hpp:77] Creating layer conv9_2_mbox_priorbox
I0601 10:17:57.596918 14411 net.cpp:100] Creating Layer conv9_2_mbox_priorbox
I0601 10:17:57.596925 14411 net.cpp:434] conv9_2_mbox_priorbox <- conv9_2_conv9_2_relu_0_split_2
I0601 10:17:57.596930 14411 net.cpp:434] conv9_2_mbox_priorbox <- data_data_0_split_6
I0601 10:17:57.596938 14411 net.cpp:408] conv9_2_mbox_priorbox -> conv9_2_mbox_priorbox
I0601 10:17:57.596963 14411 net.cpp:150] Setting up conv9_2_mbox_priorbox
I0601 10:17:57.596971 14411 net.cpp:157] Top shape: 1 2 16 (32)
I0601 10:17:57.596974 14411 net.cpp:165] Memory required for data: 992071072
I0601 10:17:57.596977 14411 layer_factory.hpp:77] Creating layer mbox_loc
I0601 10:17:57.596985 14411 net.cpp:100] Creating Layer mbox_loc
I0601 10:17:57.596992 14411 net.cpp:434] mbox_loc <- conv4_3_norm_mbox_loc_flat
I0601 10:17:57.596998 14411 net.cpp:434] mbox_loc <- fc7_mbox_loc_flat
I0601 10:17:57.597005 14411 net.cpp:434] mbox_loc <- conv6_2_mbox_loc_flat
I0601 10:17:57.597012 14411 net.cpp:434] mbox_loc <- conv7_2_mbox_loc_flat
I0601 10:17:57.597018 14411 net.cpp:434] mbox_loc <- conv8_2_mbox_loc_flat
I0601 10:17:57.597023 14411 net.cpp:434] mbox_loc <- conv9_2_mbox_loc_flat
I0601 10:17:57.597030 14411 net.cpp:408] mbox_loc -> mbox_loc
I0601 10:17:57.597055 14411 net.cpp:150] Setting up mbox_loc
I0601 10:17:57.597061 14411 net.cpp:157] Top shape: 4 34928 (139712)
I0601 10:17:57.597064 14411 net.cpp:165] Memory required for data: 992629920
I0601 10:17:57.597067 14411 layer_factory.hpp:77] Creating layer mbox_conf
I0601 10:17:57.597075 14411 net.cpp:100] Creating Layer mbox_conf
I0601 10:17:57.597081 14411 net.cpp:434] mbox_conf <- conv4_3_norm_mbox_conf_flat
I0601 10:17:57.597088 14411 net.cpp:434] mbox_conf <- fc7_mbox_conf_flat
I0601 10:17:57.597093 14411 net.cpp:434] mbox_conf <- conv6_2_mbox_conf_flat
I0601 10:17:57.597100 14411 net.cpp:434] mbox_conf <- conv7_2_mbox_conf_flat
I0601 10:17:57.597105 14411 net.cpp:434] mbox_conf <- conv8_2_mbox_conf_flat
I0601 10:17:57.597110 14411 net.cpp:434] mbox_conf <- conv9_2_mbox_conf_flat
I0601 10:17:57.597126 14411 net.cpp:408] mbox_conf -> mbox_conf
I0601 10:17:57.597149 14411 net.cpp:150] Setting up mbox_conf
I0601 10:17:57.597156 14411 net.cpp:157] Top shape: 4 34928 (139712)
I0601 10:17:57.597157 14411 net.cpp:165] Memory required for data: 993188768
I0601 10:17:57.597162 14411 layer_factory.hpp:77] Creating layer mbox_priorbox
I0601 10:17:57.597168 14411 net.cpp:100] Creating Layer mbox_priorbox
I0601 10:17:57.597174 14411 net.cpp:434] mbox_priorbox <- conv4_3_norm_mbox_priorbox
I0601 10:17:57.597180 14411 net.cpp:434] mbox_priorbox <- fc7_mbox_priorbox
I0601 10:17:57.597187 14411 net.cpp:434] mbox_priorbox <- conv6_2_mbox_priorbox
I0601 10:17:57.597192 14411 net.cpp:434] mbox_priorbox <- conv7_2_mbox_priorbox
I0601 10:17:57.597198 14411 net.cpp:434] mbox_priorbox <- conv8_2_mbox_priorbox
I0601 10:17:57.597203 14411 net.cpp:434] mbox_priorbox <- conv9_2_mbox_priorbox
I0601 10:17:57.597209 14411 net.cpp:408] mbox_priorbox -> mbox_priorbox
I0601 10:17:57.597232 14411 net.cpp:150] Setting up mbox_priorbox
I0601 10:17:57.597239 14411 net.cpp:157] Top shape: 1 2 34928 (69856)
I0601 10:17:57.597242 14411 net.cpp:165] Memory required for data: 993468192
I0601 10:17:57.597245 14411 layer_factory.hpp:77] Creating layer mbox_conf_reshape
I0601 10:17:57.597254 14411 net.cpp:100] Creating Layer mbox_conf_reshape
I0601 10:17:57.597259 14411 net.cpp:434] mbox_conf_reshape <- mbox_conf
I0601 10:17:57.597268 14411 net.cpp:408] mbox_conf_reshape -> mbox_conf_reshape
I0601 10:17:57.597301 14411 net.cpp:150] Setting up mbox_conf_reshape
I0601 10:17:57.597306 14411 net.cpp:157] Top shape: 4 8732 4 (139712)
I0601 10:17:57.597311 14411 net.cpp:165] Memory required for data: 994027040
I0601 10:17:57.597314 14411 layer_factory.hpp:77] Creating layer mbox_conf_softmax
I0601 10:17:57.597321 14411 net.cpp:100] Creating Layer mbox_conf_softmax
I0601 10:17:57.597326 14411 net.cpp:434] mbox_conf_softmax <- mbox_conf_reshape
I0601 10:17:57.597334 14411 net.cpp:408] mbox_conf_softmax -> mbox_conf_softmax
I0601 10:17:57.597386 14411 net.cpp:150] Setting up mbox_conf_softmax
I0601 10:17:57.597393 14411 net.cpp:157] Top shape: 4 8732 4 (139712)
I0601 10:17:57.597395 14411 net.cpp:165] Memory required for data: 994585888
I0601 10:17:57.597400 14411 layer_factory.hpp:77] Creating layer mbox_conf_flatten
I0601 10:17:57.597409 14411 net.cpp:100] Creating Layer mbox_conf_flatten
I0601 10:17:57.597415 14411 net.cpp:434] mbox_conf_flatten <- mbox_conf_softmax
I0601 10:17:57.597422 14411 net.cpp:408] mbox_conf_flatten -> mbox_conf_flatten
I0601 10:17:57.597445 14411 net.cpp:150] Setting up mbox_conf_flatten
I0601 10:17:57.597450 14411 net.cpp:157] Top shape: 4 34928 (139712)
I0601 10:17:57.597455 14411 net.cpp:165] Memory required for data: 995144736
I0601 10:17:57.597457 14411 layer_factory.hpp:77] Creating layer detection_out
I0601 10:17:57.597472 14411 net.cpp:100] Creating Layer detection_out
I0601 10:17:57.597477 14411 net.cpp:434] detection_out <- mbox_loc
I0601 10:17:57.597481 14411 net.cpp:434] detection_out <- mbox_conf_flatten
I0601 10:17:57.597484 14411 net.cpp:434] detection_out <- mbox_priorbox
I0601 10:17:57.597493 14411 net.cpp:408] detection_out -> detection_out
I0601 10:17:57.598692 14411 net.cpp:150] Setting up detection_out
I0601 10:17:57.598701 14411 net.cpp:157] Top shape: 1 1 1 7 (7)
I0601 10:17:57.598703 14411 net.cpp:165] Memory required for data: 995144764
I0601 10:17:57.598707 14411 layer_factory.hpp:77] Creating layer detection_eval
I0601 10:17:57.598714 14411 net.cpp:100] Creating Layer detection_eval
I0601 10:17:57.598719 14411 net.cpp:434] detection_eval <- detection_out
I0601 10:17:57.598726 14411 net.cpp:434] detection_eval <- label
I0601 10:17:57.598734 14411 net.cpp:408] detection_eval -> detection_eval
I0601 10:17:57.599458 14411 net.cpp:150] Setting up detection_eval
I0601 10:17:57.599465 14411 net.cpp:157] Top shape: 1 1 4 5 (20)
I0601 10:17:57.599467 14411 net.cpp:165] Memory required for data: 995144844
I0601 10:17:57.599472 14411 net.cpp:228] detection_eval does not need backward computation.
I0601 10:17:57.599484 14411 net.cpp:228] detection_out does not need backward computation.
I0601 10:17:57.599491 14411 net.cpp:228] mbox_conf_flatten does not need backward computation.
I0601 10:17:57.599496 14411 net.cpp:228] mbox_conf_softmax does not need backward computation.
…
