…
        min_scale: 0.3
        max_scale: 1
        min_aspect_ratio: 0.5
        max_aspect_ratio: 2
      }
      sample_constraint {
        min_jaccard_overlap: 0.9
      }
      max_sample: 1
      max_trials: 50
    }
    batch_sampler {
      sampler {
        min_scale: 0.3
        max_scale: 1
        min_aspect_ratio: 0.5
        max_aspect_ratio: 2
      }
      sample_constraint {
        max_jaccard_overlap: 1
      }
      max_sample: 1
      max_trials: 50
    }
    label_map_file: "data/tbs_300x300_HSIL_10x/labelmap_tbs.prototxt"
  }
}
layer {
  name: "conv1_1"
  type: "Convolution"
  bottom: "data"
  top: "conv1_1"
  param {
    lr_mult: 1
    decay_mult: 1
  }
  param {
    lr_mult: 2
    decay_mult: 0
  }
  convolution_param {
    num_output: 64
    pad: 1
    kernel_size: 3
    weight_filler {
      type: "xavier"
    }
    bias_filler {
      type: "constant"
      value: 0
    }
  }
}
layer {
  name: "relu1_1"
  type: "ReLU"
  bottom: "conv1_1"
  top: "conv1_1"
}
layer {
  name: "conv1_2"
  type: "Convolution"
  bottom: "conv1_1"
  top: "conv1_2"
  param {
    lr_mult: 1
    decay_mult: 1
  }
  param {
    lr_mult: 2
    decay_mult: 0
  }
  convolution_param {
    num_output: 64
    pad: 1
    kernel_size: 3
    weight_filler {
      type: "xavier"
    }
    bias_filler {
      type: "constant"
      value: 0
    }
  }
}
layer {
  name: "relu1_2"
  type: "ReLU"
  bottom: "conv1_2"
  top: "conv1_2"
}
layer {
  name: "pool1"
  type: "Pooling"
  bottom: "conv1_2"
  top: "pool1"
  pooling_param {
    pool: MAX
    kernel_size: 2
    stride: 2
  }
}
layer {
  name: "conv2_1"
  type: "Convolution"
  bottom: "pool1"
  top: "conv2_1"
  param {
    lr_mult: 1
    decay_mult: 1
  }
  param {
    lr_mult: 2
    decay_mult: 0
  }
  convolution_param {
    num_output: 128
    pad: 1
    kernel_size: 3
    weight_filler {
      type: "xavier"
    }
    bias_filler {
      type: "constant"
      value: 0
    }
  }
}
layer {
  name: "relu2_1"
  type: "ReLU"
  bottom: "conv2_1"
  top: "conv2_1"
}
layer {
  name: "conv2_2"
  type: "Convolution"
  bottom: "conv2_1"
  top: "conv2_2"
  param {
    lr_mult: 1
    decay_mult: 1
  }
  param {
    lr_mult: 2
    decay_mult: 0
  }
  convolution_param {
    num_output: 128
    pad: 1
    kernel_size: 3
    weight_filler {
      type: "xavier"
    }
    bias_filler {
      type: "constant"
      value: 0
    }
  }
}
layer {
  name: "relu2_2"
  type: "ReLU"
  bottom: "conv2_2"
  top: "conv2_2"
}
layer {
  name: "pool2"
  type: "Pooling"
  bottom: "conv2_2"
  top: "pool2"
  pooling_param {
    pool: MAX
    kernel_size: 2
    stride: 2
  }
}
layer {
  name: "conv3_1"
  type: "Convolution"
  bottom: "pool2"
  top: "conv3_1"
  param {
    lr_mult: 1
    decay_mult: 1
  }
  param {
    lr_mult: 2
    decay_mult: 0
  }
  convolution_param {
    num_output: 256
    pad: 1
    kernel_size: 3
    weight_filler {
      type: "xavier"
    }
    bias_filler {
      type: "constant"
      value: 0
    }
  }
}
layer {
  name: "relu3_1"
  type: "ReLU"
  bottom: "conv3_1"
  top: "conv3_1"
}
layer {
  name: "conv3_2"
  type: "Convolution"
  bottom: "conv3_1"
  top: "conv3_2"
  param {
    lr_mult: 1
    decay_mult: 1
  }
  param {
    lr_mult: 2
    decay_mult: 0
  }
  convolution_param {
    num_output: 256
    pad: 1
    kernel_size: 3
    weight_filler {
      type: "xavier"
    }
    bias_filler {
      type: "constant"
      value: 0
    }
  }
}
layer {
  name: "relu3_2"
  type: "ReLU"
  bottom: "conv3_2"
  top: "conv3_2"
}
layer {
  name: "conv3_3"
  type: "Convolution"
  bottom: "conv3_2"
  top: "conv3_3"
  param {
    lr_mult: 1
    decay_mult: 1
  }
  param {
    lr_mult: 2
    decay_mult: 0
  }
  convolution_param {
    num_output: 256
    pad: 1
    kernel_size: 3
    weight_filler {
      type: "xavier"
    }
    bias_filler {
      type: "constant"
      value: 0
    }
  }
}
layer {
  name: "relu3_3"
  type: "ReLU"
  bottom: "conv3_3"
  top: "conv3_3"
}
layer {
  name: "pool3"
  type: "Pooling"
  bottom: "conv3_3"
  top: "pool3"
  pooling_param {
    pool: MAX
    kernel_size: 2
    stride: 2
  }
}
layer {
  name: "conv4_1"
  type: "Convolution"
  bottom: "pool3"
  top: "conv4_1"
  param {
    lr_mult: 1
    decay_mult: 1
  }
  param {
    lr_mult: 2
    decay_mult: 0
  }
  convolution_param {
    num_output: 512
    pad: 1
    kernel_size: 3
    weight_filler {
      type: "xavier"
    }
    bias_filler {
      type: "constant"
      value: 0
    }
  }
}
layer {
  name: "relu4_1"
  type: "ReLU"
  bottom: "conv4_1"
  top: "conv4_1"
}
layer {
  name: "conv4_2"
  type: "Convolution"
  bottom: "conv4_1"
  top: "conv4_2"
  param {
    lr_mult: 1
    decay_mult: 1
  }
  param {
    lr_mult: 2
    decay_mult: 0
  }
  convolution_param {
    num_output: 512
    pad: 1
    kernel_size: 3
    weight_filler {
      type: "xavier"
    }
    bias_filler {
      type: "constant"
      value: 0
    }
  }
}
layer {
  name: "relu4_2"
  type: "ReLU"
  bottom: "conv4_2"
  top: "conv4_2"
}
layer {
  name: "conv4_3"
  type: "Convolution"
  bottom: "conv4_2"
  top: "conv4_3"
  param {
    lr_mult: 1
    decay_mult: 1
  }
  param {
    lr_mult: 2
    decay_mult: 0
  }
  convolution_param {
    num_output: 512
    pad: 1
    kernel_size: 3
    weight_filler {
      type: "xavier"
    }
    bias_filler {
      type: "constant"
      value: 0
    }
  }
}
layer {
  name: "relu4_3"
  type: "ReLU"
  bottom: "conv4_3"
  top: "conv4_3"
}
layer {
  name: "pool4"
  type: "Pooling"
  bottom: "conv4_3"
  top: "pool4"
  pooling_param {
    pool: MAX
    kernel_size: 2
    stride: 2
  }
}
layer {
  name: "conv5_1"
  type: "Convolution"
  bottom: "pool4"
  top: "conv5_1"
  param {
    lr_mult: 1
    decay_mult: 1
  }
  param {
    lr_mult: 2
    decay_mult: 0
  }
  convolution_param {
    num_output: 512
    pad: 1
    kernel_size: 3
    weight_filler {
      type: "xavier"
    }
    bias_filler {
      type: "constant"
      value: 0
    }
    dilation: 1
  }
}
layer {
  name: "relu5_1"
  type: "ReLU"
  bottom: "conv5_1"
  top: "conv5_1"
}
layer {
  name: "conv5_2"
  type: "Convolution"
  bottom: "conv5_1"
  top: "conv5_2"
  param {
    lr_mult: 1
    decay_mult: 1
  }
  param {
    lr_mult: 2
    decay_mult: 0
  }
  convolution_param {
    num_output: 512
    pad: 1
    kernel_size: 3
    weight_filler {
      type: "xavier"
    }
    bias_filler {
      type: "constant"
      value: 0
    }
    dilation: 1
  }
}
layer {
  name: "relu5_2"
  type: "ReLU"
  bottom: "conv5_2"
  top: "conv5_2"
}
layer {
  name: "conv5_3"
  type: "Convolution"
  bottom: "conv5_2"
  top: "conv5_3"
  param {
    lr_mult: 1
    decay_mult: 1
  }
  param {
    lr_mult: 2
    decay_mult: 0
  }
  convolution_param {
    num_output: 512
    pad: 1
    kernel_size: 3
    weight_filler {
      type: "xavier"
    }
    bias_filler {
      type: "constant"
      value: 0
    }
    dilation: 1
  }
}
layer {
  name: "relu5_3"
  type: "ReLU"
  bottom: "conv5_3"
  top: "conv5_3"
}
layer {
  name: "pool5"
  type: "Pooling"
  bottom: "conv5_3"
  top: "pool5"
  pooling_param {
    pool: MAX
    kernel_size: 3
    stride: 1
    pad: 1
  }
}
layer {
  name: "fc6"
  type: "Convolution"
  bottom: "pool5"
  top: "fc6"
  param {
    lr_mult: 1
    decay_mult: 1
  }
  param {
    lr_mult: 2
    decay_mult: 0
  }
  convolution_param {
    num_output: 1024
    pad: 6
    kernel_size: 3
    weight_filler {
      type: "xavier"
    }
    bias_filler {
      type: "constant"
      value: 0
    }
    dilation: 6
  }
}
layer {
  name: "relu6"
  type: "ReLU"
  bottom: "fc6"
  top: "fc6"
}
layer {
  name: "fc7"
  type: "Convolution"
  bottom: "fc6"
  top: "fc7"
  param {
    lr_mult: 1
    decay_mult: 1
  }
  param {
    lr_mult: 2
    decay_mult: 0
  }
  convolution_param {
    num_output: 1024
    kernel_size: 1
    weight_filler {
      type: "xavier"
    }
    bias_filler {
      type: "constant"
      value: 0
    }
  }
}
layer {
  name: "relu7"
  type: "ReLU"
  bottom: "fc7"
  top: "fc7"
}
layer {
  name: "conv6_1"
  type: "Convolution"
  bottom: "fc7"
  top: "conv6_1"
  param {
    lr_mult: 1
    decay_mult: 1
  }
  param {
    lr_mult: 2
    decay_mult: 0
  }
  convolution_param {
    num_output: 256
    pad: 0
    kernel_size: 1
    stride: 1
    weight_filler {
      type: "xavier"
    }
    bias_filler {
      type: "constant"
      value: 0
    }
  }
}
layer {
  name: "conv6_1_relu"
  type: "ReLU"
  bottom: "conv6_1"
  top: "conv6_1"
}
layer {
  name: "conv6_2"
  type: "Convolution"
  bottom: "conv6_1"
  top: "conv6_2"
  param {
    lr_mult: 1
    decay_mult: 1
  }
  param {
    lr_mult: 2
    decay_mult: 0
  }
  convolution_param {
    num_output: 512
    pad: 1
    kernel_size: 3
    stride: 2
    weight_filler {
      type: "xavier"
    }
    bias_filler {
      type: "constant"
      value: 0
    }
  }
}
layer {
  name: "conv6_2_relu"
  type: "ReLU"
  bottom: "conv6_2"
  top: "conv6_2"
}
layer {
  name: "conv7_1"
  type: "Convolution"
  bottom: "conv6_2"
  top: "conv7_1"
  param {
    lr_mult: 1
    decay_mult: 1
  }
  param {
    lr_mult: 2
    decay_mult: 0
  }
  convolution_param {
    num_output: 128
    pad: 0
    kernel_size: 1
    stride: 1
    weight_filler {
      type: "xavier"
    }
    bias_filler {
      type: "constant"
      value: 0
    }
  }
}
layer {
  name: "conv7_1_relu"
  type: "ReLU"
  bottom: "conv7_1"
  top: "conv7_1"
}
layer {
  name: "conv7_2"
  type: "Convolution"
  bottom: "conv7_1"
  top: "conv7_2"
  param {
    lr_mult: 1
    decay_mult: 1
  }
  param {
    lr_mult: 2
    decay_mult: 0
  }
  convolution_param {
    num_output: 256
    pad: 1
    kernel_size: 3
    stride: 2
    weight_filler {
      type: "xavier"
    }
    bias_filler {
      type: "constant"
      value: 0
    }
  }
}
layer {
  name: "conv7_2_relu"
  type: "ReLU"
  bottom: "conv7_2"
  top: "conv7_2"
}
layer {
  name: "conv8_1"
  type: "Convolution"
  bottom: "conv7_2"
  top: "conv8_1"
  param {
    lr_mult: 1
    decay_mult: 1
  }
  param {
    lr_mult: 2
    decay_mult: 0
  }
  convolution_param {
    num_output: 128
    pad: 0
    kernel_size: 1
    stride: 1
    weight_filler {
      type: "xavier"
    }
    bias_filler {
      type: "constant"
      value: 0
    }
  }
}
layer {
  name: "conv8_1_relu"
  type: "ReLU"
  bottom: "conv8_1"
  top: "conv8_1"
}
layer {
  name: "conv8_2"
  type: "Convolution"
  bottom: "conv8_1"
  top: "conv8_2"
  param {
    lr_mult: 1
    decay_mult: 1
  }
  param {
    lr_mult: 2
    decay_mult: 0
  }
  convolution_param {
    num_output: 256
    pad: 0
    kernel_size: 3
    stride: 1
    weight_filler {
      type: "xavier"
    }
    bias_filler {
      type: "constant"
      value: 0
    }
  }
}
layer {
  name: "conv8_2_relu"
  type: "ReLU"
  bottom: "conv8_2"
  top: "conv8_2"
}
layer {
  name: "conv9_1"
  type: "Convolution"
  bottom: "conv8_2"
  top: "conv9_1"
  param {
    lr_mult: 1
    decay_mult: 1
  }
  param {
    lr_mult: 2
    decay_mult: 0
  }
  convolution_param {
    num_output: 128
    pad: 0
    kernel_size: 1
    stride: 1
    weight_filler {
      type: "xavier"
    }
    bias_filler {
      type: "constant"
      value: 0
    }
  }
}
layer {
  name: "conv9_1_relu"
  type: "ReLU"
  bottom: "conv9_1"
  top: "conv9_1"
}
layer {
  name: "conv9_2"
  type: "Convolution"
  bottom: "conv9_1"
  top: "conv9_2"
  param {
    lr_mult: 1
    decay_mult: 1
  }
  param {
    lr_mult: 2
    decay_mult: 0
  }
  convolution_param {
    num_output: 256
    pad: 0
    kernel_size: 3
    stride: 1
    weight_filler {
      type: "xavier"
    }
    bias_filler {
      type: "constant"
      value: 0
    }
  }
}
layer {
  name: "conv9_2_relu"
  type: "ReLU"
  bottom: "conv9_2"
  top: "conv9_2"
}
layer {
  name: "conv4_3_norm"
  type: "Normalize"
  bottom: "conv4_3"
  top: "conv4_3_norm"
  norm_param {
    across_spatial: false
    scale_filler {
      type: "constant"
      value: 20
    }
    channel_shared: false
  }
}
layer {
  name: "conv4_3_norm_mbox_loc"
  type: "Convolution"
  bottom: "conv4_3_norm"
  top: "conv4_3_norm_mbox_loc"
  param {
    lr_mult: 1
    decay_mult: 1
  }
  param {
    lr_mult: 2
    decay_mult: 0
  }
  convolution_param {
    num_output: 16
    pad: 1
    kernel_size: 3
    stride: 1
    weight_filler {
      type: "xavier"
    }
    bias_filler {
      type: "constant"
      value: 0
    }
  }
}
layer {
  name: "conv4_3_norm_mbox_loc_perm"
  type: "Permute"
  bottom: "conv4_3_norm_mbox_loc"
  top: "conv4_3_norm_mbox_loc_perm"
  permute_param {
    order: 0
    order: 2
    order: 3
    order: 1
  }
}
layer {
  name: "conv4_3_norm_mbox_loc_flat"
  type: "Flatten"
  bottom: "conv4_3_norm_mbox_loc_perm"
  top: "conv4_3_norm_mbox_loc_flat"
  flatten_param {
    axis: 1
  }
}
layer {
  name: "conv4_3_norm_mbox_conf"
  type: "Convolution"
  bottom: "conv4_3_norm"
  top: "conv4_3_norm_mbox_conf"
  param {
    lr_mult: 1
    decay_mult: 1
  }
  param {
    lr_mult: 2
    decay_mult: 0
  }
  convolution_param {
    num_output: 16
    pad: 1
    kernel_size: 3
    stride: 1
    weight_filler {
      type: "xavier"
    }
    bias_filler {
      type: "constant"
      value: 0
    }
  }
}
layer {
  name: "conv4_3_norm_mbox_conf_perm"
  type: "Permute"
  bottom: "conv4_3_norm_mbox_conf"
  top: "conv4_3_norm_mbox_conf_perm"
  permute_param {
    order: 0
    order: 2
    order: 3
    order: 1
  }
}
layer {
  name: "conv4_3_norm_mbox_conf_flat"
  type: "Flatten"
  bottom: "conv4_3_norm_mbox_conf_perm"
  top: "conv4_3_norm_mbox_conf_flat"
  flatten_param {
    axis: 1
  }
}
layer {
  name: "conv4_3_norm_mbox_priorbox"
  type: "PriorBox"
  bottom: "conv4_3_norm"
  bottom: "data"
  top: "conv4_3_norm_mbox_priorbox"
  prior_box_param {
    min_size: 30
    max_size: 60
    aspect_ratio: 2
    flip: true
    clip: false
    variance: 0.1
    variance: 0.1
    variance: 0.2
    variance: 0.2
    step: 8
    offset: 0.5
  }
}
layer {
  name: "fc7_mbox_loc"
  type: "Convolution"
  bottom: "fc7"
  top: "fc7_mbox_loc"
  param {
    lr_mult: 1
    decay_mult: 1
  }
  param {
    lr_mult: 2
    decay_mult: 0
  }
  convolution_param {
    num_output: 24
    pad: 1
    kernel_size: 3
    stride: 1
    weight_filler {
      type: "xavier"
    }
    bias_filler {
      type: "constant"
      value: 0
    }
  }
}
layer {
  name: "fc7_mbox_loc_perm"
  type: "Permute"
  bottom: "fc7_mbox_loc"
  top: "fc7_mbox_loc_perm"
  permute_param {
    order: 0
    order: 2
    order: 3
    order: 1
  }
}
layer {
  name: "fc7_mbox_loc_flat"
  type: "Flatten"
  bottom: "fc7_mbox_loc_perm"
  top: "fc7_mbox_loc_flat"
  flatten_param {
    axis: 1
  }
}
layer {
  name: "fc7_mbox_conf"
  type: "Convolution"
  bottom: "fc7"
  top: "fc7_mbox_conf"
  param {
    lr_mult: 1
    decay_mult: 1
  }
  param {
    lr_mult: 2
    decay_mult: 0
  }
  convolution_param {
    num_output: 24
    pad: 1
    kernel_size: 3
    stride: 1
    weight_filler {
      type: "xavier"
    }
    bias_filler {
      type: "constant"
      value: 0
    }
  }
}
layer {
  name: "fc7_mbox_conf_perm"
  type: "Permute"
  bottom: "fc7_mbox_conf"
  top: "fc7_mbox_conf_perm"
  permute_param {
    order: 0
    order: 2
    order: 3
    order: 1
  }
}
layer {
  name: "fc7_mbox_conf_flat"
  type: "Flatten"
  bottom: "fc7_mbox_conf_perm"
  top: "fc7_mbox_conf_flat"
  flatten_param {
    axis: 1
  }
}
layer {
  name: "fc7_mbox_priorbox"
  type: "PriorBox"
  bottom: "fc7"
  bottom: "data"
  top: "fc7_mbox_priorbox"
  prior_box_param {
    min_size: 60
    max_size: 111
    aspect_ratio: 2
    aspect_ratio: 3
    flip: true
    clip: false
    variance: 0.1
    variance: 0.1
    variance: 0.2
    variance: 0.2
    step: 16
    offset: 0.5
  }
}
layer {
  name: "conv6_2_mbox_loc"
  type: "Convolution"
  bottom: "conv6_2"
  top: "conv6_2_mbox_loc"
  param {
    lr_mult: 1
    decay_mult: 1
  }
  param {
    lr_mult: 2
    decay_mult: 0
  }
  convolution_param {
    num_output: 24
    pad: 1
    kernel_size: 3
    stride: 1
    weight_filler {
      type: "xavier"
    }
    bias_filler {
      type: "constant"
      value: 0
    }
  }
}
layer {
  name: "conv6_2_mbox_loc_perm"
  type: "Permute"
  bottom: "conv6_2_mbox_loc"
  top: "conv6_2_mbox_loc_perm"
  permute_param {
    order: 0
    order: 2
    order: 3
    order: 1
  }
}
layer {
  name: "conv6_2_mbox_loc_flat"
  type: "Flatten"
  bottom: "conv6_2_mbox_loc_perm"
  top: "conv6_2_mbox_loc_flat"
  flatten_param {
    axis: 1
  }
}
layer {
  name: "conv6_2_mbox_conf"
  type: "Convolution"
  bottom: "conv6_2"
  top: "conv6_2_mbox_conf"
  param {
    lr_mult: 1
    decay_mult: 1
  }
  param {
    lr_mult: 2
    decay_mult: 0
  }
  convolution_param {
    num_output: 24
    pad: 1
    kernel_size: 3
    stride: 1
    weight_filler {
      type: "xavier"
    }
    bias_filler {
      type: "constant"
      value: 0
    }
  }
}
layer {
  name: "conv6_2_mbox_conf_perm"
  type: "Permute"
  bottom: "conv6_2_mbox_conf"
  top: "conv6_2_mbox_conf_perm"
  permute_param {
    order: 0
    order: 2
    order: 3
    order: 1
  }
}
layer {
  name: "conv6_2_mbox_conf_flat"
  type: "Flatten"
  bottom: "conv6_2_mbox_conf_perm"
  top: "conv6_2_mbox_conf_flat"
  flatten_param {
    axis: 1
  }
}
layer {
  name: "conv6_2_mbox_priorbox"
  type: "PriorBox"
  bottom: "conv6_2"
  bottom: "data"
  top: "conv6_2_mbox_priorbox"
  prior_box_param {
    min_size: 111
    max_size: 162
    aspect_ratio: 2
    aspect_ratio: 3
    flip: true
    clip: false
    variance: 0.1
    variance: 0.1
    variance: 0.2
    variance: 0.2
    step: 32
    offset: 0.5
  }
}
layer {
  name: "conv7_2_mbox_loc"
  type: "Convolution"
  bottom: "conv7_2"
  top: "conv7_2_mbox_loc"
  param {
    lr_mult: 1
    decay_mult: 1
  }
  param {
    lr_mult: 2
    decay_mult: 0
  }
  convolution_param {
    num_output: 24
    pad: 1
    kernel_size: 3
    stride: 1
    weight_filler {
      type: "xavier"
    }
    bias_filler {
      type: "constant"
      value: 0
    }
  }
}
layer {
  name: "conv7_2_mbox_loc_perm"
  type: "Permute"
  bottom: "conv7_2_mbox_loc"
  top: "conv7_2_mbox_loc_perm"
  permute_param {
    order: 0
    order: 2
    order: 3
    order: 1
  }
}
layer {
  name: "conv7_2_mbox_loc_flat"
  type: "Flatten"
  bottom: "conv7_2_mbox_loc_perm"
  top: "conv7_2_mbox_loc_flat"
  flatten_param {
    axis: 1
  }
}
layer {
  name: "conv7_2_mbox_conf"
  type: "Convolution"
  bottom: "conv7_2"
  top: "conv7_2_mbox_conf"
  param {
    lr_mult: 1
    decay_mult: 1
  }
  param {
    lr_mult: 2
    decay_mult: 0
  }
  convolution_param {
    num_output: 24
    pad: 1
    kernel_size: 3
    stride: 1
    weight_filler {
      type: "xavier"
    }
    bias_filler {
      type: "constant"
      value: 0
    }
  }
}
layer {
  name: "conv7_2_mbox_conf_perm"
  type: "Permute"
  bottom: "conv7_2_mbox_conf"
  top: "conv7_2_mbox_conf_perm"
  permute_param {
    order: 0
    order: 2
    order: 3
    order: 1
  }
}
layer {
  name: "conv7_2_mbox_conf_flat"
  type: "Flatten"
  bottom: "conv7_2_mbox_conf_perm"
  top: "conv7_2_mbox_conf_flat"
  flatten_param {
    axis: 1
  }
}
layer {
  name: "conv7_2_mbox_priorbox"
  type: "PriorBox"
  bottom: "conv7_2"
  bottom: "data"
  top: "conv7_2_mbox_priorbox"
  prior_box_param {
    min_size: 162
    max_size: 213
    aspect_ratio: 2
    aspect_ratio: 3
    flip: true
    clip: false
    variance: 0.1
    variance: 0.1
    variance: 0.2
    variance: 0.2
    step: 64
    offset: 0.5
  }
}
layer {
  name: "conv8_2_mbox_loc"
  type: "Convolution"
  bottom: "conv8_2"
  top: "conv8_2_mbox_loc"
  param {
    lr_mult: 1
    decay_mult: 1
  }
  param {
    lr_mult: 2
    decay_mult: 0
  }
  convolution_param {
    num_output: 16
    pad: 1
    kernel_size: 3
    stride: 1
    weight_filler {
      type: "xavier"
    }
    bias_filler {
      type: "constant"
      value: 0
    }
  }
}
layer {
  name: "conv8_2_mbox_loc_perm"
  type: "Permute"
  bottom: "conv8_2_mbox_loc"
  top: "conv8_2_mbox_loc_perm"
  permute_param {
    order: 0
    order: 2
    order: 3
    order: 1
  }
}
layer {
  name: "conv8_2_mbox_loc_flat"
  type: "Flatten"
  bottom: "conv8_2_mbox_loc_perm"
  top: "conv8_2_mbox_loc_flat"
  flatten_param {
    axis: 1
  }
}
layer {
  name: "conv8_2_mbox_conf"
  type: "Convolution"
  bottom: "conv8_2"
  top: "conv8_2_mbox_conf"
  param {
    lr_mult: 1
    decay_mult: 1
  }
  param {
    lr_mult: 2
    decay_mult: 0
  }
  convolution_param {
    num_output: 16
    pad: 1
    kernel_size: 3
    stride: 1
    weight_filler {
      type: "xavier"
    }
    bias_filler {
      type: "constant"
      value: 0
    }
  }
}
layer {
  name: "conv8_2_mbox_conf_perm"
  type: "Permute"
  bottom: "conv8_2_mbox_conf"
  top: "conv8_2_mbox_conf_perm"
  permute_param {
    order: 0
    order: 2
    order: 3
    order: 1
  }
}
layer {
  name: "conv8_2_mbox_conf_flat"
  type: "Flatten"
  bottom: "conv8_2_mbox_conf_perm"
  top: "conv8_2_mbox_conf_flat"
  flatten_param {
    axis: 1
  }
}
layer {
  name: "conv8_2_mbox_priorbox"
  type: "PriorBox"
  bottom: "conv8_2"
  bottom: "data"
  top: "conv8_2_mbox_priorbox"
  prior_box_param {
    min_size: 213
    max_size: 264
    aspect_ratio: 2
    flip: true
    clip: false
    variance: 0.1
    variance: 0.1
    variance: 0.2
    variance: 0.2
    step: 100
    offset: 0.5
  }
}
layer {
  name: "conv9_2_mbox_loc"
  type: "Convolution"
  bottom: "conv9_2"
  top: "conv9_2_mbox_loc"
  param {
    lr_mult: 1
    decay_mult: 1
  }
  param {
    lr_mult: 2
    decay_mult: 0
  }
  convolution_param {
    num_output: 16
    pad: 1
    kernel_size: 3
    stride: 1
    weight_filler {
      type: "xavier"
    }
    bias_filler {
      type: "constant"
      value: 0
    }
  }
}
layer {
  name: "conv9_2_mbox_loc_perm"
  type: "Permute"
  bottom: "conv9_2_mbox_loc"
  top: "conv9_2_mbox_loc_perm"
  permute_param {
    order: 0
    order: 2
    order: 3
    order: 1
  }
}
layer {
  name: "conv9_2_mbox_loc_flat"
  type: "Flatten"
  bottom: "conv9_2_mbox_loc_perm"
  top: "conv9_2_mbox_loc_flat"
  flatten_param {
    axis: 1
  }
}
layer {
  name: "conv9_2_mbox_conf"
  type: "Convolution"
  bottom: "conv9_2"
  top: "conv9_2_mbox_conf"
  param {
    lr_mult: 1
    decay_mult: 1
  }
  param {
    lr_mult: 2
    decay_mult: 0
  }
  convolution_param {
    num_output: 16
    pad: 1
    kernel_size: 3
    stride: 1
    weight_filler {
      type: "xavier"
    }
    bias_filler {
      type: "constant"
      value: 0
    }
  }
}
layer {
  name: "conv9_2_mbox_conf_perm"
  type: "Permute"
  bottom: "conv9_2_mbox_conf"
  top: "conv9_2_mbox_conf_perm"
  permute_param {
    order: 0
    order: 2
    order: 3
    order: 1
  }
}
layer {
  name: "conv9_2_mbox_conf_flat"
  type: "Flatten"
  bottom: "conv9_2_mbox_conf_perm"
  top: "conv9_2_mbox_conf_flat"
  flatten_param {
    axis: 1
  }
}
layer {
  name: "conv9_2_mbox_priorbox"
  type: "PriorBox"
  bottom: "conv9_2"
  bottom: "data"
  top: "conv9_2_mbox_priorbox"
  prior_box_param {
    min_size: 264
    max_size: 315
    aspect_ratio: 2
    flip: true
    clip: false
    variance: 0.1
    variance: 0.1
    variance: 0.2
    variance: 0.2
    step: 300
    offset: 0.5
  }
}
layer {
  name: "mbox_loc"
  type: "Concat"
  bottom: "conv4_3_norm_mbox_loc_flat"
  bottom: "fc7_mbox_loc_flat"
  bottom: "conv6_2_mbox_loc_flat"
  bottom: "conv7_2_mbox_loc_flat"
  bottom: "conv8_2_mbox_loc_flat"
  bottom: "conv9_2_mbox_loc_flat"
  top: "mbox_loc"
  concat_param {
    axis: 1
  }
}
layer {
  name: "mbox_conf"
  type: "Concat"
  bottom: "conv4_3_norm_mbox_conf_flat"
  bottom: "fc7_mbox_conf_flat"
  bottom: "conv6_2_mbox_conf_flat"
  bottom: "conv7_2_mbox_conf_flat"
  bottom: "conv8_2_mbox_conf_flat"
  bottom: "conv9_2_mbox_conf_flat"
  top: "mbox_conf"
  concat_param {
    axis: 1
  }
}
layer {
  name: "mbox_priorbox"
  type: "Concat"
  bottom: "conv4_3_norm_mbox_priorbox"
  bottom: "fc7_mbox_priorbox"
  bottom: "conv6_2_mbox_priorbox"
  bottom: "conv7_2_mbox_priorbox"
  bottom: "conv8_2_mbox_priorbox"
  bottom: "conv9_2_mbox_priorbox"
  top: "mbox_priorbox"
  concat_param {
    axis: 2
  }
}
layer {
  name: "mbox_loss"
  type: "MultiBoxLoss"
  bottom: "mbox_loc"
  bottom: "mbox_conf"
  bottom: "mbox_priorbox"
  bottom: "label"
  top: "mbox_loss"
  include {
    phase: TRAIN
  }
  propagate_down: true
  propagate_down: true
  propagate_down: false
  propagate_down: false
  loss_param {
    normalization: VALID
  }
  multibox_loss_param {
    loc_loss_type: SMOOTH_L1
    conf_loss_type: SOFTMAX
    loc_weight: 1
    num_classes: 4
    share_location: true
    match_type: PER_PREDICTION
    overlap_threshold: 0.5
    use_prior_for_matching: true
    background_label_id: 0
    use_difficult_gt: true
    neg_pos_ratio: 3
    neg_overlap: 0.5
    code_type: CENTER_SIZE
    ignore_cross_boundary_bbox: false
    mining_type: MAX_NEGATIVE
  }
}
I0531 10:33:35.227859  7148 layer_factory.hpp:77] Creating layer data
I0531 10:33:35.227980  7148 net.cpp:100] Creating Layer data
I0531 10:33:35.228389  7148 net.cpp:408] data -> data
I0531 10:33:35.228418  7165 db_lmdb.cpp:35] Opened lmdb examples/tbs_300x300_HSIL_10x/tbs_300x300_HSIL_10x_trainval_lmdb
I0531 10:33:35.228425  7148 net.cpp:408] data -> label
I0531 10:33:35.236860  7148 annotated_data_layer.cpp:62] output data size: 32,3,300,300
I0531 10:33:35.295650  7148 net.cpp:150] Setting up data
I0531 10:33:35.295668  7148 net.cpp:157] Top shape: 32 3 300 300 (8640000)
I0531 10:33:35.295672  7148 net.cpp:157] Top shape: 1 1 1 8 (8)
I0531 10:33:35.295704  7148 net.cpp:165] Memory required for data: 34560032
I0531 10:33:35.295725  7148 layer_factory.hpp:77] Creating layer data_data_0_split
I0531 10:33:35.295734  7148 net.cpp:100] Creating Layer data_data_0_split
I0531 10:33:35.295740  7148 net.cpp:434] data_data_0_split <- data
I0531 10:33:35.295766  7148 net.cpp:408] data_data_0_split -> data_data_0_split_0
I0531 10:33:35.295775  7148 net.cpp:408] data_data_0_split -> data_data_0_split_1
I0531 10:33:35.295780  7148 net.cpp:408] data_data_0_split -> data_data_0_split_2
I0531 10:33:35.295802  7148 net.cpp:408] data_data_0_split -> data_data_0_split_3
I0531 10:33:35.295807  7148 net.cpp:408] data_data_0_split -> data_data_0_split_4
I0531 10:33:35.295811  7148 net.cpp:408] data_data_0_split -> data_data_0_split_5
I0531 10:33:35.295816  7148 net.cpp:408] data_data_0_split -> data_data_0_split_6
I0531 10:33:35.295913  7148 net.cpp:150] Setting up data_data_0_split
I0531 10:33:35.295920  7148 net.cpp:157] Top shape: 32 3 300 300 (8640000)
I0531 10:33:35.295922  7148 net.cpp:157] Top shape: 32 3 300 300 (8640000)
I0531 10:33:35.295940  7148 net.cpp:157] Top shape: 32 3 300 300 (8640000)
I0531 10:33:35.295943  7148 net.cpp:157] Top shape: 32 3 300 300 (8640000)
I0531 10:33:35.295946  7148 net.cpp:157] Top shape: 32 3 300 300 (8640000)
I0531 10:33:35.295948  7148 net.cpp:157] Top shape: 32 3 300 300 (8640000)
I0531 10:33:35.295951  7148 net.cpp:157] Top shape: 32 3 300 300 (8640000)
I0531 10:33:35.295954  7148 net.cpp:165] Memory required for data: 276480032
I0531 10:33:35.295956  7148 layer_factory.hpp:77] Creating layer conv1_1
I0531 10:33:35.295969  7148 net.cpp:100] Creating Layer conv1_1
I0531 10:33:35.295972  7148 net.cpp:434] conv1_1 <- data_data_0_split_0
I0531 10:33:35.295977  7148 net.cpp:408] conv1_1 -> conv1_1
I0531 10:33:35.297708  7148 net.cpp:150] Setting up conv1_1
I0531 10:33:35.297719  7148 net.cpp:157] Top shape: 32 64 300 300 (184320000)
I0531 10:33:35.297721  7148 net.cpp:165] Memory required for data: 1013760032
I0531 10:33:35.297734  7148 layer_factory.hpp:77] Creating layer relu1_1
I0531 10:33:35.297757  7148 net.cpp:100] Creating Layer relu1_1
I0531 10:33:35.297760  7148 net.cpp:434] relu1_1 <- conv1_1
I0531 10:33:35.297765  7148 net.cpp:395] relu1_1 -> conv1_1 (in-place)
I0531 10:33:35.297771  7148 net.cpp:150] Setting up relu1_1
I0531 10:33:35.297775  7148 net.cpp:157] Top shape: 32 64 300 300 (184320000)
I0531 10:33:35.297776  7148 net.cpp:165] Memory required for data: 1751040032
I0531 10:33:35.297778  7148 layer_factory.hpp:77] Creating layer conv1_2
I0531 10:33:35.297787  7148 net.cpp:100] Creating Layer conv1_2
I0531 10:33:35.297791  7148 net.cpp:434] conv1_2 <- conv1_1
I0531 10:33:35.297796  7148 net.cpp:408] conv1_2 -> conv1_2
I0531 10:33:35.309618  7148 net.cpp:150] Setting up conv1_2
I0531 10:33:35.309648  7148 net.cpp:157] Top shape: 32 64 300 300 (184320000)
I0531 10:33:35.309651  7148 net.cpp:165] Memory required for data: 2488320032
I0531 10:33:35.309660  7148 layer_factory.hpp:77] Creating layer relu1_2
I0531 10:33:35.309682  7148 net.cpp:100] Creating Layer relu1_2
I0531 10:33:35.309686  7148 net.cpp:434] relu1_2 <- conv1_2
I0531 10:33:35.309692  7148 net.cpp:395] relu1_2 -> conv1_2 (in-place)
I0531 10:33:35.309700  7148 net.cpp:150] Setting up relu1_2
I0531 10:33:35.309705  7148 net.cpp:157] Top shape: 32 64 300 300 (184320000)
I0531 10:33:35.309723  7148 net.cpp:165] Memory required for data: 3225600032
I0531 10:33:35.309726  7148 layer_factory.hpp:77] Creating layer pool1
I0531 10:33:35.309731  7148 net.cpp:100] Creating Layer pool1
I0531 10:33:35.309732  7148 net.cpp:434] pool1 <- conv1_2
I0531 10:33:35.309736  7148 net.cpp:408] pool1 -> pool1
I0531 10:33:35.309770  7148 net.cpp:150] Setting up pool1
I0531 10:33:35.309775  7148 net.cpp:157] Top shape: 32 64 150 150 (46080000)
I0531 10:33:35.309777  7148 net.cpp:165] Memory required for data: 3409920032
I0531 10:33:35.309779  7148 layer_factory.hpp:77] Creating layer conv2_1
I0531 10:33:35.309787  7148 net.cpp:100] Creating Layer conv2_1
I0531 10:33:35.309803  7148 net.cpp:434] conv2_1 <- pool1
I0531 10:33:35.309808  7148 net.cpp:408] conv2_1 -> conv2_1
I0531 10:33:35.310250  7148 net.cpp:150] Setting up conv2_1
I0531 10:33:35.310256  7148 net.cpp:157] Top shape: 32 128 150 150 (92160000)
I0531 10:33:35.310258  7148 net.cpp:165] Memory required for data: 3778560032
I0531 10:33:35.310264  7148 layer_factory.hpp:77] Creating layer relu2_1
I0531 10:33:35.310269  7148 net.cpp:100] Creating Layer relu2_1
I0531 10:33:35.310272  7148 net.cpp:434] relu2_1 <- conv2_1
I0531 10:33:35.310276  7148 net.cpp:395] relu2_1 -> conv2_1 (in-place)
I0531 10:33:35.310281  7148 net.cpp:150] Setting up relu2_1
I0531 10:33:35.310283  7148 net.cpp:157] Top shape: 32 128 150 150 (92160000)
I0531 10:33:35.310286  7148 net.cpp:165] Memory required for data: 4147200032
I0531 10:33:35.310287  7148 layer_factory.hpp:77] Creating layer conv2_2
I0531 10:33:35.310293  7148 net.cpp:100] Creating Layer conv2_2
I0531 10:33:35.310295  7148 net.cpp:434] conv2_2 <- conv2_1
I0531 10:33:35.310299  7148 net.cpp:408] conv2_2 -> conv2_2
I0531 10:33:35.311055  7148 net.cpp:150] Setting up conv2_2
I0531 10:33:35.311063  7148 net.cpp:157] Top shape: 32 128 150 150 (92160000)
I0531 10:33:35.311064  7148 net.cpp:165] Memory required for data: 4515840032
I0531 10:33:35.311069  7148 layer_factory.hpp:77] Creating layer relu2_2
I0531 10:33:35.311072  7148 net.cpp:100] Creating Layer relu2_2
I0531 10:33:35.311075  7148 net.cpp:434] relu2_2 <- conv2_2
I0531 10:33:35.311079  7148 net.cpp:395] relu2_2 -> conv2_2 (in-place)
I0531 10:33:35.311084  7148 net.cpp:150] Setting up relu2_2
I0531 10:33:35.311086  7148 net.cpp:157] Top shape: 32 128 150 150 (92160000)
I0531 10:33:35.311089  7148 net.cpp:165] Memory required for data: 4884480032
I0531 10:33:35.311090  7148 layer_factory.hpp:77] Creating layer pool2
I0531 10:33:35.311094  7148 net.cpp:100] Creating Layer pool2
I0531 10:33:35.311096  7148 net.cpp:434] pool2 <- conv2_2
I0531 10:33:35.311100  7148 net.cpp:408] pool2 -> pool2
I0531 10:33:35.311122  7148 net.cpp:150] Setting up pool2
I0531 10:33:35.311128  7148 net.cpp:157] Top shape: 32 128 75 75 (23040000)
I0531 10:33:35.311131  7148 net.cpp:165] Memory required for data: 4976640032
I0531 10:33:35.311131  7148 layer_factory.hpp:77] Creating layer conv3_1
I0531 10:33:35.311137  7148 net.cpp:100] Creating Layer conv3_1
I0531 10:33:35.311139  7148 net.cpp:434] conv3_1 <- pool2
I0531 10:33:35.311144  7148 net.cpp:408] conv3_1 -> conv3_1
I0531 10:33:35.313676  7148 net.cpp:150] Setting up conv3_1
I0531 10:33:35.313690  7148 net.cpp:157] Top shape: 32 256 75 75 (46080000)
I0531 10:33:35.313694  7148 net.cpp:165] Memory required for data: 5160960032
I0531 10:33:35.313704  7148 layer_factory.hpp:77] Creating layer relu3_1
I0531 10:33:35.313711  7148 net.cpp:100] Creating Layer relu3_1
I0531 10:33:35.313714  7148 net.cpp:434] relu3_1 <- conv3_1
I0531 10:33:35.313720  7148 net.cpp:395] relu3_1 -> conv3_1 (in-place)
I0531 10:33:35.313727  7148 net.cpp:150] Setting up relu3_1
I0531 10:33:35.313731  7148 net.cpp:157] Top shape: 32 256 75 75 (46080000)
I0531 10:33:35.313733  7148 net.cpp:165] Memory required for data: 5345280032
I0531 10:33:35.313736  7148 layer_factory.hpp:77] Creating layer conv3_2
I0531 10:33:35.313742  7148 net.cpp:100] Creating Layer conv3_2
I0531 10:33:35.313745  7148 net.cpp:434] conv3_2 <- conv3_1
I0531 10:33:35.313750  7148 net.cpp:408] conv3_2 -> conv3_2
I0531 10:33:35.316875  7148 net.cpp:150] Setting up conv3_2
I0531 10:33:35.316886  7148 net.cpp:157] Top shape: 32 256 75 75 (46080000)
I0531 10:33:35.316890  7148 net.cpp:165] Memory required for data: 5529600032
I0531 10:33:35.316893  7148 layer_factory.hpp:77] Creating layer relu3_2
I0531 10:33:35.316900  7148 net.cpp:100] Creating Layer relu3_2
I0531 10:33:35.316903  7148 net.cpp:434] relu3_2 <- conv3_2
I0531 10:33:35.316906  7148 net.cpp:395] relu3_2 -> conv3_2 (in-place)
I0531 10:33:35.316911  7148 net.cpp:150] Setting up relu3_2
I0531 10:33:35.316915  7148 net.cpp:157] Top shape: 32 256 75 75 (46080000)
I0531 10:33:35.316916  7148 net.cpp:165] Memory required for data: 5713920032
I0531 10:33:35.316927  7148 layer_factory.hpp:77] Creating layer conv3_3
I0531 10:33:35.316937  7148 net.cpp:100] Creating Layer conv3_3
I0531 10:33:35.316941  7148 net.cpp:434] conv3_3 <- conv3_2
I0531 10:33:35.316946  7148 net.cpp:408] conv3_3 -> conv3_3
I0531 10:33:35.320125  7148 net.cpp:150] Setting up conv3_3
I0531 10:33:35.320145  7148 net.cpp:157] Top shape: 32 256 75 75 (46080000)
I0531 10:33:35.320148  7148 net.cpp:165] Memory required for data: 5898240032
I0531 10:33:35.320155  7148 layer_factory.hpp:77] Creating layer relu3_3
I0531 10:33:35.320161  7148 net.cpp:100] Creating Layer relu3_3
I0531 10:33:35.320164  7148 net.cpp:434] relu3_3 <- conv3_3
I0531 10:33:35.320169  7148 net.cpp:395] relu3_3 -> conv3_3 (in-place)
I0531 10:33:35.320175  7148 net.cpp:150] Setting up relu3_3
I0531 10:33:35.320179  7148 net.cpp:157] Top shape: 32 256 75 75 (46080000)
I0531 10:33:35.320181  7148 net.cpp:165] Memory required for data: 6082560032
I0531 10:33:35.320184  7148 layer_factory.hpp:77] Creating layer pool3
I0531 10:33:35.320189  7148 net.cpp:100] Creating Layer pool3
I0531 10:33:35.320192  7148 net.cpp:434] pool3 <- conv3_3
I0531 10:33:35.320196  7148 net.cpp:408] pool3 -> pool3
I0531 10:33:35.320227  7148 net.cpp:150] Setting up pool3
I0531 10:33:35.320231  7148 net.cpp:157] Top shape: 32 256 38 38 (11829248)
I0531 10:33:35.320233  7148 net.cpp:165] Memory required for data: 6129877024
I0531 10:33:35.320235  7148 layer_factory.hpp:77] Creating layer conv4_1
I0531 10:33:35.320243  7148 net.cpp:100] Creating Layer conv4_1
I0531 10:33:35.320247  7148 net.cpp:434] conv4_1 <- pool3
I0531 10:33:35.320255  7148 net.cpp:408] conv4_1 -> conv4_1
I0531 10:33:35.327214  7148 net.cpp:150] Setting up conv4_1
I0531 10:33:35.327232  7148 net.cpp:157] Top shape: 32 512 38 38 (23658496)
I0531 10:33:35.327234  7148 net.cpp:165] Memory required for data: 6224511008
I0531 10:33:35.327240  7148 layer_factory.hpp:77] Creating layer relu4_1
I0531 10:33:35.327262  7148 net.cpp:100] Creating Layer relu4_1
I0531 10:33:35.327266  7148 net.cpp:434] relu4_1 <- conv4_1
I0531 10:33:35.327270  7148 net.cpp:395] relu4_1 -> conv4_1 (in-place)
I0531 10:33:35.327276  7148 net.cpp:150] Setting up relu4_1
I0531 10:33:35.327280  7148 net.cpp:157] Top shape: 32 512 38 38 (23658496)
I0531 10:33:35.327282  7148 net.cpp:165] Memory required for data: 6319144992
I0531 10:33:35.327285  7148 layer_factory.hpp:77] Creating layer conv4_2
I0531 10:33:35.327292  7148 net.cpp:100] Creating Layer conv4_2
I0531 10:33:35.327294  7148 net.cpp:434] conv4_2 <- conv4_1
I0531 10:33:35.327299  7148 net.cpp:408] conv4_2 -> conv4_2
I0531 10:33:35.338963  7148 net.cpp:150] Setting up conv4_2
I0531 10:33:35.338982  7148 net.cpp:157] Top shape: 32 512 38 38 (23658496)
I0531 10:33:35.338984  7148 net.cpp:165] Memory required for data: 6413778976
I0531 10:33:35.338996  7148 layer_factory.hpp:77] Creating layer relu4_2
I0531 10:33:35.339004  7148 net.cpp:100] Creating Layer relu4_2
I0531 10:33:35.339007  7148 net.cpp:434] relu4_2 <- conv4_2
I0531 10:33:35.339011  7148 net.cpp:395] relu4_2 -> conv4_2 (in-place)
I0531 10:33:35.339020  7148 net.cpp:150] Setting up relu4_2
I0531 10:33:35.339025  7148 net.cpp:157] Top shape: 32 512 38 38 (23658496)
I0531 10:33:35.339026  7148 net.cpp:165] Memory required for data: 6508412960
I0531 10:33:35.339028  7148 layer_factory.hpp:77] Creating layer conv4_3
I0531 10:33:35.339035  7148 net.cpp:100] Creating Layer conv4_3
I0531 10:33:35.339038  7148 net.cpp:434] conv4_3 <- conv4_2
I0531 10:33:35.339061  7148 net.cpp:408] conv4_3 -> conv4_3
I0531 10:33:35.350955  7148 net.cpp:150] Setting up conv4_3
I0531 10:33:35.350975  7148 net.cpp:157] Top shape: 32 512 38 38 (23658496)
I0531 10:33:35.350976  7148 net.cpp:165] Memory required for data: 6603046944
I0531 10:33:35.350983  7148 layer_factory.hpp:77] Creating layer relu4_3
I0531 10:33:35.350991  7148 net.cpp:100] Creating Layer relu4_3
I0531 10:33:35.350996  7148 net.cpp:434] relu4_3 <- conv4_3
I0531 10:33:35.350999  7148 net.cpp:395] relu4_3 -> conv4_3 (in-place)
I0531 10:33:35.351019  7148 net.cpp:150] Setting up relu4_3
I0531 10:33:35.351023  7148 net.cpp:157] Top shape: 32 512 38 38 (23658496)
I0531 10:33:35.351027  7148 net.cpp:165] Memory required for data: 6697680928
I0531 10:33:35.351028  7148 layer_factory.hpp:77] Creating layer conv4_3_relu4_3_0_split
I0531 10:33:35.351032  7148 net.cpp:100] Creating Layer conv4_3_relu4_3_0_split
I0531 10:33:35.351035  7148 net.cpp:434] conv4_3_relu4_3_0_split <- conv4_3
I0531 10:33:35.351039  7148 net.cpp:408] conv4_3_relu4_3_0_split -> conv4_3_relu4_3_0_split_0
I0531 10:33:35.351043  7148 net.cpp:408] conv4_3_relu4_3_0_split -> conv4_3_relu4_3_0_split_1
I0531 10:33:35.351078  7148 net.cpp:150] Setting up conv4_3_relu4_3_0_split
I0531 10:33:35.351083  7148 net.cpp:157] Top shape: 32 512 38 38 (23658496)
I0531 10:33:35.351085  7148 net.cpp:157] Top shape: 32 512 38 38 (23658496)
I0531 10:33:35.351088  7148 net.cpp:165] Memory required for data: 6886948896
I0531 10:33:35.351089  7148 layer_factory.hpp:77] Creating layer pool4
I0531 10:33:35.351094  7148 net.cpp:100] Creating Layer pool4
I0531 10:33:35.351096  7148 net.cpp:434] pool4 <- conv4_3_relu4_3_0_split_0
I0531 10:33:35.351101  7148 net.cpp:408] pool4 -> pool4
I0531 10:33:35.351125  7148 net.cpp:150] Setting up pool4
I0531 10:33:35.351130  7148 net.cpp:157] Top shape: 32 512 19 19 (5914624)
I0531 10:33:35.351131  7148 net.cpp:165] Memory required for data: 6910607392
I0531 10:33:35.351133  7148 layer_factory.hpp:77] Creating layer conv5_1
I0531 10:33:35.351142  7148 net.cpp:100] Creating Layer conv5_1
I0531 10:33:35.351145  7148 net.cpp:434] conv5_1 <- pool4
I0531 10:33:35.351150  7148 net.cpp:408] conv5_1 -> conv5_1
I0531 10:33:35.363106  7148 net.cpp:150] Setting up conv5_1
I0531 10:33:35.363122  7148 net.cpp:157] Top shape: 32 512 19 19 (5914624)
I0531 10:33:35.363124  7148 net.cpp:165] Memory required for data: 6934265888
I0531 10:33:35.363145  7148 layer_factory.hpp:77] Creating layer relu5_1
I0531 10:33:35.363152  7148 net.cpp:100] Creating Layer relu5_1
I0531 10:33:35.363155  7148 net.cpp:434] relu5_1 <- conv5_1
I0531 10:33:35.363159  7148 net.cpp:395] relu5_1 -> conv5_1 (in-place)
I0531 10:33:35.363167  7148 net.cpp:150] Setting up relu5_1
I0531 10:33:35.363170  7148 net.cpp:157] Top shape: 32 512 19 19 (5914624)
I0531 10:33:35.363185  7148 net.cpp:165] Memory required for data: 6957924384
I0531 10:33:35.363188  7148 layer_factory.hpp:77] Creating layer conv5_2
I0531 10:33:35.363196  7148 net.cpp:100] Creating Layer conv5_2
I0531 10:33:35.363198  7148 net.cpp:434] conv5_2 <- conv5_1
I0531 10:33:35.363203  7148 net.cpp:408] conv5_2 -> conv5_2
I0531 10:33:35.374716  7148 net.cpp:150] Setting up conv5_2
I0531 10:33:35.374735  7148 net.cpp:157] Top shape: 32 512 19 19 (5914624)
I0531 10:33:35.374737  7148 net.cpp:165] Memory required for data: 6981582880
I0531 10:33:35.374743  7148 layer_factory.hpp:77] Creating layer relu5_2
I0531 10:33:35.374765  7148 net.cpp:100] Creating Layer relu5_2
I0531 10:33:35.374783  7148 net.cpp:434] relu5_2 <- conv5_2
I0531 10:33:35.374788  7148 net.cpp:395] relu5_2 -> conv5_2 (in-place)
I0531 10:33:35.374794  7148 net.cpp:150] Setting up relu5_2
I0531 10:33:35.374797  7148 net.cpp:157] Top shape: 32 512 19 19 (5914624)
I0531 10:33:35.374800  7148 net.cpp:165] Memory required for data: 7005241376
I0531 10:33:35.374801  7148 layer_factory.hpp:77] Creating layer conv5_3
I0531 10:33:35.374809  7148 net.cpp:100] Creating Layer conv5_3
I0531 10:33:35.374811  7148 net.cpp:434] conv5_3 <- conv5_2
I0531 10:33:35.374816  7148 net.cpp:408] conv5_3 -> conv5_3
I0531 10:33:35.386451  7148 net.cpp:150] Setting up conv5_3
I0531 10:33:35.386467  7148 net.cpp:157] Top shape: 32 512 19 19 (5914624)
I0531 10:33:35.386469  7148 net.cpp:165] Memory required for data: 7028899872
I0531 10:33:35.386477  7148 layer_factory.hpp:77] Creating layer relu5_3
I0531 10:33:35.386489  7148 net.cpp:100] Creating Layer relu5_3
I0531 10:33:35.386493  7148 net.cpp:434] relu5_3 <- conv5_3
I0531 10:33:35.386497  7148 net.cpp:395] relu5_3 -> conv5_3 (in-place)
I0531 10:33:35.386505  7148 net.cpp:150] Setting up relu5_3
I0531 10:33:35.386521  7148 net.cpp:157] Top shape: 32 512 19 19 (5914624)
I0531 10:33:35.386524  7148 net.cpp:165] Memory required for data: 7052558368
I0531 10:33:35.386526  7148 layer_factory.hpp:77] Creating layer pool5
I0531 10:33:35.386531  7148 net.cpp:100] Creating Layer pool5
I0531 10:33:35.386533  7148 net.cpp:434] pool5 <- conv5_3
I0531 10:33:35.386538  7148 net.cpp:408] pool5 -> pool5
I0531 10:33:35.386572  7148 net.cpp:150] Setting up pool5
I0531 10:33:35.386577  7148 net.cpp:157] Top shape: 32 512 19 19 (5914624)
I0531 10:33:35.386580  7148 net.cpp:165] Memory required for data: 7076216864
I0531 10:33:35.386582  7148 layer_factory.hpp:77] Creating layer fc6
I0531 10:33:35.386589  7148 net.cpp:100] Creating Layer fc6
I0531 10:33:35.386592  7148 net.cpp:434] fc6 <- pool5
I0531 10:33:35.386597  7148 net.cpp:408] fc6 -> fc6
I0531 10:33:35.409711  7148 net.cpp:150] Setting up fc6
I0531 10:33:35.409729  7148 net.cpp:157] Top shape: 32 1024 19 19 (11829248)
I0531 10:33:35.409730  7148 net.cpp:165] Memory required for data: 7123533856
I0531 10:33:35.409752  7148 layer_factory.hpp:77] Creating layer relu6
I0531 10:33:35.409759  7148 net.cpp:100] Creating Layer relu6
I0531 10:33:35.409764  7148 net.cpp:434] relu6 <- fc6
I0531 10:33:35.409766  7148 net.cpp:395] relu6 -> fc6 (in-place)
I0531 10:33:35.409773  7148 net.cpp:150] Setting up relu6
I0531 10:33:35.409776  7148 net.cpp:157] Top shape: 32 1024 19 19 (11829248)
I0531 10:33:35.409778  7148 net.cpp:165] Memory required for data: 7170850848
I0531 10:33:35.409780  7148 layer_factory.hpp:77] Creating layer fc7
I0531 10:33:35.409790  7148 net.cpp:100] Creating Layer fc7
I0531 10:33:35.409806  7148 net.cpp:434] fc7 <- fc6
I0531 10:33:35.409809  7148 net.cpp:408] fc7 -> fc7
I0531 10:33:35.415180  7148 net.cpp:150] Setting up fc7
I0531 10:33:35.415197  7148 net.cpp:157] Top shape: 32 1024 19 19 (11829248)
I0531 10:33:35.415199  7148 net.cpp:165] Memory required for data: 7218167840
I0531 10:33:35.415205  7148 layer_factory.hpp:77] Creating layer relu7
I0531 10:33:35.415212  7148 net.cpp:100] Creating Layer relu7
I0531 10:33:35.415216  7148 net.cpp:434] relu7 <- fc7
I0531 10:33:35.415220  7148 net.cpp:395] relu7 -> fc7 (in-place)
I0531 10:33:35.415226  7148 net.cpp:150] Setting up relu7
I0531 10:33:35.415230  7148 net.cpp:157] Top shape: 32 1024 19 19 (11829248)
I0531 10:33:35.415233  7148 net.cpp:165] Memory required for data: 7265484832
I0531 10:33:35.415235  7148 layer_factory.hpp:77] Creating layer fc7_relu7_0_split
I0531 10:33:35.415238  7148 net.cpp:100] Creating Layer fc7_relu7_0_split
I0531 10:33:35.415241  7148 net.cpp:434] fc7_relu7_0_split <- fc7
I0531 10:33:35.415246  7148 net.cpp:408] fc7_relu7_0_split -> fc7_relu7_0_split_0
I0531 10:33:35.415251  7148 net.cpp:408] fc7_relu7_0_split -> fc7_relu7_0_split_1
I0531 10:33:35.415261  7148 net.cpp:408] fc7_relu7_0_split -> fc7_relu7_0_split_2
I0531 10:33:35.415266  7148 net.cpp:408] fc7_relu7_0_split -> fc7_relu7_0_split_3
I0531 10:33:35.415311  7148 net.cpp:150] Setting up fc7_relu7_0_split
I0531 10:33:35.415316  7148 net.cpp:157] Top shape: 32 1024 19 19 (11829248)
I0531 10:33:35.415319  7148 net.cpp:157] Top shape: 32 1024 19 19 (11829248)
I0531 10:33:35.415323  7148 net.cpp:157] Top shape: 32 1024 19 19 (11829248)
I0531 10:33:35.415325  7148 net.cpp:157] Top shape: 32 1024 19 19 (11829248)
I0531 10:33:35.415326  7148 net.cpp:165] Memory required for data: 7454752800
I0531 10:33:35.415328  7148 layer_factory.hpp:77] Creating layer conv6_1
I0531 10:33:35.415335  7148 net.cpp:100] Creating Layer conv6_1
I0531 10:33:35.415339  7148 net.cpp:434] conv6_1 <- fc7_relu7_0_split_0
I0531 10:33:35.415344  7148 net.cpp:408] conv6_1 -> conv6_1
I0531 10:33:35.417194  7148 net.cpp:150] Setting up conv6_1
I0531 10:33:35.417206  7148 net.cpp:157] Top shape: 32 256 19 19 (2957312)
I0531 10:33:35.417208  7148 net.cpp:165] Memory required for data: 7466582048
I0531 10:33:35.417212  7148 layer_factory.hpp:77] Creating layer conv6_1_relu
I0531 10:33:35.417217  7148 net.cpp:100] Creating Layer conv6_1_relu
I0531 10:33:35.417232  7148 net.cpp:434] conv6_1_relu <- conv6_1
I0531 10:33:35.417237  7148 net.cpp:395] conv6_1_relu -> conv6_1 (in-place)
I0531 10:33:35.417243  7148 net.cpp:150] Setting up conv6_1_relu
I0531 10:33:35.417246  7148 net.cpp:157] Top shape: 32 256 19 19 (2957312)
I0531 10:33:35.417248  7148 net.cpp:165] Memory required for data: 7478411296
I0531 10:33:35.417251  7148 layer_factory.hpp:77] Creating layer conv6_2
I0531 10:33:35.417258  7148 net.cpp:100] Creating Layer conv6_2
I0531 10:33:35.417260  7148 net.cpp:434] conv6_2 <- conv6_1
I0531 10:33:35.417264  7148 net.cpp:408] conv6_2 -> conv6_2
I0531 10:33:35.423230  7148 net.cpp:150] Setting up conv6_2
I0531 10:33:35.423249  7148 net.cpp:157] Top shape: 32 512 10 10 (1638400)
I0531 10:33:35.423251  7148 net.cpp:165] Memory required for data: 7484964896
I0531 10:33:35.423264  7148 layer_factory.hpp:77] Creating layer conv6_2_relu
I0531 10:33:35.423271  7148 net.cpp:100] Creating Layer conv6_2_relu
I0531 10:33:35.423274  7148 net.cpp:434] conv6_2_relu <- conv6_2
I0531 10:33:35.423280  7148 net.cpp:395] conv6_2_relu -> conv6_2 (in-place)
I0531 10:33:35.423287  7148 net.cpp:150] Setting up conv6_2_relu
I0531 10:33:35.423290  7148 net.cpp:157] Top shape: 32 512 10 10 (1638400)
I0531 10:33:35.423292  7148 net.cpp:165] Memory required for data: 7491518496
I0531 10:33:35.423295  7148 layer_factory.hpp:77] Creating layer conv6_2_conv6_2_relu_0_split
I0531 10:33:35.423298  7148 net.cpp:100] Creating Layer conv6_2_conv6_2_relu_0_split
I0531 10:33:35.423300  7148 net.cpp:434] conv6_2_conv6_2_relu_0_split <- conv6_2
I0531 10:33:35.423305  7148 net.cpp:408] conv6_2_conv6_2_relu_0_split -> conv6_2_conv6_2_relu_0_split_0
I0531 10:33:35.423310  7148 net.cpp:408] conv6_2_conv6_2_relu_0_split -> conv6_2_conv6_2_relu_0_split_1
I0531 10:33:35.423316  7148 net.cpp:408] conv6_2_conv6_2_relu_0_split -> conv6_2_conv6_2_relu_0_split_2
I0531 10:33:35.423319  7148 net.cpp:408] conv6_2_conv6_2_relu_0_split -> conv6_2_conv6_2_relu_0_split_3
I0531 10:33:35.423367  7148 net.cpp:150] Setting up conv6_2_conv6_2_relu_0_split
I0531 10:33:35.423372  7148 net.cpp:157] Top shape: 32 512 10 10 (1638400)
I0531 10:33:35.423373  7148 net.cpp:157] Top shape: 32 512 10 10 (1638400)
I0531 10:33:35.423377  7148 net.cpp:157] Top shape: 32 512 10 10 (1638400)
I0531 10:33:35.423379  7148 net.cpp:157] Top shape: 32 512 10 10 (1638400)
I0531 10:33:35.423380  7148 net.cpp:165] Memory required for data: 7517732896
I0531 10:33:35.423382  7148 layer_factory.hpp:77] Creating layer conv7_1
I0531 10:33:35.423393  7148 net.cpp:100] Creating Layer conv7_1
I0531 10:33:35.423395  7148 net.cpp:434] conv7_1 <- conv6_2_conv6_2_relu_0_split_0
I0531 10:33:35.423400  7148 net.cpp:408] conv7_1 -> conv7_1
I0531 10:33:35.423874  7148 net.cpp:150] Setting up conv7_1
I0531 10:33:35.423883  7148 net.cpp:157] Top shape: 32 128 10 10 (409600)
I0531 10:33:35.423885  7148 net.cpp:165] Memory required for data: 7519371296
I0531 10:33:35.423889  7148 layer_factory.hpp:77] Creating layer conv7_1_relu
I0531 10:33:35.423893  7148 net.cpp:100] Creating Layer conv7_1_relu
I0531 10:33:35.423897  7148 net.cpp:434] conv7_1_relu <- conv7_1
I0531 10:33:35.423900  7148 net.cpp:395] conv7_1_relu -> conv7_1 (in-place)
I0531 10:33:35.423904  7148 net.cpp:150] Setting up conv7_1_relu
I0531 10:33:35.423908  7148 net.cpp:157] Top shape: 32 128 10 10 (409600)
I0531 10:33:35.423912  7148 net.cpp:165] Memory required for data: 7521009696
I0531 10:33:35.423913  7148 layer_factory.hpp:77] Creating layer conv7_2
I0531 10:33:35.423919  7148 net.cpp:100] Creating Layer conv7_2
I0531 10:33:35.423923  7148 net.cpp:434] conv7_2 <- conv7_1
I0531 10:33:35.423926  7148 net.cpp:408] conv7_2 -> conv7_2
I0531 10:33:35.425920  7148 net.cpp:150] Setting up conv7_2
I0531 10:33:35.425931  7148 net.cpp:157] Top shape: 32 256 5 5 (204800)
I0531 10:33:35.425933  7148 net.cpp:165] Memory required for data: 7521828896
I0531 10:33:35.425938  7148 layer_factory.hpp:77] Creating layer conv7_2_relu
I0531 10:33:35.425943  7148 net.cpp:100] Creating Layer conv7_2_relu
I0531 10:33:35.425946  7148 net.cpp:434] conv7_2_relu <- conv7_2
I0531 10:33:35.425961  7148 net.cpp:395] conv7_2_relu -> conv7_2 (in-place)
I0531 10:33:35.425966  7148 net.cpp:150] Setting up conv7_2_relu
I0531 10:33:35.425969  7148 net.cpp:157] Top shape: 32 256 5 5 (204800)
I0531 10:33:35.425971  7148 net.cpp:165] Memory required for data: 7522648096
I0531 10:33:35.425973  7148 layer_factory.hpp:77] Creating layer conv7_2_conv7_2_relu_0_split
I0531 10:33:35.425977  7148 net.cpp:100] Creating Layer conv7_2_conv7_2_relu_0_split
I0531 10:33:35.425979  7148 net.cpp:434] conv7_2_conv7_2_relu_0_split <- conv7_2
I0531 10:33:35.425984  7148 net.cpp:408] conv7_2_conv7_2_relu_0_split -> conv7_2_conv7_2_relu_0_split_0
I0531 10:33:35.425988  7148 net.cpp:408] conv7_2_conv7_2_relu_0_split -> conv7_2_conv7_2_relu_0_split_1
I0531 10:33:35.425995  7148 net.cpp:408] conv7_2_conv7_2_relu_0_split -> conv7_2_conv7_2_relu_0_split_2
I0531 10:33:35.425999  7148 net.cpp:408] conv7_2_conv7_2_relu_0_split -> conv7_2_conv7_2_relu_0_split_3
I0531 10:33:35.426110  7148 net.cpp:150] Setting up conv7_2_conv7_2_relu_0_split
I0531 10:33:35.426116  7148 net.cpp:157] Top shape: 32 256 5 5 (204800)
I0531 10:33:35.426120  7148 net.cpp:157] Top shape: 32 256 5 5 (204800)
I0531 10:33:35.426122  7148 net.cpp:157] Top shape: 32 256 5 5 (204800)
I0531 10:33:35.426125  7148 net.cpp:157] Top shape: 32 256 5 5 (204800)
I0531 10:33:35.426126  7148 net.cpp:165] Memory required for data: 7525924896
I0531 10:33:35.426129  7148 layer_factory.hpp:77] Creating layer conv8_1
I0531 10:33:35.426136  7148 net.cpp:100] Creating Layer conv8_1
I0531 10:33:35.426141  7148 net.cpp:434] conv8_1 <- conv7_2_conv7_2_relu_0_split_0
I0531 10:33:35.426146  7148 net.cpp:408] conv8_1 -> conv8_1
I0531 10:33:35.426431  7148 net.cpp:150] Setting up conv8_1
I0531 10:33:35.426437  7148 net.cpp:157] Top shape: 32 128 5 5 (102400)
I0531 10:33:35.426440  7148 net.cpp:165] Memory required for data: 7526334496
I0531 10:33:35.426443  7148 layer_factory.hpp:77] Creating layer conv8_1_relu
I0531 10:33:35.426447  7148 net.cpp:100] Creating Layer conv8_1_relu
I0531 10:33:35.426450  7148 net.cpp:434] conv8_1_relu <- conv8_1
I0531 10:33:35.426452  7148 net.cpp:395] conv8_1_relu -> conv8_1 (in-place)
I0531 10:33:35.426456  7148 net.cpp:150] Setting up conv8_1_relu
I0531 10:33:35.426460  7148 net.cpp:157] Top shape: 32 128 5 5 (102400)
I0531 10:33:35.426461  7148 net.cpp:165] Memory required for data: 7526744096
I0531 10:33:35.426463  7148 layer_factory.hpp:77] Creating layer conv8_2
I0531 10:33:35.426468  7148 net.cpp:100] Creating Layer conv8_2
I0531 10:33:35.426471  7148 net.cpp:434] conv8_2 <- conv8_1
I0531 10:33:35.426476  7148 net.cpp:408] conv8_2 -> conv8_2
I0531 10:33:35.428488  7148 net.cpp:150] Setting up conv8_2
I0531 10:33:35.428499  7148 net.cpp:157] Top shape: 32 256 3 3 (73728)
I0531 10:33:35.428503  7148 net.cpp:165] Memory required for data: 7527039008
I0531 10:33:35.428508  7148 layer_factory.hpp:77] Creating layer conv8_2_relu
I0531 10:33:35.428513  7148 net.cpp:100] Creating Layer conv8_2_relu
I0531 10:33:35.428514  7148 net.cpp:434] conv8_2_relu <- conv8_2
I0531 10:33:35.428519  7148 net.cpp:395] conv8_2_relu -> conv8_2 (in-place)
I0531 10:33:35.428524  7148 net.cpp:150] Setting up conv8_2_relu
I0531 10:33:35.428527  7148 net.cpp:157] Top shape: 32 256 3 3 (73728)
I0531 10:33:35.428529  7148 net.cpp:165] Memory required for data: 7527333920
I0531 10:33:35.428532  7148 layer_factory.hpp:77] Creating layer conv8_2_conv8_2_relu_0_split
I0531 10:33:35.428535  7148 net.cpp:100] Creating Layer conv8_2_conv8_2_relu_0_split
I0531 10:33:35.428537  7148 net.cpp:434] conv8_2_conv8_2_relu_0_split <- conv8_2
I0531 10:33:35.428544  7148 net.cpp:408] conv8_2_conv8_2_relu_0_split -> conv8_2_conv8_2_relu_0_split_0
I0531 10:33:35.428550  7148 net.cpp:408] conv8_2_conv8_2_relu_0_split -> conv8_2_conv8_2_relu_0_split_1
I0531 10:33:35.428555  7148 net.cpp:408] conv8_2_conv8_2_relu_0_split -> conv8_2_conv8_2_relu_0_split_2
I0531 10:33:35.428558  7148 net.cpp:408] conv8_2_conv8_2_relu_0_split -> conv8_2_conv8_2_relu_0_split_3
I0531 10:33:35.428611  7148 net.cpp:150] Setting up conv8_2_conv8_2_relu_0_split
I0531 10:33:35.428617  7148 net.cpp:157] Top shape: 32 256 3 3 (73728)
I0531 10:33:35.428619  7148 net.cpp:157] Top shape: 32 256 3 3 (73728)
I0531 10:33:35.428622  7148 net.cpp:157] Top shape: 32 256 3 3 (73728)
I0531 10:33:35.428624  7148 net.cpp:157] Top shape: 32 256 3 3 (73728)
I0531 10:33:35.428627  7148 net.cpp:165] Memory required for data: 7528513568
I0531 10:33:35.428628  7148 layer_factory.hpp:77] Creating layer conv9_1
I0531 10:33:35.428635  7148 net.cpp:100] Creating Layer conv9_1
I0531 10:33:35.428637  7148 net.cpp:434] conv9_1 <- conv8_2_conv8_2_relu_0_split_0
I0531 10:33:35.428647  7148 net.cpp:408] conv9_1 -> conv9_1
I0531 10:33:35.428938  7148 net.cpp:150] Setting up conv9_1
I0531 10:33:35.428944  7148 net.cpp:157] Top shape: 32 128 3 3 (36864)
I0531 10:33:35.428946  7148 net.cpp:165] Memory required for data: 7528661024
I0531 10:33:35.428951  7148 layer_factory.hpp:77] Creating layer conv9_1_relu
I0531 10:33:35.428954  7148 net.cpp:100] Creating Layer conv9_1_relu
I0531 10:33:35.428956  7148 net.cpp:434] conv9_1_relu <- conv9_1
I0531 10:33:35.428959  7148 net.cpp:395] conv9_1_relu -> conv9_1 (in-place)
I0531 10:33:35.428963  7148 net.cpp:150] Setting up conv9_1_relu
I0531 10:33:35.428966  7148 net.cpp:157] Top shape: 32 128 3 3 (36864)
I0531 10:33:35.428968  7148 net.cpp:165] Memory required for data: 7528808480
I0531 10:33:35.428970  7148 layer_factory.hpp:77] Creating layer conv9_2
I0531 10:33:35.428975  7148 net.cpp:100] Creating Layer conv9_2
I0531 10:33:35.428978  7148 net.cpp:434] conv9_2 <- conv9_1
I0531 10:33:35.428983  7148 net.cpp:408] conv9_2 -> conv9_2
I0531 10:33:35.430968  7148 net.cpp:150] Setting up conv9_2
I0531 10:33:35.430979  7148 net.cpp:157] Top shape: 32 256 1 1 (8192)
I0531 10:33:35.430981  7148 net.cpp:165] Memory required for data: 7528841248
I0531 10:33:35.430985  7148 layer_factory.hpp:77] Creating layer conv9_2_relu
I0531 10:33:35.430990  7148 net.cpp:100] Creating Layer conv9_2_relu
I0531 10:33:35.430994  7148 net.cpp:434] conv9_2_relu <- conv9_2
I0531 10:33:35.430997  7148 net.cpp:395] conv9_2_relu -> conv9_2 (in-place)
I0531 10:33:35.431001  7148 net.cpp:150] Setting up conv9_2_relu
I0531 10:33:35.431005  7148 net.cpp:157] Top shape: 32 256 1 1 (8192)
I0531 10:33:35.431006  7148 net.cpp:165] Memory required for data: 7528874016
I0531 10:33:35.431010  7148 layer_factory.hpp:77] Creating layer conv9_2_conv9_2_relu_0_split
I0531 10:33:35.431015  7148 net.cpp:100] Creating Layer conv9_2_conv9_2_relu_0_split
I0531 10:33:35.431016  7148 net.cpp:434] conv9_2_conv9_2_relu_0_split <- conv9_2
I0531 10:33:35.431020  7148 net.cpp:408] conv9_2_conv9_2_relu_0_split -> conv9_2_conv9_2_relu_0_split_0
I0531 10:33:35.431038  7148 net.cpp:408] conv9_2_conv9_2_relu_0_split -> conv9_2_conv9_2_relu_0_split_1
I0531 10:33:35.431043  7148 net.cpp:408] conv9_2_conv9_2_relu_0_split -> conv9_2_conv9_2_relu_0_split_2
I0531 10:33:35.431077  7148 net.cpp:150] Setting up conv9_2_conv9_2_relu_0_split
I0531 10:33:35.431082  7148 net.cpp:157] Top shape: 32 256 1 1 (8192)
I0531 10:33:35.431085  7148 net.cpp:157] Top shape: 32 256 1 1 (8192)
I0531 10:33:35.431087  7148 net.cpp:157] Top shape: 32 256 1 1 (8192)
I0531 10:33:35.431089  7148 net.cpp:165] Memory required for data: 7528972320
I0531 10:33:35.431092  7148 layer_factory.hpp:77] Creating layer conv4_3_norm
I0531 10:33:35.431097  7148 net.cpp:100] Creating Layer conv4_3_norm
I0531 10:33:35.431100  7148 net.cpp:434] conv4_3_norm <- conv4_3_relu4_3_0_split_1
I0531 10:33:35.431104  7148 net.cpp:408] conv4_3_norm -> conv4_3_norm
I0531 10:33:35.431205  7148 net.cpp:150] Setting up conv4_3_norm
I0531 10:33:35.431210  7148 net.cpp:157] Top shape: 32 512 38 38 (23658496)
I0531 10:33:35.431213  7148 net.cpp:165] Memory required for data: 7623606304
I0531 10:33:35.431216  7148 layer_factory.hpp:77] Creating layer conv4_3_norm_conv4_3_norm_0_split
I0531 10:33:35.431221  7148 net.cpp:100] Creating Layer conv4_3_norm_conv4_3_norm_0_split
I0531 10:33:35.431223  7148 net.cpp:434] conv4_3_norm_conv4_3_norm_0_split <- conv4_3_norm
I0531 10:33:35.431236  7148 net.cpp:408] conv4_3_norm_conv4_3_norm_0_split -> conv4_3_norm_conv4_3_norm_0_split_0
I0531 10:33:35.431241  7148 net.cpp:408] conv4_3_norm_conv4_3_norm_0_split -> conv4_3_norm_conv4_3_norm_0_split_1
I0531 10:33:35.431246  7148 net.cpp:408] conv4_3_norm_conv4_3_norm_0_split -> conv4_3_norm_conv4_3_norm_0_split_2
I0531 10:33:35.431274  7148 net.cpp:150] Setting up conv4_3_norm_conv4_3_norm_0_split
I0531 10:33:35.431279  7148 net.cpp:157] Top shape: 32 512 38 38 (23658496)
I0531 10:33:35.431282  7148 net.cpp:157] Top shape: 32 512 38 38 (23658496)
I0531 10:33:35.431284  7148 net.cpp:157] Top shape: 32 512 38 38 (23658496)
I0531 10:33:35.431287  7148 net.cpp:165] Memory required for data: 7907508256
I0531 10:33:35.431289  7148 layer_factory.hpp:77] Creating layer conv4_3_norm_mbox_loc
I0531 10:33:35.431295  7148 net.cpp:100] Creating Layer conv4_3_norm_mbox_loc
I0531 10:33:35.431298  7148 net.cpp:434] conv4_3_norm_mbox_loc <- conv4_3_norm_conv4_3_norm_0_split_0
I0531 10:33:35.431303  7148 net.cpp:408] conv4_3_norm_mbox_loc -> conv4_3_norm_mbox_loc
I0531 10:33:35.431756  7148 net.cpp:150] Setting up conv4_3_norm_mbox_loc
I0531 10:33:35.431762  7148 net.cpp:157] Top shape: 32 16 38 38 (739328)
I0531 10:33:35.431766  7148 net.cpp:165] Memory required for data: 7910465568
I0531 10:33:35.431771  7148 layer_factory.hpp:77] Creating layer conv4_3_norm_mbox_loc_perm
I0531 10:33:35.431780  7148 net.cpp:100] Creating Layer conv4_3_norm_mbox_loc_perm
I0531 10:33:35.431792  7148 net.cpp:434] conv4_3_norm_mbox_loc_perm <- conv4_3_norm_mbox_loc
I0531 10:33:35.431798  7148 net.cpp:408] conv4_3_norm_mbox_loc_perm -> conv4_3_norm_mbox_loc_perm
I0531 10:33:35.431870  7148 net.cpp:150] Setting up conv4_3_norm_mbox_loc_perm
I0531 10:33:35.431877  7148 net.cpp:157] Top shape: 32 38 38 16 (739328)
I0531 10:33:35.431880  7148 net.cpp:165] Memory required for data: 7913422880
I0531 10:33:35.431885  7148 layer_factory.hpp:77] Creating layer conv4_3_norm_mbox_loc_flat
I0531 10:33:35.431890  7148 net.cpp:100] Creating Layer conv4_3_norm_mbox_loc_flat
I0531 10:33:35.431898  7148 net.cpp:434] conv4_3_norm_mbox_loc_flat <- conv4_3_norm_mbox_loc_perm
I0531 10:33:35.431905  7148 net.cpp:408] conv4_3_norm_mbox_loc_flat -> conv4_3_norm_mbox_loc_flat
I0531 10:33:35.431937  7148 net.cpp:150] Setting up conv4_3_norm_mbox_loc_flat
I0531 10:33:35.431944  7148 net.cpp:157] Top shape: 32 23104 (739328)
I0531 10:33:35.431948  7148 net.cpp:165] Memory required for data: 7916380192
I0531 10:33:35.431952  7148 layer_factory.hpp:77] Creating layer conv4_3_norm_mbox_conf
I0531 10:33:35.431967  7148 net.cpp:100] Creating Layer conv4_3_norm_mbox_conf
I0531 10:33:35.431972  7148 net.cpp:434] conv4_3_norm_mbox_conf <- conv4_3_norm_conv4_3_norm_0_split_1
I0531 10:33:35.431978  7148 net.cpp:408] conv4_3_norm_mbox_conf -> conv4_3_norm_mbox_conf
I0531 10:33:35.432428  7148 net.cpp:150] Setting up conv4_3_norm_mbox_conf
I0531 10:33:35.432436  7148 net.cpp:157] Top shape: 32 16 38 38 (739328)
I0531 10:33:35.432440  7148 net.cpp:165] Memory required for data: 7919337504
I0531 10:33:35.432446  7148 layer_factory.hpp:77] Creating layer conv4_3_norm_mbox_conf_perm
I0531 10:33:35.432452  7148 net.cpp:100] Creating Layer conv4_3_norm_mbox_conf_perm
I0531 10:33:35.432456  7148 net.cpp:434] conv4_3_norm_mbox_conf_perm <- conv4_3_norm_mbox_conf
I0531 10:33:35.432463  7148 net.cpp:408] conv4_3_norm_mbox_conf_perm -> conv4_3_norm_mbox_conf_perm
I0531 10:33:35.432531  7148 net.cpp:150] Setting up conv4_3_norm_mbox_conf_perm
I0531 10:33:35.432538  7148 net.cpp:157] Top shape: 32 38 38 16 (739328)
I0531 10:33:35.432540  7148 net.cpp:165] Memory required for data: 7922294816
I0531 10:33:35.432544  7148 layer_factory.hpp:77] Creating layer conv4_3_norm_mbox_conf_flat
I0531 10:33:35.432551  7148 net.cpp:100] Creating Layer conv4_3_norm_mbox_conf_flat
I0531 10:33:35.432555  7148 net.cpp:434] conv4_3_norm_mbox_conf_flat <- conv4_3_norm_mbox_conf_perm
I0531 10:33:35.432562  7148 net.cpp:408] conv4_3_norm_mbox_conf_flat -> conv4_3_norm_mbox_conf_flat
I0531 10:33:35.432587  7148 net.cpp:150] Setting up conv4_3_norm_mbox_conf_flat
I0531 10:33:35.432595  7148 net.cpp:157] Top shape: 32 23104 (739328)
I0531 10:33:35.432597  7148 net.cpp:165] Memory required for data: 7925252128
I0531 10:33:35.432601  7148 layer_factory.hpp:77] Creating layer conv4_3_norm_mbox_priorbox
I0531 10:33:35.432610  7148 net.cpp:100] Creating Layer conv4_3_norm_mbox_priorbox
I0531 10:33:35.432613  7148 net.cpp:434] conv4_3_norm_mbox_priorbox <- conv4_3_norm_conv4_3_norm_0_split_2
I0531 10:33:35.432618  7148 net.cpp:434] conv4_3_norm_mbox_priorbox <- data_data_0_split_1
I0531 10:33:35.432627  7148 net.cpp:408] conv4_3_norm_mbox_priorbox -> conv4_3_norm_mbox_priorbox
I0531 10:33:35.432649  7148 net.cpp:150] Setting up conv4_3_norm_mbox_priorbox
I0531 10:33:35.432656  7148 net.cpp:157] Top shape: 1 2 23104 (46208)
I0531 10:33:35.432659  7148 net.cpp:165] Memory required for data: 7925436960
I0531 10:33:35.432662  7148 layer_factory.hpp:77] Creating layer fc7_mbox_loc
I0531 10:33:35.432673  7148 net.cpp:100] Creating Layer fc7_mbox_loc
I0531 10:33:35.432678  7148 net.cpp:434] fc7_mbox_loc <- fc7_relu7_0_split_1
I0531 10:33:35.432684  7148 net.cpp:408] fc7_mbox_loc -> fc7_mbox_loc
I0531 10:33:35.433728  7148 net.cpp:150] Setting up fc7_mbox_loc
I0531 10:33:35.433737  7148 net.cpp:157] Top shape: 32 24 19 19 (277248)
I0531 10:33:35.433742  7148 net.cpp:165] Memory required for data: 7926545952
I0531 10:33:35.433748  7148 layer_factory.hpp:77] Creating layer fc7_mbox_loc_perm
I0531 10:33:35.433753  7148 net.cpp:100] Creating Layer fc7_mbox_loc_perm
I0531 10:33:35.433758  7148 net.cpp:434] fc7_mbox_loc_perm <- fc7_mbox_loc
I0531 10:33:35.433766  7148 net.cpp:408] fc7_mbox_loc_perm -> fc7_mbox_loc_perm
I0531 10:33:35.433833  7148 net.cpp:150] Setting up fc7_mbox_loc_perm
I0531 10:33:35.433840  7148 net.cpp:157] Top shape: 32 19 19 24 (277248)
I0531 10:33:35.433843  7148 net.cpp:165] Memory required for data: 7927654944
I0531 10:33:35.433847  7148 layer_factory.hpp:77] Creating layer fc7_mbox_loc_flat
I0531 10:33:35.433852  7148 net.cpp:100] Creating Layer fc7_mbox_loc_flat
I0531 10:33:35.433856  7148 net.cpp:434] fc7_mbox_loc_flat <- fc7_mbox_loc_perm
I0531 10:33:35.433863  7148 net.cpp:408] fc7_mbox_loc_flat -> fc7_mbox_loc_flat
I0531 10:33:35.433883  7148 net.cpp:150] Setting up fc7_mbox_loc_flat
I0531 10:33:35.433890  7148 net.cpp:157] Top shape: 32 8664 (277248)
I0531 10:33:35.433893  7148 net.cpp:165] Memory required for data: 7928763936
I0531 10:33:35.433897  7148 layer_factory.hpp:77] Creating layer fc7_mbox_conf
I0531 10:33:35.433909  7148 net.cpp:100] Creating Layer fc7_mbox_conf
I0531 10:33:35.433913  7148 net.cpp:434] fc7_mbox_conf <- fc7_relu7_0_split_2
I0531 10:33:35.433919  7148 net.cpp:408] fc7_mbox_conf -> fc7_mbox_conf
I0531 10:33:35.434978  7148 net.cpp:150] Setting up fc7_mbox_conf
I0531 10:33:35.434985  7148 net.cpp:157] Top shape: 32 24 19 19 (277248)
I0531 10:33:35.434988  7148 net.cpp:165] Memory required for data: 7929872928
I0531 10:33:35.434994  7148 layer_factory.hpp:77] Creating layer fc7_mbox_conf_perm
I0531 10:33:35.435001  7148 net.cpp:100] Creating Layer fc7_mbox_conf_perm
I0531 10:33:35.435006  7148 net.cpp:434] fc7_mbox_conf_perm <- fc7_mbox_conf
I0531 10:33:35.435014  7148 net.cpp:408] fc7_mbox_conf_perm -> fc7_mbox_conf_perm
I0531 10:33:35.435096  7148 net.cpp:150] Setting up fc7_mbox_conf_perm
I0531 10:33:35.435101  7148 net.cpp:157] Top shape: 32 19 19 24 (277248)
I0531 10:33:35.435106  7148 net.cpp:165] Memory required for data: 7930981920
I0531 10:33:35.435111  7148 layer_factory.hpp:77] Creating layer fc7_mbox_conf_flat
I0531 10:33:35.435115  7148 net.cpp:100] Creating Layer fc7_mbox_conf_flat
I0531 10:33:35.435119  7148 net.cpp:434] fc7_mbox_conf_flat <- fc7_mbox_conf_perm
I0531 10:33:35.435127  7148 net.cpp:408] fc7_mbox_conf_flat -> fc7_mbox_conf_flat
I0531 10:33:35.435148  7148 net.cpp:150] Setting up fc7_mbox_conf_flat
I0531 10:33:35.435153  7148 net.cpp:157] Top shape: 32 8664 (277248)
I0531 10:33:35.435156  7148 net.cpp:165] Memory required for data: 7932090912
I0531 10:33:35.435168  7148 layer_factory.hpp:77] Creating layer fc7_mbox_priorbox
I0531 10:33:35.435174  7148 net.cpp:100] Creating Layer fc7_mbox_priorbox
I0531 10:33:35.435179  7148 net.cpp:434] fc7_mbox_priorbox <- fc7_relu7_0_split_3
I0531 10:33:35.435184  7148 net.cpp:434] fc7_mbox_priorbox <- data_data_0_split_2
I0531 10:33:35.435192  7148 net.cpp:408] fc7_mbox_priorbox -> fc7_mbox_priorbox
I0531 10:33:35.435212  7148 net.cpp:150] Setting up fc7_mbox_priorbox
I0531 10:33:35.435220  7148 net.cpp:157] Top shape: 1 2 8664 (17328)
I0531 10:33:35.435225  7148 net.cpp:165] Memory required for data: 7932160224
I0531 10:33:35.435227  7148 layer_factory.hpp:77] Creating layer conv6_2_mbox_loc
I0531 10:33:35.435237  7148 net.cpp:100] Creating Layer conv6_2_mbox_loc
I0531 10:33:35.435241  7148 net.cpp:434] conv6_2_mbox_loc <- conv6_2_conv6_2_relu_0_split_1
I0531 10:33:35.435250  7148 net.cpp:408] conv6_2_mbox_loc -> conv6_2_mbox_loc
I0531 10:33:35.435845  7148 net.cpp:150] Setting up conv6_2_mbox_loc
I0531 10:33:35.435853  7148 net.cpp:157] Top shape: 32 24 10 10 (76800)
I0531 10:33:35.435856  7148 net.cpp:165] Memory required for data: 7932467424
I0531 10:33:35.435876  7148 layer_factory.hpp:77] Creating layer conv6_2_mbox_loc_perm
I0531 10:33:35.435895  7148 net.cpp:100] Creating Layer conv6_2_mbox_loc_perm
I0531 10:33:35.435900  7148 net.cpp:434] conv6_2_mbox_loc_perm <- conv6_2_mbox_loc
I0531 10:33:35.435905  7148 net.cpp:408] conv6_2_mbox_loc_perm -> conv6_2_mbox_loc_perm
I0531 10:33:35.435979  7148 net.cpp:150] Setting up conv6_2_mbox_loc_perm
I0531 10:33:35.435986  7148 net.cpp:157] Top shape: 32 10 10 24 (76800)
I0531 10:33:35.435989  7148 net.cpp:165] Memory required for data: 7932774624
I0531 10:33:35.435993  7148 layer_factory.hpp:77] Creating layer conv6_2_mbox_loc_flat
I0531 10:33:35.435999  7148 net.cpp:100] Creating Layer conv6_2_mbox_loc_flat
I0531 10:33:35.436004  7148 net.cpp:434] conv6_2_mbox_loc_flat <- conv6_2_mbox_loc_perm
I0531 10:33:35.436010  7148 net.cpp:408] conv6_2_mbox_loc_flat -> conv6_2_mbox_loc_flat
I0531 10:33:35.436031  7148 net.cpp:150] Setting up conv6_2_mbox_loc_flat
I0531 10:33:35.436038  7148 net.cpp:157] Top shape: 32 2400 (76800)
I0531 10:33:35.436040  7148 net.cpp:165] Memory required for data: 7933081824
I0531 10:33:35.436044  7148 layer_factory.hpp:77] Creating layer conv6_2_mbox_conf
I0531 10:33:35.436053  7148 net.cpp:100] Creating Layer conv6_2_mbox_conf
I0531 10:33:35.436058  7148 net.cpp:434] conv6_2_mbox_conf <- conv6_2_conv6_2_relu_0_split_2
I0531 10:33:35.436065  7148 net.cpp:408] conv6_2_mbox_conf -> conv6_2_mbox_conf
I0531 10:33:35.436667  7148 net.cpp:150] Setting up conv6_2_mbox_conf
I0531 10:33:35.436676  7148 net.cpp:157] Top shape: 32 24 10 10 (76800)
I0531 10:33:35.436678  7148 net.cpp:165] Memory required for data: 7933389024
I0531 10:33:35.436686  7148 layer_factory.hpp:77] Creating layer conv6_2_mbox_conf_perm
I0531 10:33:35.436692  7148 net.cpp:100] Creating Layer conv6_2_mbox_conf_perm
I0531 10:33:35.436697  7148 net.cpp:434] conv6_2_mbox_conf_perm <- conv6_2_mbox_conf
I0531 10:33:35.436704  7148 net.cpp:408] conv6_2_mbox_conf_perm -> conv6_2_mbox_conf_perm
I0531 10:33:35.436774  7148 net.cpp:150] Setting up conv6_2_mbox_conf_perm
I0531 10:33:35.436781  7148 net.cpp:157] Top shape: 32 10 10 24 (76800)
I0531 10:33:35.436786  7148 net.cpp:165] Memory required for data: 7933696224
I0531 10:33:35.436789  7148 layer_factory.hpp:77] Creating layer conv6_2_mbox_conf_flat
I0531 10:33:35.436794  7148 net.cpp:100] Creating Layer conv6_2_mbox_conf_flat
I0531 10:33:35.436799  7148 net.cpp:434] conv6_2_mbox_conf_flat <- conv6_2_mbox_conf_perm
I0531 10:33:35.436805  7148 net.cpp:408] conv6_2_mbox_conf_flat -> conv6_2_mbox_conf_flat
I0531 10:33:35.436825  7148 net.cpp:150] Setting up conv6_2_mbox_conf_flat
I0531 10:33:35.436831  7148 net.cpp:157] Top shape: 32 2400 (76800)
I0531 10:33:35.436836  7148 net.cpp:165] Memory required for data: 7934003424
I0531 10:33:35.436838  7148 layer_factory.hpp:77] Creating layer conv6_2_mbox_priorbox
I0531 10:33:35.436846  7148 net.cpp:100] Creating Layer conv6_2_mbox_priorbox
I0531 10:33:35.436856  7148 net.cpp:434] conv6_2_mbox_priorbox <- conv6_2_conv6_2_relu_0_split_3
I0531 10:33:35.436861  7148 net.cpp:434] conv6_2_mbox_priorbox <- data_data_0_split_3
I0531 10:33:35.436879  7148 net.cpp:408] conv6_2_mbox_priorbox -> conv6_2_mbox_priorbox
I0531 10:33:35.436902  7148 net.cpp:150] Setting up conv6_2_mbox_priorbox
I0531 10:33:35.436909  7148 net.cpp:157] Top shape: 1 2 2400 (4800)
I0531 10:33:35.436913  7148 net.cpp:165] Memory required for data: 7934022624
I0531 10:33:35.436916  7148 layer_factory.hpp:77] Creating layer conv7_2_mbox_loc
I0531 10:33:35.436926  7148 net.cpp:100] Creating Layer conv7_2_mbox_loc
I0531 10:33:35.436930  7148 net.cpp:434] conv7_2_mbox_loc <- conv7_2_conv7_2_relu_0_split_1
I0531 10:33:35.436936  7148 net.cpp:408] conv7_2_mbox_loc -> conv7_2_mbox_loc
I0531 10:33:35.437314  7148 net.cpp:150] Setting up conv7_2_mbox_loc
I0531 10:33:35.437322  7148 net.cpp:157] Top shape: 32 24 5 5 (19200)
I0531 10:33:35.437325  7148 net.cpp:165] Memory required for data: 7934099424
I0531 10:33:35.437331  7148 layer_factory.hpp:77] Creating layer conv7_2_mbox_loc_perm
I0531 10:33:35.437337  7148 net.cpp:100] Creating Layer conv7_2_mbox_loc_perm
I0531 10:33:35.437341  7148 net.cpp:434] conv7_2_mbox_loc_perm <- conv7_2_mbox_loc
I0531 10:33:35.437348  7148 net.cpp:408] conv7_2_mbox_loc_perm -> conv7_2_mbox_loc_perm
I0531 10:33:35.437420  7148 net.cpp:150] Setting up conv7_2_mbox_loc_perm
I0531 10:33:35.437427  7148 net.cpp:157] Top shape: 32 5 5 24 (19200)
I0531 10:33:35.437433  7148 net.cpp:165] Memory required for data: 7934176224
I0531 10:33:35.437436  7148 layer_factory.hpp:77] Creating layer conv7_2_mbox_loc_flat
I0531 10:33:35.437441  7148 net.cpp:100] Creating Layer conv7_2_mbox_loc_flat
I0531 10:33:35.437445  7148 net.cpp:434] conv7_2_mbox_loc_flat <- conv7_2_mbox_loc_perm
I0531 10:33:35.437453  7148 net.cpp:408] conv7_2_mbox_loc_flat -> conv7_2_mbox_loc_flat
I0531 10:33:35.437472  7148 net.cpp:150] Setting up conv7_2_mbox_loc_flat
I0531 10:33:35.437479  7148 net.cpp:157] Top shape: 32 600 (19200)
I0531 10:33:35.437481  7148 net.cpp:165] Memory required for data: 7934253024
I0531 10:33:35.437485  7148 layer_factory.hpp:77] Creating layer conv7_2_mbox_conf
I0531 10:33:35.437494  7148 net.cpp:100] Creating Layer conv7_2_mbox_conf
I0531 10:33:35.437499  7148 net.cpp:434] conv7_2_mbox_conf <- conv7_2_conv7_2_relu_0_split_2
I0531 10:33:35.437505  7148 net.cpp:408] conv7_2_mbox_conf -> conv7_2_mbox_conf
I0531 10:33:35.437878  7148 net.cpp:150] Setting up conv7_2_mbox_conf
I0531 10:33:35.437885  7148 net.cpp:157] Top shape: 32 24 5 5 (19200)
I0531 10:33:35.437889  7148 net.cpp:165] Memory required for data: 7934329824
I0531 10:33:35.437896  7148 layer_factory.hpp:77] Creating layer conv7_2_mbox_conf_perm
I0531 10:33:35.437902  7148 net.cpp:100] Creating Layer conv7_2_mbox_conf_perm
I0531 10:33:35.437906  7148 net.cpp:434] conv7_2_mbox_conf_perm <- conv7_2_mbox_conf
I0531 10:33:35.437912  7148 net.cpp:408] conv7_2_mbox_conf_perm -> conv7_2_mbox_conf_perm
I0531 10:33:35.437983  7148 net.cpp:150] Setting up conv7_2_mbox_conf_perm
I0531 10:33:35.437991  7148 net.cpp:157] Top shape: 32 5 5 24 (19200)
I0531 10:33:35.437994  7148 net.cpp:165] Memory required for data: 7934406624
I0531 10:33:35.437997  7148 layer_factory.hpp:77] Creating layer conv7_2_mbox_conf_flat
I0531 10:33:35.438004  7148 net.cpp:100] Creating Layer conv7_2_mbox_conf_flat
I0531 10:33:35.438009  7148 net.cpp:434] conv7_2_mbox_conf_flat <- conv7_2_mbox_conf_perm
I0531 10:33:35.438015  7148 net.cpp:408] conv7_2_mbox_conf_flat -> conv7_2_mbox_conf_flat
I0531 10:33:35.438035  7148 net.cpp:150] Setting up conv7_2_mbox_conf_flat
I0531 10:33:35.438040  7148 net.cpp:157] Top shape: 32 600 (19200)
I0531 10:33:35.438045  7148 net.cpp:165] Memory required for data: 7934483424
I0531 10:33:35.438047  7148 layer_factory.hpp:77] Creating layer conv7_2_mbox_priorbox
I0531 10:33:35.438055  7148 net.cpp:100] Creating Layer conv7_2_mbox_priorbox
I0531 10:33:35.438060  7148 net.cpp:434] conv7_2_mbox_priorbox <- conv7_2_conv7_2_relu_0_split_3
I0531 10:33:35.438072  7148 net.cpp:434] conv7_2_mbox_priorbox <- data_data_0_split_4
I0531 10:33:35.438078  7148 net.cpp:408] conv7_2_mbox_priorbox -> conv7_2_mbox_priorbox
I0531 10:33:35.438102  7148 net.cpp:150] Setting up conv7_2_mbox_priorbox
I0531 10:33:35.438107  7148 net.cpp:157] Top shape: 1 2 600 (1200)
I0531 10:33:35.438112  7148 net.cpp:165] Memory required for data: 7934488224
I0531 10:33:35.438117  7148 layer_factory.hpp:77] Creating layer conv8_2_mbox_loc
I0531 10:33:35.438127  7148 net.cpp:100] Creating Layer conv8_2_mbox_loc
I0531 10:33:35.438132  7148 net.cpp:434] conv8_2_mbox_loc <- conv8_2_conv8_2_relu_0_split_1
I0531 10:33:35.438140  7148 net.cpp:408] conv8_2_mbox_loc -> conv8_2_mbox_loc
I0531 10:33:35.438444  7148 net.cpp:150] Setting up conv8_2_mbox_loc
I0531 10:33:35.438452  7148 net.cpp:157] Top shape: 32 16 3 3 (4608)
I0531 10:33:35.438455  7148 net.cpp:165] Memory required for data: 7934506656
I0531 10:33:35.438470  7148 layer_factory.hpp:77] Creating layer conv8_2_mbox_loc_perm
I0531 10:33:35.438477  7148 net.cpp:100] Creating Layer conv8_2_mbox_loc_perm
I0531 10:33:35.438482  7148 net.cpp:434] conv8_2_mbox_loc_perm <- conv8_2_mbox_loc
I0531 10:33:35.438488  7148 net.cpp:408] conv8_2_mbox_loc_perm -> conv8_2_mbox_loc_perm
I0531 10:33:35.438556  7148 net.cpp:150] Setting up conv8_2_mbox_loc_perm
I0531 10:33:35.438563  7148 net.cpp:157] Top shape: 32 3 3 16 (4608)
I0531 10:33:35.438566  7148 net.cpp:165] Memory required for data: 7934525088
I0531 10:33:35.438570  7148 layer_factory.hpp:77] Creating layer conv8_2_mbox_loc_flat
I0531 10:33:35.438575  7148 net.cpp:100] Creating Layer conv8_2_mbox_loc_flat
I0531 10:33:35.438580  7148 net.cpp:434] conv8_2_mbox_loc_flat <- conv8_2_mbox_loc_perm
I0531 10:33:35.438587  7148 net.cpp:408] conv8_2_mbox_loc_flat -> conv8_2_mbox_loc_flat
I0531 10:33:35.438608  7148 net.cpp:150] Setting up conv8_2_mbox_loc_flat
I0531 10:33:35.438614  7148 net.cpp:157] Top shape: 32 144 (4608)
I0531 10:33:35.438617  7148 net.cpp:165] Memory required for data: 7934543520
I0531 10:33:35.438621  7148 layer_factory.hpp:77] Creating layer conv8_2_mbox_conf
I0531 10:33:35.438629  7148 net.cpp:100] Creating Layer conv8_2_mbox_conf
I0531 10:33:35.438633  7148 net.cpp:434] conv8_2_mbox_conf <- conv8_2_conv8_2_relu_0_split_2
I0531 10:33:35.438640  7148 net.cpp:408] conv8_2_mbox_conf -> conv8_2_mbox_conf
I0531 10:33:35.438941  7148 net.cpp:150] Setting up conv8_2_mbox_conf
I0531 10:33:35.438947  7148 net.cpp:157] Top shape: 32 16 3 3 (4608)
I0531 10:33:35.438951  7148 net.cpp:165] Memory required for data: 7934561952
I0531 10:33:35.438957  7148 layer_factory.hpp:77] Creating layer conv8_2_mbox_conf_perm
I0531 10:33:35.438966  7148 net.cpp:100] Creating Layer conv8_2_mbox_conf_perm
I0531 10:33:35.438971  7148 net.cpp:434] conv8_2_mbox_conf_perm <- conv8_2_mbox_conf
I0531 10:33:35.438977  7148 net.cpp:408] conv8_2_mbox_conf_perm -> conv8_2_mbox_conf_perm
I0531 10:33:35.439043  7148 net.cpp:150] Setting up conv8_2_mbox_conf_perm
I0531 10:33:35.439049  7148 net.cpp:157] Top shape: 32 3 3 16 (4608)
I0531 10:33:35.439054  7148 net.cpp:165] Memory required for data: 7934580384
I0531 10:33:35.439057  7148 layer_factory.hpp:77] Creating layer conv8_2_mbox_conf_flat
I0531 10:33:35.439064  7148 net.cpp:100] Creating Layer conv8_2_mbox_conf_flat
I0531 10:33:35.439069  7148 net.cpp:434] conv8_2_mbox_conf_flat <- conv8_2_mbox_conf_perm
I0531 10:33:35.439074  7148 net.cpp:408] conv8_2_mbox_conf_flat -> conv8_2_mbox_conf_flat
I0531 10:33:35.439095  7148 net.cpp:150] Setting up conv8_2_mbox_conf_flat
I0531 10:33:35.439100  7148 net.cpp:157] Top shape: 32 144 (4608)
I0531 10:33:35.439103  7148 net.cpp:165] Memory required for data: 7934598816
I0531 10:33:35.439106  7148 layer_factory.hpp:77] Creating layer conv8_2_mbox_priorbox
I0531 10:33:35.439113  7148 net.cpp:100] Creating Layer conv8_2_mbox_priorbox
I0531 10:33:35.439118  7148 net.cpp:434] conv8_2_mbox_priorbox <- conv8_2_conv8_2_relu_0_split_3
I0531 10:33:35.439123  7148 net.cpp:434] conv8_2_mbox_priorbox <- data_data_0_split_5
I0531 10:33:35.439136  7148 net.cpp:408] conv8_2_mbox_priorbox -> conv8_2_mbox_priorbox
I0531 10:33:35.439157  7148 net.cpp:150] Setting up conv8_2_mbox_priorbox
I0531 10:33:35.439163  7148 net.cpp:157] Top shape: 1 2 144 (288)
I0531 10:33:35.439167  7148 net.cpp:165] Memory required for data: 7934599968
I0531 10:33:35.439169  7148 layer_factory.hpp:77] Creating layer conv9_2_mbox_loc
I0531 10:33:35.439179  7148 net.cpp:100] Creating Layer conv9_2_mbox_loc
I0531 10:33:35.439183  7148 net.cpp:434] conv9_2_mbox_loc <- conv9_2_conv9_2_relu_0_split_0
I0531 10:33:35.439191  7148 net.cpp:408] conv9_2_mbox_loc -> conv9_2_mbox_loc
I0531 10:33:35.439491  7148 net.cpp:150] Setting up conv9_2_mbox_loc
I0531 10:33:35.439499  7148 net.cpp:157] Top shape: 32 16 1 1 (512)
I0531 10:33:35.439503  7148 net.cpp:165] Memory required for data: 7934602016
I0531 10:33:35.439508  7148 layer_factory.hpp:77] Creating layer conv9_2_mbox_loc_perm
I0531 10:33:35.439515  7148 net.cpp:100] Creating Layer conv9_2_mbox_loc_perm
I0531 10:33:35.439520  7148 net.cpp:434] conv9_2_mbox_loc_perm <- conv9_2_mbox_loc
I0531 10:33:35.439528  7148 net.cpp:408] conv9_2_mbox_loc_perm -> conv9_2_mbox_loc_perm
I0531 10:33:35.439595  7148 net.cpp:150] Setting up conv9_2_mbox_loc_perm
I0531 10:33:35.439601  7148 net.cpp:157] Top shape: 32 1 1 16 (512)
I0531 10:33:35.439604  7148 net.cpp:165] Memory required for data: 7934604064
I0531 10:33:35.439609  7148 layer_factory.hpp:77] Creating layer conv9_2_mbox_loc_flat
I0531 10:33:35.439615  7148 net.cpp:100] Creating Layer conv9_2_mbox_loc_flat
I0531 10:33:35.439620  7148 net.cpp:434] conv9_2_mbox_loc_flat <- conv9_2_mbox_loc_perm
I0531 10:33:35.439626  7148 net.cpp:408] conv9_2_mbox_loc_flat -> conv9_2_mbox_loc_flat
I0531 10:33:35.439646  7148 net.cpp:150] Setting up conv9_2_mbox_loc_flat
I0531 10:33:35.439651  7148 net.cpp:157] Top shape: 32 16 (512)
I0531 10:33:35.439654  7148 net.cpp:165] Memory required for data: 7934606112
I0531 10:33:35.439658  7148 layer_factory.hpp:77] Creating layer conv9_2_mbox_conf
I0531 10:33:35.439668  7148 net.cpp:100] Creating Layer conv9_2_mbox_conf
I0531 10:33:35.439672  7148 net.cpp:434] conv9_2_mbox_conf <- conv9_2_conv9_2_relu_0_split_1
I0531 10:33:35.439679  7148 net.cpp:408] conv9_2_mbox_conf -> conv9_2_mbox_conf
I0531 10:33:35.439975  7148 net.cpp:150] Setting up conv9_2_mbox_conf
I0531 10:33:35.439982  7148 net.cpp:157] Top shape: 32 16 1 1 (512)
I0531 10:33:35.439985  7148 net.cpp:165] Memory required for data: 7934608160
I0531 10:33:35.439991  7148 layer_factory.hpp:77] Creating layer conv9_2_mbox_conf_perm
I0531 10:33:35.439999  7148 net.cpp:100] Creating Layer conv9_2_mbox_conf_perm
I0531 10:33:35.440004  7148 net.cpp:434] conv9_2_mbox_conf_perm <- conv9_2_mbox_conf
I0531 10:33:35.440011  7148 net.cpp:408] conv9_2_mbox_conf_perm -> conv9_2_mbox_conf_perm
I0531 10:33:35.440075  7148 net.cpp:150] Setting up conv9_2_mbox_conf_perm
I0531 10:33:35.440081  7148 net.cpp:157] Top shape: 32 1 1 16 (512)
I0531 10:33:35.440085  7148 net.cpp:165] Memory required for data: 7934610208
I0531 10:33:35.440088  7148 layer_factory.hpp:77] Creating layer conv9_2_mbox_conf_flat
I0531 10:33:35.440093  7148 net.cpp:100] Creating Layer conv9_2_mbox_conf_flat
I0531 10:33:35.440098  7148 net.cpp:434] conv9_2_mbox_conf_flat <- conv9_2_mbox_conf_perm
I0531 10:33:35.440105  7148 net.cpp:408] conv9_2_mbox_conf_flat -> conv9_2_mbox_conf_flat
I0531 10:33:35.440125  7148 net.cpp:150] Setting up conv9_2_mbox_conf_flat
I0531 10:33:35.440131  7148 net.cpp:157] Top shape: 32 16 (512)
I0531 10:33:35.440135  7148 net.cpp:165] Memory required for data: 7934612256
I0531 10:33:35.440138  7148 layer_factory.hpp:77] Creating layer conv9_2_mbox_priorbox
I0531 10:33:35.440145  7148 net.cpp:100] Creating Layer conv9_2_mbox_priorbox
I0531 10:33:35.440148  7148 net.cpp:434] conv9_2_mbox_priorbox <- conv9_2_conv9_2_relu_0_split_2
I0531 10:33:35.440153  7148 net.cpp:434] conv9_2_mbox_priorbox <- data_data_0_split_6
I0531 10:33:35.440162  7148 net.cpp:408] conv9_2_mbox_priorbox -> conv9_2_mbox_priorbox
I0531 10:33:35.440188  7148 net.cpp:150] Setting up conv9_2_mbox_priorbox
I0531 10:33:35.440194  7148 net.cpp:157] Top shape: 1 2 16 (32)
I0531 10:33:35.440198  7148 net.cpp:165] Memory required for data: 7934612384
I0531 10:33:35.440202  7148 layer_factory.hpp:77] Creating layer mbox_loc
I0531 10:33:35.440209  7148 net.cpp:100] Creating Layer mbox_loc
I0531 10:33:35.440214  7148 net.cpp:434] mbox_loc <- conv4_3_norm_mbox_loc_flat
I0531 10:33:35.440219  7148 net.cpp:434] mbox_loc <- fc7_mbox_loc_flat
I0531 10:33:35.440225  7148 net.cpp:434] mbox_loc <- conv6_2_mbox_loc_flat
I0531 10:33:35.440232  7148 net.cpp:434] mbox_loc <- conv7_2_mbox_loc_flat
I0531 10:33:35.440237  7148 net.cpp:434] mbox_loc <- conv8_2_mbox_loc_flat
I0531 10:33:35.440241  7148 net.cpp:434] mbox_loc <- conv9_2_mbox_loc_flat
I0531 10:33:35.440251  7148 net.cpp:408] mbox_loc -> mbox_loc
I0531 10:33:35.440274  7148 net.cpp:150] Setting up mbox_loc
I0531 10:33:35.440280  7148 net.cpp:157] Top shape: 32 34928 (1117696)
I0531 10:33:35.440284  7148 net.cpp:165] Memory required for data: 7939083168
I0531 10:33:35.440287  7148 layer_factory.hpp:77] Creating layer mbox_conf
I0531 10:33:35.440294  7148 net.cpp:100] Creating Layer mbox_conf
I0531 10:33:35.440297  7148 net.cpp:434] mbox_conf <- conv4_3_norm_mbox_conf_flat
I0531 10:33:35.440302  7148 net.cpp:434] mbox_conf <- fc7_mbox_conf_flat
I0531 10:33:35.440307  7148 net.cpp:434] mbox_conf <- conv6_2_mbox_conf_flat
I0531 10:33:35.440310  7148 net.cpp:434] mbox_conf <- conv7_2_mbox_conf_flat
I0531 10:33:35.440313  7148 net.cpp:434] mbox_conf <- conv8_2_mbox_conf_flat
I0531 10:33:35.440317  7148 net.cpp:434] mbox_conf <- conv9_2_mbox_conf_flat
I0531 10:33:35.440325  7148 net.cpp:408] mbox_conf -> mbox_conf
I0531 10:33:35.440346  7148 net.cpp:150] Setting up mbox_conf
I0531 10:33:35.440351  7148 net.cpp:157] Top shape: 32 34928 (1117696)
I0531 10:33:35.440354  7148 net.cpp:165] Memory required for data: 7943553952
I0531 10:33:35.440358  7148 layer_factory.hpp:77] Creating layer mbox_priorbox
I0531 10:33:35.440363  7148 net.cpp:100] Creating Layer mbox_priorbox
I0531 10:33:35.440368  7148 net.cpp:434] mbox_priorbox <- conv4_3_norm_mbox_priorbox
I0531 10:33:35.440373  7148 net.cpp:434] mbox_priorbox <- fc7_mbox_priorbox
I0531 10:33:35.440379  7148 net.cpp:434] mbox_priorbox <- conv6_2_mbox_priorbox
I0531 10:33:35.440384  7148 net.cpp:434] mbox_priorbox <- conv7_2_mbox_priorbox
I0531 10:33:35.440389  7148 net.cpp:434] mbox_priorbox <- conv8_2_mbox_priorbox
I0531 10:33:35.440393  7148 net.cpp:434] mbox_priorbox <- conv9_2_mbox_priorbox
I0531 10:33:35.440400  7148 net.cpp:408] mbox_priorbox -> mbox_priorbox
I0531 10:33:35.440421  7148 net.cpp:150] Setting up mbox_priorbox
I0531 10:33:35.440428  7148 net.cpp:157] Top shape: 1 2 34928 (69856)
I0531 10:33:35.440430  7148 net.cpp:165] Memory required for data: 7943833376
I0531 10:33:35.440434  7148 layer_factory.hpp:77] Creating layer mbox_loss
I0531 10:33:35.440445  7148 net.cpp:100] Creating Layer mbox_loss
I0531 10:33:35.440449  7148 net.cpp:434] mbox_loss <- mbox_loc
I0531 10:33:35.440454  7148 net.cpp:434] mbox_loss <- mbox_conf
I0531 10:33:35.440459  7148 net.cpp:434] mbox_loss <- mbox_priorbox
…
  name: "data"
  type: "AnnotatedData"
  top: "data"
  top: "label"
  include {
    phase: TEST
  }
  transform_param {
    mean_value: 104
    mean_value: 117
    mean_value: 123
    resize_param {
      prob: 1
      resize_mode: WARP
      height: 300
      width: 300
      interp_mode: LINEAR
    }
  }
  data_param {
    source: "examples/tbs_300x300_HSIL_10x/tbs_300x300_HSIL_10x_test_lmdb"
    batch_size: 4
    backend: LMDB
  }
  annotated_data_param {
    batch_sampler {
    }
    label_map_file: "data/tbs_300x300_HSIL_10x/labelmap_tbs.prototxt"
  }
}
layer {
  name: "conv1_1"
  type: "Convolution"
  bottom: "data"
  top: "conv1_1"
  param {
    lr_mult: 1
    decay_mult: 1
  }
  param {
    lr_mult: 2
    decay_mult: 0
  }
  convolution_param {
    num_output: 64
    pad: 1
    kernel_size: 3
    weight_filler {
      type: "xavier"
    }
    bias_filler {
      type: "constant"
      value: 0
    }
  }
}
layer {
  name: "relu1_1"
  type: "ReLU"
  bottom: "conv1_1"
  top: "conv1_1"
}
layer {
  name: "conv1_2"
  type: "Convolution"
  bottom: "conv1_1"
  top: "conv1_2"
  param {
    lr_mult: 1
    decay_mult: 1
  }
  param {
    lr_mult: 2
    decay_mult: 0
  }
  convolution_param {
    num_output: 64
    pad: 1
    kernel_size: 3
    weight_filler {
      type: "xavier"
    }
    bias_filler {
      type: "constant"
      value: 0
    }
  }
}
layer {
  name: "relu1_2"
  type: "ReLU"
  bottom: "conv1_2"
  top: "conv1_2"
}
layer {
  name: "pool1"
  type: "Pooling"
  bottom: "conv1_2"
  top: "pool1"
  pooling_param {
    pool: MAX
    kernel_size: 2
    stride: 2
  }
}
layer {
  name: "conv2_1"
  type: "Convolution"
  bottom: "pool1"
  top: "conv2_1"
  param {
    lr_mult: 1
    decay_mult: 1
  }
  param {
    lr_mult: 2
    decay_mult: 0
  }
  convolution_param {
    num_output: 128
    pad: 1
    kernel_size: 3
    weight_filler {
      type: "xavier"
    }
    bias_filler {
      type: "constant"
      value: 0
    }
  }
}
layer {
  name: "relu2_1"
  type: "ReLU"
  bottom: "conv2_1"
  top: "conv2_1"
}
layer {
  name: "conv2_2"
  type: "Convolution"
  bottom: "conv2_1"
  top: "conv2_2"
  param {
    lr_mult: 1
    decay_mult: 1
  }
  param {
    lr_mult: 2
    decay_mult: 0
  }
  convolution_param {
    num_output: 128
    pad: 1
    kernel_size: 3
    weight_filler {
      type: "xavier"
    }
    bias_filler {
      type: "constant"
      value: 0
    }
  }
}
layer {
  name: "relu2_2"
  type: "ReLU"
  bottom: "conv2_2"
  top: "conv2_2"
}
layer {
  name: "pool2"
  type: "Pooling"
  bottom: "conv2_2"
  top: "pool2"
  pooling_param {
    pool: MAX
    kernel_size: 2
    stride: 2
  }
}
layer {
  name: "conv3_1"
  type: "Convolution"
  bottom: "pool2"
  top: "conv3_1"
  param {
    lr_mult: 1
    decay_mult: 1
  }
  param {
    lr_mult: 2
    decay_mult: 0
  }
  convolution_param {
    num_output: 256
    pad: 1
    kernel_size: 3
    weight_filler {
      type: "xavier"
    }
    bias_filler {
      type: "constant"
      value: 0
    }
  }
}
layer {
  name: "relu3_1"
  type: "ReLU"
  bottom: "conv3_1"
  top: "conv3_1"
}
layer {
  name: "conv3_2"
  type: "Convolution"
  bottom: "conv3_1"
  top: "conv3_2"
  param {
    lr_mult: 1
    decay_mult: 1
  }
  param {
    lr_mult: 2
    decay_mult: 0
  }
  convolution_param {
    num_output: 256
    pad: 1
    kernel_size: 3
    weight_filler {
      type: "xavier"
    }
    bias_filler {
      type: "constant"
      value: 0
    }
  }
}
layer {
  name: "relu3_2"
  type: "ReLU"
  bottom: "conv3_2"
  top: "conv3_2"
}
layer {
  name: "conv3_3"
  type: "Convolution"
  bottom: "conv3_2"
  top: "conv3_3"
  param {
    lr_mult: 1
    decay_mult: 1
  }
  param {
    lr_mult: 2
    decay_mult: 0
  }
  convolution_param {
    num_output: 256
    pad: 1
    kernel_size: 3
    weight_filler {
      type: "xavier"
    }
    bias_filler {
      type: "constant"
      value: 0
    }
  }
}
layer {
  name: "relu3_3"
  type: "ReLU"
  bottom: "conv3_3"
  top: "conv3_3"
}
layer {
  name: "pool3"
  type: "Pooling"
  bottom: "conv3_3"
  top: "pool3"
  pooling_param {
    pool: MAX
    kernel_size: 2
    stride: 2
  }
}
layer {
  name: "conv4_1"
  type: "Convolution"
  bottom: "pool3"
  top: "conv4_1"
  param {
    lr_mult: 1
    decay_mult: 1
  }
  param {
    lr_mult: 2
    decay_mult: 0
  }
  convolution_param {
    num_output: 512
    pad: 1
    kernel_size: 3
    weight_filler {
      type: "xavier"
    }
    bias_filler {
      type: "constant"
      value: 0
    }
  }
}
layer {
  name: "relu4_1"
  type: "ReLU"
  bottom: "conv4_1"
  top: "conv4_1"
}
layer {
  name: "conv4_2"
  type: "Convolution"
  bottom: "conv4_1"
  top: "conv4_2"
  param {
    lr_mult: 1
    decay_mult: 1
  }
  param {
    lr_mult: 2
    decay_mult: 0
  }
  convolution_param {
    num_output: 512
    pad: 1
    kernel_size: 3
    weight_filler {
      type: "xavier"
    }
    bias_filler {
      type: "constant"
      value: 0
    }
  }
}
layer {
  name: "relu4_2"
  type: "ReLU"
  bottom: "conv4_2"
  top: "conv4_2"
}
layer {
  name: "conv4_3"
  type: "Convolution"
  bottom: "conv4_2"
  top: "conv4_3"
  param {
    lr_mult: 1
    decay_mult: 1
  }
  param {
    lr_mult: 2
    decay_mult: 0
  }
  convolution_param {
    num_output: 512
    pad: 1
    kernel_size: 3
    weight_filler {
      type: "xavier"
    }
    bias_filler {
      type: "constant"
      value: 0
    }
  }
}
layer {
  name: "relu4_3"
  type: "ReLU"
  bottom: "conv4_3"
  top: "conv4_3"
}
layer {
  name: "pool4"
  type: "Pooling"
  bottom: "conv4_3"
  top: "pool4"
  pooling_param {
    pool: MAX
    kernel_size: 2
    stride: 2
  }
}
layer {
  name: "conv5_1"
  type: "Convolution"
  bottom: "pool4"
  top: "conv5_1"
  param {
    lr_mult: 1
    decay_mult: 1
  }
  param {
    lr_mult: 2
    decay_mult: 0
  }
  convolution_param {
    num_output: 512
    pad: 1
    kernel_size: 3
    weight_filler {
      type: "xavier"
    }
    bias_filler {
      type: "constant"
      value: 0
    }
    dilation: 1
  }
}
layer {
  name: "relu5_1"
  type: "ReLU"
  bottom: "conv5_1"
  top: "conv5_1"
}
layer {
  name: "conv5_2"
  type: "Convolution"
  bottom: "conv5_1"
  top: "conv5_2"
  param {
    lr_mult: 1
    decay_mult: 1
  }
  param {
    lr_mult: 2
    decay_mult: 0
  }
  convolution_param {
    num_output: 512
    pad: 1
    kernel_size: 3
    weight_filler {
      type: "xavier"
    }
    bias_filler {
      type: "constant"
      value: 0
    }
    dilation: 1
  }
}
layer {
  name: "relu5_2"
  type: "ReLU"
  bottom: "conv5_2"
  top: "conv5_2"
}
layer {
  name: "conv5_3"
  type: "Convolution"
  bottom: "conv5_2"
  top: "conv5_3"
  param {
    lr_mult: 1
    decay_mult: 1
  }
  param {
    lr_mult: 2
    decay_mult: 0
  }
  convolution_param {
    num_output: 512
    pad: 1
    kernel_size: 3
    weight_filler {
      type: "xavier"
    }
    bias_filler {
      type: "constant"
      value: 0
    }
    dilation: 1
  }
}
layer {
  name: "relu5_3"
  type: "ReLU"
  bottom: "conv5_3"
  top: "conv5_3"
}
layer {
  name: "pool5"
  type: "Pooling"
  bottom: "conv5_3"
  top: "pool5"
  pooling_param {
    pool: MAX
    kernel_size: 3
    stride: 1
    pad: 1
  }
}
layer {
  name: "fc6"
  type: "Convolution"
  bottom: "pool5"
  top: "fc6"
  param {
    lr_mult: 1
    decay_mult: 1
  }
  param {
    lr_mult: 2
    decay_mult: 0
  }
  convolution_param {
    num_output: 1024
    pad: 6
    kernel_size: 3
    weight_filler {
      type: "xavier"
    }
    bias_filler {
      type: "constant"
      value: 0
    }
    dilation: 6
  }
}
layer {
  name: "relu6"
  type: "ReLU"
  bottom: "fc6"
  top: "fc6"
}
layer {
  name: "fc7"
  type: "Convolution"
  bottom: "fc6"
  top: "fc7"
  param {
    lr_mult: 1
    decay_mult: 1
  }
  param {
    lr_mult: 2
    decay_mult: 0
  }
  convolution_param {
    num_output: 1024
    kernel_size: 1
    weight_filler {
      type: "xavier"
    }
    bias_filler {
      type: "constant"
      value: 0
    }
  }
}
layer {
  name: "relu7"
  type: "ReLU"
  bottom: "fc7"
  top: "fc7"
}
layer {
  name: "conv6_1"
  type: "Convolution"
  bottom: "fc7"
  top: "conv6_1"
  param {
    lr_mult: 1
    decay_mult: 1
  }
  param {
    lr_mult: 2
    decay_mult: 0
  }
  convolution_param {
    num_output: 256
    pad: 0
    kernel_size: 1
    stride: 1
    weight_filler {
      type: "xavier"
    }
    bias_filler {
      type: "constant"
      value: 0
    }
  }
}
layer {
  name: "conv6_1_relu"
  type: "ReLU"
  bottom: "conv6_1"
  top: "conv6_1"
}
layer {
  name: "conv6_2"
  type: "Convolution"
  bottom: "conv6_1"
  top: "conv6_2"
  param {
    lr_mult: 1
    decay_mult: 1
  }
  param {
    lr_mult: 2
    decay_mult: 0
  }
  convolution_param {
    num_output: 512
    pad: 1
    kernel_size: 3
    stride: 2
    weight_filler {
      type: "xavier"
    }
    bias_filler {
      type: "constant"
      value: 0
    }
  }
}
layer {
  name: "conv6_2_relu"
  type: "ReLU"
  bottom: "conv6_2"
  top: "conv6_2"
}
layer {
  name: "conv7_1"
  type: "Convolution"
  bottom: "conv6_2"
  top: "conv7_1"
  param {
    lr_mult: 1
    decay_mult: 1
  }
  param {
    lr_mult: 2
    decay_mult: 0
  }
  convolution_param {
    num_output: 128
    pad: 0
    kernel_size: 1
    stride: 1
    weight_filler {
      type: "xavier"
    }
    bias_filler {
      type: "constant"
      value: 0
    }
  }
}
layer {
  name: "conv7_1_relu"
  type: "ReLU"
  bottom: "conv7_1"
  top: "conv7_1"
}
layer {
  name: "conv7_2"
  type: "Convolution"
  bottom: "conv7_1"
  top: "conv7_2"
  param {
    lr_mult: 1
    decay_mult: 1
  }
  param {
    lr_mult: 2
    decay_mult: 0
  }
  convolution_param {
    num_output: 256
    pad: 1
    kernel_size: 3
    stride: 2
    weight_filler {
      type: "xavier"
    }
    bias_filler {
      type: "constant"
      value: 0
    }
  }
}
layer {
  name: "conv7_2_relu"
  type: "ReLU"
  bottom: "conv7_2"
  top: "conv7_2"
}
layer {
  name: "conv8_1"
  type: "Convolution"
  bottom: "conv7_2"
  top: "conv8_1"
  param {
    lr_mult: 1
    decay_mult: 1
  }
  param {
    lr_mult: 2
    decay_mult: 0
  }
  convolution_param {
    num_output: 128
    pad: 0
    kernel_size: 1
    stride: 1
    weight_filler {
      type: "xavier"
    }
    bias_filler {
      type: "constant"
      value: 0
    }
  }
}
layer {
  name: "conv8_1_relu"
  type: "ReLU"
  bottom: "conv8_1"
  top: "conv8_1"
}
layer {
  name: "conv8_2"
  type: "Convolution"
  bottom: "conv8_1"
  top: "conv8_2"
  param {
    lr_mult: 1
    decay_mult: 1
  }
  param {
    lr_mult: 2
    decay_mult: 0
  }
  convolution_param {
    num_output: 256
    pad: 0
    kernel_size: 3
    stride: 1
    weight_filler {
      type: "xavier"
    }
    bias_filler {
      type: "constant"
      value: 0
    }
  }
}
layer {
  name: "conv8_2_relu"
  type: "ReLU"
  bottom: "conv8_2"
  top: "conv8_2"
}
layer {
  name: "conv9_1"
  type: "Convolution"
  bottom: "conv8_2"
  top: "conv9_1"
  param {
    lr_mult: 1
    decay_mult: 1
  }
  param {
    lr_mult: 2
    decay_mult: 0
  }
  convolution_param {
    num_output: 128
    pad: 0
    kernel_size: 1
    stride: 1
    weight_filler {
      type: "xavier"
    }
    bias_filler {
      type: "constant"
      value: 0
    }
  }
}
layer {
  name: "conv9_1_relu"
  type: "ReLU"
  bottom: "conv9_1"
  top: "conv9_1"
}
layer {
  name: "conv9_2"
  type: "Convolution"
  bottom: "conv9_1"
  top: "conv9_2"
  param {
    lr_mult: 1
    decay_mult: 1
  }
  param {
    lr_mult: 2
    decay_mult: 0
  }
  convolution_param {
    num_output: 256
    pad: 0
    kernel_size: 3
    stride: 1
    weight_filler {
      type: "xavier"
    }
    bias_filler {
      type: "constant"
      value: 0
    }
  }
}
layer {
  name: "conv9_2_relu"
  type: "ReLU"
  bottom: "conv9_2"
  top: "conv9_2"
}
layer {
  name: "conv4_3_norm"
  type: "Normalize"
  bottom: "conv4_3"
  top: "conv4_3_norm"
  norm_param {
    across_spatial: false
    scale_filler {
      type: "constant"
      value: 20
    }
    channel_shared: false
  }
}
layer {
  name: "conv4_3_norm_mbox_loc"
  type: "Convolution"
  bottom: "conv4_3_norm"
  top: "conv4_3_norm_mbox_loc"
  param {
    lr_mult: 1
    decay_mult: 1
  }
  param {
    lr_mult: 2
    decay_mult: 0
  }
  convolution_param {
    num_output: 16
    pad: 1
    kernel_size: 3
    stride: 1
    weight_filler {
      type: "xavier"
    }
    bias_filler {
      type: "constant"
      value: 0
    }
  }
}
layer {
  name: "conv4_3_norm_mbox_loc_perm"
  type: "Permute"
  bottom: "conv4_3_norm_mbox_loc"
  top: "conv4_3_norm_mbox_loc_perm"
  permute_param {
    order: 0
    order: 2
    order: 3
    order: 1
  }
}
layer {
  name: "conv4_3_norm_mbox_loc_flat"
  type: "Flatten"
  bottom: "conv4_3_norm_mbox_loc_perm"
  top: "conv4_3_norm_mbox_loc_flat"
  flatten_param {
    axis: 1
  }
}
layer {
  name: "conv4_3_norm_mbox_conf"
  type: "Convolution"
  bottom: "conv4_3_norm"
  top: "conv4_3_norm_mbox_conf"
  param {
    lr_mult: 1
    decay_mult: 1
  }
  param {
    lr_mult: 2
    decay_mult: 0
  }
  convolution_param {
    num_output: 16
    pad: 1
    kernel_size: 3
    stride: 1
    weight_filler {
      type: "xavier"
    }
    bias_filler {
      type: "constant"
      value: 0
    }
  }
}
layer {
  name: "conv4_3_norm_mbox_conf_perm"
  type: "Permute"
  bottom: "conv4_3_norm_mbox_conf"
  top: "conv4_3_norm_mbox_conf_perm"
  permute_param {
    order: 0
    order: 2
    order: 3
    order: 1
  }
}
layer {
  name: "conv4_3_norm_mbox_conf_flat"
  type: "Flatten"
  bottom: "conv4_3_norm_mbox_conf_perm"
  top: "conv4_3_norm_mbox_conf_flat"
  flatten_param {
    axis: 1
  }
}
layer {
  name: "conv4_3_norm_mbox_priorbox"
  type: "PriorBox"
  bottom: "conv4_3_norm"
  bottom: "data"
  top: "conv4_3_norm_mbox_priorbox"
  prior_box_param {
    min_size: 30
    max_size: 60
    aspect_ratio: 2
    flip: true
    clip: false
    variance: 0.1
    variance: 0.1
    variance: 0.2
    variance: 0.2
    step: 8
    offset: 0.5
  }
}
layer {
  name: "fc7_mbox_loc"
  type: "Convolution"
  bottom: "fc7"
  top: "fc7_mbox_loc"
  param {
    lr_mult: 1
    decay_mult: 1
  }
  param {
    lr_mult: 2
    decay_mult: 0
  }
  convolution_param {
    num_output: 24
    pad: 1
    kernel_size: 3
    stride: 1
    weight_filler {
      type: "xavier"
    }
    bias_filler {
      type: "constant"
      value: 0
    }
  }
}
layer {
  name: "fc7_mbox_loc_perm"
  type: "Permute"
  bottom: "fc7_mbox_loc"
  top: "fc7_mbox_loc_perm"
  permute_param {
    order: 0
    order: 2
    order: 3
    order: 1
  }
}
layer {
  name: "fc7_mbox_loc_flat"
  type: "Flatten"
  bottom: "fc7_mbox_loc_perm"
  top: "fc7_mbox_loc_flat"
  flatten_param {
    axis: 1
  }
}
layer {
  name: "fc7_mbox_conf"
  type: "Convolution"
  bottom: "fc7"
  top: "fc7_mbox_conf"
  param {
    lr_mult: 1
    decay_mult: 1
  }
  param {
    lr_mult: 2
    decay_mult: 0
  }
  convolution_param {
    num_output: 24
    pad: 1
    kernel_size: 3
    stride: 1
    weight_filler {
      type: "xavier"
    }
    bias_filler {
      type: "constant"
      value: 0
    }
  }
}
layer {
  name: "fc7_mbox_conf_perm"
  type: "Permute"
  bottom: "fc7_mbox_conf"
  top: "fc7_mbox_conf_perm"
  permute_param {
    order: 0
    order: 2
    order: 3
    order: 1
  }
}
layer {
  name: "fc7_mbox_conf_flat"
  type: "Flatten"
  bottom: "fc7_mbox_conf_perm"
  top: "fc7_mbox_conf_flat"
  flatten_param {
    axis: 1
  }
}
layer {
  name: "fc7_mbox_priorbox"
  type: "PriorBox"
  bottom: "fc7"
  bottom: "data"
  top: "fc7_mbox_priorbox"
  prior_box_param {
    min_size: 60
    max_size: 111
    aspect_ratio: 2
    aspect_ratio: 3
    flip: true
    clip: false
    variance: 0.1
    variance: 0.1
    variance: 0.2
    variance: 0.2
    step: 16
    offset: 0.5
  }
}
layer {
  name: "conv6_2_mbox_loc"
  type: "Convolution"
  bottom: "conv6_2"
  top: "conv6_2_mbox_loc"
  param {
    lr_mult: 1
    decay_mult: 1
  }
  param {
    lr_mult: 2
    decay_mult: 0
  }
  convolution_param {
    num_output: 24
    pad: 1
    kernel_size: 3
    stride: 1
    weight_filler {
      type: "xavier"
    }
    bias_filler {
      type: "constant"
      value: 0
    }
  }
}
layer {
  name: "conv6_2_mbox_loc_perm"
  type: "Permute"
  bottom: "conv6_2_mbox_loc"
  top: "conv6_2_mbox_loc_perm"
  permute_param {
    order: 0
    order: 2
    order: 3
    order: 1
  }
}
layer {
  name: "conv6_2_mbox_loc_flat"
  type: "Flatten"
  bottom: "conv6_2_mbox_loc_perm"
  top: "conv6_2_mbox_loc_flat"
  flatten_param {
    axis: 1
  }
}
layer {
  name: "conv6_2_mbox_conf"
  type: "Convolution"
  bottom: "conv6_2"
  top: "conv6_2_mbox_conf"
  param {
    lr_mult: 1
    decay_mult: 1
  }
  param {
    lr_mult: 2
    decay_mult: 0
  }
  convolution_param {
    num_output: 24
    pad: 1
    kernel_size: 3
    stride: 1
    weight_filler {
      type: "xavier"
    }
    bias_filler {
      type: "constant"
      value: 0
    }
  }
}
layer {
  name: "conv6_2_mbox_conf_perm"
  type: "Permute"
  bottom: "conv6_2_mbox_conf"
  top: "conv6_2_mbox_conf_perm"
  permute_param {
    order: 0
    order: 2
    order: 3
    order: 1
  }
}
layer {
  name: "conv6_2_mbox_conf_flat"
  type: "Flatten"
  bottom: "conv6_2_mbox_conf_perm"
  top: "conv6_2_mbox_conf_flat"
  flatten_param {
    axis: 1
  }
}
layer {
  name: "conv6_2_mbox_priorbox"
  type: "PriorBox"
  bottom: "conv6_2"
  bottom: "data"
  top: "conv6_2_mbox_priorbox"
  prior_box_param {
    min_size: 111
    max_size: 162
    aspect_ratio: 2
    aspect_ratio: 3
    flip: true
    clip: false
    variance: 0.1
    variance: 0.1
    variance: 0.2
    variance: 0.2
    step: 32
    offset: 0.5
  }
}
layer {
  name: "conv7_2_mbox_loc"
  type: "Convolution"
  bottom: "conv7_2"
  top: "conv7_2_mbox_loc"
  param {
    lr_mult: 1
    decay_mult: 1
  }
  param {
    lr_mult: 2
    decay_mult: 0
  }
  convolution_param {
    num_output: 24
    pad: 1
    kernel_size: 3
    stride: 1
    weight_filler {
      type: "xavier"
    }
    bias_filler {
      type: "constant"
      value: 0
    }
  }
}
layer {
  name: "conv7_2_mbox_loc_perm"
  type: "Permute"
  bottom: "conv7_2_mbox_loc"
  top: "conv7_2_mbox_loc_perm"
  permute_param {
    order: 0
    order: 2
    order: 3
    order: 1
  }
}
layer {
  name: "conv7_2_mbox_loc_flat"
  type: "Flatten"
  bottom: "conv7_2_mbox_loc_perm"
  top: "conv7_2_mbox_loc_flat"
  flatten_param {
    axis: 1
  }
}
layer {
  name: "conv7_2_mbox_conf"
  type: "Convolution"
  bottom: "conv7_2"
  top: "conv7_2_mbox_conf"
  param {
    lr_mult: 1
    decay_mult: 1
  }
  param {
    lr_mult: 2
    decay_mult: 0
  }
  convolution_param {
    num_output: 24
    pad: 1
    kernel_size: 3
    stride: 1
    weight_filler {
      type: "xavier"
    }
    bias_filler {
      type: "constant"
      value: 0
    }
  }
}
layer {
  name: "conv7_2_mbox_conf_perm"
  type: "Permute"
  bottom: "conv7_2_mbox_conf"
  top: "conv7_2_mbox_conf_perm"
  permute_param {
    order: 0
    order: 2
    order: 3
    order: 1
  }
}
layer {
  name: "conv7_2_mbox_conf_flat"
  type: "Flatten"
  bottom: "conv7_2_mbox_conf_perm"
  top: "conv7_2_mbox_conf_flat"
  flatten_param {
    axis: 1
  }
}
layer {
  name: "conv7_2_mbox_priorbox"
  type: "PriorBox"
  bottom: "conv7_2"
  bottom: "data"
  top: "conv7_2_mbox_priorbox"
  prior_box_param {
    min_size: 162
    max_size: 213
    aspect_ratio: 2
    aspect_ratio: 3
    flip: true
    clip: false
    variance: 0.1
    variance: 0.1
    variance: 0.2
    variance: 0.2
    step: 64
    offset: 0.5
  }
}
layer {
  name: "conv8_2_mbox_loc"
  type: "Convolution"
  bottom: "conv8_2"
  top: "conv8_2_mbox_loc"
  param {
    lr_mult: 1
    decay_mult: 1
  }
  param {
    lr_mult: 2
    decay_mult: 0
  }
  convolution_param {
    num_output: 16
    pad: 1
    kernel_size: 3
    stride: 1
    weight_filler {
      type: "xavier"
    }
    bias_filler {
      type: "constant"
      value: 0
    }
  }
}
layer {
  name: "conv8_2_mbox_loc_perm"
  type: "Permute"
  bottom: "conv8_2_mbox_loc"
  top: "conv8_2_mbox_loc_perm"
  permute_param {
    order: 0
    order: 2
    order: 3
    order: 1
  }
}
layer {
  name: "conv8_2_mbox_loc_flat"
  type: "Flatten"
  bottom: "conv8_2_mbox_loc_perm"
  top: "conv8_2_mbox_loc_flat"
  flatten_param {
    axis: 1
  }
}
layer {
  name: "conv8_2_mbox_conf"
  type: "Convolution"
  bottom: "conv8_2"
  top: "conv8_2_mbox_conf"
  param {
    lr_mult: 1
    decay_mult: 1
  }
  param {
    lr_mult: 2
    decay_mult: 0
  }
  convolution_param {
    num_output: 16
    pad: 1
    kernel_size: 3
    stride: 1
    weight_filler {
      type: "xavier"
    }
    bias_filler {
      type: "constant"
      value: 0
    }
  }
}
layer {
  name: "conv8_2_mbox_conf_perm"
  type: "Permute"
  bottom: "conv8_2_mbox_conf"
  top: "conv8_2_mbox_conf_perm"
  permute_param {
    order: 0
    order: 2
    order: 3
    order: 1
  }
}
layer {
  name: "conv8_2_mbox_conf_flat"
  type: "Flatten"
  bottom: "conv8_2_mbox_conf_perm"
  top: "conv8_2_mbox_conf_flat"
  flatten_param {
    axis: 1
  }
}
layer {
  name: "conv8_2_mbox_priorbox"
  type: "PriorBox"
  bottom: "conv8_2"
  bottom: "data"
  top: "conv8_2_mbox_priorbox"
  prior_box_param {
    min_size: 213
    max_size: 264
    aspect_ratio: 2
    flip: true
    clip: false
    variance: 0.1
    variance: 0.1
    variance: 0.2
    variance: 0.2
    step: 100
    offset: 0.5
  }
}
layer {
  name: "conv9_2_mbox_loc"
  type: "Convolution"
  bottom: "conv9_2"
  top: "conv9_2_mbox_loc"
  param {
    lr_mult: 1
    decay_mult: 1
  }
  param {
    lr_mult: 2
    decay_mult: 0
  }
  convolution_param {
    num_output: 16
    pad: 1
    kernel_size: 3
    stride: 1
    weight_filler {
      type: "xavier"
    }
    bias_filler {
      type: "constant"
      value: 0
    }
  }
}
layer {
  name: "conv9_2_mbox_loc_perm"
  type: "Permute"
  bottom: "conv9_2_mbox_loc"
  top: "conv9_2_mbox_loc_perm"
  permute_param {
    order: 0
    order: 2
    order: 3
    order: 1
  }
}
layer {
  name: "conv9_2_mbox_loc_flat"
  type: "Flatten"
  bottom: "conv9_2_mbox_loc_perm"
  top: "conv9_2_mbox_loc_flat"
  flatten_param {
    axis: 1
  }
}
layer {
  name: "conv9_2_mbox_conf"
  type: "Convolution"
  bottom: "conv9_2"
  top: "conv9_2_mbox_conf"
  param {
    lr_mult: 1
    decay_mult: 1
  }
  param {
    lr_mult: 2
    decay_mult: 0
  }
  convolution_param {
    num_output: 16
    pad: 1
    kernel_size: 3
    stride: 1
    weight_filler {
      type: "xavier"
    }
    bias_filler {
      type: "constant"
      value: 0
    }
  }
}
layer {
  name: "conv9_2_mbox_conf_perm"
  type: "Permute"
  bottom: "conv9_2_mbox_conf"
  top: "conv9_2_mbox_conf_perm"
  permute_param {
    order: 0
    order: 2
    order: 3
    order: 1
  }
}
layer {
  name: "conv9_2_mbox_conf_flat"
  type: "Flatten"
  bottom: "conv9_2_mbox_conf_perm"
  top: "conv9_2_mbox_conf_flat"
  flatten_param {
    axis: 1
  }
}
layer {
  name: "conv9_2_mbox_priorbox"
  type: "PriorBox"
  bottom: "conv9_2"
  bottom: "data"
  top: "conv9_2_mbox_priorbox"
  prior_box_param {
    min_size: 264
    max_size: 315
    aspect_ratio: 2
    flip: true
    clip: false
    variance: 0.1
    variance: 0.1
    variance: 0.2
    variance: 0.2
    step: 300
    offset: 0.5
  }
}
layer {
  name: "mbox_loc"
  type: "Concat"
  bottom: "conv4_3_norm_mbox_loc_flat"
  bottom: "fc7_mbox_loc_flat"
  bottom: "conv6_2_mbox_loc_flat"
  bottom: "conv7_2_mbox_loc_flat"
  bottom: "conv8_2_mbox_loc_flat"
  bottom: "conv9_2_mbox_loc_flat"
  top: "mbox_loc"
  concat_param {
    axis: 1
  }
}
layer {
  name: "mbox_conf"
  type: "Concat"
  bottom: "conv4_3_norm_mbox_conf_flat"
  bottom: "fc7_mbox_conf_flat"
  bottom: "conv6_2_mbox_conf_flat"
  bottom: "conv7_2_mbox_conf_flat"
  bottom: "conv8_2_mbox_conf_flat"
  bottom: "conv9_2_mbox_conf_flat"
  top: "mbox_conf"
  concat_param {
    axis: 1
  }
}
layer {
  name: "mbox_priorbox"
  type: "Concat"
  bottom: "conv4_3_norm_mbox_priorbox"
  bottom: "fc7_mbox_priorbox"
  bottom: "conv6_2_mbox_priorbox"
  bottom: "conv7_2_mbox_priorbox"
  bottom: "conv8_2_mbox_priorbox"
  bottom: "conv9_2_mbox_priorbox"
  top: "mbox_priorbox"
  concat_param {
    axis: 2
  }
}
layer {
  name: "mbox_conf_reshape"
  type: "Reshape"
  bottom: "mbox_conf"
  top: "mbox_conf_reshape"
  reshape_param {
    shape {
      dim: 0
      dim: -1
      dim: 4
    }
  }
}
layer {
  name: "mbox_conf_softmax"
  type: "Softmax"
  bottom: "mbox_conf_reshape"
  top: "mbox_conf_softmax"
  softmax_param {
    axis: 2
  }
}
layer {
  name: "mbox_conf_flatten"
  type: "Flatten"
  bottom: "mbox_conf_softmax"
  top: "mbox_conf_flatten"
  flatten_param {
    axis: 1
  }
}
layer {
  name: "detection_out"
  type: "DetectionOutput"
  bottom: "mbox_loc"
  bottom: "mbox_conf_flatten"
  bottom: "mbox_priorbox"
  top: "detection_out"
  include {
    phase: TEST
  }
  detection_output_param {
    num_classes: 4
    share_location: true
    background_label_id: 0
    nms_param {
      nms_threshold: 0.45
      top_k: 400
    }
    save_output_param {
      output_directory: "/home/shangzw/data/tbs/results/tbs/SSD_300x300/Main"
      output_name_prefix: "comp4_det_test_"
      output_format: "VOC"
      label_map_file: "data/tbs_300x300_HSIL_10x/labelmap_tbs.prototxt"
      name_size_file: "data/VOC0712/test_name_size.txt"
      num_test_image: 100
    }
    code_type: CENTER_SIZE
    keep_top_k: 200
    confidence_threshold: 0.01
  }
}
layer {
  name: "detection_eval"
  type: "DetectionEvaluate"
  bottom: "detection_out"
  bottom: "label"
  top: "detection_eval"
  include {
    phase: TEST
  }
  detection_evaluate_param {
    num_classes: 4
    background_label_id: 0
    overlap_threshold: 0.5
    evaluate_difficult_gt: false
    name_size_file: "data/VOC0712/test_name_size.txt"
  }
}
I0531 10:33:35.442874  7148 layer_factory.hpp:77] Creating layer data
I0531 10:33:35.443037  7148 net.cpp:100] Creating Layer data
I0531 10:33:35.443048  7148 net.cpp:408] data -> data
I0531 10:33:35.443059  7148 net.cpp:408] data -> label
I0531 10:33:35.443495  7168 db_lmdb.cpp:35] Opened lmdb examples/tbs_300x300_HSIL_10x/tbs_300x300_HSIL_10x_test_lmdb
I0531 10:33:35.444205  7148 annotated_data_layer.cpp:62] output data size: 4,3,300,300
I0531 10:33:35.453428  7148 net.cpp:150] Setting up data
I0531 10:33:35.453447  7148 net.cpp:157] Top shape: 4 3 300 300 (1080000)
I0531 10:33:35.453454  7148 net.cpp:157] Top shape: 1 1 1 8 (8)
I0531 10:33:35.453455  7148 net.cpp:165] Memory required for data: 4320032
I0531 10:33:35.453461  7148 layer_factory.hpp:77] Creating layer data_data_0_split
I0531 10:33:35.453490  7148 net.cpp:100] Creating Layer data_data_0_split
I0531 10:33:35.453502  7148 net.cpp:434] data_data_0_split <- data
I0531 10:33:35.453511  7148 net.cpp:408] data_data_0_split -> data_data_0_split_0
I0531 10:33:35.453537  7148 net.cpp:408] data_data_0_split -> data_data_0_split_1
I0531 10:33:35.453546  7148 net.cpp:408] data_data_0_split -> data_data_0_split_2
I0531 10:33:35.453554  7148 net.cpp:408] data_data_0_split -> data_data_0_split_3
I0531 10:33:35.453562  7148 net.cpp:408] data_data_0_split -> data_data_0_split_4
I0531 10:33:35.453569  7148 net.cpp:408] data_data_0_split -> data_data_0_split_5
I0531 10:33:35.453577  7148 net.cpp:408] data_data_0_split -> data_data_0_split_6
I0531 10:33:35.453660  7148 net.cpp:150] Setting up data_data_0_split
I0531 10:33:35.453666  7148 net.cpp:157] Top shape: 4 3 300 300 (1080000)
I0531 10:33:35.453671  7148 net.cpp:157] Top shape: 4 3 300 300 (1080000)
I0531 10:33:35.453676  7148 net.cpp:157] Top shape: 4 3 300 300 (1080000)
I0531 10:33:35.453680  7148 net.cpp:157] Top shape: 4 3 300 300 (1080000)
I0531 10:33:35.453687  7148 net.cpp:157] Top shape: 4 3 300 300 (1080000)
I0531 10:33:35.453704  7148 net.cpp:157] Top shape: 4 3 300 300 (1080000)
I0531 10:33:35.453709  7148 net.cpp:157] Top shape: 4 3 300 300 (1080000)
I0531 10:33:35.453712  7148 net.cpp:165] Memory required for data: 34560032
I0531 10:33:35.453717  7148 layer_factory.hpp:77] Creating layer conv1_1
I0531 10:33:35.453729  7148 net.cpp:100] Creating Layer conv1_1
I0531 10:33:35.453733  7148 net.cpp:434] conv1_1 <- data_data_0_split_0
I0531 10:33:35.453740  7148 net.cpp:408] conv1_1 -> conv1_1
I0531 10:33:35.454013  7148 net.cpp:150] Setting up conv1_1
I0531 10:33:35.454020  7148 net.cpp:157] Top shape: 4 64 300 300 (23040000)
I0531 10:33:35.454025  7148 net.cpp:165] Memory required for data: 126720032
I0531 10:33:35.454035  7148 layer_factory.hpp:77] Creating layer relu1_1
I0531 10:33:35.454041  7148 net.cpp:100] Creating Layer relu1_1
I0531 10:33:35.454046  7148 net.cpp:434] relu1_1 <- conv1_1
I0531 10:33:35.454051  7148 net.cpp:395] relu1_1 -> conv1_1 (in-place)
I0531 10:33:35.454058  7148 net.cpp:150] Setting up relu1_1
I0531 10:33:35.454066  7148 net.cpp:157] Top shape: 4 64 300 300 (23040000)
I0531 10:33:35.454069  7148 net.cpp:165] Memory required for data: 218880032
I0531 10:33:35.454072  7148 layer_factory.hpp:77] Creating layer conv1_2
I0531 10:33:35.454082  7148 net.cpp:100] Creating Layer conv1_2
I0531 10:33:35.454085  7148 net.cpp:434] conv1_2 <- conv1_1
I0531 10:33:35.454092  7148 net.cpp:408] conv1_2 -> conv1_2
I0531 10:33:35.454444  7148 net.cpp:150] Setting up conv1_2
I0531 10:33:35.454452  7148 net.cpp:157] Top shape: 4 64 300 300 (23040000)
I0531 10:33:35.454457  7148 net.cpp:165] Memory required for data: 311040032
I0531 10:33:35.454464  7148 layer_factory.hpp:77] Creating layer relu1_2
I0531 10:33:35.454470  7148 net.cpp:100] Creating Layer relu1_2
I0531 10:33:35.454474  7148 net.cpp:434] relu1_2 <- conv1_2
I0531 10:33:35.454481  7148 net.cpp:395] relu1_2 -> conv1_2 (in-place)
I0531 10:33:35.454488  7148 net.cpp:150] Setting up relu1_2
I0531 10:33:35.454493  7148 net.cpp:157] Top shape: 4 64 300 300 (23040000)
I0531 10:33:35.454497  7148 net.cpp:165] Memory required for data: 403200032
I0531 10:33:35.454501  7148 layer_factory.hpp:77] Creating layer pool1
I0531 10:33:35.454507  7148 net.cpp:100] Creating Layer pool1
I0531 10:33:35.454511  7148 net.cpp:434] pool1 <- conv1_2
I0531 10:33:35.454516  7148 net.cpp:408] pool1 -> pool1
I0531 10:33:35.454548  7148 net.cpp:150] Setting up pool1
I0531 10:33:35.454555  7148 net.cpp:157] Top shape: 4 64 150 150 (5760000)
I0531 10:33:35.454558  7148 net.cpp:165] Memory required for data: 426240032
I0531 10:33:35.454561  7148 layer_factory.hpp:77] Creating layer conv2_1
I0531 10:33:35.454569  7148 net.cpp:100] Creating Layer conv2_1
I0531 10:33:35.454573  7148 net.cpp:434] conv2_1 <- pool1
I0531 10:33:35.454581  7148 net.cpp:408] conv2_1 -> conv2_1
I0531 10:33:35.456812  7148 net.cpp:150] Setting up conv2_1
I0531 10:33:35.456823  7148 net.cpp:157] Top shape: 4 128 150 150 (11520000)
I0531 10:33:35.456827  7148 net.cpp:165] Memory required for data: 472320032
I0531 10:33:35.456838  7148 layer_factory.hpp:77] Creating layer relu2_1
I0531 10:33:35.456847  7148 net.cpp:100] Creating Layer relu2_1
I0531 10:33:35.456852  7148 net.cpp:434] relu2_1 <- conv2_1
I0531 10:33:35.456857  7148 net.cpp:395] relu2_1 -> conv2_1 (in-place)
I0531 10:33:35.456878  7148 net.cpp:150] Setting up relu2_1
I0531 10:33:35.456887  7148 net.cpp:157] Top shape: 4 128 150 150 (11520000)
I0531 10:33:35.456890  7148 net.cpp:165] Memory required for data: 518400032
I0531 10:33:35.456894  7148 layer_factory.hpp:77] Creating layer conv2_2
I0531 10:33:35.456903  7148 net.cpp:100] Creating Layer conv2_2
I0531 10:33:35.456907  7148 net.cpp:434] conv2_2 <- conv2_1
I0531 10:33:35.456913  7148 net.cpp:408] conv2_2 -> conv2_2
I0531 10:33:35.458307  7148 net.cpp:150] Setting up conv2_2
I0531 10:33:35.458318  7148 net.cpp:157] Top shape: 4 128 150 150 (11520000)
I0531 10:33:35.458323  7148 net.cpp:165] Memory required for data: 564480032
I0531 10:33:35.458330  7148 layer_factory.hpp:77] Creating layer relu2_2
I0531 10:33:35.458348  7148 net.cpp:100] Creating Layer relu2_2
I0531 10:33:35.458351  7148 net.cpp:434] relu2_2 <- conv2_2
I0531 10:33:35.458359  7148 net.cpp:395] relu2_2 -> conv2_2 (in-place)
I0531 10:33:35.458365  7148 net.cpp:150] Setting up relu2_2
I0531 10:33:35.458371  7148 net.cpp:157] Top shape: 4 128 150 150 (11520000)
I0531 10:33:35.458375  7148 net.cpp:165] Memory required for data: 610560032
I0531 10:33:35.458380  7148 layer_factory.hpp:77] Creating layer pool2
I0531 10:33:35.458386  7148 net.cpp:100] Creating Layer pool2
I0531 10:33:35.458390  7148 net.cpp:434] pool2 <- conv2_2
I0531 10:33:35.458395  7148 net.cpp:408] pool2 -> pool2
I0531 10:33:35.458429  7148 net.cpp:150] Setting up pool2
I0531 10:33:35.458436  7148 net.cpp:157] Top shape: 4 128 75 75 (2880000)
I0531 10:33:35.458438  7148 net.cpp:165] Memory required for data: 622080032
I0531 10:33:35.458442  7148 layer_factory.hpp:77] Creating layer conv3_1
I0531 10:33:35.458451  7148 net.cpp:100] Creating Layer conv3_1
I0531 10:33:35.458454  7148 net.cpp:434] conv3_1 <- pool2
I0531 10:33:35.458461  7148 net.cpp:408] conv3_1 -> conv3_1
I0531 10:33:35.459797  7148 net.cpp:150] Setting up conv3_1
I0531 10:33:35.459805  7148 net.cpp:157] Top shape: 4 256 75 75 (5760000)
I0531 10:33:35.459808  7148 net.cpp:165] Memory required for data: 645120032
I0531 10:33:35.459818  7148 layer_factory.hpp:77] Creating layer relu3_1
I0531 10:33:35.459826  7148 net.cpp:100] Creating Layer relu3_1
I0531 10:33:35.459831  7148 net.cpp:434] relu3_1 <- conv3_1
I0531 10:33:35.459836  7148 net.cpp:395] relu3_1 -> conv3_1 (in-place)
I0531 10:33:35.459843  7148 net.cpp:150] Setting up relu3_1
I0531 10:33:35.459849  7148 net.cpp:157] Top shape: 4 256 75 75 (5760000)
I0531 10:33:35.459854  7148 net.cpp:165] Memory required for data: 668160032
I0531 10:33:35.459858  7148 layer_factory.hpp:77] Creating layer conv3_2
I0531 10:33:35.459867  7148 net.cpp:100] Creating Layer conv3_2
I0531 10:33:35.459870  7148 net.cpp:434] conv3_2 <- conv3_1
I0531 10:33:35.459877  7148 net.cpp:408] conv3_2 -> conv3_2
I0531 10:33:35.463706  7148 net.cpp:150] Setting up conv3_2
I0531 10:33:35.463729  7148 net.cpp:157] Top shape: 4 256 75 75 (5760000)
I0531 10:33:35.463733  7148 net.cpp:165] Memory required for data: 691200032
I0531 10:33:35.463742  7148 layer_factory.hpp:77] Creating layer relu3_2
I0531 10:33:35.463754  7148 net.cpp:100] Creating Layer relu3_2
I0531 10:33:35.463759  7148 net.cpp:434] relu3_2 <- conv3_2
I0531 10:33:35.463766  7148 net.cpp:395] relu3_2 -> conv3_2 (in-place)
I0531 10:33:35.463775  7148 net.cpp:150] Setting up relu3_2
I0531 10:33:35.463781  7148 net.cpp:157] Top shape: 4 256 75 75 (5760000)
I0531 10:33:35.463785  7148 net.cpp:165] Memory required for data: 714240032
I0531 10:33:35.463788  7148 layer_factory.hpp:77] Creating layer conv3_3
I0531 10:33:35.463802  7148 net.cpp:100] Creating Layer conv3_3
I0531 10:33:35.463806  7148 net.cpp:434] conv3_3 <- conv3_2
I0531 10:33:35.463812  7148 net.cpp:408] conv3_3 -> conv3_3
I0531 10:33:35.467124  7148 net.cpp:150] Setting up conv3_3
I0531 10:33:35.467139  7148 net.cpp:157] Top shape: 4 256 75 75 (5760000)
I0531 10:33:35.467142  7148 net.cpp:165] Memory required for data: 737280032
I0531 10:33:35.467149  7148 layer_factory.hpp:77] Creating layer relu3_3
I0531 10:33:35.467159  7148 net.cpp:100] Creating Layer relu3_3
I0531 10:33:35.467164  7148 net.cpp:434] relu3_3 <- conv3_3
I0531 10:33:35.467172  7148 net.cpp:395] relu3_3 -> conv3_3 (in-place)
I0531 10:33:35.467180  7148 net.cpp:150] Setting up relu3_3
I0531 10:33:35.467185  7148 net.cpp:157] Top shape: 4 256 75 75 (5760000)
I0531 10:33:35.467190  7148 net.cpp:165] Memory required for data: 760320032
I0531 10:33:35.467195  7148 layer_factory.hpp:77] Creating layer pool3
I0531 10:33:35.467201  7148 net.cpp:100] Creating Layer pool3
I0531 10:33:35.467206  7148 net.cpp:434] pool3 <- conv3_3
I0531 10:33:35.467212  7148 net.cpp:408] pool3 -> pool3
I0531 10:33:35.467249  7148 net.cpp:150] Setting up pool3
I0531 10:33:35.467257  7148 net.cpp:157] Top shape: 4 256 38 38 (1478656)
I0531 10:33:35.467259  7148 net.cpp:165] Memory required for data: 766234656
I0531 10:33:35.467272  7148 layer_factory.hpp:77] Creating layer conv4_1
I0531 10:33:35.467283  7148 net.cpp:100] Creating Layer conv4_1
I0531 10:33:35.467288  7148 net.cpp:434] conv4_1 <- pool3
I0531 10:33:35.467293  7148 net.cpp:408] conv4_1 -> conv4_1
I0531 10:33:35.473548  7148 net.cpp:150] Setting up conv4_1
I0531 10:33:35.473567  7148 net.cpp:157] Top shape: 4 512 38 38 (2957312)
I0531 10:33:35.473572  7148 net.cpp:165] Memory required for data: 778063904
I0531 10:33:35.473578  7148 layer_factory.hpp:77] Creating layer relu4_1
I0531 10:33:35.473587  7148 net.cpp:100] Creating Layer relu4_1
I0531 10:33:35.473592  7148 net.cpp:434] relu4_1 <- conv4_1
I0531 10:33:35.473600  7148 net.cpp:395] relu4_1 -> conv4_1 (in-place)
I0531 10:33:35.473609  7148 net.cpp:150] Setting up relu4_1
I0531 10:33:35.473616  7148 net.cpp:157] Top shape: 4 512 38 38 (2957312)
I0531 10:33:35.473619  7148 net.cpp:165] Memory required for data: 789893152
I0531 10:33:35.473623  7148 layer_factory.hpp:77] Creating layer conv4_2
I0531 10:33:35.473634  7148 net.cpp:100] Creating Layer conv4_2
I0531 10:33:35.473639  7148 net.cpp:434] conv4_2 <- conv4_1
I0531 10:33:35.473644  7148 net.cpp:408] conv4_2 -> conv4_2
I0531 10:33:35.485378  7148 net.cpp:150] Setting up conv4_2
I0531 10:33:35.485396  7148 net.cpp:157] Top shape: 4 512 38 38 (2957312)
I0531 10:33:35.485400  7148 net.cpp:165] Memory required for data: 801722400
I0531 10:33:35.485414  7148 layer_factory.hpp:77] Creating layer relu4_2
I0531 10:33:35.485424  7148 net.cpp:100] Creating Layer relu4_2
I0531 10:33:35.485430  7148 net.cpp:434] relu4_2 <- conv4_2
I0531 10:33:35.485438  7148 net.cpp:395] relu4_2 -> conv4_2 (in-place)
I0531 10:33:35.485446  7148 net.cpp:150] Setting up relu4_2
I0531 10:33:35.485453  7148 net.cpp:157] Top shape: 4 512 38 38 (2957312)
I0531 10:33:35.485457  7148 net.cpp:165] Memory required for data: 813551648
I0531 10:33:35.485460  7148 layer_factory.hpp:77] Creating layer conv4_3
I0531 10:33:35.485476  7148 net.cpp:100] Creating Layer conv4_3
I0531 10:33:35.485481  7148 net.cpp:434] conv4_3 <- conv4_2
I0531 10:33:35.485486  7148 net.cpp:408] conv4_3 -> conv4_3
I0531 10:33:35.497928  7148 net.cpp:150] Setting up conv4_3
I0531 10:33:35.497944  7148 net.cpp:157] Top shape: 4 512 38 38 (2957312)
I0531 10:33:35.497949  7148 net.cpp:165] Memory required for data: 825380896
I0531 10:33:35.497957  7148 layer_factory.hpp:77] Creating layer relu4_3
I0531 10:33:35.497982  7148 net.cpp:100] Creating Layer relu4_3
I0531 10:33:35.497989  7148 net.cpp:434] relu4_3 <- conv4_3
I0531 10:33:35.497997  7148 net.cpp:395] relu4_3 -> conv4_3 (in-place)
I0531 10:33:35.498006  7148 net.cpp:150] Setting up relu4_3
I0531 10:33:35.498013  7148 net.cpp:157] Top shape: 4 512 38 38 (2957312)
I0531 10:33:35.498015  7148 net.cpp:165] Memory required for data: 837210144
I0531 10:33:35.498021  7148 layer_factory.hpp:77] Creating layer conv4_3_relu4_3_0_split
I0531 10:33:35.498029  7148 net.cpp:100] Creating Layer conv4_3_relu4_3_0_split
I0531 10:33:35.498034  7148 net.cpp:434] conv4_3_relu4_3_0_split <- conv4_3
I0531 10:33:35.498054  7148 net.cpp:408] conv4_3_relu4_3_0_split -> conv4_3_relu4_3_0_split_0
I0531 10:33:35.498064  7148 net.cpp:408] conv4_3_relu4_3_0_split -> conv4_3_relu4_3_0_split_1
I0531 10:33:35.498100  7148 net.cpp:150] Setting up conv4_3_relu4_3_0_split
I0531 10:33:35.498106  7148 net.cpp:157] Top shape: 4 512 38 38 (2957312)
I0531 10:33:35.498111  7148 net.cpp:157] Top shape: 4 512 38 38 (2957312)
I0531 10:33:35.498114  7148 net.cpp:165] Memory required for data: 860868640
I0531 10:33:35.498118  7148 layer_factory.hpp:77] Creating layer pool4
I0531 10:33:35.498124  7148 net.cpp:100] Creating Layer pool4
I0531 10:33:35.498128  7148 net.cpp:434] pool4 <- conv4_3_relu4_3_0_split_0
I0531 10:33:35.498136  7148 net.cpp:408] pool4 -> pool4
I0531 10:33:35.498167  7148 net.cpp:150] Setting up pool4
I0531 10:33:35.498173  7148 net.cpp:157] Top shape: 4 512 19 19 (739328)
I0531 10:33:35.498176  7148 net.cpp:165] Memory required for data: 863825952
I0531 10:33:35.498190  7148 layer_factory.hpp:77] Creating layer conv5_1
I0531 10:33:35.498204  7148 net.cpp:100] Creating Layer conv5_1
I0531 10:33:35.498209  7148 net.cpp:434] conv5_1 <- pool4
I0531 10:33:35.498216  7148 net.cpp:408] conv5_1 -> conv5_1
I0531 10:33:35.509891  7148 net.cpp:150] Setting up conv5_1
I0531 10:33:35.509909  7148 net.cpp:157] Top shape: 4 512 19 19 (739328)
I0531 10:33:35.509913  7148 net.cpp:165] Memory required for data: 866783264
I0531 10:33:35.509920  7148 layer_factory.hpp:77] Creating layer relu5_1
I0531 10:33:35.509945  7148 net.cpp:100] Creating Layer relu5_1
I0531 10:33:35.509955  7148 net.cpp:434] relu5_1 <- conv5_1
I0531 10:33:35.509964  7148 net.cpp:395] relu5_1 -> conv5_1 (in-place)
I0531 10:33:35.509974  7148 net.cpp:150] Setting up relu5_1
I0531 10:33:35.509997  7148 net.cpp:157] Top shape: 4 512 19 19 (739328)
I0531 10:33:35.510001  7148 net.cpp:165] Memory required for data: 869740576
I0531 10:33:35.510005  7148 layer_factory.hpp:77] Creating layer conv5_2
I0531 10:33:35.510015  7148 net.cpp:100] Creating Layer conv5_2
I0531 10:33:35.510018  7148 net.cpp:434] conv5_2 <- conv5_1
I0531 10:33:35.510026  7148 net.cpp:408] conv5_2 -> conv5_2
I0531 10:33:35.521677  7148 net.cpp:150] Setting up conv5_2
I0531 10:33:35.521698  7148 net.cpp:157] Top shape: 4 512 19 19 (739328)
I0531 10:33:35.521703  7148 net.cpp:165] Memory required for data: 872697888
I0531 10:33:35.521710  7148 layer_factory.hpp:77] Creating layer relu5_2
I0531 10:33:35.521733  7148 net.cpp:100] Creating Layer relu5_2
I0531 10:33:35.521739  7148 net.cpp:434] relu5_2 <- conv5_2
I0531 10:33:35.521764  7148 net.cpp:395] relu5_2 -> conv5_2 (in-place)
I0531 10:33:35.521786  7148 net.cpp:150] Setting up relu5_2
I0531 10:33:35.521811  7148 net.cpp:157] Top shape: 4 512 19 19 (739328)
I0531 10:33:35.521813  7148 net.cpp:165] Memory required for data: 875655200
I0531 10:33:35.521818  7148 layer_factory.hpp:77] Creating layer conv5_3
I0531 10:33:35.521828  7148 net.cpp:100] Creating Layer conv5_3
I0531 10:33:35.521832  7148 net.cpp:434] conv5_3 <- conv5_2
I0531 10:33:35.521841  7148 net.cpp:408] conv5_3 -> conv5_3
I0531 10:33:35.534046  7148 net.cpp:150] Setting up conv5_3
I0531 10:33:35.534063  7148 net.cpp:157] Top shape: 4 512 19 19 (739328)
I0531 10:33:35.534067  7148 net.cpp:165] Memory required for data: 878612512
I0531 10:33:35.534075  7148 layer_factory.hpp:77] Creating layer relu5_3
I0531 10:33:35.534106  7148 net.cpp:100] Creating Layer relu5_3
I0531 10:33:35.534123  7148 net.cpp:434] relu5_3 <- conv5_3
I0531 10:33:35.534131  7148 net.cpp:395] relu5_3 -> conv5_3 (in-place)
I0531 10:33:35.534140  7148 net.cpp:150] Setting up relu5_3
I0531 10:33:35.534145  7148 net.cpp:157] Top shape: 4 512 19 19 (739328)
I0531 10:33:35.534149  7148 net.cpp:165] Memory required for data: 881569824
I0531 10:33:35.534152  7148 layer_factory.hpp:77] Creating layer pool5
I0531 10:33:35.534173  7148 net.cpp:100] Creating Layer pool5
I0531 10:33:35.534181  7148 net.cpp:434] pool5 <- conv5_3
I0531 10:33:35.534188  7148 net.cpp:408] pool5 -> pool5
I0531 10:33:35.534229  7148 net.cpp:150] Setting up pool5
I0531 10:33:35.534235  7148 net.cpp:157] Top shape: 4 512 19 19 (739328)
I0531 10:33:35.534240  7148 net.cpp:165] Memory required for data: 884527136
I0531 10:33:35.534242  7148 layer_factory.hpp:77] Creating layer fc6
I0531 10:33:35.534253  7148 net.cpp:100] Creating Layer fc6
I0531 10:33:35.534257  7148 net.cpp:434] fc6 <- pool5
I0531 10:33:35.534265  7148 net.cpp:408] fc6 -> fc6
I0531 10:33:35.556521  7148 net.cpp:150] Setting up fc6
I0531 10:33:35.556543  7148 net.cpp:157] Top shape: 4 1024 19 19 (1478656)
I0531 10:33:35.556546  7148 net.cpp:165] Memory required for data: 890441760
I0531 10:33:35.556555  7148 layer_factory.hpp:77] Creating layer relu6
I0531 10:33:35.556581  7148 net.cpp:100] Creating Layer relu6
I0531 10:33:35.556586  7148 net.cpp:434] relu6 <- fc6
I0531 10:33:35.556592  7148 net.cpp:395] relu6 -> fc6 (in-place)
I0531 10:33:35.556630  7148 net.cpp:150] Setting up relu6
I0531 10:33:35.556637  7148 net.cpp:157] Top shape: 4 1024 19 19 (1478656)
I0531 10:33:35.556661  7148 net.cpp:165] Memory required for data: 896356384
I0531 10:33:35.556681  7148 layer_factory.hpp:77] Creating layer fc7
I0531 10:33:35.556694  7148 net.cpp:100] Creating Layer fc7
I0531 10:33:35.556697  7148 net.cpp:434] fc7 <- fc6
I0531 10:33:35.556718  7148 net.cpp:408] fc7 -> fc7
I0531 10:33:35.563246  7148 net.cpp:150] Setting up fc7
I0531 10:33:35.563266  7148 net.cpp:157] Top shape: 4 1024 19 19 (1478656)
I0531 10:33:35.563268  7148 net.cpp:165] Memory required for data: 902271008
I0531 10:33:35.563277  7148 layer_factory.hpp:77] Creating layer relu7
I0531 10:33:35.563300  7148 net.cpp:100] Creating Layer relu7
I0531 10:33:35.563307  7148 net.cpp:434] relu7 <- fc7
I0531 10:33:35.563314  7148 net.cpp:395] relu7 -> fc7 (in-place)
I0531 10:33:35.563323  7148 net.cpp:150] Setting up relu7
I0531 10:33:35.563330  7148 net.cpp:157] Top shape: 4 1024 19 19 (1478656)
I0531 10:33:35.563334  7148 net.cpp:165] Memory required for data: 908185632
I0531 10:33:35.563338  7148 layer_factory.hpp:77] Creating layer fc7_relu7_0_split
I0531 10:33:35.563344  7148 net.cpp:100] Creating Layer fc7_relu7_0_split
I0531 10:33:35.563361  7148 net.cpp:434] fc7_relu7_0_split <- fc7
I0531 10:33:35.563369  7148 net.cpp:408] fc7_relu7_0_split -> fc7_relu7_0_split_0
I0531 10:33:35.563380  7148 net.cpp:408] fc7_relu7_0_split -> fc7_relu7_0_split_1
I0531 10:33:35.563395  7148 net.cpp:408] fc7_relu7_0_split -> fc7_relu7_0_split_2
I0531 10:33:35.563402  7148 net.cpp:408] fc7_relu7_0_split -> fc7_relu7_0_split_3
I0531 10:33:35.563462  7148 net.cpp:150] Setting up fc7_relu7_0_split
I0531 10:33:35.563470  7148 net.cpp:157] Top shape: 4 1024 19 19 (1478656)
I0531 10:33:35.563477  7148 net.cpp:157] Top shape: 4 1024 19 19 (1478656)
I0531 10:33:35.563480  7148 net.cpp:157] Top shape: 4 1024 19 19 (1478656)
I0531 10:33:35.563486  7148 net.cpp:157] Top shape: 4 1024 19 19 (1478656)
I0531 10:33:35.563489  7148 net.cpp:165] Memory required for data: 931844128
I0531 10:33:35.563493  7148 layer_factory.hpp:77] Creating layer conv6_1
I0531 10:33:35.563504  7148 net.cpp:100] Creating Layer conv6_1
I0531 10:33:35.563509  7148 net.cpp:434] conv6_1 <- fc7_relu7_0_split_0
I0531 10:33:35.563516  7148 net.cpp:408] conv6_1 -> conv6_1
I0531 10:33:35.565484  7148 net.cpp:150] Setting up conv6_1
I0531 10:33:35.565495  7148 net.cpp:157] Top shape: 4 256 19 19 (369664)
I0531 10:33:35.565500  7148 net.cpp:165] Memory required for data: 933322784
I0531 10:33:35.565507  7148 layer_factory.hpp:77] Creating layer conv6_1_relu
I0531 10:33:35.565515  7148 net.cpp:100] Creating Layer conv6_1_relu
I0531 10:33:35.565521  7148 net.cpp:434] conv6_1_relu <- conv6_1
I0531 10:33:35.565533  7148 net.cpp:395] conv6_1_relu -> conv6_1 (in-place)
I0531 10:33:35.565542  7148 net.cpp:150] Setting up conv6_1_relu
I0531 10:33:35.565548  7148 net.cpp:157] Top shape: 4 256 19 19 (369664)
I0531 10:33:35.565552  7148 net.cpp:165] Memory required for data: 934801440
I0531 10:33:35.565557  7148 layer_factory.hpp:77] Creating layer conv6_2
I0531 10:33:35.565567  7148 net.cpp:100] Creating Layer conv6_2
I0531 10:33:35.565572  7148 net.cpp:434] conv6_2 <- conv6_1
I0531 10:33:35.565578  7148 net.cpp:408] conv6_2 -> conv6_2
I0531 10:33:35.571576  7148 net.cpp:150] Setting up conv6_2
I0531 10:33:35.571596  7148 net.cpp:157] Top shape: 4 512 10 10 (204800)
I0531 10:33:35.571600  7148 net.cpp:165] Memory required for data: 935620640
I0531 10:33:35.571616  7148 layer_factory.hpp:77] Creating layer conv6_2_relu
I0531 10:33:35.571625  7148 net.cpp:100] Creating Layer conv6_2_relu
I0531 10:33:35.571632  7148 net.cpp:434] conv6_2_relu <- conv6_2
I0531 10:33:35.571640  7148 net.cpp:395] conv6_2_relu -> conv6_2 (in-place)
I0531 10:33:35.571648  7148 net.cpp:150] Setting up conv6_2_relu
I0531 10:33:35.571655  7148 net.cpp:157] Top shape: 4 512 10 10 (204800)
I0531 10:33:35.571666  7148 net.cpp:165] Memory required for data: 936439840
I0531 10:33:35.571669  7148 layer_factory.hpp:77] Creating layer conv6_2_conv6_2_relu_0_split
I0531 10:33:35.571677  7148 net.cpp:100] Creating Layer conv6_2_conv6_2_relu_0_split
I0531 10:33:35.571691  7148 net.cpp:434] conv6_2_conv6_2_relu_0_split <- conv6_2
I0531 10:33:35.571697  7148 net.cpp:408] conv6_2_conv6_2_relu_0_split -> conv6_2_conv6_2_relu_0_split_0
I0531 10:33:35.571707  7148 net.cpp:408] conv6_2_conv6_2_relu_0_split -> conv6_2_conv6_2_relu_0_split_1
I0531 10:33:35.571715  7148 net.cpp:408] conv6_2_conv6_2_relu_0_split -> conv6_2_conv6_2_relu_0_split_2
I0531 10:33:35.571723  7148 net.cpp:408] conv6_2_conv6_2_relu_0_split -> conv6_2_conv6_2_relu_0_split_3
I0531 10:33:35.571784  7148 net.cpp:150] Setting up conv6_2_conv6_2_relu_0_split
I0531 10:33:35.571789  7148 net.cpp:157] Top shape: 4 512 10 10 (204800)
I0531 10:33:35.571794  7148 net.cpp:157] Top shape: 4 512 10 10 (204800)
I0531 10:33:35.571799  7148 net.cpp:157] Top shape: 4 512 10 10 (204800)
I0531 10:33:35.571805  7148 net.cpp:157] Top shape: 4 512 10 10 (204800)
I0531 10:33:35.571810  7148 net.cpp:165] Memory required for data: 939716640
I0531 10:33:35.571812  7148 layer_factory.hpp:77] Creating layer conv7_1
I0531 10:33:35.571822  7148 net.cpp:100] Creating Layer conv7_1
I0531 10:33:35.571827  7148 net.cpp:434] conv7_1 <- conv6_2_conv6_2_relu_0_split_0
I0531 10:33:35.571835  7148 net.cpp:408] conv7_1 -> conv7_1
I0531 10:33:35.572283  7148 net.cpp:150] Setting up conv7_1
I0531 10:33:35.572289  7148 net.cpp:157] Top shape: 4 128 10 10 (51200)
I0531 10:33:35.572294  7148 net.cpp:165] Memory required for data: 939921440
I0531 10:33:35.572300  7148 layer_factory.hpp:77] Creating layer conv7_1_relu
I0531 10:33:35.572306  7148 net.cpp:100] Creating Layer conv7_1_relu
I0531 10:33:35.572311  7148 net.cpp:434] conv7_1_relu <- conv7_1
I0531 10:33:35.572319  7148 net.cpp:395] conv7_1_relu -> conv7_1 (in-place)
I0531 10:33:35.572325  7148 net.cpp:150] Setting up conv7_1_relu
I0531 10:33:35.572330  7148 net.cpp:157] Top shape: 4 128 10 10 (51200)
I0531 10:33:35.572335  7148 net.cpp:165] Memory required for data: 940126240
I0531 10:33:35.572338  7148 layer_factory.hpp:77] Creating layer conv7_2
I0531 10:33:35.572346  7148 net.cpp:100] Creating Layer conv7_2
I0531 10:33:35.572350  7148 net.cpp:434] conv7_2 <- conv7_1
I0531 10:33:35.572356  7148 net.cpp:408] conv7_2 -> conv7_2
I0531 10:33:35.574407  7148 net.cpp:150] Setting up conv7_2
I0531 10:33:35.574419  7148 net.cpp:157] Top shape: 4 256 5 5 (25600)
I0531 10:33:35.574421  7148 net.cpp:165] Memory required for data: 940228640
I0531 10:33:35.574429  7148 layer_factory.hpp:77] Creating layer conv7_2_relu
I0531 10:33:35.574435  7148 net.cpp:100] Creating Layer conv7_2_relu
I0531 10:33:35.574440  7148 net.cpp:434] conv7_2_relu <- conv7_2
I0531 10:33:35.574447  7148 net.cpp:395] conv7_2_relu -> conv7_2 (in-place)
I0531 10:33:35.574455  7148 net.cpp:150] Setting up conv7_2_relu
I0531 10:33:35.574462  7148 net.cpp:157] Top shape: 4 256 5 5 (25600)
I0531 10:33:35.574466  7148 net.cpp:165] Memory required for data: 940331040
I0531 10:33:35.574470  7148 layer_factory.hpp:77] Creating layer conv7_2_conv7_2_relu_0_split
I0531 10:33:35.574476  7148 net.cpp:100] Creating Layer conv7_2_conv7_2_relu_0_split
I0531 10:33:35.574481  7148 net.cpp:434] conv7_2_conv7_2_relu_0_split <- conv7_2
I0531 10:33:35.574488  7148 net.cpp:408] conv7_2_conv7_2_relu_0_split -> conv7_2_conv7_2_relu_0_split_0
I0531 10:33:35.574496  7148 net.cpp:408] conv7_2_conv7_2_relu_0_split -> conv7_2_conv7_2_relu_0_split_1
I0531 10:33:35.574504  7148 net.cpp:408] conv7_2_conv7_2_relu_0_split -> conv7_2_conv7_2_relu_0_split_2
I0531 10:33:35.574514  7148 net.cpp:408] conv7_2_conv7_2_relu_0_split -> conv7_2_conv7_2_relu_0_split_3
I0531 10:33:35.574569  7148 net.cpp:150] Setting up conv7_2_conv7_2_relu_0_split
I0531 10:33:35.574575  7148 net.cpp:157] Top shape: 4 256 5 5 (25600)
I0531 10:33:35.574580  7148 net.cpp:157] Top shape: 4 256 5 5 (25600)
I0531 10:33:35.574584  7148 net.cpp:157] Top shape: 4 256 5 5 (25600)
I0531 10:33:35.574590  7148 net.cpp:157] Top shape: 4 256 5 5 (25600)
I0531 10:33:35.574594  7148 net.cpp:165] Memory required for data: 940740640
I0531 10:33:35.574597  7148 layer_factory.hpp:77] Creating layer conv8_1
I0531 10:33:35.574617  7148 net.cpp:100] Creating Layer conv8_1
I0531 10:33:35.574622  7148 net.cpp:434] conv8_1 <- conv7_2_conv7_2_relu_0_split_0
I0531 10:33:35.574631  7148 net.cpp:408] conv8_1 -> conv8_1
I0531 10:33:35.574939  7148 net.cpp:150] Setting up conv8_1
I0531 10:33:35.574947  7148 net.cpp:157] Top shape: 4 128 5 5 (12800)
I0531 10:33:35.574951  7148 net.cpp:165] Memory required for data: 940791840
I0531 10:33:35.574957  7148 layer_factory.hpp:77] Creating layer conv8_1_relu
I0531 10:33:35.574965  7148 net.cpp:100] Creating Layer conv8_1_relu
I0531 10:33:35.574970  7148 net.cpp:434] conv8_1_relu <- conv8_1
I0531 10:33:35.574975  7148 net.cpp:395] conv8_1_relu -> conv8_1 (in-place)
I0531 10:33:35.574982  7148 net.cpp:150] Setting up conv8_1_relu
I0531 10:33:35.574988  7148 net.cpp:157] Top shape: 4 128 5 5 (12800)
I0531 10:33:35.574991  7148 net.cpp:165] Memory required for data: 940843040
I0531 10:33:35.574996  7148 layer_factory.hpp:77] Creating layer conv8_2
I0531 10:33:35.575006  7148 net.cpp:100] Creating Layer conv8_2
I0531 10:33:35.575009  7148 net.cpp:434] conv8_2 <- conv8_1
I0531 10:33:35.575016  7148 net.cpp:408] conv8_2 -> conv8_2
I0531 10:33:35.577034  7148 net.cpp:150] Setting up conv8_2
I0531 10:33:35.577044  7148 net.cpp:157] Top shape: 4 256 3 3 (9216)
I0531 10:33:35.577049  7148 net.cpp:165] Memory required for data: 940879904
I0531 10:33:35.577055  7148 layer_factory.hpp:77] Creating layer conv8_2_relu
I0531 10:33:35.577062  7148 net.cpp:100] Creating Layer conv8_2_relu
I0531 10:33:35.577069  7148 net.cpp:434] conv8_2_relu <- conv8_2
I0531 10:33:35.577075  7148 net.cpp:395] conv8_2_relu -> conv8_2 (in-place)
I0531 10:33:35.577081  7148 net.cpp:150] Setting up conv8_2_relu
I0531 10:33:35.577087  7148 net.cpp:157] Top shape: 4 256 3 3 (9216)
I0531 10:33:35.577092  7148 net.cpp:165] Memory required for data: 940916768
I0531 10:33:35.577095  7148 layer_factory.hpp:77] Creating layer conv8_2_conv8_2_relu_0_split
I0531 10:33:35.577102  7148 net.cpp:100] Creating Layer conv8_2_conv8_2_relu_0_split
I0531 10:33:35.577107  7148 net.cpp:434] conv8_2_conv8_2_relu_0_split <- conv8_2
I0531 10:33:35.577113  7148 net.cpp:408] conv8_2_conv8_2_relu_0_split -> conv8_2_conv8_2_relu_0_split_0
I0531 10:33:35.577121  7148 net.cpp:408] conv8_2_conv8_2_relu_0_split -> conv8_2_conv8_2_relu_0_split_1
I0531 10:33:35.577131  7148 net.cpp:408] conv8_2_conv8_2_relu_0_split -> conv8_2_conv8_2_relu_0_split_2
I0531 10:33:35.577138  7148 net.cpp:408] conv8_2_conv8_2_relu_0_split -> conv8_2_conv8_2_relu_0_split_3
I0531 10:33:35.577193  7148 net.cpp:150] Setting up conv8_2_conv8_2_relu_0_split
I0531 10:33:35.577199  7148 net.cpp:157] Top shape: 4 256 3 3 (9216)
I0531 10:33:35.577204  7148 net.cpp:157] Top shape: 4 256 3 3 (9216)
I0531 10:33:35.577208  7148 net.cpp:157] Top shape: 4 256 3 3 (9216)
I0531 10:33:35.577214  7148 net.cpp:157] Top shape: 4 256 3 3 (9216)
I0531 10:33:35.577217  7148 net.cpp:165] Memory required for data: 941064224
I0531 10:33:35.577221  7148 layer_factory.hpp:77] Creating layer conv9_1
I0531 10:33:35.577230  7148 net.cpp:100] Creating Layer conv9_1
I0531 10:33:35.577235  7148 net.cpp:434] conv9_1 <- conv8_2_conv8_2_relu_0_split_0
I0531 10:33:35.577242  7148 net.cpp:408] conv9_1 -> conv9_1
I0531 10:33:35.577548  7148 net.cpp:150] Setting up conv9_1
I0531 10:33:35.577555  7148 net.cpp:157] Top shape: 4 128 3 3 (4608)
I0531 10:33:35.577559  7148 net.cpp:165] Memory required for data: 941082656
I0531 10:33:35.577565  7148 layer_factory.hpp:77] Creating layer conv9_1_relu
I0531 10:33:35.577572  7148 net.cpp:100] Creating Layer conv9_1_relu
I0531 10:33:35.577576  7148 net.cpp:434] conv9_1_relu <- conv9_1
I0531 10:33:35.577582  7148 net.cpp:395] conv9_1_relu -> conv9_1 (in-place)
I0531 10:33:35.577589  7148 net.cpp:150] Setting up conv9_1_relu
I0531 10:33:35.577595  7148 net.cpp:157] Top shape: 4 128 3 3 (4608)
I0531 10:33:35.577600  7148 net.cpp:165] Memory required for data: 941101088
I0531 10:33:35.577602  7148 layer_factory.hpp:77] Creating layer conv9_2
I0531 10:33:35.577611  7148 net.cpp:100] Creating Layer conv9_2
I0531 10:33:35.577623  7148 net.cpp:434] conv9_2 <- conv9_1
I0531 10:33:35.577631  7148 net.cpp:408] conv9_2 -> conv9_2
I0531 10:33:35.579627  7148 net.cpp:150] Setting up conv9_2
I0531 10:33:35.579638  7148 net.cpp:157] Top shape: 4 256 1 1 (1024)
I0531 10:33:35.579641  7148 net.cpp:165] Memory required for data: 941105184
I0531 10:33:35.579648  7148 layer_factory.hpp:77] Creating layer conv9_2_relu
I0531 10:33:35.579656  7148 net.cpp:100] Creating Layer conv9_2_relu
I0531 10:33:35.579661  7148 net.cpp:434] conv9_2_relu <- conv9_2
I0531 10:33:35.579668  7148 net.cpp:395] conv9_2_relu -> conv9_2 (in-place)
I0531 10:33:35.579676  7148 net.cpp:150] Setting up conv9_2_relu
I0531 10:33:35.579682  7148 net.cpp:157] Top shape: 4 256 1 1 (1024)
I0531 10:33:35.579687  7148 net.cpp:165] Memory required for data: 941109280
I0531 10:33:35.579690  7148 layer_factory.hpp:77] Creating layer conv9_2_conv9_2_relu_0_split
I0531 10:33:35.579696  7148 net.cpp:100] Creating Layer conv9_2_conv9_2_relu_0_split
I0531 10:33:35.579701  7148 net.cpp:434] conv9_2_conv9_2_relu_0_split <- conv9_2
I0531 10:33:35.579706  7148 net.cpp:408] conv9_2_conv9_2_relu_0_split -> conv9_2_conv9_2_relu_0_split_0
I0531 10:33:35.579715  7148 net.cpp:408] conv9_2_conv9_2_relu_0_split -> conv9_2_conv9_2_relu_0_split_1
I0531 10:33:35.579725  7148 net.cpp:408] conv9_2_conv9_2_relu_0_split -> conv9_2_conv9_2_relu_0_split_2
I0531 10:33:35.579766  7148 net.cpp:150] Setting up conv9_2_conv9_2_relu_0_split
I0531 10:33:35.579773  7148 net.cpp:157] Top shape: 4 256 1 1 (1024)
I0531 10:33:35.579777  7148 net.cpp:157] Top shape: 4 256 1 1 (1024)
I0531 10:33:35.579783  7148 net.cpp:157] Top shape: 4 256 1 1 (1024)
I0531 10:33:35.579787  7148 net.cpp:165] Memory required for data: 941121568
I0531 10:33:35.579790  7148 layer_factory.hpp:77] Creating layer conv4_3_norm
I0531 10:33:35.579797  7148 net.cpp:100] Creating Layer conv4_3_norm
I0531 10:33:35.579802  7148 net.cpp:434] conv4_3_norm <- conv4_3_relu4_3_0_split_1
I0531 10:33:35.579808  7148 net.cpp:408] conv4_3_norm -> conv4_3_norm
I0531 10:33:35.579927  7148 net.cpp:150] Setting up conv4_3_norm
I0531 10:33:35.579933  7148 net.cpp:157] Top shape: 4 512 38 38 (2957312)
I0531 10:33:35.579937  7148 net.cpp:165] Memory required for data: 952950816
I0531 10:33:35.579942  7148 layer_factory.hpp:77] Creating layer conv4_3_norm_conv4_3_norm_0_split
I0531 10:33:35.579948  7148 net.cpp:100] Creating Layer conv4_3_norm_conv4_3_norm_0_split
I0531 10:33:35.579952  7148 net.cpp:434] conv4_3_norm_conv4_3_norm_0_split <- conv4_3_norm
I0531 10:33:35.579959  7148 net.cpp:408] conv4_3_norm_conv4_3_norm_0_split -> conv4_3_norm_conv4_3_norm_0_split_0
I0531 10:33:35.579968  7148 net.cpp:408] conv4_3_norm_conv4_3_norm_0_split -> conv4_3_norm_conv4_3_norm_0_split_1
I0531 10:33:35.579975  7148 net.cpp:408] conv4_3_norm_conv4_3_norm_0_split -> conv4_3_norm_conv4_3_norm_0_split_2
I0531 10:33:35.580014  7148 net.cpp:150] Setting up conv4_3_norm_conv4_3_norm_0_split
I0531 10:33:35.580020  7148 net.cpp:157] Top shape: 4 512 38 38 (2957312)
I0531 10:33:35.580025  7148 net.cpp:157] Top shape: 4 512 38 38 (2957312)
I0531 10:33:35.580029  7148 net.cpp:157] Top shape: 4 512 38 38 (2957312)
I0531 10:33:35.580034  7148 net.cpp:165] Memory required for data: 988438560
I0531 10:33:35.580037  7148 layer_factory.hpp:77] Creating layer conv4_3_norm_mbox_loc
I0531 10:33:35.580047  7148 net.cpp:100] Creating Layer conv4_3_norm_mbox_loc
I0531 10:33:35.580051  7148 net.cpp:434] conv4_3_norm_mbox_loc <- conv4_3_norm_conv4_3_norm_0_split_0
I0531 10:33:35.580060  7148 net.cpp:408] conv4_3_norm_mbox_loc -> conv4_3_norm_mbox_loc
I0531 10:33:35.580535  7148 net.cpp:150] Setting up conv4_3_norm_mbox_loc
I0531 10:33:35.580543  7148 net.cpp:157] Top shape: 4 16 38 38 (92416)
I0531 10:33:35.580545  7148 net.cpp:165] Memory required for data: 988808224
I0531 10:33:35.580551  7148 layer_factory.hpp:77] Creating layer conv4_3_norm_mbox_loc_perm
I0531 10:33:35.580561  7148 net.cpp:100] Creating Layer conv4_3_norm_mbox_loc_perm
I0531 10:33:35.580574  7148 net.cpp:434] conv4_3_norm_mbox_loc_perm <- conv4_3_norm_mbox_loc
I0531 10:33:35.580579  7148 net.cpp:408] conv4_3_norm_mbox_loc_perm -> conv4_3_norm_mbox_loc_perm
I0531 10:33:35.580657  7148 net.cpp:150] Setting up conv4_3_norm_mbox_loc_perm
I0531 10:33:35.580663  7148 net.cpp:157] Top shape: 4 38 38 16 (92416)
I0531 10:33:35.580667  7148 net.cpp:165] Memory required for data: 989177888
I0531 10:33:35.580670  7148 layer_factory.hpp:77] Creating layer conv4_3_norm_mbox_loc_flat
I0531 10:33:35.580677  7148 net.cpp:100] Creating Layer conv4_3_norm_mbox_loc_flat
I0531 10:33:35.580683  7148 net.cpp:434] conv4_3_norm_mbox_loc_flat <- conv4_3_norm_mbox_loc_perm
I0531 10:33:35.580688  7148 net.cpp:408] conv4_3_norm_mbox_loc_flat -> conv4_3_norm_mbox_loc_flat
I0531 10:33:35.580718  7148 net.cpp:150] Setting up conv4_3_norm_mbox_loc_flat
I0531 10:33:35.580725  7148 net.cpp:157] Top shape: 4 23104 (92416)
I0531 10:33:35.580729  7148 net.cpp:165] Memory required for data: 989547552
I0531 10:33:35.580734  7148 layer_factory.hpp:77] Creating layer conv4_3_norm_mbox_conf
I0531 10:33:35.580747  7148 net.cpp:100] Creating Layer conv4_3_norm_mbox_conf
I0531 10:33:35.580751  7148 net.cpp:434] conv4_3_norm_mbox_conf <- conv4_3_norm_conv4_3_norm_0_split_1
I0531 10:33:35.580760  7148 net.cpp:408] conv4_3_norm_mbox_conf -> conv4_3_norm_mbox_conf
I0531 10:33:35.581256  7148 net.cpp:150] Setting up conv4_3_norm_mbox_conf
I0531 10:33:35.581264  7148 net.cpp:157] Top shape: 4 16 38 38 (92416)
I0531 10:33:35.581269  7148 net.cpp:165] Memory required for data: 989917216
I0531 10:33:35.581275  7148 layer_factory.hpp:77] Creating layer conv4_3_norm_mbox_conf_perm
I0531 10:33:35.581281  7148 net.cpp:100] Creating Layer conv4_3_norm_mbox_conf_perm
I0531 10:33:35.581286  7148 net.cpp:434] conv4_3_norm_mbox_conf_perm <- conv4_3_norm_mbox_conf
I0531 10:33:35.581292  7148 net.cpp:408] conv4_3_norm_mbox_conf_perm -> conv4_3_norm_mbox_conf_perm
I0531 10:33:35.581370  7148 net.cpp:150] Setting up conv4_3_norm_mbox_conf_perm
I0531 10:33:35.581377  7148 net.cpp:157] Top shape: 4 38 38 16 (92416)
I0531 10:33:35.581380  7148 net.cpp:165] Memory required for data: 990286880
I0531 10:33:35.581384  7148 layer_factory.hpp:77] Creating layer conv4_3_norm_mbox_conf_flat
I0531 10:33:35.581390  7148 net.cpp:100] Creating Layer conv4_3_norm_mbox_conf_flat
I0531 10:33:35.581394  7148 net.cpp:434] conv4_3_norm_mbox_conf_flat <- conv4_3_norm_mbox_conf_perm
I0531 10:33:35.581401  7148 net.cpp:408] conv4_3_norm_mbox_conf_flat -> conv4_3_norm_mbox_conf_flat
I0531 10:33:35.581423  7148 net.cpp:150] Setting up conv4_3_norm_mbox_conf_flat
I0531 10:33:35.581431  7148 net.cpp:157] Top shape: 4 23104 (92416)
I0531 10:33:35.581435  7148 net.cpp:165] Memory required for data: 990656544
I0531 10:33:35.581439  7148 layer_factory.hpp:77] Creating layer conv4_3_norm_mbox_priorbox
I0531 10:33:35.581446  7148 net.cpp:100] Creating Layer conv4_3_norm_mbox_priorbox
I0531 10:33:35.581451  7148 net.cpp:434] conv4_3_norm_mbox_priorbox <- conv4_3_norm_conv4_3_norm_0_split_2
I0531 10:33:35.581456  7148 net.cpp:434] conv4_3_norm_mbox_priorbox <- data_data_0_split_1
I0531 10:33:35.581463  7148 net.cpp:408] conv4_3_norm_mbox_priorbox -> conv4_3_norm_mbox_priorbox
I0531 10:33:35.581487  7148 net.cpp:150] Setting up conv4_3_norm_mbox_priorbox
I0531 10:33:35.581493  7148 net.cpp:157] Top shape: 1 2 23104 (46208)
I0531 10:33:35.581497  7148 net.cpp:165] Memory required for data: 990841376
I0531 10:33:35.581501  7148 layer_factory.hpp:77] Creating layer fc7_mbox_loc
I0531 10:33:35.581509  7148 net.cpp:100] Creating Layer fc7_mbox_loc
I0531 10:33:35.581514  7148 net.cpp:434] fc7_mbox_loc <- fc7_relu7_0_split_1
I0531 10:33:35.581521  7148 net.cpp:408] fc7_mbox_loc -> fc7_mbox_loc
I0531 10:33:35.582586  7148 net.cpp:150] Setting up fc7_mbox_loc
I0531 10:33:35.582592  7148 net.cpp:157] Top shape: 4 24 19 19 (34656)
I0531 10:33:35.582597  7148 net.cpp:165] Memory required for data: 990980000
I0531 10:33:35.582602  7148 layer_factory.hpp:77] Creating layer fc7_mbox_loc_perm
I0531 10:33:35.582609  7148 net.cpp:100] Creating Layer fc7_mbox_loc_perm
I0531 10:33:35.582623  7148 net.cpp:434] fc7_mbox_loc_perm <- fc7_mbox_loc
I0531 10:33:35.582631  7148 net.cpp:408] fc7_mbox_loc_perm -> fc7_mbox_loc_perm
I0531 10:33:35.582708  7148 net.cpp:150] Setting up fc7_mbox_loc_perm
I0531 10:33:35.582715  7148 net.cpp:157] Top shape: 4 19 19 24 (34656)
I0531 10:33:35.582720  7148 net.cpp:165] Memory required for data: 991118624
I0531 10:33:35.582725  7148 layer_factory.hpp:77] Creating layer fc7_mbox_loc_flat
I0531 10:33:35.582729  7148 net.cpp:100] Creating Layer fc7_mbox_loc_flat
I0531 10:33:35.582733  7148 net.cpp:434] fc7_mbox_loc_flat <- fc7_mbox_loc_perm
I0531 10:33:35.582741  7148 net.cpp:408] fc7_mbox_loc_flat -> fc7_mbox_loc_flat
I0531 10:33:35.582762  7148 net.cpp:150] Setting up fc7_mbox_loc_flat
I0531 10:33:35.582767  7148 net.cpp:157] Top shape: 4 8664 (34656)
I0531 10:33:35.582769  7148 net.cpp:165] Memory required for data: 991257248
I0531 10:33:35.582773  7148 layer_factory.hpp:77] Creating layer fc7_mbox_conf
I0531 10:33:35.582783  7148 net.cpp:100] Creating Layer fc7_mbox_conf
I0531 10:33:35.582788  7148 net.cpp:434] fc7_mbox_conf <- fc7_relu7_0_split_2
I0531 10:33:35.582794  7148 net.cpp:408] fc7_mbox_conf -> fc7_mbox_conf
I0531 10:33:35.583858  7148 net.cpp:150] Setting up fc7_mbox_conf
I0531 10:33:35.583866  7148 net.cpp:157] Top shape: 4 24 19 19 (34656)
I0531 10:33:35.583870  7148 net.cpp:165] Memory required for data: 991395872
I0531 10:33:35.583876  7148 layer_factory.hpp:77] Creating layer fc7_mbox_conf_perm
I0531 10:33:35.583884  7148 net.cpp:100] Creating Layer fc7_mbox_conf_perm
I0531 10:33:35.583889  7148 net.cpp:434] fc7_mbox_conf_perm <- fc7_mbox_conf
I0531 10:33:35.583894  7148 net.cpp:408] fc7_mbox_conf_perm -> fc7_mbox_conf_perm
I0531 10:33:35.583971  7148 net.cpp:150] Setting up fc7_mbox_conf_perm
I0531 10:33:35.583977  7148 net.cpp:157] Top shape: 4 19 19 24 (34656)
I0531 10:33:35.583981  7148 net.cpp:165] Memory required for data: 991534496
I0531 10:33:35.583984  7148 layer_factory.hpp:77] Creating layer fc7_mbox_conf_flat
I0531 10:33:35.583989  7148 net.cpp:100] Creating Layer fc7_mbox_conf_flat
I0531 10:33:35.583993  7148 net.cpp:434] fc7_mbox_conf_flat <- fc7_mbox_conf_perm
I0531 10:33:35.584002  7148 net.cpp:408] fc7_mbox_conf_flat -> fc7_mbox_conf_flat
I0531 10:33:35.584024  7148 net.cpp:150] Setting up fc7_mbox_conf_flat
I0531 10:33:35.584030  7148 net.cpp:157] Top shape: 4 8664 (34656)
I0531 10:33:35.584033  7148 net.cpp:165] Memory required for data: 991673120
I0531 10:33:35.584038  7148 layer_factory.hpp:77] Creating layer fc7_mbox_priorbox
I0531 10:33:35.584043  7148 net.cpp:100] Creating Layer fc7_mbox_priorbox
I0531 10:33:35.584048  7148 net.cpp:434] fc7_mbox_priorbox <- fc7_relu7_0_split_3
I0531 10:33:35.584053  7148 net.cpp:434] fc7_mbox_priorbox <- data_data_0_split_2
I0531 10:33:35.584061  7148 net.cpp:408] fc7_mbox_priorbox -> fc7_mbox_priorbox
I0531 10:33:35.584085  7148 net.cpp:150] Setting up fc7_mbox_priorbox
I0531 10:33:35.584091  7148 net.cpp:157] Top shape: 1 2 8664 (17328)
I0531 10:33:35.584095  7148 net.cpp:165] Memory required for data: 991742432
I0531 10:33:35.584100  7148 layer_factory.hpp:77] Creating layer conv6_2_mbox_loc
I0531 10:33:35.584110  7148 net.cpp:100] Creating Layer conv6_2_mbox_loc
I0531 10:33:35.584113  7148 net.cpp:434] conv6_2_mbox_loc <- conv6_2_conv6_2_relu_0_split_1
I0531 10:33:35.584122  7148 net.cpp:408] conv6_2_mbox_loc -> conv6_2_mbox_loc
I0531 10:33:35.584745  7148 net.cpp:150] Setting up conv6_2_mbox_loc
I0531 10:33:35.584753  7148 net.cpp:157] Top shape: 4 24 10 10 (9600)
I0531 10:33:35.584755  7148 net.cpp:165] Memory required for data: 991780832
I0531 10:33:35.584761  7148 layer_factory.hpp:77] Creating layer conv6_2_mbox_loc_perm
I0531 10:33:35.584770  7148 net.cpp:100] Creating Layer conv6_2_mbox_loc_perm
I0531 10:33:35.584775  7148 net.cpp:434] conv6_2_mbox_loc_perm <- conv6_2_mbox_loc
I0531 10:33:35.584782  7148 net.cpp:408] conv6_2_mbox_loc_perm -> conv6_2_mbox_loc_perm
I0531 10:33:35.584861  7148 net.cpp:150] Setting up conv6_2_mbox_loc_perm
I0531 10:33:35.584880  7148 net.cpp:157] Top shape: 4 10 10 24 (9600)
I0531 10:33:35.584884  7148 net.cpp:165] Memory required for data: 991819232
I0531 10:33:35.584888  7148 layer_factory.hpp:77] Creating layer conv6_2_mbox_loc_flat
I0531 10:33:35.584894  7148 net.cpp:100] Creating Layer conv6_2_mbox_loc_flat
I0531 10:33:35.584900  7148 net.cpp:434] conv6_2_mbox_loc_flat <- conv6_2_mbox_loc_perm
I0531 10:33:35.584905  7148 net.cpp:408] conv6_2_mbox_loc_flat -> conv6_2_mbox_loc_flat
I0531 10:33:35.584928  7148 net.cpp:150] Setting up conv6_2_mbox_loc_flat
I0531 10:33:35.584933  7148 net.cpp:157] Top shape: 4 2400 (9600)
I0531 10:33:35.584938  7148 net.cpp:165] Memory required for data: 991857632
I0531 10:33:35.584940  7148 layer_factory.hpp:77] Creating layer conv6_2_mbox_conf
I0531 10:33:35.584949  7148 net.cpp:100] Creating Layer conv6_2_mbox_conf
I0531 10:33:35.584954  7148 net.cpp:434] conv6_2_mbox_conf <- conv6_2_conv6_2_relu_0_split_2
I0531 10:33:35.584964  7148 net.cpp:408] conv6_2_mbox_conf -> conv6_2_mbox_conf
I0531 10:33:35.585578  7148 net.cpp:150] Setting up conv6_2_mbox_conf
I0531 10:33:35.585585  7148 net.cpp:157] Top shape: 4 24 10 10 (9600)
I0531 10:33:35.585588  7148 net.cpp:165] Memory required for data: 991896032
I0531 10:33:35.585595  7148 layer_factory.hpp:77] Creating layer conv6_2_mbox_conf_perm
I0531 10:33:35.585600  7148 net.cpp:100] Creating Layer conv6_2_mbox_conf_perm
I0531 10:33:35.585605  7148 net.cpp:434] conv6_2_mbox_conf_perm <- conv6_2_mbox_conf
I0531 10:33:35.585613  7148 net.cpp:408] conv6_2_mbox_conf_perm -> conv6_2_mbox_conf_perm
I0531 10:33:35.585690  7148 net.cpp:150] Setting up conv6_2_mbox_conf_perm
I0531 10:33:35.585695  7148 net.cpp:157] Top shape: 4 10 10 24 (9600)
I0531 10:33:35.585700  7148 net.cpp:165] Memory required for data: 991934432
I0531 10:33:35.585702  7148 layer_factory.hpp:77] Creating layer conv6_2_mbox_conf_flat
I0531 10:33:35.585710  7148 net.cpp:100] Creating Layer conv6_2_mbox_conf_flat
I0531 10:33:35.585713  7148 net.cpp:434] conv6_2_mbox_conf_flat <- conv6_2_mbox_conf_perm
I0531 10:33:35.585721  7148 net.cpp:408] conv6_2_mbox_conf_flat -> conv6_2_mbox_conf_flat
I0531 10:33:35.585741  7148 net.cpp:150] Setting up conv6_2_mbox_conf_flat
I0531 10:33:35.585747  7148 net.cpp:157] Top shape: 4 2400 (9600)
I0531 10:33:35.585750  7148 net.cpp:165] Memory required for data: 991972832
I0531 10:33:35.585753  7148 layer_factory.hpp:77] Creating layer conv6_2_mbox_priorbox
I0531 10:33:35.585762  7148 net.cpp:100] Creating Layer conv6_2_mbox_priorbox
I0531 10:33:35.585767  7148 net.cpp:434] conv6_2_mbox_priorbox <- conv6_2_conv6_2_relu_0_split_3
I0531 10:33:35.585772  7148 net.cpp:434] conv6_2_mbox_priorbox <- data_data_0_split_3
I0531 10:33:35.585779  7148 net.cpp:408] conv6_2_mbox_priorbox -> conv6_2_mbox_priorbox
I0531 10:33:35.585800  7148 net.cpp:150] Setting up conv6_2_mbox_priorbox
I0531 10:33:35.585806  7148 net.cpp:157] Top shape: 1 2 2400 (4800)
I0531 10:33:35.585809  7148 net.cpp:165] Memory required for data: 991992032
I0531 10:33:35.585813  7148 layer_factory.hpp:77] Creating layer conv7_2_mbox_loc
I0531 10:33:35.585822  7148 net.cpp:100] Creating Layer conv7_2_mbox_loc
I0531 10:33:35.585827  7148 net.cpp:434] conv7_2_mbox_loc <- conv7_2_conv7_2_relu_0_split_1
I0531 10:33:35.585834  7148 net.cpp:408] conv7_2_mbox_loc -> conv7_2_mbox_loc
I0531 10:33:35.586231  7148 net.cpp:150] Setting up conv7_2_mbox_loc
I0531 10:33:35.586238  7148 net.cpp:157] Top shape: 4 24 5 5 (2400)
I0531 10:33:35.586241  7148 net.cpp:165] Memory required for data: 992001632
I0531 10:33:35.586247  7148 layer_factory.hpp:77] Creating layer conv7_2_mbox_loc_perm
I0531 10:33:35.586256  7148 net.cpp:100] Creating Layer conv7_2_mbox_loc_perm
I0531 10:33:35.586261  7148 net.cpp:434] conv7_2_mbox_loc_perm <- conv7_2_mbox_loc
I0531 10:33:35.586267  7148 net.cpp:408] conv7_2_mbox_loc_perm -> conv7_2_mbox_loc_perm
I0531 10:33:35.586344  7148 net.cpp:150] Setting up conv7_2_mbox_loc_perm
I0531 10:33:35.586349  7148 net.cpp:157] Top shape: 4 5 5 24 (2400)
I0531 10:33:35.586352  7148 net.cpp:165] Memory required for data: 992011232
I0531 10:33:35.586362  7148 layer_factory.hpp:77] Creating layer conv7_2_mbox_loc_flat
I0531 10:33:35.586367  7148 net.cpp:100] Creating Layer conv7_2_mbox_loc_flat
I0531 10:33:35.586372  7148 net.cpp:434] conv7_2_mbox_loc_flat <- conv7_2_mbox_loc_perm
I0531 10:33:35.586380  7148 net.cpp:408] conv7_2_mbox_loc_flat -> conv7_2_mbox_loc_flat
I0531 10:33:35.586401  7148 net.cpp:150] Setting up conv7_2_mbox_loc_flat
I0531 10:33:35.586406  7148 net.cpp:157] Top shape: 4 600 (2400)
I0531 10:33:35.586410  7148 net.cpp:165] Memory required for data: 992020832
I0531 10:33:35.586413  7148 layer_factory.hpp:77] Creating layer conv7_2_mbox_conf
I0531 10:33:35.586422  7148 net.cpp:100] Creating Layer conv7_2_mbox_conf
I0531 10:33:35.586427  7148 net.cpp:434] conv7_2_mbox_conf <- conv7_2_conv7_2_relu_0_split_2
I0531 10:33:35.586436  7148 net.cpp:408] conv7_2_mbox_conf -> conv7_2_mbox_conf
I0531 10:33:35.586830  7148 net.cpp:150] Setting up conv7_2_mbox_conf
I0531 10:33:35.586838  7148 net.cpp:157] Top shape: 4 24 5 5 (2400)
I0531 10:33:35.586841  7148 net.cpp:165] Memory required for data: 992030432
I0531 10:33:35.586846  7148 layer_factory.hpp:77] Creating layer conv7_2_mbox_conf_perm
I0531 10:33:35.586854  7148 net.cpp:100] Creating Layer conv7_2_mbox_conf_perm
I0531 10:33:35.586859  7148 net.cpp:434] conv7_2_mbox_conf_perm <- conv7_2_mbox_conf
I0531 10:33:35.586865  7148 net.cpp:408] conv7_2_mbox_conf_perm -> conv7_2_mbox_conf_perm
I0531 10:33:35.586941  7148 net.cpp:150] Setting up conv7_2_mbox_conf_perm
I0531 10:33:35.586946  7148 net.cpp:157] Top shape: 4 5 5 24 (2400)
I0531 10:33:35.586951  7148 net.cpp:165] Memory required for data: 992040032
I0531 10:33:35.586953  7148 layer_factory.hpp:77] Creating layer conv7_2_mbox_conf_flat
I0531 10:33:35.586959  7148 net.cpp:100] Creating Layer conv7_2_mbox_conf_flat
I0531 10:33:35.586964  7148 net.cpp:434] conv7_2_mbox_conf_flat <- conv7_2_mbox_conf_perm
I0531 10:33:35.586971  7148 net.cpp:408] conv7_2_mbox_conf_flat -> conv7_2_mbox_conf_flat
I0531 10:33:35.586992  7148 net.cpp:150] Setting up conv7_2_mbox_conf_flat
I0531 10:33:35.586997  7148 net.cpp:157] Top shape: 4 600 (2400)
I0531 10:33:35.587000  7148 net.cpp:165] Memory required for data: 992049632
I0531 10:33:35.587004  7148 layer_factory.hpp:77] Creating layer conv7_2_mbox_priorbox
I0531 10:33:35.587011  7148 net.cpp:100] Creating Layer conv7_2_mbox_priorbox
I0531 10:33:35.587015  7148 net.cpp:434] conv7_2_mbox_priorbox <- conv7_2_conv7_2_relu_0_split_3
I0531 10:33:35.587020  7148 net.cpp:434] conv7_2_mbox_priorbox <- data_data_0_split_4
I0531 10:33:35.587028  7148 net.cpp:408] conv7_2_mbox_priorbox -> conv7_2_mbox_priorbox
I0531 10:33:35.587051  7148 net.cpp:150] Setting up conv7_2_mbox_priorbox
I0531 10:33:35.587057  7148 net.cpp:157] Top shape: 1 2 600 (1200)
I0531 10:33:35.587060  7148 net.cpp:165] Memory required for data: 992054432
I0531 10:33:35.587064  7148 layer_factory.hpp:77] Creating layer conv8_2_mbox_loc
I0531 10:33:35.587074  7148 net.cpp:100] Creating Layer conv8_2_mbox_loc
I0531 10:33:35.587079  7148 net.cpp:434] conv8_2_mbox_loc <- conv8_2_conv8_2_relu_0_split_1
I0531 10:33:35.587086  7148 net.cpp:408] conv8_2_mbox_loc -> conv8_2_mbox_loc
I0531 10:33:35.587407  7148 net.cpp:150] Setting up conv8_2_mbox_loc
I0531 10:33:35.587414  7148 net.cpp:157] Top shape: 4 16 3 3 (576)
I0531 10:33:35.587417  7148 net.cpp:165] Memory required for data: 992056736
I0531 10:33:35.587432  7148 layer_factory.hpp:77] Creating layer conv8_2_mbox_loc_perm
I0531 10:33:35.587440  7148 net.cpp:100] Creating Layer conv8_2_mbox_loc_perm
I0531 10:33:35.587445  7148 net.cpp:434] conv8_2_mbox_loc_perm <- conv8_2_mbox_loc
I0531 10:33:35.587452  7148 net.cpp:408] conv8_2_mbox_loc_perm -> conv8_2_mbox_loc_perm
I0531 10:33:35.587532  7148 net.cpp:150] Setting up conv8_2_mbox_loc_perm
I0531 10:33:35.587538  7148 net.cpp:157] Top shape: 4 3 3 16 (576)
I0531 10:33:35.587540  7148 net.cpp:165] Memory required for data: 992059040
I0531 10:33:35.587544  7148 layer_factory.hpp:77] Creating layer conv8_2_mbox_loc_flat
I0531 10:33:35.587558  7148 net.cpp:100] Creating Layer conv8_2_mbox_loc_flat
I0531 10:33:35.587563  7148 net.cpp:434] conv8_2_mbox_loc_flat <- conv8_2_mbox_loc_perm
I0531 10:33:35.587569  7148 net.cpp:408] conv8_2_mbox_loc_flat -> conv8_2_mbox_loc_flat
I0531 10:33:35.587591  7148 net.cpp:150] Setting up conv8_2_mbox_loc_flat
I0531 10:33:35.587597  7148 net.cpp:157] Top shape: 4 144 (576)
I0531 10:33:35.587601  7148 net.cpp:165] Memory required for data: 992061344
I0531 10:33:35.587604  7148 layer_factory.hpp:77] Creating layer conv8_2_mbox_conf
I0531 10:33:35.587613  7148 net.cpp:100] Creating Layer conv8_2_mbox_conf
I0531 10:33:35.587617  7148 net.cpp:434] conv8_2_mbox_conf <- conv8_2_conv8_2_relu_0_split_2
I0531 10:33:35.587626  7148 net.cpp:408] conv8_2_mbox_conf -> conv8_2_mbox_conf
I0531 10:33:35.587945  7148 net.cpp:150] Setting up conv8_2_mbox_conf
I0531 10:33:35.587951  7148 net.cpp:157] Top shape: 4 16 3 3 (576)
I0531 10:33:35.587954  7148 net.cpp:165] Memory required for data: 992063648
I0531 10:33:35.587961  7148 layer_factory.hpp:77] Creating layer conv8_2_mbox_conf_perm
I0531 10:33:35.587967  7148 net.cpp:100] Creating Layer conv8_2_mbox_conf_perm
I0531 10:33:35.587972  7148 net.cpp:434] conv8_2_mbox_conf_perm <- conv8_2_mbox_conf
I0531 10:33:35.587978  7148 net.cpp:408] conv8_2_mbox_conf_perm -> conv8_2_mbox_conf_perm
I0531 10:33:35.588054  7148 net.cpp:150] Setting up conv8_2_mbox_conf_perm
I0531 10:33:35.588060  7148 net.cpp:157] Top shape: 4 3 3 16 (576)
I0531 10:33:35.588063  7148 net.cpp:165] Memory required for data: 992065952
I0531 10:33:35.588068  7148 layer_factory.hpp:77] Creating layer conv8_2_mbox_conf_flat
I0531 10:33:35.588073  7148 net.cpp:100] Creating Layer conv8_2_mbox_conf_flat
I0531 10:33:35.588079  7148 net.cpp:434] conv8_2_mbox_conf_flat <- conv8_2_mbox_conf_perm
I0531 10:33:35.588085  7148 net.cpp:408] conv8_2_mbox_conf_flat -> conv8_2_mbox_conf_flat
I0531 10:33:35.588106  7148 net.cpp:150] Setting up conv8_2_mbox_conf_flat
I0531 10:33:35.588111  7148 net.cpp:157] Top shape: 4 144 (576)
I0531 10:33:35.588115  7148 net.cpp:165] Memory required for data: 992068256
I0531 10:33:35.588119  7148 layer_factory.hpp:77] Creating layer conv8_2_mbox_priorbox
I0531 10:33:35.588127  7148 net.cpp:100] Creating Layer conv8_2_mbox_priorbox
I0531 10:33:35.588132  7148 net.cpp:434] conv8_2_mbox_priorbox <- conv8_2_conv8_2_relu_0_split_3
I0531 10:33:35.588137  7148 net.cpp:434] conv8_2_mbox_priorbox <- data_data_0_split_5
I0531 10:33:35.588146  7148 net.cpp:408] conv8_2_mbox_priorbox -> conv8_2_mbox_priorbox
I0531 10:33:35.588168  7148 net.cpp:150] Setting up conv8_2_mbox_priorbox
I0531 10:33:35.588174  7148 net.cpp:157] Top shape: 1 2 144 (288)
I0531 10:33:35.588177  7148 net.cpp:165] Memory required for data: 992069408
I0531 10:33:35.588181  7148 layer_factory.hpp:77] Creating layer conv9_2_mbox_loc
I0531 10:33:35.588191  7148 net.cpp:100] Creating Layer conv9_2_mbox_loc
I0531 10:33:35.588194  7148 net.cpp:434] conv9_2_mbox_loc <- conv9_2_conv9_2_relu_0_split_0
I0531 10:33:35.588203  7148 net.cpp:408] conv9_2_mbox_loc -> conv9_2_mbox_loc
I0531 10:33:35.588526  7148 net.cpp:150] Setting up conv9_2_mbox_loc
I0531 10:33:35.588532  7148 net.cpp:157] Top shape: 4 16 1 1 (64)
I0531 10:33:35.588536  7148 net.cpp:165] Memory required for data: 992069664
I0531 10:33:35.588542  7148 layer_factory.hpp:77] Creating layer conv9_2_mbox_loc_perm
I0531 10:33:35.588547  7148 net.cpp:100] Creating Layer conv9_2_mbox_loc_perm
I0531 10:33:35.588552  7148 net.cpp:434] conv9_2_mbox_loc_perm <- conv9_2_mbox_loc
I0531 10:33:35.588559  7148 net.cpp:408] conv9_2_mbox_loc_perm -> conv9_2_mbox_loc_perm
I0531 10:33:35.588636  7148 net.cpp:150] Setting up conv9_2_mbox_loc_perm
I0531 10:33:35.588642  7148 net.cpp:157] Top shape: 4 1 1 16 (64)
I0531 10:33:35.588645  7148 net.cpp:165] Memory required for data: 992069920
I0531 10:33:35.588649  7148 layer_factory.hpp:77] Creating layer conv9_2_mbox_loc_flat
I0531 10:33:35.588654  7148 net.cpp:100] Creating Layer conv9_2_mbox_loc_flat
I0531 10:33:35.588660  7148 net.cpp:434] conv9_2_mbox_loc_flat <- conv9_2_mbox_loc_perm
I0531 10:33:35.588672  7148 net.cpp:408] conv9_2_mbox_loc_flat -> conv9_2_mbox_loc_flat
I0531 10:33:35.588693  7148 net.cpp:150] Setting up conv9_2_mbox_loc_flat
I0531 10:33:35.588701  7148 net.cpp:157] Top shape: 4 16 (64)
I0531 10:33:35.588706  7148 net.cpp:165] Memory required for data: 992070176
I0531 10:33:35.588709  7148 layer_factory.hpp:77] Creating layer conv9_2_mbox_conf
I0531 10:33:35.588718  7148 net.cpp:100] Creating Layer conv9_2_mbox_conf
I0531 10:33:35.588723  7148 net.cpp:434] conv9_2_mbox_conf <- conv9_2_conv9_2_relu_0_split_1
I0531 10:33:35.588732  7148 net.cpp:408] conv9_2_mbox_conf -> conv9_2_mbox_conf
I0531 10:33:35.589059  7148 net.cpp:150] Setting up conv9_2_mbox_conf
I0531 10:33:35.589066  7148 net.cpp:157] Top shape: 4 16 1 1 (64)
I0531 10:33:35.589071  7148 net.cpp:165] Memory required for data: 992070432
I0531 10:33:35.589076  7148 layer_factory.hpp:77] Creating layer conv9_2_mbox_conf_perm
I0531 10:33:35.589084  7148 net.cpp:100] Creating Layer conv9_2_mbox_conf_perm
I0531 10:33:35.589089  7148 net.cpp:434] conv9_2_mbox_conf_perm <- conv9_2_mbox_conf
I0531 10:33:35.589095  7148 net.cpp:408] conv9_2_mbox_conf_perm -> conv9_2_mbox_conf_perm
I0531 10:33:35.589171  7148 net.cpp:150] Setting up conv9_2_mbox_conf_perm
I0531 10:33:35.589177  7148 net.cpp:157] Top shape: 4 1 1 16 (64)
I0531 10:33:35.589180  7148 net.cpp:165] Memory required for data: 992070688
I0531 10:33:35.589184  7148 layer_factory.hpp:77] Creating layer conv9_2_mbox_conf_flat
I0531 10:33:35.589190  7148 net.cpp:100] Creating Layer conv9_2_mbox_conf_flat
I0531 10:33:35.589195  7148 net.cpp:434] conv9_2_mbox_conf_flat <- conv9_2_mbox_conf_perm
I0531 10:33:35.589201  7148 net.cpp:408] conv9_2_mbox_conf_flat -> conv9_2_mbox_conf_flat
I0531 10:33:35.589224  7148 net.cpp:150] Setting up conv9_2_mbox_conf_flat
I0531 10:33:35.589229  7148 net.cpp:157] Top shape: 4 16 (64)
I0531 10:33:35.589233  7148 net.cpp:165] Memory required for data: 992070944
I0531 10:33:35.589236  7148 layer_factory.hpp:77] Creating layer conv9_2_mbox_priorbox
I0531 10:33:35.589242  7148 net.cpp:100] Creating Layer conv9_2_mbox_priorbox
I0531 10:33:35.589248  7148 net.cpp:434] conv9_2_mbox_priorbox <- conv9_2_conv9_2_relu_0_split_2
I0531 10:33:35.589253  7148 net.cpp:434] conv9_2_mbox_priorbox <- data_data_0_split_6
I0531 10:33:35.589260  7148 net.cpp:408] conv9_2_mbox_priorbox -> conv9_2_mbox_priorbox
I0531 10:33:35.589283  7148 net.cpp:150] Setting up conv9_2_mbox_priorbox
I0531 10:33:35.589289  7148 net.cpp:157] Top shape: 1 2 16 (32)
I0531 10:33:35.589293  7148 net.cpp:165] Memory required for data: 992071072
I0531 10:33:35.589296  7148 layer_factory.hpp:77] Creating layer mbox_loc
I0531 10:33:35.589303  7148 net.cpp:100] Creating Layer mbox_loc
I0531 10:33:35.589309  7148 net.cpp:434] mbox_loc <- conv4_3_norm_mbox_loc_flat
I0531 10:33:35.589315  7148 net.cpp:434] mbox_loc <- fc7_mbox_loc_flat
I0531 10:33:35.589319  7148 net.cpp:434] mbox_loc <- conv6_2_mbox_loc_flat
I0531 10:33:35.589325  7148 net.cpp:434] mbox_loc <- conv7_2_mbox_loc_flat
I0531 10:33:35.589330  7148 net.cpp:434] mbox_loc <- conv8_2_mbox_loc_flat
I0531 10:33:35.589335  7148 net.cpp:434] mbox_loc <- conv9_2_mbox_loc_flat
I0531 10:33:35.589341  7148 net.cpp:408] mbox_loc -> mbox_loc
I0531 10:33:35.589365  7148 net.cpp:150] Setting up mbox_loc
I0531 10:33:35.589371  7148 net.cpp:157] Top shape: 4 34928 (139712)
I0531 10:33:35.589375  7148 net.cpp:165] Memory required for data: 992629920
I0531 10:33:35.589377  7148 layer_factory.hpp:77] Creating layer mbox_conf
I0531 10:33:35.589385  7148 net.cpp:100] Creating Layer mbox_conf
I0531 10:33:35.589388  7148 net.cpp:434] mbox_conf <- conv4_3_norm_mbox_conf_flat
I0531 10:33:35.589393  7148 net.cpp:434] mbox_conf <- fc7_mbox_conf_flat
I0531 10:33:35.589399  7148 net.cpp:434] mbox_conf <- conv6_2_mbox_conf_flat
I0531 10:33:35.589404  7148 net.cpp:434] mbox_conf <- conv7_2_mbox_conf_flat
I0531 10:33:35.589409  7148 net.cpp:434] mbox_conf <- conv8_2_mbox_conf_flat
I0531 10:33:35.589414  7148 net.cpp:434] mbox_conf <- conv9_2_mbox_conf_flat
I0531 10:33:35.589427  7148 net.cpp:408] mbox_conf -> mbox_conf
I0531 10:33:35.589449  7148 net.cpp:150] Setting up mbox_conf
I0531 10:33:35.589455  7148 net.cpp:157] Top shape: 4 34928 (139712)
I0531 10:33:35.589458  7148 net.cpp:165] Memory required for data: 993188768
I0531 10:33:35.589462  7148 layer_factory.hpp:77] Creating layer mbox_priorbox
I0531 10:33:35.589469  7148 net.cpp:100] Creating Layer mbox_priorbox
I0531 10:33:35.589474  7148 net.cpp:434] mbox_priorbox <- conv4_3_norm_mbox_priorbox
I0531 10:33:35.589479  7148 net.cpp:434] mbox_priorbox <- fc7_mbox_priorbox
I0531 10:33:35.589484  7148 net.cpp:434] mbox_priorbox <- conv6_2_mbox_priorbox
I0531 10:33:35.589489  7148 net.cpp:434] mbox_priorbox <- conv7_2_mbox_priorbox
I0531 10:33:35.589494  7148 net.cpp:434] mbox_priorbox <- conv8_2_mbox_priorbox
I0531 10:33:35.589498  7148 net.cpp:434] mbox_priorbox <- conv9_2_mbox_priorbox
I0531 10:33:35.589504  7148 net.cpp:408] mbox_priorbox -> mbox_priorbox
I0531 10:33:35.589524  7148 net.cpp:150] Setting up mbox_priorbox
I0531 10:33:35.589531  7148 net.cpp:157] Top shape: 1 2 34928 (69856)
I0531 10:33:35.589534  7148 net.cpp:165] Memory required for data: 993468192
I0531 10:33:35.589537  7148 layer_factory.hpp:77] Creating layer mbox_conf_reshape
I0531 10:33:35.589545  7148 net.cpp:100] Creating Layer mbox_conf_reshape
I0531 10:33:35.589550  7148 net.cpp:434] mbox_conf_reshape <- mbox_conf
I0531 10:33:35.589557  7148 net.cpp:408] mbox_conf_reshape -> mbox_conf_reshape
I0531 10:33:35.589587  7148 net.cpp:150] Setting up mbox_conf_reshape
I0531 10:33:35.589593  7148 net.cpp:157] Top shape: 4 8732 4 (139712)
I0531 10:33:35.589597  7148 net.cpp:165] Memory required for data: 994027040
I0531 10:33:35.589601  7148 layer_factory.hpp:77] Creating layer mbox_conf_softmax
I0531 10:33:35.589607  7148 net.cpp:100] Creating Layer mbox_conf_softmax
I0531 10:33:35.589612  7148 net.cpp:434] mbox_conf_softmax <- mbox_conf_reshape
I0531 10:33:35.589618  7148 net.cpp:408] mbox_conf_softmax -> mbox_conf_softmax
I0531 10:33:35.589669  7148 net.cpp:150] Setting up mbox_conf_softmax
I0531 10:33:35.589675  7148 net.cpp:157] Top shape: 4 8732 4 (139712)
I0531 10:33:35.589679  7148 net.cpp:165] Memory required for data: 994585888
I0531 10:33:35.589684  7148 layer_factory.hpp:77] Creating layer mbox_conf_flatten
I0531 10:33:35.589691  7148 net.cpp:100] Creating Layer mbox_conf_flatten
I0531 10:33:35.589695  7148 net.cpp:434] mbox_conf_flatten <- mbox_conf_softmax
I0531 10:33:35.589701  7148 net.cpp:408] mbox_conf_flatten -> mbox_conf_flatten
I0531 10:33:35.589722  7148 net.cpp:150] Setting up mbox_conf_flatten
I0531 10:33:35.589728  7148 net.cpp:157] Top shape: 4 34928 (139712)
I0531 10:33:35.589731  7148 net.cpp:165] Memory required for data: 995144736
I0531 10:33:35.589735  7148 layer_factory.hpp:77] Creating layer detection_out
I0531 10:33:35.589752  7148 net.cpp:100] Creating Layer detection_out
I0531 10:33:35.589756  7148 net.cpp:434] detection_out <- mbox_loc
I0531 10:33:35.589761  7148 net.cpp:434] detection_out <- mbox_conf_flatten
I0531 10:33:35.589766  7148 net.cpp:434] detection_out <- mbox_priorbox
I0531 10:33:35.589773  7148 net.cpp:408] detection_out -> detection_out
I0531 10:33:35.590862  7148 net.cpp:150] Setting up detection_out
I0531 10:33:35.590870  7148 net.cpp:157] Top shape: 1 1 1 7 (7)
I0531 10:33:35.590874  7148 net.cpp:165] Memory required for data: 995144764
I0531 10:33:35.590878  7148 layer_factory.hpp:77] Creating layer detection_eval
I0531 10:33:35.590886  7148 net.cpp:100] Creating Layer detection_eval
I0531 10:33:35.590891  7148 net.cpp:434] detection_eval <- detection_out
I0531 10:33:35.590896  7148 net.cpp:434] detection_eval <- label
I0531 10:33:35.590903  7148 net.cpp:408] detection_eval -> detection_eval
I0531 10:33:35.591619  7148 net.cpp:150] Setting up detection_eval
I0531 10:33:35.591625  7148 net.cpp:157] Top shape: 1 1 4 5 (20)
I0531 10:33:35.591629  7148 net.cpp:165] Memory required for data: 995144844
I0531 10:33:35.591632  7148 net.cpp:228] detection_eval does not need backward computation.
I0531 10:33:35.591645  7148 net.cpp:228] detection_out does not need backward computation.
I0531 10:33:35.591650  7148 net.cpp:228] mbox_conf_flatten does not need backward computation.
I0531 10:33:35.591655  7148 net.cpp:228] mbox_conf_softmax does not need backward computation.
…
