…
        min_scale: 0.3
        max_scale: 1
        min_aspect_ratio: 0.5
        max_aspect_ratio: 2
      }
      sample_constraint {
        min_jaccard_overlap: 0.9
      }
      max_sample: 1
      max_trials: 50
    }
    batch_sampler {
      sampler {
        min_scale: 0.3
        max_scale: 1
        min_aspect_ratio: 0.5
        max_aspect_ratio: 2
      }
      sample_constraint {
        max_jaccard_overlap: 1
      }
      max_sample: 1
      max_trials: 50
    }
    label_map_file: "data/grayscale_tbs_v2.0/labelmap_voc.prototxt"
  }
}
layer {
  name: "conv1_1"
  type: "Convolution"
  bottom: "data"
  top: "conv1_1"
  param {
    lr_mult: 1
    decay_mult: 1
  }
  param {
    lr_mult: 2
    decay_mult: 0
  }
  convolution_param {
    num_output: 64
    pad: 1
    kernel_size: 3
    weight_filler {
      type: "xavier"
    }
    bias_filler {
      type: "constant"
      value: 0
    }
  }
}
layer {
  name: "relu1_1"
  type: "ReLU"
  bottom: "conv1_1"
  top: "conv1_1"
}
layer {
  name: "conv1_2"
  type: "Convolution"
  bottom: "conv1_1"
  top: "conv1_2"
  param {
    lr_mult: 1
    decay_mult: 1
  }
  param {
    lr_mult: 2
    decay_mult: 0
  }
  convolution_param {
    num_output: 64
    pad: 1
    kernel_size: 3
    weight_filler {
      type: "xavier"
    }
    bias_filler {
      type: "constant"
      value: 0
    }
  }
}
layer {
  name: "relu1_2"
  type: "ReLU"
  bottom: "conv1_2"
  top: "conv1_2"
}
layer {
  name: "pool1"
  type: "Pooling"
  bottom: "conv1_2"
  top: "pool1"
  pooling_param {
    pool: MAX
    kernel_size: 2
    stride: 2
  }
}
layer {
  name: "conv2_1"
  type: "Convolution"
  bottom: "pool1"
  top: "conv2_1"
  param {
    lr_mult: 1
    decay_mult: 1
  }
  param {
    lr_mult: 2
    decay_mult: 0
  }
  convolution_param {
    num_output: 128
    pad: 1
    kernel_size: 3
    weight_filler {
      type: "xavier"
    }
    bias_filler {
      type: "constant"
      value: 0
    }
  }
}
layer {
  name: "relu2_1"
  type: "ReLU"
  bottom: "conv2_1"
  top: "conv2_1"
}
layer {
  name: "conv2_2"
  type: "Convolution"
  bottom: "conv2_1"
  top: "conv2_2"
  param {
    lr_mult: 1
    decay_mult: 1
  }
  param {
    lr_mult: 2
    decay_mult: 0
  }
  convolution_param {
    num_output: 128
    pad: 1
    kernel_size: 3
    weight_filler {
      type: "xavier"
    }
    bias_filler {
      type: "constant"
      value: 0
    }
  }
}
layer {
  name: "relu2_2"
  type: "ReLU"
  bottom: "conv2_2"
  top: "conv2_2"
}
layer {
  name: "pool2"
  type: "Pooling"
  bottom: "conv2_2"
  top: "pool2"
  pooling_param {
    pool: MAX
    kernel_size: 2
    stride: 2
  }
}
layer {
  name: "conv3_1"
  type: "Convolution"
  bottom: "pool2"
  top: "conv3_1"
  param {
    lr_mult: 1
    decay_mult: 1
  }
  param {
    lr_mult: 2
    decay_mult: 0
  }
  convolution_param {
    num_output: 256
    pad: 1
    kernel_size: 3
    weight_filler {
      type: "xavier"
    }
    bias_filler {
      type: "constant"
      value: 0
    }
  }
}
layer {
  name: "relu3_1"
  type: "ReLU"
  bottom: "conv3_1"
  top: "conv3_1"
}
layer {
  name: "conv3_2"
  type: "Convolution"
  bottom: "conv3_1"
  top: "conv3_2"
  param {
    lr_mult: 1
    decay_mult: 1
  }
  param {
    lr_mult: 2
    decay_mult: 0
  }
  convolution_param {
    num_output: 256
    pad: 1
    kernel_size: 3
    weight_filler {
      type: "xavier"
    }
    bias_filler {
      type: "constant"
      value: 0
    }
  }
}
layer {
  name: "relu3_2"
  type: "ReLU"
  bottom: "conv3_2"
  top: "conv3_2"
}
layer {
  name: "conv3_3"
  type: "Convolution"
  bottom: "conv3_2"
  top: "conv3_3"
  param {
    lr_mult: 1
    decay_mult: 1
  }
  param {
    lr_mult: 2
    decay_mult: 0
  }
  convolution_param {
    num_output: 256
    pad: 1
    kernel_size: 3
    weight_filler {
      type: "xavier"
    }
    bias_filler {
      type: "constant"
      value: 0
    }
  }
}
layer {
  name: "relu3_3"
  type: "ReLU"
  bottom: "conv3_3"
  top: "conv3_3"
}
layer {
  name: "pool3"
  type: "Pooling"
  bottom: "conv3_3"
  top: "pool3"
  pooling_param {
    pool: MAX
    kernel_size: 2
    stride: 2
  }
}
layer {
  name: "conv4_1"
  type: "Convolution"
  bottom: "pool3"
  top: "conv4_1"
  param {
    lr_mult: 1
    decay_mult: 1
  }
  param {
    lr_mult: 2
    decay_mult: 0
  }
  convolution_param {
    num_output: 512
    pad: 1
    kernel_size: 3
    weight_filler {
      type: "xavier"
    }
    bias_filler {
      type: "constant"
      value: 0
    }
  }
}
layer {
  name: "relu4_1"
  type: "ReLU"
  bottom: "conv4_1"
  top: "conv4_1"
}
layer {
  name: "conv4_2"
  type: "Convolution"
  bottom: "conv4_1"
  top: "conv4_2"
  param {
    lr_mult: 1
    decay_mult: 1
  }
  param {
    lr_mult: 2
    decay_mult: 0
  }
  convolution_param {
    num_output: 512
    pad: 1
    kernel_size: 3
    weight_filler {
      type: "xavier"
    }
    bias_filler {
      type: "constant"
      value: 0
    }
  }
}
layer {
  name: "relu4_2"
  type: "ReLU"
  bottom: "conv4_2"
  top: "conv4_2"
}
layer {
  name: "conv4_3"
  type: "Convolution"
  bottom: "conv4_2"
  top: "conv4_3"
  param {
    lr_mult: 1
    decay_mult: 1
  }
  param {
    lr_mult: 2
    decay_mult: 0
  }
  convolution_param {
    num_output: 512
    pad: 1
    kernel_size: 3
    weight_filler {
      type: "xavier"
    }
    bias_filler {
      type: "constant"
      value: 0
    }
  }
}
layer {
  name: "relu4_3"
  type: "ReLU"
  bottom: "conv4_3"
  top: "conv4_3"
}
layer {
  name: "pool4"
  type: "Pooling"
  bottom: "conv4_3"
  top: "pool4"
  pooling_param {
    pool: MAX
    kernel_size: 2
    stride: 2
  }
}
layer {
  name: "conv5_1"
  type: "Convolution"
  bottom: "pool4"
  top: "conv5_1"
  param {
    lr_mult: 1
    decay_mult: 1
  }
  param {
    lr_mult: 2
    decay_mult: 0
  }
  convolution_param {
    num_output: 512
    pad: 1
    kernel_size: 3
    weight_filler {
      type: "xavier"
    }
    bias_filler {
      type: "constant"
      value: 0
    }
    dilation: 1
  }
}
layer {
  name: "relu5_1"
  type: "ReLU"
  bottom: "conv5_1"
  top: "conv5_1"
}
layer {
  name: "conv5_2"
  type: "Convolution"
  bottom: "conv5_1"
  top: "conv5_2"
  param {
    lr_mult: 1
    decay_mult: 1
  }
  param {
    lr_mult: 2
    decay_mult: 0
  }
  convolution_param {
    num_output: 512
    pad: 1
    kernel_size: 3
    weight_filler {
      type: "xavier"
    }
    bias_filler {
      type: "constant"
      value: 0
    }
    dilation: 1
  }
}
layer {
  name: "relu5_2"
  type: "ReLU"
  bottom: "conv5_2"
  top: "conv5_2"
}
layer {
  name: "conv5_3"
  type: "Convolution"
  bottom: "conv5_2"
  top: "conv5_3"
  param {
    lr_mult: 1
    decay_mult: 1
  }
  param {
    lr_mult: 2
    decay_mult: 0
  }
  convolution_param {
    num_output: 512
    pad: 1
    kernel_size: 3
    weight_filler {
      type: "xavier"
    }
    bias_filler {
      type: "constant"
      value: 0
    }
    dilation: 1
  }
}
layer {
  name: "relu5_3"
  type: "ReLU"
  bottom: "conv5_3"
  top: "conv5_3"
}
layer {
  name: "pool5"
  type: "Pooling"
  bottom: "conv5_3"
  top: "pool5"
  pooling_param {
    pool: MAX
    kernel_size: 3
    stride: 1
    pad: 1
  }
}
layer {
  name: "fc6"
  type: "Convolution"
  bottom: "pool5"
  top: "fc6"
  param {
    lr_mult: 1
    decay_mult: 1
  }
  param {
    lr_mult: 2
    decay_mult: 0
  }
  convolution_param {
    num_output: 1024
    pad: 6
    kernel_size: 3
    weight_filler {
      type: "xavier"
    }
    bias_filler {
      type: "constant"
      value: 0
    }
    dilation: 6
  }
}
layer {
  name: "relu6"
  type: "ReLU"
  bottom: "fc6"
  top: "fc6"
}
layer {
  name: "fc7"
  type: "Convolution"
  bottom: "fc6"
  top: "fc7"
  param {
    lr_mult: 1
    decay_mult: 1
  }
  param {
    lr_mult: 2
    decay_mult: 0
  }
  convolution_param {
    num_output: 1024
    kernel_size: 1
    weight_filler {
      type: "xavier"
    }
    bias_filler {
      type: "constant"
      value: 0
    }
  }
}
layer {
  name: "relu7"
  type: "ReLU"
  bottom: "fc7"
  top: "fc7"
}
layer {
  name: "conv6_1"
  type: "Convolution"
  bottom: "fc7"
  top: "conv6_1"
  param {
    lr_mult: 1
    decay_mult: 1
  }
  param {
    lr_mult: 2
    decay_mult: 0
  }
  convolution_param {
    num_output: 256
    pad: 0
    kernel_size: 1
    stride: 1
    weight_filler {
      type: "xavier"
    }
    bias_filler {
      type: "constant"
      value: 0
    }
  }
}
layer {
  name: "conv6_1_relu"
  type: "ReLU"
  bottom: "conv6_1"
  top: "conv6_1"
}
layer {
  name: "conv6_2"
  type: "Convolution"
  bottom: "conv6_1"
  top: "conv6_2"
  param {
    lr_mult: 1
    decay_mult: 1
  }
  param {
    lr_mult: 2
    decay_mult: 0
  }
  convolution_param {
    num_output: 512
    pad: 1
    kernel_size: 3
    stride: 2
    weight_filler {
      type: "xavier"
    }
    bias_filler {
      type: "constant"
      value: 0
    }
  }
}
layer {
  name: "conv6_2_relu"
  type: "ReLU"
  bottom: "conv6_2"
  top: "conv6_2"
}
layer {
  name: "conv7_1"
  type: "Convolution"
  bottom: "conv6_2"
  top: "conv7_1"
  param {
    lr_mult: 1
    decay_mult: 1
  }
  param {
    lr_mult: 2
    decay_mult: 0
  }
  convolution_param {
    num_output: 128
    pad: 0
    kernel_size: 1
    stride: 1
    weight_filler {
      type: "xavier"
    }
    bias_filler {
      type: "constant"
      value: 0
    }
  }
}
layer {
  name: "conv7_1_relu"
  type: "ReLU"
  bottom: "conv7_1"
  top: "conv7_1"
}
layer {
  name: "conv7_2"
  type: "Convolution"
  bottom: "conv7_1"
  top: "conv7_2"
  param {
    lr_mult: 1
    decay_mult: 1
  }
  param {
    lr_mult: 2
    decay_mult: 0
  }
  convolution_param {
    num_output: 256
    pad: 1
    kernel_size: 3
    stride: 2
    weight_filler {
      type: "xavier"
    }
    bias_filler {
      type: "constant"
      value: 0
    }
  }
}
layer {
  name: "conv7_2_relu"
  type: "ReLU"
  bottom: "conv7_2"
  top: "conv7_2"
}
layer {
  name: "conv8_1"
  type: "Convolution"
  bottom: "conv7_2"
  top: "conv8_1"
  param {
    lr_mult: 1
    decay_mult: 1
  }
  param {
    lr_mult: 2
    decay_mult: 0
  }
  convolution_param {
    num_output: 128
    pad: 0
    kernel_size: 1
    stride: 1
    weight_filler {
      type: "xavier"
    }
    bias_filler {
      type: "constant"
      value: 0
    }
  }
}
layer {
  name: "conv8_1_relu"
  type: "ReLU"
  bottom: "conv8_1"
  top: "conv8_1"
}
layer {
  name: "conv8_2"
  type: "Convolution"
  bottom: "conv8_1"
  top: "conv8_2"
  param {
    lr_mult: 1
    decay_mult: 1
  }
  param {
    lr_mult: 2
    decay_mult: 0
  }
  convolution_param {
    num_output: 256
    pad: 0
    kernel_size: 3
    stride: 1
    weight_filler {
      type: "xavier"
    }
    bias_filler {
      type: "constant"
      value: 0
    }
  }
}
layer {
  name: "conv8_2_relu"
  type: "ReLU"
  bottom: "conv8_2"
  top: "conv8_2"
}
layer {
  name: "conv9_1"
  type: "Convolution"
  bottom: "conv8_2"
  top: "conv9_1"
  param {
    lr_mult: 1
    decay_mult: 1
  }
  param {
    lr_mult: 2
    decay_mult: 0
  }
  convolution_param {
    num_output: 128
    pad: 0
    kernel_size: 1
    stride: 1
    weight_filler {
      type: "xavier"
    }
    bias_filler {
      type: "constant"
      value: 0
    }
  }
}
layer {
  name: "conv9_1_relu"
  type: "ReLU"
  bottom: "conv9_1"
  top: "conv9_1"
}
layer {
  name: "conv9_2"
  type: "Convolution"
  bottom: "conv9_1"
  top: "conv9_2"
  param {
    lr_mult: 1
    decay_mult: 1
  }
  param {
    lr_mult: 2
    decay_mult: 0
  }
  convolution_param {
    num_output: 256
    pad: 0
    kernel_size: 3
    stride: 1
    weight_filler {
      type: "xavier"
    }
    bias_filler {
      type: "constant"
      value: 0
    }
  }
}
layer {
  name: "conv9_2_relu"
  type: "ReLU"
  bottom: "conv9_2"
  top: "conv9_2"
}
layer {
  name: "conv4_3_norm"
  type: "Normalize"
  bottom: "conv4_3"
  top: "conv4_3_norm"
  norm_param {
    across_spatial: false
    scale_filler {
      type: "constant"
      value: 20
    }
    channel_shared: false
  }
}
layer {
  name: "conv4_3_norm_mbox_loc"
  type: "Convolution"
  bottom: "conv4_3_norm"
  top: "conv4_3_norm_mbox_loc"
  param {
    lr_mult: 1
    decay_mult: 1
  }
  param {
    lr_mult: 2
    decay_mult: 0
  }
  convolution_param {
    num_output: 16
    pad: 1
    kernel_size: 3
    stride: 1
    weight_filler {
      type: "xavier"
    }
    bias_filler {
      type: "constant"
      value: 0
    }
  }
}
layer {
  name: "conv4_3_norm_mbox_loc_perm"
  type: "Permute"
  bottom: "conv4_3_norm_mbox_loc"
  top: "conv4_3_norm_mbox_loc_perm"
  permute_param {
    order: 0
    order: 2
    order: 3
    order: 1
  }
}
layer {
  name: "conv4_3_norm_mbox_loc_flat"
  type: "Flatten"
  bottom: "conv4_3_norm_mbox_loc_perm"
  top: "conv4_3_norm_mbox_loc_flat"
  flatten_param {
    axis: 1
  }
}
layer {
  name: "conv4_3_norm_mbox_conf"
  type: "Convolution"
  bottom: "conv4_3_norm"
  top: "conv4_3_norm_mbox_conf"
  param {
    lr_mult: 1
    decay_mult: 1
  }
  param {
    lr_mult: 2
    decay_mult: 0
  }
  convolution_param {
    num_output: 8
    pad: 1
    kernel_size: 3
    stride: 1
    weight_filler {
      type: "xavier"
    }
    bias_filler {
      type: "constant"
      value: 0
    }
  }
}
layer {
  name: "conv4_3_norm_mbox_conf_perm"
  type: "Permute"
  bottom: "conv4_3_norm_mbox_conf"
  top: "conv4_3_norm_mbox_conf_perm"
  permute_param {
    order: 0
    order: 2
    order: 3
    order: 1
  }
}
layer {
  name: "conv4_3_norm_mbox_conf_flat"
  type: "Flatten"
  bottom: "conv4_3_norm_mbox_conf_perm"
  top: "conv4_3_norm_mbox_conf_flat"
  flatten_param {
    axis: 1
  }
}
layer {
  name: "conv4_3_norm_mbox_priorbox"
  type: "PriorBox"
  bottom: "conv4_3_norm"
  bottom: "data"
  top: "conv4_3_norm_mbox_priorbox"
  prior_box_param {
    min_size: 30
    max_size: 60
    aspect_ratio: 2
    flip: true
    clip: false
    variance: 0.1
    variance: 0.1
    variance: 0.2
    variance: 0.2
    step: 8
    offset: 0.5
  }
}
layer {
  name: "fc7_mbox_loc"
  type: "Convolution"
  bottom: "fc7"
  top: "fc7_mbox_loc"
  param {
    lr_mult: 1
    decay_mult: 1
  }
  param {
    lr_mult: 2
    decay_mult: 0
  }
  convolution_param {
    num_output: 24
    pad: 1
    kernel_size: 3
    stride: 1
    weight_filler {
      type: "xavier"
    }
    bias_filler {
      type: "constant"
      value: 0
    }
  }
}
layer {
  name: "fc7_mbox_loc_perm"
  type: "Permute"
  bottom: "fc7_mbox_loc"
  top: "fc7_mbox_loc_perm"
  permute_param {
    order: 0
    order: 2
    order: 3
    order: 1
  }
}
layer {
  name: "fc7_mbox_loc_flat"
  type: "Flatten"
  bottom: "fc7_mbox_loc_perm"
  top: "fc7_mbox_loc_flat"
  flatten_param {
    axis: 1
  }
}
layer {
  name: "fc7_mbox_conf"
  type: "Convolution"
  bottom: "fc7"
  top: "fc7_mbox_conf"
  param {
    lr_mult: 1
    decay_mult: 1
  }
  param {
    lr_mult: 2
    decay_mult: 0
  }
  convolution_param {
    num_output: 12
    pad: 1
    kernel_size: 3
    stride: 1
    weight_filler {
      type: "xavier"
    }
    bias_filler {
      type: "constant"
      value: 0
    }
  }
}
layer {
  name: "fc7_mbox_conf_perm"
  type: "Permute"
  bottom: "fc7_mbox_conf"
  top: "fc7_mbox_conf_perm"
  permute_param {
    order: 0
    order: 2
    order: 3
    order: 1
  }
}
layer {
  name: "fc7_mbox_conf_flat"
  type: "Flatten"
  bottom: "fc7_mbox_conf_perm"
  top: "fc7_mbox_conf_flat"
  flatten_param {
    axis: 1
  }
}
layer {
  name: "fc7_mbox_priorbox"
  type: "PriorBox"
  bottom: "fc7"
  bottom: "data"
  top: "fc7_mbox_priorbox"
  prior_box_param {
    min_size: 60
    max_size: 111
    aspect_ratio: 2
    aspect_ratio: 3
    flip: true
    clip: false
    variance: 0.1
    variance: 0.1
    variance: 0.2
    variance: 0.2
    step: 16
    offset: 0.5
  }
}
layer {
  name: "conv6_2_mbox_loc"
  type: "Convolution"
  bottom: "conv6_2"
  top: "conv6_2_mbox_loc"
  param {
    lr_mult: 1
    decay_mult: 1
  }
  param {
    lr_mult: 2
    decay_mult: 0
  }
  convolution_param {
    num_output: 24
    pad: 1
    kernel_size: 3
    stride: 1
    weight_filler {
      type: "xavier"
    }
    bias_filler {
      type: "constant"
      value: 0
    }
  }
}
layer {
  name: "conv6_2_mbox_loc_perm"
  type: "Permute"
  bottom: "conv6_2_mbox_loc"
  top: "conv6_2_mbox_loc_perm"
  permute_param {
    order: 0
    order: 2
    order: 3
    order: 1
  }
}
layer {
  name: "conv6_2_mbox_loc_flat"
  type: "Flatten"
  bottom: "conv6_2_mbox_loc_perm"
  top: "conv6_2_mbox_loc_flat"
  flatten_param {
    axis: 1
  }
}
layer {
  name: "conv6_2_mbox_conf"
  type: "Convolution"
  bottom: "conv6_2"
  top: "conv6_2_mbox_conf"
  param {
    lr_mult: 1
    decay_mult: 1
  }
  param {
    lr_mult: 2
    decay_mult: 0
  }
  convolution_param {
    num_output: 12
    pad: 1
    kernel_size: 3
    stride: 1
    weight_filler {
      type: "xavier"
    }
    bias_filler {
      type: "constant"
      value: 0
    }
  }
}
layer {
  name: "conv6_2_mbox_conf_perm"
  type: "Permute"
  bottom: "conv6_2_mbox_conf"
  top: "conv6_2_mbox_conf_perm"
  permute_param {
    order: 0
    order: 2
    order: 3
    order: 1
  }
}
layer {
  name: "conv6_2_mbox_conf_flat"
  type: "Flatten"
  bottom: "conv6_2_mbox_conf_perm"
  top: "conv6_2_mbox_conf_flat"
  flatten_param {
    axis: 1
  }
}
layer {
  name: "conv6_2_mbox_priorbox"
  type: "PriorBox"
  bottom: "conv6_2"
  bottom: "data"
  top: "conv6_2_mbox_priorbox"
  prior_box_param {
    min_size: 111
    max_size: 162
    aspect_ratio: 2
    aspect_ratio: 3
    flip: true
    clip: false
    variance: 0.1
    variance: 0.1
    variance: 0.2
    variance: 0.2
    step: 32
    offset: 0.5
  }
}
layer {
  name: "conv7_2_mbox_loc"
  type: "Convolution"
  bottom: "conv7_2"
  top: "conv7_2_mbox_loc"
  param {
    lr_mult: 1
    decay_mult: 1
  }
  param {
    lr_mult: 2
    decay_mult: 0
  }
  convolution_param {
    num_output: 24
    pad: 1
    kernel_size: 3
    stride: 1
    weight_filler {
      type: "xavier"
    }
    bias_filler {
      type: "constant"
      value: 0
    }
  }
}
layer {
  name: "conv7_2_mbox_loc_perm"
  type: "Permute"
  bottom: "conv7_2_mbox_loc"
  top: "conv7_2_mbox_loc_perm"
  permute_param {
    order: 0
    order: 2
    order: 3
    order: 1
  }
}
layer {
  name: "conv7_2_mbox_loc_flat"
  type: "Flatten"
  bottom: "conv7_2_mbox_loc_perm"
  top: "conv7_2_mbox_loc_flat"
  flatten_param {
    axis: 1
  }
}
layer {
  name: "conv7_2_mbox_conf"
  type: "Convolution"
  bottom: "conv7_2"
  top: "conv7_2_mbox_conf"
  param {
    lr_mult: 1
    decay_mult: 1
  }
  param {
    lr_mult: 2
    decay_mult: 0
  }
  convolution_param {
    num_output: 12
    pad: 1
    kernel_size: 3
    stride: 1
    weight_filler {
      type: "xavier"
    }
    bias_filler {
      type: "constant"
      value: 0
    }
  }
}
layer {
  name: "conv7_2_mbox_conf_perm"
  type: "Permute"
  bottom: "conv7_2_mbox_conf"
  top: "conv7_2_mbox_conf_perm"
  permute_param {
    order: 0
    order: 2
    order: 3
    order: 1
  }
}
layer {
  name: "conv7_2_mbox_conf_flat"
  type: "Flatten"
  bottom: "conv7_2_mbox_conf_perm"
  top: "conv7_2_mbox_conf_flat"
  flatten_param {
    axis: 1
  }
}
layer {
  name: "conv7_2_mbox_priorbox"
  type: "PriorBox"
  bottom: "conv7_2"
  bottom: "data"
  top: "conv7_2_mbox_priorbox"
  prior_box_param {
    min_size: 162
    max_size: 213
    aspect_ratio: 2
    aspect_ratio: 3
    flip: true
    clip: false
    variance: 0.1
    variance: 0.1
    variance: 0.2
    variance: 0.2
    step: 64
    offset: 0.5
  }
}
layer {
  name: "conv8_2_mbox_loc"
  type: "Convolution"
  bottom: "conv8_2"
  top: "conv8_2_mbox_loc"
  param {
    lr_mult: 1
    decay_mult: 1
  }
  param {
    lr_mult: 2
    decay_mult: 0
  }
  convolution_param {
    num_output: 16
    pad: 1
    kernel_size: 3
    stride: 1
    weight_filler {
      type: "xavier"
    }
    bias_filler {
      type: "constant"
      value: 0
    }
  }
}
layer {
  name: "conv8_2_mbox_loc_perm"
  type: "Permute"
  bottom: "conv8_2_mbox_loc"
  top: "conv8_2_mbox_loc_perm"
  permute_param {
    order: 0
    order: 2
    order: 3
    order: 1
  }
}
layer {
  name: "conv8_2_mbox_loc_flat"
  type: "Flatten"
  bottom: "conv8_2_mbox_loc_perm"
  top: "conv8_2_mbox_loc_flat"
  flatten_param {
    axis: 1
  }
}
layer {
  name: "conv8_2_mbox_conf"
  type: "Convolution"
  bottom: "conv8_2"
  top: "conv8_2_mbox_conf"
  param {
    lr_mult: 1
    decay_mult: 1
  }
  param {
    lr_mult: 2
    decay_mult: 0
  }
  convolution_param {
    num_output: 8
    pad: 1
    kernel_size: 3
    stride: 1
    weight_filler {
      type: "xavier"
    }
    bias_filler {
      type: "constant"
      value: 0
    }
  }
}
layer {
  name: "conv8_2_mbox_conf_perm"
  type: "Permute"
  bottom: "conv8_2_mbox_conf"
  top: "conv8_2_mbox_conf_perm"
  permute_param {
    order: 0
    order: 2
    order: 3
    order: 1
  }
}
layer {
  name: "conv8_2_mbox_conf_flat"
  type: "Flatten"
  bottom: "conv8_2_mbox_conf_perm"
  top: "conv8_2_mbox_conf_flat"
  flatten_param {
    axis: 1
  }
}
layer {
  name: "conv8_2_mbox_priorbox"
  type: "PriorBox"
  bottom: "conv8_2"
  bottom: "data"
  top: "conv8_2_mbox_priorbox"
  prior_box_param {
    min_size: 213
    max_size: 264
    aspect_ratio: 2
    flip: true
    clip: false
    variance: 0.1
    variance: 0.1
    variance: 0.2
    variance: 0.2
    step: 100
    offset: 0.5
  }
}
layer {
  name: "conv9_2_mbox_loc"
  type: "Convolution"
  bottom: "conv9_2"
  top: "conv9_2_mbox_loc"
  param {
    lr_mult: 1
    decay_mult: 1
  }
  param {
    lr_mult: 2
    decay_mult: 0
  }
  convolution_param {
    num_output: 16
    pad: 1
    kernel_size: 3
    stride: 1
    weight_filler {
      type: "xavier"
    }
    bias_filler {
      type: "constant"
      value: 0
    }
  }
}
layer {
  name: "conv9_2_mbox_loc_perm"
  type: "Permute"
  bottom: "conv9_2_mbox_loc"
  top: "conv9_2_mbox_loc_perm"
  permute_param {
    order: 0
    order: 2
    order: 3
    order: 1
  }
}
layer {
  name: "conv9_2_mbox_loc_flat"
  type: "Flatten"
  bottom: "conv9_2_mbox_loc_perm"
  top: "conv9_2_mbox_loc_flat"
  flatten_param {
    axis: 1
  }
}
layer {
  name: "conv9_2_mbox_conf"
  type: "Convolution"
  bottom: "conv9_2"
  top: "conv9_2_mbox_conf"
  param {
    lr_mult: 1
    decay_mult: 1
  }
  param {
    lr_mult: 2
    decay_mult: 0
  }
  convolution_param {
    num_output: 8
    pad: 1
    kernel_size: 3
    stride: 1
    weight_filler {
      type: "xavier"
    }
    bias_filler {
      type: "constant"
      value: 0
    }
  }
}
layer {
  name: "conv9_2_mbox_conf_perm"
  type: "Permute"
  bottom: "conv9_2_mbox_conf"
  top: "conv9_2_mbox_conf_perm"
  permute_param {
    order: 0
    order: 2
    order: 3
    order: 1
  }
}
layer {
  name: "conv9_2_mbox_conf_flat"
  type: "Flatten"
  bottom: "conv9_2_mbox_conf_perm"
  top: "conv9_2_mbox_conf_flat"
  flatten_param {
    axis: 1
  }
}
layer {
  name: "conv9_2_mbox_priorbox"
  type: "PriorBox"
  bottom: "conv9_2"
  bottom: "data"
  top: "conv9_2_mbox_priorbox"
  prior_box_param {
    min_size: 264
    max_size: 315
    aspect_ratio: 2
    flip: true
    clip: false
    variance: 0.1
    variance: 0.1
    variance: 0.2
    variance: 0.2
    step: 300
    offset: 0.5
  }
}
layer {
  name: "mbox_loc"
  type: "Concat"
  bottom: "conv4_3_norm_mbox_loc_flat"
  bottom: "fc7_mbox_loc_flat"
  bottom: "conv6_2_mbox_loc_flat"
  bottom: "conv7_2_mbox_loc_flat"
  bottom: "conv8_2_mbox_loc_flat"
  bottom: "conv9_2_mbox_loc_flat"
  top: "mbox_loc"
  concat_param {
    axis: 1
  }
}
layer {
  name: "mbox_conf"
  type: "Concat"
  bottom: "conv4_3_norm_mbox_conf_flat"
  bottom: "fc7_mbox_conf_flat"
  bottom: "conv6_2_mbox_conf_flat"
  bottom: "conv7_2_mbox_conf_flat"
  bottom: "conv8_2_mbox_conf_flat"
  bottom: "conv9_2_mbox_conf_flat"
  top: "mbox_conf"
  concat_param {
    axis: 1
  }
}
layer {
  name: "mbox_priorbox"
  type: "Concat"
  bottom: "conv4_3_norm_mbox_priorbox"
  bottom: "fc7_mbox_priorbox"
  bottom: "conv6_2_mbox_priorbox"
  bottom: "conv7_2_mbox_priorbox"
  bottom: "conv8_2_mbox_priorbox"
  bottom: "conv9_2_mbox_priorbox"
  top: "mbox_priorbox"
  concat_param {
    axis: 2
  }
}
layer {
  name: "mbox_loss"
  type: "MultiBoxLoss"
  bottom: "mbox_loc"
  bottom: "mbox_conf"
  bottom: "mbox_priorbox"
  bottom: "label"
  top: "mbox_loss"
  include {
    phase: TRAIN
  }
  propagate_down: true
  propagate_down: true
  propagate_down: false
  propagate_down: false
  loss_param {
    normalization: VALID
  }
  multibox_loss_param {
    loc_loss_type: SMOOTH_L1
    conf_loss_type: SOFTMAX
    loc_weight: 1
    num_classes: 2
    share_location: true
    match_type: PER_PREDICTION
    overlap_threshold: 0.5
    use_prior_for_matching: true
    background_label_id: 0
    use_difficult_gt: true
    neg_pos_ratio: 3
    neg_overlap: 0.5
    code_type: CENTER_SIZE
    ignore_cross_boundary_bbox: false
    mining_type: MAX_NEGATIVE
  }
}
I0609 15:38:10.774973 31883 layer_factory.hpp:77] Creating layer data
I0609 15:38:10.775117 31883 net.cpp:100] Creating Layer data
I0609 15:38:10.775128 31883 net.cpp:408] data -> data
I0609 15:38:10.775161 31883 net.cpp:408] data -> label
I0609 15:38:10.775565 31897 db_lmdb.cpp:35] Opened lmdb examples/grayscale_tbs_v2.0/grayscale_tbs_v2.0_trainval_lmdb
I0609 15:38:10.784863 31883 annotated_data_layer.cpp:62] output data size: 32,3,300,300
I0609 15:38:10.844954 31883 net.cpp:150] Setting up data
I0609 15:38:10.844972 31883 net.cpp:157] Top shape: 32 3 300 300 (8640000)
I0609 15:38:10.844995 31883 net.cpp:157] Top shape: 1 1 1 8 (8)
I0609 15:38:10.844996 31883 net.cpp:165] Memory required for data: 34560032
I0609 15:38:10.845021 31883 layer_factory.hpp:77] Creating layer data_data_0_split
I0609 15:38:10.845032 31883 net.cpp:100] Creating Layer data_data_0_split
I0609 15:38:10.845052 31883 net.cpp:434] data_data_0_split <- data
I0609 15:38:10.845062 31883 net.cpp:408] data_data_0_split -> data_data_0_split_0
I0609 15:38:10.845074 31883 net.cpp:408] data_data_0_split -> data_data_0_split_1
I0609 15:38:10.845082 31883 net.cpp:408] data_data_0_split -> data_data_0_split_2
I0609 15:38:10.845105 31883 net.cpp:408] data_data_0_split -> data_data_0_split_3
I0609 15:38:10.845111 31883 net.cpp:408] data_data_0_split -> data_data_0_split_4
I0609 15:38:10.845118 31883 net.cpp:408] data_data_0_split -> data_data_0_split_5
I0609 15:38:10.845121 31883 net.cpp:408] data_data_0_split -> data_data_0_split_6
I0609 15:38:10.845222 31883 net.cpp:150] Setting up data_data_0_split
I0609 15:38:10.845228 31883 net.cpp:157] Top shape: 32 3 300 300 (8640000)
I0609 15:38:10.845232 31883 net.cpp:157] Top shape: 32 3 300 300 (8640000)
I0609 15:38:10.845234 31883 net.cpp:157] Top shape: 32 3 300 300 (8640000)
I0609 15:38:10.845237 31883 net.cpp:157] Top shape: 32 3 300 300 (8640000)
I0609 15:38:10.845239 31883 net.cpp:157] Top shape: 32 3 300 300 (8640000)
I0609 15:38:10.845257 31883 net.cpp:157] Top shape: 32 3 300 300 (8640000)
I0609 15:38:10.845259 31883 net.cpp:157] Top shape: 32 3 300 300 (8640000)
I0609 15:38:10.845263 31883 net.cpp:165] Memory required for data: 276480032
I0609 15:38:10.845264 31883 layer_factory.hpp:77] Creating layer conv1_1
I0609 15:38:10.845276 31883 net.cpp:100] Creating Layer conv1_1
I0609 15:38:10.845279 31883 net.cpp:434] conv1_1 <- data_data_0_split_0
I0609 15:38:10.845285 31883 net.cpp:408] conv1_1 -> conv1_1
I0609 15:38:11.016803 31883 net.cpp:150] Setting up conv1_1
I0609 15:38:11.016824 31883 net.cpp:157] Top shape: 32 64 300 300 (184320000)
I0609 15:38:11.016826 31883 net.cpp:165] Memory required for data: 1013760032
I0609 15:38:11.016856 31883 layer_factory.hpp:77] Creating layer relu1_1
I0609 15:38:11.016878 31883 net.cpp:100] Creating Layer relu1_1
I0609 15:38:11.016882 31883 net.cpp:434] relu1_1 <- conv1_1
I0609 15:38:11.016886 31883 net.cpp:395] relu1_1 -> conv1_1 (in-place)
I0609 15:38:11.017045 31883 net.cpp:150] Setting up relu1_1
I0609 15:38:11.017052 31883 net.cpp:157] Top shape: 32 64 300 300 (184320000)
I0609 15:38:11.017055 31883 net.cpp:165] Memory required for data: 1751040032
I0609 15:38:11.017057 31883 layer_factory.hpp:77] Creating layer conv1_2
I0609 15:38:11.017079 31883 net.cpp:100] Creating Layer conv1_2
I0609 15:38:11.017082 31883 net.cpp:434] conv1_2 <- conv1_1
I0609 15:38:11.017102 31883 net.cpp:408] conv1_2 -> conv1_2
I0609 15:38:11.019217 31883 net.cpp:150] Setting up conv1_2
I0609 15:38:11.019229 31883 net.cpp:157] Top shape: 32 64 300 300 (184320000)
I0609 15:38:11.019232 31883 net.cpp:165] Memory required for data: 2488320032
I0609 15:38:11.019239 31883 layer_factory.hpp:77] Creating layer relu1_2
I0609 15:38:11.019259 31883 net.cpp:100] Creating Layer relu1_2
I0609 15:38:11.019263 31883 net.cpp:434] relu1_2 <- conv1_2
I0609 15:38:11.019266 31883 net.cpp:395] relu1_2 -> conv1_2 (in-place)
I0609 15:38:11.019961 31883 net.cpp:150] Setting up relu1_2
I0609 15:38:11.019970 31883 net.cpp:157] Top shape: 32 64 300 300 (184320000)
I0609 15:38:11.019973 31883 net.cpp:165] Memory required for data: 3225600032
I0609 15:38:11.019976 31883 layer_factory.hpp:77] Creating layer pool1
I0609 15:38:11.019981 31883 net.cpp:100] Creating Layer pool1
I0609 15:38:11.019984 31883 net.cpp:434] pool1 <- conv1_2
I0609 15:38:11.019989 31883 net.cpp:408] pool1 -> pool1
I0609 15:38:11.020045 31883 net.cpp:150] Setting up pool1
I0609 15:38:11.020051 31883 net.cpp:157] Top shape: 32 64 150 150 (46080000)
I0609 15:38:11.020053 31883 net.cpp:165] Memory required for data: 3409920032
I0609 15:38:11.020056 31883 layer_factory.hpp:77] Creating layer conv2_1
I0609 15:38:11.020062 31883 net.cpp:100] Creating Layer conv2_1
I0609 15:38:11.020076 31883 net.cpp:434] conv2_1 <- pool1
I0609 15:38:11.020081 31883 net.cpp:408] conv2_1 -> conv2_1
I0609 15:38:11.021314 31883 net.cpp:150] Setting up conv2_1
I0609 15:38:11.021324 31883 net.cpp:157] Top shape: 32 128 150 150 (92160000)
I0609 15:38:11.021327 31883 net.cpp:165] Memory required for data: 3778560032
I0609 15:38:11.021335 31883 layer_factory.hpp:77] Creating layer relu2_1
I0609 15:38:11.021342 31883 net.cpp:100] Creating Layer relu2_1
I0609 15:38:11.021347 31883 net.cpp:434] relu2_1 <- conv2_1
I0609 15:38:11.021351 31883 net.cpp:395] relu2_1 -> conv2_1 (in-place)
I0609 15:38:11.021914 31883 net.cpp:150] Setting up relu2_1
I0609 15:38:11.021921 31883 net.cpp:157] Top shape: 32 128 150 150 (92160000)
I0609 15:38:11.021925 31883 net.cpp:165] Memory required for data: 4147200032
I0609 15:38:11.021929 31883 layer_factory.hpp:77] Creating layer conv2_2
I0609 15:38:11.021934 31883 net.cpp:100] Creating Layer conv2_2
I0609 15:38:11.021937 31883 net.cpp:434] conv2_2 <- conv2_1
I0609 15:38:11.021942 31883 net.cpp:408] conv2_2 -> conv2_2
I0609 15:38:11.023905 31883 net.cpp:150] Setting up conv2_2
I0609 15:38:11.023914 31883 net.cpp:157] Top shape: 32 128 150 150 (92160000)
I0609 15:38:11.023916 31883 net.cpp:165] Memory required for data: 4515840032
I0609 15:38:11.023922 31883 layer_factory.hpp:77] Creating layer relu2_2
I0609 15:38:11.023926 31883 net.cpp:100] Creating Layer relu2_2
I0609 15:38:11.023931 31883 net.cpp:434] relu2_2 <- conv2_2
I0609 15:38:11.023933 31883 net.cpp:395] relu2_2 -> conv2_2 (in-place)
I0609 15:38:11.024065 31883 net.cpp:150] Setting up relu2_2
I0609 15:38:11.024072 31883 net.cpp:157] Top shape: 32 128 150 150 (92160000)
I0609 15:38:11.024075 31883 net.cpp:165] Memory required for data: 4884480032
I0609 15:38:11.024077 31883 layer_factory.hpp:77] Creating layer pool2
I0609 15:38:11.024081 31883 net.cpp:100] Creating Layer pool2
I0609 15:38:11.024085 31883 net.cpp:434] pool2 <- conv2_2
I0609 15:38:11.024087 31883 net.cpp:408] pool2 -> pool2
I0609 15:38:11.024116 31883 net.cpp:150] Setting up pool2
I0609 15:38:11.024121 31883 net.cpp:157] Top shape: 32 128 75 75 (23040000)
I0609 15:38:11.024123 31883 net.cpp:165] Memory required for data: 4976640032
I0609 15:38:11.024127 31883 layer_factory.hpp:77] Creating layer conv3_1
I0609 15:38:11.024132 31883 net.cpp:100] Creating Layer conv3_1
I0609 15:38:11.024134 31883 net.cpp:434] conv3_1 <- pool2
I0609 15:38:11.024138 31883 net.cpp:408] conv3_1 -> conv3_1
I0609 15:38:11.027853 31883 net.cpp:150] Setting up conv3_1
I0609 15:38:11.027870 31883 net.cpp:157] Top shape: 32 256 75 75 (46080000)
I0609 15:38:11.027873 31883 net.cpp:165] Memory required for data: 5160960032
I0609 15:38:11.027884 31883 layer_factory.hpp:77] Creating layer relu3_1
I0609 15:38:11.027904 31883 net.cpp:100] Creating Layer relu3_1
I0609 15:38:11.027909 31883 net.cpp:434] relu3_1 <- conv3_1
I0609 15:38:11.027915 31883 net.cpp:395] relu3_1 -> conv3_1 (in-place)
I0609 15:38:11.028074 31883 net.cpp:150] Setting up relu3_1
I0609 15:38:11.028085 31883 net.cpp:157] Top shape: 32 256 75 75 (46080000)
I0609 15:38:11.028090 31883 net.cpp:165] Memory required for data: 5345280032
I0609 15:38:11.028095 31883 layer_factory.hpp:77] Creating layer conv3_2
I0609 15:38:11.028105 31883 net.cpp:100] Creating Layer conv3_2
I0609 15:38:11.028110 31883 net.cpp:434] conv3_2 <- conv3_1
I0609 15:38:11.028116 31883 net.cpp:408] conv3_2 -> conv3_2
I0609 15:38:11.032630 31883 net.cpp:150] Setting up conv3_2
I0609 15:38:11.032649 31883 net.cpp:157] Top shape: 32 256 75 75 (46080000)
I0609 15:38:11.032652 31883 net.cpp:165] Memory required for data: 5529600032
I0609 15:38:11.032660 31883 layer_factory.hpp:77] Creating layer relu3_2
I0609 15:38:11.032670 31883 net.cpp:100] Creating Layer relu3_2
I0609 15:38:11.032673 31883 net.cpp:434] relu3_2 <- conv3_2
I0609 15:38:11.032677 31883 net.cpp:395] relu3_2 -> conv3_2 (in-place)
I0609 15:38:11.032807 31883 net.cpp:150] Setting up relu3_2
I0609 15:38:11.032814 31883 net.cpp:157] Top shape: 32 256 75 75 (46080000)
I0609 15:38:11.032827 31883 net.cpp:165] Memory required for data: 5713920032
I0609 15:38:11.032830 31883 layer_factory.hpp:77] Creating layer conv3_3
I0609 15:38:11.032840 31883 net.cpp:100] Creating Layer conv3_3
I0609 15:38:11.032845 31883 net.cpp:434] conv3_3 <- conv3_2
I0609 15:38:11.032848 31883 net.cpp:408] conv3_3 -> conv3_3
I0609 15:38:11.037297 31883 net.cpp:150] Setting up conv3_3
I0609 15:38:11.037318 31883 net.cpp:157] Top shape: 32 256 75 75 (46080000)
I0609 15:38:11.037322 31883 net.cpp:165] Memory required for data: 5898240032
I0609 15:38:11.037330 31883 layer_factory.hpp:77] Creating layer relu3_3
I0609 15:38:11.037340 31883 net.cpp:100] Creating Layer relu3_3
I0609 15:38:11.037345 31883 net.cpp:434] relu3_3 <- conv3_3
I0609 15:38:11.037350 31883 net.cpp:395] relu3_3 -> conv3_3 (in-place)
I0609 15:38:11.037483 31883 net.cpp:150] Setting up relu3_3
I0609 15:38:11.037490 31883 net.cpp:157] Top shape: 32 256 75 75 (46080000)
I0609 15:38:11.037494 31883 net.cpp:165] Memory required for data: 6082560032
I0609 15:38:11.037497 31883 layer_factory.hpp:77] Creating layer pool3
I0609 15:38:11.037505 31883 net.cpp:100] Creating Layer pool3
I0609 15:38:11.037509 31883 net.cpp:434] pool3 <- conv3_3
I0609 15:38:11.037514 31883 net.cpp:408] pool3 -> pool3
I0609 15:38:11.037549 31883 net.cpp:150] Setting up pool3
I0609 15:38:11.037554 31883 net.cpp:157] Top shape: 32 256 38 38 (11829248)
I0609 15:38:11.037555 31883 net.cpp:165] Memory required for data: 6129877024
I0609 15:38:11.037557 31883 layer_factory.hpp:77] Creating layer conv4_1
I0609 15:38:11.037564 31883 net.cpp:100] Creating Layer conv4_1
I0609 15:38:11.037567 31883 net.cpp:434] conv4_1 <- pool3
I0609 15:38:11.037571 31883 net.cpp:408] conv4_1 -> conv4_1
I0609 15:38:11.047492 31883 net.cpp:150] Setting up conv4_1
I0609 15:38:11.047513 31883 net.cpp:157] Top shape: 32 512 38 38 (23658496)
I0609 15:38:11.047516 31883 net.cpp:165] Memory required for data: 6224511008
I0609 15:38:11.047524 31883 layer_factory.hpp:77] Creating layer relu4_1
I0609 15:38:11.047533 31883 net.cpp:100] Creating Layer relu4_1
I0609 15:38:11.047538 31883 net.cpp:434] relu4_1 <- conv4_1
I0609 15:38:11.047543 31883 net.cpp:395] relu4_1 -> conv4_1 (in-place)
I0609 15:38:11.048185 31883 net.cpp:150] Setting up relu4_1
I0609 15:38:11.048197 31883 net.cpp:157] Top shape: 32 512 38 38 (23658496)
I0609 15:38:11.048200 31883 net.cpp:165] Memory required for data: 6319144992
I0609 15:38:11.048219 31883 layer_factory.hpp:77] Creating layer conv4_2
I0609 15:38:11.048244 31883 net.cpp:100] Creating Layer conv4_2
I0609 15:38:11.048249 31883 net.cpp:434] conv4_2 <- conv4_1
I0609 15:38:11.048256 31883 net.cpp:408] conv4_2 -> conv4_2
I0609 15:38:11.061157 31883 net.cpp:150] Setting up conv4_2
I0609 15:38:11.061177 31883 net.cpp:157] Top shape: 32 512 38 38 (23658496)
I0609 15:38:11.061179 31883 net.cpp:165] Memory required for data: 6413778976
I0609 15:38:11.061204 31883 layer_factory.hpp:77] Creating layer relu4_2
I0609 15:38:11.061211 31883 net.cpp:100] Creating Layer relu4_2
I0609 15:38:11.061214 31883 net.cpp:434] relu4_2 <- conv4_2
I0609 15:38:11.061220 31883 net.cpp:395] relu4_2 -> conv4_2 (in-place)
I0609 15:38:11.062292 31883 net.cpp:150] Setting up relu4_2
I0609 15:38:11.062316 31883 net.cpp:157] Top shape: 32 512 38 38 (23658496)
I0609 15:38:11.062320 31883 net.cpp:165] Memory required for data: 6508412960
I0609 15:38:11.062337 31883 layer_factory.hpp:77] Creating layer conv4_3
I0609 15:38:11.062348 31883 net.cpp:100] Creating Layer conv4_3
I0609 15:38:11.062352 31883 net.cpp:434] conv4_3 <- conv4_2
I0609 15:38:11.062371 31883 net.cpp:408] conv4_3 -> conv4_3
I0609 15:38:11.075418 31883 net.cpp:150] Setting up conv4_3
I0609 15:38:11.075438 31883 net.cpp:157] Top shape: 32 512 38 38 (23658496)
I0609 15:38:11.075440 31883 net.cpp:165] Memory required for data: 6603046944
I0609 15:38:11.075448 31883 layer_factory.hpp:77] Creating layer relu4_3
I0609 15:38:11.075456 31883 net.cpp:100] Creating Layer relu4_3
I0609 15:38:11.075460 31883 net.cpp:434] relu4_3 <- conv4_3
I0609 15:38:11.075481 31883 net.cpp:395] relu4_3 -> conv4_3 (in-place)
I0609 15:38:11.075728 31883 net.cpp:150] Setting up relu4_3
I0609 15:38:11.075738 31883 net.cpp:157] Top shape: 32 512 38 38 (23658496)
I0609 15:38:11.075740 31883 net.cpp:165] Memory required for data: 6697680928
I0609 15:38:11.075744 31883 layer_factory.hpp:77] Creating layer conv4_3_relu4_3_0_split
I0609 15:38:11.075752 31883 net.cpp:100] Creating Layer conv4_3_relu4_3_0_split
I0609 15:38:11.075757 31883 net.cpp:434] conv4_3_relu4_3_0_split <- conv4_3
I0609 15:38:11.075763 31883 net.cpp:408] conv4_3_relu4_3_0_split -> conv4_3_relu4_3_0_split_0
I0609 15:38:11.075772 31883 net.cpp:408] conv4_3_relu4_3_0_split -> conv4_3_relu4_3_0_split_1
I0609 15:38:11.075809 31883 net.cpp:150] Setting up conv4_3_relu4_3_0_split
I0609 15:38:11.075817 31883 net.cpp:157] Top shape: 32 512 38 38 (23658496)
I0609 15:38:11.075822 31883 net.cpp:157] Top shape: 32 512 38 38 (23658496)
I0609 15:38:11.075825 31883 net.cpp:165] Memory required for data: 6886948896
I0609 15:38:11.075829 31883 layer_factory.hpp:77] Creating layer pool4
I0609 15:38:11.075837 31883 net.cpp:100] Creating Layer pool4
I0609 15:38:11.075860 31883 net.cpp:434] pool4 <- conv4_3_relu4_3_0_split_0
I0609 15:38:11.075870 31883 net.cpp:408] pool4 -> pool4
I0609 15:38:11.075911 31883 net.cpp:150] Setting up pool4
I0609 15:38:11.075917 31883 net.cpp:157] Top shape: 32 512 19 19 (5914624)
I0609 15:38:11.075922 31883 net.cpp:165] Memory required for data: 6910607392
I0609 15:38:11.075925 31883 layer_factory.hpp:77] Creating layer conv5_1
I0609 15:38:11.075938 31883 net.cpp:100] Creating Layer conv5_1
I0609 15:38:11.075945 31883 net.cpp:434] conv5_1 <- pool4
I0609 15:38:11.075953 31883 net.cpp:408] conv5_1 -> conv5_1
I0609 15:38:11.088961 31883 net.cpp:150] Setting up conv5_1
I0609 15:38:11.088980 31883 net.cpp:157] Top shape: 32 512 19 19 (5914624)
I0609 15:38:11.088985 31883 net.cpp:165] Memory required for data: 6934265888
I0609 15:38:11.088994 31883 layer_factory.hpp:77] Creating layer relu5_1
I0609 15:38:11.089001 31883 net.cpp:100] Creating Layer relu5_1
I0609 15:38:11.089025 31883 net.cpp:434] relu5_1 <- conv5_1
I0609 15:38:11.089047 31883 net.cpp:395] relu5_1 -> conv5_1 (in-place)
I0609 15:38:11.089200 31883 net.cpp:150] Setting up relu5_1
I0609 15:38:11.089210 31883 net.cpp:157] Top shape: 32 512 19 19 (5914624)
I0609 15:38:11.089212 31883 net.cpp:165] Memory required for data: 6957924384
I0609 15:38:11.089217 31883 layer_factory.hpp:77] Creating layer conv5_2
I0609 15:38:11.089228 31883 net.cpp:100] Creating Layer conv5_2
I0609 15:38:11.089246 31883 net.cpp:434] conv5_2 <- conv5_1
I0609 15:38:11.089254 31883 net.cpp:408] conv5_2 -> conv5_2
I0609 15:38:11.101771 31883 net.cpp:150] Setting up conv5_2
I0609 15:38:11.101790 31883 net.cpp:157] Top shape: 32 512 19 19 (5914624)
I0609 15:38:11.101794 31883 net.cpp:165] Memory required for data: 6981582880
I0609 15:38:11.101804 31883 layer_factory.hpp:77] Creating layer relu5_2
I0609 15:38:11.101812 31883 net.cpp:100] Creating Layer relu5_2
I0609 15:38:11.101835 31883 net.cpp:434] relu5_2 <- conv5_2
I0609 15:38:11.101842 31883 net.cpp:395] relu5_2 -> conv5_2 (in-place)
I0609 15:38:11.102010 31883 net.cpp:150] Setting up relu5_2
I0609 15:38:11.102020 31883 net.cpp:157] Top shape: 32 512 19 19 (5914624)
I0609 15:38:11.102022 31883 net.cpp:165] Memory required for data: 7005241376
I0609 15:38:11.102025 31883 layer_factory.hpp:77] Creating layer conv5_3
I0609 15:38:11.102052 31883 net.cpp:100] Creating Layer conv5_3
I0609 15:38:11.102057 31883 net.cpp:434] conv5_3 <- conv5_2
I0609 15:38:11.102067 31883 net.cpp:408] conv5_3 -> conv5_3
I0609 15:38:11.115104 31883 net.cpp:150] Setting up conv5_3
I0609 15:38:11.115123 31883 net.cpp:157] Top shape: 32 512 19 19 (5914624)
I0609 15:38:11.115126 31883 net.cpp:165] Memory required for data: 7028899872
I0609 15:38:11.115135 31883 layer_factory.hpp:77] Creating layer relu5_3
I0609 15:38:11.115180 31883 net.cpp:100] Creating Layer relu5_3
I0609 15:38:11.115186 31883 net.cpp:434] relu5_3 <- conv5_3
I0609 15:38:11.115193 31883 net.cpp:395] relu5_3 -> conv5_3 (in-place)
I0609 15:38:11.115375 31883 net.cpp:150] Setting up relu5_3
I0609 15:38:11.115383 31883 net.cpp:157] Top shape: 32 512 19 19 (5914624)
I0609 15:38:11.115386 31883 net.cpp:165] Memory required for data: 7052558368
I0609 15:38:11.115391 31883 layer_factory.hpp:77] Creating layer pool5
I0609 15:38:11.115416 31883 net.cpp:100] Creating Layer pool5
I0609 15:38:11.115420 31883 net.cpp:434] pool5 <- conv5_3
I0609 15:38:11.115425 31883 net.cpp:408] pool5 -> pool5
I0609 15:38:11.115478 31883 net.cpp:150] Setting up pool5
I0609 15:38:11.115484 31883 net.cpp:157] Top shape: 32 512 19 19 (5914624)
I0609 15:38:11.115489 31883 net.cpp:165] Memory required for data: 7076216864
I0609 15:38:11.115491 31883 layer_factory.hpp:77] Creating layer fc6
I0609 15:38:11.115517 31883 net.cpp:100] Creating Layer fc6
I0609 15:38:11.115521 31883 net.cpp:434] fc6 <- pool5
I0609 15:38:11.115530 31883 net.cpp:408] fc6 -> fc6
I0609 15:38:11.138104 31883 net.cpp:150] Setting up fc6
I0609 15:38:11.138120 31883 net.cpp:157] Top shape: 32 1024 19 19 (11829248)
I0609 15:38:11.138124 31883 net.cpp:165] Memory required for data: 7123533856
I0609 15:38:11.138133 31883 layer_factory.hpp:77] Creating layer relu6
I0609 15:38:11.138157 31883 net.cpp:100] Creating Layer relu6
I0609 15:38:11.138164 31883 net.cpp:434] relu6 <- fc6
I0609 15:38:11.138185 31883 net.cpp:395] relu6 -> fc6 (in-place)
I0609 15:38:11.138897 31883 net.cpp:150] Setting up relu6
I0609 15:38:11.138907 31883 net.cpp:157] Top shape: 32 1024 19 19 (11829248)
I0609 15:38:11.138911 31883 net.cpp:165] Memory required for data: 7170850848
I0609 15:38:11.138916 31883 layer_factory.hpp:77] Creating layer fc7
I0609 15:38:11.138928 31883 net.cpp:100] Creating Layer fc7
I0609 15:38:11.138933 31883 net.cpp:434] fc7 <- fc6
I0609 15:38:11.138942 31883 net.cpp:408] fc7 -> fc7
I0609 15:38:11.145334 31883 net.cpp:150] Setting up fc7
I0609 15:38:11.145366 31883 net.cpp:157] Top shape: 32 1024 19 19 (11829248)
I0609 15:38:11.145370 31883 net.cpp:165] Memory required for data: 7218167840
I0609 15:38:11.145380 31883 layer_factory.hpp:77] Creating layer relu7
I0609 15:38:11.145387 31883 net.cpp:100] Creating Layer relu7
I0609 15:38:11.145392 31883 net.cpp:434] relu7 <- fc7
I0609 15:38:11.145401 31883 net.cpp:395] relu7 -> fc7 (in-place)
I0609 15:38:11.145542 31883 net.cpp:150] Setting up relu7
I0609 15:38:11.145551 31883 net.cpp:157] Top shape: 32 1024 19 19 (11829248)
I0609 15:38:11.145567 31883 net.cpp:165] Memory required for data: 7265484832
I0609 15:38:11.145571 31883 layer_factory.hpp:77] Creating layer fc7_relu7_0_split
I0609 15:38:11.145579 31883 net.cpp:100] Creating Layer fc7_relu7_0_split
I0609 15:38:11.145599 31883 net.cpp:434] fc7_relu7_0_split <- fc7
I0609 15:38:11.145606 31883 net.cpp:408] fc7_relu7_0_split -> fc7_relu7_0_split_0
I0609 15:38:11.145630 31883 net.cpp:408] fc7_relu7_0_split -> fc7_relu7_0_split_1
I0609 15:38:11.145644 31883 net.cpp:408] fc7_relu7_0_split -> fc7_relu7_0_split_2
I0609 15:38:11.145653 31883 net.cpp:408] fc7_relu7_0_split -> fc7_relu7_0_split_3
I0609 15:38:11.145709 31883 net.cpp:150] Setting up fc7_relu7_0_split
I0609 15:38:11.145715 31883 net.cpp:157] Top shape: 32 1024 19 19 (11829248)
I0609 15:38:11.145722 31883 net.cpp:157] Top shape: 32 1024 19 19 (11829248)
I0609 15:38:11.145727 31883 net.cpp:157] Top shape: 32 1024 19 19 (11829248)
I0609 15:38:11.145732 31883 net.cpp:157] Top shape: 32 1024 19 19 (11829248)
I0609 15:38:11.145737 31883 net.cpp:165] Memory required for data: 7454752800
I0609 15:38:11.145741 31883 layer_factory.hpp:77] Creating layer conv6_1
I0609 15:38:11.145751 31883 net.cpp:100] Creating Layer conv6_1
I0609 15:38:11.145756 31883 net.cpp:434] conv6_1 <- fc7_relu7_0_split_0
I0609 15:38:11.145764 31883 net.cpp:408] conv6_1 -> conv6_1
I0609 15:38:11.149524 31883 net.cpp:150] Setting up conv6_1
I0609 15:38:11.149543 31883 net.cpp:157] Top shape: 32 256 19 19 (2957312)
I0609 15:38:11.149545 31883 net.cpp:165] Memory required for data: 7466582048
I0609 15:38:11.149554 31883 layer_factory.hpp:77] Creating layer conv6_1_relu
I0609 15:38:11.149564 31883 net.cpp:100] Creating Layer conv6_1_relu
I0609 15:38:11.149579 31883 net.cpp:434] conv6_1_relu <- conv6_1
I0609 15:38:11.149586 31883 net.cpp:395] conv6_1_relu -> conv6_1 (in-place)
I0609 15:38:11.149726 31883 net.cpp:150] Setting up conv6_1_relu
I0609 15:38:11.149734 31883 net.cpp:157] Top shape: 32 256 19 19 (2957312)
I0609 15:38:11.149739 31883 net.cpp:165] Memory required for data: 7478411296
I0609 15:38:11.149742 31883 layer_factory.hpp:77] Creating layer conv6_2
I0609 15:38:11.149755 31883 net.cpp:100] Creating Layer conv6_2
I0609 15:38:11.149758 31883 net.cpp:434] conv6_2 <- conv6_1
I0609 15:38:11.149767 31883 net.cpp:408] conv6_2 -> conv6_2
I0609 15:38:11.156958 31883 net.cpp:150] Setting up conv6_2
I0609 15:38:11.156975 31883 net.cpp:157] Top shape: 32 512 10 10 (1638400)
I0609 15:38:11.156980 31883 net.cpp:165] Memory required for data: 7484964896
I0609 15:38:11.156993 31883 layer_factory.hpp:77] Creating layer conv6_2_relu
I0609 15:38:11.157003 31883 net.cpp:100] Creating Layer conv6_2_relu
I0609 15:38:11.157012 31883 net.cpp:434] conv6_2_relu <- conv6_2
I0609 15:38:11.157021 31883 net.cpp:395] conv6_2_relu -> conv6_2 (in-place)
I0609 15:38:11.157168 31883 net.cpp:150] Setting up conv6_2_relu
I0609 15:38:11.157177 31883 net.cpp:157] Top shape: 32 512 10 10 (1638400)
I0609 15:38:11.157181 31883 net.cpp:165] Memory required for data: 7491518496
I0609 15:38:11.157186 31883 layer_factory.hpp:77] Creating layer conv6_2_conv6_2_relu_0_split
I0609 15:38:11.157207 31883 net.cpp:100] Creating Layer conv6_2_conv6_2_relu_0_split
I0609 15:38:11.157215 31883 net.cpp:434] conv6_2_conv6_2_relu_0_split <- conv6_2
I0609 15:38:11.157222 31883 net.cpp:408] conv6_2_conv6_2_relu_0_split -> conv6_2_conv6_2_relu_0_split_0
I0609 15:38:11.157232 31883 net.cpp:408] conv6_2_conv6_2_relu_0_split -> conv6_2_conv6_2_relu_0_split_1
I0609 15:38:11.157241 31883 net.cpp:408] conv6_2_conv6_2_relu_0_split -> conv6_2_conv6_2_relu_0_split_2
I0609 15:38:11.157249 31883 net.cpp:408] conv6_2_conv6_2_relu_0_split -> conv6_2_conv6_2_relu_0_split_3
I0609 15:38:11.157312 31883 net.cpp:150] Setting up conv6_2_conv6_2_relu_0_split
I0609 15:38:11.157320 31883 net.cpp:157] Top shape: 32 512 10 10 (1638400)
I0609 15:38:11.157325 31883 net.cpp:157] Top shape: 32 512 10 10 (1638400)
I0609 15:38:11.157328 31883 net.cpp:157] Top shape: 32 512 10 10 (1638400)
I0609 15:38:11.157333 31883 net.cpp:157] Top shape: 32 512 10 10 (1638400)
I0609 15:38:11.157336 31883 net.cpp:165] Memory required for data: 7517732896
I0609 15:38:11.157341 31883 layer_factory.hpp:77] Creating layer conv7_1
I0609 15:38:11.157351 31883 net.cpp:100] Creating Layer conv7_1
I0609 15:38:11.157356 31883 net.cpp:434] conv7_1 <- conv6_2_conv6_2_relu_0_split_0
I0609 15:38:11.157363 31883 net.cpp:408] conv7_1 -> conv7_1
I0609 15:38:11.158732 31883 net.cpp:150] Setting up conv7_1
I0609 15:38:11.158745 31883 net.cpp:157] Top shape: 32 128 10 10 (409600)
I0609 15:38:11.158749 31883 net.cpp:165] Memory required for data: 7519371296
I0609 15:38:11.158756 31883 layer_factory.hpp:77] Creating layer conv7_1_relu
I0609 15:38:11.158764 31883 net.cpp:100] Creating Layer conv7_1_relu
I0609 15:38:11.158769 31883 net.cpp:434] conv7_1_relu <- conv7_1
I0609 15:38:11.158778 31883 net.cpp:395] conv7_1_relu -> conv7_1 (in-place)
I0609 15:38:11.158906 31883 net.cpp:150] Setting up conv7_1_relu
I0609 15:38:11.158915 31883 net.cpp:157] Top shape: 32 128 10 10 (409600)
I0609 15:38:11.158918 31883 net.cpp:165] Memory required for data: 7521009696
I0609 15:38:11.158922 31883 layer_factory.hpp:77] Creating layer conv7_2
I0609 15:38:11.158932 31883 net.cpp:100] Creating Layer conv7_2
I0609 15:38:11.158937 31883 net.cpp:434] conv7_2 <- conv7_1
I0609 15:38:11.158946 31883 net.cpp:408] conv7_2 -> conv7_2
I0609 15:38:11.161886 31883 net.cpp:150] Setting up conv7_2
I0609 15:38:11.161903 31883 net.cpp:157] Top shape: 32 256 5 5 (204800)
I0609 15:38:11.161908 31883 net.cpp:165] Memory required for data: 7521828896
I0609 15:38:11.161916 31883 layer_factory.hpp:77] Creating layer conv7_2_relu
I0609 15:38:11.161926 31883 net.cpp:100] Creating Layer conv7_2_relu
I0609 15:38:11.161942 31883 net.cpp:434] conv7_2_relu <- conv7_2
I0609 15:38:11.161949 31883 net.cpp:395] conv7_2_relu -> conv7_2 (in-place)
I0609 15:38:11.162083 31883 net.cpp:150] Setting up conv7_2_relu
I0609 15:38:11.162092 31883 net.cpp:157] Top shape: 32 256 5 5 (204800)
I0609 15:38:11.162096 31883 net.cpp:165] Memory required for data: 7522648096
I0609 15:38:11.162099 31883 layer_factory.hpp:77] Creating layer conv7_2_conv7_2_relu_0_split
I0609 15:38:11.162107 31883 net.cpp:100] Creating Layer conv7_2_conv7_2_relu_0_split
I0609 15:38:11.162113 31883 net.cpp:434] conv7_2_conv7_2_relu_0_split <- conv7_2
I0609 15:38:11.162120 31883 net.cpp:408] conv7_2_conv7_2_relu_0_split -> conv7_2_conv7_2_relu_0_split_0
I0609 15:38:11.162129 31883 net.cpp:408] conv7_2_conv7_2_relu_0_split -> conv7_2_conv7_2_relu_0_split_1
I0609 15:38:11.162138 31883 net.cpp:408] conv7_2_conv7_2_relu_0_split -> conv7_2_conv7_2_relu_0_split_2
I0609 15:38:11.162147 31883 net.cpp:408] conv7_2_conv7_2_relu_0_split -> conv7_2_conv7_2_relu_0_split_3
I0609 15:38:11.162201 31883 net.cpp:150] Setting up conv7_2_conv7_2_relu_0_split
I0609 15:38:11.162209 31883 net.cpp:157] Top shape: 32 256 5 5 (204800)
I0609 15:38:11.162214 31883 net.cpp:157] Top shape: 32 256 5 5 (204800)
I0609 15:38:11.162220 31883 net.cpp:157] Top shape: 32 256 5 5 (204800)
I0609 15:38:11.162223 31883 net.cpp:157] Top shape: 32 256 5 5 (204800)
I0609 15:38:11.162227 31883 net.cpp:165] Memory required for data: 7525924896
I0609 15:38:11.162231 31883 layer_factory.hpp:77] Creating layer conv8_1
I0609 15:38:11.162242 31883 net.cpp:100] Creating Layer conv8_1
I0609 15:38:11.162246 31883 net.cpp:434] conv8_1 <- conv7_2_conv7_2_relu_0_split_0
I0609 15:38:11.162256 31883 net.cpp:408] conv8_1 -> conv8_1
I0609 15:38:11.163414 31883 net.cpp:150] Setting up conv8_1
I0609 15:38:11.163425 31883 net.cpp:157] Top shape: 32 128 5 5 (102400)
I0609 15:38:11.163429 31883 net.cpp:165] Memory required for data: 7526334496
I0609 15:38:11.163436 31883 layer_factory.hpp:77] Creating layer conv8_1_relu
I0609 15:38:11.163444 31883 net.cpp:100] Creating Layer conv8_1_relu
I0609 15:38:11.163450 31883 net.cpp:434] conv8_1_relu <- conv8_1
I0609 15:38:11.163457 31883 net.cpp:395] conv8_1_relu -> conv8_1 (in-place)
I0609 15:38:11.164026 31883 net.cpp:150] Setting up conv8_1_relu
I0609 15:38:11.164036 31883 net.cpp:157] Top shape: 32 128 5 5 (102400)
I0609 15:38:11.164041 31883 net.cpp:165] Memory required for data: 7526744096
I0609 15:38:11.164046 31883 layer_factory.hpp:77] Creating layer conv8_2
I0609 15:38:11.164055 31883 net.cpp:100] Creating Layer conv8_2
I0609 15:38:11.164062 31883 net.cpp:434] conv8_2 <- conv8_1
I0609 15:38:11.164069 31883 net.cpp:408] conv8_2 -> conv8_2
I0609 15:38:11.166918 31883 net.cpp:150] Setting up conv8_2
I0609 15:38:11.166930 31883 net.cpp:157] Top shape: 32 256 3 3 (73728)
I0609 15:38:11.166934 31883 net.cpp:165] Memory required for data: 7527039008
I0609 15:38:11.166941 31883 layer_factory.hpp:77] Creating layer conv8_2_relu
I0609 15:38:11.166951 31883 net.cpp:100] Creating Layer conv8_2_relu
I0609 15:38:11.166957 31883 net.cpp:434] conv8_2_relu <- conv8_2
I0609 15:38:11.166963 31883 net.cpp:395] conv8_2_relu -> conv8_2 (in-place)
I0609 15:38:11.167096 31883 net.cpp:150] Setting up conv8_2_relu
I0609 15:38:11.167105 31883 net.cpp:157] Top shape: 32 256 3 3 (73728)
I0609 15:38:11.167109 31883 net.cpp:165] Memory required for data: 7527333920
I0609 15:38:11.167112 31883 layer_factory.hpp:77] Creating layer conv8_2_conv8_2_relu_0_split
I0609 15:38:11.167134 31883 net.cpp:100] Creating Layer conv8_2_conv8_2_relu_0_split
I0609 15:38:11.167138 31883 net.cpp:434] conv8_2_conv8_2_relu_0_split <- conv8_2
I0609 15:38:11.167145 31883 net.cpp:408] conv8_2_conv8_2_relu_0_split -> conv8_2_conv8_2_relu_0_split_0
I0609 15:38:11.167155 31883 net.cpp:408] conv8_2_conv8_2_relu_0_split -> conv8_2_conv8_2_relu_0_split_1
I0609 15:38:11.167163 31883 net.cpp:408] conv8_2_conv8_2_relu_0_split -> conv8_2_conv8_2_relu_0_split_2
I0609 15:38:11.167186 31883 net.cpp:408] conv8_2_conv8_2_relu_0_split -> conv8_2_conv8_2_relu_0_split_3
I0609 15:38:11.167251 31883 net.cpp:150] Setting up conv8_2_conv8_2_relu_0_split
I0609 15:38:11.167258 31883 net.cpp:157] Top shape: 32 256 3 3 (73728)
I0609 15:38:11.167263 31883 net.cpp:157] Top shape: 32 256 3 3 (73728)
I0609 15:38:11.167269 31883 net.cpp:157] Top shape: 32 256 3 3 (73728)
I0609 15:38:11.167275 31883 net.cpp:157] Top shape: 32 256 3 3 (73728)
I0609 15:38:11.167279 31883 net.cpp:165] Memory required for data: 7528513568
I0609 15:38:11.167282 31883 layer_factory.hpp:77] Creating layer conv9_1
I0609 15:38:11.167294 31883 net.cpp:100] Creating Layer conv9_1
I0609 15:38:11.167299 31883 net.cpp:434] conv9_1 <- conv8_2_conv8_2_relu_0_split_0
I0609 15:38:11.167306 31883 net.cpp:408] conv9_1 -> conv9_1
I0609 15:38:11.168514 31883 net.cpp:150] Setting up conv9_1
I0609 15:38:11.168524 31883 net.cpp:157] Top shape: 32 128 3 3 (36864)
I0609 15:38:11.168529 31883 net.cpp:165] Memory required for data: 7528661024
I0609 15:38:11.168536 31883 layer_factory.hpp:77] Creating layer conv9_1_relu
I0609 15:38:11.168545 31883 net.cpp:100] Creating Layer conv9_1_relu
I0609 15:38:11.168550 31883 net.cpp:434] conv9_1_relu <- conv9_1
I0609 15:38:11.168556 31883 net.cpp:395] conv9_1_relu -> conv9_1 (in-place)
I0609 15:38:11.168685 31883 net.cpp:150] Setting up conv9_1_relu
I0609 15:38:11.168694 31883 net.cpp:157] Top shape: 32 128 3 3 (36864)
I0609 15:38:11.168697 31883 net.cpp:165] Memory required for data: 7528808480
I0609 15:38:11.168701 31883 layer_factory.hpp:77] Creating layer conv9_2
I0609 15:38:11.168714 31883 net.cpp:100] Creating Layer conv9_2
I0609 15:38:11.168717 31883 net.cpp:434] conv9_2 <- conv9_1
I0609 15:38:11.168725 31883 net.cpp:408] conv9_2 -> conv9_2
I0609 15:38:11.171540 31883 net.cpp:150] Setting up conv9_2
I0609 15:38:11.171555 31883 net.cpp:157] Top shape: 32 256 1 1 (8192)
I0609 15:38:11.171558 31883 net.cpp:165] Memory required for data: 7528841248
I0609 15:38:11.171566 31883 layer_factory.hpp:77] Creating layer conv9_2_relu
I0609 15:38:11.171573 31883 net.cpp:100] Creating Layer conv9_2_relu
I0609 15:38:11.171578 31883 net.cpp:434] conv9_2_relu <- conv9_2
I0609 15:38:11.171584 31883 net.cpp:395] conv9_2_relu -> conv9_2 (in-place)
I0609 15:38:11.171720 31883 net.cpp:150] Setting up conv9_2_relu
I0609 15:38:11.171728 31883 net.cpp:157] Top shape: 32 256 1 1 (8192)
I0609 15:38:11.171732 31883 net.cpp:165] Memory required for data: 7528874016
I0609 15:38:11.171736 31883 layer_factory.hpp:77] Creating layer conv9_2_conv9_2_relu_0_split
I0609 15:38:11.171742 31883 net.cpp:100] Creating Layer conv9_2_conv9_2_relu_0_split
I0609 15:38:11.171747 31883 net.cpp:434] conv9_2_conv9_2_relu_0_split <- conv9_2
I0609 15:38:11.171754 31883 net.cpp:408] conv9_2_conv9_2_relu_0_split -> conv9_2_conv9_2_relu_0_split_0
I0609 15:38:11.171764 31883 net.cpp:408] conv9_2_conv9_2_relu_0_split -> conv9_2_conv9_2_relu_0_split_1
I0609 15:38:11.171772 31883 net.cpp:408] conv9_2_conv9_2_relu_0_split -> conv9_2_conv9_2_relu_0_split_2
I0609 15:38:11.171824 31883 net.cpp:150] Setting up conv9_2_conv9_2_relu_0_split
I0609 15:38:11.171830 31883 net.cpp:157] Top shape: 32 256 1 1 (8192)
I0609 15:38:11.171835 31883 net.cpp:157] Top shape: 32 256 1 1 (8192)
I0609 15:38:11.171839 31883 net.cpp:157] Top shape: 32 256 1 1 (8192)
I0609 15:38:11.171844 31883 net.cpp:165] Memory required for data: 7528972320
I0609 15:38:11.171846 31883 layer_factory.hpp:77] Creating layer conv4_3_norm
I0609 15:38:11.171854 31883 net.cpp:100] Creating Layer conv4_3_norm
I0609 15:38:11.171859 31883 net.cpp:434] conv4_3_norm <- conv4_3_relu4_3_0_split_1
I0609 15:38:11.171869 31883 net.cpp:408] conv4_3_norm -> conv4_3_norm
I0609 15:38:11.171998 31883 net.cpp:150] Setting up conv4_3_norm
I0609 15:38:11.172005 31883 net.cpp:157] Top shape: 32 512 38 38 (23658496)
I0609 15:38:11.172009 31883 net.cpp:165] Memory required for data: 7623606304
I0609 15:38:11.172015 31883 layer_factory.hpp:77] Creating layer conv4_3_norm_conv4_3_norm_0_split
I0609 15:38:11.172021 31883 net.cpp:100] Creating Layer conv4_3_norm_conv4_3_norm_0_split
I0609 15:38:11.172036 31883 net.cpp:434] conv4_3_norm_conv4_3_norm_0_split <- conv4_3_norm
I0609 15:38:11.172044 31883 net.cpp:408] conv4_3_norm_conv4_3_norm_0_split -> conv4_3_norm_conv4_3_norm_0_split_0
I0609 15:38:11.172053 31883 net.cpp:408] conv4_3_norm_conv4_3_norm_0_split -> conv4_3_norm_conv4_3_norm_0_split_1
I0609 15:38:11.172060 31883 net.cpp:408] conv4_3_norm_conv4_3_norm_0_split -> conv4_3_norm_conv4_3_norm_0_split_2
I0609 15:38:11.172101 31883 net.cpp:150] Setting up conv4_3_norm_conv4_3_norm_0_split
I0609 15:38:11.172106 31883 net.cpp:157] Top shape: 32 512 38 38 (23658496)
I0609 15:38:11.172112 31883 net.cpp:157] Top shape: 32 512 38 38 (23658496)
I0609 15:38:11.172117 31883 net.cpp:157] Top shape: 32 512 38 38 (23658496)
I0609 15:38:11.172122 31883 net.cpp:165] Memory required for data: 7907508256
I0609 15:38:11.172124 31883 layer_factory.hpp:77] Creating layer conv4_3_norm_mbox_loc
I0609 15:38:11.172137 31883 net.cpp:100] Creating Layer conv4_3_norm_mbox_loc
I0609 15:38:11.172140 31883 net.cpp:434] conv4_3_norm_mbox_loc <- conv4_3_norm_conv4_3_norm_0_split_0
I0609 15:38:11.172147 31883 net.cpp:408] conv4_3_norm_mbox_loc -> conv4_3_norm_mbox_loc
I0609 15:38:11.174059 31883 net.cpp:150] Setting up conv4_3_norm_mbox_loc
I0609 15:38:11.174073 31883 net.cpp:157] Top shape: 32 16 38 38 (739328)
I0609 15:38:11.174077 31883 net.cpp:165] Memory required for data: 7910465568
I0609 15:38:11.174087 31883 layer_factory.hpp:77] Creating layer conv4_3_norm_mbox_loc_perm
I0609 15:38:11.174095 31883 net.cpp:100] Creating Layer conv4_3_norm_mbox_loc_perm
I0609 15:38:11.174100 31883 net.cpp:434] conv4_3_norm_mbox_loc_perm <- conv4_3_norm_mbox_loc
I0609 15:38:11.174109 31883 net.cpp:408] conv4_3_norm_mbox_loc_perm -> conv4_3_norm_mbox_loc_perm
I0609 15:38:11.174202 31883 net.cpp:150] Setting up conv4_3_norm_mbox_loc_perm
I0609 15:38:11.174209 31883 net.cpp:157] Top shape: 32 38 38 16 (739328)
I0609 15:38:11.174212 31883 net.cpp:165] Memory required for data: 7913422880
I0609 15:38:11.174216 31883 layer_factory.hpp:77] Creating layer conv4_3_norm_mbox_loc_flat
I0609 15:38:11.174224 31883 net.cpp:100] Creating Layer conv4_3_norm_mbox_loc_flat
I0609 15:38:11.174229 31883 net.cpp:434] conv4_3_norm_mbox_loc_flat <- conv4_3_norm_mbox_loc_perm
I0609 15:38:11.174237 31883 net.cpp:408] conv4_3_norm_mbox_loc_flat -> conv4_3_norm_mbox_loc_flat
I0609 15:38:11.174270 31883 net.cpp:150] Setting up conv4_3_norm_mbox_loc_flat
I0609 15:38:11.174278 31883 net.cpp:157] Top shape: 32 23104 (739328)
I0609 15:38:11.174281 31883 net.cpp:165] Memory required for data: 7916380192
I0609 15:38:11.174285 31883 layer_factory.hpp:77] Creating layer conv4_3_norm_mbox_conf
I0609 15:38:11.174301 31883 net.cpp:100] Creating Layer conv4_3_norm_mbox_conf
I0609 15:38:11.174306 31883 net.cpp:434] conv4_3_norm_mbox_conf <- conv4_3_norm_conv4_3_norm_0_split_1
I0609 15:38:11.174314 31883 net.cpp:408] conv4_3_norm_mbox_conf -> conv4_3_norm_mbox_conf
I0609 15:38:11.175998 31883 net.cpp:150] Setting up conv4_3_norm_mbox_conf
I0609 15:38:11.176009 31883 net.cpp:157] Top shape: 32 8 38 38 (369664)
I0609 15:38:11.176014 31883 net.cpp:165] Memory required for data: 7917858848
I0609 15:38:11.176021 31883 layer_factory.hpp:77] Creating layer conv4_3_norm_mbox_conf_perm
I0609 15:38:11.176044 31883 net.cpp:100] Creating Layer conv4_3_norm_mbox_conf_perm
I0609 15:38:11.176050 31883 net.cpp:434] conv4_3_norm_mbox_conf_perm <- conv4_3_norm_mbox_conf
I0609 15:38:11.176059 31883 net.cpp:408] conv4_3_norm_mbox_conf_perm -> conv4_3_norm_mbox_conf_perm
I0609 15:38:11.176158 31883 net.cpp:150] Setting up conv4_3_norm_mbox_conf_perm
I0609 15:38:11.176165 31883 net.cpp:157] Top shape: 32 38 38 8 (369664)
I0609 15:38:11.176168 31883 net.cpp:165] Memory required for data: 7919337504
I0609 15:38:11.176172 31883 layer_factory.hpp:77] Creating layer conv4_3_norm_mbox_conf_flat
I0609 15:38:11.176179 31883 net.cpp:100] Creating Layer conv4_3_norm_mbox_conf_flat
I0609 15:38:11.176198 31883 net.cpp:434] conv4_3_norm_mbox_conf_flat <- conv4_3_norm_mbox_conf_perm
I0609 15:38:11.176203 31883 net.cpp:408] conv4_3_norm_mbox_conf_flat -> conv4_3_norm_mbox_conf_flat
I0609 15:38:11.176251 31883 net.cpp:150] Setting up conv4_3_norm_mbox_conf_flat
I0609 15:38:11.176259 31883 net.cpp:157] Top shape: 32 11552 (369664)
I0609 15:38:11.176261 31883 net.cpp:165] Memory required for data: 7920816160
I0609 15:38:11.176265 31883 layer_factory.hpp:77] Creating layer conv4_3_norm_mbox_priorbox
I0609 15:38:11.176275 31883 net.cpp:100] Creating Layer conv4_3_norm_mbox_priorbox
I0609 15:38:11.176280 31883 net.cpp:434] conv4_3_norm_mbox_priorbox <- conv4_3_norm_conv4_3_norm_0_split_2
I0609 15:38:11.176285 31883 net.cpp:434] conv4_3_norm_mbox_priorbox <- data_data_0_split_1
I0609 15:38:11.176293 31883 net.cpp:408] conv4_3_norm_mbox_priorbox -> conv4_3_norm_mbox_priorbox
I0609 15:38:11.176321 31883 net.cpp:150] Setting up conv4_3_norm_mbox_priorbox
I0609 15:38:11.176328 31883 net.cpp:157] Top shape: 1 2 23104 (46208)
I0609 15:38:11.176332 31883 net.cpp:165] Memory required for data: 7921000992
I0609 15:38:11.176337 31883 layer_factory.hpp:77] Creating layer fc7_mbox_loc
I0609 15:38:11.176347 31883 net.cpp:100] Creating Layer fc7_mbox_loc
I0609 15:38:11.176353 31883 net.cpp:434] fc7_mbox_loc <- fc7_relu7_0_split_1
I0609 15:38:11.176362 31883 net.cpp:408] fc7_mbox_loc -> fc7_mbox_loc
I0609 15:38:11.178817 31883 net.cpp:150] Setting up fc7_mbox_loc
I0609 15:38:11.178833 31883 net.cpp:157] Top shape: 32 24 19 19 (277248)
I0609 15:38:11.178838 31883 net.cpp:165] Memory required for data: 7922109984
I0609 15:38:11.178844 31883 layer_factory.hpp:77] Creating layer fc7_mbox_loc_perm
I0609 15:38:11.178854 31883 net.cpp:100] Creating Layer fc7_mbox_loc_perm
I0609 15:38:11.178861 31883 net.cpp:434] fc7_mbox_loc_perm <- fc7_mbox_loc
I0609 15:38:11.178869 31883 net.cpp:408] fc7_mbox_loc_perm -> fc7_mbox_loc_perm
I0609 15:38:11.178999 31883 net.cpp:150] Setting up fc7_mbox_loc_perm
I0609 15:38:11.179006 31883 net.cpp:157] Top shape: 32 19 19 24 (277248)
I0609 15:38:11.179010 31883 net.cpp:165] Memory required for data: 7923218976
I0609 15:38:11.179028 31883 layer_factory.hpp:77] Creating layer fc7_mbox_loc_flat
I0609 15:38:11.179034 31883 net.cpp:100] Creating Layer fc7_mbox_loc_flat
I0609 15:38:11.179052 31883 net.cpp:434] fc7_mbox_loc_flat <- fc7_mbox_loc_perm
I0609 15:38:11.179059 31883 net.cpp:408] fc7_mbox_loc_flat -> fc7_mbox_loc_flat
I0609 15:38:11.179098 31883 net.cpp:150] Setting up fc7_mbox_loc_flat
I0609 15:38:11.179105 31883 net.cpp:157] Top shape: 32 8664 (277248)
I0609 15:38:11.179108 31883 net.cpp:165] Memory required for data: 7924327968
I0609 15:38:11.179111 31883 layer_factory.hpp:77] Creating layer fc7_mbox_conf
I0609 15:38:11.179122 31883 net.cpp:100] Creating Layer fc7_mbox_conf
I0609 15:38:11.179127 31883 net.cpp:434] fc7_mbox_conf <- fc7_relu7_0_split_2
I0609 15:38:11.179136 31883 net.cpp:408] fc7_mbox_conf -> fc7_mbox_conf
I0609 15:38:11.181048 31883 net.cpp:150] Setting up fc7_mbox_conf
I0609 15:38:11.181059 31883 net.cpp:157] Top shape: 32 12 19 19 (138624)
I0609 15:38:11.181063 31883 net.cpp:165] Memory required for data: 7924882464
I0609 15:38:11.181071 31883 layer_factory.hpp:77] Creating layer fc7_mbox_conf_perm
I0609 15:38:11.181080 31883 net.cpp:100] Creating Layer fc7_mbox_conf_perm
I0609 15:38:11.181087 31883 net.cpp:434] fc7_mbox_conf_perm <- fc7_mbox_conf
I0609 15:38:11.181092 31883 net.cpp:408] fc7_mbox_conf_perm -> fc7_mbox_conf_perm
I0609 15:38:11.181180 31883 net.cpp:150] Setting up fc7_mbox_conf_perm
I0609 15:38:11.181186 31883 net.cpp:157] Top shape: 32 19 19 12 (138624)
I0609 15:38:11.181190 31883 net.cpp:165] Memory required for data: 7925436960
I0609 15:38:11.181195 31883 layer_factory.hpp:77] Creating layer fc7_mbox_conf_flat
I0609 15:38:11.181200 31883 net.cpp:100] Creating Layer fc7_mbox_conf_flat
I0609 15:38:11.181205 31883 net.cpp:434] fc7_mbox_conf_flat <- fc7_mbox_conf_perm
I0609 15:38:11.181212 31883 net.cpp:408] fc7_mbox_conf_flat -> fc7_mbox_conf_flat
I0609 15:38:11.181236 31883 net.cpp:150] Setting up fc7_mbox_conf_flat
I0609 15:38:11.181242 31883 net.cpp:157] Top shape: 32 4332 (138624)
I0609 15:38:11.181257 31883 net.cpp:165] Memory required for data: 7925991456
I0609 15:38:11.181260 31883 layer_factory.hpp:77] Creating layer fc7_mbox_priorbox
I0609 15:38:11.181268 31883 net.cpp:100] Creating Layer fc7_mbox_priorbox
I0609 15:38:11.181273 31883 net.cpp:434] fc7_mbox_priorbox <- fc7_relu7_0_split_3
I0609 15:38:11.181279 31883 net.cpp:434] fc7_mbox_priorbox <- data_data_0_split_2
I0609 15:38:11.181288 31883 net.cpp:408] fc7_mbox_priorbox -> fc7_mbox_priorbox
I0609 15:38:11.181319 31883 net.cpp:150] Setting up fc7_mbox_priorbox
I0609 15:38:11.181327 31883 net.cpp:157] Top shape: 1 2 8664 (17328)
I0609 15:38:11.181330 31883 net.cpp:165] Memory required for data: 7926060768
I0609 15:38:11.181334 31883 layer_factory.hpp:77] Creating layer conv6_2_mbox_loc
I0609 15:38:11.181344 31883 net.cpp:100] Creating Layer conv6_2_mbox_loc
I0609 15:38:11.181350 31883 net.cpp:434] conv6_2_mbox_loc <- conv6_2_conv6_2_relu_0_split_1
I0609 15:38:11.181357 31883 net.cpp:408] conv6_2_mbox_loc -> conv6_2_mbox_loc
I0609 15:38:11.183239 31883 net.cpp:150] Setting up conv6_2_mbox_loc
I0609 15:38:11.183250 31883 net.cpp:157] Top shape: 32 24 10 10 (76800)
I0609 15:38:11.183255 31883 net.cpp:165] Memory required for data: 7926367968
I0609 15:38:11.183262 31883 layer_factory.hpp:77] Creating layer conv6_2_mbox_loc_perm
I0609 15:38:11.183271 31883 net.cpp:100] Creating Layer conv6_2_mbox_loc_perm
I0609 15:38:11.183276 31883 net.cpp:434] conv6_2_mbox_loc_perm <- conv6_2_mbox_loc
I0609 15:38:11.183284 31883 net.cpp:408] conv6_2_mbox_loc_perm -> conv6_2_mbox_loc_perm
I0609 15:38:11.183370 31883 net.cpp:150] Setting up conv6_2_mbox_loc_perm
I0609 15:38:11.183377 31883 net.cpp:157] Top shape: 32 10 10 24 (76800)
I0609 15:38:11.183380 31883 net.cpp:165] Memory required for data: 7926675168
I0609 15:38:11.183384 31883 layer_factory.hpp:77] Creating layer conv6_2_mbox_loc_flat
I0609 15:38:11.183389 31883 net.cpp:100] Creating Layer conv6_2_mbox_loc_flat
I0609 15:38:11.183394 31883 net.cpp:434] conv6_2_mbox_loc_flat <- conv6_2_mbox_loc_perm
I0609 15:38:11.183401 31883 net.cpp:408] conv6_2_mbox_loc_flat -> conv6_2_mbox_loc_flat
I0609 15:38:11.183425 31883 net.cpp:150] Setting up conv6_2_mbox_loc_flat
I0609 15:38:11.183431 31883 net.cpp:157] Top shape: 32 2400 (76800)
I0609 15:38:11.183435 31883 net.cpp:165] Memory required for data: 7926982368
I0609 15:38:11.183439 31883 layer_factory.hpp:77] Creating layer conv6_2_mbox_conf
I0609 15:38:11.183449 31883 net.cpp:100] Creating Layer conv6_2_mbox_conf
I0609 15:38:11.183454 31883 net.cpp:434] conv6_2_mbox_conf <- conv6_2_conv6_2_relu_0_split_2
I0609 15:38:11.183464 31883 net.cpp:408] conv6_2_mbox_conf -> conv6_2_mbox_conf
I0609 15:38:11.185142 31883 net.cpp:150] Setting up conv6_2_mbox_conf
I0609 15:38:11.185151 31883 net.cpp:157] Top shape: 32 12 10 10 (38400)
I0609 15:38:11.185156 31883 net.cpp:165] Memory required for data: 7927135968
I0609 15:38:11.185163 31883 layer_factory.hpp:77] Creating layer conv6_2_mbox_conf_perm
I0609 15:38:11.185173 31883 net.cpp:100] Creating Layer conv6_2_mbox_conf_perm
I0609 15:38:11.185178 31883 net.cpp:434] conv6_2_mbox_conf_perm <- conv6_2_mbox_conf
I0609 15:38:11.185185 31883 net.cpp:408] conv6_2_mbox_conf_perm -> conv6_2_mbox_conf_perm
I0609 15:38:11.185273 31883 net.cpp:150] Setting up conv6_2_mbox_conf_perm
I0609 15:38:11.185281 31883 net.cpp:157] Top shape: 32 10 10 12 (38400)
I0609 15:38:11.185284 31883 net.cpp:165] Memory required for data: 7927289568
I0609 15:38:11.185287 31883 layer_factory.hpp:77] Creating layer conv6_2_mbox_conf_flat
I0609 15:38:11.185293 31883 net.cpp:100] Creating Layer conv6_2_mbox_conf_flat
I0609 15:38:11.185302 31883 net.cpp:434] conv6_2_mbox_conf_flat <- conv6_2_mbox_conf_perm
I0609 15:38:11.185310 31883 net.cpp:408] conv6_2_mbox_conf_flat -> conv6_2_mbox_conf_flat
I0609 15:38:11.185335 31883 net.cpp:150] Setting up conv6_2_mbox_conf_flat
I0609 15:38:11.185341 31883 net.cpp:157] Top shape: 32 1200 (38400)
I0609 15:38:11.185345 31883 net.cpp:165] Memory required for data: 7927443168
I0609 15:38:11.185348 31883 layer_factory.hpp:77] Creating layer conv6_2_mbox_priorbox
I0609 15:38:11.185362 31883 net.cpp:100] Creating Layer conv6_2_mbox_priorbox
I0609 15:38:11.185367 31883 net.cpp:434] conv6_2_mbox_priorbox <- conv6_2_conv6_2_relu_0_split_3
I0609 15:38:11.185374 31883 net.cpp:434] conv6_2_mbox_priorbox <- data_data_0_split_3
I0609 15:38:11.185382 31883 net.cpp:408] conv6_2_mbox_priorbox -> conv6_2_mbox_priorbox
I0609 15:38:11.185408 31883 net.cpp:150] Setting up conv6_2_mbox_priorbox
I0609 15:38:11.185415 31883 net.cpp:157] Top shape: 1 2 2400 (4800)
I0609 15:38:11.185418 31883 net.cpp:165] Memory required for data: 7927462368
I0609 15:38:11.185422 31883 layer_factory.hpp:77] Creating layer conv7_2_mbox_loc
I0609 15:38:11.185431 31883 net.cpp:100] Creating Layer conv7_2_mbox_loc
I0609 15:38:11.185437 31883 net.cpp:434] conv7_2_mbox_loc <- conv7_2_conv7_2_relu_0_split_1
I0609 15:38:11.185446 31883 net.cpp:408] conv7_2_mbox_loc -> conv7_2_mbox_loc
I0609 15:38:11.186704 31883 net.cpp:150] Setting up conv7_2_mbox_loc
I0609 15:38:11.186714 31883 net.cpp:157] Top shape: 32 24 5 5 (19200)
I0609 15:38:11.186719 31883 net.cpp:165] Memory required for data: 7927539168
I0609 15:38:11.186727 31883 layer_factory.hpp:77] Creating layer conv7_2_mbox_loc_perm
I0609 15:38:11.186735 31883 net.cpp:100] Creating Layer conv7_2_mbox_loc_perm
I0609 15:38:11.186740 31883 net.cpp:434] conv7_2_mbox_loc_perm <- conv7_2_mbox_loc
I0609 15:38:11.186749 31883 net.cpp:408] conv7_2_mbox_loc_perm -> conv7_2_mbox_loc_perm
I0609 15:38:11.186836 31883 net.cpp:150] Setting up conv7_2_mbox_loc_perm
I0609 15:38:11.186843 31883 net.cpp:157] Top shape: 32 5 5 24 (19200)
I0609 15:38:11.186847 31883 net.cpp:165] Memory required for data: 7927615968
I0609 15:38:11.186851 31883 layer_factory.hpp:77] Creating layer conv7_2_mbox_loc_flat
I0609 15:38:11.186858 31883 net.cpp:100] Creating Layer conv7_2_mbox_loc_flat
I0609 15:38:11.186863 31883 net.cpp:434] conv7_2_mbox_loc_flat <- conv7_2_mbox_loc_perm
I0609 15:38:11.186869 31883 net.cpp:408] conv7_2_mbox_loc_flat -> conv7_2_mbox_loc_flat
I0609 15:38:11.186893 31883 net.cpp:150] Setting up conv7_2_mbox_loc_flat
I0609 15:38:11.186899 31883 net.cpp:157] Top shape: 32 600 (19200)
I0609 15:38:11.186902 31883 net.cpp:165] Memory required for data: 7927692768
I0609 15:38:11.186906 31883 layer_factory.hpp:77] Creating layer conv7_2_mbox_conf
I0609 15:38:11.186916 31883 net.cpp:100] Creating Layer conv7_2_mbox_conf
I0609 15:38:11.186921 31883 net.cpp:434] conv7_2_mbox_conf <- conv7_2_conv7_2_relu_0_split_2
I0609 15:38:11.186929 31883 net.cpp:408] conv7_2_mbox_conf -> conv7_2_mbox_conf
I0609 15:38:11.188482 31883 net.cpp:150] Setting up conv7_2_mbox_conf
I0609 15:38:11.188493 31883 net.cpp:157] Top shape: 32 12 5 5 (9600)
I0609 15:38:11.188496 31883 net.cpp:165] Memory required for data: 7927731168
I0609 15:38:11.188503 31883 layer_factory.hpp:77] Creating layer conv7_2_mbox_conf_perm
I0609 15:38:11.188513 31883 net.cpp:100] Creating Layer conv7_2_mbox_conf_perm
I0609 15:38:11.188519 31883 net.cpp:434] conv7_2_mbox_conf_perm <- conv7_2_mbox_conf
I0609 15:38:11.188526 31883 net.cpp:408] conv7_2_mbox_conf_perm -> conv7_2_mbox_conf_perm
I0609 15:38:11.188614 31883 net.cpp:150] Setting up conv7_2_mbox_conf_perm
I0609 15:38:11.188621 31883 net.cpp:157] Top shape: 32 5 5 12 (9600)
I0609 15:38:11.188627 31883 net.cpp:165] Memory required for data: 7927769568
I0609 15:38:11.188632 31883 layer_factory.hpp:77] Creating layer conv7_2_mbox_conf_flat
I0609 15:38:11.188637 31883 net.cpp:100] Creating Layer conv7_2_mbox_conf_flat
I0609 15:38:11.188642 31883 net.cpp:434] conv7_2_mbox_conf_flat <- conv7_2_mbox_conf_perm
I0609 15:38:11.188648 31883 net.cpp:408] conv7_2_mbox_conf_flat -> conv7_2_mbox_conf_flat
I0609 15:38:11.188671 31883 net.cpp:150] Setting up conv7_2_mbox_conf_flat
I0609 15:38:11.188678 31883 net.cpp:157] Top shape: 32 300 (9600)
I0609 15:38:11.188680 31883 net.cpp:165] Memory required for data: 7927807968
I0609 15:38:11.188684 31883 layer_factory.hpp:77] Creating layer conv7_2_mbox_priorbox
I0609 15:38:11.188693 31883 net.cpp:100] Creating Layer conv7_2_mbox_priorbox
I0609 15:38:11.188704 31883 net.cpp:434] conv7_2_mbox_priorbox <- conv7_2_conv7_2_relu_0_split_3
I0609 15:38:11.188711 31883 net.cpp:434] conv7_2_mbox_priorbox <- data_data_0_split_4
I0609 15:38:11.188719 31883 net.cpp:408] conv7_2_mbox_priorbox -> conv7_2_mbox_priorbox
I0609 15:38:11.188745 31883 net.cpp:150] Setting up conv7_2_mbox_priorbox
I0609 15:38:11.188751 31883 net.cpp:157] Top shape: 1 2 600 (1200)
I0609 15:38:11.188755 31883 net.cpp:165] Memory required for data: 7927812768
I0609 15:38:11.188760 31883 layer_factory.hpp:77] Creating layer conv8_2_mbox_loc
I0609 15:38:11.188768 31883 net.cpp:100] Creating Layer conv8_2_mbox_loc
I0609 15:38:11.188773 31883 net.cpp:434] conv8_2_mbox_loc <- conv8_2_conv8_2_relu_0_split_1
I0609 15:38:11.188781 31883 net.cpp:408] conv8_2_mbox_loc -> conv8_2_mbox_loc
I0609 15:38:11.190474 31883 net.cpp:150] Setting up conv8_2_mbox_loc
I0609 15:38:11.190485 31883 net.cpp:157] Top shape: 32 16 3 3 (4608)
I0609 15:38:11.190488 31883 net.cpp:165] Memory required for data: 7927831200
I0609 15:38:11.190506 31883 layer_factory.hpp:77] Creating layer conv8_2_mbox_loc_perm
I0609 15:38:11.190515 31883 net.cpp:100] Creating Layer conv8_2_mbox_loc_perm
I0609 15:38:11.190521 31883 net.cpp:434] conv8_2_mbox_loc_perm <- conv8_2_mbox_loc
I0609 15:38:11.190531 31883 net.cpp:408] conv8_2_mbox_loc_perm -> conv8_2_mbox_loc_perm
I0609 15:38:11.190623 31883 net.cpp:150] Setting up conv8_2_mbox_loc_perm
I0609 15:38:11.190630 31883 net.cpp:157] Top shape: 32 3 3 16 (4608)
I0609 15:38:11.190634 31883 net.cpp:165] Memory required for data: 7927849632
I0609 15:38:11.190636 31883 layer_factory.hpp:77] Creating layer conv8_2_mbox_loc_flat
I0609 15:38:11.190644 31883 net.cpp:100] Creating Layer conv8_2_mbox_loc_flat
I0609 15:38:11.190649 31883 net.cpp:434] conv8_2_mbox_loc_flat <- conv8_2_mbox_loc_perm
I0609 15:38:11.190655 31883 net.cpp:408] conv8_2_mbox_loc_flat -> conv8_2_mbox_loc_flat
I0609 15:38:11.190680 31883 net.cpp:150] Setting up conv8_2_mbox_loc_flat
I0609 15:38:11.190686 31883 net.cpp:157] Top shape: 32 144 (4608)
I0609 15:38:11.190690 31883 net.cpp:165] Memory required for data: 7927868064
I0609 15:38:11.190693 31883 layer_factory.hpp:77] Creating layer conv8_2_mbox_conf
I0609 15:38:11.190703 31883 net.cpp:100] Creating Layer conv8_2_mbox_conf
I0609 15:38:11.190708 31883 net.cpp:434] conv8_2_mbox_conf <- conv8_2_conv8_2_relu_0_split_2
I0609 15:38:11.190716 31883 net.cpp:408] conv8_2_mbox_conf -> conv8_2_mbox_conf
I0609 15:38:11.192235 31883 net.cpp:150] Setting up conv8_2_mbox_conf
I0609 15:38:11.192246 31883 net.cpp:157] Top shape: 32 8 3 3 (2304)
I0609 15:38:11.192250 31883 net.cpp:165] Memory required for data: 7927877280
I0609 15:38:11.192256 31883 layer_factory.hpp:77] Creating layer conv8_2_mbox_conf_perm
I0609 15:38:11.192265 31883 net.cpp:100] Creating Layer conv8_2_mbox_conf_perm
I0609 15:38:11.192270 31883 net.cpp:434] conv8_2_mbox_conf_perm <- conv8_2_mbox_conf
I0609 15:38:11.192277 31883 net.cpp:408] conv8_2_mbox_conf_perm -> conv8_2_mbox_conf_perm
I0609 15:38:11.192368 31883 net.cpp:150] Setting up conv8_2_mbox_conf_perm
I0609 15:38:11.192374 31883 net.cpp:157] Top shape: 32 3 3 8 (2304)
I0609 15:38:11.192378 31883 net.cpp:165] Memory required for data: 7927886496
I0609 15:38:11.192380 31883 layer_factory.hpp:77] Creating layer conv8_2_mbox_conf_flat
I0609 15:38:11.192389 31883 net.cpp:100] Creating Layer conv8_2_mbox_conf_flat
I0609 15:38:11.192394 31883 net.cpp:434] conv8_2_mbox_conf_flat <- conv8_2_mbox_conf_perm
I0609 15:38:11.192400 31883 net.cpp:408] conv8_2_mbox_conf_flat -> conv8_2_mbox_conf_flat
I0609 15:38:11.192423 31883 net.cpp:150] Setting up conv8_2_mbox_conf_flat
I0609 15:38:11.192430 31883 net.cpp:157] Top shape: 32 72 (2304)
I0609 15:38:11.192433 31883 net.cpp:165] Memory required for data: 7927895712
I0609 15:38:11.192437 31883 layer_factory.hpp:77] Creating layer conv8_2_mbox_priorbox
I0609 15:38:11.192445 31883 net.cpp:100] Creating Layer conv8_2_mbox_priorbox
I0609 15:38:11.192451 31883 net.cpp:434] conv8_2_mbox_priorbox <- conv8_2_conv8_2_relu_0_split_3
I0609 15:38:11.192466 31883 net.cpp:434] conv8_2_mbox_priorbox <- data_data_0_split_5
I0609 15:38:11.192474 31883 net.cpp:408] conv8_2_mbox_priorbox -> conv8_2_mbox_priorbox
I0609 15:38:11.192499 31883 net.cpp:150] Setting up conv8_2_mbox_priorbox
I0609 15:38:11.192507 31883 net.cpp:157] Top shape: 1 2 144 (288)
I0609 15:38:11.192510 31883 net.cpp:165] Memory required for data: 7927896864
I0609 15:38:11.192513 31883 layer_factory.hpp:77] Creating layer conv9_2_mbox_loc
I0609 15:38:11.192524 31883 net.cpp:100] Creating Layer conv9_2_mbox_loc
I0609 15:38:11.192529 31883 net.cpp:434] conv9_2_mbox_loc <- conv9_2_conv9_2_relu_0_split_0
I0609 15:38:11.192536 31883 net.cpp:408] conv9_2_mbox_loc -> conv9_2_mbox_loc
I0609 15:38:11.194144 31883 net.cpp:150] Setting up conv9_2_mbox_loc
I0609 15:38:11.194154 31883 net.cpp:157] Top shape: 32 16 1 1 (512)
I0609 15:38:11.194159 31883 net.cpp:165] Memory required for data: 7927898912
I0609 15:38:11.194165 31883 layer_factory.hpp:77] Creating layer conv9_2_mbox_loc_perm
I0609 15:38:11.194174 31883 net.cpp:100] Creating Layer conv9_2_mbox_loc_perm
I0609 15:38:11.194180 31883 net.cpp:434] conv9_2_mbox_loc_perm <- conv9_2_mbox_loc
I0609 15:38:11.194187 31883 net.cpp:408] conv9_2_mbox_loc_perm -> conv9_2_mbox_loc_perm
I0609 15:38:11.194277 31883 net.cpp:150] Setting up conv9_2_mbox_loc_perm
I0609 15:38:11.194283 31883 net.cpp:157] Top shape: 32 1 1 16 (512)
I0609 15:38:11.194286 31883 net.cpp:165] Memory required for data: 7927900960
I0609 15:38:11.194290 31883 layer_factory.hpp:77] Creating layer conv9_2_mbox_loc_flat
I0609 15:38:11.194296 31883 net.cpp:100] Creating Layer conv9_2_mbox_loc_flat
I0609 15:38:11.194301 31883 net.cpp:434] conv9_2_mbox_loc_flat <- conv9_2_mbox_loc_perm
I0609 15:38:11.194309 31883 net.cpp:408] conv9_2_mbox_loc_flat -> conv9_2_mbox_loc_flat
I0609 15:38:11.194332 31883 net.cpp:150] Setting up conv9_2_mbox_loc_flat
I0609 15:38:11.194339 31883 net.cpp:157] Top shape: 32 16 (512)
I0609 15:38:11.194341 31883 net.cpp:165] Memory required for data: 7927903008
I0609 15:38:11.194346 31883 layer_factory.hpp:77] Creating layer conv9_2_mbox_conf
I0609 15:38:11.194357 31883 net.cpp:100] Creating Layer conv9_2_mbox_conf
I0609 15:38:11.194362 31883 net.cpp:434] conv9_2_mbox_conf <- conv9_2_conv9_2_relu_0_split_1
I0609 15:38:11.194370 31883 net.cpp:408] conv9_2_mbox_conf -> conv9_2_mbox_conf
I0609 15:38:11.196312 31883 net.cpp:150] Setting up conv9_2_mbox_conf
I0609 15:38:11.196323 31883 net.cpp:157] Top shape: 32 8 1 1 (256)
I0609 15:38:11.196326 31883 net.cpp:165] Memory required for data: 7927904032
I0609 15:38:11.196333 31883 layer_factory.hpp:77] Creating layer conv9_2_mbox_conf_perm
I0609 15:38:11.196342 31883 net.cpp:100] Creating Layer conv9_2_mbox_conf_perm
I0609 15:38:11.196348 31883 net.cpp:434] conv9_2_mbox_conf_perm <- conv9_2_mbox_conf
I0609 15:38:11.196354 31883 net.cpp:408] conv9_2_mbox_conf_perm -> conv9_2_mbox_conf_perm
I0609 15:38:11.196445 31883 net.cpp:150] Setting up conv9_2_mbox_conf_perm
I0609 15:38:11.196452 31883 net.cpp:157] Top shape: 32 1 1 8 (256)
I0609 15:38:11.196455 31883 net.cpp:165] Memory required for data: 7927905056
I0609 15:38:11.196460 31883 layer_factory.hpp:77] Creating layer conv9_2_mbox_conf_flat
I0609 15:38:11.196465 31883 net.cpp:100] Creating Layer conv9_2_mbox_conf_flat
I0609 15:38:11.196470 31883 net.cpp:434] conv9_2_mbox_conf_flat <- conv9_2_mbox_conf_perm
I0609 15:38:11.196476 31883 net.cpp:408] conv9_2_mbox_conf_flat -> conv9_2_mbox_conf_flat
I0609 15:38:11.196501 31883 net.cpp:150] Setting up conv9_2_mbox_conf_flat
I0609 15:38:11.196507 31883 net.cpp:157] Top shape: 32 8 (256)
I0609 15:38:11.196511 31883 net.cpp:165] Memory required for data: 7927906080
I0609 15:38:11.196514 31883 layer_factory.hpp:77] Creating layer conv9_2_mbox_priorbox
I0609 15:38:11.196521 31883 net.cpp:100] Creating Layer conv9_2_mbox_priorbox
I0609 15:38:11.196526 31883 net.cpp:434] conv9_2_mbox_priorbox <- conv9_2_conv9_2_relu_0_split_2
I0609 15:38:11.196532 31883 net.cpp:434] conv9_2_mbox_priorbox <- data_data_0_split_6
I0609 15:38:11.196540 31883 net.cpp:408] conv9_2_mbox_priorbox -> conv9_2_mbox_priorbox
I0609 15:38:11.196573 31883 net.cpp:150] Setting up conv9_2_mbox_priorbox
I0609 15:38:11.196580 31883 net.cpp:157] Top shape: 1 2 16 (32)
I0609 15:38:11.196583 31883 net.cpp:165] Memory required for data: 7927906208
I0609 15:38:11.196588 31883 layer_factory.hpp:77] Creating layer mbox_loc
I0609 15:38:11.196594 31883 net.cpp:100] Creating Layer mbox_loc
I0609 15:38:11.196600 31883 net.cpp:434] mbox_loc <- conv4_3_norm_mbox_loc_flat
I0609 15:38:11.196605 31883 net.cpp:434] mbox_loc <- fc7_mbox_loc_flat
I0609 15:38:11.196612 31883 net.cpp:434] mbox_loc <- conv6_2_mbox_loc_flat
I0609 15:38:11.196619 31883 net.cpp:434] mbox_loc <- conv7_2_mbox_loc_flat
I0609 15:38:11.196624 31883 net.cpp:434] mbox_loc <- conv8_2_mbox_loc_flat
I0609 15:38:11.196630 31883 net.cpp:434] mbox_loc <- conv9_2_mbox_loc_flat
I0609 15:38:11.196640 31883 net.cpp:408] mbox_loc -> mbox_loc
I0609 15:38:11.196666 31883 net.cpp:150] Setting up mbox_loc
I0609 15:38:11.196672 31883 net.cpp:157] Top shape: 32 34928 (1117696)
I0609 15:38:11.196676 31883 net.cpp:165] Memory required for data: 7932376992
I0609 15:38:11.196679 31883 layer_factory.hpp:77] Creating layer mbox_conf
I0609 15:38:11.196686 31883 net.cpp:100] Creating Layer mbox_conf
I0609 15:38:11.196689 31883 net.cpp:434] mbox_conf <- conv4_3_norm_mbox_conf_flat
I0609 15:38:11.196696 31883 net.cpp:434] mbox_conf <- fc7_mbox_conf_flat
I0609 15:38:11.196702 31883 net.cpp:434] mbox_conf <- conv6_2_mbox_conf_flat
I0609 15:38:11.196707 31883 net.cpp:434] mbox_conf <- conv7_2_mbox_conf_flat
I0609 15:38:11.196713 31883 net.cpp:434] mbox_conf <- conv8_2_mbox_conf_flat
I0609 15:38:11.196718 31883 net.cpp:434] mbox_conf <- conv9_2_mbox_conf_flat
I0609 15:38:11.196725 31883 net.cpp:408] mbox_conf -> mbox_conf
I0609 15:38:11.196749 31883 net.cpp:150] Setting up mbox_conf
I0609 15:38:11.196755 31883 net.cpp:157] Top shape: 32 17464 (558848)
I0609 15:38:11.196759 31883 net.cpp:165] Memory required for data: 7934612384
I0609 15:38:11.196763 31883 layer_factory.hpp:77] Creating layer mbox_priorbox
I0609 15:38:11.196768 31883 net.cpp:100] Creating Layer mbox_priorbox
I0609 15:38:11.196774 31883 net.cpp:434] mbox_priorbox <- conv4_3_norm_mbox_priorbox
I0609 15:38:11.196779 31883 net.cpp:434] mbox_priorbox <- fc7_mbox_priorbox
I0609 15:38:11.196784 31883 net.cpp:434] mbox_priorbox <- conv6_2_mbox_priorbox
I0609 15:38:11.196790 31883 net.cpp:434] mbox_priorbox <- conv7_2_mbox_priorbox
I0609 15:38:11.196795 31883 net.cpp:434] mbox_priorbox <- conv8_2_mbox_priorbox
I0609 15:38:11.196799 31883 net.cpp:434] mbox_priorbox <- conv9_2_mbox_priorbox
I0609 15:38:11.196805 31883 net.cpp:408] mbox_priorbox -> mbox_priorbox
I0609 15:38:11.196831 31883 net.cpp:150] Setting up mbox_priorbox
I0609 15:38:11.196837 31883 net.cpp:157] Top shape: 1 2 34928 (69856)
I0609 15:38:11.196841 31883 net.cpp:165] Memory required for data: 7934891808
I0609 15:38:11.196844 31883 layer_factory.hpp:77] Creating layer mbox_loss
I0609 15:38:11.196856 31883 net.cpp:100] Creating Layer mbox_loss
I0609 15:38:11.196859 31883 net.cpp:434] mbox_loss <- mbox_loc
I0609 15:38:11.196864 31883 net.cpp:434] mbox_loss <- mbox_conf
I0609 15:38:11.196868 31883 net.cpp:434] mbox_loss <- mbox_priorbox
…
  name: "data"
  type: "AnnotatedData"
  top: "data"
  top: "label"
  include {
    phase: TEST
  }
  transform_param {
    mean_value: 114
    mean_value: 114
    mean_value: 114
    resize_param {
      prob: 1
      resize_mode: WARP
      height: 300
      width: 300
      interp_mode: LINEAR
    }
  }
  data_param {
    source: "examples/grayscale_tbs_v2.0/grayscale_tbs_v2.0_test_lmdb"
    batch_size: 4
    backend: LMDB
  }
  annotated_data_param {
    batch_sampler {
    }
    label_map_file: "data/grayscale_tbs_v2.0/labelmap_voc.prototxt"
  }
}
layer {
  name: "conv1_1"
  type: "Convolution"
  bottom: "data"
  top: "conv1_1"
  param {
    lr_mult: 1
    decay_mult: 1
  }
  param {
    lr_mult: 2
    decay_mult: 0
  }
  convolution_param {
    num_output: 64
    pad: 1
    kernel_size: 3
    weight_filler {
      type: "xavier"
    }
    bias_filler {
      type: "constant"
      value: 0
    }
  }
}
layer {
  name: "relu1_1"
  type: "ReLU"
  bottom: "conv1_1"
  top: "conv1_1"
}
layer {
  name: "conv1_2"
  type: "Convolution"
  bottom: "conv1_1"
  top: "conv1_2"
  param {
    lr_mult: 1
    decay_mult: 1
  }
  param {
    lr_mult: 2
    decay_mult: 0
  }
  convolution_param {
    num_output: 64
    pad: 1
    kernel_size: 3
    weight_filler {
      type: "xavier"
    }
    bias_filler {
      type: "constant"
      value: 0
    }
  }
}
layer {
  name: "relu1_2"
  type: "ReLU"
  bottom: "conv1_2"
  top: "conv1_2"
}
layer {
  name: "pool1"
  type: "Pooling"
  bottom: "conv1_2"
  top: "pool1"
  pooling_param {
    pool: MAX
    kernel_size: 2
    stride: 2
  }
}
layer {
  name: "conv2_1"
  type: "Convolution"
  bottom: "pool1"
  top: "conv2_1"
  param {
    lr_mult: 1
    decay_mult: 1
  }
  param {
    lr_mult: 2
    decay_mult: 0
  }
  convolution_param {
    num_output: 128
    pad: 1
    kernel_size: 3
    weight_filler {
      type: "xavier"
    }
    bias_filler {
      type: "constant"
      value: 0
    }
  }
}
layer {
  name: "relu2_1"
  type: "ReLU"
  bottom: "conv2_1"
  top: "conv2_1"
}
layer {
  name: "conv2_2"
  type: "Convolution"
  bottom: "conv2_1"
  top: "conv2_2"
  param {
    lr_mult: 1
    decay_mult: 1
  }
  param {
    lr_mult: 2
    decay_mult: 0
  }
  convolution_param {
    num_output: 128
    pad: 1
    kernel_size: 3
    weight_filler {
      type: "xavier"
    }
    bias_filler {
      type: "constant"
      value: 0
    }
  }
}
layer {
  name: "relu2_2"
  type: "ReLU"
  bottom: "conv2_2"
  top: "conv2_2"
}
layer {
  name: "pool2"
  type: "Pooling"
  bottom: "conv2_2"
  top: "pool2"
  pooling_param {
    pool: MAX
    kernel_size: 2
    stride: 2
  }
}
layer {
  name: "conv3_1"
  type: "Convolution"
  bottom: "pool2"
  top: "conv3_1"
  param {
    lr_mult: 1
    decay_mult: 1
  }
  param {
    lr_mult: 2
    decay_mult: 0
  }
  convolution_param {
    num_output: 256
    pad: 1
    kernel_size: 3
    weight_filler {
      type: "xavier"
    }
    bias_filler {
      type: "constant"
      value: 0
    }
  }
}
layer {
  name: "relu3_1"
  type: "ReLU"
  bottom: "conv3_1"
  top: "conv3_1"
}
layer {
  name: "conv3_2"
  type: "Convolution"
  bottom: "conv3_1"
  top: "conv3_2"
  param {
    lr_mult: 1
    decay_mult: 1
  }
  param {
    lr_mult: 2
    decay_mult: 0
  }
  convolution_param {
    num_output: 256
    pad: 1
    kernel_size: 3
    weight_filler {
      type: "xavier"
    }
    bias_filler {
      type: "constant"
      value: 0
    }
  }
}
layer {
  name: "relu3_2"
  type: "ReLU"
  bottom: "conv3_2"
  top: "conv3_2"
}
layer {
  name: "conv3_3"
  type: "Convolution"
  bottom: "conv3_2"
  top: "conv3_3"
  param {
    lr_mult: 1
    decay_mult: 1
  }
  param {
    lr_mult: 2
    decay_mult: 0
  }
  convolution_param {
    num_output: 256
    pad: 1
    kernel_size: 3
    weight_filler {
      type: "xavier"
    }
    bias_filler {
      type: "constant"
      value: 0
    }
  }
}
layer {
  name: "relu3_3"
  type: "ReLU"
  bottom: "conv3_3"
  top: "conv3_3"
}
layer {
  name: "pool3"
  type: "Pooling"
  bottom: "conv3_3"
  top: "pool3"
  pooling_param {
    pool: MAX
    kernel_size: 2
    stride: 2
  }
}
layer {
  name: "conv4_1"
  type: "Convolution"
  bottom: "pool3"
  top: "conv4_1"
  param {
    lr_mult: 1
    decay_mult: 1
  }
  param {
    lr_mult: 2
    decay_mult: 0
  }
  convolution_param {
    num_output: 512
    pad: 1
    kernel_size: 3
    weight_filler {
      type: "xavier"
    }
    bias_filler {
      type: "constant"
      value: 0
    }
  }
}
layer {
  name: "relu4_1"
  type: "ReLU"
  bottom: "conv4_1"
  top: "conv4_1"
}
layer {
  name: "conv4_2"
  type: "Convolution"
  bottom: "conv4_1"
  top: "conv4_2"
  param {
    lr_mult: 1
    decay_mult: 1
  }
  param {
    lr_mult: 2
    decay_mult: 0
  }
  convolution_param {
    num_output: 512
    pad: 1
    kernel_size: 3
    weight_filler {
      type: "xavier"
    }
    bias_filler {
      type: "constant"
      value: 0
    }
  }
}
layer {
  name: "relu4_2"
  type: "ReLU"
  bottom: "conv4_2"
  top: "conv4_2"
}
layer {
  name: "conv4_3"
  type: "Convolution"
  bottom: "conv4_2"
  top: "conv4_3"
  param {
    lr_mult: 1
    decay_mult: 1
  }
  param {
    lr_mult: 2
    decay_mult: 0
  }
  convolution_param {
    num_output: 512
    pad: 1
    kernel_size: 3
    weight_filler {
      type: "xavier"
    }
    bias_filler {
      type: "constant"
      value: 0
    }
  }
}
layer {
  name: "relu4_3"
  type: "ReLU"
  bottom: "conv4_3"
  top: "conv4_3"
}
layer {
  name: "pool4"
  type: "Pooling"
  bottom: "conv4_3"
  top: "pool4"
  pooling_param {
    pool: MAX
    kernel_size: 2
    stride: 2
  }
}
layer {
  name: "conv5_1"
  type: "Convolution"
  bottom: "pool4"
  top: "conv5_1"
  param {
    lr_mult: 1
    decay_mult: 1
  }
  param {
    lr_mult: 2
    decay_mult: 0
  }
  convolution_param {
    num_output: 512
    pad: 1
    kernel_size: 3
    weight_filler {
      type: "xavier"
    }
    bias_filler {
      type: "constant"
      value: 0
    }
    dilation: 1
  }
}
layer {
  name: "relu5_1"
  type: "ReLU"
  bottom: "conv5_1"
  top: "conv5_1"
}
layer {
  name: "conv5_2"
  type: "Convolution"
  bottom: "conv5_1"
  top: "conv5_2"
  param {
    lr_mult: 1
    decay_mult: 1
  }
  param {
    lr_mult: 2
    decay_mult: 0
  }
  convolution_param {
    num_output: 512
    pad: 1
    kernel_size: 3
    weight_filler {
      type: "xavier"
    }
    bias_filler {
      type: "constant"
      value: 0
    }
    dilation: 1
  }
}
layer {
  name: "relu5_2"
  type: "ReLU"
  bottom: "conv5_2"
  top: "conv5_2"
}
layer {
  name: "conv5_3"
  type: "Convolution"
  bottom: "conv5_2"
  top: "conv5_3"
  param {
    lr_mult: 1
    decay_mult: 1
  }
  param {
    lr_mult: 2
    decay_mult: 0
  }
  convolution_param {
    num_output: 512
    pad: 1
    kernel_size: 3
    weight_filler {
      type: "xavier"
    }
    bias_filler {
      type: "constant"
      value: 0
    }
    dilation: 1
  }
}
layer {
  name: "relu5_3"
  type: "ReLU"
  bottom: "conv5_3"
  top: "conv5_3"
}
layer {
  name: "pool5"
  type: "Pooling"
  bottom: "conv5_3"
  top: "pool5"
  pooling_param {
    pool: MAX
    kernel_size: 3
    stride: 1
    pad: 1
  }
}
layer {
  name: "fc6"
  type: "Convolution"
  bottom: "pool5"
  top: "fc6"
  param {
    lr_mult: 1
    decay_mult: 1
  }
  param {
    lr_mult: 2
    decay_mult: 0
  }
  convolution_param {
    num_output: 1024
    pad: 6
    kernel_size: 3
    weight_filler {
      type: "xavier"
    }
    bias_filler {
      type: "constant"
      value: 0
    }
    dilation: 6
  }
}
layer {
  name: "relu6"
  type: "ReLU"
  bottom: "fc6"
  top: "fc6"
}
layer {
  name: "fc7"
  type: "Convolution"
  bottom: "fc6"
  top: "fc7"
  param {
    lr_mult: 1
    decay_mult: 1
  }
  param {
    lr_mult: 2
    decay_mult: 0
  }
  convolution_param {
    num_output: 1024
    kernel_size: 1
    weight_filler {
      type: "xavier"
    }
    bias_filler {
      type: "constant"
      value: 0
    }
  }
}
layer {
  name: "relu7"
  type: "ReLU"
  bottom: "fc7"
  top: "fc7"
}
layer {
  name: "conv6_1"
  type: "Convolution"
  bottom: "fc7"
  top: "conv6_1"
  param {
    lr_mult: 1
    decay_mult: 1
  }
  param {
    lr_mult: 2
    decay_mult: 0
  }
  convolution_param {
    num_output: 256
    pad: 0
    kernel_size: 1
    stride: 1
    weight_filler {
      type: "xavier"
    }
    bias_filler {
      type: "constant"
      value: 0
    }
  }
}
layer {
  name: "conv6_1_relu"
  type: "ReLU"
  bottom: "conv6_1"
  top: "conv6_1"
}
layer {
  name: "conv6_2"
  type: "Convolution"
  bottom: "conv6_1"
  top: "conv6_2"
  param {
    lr_mult: 1
    decay_mult: 1
  }
  param {
    lr_mult: 2
    decay_mult: 0
  }
  convolution_param {
    num_output: 512
    pad: 1
    kernel_size: 3
    stride: 2
    weight_filler {
      type: "xavier"
    }
    bias_filler {
      type: "constant"
      value: 0
    }
  }
}
layer {
  name: "conv6_2_relu"
  type: "ReLU"
  bottom: "conv6_2"
  top: "conv6_2"
}
layer {
  name: "conv7_1"
  type: "Convolution"
  bottom: "conv6_2"
  top: "conv7_1"
  param {
    lr_mult: 1
    decay_mult: 1
  }
  param {
    lr_mult: 2
    decay_mult: 0
  }
  convolution_param {
    num_output: 128
    pad: 0
    kernel_size: 1
    stride: 1
    weight_filler {
      type: "xavier"
    }
    bias_filler {
      type: "constant"
      value: 0
    }
  }
}
layer {
  name: "conv7_1_relu"
  type: "ReLU"
  bottom: "conv7_1"
  top: "conv7_1"
}
layer {
  name: "conv7_2"
  type: "Convolution"
  bottom: "conv7_1"
  top: "conv7_2"
  param {
    lr_mult: 1
    decay_mult: 1
  }
  param {
    lr_mult: 2
    decay_mult: 0
  }
  convolution_param {
    num_output: 256
    pad: 1
    kernel_size: 3
    stride: 2
    weight_filler {
      type: "xavier"
    }
    bias_filler {
      type: "constant"
      value: 0
    }
  }
}
layer {
  name: "conv7_2_relu"
  type: "ReLU"
  bottom: "conv7_2"
  top: "conv7_2"
}
layer {
  name: "conv8_1"
  type: "Convolution"
  bottom: "conv7_2"
  top: "conv8_1"
  param {
    lr_mult: 1
    decay_mult: 1
  }
  param {
    lr_mult: 2
    decay_mult: 0
  }
  convolution_param {
    num_output: 128
    pad: 0
    kernel_size: 1
    stride: 1
    weight_filler {
      type: "xavier"
    }
    bias_filler {
      type: "constant"
      value: 0
    }
  }
}
layer {
  name: "conv8_1_relu"
  type: "ReLU"
  bottom: "conv8_1"
  top: "conv8_1"
}
layer {
  name: "conv8_2"
  type: "Convolution"
  bottom: "conv8_1"
  top: "conv8_2"
  param {
    lr_mult: 1
    decay_mult: 1
  }
  param {
    lr_mult: 2
    decay_mult: 0
  }
  convolution_param {
    num_output: 256
    pad: 0
    kernel_size: 3
    stride: 1
    weight_filler {
      type: "xavier"
    }
    bias_filler {
      type: "constant"
      value: 0
    }
  }
}
layer {
  name: "conv8_2_relu"
  type: "ReLU"
  bottom: "conv8_2"
  top: "conv8_2"
}
layer {
  name: "conv9_1"
  type: "Convolution"
  bottom: "conv8_2"
  top: "conv9_1"
  param {
    lr_mult: 1
    decay_mult: 1
  }
  param {
    lr_mult: 2
    decay_mult: 0
  }
  convolution_param {
    num_output: 128
    pad: 0
    kernel_size: 1
    stride: 1
    weight_filler {
      type: "xavier"
    }
    bias_filler {
      type: "constant"
      value: 0
    }
  }
}
layer {
  name: "conv9_1_relu"
  type: "ReLU"
  bottom: "conv9_1"
  top: "conv9_1"
}
layer {
  name: "conv9_2"
  type: "Convolution"
  bottom: "conv9_1"
  top: "conv9_2"
  param {
    lr_mult: 1
    decay_mult: 1
  }
  param {
    lr_mult: 2
    decay_mult: 0
  }
  convolution_param {
    num_output: 256
    pad: 0
    kernel_size: 3
    stride: 1
    weight_filler {
      type: "xavier"
    }
    bias_filler {
      type: "constant"
      value: 0
    }
  }
}
layer {
  name: "conv9_2_relu"
  type: "ReLU"
  bottom: "conv9_2"
  top: "conv9_2"
}
layer {
  name: "conv4_3_norm"
  type: "Normalize"
  bottom: "conv4_3"
  top: "conv4_3_norm"
  norm_param {
    across_spatial: false
    scale_filler {
      type: "constant"
      value: 20
    }
    channel_shared: false
  }
}
layer {
  name: "conv4_3_norm_mbox_loc"
  type: "Convolution"
  bottom: "conv4_3_norm"
  top: "conv4_3_norm_mbox_loc"
  param {
    lr_mult: 1
    decay_mult: 1
  }
  param {
    lr_mult: 2
    decay_mult: 0
  }
  convolution_param {
    num_output: 16
    pad: 1
    kernel_size: 3
    stride: 1
    weight_filler {
      type: "xavier"
    }
    bias_filler {
      type: "constant"
      value: 0
    }
  }
}
layer {
  name: "conv4_3_norm_mbox_loc_perm"
  type: "Permute"
  bottom: "conv4_3_norm_mbox_loc"
  top: "conv4_3_norm_mbox_loc_perm"
  permute_param {
    order: 0
    order: 2
    order: 3
    order: 1
  }
}
layer {
  name: "conv4_3_norm_mbox_loc_flat"
  type: "Flatten"
  bottom: "conv4_3_norm_mbox_loc_perm"
  top: "conv4_3_norm_mbox_loc_flat"
  flatten_param {
    axis: 1
  }
}
layer {
  name: "conv4_3_norm_mbox_conf"
  type: "Convolution"
  bottom: "conv4_3_norm"
  top: "conv4_3_norm_mbox_conf"
  param {
    lr_mult: 1
    decay_mult: 1
  }
  param {
    lr_mult: 2
    decay_mult: 0
  }
  convolution_param {
    num_output: 8
    pad: 1
    kernel_size: 3
    stride: 1
    weight_filler {
      type: "xavier"
    }
    bias_filler {
      type: "constant"
      value: 0
    }
  }
}
layer {
  name: "conv4_3_norm_mbox_conf_perm"
  type: "Permute"
  bottom: "conv4_3_norm_mbox_conf"
  top: "conv4_3_norm_mbox_conf_perm"
  permute_param {
    order: 0
    order: 2
    order: 3
    order: 1
  }
}
layer {
  name: "conv4_3_norm_mbox_conf_flat"
  type: "Flatten"
  bottom: "conv4_3_norm_mbox_conf_perm"
  top: "conv4_3_norm_mbox_conf_flat"
  flatten_param {
    axis: 1
  }
}
layer {
  name: "conv4_3_norm_mbox_priorbox"
  type: "PriorBox"
  bottom: "conv4_3_norm"
  bottom: "data"
  top: "conv4_3_norm_mbox_priorbox"
  prior_box_param {
    min_size: 30
    max_size: 60
    aspect_ratio: 2
    flip: true
    clip: false
    variance: 0.1
    variance: 0.1
    variance: 0.2
    variance: 0.2
    step: 8
    offset: 0.5
  }
}
layer {
  name: "fc7_mbox_loc"
  type: "Convolution"
  bottom: "fc7"
  top: "fc7_mbox_loc"
  param {
    lr_mult: 1
    decay_mult: 1
  }
  param {
    lr_mult: 2
    decay_mult: 0
  }
  convolution_param {
    num_output: 24
    pad: 1
    kernel_size: 3
    stride: 1
    weight_filler {
      type: "xavier"
    }
    bias_filler {
      type: "constant"
      value: 0
    }
  }
}
layer {
  name: "fc7_mbox_loc_perm"
  type: "Permute"
  bottom: "fc7_mbox_loc"
  top: "fc7_mbox_loc_perm"
  permute_param {
    order: 0
    order: 2
    order: 3
    order: 1
  }
}
layer {
  name: "fc7_mbox_loc_flat"
  type: "Flatten"
  bottom: "fc7_mbox_loc_perm"
  top: "fc7_mbox_loc_flat"
  flatten_param {
    axis: 1
  }
}
layer {
  name: "fc7_mbox_conf"
  type: "Convolution"
  bottom: "fc7"
  top: "fc7_mbox_conf"
  param {
    lr_mult: 1
    decay_mult: 1
  }
  param {
    lr_mult: 2
    decay_mult: 0
  }
  convolution_param {
    num_output: 12
    pad: 1
    kernel_size: 3
    stride: 1
    weight_filler {
      type: "xavier"
    }
    bias_filler {
      type: "constant"
      value: 0
    }
  }
}
layer {
  name: "fc7_mbox_conf_perm"
  type: "Permute"
  bottom: "fc7_mbox_conf"
  top: "fc7_mbox_conf_perm"
  permute_param {
    order: 0
    order: 2
    order: 3
    order: 1
  }
}
layer {
  name: "fc7_mbox_conf_flat"
  type: "Flatten"
  bottom: "fc7_mbox_conf_perm"
  top: "fc7_mbox_conf_flat"
  flatten_param {
    axis: 1
  }
}
layer {
  name: "fc7_mbox_priorbox"
  type: "PriorBox"
  bottom: "fc7"
  bottom: "data"
  top: "fc7_mbox_priorbox"
  prior_box_param {
    min_size: 60
    max_size: 111
    aspect_ratio: 2
    aspect_ratio: 3
    flip: true
    clip: false
    variance: 0.1
    variance: 0.1
    variance: 0.2
    variance: 0.2
    step: 16
    offset: 0.5
  }
}
layer {
  name: "conv6_2_mbox_loc"
  type: "Convolution"
  bottom: "conv6_2"
  top: "conv6_2_mbox_loc"
  param {
    lr_mult: 1
    decay_mult: 1
  }
  param {
    lr_mult: 2
    decay_mult: 0
  }
  convolution_param {
    num_output: 24
    pad: 1
    kernel_size: 3
    stride: 1
    weight_filler {
      type: "xavier"
    }
    bias_filler {
      type: "constant"
      value: 0
    }
  }
}
layer {
  name: "conv6_2_mbox_loc_perm"
  type: "Permute"
  bottom: "conv6_2_mbox_loc"
  top: "conv6_2_mbox_loc_perm"
  permute_param {
    order: 0
    order: 2
    order: 3
    order: 1
  }
}
layer {
  name: "conv6_2_mbox_loc_flat"
  type: "Flatten"
  bottom: "conv6_2_mbox_loc_perm"
  top: "conv6_2_mbox_loc_flat"
  flatten_param {
    axis: 1
  }
}
layer {
  name: "conv6_2_mbox_conf"
  type: "Convolution"
  bottom: "conv6_2"
  top: "conv6_2_mbox_conf"
  param {
    lr_mult: 1
    decay_mult: 1
  }
  param {
    lr_mult: 2
    decay_mult: 0
  }
  convolution_param {
    num_output: 12
    pad: 1
    kernel_size: 3
    stride: 1
    weight_filler {
      type: "xavier"
    }
    bias_filler {
      type: "constant"
      value: 0
    }
  }
}
layer {
  name: "conv6_2_mbox_conf_perm"
  type: "Permute"
  bottom: "conv6_2_mbox_conf"
  top: "conv6_2_mbox_conf_perm"
  permute_param {
    order: 0
    order: 2
    order: 3
    order: 1
  }
}
layer {
  name: "conv6_2_mbox_conf_flat"
  type: "Flatten"
  bottom: "conv6_2_mbox_conf_perm"
  top: "conv6_2_mbox_conf_flat"
  flatten_param {
    axis: 1
  }
}
layer {
  name: "conv6_2_mbox_priorbox"
  type: "PriorBox"
  bottom: "conv6_2"
  bottom: "data"
  top: "conv6_2_mbox_priorbox"
  prior_box_param {
    min_size: 111
    max_size: 162
    aspect_ratio: 2
    aspect_ratio: 3
    flip: true
    clip: false
    variance: 0.1
    variance: 0.1
    variance: 0.2
    variance: 0.2
    step: 32
    offset: 0.5
  }
}
layer {
  name: "conv7_2_mbox_loc"
  type: "Convolution"
  bottom: "conv7_2"
  top: "conv7_2_mbox_loc"
  param {
    lr_mult: 1
    decay_mult: 1
  }
  param {
    lr_mult: 2
    decay_mult: 0
  }
  convolution_param {
    num_output: 24
    pad: 1
    kernel_size: 3
    stride: 1
    weight_filler {
      type: "xavier"
    }
    bias_filler {
      type: "constant"
      value: 0
    }
  }
}
layer {
  name: "conv7_2_mbox_loc_perm"
  type: "Permute"
  bottom: "conv7_2_mbox_loc"
  top: "conv7_2_mbox_loc_perm"
  permute_param {
    order: 0
    order: 2
    order: 3
    order: 1
  }
}
layer {
  name: "conv7_2_mbox_loc_flat"
  type: "Flatten"
  bottom: "conv7_2_mbox_loc_perm"
  top: "conv7_2_mbox_loc_flat"
  flatten_param {
    axis: 1
  }
}
layer {
  name: "conv7_2_mbox_conf"
  type: "Convolution"
  bottom: "conv7_2"
  top: "conv7_2_mbox_conf"
  param {
    lr_mult: 1
    decay_mult: 1
  }
  param {
    lr_mult: 2
    decay_mult: 0
  }
  convolution_param {
    num_output: 12
    pad: 1
    kernel_size: 3
    stride: 1
    weight_filler {
      type: "xavier"
    }
    bias_filler {
      type: "constant"
      value: 0
    }
  }
}
layer {
  name: "conv7_2_mbox_conf_perm"
  type: "Permute"
  bottom: "conv7_2_mbox_conf"
  top: "conv7_2_mbox_conf_perm"
  permute_param {
    order: 0
    order: 2
    order: 3
    order: 1
  }
}
layer {
  name: "conv7_2_mbox_conf_flat"
  type: "Flatten"
  bottom: "conv7_2_mbox_conf_perm"
  top: "conv7_2_mbox_conf_flat"
  flatten_param {
    axis: 1
  }
}
layer {
  name: "conv7_2_mbox_priorbox"
  type: "PriorBox"
  bottom: "conv7_2"
  bottom: "data"
  top: "conv7_2_mbox_priorbox"
  prior_box_param {
    min_size: 162
    max_size: 213
    aspect_ratio: 2
    aspect_ratio: 3
    flip: true
    clip: false
    variance: 0.1
    variance: 0.1
    variance: 0.2
    variance: 0.2
    step: 64
    offset: 0.5
  }
}
layer {
  name: "conv8_2_mbox_loc"
  type: "Convolution"
  bottom: "conv8_2"
  top: "conv8_2_mbox_loc"
  param {
    lr_mult: 1
    decay_mult: 1
  }
  param {
    lr_mult: 2
    decay_mult: 0
  }
  convolution_param {
    num_output: 16
    pad: 1
    kernel_size: 3
    stride: 1
    weight_filler {
      type: "xavier"
    }
    bias_filler {
      type: "constant"
      value: 0
    }
  }
}
layer {
  name: "conv8_2_mbox_loc_perm"
  type: "Permute"
  bottom: "conv8_2_mbox_loc"
  top: "conv8_2_mbox_loc_perm"
  permute_param {
    order: 0
    order: 2
    order: 3
    order: 1
  }
}
layer {
  name: "conv8_2_mbox_loc_flat"
  type: "Flatten"
  bottom: "conv8_2_mbox_loc_perm"
  top: "conv8_2_mbox_loc_flat"
  flatten_param {
    axis: 1
  }
}
layer {
  name: "conv8_2_mbox_conf"
  type: "Convolution"
  bottom: "conv8_2"
  top: "conv8_2_mbox_conf"
  param {
    lr_mult: 1
    decay_mult: 1
  }
  param {
    lr_mult: 2
    decay_mult: 0
  }
  convolution_param {
    num_output: 8
    pad: 1
    kernel_size: 3
    stride: 1
    weight_filler {
      type: "xavier"
    }
    bias_filler {
      type: "constant"
      value: 0
    }
  }
}
layer {
  name: "conv8_2_mbox_conf_perm"
  type: "Permute"
  bottom: "conv8_2_mbox_conf"
  top: "conv8_2_mbox_conf_perm"
  permute_param {
    order: 0
    order: 2
    order: 3
    order: 1
  }
}
layer {
  name: "conv8_2_mbox_conf_flat"
  type: "Flatten"
  bottom: "conv8_2_mbox_conf_perm"
  top: "conv8_2_mbox_conf_flat"
  flatten_param {
    axis: 1
  }
}
layer {
  name: "conv8_2_mbox_priorbox"
  type: "PriorBox"
  bottom: "conv8_2"
  bottom: "data"
  top: "conv8_2_mbox_priorbox"
  prior_box_param {
    min_size: 213
    max_size: 264
    aspect_ratio: 2
    flip: true
    clip: false
    variance: 0.1
    variance: 0.1
    variance: 0.2
    variance: 0.2
    step: 100
    offset: 0.5
  }
}
layer {
  name: "conv9_2_mbox_loc"
  type: "Convolution"
  bottom: "conv9_2"
  top: "conv9_2_mbox_loc"
  param {
    lr_mult: 1
    decay_mult: 1
  }
  param {
    lr_mult: 2
    decay_mult: 0
  }
  convolution_param {
    num_output: 16
    pad: 1
    kernel_size: 3
    stride: 1
    weight_filler {
      type: "xavier"
    }
    bias_filler {
      type: "constant"
      value: 0
    }
  }
}
layer {
  name: "conv9_2_mbox_loc_perm"
  type: "Permute"
  bottom: "conv9_2_mbox_loc"
  top: "conv9_2_mbox_loc_perm"
  permute_param {
    order: 0
    order: 2
    order: 3
    order: 1
  }
}
layer {
  name: "conv9_2_mbox_loc_flat"
  type: "Flatten"
  bottom: "conv9_2_mbox_loc_perm"
  top: "conv9_2_mbox_loc_flat"
  flatten_param {
    axis: 1
  }
}
layer {
  name: "conv9_2_mbox_conf"
  type: "Convolution"
  bottom: "conv9_2"
  top: "conv9_2_mbox_conf"
  param {
    lr_mult: 1
    decay_mult: 1
  }
  param {
    lr_mult: 2
    decay_mult: 0
  }
  convolution_param {
    num_output: 8
    pad: 1
    kernel_size: 3
    stride: 1
    weight_filler {
      type: "xavier"
    }
    bias_filler {
      type: "constant"
      value: 0
    }
  }
}
layer {
  name: "conv9_2_mbox_conf_perm"
  type: "Permute"
  bottom: "conv9_2_mbox_conf"
  top: "conv9_2_mbox_conf_perm"
  permute_param {
    order: 0
    order: 2
    order: 3
    order: 1
  }
}
layer {
  name: "conv9_2_mbox_conf_flat"
  type: "Flatten"
  bottom: "conv9_2_mbox_conf_perm"
  top: "conv9_2_mbox_conf_flat"
  flatten_param {
    axis: 1
  }
}
layer {
  name: "conv9_2_mbox_priorbox"
  type: "PriorBox"
  bottom: "conv9_2"
  bottom: "data"
  top: "conv9_2_mbox_priorbox"
  prior_box_param {
    min_size: 264
    max_size: 315
    aspect_ratio: 2
    flip: true
    clip: false
    variance: 0.1
    variance: 0.1
    variance: 0.2
    variance: 0.2
    step: 300
    offset: 0.5
  }
}
layer {
  name: "mbox_loc"
  type: "Concat"
  bottom: "conv4_3_norm_mbox_loc_flat"
  bottom: "fc7_mbox_loc_flat"
  bottom: "conv6_2_mbox_loc_flat"
  bottom: "conv7_2_mbox_loc_flat"
  bottom: "conv8_2_mbox_loc_flat"
  bottom: "conv9_2_mbox_loc_flat"
  top: "mbox_loc"
  concat_param {
    axis: 1
  }
}
layer {
  name: "mbox_conf"
  type: "Concat"
  bottom: "conv4_3_norm_mbox_conf_flat"
  bottom: "fc7_mbox_conf_flat"
  bottom: "conv6_2_mbox_conf_flat"
  bottom: "conv7_2_mbox_conf_flat"
  bottom: "conv8_2_mbox_conf_flat"
  bottom: "conv9_2_mbox_conf_flat"
  top: "mbox_conf"
  concat_param {
    axis: 1
  }
}
layer {
  name: "mbox_priorbox"
  type: "Concat"
  bottom: "conv4_3_norm_mbox_priorbox"
  bottom: "fc7_mbox_priorbox"
  bottom: "conv6_2_mbox_priorbox"
  bottom: "conv7_2_mbox_priorbox"
  bottom: "conv8_2_mbox_priorbox"
  bottom: "conv9_2_mbox_priorbox"
  top: "mbox_priorbox"
  concat_param {
    axis: 2
  }
}
layer {
  name: "mbox_conf_reshape"
  type: "Reshape"
  bottom: "mbox_conf"
  top: "mbox_conf_reshape"
  reshape_param {
    shape {
      dim: 0
      dim: -1
      dim: 2
    }
  }
}
layer {
  name: "mbox_conf_softmax"
  type: "Softmax"
  bottom: "mbox_conf_reshape"
  top: "mbox_conf_softmax"
  softmax_param {
    axis: 2
  }
}
layer {
  name: "mbox_conf_flatten"
  type: "Flatten"
  bottom: "mbox_conf_softmax"
  top: "mbox_conf_flatten"
  flatten_param {
    axis: 1
  }
}
layer {
  name: "detection_out"
  type: "DetectionOutput"
  bottom: "mbox_loc"
  bottom: "mbox_conf_flatten"
  bottom: "mbox_priorbox"
  top: "detection_out"
  include {
    phase: TEST
  }
  detection_output_param {
    num_classes: 2
    share_location: true
    background_label_id: 0
    nms_param {
      nms_threshold: 0.45
      top_k: 400
    }
    save_output_param {
      output_directory: "/home/shangzw/data/grayscale_tbs_v2.0/results/tbs/SSD_300x300/Main"
      output_name_prefix: "comp4_det_test_"
      output_format: "VOC"
      label_map_file: "data/grayscale_tbs_v2.0/labelmap_voc.prototxt"
      name_size_file: "data/grayscale_tbs_v2.0/test_name_size"
      num_test_image: 200
    }
    code_type: CENTER_SIZE
    keep_top_k: 200
    confidence_threshold: 0.01
  }
}
layer {
  name: "detection_eval"
  type: "DetectionEvaluate"
  bottom: "detection_out"
  bottom: "label"
  top: "detection_eval"
  include {
    phase: TEST
  }
  detection_evaluate_param {
    num_classes: 2
    background_label_id: 0
    overlap_threshold: 0.5
    evaluate_difficult_gt: false
    name_size_file: "data/grayscale_tbs_v2.0/test_name_size"
  }
}
I0609 15:38:11.199509 31883 layer_factory.hpp:77] Creating layer data
I0609 15:38:11.199661 31883 net.cpp:100] Creating Layer data
I0609 15:38:11.199671 31883 net.cpp:408] data -> data
I0609 15:38:11.199679 31883 net.cpp:408] data -> label
I0609 15:38:11.200199 31906 db_lmdb.cpp:35] Opened lmdb examples/grayscale_tbs_v2.0/grayscale_tbs_v2.0_test_lmdb
I0609 15:38:11.201738 31883 annotated_data_layer.cpp:62] output data size: 4,3,300,300
I0609 15:38:11.211549 31883 net.cpp:150] Setting up data
I0609 15:38:11.211593 31883 net.cpp:157] Top shape: 4 3 300 300 (1080000)
I0609 15:38:11.211612 31883 net.cpp:157] Top shape: 1 1 1 8 (8)
I0609 15:38:11.211616 31883 net.cpp:165] Memory required for data: 4320032
I0609 15:38:11.211621 31883 layer_factory.hpp:77] Creating layer data_data_0_split
I0609 15:38:11.211649 31883 net.cpp:100] Creating Layer data_data_0_split
I0609 15:38:11.211657 31883 net.cpp:434] data_data_0_split <- data
I0609 15:38:11.211665 31883 net.cpp:408] data_data_0_split -> data_data_0_split_0
I0609 15:38:11.211678 31883 net.cpp:408] data_data_0_split -> data_data_0_split_1
I0609 15:38:11.211686 31883 net.cpp:408] data_data_0_split -> data_data_0_split_2
I0609 15:38:11.211709 31883 net.cpp:408] data_data_0_split -> data_data_0_split_3
I0609 15:38:11.211717 31883 net.cpp:408] data_data_0_split -> data_data_0_split_4
I0609 15:38:11.211725 31883 net.cpp:408] data_data_0_split -> data_data_0_split_5
I0609 15:38:11.211732 31883 net.cpp:408] data_data_0_split -> data_data_0_split_6
I0609 15:38:11.211879 31883 net.cpp:150] Setting up data_data_0_split
I0609 15:38:11.211891 31883 net.cpp:157] Top shape: 4 3 300 300 (1080000)
I0609 15:38:11.211897 31883 net.cpp:157] Top shape: 4 3 300 300 (1080000)
I0609 15:38:11.211902 31883 net.cpp:157] Top shape: 4 3 300 300 (1080000)
I0609 15:38:11.211907 31883 net.cpp:157] Top shape: 4 3 300 300 (1080000)
I0609 15:38:11.211925 31883 net.cpp:157] Top shape: 4 3 300 300 (1080000)
I0609 15:38:11.211930 31883 net.cpp:157] Top shape: 4 3 300 300 (1080000)
I0609 15:38:11.211933 31883 net.cpp:157] Top shape: 4 3 300 300 (1080000)
I0609 15:38:11.211937 31883 net.cpp:165] Memory required for data: 34560032
I0609 15:38:11.211941 31883 layer_factory.hpp:77] Creating layer conv1_1
I0609 15:38:11.211953 31883 net.cpp:100] Creating Layer conv1_1
I0609 15:38:11.211958 31883 net.cpp:434] conv1_1 <- data_data_0_split_0
I0609 15:38:11.211966 31883 net.cpp:408] conv1_1 -> conv1_1
I0609 15:38:11.213693 31883 net.cpp:150] Setting up conv1_1
I0609 15:38:11.213708 31883 net.cpp:157] Top shape: 4 64 300 300 (23040000)
I0609 15:38:11.213711 31883 net.cpp:165] Memory required for data: 126720032
I0609 15:38:11.213726 31883 layer_factory.hpp:77] Creating layer relu1_1
I0609 15:38:11.213734 31883 net.cpp:100] Creating Layer relu1_1
I0609 15:38:11.213739 31883 net.cpp:434] relu1_1 <- conv1_1
I0609 15:38:11.213745 31883 net.cpp:395] relu1_1 -> conv1_1 (in-place)
I0609 15:38:11.215255 31883 net.cpp:150] Setting up relu1_1
I0609 15:38:11.215265 31883 net.cpp:157] Top shape: 4 64 300 300 (23040000)
I0609 15:38:11.215267 31883 net.cpp:165] Memory required for data: 218880032
I0609 15:38:11.215271 31883 layer_factory.hpp:77] Creating layer conv1_2
I0609 15:38:11.215284 31883 net.cpp:100] Creating Layer conv1_2
I0609 15:38:11.215289 31883 net.cpp:434] conv1_2 <- conv1_1
I0609 15:38:11.215297 31883 net.cpp:408] conv1_2 -> conv1_2
I0609 15:38:11.217499 31883 net.cpp:150] Setting up conv1_2
I0609 15:38:11.217511 31883 net.cpp:157] Top shape: 4 64 300 300 (23040000)
I0609 15:38:11.217515 31883 net.cpp:165] Memory required for data: 311040032
I0609 15:38:11.217525 31883 layer_factory.hpp:77] Creating layer relu1_2
I0609 15:38:11.217533 31883 net.cpp:100] Creating Layer relu1_2
I0609 15:38:11.217540 31883 net.cpp:434] relu1_2 <- conv1_2
I0609 15:38:11.217545 31883 net.cpp:395] relu1_2 -> conv1_2 (in-place)
I0609 15:38:11.218622 31883 net.cpp:150] Setting up relu1_2
I0609 15:38:11.218634 31883 net.cpp:157] Top shape: 4 64 300 300 (23040000)
I0609 15:38:11.218641 31883 net.cpp:165] Memory required for data: 403200032
I0609 15:38:11.218644 31883 layer_factory.hpp:77] Creating layer pool1
I0609 15:38:11.218652 31883 net.cpp:100] Creating Layer pool1
I0609 15:38:11.218658 31883 net.cpp:434] pool1 <- conv1_2
I0609 15:38:11.218667 31883 net.cpp:408] pool1 -> pool1
I0609 15:38:11.218720 31883 net.cpp:150] Setting up pool1
I0609 15:38:11.218729 31883 net.cpp:157] Top shape: 4 64 150 150 (5760000)
I0609 15:38:11.218734 31883 net.cpp:165] Memory required for data: 426240032
I0609 15:38:11.218739 31883 layer_factory.hpp:77] Creating layer conv2_1
I0609 15:38:11.218747 31883 net.cpp:100] Creating Layer conv2_1
I0609 15:38:11.218753 31883 net.cpp:434] conv2_1 <- pool1
I0609 15:38:11.218760 31883 net.cpp:408] conv2_1 -> conv2_1
I0609 15:38:11.220183 31883 net.cpp:150] Setting up conv2_1
I0609 15:38:11.220194 31883 net.cpp:157] Top shape: 4 128 150 150 (11520000)
I0609 15:38:11.220198 31883 net.cpp:165] Memory required for data: 472320032
I0609 15:38:11.220208 31883 layer_factory.hpp:77] Creating layer relu2_1
I0609 15:38:11.220219 31883 net.cpp:100] Creating Layer relu2_1
I0609 15:38:11.220224 31883 net.cpp:434] relu2_1 <- conv2_1
I0609 15:38:11.220230 31883 net.cpp:395] relu2_1 -> conv2_1 (in-place)
I0609 15:38:11.221050 31883 net.cpp:150] Setting up relu2_1
I0609 15:38:11.221060 31883 net.cpp:157] Top shape: 4 128 150 150 (11520000)
I0609 15:38:11.221065 31883 net.cpp:165] Memory required for data: 518400032
I0609 15:38:11.221068 31883 layer_factory.hpp:77] Creating layer conv2_2
I0609 15:38:11.221078 31883 net.cpp:100] Creating Layer conv2_2
I0609 15:38:11.221083 31883 net.cpp:434] conv2_2 <- conv2_1
I0609 15:38:11.221091 31883 net.cpp:408] conv2_2 -> conv2_2
I0609 15:38:11.223477 31883 net.cpp:150] Setting up conv2_2
I0609 15:38:11.223489 31883 net.cpp:157] Top shape: 4 128 150 150 (11520000)
I0609 15:38:11.223492 31883 net.cpp:165] Memory required for data: 564480032
I0609 15:38:11.223517 31883 layer_factory.hpp:77] Creating layer relu2_2
I0609 15:38:11.223527 31883 net.cpp:100] Creating Layer relu2_2
I0609 15:38:11.223532 31883 net.cpp:434] relu2_2 <- conv2_2
I0609 15:38:11.223538 31883 net.cpp:395] relu2_2 -> conv2_2 (in-place)
I0609 15:38:11.223737 31883 net.cpp:150] Setting up relu2_2
I0609 15:38:11.223748 31883 net.cpp:157] Top shape: 4 128 150 150 (11520000)
I0609 15:38:11.223753 31883 net.cpp:165] Memory required for data: 610560032
I0609 15:38:11.223758 31883 layer_factory.hpp:77] Creating layer pool2
I0609 15:38:11.223765 31883 net.cpp:100] Creating Layer pool2
I0609 15:38:11.223770 31883 net.cpp:434] pool2 <- conv2_2
I0609 15:38:11.223778 31883 net.cpp:408] pool2 -> pool2
I0609 15:38:11.223851 31883 net.cpp:150] Setting up pool2
I0609 15:38:11.223862 31883 net.cpp:157] Top shape: 4 128 75 75 (2880000)
I0609 15:38:11.223867 31883 net.cpp:165] Memory required for data: 622080032
I0609 15:38:11.223871 31883 layer_factory.hpp:77] Creating layer conv3_1
I0609 15:38:11.223881 31883 net.cpp:100] Creating Layer conv3_1
I0609 15:38:11.223886 31883 net.cpp:434] conv3_1 <- pool2
I0609 15:38:11.223893 31883 net.cpp:408] conv3_1 -> conv3_1
I0609 15:38:11.227440 31883 net.cpp:150] Setting up conv3_1
I0609 15:38:11.227453 31883 net.cpp:157] Top shape: 4 256 75 75 (5760000)
I0609 15:38:11.227457 31883 net.cpp:165] Memory required for data: 645120032
I0609 15:38:11.227466 31883 layer_factory.hpp:77] Creating layer relu3_1
I0609 15:38:11.227473 31883 net.cpp:100] Creating Layer relu3_1
I0609 15:38:11.227476 31883 net.cpp:434] relu3_1 <- conv3_1
I0609 15:38:11.227484 31883 net.cpp:395] relu3_1 -> conv3_1 (in-place)
I0609 15:38:11.227680 31883 net.cpp:150] Setting up relu3_1
I0609 15:38:11.227689 31883 net.cpp:157] Top shape: 4 256 75 75 (5760000)
I0609 15:38:11.227691 31883 net.cpp:165] Memory required for data: 668160032
I0609 15:38:11.227694 31883 layer_factory.hpp:77] Creating layer conv3_2
I0609 15:38:11.227704 31883 net.cpp:100] Creating Layer conv3_2
I0609 15:38:11.227705 31883 net.cpp:434] conv3_2 <- conv3_1
I0609 15:38:11.227710 31883 net.cpp:408] conv3_2 -> conv3_2
I0609 15:38:11.232928 31883 net.cpp:150] Setting up conv3_2
I0609 15:38:11.232945 31883 net.cpp:157] Top shape: 4 256 75 75 (5760000)
I0609 15:38:11.232949 31883 net.cpp:165] Memory required for data: 691200032
I0609 15:38:11.232954 31883 layer_factory.hpp:77] Creating layer relu3_2
I0609 15:38:11.232962 31883 net.cpp:100] Creating Layer relu3_2
I0609 15:38:11.232966 31883 net.cpp:434] relu3_2 <- conv3_2
I0609 15:38:11.232973 31883 net.cpp:395] relu3_2 -> conv3_2 (in-place)
I0609 15:38:11.233177 31883 net.cpp:150] Setting up relu3_2
I0609 15:38:11.233189 31883 net.cpp:157] Top shape: 4 256 75 75 (5760000)
I0609 15:38:11.233208 31883 net.cpp:165] Memory required for data: 714240032
I0609 15:38:11.233212 31883 layer_factory.hpp:77] Creating layer conv3_3
I0609 15:38:11.233227 31883 net.cpp:100] Creating Layer conv3_3
I0609 15:38:11.233234 31883 net.cpp:434] conv3_3 <- conv3_2
I0609 15:38:11.233243 31883 net.cpp:408] conv3_3 -> conv3_3
I0609 15:38:11.238296 31883 net.cpp:150] Setting up conv3_3
I0609 15:38:11.238312 31883 net.cpp:157] Top shape: 4 256 75 75 (5760000)
I0609 15:38:11.238315 31883 net.cpp:165] Memory required for data: 737280032
I0609 15:38:11.238322 31883 layer_factory.hpp:77] Creating layer relu3_3
I0609 15:38:11.238328 31883 net.cpp:100] Creating Layer relu3_3
I0609 15:38:11.238332 31883 net.cpp:434] relu3_3 <- conv3_3
I0609 15:38:11.238338 31883 net.cpp:395] relu3_3 -> conv3_3 (in-place)
I0609 15:38:11.238577 31883 net.cpp:150] Setting up relu3_3
I0609 15:38:11.238603 31883 net.cpp:157] Top shape: 4 256 75 75 (5760000)
I0609 15:38:11.238607 31883 net.cpp:165] Memory required for data: 760320032
I0609 15:38:11.238611 31883 layer_factory.hpp:77] Creating layer pool3
I0609 15:38:11.238632 31883 net.cpp:100] Creating Layer pool3
I0609 15:38:11.238638 31883 net.cpp:434] pool3 <- conv3_3
I0609 15:38:11.238646 31883 net.cpp:408] pool3 -> pool3
I0609 15:38:11.238716 31883 net.cpp:150] Setting up pool3
I0609 15:38:11.238740 31883 net.cpp:157] Top shape: 4 256 38 38 (1478656)
I0609 15:38:11.238771 31883 net.cpp:165] Memory required for data: 766234656
I0609 15:38:11.238775 31883 layer_factory.hpp:77] Creating layer conv4_1
I0609 15:38:11.238787 31883 net.cpp:100] Creating Layer conv4_1
I0609 15:38:11.238793 31883 net.cpp:434] conv4_1 <- pool3
I0609 15:38:11.238801 31883 net.cpp:408] conv4_1 -> conv4_1
I0609 15:38:11.248518 31883 net.cpp:150] Setting up conv4_1
I0609 15:38:11.248538 31883 net.cpp:157] Top shape: 4 512 38 38 (2957312)
I0609 15:38:11.248539 31883 net.cpp:165] Memory required for data: 778063904
I0609 15:38:11.248546 31883 layer_factory.hpp:77] Creating layer relu4_1
I0609 15:38:11.248554 31883 net.cpp:100] Creating Layer relu4_1
I0609 15:38:11.248558 31883 net.cpp:434] relu4_1 <- conv4_1
I0609 15:38:11.248564 31883 net.cpp:395] relu4_1 -> conv4_1 (in-place)
I0609 15:38:11.249456 31883 net.cpp:150] Setting up relu4_1
I0609 15:38:11.249470 31883 net.cpp:157] Top shape: 4 512 38 38 (2957312)
I0609 15:38:11.249475 31883 net.cpp:165] Memory required for data: 789893152
I0609 15:38:11.249480 31883 layer_factory.hpp:77] Creating layer conv4_2
I0609 15:38:11.249492 31883 net.cpp:100] Creating Layer conv4_2
I0609 15:38:11.249500 31883 net.cpp:434] conv4_2 <- conv4_1
I0609 15:38:11.249506 31883 net.cpp:408] conv4_2 -> conv4_2
I0609 15:38:11.262132 31883 net.cpp:150] Setting up conv4_2
I0609 15:38:11.262151 31883 net.cpp:157] Top shape: 4 512 38 38 (2957312)
I0609 15:38:11.262153 31883 net.cpp:165] Memory required for data: 801722400
I0609 15:38:11.262178 31883 layer_factory.hpp:77] Creating layer relu4_2
I0609 15:38:11.262198 31883 net.cpp:100] Creating Layer relu4_2
I0609 15:38:11.262202 31883 net.cpp:434] relu4_2 <- conv4_2
I0609 15:38:11.262208 31883 net.cpp:395] relu4_2 -> conv4_2 (in-place)
I0609 15:38:11.263175 31883 net.cpp:150] Setting up relu4_2
I0609 15:38:11.263186 31883 net.cpp:157] Top shape: 4 512 38 38 (2957312)
I0609 15:38:11.263190 31883 net.cpp:165] Memory required for data: 813551648
I0609 15:38:11.263193 31883 layer_factory.hpp:77] Creating layer conv4_3
I0609 15:38:11.263206 31883 net.cpp:100] Creating Layer conv4_3
I0609 15:38:11.263213 31883 net.cpp:434] conv4_3 <- conv4_2
I0609 15:38:11.263221 31883 net.cpp:408] conv4_3 -> conv4_3
I0609 15:38:11.278993 31883 net.cpp:150] Setting up conv4_3
I0609 15:38:11.279013 31883 net.cpp:157] Top shape: 4 512 38 38 (2957312)
I0609 15:38:11.279017 31883 net.cpp:165] Memory required for data: 825380896
I0609 15:38:11.279042 31883 layer_factory.hpp:77] Creating layer relu4_3
I0609 15:38:11.279050 31883 net.cpp:100] Creating Layer relu4_3
I0609 15:38:11.279054 31883 net.cpp:434] relu4_3 <- conv4_3
I0609 15:38:11.279062 31883 net.cpp:395] relu4_3 -> conv4_3 (in-place)
I0609 15:38:11.279259 31883 net.cpp:150] Setting up relu4_3
I0609 15:38:11.279268 31883 net.cpp:157] Top shape: 4 512 38 38 (2957312)
I0609 15:38:11.279271 31883 net.cpp:165] Memory required for data: 837210144
I0609 15:38:11.279273 31883 layer_factory.hpp:77] Creating layer conv4_3_relu4_3_0_split
I0609 15:38:11.279279 31883 net.cpp:100] Creating Layer conv4_3_relu4_3_0_split
I0609 15:38:11.279283 31883 net.cpp:434] conv4_3_relu4_3_0_split <- conv4_3
I0609 15:38:11.279286 31883 net.cpp:408] conv4_3_relu4_3_0_split -> conv4_3_relu4_3_0_split_0
I0609 15:38:11.279292 31883 net.cpp:408] conv4_3_relu4_3_0_split -> conv4_3_relu4_3_0_split_1
I0609 15:38:11.279331 31883 net.cpp:150] Setting up conv4_3_relu4_3_0_split
I0609 15:38:11.279337 31883 net.cpp:157] Top shape: 4 512 38 38 (2957312)
I0609 15:38:11.279340 31883 net.cpp:157] Top shape: 4 512 38 38 (2957312)
I0609 15:38:11.279342 31883 net.cpp:165] Memory required for data: 860868640
I0609 15:38:11.279345 31883 layer_factory.hpp:77] Creating layer pool4
I0609 15:38:11.279350 31883 net.cpp:100] Creating Layer pool4
I0609 15:38:11.279351 31883 net.cpp:434] pool4 <- conv4_3_relu4_3_0_split_0
I0609 15:38:11.279356 31883 net.cpp:408] pool4 -> pool4
I0609 15:38:11.279388 31883 net.cpp:150] Setting up pool4
I0609 15:38:11.279393 31883 net.cpp:157] Top shape: 4 512 19 19 (739328)
I0609 15:38:11.279407 31883 net.cpp:165] Memory required for data: 863825952
I0609 15:38:11.279409 31883 layer_factory.hpp:77] Creating layer conv5_1
I0609 15:38:11.279419 31883 net.cpp:100] Creating Layer conv5_1
I0609 15:38:11.279422 31883 net.cpp:434] conv5_1 <- pool4
I0609 15:38:11.279426 31883 net.cpp:408] conv5_1 -> conv5_1
I0609 15:38:11.292296 31883 net.cpp:150] Setting up conv5_1
I0609 15:38:11.292315 31883 net.cpp:157] Top shape: 4 512 19 19 (739328)
I0609 15:38:11.292317 31883 net.cpp:165] Memory required for data: 866783264
I0609 15:38:11.292337 31883 layer_factory.hpp:77] Creating layer relu5_1
I0609 15:38:11.292345 31883 net.cpp:100] Creating Layer relu5_1
I0609 15:38:11.292361 31883 net.cpp:434] relu5_1 <- conv5_1
I0609 15:38:11.292366 31883 net.cpp:395] relu5_1 -> conv5_1 (in-place)
I0609 15:38:11.292502 31883 net.cpp:150] Setting up relu5_1
I0609 15:38:11.292529 31883 net.cpp:157] Top shape: 4 512 19 19 (739328)
I0609 15:38:11.292536 31883 net.cpp:165] Memory required for data: 869740576
I0609 15:38:11.292539 31883 layer_factory.hpp:77] Creating layer conv5_2
I0609 15:38:11.292552 31883 net.cpp:100] Creating Layer conv5_2
I0609 15:38:11.292558 31883 net.cpp:434] conv5_2 <- conv5_1
I0609 15:38:11.292567 31883 net.cpp:408] conv5_2 -> conv5_2
I0609 15:38:11.305539 31883 net.cpp:150] Setting up conv5_2
I0609 15:38:11.305557 31883 net.cpp:157] Top shape: 4 512 19 19 (739328)
I0609 15:38:11.305562 31883 net.cpp:165] Memory required for data: 872697888
I0609 15:38:11.305570 31883 layer_factory.hpp:77] Creating layer relu5_2
I0609 15:38:11.305578 31883 net.cpp:100] Creating Layer relu5_2
I0609 15:38:11.305598 31883 net.cpp:434] relu5_2 <- conv5_2
I0609 15:38:11.305619 31883 net.cpp:395] relu5_2 -> conv5_2 (in-place)
I0609 15:38:11.305769 31883 net.cpp:150] Setting up relu5_2
I0609 15:38:11.305778 31883 net.cpp:157] Top shape: 4 512 19 19 (739328)
I0609 15:38:11.305781 31883 net.cpp:165] Memory required for data: 875655200
I0609 15:38:11.305785 31883 layer_factory.hpp:77] Creating layer conv5_3
I0609 15:38:11.305799 31883 net.cpp:100] Creating Layer conv5_3
I0609 15:38:11.305804 31883 net.cpp:434] conv5_3 <- conv5_2
I0609 15:38:11.305811 31883 net.cpp:408] conv5_3 -> conv5_3
I0609 15:38:11.319999 31883 net.cpp:150] Setting up conv5_3
I0609 15:38:11.320022 31883 net.cpp:157] Top shape: 4 512 19 19 (739328)
I0609 15:38:11.320026 31883 net.cpp:165] Memory required for data: 878612512
I0609 15:38:11.320035 31883 layer_factory.hpp:77] Creating layer relu5_3
I0609 15:38:11.320067 31883 net.cpp:100] Creating Layer relu5_3
I0609 15:38:11.320073 31883 net.cpp:434] relu5_3 <- conv5_3
I0609 15:38:11.320094 31883 net.cpp:395] relu5_3 -> conv5_3 (in-place)
I0609 15:38:11.320263 31883 net.cpp:150] Setting up relu5_3
I0609 15:38:11.320272 31883 net.cpp:157] Top shape: 4 512 19 19 (739328)
I0609 15:38:11.320276 31883 net.cpp:165] Memory required for data: 881569824
I0609 15:38:11.320281 31883 layer_factory.hpp:77] Creating layer pool5
I0609 15:38:11.320305 31883 net.cpp:100] Creating Layer pool5
I0609 15:38:11.320310 31883 net.cpp:434] pool5 <- conv5_3
I0609 15:38:11.320317 31883 net.cpp:408] pool5 -> pool5
I0609 15:38:11.320379 31883 net.cpp:150] Setting up pool5
I0609 15:38:11.320399 31883 net.cpp:157] Top shape: 4 512 19 19 (739328)
I0609 15:38:11.320402 31883 net.cpp:165] Memory required for data: 884527136
I0609 15:38:11.320405 31883 layer_factory.hpp:77] Creating layer fc6
I0609 15:38:11.320418 31883 net.cpp:100] Creating Layer fc6
I0609 15:38:11.320422 31883 net.cpp:434] fc6 <- pool5
I0609 15:38:11.320443 31883 net.cpp:408] fc6 -> fc6
I0609 15:38:11.344736 31883 net.cpp:150] Setting up fc6
I0609 15:38:11.344755 31883 net.cpp:157] Top shape: 4 1024 19 19 (1478656)
I0609 15:38:11.344759 31883 net.cpp:165] Memory required for data: 890441760
I0609 15:38:11.344768 31883 layer_factory.hpp:77] Creating layer relu6
I0609 15:38:11.344792 31883 net.cpp:100] Creating Layer relu6
I0609 15:38:11.344812 31883 net.cpp:434] relu6 <- fc6
I0609 15:38:11.344833 31883 net.cpp:395] relu6 -> fc6 (in-place)
I0609 15:38:11.345633 31883 net.cpp:150] Setting up relu6
I0609 15:38:11.345652 31883 net.cpp:157] Top shape: 4 1024 19 19 (1478656)
I0609 15:38:11.345656 31883 net.cpp:165] Memory required for data: 896356384
I0609 15:38:11.345661 31883 layer_factory.hpp:77] Creating layer fc7
I0609 15:38:11.345674 31883 net.cpp:100] Creating Layer fc7
I0609 15:38:11.345679 31883 net.cpp:434] fc7 <- fc6
I0609 15:38:11.345686 31883 net.cpp:408] fc7 -> fc7
I0609 15:38:11.352128 31883 net.cpp:150] Setting up fc7
I0609 15:38:11.352145 31883 net.cpp:157] Top shape: 4 1024 19 19 (1478656)
I0609 15:38:11.352149 31883 net.cpp:165] Memory required for data: 902271008
I0609 15:38:11.352156 31883 layer_factory.hpp:77] Creating layer relu7
I0609 15:38:11.352167 31883 net.cpp:100] Creating Layer relu7
I0609 15:38:11.352186 31883 net.cpp:434] relu7 <- fc7
I0609 15:38:11.352192 31883 net.cpp:395] relu7 -> fc7 (in-place)
I0609 15:38:11.352332 31883 net.cpp:150] Setting up relu7
I0609 15:38:11.352340 31883 net.cpp:157] Top shape: 4 1024 19 19 (1478656)
I0609 15:38:11.352344 31883 net.cpp:165] Memory required for data: 908185632
I0609 15:38:11.352349 31883 layer_factory.hpp:77] Creating layer fc7_relu7_0_split
I0609 15:38:11.352355 31883 net.cpp:100] Creating Layer fc7_relu7_0_split
I0609 15:38:11.352360 31883 net.cpp:434] fc7_relu7_0_split <- fc7
I0609 15:38:11.352368 31883 net.cpp:408] fc7_relu7_0_split -> fc7_relu7_0_split_0
I0609 15:38:11.352377 31883 net.cpp:408] fc7_relu7_0_split -> fc7_relu7_0_split_1
I0609 15:38:11.352391 31883 net.cpp:408] fc7_relu7_0_split -> fc7_relu7_0_split_2
I0609 15:38:11.352399 31883 net.cpp:408] fc7_relu7_0_split -> fc7_relu7_0_split_3
I0609 15:38:11.352468 31883 net.cpp:150] Setting up fc7_relu7_0_split
I0609 15:38:11.352473 31883 net.cpp:157] Top shape: 4 1024 19 19 (1478656)
I0609 15:38:11.352479 31883 net.cpp:157] Top shape: 4 1024 19 19 (1478656)
I0609 15:38:11.352484 31883 net.cpp:157] Top shape: 4 1024 19 19 (1478656)
I0609 15:38:11.352490 31883 net.cpp:157] Top shape: 4 1024 19 19 (1478656)
I0609 15:38:11.352494 31883 net.cpp:165] Memory required for data: 931844128
I0609 15:38:11.352497 31883 layer_factory.hpp:77] Creating layer conv6_1
I0609 15:38:11.352509 31883 net.cpp:100] Creating Layer conv6_1
I0609 15:38:11.352514 31883 net.cpp:434] conv6_1 <- fc7_relu7_0_split_0
I0609 15:38:11.352521 31883 net.cpp:408] conv6_1 -> conv6_1
I0609 15:38:11.355813 31883 net.cpp:150] Setting up conv6_1
I0609 15:38:11.355824 31883 net.cpp:157] Top shape: 4 256 19 19 (369664)
I0609 15:38:11.355829 31883 net.cpp:165] Memory required for data: 933322784
I0609 15:38:11.355836 31883 layer_factory.hpp:77] Creating layer conv6_1_relu
I0609 15:38:11.355844 31883 net.cpp:100] Creating Layer conv6_1_relu
I0609 15:38:11.355849 31883 net.cpp:434] conv6_1_relu <- conv6_1
I0609 15:38:11.355859 31883 net.cpp:395] conv6_1_relu -> conv6_1 (in-place)
I0609 15:38:11.355993 31883 net.cpp:150] Setting up conv6_1_relu
I0609 15:38:11.356000 31883 net.cpp:157] Top shape: 4 256 19 19 (369664)
I0609 15:38:11.356004 31883 net.cpp:165] Memory required for data: 934801440
I0609 15:38:11.356009 31883 layer_factory.hpp:77] Creating layer conv6_2
I0609 15:38:11.356017 31883 net.cpp:100] Creating Layer conv6_2
I0609 15:38:11.356021 31883 net.cpp:434] conv6_2 <- conv6_1
I0609 15:38:11.356029 31883 net.cpp:408] conv6_2 -> conv6_2
I0609 15:38:11.363096 31883 net.cpp:150] Setting up conv6_2
I0609 15:38:11.363116 31883 net.cpp:157] Top shape: 4 512 10 10 (204800)
I0609 15:38:11.363118 31883 net.cpp:165] Memory required for data: 935620640
I0609 15:38:11.363147 31883 layer_factory.hpp:77] Creating layer conv6_2_relu
I0609 15:38:11.363158 31883 net.cpp:100] Creating Layer conv6_2_relu
I0609 15:38:11.363165 31883 net.cpp:434] conv6_2_relu <- conv6_2
I0609 15:38:11.363188 31883 net.cpp:395] conv6_2_relu -> conv6_2 (in-place)
I0609 15:38:11.363366 31883 net.cpp:150] Setting up conv6_2_relu
I0609 15:38:11.363375 31883 net.cpp:157] Top shape: 4 512 10 10 (204800)
I0609 15:38:11.363379 31883 net.cpp:165] Memory required for data: 936439840
I0609 15:38:11.363396 31883 layer_factory.hpp:77] Creating layer conv6_2_conv6_2_relu_0_split
I0609 15:38:11.363427 31883 net.cpp:100] Creating Layer conv6_2_conv6_2_relu_0_split
I0609 15:38:11.363432 31883 net.cpp:434] conv6_2_conv6_2_relu_0_split <- conv6_2
I0609 15:38:11.363454 31883 net.cpp:408] conv6_2_conv6_2_relu_0_split -> conv6_2_conv6_2_relu_0_split_0
I0609 15:38:11.363478 31883 net.cpp:408] conv6_2_conv6_2_relu_0_split -> conv6_2_conv6_2_relu_0_split_1
I0609 15:38:11.363487 31883 net.cpp:408] conv6_2_conv6_2_relu_0_split -> conv6_2_conv6_2_relu_0_split_2
I0609 15:38:11.363507 31883 net.cpp:408] conv6_2_conv6_2_relu_0_split -> conv6_2_conv6_2_relu_0_split_3
I0609 15:38:11.363600 31883 net.cpp:150] Setting up conv6_2_conv6_2_relu_0_split
I0609 15:38:11.363607 31883 net.cpp:157] Top shape: 4 512 10 10 (204800)
I0609 15:38:11.363627 31883 net.cpp:157] Top shape: 4 512 10 10 (204800)
I0609 15:38:11.363632 31883 net.cpp:157] Top shape: 4 512 10 10 (204800)
I0609 15:38:11.363637 31883 net.cpp:157] Top shape: 4 512 10 10 (204800)
I0609 15:38:11.363641 31883 net.cpp:165] Memory required for data: 939716640
I0609 15:38:11.363646 31883 layer_factory.hpp:77] Creating layer conv7_1
I0609 15:38:11.363656 31883 net.cpp:100] Creating Layer conv7_1
I0609 15:38:11.363661 31883 net.cpp:434] conv7_1 <- conv6_2_conv6_2_relu_0_split_0
I0609 15:38:11.363682 31883 net.cpp:408] conv7_1 -> conv7_1
I0609 15:38:11.365128 31883 net.cpp:150] Setting up conv7_1
I0609 15:38:11.365139 31883 net.cpp:157] Top shape: 4 128 10 10 (51200)
I0609 15:38:11.365144 31883 net.cpp:165] Memory required for data: 939921440
I0609 15:38:11.365150 31883 layer_factory.hpp:77] Creating layer conv7_1_relu
I0609 15:38:11.365156 31883 net.cpp:100] Creating Layer conv7_1_relu
I0609 15:38:11.365161 31883 net.cpp:434] conv7_1_relu <- conv7_1
I0609 15:38:11.365169 31883 net.cpp:395] conv7_1_relu -> conv7_1 (in-place)
I0609 15:38:11.365310 31883 net.cpp:150] Setting up conv7_1_relu
I0609 15:38:11.365319 31883 net.cpp:157] Top shape: 4 128 10 10 (51200)
I0609 15:38:11.365322 31883 net.cpp:165] Memory required for data: 940126240
I0609 15:38:11.365326 31883 layer_factory.hpp:77] Creating layer conv7_2
I0609 15:38:11.365337 31883 net.cpp:100] Creating Layer conv7_2
I0609 15:38:11.365342 31883 net.cpp:434] conv7_2 <- conv7_1
I0609 15:38:11.365350 31883 net.cpp:408] conv7_2 -> conv7_2
I0609 15:38:11.368361 31883 net.cpp:150] Setting up conv7_2
I0609 15:38:11.368376 31883 net.cpp:157] Top shape: 4 256 5 5 (25600)
I0609 15:38:11.368379 31883 net.cpp:165] Memory required for data: 940228640
I0609 15:38:11.368387 31883 layer_factory.hpp:77] Creating layer conv7_2_relu
I0609 15:38:11.368394 31883 net.cpp:100] Creating Layer conv7_2_relu
I0609 15:38:11.368401 31883 net.cpp:434] conv7_2_relu <- conv7_2
I0609 15:38:11.368419 31883 net.cpp:395] conv7_2_relu -> conv7_2 (in-place)
I0609 15:38:11.368559 31883 net.cpp:150] Setting up conv7_2_relu
I0609 15:38:11.368567 31883 net.cpp:157] Top shape: 4 256 5 5 (25600)
I0609 15:38:11.368571 31883 net.cpp:165] Memory required for data: 940331040
I0609 15:38:11.368576 31883 layer_factory.hpp:77] Creating layer conv7_2_conv7_2_relu_0_split
I0609 15:38:11.368582 31883 net.cpp:100] Creating Layer conv7_2_conv7_2_relu_0_split
I0609 15:38:11.368585 31883 net.cpp:434] conv7_2_conv7_2_relu_0_split <- conv7_2
I0609 15:38:11.368593 31883 net.cpp:408] conv7_2_conv7_2_relu_0_split -> conv7_2_conv7_2_relu_0_split_0
I0609 15:38:11.368602 31883 net.cpp:408] conv7_2_conv7_2_relu_0_split -> conv7_2_conv7_2_relu_0_split_1
I0609 15:38:11.368612 31883 net.cpp:408] conv7_2_conv7_2_relu_0_split -> conv7_2_conv7_2_relu_0_split_2
I0609 15:38:11.368619 31883 net.cpp:408] conv7_2_conv7_2_relu_0_split -> conv7_2_conv7_2_relu_0_split_3
I0609 15:38:11.368686 31883 net.cpp:150] Setting up conv7_2_conv7_2_relu_0_split
I0609 15:38:11.368693 31883 net.cpp:157] Top shape: 4 256 5 5 (25600)
I0609 15:38:11.368698 31883 net.cpp:157] Top shape: 4 256 5 5 (25600)
I0609 15:38:11.368705 31883 net.cpp:157] Top shape: 4 256 5 5 (25600)
I0609 15:38:11.368710 31883 net.cpp:157] Top shape: 4 256 5 5 (25600)
I0609 15:38:11.368715 31883 net.cpp:165] Memory required for data: 940740640
I0609 15:38:11.368726 31883 layer_factory.hpp:77] Creating layer conv8_1
I0609 15:38:11.368736 31883 net.cpp:100] Creating Layer conv8_1
I0609 15:38:11.368741 31883 net.cpp:434] conv8_1 <- conv7_2_conv7_2_relu_0_split_0
I0609 15:38:11.368752 31883 net.cpp:408] conv8_1 -> conv8_1
I0609 15:38:11.370016 31883 net.cpp:150] Setting up conv8_1
I0609 15:38:11.370028 31883 net.cpp:157] Top shape: 4 128 5 5 (12800)
I0609 15:38:11.370031 31883 net.cpp:165] Memory required for data: 940791840
I0609 15:38:11.370038 31883 layer_factory.hpp:77] Creating layer conv8_1_relu
I0609 15:38:11.370046 31883 net.cpp:100] Creating Layer conv8_1_relu
I0609 15:38:11.370051 31883 net.cpp:434] conv8_1_relu <- conv8_1
I0609 15:38:11.370056 31883 net.cpp:395] conv8_1_relu -> conv8_1 (in-place)
I0609 15:38:11.370648 31883 net.cpp:150] Setting up conv8_1_relu
I0609 15:38:11.370658 31883 net.cpp:157] Top shape: 4 128 5 5 (12800)
I0609 15:38:11.370662 31883 net.cpp:165] Memory required for data: 940843040
I0609 15:38:11.370667 31883 layer_factory.hpp:77] Creating layer conv8_2
I0609 15:38:11.370678 31883 net.cpp:100] Creating Layer conv8_2
I0609 15:38:11.370683 31883 net.cpp:434] conv8_2 <- conv8_1
I0609 15:38:11.370689 31883 net.cpp:408] conv8_2 -> conv8_2
I0609 15:38:11.373777 31883 net.cpp:150] Setting up conv8_2
I0609 15:38:11.373800 31883 net.cpp:157] Top shape: 4 256 3 3 (9216)
I0609 15:38:11.373803 31883 net.cpp:165] Memory required for data: 940879904
I0609 15:38:11.373812 31883 layer_factory.hpp:77] Creating layer conv8_2_relu
I0609 15:38:11.373821 31883 net.cpp:100] Creating Layer conv8_2_relu
I0609 15:38:11.373829 31883 net.cpp:434] conv8_2_relu <- conv8_2
I0609 15:38:11.373837 31883 net.cpp:395] conv8_2_relu -> conv8_2 (in-place)
I0609 15:38:11.373994 31883 net.cpp:150] Setting up conv8_2_relu
I0609 15:38:11.374003 31883 net.cpp:157] Top shape: 4 256 3 3 (9216)
I0609 15:38:11.374006 31883 net.cpp:165] Memory required for data: 940916768
I0609 15:38:11.374008 31883 layer_factory.hpp:77] Creating layer conv8_2_conv8_2_relu_0_split
I0609 15:38:11.374012 31883 net.cpp:100] Creating Layer conv8_2_conv8_2_relu_0_split
I0609 15:38:11.374016 31883 net.cpp:434] conv8_2_conv8_2_relu_0_split <- conv8_2
I0609 15:38:11.374020 31883 net.cpp:408] conv8_2_conv8_2_relu_0_split -> conv8_2_conv8_2_relu_0_split_0
I0609 15:38:11.374027 31883 net.cpp:408] conv8_2_conv8_2_relu_0_split -> conv8_2_conv8_2_relu_0_split_1
I0609 15:38:11.374032 31883 net.cpp:408] conv8_2_conv8_2_relu_0_split -> conv8_2_conv8_2_relu_0_split_2
I0609 15:38:11.374037 31883 net.cpp:408] conv8_2_conv8_2_relu_0_split -> conv8_2_conv8_2_relu_0_split_3
I0609 15:38:11.374099 31883 net.cpp:150] Setting up conv8_2_conv8_2_relu_0_split
I0609 15:38:11.374105 31883 net.cpp:157] Top shape: 4 256 3 3 (9216)
I0609 15:38:11.374109 31883 net.cpp:157] Top shape: 4 256 3 3 (9216)
I0609 15:38:11.374111 31883 net.cpp:157] Top shape: 4 256 3 3 (9216)
I0609 15:38:11.374114 31883 net.cpp:157] Top shape: 4 256 3 3 (9216)
I0609 15:38:11.374115 31883 net.cpp:165] Memory required for data: 941064224
I0609 15:38:11.374117 31883 layer_factory.hpp:77] Creating layer conv9_1
I0609 15:38:11.374125 31883 net.cpp:100] Creating Layer conv9_1
I0609 15:38:11.374128 31883 net.cpp:434] conv9_1 <- conv8_2_conv8_2_relu_0_split_0
I0609 15:38:11.374135 31883 net.cpp:408] conv9_1 -> conv9_1
I0609 15:38:11.375694 31883 net.cpp:150] Setting up conv9_1
I0609 15:38:11.375705 31883 net.cpp:157] Top shape: 4 128 3 3 (4608)
I0609 15:38:11.375706 31883 net.cpp:165] Memory required for data: 941082656
I0609 15:38:11.375712 31883 layer_factory.hpp:77] Creating layer conv9_1_relu
I0609 15:38:11.375717 31883 net.cpp:100] Creating Layer conv9_1_relu
I0609 15:38:11.375721 31883 net.cpp:434] conv9_1_relu <- conv9_1
I0609 15:38:11.375725 31883 net.cpp:395] conv9_1_relu -> conv9_1 (in-place)
I0609 15:38:11.375857 31883 net.cpp:150] Setting up conv9_1_relu
I0609 15:38:11.375865 31883 net.cpp:157] Top shape: 4 128 3 3 (4608)
I0609 15:38:11.375869 31883 net.cpp:165] Memory required for data: 941101088
I0609 15:38:11.375870 31883 layer_factory.hpp:77] Creating layer conv9_2
I0609 15:38:11.375886 31883 net.cpp:100] Creating Layer conv9_2
I0609 15:38:11.375890 31883 net.cpp:434] conv9_2 <- conv9_1
I0609 15:38:11.375895 31883 net.cpp:408] conv9_2 -> conv9_2
I0609 15:38:11.379092 31883 net.cpp:150] Setting up conv9_2
I0609 15:38:11.379109 31883 net.cpp:157] Top shape: 4 256 1 1 (1024)
I0609 15:38:11.379112 31883 net.cpp:165] Memory required for data: 941105184
I0609 15:38:11.379119 31883 layer_factory.hpp:77] Creating layer conv9_2_relu
I0609 15:38:11.379139 31883 net.cpp:100] Creating Layer conv9_2_relu
I0609 15:38:11.379144 31883 net.cpp:434] conv9_2_relu <- conv9_2
I0609 15:38:11.379148 31883 net.cpp:395] conv9_2_relu -> conv9_2 (in-place)
I0609 15:38:11.379299 31883 net.cpp:150] Setting up conv9_2_relu
I0609 15:38:11.379307 31883 net.cpp:157] Top shape: 4 256 1 1 (1024)
I0609 15:38:11.379308 31883 net.cpp:165] Memory required for data: 941109280
I0609 15:38:11.379310 31883 layer_factory.hpp:77] Creating layer conv9_2_conv9_2_relu_0_split
I0609 15:38:11.379317 31883 net.cpp:100] Creating Layer conv9_2_conv9_2_relu_0_split
I0609 15:38:11.379319 31883 net.cpp:434] conv9_2_conv9_2_relu_0_split <- conv9_2
I0609 15:38:11.379323 31883 net.cpp:408] conv9_2_conv9_2_relu_0_split -> conv9_2_conv9_2_relu_0_split_0
I0609 15:38:11.379328 31883 net.cpp:408] conv9_2_conv9_2_relu_0_split -> conv9_2_conv9_2_relu_0_split_1
I0609 15:38:11.379334 31883 net.cpp:408] conv9_2_conv9_2_relu_0_split -> conv9_2_conv9_2_relu_0_split_2
I0609 15:38:11.379385 31883 net.cpp:150] Setting up conv9_2_conv9_2_relu_0_split
I0609 15:38:11.379390 31883 net.cpp:157] Top shape: 4 256 1 1 (1024)
I0609 15:38:11.379393 31883 net.cpp:157] Top shape: 4 256 1 1 (1024)
I0609 15:38:11.379397 31883 net.cpp:157] Top shape: 4 256 1 1 (1024)
I0609 15:38:11.379398 31883 net.cpp:165] Memory required for data: 941121568
I0609 15:38:11.379400 31883 layer_factory.hpp:77] Creating layer conv4_3_norm
I0609 15:38:11.379406 31883 net.cpp:100] Creating Layer conv4_3_norm
I0609 15:38:11.379410 31883 net.cpp:434] conv4_3_norm <- conv4_3_relu4_3_0_split_1
I0609 15:38:11.379415 31883 net.cpp:408] conv4_3_norm -> conv4_3_norm
I0609 15:38:11.379566 31883 net.cpp:150] Setting up conv4_3_norm
I0609 15:38:11.379571 31883 net.cpp:157] Top shape: 4 512 38 38 (2957312)
I0609 15:38:11.379575 31883 net.cpp:165] Memory required for data: 952950816
I0609 15:38:11.379577 31883 layer_factory.hpp:77] Creating layer conv4_3_norm_conv4_3_norm_0_split
I0609 15:38:11.379580 31883 net.cpp:100] Creating Layer conv4_3_norm_conv4_3_norm_0_split
I0609 15:38:11.379582 31883 net.cpp:434] conv4_3_norm_conv4_3_norm_0_split <- conv4_3_norm
I0609 15:38:11.379587 31883 net.cpp:408] conv4_3_norm_conv4_3_norm_0_split -> conv4_3_norm_conv4_3_norm_0_split_0
I0609 15:38:11.379592 31883 net.cpp:408] conv4_3_norm_conv4_3_norm_0_split -> conv4_3_norm_conv4_3_norm_0_split_1
I0609 15:38:11.379596 31883 net.cpp:408] conv4_3_norm_conv4_3_norm_0_split -> conv4_3_norm_conv4_3_norm_0_split_2
I0609 15:38:11.379638 31883 net.cpp:150] Setting up conv4_3_norm_conv4_3_norm_0_split
I0609 15:38:11.379644 31883 net.cpp:157] Top shape: 4 512 38 38 (2957312)
I0609 15:38:11.379647 31883 net.cpp:157] Top shape: 4 512 38 38 (2957312)
I0609 15:38:11.379649 31883 net.cpp:157] Top shape: 4 512 38 38 (2957312)
I0609 15:38:11.379652 31883 net.cpp:165] Memory required for data: 988438560
I0609 15:38:11.379653 31883 layer_factory.hpp:77] Creating layer conv4_3_norm_mbox_loc
I0609 15:38:11.379662 31883 net.cpp:100] Creating Layer conv4_3_norm_mbox_loc
I0609 15:38:11.379667 31883 net.cpp:434] conv4_3_norm_mbox_loc <- conv4_3_norm_conv4_3_norm_0_split_0
I0609 15:38:11.379670 31883 net.cpp:408] conv4_3_norm_mbox_loc -> conv4_3_norm_mbox_loc
I0609 15:38:11.381570 31883 net.cpp:150] Setting up conv4_3_norm_mbox_loc
I0609 15:38:11.381580 31883 net.cpp:157] Top shape: 4 16 38 38 (92416)
I0609 15:38:11.381582 31883 net.cpp:165] Memory required for data: 988808224
I0609 15:38:11.381587 31883 layer_factory.hpp:77] Creating layer conv4_3_norm_mbox_loc_perm
I0609 15:38:11.381595 31883 net.cpp:100] Creating Layer conv4_3_norm_mbox_loc_perm
I0609 15:38:11.381608 31883 net.cpp:434] conv4_3_norm_mbox_loc_perm <- conv4_3_norm_mbox_loc
I0609 15:38:11.381613 31883 net.cpp:408] conv4_3_norm_mbox_loc_perm -> conv4_3_norm_mbox_loc_perm
I0609 15:38:11.381714 31883 net.cpp:150] Setting up conv4_3_norm_mbox_loc_perm
I0609 15:38:11.381721 31883 net.cpp:157] Top shape: 4 38 38 16 (92416)
I0609 15:38:11.381723 31883 net.cpp:165] Memory required for data: 989177888
I0609 15:38:11.381726 31883 layer_factory.hpp:77] Creating layer conv4_3_norm_mbox_loc_flat
I0609 15:38:11.381729 31883 net.cpp:100] Creating Layer conv4_3_norm_mbox_loc_flat
I0609 15:38:11.381732 31883 net.cpp:434] conv4_3_norm_mbox_loc_flat <- conv4_3_norm_mbox_loc_perm
I0609 15:38:11.381737 31883 net.cpp:408] conv4_3_norm_mbox_loc_flat -> conv4_3_norm_mbox_loc_flat
I0609 15:38:11.381767 31883 net.cpp:150] Setting up conv4_3_norm_mbox_loc_flat
I0609 15:38:11.381773 31883 net.cpp:157] Top shape: 4 23104 (92416)
I0609 15:38:11.381775 31883 net.cpp:165] Memory required for data: 989547552
I0609 15:38:11.381778 31883 layer_factory.hpp:77] Creating layer conv4_3_norm_mbox_conf
I0609 15:38:11.381789 31883 net.cpp:100] Creating Layer conv4_3_norm_mbox_conf
I0609 15:38:11.381793 31883 net.cpp:434] conv4_3_norm_mbox_conf <- conv4_3_norm_conv4_3_norm_0_split_1
I0609 15:38:11.381798 31883 net.cpp:408] conv4_3_norm_mbox_conf -> conv4_3_norm_mbox_conf
I0609 15:38:11.383744 31883 net.cpp:150] Setting up conv4_3_norm_mbox_conf
I0609 15:38:11.383754 31883 net.cpp:157] Top shape: 4 8 38 38 (46208)
I0609 15:38:11.383756 31883 net.cpp:165] Memory required for data: 989732384
I0609 15:38:11.383762 31883 layer_factory.hpp:77] Creating layer conv4_3_norm_mbox_conf_perm
I0609 15:38:11.383767 31883 net.cpp:100] Creating Layer conv4_3_norm_mbox_conf_perm
I0609 15:38:11.383770 31883 net.cpp:434] conv4_3_norm_mbox_conf_perm <- conv4_3_norm_mbox_conf
I0609 15:38:11.383775 31883 net.cpp:408] conv4_3_norm_mbox_conf_perm -> conv4_3_norm_mbox_conf_perm
I0609 15:38:11.383874 31883 net.cpp:150] Setting up conv4_3_norm_mbox_conf_perm
I0609 15:38:11.383880 31883 net.cpp:157] Top shape: 4 38 38 8 (46208)
I0609 15:38:11.383882 31883 net.cpp:165] Memory required for data: 989917216
I0609 15:38:11.383884 31883 layer_factory.hpp:77] Creating layer conv4_3_norm_mbox_conf_flat
I0609 15:38:11.383888 31883 net.cpp:100] Creating Layer conv4_3_norm_mbox_conf_flat
I0609 15:38:11.383890 31883 net.cpp:434] conv4_3_norm_mbox_conf_flat <- conv4_3_norm_mbox_conf_perm
I0609 15:38:11.383894 31883 net.cpp:408] conv4_3_norm_mbox_conf_flat -> conv4_3_norm_mbox_conf_flat
I0609 15:38:11.383914 31883 net.cpp:150] Setting up conv4_3_norm_mbox_conf_flat
I0609 15:38:11.383919 31883 net.cpp:157] Top shape: 4 11552 (46208)
I0609 15:38:11.383921 31883 net.cpp:165] Memory required for data: 990102048
I0609 15:38:11.383924 31883 layer_factory.hpp:77] Creating layer conv4_3_norm_mbox_priorbox
I0609 15:38:11.383929 31883 net.cpp:100] Creating Layer conv4_3_norm_mbox_priorbox
I0609 15:38:11.383932 31883 net.cpp:434] conv4_3_norm_mbox_priorbox <- conv4_3_norm_conv4_3_norm_0_split_2
I0609 15:38:11.383936 31883 net.cpp:434] conv4_3_norm_mbox_priorbox <- data_data_0_split_1
I0609 15:38:11.383941 31883 net.cpp:408] conv4_3_norm_mbox_priorbox -> conv4_3_norm_mbox_priorbox
I0609 15:38:11.383965 31883 net.cpp:150] Setting up conv4_3_norm_mbox_priorbox
I0609 15:38:11.383970 31883 net.cpp:157] Top shape: 1 2 23104 (46208)
I0609 15:38:11.383973 31883 net.cpp:165] Memory required for data: 990286880
I0609 15:38:11.383975 31883 layer_factory.hpp:77] Creating layer fc7_mbox_loc
I0609 15:38:11.383981 31883 net.cpp:100] Creating Layer fc7_mbox_loc
I0609 15:38:11.383985 31883 net.cpp:434] fc7_mbox_loc <- fc7_relu7_0_split_1
I0609 15:38:11.383991 31883 net.cpp:408] fc7_mbox_loc -> fc7_mbox_loc
I0609 15:38:11.386443 31883 net.cpp:150] Setting up fc7_mbox_loc
I0609 15:38:11.386453 31883 net.cpp:157] Top shape: 4 24 19 19 (34656)
I0609 15:38:11.386456 31883 net.cpp:165] Memory required for data: 990425504
I0609 15:38:11.386461 31883 layer_factory.hpp:77] Creating layer fc7_mbox_loc_perm
I0609 15:38:11.386476 31883 net.cpp:100] Creating Layer fc7_mbox_loc_perm
I0609 15:38:11.386481 31883 net.cpp:434] fc7_mbox_loc_perm <- fc7_mbox_loc
I0609 15:38:11.386484 31883 net.cpp:408] fc7_mbox_loc_perm -> fc7_mbox_loc_perm
I0609 15:38:11.386586 31883 net.cpp:150] Setting up fc7_mbox_loc_perm
I0609 15:38:11.386591 31883 net.cpp:157] Top shape: 4 19 19 24 (34656)
I0609 15:38:11.386595 31883 net.cpp:165] Memory required for data: 990564128
I0609 15:38:11.386596 31883 layer_factory.hpp:77] Creating layer fc7_mbox_loc_flat
I0609 15:38:11.386600 31883 net.cpp:100] Creating Layer fc7_mbox_loc_flat
I0609 15:38:11.386603 31883 net.cpp:434] fc7_mbox_loc_flat <- fc7_mbox_loc_perm
I0609 15:38:11.386606 31883 net.cpp:408] fc7_mbox_loc_flat -> fc7_mbox_loc_flat
I0609 15:38:11.386627 31883 net.cpp:150] Setting up fc7_mbox_loc_flat
I0609 15:38:11.386632 31883 net.cpp:157] Top shape: 4 8664 (34656)
I0609 15:38:11.386634 31883 net.cpp:165] Memory required for data: 990702752
I0609 15:38:11.386636 31883 layer_factory.hpp:77] Creating layer fc7_mbox_conf
I0609 15:38:11.386642 31883 net.cpp:100] Creating Layer fc7_mbox_conf
I0609 15:38:11.386646 31883 net.cpp:434] fc7_mbox_conf <- fc7_relu7_0_split_2
I0609 15:38:11.386651 31883 net.cpp:408] fc7_mbox_conf -> fc7_mbox_conf
I0609 15:38:11.388697 31883 net.cpp:150] Setting up fc7_mbox_conf
I0609 15:38:11.388706 31883 net.cpp:157] Top shape: 4 12 19 19 (17328)
I0609 15:38:11.388710 31883 net.cpp:165] Memory required for data: 990772064
I0609 15:38:11.388715 31883 layer_factory.hpp:77] Creating layer fc7_mbox_conf_perm
I0609 15:38:11.388721 31883 net.cpp:100] Creating Layer fc7_mbox_conf_perm
I0609 15:38:11.388725 31883 net.cpp:434] fc7_mbox_conf_perm <- fc7_mbox_conf
I0609 15:38:11.388730 31883 net.cpp:408] fc7_mbox_conf_perm -> fc7_mbox_conf_perm
I0609 15:38:11.388831 31883 net.cpp:150] Setting up fc7_mbox_conf_perm
I0609 15:38:11.388836 31883 net.cpp:157] Top shape: 4 19 19 12 (17328)
I0609 15:38:11.388839 31883 net.cpp:165] Memory required for data: 990841376
I0609 15:38:11.388842 31883 layer_factory.hpp:77] Creating layer fc7_mbox_conf_flat
I0609 15:38:11.388846 31883 net.cpp:100] Creating Layer fc7_mbox_conf_flat
I0609 15:38:11.388849 31883 net.cpp:434] fc7_mbox_conf_flat <- fc7_mbox_conf_perm
I0609 15:38:11.388852 31883 net.cpp:408] fc7_mbox_conf_flat -> fc7_mbox_conf_flat
I0609 15:38:11.388876 31883 net.cpp:150] Setting up fc7_mbox_conf_flat
I0609 15:38:11.388880 31883 net.cpp:157] Top shape: 4 4332 (17328)
I0609 15:38:11.388882 31883 net.cpp:165] Memory required for data: 990910688
I0609 15:38:11.388885 31883 layer_factory.hpp:77] Creating layer fc7_mbox_priorbox
I0609 15:38:11.388890 31883 net.cpp:100] Creating Layer fc7_mbox_priorbox
I0609 15:38:11.388892 31883 net.cpp:434] fc7_mbox_priorbox <- fc7_relu7_0_split_3
I0609 15:38:11.388896 31883 net.cpp:434] fc7_mbox_priorbox <- data_data_0_split_2
I0609 15:38:11.388900 31883 net.cpp:408] fc7_mbox_priorbox -> fc7_mbox_priorbox
I0609 15:38:11.388923 31883 net.cpp:150] Setting up fc7_mbox_priorbox
I0609 15:38:11.388928 31883 net.cpp:157] Top shape: 1 2 8664 (17328)
I0609 15:38:11.388931 31883 net.cpp:165] Memory required for data: 990980000
I0609 15:38:11.388932 31883 layer_factory.hpp:77] Creating layer conv6_2_mbox_loc
I0609 15:38:11.388941 31883 net.cpp:100] Creating Layer conv6_2_mbox_loc
I0609 15:38:11.388944 31883 net.cpp:434] conv6_2_mbox_loc <- conv6_2_conv6_2_relu_0_split_1
I0609 15:38:11.388949 31883 net.cpp:408] conv6_2_mbox_loc -> conv6_2_mbox_loc
I0609 15:38:11.390969 31883 net.cpp:150] Setting up conv6_2_mbox_loc
I0609 15:38:11.390980 31883 net.cpp:157] Top shape: 4 24 10 10 (9600)
I0609 15:38:11.390981 31883 net.cpp:165] Memory required for data: 991018400
I0609 15:38:11.390986 31883 layer_factory.hpp:77] Creating layer conv6_2_mbox_loc_perm
I0609 15:38:11.390991 31883 net.cpp:100] Creating Layer conv6_2_mbox_loc_perm
I0609 15:38:11.390996 31883 net.cpp:434] conv6_2_mbox_loc_perm <- conv6_2_mbox_loc
I0609 15:38:11.391000 31883 net.cpp:408] conv6_2_mbox_loc_perm -> conv6_2_mbox_loc_perm
I0609 15:38:11.391110 31883 net.cpp:150] Setting up conv6_2_mbox_loc_perm
I0609 15:38:11.391116 31883 net.cpp:157] Top shape: 4 10 10 24 (9600)
I0609 15:38:11.391119 31883 net.cpp:165] Memory required for data: 991056800
I0609 15:38:11.391120 31883 layer_factory.hpp:77] Creating layer conv6_2_mbox_loc_flat
I0609 15:38:11.391125 31883 net.cpp:100] Creating Layer conv6_2_mbox_loc_flat
I0609 15:38:11.391127 31883 net.cpp:434] conv6_2_mbox_loc_flat <- conv6_2_mbox_loc_perm
I0609 15:38:11.391131 31883 net.cpp:408] conv6_2_mbox_loc_flat -> conv6_2_mbox_loc_flat
I0609 15:38:11.391152 31883 net.cpp:150] Setting up conv6_2_mbox_loc_flat
I0609 15:38:11.391156 31883 net.cpp:157] Top shape: 4 2400 (9600)
I0609 15:38:11.391158 31883 net.cpp:165] Memory required for data: 991095200
I0609 15:38:11.391161 31883 layer_factory.hpp:77] Creating layer conv6_2_mbox_conf
I0609 15:38:11.391168 31883 net.cpp:100] Creating Layer conv6_2_mbox_conf
I0609 15:38:11.391171 31883 net.cpp:434] conv6_2_mbox_conf <- conv6_2_conv6_2_relu_0_split_2
I0609 15:38:11.391176 31883 net.cpp:408] conv6_2_mbox_conf -> conv6_2_mbox_conf
I0609 15:38:11.393007 31883 net.cpp:150] Setting up conv6_2_mbox_conf
I0609 15:38:11.393016 31883 net.cpp:157] Top shape: 4 12 10 10 (4800)
I0609 15:38:11.393019 31883 net.cpp:165] Memory required for data: 991114400
I0609 15:38:11.393023 31883 layer_factory.hpp:77] Creating layer conv6_2_mbox_conf_perm
I0609 15:38:11.393029 31883 net.cpp:100] Creating Layer conv6_2_mbox_conf_perm
I0609 15:38:11.393033 31883 net.cpp:434] conv6_2_mbox_conf_perm <- conv6_2_mbox_conf
I0609 15:38:11.393038 31883 net.cpp:408] conv6_2_mbox_conf_perm -> conv6_2_mbox_conf_perm
I0609 15:38:11.393139 31883 net.cpp:150] Setting up conv6_2_mbox_conf_perm
I0609 15:38:11.393144 31883 net.cpp:157] Top shape: 4 10 10 12 (4800)
I0609 15:38:11.393146 31883 net.cpp:165] Memory required for data: 991133600
I0609 15:38:11.393148 31883 layer_factory.hpp:77] Creating layer conv6_2_mbox_conf_flat
I0609 15:38:11.393152 31883 net.cpp:100] Creating Layer conv6_2_mbox_conf_flat
I0609 15:38:11.393157 31883 net.cpp:434] conv6_2_mbox_conf_flat <- conv6_2_mbox_conf_perm
I0609 15:38:11.393160 31883 net.cpp:408] conv6_2_mbox_conf_flat -> conv6_2_mbox_conf_flat
I0609 15:38:11.393182 31883 net.cpp:150] Setting up conv6_2_mbox_conf_flat
I0609 15:38:11.393187 31883 net.cpp:157] Top shape: 4 1200 (4800)
I0609 15:38:11.393189 31883 net.cpp:165] Memory required for data: 991152800
I0609 15:38:11.393191 31883 layer_factory.hpp:77] Creating layer conv6_2_mbox_priorbox
I0609 15:38:11.393196 31883 net.cpp:100] Creating Layer conv6_2_mbox_priorbox
I0609 15:38:11.393200 31883 net.cpp:434] conv6_2_mbox_priorbox <- conv6_2_conv6_2_relu_0_split_3
I0609 15:38:11.393204 31883 net.cpp:434] conv6_2_mbox_priorbox <- data_data_0_split_3
I0609 15:38:11.393208 31883 net.cpp:408] conv6_2_mbox_priorbox -> conv6_2_mbox_priorbox
I0609 15:38:11.393232 31883 net.cpp:150] Setting up conv6_2_mbox_priorbox
I0609 15:38:11.393237 31883 net.cpp:157] Top shape: 1 2 2400 (4800)
I0609 15:38:11.393240 31883 net.cpp:165] Memory required for data: 991172000
I0609 15:38:11.393242 31883 layer_factory.hpp:77] Creating layer conv7_2_mbox_loc
I0609 15:38:11.393249 31883 net.cpp:100] Creating Layer conv7_2_mbox_loc
I0609 15:38:11.393251 31883 net.cpp:434] conv7_2_mbox_loc <- conv7_2_conv7_2_relu_0_split_1
I0609 15:38:11.393257 31883 net.cpp:408] conv7_2_mbox_loc -> conv7_2_mbox_loc
I0609 15:38:11.394609 31883 net.cpp:150] Setting up conv7_2_mbox_loc
I0609 15:38:11.394619 31883 net.cpp:157] Top shape: 4 24 5 5 (2400)
I0609 15:38:11.394621 31883 net.cpp:165] Memory required for data: 991181600
I0609 15:38:11.394628 31883 layer_factory.hpp:77] Creating layer conv7_2_mbox_loc_perm
I0609 15:38:11.394632 31883 net.cpp:100] Creating Layer conv7_2_mbox_loc_perm
I0609 15:38:11.394635 31883 net.cpp:434] conv7_2_mbox_loc_perm <- conv7_2_mbox_loc
I0609 15:38:11.394640 31883 net.cpp:408] conv7_2_mbox_loc_perm -> conv7_2_mbox_loc_perm
I0609 15:38:11.394744 31883 net.cpp:150] Setting up conv7_2_mbox_loc_perm
I0609 15:38:11.394749 31883 net.cpp:157] Top shape: 4 5 5 24 (2400)
I0609 15:38:11.394758 31883 net.cpp:165] Memory required for data: 991191200
I0609 15:38:11.394762 31883 layer_factory.hpp:77] Creating layer conv7_2_mbox_loc_flat
I0609 15:38:11.394767 31883 net.cpp:100] Creating Layer conv7_2_mbox_loc_flat
I0609 15:38:11.394769 31883 net.cpp:434] conv7_2_mbox_loc_flat <- conv7_2_mbox_loc_perm
I0609 15:38:11.394774 31883 net.cpp:408] conv7_2_mbox_loc_flat -> conv7_2_mbox_loc_flat
I0609 15:38:11.394795 31883 net.cpp:150] Setting up conv7_2_mbox_loc_flat
I0609 15:38:11.394799 31883 net.cpp:157] Top shape: 4 600 (2400)
I0609 15:38:11.394801 31883 net.cpp:165] Memory required for data: 991200800
I0609 15:38:11.394804 31883 layer_factory.hpp:77] Creating layer conv7_2_mbox_conf
I0609 15:38:11.394811 31883 net.cpp:100] Creating Layer conv7_2_mbox_conf
I0609 15:38:11.394815 31883 net.cpp:434] conv7_2_mbox_conf <- conv7_2_conv7_2_relu_0_split_2
I0609 15:38:11.394819 31883 net.cpp:408] conv7_2_mbox_conf -> conv7_2_mbox_conf
I0609 15:38:11.396533 31883 net.cpp:150] Setting up conv7_2_mbox_conf
I0609 15:38:11.396543 31883 net.cpp:157] Top shape: 4 12 5 5 (1200)
I0609 15:38:11.396544 31883 net.cpp:165] Memory required for data: 991205600
I0609 15:38:11.396549 31883 layer_factory.hpp:77] Creating layer conv7_2_mbox_conf_perm
I0609 15:38:11.396553 31883 net.cpp:100] Creating Layer conv7_2_mbox_conf_perm
I0609 15:38:11.396556 31883 net.cpp:434] conv7_2_mbox_conf_perm <- conv7_2_mbox_conf
I0609 15:38:11.396561 31883 net.cpp:408] conv7_2_mbox_conf_perm -> conv7_2_mbox_conf_perm
I0609 15:38:11.396664 31883 net.cpp:150] Setting up conv7_2_mbox_conf_perm
I0609 15:38:11.396669 31883 net.cpp:157] Top shape: 4 5 5 12 (1200)
I0609 15:38:11.396672 31883 net.cpp:165] Memory required for data: 991210400
I0609 15:38:11.396673 31883 layer_factory.hpp:77] Creating layer conv7_2_mbox_conf_flat
I0609 15:38:11.396677 31883 net.cpp:100] Creating Layer conv7_2_mbox_conf_flat
I0609 15:38:11.396679 31883 net.cpp:434] conv7_2_mbox_conf_flat <- conv7_2_mbox_conf_perm
I0609 15:38:11.396684 31883 net.cpp:408] conv7_2_mbox_conf_flat -> conv7_2_mbox_conf_flat
I0609 15:38:11.396706 31883 net.cpp:150] Setting up conv7_2_mbox_conf_flat
I0609 15:38:11.396710 31883 net.cpp:157] Top shape: 4 300 (1200)
I0609 15:38:11.396713 31883 net.cpp:165] Memory required for data: 991215200
I0609 15:38:11.396714 31883 layer_factory.hpp:77] Creating layer conv7_2_mbox_priorbox
I0609 15:38:11.396719 31883 net.cpp:100] Creating Layer conv7_2_mbox_priorbox
I0609 15:38:11.396723 31883 net.cpp:434] conv7_2_mbox_priorbox <- conv7_2_conv7_2_relu_0_split_3
I0609 15:38:11.396725 31883 net.cpp:434] conv7_2_mbox_priorbox <- data_data_0_split_4
I0609 15:38:11.396730 31883 net.cpp:408] conv7_2_mbox_priorbox -> conv7_2_mbox_priorbox
I0609 15:38:11.396754 31883 net.cpp:150] Setting up conv7_2_mbox_priorbox
I0609 15:38:11.396760 31883 net.cpp:157] Top shape: 1 2 600 (1200)
I0609 15:38:11.396764 31883 net.cpp:165] Memory required for data: 991220000
I0609 15:38:11.396765 31883 layer_factory.hpp:77] Creating layer conv8_2_mbox_loc
I0609 15:38:11.396772 31883 net.cpp:100] Creating Layer conv8_2_mbox_loc
I0609 15:38:11.396775 31883 net.cpp:434] conv8_2_mbox_loc <- conv8_2_conv8_2_relu_0_split_1
I0609 15:38:11.396781 31883 net.cpp:408] conv8_2_mbox_loc -> conv8_2_mbox_loc
I0609 15:38:11.398500 31883 net.cpp:150] Setting up conv8_2_mbox_loc
I0609 15:38:11.398509 31883 net.cpp:157] Top shape: 4 16 3 3 (576)
I0609 15:38:11.398511 31883 net.cpp:165] Memory required for data: 991222304
I0609 15:38:11.398524 31883 layer_factory.hpp:77] Creating layer conv8_2_mbox_loc_perm
I0609 15:38:11.398531 31883 net.cpp:100] Creating Layer conv8_2_mbox_loc_perm
I0609 15:38:11.398535 31883 net.cpp:434] conv8_2_mbox_loc_perm <- conv8_2_mbox_loc
I0609 15:38:11.398540 31883 net.cpp:408] conv8_2_mbox_loc_perm -> conv8_2_mbox_loc_perm
I0609 15:38:11.398643 31883 net.cpp:150] Setting up conv8_2_mbox_loc_perm
I0609 15:38:11.398648 31883 net.cpp:157] Top shape: 4 3 3 16 (576)
I0609 15:38:11.398649 31883 net.cpp:165] Memory required for data: 991224608
I0609 15:38:11.398658 31883 layer_factory.hpp:77] Creating layer conv8_2_mbox_loc_flat
I0609 15:38:11.398663 31883 net.cpp:100] Creating Layer conv8_2_mbox_loc_flat
I0609 15:38:11.398666 31883 net.cpp:434] conv8_2_mbox_loc_flat <- conv8_2_mbox_loc_perm
I0609 15:38:11.398670 31883 net.cpp:408] conv8_2_mbox_loc_flat -> conv8_2_mbox_loc_flat
I0609 15:38:11.398707 31883 net.cpp:150] Setting up conv8_2_mbox_loc_flat
I0609 15:38:11.398712 31883 net.cpp:157] Top shape: 4 144 (576)
I0609 15:38:11.398715 31883 net.cpp:165] Memory required for data: 991226912
I0609 15:38:11.398716 31883 layer_factory.hpp:77] Creating layer conv8_2_mbox_conf
I0609 15:38:11.398723 31883 net.cpp:100] Creating Layer conv8_2_mbox_conf
I0609 15:38:11.398727 31883 net.cpp:434] conv8_2_mbox_conf <- conv8_2_conv8_2_relu_0_split_2
I0609 15:38:11.398732 31883 net.cpp:408] conv8_2_mbox_conf -> conv8_2_mbox_conf
I0609 15:38:11.400622 31883 net.cpp:150] Setting up conv8_2_mbox_conf
I0609 15:38:11.400632 31883 net.cpp:157] Top shape: 4 8 3 3 (288)
I0609 15:38:11.400635 31883 net.cpp:165] Memory required for data: 991228064
I0609 15:38:11.400640 31883 layer_factory.hpp:77] Creating layer conv8_2_mbox_conf_perm
I0609 15:38:11.400645 31883 net.cpp:100] Creating Layer conv8_2_mbox_conf_perm
I0609 15:38:11.400650 31883 net.cpp:434] conv8_2_mbox_conf_perm <- conv8_2_mbox_conf
I0609 15:38:11.400655 31883 net.cpp:408] conv8_2_mbox_conf_perm -> conv8_2_mbox_conf_perm
I0609 15:38:11.400756 31883 net.cpp:150] Setting up conv8_2_mbox_conf_perm
I0609 15:38:11.400763 31883 net.cpp:157] Top shape: 4 3 3 8 (288)
I0609 15:38:11.400763 31883 net.cpp:165] Memory required for data: 991229216
I0609 15:38:11.400765 31883 layer_factory.hpp:77] Creating layer conv8_2_mbox_conf_flat
I0609 15:38:11.400769 31883 net.cpp:100] Creating Layer conv8_2_mbox_conf_flat
I0609 15:38:11.400773 31883 net.cpp:434] conv8_2_mbox_conf_flat <- conv8_2_mbox_conf_perm
I0609 15:38:11.400776 31883 net.cpp:408] conv8_2_mbox_conf_flat -> conv8_2_mbox_conf_flat
I0609 15:38:11.400801 31883 net.cpp:150] Setting up conv8_2_mbox_conf_flat
I0609 15:38:11.400807 31883 net.cpp:157] Top shape: 4 72 (288)
I0609 15:38:11.400811 31883 net.cpp:165] Memory required for data: 991230368
I0609 15:38:11.400815 31883 layer_factory.hpp:77] Creating layer conv8_2_mbox_priorbox
I0609 15:38:11.400820 31883 net.cpp:100] Creating Layer conv8_2_mbox_priorbox
I0609 15:38:11.400822 31883 net.cpp:434] conv8_2_mbox_priorbox <- conv8_2_conv8_2_relu_0_split_3
I0609 15:38:11.400827 31883 net.cpp:434] conv8_2_mbox_priorbox <- data_data_0_split_5
I0609 15:38:11.400835 31883 net.cpp:408] conv8_2_mbox_priorbox -> conv8_2_mbox_priorbox
I0609 15:38:11.400863 31883 net.cpp:150] Setting up conv8_2_mbox_priorbox
I0609 15:38:11.400869 31883 net.cpp:157] Top shape: 1 2 144 (288)
I0609 15:38:11.400872 31883 net.cpp:165] Memory required for data: 991231520
I0609 15:38:11.400876 31883 layer_factory.hpp:77] Creating layer conv9_2_mbox_loc
I0609 15:38:11.400883 31883 net.cpp:100] Creating Layer conv9_2_mbox_loc
I0609 15:38:11.400887 31883 net.cpp:434] conv9_2_mbox_loc <- conv9_2_conv9_2_relu_0_split_0
I0609 15:38:11.400893 31883 net.cpp:408] conv9_2_mbox_loc -> conv9_2_mbox_loc
I0609 15:38:11.403441 31883 net.cpp:150] Setting up conv9_2_mbox_loc
I0609 15:38:11.403451 31883 net.cpp:157] Top shape: 4 16 1 1 (64)
I0609 15:38:11.403453 31883 net.cpp:165] Memory required for data: 991231776
I0609 15:38:11.403460 31883 layer_factory.hpp:77] Creating layer conv9_2_mbox_loc_perm
I0609 15:38:11.403463 31883 net.cpp:100] Creating Layer conv9_2_mbox_loc_perm
I0609 15:38:11.403466 31883 net.cpp:434] conv9_2_mbox_loc_perm <- conv9_2_mbox_loc
I0609 15:38:11.403471 31883 net.cpp:408] conv9_2_mbox_loc_perm -> conv9_2_mbox_loc_perm
I0609 15:38:11.403573 31883 net.cpp:150] Setting up conv9_2_mbox_loc_perm
I0609 15:38:11.403578 31883 net.cpp:157] Top shape: 4 1 1 16 (64)
I0609 15:38:11.403580 31883 net.cpp:165] Memory required for data: 991232032
I0609 15:38:11.403583 31883 layer_factory.hpp:77] Creating layer conv9_2_mbox_loc_flat
I0609 15:38:11.403587 31883 net.cpp:100] Creating Layer conv9_2_mbox_loc_flat
I0609 15:38:11.403599 31883 net.cpp:434] conv9_2_mbox_loc_flat <- conv9_2_mbox_loc_perm
I0609 15:38:11.403604 31883 net.cpp:408] conv9_2_mbox_loc_flat -> conv9_2_mbox_loc_flat
I0609 15:38:11.403625 31883 net.cpp:150] Setting up conv9_2_mbox_loc_flat
I0609 15:38:11.403630 31883 net.cpp:157] Top shape: 4 16 (64)
I0609 15:38:11.403632 31883 net.cpp:165] Memory required for data: 991232288
I0609 15:38:11.403635 31883 layer_factory.hpp:77] Creating layer conv9_2_mbox_conf
I0609 15:38:11.403643 31883 net.cpp:100] Creating Layer conv9_2_mbox_conf
I0609 15:38:11.403646 31883 net.cpp:434] conv9_2_mbox_conf <- conv9_2_conv9_2_relu_0_split_1
I0609 15:38:11.403652 31883 net.cpp:408] conv9_2_mbox_conf -> conv9_2_mbox_conf
I0609 15:38:11.405326 31883 net.cpp:150] Setting up conv9_2_mbox_conf
I0609 15:38:11.405335 31883 net.cpp:157] Top shape: 4 8 1 1 (32)
I0609 15:38:11.405338 31883 net.cpp:165] Memory required for data: 991232416
I0609 15:38:11.405342 31883 layer_factory.hpp:77] Creating layer conv9_2_mbox_conf_perm
I0609 15:38:11.405349 31883 net.cpp:100] Creating Layer conv9_2_mbox_conf_perm
I0609 15:38:11.405354 31883 net.cpp:434] conv9_2_mbox_conf_perm <- conv9_2_mbox_conf
I0609 15:38:11.405360 31883 net.cpp:408] conv9_2_mbox_conf_perm -> conv9_2_mbox_conf_perm
I0609 15:38:11.405511 31883 net.cpp:150] Setting up conv9_2_mbox_conf_perm
I0609 15:38:11.405519 31883 net.cpp:157] Top shape: 4 1 1 8 (32)
I0609 15:38:11.405520 31883 net.cpp:165] Memory required for data: 991232544
I0609 15:38:11.405522 31883 layer_factory.hpp:77] Creating layer conv9_2_mbox_conf_flat
I0609 15:38:11.405529 31883 net.cpp:100] Creating Layer conv9_2_mbox_conf_flat
I0609 15:38:11.405531 31883 net.cpp:434] conv9_2_mbox_conf_flat <- conv9_2_mbox_conf_perm
I0609 15:38:11.405535 31883 net.cpp:408] conv9_2_mbox_conf_flat -> conv9_2_mbox_conf_flat
I0609 15:38:11.405560 31883 net.cpp:150] Setting up conv9_2_mbox_conf_flat
I0609 15:38:11.405565 31883 net.cpp:157] Top shape: 4 8 (32)
I0609 15:38:11.405566 31883 net.cpp:165] Memory required for data: 991232672
I0609 15:38:11.405568 31883 layer_factory.hpp:77] Creating layer conv9_2_mbox_priorbox
I0609 15:38:11.405573 31883 net.cpp:100] Creating Layer conv9_2_mbox_priorbox
I0609 15:38:11.405577 31883 net.cpp:434] conv9_2_mbox_priorbox <- conv9_2_conv9_2_relu_0_split_2
I0609 15:38:11.405581 31883 net.cpp:434] conv9_2_mbox_priorbox <- data_data_0_split_6
I0609 15:38:11.405588 31883 net.cpp:408] conv9_2_mbox_priorbox -> conv9_2_mbox_priorbox
I0609 15:38:11.405625 31883 net.cpp:150] Setting up conv9_2_mbox_priorbox
I0609 15:38:11.405633 31883 net.cpp:157] Top shape: 1 2 16 (32)
I0609 15:38:11.405637 31883 net.cpp:165] Memory required for data: 991232800
I0609 15:38:11.405640 31883 layer_factory.hpp:77] Creating layer mbox_loc
I0609 15:38:11.405648 31883 net.cpp:100] Creating Layer mbox_loc
I0609 15:38:11.405653 31883 net.cpp:434] mbox_loc <- conv4_3_norm_mbox_loc_flat
I0609 15:38:11.405656 31883 net.cpp:434] mbox_loc <- fc7_mbox_loc_flat
I0609 15:38:11.405660 31883 net.cpp:434] mbox_loc <- conv6_2_mbox_loc_flat
I0609 15:38:11.405663 31883 net.cpp:434] mbox_loc <- conv7_2_mbox_loc_flat
I0609 15:38:11.405668 31883 net.cpp:434] mbox_loc <- conv8_2_mbox_loc_flat
I0609 15:38:11.405670 31883 net.cpp:434] mbox_loc <- conv9_2_mbox_loc_flat
I0609 15:38:11.405674 31883 net.cpp:408] mbox_loc -> mbox_loc
I0609 15:38:11.405699 31883 net.cpp:150] Setting up mbox_loc
I0609 15:38:11.405704 31883 net.cpp:157] Top shape: 4 34928 (139712)
I0609 15:38:11.405707 31883 net.cpp:165] Memory required for data: 991791648
I0609 15:38:11.405709 31883 layer_factory.hpp:77] Creating layer mbox_conf
I0609 15:38:11.405712 31883 net.cpp:100] Creating Layer mbox_conf
I0609 15:38:11.405715 31883 net.cpp:434] mbox_conf <- conv4_3_norm_mbox_conf_flat
I0609 15:38:11.405719 31883 net.cpp:434] mbox_conf <- fc7_mbox_conf_flat
I0609 15:38:11.405722 31883 net.cpp:434] mbox_conf <- conv6_2_mbox_conf_flat
I0609 15:38:11.405725 31883 net.cpp:434] mbox_conf <- conv7_2_mbox_conf_flat
I0609 15:38:11.405730 31883 net.cpp:434] mbox_conf <- conv8_2_mbox_conf_flat
I0609 15:38:11.405740 31883 net.cpp:434] mbox_conf <- conv9_2_mbox_conf_flat
I0609 15:38:11.405745 31883 net.cpp:408] mbox_conf -> mbox_conf
I0609 15:38:11.405766 31883 net.cpp:150] Setting up mbox_conf
I0609 15:38:11.405771 31883 net.cpp:157] Top shape: 4 17464 (69856)
I0609 15:38:11.405773 31883 net.cpp:165] Memory required for data: 992071072
I0609 15:38:11.405776 31883 layer_factory.hpp:77] Creating layer mbox_priorbox
I0609 15:38:11.405779 31883 net.cpp:100] Creating Layer mbox_priorbox
I0609 15:38:11.405783 31883 net.cpp:434] mbox_priorbox <- conv4_3_norm_mbox_priorbox
I0609 15:38:11.405786 31883 net.cpp:434] mbox_priorbox <- fc7_mbox_priorbox
I0609 15:38:11.405789 31883 net.cpp:434] mbox_priorbox <- conv6_2_mbox_priorbox
I0609 15:38:11.405792 31883 net.cpp:434] mbox_priorbox <- conv7_2_mbox_priorbox
I0609 15:38:11.405797 31883 net.cpp:434] mbox_priorbox <- conv8_2_mbox_priorbox
I0609 15:38:11.405798 31883 net.cpp:434] mbox_priorbox <- conv9_2_mbox_priorbox
I0609 15:38:11.405802 31883 net.cpp:408] mbox_priorbox -> mbox_priorbox
I0609 15:38:11.405822 31883 net.cpp:150] Setting up mbox_priorbox
I0609 15:38:11.405827 31883 net.cpp:157] Top shape: 1 2 34928 (69856)
I0609 15:38:11.405829 31883 net.cpp:165] Memory required for data: 992350496
I0609 15:38:11.405831 31883 layer_factory.hpp:77] Creating layer mbox_conf_reshape
I0609 15:38:11.405838 31883 net.cpp:100] Creating Layer mbox_conf_reshape
I0609 15:38:11.405840 31883 net.cpp:434] mbox_conf_reshape <- mbox_conf
I0609 15:38:11.405844 31883 net.cpp:408] mbox_conf_reshape -> mbox_conf_reshape
I0609 15:38:11.405871 31883 net.cpp:150] Setting up mbox_conf_reshape
I0609 15:38:11.405876 31883 net.cpp:157] Top shape: 4 8732 2 (69856)
I0609 15:38:11.405879 31883 net.cpp:165] Memory required for data: 992629920
I0609 15:38:11.405881 31883 layer_factory.hpp:77] Creating layer mbox_conf_softmax
I0609 15:38:11.405886 31883 net.cpp:100] Creating Layer mbox_conf_softmax
I0609 15:38:11.405889 31883 net.cpp:434] mbox_conf_softmax <- mbox_conf_reshape
I0609 15:38:11.405894 31883 net.cpp:408] mbox_conf_softmax -> mbox_conf_softmax
I0609 15:38:11.406101 31883 net.cpp:150] Setting up mbox_conf_softmax
I0609 15:38:11.406107 31883 net.cpp:157] Top shape: 4 8732 2 (69856)
I0609 15:38:11.406111 31883 net.cpp:165] Memory required for data: 992909344
I0609 15:38:11.406112 31883 layer_factory.hpp:77] Creating layer mbox_conf_flatten
I0609 15:38:11.406116 31883 net.cpp:100] Creating Layer mbox_conf_flatten
I0609 15:38:11.406119 31883 net.cpp:434] mbox_conf_flatten <- mbox_conf_softmax
I0609 15:38:11.406123 31883 net.cpp:408] mbox_conf_flatten -> mbox_conf_flatten
I0609 15:38:11.406147 31883 net.cpp:150] Setting up mbox_conf_flatten
I0609 15:38:11.406152 31883 net.cpp:157] Top shape: 4 17464 (69856)
I0609 15:38:11.406154 31883 net.cpp:165] Memory required for data: 993188768
I0609 15:38:11.406157 31883 layer_factory.hpp:77] Creating layer detection_out
I0609 15:38:11.406167 31883 net.cpp:100] Creating Layer detection_out
I0609 15:38:11.406170 31883 net.cpp:434] detection_out <- mbox_loc
I0609 15:38:11.406173 31883 net.cpp:434] detection_out <- mbox_conf_flatten
I0609 15:38:11.406177 31883 net.cpp:434] detection_out <- mbox_priorbox
I0609 15:38:11.406182 31883 net.cpp:408] detection_out -> detection_out
I0609 15:38:11.406529 31883 net.cpp:150] Setting up detection_out
I0609 15:38:11.406538 31883 net.cpp:157] Top shape: 1 1 1 7 (7)
I0609 15:38:11.406540 31883 net.cpp:165] Memory required for data: 993188796
I0609 15:38:11.406543 31883 layer_factory.hpp:77] Creating layer detection_eval
I0609 15:38:11.406548 31883 net.cpp:100] Creating Layer detection_eval
I0609 15:38:11.406551 31883 net.cpp:434] detection_eval <- detection_out
I0609 15:38:11.406554 31883 net.cpp:434] detection_eval <- label
I0609 15:38:11.406558 31883 net.cpp:408] detection_eval -> detection_eval
I0609 15:38:11.406646 31883 net.cpp:150] Setting up detection_eval
I0609 15:38:11.406651 31883 net.cpp:157] Top shape: 1 1 2 5 (10)
I0609 15:38:11.406653 31883 net.cpp:165] Memory required for data: 993188836
I0609 15:38:11.406664 31883 net.cpp:228] detection_eval does not need backward computation.
I0609 15:38:11.406667 31883 net.cpp:228] detection_out does not need backward computation.
I0609 15:38:11.406671 31883 net.cpp:228] mbox_conf_flatten does not need backward computation.
I0609 15:38:11.406672 31883 net.cpp:228] mbox_conf_softmax does not need backward computation.
…
