…
        min_scale: 0.3
        max_scale: 1
        min_aspect_ratio: 0.5
        max_aspect_ratio: 2
      }
      sample_constraint {
        min_jaccard_overlap: 0.9
      }
      max_sample: 1
      max_trials: 50
    }
    batch_sampler {
      sampler {
        min_scale: 0.3
        max_scale: 1
        min_aspect_ratio: 0.5
        max_aspect_ratio: 2
      }
      sample_constraint {
        max_jaccard_overlap: 1
      }
      max_sample: 1
      max_trials: 50
    }
    label_map_file: "data/grayscale_tbs_v2.0/labelmap_voc.prototxt"
  }
}
layer {
  name: "conv1_1"
  type: "Convolution"
  bottom: "data"
  top: "conv1_1"
  param {
    lr_mult: 1
    decay_mult: 1
  }
  param {
    lr_mult: 2
    decay_mult: 0
  }
  convolution_param {
    num_output: 64
    pad: 1
    kernel_size: 3
    weight_filler {
      type: "xavier"
    }
    bias_filler {
      type: "constant"
      value: 0
    }
  }
}
layer {
  name: "relu1_1"
  type: "ReLU"
  bottom: "conv1_1"
  top: "conv1_1"
}
layer {
  name: "conv1_2"
  type: "Convolution"
  bottom: "conv1_1"
  top: "conv1_2"
  param {
    lr_mult: 1
    decay_mult: 1
  }
  param {
    lr_mult: 2
    decay_mult: 0
  }
  convolution_param {
    num_output: 64
    pad: 1
    kernel_size: 3
    weight_filler {
      type: "xavier"
    }
    bias_filler {
      type: "constant"
      value: 0
    }
  }
}
layer {
  name: "relu1_2"
  type: "ReLU"
  bottom: "conv1_2"
  top: "conv1_2"
}
layer {
  name: "pool1"
  type: "Pooling"
  bottom: "conv1_2"
  top: "pool1"
  pooling_param {
    pool: MAX
    kernel_size: 2
    stride: 2
  }
}
layer {
  name: "conv2_1"
  type: "Convolution"
  bottom: "pool1"
  top: "conv2_1"
  param {
    lr_mult: 1
    decay_mult: 1
  }
  param {
    lr_mult: 2
    decay_mult: 0
  }
  convolution_param {
    num_output: 128
    pad: 1
    kernel_size: 3
    weight_filler {
      type: "xavier"
    }
    bias_filler {
      type: "constant"
      value: 0
    }
  }
}
layer {
  name: "relu2_1"
  type: "ReLU"
  bottom: "conv2_1"
  top: "conv2_1"
}
layer {
  name: "conv2_2"
  type: "Convolution"
  bottom: "conv2_1"
  top: "conv2_2"
  param {
    lr_mult: 1
    decay_mult: 1
  }
  param {
    lr_mult: 2
    decay_mult: 0
  }
  convolution_param {
    num_output: 128
    pad: 1
    kernel_size: 3
    weight_filler {
      type: "xavier"
    }
    bias_filler {
      type: "constant"
      value: 0
    }
  }
}
layer {
  name: "relu2_2"
  type: "ReLU"
  bottom: "conv2_2"
  top: "conv2_2"
}
layer {
  name: "pool2"
  type: "Pooling"
  bottom: "conv2_2"
  top: "pool2"
  pooling_param {
    pool: MAX
    kernel_size: 2
    stride: 2
  }
}
layer {
  name: "conv3_1"
  type: "Convolution"
  bottom: "pool2"
  top: "conv3_1"
  param {
    lr_mult: 1
    decay_mult: 1
  }
  param {
    lr_mult: 2
    decay_mult: 0
  }
  convolution_param {
    num_output: 256
    pad: 1
    kernel_size: 3
    weight_filler {
      type: "xavier"
    }
    bias_filler {
      type: "constant"
      value: 0
    }
  }
}
layer {
  name: "relu3_1"
  type: "ReLU"
  bottom: "conv3_1"
  top: "conv3_1"
}
layer {
  name: "conv3_2"
  type: "Convolution"
  bottom: "conv3_1"
  top: "conv3_2"
  param {
    lr_mult: 1
    decay_mult: 1
  }
  param {
    lr_mult: 2
    decay_mult: 0
  }
  convolution_param {
    num_output: 256
    pad: 1
    kernel_size: 3
    weight_filler {
      type: "xavier"
    }
    bias_filler {
      type: "constant"
      value: 0
    }
  }
}
layer {
  name: "relu3_2"
  type: "ReLU"
  bottom: "conv3_2"
  top: "conv3_2"
}
layer {
  name: "conv3_3"
  type: "Convolution"
  bottom: "conv3_2"
  top: "conv3_3"
  param {
    lr_mult: 1
    decay_mult: 1
  }
  param {
    lr_mult: 2
    decay_mult: 0
  }
  convolution_param {
    num_output: 256
    pad: 1
    kernel_size: 3
    weight_filler {
      type: "xavier"
    }
    bias_filler {
      type: "constant"
      value: 0
    }
  }
}
layer {
  name: "relu3_3"
  type: "ReLU"
  bottom: "conv3_3"
  top: "conv3_3"
}
layer {
  name: "pool3"
  type: "Pooling"
  bottom: "conv3_3"
  top: "pool3"
  pooling_param {
    pool: MAX
    kernel_size: 2
    stride: 2
  }
}
layer {
  name: "conv4_1"
  type: "Convolution"
  bottom: "pool3"
  top: "conv4_1"
  param {
    lr_mult: 1
    decay_mult: 1
  }
  param {
    lr_mult: 2
    decay_mult: 0
  }
  convolution_param {
    num_output: 512
    pad: 1
    kernel_size: 3
    weight_filler {
      type: "xavier"
    }
    bias_filler {
      type: "constant"
      value: 0
    }
  }
}
layer {
  name: "relu4_1"
  type: "ReLU"
  bottom: "conv4_1"
  top: "conv4_1"
}
layer {
  name: "conv4_2"
  type: "Convolution"
  bottom: "conv4_1"
  top: "conv4_2"
  param {
    lr_mult: 1
    decay_mult: 1
  }
  param {
    lr_mult: 2
    decay_mult: 0
  }
  convolution_param {
    num_output: 512
    pad: 1
    kernel_size: 3
    weight_filler {
      type: "xavier"
    }
    bias_filler {
      type: "constant"
      value: 0
    }
  }
}
layer {
  name: "relu4_2"
  type: "ReLU"
  bottom: "conv4_2"
  top: "conv4_2"
}
layer {
  name: "conv4_3"
  type: "Convolution"
  bottom: "conv4_2"
  top: "conv4_3"
  param {
    lr_mult: 1
    decay_mult: 1
  }
  param {
    lr_mult: 2
    decay_mult: 0
  }
  convolution_param {
    num_output: 512
    pad: 1
    kernel_size: 3
    weight_filler {
      type: "xavier"
    }
    bias_filler {
      type: "constant"
      value: 0
    }
  }
}
layer {
  name: "relu4_3"
  type: "ReLU"
  bottom: "conv4_3"
  top: "conv4_3"
}
layer {
  name: "pool4"
  type: "Pooling"
  bottom: "conv4_3"
  top: "pool4"
  pooling_param {
    pool: MAX
    kernel_size: 2
    stride: 2
  }
}
layer {
  name: "conv5_1"
  type: "Convolution"
  bottom: "pool4"
  top: "conv5_1"
  param {
    lr_mult: 1
    decay_mult: 1
  }
  param {
    lr_mult: 2
    decay_mult: 0
  }
  convolution_param {
    num_output: 512
    pad: 1
    kernel_size: 3
    weight_filler {
      type: "xavier"
    }
    bias_filler {
      type: "constant"
      value: 0
    }
    dilation: 1
  }
}
layer {
  name: "relu5_1"
  type: "ReLU"
  bottom: "conv5_1"
  top: "conv5_1"
}
layer {
  name: "conv5_2"
  type: "Convolution"
  bottom: "conv5_1"
  top: "conv5_2"
  param {
    lr_mult: 1
    decay_mult: 1
  }
  param {
    lr_mult: 2
    decay_mult: 0
  }
  convolution_param {
    num_output: 512
    pad: 1
    kernel_size: 3
    weight_filler {
      type: "xavier"
    }
    bias_filler {
      type: "constant"
      value: 0
    }
    dilation: 1
  }
}
layer {
  name: "relu5_2"
  type: "ReLU"
  bottom: "conv5_2"
  top: "conv5_2"
}
layer {
  name: "conv5_3"
  type: "Convolution"
  bottom: "conv5_2"
  top: "conv5_3"
  param {
    lr_mult: 1
    decay_mult: 1
  }
  param {
    lr_mult: 2
    decay_mult: 0
  }
  convolution_param {
    num_output: 512
    pad: 1
    kernel_size: 3
    weight_filler {
      type: "xavier"
    }
    bias_filler {
      type: "constant"
      value: 0
    }
    dilation: 1
  }
}
layer {
  name: "relu5_3"
  type: "ReLU"
  bottom: "conv5_3"
  top: "conv5_3"
}
layer {
  name: "pool5"
  type: "Pooling"
  bottom: "conv5_3"
  top: "pool5"
  pooling_param {
    pool: MAX
    kernel_size: 3
    stride: 1
    pad: 1
  }
}
layer {
  name: "fc6"
  type: "Convolution"
  bottom: "pool5"
  top: "fc6"
  param {
    lr_mult: 1
    decay_mult: 1
  }
  param {
    lr_mult: 2
    decay_mult: 0
  }
  convolution_param {
    num_output: 1024
    pad: 6
    kernel_size: 3
    weight_filler {
      type: "xavier"
    }
    bias_filler {
      type: "constant"
      value: 0
    }
    dilation: 6
  }
}
layer {
  name: "relu6"
  type: "ReLU"
  bottom: "fc6"
  top: "fc6"
}
layer {
  name: "fc7"
  type: "Convolution"
  bottom: "fc6"
  top: "fc7"
  param {
    lr_mult: 1
    decay_mult: 1
  }
  param {
    lr_mult: 2
    decay_mult: 0
  }
  convolution_param {
    num_output: 1024
    kernel_size: 1
    weight_filler {
      type: "xavier"
    }
    bias_filler {
      type: "constant"
      value: 0
    }
  }
}
layer {
  name: "relu7"
  type: "ReLU"
  bottom: "fc7"
  top: "fc7"
}
layer {
  name: "conv6_1"
  type: "Convolution"
  bottom: "fc7"
  top: "conv6_1"
  param {
    lr_mult: 1
    decay_mult: 1
  }
  param {
    lr_mult: 2
    decay_mult: 0
  }
  convolution_param {
    num_output: 256
    pad: 0
    kernel_size: 1
    stride: 1
    weight_filler {
      type: "xavier"
    }
    bias_filler {
      type: "constant"
      value: 0
    }
  }
}
layer {
  name: "conv6_1_relu"
  type: "ReLU"
  bottom: "conv6_1"
  top: "conv6_1"
}
layer {
  name: "conv6_2"
  type: "Convolution"
  bottom: "conv6_1"
  top: "conv6_2"
  param {
    lr_mult: 1
    decay_mult: 1
  }
  param {
    lr_mult: 2
    decay_mult: 0
  }
  convolution_param {
    num_output: 512
    pad: 1
    kernel_size: 3
    stride: 2
    weight_filler {
      type: "xavier"
    }
    bias_filler {
      type: "constant"
      value: 0
    }
  }
}
layer {
  name: "conv6_2_relu"
  type: "ReLU"
  bottom: "conv6_2"
  top: "conv6_2"
}
layer {
  name: "conv7_1"
  type: "Convolution"
  bottom: "conv6_2"
  top: "conv7_1"
  param {
    lr_mult: 1
    decay_mult: 1
  }
  param {
    lr_mult: 2
    decay_mult: 0
  }
  convolution_param {
    num_output: 128
    pad: 0
    kernel_size: 1
    stride: 1
    weight_filler {
      type: "xavier"
    }
    bias_filler {
      type: "constant"
      value: 0
    }
  }
}
layer {
  name: "conv7_1_relu"
  type: "ReLU"
  bottom: "conv7_1"
  top: "conv7_1"
}
layer {
  name: "conv7_2"
  type: "Convolution"
  bottom: "conv7_1"
  top: "conv7_2"
  param {
    lr_mult: 1
    decay_mult: 1
  }
  param {
    lr_mult: 2
    decay_mult: 0
  }
  convolution_param {
    num_output: 256
    pad: 1
    kernel_size: 3
    stride: 2
    weight_filler {
      type: "xavier"
    }
    bias_filler {
      type: "constant"
      value: 0
    }
  }
}
layer {
  name: "conv7_2_relu"
  type: "ReLU"
  bottom: "conv7_2"
  top: "conv7_2"
}
layer {
  name: "conv8_1"
  type: "Convolution"
  bottom: "conv7_2"
  top: "conv8_1"
  param {
    lr_mult: 1
    decay_mult: 1
  }
  param {
    lr_mult: 2
    decay_mult: 0
  }
  convolution_param {
    num_output: 128
    pad: 0
    kernel_size: 1
    stride: 1
    weight_filler {
      type: "xavier"
    }
    bias_filler {
      type: "constant"
      value: 0
    }
  }
}
layer {
  name: "conv8_1_relu"
  type: "ReLU"
  bottom: "conv8_1"
  top: "conv8_1"
}
layer {
  name: "conv8_2"
  type: "Convolution"
  bottom: "conv8_1"
  top: "conv8_2"
  param {
    lr_mult: 1
    decay_mult: 1
  }
  param {
    lr_mult: 2
    decay_mult: 0
  }
  convolution_param {
    num_output: 256
    pad: 0
    kernel_size: 3
    stride: 1
    weight_filler {
      type: "xavier"
    }
    bias_filler {
      type: "constant"
      value: 0
    }
  }
}
layer {
  name: "conv8_2_relu"
  type: "ReLU"
  bottom: "conv8_2"
  top: "conv8_2"
}
layer {
  name: "conv9_1"
  type: "Convolution"
  bottom: "conv8_2"
  top: "conv9_1"
  param {
    lr_mult: 1
    decay_mult: 1
  }
  param {
    lr_mult: 2
    decay_mult: 0
  }
  convolution_param {
    num_output: 128
    pad: 0
    kernel_size: 1
    stride: 1
    weight_filler {
      type: "xavier"
    }
    bias_filler {
      type: "constant"
      value: 0
    }
  }
}
layer {
  name: "conv9_1_relu"
  type: "ReLU"
  bottom: "conv9_1"
  top: "conv9_1"
}
layer {
  name: "conv9_2"
  type: "Convolution"
  bottom: "conv9_1"
  top: "conv9_2"
  param {
    lr_mult: 1
    decay_mult: 1
  }
  param {
    lr_mult: 2
    decay_mult: 0
  }
  convolution_param {
    num_output: 256
    pad: 0
    kernel_size: 3
    stride: 1
    weight_filler {
      type: "xavier"
    }
    bias_filler {
      type: "constant"
      value: 0
    }
  }
}
layer {
  name: "conv9_2_relu"
  type: "ReLU"
  bottom: "conv9_2"
  top: "conv9_2"
}
layer {
  name: "conv4_3_norm"
  type: "Normalize"
  bottom: "conv4_3"
  top: "conv4_3_norm"
  norm_param {
    across_spatial: false
    scale_filler {
      type: "constant"
      value: 20
    }
    channel_shared: false
  }
}
layer {
  name: "conv4_3_norm_mbox_loc"
  type: "Convolution"
  bottom: "conv4_3_norm"
  top: "conv4_3_norm_mbox_loc"
  param {
    lr_mult: 1
    decay_mult: 1
  }
  param {
    lr_mult: 2
    decay_mult: 0
  }
  convolution_param {
    num_output: 16
    pad: 1
    kernel_size: 3
    stride: 1
    weight_filler {
      type: "xavier"
    }
    bias_filler {
      type: "constant"
      value: 0
    }
  }
}
layer {
  name: "conv4_3_norm_mbox_loc_perm"
  type: "Permute"
  bottom: "conv4_3_norm_mbox_loc"
  top: "conv4_3_norm_mbox_loc_perm"
  permute_param {
    order: 0
    order: 2
    order: 3
    order: 1
  }
}
layer {
  name: "conv4_3_norm_mbox_loc_flat"
  type: "Flatten"
  bottom: "conv4_3_norm_mbox_loc_perm"
  top: "conv4_3_norm_mbox_loc_flat"
  flatten_param {
    axis: 1
  }
}
layer {
  name: "conv4_3_norm_mbox_conf"
  type: "Convolution"
  bottom: "conv4_3_norm"
  top: "conv4_3_norm_mbox_conf"
  param {
    lr_mult: 1
    decay_mult: 1
  }
  param {
    lr_mult: 2
    decay_mult: 0
  }
  convolution_param {
    num_output: 8
    pad: 1
    kernel_size: 3
    stride: 1
    weight_filler {
      type: "xavier"
    }
    bias_filler {
      type: "constant"
      value: 0
    }
  }
}
layer {
  name: "conv4_3_norm_mbox_conf_perm"
  type: "Permute"
  bottom: "conv4_3_norm_mbox_conf"
  top: "conv4_3_norm_mbox_conf_perm"
  permute_param {
    order: 0
    order: 2
    order: 3
    order: 1
  }
}
layer {
  name: "conv4_3_norm_mbox_conf_flat"
  type: "Flatten"
  bottom: "conv4_3_norm_mbox_conf_perm"
  top: "conv4_3_norm_mbox_conf_flat"
  flatten_param {
    axis: 1
  }
}
layer {
  name: "conv4_3_norm_mbox_priorbox"
  type: "PriorBox"
  bottom: "conv4_3_norm"
  bottom: "data"
  top: "conv4_3_norm_mbox_priorbox"
  prior_box_param {
    min_size: 30
    max_size: 60
    aspect_ratio: 2
    flip: true
    clip: false
    variance: 0.1
    variance: 0.1
    variance: 0.2
    variance: 0.2
    step: 8
    offset: 0.5
  }
}
layer {
  name: "fc7_mbox_loc"
  type: "Convolution"
  bottom: "fc7"
  top: "fc7_mbox_loc"
  param {
    lr_mult: 1
    decay_mult: 1
  }
  param {
    lr_mult: 2
    decay_mult: 0
  }
  convolution_param {
    num_output: 24
    pad: 1
    kernel_size: 3
    stride: 1
    weight_filler {
      type: "xavier"
    }
    bias_filler {
      type: "constant"
      value: 0
    }
  }
}
layer {
  name: "fc7_mbox_loc_perm"
  type: "Permute"
  bottom: "fc7_mbox_loc"
  top: "fc7_mbox_loc_perm"
  permute_param {
    order: 0
    order: 2
    order: 3
    order: 1
  }
}
layer {
  name: "fc7_mbox_loc_flat"
  type: "Flatten"
  bottom: "fc7_mbox_loc_perm"
  top: "fc7_mbox_loc_flat"
  flatten_param {
    axis: 1
  }
}
layer {
  name: "fc7_mbox_conf"
  type: "Convolution"
  bottom: "fc7"
  top: "fc7_mbox_conf"
  param {
    lr_mult: 1
    decay_mult: 1
  }
  param {
    lr_mult: 2
    decay_mult: 0
  }
  convolution_param {
    num_output: 12
    pad: 1
    kernel_size: 3
    stride: 1
    weight_filler {
      type: "xavier"
    }
    bias_filler {
      type: "constant"
      value: 0
    }
  }
}
layer {
  name: "fc7_mbox_conf_perm"
  type: "Permute"
  bottom: "fc7_mbox_conf"
  top: "fc7_mbox_conf_perm"
  permute_param {
    order: 0
    order: 2
    order: 3
    order: 1
  }
}
layer {
  name: "fc7_mbox_conf_flat"
  type: "Flatten"
  bottom: "fc7_mbox_conf_perm"
  top: "fc7_mbox_conf_flat"
  flatten_param {
    axis: 1
  }
}
layer {
  name: "fc7_mbox_priorbox"
  type: "PriorBox"
  bottom: "fc7"
  bottom: "data"
  top: "fc7_mbox_priorbox"
  prior_box_param {
    min_size: 60
    max_size: 111
    aspect_ratio: 2
    aspect_ratio: 3
    flip: true
    clip: false
    variance: 0.1
    variance: 0.1
    variance: 0.2
    variance: 0.2
    step: 16
    offset: 0.5
  }
}
layer {
  name: "conv6_2_mbox_loc"
  type: "Convolution"
  bottom: "conv6_2"
  top: "conv6_2_mbox_loc"
  param {
    lr_mult: 1
    decay_mult: 1
  }
  param {
    lr_mult: 2
    decay_mult: 0
  }
  convolution_param {
    num_output: 24
    pad: 1
    kernel_size: 3
    stride: 1
    weight_filler {
      type: "xavier"
    }
    bias_filler {
      type: "constant"
      value: 0
    }
  }
}
layer {
  name: "conv6_2_mbox_loc_perm"
  type: "Permute"
  bottom: "conv6_2_mbox_loc"
  top: "conv6_2_mbox_loc_perm"
  permute_param {
    order: 0
    order: 2
    order: 3
    order: 1
  }
}
layer {
  name: "conv6_2_mbox_loc_flat"
  type: "Flatten"
  bottom: "conv6_2_mbox_loc_perm"
  top: "conv6_2_mbox_loc_flat"
  flatten_param {
    axis: 1
  }
}
layer {
  name: "conv6_2_mbox_conf"
  type: "Convolution"
  bottom: "conv6_2"
  top: "conv6_2_mbox_conf"
  param {
    lr_mult: 1
    decay_mult: 1
  }
  param {
    lr_mult: 2
    decay_mult: 0
  }
  convolution_param {
    num_output: 12
    pad: 1
    kernel_size: 3
    stride: 1
    weight_filler {
      type: "xavier"
    }
    bias_filler {
      type: "constant"
      value: 0
    }
  }
}
layer {
  name: "conv6_2_mbox_conf_perm"
  type: "Permute"
  bottom: "conv6_2_mbox_conf"
  top: "conv6_2_mbox_conf_perm"
  permute_param {
    order: 0
    order: 2
    order: 3
    order: 1
  }
}
layer {
  name: "conv6_2_mbox_conf_flat"
  type: "Flatten"
  bottom: "conv6_2_mbox_conf_perm"
  top: "conv6_2_mbox_conf_flat"
  flatten_param {
    axis: 1
  }
}
layer {
  name: "conv6_2_mbox_priorbox"
  type: "PriorBox"
  bottom: "conv6_2"
  bottom: "data"
  top: "conv6_2_mbox_priorbox"
  prior_box_param {
    min_size: 111
    max_size: 162
    aspect_ratio: 2
    aspect_ratio: 3
    flip: true
    clip: false
    variance: 0.1
    variance: 0.1
    variance: 0.2
    variance: 0.2
    step: 32
    offset: 0.5
  }
}
layer {
  name: "conv7_2_mbox_loc"
  type: "Convolution"
  bottom: "conv7_2"
  top: "conv7_2_mbox_loc"
  param {
    lr_mult: 1
    decay_mult: 1
  }
  param {
    lr_mult: 2
    decay_mult: 0
  }
  convolution_param {
    num_output: 24
    pad: 1
    kernel_size: 3
    stride: 1
    weight_filler {
      type: "xavier"
    }
    bias_filler {
      type: "constant"
      value: 0
    }
  }
}
layer {
  name: "conv7_2_mbox_loc_perm"
  type: "Permute"
  bottom: "conv7_2_mbox_loc"
  top: "conv7_2_mbox_loc_perm"
  permute_param {
    order: 0
    order: 2
    order: 3
    order: 1
  }
}
layer {
  name: "conv7_2_mbox_loc_flat"
  type: "Flatten"
  bottom: "conv7_2_mbox_loc_perm"
  top: "conv7_2_mbox_loc_flat"
  flatten_param {
    axis: 1
  }
}
layer {
  name: "conv7_2_mbox_conf"
  type: "Convolution"
  bottom: "conv7_2"
  top: "conv7_2_mbox_conf"
  param {
    lr_mult: 1
    decay_mult: 1
  }
  param {
    lr_mult: 2
    decay_mult: 0
  }
  convolution_param {
    num_output: 12
    pad: 1
    kernel_size: 3
    stride: 1
    weight_filler {
      type: "xavier"
    }
    bias_filler {
      type: "constant"
      value: 0
    }
  }
}
layer {
  name: "conv7_2_mbox_conf_perm"
  type: "Permute"
  bottom: "conv7_2_mbox_conf"
  top: "conv7_2_mbox_conf_perm"
  permute_param {
    order: 0
    order: 2
    order: 3
    order: 1
  }
}
layer {
  name: "conv7_2_mbox_conf_flat"
  type: "Flatten"
  bottom: "conv7_2_mbox_conf_perm"
  top: "conv7_2_mbox_conf_flat"
  flatten_param {
    axis: 1
  }
}
layer {
  name: "conv7_2_mbox_priorbox"
  type: "PriorBox"
  bottom: "conv7_2"
  bottom: "data"
  top: "conv7_2_mbox_priorbox"
  prior_box_param {
    min_size: 162
    max_size: 213
    aspect_ratio: 2
    aspect_ratio: 3
    flip: true
    clip: false
    variance: 0.1
    variance: 0.1
    variance: 0.2
    variance: 0.2
    step: 64
    offset: 0.5
  }
}
layer {
  name: "conv8_2_mbox_loc"
  type: "Convolution"
  bottom: "conv8_2"
  top: "conv8_2_mbox_loc"
  param {
    lr_mult: 1
    decay_mult: 1
  }
  param {
    lr_mult: 2
    decay_mult: 0
  }
  convolution_param {
    num_output: 16
    pad: 1
    kernel_size: 3
    stride: 1
    weight_filler {
      type: "xavier"
    }
    bias_filler {
      type: "constant"
      value: 0
    }
  }
}
layer {
  name: "conv8_2_mbox_loc_perm"
  type: "Permute"
  bottom: "conv8_2_mbox_loc"
  top: "conv8_2_mbox_loc_perm"
  permute_param {
    order: 0
    order: 2
    order: 3
    order: 1
  }
}
layer {
  name: "conv8_2_mbox_loc_flat"
  type: "Flatten"
  bottom: "conv8_2_mbox_loc_perm"
  top: "conv8_2_mbox_loc_flat"
  flatten_param {
    axis: 1
  }
}
layer {
  name: "conv8_2_mbox_conf"
  type: "Convolution"
  bottom: "conv8_2"
  top: "conv8_2_mbox_conf"
  param {
    lr_mult: 1
    decay_mult: 1
  }
  param {
    lr_mult: 2
    decay_mult: 0
  }
  convolution_param {
    num_output: 8
    pad: 1
    kernel_size: 3
    stride: 1
    weight_filler {
      type: "xavier"
    }
    bias_filler {
      type: "constant"
      value: 0
    }
  }
}
layer {
  name: "conv8_2_mbox_conf_perm"
  type: "Permute"
  bottom: "conv8_2_mbox_conf"
  top: "conv8_2_mbox_conf_perm"
  permute_param {
    order: 0
    order: 2
    order: 3
    order: 1
  }
}
layer {
  name: "conv8_2_mbox_conf_flat"
  type: "Flatten"
  bottom: "conv8_2_mbox_conf_perm"
  top: "conv8_2_mbox_conf_flat"
  flatten_param {
    axis: 1
  }
}
layer {
  name: "conv8_2_mbox_priorbox"
  type: "PriorBox"
  bottom: "conv8_2"
  bottom: "data"
  top: "conv8_2_mbox_priorbox"
  prior_box_param {
    min_size: 213
    max_size: 264
    aspect_ratio: 2
    flip: true
    clip: false
    variance: 0.1
    variance: 0.1
    variance: 0.2
    variance: 0.2
    step: 100
    offset: 0.5
  }
}
layer {
  name: "conv9_2_mbox_loc"
  type: "Convolution"
  bottom: "conv9_2"
  top: "conv9_2_mbox_loc"
  param {
    lr_mult: 1
    decay_mult: 1
  }
  param {
    lr_mult: 2
    decay_mult: 0
  }
  convolution_param {
    num_output: 16
    pad: 1
    kernel_size: 3
    stride: 1
    weight_filler {
      type: "xavier"
    }
    bias_filler {
      type: "constant"
      value: 0
    }
  }
}
layer {
  name: "conv9_2_mbox_loc_perm"
  type: "Permute"
  bottom: "conv9_2_mbox_loc"
  top: "conv9_2_mbox_loc_perm"
  permute_param {
    order: 0
    order: 2
    order: 3
    order: 1
  }
}
layer {
  name: "conv9_2_mbox_loc_flat"
  type: "Flatten"
  bottom: "conv9_2_mbox_loc_perm"
  top: "conv9_2_mbox_loc_flat"
  flatten_param {
    axis: 1
  }
}
layer {
  name: "conv9_2_mbox_conf"
  type: "Convolution"
  bottom: "conv9_2"
  top: "conv9_2_mbox_conf"
  param {
    lr_mult: 1
    decay_mult: 1
  }
  param {
    lr_mult: 2
    decay_mult: 0
  }
  convolution_param {
    num_output: 8
    pad: 1
    kernel_size: 3
    stride: 1
    weight_filler {
      type: "xavier"
    }
    bias_filler {
      type: "constant"
      value: 0
    }
  }
}
layer {
  name: "conv9_2_mbox_conf_perm"
  type: "Permute"
  bottom: "conv9_2_mbox_conf"
  top: "conv9_2_mbox_conf_perm"
  permute_param {
    order: 0
    order: 2
    order: 3
    order: 1
  }
}
layer {
  name: "conv9_2_mbox_conf_flat"
  type: "Flatten"
  bottom: "conv9_2_mbox_conf_perm"
  top: "conv9_2_mbox_conf_flat"
  flatten_param {
    axis: 1
  }
}
layer {
  name: "conv9_2_mbox_priorbox"
  type: "PriorBox"
  bottom: "conv9_2"
  bottom: "data"
  top: "conv9_2_mbox_priorbox"
  prior_box_param {
    min_size: 264
    max_size: 315
    aspect_ratio: 2
    flip: true
    clip: false
    variance: 0.1
    variance: 0.1
    variance: 0.2
    variance: 0.2
    step: 300
    offset: 0.5
  }
}
layer {
  name: "mbox_loc"
  type: "Concat"
  bottom: "conv4_3_norm_mbox_loc_flat"
  bottom: "fc7_mbox_loc_flat"
  bottom: "conv6_2_mbox_loc_flat"
  bottom: "conv7_2_mbox_loc_flat"
  bottom: "conv8_2_mbox_loc_flat"
  bottom: "conv9_2_mbox_loc_flat"
  top: "mbox_loc"
  concat_param {
    axis: 1
  }
}
layer {
  name: "mbox_conf"
  type: "Concat"
  bottom: "conv4_3_norm_mbox_conf_flat"
  bottom: "fc7_mbox_conf_flat"
  bottom: "conv6_2_mbox_conf_flat"
  bottom: "conv7_2_mbox_conf_flat"
  bottom: "conv8_2_mbox_conf_flat"
  bottom: "conv9_2_mbox_conf_flat"
  top: "mbox_conf"
  concat_param {
    axis: 1
  }
}
layer {
  name: "mbox_priorbox"
  type: "Concat"
  bottom: "conv4_3_norm_mbox_priorbox"
  bottom: "fc7_mbox_priorbox"
  bottom: "conv6_2_mbox_priorbox"
  bottom: "conv7_2_mbox_priorbox"
  bottom: "conv8_2_mbox_priorbox"
  bottom: "conv9_2_mbox_priorbox"
  top: "mbox_priorbox"
  concat_param {
    axis: 2
  }
}
layer {
  name: "mbox_loss"
  type: "MultiBoxLoss"
  bottom: "mbox_loc"
  bottom: "mbox_conf"
  bottom: "mbox_priorbox"
  bottom: "label"
  top: "mbox_loss"
  include {
    phase: TRAIN
  }
  propagate_down: true
  propagate_down: true
  propagate_down: false
  propagate_down: false
  loss_param {
    normalization: VALID
  }
  multibox_loss_param {
    loc_loss_type: SMOOTH_L1
    conf_loss_type: SOFTMAX
    loc_weight: 1
    num_classes: 2
    share_location: true
    match_type: PER_PREDICTION
    overlap_threshold: 0.5
    use_prior_for_matching: true
    background_label_id: 0
    use_difficult_gt: true
    neg_pos_ratio: 3
    neg_overlap: 0.5
    code_type: CENTER_SIZE
    ignore_cross_boundary_bbox: false
    mining_type: MAX_NEGATIVE
  }
}
I0609 09:14:42.412945 26601 layer_factory.hpp:77] Creating layer data
I0609 09:14:42.413975 26601 net.cpp:100] Creating Layer data
I0609 09:14:42.414003 26601 net.cpp:409] data -> data
I0609 09:14:42.414043 26601 net.cpp:409] data -> label
I0609 09:14:42.414065 26601 layer.hpp:71] 
I0609 09:14:42.414906 26610 db_lmdb.cpp:35] Opened lmdb examples/grayscale_tbs_v2.0/grayscale_tbs_v2.0_trainval_lmdb
I0609 09:14:42.429879 26601 annotated_data_layer.cpp:62] output data size: 32,3,300,300
I0609 09:14:42.508258 26601 net.cpp:151] Setting up data
I0609 09:14:42.508311 26601 net.cpp:158] Top shape: 32 3 300 300 (8640000)
I0609 09:14:42.508342 26601 net.cpp:158] Top shape: 1 1 4 8 (32)
I0609 09:14:42.508345 26601 net.cpp:166] Memory required for data: 34560128
I0609 09:14:42.508358 26601 layer_factory.hpp:77] Creating layer data_data_0_split
I0609 09:14:42.508374 26601 net.cpp:100] Creating Layer data_data_0_split
I0609 09:14:42.508381 26601 net.cpp:435] data_data_0_split <- data
I0609 09:14:42.508396 26601 net.cpp:409] data_data_0_split -> data_data_0_split_0
I0609 09:14:42.508420 26601 net.cpp:409] data_data_0_split -> data_data_0_split_1
I0609 09:14:42.508430 26601 net.cpp:409] data_data_0_split -> data_data_0_split_2
I0609 09:14:42.508442 26601 net.cpp:409] data_data_0_split -> data_data_0_split_3
I0609 09:14:42.508450 26601 net.cpp:409] data_data_0_split -> data_data_0_split_4
I0609 09:14:42.508455 26601 net.cpp:409] data_data_0_split -> data_data_0_split_5
I0609 09:14:42.508462 26601 net.cpp:409] data_data_0_split -> data_data_0_split_6
I0609 09:14:42.508473 26601 layer.hpp:71] 
I0609 09:14:42.508565 26601 net.cpp:151] Setting up data_data_0_split
I0609 09:14:42.508576 26601 net.cpp:158] Top shape: 32 3 300 300 (8640000)
I0609 09:14:42.508582 26601 net.cpp:158] Top shape: 32 3 300 300 (8640000)
I0609 09:14:42.508586 26601 net.cpp:158] Top shape: 32 3 300 300 (8640000)
I0609 09:14:42.508590 26601 net.cpp:158] Top shape: 32 3 300 300 (8640000)
I0609 09:14:42.508594 26601 net.cpp:158] Top shape: 32 3 300 300 (8640000)
I0609 09:14:42.508599 26601 net.cpp:158] Top shape: 32 3 300 300 (8640000)
I0609 09:14:42.508605 26601 net.cpp:158] Top shape: 32 3 300 300 (8640000)
I0609 09:14:42.508607 26601 net.cpp:166] Memory required for data: 276480128
I0609 09:14:42.508610 26601 layer_factory.hpp:77] Creating layer conv1_1
I0609 09:14:42.508632 26601 net.cpp:100] Creating Layer conv1_1
I0609 09:14:42.508636 26601 net.cpp:435] conv1_1 <- data_data_0_split_0
I0609 09:14:42.508642 26601 net.cpp:409] conv1_1 -> conv1_1
I0609 09:14:42.508649 26601 layer.hpp:71] 
I0609 09:14:42.944871 26601 net.cpp:151] Setting up conv1_1
I0609 09:14:42.944921 26601 net.cpp:158] Top shape: 32 64 300 300 (184320000)
I0609 09:14:42.944927 26601 net.cpp:166] Memory required for data: 1013760128
I0609 09:14:42.944948 26601 layer_factory.hpp:77] Creating layer relu1_1
I0609 09:14:42.944964 26601 net.cpp:100] Creating Layer relu1_1
I0609 09:14:42.944972 26601 net.cpp:435] relu1_1 <- conv1_1
I0609 09:14:42.944983 26601 net.cpp:396] relu1_1 -> conv1_1 (in-place)
I0609 09:14:42.944996 26601 layer.hpp:71] 
I0609 09:14:42.945889 26601 net.cpp:151] Setting up relu1_1
I0609 09:14:42.945911 26601 net.cpp:158] Top shape: 32 64 300 300 (184320000)
I0609 09:14:42.945916 26601 net.cpp:166] Memory required for data: 1751040128
I0609 09:14:42.945921 26601 layer_factory.hpp:77] Creating layer conv1_2
I0609 09:14:42.945942 26601 net.cpp:100] Creating Layer conv1_2
I0609 09:14:42.945958 26601 net.cpp:435] conv1_2 <- conv1_1
I0609 09:14:42.945971 26601 net.cpp:409] conv1_2 -> conv1_2
I0609 09:14:42.945992 26601 layer.hpp:71] 
I0609 09:14:42.948551 26601 net.cpp:151] Setting up conv1_2
I0609 09:14:42.948575 26601 net.cpp:158] Top shape: 32 64 300 300 (184320000)
I0609 09:14:42.948580 26601 net.cpp:166] Memory required for data: 2488320128
I0609 09:14:42.948593 26601 layer_factory.hpp:77] Creating layer relu1_2
I0609 09:14:42.948613 26601 net.cpp:100] Creating Layer relu1_2
I0609 09:14:42.948621 26601 net.cpp:435] relu1_2 <- conv1_2
I0609 09:14:42.948634 26601 net.cpp:396] relu1_2 -> conv1_2 (in-place)
I0609 09:14:42.948645 26601 layer.hpp:71] 
I0609 09:14:42.949354 26601 net.cpp:151] Setting up relu1_2
I0609 09:14:42.949375 26601 net.cpp:158] Top shape: 32 64 300 300 (184320000)
I0609 09:14:42.949380 26601 net.cpp:166] Memory required for data: 3225600128
I0609 09:14:42.949384 26601 layer_factory.hpp:77] Creating layer pool1
I0609 09:14:42.949394 26601 net.cpp:100] Creating Layer pool1
I0609 09:14:42.949399 26601 net.cpp:435] pool1 <- conv1_2
I0609 09:14:42.949409 26601 net.cpp:409] pool1 -> pool1
I0609 09:14:42.949422 26601 layer.hpp:71] 
I0609 09:14:42.949527 26601 net.cpp:151] Setting up pool1
I0609 09:14:42.949545 26601 net.cpp:158] Top shape: 32 64 150 150 (46080000)
I0609 09:14:42.949553 26601 net.cpp:166] Memory required for data: 3409920128
I0609 09:14:42.949558 26601 layer_factory.hpp:77] Creating layer conv2_1
I0609 09:14:42.949573 26601 net.cpp:100] Creating Layer conv2_1
I0609 09:14:42.949579 26601 net.cpp:435] conv2_1 <- pool1
I0609 09:14:42.949589 26601 net.cpp:409] conv2_1 -> conv2_1
I0609 09:14:42.949600 26601 layer.hpp:71] 
I0609 09:14:42.952373 26601 net.cpp:151] Setting up conv2_1
I0609 09:14:42.952399 26601 net.cpp:158] Top shape: 32 128 150 150 (92160000)
I0609 09:14:42.952404 26601 net.cpp:166] Memory required for data: 3778560128
I0609 09:14:42.952415 26601 layer_factory.hpp:77] Creating layer relu2_1
I0609 09:14:42.952433 26601 net.cpp:100] Creating Layer relu2_1
I0609 09:14:42.952440 26601 net.cpp:435] relu2_1 <- conv2_1
I0609 09:14:42.952448 26601 net.cpp:396] relu2_1 -> conv2_1 (in-place)
I0609 09:14:42.952460 26601 layer.hpp:71] 
I0609 09:14:42.952726 26601 net.cpp:151] Setting up relu2_1
I0609 09:14:42.952749 26601 net.cpp:158] Top shape: 32 128 150 150 (92160000)
I0609 09:14:42.952756 26601 net.cpp:166] Memory required for data: 4147200128
I0609 09:14:42.952762 26601 layer_factory.hpp:77] Creating layer conv2_2
I0609 09:14:42.952778 26601 net.cpp:100] Creating Layer conv2_2
I0609 09:14:42.952785 26601 net.cpp:435] conv2_2 <- conv2_1
I0609 09:14:42.952796 26601 net.cpp:409] conv2_2 -> conv2_2
I0609 09:14:42.952807 26601 layer.hpp:71] 
I0609 09:14:42.956022 26601 net.cpp:151] Setting up conv2_2
I0609 09:14:42.956048 26601 net.cpp:158] Top shape: 32 128 150 150 (92160000)
I0609 09:14:42.956051 26601 net.cpp:166] Memory required for data: 4515840128
I0609 09:14:42.956059 26601 layer_factory.hpp:77] Creating layer relu2_2
I0609 09:14:42.956068 26601 net.cpp:100] Creating Layer relu2_2
I0609 09:14:42.956074 26601 net.cpp:435] relu2_2 <- conv2_2
I0609 09:14:42.956082 26601 net.cpp:396] relu2_2 -> conv2_2 (in-place)
I0609 09:14:42.956092 26601 layer.hpp:71] 
I0609 09:14:42.956818 26601 net.cpp:151] Setting up relu2_2
I0609 09:14:42.956840 26601 net.cpp:158] Top shape: 32 128 150 150 (92160000)
I0609 09:14:42.956843 26601 net.cpp:166] Memory required for data: 4884480128
I0609 09:14:42.956847 26601 layer_factory.hpp:77] Creating layer pool2
I0609 09:14:42.956856 26601 net.cpp:100] Creating Layer pool2
I0609 09:14:42.956861 26601 net.cpp:435] pool2 <- conv2_2
I0609 09:14:42.956872 26601 net.cpp:409] pool2 -> pool2
I0609 09:14:42.956883 26601 layer.hpp:71] 
I0609 09:14:42.956948 26601 net.cpp:151] Setting up pool2
I0609 09:14:42.956969 26601 net.cpp:158] Top shape: 32 128 75 75 (23040000)
I0609 09:14:42.956975 26601 net.cpp:166] Memory required for data: 4976640128
I0609 09:14:42.956981 26601 layer_factory.hpp:77] Creating layer conv3_1
I0609 09:14:42.956997 26601 net.cpp:100] Creating Layer conv3_1
I0609 09:14:42.957003 26601 net.cpp:435] conv3_1 <- pool2
I0609 09:14:42.957013 26601 net.cpp:409] conv3_1 -> conv3_1
I0609 09:14:42.957025 26601 layer.hpp:71] 
I0609 09:14:42.961637 26601 net.cpp:151] Setting up conv3_1
I0609 09:14:42.961668 26601 net.cpp:158] Top shape: 32 256 75 75 (46080000)
I0609 09:14:42.961671 26601 net.cpp:166] Memory required for data: 5160960128
I0609 09:14:42.961684 26601 layer_factory.hpp:77] Creating layer relu3_1
I0609 09:14:42.961699 26601 net.cpp:100] Creating Layer relu3_1
I0609 09:14:42.961705 26601 net.cpp:435] relu3_1 <- conv3_1
I0609 09:14:42.961716 26601 net.cpp:396] relu3_1 -> conv3_1 (in-place)
I0609 09:14:42.961726 26601 layer.hpp:71] 
I0609 09:14:42.962041 26601 net.cpp:151] Setting up relu3_1
I0609 09:14:42.962062 26601 net.cpp:158] Top shape: 32 256 75 75 (46080000)
I0609 09:14:42.962069 26601 net.cpp:166] Memory required for data: 5345280128
I0609 09:14:42.962074 26601 layer_factory.hpp:77] Creating layer conv3_2
I0609 09:14:42.962091 26601 net.cpp:100] Creating Layer conv3_2
I0609 09:14:42.962098 26601 net.cpp:435] conv3_2 <- conv3_1
I0609 09:14:42.962110 26601 net.cpp:409] conv3_2 -> conv3_2
I0609 09:14:42.962126 26601 layer.hpp:71] 
I0609 09:14:42.969558 26601 net.cpp:151] Setting up conv3_2
I0609 09:14:42.969589 26601 net.cpp:158] Top shape: 32 256 75 75 (46080000)
I0609 09:14:42.969596 26601 net.cpp:166] Memory required for data: 5529600128
I0609 09:14:42.969606 26601 layer_factory.hpp:77] Creating layer relu3_2
I0609 09:14:42.969617 26601 net.cpp:100] Creating Layer relu3_2
I0609 09:14:42.969624 26601 net.cpp:435] relu3_2 <- conv3_2
I0609 09:14:42.969635 26601 net.cpp:396] relu3_2 -> conv3_2 (in-place)
I0609 09:14:42.969645 26601 layer.hpp:71] 
I0609 09:14:42.970429 26601 net.cpp:151] Setting up relu3_2
I0609 09:14:42.970456 26601 net.cpp:158] Top shape: 32 256 75 75 (46080000)
I0609 09:14:42.970463 26601 net.cpp:166] Memory required for data: 5713920128
I0609 09:14:42.970468 26601 layer_factory.hpp:77] Creating layer conv3_3
I0609 09:14:42.970492 26601 net.cpp:100] Creating Layer conv3_3
I0609 09:14:42.970505 26601 net.cpp:435] conv3_3 <- conv3_2
I0609 09:14:42.970515 26601 net.cpp:409] conv3_3 -> conv3_3
I0609 09:14:42.970527 26601 layer.hpp:71] 
I0609 09:14:42.977639 26601 net.cpp:151] Setting up conv3_3
I0609 09:14:42.977663 26601 net.cpp:158] Top shape: 32 256 75 75 (46080000)
I0609 09:14:42.977669 26601 net.cpp:166] Memory required for data: 5898240128
I0609 09:14:42.977675 26601 layer_factory.hpp:77] Creating layer relu3_3
I0609 09:14:42.977684 26601 net.cpp:100] Creating Layer relu3_3
I0609 09:14:42.977689 26601 net.cpp:435] relu3_3 <- conv3_3
I0609 09:14:42.977696 26601 net.cpp:396] relu3_3 -> conv3_3 (in-place)
I0609 09:14:42.977706 26601 layer.hpp:71] 
I0609 09:14:42.978907 26601 net.cpp:151] Setting up relu3_3
I0609 09:14:42.978929 26601 net.cpp:158] Top shape: 32 256 75 75 (46080000)
I0609 09:14:42.978932 26601 net.cpp:166] Memory required for data: 6082560128
I0609 09:14:42.978936 26601 layer_factory.hpp:77] Creating layer pool3
I0609 09:14:42.978948 26601 net.cpp:100] Creating Layer pool3
I0609 09:14:42.978955 26601 net.cpp:435] pool3 <- conv3_3
I0609 09:14:42.978963 26601 net.cpp:409] pool3 -> pool3
I0609 09:14:42.978991 26601 layer.hpp:71] 
I0609 09:14:42.979058 26601 net.cpp:151] Setting up pool3
I0609 09:14:42.979077 26601 net.cpp:158] Top shape: 32 256 38 38 (11829248)
I0609 09:14:42.979084 26601 net.cpp:166] Memory required for data: 6129877120
I0609 09:14:42.979089 26601 layer_factory.hpp:77] Creating layer conv4_1
I0609 09:14:42.979105 26601 net.cpp:100] Creating Layer conv4_1
I0609 09:14:42.979111 26601 net.cpp:435] conv4_1 <- pool3
I0609 09:14:42.979123 26601 net.cpp:409] conv4_1 -> conv4_1
I0609 09:14:42.979135 26601 layer.hpp:71] 
I0609 09:14:42.990190 26601 net.cpp:151] Setting up conv4_1
I0609 09:14:42.990217 26601 net.cpp:158] Top shape: 32 512 38 38 (23658496)
I0609 09:14:42.990222 26601 net.cpp:166] Memory required for data: 6224511104
I0609 09:14:42.990231 26601 layer_factory.hpp:77] Creating layer relu4_1
I0609 09:14:42.990239 26601 net.cpp:100] Creating Layer relu4_1
I0609 09:14:42.990247 26601 net.cpp:435] relu4_1 <- conv4_1
I0609 09:14:42.990257 26601 net.cpp:396] relu4_1 -> conv4_1 (in-place)
I0609 09:14:42.990268 26601 layer.hpp:71] 
I0609 09:14:42.990546 26601 net.cpp:151] Setting up relu4_1
I0609 09:14:42.990569 26601 net.cpp:158] Top shape: 32 512 38 38 (23658496)
I0609 09:14:42.990576 26601 net.cpp:166] Memory required for data: 6319145088
I0609 09:14:42.990582 26601 layer_factory.hpp:77] Creating layer conv4_2
I0609 09:14:42.990599 26601 net.cpp:100] Creating Layer conv4_2
I0609 09:14:42.990605 26601 net.cpp:435] conv4_2 <- conv4_1
I0609 09:14:42.990618 26601 net.cpp:409] conv4_2 -> conv4_2
I0609 09:14:42.990633 26601 layer.hpp:71] 
I0609 09:14:43.009824 26601 net.cpp:151] Setting up conv4_2
I0609 09:14:43.009886 26601 net.cpp:158] Top shape: 32 512 38 38 (23658496)
I0609 09:14:43.009892 26601 net.cpp:166] Memory required for data: 6413779072
I0609 09:14:43.009912 26601 layer_factory.hpp:77] Creating layer relu4_2
I0609 09:14:43.009927 26601 net.cpp:100] Creating Layer relu4_2
I0609 09:14:43.009934 26601 net.cpp:435] relu4_2 <- conv4_2
I0609 09:14:43.009948 26601 net.cpp:396] relu4_2 -> conv4_2 (in-place)
I0609 09:14:43.009985 26601 layer.hpp:71] 
I0609 09:14:43.010735 26601 net.cpp:151] Setting up relu4_2
I0609 09:14:43.010757 26601 net.cpp:158] Top shape: 32 512 38 38 (23658496)
I0609 09:14:43.010761 26601 net.cpp:166] Memory required for data: 6508413056
I0609 09:14:43.010764 26601 layer_factory.hpp:77] Creating layer conv4_3
I0609 09:14:43.010781 26601 net.cpp:100] Creating Layer conv4_3
I0609 09:14:43.010787 26601 net.cpp:435] conv4_3 <- conv4_2
I0609 09:14:43.010800 26601 net.cpp:409] conv4_3 -> conv4_3
I0609 09:14:43.010814 26601 layer.hpp:71] 
I0609 09:14:43.029830 26601 net.cpp:151] Setting up conv4_3
I0609 09:14:43.029904 26601 net.cpp:158] Top shape: 32 512 38 38 (23658496)
I0609 09:14:43.029909 26601 net.cpp:166] Memory required for data: 6603047040
I0609 09:14:43.029922 26601 layer_factory.hpp:77] Creating layer relu4_3
I0609 09:14:43.029937 26601 net.cpp:100] Creating Layer relu4_3
I0609 09:14:43.029950 26601 net.cpp:435] relu4_3 <- conv4_3
I0609 09:14:43.029963 26601 net.cpp:396] relu4_3 -> conv4_3 (in-place)
I0609 09:14:43.029990 26601 layer.hpp:71] 
I0609 09:14:43.030268 26601 net.cpp:151] Setting up relu4_3
I0609 09:14:43.030290 26601 net.cpp:158] Top shape: 32 512 38 38 (23658496)
I0609 09:14:43.030297 26601 net.cpp:166] Memory required for data: 6697681024
I0609 09:14:43.030303 26601 layer_factory.hpp:77] Creating layer conv4_3_relu4_3_0_split
I0609 09:14:43.030320 26601 net.cpp:100] Creating Layer conv4_3_relu4_3_0_split
I0609 09:14:43.030334 26601 net.cpp:435] conv4_3_relu4_3_0_split <- conv4_3
I0609 09:14:43.030344 26601 net.cpp:409] conv4_3_relu4_3_0_split -> conv4_3_relu4_3_0_split_0
I0609 09:14:43.030359 26601 net.cpp:409] conv4_3_relu4_3_0_split -> conv4_3_relu4_3_0_split_1
I0609 09:14:43.030378 26601 layer.hpp:71] 
I0609 09:14:43.030443 26601 net.cpp:151] Setting up conv4_3_relu4_3_0_split
I0609 09:14:43.030462 26601 net.cpp:158] Top shape: 32 512 38 38 (23658496)
I0609 09:14:43.030469 26601 net.cpp:158] Top shape: 32 512 38 38 (23658496)
I0609 09:14:43.030475 26601 net.cpp:166] Memory required for data: 6886948992
I0609 09:14:43.030480 26601 layer_factory.hpp:77] Creating layer pool4
I0609 09:14:43.030493 26601 net.cpp:100] Creating Layer pool4
I0609 09:14:43.030499 26601 net.cpp:435] pool4 <- conv4_3_relu4_3_0_split_0
I0609 09:14:43.030509 26601 net.cpp:409] pool4 -> pool4
I0609 09:14:43.030519 26601 layer.hpp:71] 
I0609 09:14:43.030580 26601 net.cpp:151] Setting up pool4
I0609 09:14:43.030596 26601 net.cpp:158] Top shape: 32 512 19 19 (5914624)
I0609 09:14:43.030602 26601 net.cpp:166] Memory required for data: 6910607488
I0609 09:14:43.030608 26601 layer_factory.hpp:77] Creating layer conv5_1
I0609 09:14:43.030625 26601 net.cpp:100] Creating Layer conv5_1
I0609 09:14:43.030632 26601 net.cpp:435] conv5_1 <- pool4
I0609 09:14:43.030645 26601 net.cpp:409] conv5_1 -> conv5_1
I0609 09:14:43.030663 26601 layer.hpp:71] 
I0609 09:14:43.049918 26601 net.cpp:151] Setting up conv5_1
I0609 09:14:43.049970 26601 net.cpp:158] Top shape: 32 512 19 19 (5914624)
I0609 09:14:43.049976 26601 net.cpp:166] Memory required for data: 6934265984
I0609 09:14:43.049988 26601 layer_factory.hpp:77] Creating layer relu5_1
I0609 09:14:43.050000 26601 net.cpp:100] Creating Layer relu5_1
I0609 09:14:43.050005 26601 net.cpp:435] relu5_1 <- conv5_1
I0609 09:14:43.050014 26601 net.cpp:396] relu5_1 -> conv5_1 (in-place)
I0609 09:14:43.050025 26601 layer.hpp:71] 
I0609 09:14:43.050786 26601 net.cpp:151] Setting up relu5_1
I0609 09:14:43.050808 26601 net.cpp:158] Top shape: 32 512 19 19 (5914624)
I0609 09:14:43.050813 26601 net.cpp:166] Memory required for data: 6957924480
I0609 09:14:43.050817 26601 layer_factory.hpp:77] Creating layer conv5_2
I0609 09:14:43.050834 26601 net.cpp:100] Creating Layer conv5_2
I0609 09:14:43.050843 26601 net.cpp:435] conv5_2 <- conv5_1
I0609 09:14:43.050854 26601 net.cpp:409] conv5_2 -> conv5_2
I0609 09:14:43.050868 26601 layer.hpp:71] 
I0609 09:14:43.071552 26601 net.cpp:151] Setting up conv5_2
I0609 09:14:43.071593 26601 net.cpp:158] Top shape: 32 512 19 19 (5914624)
I0609 09:14:43.071624 26601 net.cpp:166] Memory required for data: 6981582976
I0609 09:14:43.071638 26601 layer_factory.hpp:77] Creating layer relu5_2
I0609 09:14:43.071655 26601 net.cpp:100] Creating Layer relu5_2
I0609 09:14:43.071662 26601 net.cpp:435] relu5_2 <- conv5_2
I0609 09:14:43.071671 26601 net.cpp:396] relu5_2 -> conv5_2 (in-place)
I0609 09:14:43.071683 26601 layer.hpp:71] 
I0609 09:14:43.072432 26601 net.cpp:151] Setting up relu5_2
I0609 09:14:43.072459 26601 net.cpp:158] Top shape: 32 512 19 19 (5914624)
I0609 09:14:43.072464 26601 net.cpp:166] Memory required for data: 7005241472
I0609 09:14:43.072468 26601 layer_factory.hpp:77] Creating layer conv5_3
I0609 09:14:43.072484 26601 net.cpp:100] Creating Layer conv5_3
I0609 09:14:43.072491 26601 net.cpp:435] conv5_3 <- conv5_2
I0609 09:14:43.072506 26601 net.cpp:409] conv5_3 -> conv5_3
I0609 09:14:43.072520 26601 layer.hpp:71] 
I0609 09:14:43.092044 26601 net.cpp:151] Setting up conv5_3
I0609 09:14:43.092089 26601 net.cpp:158] Top shape: 32 512 19 19 (5914624)
I0609 09:14:43.092097 26601 net.cpp:166] Memory required for data: 7028899968
I0609 09:14:43.092108 26601 layer_factory.hpp:77] Creating layer relu5_3
I0609 09:14:43.092126 26601 net.cpp:100] Creating Layer relu5_3
I0609 09:14:43.092134 26601 net.cpp:435] relu5_3 <- conv5_3
I0609 09:14:43.092146 26601 net.cpp:396] relu5_3 -> conv5_3 (in-place)
I0609 09:14:43.092159 26601 layer.hpp:71] 
I0609 09:14:43.092475 26601 net.cpp:151] Setting up relu5_3
I0609 09:14:43.092500 26601 net.cpp:158] Top shape: 32 512 19 19 (5914624)
I0609 09:14:43.092507 26601 net.cpp:166] Memory required for data: 7052558464
I0609 09:14:43.092514 26601 layer_factory.hpp:77] Creating layer pool5
I0609 09:14:43.092525 26601 net.cpp:100] Creating Layer pool5
I0609 09:14:43.092531 26601 net.cpp:435] pool5 <- conv5_3
I0609 09:14:43.092545 26601 net.cpp:409] pool5 -> pool5
I0609 09:14:43.092557 26601 layer.hpp:71] 
I0609 09:14:43.092627 26601 net.cpp:151] Setting up pool5
I0609 09:14:43.092643 26601 net.cpp:158] Top shape: 32 512 19 19 (5914624)
I0609 09:14:43.092650 26601 net.cpp:166] Memory required for data: 7076216960
I0609 09:14:43.092655 26601 layer_factory.hpp:77] Creating layer fc6
I0609 09:14:43.092676 26601 net.cpp:100] Creating Layer fc6
I0609 09:14:43.092684 26601 net.cpp:435] fc6 <- pool5
I0609 09:14:43.092696 26601 net.cpp:409] fc6 -> fc6
I0609 09:14:43.092707 26601 layer.hpp:71] 
I0609 09:14:43.129925 26601 net.cpp:151] Setting up fc6
I0609 09:14:43.129981 26601 net.cpp:158] Top shape: 32 1024 19 19 (11829248)
I0609 09:14:43.129986 26601 net.cpp:166] Memory required for data: 7123533952
I0609 09:14:43.129997 26601 layer_factory.hpp:77] Creating layer relu6
I0609 09:14:43.130010 26601 net.cpp:100] Creating Layer relu6
I0609 09:14:43.130017 26601 net.cpp:435] relu6 <- fc6
I0609 09:14:43.130024 26601 net.cpp:396] relu6 -> fc6 (in-place)
I0609 09:14:43.130038 26601 layer.hpp:71] 
I0609 09:14:43.130956 26601 net.cpp:151] Setting up relu6
I0609 09:14:43.130980 26601 net.cpp:158] Top shape: 32 1024 19 19 (11829248)
I0609 09:14:43.130985 26601 net.cpp:166] Memory required for data: 7170850944
I0609 09:14:43.130990 26601 layer_factory.hpp:77] Creating layer fc7
I0609 09:14:43.131008 26601 net.cpp:100] Creating Layer fc7
I0609 09:14:43.131016 26601 net.cpp:435] fc7 <- fc6
I0609 09:14:43.131027 26601 net.cpp:409] fc7 -> fc7
I0609 09:14:43.131044 26601 layer.hpp:71] 
I0609 09:14:43.140985 26601 net.cpp:151] Setting up fc7
I0609 09:14:43.141039 26601 net.cpp:158] Top shape: 32 1024 19 19 (11829248)
I0609 09:14:43.141046 26601 net.cpp:166] Memory required for data: 7218167936
I0609 09:14:43.141057 26601 layer_factory.hpp:77] Creating layer relu7
I0609 09:14:43.141072 26601 net.cpp:100] Creating Layer relu7
I0609 09:14:43.141078 26601 net.cpp:435] relu7 <- fc7
I0609 09:14:43.141089 26601 net.cpp:396] relu7 -> fc7 (in-place)
I0609 09:14:43.141103 26601 layer.hpp:71] 
I0609 09:14:43.141381 26601 net.cpp:151] Setting up relu7
I0609 09:14:43.141403 26601 net.cpp:158] Top shape: 32 1024 19 19 (11829248)
I0609 09:14:43.141410 26601 net.cpp:166] Memory required for data: 7265484928
I0609 09:14:43.141448 26601 layer_factory.hpp:77] Creating layer fc7_relu7_0_split
I0609 09:14:43.141460 26601 net.cpp:100] Creating Layer fc7_relu7_0_split
I0609 09:14:43.141466 26601 net.cpp:435] fc7_relu7_0_split <- fc7
I0609 09:14:43.141480 26601 net.cpp:409] fc7_relu7_0_split -> fc7_relu7_0_split_0
I0609 09:14:43.141494 26601 net.cpp:409] fc7_relu7_0_split -> fc7_relu7_0_split_1
I0609 09:14:43.141516 26601 net.cpp:409] fc7_relu7_0_split -> fc7_relu7_0_split_2
I0609 09:14:43.141535 26601 net.cpp:409] fc7_relu7_0_split -> fc7_relu7_0_split_3
I0609 09:14:43.141547 26601 layer.hpp:71] 
I0609 09:14:43.141656 26601 net.cpp:151] Setting up fc7_relu7_0_split
I0609 09:14:43.141705 26601 net.cpp:158] Top shape: 32 1024 19 19 (11829248)
I0609 09:14:43.141734 26601 net.cpp:158] Top shape: 32 1024 19 19 (11829248)
I0609 09:14:43.141760 26601 net.cpp:158] Top shape: 32 1024 19 19 (11829248)
I0609 09:14:43.141784 26601 net.cpp:158] Top shape: 32 1024 19 19 (11829248)
I0609 09:14:43.141805 26601 net.cpp:166] Memory required for data: 7454752896
I0609 09:14:43.141831 26601 layer_factory.hpp:77] Creating layer conv6_1
I0609 09:14:43.141896 26601 net.cpp:100] Creating Layer conv6_1
I0609 09:14:43.141924 26601 net.cpp:435] conv6_1 <- fc7_relu7_0_split_0
I0609 09:14:43.141958 26601 net.cpp:409] conv6_1 -> conv6_1
I0609 09:14:43.141989 26601 layer.hpp:71] 
I0609 09:14:43.146369 26601 net.cpp:151] Setting up conv6_1
I0609 09:14:43.146420 26601 net.cpp:158] Top shape: 32 256 19 19 (2957312)
I0609 09:14:43.146426 26601 net.cpp:166] Memory required for data: 7466582144
I0609 09:14:43.146440 26601 layer_factory.hpp:77] Creating layer conv6_1_relu
I0609 09:14:43.146456 26601 net.cpp:100] Creating Layer conv6_1_relu
I0609 09:14:43.146463 26601 net.cpp:435] conv6_1_relu <- conv6_1
I0609 09:14:43.146477 26601 net.cpp:396] conv6_1_relu -> conv6_1 (in-place)
I0609 09:14:43.146492 26601 layer.hpp:71] 
I0609 09:14:43.147198 26601 net.cpp:151] Setting up conv6_1_relu
I0609 09:14:43.147222 26601 net.cpp:158] Top shape: 32 256 19 19 (2957312)
I0609 09:14:43.147228 26601 net.cpp:166] Memory required for data: 7478411392
I0609 09:14:43.147234 26601 layer_factory.hpp:77] Creating layer conv6_2
I0609 09:14:43.147258 26601 net.cpp:100] Creating Layer conv6_2
I0609 09:14:43.147265 26601 net.cpp:435] conv6_2 <- conv6_1
I0609 09:14:43.147279 26601 net.cpp:409] conv6_2 -> conv6_2
I0609 09:14:43.147294 26601 layer.hpp:71] 
I0609 09:14:43.157992 26601 net.cpp:151] Setting up conv6_2
I0609 09:14:43.158051 26601 net.cpp:158] Top shape: 32 512 10 10 (1638400)
I0609 09:14:43.158056 26601 net.cpp:166] Memory required for data: 7484964992
I0609 09:14:43.158087 26601 layer_factory.hpp:77] Creating layer conv6_2_relu
I0609 09:14:43.158104 26601 net.cpp:100] Creating Layer conv6_2_relu
I0609 09:14:43.158112 26601 net.cpp:435] conv6_2_relu <- conv6_2
I0609 09:14:43.158123 26601 net.cpp:396] conv6_2_relu -> conv6_2 (in-place)
I0609 09:14:43.158135 26601 layer.hpp:71] 
I0609 09:14:43.158830 26601 net.cpp:151] Setting up conv6_2_relu
I0609 09:14:43.158855 26601 net.cpp:158] Top shape: 32 512 10 10 (1638400)
I0609 09:14:43.158862 26601 net.cpp:166] Memory required for data: 7491518592
I0609 09:14:43.158869 26601 layer_factory.hpp:77] Creating layer conv6_2_conv6_2_relu_0_split
I0609 09:14:43.158880 26601 net.cpp:100] Creating Layer conv6_2_conv6_2_relu_0_split
I0609 09:14:43.158887 26601 net.cpp:435] conv6_2_conv6_2_relu_0_split <- conv6_2
I0609 09:14:43.158900 26601 net.cpp:409] conv6_2_conv6_2_relu_0_split -> conv6_2_conv6_2_relu_0_split_0
I0609 09:14:43.158915 26601 net.cpp:409] conv6_2_conv6_2_relu_0_split -> conv6_2_conv6_2_relu_0_split_1
I0609 09:14:43.158927 26601 net.cpp:409] conv6_2_conv6_2_relu_0_split -> conv6_2_conv6_2_relu_0_split_2
I0609 09:14:43.158944 26601 net.cpp:409] conv6_2_conv6_2_relu_0_split -> conv6_2_conv6_2_relu_0_split_3
I0609 09:14:43.158956 26601 layer.hpp:71] 
I0609 09:14:43.159073 26601 net.cpp:151] Setting up conv6_2_conv6_2_relu_0_split
I0609 09:14:43.159095 26601 net.cpp:158] Top shape: 32 512 10 10 (1638400)
I0609 09:14:43.159132 26601 net.cpp:158] Top shape: 32 512 10 10 (1638400)
I0609 09:14:43.159140 26601 net.cpp:158] Top shape: 32 512 10 10 (1638400)
I0609 09:14:43.159147 26601 net.cpp:158] Top shape: 32 512 10 10 (1638400)
I0609 09:14:43.159153 26601 net.cpp:166] Memory required for data: 7517732992
I0609 09:14:43.159159 26601 layer_factory.hpp:77] Creating layer conv7_1
I0609 09:14:43.159179 26601 net.cpp:100] Creating Layer conv7_1
I0609 09:14:43.159186 26601 net.cpp:435] conv7_1 <- conv6_2_conv6_2_relu_0_split_0
I0609 09:14:43.159202 26601 net.cpp:409] conv7_1 -> conv7_1
I0609 09:14:43.159224 26601 layer.hpp:71] 
I0609 09:14:43.161398 26601 net.cpp:151] Setting up conv7_1
I0609 09:14:43.161442 26601 net.cpp:158] Top shape: 32 128 10 10 (409600)
I0609 09:14:43.161459 26601 net.cpp:166] Memory required for data: 7519371392
I0609 09:14:43.161471 26601 layer_factory.hpp:77] Creating layer conv7_1_relu
I0609 09:14:43.161484 26601 net.cpp:100] Creating Layer conv7_1_relu
I0609 09:14:43.161491 26601 net.cpp:435] conv7_1_relu <- conv7_1
I0609 09:14:43.161501 26601 net.cpp:396] conv7_1_relu -> conv7_1 (in-place)
I0609 09:14:43.161512 26601 layer.hpp:71] 
I0609 09:14:43.161731 26601 net.cpp:151] Setting up conv7_1_relu
I0609 09:14:43.161749 26601 net.cpp:158] Top shape: 32 128 10 10 (409600)
I0609 09:14:43.161756 26601 net.cpp:166] Memory required for data: 7521009792
I0609 09:14:43.161762 26601 layer_factory.hpp:77] Creating layer conv7_2
I0609 09:14:43.161780 26601 net.cpp:100] Creating Layer conv7_2
I0609 09:14:43.161787 26601 net.cpp:435] conv7_2 <- conv7_1
I0609 09:14:43.161799 26601 net.cpp:409] conv7_2 -> conv7_2
I0609 09:14:43.161811 26601 layer.hpp:71] 
I0609 09:14:43.165938 26601 net.cpp:151] Setting up conv7_2
I0609 09:14:43.165967 26601 net.cpp:158] Top shape: 32 256 5 5 (204800)
I0609 09:14:43.165976 26601 net.cpp:166] Memory required for data: 7521828992
I0609 09:14:43.165987 26601 layer_factory.hpp:77] Creating layer conv7_2_relu
I0609 09:14:43.166000 26601 net.cpp:100] Creating Layer conv7_2_relu
I0609 09:14:43.166008 26601 net.cpp:435] conv7_2_relu <- conv7_2
I0609 09:14:43.166018 26601 net.cpp:396] conv7_2_relu -> conv7_2 (in-place)
I0609 09:14:43.166029 26601 layer.hpp:71] 
I0609 09:14:43.166723 26601 net.cpp:151] Setting up conv7_2_relu
I0609 09:14:43.166748 26601 net.cpp:158] Top shape: 32 256 5 5 (204800)
I0609 09:14:43.166755 26601 net.cpp:166] Memory required for data: 7522648192
I0609 09:14:43.166761 26601 layer_factory.hpp:77] Creating layer conv7_2_conv7_2_relu_0_split
I0609 09:14:43.166772 26601 net.cpp:100] Creating Layer conv7_2_conv7_2_relu_0_split
I0609 09:14:43.166779 26601 net.cpp:435] conv7_2_conv7_2_relu_0_split <- conv7_2
I0609 09:14:43.166793 26601 net.cpp:409] conv7_2_conv7_2_relu_0_split -> conv7_2_conv7_2_relu_0_split_0
I0609 09:14:43.166806 26601 net.cpp:409] conv7_2_conv7_2_relu_0_split -> conv7_2_conv7_2_relu_0_split_1
I0609 09:14:43.166817 26601 net.cpp:409] conv7_2_conv7_2_relu_0_split -> conv7_2_conv7_2_relu_0_split_2
I0609 09:14:43.166829 26601 net.cpp:409] conv7_2_conv7_2_relu_0_split -> conv7_2_conv7_2_relu_0_split_3
I0609 09:14:43.166842 26601 layer.hpp:71] 
I0609 09:14:43.166935 26601 net.cpp:151] Setting up conv7_2_conv7_2_relu_0_split
I0609 09:14:43.166951 26601 net.cpp:158] Top shape: 32 256 5 5 (204800)
I0609 09:14:43.166959 26601 net.cpp:158] Top shape: 32 256 5 5 (204800)
I0609 09:14:43.166966 26601 net.cpp:158] Top shape: 32 256 5 5 (204800)
I0609 09:14:43.166973 26601 net.cpp:158] Top shape: 32 256 5 5 (204800)
I0609 09:14:43.166977 26601 net.cpp:166] Memory required for data: 7525924992
I0609 09:14:43.166983 26601 layer_factory.hpp:77] Creating layer conv8_1
I0609 09:14:43.167002 26601 net.cpp:100] Creating Layer conv8_1
I0609 09:14:43.167009 26601 net.cpp:435] conv8_1 <- conv7_2_conv7_2_relu_0_split_0
I0609 09:14:43.167023 26601 net.cpp:409] conv8_1 -> conv8_1
I0609 09:14:43.167037 26601 layer.hpp:71] 
I0609 09:14:43.169514 26601 net.cpp:151] Setting up conv8_1
I0609 09:14:43.169541 26601 net.cpp:158] Top shape: 32 128 5 5 (102400)
I0609 09:14:43.169548 26601 net.cpp:166] Memory required for data: 7526334592
I0609 09:14:43.169581 26601 layer_factory.hpp:77] Creating layer conv8_1_relu
I0609 09:14:43.169595 26601 net.cpp:100] Creating Layer conv8_1_relu
I0609 09:14:43.169602 26601 net.cpp:435] conv8_1_relu <- conv8_1
I0609 09:14:43.169613 26601 net.cpp:396] conv8_1_relu -> conv8_1 (in-place)
I0609 09:14:43.169632 26601 layer.hpp:71] 
I0609 09:14:43.169903 26601 net.cpp:151] Setting up conv8_1_relu
I0609 09:14:43.169922 26601 net.cpp:158] Top shape: 32 128 5 5 (102400)
I0609 09:14:43.169929 26601 net.cpp:166] Memory required for data: 7526744192
I0609 09:14:43.169934 26601 layer_factory.hpp:77] Creating layer conv8_2
I0609 09:14:43.169953 26601 net.cpp:100] Creating Layer conv8_2
I0609 09:14:43.169960 26601 net.cpp:435] conv8_2 <- conv8_1
I0609 09:14:43.169971 26601 net.cpp:409] conv8_2 -> conv8_2
I0609 09:14:43.169983 26601 layer.hpp:71] 
I0609 09:14:43.174495 26601 net.cpp:151] Setting up conv8_2
I0609 09:14:43.174526 26601 net.cpp:158] Top shape: 32 256 3 3 (73728)
I0609 09:14:43.174533 26601 net.cpp:166] Memory required for data: 7527039104
I0609 09:14:43.174546 26601 layer_factory.hpp:77] Creating layer conv8_2_relu
I0609 09:14:43.174561 26601 net.cpp:100] Creating Layer conv8_2_relu
I0609 09:14:43.174568 26601 net.cpp:435] conv8_2_relu <- conv8_2
I0609 09:14:43.174576 26601 net.cpp:396] conv8_2_relu -> conv8_2 (in-place)
I0609 09:14:43.174587 26601 layer.hpp:71] 
I0609 09:14:43.175283 26601 net.cpp:151] Setting up conv8_2_relu
I0609 09:14:43.175305 26601 net.cpp:158] Top shape: 32 256 3 3 (73728)
I0609 09:14:43.175314 26601 net.cpp:166] Memory required for data: 7527334016
I0609 09:14:43.175320 26601 layer_factory.hpp:77] Creating layer conv8_2_conv8_2_relu_0_split
I0609 09:14:43.175333 26601 net.cpp:100] Creating Layer conv8_2_conv8_2_relu_0_split
I0609 09:14:43.175339 26601 net.cpp:435] conv8_2_conv8_2_relu_0_split <- conv8_2
I0609 09:14:43.175353 26601 net.cpp:409] conv8_2_conv8_2_relu_0_split -> conv8_2_conv8_2_relu_0_split_0
I0609 09:14:43.175366 26601 net.cpp:409] conv8_2_conv8_2_relu_0_split -> conv8_2_conv8_2_relu_0_split_1
I0609 09:14:43.175379 26601 net.cpp:409] conv8_2_conv8_2_relu_0_split -> conv8_2_conv8_2_relu_0_split_2
I0609 09:14:43.175395 26601 net.cpp:409] conv8_2_conv8_2_relu_0_split -> conv8_2_conv8_2_relu_0_split_3
I0609 09:14:43.175407 26601 layer.hpp:71] 
I0609 09:14:43.175499 26601 net.cpp:151] Setting up conv8_2_conv8_2_relu_0_split
I0609 09:14:43.175515 26601 net.cpp:158] Top shape: 32 256 3 3 (73728)
I0609 09:14:43.175523 26601 net.cpp:158] Top shape: 32 256 3 3 (73728)
I0609 09:14:43.175529 26601 net.cpp:158] Top shape: 32 256 3 3 (73728)
I0609 09:14:43.175536 26601 net.cpp:158] Top shape: 32 256 3 3 (73728)
I0609 09:14:43.175542 26601 net.cpp:166] Memory required for data: 7528513664
I0609 09:14:43.175547 26601 layer_factory.hpp:77] Creating layer conv9_1
I0609 09:14:43.175567 26601 net.cpp:100] Creating Layer conv9_1
I0609 09:14:43.175575 26601 net.cpp:435] conv9_1 <- conv8_2_conv8_2_relu_0_split_0
I0609 09:14:43.175590 26601 net.cpp:409] conv9_1 -> conv9_1
I0609 09:14:43.175604 26601 layer.hpp:71] 
I0609 09:14:43.177637 26601 net.cpp:151] Setting up conv9_1
I0609 09:14:43.177664 26601 net.cpp:158] Top shape: 32 128 3 3 (36864)
I0609 09:14:43.177672 26601 net.cpp:166] Memory required for data: 7528661120
I0609 09:14:43.177683 26601 layer_factory.hpp:77] Creating layer conv9_1_relu
I0609 09:14:43.177693 26601 net.cpp:100] Creating Layer conv9_1_relu
I0609 09:14:43.177700 26601 net.cpp:435] conv9_1_relu <- conv9_1
I0609 09:14:43.177712 26601 net.cpp:396] conv9_1_relu -> conv9_1 (in-place)
I0609 09:14:43.177723 26601 layer.hpp:71] 
I0609 09:14:43.178426 26601 net.cpp:151] Setting up conv9_1_relu
I0609 09:14:43.178449 26601 net.cpp:158] Top shape: 32 128 3 3 (36864)
I0609 09:14:43.178457 26601 net.cpp:166] Memory required for data: 7528808576
I0609 09:14:43.178462 26601 layer_factory.hpp:77] Creating layer conv9_2
I0609 09:14:43.178480 26601 net.cpp:100] Creating Layer conv9_2
I0609 09:14:43.178488 26601 net.cpp:435] conv9_2 <- conv9_1
I0609 09:14:43.178531 26601 net.cpp:409] conv9_2 -> conv9_2
I0609 09:14:43.178546 26601 layer.hpp:71] 
I0609 09:14:43.182632 26601 net.cpp:151] Setting up conv9_2
I0609 09:14:43.182658 26601 net.cpp:158] Top shape: 32 256 1 1 (8192)
I0609 09:14:43.182667 26601 net.cpp:166] Memory required for data: 7528841344
I0609 09:14:43.182677 26601 layer_factory.hpp:77] Creating layer conv9_2_relu
I0609 09:14:43.182687 26601 net.cpp:100] Creating Layer conv9_2_relu
I0609 09:14:43.182695 26601 net.cpp:435] conv9_2_relu <- conv9_2
I0609 09:14:43.182709 26601 net.cpp:396] conv9_2_relu -> conv9_2 (in-place)
I0609 09:14:43.182721 26601 layer.hpp:71] 
I0609 09:14:43.182940 26601 net.cpp:151] Setting up conv9_2_relu
I0609 09:14:43.182960 26601 net.cpp:158] Top shape: 32 256 1 1 (8192)
I0609 09:14:43.182966 26601 net.cpp:166] Memory required for data: 7528874112
I0609 09:14:43.182972 26601 layer_factory.hpp:77] Creating layer conv9_2_conv9_2_relu_0_split
I0609 09:14:43.182984 26601 net.cpp:100] Creating Layer conv9_2_conv9_2_relu_0_split
I0609 09:14:43.182991 26601 net.cpp:435] conv9_2_conv9_2_relu_0_split <- conv9_2
I0609 09:14:43.183002 26601 net.cpp:409] conv9_2_conv9_2_relu_0_split -> conv9_2_conv9_2_relu_0_split_0
I0609 09:14:43.183014 26601 net.cpp:409] conv9_2_conv9_2_relu_0_split -> conv9_2_conv9_2_relu_0_split_1
I0609 09:14:43.183027 26601 net.cpp:409] conv9_2_conv9_2_relu_0_split -> conv9_2_conv9_2_relu_0_split_2
I0609 09:14:43.183039 26601 layer.hpp:71] 
I0609 09:14:43.183120 26601 net.cpp:151] Setting up conv9_2_conv9_2_relu_0_split
I0609 09:14:43.183135 26601 net.cpp:158] Top shape: 32 256 1 1 (8192)
I0609 09:14:43.183142 26601 net.cpp:158] Top shape: 32 256 1 1 (8192)
I0609 09:14:43.183148 26601 net.cpp:158] Top shape: 32 256 1 1 (8192)
I0609 09:14:43.183154 26601 net.cpp:166] Memory required for data: 7528972416
I0609 09:14:43.183159 26601 layer_factory.hpp:77] Creating layer conv4_3_norm
I0609 09:14:43.183173 26601 net.cpp:100] Creating Layer conv4_3_norm
I0609 09:14:43.183181 26601 net.cpp:435] conv4_3_norm <- conv4_3_relu4_3_0_split_1
I0609 09:14:43.183192 26601 net.cpp:409] conv4_3_norm -> conv4_3_norm
I0609 09:14:43.183207 26601 layer.hpp:71] 
I0609 09:14:43.183416 26601 net.cpp:151] Setting up conv4_3_norm
I0609 09:14:43.183434 26601 net.cpp:158] Top shape: 32 512 38 38 (23658496)
I0609 09:14:43.183440 26601 net.cpp:166] Memory required for data: 7623606400
I0609 09:14:43.183449 26601 layer_factory.hpp:77] Creating layer conv4_3_norm_conv4_3_norm_0_split
I0609 09:14:43.183457 26601 net.cpp:100] Creating Layer conv4_3_norm_conv4_3_norm_0_split
I0609 09:14:43.183464 26601 net.cpp:435] conv4_3_norm_conv4_3_norm_0_split <- conv4_3_norm
I0609 09:14:43.183473 26601 net.cpp:409] conv4_3_norm_conv4_3_norm_0_split -> conv4_3_norm_conv4_3_norm_0_split_0
I0609 09:14:43.183487 26601 net.cpp:409] conv4_3_norm_conv4_3_norm_0_split -> conv4_3_norm_conv4_3_norm_0_split_1
I0609 09:14:43.183501 26601 net.cpp:409] conv4_3_norm_conv4_3_norm_0_split -> conv4_3_norm_conv4_3_norm_0_split_2
I0609 09:14:43.183511 26601 layer.hpp:71] 
I0609 09:14:43.183578 26601 net.cpp:151] Setting up conv4_3_norm_conv4_3_norm_0_split
I0609 09:14:43.183593 26601 net.cpp:158] Top shape: 32 512 38 38 (23658496)
I0609 09:14:43.183600 26601 net.cpp:158] Top shape: 32 512 38 38 (23658496)
I0609 09:14:43.183606 26601 net.cpp:158] Top shape: 32 512 38 38 (23658496)
I0609 09:14:43.183614 26601 net.cpp:166] Memory required for data: 7907508352
I0609 09:14:43.183619 26601 layer_factory.hpp:77] Creating layer conv4_3_norm_mbox_loc
I0609 09:14:43.183635 26601 net.cpp:100] Creating Layer conv4_3_norm_mbox_loc
I0609 09:14:43.183642 26601 net.cpp:435] conv4_3_norm_mbox_loc <- conv4_3_norm_conv4_3_norm_0_split_0
I0609 09:14:43.183662 26601 net.cpp:409] conv4_3_norm_mbox_loc -> conv4_3_norm_mbox_loc
I0609 09:14:43.183681 26601 layer.hpp:71] 
I0609 09:14:43.186054 26601 net.cpp:151] Setting up conv4_3_norm_mbox_loc
I0609 09:14:43.186076 26601 net.cpp:158] Top shape: 32 16 38 38 (739328)
I0609 09:14:43.186085 26601 net.cpp:166] Memory required for data: 7910465664
I0609 09:14:43.186095 26601 layer_factory.hpp:77] Creating layer conv4_3_norm_mbox_loc_perm
I0609 09:14:43.186125 26601 net.cpp:100] Creating Layer conv4_3_norm_mbox_loc_perm
I0609 09:14:43.186133 26601 net.cpp:435] conv4_3_norm_mbox_loc_perm <- conv4_3_norm_mbox_loc
I0609 09:14:43.186148 26601 net.cpp:409] conv4_3_norm_mbox_loc_perm -> conv4_3_norm_mbox_loc_perm
I0609 09:14:43.186167 26601 layer.hpp:71] 
I0609 09:14:43.186305 26601 net.cpp:151] Setting up conv4_3_norm_mbox_loc_perm
I0609 09:14:43.186319 26601 net.cpp:158] Top shape: 32 38 38 16 (739328)
I0609 09:14:43.186326 26601 net.cpp:166] Memory required for data: 7913422976
I0609 09:14:43.186331 26601 layer_factory.hpp:77] Creating layer conv4_3_norm_mbox_loc_flat
I0609 09:14:43.186342 26601 net.cpp:100] Creating Layer conv4_3_norm_mbox_loc_flat
I0609 09:14:43.186348 26601 net.cpp:435] conv4_3_norm_mbox_loc_flat <- conv4_3_norm_mbox_loc_perm
I0609 09:14:43.186362 26601 net.cpp:409] conv4_3_norm_mbox_loc_flat -> conv4_3_norm_mbox_loc_flat
I0609 09:14:43.186395 26601 layer.hpp:71] 
I0609 09:14:43.186440 26601 net.cpp:151] Setting up conv4_3_norm_mbox_loc_flat
I0609 09:14:43.186455 26601 net.cpp:158] Top shape: 32 23104 (739328)
I0609 09:14:43.186462 26601 net.cpp:166] Memory required for data: 7916380288
I0609 09:14:43.186468 26601 layer_factory.hpp:77] Creating layer conv4_3_norm_mbox_conf
I0609 09:14:43.186499 26601 net.cpp:100] Creating Layer conv4_3_norm_mbox_conf
I0609 09:14:43.186511 26601 net.cpp:435] conv4_3_norm_mbox_conf <- conv4_3_norm_conv4_3_norm_0_split_1
I0609 09:14:43.186524 26601 net.cpp:409] conv4_3_norm_mbox_conf -> conv4_3_norm_mbox_conf
I0609 09:14:43.186537 26601 layer.hpp:71] 
I0609 09:14:43.188611 26601 net.cpp:151] Setting up conv4_3_norm_mbox_conf
I0609 09:14:43.188637 26601 net.cpp:158] Top shape: 32 8 38 38 (369664)
I0609 09:14:43.188643 26601 net.cpp:166] Memory required for data: 7917858944
I0609 09:14:43.188654 26601 layer_factory.hpp:77] Creating layer conv4_3_norm_mbox_conf_perm
I0609 09:14:43.188666 26601 net.cpp:100] Creating Layer conv4_3_norm_mbox_conf_perm
I0609 09:14:43.188673 26601 net.cpp:435] conv4_3_norm_mbox_conf_perm <- conv4_3_norm_mbox_conf
I0609 09:14:43.188688 26601 net.cpp:409] conv4_3_norm_mbox_conf_perm -> conv4_3_norm_mbox_conf_perm
I0609 09:14:43.188701 26601 layer.hpp:71] 
I0609 09:14:43.188837 26601 net.cpp:151] Setting up conv4_3_norm_mbox_conf_perm
I0609 09:14:43.188853 26601 net.cpp:158] Top shape: 32 38 38 8 (369664)
I0609 09:14:43.188858 26601 net.cpp:166] Memory required for data: 7919337600
I0609 09:14:43.188864 26601 layer_factory.hpp:77] Creating layer conv4_3_norm_mbox_conf_flat
I0609 09:14:43.188876 26601 net.cpp:100] Creating Layer conv4_3_norm_mbox_conf_flat
I0609 09:14:43.188884 26601 net.cpp:435] conv4_3_norm_mbox_conf_flat <- conv4_3_norm_mbox_conf_perm
I0609 09:14:43.188896 26601 net.cpp:409] conv4_3_norm_mbox_conf_flat -> conv4_3_norm_mbox_conf_flat
I0609 09:14:43.188907 26601 layer.hpp:71] 
I0609 09:14:43.188946 26601 net.cpp:151] Setting up conv4_3_norm_mbox_conf_flat
I0609 09:14:43.188977 26601 net.cpp:158] Top shape: 32 11552 (369664)
I0609 09:14:43.189005 26601 net.cpp:166] Memory required for data: 7920816256
I0609 09:14:43.189030 26601 layer_factory.hpp:77] Creating layer conv4_3_norm_mbox_priorbox
I0609 09:14:43.189054 26601 net.cpp:100] Creating Layer conv4_3_norm_mbox_priorbox
I0609 09:14:43.189060 26601 net.cpp:435] conv4_3_norm_mbox_priorbox <- conv4_3_norm_conv4_3_norm_0_split_2
I0609 09:14:43.189070 26601 net.cpp:435] conv4_3_norm_mbox_priorbox <- data_data_0_split_1
I0609 09:14:43.189083 26601 net.cpp:409] conv4_3_norm_mbox_priorbox -> conv4_3_norm_mbox_priorbox
I0609 09:14:43.189100 26601 layer.hpp:71] 
I0609 09:14:43.189151 26601 net.cpp:151] Setting up conv4_3_norm_mbox_priorbox
I0609 09:14:43.189165 26601 net.cpp:158] Top shape: 1 2 23104 (46208)
I0609 09:14:43.189172 26601 net.cpp:166] Memory required for data: 7921001088
I0609 09:14:43.189177 26601 layer_factory.hpp:77] Creating layer fc7_mbox_loc
I0609 09:14:43.189195 26601 net.cpp:100] Creating Layer fc7_mbox_loc
I0609 09:14:43.189206 26601 net.cpp:435] fc7_mbox_loc <- fc7_relu7_0_split_1
I0609 09:14:43.189230 26601 net.cpp:409] fc7_mbox_loc -> fc7_mbox_loc
I0609 09:14:43.189244 26601 layer.hpp:71] 
I0609 09:14:43.193372 26601 net.cpp:151] Setting up fc7_mbox_loc
I0609 09:14:43.193400 26601 net.cpp:158] Top shape: 32 24 19 19 (277248)
I0609 09:14:43.193406 26601 net.cpp:166] Memory required for data: 7922110080
I0609 09:14:43.193418 26601 layer_factory.hpp:77] Creating layer fc7_mbox_loc_perm
I0609 09:14:43.193433 26601 net.cpp:100] Creating Layer fc7_mbox_loc_perm
I0609 09:14:43.193440 26601 net.cpp:435] fc7_mbox_loc_perm <- fc7_mbox_loc
I0609 09:14:43.193454 26601 net.cpp:409] fc7_mbox_loc_perm -> fc7_mbox_loc_perm
I0609 09:14:43.193465 26601 layer.hpp:71] 
I0609 09:14:43.193598 26601 net.cpp:151] Setting up fc7_mbox_loc_perm
I0609 09:14:43.193615 26601 net.cpp:158] Top shape: 32 19 19 24 (277248)
I0609 09:14:43.193624 26601 net.cpp:166] Memory required for data: 7923219072
I0609 09:14:43.193629 26601 layer_factory.hpp:77] Creating layer fc7_mbox_loc_flat
I0609 09:14:43.193639 26601 net.cpp:100] Creating Layer fc7_mbox_loc_flat
I0609 09:14:43.193646 26601 net.cpp:435] fc7_mbox_loc_flat <- fc7_mbox_loc_perm
I0609 09:14:43.193655 26601 net.cpp:409] fc7_mbox_loc_flat -> fc7_mbox_loc_flat
I0609 09:14:43.193665 26601 layer.hpp:71] 
I0609 09:14:43.193706 26601 net.cpp:151] Setting up fc7_mbox_loc_flat
I0609 09:14:43.193720 26601 net.cpp:158] Top shape: 32 8664 (277248)
I0609 09:14:43.193725 26601 net.cpp:166] Memory required for data: 7924328064
I0609 09:14:43.193732 26601 layer_factory.hpp:77] Creating layer fc7_mbox_conf
I0609 09:14:43.193747 26601 net.cpp:100] Creating Layer fc7_mbox_conf
I0609 09:14:43.193755 26601 net.cpp:435] fc7_mbox_conf <- fc7_relu7_0_split_2
I0609 09:14:43.193769 26601 net.cpp:409] fc7_mbox_conf -> fc7_mbox_conf
I0609 09:14:43.193783 26601 layer.hpp:71] 
I0609 09:14:43.196849 26601 net.cpp:151] Setting up fc7_mbox_conf
I0609 09:14:43.196878 26601 net.cpp:158] Top shape: 32 12 19 19 (138624)
I0609 09:14:43.196885 26601 net.cpp:166] Memory required for data: 7924882560
I0609 09:14:43.196897 26601 layer_factory.hpp:77] Creating layer fc7_mbox_conf_perm
I0609 09:14:43.196907 26601 net.cpp:100] Creating Layer fc7_mbox_conf_perm
I0609 09:14:43.196915 26601 net.cpp:435] fc7_mbox_conf_perm <- fc7_mbox_conf
I0609 09:14:43.196928 26601 net.cpp:409] fc7_mbox_conf_perm -> fc7_mbox_conf_perm
I0609 09:14:43.196941 26601 layer.hpp:71] 
I0609 09:14:43.197098 26601 net.cpp:151] Setting up fc7_mbox_conf_perm
I0609 09:14:43.197118 26601 net.cpp:158] Top shape: 32 19 19 12 (138624)
I0609 09:14:43.197124 26601 net.cpp:166] Memory required for data: 7925437056
I0609 09:14:43.197129 26601 layer_factory.hpp:77] Creating layer fc7_mbox_conf_flat
I0609 09:14:43.197137 26601 net.cpp:100] Creating Layer fc7_mbox_conf_flat
I0609 09:14:43.197145 26601 net.cpp:435] fc7_mbox_conf_flat <- fc7_mbox_conf_perm
I0609 09:14:43.197157 26601 net.cpp:409] fc7_mbox_conf_flat -> fc7_mbox_conf_flat
I0609 09:14:43.197170 26601 layer.hpp:71] 
I0609 09:14:43.197211 26601 net.cpp:151] Setting up fc7_mbox_conf_flat
I0609 09:14:43.197226 26601 net.cpp:158] Top shape: 32 4332 (138624)
I0609 09:14:43.197230 26601 net.cpp:166] Memory required for data: 7925991552
I0609 09:14:43.197235 26601 layer_factory.hpp:77] Creating layer fc7_mbox_priorbox
I0609 09:14:43.197249 26601 net.cpp:100] Creating Layer fc7_mbox_priorbox
I0609 09:14:43.197257 26601 net.cpp:435] fc7_mbox_priorbox <- fc7_relu7_0_split_3
I0609 09:14:43.197265 26601 net.cpp:435] fc7_mbox_priorbox <- data_data_0_split_2
I0609 09:14:43.197278 26601 net.cpp:409] fc7_mbox_priorbox -> fc7_mbox_priorbox
I0609 09:14:43.197290 26601 layer.hpp:71] 
I0609 09:14:43.197332 26601 net.cpp:151] Setting up fc7_mbox_priorbox
I0609 09:14:43.197345 26601 net.cpp:158] Top shape: 1 2 8664 (17328)
I0609 09:14:43.197351 26601 net.cpp:166] Memory required for data: 7926060864
I0609 09:14:43.197356 26601 layer_factory.hpp:77] Creating layer conv6_2_mbox_loc
I0609 09:14:43.197377 26601 net.cpp:100] Creating Layer conv6_2_mbox_loc
I0609 09:14:43.197386 26601 net.cpp:435] conv6_2_mbox_loc <- conv6_2_conv6_2_relu_0_split_1
I0609 09:14:43.197417 26601 net.cpp:409] conv6_2_mbox_loc -> conv6_2_mbox_loc
I0609 09:14:43.197435 26601 layer.hpp:71] 
I0609 09:14:43.199966 26601 net.cpp:151] Setting up conv6_2_mbox_loc
I0609 09:14:43.199991 26601 net.cpp:158] Top shape: 32 24 10 10 (76800)
I0609 09:14:43.199998 26601 net.cpp:166] Memory required for data: 7926368064
I0609 09:14:43.200008 26601 layer_factory.hpp:77] Creating layer conv6_2_mbox_loc_perm
I0609 09:14:43.200026 26601 net.cpp:100] Creating Layer conv6_2_mbox_loc_perm
I0609 09:14:43.200033 26601 net.cpp:435] conv6_2_mbox_loc_perm <- conv6_2_mbox_loc
I0609 09:14:43.200044 26601 net.cpp:409] conv6_2_mbox_loc_perm -> conv6_2_mbox_loc_perm
I0609 09:14:43.200057 26601 layer.hpp:71] 
I0609 09:14:43.200224 26601 net.cpp:151] Setting up conv6_2_mbox_loc_perm
I0609 09:14:43.200244 26601 net.cpp:158] Top shape: 32 10 10 24 (76800)
I0609 09:14:43.200249 26601 net.cpp:166] Memory required for data: 7926675264
I0609 09:14:43.200255 26601 layer_factory.hpp:77] Creating layer conv6_2_mbox_loc_flat
I0609 09:14:43.200269 26601 net.cpp:100] Creating Layer conv6_2_mbox_loc_flat
I0609 09:14:43.200276 26601 net.cpp:435] conv6_2_mbox_loc_flat <- conv6_2_mbox_loc_perm
I0609 09:14:43.200286 26601 net.cpp:409] conv6_2_mbox_loc_flat -> conv6_2_mbox_loc_flat
I0609 09:14:43.200297 26601 layer.hpp:71] 
I0609 09:14:43.200342 26601 net.cpp:151] Setting up conv6_2_mbox_loc_flat
I0609 09:14:43.200356 26601 net.cpp:158] Top shape: 32 2400 (76800)
I0609 09:14:43.200361 26601 net.cpp:166] Memory required for data: 7926982464
I0609 09:14:43.200366 26601 layer_factory.hpp:77] Creating layer conv6_2_mbox_conf
I0609 09:14:43.200384 26601 net.cpp:100] Creating Layer conv6_2_mbox_conf
I0609 09:14:43.200392 26601 net.cpp:435] conv6_2_mbox_conf <- conv6_2_conv6_2_relu_0_split_2
I0609 09:14:43.200412 26601 net.cpp:409] conv6_2_mbox_conf -> conv6_2_mbox_conf
I0609 09:14:43.200430 26601 layer.hpp:71] 
I0609 09:14:43.203274 26601 net.cpp:151] Setting up conv6_2_mbox_conf
I0609 09:14:43.203299 26601 net.cpp:158] Top shape: 32 12 10 10 (38400)
I0609 09:14:43.203305 26601 net.cpp:166] Memory required for data: 7927136064
I0609 09:14:43.203316 26601 layer_factory.hpp:77] Creating layer conv6_2_mbox_conf_perm
I0609 09:14:43.203336 26601 net.cpp:100] Creating Layer conv6_2_mbox_conf_perm
I0609 09:14:43.203343 26601 net.cpp:435] conv6_2_mbox_conf_perm <- conv6_2_mbox_conf
I0609 09:14:43.203356 26601 net.cpp:409] conv6_2_mbox_conf_perm -> conv6_2_mbox_conf_perm
I0609 09:14:43.203368 26601 layer.hpp:71] 
I0609 09:14:43.203521 26601 net.cpp:151] Setting up conv6_2_mbox_conf_perm
I0609 09:14:43.203562 26601 net.cpp:158] Top shape: 32 10 10 12 (38400)
I0609 09:14:43.203575 26601 net.cpp:166] Memory required for data: 7927289664
I0609 09:14:43.203582 26601 layer_factory.hpp:77] Creating layer conv6_2_mbox_conf_flat
I0609 09:14:43.203595 26601 net.cpp:100] Creating Layer conv6_2_mbox_conf_flat
I0609 09:14:43.203603 26601 net.cpp:435] conv6_2_mbox_conf_flat <- conv6_2_mbox_conf_perm
I0609 09:14:43.203613 26601 net.cpp:409] conv6_2_mbox_conf_flat -> conv6_2_mbox_conf_flat
I0609 09:14:43.203624 26601 layer.hpp:71] 
I0609 09:14:43.203677 26601 net.cpp:151] Setting up conv6_2_mbox_conf_flat
I0609 09:14:43.203691 26601 net.cpp:158] Top shape: 32 1200 (38400)
I0609 09:14:43.203696 26601 net.cpp:166] Memory required for data: 7927443264
I0609 09:14:43.203701 26601 layer_factory.hpp:77] Creating layer conv6_2_mbox_priorbox
I0609 09:14:43.203716 26601 net.cpp:100] Creating Layer conv6_2_mbox_priorbox
I0609 09:14:43.203723 26601 net.cpp:435] conv6_2_mbox_priorbox <- conv6_2_conv6_2_relu_0_split_3
I0609 09:14:43.203732 26601 net.cpp:435] conv6_2_mbox_priorbox <- data_data_0_split_3
I0609 09:14:43.203742 26601 net.cpp:409] conv6_2_mbox_priorbox -> conv6_2_mbox_priorbox
I0609 09:14:43.203754 26601 layer.hpp:71] 
I0609 09:14:43.203799 26601 net.cpp:151] Setting up conv6_2_mbox_priorbox
I0609 09:14:43.203812 26601 net.cpp:158] Top shape: 1 2 2400 (4800)
I0609 09:14:43.203817 26601 net.cpp:166] Memory required for data: 7927462464
I0609 09:14:43.203838 26601 layer_factory.hpp:77] Creating layer conv7_2_mbox_loc
I0609 09:14:43.203857 26601 net.cpp:100] Creating Layer conv7_2_mbox_loc
I0609 09:14:43.203866 26601 net.cpp:435] conv7_2_mbox_loc <- conv7_2_conv7_2_relu_0_split_1
I0609 09:14:43.203881 26601 net.cpp:409] conv7_2_mbox_loc -> conv7_2_mbox_loc
I0609 09:14:43.203894 26601 layer.hpp:71] 
I0609 09:14:43.206475 26601 net.cpp:151] Setting up conv7_2_mbox_loc
I0609 09:14:43.206501 26601 net.cpp:158] Top shape: 32 24 5 5 (19200)
I0609 09:14:43.206507 26601 net.cpp:166] Memory required for data: 7927539264
I0609 09:14:43.206519 26601 layer_factory.hpp:77] Creating layer conv7_2_mbox_loc_perm
I0609 09:14:43.206533 26601 net.cpp:100] Creating Layer conv7_2_mbox_loc_perm
I0609 09:14:43.206540 26601 net.cpp:435] conv7_2_mbox_loc_perm <- conv7_2_mbox_loc
I0609 09:14:43.206550 26601 net.cpp:409] conv7_2_mbox_loc_perm -> conv7_2_mbox_loc_perm
I0609 09:14:43.206564 26601 layer.hpp:71] 
I0609 09:14:43.206720 26601 net.cpp:151] Setting up conv7_2_mbox_loc_perm
I0609 09:14:43.206737 26601 net.cpp:158] Top shape: 32 5 5 24 (19200)
I0609 09:14:43.206743 26601 net.cpp:166] Memory required for data: 7927616064
I0609 09:14:43.206748 26601 layer_factory.hpp:77] Creating layer conv7_2_mbox_loc_flat
I0609 09:14:43.206763 26601 net.cpp:100] Creating Layer conv7_2_mbox_loc_flat
I0609 09:14:43.206769 26601 net.cpp:435] conv7_2_mbox_loc_flat <- conv7_2_mbox_loc_perm
I0609 09:14:43.206779 26601 net.cpp:409] conv7_2_mbox_loc_flat -> conv7_2_mbox_loc_flat
I0609 09:14:43.206791 26601 layer.hpp:71] 
I0609 09:14:43.206835 26601 net.cpp:151] Setting up conv7_2_mbox_loc_flat
I0609 09:14:43.206848 26601 net.cpp:158] Top shape: 32 600 (19200)
I0609 09:14:43.206854 26601 net.cpp:166] Memory required for data: 7927692864
I0609 09:14:43.206861 26601 layer_factory.hpp:77] Creating layer conv7_2_mbox_conf
I0609 09:14:43.206876 26601 net.cpp:100] Creating Layer conv7_2_mbox_conf
I0609 09:14:43.206883 26601 net.cpp:435] conv7_2_mbox_conf <- conv7_2_conv7_2_relu_0_split_2
I0609 09:14:43.206897 26601 net.cpp:409] conv7_2_mbox_conf -> conv7_2_mbox_conf
I0609 09:14:43.206912 26601 layer.hpp:71] 
I0609 09:14:43.208933 26601 net.cpp:151] Setting up conv7_2_mbox_conf
I0609 09:14:43.208959 26601 net.cpp:158] Top shape: 32 12 5 5 (9600)
I0609 09:14:43.208966 26601 net.cpp:166] Memory required for data: 7927731264
I0609 09:14:43.208977 26601 layer_factory.hpp:77] Creating layer conv7_2_mbox_conf_perm
I0609 09:14:43.208988 26601 net.cpp:100] Creating Layer conv7_2_mbox_conf_perm
I0609 09:14:43.208997 26601 net.cpp:435] conv7_2_mbox_conf_perm <- conv7_2_mbox_conf
I0609 09:14:43.209009 26601 net.cpp:409] conv7_2_mbox_conf_perm -> conv7_2_mbox_conf_perm
I0609 09:14:43.209024 26601 layer.hpp:71] 
I0609 09:14:43.209163 26601 net.cpp:151] Setting up conv7_2_mbox_conf_perm
I0609 09:14:43.209179 26601 net.cpp:158] Top shape: 32 5 5 12 (9600)
I0609 09:14:43.209185 26601 net.cpp:166] Memory required for data: 7927769664
I0609 09:14:43.209192 26601 layer_factory.hpp:77] Creating layer conv7_2_mbox_conf_flat
I0609 09:14:43.209200 26601 net.cpp:100] Creating Layer conv7_2_mbox_conf_flat
I0609 09:14:43.209208 26601 net.cpp:435] conv7_2_mbox_conf_flat <- conv7_2_mbox_conf_perm
I0609 09:14:43.209218 26601 net.cpp:409] conv7_2_mbox_conf_flat -> conv7_2_mbox_conf_flat
I0609 09:14:43.209231 26601 layer.hpp:71] 
I0609 09:14:43.209269 26601 net.cpp:151] Setting up conv7_2_mbox_conf_flat
I0609 09:14:43.209285 26601 net.cpp:158] Top shape: 32 300 (9600)
I0609 09:14:43.209290 26601 net.cpp:166] Memory required for data: 7927808064
I0609 09:14:43.209296 26601 layer_factory.hpp:77] Creating layer conv7_2_mbox_priorbox
I0609 09:14:43.209307 26601 net.cpp:100] Creating Layer conv7_2_mbox_priorbox
I0609 09:14:43.209313 26601 net.cpp:435] conv7_2_mbox_priorbox <- conv7_2_conv7_2_relu_0_split_3
I0609 09:14:43.209321 26601 net.cpp:435] conv7_2_mbox_priorbox <- data_data_0_split_4
I0609 09:14:43.209336 26601 net.cpp:409] conv7_2_mbox_priorbox -> conv7_2_mbox_priorbox
I0609 09:14:43.209347 26601 layer.hpp:71] 
I0609 09:14:43.209408 26601 net.cpp:151] Setting up conv7_2_mbox_priorbox
I0609 09:14:43.209424 26601 net.cpp:158] Top shape: 1 2 600 (1200)
I0609 09:14:43.209430 26601 net.cpp:166] Memory required for data: 7927812864
I0609 09:14:43.209435 26601 layer_factory.hpp:77] Creating layer conv8_2_mbox_loc
I0609 09:14:43.209452 26601 net.cpp:100] Creating Layer conv8_2_mbox_loc
I0609 09:14:43.209460 26601 net.cpp:435] conv8_2_mbox_loc <- conv8_2_conv8_2_relu_0_split_1
I0609 09:14:43.209475 26601 net.cpp:409] conv8_2_mbox_loc -> conv8_2_mbox_loc
I0609 09:14:43.209486 26601 layer.hpp:71] 
I0609 09:14:43.211634 26601 net.cpp:151] Setting up conv8_2_mbox_loc
I0609 09:14:43.211659 26601 net.cpp:158] Top shape: 32 16 3 3 (4608)
I0609 09:14:43.211668 26601 net.cpp:166] Memory required for data: 7927831296
I0609 09:14:43.211695 26601 layer_factory.hpp:77] Creating layer conv8_2_mbox_loc_perm
I0609 09:14:43.211719 26601 net.cpp:100] Creating Layer conv8_2_mbox_loc_perm
I0609 09:14:43.211727 26601 net.cpp:435] conv8_2_mbox_loc_perm <- conv8_2_mbox_loc
I0609 09:14:43.211743 26601 net.cpp:409] conv8_2_mbox_loc_perm -> conv8_2_mbox_loc_perm
I0609 09:14:43.211757 26601 layer.hpp:71] 
I0609 09:14:43.211891 26601 net.cpp:151] Setting up conv8_2_mbox_loc_perm
I0609 09:14:43.211907 26601 net.cpp:158] Top shape: 32 3 3 16 (4608)
I0609 09:14:43.211915 26601 net.cpp:166] Memory required for data: 7927849728
I0609 09:14:43.211918 26601 layer_factory.hpp:77] Creating layer conv8_2_mbox_loc_flat
I0609 09:14:43.211931 26601 net.cpp:100] Creating Layer conv8_2_mbox_loc_flat
I0609 09:14:43.211938 26601 net.cpp:435] conv8_2_mbox_loc_flat <- conv8_2_mbox_loc_perm
I0609 09:14:43.211948 26601 net.cpp:409] conv8_2_mbox_loc_flat -> conv8_2_mbox_loc_flat
I0609 09:14:43.211959 26601 layer.hpp:71] 
I0609 09:14:43.212003 26601 net.cpp:151] Setting up conv8_2_mbox_loc_flat
I0609 09:14:43.212016 26601 net.cpp:158] Top shape: 32 144 (4608)
I0609 09:14:43.212023 26601 net.cpp:166] Memory required for data: 7927868160
I0609 09:14:43.212028 26601 layer_factory.hpp:77] Creating layer conv8_2_mbox_conf
I0609 09:14:43.212044 26601 net.cpp:100] Creating Layer conv8_2_mbox_conf
I0609 09:14:43.212052 26601 net.cpp:435] conv8_2_mbox_conf <- conv8_2_conv8_2_relu_0_split_2
I0609 09:14:43.212067 26601 net.cpp:409] conv8_2_mbox_conf -> conv8_2_mbox_conf
I0609 09:14:43.212085 26601 layer.hpp:71] 
I0609 09:14:43.214149 26601 net.cpp:151] Setting up conv8_2_mbox_conf
I0609 09:14:43.214174 26601 net.cpp:158] Top shape: 32 8 3 3 (2304)
I0609 09:14:43.214180 26601 net.cpp:166] Memory required for data: 7927877376
I0609 09:14:43.214191 26601 layer_factory.hpp:77] Creating layer conv8_2_mbox_conf_perm
I0609 09:14:43.214205 26601 net.cpp:100] Creating Layer conv8_2_mbox_conf_perm
I0609 09:14:43.214212 26601 net.cpp:435] conv8_2_mbox_conf_perm <- conv8_2_mbox_conf
I0609 09:14:43.214224 26601 net.cpp:409] conv8_2_mbox_conf_perm -> conv8_2_mbox_conf_perm
I0609 09:14:43.214236 26601 layer.hpp:71] 
I0609 09:14:43.214402 26601 net.cpp:151] Setting up conv8_2_mbox_conf_perm
I0609 09:14:43.214421 26601 net.cpp:158] Top shape: 32 3 3 8 (2304)
I0609 09:14:43.214428 26601 net.cpp:166] Memory required for data: 7927886592
I0609 09:14:43.214433 26601 layer_factory.hpp:77] Creating layer conv8_2_mbox_conf_flat
I0609 09:14:43.214443 26601 net.cpp:100] Creating Layer conv8_2_mbox_conf_flat
I0609 09:14:43.214450 26601 net.cpp:435] conv8_2_mbox_conf_flat <- conv8_2_mbox_conf_perm
I0609 09:14:43.214463 26601 net.cpp:409] conv8_2_mbox_conf_flat -> conv8_2_mbox_conf_flat
I0609 09:14:43.214475 26601 layer.hpp:71] 
I0609 09:14:43.214521 26601 net.cpp:151] Setting up conv8_2_mbox_conf_flat
I0609 09:14:43.214534 26601 net.cpp:158] Top shape: 32 72 (2304)
I0609 09:14:43.214540 26601 net.cpp:166] Memory required for data: 7927895808
I0609 09:14:43.214545 26601 layer_factory.hpp:77] Creating layer conv8_2_mbox_priorbox
I0609 09:14:43.214556 26601 net.cpp:100] Creating Layer conv8_2_mbox_priorbox
I0609 09:14:43.214563 26601 net.cpp:435] conv8_2_mbox_priorbox <- conv8_2_conv8_2_relu_0_split_3
I0609 09:14:43.214572 26601 net.cpp:435] conv8_2_mbox_priorbox <- data_data_0_split_5
I0609 09:14:43.214603 26601 net.cpp:409] conv8_2_mbox_priorbox -> conv8_2_mbox_priorbox
I0609 09:14:43.214617 26601 layer.hpp:71] 
I0609 09:14:43.214664 26601 net.cpp:151] Setting up conv8_2_mbox_priorbox
I0609 09:14:43.214679 26601 net.cpp:158] Top shape: 1 2 144 (288)
I0609 09:14:43.214684 26601 net.cpp:166] Memory required for data: 7927896960
I0609 09:14:43.214689 26601 layer_factory.hpp:77] Creating layer conv9_2_mbox_loc
I0609 09:14:43.214706 26601 net.cpp:100] Creating Layer conv9_2_mbox_loc
I0609 09:14:43.214715 26601 net.cpp:435] conv9_2_mbox_loc <- conv9_2_conv9_2_relu_0_split_0
I0609 09:14:43.214728 26601 net.cpp:409] conv9_2_mbox_loc -> conv9_2_mbox_loc
I0609 09:14:43.214740 26601 layer.hpp:71] 
I0609 09:14:43.216836 26601 net.cpp:151] Setting up conv9_2_mbox_loc
I0609 09:14:43.216861 26601 net.cpp:158] Top shape: 32 16 1 1 (512)
I0609 09:14:43.216867 26601 net.cpp:166] Memory required for data: 7927899008
I0609 09:14:43.216878 26601 layer_factory.hpp:77] Creating layer conv9_2_mbox_loc_perm
I0609 09:14:43.216889 26601 net.cpp:100] Creating Layer conv9_2_mbox_loc_perm
I0609 09:14:43.216897 26601 net.cpp:435] conv9_2_mbox_loc_perm <- conv9_2_mbox_loc
I0609 09:14:43.216909 26601 net.cpp:409] conv9_2_mbox_loc_perm -> conv9_2_mbox_loc_perm
I0609 09:14:43.216923 26601 layer.hpp:71] 
I0609 09:14:43.217074 26601 net.cpp:151] Setting up conv9_2_mbox_loc_perm
I0609 09:14:43.217090 26601 net.cpp:158] Top shape: 32 1 1 16 (512)
I0609 09:14:43.217095 26601 net.cpp:166] Memory required for data: 7927901056
I0609 09:14:43.217100 26601 layer_factory.hpp:77] Creating layer conv9_2_mbox_loc_flat
I0609 09:14:43.217110 26601 net.cpp:100] Creating Layer conv9_2_mbox_loc_flat
I0609 09:14:43.217118 26601 net.cpp:435] conv9_2_mbox_loc_flat <- conv9_2_mbox_loc_perm
I0609 09:14:43.217129 26601 net.cpp:409] conv9_2_mbox_loc_flat -> conv9_2_mbox_loc_flat
I0609 09:14:43.217140 26601 layer.hpp:71] 
I0609 09:14:43.217180 26601 net.cpp:151] Setting up conv9_2_mbox_loc_flat
I0609 09:14:43.217192 26601 net.cpp:158] Top shape: 32 16 (512)
I0609 09:14:43.217197 26601 net.cpp:166] Memory required for data: 7927903104
I0609 09:14:43.217202 26601 layer_factory.hpp:77] Creating layer conv9_2_mbox_conf
I0609 09:14:43.217222 26601 net.cpp:100] Creating Layer conv9_2_mbox_conf
I0609 09:14:43.217231 26601 net.cpp:435] conv9_2_mbox_conf <- conv9_2_conv9_2_relu_0_split_1
I0609 09:14:43.217244 26601 net.cpp:409] conv9_2_mbox_conf -> conv9_2_mbox_conf
I0609 09:14:43.217258 26601 layer.hpp:71] 
I0609 09:14:43.219306 26601 net.cpp:151] Setting up conv9_2_mbox_conf
I0609 09:14:43.219331 26601 net.cpp:158] Top shape: 32 8 1 1 (256)
I0609 09:14:43.219336 26601 net.cpp:166] Memory required for data: 7927904128
I0609 09:14:43.219347 26601 layer_factory.hpp:77] Creating layer conv9_2_mbox_conf_perm
I0609 09:14:43.219362 26601 net.cpp:100] Creating Layer conv9_2_mbox_conf_perm
I0609 09:14:43.219369 26601 net.cpp:435] conv9_2_mbox_conf_perm <- conv9_2_mbox_conf
I0609 09:14:43.219383 26601 net.cpp:409] conv9_2_mbox_conf_perm -> conv9_2_mbox_conf_perm
I0609 09:14:43.219395 26601 layer.hpp:71] 
I0609 09:14:43.219532 26601 net.cpp:151] Setting up conv9_2_mbox_conf_perm
I0609 09:14:43.219550 26601 net.cpp:158] Top shape: 32 1 1 8 (256)
I0609 09:14:43.219555 26601 net.cpp:166] Memory required for data: 7927905152
I0609 09:14:43.219560 26601 layer_factory.hpp:77] Creating layer conv9_2_mbox_conf_flat
I0609 09:14:43.219569 26601 net.cpp:100] Creating Layer conv9_2_mbox_conf_flat
I0609 09:14:43.219576 26601 net.cpp:435] conv9_2_mbox_conf_flat <- conv9_2_mbox_conf_perm
I0609 09:14:43.219585 26601 net.cpp:409] conv9_2_mbox_conf_flat -> conv9_2_mbox_conf_flat
I0609 09:14:43.219596 26601 layer.hpp:71] 
I0609 09:14:43.219638 26601 net.cpp:151] Setting up conv9_2_mbox_conf_flat
I0609 09:14:43.219652 26601 net.cpp:158] Top shape: 32 8 (256)
I0609 09:14:43.219657 26601 net.cpp:166] Memory required for data: 7927906176
I0609 09:14:43.219662 26601 layer_factory.hpp:77] Creating layer conv9_2_mbox_priorbox
I0609 09:14:43.219676 26601 net.cpp:100] Creating Layer conv9_2_mbox_priorbox
I0609 09:14:43.219702 26601 net.cpp:435] conv9_2_mbox_priorbox <- conv9_2_conv9_2_relu_0_split_2
I0609 09:14:43.219710 26601 net.cpp:435] conv9_2_mbox_priorbox <- data_data_0_split_6
I0609 09:14:43.219723 26601 net.cpp:409] conv9_2_mbox_priorbox -> conv9_2_mbox_priorbox
I0609 09:14:43.219735 26601 layer.hpp:71] 
I0609 09:14:43.219781 26601 net.cpp:151] Setting up conv9_2_mbox_priorbox
I0609 09:14:43.219794 26601 net.cpp:158] Top shape: 1 2 16 (32)
I0609 09:14:43.219799 26601 net.cpp:166] Memory required for data: 7927906304
I0609 09:14:43.219804 26601 layer_factory.hpp:77] Creating layer mbox_loc
I0609 09:14:43.219818 26601 net.cpp:100] Creating Layer mbox_loc
I0609 09:14:43.219826 26601 net.cpp:435] mbox_loc <- conv4_3_norm_mbox_loc_flat
I0609 09:14:43.219835 26601 net.cpp:435] mbox_loc <- fc7_mbox_loc_flat
I0609 09:14:43.219841 26601 net.cpp:435] mbox_loc <- conv6_2_mbox_loc_flat
I0609 09:14:43.219849 26601 net.cpp:435] mbox_loc <- conv7_2_mbox_loc_flat
I0609 09:14:43.219856 26601 net.cpp:435] mbox_loc <- conv8_2_mbox_loc_flat
I0609 09:14:43.219862 26601 net.cpp:435] mbox_loc <- conv9_2_mbox_loc_flat
I0609 09:14:43.219871 26601 net.cpp:409] mbox_loc -> mbox_loc
I0609 09:14:43.219888 26601 layer.hpp:71] 
I0609 09:14:43.219938 26601 net.cpp:151] Setting up mbox_loc
I0609 09:14:43.219952 26601 net.cpp:158] Top shape: 32 34928 (1117696)
I0609 09:14:43.219959 26601 net.cpp:166] Memory required for data: 7932377088
I0609 09:14:43.219964 26601 layer_factory.hpp:77] Creating layer mbox_conf
I0609 09:14:43.219975 26601 net.cpp:100] Creating Layer mbox_conf
I0609 09:14:43.219981 26601 net.cpp:435] mbox_conf <- conv4_3_norm_mbox_conf_flat
I0609 09:14:43.219990 26601 net.cpp:435] mbox_conf <- fc7_mbox_conf_flat
I0609 09:14:43.219998 26601 net.cpp:435] mbox_conf <- conv6_2_mbox_conf_flat
I0609 09:14:43.220005 26601 net.cpp:435] mbox_conf <- conv7_2_mbox_conf_flat
I0609 09:14:43.220011 26601 net.cpp:435] mbox_conf <- conv8_2_mbox_conf_flat
I0609 09:14:43.220018 26601 net.cpp:435] mbox_conf <- conv9_2_mbox_conf_flat
I0609 09:14:43.220028 26601 net.cpp:409] mbox_conf -> mbox_conf
I0609 09:14:43.220039 26601 layer.hpp:71] 
I0609 09:14:43.220083 26601 net.cpp:151] Setting up mbox_conf
I0609 09:14:43.220096 26601 net.cpp:158] Top shape: 32 17464 (558848)
I0609 09:14:43.220103 26601 net.cpp:166] Memory required for data: 7934612480
I0609 09:14:43.220108 26601 layer_factory.hpp:77] Creating layer mbox_priorbox
I0609 09:14:43.220118 26601 net.cpp:100] Creating Layer mbox_priorbox
I0609 09:14:43.220124 26601 net.cpp:435] mbox_priorbox <- conv4_3_norm_mbox_priorbox
I0609 09:14:43.220134 26601 net.cpp:435] mbox_priorbox <- fc7_mbox_priorbox
I0609 09:14:43.220141 26601 net.cpp:435] mbox_priorbox <- conv6_2_mbox_priorbox
I0609 09:14:43.220147 26601 net.cpp:435] mbox_priorbox <- conv7_2_mbox_priorbox
I0609 09:14:43.220154 26601 net.cpp:435] mbox_priorbox <- conv8_2_mbox_priorbox
I0609 09:14:43.220161 26601 net.cpp:435] mbox_priorbox <- conv9_2_mbox_priorbox
I0609 09:14:43.220170 26601 net.cpp:409] mbox_priorbox -> mbox_priorbox
I0609 09:14:43.220180 26601 layer.hpp:71] 
I0609 09:14:43.220218 26601 net.cpp:151] Setting up mbox_priorbox
I0609 09:14:43.220232 26601 net.cpp:158] Top shape: 1 2 34928 (69856)
I0609 09:14:43.220237 26601 net.cpp:166] Memory required for data: 7934891904
I0609 09:14:43.220242 26601 layer_factory.hpp:77] Creating layer mbox_loss
I0609 09:14:43.220263 26601 net.cpp:100] Creating Layer mbox_loss
I0609 09:14:43.220273 26601 net.cpp:435] mbox_loss <- mbox_loc
I0609 09:14:43.220280 26601 net.cpp:435] mbox_loss <- mbox_conf
I0609 09:14:43.220286 26601 net.cpp:435] mbox_loss <- mbox_priorbox
…
  name: "data"
  type: "AnnotatedData"
  top: "data"
  top: "label"
  include {
    phase: TEST
  }
  transform_param {
    mean_value: 114
    mean_value: 114
    mean_value: 114
    resize_param {
      prob: 1
      resize_mode: WARP
      height: 300
      width: 300
      interp_mode: LINEAR
    }
  }
  data_param {
    source: "examples/grayscale_tbs_v2.0/grayscale_tbs_v2.0_test_lmdb"
    batch_size: 4
    backend: LMDB
  }
  annotated_data_param {
    batch_sampler {
    }
    label_map_file: "data/grayscale_tbs_v2.0/labelmap_voc.prototxt"
  }
}
layer {
  name: "conv1_1"
  type: "Convolution"
  bottom: "data"
  top: "conv1_1"
  param {
    lr_mult: 1
    decay_mult: 1
  }
  param {
    lr_mult: 2
    decay_mult: 0
  }
  convolution_param {
    num_output: 64
    pad: 1
    kernel_size: 3
    weight_filler {
      type: "xavier"
    }
    bias_filler {
      type: "constant"
      value: 0
    }
  }
}
layer {
  name: "relu1_1"
  type: "ReLU"
  bottom: "conv1_1"
  top: "conv1_1"
}
layer {
  name: "conv1_2"
  type: "Convolution"
  bottom: "conv1_1"
  top: "conv1_2"
  param {
    lr_mult: 1
    decay_mult: 1
  }
  param {
    lr_mult: 2
    decay_mult: 0
  }
  convolution_param {
    num_output: 64
    pad: 1
    kernel_size: 3
    weight_filler {
      type: "xavier"
    }
    bias_filler {
      type: "constant"
      value: 0
    }
  }
}
layer {
  name: "relu1_2"
  type: "ReLU"
  bottom: "conv1_2"
  top: "conv1_2"
}
layer {
  name: "pool1"
  type: "Pooling"
  bottom: "conv1_2"
  top: "pool1"
  pooling_param {
    pool: MAX
    kernel_size: 2
    stride: 2
  }
}
layer {
  name: "conv2_1"
  type: "Convolution"
  bottom: "pool1"
  top: "conv2_1"
  param {
    lr_mult: 1
    decay_mult: 1
  }
  param {
    lr_mult: 2
    decay_mult: 0
  }
  convolution_param {
    num_output: 128
    pad: 1
    kernel_size: 3
    weight_filler {
      type: "xavier"
    }
    bias_filler {
      type: "constant"
      value: 0
    }
  }
}
layer {
  name: "relu2_1"
  type: "ReLU"
  bottom: "conv2_1"
  top: "conv2_1"
}
layer {
  name: "conv2_2"
  type: "Convolution"
  bottom: "conv2_1"
  top: "conv2_2"
  param {
    lr_mult: 1
    decay_mult: 1
  }
  param {
    lr_mult: 2
    decay_mult: 0
  }
  convolution_param {
    num_output: 128
    pad: 1
    kernel_size: 3
    weight_filler {
      type: "xavier"
    }
    bias_filler {
      type: "constant"
      value: 0
    }
  }
}
layer {
  name: "relu2_2"
  type: "ReLU"
  bottom: "conv2_2"
  top: "conv2_2"
}
layer {
  name: "pool2"
  type: "Pooling"
  bottom: "conv2_2"
  top: "pool2"
  pooling_param {
    pool: MAX
    kernel_size: 2
    stride: 2
  }
}
layer {
  name: "conv3_1"
  type: "Convolution"
  bottom: "pool2"
  top: "conv3_1"
  param {
    lr_mult: 1
    decay_mult: 1
  }
  param {
    lr_mult: 2
    decay_mult: 0
  }
  convolution_param {
    num_output: 256
    pad: 1
    kernel_size: 3
    weight_filler {
      type: "xavier"
    }
    bias_filler {
      type: "constant"
      value: 0
    }
  }
}
layer {
  name: "relu3_1"
  type: "ReLU"
  bottom: "conv3_1"
  top: "conv3_1"
}
layer {
  name: "conv3_2"
  type: "Convolution"
  bottom: "conv3_1"
  top: "conv3_2"
  param {
    lr_mult: 1
    decay_mult: 1
  }
  param {
    lr_mult: 2
    decay_mult: 0
  }
  convolution_param {
    num_output: 256
    pad: 1
    kernel_size: 3
    weight_filler {
      type: "xavier"
    }
    bias_filler {
      type: "constant"
      value: 0
    }
  }
}
layer {
  name: "relu3_2"
  type: "ReLU"
  bottom: "conv3_2"
  top: "conv3_2"
}
layer {
  name: "conv3_3"
  type: "Convolution"
  bottom: "conv3_2"
  top: "conv3_3"
  param {
    lr_mult: 1
    decay_mult: 1
  }
  param {
    lr_mult: 2
    decay_mult: 0
  }
  convolution_param {
    num_output: 256
    pad: 1
    kernel_size: 3
    weight_filler {
      type: "xavier"
    }
    bias_filler {
      type: "constant"
      value: 0
    }
  }
}
layer {
  name: "relu3_3"
  type: "ReLU"
  bottom: "conv3_3"
  top: "conv3_3"
}
layer {
  name: "pool3"
  type: "Pooling"
  bottom: "conv3_3"
  top: "pool3"
  pooling_param {
    pool: MAX
    kernel_size: 2
    stride: 2
  }
}
layer {
  name: "conv4_1"
  type: "Convolution"
  bottom: "pool3"
  top: "conv4_1"
  param {
    lr_mult: 1
    decay_mult: 1
  }
  param {
    lr_mult: 2
    decay_mult: 0
  }
  convolution_param {
    num_output: 512
    pad: 1
    kernel_size: 3
    weight_filler {
      type: "xavier"
    }
    bias_filler {
      type: "constant"
      value: 0
    }
  }
}
layer {
  name: "relu4_1"
  type: "ReLU"
  bottom: "conv4_1"
  top: "conv4_1"
}
layer {
  name: "conv4_2"
  type: "Convolution"
  bottom: "conv4_1"
  top: "conv4_2"
  param {
    lr_mult: 1
    decay_mult: 1
  }
  param {
    lr_mult: 2
    decay_mult: 0
  }
  convolution_param {
    num_output: 512
    pad: 1
    kernel_size: 3
    weight_filler {
      type: "xavier"
    }
    bias_filler {
      type: "constant"
      value: 0
    }
  }
}
layer {
  name: "relu4_2"
  type: "ReLU"
  bottom: "conv4_2"
  top: "conv4_2"
}
layer {
  name: "conv4_3"
  type: "Convolution"
  bottom: "conv4_2"
  top: "conv4_3"
  param {
    lr_mult: 1
    decay_mult: 1
  }
  param {
    lr_mult: 2
    decay_mult: 0
  }
  convolution_param {
    num_output: 512
    pad: 1
    kernel_size: 3
    weight_filler {
      type: "xavier"
    }
    bias_filler {
      type: "constant"
      value: 0
    }
  }
}
layer {
  name: "relu4_3"
  type: "ReLU"
  bottom: "conv4_3"
  top: "conv4_3"
}
layer {
  name: "pool4"
  type: "Pooling"
  bottom: "conv4_3"
  top: "pool4"
  pooling_param {
    pool: MAX
    kernel_size: 2
    stride: 2
  }
}
layer {
  name: "conv5_1"
  type: "Convolution"
  bottom: "pool4"
  top: "conv5_1"
  param {
    lr_mult: 1
    decay_mult: 1
  }
  param {
    lr_mult: 2
    decay_mult: 0
  }
  convolution_param {
    num_output: 512
    pad: 1
    kernel_size: 3
    weight_filler {
      type: "xavier"
    }
    bias_filler {
      type: "constant"
      value: 0
    }
    dilation: 1
  }
}
layer {
  name: "relu5_1"
  type: "ReLU"
  bottom: "conv5_1"
  top: "conv5_1"
}
layer {
  name: "conv5_2"
  type: "Convolution"
  bottom: "conv5_1"
  top: "conv5_2"
  param {
    lr_mult: 1
    decay_mult: 1
  }
  param {
    lr_mult: 2
    decay_mult: 0
  }
  convolution_param {
    num_output: 512
    pad: 1
    kernel_size: 3
    weight_filler {
      type: "xavier"
    }
    bias_filler {
      type: "constant"
      value: 0
    }
    dilation: 1
  }
}
layer {
  name: "relu5_2"
  type: "ReLU"
  bottom: "conv5_2"
  top: "conv5_2"
}
layer {
  name: "conv5_3"
  type: "Convolution"
  bottom: "conv5_2"
  top: "conv5_3"
  param {
    lr_mult: 1
    decay_mult: 1
  }
  param {
    lr_mult: 2
    decay_mult: 0
  }
  convolution_param {
    num_output: 512
    pad: 1
    kernel_size: 3
    weight_filler {
      type: "xavier"
    }
    bias_filler {
      type: "constant"
      value: 0
    }
    dilation: 1
  }
}
layer {
  name: "relu5_3"
  type: "ReLU"
  bottom: "conv5_3"
  top: "conv5_3"
}
layer {
  name: "pool5"
  type: "Pooling"
  bottom: "conv5_3"
  top: "pool5"
  pooling_param {
    pool: MAX
    kernel_size: 3
    stride: 1
    pad: 1
  }
}
layer {
  name: "fc6"
  type: "Convolution"
  bottom: "pool5"
  top: "fc6"
  param {
    lr_mult: 1
    decay_mult: 1
  }
  param {
    lr_mult: 2
    decay_mult: 0
  }
  convolution_param {
    num_output: 1024
    pad: 6
    kernel_size: 3
    weight_filler {
      type: "xavier"
    }
    bias_filler {
      type: "constant"
      value: 0
    }
    dilation: 6
  }
}
layer {
  name: "relu6"
  type: "ReLU"
  bottom: "fc6"
  top: "fc6"
}
layer {
  name: "fc7"
  type: "Convolution"
  bottom: "fc6"
  top: "fc7"
  param {
    lr_mult: 1
    decay_mult: 1
  }
  param {
    lr_mult: 2
    decay_mult: 0
  }
  convolution_param {
    num_output: 1024
    kernel_size: 1
    weight_filler {
      type: "xavier"
    }
    bias_filler {
      type: "constant"
      value: 0
    }
  }
}
layer {
  name: "relu7"
  type: "ReLU"
  bottom: "fc7"
  top: "fc7"
}
layer {
  name: "conv6_1"
  type: "Convolution"
  bottom: "fc7"
  top: "conv6_1"
  param {
    lr_mult: 1
    decay_mult: 1
  }
  param {
    lr_mult: 2
    decay_mult: 0
  }
  convolution_param {
    num_output: 256
    pad: 0
    kernel_size: 1
    stride: 1
    weight_filler {
      type: "xavier"
    }
    bias_filler {
      type: "constant"
      value: 0
    }
  }
}
layer {
  name: "conv6_1_relu"
  type: "ReLU"
  bottom: "conv6_1"
  top: "conv6_1"
}
layer {
  name: "conv6_2"
  type: "Convolution"
  bottom: "conv6_1"
  top: "conv6_2"
  param {
    lr_mult: 1
    decay_mult: 1
  }
  param {
    lr_mult: 2
    decay_mult: 0
  }
  convolution_param {
    num_output: 512
    pad: 1
    kernel_size: 3
    stride: 2
    weight_filler {
      type: "xavier"
    }
    bias_filler {
      type: "constant"
      value: 0
    }
  }
}
layer {
  name: "conv6_2_relu"
  type: "ReLU"
  bottom: "conv6_2"
  top: "conv6_2"
}
layer {
  name: "conv7_1"
  type: "Convolution"
  bottom: "conv6_2"
  top: "conv7_1"
  param {
    lr_mult: 1
    decay_mult: 1
  }
  param {
    lr_mult: 2
    decay_mult: 0
  }
  convolution_param {
    num_output: 128
    pad: 0
    kernel_size: 1
    stride: 1
    weight_filler {
      type: "xavier"
    }
    bias_filler {
      type: "constant"
      value: 0
    }
  }
}
layer {
  name: "conv7_1_relu"
  type: "ReLU"
  bottom: "conv7_1"
  top: "conv7_1"
}
layer {
  name: "conv7_2"
  type: "Convolution"
  bottom: "conv7_1"
  top: "conv7_2"
  param {
    lr_mult: 1
    decay_mult: 1
  }
  param {
    lr_mult: 2
    decay_mult: 0
  }
  convolution_param {
    num_output: 256
    pad: 1
    kernel_size: 3
    stride: 2
    weight_filler {
      type: "xavier"
    }
    bias_filler {
      type: "constant"
      value: 0
    }
  }
}
layer {
  name: "conv7_2_relu"
  type: "ReLU"
  bottom: "conv7_2"
  top: "conv7_2"
}
layer {
  name: "conv8_1"
  type: "Convolution"
  bottom: "conv7_2"
  top: "conv8_1"
  param {
    lr_mult: 1
    decay_mult: 1
  }
  param {
    lr_mult: 2
    decay_mult: 0
  }
  convolution_param {
    num_output: 128
    pad: 0
    kernel_size: 1
    stride: 1
    weight_filler {
      type: "xavier"
    }
    bias_filler {
      type: "constant"
      value: 0
    }
  }
}
layer {
  name: "conv8_1_relu"
  type: "ReLU"
  bottom: "conv8_1"
  top: "conv8_1"
}
layer {
  name: "conv8_2"
  type: "Convolution"
  bottom: "conv8_1"
  top: "conv8_2"
  param {
    lr_mult: 1
    decay_mult: 1
  }
  param {
    lr_mult: 2
    decay_mult: 0
  }
  convolution_param {
    num_output: 256
    pad: 0
    kernel_size: 3
    stride: 1
    weight_filler {
      type: "xavier"
    }
    bias_filler {
      type: "constant"
      value: 0
    }
  }
}
layer {
  name: "conv8_2_relu"
  type: "ReLU"
  bottom: "conv8_2"
  top: "conv8_2"
}
layer {
  name: "conv9_1"
  type: "Convolution"
  bottom: "conv8_2"
  top: "conv9_1"
  param {
    lr_mult: 1
    decay_mult: 1
  }
  param {
    lr_mult: 2
    decay_mult: 0
  }
  convolution_param {
    num_output: 128
    pad: 0
    kernel_size: 1
    stride: 1
    weight_filler {
      type: "xavier"
    }
    bias_filler {
      type: "constant"
      value: 0
    }
  }
}
layer {
  name: "conv9_1_relu"
  type: "ReLU"
  bottom: "conv9_1"
  top: "conv9_1"
}
layer {
  name: "conv9_2"
  type: "Convolution"
  bottom: "conv9_1"
  top: "conv9_2"
  param {
    lr_mult: 1
    decay_mult: 1
  }
  param {
    lr_mult: 2
    decay_mult: 0
  }
  convolution_param {
    num_output: 256
    pad: 0
    kernel_size: 3
    stride: 1
    weight_filler {
      type: "xavier"
    }
    bias_filler {
      type: "constant"
      value: 0
    }
  }
}
layer {
  name: "conv9_2_relu"
  type: "ReLU"
  bottom: "conv9_2"
  top: "conv9_2"
}
layer {
  name: "conv4_3_norm"
  type: "Normalize"
  bottom: "conv4_3"
  top: "conv4_3_norm"
  norm_param {
    across_spatial: false
    scale_filler {
      type: "constant"
      value: 20
    }
    channel_shared: false
  }
}
layer {
  name: "conv4_3_norm_mbox_loc"
  type: "Convolution"
  bottom: "conv4_3_norm"
  top: "conv4_3_norm_mbox_loc"
  param {
    lr_mult: 1
    decay_mult: 1
  }
  param {
    lr_mult: 2
    decay_mult: 0
  }
  convolution_param {
    num_output: 16
    pad: 1
    kernel_size: 3
    stride: 1
    weight_filler {
      type: "xavier"
    }
    bias_filler {
      type: "constant"
      value: 0
    }
  }
}
layer {
  name: "conv4_3_norm_mbox_loc_perm"
  type: "Permute"
  bottom: "conv4_3_norm_mbox_loc"
  top: "conv4_3_norm_mbox_loc_perm"
  permute_param {
    order: 0
    order: 2
    order: 3
    order: 1
  }
}
layer {
  name: "conv4_3_norm_mbox_loc_flat"
  type: "Flatten"
  bottom: "conv4_3_norm_mbox_loc_perm"
  top: "conv4_3_norm_mbox_loc_flat"
  flatten_param {
    axis: 1
  }
}
layer {
  name: "conv4_3_norm_mbox_conf"
  type: "Convolution"
  bottom: "conv4_3_norm"
  top: "conv4_3_norm_mbox_conf"
  param {
    lr_mult: 1
    decay_mult: 1
  }
  param {
    lr_mult: 2
    decay_mult: 0
  }
  convolution_param {
    num_output: 8
    pad: 1
    kernel_size: 3
    stride: 1
    weight_filler {
      type: "xavier"
    }
    bias_filler {
      type: "constant"
      value: 0
    }
  }
}
layer {
  name: "conv4_3_norm_mbox_conf_perm"
  type: "Permute"
  bottom: "conv4_3_norm_mbox_conf"
  top: "conv4_3_norm_mbox_conf_perm"
  permute_param {
    order: 0
    order: 2
    order: 3
    order: 1
  }
}
layer {
  name: "conv4_3_norm_mbox_conf_flat"
  type: "Flatten"
  bottom: "conv4_3_norm_mbox_conf_perm"
  top: "conv4_3_norm_mbox_conf_flat"
  flatten_param {
    axis: 1
  }
}
layer {
  name: "conv4_3_norm_mbox_priorbox"
  type: "PriorBox"
  bottom: "conv4_3_norm"
  bottom: "data"
  top: "conv4_3_norm_mbox_priorbox"
  prior_box_param {
    min_size: 30
    max_size: 60
    aspect_ratio: 2
    flip: true
    clip: false
    variance: 0.1
    variance: 0.1
    variance: 0.2
    variance: 0.2
    step: 8
    offset: 0.5
  }
}
layer {
  name: "fc7_mbox_loc"
  type: "Convolution"
  bottom: "fc7"
  top: "fc7_mbox_loc"
  param {
    lr_mult: 1
    decay_mult: 1
  }
  param {
    lr_mult: 2
    decay_mult: 0
  }
  convolution_param {
    num_output: 24
    pad: 1
    kernel_size: 3
    stride: 1
    weight_filler {
      type: "xavier"
    }
    bias_filler {
      type: "constant"
      value: 0
    }
  }
}
layer {
  name: "fc7_mbox_loc_perm"
  type: "Permute"
  bottom: "fc7_mbox_loc"
  top: "fc7_mbox_loc_perm"
  permute_param {
    order: 0
    order: 2
    order: 3
    order: 1
  }
}
layer {
  name: "fc7_mbox_loc_flat"
  type: "Flatten"
  bottom: "fc7_mbox_loc_perm"
  top: "fc7_mbox_loc_flat"
  flatten_param {
    axis: 1
  }
}
layer {
  name: "fc7_mbox_conf"
  type: "Convolution"
  bottom: "fc7"
  top: "fc7_mbox_conf"
  param {
    lr_mult: 1
    decay_mult: 1
  }
  param {
    lr_mult: 2
    decay_mult: 0
  }
  convolution_param {
    num_output: 12
    pad: 1
    kernel_size: 3
    stride: 1
    weight_filler {
      type: "xavier"
    }
    bias_filler {
      type: "constant"
      value: 0
    }
  }
}
layer {
  name: "fc7_mbox_conf_perm"
  type: "Permute"
  bottom: "fc7_mbox_conf"
  top: "fc7_mbox_conf_perm"
  permute_param {
    order: 0
    order: 2
    order: 3
    order: 1
  }
}
layer {
  name: "fc7_mbox_conf_flat"
  type: "Flatten"
  bottom: "fc7_mbox_conf_perm"
  top: "fc7_mbox_conf_flat"
  flatten_param {
    axis: 1
  }
}
layer {
  name: "fc7_mbox_priorbox"
  type: "PriorBox"
  bottom: "fc7"
  bottom: "data"
  top: "fc7_mbox_priorbox"
  prior_box_param {
    min_size: 60
    max_size: 111
    aspect_ratio: 2
    aspect_ratio: 3
    flip: true
    clip: false
    variance: 0.1
    variance: 0.1
    variance: 0.2
    variance: 0.2
    step: 16
    offset: 0.5
  }
}
layer {
  name: "conv6_2_mbox_loc"
  type: "Convolution"
  bottom: "conv6_2"
  top: "conv6_2_mbox_loc"
  param {
    lr_mult: 1
    decay_mult: 1
  }
  param {
    lr_mult: 2
    decay_mult: 0
  }
  convolution_param {
    num_output: 24
    pad: 1
    kernel_size: 3
    stride: 1
    weight_filler {
      type: "xavier"
    }
    bias_filler {
      type: "constant"
      value: 0
    }
  }
}
layer {
  name: "conv6_2_mbox_loc_perm"
  type: "Permute"
  bottom: "conv6_2_mbox_loc"
  top: "conv6_2_mbox_loc_perm"
  permute_param {
    order: 0
    order: 2
    order: 3
    order: 1
  }
}
layer {
  name: "conv6_2_mbox_loc_flat"
  type: "Flatten"
  bottom: "conv6_2_mbox_loc_perm"
  top: "conv6_2_mbox_loc_flat"
  flatten_param {
    axis: 1
  }
}
layer {
  name: "conv6_2_mbox_conf"
  type: "Convolution"
  bottom: "conv6_2"
  top: "conv6_2_mbox_conf"
  param {
    lr_mult: 1
    decay_mult: 1
  }
  param {
    lr_mult: 2
    decay_mult: 0
  }
  convolution_param {
    num_output: 12
    pad: 1
    kernel_size: 3
    stride: 1
    weight_filler {
      type: "xavier"
    }
    bias_filler {
      type: "constant"
      value: 0
    }
  }
}
layer {
  name: "conv6_2_mbox_conf_perm"
  type: "Permute"
  bottom: "conv6_2_mbox_conf"
  top: "conv6_2_mbox_conf_perm"
  permute_param {
    order: 0
    order: 2
    order: 3
    order: 1
  }
}
layer {
  name: "conv6_2_mbox_conf_flat"
  type: "Flatten"
  bottom: "conv6_2_mbox_conf_perm"
  top: "conv6_2_mbox_conf_flat"
  flatten_param {
    axis: 1
  }
}
layer {
  name: "conv6_2_mbox_priorbox"
  type: "PriorBox"
  bottom: "conv6_2"
  bottom: "data"
  top: "conv6_2_mbox_priorbox"
  prior_box_param {
    min_size: 111
    max_size: 162
    aspect_ratio: 2
    aspect_ratio: 3
    flip: true
    clip: false
    variance: 0.1
    variance: 0.1
    variance: 0.2
    variance: 0.2
    step: 32
    offset: 0.5
  }
}
layer {
  name: "conv7_2_mbox_loc"
  type: "Convolution"
  bottom: "conv7_2"
  top: "conv7_2_mbox_loc"
  param {
    lr_mult: 1
    decay_mult: 1
  }
  param {
    lr_mult: 2
    decay_mult: 0
  }
  convolution_param {
    num_output: 24
    pad: 1
    kernel_size: 3
    stride: 1
    weight_filler {
      type: "xavier"
    }
    bias_filler {
      type: "constant"
      value: 0
    }
  }
}
layer {
  name: "conv7_2_mbox_loc_perm"
  type: "Permute"
  bottom: "conv7_2_mbox_loc"
  top: "conv7_2_mbox_loc_perm"
  permute_param {
    order: 0
    order: 2
    order: 3
    order: 1
  }
}
layer {
  name: "conv7_2_mbox_loc_flat"
  type: "Flatten"
  bottom: "conv7_2_mbox_loc_perm"
  top: "conv7_2_mbox_loc_flat"
  flatten_param {
    axis: 1
  }
}
layer {
  name: "conv7_2_mbox_conf"
  type: "Convolution"
  bottom: "conv7_2"
  top: "conv7_2_mbox_conf"
  param {
    lr_mult: 1
    decay_mult: 1
  }
  param {
    lr_mult: 2
    decay_mult: 0
  }
  convolution_param {
    num_output: 12
    pad: 1
    kernel_size: 3
    stride: 1
    weight_filler {
      type: "xavier"
    }
    bias_filler {
      type: "constant"
      value: 0
    }
  }
}
layer {
  name: "conv7_2_mbox_conf_perm"
  type: "Permute"
  bottom: "conv7_2_mbox_conf"
  top: "conv7_2_mbox_conf_perm"
  permute_param {
    order: 0
    order: 2
    order: 3
    order: 1
  }
}
layer {
  name: "conv7_2_mbox_conf_flat"
  type: "Flatten"
  bottom: "conv7_2_mbox_conf_perm"
  top: "conv7_2_mbox_conf_flat"
  flatten_param {
    axis: 1
  }
}
layer {
  name: "conv7_2_mbox_priorbox"
  type: "PriorBox"
  bottom: "conv7_2"
  bottom: "data"
  top: "conv7_2_mbox_priorbox"
  prior_box_param {
    min_size: 162
    max_size: 213
    aspect_ratio: 2
    aspect_ratio: 3
    flip: true
    clip: false
    variance: 0.1
    variance: 0.1
    variance: 0.2
    variance: 0.2
    step: 64
    offset: 0.5
  }
}
layer {
  name: "conv8_2_mbox_loc"
  type: "Convolution"
  bottom: "conv8_2"
  top: "conv8_2_mbox_loc"
  param {
    lr_mult: 1
    decay_mult: 1
  }
  param {
    lr_mult: 2
    decay_mult: 0
  }
  convolution_param {
    num_output: 16
    pad: 1
    kernel_size: 3
    stride: 1
    weight_filler {
      type: "xavier"
    }
    bias_filler {
      type: "constant"
      value: 0
    }
  }
}
layer {
  name: "conv8_2_mbox_loc_perm"
  type: "Permute"
  bottom: "conv8_2_mbox_loc"
  top: "conv8_2_mbox_loc_perm"
  permute_param {
    order: 0
    order: 2
    order: 3
    order: 1
  }
}
layer {
  name: "conv8_2_mbox_loc_flat"
  type: "Flatten"
  bottom: "conv8_2_mbox_loc_perm"
  top: "conv8_2_mbox_loc_flat"
  flatten_param {
    axis: 1
  }
}
layer {
  name: "conv8_2_mbox_conf"
  type: "Convolution"
  bottom: "conv8_2"
  top: "conv8_2_mbox_conf"
  param {
    lr_mult: 1
    decay_mult: 1
  }
  param {
    lr_mult: 2
    decay_mult: 0
  }
  convolution_param {
    num_output: 8
    pad: 1
    kernel_size: 3
    stride: 1
    weight_filler {
      type: "xavier"
    }
    bias_filler {
      type: "constant"
      value: 0
    }
  }
}
layer {
  name: "conv8_2_mbox_conf_perm"
  type: "Permute"
  bottom: "conv8_2_mbox_conf"
  top: "conv8_2_mbox_conf_perm"
  permute_param {
    order: 0
    order: 2
    order: 3
    order: 1
  }
}
layer {
  name: "conv8_2_mbox_conf_flat"
  type: "Flatten"
  bottom: "conv8_2_mbox_conf_perm"
  top: "conv8_2_mbox_conf_flat"
  flatten_param {
    axis: 1
  }
}
layer {
  name: "conv8_2_mbox_priorbox"
  type: "PriorBox"
  bottom: "conv8_2"
  bottom: "data"
  top: "conv8_2_mbox_priorbox"
  prior_box_param {
    min_size: 213
    max_size: 264
    aspect_ratio: 2
    flip: true
    clip: false
    variance: 0.1
    variance: 0.1
    variance: 0.2
    variance: 0.2
    step: 100
    offset: 0.5
  }
}
layer {
  name: "conv9_2_mbox_loc"
  type: "Convolution"
  bottom: "conv9_2"
  top: "conv9_2_mbox_loc"
  param {
    lr_mult: 1
    decay_mult: 1
  }
  param {
    lr_mult: 2
    decay_mult: 0
  }
  convolution_param {
    num_output: 16
    pad: 1
    kernel_size: 3
    stride: 1
    weight_filler {
      type: "xavier"
    }
    bias_filler {
      type: "constant"
      value: 0
    }
  }
}
layer {
  name: "conv9_2_mbox_loc_perm"
  type: "Permute"
  bottom: "conv9_2_mbox_loc"
  top: "conv9_2_mbox_loc_perm"
  permute_param {
    order: 0
    order: 2
    order: 3
    order: 1
  }
}
layer {
  name: "conv9_2_mbox_loc_flat"
  type: "Flatten"
  bottom: "conv9_2_mbox_loc_perm"
  top: "conv9_2_mbox_loc_flat"
  flatten_param {
    axis: 1
  }
}
layer {
  name: "conv9_2_mbox_conf"
  type: "Convolution"
  bottom: "conv9_2"
  top: "conv9_2_mbox_conf"
  param {
    lr_mult: 1
    decay_mult: 1
  }
  param {
    lr_mult: 2
    decay_mult: 0
  }
  convolution_param {
    num_output: 8
    pad: 1
    kernel_size: 3
    stride: 1
    weight_filler {
      type: "xavier"
    }
    bias_filler {
      type: "constant"
      value: 0
    }
  }
}
layer {
  name: "conv9_2_mbox_conf_perm"
  type: "Permute"
  bottom: "conv9_2_mbox_conf"
  top: "conv9_2_mbox_conf_perm"
  permute_param {
    order: 0
    order: 2
    order: 3
    order: 1
  }
}
layer {
  name: "conv9_2_mbox_conf_flat"
  type: "Flatten"
  bottom: "conv9_2_mbox_conf_perm"
  top: "conv9_2_mbox_conf_flat"
  flatten_param {
    axis: 1
  }
}
layer {
  name: "conv9_2_mbox_priorbox"
  type: "PriorBox"
  bottom: "conv9_2"
  bottom: "data"
  top: "conv9_2_mbox_priorbox"
  prior_box_param {
    min_size: 264
    max_size: 315
    aspect_ratio: 2
    flip: true
    clip: false
    variance: 0.1
    variance: 0.1
    variance: 0.2
    variance: 0.2
    step: 300
    offset: 0.5
  }
}
layer {
  name: "mbox_loc"
  type: "Concat"
  bottom: "conv4_3_norm_mbox_loc_flat"
  bottom: "fc7_mbox_loc_flat"
  bottom: "conv6_2_mbox_loc_flat"
  bottom: "conv7_2_mbox_loc_flat"
  bottom: "conv8_2_mbox_loc_flat"
  bottom: "conv9_2_mbox_loc_flat"
  top: "mbox_loc"
  concat_param {
    axis: 1
  }
}
layer {
  name: "mbox_conf"
  type: "Concat"
  bottom: "conv4_3_norm_mbox_conf_flat"
  bottom: "fc7_mbox_conf_flat"
  bottom: "conv6_2_mbox_conf_flat"
  bottom: "conv7_2_mbox_conf_flat"
  bottom: "conv8_2_mbox_conf_flat"
  bottom: "conv9_2_mbox_conf_flat"
  top: "mbox_conf"
  concat_param {
    axis: 1
  }
}
layer {
  name: "mbox_priorbox"
  type: "Concat"
  bottom: "conv4_3_norm_mbox_priorbox"
  bottom: "fc7_mbox_priorbox"
  bottom: "conv6_2_mbox_priorbox"
  bottom: "conv7_2_mbox_priorbox"
  bottom: "conv8_2_mbox_priorbox"
  bottom: "conv9_2_mbox_priorbox"
  top: "mbox_priorbox"
  concat_param {
    axis: 2
  }
}
layer {
  name: "mbox_conf_reshape"
  type: "Reshape"
  bottom: "mbox_conf"
  top: "mbox_conf_reshape"
  reshape_param {
    shape {
      dim: 0
      dim: -1
      dim: 2
    }
  }
}
layer {
  name: "mbox_conf_softmax"
  type: "Softmax"
  bottom: "mbox_conf_reshape"
  top: "mbox_conf_softmax"
  softmax_param {
    axis: 2
  }
}
layer {
  name: "mbox_conf_flatten"
  type: "Flatten"
  bottom: "mbox_conf_softmax"
  top: "mbox_conf_flatten"
  flatten_param {
    axis: 1
  }
}
layer {
  name: "detection_out"
  type: "DetectionOutput"
  bottom: "mbox_loc"
  bottom: "mbox_conf_flatten"
  bottom: "mbox_priorbox"
  top: "detection_out"
  include {
    phase: TEST
  }
  detection_output_param {
    num_classes: 2
    share_location: true
    background_label_id: 0
    nms_param {
      nms_threshold: 0.45
      top_k: 400
    }
    save_output_param {
      output_directory: "/home/ubuntu/data/grayscale_tbs_v2.0/results/tbs/SSD_300x300/Main"
      output_name_prefix: "comp4_det_test_"
      output_format: "VOC"
      label_map_file: "data/grayscale_tbs_v2.0/labelmap_voc.prototxt"
      name_size_file: "data/grayscale_tbs_v2.0/test_name_size"
      num_test_image: 200
    }
    code_type: CENTER_SIZE
    keep_top_k: 200
    confidence_threshold: 0.01
  }
}
layer {
  name: "detection_eval"
  type: "DetectionEvaluate"
  bottom: "detection_out"
  bottom: "label"
  top: "detection_eval"
  include {
    phase: TEST
  }
  detection_evaluate_param {
    num_classes: 2
    background_label_id: 0
    overlap_threshold: 0.5
    evaluate_difficult_gt: false
    name_size_file: "data/grayscale_tbs_v2.0/test_name_size"
  }
}
I0609 09:14:43.225033 26601 layer_factory.hpp:77] Creating layer data
I0609 09:14:43.225136 26601 net.cpp:100] Creating Layer data
I0609 09:14:43.225150 26601 net.cpp:409] data -> data
I0609 09:14:43.225169 26601 net.cpp:409] data -> label
I0609 09:14:43.225181 26601 layer.hpp:71] 
I0609 09:14:43.226748 26615 db_lmdb.cpp:35] Opened lmdb examples/grayscale_tbs_v2.0/grayscale_tbs_v2.0_test_lmdb
I0609 09:14:43.229269 26601 annotated_data_layer.cpp:62] output data size: 4,3,300,300
I0609 09:14:43.239205 26601 net.cpp:151] Setting up data
I0609 09:14:43.239253 26601 net.cpp:158] Top shape: 4 3 300 300 (1080000)
I0609 09:14:43.239262 26601 net.cpp:158] Top shape: 1 1 1 8 (8)
I0609 09:14:43.239266 26601 net.cpp:166] Memory required for data: 4320032
I0609 09:14:43.239276 26601 layer_factory.hpp:77] Creating layer data_data_0_split
I0609 09:14:43.239300 26601 net.cpp:100] Creating Layer data_data_0_split
I0609 09:14:43.239308 26601 net.cpp:435] data_data_0_split <- data
I0609 09:14:43.239322 26601 net.cpp:409] data_data_0_split -> data_data_0_split_0
I0609 09:14:43.239342 26601 net.cpp:409] data_data_0_split -> data_data_0_split_1
I0609 09:14:43.239353 26601 net.cpp:409] data_data_0_split -> data_data_0_split_2
I0609 09:14:43.239365 26601 net.cpp:409] data_data_0_split -> data_data_0_split_3
I0609 09:14:43.239409 26601 net.cpp:409] data_data_0_split -> data_data_0_split_4
I0609 09:14:43.239423 26601 net.cpp:409] data_data_0_split -> data_data_0_split_5
I0609 09:14:43.239431 26601 net.cpp:409] data_data_0_split -> data_data_0_split_6
I0609 09:14:43.239445 26601 layer.hpp:71] 
I0609 09:14:43.239641 26601 net.cpp:151] Setting up data_data_0_split
I0609 09:14:43.239653 26601 net.cpp:158] Top shape: 4 3 300 300 (1080000)
I0609 09:14:43.239660 26601 net.cpp:158] Top shape: 4 3 300 300 (1080000)
I0609 09:14:43.239666 26601 net.cpp:158] Top shape: 4 3 300 300 (1080000)
I0609 09:14:43.239672 26601 net.cpp:158] Top shape: 4 3 300 300 (1080000)
I0609 09:14:43.239677 26601 net.cpp:158] Top shape: 4 3 300 300 (1080000)
I0609 09:14:43.239684 26601 net.cpp:158] Top shape: 4 3 300 300 (1080000)
I0609 09:14:43.239692 26601 net.cpp:158] Top shape: 4 3 300 300 (1080000)
I0609 09:14:43.239696 26601 net.cpp:166] Memory required for data: 34560032
I0609 09:14:43.239701 26601 layer_factory.hpp:77] Creating layer conv1_1
I0609 09:14:43.239723 26601 net.cpp:100] Creating Layer conv1_1
I0609 09:14:43.239730 26601 net.cpp:435] conv1_1 <- data_data_0_split_0
I0609 09:14:43.239740 26601 net.cpp:409] conv1_1 -> conv1_1
I0609 09:14:43.239750 26601 layer.hpp:71] 
I0609 09:14:43.243232 26601 net.cpp:151] Setting up conv1_1
I0609 09:14:43.243260 26601 net.cpp:158] Top shape: 4 64 300 300 (23040000)
I0609 09:14:43.243266 26601 net.cpp:166] Memory required for data: 126720032
I0609 09:14:43.243285 26601 layer_factory.hpp:77] Creating layer relu1_1
I0609 09:14:43.243299 26601 net.cpp:100] Creating Layer relu1_1
I0609 09:14:43.243306 26601 net.cpp:435] relu1_1 <- conv1_1
I0609 09:14:43.243316 26601 net.cpp:396] relu1_1 -> conv1_1 (in-place)
I0609 09:14:43.243326 26601 layer.hpp:71] 
I0609 09:14:43.243626 26601 net.cpp:151] Setting up relu1_1
I0609 09:14:43.243639 26601 net.cpp:158] Top shape: 4 64 300 300 (23040000)
I0609 09:14:43.243645 26601 net.cpp:166] Memory required for data: 218880032
I0609 09:14:43.243650 26601 layer_factory.hpp:77] Creating layer conv1_2
I0609 09:14:43.243667 26601 net.cpp:100] Creating Layer conv1_2
I0609 09:14:43.243675 26601 net.cpp:435] conv1_2 <- conv1_1
I0609 09:14:43.243685 26601 net.cpp:409] conv1_2 -> conv1_2
I0609 09:14:43.243696 26601 layer.hpp:71] 
I0609 09:14:43.247550 26601 net.cpp:151] Setting up conv1_2
I0609 09:14:43.247575 26601 net.cpp:158] Top shape: 4 64 300 300 (23040000)
I0609 09:14:43.247581 26601 net.cpp:166] Memory required for data: 311040032
I0609 09:14:43.247596 26601 layer_factory.hpp:77] Creating layer relu1_2
I0609 09:14:43.247608 26601 net.cpp:100] Creating Layer relu1_2
I0609 09:14:43.247614 26601 net.cpp:435] relu1_2 <- conv1_2
I0609 09:14:43.247624 26601 net.cpp:396] relu1_2 -> conv1_2 (in-place)
I0609 09:14:43.247634 26601 layer.hpp:71] 
I0609 09:14:43.248500 26601 net.cpp:151] Setting up relu1_2
I0609 09:14:43.248517 26601 net.cpp:158] Top shape: 4 64 300 300 (23040000)
I0609 09:14:43.248522 26601 net.cpp:166] Memory required for data: 403200032
I0609 09:14:43.248527 26601 layer_factory.hpp:77] Creating layer pool1
I0609 09:14:43.248538 26601 net.cpp:100] Creating Layer pool1
I0609 09:14:43.248543 26601 net.cpp:435] pool1 <- conv1_2
I0609 09:14:43.248553 26601 net.cpp:409] pool1 -> pool1
I0609 09:14:43.248563 26601 layer.hpp:71] 
I0609 09:14:43.248642 26601 net.cpp:151] Setting up pool1
I0609 09:14:43.248654 26601 net.cpp:158] Top shape: 4 64 150 150 (5760000)
I0609 09:14:43.248659 26601 net.cpp:166] Memory required for data: 426240032
I0609 09:14:43.248666 26601 layer_factory.hpp:77] Creating layer conv2_1
I0609 09:14:43.248678 26601 net.cpp:100] Creating Layer conv2_1
I0609 09:14:43.248685 26601 net.cpp:435] conv2_1 <- pool1
I0609 09:14:43.248694 26601 net.cpp:409] conv2_1 -> conv2_1
I0609 09:14:43.248704 26601 layer.hpp:71] 
I0609 09:14:43.252074 26601 net.cpp:151] Setting up conv2_1
I0609 09:14:43.252095 26601 net.cpp:158] Top shape: 4 128 150 150 (11520000)
I0609 09:14:43.252101 26601 net.cpp:166] Memory required for data: 472320032
I0609 09:14:43.252135 26601 layer_factory.hpp:77] Creating layer relu2_1
I0609 09:14:43.252149 26601 net.cpp:100] Creating Layer relu2_1
I0609 09:14:43.252156 26601 net.cpp:435] relu2_1 <- conv2_1
I0609 09:14:43.252166 26601 net.cpp:396] relu2_1 -> conv2_1 (in-place)
I0609 09:14:43.252176 26601 layer.hpp:71] 
I0609 09:14:43.253592 26601 net.cpp:151] Setting up relu2_1
I0609 09:14:43.253608 26601 net.cpp:158] Top shape: 4 128 150 150 (11520000)
I0609 09:14:43.253614 26601 net.cpp:166] Memory required for data: 518400032
I0609 09:14:43.253620 26601 layer_factory.hpp:77] Creating layer conv2_2
I0609 09:14:43.253636 26601 net.cpp:100] Creating Layer conv2_2
I0609 09:14:43.253644 26601 net.cpp:435] conv2_2 <- conv2_1
I0609 09:14:43.253655 26601 net.cpp:409] conv2_2 -> conv2_2
I0609 09:14:43.253666 26601 layer.hpp:71] 
I0609 09:14:43.257088 26601 net.cpp:151] Setting up conv2_2
I0609 09:14:43.257104 26601 net.cpp:158] Top shape: 4 128 150 150 (11520000)
I0609 09:14:43.257107 26601 net.cpp:166] Memory required for data: 564480032
I0609 09:14:43.257114 26601 layer_factory.hpp:77] Creating layer relu2_2
I0609 09:14:43.257124 26601 net.cpp:100] Creating Layer relu2_2
I0609 09:14:43.257128 26601 net.cpp:435] relu2_2 <- conv2_2
I0609 09:14:43.257134 26601 net.cpp:396] relu2_2 -> conv2_2 (in-place)
I0609 09:14:43.257143 26601 layer.hpp:71] 
I0609 09:14:43.257346 26601 net.cpp:151] Setting up relu2_2
I0609 09:14:43.257355 26601 net.cpp:158] Top shape: 4 128 150 150 (11520000)
I0609 09:14:43.257359 26601 net.cpp:166] Memory required for data: 610560032
I0609 09:14:43.257361 26601 layer_factory.hpp:77] Creating layer pool2
I0609 09:14:43.257369 26601 net.cpp:100] Creating Layer pool2
I0609 09:14:43.257372 26601 net.cpp:435] pool2 <- conv2_2
I0609 09:14:43.257380 26601 net.cpp:409] pool2 -> pool2
I0609 09:14:43.257386 26601 layer.hpp:71] 
I0609 09:14:43.257441 26601 net.cpp:151] Setting up pool2
I0609 09:14:43.257454 26601 net.cpp:158] Top shape: 4 128 75 75 (2880000)
I0609 09:14:43.257457 26601 net.cpp:166] Memory required for data: 622080032
I0609 09:14:43.257460 26601 layer_factory.hpp:77] Creating layer conv3_1
I0609 09:14:43.257470 26601 net.cpp:100] Creating Layer conv3_1
I0609 09:14:43.257475 26601 net.cpp:435] conv3_1 <- pool2
I0609 09:14:43.257483 26601 net.cpp:409] conv3_1 -> conv3_1
I0609 09:14:43.257489 26601 layer.hpp:71] 
I0609 09:14:43.262662 26601 net.cpp:151] Setting up conv3_1
I0609 09:14:43.262683 26601 net.cpp:158] Top shape: 4 256 75 75 (5760000)
I0609 09:14:43.262686 26601 net.cpp:166] Memory required for data: 645120032
I0609 09:14:43.262698 26601 layer_factory.hpp:77] Creating layer relu3_1
I0609 09:14:43.262706 26601 net.cpp:100] Creating Layer relu3_1
I0609 09:14:43.262711 26601 net.cpp:435] relu3_1 <- conv3_1
I0609 09:14:43.262718 26601 net.cpp:396] relu3_1 -> conv3_1 (in-place)
I0609 09:14:43.262725 26601 layer.hpp:71] 
I0609 09:14:43.263473 26601 net.cpp:151] Setting up relu3_1
I0609 09:14:43.263490 26601 net.cpp:158] Top shape: 4 256 75 75 (5760000)
I0609 09:14:43.263496 26601 net.cpp:166] Memory required for data: 668160032
I0609 09:14:43.263502 26601 layer_factory.hpp:77] Creating layer conv3_2
I0609 09:14:43.263521 26601 net.cpp:100] Creating Layer conv3_2
I0609 09:14:43.263530 26601 net.cpp:435] conv3_2 <- conv3_1
I0609 09:14:43.263540 26601 net.cpp:409] conv3_2 -> conv3_2
I0609 09:14:43.263557 26601 layer.hpp:71] 
I0609 09:14:43.272709 26601 net.cpp:151] Setting up conv3_2
I0609 09:14:43.272766 26601 net.cpp:158] Top shape: 4 256 75 75 (5760000)
I0609 09:14:43.272773 26601 net.cpp:166] Memory required for data: 691200032
I0609 09:14:43.272789 26601 layer_factory.hpp:77] Creating layer relu3_2
I0609 09:14:43.272802 26601 net.cpp:100] Creating Layer relu3_2
I0609 09:14:43.272810 26601 net.cpp:435] relu3_2 <- conv3_2
I0609 09:14:43.272820 26601 net.cpp:396] relu3_2 -> conv3_2 (in-place)
I0609 09:14:43.272832 26601 layer.hpp:71] 
I0609 09:14:43.273340 26601 net.cpp:151] Setting up relu3_2
I0609 09:14:43.273355 26601 net.cpp:158] Top shape: 4 256 75 75 (5760000)
I0609 09:14:43.273358 26601 net.cpp:166] Memory required for data: 714240032
I0609 09:14:43.273385 26601 layer_factory.hpp:77] Creating layer conv3_3
I0609 09:14:43.273406 26601 net.cpp:100] Creating Layer conv3_3
I0609 09:14:43.273411 26601 net.cpp:435] conv3_3 <- conv3_2
I0609 09:14:43.273418 26601 net.cpp:409] conv3_3 -> conv3_3
I0609 09:14:43.273427 26601 layer.hpp:71] 
I0609 09:14:43.281551 26601 net.cpp:151] Setting up conv3_3
I0609 09:14:43.281587 26601 net.cpp:158] Top shape: 4 256 75 75 (5760000)
I0609 09:14:43.281594 26601 net.cpp:166] Memory required for data: 737280032
I0609 09:14:43.281607 26601 layer_factory.hpp:77] Creating layer relu3_3
I0609 09:14:43.281618 26601 net.cpp:100] Creating Layer relu3_3
I0609 09:14:43.281631 26601 net.cpp:435] relu3_3 <- conv3_3
I0609 09:14:43.281646 26601 net.cpp:396] relu3_3 -> conv3_3 (in-place)
I0609 09:14:43.281657 26601 layer.hpp:71] 
I0609 09:14:43.282557 26601 net.cpp:151] Setting up relu3_3
I0609 09:14:43.282584 26601 net.cpp:158] Top shape: 4 256 75 75 (5760000)
I0609 09:14:43.282591 26601 net.cpp:166] Memory required for data: 760320032
I0609 09:14:43.282598 26601 layer_factory.hpp:77] Creating layer pool3
I0609 09:14:43.282613 26601 net.cpp:100] Creating Layer pool3
I0609 09:14:43.282621 26601 net.cpp:435] pool3 <- conv3_3
I0609 09:14:43.282630 26601 net.cpp:409] pool3 -> pool3
I0609 09:14:43.282649 26601 layer.hpp:71] 
I0609 09:14:43.282748 26601 net.cpp:151] Setting up pool3
I0609 09:14:43.282768 26601 net.cpp:158] Top shape: 4 256 38 38 (1478656)
I0609 09:14:43.282774 26601 net.cpp:166] Memory required for data: 766234656
I0609 09:14:43.282780 26601 layer_factory.hpp:77] Creating layer conv4_1
I0609 09:14:43.282797 26601 net.cpp:100] Creating Layer conv4_1
I0609 09:14:43.282811 26601 net.cpp:435] conv4_1 <- pool3
I0609 09:14:43.282825 26601 net.cpp:409] conv4_1 -> conv4_1
I0609 09:14:43.282842 26601 layer.hpp:71] 
I0609 09:14:43.295532 26601 net.cpp:151] Setting up conv4_1
I0609 09:14:43.295573 26601 net.cpp:158] Top shape: 4 512 38 38 (2957312)
I0609 09:14:43.295580 26601 net.cpp:166] Memory required for data: 778063904
I0609 09:14:43.295593 26601 layer_factory.hpp:77] Creating layer relu4_1
I0609 09:14:43.295605 26601 net.cpp:100] Creating Layer relu4_1
I0609 09:14:43.295614 26601 net.cpp:435] relu4_1 <- conv4_1
I0609 09:14:43.295626 26601 net.cpp:396] relu4_1 -> conv4_1 (in-place)
I0609 09:14:43.295639 26601 layer.hpp:71] 
I0609 09:14:43.296453 26601 net.cpp:151] Setting up relu4_1
I0609 09:14:43.296478 26601 net.cpp:158] Top shape: 4 512 38 38 (2957312)
I0609 09:14:43.296485 26601 net.cpp:166] Memory required for data: 789893152
I0609 09:14:43.296491 26601 layer_factory.hpp:77] Creating layer conv4_2
I0609 09:14:43.296514 26601 net.cpp:100] Creating Layer conv4_2
I0609 09:14:43.296521 26601 net.cpp:435] conv4_2 <- conv4_1
I0609 09:14:43.296533 26601 net.cpp:409] conv4_2 -> conv4_2
I0609 09:14:43.296548 26601 layer.hpp:71] 
I0609 09:14:43.317512 26601 net.cpp:151] Setting up conv4_2
I0609 09:14:43.317559 26601 net.cpp:158] Top shape: 4 512 38 38 (2957312)
I0609 09:14:43.317565 26601 net.cpp:166] Memory required for data: 801722400
I0609 09:14:43.317587 26601 layer_factory.hpp:77] Creating layer relu4_2
I0609 09:14:43.317605 26601 net.cpp:100] Creating Layer relu4_2
I0609 09:14:43.317615 26601 net.cpp:435] relu4_2 <- conv4_2
I0609 09:14:43.317625 26601 net.cpp:396] relu4_2 -> conv4_2 (in-place)
I0609 09:14:43.317638 26601 layer.hpp:71] 
I0609 09:14:43.317970 26601 net.cpp:151] Setting up relu4_2
I0609 09:14:43.317997 26601 net.cpp:158] Top shape: 4 512 38 38 (2957312)
I0609 09:14:43.318004 26601 net.cpp:166] Memory required for data: 813551648
I0609 09:14:43.318011 26601 layer_factory.hpp:77] Creating layer conv4_3
I0609 09:14:43.318029 26601 net.cpp:100] Creating Layer conv4_3
I0609 09:14:43.318043 26601 net.cpp:435] conv4_3 <- conv4_2
I0609 09:14:43.318058 26601 net.cpp:409] conv4_3 -> conv4_3
I0609 09:14:43.318078 26601 layer.hpp:71] 
I0609 09:14:43.340178 26601 net.cpp:151] Setting up conv4_3
I0609 09:14:43.340239 26601 net.cpp:158] Top shape: 4 512 38 38 (2957312)
I0609 09:14:43.340247 26601 net.cpp:166] Memory required for data: 825380896
I0609 09:14:43.340291 26601 layer_factory.hpp:77] Creating layer relu4_3
I0609 09:14:43.340312 26601 net.cpp:100] Creating Layer relu4_3
I0609 09:14:43.340327 26601 net.cpp:435] relu4_3 <- conv4_3
I0609 09:14:43.340340 26601 net.cpp:396] relu4_3 -> conv4_3 (in-place)
I0609 09:14:43.340358 26601 layer.hpp:71] 
I0609 09:14:43.341248 26601 net.cpp:151] Setting up relu4_3
I0609 09:14:43.341269 26601 net.cpp:158] Top shape: 4 512 38 38 (2957312)
I0609 09:14:43.341274 26601 net.cpp:166] Memory required for data: 837210144
I0609 09:14:43.341280 26601 layer_factory.hpp:77] Creating layer conv4_3_relu4_3_0_split
I0609 09:14:43.341291 26601 net.cpp:100] Creating Layer conv4_3_relu4_3_0_split
I0609 09:14:43.341298 26601 net.cpp:435] conv4_3_relu4_3_0_split <- conv4_3
I0609 09:14:43.341310 26601 net.cpp:409] conv4_3_relu4_3_0_split -> conv4_3_relu4_3_0_split_0
I0609 09:14:43.341322 26601 net.cpp:409] conv4_3_relu4_3_0_split -> conv4_3_relu4_3_0_split_1
I0609 09:14:43.341332 26601 layer.hpp:71] 
I0609 09:14:43.341414 26601 net.cpp:151] Setting up conv4_3_relu4_3_0_split
I0609 09:14:43.341424 26601 net.cpp:158] Top shape: 4 512 38 38 (2957312)
I0609 09:14:43.341430 26601 net.cpp:158] Top shape: 4 512 38 38 (2957312)
I0609 09:14:43.341435 26601 net.cpp:166] Memory required for data: 860868640
I0609 09:14:43.341442 26601 layer_factory.hpp:77] Creating layer pool4
I0609 09:14:43.341454 26601 net.cpp:100] Creating Layer pool4
I0609 09:14:43.341459 26601 net.cpp:435] pool4 <- conv4_3_relu4_3_0_split_0
I0609 09:14:43.341470 26601 net.cpp:409] pool4 -> pool4
I0609 09:14:43.341480 26601 layer.hpp:71] 
I0609 09:14:43.341547 26601 net.cpp:151] Setting up pool4
I0609 09:14:43.341557 26601 net.cpp:158] Top shape: 4 512 19 19 (739328)
I0609 09:14:43.341562 26601 net.cpp:166] Memory required for data: 863825952
I0609 09:14:43.341567 26601 layer_factory.hpp:77] Creating layer conv5_1
I0609 09:14:43.341585 26601 net.cpp:100] Creating Layer conv5_1
I0609 09:14:43.341590 26601 net.cpp:435] conv5_1 <- pool4
I0609 09:14:43.341606 26601 net.cpp:409] conv5_1 -> conv5_1
I0609 09:14:43.341617 26601 layer.hpp:71] 
I0609 09:14:43.371340 26601 net.cpp:151] Setting up conv5_1
I0609 09:14:43.371395 26601 net.cpp:158] Top shape: 4 512 19 19 (739328)
I0609 09:14:43.371402 26601 net.cpp:166] Memory required for data: 866783264
I0609 09:14:43.371418 26601 layer_factory.hpp:77] Creating layer relu5_1
I0609 09:14:43.371431 26601 net.cpp:100] Creating Layer relu5_1
I0609 09:14:43.371438 26601 net.cpp:435] relu5_1 <- conv5_1
I0609 09:14:43.371451 26601 net.cpp:396] relu5_1 -> conv5_1 (in-place)
I0609 09:14:43.371464 26601 layer.hpp:71] 
I0609 09:14:43.371767 26601 net.cpp:151] Setting up relu5_1
I0609 09:14:43.371786 26601 net.cpp:158] Top shape: 4 512 19 19 (739328)
I0609 09:14:43.371791 26601 net.cpp:166] Memory required for data: 869740576
I0609 09:14:43.371799 26601 layer_factory.hpp:77] Creating layer conv5_2
I0609 09:14:43.371817 26601 net.cpp:100] Creating Layer conv5_2
I0609 09:14:43.371824 26601 net.cpp:435] conv5_2 <- conv5_1
I0609 09:14:43.371836 26601 net.cpp:409] conv5_2 -> conv5_2
I0609 09:14:43.371850 26601 layer.hpp:71] 
I0609 09:14:43.406113 26601 net.cpp:151] Setting up conv5_2
I0609 09:14:43.406168 26601 net.cpp:158] Top shape: 4 512 19 19 (739328)
I0609 09:14:43.406175 26601 net.cpp:166] Memory required for data: 872697888
I0609 09:14:43.406191 26601 layer_factory.hpp:77] Creating layer relu5_2
I0609 09:14:43.406206 26601 net.cpp:100] Creating Layer relu5_2
I0609 09:14:43.406215 26601 net.cpp:435] relu5_2 <- conv5_2
I0609 09:14:43.406237 26601 net.cpp:396] relu5_2 -> conv5_2 (in-place)
I0609 09:14:43.406253 26601 layer.hpp:71] 
I0609 09:14:43.407102 26601 net.cpp:151] Setting up relu5_2
I0609 09:14:43.407127 26601 net.cpp:158] Top shape: 4 512 19 19 (739328)
I0609 09:14:43.407133 26601 net.cpp:166] Memory required for data: 875655200
I0609 09:14:43.407140 26601 layer_factory.hpp:77] Creating layer conv5_3
I0609 09:14:43.407162 26601 net.cpp:100] Creating Layer conv5_3
I0609 09:14:43.407171 26601 net.cpp:435] conv5_3 <- conv5_2
I0609 09:14:43.407212 26601 net.cpp:409] conv5_3 -> conv5_3
I0609 09:14:43.407229 26601 layer.hpp:71] 
I0609 09:14:43.441678 26601 net.cpp:151] Setting up conv5_3
I0609 09:14:43.441745 26601 net.cpp:158] Top shape: 4 512 19 19 (739328)
I0609 09:14:43.441751 26601 net.cpp:166] Memory required for data: 878612512
I0609 09:14:43.441767 26601 layer_factory.hpp:77] Creating layer relu5_3
I0609 09:14:43.441792 26601 net.cpp:100] Creating Layer relu5_3
I0609 09:14:43.441807 26601 net.cpp:435] relu5_3 <- conv5_3
I0609 09:14:43.441821 26601 net.cpp:396] relu5_3 -> conv5_3 (in-place)
I0609 09:14:43.441838 26601 layer.hpp:71] 
I0609 09:14:43.442705 26601 net.cpp:151] Setting up relu5_3
I0609 09:14:43.442733 26601 net.cpp:158] Top shape: 4 512 19 19 (739328)
I0609 09:14:43.442739 26601 net.cpp:166] Memory required for data: 881569824
I0609 09:14:43.442745 26601 layer_factory.hpp:77] Creating layer pool5
I0609 09:14:43.442757 26601 net.cpp:100] Creating Layer pool5
I0609 09:14:43.442762 26601 net.cpp:435] pool5 <- conv5_3
I0609 09:14:43.442775 26601 net.cpp:409] pool5 -> pool5
I0609 09:14:43.442788 26601 layer.hpp:71] 
I0609 09:14:43.442874 26601 net.cpp:151] Setting up pool5
I0609 09:14:43.442893 26601 net.cpp:158] Top shape: 4 512 19 19 (739328)
I0609 09:14:43.442898 26601 net.cpp:166] Memory required for data: 884527136
I0609 09:14:43.442905 26601 layer_factory.hpp:77] Creating layer fc6
I0609 09:14:43.442926 26601 net.cpp:100] Creating Layer fc6
I0609 09:14:43.442939 26601 net.cpp:435] fc6 <- pool5
I0609 09:14:43.442950 26601 net.cpp:409] fc6 -> fc6
I0609 09:14:43.442962 26601 layer.hpp:71] 
I0609 09:14:43.506656 26601 net.cpp:151] Setting up fc6
I0609 09:14:43.506722 26601 net.cpp:158] Top shape: 4 1024 19 19 (1478656)
I0609 09:14:43.506729 26601 net.cpp:166] Memory required for data: 890441760
I0609 09:14:43.506747 26601 layer_factory.hpp:77] Creating layer relu6
I0609 09:14:43.506762 26601 net.cpp:100] Creating Layer relu6
I0609 09:14:43.506769 26601 net.cpp:435] relu6 <- fc6
I0609 09:14:43.506780 26601 net.cpp:396] relu6 -> fc6 (in-place)
I0609 09:14:43.506800 26601 layer.hpp:71] 
I0609 09:14:43.507199 26601 net.cpp:151] Setting up relu6
I0609 09:14:43.507220 26601 net.cpp:158] Top shape: 4 1024 19 19 (1478656)
I0609 09:14:43.507226 26601 net.cpp:166] Memory required for data: 896356384
I0609 09:14:43.507233 26601 layer_factory.hpp:77] Creating layer fc7
I0609 09:14:43.507264 26601 net.cpp:100] Creating Layer fc7
I0609 09:14:43.507278 26601 net.cpp:435] fc7 <- fc6
I0609 09:14:43.507292 26601 net.cpp:409] fc7 -> fc7
I0609 09:14:43.507309 26601 layer.hpp:71] 
I0609 09:14:43.524093 26601 net.cpp:151] Setting up fc7
I0609 09:14:43.524204 26601 net.cpp:158] Top shape: 4 1024 19 19 (1478656)
I0609 09:14:43.524230 26601 net.cpp:166] Memory required for data: 902271008
I0609 09:14:43.524258 26601 layer_factory.hpp:77] Creating layer relu7
I0609 09:14:43.524289 26601 net.cpp:100] Creating Layer relu7
I0609 09:14:43.524312 26601 net.cpp:435] relu7 <- fc7
I0609 09:14:43.524334 26601 net.cpp:396] relu7 -> fc7 (in-place)
I0609 09:14:43.524363 26601 layer.hpp:71] 
I0609 09:14:43.525282 26601 net.cpp:151] Setting up relu7
I0609 09:14:43.525326 26601 net.cpp:158] Top shape: 4 1024 19 19 (1478656)
I0609 09:14:43.525348 26601 net.cpp:166] Memory required for data: 908185632
I0609 09:14:43.525370 26601 layer_factory.hpp:77] Creating layer fc7_relu7_0_split
I0609 09:14:43.525396 26601 net.cpp:100] Creating Layer fc7_relu7_0_split
I0609 09:14:43.525416 26601 net.cpp:435] fc7_relu7_0_split <- fc7
I0609 09:14:43.525444 26601 net.cpp:409] fc7_relu7_0_split -> fc7_relu7_0_split_0
I0609 09:14:43.525475 26601 net.cpp:409] fc7_relu7_0_split -> fc7_relu7_0_split_1
I0609 09:14:43.525514 26601 net.cpp:409] fc7_relu7_0_split -> fc7_relu7_0_split_2
I0609 09:14:43.525542 26601 net.cpp:409] fc7_relu7_0_split -> fc7_relu7_0_split_3
I0609 09:14:43.525568 26601 layer.hpp:71] 
I0609 09:14:43.525722 26601 net.cpp:151] Setting up fc7_relu7_0_split
I0609 09:14:43.525753 26601 net.cpp:158] Top shape: 4 1024 19 19 (1478656)
I0609 09:14:43.525787 26601 net.cpp:158] Top shape: 4 1024 19 19 (1478656)
I0609 09:14:43.525823 26601 net.cpp:158] Top shape: 4 1024 19 19 (1478656)
I0609 09:14:43.525847 26601 net.cpp:158] Top shape: 4 1024 19 19 (1478656)
I0609 09:14:43.525894 26601 net.cpp:166] Memory required for data: 931844128
I0609 09:14:43.525918 26601 layer_factory.hpp:77] Creating layer conv6_1
I0609 09:14:43.525956 26601 net.cpp:100] Creating Layer conv6_1
I0609 09:14:43.525981 26601 net.cpp:435] conv6_1 <- fc7_relu7_0_split_0
I0609 09:14:43.526011 26601 net.cpp:409] conv6_1 -> conv6_1
I0609 09:14:43.526041 26601 layer.hpp:71] 
I0609 09:14:43.532421 26601 net.cpp:151] Setting up conv6_1
I0609 09:14:43.532490 26601 net.cpp:158] Top shape: 4 256 19 19 (369664)
I0609 09:14:43.532497 26601 net.cpp:166] Memory required for data: 933322784
I0609 09:14:43.532513 26601 layer_factory.hpp:77] Creating layer conv6_1_relu
I0609 09:14:43.532528 26601 net.cpp:100] Creating Layer conv6_1_relu
I0609 09:14:43.532547 26601 net.cpp:435] conv6_1_relu <- conv6_1
I0609 09:14:43.532562 26601 net.cpp:396] conv6_1_relu -> conv6_1 (in-place)
I0609 09:14:43.532580 26601 layer.hpp:71] 
I0609 09:14:43.532886 26601 net.cpp:151] Setting up conv6_1_relu
I0609 09:14:43.532938 26601 net.cpp:158] Top shape: 4 256 19 19 (369664)
I0609 09:14:43.532963 26601 net.cpp:166] Memory required for data: 934801440
I0609 09:14:43.532986 26601 layer_factory.hpp:77] Creating layer conv6_2
I0609 09:14:43.533023 26601 net.cpp:100] Creating Layer conv6_2
I0609 09:14:43.533052 26601 net.cpp:435] conv6_2 <- conv6_1
I0609 09:14:43.533074 26601 net.cpp:409] conv6_2 -> conv6_2
I0609 09:14:43.533099 26601 layer.hpp:71] 
I0609 09:14:43.552173 26601 net.cpp:151] Setting up conv6_2
I0609 09:14:43.552244 26601 net.cpp:158] Top shape: 4 512 10 10 (204800)
I0609 09:14:43.552251 26601 net.cpp:166] Memory required for data: 935620640
I0609 09:14:43.552283 26601 layer_factory.hpp:77] Creating layer conv6_2_relu
I0609 09:14:43.552300 26601 net.cpp:100] Creating Layer conv6_2_relu
I0609 09:14:43.552317 26601 net.cpp:435] conv6_2_relu <- conv6_2
I0609 09:14:43.552328 26601 net.cpp:396] conv6_2_relu -> conv6_2 (in-place)
I0609 09:14:43.552341 26601 layer.hpp:71] 
I0609 09:14:43.553207 26601 net.cpp:151] Setting up conv6_2_relu
I0609 09:14:43.553236 26601 net.cpp:158] Top shape: 4 512 10 10 (204800)
I0609 09:14:43.553242 26601 net.cpp:166] Memory required for data: 936439840
I0609 09:14:43.553248 26601 layer_factory.hpp:77] Creating layer conv6_2_conv6_2_relu_0_split
I0609 09:14:43.553264 26601 net.cpp:100] Creating Layer conv6_2_conv6_2_relu_0_split
I0609 09:14:43.553272 26601 net.cpp:435] conv6_2_conv6_2_relu_0_split <- conv6_2
I0609 09:14:43.553284 26601 net.cpp:409] conv6_2_conv6_2_relu_0_split -> conv6_2_conv6_2_relu_0_split_0
I0609 09:14:43.553300 26601 net.cpp:409] conv6_2_conv6_2_relu_0_split -> conv6_2_conv6_2_relu_0_split_1
I0609 09:14:43.553313 26601 net.cpp:409] conv6_2_conv6_2_relu_0_split -> conv6_2_conv6_2_relu_0_split_2
I0609 09:14:43.553326 26601 net.cpp:409] conv6_2_conv6_2_relu_0_split -> conv6_2_conv6_2_relu_0_split_3
I0609 09:14:43.553336 26601 layer.hpp:71] 
I0609 09:14:43.553478 26601 net.cpp:151] Setting up conv6_2_conv6_2_relu_0_split
I0609 09:14:43.553496 26601 net.cpp:158] Top shape: 4 512 10 10 (204800)
I0609 09:14:43.553505 26601 net.cpp:158] Top shape: 4 512 10 10 (204800)
I0609 09:14:43.553513 26601 net.cpp:158] Top shape: 4 512 10 10 (204800)
I0609 09:14:43.553519 26601 net.cpp:158] Top shape: 4 512 10 10 (204800)
I0609 09:14:43.553524 26601 net.cpp:166] Memory required for data: 939716640
I0609 09:14:43.553530 26601 layer_factory.hpp:77] Creating layer conv7_1
I0609 09:14:43.553549 26601 net.cpp:100] Creating Layer conv7_1
I0609 09:14:43.553562 26601 net.cpp:435] conv7_1 <- conv6_2_conv6_2_relu_0_split_0
I0609 09:14:43.553575 26601 net.cpp:409] conv7_1 -> conv7_1
I0609 09:14:43.553591 26601 layer.hpp:71] 
I0609 09:14:43.556972 26601 net.cpp:151] Setting up conv7_1
I0609 09:14:43.557003 26601 net.cpp:158] Top shape: 4 128 10 10 (51200)
I0609 09:14:43.557009 26601 net.cpp:166] Memory required for data: 939921440
I0609 09:14:43.557046 26601 layer_factory.hpp:77] Creating layer conv7_1_relu
I0609 09:14:43.557060 26601 net.cpp:100] Creating Layer conv7_1_relu
I0609 09:14:43.557066 26601 net.cpp:435] conv7_1_relu <- conv7_1
I0609 09:14:43.557075 26601 net.cpp:396] conv7_1_relu -> conv7_1 (in-place)
I0609 09:14:43.557086 26601 layer.hpp:71] 
I0609 09:14:43.557971 26601 net.cpp:151] Setting up conv7_1_relu
I0609 09:14:43.558001 26601 net.cpp:158] Top shape: 4 128 10 10 (51200)
I0609 09:14:43.558007 26601 net.cpp:166] Memory required for data: 940126240
I0609 09:14:43.558013 26601 layer_factory.hpp:77] Creating layer conv7_2
I0609 09:14:43.558034 26601 net.cpp:100] Creating Layer conv7_2
I0609 09:14:43.558042 26601 net.cpp:435] conv7_2 <- conv7_1
I0609 09:14:43.558055 26601 net.cpp:409] conv7_2 -> conv7_2
I0609 09:14:43.558070 26601 layer.hpp:71] 
I0609 09:14:43.564900 26601 net.cpp:151] Setting up conv7_2
I0609 09:14:43.564957 26601 net.cpp:158] Top shape: 4 256 5 5 (25600)
I0609 09:14:43.564965 26601 net.cpp:166] Memory required for data: 940228640
I0609 09:14:43.564981 26601 layer_factory.hpp:77] Creating layer conv7_2_relu
I0609 09:14:43.564995 26601 net.cpp:100] Creating Layer conv7_2_relu
I0609 09:14:43.565003 26601 net.cpp:435] conv7_2_relu <- conv7_2
I0609 09:14:43.565016 26601 net.cpp:396] conv7_2_relu -> conv7_2 (in-place)
I0609 09:14:43.565039 26601 layer.hpp:71] 
I0609 09:14:43.565345 26601 net.cpp:151] Setting up conv7_2_relu
I0609 09:14:43.565397 26601 net.cpp:158] Top shape: 4 256 5 5 (25600)
I0609 09:14:43.565434 26601 net.cpp:166] Memory required for data: 940331040
I0609 09:14:43.565461 26601 layer_factory.hpp:77] Creating layer conv7_2_conv7_2_relu_0_split
I0609 09:14:43.565490 26601 net.cpp:100] Creating Layer conv7_2_conv7_2_relu_0_split
I0609 09:14:43.565505 26601 net.cpp:435] conv7_2_conv7_2_relu_0_split <- conv7_2
I0609 09:14:43.565587 26601 net.cpp:409] conv7_2_conv7_2_relu_0_split -> conv7_2_conv7_2_relu_0_split_0
I0609 09:14:43.565624 26601 net.cpp:409] conv7_2_conv7_2_relu_0_split -> conv7_2_conv7_2_relu_0_split_1
I0609 09:14:43.565636 26601 net.cpp:409] conv7_2_conv7_2_relu_0_split -> conv7_2_conv7_2_relu_0_split_2
I0609 09:14:43.565654 26601 net.cpp:409] conv7_2_conv7_2_relu_0_split -> conv7_2_conv7_2_relu_0_split_3
I0609 09:14:43.565665 26601 layer.hpp:71] 
I0609 09:14:43.565898 26601 net.cpp:151] Setting up conv7_2_conv7_2_relu_0_split
I0609 09:14:43.565920 26601 net.cpp:158] Top shape: 4 256 5 5 (25600)
I0609 09:14:43.565928 26601 net.cpp:158] Top shape: 4 256 5 5 (25600)
I0609 09:14:43.565935 26601 net.cpp:158] Top shape: 4 256 5 5 (25600)
I0609 09:14:43.565943 26601 net.cpp:158] Top shape: 4 256 5 5 (25600)
I0609 09:14:43.565948 26601 net.cpp:166] Memory required for data: 940740640
I0609 09:14:43.565953 26601 layer_factory.hpp:77] Creating layer conv8_1
I0609 09:14:43.565985 26601 net.cpp:100] Creating Layer conv8_1
I0609 09:14:43.566001 26601 net.cpp:435] conv8_1 <- conv7_2_conv7_2_relu_0_split_0
I0609 09:14:43.566016 26601 net.cpp:409] conv8_1 -> conv8_1
I0609 09:14:43.566027 26601 layer.hpp:71] 
I0609 09:14:43.568729 26601 net.cpp:151] Setting up conv8_1
I0609 09:14:43.568758 26601 net.cpp:158] Top shape: 4 128 5 5 (12800)
I0609 09:14:43.568763 26601 net.cpp:166] Memory required for data: 940791840
I0609 09:14:43.568770 26601 layer_factory.hpp:77] Creating layer conv8_1_relu
I0609 09:14:43.568779 26601 net.cpp:100] Creating Layer conv8_1_relu
I0609 09:14:43.568786 26601 net.cpp:435] conv8_1_relu <- conv8_1
I0609 09:14:43.568800 26601 net.cpp:396] conv8_1_relu -> conv8_1 (in-place)
I0609 09:14:43.568812 26601 layer.hpp:71] 
I0609 09:14:43.569625 26601 net.cpp:151] Setting up conv8_1_relu
I0609 09:14:43.569648 26601 net.cpp:158] Top shape: 4 128 5 5 (12800)
I0609 09:14:43.569651 26601 net.cpp:166] Memory required for data: 940843040
I0609 09:14:43.569655 26601 layer_factory.hpp:77] Creating layer conv8_2
I0609 09:14:43.569670 26601 net.cpp:100] Creating Layer conv8_2
I0609 09:14:43.569681 26601 net.cpp:435] conv8_2 <- conv8_1
I0609 09:14:43.569695 26601 net.cpp:409] conv8_2 -> conv8_2
I0609 09:14:43.569738 26601 layer.hpp:71] 
I0609 09:14:43.574441 26601 net.cpp:151] Setting up conv8_2
I0609 09:14:43.574491 26601 net.cpp:158] Top shape: 4 256 3 3 (9216)
I0609 09:14:43.574496 26601 net.cpp:166] Memory required for data: 940879904
I0609 09:14:43.574506 26601 layer_factory.hpp:77] Creating layer conv8_2_relu
I0609 09:14:43.574517 26601 net.cpp:100] Creating Layer conv8_2_relu
I0609 09:14:43.574524 26601 net.cpp:435] conv8_2_relu <- conv8_2
I0609 09:14:43.574532 26601 net.cpp:396] conv8_2_relu -> conv8_2 (in-place)
I0609 09:14:43.574543 26601 layer.hpp:71] 
I0609 09:14:43.574851 26601 net.cpp:151] Setting up conv8_2_relu
I0609 09:14:43.574875 26601 net.cpp:158] Top shape: 4 256 3 3 (9216)
I0609 09:14:43.574882 26601 net.cpp:166] Memory required for data: 940916768
I0609 09:14:43.574887 26601 layer_factory.hpp:77] Creating layer conv8_2_conv8_2_relu_0_split
I0609 09:14:43.574900 26601 net.cpp:100] Creating Layer conv8_2_conv8_2_relu_0_split
I0609 09:14:43.574913 26601 net.cpp:435] conv8_2_conv8_2_relu_0_split <- conv8_2
I0609 09:14:43.574925 26601 net.cpp:409] conv8_2_conv8_2_relu_0_split -> conv8_2_conv8_2_relu_0_split_0
I0609 09:14:43.574939 26601 net.cpp:409] conv8_2_conv8_2_relu_0_split -> conv8_2_conv8_2_relu_0_split_1
I0609 09:14:43.574951 26601 net.cpp:409] conv8_2_conv8_2_relu_0_split -> conv8_2_conv8_2_relu_0_split_2
I0609 09:14:43.574965 26601 net.cpp:409] conv8_2_conv8_2_relu_0_split -> conv8_2_conv8_2_relu_0_split_3
I0609 09:14:43.574978 26601 layer.hpp:71] 
I0609 09:14:43.575134 26601 net.cpp:151] Setting up conv8_2_conv8_2_relu_0_split
I0609 09:14:43.575155 26601 net.cpp:158] Top shape: 4 256 3 3 (9216)
I0609 09:14:43.575163 26601 net.cpp:158] Top shape: 4 256 3 3 (9216)
I0609 09:14:43.575170 26601 net.cpp:158] Top shape: 4 256 3 3 (9216)
I0609 09:14:43.575176 26601 net.cpp:158] Top shape: 4 256 3 3 (9216)
I0609 09:14:43.575178 26601 net.cpp:166] Memory required for data: 941064224
I0609 09:14:43.575187 26601 layer_factory.hpp:77] Creating layer conv9_1
I0609 09:14:43.575207 26601 net.cpp:100] Creating Layer conv9_1
I0609 09:14:43.575228 26601 net.cpp:435] conv9_1 <- conv8_2_conv8_2_relu_0_split_0
I0609 09:14:43.575245 26601 net.cpp:409] conv9_1 -> conv9_1
I0609 09:14:43.575261 26601 layer.hpp:71] 
I0609 09:14:43.578119 26601 net.cpp:151] Setting up conv9_1
I0609 09:14:43.578145 26601 net.cpp:158] Top shape: 4 128 3 3 (4608)
I0609 09:14:43.578150 26601 net.cpp:166] Memory required for data: 941082656
I0609 09:14:43.578158 26601 layer_factory.hpp:77] Creating layer conv9_1_relu
I0609 09:14:43.578169 26601 net.cpp:100] Creating Layer conv9_1_relu
I0609 09:14:43.578176 26601 net.cpp:435] conv9_1_relu <- conv9_1
I0609 09:14:43.578186 26601 net.cpp:396] conv9_1_relu -> conv9_1 (in-place)
I0609 09:14:43.578197 26601 layer.hpp:71] 
I0609 09:14:43.578989 26601 net.cpp:151] Setting up conv9_1_relu
I0609 09:14:43.579010 26601 net.cpp:158] Top shape: 4 128 3 3 (4608)
I0609 09:14:43.579015 26601 net.cpp:166] Memory required for data: 941101088
I0609 09:14:43.579020 26601 layer_factory.hpp:77] Creating layer conv9_2
I0609 09:14:43.579036 26601 net.cpp:100] Creating Layer conv9_2
I0609 09:14:43.579056 26601 net.cpp:435] conv9_2 <- conv9_1
I0609 09:14:43.579067 26601 net.cpp:409] conv9_2 -> conv9_2
I0609 09:14:43.579082 26601 layer.hpp:71] 
I0609 09:14:43.583798 26601 net.cpp:151] Setting up conv9_2
I0609 09:14:43.583855 26601 net.cpp:158] Top shape: 4 256 1 1 (1024)
I0609 09:14:43.583860 26601 net.cpp:166] Memory required for data: 941105184
I0609 09:14:43.583892 26601 layer_factory.hpp:77] Creating layer conv9_2_relu
I0609 09:14:43.583909 26601 net.cpp:100] Creating Layer conv9_2_relu
I0609 09:14:43.583919 26601 net.cpp:435] conv9_2_relu <- conv9_2
I0609 09:14:43.583948 26601 net.cpp:396] conv9_2_relu -> conv9_2 (in-place)
I0609 09:14:43.583963 26601 layer.hpp:71] 
I0609 09:14:43.584836 26601 net.cpp:151] Setting up conv9_2_relu
I0609 09:14:43.584858 26601 net.cpp:158] Top shape: 4 256 1 1 (1024)
I0609 09:14:43.584862 26601 net.cpp:166] Memory required for data: 941109280
I0609 09:14:43.584867 26601 layer_factory.hpp:77] Creating layer conv9_2_conv9_2_relu_0_split
I0609 09:14:43.584911 26601 net.cpp:100] Creating Layer conv9_2_conv9_2_relu_0_split
I0609 09:14:43.584921 26601 net.cpp:435] conv9_2_conv9_2_relu_0_split <- conv9_2
I0609 09:14:43.584934 26601 net.cpp:409] conv9_2_conv9_2_relu_0_split -> conv9_2_conv9_2_relu_0_split_0
I0609 09:14:43.584952 26601 net.cpp:409] conv9_2_conv9_2_relu_0_split -> conv9_2_conv9_2_relu_0_split_1
I0609 09:14:43.584966 26601 net.cpp:409] conv9_2_conv9_2_relu_0_split -> conv9_2_conv9_2_relu_0_split_2
I0609 09:14:43.584977 26601 layer.hpp:71] 
I0609 09:14:43.585111 26601 net.cpp:151] Setting up conv9_2_conv9_2_relu_0_split
I0609 09:14:43.585132 26601 net.cpp:158] Top shape: 4 256 1 1 (1024)
I0609 09:14:43.585141 26601 net.cpp:158] Top shape: 4 256 1 1 (1024)
I0609 09:14:43.585147 26601 net.cpp:158] Top shape: 4 256 1 1 (1024)
I0609 09:14:43.585152 26601 net.cpp:166] Memory required for data: 941121568
I0609 09:14:43.585160 26601 layer_factory.hpp:77] Creating layer conv4_3_norm
I0609 09:14:43.585175 26601 net.cpp:100] Creating Layer conv4_3_norm
I0609 09:14:43.585183 26601 net.cpp:435] conv4_3_norm <- conv4_3_relu4_3_0_split_1
I0609 09:14:43.585204 26601 net.cpp:409] conv4_3_norm -> conv4_3_norm
I0609 09:14:43.585224 26601 layer.hpp:71] 
I0609 09:14:43.585580 26601 net.cpp:151] Setting up conv4_3_norm
I0609 09:14:43.585600 26601 net.cpp:158] Top shape: 4 512 38 38 (2957312)
I0609 09:14:43.585606 26601 net.cpp:166] Memory required for data: 952950816
I0609 09:14:43.585615 26601 layer_factory.hpp:77] Creating layer conv4_3_norm_conv4_3_norm_0_split
I0609 09:14:43.585624 26601 net.cpp:100] Creating Layer conv4_3_norm_conv4_3_norm_0_split
I0609 09:14:43.585630 26601 net.cpp:435] conv4_3_norm_conv4_3_norm_0_split <- conv4_3_norm
I0609 09:14:43.585642 26601 net.cpp:409] conv4_3_norm_conv4_3_norm_0_split -> conv4_3_norm_conv4_3_norm_0_split_0
I0609 09:14:43.585656 26601 net.cpp:409] conv4_3_norm_conv4_3_norm_0_split -> conv4_3_norm_conv4_3_norm_0_split_1
I0609 09:14:43.585666 26601 net.cpp:409] conv4_3_norm_conv4_3_norm_0_split -> conv4_3_norm_conv4_3_norm_0_split_2
I0609 09:14:43.585678 26601 layer.hpp:71] 
I0609 09:14:43.585798 26601 net.cpp:151] Setting up conv4_3_norm_conv4_3_norm_0_split
I0609 09:14:43.585820 26601 net.cpp:158] Top shape: 4 512 38 38 (2957312)
I0609 09:14:43.585829 26601 net.cpp:158] Top shape: 4 512 38 38 (2957312)
I0609 09:14:43.585835 26601 net.cpp:158] Top shape: 4 512 38 38 (2957312)
I0609 09:14:43.585839 26601 net.cpp:166] Memory required for data: 988438560
I0609 09:14:43.585846 26601 layer_factory.hpp:77] Creating layer conv4_3_norm_mbox_loc
I0609 09:14:43.585886 26601 net.cpp:100] Creating Layer conv4_3_norm_mbox_loc
I0609 09:14:43.585901 26601 net.cpp:435] conv4_3_norm_mbox_loc <- conv4_3_norm_conv4_3_norm_0_split_0
I0609 09:14:43.585913 26601 net.cpp:409] conv4_3_norm_mbox_loc -> conv4_3_norm_mbox_loc
I0609 09:14:43.585927 26601 layer.hpp:71] 
I0609 09:14:43.589368 26601 net.cpp:151] Setting up conv4_3_norm_mbox_loc
I0609 09:14:43.589413 26601 net.cpp:158] Top shape: 4 16 38 38 (92416)
I0609 09:14:43.589418 26601 net.cpp:166] Memory required for data: 988808224
I0609 09:14:43.589432 26601 layer_factory.hpp:77] Creating layer conv4_3_norm_mbox_loc_perm
I0609 09:14:43.589445 26601 net.cpp:100] Creating Layer conv4_3_norm_mbox_loc_perm
I0609 09:14:43.589454 26601 net.cpp:435] conv4_3_norm_mbox_loc_perm <- conv4_3_norm_mbox_loc
I0609 09:14:43.589468 26601 net.cpp:409] conv4_3_norm_mbox_loc_perm -> conv4_3_norm_mbox_loc_perm
I0609 09:14:43.589493 26601 layer.hpp:71] 
I0609 09:14:43.589726 26601 net.cpp:151] Setting up conv4_3_norm_mbox_loc_perm
I0609 09:14:43.589746 26601 net.cpp:158] Top shape: 4 38 38 16 (92416)
I0609 09:14:43.589751 26601 net.cpp:166] Memory required for data: 989177888
I0609 09:14:43.589758 26601 layer_factory.hpp:77] Creating layer conv4_3_norm_mbox_loc_flat
I0609 09:14:43.589771 26601 net.cpp:100] Creating Layer conv4_3_norm_mbox_loc_flat
I0609 09:14:43.589785 26601 net.cpp:435] conv4_3_norm_mbox_loc_flat <- conv4_3_norm_mbox_loc_perm
I0609 09:14:43.589831 26601 net.cpp:409] conv4_3_norm_mbox_loc_flat -> conv4_3_norm_mbox_loc_flat
I0609 09:14:43.589898 26601 layer.hpp:71] 
I0609 09:14:43.589963 26601 net.cpp:151] Setting up conv4_3_norm_mbox_loc_flat
I0609 09:14:43.589982 26601 net.cpp:158] Top shape: 4 23104 (92416)
I0609 09:14:43.589987 26601 net.cpp:166] Memory required for data: 989547552
I0609 09:14:43.589994 26601 layer_factory.hpp:77] Creating layer conv4_3_norm_mbox_conf
I0609 09:14:43.590029 26601 net.cpp:100] Creating Layer conv4_3_norm_mbox_conf
I0609 09:14:43.590052 26601 net.cpp:435] conv4_3_norm_mbox_conf <- conv4_3_norm_conv4_3_norm_0_split_1
I0609 09:14:43.590066 26601 net.cpp:409] conv4_3_norm_mbox_conf -> conv4_3_norm_mbox_conf
I0609 09:14:43.590083 26601 layer.hpp:71] 
I0609 09:14:43.593348 26601 net.cpp:151] Setting up conv4_3_norm_mbox_conf
I0609 09:14:43.593384 26601 net.cpp:158] Top shape: 4 8 38 38 (46208)
I0609 09:14:43.593389 26601 net.cpp:166] Memory required for data: 989732384
I0609 09:14:43.593400 26601 layer_factory.hpp:77] Creating layer conv4_3_norm_mbox_conf_perm
I0609 09:14:43.593413 26601 net.cpp:100] Creating Layer conv4_3_norm_mbox_conf_perm
I0609 09:14:43.593421 26601 net.cpp:435] conv4_3_norm_mbox_conf_perm <- conv4_3_norm_mbox_conf
I0609 09:14:43.593441 26601 net.cpp:409] conv4_3_norm_mbox_conf_perm -> conv4_3_norm_mbox_conf_perm
I0609 09:14:43.593461 26601 layer.hpp:71] 
I0609 09:14:43.593698 26601 net.cpp:151] Setting up conv4_3_norm_mbox_conf_perm
I0609 09:14:43.593720 26601 net.cpp:158] Top shape: 4 38 38 8 (46208)
I0609 09:14:43.593727 26601 net.cpp:166] Memory required for data: 989917216
I0609 09:14:43.593734 26601 layer_factory.hpp:77] Creating layer conv4_3_norm_mbox_conf_flat
I0609 09:14:43.593744 26601 net.cpp:100] Creating Layer conv4_3_norm_mbox_conf_flat
I0609 09:14:43.593750 26601 net.cpp:435] conv4_3_norm_mbox_conf_flat <- conv4_3_norm_mbox_conf_perm
I0609 09:14:43.593758 26601 net.cpp:409] conv4_3_norm_mbox_conf_flat -> conv4_3_norm_mbox_conf_flat
I0609 09:14:43.593773 26601 layer.hpp:71] 
I0609 09:14:43.593827 26601 net.cpp:151] Setting up conv4_3_norm_mbox_conf_flat
I0609 09:14:43.593845 26601 net.cpp:158] Top shape: 4 11552 (46208)
I0609 09:14:43.593852 26601 net.cpp:166] Memory required for data: 990102048
I0609 09:14:43.593885 26601 layer_factory.hpp:77] Creating layer conv4_3_norm_mbox_priorbox
I0609 09:14:43.593909 26601 net.cpp:100] Creating Layer conv4_3_norm_mbox_priorbox
I0609 09:14:43.593919 26601 net.cpp:435] conv4_3_norm_mbox_priorbox <- conv4_3_norm_conv4_3_norm_0_split_2
I0609 09:14:43.593927 26601 net.cpp:435] conv4_3_norm_mbox_priorbox <- data_data_0_split_1
I0609 09:14:43.593950 26601 net.cpp:409] conv4_3_norm_mbox_priorbox -> conv4_3_norm_mbox_priorbox
I0609 09:14:43.593963 26601 layer.hpp:71] 
I0609 09:14:43.594041 26601 net.cpp:151] Setting up conv4_3_norm_mbox_priorbox
I0609 09:14:43.594061 26601 net.cpp:158] Top shape: 1 2 23104 (46208)
I0609 09:14:43.594069 26601 net.cpp:166] Memory required for data: 990286880
I0609 09:14:43.594075 26601 layer_factory.hpp:77] Creating layer fc7_mbox_loc
I0609 09:14:43.594095 26601 net.cpp:100] Creating Layer fc7_mbox_loc
I0609 09:14:43.594110 26601 net.cpp:435] fc7_mbox_loc <- fc7_relu7_0_split_1
I0609 09:14:43.594123 26601 net.cpp:409] fc7_mbox_loc -> fc7_mbox_loc
I0609 09:14:43.594135 26601 layer.hpp:71] 
I0609 09:14:43.598619 26601 net.cpp:151] Setting up fc7_mbox_loc
I0609 09:14:43.598660 26601 net.cpp:158] Top shape: 4 24 19 19 (34656)
I0609 09:14:43.598665 26601 net.cpp:166] Memory required for data: 990425504
I0609 09:14:43.598675 26601 layer_factory.hpp:77] Creating layer fc7_mbox_loc_perm
I0609 09:14:43.598686 26601 net.cpp:100] Creating Layer fc7_mbox_loc_perm
I0609 09:14:43.598695 26601 net.cpp:435] fc7_mbox_loc_perm <- fc7_mbox_loc
I0609 09:14:43.598709 26601 net.cpp:409] fc7_mbox_loc_perm -> fc7_mbox_loc_perm
I0609 09:14:43.598731 26601 layer.hpp:71] 
I0609 09:14:43.598984 26601 net.cpp:151] Setting up fc7_mbox_loc_perm
I0609 09:14:43.599006 26601 net.cpp:158] Top shape: 4 19 19 24 (34656)
I0609 09:14:43.599014 26601 net.cpp:166] Memory required for data: 990564128
I0609 09:14:43.599047 26601 layer_factory.hpp:77] Creating layer fc7_mbox_loc_flat
I0609 09:14:43.599061 26601 net.cpp:100] Creating Layer fc7_mbox_loc_flat
I0609 09:14:43.599066 26601 net.cpp:435] fc7_mbox_loc_flat <- fc7_mbox_loc_perm
I0609 09:14:43.599079 26601 net.cpp:409] fc7_mbox_loc_flat -> fc7_mbox_loc_flat
I0609 09:14:43.599097 26601 layer.hpp:71] 
I0609 09:14:43.599149 26601 net.cpp:151] Setting up fc7_mbox_loc_flat
I0609 09:14:43.599166 26601 net.cpp:158] Top shape: 4 8664 (34656)
I0609 09:14:43.599174 26601 net.cpp:166] Memory required for data: 990702752
I0609 09:14:43.599179 26601 layer_factory.hpp:77] Creating layer fc7_mbox_conf
I0609 09:14:43.599205 26601 net.cpp:100] Creating Layer fc7_mbox_conf
I0609 09:14:43.599220 26601 net.cpp:435] fc7_mbox_conf <- fc7_relu7_0_split_2
I0609 09:14:43.599232 26601 net.cpp:409] fc7_mbox_conf -> fc7_mbox_conf
I0609 09:14:43.599251 26601 layer.hpp:71] 
I0609 09:14:43.602830 26601 net.cpp:151] Setting up fc7_mbox_conf
I0609 09:14:43.602859 26601 net.cpp:158] Top shape: 4 12 19 19 (17328)
I0609 09:14:43.602864 26601 net.cpp:166] Memory required for data: 990772064
I0609 09:14:43.602871 26601 layer_factory.hpp:77] Creating layer fc7_mbox_conf_perm
I0609 09:14:43.602881 26601 net.cpp:100] Creating Layer fc7_mbox_conf_perm
I0609 09:14:43.602888 26601 net.cpp:435] fc7_mbox_conf_perm <- fc7_mbox_conf
I0609 09:14:43.602906 26601 net.cpp:409] fc7_mbox_conf_perm -> fc7_mbox_conf_perm
I0609 09:14:43.602921 26601 layer.hpp:71] 
I0609 09:14:43.603168 26601 net.cpp:151] Setting up fc7_mbox_conf_perm
I0609 09:14:43.603191 26601 net.cpp:158] Top shape: 4 19 19 12 (17328)
I0609 09:14:43.603199 26601 net.cpp:166] Memory required for data: 990841376
I0609 09:14:43.603204 26601 layer_factory.hpp:77] Creating layer fc7_mbox_conf_flat
I0609 09:14:43.603214 26601 net.cpp:100] Creating Layer fc7_mbox_conf_flat
I0609 09:14:43.603219 26601 net.cpp:435] fc7_mbox_conf_flat <- fc7_mbox_conf_perm
I0609 09:14:43.603231 26601 net.cpp:409] fc7_mbox_conf_flat -> fc7_mbox_conf_flat
I0609 09:14:43.603245 26601 layer.hpp:71] 
I0609 09:14:43.603296 26601 net.cpp:151] Setting up fc7_mbox_conf_flat
I0609 09:14:43.603312 26601 net.cpp:158] Top shape: 4 4332 (17328)
I0609 09:14:43.603319 26601 net.cpp:166] Memory required for data: 990910688
I0609 09:14:43.603324 26601 layer_factory.hpp:77] Creating layer fc7_mbox_priorbox
I0609 09:14:43.603338 26601 net.cpp:100] Creating Layer fc7_mbox_priorbox
I0609 09:14:43.603348 26601 net.cpp:435] fc7_mbox_priorbox <- fc7_relu7_0_split_3
I0609 09:14:43.603358 26601 net.cpp:435] fc7_mbox_priorbox <- data_data_0_split_2
I0609 09:14:43.603368 26601 net.cpp:409] fc7_mbox_priorbox -> fc7_mbox_priorbox
I0609 09:14:43.603382 26601 layer.hpp:71] 
I0609 09:14:43.603440 26601 net.cpp:151] Setting up fc7_mbox_priorbox
I0609 09:14:43.603461 26601 net.cpp:158] Top shape: 1 2 8664 (17328)
I0609 09:14:43.603466 26601 net.cpp:166] Memory required for data: 990980000
I0609 09:14:43.603471 26601 layer_factory.hpp:77] Creating layer conv6_2_mbox_loc
I0609 09:14:43.603490 26601 net.cpp:100] Creating Layer conv6_2_mbox_loc
I0609 09:14:43.603516 26601 net.cpp:435] conv6_2_mbox_loc <- conv6_2_conv6_2_relu_0_split_1
I0609 09:14:43.603533 26601 net.cpp:409] conv6_2_mbox_loc -> conv6_2_mbox_loc
I0609 09:14:43.603549 26601 layer.hpp:71] 
I0609 09:14:43.607151 26601 net.cpp:151] Setting up conv6_2_mbox_loc
I0609 09:14:43.607178 26601 net.cpp:158] Top shape: 4 24 10 10 (9600)
I0609 09:14:43.607182 26601 net.cpp:166] Memory required for data: 991018400
I0609 09:14:43.607192 26601 layer_factory.hpp:77] Creating layer conv6_2_mbox_loc_perm
I0609 09:14:43.607199 26601 net.cpp:100] Creating Layer conv6_2_mbox_loc_perm
I0609 09:14:43.607206 26601 net.cpp:435] conv6_2_mbox_loc_perm <- conv6_2_mbox_loc
I0609 09:14:43.607219 26601 net.cpp:409] conv6_2_mbox_loc_perm -> conv6_2_mbox_loc_perm
I0609 09:14:43.607235 26601 layer.hpp:71] 
I0609 09:14:43.607492 26601 net.cpp:151] Setting up conv6_2_mbox_loc_perm
I0609 09:14:43.607514 26601 net.cpp:158] Top shape: 4 10 10 24 (9600)
I0609 09:14:43.607551 26601 net.cpp:166] Memory required for data: 991056800
I0609 09:14:43.607559 26601 layer_factory.hpp:77] Creating layer conv6_2_mbox_loc_flat
I0609 09:14:43.607569 26601 net.cpp:100] Creating Layer conv6_2_mbox_loc_flat
I0609 09:14:43.607580 26601 net.cpp:435] conv6_2_mbox_loc_flat <- conv6_2_mbox_loc_perm
I0609 09:14:43.607589 26601 net.cpp:409] conv6_2_mbox_loc_flat -> conv6_2_mbox_loc_flat
I0609 09:14:43.607599 26601 layer.hpp:71] 
I0609 09:14:43.607653 26601 net.cpp:151] Setting up conv6_2_mbox_loc_flat
I0609 09:14:43.607673 26601 net.cpp:158] Top shape: 4 2400 (9600)
I0609 09:14:43.607678 26601 net.cpp:166] Memory required for data: 991095200
I0609 09:14:43.607684 26601 layer_factory.hpp:77] Creating layer conv6_2_mbox_conf
I0609 09:14:43.607704 26601 net.cpp:100] Creating Layer conv6_2_mbox_conf
I0609 09:14:43.607719 26601 net.cpp:435] conv6_2_mbox_conf <- conv6_2_conv6_2_relu_0_split_2
I0609 09:14:43.607733 26601 net.cpp:409] conv6_2_mbox_conf -> conv6_2_mbox_conf
I0609 09:14:43.607744 26601 layer.hpp:71] 
I0609 09:14:43.612444 26601 net.cpp:151] Setting up conv6_2_mbox_conf
I0609 09:14:43.612493 26601 net.cpp:158] Top shape: 4 12 10 10 (4800)
I0609 09:14:43.612499 26601 net.cpp:166] Memory required for data: 991114400
I0609 09:14:43.612515 26601 layer_factory.hpp:77] Creating layer conv6_2_mbox_conf_perm
I0609 09:14:43.612532 26601 net.cpp:100] Creating Layer conv6_2_mbox_conf_perm
I0609 09:14:43.612552 26601 net.cpp:435] conv6_2_mbox_conf_perm <- conv6_2_mbox_conf
I0609 09:14:43.612565 26601 net.cpp:409] conv6_2_mbox_conf_perm -> conv6_2_mbox_conf_perm
I0609 09:14:43.612579 26601 layer.hpp:71] 
I0609 09:14:43.612818 26601 net.cpp:151] Setting up conv6_2_mbox_conf_perm
I0609 09:14:43.612838 26601 net.cpp:158] Top shape: 4 10 10 12 (4800)
I0609 09:14:43.612843 26601 net.cpp:166] Memory required for data: 991133600
I0609 09:14:43.612848 26601 layer_factory.hpp:77] Creating layer conv6_2_mbox_conf_flat
I0609 09:14:43.612861 26601 net.cpp:100] Creating Layer conv6_2_mbox_conf_flat
I0609 09:14:43.612874 26601 net.cpp:435] conv6_2_mbox_conf_flat <- conv6_2_mbox_conf_perm
I0609 09:14:43.612884 26601 net.cpp:409] conv6_2_mbox_conf_flat -> conv6_2_mbox_conf_flat
I0609 09:14:43.612893 26601 layer.hpp:71] 
I0609 09:14:43.612956 26601 net.cpp:151] Setting up conv6_2_mbox_conf_flat
I0609 09:14:43.612972 26601 net.cpp:158] Top shape: 4 1200 (4800)
I0609 09:14:43.612977 26601 net.cpp:166] Memory required for data: 991152800
I0609 09:14:43.612982 26601 layer_factory.hpp:77] Creating layer conv6_2_mbox_priorbox
I0609 09:14:43.612995 26601 net.cpp:100] Creating Layer conv6_2_mbox_priorbox
I0609 09:14:43.613008 26601 net.cpp:435] conv6_2_mbox_priorbox <- conv6_2_conv6_2_relu_0_split_3
I0609 09:14:43.613018 26601 net.cpp:435] conv6_2_mbox_priorbox <- data_data_0_split_3
I0609 09:14:43.613026 26601 net.cpp:409] conv6_2_mbox_priorbox -> conv6_2_mbox_priorbox
I0609 09:14:43.613040 26601 layer.hpp:71] 
I0609 09:14:43.613104 26601 net.cpp:151] Setting up conv6_2_mbox_priorbox
I0609 09:14:43.613119 26601 net.cpp:158] Top shape: 1 2 2400 (4800)
I0609 09:14:43.613124 26601 net.cpp:166] Memory required for data: 991172000
I0609 09:14:43.613131 26601 layer_factory.hpp:77] Creating layer conv7_2_mbox_loc
I0609 09:14:43.613149 26601 net.cpp:100] Creating Layer conv7_2_mbox_loc
I0609 09:14:43.613162 26601 net.cpp:435] conv7_2_mbox_loc <- conv7_2_conv7_2_relu_0_split_1
I0609 09:14:43.613174 26601 net.cpp:409] conv7_2_mbox_loc -> conv7_2_mbox_loc
I0609 09:14:43.613191 26601 layer.hpp:71] 
I0609 09:14:43.616291 26601 net.cpp:151] Setting up conv7_2_mbox_loc
I0609 09:14:43.616319 26601 net.cpp:158] Top shape: 4 24 5 5 (2400)
I0609 09:14:43.616323 26601 net.cpp:166] Memory required for data: 991181600
I0609 09:14:43.616331 26601 layer_factory.hpp:77] Creating layer conv7_2_mbox_loc_perm
I0609 09:14:43.616343 26601 net.cpp:100] Creating Layer conv7_2_mbox_loc_perm
I0609 09:14:43.616350 26601 net.cpp:435] conv7_2_mbox_loc_perm <- conv7_2_mbox_loc
I0609 09:14:43.616364 26601 net.cpp:409] conv7_2_mbox_loc_perm -> conv7_2_mbox_loc_perm
I0609 09:14:43.616402 26601 layer.hpp:71] 
I0609 09:14:43.616580 26601 net.cpp:151] Setting up conv7_2_mbox_loc_perm
I0609 09:14:43.616592 26601 net.cpp:158] Top shape: 4 5 5 24 (2400)
I0609 09:14:43.616596 26601 net.cpp:166] Memory required for data: 991191200
I0609 09:14:43.616600 26601 layer_factory.hpp:77] Creating layer conv7_2_mbox_loc_flat
I0609 09:14:43.616612 26601 net.cpp:100] Creating Layer conv7_2_mbox_loc_flat
I0609 09:14:43.616624 26601 net.cpp:435] conv7_2_mbox_loc_flat <- conv7_2_mbox_loc_perm
I0609 09:14:43.616633 26601 net.cpp:409] conv7_2_mbox_loc_flat -> conv7_2_mbox_loc_flat
I0609 09:14:43.616644 26601 layer.hpp:71] 
I0609 09:14:43.616699 26601 net.cpp:151] Setting up conv7_2_mbox_loc_flat
I0609 09:14:43.616710 26601 net.cpp:158] Top shape: 4 600 (2400)
I0609 09:14:43.616714 26601 net.cpp:166] Memory required for data: 991200800
I0609 09:14:43.616716 26601 layer_factory.hpp:77] Creating layer conv7_2_mbox_conf
I0609 09:14:43.616734 26601 net.cpp:100] Creating Layer conv7_2_mbox_conf
I0609 09:14:43.616744 26601 net.cpp:435] conv7_2_mbox_conf <- conv7_2_conv7_2_relu_0_split_2
I0609 09:14:43.616755 26601 net.cpp:409] conv7_2_mbox_conf -> conv7_2_mbox_conf
I0609 09:14:43.616772 26601 layer.hpp:71] 
I0609 09:14:43.619310 26601 net.cpp:151] Setting up conv7_2_mbox_conf
I0609 09:14:43.619336 26601 net.cpp:158] Top shape: 4 12 5 5 (1200)
I0609 09:14:43.619340 26601 net.cpp:166] Memory required for data: 991205600
I0609 09:14:43.619349 26601 layer_factory.hpp:77] Creating layer conv7_2_mbox_conf_perm
I0609 09:14:43.619364 26601 net.cpp:100] Creating Layer conv7_2_mbox_conf_perm
I0609 09:14:43.619385 26601 net.cpp:435] conv7_2_mbox_conf_perm <- conv7_2_mbox_conf
I0609 09:14:43.619397 26601 net.cpp:409] conv7_2_mbox_conf_perm -> conv7_2_mbox_conf_perm
I0609 09:14:43.619410 26601 layer.hpp:71] 
I0609 09:14:43.619596 26601 net.cpp:151] Setting up conv7_2_mbox_conf_perm
I0609 09:14:43.619608 26601 net.cpp:158] Top shape: 4 5 5 12 (1200)
I0609 09:14:43.619612 26601 net.cpp:166] Memory required for data: 991210400
I0609 09:14:43.619616 26601 layer_factory.hpp:77] Creating layer conv7_2_mbox_conf_flat
I0609 09:14:43.619627 26601 net.cpp:100] Creating Layer conv7_2_mbox_conf_flat
I0609 09:14:43.619640 26601 net.cpp:435] conv7_2_mbox_conf_flat <- conv7_2_mbox_conf_perm
I0609 09:14:43.619649 26601 net.cpp:409] conv7_2_mbox_conf_flat -> conv7_2_mbox_conf_flat
I0609 09:14:43.619666 26601 layer.hpp:71] 
I0609 09:14:43.619715 26601 net.cpp:151] Setting up conv7_2_mbox_conf_flat
I0609 09:14:43.619726 26601 net.cpp:158] Top shape: 4 300 (1200)
I0609 09:14:43.619729 26601 net.cpp:166] Memory required for data: 991215200
I0609 09:14:43.619734 26601 layer_factory.hpp:77] Creating layer conv7_2_mbox_priorbox
I0609 09:14:43.619748 26601 net.cpp:100] Creating Layer conv7_2_mbox_priorbox
I0609 09:14:43.619760 26601 net.cpp:435] conv7_2_mbox_priorbox <- conv7_2_conv7_2_relu_0_split_3
I0609 09:14:43.619767 26601 net.cpp:435] conv7_2_mbox_priorbox <- data_data_0_split_4
I0609 09:14:43.619777 26601 net.cpp:409] conv7_2_mbox_priorbox -> conv7_2_mbox_priorbox
I0609 09:14:43.619794 26601 layer.hpp:71] 
I0609 09:14:43.619848 26601 net.cpp:151] Setting up conv7_2_mbox_priorbox
I0609 09:14:43.619859 26601 net.cpp:158] Top shape: 1 2 600 (1200)
I0609 09:14:43.619863 26601 net.cpp:166] Memory required for data: 991220000
I0609 09:14:43.619868 26601 layer_factory.hpp:77] Creating layer conv8_2_mbox_loc
I0609 09:14:43.619884 26601 net.cpp:100] Creating Layer conv8_2_mbox_loc
I0609 09:14:43.619895 26601 net.cpp:435] conv8_2_mbox_loc <- conv8_2_conv8_2_relu_0_split_1
I0609 09:14:43.619907 26601 net.cpp:409] conv8_2_mbox_loc -> conv8_2_mbox_loc
I0609 09:14:43.619925 26601 layer.hpp:71] 
I0609 09:14:43.622303 26601 net.cpp:151] Setting up conv8_2_mbox_loc
I0609 09:14:43.622325 26601 net.cpp:158] Top shape: 4 16 3 3 (576)
I0609 09:14:43.622329 26601 net.cpp:166] Memory required for data: 991222304
I0609 09:14:43.622357 26601 layer_factory.hpp:77] Creating layer conv8_2_mbox_loc_perm
I0609 09:14:43.622380 26601 net.cpp:100] Creating Layer conv8_2_mbox_loc_perm
I0609 09:14:43.622412 26601 net.cpp:435] conv8_2_mbox_loc_perm <- conv8_2_mbox_loc
I0609 09:14:43.622422 26601 net.cpp:409] conv8_2_mbox_loc_perm -> conv8_2_mbox_loc_perm
I0609 09:14:43.622437 26601 layer.hpp:71] 
I0609 09:14:43.622627 26601 net.cpp:151] Setting up conv8_2_mbox_loc_perm
I0609 09:14:43.622640 26601 net.cpp:158] Top shape: 4 3 3 16 (576)
I0609 09:14:43.622643 26601 net.cpp:166] Memory required for data: 991224608
I0609 09:14:43.622648 26601 layer_factory.hpp:77] Creating layer conv8_2_mbox_loc_flat
I0609 09:14:43.622658 26601 net.cpp:100] Creating Layer conv8_2_mbox_loc_flat
I0609 09:14:43.622668 26601 net.cpp:435] conv8_2_mbox_loc_flat <- conv8_2_mbox_loc_perm
I0609 09:14:43.622681 26601 net.cpp:409] conv8_2_mbox_loc_flat -> conv8_2_mbox_loc_flat
I0609 09:14:43.622699 26601 layer.hpp:71] 
I0609 09:14:43.622745 26601 net.cpp:151] Setting up conv8_2_mbox_loc_flat
I0609 09:14:43.622756 26601 net.cpp:158] Top shape: 4 144 (576)
I0609 09:14:43.622759 26601 net.cpp:166] Memory required for data: 991226912
I0609 09:14:43.622763 26601 layer_factory.hpp:77] Creating layer conv8_2_mbox_conf
I0609 09:14:43.622781 26601 net.cpp:100] Creating Layer conv8_2_mbox_conf
I0609 09:14:43.622792 26601 net.cpp:435] conv8_2_mbox_conf <- conv8_2_conv8_2_relu_0_split_2
I0609 09:14:43.622803 26601 net.cpp:409] conv8_2_mbox_conf -> conv8_2_mbox_conf
I0609 09:14:43.622822 26601 layer.hpp:71] 
I0609 09:14:43.625051 26601 net.cpp:151] Setting up conv8_2_mbox_conf
I0609 09:14:43.625074 26601 net.cpp:158] Top shape: 4 8 3 3 (288)
I0609 09:14:43.625077 26601 net.cpp:166] Memory required for data: 991228064
I0609 09:14:43.625087 26601 layer_factory.hpp:77] Creating layer conv8_2_mbox_conf_perm
I0609 09:14:43.625102 26601 net.cpp:100] Creating Layer conv8_2_mbox_conf_perm
I0609 09:14:43.625114 26601 net.cpp:435] conv8_2_mbox_conf_perm <- conv8_2_mbox_conf
I0609 09:14:43.625124 26601 net.cpp:409] conv8_2_mbox_conf_perm -> conv8_2_mbox_conf_perm
I0609 09:14:43.625144 26601 layer.hpp:71] 
I0609 09:14:43.625329 26601 net.cpp:151] Setting up conv8_2_mbox_conf_perm
I0609 09:14:43.625340 26601 net.cpp:158] Top shape: 4 3 3 8 (288)
I0609 09:14:43.625344 26601 net.cpp:166] Memory required for data: 991229216
I0609 09:14:43.625349 26601 layer_factory.hpp:77] Creating layer conv8_2_mbox_conf_flat
I0609 09:14:43.625360 26601 net.cpp:100] Creating Layer conv8_2_mbox_conf_flat
I0609 09:14:43.625371 26601 net.cpp:435] conv8_2_mbox_conf_flat <- conv8_2_mbox_conf_perm
I0609 09:14:43.625380 26601 net.cpp:409] conv8_2_mbox_conf_flat -> conv8_2_mbox_conf_flat
I0609 09:14:43.625398 26601 layer.hpp:71] 
I0609 09:14:43.625447 26601 net.cpp:151] Setting up conv8_2_mbox_conf_flat
I0609 09:14:43.625458 26601 net.cpp:158] Top shape: 4 72 (288)
I0609 09:14:43.625460 26601 net.cpp:166] Memory required for data: 991230368
I0609 09:14:43.625464 26601 layer_factory.hpp:77] Creating layer conv8_2_mbox_priorbox
I0609 09:14:43.625478 26601 net.cpp:100] Creating Layer conv8_2_mbox_priorbox
I0609 09:14:43.625490 26601 net.cpp:435] conv8_2_mbox_priorbox <- conv8_2_conv8_2_relu_0_split_3
I0609 09:14:43.625496 26601 net.cpp:435] conv8_2_mbox_priorbox <- data_data_0_split_5
I0609 09:14:43.625505 26601 net.cpp:409] conv8_2_mbox_priorbox -> conv8_2_mbox_priorbox
I0609 09:14:43.625525 26601 layer.hpp:71] 
I0609 09:14:43.625573 26601 net.cpp:151] Setting up conv8_2_mbox_priorbox
I0609 09:14:43.625584 26601 net.cpp:158] Top shape: 1 2 144 (288)
I0609 09:14:43.625588 26601 net.cpp:166] Memory required for data: 991231520
I0609 09:14:43.625591 26601 layer_factory.hpp:77] Creating layer conv9_2_mbox_loc
I0609 09:14:43.625608 26601 net.cpp:100] Creating Layer conv9_2_mbox_loc
I0609 09:14:43.625622 26601 net.cpp:435] conv9_2_mbox_loc <- conv9_2_conv9_2_relu_0_split_0
I0609 09:14:43.625632 26601 net.cpp:409] conv9_2_mbox_loc -> conv9_2_mbox_loc
I0609 09:14:43.625643 26601 layer.hpp:71] 
I0609 09:14:43.628065 26601 net.cpp:151] Setting up conv9_2_mbox_loc
I0609 09:14:43.628088 26601 net.cpp:158] Top shape: 4 16 1 1 (64)
I0609 09:14:43.628093 26601 net.cpp:166] Memory required for data: 991231776
I0609 09:14:43.628119 26601 layer_factory.hpp:77] Creating layer conv9_2_mbox_loc_perm
I0609 09:14:43.628146 26601 net.cpp:100] Creating Layer conv9_2_mbox_loc_perm
I0609 09:14:43.628159 26601 net.cpp:435] conv9_2_mbox_loc_perm <- conv9_2_mbox_loc
I0609 09:14:43.628178 26601 net.cpp:409] conv9_2_mbox_loc_perm -> conv9_2_mbox_loc_perm
I0609 09:14:43.628195 26601 layer.hpp:71] 
I0609 09:14:43.628365 26601 net.cpp:151] Setting up conv9_2_mbox_loc_perm
I0609 09:14:43.628379 26601 net.cpp:158] Top shape: 4 1 1 16 (64)
I0609 09:14:43.628383 26601 net.cpp:166] Memory required for data: 991232032
I0609 09:14:43.628387 26601 layer_factory.hpp:77] Creating layer conv9_2_mbox_loc_flat
I0609 09:14:43.628396 26601 net.cpp:100] Creating Layer conv9_2_mbox_loc_flat
I0609 09:14:43.628408 26601 net.cpp:435] conv9_2_mbox_loc_flat <- conv9_2_mbox_loc_perm
I0609 09:14:43.628420 26601 net.cpp:409] conv9_2_mbox_loc_flat -> conv9_2_mbox_loc_flat
I0609 09:14:43.628437 26601 layer.hpp:71] 
I0609 09:14:43.628490 26601 net.cpp:151] Setting up conv9_2_mbox_loc_flat
I0609 09:14:43.628501 26601 net.cpp:158] Top shape: 4 16 (64)
I0609 09:14:43.628505 26601 net.cpp:166] Memory required for data: 991232288
I0609 09:14:43.628509 26601 layer_factory.hpp:77] Creating layer conv9_2_mbox_conf
I0609 09:14:43.628526 26601 net.cpp:100] Creating Layer conv9_2_mbox_conf
I0609 09:14:43.628538 26601 net.cpp:435] conv9_2_mbox_conf <- conv9_2_conv9_2_relu_0_split_1
I0609 09:14:43.628551 26601 net.cpp:409] conv9_2_mbox_conf -> conv9_2_mbox_conf
I0609 09:14:43.628567 26601 layer.hpp:71] 
I0609 09:14:43.630846 26601 net.cpp:151] Setting up conv9_2_mbox_conf
I0609 09:14:43.630867 26601 net.cpp:158] Top shape: 4 8 1 1 (32)
I0609 09:14:43.630872 26601 net.cpp:166] Memory required for data: 991232416
I0609 09:14:43.630880 26601 layer_factory.hpp:77] Creating layer conv9_2_mbox_conf_perm
I0609 09:14:43.630892 26601 net.cpp:100] Creating Layer conv9_2_mbox_conf_perm
I0609 09:14:43.630900 26601 net.cpp:435] conv9_2_mbox_conf_perm <- conv9_2_mbox_conf
I0609 09:14:43.630916 26601 net.cpp:409] conv9_2_mbox_conf_perm -> conv9_2_mbox_conf_perm
I0609 09:14:43.630929 26601 layer.hpp:71] 
I0609 09:14:43.631186 26601 net.cpp:151] Setting up conv9_2_mbox_conf_perm
I0609 09:14:43.631206 26601 net.cpp:158] Top shape: 4 1 1 8 (32)
I0609 09:14:43.631212 26601 net.cpp:166] Memory required for data: 991232544
I0609 09:14:43.631217 26601 layer_factory.hpp:77] Creating layer conv9_2_mbox_conf_flat
I0609 09:14:43.631227 26601 net.cpp:100] Creating Layer conv9_2_mbox_conf_flat
I0609 09:14:43.631238 26601 net.cpp:435] conv9_2_mbox_conf_flat <- conv9_2_mbox_conf_perm
I0609 09:14:43.631249 26601 net.cpp:409] conv9_2_mbox_conf_flat -> conv9_2_mbox_conf_flat
I0609 09:14:43.631259 26601 layer.hpp:71] 
I0609 09:14:43.631314 26601 net.cpp:151] Setting up conv9_2_mbox_conf_flat
I0609 09:14:43.631330 26601 net.cpp:158] Top shape: 4 8 (32)
I0609 09:14:43.631336 26601 net.cpp:166] Memory required for data: 991232672
I0609 09:14:43.631342 26601 layer_factory.hpp:77] Creating layer conv9_2_mbox_priorbox
I0609 09:14:43.631356 26601 net.cpp:100] Creating Layer conv9_2_mbox_priorbox
I0609 09:14:43.631371 26601 net.cpp:435] conv9_2_mbox_priorbox <- conv9_2_conv9_2_relu_0_split_2
I0609 09:14:43.631381 26601 net.cpp:435] conv9_2_mbox_priorbox <- data_data_0_split_6
I0609 09:14:43.631389 26601 net.cpp:409] conv9_2_mbox_priorbox -> conv9_2_mbox_priorbox
I0609 09:14:43.631399 26601 layer.hpp:71] 
I0609 09:14:43.631454 26601 net.cpp:151] Setting up conv9_2_mbox_priorbox
I0609 09:14:43.631472 26601 net.cpp:158] Top shape: 1 2 16 (32)
I0609 09:14:43.631477 26601 net.cpp:166] Memory required for data: 991232800
I0609 09:14:43.631482 26601 layer_factory.hpp:77] Creating layer mbox_loc
I0609 09:14:43.631515 26601 net.cpp:100] Creating Layer mbox_loc
I0609 09:14:43.631534 26601 net.cpp:435] mbox_loc <- conv4_3_norm_mbox_loc_flat
I0609 09:14:43.631544 26601 net.cpp:435] mbox_loc <- fc7_mbox_loc_flat
I0609 09:14:43.631552 26601 net.cpp:435] mbox_loc <- conv6_2_mbox_loc_flat
I0609 09:14:43.631561 26601 net.cpp:435] mbox_loc <- conv7_2_mbox_loc_flat
I0609 09:14:43.631588 26601 net.cpp:435] mbox_loc <- conv8_2_mbox_loc_flat
I0609 09:14:43.631597 26601 net.cpp:435] mbox_loc <- conv9_2_mbox_loc_flat
I0609 09:14:43.631608 26601 net.cpp:409] mbox_loc -> mbox_loc
I0609 09:14:43.631633 26601 layer.hpp:71] 
I0609 09:14:43.631700 26601 net.cpp:151] Setting up mbox_loc
I0609 09:14:43.631718 26601 net.cpp:158] Top shape: 4 34928 (139712)
I0609 09:14:43.631723 26601 net.cpp:166] Memory required for data: 991791648
I0609 09:14:43.631729 26601 layer_factory.hpp:77] Creating layer mbox_conf
I0609 09:14:43.631744 26601 net.cpp:100] Creating Layer mbox_conf
I0609 09:14:43.631753 26601 net.cpp:435] mbox_conf <- conv4_3_norm_mbox_conf_flat
I0609 09:14:43.631762 26601 net.cpp:435] mbox_conf <- fc7_mbox_conf_flat
I0609 09:14:43.631768 26601 net.cpp:435] mbox_conf <- conv6_2_mbox_conf_flat
I0609 09:14:43.631778 26601 net.cpp:435] mbox_conf <- conv7_2_mbox_conf_flat
I0609 09:14:43.631784 26601 net.cpp:435] mbox_conf <- conv8_2_mbox_conf_flat
I0609 09:14:43.631791 26601 net.cpp:435] mbox_conf <- conv9_2_mbox_conf_flat
I0609 09:14:43.631799 26601 net.cpp:409] mbox_conf -> mbox_conf
I0609 09:14:43.631811 26601 layer.hpp:71] 
I0609 09:14:43.631865 26601 net.cpp:151] Setting up mbox_conf
I0609 09:14:43.631881 26601 net.cpp:158] Top shape: 4 17464 (69856)
I0609 09:14:43.631887 26601 net.cpp:166] Memory required for data: 992071072
I0609 09:14:43.631893 26601 layer_factory.hpp:77] Creating layer mbox_priorbox
I0609 09:14:43.631906 26601 net.cpp:100] Creating Layer mbox_priorbox
I0609 09:14:43.631916 26601 net.cpp:435] mbox_priorbox <- conv4_3_norm_mbox_priorbox
I0609 09:14:43.631923 26601 net.cpp:435] mbox_priorbox <- fc7_mbox_priorbox
I0609 09:14:43.631932 26601 net.cpp:435] mbox_priorbox <- conv6_2_mbox_priorbox
I0609 09:14:43.631937 26601 net.cpp:435] mbox_priorbox <- conv7_2_mbox_priorbox
I0609 09:14:43.631942 26601 net.cpp:435] mbox_priorbox <- conv8_2_mbox_priorbox
I0609 09:14:43.631948 26601 net.cpp:435] mbox_priorbox <- conv9_2_mbox_priorbox
I0609 09:14:43.631958 26601 net.cpp:409] mbox_priorbox -> mbox_priorbox
I0609 09:14:43.631966 26601 layer.hpp:71] 
I0609 09:14:43.632019 26601 net.cpp:151] Setting up mbox_priorbox
I0609 09:14:43.632037 26601 net.cpp:158] Top shape: 1 2 34928 (69856)
I0609 09:14:43.632043 26601 net.cpp:166] Memory required for data: 992350496
I0609 09:14:43.632048 26601 layer_factory.hpp:77] Creating layer mbox_conf_reshape
I0609 09:14:43.632061 26601 net.cpp:100] Creating Layer mbox_conf_reshape
I0609 09:14:43.632066 26601 net.cpp:435] mbox_conf_reshape <- mbox_conf
I0609 09:14:43.632079 26601 net.cpp:409] mbox_conf_reshape -> mbox_conf_reshape
I0609 09:14:43.632098 26601 layer.hpp:71] 
I0609 09:14:43.632165 26601 net.cpp:151] Setting up mbox_conf_reshape
I0609 09:14:43.632184 26601 net.cpp:158] Top shape: 4 8732 2 (69856)
I0609 09:14:43.632189 26601 net.cpp:166] Memory required for data: 992629920
I0609 09:14:43.632195 26601 layer_factory.hpp:77] Creating layer mbox_conf_softmax
I0609 09:14:43.632205 26601 net.cpp:100] Creating Layer mbox_conf_softmax
I0609 09:14:43.632211 26601 net.cpp:435] mbox_conf_softmax <- mbox_conf_reshape
I0609 09:14:43.632225 26601 net.cpp:409] mbox_conf_softmax -> mbox_conf_softmax
I0609 09:14:43.632241 26601 layer.hpp:71] 
I0609 09:14:43.633316 26601 net.cpp:151] Setting up mbox_conf_softmax
I0609 09:14:43.633342 26601 net.cpp:158] Top shape: 4 8732 2 (69856)
I0609 09:14:43.633350 26601 net.cpp:166] Memory required for data: 992909344
I0609 09:14:43.633355 26601 layer_factory.hpp:77] Creating layer mbox_conf_flatten
I0609 09:14:43.633365 26601 net.cpp:100] Creating Layer mbox_conf_flatten
I0609 09:14:43.633380 26601 net.cpp:435] mbox_conf_flatten <- mbox_conf_softmax
I0609 09:14:43.633399 26601 net.cpp:409] mbox_conf_flatten -> mbox_conf_flatten
I0609 09:14:43.633420 26601 layer.hpp:71] 
I0609 09:14:43.633496 26601 net.cpp:151] Setting up mbox_conf_flatten
I0609 09:14:43.633517 26601 net.cpp:158] Top shape: 4 17464 (69856)
I0609 09:14:43.633523 26601 net.cpp:166] Memory required for data: 993188768
I0609 09:14:43.633550 26601 layer_factory.hpp:77] Creating layer detection_out
I0609 09:14:43.633574 26601 net.cpp:100] Creating Layer detection_out
I0609 09:14:43.633589 26601 net.cpp:435] detection_out <- mbox_loc
I0609 09:14:43.633599 26601 net.cpp:435] detection_out <- mbox_conf_flatten
I0609 09:14:43.633605 26601 net.cpp:435] detection_out <- mbox_priorbox
I0609 09:14:43.633617 26601 net.cpp:409] detection_out -> detection_out
I0609 09:14:43.633638 26601 layer.hpp:71] 
I0609 09:14:43.634415 26601 net.cpp:151] Setting up detection_out
I0609 09:14:43.634433 26601 net.cpp:158] Top shape: 1 1 1 7 (7)
I0609 09:14:43.634435 26601 net.cpp:166] Memory required for data: 993188796
I0609 09:14:43.634439 26601 layer_factory.hpp:77] Creating layer detection_eval
I0609 09:14:43.634449 26601 net.cpp:100] Creating Layer detection_eval
I0609 09:14:43.634454 26601 net.cpp:435] detection_eval <- detection_out
I0609 09:14:43.634459 26601 net.cpp:435] detection_eval <- label
I0609 09:14:43.634464 26601 net.cpp:409] detection_eval -> detection_eval
I0609 09:14:43.634475 26601 layer.hpp:71] 
I0609 09:14:43.634620 26601 net.cpp:151] Setting up detection_eval
I0609 09:14:43.634629 26601 net.cpp:158] Top shape: 1 1 2 5 (10)
I0609 09:14:43.634631 26601 net.cpp:166] Memory required for data: 993188836
I0609 09:14:43.634635 26601 net.cpp:229] detection_eval does not need backward computation.
I0609 09:14:43.634640 26601 net.cpp:229] detection_out does not need backward computation.
I0609 09:14:43.634644 26601 net.cpp:229] mbox_conf_flatten does not need backward computation.
I0609 09:14:43.634647 26601 net.cpp:229] mbox_conf_softmax does not need backward computation.
…
