…
        min_scale: 0.3
        max_scale: 1
        min_aspect_ratio: 0.5
        max_aspect_ratio: 2
      }
      sample_constraint {
        min_jaccard_overlap: 0.9
      }
      max_sample: 1
      max_trials: 50
    }
    batch_sampler {
      sampler {
        min_scale: 0.3
        max_scale: 1
        min_aspect_ratio: 0.5
        max_aspect_ratio: 2
      }
      sample_constraint {
        max_jaccard_overlap: 1
      }
      max_sample: 1
      max_trials: 50
    }
    label_map_file: "data/grayscale_tbs_v2.0/labelmap_voc.prototxt"
  }
}
layer {
  name: "conv1_1"
  type: "Convolution"
  bottom: "data"
  top: "conv1_1"
  param {
    lr_mult: 1
    decay_mult: 1
  }
  param {
    lr_mult: 2
    decay_mult: 0
  }
  convolution_param {
    num_output: 64
    pad: 1
    kernel_size: 3
    weight_filler {
      type: "xavier"
    }
    bias_filler {
      type: "constant"
      value: 0
    }
  }
}
layer {
  name: "relu1_1"
  type: "ReLU"
  bottom: "conv1_1"
  top: "conv1_1"
}
layer {
  name: "conv1_2"
  type: "Convolution"
  bottom: "conv1_1"
  top: "conv1_2"
  param {
    lr_mult: 1
    decay_mult: 1
  }
  param {
    lr_mult: 2
    decay_mult: 0
  }
  convolution_param {
    num_output: 64
    pad: 1
    kernel_size: 3
    weight_filler {
      type: "xavier"
    }
    bias_filler {
      type: "constant"
      value: 0
    }
  }
}
layer {
  name: "relu1_2"
  type: "ReLU"
  bottom: "conv1_2"
  top: "conv1_2"
}
layer {
  name: "pool1"
  type: "Pooling"
  bottom: "conv1_2"
  top: "pool1"
  pooling_param {
    pool: MAX
    kernel_size: 2
    stride: 2
  }
}
layer {
  name: "conv2_1"
  type: "Convolution"
  bottom: "pool1"
  top: "conv2_1"
  param {
    lr_mult: 1
    decay_mult: 1
  }
  param {
    lr_mult: 2
    decay_mult: 0
  }
  convolution_param {
    num_output: 128
    pad: 1
    kernel_size: 3
    weight_filler {
      type: "xavier"
    }
    bias_filler {
      type: "constant"
      value: 0
    }
  }
}
layer {
  name: "relu2_1"
  type: "ReLU"
  bottom: "conv2_1"
  top: "conv2_1"
}
layer {
  name: "conv2_2"
  type: "Convolution"
  bottom: "conv2_1"
  top: "conv2_2"
  param {
    lr_mult: 1
    decay_mult: 1
  }
  param {
    lr_mult: 2
    decay_mult: 0
  }
  convolution_param {
    num_output: 128
    pad: 1
    kernel_size: 3
    weight_filler {
      type: "xavier"
    }
    bias_filler {
      type: "constant"
      value: 0
    }
  }
}
layer {
  name: "relu2_2"
  type: "ReLU"
  bottom: "conv2_2"
  top: "conv2_2"
}
layer {
  name: "pool2"
  type: "Pooling"
  bottom: "conv2_2"
  top: "pool2"
  pooling_param {
    pool: MAX
    kernel_size: 2
    stride: 2
  }
}
layer {
  name: "conv3_1"
  type: "Convolution"
  bottom: "pool2"
  top: "conv3_1"
  param {
    lr_mult: 1
    decay_mult: 1
  }
  param {
    lr_mult: 2
    decay_mult: 0
  }
  convolution_param {
    num_output: 256
    pad: 1
    kernel_size: 3
    weight_filler {
      type: "xavier"
    }
    bias_filler {
      type: "constant"
      value: 0
    }
  }
}
layer {
  name: "relu3_1"
  type: "ReLU"
  bottom: "conv3_1"
  top: "conv3_1"
}
layer {
  name: "conv3_2"
  type: "Convolution"
  bottom: "conv3_1"
  top: "conv3_2"
  param {
    lr_mult: 1
    decay_mult: 1
  }
  param {
    lr_mult: 2
    decay_mult: 0
  }
  convolution_param {
    num_output: 256
    pad: 1
    kernel_size: 3
    weight_filler {
      type: "xavier"
    }
    bias_filler {
      type: "constant"
      value: 0
    }
  }
}
layer {
  name: "relu3_2"
  type: "ReLU"
  bottom: "conv3_2"
  top: "conv3_2"
}
layer {
  name: "conv3_3"
  type: "Convolution"
  bottom: "conv3_2"
  top: "conv3_3"
  param {
    lr_mult: 1
    decay_mult: 1
  }
  param {
    lr_mult: 2
    decay_mult: 0
  }
  convolution_param {
    num_output: 256
    pad: 1
    kernel_size: 3
    weight_filler {
      type: "xavier"
    }
    bias_filler {
      type: "constant"
      value: 0
    }
  }
}
layer {
  name: "relu3_3"
  type: "ReLU"
  bottom: "conv3_3"
  top: "conv3_3"
}
layer {
  name: "pool3"
  type: "Pooling"
  bottom: "conv3_3"
  top: "pool3"
  pooling_param {
    pool: MAX
    kernel_size: 2
    stride: 2
  }
}
layer {
  name: "conv4_1"
  type: "Convolution"
  bottom: "pool3"
  top: "conv4_1"
  param {
    lr_mult: 1
    decay_mult: 1
  }
  param {
    lr_mult: 2
    decay_mult: 0
  }
  convolution_param {
    num_output: 512
    pad: 1
    kernel_size: 3
    weight_filler {
      type: "xavier"
    }
    bias_filler {
      type: "constant"
      value: 0
    }
  }
}
layer {
  name: "relu4_1"
  type: "ReLU"
  bottom: "conv4_1"
  top: "conv4_1"
}
layer {
  name: "conv4_2"
  type: "Convolution"
  bottom: "conv4_1"
  top: "conv4_2"
  param {
    lr_mult: 1
    decay_mult: 1
  }
  param {
    lr_mult: 2
    decay_mult: 0
  }
  convolution_param {
    num_output: 512
    pad: 1
    kernel_size: 3
    weight_filler {
      type: "xavier"
    }
    bias_filler {
      type: "constant"
      value: 0
    }
  }
}
layer {
  name: "relu4_2"
  type: "ReLU"
  bottom: "conv4_2"
  top: "conv4_2"
}
layer {
  name: "conv4_3"
  type: "Convolution"
  bottom: "conv4_2"
  top: "conv4_3"
  param {
    lr_mult: 1
    decay_mult: 1
  }
  param {
    lr_mult: 2
    decay_mult: 0
  }
  convolution_param {
    num_output: 512
    pad: 1
    kernel_size: 3
    weight_filler {
      type: "xavier"
    }
    bias_filler {
      type: "constant"
      value: 0
    }
  }
}
layer {
  name: "relu4_3"
  type: "ReLU"
  bottom: "conv4_3"
  top: "conv4_3"
}
layer {
  name: "pool4"
  type: "Pooling"
  bottom: "conv4_3"
  top: "pool4"
  pooling_param {
    pool: MAX
    kernel_size: 2
    stride: 2
  }
}
layer {
  name: "conv5_1"
  type: "Convolution"
  bottom: "pool4"
  top: "conv5_1"
  param {
    lr_mult: 1
    decay_mult: 1
  }
  param {
    lr_mult: 2
    decay_mult: 0
  }
  convolution_param {
    num_output: 512
    pad: 1
    kernel_size: 3
    weight_filler {
      type: "xavier"
    }
    bias_filler {
      type: "constant"
      value: 0
    }
    dilation: 1
  }
}
layer {
  name: "relu5_1"
  type: "ReLU"
  bottom: "conv5_1"
  top: "conv5_1"
}
layer {
  name: "conv5_2"
  type: "Convolution"
  bottom: "conv5_1"
  top: "conv5_2"
  param {
    lr_mult: 1
    decay_mult: 1
  }
  param {
    lr_mult: 2
    decay_mult: 0
  }
  convolution_param {
    num_output: 512
    pad: 1
    kernel_size: 3
    weight_filler {
      type: "xavier"
    }
    bias_filler {
      type: "constant"
      value: 0
    }
    dilation: 1
  }
}
layer {
  name: "relu5_2"
  type: "ReLU"
  bottom: "conv5_2"
  top: "conv5_2"
}
layer {
  name: "conv5_3"
  type: "Convolution"
  bottom: "conv5_2"
  top: "conv5_3"
  param {
    lr_mult: 1
    decay_mult: 1
  }
  param {
    lr_mult: 2
    decay_mult: 0
  }
  convolution_param {
    num_output: 512
    pad: 1
    kernel_size: 3
    weight_filler {
      type: "xavier"
    }
    bias_filler {
      type: "constant"
      value: 0
    }
    dilation: 1
  }
}
layer {
  name: "relu5_3"
  type: "ReLU"
  bottom: "conv5_3"
  top: "conv5_3"
}
layer {
  name: "pool5"
  type: "Pooling"
  bottom: "conv5_3"
  top: "pool5"
  pooling_param {
    pool: MAX
    kernel_size: 3
    stride: 1
    pad: 1
  }
}
layer {
  name: "fc6"
  type: "Convolution"
  bottom: "pool5"
  top: "fc6"
  param {
    lr_mult: 1
    decay_mult: 1
  }
  param {
    lr_mult: 2
    decay_mult: 0
  }
  convolution_param {
    num_output: 1024
    pad: 6
    kernel_size: 3
    weight_filler {
      type: "xavier"
    }
    bias_filler {
      type: "constant"
      value: 0
    }
    dilation: 6
  }
}
layer {
  name: "relu6"
  type: "ReLU"
  bottom: "fc6"
  top: "fc6"
}
layer {
  name: "fc7"
  type: "Convolution"
  bottom: "fc6"
  top: "fc7"
  param {
    lr_mult: 1
    decay_mult: 1
  }
  param {
    lr_mult: 2
    decay_mult: 0
  }
  convolution_param {
    num_output: 1024
    kernel_size: 1
    weight_filler {
      type: "xavier"
    }
    bias_filler {
      type: "constant"
      value: 0
    }
  }
}
layer {
  name: "relu7"
  type: "ReLU"
  bottom: "fc7"
  top: "fc7"
}
layer {
  name: "conv6_1"
  type: "Convolution"
  bottom: "fc7"
  top: "conv6_1"
  param {
    lr_mult: 1
    decay_mult: 1
  }
  param {
    lr_mult: 2
    decay_mult: 0
  }
  convolution_param {
    num_output: 256
    pad: 0
    kernel_size: 1
    stride: 1
    weight_filler {
      type: "xavier"
    }
    bias_filler {
      type: "constant"
      value: 0
    }
  }
}
layer {
  name: "conv6_1_relu"
  type: "ReLU"
  bottom: "conv6_1"
  top: "conv6_1"
}
layer {
  name: "conv6_2"
  type: "Convolution"
  bottom: "conv6_1"
  top: "conv6_2"
  param {
    lr_mult: 1
    decay_mult: 1
  }
  param {
    lr_mult: 2
    decay_mult: 0
  }
  convolution_param {
    num_output: 512
    pad: 1
    kernel_size: 3
    stride: 2
    weight_filler {
      type: "xavier"
    }
    bias_filler {
      type: "constant"
      value: 0
    }
  }
}
layer {
  name: "conv6_2_relu"
  type: "ReLU"
  bottom: "conv6_2"
  top: "conv6_2"
}
layer {
  name: "conv7_1"
  type: "Convolution"
  bottom: "conv6_2"
  top: "conv7_1"
  param {
    lr_mult: 1
    decay_mult: 1
  }
  param {
    lr_mult: 2
    decay_mult: 0
  }
  convolution_param {
    num_output: 128
    pad: 0
    kernel_size: 1
    stride: 1
    weight_filler {
      type: "xavier"
    }
    bias_filler {
      type: "constant"
      value: 0
    }
  }
}
layer {
  name: "conv7_1_relu"
  type: "ReLU"
  bottom: "conv7_1"
  top: "conv7_1"
}
layer {
  name: "conv7_2"
  type: "Convolution"
  bottom: "conv7_1"
  top: "conv7_2"
  param {
    lr_mult: 1
    decay_mult: 1
  }
  param {
    lr_mult: 2
    decay_mult: 0
  }
  convolution_param {
    num_output: 256
    pad: 1
    kernel_size: 3
    stride: 2
    weight_filler {
      type: "xavier"
    }
    bias_filler {
      type: "constant"
      value: 0
    }
  }
}
layer {
  name: "conv7_2_relu"
  type: "ReLU"
  bottom: "conv7_2"
  top: "conv7_2"
}
layer {
  name: "conv8_1"
  type: "Convolution"
  bottom: "conv7_2"
  top: "conv8_1"
  param {
    lr_mult: 1
    decay_mult: 1
  }
  param {
    lr_mult: 2
    decay_mult: 0
  }
  convolution_param {
    num_output: 128
    pad: 0
    kernel_size: 1
    stride: 1
    weight_filler {
      type: "xavier"
    }
    bias_filler {
      type: "constant"
      value: 0
    }
  }
}
layer {
  name: "conv8_1_relu"
  type: "ReLU"
  bottom: "conv8_1"
  top: "conv8_1"
}
layer {
  name: "conv8_2"
  type: "Convolution"
  bottom: "conv8_1"
  top: "conv8_2"
  param {
    lr_mult: 1
    decay_mult: 1
  }
  param {
    lr_mult: 2
    decay_mult: 0
  }
  convolution_param {
    num_output: 256
    pad: 0
    kernel_size: 3
    stride: 1
    weight_filler {
      type: "xavier"
    }
    bias_filler {
      type: "constant"
      value: 0
    }
  }
}
layer {
  name: "conv8_2_relu"
  type: "ReLU"
  bottom: "conv8_2"
  top: "conv8_2"
}
layer {
  name: "conv9_1"
  type: "Convolution"
  bottom: "conv8_2"
  top: "conv9_1"
  param {
    lr_mult: 1
    decay_mult: 1
  }
  param {
    lr_mult: 2
    decay_mult: 0
  }
  convolution_param {
    num_output: 128
    pad: 0
    kernel_size: 1
    stride: 1
    weight_filler {
      type: "xavier"
    }
    bias_filler {
      type: "constant"
      value: 0
    }
  }
}
layer {
  name: "conv9_1_relu"
  type: "ReLU"
  bottom: "conv9_1"
  top: "conv9_1"
}
layer {
  name: "conv9_2"
  type: "Convolution"
  bottom: "conv9_1"
  top: "conv9_2"
  param {
    lr_mult: 1
    decay_mult: 1
  }
  param {
    lr_mult: 2
    decay_mult: 0
  }
  convolution_param {
    num_output: 256
    pad: 0
    kernel_size: 3
    stride: 1
    weight_filler {
      type: "xavier"
    }
    bias_filler {
      type: "constant"
      value: 0
    }
  }
}
layer {
  name: "conv9_2_relu"
  type: "ReLU"
  bottom: "conv9_2"
  top: "conv9_2"
}
layer {
  name: "conv4_3_norm"
  type: "Normalize"
  bottom: "conv4_3"
  top: "conv4_3_norm"
  norm_param {
    across_spatial: false
    scale_filler {
      type: "constant"
      value: 20
    }
    channel_shared: false
  }
}
layer {
  name: "conv4_3_norm_mbox_loc"
  type: "Convolution"
  bottom: "conv4_3_norm"
  top: "conv4_3_norm_mbox_loc"
  param {
    lr_mult: 1
    decay_mult: 1
  }
  param {
    lr_mult: 2
    decay_mult: 0
  }
  convolution_param {
    num_output: 16
    pad: 1
    kernel_size: 3
    stride: 1
    weight_filler {
      type: "xavier"
    }
    bias_filler {
      type: "constant"
      value: 0
    }
  }
}
layer {
  name: "conv4_3_norm_mbox_loc_perm"
  type: "Permute"
  bottom: "conv4_3_norm_mbox_loc"
  top: "conv4_3_norm_mbox_loc_perm"
  permute_param {
    order: 0
    order: 2
    order: 3
    order: 1
  }
}
layer {
  name: "conv4_3_norm_mbox_loc_flat"
  type: "Flatten"
  bottom: "conv4_3_norm_mbox_loc_perm"
  top: "conv4_3_norm_mbox_loc_flat"
  flatten_param {
    axis: 1
  }
}
layer {
  name: "conv4_3_norm_mbox_conf"
  type: "Convolution"
  bottom: "conv4_3_norm"
  top: "conv4_3_norm_mbox_conf"
  param {
    lr_mult: 1
    decay_mult: 1
  }
  param {
    lr_mult: 2
    decay_mult: 0
  }
  convolution_param {
    num_output: 8
    pad: 1
    kernel_size: 3
    stride: 1
    weight_filler {
      type: "xavier"
    }
    bias_filler {
      type: "constant"
      value: 0
    }
  }
}
layer {
  name: "conv4_3_norm_mbox_conf_perm"
  type: "Permute"
  bottom: "conv4_3_norm_mbox_conf"
  top: "conv4_3_norm_mbox_conf_perm"
  permute_param {
    order: 0
    order: 2
    order: 3
    order: 1
  }
}
layer {
  name: "conv4_3_norm_mbox_conf_flat"
  type: "Flatten"
  bottom: "conv4_3_norm_mbox_conf_perm"
  top: "conv4_3_norm_mbox_conf_flat"
  flatten_param {
    axis: 1
  }
}
layer {
  name: "conv4_3_norm_mbox_priorbox"
  type: "PriorBox"
  bottom: "conv4_3_norm"
  bottom: "data"
  top: "conv4_3_norm_mbox_priorbox"
  prior_box_param {
    min_size: 30
    max_size: 60
    aspect_ratio: 2
    flip: true
    clip: false
    variance: 0.1
    variance: 0.1
    variance: 0.2
    variance: 0.2
    step: 8
    offset: 0.5
  }
}
layer {
  name: "fc7_mbox_loc"
  type: "Convolution"
  bottom: "fc7"
  top: "fc7_mbox_loc"
  param {
    lr_mult: 1
    decay_mult: 1
  }
  param {
    lr_mult: 2
    decay_mult: 0
  }
  convolution_param {
    num_output: 24
    pad: 1
    kernel_size: 3
    stride: 1
    weight_filler {
      type: "xavier"
    }
    bias_filler {
      type: "constant"
      value: 0
    }
  }
}
layer {
  name: "fc7_mbox_loc_perm"
  type: "Permute"
  bottom: "fc7_mbox_loc"
  top: "fc7_mbox_loc_perm"
  permute_param {
    order: 0
    order: 2
    order: 3
    order: 1
  }
}
layer {
  name: "fc7_mbox_loc_flat"
  type: "Flatten"
  bottom: "fc7_mbox_loc_perm"
  top: "fc7_mbox_loc_flat"
  flatten_param {
    axis: 1
  }
}
layer {
  name: "fc7_mbox_conf"
  type: "Convolution"
  bottom: "fc7"
  top: "fc7_mbox_conf"
  param {
    lr_mult: 1
    decay_mult: 1
  }
  param {
    lr_mult: 2
    decay_mult: 0
  }
  convolution_param {
    num_output: 12
    pad: 1
    kernel_size: 3
    stride: 1
    weight_filler {
      type: "xavier"
    }
    bias_filler {
      type: "constant"
      value: 0
    }
  }
}
layer {
  name: "fc7_mbox_conf_perm"
  type: "Permute"
  bottom: "fc7_mbox_conf"
  top: "fc7_mbox_conf_perm"
  permute_param {
    order: 0
    order: 2
    order: 3
    order: 1
  }
}
layer {
  name: "fc7_mbox_conf_flat"
  type: "Flatten"
  bottom: "fc7_mbox_conf_perm"
  top: "fc7_mbox_conf_flat"
  flatten_param {
    axis: 1
  }
}
layer {
  name: "fc7_mbox_priorbox"
  type: "PriorBox"
  bottom: "fc7"
  bottom: "data"
  top: "fc7_mbox_priorbox"
  prior_box_param {
    min_size: 60
    max_size: 111
    aspect_ratio: 2
    aspect_ratio: 3
    flip: true
    clip: false
    variance: 0.1
    variance: 0.1
    variance: 0.2
    variance: 0.2
    step: 16
    offset: 0.5
  }
}
layer {
  name: "conv6_2_mbox_loc"
  type: "Convolution"
  bottom: "conv6_2"
  top: "conv6_2_mbox_loc"
  param {
    lr_mult: 1
    decay_mult: 1
  }
  param {
    lr_mult: 2
    decay_mult: 0
  }
  convolution_param {
    num_output: 24
    pad: 1
    kernel_size: 3
    stride: 1
    weight_filler {
      type: "xavier"
    }
    bias_filler {
      type: "constant"
      value: 0
    }
  }
}
layer {
  name: "conv6_2_mbox_loc_perm"
  type: "Permute"
  bottom: "conv6_2_mbox_loc"
  top: "conv6_2_mbox_loc_perm"
  permute_param {
    order: 0
    order: 2
    order: 3
    order: 1
  }
}
layer {
  name: "conv6_2_mbox_loc_flat"
  type: "Flatten"
  bottom: "conv6_2_mbox_loc_perm"
  top: "conv6_2_mbox_loc_flat"
  flatten_param {
    axis: 1
  }
}
layer {
  name: "conv6_2_mbox_conf"
  type: "Convolution"
  bottom: "conv6_2"
  top: "conv6_2_mbox_conf"
  param {
    lr_mult: 1
    decay_mult: 1
  }
  param {
    lr_mult: 2
    decay_mult: 0
  }
  convolution_param {
    num_output: 12
    pad: 1
    kernel_size: 3
    stride: 1
    weight_filler {
      type: "xavier"
    }
    bias_filler {
      type: "constant"
      value: 0
    }
  }
}
layer {
  name: "conv6_2_mbox_conf_perm"
  type: "Permute"
  bottom: "conv6_2_mbox_conf"
  top: "conv6_2_mbox_conf_perm"
  permute_param {
    order: 0
    order: 2
    order: 3
    order: 1
  }
}
layer {
  name: "conv6_2_mbox_conf_flat"
  type: "Flatten"
  bottom: "conv6_2_mbox_conf_perm"
  top: "conv6_2_mbox_conf_flat"
  flatten_param {
    axis: 1
  }
}
layer {
  name: "conv6_2_mbox_priorbox"
  type: "PriorBox"
  bottom: "conv6_2"
  bottom: "data"
  top: "conv6_2_mbox_priorbox"
  prior_box_param {
    min_size: 111
    max_size: 162
    aspect_ratio: 2
    aspect_ratio: 3
    flip: true
    clip: false
    variance: 0.1
    variance: 0.1
    variance: 0.2
    variance: 0.2
    step: 32
    offset: 0.5
  }
}
layer {
  name: "conv7_2_mbox_loc"
  type: "Convolution"
  bottom: "conv7_2"
  top: "conv7_2_mbox_loc"
  param {
    lr_mult: 1
    decay_mult: 1
  }
  param {
    lr_mult: 2
    decay_mult: 0
  }
  convolution_param {
    num_output: 24
    pad: 1
    kernel_size: 3
    stride: 1
    weight_filler {
      type: "xavier"
    }
    bias_filler {
      type: "constant"
      value: 0
    }
  }
}
layer {
  name: "conv7_2_mbox_loc_perm"
  type: "Permute"
  bottom: "conv7_2_mbox_loc"
  top: "conv7_2_mbox_loc_perm"
  permute_param {
    order: 0
    order: 2
    order: 3
    order: 1
  }
}
layer {
  name: "conv7_2_mbox_loc_flat"
  type: "Flatten"
  bottom: "conv7_2_mbox_loc_perm"
  top: "conv7_2_mbox_loc_flat"
  flatten_param {
    axis: 1
  }
}
layer {
  name: "conv7_2_mbox_conf"
  type: "Convolution"
  bottom: "conv7_2"
  top: "conv7_2_mbox_conf"
  param {
    lr_mult: 1
    decay_mult: 1
  }
  param {
    lr_mult: 2
    decay_mult: 0
  }
  convolution_param {
    num_output: 12
    pad: 1
    kernel_size: 3
    stride: 1
    weight_filler {
      type: "xavier"
    }
    bias_filler {
      type: "constant"
      value: 0
    }
  }
}
layer {
  name: "conv7_2_mbox_conf_perm"
  type: "Permute"
  bottom: "conv7_2_mbox_conf"
  top: "conv7_2_mbox_conf_perm"
  permute_param {
    order: 0
    order: 2
    order: 3
    order: 1
  }
}
layer {
  name: "conv7_2_mbox_conf_flat"
  type: "Flatten"
  bottom: "conv7_2_mbox_conf_perm"
  top: "conv7_2_mbox_conf_flat"
  flatten_param {
    axis: 1
  }
}
layer {
  name: "conv7_2_mbox_priorbox"
  type: "PriorBox"
  bottom: "conv7_2"
  bottom: "data"
  top: "conv7_2_mbox_priorbox"
  prior_box_param {
    min_size: 162
    max_size: 213
    aspect_ratio: 2
    aspect_ratio: 3
    flip: true
    clip: false
    variance: 0.1
    variance: 0.1
    variance: 0.2
    variance: 0.2
    step: 64
    offset: 0.5
  }
}
layer {
  name: "conv8_2_mbox_loc"
  type: "Convolution"
  bottom: "conv8_2"
  top: "conv8_2_mbox_loc"
  param {
    lr_mult: 1
    decay_mult: 1
  }
  param {
    lr_mult: 2
    decay_mult: 0
  }
  convolution_param {
    num_output: 16
    pad: 1
    kernel_size: 3
    stride: 1
    weight_filler {
      type: "xavier"
    }
    bias_filler {
      type: "constant"
      value: 0
    }
  }
}
layer {
  name: "conv8_2_mbox_loc_perm"
  type: "Permute"
  bottom: "conv8_2_mbox_loc"
  top: "conv8_2_mbox_loc_perm"
  permute_param {
    order: 0
    order: 2
    order: 3
    order: 1
  }
}
layer {
  name: "conv8_2_mbox_loc_flat"
  type: "Flatten"
  bottom: "conv8_2_mbox_loc_perm"
  top: "conv8_2_mbox_loc_flat"
  flatten_param {
    axis: 1
  }
}
layer {
  name: "conv8_2_mbox_conf"
  type: "Convolution"
  bottom: "conv8_2"
  top: "conv8_2_mbox_conf"
  param {
    lr_mult: 1
    decay_mult: 1
  }
  param {
    lr_mult: 2
    decay_mult: 0
  }
  convolution_param {
    num_output: 8
    pad: 1
    kernel_size: 3
    stride: 1
    weight_filler {
      type: "xavier"
    }
    bias_filler {
      type: "constant"
      value: 0
    }
  }
}
layer {
  name: "conv8_2_mbox_conf_perm"
  type: "Permute"
  bottom: "conv8_2_mbox_conf"
  top: "conv8_2_mbox_conf_perm"
  permute_param {
    order: 0
    order: 2
    order: 3
    order: 1
  }
}
layer {
  name: "conv8_2_mbox_conf_flat"
  type: "Flatten"
  bottom: "conv8_2_mbox_conf_perm"
  top: "conv8_2_mbox_conf_flat"
  flatten_param {
    axis: 1
  }
}
layer {
  name: "conv8_2_mbox_priorbox"
  type: "PriorBox"
  bottom: "conv8_2"
  bottom: "data"
  top: "conv8_2_mbox_priorbox"
  prior_box_param {
    min_size: 213
    max_size: 264
    aspect_ratio: 2
    flip: true
    clip: false
    variance: 0.1
    variance: 0.1
    variance: 0.2
    variance: 0.2
    step: 100
    offset: 0.5
  }
}
layer {
  name: "conv9_2_mbox_loc"
  type: "Convolution"
  bottom: "conv9_2"
  top: "conv9_2_mbox_loc"
  param {
    lr_mult: 1
    decay_mult: 1
  }
  param {
    lr_mult: 2
    decay_mult: 0
  }
  convolution_param {
    num_output: 16
    pad: 1
    kernel_size: 3
    stride: 1
    weight_filler {
      type: "xavier"
    }
    bias_filler {
      type: "constant"
      value: 0
    }
  }
}
layer {
  name: "conv9_2_mbox_loc_perm"
  type: "Permute"
  bottom: "conv9_2_mbox_loc"
  top: "conv9_2_mbox_loc_perm"
  permute_param {
    order: 0
    order: 2
    order: 3
    order: 1
  }
}
layer {
  name: "conv9_2_mbox_loc_flat"
  type: "Flatten"
  bottom: "conv9_2_mbox_loc_perm"
  top: "conv9_2_mbox_loc_flat"
  flatten_param {
    axis: 1
  }
}
layer {
  name: "conv9_2_mbox_conf"
  type: "Convolution"
  bottom: "conv9_2"
  top: "conv9_2_mbox_conf"
  param {
    lr_mult: 1
    decay_mult: 1
  }
  param {
    lr_mult: 2
    decay_mult: 0
  }
  convolution_param {
    num_output: 8
    pad: 1
    kernel_size: 3
    stride: 1
    weight_filler {
      type: "xavier"
    }
    bias_filler {
      type: "constant"
      value: 0
    }
  }
}
layer {
  name: "conv9_2_mbox_conf_perm"
  type: "Permute"
  bottom: "conv9_2_mbox_conf"
  top: "conv9_2_mbox_conf_perm"
  permute_param {
    order: 0
    order: 2
    order: 3
    order: 1
  }
}
layer {
  name: "conv9_2_mbox_conf_flat"
  type: "Flatten"
  bottom: "conv9_2_mbox_conf_perm"
  top: "conv9_2_mbox_conf_flat"
  flatten_param {
    axis: 1
  }
}
layer {
  name: "conv9_2_mbox_priorbox"
  type: "PriorBox"
  bottom: "conv9_2"
  bottom: "data"
  top: "conv9_2_mbox_priorbox"
  prior_box_param {
    min_size: 264
    max_size: 315
    aspect_ratio: 2
    flip: true
    clip: false
    variance: 0.1
    variance: 0.1
    variance: 0.2
    variance: 0.2
    step: 300
    offset: 0.5
  }
}
layer {
  name: "mbox_loc"
  type: "Concat"
  bottom: "conv4_3_norm_mbox_loc_flat"
  bottom: "fc7_mbox_loc_flat"
  bottom: "conv6_2_mbox_loc_flat"
  bottom: "conv7_2_mbox_loc_flat"
  bottom: "conv8_2_mbox_loc_flat"
  bottom: "conv9_2_mbox_loc_flat"
  top: "mbox_loc"
  concat_param {
    axis: 1
  }
}
layer {
  name: "mbox_conf"
  type: "Concat"
  bottom: "conv4_3_norm_mbox_conf_flat"
  bottom: "fc7_mbox_conf_flat"
  bottom: "conv6_2_mbox_conf_flat"
  bottom: "conv7_2_mbox_conf_flat"
  bottom: "conv8_2_mbox_conf_flat"
  bottom: "conv9_2_mbox_conf_flat"
  top: "mbox_conf"
  concat_param {
    axis: 1
  }
}
layer {
  name: "mbox_priorbox"
  type: "Concat"
  bottom: "conv4_3_norm_mbox_priorbox"
  bottom: "fc7_mbox_priorbox"
  bottom: "conv6_2_mbox_priorbox"
  bottom: "conv7_2_mbox_priorbox"
  bottom: "conv8_2_mbox_priorbox"
  bottom: "conv9_2_mbox_priorbox"
  top: "mbox_priorbox"
  concat_param {
    axis: 2
  }
}
layer {
  name: "mbox_loss"
  type: "MultiBoxLoss"
  bottom: "mbox_loc"
  bottom: "mbox_conf"
  bottom: "mbox_priorbox"
  bottom: "label"
  top: "mbox_loss"
  include {
    phase: TRAIN
  }
  propagate_down: true
  propagate_down: true
  propagate_down: false
  propagate_down: false
  loss_param {
    normalization: VALID
  }
  multibox_loss_param {
    loc_loss_type: SMOOTH_L1
    conf_loss_type: SOFTMAX
    loc_weight: 1
    num_classes: 2
    share_location: true
    match_type: PER_PREDICTION
    overlap_threshold: 0.5
    use_prior_for_matching: true
    background_label_id: 0
    use_difficult_gt: true
    neg_pos_ratio: 3
    neg_overlap: 0.5
    code_type: CENTER_SIZE
    ignore_cross_boundary_bbox: false
    mining_type: MAX_NEGATIVE
  }
}
I0609 09:33:25.244118 26840 layer_factory.hpp:77] Creating layer data
I0609 09:33:25.244596 26840 net.cpp:100] Creating Layer data
I0609 09:33:25.244627 26840 net.cpp:409] data -> data
I0609 09:33:25.244675 26840 net.cpp:409] data -> label
I0609 09:33:25.244696 26840 layer.hpp:71] 
I0609 09:33:25.245460 26849 db_lmdb.cpp:35] Opened lmdb examples/grayscale_tbs_v2.0/grayscale_tbs_v2.0_trainval_lmdb
I0609 09:33:25.261613 26840 annotated_data_layer.cpp:62] output data size: 32,3,300,300
I0609 09:33:25.339660 26840 net.cpp:151] Setting up data
I0609 09:33:25.339715 26840 net.cpp:158] Top shape: 32 3 300 300 (8640000)
I0609 09:33:25.339745 26840 net.cpp:158] Top shape: 1 1 4 8 (32)
I0609 09:33:25.339747 26840 net.cpp:166] Memory required for data: 34560128
I0609 09:33:25.339761 26840 layer_factory.hpp:77] Creating layer data_data_0_split
I0609 09:33:25.339778 26840 net.cpp:100] Creating Layer data_data_0_split
I0609 09:33:25.339792 26840 net.cpp:435] data_data_0_split <- data
I0609 09:33:25.339807 26840 net.cpp:409] data_data_0_split -> data_data_0_split_0
I0609 09:33:25.339820 26840 net.cpp:409] data_data_0_split -> data_data_0_split_1
I0609 09:33:25.339833 26840 net.cpp:409] data_data_0_split -> data_data_0_split_2
I0609 09:33:25.339839 26840 net.cpp:409] data_data_0_split -> data_data_0_split_3
I0609 09:33:25.339845 26840 net.cpp:409] data_data_0_split -> data_data_0_split_4
I0609 09:33:25.339854 26840 net.cpp:409] data_data_0_split -> data_data_0_split_5
I0609 09:33:25.339861 26840 net.cpp:409] data_data_0_split -> data_data_0_split_6
I0609 09:33:25.339869 26840 layer.hpp:71] 
I0609 09:33:25.339982 26840 net.cpp:151] Setting up data_data_0_split
I0609 09:33:25.339994 26840 net.cpp:158] Top shape: 32 3 300 300 (8640000)
I0609 09:33:25.339999 26840 net.cpp:158] Top shape: 32 3 300 300 (8640000)
I0609 09:33:25.340003 26840 net.cpp:158] Top shape: 32 3 300 300 (8640000)
I0609 09:33:25.340008 26840 net.cpp:158] Top shape: 32 3 300 300 (8640000)
I0609 09:33:25.340011 26840 net.cpp:158] Top shape: 32 3 300 300 (8640000)
I0609 09:33:25.340016 26840 net.cpp:158] Top shape: 32 3 300 300 (8640000)
I0609 09:33:25.340020 26840 net.cpp:158] Top shape: 32 3 300 300 (8640000)
I0609 09:33:25.340023 26840 net.cpp:166] Memory required for data: 276480128
I0609 09:33:25.340028 26840 layer_factory.hpp:77] Creating layer conv1_1
I0609 09:33:25.340049 26840 net.cpp:100] Creating Layer conv1_1
I0609 09:33:25.340056 26840 net.cpp:435] conv1_1 <- data_data_0_split_0
I0609 09:33:25.340065 26840 net.cpp:409] conv1_1 -> conv1_1
I0609 09:33:25.340072 26840 layer.hpp:71] 
I0609 09:33:25.772187 26840 net.cpp:151] Setting up conv1_1
I0609 09:33:25.772238 26840 net.cpp:158] Top shape: 32 64 300 300 (184320000)
I0609 09:33:25.772244 26840 net.cpp:166] Memory required for data: 1013760128
I0609 09:33:25.772267 26840 layer_factory.hpp:77] Creating layer relu1_1
I0609 09:33:25.772285 26840 net.cpp:100] Creating Layer relu1_1
I0609 09:33:25.772294 26840 net.cpp:435] relu1_1 <- conv1_1
I0609 09:33:25.772305 26840 net.cpp:396] relu1_1 -> conv1_1 (in-place)
I0609 09:33:25.772317 26840 layer.hpp:71] 
I0609 09:33:25.773066 26840 net.cpp:151] Setting up relu1_1
I0609 09:33:25.773088 26840 net.cpp:158] Top shape: 32 64 300 300 (184320000)
I0609 09:33:25.773093 26840 net.cpp:166] Memory required for data: 1751040128
I0609 09:33:25.773097 26840 layer_factory.hpp:77] Creating layer conv1_2
I0609 09:33:25.773119 26840 net.cpp:100] Creating Layer conv1_2
I0609 09:33:25.773133 26840 net.cpp:435] conv1_2 <- conv1_1
I0609 09:33:25.773146 26840 net.cpp:409] conv1_2 -> conv1_2
I0609 09:33:25.773169 26840 layer.hpp:71] 
I0609 09:33:25.775797 26840 net.cpp:151] Setting up conv1_2
I0609 09:33:25.775821 26840 net.cpp:158] Top shape: 32 64 300 300 (184320000)
I0609 09:33:25.775826 26840 net.cpp:166] Memory required for data: 2488320128
I0609 09:33:25.775836 26840 layer_factory.hpp:77] Creating layer relu1_2
I0609 09:33:25.775846 26840 net.cpp:100] Creating Layer relu1_2
I0609 09:33:25.775852 26840 net.cpp:435] relu1_2 <- conv1_2
I0609 09:33:25.775864 26840 net.cpp:396] relu1_2 -> conv1_2 (in-place)
I0609 09:33:25.775876 26840 layer.hpp:71] 
I0609 09:33:25.776626 26840 net.cpp:151] Setting up relu1_2
I0609 09:33:25.776646 26840 net.cpp:158] Top shape: 32 64 300 300 (184320000)
I0609 09:33:25.776650 26840 net.cpp:166] Memory required for data: 3225600128
I0609 09:33:25.776654 26840 layer_factory.hpp:77] Creating layer pool1
I0609 09:33:25.776667 26840 net.cpp:100] Creating Layer pool1
I0609 09:33:25.776684 26840 net.cpp:435] pool1 <- conv1_2
I0609 09:33:25.776693 26840 net.cpp:409] pool1 -> pool1
I0609 09:33:25.776707 26840 layer.hpp:71] 
I0609 09:33:25.776816 26840 net.cpp:151] Setting up pool1
I0609 09:33:25.776836 26840 net.cpp:158] Top shape: 32 64 150 150 (46080000)
I0609 09:33:25.776842 26840 net.cpp:166] Memory required for data: 3409920128
I0609 09:33:25.776854 26840 layer_factory.hpp:77] Creating layer conv2_1
I0609 09:33:25.776872 26840 net.cpp:100] Creating Layer conv2_1
I0609 09:33:25.776885 26840 net.cpp:435] conv2_1 <- pool1
I0609 09:33:25.776899 26840 net.cpp:409] conv2_1 -> conv2_1
I0609 09:33:25.776916 26840 layer.hpp:71] 
I0609 09:33:25.780287 26840 net.cpp:151] Setting up conv2_1
I0609 09:33:25.780315 26840 net.cpp:158] Top shape: 32 128 150 150 (92160000)
I0609 09:33:25.780321 26840 net.cpp:166] Memory required for data: 3778560128
I0609 09:33:25.780336 26840 layer_factory.hpp:77] Creating layer relu2_1
I0609 09:33:25.780359 26840 net.cpp:100] Creating Layer relu2_1
I0609 09:33:25.780375 26840 net.cpp:435] relu2_1 <- conv2_1
I0609 09:33:25.780385 26840 net.cpp:396] relu2_1 -> conv2_1 (in-place)
I0609 09:33:25.780400 26840 layer.hpp:71] 
I0609 09:33:25.780694 26840 net.cpp:151] Setting up relu2_1
I0609 09:33:25.780722 26840 net.cpp:158] Top shape: 32 128 150 150 (92160000)
I0609 09:33:25.780735 26840 net.cpp:166] Memory required for data: 4147200128
I0609 09:33:25.780741 26840 layer_factory.hpp:77] Creating layer conv2_2
I0609 09:33:25.780758 26840 net.cpp:100] Creating Layer conv2_2
I0609 09:33:25.780771 26840 net.cpp:435] conv2_2 <- conv2_1
I0609 09:33:25.780784 26840 net.cpp:409] conv2_2 -> conv2_2
I0609 09:33:25.780802 26840 layer.hpp:71] 
I0609 09:33:25.784137 26840 net.cpp:151] Setting up conv2_2
I0609 09:33:25.784162 26840 net.cpp:158] Top shape: 32 128 150 150 (92160000)
I0609 09:33:25.784167 26840 net.cpp:166] Memory required for data: 4515840128
I0609 09:33:25.784173 26840 layer_factory.hpp:77] Creating layer relu2_2
I0609 09:33:25.784183 26840 net.cpp:100] Creating Layer relu2_2
I0609 09:33:25.784188 26840 net.cpp:435] relu2_2 <- conv2_2
I0609 09:33:25.784198 26840 net.cpp:396] relu2_2 -> conv2_2 (in-place)
I0609 09:33:25.784216 26840 layer.hpp:71] 
I0609 09:33:25.785004 26840 net.cpp:151] Setting up relu2_2
I0609 09:33:25.785025 26840 net.cpp:158] Top shape: 32 128 150 150 (92160000)
I0609 09:33:25.785029 26840 net.cpp:166] Memory required for data: 4884480128
I0609 09:33:25.785033 26840 layer_factory.hpp:77] Creating layer pool2
I0609 09:33:25.785045 26840 net.cpp:100] Creating Layer pool2
I0609 09:33:25.785051 26840 net.cpp:435] pool2 <- conv2_2
I0609 09:33:25.785064 26840 net.cpp:409] pool2 -> pool2
I0609 09:33:25.785079 26840 layer.hpp:71] 
I0609 09:33:25.785146 26840 net.cpp:151] Setting up pool2
I0609 09:33:25.785166 26840 net.cpp:158] Top shape: 32 128 75 75 (23040000)
I0609 09:33:25.785171 26840 net.cpp:166] Memory required for data: 4976640128
I0609 09:33:25.785177 26840 layer_factory.hpp:77] Creating layer conv3_1
I0609 09:33:25.785193 26840 net.cpp:100] Creating Layer conv3_1
I0609 09:33:25.785204 26840 net.cpp:435] conv3_1 <- pool2
I0609 09:33:25.785218 26840 net.cpp:409] conv3_1 -> conv3_1
I0609 09:33:25.785228 26840 layer.hpp:71] 
I0609 09:33:25.790069 26840 net.cpp:151] Setting up conv3_1
I0609 09:33:25.790120 26840 net.cpp:158] Top shape: 32 256 75 75 (46080000)
I0609 09:33:25.790125 26840 net.cpp:166] Memory required for data: 5160960128
I0609 09:33:25.790143 26840 layer_factory.hpp:77] Creating layer relu3_1
I0609 09:33:25.790156 26840 net.cpp:100] Creating Layer relu3_1
I0609 09:33:25.790171 26840 net.cpp:435] relu3_1 <- conv3_1
I0609 09:33:25.790185 26840 net.cpp:396] relu3_1 -> conv3_1 (in-place)
I0609 09:33:25.790196 26840 layer.hpp:71] 
I0609 09:33:25.790520 26840 net.cpp:151] Setting up relu3_1
I0609 09:33:25.790544 26840 net.cpp:158] Top shape: 32 256 75 75 (46080000)
I0609 09:33:25.790549 26840 net.cpp:166] Memory required for data: 5345280128
I0609 09:33:25.790555 26840 layer_factory.hpp:77] Creating layer conv3_2
I0609 09:33:25.790575 26840 net.cpp:100] Creating Layer conv3_2
I0609 09:33:25.790585 26840 net.cpp:435] conv3_2 <- conv3_1
I0609 09:33:25.790596 26840 net.cpp:409] conv3_2 -> conv3_2
I0609 09:33:25.790614 26840 layer.hpp:71] 
I0609 09:33:25.796928 26840 net.cpp:151] Setting up conv3_2
I0609 09:33:25.796962 26840 net.cpp:158] Top shape: 32 256 75 75 (46080000)
I0609 09:33:25.796967 26840 net.cpp:166] Memory required for data: 5529600128
I0609 09:33:25.796975 26840 layer_factory.hpp:77] Creating layer relu3_2
I0609 09:33:25.796985 26840 net.cpp:100] Creating Layer relu3_2
I0609 09:33:25.796991 26840 net.cpp:435] relu3_2 <- conv3_2
I0609 09:33:25.797003 26840 net.cpp:396] relu3_2 -> conv3_2 (in-place)
I0609 09:33:25.797021 26840 layer.hpp:71] 
I0609 09:33:25.797808 26840 net.cpp:151] Setting up relu3_2
I0609 09:33:25.797830 26840 net.cpp:158] Top shape: 32 256 75 75 (46080000)
I0609 09:33:25.797834 26840 net.cpp:166] Memory required for data: 5713920128
I0609 09:33:25.797839 26840 layer_factory.hpp:77] Creating layer conv3_3
I0609 09:33:25.797883 26840 net.cpp:100] Creating Layer conv3_3
I0609 09:33:25.797900 26840 net.cpp:435] conv3_3 <- conv3_2
I0609 09:33:25.797914 26840 net.cpp:409] conv3_3 -> conv3_3
I0609 09:33:25.797932 26840 layer.hpp:71] 
I0609 09:33:25.804188 26840 net.cpp:151] Setting up conv3_3
I0609 09:33:25.804220 26840 net.cpp:158] Top shape: 32 256 75 75 (46080000)
I0609 09:33:25.804224 26840 net.cpp:166] Memory required for data: 5898240128
I0609 09:33:25.804234 26840 layer_factory.hpp:77] Creating layer relu3_3
I0609 09:33:25.804246 26840 net.cpp:100] Creating Layer relu3_3
I0609 09:33:25.804255 26840 net.cpp:435] relu3_3 <- conv3_3
I0609 09:33:25.804265 26840 net.cpp:396] relu3_3 -> conv3_3 (in-place)
I0609 09:33:25.804275 26840 layer.hpp:71] 
I0609 09:33:25.805493 26840 net.cpp:151] Setting up relu3_3
I0609 09:33:25.805515 26840 net.cpp:158] Top shape: 32 256 75 75 (46080000)
I0609 09:33:25.805519 26840 net.cpp:166] Memory required for data: 6082560128
I0609 09:33:25.805523 26840 layer_factory.hpp:77] Creating layer pool3
I0609 09:33:25.805537 26840 net.cpp:100] Creating Layer pool3
I0609 09:33:25.805553 26840 net.cpp:435] pool3 <- conv3_3
I0609 09:33:25.805567 26840 net.cpp:409] pool3 -> pool3
I0609 09:33:25.805585 26840 layer.hpp:71] 
I0609 09:33:25.805660 26840 net.cpp:151] Setting up pool3
I0609 09:33:25.805681 26840 net.cpp:158] Top shape: 32 256 38 38 (11829248)
I0609 09:33:25.805687 26840 net.cpp:166] Memory required for data: 6129877120
I0609 09:33:25.805692 26840 layer_factory.hpp:77] Creating layer conv4_1
I0609 09:33:25.805711 26840 net.cpp:100] Creating Layer conv4_1
I0609 09:33:25.805723 26840 net.cpp:435] conv4_1 <- pool3
I0609 09:33:25.805734 26840 net.cpp:409] conv4_1 -> conv4_1
I0609 09:33:25.805747 26840 layer.hpp:71] 
I0609 09:33:25.817212 26840 net.cpp:151] Setting up conv4_1
I0609 09:33:25.817260 26840 net.cpp:158] Top shape: 32 512 38 38 (23658496)
I0609 09:33:25.817265 26840 net.cpp:166] Memory required for data: 6224511104
I0609 09:33:25.817276 26840 layer_factory.hpp:77] Creating layer relu4_1
I0609 09:33:25.817288 26840 net.cpp:100] Creating Layer relu4_1
I0609 09:33:25.817296 26840 net.cpp:435] relu4_1 <- conv4_1
I0609 09:33:25.817309 26840 net.cpp:396] relu4_1 -> conv4_1 (in-place)
I0609 09:33:25.817325 26840 layer.hpp:71] 
I0609 09:33:25.817610 26840 net.cpp:151] Setting up relu4_1
I0609 09:33:25.817632 26840 net.cpp:158] Top shape: 32 512 38 38 (23658496)
I0609 09:33:25.817638 26840 net.cpp:166] Memory required for data: 6319145088
I0609 09:33:25.817644 26840 layer_factory.hpp:77] Creating layer conv4_2
I0609 09:33:25.817667 26840 net.cpp:100] Creating Layer conv4_2
I0609 09:33:25.817680 26840 net.cpp:435] conv4_2 <- conv4_1
I0609 09:33:25.817692 26840 net.cpp:409] conv4_2 -> conv4_2
I0609 09:33:25.817703 26840 layer.hpp:71] 
I0609 09:33:25.836948 26840 net.cpp:151] Setting up conv4_2
I0609 09:33:25.837007 26840 net.cpp:158] Top shape: 32 512 38 38 (23658496)
I0609 09:33:25.837011 26840 net.cpp:166] Memory required for data: 6413779072
I0609 09:33:25.837028 26840 layer_factory.hpp:77] Creating layer relu4_2
I0609 09:33:25.837045 26840 net.cpp:100] Creating Layer relu4_2
I0609 09:33:25.837054 26840 net.cpp:435] relu4_2 <- conv4_2
I0609 09:33:25.837067 26840 net.cpp:396] relu4_2 -> conv4_2 (in-place)
I0609 09:33:25.837105 26840 layer.hpp:71] 
I0609 09:33:25.837939 26840 net.cpp:151] Setting up relu4_2
I0609 09:33:25.837961 26840 net.cpp:158] Top shape: 32 512 38 38 (23658496)
I0609 09:33:25.837965 26840 net.cpp:166] Memory required for data: 6508413056
I0609 09:33:25.837970 26840 layer_factory.hpp:77] Creating layer conv4_3
I0609 09:33:25.837990 26840 net.cpp:100] Creating Layer conv4_3
I0609 09:33:25.838004 26840 net.cpp:435] conv4_3 <- conv4_2
I0609 09:33:25.838016 26840 net.cpp:409] conv4_3 -> conv4_3
I0609 09:33:25.838038 26840 layer.hpp:71] 
I0609 09:33:25.857529 26840 net.cpp:151] Setting up conv4_3
I0609 09:33:25.857581 26840 net.cpp:158] Top shape: 32 512 38 38 (23658496)
I0609 09:33:25.857585 26840 net.cpp:166] Memory required for data: 6603047040
I0609 09:33:25.857597 26840 layer_factory.hpp:77] Creating layer relu4_3
I0609 09:33:25.857614 26840 net.cpp:100] Creating Layer relu4_3
I0609 09:33:25.857620 26840 net.cpp:435] relu4_3 <- conv4_3
I0609 09:33:25.857631 26840 net.cpp:396] relu4_3 -> conv4_3 (in-place)
I0609 09:33:25.857645 26840 layer.hpp:71] 
I0609 09:33:25.857955 26840 net.cpp:151] Setting up relu4_3
I0609 09:33:25.857980 26840 net.cpp:158] Top shape: 32 512 38 38 (23658496)
I0609 09:33:25.857986 26840 net.cpp:166] Memory required for data: 6697681024
I0609 09:33:25.857993 26840 layer_factory.hpp:77] Creating layer conv4_3_relu4_3_0_split
I0609 09:33:25.858007 26840 net.cpp:100] Creating Layer conv4_3_relu4_3_0_split
I0609 09:33:25.858014 26840 net.cpp:435] conv4_3_relu4_3_0_split <- conv4_3
I0609 09:33:25.858026 26840 net.cpp:409] conv4_3_relu4_3_0_split -> conv4_3_relu4_3_0_split_0
I0609 09:33:25.858038 26840 net.cpp:409] conv4_3_relu4_3_0_split -> conv4_3_relu4_3_0_split_1
I0609 09:33:25.858050 26840 layer.hpp:71] 
I0609 09:33:25.858115 26840 net.cpp:151] Setting up conv4_3_relu4_3_0_split
I0609 09:33:25.858135 26840 net.cpp:158] Top shape: 32 512 38 38 (23658496)
I0609 09:33:25.858144 26840 net.cpp:158] Top shape: 32 512 38 38 (23658496)
I0609 09:33:25.858150 26840 net.cpp:166] Memory required for data: 6886948992
I0609 09:33:25.858155 26840 layer_factory.hpp:77] Creating layer pool4
I0609 09:33:25.858165 26840 net.cpp:100] Creating Layer pool4
I0609 09:33:25.858170 26840 net.cpp:435] pool4 <- conv4_3_relu4_3_0_split_0
I0609 09:33:25.858180 26840 net.cpp:409] pool4 -> pool4
I0609 09:33:25.858191 26840 layer.hpp:71] 
I0609 09:33:25.858253 26840 net.cpp:151] Setting up pool4
I0609 09:33:25.858271 26840 net.cpp:158] Top shape: 32 512 19 19 (5914624)
I0609 09:33:25.858278 26840 net.cpp:166] Memory required for data: 6910607488
I0609 09:33:25.858283 26840 layer_factory.hpp:77] Creating layer conv5_1
I0609 09:33:25.858304 26840 net.cpp:100] Creating Layer conv5_1
I0609 09:33:25.858309 26840 net.cpp:435] conv5_1 <- pool4
I0609 09:33:25.858320 26840 net.cpp:409] conv5_1 -> conv5_1
I0609 09:33:25.858330 26840 layer.hpp:71] 
I0609 09:33:25.878098 26840 net.cpp:151] Setting up conv5_1
I0609 09:33:25.878147 26840 net.cpp:158] Top shape: 32 512 19 19 (5914624)
I0609 09:33:25.878152 26840 net.cpp:166] Memory required for data: 6934265984
I0609 09:33:25.878163 26840 layer_factory.hpp:77] Creating layer relu5_1
I0609 09:33:25.878175 26840 net.cpp:100] Creating Layer relu5_1
I0609 09:33:25.878183 26840 net.cpp:435] relu5_1 <- conv5_1
I0609 09:33:25.878198 26840 net.cpp:396] relu5_1 -> conv5_1 (in-place)
I0609 09:33:25.878211 26840 layer.hpp:71] 
I0609 09:33:25.879024 26840 net.cpp:151] Setting up relu5_1
I0609 09:33:25.879045 26840 net.cpp:158] Top shape: 32 512 19 19 (5914624)
I0609 09:33:25.879050 26840 net.cpp:166] Memory required for data: 6957924480
I0609 09:33:25.879053 26840 layer_factory.hpp:77] Creating layer conv5_2
I0609 09:33:25.879071 26840 net.cpp:100] Creating Layer conv5_2
I0609 09:33:25.879086 26840 net.cpp:435] conv5_2 <- conv5_1
I0609 09:33:25.879101 26840 net.cpp:409] conv5_2 -> conv5_2
I0609 09:33:25.879117 26840 layer.hpp:71] 
I0609 09:33:25.898242 26840 net.cpp:151] Setting up conv5_2
I0609 09:33:25.898293 26840 net.cpp:158] Top shape: 32 512 19 19 (5914624)
I0609 09:33:25.898321 26840 net.cpp:166] Memory required for data: 6981582976
I0609 09:33:25.898336 26840 layer_factory.hpp:77] Creating layer relu5_2
I0609 09:33:25.898351 26840 net.cpp:100] Creating Layer relu5_2
I0609 09:33:25.898358 26840 net.cpp:435] relu5_2 <- conv5_2
I0609 09:33:25.898385 26840 net.cpp:396] relu5_2 -> conv5_2 (in-place)
I0609 09:33:25.898397 26840 layer.hpp:71] 
I0609 09:33:25.899206 26840 net.cpp:151] Setting up relu5_2
I0609 09:33:25.899227 26840 net.cpp:158] Top shape: 32 512 19 19 (5914624)
I0609 09:33:25.899232 26840 net.cpp:166] Memory required for data: 7005241472
I0609 09:33:25.899236 26840 layer_factory.hpp:77] Creating layer conv5_3
I0609 09:33:25.899255 26840 net.cpp:100] Creating Layer conv5_3
I0609 09:33:25.899267 26840 net.cpp:435] conv5_3 <- conv5_2
I0609 09:33:25.899283 26840 net.cpp:409] conv5_3 -> conv5_3
I0609 09:33:25.899300 26840 layer.hpp:71] 
I0609 09:33:25.919097 26840 net.cpp:151] Setting up conv5_3
I0609 09:33:25.919152 26840 net.cpp:158] Top shape: 32 512 19 19 (5914624)
I0609 09:33:25.919159 26840 net.cpp:166] Memory required for data: 7028899968
I0609 09:33:25.919170 26840 layer_factory.hpp:77] Creating layer relu5_3
I0609 09:33:25.919196 26840 net.cpp:100] Creating Layer relu5_3
I0609 09:33:25.919205 26840 net.cpp:435] relu5_3 <- conv5_3
I0609 09:33:25.919219 26840 net.cpp:396] relu5_3 -> conv5_3 (in-place)
I0609 09:33:25.919245 26840 layer.hpp:71] 
I0609 09:33:25.919559 26840 net.cpp:151] Setting up relu5_3
I0609 09:33:25.919581 26840 net.cpp:158] Top shape: 32 512 19 19 (5914624)
I0609 09:33:25.919589 26840 net.cpp:166] Memory required for data: 7052558464
I0609 09:33:25.919595 26840 layer_factory.hpp:77] Creating layer pool5
I0609 09:33:25.919606 26840 net.cpp:100] Creating Layer pool5
I0609 09:33:25.919612 26840 net.cpp:435] pool5 <- conv5_3
I0609 09:33:25.919631 26840 net.cpp:409] pool5 -> pool5
I0609 09:33:25.919643 26840 layer.hpp:71] 
I0609 09:33:25.919718 26840 net.cpp:151] Setting up pool5
I0609 09:33:25.919741 26840 net.cpp:158] Top shape: 32 512 19 19 (5914624)
I0609 09:33:25.919749 26840 net.cpp:166] Memory required for data: 7076216960
I0609 09:33:25.919754 26840 layer_factory.hpp:77] Creating layer fc6
I0609 09:33:25.919771 26840 net.cpp:100] Creating Layer fc6
I0609 09:33:25.919785 26840 net.cpp:435] fc6 <- pool5
I0609 09:33:25.919797 26840 net.cpp:409] fc6 -> fc6
I0609 09:33:25.919808 26840 layer.hpp:71] 
I0609 09:33:25.956979 26840 net.cpp:151] Setting up fc6
I0609 09:33:25.957031 26840 net.cpp:158] Top shape: 32 1024 19 19 (11829248)
I0609 09:33:25.957037 26840 net.cpp:166] Memory required for data: 7123533952
I0609 09:33:25.957048 26840 layer_factory.hpp:77] Creating layer relu6
I0609 09:33:25.957060 26840 net.cpp:100] Creating Layer relu6
I0609 09:33:25.957065 26840 net.cpp:435] relu6 <- fc6
I0609 09:33:25.957074 26840 net.cpp:396] relu6 -> fc6 (in-place)
I0609 09:33:25.957087 26840 layer.hpp:71] 
I0609 09:33:25.958106 26840 net.cpp:151] Setting up relu6
I0609 09:33:25.958128 26840 net.cpp:158] Top shape: 32 1024 19 19 (11829248)
I0609 09:33:25.958133 26840 net.cpp:166] Memory required for data: 7170850944
I0609 09:33:25.958137 26840 layer_factory.hpp:77] Creating layer fc7
I0609 09:33:25.958158 26840 net.cpp:100] Creating Layer fc7
I0609 09:33:25.958171 26840 net.cpp:435] fc7 <- fc6
I0609 09:33:25.958187 26840 net.cpp:409] fc7 -> fc7
I0609 09:33:25.958205 26840 layer.hpp:71] 
I0609 09:33:25.967949 26840 net.cpp:151] Setting up fc7
I0609 09:33:25.968000 26840 net.cpp:158] Top shape: 32 1024 19 19 (11829248)
I0609 09:33:25.968005 26840 net.cpp:166] Memory required for data: 7218167936
I0609 09:33:25.968015 26840 layer_factory.hpp:77] Creating layer relu7
I0609 09:33:25.968029 26840 net.cpp:100] Creating Layer relu7
I0609 09:33:25.968037 26840 net.cpp:435] relu7 <- fc7
I0609 09:33:25.968050 26840 net.cpp:396] relu7 -> fc7 (in-place)
I0609 09:33:25.968072 26840 layer.hpp:71] 
I0609 09:33:25.968345 26840 net.cpp:151] Setting up relu7
I0609 09:33:25.968369 26840 net.cpp:158] Top shape: 32 1024 19 19 (11829248)
I0609 09:33:25.968376 26840 net.cpp:166] Memory required for data: 7265484928
I0609 09:33:25.968408 26840 layer_factory.hpp:77] Creating layer fc7_relu7_0_split
I0609 09:33:25.968420 26840 net.cpp:100] Creating Layer fc7_relu7_0_split
I0609 09:33:25.968425 26840 net.cpp:435] fc7_relu7_0_split <- fc7
I0609 09:33:25.968439 26840 net.cpp:409] fc7_relu7_0_split -> fc7_relu7_0_split_0
I0609 09:33:25.968456 26840 net.cpp:409] fc7_relu7_0_split -> fc7_relu7_0_split_1
I0609 09:33:25.968477 26840 net.cpp:409] fc7_relu7_0_split -> fc7_relu7_0_split_2
I0609 09:33:25.968490 26840 net.cpp:409] fc7_relu7_0_split -> fc7_relu7_0_split_3
I0609 09:33:25.968500 26840 layer.hpp:71] 
I0609 09:33:25.968612 26840 net.cpp:151] Setting up fc7_relu7_0_split
I0609 09:33:25.968631 26840 net.cpp:158] Top shape: 32 1024 19 19 (11829248)
I0609 09:33:25.968641 26840 net.cpp:158] Top shape: 32 1024 19 19 (11829248)
I0609 09:33:25.968647 26840 net.cpp:158] Top shape: 32 1024 19 19 (11829248)
I0609 09:33:25.968654 26840 net.cpp:158] Top shape: 32 1024 19 19 (11829248)
I0609 09:33:25.968658 26840 net.cpp:166] Memory required for data: 7454752896
I0609 09:33:25.968663 26840 layer_factory.hpp:77] Creating layer conv6_1
I0609 09:33:25.968684 26840 net.cpp:100] Creating Layer conv6_1
I0609 09:33:25.968698 26840 net.cpp:435] conv6_1 <- fc7_relu7_0_split_0
I0609 09:33:25.968711 26840 net.cpp:409] conv6_1 -> conv6_1
I0609 09:33:25.968724 26840 layer.hpp:71] 
I0609 09:33:25.973109 26840 net.cpp:151] Setting up conv6_1
I0609 09:33:25.973139 26840 net.cpp:158] Top shape: 32 256 19 19 (2957312)
I0609 09:33:25.973142 26840 net.cpp:166] Memory required for data: 7466582144
I0609 09:33:25.973151 26840 layer_factory.hpp:77] Creating layer conv6_1_relu
I0609 09:33:25.973165 26840 net.cpp:100] Creating Layer conv6_1_relu
I0609 09:33:25.973175 26840 net.cpp:435] conv6_1_relu <- conv6_1
I0609 09:33:25.973183 26840 net.cpp:396] conv6_1_relu -> conv6_1 (in-place)
I0609 09:33:25.973193 26840 layer.hpp:71] 
I0609 09:33:25.973978 26840 net.cpp:151] Setting up conv6_1_relu
I0609 09:33:25.973999 26840 net.cpp:158] Top shape: 32 256 19 19 (2957312)
I0609 09:33:25.974002 26840 net.cpp:166] Memory required for data: 7478411392
I0609 09:33:25.974006 26840 layer_factory.hpp:77] Creating layer conv6_2
I0609 09:33:25.974023 26840 net.cpp:100] Creating Layer conv6_2
I0609 09:33:25.974037 26840 net.cpp:435] conv6_2 <- conv6_1
I0609 09:33:25.974051 26840 net.cpp:409] conv6_2 -> conv6_2
I0609 09:33:25.974069 26840 layer.hpp:71] 
I0609 09:33:25.984758 26840 net.cpp:151] Setting up conv6_2
I0609 09:33:25.984808 26840 net.cpp:158] Top shape: 32 512 10 10 (1638400)
I0609 09:33:25.984812 26840 net.cpp:166] Memory required for data: 7484964992
I0609 09:33:25.984834 26840 layer_factory.hpp:77] Creating layer conv6_2_relu
I0609 09:33:25.984850 26840 net.cpp:100] Creating Layer conv6_2_relu
I0609 09:33:25.984859 26840 net.cpp:435] conv6_2_relu <- conv6_2
I0609 09:33:25.984874 26840 net.cpp:396] conv6_2_relu -> conv6_2 (in-place)
I0609 09:33:25.984885 26840 layer.hpp:71] 
I0609 09:33:25.985723 26840 net.cpp:151] Setting up conv6_2_relu
I0609 09:33:25.985744 26840 net.cpp:158] Top shape: 32 512 10 10 (1638400)
I0609 09:33:25.985749 26840 net.cpp:166] Memory required for data: 7491518592
I0609 09:33:25.985754 26840 layer_factory.hpp:77] Creating layer conv6_2_conv6_2_relu_0_split
I0609 09:33:25.985764 26840 net.cpp:100] Creating Layer conv6_2_conv6_2_relu_0_split
I0609 09:33:25.985774 26840 net.cpp:435] conv6_2_conv6_2_relu_0_split <- conv6_2
I0609 09:33:25.985786 26840 net.cpp:409] conv6_2_conv6_2_relu_0_split -> conv6_2_conv6_2_relu_0_split_0
I0609 09:33:25.985800 26840 net.cpp:409] conv6_2_conv6_2_relu_0_split -> conv6_2_conv6_2_relu_0_split_1
I0609 09:33:25.985824 26840 net.cpp:409] conv6_2_conv6_2_relu_0_split -> conv6_2_conv6_2_relu_0_split_2
I0609 09:33:25.985836 26840 net.cpp:409] conv6_2_conv6_2_relu_0_split -> conv6_2_conv6_2_relu_0_split_3
I0609 09:33:25.985846 26840 layer.hpp:71] 
I0609 09:33:25.985977 26840 net.cpp:151] Setting up conv6_2_conv6_2_relu_0_split
I0609 09:33:25.985998 26840 net.cpp:158] Top shape: 32 512 10 10 (1638400)
I0609 09:33:25.986040 26840 net.cpp:158] Top shape: 32 512 10 10 (1638400)
I0609 09:33:25.986049 26840 net.cpp:158] Top shape: 32 512 10 10 (1638400)
I0609 09:33:25.986055 26840 net.cpp:158] Top shape: 32 512 10 10 (1638400)
I0609 09:33:25.986062 26840 net.cpp:166] Memory required for data: 7517732992
I0609 09:33:25.986068 26840 layer_factory.hpp:77] Creating layer conv7_1
I0609 09:33:25.986086 26840 net.cpp:100] Creating Layer conv7_1
I0609 09:33:25.986100 26840 net.cpp:435] conv7_1 <- conv6_2_conv6_2_relu_0_split_0
I0609 09:33:25.986115 26840 net.cpp:409] conv7_1 -> conv7_1
I0609 09:33:25.986129 26840 layer.hpp:71] 
I0609 09:33:25.988677 26840 net.cpp:151] Setting up conv7_1
I0609 09:33:25.988703 26840 net.cpp:158] Top shape: 32 128 10 10 (409600)
I0609 09:33:25.988708 26840 net.cpp:166] Memory required for data: 7519371392
I0609 09:33:25.988715 26840 layer_factory.hpp:77] Creating layer conv7_1_relu
I0609 09:33:25.988724 26840 net.cpp:100] Creating Layer conv7_1_relu
I0609 09:33:25.988739 26840 net.cpp:435] conv7_1_relu <- conv7_1
I0609 09:33:25.988750 26840 net.cpp:396] conv7_1_relu -> conv7_1 (in-place)
I0609 09:33:25.988760 26840 layer.hpp:71] 
I0609 09:33:25.989059 26840 net.cpp:151] Setting up conv7_1_relu
I0609 09:33:25.989081 26840 net.cpp:158] Top shape: 32 128 10 10 (409600)
I0609 09:33:25.989089 26840 net.cpp:166] Memory required for data: 7521009792
I0609 09:33:25.989094 26840 layer_factory.hpp:77] Creating layer conv7_2
I0609 09:33:25.989109 26840 net.cpp:100] Creating Layer conv7_2
I0609 09:33:25.989123 26840 net.cpp:435] conv7_2 <- conv7_1
I0609 09:33:25.989140 26840 net.cpp:409] conv7_2 -> conv7_2
I0609 09:33:25.989161 26840 layer.hpp:71] 
I0609 09:33:25.993412 26840 net.cpp:151] Setting up conv7_2
I0609 09:33:25.993434 26840 net.cpp:158] Top shape: 32 256 5 5 (204800)
I0609 09:33:25.993439 26840 net.cpp:166] Memory required for data: 7521828992
I0609 09:33:25.993448 26840 layer_factory.hpp:77] Creating layer conv7_2_relu
I0609 09:33:25.993455 26840 net.cpp:100] Creating Layer conv7_2_relu
I0609 09:33:25.993463 26840 net.cpp:435] conv7_2_relu <- conv7_2
I0609 09:33:25.993474 26840 net.cpp:396] conv7_2_relu -> conv7_2 (in-place)
I0609 09:33:25.993484 26840 layer.hpp:71] 
I0609 09:33:25.994305 26840 net.cpp:151] Setting up conv7_2_relu
I0609 09:33:25.994326 26840 net.cpp:158] Top shape: 32 256 5 5 (204800)
I0609 09:33:25.994331 26840 net.cpp:166] Memory required for data: 7522648192
I0609 09:33:25.994335 26840 layer_factory.hpp:77] Creating layer conv7_2_conv7_2_relu_0_split
I0609 09:33:25.994344 26840 net.cpp:100] Creating Layer conv7_2_conv7_2_relu_0_split
I0609 09:33:25.994350 26840 net.cpp:435] conv7_2_conv7_2_relu_0_split <- conv7_2
I0609 09:33:25.994364 26840 net.cpp:409] conv7_2_conv7_2_relu_0_split -> conv7_2_conv7_2_relu_0_split_0
I0609 09:33:25.994387 26840 net.cpp:409] conv7_2_conv7_2_relu_0_split -> conv7_2_conv7_2_relu_0_split_1
I0609 09:33:25.994400 26840 net.cpp:409] conv7_2_conv7_2_relu_0_split -> conv7_2_conv7_2_relu_0_split_2
I0609 09:33:25.994411 26840 net.cpp:409] conv7_2_conv7_2_relu_0_split -> conv7_2_conv7_2_relu_0_split_3
I0609 09:33:25.994422 26840 layer.hpp:71] 
I0609 09:33:25.994554 26840 net.cpp:151] Setting up conv7_2_conv7_2_relu_0_split
I0609 09:33:25.994575 26840 net.cpp:158] Top shape: 32 256 5 5 (204800)
I0609 09:33:25.994581 26840 net.cpp:158] Top shape: 32 256 5 5 (204800)
I0609 09:33:25.994590 26840 net.cpp:158] Top shape: 32 256 5 5 (204800)
I0609 09:33:25.994596 26840 net.cpp:158] Top shape: 32 256 5 5 (204800)
I0609 09:33:25.994601 26840 net.cpp:166] Memory required for data: 7525924992
I0609 09:33:25.994606 26840 layer_factory.hpp:77] Creating layer conv8_1
I0609 09:33:25.994624 26840 net.cpp:100] Creating Layer conv8_1
I0609 09:33:25.994638 26840 net.cpp:435] conv8_1 <- conv7_2_conv7_2_relu_0_split_0
I0609 09:33:25.994652 26840 net.cpp:409] conv8_1 -> conv8_1
I0609 09:33:25.994665 26840 layer.hpp:71] 
I0609 09:33:25.997558 26840 net.cpp:151] Setting up conv8_1
I0609 09:33:25.997581 26840 net.cpp:158] Top shape: 32 128 5 5 (102400)
I0609 09:33:25.997586 26840 net.cpp:166] Memory required for data: 7526334592
I0609 09:33:25.997617 26840 layer_factory.hpp:77] Creating layer conv8_1_relu
I0609 09:33:25.997633 26840 net.cpp:100] Creating Layer conv8_1_relu
I0609 09:33:25.997648 26840 net.cpp:435] conv8_1_relu <- conv8_1
I0609 09:33:25.997658 26840 net.cpp:396] conv8_1_relu -> conv8_1 (in-place)
I0609 09:33:25.997668 26840 layer.hpp:71] 
I0609 09:33:25.997994 26840 net.cpp:151] Setting up conv8_1_relu
I0609 09:33:25.998018 26840 net.cpp:158] Top shape: 32 128 5 5 (102400)
I0609 09:33:25.998024 26840 net.cpp:166] Memory required for data: 7526744192
I0609 09:33:25.998030 26840 layer_factory.hpp:77] Creating layer conv8_2
I0609 09:33:25.998047 26840 net.cpp:100] Creating Layer conv8_2
I0609 09:33:25.998056 26840 net.cpp:435] conv8_2 <- conv8_1
I0609 09:33:25.998070 26840 net.cpp:409] conv8_2 -> conv8_2
I0609 09:33:25.998085 26840 layer.hpp:71] 
I0609 09:33:26.002830 26840 net.cpp:151] Setting up conv8_2
I0609 09:33:26.002856 26840 net.cpp:158] Top shape: 32 256 3 3 (73728)
I0609 09:33:26.002861 26840 net.cpp:166] Memory required for data: 7527039104
I0609 09:33:26.002867 26840 layer_factory.hpp:77] Creating layer conv8_2_relu
I0609 09:33:26.002876 26840 net.cpp:100] Creating Layer conv8_2_relu
I0609 09:33:26.002882 26840 net.cpp:435] conv8_2_relu <- conv8_2
I0609 09:33:26.002892 26840 net.cpp:396] conv8_2_relu -> conv8_2 (in-place)
I0609 09:33:26.002904 26840 layer.hpp:71] 
I0609 09:33:26.003679 26840 net.cpp:151] Setting up conv8_2_relu
I0609 09:33:26.003700 26840 net.cpp:158] Top shape: 32 256 3 3 (73728)
I0609 09:33:26.003705 26840 net.cpp:166] Memory required for data: 7527334016
I0609 09:33:26.003708 26840 layer_factory.hpp:77] Creating layer conv8_2_conv8_2_relu_0_split
I0609 09:33:26.003718 26840 net.cpp:100] Creating Layer conv8_2_conv8_2_relu_0_split
I0609 09:33:26.003724 26840 net.cpp:435] conv8_2_conv8_2_relu_0_split <- conv8_2
I0609 09:33:26.003739 26840 net.cpp:409] conv8_2_conv8_2_relu_0_split -> conv8_2_conv8_2_relu_0_split_0
I0609 09:33:26.003753 26840 net.cpp:409] conv8_2_conv8_2_relu_0_split -> conv8_2_conv8_2_relu_0_split_1
I0609 09:33:26.003777 26840 net.cpp:409] conv8_2_conv8_2_relu_0_split -> conv8_2_conv8_2_relu_0_split_2
I0609 09:33:26.003788 26840 net.cpp:409] conv8_2_conv8_2_relu_0_split -> conv8_2_conv8_2_relu_0_split_3
I0609 09:33:26.003805 26840 layer.hpp:71] 
I0609 09:33:26.003919 26840 net.cpp:151] Setting up conv8_2_conv8_2_relu_0_split
I0609 09:33:26.003938 26840 net.cpp:158] Top shape: 32 256 3 3 (73728)
I0609 09:33:26.003947 26840 net.cpp:158] Top shape: 32 256 3 3 (73728)
I0609 09:33:26.003952 26840 net.cpp:158] Top shape: 32 256 3 3 (73728)
I0609 09:33:26.003958 26840 net.cpp:158] Top shape: 32 256 3 3 (73728)
I0609 09:33:26.003964 26840 net.cpp:166] Memory required for data: 7528513664
I0609 09:33:26.003969 26840 layer_factory.hpp:77] Creating layer conv9_1
I0609 09:33:26.003985 26840 net.cpp:100] Creating Layer conv9_1
I0609 09:33:26.003999 26840 net.cpp:435] conv9_1 <- conv8_2_conv8_2_relu_0_split_0
I0609 09:33:26.004019 26840 net.cpp:409] conv9_1 -> conv9_1
I0609 09:33:26.004039 26840 layer.hpp:71] 
I0609 09:33:26.006479 26840 net.cpp:151] Setting up conv9_1
I0609 09:33:26.006500 26840 net.cpp:158] Top shape: 32 128 3 3 (36864)
I0609 09:33:26.006505 26840 net.cpp:166] Memory required for data: 7528661120
I0609 09:33:26.006513 26840 layer_factory.hpp:77] Creating layer conv9_1_relu
I0609 09:33:26.006523 26840 net.cpp:100] Creating Layer conv9_1_relu
I0609 09:33:26.006531 26840 net.cpp:435] conv9_1_relu <- conv9_1
I0609 09:33:26.006551 26840 net.cpp:396] conv9_1_relu -> conv9_1 (in-place)
I0609 09:33:26.006562 26840 layer.hpp:71] 
I0609 09:33:26.007364 26840 net.cpp:151] Setting up conv9_1_relu
I0609 09:33:26.007385 26840 net.cpp:158] Top shape: 32 128 3 3 (36864)
I0609 09:33:26.007390 26840 net.cpp:166] Memory required for data: 7528808576
I0609 09:33:26.007393 26840 layer_factory.hpp:77] Creating layer conv9_2
I0609 09:33:26.007411 26840 net.cpp:100] Creating Layer conv9_2
I0609 09:33:26.007426 26840 net.cpp:435] conv9_2 <- conv9_1
I0609 09:33:26.007468 26840 net.cpp:409] conv9_2 -> conv9_2
I0609 09:33:26.007483 26840 layer.hpp:71] 
I0609 09:33:26.011773 26840 net.cpp:151] Setting up conv9_2
I0609 09:33:26.011797 26840 net.cpp:158] Top shape: 32 256 1 1 (8192)
I0609 09:33:26.011802 26840 net.cpp:166] Memory required for data: 7528841344
I0609 09:33:26.011811 26840 layer_factory.hpp:77] Creating layer conv9_2_relu
I0609 09:33:26.011817 26840 net.cpp:100] Creating Layer conv9_2_relu
I0609 09:33:26.011823 26840 net.cpp:435] conv9_2_relu <- conv9_2
I0609 09:33:26.011835 26840 net.cpp:396] conv9_2_relu -> conv9_2 (in-place)
I0609 09:33:26.011854 26840 layer.hpp:71] 
I0609 09:33:26.012140 26840 net.cpp:151] Setting up conv9_2_relu
I0609 09:33:26.012163 26840 net.cpp:158] Top shape: 32 256 1 1 (8192)
I0609 09:33:26.012171 26840 net.cpp:166] Memory required for data: 7528874112
I0609 09:33:26.012177 26840 layer_factory.hpp:77] Creating layer conv9_2_conv9_2_relu_0_split
I0609 09:33:26.012187 26840 net.cpp:100] Creating Layer conv9_2_conv9_2_relu_0_split
I0609 09:33:26.012198 26840 net.cpp:435] conv9_2_conv9_2_relu_0_split <- conv9_2
I0609 09:33:26.012212 26840 net.cpp:409] conv9_2_conv9_2_relu_0_split -> conv9_2_conv9_2_relu_0_split_0
I0609 09:33:26.012229 26840 net.cpp:409] conv9_2_conv9_2_relu_0_split -> conv9_2_conv9_2_relu_0_split_1
I0609 09:33:26.012240 26840 net.cpp:409] conv9_2_conv9_2_relu_0_split -> conv9_2_conv9_2_relu_0_split_2
I0609 09:33:26.012251 26840 layer.hpp:71] 
I0609 09:33:26.012354 26840 net.cpp:151] Setting up conv9_2_conv9_2_relu_0_split
I0609 09:33:26.012375 26840 net.cpp:158] Top shape: 32 256 1 1 (8192)
I0609 09:33:26.012383 26840 net.cpp:158] Top shape: 32 256 1 1 (8192)
I0609 09:33:26.012389 26840 net.cpp:158] Top shape: 32 256 1 1 (8192)
I0609 09:33:26.012398 26840 net.cpp:166] Memory required for data: 7528972416
I0609 09:33:26.012403 26840 layer_factory.hpp:77] Creating layer conv4_3_norm
I0609 09:33:26.012414 26840 net.cpp:100] Creating Layer conv4_3_norm
I0609 09:33:26.012423 26840 net.cpp:435] conv4_3_norm <- conv4_3_relu4_3_0_split_1
I0609 09:33:26.012437 26840 net.cpp:409] conv4_3_norm -> conv4_3_norm
I0609 09:33:26.012452 26840 layer.hpp:71] 
I0609 09:33:26.012748 26840 net.cpp:151] Setting up conv4_3_norm
I0609 09:33:26.012768 26840 net.cpp:158] Top shape: 32 512 38 38 (23658496)
I0609 09:33:26.012775 26840 net.cpp:166] Memory required for data: 7623606400
I0609 09:33:26.012784 26840 layer_factory.hpp:77] Creating layer conv4_3_norm_conv4_3_norm_0_split
I0609 09:33:26.012792 26840 net.cpp:100] Creating Layer conv4_3_norm_conv4_3_norm_0_split
I0609 09:33:26.012801 26840 net.cpp:435] conv4_3_norm_conv4_3_norm_0_split <- conv4_3_norm
I0609 09:33:26.012815 26840 net.cpp:409] conv4_3_norm_conv4_3_norm_0_split -> conv4_3_norm_conv4_3_norm_0_split_0
I0609 09:33:26.012830 26840 net.cpp:409] conv4_3_norm_conv4_3_norm_0_split -> conv4_3_norm_conv4_3_norm_0_split_1
I0609 09:33:26.012838 26840 net.cpp:409] conv4_3_norm_conv4_3_norm_0_split -> conv4_3_norm_conv4_3_norm_0_split_2
I0609 09:33:26.012847 26840 layer.hpp:71] 
I0609 09:33:26.012936 26840 net.cpp:151] Setting up conv4_3_norm_conv4_3_norm_0_split
I0609 09:33:26.012954 26840 net.cpp:158] Top shape: 32 512 38 38 (23658496)
I0609 09:33:26.012962 26840 net.cpp:158] Top shape: 32 512 38 38 (23658496)
I0609 09:33:26.012969 26840 net.cpp:158] Top shape: 32 512 38 38 (23658496)
I0609 09:33:26.012974 26840 net.cpp:166] Memory required for data: 7907508352
I0609 09:33:26.012979 26840 layer_factory.hpp:77] Creating layer conv4_3_norm_mbox_loc
I0609 09:33:26.012995 26840 net.cpp:100] Creating Layer conv4_3_norm_mbox_loc
I0609 09:33:26.013008 26840 net.cpp:435] conv4_3_norm_mbox_loc <- conv4_3_norm_conv4_3_norm_0_split_0
I0609 09:33:26.013020 26840 net.cpp:409] conv4_3_norm_mbox_loc -> conv4_3_norm_mbox_loc
I0609 09:33:26.013034 26840 layer.hpp:71] 
I0609 09:33:26.016368 26840 net.cpp:151] Setting up conv4_3_norm_mbox_loc
I0609 09:33:26.016397 26840 net.cpp:158] Top shape: 32 16 38 38 (739328)
I0609 09:33:26.016405 26840 net.cpp:166] Memory required for data: 7910465664
I0609 09:33:26.016417 26840 layer_factory.hpp:77] Creating layer conv4_3_norm_mbox_loc_perm
I0609 09:33:26.016451 26840 net.cpp:100] Creating Layer conv4_3_norm_mbox_loc_perm
I0609 09:33:26.016461 26840 net.cpp:435] conv4_3_norm_mbox_loc_perm <- conv4_3_norm_mbox_loc
I0609 09:33:26.016474 26840 net.cpp:409] conv4_3_norm_mbox_loc_perm -> conv4_3_norm_mbox_loc_perm
I0609 09:33:26.016490 26840 layer.hpp:71] 
I0609 09:33:26.016662 26840 net.cpp:151] Setting up conv4_3_norm_mbox_loc_perm
I0609 09:33:26.016681 26840 net.cpp:158] Top shape: 32 38 38 16 (739328)
I0609 09:33:26.016688 26840 net.cpp:166] Memory required for data: 7913422976
I0609 09:33:26.016695 26840 layer_factory.hpp:77] Creating layer conv4_3_norm_mbox_loc_flat
I0609 09:33:26.016707 26840 net.cpp:100] Creating Layer conv4_3_norm_mbox_loc_flat
I0609 09:33:26.016719 26840 net.cpp:435] conv4_3_norm_mbox_loc_flat <- conv4_3_norm_mbox_loc_perm
I0609 09:33:26.016731 26840 net.cpp:409] conv4_3_norm_mbox_loc_flat -> conv4_3_norm_mbox_loc_flat
I0609 09:33:26.016762 26840 layer.hpp:71] 
I0609 09:33:26.016808 26840 net.cpp:151] Setting up conv4_3_norm_mbox_loc_flat
I0609 09:33:26.016829 26840 net.cpp:158] Top shape: 32 23104 (739328)
I0609 09:33:26.016835 26840 net.cpp:166] Memory required for data: 7916380288
I0609 09:33:26.016840 26840 layer_factory.hpp:77] Creating layer conv4_3_norm_mbox_conf
I0609 09:33:26.016870 26840 net.cpp:100] Creating Layer conv4_3_norm_mbox_conf
I0609 09:33:26.016885 26840 net.cpp:435] conv4_3_norm_mbox_conf <- conv4_3_norm_conv4_3_norm_0_split_1
I0609 09:33:26.016896 26840 net.cpp:409] conv4_3_norm_mbox_conf -> conv4_3_norm_mbox_conf
I0609 09:33:26.016909 26840 layer.hpp:71] 
I0609 09:33:26.019731 26840 net.cpp:151] Setting up conv4_3_norm_mbox_conf
I0609 09:33:26.019760 26840 net.cpp:158] Top shape: 32 8 38 38 (369664)
I0609 09:33:26.019767 26840 net.cpp:166] Memory required for data: 7917858944
I0609 09:33:26.019778 26840 layer_factory.hpp:77] Creating layer conv4_3_norm_mbox_conf_perm
I0609 09:33:26.019794 26840 net.cpp:100] Creating Layer conv4_3_norm_mbox_conf_perm
I0609 09:33:26.019809 26840 net.cpp:435] conv4_3_norm_mbox_conf_perm <- conv4_3_norm_mbox_conf
I0609 09:33:26.019821 26840 net.cpp:409] conv4_3_norm_mbox_conf_perm -> conv4_3_norm_mbox_conf_perm
I0609 09:33:26.019851 26840 layer.hpp:71] 
I0609 09:33:26.020041 26840 net.cpp:151] Setting up conv4_3_norm_mbox_conf_perm
I0609 09:33:26.020061 26840 net.cpp:158] Top shape: 32 38 38 8 (369664)
I0609 09:33:26.020068 26840 net.cpp:166] Memory required for data: 7919337600
I0609 09:33:26.020073 26840 layer_factory.hpp:77] Creating layer conv4_3_norm_mbox_conf_flat
I0609 09:33:26.020087 26840 net.cpp:100] Creating Layer conv4_3_norm_mbox_conf_flat
I0609 09:33:26.020099 26840 net.cpp:435] conv4_3_norm_mbox_conf_flat <- conv4_3_norm_mbox_conf_perm
I0609 09:33:26.020110 26840 net.cpp:409] conv4_3_norm_mbox_conf_flat -> conv4_3_norm_mbox_conf_flat
I0609 09:33:26.020122 26840 layer.hpp:71] 
I0609 09:33:26.020167 26840 net.cpp:151] Setting up conv4_3_norm_mbox_conf_flat
I0609 09:33:26.020184 26840 net.cpp:158] Top shape: 32 11552 (369664)
I0609 09:33:26.020191 26840 net.cpp:166] Memory required for data: 7920816256
I0609 09:33:26.020196 26840 layer_factory.hpp:77] Creating layer conv4_3_norm_mbox_priorbox
I0609 09:33:26.020210 26840 net.cpp:100] Creating Layer conv4_3_norm_mbox_priorbox
I0609 09:33:26.020222 26840 net.cpp:435] conv4_3_norm_mbox_priorbox <- conv4_3_norm_conv4_3_norm_0_split_2
I0609 09:33:26.020232 26840 net.cpp:435] conv4_3_norm_mbox_priorbox <- data_data_0_split_1
I0609 09:33:26.020242 26840 net.cpp:409] conv4_3_norm_mbox_priorbox -> conv4_3_norm_mbox_priorbox
I0609 09:33:26.020258 26840 layer.hpp:71] 
I0609 09:33:26.020308 26840 net.cpp:151] Setting up conv4_3_norm_mbox_priorbox
I0609 09:33:26.020326 26840 net.cpp:158] Top shape: 1 2 23104 (46208)
I0609 09:33:26.020332 26840 net.cpp:166] Memory required for data: 7921001088
I0609 09:33:26.020337 26840 layer_factory.hpp:77] Creating layer fc7_mbox_loc
I0609 09:33:26.020354 26840 net.cpp:100] Creating Layer fc7_mbox_loc
I0609 09:33:26.020368 26840 net.cpp:435] fc7_mbox_loc <- fc7_relu7_0_split_1
I0609 09:33:26.020401 26840 net.cpp:409] fc7_mbox_loc -> fc7_mbox_loc
I0609 09:33:26.020421 26840 layer.hpp:71] 
I0609 09:33:26.025236 26840 net.cpp:151] Setting up fc7_mbox_loc
I0609 09:33:26.025269 26840 net.cpp:158] Top shape: 32 24 19 19 (277248)
I0609 09:33:26.025275 26840 net.cpp:166] Memory required for data: 7922110080
I0609 09:33:26.025287 26840 layer_factory.hpp:77] Creating layer fc7_mbox_loc_perm
I0609 09:33:26.025298 26840 net.cpp:100] Creating Layer fc7_mbox_loc_perm
I0609 09:33:26.025310 26840 net.cpp:435] fc7_mbox_loc_perm <- fc7_mbox_loc
I0609 09:33:26.025321 26840 net.cpp:409] fc7_mbox_loc_perm -> fc7_mbox_loc_perm
I0609 09:33:26.025333 26840 layer.hpp:71] 
I0609 09:33:26.025548 26840 net.cpp:151] Setting up fc7_mbox_loc_perm
I0609 09:33:26.025573 26840 net.cpp:158] Top shape: 32 19 19 24 (277248)
I0609 09:33:26.025579 26840 net.cpp:166] Memory required for data: 7923219072
I0609 09:33:26.025585 26840 layer_factory.hpp:77] Creating layer fc7_mbox_loc_flat
I0609 09:33:26.025595 26840 net.cpp:100] Creating Layer fc7_mbox_loc_flat
I0609 09:33:26.025602 26840 net.cpp:435] fc7_mbox_loc_flat <- fc7_mbox_loc_perm
I0609 09:33:26.025614 26840 net.cpp:409] fc7_mbox_loc_flat -> fc7_mbox_loc_flat
I0609 09:33:26.025631 26840 layer.hpp:71] 
I0609 09:33:26.025672 26840 net.cpp:151] Setting up fc7_mbox_loc_flat
I0609 09:33:26.025693 26840 net.cpp:158] Top shape: 32 8664 (277248)
I0609 09:33:26.025699 26840 net.cpp:166] Memory required for data: 7924328064
I0609 09:33:26.025704 26840 layer_factory.hpp:77] Creating layer fc7_mbox_conf
I0609 09:33:26.025720 26840 net.cpp:100] Creating Layer fc7_mbox_conf
I0609 09:33:26.025732 26840 net.cpp:435] fc7_mbox_conf <- fc7_relu7_0_split_2
I0609 09:33:26.025743 26840 net.cpp:409] fc7_mbox_conf -> fc7_mbox_conf
I0609 09:33:26.025758 26840 layer.hpp:71] 
I0609 09:33:26.029229 26840 net.cpp:151] Setting up fc7_mbox_conf
I0609 09:33:26.029255 26840 net.cpp:158] Top shape: 32 12 19 19 (138624)
I0609 09:33:26.029259 26840 net.cpp:166] Memory required for data: 7924882560
I0609 09:33:26.029268 26840 layer_factory.hpp:77] Creating layer fc7_mbox_conf_perm
I0609 09:33:26.029281 26840 net.cpp:100] Creating Layer fc7_mbox_conf_perm
I0609 09:33:26.029297 26840 net.cpp:435] fc7_mbox_conf_perm <- fc7_mbox_conf
I0609 09:33:26.029309 26840 net.cpp:409] fc7_mbox_conf_perm -> fc7_mbox_conf_perm
I0609 09:33:26.029321 26840 layer.hpp:71] 
I0609 09:33:26.029513 26840 net.cpp:151] Setting up fc7_mbox_conf_perm
I0609 09:33:26.029533 26840 net.cpp:158] Top shape: 32 19 19 12 (138624)
I0609 09:33:26.029539 26840 net.cpp:166] Memory required for data: 7925437056
I0609 09:33:26.029546 26840 layer_factory.hpp:77] Creating layer fc7_mbox_conf_flat
I0609 09:33:26.029556 26840 net.cpp:100] Creating Layer fc7_mbox_conf_flat
I0609 09:33:26.029562 26840 net.cpp:435] fc7_mbox_conf_flat <- fc7_mbox_conf_perm
I0609 09:33:26.029574 26840 net.cpp:409] fc7_mbox_conf_flat -> fc7_mbox_conf_flat
I0609 09:33:26.029589 26840 layer.hpp:71] 
I0609 09:33:26.029634 26840 net.cpp:151] Setting up fc7_mbox_conf_flat
I0609 09:33:26.029654 26840 net.cpp:158] Top shape: 32 4332 (138624)
I0609 09:33:26.029659 26840 net.cpp:166] Memory required for data: 7925991552
I0609 09:33:26.029664 26840 layer_factory.hpp:77] Creating layer fc7_mbox_priorbox
I0609 09:33:26.029675 26840 net.cpp:100] Creating Layer fc7_mbox_priorbox
I0609 09:33:26.029685 26840 net.cpp:435] fc7_mbox_priorbox <- fc7_relu7_0_split_3
I0609 09:33:26.029693 26840 net.cpp:435] fc7_mbox_priorbox <- data_data_0_split_2
I0609 09:33:26.029706 26840 net.cpp:409] fc7_mbox_priorbox -> fc7_mbox_priorbox
I0609 09:33:26.029716 26840 layer.hpp:71] 
I0609 09:33:26.029772 26840 net.cpp:151] Setting up fc7_mbox_priorbox
I0609 09:33:26.029789 26840 net.cpp:158] Top shape: 1 2 8664 (17328)
I0609 09:33:26.029795 26840 net.cpp:166] Memory required for data: 7926060864
I0609 09:33:26.029801 26840 layer_factory.hpp:77] Creating layer conv6_2_mbox_loc
I0609 09:33:26.029817 26840 net.cpp:100] Creating Layer conv6_2_mbox_loc
I0609 09:33:26.029832 26840 net.cpp:435] conv6_2_mbox_loc <- conv6_2_conv6_2_relu_0_split_1
I0609 09:33:26.029889 26840 net.cpp:409] conv6_2_mbox_loc -> conv6_2_mbox_loc
I0609 09:33:26.029911 26840 layer.hpp:71] 
I0609 09:33:26.033159 26840 net.cpp:151] Setting up conv6_2_mbox_loc
I0609 09:33:26.033183 26840 net.cpp:158] Top shape: 32 24 10 10 (76800)
I0609 09:33:26.033188 26840 net.cpp:166] Memory required for data: 7926368064
I0609 09:33:26.033195 26840 layer_factory.hpp:77] Creating layer conv6_2_mbox_loc_perm
I0609 09:33:26.033211 26840 net.cpp:100] Creating Layer conv6_2_mbox_loc_perm
I0609 09:33:26.033226 26840 net.cpp:435] conv6_2_mbox_loc_perm <- conv6_2_mbox_loc
I0609 09:33:26.033239 26840 net.cpp:409] conv6_2_mbox_loc_perm -> conv6_2_mbox_loc_perm
I0609 09:33:26.033255 26840 layer.hpp:71] 
I0609 09:33:26.033443 26840 net.cpp:151] Setting up conv6_2_mbox_loc_perm
I0609 09:33:26.033465 26840 net.cpp:158] Top shape: 32 10 10 24 (76800)
I0609 09:33:26.033471 26840 net.cpp:166] Memory required for data: 7926675264
I0609 09:33:26.033478 26840 layer_factory.hpp:77] Creating layer conv6_2_mbox_loc_flat
I0609 09:33:26.033488 26840 net.cpp:100] Creating Layer conv6_2_mbox_loc_flat
I0609 09:33:26.033494 26840 net.cpp:435] conv6_2_mbox_loc_flat <- conv6_2_mbox_loc_perm
I0609 09:33:26.033502 26840 net.cpp:409] conv6_2_mbox_loc_flat -> conv6_2_mbox_loc_flat
I0609 09:33:26.033514 26840 layer.hpp:71] 
I0609 09:33:26.033561 26840 net.cpp:151] Setting up conv6_2_mbox_loc_flat
I0609 09:33:26.033581 26840 net.cpp:158] Top shape: 32 2400 (76800)
I0609 09:33:26.033587 26840 net.cpp:166] Memory required for data: 7926982464
I0609 09:33:26.033592 26840 layer_factory.hpp:77] Creating layer conv6_2_mbox_conf
I0609 09:33:26.033612 26840 net.cpp:100] Creating Layer conv6_2_mbox_conf
I0609 09:33:26.033633 26840 net.cpp:435] conv6_2_mbox_conf <- conv6_2_conv6_2_relu_0_split_2
I0609 09:33:26.033649 26840 net.cpp:409] conv6_2_mbox_conf -> conv6_2_mbox_conf
I0609 09:33:26.033670 26840 layer.hpp:71] 
I0609 09:33:26.036880 26840 net.cpp:151] Setting up conv6_2_mbox_conf
I0609 09:33:26.036908 26840 net.cpp:158] Top shape: 32 12 10 10 (38400)
I0609 09:33:26.036913 26840 net.cpp:166] Memory required for data: 7927136064
I0609 09:33:26.036921 26840 layer_factory.hpp:77] Creating layer conv6_2_mbox_conf_perm
I0609 09:33:26.036932 26840 net.cpp:100] Creating Layer conv6_2_mbox_conf_perm
I0609 09:33:26.036942 26840 net.cpp:435] conv6_2_mbox_conf_perm <- conv6_2_mbox_conf
I0609 09:33:26.036955 26840 net.cpp:409] conv6_2_mbox_conf_perm -> conv6_2_mbox_conf_perm
I0609 09:33:26.036978 26840 layer.hpp:71] 
I0609 09:33:26.037168 26840 net.cpp:151] Setting up conv6_2_mbox_conf_perm
I0609 09:33:26.037187 26840 net.cpp:158] Top shape: 32 10 10 12 (38400)
I0609 09:33:26.037194 26840 net.cpp:166] Memory required for data: 7927289664
I0609 09:33:26.037199 26840 layer_factory.hpp:77] Creating layer conv6_2_mbox_conf_flat
I0609 09:33:26.037209 26840 net.cpp:100] Creating Layer conv6_2_mbox_conf_flat
I0609 09:33:26.037215 26840 net.cpp:435] conv6_2_mbox_conf_flat <- conv6_2_mbox_conf_perm
I0609 09:33:26.037226 26840 net.cpp:409] conv6_2_mbox_conf_flat -> conv6_2_mbox_conf_flat
I0609 09:33:26.037240 26840 layer.hpp:71] 
I0609 09:33:26.037281 26840 net.cpp:151] Setting up conv6_2_mbox_conf_flat
I0609 09:33:26.037298 26840 net.cpp:158] Top shape: 32 1200 (38400)
I0609 09:33:26.037303 26840 net.cpp:166] Memory required for data: 7927443264
I0609 09:33:26.037308 26840 layer_factory.hpp:77] Creating layer conv6_2_mbox_priorbox
I0609 09:33:26.037324 26840 net.cpp:100] Creating Layer conv6_2_mbox_priorbox
I0609 09:33:26.037333 26840 net.cpp:435] conv6_2_mbox_priorbox <- conv6_2_conv6_2_relu_0_split_3
I0609 09:33:26.037341 26840 net.cpp:435] conv6_2_mbox_priorbox <- data_data_0_split_3
I0609 09:33:26.037353 26840 net.cpp:409] conv6_2_mbox_priorbox -> conv6_2_mbox_priorbox
I0609 09:33:26.037369 26840 layer.hpp:71] 
I0609 09:33:26.037413 26840 net.cpp:151] Setting up conv6_2_mbox_priorbox
I0609 09:33:26.037433 26840 net.cpp:158] Top shape: 1 2 2400 (4800)
I0609 09:33:26.037439 26840 net.cpp:166] Memory required for data: 7927462464
I0609 09:33:26.037473 26840 layer_factory.hpp:77] Creating layer conv7_2_mbox_loc
I0609 09:33:26.037492 26840 net.cpp:100] Creating Layer conv7_2_mbox_loc
I0609 09:33:26.037506 26840 net.cpp:435] conv7_2_mbox_loc <- conv7_2_conv7_2_relu_0_split_1
I0609 09:33:26.037518 26840 net.cpp:409] conv7_2_mbox_loc -> conv7_2_mbox_loc
I0609 09:33:26.037533 26840 layer.hpp:71] 
I0609 09:33:26.040825 26840 net.cpp:151] Setting up conv7_2_mbox_loc
I0609 09:33:26.040849 26840 net.cpp:158] Top shape: 32 24 5 5 (19200)
I0609 09:33:26.040853 26840 net.cpp:166] Memory required for data: 7927539264
I0609 09:33:26.040863 26840 layer_factory.hpp:77] Creating layer conv7_2_mbox_loc_perm
I0609 09:33:26.040880 26840 net.cpp:100] Creating Layer conv7_2_mbox_loc_perm
I0609 09:33:26.040895 26840 net.cpp:435] conv7_2_mbox_loc_perm <- conv7_2_mbox_loc
I0609 09:33:26.040910 26840 net.cpp:409] conv7_2_mbox_loc_perm -> conv7_2_mbox_loc_perm
I0609 09:33:26.040933 26840 layer.hpp:71] 
I0609 09:33:26.041118 26840 net.cpp:151] Setting up conv7_2_mbox_loc_perm
I0609 09:33:26.041141 26840 net.cpp:158] Top shape: 32 5 5 24 (19200)
I0609 09:33:26.041147 26840 net.cpp:166] Memory required for data: 7927616064
I0609 09:33:26.041154 26840 layer_factory.hpp:77] Creating layer conv7_2_mbox_loc_flat
I0609 09:33:26.041163 26840 net.cpp:100] Creating Layer conv7_2_mbox_loc_flat
I0609 09:33:26.041169 26840 net.cpp:435] conv7_2_mbox_loc_flat <- conv7_2_mbox_loc_perm
I0609 09:33:26.041178 26840 net.cpp:409] conv7_2_mbox_loc_flat -> conv7_2_mbox_loc_flat
I0609 09:33:26.041191 26840 layer.hpp:71] 
I0609 09:33:26.041237 26840 net.cpp:151] Setting up conv7_2_mbox_loc_flat
I0609 09:33:26.041255 26840 net.cpp:158] Top shape: 32 600 (19200)
I0609 09:33:26.041261 26840 net.cpp:166] Memory required for data: 7927692864
I0609 09:33:26.041267 26840 layer_factory.hpp:77] Creating layer conv7_2_mbox_conf
I0609 09:33:26.041283 26840 net.cpp:100] Creating Layer conv7_2_mbox_conf
I0609 09:33:26.041297 26840 net.cpp:435] conv7_2_mbox_conf <- conv7_2_conv7_2_relu_0_split_2
I0609 09:33:26.041311 26840 net.cpp:409] conv7_2_mbox_conf -> conv7_2_mbox_conf
I0609 09:33:26.041333 26840 layer.hpp:71] 
I0609 09:33:26.043766 26840 net.cpp:151] Setting up conv7_2_mbox_conf
I0609 09:33:26.043789 26840 net.cpp:158] Top shape: 32 12 5 5 (9600)
I0609 09:33:26.043794 26840 net.cpp:166] Memory required for data: 7927731264
I0609 09:33:26.043802 26840 layer_factory.hpp:77] Creating layer conv7_2_mbox_conf_perm
I0609 09:33:26.043817 26840 net.cpp:100] Creating Layer conv7_2_mbox_conf_perm
I0609 09:33:26.043833 26840 net.cpp:435] conv7_2_mbox_conf_perm <- conv7_2_mbox_conf
I0609 09:33:26.043843 26840 net.cpp:409] conv7_2_mbox_conf_perm -> conv7_2_mbox_conf_perm
I0609 09:33:26.043856 26840 layer.hpp:71] 
I0609 09:33:26.044087 26840 net.cpp:151] Setting up conv7_2_mbox_conf_perm
I0609 09:33:26.044109 26840 net.cpp:158] Top shape: 32 5 5 12 (9600)
I0609 09:33:26.044116 26840 net.cpp:166] Memory required for data: 7927769664
I0609 09:33:26.044122 26840 layer_factory.hpp:77] Creating layer conv7_2_mbox_conf_flat
I0609 09:33:26.044134 26840 net.cpp:100] Creating Layer conv7_2_mbox_conf_flat
I0609 09:33:26.044152 26840 net.cpp:435] conv7_2_mbox_conf_flat <- conv7_2_mbox_conf_perm
I0609 09:33:26.044162 26840 net.cpp:409] conv7_2_mbox_conf_flat -> conv7_2_mbox_conf_flat
I0609 09:33:26.044174 26840 layer.hpp:71] 
I0609 09:33:26.044236 26840 net.cpp:151] Setting up conv7_2_mbox_conf_flat
I0609 09:33:26.044255 26840 net.cpp:158] Top shape: 32 300 (9600)
I0609 09:33:26.044260 26840 net.cpp:166] Memory required for data: 7927808064
I0609 09:33:26.044267 26840 layer_factory.hpp:77] Creating layer conv7_2_mbox_priorbox
I0609 09:33:26.044281 26840 net.cpp:100] Creating Layer conv7_2_mbox_priorbox
I0609 09:33:26.044291 26840 net.cpp:435] conv7_2_mbox_priorbox <- conv7_2_conv7_2_relu_0_split_3
I0609 09:33:26.044299 26840 net.cpp:435] conv7_2_mbox_priorbox <- data_data_0_split_4
I0609 09:33:26.044309 26840 net.cpp:409] conv7_2_mbox_priorbox -> conv7_2_mbox_priorbox
I0609 09:33:26.044320 26840 layer.hpp:71] 
I0609 09:33:26.044394 26840 net.cpp:151] Setting up conv7_2_mbox_priorbox
I0609 09:33:26.044411 26840 net.cpp:158] Top shape: 1 2 600 (1200)
I0609 09:33:26.044419 26840 net.cpp:166] Memory required for data: 7927812864
I0609 09:33:26.044423 26840 layer_factory.hpp:77] Creating layer conv8_2_mbox_loc
I0609 09:33:26.044440 26840 net.cpp:100] Creating Layer conv8_2_mbox_loc
I0609 09:33:26.044450 26840 net.cpp:435] conv8_2_mbox_loc <- conv8_2_conv8_2_relu_0_split_1
I0609 09:33:26.044463 26840 net.cpp:409] conv8_2_mbox_loc -> conv8_2_mbox_loc
I0609 09:33:26.044483 26840 layer.hpp:71] 
I0609 09:33:26.047080 26840 net.cpp:151] Setting up conv8_2_mbox_loc
I0609 09:33:26.047109 26840 net.cpp:158] Top shape: 32 16 3 3 (4608)
I0609 09:33:26.047118 26840 net.cpp:166] Memory required for data: 7927831296
I0609 09:33:26.047145 26840 layer_factory.hpp:77] Creating layer conv8_2_mbox_loc_perm
I0609 09:33:26.047168 26840 net.cpp:100] Creating Layer conv8_2_mbox_loc_perm
I0609 09:33:26.047176 26840 net.cpp:435] conv8_2_mbox_loc_perm <- conv8_2_mbox_loc
I0609 09:33:26.047188 26840 net.cpp:409] conv8_2_mbox_loc_perm -> conv8_2_mbox_loc_perm
I0609 09:33:26.047202 26840 layer.hpp:71] 
I0609 09:33:26.047430 26840 net.cpp:151] Setting up conv8_2_mbox_loc_perm
I0609 09:33:26.047454 26840 net.cpp:158] Top shape: 32 3 3 16 (4608)
I0609 09:33:26.047461 26840 net.cpp:166] Memory required for data: 7927849728
I0609 09:33:26.047467 26840 layer_factory.hpp:77] Creating layer conv8_2_mbox_loc_flat
I0609 09:33:26.047477 26840 net.cpp:100] Creating Layer conv8_2_mbox_loc_flat
I0609 09:33:26.047482 26840 net.cpp:435] conv8_2_mbox_loc_flat <- conv8_2_mbox_loc_perm
I0609 09:33:26.047495 26840 net.cpp:409] conv8_2_mbox_loc_flat -> conv8_2_mbox_loc_flat
I0609 09:33:26.047515 26840 layer.hpp:71] 
I0609 09:33:26.047559 26840 net.cpp:151] Setting up conv8_2_mbox_loc_flat
I0609 09:33:26.047579 26840 net.cpp:158] Top shape: 32 144 (4608)
I0609 09:33:26.047585 26840 net.cpp:166] Memory required for data: 7927868160
I0609 09:33:26.047590 26840 layer_factory.hpp:77] Creating layer conv8_2_mbox_conf
I0609 09:33:26.047631 26840 net.cpp:100] Creating Layer conv8_2_mbox_conf
I0609 09:33:26.047641 26840 net.cpp:435] conv8_2_mbox_conf <- conv8_2_conv8_2_relu_0_split_2
I0609 09:33:26.047653 26840 net.cpp:409] conv8_2_mbox_conf -> conv8_2_mbox_conf
I0609 09:33:26.047664 26840 layer.hpp:71] 
I0609 09:33:26.050076 26840 net.cpp:151] Setting up conv8_2_mbox_conf
I0609 09:33:26.050106 26840 net.cpp:158] Top shape: 32 8 3 3 (2304)
I0609 09:33:26.050133 26840 net.cpp:166] Memory required for data: 7927877376
I0609 09:33:26.050146 26840 layer_factory.hpp:77] Creating layer conv8_2_mbox_conf_perm
I0609 09:33:26.050158 26840 net.cpp:100] Creating Layer conv8_2_mbox_conf_perm
I0609 09:33:26.050171 26840 net.cpp:435] conv8_2_mbox_conf_perm <- conv8_2_mbox_conf
I0609 09:33:26.050187 26840 net.cpp:409] conv8_2_mbox_conf_perm -> conv8_2_mbox_conf_perm
I0609 09:33:26.050200 26840 layer.hpp:71] 
I0609 09:33:26.050423 26840 net.cpp:151] Setting up conv8_2_mbox_conf_perm
I0609 09:33:26.050446 26840 net.cpp:158] Top shape: 32 3 3 8 (2304)
I0609 09:33:26.050452 26840 net.cpp:166] Memory required for data: 7927886592
I0609 09:33:26.050458 26840 layer_factory.hpp:77] Creating layer conv8_2_mbox_conf_flat
I0609 09:33:26.050470 26840 net.cpp:100] Creating Layer conv8_2_mbox_conf_flat
I0609 09:33:26.050479 26840 net.cpp:435] conv8_2_mbox_conf_flat <- conv8_2_mbox_conf_perm
I0609 09:33:26.050508 26840 net.cpp:409] conv8_2_mbox_conf_flat -> conv8_2_mbox_conf_flat
I0609 09:33:26.050530 26840 layer.hpp:71] 
I0609 09:33:26.050575 26840 net.cpp:151] Setting up conv8_2_mbox_conf_flat
I0609 09:33:26.050590 26840 net.cpp:158] Top shape: 32 72 (2304)
I0609 09:33:26.050597 26840 net.cpp:166] Memory required for data: 7927895808
I0609 09:33:26.050602 26840 layer_factory.hpp:77] Creating layer conv8_2_mbox_priorbox
I0609 09:33:26.050616 26840 net.cpp:100] Creating Layer conv8_2_mbox_priorbox
I0609 09:33:26.050624 26840 net.cpp:435] conv8_2_mbox_priorbox <- conv8_2_conv8_2_relu_0_split_3
I0609 09:33:26.050632 26840 net.cpp:435] conv8_2_mbox_priorbox <- data_data_0_split_5
I0609 09:33:26.050668 26840 net.cpp:409] conv8_2_mbox_priorbox -> conv8_2_mbox_priorbox
I0609 09:33:26.050680 26840 layer.hpp:71] 
I0609 09:33:26.050727 26840 net.cpp:151] Setting up conv8_2_mbox_priorbox
I0609 09:33:26.050745 26840 net.cpp:158] Top shape: 1 2 144 (288)
I0609 09:33:26.050750 26840 net.cpp:166] Memory required for data: 7927896960
I0609 09:33:26.050755 26840 layer_factory.hpp:77] Creating layer conv9_2_mbox_loc
I0609 09:33:26.050773 26840 net.cpp:100] Creating Layer conv9_2_mbox_loc
I0609 09:33:26.050782 26840 net.cpp:435] conv9_2_mbox_loc <- conv9_2_conv9_2_relu_0_split_0
I0609 09:33:26.050793 26840 net.cpp:409] conv9_2_mbox_loc -> conv9_2_mbox_loc
I0609 09:33:26.050804 26840 layer.hpp:71] 
I0609 09:33:26.053453 26840 net.cpp:151] Setting up conv9_2_mbox_loc
I0609 09:33:26.053483 26840 net.cpp:158] Top shape: 32 16 1 1 (512)
I0609 09:33:26.053488 26840 net.cpp:166] Memory required for data: 7927899008
I0609 09:33:26.053500 26840 layer_factory.hpp:77] Creating layer conv9_2_mbox_loc_perm
I0609 09:33:26.053514 26840 net.cpp:100] Creating Layer conv9_2_mbox_loc_perm
I0609 09:33:26.053531 26840 net.cpp:435] conv9_2_mbox_loc_perm <- conv9_2_mbox_loc
I0609 09:33:26.053544 26840 net.cpp:409] conv9_2_mbox_loc_perm -> conv9_2_mbox_loc_perm
I0609 09:33:26.053560 26840 layer.hpp:71] 
I0609 09:33:26.053783 26840 net.cpp:151] Setting up conv9_2_mbox_loc_perm
I0609 09:33:26.053807 26840 net.cpp:158] Top shape: 32 1 1 16 (512)
I0609 09:33:26.053812 26840 net.cpp:166] Memory required for data: 7927901056
I0609 09:33:26.053817 26840 layer_factory.hpp:77] Creating layer conv9_2_mbox_loc_flat
I0609 09:33:26.053830 26840 net.cpp:100] Creating Layer conv9_2_mbox_loc_flat
I0609 09:33:26.053841 26840 net.cpp:435] conv9_2_mbox_loc_flat <- conv9_2_mbox_loc_perm
I0609 09:33:26.053850 26840 net.cpp:409] conv9_2_mbox_loc_flat -> conv9_2_mbox_loc_flat
I0609 09:33:26.053875 26840 layer.hpp:71] 
I0609 09:33:26.053928 26840 net.cpp:151] Setting up conv9_2_mbox_loc_flat
I0609 09:33:26.053946 26840 net.cpp:158] Top shape: 32 16 (512)
I0609 09:33:26.053951 26840 net.cpp:166] Memory required for data: 7927903104
I0609 09:33:26.053957 26840 layer_factory.hpp:77] Creating layer conv9_2_mbox_conf
I0609 09:33:26.053973 26840 net.cpp:100] Creating Layer conv9_2_mbox_conf
I0609 09:33:26.053988 26840 net.cpp:435] conv9_2_mbox_conf <- conv9_2_conv9_2_relu_0_split_1
I0609 09:33:26.054003 26840 net.cpp:409] conv9_2_mbox_conf -> conv9_2_mbox_conf
I0609 09:33:26.054016 26840 layer.hpp:71] 
I0609 09:33:26.056442 26840 net.cpp:151] Setting up conv9_2_mbox_conf
I0609 09:33:26.056465 26840 net.cpp:158] Top shape: 32 8 1 1 (256)
I0609 09:33:26.056469 26840 net.cpp:166] Memory required for data: 7927904128
I0609 09:33:26.056476 26840 layer_factory.hpp:77] Creating layer conv9_2_mbox_conf_perm
I0609 09:33:26.056488 26840 net.cpp:100] Creating Layer conv9_2_mbox_conf_perm
I0609 09:33:26.056499 26840 net.cpp:435] conv9_2_mbox_conf_perm <- conv9_2_mbox_conf
I0609 09:33:26.056510 26840 net.cpp:409] conv9_2_mbox_conf_perm -> conv9_2_mbox_conf_perm
I0609 09:33:26.056524 26840 layer.hpp:71] 
I0609 09:33:26.056726 26840 net.cpp:151] Setting up conv9_2_mbox_conf_perm
I0609 09:33:26.056747 26840 net.cpp:158] Top shape: 32 1 1 8 (256)
I0609 09:33:26.056752 26840 net.cpp:166] Memory required for data: 7927905152
I0609 09:33:26.056758 26840 layer_factory.hpp:77] Creating layer conv9_2_mbox_conf_flat
I0609 09:33:26.056767 26840 net.cpp:100] Creating Layer conv9_2_mbox_conf_flat
I0609 09:33:26.056777 26840 net.cpp:435] conv9_2_mbox_conf_flat <- conv9_2_mbox_conf_perm
I0609 09:33:26.056789 26840 net.cpp:409] conv9_2_mbox_conf_flat -> conv9_2_mbox_conf_flat
I0609 09:33:26.056800 26840 layer.hpp:71] 
I0609 09:33:26.056848 26840 net.cpp:151] Setting up conv9_2_mbox_conf_flat
I0609 09:33:26.056865 26840 net.cpp:158] Top shape: 32 8 (256)
I0609 09:33:26.056871 26840 net.cpp:166] Memory required for data: 7927906176
I0609 09:33:26.056876 26840 layer_factory.hpp:77] Creating layer conv9_2_mbox_priorbox
I0609 09:33:26.056886 26840 net.cpp:100] Creating Layer conv9_2_mbox_priorbox
I0609 09:33:26.056972 26840 net.cpp:435] conv9_2_mbox_priorbox <- conv9_2_conv9_2_relu_0_split_2
I0609 09:33:26.056984 26840 net.cpp:435] conv9_2_mbox_priorbox <- data_data_0_split_6
I0609 09:33:26.056998 26840 net.cpp:409] conv9_2_mbox_priorbox -> conv9_2_mbox_priorbox
I0609 09:33:26.057019 26840 layer.hpp:71] 
I0609 09:33:26.057082 26840 net.cpp:151] Setting up conv9_2_mbox_priorbox
I0609 09:33:26.057107 26840 net.cpp:158] Top shape: 1 2 16 (32)
I0609 09:33:26.057114 26840 net.cpp:166] Memory required for data: 7927906304
I0609 09:33:26.057121 26840 layer_factory.hpp:77] Creating layer mbox_loc
I0609 09:33:26.057133 26840 net.cpp:100] Creating Layer mbox_loc
I0609 09:33:26.057147 26840 net.cpp:435] mbox_loc <- conv4_3_norm_mbox_loc_flat
I0609 09:33:26.057153 26840 net.cpp:435] mbox_loc <- fc7_mbox_loc_flat
I0609 09:33:26.057159 26840 net.cpp:435] mbox_loc <- conv6_2_mbox_loc_flat
I0609 09:33:26.057168 26840 net.cpp:435] mbox_loc <- conv7_2_mbox_loc_flat
I0609 09:33:26.057180 26840 net.cpp:435] mbox_loc <- conv8_2_mbox_loc_flat
I0609 09:33:26.057185 26840 net.cpp:435] mbox_loc <- conv9_2_mbox_loc_flat
I0609 09:33:26.057195 26840 net.cpp:409] mbox_loc -> mbox_loc
I0609 09:33:26.057214 26840 layer.hpp:71] 
I0609 09:33:26.057260 26840 net.cpp:151] Setting up mbox_loc
I0609 09:33:26.057271 26840 net.cpp:158] Top shape: 32 34928 (1117696)
I0609 09:33:26.057276 26840 net.cpp:166] Memory required for data: 7932377088
I0609 09:33:26.057279 26840 layer_factory.hpp:77] Creating layer mbox_conf
I0609 09:33:26.057286 26840 net.cpp:100] Creating Layer mbox_conf
I0609 09:33:26.057292 26840 net.cpp:435] mbox_conf <- conv4_3_norm_mbox_conf_flat
I0609 09:33:26.057302 26840 net.cpp:435] mbox_conf <- fc7_mbox_conf_flat
I0609 09:33:26.057312 26840 net.cpp:435] mbox_conf <- conv6_2_mbox_conf_flat
I0609 09:33:26.057317 26840 net.cpp:435] mbox_conf <- conv7_2_mbox_conf_flat
I0609 09:33:26.057325 26840 net.cpp:435] mbox_conf <- conv8_2_mbox_conf_flat
I0609 09:33:26.057332 26840 net.cpp:435] mbox_conf <- conv9_2_mbox_conf_flat
I0609 09:33:26.057343 26840 net.cpp:409] mbox_conf -> mbox_conf
I0609 09:33:26.057360 26840 layer.hpp:71] 
I0609 09:33:26.057399 26840 net.cpp:151] Setting up mbox_conf
I0609 09:33:26.057410 26840 net.cpp:158] Top shape: 32 17464 (558848)
I0609 09:33:26.057415 26840 net.cpp:166] Memory required for data: 7934612480
I0609 09:33:26.057417 26840 layer_factory.hpp:77] Creating layer mbox_priorbox
I0609 09:33:26.057425 26840 net.cpp:100] Creating Layer mbox_priorbox
I0609 09:33:26.057430 26840 net.cpp:435] mbox_priorbox <- conv4_3_norm_mbox_priorbox
I0609 09:33:26.057440 26840 net.cpp:435] mbox_priorbox <- fc7_mbox_priorbox
I0609 09:33:26.057446 26840 net.cpp:435] mbox_priorbox <- conv6_2_mbox_priorbox
I0609 09:33:26.057452 26840 net.cpp:435] mbox_priorbox <- conv7_2_mbox_priorbox
I0609 09:33:26.057461 26840 net.cpp:435] mbox_priorbox <- conv8_2_mbox_priorbox
I0609 09:33:26.057468 26840 net.cpp:435] mbox_priorbox <- conv9_2_mbox_priorbox
I0609 09:33:26.057476 26840 net.cpp:409] mbox_priorbox -> mbox_priorbox
I0609 09:33:26.057487 26840 layer.hpp:71] 
I0609 09:33:26.057526 26840 net.cpp:151] Setting up mbox_priorbox
I0609 09:33:26.057539 26840 net.cpp:158] Top shape: 1 2 34928 (69856)
I0609 09:33:26.057543 26840 net.cpp:166] Memory required for data: 7934891904
I0609 09:33:26.057546 26840 layer_factory.hpp:77] Creating layer mbox_loss
I0609 09:33:26.057561 26840 net.cpp:100] Creating Layer mbox_loss
I0609 09:33:26.057575 26840 net.cpp:435] mbox_loss <- mbox_loc
I0609 09:33:26.057580 26840 net.cpp:435] mbox_loss <- mbox_conf
I0609 09:33:26.057585 26840 net.cpp:435] mbox_loss <- mbox_priorbox
…
  name: "data"
  type: "AnnotatedData"
  top: "data"
  top: "label"
  include {
    phase: TEST
  }
  transform_param {
    mean_value: 114
    mean_value: 114
    mean_value: 114
    resize_param {
      prob: 1
      resize_mode: WARP
      height: 300
      width: 300
      interp_mode: LINEAR
    }
  }
  data_param {
    source: "examples/grayscale_tbs_v2.0/grayscale_tbs_v2.0_test_lmdb"
    batch_size: 4
    backend: LMDB
  }
  annotated_data_param {
    batch_sampler {
    }
    label_map_file: "data/grayscale_tbs_v2.0/labelmap_voc.prototxt"
  }
}
layer {
  name: "conv1_1"
  type: "Convolution"
  bottom: "data"
  top: "conv1_1"
  param {
    lr_mult: 1
    decay_mult: 1
  }
  param {
    lr_mult: 2
    decay_mult: 0
  }
  convolution_param {
    num_output: 64
    pad: 1
    kernel_size: 3
    weight_filler {
      type: "xavier"
    }
    bias_filler {
      type: "constant"
      value: 0
    }
  }
}
layer {
  name: "relu1_1"
  type: "ReLU"
  bottom: "conv1_1"
  top: "conv1_1"
}
layer {
  name: "conv1_2"
  type: "Convolution"
  bottom: "conv1_1"
  top: "conv1_2"
  param {
    lr_mult: 1
    decay_mult: 1
  }
  param {
    lr_mult: 2
    decay_mult: 0
  }
  convolution_param {
    num_output: 64
    pad: 1
    kernel_size: 3
    weight_filler {
      type: "xavier"
    }
    bias_filler {
      type: "constant"
      value: 0
    }
  }
}
layer {
  name: "relu1_2"
  type: "ReLU"
  bottom: "conv1_2"
  top: "conv1_2"
}
layer {
  name: "pool1"
  type: "Pooling"
  bottom: "conv1_2"
  top: "pool1"
  pooling_param {
    pool: MAX
    kernel_size: 2
    stride: 2
  }
}
layer {
  name: "conv2_1"
  type: "Convolution"
  bottom: "pool1"
  top: "conv2_1"
  param {
    lr_mult: 1
    decay_mult: 1
  }
  param {
    lr_mult: 2
    decay_mult: 0
  }
  convolution_param {
    num_output: 128
    pad: 1
    kernel_size: 3
    weight_filler {
      type: "xavier"
    }
    bias_filler {
      type: "constant"
      value: 0
    }
  }
}
layer {
  name: "relu2_1"
  type: "ReLU"
  bottom: "conv2_1"
  top: "conv2_1"
}
layer {
  name: "conv2_2"
  type: "Convolution"
  bottom: "conv2_1"
  top: "conv2_2"
  param {
    lr_mult: 1
    decay_mult: 1
  }
  param {
    lr_mult: 2
    decay_mult: 0
  }
  convolution_param {
    num_output: 128
    pad: 1
    kernel_size: 3
    weight_filler {
      type: "xavier"
    }
    bias_filler {
      type: "constant"
      value: 0
    }
  }
}
layer {
  name: "relu2_2"
  type: "ReLU"
  bottom: "conv2_2"
  top: "conv2_2"
}
layer {
  name: "pool2"
  type: "Pooling"
  bottom: "conv2_2"
  top: "pool2"
  pooling_param {
    pool: MAX
    kernel_size: 2
    stride: 2
  }
}
layer {
  name: "conv3_1"
  type: "Convolution"
  bottom: "pool2"
  top: "conv3_1"
  param {
    lr_mult: 1
    decay_mult: 1
  }
  param {
    lr_mult: 2
    decay_mult: 0
  }
  convolution_param {
    num_output: 256
    pad: 1
    kernel_size: 3
    weight_filler {
      type: "xavier"
    }
    bias_filler {
      type: "constant"
      value: 0
    }
  }
}
layer {
  name: "relu3_1"
  type: "ReLU"
  bottom: "conv3_1"
  top: "conv3_1"
}
layer {
  name: "conv3_2"
  type: "Convolution"
  bottom: "conv3_1"
  top: "conv3_2"
  param {
    lr_mult: 1
    decay_mult: 1
  }
  param {
    lr_mult: 2
    decay_mult: 0
  }
  convolution_param {
    num_output: 256
    pad: 1
    kernel_size: 3
    weight_filler {
      type: "xavier"
    }
    bias_filler {
      type: "constant"
      value: 0
    }
  }
}
layer {
  name: "relu3_2"
  type: "ReLU"
  bottom: "conv3_2"
  top: "conv3_2"
}
layer {
  name: "conv3_3"
  type: "Convolution"
  bottom: "conv3_2"
  top: "conv3_3"
  param {
    lr_mult: 1
    decay_mult: 1
  }
  param {
    lr_mult: 2
    decay_mult: 0
  }
  convolution_param {
    num_output: 256
    pad: 1
    kernel_size: 3
    weight_filler {
      type: "xavier"
    }
    bias_filler {
      type: "constant"
      value: 0
    }
  }
}
layer {
  name: "relu3_3"
  type: "ReLU"
  bottom: "conv3_3"
  top: "conv3_3"
}
layer {
  name: "pool3"
  type: "Pooling"
  bottom: "conv3_3"
  top: "pool3"
  pooling_param {
    pool: MAX
    kernel_size: 2
    stride: 2
  }
}
layer {
  name: "conv4_1"
  type: "Convolution"
  bottom: "pool3"
  top: "conv4_1"
  param {
    lr_mult: 1
    decay_mult: 1
  }
  param {
    lr_mult: 2
    decay_mult: 0
  }
  convolution_param {
    num_output: 512
    pad: 1
    kernel_size: 3
    weight_filler {
      type: "xavier"
    }
    bias_filler {
      type: "constant"
      value: 0
    }
  }
}
layer {
  name: "relu4_1"
  type: "ReLU"
  bottom: "conv4_1"
  top: "conv4_1"
}
layer {
  name: "conv4_2"
  type: "Convolution"
  bottom: "conv4_1"
  top: "conv4_2"
  param {
    lr_mult: 1
    decay_mult: 1
  }
  param {
    lr_mult: 2
    decay_mult: 0
  }
  convolution_param {
    num_output: 512
    pad: 1
    kernel_size: 3
    weight_filler {
      type: "xavier"
    }
    bias_filler {
      type: "constant"
      value: 0
    }
  }
}
layer {
  name: "relu4_2"
  type: "ReLU"
  bottom: "conv4_2"
  top: "conv4_2"
}
layer {
  name: "conv4_3"
  type: "Convolution"
  bottom: "conv4_2"
  top: "conv4_3"
  param {
    lr_mult: 1
    decay_mult: 1
  }
  param {
    lr_mult: 2
    decay_mult: 0
  }
  convolution_param {
    num_output: 512
    pad: 1
    kernel_size: 3
    weight_filler {
      type: "xavier"
    }
    bias_filler {
      type: "constant"
      value: 0
    }
  }
}
layer {
  name: "relu4_3"
  type: "ReLU"
  bottom: "conv4_3"
  top: "conv4_3"
}
layer {
  name: "pool4"
  type: "Pooling"
  bottom: "conv4_3"
  top: "pool4"
  pooling_param {
    pool: MAX
    kernel_size: 2
    stride: 2
  }
}
layer {
  name: "conv5_1"
  type: "Convolution"
  bottom: "pool4"
  top: "conv5_1"
  param {
    lr_mult: 1
    decay_mult: 1
  }
  param {
    lr_mult: 2
    decay_mult: 0
  }
  convolution_param {
    num_output: 512
    pad: 1
    kernel_size: 3
    weight_filler {
      type: "xavier"
    }
    bias_filler {
      type: "constant"
      value: 0
    }
    dilation: 1
  }
}
layer {
  name: "relu5_1"
  type: "ReLU"
  bottom: "conv5_1"
  top: "conv5_1"
}
layer {
  name: "conv5_2"
  type: "Convolution"
  bottom: "conv5_1"
  top: "conv5_2"
  param {
    lr_mult: 1
    decay_mult: 1
  }
  param {
    lr_mult: 2
    decay_mult: 0
  }
  convolution_param {
    num_output: 512
    pad: 1
    kernel_size: 3
    weight_filler {
      type: "xavier"
    }
    bias_filler {
      type: "constant"
      value: 0
    }
    dilation: 1
  }
}
layer {
  name: "relu5_2"
  type: "ReLU"
  bottom: "conv5_2"
  top: "conv5_2"
}
layer {
  name: "conv5_3"
  type: "Convolution"
  bottom: "conv5_2"
  top: "conv5_3"
  param {
    lr_mult: 1
    decay_mult: 1
  }
  param {
    lr_mult: 2
    decay_mult: 0
  }
  convolution_param {
    num_output: 512
    pad: 1
    kernel_size: 3
    weight_filler {
      type: "xavier"
    }
    bias_filler {
      type: "constant"
      value: 0
    }
    dilation: 1
  }
}
layer {
  name: "relu5_3"
  type: "ReLU"
  bottom: "conv5_3"
  top: "conv5_3"
}
layer {
  name: "pool5"
  type: "Pooling"
  bottom: "conv5_3"
  top: "pool5"
  pooling_param {
    pool: MAX
    kernel_size: 3
    stride: 1
    pad: 1
  }
}
layer {
  name: "fc6"
  type: "Convolution"
  bottom: "pool5"
  top: "fc6"
  param {
    lr_mult: 1
    decay_mult: 1
  }
  param {
    lr_mult: 2
    decay_mult: 0
  }
  convolution_param {
    num_output: 1024
    pad: 6
    kernel_size: 3
    weight_filler {
      type: "xavier"
    }
    bias_filler {
      type: "constant"
      value: 0
    }
    dilation: 6
  }
}
layer {
  name: "relu6"
  type: "ReLU"
  bottom: "fc6"
  top: "fc6"
}
layer {
  name: "fc7"
  type: "Convolution"
  bottom: "fc6"
  top: "fc7"
  param {
    lr_mult: 1
    decay_mult: 1
  }
  param {
    lr_mult: 2
    decay_mult: 0
  }
  convolution_param {
    num_output: 1024
    kernel_size: 1
    weight_filler {
      type: "xavier"
    }
    bias_filler {
      type: "constant"
      value: 0
    }
  }
}
layer {
  name: "relu7"
  type: "ReLU"
  bottom: "fc7"
  top: "fc7"
}
layer {
  name: "conv6_1"
  type: "Convolution"
  bottom: "fc7"
  top: "conv6_1"
  param {
    lr_mult: 1
    decay_mult: 1
  }
  param {
    lr_mult: 2
    decay_mult: 0
  }
  convolution_param {
    num_output: 256
    pad: 0
    kernel_size: 1
    stride: 1
    weight_filler {
      type: "xavier"
    }
    bias_filler {
      type: "constant"
      value: 0
    }
  }
}
layer {
  name: "conv6_1_relu"
  type: "ReLU"
  bottom: "conv6_1"
  top: "conv6_1"
}
layer {
  name: "conv6_2"
  type: "Convolution"
  bottom: "conv6_1"
  top: "conv6_2"
  param {
    lr_mult: 1
    decay_mult: 1
  }
  param {
    lr_mult: 2
    decay_mult: 0
  }
  convolution_param {
    num_output: 512
    pad: 1
    kernel_size: 3
    stride: 2
    weight_filler {
      type: "xavier"
    }
    bias_filler {
      type: "constant"
      value: 0
    }
  }
}
layer {
  name: "conv6_2_relu"
  type: "ReLU"
  bottom: "conv6_2"
  top: "conv6_2"
}
layer {
  name: "conv7_1"
  type: "Convolution"
  bottom: "conv6_2"
  top: "conv7_1"
  param {
    lr_mult: 1
    decay_mult: 1
  }
  param {
    lr_mult: 2
    decay_mult: 0
  }
  convolution_param {
    num_output: 128
    pad: 0
    kernel_size: 1
    stride: 1
    weight_filler {
      type: "xavier"
    }
    bias_filler {
      type: "constant"
      value: 0
    }
  }
}
layer {
  name: "conv7_1_relu"
  type: "ReLU"
  bottom: "conv7_1"
  top: "conv7_1"
}
layer {
  name: "conv7_2"
  type: "Convolution"
  bottom: "conv7_1"
  top: "conv7_2"
  param {
    lr_mult: 1
    decay_mult: 1
  }
  param {
    lr_mult: 2
    decay_mult: 0
  }
  convolution_param {
    num_output: 256
    pad: 1
    kernel_size: 3
    stride: 2
    weight_filler {
      type: "xavier"
    }
    bias_filler {
      type: "constant"
      value: 0
    }
  }
}
layer {
  name: "conv7_2_relu"
  type: "ReLU"
  bottom: "conv7_2"
  top: "conv7_2"
}
layer {
  name: "conv8_1"
  type: "Convolution"
  bottom: "conv7_2"
  top: "conv8_1"
  param {
    lr_mult: 1
    decay_mult: 1
  }
  param {
    lr_mult: 2
    decay_mult: 0
  }
  convolution_param {
    num_output: 128
    pad: 0
    kernel_size: 1
    stride: 1
    weight_filler {
      type: "xavier"
    }
    bias_filler {
      type: "constant"
      value: 0
    }
  }
}
layer {
  name: "conv8_1_relu"
  type: "ReLU"
  bottom: "conv8_1"
  top: "conv8_1"
}
layer {
  name: "conv8_2"
  type: "Convolution"
  bottom: "conv8_1"
  top: "conv8_2"
  param {
    lr_mult: 1
    decay_mult: 1
  }
  param {
    lr_mult: 2
    decay_mult: 0
  }
  convolution_param {
    num_output: 256
    pad: 0
    kernel_size: 3
    stride: 1
    weight_filler {
      type: "xavier"
    }
    bias_filler {
      type: "constant"
      value: 0
    }
  }
}
layer {
  name: "conv8_2_relu"
  type: "ReLU"
  bottom: "conv8_2"
  top: "conv8_2"
}
layer {
  name: "conv9_1"
  type: "Convolution"
  bottom: "conv8_2"
  top: "conv9_1"
  param {
    lr_mult: 1
    decay_mult: 1
  }
  param {
    lr_mult: 2
    decay_mult: 0
  }
  convolution_param {
    num_output: 128
    pad: 0
    kernel_size: 1
    stride: 1
    weight_filler {
      type: "xavier"
    }
    bias_filler {
      type: "constant"
      value: 0
    }
  }
}
layer {
  name: "conv9_1_relu"
  type: "ReLU"
  bottom: "conv9_1"
  top: "conv9_1"
}
layer {
  name: "conv9_2"
  type: "Convolution"
  bottom: "conv9_1"
  top: "conv9_2"
  param {
    lr_mult: 1
    decay_mult: 1
  }
  param {
    lr_mult: 2
    decay_mult: 0
  }
  convolution_param {
    num_output: 256
    pad: 0
    kernel_size: 3
    stride: 1
    weight_filler {
      type: "xavier"
    }
    bias_filler {
      type: "constant"
      value: 0
    }
  }
}
layer {
  name: "conv9_2_relu"
  type: "ReLU"
  bottom: "conv9_2"
  top: "conv9_2"
}
layer {
  name: "conv4_3_norm"
  type: "Normalize"
  bottom: "conv4_3"
  top: "conv4_3_norm"
  norm_param {
    across_spatial: false
    scale_filler {
      type: "constant"
      value: 20
    }
    channel_shared: false
  }
}
layer {
  name: "conv4_3_norm_mbox_loc"
  type: "Convolution"
  bottom: "conv4_3_norm"
  top: "conv4_3_norm_mbox_loc"
  param {
    lr_mult: 1
    decay_mult: 1
  }
  param {
    lr_mult: 2
    decay_mult: 0
  }
  convolution_param {
    num_output: 16
    pad: 1
    kernel_size: 3
    stride: 1
    weight_filler {
      type: "xavier"
    }
    bias_filler {
      type: "constant"
      value: 0
    }
  }
}
layer {
  name: "conv4_3_norm_mbox_loc_perm"
  type: "Permute"
  bottom: "conv4_3_norm_mbox_loc"
  top: "conv4_3_norm_mbox_loc_perm"
  permute_param {
    order: 0
    order: 2
    order: 3
    order: 1
  }
}
layer {
  name: "conv4_3_norm_mbox_loc_flat"
  type: "Flatten"
  bottom: "conv4_3_norm_mbox_loc_perm"
  top: "conv4_3_norm_mbox_loc_flat"
  flatten_param {
    axis: 1
  }
}
layer {
  name: "conv4_3_norm_mbox_conf"
  type: "Convolution"
  bottom: "conv4_3_norm"
  top: "conv4_3_norm_mbox_conf"
  param {
    lr_mult: 1
    decay_mult: 1
  }
  param {
    lr_mult: 2
    decay_mult: 0
  }
  convolution_param {
    num_output: 8
    pad: 1
    kernel_size: 3
    stride: 1
    weight_filler {
      type: "xavier"
    }
    bias_filler {
      type: "constant"
      value: 0
    }
  }
}
layer {
  name: "conv4_3_norm_mbox_conf_perm"
  type: "Permute"
  bottom: "conv4_3_norm_mbox_conf"
  top: "conv4_3_norm_mbox_conf_perm"
  permute_param {
    order: 0
    order: 2
    order: 3
    order: 1
  }
}
layer {
  name: "conv4_3_norm_mbox_conf_flat"
  type: "Flatten"
  bottom: "conv4_3_norm_mbox_conf_perm"
  top: "conv4_3_norm_mbox_conf_flat"
  flatten_param {
    axis: 1
  }
}
layer {
  name: "conv4_3_norm_mbox_priorbox"
  type: "PriorBox"
  bottom: "conv4_3_norm"
  bottom: "data"
  top: "conv4_3_norm_mbox_priorbox"
  prior_box_param {
    min_size: 30
    max_size: 60
    aspect_ratio: 2
    flip: true
    clip: false
    variance: 0.1
    variance: 0.1
    variance: 0.2
    variance: 0.2
    step: 8
    offset: 0.5
  }
}
layer {
  name: "fc7_mbox_loc"
  type: "Convolution"
  bottom: "fc7"
  top: "fc7_mbox_loc"
  param {
    lr_mult: 1
    decay_mult: 1
  }
  param {
    lr_mult: 2
    decay_mult: 0
  }
  convolution_param {
    num_output: 24
    pad: 1
    kernel_size: 3
    stride: 1
    weight_filler {
      type: "xavier"
    }
    bias_filler {
      type: "constant"
      value: 0
    }
  }
}
layer {
  name: "fc7_mbox_loc_perm"
  type: "Permute"
  bottom: "fc7_mbox_loc"
  top: "fc7_mbox_loc_perm"
  permute_param {
    order: 0
    order: 2
    order: 3
    order: 1
  }
}
layer {
  name: "fc7_mbox_loc_flat"
  type: "Flatten"
  bottom: "fc7_mbox_loc_perm"
  top: "fc7_mbox_loc_flat"
  flatten_param {
    axis: 1
  }
}
layer {
  name: "fc7_mbox_conf"
  type: "Convolution"
  bottom: "fc7"
  top: "fc7_mbox_conf"
  param {
    lr_mult: 1
    decay_mult: 1
  }
  param {
    lr_mult: 2
    decay_mult: 0
  }
  convolution_param {
    num_output: 12
    pad: 1
    kernel_size: 3
    stride: 1
    weight_filler {
      type: "xavier"
    }
    bias_filler {
      type: "constant"
      value: 0
    }
  }
}
layer {
  name: "fc7_mbox_conf_perm"
  type: "Permute"
  bottom: "fc7_mbox_conf"
  top: "fc7_mbox_conf_perm"
  permute_param {
    order: 0
    order: 2
    order: 3
    order: 1
  }
}
layer {
  name: "fc7_mbox_conf_flat"
  type: "Flatten"
  bottom: "fc7_mbox_conf_perm"
  top: "fc7_mbox_conf_flat"
  flatten_param {
    axis: 1
  }
}
layer {
  name: "fc7_mbox_priorbox"
  type: "PriorBox"
  bottom: "fc7"
  bottom: "data"
  top: "fc7_mbox_priorbox"
  prior_box_param {
    min_size: 60
    max_size: 111
    aspect_ratio: 2
    aspect_ratio: 3
    flip: true
    clip: false
    variance: 0.1
    variance: 0.1
    variance: 0.2
    variance: 0.2
    step: 16
    offset: 0.5
  }
}
layer {
  name: "conv6_2_mbox_loc"
  type: "Convolution"
  bottom: "conv6_2"
  top: "conv6_2_mbox_loc"
  param {
    lr_mult: 1
    decay_mult: 1
  }
  param {
    lr_mult: 2
    decay_mult: 0
  }
  convolution_param {
    num_output: 24
    pad: 1
    kernel_size: 3
    stride: 1
    weight_filler {
      type: "xavier"
    }
    bias_filler {
      type: "constant"
      value: 0
    }
  }
}
layer {
  name: "conv6_2_mbox_loc_perm"
  type: "Permute"
  bottom: "conv6_2_mbox_loc"
  top: "conv6_2_mbox_loc_perm"
  permute_param {
    order: 0
    order: 2
    order: 3
    order: 1
  }
}
layer {
  name: "conv6_2_mbox_loc_flat"
  type: "Flatten"
  bottom: "conv6_2_mbox_loc_perm"
  top: "conv6_2_mbox_loc_flat"
  flatten_param {
    axis: 1
  }
}
layer {
  name: "conv6_2_mbox_conf"
  type: "Convolution"
  bottom: "conv6_2"
  top: "conv6_2_mbox_conf"
  param {
    lr_mult: 1
    decay_mult: 1
  }
  param {
    lr_mult: 2
    decay_mult: 0
  }
  convolution_param {
    num_output: 12
    pad: 1
    kernel_size: 3
    stride: 1
    weight_filler {
      type: "xavier"
    }
    bias_filler {
      type: "constant"
      value: 0
    }
  }
}
layer {
  name: "conv6_2_mbox_conf_perm"
  type: "Permute"
  bottom: "conv6_2_mbox_conf"
  top: "conv6_2_mbox_conf_perm"
  permute_param {
    order: 0
    order: 2
    order: 3
    order: 1
  }
}
layer {
  name: "conv6_2_mbox_conf_flat"
  type: "Flatten"
  bottom: "conv6_2_mbox_conf_perm"
  top: "conv6_2_mbox_conf_flat"
  flatten_param {
    axis: 1
  }
}
layer {
  name: "conv6_2_mbox_priorbox"
  type: "PriorBox"
  bottom: "conv6_2"
  bottom: "data"
  top: "conv6_2_mbox_priorbox"
  prior_box_param {
    min_size: 111
    max_size: 162
    aspect_ratio: 2
    aspect_ratio: 3
    flip: true
    clip: false
    variance: 0.1
    variance: 0.1
    variance: 0.2
    variance: 0.2
    step: 32
    offset: 0.5
  }
}
layer {
  name: "conv7_2_mbox_loc"
  type: "Convolution"
  bottom: "conv7_2"
  top: "conv7_2_mbox_loc"
  param {
    lr_mult: 1
    decay_mult: 1
  }
  param {
    lr_mult: 2
    decay_mult: 0
  }
  convolution_param {
    num_output: 24
    pad: 1
    kernel_size: 3
    stride: 1
    weight_filler {
      type: "xavier"
    }
    bias_filler {
      type: "constant"
      value: 0
    }
  }
}
layer {
  name: "conv7_2_mbox_loc_perm"
  type: "Permute"
  bottom: "conv7_2_mbox_loc"
  top: "conv7_2_mbox_loc_perm"
  permute_param {
    order: 0
    order: 2
    order: 3
    order: 1
  }
}
layer {
  name: "conv7_2_mbox_loc_flat"
  type: "Flatten"
  bottom: "conv7_2_mbox_loc_perm"
  top: "conv7_2_mbox_loc_flat"
  flatten_param {
    axis: 1
  }
}
layer {
  name: "conv7_2_mbox_conf"
  type: "Convolution"
  bottom: "conv7_2"
  top: "conv7_2_mbox_conf"
  param {
    lr_mult: 1
    decay_mult: 1
  }
  param {
    lr_mult: 2
    decay_mult: 0
  }
  convolution_param {
    num_output: 12
    pad: 1
    kernel_size: 3
    stride: 1
    weight_filler {
      type: "xavier"
    }
    bias_filler {
      type: "constant"
      value: 0
    }
  }
}
layer {
  name: "conv7_2_mbox_conf_perm"
  type: "Permute"
  bottom: "conv7_2_mbox_conf"
  top: "conv7_2_mbox_conf_perm"
  permute_param {
    order: 0
    order: 2
    order: 3
    order: 1
  }
}
layer {
  name: "conv7_2_mbox_conf_flat"
  type: "Flatten"
  bottom: "conv7_2_mbox_conf_perm"
  top: "conv7_2_mbox_conf_flat"
  flatten_param {
    axis: 1
  }
}
layer {
  name: "conv7_2_mbox_priorbox"
  type: "PriorBox"
  bottom: "conv7_2"
  bottom: "data"
  top: "conv7_2_mbox_priorbox"
  prior_box_param {
    min_size: 162
    max_size: 213
    aspect_ratio: 2
    aspect_ratio: 3
    flip: true
    clip: false
    variance: 0.1
    variance: 0.1
    variance: 0.2
    variance: 0.2
    step: 64
    offset: 0.5
  }
}
layer {
  name: "conv8_2_mbox_loc"
  type: "Convolution"
  bottom: "conv8_2"
  top: "conv8_2_mbox_loc"
  param {
    lr_mult: 1
    decay_mult: 1
  }
  param {
    lr_mult: 2
    decay_mult: 0
  }
  convolution_param {
    num_output: 16
    pad: 1
    kernel_size: 3
    stride: 1
    weight_filler {
      type: "xavier"
    }
    bias_filler {
      type: "constant"
      value: 0
    }
  }
}
layer {
  name: "conv8_2_mbox_loc_perm"
  type: "Permute"
  bottom: "conv8_2_mbox_loc"
  top: "conv8_2_mbox_loc_perm"
  permute_param {
    order: 0
    order: 2
    order: 3
    order: 1
  }
}
layer {
  name: "conv8_2_mbox_loc_flat"
  type: "Flatten"
  bottom: "conv8_2_mbox_loc_perm"
  top: "conv8_2_mbox_loc_flat"
  flatten_param {
    axis: 1
  }
}
layer {
  name: "conv8_2_mbox_conf"
  type: "Convolution"
  bottom: "conv8_2"
  top: "conv8_2_mbox_conf"
  param {
    lr_mult: 1
    decay_mult: 1
  }
  param {
    lr_mult: 2
    decay_mult: 0
  }
  convolution_param {
    num_output: 8
    pad: 1
    kernel_size: 3
    stride: 1
    weight_filler {
      type: "xavier"
    }
    bias_filler {
      type: "constant"
      value: 0
    }
  }
}
layer {
  name: "conv8_2_mbox_conf_perm"
  type: "Permute"
  bottom: "conv8_2_mbox_conf"
  top: "conv8_2_mbox_conf_perm"
  permute_param {
    order: 0
    order: 2
    order: 3
    order: 1
  }
}
layer {
  name: "conv8_2_mbox_conf_flat"
  type: "Flatten"
  bottom: "conv8_2_mbox_conf_perm"
  top: "conv8_2_mbox_conf_flat"
  flatten_param {
    axis: 1
  }
}
layer {
  name: "conv8_2_mbox_priorbox"
  type: "PriorBox"
  bottom: "conv8_2"
  bottom: "data"
  top: "conv8_2_mbox_priorbox"
  prior_box_param {
    min_size: 213
    max_size: 264
    aspect_ratio: 2
    flip: true
    clip: false
    variance: 0.1
    variance: 0.1
    variance: 0.2
    variance: 0.2
    step: 100
    offset: 0.5
  }
}
layer {
  name: "conv9_2_mbox_loc"
  type: "Convolution"
  bottom: "conv9_2"
  top: "conv9_2_mbox_loc"
  param {
    lr_mult: 1
    decay_mult: 1
  }
  param {
    lr_mult: 2
    decay_mult: 0
  }
  convolution_param {
    num_output: 16
    pad: 1
    kernel_size: 3
    stride: 1
    weight_filler {
      type: "xavier"
    }
    bias_filler {
      type: "constant"
      value: 0
    }
  }
}
layer {
  name: "conv9_2_mbox_loc_perm"
  type: "Permute"
  bottom: "conv9_2_mbox_loc"
  top: "conv9_2_mbox_loc_perm"
  permute_param {
    order: 0
    order: 2
    order: 3
    order: 1
  }
}
layer {
  name: "conv9_2_mbox_loc_flat"
  type: "Flatten"
  bottom: "conv9_2_mbox_loc_perm"
  top: "conv9_2_mbox_loc_flat"
  flatten_param {
    axis: 1
  }
}
layer {
  name: "conv9_2_mbox_conf"
  type: "Convolution"
  bottom: "conv9_2"
  top: "conv9_2_mbox_conf"
  param {
    lr_mult: 1
    decay_mult: 1
  }
  param {
    lr_mult: 2
    decay_mult: 0
  }
  convolution_param {
    num_output: 8
    pad: 1
    kernel_size: 3
    stride: 1
    weight_filler {
      type: "xavier"
    }
    bias_filler {
      type: "constant"
      value: 0
    }
  }
}
layer {
  name: "conv9_2_mbox_conf_perm"
  type: "Permute"
  bottom: "conv9_2_mbox_conf"
  top: "conv9_2_mbox_conf_perm"
  permute_param {
    order: 0
    order: 2
    order: 3
    order: 1
  }
}
layer {
  name: "conv9_2_mbox_conf_flat"
  type: "Flatten"
  bottom: "conv9_2_mbox_conf_perm"
  top: "conv9_2_mbox_conf_flat"
  flatten_param {
    axis: 1
  }
}
layer {
  name: "conv9_2_mbox_priorbox"
  type: "PriorBox"
  bottom: "conv9_2"
  bottom: "data"
  top: "conv9_2_mbox_priorbox"
  prior_box_param {
    min_size: 264
    max_size: 315
    aspect_ratio: 2
    flip: true
    clip: false
    variance: 0.1
    variance: 0.1
    variance: 0.2
    variance: 0.2
    step: 300
    offset: 0.5
  }
}
layer {
  name: "mbox_loc"
  type: "Concat"
  bottom: "conv4_3_norm_mbox_loc_flat"
  bottom: "fc7_mbox_loc_flat"
  bottom: "conv6_2_mbox_loc_flat"
  bottom: "conv7_2_mbox_loc_flat"
  bottom: "conv8_2_mbox_loc_flat"
  bottom: "conv9_2_mbox_loc_flat"
  top: "mbox_loc"
  concat_param {
    axis: 1
  }
}
layer {
  name: "mbox_conf"
  type: "Concat"
  bottom: "conv4_3_norm_mbox_conf_flat"
  bottom: "fc7_mbox_conf_flat"
  bottom: "conv6_2_mbox_conf_flat"
  bottom: "conv7_2_mbox_conf_flat"
  bottom: "conv8_2_mbox_conf_flat"
  bottom: "conv9_2_mbox_conf_flat"
  top: "mbox_conf"
  concat_param {
    axis: 1
  }
}
layer {
  name: "mbox_priorbox"
  type: "Concat"
  bottom: "conv4_3_norm_mbox_priorbox"
  bottom: "fc7_mbox_priorbox"
  bottom: "conv6_2_mbox_priorbox"
  bottom: "conv7_2_mbox_priorbox"
  bottom: "conv8_2_mbox_priorbox"
  bottom: "conv9_2_mbox_priorbox"
  top: "mbox_priorbox"
  concat_param {
    axis: 2
  }
}
layer {
  name: "mbox_conf_reshape"
  type: "Reshape"
  bottom: "mbox_conf"
  top: "mbox_conf_reshape"
  reshape_param {
    shape {
      dim: 0
      dim: -1
      dim: 2
    }
  }
}
layer {
  name: "mbox_conf_softmax"
  type: "Softmax"
  bottom: "mbox_conf_reshape"
  top: "mbox_conf_softmax"
  softmax_param {
    axis: 2
  }
}
layer {
  name: "mbox_conf_flatten"
  type: "Flatten"
  bottom: "mbox_conf_softmax"
  top: "mbox_conf_flatten"
  flatten_param {
    axis: 1
  }
}
layer {
  name: "detection_out"
  type: "DetectionOutput"
  bottom: "mbox_loc"
  bottom: "mbox_conf_flatten"
  bottom: "mbox_priorbox"
  top: "detection_out"
  include {
    phase: TEST
  }
  detection_output_param {
    num_classes: 2
    share_location: true
    background_label_id: 0
    nms_param {
      nms_threshold: 0.45
      top_k: 400
    }
    save_output_param {
      output_directory: "/home/ubuntu/data/grayscale_tbs_v2.0/results/tbs/SSD_300x300/Main"
      output_name_prefix: "comp4_det_test_"
      output_format: "VOC"
      label_map_file: "data/grayscale_tbs_v2.0/labelmap_voc.prototxt"
      name_size_file: "data/grayscale_tbs_v2.0/test_name_size"
      num_test_image: 200
    }
    code_type: CENTER_SIZE
    keep_top_k: 200
    confidence_threshold: 0.01
  }
}
layer {
  name: "detection_eval"
  type: "DetectionEvaluate"
  bottom: "detection_out"
  bottom: "label"
  top: "detection_eval"
  include {
    phase: TEST
  }
  detection_evaluate_param {
    num_classes: 2
    background_label_id: 0
    overlap_threshold: 0.5
    evaluate_difficult_gt: false
    name_size_file: "data/grayscale_tbs_v2.0/test_name_size"
  }
}
I0609 09:33:26.063031 26840 layer_factory.hpp:77] Creating layer data
I0609 09:33:26.063132 26840 net.cpp:100] Creating Layer data
I0609 09:33:26.063148 26840 net.cpp:409] data -> data
I0609 09:33:26.063163 26840 net.cpp:409] data -> label
I0609 09:33:26.063172 26840 layer.hpp:71] 
I0609 09:33:26.064419 26854 db_lmdb.cpp:35] Opened lmdb examples/grayscale_tbs_v2.0/grayscale_tbs_v2.0_test_lmdb
I0609 09:33:26.067809 26840 annotated_data_layer.cpp:62] output data size: 4,3,300,300
I0609 09:33:26.079066 26840 net.cpp:151] Setting up data
I0609 09:33:26.079111 26840 net.cpp:158] Top shape: 4 3 300 300 (1080000)
I0609 09:33:26.079120 26840 net.cpp:158] Top shape: 1 1 1 8 (8)
I0609 09:33:26.079125 26840 net.cpp:166] Memory required for data: 4320032
I0609 09:33:26.079133 26840 layer_factory.hpp:77] Creating layer data_data_0_split
I0609 09:33:26.079154 26840 net.cpp:100] Creating Layer data_data_0_split
I0609 09:33:26.079161 26840 net.cpp:435] data_data_0_split <- data
I0609 09:33:26.079175 26840 net.cpp:409] data_data_0_split -> data_data_0_split_0
I0609 09:33:26.079195 26840 net.cpp:409] data_data_0_split -> data_data_0_split_1
I0609 09:33:26.079205 26840 net.cpp:409] data_data_0_split -> data_data_0_split_2
I0609 09:33:26.079217 26840 net.cpp:409] data_data_0_split -> data_data_0_split_3
I0609 09:33:26.079259 26840 net.cpp:409] data_data_0_split -> data_data_0_split_4
I0609 09:33:26.079272 26840 net.cpp:409] data_data_0_split -> data_data_0_split_5
I0609 09:33:26.079280 26840 net.cpp:409] data_data_0_split -> data_data_0_split_6
I0609 09:33:26.079293 26840 layer.hpp:71] 
I0609 09:33:26.079488 26840 net.cpp:151] Setting up data_data_0_split
I0609 09:33:26.079500 26840 net.cpp:158] Top shape: 4 3 300 300 (1080000)
I0609 09:33:26.079530 26840 net.cpp:158] Top shape: 4 3 300 300 (1080000)
I0609 09:33:26.079538 26840 net.cpp:158] Top shape: 4 3 300 300 (1080000)
I0609 09:33:26.079545 26840 net.cpp:158] Top shape: 4 3 300 300 (1080000)
I0609 09:33:26.079551 26840 net.cpp:158] Top shape: 4 3 300 300 (1080000)
I0609 09:33:26.079557 26840 net.cpp:158] Top shape: 4 3 300 300 (1080000)
I0609 09:33:26.079566 26840 net.cpp:158] Top shape: 4 3 300 300 (1080000)
I0609 09:33:26.079569 26840 net.cpp:166] Memory required for data: 34560032
I0609 09:33:26.079576 26840 layer_factory.hpp:77] Creating layer conv1_1
I0609 09:33:26.079593 26840 net.cpp:100] Creating Layer conv1_1
I0609 09:33:26.079601 26840 net.cpp:435] conv1_1 <- data_data_0_split_0
I0609 09:33:26.079610 26840 net.cpp:409] conv1_1 -> conv1_1
I0609 09:33:26.079620 26840 layer.hpp:71] 
I0609 09:33:26.083201 26840 net.cpp:151] Setting up conv1_1
I0609 09:33:26.083227 26840 net.cpp:158] Top shape: 4 64 300 300 (23040000)
I0609 09:33:26.083232 26840 net.cpp:166] Memory required for data: 126720032
I0609 09:33:26.083251 26840 layer_factory.hpp:77] Creating layer relu1_1
I0609 09:33:26.083264 26840 net.cpp:100] Creating Layer relu1_1
I0609 09:33:26.083271 26840 net.cpp:435] relu1_1 <- conv1_1
I0609 09:33:26.083279 26840 net.cpp:396] relu1_1 -> conv1_1 (in-place)
I0609 09:33:26.083290 26840 layer.hpp:71] 
I0609 09:33:26.083590 26840 net.cpp:151] Setting up relu1_1
I0609 09:33:26.083605 26840 net.cpp:158] Top shape: 4 64 300 300 (23040000)
I0609 09:33:26.083609 26840 net.cpp:166] Memory required for data: 218880032
I0609 09:33:26.083616 26840 layer_factory.hpp:77] Creating layer conv1_2
I0609 09:33:26.083633 26840 net.cpp:100] Creating Layer conv1_2
I0609 09:33:26.083640 26840 net.cpp:435] conv1_2 <- conv1_1
I0609 09:33:26.083650 26840 net.cpp:409] conv1_2 -> conv1_2
I0609 09:33:26.083662 26840 layer.hpp:71] 
I0609 09:33:26.087584 26840 net.cpp:151] Setting up conv1_2
I0609 09:33:26.087611 26840 net.cpp:158] Top shape: 4 64 300 300 (23040000)
I0609 09:33:26.087617 26840 net.cpp:166] Memory required for data: 311040032
I0609 09:33:26.087633 26840 layer_factory.hpp:77] Creating layer relu1_2
I0609 09:33:26.087644 26840 net.cpp:100] Creating Layer relu1_2
I0609 09:33:26.087651 26840 net.cpp:435] relu1_2 <- conv1_2
I0609 09:33:26.087661 26840 net.cpp:396] relu1_2 -> conv1_2 (in-place)
I0609 09:33:26.087671 26840 layer.hpp:71] 
I0609 09:33:26.088572 26840 net.cpp:151] Setting up relu1_2
I0609 09:33:26.088589 26840 net.cpp:158] Top shape: 4 64 300 300 (23040000)
I0609 09:33:26.088595 26840 net.cpp:166] Memory required for data: 403200032
I0609 09:33:26.088601 26840 layer_factory.hpp:77] Creating layer pool1
I0609 09:33:26.088613 26840 net.cpp:100] Creating Layer pool1
I0609 09:33:26.088618 26840 net.cpp:435] pool1 <- conv1_2
I0609 09:33:26.088626 26840 net.cpp:409] pool1 -> pool1
I0609 09:33:26.088637 26840 layer.hpp:71] 
I0609 09:33:26.088718 26840 net.cpp:151] Setting up pool1
I0609 09:33:26.088729 26840 net.cpp:158] Top shape: 4 64 150 150 (5760000)
I0609 09:33:26.088734 26840 net.cpp:166] Memory required for data: 426240032
I0609 09:33:26.088740 26840 layer_factory.hpp:77] Creating layer conv2_1
I0609 09:33:26.088754 26840 net.cpp:100] Creating Layer conv2_1
I0609 09:33:26.088760 26840 net.cpp:435] conv2_1 <- pool1
I0609 09:33:26.088770 26840 net.cpp:409] conv2_1 -> conv2_1
I0609 09:33:26.088780 26840 layer.hpp:71] 
I0609 09:33:26.092198 26840 net.cpp:151] Setting up conv2_1
I0609 09:33:26.092221 26840 net.cpp:158] Top shape: 4 128 150 150 (11520000)
I0609 09:33:26.092227 26840 net.cpp:166] Memory required for data: 472320032
I0609 09:33:26.092267 26840 layer_factory.hpp:77] Creating layer relu2_1
I0609 09:33:26.092283 26840 net.cpp:100] Creating Layer relu2_1
I0609 09:33:26.092290 26840 net.cpp:435] relu2_1 <- conv2_1
I0609 09:33:26.092299 26840 net.cpp:396] relu2_1 -> conv2_1 (in-place)
I0609 09:33:26.092308 26840 layer.hpp:71] 
I0609 09:33:26.093701 26840 net.cpp:151] Setting up relu2_1
I0609 09:33:26.093719 26840 net.cpp:158] Top shape: 4 128 150 150 (11520000)
I0609 09:33:26.093724 26840 net.cpp:166] Memory required for data: 518400032
I0609 09:33:26.093730 26840 layer_factory.hpp:77] Creating layer conv2_2
I0609 09:33:26.093745 26840 net.cpp:100] Creating Layer conv2_2
I0609 09:33:26.093752 26840 net.cpp:435] conv2_2 <- conv2_1
I0609 09:33:26.093763 26840 net.cpp:409] conv2_2 -> conv2_2
I0609 09:33:26.093775 26840 layer.hpp:71] 
I0609 09:33:26.098778 26840 net.cpp:151] Setting up conv2_2
I0609 09:33:26.098805 26840 net.cpp:158] Top shape: 4 128 150 150 (11520000)
I0609 09:33:26.098811 26840 net.cpp:166] Memory required for data: 564480032
I0609 09:33:26.098822 26840 layer_factory.hpp:77] Creating layer relu2_2
I0609 09:33:26.098832 26840 net.cpp:100] Creating Layer relu2_2
I0609 09:33:26.098840 26840 net.cpp:435] relu2_2 <- conv2_2
I0609 09:33:26.098852 26840 net.cpp:396] relu2_2 -> conv2_2 (in-place)
I0609 09:33:26.098862 26840 layer.hpp:71] 
I0609 09:33:26.099159 26840 net.cpp:151] Setting up relu2_2
I0609 09:33:26.099172 26840 net.cpp:158] Top shape: 4 128 150 150 (11520000)
I0609 09:33:26.099177 26840 net.cpp:166] Memory required for data: 610560032
I0609 09:33:26.099184 26840 layer_factory.hpp:77] Creating layer pool2
I0609 09:33:26.099195 26840 net.cpp:100] Creating Layer pool2
I0609 09:33:26.099201 26840 net.cpp:435] pool2 <- conv2_2
I0609 09:33:26.099210 26840 net.cpp:409] pool2 -> pool2
I0609 09:33:26.099221 26840 layer.hpp:71] 
I0609 09:33:26.099305 26840 net.cpp:151] Setting up pool2
I0609 09:33:26.099316 26840 net.cpp:158] Top shape: 4 128 75 75 (2880000)
I0609 09:33:26.099321 26840 net.cpp:166] Memory required for data: 622080032
I0609 09:33:26.099326 26840 layer_factory.hpp:77] Creating layer conv3_1
I0609 09:33:26.099340 26840 net.cpp:100] Creating Layer conv3_1
I0609 09:33:26.099349 26840 net.cpp:435] conv3_1 <- pool2
I0609 09:33:26.099359 26840 net.cpp:409] conv3_1 -> conv3_1
I0609 09:33:26.099369 26840 layer.hpp:71] 
I0609 09:33:26.106135 26840 net.cpp:151] Setting up conv3_1
I0609 09:33:26.106176 26840 net.cpp:158] Top shape: 4 256 75 75 (5760000)
I0609 09:33:26.106181 26840 net.cpp:166] Memory required for data: 645120032
I0609 09:33:26.106200 26840 layer_factory.hpp:77] Creating layer relu3_1
I0609 09:33:26.106216 26840 net.cpp:100] Creating Layer relu3_1
I0609 09:33:26.106225 26840 net.cpp:435] relu3_1 <- conv3_1
I0609 09:33:26.106235 26840 net.cpp:396] relu3_1 -> conv3_1 (in-place)
I0609 09:33:26.106246 26840 layer.hpp:71] 
I0609 09:33:26.107110 26840 net.cpp:151] Setting up relu3_1
I0609 09:33:26.107127 26840 net.cpp:158] Top shape: 4 256 75 75 (5760000)
I0609 09:33:26.107132 26840 net.cpp:166] Memory required for data: 668160032
I0609 09:33:26.107138 26840 layer_factory.hpp:77] Creating layer conv3_2
I0609 09:33:26.107158 26840 net.cpp:100] Creating Layer conv3_2
I0609 09:33:26.107165 26840 net.cpp:435] conv3_2 <- conv3_1
I0609 09:33:26.107174 26840 net.cpp:409] conv3_2 -> conv3_2
I0609 09:33:26.107193 26840 layer.hpp:71] 
I0609 09:33:26.117985 26840 net.cpp:151] Setting up conv3_2
I0609 09:33:26.118023 26840 net.cpp:158] Top shape: 4 256 75 75 (5760000)
I0609 09:33:26.118029 26840 net.cpp:166] Memory required for data: 691200032
I0609 09:33:26.118043 26840 layer_factory.hpp:77] Creating layer relu3_2
I0609 09:33:26.118057 26840 net.cpp:100] Creating Layer relu3_2
I0609 09:33:26.118064 26840 net.cpp:435] relu3_2 <- conv3_2
I0609 09:33:26.118077 26840 net.cpp:396] relu3_2 -> conv3_2 (in-place)
I0609 09:33:26.118089 26840 layer.hpp:71] 
I0609 09:33:26.118412 26840 net.cpp:151] Setting up relu3_2
I0609 09:33:26.118427 26840 net.cpp:158] Top shape: 4 256 75 75 (5760000)
I0609 09:33:26.118432 26840 net.cpp:166] Memory required for data: 714240032
I0609 09:33:26.118469 26840 layer_factory.hpp:77] Creating layer conv3_3
I0609 09:33:26.118496 26840 net.cpp:100] Creating Layer conv3_3
I0609 09:33:26.118505 26840 net.cpp:435] conv3_3 <- conv3_2
I0609 09:33:26.118520 26840 net.cpp:409] conv3_3 -> conv3_3
I0609 09:33:26.118540 26840 layer.hpp:71] 
I0609 09:33:26.129463 26840 net.cpp:151] Setting up conv3_3
I0609 09:33:26.129515 26840 net.cpp:158] Top shape: 4 256 75 75 (5760000)
I0609 09:33:26.129523 26840 net.cpp:166] Memory required for data: 737280032
I0609 09:33:26.129537 26840 layer_factory.hpp:77] Creating layer relu3_3
I0609 09:33:26.129554 26840 net.cpp:100] Creating Layer relu3_3
I0609 09:33:26.129562 26840 net.cpp:435] relu3_3 <- conv3_3
I0609 09:33:26.129573 26840 net.cpp:396] relu3_3 -> conv3_3 (in-place)
I0609 09:33:26.129593 26840 layer.hpp:71] 
I0609 09:33:26.130522 26840 net.cpp:151] Setting up relu3_3
I0609 09:33:26.130553 26840 net.cpp:158] Top shape: 4 256 75 75 (5760000)
I0609 09:33:26.130558 26840 net.cpp:166] Memory required for data: 760320032
I0609 09:33:26.130564 26840 layer_factory.hpp:77] Creating layer pool3
I0609 09:33:26.130579 26840 net.cpp:100] Creating Layer pool3
I0609 09:33:26.130587 26840 net.cpp:435] pool3 <- conv3_3
I0609 09:33:26.130599 26840 net.cpp:409] pool3 -> pool3
I0609 09:33:26.130623 26840 layer.hpp:71] 
I0609 09:33:26.130708 26840 net.cpp:151] Setting up pool3
I0609 09:33:26.130726 26840 net.cpp:158] Top shape: 4 256 38 38 (1478656)
I0609 09:33:26.130731 26840 net.cpp:166] Memory required for data: 766234656
I0609 09:33:26.130736 26840 layer_factory.hpp:77] Creating layer conv4_1
I0609 09:33:26.130754 26840 net.cpp:100] Creating Layer conv4_1
I0609 09:33:26.130769 26840 net.cpp:435] conv4_1 <- pool3
I0609 09:33:26.130780 26840 net.cpp:409] conv4_1 -> conv4_1
I0609 09:33:26.130792 26840 layer.hpp:71] 
I0609 09:33:26.150208 26840 net.cpp:151] Setting up conv4_1
I0609 09:33:26.150259 26840 net.cpp:158] Top shape: 4 512 38 38 (2957312)
I0609 09:33:26.150264 26840 net.cpp:166] Memory required for data: 778063904
I0609 09:33:26.150279 26840 layer_factory.hpp:77] Creating layer relu4_1
I0609 09:33:26.150293 26840 net.cpp:100] Creating Layer relu4_1
I0609 09:33:26.150302 26840 net.cpp:435] relu4_1 <- conv4_1
I0609 09:33:26.150316 26840 net.cpp:396] relu4_1 -> conv4_1 (in-place)
I0609 09:33:26.150329 26840 layer.hpp:71] 
I0609 09:33:26.151250 26840 net.cpp:151] Setting up relu4_1
I0609 09:33:26.151281 26840 net.cpp:158] Top shape: 4 512 38 38 (2957312)
I0609 09:33:26.151288 26840 net.cpp:166] Memory required for data: 789893152
I0609 09:33:26.151293 26840 layer_factory.hpp:77] Creating layer conv4_2
I0609 09:33:26.151314 26840 net.cpp:100] Creating Layer conv4_2
I0609 09:33:26.151322 26840 net.cpp:435] conv4_2 <- conv4_1
I0609 09:33:26.151335 26840 net.cpp:409] conv4_2 -> conv4_2
I0609 09:33:26.151357 26840 layer.hpp:71] 
I0609 09:33:26.186125 26840 net.cpp:151] Setting up conv4_2
I0609 09:33:26.186192 26840 net.cpp:158] Top shape: 4 512 38 38 (2957312)
I0609 09:33:26.186198 26840 net.cpp:166] Memory required for data: 801722400
I0609 09:33:26.186223 26840 layer_factory.hpp:77] Creating layer relu4_2
I0609 09:33:26.186241 26840 net.cpp:100] Creating Layer relu4_2
I0609 09:33:26.186250 26840 net.cpp:435] relu4_2 <- conv4_2
I0609 09:33:26.186264 26840 net.cpp:396] relu4_2 -> conv4_2 (in-place)
I0609 09:33:26.186276 26840 layer.hpp:71] 
I0609 09:33:26.186573 26840 net.cpp:151] Setting up relu4_2
I0609 09:33:26.186596 26840 net.cpp:158] Top shape: 4 512 38 38 (2957312)
I0609 09:33:26.186602 26840 net.cpp:166] Memory required for data: 813551648
I0609 09:33:26.186607 26840 layer_factory.hpp:77] Creating layer conv4_3
I0609 09:33:26.186626 26840 net.cpp:100] Creating Layer conv4_3
I0609 09:33:26.186640 26840 net.cpp:435] conv4_3 <- conv4_2
I0609 09:33:26.186652 26840 net.cpp:409] conv4_3 -> conv4_3
I0609 09:33:26.186666 26840 layer.hpp:71] 
I0609 09:33:26.222185 26840 net.cpp:151] Setting up conv4_3
I0609 09:33:26.222237 26840 net.cpp:158] Top shape: 4 512 38 38 (2957312)
I0609 09:33:26.222244 26840 net.cpp:166] Memory required for data: 825380896
I0609 09:33:26.222291 26840 layer_factory.hpp:77] Creating layer relu4_3
I0609 09:33:26.222309 26840 net.cpp:100] Creating Layer relu4_3
I0609 09:33:26.222322 26840 net.cpp:435] relu4_3 <- conv4_3
I0609 09:33:26.222334 26840 net.cpp:396] relu4_3 -> conv4_3 (in-place)
I0609 09:33:26.222349 26840 layer.hpp:71] 
I0609 09:33:26.223228 26840 net.cpp:151] Setting up relu4_3
I0609 09:33:26.223256 26840 net.cpp:158] Top shape: 4 512 38 38 (2957312)
I0609 09:33:26.223263 26840 net.cpp:166] Memory required for data: 837210144
I0609 09:33:26.223268 26840 layer_factory.hpp:77] Creating layer conv4_3_relu4_3_0_split
I0609 09:33:26.223281 26840 net.cpp:100] Creating Layer conv4_3_relu4_3_0_split
I0609 09:33:26.223289 26840 net.cpp:435] conv4_3_relu4_3_0_split <- conv4_3
I0609 09:33:26.223299 26840 net.cpp:409] conv4_3_relu4_3_0_split -> conv4_3_relu4_3_0_split_0
I0609 09:33:26.223310 26840 net.cpp:409] conv4_3_relu4_3_0_split -> conv4_3_relu4_3_0_split_1
I0609 09:33:26.223320 26840 layer.hpp:71] 
I0609 09:33:26.223410 26840 net.cpp:151] Setting up conv4_3_relu4_3_0_split
I0609 09:33:26.223431 26840 net.cpp:158] Top shape: 4 512 38 38 (2957312)
I0609 09:33:26.223438 26840 net.cpp:158] Top shape: 4 512 38 38 (2957312)
I0609 09:33:26.223443 26840 net.cpp:166] Memory required for data: 860868640
I0609 09:33:26.223450 26840 layer_factory.hpp:77] Creating layer pool4
I0609 09:33:26.223460 26840 net.cpp:100] Creating Layer pool4
I0609 09:33:26.223465 26840 net.cpp:435] pool4 <- conv4_3_relu4_3_0_split_0
I0609 09:33:26.223475 26840 net.cpp:409] pool4 -> pool4
I0609 09:33:26.223487 26840 layer.hpp:71] 
I0609 09:33:26.223567 26840 net.cpp:151] Setting up pool4
I0609 09:33:26.223582 26840 net.cpp:158] Top shape: 4 512 19 19 (739328)
I0609 09:33:26.223587 26840 net.cpp:166] Memory required for data: 863825952
I0609 09:33:26.223593 26840 layer_factory.hpp:77] Creating layer conv5_1
I0609 09:33:26.223613 26840 net.cpp:100] Creating Layer conv5_1
I0609 09:33:26.223624 26840 net.cpp:435] conv5_1 <- pool4
I0609 09:33:26.223634 26840 net.cpp:409] conv5_1 -> conv5_1
I0609 09:33:26.223645 26840 layer.hpp:71] 
I0609 09:33:26.258038 26840 net.cpp:151] Setting up conv5_1
I0609 09:33:26.258108 26840 net.cpp:158] Top shape: 4 512 19 19 (739328)
I0609 09:33:26.258116 26840 net.cpp:166] Memory required for data: 866783264
I0609 09:33:26.258131 26840 layer_factory.hpp:77] Creating layer relu5_1
I0609 09:33:26.258149 26840 net.cpp:100] Creating Layer relu5_1
I0609 09:33:26.258157 26840 net.cpp:435] relu5_1 <- conv5_1
I0609 09:33:26.258167 26840 net.cpp:396] relu5_1 -> conv5_1 (in-place)
I0609 09:33:26.258182 26840 layer.hpp:71] 
I0609 09:33:26.258483 26840 net.cpp:151] Setting up relu5_1
I0609 09:33:26.258504 26840 net.cpp:158] Top shape: 4 512 19 19 (739328)
I0609 09:33:26.258510 26840 net.cpp:166] Memory required for data: 869740576
I0609 09:33:26.258517 26840 layer_factory.hpp:77] Creating layer conv5_2
I0609 09:33:26.258538 26840 net.cpp:100] Creating Layer conv5_2
I0609 09:33:26.258549 26840 net.cpp:435] conv5_2 <- conv5_1
I0609 09:33:26.258560 26840 net.cpp:409] conv5_2 -> conv5_2
I0609 09:33:26.258574 26840 layer.hpp:71] 
I0609 09:33:26.284431 26840 net.cpp:151] Setting up conv5_2
I0609 09:33:26.284487 26840 net.cpp:158] Top shape: 4 512 19 19 (739328)
I0609 09:33:26.284492 26840 net.cpp:166] Memory required for data: 872697888
I0609 09:33:26.284502 26840 layer_factory.hpp:77] Creating layer relu5_2
I0609 09:33:26.284513 26840 net.cpp:100] Creating Layer relu5_2
I0609 09:33:26.284518 26840 net.cpp:435] relu5_2 <- conv5_2
I0609 09:33:26.284528 26840 net.cpp:396] relu5_2 -> conv5_2 (in-place)
I0609 09:33:26.284538 26840 layer.hpp:71] 
I0609 09:33:26.285204 26840 net.cpp:151] Setting up relu5_2
I0609 09:33:26.285238 26840 net.cpp:158] Top shape: 4 512 19 19 (739328)
I0609 09:33:26.285243 26840 net.cpp:166] Memory required for data: 875655200
I0609 09:33:26.285246 26840 layer_factory.hpp:77] Creating layer conv5_3
I0609 09:33:26.285262 26840 net.cpp:100] Creating Layer conv5_3
I0609 09:33:26.285267 26840 net.cpp:435] conv5_3 <- conv5_2
I0609 09:33:26.285300 26840 net.cpp:409] conv5_3 -> conv5_3
I0609 09:33:26.285311 26840 layer.hpp:71] 
I0609 09:33:26.305570 26840 net.cpp:151] Setting up conv5_3
I0609 09:33:26.305625 26840 net.cpp:158] Top shape: 4 512 19 19 (739328)
I0609 09:33:26.305630 26840 net.cpp:166] Memory required for data: 878612512
I0609 09:33:26.305642 26840 layer_factory.hpp:77] Creating layer relu5_3
I0609 09:33:26.305667 26840 net.cpp:100] Creating Layer relu5_3
I0609 09:33:26.305672 26840 net.cpp:435] relu5_3 <- conv5_3
I0609 09:33:26.305680 26840 net.cpp:396] relu5_3 -> conv5_3 (in-place)
I0609 09:33:26.305691 26840 layer.hpp:71] 
I0609 09:33:26.306380 26840 net.cpp:151] Setting up relu5_3
I0609 09:33:26.306401 26840 net.cpp:158] Top shape: 4 512 19 19 (739328)
I0609 09:33:26.306404 26840 net.cpp:166] Memory required for data: 881569824
I0609 09:33:26.306409 26840 layer_factory.hpp:77] Creating layer pool5
I0609 09:33:26.306419 26840 net.cpp:100] Creating Layer pool5
I0609 09:33:26.306423 26840 net.cpp:435] pool5 <- conv5_3
I0609 09:33:26.306429 26840 net.cpp:409] pool5 -> pool5
I0609 09:33:26.306437 26840 layer.hpp:71] 
I0609 09:33:26.306504 26840 net.cpp:151] Setting up pool5
I0609 09:33:26.306516 26840 net.cpp:158] Top shape: 4 512 19 19 (739328)
I0609 09:33:26.306520 26840 net.cpp:166] Memory required for data: 884527136
I0609 09:33:26.306524 26840 layer_factory.hpp:77] Creating layer fc6
I0609 09:33:26.306538 26840 net.cpp:100] Creating Layer fc6
I0609 09:33:26.306542 26840 net.cpp:435] fc6 <- pool5
I0609 09:33:26.306550 26840 net.cpp:409] fc6 -> fc6
I0609 09:33:26.306557 26840 layer.hpp:71] 
I0609 09:33:26.344434 26840 net.cpp:151] Setting up fc6
I0609 09:33:26.344490 26840 net.cpp:158] Top shape: 4 1024 19 19 (1478656)
I0609 09:33:26.344494 26840 net.cpp:166] Memory required for data: 890441760
I0609 09:33:26.344506 26840 layer_factory.hpp:77] Creating layer relu6
I0609 09:33:26.344517 26840 net.cpp:100] Creating Layer relu6
I0609 09:33:26.344522 26840 net.cpp:435] relu6 <- fc6
I0609 09:33:26.344532 26840 net.cpp:396] relu6 -> fc6 (in-place)
I0609 09:33:26.344543 26840 layer.hpp:71] 
I0609 09:33:26.344844 26840 net.cpp:151] Setting up relu6
I0609 09:33:26.344859 26840 net.cpp:158] Top shape: 4 1024 19 19 (1478656)
I0609 09:33:26.344863 26840 net.cpp:166] Memory required for data: 896356384
I0609 09:33:26.344868 26840 layer_factory.hpp:77] Creating layer fc7
I0609 09:33:26.344880 26840 net.cpp:100] Creating Layer fc7
I0609 09:33:26.344884 26840 net.cpp:435] fc7 <- fc6
I0609 09:33:26.344892 26840 net.cpp:409] fc7 -> fc7
I0609 09:33:26.344902 26840 layer.hpp:71] 
I0609 09:33:26.354984 26840 net.cpp:151] Setting up fc7
I0609 09:33:26.355037 26840 net.cpp:158] Top shape: 4 1024 19 19 (1478656)
I0609 09:33:26.355041 26840 net.cpp:166] Memory required for data: 902271008
I0609 09:33:26.355054 26840 layer_factory.hpp:77] Creating layer relu7
I0609 09:33:26.355067 26840 net.cpp:100] Creating Layer relu7
I0609 09:33:26.355072 26840 net.cpp:435] relu7 <- fc7
I0609 09:33:26.355082 26840 net.cpp:396] relu7 -> fc7 (in-place)
I0609 09:33:26.355093 26840 layer.hpp:71] 
I0609 09:33:26.355787 26840 net.cpp:151] Setting up relu7
I0609 09:33:26.355806 26840 net.cpp:158] Top shape: 4 1024 19 19 (1478656)
I0609 09:33:26.355810 26840 net.cpp:166] Memory required for data: 908185632
I0609 09:33:26.355814 26840 layer_factory.hpp:77] Creating layer fc7_relu7_0_split
I0609 09:33:26.355824 26840 net.cpp:100] Creating Layer fc7_relu7_0_split
I0609 09:33:26.355829 26840 net.cpp:435] fc7_relu7_0_split <- fc7
I0609 09:33:26.355835 26840 net.cpp:409] fc7_relu7_0_split -> fc7_relu7_0_split_0
I0609 09:33:26.355845 26840 net.cpp:409] fc7_relu7_0_split -> fc7_relu7_0_split_1
I0609 09:33:26.355860 26840 net.cpp:409] fc7_relu7_0_split -> fc7_relu7_0_split_2
I0609 09:33:26.355866 26840 net.cpp:409] fc7_relu7_0_split -> fc7_relu7_0_split_3
I0609 09:33:26.355872 26840 layer.hpp:71] 
I0609 09:33:26.355973 26840 net.cpp:151] Setting up fc7_relu7_0_split
I0609 09:33:26.355986 26840 net.cpp:158] Top shape: 4 1024 19 19 (1478656)
I0609 09:33:26.355991 26840 net.cpp:158] Top shape: 4 1024 19 19 (1478656)
I0609 09:33:26.356015 26840 net.cpp:158] Top shape: 4 1024 19 19 (1478656)
I0609 09:33:26.356020 26840 net.cpp:158] Top shape: 4 1024 19 19 (1478656)
I0609 09:33:26.356024 26840 net.cpp:166] Memory required for data: 931844128
I0609 09:33:26.356026 26840 layer_factory.hpp:77] Creating layer conv6_1
I0609 09:33:26.356043 26840 net.cpp:100] Creating Layer conv6_1
I0609 09:33:26.356048 26840 net.cpp:435] conv6_1 <- fc7_relu7_0_split_0
I0609 09:33:26.356055 26840 net.cpp:409] conv6_1 -> conv6_1
I0609 09:33:26.356062 26840 layer.hpp:71] 
I0609 09:33:26.360381 26840 net.cpp:151] Setting up conv6_1
I0609 09:33:26.360436 26840 net.cpp:158] Top shape: 4 256 19 19 (369664)
I0609 09:33:26.360441 26840 net.cpp:166] Memory required for data: 933322784
I0609 09:33:26.360453 26840 layer_factory.hpp:77] Creating layer conv6_1_relu
I0609 09:33:26.360466 26840 net.cpp:100] Creating Layer conv6_1_relu
I0609 09:33:26.360471 26840 net.cpp:435] conv6_1_relu <- conv6_1
I0609 09:33:26.360481 26840 net.cpp:396] conv6_1_relu -> conv6_1 (in-place)
I0609 09:33:26.360491 26840 layer.hpp:71] 
I0609 09:33:26.360713 26840 net.cpp:151] Setting up conv6_1_relu
I0609 09:33:26.360729 26840 net.cpp:158] Top shape: 4 256 19 19 (369664)
I0609 09:33:26.360733 26840 net.cpp:166] Memory required for data: 934801440
I0609 09:33:26.360736 26840 layer_factory.hpp:77] Creating layer conv6_2
I0609 09:33:26.360752 26840 net.cpp:100] Creating Layer conv6_2
I0609 09:33:26.360757 26840 net.cpp:435] conv6_2 <- conv6_1
I0609 09:33:26.360764 26840 net.cpp:409] conv6_2 -> conv6_2
I0609 09:33:26.360771 26840 layer.hpp:71] 
I0609 09:33:26.372436 26840 net.cpp:151] Setting up conv6_2
I0609 09:33:26.372490 26840 net.cpp:158] Top shape: 4 512 10 10 (204800)
I0609 09:33:26.372494 26840 net.cpp:166] Memory required for data: 935620640
I0609 09:33:26.372516 26840 layer_factory.hpp:77] Creating layer conv6_2_relu
I0609 09:33:26.372529 26840 net.cpp:100] Creating Layer conv6_2_relu
I0609 09:33:26.372534 26840 net.cpp:435] conv6_2_relu <- conv6_2
I0609 09:33:26.372544 26840 net.cpp:396] conv6_2_relu -> conv6_2 (in-place)
I0609 09:33:26.372552 26840 layer.hpp:71] 
I0609 09:33:26.373231 26840 net.cpp:151] Setting up conv6_2_relu
I0609 09:33:26.373250 26840 net.cpp:158] Top shape: 4 512 10 10 (204800)
I0609 09:33:26.373255 26840 net.cpp:166] Memory required for data: 936439840
I0609 09:33:26.373260 26840 layer_factory.hpp:77] Creating layer conv6_2_conv6_2_relu_0_split
I0609 09:33:26.373266 26840 net.cpp:100] Creating Layer conv6_2_conv6_2_relu_0_split
I0609 09:33:26.373270 26840 net.cpp:435] conv6_2_conv6_2_relu_0_split <- conv6_2
I0609 09:33:26.373280 26840 net.cpp:409] conv6_2_conv6_2_relu_0_split -> conv6_2_conv6_2_relu_0_split_0
I0609 09:33:26.373289 26840 net.cpp:409] conv6_2_conv6_2_relu_0_split -> conv6_2_conv6_2_relu_0_split_1
I0609 09:33:26.373296 26840 net.cpp:409] conv6_2_conv6_2_relu_0_split -> conv6_2_conv6_2_relu_0_split_2
I0609 09:33:26.373302 26840 net.cpp:409] conv6_2_conv6_2_relu_0_split -> conv6_2_conv6_2_relu_0_split_3
I0609 09:33:26.373308 26840 layer.hpp:71] 
I0609 09:33:26.373407 26840 net.cpp:151] Setting up conv6_2_conv6_2_relu_0_split
I0609 09:33:26.373420 26840 net.cpp:158] Top shape: 4 512 10 10 (204800)
I0609 09:33:26.373425 26840 net.cpp:158] Top shape: 4 512 10 10 (204800)
I0609 09:33:26.373428 26840 net.cpp:158] Top shape: 4 512 10 10 (204800)
I0609 09:33:26.373432 26840 net.cpp:158] Top shape: 4 512 10 10 (204800)
I0609 09:33:26.373435 26840 net.cpp:166] Memory required for data: 939716640
I0609 09:33:26.373440 26840 layer_factory.hpp:77] Creating layer conv7_1
I0609 09:33:26.373452 26840 net.cpp:100] Creating Layer conv7_1
I0609 09:33:26.373456 26840 net.cpp:435] conv7_1 <- conv6_2_conv6_2_relu_0_split_0
I0609 09:33:26.373464 26840 net.cpp:409] conv7_1 -> conv7_1
I0609 09:33:26.373472 26840 layer.hpp:71] 
I0609 09:33:26.375846 26840 net.cpp:151] Setting up conv7_1
I0609 09:33:26.375872 26840 net.cpp:158] Top shape: 4 128 10 10 (51200)
I0609 09:33:26.375876 26840 net.cpp:166] Memory required for data: 939921440
I0609 09:33:26.375903 26840 layer_factory.hpp:77] Creating layer conv7_1_relu
I0609 09:33:26.375910 26840 net.cpp:100] Creating Layer conv7_1_relu
I0609 09:33:26.375915 26840 net.cpp:435] conv7_1_relu <- conv7_1
I0609 09:33:26.375919 26840 net.cpp:396] conv7_1_relu -> conv7_1 (in-place)
I0609 09:33:26.375926 26840 layer.hpp:71] 
I0609 09:33:26.376607 26840 net.cpp:151] Setting up conv7_1_relu
I0609 09:33:26.376627 26840 net.cpp:158] Top shape: 4 128 10 10 (51200)
I0609 09:33:26.376631 26840 net.cpp:166] Memory required for data: 940126240
I0609 09:33:26.376636 26840 layer_factory.hpp:77] Creating layer conv7_2
I0609 09:33:26.376646 26840 net.cpp:100] Creating Layer conv7_2
I0609 09:33:26.376652 26840 net.cpp:435] conv7_2 <- conv7_1
I0609 09:33:26.376659 26840 net.cpp:409] conv7_2 -> conv7_2
I0609 09:33:26.376668 26840 layer.hpp:71] 
I0609 09:33:26.380873 26840 net.cpp:151] Setting up conv7_2
I0609 09:33:26.380903 26840 net.cpp:158] Top shape: 4 256 5 5 (25600)
I0609 09:33:26.380908 26840 net.cpp:166] Memory required for data: 940228640
I0609 09:33:26.380915 26840 layer_factory.hpp:77] Creating layer conv7_2_relu
I0609 09:33:26.380923 26840 net.cpp:100] Creating Layer conv7_2_relu
I0609 09:33:26.380928 26840 net.cpp:435] conv7_2_relu <- conv7_2
I0609 09:33:26.380934 26840 net.cpp:396] conv7_2_relu -> conv7_2 (in-place)
I0609 09:33:26.380942 26840 layer.hpp:71] 
I0609 09:33:26.381170 26840 net.cpp:151] Setting up conv7_2_relu
I0609 09:33:26.381188 26840 net.cpp:158] Top shape: 4 256 5 5 (25600)
I0609 09:33:26.381191 26840 net.cpp:166] Memory required for data: 940331040
I0609 09:33:26.381196 26840 layer_factory.hpp:77] Creating layer conv7_2_conv7_2_relu_0_split
I0609 09:33:26.381202 26840 net.cpp:100] Creating Layer conv7_2_conv7_2_relu_0_split
I0609 09:33:26.381206 26840 net.cpp:435] conv7_2_conv7_2_relu_0_split <- conv7_2
I0609 09:33:26.381213 26840 net.cpp:409] conv7_2_conv7_2_relu_0_split -> conv7_2_conv7_2_relu_0_split_0
I0609 09:33:26.381222 26840 net.cpp:409] conv7_2_conv7_2_relu_0_split -> conv7_2_conv7_2_relu_0_split_1
I0609 09:33:26.381228 26840 net.cpp:409] conv7_2_conv7_2_relu_0_split -> conv7_2_conv7_2_relu_0_split_2
I0609 09:33:26.381235 26840 net.cpp:409] conv7_2_conv7_2_relu_0_split -> conv7_2_conv7_2_relu_0_split_3
I0609 09:33:26.381242 26840 layer.hpp:71] 
I0609 09:33:26.381345 26840 net.cpp:151] Setting up conv7_2_conv7_2_relu_0_split
I0609 09:33:26.381356 26840 net.cpp:158] Top shape: 4 256 5 5 (25600)
I0609 09:33:26.381361 26840 net.cpp:158] Top shape: 4 256 5 5 (25600)
I0609 09:33:26.381363 26840 net.cpp:158] Top shape: 4 256 5 5 (25600)
I0609 09:33:26.381368 26840 net.cpp:158] Top shape: 4 256 5 5 (25600)
I0609 09:33:26.381371 26840 net.cpp:166] Memory required for data: 940740640
I0609 09:33:26.381374 26840 layer_factory.hpp:77] Creating layer conv8_1
I0609 09:33:26.381389 26840 net.cpp:100] Creating Layer conv8_1
I0609 09:33:26.381394 26840 net.cpp:435] conv8_1 <- conv7_2_conv7_2_relu_0_split_0
I0609 09:33:26.381402 26840 net.cpp:409] conv8_1 -> conv8_1
I0609 09:33:26.381409 26840 layer.hpp:71] 
I0609 09:33:26.383606 26840 net.cpp:151] Setting up conv8_1
I0609 09:33:26.383630 26840 net.cpp:158] Top shape: 4 128 5 5 (12800)
I0609 09:33:26.383633 26840 net.cpp:166] Memory required for data: 940791840
I0609 09:33:26.383641 26840 layer_factory.hpp:77] Creating layer conv8_1_relu
I0609 09:33:26.383647 26840 net.cpp:100] Creating Layer conv8_1_relu
I0609 09:33:26.383652 26840 net.cpp:435] conv8_1_relu <- conv8_1
I0609 09:33:26.383659 26840 net.cpp:396] conv8_1_relu -> conv8_1 (in-place)
I0609 09:33:26.383666 26840 layer.hpp:71] 
I0609 09:33:26.384335 26840 net.cpp:151] Setting up conv8_1_relu
I0609 09:33:26.384356 26840 net.cpp:158] Top shape: 4 128 5 5 (12800)
I0609 09:33:26.384358 26840 net.cpp:166] Memory required for data: 940843040
I0609 09:33:26.384362 26840 layer_factory.hpp:77] Creating layer conv8_2
I0609 09:33:26.384373 26840 net.cpp:100] Creating Layer conv8_2
I0609 09:33:26.384378 26840 net.cpp:435] conv8_2 <- conv8_1
I0609 09:33:26.384387 26840 net.cpp:409] conv8_2 -> conv8_2
I0609 09:33:26.384418 26840 layer.hpp:71] 
I0609 09:33:26.388689 26840 net.cpp:151] Setting up conv8_2
I0609 09:33:26.388720 26840 net.cpp:158] Top shape: 4 256 3 3 (9216)
I0609 09:33:26.388725 26840 net.cpp:166] Memory required for data: 940879904
I0609 09:33:26.388734 26840 layer_factory.hpp:77] Creating layer conv8_2_relu
I0609 09:33:26.388742 26840 net.cpp:100] Creating Layer conv8_2_relu
I0609 09:33:26.388747 26840 net.cpp:435] conv8_2_relu <- conv8_2
I0609 09:33:26.388756 26840 net.cpp:396] conv8_2_relu -> conv8_2 (in-place)
I0609 09:33:26.388764 26840 layer.hpp:71] 
I0609 09:33:26.388983 26840 net.cpp:151] Setting up conv8_2_relu
I0609 09:33:26.388999 26840 net.cpp:158] Top shape: 4 256 3 3 (9216)
I0609 09:33:26.389003 26840 net.cpp:166] Memory required for data: 940916768
I0609 09:33:26.389006 26840 layer_factory.hpp:77] Creating layer conv8_2_conv8_2_relu_0_split
I0609 09:33:26.389015 26840 net.cpp:100] Creating Layer conv8_2_conv8_2_relu_0_split
I0609 09:33:26.389020 26840 net.cpp:435] conv8_2_conv8_2_relu_0_split <- conv8_2
I0609 09:33:26.389025 26840 net.cpp:409] conv8_2_conv8_2_relu_0_split -> conv8_2_conv8_2_relu_0_split_0
I0609 09:33:26.389034 26840 net.cpp:409] conv8_2_conv8_2_relu_0_split -> conv8_2_conv8_2_relu_0_split_1
I0609 09:33:26.389041 26840 net.cpp:409] conv8_2_conv8_2_relu_0_split -> conv8_2_conv8_2_relu_0_split_2
I0609 09:33:26.389048 26840 net.cpp:409] conv8_2_conv8_2_relu_0_split -> conv8_2_conv8_2_relu_0_split_3
I0609 09:33:26.389053 26840 layer.hpp:71] 
I0609 09:33:26.389158 26840 net.cpp:151] Setting up conv8_2_conv8_2_relu_0_split
I0609 09:33:26.389169 26840 net.cpp:158] Top shape: 4 256 3 3 (9216)
I0609 09:33:26.389174 26840 net.cpp:158] Top shape: 4 256 3 3 (9216)
I0609 09:33:26.389178 26840 net.cpp:158] Top shape: 4 256 3 3 (9216)
I0609 09:33:26.389183 26840 net.cpp:158] Top shape: 4 256 3 3 (9216)
I0609 09:33:26.389185 26840 net.cpp:166] Memory required for data: 941064224
I0609 09:33:26.389189 26840 layer_factory.hpp:77] Creating layer conv9_1
I0609 09:33:26.389201 26840 net.cpp:100] Creating Layer conv9_1
I0609 09:33:26.389206 26840 net.cpp:435] conv9_1 <- conv8_2_conv8_2_relu_0_split_0
I0609 09:33:26.389212 26840 net.cpp:409] conv9_1 -> conv9_1
I0609 09:33:26.389220 26840 layer.hpp:71] 
I0609 09:33:26.391486 26840 net.cpp:151] Setting up conv9_1
I0609 09:33:26.391511 26840 net.cpp:158] Top shape: 4 128 3 3 (4608)
I0609 09:33:26.391515 26840 net.cpp:166] Memory required for data: 941082656
I0609 09:33:26.391523 26840 layer_factory.hpp:77] Creating layer conv9_1_relu
I0609 09:33:26.391532 26840 net.cpp:100] Creating Layer conv9_1_relu
I0609 09:33:26.391536 26840 net.cpp:435] conv9_1_relu <- conv9_1
I0609 09:33:26.391543 26840 net.cpp:396] conv9_1_relu -> conv9_1 (in-place)
I0609 09:33:26.391551 26840 layer.hpp:71] 
I0609 09:33:26.392230 26840 net.cpp:151] Setting up conv9_1_relu
I0609 09:33:26.392248 26840 net.cpp:158] Top shape: 4 128 3 3 (4608)
I0609 09:33:26.392252 26840 net.cpp:166] Memory required for data: 941101088
I0609 09:33:26.392257 26840 layer_factory.hpp:77] Creating layer conv9_2
I0609 09:33:26.392268 26840 net.cpp:100] Creating Layer conv9_2
I0609 09:33:26.392272 26840 net.cpp:435] conv9_2 <- conv9_1
I0609 09:33:26.392282 26840 net.cpp:409] conv9_2 -> conv9_2
I0609 09:33:26.392289 26840 layer.hpp:71] 
I0609 09:33:26.396603 26840 net.cpp:151] Setting up conv9_2
I0609 09:33:26.396637 26840 net.cpp:158] Top shape: 4 256 1 1 (1024)
I0609 09:33:26.396642 26840 net.cpp:166] Memory required for data: 941105184
I0609 09:33:26.396652 26840 layer_factory.hpp:77] Creating layer conv9_2_relu
I0609 09:33:26.396663 26840 net.cpp:100] Creating Layer conv9_2_relu
I0609 09:33:26.396668 26840 net.cpp:435] conv9_2_relu <- conv9_2
I0609 09:33:26.396674 26840 net.cpp:396] conv9_2_relu -> conv9_2 (in-place)
I0609 09:33:26.396682 26840 layer.hpp:71] 
I0609 09:33:26.397378 26840 net.cpp:151] Setting up conv9_2_relu
I0609 09:33:26.397397 26840 net.cpp:158] Top shape: 4 256 1 1 (1024)
I0609 09:33:26.397403 26840 net.cpp:166] Memory required for data: 941109280
I0609 09:33:26.397408 26840 layer_factory.hpp:77] Creating layer conv9_2_conv9_2_relu_0_split
I0609 09:33:26.397434 26840 net.cpp:100] Creating Layer conv9_2_conv9_2_relu_0_split
I0609 09:33:26.397439 26840 net.cpp:435] conv9_2_conv9_2_relu_0_split <- conv9_2
I0609 09:33:26.397446 26840 net.cpp:409] conv9_2_conv9_2_relu_0_split -> conv9_2_conv9_2_relu_0_split_0
I0609 09:33:26.397456 26840 net.cpp:409] conv9_2_conv9_2_relu_0_split -> conv9_2_conv9_2_relu_0_split_1
I0609 09:33:26.397462 26840 net.cpp:409] conv9_2_conv9_2_relu_0_split -> conv9_2_conv9_2_relu_0_split_2
I0609 09:33:26.397469 26840 layer.hpp:71] 
I0609 09:33:26.397554 26840 net.cpp:151] Setting up conv9_2_conv9_2_relu_0_split
I0609 09:33:26.397570 26840 net.cpp:158] Top shape: 4 256 1 1 (1024)
I0609 09:33:26.397575 26840 net.cpp:158] Top shape: 4 256 1 1 (1024)
I0609 09:33:26.397578 26840 net.cpp:158] Top shape: 4 256 1 1 (1024)
I0609 09:33:26.397581 26840 net.cpp:166] Memory required for data: 941121568
I0609 09:33:26.397585 26840 layer_factory.hpp:77] Creating layer conv4_3_norm
I0609 09:33:26.397593 26840 net.cpp:100] Creating Layer conv4_3_norm
I0609 09:33:26.397598 26840 net.cpp:435] conv4_3_norm <- conv4_3_relu4_3_0_split_1
I0609 09:33:26.397604 26840 net.cpp:409] conv4_3_norm -> conv4_3_norm
I0609 09:33:26.397613 26840 layer.hpp:71] 
I0609 09:33:26.397852 26840 net.cpp:151] Setting up conv4_3_norm
I0609 09:33:26.397888 26840 net.cpp:158] Top shape: 4 512 38 38 (2957312)
I0609 09:33:26.397896 26840 net.cpp:166] Memory required for data: 952950816
I0609 09:33:26.397904 26840 layer_factory.hpp:77] Creating layer conv4_3_norm_conv4_3_norm_0_split
I0609 09:33:26.397912 26840 net.cpp:100] Creating Layer conv4_3_norm_conv4_3_norm_0_split
I0609 09:33:26.397917 26840 net.cpp:435] conv4_3_norm_conv4_3_norm_0_split <- conv4_3_norm
I0609 09:33:26.397923 26840 net.cpp:409] conv4_3_norm_conv4_3_norm_0_split -> conv4_3_norm_conv4_3_norm_0_split_0
I0609 09:33:26.397931 26840 net.cpp:409] conv4_3_norm_conv4_3_norm_0_split -> conv4_3_norm_conv4_3_norm_0_split_1
I0609 09:33:26.397938 26840 net.cpp:409] conv4_3_norm_conv4_3_norm_0_split -> conv4_3_norm_conv4_3_norm_0_split_2
I0609 09:33:26.397943 26840 layer.hpp:71] 
I0609 09:33:26.398016 26840 net.cpp:151] Setting up conv4_3_norm_conv4_3_norm_0_split
I0609 09:33:26.398030 26840 net.cpp:158] Top shape: 4 512 38 38 (2957312)
I0609 09:33:26.398033 26840 net.cpp:158] Top shape: 4 512 38 38 (2957312)
I0609 09:33:26.398037 26840 net.cpp:158] Top shape: 4 512 38 38 (2957312)
I0609 09:33:26.398041 26840 net.cpp:166] Memory required for data: 988438560
I0609 09:33:26.398044 26840 layer_factory.hpp:77] Creating layer conv4_3_norm_mbox_loc
I0609 09:33:26.398059 26840 net.cpp:100] Creating Layer conv4_3_norm_mbox_loc
I0609 09:33:26.398063 26840 net.cpp:435] conv4_3_norm_mbox_loc <- conv4_3_norm_conv4_3_norm_0_split_0
I0609 09:33:26.398071 26840 net.cpp:409] conv4_3_norm_mbox_loc -> conv4_3_norm_mbox_loc
I0609 09:33:26.398077 26840 layer.hpp:71] 
I0609 09:33:26.400554 26840 net.cpp:151] Setting up conv4_3_norm_mbox_loc
I0609 09:33:26.400578 26840 net.cpp:158] Top shape: 4 16 38 38 (92416)
I0609 09:33:26.400581 26840 net.cpp:166] Memory required for data: 988808224
I0609 09:33:26.400589 26840 layer_factory.hpp:77] Creating layer conv4_3_norm_mbox_loc_perm
I0609 09:33:26.400599 26840 net.cpp:100] Creating Layer conv4_3_norm_mbox_loc_perm
I0609 09:33:26.400602 26840 net.cpp:435] conv4_3_norm_mbox_loc_perm <- conv4_3_norm_mbox_loc
I0609 09:33:26.400610 26840 net.cpp:409] conv4_3_norm_mbox_loc_perm -> conv4_3_norm_mbox_loc_perm
I0609 09:33:26.400620 26840 layer.hpp:71] 
I0609 09:33:26.400774 26840 net.cpp:151] Setting up conv4_3_norm_mbox_loc_perm
I0609 09:33:26.400785 26840 net.cpp:158] Top shape: 4 38 38 16 (92416)
I0609 09:33:26.400789 26840 net.cpp:166] Memory required for data: 989177888
I0609 09:33:26.400794 26840 layer_factory.hpp:77] Creating layer conv4_3_norm_mbox_loc_flat
I0609 09:33:26.400801 26840 net.cpp:100] Creating Layer conv4_3_norm_mbox_loc_flat
I0609 09:33:26.400805 26840 net.cpp:435] conv4_3_norm_mbox_loc_flat <- conv4_3_norm_mbox_loc_perm
I0609 09:33:26.400825 26840 net.cpp:409] conv4_3_norm_mbox_loc_flat -> conv4_3_norm_mbox_loc_flat
I0609 09:33:26.400849 26840 layer.hpp:71] 
I0609 09:33:26.400892 26840 net.cpp:151] Setting up conv4_3_norm_mbox_loc_flat
I0609 09:33:26.400902 26840 net.cpp:158] Top shape: 4 23104 (92416)
I0609 09:33:26.400905 26840 net.cpp:166] Memory required for data: 989547552
I0609 09:33:26.400909 26840 layer_factory.hpp:77] Creating layer conv4_3_norm_mbox_conf
I0609 09:33:26.400933 26840 net.cpp:100] Creating Layer conv4_3_norm_mbox_conf
I0609 09:33:26.400941 26840 net.cpp:435] conv4_3_norm_mbox_conf <- conv4_3_norm_conv4_3_norm_0_split_1
I0609 09:33:26.400949 26840 net.cpp:409] conv4_3_norm_mbox_conf -> conv4_3_norm_mbox_conf
I0609 09:33:26.400956 26840 layer.hpp:71] 
I0609 09:33:26.403720 26840 net.cpp:151] Setting up conv4_3_norm_mbox_conf
I0609 09:33:26.403748 26840 net.cpp:158] Top shape: 4 8 38 38 (46208)
I0609 09:33:26.403751 26840 net.cpp:166] Memory required for data: 989732384
I0609 09:33:26.403759 26840 layer_factory.hpp:77] Creating layer conv4_3_norm_mbox_conf_perm
I0609 09:33:26.403767 26840 net.cpp:100] Creating Layer conv4_3_norm_mbox_conf_perm
I0609 09:33:26.403771 26840 net.cpp:435] conv4_3_norm_mbox_conf_perm <- conv4_3_norm_mbox_conf
I0609 09:33:26.403780 26840 net.cpp:409] conv4_3_norm_mbox_conf_perm -> conv4_3_norm_mbox_conf_perm
I0609 09:33:26.403789 26840 layer.hpp:71] 
I0609 09:33:26.403946 26840 net.cpp:151] Setting up conv4_3_norm_mbox_conf_perm
I0609 09:33:26.403959 26840 net.cpp:158] Top shape: 4 38 38 8 (46208)
I0609 09:33:26.403962 26840 net.cpp:166] Memory required for data: 989917216
I0609 09:33:26.403966 26840 layer_factory.hpp:77] Creating layer conv4_3_norm_mbox_conf_flat
I0609 09:33:26.403973 26840 net.cpp:100] Creating Layer conv4_3_norm_mbox_conf_flat
I0609 09:33:26.403977 26840 net.cpp:435] conv4_3_norm_mbox_conf_flat <- conv4_3_norm_mbox_conf_perm
I0609 09:33:26.403985 26840 net.cpp:409] conv4_3_norm_mbox_conf_flat -> conv4_3_norm_mbox_conf_flat
I0609 09:33:26.403992 26840 layer.hpp:71] 
I0609 09:33:26.404027 26840 net.cpp:151] Setting up conv4_3_norm_mbox_conf_flat
I0609 09:33:26.404040 26840 net.cpp:158] Top shape: 4 11552 (46208)
I0609 09:33:26.404043 26840 net.cpp:166] Memory required for data: 990102048
I0609 09:33:26.404047 26840 layer_factory.hpp:77] Creating layer conv4_3_norm_mbox_priorbox
I0609 09:33:26.404057 26840 net.cpp:100] Creating Layer conv4_3_norm_mbox_priorbox
I0609 09:33:26.404059 26840 net.cpp:435] conv4_3_norm_mbox_priorbox <- conv4_3_norm_conv4_3_norm_0_split_2
I0609 09:33:26.404065 26840 net.cpp:435] conv4_3_norm_mbox_priorbox <- data_data_0_split_1
I0609 09:33:26.404074 26840 net.cpp:409] conv4_3_norm_mbox_priorbox -> conv4_3_norm_mbox_priorbox
I0609 09:33:26.404081 26840 layer.hpp:71] 
I0609 09:33:26.404120 26840 net.cpp:151] Setting up conv4_3_norm_mbox_priorbox
I0609 09:33:26.404136 26840 net.cpp:158] Top shape: 1 2 23104 (46208)
I0609 09:33:26.404141 26840 net.cpp:166] Memory required for data: 990286880
I0609 09:33:26.404145 26840 layer_factory.hpp:77] Creating layer fc7_mbox_loc
I0609 09:33:26.404155 26840 net.cpp:100] Creating Layer fc7_mbox_loc
I0609 09:33:26.404160 26840 net.cpp:435] fc7_mbox_loc <- fc7_relu7_0_split_1
I0609 09:33:26.404166 26840 net.cpp:409] fc7_mbox_loc -> fc7_mbox_loc
I0609 09:33:26.404173 26840 layer.hpp:71] 
I0609 09:33:26.408128 26840 net.cpp:151] Setting up fc7_mbox_loc
I0609 09:33:26.408165 26840 net.cpp:158] Top shape: 4 24 19 19 (34656)
I0609 09:33:26.408171 26840 net.cpp:166] Memory required for data: 990425504
I0609 09:33:26.408181 26840 layer_factory.hpp:77] Creating layer fc7_mbox_loc_perm
I0609 09:33:26.408190 26840 net.cpp:100] Creating Layer fc7_mbox_loc_perm
I0609 09:33:26.408196 26840 net.cpp:435] fc7_mbox_loc_perm <- fc7_mbox_loc
I0609 09:33:26.408206 26840 net.cpp:409] fc7_mbox_loc_perm -> fc7_mbox_loc_perm
I0609 09:33:26.408216 26840 layer.hpp:71] 
I0609 09:33:26.408372 26840 net.cpp:151] Setting up fc7_mbox_loc_perm
I0609 09:33:26.408385 26840 net.cpp:158] Top shape: 4 19 19 24 (34656)
I0609 09:33:26.408390 26840 net.cpp:166] Memory required for data: 990564128
I0609 09:33:26.408411 26840 layer_factory.hpp:77] Creating layer fc7_mbox_loc_flat
I0609 09:33:26.408418 26840 net.cpp:100] Creating Layer fc7_mbox_loc_flat
I0609 09:33:26.408424 26840 net.cpp:435] fc7_mbox_loc_flat <- fc7_mbox_loc_perm
I0609 09:33:26.408430 26840 net.cpp:409] fc7_mbox_loc_flat -> fc7_mbox_loc_flat
I0609 09:33:26.408437 26840 layer.hpp:71] 
I0609 09:33:26.408475 26840 net.cpp:151] Setting up fc7_mbox_loc_flat
I0609 09:33:26.408486 26840 net.cpp:158] Top shape: 4 8664 (34656)
I0609 09:33:26.408490 26840 net.cpp:166] Memory required for data: 990702752
I0609 09:33:26.408493 26840 layer_factory.hpp:77] Creating layer fc7_mbox_conf
I0609 09:33:26.408509 26840 net.cpp:100] Creating Layer fc7_mbox_conf
I0609 09:33:26.408512 26840 net.cpp:435] fc7_mbox_conf <- fc7_relu7_0_split_2
I0609 09:33:26.408521 26840 net.cpp:409] fc7_mbox_conf -> fc7_mbox_conf
I0609 09:33:26.408529 26840 layer.hpp:71] 
I0609 09:33:26.411859 26840 net.cpp:151] Setting up fc7_mbox_conf
I0609 09:33:26.411890 26840 net.cpp:158] Top shape: 4 12 19 19 (17328)
I0609 09:33:26.411895 26840 net.cpp:166] Memory required for data: 990772064
I0609 09:33:26.411903 26840 layer_factory.hpp:77] Creating layer fc7_mbox_conf_perm
I0609 09:33:26.411912 26840 net.cpp:100] Creating Layer fc7_mbox_conf_perm
I0609 09:33:26.411916 26840 net.cpp:435] fc7_mbox_conf_perm <- fc7_mbox_conf
I0609 09:33:26.411926 26840 net.cpp:409] fc7_mbox_conf_perm -> fc7_mbox_conf_perm
I0609 09:33:26.411936 26840 layer.hpp:71] 
I0609 09:33:26.412117 26840 net.cpp:151] Setting up fc7_mbox_conf_perm
I0609 09:33:26.412132 26840 net.cpp:158] Top shape: 4 19 19 12 (17328)
I0609 09:33:26.412137 26840 net.cpp:166] Memory required for data: 990841376
I0609 09:33:26.412139 26840 layer_factory.hpp:77] Creating layer fc7_mbox_conf_flat
I0609 09:33:26.412147 26840 net.cpp:100] Creating Layer fc7_mbox_conf_flat
I0609 09:33:26.412151 26840 net.cpp:435] fc7_mbox_conf_flat <- fc7_mbox_conf_perm
I0609 09:33:26.412158 26840 net.cpp:409] fc7_mbox_conf_flat -> fc7_mbox_conf_flat
I0609 09:33:26.412165 26840 layer.hpp:71] 
I0609 09:33:26.412200 26840 net.cpp:151] Setting up fc7_mbox_conf_flat
I0609 09:33:26.412210 26840 net.cpp:158] Top shape: 4 4332 (17328)
I0609 09:33:26.412214 26840 net.cpp:166] Memory required for data: 990910688
I0609 09:33:26.412219 26840 layer_factory.hpp:77] Creating layer fc7_mbox_priorbox
I0609 09:33:26.412230 26840 net.cpp:100] Creating Layer fc7_mbox_priorbox
I0609 09:33:26.412235 26840 net.cpp:435] fc7_mbox_priorbox <- fc7_relu7_0_split_3
I0609 09:33:26.412241 26840 net.cpp:435] fc7_mbox_priorbox <- data_data_0_split_2
I0609 09:33:26.412246 26840 net.cpp:409] fc7_mbox_priorbox -> fc7_mbox_priorbox
I0609 09:33:26.412253 26840 layer.hpp:71] 
I0609 09:33:26.412297 26840 net.cpp:151] Setting up fc7_mbox_priorbox
I0609 09:33:26.412309 26840 net.cpp:158] Top shape: 1 2 8664 (17328)
I0609 09:33:26.412312 26840 net.cpp:166] Memory required for data: 990980000
I0609 09:33:26.412315 26840 layer_factory.hpp:77] Creating layer conv6_2_mbox_loc
I0609 09:33:26.412328 26840 net.cpp:100] Creating Layer conv6_2_mbox_loc
I0609 09:33:26.412333 26840 net.cpp:435] conv6_2_mbox_loc <- conv6_2_conv6_2_relu_0_split_1
I0609 09:33:26.412341 26840 net.cpp:409] conv6_2_mbox_loc -> conv6_2_mbox_loc
I0609 09:33:26.412348 26840 layer.hpp:71] 
I0609 09:33:26.415534 26840 net.cpp:151] Setting up conv6_2_mbox_loc
I0609 09:33:26.415571 26840 net.cpp:158] Top shape: 4 24 10 10 (9600)
I0609 09:33:26.415576 26840 net.cpp:166] Memory required for data: 991018400
I0609 09:33:26.415585 26840 layer_factory.hpp:77] Creating layer conv6_2_mbox_loc_perm
I0609 09:33:26.415596 26840 net.cpp:100] Creating Layer conv6_2_mbox_loc_perm
I0609 09:33:26.415602 26840 net.cpp:435] conv6_2_mbox_loc_perm <- conv6_2_mbox_loc
I0609 09:33:26.415611 26840 net.cpp:409] conv6_2_mbox_loc_perm -> conv6_2_mbox_loc_perm
I0609 09:33:26.415621 26840 layer.hpp:71] 
I0609 09:33:26.415791 26840 net.cpp:151] Setting up conv6_2_mbox_loc_perm
I0609 09:33:26.415805 26840 net.cpp:158] Top shape: 4 10 10 24 (9600)
I0609 09:33:26.415832 26840 net.cpp:166] Memory required for data: 991056800
I0609 09:33:26.415837 26840 layer_factory.hpp:77] Creating layer conv6_2_mbox_loc_flat
I0609 09:33:26.415845 26840 net.cpp:100] Creating Layer conv6_2_mbox_loc_flat
I0609 09:33:26.415849 26840 net.cpp:435] conv6_2_mbox_loc_flat <- conv6_2_mbox_loc_perm
I0609 09:33:26.415855 26840 net.cpp:409] conv6_2_mbox_loc_flat -> conv6_2_mbox_loc_flat
I0609 09:33:26.415863 26840 layer.hpp:71] 
I0609 09:33:26.415902 26840 net.cpp:151] Setting up conv6_2_mbox_loc_flat
I0609 09:33:26.415913 26840 net.cpp:158] Top shape: 4 2400 (9600)
I0609 09:33:26.415916 26840 net.cpp:166] Memory required for data: 991095200
I0609 09:33:26.415920 26840 layer_factory.hpp:77] Creating layer conv6_2_mbox_conf
I0609 09:33:26.415932 26840 net.cpp:100] Creating Layer conv6_2_mbox_conf
I0609 09:33:26.415938 26840 net.cpp:435] conv6_2_mbox_conf <- conv6_2_conv6_2_relu_0_split_2
I0609 09:33:26.415946 26840 net.cpp:409] conv6_2_mbox_conf -> conv6_2_mbox_conf
I0609 09:33:26.415953 26840 layer.hpp:71] 
I0609 09:33:26.419580 26840 net.cpp:151] Setting up conv6_2_mbox_conf
I0609 09:33:26.419620 26840 net.cpp:158] Top shape: 4 12 10 10 (4800)
I0609 09:33:26.419623 26840 net.cpp:166] Memory required for data: 991114400
I0609 09:33:26.419633 26840 layer_factory.hpp:77] Creating layer conv6_2_mbox_conf_perm
I0609 09:33:26.419643 26840 net.cpp:100] Creating Layer conv6_2_mbox_conf_perm
I0609 09:33:26.419648 26840 net.cpp:435] conv6_2_mbox_conf_perm <- conv6_2_mbox_conf
I0609 09:33:26.419657 26840 net.cpp:409] conv6_2_mbox_conf_perm -> conv6_2_mbox_conf_perm
I0609 09:33:26.419667 26840 layer.hpp:71] 
I0609 09:33:26.419841 26840 net.cpp:151] Setting up conv6_2_mbox_conf_perm
I0609 09:33:26.419854 26840 net.cpp:158] Top shape: 4 10 10 12 (4800)
I0609 09:33:26.419857 26840 net.cpp:166] Memory required for data: 991133600
I0609 09:33:26.419860 26840 layer_factory.hpp:77] Creating layer conv6_2_mbox_conf_flat
I0609 09:33:26.419868 26840 net.cpp:100] Creating Layer conv6_2_mbox_conf_flat
I0609 09:33:26.419873 26840 net.cpp:435] conv6_2_mbox_conf_flat <- conv6_2_mbox_conf_perm
I0609 09:33:26.419880 26840 net.cpp:409] conv6_2_mbox_conf_flat -> conv6_2_mbox_conf_flat
I0609 09:33:26.419888 26840 layer.hpp:71] 
I0609 09:33:26.419924 26840 net.cpp:151] Setting up conv6_2_mbox_conf_flat
I0609 09:33:26.419935 26840 net.cpp:158] Top shape: 4 1200 (4800)
I0609 09:33:26.419939 26840 net.cpp:166] Memory required for data: 991152800
I0609 09:33:26.419941 26840 layer_factory.hpp:77] Creating layer conv6_2_mbox_priorbox
I0609 09:33:26.419952 26840 net.cpp:100] Creating Layer conv6_2_mbox_priorbox
I0609 09:33:26.419957 26840 net.cpp:435] conv6_2_mbox_priorbox <- conv6_2_conv6_2_relu_0_split_3
I0609 09:33:26.419962 26840 net.cpp:435] conv6_2_mbox_priorbox <- data_data_0_split_3
I0609 09:33:26.419970 26840 net.cpp:409] conv6_2_mbox_priorbox -> conv6_2_mbox_priorbox
I0609 09:33:26.419977 26840 layer.hpp:71] 
I0609 09:33:26.420022 26840 net.cpp:151] Setting up conv6_2_mbox_priorbox
I0609 09:33:26.420032 26840 net.cpp:158] Top shape: 1 2 2400 (4800)
I0609 09:33:26.420035 26840 net.cpp:166] Memory required for data: 991172000
I0609 09:33:26.420038 26840 layer_factory.hpp:77] Creating layer conv7_2_mbox_loc
I0609 09:33:26.420053 26840 net.cpp:100] Creating Layer conv7_2_mbox_loc
I0609 09:33:26.420058 26840 net.cpp:435] conv7_2_mbox_loc <- conv7_2_conv7_2_relu_0_split_1
I0609 09:33:26.420063 26840 net.cpp:409] conv7_2_mbox_loc -> conv7_2_mbox_loc
I0609 09:33:26.420070 26840 layer.hpp:71] 
I0609 09:33:26.422559 26840 net.cpp:151] Setting up conv7_2_mbox_loc
I0609 09:33:26.422590 26840 net.cpp:158] Top shape: 4 24 5 5 (2400)
I0609 09:33:26.422593 26840 net.cpp:166] Memory required for data: 991181600
I0609 09:33:26.422601 26840 layer_factory.hpp:77] Creating layer conv7_2_mbox_loc_perm
I0609 09:33:26.422615 26840 net.cpp:100] Creating Layer conv7_2_mbox_loc_perm
I0609 09:33:26.422619 26840 net.cpp:435] conv7_2_mbox_loc_perm <- conv7_2_mbox_loc
I0609 09:33:26.422626 26840 net.cpp:409] conv7_2_mbox_loc_perm -> conv7_2_mbox_loc_perm
I0609 09:33:26.422659 26840 layer.hpp:71] 
I0609 09:33:26.422830 26840 net.cpp:151] Setting up conv7_2_mbox_loc_perm
I0609 09:33:26.422843 26840 net.cpp:158] Top shape: 4 5 5 24 (2400)
I0609 09:33:26.422847 26840 net.cpp:166] Memory required for data: 991191200
I0609 09:33:26.422850 26840 layer_factory.hpp:77] Creating layer conv7_2_mbox_loc_flat
I0609 09:33:26.422857 26840 net.cpp:100] Creating Layer conv7_2_mbox_loc_flat
I0609 09:33:26.422861 26840 net.cpp:435] conv7_2_mbox_loc_flat <- conv7_2_mbox_loc_perm
I0609 09:33:26.422868 26840 net.cpp:409] conv7_2_mbox_loc_flat -> conv7_2_mbox_loc_flat
I0609 09:33:26.422874 26840 layer.hpp:71] 
I0609 09:33:26.422911 26840 net.cpp:151] Setting up conv7_2_mbox_loc_flat
I0609 09:33:26.422921 26840 net.cpp:158] Top shape: 4 600 (2400)
I0609 09:33:26.422924 26840 net.cpp:166] Memory required for data: 991200800
I0609 09:33:26.422927 26840 layer_factory.hpp:77] Creating layer conv7_2_mbox_conf
I0609 09:33:26.422941 26840 net.cpp:100] Creating Layer conv7_2_mbox_conf
I0609 09:33:26.422946 26840 net.cpp:435] conv7_2_mbox_conf <- conv7_2_conv7_2_relu_0_split_2
I0609 09:33:26.422953 26840 net.cpp:409] conv7_2_mbox_conf -> conv7_2_mbox_conf
I0609 09:33:26.422960 26840 layer.hpp:71] 
I0609 09:33:26.425179 26840 net.cpp:151] Setting up conv7_2_mbox_conf
I0609 09:33:26.425200 26840 net.cpp:158] Top shape: 4 12 5 5 (1200)
I0609 09:33:26.425204 26840 net.cpp:166] Memory required for data: 991205600
I0609 09:33:26.425211 26840 layer_factory.hpp:77] Creating layer conv7_2_mbox_conf_perm
I0609 09:33:26.425222 26840 net.cpp:100] Creating Layer conv7_2_mbox_conf_perm
I0609 09:33:26.425226 26840 net.cpp:435] conv7_2_mbox_conf_perm <- conv7_2_mbox_conf
I0609 09:33:26.425235 26840 net.cpp:409] conv7_2_mbox_conf_perm -> conv7_2_mbox_conf_perm
I0609 09:33:26.425242 26840 layer.hpp:71] 
I0609 09:33:26.425420 26840 net.cpp:151] Setting up conv7_2_mbox_conf_perm
I0609 09:33:26.425432 26840 net.cpp:158] Top shape: 4 5 5 12 (1200)
I0609 09:33:26.425436 26840 net.cpp:166] Memory required for data: 991210400
I0609 09:33:26.425438 26840 layer_factory.hpp:77] Creating layer conv7_2_mbox_conf_flat
I0609 09:33:26.425447 26840 net.cpp:100] Creating Layer conv7_2_mbox_conf_flat
I0609 09:33:26.425451 26840 net.cpp:435] conv7_2_mbox_conf_flat <- conv7_2_mbox_conf_perm
I0609 09:33:26.425457 26840 net.cpp:409] conv7_2_mbox_conf_flat -> conv7_2_mbox_conf_flat
I0609 09:33:26.425463 26840 layer.hpp:71] 
I0609 09:33:26.425503 26840 net.cpp:151] Setting up conv7_2_mbox_conf_flat
I0609 09:33:26.425513 26840 net.cpp:158] Top shape: 4 300 (1200)
I0609 09:33:26.425515 26840 net.cpp:166] Memory required for data: 991215200
I0609 09:33:26.425518 26840 layer_factory.hpp:77] Creating layer conv7_2_mbox_priorbox
I0609 09:33:26.425529 26840 net.cpp:100] Creating Layer conv7_2_mbox_priorbox
I0609 09:33:26.425532 26840 net.cpp:435] conv7_2_mbox_priorbox <- conv7_2_conv7_2_relu_0_split_3
I0609 09:33:26.425537 26840 net.cpp:435] conv7_2_mbox_priorbox <- data_data_0_split_4
I0609 09:33:26.425544 26840 net.cpp:409] conv7_2_mbox_priorbox -> conv7_2_mbox_priorbox
I0609 09:33:26.425551 26840 layer.hpp:71] 
I0609 09:33:26.425593 26840 net.cpp:151] Setting up conv7_2_mbox_priorbox
I0609 09:33:26.425603 26840 net.cpp:158] Top shape: 1 2 600 (1200)
I0609 09:33:26.425606 26840 net.cpp:166] Memory required for data: 991220000
I0609 09:33:26.425611 26840 layer_factory.hpp:77] Creating layer conv8_2_mbox_loc
I0609 09:33:26.425621 26840 net.cpp:100] Creating Layer conv8_2_mbox_loc
I0609 09:33:26.425626 26840 net.cpp:435] conv8_2_mbox_loc <- conv8_2_conv8_2_relu_0_split_1
I0609 09:33:26.425634 26840 net.cpp:409] conv8_2_mbox_loc -> conv8_2_mbox_loc
I0609 09:33:26.425642 26840 layer.hpp:71] 
I0609 09:33:26.428021 26840 net.cpp:151] Setting up conv8_2_mbox_loc
I0609 09:33:26.428052 26840 net.cpp:158] Top shape: 4 16 3 3 (576)
I0609 09:33:26.428056 26840 net.cpp:166] Memory required for data: 991222304
I0609 09:33:26.428078 26840 layer_factory.hpp:77] Creating layer conv8_2_mbox_loc_perm
I0609 09:33:26.428089 26840 net.cpp:100] Creating Layer conv8_2_mbox_loc_perm
I0609 09:33:26.428117 26840 net.cpp:435] conv8_2_mbox_loc_perm <- conv8_2_mbox_loc
I0609 09:33:26.428127 26840 net.cpp:409] conv8_2_mbox_loc_perm -> conv8_2_mbox_loc_perm
I0609 09:33:26.428138 26840 layer.hpp:71] 
I0609 09:33:26.428313 26840 net.cpp:151] Setting up conv8_2_mbox_loc_perm
I0609 09:33:26.428323 26840 net.cpp:158] Top shape: 4 3 3 16 (576)
I0609 09:33:26.428326 26840 net.cpp:166] Memory required for data: 991224608
I0609 09:33:26.428330 26840 layer_factory.hpp:77] Creating layer conv8_2_mbox_loc_flat
I0609 09:33:26.428339 26840 net.cpp:100] Creating Layer conv8_2_mbox_loc_flat
I0609 09:33:26.428344 26840 net.cpp:435] conv8_2_mbox_loc_flat <- conv8_2_mbox_loc_perm
I0609 09:33:26.428349 26840 net.cpp:409] conv8_2_mbox_loc_flat -> conv8_2_mbox_loc_flat
I0609 09:33:26.428355 26840 layer.hpp:71] 
I0609 09:33:26.428395 26840 net.cpp:151] Setting up conv8_2_mbox_loc_flat
I0609 09:33:26.428405 26840 net.cpp:158] Top shape: 4 144 (576)
I0609 09:33:26.428407 26840 net.cpp:166] Memory required for data: 991226912
I0609 09:33:26.428411 26840 layer_factory.hpp:77] Creating layer conv8_2_mbox_conf
I0609 09:33:26.428423 26840 net.cpp:100] Creating Layer conv8_2_mbox_conf
I0609 09:33:26.428428 26840 net.cpp:435] conv8_2_mbox_conf <- conv8_2_conv8_2_relu_0_split_2
I0609 09:33:26.428436 26840 net.cpp:409] conv8_2_mbox_conf -> conv8_2_mbox_conf
I0609 09:33:26.428444 26840 layer.hpp:71] 
I0609 09:33:26.430761 26840 net.cpp:151] Setting up conv8_2_mbox_conf
I0609 09:33:26.430796 26840 net.cpp:158] Top shape: 4 8 3 3 (288)
I0609 09:33:26.430800 26840 net.cpp:166] Memory required for data: 991228064
I0609 09:33:26.430810 26840 layer_factory.hpp:77] Creating layer conv8_2_mbox_conf_perm
I0609 09:33:26.430819 26840 net.cpp:100] Creating Layer conv8_2_mbox_conf_perm
I0609 09:33:26.430824 26840 net.cpp:435] conv8_2_mbox_conf_perm <- conv8_2_mbox_conf
I0609 09:33:26.430833 26840 net.cpp:409] conv8_2_mbox_conf_perm -> conv8_2_mbox_conf_perm
I0609 09:33:26.430843 26840 layer.hpp:71] 
I0609 09:33:26.431011 26840 net.cpp:151] Setting up conv8_2_mbox_conf_perm
I0609 09:33:26.431020 26840 net.cpp:158] Top shape: 4 3 3 8 (288)
I0609 09:33:26.431023 26840 net.cpp:166] Memory required for data: 991229216
I0609 09:33:26.431027 26840 layer_factory.hpp:77] Creating layer conv8_2_mbox_conf_flat
I0609 09:33:26.431035 26840 net.cpp:100] Creating Layer conv8_2_mbox_conf_flat
I0609 09:33:26.431056 26840 net.cpp:435] conv8_2_mbox_conf_flat <- conv8_2_mbox_conf_perm
I0609 09:33:26.431063 26840 net.cpp:409] conv8_2_mbox_conf_flat -> conv8_2_mbox_conf_flat
I0609 09:33:26.431072 26840 layer.hpp:71] 
I0609 09:33:26.431113 26840 net.cpp:151] Setting up conv8_2_mbox_conf_flat
I0609 09:33:26.431118 26840 net.cpp:158] Top shape: 4 72 (288)
I0609 09:33:26.431120 26840 net.cpp:166] Memory required for data: 991230368
I0609 09:33:26.431124 26840 layer_factory.hpp:77] Creating layer conv8_2_mbox_priorbox
I0609 09:33:26.431134 26840 net.cpp:100] Creating Layer conv8_2_mbox_priorbox
I0609 09:33:26.431139 26840 net.cpp:435] conv8_2_mbox_priorbox <- conv8_2_conv8_2_relu_0_split_3
I0609 09:33:26.431143 26840 net.cpp:435] conv8_2_mbox_priorbox <- data_data_0_split_5
I0609 09:33:26.431152 26840 net.cpp:409] conv8_2_mbox_priorbox -> conv8_2_mbox_priorbox
I0609 09:33:26.431159 26840 layer.hpp:71] 
I0609 09:33:26.431200 26840 net.cpp:151] Setting up conv8_2_mbox_priorbox
I0609 09:33:26.431211 26840 net.cpp:158] Top shape: 1 2 144 (288)
I0609 09:33:26.431216 26840 net.cpp:166] Memory required for data: 991231520
I0609 09:33:26.431218 26840 layer_factory.hpp:77] Creating layer conv9_2_mbox_loc
I0609 09:33:26.431232 26840 net.cpp:100] Creating Layer conv9_2_mbox_loc
I0609 09:33:26.431236 26840 net.cpp:435] conv9_2_mbox_loc <- conv9_2_conv9_2_relu_0_split_0
I0609 09:33:26.431244 26840 net.cpp:409] conv9_2_mbox_loc -> conv9_2_mbox_loc
I0609 09:33:26.431252 26840 layer.hpp:71] 
I0609 09:33:26.433607 26840 net.cpp:151] Setting up conv9_2_mbox_loc
I0609 09:33:26.433634 26840 net.cpp:158] Top shape: 4 16 1 1 (64)
I0609 09:33:26.433637 26840 net.cpp:166] Memory required for data: 991231776
I0609 09:33:26.433665 26840 layer_factory.hpp:77] Creating layer conv9_2_mbox_loc_perm
I0609 09:33:26.433675 26840 net.cpp:100] Creating Layer conv9_2_mbox_loc_perm
I0609 09:33:26.433679 26840 net.cpp:435] conv9_2_mbox_loc_perm <- conv9_2_mbox_loc
I0609 09:33:26.433686 26840 net.cpp:409] conv9_2_mbox_loc_perm -> conv9_2_mbox_loc_perm
I0609 09:33:26.433696 26840 layer.hpp:71] 
I0609 09:33:26.433883 26840 net.cpp:151] Setting up conv9_2_mbox_loc_perm
I0609 09:33:26.433897 26840 net.cpp:158] Top shape: 4 1 1 16 (64)
I0609 09:33:26.433900 26840 net.cpp:166] Memory required for data: 991232032
I0609 09:33:26.433903 26840 layer_factory.hpp:77] Creating layer conv9_2_mbox_loc_flat
I0609 09:33:26.433910 26840 net.cpp:100] Creating Layer conv9_2_mbox_loc_flat
I0609 09:33:26.433913 26840 net.cpp:435] conv9_2_mbox_loc_flat <- conv9_2_mbox_loc_perm
I0609 09:33:26.433925 26840 net.cpp:409] conv9_2_mbox_loc_flat -> conv9_2_mbox_loc_flat
I0609 09:33:26.433933 26840 layer.hpp:71] 
I0609 09:33:26.433970 26840 net.cpp:151] Setting up conv9_2_mbox_loc_flat
I0609 09:33:26.433982 26840 net.cpp:158] Top shape: 4 16 (64)
I0609 09:33:26.433986 26840 net.cpp:166] Memory required for data: 991232288
I0609 09:33:26.433990 26840 layer_factory.hpp:77] Creating layer conv9_2_mbox_conf
I0609 09:33:26.434000 26840 net.cpp:100] Creating Layer conv9_2_mbox_conf
I0609 09:33:26.434005 26840 net.cpp:435] conv9_2_mbox_conf <- conv9_2_conv9_2_relu_0_split_1
I0609 09:33:26.434013 26840 net.cpp:409] conv9_2_mbox_conf -> conv9_2_mbox_conf
I0609 09:33:26.434020 26840 layer.hpp:71] 
I0609 09:33:26.436204 26840 net.cpp:151] Setting up conv9_2_mbox_conf
I0609 09:33:26.436225 26840 net.cpp:158] Top shape: 4 8 1 1 (32)
I0609 09:33:26.436230 26840 net.cpp:166] Memory required for data: 991232416
I0609 09:33:26.436238 26840 layer_factory.hpp:77] Creating layer conv9_2_mbox_conf_perm
I0609 09:33:26.436246 26840 net.cpp:100] Creating Layer conv9_2_mbox_conf_perm
I0609 09:33:26.436250 26840 net.cpp:435] conv9_2_mbox_conf_perm <- conv9_2_mbox_conf
I0609 09:33:26.436259 26840 net.cpp:409] conv9_2_mbox_conf_perm -> conv9_2_mbox_conf_perm
I0609 09:33:26.436269 26840 layer.hpp:71] 
I0609 09:33:26.436432 26840 net.cpp:151] Setting up conv9_2_mbox_conf_perm
I0609 09:33:26.436444 26840 net.cpp:158] Top shape: 4 1 1 8 (32)
I0609 09:33:26.436447 26840 net.cpp:166] Memory required for data: 991232544
I0609 09:33:26.436451 26840 layer_factory.hpp:77] Creating layer conv9_2_mbox_conf_flat
I0609 09:33:26.436458 26840 net.cpp:100] Creating Layer conv9_2_mbox_conf_flat
I0609 09:33:26.436462 26840 net.cpp:435] conv9_2_mbox_conf_flat <- conv9_2_mbox_conf_perm
I0609 09:33:26.436468 26840 net.cpp:409] conv9_2_mbox_conf_flat -> conv9_2_mbox_conf_flat
I0609 09:33:26.436475 26840 layer.hpp:71] 
I0609 09:33:26.436512 26840 net.cpp:151] Setting up conv9_2_mbox_conf_flat
I0609 09:33:26.436522 26840 net.cpp:158] Top shape: 4 8 (32)
I0609 09:33:26.436525 26840 net.cpp:166] Memory required for data: 991232672
I0609 09:33:26.436528 26840 layer_factory.hpp:77] Creating layer conv9_2_mbox_priorbox
I0609 09:33:26.436538 26840 net.cpp:100] Creating Layer conv9_2_mbox_priorbox
I0609 09:33:26.436542 26840 net.cpp:435] conv9_2_mbox_priorbox <- conv9_2_conv9_2_relu_0_split_2
I0609 09:33:26.436547 26840 net.cpp:435] conv9_2_mbox_priorbox <- data_data_0_split_6
I0609 09:33:26.436553 26840 net.cpp:409] conv9_2_mbox_priorbox -> conv9_2_mbox_priorbox
I0609 09:33:26.436559 26840 layer.hpp:71] 
I0609 09:33:26.436600 26840 net.cpp:151] Setting up conv9_2_mbox_priorbox
I0609 09:33:26.436612 26840 net.cpp:158] Top shape: 1 2 16 (32)
I0609 09:33:26.436615 26840 net.cpp:166] Memory required for data: 991232800
I0609 09:33:26.436619 26840 layer_factory.hpp:77] Creating layer mbox_loc
I0609 09:33:26.436627 26840 net.cpp:100] Creating Layer mbox_loc
I0609 09:33:26.436633 26840 net.cpp:435] mbox_loc <- conv4_3_norm_mbox_loc_flat
I0609 09:33:26.436638 26840 net.cpp:435] mbox_loc <- fc7_mbox_loc_flat
I0609 09:33:26.436643 26840 net.cpp:435] mbox_loc <- conv6_2_mbox_loc_flat
I0609 09:33:26.436647 26840 net.cpp:435] mbox_loc <- conv7_2_mbox_loc_flat
I0609 09:33:26.436666 26840 net.cpp:435] mbox_loc <- conv8_2_mbox_loc_flat
I0609 09:33:26.436671 26840 net.cpp:435] mbox_loc <- conv9_2_mbox_loc_flat
I0609 09:33:26.436676 26840 net.cpp:409] mbox_loc -> mbox_loc
I0609 09:33:26.436683 26840 layer.hpp:71] 
I0609 09:33:26.436743 26840 net.cpp:151] Setting up mbox_loc
I0609 09:33:26.436755 26840 net.cpp:158] Top shape: 4 34928 (139712)
I0609 09:33:26.436758 26840 net.cpp:166] Memory required for data: 991791648
I0609 09:33:26.436763 26840 layer_factory.hpp:77] Creating layer mbox_conf
I0609 09:33:26.436769 26840 net.cpp:100] Creating Layer mbox_conf
I0609 09:33:26.436774 26840 net.cpp:435] mbox_conf <- conv4_3_norm_mbox_conf_flat
I0609 09:33:26.436777 26840 net.cpp:435] mbox_conf <- fc7_mbox_conf_flat
I0609 09:33:26.436782 26840 net.cpp:435] mbox_conf <- conv6_2_mbox_conf_flat
I0609 09:33:26.436787 26840 net.cpp:435] mbox_conf <- conv7_2_mbox_conf_flat
I0609 09:33:26.436791 26840 net.cpp:435] mbox_conf <- conv8_2_mbox_conf_flat
I0609 09:33:26.436794 26840 net.cpp:435] mbox_conf <- conv9_2_mbox_conf_flat
I0609 09:33:26.436800 26840 net.cpp:409] mbox_conf -> mbox_conf
I0609 09:33:26.436806 26840 layer.hpp:71] 
I0609 09:33:26.436844 26840 net.cpp:151] Setting up mbox_conf
I0609 09:33:26.436854 26840 net.cpp:158] Top shape: 4 17464 (69856)
I0609 09:33:26.436857 26840 net.cpp:166] Memory required for data: 992071072
I0609 09:33:26.436861 26840 layer_factory.hpp:77] Creating layer mbox_priorbox
I0609 09:33:26.436868 26840 net.cpp:100] Creating Layer mbox_priorbox
I0609 09:33:26.436872 26840 net.cpp:435] mbox_priorbox <- conv4_3_norm_mbox_priorbox
I0609 09:33:26.436877 26840 net.cpp:435] mbox_priorbox <- fc7_mbox_priorbox
I0609 09:33:26.436882 26840 net.cpp:435] mbox_priorbox <- conv6_2_mbox_priorbox
I0609 09:33:26.436885 26840 net.cpp:435] mbox_priorbox <- conv7_2_mbox_priorbox
I0609 09:33:26.436889 26840 net.cpp:435] mbox_priorbox <- conv8_2_mbox_priorbox
I0609 09:33:26.436892 26840 net.cpp:435] mbox_priorbox <- conv9_2_mbox_priorbox
I0609 09:33:26.436898 26840 net.cpp:409] mbox_priorbox -> mbox_priorbox
I0609 09:33:26.436903 26840 layer.hpp:71] 
I0609 09:33:26.436939 26840 net.cpp:151] Setting up mbox_priorbox
I0609 09:33:26.436949 26840 net.cpp:158] Top shape: 1 2 34928 (69856)
I0609 09:33:26.436954 26840 net.cpp:166] Memory required for data: 992350496
I0609 09:33:26.436956 26840 layer_factory.hpp:77] Creating layer mbox_conf_reshape
I0609 09:33:26.436965 26840 net.cpp:100] Creating Layer mbox_conf_reshape
I0609 09:33:26.436969 26840 net.cpp:435] mbox_conf_reshape <- mbox_conf
I0609 09:33:26.436975 26840 net.cpp:409] mbox_conf_reshape -> mbox_conf_reshape
I0609 09:33:26.436987 26840 layer.hpp:71] 
I0609 09:33:26.437031 26840 net.cpp:151] Setting up mbox_conf_reshape
I0609 09:33:26.437041 26840 net.cpp:158] Top shape: 4 8732 2 (69856)
I0609 09:33:26.437046 26840 net.cpp:166] Memory required for data: 992629920
I0609 09:33:26.437049 26840 layer_factory.hpp:77] Creating layer mbox_conf_softmax
I0609 09:33:26.437055 26840 net.cpp:100] Creating Layer mbox_conf_softmax
I0609 09:33:26.437059 26840 net.cpp:435] mbox_conf_softmax <- mbox_conf_reshape
I0609 09:33:26.437067 26840 net.cpp:409] mbox_conf_softmax -> mbox_conf_softmax
I0609 09:33:26.437074 26840 layer.hpp:71] 
I0609 09:33:26.437912 26840 net.cpp:151] Setting up mbox_conf_softmax
I0609 09:33:26.437932 26840 net.cpp:158] Top shape: 4 8732 2 (69856)
I0609 09:33:26.437937 26840 net.cpp:166] Memory required for data: 992909344
I0609 09:33:26.437940 26840 layer_factory.hpp:77] Creating layer mbox_conf_flatten
I0609 09:33:26.437952 26840 net.cpp:100] Creating Layer mbox_conf_flatten
I0609 09:33:26.437957 26840 net.cpp:435] mbox_conf_flatten <- mbox_conf_softmax
I0609 09:33:26.437963 26840 net.cpp:409] mbox_conf_flatten -> mbox_conf_flatten
I0609 09:33:26.437969 26840 layer.hpp:71] 
I0609 09:33:26.438011 26840 net.cpp:151] Setting up mbox_conf_flatten
I0609 09:33:26.438021 26840 net.cpp:158] Top shape: 4 17464 (69856)
I0609 09:33:26.438025 26840 net.cpp:166] Memory required for data: 993188768
I0609 09:33:26.438050 26840 layer_factory.hpp:77] Creating layer detection_out
I0609 09:33:26.438066 26840 net.cpp:100] Creating Layer detection_out
I0609 09:33:26.438071 26840 net.cpp:435] detection_out <- mbox_loc
I0609 09:33:26.438076 26840 net.cpp:435] detection_out <- mbox_conf_flatten
I0609 09:33:26.438079 26840 net.cpp:435] detection_out <- mbox_priorbox
I0609 09:33:26.438086 26840 net.cpp:409] detection_out -> detection_out
I0609 09:33:26.438099 26840 layer.hpp:71] 
I0609 09:33:26.438608 26840 net.cpp:151] Setting up detection_out
I0609 09:33:26.438627 26840 net.cpp:158] Top shape: 1 1 1 7 (7)
I0609 09:33:26.438629 26840 net.cpp:166] Memory required for data: 993188796
I0609 09:33:26.438634 26840 layer_factory.hpp:77] Creating layer detection_eval
I0609 09:33:26.438644 26840 net.cpp:100] Creating Layer detection_eval
I0609 09:33:26.438648 26840 net.cpp:435] detection_eval <- detection_out
I0609 09:33:26.438653 26840 net.cpp:435] detection_eval <- label
I0609 09:33:26.438659 26840 net.cpp:409] detection_eval -> detection_eval
I0609 09:33:26.438669 26840 layer.hpp:71] 
I0609 09:33:26.438814 26840 net.cpp:151] Setting up detection_eval
I0609 09:33:26.438827 26840 net.cpp:158] Top shape: 1 1 2 5 (10)
I0609 09:33:26.438832 26840 net.cpp:166] Memory required for data: 993188836
I0609 09:33:26.438837 26840 net.cpp:229] detection_eval does not need backward computation.
I0609 09:33:26.438840 26840 net.cpp:229] detection_out does not need backward computation.
I0609 09:33:26.438844 26840 net.cpp:229] mbox_conf_flatten does not need backward computation.
I0609 09:33:26.438848 26840 net.cpp:229] mbox_conf_softmax does not need backward computation.
…
