…
        min_scale: 0.3
        max_scale: 1
        min_aspect_ratio: 0.5
        max_aspect_ratio: 2
      }
      sample_constraint {
        min_jaccard_overlap: 0.9
      }
      max_sample: 1
      max_trials: 50
    }
    batch_sampler {
      sampler {
        min_scale: 0.3
        max_scale: 1
        min_aspect_ratio: 0.5
        max_aspect_ratio: 2
      }
      sample_constraint {
        max_jaccard_overlap: 1
      }
      max_sample: 1
      max_trials: 50
    }
    label_map_file: "data/grayscale_tbs_v2.0/labelmap_voc.prototxt"
  }
}
layer {
  name: "conv1_1"
  type: "Convolution"
  bottom: "data"
  top: "conv1_1"
  param {
    lr_mult: 1
    decay_mult: 1
  }
  param {
    lr_mult: 2
    decay_mult: 0
  }
  convolution_param {
    num_output: 64
    pad: 1
    kernel_size: 3
    weight_filler {
      type: "xavier"
    }
    bias_filler {
      type: "constant"
      value: 0
    }
  }
}
layer {
  name: "relu1_1"
  type: "ReLU"
  bottom: "conv1_1"
  top: "conv1_1"
}
layer {
  name: "conv1_2"
  type: "Convolution"
  bottom: "conv1_1"
  top: "conv1_2"
  param {
    lr_mult: 1
    decay_mult: 1
  }
  param {
    lr_mult: 2
    decay_mult: 0
  }
  convolution_param {
    num_output: 64
    pad: 1
    kernel_size: 3
    weight_filler {
      type: "xavier"
    }
    bias_filler {
      type: "constant"
      value: 0
    }
  }
}
layer {
  name: "relu1_2"
  type: "ReLU"
  bottom: "conv1_2"
  top: "conv1_2"
}
layer {
  name: "pool1"
  type: "Pooling"
  bottom: "conv1_2"
  top: "pool1"
  pooling_param {
    pool: MAX
    kernel_size: 2
    stride: 2
  }
}
layer {
  name: "conv2_1"
  type: "Convolution"
  bottom: "pool1"
  top: "conv2_1"
  param {
    lr_mult: 1
    decay_mult: 1
  }
  param {
    lr_mult: 2
    decay_mult: 0
  }
  convolution_param {
    num_output: 128
    pad: 1
    kernel_size: 3
    weight_filler {
      type: "xavier"
    }
    bias_filler {
      type: "constant"
      value: 0
    }
  }
}
layer {
  name: "relu2_1"
  type: "ReLU"
  bottom: "conv2_1"
  top: "conv2_1"
}
layer {
  name: "conv2_2"
  type: "Convolution"
  bottom: "conv2_1"
  top: "conv2_2"
  param {
    lr_mult: 1
    decay_mult: 1
  }
  param {
    lr_mult: 2
    decay_mult: 0
  }
  convolution_param {
    num_output: 128
    pad: 1
    kernel_size: 3
    weight_filler {
      type: "xavier"
    }
    bias_filler {
      type: "constant"
      value: 0
    }
  }
}
layer {
  name: "relu2_2"
  type: "ReLU"
  bottom: "conv2_2"
  top: "conv2_2"
}
layer {
  name: "pool2"
  type: "Pooling"
  bottom: "conv2_2"
  top: "pool2"
  pooling_param {
    pool: MAX
    kernel_size: 2
    stride: 2
  }
}
layer {
  name: "conv3_1"
  type: "Convolution"
  bottom: "pool2"
  top: "conv3_1"
  param {
    lr_mult: 1
    decay_mult: 1
  }
  param {
    lr_mult: 2
    decay_mult: 0
  }
  convolution_param {
    num_output: 256
    pad: 1
    kernel_size: 3
    weight_filler {
      type: "xavier"
    }
    bias_filler {
      type: "constant"
      value: 0
    }
  }
}
layer {
  name: "relu3_1"
  type: "ReLU"
  bottom: "conv3_1"
  top: "conv3_1"
}
layer {
  name: "conv3_2"
  type: "Convolution"
  bottom: "conv3_1"
  top: "conv3_2"
  param {
    lr_mult: 1
    decay_mult: 1
  }
  param {
    lr_mult: 2
    decay_mult: 0
  }
  convolution_param {
    num_output: 256
    pad: 1
    kernel_size: 3
    weight_filler {
      type: "xavier"
    }
    bias_filler {
      type: "constant"
      value: 0
    }
  }
}
layer {
  name: "relu3_2"
  type: "ReLU"
  bottom: "conv3_2"
  top: "conv3_2"
}
layer {
  name: "conv3_3"
  type: "Convolution"
  bottom: "conv3_2"
  top: "conv3_3"
  param {
    lr_mult: 1
    decay_mult: 1
  }
  param {
    lr_mult: 2
    decay_mult: 0
  }
  convolution_param {
    num_output: 256
    pad: 1
    kernel_size: 3
    weight_filler {
      type: "xavier"
    }
    bias_filler {
      type: "constant"
      value: 0
    }
  }
}
layer {
  name: "relu3_3"
  type: "ReLU"
  bottom: "conv3_3"
  top: "conv3_3"
}
layer {
  name: "pool3"
  type: "Pooling"
  bottom: "conv3_3"
  top: "pool3"
  pooling_param {
    pool: MAX
    kernel_size: 2
    stride: 2
  }
}
layer {
  name: "conv4_1"
  type: "Convolution"
  bottom: "pool3"
  top: "conv4_1"
  param {
    lr_mult: 1
    decay_mult: 1
  }
  param {
    lr_mult: 2
    decay_mult: 0
  }
  convolution_param {
    num_output: 512
    pad: 1
    kernel_size: 3
    weight_filler {
      type: "xavier"
    }
    bias_filler {
      type: "constant"
      value: 0
    }
  }
}
layer {
  name: "relu4_1"
  type: "ReLU"
  bottom: "conv4_1"
  top: "conv4_1"
}
layer {
  name: "conv4_2"
  type: "Convolution"
  bottom: "conv4_1"
  top: "conv4_2"
  param {
    lr_mult: 1
    decay_mult: 1
  }
  param {
    lr_mult: 2
    decay_mult: 0
  }
  convolution_param {
    num_output: 512
    pad: 1
    kernel_size: 3
    weight_filler {
      type: "xavier"
    }
    bias_filler {
      type: "constant"
      value: 0
    }
  }
}
layer {
  name: "relu4_2"
  type: "ReLU"
  bottom: "conv4_2"
  top: "conv4_2"
}
layer {
  name: "conv4_3"
  type: "Convolution"
  bottom: "conv4_2"
  top: "conv4_3"
  param {
    lr_mult: 1
    decay_mult: 1
  }
  param {
    lr_mult: 2
    decay_mult: 0
  }
  convolution_param {
    num_output: 512
    pad: 1
    kernel_size: 3
    weight_filler {
      type: "xavier"
    }
    bias_filler {
      type: "constant"
      value: 0
    }
  }
}
layer {
  name: "relu4_3"
  type: "ReLU"
  bottom: "conv4_3"
  top: "conv4_3"
}
layer {
  name: "pool4"
  type: "Pooling"
  bottom: "conv4_3"
  top: "pool4"
  pooling_param {
    pool: MAX
    kernel_size: 2
    stride: 2
  }
}
layer {
  name: "conv5_1"
  type: "Convolution"
  bottom: "pool4"
  top: "conv5_1"
  param {
    lr_mult: 1
    decay_mult: 1
  }
  param {
    lr_mult: 2
    decay_mult: 0
  }
  convolution_param {
    num_output: 512
    pad: 1
    kernel_size: 3
    weight_filler {
      type: "xavier"
    }
    bias_filler {
      type: "constant"
      value: 0
    }
    dilation: 1
  }
}
layer {
  name: "relu5_1"
  type: "ReLU"
  bottom: "conv5_1"
  top: "conv5_1"
}
layer {
  name: "conv5_2"
  type: "Convolution"
  bottom: "conv5_1"
  top: "conv5_2"
  param {
    lr_mult: 1
    decay_mult: 1
  }
  param {
    lr_mult: 2
    decay_mult: 0
  }
  convolution_param {
    num_output: 512
    pad: 1
    kernel_size: 3
    weight_filler {
      type: "xavier"
    }
    bias_filler {
      type: "constant"
      value: 0
    }
    dilation: 1
  }
}
layer {
  name: "relu5_2"
  type: "ReLU"
  bottom: "conv5_2"
  top: "conv5_2"
}
layer {
  name: "conv5_3"
  type: "Convolution"
  bottom: "conv5_2"
  top: "conv5_3"
  param {
    lr_mult: 1
    decay_mult: 1
  }
  param {
    lr_mult: 2
    decay_mult: 0
  }
  convolution_param {
    num_output: 512
    pad: 1
    kernel_size: 3
    weight_filler {
      type: "xavier"
    }
    bias_filler {
      type: "constant"
      value: 0
    }
    dilation: 1
  }
}
layer {
  name: "relu5_3"
  type: "ReLU"
  bottom: "conv5_3"
  top: "conv5_3"
}
layer {
  name: "pool5"
  type: "Pooling"
  bottom: "conv5_3"
  top: "pool5"
  pooling_param {
    pool: MAX
    kernel_size: 3
    stride: 1
    pad: 1
  }
}
layer {
  name: "fc6"
  type: "Convolution"
  bottom: "pool5"
  top: "fc6"
  param {
    lr_mult: 1
    decay_mult: 1
  }
  param {
    lr_mult: 2
    decay_mult: 0
  }
  convolution_param {
    num_output: 1024
    pad: 6
    kernel_size: 3
    weight_filler {
      type: "xavier"
    }
    bias_filler {
      type: "constant"
      value: 0
    }
    dilation: 6
  }
}
layer {
  name: "relu6"
  type: "ReLU"
  bottom: "fc6"
  top: "fc6"
}
layer {
  name: "fc7"
  type: "Convolution"
  bottom: "fc6"
  top: "fc7"
  param {
    lr_mult: 1
    decay_mult: 1
  }
  param {
    lr_mult: 2
    decay_mult: 0
  }
  convolution_param {
    num_output: 1024
    kernel_size: 1
    weight_filler {
      type: "xavier"
    }
    bias_filler {
      type: "constant"
      value: 0
    }
  }
}
layer {
  name: "relu7"
  type: "ReLU"
  bottom: "fc7"
  top: "fc7"
}
layer {
  name: "conv6_1"
  type: "Convolution"
  bottom: "fc7"
  top: "conv6_1"
  param {
    lr_mult: 1
    decay_mult: 1
  }
  param {
    lr_mult: 2
    decay_mult: 0
  }
  convolution_param {
    num_output: 256
    pad: 0
    kernel_size: 1
    stride: 1
    weight_filler {
      type: "xavier"
    }
    bias_filler {
      type: "constant"
      value: 0
    }
  }
}
layer {
  name: "conv6_1_relu"
  type: "ReLU"
  bottom: "conv6_1"
  top: "conv6_1"
}
layer {
  name: "conv6_2"
  type: "Convolution"
  bottom: "conv6_1"
  top: "conv6_2"
  param {
    lr_mult: 1
    decay_mult: 1
  }
  param {
    lr_mult: 2
    decay_mult: 0
  }
  convolution_param {
    num_output: 512
    pad: 1
    kernel_size: 3
    stride: 2
    weight_filler {
      type: "xavier"
    }
    bias_filler {
      type: "constant"
      value: 0
    }
  }
}
layer {
  name: "conv6_2_relu"
  type: "ReLU"
  bottom: "conv6_2"
  top: "conv6_2"
}
layer {
  name: "conv7_1"
  type: "Convolution"
  bottom: "conv6_2"
  top: "conv7_1"
  param {
    lr_mult: 1
    decay_mult: 1
  }
  param {
    lr_mult: 2
    decay_mult: 0
  }
  convolution_param {
    num_output: 128
    pad: 0
    kernel_size: 1
    stride: 1
    weight_filler {
      type: "xavier"
    }
    bias_filler {
      type: "constant"
      value: 0
    }
  }
}
layer {
  name: "conv7_1_relu"
  type: "ReLU"
  bottom: "conv7_1"
  top: "conv7_1"
}
layer {
  name: "conv7_2"
  type: "Convolution"
  bottom: "conv7_1"
  top: "conv7_2"
  param {
    lr_mult: 1
    decay_mult: 1
  }
  param {
    lr_mult: 2
    decay_mult: 0
  }
  convolution_param {
    num_output: 256
    pad: 1
    kernel_size: 3
    stride: 2
    weight_filler {
      type: "xavier"
    }
    bias_filler {
      type: "constant"
      value: 0
    }
  }
}
layer {
  name: "conv7_2_relu"
  type: "ReLU"
  bottom: "conv7_2"
  top: "conv7_2"
}
layer {
  name: "conv8_1"
  type: "Convolution"
  bottom: "conv7_2"
  top: "conv8_1"
  param {
    lr_mult: 1
    decay_mult: 1
  }
  param {
    lr_mult: 2
    decay_mult: 0
  }
  convolution_param {
    num_output: 128
    pad: 0
    kernel_size: 1
    stride: 1
    weight_filler {
      type: "xavier"
    }
    bias_filler {
      type: "constant"
      value: 0
    }
  }
}
layer {
  name: "conv8_1_relu"
  type: "ReLU"
  bottom: "conv8_1"
  top: "conv8_1"
}
layer {
  name: "conv8_2"
  type: "Convolution"
  bottom: "conv8_1"
  top: "conv8_2"
  param {
    lr_mult: 1
    decay_mult: 1
  }
  param {
    lr_mult: 2
    decay_mult: 0
  }
  convolution_param {
    num_output: 256
    pad: 0
    kernel_size: 3
    stride: 1
    weight_filler {
      type: "xavier"
    }
    bias_filler {
      type: "constant"
      value: 0
    }
  }
}
layer {
  name: "conv8_2_relu"
  type: "ReLU"
  bottom: "conv8_2"
  top: "conv8_2"
}
layer {
  name: "conv9_1"
  type: "Convolution"
  bottom: "conv8_2"
  top: "conv9_1"
  param {
    lr_mult: 1
    decay_mult: 1
  }
  param {
    lr_mult: 2
    decay_mult: 0
  }
  convolution_param {
    num_output: 128
    pad: 0
    kernel_size: 1
    stride: 1
    weight_filler {
      type: "xavier"
    }
    bias_filler {
      type: "constant"
      value: 0
    }
  }
}
layer {
  name: "conv9_1_relu"
  type: "ReLU"
  bottom: "conv9_1"
  top: "conv9_1"
}
layer {
  name: "conv9_2"
  type: "Convolution"
  bottom: "conv9_1"
  top: "conv9_2"
  param {
    lr_mult: 1
    decay_mult: 1
  }
  param {
    lr_mult: 2
    decay_mult: 0
  }
  convolution_param {
    num_output: 256
    pad: 0
    kernel_size: 3
    stride: 1
    weight_filler {
      type: "xavier"
    }
    bias_filler {
      type: "constant"
      value: 0
    }
  }
}
layer {
  name: "conv9_2_relu"
  type: "ReLU"
  bottom: "conv9_2"
  top: "conv9_2"
}
layer {
  name: "conv4_3_norm"
  type: "Normalize"
  bottom: "conv4_3"
  top: "conv4_3_norm"
  norm_param {
    across_spatial: false
    scale_filler {
      type: "constant"
      value: 20
    }
    channel_shared: false
  }
}
layer {
  name: "conv4_3_norm_mbox_loc"
  type: "Convolution"
  bottom: "conv4_3_norm"
  top: "conv4_3_norm_mbox_loc"
  param {
    lr_mult: 1
    decay_mult: 1
  }
  param {
    lr_mult: 2
    decay_mult: 0
  }
  convolution_param {
    num_output: 16
    pad: 1
    kernel_size: 3
    stride: 1
    weight_filler {
      type: "xavier"
    }
    bias_filler {
      type: "constant"
      value: 0
    }
  }
}
layer {
  name: "conv4_3_norm_mbox_loc_perm"
  type: "Permute"
  bottom: "conv4_3_norm_mbox_loc"
  top: "conv4_3_norm_mbox_loc_perm"
  permute_param {
    order: 0
    order: 2
    order: 3
    order: 1
  }
}
layer {
  name: "conv4_3_norm_mbox_loc_flat"
  type: "Flatten"
  bottom: "conv4_3_norm_mbox_loc_perm"
  top: "conv4_3_norm_mbox_loc_flat"
  flatten_param {
    axis: 1
  }
}
layer {
  name: "conv4_3_norm_mbox_conf"
  type: "Convolution"
  bottom: "conv4_3_norm"
  top: "conv4_3_norm_mbox_conf"
  param {
    lr_mult: 1
    decay_mult: 1
  }
  param {
    lr_mult: 2
    decay_mult: 0
  }
  convolution_param {
    num_output: 8
    pad: 1
    kernel_size: 3
    stride: 1
    weight_filler {
      type: "xavier"
    }
    bias_filler {
      type: "constant"
      value: 0
    }
  }
}
layer {
  name: "conv4_3_norm_mbox_conf_perm"
  type: "Permute"
  bottom: "conv4_3_norm_mbox_conf"
  top: "conv4_3_norm_mbox_conf_perm"
  permute_param {
    order: 0
    order: 2
    order: 3
    order: 1
  }
}
layer {
  name: "conv4_3_norm_mbox_conf_flat"
  type: "Flatten"
  bottom: "conv4_3_norm_mbox_conf_perm"
  top: "conv4_3_norm_mbox_conf_flat"
  flatten_param {
    axis: 1
  }
}
layer {
  name: "conv4_3_norm_mbox_priorbox"
  type: "PriorBox"
  bottom: "conv4_3_norm"
  bottom: "data"
  top: "conv4_3_norm_mbox_priorbox"
  prior_box_param {
    min_size: 30
    max_size: 60
    aspect_ratio: 2
    flip: true
    clip: false
    variance: 0.1
    variance: 0.1
    variance: 0.2
    variance: 0.2
    step: 8
    offset: 0.5
  }
}
layer {
  name: "fc7_mbox_loc"
  type: "Convolution"
  bottom: "fc7"
  top: "fc7_mbox_loc"
  param {
    lr_mult: 1
    decay_mult: 1
  }
  param {
    lr_mult: 2
    decay_mult: 0
  }
  convolution_param {
    num_output: 24
    pad: 1
    kernel_size: 3
    stride: 1
    weight_filler {
      type: "xavier"
    }
    bias_filler {
      type: "constant"
      value: 0
    }
  }
}
layer {
  name: "fc7_mbox_loc_perm"
  type: "Permute"
  bottom: "fc7_mbox_loc"
  top: "fc7_mbox_loc_perm"
  permute_param {
    order: 0
    order: 2
    order: 3
    order: 1
  }
}
layer {
  name: "fc7_mbox_loc_flat"
  type: "Flatten"
  bottom: "fc7_mbox_loc_perm"
  top: "fc7_mbox_loc_flat"
  flatten_param {
    axis: 1
  }
}
layer {
  name: "fc7_mbox_conf"
  type: "Convolution"
  bottom: "fc7"
  top: "fc7_mbox_conf"
  param {
    lr_mult: 1
    decay_mult: 1
  }
  param {
    lr_mult: 2
    decay_mult: 0
  }
  convolution_param {
    num_output: 12
    pad: 1
    kernel_size: 3
    stride: 1
    weight_filler {
      type: "xavier"
    }
    bias_filler {
      type: "constant"
      value: 0
    }
  }
}
layer {
  name: "fc7_mbox_conf_perm"
  type: "Permute"
  bottom: "fc7_mbox_conf"
  top: "fc7_mbox_conf_perm"
  permute_param {
    order: 0
    order: 2
    order: 3
    order: 1
  }
}
layer {
  name: "fc7_mbox_conf_flat"
  type: "Flatten"
  bottom: "fc7_mbox_conf_perm"
  top: "fc7_mbox_conf_flat"
  flatten_param {
    axis: 1
  }
}
layer {
  name: "fc7_mbox_priorbox"
  type: "PriorBox"
  bottom: "fc7"
  bottom: "data"
  top: "fc7_mbox_priorbox"
  prior_box_param {
    min_size: 60
    max_size: 111
    aspect_ratio: 2
    aspect_ratio: 3
    flip: true
    clip: false
    variance: 0.1
    variance: 0.1
    variance: 0.2
    variance: 0.2
    step: 16
    offset: 0.5
  }
}
layer {
  name: "conv6_2_mbox_loc"
  type: "Convolution"
  bottom: "conv6_2"
  top: "conv6_2_mbox_loc"
  param {
    lr_mult: 1
    decay_mult: 1
  }
  param {
    lr_mult: 2
    decay_mult: 0
  }
  convolution_param {
    num_output: 24
    pad: 1
    kernel_size: 3
    stride: 1
    weight_filler {
      type: "xavier"
    }
    bias_filler {
      type: "constant"
      value: 0
    }
  }
}
layer {
  name: "conv6_2_mbox_loc_perm"
  type: "Permute"
  bottom: "conv6_2_mbox_loc"
  top: "conv6_2_mbox_loc_perm"
  permute_param {
    order: 0
    order: 2
    order: 3
    order: 1
  }
}
layer {
  name: "conv6_2_mbox_loc_flat"
  type: "Flatten"
  bottom: "conv6_2_mbox_loc_perm"
  top: "conv6_2_mbox_loc_flat"
  flatten_param {
    axis: 1
  }
}
layer {
  name: "conv6_2_mbox_conf"
  type: "Convolution"
  bottom: "conv6_2"
  top: "conv6_2_mbox_conf"
  param {
    lr_mult: 1
    decay_mult: 1
  }
  param {
    lr_mult: 2
    decay_mult: 0
  }
  convolution_param {
    num_output: 12
    pad: 1
    kernel_size: 3
    stride: 1
    weight_filler {
      type: "xavier"
    }
    bias_filler {
      type: "constant"
      value: 0
    }
  }
}
layer {
  name: "conv6_2_mbox_conf_perm"
  type: "Permute"
  bottom: "conv6_2_mbox_conf"
  top: "conv6_2_mbox_conf_perm"
  permute_param {
    order: 0
    order: 2
    order: 3
    order: 1
  }
}
layer {
  name: "conv6_2_mbox_conf_flat"
  type: "Flatten"
  bottom: "conv6_2_mbox_conf_perm"
  top: "conv6_2_mbox_conf_flat"
  flatten_param {
    axis: 1
  }
}
layer {
  name: "conv6_2_mbox_priorbox"
  type: "PriorBox"
  bottom: "conv6_2"
  bottom: "data"
  top: "conv6_2_mbox_priorbox"
  prior_box_param {
    min_size: 111
    max_size: 162
    aspect_ratio: 2
    aspect_ratio: 3
    flip: true
    clip: false
    variance: 0.1
    variance: 0.1
    variance: 0.2
    variance: 0.2
    step: 32
    offset: 0.5
  }
}
layer {
  name: "conv7_2_mbox_loc"
  type: "Convolution"
  bottom: "conv7_2"
  top: "conv7_2_mbox_loc"
  param {
    lr_mult: 1
    decay_mult: 1
  }
  param {
    lr_mult: 2
    decay_mult: 0
  }
  convolution_param {
    num_output: 24
    pad: 1
    kernel_size: 3
    stride: 1
    weight_filler {
      type: "xavier"
    }
    bias_filler {
      type: "constant"
      value: 0
    }
  }
}
layer {
  name: "conv7_2_mbox_loc_perm"
  type: "Permute"
  bottom: "conv7_2_mbox_loc"
  top: "conv7_2_mbox_loc_perm"
  permute_param {
    order: 0
    order: 2
    order: 3
    order: 1
  }
}
layer {
  name: "conv7_2_mbox_loc_flat"
  type: "Flatten"
  bottom: "conv7_2_mbox_loc_perm"
  top: "conv7_2_mbox_loc_flat"
  flatten_param {
    axis: 1
  }
}
layer {
  name: "conv7_2_mbox_conf"
  type: "Convolution"
  bottom: "conv7_2"
  top: "conv7_2_mbox_conf"
  param {
    lr_mult: 1
    decay_mult: 1
  }
  param {
    lr_mult: 2
    decay_mult: 0
  }
  convolution_param {
    num_output: 12
    pad: 1
    kernel_size: 3
    stride: 1
    weight_filler {
      type: "xavier"
    }
    bias_filler {
      type: "constant"
      value: 0
    }
  }
}
layer {
  name: "conv7_2_mbox_conf_perm"
  type: "Permute"
  bottom: "conv7_2_mbox_conf"
  top: "conv7_2_mbox_conf_perm"
  permute_param {
    order: 0
    order: 2
    order: 3
    order: 1
  }
}
layer {
  name: "conv7_2_mbox_conf_flat"
  type: "Flatten"
  bottom: "conv7_2_mbox_conf_perm"
  top: "conv7_2_mbox_conf_flat"
  flatten_param {
    axis: 1
  }
}
layer {
  name: "conv7_2_mbox_priorbox"
  type: "PriorBox"
  bottom: "conv7_2"
  bottom: "data"
  top: "conv7_2_mbox_priorbox"
  prior_box_param {
    min_size: 162
    max_size: 213
    aspect_ratio: 2
    aspect_ratio: 3
    flip: true
    clip: false
    variance: 0.1
    variance: 0.1
    variance: 0.2
    variance: 0.2
    step: 64
    offset: 0.5
  }
}
layer {
  name: "conv8_2_mbox_loc"
  type: "Convolution"
  bottom: "conv8_2"
  top: "conv8_2_mbox_loc"
  param {
    lr_mult: 1
    decay_mult: 1
  }
  param {
    lr_mult: 2
    decay_mult: 0
  }
  convolution_param {
    num_output: 16
    pad: 1
    kernel_size: 3
    stride: 1
    weight_filler {
      type: "xavier"
    }
    bias_filler {
      type: "constant"
      value: 0
    }
  }
}
layer {
  name: "conv8_2_mbox_loc_perm"
  type: "Permute"
  bottom: "conv8_2_mbox_loc"
  top: "conv8_2_mbox_loc_perm"
  permute_param {
    order: 0
    order: 2
    order: 3
    order: 1
  }
}
layer {
  name: "conv8_2_mbox_loc_flat"
  type: "Flatten"
  bottom: "conv8_2_mbox_loc_perm"
  top: "conv8_2_mbox_loc_flat"
  flatten_param {
    axis: 1
  }
}
layer {
  name: "conv8_2_mbox_conf"
  type: "Convolution"
  bottom: "conv8_2"
  top: "conv8_2_mbox_conf"
  param {
    lr_mult: 1
    decay_mult: 1
  }
  param {
    lr_mult: 2
    decay_mult: 0
  }
  convolution_param {
    num_output: 8
    pad: 1
    kernel_size: 3
    stride: 1
    weight_filler {
      type: "xavier"
    }
    bias_filler {
      type: "constant"
      value: 0
    }
  }
}
layer {
  name: "conv8_2_mbox_conf_perm"
  type: "Permute"
  bottom: "conv8_2_mbox_conf"
  top: "conv8_2_mbox_conf_perm"
  permute_param {
    order: 0
    order: 2
    order: 3
    order: 1
  }
}
layer {
  name: "conv8_2_mbox_conf_flat"
  type: "Flatten"
  bottom: "conv8_2_mbox_conf_perm"
  top: "conv8_2_mbox_conf_flat"
  flatten_param {
    axis: 1
  }
}
layer {
  name: "conv8_2_mbox_priorbox"
  type: "PriorBox"
  bottom: "conv8_2"
  bottom: "data"
  top: "conv8_2_mbox_priorbox"
  prior_box_param {
    min_size: 213
    max_size: 264
    aspect_ratio: 2
    flip: true
    clip: false
    variance: 0.1
    variance: 0.1
    variance: 0.2
    variance: 0.2
    step: 100
    offset: 0.5
  }
}
layer {
  name: "conv9_2_mbox_loc"
  type: "Convolution"
  bottom: "conv9_2"
  top: "conv9_2_mbox_loc"
  param {
    lr_mult: 1
    decay_mult: 1
  }
  param {
    lr_mult: 2
    decay_mult: 0
  }
  convolution_param {
    num_output: 16
    pad: 1
    kernel_size: 3
    stride: 1
    weight_filler {
      type: "xavier"
    }
    bias_filler {
      type: "constant"
      value: 0
    }
  }
}
layer {
  name: "conv9_2_mbox_loc_perm"
  type: "Permute"
  bottom: "conv9_2_mbox_loc"
  top: "conv9_2_mbox_loc_perm"
  permute_param {
    order: 0
    order: 2
    order: 3
    order: 1
  }
}
layer {
  name: "conv9_2_mbox_loc_flat"
  type: "Flatten"
  bottom: "conv9_2_mbox_loc_perm"
  top: "conv9_2_mbox_loc_flat"
  flatten_param {
    axis: 1
  }
}
layer {
  name: "conv9_2_mbox_conf"
  type: "Convolution"
  bottom: "conv9_2"
  top: "conv9_2_mbox_conf"
  param {
    lr_mult: 1
    decay_mult: 1
  }
  param {
    lr_mult: 2
    decay_mult: 0
  }
  convolution_param {
    num_output: 8
    pad: 1
    kernel_size: 3
    stride: 1
    weight_filler {
      type: "xavier"
    }
    bias_filler {
      type: "constant"
      value: 0
    }
  }
}
layer {
  name: "conv9_2_mbox_conf_perm"
  type: "Permute"
  bottom: "conv9_2_mbox_conf"
  top: "conv9_2_mbox_conf_perm"
  permute_param {
    order: 0
    order: 2
    order: 3
    order: 1
  }
}
layer {
  name: "conv9_2_mbox_conf_flat"
  type: "Flatten"
  bottom: "conv9_2_mbox_conf_perm"
  top: "conv9_2_mbox_conf_flat"
  flatten_param {
    axis: 1
  }
}
layer {
  name: "conv9_2_mbox_priorbox"
  type: "PriorBox"
  bottom: "conv9_2"
  bottom: "data"
  top: "conv9_2_mbox_priorbox"
  prior_box_param {
    min_size: 264
    max_size: 315
    aspect_ratio: 2
    flip: true
    clip: false
    variance: 0.1
    variance: 0.1
    variance: 0.2
    variance: 0.2
    step: 300
    offset: 0.5
  }
}
layer {
  name: "mbox_loc"
  type: "Concat"
  bottom: "conv4_3_norm_mbox_loc_flat"
  bottom: "fc7_mbox_loc_flat"
  bottom: "conv6_2_mbox_loc_flat"
  bottom: "conv7_2_mbox_loc_flat"
  bottom: "conv8_2_mbox_loc_flat"
  bottom: "conv9_2_mbox_loc_flat"
  top: "mbox_loc"
  concat_param {
    axis: 1
  }
}
layer {
  name: "mbox_conf"
  type: "Concat"
  bottom: "conv4_3_norm_mbox_conf_flat"
  bottom: "fc7_mbox_conf_flat"
  bottom: "conv6_2_mbox_conf_flat"
  bottom: "conv7_2_mbox_conf_flat"
  bottom: "conv8_2_mbox_conf_flat"
  bottom: "conv9_2_mbox_conf_flat"
  top: "mbox_conf"
  concat_param {
    axis: 1
  }
}
layer {
  name: "mbox_priorbox"
  type: "Concat"
  bottom: "conv4_3_norm_mbox_priorbox"
  bottom: "fc7_mbox_priorbox"
  bottom: "conv6_2_mbox_priorbox"
  bottom: "conv7_2_mbox_priorbox"
  bottom: "conv8_2_mbox_priorbox"
  bottom: "conv9_2_mbox_priorbox"
  top: "mbox_priorbox"
  concat_param {
    axis: 2
  }
}
layer {
  name: "mbox_loss"
  type: "MultiBoxLoss"
  bottom: "mbox_loc"
  bottom: "mbox_conf"
  bottom: "mbox_priorbox"
  bottom: "label"
  top: "mbox_loss"
  include {
    phase: TRAIN
  }
  propagate_down: true
  propagate_down: true
  propagate_down: false
  propagate_down: false
  loss_param {
    normalization: VALID
  }
  multibox_loss_param {
    loc_loss_type: SMOOTH_L1
    conf_loss_type: SOFTMAX
    loc_weight: 1
    num_classes: 2
    share_location: true
    match_type: PER_PREDICTION
    overlap_threshold: 0.5
    use_prior_for_matching: true
    background_label_id: 0
    use_difficult_gt: true
    neg_pos_ratio: 3
    neg_overlap: 0.5
    code_type: CENTER_SIZE
    ignore_cross_boundary_bbox: false
    mining_type: MAX_NEGATIVE
  }
}
I0609 09:10:00.276439 25759 layer_factory.hpp:77] Creating layer data
I0609 09:10:00.276909 25759 net.cpp:100] Creating Layer data
I0609 09:10:00.276923 25759 net.cpp:409] data -> data
I0609 09:10:00.276965 25759 net.cpp:409] data -> label
I0609 09:10:00.276980 25759 layer.hpp:71] 
I0609 09:10:00.277794 25779 db_lmdb.cpp:35] Opened lmdb examples/grayscale_tbs_v2.0/grayscale_tbs_v2.0_trainval_lmdb
I0609 09:10:00.293611 25759 annotated_data_layer.cpp:62] output data size: 32,3,300,300
I0609 09:10:00.370546 25759 net.cpp:151] Setting up data
I0609 09:10:00.370601 25759 net.cpp:158] Top shape: 32 3 300 300 (8640000)
I0609 09:10:00.370643 25759 net.cpp:158] Top shape: 1 1 4 8 (32)
I0609 09:10:00.370651 25759 net.cpp:166] Memory required for data: 34560128
I0609 09:10:00.370699 25759 layer_factory.hpp:77] Creating layer data_data_0_split
I0609 09:10:00.370754 25759 net.cpp:100] Creating Layer data_data_0_split
I0609 09:10:00.370767 25759 net.cpp:435] data_data_0_split <- data
I0609 09:10:00.370790 25759 net.cpp:409] data_data_0_split -> data_data_0_split_0
I0609 09:10:00.370827 25759 net.cpp:409] data_data_0_split -> data_data_0_split_1
I0609 09:10:00.370857 25759 net.cpp:409] data_data_0_split -> data_data_0_split_2
I0609 09:10:00.370877 25759 net.cpp:409] data_data_0_split -> data_data_0_split_3
I0609 09:10:00.370899 25759 net.cpp:409] data_data_0_split -> data_data_0_split_4
I0609 09:10:00.370939 25759 net.cpp:409] data_data_0_split -> data_data_0_split_5
I0609 09:10:00.370964 25759 net.cpp:409] data_data_0_split -> data_data_0_split_6
I0609 09:10:00.370990 25759 layer.hpp:71] 
I0609 09:10:00.371125 25759 net.cpp:151] Setting up data_data_0_split
I0609 09:10:00.371145 25759 net.cpp:158] Top shape: 32 3 300 300 (8640000)
I0609 09:10:00.371153 25759 net.cpp:158] Top shape: 32 3 300 300 (8640000)
I0609 09:10:00.371160 25759 net.cpp:158] Top shape: 32 3 300 300 (8640000)
I0609 09:10:00.371182 25759 net.cpp:158] Top shape: 32 3 300 300 (8640000)
I0609 09:10:00.371189 25759 net.cpp:158] Top shape: 32 3 300 300 (8640000)
I0609 09:10:00.371212 25759 net.cpp:158] Top shape: 32 3 300 300 (8640000)
I0609 09:10:00.371228 25759 net.cpp:158] Top shape: 32 3 300 300 (8640000)
I0609 09:10:00.371233 25759 net.cpp:166] Memory required for data: 276480128
I0609 09:10:00.371239 25759 layer_factory.hpp:77] Creating layer conv1_1
I0609 09:10:00.371275 25759 net.cpp:100] Creating Layer conv1_1
I0609 09:10:00.371287 25759 net.cpp:435] conv1_1 <- data_data_0_split_0
I0609 09:10:00.371297 25759 net.cpp:409] conv1_1 -> conv1_1
I0609 09:10:00.371320 25759 layer.hpp:71] 
I0609 09:10:01.110759 25759 net.cpp:151] Setting up conv1_1
I0609 09:10:01.110810 25759 net.cpp:158] Top shape: 32 64 300 300 (184320000)
I0609 09:10:01.110816 25759 net.cpp:166] Memory required for data: 1013760128
I0609 09:10:01.110846 25759 layer_factory.hpp:77] Creating layer relu1_1
I0609 09:10:01.110863 25759 net.cpp:100] Creating Layer relu1_1
I0609 09:10:01.110870 25759 net.cpp:435] relu1_1 <- conv1_1
I0609 09:10:01.110880 25759 net.cpp:396] relu1_1 -> conv1_1 (in-place)
I0609 09:10:01.110893 25759 layer.hpp:71] 
I0609 09:10:01.111568 25759 net.cpp:151] Setting up relu1_1
I0609 09:10:01.111593 25759 net.cpp:158] Top shape: 32 64 300 300 (184320000)
I0609 09:10:01.111598 25759 net.cpp:166] Memory required for data: 1751040128
I0609 09:10:01.111605 25759 layer_factory.hpp:77] Creating layer conv1_2
I0609 09:10:01.111629 25759 net.cpp:100] Creating Layer conv1_2
I0609 09:10:01.111637 25759 net.cpp:435] conv1_2 <- conv1_1
I0609 09:10:01.111649 25759 net.cpp:409] conv1_2 -> conv1_2
I0609 09:10:01.111662 25759 layer.hpp:71] 
I0609 09:10:01.114217 25759 net.cpp:151] Setting up conv1_2
I0609 09:10:01.114248 25759 net.cpp:158] Top shape: 32 64 300 300 (184320000)
I0609 09:10:01.114255 25759 net.cpp:166] Memory required for data: 2488320128
I0609 09:10:01.114272 25759 layer_factory.hpp:77] Creating layer relu1_2
I0609 09:10:01.114285 25759 net.cpp:100] Creating Layer relu1_2
I0609 09:10:01.114292 25759 net.cpp:435] relu1_2 <- conv1_2
I0609 09:10:01.114302 25759 net.cpp:396] relu1_2 -> conv1_2 (in-place)
I0609 09:10:01.114311 25759 layer.hpp:71] 
I0609 09:10:01.115002 25759 net.cpp:151] Setting up relu1_2
I0609 09:10:01.115026 25759 net.cpp:158] Top shape: 32 64 300 300 (184320000)
I0609 09:10:01.115033 25759 net.cpp:166] Memory required for data: 3225600128
I0609 09:10:01.115039 25759 layer_factory.hpp:77] Creating layer pool1
I0609 09:10:01.115054 25759 net.cpp:100] Creating Layer pool1
I0609 09:10:01.115061 25759 net.cpp:435] pool1 <- conv1_2
I0609 09:10:01.115070 25759 net.cpp:409] pool1 -> pool1
I0609 09:10:01.115085 25759 layer.hpp:71] 
I0609 09:10:01.115207 25759 net.cpp:151] Setting up pool1
I0609 09:10:01.115226 25759 net.cpp:158] Top shape: 32 64 150 150 (46080000)
I0609 09:10:01.115231 25759 net.cpp:166] Memory required for data: 3409920128
I0609 09:10:01.115237 25759 layer_factory.hpp:77] Creating layer conv2_1
I0609 09:10:01.115258 25759 net.cpp:100] Creating Layer conv2_1
I0609 09:10:01.115267 25759 net.cpp:435] conv2_1 <- pool1
I0609 09:10:01.115280 25759 net.cpp:409] conv2_1 -> conv2_1
I0609 09:10:01.115293 25759 layer.hpp:71] 
I0609 09:10:01.118037 25759 net.cpp:151] Setting up conv2_1
I0609 09:10:01.118064 25759 net.cpp:158] Top shape: 32 128 150 150 (92160000)
I0609 09:10:01.118072 25759 net.cpp:166] Memory required for data: 3778560128
I0609 09:10:01.118090 25759 layer_factory.hpp:77] Creating layer relu2_1
I0609 09:10:01.118108 25759 net.cpp:100] Creating Layer relu2_1
I0609 09:10:01.118114 25759 net.cpp:435] relu2_1 <- conv2_1
I0609 09:10:01.118124 25759 net.cpp:396] relu2_1 -> conv2_1 (in-place)
I0609 09:10:01.118141 25759 layer.hpp:71] 
I0609 09:10:01.118386 25759 net.cpp:151] Setting up relu2_1
I0609 09:10:01.118407 25759 net.cpp:158] Top shape: 32 128 150 150 (92160000)
I0609 09:10:01.118412 25759 net.cpp:166] Memory required for data: 4147200128
I0609 09:10:01.118418 25759 layer_factory.hpp:77] Creating layer conv2_2
I0609 09:10:01.118439 25759 net.cpp:100] Creating Layer conv2_2
I0609 09:10:01.118446 25759 net.cpp:435] conv2_2 <- conv2_1
I0609 09:10:01.118458 25759 net.cpp:409] conv2_2 -> conv2_2
I0609 09:10:01.118468 25759 layer.hpp:71] 
I0609 09:10:01.121716 25759 net.cpp:151] Setting up conv2_2
I0609 09:10:01.121743 25759 net.cpp:158] Top shape: 32 128 150 150 (92160000)
I0609 09:10:01.121750 25759 net.cpp:166] Memory required for data: 4515840128
I0609 09:10:01.121762 25759 layer_factory.hpp:77] Creating layer relu2_2
I0609 09:10:01.121773 25759 net.cpp:100] Creating Layer relu2_2
I0609 09:10:01.121778 25759 net.cpp:435] relu2_2 <- conv2_2
I0609 09:10:01.121789 25759 net.cpp:396] relu2_2 -> conv2_2 (in-place)
I0609 09:10:01.121799 25759 layer.hpp:71] 
I0609 09:10:01.122514 25759 net.cpp:151] Setting up relu2_2
I0609 09:10:01.122539 25759 net.cpp:158] Top shape: 32 128 150 150 (92160000)
I0609 09:10:01.122545 25759 net.cpp:166] Memory required for data: 4884480128
I0609 09:10:01.122550 25759 layer_factory.hpp:77] Creating layer pool2
I0609 09:10:01.122565 25759 net.cpp:100] Creating Layer pool2
I0609 09:10:01.122572 25759 net.cpp:435] pool2 <- conv2_2
I0609 09:10:01.122581 25759 net.cpp:409] pool2 -> pool2
I0609 09:10:01.122592 25759 layer.hpp:71] 
I0609 09:10:01.122673 25759 net.cpp:151] Setting up pool2
I0609 09:10:01.122699 25759 net.cpp:158] Top shape: 32 128 75 75 (23040000)
I0609 09:10:01.122730 25759 net.cpp:166] Memory required for data: 4976640128
I0609 09:10:01.122783 25759 layer_factory.hpp:77] Creating layer conv3_1
I0609 09:10:01.122815 25759 net.cpp:100] Creating Layer conv3_1
I0609 09:10:01.122841 25759 net.cpp:435] conv3_1 <- pool2
I0609 09:10:01.122915 25759 net.cpp:409] conv3_1 -> conv3_1
I0609 09:10:01.122936 25759 layer.hpp:71] 
I0609 09:10:01.127562 25759 net.cpp:151] Setting up conv3_1
I0609 09:10:01.127595 25759 net.cpp:158] Top shape: 32 256 75 75 (46080000)
I0609 09:10:01.127602 25759 net.cpp:166] Memory required for data: 5160960128
I0609 09:10:01.127624 25759 layer_factory.hpp:77] Creating layer relu3_1
I0609 09:10:01.127637 25759 net.cpp:100] Creating Layer relu3_1
I0609 09:10:01.127645 25759 net.cpp:435] relu3_1 <- conv3_1
I0609 09:10:01.127656 25759 net.cpp:396] relu3_1 -> conv3_1 (in-place)
I0609 09:10:01.127667 25759 layer.hpp:71] 
I0609 09:10:01.127936 25759 net.cpp:151] Setting up relu3_1
I0609 09:10:01.127957 25759 net.cpp:158] Top shape: 32 256 75 75 (46080000)
I0609 09:10:01.127964 25759 net.cpp:166] Memory required for data: 5345280128
I0609 09:10:01.127969 25759 layer_factory.hpp:77] Creating layer conv3_2
I0609 09:10:01.127988 25759 net.cpp:100] Creating Layer conv3_2
I0609 09:10:01.127996 25759 net.cpp:435] conv3_2 <- conv3_1
I0609 09:10:01.128010 25759 net.cpp:409] conv3_2 -> conv3_2
I0609 09:10:01.128028 25759 layer.hpp:71] 
I0609 09:10:01.134274 25759 net.cpp:151] Setting up conv3_2
I0609 09:10:01.134313 25759 net.cpp:158] Top shape: 32 256 75 75 (46080000)
I0609 09:10:01.134320 25759 net.cpp:166] Memory required for data: 5529600128
I0609 09:10:01.134331 25759 layer_factory.hpp:77] Creating layer relu3_2
I0609 09:10:01.134344 25759 net.cpp:100] Creating Layer relu3_2
I0609 09:10:01.134351 25759 net.cpp:435] relu3_2 <- conv3_2
I0609 09:10:01.134362 25759 net.cpp:396] relu3_2 -> conv3_2 (in-place)
I0609 09:10:01.134373 25759 layer.hpp:71] 
I0609 09:10:01.135052 25759 net.cpp:151] Setting up relu3_2
I0609 09:10:01.135076 25759 net.cpp:158] Top shape: 32 256 75 75 (46080000)
I0609 09:10:01.135082 25759 net.cpp:166] Memory required for data: 5713920128
I0609 09:10:01.135087 25759 layer_factory.hpp:77] Creating layer conv3_3
I0609 09:10:01.135113 25759 net.cpp:100] Creating Layer conv3_3
I0609 09:10:01.135121 25759 net.cpp:435] conv3_3 <- conv3_2
I0609 09:10:01.135133 25759 net.cpp:409] conv3_3 -> conv3_3
I0609 09:10:01.135171 25759 layer.hpp:71] 
I0609 09:10:01.141515 25759 net.cpp:151] Setting up conv3_3
I0609 09:10:01.141569 25759 net.cpp:158] Top shape: 32 256 75 75 (46080000)
I0609 09:10:01.141577 25759 net.cpp:166] Memory required for data: 5898240128
I0609 09:10:01.141592 25759 layer_factory.hpp:77] Creating layer relu3_3
I0609 09:10:01.141610 25759 net.cpp:100] Creating Layer relu3_3
I0609 09:10:01.141618 25759 net.cpp:435] relu3_3 <- conv3_3
I0609 09:10:01.141628 25759 net.cpp:396] relu3_3 -> conv3_3 (in-place)
I0609 09:10:01.141639 25759 layer.hpp:71] 
I0609 09:10:01.142798 25759 net.cpp:151] Setting up relu3_3
I0609 09:10:01.142823 25759 net.cpp:158] Top shape: 32 256 75 75 (46080000)
I0609 09:10:01.142829 25759 net.cpp:166] Memory required for data: 6082560128
I0609 09:10:01.142835 25759 layer_factory.hpp:77] Creating layer pool3
I0609 09:10:01.142851 25759 net.cpp:100] Creating Layer pool3
I0609 09:10:01.142858 25759 net.cpp:435] pool3 <- conv3_3
I0609 09:10:01.142870 25759 net.cpp:409] pool3 -> pool3
I0609 09:10:01.142884 25759 layer.hpp:71] 
I0609 09:10:01.142963 25759 net.cpp:151] Setting up pool3
I0609 09:10:01.142980 25759 net.cpp:158] Top shape: 32 256 38 38 (11829248)
I0609 09:10:01.142985 25759 net.cpp:166] Memory required for data: 6129877120
I0609 09:10:01.142992 25759 layer_factory.hpp:77] Creating layer conv4_1
I0609 09:10:01.143013 25759 net.cpp:100] Creating Layer conv4_1
I0609 09:10:01.143020 25759 net.cpp:435] conv4_1 <- pool3
I0609 09:10:01.143040 25759 net.cpp:409] conv4_1 -> conv4_1
I0609 09:10:01.143084 25759 layer.hpp:71] 
I0609 09:10:01.154328 25759 net.cpp:151] Setting up conv4_1
I0609 09:10:01.154382 25759 net.cpp:158] Top shape: 32 512 38 38 (23658496)
I0609 09:10:01.154389 25759 net.cpp:166] Memory required for data: 6224511104
I0609 09:10:01.154403 25759 layer_factory.hpp:77] Creating layer relu4_1
I0609 09:10:01.154418 25759 net.cpp:100] Creating Layer relu4_1
I0609 09:10:01.154425 25759 net.cpp:435] relu4_1 <- conv4_1
I0609 09:10:01.154438 25759 net.cpp:396] relu4_1 -> conv4_1 (in-place)
I0609 09:10:01.154451 25759 layer.hpp:71] 
I0609 09:10:01.154709 25759 net.cpp:151] Setting up relu4_1
I0609 09:10:01.154729 25759 net.cpp:158] Top shape: 32 512 38 38 (23658496)
I0609 09:10:01.154736 25759 net.cpp:166] Memory required for data: 6319145088
I0609 09:10:01.154742 25759 layer_factory.hpp:77] Creating layer conv4_2
I0609 09:10:01.154764 25759 net.cpp:100] Creating Layer conv4_2
I0609 09:10:01.154772 25759 net.cpp:435] conv4_2 <- conv4_1
I0609 09:10:01.154783 25759 net.cpp:409] conv4_2 -> conv4_2
I0609 09:10:01.154798 25759 layer.hpp:71] 
I0609 09:10:01.173990 25759 net.cpp:151] Setting up conv4_2
I0609 09:10:01.174046 25759 net.cpp:158] Top shape: 32 512 38 38 (23658496)
I0609 09:10:01.174053 25759 net.cpp:166] Memory required for data: 6413779072
I0609 09:10:01.174079 25759 layer_factory.hpp:77] Creating layer relu4_2
I0609 09:10:01.174096 25759 net.cpp:100] Creating Layer relu4_2
I0609 09:10:01.174103 25759 net.cpp:435] relu4_2 <- conv4_2
I0609 09:10:01.174118 25759 net.cpp:396] relu4_2 -> conv4_2 (in-place)
I0609 09:10:01.174178 25759 layer.hpp:71] 
I0609 09:10:01.174899 25759 net.cpp:151] Setting up relu4_2
I0609 09:10:01.174922 25759 net.cpp:158] Top shape: 32 512 38 38 (23658496)
I0609 09:10:01.174928 25759 net.cpp:166] Memory required for data: 6508413056
I0609 09:10:01.174934 25759 layer_factory.hpp:77] Creating layer conv4_3
I0609 09:10:01.174955 25759 net.cpp:100] Creating Layer conv4_3
I0609 09:10:01.174963 25759 net.cpp:435] conv4_3 <- conv4_2
I0609 09:10:01.174978 25759 net.cpp:409] conv4_3 -> conv4_3
I0609 09:10:01.175014 25759 layer.hpp:71] 
I0609 09:10:01.198251 25759 net.cpp:151] Setting up conv4_3
I0609 09:10:01.198302 25759 net.cpp:158] Top shape: 32 512 38 38 (23658496)
I0609 09:10:01.198308 25759 net.cpp:166] Memory required for data: 6603047040
I0609 09:10:01.198323 25759 layer_factory.hpp:77] Creating layer relu4_3
I0609 09:10:01.198338 25759 net.cpp:100] Creating Layer relu4_3
I0609 09:10:01.198345 25759 net.cpp:435] relu4_3 <- conv4_3
I0609 09:10:01.198357 25759 net.cpp:396] relu4_3 -> conv4_3 (in-place)
I0609 09:10:01.198370 25759 layer.hpp:71] 
I0609 09:10:01.198644 25759 net.cpp:151] Setting up relu4_3
I0609 09:10:01.198665 25759 net.cpp:158] Top shape: 32 512 38 38 (23658496)
I0609 09:10:01.198671 25759 net.cpp:166] Memory required for data: 6697681024
I0609 09:10:01.198678 25759 layer_factory.hpp:77] Creating layer conv4_3_relu4_3_0_split
I0609 09:10:01.198690 25759 net.cpp:100] Creating Layer conv4_3_relu4_3_0_split
I0609 09:10:01.198698 25759 net.cpp:435] conv4_3_relu4_3_0_split <- conv4_3
I0609 09:10:01.198707 25759 net.cpp:409] conv4_3_relu4_3_0_split -> conv4_3_relu4_3_0_split_0
I0609 09:10:01.198722 25759 net.cpp:409] conv4_3_relu4_3_0_split -> conv4_3_relu4_3_0_split_1
I0609 09:10:01.198734 25759 layer.hpp:71] 
I0609 09:10:01.198810 25759 net.cpp:151] Setting up conv4_3_relu4_3_0_split
I0609 09:10:01.198837 25759 net.cpp:158] Top shape: 32 512 38 38 (23658496)
I0609 09:10:01.198844 25759 net.cpp:158] Top shape: 32 512 38 38 (23658496)
I0609 09:10:01.198850 25759 net.cpp:166] Memory required for data: 6886948992
I0609 09:10:01.198856 25759 layer_factory.hpp:77] Creating layer pool4
I0609 09:10:01.198869 25759 net.cpp:100] Creating Layer pool4
I0609 09:10:01.198876 25759 net.cpp:435] pool4 <- conv4_3_relu4_3_0_split_0
I0609 09:10:01.198886 25759 net.cpp:409] pool4 -> pool4
I0609 09:10:01.198895 25759 layer.hpp:71] 
I0609 09:10:01.198977 25759 net.cpp:151] Setting up pool4
I0609 09:10:01.198995 25759 net.cpp:158] Top shape: 32 512 19 19 (5914624)
I0609 09:10:01.199003 25759 net.cpp:166] Memory required for data: 6910607488
I0609 09:10:01.199008 25759 layer_factory.hpp:77] Creating layer conv5_1
I0609 09:10:01.199026 25759 net.cpp:100] Creating Layer conv5_1
I0609 09:10:01.199034 25759 net.cpp:435] conv5_1 <- pool4
I0609 09:10:01.199048 25759 net.cpp:409] conv5_1 -> conv5_1
I0609 09:10:01.199060 25759 layer.hpp:71] 
I0609 09:10:01.221586 25759 net.cpp:151] Setting up conv5_1
I0609 09:10:01.221640 25759 net.cpp:158] Top shape: 32 512 19 19 (5914624)
I0609 09:10:01.221648 25759 net.cpp:166] Memory required for data: 6934265984
I0609 09:10:01.221662 25759 layer_factory.hpp:77] Creating layer relu5_1
I0609 09:10:01.221680 25759 net.cpp:100] Creating Layer relu5_1
I0609 09:10:01.221688 25759 net.cpp:435] relu5_1 <- conv5_1
I0609 09:10:01.221699 25759 net.cpp:396] relu5_1 -> conv5_1 (in-place)
I0609 09:10:01.221710 25759 layer.hpp:71] 
I0609 09:10:01.222430 25759 net.cpp:151] Setting up relu5_1
I0609 09:10:01.222455 25759 net.cpp:158] Top shape: 32 512 19 19 (5914624)
I0609 09:10:01.222463 25759 net.cpp:166] Memory required for data: 6957924480
I0609 09:10:01.222470 25759 layer_factory.hpp:77] Creating layer conv5_2
I0609 09:10:01.222494 25759 net.cpp:100] Creating Layer conv5_2
I0609 09:10:01.222528 25759 net.cpp:435] conv5_2 <- conv5_1
I0609 09:10:01.222585 25759 net.cpp:409] conv5_2 -> conv5_2
I0609 09:10:01.222615 25759 layer.hpp:71] 
I0609 09:10:01.241854 25759 net.cpp:151] Setting up conv5_2
I0609 09:10:01.241926 25759 net.cpp:158] Top shape: 32 512 19 19 (5914624)
I0609 09:10:01.241969 25759 net.cpp:166] Memory required for data: 6981582976
I0609 09:10:01.241986 25759 layer_factory.hpp:77] Creating layer relu5_2
I0609 09:10:01.242002 25759 net.cpp:100] Creating Layer relu5_2
I0609 09:10:01.242033 25759 net.cpp:435] relu5_2 <- conv5_2
I0609 09:10:01.242063 25759 net.cpp:396] relu5_2 -> conv5_2 (in-place)
I0609 09:10:01.242094 25759 layer.hpp:71] 
I0609 09:10:01.242817 25759 net.cpp:151] Setting up relu5_2
I0609 09:10:01.242841 25759 net.cpp:158] Top shape: 32 512 19 19 (5914624)
I0609 09:10:01.242849 25759 net.cpp:166] Memory required for data: 7005241472
I0609 09:10:01.242856 25759 layer_factory.hpp:77] Creating layer conv5_3
I0609 09:10:01.242878 25759 net.cpp:100] Creating Layer conv5_3
I0609 09:10:01.242885 25759 net.cpp:435] conv5_3 <- conv5_2
I0609 09:10:01.242902 25759 net.cpp:409] conv5_3 -> conv5_3
I0609 09:10:01.242938 25759 layer.hpp:71] 
I0609 09:10:01.263474 25759 net.cpp:151] Setting up conv5_3
I0609 09:10:01.263531 25759 net.cpp:158] Top shape: 32 512 19 19 (5914624)
I0609 09:10:01.263541 25759 net.cpp:166] Memory required for data: 7028899968
I0609 09:10:01.263556 25759 layer_factory.hpp:77] Creating layer relu5_3
I0609 09:10:01.263581 25759 net.cpp:100] Creating Layer relu5_3
I0609 09:10:01.263588 25759 net.cpp:435] relu5_3 <- conv5_3
I0609 09:10:01.263599 25759 net.cpp:396] relu5_3 -> conv5_3 (in-place)
I0609 09:10:01.263612 25759 layer.hpp:71] 
I0609 09:10:01.263892 25759 net.cpp:151] Setting up relu5_3
I0609 09:10:01.263913 25759 net.cpp:158] Top shape: 32 512 19 19 (5914624)
I0609 09:10:01.263921 25759 net.cpp:166] Memory required for data: 7052558464
I0609 09:10:01.263927 25759 layer_factory.hpp:77] Creating layer pool5
I0609 09:10:01.263938 25759 net.cpp:100] Creating Layer pool5
I0609 09:10:01.263944 25759 net.cpp:435] pool5 <- conv5_3
I0609 09:10:01.263962 25759 net.cpp:409] pool5 -> pool5
I0609 09:10:01.263977 25759 layer.hpp:71] 
I0609 09:10:01.264093 25759 net.cpp:151] Setting up pool5
I0609 09:10:01.264111 25759 net.cpp:158] Top shape: 32 512 19 19 (5914624)
I0609 09:10:01.264119 25759 net.cpp:166] Memory required for data: 7076216960
I0609 09:10:01.264124 25759 layer_factory.hpp:77] Creating layer fc6
I0609 09:10:01.264147 25759 net.cpp:100] Creating Layer fc6
I0609 09:10:01.264154 25759 net.cpp:435] fc6 <- pool5
I0609 09:10:01.264168 25759 net.cpp:409] fc6 -> fc6
I0609 09:10:01.264200 25759 layer.hpp:71] 
I0609 09:10:01.301098 25759 net.cpp:151] Setting up fc6
I0609 09:10:01.301156 25759 net.cpp:158] Top shape: 32 1024 19 19 (11829248)
I0609 09:10:01.301163 25759 net.cpp:166] Memory required for data: 7123533952
I0609 09:10:01.301177 25759 layer_factory.hpp:77] Creating layer relu6
I0609 09:10:01.301192 25759 net.cpp:100] Creating Layer relu6
I0609 09:10:01.301200 25759 net.cpp:435] relu6 <- fc6
I0609 09:10:01.301213 25759 net.cpp:396] relu6 -> fc6 (in-place)
I0609 09:10:01.301225 25759 layer.hpp:71] 
I0609 09:10:01.302119 25759 net.cpp:151] Setting up relu6
I0609 09:10:01.302146 25759 net.cpp:158] Top shape: 32 1024 19 19 (11829248)
I0609 09:10:01.302153 25759 net.cpp:166] Memory required for data: 7170850944
I0609 09:10:01.302160 25759 layer_factory.hpp:77] Creating layer fc7
I0609 09:10:01.302182 25759 net.cpp:100] Creating Layer fc7
I0609 09:10:01.302191 25759 net.cpp:435] fc7 <- fc6
I0609 09:10:01.302206 25759 net.cpp:409] fc7 -> fc7
I0609 09:10:01.302244 25759 layer.hpp:71] 
I0609 09:10:01.312253 25759 net.cpp:151] Setting up fc7
I0609 09:10:01.312355 25759 net.cpp:158] Top shape: 32 1024 19 19 (11829248)
I0609 09:10:01.312381 25759 net.cpp:166] Memory required for data: 7218167936
I0609 09:10:01.312412 25759 layer_factory.hpp:77] Creating layer relu7
I0609 09:10:01.312469 25759 net.cpp:100] Creating Layer relu7
I0609 09:10:01.312503 25759 net.cpp:435] relu7 <- fc7
I0609 09:10:01.312535 25759 net.cpp:396] relu7 -> fc7 (in-place)
I0609 09:10:01.312587 25759 layer.hpp:71] 
I0609 09:10:01.312922 25759 net.cpp:151] Setting up relu7
I0609 09:10:01.312960 25759 net.cpp:158] Top shape: 32 1024 19 19 (11829248)
I0609 09:10:01.313014 25759 net.cpp:166] Memory required for data: 7265484928
I0609 09:10:01.313062 25759 layer_factory.hpp:77] Creating layer fc7_relu7_0_split
I0609 09:10:01.313093 25759 net.cpp:100] Creating Layer fc7_relu7_0_split
I0609 09:10:01.313138 25759 net.cpp:435] fc7_relu7_0_split <- fc7
I0609 09:10:01.313184 25759 net.cpp:409] fc7_relu7_0_split -> fc7_relu7_0_split_0
I0609 09:10:01.313226 25759 net.cpp:409] fc7_relu7_0_split -> fc7_relu7_0_split_1
I0609 09:10:01.313277 25759 net.cpp:409] fc7_relu7_0_split -> fc7_relu7_0_split_2
I0609 09:10:01.313318 25759 net.cpp:409] fc7_relu7_0_split -> fc7_relu7_0_split_3
I0609 09:10:01.313361 25759 layer.hpp:71] 
I0609 09:10:01.313513 25759 net.cpp:151] Setting up fc7_relu7_0_split
I0609 09:10:01.313546 25759 net.cpp:158] Top shape: 32 1024 19 19 (11829248)
I0609 09:10:01.313573 25759 net.cpp:158] Top shape: 32 1024 19 19 (11829248)
I0609 09:10:01.313601 25759 net.cpp:158] Top shape: 32 1024 19 19 (11829248)
I0609 09:10:01.313648 25759 net.cpp:158] Top shape: 32 1024 19 19 (11829248)
I0609 09:10:01.313670 25759 net.cpp:166] Memory required for data: 7454752896
I0609 09:10:01.313714 25759 layer_factory.hpp:77] Creating layer conv6_1
I0609 09:10:01.313781 25759 net.cpp:100] Creating Layer conv6_1
I0609 09:10:01.313798 25759 net.cpp:435] conv6_1 <- fc7_relu7_0_split_0
I0609 09:10:01.313815 25759 net.cpp:409] conv6_1 -> conv6_1
I0609 09:10:01.313829 25759 layer.hpp:71] 
I0609 09:10:01.318575 25759 net.cpp:151] Setting up conv6_1
I0609 09:10:01.318619 25759 net.cpp:158] Top shape: 32 256 19 19 (2957312)
I0609 09:10:01.318626 25759 net.cpp:166] Memory required for data: 7466582144
I0609 09:10:01.318639 25759 layer_factory.hpp:77] Creating layer conv6_1_relu
I0609 09:10:01.318652 25759 net.cpp:100] Creating Layer conv6_1_relu
I0609 09:10:01.318658 25759 net.cpp:435] conv6_1_relu <- conv6_1
I0609 09:10:01.318670 25759 net.cpp:396] conv6_1_relu -> conv6_1 (in-place)
I0609 09:10:01.318681 25759 layer.hpp:71] 
I0609 09:10:01.319398 25759 net.cpp:151] Setting up conv6_1_relu
I0609 09:10:01.319422 25759 net.cpp:158] Top shape: 32 256 19 19 (2957312)
I0609 09:10:01.319428 25759 net.cpp:166] Memory required for data: 7478411392
I0609 09:10:01.319434 25759 layer_factory.hpp:77] Creating layer conv6_2
I0609 09:10:01.319456 25759 net.cpp:100] Creating Layer conv6_2
I0609 09:10:01.319464 25759 net.cpp:435] conv6_2 <- conv6_1
I0609 09:10:01.319478 25759 net.cpp:409] conv6_2 -> conv6_2
I0609 09:10:01.319500 25759 layer.hpp:71] 
I0609 09:10:01.330355 25759 net.cpp:151] Setting up conv6_2
I0609 09:10:01.330411 25759 net.cpp:158] Top shape: 32 512 10 10 (1638400)
I0609 09:10:01.330418 25759 net.cpp:166] Memory required for data: 7484964992
I0609 09:10:01.330448 25759 layer_factory.hpp:77] Creating layer conv6_2_relu
I0609 09:10:01.330466 25759 net.cpp:100] Creating Layer conv6_2_relu
I0609 09:10:01.330473 25759 net.cpp:435] conv6_2_relu <- conv6_2
I0609 09:10:01.330483 25759 net.cpp:396] conv6_2_relu -> conv6_2 (in-place)
I0609 09:10:01.330494 25759 layer.hpp:71] 
I0609 09:10:01.331238 25759 net.cpp:151] Setting up conv6_2_relu
I0609 09:10:01.331264 25759 net.cpp:158] Top shape: 32 512 10 10 (1638400)
I0609 09:10:01.331270 25759 net.cpp:166] Memory required for data: 7491518592
I0609 09:10:01.331276 25759 layer_factory.hpp:77] Creating layer conv6_2_conv6_2_relu_0_split
I0609 09:10:01.331290 25759 net.cpp:100] Creating Layer conv6_2_conv6_2_relu_0_split
I0609 09:10:01.331295 25759 net.cpp:435] conv6_2_conv6_2_relu_0_split <- conv6_2
I0609 09:10:01.331310 25759 net.cpp:409] conv6_2_conv6_2_relu_0_split -> conv6_2_conv6_2_relu_0_split_0
I0609 09:10:01.331324 25759 net.cpp:409] conv6_2_conv6_2_relu_0_split -> conv6_2_conv6_2_relu_0_split_1
I0609 09:10:01.331337 25759 net.cpp:409] conv6_2_conv6_2_relu_0_split -> conv6_2_conv6_2_relu_0_split_2
I0609 09:10:01.331349 25759 net.cpp:409] conv6_2_conv6_2_relu_0_split -> conv6_2_conv6_2_relu_0_split_3
I0609 09:10:01.331360 25759 layer.hpp:71] 
I0609 09:10:01.331487 25759 net.cpp:151] Setting up conv6_2_conv6_2_relu_0_split
I0609 09:10:01.331507 25759 net.cpp:158] Top shape: 32 512 10 10 (1638400)
I0609 09:10:01.331589 25759 net.cpp:158] Top shape: 32 512 10 10 (1638400)
I0609 09:10:01.331610 25759 net.cpp:158] Top shape: 32 512 10 10 (1638400)
I0609 09:10:01.331617 25759 net.cpp:158] Top shape: 32 512 10 10 (1638400)
I0609 09:10:01.331624 25759 net.cpp:166] Memory required for data: 7517732992
I0609 09:10:01.331630 25759 layer_factory.hpp:77] Creating layer conv7_1
I0609 09:10:01.331655 25759 net.cpp:100] Creating Layer conv7_1
I0609 09:10:01.331682 25759 net.cpp:435] conv7_1 <- conv6_2_conv6_2_relu_0_split_0
I0609 09:10:01.331735 25759 net.cpp:409] conv7_1 -> conv7_1
I0609 09:10:01.331769 25759 layer.hpp:71] 
I0609 09:10:01.334098 25759 net.cpp:151] Setting up conv7_1
I0609 09:10:01.334130 25759 net.cpp:158] Top shape: 32 128 10 10 (409600)
I0609 09:10:01.334137 25759 net.cpp:166] Memory required for data: 7519371392
I0609 09:10:01.334151 25759 layer_factory.hpp:77] Creating layer conv7_1_relu
I0609 09:10:01.334164 25759 net.cpp:100] Creating Layer conv7_1_relu
I0609 09:10:01.334172 25759 net.cpp:435] conv7_1_relu <- conv7_1
I0609 09:10:01.334182 25759 net.cpp:396] conv7_1_relu -> conv7_1 (in-place)
I0609 09:10:01.334192 25759 layer.hpp:71] 
I0609 09:10:01.334437 25759 net.cpp:151] Setting up conv7_1_relu
I0609 09:10:01.334457 25759 net.cpp:158] Top shape: 32 128 10 10 (409600)
I0609 09:10:01.334465 25759 net.cpp:166] Memory required for data: 7521009792
I0609 09:10:01.334470 25759 layer_factory.hpp:77] Creating layer conv7_2
I0609 09:10:01.334489 25759 net.cpp:100] Creating Layer conv7_2
I0609 09:10:01.334496 25759 net.cpp:435] conv7_2 <- conv7_1
I0609 09:10:01.334511 25759 net.cpp:409] conv7_2 -> conv7_2
I0609 09:10:01.334550 25759 layer.hpp:71] 
I0609 09:10:01.338793 25759 net.cpp:151] Setting up conv7_2
I0609 09:10:01.338825 25759 net.cpp:158] Top shape: 32 256 5 5 (204800)
I0609 09:10:01.338848 25759 net.cpp:166] Memory required for data: 7521828992
I0609 09:10:01.338865 25759 layer_factory.hpp:77] Creating layer conv7_2_relu
I0609 09:10:01.338877 25759 net.cpp:100] Creating Layer conv7_2_relu
I0609 09:10:01.338884 25759 net.cpp:435] conv7_2_relu <- conv7_2
I0609 09:10:01.338896 25759 net.cpp:396] conv7_2_relu -> conv7_2 (in-place)
I0609 09:10:01.338943 25759 layer.hpp:71] 
I0609 09:10:01.339673 25759 net.cpp:151] Setting up conv7_2_relu
I0609 09:10:01.339696 25759 net.cpp:158] Top shape: 32 256 5 5 (204800)
I0609 09:10:01.339704 25759 net.cpp:166] Memory required for data: 7522648192
I0609 09:10:01.339710 25759 layer_factory.hpp:77] Creating layer conv7_2_conv7_2_relu_0_split
I0609 09:10:01.339721 25759 net.cpp:100] Creating Layer conv7_2_conv7_2_relu_0_split
I0609 09:10:01.339727 25759 net.cpp:435] conv7_2_conv7_2_relu_0_split <- conv7_2
I0609 09:10:01.339742 25759 net.cpp:409] conv7_2_conv7_2_relu_0_split -> conv7_2_conv7_2_relu_0_split_0
I0609 09:10:01.339756 25759 net.cpp:409] conv7_2_conv7_2_relu_0_split -> conv7_2_conv7_2_relu_0_split_1
I0609 09:10:01.339769 25759 net.cpp:409] conv7_2_conv7_2_relu_0_split -> conv7_2_conv7_2_relu_0_split_2
I0609 09:10:01.339805 25759 net.cpp:409] conv7_2_conv7_2_relu_0_split -> conv7_2_conv7_2_relu_0_split_3
I0609 09:10:01.339857 25759 layer.hpp:71] 
I0609 09:10:01.339987 25759 net.cpp:151] Setting up conv7_2_conv7_2_relu_0_split
I0609 09:10:01.340004 25759 net.cpp:158] Top shape: 32 256 5 5 (204800)
I0609 09:10:01.340013 25759 net.cpp:158] Top shape: 32 256 5 5 (204800)
I0609 09:10:01.340020 25759 net.cpp:158] Top shape: 32 256 5 5 (204800)
I0609 09:10:01.340026 25759 net.cpp:158] Top shape: 32 256 5 5 (204800)
I0609 09:10:01.340031 25759 net.cpp:166] Memory required for data: 7525924992
I0609 09:10:01.340037 25759 layer_factory.hpp:77] Creating layer conv8_1
I0609 09:10:01.340059 25759 net.cpp:100] Creating Layer conv8_1
I0609 09:10:01.340085 25759 net.cpp:435] conv8_1 <- conv7_2_conv7_2_relu_0_split_0
I0609 09:10:01.340136 25759 net.cpp:409] conv8_1 -> conv8_1
I0609 09:10:01.340162 25759 layer.hpp:71] 
I0609 09:10:01.342650 25759 net.cpp:151] Setting up conv8_1
I0609 09:10:01.342676 25759 net.cpp:158] Top shape: 32 128 5 5 (102400)
I0609 09:10:01.342682 25759 net.cpp:166] Memory required for data: 7526334592
I0609 09:10:01.342716 25759 layer_factory.hpp:77] Creating layer conv8_1_relu
I0609 09:10:01.342730 25759 net.cpp:100] Creating Layer conv8_1_relu
I0609 09:10:01.342756 25759 net.cpp:435] conv8_1_relu <- conv8_1
I0609 09:10:01.342789 25759 net.cpp:396] conv8_1_relu -> conv8_1 (in-place)
I0609 09:10:01.342854 25759 layer.hpp:71] 
I0609 09:10:01.343116 25759 net.cpp:151] Setting up conv8_1_relu
I0609 09:10:01.343139 25759 net.cpp:158] Top shape: 32 128 5 5 (102400)
I0609 09:10:01.343145 25759 net.cpp:166] Memory required for data: 7526744192
I0609 09:10:01.343150 25759 layer_factory.hpp:77] Creating layer conv8_2
I0609 09:10:01.343169 25759 net.cpp:100] Creating Layer conv8_2
I0609 09:10:01.343178 25759 net.cpp:435] conv8_2 <- conv8_1
I0609 09:10:01.343189 25759 net.cpp:409] conv8_2 -> conv8_2
I0609 09:10:01.343204 25759 layer.hpp:71] 
I0609 09:10:01.347882 25759 net.cpp:151] Setting up conv8_2
I0609 09:10:01.347923 25759 net.cpp:158] Top shape: 32 256 3 3 (73728)
I0609 09:10:01.347931 25759 net.cpp:166] Memory required for data: 7527039104
I0609 09:10:01.347944 25759 layer_factory.hpp:77] Creating layer conv8_2_relu
I0609 09:10:01.347960 25759 net.cpp:100] Creating Layer conv8_2_relu
I0609 09:10:01.347968 25759 net.cpp:435] conv8_2_relu <- conv8_2
I0609 09:10:01.347977 25759 net.cpp:396] conv8_2_relu -> conv8_2 (in-place)
I0609 09:10:01.347988 25759 layer.hpp:71] 
I0609 09:10:01.348682 25759 net.cpp:151] Setting up conv8_2_relu
I0609 09:10:01.348707 25759 net.cpp:158] Top shape: 32 256 3 3 (73728)
I0609 09:10:01.348714 25759 net.cpp:166] Memory required for data: 7527334016
I0609 09:10:01.348721 25759 layer_factory.hpp:77] Creating layer conv8_2_conv8_2_relu_0_split
I0609 09:10:01.348733 25759 net.cpp:100] Creating Layer conv8_2_conv8_2_relu_0_split
I0609 09:10:01.348739 25759 net.cpp:435] conv8_2_conv8_2_relu_0_split <- conv8_2
I0609 09:10:01.348752 25759 net.cpp:409] conv8_2_conv8_2_relu_0_split -> conv8_2_conv8_2_relu_0_split_0
I0609 09:10:01.348767 25759 net.cpp:409] conv8_2_conv8_2_relu_0_split -> conv8_2_conv8_2_relu_0_split_1
I0609 09:10:01.348779 25759 net.cpp:409] conv8_2_conv8_2_relu_0_split -> conv8_2_conv8_2_relu_0_split_2
I0609 09:10:01.348819 25759 net.cpp:409] conv8_2_conv8_2_relu_0_split -> conv8_2_conv8_2_relu_0_split_3
I0609 09:10:01.348881 25759 layer.hpp:71] 
I0609 09:10:01.349012 25759 net.cpp:151] Setting up conv8_2_conv8_2_relu_0_split
I0609 09:10:01.349033 25759 net.cpp:158] Top shape: 32 256 3 3 (73728)
I0609 09:10:01.349041 25759 net.cpp:158] Top shape: 32 256 3 3 (73728)
I0609 09:10:01.349048 25759 net.cpp:158] Top shape: 32 256 3 3 (73728)
I0609 09:10:01.349056 25759 net.cpp:158] Top shape: 32 256 3 3 (73728)
I0609 09:10:01.349061 25759 net.cpp:166] Memory required for data: 7528513664
I0609 09:10:01.349066 25759 layer_factory.hpp:77] Creating layer conv9_1
I0609 09:10:01.349086 25759 net.cpp:100] Creating Layer conv9_1
I0609 09:10:01.349094 25759 net.cpp:435] conv9_1 <- conv8_2_conv8_2_relu_0_split_0
I0609 09:10:01.349109 25759 net.cpp:409] conv9_1 -> conv9_1
I0609 09:10:01.349144 25759 layer.hpp:71] 
I0609 09:10:01.351229 25759 net.cpp:151] Setting up conv9_1
I0609 09:10:01.351256 25759 net.cpp:158] Top shape: 32 128 3 3 (36864)
I0609 09:10:01.351263 25759 net.cpp:166] Memory required for data: 7528661120
I0609 09:10:01.351276 25759 layer_factory.hpp:77] Creating layer conv9_1_relu
I0609 09:10:01.351287 25759 net.cpp:100] Creating Layer conv9_1_relu
I0609 09:10:01.351294 25759 net.cpp:435] conv9_1_relu <- conv9_1
I0609 09:10:01.351306 25759 net.cpp:396] conv9_1_relu -> conv9_1 (in-place)
I0609 09:10:01.351316 25759 layer.hpp:71] 
I0609 09:10:01.352004 25759 net.cpp:151] Setting up conv9_1_relu
I0609 09:10:01.352026 25759 net.cpp:158] Top shape: 32 128 3 3 (36864)
I0609 09:10:01.352035 25759 net.cpp:166] Memory required for data: 7528808576
I0609 09:10:01.352039 25759 layer_factory.hpp:77] Creating layer conv9_2
I0609 09:10:01.352058 25759 net.cpp:100] Creating Layer conv9_2
I0609 09:10:01.352066 25759 net.cpp:435] conv9_2 <- conv9_1
I0609 09:10:01.352133 25759 net.cpp:409] conv9_2 -> conv9_2
I0609 09:10:01.352176 25759 layer.hpp:71] 
I0609 09:10:01.356335 25759 net.cpp:151] Setting up conv9_2
I0609 09:10:01.356366 25759 net.cpp:158] Top shape: 32 256 1 1 (8192)
I0609 09:10:01.356374 25759 net.cpp:166] Memory required for data: 7528841344
I0609 09:10:01.356386 25759 layer_factory.hpp:77] Creating layer conv9_2_relu
I0609 09:10:01.356397 25759 net.cpp:100] Creating Layer conv9_2_relu
I0609 09:10:01.356405 25759 net.cpp:435] conv9_2_relu <- conv9_2
I0609 09:10:01.356417 25759 net.cpp:396] conv9_2_relu -> conv9_2 (in-place)
I0609 09:10:01.356428 25759 layer.hpp:71] 
I0609 09:10:01.356699 25759 net.cpp:151] Setting up conv9_2_relu
I0609 09:10:01.356720 25759 net.cpp:158] Top shape: 32 256 1 1 (8192)
I0609 09:10:01.356727 25759 net.cpp:166] Memory required for data: 7528874112
I0609 09:10:01.356734 25759 layer_factory.hpp:77] Creating layer conv9_2_conv9_2_relu_0_split
I0609 09:10:01.356750 25759 net.cpp:100] Creating Layer conv9_2_conv9_2_relu_0_split
I0609 09:10:01.356757 25759 net.cpp:435] conv9_2_conv9_2_relu_0_split <- conv9_2
I0609 09:10:01.356770 25759 net.cpp:409] conv9_2_conv9_2_relu_0_split -> conv9_2_conv9_2_relu_0_split_0
I0609 09:10:01.356784 25759 net.cpp:409] conv9_2_conv9_2_relu_0_split -> conv9_2_conv9_2_relu_0_split_1
I0609 09:10:01.356823 25759 net.cpp:409] conv9_2_conv9_2_relu_0_split -> conv9_2_conv9_2_relu_0_split_2
I0609 09:10:01.356863 25759 layer.hpp:71] 
I0609 09:10:01.356979 25759 net.cpp:151] Setting up conv9_2_conv9_2_relu_0_split
I0609 09:10:01.356997 25759 net.cpp:158] Top shape: 32 256 1 1 (8192)
I0609 09:10:01.357004 25759 net.cpp:158] Top shape: 32 256 1 1 (8192)
I0609 09:10:01.357012 25759 net.cpp:158] Top shape: 32 256 1 1 (8192)
I0609 09:10:01.357017 25759 net.cpp:166] Memory required for data: 7528972416
I0609 09:10:01.357023 25759 layer_factory.hpp:77] Creating layer conv4_3_norm
I0609 09:10:01.357039 25759 net.cpp:100] Creating Layer conv4_3_norm
I0609 09:10:01.357048 25759 net.cpp:435] conv4_3_norm <- conv4_3_relu4_3_0_split_1
I0609 09:10:01.357062 25759 net.cpp:409] conv4_3_norm -> conv4_3_norm
I0609 09:10:01.357098 25759 layer.hpp:71] 
I0609 09:10:01.357353 25759 net.cpp:151] Setting up conv4_3_norm
I0609 09:10:01.357372 25759 net.cpp:158] Top shape: 32 512 38 38 (23658496)
I0609 09:10:01.357378 25759 net.cpp:166] Memory required for data: 7623606400
I0609 09:10:01.357388 25759 layer_factory.hpp:77] Creating layer conv4_3_norm_conv4_3_norm_0_split
I0609 09:10:01.357398 25759 net.cpp:100] Creating Layer conv4_3_norm_conv4_3_norm_0_split
I0609 09:10:01.357403 25759 net.cpp:435] conv4_3_norm_conv4_3_norm_0_split <- conv4_3_norm
I0609 09:10:01.357417 25759 net.cpp:409] conv4_3_norm_conv4_3_norm_0_split -> conv4_3_norm_conv4_3_norm_0_split_0
I0609 09:10:01.357429 25759 net.cpp:409] conv4_3_norm_conv4_3_norm_0_split -> conv4_3_norm_conv4_3_norm_0_split_1
I0609 09:10:01.357461 25759 net.cpp:409] conv4_3_norm_conv4_3_norm_0_split -> conv4_3_norm_conv4_3_norm_0_split_2
I0609 09:10:01.357507 25759 layer.hpp:71] 
I0609 09:10:01.357619 25759 net.cpp:151] Setting up conv4_3_norm_conv4_3_norm_0_split
I0609 09:10:01.357635 25759 net.cpp:158] Top shape: 32 512 38 38 (23658496)
I0609 09:10:01.357643 25759 net.cpp:158] Top shape: 32 512 38 38 (23658496)
I0609 09:10:01.357650 25759 net.cpp:158] Top shape: 32 512 38 38 (23658496)
I0609 09:10:01.357656 25759 net.cpp:166] Memory required for data: 7907508352
I0609 09:10:01.357661 25759 layer_factory.hpp:77] Creating layer conv4_3_norm_mbox_loc
I0609 09:10:01.357681 25759 net.cpp:100] Creating Layer conv4_3_norm_mbox_loc
I0609 09:10:01.357688 25759 net.cpp:435] conv4_3_norm_mbox_loc <- conv4_3_norm_conv4_3_norm_0_split_0
I0609 09:10:01.357702 25759 net.cpp:409] conv4_3_norm_mbox_loc -> conv4_3_norm_mbox_loc
I0609 09:10:01.357734 25759 layer.hpp:71] 
I0609 09:10:01.360087 25759 net.cpp:151] Setting up conv4_3_norm_mbox_loc
I0609 09:10:01.360116 25759 net.cpp:158] Top shape: 32 16 38 38 (739328)
I0609 09:10:01.360124 25759 net.cpp:166] Memory required for data: 7910465664
I0609 09:10:01.360136 25759 layer_factory.hpp:77] Creating layer conv4_3_norm_mbox_loc_perm
I0609 09:10:01.360173 25759 net.cpp:100] Creating Layer conv4_3_norm_mbox_loc_perm
I0609 09:10:01.360203 25759 net.cpp:435] conv4_3_norm_mbox_loc_perm <- conv4_3_norm_mbox_loc
I0609 09:10:01.360239 25759 net.cpp:409] conv4_3_norm_mbox_loc_perm -> conv4_3_norm_mbox_loc_perm
I0609 09:10:01.360278 25759 layer.hpp:71] 
I0609 09:10:01.360463 25759 net.cpp:151] Setting up conv4_3_norm_mbox_loc_perm
I0609 09:10:01.360481 25759 net.cpp:158] Top shape: 32 38 38 16 (739328)
I0609 09:10:01.360488 25759 net.cpp:166] Memory required for data: 7913422976
I0609 09:10:01.360494 25759 layer_factory.hpp:77] Creating layer conv4_3_norm_mbox_loc_flat
I0609 09:10:01.360507 25759 net.cpp:100] Creating Layer conv4_3_norm_mbox_loc_flat
I0609 09:10:01.360513 25759 net.cpp:435] conv4_3_norm_mbox_loc_flat <- conv4_3_norm_mbox_loc_perm
I0609 09:10:01.360527 25759 net.cpp:409] conv4_3_norm_mbox_loc_flat -> conv4_3_norm_mbox_loc_flat
I0609 09:10:01.360563 25759 layer.hpp:71] 
I0609 09:10:01.360646 25759 net.cpp:151] Setting up conv4_3_norm_mbox_loc_flat
I0609 09:10:01.360666 25759 net.cpp:158] Top shape: 32 23104 (739328)
I0609 09:10:01.360672 25759 net.cpp:166] Memory required for data: 7916380288
I0609 09:10:01.360677 25759 layer_factory.hpp:77] Creating layer conv4_3_norm_mbox_conf
I0609 09:10:01.360713 25759 net.cpp:100] Creating Layer conv4_3_norm_mbox_conf
I0609 09:10:01.360743 25759 net.cpp:435] conv4_3_norm_mbox_conf <- conv4_3_norm_conv4_3_norm_0_split_1
I0609 09:10:01.360797 25759 net.cpp:409] conv4_3_norm_mbox_conf -> conv4_3_norm_mbox_conf
I0609 09:10:01.360836 25759 layer.hpp:71] 
I0609 09:10:01.363019 25759 net.cpp:151] Setting up conv4_3_norm_mbox_conf
I0609 09:10:01.363045 25759 net.cpp:158] Top shape: 32 8 38 38 (369664)
I0609 09:10:01.363052 25759 net.cpp:166] Memory required for data: 7917858944
I0609 09:10:01.363065 25759 layer_factory.hpp:77] Creating layer conv4_3_norm_mbox_conf_perm
I0609 09:10:01.363076 25759 net.cpp:100] Creating Layer conv4_3_norm_mbox_conf_perm
I0609 09:10:01.363083 25759 net.cpp:435] conv4_3_norm_mbox_conf_perm <- conv4_3_norm_mbox_conf
I0609 09:10:01.363098 25759 net.cpp:409] conv4_3_norm_mbox_conf_perm -> conv4_3_norm_mbox_conf_perm
I0609 09:10:01.363111 25759 layer.hpp:71] 
I0609 09:10:01.363277 25759 net.cpp:151] Setting up conv4_3_norm_mbox_conf_perm
I0609 09:10:01.363296 25759 net.cpp:158] Top shape: 32 38 38 8 (369664)
I0609 09:10:01.363301 25759 net.cpp:166] Memory required for data: 7919337600
I0609 09:10:01.363306 25759 layer_factory.hpp:77] Creating layer conv4_3_norm_mbox_conf_flat
I0609 09:10:01.363317 25759 net.cpp:100] Creating Layer conv4_3_norm_mbox_conf_flat
I0609 09:10:01.363323 25759 net.cpp:435] conv4_3_norm_mbox_conf_flat <- conv4_3_norm_mbox_conf_perm
I0609 09:10:01.363338 25759 net.cpp:409] conv4_3_norm_mbox_conf_flat -> conv4_3_norm_mbox_conf_flat
I0609 09:10:01.363350 25759 layer.hpp:71] 
I0609 09:10:01.363391 25759 net.cpp:151] Setting up conv4_3_norm_mbox_conf_flat
I0609 09:10:01.363436 25759 net.cpp:158] Top shape: 32 11552 (369664)
I0609 09:10:01.363458 25759 net.cpp:166] Memory required for data: 7920816256
I0609 09:10:01.363466 25759 layer_factory.hpp:77] Creating layer conv4_3_norm_mbox_priorbox
I0609 09:10:01.363481 25759 net.cpp:100] Creating Layer conv4_3_norm_mbox_priorbox
I0609 09:10:01.363487 25759 net.cpp:435] conv4_3_norm_mbox_priorbox <- conv4_3_norm_conv4_3_norm_0_split_2
I0609 09:10:01.363497 25759 net.cpp:435] conv4_3_norm_mbox_priorbox <- data_data_0_split_1
I0609 09:10:01.363512 25759 net.cpp:409] conv4_3_norm_mbox_priorbox -> conv4_3_norm_mbox_priorbox
I0609 09:10:01.363548 25759 layer.hpp:71] 
I0609 09:10:01.363636 25759 net.cpp:151] Setting up conv4_3_norm_mbox_priorbox
I0609 09:10:01.363662 25759 net.cpp:158] Top shape: 1 2 23104 (46208)
I0609 09:10:01.363668 25759 net.cpp:166] Memory required for data: 7921001088
I0609 09:10:01.363673 25759 layer_factory.hpp:77] Creating layer fc7_mbox_loc
I0609 09:10:01.363692 25759 net.cpp:100] Creating Layer fc7_mbox_loc
I0609 09:10:01.363729 25759 net.cpp:435] fc7_mbox_loc <- fc7_relu7_0_split_1
I0609 09:10:01.363786 25759 net.cpp:409] fc7_mbox_loc -> fc7_mbox_loc
I0609 09:10:01.363833 25759 layer.hpp:71] 
I0609 09:10:01.368031 25759 net.cpp:151] Setting up fc7_mbox_loc
I0609 09:10:01.368067 25759 net.cpp:158] Top shape: 32 24 19 19 (277248)
I0609 09:10:01.368073 25759 net.cpp:166] Memory required for data: 7922110080
I0609 09:10:01.368085 25759 layer_factory.hpp:77] Creating layer fc7_mbox_loc_perm
I0609 09:10:01.368103 25759 net.cpp:100] Creating Layer fc7_mbox_loc_perm
I0609 09:10:01.368113 25759 net.cpp:435] fc7_mbox_loc_perm <- fc7_mbox_loc
I0609 09:10:01.368124 25759 net.cpp:409] fc7_mbox_loc_perm -> fc7_mbox_loc_perm
I0609 09:10:01.368137 25759 layer.hpp:71] 
I0609 09:10:01.368329 25759 net.cpp:151] Setting up fc7_mbox_loc_perm
I0609 09:10:01.368366 25759 net.cpp:158] Top shape: 32 19 19 24 (277248)
I0609 09:10:01.368374 25759 net.cpp:166] Memory required for data: 7923219072
I0609 09:10:01.368381 25759 layer_factory.hpp:77] Creating layer fc7_mbox_loc_flat
I0609 09:10:01.368391 25759 net.cpp:100] Creating Layer fc7_mbox_loc_flat
I0609 09:10:01.368399 25759 net.cpp:435] fc7_mbox_loc_flat <- fc7_mbox_loc_perm
I0609 09:10:01.368409 25759 net.cpp:409] fc7_mbox_loc_flat -> fc7_mbox_loc_flat
I0609 09:10:01.368470 25759 layer.hpp:71] 
I0609 09:10:01.368556 25759 net.cpp:151] Setting up fc7_mbox_loc_flat
I0609 09:10:01.368582 25759 net.cpp:158] Top shape: 32 8664 (277248)
I0609 09:10:01.368588 25759 net.cpp:166] Memory required for data: 7924328064
I0609 09:10:01.368594 25759 layer_factory.hpp:77] Creating layer fc7_mbox_conf
I0609 09:10:01.368616 25759 net.cpp:100] Creating Layer fc7_mbox_conf
I0609 09:10:01.368644 25759 net.cpp:435] fc7_mbox_conf <- fc7_relu7_0_split_2
I0609 09:10:01.368692 25759 net.cpp:409] fc7_mbox_conf -> fc7_mbox_conf
I0609 09:10:01.368715 25759 layer.hpp:71] 
I0609 09:10:01.371881 25759 net.cpp:151] Setting up fc7_mbox_conf
I0609 09:10:01.371929 25759 net.cpp:158] Top shape: 32 12 19 19 (138624)
I0609 09:10:01.371937 25759 net.cpp:166] Memory required for data: 7924882560
I0609 09:10:01.371950 25759 layer_factory.hpp:77] Creating layer fc7_mbox_conf_perm
I0609 09:10:01.371965 25759 net.cpp:100] Creating Layer fc7_mbox_conf_perm
I0609 09:10:01.371974 25759 net.cpp:435] fc7_mbox_conf_perm <- fc7_mbox_conf
I0609 09:10:01.371986 25759 net.cpp:409] fc7_mbox_conf_perm -> fc7_mbox_conf_perm
I0609 09:10:01.372001 25759 layer.hpp:71] 
I0609 09:10:01.372182 25759 net.cpp:151] Setting up fc7_mbox_conf_perm
I0609 09:10:01.372202 25759 net.cpp:158] Top shape: 32 19 19 12 (138624)
I0609 09:10:01.372208 25759 net.cpp:166] Memory required for data: 7925437056
I0609 09:10:01.372213 25759 layer_factory.hpp:77] Creating layer fc7_mbox_conf_flat
I0609 09:10:01.372225 25759 net.cpp:100] Creating Layer fc7_mbox_conf_flat
I0609 09:10:01.372231 25759 net.cpp:435] fc7_mbox_conf_flat <- fc7_mbox_conf_perm
I0609 09:10:01.372243 25759 net.cpp:409] fc7_mbox_conf_flat -> fc7_mbox_conf_flat
I0609 09:10:01.372256 25759 layer.hpp:71] 
I0609 09:10:01.372298 25759 net.cpp:151] Setting up fc7_mbox_conf_flat
I0609 09:10:01.372347 25759 net.cpp:158] Top shape: 32 4332 (138624)
I0609 09:10:01.372375 25759 net.cpp:166] Memory required for data: 7925991552
I0609 09:10:01.372395 25759 layer_factory.hpp:77] Creating layer fc7_mbox_priorbox
I0609 09:10:01.372442 25759 net.cpp:100] Creating Layer fc7_mbox_priorbox
I0609 09:10:01.372460 25759 net.cpp:435] fc7_mbox_priorbox <- fc7_relu7_0_split_3
I0609 09:10:01.372470 25759 net.cpp:435] fc7_mbox_priorbox <- data_data_0_split_2
I0609 09:10:01.372484 25759 net.cpp:409] fc7_mbox_priorbox -> fc7_mbox_priorbox
I0609 09:10:01.372498 25759 layer.hpp:71] 
I0609 09:10:01.372587 25759 net.cpp:151] Setting up fc7_mbox_priorbox
I0609 09:10:01.372609 25759 net.cpp:158] Top shape: 1 2 8664 (17328)
I0609 09:10:01.372617 25759 net.cpp:166] Memory required for data: 7926060864
I0609 09:10:01.372622 25759 layer_factory.hpp:77] Creating layer conv6_2_mbox_loc
I0609 09:10:01.372648 25759 net.cpp:100] Creating Layer conv6_2_mbox_loc
I0609 09:10:01.372691 25759 net.cpp:435] conv6_2_mbox_loc <- conv6_2_conv6_2_relu_0_split_1
I0609 09:10:01.372746 25759 net.cpp:409] conv6_2_mbox_loc -> conv6_2_mbox_loc
I0609 09:10:01.372783 25759 layer.hpp:71] 
I0609 09:10:01.375569 25759 net.cpp:151] Setting up conv6_2_mbox_loc
I0609 09:10:01.375602 25759 net.cpp:158] Top shape: 32 24 10 10 (76800)
I0609 09:10:01.375608 25759 net.cpp:166] Memory required for data: 7926368064
I0609 09:10:01.375622 25759 layer_factory.hpp:77] Creating layer conv6_2_mbox_loc_perm
I0609 09:10:01.375641 25759 net.cpp:100] Creating Layer conv6_2_mbox_loc_perm
I0609 09:10:01.375649 25759 net.cpp:435] conv6_2_mbox_loc_perm <- conv6_2_mbox_loc
I0609 09:10:01.375660 25759 net.cpp:409] conv6_2_mbox_loc_perm -> conv6_2_mbox_loc_perm
I0609 09:10:01.375677 25759 layer.hpp:71] 
I0609 09:10:01.375880 25759 net.cpp:151] Setting up conv6_2_mbox_loc_perm
I0609 09:10:01.375898 25759 net.cpp:158] Top shape: 32 10 10 24 (76800)
I0609 09:10:01.375905 25759 net.cpp:166] Memory required for data: 7926675264
I0609 09:10:01.375910 25759 layer_factory.hpp:77] Creating layer conv6_2_mbox_loc_flat
I0609 09:10:01.375926 25759 net.cpp:100] Creating Layer conv6_2_mbox_loc_flat
I0609 09:10:01.375932 25759 net.cpp:435] conv6_2_mbox_loc_flat <- conv6_2_mbox_loc_perm
I0609 09:10:01.375941 25759 net.cpp:409] conv6_2_mbox_loc_flat -> conv6_2_mbox_loc_flat
I0609 09:10:01.375952 25759 layer.hpp:71] 
I0609 09:10:01.376000 25759 net.cpp:151] Setting up conv6_2_mbox_loc_flat
I0609 09:10:01.376014 25759 net.cpp:158] Top shape: 32 2400 (76800)
I0609 09:10:01.376019 25759 net.cpp:166] Memory required for data: 7926982464
I0609 09:10:01.376030 25759 layer_factory.hpp:77] Creating layer conv6_2_mbox_conf
I0609 09:10:01.376050 25759 net.cpp:100] Creating Layer conv6_2_mbox_conf
I0609 09:10:01.376080 25759 net.cpp:435] conv6_2_mbox_conf <- conv6_2_conv6_2_relu_0_split_2
I0609 09:10:01.376114 25759 net.cpp:409] conv6_2_mbox_conf -> conv6_2_mbox_conf
I0609 09:10:01.376137 25759 layer.hpp:71] 
I0609 09:10:01.379003 25759 net.cpp:151] Setting up conv6_2_mbox_conf
I0609 09:10:01.379029 25759 net.cpp:158] Top shape: 32 12 10 10 (38400)
I0609 09:10:01.379034 25759 net.cpp:166] Memory required for data: 7927136064
I0609 09:10:01.379045 25759 layer_factory.hpp:77] Creating layer conv6_2_mbox_conf_perm
I0609 09:10:01.379061 25759 net.cpp:100] Creating Layer conv6_2_mbox_conf_perm
I0609 09:10:01.379068 25759 net.cpp:435] conv6_2_mbox_conf_perm <- conv6_2_mbox_conf
I0609 09:10:01.379081 25759 net.cpp:409] conv6_2_mbox_conf_perm -> conv6_2_mbox_conf_perm
I0609 09:10:01.379093 25759 layer.hpp:71] 
I0609 09:10:01.379258 25759 net.cpp:151] Setting up conv6_2_mbox_conf_perm
I0609 09:10:01.379277 25759 net.cpp:158] Top shape: 32 10 10 12 (38400)
I0609 09:10:01.379282 25759 net.cpp:166] Memory required for data: 7927289664
I0609 09:10:01.379288 25759 layer_factory.hpp:77] Creating layer conv6_2_mbox_conf_flat
I0609 09:10:01.379302 25759 net.cpp:100] Creating Layer conv6_2_mbox_conf_flat
I0609 09:10:01.379308 25759 net.cpp:435] conv6_2_mbox_conf_flat <- conv6_2_mbox_conf_perm
I0609 09:10:01.379317 25759 net.cpp:409] conv6_2_mbox_conf_flat -> conv6_2_mbox_conf_flat
I0609 09:10:01.379328 25759 layer.hpp:71] 
I0609 09:10:01.379375 25759 net.cpp:151] Setting up conv6_2_mbox_conf_flat
I0609 09:10:01.379413 25759 net.cpp:158] Top shape: 32 1200 (38400)
I0609 09:10:01.379443 25759 net.cpp:166] Memory required for data: 7927443264
I0609 09:10:01.379468 25759 layer_factory.hpp:77] Creating layer conv6_2_mbox_priorbox
I0609 09:10:01.379510 25759 net.cpp:100] Creating Layer conv6_2_mbox_priorbox
I0609 09:10:01.379550 25759 net.cpp:435] conv6_2_mbox_priorbox <- conv6_2_conv6_2_relu_0_split_3
I0609 09:10:01.379573 25759 net.cpp:435] conv6_2_mbox_priorbox <- data_data_0_split_3
I0609 09:10:01.379586 25759 net.cpp:409] conv6_2_mbox_priorbox -> conv6_2_mbox_priorbox
I0609 09:10:01.379602 25759 layer.hpp:71] 
I0609 09:10:01.379690 25759 net.cpp:151] Setting up conv6_2_mbox_priorbox
I0609 09:10:01.379707 25759 net.cpp:158] Top shape: 1 2 2400 (4800)
I0609 09:10:01.379712 25759 net.cpp:166] Memory required for data: 7927462464
I0609 09:10:01.379739 25759 layer_factory.hpp:77] Creating layer conv7_2_mbox_loc
I0609 09:10:01.379760 25759 net.cpp:100] Creating Layer conv7_2_mbox_loc
I0609 09:10:01.379786 25759 net.cpp:435] conv7_2_mbox_loc <- conv7_2_conv7_2_relu_0_split_1
I0609 09:10:01.379835 25759 net.cpp:409] conv7_2_mbox_loc -> conv7_2_mbox_loc
I0609 09:10:01.379861 25759 layer.hpp:71] 
I0609 09:10:01.382539 25759 net.cpp:151] Setting up conv7_2_mbox_loc
I0609 09:10:01.382571 25759 net.cpp:158] Top shape: 32 24 5 5 (19200)
I0609 09:10:01.382578 25759 net.cpp:166] Memory required for data: 7927539264
I0609 09:10:01.382591 25759 layer_factory.hpp:77] Creating layer conv7_2_mbox_loc_perm
I0609 09:10:01.382609 25759 net.cpp:100] Creating Layer conv7_2_mbox_loc_perm
I0609 09:10:01.382617 25759 net.cpp:435] conv7_2_mbox_loc_perm <- conv7_2_mbox_loc
I0609 09:10:01.382627 25759 net.cpp:409] conv7_2_mbox_loc_perm -> conv7_2_mbox_loc_perm
I0609 09:10:01.382644 25759 layer.hpp:71] 
I0609 09:10:01.382827 25759 net.cpp:151] Setting up conv7_2_mbox_loc_perm
I0609 09:10:01.382845 25759 net.cpp:158] Top shape: 32 5 5 24 (19200)
I0609 09:10:01.382851 25759 net.cpp:166] Memory required for data: 7927616064
I0609 09:10:01.382858 25759 layer_factory.hpp:77] Creating layer conv7_2_mbox_loc_flat
I0609 09:10:01.382874 25759 net.cpp:100] Creating Layer conv7_2_mbox_loc_flat
I0609 09:10:01.382880 25759 net.cpp:435] conv7_2_mbox_loc_flat <- conv7_2_mbox_loc_perm
I0609 09:10:01.382889 25759 net.cpp:409] conv7_2_mbox_loc_flat -> conv7_2_mbox_loc_flat
I0609 09:10:01.382902 25759 layer.hpp:71] 
I0609 09:10:01.382966 25759 net.cpp:151] Setting up conv7_2_mbox_loc_flat
I0609 09:10:01.382985 25759 net.cpp:158] Top shape: 32 600 (19200)
I0609 09:10:01.382992 25759 net.cpp:166] Memory required for data: 7927692864
I0609 09:10:01.382997 25759 layer_factory.hpp:77] Creating layer conv7_2_mbox_conf
I0609 09:10:01.383015 25759 net.cpp:100] Creating Layer conv7_2_mbox_conf
I0609 09:10:01.383023 25759 net.cpp:435] conv7_2_mbox_conf <- conv7_2_conv7_2_relu_0_split_2
I0609 09:10:01.383036 25759 net.cpp:409] conv7_2_mbox_conf -> conv7_2_mbox_conf
I0609 09:10:01.383072 25759 layer.hpp:71] 
I0609 09:10:01.385195 25759 net.cpp:151] Setting up conv7_2_mbox_conf
I0609 09:10:01.385221 25759 net.cpp:158] Top shape: 32 12 5 5 (9600)
I0609 09:10:01.385227 25759 net.cpp:166] Memory required for data: 7927731264
I0609 09:10:01.385239 25759 layer_factory.hpp:77] Creating layer conv7_2_mbox_conf_perm
I0609 09:10:01.385254 25759 net.cpp:100] Creating Layer conv7_2_mbox_conf_perm
I0609 09:10:01.385262 25759 net.cpp:435] conv7_2_mbox_conf_perm <- conv7_2_mbox_conf
I0609 09:10:01.385272 25759 net.cpp:409] conv7_2_mbox_conf_perm -> conv7_2_mbox_conf_perm
I0609 09:10:01.385287 25759 layer.hpp:71] 
I0609 09:10:01.385483 25759 net.cpp:151] Setting up conv7_2_mbox_conf_perm
I0609 09:10:01.385500 25759 net.cpp:158] Top shape: 32 5 5 12 (9600)
I0609 09:10:01.385506 25759 net.cpp:166] Memory required for data: 7927769664
I0609 09:10:01.385514 25759 layer_factory.hpp:77] Creating layer conv7_2_mbox_conf_flat
I0609 09:10:01.385524 25759 net.cpp:100] Creating Layer conv7_2_mbox_conf_flat
I0609 09:10:01.385530 25759 net.cpp:435] conv7_2_mbox_conf_flat <- conv7_2_mbox_conf_perm
I0609 09:10:01.385543 25759 net.cpp:409] conv7_2_mbox_conf_flat -> conv7_2_mbox_conf_flat
I0609 09:10:01.385555 25759 layer.hpp:71] 
I0609 09:10:01.385602 25759 net.cpp:151] Setting up conv7_2_mbox_conf_flat
I0609 09:10:01.385617 25759 net.cpp:158] Top shape: 32 300 (9600)
I0609 09:10:01.385622 25759 net.cpp:166] Memory required for data: 7927808064
I0609 09:10:01.385635 25759 layer_factory.hpp:77] Creating layer conv7_2_mbox_priorbox
I0609 09:10:01.385648 25759 net.cpp:100] Creating Layer conv7_2_mbox_priorbox
I0609 09:10:01.385654 25759 net.cpp:435] conv7_2_mbox_priorbox <- conv7_2_conv7_2_relu_0_split_3
I0609 09:10:01.385663 25759 net.cpp:435] conv7_2_mbox_priorbox <- data_data_0_split_4
I0609 09:10:01.385699 25759 net.cpp:409] conv7_2_mbox_priorbox -> conv7_2_mbox_priorbox
I0609 09:10:01.385767 25759 layer.hpp:71] 
I0609 09:10:01.385849 25759 net.cpp:151] Setting up conv7_2_mbox_priorbox
I0609 09:10:01.385885 25759 net.cpp:158] Top shape: 1 2 600 (1200)
I0609 09:10:01.385910 25759 net.cpp:166] Memory required for data: 7927812864
I0609 09:10:01.385933 25759 layer_factory.hpp:77] Creating layer conv8_2_mbox_loc
I0609 09:10:01.385978 25759 net.cpp:100] Creating Layer conv8_2_mbox_loc
I0609 09:10:01.386005 25759 net.cpp:435] conv8_2_mbox_loc <- conv8_2_conv8_2_relu_0_split_1
I0609 09:10:01.386060 25759 net.cpp:409] conv8_2_mbox_loc -> conv8_2_mbox_loc
I0609 09:10:01.386083 25759 layer.hpp:71] 
I0609 09:10:01.388196 25759 net.cpp:151] Setting up conv8_2_mbox_loc
I0609 09:10:01.388221 25759 net.cpp:158] Top shape: 32 16 3 3 (4608)
I0609 09:10:01.388229 25759 net.cpp:166] Memory required for data: 7927831296
I0609 09:10:01.388257 25759 layer_factory.hpp:77] Creating layer conv8_2_mbox_loc_perm
I0609 09:10:01.388273 25759 net.cpp:100] Creating Layer conv8_2_mbox_loc_perm
I0609 09:10:01.388304 25759 net.cpp:435] conv8_2_mbox_loc_perm <- conv8_2_mbox_loc
I0609 09:10:01.388341 25759 net.cpp:409] conv8_2_mbox_loc_perm -> conv8_2_mbox_loc_perm
I0609 09:10:01.388383 25759 layer.hpp:71] 
I0609 09:10:01.388558 25759 net.cpp:151] Setting up conv8_2_mbox_loc_perm
I0609 09:10:01.388576 25759 net.cpp:158] Top shape: 32 3 3 16 (4608)
I0609 09:10:01.388583 25759 net.cpp:166] Memory required for data: 7927849728
I0609 09:10:01.388589 25759 layer_factory.hpp:77] Creating layer conv8_2_mbox_loc_flat
I0609 09:10:01.388602 25759 net.cpp:100] Creating Layer conv8_2_mbox_loc_flat
I0609 09:10:01.388609 25759 net.cpp:435] conv8_2_mbox_loc_flat <- conv8_2_mbox_loc_perm
I0609 09:10:01.388619 25759 net.cpp:409] conv8_2_mbox_loc_flat -> conv8_2_mbox_loc_flat
I0609 09:10:01.388631 25759 layer.hpp:71] 
I0609 09:10:01.388720 25759 net.cpp:151] Setting up conv8_2_mbox_loc_flat
I0609 09:10:01.388734 25759 net.cpp:158] Top shape: 32 144 (4608)
I0609 09:10:01.388741 25759 net.cpp:166] Memory required for data: 7927868160
I0609 09:10:01.388746 25759 layer_factory.hpp:77] Creating layer conv8_2_mbox_conf
I0609 09:10:01.388764 25759 net.cpp:100] Creating Layer conv8_2_mbox_conf
I0609 09:10:01.388772 25759 net.cpp:435] conv8_2_mbox_conf <- conv8_2_conv8_2_relu_0_split_2
I0609 09:10:01.388787 25759 net.cpp:409] conv8_2_mbox_conf -> conv8_2_mbox_conf
I0609 09:10:01.388820 25759 layer.hpp:71] 
I0609 09:10:01.390893 25759 net.cpp:151] Setting up conv8_2_mbox_conf
I0609 09:10:01.390918 25759 net.cpp:158] Top shape: 32 8 3 3 (2304)
I0609 09:10:01.390925 25759 net.cpp:166] Memory required for data: 7927877376
I0609 09:10:01.390936 25759 layer_factory.hpp:77] Creating layer conv8_2_mbox_conf_perm
I0609 09:10:01.390951 25759 net.cpp:100] Creating Layer conv8_2_mbox_conf_perm
I0609 09:10:01.390959 25759 net.cpp:435] conv8_2_mbox_conf_perm <- conv8_2_mbox_conf
I0609 09:10:01.390969 25759 net.cpp:409] conv8_2_mbox_conf_perm -> conv8_2_mbox_conf_perm
I0609 09:10:01.390982 25759 layer.hpp:71] 
I0609 09:10:01.391150 25759 net.cpp:151] Setting up conv8_2_mbox_conf_perm
I0609 09:10:01.391168 25759 net.cpp:158] Top shape: 32 3 3 8 (2304)
I0609 09:10:01.391175 25759 net.cpp:166] Memory required for data: 7927886592
I0609 09:10:01.391180 25759 layer_factory.hpp:77] Creating layer conv8_2_mbox_conf_flat
I0609 09:10:01.391188 25759 net.cpp:100] Creating Layer conv8_2_mbox_conf_flat
I0609 09:10:01.391196 25759 net.cpp:435] conv8_2_mbox_conf_flat <- conv8_2_mbox_conf_perm
I0609 09:10:01.391208 25759 net.cpp:409] conv8_2_mbox_conf_flat -> conv8_2_mbox_conf_flat
I0609 09:10:01.391221 25759 layer.hpp:71] 
I0609 09:10:01.391266 25759 net.cpp:151] Setting up conv8_2_mbox_conf_flat
I0609 09:10:01.391279 25759 net.cpp:158] Top shape: 32 72 (2304)
I0609 09:10:01.391293 25759 net.cpp:166] Memory required for data: 7927895808
I0609 09:10:01.391299 25759 layer_factory.hpp:77] Creating layer conv8_2_mbox_priorbox
I0609 09:10:01.391311 25759 net.cpp:100] Creating Layer conv8_2_mbox_priorbox
I0609 09:10:01.391341 25759 net.cpp:435] conv8_2_mbox_priorbox <- conv8_2_conv8_2_relu_0_split_3
I0609 09:10:01.391407 25759 net.cpp:435] conv8_2_mbox_priorbox <- data_data_0_split_5
I0609 09:10:01.391440 25759 net.cpp:409] conv8_2_mbox_priorbox -> conv8_2_mbox_priorbox
I0609 09:10:01.391454 25759 layer.hpp:71] 
I0609 09:10:01.391515 25759 net.cpp:151] Setting up conv8_2_mbox_priorbox
I0609 09:10:01.391535 25759 net.cpp:158] Top shape: 1 2 144 (288)
I0609 09:10:01.391541 25759 net.cpp:166] Memory required for data: 7927896960
I0609 09:10:01.391546 25759 layer_factory.hpp:77] Creating layer conv9_2_mbox_loc
I0609 09:10:01.391563 25759 net.cpp:100] Creating Layer conv9_2_mbox_loc
I0609 09:10:01.391572 25759 net.cpp:435] conv9_2_mbox_loc <- conv9_2_conv9_2_relu_0_split_0
I0609 09:10:01.391587 25759 net.cpp:409] conv9_2_mbox_loc -> conv9_2_mbox_loc
I0609 09:10:01.391620 25759 layer.hpp:71] 
I0609 09:10:01.393784 25759 net.cpp:151] Setting up conv9_2_mbox_loc
I0609 09:10:01.393810 25759 net.cpp:158] Top shape: 32 16 1 1 (512)
I0609 09:10:01.393815 25759 net.cpp:166] Memory required for data: 7927899008
I0609 09:10:01.393826 25759 layer_factory.hpp:77] Creating layer conv9_2_mbox_loc_perm
I0609 09:10:01.393837 25759 net.cpp:100] Creating Layer conv9_2_mbox_loc_perm
I0609 09:10:01.393846 25759 net.cpp:435] conv9_2_mbox_loc_perm <- conv9_2_mbox_loc
I0609 09:10:01.393878 25759 net.cpp:409] conv9_2_mbox_loc_perm -> conv9_2_mbox_loc_perm
I0609 09:10:01.393920 25759 layer.hpp:71] 
I0609 09:10:01.394116 25759 net.cpp:151] Setting up conv9_2_mbox_loc_perm
I0609 09:10:01.394135 25759 net.cpp:158] Top shape: 32 1 1 16 (512)
I0609 09:10:01.394140 25759 net.cpp:166] Memory required for data: 7927901056
I0609 09:10:01.394146 25759 layer_factory.hpp:77] Creating layer conv9_2_mbox_loc_flat
I0609 09:10:01.394156 25759 net.cpp:100] Creating Layer conv9_2_mbox_loc_flat
I0609 09:10:01.394165 25759 net.cpp:435] conv9_2_mbox_loc_flat <- conv9_2_mbox_loc_perm
I0609 09:10:01.394177 25759 net.cpp:409] conv9_2_mbox_loc_flat -> conv9_2_mbox_loc_flat
I0609 09:10:01.394189 25759 layer.hpp:71] 
I0609 09:10:01.394234 25759 net.cpp:151] Setting up conv9_2_mbox_loc_flat
I0609 09:10:01.394253 25759 net.cpp:158] Top shape: 32 16 (512)
I0609 09:10:01.394258 25759 net.cpp:166] Memory required for data: 7927903104
I0609 09:10:01.394263 25759 layer_factory.hpp:77] Creating layer conv9_2_mbox_conf
I0609 09:10:01.394282 25759 net.cpp:100] Creating Layer conv9_2_mbox_conf
I0609 09:10:01.394311 25759 net.cpp:435] conv9_2_mbox_conf <- conv9_2_conv9_2_relu_0_split_1
I0609 09:10:01.394349 25759 net.cpp:409] conv9_2_mbox_conf -> conv9_2_mbox_conf
I0609 09:10:01.394371 25759 layer.hpp:71] 
I0609 09:10:01.396422 25759 net.cpp:151] Setting up conv9_2_mbox_conf
I0609 09:10:01.396447 25759 net.cpp:158] Top shape: 32 8 1 1 (256)
I0609 09:10:01.396453 25759 net.cpp:166] Memory required for data: 7927904128
I0609 09:10:01.396464 25759 layer_factory.hpp:77] Creating layer conv9_2_mbox_conf_perm
I0609 09:10:01.396477 25759 net.cpp:100] Creating Layer conv9_2_mbox_conf_perm
I0609 09:10:01.396486 25759 net.cpp:435] conv9_2_mbox_conf_perm <- conv9_2_mbox_conf
I0609 09:10:01.396500 25759 net.cpp:409] conv9_2_mbox_conf_perm -> conv9_2_mbox_conf_perm
I0609 09:10:01.396513 25759 layer.hpp:71] 
I0609 09:10:01.396689 25759 net.cpp:151] Setting up conv9_2_mbox_conf_perm
I0609 09:10:01.396733 25759 net.cpp:158] Top shape: 32 1 1 8 (256)
I0609 09:10:01.396759 25759 net.cpp:166] Memory required for data: 7927905152
I0609 09:10:01.396803 25759 layer_factory.hpp:77] Creating layer conv9_2_mbox_conf_flat
I0609 09:10:01.396836 25759 net.cpp:100] Creating Layer conv9_2_mbox_conf_flat
I0609 09:10:01.396867 25759 net.cpp:435] conv9_2_mbox_conf_flat <- conv9_2_mbox_conf_perm
I0609 09:10:01.396912 25759 net.cpp:409] conv9_2_mbox_conf_flat -> conv9_2_mbox_conf_flat
I0609 09:10:01.396937 25759 layer.hpp:71] 
I0609 09:10:01.396996 25759 net.cpp:151] Setting up conv9_2_mbox_conf_flat
I0609 09:10:01.397017 25759 net.cpp:158] Top shape: 32 8 (256)
I0609 09:10:01.397022 25759 net.cpp:166] Memory required for data: 7927906176
I0609 09:10:01.397027 25759 layer_factory.hpp:77] Creating layer conv9_2_mbox_priorbox
I0609 09:10:01.397043 25759 net.cpp:100] Creating Layer conv9_2_mbox_priorbox
I0609 09:10:01.397085 25759 net.cpp:435] conv9_2_mbox_priorbox <- conv9_2_conv9_2_relu_0_split_2
I0609 09:10:01.397112 25759 net.cpp:435] conv9_2_mbox_priorbox <- data_data_0_split_6
I0609 09:10:01.397167 25759 net.cpp:409] conv9_2_mbox_priorbox -> conv9_2_mbox_priorbox
I0609 09:10:01.397204 25759 layer.hpp:71] 
I0609 09:10:01.397287 25759 net.cpp:151] Setting up conv9_2_mbox_priorbox
I0609 09:10:01.397303 25759 net.cpp:158] Top shape: 1 2 16 (32)
I0609 09:10:01.397308 25759 net.cpp:166] Memory required for data: 7927906304
I0609 09:10:01.397315 25759 layer_factory.hpp:77] Creating layer mbox_loc
I0609 09:10:01.397330 25759 net.cpp:100] Creating Layer mbox_loc
I0609 09:10:01.397338 25759 net.cpp:435] mbox_loc <- conv4_3_norm_mbox_loc_flat
I0609 09:10:01.397347 25759 net.cpp:435] mbox_loc <- fc7_mbox_loc_flat
I0609 09:10:01.397356 25759 net.cpp:435] mbox_loc <- conv6_2_mbox_loc_flat
I0609 09:10:01.397366 25759 net.cpp:435] mbox_loc <- conv7_2_mbox_loc_flat
I0609 09:10:01.397372 25759 net.cpp:435] mbox_loc <- conv8_2_mbox_loc_flat
I0609 09:10:01.397378 25759 net.cpp:435] mbox_loc <- conv9_2_mbox_loc_flat
I0609 09:10:01.397390 25759 net.cpp:409] mbox_loc -> mbox_loc
I0609 09:10:01.397425 25759 layer.hpp:71] 
I0609 09:10:01.397518 25759 net.cpp:151] Setting up mbox_loc
I0609 09:10:01.397534 25759 net.cpp:158] Top shape: 32 34928 (1117696)
I0609 09:10:01.397541 25759 net.cpp:166] Memory required for data: 7932377088
I0609 09:10:01.397547 25759 layer_factory.hpp:77] Creating layer mbox_conf
I0609 09:10:01.397557 25759 net.cpp:100] Creating Layer mbox_conf
I0609 09:10:01.397564 25759 net.cpp:435] mbox_conf <- conv4_3_norm_mbox_conf_flat
I0609 09:10:01.397573 25759 net.cpp:435] mbox_conf <- fc7_mbox_conf_flat
I0609 09:10:01.397583 25759 net.cpp:435] mbox_conf <- conv6_2_mbox_conf_flat
I0609 09:10:01.397589 25759 net.cpp:435] mbox_conf <- conv7_2_mbox_conf_flat
I0609 09:10:01.397595 25759 net.cpp:435] mbox_conf <- conv8_2_mbox_conf_flat
I0609 09:10:01.397603 25759 net.cpp:435] mbox_conf <- conv9_2_mbox_conf_flat
I0609 09:10:01.397613 25759 net.cpp:409] mbox_conf -> mbox_conf
I0609 09:10:01.397624 25759 layer.hpp:71] 
I0609 09:10:01.397675 25759 net.cpp:151] Setting up mbox_conf
I0609 09:10:01.397698 25759 net.cpp:158] Top shape: 32 17464 (558848)
I0609 09:10:01.397706 25759 net.cpp:166] Memory required for data: 7934612480
I0609 09:10:01.397711 25759 layer_factory.hpp:77] Creating layer mbox_priorbox
I0609 09:10:01.397720 25759 net.cpp:100] Creating Layer mbox_priorbox
I0609 09:10:01.397727 25759 net.cpp:435] mbox_priorbox <- conv4_3_norm_mbox_priorbox
I0609 09:10:01.397737 25759 net.cpp:435] mbox_priorbox <- fc7_mbox_priorbox
I0609 09:10:01.397744 25759 net.cpp:435] mbox_priorbox <- conv6_2_mbox_priorbox
I0609 09:10:01.397750 25759 net.cpp:435] mbox_priorbox <- conv7_2_mbox_priorbox
I0609 09:10:01.397756 25759 net.cpp:435] mbox_priorbox <- conv8_2_mbox_priorbox
I0609 09:10:01.397764 25759 net.cpp:435] mbox_priorbox <- conv9_2_mbox_priorbox
I0609 09:10:01.397773 25759 net.cpp:409] mbox_priorbox -> mbox_priorbox
I0609 09:10:01.397783 25759 layer.hpp:71] 
I0609 09:10:01.397830 25759 net.cpp:151] Setting up mbox_priorbox
I0609 09:10:01.397857 25759 net.cpp:158] Top shape: 1 2 34928 (69856)
I0609 09:10:01.397877 25759 net.cpp:166] Memory required for data: 7934891904
I0609 09:10:01.397884 25759 layer_factory.hpp:77] Creating layer mbox_loss
I0609 09:10:01.397908 25759 net.cpp:100] Creating Layer mbox_loss
I0609 09:10:01.397938 25759 net.cpp:435] mbox_loss <- mbox_loc
I0609 09:10:01.397971 25759 net.cpp:435] mbox_loss <- mbox_conf
I0609 09:10:01.397980 25759 net.cpp:435] mbox_loss <- mbox_priorbox
…
  name: "data"
  type: "AnnotatedData"
  top: "data"
  top: "label"
  include {
    phase: TEST
  }
  transform_param {
    mean_value: 114
    mean_value: 114
    mean_value: 114
    resize_param {
      prob: 1
      resize_mode: WARP
      height: 300
      width: 300
      interp_mode: LINEAR
    }
  }
  data_param {
    source: "examples/grayscale_tbs_v2.0/grayscale_tbs_v2.0_test_lmdb"
    batch_size: 4
    backend: LMDB
  }
  annotated_data_param {
    batch_sampler {
    }
    label_map_file: "data/grayscale_tbs_v2.0/labelmap_voc.prototxt"
  }
}
layer {
  name: "conv1_1"
  type: "Convolution"
  bottom: "data"
  top: "conv1_1"
  param {
    lr_mult: 1
    decay_mult: 1
  }
  param {
    lr_mult: 2
    decay_mult: 0
  }
  convolution_param {
    num_output: 64
    pad: 1
    kernel_size: 3
    weight_filler {
      type: "xavier"
    }
    bias_filler {
      type: "constant"
      value: 0
    }
  }
}
layer {
  name: "relu1_1"
  type: "ReLU"
  bottom: "conv1_1"
  top: "conv1_1"
}
layer {
  name: "conv1_2"
  type: "Convolution"
  bottom: "conv1_1"
  top: "conv1_2"
  param {
    lr_mult: 1
    decay_mult: 1
  }
  param {
    lr_mult: 2
    decay_mult: 0
  }
  convolution_param {
    num_output: 64
    pad: 1
    kernel_size: 3
    weight_filler {
      type: "xavier"
    }
    bias_filler {
      type: "constant"
      value: 0
    }
  }
}
layer {
  name: "relu1_2"
  type: "ReLU"
  bottom: "conv1_2"
  top: "conv1_2"
}
layer {
  name: "pool1"
  type: "Pooling"
  bottom: "conv1_2"
  top: "pool1"
  pooling_param {
    pool: MAX
    kernel_size: 2
    stride: 2
  }
}
layer {
  name: "conv2_1"
  type: "Convolution"
  bottom: "pool1"
  top: "conv2_1"
  param {
    lr_mult: 1
    decay_mult: 1
  }
  param {
    lr_mult: 2
    decay_mult: 0
  }
  convolution_param {
    num_output: 128
    pad: 1
    kernel_size: 3
    weight_filler {
      type: "xavier"
    }
    bias_filler {
      type: "constant"
      value: 0
    }
  }
}
layer {
  name: "relu2_1"
  type: "ReLU"
  bottom: "conv2_1"
  top: "conv2_1"
}
layer {
  name: "conv2_2"
  type: "Convolution"
  bottom: "conv2_1"
  top: "conv2_2"
  param {
    lr_mult: 1
    decay_mult: 1
  }
  param {
    lr_mult: 2
    decay_mult: 0
  }
  convolution_param {
    num_output: 128
    pad: 1
    kernel_size: 3
    weight_filler {
      type: "xavier"
    }
    bias_filler {
      type: "constant"
      value: 0
    }
  }
}
layer {
  name: "relu2_2"
  type: "ReLU"
  bottom: "conv2_2"
  top: "conv2_2"
}
layer {
  name: "pool2"
  type: "Pooling"
  bottom: "conv2_2"
  top: "pool2"
  pooling_param {
    pool: MAX
    kernel_size: 2
    stride: 2
  }
}
layer {
  name: "conv3_1"
  type: "Convolution"
  bottom: "pool2"
  top: "conv3_1"
  param {
    lr_mult: 1
    decay_mult: 1
  }
  param {
    lr_mult: 2
    decay_mult: 0
  }
  convolution_param {
    num_output: 256
    pad: 1
    kernel_size: 3
    weight_filler {
      type: "xavier"
    }
    bias_filler {
      type: "constant"
      value: 0
    }
  }
}
layer {
  name: "relu3_1"
  type: "ReLU"
  bottom: "conv3_1"
  top: "conv3_1"
}
layer {
  name: "conv3_2"
  type: "Convolution"
  bottom: "conv3_1"
  top: "conv3_2"
  param {
    lr_mult: 1
    decay_mult: 1
  }
  param {
    lr_mult: 2
    decay_mult: 0
  }
  convolution_param {
    num_output: 256
    pad: 1
    kernel_size: 3
    weight_filler {
      type: "xavier"
    }
    bias_filler {
      type: "constant"
      value: 0
    }
  }
}
layer {
  name: "relu3_2"
  type: "ReLU"
  bottom: "conv3_2"
  top: "conv3_2"
}
layer {
  name: "conv3_3"
  type: "Convolution"
  bottom: "conv3_2"
  top: "conv3_3"
  param {
    lr_mult: 1
    decay_mult: 1
  }
  param {
    lr_mult: 2
    decay_mult: 0
  }
  convolution_param {
    num_output: 256
    pad: 1
    kernel_size: 3
    weight_filler {
      type: "xavier"
    }
    bias_filler {
      type: "constant"
      value: 0
    }
  }
}
layer {
  name: "relu3_3"
  type: "ReLU"
  bottom: "conv3_3"
  top: "conv3_3"
}
layer {
  name: "pool3"
  type: "Pooling"
  bottom: "conv3_3"
  top: "pool3"
  pooling_param {
    pool: MAX
    kernel_size: 2
    stride: 2
  }
}
layer {
  name: "conv4_1"
  type: "Convolution"
  bottom: "pool3"
  top: "conv4_1"
  param {
    lr_mult: 1
    decay_mult: 1
  }
  param {
    lr_mult: 2
    decay_mult: 0
  }
  convolution_param {
    num_output: 512
    pad: 1
    kernel_size: 3
    weight_filler {
      type: "xavier"
    }
    bias_filler {
      type: "constant"
      value: 0
    }
  }
}
layer {
  name: "relu4_1"
  type: "ReLU"
  bottom: "conv4_1"
  top: "conv4_1"
}
layer {
  name: "conv4_2"
  type: "Convolution"
  bottom: "conv4_1"
  top: "conv4_2"
  param {
    lr_mult: 1
    decay_mult: 1
  }
  param {
    lr_mult: 2
    decay_mult: 0
  }
  convolution_param {
    num_output: 512
    pad: 1
    kernel_size: 3
    weight_filler {
      type: "xavier"
    }
    bias_filler {
      type: "constant"
      value: 0
    }
  }
}
layer {
  name: "relu4_2"
  type: "ReLU"
  bottom: "conv4_2"
  top: "conv4_2"
}
layer {
  name: "conv4_3"
  type: "Convolution"
  bottom: "conv4_2"
  top: "conv4_3"
  param {
    lr_mult: 1
    decay_mult: 1
  }
  param {
    lr_mult: 2
    decay_mult: 0
  }
  convolution_param {
    num_output: 512
    pad: 1
    kernel_size: 3
    weight_filler {
      type: "xavier"
    }
    bias_filler {
      type: "constant"
      value: 0
    }
  }
}
layer {
  name: "relu4_3"
  type: "ReLU"
  bottom: "conv4_3"
  top: "conv4_3"
}
layer {
  name: "pool4"
  type: "Pooling"
  bottom: "conv4_3"
  top: "pool4"
  pooling_param {
    pool: MAX
    kernel_size: 2
    stride: 2
  }
}
layer {
  name: "conv5_1"
  type: "Convolution"
  bottom: "pool4"
  top: "conv5_1"
  param {
    lr_mult: 1
    decay_mult: 1
  }
  param {
    lr_mult: 2
    decay_mult: 0
  }
  convolution_param {
    num_output: 512
    pad: 1
    kernel_size: 3
    weight_filler {
      type: "xavier"
    }
    bias_filler {
      type: "constant"
      value: 0
    }
    dilation: 1
  }
}
layer {
  name: "relu5_1"
  type: "ReLU"
  bottom: "conv5_1"
  top: "conv5_1"
}
layer {
  name: "conv5_2"
  type: "Convolution"
  bottom: "conv5_1"
  top: "conv5_2"
  param {
    lr_mult: 1
    decay_mult: 1
  }
  param {
    lr_mult: 2
    decay_mult: 0
  }
  convolution_param {
    num_output: 512
    pad: 1
    kernel_size: 3
    weight_filler {
      type: "xavier"
    }
    bias_filler {
      type: "constant"
      value: 0
    }
    dilation: 1
  }
}
layer {
  name: "relu5_2"
  type: "ReLU"
  bottom: "conv5_2"
  top: "conv5_2"
}
layer {
  name: "conv5_3"
  type: "Convolution"
  bottom: "conv5_2"
  top: "conv5_3"
  param {
    lr_mult: 1
    decay_mult: 1
  }
  param {
    lr_mult: 2
    decay_mult: 0
  }
  convolution_param {
    num_output: 512
    pad: 1
    kernel_size: 3
    weight_filler {
      type: "xavier"
    }
    bias_filler {
      type: "constant"
      value: 0
    }
    dilation: 1
  }
}
layer {
  name: "relu5_3"
  type: "ReLU"
  bottom: "conv5_3"
  top: "conv5_3"
}
layer {
  name: "pool5"
  type: "Pooling"
  bottom: "conv5_3"
  top: "pool5"
  pooling_param {
    pool: MAX
    kernel_size: 3
    stride: 1
    pad: 1
  }
}
layer {
  name: "fc6"
  type: "Convolution"
  bottom: "pool5"
  top: "fc6"
  param {
    lr_mult: 1
    decay_mult: 1
  }
  param {
    lr_mult: 2
    decay_mult: 0
  }
  convolution_param {
    num_output: 1024
    pad: 6
    kernel_size: 3
    weight_filler {
      type: "xavier"
    }
    bias_filler {
      type: "constant"
      value: 0
    }
    dilation: 6
  }
}
layer {
  name: "relu6"
  type: "ReLU"
  bottom: "fc6"
  top: "fc6"
}
layer {
  name: "fc7"
  type: "Convolution"
  bottom: "fc6"
  top: "fc7"
  param {
    lr_mult: 1
    decay_mult: 1
  }
  param {
    lr_mult: 2
    decay_mult: 0
  }
  convolution_param {
    num_output: 1024
    kernel_size: 1
    weight_filler {
      type: "xavier"
    }
    bias_filler {
      type: "constant"
      value: 0
    }
  }
}
layer {
  name: "relu7"
  type: "ReLU"
  bottom: "fc7"
  top: "fc7"
}
layer {
  name: "conv6_1"
  type: "Convolution"
  bottom: "fc7"
  top: "conv6_1"
  param {
    lr_mult: 1
    decay_mult: 1
  }
  param {
    lr_mult: 2
    decay_mult: 0
  }
  convolution_param {
    num_output: 256
    pad: 0
    kernel_size: 1
    stride: 1
    weight_filler {
      type: "xavier"
    }
    bias_filler {
      type: "constant"
      value: 0
    }
  }
}
layer {
  name: "conv6_1_relu"
  type: "ReLU"
  bottom: "conv6_1"
  top: "conv6_1"
}
layer {
  name: "conv6_2"
  type: "Convolution"
  bottom: "conv6_1"
  top: "conv6_2"
  param {
    lr_mult: 1
    decay_mult: 1
  }
  param {
    lr_mult: 2
    decay_mult: 0
  }
  convolution_param {
    num_output: 512
    pad: 1
    kernel_size: 3
    stride: 2
    weight_filler {
      type: "xavier"
    }
    bias_filler {
      type: "constant"
      value: 0
    }
  }
}
layer {
  name: "conv6_2_relu"
  type: "ReLU"
  bottom: "conv6_2"
  top: "conv6_2"
}
layer {
  name: "conv7_1"
  type: "Convolution"
  bottom: "conv6_2"
  top: "conv7_1"
  param {
    lr_mult: 1
    decay_mult: 1
  }
  param {
    lr_mult: 2
    decay_mult: 0
  }
  convolution_param {
    num_output: 128
    pad: 0
    kernel_size: 1
    stride: 1
    weight_filler {
      type: "xavier"
    }
    bias_filler {
      type: "constant"
      value: 0
    }
  }
}
layer {
  name: "conv7_1_relu"
  type: "ReLU"
  bottom: "conv7_1"
  top: "conv7_1"
}
layer {
  name: "conv7_2"
  type: "Convolution"
  bottom: "conv7_1"
  top: "conv7_2"
  param {
    lr_mult: 1
    decay_mult: 1
  }
  param {
    lr_mult: 2
    decay_mult: 0
  }
  convolution_param {
    num_output: 256
    pad: 1
    kernel_size: 3
    stride: 2
    weight_filler {
      type: "xavier"
    }
    bias_filler {
      type: "constant"
      value: 0
    }
  }
}
layer {
  name: "conv7_2_relu"
  type: "ReLU"
  bottom: "conv7_2"
  top: "conv7_2"
}
layer {
  name: "conv8_1"
  type: "Convolution"
  bottom: "conv7_2"
  top: "conv8_1"
  param {
    lr_mult: 1
    decay_mult: 1
  }
  param {
    lr_mult: 2
    decay_mult: 0
  }
  convolution_param {
    num_output: 128
    pad: 0
    kernel_size: 1
    stride: 1
    weight_filler {
      type: "xavier"
    }
    bias_filler {
      type: "constant"
      value: 0
    }
  }
}
layer {
  name: "conv8_1_relu"
  type: "ReLU"
  bottom: "conv8_1"
  top: "conv8_1"
}
layer {
  name: "conv8_2"
  type: "Convolution"
  bottom: "conv8_1"
  top: "conv8_2"
  param {
    lr_mult: 1
    decay_mult: 1
  }
  param {
    lr_mult: 2
    decay_mult: 0
  }
  convolution_param {
    num_output: 256
    pad: 0
    kernel_size: 3
    stride: 1
    weight_filler {
      type: "xavier"
    }
    bias_filler {
      type: "constant"
      value: 0
    }
  }
}
layer {
  name: "conv8_2_relu"
  type: "ReLU"
  bottom: "conv8_2"
  top: "conv8_2"
}
layer {
  name: "conv9_1"
  type: "Convolution"
  bottom: "conv8_2"
  top: "conv9_1"
  param {
    lr_mult: 1
    decay_mult: 1
  }
  param {
    lr_mult: 2
    decay_mult: 0
  }
  convolution_param {
    num_output: 128
    pad: 0
    kernel_size: 1
    stride: 1
    weight_filler {
      type: "xavier"
    }
    bias_filler {
      type: "constant"
      value: 0
    }
  }
}
layer {
  name: "conv9_1_relu"
  type: "ReLU"
  bottom: "conv9_1"
  top: "conv9_1"
}
layer {
  name: "conv9_2"
  type: "Convolution"
  bottom: "conv9_1"
  top: "conv9_2"
  param {
    lr_mult: 1
    decay_mult: 1
  }
  param {
    lr_mult: 2
    decay_mult: 0
  }
  convolution_param {
    num_output: 256
    pad: 0
    kernel_size: 3
    stride: 1
    weight_filler {
      type: "xavier"
    }
    bias_filler {
      type: "constant"
      value: 0
    }
  }
}
layer {
  name: "conv9_2_relu"
  type: "ReLU"
  bottom: "conv9_2"
  top: "conv9_2"
}
layer {
  name: "conv4_3_norm"
  type: "Normalize"
  bottom: "conv4_3"
  top: "conv4_3_norm"
  norm_param {
    across_spatial: false
    scale_filler {
      type: "constant"
      value: 20
    }
    channel_shared: false
  }
}
layer {
  name: "conv4_3_norm_mbox_loc"
  type: "Convolution"
  bottom: "conv4_3_norm"
  top: "conv4_3_norm_mbox_loc"
  param {
    lr_mult: 1
    decay_mult: 1
  }
  param {
    lr_mult: 2
    decay_mult: 0
  }
  convolution_param {
    num_output: 16
    pad: 1
    kernel_size: 3
    stride: 1
    weight_filler {
      type: "xavier"
    }
    bias_filler {
      type: "constant"
      value: 0
    }
  }
}
layer {
  name: "conv4_3_norm_mbox_loc_perm"
  type: "Permute"
  bottom: "conv4_3_norm_mbox_loc"
  top: "conv4_3_norm_mbox_loc_perm"
  permute_param {
    order: 0
    order: 2
    order: 3
    order: 1
  }
}
layer {
  name: "conv4_3_norm_mbox_loc_flat"
  type: "Flatten"
  bottom: "conv4_3_norm_mbox_loc_perm"
  top: "conv4_3_norm_mbox_loc_flat"
  flatten_param {
    axis: 1
  }
}
layer {
  name: "conv4_3_norm_mbox_conf"
  type: "Convolution"
  bottom: "conv4_3_norm"
  top: "conv4_3_norm_mbox_conf"
  param {
    lr_mult: 1
    decay_mult: 1
  }
  param {
    lr_mult: 2
    decay_mult: 0
  }
  convolution_param {
    num_output: 8
    pad: 1
    kernel_size: 3
    stride: 1
    weight_filler {
      type: "xavier"
    }
    bias_filler {
      type: "constant"
      value: 0
    }
  }
}
layer {
  name: "conv4_3_norm_mbox_conf_perm"
  type: "Permute"
  bottom: "conv4_3_norm_mbox_conf"
  top: "conv4_3_norm_mbox_conf_perm"
  permute_param {
    order: 0
    order: 2
    order: 3
    order: 1
  }
}
layer {
  name: "conv4_3_norm_mbox_conf_flat"
  type: "Flatten"
  bottom: "conv4_3_norm_mbox_conf_perm"
  top: "conv4_3_norm_mbox_conf_flat"
  flatten_param {
    axis: 1
  }
}
layer {
  name: "conv4_3_norm_mbox_priorbox"
  type: "PriorBox"
  bottom: "conv4_3_norm"
  bottom: "data"
  top: "conv4_3_norm_mbox_priorbox"
  prior_box_param {
    min_size: 30
    max_size: 60
    aspect_ratio: 2
    flip: true
    clip: false
    variance: 0.1
    variance: 0.1
    variance: 0.2
    variance: 0.2
    step: 8
    offset: 0.5
  }
}
layer {
  name: "fc7_mbox_loc"
  type: "Convolution"
  bottom: "fc7"
  top: "fc7_mbox_loc"
  param {
    lr_mult: 1
    decay_mult: 1
  }
  param {
    lr_mult: 2
    decay_mult: 0
  }
  convolution_param {
    num_output: 24
    pad: 1
    kernel_size: 3
    stride: 1
    weight_filler {
      type: "xavier"
    }
    bias_filler {
      type: "constant"
      value: 0
    }
  }
}
layer {
  name: "fc7_mbox_loc_perm"
  type: "Permute"
  bottom: "fc7_mbox_loc"
  top: "fc7_mbox_loc_perm"
  permute_param {
    order: 0
    order: 2
    order: 3
    order: 1
  }
}
layer {
  name: "fc7_mbox_loc_flat"
  type: "Flatten"
  bottom: "fc7_mbox_loc_perm"
  top: "fc7_mbox_loc_flat"
  flatten_param {
    axis: 1
  }
}
layer {
  name: "fc7_mbox_conf"
  type: "Convolution"
  bottom: "fc7"
  top: "fc7_mbox_conf"
  param {
    lr_mult: 1
    decay_mult: 1
  }
  param {
    lr_mult: 2
    decay_mult: 0
  }
  convolution_param {
    num_output: 12
    pad: 1
    kernel_size: 3
    stride: 1
    weight_filler {
      type: "xavier"
    }
    bias_filler {
      type: "constant"
      value: 0
    }
  }
}
layer {
  name: "fc7_mbox_conf_perm"
  type: "Permute"
  bottom: "fc7_mbox_conf"
  top: "fc7_mbox_conf_perm"
  permute_param {
    order: 0
    order: 2
    order: 3
    order: 1
  }
}
layer {
  name: "fc7_mbox_conf_flat"
  type: "Flatten"
  bottom: "fc7_mbox_conf_perm"
  top: "fc7_mbox_conf_flat"
  flatten_param {
    axis: 1
  }
}
layer {
  name: "fc7_mbox_priorbox"
  type: "PriorBox"
  bottom: "fc7"
  bottom: "data"
  top: "fc7_mbox_priorbox"
  prior_box_param {
    min_size: 60
    max_size: 111
    aspect_ratio: 2
    aspect_ratio: 3
    flip: true
    clip: false
    variance: 0.1
    variance: 0.1
    variance: 0.2
    variance: 0.2
    step: 16
    offset: 0.5
  }
}
layer {
  name: "conv6_2_mbox_loc"
  type: "Convolution"
  bottom: "conv6_2"
  top: "conv6_2_mbox_loc"
  param {
    lr_mult: 1
    decay_mult: 1
  }
  param {
    lr_mult: 2
    decay_mult: 0
  }
  convolution_param {
    num_output: 24
    pad: 1
    kernel_size: 3
    stride: 1
    weight_filler {
      type: "xavier"
    }
    bias_filler {
      type: "constant"
      value: 0
    }
  }
}
layer {
  name: "conv6_2_mbox_loc_perm"
  type: "Permute"
  bottom: "conv6_2_mbox_loc"
  top: "conv6_2_mbox_loc_perm"
  permute_param {
    order: 0
    order: 2
    order: 3
    order: 1
  }
}
layer {
  name: "conv6_2_mbox_loc_flat"
  type: "Flatten"
  bottom: "conv6_2_mbox_loc_perm"
  top: "conv6_2_mbox_loc_flat"
  flatten_param {
    axis: 1
  }
}
layer {
  name: "conv6_2_mbox_conf"
  type: "Convolution"
  bottom: "conv6_2"
  top: "conv6_2_mbox_conf"
  param {
    lr_mult: 1
    decay_mult: 1
  }
  param {
    lr_mult: 2
    decay_mult: 0
  }
  convolution_param {
    num_output: 12
    pad: 1
    kernel_size: 3
    stride: 1
    weight_filler {
      type: "xavier"
    }
    bias_filler {
      type: "constant"
      value: 0
    }
  }
}
layer {
  name: "conv6_2_mbox_conf_perm"
  type: "Permute"
  bottom: "conv6_2_mbox_conf"
  top: "conv6_2_mbox_conf_perm"
  permute_param {
    order: 0
    order: 2
    order: 3
    order: 1
  }
}
layer {
  name: "conv6_2_mbox_conf_flat"
  type: "Flatten"
  bottom: "conv6_2_mbox_conf_perm"
  top: "conv6_2_mbox_conf_flat"
  flatten_param {
    axis: 1
  }
}
layer {
  name: "conv6_2_mbox_priorbox"
  type: "PriorBox"
  bottom: "conv6_2"
  bottom: "data"
  top: "conv6_2_mbox_priorbox"
  prior_box_param {
    min_size: 111
    max_size: 162
    aspect_ratio: 2
    aspect_ratio: 3
    flip: true
    clip: false
    variance: 0.1
    variance: 0.1
    variance: 0.2
    variance: 0.2
    step: 32
    offset: 0.5
  }
}
layer {
  name: "conv7_2_mbox_loc"
  type: "Convolution"
  bottom: "conv7_2"
  top: "conv7_2_mbox_loc"
  param {
    lr_mult: 1
    decay_mult: 1
  }
  param {
    lr_mult: 2
    decay_mult: 0
  }
  convolution_param {
    num_output: 24
    pad: 1
    kernel_size: 3
    stride: 1
    weight_filler {
      type: "xavier"
    }
    bias_filler {
      type: "constant"
      value: 0
    }
  }
}
layer {
  name: "conv7_2_mbox_loc_perm"
  type: "Permute"
  bottom: "conv7_2_mbox_loc"
  top: "conv7_2_mbox_loc_perm"
  permute_param {
    order: 0
    order: 2
    order: 3
    order: 1
  }
}
layer {
  name: "conv7_2_mbox_loc_flat"
  type: "Flatten"
  bottom: "conv7_2_mbox_loc_perm"
  top: "conv7_2_mbox_loc_flat"
  flatten_param {
    axis: 1
  }
}
layer {
  name: "conv7_2_mbox_conf"
  type: "Convolution"
  bottom: "conv7_2"
  top: "conv7_2_mbox_conf"
  param {
    lr_mult: 1
    decay_mult: 1
  }
  param {
    lr_mult: 2
    decay_mult: 0
  }
  convolution_param {
    num_output: 12
    pad: 1
    kernel_size: 3
    stride: 1
    weight_filler {
      type: "xavier"
    }
    bias_filler {
      type: "constant"
      value: 0
    }
  }
}
layer {
  name: "conv7_2_mbox_conf_perm"
  type: "Permute"
  bottom: "conv7_2_mbox_conf"
  top: "conv7_2_mbox_conf_perm"
  permute_param {
    order: 0
    order: 2
    order: 3
    order: 1
  }
}
layer {
  name: "conv7_2_mbox_conf_flat"
  type: "Flatten"
  bottom: "conv7_2_mbox_conf_perm"
  top: "conv7_2_mbox_conf_flat"
  flatten_param {
    axis: 1
  }
}
layer {
  name: "conv7_2_mbox_priorbox"
  type: "PriorBox"
  bottom: "conv7_2"
  bottom: "data"
  top: "conv7_2_mbox_priorbox"
  prior_box_param {
    min_size: 162
    max_size: 213
    aspect_ratio: 2
    aspect_ratio: 3
    flip: true
    clip: false
    variance: 0.1
    variance: 0.1
    variance: 0.2
    variance: 0.2
    step: 64
    offset: 0.5
  }
}
layer {
  name: "conv8_2_mbox_loc"
  type: "Convolution"
  bottom: "conv8_2"
  top: "conv8_2_mbox_loc"
  param {
    lr_mult: 1
    decay_mult: 1
  }
  param {
    lr_mult: 2
    decay_mult: 0
  }
  convolution_param {
    num_output: 16
    pad: 1
    kernel_size: 3
    stride: 1
    weight_filler {
      type: "xavier"
    }
    bias_filler {
      type: "constant"
      value: 0
    }
  }
}
layer {
  name: "conv8_2_mbox_loc_perm"
  type: "Permute"
  bottom: "conv8_2_mbox_loc"
  top: "conv8_2_mbox_loc_perm"
  permute_param {
    order: 0
    order: 2
    order: 3
    order: 1
  }
}
layer {
  name: "conv8_2_mbox_loc_flat"
  type: "Flatten"
  bottom: "conv8_2_mbox_loc_perm"
  top: "conv8_2_mbox_loc_flat"
  flatten_param {
    axis: 1
  }
}
layer {
  name: "conv8_2_mbox_conf"
  type: "Convolution"
  bottom: "conv8_2"
  top: "conv8_2_mbox_conf"
  param {
    lr_mult: 1
    decay_mult: 1
  }
  param {
    lr_mult: 2
    decay_mult: 0
  }
  convolution_param {
    num_output: 8
    pad: 1
    kernel_size: 3
    stride: 1
    weight_filler {
      type: "xavier"
    }
    bias_filler {
      type: "constant"
      value: 0
    }
  }
}
layer {
  name: "conv8_2_mbox_conf_perm"
  type: "Permute"
  bottom: "conv8_2_mbox_conf"
  top: "conv8_2_mbox_conf_perm"
  permute_param {
    order: 0
    order: 2
    order: 3
    order: 1
  }
}
layer {
  name: "conv8_2_mbox_conf_flat"
  type: "Flatten"
  bottom: "conv8_2_mbox_conf_perm"
  top: "conv8_2_mbox_conf_flat"
  flatten_param {
    axis: 1
  }
}
layer {
  name: "conv8_2_mbox_priorbox"
  type: "PriorBox"
  bottom: "conv8_2"
  bottom: "data"
  top: "conv8_2_mbox_priorbox"
  prior_box_param {
    min_size: 213
    max_size: 264
    aspect_ratio: 2
    flip: true
    clip: false
    variance: 0.1
    variance: 0.1
    variance: 0.2
    variance: 0.2
    step: 100
    offset: 0.5
  }
}
layer {
  name: "conv9_2_mbox_loc"
  type: "Convolution"
  bottom: "conv9_2"
  top: "conv9_2_mbox_loc"
  param {
    lr_mult: 1
    decay_mult: 1
  }
  param {
    lr_mult: 2
    decay_mult: 0
  }
  convolution_param {
    num_output: 16
    pad: 1
    kernel_size: 3
    stride: 1
    weight_filler {
      type: "xavier"
    }
    bias_filler {
      type: "constant"
      value: 0
    }
  }
}
layer {
  name: "conv9_2_mbox_loc_perm"
  type: "Permute"
  bottom: "conv9_2_mbox_loc"
  top: "conv9_2_mbox_loc_perm"
  permute_param {
    order: 0
    order: 2
    order: 3
    order: 1
  }
}
layer {
  name: "conv9_2_mbox_loc_flat"
  type: "Flatten"
  bottom: "conv9_2_mbox_loc_perm"
  top: "conv9_2_mbox_loc_flat"
  flatten_param {
    axis: 1
  }
}
layer {
  name: "conv9_2_mbox_conf"
  type: "Convolution"
  bottom: "conv9_2"
  top: "conv9_2_mbox_conf"
  param {
    lr_mult: 1
    decay_mult: 1
  }
  param {
    lr_mult: 2
    decay_mult: 0
  }
  convolution_param {
    num_output: 8
    pad: 1
    kernel_size: 3
    stride: 1
    weight_filler {
      type: "xavier"
    }
    bias_filler {
      type: "constant"
      value: 0
    }
  }
}
layer {
  name: "conv9_2_mbox_conf_perm"
  type: "Permute"
  bottom: "conv9_2_mbox_conf"
  top: "conv9_2_mbox_conf_perm"
  permute_param {
    order: 0
    order: 2
    order: 3
    order: 1
  }
}
layer {
  name: "conv9_2_mbox_conf_flat"
  type: "Flatten"
  bottom: "conv9_2_mbox_conf_perm"
  top: "conv9_2_mbox_conf_flat"
  flatten_param {
    axis: 1
  }
}
layer {
  name: "conv9_2_mbox_priorbox"
  type: "PriorBox"
  bottom: "conv9_2"
  bottom: "data"
  top: "conv9_2_mbox_priorbox"
  prior_box_param {
    min_size: 264
    max_size: 315
    aspect_ratio: 2
    flip: true
    clip: false
    variance: 0.1
    variance: 0.1
    variance: 0.2
    variance: 0.2
    step: 300
    offset: 0.5
  }
}
layer {
  name: "mbox_loc"
  type: "Concat"
  bottom: "conv4_3_norm_mbox_loc_flat"
  bottom: "fc7_mbox_loc_flat"
  bottom: "conv6_2_mbox_loc_flat"
  bottom: "conv7_2_mbox_loc_flat"
  bottom: "conv8_2_mbox_loc_flat"
  bottom: "conv9_2_mbox_loc_flat"
  top: "mbox_loc"
  concat_param {
    axis: 1
  }
}
layer {
  name: "mbox_conf"
  type: "Concat"
  bottom: "conv4_3_norm_mbox_conf_flat"
  bottom: "fc7_mbox_conf_flat"
  bottom: "conv6_2_mbox_conf_flat"
  bottom: "conv7_2_mbox_conf_flat"
  bottom: "conv8_2_mbox_conf_flat"
  bottom: "conv9_2_mbox_conf_flat"
  top: "mbox_conf"
  concat_param {
    axis: 1
  }
}
layer {
  name: "mbox_priorbox"
  type: "Concat"
  bottom: "conv4_3_norm_mbox_priorbox"
  bottom: "fc7_mbox_priorbox"
  bottom: "conv6_2_mbox_priorbox"
  bottom: "conv7_2_mbox_priorbox"
  bottom: "conv8_2_mbox_priorbox"
  bottom: "conv9_2_mbox_priorbox"
  top: "mbox_priorbox"
  concat_param {
    axis: 2
  }
}
layer {
  name: "mbox_conf_reshape"
  type: "Reshape"
  bottom: "mbox_conf"
  top: "mbox_conf_reshape"
  reshape_param {
    shape {
      dim: 0
      dim: -1
      dim: 2
    }
  }
}
layer {
  name: "mbox_conf_softmax"
  type: "Softmax"
  bottom: "mbox_conf_reshape"
  top: "mbox_conf_softmax"
  softmax_param {
    axis: 2
  }
}
layer {
  name: "mbox_conf_flatten"
  type: "Flatten"
  bottom: "mbox_conf_softmax"
  top: "mbox_conf_flatten"
  flatten_param {
    axis: 1
  }
}
layer {
  name: "detection_out"
  type: "DetectionOutput"
  bottom: "mbox_loc"
  bottom: "mbox_conf_flatten"
  bottom: "mbox_priorbox"
  top: "detection_out"
  include {
    phase: TEST
  }
  detection_output_param {
    num_classes: 2
    share_location: true
    background_label_id: 0
    nms_param {
      nms_threshold: 0.45
      top_k: 400
    }
    save_output_param {
      output_directory: "/home/ubuntu/data/grayscale_tbs_v2.0/results/tbs/SSD_300x300/Main"
      output_name_prefix: "comp4_det_test_"
      output_format: "VOC"
      label_map_file: "data/grayscale_tbs_v2.0/labelmap_voc.prototxt"
      name_size_file: "data/grayscale_tbs_v2.0/test_name_size"
      num_test_image: 200
    }
    code_type: CENTER_SIZE
    keep_top_k: 200
    confidence_threshold: 0.01
  }
}
layer {
  name: "detection_eval"
  type: "DetectionEvaluate"
  bottom: "detection_out"
  bottom: "label"
  top: "detection_eval"
  include {
    phase: TEST
  }
  detection_evaluate_param {
    num_classes: 2
    background_label_id: 0
    overlap_threshold: 0.5
    evaluate_difficult_gt: false
    name_size_file: "data/grayscale_tbs_v2.0/test_name_size"
  }
}
I0609 09:10:01.403206 25759 layer_factory.hpp:77] Creating layer data
I0609 09:10:01.403311 25759 net.cpp:100] Creating Layer data
I0609 09:10:01.403328 25759 net.cpp:409] data -> data
I0609 09:10:01.403347 25759 net.cpp:409] data -> label
I0609 09:10:01.403358 25759 layer.hpp:71] 
I0609 09:10:01.406014 25784 db_lmdb.cpp:35] Opened lmdb examples/grayscale_tbs_v2.0/grayscale_tbs_v2.0_test_lmdb
I0609 09:10:01.409839 25759 annotated_data_layer.cpp:62] output data size: 4,3,300,300
I0609 09:10:01.420925 25759 net.cpp:151] Setting up data
I0609 09:10:01.420976 25759 net.cpp:158] Top shape: 4 3 300 300 (1080000)
I0609 09:10:01.420985 25759 net.cpp:158] Top shape: 1 1 1 8 (8)
I0609 09:10:01.420989 25759 net.cpp:166] Memory required for data: 4320032
I0609 09:10:01.420999 25759 layer_factory.hpp:77] Creating layer data_data_0_split
I0609 09:10:01.421020 25759 net.cpp:100] Creating Layer data_data_0_split
I0609 09:10:01.421028 25759 net.cpp:435] data_data_0_split <- data
I0609 09:10:01.421041 25759 net.cpp:409] data_data_0_split -> data_data_0_split_0
I0609 09:10:01.421061 25759 net.cpp:409] data_data_0_split -> data_data_0_split_1
I0609 09:10:01.421072 25759 net.cpp:409] data_data_0_split -> data_data_0_split_2
I0609 09:10:01.421087 25759 net.cpp:409] data_data_0_split -> data_data_0_split_3
I0609 09:10:01.421142 25759 net.cpp:409] data_data_0_split -> data_data_0_split_4
I0609 09:10:01.421175 25759 net.cpp:409] data_data_0_split -> data_data_0_split_5
I0609 09:10:01.421203 25759 net.cpp:409] data_data_0_split -> data_data_0_split_6
I0609 09:10:01.421241 25759 layer.hpp:71] 
I0609 09:10:01.421463 25759 net.cpp:151] Setting up data_data_0_split
I0609 09:10:01.421481 25759 net.cpp:158] Top shape: 4 3 300 300 (1080000)
I0609 09:10:01.421489 25759 net.cpp:158] Top shape: 4 3 300 300 (1080000)
I0609 09:10:01.421497 25759 net.cpp:158] Top shape: 4 3 300 300 (1080000)
I0609 09:10:01.421504 25759 net.cpp:158] Top shape: 4 3 300 300 (1080000)
I0609 09:10:01.421511 25759 net.cpp:158] Top shape: 4 3 300 300 (1080000)
I0609 09:10:01.421519 25759 net.cpp:158] Top shape: 4 3 300 300 (1080000)
I0609 09:10:01.421527 25759 net.cpp:158] Top shape: 4 3 300 300 (1080000)
I0609 09:10:01.421532 25759 net.cpp:166] Memory required for data: 34560032
I0609 09:10:01.421540 25759 layer_factory.hpp:77] Creating layer conv1_1
I0609 09:10:01.421561 25759 net.cpp:100] Creating Layer conv1_1
I0609 09:10:01.421589 25759 net.cpp:435] conv1_1 <- data_data_0_split_0
I0609 09:10:01.421628 25759 net.cpp:409] conv1_1 -> conv1_1
I0609 09:10:01.421669 25759 layer.hpp:71] 
I0609 09:10:01.424523 25759 net.cpp:151] Setting up conv1_1
I0609 09:10:01.424556 25759 net.cpp:158] Top shape: 4 64 300 300 (23040000)
I0609 09:10:01.424562 25759 net.cpp:166] Memory required for data: 126720032
I0609 09:10:01.424581 25759 layer_factory.hpp:77] Creating layer relu1_1
I0609 09:10:01.424592 25759 net.cpp:100] Creating Layer relu1_1
I0609 09:10:01.424600 25759 net.cpp:435] relu1_1 <- conv1_1
I0609 09:10:01.424610 25759 net.cpp:396] relu1_1 -> conv1_1 (in-place)
I0609 09:10:01.424621 25759 layer.hpp:71] 
I0609 09:10:01.424880 25759 net.cpp:151] Setting up relu1_1
I0609 09:10:01.424902 25759 net.cpp:158] Top shape: 4 64 300 300 (23040000)
I0609 09:10:01.424908 25759 net.cpp:166] Memory required for data: 218880032
I0609 09:10:01.424914 25759 layer_factory.hpp:77] Creating layer conv1_2
I0609 09:10:01.424932 25759 net.cpp:100] Creating Layer conv1_2
I0609 09:10:01.424940 25759 net.cpp:435] conv1_2 <- conv1_1
I0609 09:10:01.424952 25759 net.cpp:409] conv1_2 -> conv1_2
I0609 09:10:01.424989 25759 layer.hpp:71] 
I0609 09:10:01.428138 25759 net.cpp:151] Setting up conv1_2
I0609 09:10:01.428171 25759 net.cpp:158] Top shape: 4 64 300 300 (23040000)
I0609 09:10:01.428179 25759 net.cpp:166] Memory required for data: 311040032
I0609 09:10:01.428194 25759 layer_factory.hpp:77] Creating layer relu1_2
I0609 09:10:01.428206 25759 net.cpp:100] Creating Layer relu1_2
I0609 09:10:01.428215 25759 net.cpp:435] relu1_2 <- conv1_2
I0609 09:10:01.428225 25759 net.cpp:396] relu1_2 -> conv1_2 (in-place)
I0609 09:10:01.428236 25759 layer.hpp:71] 
I0609 09:10:01.428922 25759 net.cpp:151] Setting up relu1_2
I0609 09:10:01.428946 25759 net.cpp:158] Top shape: 4 64 300 300 (23040000)
I0609 09:10:01.428952 25759 net.cpp:166] Memory required for data: 403200032
I0609 09:10:01.428958 25759 layer_factory.hpp:77] Creating layer pool1
I0609 09:10:01.428972 25759 net.cpp:100] Creating Layer pool1
I0609 09:10:01.428979 25759 net.cpp:435] pool1 <- conv1_2
I0609 09:10:01.428989 25759 net.cpp:409] pool1 -> pool1
I0609 09:10:01.429002 25759 layer.hpp:71] 
I0609 09:10:01.429095 25759 net.cpp:151] Setting up pool1
I0609 09:10:01.429112 25759 net.cpp:158] Top shape: 4 64 150 150 (5760000)
I0609 09:10:01.429117 25759 net.cpp:166] Memory required for data: 426240032
I0609 09:10:01.429123 25759 layer_factory.hpp:77] Creating layer conv2_1
I0609 09:10:01.429139 25759 net.cpp:100] Creating Layer conv2_1
I0609 09:10:01.429148 25759 net.cpp:435] conv2_1 <- pool1
I0609 09:10:01.429160 25759 net.cpp:409] conv2_1 -> conv2_1
I0609 09:10:01.429198 25759 layer.hpp:71] 
I0609 09:10:01.431651 25759 net.cpp:151] Setting up conv2_1
I0609 09:10:01.431679 25759 net.cpp:158] Top shape: 4 128 150 150 (11520000)
I0609 09:10:01.431686 25759 net.cpp:166] Memory required for data: 472320032
I0609 09:10:01.431728 25759 layer_factory.hpp:77] Creating layer relu2_1
I0609 09:10:01.431766 25759 net.cpp:100] Creating Layer relu2_1
I0609 09:10:01.431795 25759 net.cpp:435] relu2_1 <- conv2_1
I0609 09:10:01.431824 25759 net.cpp:396] relu2_1 -> conv2_1 (in-place)
I0609 09:10:01.431855 25759 layer.hpp:71] 
I0609 09:10:01.433017 25759 net.cpp:151] Setting up relu2_1
I0609 09:10:01.433042 25759 net.cpp:158] Top shape: 4 128 150 150 (11520000)
I0609 09:10:01.433048 25759 net.cpp:166] Memory required for data: 518400032
I0609 09:10:01.433053 25759 layer_factory.hpp:77] Creating layer conv2_2
I0609 09:10:01.433070 25759 net.cpp:100] Creating Layer conv2_2
I0609 09:10:01.433079 25759 net.cpp:435] conv2_2 <- conv2_1
I0609 09:10:01.433092 25759 net.cpp:409] conv2_2 -> conv2_2
I0609 09:10:01.433128 25759 layer.hpp:71] 
I0609 09:10:01.436579 25759 net.cpp:151] Setting up conv2_2
I0609 09:10:01.436620 25759 net.cpp:158] Top shape: 4 128 150 150 (11520000)
I0609 09:10:01.436627 25759 net.cpp:166] Memory required for data: 564480032
I0609 09:10:01.436640 25759 layer_factory.hpp:77] Creating layer relu2_2
I0609 09:10:01.436652 25759 net.cpp:100] Creating Layer relu2_2
I0609 09:10:01.436661 25759 net.cpp:435] relu2_2 <- conv2_2
I0609 09:10:01.436671 25759 net.cpp:396] relu2_2 -> conv2_2 (in-place)
I0609 09:10:01.436682 25759 layer.hpp:71] 
I0609 09:10:01.436959 25759 net.cpp:151] Setting up relu2_2
I0609 09:10:01.436981 25759 net.cpp:158] Top shape: 4 128 150 150 (11520000)
I0609 09:10:01.436987 25759 net.cpp:166] Memory required for data: 610560032
I0609 09:10:01.436993 25759 layer_factory.hpp:77] Creating layer pool2
I0609 09:10:01.437005 25759 net.cpp:100] Creating Layer pool2
I0609 09:10:01.437014 25759 net.cpp:435] pool2 <- conv2_2
I0609 09:10:01.437023 25759 net.cpp:409] pool2 -> pool2
I0609 09:10:01.437036 25759 layer.hpp:71] 
I0609 09:10:01.437135 25759 net.cpp:151] Setting up pool2
I0609 09:10:01.437155 25759 net.cpp:158] Top shape: 4 128 75 75 (2880000)
I0609 09:10:01.437160 25759 net.cpp:166] Memory required for data: 622080032
I0609 09:10:01.437165 25759 layer_factory.hpp:77] Creating layer conv3_1
I0609 09:10:01.437186 25759 net.cpp:100] Creating Layer conv3_1
I0609 09:10:01.437217 25759 net.cpp:435] conv3_1 <- pool2
I0609 09:10:01.437259 25759 net.cpp:409] conv3_1 -> conv3_1
I0609 09:10:01.437288 25759 layer.hpp:71] 
I0609 09:10:01.441792 25759 net.cpp:151] Setting up conv3_1
I0609 09:10:01.442020 25759 net.cpp:158] Top shape: 4 256 75 75 (5760000)
I0609 09:10:01.442039 25759 net.cpp:166] Memory required for data: 645120032
I0609 09:10:01.442073 25759 layer_factory.hpp:77] Creating layer relu3_1
I0609 09:10:01.442095 25759 net.cpp:100] Creating Layer relu3_1
I0609 09:10:01.442145 25759 net.cpp:435] relu3_1 <- conv3_1
I0609 09:10:01.442193 25759 net.cpp:396] relu3_1 -> conv3_1 (in-place)
I0609 09:10:01.442215 25759 layer.hpp:71] 
I0609 09:10:01.442975 25759 net.cpp:151] Setting up relu3_1
I0609 09:10:01.443001 25759 net.cpp:158] Top shape: 4 256 75 75 (5760000)
I0609 09:10:01.443006 25759 net.cpp:166] Memory required for data: 668160032
I0609 09:10:01.443012 25759 layer_factory.hpp:77] Creating layer conv3_2
I0609 09:10:01.443128 25759 net.cpp:100] Creating Layer conv3_2
I0609 09:10:01.443142 25759 net.cpp:435] conv3_2 <- conv3_1
I0609 09:10:01.443158 25759 net.cpp:409] conv3_2 -> conv3_2
I0609 09:10:01.443212 25759 layer.hpp:71] 
I0609 09:10:01.450086 25759 net.cpp:151] Setting up conv3_2
I0609 09:10:01.450136 25759 net.cpp:158] Top shape: 4 256 75 75 (5760000)
I0609 09:10:01.450142 25759 net.cpp:166] Memory required for data: 691200032
I0609 09:10:01.450249 25759 layer_factory.hpp:77] Creating layer relu3_2
I0609 09:10:01.450275 25759 net.cpp:100] Creating Layer relu3_2
I0609 09:10:01.450325 25759 net.cpp:435] relu3_2 <- conv3_2
I0609 09:10:01.450376 25759 net.cpp:396] relu3_2 -> conv3_2 (in-place)
I0609 09:10:01.450395 25759 layer.hpp:71] 
I0609 09:10:01.450713 25759 net.cpp:151] Setting up relu3_2
I0609 09:10:01.450734 25759 net.cpp:158] Top shape: 4 256 75 75 (5760000)
I0609 09:10:01.450740 25759 net.cpp:166] Memory required for data: 714240032
I0609 09:10:01.450817 25759 layer_factory.hpp:77] Creating layer conv3_3
I0609 09:10:01.450875 25759 net.cpp:100] Creating Layer conv3_3
I0609 09:10:01.450888 25759 net.cpp:435] conv3_3 <- conv3_2
I0609 09:10:01.450901 25759 net.cpp:409] conv3_3 -> conv3_3
I0609 09:10:01.450944 25759 layer.hpp:71] 
I0609 09:10:01.457698 25759 net.cpp:151] Setting up conv3_3
I0609 09:10:01.457748 25759 net.cpp:158] Top shape: 4 256 75 75 (5760000)
I0609 09:10:01.457754 25759 net.cpp:166] Memory required for data: 737280032
I0609 09:10:01.457892 25759 layer_factory.hpp:77] Creating layer relu3_3
I0609 09:10:01.457919 25759 net.cpp:100] Creating Layer relu3_3
I0609 09:10:01.457962 25759 net.cpp:435] relu3_3 <- conv3_3
I0609 09:10:01.458011 25759 net.cpp:396] relu3_3 -> conv3_3 (in-place)
I0609 09:10:01.458032 25759 layer.hpp:71] 
I0609 09:10:01.458809 25759 net.cpp:151] Setting up relu3_3
I0609 09:10:01.458835 25759 net.cpp:158] Top shape: 4 256 75 75 (5760000)
I0609 09:10:01.458842 25759 net.cpp:166] Memory required for data: 760320032
I0609 09:10:01.458848 25759 layer_factory.hpp:77] Creating layer pool3
I0609 09:10:01.458925 25759 net.cpp:100] Creating Layer pool3
I0609 09:10:01.458966 25759 net.cpp:435] pool3 <- conv3_3
I0609 09:10:01.458979 25759 net.cpp:409] pool3 -> pool3
I0609 09:10:01.459028 25759 layer.hpp:71] 
I0609 09:10:01.459167 25759 net.cpp:151] Setting up pool3
I0609 09:10:01.459185 25759 net.cpp:158] Top shape: 4 256 38 38 (1478656)
I0609 09:10:01.459192 25759 net.cpp:166] Memory required for data: 766234656
I0609 09:10:01.459197 25759 layer_factory.hpp:77] Creating layer conv4_1
I0609 09:10:01.459264 25759 net.cpp:100] Creating Layer conv4_1
I0609 09:10:01.459308 25759 net.cpp:435] conv4_1 <- pool3
I0609 09:10:01.459324 25759 net.cpp:409] conv4_1 -> conv4_1
I0609 09:10:01.459377 25759 layer.hpp:71] 
I0609 09:10:01.470741 25759 net.cpp:151] Setting up conv4_1
I0609 09:10:01.470800 25759 net.cpp:158] Top shape: 4 512 38 38 (2957312)
I0609 09:10:01.470806 25759 net.cpp:166] Memory required for data: 778063904
I0609 09:10:01.470824 25759 layer_factory.hpp:77] Creating layer relu4_1
I0609 09:10:01.470947 25759 net.cpp:100] Creating Layer relu4_1
I0609 09:10:01.470963 25759 net.cpp:435] relu4_1 <- conv4_1
I0609 09:10:01.470979 25759 net.cpp:396] relu4_1 -> conv4_1 (in-place)
I0609 09:10:01.471038 25759 layer.hpp:71] 
I0609 09:10:01.471782 25759 net.cpp:151] Setting up relu4_1
I0609 09:10:01.471807 25759 net.cpp:158] Top shape: 4 512 38 38 (2957312)
I0609 09:10:01.471813 25759 net.cpp:166] Memory required for data: 789893152
I0609 09:10:01.471818 25759 layer_factory.hpp:77] Creating layer conv4_2
I0609 09:10:01.471899 25759 net.cpp:100] Creating Layer conv4_2
I0609 09:10:01.471949 25759 net.cpp:435] conv4_2 <- conv4_1
I0609 09:10:01.471998 25759 net.cpp:409] conv4_2 -> conv4_2
I0609 09:10:01.472021 25759 layer.hpp:71] 
I0609 09:10:01.492655 25759 net.cpp:151] Setting up conv4_2
I0609 09:10:01.492700 25759 net.cpp:158] Top shape: 4 512 38 38 (2957312)
I0609 09:10:01.492708 25759 net.cpp:166] Memory required for data: 801722400
I0609 09:10:01.492740 25759 layer_factory.hpp:77] Creating layer relu4_2
I0609 09:10:01.492759 25759 net.cpp:100] Creating Layer relu4_2
I0609 09:10:01.492768 25759 net.cpp:435] relu4_2 <- conv4_2
I0609 09:10:01.492777 25759 net.cpp:396] relu4_2 -> conv4_2 (in-place)
I0609 09:10:01.492790 25759 layer.hpp:71] 
I0609 09:10:01.493140 25759 net.cpp:151] Setting up relu4_2
I0609 09:10:01.493163 25759 net.cpp:158] Top shape: 4 512 38 38 (2957312)
I0609 09:10:01.493170 25759 net.cpp:166] Memory required for data: 813551648
I0609 09:10:01.493175 25759 layer_factory.hpp:77] Creating layer conv4_3
I0609 09:10:01.493199 25759 net.cpp:100] Creating Layer conv4_3
I0609 09:10:01.493208 25759 net.cpp:435] conv4_3 <- conv4_2
I0609 09:10:01.493221 25759 net.cpp:409] conv4_3 -> conv4_3
I0609 09:10:01.493234 25759 layer.hpp:71] 
I0609 09:10:01.514168 25759 net.cpp:151] Setting up conv4_3
I0609 09:10:01.514222 25759 net.cpp:158] Top shape: 4 512 38 38 (2957312)
I0609 09:10:01.514230 25759 net.cpp:166] Memory required for data: 825380896
I0609 09:10:01.514277 25759 layer_factory.hpp:77] Creating layer relu4_3
I0609 09:10:01.514295 25759 net.cpp:100] Creating Layer relu4_3
I0609 09:10:01.514303 25759 net.cpp:435] relu4_3 <- conv4_3
I0609 09:10:01.514313 25759 net.cpp:396] relu4_3 -> conv4_3 (in-place)
I0609 09:10:01.514324 25759 layer.hpp:71] 
I0609 09:10:01.515133 25759 net.cpp:151] Setting up relu4_3
I0609 09:10:01.515159 25759 net.cpp:158] Top shape: 4 512 38 38 (2957312)
I0609 09:10:01.515166 25759 net.cpp:166] Memory required for data: 837210144
I0609 09:10:01.515172 25759 layer_factory.hpp:77] Creating layer conv4_3_relu4_3_0_split
I0609 09:10:01.515185 25759 net.cpp:100] Creating Layer conv4_3_relu4_3_0_split
I0609 09:10:01.515193 25759 net.cpp:435] conv4_3_relu4_3_0_split <- conv4_3
I0609 09:10:01.515206 25759 net.cpp:409] conv4_3_relu4_3_0_split -> conv4_3_relu4_3_0_split_0
I0609 09:10:01.515220 25759 net.cpp:409] conv4_3_relu4_3_0_split -> conv4_3_relu4_3_0_split_1
I0609 09:10:01.515231 25759 layer.hpp:71] 
I0609 09:10:01.515331 25759 net.cpp:151] Setting up conv4_3_relu4_3_0_split
I0609 09:10:01.515347 25759 net.cpp:158] Top shape: 4 512 38 38 (2957312)
I0609 09:10:01.515355 25759 net.cpp:158] Top shape: 4 512 38 38 (2957312)
I0609 09:10:01.515360 25759 net.cpp:166] Memory required for data: 860868640
I0609 09:10:01.515367 25759 layer_factory.hpp:77] Creating layer pool4
I0609 09:10:01.515377 25759 net.cpp:100] Creating Layer pool4
I0609 09:10:01.515384 25759 net.cpp:435] pool4 <- conv4_3_relu4_3_0_split_0
I0609 09:10:01.515393 25759 net.cpp:409] pool4 -> pool4
I0609 09:10:01.515404 25759 layer.hpp:71] 
I0609 09:10:01.515503 25759 net.cpp:151] Setting up pool4
I0609 09:10:01.515516 25759 net.cpp:158] Top shape: 4 512 19 19 (739328)
I0609 09:10:01.515521 25759 net.cpp:166] Memory required for data: 863825952
I0609 09:10:01.515527 25759 layer_factory.hpp:77] Creating layer conv5_1
I0609 09:10:01.515548 25759 net.cpp:100] Creating Layer conv5_1
I0609 09:10:01.515557 25759 net.cpp:435] conv5_1 <- pool4
I0609 09:10:01.515568 25759 net.cpp:409] conv5_1 -> conv5_1
I0609 09:10:01.515580 25759 layer.hpp:71] 
I0609 09:10:01.539566 25759 net.cpp:151] Setting up conv5_1
I0609 09:10:01.539688 25759 net.cpp:158] Top shape: 4 512 19 19 (739328)
I0609 09:10:01.539714 25759 net.cpp:166] Memory required for data: 866783264
I0609 09:10:01.539752 25759 layer_factory.hpp:77] Creating layer relu5_1
I0609 09:10:01.539785 25759 net.cpp:100] Creating Layer relu5_1
I0609 09:10:01.539816 25759 net.cpp:435] relu5_1 <- conv5_1
I0609 09:10:01.539847 25759 net.cpp:396] relu5_1 -> conv5_1 (in-place)
I0609 09:10:01.539882 25759 layer.hpp:71] 
I0609 09:10:01.540244 25759 net.cpp:151] Setting up relu5_1
I0609 09:10:01.540285 25759 net.cpp:158] Top shape: 4 512 19 19 (739328)
I0609 09:10:01.540311 25759 net.cpp:166] Memory required for data: 869740576
I0609 09:10:01.540338 25759 layer_factory.hpp:77] Creating layer conv5_2
I0609 09:10:01.540380 25759 net.cpp:100] Creating Layer conv5_2
I0609 09:10:01.540407 25759 net.cpp:435] conv5_2 <- conv5_1
I0609 09:10:01.540438 25759 net.cpp:409] conv5_2 -> conv5_2
I0609 09:10:01.540474 25759 layer.hpp:71] 
I0609 09:10:01.575229 25759 net.cpp:151] Setting up conv5_2
I0609 09:10:01.575335 25759 net.cpp:158] Top shape: 4 512 19 19 (739328)
I0609 09:10:01.575361 25759 net.cpp:166] Memory required for data: 872697888
I0609 09:10:01.575397 25759 layer_factory.hpp:77] Creating layer relu5_2
I0609 09:10:01.575430 25759 net.cpp:100] Creating Layer relu5_2
I0609 09:10:01.575458 25759 net.cpp:435] relu5_2 <- conv5_2
I0609 09:10:01.575491 25759 net.cpp:396] relu5_2 -> conv5_2 (in-place)
I0609 09:10:01.575527 25759 layer.hpp:71] 
I0609 09:10:01.576503 25759 net.cpp:151] Setting up relu5_2
I0609 09:10:01.576551 25759 net.cpp:158] Top shape: 4 512 19 19 (739328)
I0609 09:10:01.576581 25759 net.cpp:166] Memory required for data: 875655200
I0609 09:10:01.576607 25759 layer_factory.hpp:77] Creating layer conv5_3
I0609 09:10:01.576652 25759 net.cpp:100] Creating Layer conv5_3
I0609 09:10:01.576692 25759 net.cpp:435] conv5_3 <- conv5_2
I0609 09:10:01.576740 25759 net.cpp:409] conv5_3 -> conv5_3
I0609 09:10:01.576777 25759 layer.hpp:71] 
I0609 09:10:01.597560 25759 net.cpp:151] Setting up conv5_3
I0609 09:10:01.597614 25759 net.cpp:158] Top shape: 4 512 19 19 (739328)
I0609 09:10:01.597620 25759 net.cpp:166] Memory required for data: 878612512
I0609 09:10:01.597635 25759 layer_factory.hpp:77] Creating layer relu5_3
I0609 09:10:01.597662 25759 net.cpp:100] Creating Layer relu5_3
I0609 09:10:01.597671 25759 net.cpp:435] relu5_3 <- conv5_3
I0609 09:10:01.597682 25759 net.cpp:396] relu5_3 -> conv5_3 (in-place)
I0609 09:10:01.597695 25759 layer.hpp:71] 
I0609 09:10:01.598490 25759 net.cpp:151] Setting up relu5_3
I0609 09:10:01.598515 25759 net.cpp:158] Top shape: 4 512 19 19 (739328)
I0609 09:10:01.598521 25759 net.cpp:166] Memory required for data: 881569824
I0609 09:10:01.598529 25759 layer_factory.hpp:77] Creating layer pool5
I0609 09:10:01.598541 25759 net.cpp:100] Creating Layer pool5
I0609 09:10:01.598548 25759 net.cpp:435] pool5 <- conv5_3
I0609 09:10:01.598561 25759 net.cpp:409] pool5 -> pool5
I0609 09:10:01.598575 25759 layer.hpp:71] 
I0609 09:10:01.598688 25759 net.cpp:151] Setting up pool5
I0609 09:10:01.598717 25759 net.cpp:158] Top shape: 4 512 19 19 (739328)
I0609 09:10:01.598723 25759 net.cpp:166] Memory required for data: 884527136
I0609 09:10:01.598731 25759 layer_factory.hpp:77] Creating layer fc6
I0609 09:10:01.598754 25759 net.cpp:100] Creating Layer fc6
I0609 09:10:01.598763 25759 net.cpp:435] fc6 <- pool5
I0609 09:10:01.598774 25759 net.cpp:409] fc6 -> fc6
I0609 09:10:01.598788 25759 layer.hpp:71] 
I0609 09:10:01.636332 25759 net.cpp:151] Setting up fc6
I0609 09:10:01.636379 25759 net.cpp:158] Top shape: 4 1024 19 19 (1478656)
I0609 09:10:01.636386 25759 net.cpp:166] Memory required for data: 890441760
I0609 09:10:01.636400 25759 layer_factory.hpp:77] Creating layer relu6
I0609 09:10:01.636420 25759 net.cpp:100] Creating Layer relu6
I0609 09:10:01.636427 25759 net.cpp:435] relu6 <- fc6
I0609 09:10:01.636437 25759 net.cpp:396] relu6 -> fc6 (in-place)
I0609 09:10:01.636451 25759 layer.hpp:71] 
I0609 09:10:01.636823 25759 net.cpp:151] Setting up relu6
I0609 09:10:01.636845 25759 net.cpp:158] Top shape: 4 1024 19 19 (1478656)
I0609 09:10:01.636852 25759 net.cpp:166] Memory required for data: 896356384
I0609 09:10:01.636859 25759 layer_factory.hpp:77] Creating layer fc7
I0609 09:10:01.636879 25759 net.cpp:100] Creating Layer fc7
I0609 09:10:01.636886 25759 net.cpp:435] fc7 <- fc6
I0609 09:10:01.636904 25759 net.cpp:409] fc7 -> fc7
I0609 09:10:01.636920 25759 layer.hpp:71] 
I0609 09:10:01.648669 25759 net.cpp:151] Setting up fc7
I0609 09:10:01.648725 25759 net.cpp:158] Top shape: 4 1024 19 19 (1478656)
I0609 09:10:01.648732 25759 net.cpp:166] Memory required for data: 902271008
I0609 09:10:01.648746 25759 layer_factory.hpp:77] Creating layer relu7
I0609 09:10:01.648764 25759 net.cpp:100] Creating Layer relu7
I0609 09:10:01.648772 25759 net.cpp:435] relu7 <- fc7
I0609 09:10:01.648784 25759 net.cpp:396] relu7 -> fc7 (in-place)
I0609 09:10:01.648798 25759 layer.hpp:71] 
I0609 09:10:01.649531 25759 net.cpp:151] Setting up relu7
I0609 09:10:01.649555 25759 net.cpp:158] Top shape: 4 1024 19 19 (1478656)
I0609 09:10:01.649562 25759 net.cpp:166] Memory required for data: 908185632
I0609 09:10:01.649569 25759 layer_factory.hpp:77] Creating layer fc7_relu7_0_split
I0609 09:10:01.649581 25759 net.cpp:100] Creating Layer fc7_relu7_0_split
I0609 09:10:01.649587 25759 net.cpp:435] fc7_relu7_0_split <- fc7
I0609 09:10:01.649600 25759 net.cpp:409] fc7_relu7_0_split -> fc7_relu7_0_split_0
I0609 09:10:01.649616 25759 net.cpp:409] fc7_relu7_0_split -> fc7_relu7_0_split_1
I0609 09:10:01.649642 25759 net.cpp:409] fc7_relu7_0_split -> fc7_relu7_0_split_2
I0609 09:10:01.649655 25759 net.cpp:409] fc7_relu7_0_split -> fc7_relu7_0_split_3
I0609 09:10:01.649665 25759 layer.hpp:71] 
I0609 09:10:01.649804 25759 net.cpp:151] Setting up fc7_relu7_0_split
I0609 09:10:01.649823 25759 net.cpp:158] Top shape: 4 1024 19 19 (1478656)
I0609 09:10:01.649835 25759 net.cpp:158] Top shape: 4 1024 19 19 (1478656)
I0609 09:10:01.649886 25759 net.cpp:158] Top shape: 4 1024 19 19 (1478656)
I0609 09:10:01.649897 25759 net.cpp:158] Top shape: 4 1024 19 19 (1478656)
I0609 09:10:01.649902 25759 net.cpp:166] Memory required for data: 931844128
I0609 09:10:01.649909 25759 layer_factory.hpp:77] Creating layer conv6_1
I0609 09:10:01.649930 25759 net.cpp:100] Creating Layer conv6_1
I0609 09:10:01.649938 25759 net.cpp:435] conv6_1 <- fc7_relu7_0_split_0
I0609 09:10:01.649955 25759 net.cpp:409] conv6_1 -> conv6_1
I0609 09:10:01.649969 25759 layer.hpp:71] 
I0609 09:10:01.654021 25759 net.cpp:151] Setting up conv6_1
I0609 09:10:01.654052 25759 net.cpp:158] Top shape: 4 256 19 19 (369664)
I0609 09:10:01.654058 25759 net.cpp:166] Memory required for data: 933322784
I0609 09:10:01.654069 25759 layer_factory.hpp:77] Creating layer conv6_1_relu
I0609 09:10:01.654080 25759 net.cpp:100] Creating Layer conv6_1_relu
I0609 09:10:01.654088 25759 net.cpp:435] conv6_1_relu <- conv6_1
I0609 09:10:01.654098 25759 net.cpp:396] conv6_1_relu -> conv6_1 (in-place)
I0609 09:10:01.654108 25759 layer.hpp:71] 
I0609 09:10:01.654400 25759 net.cpp:151] Setting up conv6_1_relu
I0609 09:10:01.654422 25759 net.cpp:158] Top shape: 4 256 19 19 (369664)
I0609 09:10:01.654428 25759 net.cpp:166] Memory required for data: 934801440
I0609 09:10:01.654434 25759 layer_factory.hpp:77] Creating layer conv6_2
I0609 09:10:01.654453 25759 net.cpp:100] Creating Layer conv6_2
I0609 09:10:01.654460 25759 net.cpp:435] conv6_2 <- conv6_1
I0609 09:10:01.654474 25759 net.cpp:409] conv6_2 -> conv6_2
I0609 09:10:01.654487 25759 layer.hpp:71] 
I0609 09:10:01.665913 25759 net.cpp:151] Setting up conv6_2
I0609 09:10:01.665968 25759 net.cpp:158] Top shape: 4 512 10 10 (204800)
I0609 09:10:01.665976 25759 net.cpp:166] Memory required for data: 935620640
I0609 09:10:01.666002 25759 layer_factory.hpp:77] Creating layer conv6_2_relu
I0609 09:10:01.666018 25759 net.cpp:100] Creating Layer conv6_2_relu
I0609 09:10:01.666026 25759 net.cpp:435] conv6_2_relu <- conv6_2
I0609 09:10:01.666036 25759 net.cpp:396] conv6_2_relu -> conv6_2 (in-place)
I0609 09:10:01.666048 25759 layer.hpp:71] 
I0609 09:10:01.666761 25759 net.cpp:151] Setting up conv6_2_relu
I0609 09:10:01.666785 25759 net.cpp:158] Top shape: 4 512 10 10 (204800)
I0609 09:10:01.666792 25759 net.cpp:166] Memory required for data: 936439840
I0609 09:10:01.666798 25759 layer_factory.hpp:77] Creating layer conv6_2_conv6_2_relu_0_split
I0609 09:10:01.666813 25759 net.cpp:100] Creating Layer conv6_2_conv6_2_relu_0_split
I0609 09:10:01.666821 25759 net.cpp:435] conv6_2_conv6_2_relu_0_split <- conv6_2
I0609 09:10:01.666834 25759 net.cpp:409] conv6_2_conv6_2_relu_0_split -> conv6_2_conv6_2_relu_0_split_0
I0609 09:10:01.666847 25759 net.cpp:409] conv6_2_conv6_2_relu_0_split -> conv6_2_conv6_2_relu_0_split_1
I0609 09:10:01.666859 25759 net.cpp:409] conv6_2_conv6_2_relu_0_split -> conv6_2_conv6_2_relu_0_split_2
I0609 09:10:01.666899 25759 net.cpp:409] conv6_2_conv6_2_relu_0_split -> conv6_2_conv6_2_relu_0_split_3
I0609 09:10:01.666932 25759 layer.hpp:71] 
I0609 09:10:01.667098 25759 net.cpp:151] Setting up conv6_2_conv6_2_relu_0_split
I0609 09:10:01.667116 25759 net.cpp:158] Top shape: 4 512 10 10 (204800)
I0609 09:10:01.667125 25759 net.cpp:158] Top shape: 4 512 10 10 (204800)
I0609 09:10:01.667132 25759 net.cpp:158] Top shape: 4 512 10 10 (204800)
I0609 09:10:01.667138 25759 net.cpp:158] Top shape: 4 512 10 10 (204800)
I0609 09:10:01.667143 25759 net.cpp:166] Memory required for data: 939716640
I0609 09:10:01.667150 25759 layer_factory.hpp:77] Creating layer conv7_1
I0609 09:10:01.667171 25759 net.cpp:100] Creating Layer conv7_1
I0609 09:10:01.667177 25759 net.cpp:435] conv7_1 <- conv6_2_conv6_2_relu_0_split_0
I0609 09:10:01.667194 25759 net.cpp:409] conv7_1 -> conv7_1
I0609 09:10:01.667210 25759 layer.hpp:71] 
I0609 09:10:01.669620 25759 net.cpp:151] Setting up conv7_1
I0609 09:10:01.669646 25759 net.cpp:158] Top shape: 4 128 10 10 (51200)
I0609 09:10:01.669651 25759 net.cpp:166] Memory required for data: 939921440
I0609 09:10:01.669687 25759 layer_factory.hpp:77] Creating layer conv7_1_relu
I0609 09:10:01.669699 25759 net.cpp:100] Creating Layer conv7_1_relu
I0609 09:10:01.669726 25759 net.cpp:435] conv7_1_relu <- conv7_1
I0609 09:10:01.669760 25759 net.cpp:396] conv7_1_relu -> conv7_1 (in-place)
I0609 09:10:01.669795 25759 layer.hpp:71] 
I0609 09:10:01.670585 25759 net.cpp:151] Setting up conv7_1_relu
I0609 09:10:01.670606 25759 net.cpp:158] Top shape: 4 128 10 10 (51200)
I0609 09:10:01.670614 25759 net.cpp:166] Memory required for data: 940126240
I0609 09:10:01.670620 25759 layer_factory.hpp:77] Creating layer conv7_2
I0609 09:10:01.670641 25759 net.cpp:100] Creating Layer conv7_2
I0609 09:10:01.670650 25759 net.cpp:435] conv7_2 <- conv7_1
I0609 09:10:01.670662 25759 net.cpp:409] conv7_2 -> conv7_2
I0609 09:10:01.670681 25759 layer.hpp:71] 
I0609 09:10:01.676897 25759 net.cpp:151] Setting up conv7_2
I0609 09:10:01.676929 25759 net.cpp:158] Top shape: 4 256 5 5 (25600)
I0609 09:10:01.676936 25759 net.cpp:166] Memory required for data: 940228640
I0609 09:10:01.676949 25759 layer_factory.hpp:77] Creating layer conv7_2_relu
I0609 09:10:01.676965 25759 net.cpp:100] Creating Layer conv7_2_relu
I0609 09:10:01.676973 25759 net.cpp:435] conv7_2_relu <- conv7_2
I0609 09:10:01.676982 25759 net.cpp:396] conv7_2_relu -> conv7_2 (in-place)
I0609 09:10:01.676995 25759 layer.hpp:71] 
I0609 09:10:01.677260 25759 net.cpp:151] Setting up conv7_2_relu
I0609 09:10:01.677281 25759 net.cpp:158] Top shape: 4 256 5 5 (25600)
I0609 09:10:01.677287 25759 net.cpp:166] Memory required for data: 940331040
I0609 09:10:01.677294 25759 layer_factory.hpp:77] Creating layer conv7_2_conv7_2_relu_0_split
I0609 09:10:01.677309 25759 net.cpp:100] Creating Layer conv7_2_conv7_2_relu_0_split
I0609 09:10:01.677315 25759 net.cpp:435] conv7_2_conv7_2_relu_0_split <- conv7_2
I0609 09:10:01.677328 25759 net.cpp:409] conv7_2_conv7_2_relu_0_split -> conv7_2_conv7_2_relu_0_split_0
I0609 09:10:01.677343 25759 net.cpp:409] conv7_2_conv7_2_relu_0_split -> conv7_2_conv7_2_relu_0_split_1
I0609 09:10:01.677357 25759 net.cpp:409] conv7_2_conv7_2_relu_0_split -> conv7_2_conv7_2_relu_0_split_2
I0609 09:10:01.677366 25759 net.cpp:409] conv7_2_conv7_2_relu_0_split -> conv7_2_conv7_2_relu_0_split_3
I0609 09:10:01.677376 25759 layer.hpp:71] 
I0609 09:10:01.677515 25759 net.cpp:151] Setting up conv7_2_conv7_2_relu_0_split
I0609 09:10:01.677531 25759 net.cpp:158] Top shape: 4 256 5 5 (25600)
I0609 09:10:01.677539 25759 net.cpp:158] Top shape: 4 256 5 5 (25600)
I0609 09:10:01.677546 25759 net.cpp:158] Top shape: 4 256 5 5 (25600)
I0609 09:10:01.677554 25759 net.cpp:158] Top shape: 4 256 5 5 (25600)
I0609 09:10:01.677558 25759 net.cpp:166] Memory required for data: 940740640
I0609 09:10:01.677564 25759 layer_factory.hpp:77] Creating layer conv8_1
I0609 09:10:01.677583 25759 net.cpp:100] Creating Layer conv8_1
I0609 09:10:01.677592 25759 net.cpp:435] conv8_1 <- conv7_2_conv7_2_relu_0_split_0
I0609 09:10:01.677608 25759 net.cpp:409] conv8_1 -> conv8_1
I0609 09:10:01.677621 25759 layer.hpp:71] 
I0609 09:10:01.684073 25759 net.cpp:151] Setting up conv8_1
I0609 09:10:01.684113 25759 net.cpp:158] Top shape: 4 128 5 5 (12800)
I0609 09:10:01.684119 25759 net.cpp:166] Memory required for data: 940791840
I0609 09:10:01.684134 25759 layer_factory.hpp:77] Creating layer conv8_1_relu
I0609 09:10:01.684147 25759 net.cpp:100] Creating Layer conv8_1_relu
I0609 09:10:01.684156 25759 net.cpp:435] conv8_1_relu <- conv8_1
I0609 09:10:01.684170 25759 net.cpp:396] conv8_1_relu -> conv8_1 (in-place)
I0609 09:10:01.684183 25759 layer.hpp:71] 
I0609 09:10:01.685009 25759 net.cpp:151] Setting up conv8_1_relu
I0609 09:10:01.685034 25759 net.cpp:158] Top shape: 4 128 5 5 (12800)
I0609 09:10:01.685039 25759 net.cpp:166] Memory required for data: 940843040
I0609 09:10:01.685045 25759 layer_factory.hpp:77] Creating layer conv8_2
I0609 09:10:01.685067 25759 net.cpp:100] Creating Layer conv8_2
I0609 09:10:01.685076 25759 net.cpp:435] conv8_2 <- conv8_1
I0609 09:10:01.685091 25759 net.cpp:409] conv8_2 -> conv8_2
I0609 09:10:01.685124 25759 layer.hpp:71] 
I0609 09:10:01.689535 25759 net.cpp:151] Setting up conv8_2
I0609 09:10:01.689585 25759 net.cpp:158] Top shape: 4 256 3 3 (9216)
I0609 09:10:01.689592 25759 net.cpp:166] Memory required for data: 940879904
I0609 09:10:01.689605 25759 layer_factory.hpp:77] Creating layer conv8_2_relu
I0609 09:10:01.689618 25759 net.cpp:100] Creating Layer conv8_2_relu
I0609 09:10:01.689626 25759 net.cpp:435] conv8_2_relu <- conv8_2
I0609 09:10:01.689640 25759 net.cpp:396] conv8_2_relu -> conv8_2 (in-place)
I0609 09:10:01.689652 25759 layer.hpp:71] 
I0609 09:10:01.689946 25759 net.cpp:151] Setting up conv8_2_relu
I0609 09:10:01.689970 25759 net.cpp:158] Top shape: 4 256 3 3 (9216)
I0609 09:10:01.689975 25759 net.cpp:166] Memory required for data: 940916768
I0609 09:10:01.689981 25759 layer_factory.hpp:77] Creating layer conv8_2_conv8_2_relu_0_split
I0609 09:10:01.689992 25759 net.cpp:100] Creating Layer conv8_2_conv8_2_relu_0_split
I0609 09:10:01.690001 25759 net.cpp:435] conv8_2_conv8_2_relu_0_split <- conv8_2
I0609 09:10:01.690014 25759 net.cpp:409] conv8_2_conv8_2_relu_0_split -> conv8_2_conv8_2_relu_0_split_0
I0609 09:10:01.690027 25759 net.cpp:409] conv8_2_conv8_2_relu_0_split -> conv8_2_conv8_2_relu_0_split_1
I0609 09:10:01.690044 25759 net.cpp:409] conv8_2_conv8_2_relu_0_split -> conv8_2_conv8_2_relu_0_split_2
I0609 09:10:01.690057 25759 net.cpp:409] conv8_2_conv8_2_relu_0_split -> conv8_2_conv8_2_relu_0_split_3
I0609 09:10:01.690065 25759 layer.hpp:71] 
I0609 09:10:01.690219 25759 net.cpp:151] Setting up conv8_2_conv8_2_relu_0_split
I0609 09:10:01.690238 25759 net.cpp:158] Top shape: 4 256 3 3 (9216)
I0609 09:10:01.690246 25759 net.cpp:158] Top shape: 4 256 3 3 (9216)
I0609 09:10:01.690254 25759 net.cpp:158] Top shape: 4 256 3 3 (9216)
I0609 09:10:01.690260 25759 net.cpp:158] Top shape: 4 256 3 3 (9216)
I0609 09:10:01.690265 25759 net.cpp:166] Memory required for data: 941064224
I0609 09:10:01.690273 25759 layer_factory.hpp:77] Creating layer conv9_1
I0609 09:10:01.690294 25759 net.cpp:100] Creating Layer conv9_1
I0609 09:10:01.690302 25759 net.cpp:435] conv9_1 <- conv8_2_conv8_2_relu_0_split_0
I0609 09:10:01.690317 25759 net.cpp:409] conv9_1 -> conv9_1
I0609 09:10:01.690331 25759 layer.hpp:71] 
I0609 09:10:01.692672 25759 net.cpp:151] Setting up conv9_1
I0609 09:10:01.692713 25759 net.cpp:158] Top shape: 4 128 3 3 (4608)
I0609 09:10:01.692719 25759 net.cpp:166] Memory required for data: 941082656
I0609 09:10:01.692733 25759 layer_factory.hpp:77] Creating layer conv9_1_relu
I0609 09:10:01.692744 25759 net.cpp:100] Creating Layer conv9_1_relu
I0609 09:10:01.692751 25759 net.cpp:435] conv9_1_relu <- conv9_1
I0609 09:10:01.692760 25759 net.cpp:396] conv9_1_relu -> conv9_1 (in-place)
I0609 09:10:01.692772 25759 layer.hpp:71] 
I0609 09:10:01.693487 25759 net.cpp:151] Setting up conv9_1_relu
I0609 09:10:01.693511 25759 net.cpp:158] Top shape: 4 128 3 3 (4608)
I0609 09:10:01.693517 25759 net.cpp:166] Memory required for data: 941101088
I0609 09:10:01.693524 25759 layer_factory.hpp:77] Creating layer conv9_2
I0609 09:10:01.693543 25759 net.cpp:100] Creating Layer conv9_2
I0609 09:10:01.693550 25759 net.cpp:435] conv9_2 <- conv9_1
I0609 09:10:01.693564 25759 net.cpp:409] conv9_2 -> conv9_2
I0609 09:10:01.693581 25759 layer.hpp:71] 
I0609 09:10:01.698061 25759 net.cpp:151] Setting up conv9_2
I0609 09:10:01.698101 25759 net.cpp:158] Top shape: 4 256 1 1 (1024)
I0609 09:10:01.698107 25759 net.cpp:166] Memory required for data: 941105184
I0609 09:10:01.698119 25759 layer_factory.hpp:77] Creating layer conv9_2_relu
I0609 09:10:01.698132 25759 net.cpp:100] Creating Layer conv9_2_relu
I0609 09:10:01.698138 25759 net.cpp:435] conv9_2_relu <- conv9_2
I0609 09:10:01.698150 25759 net.cpp:396] conv9_2_relu -> conv9_2 (in-place)
I0609 09:10:01.698163 25759 layer.hpp:71] 
I0609 09:10:01.698902 25759 net.cpp:151] Setting up conv9_2_relu
I0609 09:10:01.698927 25759 net.cpp:158] Top shape: 4 256 1 1 (1024)
I0609 09:10:01.698933 25759 net.cpp:166] Memory required for data: 941109280
I0609 09:10:01.698940 25759 layer_factory.hpp:77] Creating layer conv9_2_conv9_2_relu_0_split
I0609 09:10:01.698978 25759 net.cpp:100] Creating Layer conv9_2_conv9_2_relu_0_split
I0609 09:10:01.698988 25759 net.cpp:435] conv9_2_conv9_2_relu_0_split <- conv9_2
I0609 09:10:01.699002 25759 net.cpp:409] conv9_2_conv9_2_relu_0_split -> conv9_2_conv9_2_relu_0_split_0
I0609 09:10:01.699018 25759 net.cpp:409] conv9_2_conv9_2_relu_0_split -> conv9_2_conv9_2_relu_0_split_1
I0609 09:10:01.699029 25759 net.cpp:409] conv9_2_conv9_2_relu_0_split -> conv9_2_conv9_2_relu_0_split_2
I0609 09:10:01.699038 25759 layer.hpp:71] 
I0609 09:10:01.699167 25759 net.cpp:151] Setting up conv9_2_conv9_2_relu_0_split
I0609 09:10:01.699187 25759 net.cpp:158] Top shape: 4 256 1 1 (1024)
I0609 09:10:01.699195 25759 net.cpp:158] Top shape: 4 256 1 1 (1024)
I0609 09:10:01.699201 25759 net.cpp:158] Top shape: 4 256 1 1 (1024)
I0609 09:10:01.699206 25759 net.cpp:166] Memory required for data: 941121568
I0609 09:10:01.699213 25759 layer_factory.hpp:77] Creating layer conv4_3_norm
I0609 09:10:01.699229 25759 net.cpp:100] Creating Layer conv4_3_norm
I0609 09:10:01.699236 25759 net.cpp:435] conv4_3_norm <- conv4_3_relu4_3_0_split_1
I0609 09:10:01.699249 25759 net.cpp:409] conv4_3_norm -> conv4_3_norm
I0609 09:10:01.699262 25759 layer.hpp:71] 
I0609 09:10:01.699565 25759 net.cpp:151] Setting up conv4_3_norm
I0609 09:10:01.699584 25759 net.cpp:158] Top shape: 4 512 38 38 (2957312)
I0609 09:10:01.699590 25759 net.cpp:166] Memory required for data: 952950816
I0609 09:10:01.699600 25759 layer_factory.hpp:77] Creating layer conv4_3_norm_conv4_3_norm_0_split
I0609 09:10:01.699612 25759 net.cpp:100] Creating Layer conv4_3_norm_conv4_3_norm_0_split
I0609 09:10:01.699618 25759 net.cpp:435] conv4_3_norm_conv4_3_norm_0_split <- conv4_3_norm
I0609 09:10:01.699628 25759 net.cpp:409] conv4_3_norm_conv4_3_norm_0_split -> conv4_3_norm_conv4_3_norm_0_split_0
I0609 09:10:01.699641 25759 net.cpp:409] conv4_3_norm_conv4_3_norm_0_split -> conv4_3_norm_conv4_3_norm_0_split_1
I0609 09:10:01.699651 25759 net.cpp:409] conv4_3_norm_conv4_3_norm_0_split -> conv4_3_norm_conv4_3_norm_0_split_2
I0609 09:10:01.699664 25759 layer.hpp:71] 
I0609 09:10:01.699792 25759 net.cpp:151] Setting up conv4_3_norm_conv4_3_norm_0_split
I0609 09:10:01.699810 25759 net.cpp:158] Top shape: 4 512 38 38 (2957312)
I0609 09:10:01.699818 25759 net.cpp:158] Top shape: 4 512 38 38 (2957312)
I0609 09:10:01.699825 25759 net.cpp:158] Top shape: 4 512 38 38 (2957312)
I0609 09:10:01.699829 25759 net.cpp:166] Memory required for data: 988438560
I0609 09:10:01.699836 25759 layer_factory.hpp:77] Creating layer conv4_3_norm_mbox_loc
I0609 09:10:01.699856 25759 net.cpp:100] Creating Layer conv4_3_norm_mbox_loc
I0609 09:10:01.699863 25759 net.cpp:435] conv4_3_norm_mbox_loc <- conv4_3_norm_conv4_3_norm_0_split_0
I0609 09:10:01.699877 25759 net.cpp:409] conv4_3_norm_mbox_loc -> conv4_3_norm_mbox_loc
I0609 09:10:01.699892 25759 layer.hpp:71] 
I0609 09:10:01.702431 25759 net.cpp:151] Setting up conv4_3_norm_mbox_loc
I0609 09:10:01.702462 25759 net.cpp:158] Top shape: 4 16 38 38 (92416)
I0609 09:10:01.702469 25759 net.cpp:166] Memory required for data: 988808224
I0609 09:10:01.702481 25759 layer_factory.hpp:77] Creating layer conv4_3_norm_mbox_loc_perm
I0609 09:10:01.702494 25759 net.cpp:100] Creating Layer conv4_3_norm_mbox_loc_perm
I0609 09:10:01.702502 25759 net.cpp:435] conv4_3_norm_mbox_loc_perm <- conv4_3_norm_mbox_loc
I0609 09:10:01.702514 25759 net.cpp:409] conv4_3_norm_mbox_loc_perm -> conv4_3_norm_mbox_loc_perm
I0609 09:10:01.702529 25759 layer.hpp:71] 
I0609 09:10:01.702772 25759 net.cpp:151] Setting up conv4_3_norm_mbox_loc_perm
I0609 09:10:01.702792 25759 net.cpp:158] Top shape: 4 38 38 16 (92416)
I0609 09:10:01.702798 25759 net.cpp:166] Memory required for data: 989177888
I0609 09:10:01.702805 25759 layer_factory.hpp:77] Creating layer conv4_3_norm_mbox_loc_flat
I0609 09:10:01.702817 25759 net.cpp:100] Creating Layer conv4_3_norm_mbox_loc_flat
I0609 09:10:01.702824 25759 net.cpp:435] conv4_3_norm_mbox_loc_flat <- conv4_3_norm_mbox_loc_perm
I0609 09:10:01.702853 25759 net.cpp:409] conv4_3_norm_mbox_loc_flat -> conv4_3_norm_mbox_loc_flat
I0609 09:10:01.702891 25759 layer.hpp:71] 
I0609 09:10:01.702950 25759 net.cpp:151] Setting up conv4_3_norm_mbox_loc_flat
I0609 09:10:01.702970 25759 net.cpp:158] Top shape: 4 23104 (92416)
I0609 09:10:01.702975 25759 net.cpp:166] Memory required for data: 989547552
I0609 09:10:01.702981 25759 layer_factory.hpp:77] Creating layer conv4_3_norm_mbox_conf
I0609 09:10:01.703011 25759 net.cpp:100] Creating Layer conv4_3_norm_mbox_conf
I0609 09:10:01.703019 25759 net.cpp:435] conv4_3_norm_mbox_conf <- conv4_3_norm_conv4_3_norm_0_split_1
I0609 09:10:01.703032 25759 net.cpp:409] conv4_3_norm_mbox_conf -> conv4_3_norm_mbox_conf
I0609 09:10:01.703047 25759 layer.hpp:71] 
I0609 09:10:01.705905 25759 net.cpp:151] Setting up conv4_3_norm_mbox_conf
I0609 09:10:01.705936 25759 net.cpp:158] Top shape: 4 8 38 38 (46208)
I0609 09:10:01.705943 25759 net.cpp:166] Memory required for data: 989732384
I0609 09:10:01.705956 25759 layer_factory.hpp:77] Creating layer conv4_3_norm_mbox_conf_perm
I0609 09:10:01.705968 25759 net.cpp:100] Creating Layer conv4_3_norm_mbox_conf_perm
I0609 09:10:01.705976 25759 net.cpp:435] conv4_3_norm_mbox_conf_perm <- conv4_3_norm_mbox_conf
I0609 09:10:01.705989 25759 net.cpp:409] conv4_3_norm_mbox_conf_perm -> conv4_3_norm_mbox_conf_perm
I0609 09:10:01.706004 25759 layer.hpp:71] 
I0609 09:10:01.706246 25759 net.cpp:151] Setting up conv4_3_norm_mbox_conf_perm
I0609 09:10:01.706267 25759 net.cpp:158] Top shape: 4 38 38 8 (46208)
I0609 09:10:01.706274 25759 net.cpp:166] Memory required for data: 989917216
I0609 09:10:01.706279 25759 layer_factory.hpp:77] Creating layer conv4_3_norm_mbox_conf_flat
I0609 09:10:01.706293 25759 net.cpp:100] Creating Layer conv4_3_norm_mbox_conf_flat
I0609 09:10:01.706300 25759 net.cpp:435] conv4_3_norm_mbox_conf_flat <- conv4_3_norm_mbox_conf_perm
I0609 09:10:01.706313 25759 net.cpp:409] conv4_3_norm_mbox_conf_flat -> conv4_3_norm_mbox_conf_flat
I0609 09:10:01.706326 25759 layer.hpp:71] 
I0609 09:10:01.706379 25759 net.cpp:151] Setting up conv4_3_norm_mbox_conf_flat
I0609 09:10:01.706398 25759 net.cpp:158] Top shape: 4 11552 (46208)
I0609 09:10:01.706403 25759 net.cpp:166] Memory required for data: 990102048
I0609 09:10:01.706409 25759 layer_factory.hpp:77] Creating layer conv4_3_norm_mbox_priorbox
I0609 09:10:01.706424 25759 net.cpp:100] Creating Layer conv4_3_norm_mbox_priorbox
I0609 09:10:01.706431 25759 net.cpp:435] conv4_3_norm_mbox_priorbox <- conv4_3_norm_conv4_3_norm_0_split_2
I0609 09:10:01.706440 25759 net.cpp:435] conv4_3_norm_mbox_priorbox <- data_data_0_split_1
I0609 09:10:01.706455 25759 net.cpp:409] conv4_3_norm_mbox_priorbox -> conv4_3_norm_mbox_priorbox
I0609 09:10:01.706468 25759 layer.hpp:71] 
I0609 09:10:01.706532 25759 net.cpp:151] Setting up conv4_3_norm_mbox_priorbox
I0609 09:10:01.706547 25759 net.cpp:158] Top shape: 1 2 23104 (46208)
I0609 09:10:01.706554 25759 net.cpp:166] Memory required for data: 990286880
I0609 09:10:01.706559 25759 layer_factory.hpp:77] Creating layer fc7_mbox_loc
I0609 09:10:01.706579 25759 net.cpp:100] Creating Layer fc7_mbox_loc
I0609 09:10:01.706589 25759 net.cpp:435] fc7_mbox_loc <- fc7_relu7_0_split_1
I0609 09:10:01.706603 25759 net.cpp:409] fc7_mbox_loc -> fc7_mbox_loc
I0609 09:10:01.706615 25759 layer.hpp:71] 
I0609 09:10:01.710589 25759 net.cpp:151] Setting up fc7_mbox_loc
I0609 09:10:01.710623 25759 net.cpp:158] Top shape: 4 24 19 19 (34656)
I0609 09:10:01.710630 25759 net.cpp:166] Memory required for data: 990425504
I0609 09:10:01.710641 25759 layer_factory.hpp:77] Creating layer fc7_mbox_loc_perm
I0609 09:10:01.710659 25759 net.cpp:100] Creating Layer fc7_mbox_loc_perm
I0609 09:10:01.710666 25759 net.cpp:435] fc7_mbox_loc_perm <- fc7_mbox_loc
I0609 09:10:01.710677 25759 net.cpp:409] fc7_mbox_loc_perm -> fc7_mbox_loc_perm
I0609 09:10:01.710690 25759 layer.hpp:71] 
I0609 09:10:01.710901 25759 net.cpp:151] Setting up fc7_mbox_loc_perm
I0609 09:10:01.710921 25759 net.cpp:158] Top shape: 4 19 19 24 (34656)
I0609 09:10:01.710927 25759 net.cpp:166] Memory required for data: 990564128
I0609 09:10:01.710957 25759 layer_factory.hpp:77] Creating layer fc7_mbox_loc_flat
I0609 09:10:01.710968 25759 net.cpp:100] Creating Layer fc7_mbox_loc_flat
I0609 09:10:01.710975 25759 net.cpp:435] fc7_mbox_loc_flat <- fc7_mbox_loc_perm
I0609 09:10:01.710990 25759 net.cpp:409] fc7_mbox_loc_flat -> fc7_mbox_loc_flat
I0609 09:10:01.711002 25759 layer.hpp:71] 
I0609 09:10:01.711061 25759 net.cpp:151] Setting up fc7_mbox_loc_flat
I0609 09:10:01.711079 25759 net.cpp:158] Top shape: 4 8664 (34656)
I0609 09:10:01.711086 25759 net.cpp:166] Memory required for data: 990702752
I0609 09:10:01.711091 25759 layer_factory.hpp:77] Creating layer fc7_mbox_conf
I0609 09:10:01.711109 25759 net.cpp:100] Creating Layer fc7_mbox_conf
I0609 09:10:01.711117 25759 net.cpp:435] fc7_mbox_conf <- fc7_relu7_0_split_2
I0609 09:10:01.711133 25759 net.cpp:409] fc7_mbox_conf -> fc7_mbox_conf
I0609 09:10:01.711171 25759 layer.hpp:71] 
I0609 09:10:01.714560 25759 net.cpp:151] Setting up fc7_mbox_conf
I0609 09:10:01.714601 25759 net.cpp:158] Top shape: 4 12 19 19 (17328)
I0609 09:10:01.714609 25759 net.cpp:166] Memory required for data: 990772064
I0609 09:10:01.714622 25759 layer_factory.hpp:77] Creating layer fc7_mbox_conf_perm
I0609 09:10:01.714643 25759 net.cpp:100] Creating Layer fc7_mbox_conf_perm
I0609 09:10:01.714651 25759 net.cpp:435] fc7_mbox_conf_perm <- fc7_mbox_conf
I0609 09:10:01.714663 25759 net.cpp:409] fc7_mbox_conf_perm -> fc7_mbox_conf_perm
I0609 09:10:01.714678 25759 layer.hpp:71] 
I0609 09:10:01.714897 25759 net.cpp:151] Setting up fc7_mbox_conf_perm
I0609 09:10:01.714917 25759 net.cpp:158] Top shape: 4 19 19 12 (17328)
I0609 09:10:01.714925 25759 net.cpp:166] Memory required for data: 990841376
I0609 09:10:01.714929 25759 layer_factory.hpp:77] Creating layer fc7_mbox_conf_flat
I0609 09:10:01.714941 25759 net.cpp:100] Creating Layer fc7_mbox_conf_flat
I0609 09:10:01.714946 25759 net.cpp:435] fc7_mbox_conf_flat <- fc7_mbox_conf_perm
I0609 09:10:01.714960 25759 net.cpp:409] fc7_mbox_conf_flat -> fc7_mbox_conf_flat
I0609 09:10:01.714973 25759 layer.hpp:71] 
I0609 09:10:01.715031 25759 net.cpp:151] Setting up fc7_mbox_conf_flat
I0609 09:10:01.715049 25759 net.cpp:158] Top shape: 4 4332 (17328)
I0609 09:10:01.715054 25759 net.cpp:166] Memory required for data: 990910688
I0609 09:10:01.715060 25759 layer_factory.hpp:77] Creating layer fc7_mbox_priorbox
I0609 09:10:01.715072 25759 net.cpp:100] Creating Layer fc7_mbox_priorbox
I0609 09:10:01.715078 25759 net.cpp:435] fc7_mbox_priorbox <- fc7_relu7_0_split_3
I0609 09:10:01.715090 25759 net.cpp:435] fc7_mbox_priorbox <- data_data_0_split_2
I0609 09:10:01.715101 25759 net.cpp:409] fc7_mbox_priorbox -> fc7_mbox_priorbox
I0609 09:10:01.715116 25759 layer.hpp:71] 
I0609 09:10:01.715224 25759 net.cpp:151] Setting up fc7_mbox_priorbox
I0609 09:10:01.715242 25759 net.cpp:158] Top shape: 1 2 8664 (17328)
I0609 09:10:01.715248 25759 net.cpp:166] Memory required for data: 990980000
I0609 09:10:01.715255 25759 layer_factory.hpp:77] Creating layer conv6_2_mbox_loc
I0609 09:10:01.715275 25759 net.cpp:100] Creating Layer conv6_2_mbox_loc
I0609 09:10:01.715303 25759 net.cpp:435] conv6_2_mbox_loc <- conv6_2_conv6_2_relu_0_split_1
I0609 09:10:01.715339 25759 net.cpp:409] conv6_2_mbox_loc -> conv6_2_mbox_loc
I0609 09:10:01.715374 25759 layer.hpp:71] 
I0609 09:10:01.718791 25759 net.cpp:151] Setting up conv6_2_mbox_loc
I0609 09:10:01.718835 25759 net.cpp:158] Top shape: 4 24 10 10 (9600)
I0609 09:10:01.718842 25759 net.cpp:166] Memory required for data: 991018400
I0609 09:10:01.718858 25759 layer_factory.hpp:77] Creating layer conv6_2_mbox_loc_perm
I0609 09:10:01.718876 25759 net.cpp:100] Creating Layer conv6_2_mbox_loc_perm
I0609 09:10:01.718886 25759 net.cpp:435] conv6_2_mbox_loc_perm <- conv6_2_mbox_loc
I0609 09:10:01.718897 25759 net.cpp:409] conv6_2_mbox_loc_perm -> conv6_2_mbox_loc_perm
I0609 09:10:01.718912 25759 layer.hpp:71] 
I0609 09:10:01.719143 25759 net.cpp:151] Setting up conv6_2_mbox_loc_perm
I0609 09:10:01.719163 25759 net.cpp:158] Top shape: 4 10 10 24 (9600)
I0609 09:10:01.719220 25759 net.cpp:166] Memory required for data: 991056800
I0609 09:10:01.719247 25759 layer_factory.hpp:77] Creating layer conv6_2_mbox_loc_flat
I0609 09:10:01.719279 25759 net.cpp:100] Creating Layer conv6_2_mbox_loc_flat
I0609 09:10:01.719312 25759 net.cpp:435] conv6_2_mbox_loc_flat <- conv6_2_mbox_loc_perm
I0609 09:10:01.719346 25759 net.cpp:409] conv6_2_mbox_loc_flat -> conv6_2_mbox_loc_flat
I0609 09:10:01.719382 25759 layer.hpp:71] 
I0609 09:10:01.719478 25759 net.cpp:151] Setting up conv6_2_mbox_loc_flat
I0609 09:10:01.719497 25759 net.cpp:158] Top shape: 4 2400 (9600)
I0609 09:10:01.719502 25759 net.cpp:166] Memory required for data: 991095200
I0609 09:10:01.719507 25759 layer_factory.hpp:77] Creating layer conv6_2_mbox_conf
I0609 09:10:01.719528 25759 net.cpp:100] Creating Layer conv6_2_mbox_conf
I0609 09:10:01.719538 25759 net.cpp:435] conv6_2_mbox_conf <- conv6_2_conv6_2_relu_0_split_2
I0609 09:10:01.719553 25759 net.cpp:409] conv6_2_mbox_conf -> conv6_2_mbox_conf
I0609 09:10:01.719588 25759 layer.hpp:71] 
I0609 09:10:01.723253 25759 net.cpp:151] Setting up conv6_2_mbox_conf
I0609 09:10:01.723295 25759 net.cpp:158] Top shape: 4 12 10 10 (4800)
I0609 09:10:01.723302 25759 net.cpp:166] Memory required for data: 991114400
I0609 09:10:01.723316 25759 layer_factory.hpp:77] Creating layer conv6_2_mbox_conf_perm
I0609 09:10:01.723335 25759 net.cpp:100] Creating Layer conv6_2_mbox_conf_perm
I0609 09:10:01.723345 25759 net.cpp:435] conv6_2_mbox_conf_perm <- conv6_2_mbox_conf
I0609 09:10:01.723359 25759 net.cpp:409] conv6_2_mbox_conf_perm -> conv6_2_mbox_conf_perm
I0609 09:10:01.723374 25759 layer.hpp:71] 
I0609 09:10:01.723603 25759 net.cpp:151] Setting up conv6_2_mbox_conf_perm
I0609 09:10:01.723623 25759 net.cpp:158] Top shape: 4 10 10 12 (4800)
I0609 09:10:01.723629 25759 net.cpp:166] Memory required for data: 991133600
I0609 09:10:01.723634 25759 layer_factory.hpp:77] Creating layer conv6_2_mbox_conf_flat
I0609 09:10:01.723649 25759 net.cpp:100] Creating Layer conv6_2_mbox_conf_flat
I0609 09:10:01.723656 25759 net.cpp:435] conv6_2_mbox_conf_flat <- conv6_2_mbox_conf_perm
I0609 09:10:01.723666 25759 net.cpp:409] conv6_2_mbox_conf_flat -> conv6_2_mbox_conf_flat
I0609 09:10:01.723678 25759 layer.hpp:71] 
I0609 09:10:01.723734 25759 net.cpp:151] Setting up conv6_2_mbox_conf_flat
I0609 09:10:01.723772 25759 net.cpp:158] Top shape: 4 1200 (4800)
I0609 09:10:01.723796 25759 net.cpp:166] Memory required for data: 991152800
I0609 09:10:01.723821 25759 layer_factory.hpp:77] Creating layer conv6_2_mbox_priorbox
I0609 09:10:01.723856 25759 net.cpp:100] Creating Layer conv6_2_mbox_priorbox
I0609 09:10:01.723883 25759 net.cpp:435] conv6_2_mbox_priorbox <- conv6_2_conv6_2_relu_0_split_3
I0609 09:10:01.723913 25759 net.cpp:435] conv6_2_mbox_priorbox <- data_data_0_split_3
I0609 09:10:01.723945 25759 net.cpp:409] conv6_2_mbox_priorbox -> conv6_2_mbox_priorbox
I0609 09:10:01.723978 25759 layer.hpp:71] 
I0609 09:10:01.724077 25759 net.cpp:151] Setting up conv6_2_mbox_priorbox
I0609 09:10:01.724094 25759 net.cpp:158] Top shape: 1 2 2400 (4800)
I0609 09:10:01.724099 25759 net.cpp:166] Memory required for data: 991172000
I0609 09:10:01.724105 25759 layer_factory.hpp:77] Creating layer conv7_2_mbox_loc
I0609 09:10:01.724126 25759 net.cpp:100] Creating Layer conv7_2_mbox_loc
I0609 09:10:01.724134 25759 net.cpp:435] conv7_2_mbox_loc <- conv7_2_conv7_2_relu_0_split_1
I0609 09:10:01.724148 25759 net.cpp:409] conv7_2_mbox_loc -> conv7_2_mbox_loc
I0609 09:10:01.724181 25759 layer.hpp:71] 
I0609 09:10:01.726706 25759 net.cpp:151] Setting up conv7_2_mbox_loc
I0609 09:10:01.726737 25759 net.cpp:158] Top shape: 4 24 5 5 (2400)
I0609 09:10:01.726742 25759 net.cpp:166] Memory required for data: 991181600
I0609 09:10:01.726754 25759 layer_factory.hpp:77] Creating layer conv7_2_mbox_loc_perm
I0609 09:10:01.726766 25759 net.cpp:100] Creating Layer conv7_2_mbox_loc_perm
I0609 09:10:01.726773 25759 net.cpp:435] conv7_2_mbox_loc_perm <- conv7_2_mbox_loc
I0609 09:10:01.726788 25759 net.cpp:409] conv7_2_mbox_loc_perm -> conv7_2_mbox_loc_perm
I0609 09:10:01.726850 25759 layer.hpp:71] 
I0609 09:10:01.727094 25759 net.cpp:151] Setting up conv7_2_mbox_loc_perm
I0609 09:10:01.727113 25759 net.cpp:158] Top shape: 4 5 5 24 (2400)
I0609 09:10:01.727118 25759 net.cpp:166] Memory required for data: 991191200
I0609 09:10:01.727124 25759 layer_factory.hpp:77] Creating layer conv7_2_mbox_loc_flat
I0609 09:10:01.727139 25759 net.cpp:100] Creating Layer conv7_2_mbox_loc_flat
I0609 09:10:01.727146 25759 net.cpp:435] conv7_2_mbox_loc_flat <- conv7_2_mbox_loc_perm
I0609 09:10:01.727159 25759 net.cpp:409] conv7_2_mbox_loc_flat -> conv7_2_mbox_loc_flat
I0609 09:10:01.727170 25759 layer.hpp:71] 
I0609 09:10:01.727259 25759 net.cpp:151] Setting up conv7_2_mbox_loc_flat
I0609 09:10:01.727277 25759 net.cpp:158] Top shape: 4 600 (2400)
I0609 09:10:01.727283 25759 net.cpp:166] Memory required for data: 991200800
I0609 09:10:01.727288 25759 layer_factory.hpp:77] Creating layer conv7_2_mbox_conf
I0609 09:10:01.727310 25759 net.cpp:100] Creating Layer conv7_2_mbox_conf
I0609 09:10:01.727337 25759 net.cpp:435] conv7_2_mbox_conf <- conv7_2_conv7_2_relu_0_split_2
I0609 09:10:01.727370 25759 net.cpp:409] conv7_2_mbox_conf -> conv7_2_mbox_conf
I0609 09:10:01.727403 25759 layer.hpp:71] 
I0609 09:10:01.729787 25759 net.cpp:151] Setting up conv7_2_mbox_conf
I0609 09:10:01.729817 25759 net.cpp:158] Top shape: 4 12 5 5 (1200)
I0609 09:10:01.729823 25759 net.cpp:166] Memory required for data: 991205600
I0609 09:10:01.729835 25759 layer_factory.hpp:77] Creating layer conv7_2_mbox_conf_perm
I0609 09:10:01.729852 25759 net.cpp:100] Creating Layer conv7_2_mbox_conf_perm
I0609 09:10:01.729878 25759 net.cpp:435] conv7_2_mbox_conf_perm <- conv7_2_mbox_conf
I0609 09:10:01.729913 25759 net.cpp:409] conv7_2_mbox_conf_perm -> conv7_2_mbox_conf_perm
I0609 09:10:01.729950 25759 layer.hpp:71] 
I0609 09:10:01.730177 25759 net.cpp:151] Setting up conv7_2_mbox_conf_perm
I0609 09:10:01.730196 25759 net.cpp:158] Top shape: 4 5 5 12 (1200)
I0609 09:10:01.730201 25759 net.cpp:166] Memory required for data: 991210400
I0609 09:10:01.730207 25759 layer_factory.hpp:77] Creating layer conv7_2_mbox_conf_flat
I0609 09:10:01.730222 25759 net.cpp:100] Creating Layer conv7_2_mbox_conf_flat
I0609 09:10:01.730229 25759 net.cpp:435] conv7_2_mbox_conf_flat <- conv7_2_mbox_conf_perm
I0609 09:10:01.730238 25759 net.cpp:409] conv7_2_mbox_conf_flat -> conv7_2_mbox_conf_flat
I0609 09:10:01.730250 25759 layer.hpp:71] 
I0609 09:10:01.730343 25759 net.cpp:151] Setting up conv7_2_mbox_conf_flat
I0609 09:10:01.730361 25759 net.cpp:158] Top shape: 4 300 (1200)
I0609 09:10:01.730367 25759 net.cpp:166] Memory required for data: 991215200
I0609 09:10:01.730372 25759 layer_factory.hpp:77] Creating layer conv7_2_mbox_priorbox
I0609 09:10:01.730391 25759 net.cpp:100] Creating Layer conv7_2_mbox_priorbox
I0609 09:10:01.730398 25759 net.cpp:435] conv7_2_mbox_priorbox <- conv7_2_conv7_2_relu_0_split_3
I0609 09:10:01.730407 25759 net.cpp:435] conv7_2_mbox_priorbox <- data_data_0_split_4
I0609 09:10:01.730417 25759 net.cpp:409] conv7_2_mbox_priorbox -> conv7_2_mbox_priorbox
I0609 09:10:01.730451 25759 layer.hpp:71] 
I0609 09:10:01.730548 25759 net.cpp:151] Setting up conv7_2_mbox_priorbox
I0609 09:10:01.730564 25759 net.cpp:158] Top shape: 1 2 600 (1200)
I0609 09:10:01.730569 25759 net.cpp:166] Memory required for data: 991220000
I0609 09:10:01.730576 25759 layer_factory.hpp:77] Creating layer conv8_2_mbox_loc
I0609 09:10:01.730597 25759 net.cpp:100] Creating Layer conv8_2_mbox_loc
I0609 09:10:01.730623 25759 net.cpp:435] conv8_2_mbox_loc <- conv8_2_conv8_2_relu_0_split_1
I0609 09:10:01.730659 25759 net.cpp:409] conv8_2_mbox_loc -> conv8_2_mbox_loc
I0609 09:10:01.730691 25759 layer.hpp:71] 
I0609 09:10:01.733225 25759 net.cpp:151] Setting up conv8_2_mbox_loc
I0609 09:10:01.733254 25759 net.cpp:158] Top shape: 4 16 3 3 (576)
I0609 09:10:01.733261 25759 net.cpp:166] Memory required for data: 991222304
I0609 09:10:01.733294 25759 layer_factory.hpp:77] Creating layer conv8_2_mbox_loc_perm
I0609 09:10:01.733310 25759 net.cpp:100] Creating Layer conv8_2_mbox_loc_perm
I0609 09:10:01.733368 25759 net.cpp:435] conv8_2_mbox_loc_perm <- conv8_2_mbox_loc
I0609 09:10:01.733402 25759 net.cpp:409] conv8_2_mbox_loc_perm -> conv8_2_mbox_loc_perm
I0609 09:10:01.733439 25759 layer.hpp:71] 
I0609 09:10:01.733670 25759 net.cpp:151] Setting up conv8_2_mbox_loc_perm
I0609 09:10:01.733688 25759 net.cpp:158] Top shape: 4 3 3 16 (576)
I0609 09:10:01.733693 25759 net.cpp:166] Memory required for data: 991224608
I0609 09:10:01.733700 25759 layer_factory.hpp:77] Creating layer conv8_2_mbox_loc_flat
I0609 09:10:01.733711 25759 net.cpp:100] Creating Layer conv8_2_mbox_loc_flat
I0609 09:10:01.733717 25759 net.cpp:435] conv8_2_mbox_loc_flat <- conv8_2_mbox_loc_perm
I0609 09:10:01.733729 25759 net.cpp:409] conv8_2_mbox_loc_flat -> conv8_2_mbox_loc_flat
I0609 09:10:01.733743 25759 layer.hpp:71] 
I0609 09:10:01.733803 25759 net.cpp:151] Setting up conv8_2_mbox_loc_flat
I0609 09:10:01.733819 25759 net.cpp:158] Top shape: 4 144 (576)
I0609 09:10:01.733825 25759 net.cpp:166] Memory required for data: 991226912
I0609 09:10:01.733832 25759 layer_factory.hpp:77] Creating layer conv8_2_mbox_conf
I0609 09:10:01.733850 25759 net.cpp:100] Creating Layer conv8_2_mbox_conf
I0609 09:10:01.733891 25759 net.cpp:435] conv8_2_mbox_conf <- conv8_2_conv8_2_relu_0_split_2
I0609 09:10:01.733928 25759 net.cpp:409] conv8_2_mbox_conf -> conv8_2_mbox_conf
I0609 09:10:01.733948 25759 layer.hpp:71] 
I0609 09:10:01.736274 25759 net.cpp:151] Setting up conv8_2_mbox_conf
I0609 09:10:01.736301 25759 net.cpp:158] Top shape: 4 8 3 3 (288)
I0609 09:10:01.736307 25759 net.cpp:166] Memory required for data: 991228064
I0609 09:10:01.736320 25759 layer_factory.hpp:77] Creating layer conv8_2_mbox_conf_perm
I0609 09:10:01.736335 25759 net.cpp:100] Creating Layer conv8_2_mbox_conf_perm
I0609 09:10:01.736341 25759 net.cpp:435] conv8_2_mbox_conf_perm <- conv8_2_mbox_conf
I0609 09:10:01.736356 25759 net.cpp:409] conv8_2_mbox_conf_perm -> conv8_2_mbox_conf_perm
I0609 09:10:01.736371 25759 layer.hpp:71] 
I0609 09:10:01.736582 25759 net.cpp:151] Setting up conv8_2_mbox_conf_perm
I0609 09:10:01.736601 25759 net.cpp:158] Top shape: 4 3 3 8 (288)
I0609 09:10:01.736608 25759 net.cpp:166] Memory required for data: 991229216
I0609 09:10:01.736613 25759 layer_factory.hpp:77] Creating layer conv8_2_mbox_conf_flat
I0609 09:10:01.736626 25759 net.cpp:100] Creating Layer conv8_2_mbox_conf_flat
I0609 09:10:01.736634 25759 net.cpp:435] conv8_2_mbox_conf_flat <- conv8_2_mbox_conf_perm
I0609 09:10:01.736644 25759 net.cpp:409] conv8_2_mbox_conf_flat -> conv8_2_mbox_conf_flat
I0609 09:10:01.736656 25759 layer.hpp:71] 
I0609 09:10:01.736714 25759 net.cpp:151] Setting up conv8_2_mbox_conf_flat
I0609 09:10:01.736732 25759 net.cpp:158] Top shape: 4 72 (288)
I0609 09:10:01.736737 25759 net.cpp:166] Memory required for data: 991230368
I0609 09:10:01.736742 25759 layer_factory.hpp:77] Creating layer conv8_2_mbox_priorbox
I0609 09:10:01.736757 25759 net.cpp:100] Creating Layer conv8_2_mbox_priorbox
I0609 09:10:01.736764 25759 net.cpp:435] conv8_2_mbox_priorbox <- conv8_2_conv8_2_relu_0_split_3
I0609 09:10:01.736773 25759 net.cpp:435] conv8_2_mbox_priorbox <- data_data_0_split_5
I0609 09:10:01.736784 25759 net.cpp:409] conv8_2_mbox_priorbox -> conv8_2_mbox_priorbox
I0609 09:10:01.736796 25759 layer.hpp:71] 
I0609 09:10:01.736860 25759 net.cpp:151] Setting up conv8_2_mbox_priorbox
I0609 09:10:01.736877 25759 net.cpp:158] Top shape: 1 2 144 (288)
I0609 09:10:01.736884 25759 net.cpp:166] Memory required for data: 991231520
I0609 09:10:01.736889 25759 layer_factory.hpp:77] Creating layer conv9_2_mbox_loc
I0609 09:10:01.736907 25759 net.cpp:100] Creating Layer conv9_2_mbox_loc
I0609 09:10:01.736915 25759 net.cpp:435] conv9_2_mbox_loc <- conv9_2_conv9_2_relu_0_split_0
I0609 09:10:01.736932 25759 net.cpp:409] conv9_2_mbox_loc -> conv9_2_mbox_loc
I0609 09:10:01.736969 25759 layer.hpp:71] 
I0609 09:10:01.739388 25759 net.cpp:151] Setting up conv9_2_mbox_loc
I0609 09:10:01.739413 25759 net.cpp:158] Top shape: 4 16 1 1 (64)
I0609 09:10:01.739420 25759 net.cpp:166] Memory required for data: 991231776
I0609 09:10:01.739454 25759 layer_factory.hpp:77] Creating layer conv9_2_mbox_loc_perm
I0609 09:10:01.739467 25759 net.cpp:100] Creating Layer conv9_2_mbox_loc_perm
I0609 09:10:01.739495 25759 net.cpp:435] conv9_2_mbox_loc_perm <- conv9_2_mbox_loc
I0609 09:10:01.739531 25759 net.cpp:409] conv9_2_mbox_loc_perm -> conv9_2_mbox_loc_perm
I0609 09:10:01.739567 25759 layer.hpp:71] 
I0609 09:10:01.739792 25759 net.cpp:151] Setting up conv9_2_mbox_loc_perm
I0609 09:10:01.739811 25759 net.cpp:158] Top shape: 4 1 1 16 (64)
I0609 09:10:01.739817 25759 net.cpp:166] Memory required for data: 991232032
I0609 09:10:01.739823 25759 layer_factory.hpp:77] Creating layer conv9_2_mbox_loc_flat
I0609 09:10:01.739841 25759 net.cpp:100] Creating Layer conv9_2_mbox_loc_flat
I0609 09:10:01.739850 25759 net.cpp:435] conv9_2_mbox_loc_flat <- conv9_2_mbox_loc_perm
I0609 09:10:01.739862 25759 net.cpp:409] conv9_2_mbox_loc_flat -> conv9_2_mbox_loc_flat
I0609 09:10:01.739876 25759 layer.hpp:71] 
I0609 09:10:01.739964 25759 net.cpp:151] Setting up conv9_2_mbox_loc_flat
I0609 09:10:01.739980 25759 net.cpp:158] Top shape: 4 16 (64)
I0609 09:10:01.739986 25759 net.cpp:166] Memory required for data: 991232288
I0609 09:10:01.739991 25759 layer_factory.hpp:77] Creating layer conv9_2_mbox_conf
I0609 09:10:01.740012 25759 net.cpp:100] Creating Layer conv9_2_mbox_conf
I0609 09:10:01.740020 25759 net.cpp:435] conv9_2_mbox_conf <- conv9_2_conv9_2_relu_0_split_1
I0609 09:10:01.740036 25759 net.cpp:409] conv9_2_mbox_conf -> conv9_2_mbox_conf
I0609 09:10:01.740069 25759 layer.hpp:71] 
I0609 09:10:01.742352 25759 net.cpp:151] Setting up conv9_2_mbox_conf
I0609 09:10:01.742377 25759 net.cpp:158] Top shape: 4 8 1 1 (32)
I0609 09:10:01.742384 25759 net.cpp:166] Memory required for data: 991232416
I0609 09:10:01.742395 25759 layer_factory.hpp:77] Creating layer conv9_2_mbox_conf_perm
I0609 09:10:01.742410 25759 net.cpp:100] Creating Layer conv9_2_mbox_conf_perm
I0609 09:10:01.742418 25759 net.cpp:435] conv9_2_mbox_conf_perm <- conv9_2_mbox_conf
I0609 09:10:01.742429 25759 net.cpp:409] conv9_2_mbox_conf_perm -> conv9_2_mbox_conf_perm
I0609 09:10:01.742441 25759 layer.hpp:71] 
I0609 09:10:01.742687 25759 net.cpp:151] Setting up conv9_2_mbox_conf_perm
I0609 09:10:01.742705 25759 net.cpp:158] Top shape: 4 1 1 8 (32)
I0609 09:10:01.742712 25759 net.cpp:166] Memory required for data: 991232544
I0609 09:10:01.742717 25759 layer_factory.hpp:77] Creating layer conv9_2_mbox_conf_flat
I0609 09:10:01.742727 25759 net.cpp:100] Creating Layer conv9_2_mbox_conf_flat
I0609 09:10:01.742733 25759 net.cpp:435] conv9_2_mbox_conf_flat <- conv9_2_mbox_conf_perm
I0609 09:10:01.742748 25759 net.cpp:409] conv9_2_mbox_conf_flat -> conv9_2_mbox_conf_flat
I0609 09:10:01.742759 25759 layer.hpp:71] 
I0609 09:10:01.742818 25759 net.cpp:151] Setting up conv9_2_mbox_conf_flat
I0609 09:10:01.742835 25759 net.cpp:158] Top shape: 4 8 (32)
I0609 09:10:01.742841 25759 net.cpp:166] Memory required for data: 991232672
I0609 09:10:01.742846 25759 layer_factory.hpp:77] Creating layer conv9_2_mbox_priorbox
I0609 09:10:01.742857 25759 net.cpp:100] Creating Layer conv9_2_mbox_priorbox
I0609 09:10:01.742864 25759 net.cpp:435] conv9_2_mbox_priorbox <- conv9_2_conv9_2_relu_0_split_2
I0609 09:10:01.742877 25759 net.cpp:435] conv9_2_mbox_priorbox <- data_data_0_split_6
I0609 09:10:01.742887 25759 net.cpp:409] conv9_2_mbox_priorbox -> conv9_2_mbox_priorbox
I0609 09:10:01.742898 25759 layer.hpp:71] 
I0609 09:10:01.742993 25759 net.cpp:151] Setting up conv9_2_mbox_priorbox
I0609 09:10:01.743013 25759 net.cpp:158] Top shape: 1 2 16 (32)
I0609 09:10:01.743019 25759 net.cpp:166] Memory required for data: 991232800
I0609 09:10:01.743026 25759 layer_factory.hpp:77] Creating layer mbox_loc
I0609 09:10:01.743037 25759 net.cpp:100] Creating Layer mbox_loc
I0609 09:10:01.743046 25759 net.cpp:435] mbox_loc <- conv4_3_norm_mbox_loc_flat
I0609 09:10:01.743059 25759 net.cpp:435] mbox_loc <- fc7_mbox_loc_flat
I0609 09:10:01.743088 25759 net.cpp:435] mbox_loc <- conv6_2_mbox_loc_flat
I0609 09:10:01.743124 25759 net.cpp:435] mbox_loc <- conv7_2_mbox_loc_flat
I0609 09:10:01.743155 25759 net.cpp:435] mbox_loc <- conv8_2_mbox_loc_flat
I0609 09:10:01.743163 25759 net.cpp:435] mbox_loc <- conv9_2_mbox_loc_flat
I0609 09:10:01.743173 25759 net.cpp:409] mbox_loc -> mbox_loc
I0609 09:10:01.743187 25759 layer.hpp:71] 
I0609 09:10:01.743279 25759 net.cpp:151] Setting up mbox_loc
I0609 09:10:01.743296 25759 net.cpp:158] Top shape: 4 34928 (139712)
I0609 09:10:01.743302 25759 net.cpp:166] Memory required for data: 991791648
I0609 09:10:01.743307 25759 layer_factory.hpp:77] Creating layer mbox_conf
I0609 09:10:01.743319 25759 net.cpp:100] Creating Layer mbox_conf
I0609 09:10:01.743326 25759 net.cpp:435] mbox_conf <- conv4_3_norm_mbox_conf_flat
I0609 09:10:01.743335 25759 net.cpp:435] mbox_conf <- fc7_mbox_conf_flat
I0609 09:10:01.743342 25759 net.cpp:435] mbox_conf <- conv6_2_mbox_conf_flat
I0609 09:10:01.743350 25759 net.cpp:435] mbox_conf <- conv7_2_mbox_conf_flat
I0609 09:10:01.743356 25759 net.cpp:435] mbox_conf <- conv8_2_mbox_conf_flat
I0609 09:10:01.743363 25759 net.cpp:435] mbox_conf <- conv9_2_mbox_conf_flat
I0609 09:10:01.743376 25759 net.cpp:409] mbox_conf -> mbox_conf
I0609 09:10:01.743388 25759 layer.hpp:71] 
I0609 09:10:01.743476 25759 net.cpp:151] Setting up mbox_conf
I0609 09:10:01.743494 25759 net.cpp:158] Top shape: 4 17464 (69856)
I0609 09:10:01.743499 25759 net.cpp:166] Memory required for data: 992071072
I0609 09:10:01.743506 25759 layer_factory.hpp:77] Creating layer mbox_priorbox
I0609 09:10:01.743516 25759 net.cpp:100] Creating Layer mbox_priorbox
I0609 09:10:01.743523 25759 net.cpp:435] mbox_priorbox <- conv4_3_norm_mbox_priorbox
I0609 09:10:01.743530 25759 net.cpp:435] mbox_priorbox <- fc7_mbox_priorbox
I0609 09:10:01.743540 25759 net.cpp:435] mbox_priorbox <- conv6_2_mbox_priorbox
I0609 09:10:01.743546 25759 net.cpp:435] mbox_priorbox <- conv7_2_mbox_priorbox
I0609 09:10:01.743551 25759 net.cpp:435] mbox_priorbox <- conv8_2_mbox_priorbox
I0609 09:10:01.743557 25759 net.cpp:435] mbox_priorbox <- conv9_2_mbox_priorbox
I0609 09:10:01.743571 25759 net.cpp:409] mbox_priorbox -> mbox_priorbox
I0609 09:10:01.743582 25759 layer.hpp:71] 
I0609 09:10:01.743669 25759 net.cpp:151] Setting up mbox_priorbox
I0609 09:10:01.743690 25759 net.cpp:158] Top shape: 1 2 34928 (69856)
I0609 09:10:01.743696 25759 net.cpp:166] Memory required for data: 992350496
I0609 09:10:01.743701 25759 layer_factory.hpp:77] Creating layer mbox_conf_reshape
I0609 09:10:01.743717 25759 net.cpp:100] Creating Layer mbox_conf_reshape
I0609 09:10:01.743724 25759 net.cpp:435] mbox_conf_reshape <- mbox_conf
I0609 09:10:01.743736 25759 net.cpp:409] mbox_conf_reshape -> mbox_conf_reshape
I0609 09:10:01.743774 25759 layer.hpp:71] 
I0609 09:10:01.743854 25759 net.cpp:151] Setting up mbox_conf_reshape
I0609 09:10:01.743871 25759 net.cpp:158] Top shape: 4 8732 2 (69856)
I0609 09:10:01.743878 25759 net.cpp:166] Memory required for data: 992629920
I0609 09:10:01.743885 25759 layer_factory.hpp:77] Creating layer mbox_conf_softmax
I0609 09:10:01.743896 25759 net.cpp:100] Creating Layer mbox_conf_softmax
I0609 09:10:01.743906 25759 net.cpp:435] mbox_conf_softmax <- mbox_conf_reshape
I0609 09:10:01.743921 25759 net.cpp:409] mbox_conf_softmax -> mbox_conf_softmax
I0609 09:10:01.743952 25759 layer.hpp:71] 
I0609 09:10:01.744855 25759 net.cpp:151] Setting up mbox_conf_softmax
I0609 09:10:01.744879 25759 net.cpp:158] Top shape: 4 8732 2 (69856)
I0609 09:10:01.744885 25759 net.cpp:166] Memory required for data: 992909344
I0609 09:10:01.744891 25759 layer_factory.hpp:77] Creating layer mbox_conf_flatten
I0609 09:10:01.744906 25759 net.cpp:100] Creating Layer mbox_conf_flatten
I0609 09:10:01.744913 25759 net.cpp:435] mbox_conf_flatten <- mbox_conf_softmax
I0609 09:10:01.744925 25759 net.cpp:409] mbox_conf_flatten -> mbox_conf_flatten
I0609 09:10:01.744935 25759 layer.hpp:71] 
I0609 09:10:01.745005 25759 net.cpp:151] Setting up mbox_conf_flatten
I0609 09:10:01.745024 25759 net.cpp:158] Top shape: 4 17464 (69856)
I0609 09:10:01.745031 25759 net.cpp:166] Memory required for data: 993188768
I0609 09:10:01.745075 25759 layer_factory.hpp:77] Creating layer detection_out
I0609 09:10:01.745128 25759 net.cpp:100] Creating Layer detection_out
I0609 09:10:01.745157 25759 net.cpp:435] detection_out <- mbox_loc
I0609 09:10:01.745187 25759 net.cpp:435] detection_out <- mbox_conf_flatten
I0609 09:10:01.745213 25759 net.cpp:435] detection_out <- mbox_priorbox
I0609 09:10:01.745247 25759 net.cpp:409] detection_out -> detection_out
I0609 09:10:01.745285 25759 layer.hpp:71] 
I0609 09:10:01.745836 25759 net.cpp:151] Setting up detection_out
I0609 09:10:01.745880 25759 net.cpp:158] Top shape: 1 1 1 7 (7)
I0609 09:10:01.745890 25759 net.cpp:166] Memory required for data: 993188796
I0609 09:10:01.745896 25759 layer_factory.hpp:77] Creating layer detection_eval
I0609 09:10:01.745911 25759 net.cpp:100] Creating Layer detection_eval
I0609 09:10:01.745918 25759 net.cpp:435] detection_eval <- detection_out
I0609 09:10:01.745926 25759 net.cpp:435] detection_eval <- label
I0609 09:10:01.745936 25759 net.cpp:409] detection_eval -> detection_eval
I0609 09:10:01.745952 25759 layer.hpp:71] 
I0609 09:10:01.746142 25759 net.cpp:151] Setting up detection_eval
I0609 09:10:01.746160 25759 net.cpp:158] Top shape: 1 1 2 5 (10)
I0609 09:10:01.746165 25759 net.cpp:166] Memory required for data: 993188836
I0609 09:10:01.746171 25759 net.cpp:229] detection_eval does not need backward computation.
I0609 09:10:01.746178 25759 net.cpp:229] detection_out does not need backward computation.
I0609 09:10:01.746186 25759 net.cpp:229] mbox_conf_flatten does not need backward computation.
I0609 09:10:01.746191 25759 net.cpp:229] mbox_conf_softmax does not need backward computation.
…
