…
        min_scale: 0.3
        max_scale: 1
        min_aspect_ratio: 0.5
        max_aspect_ratio: 2
      }
      sample_constraint {
        min_jaccard_overlap: 0.9
      }
      max_sample: 1
      max_trials: 50
    }
    batch_sampler {
      sampler {
        min_scale: 0.3
        max_scale: 1
        min_aspect_ratio: 0.5
        max_aspect_ratio: 2
      }
      sample_constraint {
        max_jaccard_overlap: 1
      }
      max_sample: 1
      max_trials: 50
    }
    label_map_file: "data/grayscale_tbs_v2.0/labelmap_voc.prototxt"
  }
}
layer {
  name: "conv1_1"
  type: "Convolution"
  bottom: "data"
  top: "conv1_1"
  param {
    lr_mult: 1
    decay_mult: 1
  }
  param {
    lr_mult: 2
    decay_mult: 0
  }
  convolution_param {
    num_output: 64
    pad: 1
    kernel_size: 3
    weight_filler {
      type: "xavier"
    }
    bias_filler {
      type: "constant"
      value: 0
    }
  }
}
layer {
  name: "relu1_1"
  type: "ReLU"
  bottom: "conv1_1"
  top: "conv1_1"
}
layer {
  name: "conv1_2"
  type: "Convolution"
  bottom: "conv1_1"
  top: "conv1_2"
  param {
    lr_mult: 1
    decay_mult: 1
  }
  param {
    lr_mult: 2
    decay_mult: 0
  }
  convolution_param {
    num_output: 64
    pad: 1
    kernel_size: 3
    weight_filler {
      type: "xavier"
    }
    bias_filler {
      type: "constant"
      value: 0
    }
  }
}
layer {
  name: "relu1_2"
  type: "ReLU"
  bottom: "conv1_2"
  top: "conv1_2"
}
layer {
  name: "pool1"
  type: "Pooling"
  bottom: "conv1_2"
  top: "pool1"
  pooling_param {
    pool: MAX
    kernel_size: 2
    stride: 2
  }
}
layer {
  name: "conv2_1"
  type: "Convolution"
  bottom: "pool1"
  top: "conv2_1"
  param {
    lr_mult: 1
    decay_mult: 1
  }
  param {
    lr_mult: 2
    decay_mult: 0
  }
  convolution_param {
    num_output: 128
    pad: 1
    kernel_size: 3
    weight_filler {
      type: "xavier"
    }
    bias_filler {
      type: "constant"
      value: 0
    }
  }
}
layer {
  name: "relu2_1"
  type: "ReLU"
  bottom: "conv2_1"
  top: "conv2_1"
}
layer {
  name: "conv2_2"
  type: "Convolution"
  bottom: "conv2_1"
  top: "conv2_2"
  param {
    lr_mult: 1
    decay_mult: 1
  }
  param {
    lr_mult: 2
    decay_mult: 0
  }
  convolution_param {
    num_output: 128
    pad: 1
    kernel_size: 3
    weight_filler {
      type: "xavier"
    }
    bias_filler {
      type: "constant"
      value: 0
    }
  }
}
layer {
  name: "relu2_2"
  type: "ReLU"
  bottom: "conv2_2"
  top: "conv2_2"
}
layer {
  name: "pool2"
  type: "Pooling"
  bottom: "conv2_2"
  top: "pool2"
  pooling_param {
    pool: MAX
    kernel_size: 2
    stride: 2
  }
}
layer {
  name: "conv3_1"
  type: "Convolution"
  bottom: "pool2"
  top: "conv3_1"
  param {
    lr_mult: 1
    decay_mult: 1
  }
  param {
    lr_mult: 2
    decay_mult: 0
  }
  convolution_param {
    num_output: 256
    pad: 1
    kernel_size: 3
    weight_filler {
      type: "xavier"
    }
    bias_filler {
      type: "constant"
      value: 0
    }
  }
}
layer {
  name: "relu3_1"
  type: "ReLU"
  bottom: "conv3_1"
  top: "conv3_1"
}
layer {
  name: "conv3_2"
  type: "Convolution"
  bottom: "conv3_1"
  top: "conv3_2"
  param {
    lr_mult: 1
    decay_mult: 1
  }
  param {
    lr_mult: 2
    decay_mult: 0
  }
  convolution_param {
    num_output: 256
    pad: 1
    kernel_size: 3
    weight_filler {
      type: "xavier"
    }
    bias_filler {
      type: "constant"
      value: 0
    }
  }
}
layer {
  name: "relu3_2"
  type: "ReLU"
  bottom: "conv3_2"
  top: "conv3_2"
}
layer {
  name: "conv3_3"
  type: "Convolution"
  bottom: "conv3_2"
  top: "conv3_3"
  param {
    lr_mult: 1
    decay_mult: 1
  }
  param {
    lr_mult: 2
    decay_mult: 0
  }
  convolution_param {
    num_output: 256
    pad: 1
    kernel_size: 3
    weight_filler {
      type: "xavier"
    }
    bias_filler {
      type: "constant"
      value: 0
    }
  }
}
layer {
  name: "relu3_3"
  type: "ReLU"
  bottom: "conv3_3"
  top: "conv3_3"
}
layer {
  name: "pool3"
  type: "Pooling"
  bottom: "conv3_3"
  top: "pool3"
  pooling_param {
    pool: MAX
    kernel_size: 2
    stride: 2
  }
}
layer {
  name: "conv4_1"
  type: "Convolution"
  bottom: "pool3"
  top: "conv4_1"
  param {
    lr_mult: 1
    decay_mult: 1
  }
  param {
    lr_mult: 2
    decay_mult: 0
  }
  convolution_param {
    num_output: 512
    pad: 1
    kernel_size: 3
    weight_filler {
      type: "xavier"
    }
    bias_filler {
      type: "constant"
      value: 0
    }
  }
}
layer {
  name: "relu4_1"
  type: "ReLU"
  bottom: "conv4_1"
  top: "conv4_1"
}
layer {
  name: "conv4_2"
  type: "Convolution"
  bottom: "conv4_1"
  top: "conv4_2"
  param {
    lr_mult: 1
    decay_mult: 1
  }
  param {
    lr_mult: 2
    decay_mult: 0
  }
  convolution_param {
    num_output: 512
    pad: 1
    kernel_size: 3
    weight_filler {
      type: "xavier"
    }
    bias_filler {
      type: "constant"
      value: 0
    }
  }
}
layer {
  name: "relu4_2"
  type: "ReLU"
  bottom: "conv4_2"
  top: "conv4_2"
}
layer {
  name: "conv4_3"
  type: "Convolution"
  bottom: "conv4_2"
  top: "conv4_3"
  param {
    lr_mult: 1
    decay_mult: 1
  }
  param {
    lr_mult: 2
    decay_mult: 0
  }
  convolution_param {
    num_output: 512
    pad: 1
    kernel_size: 3
    weight_filler {
      type: "xavier"
    }
    bias_filler {
      type: "constant"
      value: 0
    }
  }
}
layer {
  name: "relu4_3"
  type: "ReLU"
  bottom: "conv4_3"
  top: "conv4_3"
}
layer {
  name: "pool4"
  type: "Pooling"
  bottom: "conv4_3"
  top: "pool4"
  pooling_param {
    pool: MAX
    kernel_size: 2
    stride: 2
  }
}
layer {
  name: "conv5_1"
  type: "Convolution"
  bottom: "pool4"
  top: "conv5_1"
  param {
    lr_mult: 1
    decay_mult: 1
  }
  param {
    lr_mult: 2
    decay_mult: 0
  }
  convolution_param {
    num_output: 512
    pad: 1
    kernel_size: 3
    weight_filler {
      type: "xavier"
    }
    bias_filler {
      type: "constant"
      value: 0
    }
    dilation: 1
  }
}
layer {
  name: "relu5_1"
  type: "ReLU"
  bottom: "conv5_1"
  top: "conv5_1"
}
layer {
  name: "conv5_2"
  type: "Convolution"
  bottom: "conv5_1"
  top: "conv5_2"
  param {
    lr_mult: 1
    decay_mult: 1
  }
  param {
    lr_mult: 2
    decay_mult: 0
  }
  convolution_param {
    num_output: 512
    pad: 1
    kernel_size: 3
    weight_filler {
      type: "xavier"
    }
    bias_filler {
      type: "constant"
      value: 0
    }
    dilation: 1
  }
}
layer {
  name: "relu5_2"
  type: "ReLU"
  bottom: "conv5_2"
  top: "conv5_2"
}
layer {
  name: "conv5_3"
  type: "Convolution"
  bottom: "conv5_2"
  top: "conv5_3"
  param {
    lr_mult: 1
    decay_mult: 1
  }
  param {
    lr_mult: 2
    decay_mult: 0
  }
  convolution_param {
    num_output: 512
    pad: 1
    kernel_size: 3
    weight_filler {
      type: "xavier"
    }
    bias_filler {
      type: "constant"
      value: 0
    }
    dilation: 1
  }
}
layer {
  name: "relu5_3"
  type: "ReLU"
  bottom: "conv5_3"
  top: "conv5_3"
}
layer {
  name: "pool5"
  type: "Pooling"
  bottom: "conv5_3"
  top: "pool5"
  pooling_param {
    pool: MAX
    kernel_size: 3
    stride: 1
    pad: 1
  }
}
layer {
  name: "fc6"
  type: "Convolution"
  bottom: "pool5"
  top: "fc6"
  param {
    lr_mult: 1
    decay_mult: 1
  }
  param {
    lr_mult: 2
    decay_mult: 0
  }
  convolution_param {
    num_output: 1024
    pad: 6
    kernel_size: 3
    weight_filler {
      type: "xavier"
    }
    bias_filler {
      type: "constant"
      value: 0
    }
    dilation: 6
  }
}
layer {
  name: "relu6"
  type: "ReLU"
  bottom: "fc6"
  top: "fc6"
}
layer {
  name: "fc7"
  type: "Convolution"
  bottom: "fc6"
  top: "fc7"
  param {
    lr_mult: 1
    decay_mult: 1
  }
  param {
    lr_mult: 2
    decay_mult: 0
  }
  convolution_param {
    num_output: 1024
    kernel_size: 1
    weight_filler {
      type: "xavier"
    }
    bias_filler {
      type: "constant"
      value: 0
    }
  }
}
layer {
  name: "relu7"
  type: "ReLU"
  bottom: "fc7"
  top: "fc7"
}
layer {
  name: "conv6_1"
  type: "Convolution"
  bottom: "fc7"
  top: "conv6_1"
  param {
    lr_mult: 1
    decay_mult: 1
  }
  param {
    lr_mult: 2
    decay_mult: 0
  }
  convolution_param {
    num_output: 256
    pad: 0
    kernel_size: 1
    stride: 1
    weight_filler {
      type: "xavier"
    }
    bias_filler {
      type: "constant"
      value: 0
    }
  }
}
layer {
  name: "conv6_1_relu"
  type: "ReLU"
  bottom: "conv6_1"
  top: "conv6_1"
}
layer {
  name: "conv6_2"
  type: "Convolution"
  bottom: "conv6_1"
  top: "conv6_2"
  param {
    lr_mult: 1
    decay_mult: 1
  }
  param {
    lr_mult: 2
    decay_mult: 0
  }
  convolution_param {
    num_output: 512
    pad: 1
    kernel_size: 3
    stride: 2
    weight_filler {
      type: "xavier"
    }
    bias_filler {
      type: "constant"
      value: 0
    }
  }
}
layer {
  name: "conv6_2_relu"
  type: "ReLU"
  bottom: "conv6_2"
  top: "conv6_2"
}
layer {
  name: "conv7_1"
  type: "Convolution"
  bottom: "conv6_2"
  top: "conv7_1"
  param {
    lr_mult: 1
    decay_mult: 1
  }
  param {
    lr_mult: 2
    decay_mult: 0
  }
  convolution_param {
    num_output: 128
    pad: 0
    kernel_size: 1
    stride: 1
    weight_filler {
      type: "xavier"
    }
    bias_filler {
      type: "constant"
      value: 0
    }
  }
}
layer {
  name: "conv7_1_relu"
  type: "ReLU"
  bottom: "conv7_1"
  top: "conv7_1"
}
layer {
  name: "conv7_2"
  type: "Convolution"
  bottom: "conv7_1"
  top: "conv7_2"
  param {
    lr_mult: 1
    decay_mult: 1
  }
  param {
    lr_mult: 2
    decay_mult: 0
  }
  convolution_param {
    num_output: 256
    pad: 1
    kernel_size: 3
    stride: 2
    weight_filler {
      type: "xavier"
    }
    bias_filler {
      type: "constant"
      value: 0
    }
  }
}
layer {
  name: "conv7_2_relu"
  type: "ReLU"
  bottom: "conv7_2"
  top: "conv7_2"
}
layer {
  name: "conv8_1"
  type: "Convolution"
  bottom: "conv7_2"
  top: "conv8_1"
  param {
    lr_mult: 1
    decay_mult: 1
  }
  param {
    lr_mult: 2
    decay_mult: 0
  }
  convolution_param {
    num_output: 128
    pad: 0
    kernel_size: 1
    stride: 1
    weight_filler {
      type: "xavier"
    }
    bias_filler {
      type: "constant"
      value: 0
    }
  }
}
layer {
  name: "conv8_1_relu"
  type: "ReLU"
  bottom: "conv8_1"
  top: "conv8_1"
}
layer {
  name: "conv8_2"
  type: "Convolution"
  bottom: "conv8_1"
  top: "conv8_2"
  param {
    lr_mult: 1
    decay_mult: 1
  }
  param {
    lr_mult: 2
    decay_mult: 0
  }
  convolution_param {
    num_output: 256
    pad: 0
    kernel_size: 3
    stride: 1
    weight_filler {
      type: "xavier"
    }
    bias_filler {
      type: "constant"
      value: 0
    }
  }
}
layer {
  name: "conv8_2_relu"
  type: "ReLU"
  bottom: "conv8_2"
  top: "conv8_2"
}
layer {
  name: "conv9_1"
  type: "Convolution"
  bottom: "conv8_2"
  top: "conv9_1"
  param {
    lr_mult: 1
    decay_mult: 1
  }
  param {
    lr_mult: 2
    decay_mult: 0
  }
  convolution_param {
    num_output: 128
    pad: 0
    kernel_size: 1
    stride: 1
    weight_filler {
      type: "xavier"
    }
    bias_filler {
      type: "constant"
      value: 0
    }
  }
}
layer {
  name: "conv9_1_relu"
  type: "ReLU"
  bottom: "conv9_1"
  top: "conv9_1"
}
layer {
  name: "conv9_2"
  type: "Convolution"
  bottom: "conv9_1"
  top: "conv9_2"
  param {
    lr_mult: 1
    decay_mult: 1
  }
  param {
    lr_mult: 2
    decay_mult: 0
  }
  convolution_param {
    num_output: 256
    pad: 0
    kernel_size: 3
    stride: 1
    weight_filler {
      type: "xavier"
    }
    bias_filler {
      type: "constant"
      value: 0
    }
  }
}
layer {
  name: "conv9_2_relu"
  type: "ReLU"
  bottom: "conv9_2"
  top: "conv9_2"
}
layer {
  name: "conv4_3_norm"
  type: "Normalize"
  bottom: "conv4_3"
  top: "conv4_3_norm"
  norm_param {
    across_spatial: false
    scale_filler {
      type: "constant"
      value: 20
    }
    channel_shared: false
  }
}
layer {
  name: "conv4_3_norm_mbox_loc"
  type: "Convolution"
  bottom: "conv4_3_norm"
  top: "conv4_3_norm_mbox_loc"
  param {
    lr_mult: 1
    decay_mult: 1
  }
  param {
    lr_mult: 2
    decay_mult: 0
  }
  convolution_param {
    num_output: 16
    pad: 1
    kernel_size: 3
    stride: 1
    weight_filler {
      type: "xavier"
    }
    bias_filler {
      type: "constant"
      value: 0
    }
  }
}
layer {
  name: "conv4_3_norm_mbox_loc_perm"
  type: "Permute"
  bottom: "conv4_3_norm_mbox_loc"
  top: "conv4_3_norm_mbox_loc_perm"
  permute_param {
    order: 0
    order: 2
    order: 3
    order: 1
  }
}
layer {
  name: "conv4_3_norm_mbox_loc_flat"
  type: "Flatten"
  bottom: "conv4_3_norm_mbox_loc_perm"
  top: "conv4_3_norm_mbox_loc_flat"
  flatten_param {
    axis: 1
  }
}
layer {
  name: "conv4_3_norm_mbox_conf"
  type: "Convolution"
  bottom: "conv4_3_norm"
  top: "conv4_3_norm_mbox_conf"
  param {
    lr_mult: 1
    decay_mult: 1
  }
  param {
    lr_mult: 2
    decay_mult: 0
  }
  convolution_param {
    num_output: 8
    pad: 1
    kernel_size: 3
    stride: 1
    weight_filler {
      type: "xavier"
    }
    bias_filler {
      type: "constant"
      value: 0
    }
  }
}
layer {
  name: "conv4_3_norm_mbox_conf_perm"
  type: "Permute"
  bottom: "conv4_3_norm_mbox_conf"
  top: "conv4_3_norm_mbox_conf_perm"
  permute_param {
    order: 0
    order: 2
    order: 3
    order: 1
  }
}
layer {
  name: "conv4_3_norm_mbox_conf_flat"
  type: "Flatten"
  bottom: "conv4_3_norm_mbox_conf_perm"
  top: "conv4_3_norm_mbox_conf_flat"
  flatten_param {
    axis: 1
  }
}
layer {
  name: "conv4_3_norm_mbox_priorbox"
  type: "PriorBox"
  bottom: "conv4_3_norm"
  bottom: "data"
  top: "conv4_3_norm_mbox_priorbox"
  prior_box_param {
    min_size: 30
    max_size: 60
    aspect_ratio: 2
    flip: true
    clip: false
    variance: 0.1
    variance: 0.1
    variance: 0.2
    variance: 0.2
    step: 8
    offset: 0.5
  }
}
layer {
  name: "fc7_mbox_loc"
  type: "Convolution"
  bottom: "fc7"
  top: "fc7_mbox_loc"
  param {
    lr_mult: 1
    decay_mult: 1
  }
  param {
    lr_mult: 2
    decay_mult: 0
  }
  convolution_param {
    num_output: 24
    pad: 1
    kernel_size: 3
    stride: 1
    weight_filler {
      type: "xavier"
    }
    bias_filler {
      type: "constant"
      value: 0
    }
  }
}
layer {
  name: "fc7_mbox_loc_perm"
  type: "Permute"
  bottom: "fc7_mbox_loc"
  top: "fc7_mbox_loc_perm"
  permute_param {
    order: 0
    order: 2
    order: 3
    order: 1
  }
}
layer {
  name: "fc7_mbox_loc_flat"
  type: "Flatten"
  bottom: "fc7_mbox_loc_perm"
  top: "fc7_mbox_loc_flat"
  flatten_param {
    axis: 1
  }
}
layer {
  name: "fc7_mbox_conf"
  type: "Convolution"
  bottom: "fc7"
  top: "fc7_mbox_conf"
  param {
    lr_mult: 1
    decay_mult: 1
  }
  param {
    lr_mult: 2
    decay_mult: 0
  }
  convolution_param {
    num_output: 12
    pad: 1
    kernel_size: 3
    stride: 1
    weight_filler {
      type: "xavier"
    }
    bias_filler {
      type: "constant"
      value: 0
    }
  }
}
layer {
  name: "fc7_mbox_conf_perm"
  type: "Permute"
  bottom: "fc7_mbox_conf"
  top: "fc7_mbox_conf_perm"
  permute_param {
    order: 0
    order: 2
    order: 3
    order: 1
  }
}
layer {
  name: "fc7_mbox_conf_flat"
  type: "Flatten"
  bottom: "fc7_mbox_conf_perm"
  top: "fc7_mbox_conf_flat"
  flatten_param {
    axis: 1
  }
}
layer {
  name: "fc7_mbox_priorbox"
  type: "PriorBox"
  bottom: "fc7"
  bottom: "data"
  top: "fc7_mbox_priorbox"
  prior_box_param {
    min_size: 60
    max_size: 111
    aspect_ratio: 2
    aspect_ratio: 3
    flip: true
    clip: false
    variance: 0.1
    variance: 0.1
    variance: 0.2
    variance: 0.2
    step: 16
    offset: 0.5
  }
}
layer {
  name: "conv6_2_mbox_loc"
  type: "Convolution"
  bottom: "conv6_2"
  top: "conv6_2_mbox_loc"
  param {
    lr_mult: 1
    decay_mult: 1
  }
  param {
    lr_mult: 2
    decay_mult: 0
  }
  convolution_param {
    num_output: 24
    pad: 1
    kernel_size: 3
    stride: 1
    weight_filler {
      type: "xavier"
    }
    bias_filler {
      type: "constant"
      value: 0
    }
  }
}
layer {
  name: "conv6_2_mbox_loc_perm"
  type: "Permute"
  bottom: "conv6_2_mbox_loc"
  top: "conv6_2_mbox_loc_perm"
  permute_param {
    order: 0
    order: 2
    order: 3
    order: 1
  }
}
layer {
  name: "conv6_2_mbox_loc_flat"
  type: "Flatten"
  bottom: "conv6_2_mbox_loc_perm"
  top: "conv6_2_mbox_loc_flat"
  flatten_param {
    axis: 1
  }
}
layer {
  name: "conv6_2_mbox_conf"
  type: "Convolution"
  bottom: "conv6_2"
  top: "conv6_2_mbox_conf"
  param {
    lr_mult: 1
    decay_mult: 1
  }
  param {
    lr_mult: 2
    decay_mult: 0
  }
  convolution_param {
    num_output: 12
    pad: 1
    kernel_size: 3
    stride: 1
    weight_filler {
      type: "xavier"
    }
    bias_filler {
      type: "constant"
      value: 0
    }
  }
}
layer {
  name: "conv6_2_mbox_conf_perm"
  type: "Permute"
  bottom: "conv6_2_mbox_conf"
  top: "conv6_2_mbox_conf_perm"
  permute_param {
    order: 0
    order: 2
    order: 3
    order: 1
  }
}
layer {
  name: "conv6_2_mbox_conf_flat"
  type: "Flatten"
  bottom: "conv6_2_mbox_conf_perm"
  top: "conv6_2_mbox_conf_flat"
  flatten_param {
    axis: 1
  }
}
layer {
  name: "conv6_2_mbox_priorbox"
  type: "PriorBox"
  bottom: "conv6_2"
  bottom: "data"
  top: "conv6_2_mbox_priorbox"
  prior_box_param {
    min_size: 111
    max_size: 162
    aspect_ratio: 2
    aspect_ratio: 3
    flip: true
    clip: false
    variance: 0.1
    variance: 0.1
    variance: 0.2
    variance: 0.2
    step: 32
    offset: 0.5
  }
}
layer {
  name: "conv7_2_mbox_loc"
  type: "Convolution"
  bottom: "conv7_2"
  top: "conv7_2_mbox_loc"
  param {
    lr_mult: 1
    decay_mult: 1
  }
  param {
    lr_mult: 2
    decay_mult: 0
  }
  convolution_param {
    num_output: 24
    pad: 1
    kernel_size: 3
    stride: 1
    weight_filler {
      type: "xavier"
    }
    bias_filler {
      type: "constant"
      value: 0
    }
  }
}
layer {
  name: "conv7_2_mbox_loc_perm"
  type: "Permute"
  bottom: "conv7_2_mbox_loc"
  top: "conv7_2_mbox_loc_perm"
  permute_param {
    order: 0
    order: 2
    order: 3
    order: 1
  }
}
layer {
  name: "conv7_2_mbox_loc_flat"
  type: "Flatten"
  bottom: "conv7_2_mbox_loc_perm"
  top: "conv7_2_mbox_loc_flat"
  flatten_param {
    axis: 1
  }
}
layer {
  name: "conv7_2_mbox_conf"
  type: "Convolution"
  bottom: "conv7_2"
  top: "conv7_2_mbox_conf"
  param {
    lr_mult: 1
    decay_mult: 1
  }
  param {
    lr_mult: 2
    decay_mult: 0
  }
  convolution_param {
    num_output: 12
    pad: 1
    kernel_size: 3
    stride: 1
    weight_filler {
      type: "xavier"
    }
    bias_filler {
      type: "constant"
      value: 0
    }
  }
}
layer {
  name: "conv7_2_mbox_conf_perm"
  type: "Permute"
  bottom: "conv7_2_mbox_conf"
  top: "conv7_2_mbox_conf_perm"
  permute_param {
    order: 0
    order: 2
    order: 3
    order: 1
  }
}
layer {
  name: "conv7_2_mbox_conf_flat"
  type: "Flatten"
  bottom: "conv7_2_mbox_conf_perm"
  top: "conv7_2_mbox_conf_flat"
  flatten_param {
    axis: 1
  }
}
layer {
  name: "conv7_2_mbox_priorbox"
  type: "PriorBox"
  bottom: "conv7_2"
  bottom: "data"
  top: "conv7_2_mbox_priorbox"
  prior_box_param {
    min_size: 162
    max_size: 213
    aspect_ratio: 2
    aspect_ratio: 3
    flip: true
    clip: false
    variance: 0.1
    variance: 0.1
    variance: 0.2
    variance: 0.2
    step: 64
    offset: 0.5
  }
}
layer {
  name: "conv8_2_mbox_loc"
  type: "Convolution"
  bottom: "conv8_2"
  top: "conv8_2_mbox_loc"
  param {
    lr_mult: 1
    decay_mult: 1
  }
  param {
    lr_mult: 2
    decay_mult: 0
  }
  convolution_param {
    num_output: 16
    pad: 1
    kernel_size: 3
    stride: 1
    weight_filler {
      type: "xavier"
    }
    bias_filler {
      type: "constant"
      value: 0
    }
  }
}
layer {
  name: "conv8_2_mbox_loc_perm"
  type: "Permute"
  bottom: "conv8_2_mbox_loc"
  top: "conv8_2_mbox_loc_perm"
  permute_param {
    order: 0
    order: 2
    order: 3
    order: 1
  }
}
layer {
  name: "conv8_2_mbox_loc_flat"
  type: "Flatten"
  bottom: "conv8_2_mbox_loc_perm"
  top: "conv8_2_mbox_loc_flat"
  flatten_param {
    axis: 1
  }
}
layer {
  name: "conv8_2_mbox_conf"
  type: "Convolution"
  bottom: "conv8_2"
  top: "conv8_2_mbox_conf"
  param {
    lr_mult: 1
    decay_mult: 1
  }
  param {
    lr_mult: 2
    decay_mult: 0
  }
  convolution_param {
    num_output: 8
    pad: 1
    kernel_size: 3
    stride: 1
    weight_filler {
      type: "xavier"
    }
    bias_filler {
      type: "constant"
      value: 0
    }
  }
}
layer {
  name: "conv8_2_mbox_conf_perm"
  type: "Permute"
  bottom: "conv8_2_mbox_conf"
  top: "conv8_2_mbox_conf_perm"
  permute_param {
    order: 0
    order: 2
    order: 3
    order: 1
  }
}
layer {
  name: "conv8_2_mbox_conf_flat"
  type: "Flatten"
  bottom: "conv8_2_mbox_conf_perm"
  top: "conv8_2_mbox_conf_flat"
  flatten_param {
    axis: 1
  }
}
layer {
  name: "conv8_2_mbox_priorbox"
  type: "PriorBox"
  bottom: "conv8_2"
  bottom: "data"
  top: "conv8_2_mbox_priorbox"
  prior_box_param {
    min_size: 213
    max_size: 264
    aspect_ratio: 2
    flip: true
    clip: false
    variance: 0.1
    variance: 0.1
    variance: 0.2
    variance: 0.2
    step: 100
    offset: 0.5
  }
}
layer {
  name: "conv9_2_mbox_loc"
  type: "Convolution"
  bottom: "conv9_2"
  top: "conv9_2_mbox_loc"
  param {
    lr_mult: 1
    decay_mult: 1
  }
  param {
    lr_mult: 2
    decay_mult: 0
  }
  convolution_param {
    num_output: 16
    pad: 1
    kernel_size: 3
    stride: 1
    weight_filler {
      type: "xavier"
    }
    bias_filler {
      type: "constant"
      value: 0
    }
  }
}
layer {
  name: "conv9_2_mbox_loc_perm"
  type: "Permute"
  bottom: "conv9_2_mbox_loc"
  top: "conv9_2_mbox_loc_perm"
  permute_param {
    order: 0
    order: 2
    order: 3
    order: 1
  }
}
layer {
  name: "conv9_2_mbox_loc_flat"
  type: "Flatten"
  bottom: "conv9_2_mbox_loc_perm"
  top: "conv9_2_mbox_loc_flat"
  flatten_param {
    axis: 1
  }
}
layer {
  name: "conv9_2_mbox_conf"
  type: "Convolution"
  bottom: "conv9_2"
  top: "conv9_2_mbox_conf"
  param {
    lr_mult: 1
    decay_mult: 1
  }
  param {
    lr_mult: 2
    decay_mult: 0
  }
  convolution_param {
    num_output: 8
    pad: 1
    kernel_size: 3
    stride: 1
    weight_filler {
      type: "xavier"
    }
    bias_filler {
      type: "constant"
      value: 0
    }
  }
}
layer {
  name: "conv9_2_mbox_conf_perm"
  type: "Permute"
  bottom: "conv9_2_mbox_conf"
  top: "conv9_2_mbox_conf_perm"
  permute_param {
    order: 0
    order: 2
    order: 3
    order: 1
  }
}
layer {
  name: "conv9_2_mbox_conf_flat"
  type: "Flatten"
  bottom: "conv9_2_mbox_conf_perm"
  top: "conv9_2_mbox_conf_flat"
  flatten_param {
    axis: 1
  }
}
layer {
  name: "conv9_2_mbox_priorbox"
  type: "PriorBox"
  bottom: "conv9_2"
  bottom: "data"
  top: "conv9_2_mbox_priorbox"
  prior_box_param {
    min_size: 264
    max_size: 315
    aspect_ratio: 2
    flip: true
    clip: false
    variance: 0.1
    variance: 0.1
    variance: 0.2
    variance: 0.2
    step: 300
    offset: 0.5
  }
}
layer {
  name: "mbox_loc"
  type: "Concat"
  bottom: "conv4_3_norm_mbox_loc_flat"
  bottom: "fc7_mbox_loc_flat"
  bottom: "conv6_2_mbox_loc_flat"
  bottom: "conv7_2_mbox_loc_flat"
  bottom: "conv8_2_mbox_loc_flat"
  bottom: "conv9_2_mbox_loc_flat"
  top: "mbox_loc"
  concat_param {
    axis: 1
  }
}
layer {
  name: "mbox_conf"
  type: "Concat"
  bottom: "conv4_3_norm_mbox_conf_flat"
  bottom: "fc7_mbox_conf_flat"
  bottom: "conv6_2_mbox_conf_flat"
  bottom: "conv7_2_mbox_conf_flat"
  bottom: "conv8_2_mbox_conf_flat"
  bottom: "conv9_2_mbox_conf_flat"
  top: "mbox_conf"
  concat_param {
    axis: 1
  }
}
layer {
  name: "mbox_priorbox"
  type: "Concat"
  bottom: "conv4_3_norm_mbox_priorbox"
  bottom: "fc7_mbox_priorbox"
  bottom: "conv6_2_mbox_priorbox"
  bottom: "conv7_2_mbox_priorbox"
  bottom: "conv8_2_mbox_priorbox"
  bottom: "conv9_2_mbox_priorbox"
  top: "mbox_priorbox"
  concat_param {
    axis: 2
  }
}
layer {
  name: "mbox_loss"
  type: "MultiBoxLoss"
  bottom: "mbox_loc"
  bottom: "mbox_conf"
  bottom: "mbox_priorbox"
  bottom: "label"
  top: "mbox_loss"
  include {
    phase: TRAIN
  }
  propagate_down: true
  propagate_down: true
  propagate_down: false
  propagate_down: false
  loss_param {
    normalization: VALID
  }
  multibox_loss_param {
    loc_loss_type: SMOOTH_L1
    conf_loss_type: SOFTMAX
    loc_weight: 1
    num_classes: 2
    share_location: true
    match_type: PER_PREDICTION
    overlap_threshold: 0.5
    use_prior_for_matching: true
    background_label_id: 0
    use_difficult_gt: true
    neg_pos_ratio: 3
    neg_overlap: 0.5
    code_type: CENTER_SIZE
    ignore_cross_boundary_bbox: false
    mining_type: MAX_NEGATIVE
  }
}
I0609 09:34:23.846393 26882 layer_factory.hpp:77] Creating layer data
I0609 09:34:23.846890 26882 net.cpp:100] Creating Layer data
I0609 09:34:23.846915 26882 net.cpp:409] data -> data
I0609 09:34:23.846966 26882 net.cpp:409] data -> label
I0609 09:34:23.847000 26882 layer.hpp:71] 
I0609 09:34:23.847700 26891 db_lmdb.cpp:35] Opened lmdb examples/grayscale_tbs_v2.0/grayscale_tbs_v2.0_trainval_lmdb
I0609 09:34:23.862463 26882 annotated_data_layer.cpp:62] output data size: 32,3,300,300
I0609 09:34:23.940357 26882 net.cpp:151] Setting up data
I0609 09:34:23.940413 26882 net.cpp:158] Top shape: 32 3 300 300 (8640000)
I0609 09:34:23.940454 26882 net.cpp:158] Top shape: 1 1 4 8 (32)
I0609 09:34:23.940459 26882 net.cpp:166] Memory required for data: 34560128
I0609 09:34:23.940480 26882 layer_factory.hpp:77] Creating layer data_data_0_split
I0609 09:34:23.940505 26882 net.cpp:100] Creating Layer data_data_0_split
I0609 09:34:23.940518 26882 net.cpp:435] data_data_0_split <- data
I0609 09:34:23.940541 26882 net.cpp:409] data_data_0_split -> data_data_0_split_0
I0609 09:34:23.940567 26882 net.cpp:409] data_data_0_split -> data_data_0_split_1
I0609 09:34:23.940585 26882 net.cpp:409] data_data_0_split -> data_data_0_split_2
I0609 09:34:23.940598 26882 net.cpp:409] data_data_0_split -> data_data_0_split_3
I0609 09:34:23.940613 26882 net.cpp:409] data_data_0_split -> data_data_0_split_4
I0609 09:34:23.940624 26882 net.cpp:409] data_data_0_split -> data_data_0_split_5
I0609 09:34:23.940644 26882 net.cpp:409] data_data_0_split -> data_data_0_split_6
I0609 09:34:23.940659 26882 layer.hpp:71] 
I0609 09:34:23.940767 26882 net.cpp:151] Setting up data_data_0_split
I0609 09:34:23.940783 26882 net.cpp:158] Top shape: 32 3 300 300 (8640000)
I0609 09:34:23.940793 26882 net.cpp:158] Top shape: 32 3 300 300 (8640000)
I0609 09:34:23.940800 26882 net.cpp:158] Top shape: 32 3 300 300 (8640000)
I0609 09:34:23.940809 26882 net.cpp:158] Top shape: 32 3 300 300 (8640000)
I0609 09:34:23.940816 26882 net.cpp:158] Top shape: 32 3 300 300 (8640000)
I0609 09:34:23.940825 26882 net.cpp:158] Top shape: 32 3 300 300 (8640000)
I0609 09:34:23.940834 26882 net.cpp:158] Top shape: 32 3 300 300 (8640000)
I0609 09:34:23.940840 26882 net.cpp:166] Memory required for data: 276480128
I0609 09:34:23.940846 26882 layer_factory.hpp:77] Creating layer conv1_1
I0609 09:34:23.940876 26882 net.cpp:100] Creating Layer conv1_1
I0609 09:34:23.940886 26882 net.cpp:435] conv1_1 <- data_data_0_split_0
I0609 09:34:23.940901 26882 net.cpp:409] conv1_1 -> conv1_1
I0609 09:34:23.940917 26882 layer.hpp:71] 
I0609 09:34:24.485157 26882 net.cpp:151] Setting up conv1_1
I0609 09:34:24.485206 26882 net.cpp:158] Top shape: 32 64 300 300 (184320000)
I0609 09:34:24.485211 26882 net.cpp:166] Memory required for data: 1013760128
I0609 09:34:24.485236 26882 layer_factory.hpp:77] Creating layer relu1_1
I0609 09:34:24.485252 26882 net.cpp:100] Creating Layer relu1_1
I0609 09:34:24.485260 26882 net.cpp:435] relu1_1 <- conv1_1
I0609 09:34:24.485272 26882 net.cpp:396] relu1_1 -> conv1_1 (in-place)
I0609 09:34:24.485288 26882 layer.hpp:71] 
I0609 09:34:24.485980 26882 net.cpp:151] Setting up relu1_1
I0609 09:34:24.485999 26882 net.cpp:158] Top shape: 32 64 300 300 (184320000)
I0609 09:34:24.486003 26882 net.cpp:166] Memory required for data: 1751040128
I0609 09:34:24.486007 26882 layer_factory.hpp:77] Creating layer conv1_2
I0609 09:34:24.486027 26882 net.cpp:100] Creating Layer conv1_2
I0609 09:34:24.486037 26882 net.cpp:435] conv1_2 <- conv1_1
I0609 09:34:24.486045 26882 net.cpp:409] conv1_2 -> conv1_2
I0609 09:34:24.486054 26882 layer.hpp:71] 
I0609 09:34:24.488628 26882 net.cpp:151] Setting up conv1_2
I0609 09:34:24.488653 26882 net.cpp:158] Top shape: 32 64 300 300 (184320000)
I0609 09:34:24.488657 26882 net.cpp:166] Memory required for data: 2488320128
I0609 09:34:24.488668 26882 layer_factory.hpp:77] Creating layer relu1_2
I0609 09:34:24.488679 26882 net.cpp:100] Creating Layer relu1_2
I0609 09:34:24.488687 26882 net.cpp:435] relu1_2 <- conv1_2
I0609 09:34:24.488692 26882 net.cpp:396] relu1_2 -> conv1_2 (in-place)
I0609 09:34:24.488698 26882 layer.hpp:71] 
I0609 09:34:24.489321 26882 net.cpp:151] Setting up relu1_2
I0609 09:34:24.489339 26882 net.cpp:158] Top shape: 32 64 300 300 (184320000)
I0609 09:34:24.489346 26882 net.cpp:166] Memory required for data: 3225600128
I0609 09:34:24.489349 26882 layer_factory.hpp:77] Creating layer pool1
I0609 09:34:24.489358 26882 net.cpp:100] Creating Layer pool1
I0609 09:34:24.489364 26882 net.cpp:435] pool1 <- conv1_2
I0609 09:34:24.489370 26882 net.cpp:409] pool1 -> pool1
I0609 09:34:24.489380 26882 layer.hpp:71] 
I0609 09:34:24.489459 26882 net.cpp:151] Setting up pool1
I0609 09:34:24.489471 26882 net.cpp:158] Top shape: 32 64 150 150 (46080000)
I0609 09:34:24.489475 26882 net.cpp:166] Memory required for data: 3409920128
I0609 09:34:24.489478 26882 layer_factory.hpp:77] Creating layer conv2_1
I0609 09:34:24.489490 26882 net.cpp:100] Creating Layer conv2_1
I0609 09:34:24.489500 26882 net.cpp:435] conv2_1 <- pool1
I0609 09:34:24.489507 26882 net.cpp:409] conv2_1 -> conv2_1
I0609 09:34:24.489514 26882 layer.hpp:71] 
I0609 09:34:24.492102 26882 net.cpp:151] Setting up conv2_1
I0609 09:34:24.492127 26882 net.cpp:158] Top shape: 32 128 150 150 (92160000)
I0609 09:34:24.492131 26882 net.cpp:166] Memory required for data: 3778560128
I0609 09:34:24.492146 26882 layer_factory.hpp:77] Creating layer relu2_1
I0609 09:34:24.492156 26882 net.cpp:100] Creating Layer relu2_1
I0609 09:34:24.492161 26882 net.cpp:435] relu2_1 <- conv2_1
I0609 09:34:24.492166 26882 net.cpp:396] relu2_1 -> conv2_1 (in-place)
I0609 09:34:24.492174 26882 layer.hpp:71] 
I0609 09:34:24.492378 26882 net.cpp:151] Setting up relu2_1
I0609 09:34:24.492393 26882 net.cpp:158] Top shape: 32 128 150 150 (92160000)
I0609 09:34:24.492396 26882 net.cpp:166] Memory required for data: 4147200128
I0609 09:34:24.492399 26882 layer_factory.hpp:77] Creating layer conv2_2
I0609 09:34:24.492410 26882 net.cpp:100] Creating Layer conv2_2
I0609 09:34:24.492420 26882 net.cpp:435] conv2_2 <- conv2_1
I0609 09:34:24.492429 26882 net.cpp:409] conv2_2 -> conv2_2
I0609 09:34:24.492435 26882 layer.hpp:71] 
I0609 09:34:24.495551 26882 net.cpp:151] Setting up conv2_2
I0609 09:34:24.495580 26882 net.cpp:158] Top shape: 32 128 150 150 (92160000)
I0609 09:34:24.495584 26882 net.cpp:166] Memory required for data: 4515840128
I0609 09:34:24.495592 26882 layer_factory.hpp:77] Creating layer relu2_2
I0609 09:34:24.495602 26882 net.cpp:100] Creating Layer relu2_2
I0609 09:34:24.495609 26882 net.cpp:435] relu2_2 <- conv2_2
I0609 09:34:24.495615 26882 net.cpp:396] relu2_2 -> conv2_2 (in-place)
I0609 09:34:24.495620 26882 layer.hpp:71] 
I0609 09:34:24.496250 26882 net.cpp:151] Setting up relu2_2
I0609 09:34:24.496268 26882 net.cpp:158] Top shape: 32 128 150 150 (92160000)
I0609 09:34:24.496273 26882 net.cpp:166] Memory required for data: 4884480128
I0609 09:34:24.496275 26882 layer_factory.hpp:77] Creating layer pool2
I0609 09:34:24.496285 26882 net.cpp:100] Creating Layer pool2
I0609 09:34:24.496290 26882 net.cpp:435] pool2 <- conv2_2
I0609 09:34:24.496299 26882 net.cpp:409] pool2 -> pool2
I0609 09:34:24.496307 26882 layer.hpp:71] 
I0609 09:34:24.496351 26882 net.cpp:151] Setting up pool2
I0609 09:34:24.496361 26882 net.cpp:158] Top shape: 32 128 75 75 (23040000)
I0609 09:34:24.496364 26882 net.cpp:166] Memory required for data: 4976640128
I0609 09:34:24.496367 26882 layer_factory.hpp:77] Creating layer conv3_1
I0609 09:34:24.496378 26882 net.cpp:100] Creating Layer conv3_1
I0609 09:34:24.496384 26882 net.cpp:435] conv3_1 <- pool2
I0609 09:34:24.496392 26882 net.cpp:409] conv3_1 -> conv3_1
I0609 09:34:24.496400 26882 layer.hpp:71] 
I0609 09:34:24.500866 26882 net.cpp:151] Setting up conv3_1
I0609 09:34:24.500900 26882 net.cpp:158] Top shape: 32 256 75 75 (46080000)
I0609 09:34:24.500905 26882 net.cpp:166] Memory required for data: 5160960128
I0609 09:34:24.500918 26882 layer_factory.hpp:77] Creating layer relu3_1
I0609 09:34:24.500929 26882 net.cpp:100] Creating Layer relu3_1
I0609 09:34:24.500936 26882 net.cpp:435] relu3_1 <- conv3_1
I0609 09:34:24.500941 26882 net.cpp:396] relu3_1 -> conv3_1 (in-place)
I0609 09:34:24.500948 26882 layer.hpp:71] 
I0609 09:34:24.501149 26882 net.cpp:151] Setting up relu3_1
I0609 09:34:24.501163 26882 net.cpp:158] Top shape: 32 256 75 75 (46080000)
I0609 09:34:24.501168 26882 net.cpp:166] Memory required for data: 5345280128
I0609 09:34:24.501171 26882 layer_factory.hpp:77] Creating layer conv3_2
I0609 09:34:24.501185 26882 net.cpp:100] Creating Layer conv3_2
I0609 09:34:24.501194 26882 net.cpp:435] conv3_2 <- conv3_1
I0609 09:34:24.501199 26882 net.cpp:409] conv3_2 -> conv3_2
I0609 09:34:24.501211 26882 layer.hpp:71] 
I0609 09:34:24.507349 26882 net.cpp:151] Setting up conv3_2
I0609 09:34:24.507395 26882 net.cpp:158] Top shape: 32 256 75 75 (46080000)
I0609 09:34:24.507400 26882 net.cpp:166] Memory required for data: 5529600128
I0609 09:34:24.507410 26882 layer_factory.hpp:77] Creating layer relu3_2
I0609 09:34:24.507423 26882 net.cpp:100] Creating Layer relu3_2
I0609 09:34:24.507432 26882 net.cpp:435] relu3_2 <- conv3_2
I0609 09:34:24.507442 26882 net.cpp:396] relu3_2 -> conv3_2 (in-place)
I0609 09:34:24.507455 26882 layer.hpp:71] 
I0609 09:34:24.508173 26882 net.cpp:151] Setting up relu3_2
I0609 09:34:24.508193 26882 net.cpp:158] Top shape: 32 256 75 75 (46080000)
I0609 09:34:24.508196 26882 net.cpp:166] Memory required for data: 5713920128
I0609 09:34:24.508200 26882 layer_factory.hpp:77] Creating layer conv3_3
I0609 09:34:24.508219 26882 net.cpp:100] Creating Layer conv3_3
I0609 09:34:24.508227 26882 net.cpp:435] conv3_3 <- conv3_2
I0609 09:34:24.508234 26882 net.cpp:409] conv3_3 -> conv3_3
I0609 09:34:24.508242 26882 layer.hpp:71] 
I0609 09:34:24.514312 26882 net.cpp:151] Setting up conv3_3
I0609 09:34:24.514340 26882 net.cpp:158] Top shape: 32 256 75 75 (46080000)
I0609 09:34:24.514344 26882 net.cpp:166] Memory required for data: 5898240128
I0609 09:34:24.514353 26882 layer_factory.hpp:77] Creating layer relu3_3
I0609 09:34:24.514361 26882 net.cpp:100] Creating Layer relu3_3
I0609 09:34:24.514365 26882 net.cpp:435] relu3_3 <- conv3_3
I0609 09:34:24.514371 26882 net.cpp:396] relu3_3 -> conv3_3 (in-place)
I0609 09:34:24.514381 26882 layer.hpp:71] 
I0609 09:34:24.515466 26882 net.cpp:151] Setting up relu3_3
I0609 09:34:24.515486 26882 net.cpp:158] Top shape: 32 256 75 75 (46080000)
I0609 09:34:24.515489 26882 net.cpp:166] Memory required for data: 6082560128
I0609 09:34:24.515493 26882 layer_factory.hpp:77] Creating layer pool3
I0609 09:34:24.515501 26882 net.cpp:100] Creating Layer pool3
I0609 09:34:24.515512 26882 net.cpp:435] pool3 <- conv3_3
I0609 09:34:24.515518 26882 net.cpp:409] pool3 -> pool3
I0609 09:34:24.515525 26882 layer.hpp:71] 
I0609 09:34:24.515579 26882 net.cpp:151] Setting up pool3
I0609 09:34:24.515590 26882 net.cpp:158] Top shape: 32 256 38 38 (11829248)
I0609 09:34:24.515594 26882 net.cpp:166] Memory required for data: 6129877120
I0609 09:34:24.515596 26882 layer_factory.hpp:77] Creating layer conv4_1
I0609 09:34:24.515609 26882 net.cpp:100] Creating Layer conv4_1
I0609 09:34:24.515615 26882 net.cpp:435] conv4_1 <- pool3
I0609 09:34:24.515625 26882 net.cpp:409] conv4_1 -> conv4_1
I0609 09:34:24.515636 26882 layer.hpp:71] 
I0609 09:34:24.526422 26882 net.cpp:151] Setting up conv4_1
I0609 09:34:24.526465 26882 net.cpp:158] Top shape: 32 512 38 38 (23658496)
I0609 09:34:24.526469 26882 net.cpp:166] Memory required for data: 6224511104
I0609 09:34:24.526479 26882 layer_factory.hpp:77] Creating layer relu4_1
I0609 09:34:24.526494 26882 net.cpp:100] Creating Layer relu4_1
I0609 09:34:24.526502 26882 net.cpp:435] relu4_1 <- conv4_1
I0609 09:34:24.526509 26882 net.cpp:396] relu4_1 -> conv4_1 (in-place)
I0609 09:34:24.526516 26882 layer.hpp:71] 
I0609 09:34:24.526715 26882 net.cpp:151] Setting up relu4_1
I0609 09:34:24.526729 26882 net.cpp:158] Top shape: 32 512 38 38 (23658496)
I0609 09:34:24.526733 26882 net.cpp:166] Memory required for data: 6319145088
I0609 09:34:24.526736 26882 layer_factory.hpp:77] Creating layer conv4_2
I0609 09:34:24.526751 26882 net.cpp:100] Creating Layer conv4_2
I0609 09:34:24.526758 26882 net.cpp:435] conv4_2 <- conv4_1
I0609 09:34:24.526765 26882 net.cpp:409] conv4_2 -> conv4_2
I0609 09:34:24.526772 26882 layer.hpp:71] 
I0609 09:34:24.545528 26882 net.cpp:151] Setting up conv4_2
I0609 09:34:24.545574 26882 net.cpp:158] Top shape: 32 512 38 38 (23658496)
I0609 09:34:24.545583 26882 net.cpp:166] Memory required for data: 6413779072
I0609 09:34:24.545603 26882 layer_factory.hpp:77] Creating layer relu4_2
I0609 09:34:24.545622 26882 net.cpp:100] Creating Layer relu4_2
I0609 09:34:24.545631 26882 net.cpp:435] relu4_2 <- conv4_2
I0609 09:34:24.545702 26882 net.cpp:396] relu4_2 -> conv4_2 (in-place)
I0609 09:34:24.545739 26882 layer.hpp:71] 
I0609 09:34:24.546468 26882 net.cpp:151] Setting up relu4_2
I0609 09:34:24.546492 26882 net.cpp:158] Top shape: 32 512 38 38 (23658496)
I0609 09:34:24.546499 26882 net.cpp:166] Memory required for data: 6508413056
I0609 09:34:24.546504 26882 layer_factory.hpp:77] Creating layer conv4_3
I0609 09:34:24.546528 26882 net.cpp:100] Creating Layer conv4_3
I0609 09:34:24.546540 26882 net.cpp:435] conv4_3 <- conv4_2
I0609 09:34:24.546552 26882 net.cpp:409] conv4_3 -> conv4_3
I0609 09:34:24.546567 26882 layer.hpp:71] 
I0609 09:34:24.567327 26882 net.cpp:151] Setting up conv4_3
I0609 09:34:24.567374 26882 net.cpp:158] Top shape: 32 512 38 38 (23658496)
I0609 09:34:24.567381 26882 net.cpp:166] Memory required for data: 6603047040
I0609 09:34:24.567395 26882 layer_factory.hpp:77] Creating layer relu4_3
I0609 09:34:24.567417 26882 net.cpp:100] Creating Layer relu4_3
I0609 09:34:24.567432 26882 net.cpp:435] relu4_3 <- conv4_3
I0609 09:34:24.567445 26882 net.cpp:396] relu4_3 -> conv4_3 (in-place)
I0609 09:34:24.567458 26882 layer.hpp:71] 
I0609 09:34:24.567668 26882 net.cpp:151] Setting up relu4_3
I0609 09:34:24.567685 26882 net.cpp:158] Top shape: 32 512 38 38 (23658496)
I0609 09:34:24.567692 26882 net.cpp:166] Memory required for data: 6697681024
I0609 09:34:24.567697 26882 layer_factory.hpp:77] Creating layer conv4_3_relu4_3_0_split
I0609 09:34:24.567709 26882 net.cpp:100] Creating Layer conv4_3_relu4_3_0_split
I0609 09:34:24.567723 26882 net.cpp:435] conv4_3_relu4_3_0_split <- conv4_3
I0609 09:34:24.567734 26882 net.cpp:409] conv4_3_relu4_3_0_split -> conv4_3_relu4_3_0_split_0
I0609 09:34:24.567747 26882 net.cpp:409] conv4_3_relu4_3_0_split -> conv4_3_relu4_3_0_split_1
I0609 09:34:24.567764 26882 layer.hpp:71] 
I0609 09:34:24.567819 26882 net.cpp:151] Setting up conv4_3_relu4_3_0_split
I0609 09:34:24.567832 26882 net.cpp:158] Top shape: 32 512 38 38 (23658496)
I0609 09:34:24.567840 26882 net.cpp:158] Top shape: 32 512 38 38 (23658496)
I0609 09:34:24.567847 26882 net.cpp:166] Memory required for data: 6886948992
I0609 09:34:24.567853 26882 layer_factory.hpp:77] Creating layer pool4
I0609 09:34:24.567863 26882 net.cpp:100] Creating Layer pool4
I0609 09:34:24.567872 26882 net.cpp:435] pool4 <- conv4_3_relu4_3_0_split_0
I0609 09:34:24.567885 26882 net.cpp:409] pool4 -> pool4
I0609 09:34:24.567901 26882 layer.hpp:71] 
I0609 09:34:24.567951 26882 net.cpp:151] Setting up pool4
I0609 09:34:24.567965 26882 net.cpp:158] Top shape: 32 512 19 19 (5914624)
I0609 09:34:24.567971 26882 net.cpp:166] Memory required for data: 6910607488
I0609 09:34:24.567976 26882 layer_factory.hpp:77] Creating layer conv5_1
I0609 09:34:24.567996 26882 net.cpp:100] Creating Layer conv5_1
I0609 09:34:24.568006 26882 net.cpp:435] conv5_1 <- pool4
I0609 09:34:24.568017 26882 net.cpp:409] conv5_1 -> conv5_1
I0609 09:34:24.568032 26882 layer.hpp:71] 
I0609 09:34:24.588431 26882 net.cpp:151] Setting up conv5_1
I0609 09:34:24.588485 26882 net.cpp:158] Top shape: 32 512 19 19 (5914624)
I0609 09:34:24.588493 26882 net.cpp:166] Memory required for data: 6934265984
I0609 09:34:24.588508 26882 layer_factory.hpp:77] Creating layer relu5_1
I0609 09:34:24.588523 26882 net.cpp:100] Creating Layer relu5_1
I0609 09:34:24.588531 26882 net.cpp:435] relu5_1 <- conv5_1
I0609 09:34:24.588551 26882 net.cpp:396] relu5_1 -> conv5_1 (in-place)
I0609 09:34:24.588563 26882 layer.hpp:71] 
I0609 09:34:24.589215 26882 net.cpp:151] Setting up relu5_1
I0609 09:34:24.589236 26882 net.cpp:158] Top shape: 32 512 19 19 (5914624)
I0609 09:34:24.589243 26882 net.cpp:166] Memory required for data: 6957924480
I0609 09:34:24.589248 26882 layer_factory.hpp:77] Creating layer conv5_2
I0609 09:34:24.589267 26882 net.cpp:100] Creating Layer conv5_2
I0609 09:34:24.589279 26882 net.cpp:435] conv5_2 <- conv5_1
I0609 09:34:24.589294 26882 net.cpp:409] conv5_2 -> conv5_2
I0609 09:34:24.589314 26882 layer.hpp:71] 
I0609 09:34:24.608736 26882 net.cpp:151] Setting up conv5_2
I0609 09:34:24.608793 26882 net.cpp:158] Top shape: 32 512 19 19 (5914624)
I0609 09:34:24.608840 26882 net.cpp:166] Memory required for data: 6981582976
I0609 09:34:24.608860 26882 layer_factory.hpp:77] Creating layer relu5_2
I0609 09:34:24.608876 26882 net.cpp:100] Creating Layer relu5_2
I0609 09:34:24.608886 26882 net.cpp:435] relu5_2 <- conv5_2
I0609 09:34:24.608901 26882 net.cpp:396] relu5_2 -> conv5_2 (in-place)
I0609 09:34:24.608922 26882 layer.hpp:71] 
I0609 09:34:24.609570 26882 net.cpp:151] Setting up relu5_2
I0609 09:34:24.609591 26882 net.cpp:158] Top shape: 32 512 19 19 (5914624)
I0609 09:34:24.609598 26882 net.cpp:166] Memory required for data: 7005241472
I0609 09:34:24.609604 26882 layer_factory.hpp:77] Creating layer conv5_3
I0609 09:34:24.609623 26882 net.cpp:100] Creating Layer conv5_3
I0609 09:34:24.609637 26882 net.cpp:435] conv5_3 <- conv5_2
I0609 09:34:24.609649 26882 net.cpp:409] conv5_3 -> conv5_3
I0609 09:34:24.609664 26882 layer.hpp:71] 
I0609 09:34:24.629149 26882 net.cpp:151] Setting up conv5_3
I0609 09:34:24.629206 26882 net.cpp:158] Top shape: 32 512 19 19 (5914624)
I0609 09:34:24.629215 26882 net.cpp:166] Memory required for data: 7028899968
I0609 09:34:24.629230 26882 layer_factory.hpp:77] Creating layer relu5_3
I0609 09:34:24.629264 26882 net.cpp:100] Creating Layer relu5_3
I0609 09:34:24.629276 26882 net.cpp:435] relu5_3 <- conv5_3
I0609 09:34:24.629288 26882 net.cpp:396] relu5_3 -> conv5_3 (in-place)
I0609 09:34:24.629304 26882 layer.hpp:71] 
I0609 09:34:24.629552 26882 net.cpp:151] Setting up relu5_3
I0609 09:34:24.629570 26882 net.cpp:158] Top shape: 32 512 19 19 (5914624)
I0609 09:34:24.629577 26882 net.cpp:166] Memory required for data: 7052558464
I0609 09:34:24.629582 26882 layer_factory.hpp:77] Creating layer pool5
I0609 09:34:24.629596 26882 net.cpp:100] Creating Layer pool5
I0609 09:34:24.629609 26882 net.cpp:435] pool5 <- conv5_3
I0609 09:34:24.629621 26882 net.cpp:409] pool5 -> pool5
I0609 09:34:24.629633 26882 layer.hpp:71] 
I0609 09:34:24.629704 26882 net.cpp:151] Setting up pool5
I0609 09:34:24.629719 26882 net.cpp:158] Top shape: 32 512 19 19 (5914624)
I0609 09:34:24.629725 26882 net.cpp:166] Memory required for data: 7076216960
I0609 09:34:24.629730 26882 layer_factory.hpp:77] Creating layer fc6
I0609 09:34:24.629750 26882 net.cpp:100] Creating Layer fc6
I0609 09:34:24.629761 26882 net.cpp:435] fc6 <- pool5
I0609 09:34:24.629776 26882 net.cpp:409] fc6 -> fc6
I0609 09:34:24.629791 26882 layer.hpp:71] 
I0609 09:34:24.666705 26882 net.cpp:151] Setting up fc6
I0609 09:34:24.666759 26882 net.cpp:158] Top shape: 32 1024 19 19 (11829248)
I0609 09:34:24.666766 26882 net.cpp:166] Memory required for data: 7123533952
I0609 09:34:24.666781 26882 layer_factory.hpp:77] Creating layer relu6
I0609 09:34:24.666796 26882 net.cpp:100] Creating Layer relu6
I0609 09:34:24.666803 26882 net.cpp:435] relu6 <- fc6
I0609 09:34:24.666823 26882 net.cpp:396] relu6 -> fc6 (in-place)
I0609 09:34:24.666839 26882 layer.hpp:71] 
I0609 09:34:24.667680 26882 net.cpp:151] Setting up relu6
I0609 09:34:24.667702 26882 net.cpp:158] Top shape: 32 1024 19 19 (11829248)
I0609 09:34:24.667709 26882 net.cpp:166] Memory required for data: 7170850944
I0609 09:34:24.667716 26882 layer_factory.hpp:77] Creating layer fc7
I0609 09:34:24.667734 26882 net.cpp:100] Creating Layer fc7
I0609 09:34:24.667747 26882 net.cpp:435] fc7 <- fc6
I0609 09:34:24.667764 26882 net.cpp:409] fc7 -> fc7
I0609 09:34:24.667783 26882 layer.hpp:71] 
I0609 09:34:24.677466 26882 net.cpp:151] Setting up fc7
I0609 09:34:24.677520 26882 net.cpp:158] Top shape: 32 1024 19 19 (11829248)
I0609 09:34:24.677527 26882 net.cpp:166] Memory required for data: 7218167936
I0609 09:34:24.677541 26882 layer_factory.hpp:77] Creating layer relu7
I0609 09:34:24.677558 26882 net.cpp:100] Creating Layer relu7
I0609 09:34:24.677565 26882 net.cpp:435] relu7 <- fc7
I0609 09:34:24.677582 26882 net.cpp:396] relu7 -> fc7 (in-place)
I0609 09:34:24.677597 26882 layer.hpp:71] 
I0609 09:34:24.677814 26882 net.cpp:151] Setting up relu7
I0609 09:34:24.677831 26882 net.cpp:158] Top shape: 32 1024 19 19 (11829248)
I0609 09:34:24.677839 26882 net.cpp:166] Memory required for data: 7265484928
I0609 09:34:24.677886 26882 layer_factory.hpp:77] Creating layer fc7_relu7_0_split
I0609 09:34:24.677901 26882 net.cpp:100] Creating Layer fc7_relu7_0_split
I0609 09:34:24.677908 26882 net.cpp:435] fc7_relu7_0_split <- fc7
I0609 09:34:24.677922 26882 net.cpp:409] fc7_relu7_0_split -> fc7_relu7_0_split_0
I0609 09:34:24.677942 26882 net.cpp:409] fc7_relu7_0_split -> fc7_relu7_0_split_1
I0609 09:34:24.677963 26882 net.cpp:409] fc7_relu7_0_split -> fc7_relu7_0_split_2
I0609 09:34:24.677978 26882 net.cpp:409] fc7_relu7_0_split -> fc7_relu7_0_split_3
I0609 09:34:24.677990 26882 layer.hpp:71] 
I0609 09:34:24.678076 26882 net.cpp:151] Setting up fc7_relu7_0_split
I0609 09:34:24.678091 26882 net.cpp:158] Top shape: 32 1024 19 19 (11829248)
I0609 09:34:24.678098 26882 net.cpp:158] Top shape: 32 1024 19 19 (11829248)
I0609 09:34:24.678107 26882 net.cpp:158] Top shape: 32 1024 19 19 (11829248)
I0609 09:34:24.678114 26882 net.cpp:158] Top shape: 32 1024 19 19 (11829248)
I0609 09:34:24.678119 26882 net.cpp:166] Memory required for data: 7454752896
I0609 09:34:24.678124 26882 layer_factory.hpp:77] Creating layer conv6_1
I0609 09:34:24.678148 26882 net.cpp:100] Creating Layer conv6_1
I0609 09:34:24.678159 26882 net.cpp:435] conv6_1 <- fc7_relu7_0_split_0
I0609 09:34:24.678171 26882 net.cpp:409] conv6_1 -> conv6_1
I0609 09:34:24.678184 26882 layer.hpp:71] 
I0609 09:34:24.682061 26882 net.cpp:151] Setting up conv6_1
I0609 09:34:24.682096 26882 net.cpp:158] Top shape: 32 256 19 19 (2957312)
I0609 09:34:24.682101 26882 net.cpp:166] Memory required for data: 7466582144
I0609 09:34:24.682113 26882 layer_factory.hpp:77] Creating layer conv6_1_relu
I0609 09:34:24.682128 26882 net.cpp:100] Creating Layer conv6_1_relu
I0609 09:34:24.682138 26882 net.cpp:435] conv6_1_relu <- conv6_1
I0609 09:34:24.682147 26882 net.cpp:396] conv6_1_relu -> conv6_1 (in-place)
I0609 09:34:24.682160 26882 layer.hpp:71] 
I0609 09:34:24.682814 26882 net.cpp:151] Setting up conv6_1_relu
I0609 09:34:24.682837 26882 net.cpp:158] Top shape: 32 256 19 19 (2957312)
I0609 09:34:24.682842 26882 net.cpp:166] Memory required for data: 7478411392
I0609 09:34:24.682847 26882 layer_factory.hpp:77] Creating layer conv6_2
I0609 09:34:24.682865 26882 net.cpp:100] Creating Layer conv6_2
I0609 09:34:24.682878 26882 net.cpp:435] conv6_2 <- conv6_1
I0609 09:34:24.682893 26882 net.cpp:409] conv6_2 -> conv6_2
I0609 09:34:24.682907 26882 layer.hpp:71] 
I0609 09:34:24.693495 26882 net.cpp:151] Setting up conv6_2
I0609 09:34:24.693539 26882 net.cpp:158] Top shape: 32 512 10 10 (1638400)
I0609 09:34:24.693545 26882 net.cpp:166] Memory required for data: 7484964992
I0609 09:34:24.693573 26882 layer_factory.hpp:77] Creating layer conv6_2_relu
I0609 09:34:24.693588 26882 net.cpp:100] Creating Layer conv6_2_relu
I0609 09:34:24.693598 26882 net.cpp:435] conv6_2_relu <- conv6_2
I0609 09:34:24.693612 26882 net.cpp:396] conv6_2_relu -> conv6_2 (in-place)
I0609 09:34:24.693634 26882 layer.hpp:71] 
I0609 09:34:24.694315 26882 net.cpp:151] Setting up conv6_2_relu
I0609 09:34:24.694337 26882 net.cpp:158] Top shape: 32 512 10 10 (1638400)
I0609 09:34:24.694344 26882 net.cpp:166] Memory required for data: 7491518592
I0609 09:34:24.694349 26882 layer_factory.hpp:77] Creating layer conv6_2_conv6_2_relu_0_split
I0609 09:34:24.694363 26882 net.cpp:100] Creating Layer conv6_2_conv6_2_relu_0_split
I0609 09:34:24.694371 26882 net.cpp:435] conv6_2_conv6_2_relu_0_split <- conv6_2
I0609 09:34:24.694382 26882 net.cpp:409] conv6_2_conv6_2_relu_0_split -> conv6_2_conv6_2_relu_0_split_0
I0609 09:34:24.694401 26882 net.cpp:409] conv6_2_conv6_2_relu_0_split -> conv6_2_conv6_2_relu_0_split_1
I0609 09:34:24.694419 26882 net.cpp:409] conv6_2_conv6_2_relu_0_split -> conv6_2_conv6_2_relu_0_split_2
I0609 09:34:24.694430 26882 net.cpp:409] conv6_2_conv6_2_relu_0_split -> conv6_2_conv6_2_relu_0_split_3
I0609 09:34:24.694476 26882 layer.hpp:71] 
I0609 09:34:24.694597 26882 net.cpp:151] Setting up conv6_2_conv6_2_relu_0_split
I0609 09:34:24.694622 26882 net.cpp:158] Top shape: 32 512 10 10 (1638400)
I0609 09:34:24.694666 26882 net.cpp:158] Top shape: 32 512 10 10 (1638400)
I0609 09:34:24.694682 26882 net.cpp:158] Top shape: 32 512 10 10 (1638400)
I0609 09:34:24.694697 26882 net.cpp:158] Top shape: 32 512 10 10 (1638400)
I0609 09:34:24.694711 26882 net.cpp:166] Memory required for data: 7517732992
I0609 09:34:24.694725 26882 layer_factory.hpp:77] Creating layer conv7_1
I0609 09:34:24.694753 26882 net.cpp:100] Creating Layer conv7_1
I0609 09:34:24.694769 26882 net.cpp:435] conv7_1 <- conv6_2_conv6_2_relu_0_split_0
I0609 09:34:24.694790 26882 net.cpp:409] conv7_1 -> conv7_1
I0609 09:34:24.694810 26882 layer.hpp:71] 
I0609 09:34:24.697623 26882 net.cpp:151] Setting up conv7_1
I0609 09:34:24.697656 26882 net.cpp:158] Top shape: 32 128 10 10 (409600)
I0609 09:34:24.697664 26882 net.cpp:166] Memory required for data: 7519371392
I0609 09:34:24.697675 26882 layer_factory.hpp:77] Creating layer conv7_1_relu
I0609 09:34:24.697685 26882 net.cpp:100] Creating Layer conv7_1_relu
I0609 09:34:24.697695 26882 net.cpp:435] conv7_1_relu <- conv7_1
I0609 09:34:24.697705 26882 net.cpp:396] conv7_1_relu -> conv7_1 (in-place)
I0609 09:34:24.697715 26882 layer.hpp:71] 
I0609 09:34:24.697969 26882 net.cpp:151] Setting up conv7_1_relu
I0609 09:34:24.698004 26882 net.cpp:158] Top shape: 32 128 10 10 (409600)
I0609 09:34:24.698019 26882 net.cpp:166] Memory required for data: 7521009792
I0609 09:34:24.698032 26882 layer_factory.hpp:77] Creating layer conv7_2
I0609 09:34:24.698056 26882 net.cpp:100] Creating Layer conv7_2
I0609 09:34:24.698072 26882 net.cpp:435] conv7_2 <- conv7_1
I0609 09:34:24.698099 26882 net.cpp:409] conv7_2 -> conv7_2
I0609 09:34:24.698119 26882 layer.hpp:71] 
I0609 09:34:24.703877 26882 net.cpp:151] Setting up conv7_2
I0609 09:34:24.703940 26882 net.cpp:158] Top shape: 32 256 5 5 (204800)
I0609 09:34:24.703958 26882 net.cpp:166] Memory required for data: 7521828992
I0609 09:34:24.703979 26882 layer_factory.hpp:77] Creating layer conv7_2_relu
I0609 09:34:24.703999 26882 net.cpp:100] Creating Layer conv7_2_relu
I0609 09:34:24.704015 26882 net.cpp:435] conv7_2_relu <- conv7_2
I0609 09:34:24.704035 26882 net.cpp:396] conv7_2_relu -> conv7_2 (in-place)
I0609 09:34:24.704056 26882 layer.hpp:71] 
I0609 09:34:24.704792 26882 net.cpp:151] Setting up conv7_2_relu
I0609 09:34:24.704815 26882 net.cpp:158] Top shape: 32 256 5 5 (204800)
I0609 09:34:24.704823 26882 net.cpp:166] Memory required for data: 7522648192
I0609 09:34:24.704828 26882 layer_factory.hpp:77] Creating layer conv7_2_conv7_2_relu_0_split
I0609 09:34:24.704841 26882 net.cpp:100] Creating Layer conv7_2_conv7_2_relu_0_split
I0609 09:34:24.704849 26882 net.cpp:435] conv7_2_conv7_2_relu_0_split <- conv7_2
I0609 09:34:24.704861 26882 net.cpp:409] conv7_2_conv7_2_relu_0_split -> conv7_2_conv7_2_relu_0_split_0
I0609 09:34:24.704885 26882 net.cpp:409] conv7_2_conv7_2_relu_0_split -> conv7_2_conv7_2_relu_0_split_1
I0609 09:34:24.704896 26882 net.cpp:409] conv7_2_conv7_2_relu_0_split -> conv7_2_conv7_2_relu_0_split_2
I0609 09:34:24.704908 26882 net.cpp:409] conv7_2_conv7_2_relu_0_split -> conv7_2_conv7_2_relu_0_split_3
I0609 09:34:24.704921 26882 layer.hpp:71] 
I0609 09:34:24.705013 26882 net.cpp:151] Setting up conv7_2_conv7_2_relu_0_split
I0609 09:34:24.705027 26882 net.cpp:158] Top shape: 32 256 5 5 (204800)
I0609 09:34:24.705034 26882 net.cpp:158] Top shape: 32 256 5 5 (204800)
I0609 09:34:24.705042 26882 net.cpp:158] Top shape: 32 256 5 5 (204800)
I0609 09:34:24.705049 26882 net.cpp:158] Top shape: 32 256 5 5 (204800)
I0609 09:34:24.705055 26882 net.cpp:166] Memory required for data: 7525924992
I0609 09:34:24.705060 26882 layer_factory.hpp:77] Creating layer conv8_1
I0609 09:34:24.705082 26882 net.cpp:100] Creating Layer conv8_1
I0609 09:34:24.705092 26882 net.cpp:435] conv8_1 <- conv7_2_conv7_2_relu_0_split_0
I0609 09:34:24.705104 26882 net.cpp:409] conv8_1 -> conv8_1
I0609 09:34:24.705117 26882 layer.hpp:71] 
I0609 09:34:24.707655 26882 net.cpp:151] Setting up conv8_1
I0609 09:34:24.707684 26882 net.cpp:158] Top shape: 32 128 5 5 (102400)
I0609 09:34:24.707690 26882 net.cpp:166] Memory required for data: 7526334592
I0609 09:34:24.707722 26882 layer_factory.hpp:77] Creating layer conv8_1_relu
I0609 09:34:24.707743 26882 net.cpp:100] Creating Layer conv8_1_relu
I0609 09:34:24.707751 26882 net.cpp:435] conv8_1_relu <- conv8_1
I0609 09:34:24.707761 26882 net.cpp:396] conv8_1_relu -> conv8_1 (in-place)
I0609 09:34:24.707772 26882 layer.hpp:71] 
I0609 09:34:24.708003 26882 net.cpp:151] Setting up conv8_1_relu
I0609 09:34:24.708020 26882 net.cpp:158] Top shape: 32 128 5 5 (102400)
I0609 09:34:24.708026 26882 net.cpp:166] Memory required for data: 7526744192
I0609 09:34:24.708031 26882 layer_factory.hpp:77] Creating layer conv8_2
I0609 09:34:24.708050 26882 net.cpp:100] Creating Layer conv8_2
I0609 09:34:24.708061 26882 net.cpp:435] conv8_2 <- conv8_1
I0609 09:34:24.708076 26882 net.cpp:409] conv8_2 -> conv8_2
I0609 09:34:24.708089 26882 layer.hpp:71] 
I0609 09:34:24.712852 26882 net.cpp:151] Setting up conv8_2
I0609 09:34:24.712898 26882 net.cpp:158] Top shape: 32 256 3 3 (73728)
I0609 09:34:24.712904 26882 net.cpp:166] Memory required for data: 7527039104
I0609 09:34:24.712919 26882 layer_factory.hpp:77] Creating layer conv8_2_relu
I0609 09:34:24.712934 26882 net.cpp:100] Creating Layer conv8_2_relu
I0609 09:34:24.712942 26882 net.cpp:435] conv8_2_relu <- conv8_2
I0609 09:34:24.712954 26882 net.cpp:396] conv8_2_relu -> conv8_2 (in-place)
I0609 09:34:24.712967 26882 layer.hpp:71] 
I0609 09:34:24.713723 26882 net.cpp:151] Setting up conv8_2_relu
I0609 09:34:24.713764 26882 net.cpp:158] Top shape: 32 256 3 3 (73728)
I0609 09:34:24.713779 26882 net.cpp:166] Memory required for data: 7527334016
I0609 09:34:24.713794 26882 layer_factory.hpp:77] Creating layer conv8_2_conv8_2_relu_0_split
I0609 09:34:24.713814 26882 net.cpp:100] Creating Layer conv8_2_conv8_2_relu_0_split
I0609 09:34:24.713829 26882 net.cpp:435] conv8_2_conv8_2_relu_0_split <- conv8_2
I0609 09:34:24.713851 26882 net.cpp:409] conv8_2_conv8_2_relu_0_split -> conv8_2_conv8_2_relu_0_split_0
I0609 09:34:24.713898 26882 net.cpp:409] conv8_2_conv8_2_relu_0_split -> conv8_2_conv8_2_relu_0_split_1
I0609 09:34:24.713929 26882 net.cpp:409] conv8_2_conv8_2_relu_0_split -> conv8_2_conv8_2_relu_0_split_2
I0609 09:34:24.713949 26882 net.cpp:409] conv8_2_conv8_2_relu_0_split -> conv8_2_conv8_2_relu_0_split_3
I0609 09:34:24.713968 26882 layer.hpp:71] 
I0609 09:34:24.714098 26882 net.cpp:151] Setting up conv8_2_conv8_2_relu_0_split
I0609 09:34:24.714123 26882 net.cpp:158] Top shape: 32 256 3 3 (73728)
I0609 09:34:24.714138 26882 net.cpp:158] Top shape: 32 256 3 3 (73728)
I0609 09:34:24.714154 26882 net.cpp:158] Top shape: 32 256 3 3 (73728)
I0609 09:34:24.714169 26882 net.cpp:158] Top shape: 32 256 3 3 (73728)
I0609 09:34:24.714182 26882 net.cpp:166] Memory required for data: 7528513664
I0609 09:34:24.714195 26882 layer_factory.hpp:77] Creating layer conv9_1
I0609 09:34:24.714226 26882 net.cpp:100] Creating Layer conv9_1
I0609 09:34:24.714241 26882 net.cpp:435] conv9_1 <- conv8_2_conv8_2_relu_0_split_0
I0609 09:34:24.714265 26882 net.cpp:409] conv9_1 -> conv9_1
I0609 09:34:24.714287 26882 layer.hpp:71] 
I0609 09:34:24.716915 26882 net.cpp:151] Setting up conv9_1
I0609 09:34:24.716989 26882 net.cpp:158] Top shape: 32 128 3 3 (36864)
I0609 09:34:24.717005 26882 net.cpp:166] Memory required for data: 7528661120
I0609 09:34:24.717026 26882 layer_factory.hpp:77] Creating layer conv9_1_relu
I0609 09:34:24.717051 26882 net.cpp:100] Creating Layer conv9_1_relu
I0609 09:34:24.717067 26882 net.cpp:435] conv9_1_relu <- conv9_1
I0609 09:34:24.717087 26882 net.cpp:396] conv9_1_relu -> conv9_1 (in-place)
I0609 09:34:24.717106 26882 layer.hpp:71] 
I0609 09:34:24.717964 26882 net.cpp:151] Setting up conv9_1_relu
I0609 09:34:24.718003 26882 net.cpp:158] Top shape: 32 128 3 3 (36864)
I0609 09:34:24.718019 26882 net.cpp:166] Memory required for data: 7528808576
I0609 09:34:24.718034 26882 layer_factory.hpp:77] Creating layer conv9_2
I0609 09:34:24.718060 26882 net.cpp:100] Creating Layer conv9_2
I0609 09:34:24.718076 26882 net.cpp:435] conv9_2 <- conv9_1
I0609 09:34:24.718125 26882 net.cpp:409] conv9_2 -> conv9_2
I0609 09:34:24.718150 26882 layer.hpp:71] 
I0609 09:34:24.723618 26882 net.cpp:151] Setting up conv9_2
I0609 09:34:24.723670 26882 net.cpp:158] Top shape: 32 256 1 1 (8192)
I0609 09:34:24.723678 26882 net.cpp:166] Memory required for data: 7528841344
I0609 09:34:24.723692 26882 layer_factory.hpp:77] Creating layer conv9_2_relu
I0609 09:34:24.723707 26882 net.cpp:100] Creating Layer conv9_2_relu
I0609 09:34:24.723719 26882 net.cpp:435] conv9_2_relu <- conv9_2
I0609 09:34:24.723737 26882 net.cpp:396] conv9_2_relu -> conv9_2 (in-place)
I0609 09:34:24.723757 26882 layer.hpp:71] 
I0609 09:34:24.723980 26882 net.cpp:151] Setting up conv9_2_relu
I0609 09:34:24.723999 26882 net.cpp:158] Top shape: 32 256 1 1 (8192)
I0609 09:34:24.724004 26882 net.cpp:166] Memory required for data: 7528874112
I0609 09:34:24.724010 26882 layer_factory.hpp:77] Creating layer conv9_2_conv9_2_relu_0_split
I0609 09:34:24.724020 26882 net.cpp:100] Creating Layer conv9_2_conv9_2_relu_0_split
I0609 09:34:24.724027 26882 net.cpp:435] conv9_2_conv9_2_relu_0_split <- conv9_2
I0609 09:34:24.724041 26882 net.cpp:409] conv9_2_conv9_2_relu_0_split -> conv9_2_conv9_2_relu_0_split_0
I0609 09:34:24.724063 26882 net.cpp:409] conv9_2_conv9_2_relu_0_split -> conv9_2_conv9_2_relu_0_split_1
I0609 09:34:24.724076 26882 net.cpp:409] conv9_2_conv9_2_relu_0_split -> conv9_2_conv9_2_relu_0_split_2
I0609 09:34:24.724088 26882 layer.hpp:71] 
I0609 09:34:24.724165 26882 net.cpp:151] Setting up conv9_2_conv9_2_relu_0_split
I0609 09:34:24.724179 26882 net.cpp:158] Top shape: 32 256 1 1 (8192)
I0609 09:34:24.724186 26882 net.cpp:158] Top shape: 32 256 1 1 (8192)
I0609 09:34:24.724192 26882 net.cpp:158] Top shape: 32 256 1 1 (8192)
I0609 09:34:24.724200 26882 net.cpp:166] Memory required for data: 7528972416
I0609 09:34:24.724206 26882 layer_factory.hpp:77] Creating layer conv4_3_norm
I0609 09:34:24.724218 26882 net.cpp:100] Creating Layer conv4_3_norm
I0609 09:34:24.724231 26882 net.cpp:435] conv4_3_norm <- conv4_3_relu4_3_0_split_1
I0609 09:34:24.724244 26882 net.cpp:409] conv4_3_norm -> conv4_3_norm
I0609 09:34:24.724265 26882 layer.hpp:71] 
I0609 09:34:24.724465 26882 net.cpp:151] Setting up conv4_3_norm
I0609 09:34:24.724480 26882 net.cpp:158] Top shape: 32 512 38 38 (23658496)
I0609 09:34:24.724486 26882 net.cpp:166] Memory required for data: 7623606400
I0609 09:34:24.724498 26882 layer_factory.hpp:77] Creating layer conv4_3_norm_conv4_3_norm_0_split
I0609 09:34:24.724509 26882 net.cpp:100] Creating Layer conv4_3_norm_conv4_3_norm_0_split
I0609 09:34:24.724515 26882 net.cpp:435] conv4_3_norm_conv4_3_norm_0_split <- conv4_3_norm
I0609 09:34:24.724529 26882 net.cpp:409] conv4_3_norm_conv4_3_norm_0_split -> conv4_3_norm_conv4_3_norm_0_split_0
I0609 09:34:24.724540 26882 net.cpp:409] conv4_3_norm_conv4_3_norm_0_split -> conv4_3_norm_conv4_3_norm_0_split_1
I0609 09:34:24.724556 26882 net.cpp:409] conv4_3_norm_conv4_3_norm_0_split -> conv4_3_norm_conv4_3_norm_0_split_2
I0609 09:34:24.724566 26882 layer.hpp:71] 
I0609 09:34:24.724633 26882 net.cpp:151] Setting up conv4_3_norm_conv4_3_norm_0_split
I0609 09:34:24.724647 26882 net.cpp:158] Top shape: 32 512 38 38 (23658496)
I0609 09:34:24.724653 26882 net.cpp:158] Top shape: 32 512 38 38 (23658496)
I0609 09:34:24.724660 26882 net.cpp:158] Top shape: 32 512 38 38 (23658496)
I0609 09:34:24.724668 26882 net.cpp:166] Memory required for data: 7907508352
I0609 09:34:24.724673 26882 layer_factory.hpp:77] Creating layer conv4_3_norm_mbox_loc
I0609 09:34:24.724691 26882 net.cpp:100] Creating Layer conv4_3_norm_mbox_loc
I0609 09:34:24.724704 26882 net.cpp:435] conv4_3_norm_mbox_loc <- conv4_3_norm_conv4_3_norm_0_split_0
I0609 09:34:24.724715 26882 net.cpp:409] conv4_3_norm_mbox_loc -> conv4_3_norm_mbox_loc
I0609 09:34:24.724730 26882 layer.hpp:71] 
I0609 09:34:24.727069 26882 net.cpp:151] Setting up conv4_3_norm_mbox_loc
I0609 09:34:24.727099 26882 net.cpp:158] Top shape: 32 16 38 38 (739328)
I0609 09:34:24.727108 26882 net.cpp:166] Memory required for data: 7910465664
I0609 09:34:24.727118 26882 layer_factory.hpp:77] Creating layer conv4_3_norm_mbox_loc_perm
I0609 09:34:24.727155 26882 net.cpp:100] Creating Layer conv4_3_norm_mbox_loc_perm
I0609 09:34:24.727170 26882 net.cpp:435] conv4_3_norm_mbox_loc_perm <- conv4_3_norm_mbox_loc
I0609 09:34:24.727185 26882 net.cpp:409] conv4_3_norm_mbox_loc_perm -> conv4_3_norm_mbox_loc_perm
I0609 09:34:24.727203 26882 layer.hpp:71] 
I0609 09:34:24.727345 26882 net.cpp:151] Setting up conv4_3_norm_mbox_loc_perm
I0609 09:34:24.727360 26882 net.cpp:158] Top shape: 32 38 38 16 (739328)
I0609 09:34:24.727367 26882 net.cpp:166] Memory required for data: 7913422976
I0609 09:34:24.727372 26882 layer_factory.hpp:77] Creating layer conv4_3_norm_mbox_loc_flat
I0609 09:34:24.727387 26882 net.cpp:100] Creating Layer conv4_3_norm_mbox_loc_flat
I0609 09:34:24.727398 26882 net.cpp:435] conv4_3_norm_mbox_loc_flat <- conv4_3_norm_mbox_loc_perm
I0609 09:34:24.727409 26882 net.cpp:409] conv4_3_norm_mbox_loc_flat -> conv4_3_norm_mbox_loc_flat
I0609 09:34:24.727447 26882 layer.hpp:71] 
I0609 09:34:24.727491 26882 net.cpp:151] Setting up conv4_3_norm_mbox_loc_flat
I0609 09:34:24.727505 26882 net.cpp:158] Top shape: 32 23104 (739328)
I0609 09:34:24.727511 26882 net.cpp:166] Memory required for data: 7916380288
I0609 09:34:24.727517 26882 layer_factory.hpp:77] Creating layer conv4_3_norm_mbox_conf
I0609 09:34:24.727550 26882 net.cpp:100] Creating Layer conv4_3_norm_mbox_conf
I0609 09:34:24.727560 26882 net.cpp:435] conv4_3_norm_mbox_conf <- conv4_3_norm_conv4_3_norm_0_split_1
I0609 09:34:24.727573 26882 net.cpp:409] conv4_3_norm_mbox_conf -> conv4_3_norm_mbox_conf
I0609 09:34:24.727588 26882 layer.hpp:71] 
I0609 09:34:24.729717 26882 net.cpp:151] Setting up conv4_3_norm_mbox_conf
I0609 09:34:24.729755 26882 net.cpp:158] Top shape: 32 8 38 38 (369664)
I0609 09:34:24.729763 26882 net.cpp:166] Memory required for data: 7917858944
I0609 09:34:24.729775 26882 layer_factory.hpp:77] Creating layer conv4_3_norm_mbox_conf_perm
I0609 09:34:24.729790 26882 net.cpp:100] Creating Layer conv4_3_norm_mbox_conf_perm
I0609 09:34:24.729799 26882 net.cpp:435] conv4_3_norm_mbox_conf_perm <- conv4_3_norm_mbox_conf
I0609 09:34:24.729815 26882 net.cpp:409] conv4_3_norm_mbox_conf_perm -> conv4_3_norm_mbox_conf_perm
I0609 09:34:24.729835 26882 layer.hpp:71] 
I0609 09:34:24.729981 26882 net.cpp:151] Setting up conv4_3_norm_mbox_conf_perm
I0609 09:34:24.729996 26882 net.cpp:158] Top shape: 32 38 38 8 (369664)
I0609 09:34:24.730003 26882 net.cpp:166] Memory required for data: 7919337600
I0609 09:34:24.730008 26882 layer_factory.hpp:77] Creating layer conv4_3_norm_mbox_conf_flat
I0609 09:34:24.730021 26882 net.cpp:100] Creating Layer conv4_3_norm_mbox_conf_flat
I0609 09:34:24.730033 26882 net.cpp:435] conv4_3_norm_mbox_conf_flat <- conv4_3_norm_mbox_conf_perm
I0609 09:34:24.730044 26882 net.cpp:409] conv4_3_norm_mbox_conf_flat -> conv4_3_norm_mbox_conf_flat
I0609 09:34:24.730057 26882 layer.hpp:71] 
I0609 09:34:24.730100 26882 net.cpp:151] Setting up conv4_3_norm_mbox_conf_flat
I0609 09:34:24.730113 26882 net.cpp:158] Top shape: 32 11552 (369664)
I0609 09:34:24.730119 26882 net.cpp:166] Memory required for data: 7920816256
I0609 09:34:24.730124 26882 layer_factory.hpp:77] Creating layer conv4_3_norm_mbox_priorbox
I0609 09:34:24.730139 26882 net.cpp:100] Creating Layer conv4_3_norm_mbox_priorbox
I0609 09:34:24.730151 26882 net.cpp:435] conv4_3_norm_mbox_priorbox <- conv4_3_norm_conv4_3_norm_0_split_2
I0609 09:34:24.730161 26882 net.cpp:435] conv4_3_norm_mbox_priorbox <- data_data_0_split_1
I0609 09:34:24.730173 26882 net.cpp:409] conv4_3_norm_mbox_priorbox -> conv4_3_norm_mbox_priorbox
I0609 09:34:24.730190 26882 layer.hpp:71] 
I0609 09:34:24.730240 26882 net.cpp:151] Setting up conv4_3_norm_mbox_priorbox
I0609 09:34:24.730254 26882 net.cpp:158] Top shape: 1 2 23104 (46208)
I0609 09:34:24.730260 26882 net.cpp:166] Memory required for data: 7921001088
I0609 09:34:24.730265 26882 layer_factory.hpp:77] Creating layer fc7_mbox_loc
I0609 09:34:24.730283 26882 net.cpp:100] Creating Layer fc7_mbox_loc
I0609 09:34:24.730295 26882 net.cpp:435] fc7_mbox_loc <- fc7_relu7_0_split_1
I0609 09:34:24.730329 26882 net.cpp:409] fc7_mbox_loc -> fc7_mbox_loc
I0609 09:34:24.730347 26882 layer.hpp:71] 
I0609 09:34:24.734475 26882 net.cpp:151] Setting up fc7_mbox_loc
I0609 09:34:24.734519 26882 net.cpp:158] Top shape: 32 24 19 19 (277248)
I0609 09:34:24.734526 26882 net.cpp:166] Memory required for data: 7922110080
I0609 09:34:24.734540 26882 layer_factory.hpp:77] Creating layer fc7_mbox_loc_perm
I0609 09:34:24.734561 26882 net.cpp:100] Creating Layer fc7_mbox_loc_perm
I0609 09:34:24.734573 26882 net.cpp:435] fc7_mbox_loc_perm <- fc7_mbox_loc
I0609 09:34:24.734586 26882 net.cpp:409] fc7_mbox_loc_perm -> fc7_mbox_loc_perm
I0609 09:34:24.734606 26882 layer.hpp:71] 
I0609 09:34:24.734740 26882 net.cpp:151] Setting up fc7_mbox_loc_perm
I0609 09:34:24.734755 26882 net.cpp:158] Top shape: 32 19 19 24 (277248)
I0609 09:34:24.734760 26882 net.cpp:166] Memory required for data: 7923219072
I0609 09:34:24.734766 26882 layer_factory.hpp:77] Creating layer fc7_mbox_loc_flat
I0609 09:34:24.734776 26882 net.cpp:100] Creating Layer fc7_mbox_loc_flat
I0609 09:34:24.734786 26882 net.cpp:435] fc7_mbox_loc_flat <- fc7_mbox_loc_perm
I0609 09:34:24.734797 26882 net.cpp:409] fc7_mbox_loc_flat -> fc7_mbox_loc_flat
I0609 09:34:24.734809 26882 layer.hpp:71] 
I0609 09:34:24.734851 26882 net.cpp:151] Setting up fc7_mbox_loc_flat
I0609 09:34:24.734865 26882 net.cpp:158] Top shape: 32 8664 (277248)
I0609 09:34:24.734870 26882 net.cpp:166] Memory required for data: 7924328064
I0609 09:34:24.734875 26882 layer_factory.hpp:77] Creating layer fc7_mbox_conf
I0609 09:34:24.734894 26882 net.cpp:100] Creating Layer fc7_mbox_conf
I0609 09:34:24.734905 26882 net.cpp:435] fc7_mbox_conf <- fc7_relu7_0_split_2
I0609 09:34:24.734920 26882 net.cpp:409] fc7_mbox_conf -> fc7_mbox_conf
I0609 09:34:24.734933 26882 layer.hpp:71] 
I0609 09:34:24.738024 26882 net.cpp:151] Setting up fc7_mbox_conf
I0609 09:34:24.738059 26882 net.cpp:158] Top shape: 32 12 19 19 (138624)
I0609 09:34:24.738065 26882 net.cpp:166] Memory required for data: 7924882560
I0609 09:34:24.738076 26882 layer_factory.hpp:77] Creating layer fc7_mbox_conf_perm
I0609 09:34:24.738090 26882 net.cpp:100] Creating Layer fc7_mbox_conf_perm
I0609 09:34:24.738104 26882 net.cpp:435] fc7_mbox_conf_perm <- fc7_mbox_conf
I0609 09:34:24.738114 26882 net.cpp:409] fc7_mbox_conf_perm -> fc7_mbox_conf_perm
I0609 09:34:24.738131 26882 layer.hpp:71] 
I0609 09:34:24.738265 26882 net.cpp:151] Setting up fc7_mbox_conf_perm
I0609 09:34:24.738281 26882 net.cpp:158] Top shape: 32 19 19 12 (138624)
I0609 09:34:24.738286 26882 net.cpp:166] Memory required for data: 7925437056
I0609 09:34:24.738291 26882 layer_factory.hpp:77] Creating layer fc7_mbox_conf_flat
I0609 09:34:24.738301 26882 net.cpp:100] Creating Layer fc7_mbox_conf_flat
I0609 09:34:24.738309 26882 net.cpp:435] fc7_mbox_conf_flat <- fc7_mbox_conf_perm
I0609 09:34:24.738325 26882 net.cpp:409] fc7_mbox_conf_flat -> fc7_mbox_conf_flat
I0609 09:34:24.738343 26882 layer.hpp:71] 
I0609 09:34:24.738384 26882 net.cpp:151] Setting up fc7_mbox_conf_flat
I0609 09:34:24.738396 26882 net.cpp:158] Top shape: 32 4332 (138624)
I0609 09:34:24.738401 26882 net.cpp:166] Memory required for data: 7925991552
I0609 09:34:24.738406 26882 layer_factory.hpp:77] Creating layer fc7_mbox_priorbox
I0609 09:34:24.738418 26882 net.cpp:100] Creating Layer fc7_mbox_priorbox
I0609 09:34:24.738431 26882 net.cpp:435] fc7_mbox_priorbox <- fc7_relu7_0_split_3
I0609 09:34:24.738440 26882 net.cpp:435] fc7_mbox_priorbox <- data_data_0_split_2
I0609 09:34:24.738452 26882 net.cpp:409] fc7_mbox_priorbox -> fc7_mbox_priorbox
I0609 09:34:24.738469 26882 layer.hpp:71] 
I0609 09:34:24.738517 26882 net.cpp:151] Setting up fc7_mbox_priorbox
I0609 09:34:24.738529 26882 net.cpp:158] Top shape: 1 2 8664 (17328)
I0609 09:34:24.738535 26882 net.cpp:166] Memory required for data: 7926060864
I0609 09:34:24.738540 26882 layer_factory.hpp:77] Creating layer conv6_2_mbox_loc
I0609 09:34:24.738559 26882 net.cpp:100] Creating Layer conv6_2_mbox_loc
I0609 09:34:24.738571 26882 net.cpp:435] conv6_2_mbox_loc <- conv6_2_conv6_2_relu_0_split_1
I0609 09:34:24.738605 26882 net.cpp:409] conv6_2_mbox_loc -> conv6_2_mbox_loc
I0609 09:34:24.738625 26882 layer.hpp:71] 
I0609 09:34:24.741104 26882 net.cpp:151] Setting up conv6_2_mbox_loc
I0609 09:34:24.741127 26882 net.cpp:158] Top shape: 32 24 10 10 (76800)
I0609 09:34:24.741133 26882 net.cpp:166] Memory required for data: 7926368064
I0609 09:34:24.741144 26882 layer_factory.hpp:77] Creating layer conv6_2_mbox_loc_perm
I0609 09:34:24.741165 26882 net.cpp:100] Creating Layer conv6_2_mbox_loc_perm
I0609 09:34:24.741174 26882 net.cpp:435] conv6_2_mbox_loc_perm <- conv6_2_mbox_loc
I0609 09:34:24.741188 26882 net.cpp:409] conv6_2_mbox_loc_perm -> conv6_2_mbox_loc_perm
I0609 09:34:24.741206 26882 layer.hpp:71] 
I0609 09:34:24.741370 26882 net.cpp:151] Setting up conv6_2_mbox_loc_perm
I0609 09:34:24.741405 26882 net.cpp:158] Top shape: 32 10 10 24 (76800)
I0609 09:34:24.741420 26882 net.cpp:166] Memory required for data: 7926675264
I0609 09:34:24.741433 26882 layer_factory.hpp:77] Creating layer conv6_2_mbox_loc_flat
I0609 09:34:24.741451 26882 net.cpp:100] Creating Layer conv6_2_mbox_loc_flat
I0609 09:34:24.741466 26882 net.cpp:435] conv6_2_mbox_loc_flat <- conv6_2_mbox_loc_perm
I0609 09:34:24.741483 26882 net.cpp:409] conv6_2_mbox_loc_flat -> conv6_2_mbox_loc_flat
I0609 09:34:24.741503 26882 layer.hpp:71] 
I0609 09:34:24.741564 26882 net.cpp:151] Setting up conv6_2_mbox_loc_flat
I0609 09:34:24.741583 26882 net.cpp:158] Top shape: 32 2400 (76800)
I0609 09:34:24.741596 26882 net.cpp:166] Memory required for data: 7926982464
I0609 09:34:24.741610 26882 layer_factory.hpp:77] Creating layer conv6_2_mbox_conf
I0609 09:34:24.741636 26882 net.cpp:100] Creating Layer conv6_2_mbox_conf
I0609 09:34:24.741652 26882 net.cpp:435] conv6_2_mbox_conf <- conv6_2_conv6_2_relu_0_split_2
I0609 09:34:24.741670 26882 net.cpp:409] conv6_2_mbox_conf -> conv6_2_mbox_conf
I0609 09:34:24.741693 26882 layer.hpp:71] 
I0609 09:34:24.745193 26882 net.cpp:151] Setting up conv6_2_mbox_conf
I0609 09:34:24.745234 26882 net.cpp:158] Top shape: 32 12 10 10 (38400)
I0609 09:34:24.745249 26882 net.cpp:166] Memory required for data: 7927136064
I0609 09:34:24.745270 26882 layer_factory.hpp:77] Creating layer conv6_2_mbox_conf_perm
I0609 09:34:24.745290 26882 net.cpp:100] Creating Layer conv6_2_mbox_conf_perm
I0609 09:34:24.745304 26882 net.cpp:435] conv6_2_mbox_conf_perm <- conv6_2_mbox_conf
I0609 09:34:24.745326 26882 net.cpp:409] conv6_2_mbox_conf_perm -> conv6_2_mbox_conf_perm
I0609 09:34:24.745347 26882 layer.hpp:71] 
I0609 09:34:24.745528 26882 net.cpp:151] Setting up conv6_2_mbox_conf_perm
I0609 09:34:24.745550 26882 net.cpp:158] Top shape: 32 10 10 12 (38400)
I0609 09:34:24.745563 26882 net.cpp:166] Memory required for data: 7927289664
I0609 09:34:24.745578 26882 layer_factory.hpp:77] Creating layer conv6_2_mbox_conf_flat
I0609 09:34:24.745595 26882 net.cpp:100] Creating Layer conv6_2_mbox_conf_flat
I0609 09:34:24.745609 26882 net.cpp:435] conv6_2_mbox_conf_flat <- conv6_2_mbox_conf_perm
I0609 09:34:24.745630 26882 net.cpp:409] conv6_2_mbox_conf_flat -> conv6_2_mbox_conf_flat
I0609 09:34:24.745648 26882 layer.hpp:71] 
I0609 09:34:24.745702 26882 net.cpp:151] Setting up conv6_2_mbox_conf_flat
I0609 09:34:24.745723 26882 net.cpp:158] Top shape: 32 1200 (38400)
I0609 09:34:24.745736 26882 net.cpp:166] Memory required for data: 7927443264
I0609 09:34:24.745749 26882 layer_factory.hpp:77] Creating layer conv6_2_mbox_priorbox
I0609 09:34:24.745769 26882 net.cpp:100] Creating Layer conv6_2_mbox_priorbox
I0609 09:34:24.745784 26882 net.cpp:435] conv6_2_mbox_priorbox <- conv6_2_conv6_2_relu_0_split_3
I0609 09:34:24.745800 26882 net.cpp:435] conv6_2_mbox_priorbox <- data_data_0_split_3
I0609 09:34:24.745820 26882 net.cpp:409] conv6_2_mbox_priorbox -> conv6_2_mbox_priorbox
I0609 09:34:24.745841 26882 layer.hpp:71] 
I0609 09:34:24.745923 26882 net.cpp:151] Setting up conv6_2_mbox_priorbox
I0609 09:34:24.745952 26882 net.cpp:158] Top shape: 1 2 2400 (4800)
I0609 09:34:24.745980 26882 net.cpp:166] Memory required for data: 7927462464
I0609 09:34:24.746007 26882 layer_factory.hpp:77] Creating layer conv7_2_mbox_loc
I0609 09:34:24.746031 26882 net.cpp:100] Creating Layer conv7_2_mbox_loc
I0609 09:34:24.746047 26882 net.cpp:435] conv7_2_mbox_loc <- conv7_2_conv7_2_relu_0_split_1
I0609 09:34:24.746065 26882 net.cpp:409] conv7_2_mbox_loc -> conv7_2_mbox_loc
I0609 09:34:24.746088 26882 layer.hpp:71] 
I0609 09:34:24.749317 26882 net.cpp:151] Setting up conv7_2_mbox_loc
I0609 09:34:24.749353 26882 net.cpp:158] Top shape: 32 24 5 5 (19200)
I0609 09:34:24.749372 26882 net.cpp:166] Memory required for data: 7927539264
I0609 09:34:24.749392 26882 layer_factory.hpp:77] Creating layer conv7_2_mbox_loc_perm
I0609 09:34:24.749416 26882 net.cpp:100] Creating Layer conv7_2_mbox_loc_perm
I0609 09:34:24.749433 26882 net.cpp:435] conv7_2_mbox_loc_perm <- conv7_2_mbox_loc
I0609 09:34:24.749452 26882 net.cpp:409] conv7_2_mbox_loc_perm -> conv7_2_mbox_loc_perm
I0609 09:34:24.749475 26882 layer.hpp:71] 
I0609 09:34:24.749660 26882 net.cpp:151] Setting up conv7_2_mbox_loc_perm
I0609 09:34:24.749686 26882 net.cpp:158] Top shape: 32 5 5 24 (19200)
I0609 09:34:24.749698 26882 net.cpp:166] Memory required for data: 7927616064
I0609 09:34:24.749713 26882 layer_factory.hpp:77] Creating layer conv7_2_mbox_loc_flat
I0609 09:34:24.749729 26882 net.cpp:100] Creating Layer conv7_2_mbox_loc_flat
I0609 09:34:24.749743 26882 net.cpp:435] conv7_2_mbox_loc_flat <- conv7_2_mbox_loc_perm
I0609 09:34:24.749759 26882 net.cpp:409] conv7_2_mbox_loc_flat -> conv7_2_mbox_loc_flat
I0609 09:34:24.749779 26882 layer.hpp:71] 
I0609 09:34:24.749835 26882 net.cpp:151] Setting up conv7_2_mbox_loc_flat
I0609 09:34:24.749855 26882 net.cpp:158] Top shape: 32 600 (19200)
I0609 09:34:24.749886 26882 net.cpp:166] Memory required for data: 7927692864
I0609 09:34:24.749902 26882 layer_factory.hpp:77] Creating layer conv7_2_mbox_conf
I0609 09:34:24.749927 26882 net.cpp:100] Creating Layer conv7_2_mbox_conf
I0609 09:34:24.749943 26882 net.cpp:435] conv7_2_mbox_conf <- conv7_2_conv7_2_relu_0_split_2
I0609 09:34:24.749961 26882 net.cpp:409] conv7_2_mbox_conf -> conv7_2_mbox_conf
I0609 09:34:24.749985 26882 layer.hpp:71] 
I0609 09:34:24.752276 26882 net.cpp:151] Setting up conv7_2_mbox_conf
I0609 09:34:24.752301 26882 net.cpp:158] Top shape: 32 12 5 5 (9600)
I0609 09:34:24.752308 26882 net.cpp:166] Memory required for data: 7927731264
I0609 09:34:24.752320 26882 layer_factory.hpp:77] Creating layer conv7_2_mbox_conf_perm
I0609 09:34:24.752332 26882 net.cpp:100] Creating Layer conv7_2_mbox_conf_perm
I0609 09:34:24.752346 26882 net.cpp:435] conv7_2_mbox_conf_perm <- conv7_2_mbox_conf
I0609 09:34:24.752357 26882 net.cpp:409] conv7_2_mbox_conf_perm -> conv7_2_mbox_conf_perm
I0609 09:34:24.752372 26882 layer.hpp:71] 
I0609 09:34:24.752511 26882 net.cpp:151] Setting up conv7_2_mbox_conf_perm
I0609 09:34:24.752526 26882 net.cpp:158] Top shape: 32 5 5 12 (9600)
I0609 09:34:24.752530 26882 net.cpp:166] Memory required for data: 7927769664
I0609 09:34:24.752537 26882 layer_factory.hpp:77] Creating layer conv7_2_mbox_conf_flat
I0609 09:34:24.752552 26882 net.cpp:100] Creating Layer conv7_2_mbox_conf_flat
I0609 09:34:24.752559 26882 net.cpp:435] conv7_2_mbox_conf_flat <- conv7_2_mbox_conf_perm
I0609 09:34:24.752569 26882 net.cpp:409] conv7_2_mbox_conf_flat -> conv7_2_mbox_conf_flat
I0609 09:34:24.752585 26882 layer.hpp:71] 
I0609 09:34:24.752624 26882 net.cpp:151] Setting up conv7_2_mbox_conf_flat
I0609 09:34:24.752636 26882 net.cpp:158] Top shape: 32 300 (9600)
I0609 09:34:24.752642 26882 net.cpp:166] Memory required for data: 7927808064
I0609 09:34:24.752648 26882 layer_factory.hpp:77] Creating layer conv7_2_mbox_priorbox
I0609 09:34:24.752665 26882 net.cpp:100] Creating Layer conv7_2_mbox_priorbox
I0609 09:34:24.752676 26882 net.cpp:435] conv7_2_mbox_priorbox <- conv7_2_conv7_2_relu_0_split_3
I0609 09:34:24.752684 26882 net.cpp:435] conv7_2_mbox_priorbox <- data_data_0_split_4
I0609 09:34:24.752696 26882 net.cpp:409] conv7_2_mbox_priorbox -> conv7_2_mbox_priorbox
I0609 09:34:24.752717 26882 layer.hpp:71] 
I0609 09:34:24.752770 26882 net.cpp:151] Setting up conv7_2_mbox_priorbox
I0609 09:34:24.752784 26882 net.cpp:158] Top shape: 1 2 600 (1200)
I0609 09:34:24.752789 26882 net.cpp:166] Memory required for data: 7927812864
I0609 09:34:24.752794 26882 layer_factory.hpp:77] Creating layer conv8_2_mbox_loc
I0609 09:34:24.752813 26882 net.cpp:100] Creating Layer conv8_2_mbox_loc
I0609 09:34:24.752826 26882 net.cpp:435] conv8_2_mbox_loc <- conv8_2_conv8_2_relu_0_split_1
I0609 09:34:24.752840 26882 net.cpp:409] conv8_2_mbox_loc -> conv8_2_mbox_loc
I0609 09:34:24.752857 26882 layer.hpp:71] 
I0609 09:34:24.754899 26882 net.cpp:151] Setting up conv8_2_mbox_loc
I0609 09:34:24.754923 26882 net.cpp:158] Top shape: 32 16 3 3 (4608)
I0609 09:34:24.754931 26882 net.cpp:166] Memory required for data: 7927831296
I0609 09:34:24.754959 26882 layer_factory.hpp:77] Creating layer conv8_2_mbox_loc_perm
I0609 09:34:24.754978 26882 net.cpp:100] Creating Layer conv8_2_mbox_loc_perm
I0609 09:34:24.754986 26882 net.cpp:435] conv8_2_mbox_loc_perm <- conv8_2_mbox_loc
I0609 09:34:24.754999 26882 net.cpp:409] conv8_2_mbox_loc_perm -> conv8_2_mbox_loc_perm
I0609 09:34:24.755017 26882 layer.hpp:71] 
I0609 09:34:24.755149 26882 net.cpp:151] Setting up conv8_2_mbox_loc_perm
I0609 09:34:24.755163 26882 net.cpp:158] Top shape: 32 3 3 16 (4608)
I0609 09:34:24.755170 26882 net.cpp:166] Memory required for data: 7927849728
I0609 09:34:24.755175 26882 layer_factory.hpp:77] Creating layer conv8_2_mbox_loc_flat
I0609 09:34:24.755187 26882 net.cpp:100] Creating Layer conv8_2_mbox_loc_flat
I0609 09:34:24.755195 26882 net.cpp:435] conv8_2_mbox_loc_flat <- conv8_2_mbox_loc_perm
I0609 09:34:24.755214 26882 net.cpp:409] conv8_2_mbox_loc_flat -> conv8_2_mbox_loc_flat
I0609 09:34:24.755229 26882 layer.hpp:71] 
I0609 09:34:24.755267 26882 net.cpp:151] Setting up conv8_2_mbox_loc_flat
I0609 09:34:24.755282 26882 net.cpp:158] Top shape: 32 144 (4608)
I0609 09:34:24.755290 26882 net.cpp:166] Memory required for data: 7927868160
I0609 09:34:24.755295 26882 layer_factory.hpp:77] Creating layer conv8_2_mbox_conf
I0609 09:34:24.755313 26882 net.cpp:100] Creating Layer conv8_2_mbox_conf
I0609 09:34:24.755324 26882 net.cpp:435] conv8_2_mbox_conf <- conv8_2_conv8_2_relu_0_split_2
I0609 09:34:24.755337 26882 net.cpp:409] conv8_2_mbox_conf -> conv8_2_mbox_conf
I0609 09:34:24.755354 26882 layer.hpp:71] 
I0609 09:34:24.757316 26882 net.cpp:151] Setting up conv8_2_mbox_conf
I0609 09:34:24.757340 26882 net.cpp:158] Top shape: 32 8 3 3 (2304)
I0609 09:34:24.757347 26882 net.cpp:166] Memory required for data: 7927877376
I0609 09:34:24.757359 26882 layer_factory.hpp:77] Creating layer conv8_2_mbox_conf_perm
I0609 09:34:24.757370 26882 net.cpp:100] Creating Layer conv8_2_mbox_conf_perm
I0609 09:34:24.757377 26882 net.cpp:435] conv8_2_mbox_conf_perm <- conv8_2_mbox_conf
I0609 09:34:24.757398 26882 net.cpp:409] conv8_2_mbox_conf_perm -> conv8_2_mbox_conf_perm
I0609 09:34:24.757416 26882 layer.hpp:71] 
I0609 09:34:24.757550 26882 net.cpp:151] Setting up conv8_2_mbox_conf_perm
I0609 09:34:24.757565 26882 net.cpp:158] Top shape: 32 3 3 8 (2304)
I0609 09:34:24.757570 26882 net.cpp:166] Memory required for data: 7927886592
I0609 09:34:24.757575 26882 layer_factory.hpp:77] Creating layer conv8_2_mbox_conf_flat
I0609 09:34:24.757588 26882 net.cpp:100] Creating Layer conv8_2_mbox_conf_flat
I0609 09:34:24.757599 26882 net.cpp:435] conv8_2_mbox_conf_flat <- conv8_2_mbox_conf_perm
I0609 09:34:24.757613 26882 net.cpp:409] conv8_2_mbox_conf_flat -> conv8_2_mbox_conf_flat
I0609 09:34:24.757629 26882 layer.hpp:71] 
I0609 09:34:24.757665 26882 net.cpp:151] Setting up conv8_2_mbox_conf_flat
I0609 09:34:24.757678 26882 net.cpp:158] Top shape: 32 72 (2304)
I0609 09:34:24.757684 26882 net.cpp:166] Memory required for data: 7927895808
I0609 09:34:24.757689 26882 layer_factory.hpp:77] Creating layer conv8_2_mbox_priorbox
I0609 09:34:24.757704 26882 net.cpp:100] Creating Layer conv8_2_mbox_priorbox
I0609 09:34:24.757715 26882 net.cpp:435] conv8_2_mbox_priorbox <- conv8_2_conv8_2_relu_0_split_3
I0609 09:34:24.757725 26882 net.cpp:435] conv8_2_mbox_priorbox <- data_data_0_split_5
I0609 09:34:24.757755 26882 net.cpp:409] conv8_2_mbox_priorbox -> conv8_2_mbox_priorbox
I0609 09:34:24.757772 26882 layer.hpp:71] 
I0609 09:34:24.757813 26882 net.cpp:151] Setting up conv8_2_mbox_priorbox
I0609 09:34:24.757827 26882 net.cpp:158] Top shape: 1 2 144 (288)
I0609 09:34:24.757832 26882 net.cpp:166] Memory required for data: 7927896960
I0609 09:34:24.757836 26882 layer_factory.hpp:77] Creating layer conv9_2_mbox_loc
I0609 09:34:24.757855 26882 net.cpp:100] Creating Layer conv9_2_mbox_loc
I0609 09:34:24.757895 26882 net.cpp:435] conv9_2_mbox_loc <- conv9_2_conv9_2_relu_0_split_0
I0609 09:34:24.757908 26882 net.cpp:409] conv9_2_mbox_loc -> conv9_2_mbox_loc
I0609 09:34:24.757925 26882 layer.hpp:71] 
I0609 09:34:24.759980 26882 net.cpp:151] Setting up conv9_2_mbox_loc
I0609 09:34:24.760004 26882 net.cpp:158] Top shape: 32 16 1 1 (512)
I0609 09:34:24.760010 26882 net.cpp:166] Memory required for data: 7927899008
I0609 09:34:24.760021 26882 layer_factory.hpp:77] Creating layer conv9_2_mbox_loc_perm
I0609 09:34:24.760035 26882 net.cpp:100] Creating Layer conv9_2_mbox_loc_perm
I0609 09:34:24.760048 26882 net.cpp:435] conv9_2_mbox_loc_perm <- conv9_2_mbox_loc
I0609 09:34:24.760061 26882 net.cpp:409] conv9_2_mbox_loc_perm -> conv9_2_mbox_loc_perm
I0609 09:34:24.760079 26882 layer.hpp:71] 
I0609 09:34:24.760215 26882 net.cpp:151] Setting up conv9_2_mbox_loc_perm
I0609 09:34:24.760229 26882 net.cpp:158] Top shape: 32 1 1 16 (512)
I0609 09:34:24.760234 26882 net.cpp:166] Memory required for data: 7927901056
I0609 09:34:24.760239 26882 layer_factory.hpp:77] Creating layer conv9_2_mbox_loc_flat
I0609 09:34:24.760251 26882 net.cpp:100] Creating Layer conv9_2_mbox_loc_flat
I0609 09:34:24.760264 26882 net.cpp:435] conv9_2_mbox_loc_flat <- conv9_2_mbox_loc_perm
I0609 09:34:24.760273 26882 net.cpp:409] conv9_2_mbox_loc_flat -> conv9_2_mbox_loc_flat
I0609 09:34:24.760287 26882 layer.hpp:71] 
I0609 09:34:24.760332 26882 net.cpp:151] Setting up conv9_2_mbox_loc_flat
I0609 09:34:24.760345 26882 net.cpp:158] Top shape: 32 16 (512)
I0609 09:34:24.760350 26882 net.cpp:166] Memory required for data: 7927903104
I0609 09:34:24.760355 26882 layer_factory.hpp:77] Creating layer conv9_2_mbox_conf
I0609 09:34:24.760372 26882 net.cpp:100] Creating Layer conv9_2_mbox_conf
I0609 09:34:24.760383 26882 net.cpp:435] conv9_2_mbox_conf <- conv9_2_conv9_2_relu_0_split_1
I0609 09:34:24.760397 26882 net.cpp:409] conv9_2_mbox_conf -> conv9_2_mbox_conf
I0609 09:34:24.760416 26882 layer.hpp:71] 
I0609 09:34:24.762400 26882 net.cpp:151] Setting up conv9_2_mbox_conf
I0609 09:34:24.762426 26882 net.cpp:158] Top shape: 32 8 1 1 (256)
I0609 09:34:24.762431 26882 net.cpp:166] Memory required for data: 7927904128
I0609 09:34:24.762442 26882 layer_factory.hpp:77] Creating layer conv9_2_mbox_conf_perm
I0609 09:34:24.762456 26882 net.cpp:100] Creating Layer conv9_2_mbox_conf_perm
I0609 09:34:24.762470 26882 net.cpp:435] conv9_2_mbox_conf_perm <- conv9_2_mbox_conf
I0609 09:34:24.762480 26882 net.cpp:409] conv9_2_mbox_conf_perm -> conv9_2_mbox_conf_perm
I0609 09:34:24.762495 26882 layer.hpp:71] 
I0609 09:34:24.762637 26882 net.cpp:151] Setting up conv9_2_mbox_conf_perm
I0609 09:34:24.762652 26882 net.cpp:158] Top shape: 32 1 1 8 (256)
I0609 09:34:24.762657 26882 net.cpp:166] Memory required for data: 7927905152
I0609 09:34:24.762662 26882 layer_factory.hpp:77] Creating layer conv9_2_mbox_conf_flat
I0609 09:34:24.762671 26882 net.cpp:100] Creating Layer conv9_2_mbox_conf_flat
I0609 09:34:24.762686 26882 net.cpp:435] conv9_2_mbox_conf_flat <- conv9_2_mbox_conf_perm
I0609 09:34:24.762704 26882 net.cpp:409] conv9_2_mbox_conf_flat -> conv9_2_mbox_conf_flat
I0609 09:34:24.762719 26882 layer.hpp:71] 
I0609 09:34:24.762759 26882 net.cpp:151] Setting up conv9_2_mbox_conf_flat
I0609 09:34:24.762773 26882 net.cpp:158] Top shape: 32 8 (256)
I0609 09:34:24.762778 26882 net.cpp:166] Memory required for data: 7927906176
I0609 09:34:24.762783 26882 layer_factory.hpp:77] Creating layer conv9_2_mbox_priorbox
I0609 09:34:24.762792 26882 net.cpp:100] Creating Layer conv9_2_mbox_priorbox
I0609 09:34:24.762815 26882 net.cpp:435] conv9_2_mbox_priorbox <- conv9_2_conv9_2_relu_0_split_2
I0609 09:34:24.762825 26882 net.cpp:435] conv9_2_mbox_priorbox <- data_data_0_split_6
I0609 09:34:24.762838 26882 net.cpp:409] conv9_2_mbox_priorbox -> conv9_2_mbox_priorbox
I0609 09:34:24.762856 26882 layer.hpp:71] 
I0609 09:34:24.762900 26882 net.cpp:151] Setting up conv9_2_mbox_priorbox
I0609 09:34:24.762913 26882 net.cpp:158] Top shape: 1 2 16 (32)
I0609 09:34:24.762917 26882 net.cpp:166] Memory required for data: 7927906304
I0609 09:34:24.762923 26882 layer_factory.hpp:77] Creating layer mbox_loc
I0609 09:34:24.762935 26882 net.cpp:100] Creating Layer mbox_loc
I0609 09:34:24.762948 26882 net.cpp:435] mbox_loc <- conv4_3_norm_mbox_loc_flat
I0609 09:34:24.762956 26882 net.cpp:435] mbox_loc <- fc7_mbox_loc_flat
I0609 09:34:24.762966 26882 net.cpp:435] mbox_loc <- conv6_2_mbox_loc_flat
I0609 09:34:24.762976 26882 net.cpp:435] mbox_loc <- conv7_2_mbox_loc_flat
I0609 09:34:24.762984 26882 net.cpp:435] mbox_loc <- conv8_2_mbox_loc_flat
I0609 09:34:24.762990 26882 net.cpp:435] mbox_loc <- conv9_2_mbox_loc_flat
I0609 09:34:24.763005 26882 net.cpp:409] mbox_loc -> mbox_loc
I0609 09:34:24.763026 26882 layer.hpp:71] 
I0609 09:34:24.763067 26882 net.cpp:151] Setting up mbox_loc
I0609 09:34:24.763083 26882 net.cpp:158] Top shape: 32 34928 (1117696)
I0609 09:34:24.763089 26882 net.cpp:166] Memory required for data: 7932377088
I0609 09:34:24.763095 26882 layer_factory.hpp:77] Creating layer mbox_conf
I0609 09:34:24.763106 26882 net.cpp:100] Creating Layer mbox_conf
I0609 09:34:24.763114 26882 net.cpp:435] mbox_conf <- conv4_3_norm_mbox_conf_flat
I0609 09:34:24.763123 26882 net.cpp:435] mbox_conf <- fc7_mbox_conf_flat
I0609 09:34:24.763133 26882 net.cpp:435] mbox_conf <- conv6_2_mbox_conf_flat
I0609 09:34:24.763141 26882 net.cpp:435] mbox_conf <- conv7_2_mbox_conf_flat
I0609 09:34:24.763147 26882 net.cpp:435] mbox_conf <- conv8_2_mbox_conf_flat
I0609 09:34:24.763155 26882 net.cpp:435] mbox_conf <- conv9_2_mbox_conf_flat
I0609 09:34:24.763169 26882 net.cpp:409] mbox_conf -> mbox_conf
I0609 09:34:24.763183 26882 layer.hpp:71] 
I0609 09:34:24.763222 26882 net.cpp:151] Setting up mbox_conf
I0609 09:34:24.763234 26882 net.cpp:158] Top shape: 32 17464 (558848)
I0609 09:34:24.763240 26882 net.cpp:166] Memory required for data: 7934612480
I0609 09:34:24.763245 26882 layer_factory.hpp:77] Creating layer mbox_priorbox
I0609 09:34:24.763257 26882 net.cpp:100] Creating Layer mbox_priorbox
I0609 09:34:24.763264 26882 net.cpp:435] mbox_priorbox <- conv4_3_norm_mbox_priorbox
I0609 09:34:24.763273 26882 net.cpp:435] mbox_priorbox <- fc7_mbox_priorbox
I0609 09:34:24.763281 26882 net.cpp:435] mbox_priorbox <- conv6_2_mbox_priorbox
I0609 09:34:24.763289 26882 net.cpp:435] mbox_priorbox <- conv7_2_mbox_priorbox
I0609 09:34:24.763295 26882 net.cpp:435] mbox_priorbox <- conv8_2_mbox_priorbox
I0609 09:34:24.763303 26882 net.cpp:435] mbox_priorbox <- conv9_2_mbox_priorbox
I0609 09:34:24.763312 26882 net.cpp:409] mbox_priorbox -> mbox_priorbox
I0609 09:34:24.763329 26882 layer.hpp:71] 
I0609 09:34:24.763370 26882 net.cpp:151] Setting up mbox_priorbox
I0609 09:34:24.763383 26882 net.cpp:158] Top shape: 1 2 34928 (69856)
I0609 09:34:24.763388 26882 net.cpp:166] Memory required for data: 7934891904
I0609 09:34:24.763393 26882 layer_factory.hpp:77] Creating layer mbox_loss
I0609 09:34:24.763414 26882 net.cpp:100] Creating Layer mbox_loss
I0609 09:34:24.763425 26882 net.cpp:435] mbox_loss <- mbox_loc
I0609 09:34:24.763432 26882 net.cpp:435] mbox_loss <- mbox_conf
I0609 09:34:24.763442 26882 net.cpp:435] mbox_loss <- mbox_priorbox
…
  name: "data"
  type: "AnnotatedData"
  top: "data"
  top: "label"
  include {
    phase: TEST
  }
  transform_param {
    mean_value: 114
    mean_value: 114
    mean_value: 114
    resize_param {
      prob: 1
      resize_mode: WARP
      height: 300
      width: 300
      interp_mode: LINEAR
    }
  }
  data_param {
    source: "examples/grayscale_tbs_v2.0/grayscale_tbs_v2.0_test_lmdb"
    batch_size: 4
    backend: LMDB
  }
  annotated_data_param {
    batch_sampler {
    }
    label_map_file: "data/grayscale_tbs_v2.0/labelmap_voc.prototxt"
  }
}
layer {
  name: "conv1_1"
  type: "Convolution"
  bottom: "data"
  top: "conv1_1"
  param {
    lr_mult: 1
    decay_mult: 1
  }
  param {
    lr_mult: 2
    decay_mult: 0
  }
  convolution_param {
    num_output: 64
    pad: 1
    kernel_size: 3
    weight_filler {
      type: "xavier"
    }
    bias_filler {
      type: "constant"
      value: 0
    }
  }
}
layer {
  name: "relu1_1"
  type: "ReLU"
  bottom: "conv1_1"
  top: "conv1_1"
}
layer {
  name: "conv1_2"
  type: "Convolution"
  bottom: "conv1_1"
  top: "conv1_2"
  param {
    lr_mult: 1
    decay_mult: 1
  }
  param {
    lr_mult: 2
    decay_mult: 0
  }
  convolution_param {
    num_output: 64
    pad: 1
    kernel_size: 3
    weight_filler {
      type: "xavier"
    }
    bias_filler {
      type: "constant"
      value: 0
    }
  }
}
layer {
  name: "relu1_2"
  type: "ReLU"
  bottom: "conv1_2"
  top: "conv1_2"
}
layer {
  name: "pool1"
  type: "Pooling"
  bottom: "conv1_2"
  top: "pool1"
  pooling_param {
    pool: MAX
    kernel_size: 2
    stride: 2
  }
}
layer {
  name: "conv2_1"
  type: "Convolution"
  bottom: "pool1"
  top: "conv2_1"
  param {
    lr_mult: 1
    decay_mult: 1
  }
  param {
    lr_mult: 2
    decay_mult: 0
  }
  convolution_param {
    num_output: 128
    pad: 1
    kernel_size: 3
    weight_filler {
      type: "xavier"
    }
    bias_filler {
      type: "constant"
      value: 0
    }
  }
}
layer {
  name: "relu2_1"
  type: "ReLU"
  bottom: "conv2_1"
  top: "conv2_1"
}
layer {
  name: "conv2_2"
  type: "Convolution"
  bottom: "conv2_1"
  top: "conv2_2"
  param {
    lr_mult: 1
    decay_mult: 1
  }
  param {
    lr_mult: 2
    decay_mult: 0
  }
  convolution_param {
    num_output: 128
    pad: 1
    kernel_size: 3
    weight_filler {
      type: "xavier"
    }
    bias_filler {
      type: "constant"
      value: 0
    }
  }
}
layer {
  name: "relu2_2"
  type: "ReLU"
  bottom: "conv2_2"
  top: "conv2_2"
}
layer {
  name: "pool2"
  type: "Pooling"
  bottom: "conv2_2"
  top: "pool2"
  pooling_param {
    pool: MAX
    kernel_size: 2
    stride: 2
  }
}
layer {
  name: "conv3_1"
  type: "Convolution"
  bottom: "pool2"
  top: "conv3_1"
  param {
    lr_mult: 1
    decay_mult: 1
  }
  param {
    lr_mult: 2
    decay_mult: 0
  }
  convolution_param {
    num_output: 256
    pad: 1
    kernel_size: 3
    weight_filler {
      type: "xavier"
    }
    bias_filler {
      type: "constant"
      value: 0
    }
  }
}
layer {
  name: "relu3_1"
  type: "ReLU"
  bottom: "conv3_1"
  top: "conv3_1"
}
layer {
  name: "conv3_2"
  type: "Convolution"
  bottom: "conv3_1"
  top: "conv3_2"
  param {
    lr_mult: 1
    decay_mult: 1
  }
  param {
    lr_mult: 2
    decay_mult: 0
  }
  convolution_param {
    num_output: 256
    pad: 1
    kernel_size: 3
    weight_filler {
      type: "xavier"
    }
    bias_filler {
      type: "constant"
      value: 0
    }
  }
}
layer {
  name: "relu3_2"
  type: "ReLU"
  bottom: "conv3_2"
  top: "conv3_2"
}
layer {
  name: "conv3_3"
  type: "Convolution"
  bottom: "conv3_2"
  top: "conv3_3"
  param {
    lr_mult: 1
    decay_mult: 1
  }
  param {
    lr_mult: 2
    decay_mult: 0
  }
  convolution_param {
    num_output: 256
    pad: 1
    kernel_size: 3
    weight_filler {
      type: "xavier"
    }
    bias_filler {
      type: "constant"
      value: 0
    }
  }
}
layer {
  name: "relu3_3"
  type: "ReLU"
  bottom: "conv3_3"
  top: "conv3_3"
}
layer {
  name: "pool3"
  type: "Pooling"
  bottom: "conv3_3"
  top: "pool3"
  pooling_param {
    pool: MAX
    kernel_size: 2
    stride: 2
  }
}
layer {
  name: "conv4_1"
  type: "Convolution"
  bottom: "pool3"
  top: "conv4_1"
  param {
    lr_mult: 1
    decay_mult: 1
  }
  param {
    lr_mult: 2
    decay_mult: 0
  }
  convolution_param {
    num_output: 512
    pad: 1
    kernel_size: 3
    weight_filler {
      type: "xavier"
    }
    bias_filler {
      type: "constant"
      value: 0
    }
  }
}
layer {
  name: "relu4_1"
  type: "ReLU"
  bottom: "conv4_1"
  top: "conv4_1"
}
layer {
  name: "conv4_2"
  type: "Convolution"
  bottom: "conv4_1"
  top: "conv4_2"
  param {
    lr_mult: 1
    decay_mult: 1
  }
  param {
    lr_mult: 2
    decay_mult: 0
  }
  convolution_param {
    num_output: 512
    pad: 1
    kernel_size: 3
    weight_filler {
      type: "xavier"
    }
    bias_filler {
      type: "constant"
      value: 0
    }
  }
}
layer {
  name: "relu4_2"
  type: "ReLU"
  bottom: "conv4_2"
  top: "conv4_2"
}
layer {
  name: "conv4_3"
  type: "Convolution"
  bottom: "conv4_2"
  top: "conv4_3"
  param {
    lr_mult: 1
    decay_mult: 1
  }
  param {
    lr_mult: 2
    decay_mult: 0
  }
  convolution_param {
    num_output: 512
    pad: 1
    kernel_size: 3
    weight_filler {
      type: "xavier"
    }
    bias_filler {
      type: "constant"
      value: 0
    }
  }
}
layer {
  name: "relu4_3"
  type: "ReLU"
  bottom: "conv4_3"
  top: "conv4_3"
}
layer {
  name: "pool4"
  type: "Pooling"
  bottom: "conv4_3"
  top: "pool4"
  pooling_param {
    pool: MAX
    kernel_size: 2
    stride: 2
  }
}
layer {
  name: "conv5_1"
  type: "Convolution"
  bottom: "pool4"
  top: "conv5_1"
  param {
    lr_mult: 1
    decay_mult: 1
  }
  param {
    lr_mult: 2
    decay_mult: 0
  }
  convolution_param {
    num_output: 512
    pad: 1
    kernel_size: 3
    weight_filler {
      type: "xavier"
    }
    bias_filler {
      type: "constant"
      value: 0
    }
    dilation: 1
  }
}
layer {
  name: "relu5_1"
  type: "ReLU"
  bottom: "conv5_1"
  top: "conv5_1"
}
layer {
  name: "conv5_2"
  type: "Convolution"
  bottom: "conv5_1"
  top: "conv5_2"
  param {
    lr_mult: 1
    decay_mult: 1
  }
  param {
    lr_mult: 2
    decay_mult: 0
  }
  convolution_param {
    num_output: 512
    pad: 1
    kernel_size: 3
    weight_filler {
      type: "xavier"
    }
    bias_filler {
      type: "constant"
      value: 0
    }
    dilation: 1
  }
}
layer {
  name: "relu5_2"
  type: "ReLU"
  bottom: "conv5_2"
  top: "conv5_2"
}
layer {
  name: "conv5_3"
  type: "Convolution"
  bottom: "conv5_2"
  top: "conv5_3"
  param {
    lr_mult: 1
    decay_mult: 1
  }
  param {
    lr_mult: 2
    decay_mult: 0
  }
  convolution_param {
    num_output: 512
    pad: 1
    kernel_size: 3
    weight_filler {
      type: "xavier"
    }
    bias_filler {
      type: "constant"
      value: 0
    }
    dilation: 1
  }
}
layer {
  name: "relu5_3"
  type: "ReLU"
  bottom: "conv5_3"
  top: "conv5_3"
}
layer {
  name: "pool5"
  type: "Pooling"
  bottom: "conv5_3"
  top: "pool5"
  pooling_param {
    pool: MAX
    kernel_size: 3
    stride: 1
    pad: 1
  }
}
layer {
  name: "fc6"
  type: "Convolution"
  bottom: "pool5"
  top: "fc6"
  param {
    lr_mult: 1
    decay_mult: 1
  }
  param {
    lr_mult: 2
    decay_mult: 0
  }
  convolution_param {
    num_output: 1024
    pad: 6
    kernel_size: 3
    weight_filler {
      type: "xavier"
    }
    bias_filler {
      type: "constant"
      value: 0
    }
    dilation: 6
  }
}
layer {
  name: "relu6"
  type: "ReLU"
  bottom: "fc6"
  top: "fc6"
}
layer {
  name: "fc7"
  type: "Convolution"
  bottom: "fc6"
  top: "fc7"
  param {
    lr_mult: 1
    decay_mult: 1
  }
  param {
    lr_mult: 2
    decay_mult: 0
  }
  convolution_param {
    num_output: 1024
    kernel_size: 1
    weight_filler {
      type: "xavier"
    }
    bias_filler {
      type: "constant"
      value: 0
    }
  }
}
layer {
  name: "relu7"
  type: "ReLU"
  bottom: "fc7"
  top: "fc7"
}
layer {
  name: "conv6_1"
  type: "Convolution"
  bottom: "fc7"
  top: "conv6_1"
  param {
    lr_mult: 1
    decay_mult: 1
  }
  param {
    lr_mult: 2
    decay_mult: 0
  }
  convolution_param {
    num_output: 256
    pad: 0
    kernel_size: 1
    stride: 1
    weight_filler {
      type: "xavier"
    }
    bias_filler {
      type: "constant"
      value: 0
    }
  }
}
layer {
  name: "conv6_1_relu"
  type: "ReLU"
  bottom: "conv6_1"
  top: "conv6_1"
}
layer {
  name: "conv6_2"
  type: "Convolution"
  bottom: "conv6_1"
  top: "conv6_2"
  param {
    lr_mult: 1
    decay_mult: 1
  }
  param {
    lr_mult: 2
    decay_mult: 0
  }
  convolution_param {
    num_output: 512
    pad: 1
    kernel_size: 3
    stride: 2
    weight_filler {
      type: "xavier"
    }
    bias_filler {
      type: "constant"
      value: 0
    }
  }
}
layer {
  name: "conv6_2_relu"
  type: "ReLU"
  bottom: "conv6_2"
  top: "conv6_2"
}
layer {
  name: "conv7_1"
  type: "Convolution"
  bottom: "conv6_2"
  top: "conv7_1"
  param {
    lr_mult: 1
    decay_mult: 1
  }
  param {
    lr_mult: 2
    decay_mult: 0
  }
  convolution_param {
    num_output: 128
    pad: 0
    kernel_size: 1
    stride: 1
    weight_filler {
      type: "xavier"
    }
    bias_filler {
      type: "constant"
      value: 0
    }
  }
}
layer {
  name: "conv7_1_relu"
  type: "ReLU"
  bottom: "conv7_1"
  top: "conv7_1"
}
layer {
  name: "conv7_2"
  type: "Convolution"
  bottom: "conv7_1"
  top: "conv7_2"
  param {
    lr_mult: 1
    decay_mult: 1
  }
  param {
    lr_mult: 2
    decay_mult: 0
  }
  convolution_param {
    num_output: 256
    pad: 1
    kernel_size: 3
    stride: 2
    weight_filler {
      type: "xavier"
    }
    bias_filler {
      type: "constant"
      value: 0
    }
  }
}
layer {
  name: "conv7_2_relu"
  type: "ReLU"
  bottom: "conv7_2"
  top: "conv7_2"
}
layer {
  name: "conv8_1"
  type: "Convolution"
  bottom: "conv7_2"
  top: "conv8_1"
  param {
    lr_mult: 1
    decay_mult: 1
  }
  param {
    lr_mult: 2
    decay_mult: 0
  }
  convolution_param {
    num_output: 128
    pad: 0
    kernel_size: 1
    stride: 1
    weight_filler {
      type: "xavier"
    }
    bias_filler {
      type: "constant"
      value: 0
    }
  }
}
layer {
  name: "conv8_1_relu"
  type: "ReLU"
  bottom: "conv8_1"
  top: "conv8_1"
}
layer {
  name: "conv8_2"
  type: "Convolution"
  bottom: "conv8_1"
  top: "conv8_2"
  param {
    lr_mult: 1
    decay_mult: 1
  }
  param {
    lr_mult: 2
    decay_mult: 0
  }
  convolution_param {
    num_output: 256
    pad: 0
    kernel_size: 3
    stride: 1
    weight_filler {
      type: "xavier"
    }
    bias_filler {
      type: "constant"
      value: 0
    }
  }
}
layer {
  name: "conv8_2_relu"
  type: "ReLU"
  bottom: "conv8_2"
  top: "conv8_2"
}
layer {
  name: "conv9_1"
  type: "Convolution"
  bottom: "conv8_2"
  top: "conv9_1"
  param {
    lr_mult: 1
    decay_mult: 1
  }
  param {
    lr_mult: 2
    decay_mult: 0
  }
  convolution_param {
    num_output: 128
    pad: 0
    kernel_size: 1
    stride: 1
    weight_filler {
      type: "xavier"
    }
    bias_filler {
      type: "constant"
      value: 0
    }
  }
}
layer {
  name: "conv9_1_relu"
  type: "ReLU"
  bottom: "conv9_1"
  top: "conv9_1"
}
layer {
  name: "conv9_2"
  type: "Convolution"
  bottom: "conv9_1"
  top: "conv9_2"
  param {
    lr_mult: 1
    decay_mult: 1
  }
  param {
    lr_mult: 2
    decay_mult: 0
  }
  convolution_param {
    num_output: 256
    pad: 0
    kernel_size: 3
    stride: 1
    weight_filler {
      type: "xavier"
    }
    bias_filler {
      type: "constant"
      value: 0
    }
  }
}
layer {
  name: "conv9_2_relu"
  type: "ReLU"
  bottom: "conv9_2"
  top: "conv9_2"
}
layer {
  name: "conv4_3_norm"
  type: "Normalize"
  bottom: "conv4_3"
  top: "conv4_3_norm"
  norm_param {
    across_spatial: false
    scale_filler {
      type: "constant"
      value: 20
    }
    channel_shared: false
  }
}
layer {
  name: "conv4_3_norm_mbox_loc"
  type: "Convolution"
  bottom: "conv4_3_norm"
  top: "conv4_3_norm_mbox_loc"
  param {
    lr_mult: 1
    decay_mult: 1
  }
  param {
    lr_mult: 2
    decay_mult: 0
  }
  convolution_param {
    num_output: 16
    pad: 1
    kernel_size: 3
    stride: 1
    weight_filler {
      type: "xavier"
    }
    bias_filler {
      type: "constant"
      value: 0
    }
  }
}
layer {
  name: "conv4_3_norm_mbox_loc_perm"
  type: "Permute"
  bottom: "conv4_3_norm_mbox_loc"
  top: "conv4_3_norm_mbox_loc_perm"
  permute_param {
    order: 0
    order: 2
    order: 3
    order: 1
  }
}
layer {
  name: "conv4_3_norm_mbox_loc_flat"
  type: "Flatten"
  bottom: "conv4_3_norm_mbox_loc_perm"
  top: "conv4_3_norm_mbox_loc_flat"
  flatten_param {
    axis: 1
  }
}
layer {
  name: "conv4_3_norm_mbox_conf"
  type: "Convolution"
  bottom: "conv4_3_norm"
  top: "conv4_3_norm_mbox_conf"
  param {
    lr_mult: 1
    decay_mult: 1
  }
  param {
    lr_mult: 2
    decay_mult: 0
  }
  convolution_param {
    num_output: 8
    pad: 1
    kernel_size: 3
    stride: 1
    weight_filler {
      type: "xavier"
    }
    bias_filler {
      type: "constant"
      value: 0
    }
  }
}
layer {
  name: "conv4_3_norm_mbox_conf_perm"
  type: "Permute"
  bottom: "conv4_3_norm_mbox_conf"
  top: "conv4_3_norm_mbox_conf_perm"
  permute_param {
    order: 0
    order: 2
    order: 3
    order: 1
  }
}
layer {
  name: "conv4_3_norm_mbox_conf_flat"
  type: "Flatten"
  bottom: "conv4_3_norm_mbox_conf_perm"
  top: "conv4_3_norm_mbox_conf_flat"
  flatten_param {
    axis: 1
  }
}
layer {
  name: "conv4_3_norm_mbox_priorbox"
  type: "PriorBox"
  bottom: "conv4_3_norm"
  bottom: "data"
  top: "conv4_3_norm_mbox_priorbox"
  prior_box_param {
    min_size: 30
    max_size: 60
    aspect_ratio: 2
    flip: true
    clip: false
    variance: 0.1
    variance: 0.1
    variance: 0.2
    variance: 0.2
    step: 8
    offset: 0.5
  }
}
layer {
  name: "fc7_mbox_loc"
  type: "Convolution"
  bottom: "fc7"
  top: "fc7_mbox_loc"
  param {
    lr_mult: 1
    decay_mult: 1
  }
  param {
    lr_mult: 2
    decay_mult: 0
  }
  convolution_param {
    num_output: 24
    pad: 1
    kernel_size: 3
    stride: 1
    weight_filler {
      type: "xavier"
    }
    bias_filler {
      type: "constant"
      value: 0
    }
  }
}
layer {
  name: "fc7_mbox_loc_perm"
  type: "Permute"
  bottom: "fc7_mbox_loc"
  top: "fc7_mbox_loc_perm"
  permute_param {
    order: 0
    order: 2
    order: 3
    order: 1
  }
}
layer {
  name: "fc7_mbox_loc_flat"
  type: "Flatten"
  bottom: "fc7_mbox_loc_perm"
  top: "fc7_mbox_loc_flat"
  flatten_param {
    axis: 1
  }
}
layer {
  name: "fc7_mbox_conf"
  type: "Convolution"
  bottom: "fc7"
  top: "fc7_mbox_conf"
  param {
    lr_mult: 1
    decay_mult: 1
  }
  param {
    lr_mult: 2
    decay_mult: 0
  }
  convolution_param {
    num_output: 12
    pad: 1
    kernel_size: 3
    stride: 1
    weight_filler {
      type: "xavier"
    }
    bias_filler {
      type: "constant"
      value: 0
    }
  }
}
layer {
  name: "fc7_mbox_conf_perm"
  type: "Permute"
  bottom: "fc7_mbox_conf"
  top: "fc7_mbox_conf_perm"
  permute_param {
    order: 0
    order: 2
    order: 3
    order: 1
  }
}
layer {
  name: "fc7_mbox_conf_flat"
  type: "Flatten"
  bottom: "fc7_mbox_conf_perm"
  top: "fc7_mbox_conf_flat"
  flatten_param {
    axis: 1
  }
}
layer {
  name: "fc7_mbox_priorbox"
  type: "PriorBox"
  bottom: "fc7"
  bottom: "data"
  top: "fc7_mbox_priorbox"
  prior_box_param {
    min_size: 60
    max_size: 111
    aspect_ratio: 2
    aspect_ratio: 3
    flip: true
    clip: false
    variance: 0.1
    variance: 0.1
    variance: 0.2
    variance: 0.2
    step: 16
    offset: 0.5
  }
}
layer {
  name: "conv6_2_mbox_loc"
  type: "Convolution"
  bottom: "conv6_2"
  top: "conv6_2_mbox_loc"
  param {
    lr_mult: 1
    decay_mult: 1
  }
  param {
    lr_mult: 2
    decay_mult: 0
  }
  convolution_param {
    num_output: 24
    pad: 1
    kernel_size: 3
    stride: 1
    weight_filler {
      type: "xavier"
    }
    bias_filler {
      type: "constant"
      value: 0
    }
  }
}
layer {
  name: "conv6_2_mbox_loc_perm"
  type: "Permute"
  bottom: "conv6_2_mbox_loc"
  top: "conv6_2_mbox_loc_perm"
  permute_param {
    order: 0
    order: 2
    order: 3
    order: 1
  }
}
layer {
  name: "conv6_2_mbox_loc_flat"
  type: "Flatten"
  bottom: "conv6_2_mbox_loc_perm"
  top: "conv6_2_mbox_loc_flat"
  flatten_param {
    axis: 1
  }
}
layer {
  name: "conv6_2_mbox_conf"
  type: "Convolution"
  bottom: "conv6_2"
  top: "conv6_2_mbox_conf"
  param {
    lr_mult: 1
    decay_mult: 1
  }
  param {
    lr_mult: 2
    decay_mult: 0
  }
  convolution_param {
    num_output: 12
    pad: 1
    kernel_size: 3
    stride: 1
    weight_filler {
      type: "xavier"
    }
    bias_filler {
      type: "constant"
      value: 0
    }
  }
}
layer {
  name: "conv6_2_mbox_conf_perm"
  type: "Permute"
  bottom: "conv6_2_mbox_conf"
  top: "conv6_2_mbox_conf_perm"
  permute_param {
    order: 0
    order: 2
    order: 3
    order: 1
  }
}
layer {
  name: "conv6_2_mbox_conf_flat"
  type: "Flatten"
  bottom: "conv6_2_mbox_conf_perm"
  top: "conv6_2_mbox_conf_flat"
  flatten_param {
    axis: 1
  }
}
layer {
  name: "conv6_2_mbox_priorbox"
  type: "PriorBox"
  bottom: "conv6_2"
  bottom: "data"
  top: "conv6_2_mbox_priorbox"
  prior_box_param {
    min_size: 111
    max_size: 162
    aspect_ratio: 2
    aspect_ratio: 3
    flip: true
    clip: false
    variance: 0.1
    variance: 0.1
    variance: 0.2
    variance: 0.2
    step: 32
    offset: 0.5
  }
}
layer {
  name: "conv7_2_mbox_loc"
  type: "Convolution"
  bottom: "conv7_2"
  top: "conv7_2_mbox_loc"
  param {
    lr_mult: 1
    decay_mult: 1
  }
  param {
    lr_mult: 2
    decay_mult: 0
  }
  convolution_param {
    num_output: 24
    pad: 1
    kernel_size: 3
    stride: 1
    weight_filler {
      type: "xavier"
    }
    bias_filler {
      type: "constant"
      value: 0
    }
  }
}
layer {
  name: "conv7_2_mbox_loc_perm"
  type: "Permute"
  bottom: "conv7_2_mbox_loc"
  top: "conv7_2_mbox_loc_perm"
  permute_param {
    order: 0
    order: 2
    order: 3
    order: 1
  }
}
layer {
  name: "conv7_2_mbox_loc_flat"
  type: "Flatten"
  bottom: "conv7_2_mbox_loc_perm"
  top: "conv7_2_mbox_loc_flat"
  flatten_param {
    axis: 1
  }
}
layer {
  name: "conv7_2_mbox_conf"
  type: "Convolution"
  bottom: "conv7_2"
  top: "conv7_2_mbox_conf"
  param {
    lr_mult: 1
    decay_mult: 1
  }
  param {
    lr_mult: 2
    decay_mult: 0
  }
  convolution_param {
    num_output: 12
    pad: 1
    kernel_size: 3
    stride: 1
    weight_filler {
      type: "xavier"
    }
    bias_filler {
      type: "constant"
      value: 0
    }
  }
}
layer {
  name: "conv7_2_mbox_conf_perm"
  type: "Permute"
  bottom: "conv7_2_mbox_conf"
  top: "conv7_2_mbox_conf_perm"
  permute_param {
    order: 0
    order: 2
    order: 3
    order: 1
  }
}
layer {
  name: "conv7_2_mbox_conf_flat"
  type: "Flatten"
  bottom: "conv7_2_mbox_conf_perm"
  top: "conv7_2_mbox_conf_flat"
  flatten_param {
    axis: 1
  }
}
layer {
  name: "conv7_2_mbox_priorbox"
  type: "PriorBox"
  bottom: "conv7_2"
  bottom: "data"
  top: "conv7_2_mbox_priorbox"
  prior_box_param {
    min_size: 162
    max_size: 213
    aspect_ratio: 2
    aspect_ratio: 3
    flip: true
    clip: false
    variance: 0.1
    variance: 0.1
    variance: 0.2
    variance: 0.2
    step: 64
    offset: 0.5
  }
}
layer {
  name: "conv8_2_mbox_loc"
  type: "Convolution"
  bottom: "conv8_2"
  top: "conv8_2_mbox_loc"
  param {
    lr_mult: 1
    decay_mult: 1
  }
  param {
    lr_mult: 2
    decay_mult: 0
  }
  convolution_param {
    num_output: 16
    pad: 1
    kernel_size: 3
    stride: 1
    weight_filler {
      type: "xavier"
    }
    bias_filler {
      type: "constant"
      value: 0
    }
  }
}
layer {
  name: "conv8_2_mbox_loc_perm"
  type: "Permute"
  bottom: "conv8_2_mbox_loc"
  top: "conv8_2_mbox_loc_perm"
  permute_param {
    order: 0
    order: 2
    order: 3
    order: 1
  }
}
layer {
  name: "conv8_2_mbox_loc_flat"
  type: "Flatten"
  bottom: "conv8_2_mbox_loc_perm"
  top: "conv8_2_mbox_loc_flat"
  flatten_param {
    axis: 1
  }
}
layer {
  name: "conv8_2_mbox_conf"
  type: "Convolution"
  bottom: "conv8_2"
  top: "conv8_2_mbox_conf"
  param {
    lr_mult: 1
    decay_mult: 1
  }
  param {
    lr_mult: 2
    decay_mult: 0
  }
  convolution_param {
    num_output: 8
    pad: 1
    kernel_size: 3
    stride: 1
    weight_filler {
      type: "xavier"
    }
    bias_filler {
      type: "constant"
      value: 0
    }
  }
}
layer {
  name: "conv8_2_mbox_conf_perm"
  type: "Permute"
  bottom: "conv8_2_mbox_conf"
  top: "conv8_2_mbox_conf_perm"
  permute_param {
    order: 0
    order: 2
    order: 3
    order: 1
  }
}
layer {
  name: "conv8_2_mbox_conf_flat"
  type: "Flatten"
  bottom: "conv8_2_mbox_conf_perm"
  top: "conv8_2_mbox_conf_flat"
  flatten_param {
    axis: 1
  }
}
layer {
  name: "conv8_2_mbox_priorbox"
  type: "PriorBox"
  bottom: "conv8_2"
  bottom: "data"
  top: "conv8_2_mbox_priorbox"
  prior_box_param {
    min_size: 213
    max_size: 264
    aspect_ratio: 2
    flip: true
    clip: false
    variance: 0.1
    variance: 0.1
    variance: 0.2
    variance: 0.2
    step: 100
    offset: 0.5
  }
}
layer {
  name: "conv9_2_mbox_loc"
  type: "Convolution"
  bottom: "conv9_2"
  top: "conv9_2_mbox_loc"
  param {
    lr_mult: 1
    decay_mult: 1
  }
  param {
    lr_mult: 2
    decay_mult: 0
  }
  convolution_param {
    num_output: 16
    pad: 1
    kernel_size: 3
    stride: 1
    weight_filler {
      type: "xavier"
    }
    bias_filler {
      type: "constant"
      value: 0
    }
  }
}
layer {
  name: "conv9_2_mbox_loc_perm"
  type: "Permute"
  bottom: "conv9_2_mbox_loc"
  top: "conv9_2_mbox_loc_perm"
  permute_param {
    order: 0
    order: 2
    order: 3
    order: 1
  }
}
layer {
  name: "conv9_2_mbox_loc_flat"
  type: "Flatten"
  bottom: "conv9_2_mbox_loc_perm"
  top: "conv9_2_mbox_loc_flat"
  flatten_param {
    axis: 1
  }
}
layer {
  name: "conv9_2_mbox_conf"
  type: "Convolution"
  bottom: "conv9_2"
  top: "conv9_2_mbox_conf"
  param {
    lr_mult: 1
    decay_mult: 1
  }
  param {
    lr_mult: 2
    decay_mult: 0
  }
  convolution_param {
    num_output: 8
    pad: 1
    kernel_size: 3
    stride: 1
    weight_filler {
      type: "xavier"
    }
    bias_filler {
      type: "constant"
      value: 0
    }
  }
}
layer {
  name: "conv9_2_mbox_conf_perm"
  type: "Permute"
  bottom: "conv9_2_mbox_conf"
  top: "conv9_2_mbox_conf_perm"
  permute_param {
    order: 0
    order: 2
    order: 3
    order: 1
  }
}
layer {
  name: "conv9_2_mbox_conf_flat"
  type: "Flatten"
  bottom: "conv9_2_mbox_conf_perm"
  top: "conv9_2_mbox_conf_flat"
  flatten_param {
    axis: 1
  }
}
layer {
  name: "conv9_2_mbox_priorbox"
  type: "PriorBox"
  bottom: "conv9_2"
  bottom: "data"
  top: "conv9_2_mbox_priorbox"
  prior_box_param {
    min_size: 264
    max_size: 315
    aspect_ratio: 2
    flip: true
    clip: false
    variance: 0.1
    variance: 0.1
    variance: 0.2
    variance: 0.2
    step: 300
    offset: 0.5
  }
}
layer {
  name: "mbox_loc"
  type: "Concat"
  bottom: "conv4_3_norm_mbox_loc_flat"
  bottom: "fc7_mbox_loc_flat"
  bottom: "conv6_2_mbox_loc_flat"
  bottom: "conv7_2_mbox_loc_flat"
  bottom: "conv8_2_mbox_loc_flat"
  bottom: "conv9_2_mbox_loc_flat"
  top: "mbox_loc"
  concat_param {
    axis: 1
  }
}
layer {
  name: "mbox_conf"
  type: "Concat"
  bottom: "conv4_3_norm_mbox_conf_flat"
  bottom: "fc7_mbox_conf_flat"
  bottom: "conv6_2_mbox_conf_flat"
  bottom: "conv7_2_mbox_conf_flat"
  bottom: "conv8_2_mbox_conf_flat"
  bottom: "conv9_2_mbox_conf_flat"
  top: "mbox_conf"
  concat_param {
    axis: 1
  }
}
layer {
  name: "mbox_priorbox"
  type: "Concat"
  bottom: "conv4_3_norm_mbox_priorbox"
  bottom: "fc7_mbox_priorbox"
  bottom: "conv6_2_mbox_priorbox"
  bottom: "conv7_2_mbox_priorbox"
  bottom: "conv8_2_mbox_priorbox"
  bottom: "conv9_2_mbox_priorbox"
  top: "mbox_priorbox"
  concat_param {
    axis: 2
  }
}
layer {
  name: "mbox_conf_reshape"
  type: "Reshape"
  bottom: "mbox_conf"
  top: "mbox_conf_reshape"
  reshape_param {
    shape {
      dim: 0
      dim: -1
      dim: 2
    }
  }
}
layer {
  name: "mbox_conf_softmax"
  type: "Softmax"
  bottom: "mbox_conf_reshape"
  top: "mbox_conf_softmax"
  softmax_param {
    axis: 2
  }
}
layer {
  name: "mbox_conf_flatten"
  type: "Flatten"
  bottom: "mbox_conf_softmax"
  top: "mbox_conf_flatten"
  flatten_param {
    axis: 1
  }
}
layer {
  name: "detection_out"
  type: "DetectionOutput"
  bottom: "mbox_loc"
  bottom: "mbox_conf_flatten"
  bottom: "mbox_priorbox"
  top: "detection_out"
  include {
    phase: TEST
  }
  detection_output_param {
    num_classes: 2
    share_location: true
    background_label_id: 0
    nms_param {
      nms_threshold: 0.45
      top_k: 400
    }
    save_output_param {
      output_directory: "/home/ubuntu/data/grayscale_tbs_v2.0/results/tbs/SSD_300x300/Main"
      output_name_prefix: "comp4_det_test_"
      output_format: "VOC"
      label_map_file: "data/grayscale_tbs_v2.0/labelmap_voc.prototxt"
      name_size_file: "data/grayscale_tbs_v2.0/test_name_size"
      num_test_image: 200
    }
    code_type: CENTER_SIZE
    keep_top_k: 200
    confidence_threshold: 0.01
  }
}
layer {
  name: "detection_eval"
  type: "DetectionEvaluate"
  bottom: "detection_out"
  bottom: "label"
  top: "detection_eval"
  include {
    phase: TEST
  }
  detection_evaluate_param {
    num_classes: 2
    background_label_id: 0
    overlap_threshold: 0.5
    evaluate_difficult_gt: false
    name_size_file: "data/grayscale_tbs_v2.0/test_name_size"
  }
}
I0609 09:34:24.768039 26882 layer_factory.hpp:77] Creating layer data
I0609 09:34:24.768136 26882 net.cpp:100] Creating Layer data
I0609 09:34:24.768157 26882 net.cpp:409] data -> data
I0609 09:34:24.768174 26882 net.cpp:409] data -> label
I0609 09:34:24.768195 26882 layer.hpp:71] 
I0609 09:34:24.769212 26896 db_lmdb.cpp:35] Opened lmdb examples/grayscale_tbs_v2.0/grayscale_tbs_v2.0_test_lmdb
I0609 09:34:24.771615 26882 annotated_data_layer.cpp:62] output data size: 4,3,300,300
I0609 09:34:24.781575 26882 net.cpp:151] Setting up data
I0609 09:34:24.781622 26882 net.cpp:158] Top shape: 4 3 300 300 (1080000)
I0609 09:34:24.781632 26882 net.cpp:158] Top shape: 1 1 1 8 (8)
I0609 09:34:24.781635 26882 net.cpp:166] Memory required for data: 4320032
I0609 09:34:24.781644 26882 layer_factory.hpp:77] Creating layer data_data_0_split
I0609 09:34:24.781667 26882 net.cpp:100] Creating Layer data_data_0_split
I0609 09:34:24.781682 26882 net.cpp:435] data_data_0_split <- data
I0609 09:34:24.781699 26882 net.cpp:409] data_data_0_split -> data_data_0_split_0
I0609 09:34:24.781724 26882 net.cpp:409] data_data_0_split -> data_data_0_split_1
I0609 09:34:24.781743 26882 net.cpp:409] data_data_0_split -> data_data_0_split_2
I0609 09:34:24.781759 26882 net.cpp:409] data_data_0_split -> data_data_0_split_3
I0609 09:34:24.781786 26882 net.cpp:409] data_data_0_split -> data_data_0_split_4
I0609 09:34:24.781800 26882 net.cpp:409] data_data_0_split -> data_data_0_split_5
I0609 09:34:24.781816 26882 net.cpp:409] data_data_0_split -> data_data_0_split_6
I0609 09:34:24.781831 26882 layer.hpp:71] 
I0609 09:34:24.782008 26882 net.cpp:151] Setting up data_data_0_split
I0609 09:34:24.782024 26882 net.cpp:158] Top shape: 4 3 300 300 (1080000)
I0609 09:34:24.782032 26882 net.cpp:158] Top shape: 4 3 300 300 (1080000)
I0609 09:34:24.782040 26882 net.cpp:158] Top shape: 4 3 300 300 (1080000)
I0609 09:34:24.782048 26882 net.cpp:158] Top shape: 4 3 300 300 (1080000)
I0609 09:34:24.782055 26882 net.cpp:158] Top shape: 4 3 300 300 (1080000)
I0609 09:34:24.782063 26882 net.cpp:158] Top shape: 4 3 300 300 (1080000)
I0609 09:34:24.782073 26882 net.cpp:158] Top shape: 4 3 300 300 (1080000)
I0609 09:34:24.782078 26882 net.cpp:166] Memory required for data: 34560032
I0609 09:34:24.782085 26882 layer_factory.hpp:77] Creating layer conv1_1
I0609 09:34:24.782106 26882 net.cpp:100] Creating Layer conv1_1
I0609 09:34:24.782116 26882 net.cpp:435] conv1_1 <- data_data_0_split_0
I0609 09:34:24.782129 26882 net.cpp:409] conv1_1 -> conv1_1
I0609 09:34:24.782145 26882 layer.hpp:71] 
I0609 09:34:24.784947 26882 net.cpp:151] Setting up conv1_1
I0609 09:34:24.784972 26882 net.cpp:158] Top shape: 4 64 300 300 (23040000)
I0609 09:34:24.784979 26882 net.cpp:166] Memory required for data: 126720032
I0609 09:34:24.784997 26882 layer_factory.hpp:77] Creating layer relu1_1
I0609 09:34:24.785010 26882 net.cpp:100] Creating Layer relu1_1
I0609 09:34:24.785024 26882 net.cpp:435] relu1_1 <- conv1_1
I0609 09:34:24.785034 26882 net.cpp:396] relu1_1 -> conv1_1 (in-place)
I0609 09:34:24.785045 26882 layer.hpp:71] 
I0609 09:34:24.785270 26882 net.cpp:151] Setting up relu1_1
I0609 09:34:24.785290 26882 net.cpp:158] Top shape: 4 64 300 300 (23040000)
I0609 09:34:24.785295 26882 net.cpp:166] Memory required for data: 218880032
I0609 09:34:24.785300 26882 layer_factory.hpp:77] Creating layer conv1_2
I0609 09:34:24.785316 26882 net.cpp:100] Creating Layer conv1_2
I0609 09:34:24.785329 26882 net.cpp:435] conv1_2 <- conv1_1
I0609 09:34:24.785341 26882 net.cpp:409] conv1_2 -> conv1_2
I0609 09:34:24.785360 26882 layer.hpp:71] 
I0609 09:34:24.788771 26882 net.cpp:151] Setting up conv1_2
I0609 09:34:24.788801 26882 net.cpp:158] Top shape: 4 64 300 300 (23040000)
I0609 09:34:24.788807 26882 net.cpp:166] Memory required for data: 311040032
I0609 09:34:24.788823 26882 layer_factory.hpp:77] Creating layer relu1_2
I0609 09:34:24.788835 26882 net.cpp:100] Creating Layer relu1_2
I0609 09:34:24.788851 26882 net.cpp:435] relu1_2 <- conv1_2
I0609 09:34:24.788861 26882 net.cpp:396] relu1_2 -> conv1_2 (in-place)
I0609 09:34:24.788880 26882 layer.hpp:71] 
I0609 09:34:24.789551 26882 net.cpp:151] Setting up relu1_2
I0609 09:34:24.789573 26882 net.cpp:158] Top shape: 4 64 300 300 (23040000)
I0609 09:34:24.789579 26882 net.cpp:166] Memory required for data: 403200032
I0609 09:34:24.789585 26882 layer_factory.hpp:77] Creating layer pool1
I0609 09:34:24.789598 26882 net.cpp:100] Creating Layer pool1
I0609 09:34:24.789610 26882 net.cpp:435] pool1 <- conv1_2
I0609 09:34:24.789620 26882 net.cpp:409] pool1 -> pool1
I0609 09:34:24.789631 26882 layer.hpp:71] 
I0609 09:34:24.789710 26882 net.cpp:151] Setting up pool1
I0609 09:34:24.789724 26882 net.cpp:158] Top shape: 4 64 150 150 (5760000)
I0609 09:34:24.789731 26882 net.cpp:166] Memory required for data: 426240032
I0609 09:34:24.789736 26882 layer_factory.hpp:77] Creating layer conv2_1
I0609 09:34:24.789754 26882 net.cpp:100] Creating Layer conv2_1
I0609 09:34:24.789767 26882 net.cpp:435] conv2_1 <- pool1
I0609 09:34:24.789778 26882 net.cpp:409] conv2_1 -> conv2_1
I0609 09:34:24.789794 26882 layer.hpp:71] 
I0609 09:34:24.792124 26882 net.cpp:151] Setting up conv2_1
I0609 09:34:24.792155 26882 net.cpp:158] Top shape: 4 128 150 150 (11520000)
I0609 09:34:24.792160 26882 net.cpp:166] Memory required for data: 472320032
I0609 09:34:24.792198 26882 layer_factory.hpp:77] Creating layer relu2_1
I0609 09:34:24.792220 26882 net.cpp:100] Creating Layer relu2_1
I0609 09:34:24.792228 26882 net.cpp:435] relu2_1 <- conv2_1
I0609 09:34:24.792239 26882 net.cpp:396] relu2_1 -> conv2_1 (in-place)
I0609 09:34:24.792251 26882 layer.hpp:71] 
I0609 09:34:24.793357 26882 net.cpp:151] Setting up relu2_1
I0609 09:34:24.793380 26882 net.cpp:158] Top shape: 4 128 150 150 (11520000)
I0609 09:34:24.793386 26882 net.cpp:166] Memory required for data: 518400032
I0609 09:34:24.793391 26882 layer_factory.hpp:77] Creating layer conv2_2
I0609 09:34:24.793408 26882 net.cpp:100] Creating Layer conv2_2
I0609 09:34:24.793421 26882 net.cpp:435] conv2_2 <- conv2_1
I0609 09:34:24.793433 26882 net.cpp:409] conv2_2 -> conv2_2
I0609 09:34:24.793454 26882 layer.hpp:71] 
I0609 09:34:24.796792 26882 net.cpp:151] Setting up conv2_2
I0609 09:34:24.796823 26882 net.cpp:158] Top shape: 4 128 150 150 (11520000)
I0609 09:34:24.796829 26882 net.cpp:166] Memory required for data: 564480032
I0609 09:34:24.796842 26882 layer_factory.hpp:77] Creating layer relu2_2
I0609 09:34:24.796852 26882 net.cpp:100] Creating Layer relu2_2
I0609 09:34:24.796871 26882 net.cpp:435] relu2_2 <- conv2_2
I0609 09:34:24.796885 26882 net.cpp:396] relu2_2 -> conv2_2 (in-place)
I0609 09:34:24.796902 26882 layer.hpp:71] 
I0609 09:34:24.797125 26882 net.cpp:151] Setting up relu2_2
I0609 09:34:24.797143 26882 net.cpp:158] Top shape: 4 128 150 150 (11520000)
I0609 09:34:24.797149 26882 net.cpp:166] Memory required for data: 610560032
I0609 09:34:24.797154 26882 layer_factory.hpp:77] Creating layer pool2
I0609 09:34:24.797168 26882 net.cpp:100] Creating Layer pool2
I0609 09:34:24.797180 26882 net.cpp:435] pool2 <- conv2_2
I0609 09:34:24.797189 26882 net.cpp:409] pool2 -> pool2
I0609 09:34:24.797201 26882 layer.hpp:71] 
I0609 09:34:24.797277 26882 net.cpp:151] Setting up pool2
I0609 09:34:24.797292 26882 net.cpp:158] Top shape: 4 128 75 75 (2880000)
I0609 09:34:24.797297 26882 net.cpp:166] Memory required for data: 622080032
I0609 09:34:24.797303 26882 layer_factory.hpp:77] Creating layer conv3_1
I0609 09:34:24.797318 26882 net.cpp:100] Creating Layer conv3_1
I0609 09:34:24.797329 26882 net.cpp:435] conv3_1 <- pool2
I0609 09:34:24.797343 26882 net.cpp:409] conv3_1 -> conv3_1
I0609 09:34:24.797359 26882 layer.hpp:71] 
I0609 09:34:24.801476 26882 net.cpp:151] Setting up conv3_1
I0609 09:34:24.801503 26882 net.cpp:158] Top shape: 4 256 75 75 (5760000)
I0609 09:34:24.801509 26882 net.cpp:166] Memory required for data: 645120032
I0609 09:34:24.801530 26882 layer_factory.hpp:77] Creating layer relu3_1
I0609 09:34:24.801556 26882 net.cpp:100] Creating Layer relu3_1
I0609 09:34:24.801564 26882 net.cpp:435] relu3_1 <- conv3_1
I0609 09:34:24.801574 26882 net.cpp:396] relu3_1 -> conv3_1 (in-place)
I0609 09:34:24.801586 26882 layer.hpp:71] 
I0609 09:34:24.802278 26882 net.cpp:151] Setting up relu3_1
I0609 09:34:24.802309 26882 net.cpp:158] Top shape: 4 256 75 75 (5760000)
I0609 09:34:24.802314 26882 net.cpp:166] Memory required for data: 668160032
I0609 09:34:24.802320 26882 layer_factory.hpp:77] Creating layer conv3_2
I0609 09:34:24.802340 26882 net.cpp:100] Creating Layer conv3_2
I0609 09:34:24.802353 26882 net.cpp:435] conv3_2 <- conv3_1
I0609 09:34:24.802368 26882 net.cpp:409] conv3_2 -> conv3_2
I0609 09:34:24.802389 26882 layer.hpp:71] 
I0609 09:34:24.808657 26882 net.cpp:151] Setting up conv3_2
I0609 09:34:24.808694 26882 net.cpp:158] Top shape: 4 256 75 75 (5760000)
I0609 09:34:24.808701 26882 net.cpp:166] Memory required for data: 691200032
I0609 09:34:24.808713 26882 layer_factory.hpp:77] Creating layer relu3_2
I0609 09:34:24.808724 26882 net.cpp:100] Creating Layer relu3_2
I0609 09:34:24.808748 26882 net.cpp:435] relu3_2 <- conv3_2
I0609 09:34:24.808760 26882 net.cpp:396] relu3_2 -> conv3_2 (in-place)
I0609 09:34:24.808778 26882 layer.hpp:71] 
I0609 09:34:24.809005 26882 net.cpp:151] Setting up relu3_2
I0609 09:34:24.809023 26882 net.cpp:158] Top shape: 4 256 75 75 (5760000)
I0609 09:34:24.809028 26882 net.cpp:166] Memory required for data: 714240032
I0609 09:34:24.809051 26882 layer_factory.hpp:77] Creating layer conv3_3
I0609 09:34:24.809075 26882 net.cpp:100] Creating Layer conv3_3
I0609 09:34:24.809087 26882 net.cpp:435] conv3_3 <- conv3_2
I0609 09:34:24.809098 26882 net.cpp:409] conv3_3 -> conv3_3
I0609 09:34:24.809111 26882 layer.hpp:71] 
I0609 09:34:24.815312 26882 net.cpp:151] Setting up conv3_3
I0609 09:34:24.815343 26882 net.cpp:158] Top shape: 4 256 75 75 (5760000)
I0609 09:34:24.815349 26882 net.cpp:166] Memory required for data: 737280032
I0609 09:34:24.815361 26882 layer_factory.hpp:77] Creating layer relu3_3
I0609 09:34:24.815373 26882 net.cpp:100] Creating Layer relu3_3
I0609 09:34:24.815382 26882 net.cpp:435] relu3_3 <- conv3_3
I0609 09:34:24.815392 26882 net.cpp:396] relu3_3 -> conv3_3 (in-place)
I0609 09:34:24.815403 26882 layer.hpp:71] 
I0609 09:34:24.816071 26882 net.cpp:151] Setting up relu3_3
I0609 09:34:24.816094 26882 net.cpp:158] Top shape: 4 256 75 75 (5760000)
I0609 09:34:24.816100 26882 net.cpp:166] Memory required for data: 760320032
I0609 09:34:24.816107 26882 layer_factory.hpp:77] Creating layer pool3
I0609 09:34:24.816118 26882 net.cpp:100] Creating Layer pool3
I0609 09:34:24.816133 26882 net.cpp:435] pool3 <- conv3_3
I0609 09:34:24.816141 26882 net.cpp:409] pool3 -> pool3
I0609 09:34:24.816154 26882 layer.hpp:71] 
I0609 09:34:24.816233 26882 net.cpp:151] Setting up pool3
I0609 09:34:24.816249 26882 net.cpp:158] Top shape: 4 256 38 38 (1478656)
I0609 09:34:24.816254 26882 net.cpp:166] Memory required for data: 766234656
I0609 09:34:24.816259 26882 layer_factory.hpp:77] Creating layer conv4_1
I0609 09:34:24.816277 26882 net.cpp:100] Creating Layer conv4_1
I0609 09:34:24.816288 26882 net.cpp:435] conv4_1 <- pool3
I0609 09:34:24.816299 26882 net.cpp:409] conv4_1 -> conv4_1
I0609 09:34:24.816313 26882 layer.hpp:71] 
I0609 09:34:24.826874 26882 net.cpp:151] Setting up conv4_1
I0609 09:34:24.826916 26882 net.cpp:158] Top shape: 4 512 38 38 (2957312)
I0609 09:34:24.826923 26882 net.cpp:166] Memory required for data: 778063904
I0609 09:34:24.826936 26882 layer_factory.hpp:77] Creating layer relu4_1
I0609 09:34:24.826951 26882 net.cpp:100] Creating Layer relu4_1
I0609 09:34:24.826958 26882 net.cpp:435] relu4_1 <- conv4_1
I0609 09:34:24.826985 26882 net.cpp:396] relu4_1 -> conv4_1 (in-place)
I0609 09:34:24.826999 26882 layer.hpp:71] 
I0609 09:34:24.827687 26882 net.cpp:151] Setting up relu4_1
I0609 09:34:24.827711 26882 net.cpp:158] Top shape: 4 512 38 38 (2957312)
I0609 09:34:24.827718 26882 net.cpp:166] Memory required for data: 789893152
I0609 09:34:24.827723 26882 layer_factory.hpp:77] Creating layer conv4_2
I0609 09:34:24.827742 26882 net.cpp:100] Creating Layer conv4_2
I0609 09:34:24.827755 26882 net.cpp:435] conv4_2 <- conv4_1
I0609 09:34:24.827769 26882 net.cpp:409] conv4_2 -> conv4_2
I0609 09:34:24.827788 26882 layer.hpp:71] 
I0609 09:34:24.846875 26882 net.cpp:151] Setting up conv4_2
I0609 09:34:24.846927 26882 net.cpp:158] Top shape: 4 512 38 38 (2957312)
I0609 09:34:24.846933 26882 net.cpp:166] Memory required for data: 801722400
I0609 09:34:24.846958 26882 layer_factory.hpp:77] Creating layer relu4_2
I0609 09:34:24.846972 26882 net.cpp:100] Creating Layer relu4_2
I0609 09:34:24.846992 26882 net.cpp:435] relu4_2 <- conv4_2
I0609 09:34:24.847005 26882 net.cpp:396] relu4_2 -> conv4_2 (in-place)
I0609 09:34:24.847025 26882 layer.hpp:71] 
I0609 09:34:24.847250 26882 net.cpp:151] Setting up relu4_2
I0609 09:34:24.847268 26882 net.cpp:158] Top shape: 4 512 38 38 (2957312)
I0609 09:34:24.847275 26882 net.cpp:166] Memory required for data: 813551648
I0609 09:34:24.847280 26882 layer_factory.hpp:77] Creating layer conv4_3
I0609 09:34:24.847299 26882 net.cpp:100] Creating Layer conv4_3
I0609 09:34:24.847311 26882 net.cpp:435] conv4_3 <- conv4_2
I0609 09:34:24.847321 26882 net.cpp:409] conv4_3 -> conv4_3
I0609 09:34:24.847335 26882 layer.hpp:71] 
I0609 09:34:24.866935 26882 net.cpp:151] Setting up conv4_3
I0609 09:34:24.866991 26882 net.cpp:158] Top shape: 4 512 38 38 (2957312)
I0609 09:34:24.866997 26882 net.cpp:166] Memory required for data: 825380896
I0609 09:34:24.867039 26882 layer_factory.hpp:77] Creating layer relu4_3
I0609 09:34:24.867069 26882 net.cpp:100] Creating Layer relu4_3
I0609 09:34:24.867080 26882 net.cpp:435] relu4_3 <- conv4_3
I0609 09:34:24.867095 26882 net.cpp:396] relu4_3 -> conv4_3 (in-place)
I0609 09:34:24.867117 26882 layer.hpp:71] 
I0609 09:34:24.867806 26882 net.cpp:151] Setting up relu4_3
I0609 09:34:24.867830 26882 net.cpp:158] Top shape: 4 512 38 38 (2957312)
I0609 09:34:24.867835 26882 net.cpp:166] Memory required for data: 837210144
I0609 09:34:24.867841 26882 layer_factory.hpp:77] Creating layer conv4_3_relu4_3_0_split
I0609 09:34:24.867851 26882 net.cpp:100] Creating Layer conv4_3_relu4_3_0_split
I0609 09:34:24.867866 26882 net.cpp:435] conv4_3_relu4_3_0_split <- conv4_3
I0609 09:34:24.867877 26882 net.cpp:409] conv4_3_relu4_3_0_split -> conv4_3_relu4_3_0_split_0
I0609 09:34:24.867895 26882 net.cpp:409] conv4_3_relu4_3_0_split -> conv4_3_relu4_3_0_split_1
I0609 09:34:24.867907 26882 layer.hpp:71] 
I0609 09:34:24.867987 26882 net.cpp:151] Setting up conv4_3_relu4_3_0_split
I0609 09:34:24.868001 26882 net.cpp:158] Top shape: 4 512 38 38 (2957312)
I0609 09:34:24.868008 26882 net.cpp:158] Top shape: 4 512 38 38 (2957312)
I0609 09:34:24.868015 26882 net.cpp:166] Memory required for data: 860868640
I0609 09:34:24.868022 26882 layer_factory.hpp:77] Creating layer pool4
I0609 09:34:24.868032 26882 net.cpp:100] Creating Layer pool4
I0609 09:34:24.868043 26882 net.cpp:435] pool4 <- conv4_3_relu4_3_0_split_0
I0609 09:34:24.868055 26882 net.cpp:409] pool4 -> pool4
I0609 09:34:24.868072 26882 layer.hpp:71] 
I0609 09:34:24.868136 26882 net.cpp:151] Setting up pool4
I0609 09:34:24.868152 26882 net.cpp:158] Top shape: 4 512 19 19 (739328)
I0609 09:34:24.868158 26882 net.cpp:166] Memory required for data: 863825952
I0609 09:34:24.868165 26882 layer_factory.hpp:77] Creating layer conv5_1
I0609 09:34:24.868182 26882 net.cpp:100] Creating Layer conv5_1
I0609 09:34:24.868193 26882 net.cpp:435] conv5_1 <- pool4
I0609 09:34:24.868203 26882 net.cpp:409] conv5_1 -> conv5_1
I0609 09:34:24.868217 26882 layer.hpp:71] 
I0609 09:34:24.887266 26882 net.cpp:151] Setting up conv5_1
I0609 09:34:24.887310 26882 net.cpp:158] Top shape: 4 512 19 19 (739328)
I0609 09:34:24.887320 26882 net.cpp:166] Memory required for data: 866783264
I0609 09:34:24.887334 26882 layer_factory.hpp:77] Creating layer relu5_1
I0609 09:34:24.887347 26882 net.cpp:100] Creating Layer relu5_1
I0609 09:34:24.887354 26882 net.cpp:435] relu5_1 <- conv5_1
I0609 09:34:24.887365 26882 net.cpp:396] relu5_1 -> conv5_1 (in-place)
I0609 09:34:24.887388 26882 layer.hpp:71] 
I0609 09:34:24.887611 26882 net.cpp:151] Setting up relu5_1
I0609 09:34:24.887629 26882 net.cpp:158] Top shape: 4 512 19 19 (739328)
I0609 09:34:24.887635 26882 net.cpp:166] Memory required for data: 869740576
I0609 09:34:24.887641 26882 layer_factory.hpp:77] Creating layer conv5_2
I0609 09:34:24.887662 26882 net.cpp:100] Creating Layer conv5_2
I0609 09:34:24.887673 26882 net.cpp:435] conv5_2 <- conv5_1
I0609 09:34:24.887684 26882 net.cpp:409] conv5_2 -> conv5_2
I0609 09:34:24.887704 26882 layer.hpp:71] 
I0609 09:34:24.915940 26882 net.cpp:151] Setting up conv5_2
I0609 09:34:24.916029 26882 net.cpp:158] Top shape: 4 512 19 19 (739328)
I0609 09:34:24.916048 26882 net.cpp:166] Memory required for data: 872697888
I0609 09:34:24.916074 26882 layer_factory.hpp:77] Creating layer relu5_2
I0609 09:34:24.916100 26882 net.cpp:100] Creating Layer relu5_2
I0609 09:34:24.916119 26882 net.cpp:435] relu5_2 <- conv5_2
I0609 09:34:24.916142 26882 net.cpp:396] relu5_2 -> conv5_2 (in-place)
I0609 09:34:24.916169 26882 layer.hpp:71] 
I0609 09:34:24.917022 26882 net.cpp:151] Setting up relu5_2
I0609 09:34:24.917057 26882 net.cpp:158] Top shape: 4 512 19 19 (739328)
I0609 09:34:24.917076 26882 net.cpp:166] Memory required for data: 875655200
I0609 09:34:24.917094 26882 layer_factory.hpp:77] Creating layer conv5_3
I0609 09:34:24.917127 26882 net.cpp:100] Creating Layer conv5_3
I0609 09:34:24.917165 26882 net.cpp:435] conv5_3 <- conv5_2
I0609 09:34:24.917206 26882 net.cpp:409] conv5_3 -> conv5_3
I0609 09:34:24.917232 26882 layer.hpp:71] 
I0609 09:34:24.951323 26882 net.cpp:151] Setting up conv5_3
I0609 09:34:24.951377 26882 net.cpp:158] Top shape: 4 512 19 19 (739328)
I0609 09:34:24.951385 26882 net.cpp:166] Memory required for data: 878612512
I0609 09:34:24.951401 26882 layer_factory.hpp:77] Creating layer relu5_3
I0609 09:34:24.951434 26882 net.cpp:100] Creating Layer relu5_3
I0609 09:34:24.951450 26882 net.cpp:435] relu5_3 <- conv5_3
I0609 09:34:24.951462 26882 net.cpp:396] relu5_3 -> conv5_3 (in-place)
I0609 09:34:24.951483 26882 layer.hpp:71] 
I0609 09:34:24.952361 26882 net.cpp:151] Setting up relu5_3
I0609 09:34:24.952389 26882 net.cpp:158] Top shape: 4 512 19 19 (739328)
I0609 09:34:24.952401 26882 net.cpp:166] Memory required for data: 881569824
I0609 09:34:24.952409 26882 layer_factory.hpp:77] Creating layer pool5
I0609 09:34:24.952427 26882 net.cpp:100] Creating Layer pool5
I0609 09:34:24.952440 26882 net.cpp:435] pool5 <- conv5_3
I0609 09:34:24.952450 26882 net.cpp:409] pool5 -> pool5
I0609 09:34:24.952467 26882 layer.hpp:71] 
I0609 09:34:24.952566 26882 net.cpp:151] Setting up pool5
I0609 09:34:24.952585 26882 net.cpp:158] Top shape: 4 512 19 19 (739328)
I0609 09:34:24.952597 26882 net.cpp:166] Memory required for data: 884527136
I0609 09:34:24.952605 26882 layer_factory.hpp:77] Creating layer fc6
I0609 09:34:24.952630 26882 net.cpp:100] Creating Layer fc6
I0609 09:34:24.952643 26882 net.cpp:435] fc6 <- pool5
I0609 09:34:24.952656 26882 net.cpp:409] fc6 -> fc6
I0609 09:34:24.952674 26882 layer.hpp:71] 
I0609 09:34:25.016796 26882 net.cpp:151] Setting up fc6
I0609 09:34:25.016860 26882 net.cpp:158] Top shape: 4 1024 19 19 (1478656)
I0609 09:34:25.016866 26882 net.cpp:166] Memory required for data: 890441760
I0609 09:34:25.016882 26882 layer_factory.hpp:77] Creating layer relu6
I0609 09:34:25.016903 26882 net.cpp:100] Creating Layer relu6
I0609 09:34:25.016917 26882 net.cpp:435] relu6 <- fc6
I0609 09:34:25.016937 26882 net.cpp:396] relu6 -> fc6 (in-place)
I0609 09:34:25.016958 26882 layer.hpp:71] 
I0609 09:34:25.017365 26882 net.cpp:151] Setting up relu6
I0609 09:34:25.017388 26882 net.cpp:158] Top shape: 4 1024 19 19 (1478656)
I0609 09:34:25.017396 26882 net.cpp:166] Memory required for data: 896356384
I0609 09:34:25.017410 26882 layer_factory.hpp:77] Creating layer fc7
I0609 09:34:25.017431 26882 net.cpp:100] Creating Layer fc7
I0609 09:34:25.017447 26882 net.cpp:435] fc7 <- fc6
I0609 09:34:25.017457 26882 net.cpp:409] fc7 -> fc7
I0609 09:34:25.017475 26882 layer.hpp:71] 
I0609 09:34:25.034037 26882 net.cpp:151] Setting up fc7
I0609 09:34:25.034106 26882 net.cpp:158] Top shape: 4 1024 19 19 (1478656)
I0609 09:34:25.034113 26882 net.cpp:166] Memory required for data: 902271008
I0609 09:34:25.034139 26882 layer_factory.hpp:77] Creating layer relu7
I0609 09:34:25.034163 26882 net.cpp:100] Creating Layer relu7
I0609 09:34:25.034178 26882 net.cpp:435] relu7 <- fc7
I0609 09:34:25.034194 26882 net.cpp:396] relu7 -> fc7 (in-place)
I0609 09:34:25.034215 26882 layer.hpp:71] 
I0609 09:34:25.035066 26882 net.cpp:151] Setting up relu7
I0609 09:34:25.035094 26882 net.cpp:158] Top shape: 4 1024 19 19 (1478656)
I0609 09:34:25.035104 26882 net.cpp:166] Memory required for data: 908185632
I0609 09:34:25.035112 26882 layer_factory.hpp:77] Creating layer fc7_relu7_0_split
I0609 09:34:25.035131 26882 net.cpp:100] Creating Layer fc7_relu7_0_split
I0609 09:34:25.035143 26882 net.cpp:435] fc7_relu7_0_split <- fc7
I0609 09:34:25.035154 26882 net.cpp:409] fc7_relu7_0_split -> fc7_relu7_0_split_0
I0609 09:34:25.035176 26882 net.cpp:409] fc7_relu7_0_split -> fc7_relu7_0_split_1
I0609 09:34:25.035202 26882 net.cpp:409] fc7_relu7_0_split -> fc7_relu7_0_split_2
I0609 09:34:25.035219 26882 net.cpp:409] fc7_relu7_0_split -> fc7_relu7_0_split_3
I0609 09:34:25.035234 26882 layer.hpp:71] 
I0609 09:34:25.035377 26882 net.cpp:151] Setting up fc7_relu7_0_split
I0609 09:34:25.035394 26882 net.cpp:158] Top shape: 4 1024 19 19 (1478656)
I0609 09:34:25.035405 26882 net.cpp:158] Top shape: 4 1024 19 19 (1478656)
I0609 09:34:25.035440 26882 net.cpp:158] Top shape: 4 1024 19 19 (1478656)
I0609 09:34:25.035455 26882 net.cpp:158] Top shape: 4 1024 19 19 (1478656)
I0609 09:34:25.035461 26882 net.cpp:166] Memory required for data: 931844128
I0609 09:34:25.035472 26882 layer_factory.hpp:77] Creating layer conv6_1
I0609 09:34:25.035491 26882 net.cpp:100] Creating Layer conv6_1
I0609 09:34:25.035504 26882 net.cpp:435] conv6_1 <- fc7_relu7_0_split_0
I0609 09:34:25.035518 26882 net.cpp:409] conv6_1 -> conv6_1
I0609 09:34:25.035534 26882 layer.hpp:71] 
I0609 09:34:25.041765 26882 net.cpp:151] Setting up conv6_1
I0609 09:34:25.041815 26882 net.cpp:158] Top shape: 4 256 19 19 (369664)
I0609 09:34:25.041821 26882 net.cpp:166] Memory required for data: 933322784
I0609 09:34:25.041834 26882 layer_factory.hpp:77] Creating layer conv6_1_relu
I0609 09:34:25.041852 26882 net.cpp:100] Creating Layer conv6_1_relu
I0609 09:34:25.041878 26882 net.cpp:435] conv6_1_relu <- conv6_1
I0609 09:34:25.041898 26882 net.cpp:396] conv6_1_relu -> conv6_1 (in-place)
I0609 09:34:25.041914 26882 layer.hpp:71] 
I0609 09:34:25.042232 26882 net.cpp:151] Setting up conv6_1_relu
I0609 09:34:25.042255 26882 net.cpp:158] Top shape: 4 256 19 19 (369664)
I0609 09:34:25.042268 26882 net.cpp:166] Memory required for data: 934801440
I0609 09:34:25.042274 26882 layer_factory.hpp:77] Creating layer conv6_2
I0609 09:34:25.042299 26882 net.cpp:100] Creating Layer conv6_2
I0609 09:34:25.042311 26882 net.cpp:435] conv6_2 <- conv6_1
I0609 09:34:25.042322 26882 net.cpp:409] conv6_2 -> conv6_2
I0609 09:34:25.042340 26882 layer.hpp:71] 
I0609 09:34:25.061244 26882 net.cpp:151] Setting up conv6_2
I0609 09:34:25.061321 26882 net.cpp:158] Top shape: 4 512 10 10 (204800)
I0609 09:34:25.061336 26882 net.cpp:166] Memory required for data: 935620640
I0609 09:34:25.061365 26882 layer_factory.hpp:77] Creating layer conv6_2_relu
I0609 09:34:25.061388 26882 net.cpp:100] Creating Layer conv6_2_relu
I0609 09:34:25.061403 26882 net.cpp:435] conv6_2_relu <- conv6_2
I0609 09:34:25.061417 26882 net.cpp:396] conv6_2_relu -> conv6_2 (in-place)
I0609 09:34:25.061435 26882 layer.hpp:71] 
I0609 09:34:25.062332 26882 net.cpp:151] Setting up conv6_2_relu
I0609 09:34:25.062361 26882 net.cpp:158] Top shape: 4 512 10 10 (204800)
I0609 09:34:25.062373 26882 net.cpp:166] Memory required for data: 936439840
I0609 09:34:25.062379 26882 layer_factory.hpp:77] Creating layer conv6_2_conv6_2_relu_0_split
I0609 09:34:25.062398 26882 net.cpp:100] Creating Layer conv6_2_conv6_2_relu_0_split
I0609 09:34:25.062412 26882 net.cpp:435] conv6_2_conv6_2_relu_0_split <- conv6_2
I0609 09:34:25.062423 26882 net.cpp:409] conv6_2_conv6_2_relu_0_split -> conv6_2_conv6_2_relu_0_split_0
I0609 09:34:25.062443 26882 net.cpp:409] conv6_2_conv6_2_relu_0_split -> conv6_2_conv6_2_relu_0_split_1
I0609 09:34:25.062461 26882 net.cpp:409] conv6_2_conv6_2_relu_0_split -> conv6_2_conv6_2_relu_0_split_2
I0609 09:34:25.062479 26882 net.cpp:409] conv6_2_conv6_2_relu_0_split -> conv6_2_conv6_2_relu_0_split_3
I0609 09:34:25.062494 26882 layer.hpp:71] 
I0609 09:34:25.062650 26882 net.cpp:151] Setting up conv6_2_conv6_2_relu_0_split
I0609 09:34:25.062669 26882 net.cpp:158] Top shape: 4 512 10 10 (204800)
I0609 09:34:25.062683 26882 net.cpp:158] Top shape: 4 512 10 10 (204800)
I0609 09:34:25.062690 26882 net.cpp:158] Top shape: 4 512 10 10 (204800)
I0609 09:34:25.062702 26882 net.cpp:158] Top shape: 4 512 10 10 (204800)
I0609 09:34:25.062707 26882 net.cpp:166] Memory required for data: 939716640
I0609 09:34:25.062721 26882 layer_factory.hpp:77] Creating layer conv7_1
I0609 09:34:25.062742 26882 net.cpp:100] Creating Layer conv7_1
I0609 09:34:25.062755 26882 net.cpp:435] conv7_1 <- conv6_2_conv6_2_relu_0_split_0
I0609 09:34:25.062767 26882 net.cpp:409] conv7_1 -> conv7_1
I0609 09:34:25.062783 26882 layer.hpp:71] 
I0609 09:34:25.066180 26882 net.cpp:151] Setting up conv7_1
I0609 09:34:25.066220 26882 net.cpp:158] Top shape: 4 128 10 10 (51200)
I0609 09:34:25.066226 26882 net.cpp:166] Memory required for data: 939921440
I0609 09:34:25.066269 26882 layer_factory.hpp:77] Creating layer conv7_1_relu
I0609 09:34:25.066288 26882 net.cpp:100] Creating Layer conv7_1_relu
I0609 09:34:25.066301 26882 net.cpp:435] conv7_1_relu <- conv7_1
I0609 09:34:25.066310 26882 net.cpp:396] conv7_1_relu -> conv7_1 (in-place)
I0609 09:34:25.066330 26882 layer.hpp:71] 
I0609 09:34:25.067201 26882 net.cpp:151] Setting up conv7_1_relu
I0609 09:34:25.067227 26882 net.cpp:158] Top shape: 4 128 10 10 (51200)
I0609 09:34:25.067239 26882 net.cpp:166] Memory required for data: 940126240
I0609 09:34:25.067247 26882 layer_factory.hpp:77] Creating layer conv7_2
I0609 09:34:25.067273 26882 net.cpp:100] Creating Layer conv7_2
I0609 09:34:25.067286 26882 net.cpp:435] conv7_2 <- conv7_1
I0609 09:34:25.067299 26882 net.cpp:409] conv7_2 -> conv7_2
I0609 09:34:25.067318 26882 layer.hpp:71] 
I0609 09:34:25.074043 26882 net.cpp:151] Setting up conv7_2
I0609 09:34:25.074120 26882 net.cpp:158] Top shape: 4 256 5 5 (25600)
I0609 09:34:25.074136 26882 net.cpp:166] Memory required for data: 940228640
I0609 09:34:25.074159 26882 layer_factory.hpp:77] Creating layer conv7_2_relu
I0609 09:34:25.074183 26882 net.cpp:100] Creating Layer conv7_2_relu
I0609 09:34:25.074200 26882 net.cpp:435] conv7_2_relu <- conv7_2
I0609 09:34:25.074218 26882 net.cpp:396] conv7_2_relu -> conv7_2 (in-place)
I0609 09:34:25.074240 26882 layer.hpp:71] 
I0609 09:34:25.074555 26882 net.cpp:151] Setting up conv7_2_relu
I0609 09:34:25.074582 26882 net.cpp:158] Top shape: 4 256 5 5 (25600)
I0609 09:34:25.074595 26882 net.cpp:166] Memory required for data: 940331040
I0609 09:34:25.074611 26882 layer_factory.hpp:77] Creating layer conv7_2_conv7_2_relu_0_split
I0609 09:34:25.074633 26882 net.cpp:100] Creating Layer conv7_2_conv7_2_relu_0_split
I0609 09:34:25.074648 26882 net.cpp:435] conv7_2_conv7_2_relu_0_split <- conv7_2
I0609 09:34:25.074668 26882 net.cpp:409] conv7_2_conv7_2_relu_0_split -> conv7_2_conv7_2_relu_0_split_0
I0609 09:34:25.074692 26882 net.cpp:409] conv7_2_conv7_2_relu_0_split -> conv7_2_conv7_2_relu_0_split_1
I0609 09:34:25.074712 26882 net.cpp:409] conv7_2_conv7_2_relu_0_split -> conv7_2_conv7_2_relu_0_split_2
I0609 09:34:25.074730 26882 net.cpp:409] conv7_2_conv7_2_relu_0_split -> conv7_2_conv7_2_relu_0_split_3
I0609 09:34:25.074749 26882 layer.hpp:71] 
I0609 09:34:25.074903 26882 net.cpp:151] Setting up conv7_2_conv7_2_relu_0_split
I0609 09:34:25.074926 26882 net.cpp:158] Top shape: 4 256 5 5 (25600)
I0609 09:34:25.074942 26882 net.cpp:158] Top shape: 4 256 5 5 (25600)
I0609 09:34:25.074957 26882 net.cpp:158] Top shape: 4 256 5 5 (25600)
I0609 09:34:25.074973 26882 net.cpp:158] Top shape: 4 256 5 5 (25600)
I0609 09:34:25.074986 26882 net.cpp:166] Memory required for data: 940740640
I0609 09:34:25.075000 26882 layer_factory.hpp:77] Creating layer conv8_1
I0609 09:34:25.075026 26882 net.cpp:100] Creating Layer conv8_1
I0609 09:34:25.075043 26882 net.cpp:435] conv8_1 <- conv7_2_conv7_2_relu_0_split_0
I0609 09:34:25.075068 26882 net.cpp:409] conv8_1 -> conv8_1
I0609 09:34:25.075093 26882 layer.hpp:71] 
I0609 09:34:25.078076 26882 net.cpp:151] Setting up conv8_1
I0609 09:34:25.078119 26882 net.cpp:158] Top shape: 4 128 5 5 (12800)
I0609 09:34:25.078135 26882 net.cpp:166] Memory required for data: 940791840
I0609 09:34:25.078152 26882 layer_factory.hpp:77] Creating layer conv8_1_relu
I0609 09:34:25.078171 26882 net.cpp:100] Creating Layer conv8_1_relu
I0609 09:34:25.078186 26882 net.cpp:435] conv8_1_relu <- conv8_1
I0609 09:34:25.078207 26882 net.cpp:396] conv8_1_relu -> conv8_1 (in-place)
I0609 09:34:25.078225 26882 layer.hpp:71] 
I0609 09:34:25.079083 26882 net.cpp:151] Setting up conv8_1_relu
I0609 09:34:25.079109 26882 net.cpp:158] Top shape: 4 128 5 5 (12800)
I0609 09:34:25.079115 26882 net.cpp:166] Memory required for data: 940843040
I0609 09:34:25.079128 26882 layer_factory.hpp:77] Creating layer conv8_2
I0609 09:34:25.079144 26882 net.cpp:100] Creating Layer conv8_2
I0609 09:34:25.079159 26882 net.cpp:435] conv8_2 <- conv8_1
I0609 09:34:25.079169 26882 net.cpp:409] conv8_2 -> conv8_2
I0609 09:34:25.079205 26882 layer.hpp:71] 
I0609 09:34:25.085999 26882 net.cpp:151] Setting up conv8_2
I0609 09:34:25.086058 26882 net.cpp:158] Top shape: 4 256 3 3 (9216)
I0609 09:34:25.086067 26882 net.cpp:166] Memory required for data: 940879904
I0609 09:34:25.086082 26882 layer_factory.hpp:77] Creating layer conv8_2_relu
I0609 09:34:25.086102 26882 net.cpp:100] Creating Layer conv8_2_relu
I0609 09:34:25.086117 26882 net.cpp:435] conv8_2_relu <- conv8_2
I0609 09:34:25.086132 26882 net.cpp:396] conv8_2_relu -> conv8_2 (in-place)
I0609 09:34:25.086149 26882 layer.hpp:71] 
I0609 09:34:25.086462 26882 net.cpp:151] Setting up conv8_2_relu
I0609 09:34:25.086485 26882 net.cpp:158] Top shape: 4 256 3 3 (9216)
I0609 09:34:25.086498 26882 net.cpp:166] Memory required for data: 940916768
I0609 09:34:25.086503 26882 layer_factory.hpp:77] Creating layer conv8_2_conv8_2_relu_0_split
I0609 09:34:25.086519 26882 net.cpp:100] Creating Layer conv8_2_conv8_2_relu_0_split
I0609 09:34:25.086534 26882 net.cpp:435] conv8_2_conv8_2_relu_0_split <- conv8_2
I0609 09:34:25.086545 26882 net.cpp:409] conv8_2_conv8_2_relu_0_split -> conv8_2_conv8_2_relu_0_split_0
I0609 09:34:25.086563 26882 net.cpp:409] conv8_2_conv8_2_relu_0_split -> conv8_2_conv8_2_relu_0_split_1
I0609 09:34:25.086585 26882 net.cpp:409] conv8_2_conv8_2_relu_0_split -> conv8_2_conv8_2_relu_0_split_2
I0609 09:34:25.086601 26882 net.cpp:409] conv8_2_conv8_2_relu_0_split -> conv8_2_conv8_2_relu_0_split_3
I0609 09:34:25.086612 26882 layer.hpp:71] 
I0609 09:34:25.086766 26882 net.cpp:151] Setting up conv8_2_conv8_2_relu_0_split
I0609 09:34:25.086783 26882 net.cpp:158] Top shape: 4 256 3 3 (9216)
I0609 09:34:25.086799 26882 net.cpp:158] Top shape: 4 256 3 3 (9216)
I0609 09:34:25.086807 26882 net.cpp:158] Top shape: 4 256 3 3 (9216)
I0609 09:34:25.086818 26882 net.cpp:158] Top shape: 4 256 3 3 (9216)
I0609 09:34:25.086823 26882 net.cpp:166] Memory required for data: 941064224
I0609 09:34:25.086836 26882 layer_factory.hpp:77] Creating layer conv9_1
I0609 09:34:25.086855 26882 net.cpp:100] Creating Layer conv9_1
I0609 09:34:25.086869 26882 net.cpp:435] conv9_1 <- conv8_2_conv8_2_relu_0_split_0
I0609 09:34:25.086881 26882 net.cpp:409] conv9_1 -> conv9_1
I0609 09:34:25.086899 26882 layer.hpp:71] 
I0609 09:34:25.090016 26882 net.cpp:151] Setting up conv9_1
I0609 09:34:25.090051 26882 net.cpp:158] Top shape: 4 128 3 3 (4608)
I0609 09:34:25.090065 26882 net.cpp:166] Memory required for data: 941082656
I0609 09:34:25.090077 26882 layer_factory.hpp:77] Creating layer conv9_1_relu
I0609 09:34:25.090092 26882 net.cpp:100] Creating Layer conv9_1_relu
I0609 09:34:25.090104 26882 net.cpp:435] conv9_1_relu <- conv9_1
I0609 09:34:25.090113 26882 net.cpp:396] conv9_1_relu -> conv9_1 (in-place)
I0609 09:34:25.090131 26882 layer.hpp:71] 
I0609 09:34:25.091068 26882 net.cpp:151] Setting up conv9_1_relu
I0609 09:34:25.091095 26882 net.cpp:158] Top shape: 4 128 3 3 (4608)
I0609 09:34:25.091101 26882 net.cpp:166] Memory required for data: 941101088
I0609 09:34:25.091116 26882 layer_factory.hpp:77] Creating layer conv9_2
I0609 09:34:25.091133 26882 net.cpp:100] Creating Layer conv9_2
I0609 09:34:25.091147 26882 net.cpp:435] conv9_2 <- conv9_1
I0609 09:34:25.091161 26882 net.cpp:409] conv9_2 -> conv9_2
I0609 09:34:25.091179 26882 layer.hpp:71] 
I0609 09:34:25.097980 26882 net.cpp:151] Setting up conv9_2
I0609 09:34:25.098037 26882 net.cpp:158] Top shape: 4 256 1 1 (1024)
I0609 09:34:25.098044 26882 net.cpp:166] Memory required for data: 941105184
I0609 09:34:25.098060 26882 layer_factory.hpp:77] Creating layer conv9_2_relu
I0609 09:34:25.098080 26882 net.cpp:100] Creating Layer conv9_2_relu
I0609 09:34:25.098094 26882 net.cpp:435] conv9_2_relu <- conv9_2
I0609 09:34:25.098107 26882 net.cpp:396] conv9_2_relu -> conv9_2 (in-place)
I0609 09:34:25.098126 26882 layer.hpp:71] 
I0609 09:34:25.099014 26882 net.cpp:151] Setting up conv9_2_relu
I0609 09:34:25.099040 26882 net.cpp:158] Top shape: 4 256 1 1 (1024)
I0609 09:34:25.099053 26882 net.cpp:166] Memory required for data: 941109280
I0609 09:34:25.099061 26882 layer_factory.hpp:77] Creating layer conv9_2_conv9_2_relu_0_split
I0609 09:34:25.099104 26882 net.cpp:100] Creating Layer conv9_2_conv9_2_relu_0_split
I0609 09:34:25.099117 26882 net.cpp:435] conv9_2_conv9_2_relu_0_split <- conv9_2
I0609 09:34:25.099130 26882 net.cpp:409] conv9_2_conv9_2_relu_0_split -> conv9_2_conv9_2_relu_0_split_0
I0609 09:34:25.099150 26882 net.cpp:409] conv9_2_conv9_2_relu_0_split -> conv9_2_conv9_2_relu_0_split_1
I0609 09:34:25.099167 26882 net.cpp:409] conv9_2_conv9_2_relu_0_split -> conv9_2_conv9_2_relu_0_split_2
I0609 09:34:25.099184 26882 layer.hpp:71] 
I0609 09:34:25.099310 26882 net.cpp:151] Setting up conv9_2_conv9_2_relu_0_split
I0609 09:34:25.099328 26882 net.cpp:158] Top shape: 4 256 1 1 (1024)
I0609 09:34:25.099339 26882 net.cpp:158] Top shape: 4 256 1 1 (1024)
I0609 09:34:25.099351 26882 net.cpp:158] Top shape: 4 256 1 1 (1024)
I0609 09:34:25.099355 26882 net.cpp:166] Memory required for data: 941121568
I0609 09:34:25.099369 26882 layer_factory.hpp:77] Creating layer conv4_3_norm
I0609 09:34:25.099382 26882 net.cpp:100] Creating Layer conv4_3_norm
I0609 09:34:25.099395 26882 net.cpp:435] conv4_3_norm <- conv4_3_relu4_3_0_split_1
I0609 09:34:25.099406 26882 net.cpp:409] conv4_3_norm -> conv4_3_norm
I0609 09:34:25.099424 26882 layer.hpp:71] 
I0609 09:34:25.099798 26882 net.cpp:151] Setting up conv4_3_norm
I0609 09:34:25.099817 26882 net.cpp:158] Top shape: 4 512 38 38 (2957312)
I0609 09:34:25.099829 26882 net.cpp:166] Memory required for data: 952950816
I0609 09:34:25.099839 26882 layer_factory.hpp:77] Creating layer conv4_3_norm_conv4_3_norm_0_split
I0609 09:34:25.099856 26882 net.cpp:100] Creating Layer conv4_3_norm_conv4_3_norm_0_split
I0609 09:34:25.099867 26882 net.cpp:435] conv4_3_norm_conv4_3_norm_0_split <- conv4_3_norm
I0609 09:34:25.099876 26882 net.cpp:409] conv4_3_norm_conv4_3_norm_0_split -> conv4_3_norm_conv4_3_norm_0_split_0
I0609 09:34:25.099895 26882 net.cpp:409] conv4_3_norm_conv4_3_norm_0_split -> conv4_3_norm_conv4_3_norm_0_split_1
I0609 09:34:25.099910 26882 net.cpp:409] conv4_3_norm_conv4_3_norm_0_split -> conv4_3_norm_conv4_3_norm_0_split_2
I0609 09:34:25.099930 26882 layer.hpp:71] 
I0609 09:34:25.100040 26882 net.cpp:151] Setting up conv4_3_norm_conv4_3_norm_0_split
I0609 09:34:25.100059 26882 net.cpp:158] Top shape: 4 512 38 38 (2957312)
I0609 09:34:25.100069 26882 net.cpp:158] Top shape: 4 512 38 38 (2957312)
I0609 09:34:25.100081 26882 net.cpp:158] Top shape: 4 512 38 38 (2957312)
I0609 09:34:25.100085 26882 net.cpp:166] Memory required for data: 988438560
I0609 09:34:25.100097 26882 layer_factory.hpp:77] Creating layer conv4_3_norm_mbox_loc
I0609 09:34:25.100116 26882 net.cpp:100] Creating Layer conv4_3_norm_mbox_loc
I0609 09:34:25.100129 26882 net.cpp:435] conv4_3_norm_mbox_loc <- conv4_3_norm_conv4_3_norm_0_split_0
I0609 09:34:25.100142 26882 net.cpp:409] conv4_3_norm_mbox_loc -> conv4_3_norm_mbox_loc
I0609 09:34:25.100160 26882 layer.hpp:71] 
I0609 09:34:25.103725 26882 net.cpp:151] Setting up conv4_3_norm_mbox_loc
I0609 09:34:25.103768 26882 net.cpp:158] Top shape: 4 16 38 38 (92416)
I0609 09:34:25.103775 26882 net.cpp:166] Memory required for data: 988808224
I0609 09:34:25.103796 26882 layer_factory.hpp:77] Creating layer conv4_3_norm_mbox_loc_perm
I0609 09:34:25.103814 26882 net.cpp:100] Creating Layer conv4_3_norm_mbox_loc_perm
I0609 09:34:25.103828 26882 net.cpp:435] conv4_3_norm_mbox_loc_perm <- conv4_3_norm_mbox_loc
I0609 09:34:25.103842 26882 net.cpp:409] conv4_3_norm_mbox_loc_perm -> conv4_3_norm_mbox_loc_perm
I0609 09:34:25.103862 26882 layer.hpp:71] 
I0609 09:34:25.104094 26882 net.cpp:151] Setting up conv4_3_norm_mbox_loc_perm
I0609 09:34:25.104111 26882 net.cpp:158] Top shape: 4 38 38 16 (92416)
I0609 09:34:25.104116 26882 net.cpp:166] Memory required for data: 989177888
I0609 09:34:25.104130 26882 layer_factory.hpp:77] Creating layer conv4_3_norm_mbox_loc_flat
I0609 09:34:25.104140 26882 net.cpp:100] Creating Layer conv4_3_norm_mbox_loc_flat
I0609 09:34:25.104151 26882 net.cpp:435] conv4_3_norm_mbox_loc_flat <- conv4_3_norm_mbox_loc_perm
I0609 09:34:25.104188 26882 net.cpp:409] conv4_3_norm_mbox_loc_flat -> conv4_3_norm_mbox_loc_flat
I0609 09:34:25.104224 26882 layer.hpp:71] 
I0609 09:34:25.104281 26882 net.cpp:151] Setting up conv4_3_norm_mbox_loc_flat
I0609 09:34:25.104298 26882 net.cpp:158] Top shape: 4 23104 (92416)
I0609 09:34:25.104310 26882 net.cpp:166] Memory required for data: 989547552
I0609 09:34:25.104316 26882 layer_factory.hpp:77] Creating layer conv4_3_norm_mbox_conf
I0609 09:34:25.104351 26882 net.cpp:100] Creating Layer conv4_3_norm_mbox_conf
I0609 09:34:25.104363 26882 net.cpp:435] conv4_3_norm_mbox_conf <- conv4_3_norm_conv4_3_norm_0_split_1
I0609 09:34:25.104374 26882 net.cpp:409] conv4_3_norm_mbox_conf -> conv4_3_norm_mbox_conf
I0609 09:34:25.104393 26882 layer.hpp:71] 
I0609 09:34:25.108069 26882 net.cpp:151] Setting up conv4_3_norm_mbox_conf
I0609 09:34:25.108103 26882 net.cpp:158] Top shape: 4 8 38 38 (46208)
I0609 09:34:25.108119 26882 net.cpp:166] Memory required for data: 989732384
I0609 09:34:25.108134 26882 layer_factory.hpp:77] Creating layer conv4_3_norm_mbox_conf_perm
I0609 09:34:25.108151 26882 net.cpp:100] Creating Layer conv4_3_norm_mbox_conf_perm
I0609 09:34:25.108163 26882 net.cpp:435] conv4_3_norm_mbox_conf_perm <- conv4_3_norm_mbox_conf
I0609 09:34:25.108175 26882 net.cpp:409] conv4_3_norm_mbox_conf_perm -> conv4_3_norm_mbox_conf_perm
I0609 09:34:25.108196 26882 layer.hpp:71] 
I0609 09:34:25.108444 26882 net.cpp:151] Setting up conv4_3_norm_mbox_conf_perm
I0609 09:34:25.108464 26882 net.cpp:158] Top shape: 4 38 38 8 (46208)
I0609 09:34:25.108475 26882 net.cpp:166] Memory required for data: 989917216
I0609 09:34:25.108481 26882 layer_factory.hpp:77] Creating layer conv4_3_norm_mbox_conf_flat
I0609 09:34:25.108500 26882 net.cpp:100] Creating Layer conv4_3_norm_mbox_conf_flat
I0609 09:34:25.108511 26882 net.cpp:435] conv4_3_norm_mbox_conf_flat <- conv4_3_norm_mbox_conf_perm
I0609 09:34:25.108522 26882 net.cpp:409] conv4_3_norm_mbox_conf_flat -> conv4_3_norm_mbox_conf_flat
I0609 09:34:25.108539 26882 layer.hpp:71] 
I0609 09:34:25.108595 26882 net.cpp:151] Setting up conv4_3_norm_mbox_conf_flat
I0609 09:34:25.108610 26882 net.cpp:158] Top shape: 4 11552 (46208)
I0609 09:34:25.108615 26882 net.cpp:166] Memory required for data: 990102048
I0609 09:34:25.108628 26882 layer_factory.hpp:77] Creating layer conv4_3_norm_mbox_priorbox
I0609 09:34:25.108642 26882 net.cpp:100] Creating Layer conv4_3_norm_mbox_priorbox
I0609 09:34:25.108654 26882 net.cpp:435] conv4_3_norm_mbox_priorbox <- conv4_3_norm_conv4_3_norm_0_split_2
I0609 09:34:25.108664 26882 net.cpp:435] conv4_3_norm_mbox_priorbox <- data_data_0_split_1
I0609 09:34:25.108681 26882 net.cpp:409] conv4_3_norm_mbox_priorbox -> conv4_3_norm_mbox_priorbox
I0609 09:34:25.108698 26882 layer.hpp:71] 
I0609 09:34:25.108757 26882 net.cpp:151] Setting up conv4_3_norm_mbox_priorbox
I0609 09:34:25.108772 26882 net.cpp:158] Top shape: 1 2 23104 (46208)
I0609 09:34:25.108785 26882 net.cpp:166] Memory required for data: 990286880
I0609 09:34:25.108791 26882 layer_factory.hpp:77] Creating layer fc7_mbox_loc
I0609 09:34:25.108814 26882 net.cpp:100] Creating Layer fc7_mbox_loc
I0609 09:34:25.108827 26882 net.cpp:435] fc7_mbox_loc <- fc7_relu7_0_split_1
I0609 09:34:25.108839 26882 net.cpp:409] fc7_mbox_loc -> fc7_mbox_loc
I0609 09:34:25.108855 26882 layer.hpp:71] 
I0609 09:34:25.114707 26882 net.cpp:151] Setting up fc7_mbox_loc
I0609 09:34:25.114763 26882 net.cpp:158] Top shape: 4 24 19 19 (34656)
I0609 09:34:25.114770 26882 net.cpp:166] Memory required for data: 990425504
I0609 09:34:25.114791 26882 layer_factory.hpp:77] Creating layer fc7_mbox_loc_perm
I0609 09:34:25.114814 26882 net.cpp:100] Creating Layer fc7_mbox_loc_perm
I0609 09:34:25.114827 26882 net.cpp:435] fc7_mbox_loc_perm <- fc7_mbox_loc
I0609 09:34:25.114845 26882 net.cpp:409] fc7_mbox_loc_perm -> fc7_mbox_loc_perm
I0609 09:34:25.114864 26882 layer.hpp:71] 
I0609 09:34:25.115106 26882 net.cpp:151] Setting up fc7_mbox_loc_perm
I0609 09:34:25.115125 26882 net.cpp:158] Top shape: 4 19 19 24 (34656)
I0609 09:34:25.115137 26882 net.cpp:166] Memory required for data: 990564128
I0609 09:34:25.115170 26882 layer_factory.hpp:77] Creating layer fc7_mbox_loc_flat
I0609 09:34:25.115190 26882 net.cpp:100] Creating Layer fc7_mbox_loc_flat
I0609 09:34:25.115201 26882 net.cpp:435] fc7_mbox_loc_flat <- fc7_mbox_loc_perm
I0609 09:34:25.115219 26882 net.cpp:409] fc7_mbox_loc_flat -> fc7_mbox_loc_flat
I0609 09:34:25.115236 26882 layer.hpp:71] 
I0609 09:34:25.115298 26882 net.cpp:151] Setting up fc7_mbox_loc_flat
I0609 09:34:25.115314 26882 net.cpp:158] Top shape: 4 8664 (34656)
I0609 09:34:25.115325 26882 net.cpp:166] Memory required for data: 990702752
I0609 09:34:25.115330 26882 layer_factory.hpp:77] Creating layer fc7_mbox_conf
I0609 09:34:25.115352 26882 net.cpp:100] Creating Layer fc7_mbox_conf
I0609 09:34:25.115365 26882 net.cpp:435] fc7_mbox_conf <- fc7_relu7_0_split_2
I0609 09:34:25.115384 26882 net.cpp:409] fc7_mbox_conf -> fc7_mbox_conf
I0609 09:34:25.115401 26882 layer.hpp:71] 
I0609 09:34:25.120043 26882 net.cpp:151] Setting up fc7_mbox_conf
I0609 09:34:25.120080 26882 net.cpp:158] Top shape: 4 12 19 19 (17328)
I0609 09:34:25.120087 26882 net.cpp:166] Memory required for data: 990772064
I0609 09:34:25.120100 26882 layer_factory.hpp:77] Creating layer fc7_mbox_conf_perm
I0609 09:34:25.120120 26882 net.cpp:100] Creating Layer fc7_mbox_conf_perm
I0609 09:34:25.120132 26882 net.cpp:435] fc7_mbox_conf_perm <- fc7_mbox_conf
I0609 09:34:25.120143 26882 net.cpp:409] fc7_mbox_conf_perm -> fc7_mbox_conf_perm
I0609 09:34:25.120162 26882 layer.hpp:71] 
I0609 09:34:25.120401 26882 net.cpp:151] Setting up fc7_mbox_conf_perm
I0609 09:34:25.120419 26882 net.cpp:158] Top shape: 4 19 19 12 (17328)
I0609 09:34:25.120432 26882 net.cpp:166] Memory required for data: 990841376
I0609 09:34:25.120437 26882 layer_factory.hpp:77] Creating layer fc7_mbox_conf_flat
I0609 09:34:25.120452 26882 net.cpp:100] Creating Layer fc7_mbox_conf_flat
I0609 09:34:25.120460 26882 net.cpp:435] fc7_mbox_conf_flat <- fc7_mbox_conf_perm
I0609 09:34:25.120481 26882 net.cpp:409] fc7_mbox_conf_flat -> fc7_mbox_conf_flat
I0609 09:34:25.120496 26882 layer.hpp:71] 
I0609 09:34:25.120554 26882 net.cpp:151] Setting up fc7_mbox_conf_flat
I0609 09:34:25.120569 26882 net.cpp:158] Top shape: 4 4332 (17328)
I0609 09:34:25.120578 26882 net.cpp:166] Memory required for data: 990910688
I0609 09:34:25.120582 26882 layer_factory.hpp:77] Creating layer fc7_mbox_priorbox
I0609 09:34:25.120599 26882 net.cpp:100] Creating Layer fc7_mbox_priorbox
I0609 09:34:25.120611 26882 net.cpp:435] fc7_mbox_priorbox <- fc7_relu7_0_split_3
I0609 09:34:25.120620 26882 net.cpp:435] fc7_mbox_priorbox <- data_data_0_split_2
I0609 09:34:25.120637 26882 net.cpp:409] fc7_mbox_priorbox -> fc7_mbox_priorbox
I0609 09:34:25.120653 26882 layer.hpp:71] 
I0609 09:34:25.120714 26882 net.cpp:151] Setting up fc7_mbox_priorbox
I0609 09:34:25.120731 26882 net.cpp:158] Top shape: 1 2 8664 (17328)
I0609 09:34:25.120739 26882 net.cpp:166] Memory required for data: 990980000
I0609 09:34:25.120744 26882 layer_factory.hpp:77] Creating layer conv6_2_mbox_loc
I0609 09:34:25.120766 26882 net.cpp:100] Creating Layer conv6_2_mbox_loc
I0609 09:34:25.120781 26882 net.cpp:435] conv6_2_mbox_loc <- conv6_2_conv6_2_relu_0_split_1
I0609 09:34:25.120795 26882 net.cpp:409] conv6_2_mbox_loc -> conv6_2_mbox_loc
I0609 09:34:25.120810 26882 layer.hpp:71] 
I0609 09:34:25.125274 26882 net.cpp:151] Setting up conv6_2_mbox_loc
I0609 09:34:25.125308 26882 net.cpp:158] Top shape: 4 24 10 10 (9600)
I0609 09:34:25.125314 26882 net.cpp:166] Memory required for data: 991018400
I0609 09:34:25.125334 26882 layer_factory.hpp:77] Creating layer conv6_2_mbox_loc_perm
I0609 09:34:25.125355 26882 net.cpp:100] Creating Layer conv6_2_mbox_loc_perm
I0609 09:34:25.125368 26882 net.cpp:435] conv6_2_mbox_loc_perm <- conv6_2_mbox_loc
I0609 09:34:25.125378 26882 net.cpp:409] conv6_2_mbox_loc_perm -> conv6_2_mbox_loc_perm
I0609 09:34:25.125396 26882 layer.hpp:71] 
I0609 09:34:25.125649 26882 net.cpp:151] Setting up conv6_2_mbox_loc_perm
I0609 09:34:25.125669 26882 net.cpp:158] Top shape: 4 10 10 24 (9600)
I0609 09:34:25.125705 26882 net.cpp:166] Memory required for data: 991056800
I0609 09:34:25.125711 26882 layer_factory.hpp:77] Creating layer conv6_2_mbox_loc_flat
I0609 09:34:25.125720 26882 net.cpp:100] Creating Layer conv6_2_mbox_loc_flat
I0609 09:34:25.125733 26882 net.cpp:435] conv6_2_mbox_loc_flat <- conv6_2_mbox_loc_perm
I0609 09:34:25.125744 26882 net.cpp:409] conv6_2_mbox_loc_flat -> conv6_2_mbox_loc_flat
I0609 09:34:25.125761 26882 layer.hpp:71] 
I0609 09:34:25.125819 26882 net.cpp:151] Setting up conv6_2_mbox_loc_flat
I0609 09:34:25.125836 26882 net.cpp:158] Top shape: 4 2400 (9600)
I0609 09:34:25.125841 26882 net.cpp:166] Memory required for data: 991095200
I0609 09:34:25.125846 26882 layer_factory.hpp:77] Creating layer conv6_2_mbox_conf
I0609 09:34:25.125882 26882 net.cpp:100] Creating Layer conv6_2_mbox_conf
I0609 09:34:25.125897 26882 net.cpp:435] conv6_2_mbox_conf <- conv6_2_conv6_2_relu_0_split_2
I0609 09:34:25.125910 26882 net.cpp:409] conv6_2_mbox_conf -> conv6_2_mbox_conf
I0609 09:34:25.125928 26882 layer.hpp:71] 
I0609 09:34:25.130733 26882 net.cpp:151] Setting up conv6_2_mbox_conf
I0609 09:34:25.130779 26882 net.cpp:158] Top shape: 4 12 10 10 (4800)
I0609 09:34:25.130786 26882 net.cpp:166] Memory required for data: 991114400
I0609 09:34:25.130800 26882 layer_factory.hpp:77] Creating layer conv6_2_mbox_conf_perm
I0609 09:34:25.130820 26882 net.cpp:100] Creating Layer conv6_2_mbox_conf_perm
I0609 09:34:25.130836 26882 net.cpp:435] conv6_2_mbox_conf_perm <- conv6_2_mbox_conf
I0609 09:34:25.130851 26882 net.cpp:409] conv6_2_mbox_conf_perm -> conv6_2_mbox_conf_perm
I0609 09:34:25.130870 26882 layer.hpp:71] 
I0609 09:34:25.131130 26882 net.cpp:151] Setting up conv6_2_mbox_conf_perm
I0609 09:34:25.131150 26882 net.cpp:158] Top shape: 4 10 10 12 (4800)
I0609 09:34:25.131157 26882 net.cpp:166] Memory required for data: 991133600
I0609 09:34:25.131163 26882 layer_factory.hpp:77] Creating layer conv6_2_mbox_conf_flat
I0609 09:34:25.131182 26882 net.cpp:100] Creating Layer conv6_2_mbox_conf_flat
I0609 09:34:25.131196 26882 net.cpp:435] conv6_2_mbox_conf_flat <- conv6_2_mbox_conf_perm
I0609 09:34:25.131206 26882 net.cpp:409] conv6_2_mbox_conf_flat -> conv6_2_mbox_conf_flat
I0609 09:34:25.131222 26882 layer.hpp:71] 
I0609 09:34:25.131284 26882 net.cpp:151] Setting up conv6_2_mbox_conf_flat
I0609 09:34:25.131301 26882 net.cpp:158] Top shape: 4 1200 (4800)
I0609 09:34:25.131306 26882 net.cpp:166] Memory required for data: 991152800
I0609 09:34:25.131317 26882 layer_factory.hpp:77] Creating layer conv6_2_mbox_priorbox
I0609 09:34:25.131331 26882 net.cpp:100] Creating Layer conv6_2_mbox_priorbox
I0609 09:34:25.131345 26882 net.cpp:435] conv6_2_mbox_priorbox <- conv6_2_conv6_2_relu_0_split_3
I0609 09:34:25.131353 26882 net.cpp:435] conv6_2_mbox_priorbox <- data_data_0_split_3
I0609 09:34:25.131369 26882 net.cpp:409] conv6_2_mbox_priorbox -> conv6_2_mbox_priorbox
I0609 09:34:25.131386 26882 layer.hpp:71] 
I0609 09:34:25.131453 26882 net.cpp:151] Setting up conv6_2_mbox_priorbox
I0609 09:34:25.131469 26882 net.cpp:158] Top shape: 1 2 2400 (4800)
I0609 09:34:25.131474 26882 net.cpp:166] Memory required for data: 991172000
I0609 09:34:25.131486 26882 layer_factory.hpp:77] Creating layer conv7_2_mbox_loc
I0609 09:34:25.131505 26882 net.cpp:100] Creating Layer conv7_2_mbox_loc
I0609 09:34:25.131517 26882 net.cpp:435] conv7_2_mbox_loc <- conv7_2_conv7_2_relu_0_split_1
I0609 09:34:25.131531 26882 net.cpp:409] conv7_2_mbox_loc -> conv7_2_mbox_loc
I0609 09:34:25.131547 26882 layer.hpp:71] 
I0609 09:34:25.135015 26882 net.cpp:151] Setting up conv7_2_mbox_loc
I0609 09:34:25.135056 26882 net.cpp:158] Top shape: 4 24 5 5 (2400)
I0609 09:34:25.135063 26882 net.cpp:166] Memory required for data: 991181600
I0609 09:34:25.135077 26882 layer_factory.hpp:77] Creating layer conv7_2_mbox_loc_perm
I0609 09:34:25.135097 26882 net.cpp:100] Creating Layer conv7_2_mbox_loc_perm
I0609 09:34:25.135110 26882 net.cpp:435] conv7_2_mbox_loc_perm <- conv7_2_mbox_loc
I0609 09:34:25.135124 26882 net.cpp:409] conv7_2_mbox_loc_perm -> conv7_2_mbox_loc_perm
I0609 09:34:25.135169 26882 layer.hpp:71] 
I0609 09:34:25.135432 26882 net.cpp:151] Setting up conv7_2_mbox_loc_perm
I0609 09:34:25.135449 26882 net.cpp:158] Top shape: 4 5 5 24 (2400)
I0609 09:34:25.135455 26882 net.cpp:166] Memory required for data: 991191200
I0609 09:34:25.135466 26882 layer_factory.hpp:77] Creating layer conv7_2_mbox_loc_flat
I0609 09:34:25.135481 26882 net.cpp:100] Creating Layer conv7_2_mbox_loc_flat
I0609 09:34:25.135493 26882 net.cpp:435] conv7_2_mbox_loc_flat <- conv7_2_mbox_loc_perm
I0609 09:34:25.135504 26882 net.cpp:409] conv7_2_mbox_loc_flat -> conv7_2_mbox_loc_flat
I0609 09:34:25.135520 26882 layer.hpp:71] 
I0609 09:34:25.135576 26882 net.cpp:151] Setting up conv7_2_mbox_loc_flat
I0609 09:34:25.135592 26882 net.cpp:158] Top shape: 4 600 (2400)
I0609 09:34:25.135597 26882 net.cpp:166] Memory required for data: 991200800
I0609 09:34:25.135608 26882 layer_factory.hpp:77] Creating layer conv7_2_mbox_conf
I0609 09:34:25.135630 26882 net.cpp:100] Creating Layer conv7_2_mbox_conf
I0609 09:34:25.135643 26882 net.cpp:435] conv7_2_mbox_conf <- conv7_2_conv7_2_relu_0_split_2
I0609 09:34:25.135654 26882 net.cpp:409] conv7_2_mbox_conf -> conv7_2_mbox_conf
I0609 09:34:25.135670 26882 layer.hpp:71] 
I0609 09:34:25.138809 26882 net.cpp:151] Setting up conv7_2_mbox_conf
I0609 09:34:25.138840 26882 net.cpp:158] Top shape: 4 12 5 5 (1200)
I0609 09:34:25.138846 26882 net.cpp:166] Memory required for data: 991205600
I0609 09:34:25.138860 26882 layer_factory.hpp:77] Creating layer conv7_2_mbox_conf_perm
I0609 09:34:25.138881 26882 net.cpp:100] Creating Layer conv7_2_mbox_conf_perm
I0609 09:34:25.138895 26882 net.cpp:435] conv7_2_mbox_conf_perm <- conv7_2_mbox_conf
I0609 09:34:25.138905 26882 net.cpp:409] conv7_2_mbox_conf_perm -> conv7_2_mbox_conf_perm
I0609 09:34:25.138923 26882 layer.hpp:71] 
I0609 09:34:25.139175 26882 net.cpp:151] Setting up conv7_2_mbox_conf_perm
I0609 09:34:25.139194 26882 net.cpp:158] Top shape: 4 5 5 12 (1200)
I0609 09:34:25.139199 26882 net.cpp:166] Memory required for data: 991210400
I0609 09:34:25.139209 26882 layer_factory.hpp:77] Creating layer conv7_2_mbox_conf_flat
I0609 09:34:25.139222 26882 net.cpp:100] Creating Layer conv7_2_mbox_conf_flat
I0609 09:34:25.139235 26882 net.cpp:435] conv7_2_mbox_conf_flat <- conv7_2_mbox_conf_perm
I0609 09:34:25.139243 26882 net.cpp:409] conv7_2_mbox_conf_flat -> conv7_2_mbox_conf_flat
I0609 09:34:25.139258 26882 layer.hpp:71] 
I0609 09:34:25.139317 26882 net.cpp:151] Setting up conv7_2_mbox_conf_flat
I0609 09:34:25.139333 26882 net.cpp:158] Top shape: 4 300 (1200)
I0609 09:34:25.139338 26882 net.cpp:166] Memory required for data: 991215200
I0609 09:34:25.139348 26882 layer_factory.hpp:77] Creating layer conv7_2_mbox_priorbox
I0609 09:34:25.139364 26882 net.cpp:100] Creating Layer conv7_2_mbox_priorbox
I0609 09:34:25.139376 26882 net.cpp:435] conv7_2_mbox_priorbox <- conv7_2_conv7_2_relu_0_split_3
I0609 09:34:25.139385 26882 net.cpp:435] conv7_2_mbox_priorbox <- data_data_0_split_4
I0609 09:34:25.139401 26882 net.cpp:409] conv7_2_mbox_priorbox -> conv7_2_mbox_priorbox
I0609 09:34:25.139420 26882 layer.hpp:71] 
I0609 09:34:25.139482 26882 net.cpp:151] Setting up conv7_2_mbox_priorbox
I0609 09:34:25.139497 26882 net.cpp:158] Top shape: 1 2 600 (1200)
I0609 09:34:25.139503 26882 net.cpp:166] Memory required for data: 991220000
I0609 09:34:25.139513 26882 layer_factory.hpp:77] Creating layer conv8_2_mbox_loc
I0609 09:34:25.139533 26882 net.cpp:100] Creating Layer conv8_2_mbox_loc
I0609 09:34:25.139546 26882 net.cpp:435] conv8_2_mbox_loc <- conv8_2_conv8_2_relu_0_split_1
I0609 09:34:25.139559 26882 net.cpp:409] conv8_2_mbox_loc -> conv8_2_mbox_loc
I0609 09:34:25.139577 26882 layer.hpp:71] 
I0609 09:34:25.142725 26882 net.cpp:151] Setting up conv8_2_mbox_loc
I0609 09:34:25.142756 26882 net.cpp:158] Top shape: 4 16 3 3 (576)
I0609 09:34:25.142762 26882 net.cpp:166] Memory required for data: 991222304
I0609 09:34:25.142791 26882 layer_factory.hpp:77] Creating layer conv8_2_mbox_loc_perm
I0609 09:34:25.142812 26882 net.cpp:100] Creating Layer conv8_2_mbox_loc_perm
I0609 09:34:25.142848 26882 net.cpp:435] conv8_2_mbox_loc_perm <- conv8_2_mbox_loc
I0609 09:34:25.142859 26882 net.cpp:409] conv8_2_mbox_loc_perm -> conv8_2_mbox_loc_perm
I0609 09:34:25.142880 26882 layer.hpp:71] 
I0609 09:34:25.143126 26882 net.cpp:151] Setting up conv8_2_mbox_loc_perm
I0609 09:34:25.143144 26882 net.cpp:158] Top shape: 4 3 3 16 (576)
I0609 09:34:25.143151 26882 net.cpp:166] Memory required for data: 991224608
I0609 09:34:25.143164 26882 layer_factory.hpp:77] Creating layer conv8_2_mbox_loc_flat
I0609 09:34:25.143173 26882 net.cpp:100] Creating Layer conv8_2_mbox_loc_flat
I0609 09:34:25.143184 26882 net.cpp:435] conv8_2_mbox_loc_flat <- conv8_2_mbox_loc_perm
I0609 09:34:25.143198 26882 net.cpp:409] conv8_2_mbox_loc_flat -> conv8_2_mbox_loc_flat
I0609 09:34:25.143214 26882 layer.hpp:71] 
I0609 09:34:25.143271 26882 net.cpp:151] Setting up conv8_2_mbox_loc_flat
I0609 09:34:25.143286 26882 net.cpp:158] Top shape: 4 144 (576)
I0609 09:34:25.143291 26882 net.cpp:166] Memory required for data: 991226912
I0609 09:34:25.143302 26882 layer_factory.hpp:77] Creating layer conv8_2_mbox_conf
I0609 09:34:25.143318 26882 net.cpp:100] Creating Layer conv8_2_mbox_conf
I0609 09:34:25.143331 26882 net.cpp:435] conv8_2_mbox_conf <- conv8_2_conv8_2_relu_0_split_2
I0609 09:34:25.143342 26882 net.cpp:409] conv8_2_mbox_conf -> conv8_2_mbox_conf
I0609 09:34:25.143358 26882 layer.hpp:71] 
I0609 09:34:25.146332 26882 net.cpp:151] Setting up conv8_2_mbox_conf
I0609 09:34:25.146361 26882 net.cpp:158] Top shape: 4 8 3 3 (288)
I0609 09:34:25.146366 26882 net.cpp:166] Memory required for data: 991228064
I0609 09:34:25.146384 26882 layer_factory.hpp:77] Creating layer conv8_2_mbox_conf_perm
I0609 09:34:25.146404 26882 net.cpp:100] Creating Layer conv8_2_mbox_conf_perm
I0609 09:34:25.146416 26882 net.cpp:435] conv8_2_mbox_conf_perm <- conv8_2_mbox_conf
I0609 09:34:25.146428 26882 net.cpp:409] conv8_2_mbox_conf_perm -> conv8_2_mbox_conf_perm
I0609 09:34:25.146446 26882 layer.hpp:71] 
I0609 09:34:25.146680 26882 net.cpp:151] Setting up conv8_2_mbox_conf_perm
I0609 09:34:25.146697 26882 net.cpp:158] Top shape: 4 3 3 8 (288)
I0609 09:34:25.146703 26882 net.cpp:166] Memory required for data: 991229216
I0609 09:34:25.146714 26882 layer_factory.hpp:77] Creating layer conv8_2_mbox_conf_flat
I0609 09:34:25.146725 26882 net.cpp:100] Creating Layer conv8_2_mbox_conf_flat
I0609 09:34:25.146736 26882 net.cpp:435] conv8_2_mbox_conf_flat <- conv8_2_mbox_conf_perm
I0609 09:34:25.146745 26882 net.cpp:409] conv8_2_mbox_conf_flat -> conv8_2_mbox_conf_flat
I0609 09:34:25.146761 26882 layer.hpp:71] 
I0609 09:34:25.146817 26882 net.cpp:151] Setting up conv8_2_mbox_conf_flat
I0609 09:34:25.146832 26882 net.cpp:158] Top shape: 4 72 (288)
I0609 09:34:25.146837 26882 net.cpp:166] Memory required for data: 991230368
I0609 09:34:25.146849 26882 layer_factory.hpp:77] Creating layer conv8_2_mbox_priorbox
I0609 09:34:25.146862 26882 net.cpp:100] Creating Layer conv8_2_mbox_priorbox
I0609 09:34:25.146873 26882 net.cpp:435] conv8_2_mbox_priorbox <- conv8_2_conv8_2_relu_0_split_3
I0609 09:34:25.146880 26882 net.cpp:435] conv8_2_mbox_priorbox <- data_data_0_split_5
I0609 09:34:25.146896 26882 net.cpp:409] conv8_2_mbox_priorbox -> conv8_2_mbox_priorbox
I0609 09:34:25.146914 26882 layer.hpp:71] 
I0609 09:34:25.146973 26882 net.cpp:151] Setting up conv8_2_mbox_priorbox
I0609 09:34:25.146988 26882 net.cpp:158] Top shape: 1 2 144 (288)
I0609 09:34:25.146996 26882 net.cpp:166] Memory required for data: 991231520
I0609 09:34:25.147001 26882 layer_factory.hpp:77] Creating layer conv9_2_mbox_loc
I0609 09:34:25.147027 26882 net.cpp:100] Creating Layer conv9_2_mbox_loc
I0609 09:34:25.147039 26882 net.cpp:435] conv9_2_mbox_loc <- conv9_2_conv9_2_relu_0_split_0
I0609 09:34:25.147053 26882 net.cpp:409] conv9_2_mbox_loc -> conv9_2_mbox_loc
I0609 09:34:25.147068 26882 layer.hpp:71] 
I0609 09:34:25.150235 26882 net.cpp:151] Setting up conv9_2_mbox_loc
I0609 09:34:25.150266 26882 net.cpp:158] Top shape: 4 16 1 1 (64)
I0609 09:34:25.150274 26882 net.cpp:166] Memory required for data: 991231776
I0609 09:34:25.150311 26882 layer_factory.hpp:77] Creating layer conv9_2_mbox_loc_perm
I0609 09:34:25.150327 26882 net.cpp:100] Creating Layer conv9_2_mbox_loc_perm
I0609 09:34:25.150341 26882 net.cpp:435] conv9_2_mbox_loc_perm <- conv9_2_mbox_loc
I0609 09:34:25.150355 26882 net.cpp:409] conv9_2_mbox_loc_perm -> conv9_2_mbox_loc_perm
I0609 09:34:25.150373 26882 layer.hpp:71] 
I0609 09:34:25.150634 26882 net.cpp:151] Setting up conv9_2_mbox_loc_perm
I0609 09:34:25.150652 26882 net.cpp:158] Top shape: 4 1 1 16 (64)
I0609 09:34:25.150665 26882 net.cpp:166] Memory required for data: 991232032
I0609 09:34:25.150671 26882 layer_factory.hpp:77] Creating layer conv9_2_mbox_loc_flat
I0609 09:34:25.150688 26882 net.cpp:100] Creating Layer conv9_2_mbox_loc_flat
I0609 09:34:25.150701 26882 net.cpp:435] conv9_2_mbox_loc_flat <- conv9_2_mbox_loc_perm
I0609 09:34:25.150713 26882 net.cpp:409] conv9_2_mbox_loc_flat -> conv9_2_mbox_loc_flat
I0609 09:34:25.150729 26882 layer.hpp:71] 
I0609 09:34:25.150785 26882 net.cpp:151] Setting up conv9_2_mbox_loc_flat
I0609 09:34:25.150802 26882 net.cpp:158] Top shape: 4 16 (64)
I0609 09:34:25.150810 26882 net.cpp:166] Memory required for data: 991232288
I0609 09:34:25.150815 26882 layer_factory.hpp:77] Creating layer conv9_2_mbox_conf
I0609 09:34:25.150840 26882 net.cpp:100] Creating Layer conv9_2_mbox_conf
I0609 09:34:25.150853 26882 net.cpp:435] conv9_2_mbox_conf <- conv9_2_conv9_2_relu_0_split_1
I0609 09:34:25.150867 26882 net.cpp:409] conv9_2_mbox_conf -> conv9_2_mbox_conf
I0609 09:34:25.150885 26882 layer.hpp:71] 
I0609 09:34:25.153795 26882 net.cpp:151] Setting up conv9_2_mbox_conf
I0609 09:34:25.153831 26882 net.cpp:158] Top shape: 4 8 1 1 (32)
I0609 09:34:25.153838 26882 net.cpp:166] Memory required for data: 991232416
I0609 09:34:25.153851 26882 layer_factory.hpp:77] Creating layer conv9_2_mbox_conf_perm
I0609 09:34:25.153898 26882 net.cpp:100] Creating Layer conv9_2_mbox_conf_perm
I0609 09:34:25.153913 26882 net.cpp:435] conv9_2_mbox_conf_perm <- conv9_2_mbox_conf
I0609 09:34:25.153930 26882 net.cpp:409] conv9_2_mbox_conf_perm -> conv9_2_mbox_conf_perm
I0609 09:34:25.153950 26882 layer.hpp:71] 
I0609 09:34:25.154206 26882 net.cpp:151] Setting up conv9_2_mbox_conf_perm
I0609 09:34:25.154225 26882 net.cpp:158] Top shape: 4 1 1 8 (32)
I0609 09:34:25.154237 26882 net.cpp:166] Memory required for data: 991232544
I0609 09:34:25.154243 26882 layer_factory.hpp:77] Creating layer conv9_2_mbox_conf_flat
I0609 09:34:25.154258 26882 net.cpp:100] Creating Layer conv9_2_mbox_conf_flat
I0609 09:34:25.154270 26882 net.cpp:435] conv9_2_mbox_conf_flat <- conv9_2_mbox_conf_perm
I0609 09:34:25.154284 26882 net.cpp:409] conv9_2_mbox_conf_flat -> conv9_2_mbox_conf_flat
I0609 09:34:25.154300 26882 layer.hpp:71] 
I0609 09:34:25.154361 26882 net.cpp:151] Setting up conv9_2_mbox_conf_flat
I0609 09:34:25.154376 26882 net.cpp:158] Top shape: 4 8 (32)
I0609 09:34:25.154387 26882 net.cpp:166] Memory required for data: 991232672
I0609 09:34:25.154393 26882 layer_factory.hpp:77] Creating layer conv9_2_mbox_priorbox
I0609 09:34:25.154410 26882 net.cpp:100] Creating Layer conv9_2_mbox_priorbox
I0609 09:34:25.154422 26882 net.cpp:435] conv9_2_mbox_priorbox <- conv9_2_conv9_2_relu_0_split_2
I0609 09:34:25.154434 26882 net.cpp:435] conv9_2_mbox_priorbox <- data_data_0_split_6
I0609 09:34:25.154449 26882 net.cpp:409] conv9_2_mbox_priorbox -> conv9_2_mbox_priorbox
I0609 09:34:25.154467 26882 layer.hpp:71] 
I0609 09:34:25.154533 26882 net.cpp:151] Setting up conv9_2_mbox_priorbox
I0609 09:34:25.154551 26882 net.cpp:158] Top shape: 1 2 16 (32)
I0609 09:34:25.154556 26882 net.cpp:166] Memory required for data: 991232800
I0609 09:34:25.154567 26882 layer_factory.hpp:77] Creating layer mbox_loc
I0609 09:34:25.154580 26882 net.cpp:100] Creating Layer mbox_loc
I0609 09:34:25.154595 26882 net.cpp:435] mbox_loc <- conv4_3_norm_mbox_loc_flat
I0609 09:34:25.154606 26882 net.cpp:435] mbox_loc <- fc7_mbox_loc_flat
I0609 09:34:25.154620 26882 net.cpp:435] mbox_loc <- conv6_2_mbox_loc_flat
I0609 09:34:25.154629 26882 net.cpp:435] mbox_loc <- conv7_2_mbox_loc_flat
I0609 09:34:25.154665 26882 net.cpp:435] mbox_loc <- conv8_2_mbox_loc_flat
I0609 09:34:25.154680 26882 net.cpp:435] mbox_loc <- conv9_2_mbox_loc_flat
I0609 09:34:25.154688 26882 net.cpp:409] mbox_loc -> mbox_loc
I0609 09:34:25.154706 26882 layer.hpp:71] 
I0609 09:34:25.154772 26882 net.cpp:151] Setting up mbox_loc
I0609 09:34:25.154789 26882 net.cpp:158] Top shape: 4 34928 (139712)
I0609 09:34:25.154796 26882 net.cpp:166] Memory required for data: 991791648
I0609 09:34:25.154801 26882 layer_factory.hpp:77] Creating layer mbox_conf
I0609 09:34:25.154817 26882 net.cpp:100] Creating Layer mbox_conf
I0609 09:34:25.154830 26882 net.cpp:435] mbox_conf <- conv4_3_norm_mbox_conf_flat
I0609 09:34:25.154839 26882 net.cpp:435] mbox_conf <- fc7_mbox_conf_flat
I0609 09:34:25.154850 26882 net.cpp:435] mbox_conf <- conv6_2_mbox_conf_flat
I0609 09:34:25.154860 26882 net.cpp:435] mbox_conf <- conv7_2_mbox_conf_flat
I0609 09:34:25.154870 26882 net.cpp:435] mbox_conf <- conv8_2_mbox_conf_flat
I0609 09:34:25.154876 26882 net.cpp:435] mbox_conf <- conv9_2_mbox_conf_flat
I0609 09:34:25.154898 26882 net.cpp:409] mbox_conf -> mbox_conf
I0609 09:34:25.154916 26882 layer.hpp:71] 
I0609 09:34:25.154975 26882 net.cpp:151] Setting up mbox_conf
I0609 09:34:25.154991 26882 net.cpp:158] Top shape: 4 17464 (69856)
I0609 09:34:25.154995 26882 net.cpp:166] Memory required for data: 992071072
I0609 09:34:25.155009 26882 layer_factory.hpp:77] Creating layer mbox_priorbox
I0609 09:34:25.155017 26882 net.cpp:100] Creating Layer mbox_priorbox
I0609 09:34:25.155028 26882 net.cpp:435] mbox_priorbox <- conv4_3_norm_mbox_priorbox
I0609 09:34:25.155036 26882 net.cpp:435] mbox_priorbox <- fc7_mbox_priorbox
I0609 09:34:25.155050 26882 net.cpp:435] mbox_priorbox <- conv6_2_mbox_priorbox
I0609 09:34:25.155056 26882 net.cpp:435] mbox_priorbox <- conv7_2_mbox_priorbox
I0609 09:34:25.155068 26882 net.cpp:435] mbox_priorbox <- conv8_2_mbox_priorbox
I0609 09:34:25.155074 26882 net.cpp:435] mbox_priorbox <- conv9_2_mbox_priorbox
I0609 09:34:25.155092 26882 net.cpp:409] mbox_priorbox -> mbox_priorbox
I0609 09:34:25.155109 26882 layer.hpp:71] 
I0609 09:34:25.155166 26882 net.cpp:151] Setting up mbox_priorbox
I0609 09:34:25.155184 26882 net.cpp:158] Top shape: 1 2 34928 (69856)
I0609 09:34:25.155196 26882 net.cpp:166] Memory required for data: 992350496
I0609 09:34:25.155201 26882 layer_factory.hpp:77] Creating layer mbox_conf_reshape
I0609 09:34:25.155222 26882 net.cpp:100] Creating Layer mbox_conf_reshape
I0609 09:34:25.155234 26882 net.cpp:435] mbox_conf_reshape <- mbox_conf
I0609 09:34:25.155243 26882 net.cpp:409] mbox_conf_reshape -> mbox_conf_reshape
I0609 09:34:25.155267 26882 layer.hpp:71] 
I0609 09:34:25.155331 26882 net.cpp:151] Setting up mbox_conf_reshape
I0609 09:34:25.155349 26882 net.cpp:158] Top shape: 4 8732 2 (69856)
I0609 09:34:25.155356 26882 net.cpp:166] Memory required for data: 992629920
I0609 09:34:25.155361 26882 layer_factory.hpp:77] Creating layer mbox_conf_softmax
I0609 09:34:25.155380 26882 net.cpp:100] Creating Layer mbox_conf_softmax
I0609 09:34:25.155393 26882 net.cpp:435] mbox_conf_softmax <- mbox_conf_reshape
I0609 09:34:25.155403 26882 net.cpp:409] mbox_conf_softmax -> mbox_conf_softmax
I0609 09:34:25.155418 26882 layer.hpp:71] 
I0609 09:34:25.156517 26882 net.cpp:151] Setting up mbox_conf_softmax
I0609 09:34:25.156544 26882 net.cpp:158] Top shape: 4 8732 2 (69856)
I0609 09:34:25.156558 26882 net.cpp:166] Memory required for data: 992909344
I0609 09:34:25.156563 26882 layer_factory.hpp:77] Creating layer mbox_conf_flatten
I0609 09:34:25.156582 26882 net.cpp:100] Creating Layer mbox_conf_flatten
I0609 09:34:25.156595 26882 net.cpp:435] mbox_conf_flatten <- mbox_conf_softmax
I0609 09:34:25.156606 26882 net.cpp:409] mbox_conf_flatten -> mbox_conf_flatten
I0609 09:34:25.156623 26882 layer.hpp:71] 
I0609 09:34:25.156689 26882 net.cpp:151] Setting up mbox_conf_flatten
I0609 09:34:25.156707 26882 net.cpp:158] Top shape: 4 17464 (69856)
I0609 09:34:25.156718 26882 net.cpp:166] Memory required for data: 993188768
I0609 09:34:25.156744 26882 layer_factory.hpp:77] Creating layer detection_out
I0609 09:34:25.156769 26882 net.cpp:100] Creating Layer detection_out
I0609 09:34:25.156781 26882 net.cpp:435] detection_out <- mbox_loc
I0609 09:34:25.156790 26882 net.cpp:435] detection_out <- mbox_conf_flatten
I0609 09:34:25.156802 26882 net.cpp:435] detection_out <- mbox_priorbox
I0609 09:34:25.156816 26882 net.cpp:409] detection_out -> detection_out
I0609 09:34:25.156839 26882 layer.hpp:71] 
I0609 09:34:25.157554 26882 net.cpp:151] Setting up detection_out
I0609 09:34:25.157582 26882 net.cpp:158] Top shape: 1 1 1 7 (7)
I0609 09:34:25.157594 26882 net.cpp:166] Memory required for data: 993188796
I0609 09:34:25.157600 26882 layer_factory.hpp:77] Creating layer detection_eval
I0609 09:34:25.157619 26882 net.cpp:100] Creating Layer detection_eval
I0609 09:34:25.157632 26882 net.cpp:435] detection_eval <- detection_out
I0609 09:34:25.157641 26882 net.cpp:435] detection_eval <- label
I0609 09:34:25.157656 26882 net.cpp:409] detection_eval -> detection_eval
I0609 09:34:25.157677 26882 layer.hpp:71] 
I0609 09:34:25.157950 26882 net.cpp:151] Setting up detection_eval
I0609 09:34:25.157971 26882 net.cpp:158] Top shape: 1 1 2 5 (10)
I0609 09:34:25.157976 26882 net.cpp:166] Memory required for data: 993188836
I0609 09:34:25.157989 26882 net.cpp:229] detection_eval does not need backward computation.
I0609 09:34:25.157997 26882 net.cpp:229] detection_out does not need backward computation.
I0609 09:34:25.158008 26882 net.cpp:229] mbox_conf_flatten does not need backward computation.
I0609 09:34:25.158015 26882 net.cpp:229] mbox_conf_softmax does not need backward computation.
…
