…
        min_scale: 0.3
        max_scale: 1
        min_aspect_ratio: 0.5
        max_aspect_ratio: 2
      }
      sample_constraint {
        min_jaccard_overlap: 0.9
      }
      max_sample: 1
      max_trials: 50
    }
    batch_sampler {
      sampler {
        min_scale: 0.3
        max_scale: 1
        min_aspect_ratio: 0.5
        max_aspect_ratio: 2
      }
      sample_constraint {
        max_jaccard_overlap: 1
      }
      max_sample: 1
      max_trials: 50
    }
    label_map_file: "data/tbs_300x300_HSIL_10x/labelmap_tbs.prototxt"
  }
}
layer {
  name: "conv1_1"
  type: "Convolution"
  bottom: "data"
  top: "conv1_1"
  param {
    lr_mult: 1
    decay_mult: 1
  }
  param {
    lr_mult: 2
    decay_mult: 0
  }
  convolution_param {
    num_output: 64
    pad: 1
    kernel_size: 3
    weight_filler {
      type: "xavier"
    }
    bias_filler {
      type: "constant"
      value: 0
    }
  }
}
layer {
  name: "relu1_1"
  type: "ReLU"
  bottom: "conv1_1"
  top: "conv1_1"
}
layer {
  name: "conv1_2"
  type: "Convolution"
  bottom: "conv1_1"
  top: "conv1_2"
  param {
    lr_mult: 1
    decay_mult: 1
  }
  param {
    lr_mult: 2
    decay_mult: 0
  }
  convolution_param {
    num_output: 64
    pad: 1
    kernel_size: 3
    weight_filler {
      type: "xavier"
    }
    bias_filler {
      type: "constant"
      value: 0
    }
  }
}
layer {
  name: "relu1_2"
  type: "ReLU"
  bottom: "conv1_2"
  top: "conv1_2"
}
layer {
  name: "pool1"
  type: "Pooling"
  bottom: "conv1_2"
  top: "pool1"
  pooling_param {
    pool: MAX
    kernel_size: 2
    stride: 2
  }
}
layer {
  name: "conv2_1"
  type: "Convolution"
  bottom: "pool1"
  top: "conv2_1"
  param {
    lr_mult: 1
    decay_mult: 1
  }
  param {
    lr_mult: 2
    decay_mult: 0
  }
  convolution_param {
    num_output: 128
    pad: 1
    kernel_size: 3
    weight_filler {
      type: "xavier"
    }
    bias_filler {
      type: "constant"
      value: 0
    }
  }
}
layer {
  name: "relu2_1"
  type: "ReLU"
  bottom: "conv2_1"
  top: "conv2_1"
}
layer {
  name: "conv2_2"
  type: "Convolution"
  bottom: "conv2_1"
  top: "conv2_2"
  param {
    lr_mult: 1
    decay_mult: 1
  }
  param {
    lr_mult: 2
    decay_mult: 0
  }
  convolution_param {
    num_output: 128
    pad: 1
    kernel_size: 3
    weight_filler {
      type: "xavier"
    }
    bias_filler {
      type: "constant"
      value: 0
    }
  }
}
layer {
  name: "relu2_2"
  type: "ReLU"
  bottom: "conv2_2"
  top: "conv2_2"
}
layer {
  name: "pool2"
  type: "Pooling"
  bottom: "conv2_2"
  top: "pool2"
  pooling_param {
    pool: MAX
    kernel_size: 2
    stride: 2
  }
}
layer {
  name: "conv3_1"
  type: "Convolution"
  bottom: "pool2"
  top: "conv3_1"
  param {
    lr_mult: 1
    decay_mult: 1
  }
  param {
    lr_mult: 2
    decay_mult: 0
  }
  convolution_param {
    num_output: 256
    pad: 1
    kernel_size: 3
    weight_filler {
      type: "xavier"
    }
    bias_filler {
      type: "constant"
      value: 0
    }
  }
}
layer {
  name: "relu3_1"
  type: "ReLU"
  bottom: "conv3_1"
  top: "conv3_1"
}
layer {
  name: "conv3_2"
  type: "Convolution"
  bottom: "conv3_1"
  top: "conv3_2"
  param {
    lr_mult: 1
    decay_mult: 1
  }
  param {
    lr_mult: 2
    decay_mult: 0
  }
  convolution_param {
    num_output: 256
    pad: 1
    kernel_size: 3
    weight_filler {
      type: "xavier"
    }
    bias_filler {
      type: "constant"
      value: 0
    }
  }
}
layer {
  name: "relu3_2"
  type: "ReLU"
  bottom: "conv3_2"
  top: "conv3_2"
}
layer {
  name: "conv3_3"
  type: "Convolution"
  bottom: "conv3_2"
  top: "conv3_3"
  param {
    lr_mult: 1
    decay_mult: 1
  }
  param {
    lr_mult: 2
    decay_mult: 0
  }
  convolution_param {
    num_output: 256
    pad: 1
    kernel_size: 3
    weight_filler {
      type: "xavier"
    }
    bias_filler {
      type: "constant"
      value: 0
    }
  }
}
layer {
  name: "relu3_3"
  type: "ReLU"
  bottom: "conv3_3"
  top: "conv3_3"
}
layer {
  name: "pool3"
  type: "Pooling"
  bottom: "conv3_3"
  top: "pool3"
  pooling_param {
    pool: MAX
    kernel_size: 2
    stride: 2
  }
}
layer {
  name: "conv4_1"
  type: "Convolution"
  bottom: "pool3"
  top: "conv4_1"
  param {
    lr_mult: 1
    decay_mult: 1
  }
  param {
    lr_mult: 2
    decay_mult: 0
  }
  convolution_param {
    num_output: 512
    pad: 1
    kernel_size: 3
    weight_filler {
      type: "xavier"
    }
    bias_filler {
      type: "constant"
      value: 0
    }
  }
}
layer {
  name: "relu4_1"
  type: "ReLU"
  bottom: "conv4_1"
  top: "conv4_1"
}
layer {
  name: "conv4_2"
  type: "Convolution"
  bottom: "conv4_1"
  top: "conv4_2"
  param {
    lr_mult: 1
    decay_mult: 1
  }
  param {
    lr_mult: 2
    decay_mult: 0
  }
  convolution_param {
    num_output: 512
    pad: 1
    kernel_size: 3
    weight_filler {
      type: "xavier"
    }
    bias_filler {
      type: "constant"
      value: 0
    }
  }
}
layer {
  name: "relu4_2"
  type: "ReLU"
  bottom: "conv4_2"
  top: "conv4_2"
}
layer {
  name: "conv4_3"
  type: "Convolution"
  bottom: "conv4_2"
  top: "conv4_3"
  param {
    lr_mult: 1
    decay_mult: 1
  }
  param {
    lr_mult: 2
    decay_mult: 0
  }
  convolution_param {
    num_output: 512
    pad: 1
    kernel_size: 3
    weight_filler {
      type: "xavier"
    }
    bias_filler {
      type: "constant"
      value: 0
    }
  }
}
layer {
  name: "relu4_3"
  type: "ReLU"
  bottom: "conv4_3"
  top: "conv4_3"
}
layer {
  name: "pool4"
  type: "Pooling"
  bottom: "conv4_3"
  top: "pool4"
  pooling_param {
    pool: MAX
    kernel_size: 2
    stride: 2
  }
}
layer {
  name: "conv5_1"
  type: "Convolution"
  bottom: "pool4"
  top: "conv5_1"
  param {
    lr_mult: 1
    decay_mult: 1
  }
  param {
    lr_mult: 2
    decay_mult: 0
  }
  convolution_param {
    num_output: 512
    pad: 1
    kernel_size: 3
    weight_filler {
      type: "xavier"
    }
    bias_filler {
      type: "constant"
      value: 0
    }
    dilation: 1
  }
}
layer {
  name: "relu5_1"
  type: "ReLU"
  bottom: "conv5_1"
  top: "conv5_1"
}
layer {
  name: "conv5_2"
  type: "Convolution"
  bottom: "conv5_1"
  top: "conv5_2"
  param {
    lr_mult: 1
    decay_mult: 1
  }
  param {
    lr_mult: 2
    decay_mult: 0
  }
  convolution_param {
    num_output: 512
    pad: 1
    kernel_size: 3
    weight_filler {
      type: "xavier"
    }
    bias_filler {
      type: "constant"
      value: 0
    }
    dilation: 1
  }
}
layer {
  name: "relu5_2"
  type: "ReLU"
  bottom: "conv5_2"
  top: "conv5_2"
}
layer {
  name: "conv5_3"
  type: "Convolution"
  bottom: "conv5_2"
  top: "conv5_3"
  param {
    lr_mult: 1
    decay_mult: 1
  }
  param {
    lr_mult: 2
    decay_mult: 0
  }
  convolution_param {
    num_output: 512
    pad: 1
    kernel_size: 3
    weight_filler {
      type: "xavier"
    }
    bias_filler {
      type: "constant"
      value: 0
    }
    dilation: 1
  }
}
layer {
  name: "relu5_3"
  type: "ReLU"
  bottom: "conv5_3"
  top: "conv5_3"
}
layer {
  name: "pool5"
  type: "Pooling"
  bottom: "conv5_3"
  top: "pool5"
  pooling_param {
    pool: MAX
    kernel_size: 3
    stride: 1
    pad: 1
  }
}
layer {
  name: "fc6"
  type: "Convolution"
  bottom: "pool5"
  top: "fc6"
  param {
    lr_mult: 1
    decay_mult: 1
  }
  param {
    lr_mult: 2
    decay_mult: 0
  }
  convolution_param {
    num_output: 1024
    pad: 6
    kernel_size: 3
    weight_filler {
      type: "xavier"
    }
    bias_filler {
      type: "constant"
      value: 0
    }
    dilation: 6
  }
}
layer {
  name: "relu6"
  type: "ReLU"
  bottom: "fc6"
  top: "fc6"
}
layer {
  name: "fc7"
  type: "Convolution"
  bottom: "fc6"
  top: "fc7"
  param {
    lr_mult: 1
    decay_mult: 1
  }
  param {
    lr_mult: 2
    decay_mult: 0
  }
  convolution_param {
    num_output: 1024
    kernel_size: 1
    weight_filler {
      type: "xavier"
    }
    bias_filler {
      type: "constant"
      value: 0
    }
  }
}
layer {
  name: "relu7"
  type: "ReLU"
  bottom: "fc7"
  top: "fc7"
}
layer {
  name: "conv6_1"
  type: "Convolution"
  bottom: "fc7"
  top: "conv6_1"
  param {
    lr_mult: 1
    decay_mult: 1
  }
  param {
    lr_mult: 2
    decay_mult: 0
  }
  convolution_param {
    num_output: 256
    pad: 0
    kernel_size: 1
    stride: 1
    weight_filler {
      type: "xavier"
    }
    bias_filler {
      type: "constant"
      value: 0
    }
  }
}
layer {
  name: "conv6_1_relu"
  type: "ReLU"
  bottom: "conv6_1"
  top: "conv6_1"
}
layer {
  name: "conv6_2"
  type: "Convolution"
  bottom: "conv6_1"
  top: "conv6_2"
  param {
    lr_mult: 1
    decay_mult: 1
  }
  param {
    lr_mult: 2
    decay_mult: 0
  }
  convolution_param {
    num_output: 512
    pad: 1
    kernel_size: 3
    stride: 2
    weight_filler {
      type: "xavier"
    }
    bias_filler {
      type: "constant"
      value: 0
    }
  }
}
layer {
  name: "conv6_2_relu"
  type: "ReLU"
  bottom: "conv6_2"
  top: "conv6_2"
}
layer {
  name: "conv7_1"
  type: "Convolution"
  bottom: "conv6_2"
  top: "conv7_1"
  param {
    lr_mult: 1
    decay_mult: 1
  }
  param {
    lr_mult: 2
    decay_mult: 0
  }
  convolution_param {
    num_output: 128
    pad: 0
    kernel_size: 1
    stride: 1
    weight_filler {
      type: "xavier"
    }
    bias_filler {
      type: "constant"
      value: 0
    }
  }
}
layer {
  name: "conv7_1_relu"
  type: "ReLU"
  bottom: "conv7_1"
  top: "conv7_1"
}
layer {
  name: "conv7_2"
  type: "Convolution"
  bottom: "conv7_1"
  top: "conv7_2"
  param {
    lr_mult: 1
    decay_mult: 1
  }
  param {
    lr_mult: 2
    decay_mult: 0
  }
  convolution_param {
    num_output: 256
    pad: 1
    kernel_size: 3
    stride: 2
    weight_filler {
      type: "xavier"
    }
    bias_filler {
      type: "constant"
      value: 0
    }
  }
}
layer {
  name: "conv7_2_relu"
  type: "ReLU"
  bottom: "conv7_2"
  top: "conv7_2"
}
layer {
  name: "conv8_1"
  type: "Convolution"
  bottom: "conv7_2"
  top: "conv8_1"
  param {
    lr_mult: 1
    decay_mult: 1
  }
  param {
    lr_mult: 2
    decay_mult: 0
  }
  convolution_param {
    num_output: 128
    pad: 0
    kernel_size: 1
    stride: 1
    weight_filler {
      type: "xavier"
    }
    bias_filler {
      type: "constant"
      value: 0
    }
  }
}
layer {
  name: "conv8_1_relu"
  type: "ReLU"
  bottom: "conv8_1"
  top: "conv8_1"
}
layer {
  name: "conv8_2"
  type: "Convolution"
  bottom: "conv8_1"
  top: "conv8_2"
  param {
    lr_mult: 1
    decay_mult: 1
  }
  param {
    lr_mult: 2
    decay_mult: 0
  }
  convolution_param {
    num_output: 256
    pad: 0
    kernel_size: 3
    stride: 1
    weight_filler {
      type: "xavier"
    }
    bias_filler {
      type: "constant"
      value: 0
    }
  }
}
layer {
  name: "conv8_2_relu"
  type: "ReLU"
  bottom: "conv8_2"
  top: "conv8_2"
}
layer {
  name: "conv9_1"
  type: "Convolution"
  bottom: "conv8_2"
  top: "conv9_1"
  param {
    lr_mult: 1
    decay_mult: 1
  }
  param {
    lr_mult: 2
    decay_mult: 0
  }
  convolution_param {
    num_output: 128
    pad: 0
    kernel_size: 1
    stride: 1
    weight_filler {
      type: "xavier"
    }
    bias_filler {
      type: "constant"
      value: 0
    }
  }
}
layer {
  name: "conv9_1_relu"
  type: "ReLU"
  bottom: "conv9_1"
  top: "conv9_1"
}
layer {
  name: "conv9_2"
  type: "Convolution"
  bottom: "conv9_1"
  top: "conv9_2"
  param {
    lr_mult: 1
    decay_mult: 1
  }
  param {
    lr_mult: 2
    decay_mult: 0
  }
  convolution_param {
    num_output: 256
    pad: 0
    kernel_size: 3
    stride: 1
    weight_filler {
      type: "xavier"
    }
    bias_filler {
      type: "constant"
      value: 0
    }
  }
}
layer {
  name: "conv9_2_relu"
  type: "ReLU"
  bottom: "conv9_2"
  top: "conv9_2"
}
layer {
  name: "conv4_3_norm"
  type: "Normalize"
  bottom: "conv4_3"
  top: "conv4_3_norm"
  norm_param {
    across_spatial: false
    scale_filler {
      type: "constant"
      value: 20
    }
    channel_shared: false
  }
}
layer {
  name: "conv4_3_norm_mbox_loc"
  type: "Convolution"
  bottom: "conv4_3_norm"
  top: "conv4_3_norm_mbox_loc"
  param {
    lr_mult: 1
    decay_mult: 1
  }
  param {
    lr_mult: 2
    decay_mult: 0
  }
  convolution_param {
    num_output: 16
    pad: 1
    kernel_size: 3
    stride: 1
    weight_filler {
      type: "xavier"
    }
    bias_filler {
      type: "constant"
      value: 0
    }
  }
}
layer {
  name: "conv4_3_norm_mbox_loc_perm"
  type: "Permute"
  bottom: "conv4_3_norm_mbox_loc"
  top: "conv4_3_norm_mbox_loc_perm"
  permute_param {
    order: 0
    order: 2
    order: 3
    order: 1
  }
}
layer {
  name: "conv4_3_norm_mbox_loc_flat"
  type: "Flatten"
  bottom: "conv4_3_norm_mbox_loc_perm"
  top: "conv4_3_norm_mbox_loc_flat"
  flatten_param {
    axis: 1
  }
}
layer {
  name: "conv4_3_norm_mbox_conf"
  type: "Convolution"
  bottom: "conv4_3_norm"
  top: "conv4_3_norm_mbox_conf"
  param {
    lr_mult: 1
    decay_mult: 1
  }
  param {
    lr_mult: 2
    decay_mult: 0
  }
  convolution_param {
    num_output: 16
    pad: 1
    kernel_size: 3
    stride: 1
    weight_filler {
      type: "xavier"
    }
    bias_filler {
      type: "constant"
      value: 0
    }
  }
}
layer {
  name: "conv4_3_norm_mbox_conf_perm"
  type: "Permute"
  bottom: "conv4_3_norm_mbox_conf"
  top: "conv4_3_norm_mbox_conf_perm"
  permute_param {
    order: 0
    order: 2
    order: 3
    order: 1
  }
}
layer {
  name: "conv4_3_norm_mbox_conf_flat"
  type: "Flatten"
  bottom: "conv4_3_norm_mbox_conf_perm"
  top: "conv4_3_norm_mbox_conf_flat"
  flatten_param {
    axis: 1
  }
}
layer {
  name: "conv4_3_norm_mbox_priorbox"
  type: "PriorBox"
  bottom: "conv4_3_norm"
  bottom: "data"
  top: "conv4_3_norm_mbox_priorbox"
  prior_box_param {
    min_size: 30
    max_size: 60
    aspect_ratio: 2
    flip: true
    clip: false
    variance: 0.1
    variance: 0.1
    variance: 0.2
    variance: 0.2
    step: 8
    offset: 0.5
  }
}
layer {
  name: "fc7_mbox_loc"
  type: "Convolution"
  bottom: "fc7"
  top: "fc7_mbox_loc"
  param {
    lr_mult: 1
    decay_mult: 1
  }
  param {
    lr_mult: 2
    decay_mult: 0
  }
  convolution_param {
    num_output: 24
    pad: 1
    kernel_size: 3
    stride: 1
    weight_filler {
      type: "xavier"
    }
    bias_filler {
      type: "constant"
      value: 0
    }
  }
}
layer {
  name: "fc7_mbox_loc_perm"
  type: "Permute"
  bottom: "fc7_mbox_loc"
  top: "fc7_mbox_loc_perm"
  permute_param {
    order: 0
    order: 2
    order: 3
    order: 1
  }
}
layer {
  name: "fc7_mbox_loc_flat"
  type: "Flatten"
  bottom: "fc7_mbox_loc_perm"
  top: "fc7_mbox_loc_flat"
  flatten_param {
    axis: 1
  }
}
layer {
  name: "fc7_mbox_conf"
  type: "Convolution"
  bottom: "fc7"
  top: "fc7_mbox_conf"
  param {
    lr_mult: 1
    decay_mult: 1
  }
  param {
    lr_mult: 2
    decay_mult: 0
  }
  convolution_param {
    num_output: 24
    pad: 1
    kernel_size: 3
    stride: 1
    weight_filler {
      type: "xavier"
    }
    bias_filler {
      type: "constant"
      value: 0
    }
  }
}
layer {
  name: "fc7_mbox_conf_perm"
  type: "Permute"
  bottom: "fc7_mbox_conf"
  top: "fc7_mbox_conf_perm"
  permute_param {
    order: 0
    order: 2
    order: 3
    order: 1
  }
}
layer {
  name: "fc7_mbox_conf_flat"
  type: "Flatten"
  bottom: "fc7_mbox_conf_perm"
  top: "fc7_mbox_conf_flat"
  flatten_param {
    axis: 1
  }
}
layer {
  name: "fc7_mbox_priorbox"
  type: "PriorBox"
  bottom: "fc7"
  bottom: "data"
  top: "fc7_mbox_priorbox"
  prior_box_param {
    min_size: 60
    max_size: 111
    aspect_ratio: 2
    aspect_ratio: 3
    flip: true
    clip: false
    variance: 0.1
    variance: 0.1
    variance: 0.2
    variance: 0.2
    step: 16
    offset: 0.5
  }
}
layer {
  name: "conv6_2_mbox_loc"
  type: "Convolution"
  bottom: "conv6_2"
  top: "conv6_2_mbox_loc"
  param {
    lr_mult: 1
    decay_mult: 1
  }
  param {
    lr_mult: 2
    decay_mult: 0
  }
  convolution_param {
    num_output: 24
    pad: 1
    kernel_size: 3
    stride: 1
    weight_filler {
      type: "xavier"
    }
    bias_filler {
      type: "constant"
      value: 0
    }
  }
}
layer {
  name: "conv6_2_mbox_loc_perm"
  type: "Permute"
  bottom: "conv6_2_mbox_loc"
  top: "conv6_2_mbox_loc_perm"
  permute_param {
    order: 0
    order: 2
    order: 3
    order: 1
  }
}
layer {
  name: "conv6_2_mbox_loc_flat"
  type: "Flatten"
  bottom: "conv6_2_mbox_loc_perm"
  top: "conv6_2_mbox_loc_flat"
  flatten_param {
    axis: 1
  }
}
layer {
  name: "conv6_2_mbox_conf"
  type: "Convolution"
  bottom: "conv6_2"
  top: "conv6_2_mbox_conf"
  param {
    lr_mult: 1
    decay_mult: 1
  }
  param {
    lr_mult: 2
    decay_mult: 0
  }
  convolution_param {
    num_output: 24
    pad: 1
    kernel_size: 3
    stride: 1
    weight_filler {
      type: "xavier"
    }
    bias_filler {
      type: "constant"
      value: 0
    }
  }
}
layer {
  name: "conv6_2_mbox_conf_perm"
  type: "Permute"
  bottom: "conv6_2_mbox_conf"
  top: "conv6_2_mbox_conf_perm"
  permute_param {
    order: 0
    order: 2
    order: 3
    order: 1
  }
}
layer {
  name: "conv6_2_mbox_conf_flat"
  type: "Flatten"
  bottom: "conv6_2_mbox_conf_perm"
  top: "conv6_2_mbox_conf_flat"
  flatten_param {
    axis: 1
  }
}
layer {
  name: "conv6_2_mbox_priorbox"
  type: "PriorBox"
  bottom: "conv6_2"
  bottom: "data"
  top: "conv6_2_mbox_priorbox"
  prior_box_param {
    min_size: 111
    max_size: 162
    aspect_ratio: 2
    aspect_ratio: 3
    flip: true
    clip: false
    variance: 0.1
    variance: 0.1
    variance: 0.2
    variance: 0.2
    step: 32
    offset: 0.5
  }
}
layer {
  name: "conv7_2_mbox_loc"
  type: "Convolution"
  bottom: "conv7_2"
  top: "conv7_2_mbox_loc"
  param {
    lr_mult: 1
    decay_mult: 1
  }
  param {
    lr_mult: 2
    decay_mult: 0
  }
  convolution_param {
    num_output: 24
    pad: 1
    kernel_size: 3
    stride: 1
    weight_filler {
      type: "xavier"
    }
    bias_filler {
      type: "constant"
      value: 0
    }
  }
}
layer {
  name: "conv7_2_mbox_loc_perm"
  type: "Permute"
  bottom: "conv7_2_mbox_loc"
  top: "conv7_2_mbox_loc_perm"
  permute_param {
    order: 0
    order: 2
    order: 3
    order: 1
  }
}
layer {
  name: "conv7_2_mbox_loc_flat"
  type: "Flatten"
  bottom: "conv7_2_mbox_loc_perm"
  top: "conv7_2_mbox_loc_flat"
  flatten_param {
    axis: 1
  }
}
layer {
  name: "conv7_2_mbox_conf"
  type: "Convolution"
  bottom: "conv7_2"
  top: "conv7_2_mbox_conf"
  param {
    lr_mult: 1
    decay_mult: 1
  }
  param {
    lr_mult: 2
    decay_mult: 0
  }
  convolution_param {
    num_output: 24
    pad: 1
    kernel_size: 3
    stride: 1
    weight_filler {
      type: "xavier"
    }
    bias_filler {
      type: "constant"
      value: 0
    }
  }
}
layer {
  name: "conv7_2_mbox_conf_perm"
  type: "Permute"
  bottom: "conv7_2_mbox_conf"
  top: "conv7_2_mbox_conf_perm"
  permute_param {
    order: 0
    order: 2
    order: 3
    order: 1
  }
}
layer {
  name: "conv7_2_mbox_conf_flat"
  type: "Flatten"
  bottom: "conv7_2_mbox_conf_perm"
  top: "conv7_2_mbox_conf_flat"
  flatten_param {
    axis: 1
  }
}
layer {
  name: "conv7_2_mbox_priorbox"
  type: "PriorBox"
  bottom: "conv7_2"
  bottom: "data"
  top: "conv7_2_mbox_priorbox"
  prior_box_param {
    min_size: 162
    max_size: 213
    aspect_ratio: 2
    aspect_ratio: 3
    flip: true
    clip: false
    variance: 0.1
    variance: 0.1
    variance: 0.2
    variance: 0.2
    step: 64
    offset: 0.5
  }
}
layer {
  name: "conv8_2_mbox_loc"
  type: "Convolution"
  bottom: "conv8_2"
  top: "conv8_2_mbox_loc"
  param {
    lr_mult: 1
    decay_mult: 1
  }
  param {
    lr_mult: 2
    decay_mult: 0
  }
  convolution_param {
    num_output: 16
    pad: 1
    kernel_size: 3
    stride: 1
    weight_filler {
      type: "xavier"
    }
    bias_filler {
      type: "constant"
      value: 0
    }
  }
}
layer {
  name: "conv8_2_mbox_loc_perm"
  type: "Permute"
  bottom: "conv8_2_mbox_loc"
  top: "conv8_2_mbox_loc_perm"
  permute_param {
    order: 0
    order: 2
    order: 3
    order: 1
  }
}
layer {
  name: "conv8_2_mbox_loc_flat"
  type: "Flatten"
  bottom: "conv8_2_mbox_loc_perm"
  top: "conv8_2_mbox_loc_flat"
  flatten_param {
    axis: 1
  }
}
layer {
  name: "conv8_2_mbox_conf"
  type: "Convolution"
  bottom: "conv8_2"
  top: "conv8_2_mbox_conf"
  param {
    lr_mult: 1
    decay_mult: 1
  }
  param {
    lr_mult: 2
    decay_mult: 0
  }
  convolution_param {
    num_output: 16
    pad: 1
    kernel_size: 3
    stride: 1
    weight_filler {
      type: "xavier"
    }
    bias_filler {
      type: "constant"
      value: 0
    }
  }
}
layer {
  name: "conv8_2_mbox_conf_perm"
  type: "Permute"
  bottom: "conv8_2_mbox_conf"
  top: "conv8_2_mbox_conf_perm"
  permute_param {
    order: 0
    order: 2
    order: 3
    order: 1
  }
}
layer {
  name: "conv8_2_mbox_conf_flat"
  type: "Flatten"
  bottom: "conv8_2_mbox_conf_perm"
  top: "conv8_2_mbox_conf_flat"
  flatten_param {
    axis: 1
  }
}
layer {
  name: "conv8_2_mbox_priorbox"
  type: "PriorBox"
  bottom: "conv8_2"
  bottom: "data"
  top: "conv8_2_mbox_priorbox"
  prior_box_param {
    min_size: 213
    max_size: 264
    aspect_ratio: 2
    flip: true
    clip: false
    variance: 0.1
    variance: 0.1
    variance: 0.2
    variance: 0.2
    step: 100
    offset: 0.5
  }
}
layer {
  name: "conv9_2_mbox_loc"
  type: "Convolution"
  bottom: "conv9_2"
  top: "conv9_2_mbox_loc"
  param {
    lr_mult: 1
    decay_mult: 1
  }
  param {
    lr_mult: 2
    decay_mult: 0
  }
  convolution_param {
    num_output: 16
    pad: 1
    kernel_size: 3
    stride: 1
    weight_filler {
      type: "xavier"
    }
    bias_filler {
      type: "constant"
      value: 0
    }
  }
}
layer {
  name: "conv9_2_mbox_loc_perm"
  type: "Permute"
  bottom: "conv9_2_mbox_loc"
  top: "conv9_2_mbox_loc_perm"
  permute_param {
    order: 0
    order: 2
    order: 3
    order: 1
  }
}
layer {
  name: "conv9_2_mbox_loc_flat"
  type: "Flatten"
  bottom: "conv9_2_mbox_loc_perm"
  top: "conv9_2_mbox_loc_flat"
  flatten_param {
    axis: 1
  }
}
layer {
  name: "conv9_2_mbox_conf"
  type: "Convolution"
  bottom: "conv9_2"
  top: "conv9_2_mbox_conf"
  param {
    lr_mult: 1
    decay_mult: 1
  }
  param {
    lr_mult: 2
    decay_mult: 0
  }
  convolution_param {
    num_output: 16
    pad: 1
    kernel_size: 3
    stride: 1
    weight_filler {
      type: "xavier"
    }
    bias_filler {
      type: "constant"
      value: 0
    }
  }
}
layer {
  name: "conv9_2_mbox_conf_perm"
  type: "Permute"
  bottom: "conv9_2_mbox_conf"
  top: "conv9_2_mbox_conf_perm"
  permute_param {
    order: 0
    order: 2
    order: 3
    order: 1
  }
}
layer {
  name: "conv9_2_mbox_conf_flat"
  type: "Flatten"
  bottom: "conv9_2_mbox_conf_perm"
  top: "conv9_2_mbox_conf_flat"
  flatten_param {
    axis: 1
  }
}
layer {
  name: "conv9_2_mbox_priorbox"
  type: "PriorBox"
  bottom: "conv9_2"
  bottom: "data"
  top: "conv9_2_mbox_priorbox"
  prior_box_param {
    min_size: 264
    max_size: 315
    aspect_ratio: 2
    flip: true
    clip: false
    variance: 0.1
    variance: 0.1
    variance: 0.2
    variance: 0.2
    step: 300
    offset: 0.5
  }
}
layer {
  name: "mbox_loc"
  type: "Concat"
  bottom: "conv4_3_norm_mbox_loc_flat"
  bottom: "fc7_mbox_loc_flat"
  bottom: "conv6_2_mbox_loc_flat"
  bottom: "conv7_2_mbox_loc_flat"
  bottom: "conv8_2_mbox_loc_flat"
  bottom: "conv9_2_mbox_loc_flat"
  top: "mbox_loc"
  concat_param {
    axis: 1
  }
}
layer {
  name: "mbox_conf"
  type: "Concat"
  bottom: "conv4_3_norm_mbox_conf_flat"
  bottom: "fc7_mbox_conf_flat"
  bottom: "conv6_2_mbox_conf_flat"
  bottom: "conv7_2_mbox_conf_flat"
  bottom: "conv8_2_mbox_conf_flat"
  bottom: "conv9_2_mbox_conf_flat"
  top: "mbox_conf"
  concat_param {
    axis: 1
  }
}
layer {
  name: "mbox_priorbox"
  type: "Concat"
  bottom: "conv4_3_norm_mbox_priorbox"
  bottom: "fc7_mbox_priorbox"
  bottom: "conv6_2_mbox_priorbox"
  bottom: "conv7_2_mbox_priorbox"
  bottom: "conv8_2_mbox_priorbox"
  bottom: "conv9_2_mbox_priorbox"
  top: "mbox_priorbox"
  concat_param {
    axis: 2
  }
}
layer {
  name: "mbox_loss"
  type: "MultiBoxLoss"
  bottom: "mbox_loc"
  bottom: "mbox_conf"
  bottom: "mbox_priorbox"
  bottom: "label"
  top: "mbox_loss"
  include {
    phase: TRAIN
  }
  propagate_down: true
  propagate_down: true
  propagate_down: false
  propagate_down: false
  loss_param {
    normalization: VALID
  }
  multibox_loss_param {
    loc_loss_type: SMOOTH_L1
    conf_loss_type: SOFTMAX
    loc_weight: 1
    num_classes: 4
    share_location: true
    match_type: PER_PREDICTION
    overlap_threshold: 0.5
    use_prior_for_matching: true
    background_label_id: 0
    use_difficult_gt: true
    neg_pos_ratio: 3
    neg_overlap: 0.5
    code_type: CENTER_SIZE
    ignore_cross_boundary_bbox: false
    mining_type: MAX_NEGATIVE
  }
}
I0601 16:14:13.510320 17398 layer_factory.hpp:77] Creating layer data
I0601 16:14:13.510443 17398 net.cpp:100] Creating Layer data
I0601 16:14:13.510458 17398 net.cpp:408] data -> data
I0601 16:14:13.510488 17398 net.cpp:408] data -> label
I0601 16:14:13.510915 17415 db_lmdb.cpp:35] Opened lmdb examples/tbs_300x300_HSIL_10x/tbs_300x300_HSIL_10x_trainval_lmdb
I0601 16:14:13.519511 17398 annotated_data_layer.cpp:62] output data size: 35,3,300,300
I0601 16:14:13.585902 17398 net.cpp:150] Setting up data
I0601 16:14:13.585924 17398 net.cpp:157] Top shape: 35 3 300 300 (9450000)
I0601 16:14:13.585928 17398 net.cpp:157] Top shape: 1 1 1 8 (8)
I0601 16:14:13.585944 17398 net.cpp:165] Memory required for data: 37800032
I0601 16:14:13.585952 17398 layer_factory.hpp:77] Creating layer data_data_0_split
I0601 16:14:13.585963 17398 net.cpp:100] Creating Layer data_data_0_split
I0601 16:14:13.585968 17398 net.cpp:434] data_data_0_split <- data
I0601 16:14:13.585978 17398 net.cpp:408] data_data_0_split -> data_data_0_split_0
I0601 16:14:13.585997 17398 net.cpp:408] data_data_0_split -> data_data_0_split_1
I0601 16:14:13.586005 17398 net.cpp:408] data_data_0_split -> data_data_0_split_2
I0601 16:14:13.586015 17398 net.cpp:408] data_data_0_split -> data_data_0_split_3
I0601 16:14:13.586022 17398 net.cpp:408] data_data_0_split -> data_data_0_split_4
I0601 16:14:13.586038 17398 net.cpp:408] data_data_0_split -> data_data_0_split_5
I0601 16:14:13.586048 17398 net.cpp:408] data_data_0_split -> data_data_0_split_6
I0601 16:14:13.586134 17398 net.cpp:150] Setting up data_data_0_split
I0601 16:14:13.586143 17398 net.cpp:157] Top shape: 35 3 300 300 (9450000)
I0601 16:14:13.586148 17398 net.cpp:157] Top shape: 35 3 300 300 (9450000)
I0601 16:14:13.586153 17398 net.cpp:157] Top shape: 35 3 300 300 (9450000)
I0601 16:14:13.586158 17398 net.cpp:157] Top shape: 35 3 300 300 (9450000)
I0601 16:14:13.586163 17398 net.cpp:157] Top shape: 35 3 300 300 (9450000)
I0601 16:14:13.586166 17398 net.cpp:157] Top shape: 35 3 300 300 (9450000)
I0601 16:14:13.586170 17398 net.cpp:157] Top shape: 35 3 300 300 (9450000)
I0601 16:14:13.586175 17398 net.cpp:165] Memory required for data: 302400032
I0601 16:14:13.586179 17398 layer_factory.hpp:77] Creating layer conv1_1
I0601 16:14:13.586196 17398 net.cpp:100] Creating Layer conv1_1
I0601 16:14:13.586200 17398 net.cpp:434] conv1_1 <- data_data_0_split_0
I0601 16:14:13.586210 17398 net.cpp:408] conv1_1 -> conv1_1
I0601 16:14:13.781244 17398 net.cpp:150] Setting up conv1_1
I0601 16:14:13.781262 17398 net.cpp:157] Top shape: 35 64 300 300 (201600000)
I0601 16:14:13.781265 17398 net.cpp:165] Memory required for data: 1108800032
I0601 16:14:13.781309 17398 layer_factory.hpp:77] Creating layer relu1_1
I0601 16:14:13.781316 17398 net.cpp:100] Creating Layer relu1_1
I0601 16:14:13.781321 17398 net.cpp:434] relu1_1 <- conv1_1
I0601 16:14:13.781324 17398 net.cpp:395] relu1_1 -> conv1_1 (in-place)
I0601 16:14:13.781463 17398 net.cpp:150] Setting up relu1_1
I0601 16:14:13.781471 17398 net.cpp:157] Top shape: 35 64 300 300 (201600000)
I0601 16:14:13.781473 17398 net.cpp:165] Memory required for data: 1915200032
I0601 16:14:13.781476 17398 layer_factory.hpp:77] Creating layer conv1_2
I0601 16:14:13.781500 17398 net.cpp:100] Creating Layer conv1_2
I0601 16:14:13.781503 17398 net.cpp:434] conv1_2 <- conv1_1
I0601 16:14:13.781508 17398 net.cpp:408] conv1_2 -> conv1_2
I0601 16:14:13.783673 17398 net.cpp:150] Setting up conv1_2
I0601 16:14:13.783684 17398 net.cpp:157] Top shape: 35 64 300 300 (201600000)
I0601 16:14:13.783687 17398 net.cpp:165] Memory required for data: 2721600032
I0601 16:14:13.783694 17398 layer_factory.hpp:77] Creating layer relu1_2
I0601 16:14:13.783699 17398 net.cpp:100] Creating Layer relu1_2
I0601 16:14:13.783701 17398 net.cpp:434] relu1_2 <- conv1_2
I0601 16:14:13.783705 17398 net.cpp:395] relu1_2 -> conv1_2 (in-place)
I0601 16:14:13.784214 17398 net.cpp:150] Setting up relu1_2
I0601 16:14:13.784222 17398 net.cpp:157] Top shape: 35 64 300 300 (201600000)
I0601 16:14:13.784225 17398 net.cpp:165] Memory required for data: 3528000032
I0601 16:14:13.784229 17398 layer_factory.hpp:77] Creating layer pool1
I0601 16:14:13.784234 17398 net.cpp:100] Creating Layer pool1
I0601 16:14:13.784236 17398 net.cpp:434] pool1 <- conv1_2
I0601 16:14:13.784240 17398 net.cpp:408] pool1 -> pool1
I0601 16:14:13.784278 17398 net.cpp:150] Setting up pool1
I0601 16:14:13.784283 17398 net.cpp:157] Top shape: 35 64 150 150 (50400000)
I0601 16:14:13.784286 17398 net.cpp:165] Memory required for data: 3729600032
I0601 16:14:13.784288 17398 layer_factory.hpp:77] Creating layer conv2_1
I0601 16:14:13.784294 17398 net.cpp:100] Creating Layer conv2_1
I0601 16:14:13.784308 17398 net.cpp:434] conv2_1 <- pool1
I0601 16:14:13.784313 17398 net.cpp:408] conv2_1 -> conv2_1
I0601 16:14:13.785166 17398 net.cpp:150] Setting up conv2_1
I0601 16:14:13.785176 17398 net.cpp:157] Top shape: 35 128 150 150 (100800000)
I0601 16:14:13.785177 17398 net.cpp:165] Memory required for data: 4132800032
I0601 16:14:13.785184 17398 layer_factory.hpp:77] Creating layer relu2_1
I0601 16:14:13.785189 17398 net.cpp:100] Creating Layer relu2_1
I0601 16:14:13.785193 17398 net.cpp:434] relu2_1 <- conv2_1
I0601 16:14:13.785197 17398 net.cpp:395] relu2_1 -> conv2_1 (in-place)
I0601 16:14:13.785733 17398 net.cpp:150] Setting up relu2_1
I0601 16:14:13.785742 17398 net.cpp:157] Top shape: 35 128 150 150 (100800000)
I0601 16:14:13.785745 17398 net.cpp:165] Memory required for data: 4536000032
I0601 16:14:13.785748 17398 layer_factory.hpp:77] Creating layer conv2_2
I0601 16:14:13.785754 17398 net.cpp:100] Creating Layer conv2_2
I0601 16:14:13.785758 17398 net.cpp:434] conv2_2 <- conv2_1
I0601 16:14:13.785763 17398 net.cpp:408] conv2_2 -> conv2_2
I0601 16:14:13.787638 17398 net.cpp:150] Setting up conv2_2
I0601 16:14:13.787647 17398 net.cpp:157] Top shape: 35 128 150 150 (100800000)
I0601 16:14:13.787650 17398 net.cpp:165] Memory required for data: 4939200032
I0601 16:14:13.787655 17398 layer_factory.hpp:77] Creating layer relu2_2
I0601 16:14:13.787660 17398 net.cpp:100] Creating Layer relu2_2
I0601 16:14:13.787663 17398 net.cpp:434] relu2_2 <- conv2_2
I0601 16:14:13.787667 17398 net.cpp:395] relu2_2 -> conv2_2 (in-place)
I0601 16:14:13.787786 17398 net.cpp:150] Setting up relu2_2
I0601 16:14:13.787792 17398 net.cpp:157] Top shape: 35 128 150 150 (100800000)
I0601 16:14:13.787796 17398 net.cpp:165] Memory required for data: 5342400032
I0601 16:14:13.787797 17398 layer_factory.hpp:77] Creating layer pool2
I0601 16:14:13.787802 17398 net.cpp:100] Creating Layer pool2
I0601 16:14:13.787804 17398 net.cpp:434] pool2 <- conv2_2
I0601 16:14:13.787808 17398 net.cpp:408] pool2 -> pool2
I0601 16:14:13.787835 17398 net.cpp:150] Setting up pool2
I0601 16:14:13.787840 17398 net.cpp:157] Top shape: 35 128 75 75 (25200000)
I0601 16:14:13.787842 17398 net.cpp:165] Memory required for data: 5443200032
I0601 16:14:13.787845 17398 layer_factory.hpp:77] Creating layer conv3_1
I0601 16:14:13.787850 17398 net.cpp:100] Creating Layer conv3_1
I0601 16:14:13.787854 17398 net.cpp:434] conv3_1 <- pool2
I0601 16:14:13.787858 17398 net.cpp:408] conv3_1 -> conv3_1
I0601 16:14:13.791548 17398 net.cpp:150] Setting up conv3_1
I0601 16:14:13.791563 17398 net.cpp:157] Top shape: 35 256 75 75 (50400000)
I0601 16:14:13.791565 17398 net.cpp:165] Memory required for data: 5644800032
I0601 16:14:13.791575 17398 layer_factory.hpp:77] Creating layer relu3_1
I0601 16:14:13.791582 17398 net.cpp:100] Creating Layer relu3_1
I0601 16:14:13.791585 17398 net.cpp:434] relu3_1 <- conv3_1
I0601 16:14:13.791589 17398 net.cpp:395] relu3_1 -> conv3_1 (in-place)
I0601 16:14:13.791743 17398 net.cpp:150] Setting up relu3_1
I0601 16:14:13.791764 17398 net.cpp:157] Top shape: 35 256 75 75 (50400000)
I0601 16:14:13.791765 17398 net.cpp:165] Memory required for data: 5846400032
I0601 16:14:13.791769 17398 layer_factory.hpp:77] Creating layer conv3_2
I0601 16:14:13.791775 17398 net.cpp:100] Creating Layer conv3_2
I0601 16:14:13.791779 17398 net.cpp:434] conv3_2 <- conv3_1
I0601 16:14:13.791784 17398 net.cpp:408] conv3_2 -> conv3_2
I0601 16:14:13.796370 17398 net.cpp:150] Setting up conv3_2
I0601 16:14:13.796386 17398 net.cpp:157] Top shape: 35 256 75 75 (50400000)
I0601 16:14:13.796389 17398 net.cpp:165] Memory required for data: 6048000032
I0601 16:14:13.796397 17398 layer_factory.hpp:77] Creating layer relu3_2
I0601 16:14:13.796403 17398 net.cpp:100] Creating Layer relu3_2
I0601 16:14:13.796406 17398 net.cpp:434] relu3_2 <- conv3_2
I0601 16:14:13.796412 17398 net.cpp:395] relu3_2 -> conv3_2 (in-place)
I0601 16:14:13.796568 17398 net.cpp:150] Setting up relu3_2
I0601 16:14:13.796576 17398 net.cpp:157] Top shape: 35 256 75 75 (50400000)
I0601 16:14:13.796577 17398 net.cpp:165] Memory required for data: 6249600032
I0601 16:14:13.796591 17398 layer_factory.hpp:77] Creating layer conv3_3
I0601 16:14:13.796602 17398 net.cpp:100] Creating Layer conv3_3
I0601 16:14:13.796607 17398 net.cpp:434] conv3_3 <- conv3_2
I0601 16:14:13.796612 17398 net.cpp:408] conv3_3 -> conv3_3
I0601 16:14:13.801545 17398 net.cpp:150] Setting up conv3_3
I0601 16:14:13.801559 17398 net.cpp:157] Top shape: 35 256 75 75 (50400000)
I0601 16:14:13.801563 17398 net.cpp:165] Memory required for data: 6451200032
I0601 16:14:13.801568 17398 layer_factory.hpp:77] Creating layer relu3_3
I0601 16:14:13.801573 17398 net.cpp:100] Creating Layer relu3_3
I0601 16:14:13.801576 17398 net.cpp:434] relu3_3 <- conv3_3
I0601 16:14:13.801581 17398 net.cpp:395] relu3_3 -> conv3_3 (in-place)
I0601 16:14:13.801725 17398 net.cpp:150] Setting up relu3_3
I0601 16:14:13.801733 17398 net.cpp:157] Top shape: 35 256 75 75 (50400000)
I0601 16:14:13.801734 17398 net.cpp:165] Memory required for data: 6652800032
I0601 16:14:13.801736 17398 layer_factory.hpp:77] Creating layer pool3
I0601 16:14:13.801741 17398 net.cpp:100] Creating Layer pool3
I0601 16:14:13.801758 17398 net.cpp:434] pool3 <- conv3_3
I0601 16:14:13.801761 17398 net.cpp:408] pool3 -> pool3
I0601 16:14:13.801808 17398 net.cpp:150] Setting up pool3
I0601 16:14:13.801827 17398 net.cpp:157] Top shape: 35 256 38 38 (12938240)
I0601 16:14:13.801829 17398 net.cpp:165] Memory required for data: 6704552992
I0601 16:14:13.801831 17398 layer_factory.hpp:77] Creating layer conv4_1
I0601 16:14:13.801853 17398 net.cpp:100] Creating Layer conv4_1
I0601 16:14:13.801856 17398 net.cpp:434] conv4_1 <- pool3
I0601 16:14:13.801862 17398 net.cpp:408] conv4_1 -> conv4_1
I0601 16:14:13.810277 17398 net.cpp:150] Setting up conv4_1
I0601 16:14:13.810294 17398 net.cpp:157] Top shape: 35 512 38 38 (25876480)
I0601 16:14:13.810297 17398 net.cpp:165] Memory required for data: 6808058912
I0601 16:14:13.810318 17398 layer_factory.hpp:77] Creating layer relu4_1
I0601 16:14:13.810328 17398 net.cpp:100] Creating Layer relu4_1
I0601 16:14:13.810331 17398 net.cpp:434] relu4_1 <- conv4_1
I0601 16:14:13.810349 17398 net.cpp:395] relu4_1 -> conv4_1 (in-place)
I0601 16:14:13.811010 17398 net.cpp:150] Setting up relu4_1
I0601 16:14:13.811020 17398 net.cpp:157] Top shape: 35 512 38 38 (25876480)
I0601 16:14:13.811024 17398 net.cpp:165] Memory required for data: 6911564832
I0601 16:14:13.811028 17398 layer_factory.hpp:77] Creating layer conv4_2
I0601 16:14:13.811040 17398 net.cpp:100] Creating Layer conv4_2
I0601 16:14:13.811044 17398 net.cpp:434] conv4_2 <- conv4_1
I0601 16:14:13.811051 17398 net.cpp:408] conv4_2 -> conv4_2
I0601 16:14:13.823040 17398 net.cpp:150] Setting up conv4_2
I0601 16:14:13.823061 17398 net.cpp:157] Top shape: 35 512 38 38 (25876480)
I0601 16:14:13.823065 17398 net.cpp:165] Memory required for data: 7015070752
I0601 16:14:13.823079 17398 layer_factory.hpp:77] Creating layer relu4_2
I0601 16:14:13.823102 17398 net.cpp:100] Creating Layer relu4_2
I0601 16:14:13.823109 17398 net.cpp:434] relu4_2 <- conv4_2
I0601 16:14:13.823132 17398 net.cpp:395] relu4_2 -> conv4_2 (in-place)
I0601 16:14:13.824069 17398 net.cpp:150] Setting up relu4_2
I0601 16:14:13.824077 17398 net.cpp:157] Top shape: 35 512 38 38 (25876480)
I0601 16:14:13.824081 17398 net.cpp:165] Memory required for data: 7118576672
I0601 16:14:13.824085 17398 layer_factory.hpp:77] Creating layer conv4_3
I0601 16:14:13.824110 17398 net.cpp:100] Creating Layer conv4_3
I0601 16:14:13.824115 17398 net.cpp:434] conv4_3 <- conv4_2
I0601 16:14:13.824123 17398 net.cpp:408] conv4_3 -> conv4_3
I0601 16:14:13.836608 17398 net.cpp:150] Setting up conv4_3
I0601 16:14:13.836625 17398 net.cpp:157] Top shape: 35 512 38 38 (25876480)
I0601 16:14:13.836630 17398 net.cpp:165] Memory required for data: 7222082592
I0601 16:14:13.836638 17398 layer_factory.hpp:77] Creating layer relu4_3
I0601 16:14:13.836647 17398 net.cpp:100] Creating Layer relu4_3
I0601 16:14:13.836665 17398 net.cpp:434] relu4_3 <- conv4_3
I0601 16:14:13.836671 17398 net.cpp:395] relu4_3 -> conv4_3 (in-place)
I0601 16:14:13.836869 17398 net.cpp:150] Setting up relu4_3
I0601 16:14:13.836879 17398 net.cpp:157] Top shape: 35 512 38 38 (25876480)
I0601 16:14:13.836884 17398 net.cpp:165] Memory required for data: 7325588512
I0601 16:14:13.836886 17398 layer_factory.hpp:77] Creating layer conv4_3_relu4_3_0_split
I0601 16:14:13.836892 17398 net.cpp:100] Creating Layer conv4_3_relu4_3_0_split
I0601 16:14:13.836899 17398 net.cpp:434] conv4_3_relu4_3_0_split <- conv4_3
I0601 16:14:13.836905 17398 net.cpp:408] conv4_3_relu4_3_0_split -> conv4_3_relu4_3_0_split_0
I0601 16:14:13.836915 17398 net.cpp:408] conv4_3_relu4_3_0_split -> conv4_3_relu4_3_0_split_1
I0601 16:14:13.836951 17398 net.cpp:150] Setting up conv4_3_relu4_3_0_split
I0601 16:14:13.836958 17398 net.cpp:157] Top shape: 35 512 38 38 (25876480)
I0601 16:14:13.836963 17398 net.cpp:157] Top shape: 35 512 38 38 (25876480)
I0601 16:14:13.836966 17398 net.cpp:165] Memory required for data: 7532600352
I0601 16:14:13.836969 17398 layer_factory.hpp:77] Creating layer pool4
I0601 16:14:13.836977 17398 net.cpp:100] Creating Layer pool4
I0601 16:14:13.836982 17398 net.cpp:434] pool4 <- conv4_3_relu4_3_0_split_0
I0601 16:14:13.836988 17398 net.cpp:408] pool4 -> pool4
I0601 16:14:13.837020 17398 net.cpp:150] Setting up pool4
I0601 16:14:13.837029 17398 net.cpp:157] Top shape: 35 512 19 19 (6469120)
I0601 16:14:13.837033 17398 net.cpp:165] Memory required for data: 7558476832
I0601 16:14:13.837038 17398 layer_factory.hpp:77] Creating layer conv5_1
I0601 16:14:13.837047 17398 net.cpp:100] Creating Layer conv5_1
I0601 16:14:13.837052 17398 net.cpp:434] conv5_1 <- pool4
I0601 16:14:13.837060 17398 net.cpp:408] conv5_1 -> conv5_1
I0601 16:14:13.850172 17398 net.cpp:150] Setting up conv5_1
I0601 16:14:13.850189 17398 net.cpp:157] Top shape: 35 512 19 19 (6469120)
I0601 16:14:13.850193 17398 net.cpp:165] Memory required for data: 7584353312
I0601 16:14:13.850201 17398 layer_factory.hpp:77] Creating layer relu5_1
I0601 16:14:13.850224 17398 net.cpp:100] Creating Layer relu5_1
I0601 16:14:13.850229 17398 net.cpp:434] relu5_1 <- conv5_1
I0601 16:14:13.850235 17398 net.cpp:395] relu5_1 -> conv5_1 (in-place)
I0601 16:14:13.850412 17398 net.cpp:150] Setting up relu5_1
I0601 16:14:13.850420 17398 net.cpp:157] Top shape: 35 512 19 19 (6469120)
I0601 16:14:13.850424 17398 net.cpp:165] Memory required for data: 7610229792
I0601 16:14:13.850427 17398 layer_factory.hpp:77] Creating layer conv5_2
I0601 16:14:13.850453 17398 net.cpp:100] Creating Layer conv5_2
I0601 16:14:13.850458 17398 net.cpp:434] conv5_2 <- conv5_1
I0601 16:14:13.850467 17398 net.cpp:408] conv5_2 -> conv5_2
I0601 16:14:13.863247 17398 net.cpp:150] Setting up conv5_2
I0601 16:14:13.863265 17398 net.cpp:157] Top shape: 35 512 19 19 (6469120)
I0601 16:14:13.863268 17398 net.cpp:165] Memory required for data: 7636106272
I0601 16:14:13.863277 17398 layer_factory.hpp:77] Creating layer relu5_2
I0601 16:14:13.863301 17398 net.cpp:100] Creating Layer relu5_2
I0601 16:14:13.863306 17398 net.cpp:434] relu5_2 <- conv5_2
I0601 16:14:13.863312 17398 net.cpp:395] relu5_2 -> conv5_2 (in-place)
I0601 16:14:13.863473 17398 net.cpp:150] Setting up relu5_2
I0601 16:14:13.863481 17398 net.cpp:157] Top shape: 35 512 19 19 (6469120)
I0601 16:14:13.863485 17398 net.cpp:165] Memory required for data: 7661982752
I0601 16:14:13.863488 17398 layer_factory.hpp:77] Creating layer conv5_3
I0601 16:14:13.863500 17398 net.cpp:100] Creating Layer conv5_3
I0601 16:14:13.863504 17398 net.cpp:434] conv5_3 <- conv5_2
I0601 16:14:13.863514 17398 net.cpp:408] conv5_3 -> conv5_3
I0601 16:14:13.876559 17398 net.cpp:150] Setting up conv5_3
I0601 16:14:13.876579 17398 net.cpp:157] Top shape: 35 512 19 19 (6469120)
I0601 16:14:13.876581 17398 net.cpp:165] Memory required for data: 7687859232
I0601 16:14:13.876590 17398 layer_factory.hpp:77] Creating layer relu5_3
I0601 16:14:13.876618 17398 net.cpp:100] Creating Layer relu5_3
I0601 16:14:13.876638 17398 net.cpp:434] relu5_3 <- conv5_3
I0601 16:14:13.876644 17398 net.cpp:395] relu5_3 -> conv5_3 (in-place)
I0601 16:14:13.876791 17398 net.cpp:150] Setting up relu5_3
I0601 16:14:13.876807 17398 net.cpp:157] Top shape: 35 512 19 19 (6469120)
I0601 16:14:13.876811 17398 net.cpp:165] Memory required for data: 7713735712
I0601 16:14:13.876816 17398 layer_factory.hpp:77] Creating layer pool5
I0601 16:14:13.876822 17398 net.cpp:100] Creating Layer pool5
I0601 16:14:13.876827 17398 net.cpp:434] pool5 <- conv5_3
I0601 16:14:13.876834 17398 net.cpp:408] pool5 -> pool5
I0601 16:14:13.876879 17398 net.cpp:150] Setting up pool5
I0601 16:14:13.876886 17398 net.cpp:157] Top shape: 35 512 19 19 (6469120)
I0601 16:14:13.876889 17398 net.cpp:165] Memory required for data: 7739612192
I0601 16:14:13.876893 17398 layer_factory.hpp:77] Creating layer fc6
I0601 16:14:13.876905 17398 net.cpp:100] Creating Layer fc6
I0601 16:14:13.876909 17398 net.cpp:434] fc6 <- pool5
I0601 16:14:13.876915 17398 net.cpp:408] fc6 -> fc6
I0601 16:14:13.899215 17398 net.cpp:150] Setting up fc6
I0601 16:14:13.899233 17398 net.cpp:157] Top shape: 35 1024 19 19 (12938240)
I0601 16:14:13.899236 17398 net.cpp:165] Memory required for data: 7791365152
I0601 16:14:13.899245 17398 layer_factory.hpp:77] Creating layer relu6
I0601 16:14:13.899267 17398 net.cpp:100] Creating Layer relu6
I0601 16:14:13.899272 17398 net.cpp:434] relu6 <- fc6
I0601 16:14:13.899294 17398 net.cpp:395] relu6 -> fc6 (in-place)
I0601 16:14:13.900342 17398 net.cpp:150] Setting up relu6
I0601 16:14:13.900365 17398 net.cpp:157] Top shape: 35 1024 19 19 (12938240)
I0601 16:14:13.900368 17398 net.cpp:165] Memory required for data: 7843118112
I0601 16:14:13.900373 17398 layer_factory.hpp:77] Creating layer fc7
I0601 16:14:13.900389 17398 net.cpp:100] Creating Layer fc7
I0601 16:14:13.900393 17398 net.cpp:434] fc7 <- fc6
I0601 16:14:13.900401 17398 net.cpp:408] fc7 -> fc7
I0601 16:14:13.906973 17398 net.cpp:150] Setting up fc7
I0601 16:14:13.906998 17398 net.cpp:157] Top shape: 35 1024 19 19 (12938240)
I0601 16:14:13.907002 17398 net.cpp:165] Memory required for data: 7894871072
I0601 16:14:13.907012 17398 layer_factory.hpp:77] Creating layer relu7
I0601 16:14:13.907022 17398 net.cpp:100] Creating Layer relu7
I0601 16:14:13.907027 17398 net.cpp:434] relu7 <- fc7
I0601 16:14:13.907037 17398 net.cpp:395] relu7 -> fc7 (in-place)
I0601 16:14:13.907181 17398 net.cpp:150] Setting up relu7
I0601 16:14:13.907191 17398 net.cpp:157] Top shape: 35 1024 19 19 (12938240)
I0601 16:14:13.907193 17398 net.cpp:165] Memory required for data: 7946624032
I0601 16:14:13.907198 17398 layer_factory.hpp:77] Creating layer fc7_relu7_0_split
I0601 16:14:13.907204 17398 net.cpp:100] Creating Layer fc7_relu7_0_split
I0601 16:14:13.907208 17398 net.cpp:434] fc7_relu7_0_split <- fc7
I0601 16:14:13.907217 17398 net.cpp:408] fc7_relu7_0_split -> fc7_relu7_0_split_0
I0601 16:14:13.907227 17398 net.cpp:408] fc7_relu7_0_split -> fc7_relu7_0_split_1
I0601 16:14:13.907246 17398 net.cpp:408] fc7_relu7_0_split -> fc7_relu7_0_split_2
I0601 16:14:13.907254 17398 net.cpp:408] fc7_relu7_0_split -> fc7_relu7_0_split_3
I0601 16:14:13.907315 17398 net.cpp:150] Setting up fc7_relu7_0_split
I0601 16:14:13.907320 17398 net.cpp:157] Top shape: 35 1024 19 19 (12938240)
I0601 16:14:13.907326 17398 net.cpp:157] Top shape: 35 1024 19 19 (12938240)
I0601 16:14:13.907333 17398 net.cpp:157] Top shape: 35 1024 19 19 (12938240)
I0601 16:14:13.907337 17398 net.cpp:157] Top shape: 35 1024 19 19 (12938240)
I0601 16:14:13.907342 17398 net.cpp:165] Memory required for data: 8153635872
I0601 16:14:13.907346 17398 layer_factory.hpp:77] Creating layer conv6_1
I0601 16:14:13.907357 17398 net.cpp:100] Creating Layer conv6_1
I0601 16:14:13.907363 17398 net.cpp:434] conv6_1 <- fc7_relu7_0_split_0
I0601 16:14:13.907371 17398 net.cpp:408] conv6_1 -> conv6_1
I0601 16:14:13.910605 17398 net.cpp:150] Setting up conv6_1
I0601 16:14:13.910619 17398 net.cpp:157] Top shape: 35 256 19 19 (3234560)
I0601 16:14:13.910624 17398 net.cpp:165] Memory required for data: 8166574112
I0601 16:14:13.910631 17398 layer_factory.hpp:77] Creating layer conv6_1_relu
I0601 16:14:13.910640 17398 net.cpp:100] Creating Layer conv6_1_relu
I0601 16:14:13.910655 17398 net.cpp:434] conv6_1_relu <- conv6_1
I0601 16:14:13.910662 17398 net.cpp:395] conv6_1_relu -> conv6_1 (in-place)
I0601 16:14:13.910796 17398 net.cpp:150] Setting up conv6_1_relu
I0601 16:14:13.910804 17398 net.cpp:157] Top shape: 35 256 19 19 (3234560)
I0601 16:14:13.910809 17398 net.cpp:165] Memory required for data: 8179512352
I0601 16:14:13.910812 17398 layer_factory.hpp:77] Creating layer conv6_2
I0601 16:14:13.910825 17398 net.cpp:100] Creating Layer conv6_2
I0601 16:14:13.910831 17398 net.cpp:434] conv6_2 <- conv6_1
I0601 16:14:13.910838 17398 net.cpp:408] conv6_2 -> conv6_2
I0601 16:14:13.917740 17398 net.cpp:150] Setting up conv6_2
I0601 16:14:13.917759 17398 net.cpp:157] Top shape: 35 512 10 10 (1792000)
I0601 16:14:13.917763 17398 net.cpp:165] Memory required for data: 8186680352
I0601 16:14:13.917794 17398 layer_factory.hpp:77] Creating layer conv6_2_relu
I0601 16:14:13.917817 17398 net.cpp:100] Creating Layer conv6_2_relu
I0601 16:14:13.917824 17398 net.cpp:434] conv6_2_relu <- conv6_2
I0601 16:14:13.917831 17398 net.cpp:395] conv6_2_relu -> conv6_2 (in-place)
I0601 16:14:13.917963 17398 net.cpp:150] Setting up conv6_2_relu
I0601 16:14:13.917971 17398 net.cpp:157] Top shape: 35 512 10 10 (1792000)
I0601 16:14:13.917975 17398 net.cpp:165] Memory required for data: 8193848352
I0601 16:14:13.917979 17398 layer_factory.hpp:77] Creating layer conv6_2_conv6_2_relu_0_split
I0601 16:14:13.917985 17398 net.cpp:100] Creating Layer conv6_2_conv6_2_relu_0_split
I0601 16:14:13.917989 17398 net.cpp:434] conv6_2_conv6_2_relu_0_split <- conv6_2
I0601 16:14:13.917999 17398 net.cpp:408] conv6_2_conv6_2_relu_0_split -> conv6_2_conv6_2_relu_0_split_0
I0601 16:14:13.918009 17398 net.cpp:408] conv6_2_conv6_2_relu_0_split -> conv6_2_conv6_2_relu_0_split_1
I0601 16:14:13.918017 17398 net.cpp:408] conv6_2_conv6_2_relu_0_split -> conv6_2_conv6_2_relu_0_split_2
I0601 16:14:13.918026 17398 net.cpp:408] conv6_2_conv6_2_relu_0_split -> conv6_2_conv6_2_relu_0_split_3
I0601 16:14:13.918083 17398 net.cpp:150] Setting up conv6_2_conv6_2_relu_0_split
I0601 16:14:13.918089 17398 net.cpp:157] Top shape: 35 512 10 10 (1792000)
I0601 16:14:13.918094 17398 net.cpp:157] Top shape: 35 512 10 10 (1792000)
I0601 16:14:13.918098 17398 net.cpp:157] Top shape: 35 512 10 10 (1792000)
I0601 16:14:13.918103 17398 net.cpp:157] Top shape: 35 512 10 10 (1792000)
I0601 16:14:13.918107 17398 net.cpp:165] Memory required for data: 8222520352
I0601 16:14:13.918110 17398 layer_factory.hpp:77] Creating layer conv7_1
I0601 16:14:13.918123 17398 net.cpp:100] Creating Layer conv7_1
I0601 16:14:13.918126 17398 net.cpp:434] conv7_1 <- conv6_2_conv6_2_relu_0_split_0
I0601 16:14:13.918134 17398 net.cpp:408] conv7_1 -> conv7_1
I0601 16:14:13.919415 17398 net.cpp:150] Setting up conv7_1
I0601 16:14:13.919426 17398 net.cpp:157] Top shape: 35 128 10 10 (448000)
I0601 16:14:13.919431 17398 net.cpp:165] Memory required for data: 8224312352
I0601 16:14:13.919438 17398 layer_factory.hpp:77] Creating layer conv7_1_relu
I0601 16:14:13.919447 17398 net.cpp:100] Creating Layer conv7_1_relu
I0601 16:14:13.919452 17398 net.cpp:434] conv7_1_relu <- conv7_1
I0601 16:14:13.919458 17398 net.cpp:395] conv7_1_relu -> conv7_1 (in-place)
I0601 16:14:13.919586 17398 net.cpp:150] Setting up conv7_1_relu
I0601 16:14:13.919595 17398 net.cpp:157] Top shape: 35 128 10 10 (448000)
I0601 16:14:13.919597 17398 net.cpp:165] Memory required for data: 8226104352
I0601 16:14:13.919601 17398 layer_factory.hpp:77] Creating layer conv7_2
I0601 16:14:13.919612 17398 net.cpp:100] Creating Layer conv7_2
I0601 16:14:13.919617 17398 net.cpp:434] conv7_2 <- conv7_1
I0601 16:14:13.919625 17398 net.cpp:408] conv7_2 -> conv7_2
I0601 16:14:13.922442 17398 net.cpp:150] Setting up conv7_2
I0601 16:14:13.922456 17398 net.cpp:157] Top shape: 35 256 5 5 (224000)
I0601 16:14:13.922461 17398 net.cpp:165] Memory required for data: 8227000352
I0601 16:14:13.922467 17398 layer_factory.hpp:77] Creating layer conv7_2_relu
I0601 16:14:13.922474 17398 net.cpp:100] Creating Layer conv7_2_relu
I0601 16:14:13.922490 17398 net.cpp:434] conv7_2_relu <- conv7_2
I0601 16:14:13.922499 17398 net.cpp:395] conv7_2_relu -> conv7_2 (in-place)
I0601 16:14:13.922632 17398 net.cpp:150] Setting up conv7_2_relu
I0601 16:14:13.922641 17398 net.cpp:157] Top shape: 35 256 5 5 (224000)
I0601 16:14:13.922644 17398 net.cpp:165] Memory required for data: 8227896352
I0601 16:14:13.922648 17398 layer_factory.hpp:77] Creating layer conv7_2_conv7_2_relu_0_split
I0601 16:14:13.922655 17398 net.cpp:100] Creating Layer conv7_2_conv7_2_relu_0_split
I0601 16:14:13.922660 17398 net.cpp:434] conv7_2_conv7_2_relu_0_split <- conv7_2
I0601 16:14:13.922667 17398 net.cpp:408] conv7_2_conv7_2_relu_0_split -> conv7_2_conv7_2_relu_0_split_0
I0601 16:14:13.922677 17398 net.cpp:408] conv7_2_conv7_2_relu_0_split -> conv7_2_conv7_2_relu_0_split_1
I0601 16:14:13.922684 17398 net.cpp:408] conv7_2_conv7_2_relu_0_split -> conv7_2_conv7_2_relu_0_split_2
I0601 16:14:13.922691 17398 net.cpp:408] conv7_2_conv7_2_relu_0_split -> conv7_2_conv7_2_relu_0_split_3
I0601 16:14:13.922749 17398 net.cpp:150] Setting up conv7_2_conv7_2_relu_0_split
I0601 16:14:13.922755 17398 net.cpp:157] Top shape: 35 256 5 5 (224000)
I0601 16:14:13.922760 17398 net.cpp:157] Top shape: 35 256 5 5 (224000)
I0601 16:14:13.922765 17398 net.cpp:157] Top shape: 35 256 5 5 (224000)
I0601 16:14:13.922770 17398 net.cpp:157] Top shape: 35 256 5 5 (224000)
I0601 16:14:13.922775 17398 net.cpp:165] Memory required for data: 8231480352
I0601 16:14:13.922778 17398 layer_factory.hpp:77] Creating layer conv8_1
I0601 16:14:13.922790 17398 net.cpp:100] Creating Layer conv8_1
I0601 16:14:13.922794 17398 net.cpp:434] conv8_1 <- conv7_2_conv7_2_relu_0_split_0
I0601 16:14:13.922801 17398 net.cpp:408] conv8_1 -> conv8_1
I0601 16:14:13.923949 17398 net.cpp:150] Setting up conv8_1
I0601 16:14:13.923959 17398 net.cpp:157] Top shape: 35 128 5 5 (112000)
I0601 16:14:13.923964 17398 net.cpp:165] Memory required for data: 8231928352
I0601 16:14:13.923970 17398 layer_factory.hpp:77] Creating layer conv8_1_relu
I0601 16:14:13.923979 17398 net.cpp:100] Creating Layer conv8_1_relu
I0601 16:14:13.923984 17398 net.cpp:434] conv8_1_relu <- conv8_1
I0601 16:14:13.923991 17398 net.cpp:395] conv8_1_relu -> conv8_1 (in-place)
I0601 16:14:13.924566 17398 net.cpp:150] Setting up conv8_1_relu
I0601 16:14:13.924576 17398 net.cpp:157] Top shape: 35 128 5 5 (112000)
I0601 16:14:13.924581 17398 net.cpp:165] Memory required for data: 8232376352
I0601 16:14:13.924584 17398 layer_factory.hpp:77] Creating layer conv8_2
I0601 16:14:13.924594 17398 net.cpp:100] Creating Layer conv8_2
I0601 16:14:13.924599 17398 net.cpp:434] conv8_2 <- conv8_1
I0601 16:14:13.924608 17398 net.cpp:408] conv8_2 -> conv8_2
I0601 16:14:13.927429 17398 net.cpp:150] Setting up conv8_2
I0601 16:14:13.927440 17398 net.cpp:157] Top shape: 35 256 3 3 (80640)
I0601 16:14:13.927444 17398 net.cpp:165] Memory required for data: 8232698912
I0601 16:14:13.927453 17398 layer_factory.hpp:77] Creating layer conv8_2_relu
I0601 16:14:13.927459 17398 net.cpp:100] Creating Layer conv8_2_relu
I0601 16:14:13.927464 17398 net.cpp:434] conv8_2_relu <- conv8_2
I0601 16:14:13.927471 17398 net.cpp:395] conv8_2_relu -> conv8_2 (in-place)
I0601 16:14:13.927604 17398 net.cpp:150] Setting up conv8_2_relu
I0601 16:14:13.927613 17398 net.cpp:157] Top shape: 35 256 3 3 (80640)
I0601 16:14:13.927618 17398 net.cpp:165] Memory required for data: 8233021472
I0601 16:14:13.927621 17398 layer_factory.hpp:77] Creating layer conv8_2_conv8_2_relu_0_split
I0601 16:14:13.927628 17398 net.cpp:100] Creating Layer conv8_2_conv8_2_relu_0_split
I0601 16:14:13.927634 17398 net.cpp:434] conv8_2_conv8_2_relu_0_split <- conv8_2
I0601 16:14:13.927640 17398 net.cpp:408] conv8_2_conv8_2_relu_0_split -> conv8_2_conv8_2_relu_0_split_0
I0601 16:14:13.927649 17398 net.cpp:408] conv8_2_conv8_2_relu_0_split -> conv8_2_conv8_2_relu_0_split_1
I0601 16:14:13.927659 17398 net.cpp:408] conv8_2_conv8_2_relu_0_split -> conv8_2_conv8_2_relu_0_split_2
I0601 16:14:13.927666 17398 net.cpp:408] conv8_2_conv8_2_relu_0_split -> conv8_2_conv8_2_relu_0_split_3
I0601 16:14:13.927736 17398 net.cpp:150] Setting up conv8_2_conv8_2_relu_0_split
I0601 16:14:13.927743 17398 net.cpp:157] Top shape: 35 256 3 3 (80640)
I0601 16:14:13.927747 17398 net.cpp:157] Top shape: 35 256 3 3 (80640)
I0601 16:14:13.927753 17398 net.cpp:157] Top shape: 35 256 3 3 (80640)
I0601 16:14:13.927758 17398 net.cpp:157] Top shape: 35 256 3 3 (80640)
I0601 16:14:13.927762 17398 net.cpp:165] Memory required for data: 8234311712
I0601 16:14:13.927767 17398 layer_factory.hpp:77] Creating layer conv9_1
I0601 16:14:13.927778 17398 net.cpp:100] Creating Layer conv9_1
I0601 16:14:13.927783 17398 net.cpp:434] conv9_1 <- conv8_2_conv8_2_relu_0_split_0
I0601 16:14:13.927790 17398 net.cpp:408] conv9_1 -> conv9_1
I0601 16:14:13.928954 17398 net.cpp:150] Setting up conv9_1
I0601 16:14:13.928966 17398 net.cpp:157] Top shape: 35 128 3 3 (40320)
I0601 16:14:13.928970 17398 net.cpp:165] Memory required for data: 8234472992
I0601 16:14:13.928977 17398 layer_factory.hpp:77] Creating layer conv9_1_relu
I0601 16:14:13.928984 17398 net.cpp:100] Creating Layer conv9_1_relu
I0601 16:14:13.928990 17398 net.cpp:434] conv9_1_relu <- conv9_1
I0601 16:14:13.928997 17398 net.cpp:395] conv9_1_relu -> conv9_1 (in-place)
I0601 16:14:13.929126 17398 net.cpp:150] Setting up conv9_1_relu
I0601 16:14:13.929134 17398 net.cpp:157] Top shape: 35 128 3 3 (40320)
I0601 16:14:13.929138 17398 net.cpp:165] Memory required for data: 8234634272
I0601 16:14:13.929142 17398 layer_factory.hpp:77] Creating layer conv9_2
I0601 16:14:13.929152 17398 net.cpp:100] Creating Layer conv9_2
I0601 16:14:13.929157 17398 net.cpp:434] conv9_2 <- conv9_1
I0601 16:14:13.929165 17398 net.cpp:408] conv9_2 -> conv9_2
I0601 16:14:13.931970 17398 net.cpp:150] Setting up conv9_2
I0601 16:14:13.931984 17398 net.cpp:157] Top shape: 35 256 1 1 (8960)
I0601 16:14:13.931988 17398 net.cpp:165] Memory required for data: 8234670112
I0601 16:14:13.931995 17398 layer_factory.hpp:77] Creating layer conv9_2_relu
I0601 16:14:13.932003 17398 net.cpp:100] Creating Layer conv9_2_relu
I0601 16:14:13.932009 17398 net.cpp:434] conv9_2_relu <- conv9_2
I0601 16:14:13.932018 17398 net.cpp:395] conv9_2_relu -> conv9_2 (in-place)
I0601 16:14:13.932150 17398 net.cpp:150] Setting up conv9_2_relu
I0601 16:14:13.932158 17398 net.cpp:157] Top shape: 35 256 1 1 (8960)
I0601 16:14:13.932162 17398 net.cpp:165] Memory required for data: 8234705952
I0601 16:14:13.932165 17398 layer_factory.hpp:77] Creating layer conv9_2_conv9_2_relu_0_split
I0601 16:14:13.932174 17398 net.cpp:100] Creating Layer conv9_2_conv9_2_relu_0_split
I0601 16:14:13.932180 17398 net.cpp:434] conv9_2_conv9_2_relu_0_split <- conv9_2
I0601 16:14:13.932188 17398 net.cpp:408] conv9_2_conv9_2_relu_0_split -> conv9_2_conv9_2_relu_0_split_0
I0601 16:14:13.932196 17398 net.cpp:408] conv9_2_conv9_2_relu_0_split -> conv9_2_conv9_2_relu_0_split_1
I0601 16:14:13.932204 17398 net.cpp:408] conv9_2_conv9_2_relu_0_split -> conv9_2_conv9_2_relu_0_split_2
I0601 16:14:13.932252 17398 net.cpp:150] Setting up conv9_2_conv9_2_relu_0_split
I0601 16:14:13.932260 17398 net.cpp:157] Top shape: 35 256 1 1 (8960)
I0601 16:14:13.932263 17398 net.cpp:157] Top shape: 35 256 1 1 (8960)
I0601 16:14:13.932268 17398 net.cpp:157] Top shape: 35 256 1 1 (8960)
I0601 16:14:13.932271 17398 net.cpp:165] Memory required for data: 8234813472
I0601 16:14:13.932276 17398 layer_factory.hpp:77] Creating layer conv4_3_norm
I0601 16:14:13.932283 17398 net.cpp:100] Creating Layer conv4_3_norm
I0601 16:14:13.932288 17398 net.cpp:434] conv4_3_norm <- conv4_3_relu4_3_0_split_1
I0601 16:14:13.932296 17398 net.cpp:408] conv4_3_norm -> conv4_3_norm
I0601 16:14:13.932422 17398 net.cpp:150] Setting up conv4_3_norm
I0601 16:14:13.932430 17398 net.cpp:157] Top shape: 35 512 38 38 (25876480)
I0601 16:14:13.932433 17398 net.cpp:165] Memory required for data: 8338319392
I0601 16:14:13.932438 17398 layer_factory.hpp:77] Creating layer conv4_3_norm_conv4_3_norm_0_split
I0601 16:14:13.932445 17398 net.cpp:100] Creating Layer conv4_3_norm_conv4_3_norm_0_split
I0601 16:14:13.932449 17398 net.cpp:434] conv4_3_norm_conv4_3_norm_0_split <- conv4_3_norm
I0601 16:14:13.932464 17398 net.cpp:408] conv4_3_norm_conv4_3_norm_0_split -> conv4_3_norm_conv4_3_norm_0_split_0
I0601 16:14:13.932473 17398 net.cpp:408] conv4_3_norm_conv4_3_norm_0_split -> conv4_3_norm_conv4_3_norm_0_split_1
I0601 16:14:13.932481 17398 net.cpp:408] conv4_3_norm_conv4_3_norm_0_split -> conv4_3_norm_conv4_3_norm_0_split_2
I0601 16:14:13.932524 17398 net.cpp:150] Setting up conv4_3_norm_conv4_3_norm_0_split
I0601 16:14:13.932531 17398 net.cpp:157] Top shape: 35 512 38 38 (25876480)
I0601 16:14:13.932535 17398 net.cpp:157] Top shape: 35 512 38 38 (25876480)
I0601 16:14:13.932541 17398 net.cpp:157] Top shape: 35 512 38 38 (25876480)
I0601 16:14:13.932545 17398 net.cpp:165] Memory required for data: 8648837152
I0601 16:14:13.932549 17398 layer_factory.hpp:77] Creating layer conv4_3_norm_mbox_loc
I0601 16:14:13.932559 17398 net.cpp:100] Creating Layer conv4_3_norm_mbox_loc
I0601 16:14:13.932564 17398 net.cpp:434] conv4_3_norm_mbox_loc <- conv4_3_norm_conv4_3_norm_0_split_0
I0601 16:14:13.932574 17398 net.cpp:408] conv4_3_norm_mbox_loc -> conv4_3_norm_mbox_loc
I0601 16:14:13.934348 17398 net.cpp:150] Setting up conv4_3_norm_mbox_loc
I0601 16:14:13.934360 17398 net.cpp:157] Top shape: 35 16 38 38 (808640)
I0601 16:14:13.934363 17398 net.cpp:165] Memory required for data: 8652071712
I0601 16:14:13.934370 17398 layer_factory.hpp:77] Creating layer conv4_3_norm_mbox_loc_perm
I0601 16:14:13.934381 17398 net.cpp:100] Creating Layer conv4_3_norm_mbox_loc_perm
I0601 16:14:13.934386 17398 net.cpp:434] conv4_3_norm_mbox_loc_perm <- conv4_3_norm_mbox_loc
I0601 16:14:13.934394 17398 net.cpp:408] conv4_3_norm_mbox_loc_perm -> conv4_3_norm_mbox_loc_perm
I0601 16:14:13.934481 17398 net.cpp:150] Setting up conv4_3_norm_mbox_loc_perm
I0601 16:14:13.934489 17398 net.cpp:157] Top shape: 35 38 38 16 (808640)
I0601 16:14:13.934492 17398 net.cpp:165] Memory required for data: 8655306272
I0601 16:14:13.934496 17398 layer_factory.hpp:77] Creating layer conv4_3_norm_mbox_loc_flat
I0601 16:14:13.934504 17398 net.cpp:100] Creating Layer conv4_3_norm_mbox_loc_flat
I0601 16:14:13.934509 17398 net.cpp:434] conv4_3_norm_mbox_loc_flat <- conv4_3_norm_mbox_loc_perm
I0601 16:14:13.934514 17398 net.cpp:408] conv4_3_norm_mbox_loc_flat -> conv4_3_norm_mbox_loc_flat
I0601 16:14:13.934547 17398 net.cpp:150] Setting up conv4_3_norm_mbox_loc_flat
I0601 16:14:13.934554 17398 net.cpp:157] Top shape: 35 23104 (808640)
I0601 16:14:13.934557 17398 net.cpp:165] Memory required for data: 8658540832
I0601 16:14:13.934561 17398 layer_factory.hpp:77] Creating layer conv4_3_norm_mbox_conf
I0601 16:14:13.934577 17398 net.cpp:100] Creating Layer conv4_3_norm_mbox_conf
I0601 16:14:13.934582 17398 net.cpp:434] conv4_3_norm_mbox_conf <- conv4_3_norm_conv4_3_norm_0_split_1
I0601 16:14:13.934589 17398 net.cpp:408] conv4_3_norm_mbox_conf -> conv4_3_norm_mbox_conf
I0601 16:14:13.936331 17398 net.cpp:150] Setting up conv4_3_norm_mbox_conf
I0601 16:14:13.936341 17398 net.cpp:157] Top shape: 35 16 38 38 (808640)
I0601 16:14:13.936344 17398 net.cpp:165] Memory required for data: 8661775392
I0601 16:14:13.936352 17398 layer_factory.hpp:77] Creating layer conv4_3_norm_mbox_conf_perm
I0601 16:14:13.936359 17398 net.cpp:100] Creating Layer conv4_3_norm_mbox_conf_perm
I0601 16:14:13.936364 17398 net.cpp:434] conv4_3_norm_mbox_conf_perm <- conv4_3_norm_mbox_conf
I0601 16:14:13.936374 17398 net.cpp:408] conv4_3_norm_mbox_conf_perm -> conv4_3_norm_mbox_conf_perm
I0601 16:14:13.936460 17398 net.cpp:150] Setting up conv4_3_norm_mbox_conf_perm
I0601 16:14:13.936467 17398 net.cpp:157] Top shape: 35 38 38 16 (808640)
I0601 16:14:13.936470 17398 net.cpp:165] Memory required for data: 8665009952
I0601 16:14:13.936475 17398 layer_factory.hpp:77] Creating layer conv4_3_norm_mbox_conf_flat
I0601 16:14:13.936480 17398 net.cpp:100] Creating Layer conv4_3_norm_mbox_conf_flat
I0601 16:14:13.936484 17398 net.cpp:434] conv4_3_norm_mbox_conf_flat <- conv4_3_norm_mbox_conf_perm
I0601 16:14:13.936492 17398 net.cpp:408] conv4_3_norm_mbox_conf_flat -> conv4_3_norm_mbox_conf_flat
I0601 16:14:13.936523 17398 net.cpp:150] Setting up conv4_3_norm_mbox_conf_flat
I0601 16:14:13.936530 17398 net.cpp:157] Top shape: 35 23104 (808640)
I0601 16:14:13.936534 17398 net.cpp:165] Memory required for data: 8668244512
I0601 16:14:13.936537 17398 layer_factory.hpp:77] Creating layer conv4_3_norm_mbox_priorbox
I0601 16:14:13.936545 17398 net.cpp:100] Creating Layer conv4_3_norm_mbox_priorbox
I0601 16:14:13.936550 17398 net.cpp:434] conv4_3_norm_mbox_priorbox <- conv4_3_norm_conv4_3_norm_0_split_2
I0601 16:14:13.936555 17398 net.cpp:434] conv4_3_norm_mbox_priorbox <- data_data_0_split_1
I0601 16:14:13.936564 17398 net.cpp:408] conv4_3_norm_mbox_priorbox -> conv4_3_norm_mbox_priorbox
I0601 16:14:13.936589 17398 net.cpp:150] Setting up conv4_3_norm_mbox_priorbox
I0601 16:14:13.936597 17398 net.cpp:157] Top shape: 1 2 23104 (46208)
I0601 16:14:13.936602 17398 net.cpp:165] Memory required for data: 8668429344
I0601 16:14:13.936605 17398 layer_factory.hpp:77] Creating layer fc7_mbox_loc
I0601 16:14:13.936616 17398 net.cpp:100] Creating Layer fc7_mbox_loc
I0601 16:14:13.936621 17398 net.cpp:434] fc7_mbox_loc <- fc7_relu7_0_split_1
I0601 16:14:13.936630 17398 net.cpp:408] fc7_mbox_loc -> fc7_mbox_loc
I0601 16:14:13.939059 17398 net.cpp:150] Setting up fc7_mbox_loc
I0601 16:14:13.939072 17398 net.cpp:157] Top shape: 35 24 19 19 (303240)
I0601 16:14:13.939077 17398 net.cpp:165] Memory required for data: 8669642304
I0601 16:14:13.939085 17398 layer_factory.hpp:77] Creating layer fc7_mbox_loc_perm
I0601 16:14:13.939093 17398 net.cpp:100] Creating Layer fc7_mbox_loc_perm
I0601 16:14:13.939098 17398 net.cpp:434] fc7_mbox_loc_perm <- fc7_mbox_loc
I0601 16:14:13.939106 17398 net.cpp:408] fc7_mbox_loc_perm -> fc7_mbox_loc_perm
I0601 16:14:13.939198 17398 net.cpp:150] Setting up fc7_mbox_loc_perm
I0601 16:14:13.939204 17398 net.cpp:157] Top shape: 35 19 19 24 (303240)
I0601 16:14:13.939208 17398 net.cpp:165] Memory required for data: 8670855264
I0601 16:14:13.939211 17398 layer_factory.hpp:77] Creating layer fc7_mbox_loc_flat
I0601 16:14:13.939219 17398 net.cpp:100] Creating Layer fc7_mbox_loc_flat
I0601 16:14:13.939224 17398 net.cpp:434] fc7_mbox_loc_flat <- fc7_mbox_loc_perm
I0601 16:14:13.939230 17398 net.cpp:408] fc7_mbox_loc_flat -> fc7_mbox_loc_flat
I0601 16:14:13.939254 17398 net.cpp:150] Setting up fc7_mbox_loc_flat
I0601 16:14:13.939261 17398 net.cpp:157] Top shape: 35 8664 (303240)
I0601 16:14:13.939265 17398 net.cpp:165] Memory required for data: 8672068224
I0601 16:14:13.939268 17398 layer_factory.hpp:77] Creating layer fc7_mbox_conf
I0601 16:14:13.939280 17398 net.cpp:100] Creating Layer fc7_mbox_conf
I0601 16:14:13.939287 17398 net.cpp:434] fc7_mbox_conf <- fc7_relu7_0_split_2
I0601 16:14:13.939294 17398 net.cpp:408] fc7_mbox_conf -> fc7_mbox_conf
I0601 16:14:13.941809 17398 net.cpp:150] Setting up fc7_mbox_conf
I0601 16:14:13.941826 17398 net.cpp:157] Top shape: 35 24 19 19 (303240)
I0601 16:14:13.941831 17398 net.cpp:165] Memory required for data: 8673281184
I0601 16:14:13.941840 17398 layer_factory.hpp:77] Creating layer fc7_mbox_conf_perm
I0601 16:14:13.941849 17398 net.cpp:100] Creating Layer fc7_mbox_conf_perm
I0601 16:14:13.941855 17398 net.cpp:434] fc7_mbox_conf_perm <- fc7_mbox_conf
I0601 16:14:13.941864 17398 net.cpp:408] fc7_mbox_conf_perm -> fc7_mbox_conf_perm
I0601 16:14:13.941958 17398 net.cpp:150] Setting up fc7_mbox_conf_perm
I0601 16:14:13.941965 17398 net.cpp:157] Top shape: 35 19 19 24 (303240)
I0601 16:14:13.941969 17398 net.cpp:165] Memory required for data: 8674494144
I0601 16:14:13.941972 17398 layer_factory.hpp:77] Creating layer fc7_mbox_conf_flat
I0601 16:14:13.941980 17398 net.cpp:100] Creating Layer fc7_mbox_conf_flat
I0601 16:14:13.941987 17398 net.cpp:434] fc7_mbox_conf_flat <- fc7_mbox_conf_perm
I0601 16:14:13.941992 17398 net.cpp:408] fc7_mbox_conf_flat -> fc7_mbox_conf_flat
I0601 16:14:13.942016 17398 net.cpp:150] Setting up fc7_mbox_conf_flat
I0601 16:14:13.942023 17398 net.cpp:157] Top shape: 35 8664 (303240)
I0601 16:14:13.942026 17398 net.cpp:165] Memory required for data: 8675707104
I0601 16:14:13.942040 17398 layer_factory.hpp:77] Creating layer fc7_mbox_priorbox
I0601 16:14:13.942051 17398 net.cpp:100] Creating Layer fc7_mbox_priorbox
I0601 16:14:13.942056 17398 net.cpp:434] fc7_mbox_priorbox <- fc7_relu7_0_split_3
I0601 16:14:13.942061 17398 net.cpp:434] fc7_mbox_priorbox <- data_data_0_split_2
I0601 16:14:13.942070 17398 net.cpp:408] fc7_mbox_priorbox -> fc7_mbox_priorbox
I0601 16:14:13.942095 17398 net.cpp:150] Setting up fc7_mbox_priorbox
I0601 16:14:13.942103 17398 net.cpp:157] Top shape: 1 2 8664 (17328)
I0601 16:14:13.942106 17398 net.cpp:165] Memory required for data: 8675776416
I0601 16:14:13.942111 17398 layer_factory.hpp:77] Creating layer conv6_2_mbox_loc
I0601 16:14:13.942121 17398 net.cpp:100] Creating Layer conv6_2_mbox_loc
I0601 16:14:13.942127 17398 net.cpp:434] conv6_2_mbox_loc <- conv6_2_conv6_2_relu_0_split_1
I0601 16:14:13.942134 17398 net.cpp:408] conv6_2_mbox_loc -> conv6_2_mbox_loc
I0601 16:14:13.944044 17398 net.cpp:150] Setting up conv6_2_mbox_loc
I0601 16:14:13.944056 17398 net.cpp:157] Top shape: 35 24 10 10 (84000)
I0601 16:14:13.944061 17398 net.cpp:165] Memory required for data: 8676112416
I0601 16:14:13.944068 17398 layer_factory.hpp:77] Creating layer conv6_2_mbox_loc_perm
I0601 16:14:13.944077 17398 net.cpp:100] Creating Layer conv6_2_mbox_loc_perm
I0601 16:14:13.944082 17398 net.cpp:434] conv6_2_mbox_loc_perm <- conv6_2_mbox_loc
I0601 16:14:13.944089 17398 net.cpp:408] conv6_2_mbox_loc_perm -> conv6_2_mbox_loc_perm
I0601 16:14:13.944180 17398 net.cpp:150] Setting up conv6_2_mbox_loc_perm
I0601 16:14:13.944185 17398 net.cpp:157] Top shape: 35 10 10 24 (84000)
I0601 16:14:13.944190 17398 net.cpp:165] Memory required for data: 8676448416
I0601 16:14:13.944192 17398 layer_factory.hpp:77] Creating layer conv6_2_mbox_loc_flat
I0601 16:14:13.944200 17398 net.cpp:100] Creating Layer conv6_2_mbox_loc_flat
I0601 16:14:13.944205 17398 net.cpp:434] conv6_2_mbox_loc_flat <- conv6_2_mbox_loc_perm
I0601 16:14:13.944213 17398 net.cpp:408] conv6_2_mbox_loc_flat -> conv6_2_mbox_loc_flat
I0601 16:14:13.944234 17398 net.cpp:150] Setting up conv6_2_mbox_loc_flat
I0601 16:14:13.944241 17398 net.cpp:157] Top shape: 35 2400 (84000)
I0601 16:14:13.944244 17398 net.cpp:165] Memory required for data: 8676784416
I0601 16:14:13.944248 17398 layer_factory.hpp:77] Creating layer conv6_2_mbox_conf
I0601 16:14:13.944259 17398 net.cpp:100] Creating Layer conv6_2_mbox_conf
I0601 16:14:13.944264 17398 net.cpp:434] conv6_2_mbox_conf <- conv6_2_conv6_2_relu_0_split_2
I0601 16:14:13.944272 17398 net.cpp:408] conv6_2_mbox_conf -> conv6_2_mbox_conf
I0601 16:14:13.946182 17398 net.cpp:150] Setting up conv6_2_mbox_conf
I0601 16:14:13.946194 17398 net.cpp:157] Top shape: 35 24 10 10 (84000)
I0601 16:14:13.946198 17398 net.cpp:165] Memory required for data: 8677120416
I0601 16:14:13.946205 17398 layer_factory.hpp:77] Creating layer conv6_2_mbox_conf_perm
I0601 16:14:13.946213 17398 net.cpp:100] Creating Layer conv6_2_mbox_conf_perm
I0601 16:14:13.946219 17398 net.cpp:434] conv6_2_mbox_conf_perm <- conv6_2_mbox_conf
I0601 16:14:13.946228 17398 net.cpp:408] conv6_2_mbox_conf_perm -> conv6_2_mbox_conf_perm
I0601 16:14:13.946317 17398 net.cpp:150] Setting up conv6_2_mbox_conf_perm
I0601 16:14:13.946324 17398 net.cpp:157] Top shape: 35 10 10 24 (84000)
I0601 16:14:13.946328 17398 net.cpp:165] Memory required for data: 8677456416
I0601 16:14:13.946332 17398 layer_factory.hpp:77] Creating layer conv6_2_mbox_conf_flat
I0601 16:14:13.946341 17398 net.cpp:100] Creating Layer conv6_2_mbox_conf_flat
I0601 16:14:13.946344 17398 net.cpp:434] conv6_2_mbox_conf_flat <- conv6_2_mbox_conf_perm
I0601 16:14:13.946352 17398 net.cpp:408] conv6_2_mbox_conf_flat -> conv6_2_mbox_conf_flat
I0601 16:14:13.946375 17398 net.cpp:150] Setting up conv6_2_mbox_conf_flat
I0601 16:14:13.946382 17398 net.cpp:157] Top shape: 35 2400 (84000)
I0601 16:14:13.946384 17398 net.cpp:165] Memory required for data: 8677792416
I0601 16:14:13.946388 17398 layer_factory.hpp:77] Creating layer conv6_2_mbox_priorbox
I0601 16:14:13.946406 17398 net.cpp:100] Creating Layer conv6_2_mbox_priorbox
I0601 16:14:13.946411 17398 net.cpp:434] conv6_2_mbox_priorbox <- conv6_2_conv6_2_relu_0_split_3
I0601 16:14:13.946418 17398 net.cpp:434] conv6_2_mbox_priorbox <- data_data_0_split_3
I0601 16:14:13.946427 17398 net.cpp:408] conv6_2_mbox_priorbox -> conv6_2_mbox_priorbox
I0601 16:14:13.946451 17398 net.cpp:150] Setting up conv6_2_mbox_priorbox
I0601 16:14:13.946458 17398 net.cpp:157] Top shape: 1 2 2400 (4800)
I0601 16:14:13.946461 17398 net.cpp:165] Memory required for data: 8677811616
I0601 16:14:13.946465 17398 layer_factory.hpp:77] Creating layer conv7_2_mbox_loc
I0601 16:14:13.946476 17398 net.cpp:100] Creating Layer conv7_2_mbox_loc
I0601 16:14:13.946481 17398 net.cpp:434] conv7_2_mbox_loc <- conv7_2_conv7_2_relu_0_split_1
I0601 16:14:13.946488 17398 net.cpp:408] conv7_2_mbox_loc -> conv7_2_mbox_loc
I0601 16:14:13.947741 17398 net.cpp:150] Setting up conv7_2_mbox_loc
I0601 16:14:13.947752 17398 net.cpp:157] Top shape: 35 24 5 5 (21000)
I0601 16:14:13.947755 17398 net.cpp:165] Memory required for data: 8677895616
I0601 16:14:13.947762 17398 layer_factory.hpp:77] Creating layer conv7_2_mbox_loc_perm
I0601 16:14:13.947772 17398 net.cpp:100] Creating Layer conv7_2_mbox_loc_perm
I0601 16:14:13.947777 17398 net.cpp:434] conv7_2_mbox_loc_perm <- conv7_2_mbox_loc
I0601 16:14:13.947783 17398 net.cpp:408] conv7_2_mbox_loc_perm -> conv7_2_mbox_loc_perm
I0601 16:14:13.947875 17398 net.cpp:150] Setting up conv7_2_mbox_loc_perm
I0601 16:14:13.947881 17398 net.cpp:157] Top shape: 35 5 5 24 (21000)
I0601 16:14:13.947885 17398 net.cpp:165] Memory required for data: 8677979616
I0601 16:14:13.947888 17398 layer_factory.hpp:77] Creating layer conv7_2_mbox_loc_flat
I0601 16:14:13.947895 17398 net.cpp:100] Creating Layer conv7_2_mbox_loc_flat
I0601 16:14:13.947899 17398 net.cpp:434] conv7_2_mbox_loc_flat <- conv7_2_mbox_loc_perm
I0601 16:14:13.947906 17398 net.cpp:408] conv7_2_mbox_loc_flat -> conv7_2_mbox_loc_flat
I0601 16:14:13.947932 17398 net.cpp:150] Setting up conv7_2_mbox_loc_flat
I0601 16:14:13.947937 17398 net.cpp:157] Top shape: 35 600 (21000)
I0601 16:14:13.947940 17398 net.cpp:165] Memory required for data: 8678063616
I0601 16:14:13.947943 17398 layer_factory.hpp:77] Creating layer conv7_2_mbox_conf
I0601 16:14:13.947953 17398 net.cpp:100] Creating Layer conv7_2_mbox_conf
I0601 16:14:13.947958 17398 net.cpp:434] conv7_2_mbox_conf <- conv7_2_conv7_2_relu_0_split_2
I0601 16:14:13.947966 17398 net.cpp:408] conv7_2_mbox_conf -> conv7_2_mbox_conf
I0601 16:14:13.949642 17398 net.cpp:150] Setting up conv7_2_mbox_conf
I0601 16:14:13.949653 17398 net.cpp:157] Top shape: 35 24 5 5 (21000)
I0601 16:14:13.949657 17398 net.cpp:165] Memory required for data: 8678147616
I0601 16:14:13.949664 17398 layer_factory.hpp:77] Creating layer conv7_2_mbox_conf_perm
I0601 16:14:13.949673 17398 net.cpp:100] Creating Layer conv7_2_mbox_conf_perm
I0601 16:14:13.949679 17398 net.cpp:434] conv7_2_mbox_conf_perm <- conv7_2_mbox_conf
I0601 16:14:13.949686 17398 net.cpp:408] conv7_2_mbox_conf_perm -> conv7_2_mbox_conf_perm
I0601 16:14:13.949777 17398 net.cpp:150] Setting up conv7_2_mbox_conf_perm
I0601 16:14:13.949784 17398 net.cpp:157] Top shape: 35 5 5 24 (21000)
I0601 16:14:13.949789 17398 net.cpp:165] Memory required for data: 8678231616
I0601 16:14:13.949791 17398 layer_factory.hpp:77] Creating layer conv7_2_mbox_conf_flat
I0601 16:14:13.949797 17398 net.cpp:100] Creating Layer conv7_2_mbox_conf_flat
I0601 16:14:13.949801 17398 net.cpp:434] conv7_2_mbox_conf_flat <- conv7_2_mbox_conf_perm
I0601 16:14:13.949810 17398 net.cpp:408] conv7_2_mbox_conf_flat -> conv7_2_mbox_conf_flat
I0601 16:14:13.949833 17398 net.cpp:150] Setting up conv7_2_mbox_conf_flat
I0601 16:14:13.949841 17398 net.cpp:157] Top shape: 35 600 (21000)
I0601 16:14:13.949843 17398 net.cpp:165] Memory required for data: 8678315616
I0601 16:14:13.949846 17398 layer_factory.hpp:77] Creating layer conv7_2_mbox_priorbox
I0601 16:14:13.949853 17398 net.cpp:100] Creating Layer conv7_2_mbox_priorbox
I0601 16:14:13.949858 17398 net.cpp:434] conv7_2_mbox_priorbox <- conv7_2_conv7_2_relu_0_split_3
I0601 16:14:13.949872 17398 net.cpp:434] conv7_2_mbox_priorbox <- data_data_0_split_4
I0601 16:14:13.949882 17398 net.cpp:408] conv7_2_mbox_priorbox -> conv7_2_mbox_priorbox
I0601 16:14:13.949908 17398 net.cpp:150] Setting up conv7_2_mbox_priorbox
I0601 16:14:13.949914 17398 net.cpp:157] Top shape: 1 2 600 (1200)
I0601 16:14:13.949918 17398 net.cpp:165] Memory required for data: 8678320416
I0601 16:14:13.949920 17398 layer_factory.hpp:77] Creating layer conv8_2_mbox_loc
I0601 16:14:13.949930 17398 net.cpp:100] Creating Layer conv8_2_mbox_loc
I0601 16:14:13.949935 17398 net.cpp:434] conv8_2_mbox_loc <- conv8_2_conv8_2_relu_0_split_1
I0601 16:14:13.949944 17398 net.cpp:408] conv8_2_mbox_loc -> conv8_2_mbox_loc
I0601 16:14:13.951601 17398 net.cpp:150] Setting up conv8_2_mbox_loc
I0601 16:14:13.951613 17398 net.cpp:157] Top shape: 35 16 3 3 (5040)
I0601 16:14:13.951617 17398 net.cpp:165] Memory required for data: 8678340576
I0601 16:14:13.951634 17398 layer_factory.hpp:77] Creating layer conv8_2_mbox_loc_perm
I0601 16:14:13.951644 17398 net.cpp:100] Creating Layer conv8_2_mbox_loc_perm
I0601 16:14:13.951650 17398 net.cpp:434] conv8_2_mbox_loc_perm <- conv8_2_mbox_loc
I0601 16:14:13.951659 17398 net.cpp:408] conv8_2_mbox_loc_perm -> conv8_2_mbox_loc_perm
I0601 16:14:13.951756 17398 net.cpp:150] Setting up conv8_2_mbox_loc_perm
I0601 16:14:13.951762 17398 net.cpp:157] Top shape: 35 3 3 16 (5040)
I0601 16:14:13.951766 17398 net.cpp:165] Memory required for data: 8678360736
I0601 16:14:13.951769 17398 layer_factory.hpp:77] Creating layer conv8_2_mbox_loc_flat
I0601 16:14:13.951776 17398 net.cpp:100] Creating Layer conv8_2_mbox_loc_flat
I0601 16:14:13.951781 17398 net.cpp:434] conv8_2_mbox_loc_flat <- conv8_2_mbox_loc_perm
I0601 16:14:13.951787 17398 net.cpp:408] conv8_2_mbox_loc_flat -> conv8_2_mbox_loc_flat
I0601 16:14:13.951812 17398 net.cpp:150] Setting up conv8_2_mbox_loc_flat
I0601 16:14:13.951817 17398 net.cpp:157] Top shape: 35 144 (5040)
I0601 16:14:13.951820 17398 net.cpp:165] Memory required for data: 8678380896
I0601 16:14:13.951824 17398 layer_factory.hpp:77] Creating layer conv8_2_mbox_conf
I0601 16:14:13.951836 17398 net.cpp:100] Creating Layer conv8_2_mbox_conf
I0601 16:14:13.951840 17398 net.cpp:434] conv8_2_mbox_conf <- conv8_2_conv8_2_relu_0_split_2
I0601 16:14:13.951849 17398 net.cpp:408] conv8_2_mbox_conf -> conv8_2_mbox_conf
I0601 16:14:13.953461 17398 net.cpp:150] Setting up conv8_2_mbox_conf
I0601 16:14:13.953472 17398 net.cpp:157] Top shape: 35 16 3 3 (5040)
I0601 16:14:13.953477 17398 net.cpp:165] Memory required for data: 8678401056
I0601 16:14:13.953485 17398 layer_factory.hpp:77] Creating layer conv8_2_mbox_conf_perm
I0601 16:14:13.953495 17398 net.cpp:100] Creating Layer conv8_2_mbox_conf_perm
I0601 16:14:13.953500 17398 net.cpp:434] conv8_2_mbox_conf_perm <- conv8_2_mbox_conf
I0601 16:14:13.953508 17398 net.cpp:408] conv8_2_mbox_conf_perm -> conv8_2_mbox_conf_perm
I0601 16:14:13.953598 17398 net.cpp:150] Setting up conv8_2_mbox_conf_perm
I0601 16:14:13.953604 17398 net.cpp:157] Top shape: 35 3 3 16 (5040)
I0601 16:14:13.953608 17398 net.cpp:165] Memory required for data: 8678421216
I0601 16:14:13.953611 17398 layer_factory.hpp:77] Creating layer conv8_2_mbox_conf_flat
I0601 16:14:13.953619 17398 net.cpp:100] Creating Layer conv8_2_mbox_conf_flat
I0601 16:14:13.953624 17398 net.cpp:434] conv8_2_mbox_conf_flat <- conv8_2_mbox_conf_perm
I0601 16:14:13.953630 17398 net.cpp:408] conv8_2_mbox_conf_flat -> conv8_2_mbox_conf_flat
I0601 16:14:13.953655 17398 net.cpp:150] Setting up conv8_2_mbox_conf_flat
I0601 16:14:13.953660 17398 net.cpp:157] Top shape: 35 144 (5040)
I0601 16:14:13.953665 17398 net.cpp:165] Memory required for data: 8678441376
I0601 16:14:13.953667 17398 layer_factory.hpp:77] Creating layer conv8_2_mbox_priorbox
I0601 16:14:13.953676 17398 net.cpp:100] Creating Layer conv8_2_mbox_priorbox
I0601 16:14:13.953681 17398 net.cpp:434] conv8_2_mbox_priorbox <- conv8_2_conv8_2_relu_0_split_3
I0601 16:14:13.953686 17398 net.cpp:434] conv8_2_mbox_priorbox <- data_data_0_split_5
I0601 16:14:13.953702 17398 net.cpp:408] conv8_2_mbox_priorbox -> conv8_2_mbox_priorbox
I0601 16:14:13.953729 17398 net.cpp:150] Setting up conv8_2_mbox_priorbox
I0601 16:14:13.953737 17398 net.cpp:157] Top shape: 1 2 144 (288)
I0601 16:14:13.953739 17398 net.cpp:165] Memory required for data: 8678442528
I0601 16:14:13.953742 17398 layer_factory.hpp:77] Creating layer conv9_2_mbox_loc
I0601 16:14:13.953752 17398 net.cpp:100] Creating Layer conv9_2_mbox_loc
I0601 16:14:13.953758 17398 net.cpp:434] conv9_2_mbox_loc <- conv9_2_conv9_2_relu_0_split_0
I0601 16:14:13.953766 17398 net.cpp:408] conv9_2_mbox_loc -> conv9_2_mbox_loc
I0601 16:14:13.955415 17398 net.cpp:150] Setting up conv9_2_mbox_loc
I0601 16:14:13.955425 17398 net.cpp:157] Top shape: 35 16 1 1 (560)
I0601 16:14:13.955428 17398 net.cpp:165] Memory required for data: 8678444768
I0601 16:14:13.955436 17398 layer_factory.hpp:77] Creating layer conv9_2_mbox_loc_perm
I0601 16:14:13.955446 17398 net.cpp:100] Creating Layer conv9_2_mbox_loc_perm
I0601 16:14:13.955451 17398 net.cpp:434] conv9_2_mbox_loc_perm <- conv9_2_mbox_loc
I0601 16:14:13.955459 17398 net.cpp:408] conv9_2_mbox_loc_perm -> conv9_2_mbox_loc_perm
I0601 16:14:13.955550 17398 net.cpp:150] Setting up conv9_2_mbox_loc_perm
I0601 16:14:13.955557 17398 net.cpp:157] Top shape: 35 1 1 16 (560)
I0601 16:14:13.955561 17398 net.cpp:165] Memory required for data: 8678447008
I0601 16:14:13.955565 17398 layer_factory.hpp:77] Creating layer conv9_2_mbox_loc_flat
I0601 16:14:13.955571 17398 net.cpp:100] Creating Layer conv9_2_mbox_loc_flat
I0601 16:14:13.955576 17398 net.cpp:434] conv9_2_mbox_loc_flat <- conv9_2_mbox_loc_perm
I0601 16:14:13.955582 17398 net.cpp:408] conv9_2_mbox_loc_flat -> conv9_2_mbox_loc_flat
I0601 16:14:13.955606 17398 net.cpp:150] Setting up conv9_2_mbox_loc_flat
I0601 16:14:13.955612 17398 net.cpp:157] Top shape: 35 16 (560)
I0601 16:14:13.955615 17398 net.cpp:165] Memory required for data: 8678449248
I0601 16:14:13.955620 17398 layer_factory.hpp:77] Creating layer conv9_2_mbox_conf
I0601 16:14:13.955631 17398 net.cpp:100] Creating Layer conv9_2_mbox_conf
I0601 16:14:13.955636 17398 net.cpp:434] conv9_2_mbox_conf <- conv9_2_conv9_2_relu_0_split_1
I0601 16:14:13.955643 17398 net.cpp:408] conv9_2_mbox_conf -> conv9_2_mbox_conf
I0601 16:14:13.957700 17398 net.cpp:150] Setting up conv9_2_mbox_conf
I0601 16:14:13.957712 17398 net.cpp:157] Top shape: 35 16 1 1 (560)
I0601 16:14:13.957716 17398 net.cpp:165] Memory required for data: 8678451488
I0601 16:14:13.957723 17398 layer_factory.hpp:77] Creating layer conv9_2_mbox_conf_perm
I0601 16:14:13.957731 17398 net.cpp:100] Creating Layer conv9_2_mbox_conf_perm
I0601 16:14:13.957737 17398 net.cpp:434] conv9_2_mbox_conf_perm <- conv9_2_mbox_conf
I0601 16:14:13.957759 17398 net.cpp:408] conv9_2_mbox_conf_perm -> conv9_2_mbox_conf_perm
I0601 16:14:13.957851 17398 net.cpp:150] Setting up conv9_2_mbox_conf_perm
I0601 16:14:13.957857 17398 net.cpp:157] Top shape: 35 1 1 16 (560)
I0601 16:14:13.957861 17398 net.cpp:165] Memory required for data: 8678453728
I0601 16:14:13.957864 17398 layer_factory.hpp:77] Creating layer conv9_2_mbox_conf_flat
I0601 16:14:13.957873 17398 net.cpp:100] Creating Layer conv9_2_mbox_conf_flat
I0601 16:14:13.957878 17398 net.cpp:434] conv9_2_mbox_conf_flat <- conv9_2_mbox_conf_perm
I0601 16:14:13.957885 17398 net.cpp:408] conv9_2_mbox_conf_flat -> conv9_2_mbox_conf_flat
I0601 16:14:13.957908 17398 net.cpp:150] Setting up conv9_2_mbox_conf_flat
I0601 16:14:13.957914 17398 net.cpp:157] Top shape: 35 16 (560)
I0601 16:14:13.957917 17398 net.cpp:165] Memory required for data: 8678455968
I0601 16:14:13.957921 17398 layer_factory.hpp:77] Creating layer conv9_2_mbox_priorbox
I0601 16:14:13.957929 17398 net.cpp:100] Creating Layer conv9_2_mbox_priorbox
I0601 16:14:13.957934 17398 net.cpp:434] conv9_2_mbox_priorbox <- conv9_2_conv9_2_relu_0_split_2
I0601 16:14:13.957939 17398 net.cpp:434] conv9_2_mbox_priorbox <- data_data_0_split_6
I0601 16:14:13.957947 17398 net.cpp:408] conv9_2_mbox_priorbox -> conv9_2_mbox_priorbox
I0601 16:14:13.957980 17398 net.cpp:150] Setting up conv9_2_mbox_priorbox
I0601 16:14:13.957988 17398 net.cpp:157] Top shape: 1 2 16 (32)
I0601 16:14:13.957990 17398 net.cpp:165] Memory required for data: 8678456096
I0601 16:14:13.957994 17398 layer_factory.hpp:77] Creating layer mbox_loc
I0601 16:14:13.958003 17398 net.cpp:100] Creating Layer mbox_loc
I0601 16:14:13.958009 17398 net.cpp:434] mbox_loc <- conv4_3_norm_mbox_loc_flat
I0601 16:14:13.958014 17398 net.cpp:434] mbox_loc <- fc7_mbox_loc_flat
I0601 16:14:13.958019 17398 net.cpp:434] mbox_loc <- conv6_2_mbox_loc_flat
I0601 16:14:13.958025 17398 net.cpp:434] mbox_loc <- conv7_2_mbox_loc_flat
I0601 16:14:13.958031 17398 net.cpp:434] mbox_loc <- conv8_2_mbox_loc_flat
I0601 16:14:13.958036 17398 net.cpp:434] mbox_loc <- conv9_2_mbox_loc_flat
I0601 16:14:13.958045 17398 net.cpp:408] mbox_loc -> mbox_loc
I0601 16:14:13.958070 17398 net.cpp:150] Setting up mbox_loc
I0601 16:14:13.958077 17398 net.cpp:157] Top shape: 35 34928 (1222480)
I0601 16:14:13.958081 17398 net.cpp:165] Memory required for data: 8683346016
I0601 16:14:13.958086 17398 layer_factory.hpp:77] Creating layer mbox_conf
I0601 16:14:13.958092 17398 net.cpp:100] Creating Layer mbox_conf
I0601 16:14:13.958097 17398 net.cpp:434] mbox_conf <- conv4_3_norm_mbox_conf_flat
I0601 16:14:13.958102 17398 net.cpp:434] mbox_conf <- fc7_mbox_conf_flat
I0601 16:14:13.958108 17398 net.cpp:434] mbox_conf <- conv6_2_mbox_conf_flat
I0601 16:14:13.958113 17398 net.cpp:434] mbox_conf <- conv7_2_mbox_conf_flat
I0601 16:14:13.958118 17398 net.cpp:434] mbox_conf <- conv8_2_mbox_conf_flat
I0601 16:14:13.958123 17398 net.cpp:434] mbox_conf <- conv9_2_mbox_conf_flat
I0601 16:14:13.958130 17398 net.cpp:408] mbox_conf -> mbox_conf
I0601 16:14:13.958153 17398 net.cpp:150] Setting up mbox_conf
I0601 16:14:13.958159 17398 net.cpp:157] Top shape: 35 34928 (1222480)
I0601 16:14:13.958163 17398 net.cpp:165] Memory required for data: 8688235936
I0601 16:14:13.958166 17398 layer_factory.hpp:77] Creating layer mbox_priorbox
I0601 16:14:13.958171 17398 net.cpp:100] Creating Layer mbox_priorbox
I0601 16:14:13.958178 17398 net.cpp:434] mbox_priorbox <- conv4_3_norm_mbox_priorbox
I0601 16:14:13.958183 17398 net.cpp:434] mbox_priorbox <- fc7_mbox_priorbox
I0601 16:14:13.958187 17398 net.cpp:434] mbox_priorbox <- conv6_2_mbox_priorbox
I0601 16:14:13.958192 17398 net.cpp:434] mbox_priorbox <- conv7_2_mbox_priorbox
I0601 16:14:13.958197 17398 net.cpp:434] mbox_priorbox <- conv8_2_mbox_priorbox
I0601 16:14:13.958201 17398 net.cpp:434] mbox_priorbox <- conv9_2_mbox_priorbox
I0601 16:14:13.958209 17398 net.cpp:408] mbox_priorbox -> mbox_priorbox
I0601 16:14:13.958231 17398 net.cpp:150] Setting up mbox_priorbox
I0601 16:14:13.958237 17398 net.cpp:157] Top shape: 1 2 34928 (69856)
I0601 16:14:13.958241 17398 net.cpp:165] Memory required for data: 8688515360
I0601 16:14:13.958245 17398 layer_factory.hpp:77] Creating layer mbox_loss
I0601 16:14:13.958253 17398 net.cpp:100] Creating Layer mbox_loss
I0601 16:14:13.958258 17398 net.cpp:434] mbox_loss <- mbox_loc
I0601 16:14:13.958263 17398 net.cpp:434] mbox_loss <- mbox_conf
I0601 16:14:13.958268 17398 net.cpp:434] mbox_loss <- mbox_priorbox
…
  name: "data"
  type: "AnnotatedData"
  top: "data"
  top: "label"
  include {
    phase: TEST
  }
  transform_param {
    mean_value: 104
    mean_value: 117
    mean_value: 123
    resize_param {
      prob: 1
      resize_mode: WARP
      height: 300
      width: 300
      interp_mode: LINEAR
    }
  }
  data_param {
    source: "examples/tbs_300x300_HSIL_10x/tbs_300x300_HSIL_10x_test_lmdb"
    batch_size: 4
    backend: LMDB
  }
  annotated_data_param {
    batch_sampler {
    }
    label_map_file: "data/tbs_300x300_HSIL_10x/labelmap_tbs.prototxt"
  }
}
layer {
  name: "conv1_1"
  type: "Convolution"
  bottom: "data"
  top: "conv1_1"
  param {
    lr_mult: 1
    decay_mult: 1
  }
  param {
    lr_mult: 2
    decay_mult: 0
  }
  convolution_param {
    num_output: 64
    pad: 1
    kernel_size: 3
    weight_filler {
      type: "xavier"
    }
    bias_filler {
      type: "constant"
      value: 0
    }
  }
}
layer {
  name: "relu1_1"
  type: "ReLU"
  bottom: "conv1_1"
  top: "conv1_1"
}
layer {
  name: "conv1_2"
  type: "Convolution"
  bottom: "conv1_1"
  top: "conv1_2"
  param {
    lr_mult: 1
    decay_mult: 1
  }
  param {
    lr_mult: 2
    decay_mult: 0
  }
  convolution_param {
    num_output: 64
    pad: 1
    kernel_size: 3
    weight_filler {
      type: "xavier"
    }
    bias_filler {
      type: "constant"
      value: 0
    }
  }
}
layer {
  name: "relu1_2"
  type: "ReLU"
  bottom: "conv1_2"
  top: "conv1_2"
}
layer {
  name: "pool1"
  type: "Pooling"
  bottom: "conv1_2"
  top: "pool1"
  pooling_param {
    pool: MAX
    kernel_size: 2
    stride: 2
  }
}
layer {
  name: "conv2_1"
  type: "Convolution"
  bottom: "pool1"
  top: "conv2_1"
  param {
    lr_mult: 1
    decay_mult: 1
  }
  param {
    lr_mult: 2
    decay_mult: 0
  }
  convolution_param {
    num_output: 128
    pad: 1
    kernel_size: 3
    weight_filler {
      type: "xavier"
    }
    bias_filler {
      type: "constant"
      value: 0
    }
  }
}
layer {
  name: "relu2_1"
  type: "ReLU"
  bottom: "conv2_1"
  top: "conv2_1"
}
layer {
  name: "conv2_2"
  type: "Convolution"
  bottom: "conv2_1"
  top: "conv2_2"
  param {
    lr_mult: 1
    decay_mult: 1
  }
  param {
    lr_mult: 2
    decay_mult: 0
  }
  convolution_param {
    num_output: 128
    pad: 1
    kernel_size: 3
    weight_filler {
      type: "xavier"
    }
    bias_filler {
      type: "constant"
      value: 0
    }
  }
}
layer {
  name: "relu2_2"
  type: "ReLU"
  bottom: "conv2_2"
  top: "conv2_2"
}
layer {
  name: "pool2"
  type: "Pooling"
  bottom: "conv2_2"
  top: "pool2"
  pooling_param {
    pool: MAX
    kernel_size: 2
    stride: 2
  }
}
layer {
  name: "conv3_1"
  type: "Convolution"
  bottom: "pool2"
  top: "conv3_1"
  param {
    lr_mult: 1
    decay_mult: 1
  }
  param {
    lr_mult: 2
    decay_mult: 0
  }
  convolution_param {
    num_output: 256
    pad: 1
    kernel_size: 3
    weight_filler {
      type: "xavier"
    }
    bias_filler {
      type: "constant"
      value: 0
    }
  }
}
layer {
  name: "relu3_1"
  type: "ReLU"
  bottom: "conv3_1"
  top: "conv3_1"
}
layer {
  name: "conv3_2"
  type: "Convolution"
  bottom: "conv3_1"
  top: "conv3_2"
  param {
    lr_mult: 1
    decay_mult: 1
  }
  param {
    lr_mult: 2
    decay_mult: 0
  }
  convolution_param {
    num_output: 256
    pad: 1
    kernel_size: 3
    weight_filler {
      type: "xavier"
    }
    bias_filler {
      type: "constant"
      value: 0
    }
  }
}
layer {
  name: "relu3_2"
  type: "ReLU"
  bottom: "conv3_2"
  top: "conv3_2"
}
layer {
  name: "conv3_3"
  type: "Convolution"
  bottom: "conv3_2"
  top: "conv3_3"
  param {
    lr_mult: 1
    decay_mult: 1
  }
  param {
    lr_mult: 2
    decay_mult: 0
  }
  convolution_param {
    num_output: 256
    pad: 1
    kernel_size: 3
    weight_filler {
      type: "xavier"
    }
    bias_filler {
      type: "constant"
      value: 0
    }
  }
}
layer {
  name: "relu3_3"
  type: "ReLU"
  bottom: "conv3_3"
  top: "conv3_3"
}
layer {
  name: "pool3"
  type: "Pooling"
  bottom: "conv3_3"
  top: "pool3"
  pooling_param {
    pool: MAX
    kernel_size: 2
    stride: 2
  }
}
layer {
  name: "conv4_1"
  type: "Convolution"
  bottom: "pool3"
  top: "conv4_1"
  param {
    lr_mult: 1
    decay_mult: 1
  }
  param {
    lr_mult: 2
    decay_mult: 0
  }
  convolution_param {
    num_output: 512
    pad: 1
    kernel_size: 3
    weight_filler {
      type: "xavier"
    }
    bias_filler {
      type: "constant"
      value: 0
    }
  }
}
layer {
  name: "relu4_1"
  type: "ReLU"
  bottom: "conv4_1"
  top: "conv4_1"
}
layer {
  name: "conv4_2"
  type: "Convolution"
  bottom: "conv4_1"
  top: "conv4_2"
  param {
    lr_mult: 1
    decay_mult: 1
  }
  param {
    lr_mult: 2
    decay_mult: 0
  }
  convolution_param {
    num_output: 512
    pad: 1
    kernel_size: 3
    weight_filler {
      type: "xavier"
    }
    bias_filler {
      type: "constant"
      value: 0
    }
  }
}
layer {
  name: "relu4_2"
  type: "ReLU"
  bottom: "conv4_2"
  top: "conv4_2"
}
layer {
  name: "conv4_3"
  type: "Convolution"
  bottom: "conv4_2"
  top: "conv4_3"
  param {
    lr_mult: 1
    decay_mult: 1
  }
  param {
    lr_mult: 2
    decay_mult: 0
  }
  convolution_param {
    num_output: 512
    pad: 1
    kernel_size: 3
    weight_filler {
      type: "xavier"
    }
    bias_filler {
      type: "constant"
      value: 0
    }
  }
}
layer {
  name: "relu4_3"
  type: "ReLU"
  bottom: "conv4_3"
  top: "conv4_3"
}
layer {
  name: "pool4"
  type: "Pooling"
  bottom: "conv4_3"
  top: "pool4"
  pooling_param {
    pool: MAX
    kernel_size: 2
    stride: 2
  }
}
layer {
  name: "conv5_1"
  type: "Convolution"
  bottom: "pool4"
  top: "conv5_1"
  param {
    lr_mult: 1
    decay_mult: 1
  }
  param {
    lr_mult: 2
    decay_mult: 0
  }
  convolution_param {
    num_output: 512
    pad: 1
    kernel_size: 3
    weight_filler {
      type: "xavier"
    }
    bias_filler {
      type: "constant"
      value: 0
    }
    dilation: 1
  }
}
layer {
  name: "relu5_1"
  type: "ReLU"
  bottom: "conv5_1"
  top: "conv5_1"
}
layer {
  name: "conv5_2"
  type: "Convolution"
  bottom: "conv5_1"
  top: "conv5_2"
  param {
    lr_mult: 1
    decay_mult: 1
  }
  param {
    lr_mult: 2
    decay_mult: 0
  }
  convolution_param {
    num_output: 512
    pad: 1
    kernel_size: 3
    weight_filler {
      type: "xavier"
    }
    bias_filler {
      type: "constant"
      value: 0
    }
    dilation: 1
  }
}
layer {
  name: "relu5_2"
  type: "ReLU"
  bottom: "conv5_2"
  top: "conv5_2"
}
layer {
  name: "conv5_3"
  type: "Convolution"
  bottom: "conv5_2"
  top: "conv5_3"
  param {
    lr_mult: 1
    decay_mult: 1
  }
  param {
    lr_mult: 2
    decay_mult: 0
  }
  convolution_param {
    num_output: 512
    pad: 1
    kernel_size: 3
    weight_filler {
      type: "xavier"
    }
    bias_filler {
      type: "constant"
      value: 0
    }
    dilation: 1
  }
}
layer {
  name: "relu5_3"
  type: "ReLU"
  bottom: "conv5_3"
  top: "conv5_3"
}
layer {
  name: "pool5"
  type: "Pooling"
  bottom: "conv5_3"
  top: "pool5"
  pooling_param {
    pool: MAX
    kernel_size: 3
    stride: 1
    pad: 1
  }
}
layer {
  name: "fc6"
  type: "Convolution"
  bottom: "pool5"
  top: "fc6"
  param {
    lr_mult: 1
    decay_mult: 1
  }
  param {
    lr_mult: 2
    decay_mult: 0
  }
  convolution_param {
    num_output: 1024
    pad: 6
    kernel_size: 3
    weight_filler {
      type: "xavier"
    }
    bias_filler {
      type: "constant"
      value: 0
    }
    dilation: 6
  }
}
layer {
  name: "relu6"
  type: "ReLU"
  bottom: "fc6"
  top: "fc6"
}
layer {
  name: "fc7"
  type: "Convolution"
  bottom: "fc6"
  top: "fc7"
  param {
    lr_mult: 1
    decay_mult: 1
  }
  param {
    lr_mult: 2
    decay_mult: 0
  }
  convolution_param {
    num_output: 1024
    kernel_size: 1
    weight_filler {
      type: "xavier"
    }
    bias_filler {
      type: "constant"
      value: 0
    }
  }
}
layer {
  name: "relu7"
  type: "ReLU"
  bottom: "fc7"
  top: "fc7"
}
layer {
  name: "conv6_1"
  type: "Convolution"
  bottom: "fc7"
  top: "conv6_1"
  param {
    lr_mult: 1
    decay_mult: 1
  }
  param {
    lr_mult: 2
    decay_mult: 0
  }
  convolution_param {
    num_output: 256
    pad: 0
    kernel_size: 1
    stride: 1
    weight_filler {
      type: "xavier"
    }
    bias_filler {
      type: "constant"
      value: 0
    }
  }
}
layer {
  name: "conv6_1_relu"
  type: "ReLU"
  bottom: "conv6_1"
  top: "conv6_1"
}
layer {
  name: "conv6_2"
  type: "Convolution"
  bottom: "conv6_1"
  top: "conv6_2"
  param {
    lr_mult: 1
    decay_mult: 1
  }
  param {
    lr_mult: 2
    decay_mult: 0
  }
  convolution_param {
    num_output: 512
    pad: 1
    kernel_size: 3
    stride: 2
    weight_filler {
      type: "xavier"
    }
    bias_filler {
      type: "constant"
      value: 0
    }
  }
}
layer {
  name: "conv6_2_relu"
  type: "ReLU"
  bottom: "conv6_2"
  top: "conv6_2"
}
layer {
  name: "conv7_1"
  type: "Convolution"
  bottom: "conv6_2"
  top: "conv7_1"
  param {
    lr_mult: 1
    decay_mult: 1
  }
  param {
    lr_mult: 2
    decay_mult: 0
  }
  convolution_param {
    num_output: 128
    pad: 0
    kernel_size: 1
    stride: 1
    weight_filler {
      type: "xavier"
    }
    bias_filler {
      type: "constant"
      value: 0
    }
  }
}
layer {
  name: "conv7_1_relu"
  type: "ReLU"
  bottom: "conv7_1"
  top: "conv7_1"
}
layer {
  name: "conv7_2"
  type: "Convolution"
  bottom: "conv7_1"
  top: "conv7_2"
  param {
    lr_mult: 1
    decay_mult: 1
  }
  param {
    lr_mult: 2
    decay_mult: 0
  }
  convolution_param {
    num_output: 256
    pad: 1
    kernel_size: 3
    stride: 2
    weight_filler {
      type: "xavier"
    }
    bias_filler {
      type: "constant"
      value: 0
    }
  }
}
layer {
  name: "conv7_2_relu"
  type: "ReLU"
  bottom: "conv7_2"
  top: "conv7_2"
}
layer {
  name: "conv8_1"
  type: "Convolution"
  bottom: "conv7_2"
  top: "conv8_1"
  param {
    lr_mult: 1
    decay_mult: 1
  }
  param {
    lr_mult: 2
    decay_mult: 0
  }
  convolution_param {
    num_output: 128
    pad: 0
    kernel_size: 1
    stride: 1
    weight_filler {
      type: "xavier"
    }
    bias_filler {
      type: "constant"
      value: 0
    }
  }
}
layer {
  name: "conv8_1_relu"
  type: "ReLU"
  bottom: "conv8_1"
  top: "conv8_1"
}
layer {
  name: "conv8_2"
  type: "Convolution"
  bottom: "conv8_1"
  top: "conv8_2"
  param {
    lr_mult: 1
    decay_mult: 1
  }
  param {
    lr_mult: 2
    decay_mult: 0
  }
  convolution_param {
    num_output: 256
    pad: 0
    kernel_size: 3
    stride: 1
    weight_filler {
      type: "xavier"
    }
    bias_filler {
      type: "constant"
      value: 0
    }
  }
}
layer {
  name: "conv8_2_relu"
  type: "ReLU"
  bottom: "conv8_2"
  top: "conv8_2"
}
layer {
  name: "conv9_1"
  type: "Convolution"
  bottom: "conv8_2"
  top: "conv9_1"
  param {
    lr_mult: 1
    decay_mult: 1
  }
  param {
    lr_mult: 2
    decay_mult: 0
  }
  convolution_param {
    num_output: 128
    pad: 0
    kernel_size: 1
    stride: 1
    weight_filler {
      type: "xavier"
    }
    bias_filler {
      type: "constant"
      value: 0
    }
  }
}
layer {
  name: "conv9_1_relu"
  type: "ReLU"
  bottom: "conv9_1"
  top: "conv9_1"
}
layer {
  name: "conv9_2"
  type: "Convolution"
  bottom: "conv9_1"
  top: "conv9_2"
  param {
    lr_mult: 1
    decay_mult: 1
  }
  param {
    lr_mult: 2
    decay_mult: 0
  }
  convolution_param {
    num_output: 256
    pad: 0
    kernel_size: 3
    stride: 1
    weight_filler {
      type: "xavier"
    }
    bias_filler {
      type: "constant"
      value: 0
    }
  }
}
layer {
  name: "conv9_2_relu"
  type: "ReLU"
  bottom: "conv9_2"
  top: "conv9_2"
}
layer {
  name: "conv4_3_norm"
  type: "Normalize"
  bottom: "conv4_3"
  top: "conv4_3_norm"
  norm_param {
    across_spatial: false
    scale_filler {
      type: "constant"
      value: 20
    }
    channel_shared: false
  }
}
layer {
  name: "conv4_3_norm_mbox_loc"
  type: "Convolution"
  bottom: "conv4_3_norm"
  top: "conv4_3_norm_mbox_loc"
  param {
    lr_mult: 1
    decay_mult: 1
  }
  param {
    lr_mult: 2
    decay_mult: 0
  }
  convolution_param {
    num_output: 16
    pad: 1
    kernel_size: 3
    stride: 1
    weight_filler {
      type: "xavier"
    }
    bias_filler {
      type: "constant"
      value: 0
    }
  }
}
layer {
  name: "conv4_3_norm_mbox_loc_perm"
  type: "Permute"
  bottom: "conv4_3_norm_mbox_loc"
  top: "conv4_3_norm_mbox_loc_perm"
  permute_param {
    order: 0
    order: 2
    order: 3
    order: 1
  }
}
layer {
  name: "conv4_3_norm_mbox_loc_flat"
  type: "Flatten"
  bottom: "conv4_3_norm_mbox_loc_perm"
  top: "conv4_3_norm_mbox_loc_flat"
  flatten_param {
    axis: 1
  }
}
layer {
  name: "conv4_3_norm_mbox_conf"
  type: "Convolution"
  bottom: "conv4_3_norm"
  top: "conv4_3_norm_mbox_conf"
  param {
    lr_mult: 1
    decay_mult: 1
  }
  param {
    lr_mult: 2
    decay_mult: 0
  }
  convolution_param {
    num_output: 16
    pad: 1
    kernel_size: 3
    stride: 1
    weight_filler {
      type: "xavier"
    }
    bias_filler {
      type: "constant"
      value: 0
    }
  }
}
layer {
  name: "conv4_3_norm_mbox_conf_perm"
  type: "Permute"
  bottom: "conv4_3_norm_mbox_conf"
  top: "conv4_3_norm_mbox_conf_perm"
  permute_param {
    order: 0
    order: 2
    order: 3
    order: 1
  }
}
layer {
  name: "conv4_3_norm_mbox_conf_flat"
  type: "Flatten"
  bottom: "conv4_3_norm_mbox_conf_perm"
  top: "conv4_3_norm_mbox_conf_flat"
  flatten_param {
    axis: 1
  }
}
layer {
  name: "conv4_3_norm_mbox_priorbox"
  type: "PriorBox"
  bottom: "conv4_3_norm"
  bottom: "data"
  top: "conv4_3_norm_mbox_priorbox"
  prior_box_param {
    min_size: 30
    max_size: 60
    aspect_ratio: 2
    flip: true
    clip: false
    variance: 0.1
    variance: 0.1
    variance: 0.2
    variance: 0.2
    step: 8
    offset: 0.5
  }
}
layer {
  name: "fc7_mbox_loc"
  type: "Convolution"
  bottom: "fc7"
  top: "fc7_mbox_loc"
  param {
    lr_mult: 1
    decay_mult: 1
  }
  param {
    lr_mult: 2
    decay_mult: 0
  }
  convolution_param {
    num_output: 24
    pad: 1
    kernel_size: 3
    stride: 1
    weight_filler {
      type: "xavier"
    }
    bias_filler {
      type: "constant"
      value: 0
    }
  }
}
layer {
  name: "fc7_mbox_loc_perm"
  type: "Permute"
  bottom: "fc7_mbox_loc"
  top: "fc7_mbox_loc_perm"
  permute_param {
    order: 0
    order: 2
    order: 3
    order: 1
  }
}
layer {
  name: "fc7_mbox_loc_flat"
  type: "Flatten"
  bottom: "fc7_mbox_loc_perm"
  top: "fc7_mbox_loc_flat"
  flatten_param {
    axis: 1
  }
}
layer {
  name: "fc7_mbox_conf"
  type: "Convolution"
  bottom: "fc7"
  top: "fc7_mbox_conf"
  param {
    lr_mult: 1
    decay_mult: 1
  }
  param {
    lr_mult: 2
    decay_mult: 0
  }
  convolution_param {
    num_output: 24
    pad: 1
    kernel_size: 3
    stride: 1
    weight_filler {
      type: "xavier"
    }
    bias_filler {
      type: "constant"
      value: 0
    }
  }
}
layer {
  name: "fc7_mbox_conf_perm"
  type: "Permute"
  bottom: "fc7_mbox_conf"
  top: "fc7_mbox_conf_perm"
  permute_param {
    order: 0
    order: 2
    order: 3
    order: 1
  }
}
layer {
  name: "fc7_mbox_conf_flat"
  type: "Flatten"
  bottom: "fc7_mbox_conf_perm"
  top: "fc7_mbox_conf_flat"
  flatten_param {
    axis: 1
  }
}
layer {
  name: "fc7_mbox_priorbox"
  type: "PriorBox"
  bottom: "fc7"
  bottom: "data"
  top: "fc7_mbox_priorbox"
  prior_box_param {
    min_size: 60
    max_size: 111
    aspect_ratio: 2
    aspect_ratio: 3
    flip: true
    clip: false
    variance: 0.1
    variance: 0.1
    variance: 0.2
    variance: 0.2
    step: 16
    offset: 0.5
  }
}
layer {
  name: "conv6_2_mbox_loc"
  type: "Convolution"
  bottom: "conv6_2"
  top: "conv6_2_mbox_loc"
  param {
    lr_mult: 1
    decay_mult: 1
  }
  param {
    lr_mult: 2
    decay_mult: 0
  }
  convolution_param {
    num_output: 24
    pad: 1
    kernel_size: 3
    stride: 1
    weight_filler {
      type: "xavier"
    }
    bias_filler {
      type: "constant"
      value: 0
    }
  }
}
layer {
  name: "conv6_2_mbox_loc_perm"
  type: "Permute"
  bottom: "conv6_2_mbox_loc"
  top: "conv6_2_mbox_loc_perm"
  permute_param {
    order: 0
    order: 2
    order: 3
    order: 1
  }
}
layer {
  name: "conv6_2_mbox_loc_flat"
  type: "Flatten"
  bottom: "conv6_2_mbox_loc_perm"
  top: "conv6_2_mbox_loc_flat"
  flatten_param {
    axis: 1
  }
}
layer {
  name: "conv6_2_mbox_conf"
  type: "Convolution"
  bottom: "conv6_2"
  top: "conv6_2_mbox_conf"
  param {
    lr_mult: 1
    decay_mult: 1
  }
  param {
    lr_mult: 2
    decay_mult: 0
  }
  convolution_param {
    num_output: 24
    pad: 1
    kernel_size: 3
    stride: 1
    weight_filler {
      type: "xavier"
    }
    bias_filler {
      type: "constant"
      value: 0
    }
  }
}
layer {
  name: "conv6_2_mbox_conf_perm"
  type: "Permute"
  bottom: "conv6_2_mbox_conf"
  top: "conv6_2_mbox_conf_perm"
  permute_param {
    order: 0
    order: 2
    order: 3
    order: 1
  }
}
layer {
  name: "conv6_2_mbox_conf_flat"
  type: "Flatten"
  bottom: "conv6_2_mbox_conf_perm"
  top: "conv6_2_mbox_conf_flat"
  flatten_param {
    axis: 1
  }
}
layer {
  name: "conv6_2_mbox_priorbox"
  type: "PriorBox"
  bottom: "conv6_2"
  bottom: "data"
  top: "conv6_2_mbox_priorbox"
  prior_box_param {
    min_size: 111
    max_size: 162
    aspect_ratio: 2
    aspect_ratio: 3
    flip: true
    clip: false
    variance: 0.1
    variance: 0.1
    variance: 0.2
    variance: 0.2
    step: 32
    offset: 0.5
  }
}
layer {
  name: "conv7_2_mbox_loc"
  type: "Convolution"
  bottom: "conv7_2"
  top: "conv7_2_mbox_loc"
  param {
    lr_mult: 1
    decay_mult: 1
  }
  param {
    lr_mult: 2
    decay_mult: 0
  }
  convolution_param {
    num_output: 24
    pad: 1
    kernel_size: 3
    stride: 1
    weight_filler {
      type: "xavier"
    }
    bias_filler {
      type: "constant"
      value: 0
    }
  }
}
layer {
  name: "conv7_2_mbox_loc_perm"
  type: "Permute"
  bottom: "conv7_2_mbox_loc"
  top: "conv7_2_mbox_loc_perm"
  permute_param {
    order: 0
    order: 2
    order: 3
    order: 1
  }
}
layer {
  name: "conv7_2_mbox_loc_flat"
  type: "Flatten"
  bottom: "conv7_2_mbox_loc_perm"
  top: "conv7_2_mbox_loc_flat"
  flatten_param {
    axis: 1
  }
}
layer {
  name: "conv7_2_mbox_conf"
  type: "Convolution"
  bottom: "conv7_2"
  top: "conv7_2_mbox_conf"
  param {
    lr_mult: 1
    decay_mult: 1
  }
  param {
    lr_mult: 2
    decay_mult: 0
  }
  convolution_param {
    num_output: 24
    pad: 1
    kernel_size: 3
    stride: 1
    weight_filler {
      type: "xavier"
    }
    bias_filler {
      type: "constant"
      value: 0
    }
  }
}
layer {
  name: "conv7_2_mbox_conf_perm"
  type: "Permute"
  bottom: "conv7_2_mbox_conf"
  top: "conv7_2_mbox_conf_perm"
  permute_param {
    order: 0
    order: 2
    order: 3
    order: 1
  }
}
layer {
  name: "conv7_2_mbox_conf_flat"
  type: "Flatten"
  bottom: "conv7_2_mbox_conf_perm"
  top: "conv7_2_mbox_conf_flat"
  flatten_param {
    axis: 1
  }
}
layer {
  name: "conv7_2_mbox_priorbox"
  type: "PriorBox"
  bottom: "conv7_2"
  bottom: "data"
  top: "conv7_2_mbox_priorbox"
  prior_box_param {
    min_size: 162
    max_size: 213
    aspect_ratio: 2
    aspect_ratio: 3
    flip: true
    clip: false
    variance: 0.1
    variance: 0.1
    variance: 0.2
    variance: 0.2
    step: 64
    offset: 0.5
  }
}
layer {
  name: "conv8_2_mbox_loc"
  type: "Convolution"
  bottom: "conv8_2"
  top: "conv8_2_mbox_loc"
  param {
    lr_mult: 1
    decay_mult: 1
  }
  param {
    lr_mult: 2
    decay_mult: 0
  }
  convolution_param {
    num_output: 16
    pad: 1
    kernel_size: 3
    stride: 1
    weight_filler {
      type: "xavier"
    }
    bias_filler {
      type: "constant"
      value: 0
    }
  }
}
layer {
  name: "conv8_2_mbox_loc_perm"
  type: "Permute"
  bottom: "conv8_2_mbox_loc"
  top: "conv8_2_mbox_loc_perm"
  permute_param {
    order: 0
    order: 2
    order: 3
    order: 1
  }
}
layer {
  name: "conv8_2_mbox_loc_flat"
  type: "Flatten"
  bottom: "conv8_2_mbox_loc_perm"
  top: "conv8_2_mbox_loc_flat"
  flatten_param {
    axis: 1
  }
}
layer {
  name: "conv8_2_mbox_conf"
  type: "Convolution"
  bottom: "conv8_2"
  top: "conv8_2_mbox_conf"
  param {
    lr_mult: 1
    decay_mult: 1
  }
  param {
    lr_mult: 2
    decay_mult: 0
  }
  convolution_param {
    num_output: 16
    pad: 1
    kernel_size: 3
    stride: 1
    weight_filler {
      type: "xavier"
    }
    bias_filler {
      type: "constant"
      value: 0
    }
  }
}
layer {
  name: "conv8_2_mbox_conf_perm"
  type: "Permute"
  bottom: "conv8_2_mbox_conf"
  top: "conv8_2_mbox_conf_perm"
  permute_param {
    order: 0
    order: 2
    order: 3
    order: 1
  }
}
layer {
  name: "conv8_2_mbox_conf_flat"
  type: "Flatten"
  bottom: "conv8_2_mbox_conf_perm"
  top: "conv8_2_mbox_conf_flat"
  flatten_param {
    axis: 1
  }
}
layer {
  name: "conv8_2_mbox_priorbox"
  type: "PriorBox"
  bottom: "conv8_2"
  bottom: "data"
  top: "conv8_2_mbox_priorbox"
  prior_box_param {
    min_size: 213
    max_size: 264
    aspect_ratio: 2
    flip: true
    clip: false
    variance: 0.1
    variance: 0.1
    variance: 0.2
    variance: 0.2
    step: 100
    offset: 0.5
  }
}
layer {
  name: "conv9_2_mbox_loc"
  type: "Convolution"
  bottom: "conv9_2"
  top: "conv9_2_mbox_loc"
  param {
    lr_mult: 1
    decay_mult: 1
  }
  param {
    lr_mult: 2
    decay_mult: 0
  }
  convolution_param {
    num_output: 16
    pad: 1
    kernel_size: 3
    stride: 1
    weight_filler {
      type: "xavier"
    }
    bias_filler {
      type: "constant"
      value: 0
    }
  }
}
layer {
  name: "conv9_2_mbox_loc_perm"
  type: "Permute"
  bottom: "conv9_2_mbox_loc"
  top: "conv9_2_mbox_loc_perm"
  permute_param {
    order: 0
    order: 2
    order: 3
    order: 1
  }
}
layer {
  name: "conv9_2_mbox_loc_flat"
  type: "Flatten"
  bottom: "conv9_2_mbox_loc_perm"
  top: "conv9_2_mbox_loc_flat"
  flatten_param {
    axis: 1
  }
}
layer {
  name: "conv9_2_mbox_conf"
  type: "Convolution"
  bottom: "conv9_2"
  top: "conv9_2_mbox_conf"
  param {
    lr_mult: 1
    decay_mult: 1
  }
  param {
    lr_mult: 2
    decay_mult: 0
  }
  convolution_param {
    num_output: 16
    pad: 1
    kernel_size: 3
    stride: 1
    weight_filler {
      type: "xavier"
    }
    bias_filler {
      type: "constant"
      value: 0
    }
  }
}
layer {
  name: "conv9_2_mbox_conf_perm"
  type: "Permute"
  bottom: "conv9_2_mbox_conf"
  top: "conv9_2_mbox_conf_perm"
  permute_param {
    order: 0
    order: 2
    order: 3
    order: 1
  }
}
layer {
  name: "conv9_2_mbox_conf_flat"
  type: "Flatten"
  bottom: "conv9_2_mbox_conf_perm"
  top: "conv9_2_mbox_conf_flat"
  flatten_param {
    axis: 1
  }
}
layer {
  name: "conv9_2_mbox_priorbox"
  type: "PriorBox"
  bottom: "conv9_2"
  bottom: "data"
  top: "conv9_2_mbox_priorbox"
  prior_box_param {
    min_size: 264
    max_size: 315
    aspect_ratio: 2
    flip: true
    clip: false
    variance: 0.1
    variance: 0.1
    variance: 0.2
    variance: 0.2
    step: 300
    offset: 0.5
  }
}
layer {
  name: "mbox_loc"
  type: "Concat"
  bottom: "conv4_3_norm_mbox_loc_flat"
  bottom: "fc7_mbox_loc_flat"
  bottom: "conv6_2_mbox_loc_flat"
  bottom: "conv7_2_mbox_loc_flat"
  bottom: "conv8_2_mbox_loc_flat"
  bottom: "conv9_2_mbox_loc_flat"
  top: "mbox_loc"
  concat_param {
    axis: 1
  }
}
layer {
  name: "mbox_conf"
  type: "Concat"
  bottom: "conv4_3_norm_mbox_conf_flat"
  bottom: "fc7_mbox_conf_flat"
  bottom: "conv6_2_mbox_conf_flat"
  bottom: "conv7_2_mbox_conf_flat"
  bottom: "conv8_2_mbox_conf_flat"
  bottom: "conv9_2_mbox_conf_flat"
  top: "mbox_conf"
  concat_param {
    axis: 1
  }
}
layer {
  name: "mbox_priorbox"
  type: "Concat"
  bottom: "conv4_3_norm_mbox_priorbox"
  bottom: "fc7_mbox_priorbox"
  bottom: "conv6_2_mbox_priorbox"
  bottom: "conv7_2_mbox_priorbox"
  bottom: "conv8_2_mbox_priorbox"
  bottom: "conv9_2_mbox_priorbox"
  top: "mbox_priorbox"
  concat_param {
    axis: 2
  }
}
layer {
  name: "mbox_conf_reshape"
  type: "Reshape"
  bottom: "mbox_conf"
  top: "mbox_conf_reshape"
  reshape_param {
    shape {
      dim: 0
      dim: -1
      dim: 4
    }
  }
}
layer {
  name: "mbox_conf_softmax"
  type: "Softmax"
  bottom: "mbox_conf_reshape"
  top: "mbox_conf_softmax"
  softmax_param {
    axis: 2
  }
}
layer {
  name: "mbox_conf_flatten"
  type: "Flatten"
  bottom: "mbox_conf_softmax"
  top: "mbox_conf_flatten"
  flatten_param {
    axis: 1
  }
}
layer {
  name: "detection_out"
  type: "DetectionOutput"
  bottom: "mbox_loc"
  bottom: "mbox_conf_flatten"
  bottom: "mbox_priorbox"
  top: "detection_out"
  include {
    phase: TEST
  }
  detection_output_param {
    num_classes: 4
    share_location: true
    background_label_id: 0
    nms_param {
      nms_threshold: 0.45
      top_k: 400
    }
    save_output_param {
      output_directory: "/home/shangzw/data/tbs/results/tbs/SSD_300x300/Main"
      output_name_prefix: "comp4_det_test_"
      output_format: "VOC"
      label_map_file: "data/tbs_300x300_HSIL_10x/labelmap_tbs.prototxt"
      name_size_file: "data/VOC0712/test_name_size.txt"
      num_test_image: 100
    }
    code_type: CENTER_SIZE
    keep_top_k: 200
    confidence_threshold: 0.01
  }
}
layer {
  name: "detection_eval"
  type: "DetectionEvaluate"
  bottom: "detection_out"
  bottom: "label"
  top: "detection_eval"
  include {
    phase: TEST
  }
  detection_evaluate_param {
    num_classes: 4
    background_label_id: 0
    overlap_threshold: 0.5
    evaluate_difficult_gt: false
    name_size_file: "data/VOC0712/test_name_size.txt"
  }
}
I0601 16:14:13.960957 17398 layer_factory.hpp:77] Creating layer data
I0601 16:14:13.961009 17398 net.cpp:100] Creating Layer data
I0601 16:14:13.961019 17398 net.cpp:408] data -> data
I0601 16:14:13.961030 17398 net.cpp:408] data -> label
I0601 16:14:13.961442 17417 db_lmdb.cpp:35] Opened lmdb examples/tbs_300x300_HSIL_10x/tbs_300x300_HSIL_10x_test_lmdb
I0601 16:14:13.962079 17398 annotated_data_layer.cpp:62] output data size: 4,3,300,300
I0601 16:14:13.971318 17398 net.cpp:150] Setting up data
I0601 16:14:13.971335 17398 net.cpp:157] Top shape: 4 3 300 300 (1080000)
I0601 16:14:13.971340 17398 net.cpp:157] Top shape: 1 1 1 8 (8)
I0601 16:14:13.971343 17398 net.cpp:165] Memory required for data: 4320032
I0601 16:14:13.971349 17398 layer_factory.hpp:77] Creating layer data_data_0_split
I0601 16:14:13.971360 17398 net.cpp:100] Creating Layer data_data_0_split
I0601 16:14:13.971365 17398 net.cpp:434] data_data_0_split <- data
I0601 16:14:13.971374 17398 net.cpp:408] data_data_0_split -> data_data_0_split_0
I0601 16:14:13.971385 17398 net.cpp:408] data_data_0_split -> data_data_0_split_1
I0601 16:14:13.971392 17398 net.cpp:408] data_data_0_split -> data_data_0_split_2
I0601 16:14:13.971402 17398 net.cpp:408] data_data_0_split -> data_data_0_split_3
I0601 16:14:13.971410 17398 net.cpp:408] data_data_0_split -> data_data_0_split_4
I0601 16:14:13.971416 17398 net.cpp:408] data_data_0_split -> data_data_0_split_5
I0601 16:14:13.971423 17398 net.cpp:408] data_data_0_split -> data_data_0_split_6
I0601 16:14:13.971530 17398 net.cpp:150] Setting up data_data_0_split
I0601 16:14:13.971539 17398 net.cpp:157] Top shape: 4 3 300 300 (1080000)
I0601 16:14:13.971544 17398 net.cpp:157] Top shape: 4 3 300 300 (1080000)
I0601 16:14:13.971549 17398 net.cpp:157] Top shape: 4 3 300 300 (1080000)
I0601 16:14:13.971554 17398 net.cpp:157] Top shape: 4 3 300 300 (1080000)
I0601 16:14:13.971559 17398 net.cpp:157] Top shape: 4 3 300 300 (1080000)
I0601 16:14:13.971575 17398 net.cpp:157] Top shape: 4 3 300 300 (1080000)
I0601 16:14:13.971581 17398 net.cpp:157] Top shape: 4 3 300 300 (1080000)
I0601 16:14:13.971586 17398 net.cpp:165] Memory required for data: 34560032
I0601 16:14:13.971590 17398 layer_factory.hpp:77] Creating layer conv1_1
I0601 16:14:13.971602 17398 net.cpp:100] Creating Layer conv1_1
I0601 16:14:13.971606 17398 net.cpp:434] conv1_1 <- data_data_0_split_0
I0601 16:14:13.971613 17398 net.cpp:408] conv1_1 -> conv1_1
I0601 16:14:13.972923 17398 net.cpp:150] Setting up conv1_1
I0601 16:14:13.972934 17398 net.cpp:157] Top shape: 4 64 300 300 (23040000)
I0601 16:14:13.972939 17398 net.cpp:165] Memory required for data: 126720032
I0601 16:14:13.972950 17398 layer_factory.hpp:77] Creating layer relu1_1
I0601 16:14:13.972957 17398 net.cpp:100] Creating Layer relu1_1
I0601 16:14:13.972962 17398 net.cpp:434] relu1_1 <- conv1_1
I0601 16:14:13.972968 17398 net.cpp:395] relu1_1 -> conv1_1 (in-place)
I0601 16:14:13.974426 17398 net.cpp:150] Setting up relu1_1
I0601 16:14:13.974436 17398 net.cpp:157] Top shape: 4 64 300 300 (23040000)
I0601 16:14:13.974439 17398 net.cpp:165] Memory required for data: 218880032
I0601 16:14:13.974443 17398 layer_factory.hpp:77] Creating layer conv1_2
I0601 16:14:13.974453 17398 net.cpp:100] Creating Layer conv1_2
I0601 16:14:13.974457 17398 net.cpp:434] conv1_2 <- conv1_1
I0601 16:14:13.974465 17398 net.cpp:408] conv1_2 -> conv1_2
I0601 16:14:13.975733 17398 net.cpp:150] Setting up conv1_2
I0601 16:14:13.975744 17398 net.cpp:157] Top shape: 4 64 300 300 (23040000)
I0601 16:14:13.975749 17398 net.cpp:165] Memory required for data: 311040032
I0601 16:14:13.975759 17398 layer_factory.hpp:77] Creating layer relu1_2
I0601 16:14:13.975765 17398 net.cpp:100] Creating Layer relu1_2
I0601 16:14:13.975769 17398 net.cpp:434] relu1_2 <- conv1_2
I0601 16:14:13.975776 17398 net.cpp:395] relu1_2 -> conv1_2 (in-place)
I0601 16:14:13.976359 17398 net.cpp:150] Setting up relu1_2
I0601 16:14:13.976369 17398 net.cpp:157] Top shape: 4 64 300 300 (23040000)
I0601 16:14:13.976374 17398 net.cpp:165] Memory required for data: 403200032
I0601 16:14:13.976377 17398 layer_factory.hpp:77] Creating layer pool1
I0601 16:14:13.976384 17398 net.cpp:100] Creating Layer pool1
I0601 16:14:13.976389 17398 net.cpp:434] pool1 <- conv1_2
I0601 16:14:13.976398 17398 net.cpp:408] pool1 -> pool1
I0601 16:14:13.976442 17398 net.cpp:150] Setting up pool1
I0601 16:14:13.976449 17398 net.cpp:157] Top shape: 4 64 150 150 (5760000)
I0601 16:14:13.976452 17398 net.cpp:165] Memory required for data: 426240032
I0601 16:14:13.976456 17398 layer_factory.hpp:77] Creating layer conv2_1
I0601 16:14:13.976467 17398 net.cpp:100] Creating Layer conv2_1
I0601 16:14:13.976471 17398 net.cpp:434] conv2_1 <- pool1
I0601 16:14:13.976478 17398 net.cpp:408] conv2_1 -> conv2_1
I0601 16:14:13.978575 17398 net.cpp:150] Setting up conv2_1
I0601 16:14:13.978593 17398 net.cpp:157] Top shape: 4 128 150 150 (11520000)
I0601 16:14:13.978597 17398 net.cpp:165] Memory required for data: 472320032
I0601 16:14:13.978608 17398 layer_factory.hpp:77] Creating layer relu2_1
I0601 16:14:13.978621 17398 net.cpp:100] Creating Layer relu2_1
I0601 16:14:13.978627 17398 net.cpp:434] relu2_1 <- conv2_1
I0601 16:14:13.978633 17398 net.cpp:395] relu2_1 -> conv2_1 (in-place)
I0601 16:14:13.979256 17398 net.cpp:150] Setting up relu2_1
I0601 16:14:13.979266 17398 net.cpp:157] Top shape: 4 128 150 150 (11520000)
I0601 16:14:13.979271 17398 net.cpp:165] Memory required for data: 518400032
I0601 16:14:13.979275 17398 layer_factory.hpp:77] Creating layer conv2_2
I0601 16:14:13.979288 17398 net.cpp:100] Creating Layer conv2_2
I0601 16:14:13.979293 17398 net.cpp:434] conv2_2 <- conv2_1
I0601 16:14:13.979300 17398 net.cpp:408] conv2_2 -> conv2_2
I0601 16:14:13.982254 17398 net.cpp:150] Setting up conv2_2
I0601 16:14:13.982270 17398 net.cpp:157] Top shape: 4 128 150 150 (11520000)
I0601 16:14:13.982273 17398 net.cpp:165] Memory required for data: 564480032
I0601 16:14:13.982281 17398 layer_factory.hpp:77] Creating layer relu2_2
I0601 16:14:13.982307 17398 net.cpp:100] Creating Layer relu2_2
I0601 16:14:13.982312 17398 net.cpp:434] relu2_2 <- conv2_2
I0601 16:14:13.982318 17398 net.cpp:395] relu2_2 -> conv2_2 (in-place)
I0601 16:14:13.982463 17398 net.cpp:150] Setting up relu2_2
I0601 16:14:13.982472 17398 net.cpp:157] Top shape: 4 128 150 150 (11520000)
I0601 16:14:13.982475 17398 net.cpp:165] Memory required for data: 610560032
I0601 16:14:13.982480 17398 layer_factory.hpp:77] Creating layer pool2
I0601 16:14:13.982487 17398 net.cpp:100] Creating Layer pool2
I0601 16:14:13.982492 17398 net.cpp:434] pool2 <- conv2_2
I0601 16:14:13.982499 17398 net.cpp:408] pool2 -> pool2
I0601 16:14:13.982542 17398 net.cpp:150] Setting up pool2
I0601 16:14:13.982548 17398 net.cpp:157] Top shape: 4 128 75 75 (2880000)
I0601 16:14:13.982553 17398 net.cpp:165] Memory required for data: 622080032
I0601 16:14:13.982555 17398 layer_factory.hpp:77] Creating layer conv3_1
I0601 16:14:13.982568 17398 net.cpp:100] Creating Layer conv3_1
I0601 16:14:13.982571 17398 net.cpp:434] conv3_1 <- pool2
I0601 16:14:13.982578 17398 net.cpp:408] conv3_1 -> conv3_1
I0601 16:14:13.985285 17398 net.cpp:150] Setting up conv3_1
I0601 16:14:13.985296 17398 net.cpp:157] Top shape: 4 256 75 75 (5760000)
I0601 16:14:13.985301 17398 net.cpp:165] Memory required for data: 645120032
I0601 16:14:13.985313 17398 layer_factory.hpp:77] Creating layer relu3_1
I0601 16:14:13.985322 17398 net.cpp:100] Creating Layer relu3_1
I0601 16:14:13.985327 17398 net.cpp:434] relu3_1 <- conv3_1
I0601 16:14:13.985334 17398 net.cpp:395] relu3_1 -> conv3_1 (in-place)
I0601 16:14:13.985476 17398 net.cpp:150] Setting up relu3_1
I0601 16:14:13.985486 17398 net.cpp:157] Top shape: 4 256 75 75 (5760000)
I0601 16:14:13.985488 17398 net.cpp:165] Memory required for data: 668160032
I0601 16:14:13.985492 17398 layer_factory.hpp:77] Creating layer conv3_2
I0601 16:14:13.985503 17398 net.cpp:100] Creating Layer conv3_2
I0601 16:14:13.985507 17398 net.cpp:434] conv3_2 <- conv3_1
I0601 16:14:13.985515 17398 net.cpp:408] conv3_2 -> conv3_2
I0601 16:14:13.991428 17398 net.cpp:150] Setting up conv3_2
I0601 16:14:13.991444 17398 net.cpp:157] Top shape: 4 256 75 75 (5760000)
I0601 16:14:13.991448 17398 net.cpp:165] Memory required for data: 691200032
I0601 16:14:13.991456 17398 layer_factory.hpp:77] Creating layer relu3_2
I0601 16:14:13.991466 17398 net.cpp:100] Creating Layer relu3_2
I0601 16:14:13.991470 17398 net.cpp:434] relu3_2 <- conv3_2
I0601 16:14:13.991477 17398 net.cpp:395] relu3_2 -> conv3_2 (in-place)
I0601 16:14:13.991619 17398 net.cpp:150] Setting up relu3_2
I0601 16:14:13.991628 17398 net.cpp:157] Top shape: 4 256 75 75 (5760000)
I0601 16:14:13.991631 17398 net.cpp:165] Memory required for data: 714240032
I0601 16:14:13.991636 17398 layer_factory.hpp:77] Creating layer conv3_3
I0601 16:14:13.991648 17398 net.cpp:100] Creating Layer conv3_3
I0601 16:14:13.991652 17398 net.cpp:434] conv3_3 <- conv3_2
I0601 16:14:13.991660 17398 net.cpp:408] conv3_3 -> conv3_3
I0601 16:14:13.996274 17398 net.cpp:150] Setting up conv3_3
I0601 16:14:13.996290 17398 net.cpp:157] Top shape: 4 256 75 75 (5760000)
I0601 16:14:13.996294 17398 net.cpp:165] Memory required for data: 737280032
I0601 16:14:13.996302 17398 layer_factory.hpp:77] Creating layer relu3_3
I0601 16:14:13.996311 17398 net.cpp:100] Creating Layer relu3_3
I0601 16:14:13.996316 17398 net.cpp:434] relu3_3 <- conv3_3
I0601 16:14:13.996323 17398 net.cpp:395] relu3_3 -> conv3_3 (in-place)
I0601 16:14:13.996467 17398 net.cpp:150] Setting up relu3_3
I0601 16:14:13.996475 17398 net.cpp:157] Top shape: 4 256 75 75 (5760000)
I0601 16:14:13.996479 17398 net.cpp:165] Memory required for data: 760320032
I0601 16:14:13.996484 17398 layer_factory.hpp:77] Creating layer pool3
I0601 16:14:13.996490 17398 net.cpp:100] Creating Layer pool3
I0601 16:14:13.996495 17398 net.cpp:434] pool3 <- conv3_3
I0601 16:14:13.996508 17398 net.cpp:408] pool3 -> pool3
I0601 16:14:13.996551 17398 net.cpp:150] Setting up pool3
I0601 16:14:13.996559 17398 net.cpp:157] Top shape: 4 256 38 38 (1478656)
I0601 16:14:13.996574 17398 net.cpp:165] Memory required for data: 766234656
I0601 16:14:13.996578 17398 layer_factory.hpp:77] Creating layer conv4_1
I0601 16:14:13.996588 17398 net.cpp:100] Creating Layer conv4_1
I0601 16:14:13.996593 17398 net.cpp:434] conv4_1 <- pool3
I0601 16:14:13.996601 17398 net.cpp:408] conv4_1 -> conv4_1
I0601 16:14:14.004932 17398 net.cpp:150] Setting up conv4_1
I0601 16:14:14.004950 17398 net.cpp:157] Top shape: 4 512 38 38 (2957312)
I0601 16:14:14.004953 17398 net.cpp:165] Memory required for data: 778063904
I0601 16:14:14.004961 17398 layer_factory.hpp:77] Creating layer relu4_1
I0601 16:14:14.004971 17398 net.cpp:100] Creating Layer relu4_1
I0601 16:14:14.004976 17398 net.cpp:434] relu4_1 <- conv4_1
I0601 16:14:14.004984 17398 net.cpp:395] relu4_1 -> conv4_1 (in-place)
I0601 16:14:14.007156 17398 net.cpp:150] Setting up relu4_1
I0601 16:14:14.007167 17398 net.cpp:157] Top shape: 4 512 38 38 (2957312)
I0601 16:14:14.007171 17398 net.cpp:165] Memory required for data: 789893152
I0601 16:14:14.007175 17398 layer_factory.hpp:77] Creating layer conv4_2
I0601 16:14:14.007186 17398 net.cpp:100] Creating Layer conv4_2
I0601 16:14:14.007191 17398 net.cpp:434] conv4_2 <- conv4_1
I0601 16:14:14.007201 17398 net.cpp:408] conv4_2 -> conv4_2
I0601 16:14:14.019634 17398 net.cpp:150] Setting up conv4_2
I0601 16:14:14.019652 17398 net.cpp:157] Top shape: 4 512 38 38 (2957312)
I0601 16:14:14.019657 17398 net.cpp:165] Memory required for data: 801722400
I0601 16:14:14.019668 17398 layer_factory.hpp:77] Creating layer relu4_2
I0601 16:14:14.019692 17398 net.cpp:100] Creating Layer relu4_2
I0601 16:14:14.019701 17398 net.cpp:434] relu4_2 <- conv4_2
I0601 16:14:14.019709 17398 net.cpp:395] relu4_2 -> conv4_2 (in-place)
I0601 16:14:14.020747 17398 net.cpp:150] Setting up relu4_2
I0601 16:14:14.020757 17398 net.cpp:157] Top shape: 4 512 38 38 (2957312)
I0601 16:14:14.020761 17398 net.cpp:165] Memory required for data: 813551648
I0601 16:14:14.020766 17398 layer_factory.hpp:77] Creating layer conv4_3
I0601 16:14:14.020778 17398 net.cpp:100] Creating Layer conv4_3
I0601 16:14:14.020783 17398 net.cpp:434] conv4_3 <- conv4_2
I0601 16:14:14.020792 17398 net.cpp:408] conv4_3 -> conv4_3
I0601 16:14:14.033506 17398 net.cpp:150] Setting up conv4_3
I0601 16:14:14.033524 17398 net.cpp:157] Top shape: 4 512 38 38 (2957312)
I0601 16:14:14.033526 17398 net.cpp:165] Memory required for data: 825380896
I0601 16:14:14.033535 17398 layer_factory.hpp:77] Creating layer relu4_3
I0601 16:14:14.033558 17398 net.cpp:100] Creating Layer relu4_3
I0601 16:14:14.033562 17398 net.cpp:434] relu4_3 <- conv4_3
I0601 16:14:14.033568 17398 net.cpp:395] relu4_3 -> conv4_3 (in-place)
I0601 16:14:14.033793 17398 net.cpp:150] Setting up relu4_3
I0601 16:14:14.033802 17398 net.cpp:157] Top shape: 4 512 38 38 (2957312)
I0601 16:14:14.033807 17398 net.cpp:165] Memory required for data: 837210144
I0601 16:14:14.033810 17398 layer_factory.hpp:77] Creating layer conv4_3_relu4_3_0_split
I0601 16:14:14.033829 17398 net.cpp:100] Creating Layer conv4_3_relu4_3_0_split
I0601 16:14:14.033834 17398 net.cpp:434] conv4_3_relu4_3_0_split <- conv4_3
I0601 16:14:14.033855 17398 net.cpp:408] conv4_3_relu4_3_0_split -> conv4_3_relu4_3_0_split_0
I0601 16:14:14.033864 17398 net.cpp:408] conv4_3_relu4_3_0_split -> conv4_3_relu4_3_0_split_1
I0601 16:14:14.033948 17398 net.cpp:150] Setting up conv4_3_relu4_3_0_split
I0601 16:14:14.033954 17398 net.cpp:157] Top shape: 4 512 38 38 (2957312)
I0601 16:14:14.033974 17398 net.cpp:157] Top shape: 4 512 38 38 (2957312)
I0601 16:14:14.033977 17398 net.cpp:165] Memory required for data: 860868640
I0601 16:14:14.033982 17398 layer_factory.hpp:77] Creating layer pool4
I0601 16:14:14.033990 17398 net.cpp:100] Creating Layer pool4
I0601 16:14:14.033996 17398 net.cpp:434] pool4 <- conv4_3_relu4_3_0_split_0
I0601 16:14:14.034001 17398 net.cpp:408] pool4 -> pool4
I0601 16:14:14.034052 17398 net.cpp:150] Setting up pool4
I0601 16:14:14.034060 17398 net.cpp:157] Top shape: 4 512 19 19 (739328)
I0601 16:14:14.034063 17398 net.cpp:165] Memory required for data: 863825952
I0601 16:14:14.034077 17398 layer_factory.hpp:77] Creating layer conv5_1
I0601 16:14:14.034088 17398 net.cpp:100] Creating Layer conv5_1
I0601 16:14:14.034093 17398 net.cpp:434] conv5_1 <- pool4
I0601 16:14:14.034101 17398 net.cpp:408] conv5_1 -> conv5_1
I0601 16:14:14.047117 17398 net.cpp:150] Setting up conv5_1
I0601 16:14:14.047134 17398 net.cpp:157] Top shape: 4 512 19 19 (739328)
I0601 16:14:14.047137 17398 net.cpp:165] Memory required for data: 866783264
I0601 16:14:14.047147 17398 layer_factory.hpp:77] Creating layer relu5_1
I0601 16:14:14.047168 17398 net.cpp:100] Creating Layer relu5_1
I0601 16:14:14.047174 17398 net.cpp:434] relu5_1 <- conv5_1
I0601 16:14:14.047197 17398 net.cpp:395] relu5_1 -> conv5_1 (in-place)
I0601 16:14:14.047351 17398 net.cpp:150] Setting up relu5_1
I0601 16:14:14.047359 17398 net.cpp:157] Top shape: 4 512 19 19 (739328)
I0601 16:14:14.047363 17398 net.cpp:165] Memory required for data: 869740576
I0601 16:14:14.047366 17398 layer_factory.hpp:77] Creating layer conv5_2
I0601 16:14:14.047379 17398 net.cpp:100] Creating Layer conv5_2
I0601 16:14:14.047382 17398 net.cpp:434] conv5_2 <- conv5_1
I0601 16:14:14.047391 17398 net.cpp:408] conv5_2 -> conv5_2
I0601 16:14:14.060263 17398 net.cpp:150] Setting up conv5_2
I0601 16:14:14.060281 17398 net.cpp:157] Top shape: 4 512 19 19 (739328)
I0601 16:14:14.060283 17398 net.cpp:165] Memory required for data: 872697888
I0601 16:14:14.060292 17398 layer_factory.hpp:77] Creating layer relu5_2
I0601 16:14:14.060315 17398 net.cpp:100] Creating Layer relu5_2
I0601 16:14:14.060336 17398 net.cpp:434] relu5_2 <- conv5_2
I0601 16:14:14.060343 17398 net.cpp:395] relu5_2 -> conv5_2 (in-place)
I0601 16:14:14.060536 17398 net.cpp:150] Setting up relu5_2
I0601 16:14:14.060559 17398 net.cpp:157] Top shape: 4 512 19 19 (739328)
I0601 16:14:14.060562 17398 net.cpp:165] Memory required for data: 875655200
I0601 16:14:14.060566 17398 layer_factory.hpp:77] Creating layer conv5_3
I0601 16:14:14.060590 17398 net.cpp:100] Creating Layer conv5_3
I0601 16:14:14.060595 17398 net.cpp:434] conv5_3 <- conv5_2
I0601 16:14:14.060601 17398 net.cpp:408] conv5_3 -> conv5_3
I0601 16:14:14.073235 17398 net.cpp:150] Setting up conv5_3
I0601 16:14:14.073254 17398 net.cpp:157] Top shape: 4 512 19 19 (739328)
I0601 16:14:14.073258 17398 net.cpp:165] Memory required for data: 878612512
I0601 16:14:14.073266 17398 layer_factory.hpp:77] Creating layer relu5_3
I0601 16:14:14.073299 17398 net.cpp:100] Creating Layer relu5_3
I0601 16:14:14.073319 17398 net.cpp:434] relu5_3 <- conv5_3
I0601 16:14:14.073339 17398 net.cpp:395] relu5_3 -> conv5_3 (in-place)
I0601 16:14:14.073488 17398 net.cpp:150] Setting up relu5_3
I0601 16:14:14.073495 17398 net.cpp:157] Top shape: 4 512 19 19 (739328)
I0601 16:14:14.073498 17398 net.cpp:165] Memory required for data: 881569824
I0601 16:14:14.073518 17398 layer_factory.hpp:77] Creating layer pool5
I0601 16:14:14.073532 17398 net.cpp:100] Creating Layer pool5
I0601 16:14:14.073539 17398 net.cpp:434] pool5 <- conv5_3
I0601 16:14:14.073544 17398 net.cpp:408] pool5 -> pool5
I0601 16:14:14.073601 17398 net.cpp:150] Setting up pool5
I0601 16:14:14.073607 17398 net.cpp:157] Top shape: 4 512 19 19 (739328)
I0601 16:14:14.073611 17398 net.cpp:165] Memory required for data: 884527136
I0601 16:14:14.073629 17398 layer_factory.hpp:77] Creating layer fc6
I0601 16:14:14.073640 17398 net.cpp:100] Creating Layer fc6
I0601 16:14:14.073644 17398 net.cpp:434] fc6 <- pool5
I0601 16:14:14.073665 17398 net.cpp:408] fc6 -> fc6
I0601 16:14:14.098232 17398 net.cpp:150] Setting up fc6
I0601 16:14:14.098255 17398 net.cpp:157] Top shape: 4 1024 19 19 (1478656)
I0601 16:14:14.098258 17398 net.cpp:165] Memory required for data: 890441760
I0601 16:14:14.098268 17398 layer_factory.hpp:77] Creating layer relu6
I0601 16:14:14.098281 17398 net.cpp:100] Creating Layer relu6
I0601 16:14:14.098289 17398 net.cpp:434] relu6 <- fc6
I0601 16:14:14.098297 17398 net.cpp:395] relu6 -> fc6 (in-place)
I0601 16:14:14.099179 17398 net.cpp:150] Setting up relu6
I0601 16:14:14.099195 17398 net.cpp:157] Top shape: 4 1024 19 19 (1478656)
I0601 16:14:14.099216 17398 net.cpp:165] Memory required for data: 896356384
I0601 16:14:14.099226 17398 layer_factory.hpp:77] Creating layer fc7
I0601 16:14:14.099236 17398 net.cpp:100] Creating Layer fc7
I0601 16:14:14.099241 17398 net.cpp:434] fc7 <- fc6
I0601 16:14:14.099246 17398 net.cpp:408] fc7 -> fc7
I0601 16:14:14.106055 17398 net.cpp:150] Setting up fc7
I0601 16:14:14.106071 17398 net.cpp:157] Top shape: 4 1024 19 19 (1478656)
I0601 16:14:14.106073 17398 net.cpp:165] Memory required for data: 902271008
I0601 16:14:14.106081 17398 layer_factory.hpp:77] Creating layer relu7
I0601 16:14:14.106091 17398 net.cpp:100] Creating Layer relu7
I0601 16:14:14.106094 17398 net.cpp:434] relu7 <- fc7
I0601 16:14:14.106099 17398 net.cpp:395] relu7 -> fc7 (in-place)
I0601 16:14:14.107044 17398 net.cpp:150] Setting up relu7
I0601 16:14:14.107053 17398 net.cpp:157] Top shape: 4 1024 19 19 (1478656)
I0601 16:14:14.107054 17398 net.cpp:165] Memory required for data: 908185632
I0601 16:14:14.107056 17398 layer_factory.hpp:77] Creating layer fc7_relu7_0_split
I0601 16:14:14.107062 17398 net.cpp:100] Creating Layer fc7_relu7_0_split
I0601 16:14:14.107065 17398 net.cpp:434] fc7_relu7_0_split <- fc7
I0601 16:14:14.107069 17398 net.cpp:408] fc7_relu7_0_split -> fc7_relu7_0_split_0
I0601 16:14:14.107074 17398 net.cpp:408] fc7_relu7_0_split -> fc7_relu7_0_split_1
I0601 16:14:14.107089 17398 net.cpp:408] fc7_relu7_0_split -> fc7_relu7_0_split_2
I0601 16:14:14.107096 17398 net.cpp:408] fc7_relu7_0_split -> fc7_relu7_0_split_3
I0601 16:14:14.107187 17398 net.cpp:150] Setting up fc7_relu7_0_split
I0601 16:14:14.107195 17398 net.cpp:157] Top shape: 4 1024 19 19 (1478656)
I0601 16:14:14.107200 17398 net.cpp:157] Top shape: 4 1024 19 19 (1478656)
I0601 16:14:14.107204 17398 net.cpp:157] Top shape: 4 1024 19 19 (1478656)
I0601 16:14:14.107208 17398 net.cpp:157] Top shape: 4 1024 19 19 (1478656)
I0601 16:14:14.107211 17398 net.cpp:165] Memory required for data: 931844128
I0601 16:14:14.107214 17398 layer_factory.hpp:77] Creating layer conv6_1
I0601 16:14:14.107226 17398 net.cpp:100] Creating Layer conv6_1
I0601 16:14:14.107231 17398 net.cpp:434] conv6_1 <- fc7_relu7_0_split_0
I0601 16:14:14.107239 17398 net.cpp:408] conv6_1 -> conv6_1
I0601 16:14:14.111646 17398 net.cpp:150] Setting up conv6_1
I0601 16:14:14.111668 17398 net.cpp:157] Top shape: 4 256 19 19 (369664)
I0601 16:14:14.111671 17398 net.cpp:165] Memory required for data: 933322784
I0601 16:14:14.111693 17398 layer_factory.hpp:77] Creating layer conv6_1_relu
I0601 16:14:14.111699 17398 net.cpp:100] Creating Layer conv6_1_relu
I0601 16:14:14.111703 17398 net.cpp:434] conv6_1_relu <- conv6_1
I0601 16:14:14.111707 17398 net.cpp:395] conv6_1_relu -> conv6_1 (in-place)
I0601 16:14:14.111865 17398 net.cpp:150] Setting up conv6_1_relu
I0601 16:14:14.111871 17398 net.cpp:157] Top shape: 4 256 19 19 (369664)
I0601 16:14:14.111874 17398 net.cpp:165] Memory required for data: 934801440
I0601 16:14:14.111876 17398 layer_factory.hpp:77] Creating layer conv6_2
I0601 16:14:14.111884 17398 net.cpp:100] Creating Layer conv6_2
I0601 16:14:14.111888 17398 net.cpp:434] conv6_2 <- conv6_1
I0601 16:14:14.111893 17398 net.cpp:408] conv6_2 -> conv6_2
I0601 16:14:14.121131 17398 net.cpp:150] Setting up conv6_2
I0601 16:14:14.121146 17398 net.cpp:157] Top shape: 4 512 10 10 (204800)
I0601 16:14:14.121148 17398 net.cpp:165] Memory required for data: 935620640
I0601 16:14:14.121175 17398 layer_factory.hpp:77] Creating layer conv6_2_relu
I0601 16:14:14.121196 17398 net.cpp:100] Creating Layer conv6_2_relu
I0601 16:14:14.121199 17398 net.cpp:434] conv6_2_relu <- conv6_2
I0601 16:14:14.121203 17398 net.cpp:395] conv6_2_relu -> conv6_2 (in-place)
I0601 16:14:14.121363 17398 net.cpp:150] Setting up conv6_2_relu
I0601 16:14:14.121371 17398 net.cpp:157] Top shape: 4 512 10 10 (204800)
I0601 16:14:14.121373 17398 net.cpp:165] Memory required for data: 936439840
I0601 16:14:14.121376 17398 layer_factory.hpp:77] Creating layer conv6_2_conv6_2_relu_0_split
I0601 16:14:14.121395 17398 net.cpp:100] Creating Layer conv6_2_conv6_2_relu_0_split
I0601 16:14:14.121409 17398 net.cpp:434] conv6_2_conv6_2_relu_0_split <- conv6_2
I0601 16:14:14.121414 17398 net.cpp:408] conv6_2_conv6_2_relu_0_split -> conv6_2_conv6_2_relu_0_split_0
I0601 16:14:14.121421 17398 net.cpp:408] conv6_2_conv6_2_relu_0_split -> conv6_2_conv6_2_relu_0_split_1
I0601 16:14:14.121428 17398 net.cpp:408] conv6_2_conv6_2_relu_0_split -> conv6_2_conv6_2_relu_0_split_2
I0601 16:14:14.121431 17398 net.cpp:408] conv6_2_conv6_2_relu_0_split -> conv6_2_conv6_2_relu_0_split_3
I0601 16:14:14.121505 17398 net.cpp:150] Setting up conv6_2_conv6_2_relu_0_split
I0601 16:14:14.121510 17398 net.cpp:157] Top shape: 4 512 10 10 (204800)
I0601 16:14:14.121513 17398 net.cpp:157] Top shape: 4 512 10 10 (204800)
I0601 16:14:14.121515 17398 net.cpp:157] Top shape: 4 512 10 10 (204800)
I0601 16:14:14.121533 17398 net.cpp:157] Top shape: 4 512 10 10 (204800)
I0601 16:14:14.121536 17398 net.cpp:165] Memory required for data: 939716640
I0601 16:14:14.121537 17398 layer_factory.hpp:77] Creating layer conv7_1
I0601 16:14:14.121546 17398 net.cpp:100] Creating Layer conv7_1
I0601 16:14:14.121548 17398 net.cpp:434] conv7_1 <- conv6_2_conv6_2_relu_0_split_0
I0601 16:14:14.121553 17398 net.cpp:408] conv7_1 -> conv7_1
I0601 16:14:14.125162 17398 net.cpp:150] Setting up conv7_1
I0601 16:14:14.125180 17398 net.cpp:157] Top shape: 4 128 10 10 (51200)
I0601 16:14:14.125183 17398 net.cpp:165] Memory required for data: 939921440
I0601 16:14:14.125205 17398 layer_factory.hpp:77] Creating layer conv7_1_relu
I0601 16:14:14.125211 17398 net.cpp:100] Creating Layer conv7_1_relu
I0601 16:14:14.125214 17398 net.cpp:434] conv7_1_relu <- conv7_1
I0601 16:14:14.125219 17398 net.cpp:395] conv7_1_relu -> conv7_1 (in-place)
I0601 16:14:14.126140 17398 net.cpp:150] Setting up conv7_1_relu
I0601 16:14:14.126149 17398 net.cpp:157] Top shape: 4 128 10 10 (51200)
I0601 16:14:14.126152 17398 net.cpp:165] Memory required for data: 940126240
I0601 16:14:14.126153 17398 layer_factory.hpp:77] Creating layer conv7_2
I0601 16:14:14.126161 17398 net.cpp:100] Creating Layer conv7_2
I0601 16:14:14.126165 17398 net.cpp:434] conv7_2 <- conv7_1
I0601 16:14:14.126184 17398 net.cpp:408] conv7_2 -> conv7_2
I0601 16:14:14.140642 17398 net.cpp:150] Setting up conv7_2
I0601 16:14:14.140661 17398 net.cpp:157] Top shape: 4 256 5 5 (25600)
I0601 16:14:14.140663 17398 net.cpp:165] Memory required for data: 940228640
I0601 16:14:14.140671 17398 layer_factory.hpp:77] Creating layer conv7_2_relu
I0601 16:14:14.140676 17398 net.cpp:100] Creating Layer conv7_2_relu
I0601 16:14:14.140681 17398 net.cpp:434] conv7_2_relu <- conv7_2
I0601 16:14:14.140686 17398 net.cpp:395] conv7_2_relu -> conv7_2 (in-place)
I0601 16:14:14.141652 17398 net.cpp:150] Setting up conv7_2_relu
I0601 16:14:14.141676 17398 net.cpp:157] Top shape: 4 256 5 5 (25600)
I0601 16:14:14.141682 17398 net.cpp:165] Memory required for data: 940331040
I0601 16:14:14.141687 17398 layer_factory.hpp:77] Creating layer conv7_2_conv7_2_relu_0_split
I0601 16:14:14.141698 17398 net.cpp:100] Creating Layer conv7_2_conv7_2_relu_0_split
I0601 16:14:14.141705 17398 net.cpp:434] conv7_2_conv7_2_relu_0_split <- conv7_2
I0601 16:14:14.141713 17398 net.cpp:408] conv7_2_conv7_2_relu_0_split -> conv7_2_conv7_2_relu_0_split_0
I0601 16:14:14.141722 17398 net.cpp:408] conv7_2_conv7_2_relu_0_split -> conv7_2_conv7_2_relu_0_split_1
I0601 16:14:14.141731 17398 net.cpp:408] conv7_2_conv7_2_relu_0_split -> conv7_2_conv7_2_relu_0_split_2
I0601 16:14:14.141737 17398 net.cpp:408] conv7_2_conv7_2_relu_0_split -> conv7_2_conv7_2_relu_0_split_3
I0601 16:14:14.141855 17398 net.cpp:150] Setting up conv7_2_conv7_2_relu_0_split
I0601 16:14:14.141863 17398 net.cpp:157] Top shape: 4 256 5 5 (25600)
I0601 16:14:14.141868 17398 net.cpp:157] Top shape: 4 256 5 5 (25600)
I0601 16:14:14.141872 17398 net.cpp:157] Top shape: 4 256 5 5 (25600)
I0601 16:14:14.141877 17398 net.cpp:157] Top shape: 4 256 5 5 (25600)
I0601 16:14:14.141880 17398 net.cpp:165] Memory required for data: 940740640
I0601 16:14:14.141885 17398 layer_factory.hpp:77] Creating layer conv8_1
I0601 16:14:14.141918 17398 net.cpp:100] Creating Layer conv8_1
I0601 16:14:14.141924 17398 net.cpp:434] conv8_1 <- conv7_2_conv7_2_relu_0_split_0
I0601 16:14:14.141932 17398 net.cpp:408] conv8_1 -> conv8_1
I0601 16:14:14.143474 17398 net.cpp:150] Setting up conv8_1
I0601 16:14:14.143486 17398 net.cpp:157] Top shape: 4 128 5 5 (12800)
I0601 16:14:14.143489 17398 net.cpp:165] Memory required for data: 940791840
I0601 16:14:14.143496 17398 layer_factory.hpp:77] Creating layer conv8_1_relu
I0601 16:14:14.143501 17398 net.cpp:100] Creating Layer conv8_1_relu
I0601 16:14:14.143518 17398 net.cpp:434] conv8_1_relu <- conv8_1
I0601 16:14:14.143523 17398 net.cpp:395] conv8_1_relu -> conv8_1 (in-place)
I0601 16:14:14.144157 17398 net.cpp:150] Setting up conv8_1_relu
I0601 16:14:14.144170 17398 net.cpp:157] Top shape: 4 128 5 5 (12800)
I0601 16:14:14.144172 17398 net.cpp:165] Memory required for data: 940843040
I0601 16:14:14.144176 17398 layer_factory.hpp:77] Creating layer conv8_2
I0601 16:14:14.144182 17398 net.cpp:100] Creating Layer conv8_2
I0601 16:14:14.144186 17398 net.cpp:434] conv8_2 <- conv8_1
I0601 16:14:14.144191 17398 net.cpp:408] conv8_2 -> conv8_2
I0601 16:14:14.147313 17398 net.cpp:150] Setting up conv8_2
I0601 16:14:14.147330 17398 net.cpp:157] Top shape: 4 256 3 3 (9216)
I0601 16:14:14.147332 17398 net.cpp:165] Memory required for data: 940879904
I0601 16:14:14.147339 17398 layer_factory.hpp:77] Creating layer conv8_2_relu
I0601 16:14:14.147346 17398 net.cpp:100] Creating Layer conv8_2_relu
I0601 16:14:14.147349 17398 net.cpp:434] conv8_2_relu <- conv8_2
I0601 16:14:14.147369 17398 net.cpp:395] conv8_2_relu -> conv8_2 (in-place)
I0601 16:14:14.147518 17398 net.cpp:150] Setting up conv8_2_relu
I0601 16:14:14.147524 17398 net.cpp:157] Top shape: 4 256 3 3 (9216)
I0601 16:14:14.147527 17398 net.cpp:165] Memory required for data: 940916768
I0601 16:14:14.147529 17398 layer_factory.hpp:77] Creating layer conv8_2_conv8_2_relu_0_split
I0601 16:14:14.147534 17398 net.cpp:100] Creating Layer conv8_2_conv8_2_relu_0_split
I0601 16:14:14.147537 17398 net.cpp:434] conv8_2_conv8_2_relu_0_split <- conv8_2
I0601 16:14:14.147541 17398 net.cpp:408] conv8_2_conv8_2_relu_0_split -> conv8_2_conv8_2_relu_0_split_0
I0601 16:14:14.147547 17398 net.cpp:408] conv8_2_conv8_2_relu_0_split -> conv8_2_conv8_2_relu_0_split_1
I0601 16:14:14.147552 17398 net.cpp:408] conv8_2_conv8_2_relu_0_split -> conv8_2_conv8_2_relu_0_split_2
I0601 16:14:14.147557 17398 net.cpp:408] conv8_2_conv8_2_relu_0_split -> conv8_2_conv8_2_relu_0_split_3
I0601 16:14:14.147621 17398 net.cpp:150] Setting up conv8_2_conv8_2_relu_0_split
I0601 16:14:14.147626 17398 net.cpp:157] Top shape: 4 256 3 3 (9216)
I0601 16:14:14.147629 17398 net.cpp:157] Top shape: 4 256 3 3 (9216)
I0601 16:14:14.147631 17398 net.cpp:157] Top shape: 4 256 3 3 (9216)
I0601 16:14:14.147634 17398 net.cpp:157] Top shape: 4 256 3 3 (9216)
I0601 16:14:14.147636 17398 net.cpp:165] Memory required for data: 941064224
I0601 16:14:14.147639 17398 layer_factory.hpp:77] Creating layer conv9_1
I0601 16:14:14.147647 17398 net.cpp:100] Creating Layer conv9_1
I0601 16:14:14.147650 17398 net.cpp:434] conv9_1 <- conv8_2_conv8_2_relu_0_split_0
I0601 16:14:14.147655 17398 net.cpp:408] conv9_1 -> conv9_1
I0601 16:14:14.148906 17398 net.cpp:150] Setting up conv9_1
I0601 16:14:14.148916 17398 net.cpp:157] Top shape: 4 128 3 3 (4608)
I0601 16:14:14.148919 17398 net.cpp:165] Memory required for data: 941082656
I0601 16:14:14.148923 17398 layer_factory.hpp:77] Creating layer conv9_1_relu
I0601 16:14:14.148929 17398 net.cpp:100] Creating Layer conv9_1_relu
I0601 16:14:14.148932 17398 net.cpp:434] conv9_1_relu <- conv9_1
I0601 16:14:14.148936 17398 net.cpp:395] conv9_1_relu -> conv9_1 (in-place)
I0601 16:14:14.149068 17398 net.cpp:150] Setting up conv9_1_relu
I0601 16:14:14.149075 17398 net.cpp:157] Top shape: 4 128 3 3 (4608)
I0601 16:14:14.149077 17398 net.cpp:165] Memory required for data: 941101088
I0601 16:14:14.149080 17398 layer_factory.hpp:77] Creating layer conv9_2
I0601 16:14:14.149098 17398 net.cpp:100] Creating Layer conv9_2
I0601 16:14:14.149102 17398 net.cpp:434] conv9_2 <- conv9_1
I0601 16:14:14.149108 17398 net.cpp:408] conv9_2 -> conv9_2
I0601 16:14:14.152084 17398 net.cpp:150] Setting up conv9_2
I0601 16:14:14.152096 17398 net.cpp:157] Top shape: 4 256 1 1 (1024)
I0601 16:14:14.152099 17398 net.cpp:165] Memory required for data: 941105184
I0601 16:14:14.152117 17398 layer_factory.hpp:77] Creating layer conv9_2_relu
I0601 16:14:14.152122 17398 net.cpp:100] Creating Layer conv9_2_relu
I0601 16:14:14.152127 17398 net.cpp:434] conv9_2_relu <- conv9_2
I0601 16:14:14.152130 17398 net.cpp:395] conv9_2_relu -> conv9_2 (in-place)
I0601 16:14:14.152262 17398 net.cpp:150] Setting up conv9_2_relu
I0601 16:14:14.152268 17398 net.cpp:157] Top shape: 4 256 1 1 (1024)
I0601 16:14:14.152272 17398 net.cpp:165] Memory required for data: 941109280
I0601 16:14:14.152276 17398 layer_factory.hpp:77] Creating layer conv9_2_conv9_2_relu_0_split
I0601 16:14:14.152279 17398 net.cpp:100] Creating Layer conv9_2_conv9_2_relu_0_split
I0601 16:14:14.152282 17398 net.cpp:434] conv9_2_conv9_2_relu_0_split <- conv9_2
I0601 16:14:14.152288 17398 net.cpp:408] conv9_2_conv9_2_relu_0_split -> conv9_2_conv9_2_relu_0_split_0
I0601 16:14:14.152293 17398 net.cpp:408] conv9_2_conv9_2_relu_0_split -> conv9_2_conv9_2_relu_0_split_1
I0601 16:14:14.152299 17398 net.cpp:408] conv9_2_conv9_2_relu_0_split -> conv9_2_conv9_2_relu_0_split_2
I0601 16:14:14.152348 17398 net.cpp:150] Setting up conv9_2_conv9_2_relu_0_split
I0601 16:14:14.152354 17398 net.cpp:157] Top shape: 4 256 1 1 (1024)
I0601 16:14:14.152357 17398 net.cpp:157] Top shape: 4 256 1 1 (1024)
I0601 16:14:14.152359 17398 net.cpp:157] Top shape: 4 256 1 1 (1024)
I0601 16:14:14.152361 17398 net.cpp:165] Memory required for data: 941121568
I0601 16:14:14.152364 17398 layer_factory.hpp:77] Creating layer conv4_3_norm
I0601 16:14:14.152369 17398 net.cpp:100] Creating Layer conv4_3_norm
I0601 16:14:14.152374 17398 net.cpp:434] conv4_3_norm <- conv4_3_relu4_3_0_split_1
I0601 16:14:14.152377 17398 net.cpp:408] conv4_3_norm -> conv4_3_norm
I0601 16:14:14.152526 17398 net.cpp:150] Setting up conv4_3_norm
I0601 16:14:14.152531 17398 net.cpp:157] Top shape: 4 512 38 38 (2957312)
I0601 16:14:14.152534 17398 net.cpp:165] Memory required for data: 952950816
I0601 16:14:14.152537 17398 layer_factory.hpp:77] Creating layer conv4_3_norm_conv4_3_norm_0_split
I0601 16:14:14.152542 17398 net.cpp:100] Creating Layer conv4_3_norm_conv4_3_norm_0_split
I0601 16:14:14.152544 17398 net.cpp:434] conv4_3_norm_conv4_3_norm_0_split <- conv4_3_norm
I0601 16:14:14.152549 17398 net.cpp:408] conv4_3_norm_conv4_3_norm_0_split -> conv4_3_norm_conv4_3_norm_0_split_0
I0601 16:14:14.152552 17398 net.cpp:408] conv4_3_norm_conv4_3_norm_0_split -> conv4_3_norm_conv4_3_norm_0_split_1
I0601 16:14:14.152557 17398 net.cpp:408] conv4_3_norm_conv4_3_norm_0_split -> conv4_3_norm_conv4_3_norm_0_split_2
I0601 16:14:14.152600 17398 net.cpp:150] Setting up conv4_3_norm_conv4_3_norm_0_split
I0601 16:14:14.152604 17398 net.cpp:157] Top shape: 4 512 38 38 (2957312)
I0601 16:14:14.152607 17398 net.cpp:157] Top shape: 4 512 38 38 (2957312)
I0601 16:14:14.152609 17398 net.cpp:157] Top shape: 4 512 38 38 (2957312)
I0601 16:14:14.152611 17398 net.cpp:165] Memory required for data: 988438560
I0601 16:14:14.152613 17398 layer_factory.hpp:77] Creating layer conv4_3_norm_mbox_loc
I0601 16:14:14.152619 17398 net.cpp:100] Creating Layer conv4_3_norm_mbox_loc
I0601 16:14:14.152622 17398 net.cpp:434] conv4_3_norm_mbox_loc <- conv4_3_norm_conv4_3_norm_0_split_0
I0601 16:14:14.152627 17398 net.cpp:408] conv4_3_norm_mbox_loc -> conv4_3_norm_mbox_loc
I0601 16:14:14.154500 17398 net.cpp:150] Setting up conv4_3_norm_mbox_loc
I0601 16:14:14.154510 17398 net.cpp:157] Top shape: 4 16 38 38 (92416)
I0601 16:14:14.154512 17398 net.cpp:165] Memory required for data: 988808224
I0601 16:14:14.154517 17398 layer_factory.hpp:77] Creating layer conv4_3_norm_mbox_loc_perm
I0601 16:14:14.154525 17398 net.cpp:100] Creating Layer conv4_3_norm_mbox_loc_perm
I0601 16:14:14.154537 17398 net.cpp:434] conv4_3_norm_mbox_loc_perm <- conv4_3_norm_mbox_loc
I0601 16:14:14.154541 17398 net.cpp:408] conv4_3_norm_mbox_loc_perm -> conv4_3_norm_mbox_loc_perm
I0601 16:14:14.154641 17398 net.cpp:150] Setting up conv4_3_norm_mbox_loc_perm
I0601 16:14:14.154647 17398 net.cpp:157] Top shape: 4 38 38 16 (92416)
I0601 16:14:14.154649 17398 net.cpp:165] Memory required for data: 989177888
I0601 16:14:14.154651 17398 layer_factory.hpp:77] Creating layer conv4_3_norm_mbox_loc_flat
I0601 16:14:14.154656 17398 net.cpp:100] Creating Layer conv4_3_norm_mbox_loc_flat
I0601 16:14:14.154661 17398 net.cpp:434] conv4_3_norm_mbox_loc_flat <- conv4_3_norm_mbox_loc_perm
I0601 16:14:14.154666 17398 net.cpp:408] conv4_3_norm_mbox_loc_flat -> conv4_3_norm_mbox_loc_flat
I0601 16:14:14.154703 17398 net.cpp:150] Setting up conv4_3_norm_mbox_loc_flat
I0601 16:14:14.154711 17398 net.cpp:157] Top shape: 4 23104 (92416)
I0601 16:14:14.154716 17398 net.cpp:165] Memory required for data: 989547552
I0601 16:14:14.154719 17398 layer_factory.hpp:77] Creating layer conv4_3_norm_mbox_conf
I0601 16:14:14.154734 17398 net.cpp:100] Creating Layer conv4_3_norm_mbox_conf
I0601 16:14:14.154738 17398 net.cpp:434] conv4_3_norm_mbox_conf <- conv4_3_norm_conv4_3_norm_0_split_1
I0601 16:14:14.154747 17398 net.cpp:408] conv4_3_norm_mbox_conf -> conv4_3_norm_mbox_conf
I0601 16:14:14.156627 17398 net.cpp:150] Setting up conv4_3_norm_mbox_conf
I0601 16:14:14.156637 17398 net.cpp:157] Top shape: 4 16 38 38 (92416)
I0601 16:14:14.156641 17398 net.cpp:165] Memory required for data: 989917216
I0601 16:14:14.156649 17398 layer_factory.hpp:77] Creating layer conv4_3_norm_mbox_conf_perm
I0601 16:14:14.156657 17398 net.cpp:100] Creating Layer conv4_3_norm_mbox_conf_perm
I0601 16:14:14.156663 17398 net.cpp:434] conv4_3_norm_mbox_conf_perm <- conv4_3_norm_mbox_conf
I0601 16:14:14.156672 17398 net.cpp:408] conv4_3_norm_mbox_conf_perm -> conv4_3_norm_mbox_conf_perm
I0601 16:14:14.156782 17398 net.cpp:150] Setting up conv4_3_norm_mbox_conf_perm
I0601 16:14:14.156790 17398 net.cpp:157] Top shape: 4 38 38 16 (92416)
I0601 16:14:14.156793 17398 net.cpp:165] Memory required for data: 990286880
I0601 16:14:14.156797 17398 layer_factory.hpp:77] Creating layer conv4_3_norm_mbox_conf_flat
I0601 16:14:14.156805 17398 net.cpp:100] Creating Layer conv4_3_norm_mbox_conf_flat
I0601 16:14:14.156810 17398 net.cpp:434] conv4_3_norm_mbox_conf_flat <- conv4_3_norm_mbox_conf_perm
I0601 16:14:14.156816 17398 net.cpp:408] conv4_3_norm_mbox_conf_flat -> conv4_3_norm_mbox_conf_flat
I0601 16:14:14.156842 17398 net.cpp:150] Setting up conv4_3_norm_mbox_conf_flat
I0601 16:14:14.156848 17398 net.cpp:157] Top shape: 4 23104 (92416)
I0601 16:14:14.156852 17398 net.cpp:165] Memory required for data: 990656544
I0601 16:14:14.156855 17398 layer_factory.hpp:77] Creating layer conv4_3_norm_mbox_priorbox
I0601 16:14:14.156863 17398 net.cpp:100] Creating Layer conv4_3_norm_mbox_priorbox
I0601 16:14:14.156872 17398 net.cpp:434] conv4_3_norm_mbox_priorbox <- conv4_3_norm_conv4_3_norm_0_split_2
I0601 16:14:14.156877 17398 net.cpp:434] conv4_3_norm_mbox_priorbox <- data_data_0_split_1
I0601 16:14:14.156886 17398 net.cpp:408] conv4_3_norm_mbox_priorbox -> conv4_3_norm_mbox_priorbox
I0601 16:14:14.156915 17398 net.cpp:150] Setting up conv4_3_norm_mbox_priorbox
I0601 16:14:14.156921 17398 net.cpp:157] Top shape: 1 2 23104 (46208)
I0601 16:14:14.156925 17398 net.cpp:165] Memory required for data: 990841376
I0601 16:14:14.156929 17398 layer_factory.hpp:77] Creating layer fc7_mbox_loc
I0601 16:14:14.156939 17398 net.cpp:100] Creating Layer fc7_mbox_loc
I0601 16:14:14.156944 17398 net.cpp:434] fc7_mbox_loc <- fc7_relu7_0_split_1
I0601 16:14:14.156951 17398 net.cpp:408] fc7_mbox_loc -> fc7_mbox_loc
I0601 16:14:14.159762 17398 net.cpp:150] Setting up fc7_mbox_loc
I0601 16:14:14.159781 17398 net.cpp:157] Top shape: 4 24 19 19 (34656)
I0601 16:14:14.159785 17398 net.cpp:165] Memory required for data: 990980000
I0601 16:14:14.159795 17398 layer_factory.hpp:77] Creating layer fc7_mbox_loc_perm
I0601 16:14:14.159817 17398 net.cpp:100] Creating Layer fc7_mbox_loc_perm
I0601 16:14:14.159835 17398 net.cpp:434] fc7_mbox_loc_perm <- fc7_mbox_loc
I0601 16:14:14.159843 17398 net.cpp:408] fc7_mbox_loc_perm -> fc7_mbox_loc_perm
I0601 16:14:14.159970 17398 net.cpp:150] Setting up fc7_mbox_loc_perm
I0601 16:14:14.159976 17398 net.cpp:157] Top shape: 4 19 19 24 (34656)
I0601 16:14:14.159981 17398 net.cpp:165] Memory required for data: 991118624
I0601 16:14:14.159984 17398 layer_factory.hpp:77] Creating layer fc7_mbox_loc_flat
I0601 16:14:14.159992 17398 net.cpp:100] Creating Layer fc7_mbox_loc_flat
I0601 16:14:14.159997 17398 net.cpp:434] fc7_mbox_loc_flat <- fc7_mbox_loc_perm
I0601 16:14:14.160003 17398 net.cpp:408] fc7_mbox_loc_flat -> fc7_mbox_loc_flat
I0601 16:14:14.160033 17398 net.cpp:150] Setting up fc7_mbox_loc_flat
I0601 16:14:14.160039 17398 net.cpp:157] Top shape: 4 8664 (34656)
I0601 16:14:14.160043 17398 net.cpp:165] Memory required for data: 991257248
I0601 16:14:14.160045 17398 layer_factory.hpp:77] Creating layer fc7_mbox_conf
I0601 16:14:14.160058 17398 net.cpp:100] Creating Layer fc7_mbox_conf
I0601 16:14:14.160063 17398 net.cpp:434] fc7_mbox_conf <- fc7_relu7_0_split_2
I0601 16:14:14.160070 17398 net.cpp:408] fc7_mbox_conf -> fc7_mbox_conf
I0601 16:14:14.162660 17398 net.cpp:150] Setting up fc7_mbox_conf
I0601 16:14:14.162674 17398 net.cpp:157] Top shape: 4 24 19 19 (34656)
I0601 16:14:14.162679 17398 net.cpp:165] Memory required for data: 991395872
I0601 16:14:14.162688 17398 layer_factory.hpp:77] Creating layer fc7_mbox_conf_perm
I0601 16:14:14.162696 17398 net.cpp:100] Creating Layer fc7_mbox_conf_perm
I0601 16:14:14.162703 17398 net.cpp:434] fc7_mbox_conf_perm <- fc7_mbox_conf
I0601 16:14:14.162709 17398 net.cpp:408] fc7_mbox_conf_perm -> fc7_mbox_conf_perm
I0601 16:14:14.162816 17398 net.cpp:150] Setting up fc7_mbox_conf_perm
I0601 16:14:14.162822 17398 net.cpp:157] Top shape: 4 19 19 24 (34656)
I0601 16:14:14.162827 17398 net.cpp:165] Memory required for data: 991534496
I0601 16:14:14.162830 17398 layer_factory.hpp:77] Creating layer fc7_mbox_conf_flat
I0601 16:14:14.162837 17398 net.cpp:100] Creating Layer fc7_mbox_conf_flat
I0601 16:14:14.162842 17398 net.cpp:434] fc7_mbox_conf_flat <- fc7_mbox_conf_perm
I0601 16:14:14.162848 17398 net.cpp:408] fc7_mbox_conf_flat -> fc7_mbox_conf_flat
I0601 16:14:14.162876 17398 net.cpp:150] Setting up fc7_mbox_conf_flat
I0601 16:14:14.162881 17398 net.cpp:157] Top shape: 4 8664 (34656)
I0601 16:14:14.162885 17398 net.cpp:165] Memory required for data: 991673120
I0601 16:14:14.162889 17398 layer_factory.hpp:77] Creating layer fc7_mbox_priorbox
I0601 16:14:14.162899 17398 net.cpp:100] Creating Layer fc7_mbox_priorbox
I0601 16:14:14.162902 17398 net.cpp:434] fc7_mbox_priorbox <- fc7_relu7_0_split_3
I0601 16:14:14.162909 17398 net.cpp:434] fc7_mbox_priorbox <- data_data_0_split_2
I0601 16:14:14.162916 17398 net.cpp:408] fc7_mbox_priorbox -> fc7_mbox_priorbox
I0601 16:14:14.162947 17398 net.cpp:150] Setting up fc7_mbox_priorbox
I0601 16:14:14.162955 17398 net.cpp:157] Top shape: 1 2 8664 (17328)
I0601 16:14:14.162958 17398 net.cpp:165] Memory required for data: 991742432
I0601 16:14:14.162962 17398 layer_factory.hpp:77] Creating layer conv6_2_mbox_loc
I0601 16:14:14.162974 17398 net.cpp:100] Creating Layer conv6_2_mbox_loc
I0601 16:14:14.162979 17398 net.cpp:434] conv6_2_mbox_loc <- conv6_2_conv6_2_relu_0_split_1
I0601 16:14:14.162989 17398 net.cpp:408] conv6_2_mbox_loc -> conv6_2_mbox_loc
I0601 16:14:14.165122 17398 net.cpp:150] Setting up conv6_2_mbox_loc
I0601 16:14:14.165135 17398 net.cpp:157] Top shape: 4 24 10 10 (9600)
I0601 16:14:14.165139 17398 net.cpp:165] Memory required for data: 991780832
I0601 16:14:14.165148 17398 layer_factory.hpp:77] Creating layer conv6_2_mbox_loc_perm
I0601 16:14:14.165156 17398 net.cpp:100] Creating Layer conv6_2_mbox_loc_perm
I0601 16:14:14.165163 17398 net.cpp:434] conv6_2_mbox_loc_perm <- conv6_2_mbox_loc
I0601 16:14:14.165170 17398 net.cpp:408] conv6_2_mbox_loc_perm -> conv6_2_mbox_loc_perm
I0601 16:14:14.165282 17398 net.cpp:150] Setting up conv6_2_mbox_loc_perm
I0601 16:14:14.165297 17398 net.cpp:157] Top shape: 4 10 10 24 (9600)
I0601 16:14:14.165302 17398 net.cpp:165] Memory required for data: 991819232
I0601 16:14:14.165304 17398 layer_factory.hpp:77] Creating layer conv6_2_mbox_loc_flat
I0601 16:14:14.165311 17398 net.cpp:100] Creating Layer conv6_2_mbox_loc_flat
I0601 16:14:14.165318 17398 net.cpp:434] conv6_2_mbox_loc_flat <- conv6_2_mbox_loc_perm
I0601 16:14:14.165323 17398 net.cpp:408] conv6_2_mbox_loc_flat -> conv6_2_mbox_loc_flat
I0601 16:14:14.165352 17398 net.cpp:150] Setting up conv6_2_mbox_loc_flat
I0601 16:14:14.165359 17398 net.cpp:157] Top shape: 4 2400 (9600)
I0601 16:14:14.165362 17398 net.cpp:165] Memory required for data: 991857632
I0601 16:14:14.165366 17398 layer_factory.hpp:77] Creating layer conv6_2_mbox_conf
I0601 16:14:14.165379 17398 net.cpp:100] Creating Layer conv6_2_mbox_conf
I0601 16:14:14.165383 17398 net.cpp:434] conv6_2_mbox_conf <- conv6_2_conv6_2_relu_0_split_2
I0601 16:14:14.165391 17398 net.cpp:408] conv6_2_mbox_conf -> conv6_2_mbox_conf
I0601 16:14:14.167516 17398 net.cpp:150] Setting up conv6_2_mbox_conf
I0601 16:14:14.167526 17398 net.cpp:157] Top shape: 4 24 10 10 (9600)
I0601 16:14:14.167531 17398 net.cpp:165] Memory required for data: 991896032
I0601 16:14:14.167538 17398 layer_factory.hpp:77] Creating layer conv6_2_mbox_conf_perm
I0601 16:14:14.167547 17398 net.cpp:100] Creating Layer conv6_2_mbox_conf_perm
I0601 16:14:14.167552 17398 net.cpp:434] conv6_2_mbox_conf_perm <- conv6_2_mbox_conf
I0601 16:14:14.167560 17398 net.cpp:408] conv6_2_mbox_conf_perm -> conv6_2_mbox_conf_perm
I0601 16:14:14.167670 17398 net.cpp:150] Setting up conv6_2_mbox_conf_perm
I0601 16:14:14.167676 17398 net.cpp:157] Top shape: 4 10 10 24 (9600)
I0601 16:14:14.167680 17398 net.cpp:165] Memory required for data: 991934432
I0601 16:14:14.167683 17398 layer_factory.hpp:77] Creating layer conv6_2_mbox_conf_flat
I0601 16:14:14.167690 17398 net.cpp:100] Creating Layer conv6_2_mbox_conf_flat
I0601 16:14:14.167695 17398 net.cpp:434] conv6_2_mbox_conf_flat <- conv6_2_mbox_conf_perm
I0601 16:14:14.167702 17398 net.cpp:408] conv6_2_mbox_conf_flat -> conv6_2_mbox_conf_flat
I0601 16:14:14.167731 17398 net.cpp:150] Setting up conv6_2_mbox_conf_flat
I0601 16:14:14.167737 17398 net.cpp:157] Top shape: 4 2400 (9600)
I0601 16:14:14.167739 17398 net.cpp:165] Memory required for data: 991972832
I0601 16:14:14.167743 17398 layer_factory.hpp:77] Creating layer conv6_2_mbox_priorbox
I0601 16:14:14.167752 17398 net.cpp:100] Creating Layer conv6_2_mbox_priorbox
I0601 16:14:14.167757 17398 net.cpp:434] conv6_2_mbox_priorbox <- conv6_2_conv6_2_relu_0_split_3
I0601 16:14:14.167762 17398 net.cpp:434] conv6_2_mbox_priorbox <- data_data_0_split_3
I0601 16:14:14.167771 17398 net.cpp:408] conv6_2_mbox_priorbox -> conv6_2_mbox_priorbox
I0601 16:14:14.167800 17398 net.cpp:150] Setting up conv6_2_mbox_priorbox
I0601 16:14:14.167806 17398 net.cpp:157] Top shape: 1 2 2400 (4800)
I0601 16:14:14.167809 17398 net.cpp:165] Memory required for data: 991992032
I0601 16:14:14.167814 17398 layer_factory.hpp:77] Creating layer conv7_2_mbox_loc
I0601 16:14:14.167824 17398 net.cpp:100] Creating Layer conv7_2_mbox_loc
I0601 16:14:14.167829 17398 net.cpp:434] conv7_2_mbox_loc <- conv7_2_conv7_2_relu_0_split_1
I0601 16:14:14.167835 17398 net.cpp:408] conv7_2_mbox_loc -> conv7_2_mbox_loc
I0601 16:14:14.169189 17398 net.cpp:150] Setting up conv7_2_mbox_loc
I0601 16:14:14.169199 17398 net.cpp:157] Top shape: 4 24 5 5 (2400)
I0601 16:14:14.169203 17398 net.cpp:165] Memory required for data: 992001632
I0601 16:14:14.169212 17398 layer_factory.hpp:77] Creating layer conv7_2_mbox_loc_perm
I0601 16:14:14.169220 17398 net.cpp:100] Creating Layer conv7_2_mbox_loc_perm
I0601 16:14:14.169227 17398 net.cpp:434] conv7_2_mbox_loc_perm <- conv7_2_mbox_loc
I0601 16:14:14.169234 17398 net.cpp:408] conv7_2_mbox_loc_perm -> conv7_2_mbox_loc_perm
I0601 16:14:14.169342 17398 net.cpp:150] Setting up conv7_2_mbox_loc_perm
I0601 16:14:14.169348 17398 net.cpp:157] Top shape: 4 5 5 24 (2400)
I0601 16:14:14.169353 17398 net.cpp:165] Memory required for data: 992011232
I0601 16:14:14.169363 17398 layer_factory.hpp:77] Creating layer conv7_2_mbox_loc_flat
I0601 16:14:14.169369 17398 net.cpp:100] Creating Layer conv7_2_mbox_loc_flat
I0601 16:14:14.169373 17398 net.cpp:434] conv7_2_mbox_loc_flat <- conv7_2_mbox_loc_perm
I0601 16:14:14.169381 17398 net.cpp:408] conv7_2_mbox_loc_flat -> conv7_2_mbox_loc_flat
I0601 16:14:14.169411 17398 net.cpp:150] Setting up conv7_2_mbox_loc_flat
I0601 16:14:14.169417 17398 net.cpp:157] Top shape: 4 600 (2400)
I0601 16:14:14.169421 17398 net.cpp:165] Memory required for data: 992020832
I0601 16:14:14.169425 17398 layer_factory.hpp:77] Creating layer conv7_2_mbox_conf
I0601 16:14:14.169435 17398 net.cpp:100] Creating Layer conv7_2_mbox_conf
I0601 16:14:14.169440 17398 net.cpp:434] conv7_2_mbox_conf <- conv7_2_conv7_2_relu_0_split_2
I0601 16:14:14.169450 17398 net.cpp:408] conv7_2_mbox_conf -> conv7_2_mbox_conf
I0601 16:14:14.171253 17398 net.cpp:150] Setting up conv7_2_mbox_conf
I0601 16:14:14.171263 17398 net.cpp:157] Top shape: 4 24 5 5 (2400)
I0601 16:14:14.171267 17398 net.cpp:165] Memory required for data: 992030432
I0601 16:14:14.171274 17398 layer_factory.hpp:77] Creating layer conv7_2_mbox_conf_perm
I0601 16:14:14.171283 17398 net.cpp:100] Creating Layer conv7_2_mbox_conf_perm
I0601 16:14:14.171289 17398 net.cpp:434] conv7_2_mbox_conf_perm <- conv7_2_mbox_conf
I0601 16:14:14.171295 17398 net.cpp:408] conv7_2_mbox_conf_perm -> conv7_2_mbox_conf_perm
I0601 16:14:14.171403 17398 net.cpp:150] Setting up conv7_2_mbox_conf_perm
I0601 16:14:14.171411 17398 net.cpp:157] Top shape: 4 5 5 24 (2400)
I0601 16:14:14.171413 17398 net.cpp:165] Memory required for data: 992040032
I0601 16:14:14.171417 17398 layer_factory.hpp:77] Creating layer conv7_2_mbox_conf_flat
I0601 16:14:14.171423 17398 net.cpp:100] Creating Layer conv7_2_mbox_conf_flat
I0601 16:14:14.171427 17398 net.cpp:434] conv7_2_mbox_conf_flat <- conv7_2_mbox_conf_perm
I0601 16:14:14.171435 17398 net.cpp:408] conv7_2_mbox_conf_flat -> conv7_2_mbox_conf_flat
I0601 16:14:14.171465 17398 net.cpp:150] Setting up conv7_2_mbox_conf_flat
I0601 16:14:14.171471 17398 net.cpp:157] Top shape: 4 600 (2400)
I0601 16:14:14.171475 17398 net.cpp:165] Memory required for data: 992049632
I0601 16:14:14.171478 17398 layer_factory.hpp:77] Creating layer conv7_2_mbox_priorbox
I0601 16:14:14.171485 17398 net.cpp:100] Creating Layer conv7_2_mbox_priorbox
I0601 16:14:14.171489 17398 net.cpp:434] conv7_2_mbox_priorbox <- conv7_2_conv7_2_relu_0_split_3
I0601 16:14:14.171494 17398 net.cpp:434] conv7_2_mbox_priorbox <- data_data_0_split_4
I0601 16:14:14.171504 17398 net.cpp:408] conv7_2_mbox_priorbox -> conv7_2_mbox_priorbox
I0601 16:14:14.171533 17398 net.cpp:150] Setting up conv7_2_mbox_priorbox
I0601 16:14:14.171540 17398 net.cpp:157] Top shape: 1 2 600 (1200)
I0601 16:14:14.171542 17398 net.cpp:165] Memory required for data: 992054432
I0601 16:14:14.171546 17398 layer_factory.hpp:77] Creating layer conv8_2_mbox_loc
I0601 16:14:14.171557 17398 net.cpp:100] Creating Layer conv8_2_mbox_loc
I0601 16:14:14.171562 17398 net.cpp:434] conv8_2_mbox_loc <- conv8_2_conv8_2_relu_0_split_1
I0601 16:14:14.171571 17398 net.cpp:408] conv8_2_mbox_loc -> conv8_2_mbox_loc
I0601 16:14:14.173315 17398 net.cpp:150] Setting up conv8_2_mbox_loc
I0601 16:14:14.173324 17398 net.cpp:157] Top shape: 4 16 3 3 (576)
I0601 16:14:14.173328 17398 net.cpp:165] Memory required for data: 992056736
I0601 16:14:14.173346 17398 layer_factory.hpp:77] Creating layer conv8_2_mbox_loc_perm
I0601 16:14:14.173353 17398 net.cpp:100] Creating Layer conv8_2_mbox_loc_perm
I0601 16:14:14.173358 17398 net.cpp:434] conv8_2_mbox_loc_perm <- conv8_2_mbox_loc
I0601 16:14:14.173368 17398 net.cpp:408] conv8_2_mbox_loc_perm -> conv8_2_mbox_loc_perm
I0601 16:14:14.173478 17398 net.cpp:150] Setting up conv8_2_mbox_loc_perm
I0601 16:14:14.173485 17398 net.cpp:157] Top shape: 4 3 3 16 (576)
I0601 16:14:14.173487 17398 net.cpp:165] Memory required for data: 992059040
I0601 16:14:14.173492 17398 layer_factory.hpp:77] Creating layer conv8_2_mbox_loc_flat
I0601 16:14:14.173506 17398 net.cpp:100] Creating Layer conv8_2_mbox_loc_flat
I0601 16:14:14.173512 17398 net.cpp:434] conv8_2_mbox_loc_flat <- conv8_2_mbox_loc_perm
I0601 16:14:14.173519 17398 net.cpp:408] conv8_2_mbox_loc_flat -> conv8_2_mbox_loc_flat
I0601 16:14:14.173545 17398 net.cpp:150] Setting up conv8_2_mbox_loc_flat
I0601 16:14:14.173552 17398 net.cpp:157] Top shape: 4 144 (576)
I0601 16:14:14.173554 17398 net.cpp:165] Memory required for data: 992061344
I0601 16:14:14.173559 17398 layer_factory.hpp:77] Creating layer conv8_2_mbox_conf
I0601 16:14:14.173569 17398 net.cpp:100] Creating Layer conv8_2_mbox_conf
I0601 16:14:14.173573 17398 net.cpp:434] conv8_2_mbox_conf <- conv8_2_conv8_2_relu_0_split_2
I0601 16:14:14.173581 17398 net.cpp:408] conv8_2_mbox_conf -> conv8_2_mbox_conf
I0601 16:14:14.175433 17398 net.cpp:150] Setting up conv8_2_mbox_conf
I0601 16:14:14.175453 17398 net.cpp:157] Top shape: 4 16 3 3 (576)
I0601 16:14:14.175457 17398 net.cpp:165] Memory required for data: 992063648
I0601 16:14:14.175467 17398 layer_factory.hpp:77] Creating layer conv8_2_mbox_conf_perm
I0601 16:14:14.175478 17398 net.cpp:100] Creating Layer conv8_2_mbox_conf_perm
I0601 16:14:14.175485 17398 net.cpp:434] conv8_2_mbox_conf_perm <- conv8_2_mbox_conf
I0601 16:14:14.175493 17398 net.cpp:408] conv8_2_mbox_conf_perm -> conv8_2_mbox_conf_perm
I0601 16:14:14.175667 17398 net.cpp:150] Setting up conv8_2_mbox_conf_perm
I0601 16:14:14.175678 17398 net.cpp:157] Top shape: 4 3 3 16 (576)
I0601 16:14:14.175683 17398 net.cpp:165] Memory required for data: 992065952
I0601 16:14:14.175688 17398 layer_factory.hpp:77] Creating layer conv8_2_mbox_conf_flat
I0601 16:14:14.175693 17398 net.cpp:100] Creating Layer conv8_2_mbox_conf_flat
I0601 16:14:14.175700 17398 net.cpp:434] conv8_2_mbox_conf_flat <- conv8_2_mbox_conf_perm
I0601 16:14:14.175706 17398 net.cpp:408] conv8_2_mbox_conf_flat -> conv8_2_mbox_conf_flat
I0601 16:14:14.175737 17398 net.cpp:150] Setting up conv8_2_mbox_conf_flat
I0601 16:14:14.175742 17398 net.cpp:157] Top shape: 4 144 (576)
I0601 16:14:14.175745 17398 net.cpp:165] Memory required for data: 992068256
I0601 16:14:14.175747 17398 layer_factory.hpp:77] Creating layer conv8_2_mbox_priorbox
I0601 16:14:14.175751 17398 net.cpp:100] Creating Layer conv8_2_mbox_priorbox
I0601 16:14:14.175755 17398 net.cpp:434] conv8_2_mbox_priorbox <- conv8_2_conv8_2_relu_0_split_3
I0601 16:14:14.175760 17398 net.cpp:434] conv8_2_mbox_priorbox <- data_data_0_split_5
I0601 16:14:14.175763 17398 net.cpp:408] conv8_2_mbox_priorbox -> conv8_2_mbox_priorbox
I0601 16:14:14.175792 17398 net.cpp:150] Setting up conv8_2_mbox_priorbox
I0601 16:14:14.175796 17398 net.cpp:157] Top shape: 1 2 144 (288)
I0601 16:14:14.175798 17398 net.cpp:165] Memory required for data: 992069408
I0601 16:14:14.175801 17398 layer_factory.hpp:77] Creating layer conv9_2_mbox_loc
I0601 16:14:14.175809 17398 net.cpp:100] Creating Layer conv9_2_mbox_loc
I0601 16:14:14.175814 17398 net.cpp:434] conv9_2_mbox_loc <- conv9_2_conv9_2_relu_0_split_0
I0601 16:14:14.175819 17398 net.cpp:408] conv9_2_mbox_loc -> conv9_2_mbox_loc
I0601 16:14:14.178267 17398 net.cpp:150] Setting up conv9_2_mbox_loc
I0601 16:14:14.178280 17398 net.cpp:157] Top shape: 4 16 1 1 (64)
I0601 16:14:14.178282 17398 net.cpp:165] Memory required for data: 992069664
I0601 16:14:14.178289 17398 layer_factory.hpp:77] Creating layer conv9_2_mbox_loc_perm
I0601 16:14:14.178297 17398 net.cpp:100] Creating Layer conv9_2_mbox_loc_perm
I0601 16:14:14.178302 17398 net.cpp:434] conv9_2_mbox_loc_perm <- conv9_2_mbox_loc
I0601 16:14:14.178306 17398 net.cpp:408] conv9_2_mbox_loc_perm -> conv9_2_mbox_loc_perm
I0601 16:14:14.178426 17398 net.cpp:150] Setting up conv9_2_mbox_loc_perm
I0601 16:14:14.178433 17398 net.cpp:157] Top shape: 4 1 1 16 (64)
I0601 16:14:14.178449 17398 net.cpp:165] Memory required for data: 992069920
I0601 16:14:14.178452 17398 layer_factory.hpp:77] Creating layer conv9_2_mbox_loc_flat
I0601 16:14:14.178458 17398 net.cpp:100] Creating Layer conv9_2_mbox_loc_flat
I0601 16:14:14.178463 17398 net.cpp:434] conv9_2_mbox_loc_flat <- conv9_2_mbox_loc_perm
I0601 16:14:14.178479 17398 net.cpp:408] conv9_2_mbox_loc_flat -> conv9_2_mbox_loc_flat
I0601 16:14:14.178508 17398 net.cpp:150] Setting up conv9_2_mbox_loc_flat
I0601 16:14:14.178527 17398 net.cpp:157] Top shape: 4 16 (64)
I0601 16:14:14.178530 17398 net.cpp:165] Memory required for data: 992070176
I0601 16:14:14.178534 17398 layer_factory.hpp:77] Creating layer conv9_2_mbox_conf
I0601 16:14:14.178545 17398 net.cpp:100] Creating Layer conv9_2_mbox_conf
I0601 16:14:14.178550 17398 net.cpp:434] conv9_2_mbox_conf <- conv9_2_conv9_2_relu_0_split_1
I0601 16:14:14.178560 17398 net.cpp:408] conv9_2_mbox_conf -> conv9_2_mbox_conf
I0601 16:14:14.180348 17398 net.cpp:150] Setting up conv9_2_mbox_conf
I0601 16:14:14.180357 17398 net.cpp:157] Top shape: 4 16 1 1 (64)
I0601 16:14:14.180361 17398 net.cpp:165] Memory required for data: 992070432
I0601 16:14:14.180368 17398 layer_factory.hpp:77] Creating layer conv9_2_mbox_conf_perm
I0601 16:14:14.180377 17398 net.cpp:100] Creating Layer conv9_2_mbox_conf_perm
I0601 16:14:14.180383 17398 net.cpp:434] conv9_2_mbox_conf_perm <- conv9_2_mbox_conf
I0601 16:14:14.180389 17398 net.cpp:408] conv9_2_mbox_conf_perm -> conv9_2_mbox_conf_perm
I0601 16:14:14.180500 17398 net.cpp:150] Setting up conv9_2_mbox_conf_perm
I0601 16:14:14.180506 17398 net.cpp:157] Top shape: 4 1 1 16 (64)
I0601 16:14:14.180510 17398 net.cpp:165] Memory required for data: 992070688
I0601 16:14:14.180512 17398 layer_factory.hpp:77] Creating layer conv9_2_mbox_conf_flat
I0601 16:14:14.180519 17398 net.cpp:100] Creating Layer conv9_2_mbox_conf_flat
I0601 16:14:14.180524 17398 net.cpp:434] conv9_2_mbox_conf_flat <- conv9_2_mbox_conf_perm
I0601 16:14:14.180531 17398 net.cpp:408] conv9_2_mbox_conf_flat -> conv9_2_mbox_conf_flat
I0601 16:14:14.180557 17398 net.cpp:150] Setting up conv9_2_mbox_conf_flat
I0601 16:14:14.180563 17398 net.cpp:157] Top shape: 4 16 (64)
I0601 16:14:14.180567 17398 net.cpp:165] Memory required for data: 992070944
I0601 16:14:14.180570 17398 layer_factory.hpp:77] Creating layer conv9_2_mbox_priorbox
I0601 16:14:14.180578 17398 net.cpp:100] Creating Layer conv9_2_mbox_priorbox
I0601 16:14:14.180583 17398 net.cpp:434] conv9_2_mbox_priorbox <- conv9_2_conv9_2_relu_0_split_2
I0601 16:14:14.180588 17398 net.cpp:434] conv9_2_mbox_priorbox <- data_data_0_split_6
I0601 16:14:14.180595 17398 net.cpp:408] conv9_2_mbox_priorbox -> conv9_2_mbox_priorbox
I0601 16:14:14.180624 17398 net.cpp:150] Setting up conv9_2_mbox_priorbox
I0601 16:14:14.180629 17398 net.cpp:157] Top shape: 1 2 16 (32)
I0601 16:14:14.180634 17398 net.cpp:165] Memory required for data: 992071072
I0601 16:14:14.180636 17398 layer_factory.hpp:77] Creating layer mbox_loc
I0601 16:14:14.180645 17398 net.cpp:100] Creating Layer mbox_loc
I0601 16:14:14.180650 17398 net.cpp:434] mbox_loc <- conv4_3_norm_mbox_loc_flat
I0601 16:14:14.180657 17398 net.cpp:434] mbox_loc <- fc7_mbox_loc_flat
I0601 16:14:14.180663 17398 net.cpp:434] mbox_loc <- conv6_2_mbox_loc_flat
I0601 16:14:14.180670 17398 net.cpp:434] mbox_loc <- conv7_2_mbox_loc_flat
I0601 16:14:14.180675 17398 net.cpp:434] mbox_loc <- conv8_2_mbox_loc_flat
I0601 16:14:14.180680 17398 net.cpp:434] mbox_loc <- conv9_2_mbox_loc_flat
I0601 16:14:14.180687 17398 net.cpp:408] mbox_loc -> mbox_loc
I0601 16:14:14.180716 17398 net.cpp:150] Setting up mbox_loc
I0601 16:14:14.180721 17398 net.cpp:157] Top shape: 4 34928 (139712)
I0601 16:14:14.180726 17398 net.cpp:165] Memory required for data: 992629920
I0601 16:14:14.180730 17398 layer_factory.hpp:77] Creating layer mbox_conf
I0601 16:14:14.180737 17398 net.cpp:100] Creating Layer mbox_conf
I0601 16:14:14.180742 17398 net.cpp:434] mbox_conf <- conv4_3_norm_mbox_conf_flat
I0601 16:14:14.180747 17398 net.cpp:434] mbox_conf <- fc7_mbox_conf_flat
I0601 16:14:14.180752 17398 net.cpp:434] mbox_conf <- conv6_2_mbox_conf_flat
I0601 16:14:14.180758 17398 net.cpp:434] mbox_conf <- conv7_2_mbox_conf_flat
I0601 16:14:14.180763 17398 net.cpp:434] mbox_conf <- conv8_2_mbox_conf_flat
I0601 16:14:14.180768 17398 net.cpp:434] mbox_conf <- conv9_2_mbox_conf_flat
I0601 16:14:14.180783 17398 net.cpp:408] mbox_conf -> mbox_conf
I0601 16:14:14.180809 17398 net.cpp:150] Setting up mbox_conf
I0601 16:14:14.180814 17398 net.cpp:157] Top shape: 4 34928 (139712)
I0601 16:14:14.180817 17398 net.cpp:165] Memory required for data: 993188768
I0601 16:14:14.180821 17398 layer_factory.hpp:77] Creating layer mbox_priorbox
I0601 16:14:14.180827 17398 net.cpp:100] Creating Layer mbox_priorbox
I0601 16:14:14.180832 17398 net.cpp:434] mbox_priorbox <- conv4_3_norm_mbox_priorbox
I0601 16:14:14.180837 17398 net.cpp:434] mbox_priorbox <- fc7_mbox_priorbox
I0601 16:14:14.180843 17398 net.cpp:434] mbox_priorbox <- conv6_2_mbox_priorbox
I0601 16:14:14.180847 17398 net.cpp:434] mbox_priorbox <- conv7_2_mbox_priorbox
I0601 16:14:14.180852 17398 net.cpp:434] mbox_priorbox <- conv8_2_mbox_priorbox
I0601 16:14:14.180857 17398 net.cpp:434] mbox_priorbox <- conv9_2_mbox_priorbox
I0601 16:14:14.180876 17398 net.cpp:408] mbox_priorbox -> mbox_priorbox
I0601 16:14:14.180902 17398 net.cpp:150] Setting up mbox_priorbox
I0601 16:14:14.180910 17398 net.cpp:157] Top shape: 1 2 34928 (69856)
I0601 16:14:14.180914 17398 net.cpp:165] Memory required for data: 993468192
I0601 16:14:14.180918 17398 layer_factory.hpp:77] Creating layer mbox_conf_reshape
I0601 16:14:14.180927 17398 net.cpp:100] Creating Layer mbox_conf_reshape
I0601 16:14:14.180930 17398 net.cpp:434] mbox_conf_reshape <- mbox_conf
I0601 16:14:14.180936 17398 net.cpp:408] mbox_conf_reshape -> mbox_conf_reshape
I0601 16:14:14.180968 17398 net.cpp:150] Setting up mbox_conf_reshape
I0601 16:14:14.180975 17398 net.cpp:157] Top shape: 4 8732 4 (139712)
I0601 16:14:14.180979 17398 net.cpp:165] Memory required for data: 994027040
I0601 16:14:14.180982 17398 layer_factory.hpp:77] Creating layer mbox_conf_softmax
I0601 16:14:14.180990 17398 net.cpp:100] Creating Layer mbox_conf_softmax
I0601 16:14:14.180994 17398 net.cpp:434] mbox_conf_softmax <- mbox_conf_reshape
I0601 16:14:14.181000 17398 net.cpp:408] mbox_conf_softmax -> mbox_conf_softmax
I0601 16:14:14.181200 17398 net.cpp:150] Setting up mbox_conf_softmax
I0601 16:14:14.181207 17398 net.cpp:157] Top shape: 4 8732 4 (139712)
I0601 16:14:14.181211 17398 net.cpp:165] Memory required for data: 994585888
I0601 16:14:14.181216 17398 layer_factory.hpp:77] Creating layer mbox_conf_flatten
I0601 16:14:14.181222 17398 net.cpp:100] Creating Layer mbox_conf_flatten
I0601 16:14:14.181227 17398 net.cpp:434] mbox_conf_flatten <- mbox_conf_softmax
I0601 16:14:14.181232 17398 net.cpp:408] mbox_conf_flatten -> mbox_conf_flatten
I0601 16:14:14.181259 17398 net.cpp:150] Setting up mbox_conf_flatten
I0601 16:14:14.181265 17398 net.cpp:157] Top shape: 4 34928 (139712)
I0601 16:14:14.181270 17398 net.cpp:165] Memory required for data: 995144736
I0601 16:14:14.181274 17398 layer_factory.hpp:77] Creating layer detection_out
I0601 16:14:14.181288 17398 net.cpp:100] Creating Layer detection_out
I0601 16:14:14.181291 17398 net.cpp:434] detection_out <- mbox_loc
I0601 16:14:14.181298 17398 net.cpp:434] detection_out <- mbox_conf_flatten
I0601 16:14:14.181303 17398 net.cpp:434] detection_out <- mbox_priorbox
I0601 16:14:14.181310 17398 net.cpp:408] detection_out -> detection_out
I0601 16:14:14.182471 17398 net.cpp:150] Setting up detection_out
I0601 16:14:14.182481 17398 net.cpp:157] Top shape: 1 1 1 7 (7)
I0601 16:14:14.182484 17398 net.cpp:165] Memory required for data: 995144764
I0601 16:14:14.182488 17398 layer_factory.hpp:77] Creating layer detection_eval
I0601 16:14:14.182495 17398 net.cpp:100] Creating Layer detection_eval
I0601 16:14:14.182502 17398 net.cpp:434] detection_eval <- detection_out
I0601 16:14:14.182507 17398 net.cpp:434] detection_eval <- label
I0601 16:14:14.182514 17398 net.cpp:408] detection_eval -> detection_eval
I0601 16:14:14.183228 17398 net.cpp:150] Setting up detection_eval
I0601 16:14:14.183235 17398 net.cpp:157] Top shape: 1 1 4 5 (20)
I0601 16:14:14.183239 17398 net.cpp:165] Memory required for data: 995144844
I0601 16:14:14.183243 17398 net.cpp:228] detection_eval does not need backward computation.
I0601 16:14:14.183255 17398 net.cpp:228] detection_out does not need backward computation.
I0601 16:14:14.183261 17398 net.cpp:228] mbox_conf_flatten does not need backward computation.
I0601 16:14:14.183267 17398 net.cpp:228] mbox_conf_softmax does not need backward computation.
…
