…
        min_scale: 0.3
        max_scale: 1
        min_aspect_ratio: 0.5
        max_aspect_ratio: 2
      }
      sample_constraint {
        min_jaccard_overlap: 0.9
      }
      max_sample: 1
      max_trials: 50
    }
    batch_sampler {
      sampler {
        min_scale: 0.3
        max_scale: 1
        min_aspect_ratio: 0.5
        max_aspect_ratio: 2
      }
      sample_constraint {
        max_jaccard_overlap: 1
      }
      max_sample: 1
      max_trials: 50
    }
    label_map_file: "data/tbs_300x300_HSIL_10x/labelmap_voc.prototxt"
  }
}
layer {
  name: "conv1_1"
  type: "Convolution"
  bottom: "data"
  top: "conv1_1"
  param {
    lr_mult: 1
    decay_mult: 1
  }
  param {
    lr_mult: 2
    decay_mult: 0
  }
  convolution_param {
    num_output: 64
    pad: 1
    kernel_size: 3
    weight_filler {
      type: "xavier"
    }
    bias_filler {
      type: "constant"
      value: 0
    }
  }
}
layer {
  name: "relu1_1"
  type: "ReLU"
  bottom: "conv1_1"
  top: "conv1_1"
}
layer {
  name: "conv1_2"
  type: "Convolution"
  bottom: "conv1_1"
  top: "conv1_2"
  param {
    lr_mult: 1
    decay_mult: 1
  }
  param {
    lr_mult: 2
    decay_mult: 0
  }
  convolution_param {
    num_output: 64
    pad: 1
    kernel_size: 3
    weight_filler {
      type: "xavier"
    }
    bias_filler {
      type: "constant"
      value: 0
    }
  }
}
layer {
  name: "relu1_2"
  type: "ReLU"
  bottom: "conv1_2"
  top: "conv1_2"
}
layer {
  name: "pool1"
  type: "Pooling"
  bottom: "conv1_2"
  top: "pool1"
  pooling_param {
    pool: MAX
    kernel_size: 2
    stride: 2
  }
}
layer {
  name: "conv2_1"
  type: "Convolution"
  bottom: "pool1"
  top: "conv2_1"
  param {
    lr_mult: 1
    decay_mult: 1
  }
  param {
    lr_mult: 2
    decay_mult: 0
  }
  convolution_param {
    num_output: 128
    pad: 1
    kernel_size: 3
    weight_filler {
      type: "xavier"
    }
    bias_filler {
      type: "constant"
      value: 0
    }
  }
}
layer {
  name: "relu2_1"
  type: "ReLU"
  bottom: "conv2_1"
  top: "conv2_1"
}
layer {
  name: "conv2_2"
  type: "Convolution"
  bottom: "conv2_1"
  top: "conv2_2"
  param {
    lr_mult: 1
    decay_mult: 1
  }
  param {
    lr_mult: 2
    decay_mult: 0
  }
  convolution_param {
    num_output: 128
    pad: 1
    kernel_size: 3
    weight_filler {
      type: "xavier"
    }
    bias_filler {
      type: "constant"
      value: 0
    }
  }
}
layer {
  name: "relu2_2"
  type: "ReLU"
  bottom: "conv2_2"
  top: "conv2_2"
}
layer {
  name: "pool2"
  type: "Pooling"
  bottom: "conv2_2"
  top: "pool2"
  pooling_param {
    pool: MAX
    kernel_size: 2
    stride: 2
  }
}
layer {
  name: "conv3_1"
  type: "Convolution"
  bottom: "pool2"
  top: "conv3_1"
  param {
    lr_mult: 1
    decay_mult: 1
  }
  param {
    lr_mult: 2
    decay_mult: 0
  }
  convolution_param {
    num_output: 256
    pad: 1
    kernel_size: 3
    weight_filler {
      type: "xavier"
    }
    bias_filler {
      type: "constant"
      value: 0
    }
  }
}
layer {
  name: "relu3_1"
  type: "ReLU"
  bottom: "conv3_1"
  top: "conv3_1"
}
layer {
  name: "conv3_2"
  type: "Convolution"
  bottom: "conv3_1"
  top: "conv3_2"
  param {
    lr_mult: 1
    decay_mult: 1
  }
  param {
    lr_mult: 2
    decay_mult: 0
  }
  convolution_param {
    num_output: 256
    pad: 1
    kernel_size: 3
    weight_filler {
      type: "xavier"
    }
    bias_filler {
      type: "constant"
      value: 0
    }
  }
}
layer {
  name: "relu3_2"
  type: "ReLU"
  bottom: "conv3_2"
  top: "conv3_2"
}
layer {
  name: "conv3_3"
  type: "Convolution"
  bottom: "conv3_2"
  top: "conv3_3"
  param {
    lr_mult: 1
    decay_mult: 1
  }
  param {
    lr_mult: 2
    decay_mult: 0
  }
  convolution_param {
    num_output: 256
    pad: 1
    kernel_size: 3
    weight_filler {
      type: "xavier"
    }
    bias_filler {
      type: "constant"
      value: 0
    }
  }
}
layer {
  name: "relu3_3"
  type: "ReLU"
  bottom: "conv3_3"
  top: "conv3_3"
}
layer {
  name: "pool3"
  type: "Pooling"
  bottom: "conv3_3"
  top: "pool3"
  pooling_param {
    pool: MAX
    kernel_size: 2
    stride: 2
  }
}
layer {
  name: "conv4_1"
  type: "Convolution"
  bottom: "pool3"
  top: "conv4_1"
  param {
    lr_mult: 1
    decay_mult: 1
  }
  param {
    lr_mult: 2
    decay_mult: 0
  }
  convolution_param {
    num_output: 512
    pad: 1
    kernel_size: 3
    weight_filler {
      type: "xavier"
    }
    bias_filler {
      type: "constant"
      value: 0
    }
  }
}
layer {
  name: "relu4_1"
  type: "ReLU"
  bottom: "conv4_1"
  top: "conv4_1"
}
layer {
  name: "conv4_2"
  type: "Convolution"
  bottom: "conv4_1"
  top: "conv4_2"
  param {
    lr_mult: 1
    decay_mult: 1
  }
  param {
    lr_mult: 2
    decay_mult: 0
  }
  convolution_param {
    num_output: 512
    pad: 1
    kernel_size: 3
    weight_filler {
      type: "xavier"
    }
    bias_filler {
      type: "constant"
      value: 0
    }
  }
}
layer {
  name: "relu4_2"
  type: "ReLU"
  bottom: "conv4_2"
  top: "conv4_2"
}
layer {
  name: "conv4_3"
  type: "Convolution"
  bottom: "conv4_2"
  top: "conv4_3"
  param {
    lr_mult: 1
    decay_mult: 1
  }
  param {
    lr_mult: 2
    decay_mult: 0
  }
  convolution_param {
    num_output: 512
    pad: 1
    kernel_size: 3
    weight_filler {
      type: "xavier"
    }
    bias_filler {
      type: "constant"
      value: 0
    }
  }
}
layer {
  name: "relu4_3"
  type: "ReLU"
  bottom: "conv4_3"
  top: "conv4_3"
}
layer {
  name: "pool4"
  type: "Pooling"
  bottom: "conv4_3"
  top: "pool4"
  pooling_param {
    pool: MAX
    kernel_size: 2
    stride: 2
  }
}
layer {
  name: "conv5_1"
  type: "Convolution"
  bottom: "pool4"
  top: "conv5_1"
  param {
    lr_mult: 1
    decay_mult: 1
  }
  param {
    lr_mult: 2
    decay_mult: 0
  }
  convolution_param {
    num_output: 512
    pad: 1
    kernel_size: 3
    weight_filler {
      type: "xavier"
    }
    bias_filler {
      type: "constant"
      value: 0
    }
    dilation: 1
  }
}
layer {
  name: "relu5_1"
  type: "ReLU"
  bottom: "conv5_1"
  top: "conv5_1"
}
layer {
  name: "conv5_2"
  type: "Convolution"
  bottom: "conv5_1"
  top: "conv5_2"
  param {
    lr_mult: 1
    decay_mult: 1
  }
  param {
    lr_mult: 2
    decay_mult: 0
  }
  convolution_param {
    num_output: 512
    pad: 1
    kernel_size: 3
    weight_filler {
      type: "xavier"
    }
    bias_filler {
      type: "constant"
      value: 0
    }
    dilation: 1
  }
}
layer {
  name: "relu5_2"
  type: "ReLU"
  bottom: "conv5_2"
  top: "conv5_2"
}
layer {
  name: "conv5_3"
  type: "Convolution"
  bottom: "conv5_2"
  top: "conv5_3"
  param {
    lr_mult: 1
    decay_mult: 1
  }
  param {
    lr_mult: 2
    decay_mult: 0
  }
  convolution_param {
    num_output: 512
    pad: 1
    kernel_size: 3
    weight_filler {
      type: "xavier"
    }
    bias_filler {
      type: "constant"
      value: 0
    }
    dilation: 1
  }
}
layer {
  name: "relu5_3"
  type: "ReLU"
  bottom: "conv5_3"
  top: "conv5_3"
}
layer {
  name: "pool5"
  type: "Pooling"
  bottom: "conv5_3"
  top: "pool5"
  pooling_param {
    pool: MAX
    kernel_size: 3
    stride: 1
    pad: 1
  }
}
layer {
  name: "fc6"
  type: "Convolution"
  bottom: "pool5"
  top: "fc6"
  param {
    lr_mult: 1
    decay_mult: 1
  }
  param {
    lr_mult: 2
    decay_mult: 0
  }
  convolution_param {
    num_output: 1024
    pad: 6
    kernel_size: 3
    weight_filler {
      type: "xavier"
    }
    bias_filler {
      type: "constant"
      value: 0
    }
    dilation: 6
  }
}
layer {
  name: "relu6"
  type: "ReLU"
  bottom: "fc6"
  top: "fc6"
}
layer {
  name: "fc7"
  type: "Convolution"
  bottom: "fc6"
  top: "fc7"
  param {
    lr_mult: 1
    decay_mult: 1
  }
  param {
    lr_mult: 2
    decay_mult: 0
  }
  convolution_param {
    num_output: 1024
    kernel_size: 1
    weight_filler {
      type: "xavier"
    }
    bias_filler {
      type: "constant"
      value: 0
    }
  }
}
layer {
  name: "relu7"
  type: "ReLU"
  bottom: "fc7"
  top: "fc7"
}
layer {
  name: "conv6_1"
  type: "Convolution"
  bottom: "fc7"
  top: "conv6_1"
  param {
    lr_mult: 1
    decay_mult: 1
  }
  param {
    lr_mult: 2
    decay_mult: 0
  }
  convolution_param {
    num_output: 256
    pad: 0
    kernel_size: 1
    stride: 1
    weight_filler {
      type: "xavier"
    }
    bias_filler {
      type: "constant"
      value: 0
    }
  }
}
layer {
  name: "conv6_1_relu"
  type: "ReLU"
  bottom: "conv6_1"
  top: "conv6_1"
}
layer {
  name: "conv6_2"
  type: "Convolution"
  bottom: "conv6_1"
  top: "conv6_2"
  param {
    lr_mult: 1
    decay_mult: 1
  }
  param {
    lr_mult: 2
    decay_mult: 0
  }
  convolution_param {
    num_output: 512
    pad: 1
    kernel_size: 3
    stride: 2
    weight_filler {
      type: "xavier"
    }
    bias_filler {
      type: "constant"
      value: 0
    }
  }
}
layer {
  name: "conv6_2_relu"
  type: "ReLU"
  bottom: "conv6_2"
  top: "conv6_2"
}
layer {
  name: "conv7_1"
  type: "Convolution"
  bottom: "conv6_2"
  top: "conv7_1"
  param {
    lr_mult: 1
    decay_mult: 1
  }
  param {
    lr_mult: 2
    decay_mult: 0
  }
  convolution_param {
    num_output: 128
    pad: 0
    kernel_size: 1
    stride: 1
    weight_filler {
      type: "xavier"
    }
    bias_filler {
      type: "constant"
      value: 0
    }
  }
}
layer {
  name: "conv7_1_relu"
  type: "ReLU"
  bottom: "conv7_1"
  top: "conv7_1"
}
layer {
  name: "conv7_2"
  type: "Convolution"
  bottom: "conv7_1"
  top: "conv7_2"
  param {
    lr_mult: 1
    decay_mult: 1
  }
  param {
    lr_mult: 2
    decay_mult: 0
  }
  convolution_param {
    num_output: 256
    pad: 1
    kernel_size: 3
    stride: 2
    weight_filler {
      type: "xavier"
    }
    bias_filler {
      type: "constant"
      value: 0
    }
  }
}
layer {
  name: "conv7_2_relu"
  type: "ReLU"
  bottom: "conv7_2"
  top: "conv7_2"
}
layer {
  name: "conv8_1"
  type: "Convolution"
  bottom: "conv7_2"
  top: "conv8_1"
  param {
    lr_mult: 1
    decay_mult: 1
  }
  param {
    lr_mult: 2
    decay_mult: 0
  }
  convolution_param {
    num_output: 128
    pad: 0
    kernel_size: 1
    stride: 1
    weight_filler {
      type: "xavier"
    }
    bias_filler {
      type: "constant"
      value: 0
    }
  }
}
layer {
  name: "conv8_1_relu"
  type: "ReLU"
  bottom: "conv8_1"
  top: "conv8_1"
}
layer {
  name: "conv8_2"
  type: "Convolution"
  bottom: "conv8_1"
  top: "conv8_2"
  param {
    lr_mult: 1
    decay_mult: 1
  }
  param {
    lr_mult: 2
    decay_mult: 0
  }
  convolution_param {
    num_output: 256
    pad: 0
    kernel_size: 3
    stride: 1
    weight_filler {
      type: "xavier"
    }
    bias_filler {
      type: "constant"
      value: 0
    }
  }
}
layer {
  name: "conv8_2_relu"
  type: "ReLU"
  bottom: "conv8_2"
  top: "conv8_2"
}
layer {
  name: "conv9_1"
  type: "Convolution"
  bottom: "conv8_2"
  top: "conv9_1"
  param {
    lr_mult: 1
    decay_mult: 1
  }
  param {
    lr_mult: 2
    decay_mult: 0
  }
  convolution_param {
    num_output: 128
    pad: 0
    kernel_size: 1
    stride: 1
    weight_filler {
      type: "xavier"
    }
    bias_filler {
      type: "constant"
      value: 0
    }
  }
}
layer {
  name: "conv9_1_relu"
  type: "ReLU"
  bottom: "conv9_1"
  top: "conv9_1"
}
layer {
  name: "conv9_2"
  type: "Convolution"
  bottom: "conv9_1"
  top: "conv9_2"
  param {
    lr_mult: 1
    decay_mult: 1
  }
  param {
    lr_mult: 2
    decay_mult: 0
  }
  convolution_param {
    num_output: 256
    pad: 0
    kernel_size: 3
    stride: 1
    weight_filler {
      type: "xavier"
    }
    bias_filler {
      type: "constant"
      value: 0
    }
  }
}
layer {
  name: "conv9_2_relu"
  type: "ReLU"
  bottom: "conv9_2"
  top: "conv9_2"
}
layer {
  name: "conv4_3_norm"
  type: "Normalize"
  bottom: "conv4_3"
  top: "conv4_3_norm"
  norm_param {
    across_spatial: false
    scale_filler {
      type: "constant"
      value: 20
    }
    channel_shared: false
  }
}
layer {
  name: "conv4_3_norm_mbox_loc"
  type: "Convolution"
  bottom: "conv4_3_norm"
  top: "conv4_3_norm_mbox_loc"
  param {
    lr_mult: 1
    decay_mult: 1
  }
  param {
    lr_mult: 2
    decay_mult: 0
  }
  convolution_param {
    num_output: 16
    pad: 1
    kernel_size: 3
    stride: 1
    weight_filler {
      type: "xavier"
    }
    bias_filler {
      type: "constant"
      value: 0
    }
  }
}
layer {
  name: "conv4_3_norm_mbox_loc_perm"
  type: "Permute"
  bottom: "conv4_3_norm_mbox_loc"
  top: "conv4_3_norm_mbox_loc_perm"
  permute_param {
    order: 0
    order: 2
    order: 3
    order: 1
  }
}
layer {
  name: "conv4_3_norm_mbox_loc_flat"
  type: "Flatten"
  bottom: "conv4_3_norm_mbox_loc_perm"
  top: "conv4_3_norm_mbox_loc_flat"
  flatten_param {
    axis: 1
  }
}
layer {
  name: "conv4_3_norm_mbox_conf"
  type: "Convolution"
  bottom: "conv4_3_norm"
  top: "conv4_3_norm_mbox_conf"
  param {
    lr_mult: 1
    decay_mult: 1
  }
  param {
    lr_mult: 2
    decay_mult: 0
  }
  convolution_param {
    num_output: 16
    pad: 1
    kernel_size: 3
    stride: 1
    weight_filler {
      type: "xavier"
    }
    bias_filler {
      type: "constant"
      value: 0
    }
  }
}
layer {
  name: "conv4_3_norm_mbox_conf_perm"
  type: "Permute"
  bottom: "conv4_3_norm_mbox_conf"
  top: "conv4_3_norm_mbox_conf_perm"
  permute_param {
    order: 0
    order: 2
    order: 3
    order: 1
  }
}
layer {
  name: "conv4_3_norm_mbox_conf_flat"
  type: "Flatten"
  bottom: "conv4_3_norm_mbox_conf_perm"
  top: "conv4_3_norm_mbox_conf_flat"
  flatten_param {
    axis: 1
  }
}
layer {
  name: "conv4_3_norm_mbox_priorbox"
  type: "PriorBox"
  bottom: "conv4_3_norm"
  bottom: "data"
  top: "conv4_3_norm_mbox_priorbox"
  prior_box_param {
    min_size: 30
    max_size: 60
    aspect_ratio: 2
    flip: true
    clip: false
    variance: 0.1
    variance: 0.1
    variance: 0.2
    variance: 0.2
    step: 8
    offset: 0.5
  }
}
layer {
  name: "fc7_mbox_loc"
  type: "Convolution"
  bottom: "fc7"
  top: "fc7_mbox_loc"
  param {
    lr_mult: 1
    decay_mult: 1
  }
  param {
    lr_mult: 2
    decay_mult: 0
  }
  convolution_param {
    num_output: 24
    pad: 1
    kernel_size: 3
    stride: 1
    weight_filler {
      type: "xavier"
    }
    bias_filler {
      type: "constant"
      value: 0
    }
  }
}
layer {
  name: "fc7_mbox_loc_perm"
  type: "Permute"
  bottom: "fc7_mbox_loc"
  top: "fc7_mbox_loc_perm"
  permute_param {
    order: 0
    order: 2
    order: 3
    order: 1
  }
}
layer {
  name: "fc7_mbox_loc_flat"
  type: "Flatten"
  bottom: "fc7_mbox_loc_perm"
  top: "fc7_mbox_loc_flat"
  flatten_param {
    axis: 1
  }
}
layer {
  name: "fc7_mbox_conf"
  type: "Convolution"
  bottom: "fc7"
  top: "fc7_mbox_conf"
  param {
    lr_mult: 1
    decay_mult: 1
  }
  param {
    lr_mult: 2
    decay_mult: 0
  }
  convolution_param {
    num_output: 24
    pad: 1
    kernel_size: 3
    stride: 1
    weight_filler {
      type: "xavier"
    }
    bias_filler {
      type: "constant"
      value: 0
    }
  }
}
layer {
  name: "fc7_mbox_conf_perm"
  type: "Permute"
  bottom: "fc7_mbox_conf"
  top: "fc7_mbox_conf_perm"
  permute_param {
    order: 0
    order: 2
    order: 3
    order: 1
  }
}
layer {
  name: "fc7_mbox_conf_flat"
  type: "Flatten"
  bottom: "fc7_mbox_conf_perm"
  top: "fc7_mbox_conf_flat"
  flatten_param {
    axis: 1
  }
}
layer {
  name: "fc7_mbox_priorbox"
  type: "PriorBox"
  bottom: "fc7"
  bottom: "data"
  top: "fc7_mbox_priorbox"
  prior_box_param {
    min_size: 60
    max_size: 111
    aspect_ratio: 2
    aspect_ratio: 3
    flip: true
    clip: false
    variance: 0.1
    variance: 0.1
    variance: 0.2
    variance: 0.2
    step: 16
    offset: 0.5
  }
}
layer {
  name: "conv6_2_mbox_loc"
  type: "Convolution"
  bottom: "conv6_2"
  top: "conv6_2_mbox_loc"
  param {
    lr_mult: 1
    decay_mult: 1
  }
  param {
    lr_mult: 2
    decay_mult: 0
  }
  convolution_param {
    num_output: 24
    pad: 1
    kernel_size: 3
    stride: 1
    weight_filler {
      type: "xavier"
    }
    bias_filler {
      type: "constant"
      value: 0
    }
  }
}
layer {
  name: "conv6_2_mbox_loc_perm"
  type: "Permute"
  bottom: "conv6_2_mbox_loc"
  top: "conv6_2_mbox_loc_perm"
  permute_param {
    order: 0
    order: 2
    order: 3
    order: 1
  }
}
layer {
  name: "conv6_2_mbox_loc_flat"
  type: "Flatten"
  bottom: "conv6_2_mbox_loc_perm"
  top: "conv6_2_mbox_loc_flat"
  flatten_param {
    axis: 1
  }
}
layer {
  name: "conv6_2_mbox_conf"
  type: "Convolution"
  bottom: "conv6_2"
  top: "conv6_2_mbox_conf"
  param {
    lr_mult: 1
    decay_mult: 1
  }
  param {
    lr_mult: 2
    decay_mult: 0
  }
  convolution_param {
    num_output: 24
    pad: 1
    kernel_size: 3
    stride: 1
    weight_filler {
      type: "xavier"
    }
    bias_filler {
      type: "constant"
      value: 0
    }
  }
}
layer {
  name: "conv6_2_mbox_conf_perm"
  type: "Permute"
  bottom: "conv6_2_mbox_conf"
  top: "conv6_2_mbox_conf_perm"
  permute_param {
    order: 0
    order: 2
    order: 3
    order: 1
  }
}
layer {
  name: "conv6_2_mbox_conf_flat"
  type: "Flatten"
  bottom: "conv6_2_mbox_conf_perm"
  top: "conv6_2_mbox_conf_flat"
  flatten_param {
    axis: 1
  }
}
layer {
  name: "conv6_2_mbox_priorbox"
  type: "PriorBox"
  bottom: "conv6_2"
  bottom: "data"
  top: "conv6_2_mbox_priorbox"
  prior_box_param {
    min_size: 111
    max_size: 162
    aspect_ratio: 2
    aspect_ratio: 3
    flip: true
    clip: false
    variance: 0.1
    variance: 0.1
    variance: 0.2
    variance: 0.2
    step: 32
    offset: 0.5
  }
}
layer {
  name: "conv7_2_mbox_loc"
  type: "Convolution"
  bottom: "conv7_2"
  top: "conv7_2_mbox_loc"
  param {
    lr_mult: 1
    decay_mult: 1
  }
  param {
    lr_mult: 2
    decay_mult: 0
  }
  convolution_param {
    num_output: 24
    pad: 1
    kernel_size: 3
    stride: 1
    weight_filler {
      type: "xavier"
    }
    bias_filler {
      type: "constant"
      value: 0
    }
  }
}
layer {
  name: "conv7_2_mbox_loc_perm"
  type: "Permute"
  bottom: "conv7_2_mbox_loc"
  top: "conv7_2_mbox_loc_perm"
  permute_param {
    order: 0
    order: 2
    order: 3
    order: 1
  }
}
layer {
  name: "conv7_2_mbox_loc_flat"
  type: "Flatten"
  bottom: "conv7_2_mbox_loc_perm"
  top: "conv7_2_mbox_loc_flat"
  flatten_param {
    axis: 1
  }
}
layer {
  name: "conv7_2_mbox_conf"
  type: "Convolution"
  bottom: "conv7_2"
  top: "conv7_2_mbox_conf"
  param {
    lr_mult: 1
    decay_mult: 1
  }
  param {
    lr_mult: 2
    decay_mult: 0
  }
  convolution_param {
    num_output: 24
    pad: 1
    kernel_size: 3
    stride: 1
    weight_filler {
      type: "xavier"
    }
    bias_filler {
      type: "constant"
      value: 0
    }
  }
}
layer {
  name: "conv7_2_mbox_conf_perm"
  type: "Permute"
  bottom: "conv7_2_mbox_conf"
  top: "conv7_2_mbox_conf_perm"
  permute_param {
    order: 0
    order: 2
    order: 3
    order: 1
  }
}
layer {
  name: "conv7_2_mbox_conf_flat"
  type: "Flatten"
  bottom: "conv7_2_mbox_conf_perm"
  top: "conv7_2_mbox_conf_flat"
  flatten_param {
    axis: 1
  }
}
layer {
  name: "conv7_2_mbox_priorbox"
  type: "PriorBox"
  bottom: "conv7_2"
  bottom: "data"
  top: "conv7_2_mbox_priorbox"
  prior_box_param {
    min_size: 162
    max_size: 213
    aspect_ratio: 2
    aspect_ratio: 3
    flip: true
    clip: false
    variance: 0.1
    variance: 0.1
    variance: 0.2
    variance: 0.2
    step: 64
    offset: 0.5
  }
}
layer {
  name: "conv8_2_mbox_loc"
  type: "Convolution"
  bottom: "conv8_2"
  top: "conv8_2_mbox_loc"
  param {
    lr_mult: 1
    decay_mult: 1
  }
  param {
    lr_mult: 2
    decay_mult: 0
  }
  convolution_param {
    num_output: 16
    pad: 1
    kernel_size: 3
    stride: 1
    weight_filler {
      type: "xavier"
    }
    bias_filler {
      type: "constant"
      value: 0
    }
  }
}
layer {
  name: "conv8_2_mbox_loc_perm"
  type: "Permute"
  bottom: "conv8_2_mbox_loc"
  top: "conv8_2_mbox_loc_perm"
  permute_param {
    order: 0
    order: 2
    order: 3
    order: 1
  }
}
layer {
  name: "conv8_2_mbox_loc_flat"
  type: "Flatten"
  bottom: "conv8_2_mbox_loc_perm"
  top: "conv8_2_mbox_loc_flat"
  flatten_param {
    axis: 1
  }
}
layer {
  name: "conv8_2_mbox_conf"
  type: "Convolution"
  bottom: "conv8_2"
  top: "conv8_2_mbox_conf"
  param {
    lr_mult: 1
    decay_mult: 1
  }
  param {
    lr_mult: 2
    decay_mult: 0
  }
  convolution_param {
    num_output: 16
    pad: 1
    kernel_size: 3
    stride: 1
    weight_filler {
      type: "xavier"
    }
    bias_filler {
      type: "constant"
      value: 0
    }
  }
}
layer {
  name: "conv8_2_mbox_conf_perm"
  type: "Permute"
  bottom: "conv8_2_mbox_conf"
  top: "conv8_2_mbox_conf_perm"
  permute_param {
    order: 0
    order: 2
    order: 3
    order: 1
  }
}
layer {
  name: "conv8_2_mbox_conf_flat"
  type: "Flatten"
  bottom: "conv8_2_mbox_conf_perm"
  top: "conv8_2_mbox_conf_flat"
  flatten_param {
    axis: 1
  }
}
layer {
  name: "conv8_2_mbox_priorbox"
  type: "PriorBox"
  bottom: "conv8_2"
  bottom: "data"
  top: "conv8_2_mbox_priorbox"
  prior_box_param {
    min_size: 213
    max_size: 264
    aspect_ratio: 2
    flip: true
    clip: false
    variance: 0.1
    variance: 0.1
    variance: 0.2
    variance: 0.2
    step: 100
    offset: 0.5
  }
}
layer {
  name: "conv9_2_mbox_loc"
  type: "Convolution"
  bottom: "conv9_2"
  top: "conv9_2_mbox_loc"
  param {
    lr_mult: 1
    decay_mult: 1
  }
  param {
    lr_mult: 2
    decay_mult: 0
  }
  convolution_param {
    num_output: 16
    pad: 1
    kernel_size: 3
    stride: 1
    weight_filler {
      type: "xavier"
    }
    bias_filler {
      type: "constant"
      value: 0
    }
  }
}
layer {
  name: "conv9_2_mbox_loc_perm"
  type: "Permute"
  bottom: "conv9_2_mbox_loc"
  top: "conv9_2_mbox_loc_perm"
  permute_param {
    order: 0
    order: 2
    order: 3
    order: 1
  }
}
layer {
  name: "conv9_2_mbox_loc_flat"
  type: "Flatten"
  bottom: "conv9_2_mbox_loc_perm"
  top: "conv9_2_mbox_loc_flat"
  flatten_param {
    axis: 1
  }
}
layer {
  name: "conv9_2_mbox_conf"
  type: "Convolution"
  bottom: "conv9_2"
  top: "conv9_2_mbox_conf"
  param {
    lr_mult: 1
    decay_mult: 1
  }
  param {
    lr_mult: 2
    decay_mult: 0
  }
  convolution_param {
    num_output: 16
    pad: 1
    kernel_size: 3
    stride: 1
    weight_filler {
      type: "xavier"
    }
    bias_filler {
      type: "constant"
      value: 0
    }
  }
}
layer {
  name: "conv9_2_mbox_conf_perm"
  type: "Permute"
  bottom: "conv9_2_mbox_conf"
  top: "conv9_2_mbox_conf_perm"
  permute_param {
    order: 0
    order: 2
    order: 3
    order: 1
  }
}
layer {
  name: "conv9_2_mbox_conf_flat"
  type: "Flatten"
  bottom: "conv9_2_mbox_conf_perm"
  top: "conv9_2_mbox_conf_flat"
  flatten_param {
    axis: 1
  }
}
layer {
  name: "conv9_2_mbox_priorbox"
  type: "PriorBox"
  bottom: "conv9_2"
  bottom: "data"
  top: "conv9_2_mbox_priorbox"
  prior_box_param {
    min_size: 264
    max_size: 315
    aspect_ratio: 2
    flip: true
    clip: false
    variance: 0.1
    variance: 0.1
    variance: 0.2
    variance: 0.2
    step: 300
    offset: 0.5
  }
}
layer {
  name: "mbox_loc"
  type: "Concat"
  bottom: "conv4_3_norm_mbox_loc_flat"
  bottom: "fc7_mbox_loc_flat"
  bottom: "conv6_2_mbox_loc_flat"
  bottom: "conv7_2_mbox_loc_flat"
  bottom: "conv8_2_mbox_loc_flat"
  bottom: "conv9_2_mbox_loc_flat"
  top: "mbox_loc"
  concat_param {
    axis: 1
  }
}
layer {
  name: "mbox_conf"
  type: "Concat"
  bottom: "conv4_3_norm_mbox_conf_flat"
  bottom: "fc7_mbox_conf_flat"
  bottom: "conv6_2_mbox_conf_flat"
  bottom: "conv7_2_mbox_conf_flat"
  bottom: "conv8_2_mbox_conf_flat"
  bottom: "conv9_2_mbox_conf_flat"
  top: "mbox_conf"
  concat_param {
    axis: 1
  }
}
layer {
  name: "mbox_priorbox"
  type: "Concat"
  bottom: "conv4_3_norm_mbox_priorbox"
  bottom: "fc7_mbox_priorbox"
  bottom: "conv6_2_mbox_priorbox"
  bottom: "conv7_2_mbox_priorbox"
  bottom: "conv8_2_mbox_priorbox"
  bottom: "conv9_2_mbox_priorbox"
  top: "mbox_priorbox"
  concat_param {
    axis: 2
  }
}
layer {
  name: "mbox_loss"
  type: "MultiBoxLoss"
  bottom: "mbox_loc"
  bottom: "mbox_conf"
  bottom: "mbox_priorbox"
  bottom: "label"
  top: "mbox_loss"
  include {
    phase: TRAIN
  }
  propagate_down: true
  propagate_down: true
  propagate_down: false
  propagate_down: false
  loss_param {
    normalization: VALID
  }
  multibox_loss_param {
    loc_loss_type: SMOOTH_L1
    conf_loss_type: SOFTMAX
    loc_weight: 1
    num_classes: 4
    share_location: true
    match_type: PER_PREDICTION
    overlap_threshold: 0.5
    use_prior_for_matching: true
    background_label_id: 0
    use_difficult_gt: true
    neg_pos_ratio: 3
    neg_overlap: 0.5
    code_type: CENTER_SIZE
    ignore_cross_boundary_bbox: false
    mining_type: MAX_NEGATIVE
  }
}
I0602 09:59:17.072507 20329 layer_factory.hpp:77] Creating layer data
I0602 09:59:17.072626 20329 net.cpp:100] Creating Layer data
I0602 09:59:17.072636 20329 net.cpp:408] data -> data
I0602 09:59:17.072661 20329 net.cpp:408] data -> label
I0602 09:59:17.073612 20345 db_lmdb.cpp:35] Opened lmdb examples/tbs_300x300_HSIL_10x/tbs_300x300_HSIL_10x_trainval_lmdb
I0602 09:59:17.082198 20329 annotated_data_layer.cpp:62] output data size: 32,3,300,300
I0602 09:59:17.140635 20329 net.cpp:150] Setting up data
I0602 09:59:17.140651 20329 net.cpp:157] Top shape: 32 3 300 300 (8640000)
I0602 09:59:17.140655 20329 net.cpp:157] Top shape: 1 1 1 8 (8)
I0602 09:59:17.140686 20329 net.cpp:165] Memory required for data: 34560032
I0602 09:59:17.140694 20329 layer_factory.hpp:77] Creating layer data_data_0_split
I0602 09:59:17.140718 20329 net.cpp:100] Creating Layer data_data_0_split
I0602 09:59:17.140724 20329 net.cpp:434] data_data_0_split <- data
I0602 09:59:17.140748 20329 net.cpp:408] data_data_0_split -> data_data_0_split_0
I0602 09:59:17.140755 20329 net.cpp:408] data_data_0_split -> data_data_0_split_1
I0602 09:59:17.140768 20329 net.cpp:408] data_data_0_split -> data_data_0_split_2
I0602 09:59:17.140774 20329 net.cpp:408] data_data_0_split -> data_data_0_split_3
I0602 09:59:17.140792 20329 net.cpp:408] data_data_0_split -> data_data_0_split_4
I0602 09:59:17.140796 20329 net.cpp:408] data_data_0_split -> data_data_0_split_5
I0602 09:59:17.140800 20329 net.cpp:408] data_data_0_split -> data_data_0_split_6
I0602 09:59:17.140871 20329 net.cpp:150] Setting up data_data_0_split
I0602 09:59:17.140875 20329 net.cpp:157] Top shape: 32 3 300 300 (8640000)
I0602 09:59:17.140878 20329 net.cpp:157] Top shape: 32 3 300 300 (8640000)
I0602 09:59:17.140880 20329 net.cpp:157] Top shape: 32 3 300 300 (8640000)
I0602 09:59:17.140883 20329 net.cpp:157] Top shape: 32 3 300 300 (8640000)
I0602 09:59:17.140887 20329 net.cpp:157] Top shape: 32 3 300 300 (8640000)
I0602 09:59:17.140888 20329 net.cpp:157] Top shape: 32 3 300 300 (8640000)
I0602 09:59:17.140892 20329 net.cpp:157] Top shape: 32 3 300 300 (8640000)
I0602 09:59:17.140893 20329 net.cpp:165] Memory required for data: 276480032
I0602 09:59:17.140895 20329 layer_factory.hpp:77] Creating layer conv1_1
I0602 09:59:17.140908 20329 net.cpp:100] Creating Layer conv1_1
I0602 09:59:17.140913 20329 net.cpp:434] conv1_1 <- data_data_0_split_0
I0602 09:59:17.140920 20329 net.cpp:408] conv1_1 -> conv1_1
I0602 09:59:17.311712 20329 net.cpp:150] Setting up conv1_1
I0602 09:59:17.311733 20329 net.cpp:157] Top shape: 32 64 300 300 (184320000)
I0602 09:59:17.311735 20329 net.cpp:165] Memory required for data: 1013760032
I0602 09:59:17.311753 20329 layer_factory.hpp:77] Creating layer relu1_1
I0602 09:59:17.311777 20329 net.cpp:100] Creating Layer relu1_1
I0602 09:59:17.311799 20329 net.cpp:434] relu1_1 <- conv1_1
I0602 09:59:17.311818 20329 net.cpp:395] relu1_1 -> conv1_1 (in-place)
I0602 09:59:17.311977 20329 net.cpp:150] Setting up relu1_1
I0602 09:59:17.311985 20329 net.cpp:157] Top shape: 32 64 300 300 (184320000)
I0602 09:59:17.311990 20329 net.cpp:165] Memory required for data: 1751040032
I0602 09:59:17.311993 20329 layer_factory.hpp:77] Creating layer conv1_2
I0602 09:59:17.312006 20329 net.cpp:100] Creating Layer conv1_2
I0602 09:59:17.312031 20329 net.cpp:434] conv1_2 <- conv1_1
I0602 09:59:17.312039 20329 net.cpp:408] conv1_2 -> conv1_2
I0602 09:59:17.314132 20329 net.cpp:150] Setting up conv1_2
I0602 09:59:17.314158 20329 net.cpp:157] Top shape: 32 64 300 300 (184320000)
I0602 09:59:17.314162 20329 net.cpp:165] Memory required for data: 2488320032
I0602 09:59:17.314175 20329 layer_factory.hpp:77] Creating layer relu1_2
I0602 09:59:17.314183 20329 net.cpp:100] Creating Layer relu1_2
I0602 09:59:17.314189 20329 net.cpp:434] relu1_2 <- conv1_2
I0602 09:59:17.314209 20329 net.cpp:395] relu1_2 -> conv1_2 (in-place)
I0602 09:59:17.314874 20329 net.cpp:150] Setting up relu1_2
I0602 09:59:17.314898 20329 net.cpp:157] Top shape: 32 64 300 300 (184320000)
I0602 09:59:17.314900 20329 net.cpp:165] Memory required for data: 3225600032
I0602 09:59:17.314905 20329 layer_factory.hpp:77] Creating layer pool1
I0602 09:59:17.314925 20329 net.cpp:100] Creating Layer pool1
I0602 09:59:17.314929 20329 net.cpp:434] pool1 <- conv1_2
I0602 09:59:17.314935 20329 net.cpp:408] pool1 -> pool1
I0602 09:59:17.314998 20329 net.cpp:150] Setting up pool1
I0602 09:59:17.315006 20329 net.cpp:157] Top shape: 32 64 150 150 (46080000)
I0602 09:59:17.315009 20329 net.cpp:165] Memory required for data: 3409920032
I0602 09:59:17.315013 20329 layer_factory.hpp:77] Creating layer conv2_1
I0602 09:59:17.315023 20329 net.cpp:100] Creating Layer conv2_1
I0602 09:59:17.315037 20329 net.cpp:434] conv2_1 <- pool1
I0602 09:59:17.315058 20329 net.cpp:408] conv2_1 -> conv2_1
I0602 09:59:17.316254 20329 net.cpp:150] Setting up conv2_1
I0602 09:59:17.316264 20329 net.cpp:157] Top shape: 32 128 150 150 (92160000)
I0602 09:59:17.316269 20329 net.cpp:165] Memory required for data: 3778560032
I0602 09:59:17.316280 20329 layer_factory.hpp:77] Creating layer relu2_1
I0602 09:59:17.316288 20329 net.cpp:100] Creating Layer relu2_1
I0602 09:59:17.316293 20329 net.cpp:434] relu2_1 <- conv2_1
I0602 09:59:17.316300 20329 net.cpp:395] relu2_1 -> conv2_1 (in-place)
I0602 09:59:17.316819 20329 net.cpp:150] Setting up relu2_1
I0602 09:59:17.316828 20329 net.cpp:157] Top shape: 32 128 150 150 (92160000)
I0602 09:59:17.316833 20329 net.cpp:165] Memory required for data: 4147200032
I0602 09:59:17.316838 20329 layer_factory.hpp:77] Creating layer conv2_2
I0602 09:59:17.316846 20329 net.cpp:100] Creating Layer conv2_2
I0602 09:59:17.316850 20329 net.cpp:434] conv2_2 <- conv2_1
I0602 09:59:17.316857 20329 net.cpp:408] conv2_2 -> conv2_2
I0602 09:59:17.318749 20329 net.cpp:150] Setting up conv2_2
I0602 09:59:17.318759 20329 net.cpp:157] Top shape: 32 128 150 150 (92160000)
I0602 09:59:17.318763 20329 net.cpp:165] Memory required for data: 4515840032
I0602 09:59:17.318770 20329 layer_factory.hpp:77] Creating layer relu2_2
I0602 09:59:17.318784 20329 net.cpp:100] Creating Layer relu2_2
I0602 09:59:17.318790 20329 net.cpp:434] relu2_2 <- conv2_2
I0602 09:59:17.318796 20329 net.cpp:395] relu2_2 -> conv2_2 (in-place)
I0602 09:59:17.318918 20329 net.cpp:150] Setting up relu2_2
I0602 09:59:17.318927 20329 net.cpp:157] Top shape: 32 128 150 150 (92160000)
I0602 09:59:17.318929 20329 net.cpp:165] Memory required for data: 4884480032
I0602 09:59:17.318933 20329 layer_factory.hpp:77] Creating layer pool2
I0602 09:59:17.318939 20329 net.cpp:100] Creating Layer pool2
I0602 09:59:17.318943 20329 net.cpp:434] pool2 <- conv2_2
I0602 09:59:17.318949 20329 net.cpp:408] pool2 -> pool2
I0602 09:59:17.318981 20329 net.cpp:150] Setting up pool2
I0602 09:59:17.318987 20329 net.cpp:157] Top shape: 32 128 75 75 (23040000)
I0602 09:59:17.318991 20329 net.cpp:165] Memory required for data: 4976640032
I0602 09:59:17.318995 20329 layer_factory.hpp:77] Creating layer conv3_1
I0602 09:59:17.319003 20329 net.cpp:100] Creating Layer conv3_1
I0602 09:59:17.319007 20329 net.cpp:434] conv3_1 <- pool2
I0602 09:59:17.319015 20329 net.cpp:408] conv3_1 -> conv3_1
I0602 09:59:17.322700 20329 net.cpp:150] Setting up conv3_1
I0602 09:59:17.322717 20329 net.cpp:157] Top shape: 32 256 75 75 (46080000)
I0602 09:59:17.322721 20329 net.cpp:165] Memory required for data: 5160960032
I0602 09:59:17.322733 20329 layer_factory.hpp:77] Creating layer relu3_1
I0602 09:59:17.322741 20329 net.cpp:100] Creating Layer relu3_1
I0602 09:59:17.322747 20329 net.cpp:434] relu3_1 <- conv3_1
I0602 09:59:17.322757 20329 net.cpp:395] relu3_1 -> conv3_1 (in-place)
I0602 09:59:17.322896 20329 net.cpp:150] Setting up relu3_1
I0602 09:59:17.322903 20329 net.cpp:157] Top shape: 32 256 75 75 (46080000)
I0602 09:59:17.322907 20329 net.cpp:165] Memory required for data: 5345280032
I0602 09:59:17.322911 20329 layer_factory.hpp:77] Creating layer conv3_2
I0602 09:59:17.322922 20329 net.cpp:100] Creating Layer conv3_2
I0602 09:59:17.322926 20329 net.cpp:434] conv3_2 <- conv3_1
I0602 09:59:17.322932 20329 net.cpp:408] conv3_2 -> conv3_2
I0602 09:59:17.327347 20329 net.cpp:150] Setting up conv3_2
I0602 09:59:17.327363 20329 net.cpp:157] Top shape: 32 256 75 75 (46080000)
I0602 09:59:17.327366 20329 net.cpp:165] Memory required for data: 5529600032
I0602 09:59:17.327375 20329 layer_factory.hpp:77] Creating layer relu3_2
I0602 09:59:17.327383 20329 net.cpp:100] Creating Layer relu3_2
I0602 09:59:17.327389 20329 net.cpp:434] relu3_2 <- conv3_2
I0602 09:59:17.327409 20329 net.cpp:395] relu3_2 -> conv3_2 (in-place)
I0602 09:59:17.327567 20329 net.cpp:150] Setting up relu3_2
I0602 09:59:17.327575 20329 net.cpp:157] Top shape: 32 256 75 75 (46080000)
I0602 09:59:17.327579 20329 net.cpp:165] Memory required for data: 5713920032
I0602 09:59:17.327594 20329 layer_factory.hpp:77] Creating layer conv3_3
I0602 09:59:17.327607 20329 net.cpp:100] Creating Layer conv3_3
I0602 09:59:17.327611 20329 net.cpp:434] conv3_3 <- conv3_2
I0602 09:59:17.327632 20329 net.cpp:408] conv3_3 -> conv3_3
I0602 09:59:17.332053 20329 net.cpp:150] Setting up conv3_3
I0602 09:59:17.332067 20329 net.cpp:157] Top shape: 32 256 75 75 (46080000)
I0602 09:59:17.332072 20329 net.cpp:165] Memory required for data: 5898240032
I0602 09:59:17.332079 20329 layer_factory.hpp:77] Creating layer relu3_3
I0602 09:59:17.332087 20329 net.cpp:100] Creating Layer relu3_3
I0602 09:59:17.332090 20329 net.cpp:434] relu3_3 <- conv3_3
I0602 09:59:17.332098 20329 net.cpp:395] relu3_3 -> conv3_3 (in-place)
I0602 09:59:17.332226 20329 net.cpp:150] Setting up relu3_3
I0602 09:59:17.332232 20329 net.cpp:157] Top shape: 32 256 75 75 (46080000)
I0602 09:59:17.332235 20329 net.cpp:165] Memory required for data: 6082560032
I0602 09:59:17.332239 20329 layer_factory.hpp:77] Creating layer pool3
I0602 09:59:17.332247 20329 net.cpp:100] Creating Layer pool3
I0602 09:59:17.332250 20329 net.cpp:434] pool3 <- conv3_3
I0602 09:59:17.332257 20329 net.cpp:408] pool3 -> pool3
I0602 09:59:17.332291 20329 net.cpp:150] Setting up pool3
I0602 09:59:17.332298 20329 net.cpp:157] Top shape: 32 256 38 38 (11829248)
I0602 09:59:17.332301 20329 net.cpp:165] Memory required for data: 6129877024
I0602 09:59:17.332304 20329 layer_factory.hpp:77] Creating layer conv4_1
I0602 09:59:17.332314 20329 net.cpp:100] Creating Layer conv4_1
I0602 09:59:17.332319 20329 net.cpp:434] conv4_1 <- pool3
I0602 09:59:17.332324 20329 net.cpp:408] conv4_1 -> conv4_1
I0602 09:59:17.340201 20329 net.cpp:150] Setting up conv4_1
I0602 09:59:17.340219 20329 net.cpp:157] Top shape: 32 512 38 38 (23658496)
I0602 09:59:17.340222 20329 net.cpp:165] Memory required for data: 6224511008
I0602 09:59:17.340231 20329 layer_factory.hpp:77] Creating layer relu4_1
I0602 09:59:17.340240 20329 net.cpp:100] Creating Layer relu4_1
I0602 09:59:17.340245 20329 net.cpp:434] relu4_1 <- conv4_1
I0602 09:59:17.340255 20329 net.cpp:395] relu4_1 -> conv4_1 (in-place)
I0602 09:59:17.340968 20329 net.cpp:150] Setting up relu4_1
I0602 09:59:17.340977 20329 net.cpp:157] Top shape: 32 512 38 38 (23658496)
I0602 09:59:17.340981 20329 net.cpp:165] Memory required for data: 6319144992
I0602 09:59:17.340986 20329 layer_factory.hpp:77] Creating layer conv4_2
I0602 09:59:17.340997 20329 net.cpp:100] Creating Layer conv4_2
I0602 09:59:17.341003 20329 net.cpp:434] conv4_2 <- conv4_1
I0602 09:59:17.341012 20329 net.cpp:408] conv4_2 -> conv4_2
I0602 09:59:17.353591 20329 net.cpp:150] Setting up conv4_2
I0602 09:59:17.353613 20329 net.cpp:157] Top shape: 32 512 38 38 (23658496)
I0602 09:59:17.353617 20329 net.cpp:165] Memory required for data: 6413778976
I0602 09:59:17.353631 20329 layer_factory.hpp:77] Creating layer relu4_2
I0602 09:59:17.353642 20329 net.cpp:100] Creating Layer relu4_2
I0602 09:59:17.353664 20329 net.cpp:434] relu4_2 <- conv4_2
I0602 09:59:17.353672 20329 net.cpp:395] relu4_2 -> conv4_2 (in-place)
I0602 09:59:17.354321 20329 net.cpp:150] Setting up relu4_2
I0602 09:59:17.354331 20329 net.cpp:157] Top shape: 32 512 38 38 (23658496)
I0602 09:59:17.354336 20329 net.cpp:165] Memory required for data: 6508412960
I0602 09:59:17.354338 20329 layer_factory.hpp:77] Creating layer conv4_3
I0602 09:59:17.354351 20329 net.cpp:100] Creating Layer conv4_3
I0602 09:59:17.354356 20329 net.cpp:434] conv4_3 <- conv4_2
I0602 09:59:17.354363 20329 net.cpp:408] conv4_3 -> conv4_3
I0602 09:59:17.366899 20329 net.cpp:150] Setting up conv4_3
I0602 09:59:17.366917 20329 net.cpp:157] Top shape: 32 512 38 38 (23658496)
I0602 09:59:17.366921 20329 net.cpp:165] Memory required for data: 6603046944
I0602 09:59:17.366928 20329 layer_factory.hpp:77] Creating layer relu4_3
I0602 09:59:17.366936 20329 net.cpp:100] Creating Layer relu4_3
I0602 09:59:17.366940 20329 net.cpp:434] relu4_3 <- conv4_3
I0602 09:59:17.366963 20329 net.cpp:395] relu4_3 -> conv4_3 (in-place)
I0602 09:59:17.367152 20329 net.cpp:150] Setting up relu4_3
I0602 09:59:17.367161 20329 net.cpp:157] Top shape: 32 512 38 38 (23658496)
I0602 09:59:17.367163 20329 net.cpp:165] Memory required for data: 6697680928
I0602 09:59:17.367167 20329 layer_factory.hpp:77] Creating layer conv4_3_relu4_3_0_split
I0602 09:59:17.367189 20329 net.cpp:100] Creating Layer conv4_3_relu4_3_0_split
I0602 09:59:17.367194 20329 net.cpp:434] conv4_3_relu4_3_0_split <- conv4_3
I0602 09:59:17.367214 20329 net.cpp:408] conv4_3_relu4_3_0_split -> conv4_3_relu4_3_0_split_0
I0602 09:59:17.367221 20329 net.cpp:408] conv4_3_relu4_3_0_split -> conv4_3_relu4_3_0_split_1
I0602 09:59:17.367267 20329 net.cpp:150] Setting up conv4_3_relu4_3_0_split
I0602 09:59:17.367274 20329 net.cpp:157] Top shape: 32 512 38 38 (23658496)
I0602 09:59:17.367280 20329 net.cpp:157] Top shape: 32 512 38 38 (23658496)
I0602 09:59:17.367282 20329 net.cpp:165] Memory required for data: 6886948896
I0602 09:59:17.367286 20329 layer_factory.hpp:77] Creating layer pool4
I0602 09:59:17.367292 20329 net.cpp:100] Creating Layer pool4
I0602 09:59:17.367297 20329 net.cpp:434] pool4 <- conv4_3_relu4_3_0_split_0
I0602 09:59:17.367303 20329 net.cpp:408] pool4 -> pool4
I0602 09:59:17.367337 20329 net.cpp:150] Setting up pool4
I0602 09:59:17.367343 20329 net.cpp:157] Top shape: 32 512 19 19 (5914624)
I0602 09:59:17.367347 20329 net.cpp:165] Memory required for data: 6910607392
I0602 09:59:17.367349 20329 layer_factory.hpp:77] Creating layer conv5_1
I0602 09:59:17.367362 20329 net.cpp:100] Creating Layer conv5_1
I0602 09:59:17.367367 20329 net.cpp:434] conv5_1 <- pool4
I0602 09:59:17.367372 20329 net.cpp:408] conv5_1 -> conv5_1
I0602 09:59:17.380306 20329 net.cpp:150] Setting up conv5_1
I0602 09:59:17.380322 20329 net.cpp:157] Top shape: 32 512 19 19 (5914624)
I0602 09:59:17.380326 20329 net.cpp:165] Memory required for data: 6934265888
I0602 09:59:17.380333 20329 layer_factory.hpp:77] Creating layer relu5_1
I0602 09:59:17.380358 20329 net.cpp:100] Creating Layer relu5_1
I0602 09:59:17.380365 20329 net.cpp:434] relu5_1 <- conv5_1
I0602 09:59:17.380388 20329 net.cpp:395] relu5_1 -> conv5_1 (in-place)
I0602 09:59:17.380553 20329 net.cpp:150] Setting up relu5_1
I0602 09:59:17.380560 20329 net.cpp:157] Top shape: 32 512 19 19 (5914624)
I0602 09:59:17.380564 20329 net.cpp:165] Memory required for data: 6957924384
I0602 09:59:17.380568 20329 layer_factory.hpp:77] Creating layer conv5_2
I0602 09:59:17.380594 20329 net.cpp:100] Creating Layer conv5_2
I0602 09:59:17.380599 20329 net.cpp:434] conv5_2 <- conv5_1
I0602 09:59:17.380620 20329 net.cpp:408] conv5_2 -> conv5_2
I0602 09:59:17.392899 20329 net.cpp:150] Setting up conv5_2
I0602 09:59:17.392915 20329 net.cpp:157] Top shape: 32 512 19 19 (5914624)
I0602 09:59:17.392920 20329 net.cpp:165] Memory required for data: 6981582880
I0602 09:59:17.392926 20329 layer_factory.hpp:77] Creating layer relu5_2
I0602 09:59:17.392935 20329 net.cpp:100] Creating Layer relu5_2
I0602 09:59:17.392938 20329 net.cpp:434] relu5_2 <- conv5_2
I0602 09:59:17.392962 20329 net.cpp:395] relu5_2 -> conv5_2 (in-place)
I0602 09:59:17.393164 20329 net.cpp:150] Setting up relu5_2
I0602 09:59:17.393172 20329 net.cpp:157] Top shape: 32 512 19 19 (5914624)
I0602 09:59:17.393175 20329 net.cpp:165] Memory required for data: 7005241376
I0602 09:59:17.393178 20329 layer_factory.hpp:77] Creating layer conv5_3
I0602 09:59:17.393205 20329 net.cpp:100] Creating Layer conv5_3
I0602 09:59:17.393209 20329 net.cpp:434] conv5_3 <- conv5_2
I0602 09:59:17.393218 20329 net.cpp:408] conv5_3 -> conv5_3
I0602 09:59:17.405918 20329 net.cpp:150] Setting up conv5_3
I0602 09:59:17.405938 20329 net.cpp:157] Top shape: 32 512 19 19 (5914624)
I0602 09:59:17.405942 20329 net.cpp:165] Memory required for data: 7028899872
I0602 09:59:17.405949 20329 layer_factory.hpp:77] Creating layer relu5_3
I0602 09:59:17.405978 20329 net.cpp:100] Creating Layer relu5_3
I0602 09:59:17.405999 20329 net.cpp:434] relu5_3 <- conv5_3
I0602 09:59:17.406007 20329 net.cpp:395] relu5_3 -> conv5_3 (in-place)
I0602 09:59:17.406241 20329 net.cpp:150] Setting up relu5_3
I0602 09:59:17.406256 20329 net.cpp:157] Top shape: 32 512 19 19 (5914624)
I0602 09:59:17.406261 20329 net.cpp:165] Memory required for data: 7052558368
I0602 09:59:17.406265 20329 layer_factory.hpp:77] Creating layer pool5
I0602 09:59:17.406273 20329 net.cpp:100] Creating Layer pool5
I0602 09:59:17.406277 20329 net.cpp:434] pool5 <- conv5_3
I0602 09:59:17.406283 20329 net.cpp:408] pool5 -> pool5
I0602 09:59:17.406343 20329 net.cpp:150] Setting up pool5
I0602 09:59:17.406350 20329 net.cpp:157] Top shape: 32 512 19 19 (5914624)
I0602 09:59:17.406353 20329 net.cpp:165] Memory required for data: 7076216864
I0602 09:59:17.406358 20329 layer_factory.hpp:77] Creating layer fc6
I0602 09:59:17.406368 20329 net.cpp:100] Creating Layer fc6
I0602 09:59:17.406373 20329 net.cpp:434] fc6 <- pool5
I0602 09:59:17.406379 20329 net.cpp:408] fc6 -> fc6
I0602 09:59:17.428972 20329 net.cpp:150] Setting up fc6
I0602 09:59:17.428992 20329 net.cpp:157] Top shape: 32 1024 19 19 (11829248)
I0602 09:59:17.428995 20329 net.cpp:165] Memory required for data: 7123533856
I0602 09:59:17.429004 20329 layer_factory.hpp:77] Creating layer relu6
I0602 09:59:17.429015 20329 net.cpp:100] Creating Layer relu6
I0602 09:59:17.429021 20329 net.cpp:434] relu6 <- fc6
I0602 09:59:17.429044 20329 net.cpp:395] relu6 -> fc6 (in-place)
I0602 09:59:17.430027 20329 net.cpp:150] Setting up relu6
I0602 09:59:17.430037 20329 net.cpp:157] Top shape: 32 1024 19 19 (11829248)
I0602 09:59:17.430057 20329 net.cpp:165] Memory required for data: 7170850848
I0602 09:59:17.430060 20329 layer_factory.hpp:77] Creating layer fc7
I0602 09:59:17.430071 20329 net.cpp:100] Creating Layer fc7
I0602 09:59:17.430076 20329 net.cpp:434] fc7 <- fc6
I0602 09:59:17.430083 20329 net.cpp:408] fc7 -> fc7
I0602 09:59:17.436635 20329 net.cpp:150] Setting up fc7
I0602 09:59:17.436653 20329 net.cpp:157] Top shape: 32 1024 19 19 (11829248)
I0602 09:59:17.436657 20329 net.cpp:165] Memory required for data: 7218167840
I0602 09:59:17.436666 20329 layer_factory.hpp:77] Creating layer relu7
I0602 09:59:17.436691 20329 net.cpp:100] Creating Layer relu7
I0602 09:59:17.436697 20329 net.cpp:434] relu7 <- fc7
I0602 09:59:17.436704 20329 net.cpp:395] relu7 -> fc7 (in-place)
I0602 09:59:17.436882 20329 net.cpp:150] Setting up relu7
I0602 09:59:17.436889 20329 net.cpp:157] Top shape: 32 1024 19 19 (11829248)
I0602 09:59:17.436892 20329 net.cpp:165] Memory required for data: 7265484832
I0602 09:59:17.436895 20329 layer_factory.hpp:77] Creating layer fc7_relu7_0_split
I0602 09:59:17.436903 20329 net.cpp:100] Creating Layer fc7_relu7_0_split
I0602 09:59:17.436923 20329 net.cpp:434] fc7_relu7_0_split <- fc7
I0602 09:59:17.436931 20329 net.cpp:408] fc7_relu7_0_split -> fc7_relu7_0_split_0
I0602 09:59:17.436954 20329 net.cpp:408] fc7_relu7_0_split -> fc7_relu7_0_split_1
I0602 09:59:17.436983 20329 net.cpp:408] fc7_relu7_0_split -> fc7_relu7_0_split_2
I0602 09:59:17.437005 20329 net.cpp:408] fc7_relu7_0_split -> fc7_relu7_0_split_3
I0602 09:59:17.437100 20329 net.cpp:150] Setting up fc7_relu7_0_split
I0602 09:59:17.437108 20329 net.cpp:157] Top shape: 32 1024 19 19 (11829248)
I0602 09:59:17.437113 20329 net.cpp:157] Top shape: 32 1024 19 19 (11829248)
I0602 09:59:17.437117 20329 net.cpp:157] Top shape: 32 1024 19 19 (11829248)
I0602 09:59:17.437122 20329 net.cpp:157] Top shape: 32 1024 19 19 (11829248)
I0602 09:59:17.437127 20329 net.cpp:165] Memory required for data: 7454752800
I0602 09:59:17.437130 20329 layer_factory.hpp:77] Creating layer conv6_1
I0602 09:59:17.437144 20329 net.cpp:100] Creating Layer conv6_1
I0602 09:59:17.437161 20329 net.cpp:434] conv6_1 <- fc7_relu7_0_split_0
I0602 09:59:17.437182 20329 net.cpp:408] conv6_1 -> conv6_1
I0602 09:59:17.440495 20329 net.cpp:150] Setting up conv6_1
I0602 09:59:17.440510 20329 net.cpp:157] Top shape: 32 256 19 19 (2957312)
I0602 09:59:17.440513 20329 net.cpp:165] Memory required for data: 7466582048
I0602 09:59:17.440522 20329 layer_factory.hpp:77] Creating layer conv6_1_relu
I0602 09:59:17.440531 20329 net.cpp:100] Creating Layer conv6_1_relu
I0602 09:59:17.440544 20329 net.cpp:434] conv6_1_relu <- conv6_1
I0602 09:59:17.440554 20329 net.cpp:395] conv6_1_relu -> conv6_1 (in-place)
I0602 09:59:17.440690 20329 net.cpp:150] Setting up conv6_1_relu
I0602 09:59:17.440698 20329 net.cpp:157] Top shape: 32 256 19 19 (2957312)
I0602 09:59:17.440701 20329 net.cpp:165] Memory required for data: 7478411296
I0602 09:59:17.440706 20329 layer_factory.hpp:77] Creating layer conv6_2
I0602 09:59:17.440716 20329 net.cpp:100] Creating Layer conv6_2
I0602 09:59:17.440721 20329 net.cpp:434] conv6_2 <- conv6_1
I0602 09:59:17.440728 20329 net.cpp:408] conv6_2 -> conv6_2
I0602 09:59:17.447675 20329 net.cpp:150] Setting up conv6_2
I0602 09:59:17.447695 20329 net.cpp:157] Top shape: 32 512 10 10 (1638400)
I0602 09:59:17.447698 20329 net.cpp:165] Memory required for data: 7484964896
I0602 09:59:17.447713 20329 layer_factory.hpp:77] Creating layer conv6_2_relu
I0602 09:59:17.447723 20329 net.cpp:100] Creating Layer conv6_2_relu
I0602 09:59:17.447743 20329 net.cpp:434] conv6_2_relu <- conv6_2
I0602 09:59:17.447753 20329 net.cpp:395] conv6_2_relu -> conv6_2 (in-place)
I0602 09:59:17.447890 20329 net.cpp:150] Setting up conv6_2_relu
I0602 09:59:17.447898 20329 net.cpp:157] Top shape: 32 512 10 10 (1638400)
I0602 09:59:17.447902 20329 net.cpp:165] Memory required for data: 7491518496
I0602 09:59:17.447906 20329 layer_factory.hpp:77] Creating layer conv6_2_conv6_2_relu_0_split
I0602 09:59:17.447913 20329 net.cpp:100] Creating Layer conv6_2_conv6_2_relu_0_split
I0602 09:59:17.447932 20329 net.cpp:434] conv6_2_conv6_2_relu_0_split <- conv6_2
I0602 09:59:17.447939 20329 net.cpp:408] conv6_2_conv6_2_relu_0_split -> conv6_2_conv6_2_relu_0_split_0
I0602 09:59:17.447948 20329 net.cpp:408] conv6_2_conv6_2_relu_0_split -> conv6_2_conv6_2_relu_0_split_1
I0602 09:59:17.447957 20329 net.cpp:408] conv6_2_conv6_2_relu_0_split -> conv6_2_conv6_2_relu_0_split_2
I0602 09:59:17.447963 20329 net.cpp:408] conv6_2_conv6_2_relu_0_split -> conv6_2_conv6_2_relu_0_split_3
I0602 09:59:17.448027 20329 net.cpp:150] Setting up conv6_2_conv6_2_relu_0_split
I0602 09:59:17.448034 20329 net.cpp:157] Top shape: 32 512 10 10 (1638400)
I0602 09:59:17.448038 20329 net.cpp:157] Top shape: 32 512 10 10 (1638400)
I0602 09:59:17.448042 20329 net.cpp:157] Top shape: 32 512 10 10 (1638400)
I0602 09:59:17.448048 20329 net.cpp:157] Top shape: 32 512 10 10 (1638400)
I0602 09:59:17.448051 20329 net.cpp:165] Memory required for data: 7517732896
I0602 09:59:17.448055 20329 layer_factory.hpp:77] Creating layer conv7_1
I0602 09:59:17.448065 20329 net.cpp:100] Creating Layer conv7_1
I0602 09:59:17.448071 20329 net.cpp:434] conv7_1 <- conv6_2_conv6_2_relu_0_split_0
I0602 09:59:17.448079 20329 net.cpp:408] conv7_1 -> conv7_1
I0602 09:59:17.449373 20329 net.cpp:150] Setting up conv7_1
I0602 09:59:17.449383 20329 net.cpp:157] Top shape: 32 128 10 10 (409600)
I0602 09:59:17.449388 20329 net.cpp:165] Memory required for data: 7519371296
I0602 09:59:17.449394 20329 layer_factory.hpp:77] Creating layer conv7_1_relu
I0602 09:59:17.449401 20329 net.cpp:100] Creating Layer conv7_1_relu
I0602 09:59:17.449406 20329 net.cpp:434] conv7_1_relu <- conv7_1
I0602 09:59:17.449414 20329 net.cpp:395] conv7_1_relu -> conv7_1 (in-place)
I0602 09:59:17.449542 20329 net.cpp:150] Setting up conv7_1_relu
I0602 09:59:17.449550 20329 net.cpp:157] Top shape: 32 128 10 10 (409600)
I0602 09:59:17.449553 20329 net.cpp:165] Memory required for data: 7521009696
I0602 09:59:17.449558 20329 layer_factory.hpp:77] Creating layer conv7_2
I0602 09:59:17.449568 20329 net.cpp:100] Creating Layer conv7_2
I0602 09:59:17.449573 20329 net.cpp:434] conv7_2 <- conv7_1
I0602 09:59:17.449579 20329 net.cpp:408] conv7_2 -> conv7_2
I0602 09:59:17.452635 20329 net.cpp:150] Setting up conv7_2
I0602 09:59:17.452654 20329 net.cpp:157] Top shape: 32 256 5 5 (204800)
I0602 09:59:17.452658 20329 net.cpp:165] Memory required for data: 7521828896
I0602 09:59:17.452667 20329 layer_factory.hpp:77] Creating layer conv7_2_relu
I0602 09:59:17.452677 20329 net.cpp:100] Creating Layer conv7_2_relu
I0602 09:59:17.452682 20329 net.cpp:434] conv7_2_relu <- conv7_2
I0602 09:59:17.452708 20329 net.cpp:395] conv7_2_relu -> conv7_2 (in-place)
I0602 09:59:17.452857 20329 net.cpp:150] Setting up conv7_2_relu
I0602 09:59:17.452865 20329 net.cpp:157] Top shape: 32 256 5 5 (204800)
I0602 09:59:17.452868 20329 net.cpp:165] Memory required for data: 7522648096
I0602 09:59:17.452872 20329 layer_factory.hpp:77] Creating layer conv7_2_conv7_2_relu_0_split
I0602 09:59:17.452878 20329 net.cpp:100] Creating Layer conv7_2_conv7_2_relu_0_split
I0602 09:59:17.452883 20329 net.cpp:434] conv7_2_conv7_2_relu_0_split <- conv7_2
I0602 09:59:17.452891 20329 net.cpp:408] conv7_2_conv7_2_relu_0_split -> conv7_2_conv7_2_relu_0_split_0
I0602 09:59:17.452900 20329 net.cpp:408] conv7_2_conv7_2_relu_0_split -> conv7_2_conv7_2_relu_0_split_1
I0602 09:59:17.452909 20329 net.cpp:408] conv7_2_conv7_2_relu_0_split -> conv7_2_conv7_2_relu_0_split_2
I0602 09:59:17.452917 20329 net.cpp:408] conv7_2_conv7_2_relu_0_split -> conv7_2_conv7_2_relu_0_split_3
I0602 09:59:17.452982 20329 net.cpp:150] Setting up conv7_2_conv7_2_relu_0_split
I0602 09:59:17.452989 20329 net.cpp:157] Top shape: 32 256 5 5 (204800)
I0602 09:59:17.452993 20329 net.cpp:157] Top shape: 32 256 5 5 (204800)
I0602 09:59:17.452998 20329 net.cpp:157] Top shape: 32 256 5 5 (204800)
I0602 09:59:17.453003 20329 net.cpp:157] Top shape: 32 256 5 5 (204800)
I0602 09:59:17.453006 20329 net.cpp:165] Memory required for data: 7525924896
I0602 09:59:17.453009 20329 layer_factory.hpp:77] Creating layer conv8_1
I0602 09:59:17.453022 20329 net.cpp:100] Creating Layer conv8_1
I0602 09:59:17.453028 20329 net.cpp:434] conv8_1 <- conv7_2_conv7_2_relu_0_split_0
I0602 09:59:17.453037 20329 net.cpp:408] conv8_1 -> conv8_1
I0602 09:59:17.454406 20329 net.cpp:150] Setting up conv8_1
I0602 09:59:17.454427 20329 net.cpp:157] Top shape: 32 128 5 5 (102400)
I0602 09:59:17.454428 20329 net.cpp:165] Memory required for data: 7526334496
I0602 09:59:17.454437 20329 layer_factory.hpp:77] Creating layer conv8_1_relu
I0602 09:59:17.454447 20329 net.cpp:100] Creating Layer conv8_1_relu
I0602 09:59:17.454453 20329 net.cpp:434] conv8_1_relu <- conv8_1
I0602 09:59:17.454459 20329 net.cpp:395] conv8_1_relu -> conv8_1 (in-place)
I0602 09:59:17.455112 20329 net.cpp:150] Setting up conv8_1_relu
I0602 09:59:17.455123 20329 net.cpp:157] Top shape: 32 128 5 5 (102400)
I0602 09:59:17.455127 20329 net.cpp:165] Memory required for data: 7526744096
I0602 09:59:17.455129 20329 layer_factory.hpp:77] Creating layer conv8_2
I0602 09:59:17.455140 20329 net.cpp:100] Creating Layer conv8_2
I0602 09:59:17.455147 20329 net.cpp:434] conv8_2 <- conv8_1
I0602 09:59:17.455154 20329 net.cpp:408] conv8_2 -> conv8_2
I0602 09:59:17.458274 20329 net.cpp:150] Setting up conv8_2
I0602 09:59:17.458294 20329 net.cpp:157] Top shape: 32 256 3 3 (73728)
I0602 09:59:17.458297 20329 net.cpp:165] Memory required for data: 7527039008
I0602 09:59:17.458305 20329 layer_factory.hpp:77] Creating layer conv8_2_relu
I0602 09:59:17.458314 20329 net.cpp:100] Creating Layer conv8_2_relu
I0602 09:59:17.458319 20329 net.cpp:434] conv8_2_relu <- conv8_2
I0602 09:59:17.458328 20329 net.cpp:395] conv8_2_relu -> conv8_2 (in-place)
I0602 09:59:17.458487 20329 net.cpp:150] Setting up conv8_2_relu
I0602 09:59:17.458495 20329 net.cpp:157] Top shape: 32 256 3 3 (73728)
I0602 09:59:17.458499 20329 net.cpp:165] Memory required for data: 7527333920
I0602 09:59:17.458503 20329 layer_factory.hpp:77] Creating layer conv8_2_conv8_2_relu_0_split
I0602 09:59:17.458509 20329 net.cpp:100] Creating Layer conv8_2_conv8_2_relu_0_split
I0602 09:59:17.458516 20329 net.cpp:434] conv8_2_conv8_2_relu_0_split <- conv8_2
I0602 09:59:17.458524 20329 net.cpp:408] conv8_2_conv8_2_relu_0_split -> conv8_2_conv8_2_relu_0_split_0
I0602 09:59:17.458534 20329 net.cpp:408] conv8_2_conv8_2_relu_0_split -> conv8_2_conv8_2_relu_0_split_1
I0602 09:59:17.458544 20329 net.cpp:408] conv8_2_conv8_2_relu_0_split -> conv8_2_conv8_2_relu_0_split_2
I0602 09:59:17.458552 20329 net.cpp:408] conv8_2_conv8_2_relu_0_split -> conv8_2_conv8_2_relu_0_split_3
I0602 09:59:17.458636 20329 net.cpp:150] Setting up conv8_2_conv8_2_relu_0_split
I0602 09:59:17.458642 20329 net.cpp:157] Top shape: 32 256 3 3 (73728)
I0602 09:59:17.458645 20329 net.cpp:157] Top shape: 32 256 3 3 (73728)
I0602 09:59:17.458650 20329 net.cpp:157] Top shape: 32 256 3 3 (73728)
I0602 09:59:17.458657 20329 net.cpp:157] Top shape: 32 256 3 3 (73728)
I0602 09:59:17.458660 20329 net.cpp:165] Memory required for data: 7528513568
I0602 09:59:17.458664 20329 layer_factory.hpp:77] Creating layer conv9_1
I0602 09:59:17.458678 20329 net.cpp:100] Creating Layer conv9_1
I0602 09:59:17.458684 20329 net.cpp:434] conv9_1 <- conv8_2_conv8_2_relu_0_split_0
I0602 09:59:17.458693 20329 net.cpp:408] conv9_1 -> conv9_1
I0602 09:59:17.459987 20329 net.cpp:150] Setting up conv9_1
I0602 09:59:17.460003 20329 net.cpp:157] Top shape: 32 128 3 3 (36864)
I0602 09:59:17.460006 20329 net.cpp:165] Memory required for data: 7528661024
I0602 09:59:17.460014 20329 layer_factory.hpp:77] Creating layer conv9_1_relu
I0602 09:59:17.460031 20329 net.cpp:100] Creating Layer conv9_1_relu
I0602 09:59:17.460036 20329 net.cpp:434] conv9_1_relu <- conv9_1
I0602 09:59:17.460041 20329 net.cpp:395] conv9_1_relu -> conv9_1 (in-place)
I0602 09:59:17.460192 20329 net.cpp:150] Setting up conv9_1_relu
I0602 09:59:17.460201 20329 net.cpp:157] Top shape: 32 128 3 3 (36864)
I0602 09:59:17.460204 20329 net.cpp:165] Memory required for data: 7528808480
I0602 09:59:17.460208 20329 layer_factory.hpp:77] Creating layer conv9_2
I0602 09:59:17.460220 20329 net.cpp:100] Creating Layer conv9_2
I0602 09:59:17.460227 20329 net.cpp:434] conv9_2 <- conv9_1
I0602 09:59:17.460235 20329 net.cpp:408] conv9_2 -> conv9_2
I0602 09:59:17.463688 20329 net.cpp:150] Setting up conv9_2
I0602 09:59:17.463711 20329 net.cpp:157] Top shape: 32 256 1 1 (8192)
I0602 09:59:17.463716 20329 net.cpp:165] Memory required for data: 7528841248
I0602 09:59:17.463726 20329 layer_factory.hpp:77] Creating layer conv9_2_relu
I0602 09:59:17.463735 20329 net.cpp:100] Creating Layer conv9_2_relu
I0602 09:59:17.463740 20329 net.cpp:434] conv9_2_relu <- conv9_2
I0602 09:59:17.463750 20329 net.cpp:395] conv9_2_relu -> conv9_2 (in-place)
I0602 09:59:17.463937 20329 net.cpp:150] Setting up conv9_2_relu
I0602 09:59:17.463946 20329 net.cpp:157] Top shape: 32 256 1 1 (8192)
I0602 09:59:17.463950 20329 net.cpp:165] Memory required for data: 7528874016
I0602 09:59:17.463955 20329 layer_factory.hpp:77] Creating layer conv9_2_conv9_2_relu_0_split
I0602 09:59:17.463963 20329 net.cpp:100] Creating Layer conv9_2_conv9_2_relu_0_split
I0602 09:59:17.463968 20329 net.cpp:434] conv9_2_conv9_2_relu_0_split <- conv9_2
I0602 09:59:17.463974 20329 net.cpp:408] conv9_2_conv9_2_relu_0_split -> conv9_2_conv9_2_relu_0_split_0
I0602 09:59:17.463984 20329 net.cpp:408] conv9_2_conv9_2_relu_0_split -> conv9_2_conv9_2_relu_0_split_1
I0602 09:59:17.463994 20329 net.cpp:408] conv9_2_conv9_2_relu_0_split -> conv9_2_conv9_2_relu_0_split_2
I0602 09:59:17.464071 20329 net.cpp:150] Setting up conv9_2_conv9_2_relu_0_split
I0602 09:59:17.464081 20329 net.cpp:157] Top shape: 32 256 1 1 (8192)
I0602 09:59:17.464085 20329 net.cpp:157] Top shape: 32 256 1 1 (8192)
I0602 09:59:17.464090 20329 net.cpp:157] Top shape: 32 256 1 1 (8192)
I0602 09:59:17.464093 20329 net.cpp:165] Memory required for data: 7528972320
I0602 09:59:17.464097 20329 layer_factory.hpp:77] Creating layer conv4_3_norm
I0602 09:59:17.464105 20329 net.cpp:100] Creating Layer conv4_3_norm
I0602 09:59:17.464110 20329 net.cpp:434] conv4_3_norm <- conv4_3_relu4_3_0_split_1
I0602 09:59:17.464117 20329 net.cpp:408] conv4_3_norm -> conv4_3_norm
I0602 09:59:17.464254 20329 net.cpp:150] Setting up conv4_3_norm
I0602 09:59:17.464262 20329 net.cpp:157] Top shape: 32 512 38 38 (23658496)
I0602 09:59:17.464265 20329 net.cpp:165] Memory required for data: 7623606304
I0602 09:59:17.464270 20329 layer_factory.hpp:77] Creating layer conv4_3_norm_conv4_3_norm_0_split
I0602 09:59:17.464277 20329 net.cpp:100] Creating Layer conv4_3_norm_conv4_3_norm_0_split
I0602 09:59:17.464282 20329 net.cpp:434] conv4_3_norm_conv4_3_norm_0_split <- conv4_3_norm
I0602 09:59:17.464298 20329 net.cpp:408] conv4_3_norm_conv4_3_norm_0_split -> conv4_3_norm_conv4_3_norm_0_split_0
I0602 09:59:17.464308 20329 net.cpp:408] conv4_3_norm_conv4_3_norm_0_split -> conv4_3_norm_conv4_3_norm_0_split_1
I0602 09:59:17.464315 20329 net.cpp:408] conv4_3_norm_conv4_3_norm_0_split -> conv4_3_norm_conv4_3_norm_0_split_2
I0602 09:59:17.464367 20329 net.cpp:150] Setting up conv4_3_norm_conv4_3_norm_0_split
I0602 09:59:17.464375 20329 net.cpp:157] Top shape: 32 512 38 38 (23658496)
I0602 09:59:17.464380 20329 net.cpp:157] Top shape: 32 512 38 38 (23658496)
I0602 09:59:17.464385 20329 net.cpp:157] Top shape: 32 512 38 38 (23658496)
I0602 09:59:17.464388 20329 net.cpp:165] Memory required for data: 7907508256
I0602 09:59:17.464391 20329 layer_factory.hpp:77] Creating layer conv4_3_norm_mbox_loc
I0602 09:59:17.464402 20329 net.cpp:100] Creating Layer conv4_3_norm_mbox_loc
I0602 09:59:17.464406 20329 net.cpp:434] conv4_3_norm_mbox_loc <- conv4_3_norm_conv4_3_norm_0_split_0
I0602 09:59:17.464416 20329 net.cpp:408] conv4_3_norm_mbox_loc -> conv4_3_norm_mbox_loc
I0602 09:59:17.466382 20329 net.cpp:150] Setting up conv4_3_norm_mbox_loc
I0602 09:59:17.466400 20329 net.cpp:157] Top shape: 32 16 38 38 (739328)
I0602 09:59:17.466403 20329 net.cpp:165] Memory required for data: 7910465568
I0602 09:59:17.466413 20329 layer_factory.hpp:77] Creating layer conv4_3_norm_mbox_loc_perm
I0602 09:59:17.466428 20329 net.cpp:100] Creating Layer conv4_3_norm_mbox_loc_perm
I0602 09:59:17.466434 20329 net.cpp:434] conv4_3_norm_mbox_loc_perm <- conv4_3_norm_mbox_loc
I0602 09:59:17.466440 20329 net.cpp:408] conv4_3_norm_mbox_loc_perm -> conv4_3_norm_mbox_loc_perm
I0602 09:59:17.466542 20329 net.cpp:150] Setting up conv4_3_norm_mbox_loc_perm
I0602 09:59:17.466548 20329 net.cpp:157] Top shape: 32 38 38 16 (739328)
I0602 09:59:17.466552 20329 net.cpp:165] Memory required for data: 7913422880
I0602 09:59:17.466555 20329 layer_factory.hpp:77] Creating layer conv4_3_norm_mbox_loc_flat
I0602 09:59:17.466562 20329 net.cpp:100] Creating Layer conv4_3_norm_mbox_loc_flat
I0602 09:59:17.466567 20329 net.cpp:434] conv4_3_norm_mbox_loc_flat <- conv4_3_norm_mbox_loc_perm
I0602 09:59:17.466574 20329 net.cpp:408] conv4_3_norm_mbox_loc_flat -> conv4_3_norm_mbox_loc_flat
I0602 09:59:17.466609 20329 net.cpp:150] Setting up conv4_3_norm_mbox_loc_flat
I0602 09:59:17.466616 20329 net.cpp:157] Top shape: 32 23104 (739328)
I0602 09:59:17.466619 20329 net.cpp:165] Memory required for data: 7916380192
I0602 09:59:17.466624 20329 layer_factory.hpp:77] Creating layer conv4_3_norm_mbox_conf
I0602 09:59:17.466639 20329 net.cpp:100] Creating Layer conv4_3_norm_mbox_conf
I0602 09:59:17.466645 20329 net.cpp:434] conv4_3_norm_mbox_conf <- conv4_3_norm_conv4_3_norm_0_split_1
I0602 09:59:17.466651 20329 net.cpp:408] conv4_3_norm_mbox_conf -> conv4_3_norm_mbox_conf
I0602 09:59:17.468650 20329 net.cpp:150] Setting up conv4_3_norm_mbox_conf
I0602 09:59:17.468667 20329 net.cpp:157] Top shape: 32 16 38 38 (739328)
I0602 09:59:17.468672 20329 net.cpp:165] Memory required for data: 7919337504
I0602 09:59:17.468682 20329 layer_factory.hpp:77] Creating layer conv4_3_norm_mbox_conf_perm
I0602 09:59:17.468693 20329 net.cpp:100] Creating Layer conv4_3_norm_mbox_conf_perm
I0602 09:59:17.468698 20329 net.cpp:434] conv4_3_norm_mbox_conf_perm <- conv4_3_norm_mbox_conf
I0602 09:59:17.468708 20329 net.cpp:408] conv4_3_norm_mbox_conf_perm -> conv4_3_norm_mbox_conf_perm
I0602 09:59:17.468799 20329 net.cpp:150] Setting up conv4_3_norm_mbox_conf_perm
I0602 09:59:17.468807 20329 net.cpp:157] Top shape: 32 38 38 16 (739328)
I0602 09:59:17.468811 20329 net.cpp:165] Memory required for data: 7922294816
I0602 09:59:17.468816 20329 layer_factory.hpp:77] Creating layer conv4_3_norm_mbox_conf_flat
I0602 09:59:17.468822 20329 net.cpp:100] Creating Layer conv4_3_norm_mbox_conf_flat
I0602 09:59:17.468827 20329 net.cpp:434] conv4_3_norm_mbox_conf_flat <- conv4_3_norm_mbox_conf_perm
I0602 09:59:17.468833 20329 net.cpp:408] conv4_3_norm_mbox_conf_flat -> conv4_3_norm_mbox_conf_flat
I0602 09:59:17.468868 20329 net.cpp:150] Setting up conv4_3_norm_mbox_conf_flat
I0602 09:59:17.468876 20329 net.cpp:157] Top shape: 32 23104 (739328)
I0602 09:59:17.468880 20329 net.cpp:165] Memory required for data: 7925252128
I0602 09:59:17.468883 20329 layer_factory.hpp:77] Creating layer conv4_3_norm_mbox_priorbox
I0602 09:59:17.468893 20329 net.cpp:100] Creating Layer conv4_3_norm_mbox_priorbox
I0602 09:59:17.468896 20329 net.cpp:434] conv4_3_norm_mbox_priorbox <- conv4_3_norm_conv4_3_norm_0_split_2
I0602 09:59:17.468902 20329 net.cpp:434] conv4_3_norm_mbox_priorbox <- data_data_0_split_1
I0602 09:59:17.468910 20329 net.cpp:408] conv4_3_norm_mbox_priorbox -> conv4_3_norm_mbox_priorbox
I0602 09:59:17.468940 20329 net.cpp:150] Setting up conv4_3_norm_mbox_priorbox
I0602 09:59:17.468945 20329 net.cpp:157] Top shape: 1 2 23104 (46208)
I0602 09:59:17.468950 20329 net.cpp:165] Memory required for data: 7925436960
I0602 09:59:17.468953 20329 layer_factory.hpp:77] Creating layer fc7_mbox_loc
I0602 09:59:17.468964 20329 net.cpp:100] Creating Layer fc7_mbox_loc
I0602 09:59:17.468969 20329 net.cpp:434] fc7_mbox_loc <- fc7_relu7_0_split_1
I0602 09:59:17.468976 20329 net.cpp:408] fc7_mbox_loc -> fc7_mbox_loc
I0602 09:59:17.472311 20329 net.cpp:150] Setting up fc7_mbox_loc
I0602 09:59:17.472331 20329 net.cpp:157] Top shape: 32 24 19 19 (277248)
I0602 09:59:17.472334 20329 net.cpp:165] Memory required for data: 7926545952
I0602 09:59:17.472343 20329 layer_factory.hpp:77] Creating layer fc7_mbox_loc_perm
I0602 09:59:17.472353 20329 net.cpp:100] Creating Layer fc7_mbox_loc_perm
I0602 09:59:17.472362 20329 net.cpp:434] fc7_mbox_loc_perm <- fc7_mbox_loc
I0602 09:59:17.472373 20329 net.cpp:408] fc7_mbox_loc_perm -> fc7_mbox_loc_perm
I0602 09:59:17.472482 20329 net.cpp:150] Setting up fc7_mbox_loc_perm
I0602 09:59:17.472489 20329 net.cpp:157] Top shape: 32 19 19 24 (277248)
I0602 09:59:17.472493 20329 net.cpp:165] Memory required for data: 7927654944
I0602 09:59:17.472497 20329 layer_factory.hpp:77] Creating layer fc7_mbox_loc_flat
I0602 09:59:17.472504 20329 net.cpp:100] Creating Layer fc7_mbox_loc_flat
I0602 09:59:17.472509 20329 net.cpp:434] fc7_mbox_loc_flat <- fc7_mbox_loc_perm
I0602 09:59:17.472517 20329 net.cpp:408] fc7_mbox_loc_flat -> fc7_mbox_loc_flat
I0602 09:59:17.472543 20329 net.cpp:150] Setting up fc7_mbox_loc_flat
I0602 09:59:17.472548 20329 net.cpp:157] Top shape: 32 8664 (277248)
I0602 09:59:17.472551 20329 net.cpp:165] Memory required for data: 7928763936
I0602 09:59:17.472555 20329 layer_factory.hpp:77] Creating layer fc7_mbox_conf
I0602 09:59:17.472568 20329 net.cpp:100] Creating Layer fc7_mbox_conf
I0602 09:59:17.472571 20329 net.cpp:434] fc7_mbox_conf <- fc7_relu7_0_split_2
I0602 09:59:17.472579 20329 net.cpp:408] fc7_mbox_conf -> fc7_mbox_conf
I0602 09:59:17.475124 20329 net.cpp:150] Setting up fc7_mbox_conf
I0602 09:59:17.475141 20329 net.cpp:157] Top shape: 32 24 19 19 (277248)
I0602 09:59:17.475143 20329 net.cpp:165] Memory required for data: 7929872928
I0602 09:59:17.475152 20329 layer_factory.hpp:77] Creating layer fc7_mbox_conf_perm
I0602 09:59:17.475162 20329 net.cpp:100] Creating Layer fc7_mbox_conf_perm
I0602 09:59:17.475169 20329 net.cpp:434] fc7_mbox_conf_perm <- fc7_mbox_conf
I0602 09:59:17.475177 20329 net.cpp:408] fc7_mbox_conf_perm -> fc7_mbox_conf_perm
I0602 09:59:17.475273 20329 net.cpp:150] Setting up fc7_mbox_conf_perm
I0602 09:59:17.475281 20329 net.cpp:157] Top shape: 32 19 19 24 (277248)
I0602 09:59:17.475283 20329 net.cpp:165] Memory required for data: 7930981920
I0602 09:59:17.475287 20329 layer_factory.hpp:77] Creating layer fc7_mbox_conf_flat
I0602 09:59:17.475294 20329 net.cpp:100] Creating Layer fc7_mbox_conf_flat
I0602 09:59:17.475301 20329 net.cpp:434] fc7_mbox_conf_flat <- fc7_mbox_conf_perm
I0602 09:59:17.475306 20329 net.cpp:408] fc7_mbox_conf_flat -> fc7_mbox_conf_flat
I0602 09:59:17.475333 20329 net.cpp:150] Setting up fc7_mbox_conf_flat
I0602 09:59:17.475339 20329 net.cpp:157] Top shape: 32 8664 (277248)
I0602 09:59:17.475343 20329 net.cpp:165] Memory required for data: 7932090912
I0602 09:59:17.475358 20329 layer_factory.hpp:77] Creating layer fc7_mbox_priorbox
I0602 09:59:17.475368 20329 net.cpp:100] Creating Layer fc7_mbox_priorbox
I0602 09:59:17.475371 20329 net.cpp:434] fc7_mbox_priorbox <- fc7_relu7_0_split_3
I0602 09:59:17.475378 20329 net.cpp:434] fc7_mbox_priorbox <- data_data_0_split_2
I0602 09:59:17.475384 20329 net.cpp:408] fc7_mbox_priorbox -> fc7_mbox_priorbox
I0602 09:59:17.475415 20329 net.cpp:150] Setting up fc7_mbox_priorbox
I0602 09:59:17.475421 20329 net.cpp:157] Top shape: 1 2 8664 (17328)
I0602 09:59:17.475425 20329 net.cpp:165] Memory required for data: 7932160224
I0602 09:59:17.475428 20329 layer_factory.hpp:77] Creating layer conv6_2_mbox_loc
I0602 09:59:17.475440 20329 net.cpp:100] Creating Layer conv6_2_mbox_loc
I0602 09:59:17.475445 20329 net.cpp:434] conv6_2_mbox_loc <- conv6_2_conv6_2_relu_0_split_1
I0602 09:59:17.475453 20329 net.cpp:408] conv6_2_mbox_loc -> conv6_2_mbox_loc
I0602 09:59:17.477602 20329 net.cpp:150] Setting up conv6_2_mbox_loc
I0602 09:59:17.477618 20329 net.cpp:157] Top shape: 32 24 10 10 (76800)
I0602 09:59:17.477622 20329 net.cpp:165] Memory required for data: 7932467424
I0602 09:59:17.477628 20329 layer_factory.hpp:77] Creating layer conv6_2_mbox_loc_perm
I0602 09:59:17.477635 20329 net.cpp:100] Creating Layer conv6_2_mbox_loc_perm
I0602 09:59:17.477641 20329 net.cpp:434] conv6_2_mbox_loc_perm <- conv6_2_mbox_loc
I0602 09:59:17.477648 20329 net.cpp:408] conv6_2_mbox_loc_perm -> conv6_2_mbox_loc_perm
I0602 09:59:17.477757 20329 net.cpp:150] Setting up conv6_2_mbox_loc_perm
I0602 09:59:17.477766 20329 net.cpp:157] Top shape: 32 10 10 24 (76800)
I0602 09:59:17.477768 20329 net.cpp:165] Memory required for data: 7932774624
I0602 09:59:17.477771 20329 layer_factory.hpp:77] Creating layer conv6_2_mbox_loc_flat
I0602 09:59:17.477776 20329 net.cpp:100] Creating Layer conv6_2_mbox_loc_flat
I0602 09:59:17.477777 20329 net.cpp:434] conv6_2_mbox_loc_flat <- conv6_2_mbox_loc_perm
I0602 09:59:17.477782 20329 net.cpp:408] conv6_2_mbox_loc_flat -> conv6_2_mbox_loc_flat
I0602 09:59:17.477800 20329 net.cpp:150] Setting up conv6_2_mbox_loc_flat
I0602 09:59:17.477805 20329 net.cpp:157] Top shape: 32 2400 (76800)
I0602 09:59:17.477807 20329 net.cpp:165] Memory required for data: 7933081824
I0602 09:59:17.477810 20329 layer_factory.hpp:77] Creating layer conv6_2_mbox_conf
I0602 09:59:17.477818 20329 net.cpp:100] Creating Layer conv6_2_mbox_conf
I0602 09:59:17.477821 20329 net.cpp:434] conv6_2_mbox_conf <- conv6_2_conv6_2_relu_0_split_2
I0602 09:59:17.477826 20329 net.cpp:408] conv6_2_mbox_conf -> conv6_2_mbox_conf
I0602 09:59:17.479866 20329 net.cpp:150] Setting up conv6_2_mbox_conf
I0602 09:59:17.479879 20329 net.cpp:157] Top shape: 32 24 10 10 (76800)
I0602 09:59:17.479882 20329 net.cpp:165] Memory required for data: 7933389024
I0602 09:59:17.479887 20329 layer_factory.hpp:77] Creating layer conv6_2_mbox_conf_perm
I0602 09:59:17.479895 20329 net.cpp:100] Creating Layer conv6_2_mbox_conf_perm
I0602 09:59:17.479898 20329 net.cpp:434] conv6_2_mbox_conf_perm <- conv6_2_mbox_conf
I0602 09:59:17.479903 20329 net.cpp:408] conv6_2_mbox_conf_perm -> conv6_2_mbox_conf_perm
I0602 09:59:17.479990 20329 net.cpp:150] Setting up conv6_2_mbox_conf_perm
I0602 09:59:17.479996 20329 net.cpp:157] Top shape: 32 10 10 24 (76800)
I0602 09:59:17.479998 20329 net.cpp:165] Memory required for data: 7933696224
I0602 09:59:17.480000 20329 layer_factory.hpp:77] Creating layer conv6_2_mbox_conf_flat
I0602 09:59:17.480005 20329 net.cpp:100] Creating Layer conv6_2_mbox_conf_flat
I0602 09:59:17.480007 20329 net.cpp:434] conv6_2_mbox_conf_flat <- conv6_2_mbox_conf_perm
I0602 09:59:17.480011 20329 net.cpp:408] conv6_2_mbox_conf_flat -> conv6_2_mbox_conf_flat
I0602 09:59:17.480039 20329 net.cpp:150] Setting up conv6_2_mbox_conf_flat
I0602 09:59:17.480044 20329 net.cpp:157] Top shape: 32 2400 (76800)
I0602 09:59:17.480046 20329 net.cpp:165] Memory required for data: 7934003424
I0602 09:59:17.480049 20329 layer_factory.hpp:77] Creating layer conv6_2_mbox_priorbox
I0602 09:59:17.480065 20329 net.cpp:100] Creating Layer conv6_2_mbox_priorbox
I0602 09:59:17.480068 20329 net.cpp:434] conv6_2_mbox_priorbox <- conv6_2_conv6_2_relu_0_split_3
I0602 09:59:17.480073 20329 net.cpp:434] conv6_2_mbox_priorbox <- data_data_0_split_3
I0602 09:59:17.480077 20329 net.cpp:408] conv6_2_mbox_priorbox -> conv6_2_mbox_priorbox
I0602 09:59:17.480101 20329 net.cpp:150] Setting up conv6_2_mbox_priorbox
I0602 09:59:17.480106 20329 net.cpp:157] Top shape: 1 2 2400 (4800)
I0602 09:59:17.480108 20329 net.cpp:165] Memory required for data: 7934022624
I0602 09:59:17.480110 20329 layer_factory.hpp:77] Creating layer conv7_2_mbox_loc
I0602 09:59:17.480118 20329 net.cpp:100] Creating Layer conv7_2_mbox_loc
I0602 09:59:17.480120 20329 net.cpp:434] conv7_2_mbox_loc <- conv7_2_conv7_2_relu_0_split_1
I0602 09:59:17.480126 20329 net.cpp:408] conv7_2_mbox_loc -> conv7_2_mbox_loc
I0602 09:59:17.481483 20329 net.cpp:150] Setting up conv7_2_mbox_loc
I0602 09:59:17.481497 20329 net.cpp:157] Top shape: 32 24 5 5 (19200)
I0602 09:59:17.481499 20329 net.cpp:165] Memory required for data: 7934099424
I0602 09:59:17.481505 20329 layer_factory.hpp:77] Creating layer conv7_2_mbox_loc_perm
I0602 09:59:17.481511 20329 net.cpp:100] Creating Layer conv7_2_mbox_loc_perm
I0602 09:59:17.481514 20329 net.cpp:434] conv7_2_mbox_loc_perm <- conv7_2_mbox_loc
I0602 09:59:17.481519 20329 net.cpp:408] conv7_2_mbox_loc_perm -> conv7_2_mbox_loc_perm
I0602 09:59:17.481609 20329 net.cpp:150] Setting up conv7_2_mbox_loc_perm
I0602 09:59:17.481616 20329 net.cpp:157] Top shape: 32 5 5 24 (19200)
I0602 09:59:17.481617 20329 net.cpp:165] Memory required for data: 7934176224
I0602 09:59:17.481619 20329 layer_factory.hpp:77] Creating layer conv7_2_mbox_loc_flat
I0602 09:59:17.481623 20329 net.cpp:100] Creating Layer conv7_2_mbox_loc_flat
I0602 09:59:17.481626 20329 net.cpp:434] conv7_2_mbox_loc_flat <- conv7_2_mbox_loc_perm
I0602 09:59:17.481631 20329 net.cpp:408] conv7_2_mbox_loc_flat -> conv7_2_mbox_loc_flat
I0602 09:59:17.481647 20329 net.cpp:150] Setting up conv7_2_mbox_loc_flat
I0602 09:59:17.481652 20329 net.cpp:157] Top shape: 32 600 (19200)
I0602 09:59:17.481653 20329 net.cpp:165] Memory required for data: 7934253024
I0602 09:59:17.481655 20329 layer_factory.hpp:77] Creating layer conv7_2_mbox_conf
I0602 09:59:17.481665 20329 net.cpp:100] Creating Layer conv7_2_mbox_conf
I0602 09:59:17.481668 20329 net.cpp:434] conv7_2_mbox_conf <- conv7_2_conv7_2_relu_0_split_2
I0602 09:59:17.481673 20329 net.cpp:408] conv7_2_mbox_conf -> conv7_2_mbox_conf
I0602 09:59:17.483625 20329 net.cpp:150] Setting up conv7_2_mbox_conf
I0602 09:59:17.483644 20329 net.cpp:157] Top shape: 32 24 5 5 (19200)
I0602 09:59:17.483649 20329 net.cpp:165] Memory required for data: 7934329824
I0602 09:59:17.483659 20329 layer_factory.hpp:77] Creating layer conv7_2_mbox_conf_perm
I0602 09:59:17.483667 20329 net.cpp:100] Creating Layer conv7_2_mbox_conf_perm
I0602 09:59:17.483672 20329 net.cpp:434] conv7_2_mbox_conf_perm <- conv7_2_mbox_conf
I0602 09:59:17.483682 20329 net.cpp:408] conv7_2_mbox_conf_perm -> conv7_2_mbox_conf_perm
I0602 09:59:17.483819 20329 net.cpp:150] Setting up conv7_2_mbox_conf_perm
I0602 09:59:17.483829 20329 net.cpp:157] Top shape: 32 5 5 24 (19200)
I0602 09:59:17.483834 20329 net.cpp:165] Memory required for data: 7934406624
I0602 09:59:17.483837 20329 layer_factory.hpp:77] Creating layer conv7_2_mbox_conf_flat
I0602 09:59:17.483844 20329 net.cpp:100] Creating Layer conv7_2_mbox_conf_flat
I0602 09:59:17.483849 20329 net.cpp:434] conv7_2_mbox_conf_flat <- conv7_2_mbox_conf_perm
I0602 09:59:17.483855 20329 net.cpp:408] conv7_2_mbox_conf_flat -> conv7_2_mbox_conf_flat
I0602 09:59:17.483883 20329 net.cpp:150] Setting up conv7_2_mbox_conf_flat
I0602 09:59:17.483889 20329 net.cpp:157] Top shape: 32 600 (19200)
I0602 09:59:17.483893 20329 net.cpp:165] Memory required for data: 7934483424
I0602 09:59:17.483897 20329 layer_factory.hpp:77] Creating layer conv7_2_mbox_priorbox
I0602 09:59:17.483906 20329 net.cpp:100] Creating Layer conv7_2_mbox_priorbox
I0602 09:59:17.483911 20329 net.cpp:434] conv7_2_mbox_priorbox <- conv7_2_conv7_2_relu_0_split_3
I0602 09:59:17.483928 20329 net.cpp:434] conv7_2_mbox_priorbox <- data_data_0_split_4
I0602 09:59:17.483937 20329 net.cpp:408] conv7_2_mbox_priorbox -> conv7_2_mbox_priorbox
I0602 09:59:17.483969 20329 net.cpp:150] Setting up conv7_2_mbox_priorbox
I0602 09:59:17.483976 20329 net.cpp:157] Top shape: 1 2 600 (1200)
I0602 09:59:17.483979 20329 net.cpp:165] Memory required for data: 7934488224
I0602 09:59:17.483983 20329 layer_factory.hpp:77] Creating layer conv8_2_mbox_loc
I0602 09:59:17.483991 20329 net.cpp:100] Creating Layer conv8_2_mbox_loc
I0602 09:59:17.483994 20329 net.cpp:434] conv8_2_mbox_loc <- conv8_2_conv8_2_relu_0_split_1
I0602 09:59:17.483999 20329 net.cpp:408] conv8_2_mbox_loc -> conv8_2_mbox_loc
I0602 09:59:17.485738 20329 net.cpp:150] Setting up conv8_2_mbox_loc
I0602 09:59:17.485755 20329 net.cpp:157] Top shape: 32 16 3 3 (4608)
I0602 09:59:17.485757 20329 net.cpp:165] Memory required for data: 7934506656
I0602 09:59:17.485771 20329 layer_factory.hpp:77] Creating layer conv8_2_mbox_loc_perm
I0602 09:59:17.485780 20329 net.cpp:100] Creating Layer conv8_2_mbox_loc_perm
I0602 09:59:17.485783 20329 net.cpp:434] conv8_2_mbox_loc_perm <- conv8_2_mbox_loc
I0602 09:59:17.485788 20329 net.cpp:408] conv8_2_mbox_loc_perm -> conv8_2_mbox_loc_perm
I0602 09:59:17.485882 20329 net.cpp:150] Setting up conv8_2_mbox_loc_perm
I0602 09:59:17.485888 20329 net.cpp:157] Top shape: 32 3 3 16 (4608)
I0602 09:59:17.485889 20329 net.cpp:165] Memory required for data: 7934525088
I0602 09:59:17.485891 20329 layer_factory.hpp:77] Creating layer conv8_2_mbox_loc_flat
I0602 09:59:17.485895 20329 net.cpp:100] Creating Layer conv8_2_mbox_loc_flat
I0602 09:59:17.485898 20329 net.cpp:434] conv8_2_mbox_loc_flat <- conv8_2_mbox_loc_perm
I0602 09:59:17.485903 20329 net.cpp:408] conv8_2_mbox_loc_flat -> conv8_2_mbox_loc_flat
I0602 09:59:17.485922 20329 net.cpp:150] Setting up conv8_2_mbox_loc_flat
I0602 09:59:17.485927 20329 net.cpp:157] Top shape: 32 144 (4608)
I0602 09:59:17.485929 20329 net.cpp:165] Memory required for data: 7934543520
I0602 09:59:17.485931 20329 layer_factory.hpp:77] Creating layer conv8_2_mbox_conf
I0602 09:59:17.485939 20329 net.cpp:100] Creating Layer conv8_2_mbox_conf
I0602 09:59:17.485941 20329 net.cpp:434] conv8_2_mbox_conf <- conv8_2_conv8_2_relu_0_split_2
I0602 09:59:17.485946 20329 net.cpp:408] conv8_2_mbox_conf -> conv8_2_mbox_conf
I0602 09:59:17.487655 20329 net.cpp:150] Setting up conv8_2_mbox_conf
I0602 09:59:17.487666 20329 net.cpp:157] Top shape: 32 16 3 3 (4608)
I0602 09:59:17.487669 20329 net.cpp:165] Memory required for data: 7934561952
I0602 09:59:17.487674 20329 layer_factory.hpp:77] Creating layer conv8_2_mbox_conf_perm
I0602 09:59:17.487682 20329 net.cpp:100] Creating Layer conv8_2_mbox_conf_perm
I0602 09:59:17.487685 20329 net.cpp:434] conv8_2_mbox_conf_perm <- conv8_2_mbox_conf
I0602 09:59:17.487689 20329 net.cpp:408] conv8_2_mbox_conf_perm -> conv8_2_mbox_conf_perm
I0602 09:59:17.487776 20329 net.cpp:150] Setting up conv8_2_mbox_conf_perm
I0602 09:59:17.487782 20329 net.cpp:157] Top shape: 32 3 3 16 (4608)
I0602 09:59:17.487784 20329 net.cpp:165] Memory required for data: 7934580384
I0602 09:59:17.487787 20329 layer_factory.hpp:77] Creating layer conv8_2_mbox_conf_flat
I0602 09:59:17.487790 20329 net.cpp:100] Creating Layer conv8_2_mbox_conf_flat
I0602 09:59:17.487793 20329 net.cpp:434] conv8_2_mbox_conf_flat <- conv8_2_mbox_conf_perm
I0602 09:59:17.487798 20329 net.cpp:408] conv8_2_mbox_conf_flat -> conv8_2_mbox_conf_flat
I0602 09:59:17.487817 20329 net.cpp:150] Setting up conv8_2_mbox_conf_flat
I0602 09:59:17.487821 20329 net.cpp:157] Top shape: 32 144 (4608)
I0602 09:59:17.487823 20329 net.cpp:165] Memory required for data: 7934598816
I0602 09:59:17.487825 20329 layer_factory.hpp:77] Creating layer conv8_2_mbox_priorbox
I0602 09:59:17.487830 20329 net.cpp:100] Creating Layer conv8_2_mbox_priorbox
I0602 09:59:17.487833 20329 net.cpp:434] conv8_2_mbox_priorbox <- conv8_2_conv8_2_relu_0_split_3
I0602 09:59:17.487836 20329 net.cpp:434] conv8_2_mbox_priorbox <- data_data_0_split_5
I0602 09:59:17.487854 20329 net.cpp:408] conv8_2_mbox_priorbox -> conv8_2_mbox_priorbox
I0602 09:59:17.487879 20329 net.cpp:150] Setting up conv8_2_mbox_priorbox
I0602 09:59:17.487885 20329 net.cpp:157] Top shape: 1 2 144 (288)
I0602 09:59:17.487890 20329 net.cpp:165] Memory required for data: 7934599968
I0602 09:59:17.487892 20329 layer_factory.hpp:77] Creating layer conv9_2_mbox_loc
I0602 09:59:17.487903 20329 net.cpp:100] Creating Layer conv9_2_mbox_loc
I0602 09:59:17.487915 20329 net.cpp:434] conv9_2_mbox_loc <- conv9_2_conv9_2_relu_0_split_0
I0602 09:59:17.487924 20329 net.cpp:408] conv9_2_mbox_loc -> conv9_2_mbox_loc
I0602 09:59:17.489784 20329 net.cpp:150] Setting up conv9_2_mbox_loc
I0602 09:59:17.489801 20329 net.cpp:157] Top shape: 32 16 1 1 (512)
I0602 09:59:17.489804 20329 net.cpp:165] Memory required for data: 7934602016
I0602 09:59:17.489814 20329 layer_factory.hpp:77] Creating layer conv9_2_mbox_loc_perm
I0602 09:59:17.489825 20329 net.cpp:100] Creating Layer conv9_2_mbox_loc_perm
I0602 09:59:17.489830 20329 net.cpp:434] conv9_2_mbox_loc_perm <- conv9_2_mbox_loc
I0602 09:59:17.489837 20329 net.cpp:408] conv9_2_mbox_loc_perm -> conv9_2_mbox_loc_perm
I0602 09:59:17.489948 20329 net.cpp:150] Setting up conv9_2_mbox_loc_perm
I0602 09:59:17.489955 20329 net.cpp:157] Top shape: 32 1 1 16 (512)
I0602 09:59:17.489959 20329 net.cpp:165] Memory required for data: 7934604064
I0602 09:59:17.489962 20329 layer_factory.hpp:77] Creating layer conv9_2_mbox_loc_flat
I0602 09:59:17.489969 20329 net.cpp:100] Creating Layer conv9_2_mbox_loc_flat
I0602 09:59:17.489974 20329 net.cpp:434] conv9_2_mbox_loc_flat <- conv9_2_mbox_loc_perm
I0602 09:59:17.489981 20329 net.cpp:408] conv9_2_mbox_loc_flat -> conv9_2_mbox_loc_flat
I0602 09:59:17.490008 20329 net.cpp:150] Setting up conv9_2_mbox_loc_flat
I0602 09:59:17.490015 20329 net.cpp:157] Top shape: 32 16 (512)
I0602 09:59:17.490017 20329 net.cpp:165] Memory required for data: 7934606112
I0602 09:59:17.490021 20329 layer_factory.hpp:77] Creating layer conv9_2_mbox_conf
I0602 09:59:17.490033 20329 net.cpp:100] Creating Layer conv9_2_mbox_conf
I0602 09:59:17.490037 20329 net.cpp:434] conv9_2_mbox_conf <- conv9_2_conv9_2_relu_0_split_1
I0602 09:59:17.490046 20329 net.cpp:408] conv9_2_mbox_conf -> conv9_2_mbox_conf
I0602 09:59:17.492346 20329 net.cpp:150] Setting up conv9_2_mbox_conf
I0602 09:59:17.492365 20329 net.cpp:157] Top shape: 32 16 1 1 (512)
I0602 09:59:17.492369 20329 net.cpp:165] Memory required for data: 7934608160
I0602 09:59:17.492380 20329 layer_factory.hpp:77] Creating layer conv9_2_mbox_conf_perm
I0602 09:59:17.492393 20329 net.cpp:100] Creating Layer conv9_2_mbox_conf_perm
I0602 09:59:17.492400 20329 net.cpp:434] conv9_2_mbox_conf_perm <- conv9_2_mbox_conf
I0602 09:59:17.492411 20329 net.cpp:408] conv9_2_mbox_conf_perm -> conv9_2_mbox_conf_perm
I0602 09:59:17.492522 20329 net.cpp:150] Setting up conv9_2_mbox_conf_perm
I0602 09:59:17.492528 20329 net.cpp:157] Top shape: 32 1 1 16 (512)
I0602 09:59:17.492532 20329 net.cpp:165] Memory required for data: 7934610208
I0602 09:59:17.492537 20329 layer_factory.hpp:77] Creating layer conv9_2_mbox_conf_flat
I0602 09:59:17.492544 20329 net.cpp:100] Creating Layer conv9_2_mbox_conf_flat
I0602 09:59:17.492549 20329 net.cpp:434] conv9_2_mbox_conf_flat <- conv9_2_mbox_conf_perm
I0602 09:59:17.492555 20329 net.cpp:408] conv9_2_mbox_conf_flat -> conv9_2_mbox_conf_flat
I0602 09:59:17.492586 20329 net.cpp:150] Setting up conv9_2_mbox_conf_flat
I0602 09:59:17.492595 20329 net.cpp:157] Top shape: 32 16 (512)
I0602 09:59:17.492599 20329 net.cpp:165] Memory required for data: 7934612256
I0602 09:59:17.492602 20329 layer_factory.hpp:77] Creating layer conv9_2_mbox_priorbox
I0602 09:59:17.492612 20329 net.cpp:100] Creating Layer conv9_2_mbox_priorbox
I0602 09:59:17.492619 20329 net.cpp:434] conv9_2_mbox_priorbox <- conv9_2_conv9_2_relu_0_split_2
I0602 09:59:17.492624 20329 net.cpp:434] conv9_2_mbox_priorbox <- data_data_0_split_6
I0602 09:59:17.492630 20329 net.cpp:408] conv9_2_mbox_priorbox -> conv9_2_mbox_priorbox
I0602 09:59:17.492679 20329 net.cpp:150] Setting up conv9_2_mbox_priorbox
I0602 09:59:17.492686 20329 net.cpp:157] Top shape: 1 2 16 (32)
I0602 09:59:17.492687 20329 net.cpp:165] Memory required for data: 7934612384
I0602 09:59:17.492691 20329 layer_factory.hpp:77] Creating layer mbox_loc
I0602 09:59:17.492702 20329 net.cpp:100] Creating Layer mbox_loc
I0602 09:59:17.492707 20329 net.cpp:434] mbox_loc <- conv4_3_norm_mbox_loc_flat
I0602 09:59:17.492714 20329 net.cpp:434] mbox_loc <- fc7_mbox_loc_flat
I0602 09:59:17.492722 20329 net.cpp:434] mbox_loc <- conv6_2_mbox_loc_flat
I0602 09:59:17.492728 20329 net.cpp:434] mbox_loc <- conv7_2_mbox_loc_flat
I0602 09:59:17.492733 20329 net.cpp:434] mbox_loc <- conv8_2_mbox_loc_flat
I0602 09:59:17.492739 20329 net.cpp:434] mbox_loc <- conv9_2_mbox_loc_flat
I0602 09:59:17.492748 20329 net.cpp:408] mbox_loc -> mbox_loc
I0602 09:59:17.492781 20329 net.cpp:150] Setting up mbox_loc
I0602 09:59:17.492787 20329 net.cpp:157] Top shape: 32 34928 (1117696)
I0602 09:59:17.492792 20329 net.cpp:165] Memory required for data: 7939083168
I0602 09:59:17.492797 20329 layer_factory.hpp:77] Creating layer mbox_conf
I0602 09:59:17.492802 20329 net.cpp:100] Creating Layer mbox_conf
I0602 09:59:17.492805 20329 net.cpp:434] mbox_conf <- conv4_3_norm_mbox_conf_flat
I0602 09:59:17.492810 20329 net.cpp:434] mbox_conf <- fc7_mbox_conf_flat
I0602 09:59:17.492815 20329 net.cpp:434] mbox_conf <- conv6_2_mbox_conf_flat
I0602 09:59:17.492820 20329 net.cpp:434] mbox_conf <- conv7_2_mbox_conf_flat
I0602 09:59:17.492825 20329 net.cpp:434] mbox_conf <- conv8_2_mbox_conf_flat
I0602 09:59:17.492830 20329 net.cpp:434] mbox_conf <- conv9_2_mbox_conf_flat
I0602 09:59:17.492835 20329 net.cpp:408] mbox_conf -> mbox_conf
I0602 09:59:17.492861 20329 net.cpp:150] Setting up mbox_conf
I0602 09:59:17.492866 20329 net.cpp:157] Top shape: 32 34928 (1117696)
I0602 09:59:17.492871 20329 net.cpp:165] Memory required for data: 7943553952
I0602 09:59:17.492873 20329 layer_factory.hpp:77] Creating layer mbox_priorbox
I0602 09:59:17.492878 20329 net.cpp:100] Creating Layer mbox_priorbox
I0602 09:59:17.492882 20329 net.cpp:434] mbox_priorbox <- conv4_3_norm_mbox_priorbox
I0602 09:59:17.492887 20329 net.cpp:434] mbox_priorbox <- fc7_mbox_priorbox
I0602 09:59:17.492892 20329 net.cpp:434] mbox_priorbox <- conv6_2_mbox_priorbox
I0602 09:59:17.492895 20329 net.cpp:434] mbox_priorbox <- conv7_2_mbox_priorbox
I0602 09:59:17.492900 20329 net.cpp:434] mbox_priorbox <- conv8_2_mbox_priorbox
I0602 09:59:17.492903 20329 net.cpp:434] mbox_priorbox <- conv9_2_mbox_priorbox
I0602 09:59:17.492909 20329 net.cpp:408] mbox_priorbox -> mbox_priorbox
I0602 09:59:17.492930 20329 net.cpp:150] Setting up mbox_priorbox
I0602 09:59:17.492935 20329 net.cpp:157] Top shape: 1 2 34928 (69856)
I0602 09:59:17.492940 20329 net.cpp:165] Memory required for data: 7943833376
I0602 09:59:17.492943 20329 layer_factory.hpp:77] Creating layer mbox_loss
I0602 09:59:17.492954 20329 net.cpp:100] Creating Layer mbox_loss
I0602 09:59:17.492957 20329 net.cpp:434] mbox_loss <- mbox_loc
I0602 09:59:17.492961 20329 net.cpp:434] mbox_loss <- mbox_conf
I0602 09:59:17.492965 20329 net.cpp:434] mbox_loss <- mbox_priorbox
…
  name: "data"
  type: "AnnotatedData"
  top: "data"
  top: "label"
  include {
    phase: TEST
  }
  transform_param {
    mean_value: 104
    mean_value: 117
    mean_value: 123
    resize_param {
      prob: 1
      resize_mode: WARP
      height: 300
      width: 300
      interp_mode: LINEAR
    }
  }
  data_param {
    source: "examples/tbs_300x300_HSIL_10x/tbs_300x300_HSIL_10x_test_lmdb"
    batch_size: 4
    backend: LMDB
  }
  annotated_data_param {
    batch_sampler {
    }
    label_map_file: "data/tbs_300x300_HSIL_10x/labelmap_voc.prototxt"
  }
}
layer {
  name: "conv1_1"
  type: "Convolution"
  bottom: "data"
  top: "conv1_1"
  param {
    lr_mult: 1
    decay_mult: 1
  }
  param {
    lr_mult: 2
    decay_mult: 0
  }
  convolution_param {
    num_output: 64
    pad: 1
    kernel_size: 3
    weight_filler {
      type: "xavier"
    }
    bias_filler {
      type: "constant"
      value: 0
    }
  }
}
layer {
  name: "relu1_1"
  type: "ReLU"
  bottom: "conv1_1"
  top: "conv1_1"
}
layer {
  name: "conv1_2"
  type: "Convolution"
  bottom: "conv1_1"
  top: "conv1_2"
  param {
    lr_mult: 1
    decay_mult: 1
  }
  param {
    lr_mult: 2
    decay_mult: 0
  }
  convolution_param {
    num_output: 64
    pad: 1
    kernel_size: 3
    weight_filler {
      type: "xavier"
    }
    bias_filler {
      type: "constant"
      value: 0
    }
  }
}
layer {
  name: "relu1_2"
  type: "ReLU"
  bottom: "conv1_2"
  top: "conv1_2"
}
layer {
  name: "pool1"
  type: "Pooling"
  bottom: "conv1_2"
  top: "pool1"
  pooling_param {
    pool: MAX
    kernel_size: 2
    stride: 2
  }
}
layer {
  name: "conv2_1"
  type: "Convolution"
  bottom: "pool1"
  top: "conv2_1"
  param {
    lr_mult: 1
    decay_mult: 1
  }
  param {
    lr_mult: 2
    decay_mult: 0
  }
  convolution_param {
    num_output: 128
    pad: 1
    kernel_size: 3
    weight_filler {
      type: "xavier"
    }
    bias_filler {
      type: "constant"
      value: 0
    }
  }
}
layer {
  name: "relu2_1"
  type: "ReLU"
  bottom: "conv2_1"
  top: "conv2_1"
}
layer {
  name: "conv2_2"
  type: "Convolution"
  bottom: "conv2_1"
  top: "conv2_2"
  param {
    lr_mult: 1
    decay_mult: 1
  }
  param {
    lr_mult: 2
    decay_mult: 0
  }
  convolution_param {
    num_output: 128
    pad: 1
    kernel_size: 3
    weight_filler {
      type: "xavier"
    }
    bias_filler {
      type: "constant"
      value: 0
    }
  }
}
layer {
  name: "relu2_2"
  type: "ReLU"
  bottom: "conv2_2"
  top: "conv2_2"
}
layer {
  name: "pool2"
  type: "Pooling"
  bottom: "conv2_2"
  top: "pool2"
  pooling_param {
    pool: MAX
    kernel_size: 2
    stride: 2
  }
}
layer {
  name: "conv3_1"
  type: "Convolution"
  bottom: "pool2"
  top: "conv3_1"
  param {
    lr_mult: 1
    decay_mult: 1
  }
  param {
    lr_mult: 2
    decay_mult: 0
  }
  convolution_param {
    num_output: 256
    pad: 1
    kernel_size: 3
    weight_filler {
      type: "xavier"
    }
    bias_filler {
      type: "constant"
      value: 0
    }
  }
}
layer {
  name: "relu3_1"
  type: "ReLU"
  bottom: "conv3_1"
  top: "conv3_1"
}
layer {
  name: "conv3_2"
  type: "Convolution"
  bottom: "conv3_1"
  top: "conv3_2"
  param {
    lr_mult: 1
    decay_mult: 1
  }
  param {
    lr_mult: 2
    decay_mult: 0
  }
  convolution_param {
    num_output: 256
    pad: 1
    kernel_size: 3
    weight_filler {
      type: "xavier"
    }
    bias_filler {
      type: "constant"
      value: 0
    }
  }
}
layer {
  name: "relu3_2"
  type: "ReLU"
  bottom: "conv3_2"
  top: "conv3_2"
}
layer {
  name: "conv3_3"
  type: "Convolution"
  bottom: "conv3_2"
  top: "conv3_3"
  param {
    lr_mult: 1
    decay_mult: 1
  }
  param {
    lr_mult: 2
    decay_mult: 0
  }
  convolution_param {
    num_output: 256
    pad: 1
    kernel_size: 3
    weight_filler {
      type: "xavier"
    }
    bias_filler {
      type: "constant"
      value: 0
    }
  }
}
layer {
  name: "relu3_3"
  type: "ReLU"
  bottom: "conv3_3"
  top: "conv3_3"
}
layer {
  name: "pool3"
  type: "Pooling"
  bottom: "conv3_3"
  top: "pool3"
  pooling_param {
    pool: MAX
    kernel_size: 2
    stride: 2
  }
}
layer {
  name: "conv4_1"
  type: "Convolution"
  bottom: "pool3"
  top: "conv4_1"
  param {
    lr_mult: 1
    decay_mult: 1
  }
  param {
    lr_mult: 2
    decay_mult: 0
  }
  convolution_param {
    num_output: 512
    pad: 1
    kernel_size: 3
    weight_filler {
      type: "xavier"
    }
    bias_filler {
      type: "constant"
      value: 0
    }
  }
}
layer {
  name: "relu4_1"
  type: "ReLU"
  bottom: "conv4_1"
  top: "conv4_1"
}
layer {
  name: "conv4_2"
  type: "Convolution"
  bottom: "conv4_1"
  top: "conv4_2"
  param {
    lr_mult: 1
    decay_mult: 1
  }
  param {
    lr_mult: 2
    decay_mult: 0
  }
  convolution_param {
    num_output: 512
    pad: 1
    kernel_size: 3
    weight_filler {
      type: "xavier"
    }
    bias_filler {
      type: "constant"
      value: 0
    }
  }
}
layer {
  name: "relu4_2"
  type: "ReLU"
  bottom: "conv4_2"
  top: "conv4_2"
}
layer {
  name: "conv4_3"
  type: "Convolution"
  bottom: "conv4_2"
  top: "conv4_3"
  param {
    lr_mult: 1
    decay_mult: 1
  }
  param {
    lr_mult: 2
    decay_mult: 0
  }
  convolution_param {
    num_output: 512
    pad: 1
    kernel_size: 3
    weight_filler {
      type: "xavier"
    }
    bias_filler {
      type: "constant"
      value: 0
    }
  }
}
layer {
  name: "relu4_3"
  type: "ReLU"
  bottom: "conv4_3"
  top: "conv4_3"
}
layer {
  name: "pool4"
  type: "Pooling"
  bottom: "conv4_3"
  top: "pool4"
  pooling_param {
    pool: MAX
    kernel_size: 2
    stride: 2
  }
}
layer {
  name: "conv5_1"
  type: "Convolution"
  bottom: "pool4"
  top: "conv5_1"
  param {
    lr_mult: 1
    decay_mult: 1
  }
  param {
    lr_mult: 2
    decay_mult: 0
  }
  convolution_param {
    num_output: 512
    pad: 1
    kernel_size: 3
    weight_filler {
      type: "xavier"
    }
    bias_filler {
      type: "constant"
      value: 0
    }
    dilation: 1
  }
}
layer {
  name: "relu5_1"
  type: "ReLU"
  bottom: "conv5_1"
  top: "conv5_1"
}
layer {
  name: "conv5_2"
  type: "Convolution"
  bottom: "conv5_1"
  top: "conv5_2"
  param {
    lr_mult: 1
    decay_mult: 1
  }
  param {
    lr_mult: 2
    decay_mult: 0
  }
  convolution_param {
    num_output: 512
    pad: 1
    kernel_size: 3
    weight_filler {
      type: "xavier"
    }
    bias_filler {
      type: "constant"
      value: 0
    }
    dilation: 1
  }
}
layer {
  name: "relu5_2"
  type: "ReLU"
  bottom: "conv5_2"
  top: "conv5_2"
}
layer {
  name: "conv5_3"
  type: "Convolution"
  bottom: "conv5_2"
  top: "conv5_3"
  param {
    lr_mult: 1
    decay_mult: 1
  }
  param {
    lr_mult: 2
    decay_mult: 0
  }
  convolution_param {
    num_output: 512
    pad: 1
    kernel_size: 3
    weight_filler {
      type: "xavier"
    }
    bias_filler {
      type: "constant"
      value: 0
    }
    dilation: 1
  }
}
layer {
  name: "relu5_3"
  type: "ReLU"
  bottom: "conv5_3"
  top: "conv5_3"
}
layer {
  name: "pool5"
  type: "Pooling"
  bottom: "conv5_3"
  top: "pool5"
  pooling_param {
    pool: MAX
    kernel_size: 3
    stride: 1
    pad: 1
  }
}
layer {
  name: "fc6"
  type: "Convolution"
  bottom: "pool5"
  top: "fc6"
  param {
    lr_mult: 1
    decay_mult: 1
  }
  param {
    lr_mult: 2
    decay_mult: 0
  }
  convolution_param {
    num_output: 1024
    pad: 6
    kernel_size: 3
    weight_filler {
      type: "xavier"
    }
    bias_filler {
      type: "constant"
      value: 0
    }
    dilation: 6
  }
}
layer {
  name: "relu6"
  type: "ReLU"
  bottom: "fc6"
  top: "fc6"
}
layer {
  name: "fc7"
  type: "Convolution"
  bottom: "fc6"
  top: "fc7"
  param {
    lr_mult: 1
    decay_mult: 1
  }
  param {
    lr_mult: 2
    decay_mult: 0
  }
  convolution_param {
    num_output: 1024
    kernel_size: 1
    weight_filler {
      type: "xavier"
    }
    bias_filler {
      type: "constant"
      value: 0
    }
  }
}
layer {
  name: "relu7"
  type: "ReLU"
  bottom: "fc7"
  top: "fc7"
}
layer {
  name: "conv6_1"
  type: "Convolution"
  bottom: "fc7"
  top: "conv6_1"
  param {
    lr_mult: 1
    decay_mult: 1
  }
  param {
    lr_mult: 2
    decay_mult: 0
  }
  convolution_param {
    num_output: 256
    pad: 0
    kernel_size: 1
    stride: 1
    weight_filler {
      type: "xavier"
    }
    bias_filler {
      type: "constant"
      value: 0
    }
  }
}
layer {
  name: "conv6_1_relu"
  type: "ReLU"
  bottom: "conv6_1"
  top: "conv6_1"
}
layer {
  name: "conv6_2"
  type: "Convolution"
  bottom: "conv6_1"
  top: "conv6_2"
  param {
    lr_mult: 1
    decay_mult: 1
  }
  param {
    lr_mult: 2
    decay_mult: 0
  }
  convolution_param {
    num_output: 512
    pad: 1
    kernel_size: 3
    stride: 2
    weight_filler {
      type: "xavier"
    }
    bias_filler {
      type: "constant"
      value: 0
    }
  }
}
layer {
  name: "conv6_2_relu"
  type: "ReLU"
  bottom: "conv6_2"
  top: "conv6_2"
}
layer {
  name: "conv7_1"
  type: "Convolution"
  bottom: "conv6_2"
  top: "conv7_1"
  param {
    lr_mult: 1
    decay_mult: 1
  }
  param {
    lr_mult: 2
    decay_mult: 0
  }
  convolution_param {
    num_output: 128
    pad: 0
    kernel_size: 1
    stride: 1
    weight_filler {
      type: "xavier"
    }
    bias_filler {
      type: "constant"
      value: 0
    }
  }
}
layer {
  name: "conv7_1_relu"
  type: "ReLU"
  bottom: "conv7_1"
  top: "conv7_1"
}
layer {
  name: "conv7_2"
  type: "Convolution"
  bottom: "conv7_1"
  top: "conv7_2"
  param {
    lr_mult: 1
    decay_mult: 1
  }
  param {
    lr_mult: 2
    decay_mult: 0
  }
  convolution_param {
    num_output: 256
    pad: 1
    kernel_size: 3
    stride: 2
    weight_filler {
      type: "xavier"
    }
    bias_filler {
      type: "constant"
      value: 0
    }
  }
}
layer {
  name: "conv7_2_relu"
  type: "ReLU"
  bottom: "conv7_2"
  top: "conv7_2"
}
layer {
  name: "conv8_1"
  type: "Convolution"
  bottom: "conv7_2"
  top: "conv8_1"
  param {
    lr_mult: 1
    decay_mult: 1
  }
  param {
    lr_mult: 2
    decay_mult: 0
  }
  convolution_param {
    num_output: 128
    pad: 0
    kernel_size: 1
    stride: 1
    weight_filler {
      type: "xavier"
    }
    bias_filler {
      type: "constant"
      value: 0
    }
  }
}
layer {
  name: "conv8_1_relu"
  type: "ReLU"
  bottom: "conv8_1"
  top: "conv8_1"
}
layer {
  name: "conv8_2"
  type: "Convolution"
  bottom: "conv8_1"
  top: "conv8_2"
  param {
    lr_mult: 1
    decay_mult: 1
  }
  param {
    lr_mult: 2
    decay_mult: 0
  }
  convolution_param {
    num_output: 256
    pad: 0
    kernel_size: 3
    stride: 1
    weight_filler {
      type: "xavier"
    }
    bias_filler {
      type: "constant"
      value: 0
    }
  }
}
layer {
  name: "conv8_2_relu"
  type: "ReLU"
  bottom: "conv8_2"
  top: "conv8_2"
}
layer {
  name: "conv9_1"
  type: "Convolution"
  bottom: "conv8_2"
  top: "conv9_1"
  param {
    lr_mult: 1
    decay_mult: 1
  }
  param {
    lr_mult: 2
    decay_mult: 0
  }
  convolution_param {
    num_output: 128
    pad: 0
    kernel_size: 1
    stride: 1
    weight_filler {
      type: "xavier"
    }
    bias_filler {
      type: "constant"
      value: 0
    }
  }
}
layer {
  name: "conv9_1_relu"
  type: "ReLU"
  bottom: "conv9_1"
  top: "conv9_1"
}
layer {
  name: "conv9_2"
  type: "Convolution"
  bottom: "conv9_1"
  top: "conv9_2"
  param {
    lr_mult: 1
    decay_mult: 1
  }
  param {
    lr_mult: 2
    decay_mult: 0
  }
  convolution_param {
    num_output: 256
    pad: 0
    kernel_size: 3
    stride: 1
    weight_filler {
      type: "xavier"
    }
    bias_filler {
      type: "constant"
      value: 0
    }
  }
}
layer {
  name: "conv9_2_relu"
  type: "ReLU"
  bottom: "conv9_2"
  top: "conv9_2"
}
layer {
  name: "conv4_3_norm"
  type: "Normalize"
  bottom: "conv4_3"
  top: "conv4_3_norm"
  norm_param {
    across_spatial: false
    scale_filler {
      type: "constant"
      value: 20
    }
    channel_shared: false
  }
}
layer {
  name: "conv4_3_norm_mbox_loc"
  type: "Convolution"
  bottom: "conv4_3_norm"
  top: "conv4_3_norm_mbox_loc"
  param {
    lr_mult: 1
    decay_mult: 1
  }
  param {
    lr_mult: 2
    decay_mult: 0
  }
  convolution_param {
    num_output: 16
    pad: 1
    kernel_size: 3
    stride: 1
    weight_filler {
      type: "xavier"
    }
    bias_filler {
      type: "constant"
      value: 0
    }
  }
}
layer {
  name: "conv4_3_norm_mbox_loc_perm"
  type: "Permute"
  bottom: "conv4_3_norm_mbox_loc"
  top: "conv4_3_norm_mbox_loc_perm"
  permute_param {
    order: 0
    order: 2
    order: 3
    order: 1
  }
}
layer {
  name: "conv4_3_norm_mbox_loc_flat"
  type: "Flatten"
  bottom: "conv4_3_norm_mbox_loc_perm"
  top: "conv4_3_norm_mbox_loc_flat"
  flatten_param {
    axis: 1
  }
}
layer {
  name: "conv4_3_norm_mbox_conf"
  type: "Convolution"
  bottom: "conv4_3_norm"
  top: "conv4_3_norm_mbox_conf"
  param {
    lr_mult: 1
    decay_mult: 1
  }
  param {
    lr_mult: 2
    decay_mult: 0
  }
  convolution_param {
    num_output: 16
    pad: 1
    kernel_size: 3
    stride: 1
    weight_filler {
      type: "xavier"
    }
    bias_filler {
      type: "constant"
      value: 0
    }
  }
}
layer {
  name: "conv4_3_norm_mbox_conf_perm"
  type: "Permute"
  bottom: "conv4_3_norm_mbox_conf"
  top: "conv4_3_norm_mbox_conf_perm"
  permute_param {
    order: 0
    order: 2
    order: 3
    order: 1
  }
}
layer {
  name: "conv4_3_norm_mbox_conf_flat"
  type: "Flatten"
  bottom: "conv4_3_norm_mbox_conf_perm"
  top: "conv4_3_norm_mbox_conf_flat"
  flatten_param {
    axis: 1
  }
}
layer {
  name: "conv4_3_norm_mbox_priorbox"
  type: "PriorBox"
  bottom: "conv4_3_norm"
  bottom: "data"
  top: "conv4_3_norm_mbox_priorbox"
  prior_box_param {
    min_size: 30
    max_size: 60
    aspect_ratio: 2
    flip: true
    clip: false
    variance: 0.1
    variance: 0.1
    variance: 0.2
    variance: 0.2
    step: 8
    offset: 0.5
  }
}
layer {
  name: "fc7_mbox_loc"
  type: "Convolution"
  bottom: "fc7"
  top: "fc7_mbox_loc"
  param {
    lr_mult: 1
    decay_mult: 1
  }
  param {
    lr_mult: 2
    decay_mult: 0
  }
  convolution_param {
    num_output: 24
    pad: 1
    kernel_size: 3
    stride: 1
    weight_filler {
      type: "xavier"
    }
    bias_filler {
      type: "constant"
      value: 0
    }
  }
}
layer {
  name: "fc7_mbox_loc_perm"
  type: "Permute"
  bottom: "fc7_mbox_loc"
  top: "fc7_mbox_loc_perm"
  permute_param {
    order: 0
    order: 2
    order: 3
    order: 1
  }
}
layer {
  name: "fc7_mbox_loc_flat"
  type: "Flatten"
  bottom: "fc7_mbox_loc_perm"
  top: "fc7_mbox_loc_flat"
  flatten_param {
    axis: 1
  }
}
layer {
  name: "fc7_mbox_conf"
  type: "Convolution"
  bottom: "fc7"
  top: "fc7_mbox_conf"
  param {
    lr_mult: 1
    decay_mult: 1
  }
  param {
    lr_mult: 2
    decay_mult: 0
  }
  convolution_param {
    num_output: 24
    pad: 1
    kernel_size: 3
    stride: 1
    weight_filler {
      type: "xavier"
    }
    bias_filler {
      type: "constant"
      value: 0
    }
  }
}
layer {
  name: "fc7_mbox_conf_perm"
  type: "Permute"
  bottom: "fc7_mbox_conf"
  top: "fc7_mbox_conf_perm"
  permute_param {
    order: 0
    order: 2
    order: 3
    order: 1
  }
}
layer {
  name: "fc7_mbox_conf_flat"
  type: "Flatten"
  bottom: "fc7_mbox_conf_perm"
  top: "fc7_mbox_conf_flat"
  flatten_param {
    axis: 1
  }
}
layer {
  name: "fc7_mbox_priorbox"
  type: "PriorBox"
  bottom: "fc7"
  bottom: "data"
  top: "fc7_mbox_priorbox"
  prior_box_param {
    min_size: 60
    max_size: 111
    aspect_ratio: 2
    aspect_ratio: 3
    flip: true
    clip: false
    variance: 0.1
    variance: 0.1
    variance: 0.2
    variance: 0.2
    step: 16
    offset: 0.5
  }
}
layer {
  name: "conv6_2_mbox_loc"
  type: "Convolution"
  bottom: "conv6_2"
  top: "conv6_2_mbox_loc"
  param {
    lr_mult: 1
    decay_mult: 1
  }
  param {
    lr_mult: 2
    decay_mult: 0
  }
  convolution_param {
    num_output: 24
    pad: 1
    kernel_size: 3
    stride: 1
    weight_filler {
      type: "xavier"
    }
    bias_filler {
      type: "constant"
      value: 0
    }
  }
}
layer {
  name: "conv6_2_mbox_loc_perm"
  type: "Permute"
  bottom: "conv6_2_mbox_loc"
  top: "conv6_2_mbox_loc_perm"
  permute_param {
    order: 0
    order: 2
    order: 3
    order: 1
  }
}
layer {
  name: "conv6_2_mbox_loc_flat"
  type: "Flatten"
  bottom: "conv6_2_mbox_loc_perm"
  top: "conv6_2_mbox_loc_flat"
  flatten_param {
    axis: 1
  }
}
layer {
  name: "conv6_2_mbox_conf"
  type: "Convolution"
  bottom: "conv6_2"
  top: "conv6_2_mbox_conf"
  param {
    lr_mult: 1
    decay_mult: 1
  }
  param {
    lr_mult: 2
    decay_mult: 0
  }
  convolution_param {
    num_output: 24
    pad: 1
    kernel_size: 3
    stride: 1
    weight_filler {
      type: "xavier"
    }
    bias_filler {
      type: "constant"
      value: 0
    }
  }
}
layer {
  name: "conv6_2_mbox_conf_perm"
  type: "Permute"
  bottom: "conv6_2_mbox_conf"
  top: "conv6_2_mbox_conf_perm"
  permute_param {
    order: 0
    order: 2
    order: 3
    order: 1
  }
}
layer {
  name: "conv6_2_mbox_conf_flat"
  type: "Flatten"
  bottom: "conv6_2_mbox_conf_perm"
  top: "conv6_2_mbox_conf_flat"
  flatten_param {
    axis: 1
  }
}
layer {
  name: "conv6_2_mbox_priorbox"
  type: "PriorBox"
  bottom: "conv6_2"
  bottom: "data"
  top: "conv6_2_mbox_priorbox"
  prior_box_param {
    min_size: 111
    max_size: 162
    aspect_ratio: 2
    aspect_ratio: 3
    flip: true
    clip: false
    variance: 0.1
    variance: 0.1
    variance: 0.2
    variance: 0.2
    step: 32
    offset: 0.5
  }
}
layer {
  name: "conv7_2_mbox_loc"
  type: "Convolution"
  bottom: "conv7_2"
  top: "conv7_2_mbox_loc"
  param {
    lr_mult: 1
    decay_mult: 1
  }
  param {
    lr_mult: 2
    decay_mult: 0
  }
  convolution_param {
    num_output: 24
    pad: 1
    kernel_size: 3
    stride: 1
    weight_filler {
      type: "xavier"
    }
    bias_filler {
      type: "constant"
      value: 0
    }
  }
}
layer {
  name: "conv7_2_mbox_loc_perm"
  type: "Permute"
  bottom: "conv7_2_mbox_loc"
  top: "conv7_2_mbox_loc_perm"
  permute_param {
    order: 0
    order: 2
    order: 3
    order: 1
  }
}
layer {
  name: "conv7_2_mbox_loc_flat"
  type: "Flatten"
  bottom: "conv7_2_mbox_loc_perm"
  top: "conv7_2_mbox_loc_flat"
  flatten_param {
    axis: 1
  }
}
layer {
  name: "conv7_2_mbox_conf"
  type: "Convolution"
  bottom: "conv7_2"
  top: "conv7_2_mbox_conf"
  param {
    lr_mult: 1
    decay_mult: 1
  }
  param {
    lr_mult: 2
    decay_mult: 0
  }
  convolution_param {
    num_output: 24
    pad: 1
    kernel_size: 3
    stride: 1
    weight_filler {
      type: "xavier"
    }
    bias_filler {
      type: "constant"
      value: 0
    }
  }
}
layer {
  name: "conv7_2_mbox_conf_perm"
  type: "Permute"
  bottom: "conv7_2_mbox_conf"
  top: "conv7_2_mbox_conf_perm"
  permute_param {
    order: 0
    order: 2
    order: 3
    order: 1
  }
}
layer {
  name: "conv7_2_mbox_conf_flat"
  type: "Flatten"
  bottom: "conv7_2_mbox_conf_perm"
  top: "conv7_2_mbox_conf_flat"
  flatten_param {
    axis: 1
  }
}
layer {
  name: "conv7_2_mbox_priorbox"
  type: "PriorBox"
  bottom: "conv7_2"
  bottom: "data"
  top: "conv7_2_mbox_priorbox"
  prior_box_param {
    min_size: 162
    max_size: 213
    aspect_ratio: 2
    aspect_ratio: 3
    flip: true
    clip: false
    variance: 0.1
    variance: 0.1
    variance: 0.2
    variance: 0.2
    step: 64
    offset: 0.5
  }
}
layer {
  name: "conv8_2_mbox_loc"
  type: "Convolution"
  bottom: "conv8_2"
  top: "conv8_2_mbox_loc"
  param {
    lr_mult: 1
    decay_mult: 1
  }
  param {
    lr_mult: 2
    decay_mult: 0
  }
  convolution_param {
    num_output: 16
    pad: 1
    kernel_size: 3
    stride: 1
    weight_filler {
      type: "xavier"
    }
    bias_filler {
      type: "constant"
      value: 0
    }
  }
}
layer {
  name: "conv8_2_mbox_loc_perm"
  type: "Permute"
  bottom: "conv8_2_mbox_loc"
  top: "conv8_2_mbox_loc_perm"
  permute_param {
    order: 0
    order: 2
    order: 3
    order: 1
  }
}
layer {
  name: "conv8_2_mbox_loc_flat"
  type: "Flatten"
  bottom: "conv8_2_mbox_loc_perm"
  top: "conv8_2_mbox_loc_flat"
  flatten_param {
    axis: 1
  }
}
layer {
  name: "conv8_2_mbox_conf"
  type: "Convolution"
  bottom: "conv8_2"
  top: "conv8_2_mbox_conf"
  param {
    lr_mult: 1
    decay_mult: 1
  }
  param {
    lr_mult: 2
    decay_mult: 0
  }
  convolution_param {
    num_output: 16
    pad: 1
    kernel_size: 3
    stride: 1
    weight_filler {
      type: "xavier"
    }
    bias_filler {
      type: "constant"
      value: 0
    }
  }
}
layer {
  name: "conv8_2_mbox_conf_perm"
  type: "Permute"
  bottom: "conv8_2_mbox_conf"
  top: "conv8_2_mbox_conf_perm"
  permute_param {
    order: 0
    order: 2
    order: 3
    order: 1
  }
}
layer {
  name: "conv8_2_mbox_conf_flat"
  type: "Flatten"
  bottom: "conv8_2_mbox_conf_perm"
  top: "conv8_2_mbox_conf_flat"
  flatten_param {
    axis: 1
  }
}
layer {
  name: "conv8_2_mbox_priorbox"
  type: "PriorBox"
  bottom: "conv8_2"
  bottom: "data"
  top: "conv8_2_mbox_priorbox"
  prior_box_param {
    min_size: 213
    max_size: 264
    aspect_ratio: 2
    flip: true
    clip: false
    variance: 0.1
    variance: 0.1
    variance: 0.2
    variance: 0.2
    step: 100
    offset: 0.5
  }
}
layer {
  name: "conv9_2_mbox_loc"
  type: "Convolution"
  bottom: "conv9_2"
  top: "conv9_2_mbox_loc"
  param {
    lr_mult: 1
    decay_mult: 1
  }
  param {
    lr_mult: 2
    decay_mult: 0
  }
  convolution_param {
    num_output: 16
    pad: 1
    kernel_size: 3
    stride: 1
    weight_filler {
      type: "xavier"
    }
    bias_filler {
      type: "constant"
      value: 0
    }
  }
}
layer {
  name: "conv9_2_mbox_loc_perm"
  type: "Permute"
  bottom: "conv9_2_mbox_loc"
  top: "conv9_2_mbox_loc_perm"
  permute_param {
    order: 0
    order: 2
    order: 3
    order: 1
  }
}
layer {
  name: "conv9_2_mbox_loc_flat"
  type: "Flatten"
  bottom: "conv9_2_mbox_loc_perm"
  top: "conv9_2_mbox_loc_flat"
  flatten_param {
    axis: 1
  }
}
layer {
  name: "conv9_2_mbox_conf"
  type: "Convolution"
  bottom: "conv9_2"
  top: "conv9_2_mbox_conf"
  param {
    lr_mult: 1
    decay_mult: 1
  }
  param {
    lr_mult: 2
    decay_mult: 0
  }
  convolution_param {
    num_output: 16
    pad: 1
    kernel_size: 3
    stride: 1
    weight_filler {
      type: "xavier"
    }
    bias_filler {
      type: "constant"
      value: 0
    }
  }
}
layer {
  name: "conv9_2_mbox_conf_perm"
  type: "Permute"
  bottom: "conv9_2_mbox_conf"
  top: "conv9_2_mbox_conf_perm"
  permute_param {
    order: 0
    order: 2
    order: 3
    order: 1
  }
}
layer {
  name: "conv9_2_mbox_conf_flat"
  type: "Flatten"
  bottom: "conv9_2_mbox_conf_perm"
  top: "conv9_2_mbox_conf_flat"
  flatten_param {
    axis: 1
  }
}
layer {
  name: "conv9_2_mbox_priorbox"
  type: "PriorBox"
  bottom: "conv9_2"
  bottom: "data"
  top: "conv9_2_mbox_priorbox"
  prior_box_param {
    min_size: 264
    max_size: 315
    aspect_ratio: 2
    flip: true
    clip: false
    variance: 0.1
    variance: 0.1
    variance: 0.2
    variance: 0.2
    step: 300
    offset: 0.5
  }
}
layer {
  name: "mbox_loc"
  type: "Concat"
  bottom: "conv4_3_norm_mbox_loc_flat"
  bottom: "fc7_mbox_loc_flat"
  bottom: "conv6_2_mbox_loc_flat"
  bottom: "conv7_2_mbox_loc_flat"
  bottom: "conv8_2_mbox_loc_flat"
  bottom: "conv9_2_mbox_loc_flat"
  top: "mbox_loc"
  concat_param {
    axis: 1
  }
}
layer {
  name: "mbox_conf"
  type: "Concat"
  bottom: "conv4_3_norm_mbox_conf_flat"
  bottom: "fc7_mbox_conf_flat"
  bottom: "conv6_2_mbox_conf_flat"
  bottom: "conv7_2_mbox_conf_flat"
  bottom: "conv8_2_mbox_conf_flat"
  bottom: "conv9_2_mbox_conf_flat"
  top: "mbox_conf"
  concat_param {
    axis: 1
  }
}
layer {
  name: "mbox_priorbox"
  type: "Concat"
  bottom: "conv4_3_norm_mbox_priorbox"
  bottom: "fc7_mbox_priorbox"
  bottom: "conv6_2_mbox_priorbox"
  bottom: "conv7_2_mbox_priorbox"
  bottom: "conv8_2_mbox_priorbox"
  bottom: "conv9_2_mbox_priorbox"
  top: "mbox_priorbox"
  concat_param {
    axis: 2
  }
}
layer {
  name: "mbox_conf_reshape"
  type: "Reshape"
  bottom: "mbox_conf"
  top: "mbox_conf_reshape"
  reshape_param {
    shape {
      dim: 0
      dim: -1
      dim: 4
    }
  }
}
layer {
  name: "mbox_conf_softmax"
  type: "Softmax"
  bottom: "mbox_conf_reshape"
  top: "mbox_conf_softmax"
  softmax_param {
    axis: 2
  }
}
layer {
  name: "mbox_conf_flatten"
  type: "Flatten"
  bottom: "mbox_conf_softmax"
  top: "mbox_conf_flatten"
  flatten_param {
    axis: 1
  }
}
layer {
  name: "detection_out"
  type: "DetectionOutput"
  bottom: "mbox_loc"
  bottom: "mbox_conf_flatten"
  bottom: "mbox_priorbox"
  top: "detection_out"
  include {
    phase: TEST
  }
  detection_output_param {
    num_classes: 4
    share_location: true
    background_label_id: 0
    nms_param {
      nms_threshold: 0.45
      top_k: 400
    }
    save_output_param {
      output_directory: "/home/shangzw/data/tbs/results/tbs/SSD_300x300/Main"
      output_name_prefix: "comp4_det_test_"
      output_format: "VOC"
      label_map_file: "data/tbs_300x300_HSIL_10x/labelmap_voc.prototxt"
      name_size_file: "data/VOC0712/test_name_size.txt"
      num_test_image: 100
    }
    code_type: CENTER_SIZE
    keep_top_k: 200
    confidence_threshold: 0.01
  }
}
layer {
  name: "detection_eval"
  type: "DetectionEvaluate"
  bottom: "detection_out"
  bottom: "label"
  top: "detection_eval"
  include {
    phase: TEST
  }
  detection_evaluate_param {
    num_classes: 4
    background_label_id: 0
    overlap_threshold: 0.5
    evaluate_difficult_gt: false
    name_size_file: "data/VOC0712/test_name_size.txt"
  }
}
I0602 09:59:17.495705 20329 layer_factory.hpp:77] Creating layer data
I0602 09:59:17.495859 20329 net.cpp:100] Creating Layer data
I0602 09:59:17.495868 20329 net.cpp:408] data -> data
I0602 09:59:17.495878 20329 net.cpp:408] data -> label
I0602 09:59:17.496742 20348 db_lmdb.cpp:35] Opened lmdb examples/tbs_300x300_HSIL_10x/tbs_300x300_HSIL_10x_test_lmdb
I0602 09:59:17.497457 20329 annotated_data_layer.cpp:62] output data size: 4,3,300,300
I0602 09:59:17.507829 20329 net.cpp:150] Setting up data
I0602 09:59:17.507869 20329 net.cpp:157] Top shape: 4 3 300 300 (1080000)
I0602 09:59:17.507875 20329 net.cpp:157] Top shape: 1 1 1 8 (8)
I0602 09:59:17.507879 20329 net.cpp:165] Memory required for data: 4320032
I0602 09:59:17.507884 20329 layer_factory.hpp:77] Creating layer data_data_0_split
I0602 09:59:17.507899 20329 net.cpp:100] Creating Layer data_data_0_split
I0602 09:59:17.507916 20329 net.cpp:434] data_data_0_split <- data
I0602 09:59:17.507925 20329 net.cpp:408] data_data_0_split -> data_data_0_split_0
I0602 09:59:17.507935 20329 net.cpp:408] data_data_0_split -> data_data_0_split_1
I0602 09:59:17.507941 20329 net.cpp:408] data_data_0_split -> data_data_0_split_2
I0602 09:59:17.507951 20329 net.cpp:408] data_data_0_split -> data_data_0_split_3
I0602 09:59:17.507964 20329 net.cpp:408] data_data_0_split -> data_data_0_split_4
I0602 09:59:17.507971 20329 net.cpp:408] data_data_0_split -> data_data_0_split_5
I0602 09:59:17.507977 20329 net.cpp:408] data_data_0_split -> data_data_0_split_6
I0602 09:59:17.508257 20329 net.cpp:150] Setting up data_data_0_split
I0602 09:59:17.508267 20329 net.cpp:157] Top shape: 4 3 300 300 (1080000)
I0602 09:59:17.508272 20329 net.cpp:157] Top shape: 4 3 300 300 (1080000)
I0602 09:59:17.508277 20329 net.cpp:157] Top shape: 4 3 300 300 (1080000)
I0602 09:59:17.508281 20329 net.cpp:157] Top shape: 4 3 300 300 (1080000)
I0602 09:59:17.508288 20329 net.cpp:157] Top shape: 4 3 300 300 (1080000)
I0602 09:59:17.508306 20329 net.cpp:157] Top shape: 4 3 300 300 (1080000)
I0602 09:59:17.508311 20329 net.cpp:157] Top shape: 4 3 300 300 (1080000)
I0602 09:59:17.508314 20329 net.cpp:165] Memory required for data: 34560032
I0602 09:59:17.508318 20329 layer_factory.hpp:77] Creating layer conv1_1
I0602 09:59:17.508330 20329 net.cpp:100] Creating Layer conv1_1
I0602 09:59:17.508335 20329 net.cpp:434] conv1_1 <- data_data_0_split_0
I0602 09:59:17.508342 20329 net.cpp:408] conv1_1 -> conv1_1
I0602 09:59:17.510284 20329 net.cpp:150] Setting up conv1_1
I0602 09:59:17.510306 20329 net.cpp:157] Top shape: 4 64 300 300 (23040000)
I0602 09:59:17.510308 20329 net.cpp:165] Memory required for data: 126720032
I0602 09:59:17.510319 20329 layer_factory.hpp:77] Creating layer relu1_1
I0602 09:59:17.510329 20329 net.cpp:100] Creating Layer relu1_1
I0602 09:59:17.510334 20329 net.cpp:434] relu1_1 <- conv1_1
I0602 09:59:17.510340 20329 net.cpp:395] relu1_1 -> conv1_1 (in-place)
I0602 09:59:17.510499 20329 net.cpp:150] Setting up relu1_1
I0602 09:59:17.510509 20329 net.cpp:157] Top shape: 4 64 300 300 (23040000)
I0602 09:59:17.510510 20329 net.cpp:165] Memory required for data: 218880032
I0602 09:59:17.510514 20329 layer_factory.hpp:77] Creating layer conv1_2
I0602 09:59:17.510525 20329 net.cpp:100] Creating Layer conv1_2
I0602 09:59:17.510530 20329 net.cpp:434] conv1_2 <- conv1_1
I0602 09:59:17.510537 20329 net.cpp:408] conv1_2 -> conv1_2
I0602 09:59:17.513411 20329 net.cpp:150] Setting up conv1_2
I0602 09:59:17.513428 20329 net.cpp:157] Top shape: 4 64 300 300 (23040000)
I0602 09:59:17.513432 20329 net.cpp:165] Memory required for data: 311040032
I0602 09:59:17.513442 20329 layer_factory.hpp:77] Creating layer relu1_2
I0602 09:59:17.513451 20329 net.cpp:100] Creating Layer relu1_2
I0602 09:59:17.513455 20329 net.cpp:434] relu1_2 <- conv1_2
I0602 09:59:17.513461 20329 net.cpp:395] relu1_2 -> conv1_2 (in-place)
I0602 09:59:17.514149 20329 net.cpp:150] Setting up relu1_2
I0602 09:59:17.514160 20329 net.cpp:157] Top shape: 4 64 300 300 (23040000)
I0602 09:59:17.514163 20329 net.cpp:165] Memory required for data: 403200032
I0602 09:59:17.514165 20329 layer_factory.hpp:77] Creating layer pool1
I0602 09:59:17.514173 20329 net.cpp:100] Creating Layer pool1
I0602 09:59:17.514175 20329 net.cpp:434] pool1 <- conv1_2
I0602 09:59:17.514180 20329 net.cpp:408] pool1 -> pool1
I0602 09:59:17.514230 20329 net.cpp:150] Setting up pool1
I0602 09:59:17.514235 20329 net.cpp:157] Top shape: 4 64 150 150 (5760000)
I0602 09:59:17.514236 20329 net.cpp:165] Memory required for data: 426240032
I0602 09:59:17.514238 20329 layer_factory.hpp:77] Creating layer conv2_1
I0602 09:59:17.514247 20329 net.cpp:100] Creating Layer conv2_1
I0602 09:59:17.514250 20329 net.cpp:434] conv2_1 <- pool1
I0602 09:59:17.514255 20329 net.cpp:408] conv2_1 -> conv2_1
I0602 09:59:17.515925 20329 net.cpp:150] Setting up conv2_1
I0602 09:59:17.515944 20329 net.cpp:157] Top shape: 4 128 150 150 (11520000)
I0602 09:59:17.515947 20329 net.cpp:165] Memory required for data: 472320032
I0602 09:59:17.515960 20329 layer_factory.hpp:77] Creating layer relu2_1
I0602 09:59:17.515971 20329 net.cpp:100] Creating Layer relu2_1
I0602 09:59:17.515977 20329 net.cpp:434] relu2_1 <- conv2_1
I0602 09:59:17.515985 20329 net.cpp:395] relu2_1 -> conv2_1 (in-place)
I0602 09:59:17.516748 20329 net.cpp:150] Setting up relu2_1
I0602 09:59:17.516762 20329 net.cpp:157] Top shape: 4 128 150 150 (11520000)
I0602 09:59:17.516765 20329 net.cpp:165] Memory required for data: 518400032
I0602 09:59:17.516768 20329 layer_factory.hpp:77] Creating layer conv2_2
I0602 09:59:17.516780 20329 net.cpp:100] Creating Layer conv2_2
I0602 09:59:17.516785 20329 net.cpp:434] conv2_2 <- conv2_1
I0602 09:59:17.516794 20329 net.cpp:408] conv2_2 -> conv2_2
I0602 09:59:17.520189 20329 net.cpp:150] Setting up conv2_2
I0602 09:59:17.520207 20329 net.cpp:157] Top shape: 4 128 150 150 (11520000)
I0602 09:59:17.520210 20329 net.cpp:165] Memory required for data: 564480032
I0602 09:59:17.520217 20329 layer_factory.hpp:77] Creating layer relu2_2
I0602 09:59:17.520241 20329 net.cpp:100] Creating Layer relu2_2
I0602 09:59:17.520246 20329 net.cpp:434] relu2_2 <- conv2_2
I0602 09:59:17.520251 20329 net.cpp:395] relu2_2 -> conv2_2 (in-place)
I0602 09:59:17.520423 20329 net.cpp:150] Setting up relu2_2
I0602 09:59:17.520431 20329 net.cpp:157] Top shape: 4 128 150 150 (11520000)
I0602 09:59:17.520434 20329 net.cpp:165] Memory required for data: 610560032
I0602 09:59:17.520437 20329 layer_factory.hpp:77] Creating layer pool2
I0602 09:59:17.520445 20329 net.cpp:100] Creating Layer pool2
I0602 09:59:17.520449 20329 net.cpp:434] pool2 <- conv2_2
I0602 09:59:17.520455 20329 net.cpp:408] pool2 -> pool2
I0602 09:59:17.520512 20329 net.cpp:150] Setting up pool2
I0602 09:59:17.520519 20329 net.cpp:157] Top shape: 4 128 75 75 (2880000)
I0602 09:59:17.520520 20329 net.cpp:165] Memory required for data: 622080032
I0602 09:59:17.520524 20329 layer_factory.hpp:77] Creating layer conv3_1
I0602 09:59:17.520534 20329 net.cpp:100] Creating Layer conv3_1
I0602 09:59:17.520539 20329 net.cpp:434] conv3_1 <- pool2
I0602 09:59:17.520547 20329 net.cpp:408] conv3_1 -> conv3_1
I0602 09:59:17.523460 20329 net.cpp:150] Setting up conv3_1
I0602 09:59:17.523475 20329 net.cpp:157] Top shape: 4 256 75 75 (5760000)
I0602 09:59:17.523478 20329 net.cpp:165] Memory required for data: 645120032
I0602 09:59:17.523490 20329 layer_factory.hpp:77] Creating layer relu3_1
I0602 09:59:17.523499 20329 net.cpp:100] Creating Layer relu3_1
I0602 09:59:17.523502 20329 net.cpp:434] relu3_1 <- conv3_1
I0602 09:59:17.523509 20329 net.cpp:395] relu3_1 -> conv3_1 (in-place)
I0602 09:59:17.523674 20329 net.cpp:150] Setting up relu3_1
I0602 09:59:17.523681 20329 net.cpp:157] Top shape: 4 256 75 75 (5760000)
I0602 09:59:17.523684 20329 net.cpp:165] Memory required for data: 668160032
I0602 09:59:17.523687 20329 layer_factory.hpp:77] Creating layer conv3_2
I0602 09:59:17.523699 20329 net.cpp:100] Creating Layer conv3_2
I0602 09:59:17.523702 20329 net.cpp:434] conv3_2 <- conv3_1
I0602 09:59:17.523711 20329 net.cpp:408] conv3_2 -> conv3_2
I0602 09:59:17.529500 20329 net.cpp:150] Setting up conv3_2
I0602 09:59:17.529516 20329 net.cpp:157] Top shape: 4 256 75 75 (5760000)
I0602 09:59:17.529520 20329 net.cpp:165] Memory required for data: 691200032
I0602 09:59:17.529526 20329 layer_factory.hpp:77] Creating layer relu3_2
I0602 09:59:17.529537 20329 net.cpp:100] Creating Layer relu3_2
I0602 09:59:17.529542 20329 net.cpp:434] relu3_2 <- conv3_2
I0602 09:59:17.529548 20329 net.cpp:395] relu3_2 -> conv3_2 (in-place)
I0602 09:59:17.529742 20329 net.cpp:150] Setting up relu3_2
I0602 09:59:17.529750 20329 net.cpp:157] Top shape: 4 256 75 75 (5760000)
I0602 09:59:17.529752 20329 net.cpp:165] Memory required for data: 714240032
I0602 09:59:17.529754 20329 layer_factory.hpp:77] Creating layer conv3_3
I0602 09:59:17.529769 20329 net.cpp:100] Creating Layer conv3_3
I0602 09:59:17.529775 20329 net.cpp:434] conv3_3 <- conv3_2
I0602 09:59:17.529783 20329 net.cpp:408] conv3_3 -> conv3_3
I0602 09:59:17.543797 20329 net.cpp:150] Setting up conv3_3
I0602 09:59:17.543814 20329 net.cpp:157] Top shape: 4 256 75 75 (5760000)
I0602 09:59:17.543817 20329 net.cpp:165] Memory required for data: 737280032
I0602 09:59:17.543824 20329 layer_factory.hpp:77] Creating layer relu3_3
I0602 09:59:17.543831 20329 net.cpp:100] Creating Layer relu3_3
I0602 09:59:17.543834 20329 net.cpp:434] relu3_3 <- conv3_3
I0602 09:59:17.543853 20329 net.cpp:395] relu3_3 -> conv3_3 (in-place)
I0602 09:59:17.556272 20329 net.cpp:150] Setting up relu3_3
I0602 09:59:17.556289 20329 net.cpp:157] Top shape: 4 256 75 75 (5760000)
I0602 09:59:17.556291 20329 net.cpp:165] Memory required for data: 760320032
I0602 09:59:17.556295 20329 layer_factory.hpp:77] Creating layer pool3
I0602 09:59:17.556303 20329 net.cpp:100] Creating Layer pool3
I0602 09:59:17.556320 20329 net.cpp:434] pool3 <- conv3_3
I0602 09:59:17.556326 20329 net.cpp:408] pool3 -> pool3
I0602 09:59:17.556406 20329 net.cpp:150] Setting up pool3
I0602 09:59:17.556414 20329 net.cpp:157] Top shape: 4 256 38 38 (1478656)
I0602 09:59:17.556432 20329 net.cpp:165] Memory required for data: 766234656
I0602 09:59:17.556437 20329 layer_factory.hpp:77] Creating layer conv4_1
I0602 09:59:17.556449 20329 net.cpp:100] Creating Layer conv4_1
I0602 09:59:17.556455 20329 net.cpp:434] conv4_1 <- pool3
I0602 09:59:17.556463 20329 net.cpp:408] conv4_1 -> conv4_1
I0602 09:59:17.564330 20329 net.cpp:150] Setting up conv4_1
I0602 09:59:17.564347 20329 net.cpp:157] Top shape: 4 512 38 38 (2957312)
I0602 09:59:17.564349 20329 net.cpp:165] Memory required for data: 778063904
I0602 09:59:17.564357 20329 layer_factory.hpp:77] Creating layer relu4_1
I0602 09:59:17.564364 20329 net.cpp:100] Creating Layer relu4_1
I0602 09:59:17.564383 20329 net.cpp:434] relu4_1 <- conv4_1
I0602 09:59:17.564389 20329 net.cpp:395] relu4_1 -> conv4_1 (in-place)
I0602 09:59:17.565060 20329 net.cpp:150] Setting up relu4_1
I0602 09:59:17.565069 20329 net.cpp:157] Top shape: 4 512 38 38 (2957312)
I0602 09:59:17.565073 20329 net.cpp:165] Memory required for data: 789893152
I0602 09:59:17.565074 20329 layer_factory.hpp:77] Creating layer conv4_2
I0602 09:59:17.565085 20329 net.cpp:100] Creating Layer conv4_2
I0602 09:59:17.565090 20329 net.cpp:434] conv4_2 <- conv4_1
I0602 09:59:17.565099 20329 net.cpp:408] conv4_2 -> conv4_2
I0602 09:59:17.578011 20329 net.cpp:150] Setting up conv4_2
I0602 09:59:17.578028 20329 net.cpp:157] Top shape: 4 512 38 38 (2957312)
I0602 09:59:17.578032 20329 net.cpp:165] Memory required for data: 801722400
I0602 09:59:17.578055 20329 layer_factory.hpp:77] Creating layer relu4_2
I0602 09:59:17.578078 20329 net.cpp:100] Creating Layer relu4_2
I0602 09:59:17.578081 20329 net.cpp:434] relu4_2 <- conv4_2
I0602 09:59:17.578086 20329 net.cpp:395] relu4_2 -> conv4_2 (in-place)
I0602 09:59:17.578984 20329 net.cpp:150] Setting up relu4_2
I0602 09:59:17.578994 20329 net.cpp:157] Top shape: 4 512 38 38 (2957312)
I0602 09:59:17.578996 20329 net.cpp:165] Memory required for data: 813551648
I0602 09:59:17.578999 20329 layer_factory.hpp:77] Creating layer conv4_3
I0602 09:59:17.579010 20329 net.cpp:100] Creating Layer conv4_3
I0602 09:59:17.579015 20329 net.cpp:434] conv4_3 <- conv4_2
I0602 09:59:17.579025 20329 net.cpp:408] conv4_3 -> conv4_3
I0602 09:59:17.591856 20329 net.cpp:150] Setting up conv4_3
I0602 09:59:17.591872 20329 net.cpp:157] Top shape: 4 512 38 38 (2957312)
I0602 09:59:17.591874 20329 net.cpp:165] Memory required for data: 825380896
I0602 09:59:17.591881 20329 layer_factory.hpp:77] Creating layer relu4_3
I0602 09:59:17.591902 20329 net.cpp:100] Creating Layer relu4_3
I0602 09:59:17.591905 20329 net.cpp:434] relu4_3 <- conv4_3
I0602 09:59:17.591923 20329 net.cpp:395] relu4_3 -> conv4_3 (in-place)
I0602 09:59:17.592110 20329 net.cpp:150] Setting up relu4_3
I0602 09:59:17.592118 20329 net.cpp:157] Top shape: 4 512 38 38 (2957312)
I0602 09:59:17.592121 20329 net.cpp:165] Memory required for data: 837210144
I0602 09:59:17.592123 20329 layer_factory.hpp:77] Creating layer conv4_3_relu4_3_0_split
I0602 09:59:17.592128 20329 net.cpp:100] Creating Layer conv4_3_relu4_3_0_split
I0602 09:59:17.592146 20329 net.cpp:434] conv4_3_relu4_3_0_split <- conv4_3
I0602 09:59:17.592150 20329 net.cpp:408] conv4_3_relu4_3_0_split -> conv4_3_relu4_3_0_split_0
I0602 09:59:17.592156 20329 net.cpp:408] conv4_3_relu4_3_0_split -> conv4_3_relu4_3_0_split_1
I0602 09:59:17.592216 20329 net.cpp:150] Setting up conv4_3_relu4_3_0_split
I0602 09:59:17.592222 20329 net.cpp:157] Top shape: 4 512 38 38 (2957312)
I0602 09:59:17.592226 20329 net.cpp:157] Top shape: 4 512 38 38 (2957312)
I0602 09:59:17.592227 20329 net.cpp:165] Memory required for data: 860868640
I0602 09:59:17.592229 20329 layer_factory.hpp:77] Creating layer pool4
I0602 09:59:17.592234 20329 net.cpp:100] Creating Layer pool4
I0602 09:59:17.592237 20329 net.cpp:434] pool4 <- conv4_3_relu4_3_0_split_0
I0602 09:59:17.592242 20329 net.cpp:408] pool4 -> pool4
I0602 09:59:17.592311 20329 net.cpp:150] Setting up pool4
I0602 09:59:17.592317 20329 net.cpp:157] Top shape: 4 512 19 19 (739328)
I0602 09:59:17.592319 20329 net.cpp:165] Memory required for data: 863825952
I0602 09:59:17.592351 20329 layer_factory.hpp:77] Creating layer conv5_1
I0602 09:59:17.592375 20329 net.cpp:100] Creating Layer conv5_1
I0602 09:59:17.592377 20329 net.cpp:434] conv5_1 <- pool4
I0602 09:59:17.592398 20329 net.cpp:408] conv5_1 -> conv5_1
I0602 09:59:17.605921 20329 net.cpp:150] Setting up conv5_1
I0602 09:59:17.605938 20329 net.cpp:157] Top shape: 4 512 19 19 (739328)
I0602 09:59:17.605942 20329 net.cpp:165] Memory required for data: 866783264
I0602 09:59:17.605947 20329 layer_factory.hpp:77] Creating layer relu5_1
I0602 09:59:17.605979 20329 net.cpp:100] Creating Layer relu5_1
I0602 09:59:17.605984 20329 net.cpp:434] relu5_1 <- conv5_1
I0602 09:59:17.605988 20329 net.cpp:395] relu5_1 -> conv5_1 (in-place)
I0602 09:59:17.606179 20329 net.cpp:150] Setting up relu5_1
I0602 09:59:17.606186 20329 net.cpp:157] Top shape: 4 512 19 19 (739328)
I0602 09:59:17.606189 20329 net.cpp:165] Memory required for data: 869740576
I0602 09:59:17.606190 20329 layer_factory.hpp:77] Creating layer conv5_2
I0602 09:59:17.606215 20329 net.cpp:100] Creating Layer conv5_2
I0602 09:59:17.606218 20329 net.cpp:434] conv5_2 <- conv5_1
I0602 09:59:17.606223 20329 net.cpp:408] conv5_2 -> conv5_2
I0602 09:59:17.620288 20329 net.cpp:150] Setting up conv5_2
I0602 09:59:17.620306 20329 net.cpp:157] Top shape: 4 512 19 19 (739328)
I0602 09:59:17.620307 20329 net.cpp:165] Memory required for data: 872697888
I0602 09:59:17.620328 20329 layer_factory.hpp:77] Creating layer relu5_2
I0602 09:59:17.620333 20329 net.cpp:100] Creating Layer relu5_2
I0602 09:59:17.620337 20329 net.cpp:434] relu5_2 <- conv5_2
I0602 09:59:17.620342 20329 net.cpp:395] relu5_2 -> conv5_2 (in-place)
I0602 09:59:17.620522 20329 net.cpp:150] Setting up relu5_2
I0602 09:59:17.620530 20329 net.cpp:157] Top shape: 4 512 19 19 (739328)
I0602 09:59:17.620532 20329 net.cpp:165] Memory required for data: 875655200
I0602 09:59:17.620534 20329 layer_factory.hpp:77] Creating layer conv5_3
I0602 09:59:17.620556 20329 net.cpp:100] Creating Layer conv5_3
I0602 09:59:17.620559 20329 net.cpp:434] conv5_3 <- conv5_2
I0602 09:59:17.620565 20329 net.cpp:408] conv5_3 -> conv5_3
I0602 09:59:17.633895 20329 net.cpp:150] Setting up conv5_3
I0602 09:59:17.633911 20329 net.cpp:157] Top shape: 4 512 19 19 (739328)
I0602 09:59:17.633913 20329 net.cpp:165] Memory required for data: 878612512
I0602 09:59:17.633919 20329 layer_factory.hpp:77] Creating layer relu5_3
I0602 09:59:17.633946 20329 net.cpp:100] Creating Layer relu5_3
I0602 09:59:17.633949 20329 net.cpp:434] relu5_3 <- conv5_3
I0602 09:59:17.633954 20329 net.cpp:395] relu5_3 -> conv5_3 (in-place)
I0602 09:59:17.634143 20329 net.cpp:150] Setting up relu5_3
I0602 09:59:17.634150 20329 net.cpp:157] Top shape: 4 512 19 19 (739328)
I0602 09:59:17.634152 20329 net.cpp:165] Memory required for data: 881569824
I0602 09:59:17.634155 20329 layer_factory.hpp:77] Creating layer pool5
I0602 09:59:17.634160 20329 net.cpp:100] Creating Layer pool5
I0602 09:59:17.634178 20329 net.cpp:434] pool5 <- conv5_3
I0602 09:59:17.634182 20329 net.cpp:408] pool5 -> pool5
I0602 09:59:17.634258 20329 net.cpp:150] Setting up pool5
I0602 09:59:17.634265 20329 net.cpp:157] Top shape: 4 512 19 19 (739328)
I0602 09:59:17.634281 20329 net.cpp:165] Memory required for data: 884527136
I0602 09:59:17.634284 20329 layer_factory.hpp:77] Creating layer fc6
I0602 09:59:17.634305 20329 net.cpp:100] Creating Layer fc6
I0602 09:59:17.634307 20329 net.cpp:434] fc6 <- pool5
I0602 09:59:17.634313 20329 net.cpp:408] fc6 -> fc6
I0602 09:59:17.658630 20329 net.cpp:150] Setting up fc6
I0602 09:59:17.658650 20329 net.cpp:157] Top shape: 4 1024 19 19 (1478656)
I0602 09:59:17.658653 20329 net.cpp:165] Memory required for data: 890441760
I0602 09:59:17.658658 20329 layer_factory.hpp:77] Creating layer relu6
I0602 09:59:17.658670 20329 net.cpp:100] Creating Layer relu6
I0602 09:59:17.658675 20329 net.cpp:434] relu6 <- fc6
I0602 09:59:17.658681 20329 net.cpp:395] relu6 -> fc6 (in-place)
I0602 09:59:17.659726 20329 net.cpp:150] Setting up relu6
I0602 09:59:17.659736 20329 net.cpp:157] Top shape: 4 1024 19 19 (1478656)
I0602 09:59:17.659766 20329 net.cpp:165] Memory required for data: 896356384
I0602 09:59:17.659773 20329 layer_factory.hpp:77] Creating layer fc7
I0602 09:59:17.659786 20329 net.cpp:100] Creating Layer fc7
I0602 09:59:17.659792 20329 net.cpp:434] fc7 <- fc6
I0602 09:59:17.659803 20329 net.cpp:408] fc7 -> fc7
I0602 09:59:17.666486 20329 net.cpp:150] Setting up fc7
I0602 09:59:17.666499 20329 net.cpp:157] Top shape: 4 1024 19 19 (1478656)
I0602 09:59:17.666501 20329 net.cpp:165] Memory required for data: 902271008
I0602 09:59:17.666508 20329 layer_factory.hpp:77] Creating layer relu7
I0602 09:59:17.666518 20329 net.cpp:100] Creating Layer relu7
I0602 09:59:17.666523 20329 net.cpp:434] relu7 <- fc7
I0602 09:59:17.666529 20329 net.cpp:395] relu7 -> fc7 (in-place)
I0602 09:59:17.666702 20329 net.cpp:150] Setting up relu7
I0602 09:59:17.666710 20329 net.cpp:157] Top shape: 4 1024 19 19 (1478656)
I0602 09:59:17.666713 20329 net.cpp:165] Memory required for data: 908185632
I0602 09:59:17.666718 20329 layer_factory.hpp:77] Creating layer fc7_relu7_0_split
I0602 09:59:17.666724 20329 net.cpp:100] Creating Layer fc7_relu7_0_split
I0602 09:59:17.666729 20329 net.cpp:434] fc7_relu7_0_split <- fc7
I0602 09:59:17.666736 20329 net.cpp:408] fc7_relu7_0_split -> fc7_relu7_0_split_0
I0602 09:59:17.666744 20329 net.cpp:408] fc7_relu7_0_split -> fc7_relu7_0_split_1
I0602 09:59:17.666759 20329 net.cpp:408] fc7_relu7_0_split -> fc7_relu7_0_split_2
I0602 09:59:17.666769 20329 net.cpp:408] fc7_relu7_0_split -> fc7_relu7_0_split_3
I0602 09:59:17.666841 20329 net.cpp:150] Setting up fc7_relu7_0_split
I0602 09:59:17.666847 20329 net.cpp:157] Top shape: 4 1024 19 19 (1478656)
I0602 09:59:17.666851 20329 net.cpp:157] Top shape: 4 1024 19 19 (1478656)
I0602 09:59:17.666857 20329 net.cpp:157] Top shape: 4 1024 19 19 (1478656)
I0602 09:59:17.666862 20329 net.cpp:157] Top shape: 4 1024 19 19 (1478656)
I0602 09:59:17.666867 20329 net.cpp:165] Memory required for data: 931844128
I0602 09:59:17.666872 20329 layer_factory.hpp:77] Creating layer conv6_1
I0602 09:59:17.666884 20329 net.cpp:100] Creating Layer conv6_1
I0602 09:59:17.666890 20329 net.cpp:434] conv6_1 <- fc7_relu7_0_split_0
I0602 09:59:17.666898 20329 net.cpp:408] conv6_1 -> conv6_1
I0602 09:59:17.670276 20329 net.cpp:150] Setting up conv6_1
I0602 09:59:17.670289 20329 net.cpp:157] Top shape: 4 256 19 19 (369664)
I0602 09:59:17.670292 20329 net.cpp:165] Memory required for data: 933322784
I0602 09:59:17.670300 20329 layer_factory.hpp:77] Creating layer conv6_1_relu
I0602 09:59:17.670307 20329 net.cpp:100] Creating Layer conv6_1_relu
I0602 09:59:17.670315 20329 net.cpp:434] conv6_1_relu <- conv6_1
I0602 09:59:17.670323 20329 net.cpp:395] conv6_1_relu -> conv6_1 (in-place)
I0602 09:59:17.670469 20329 net.cpp:150] Setting up conv6_1_relu
I0602 09:59:17.670478 20329 net.cpp:157] Top shape: 4 256 19 19 (369664)
I0602 09:59:17.670483 20329 net.cpp:165] Memory required for data: 934801440
I0602 09:59:17.670487 20329 layer_factory.hpp:77] Creating layer conv6_2
I0602 09:59:17.670495 20329 net.cpp:100] Creating Layer conv6_2
I0602 09:59:17.670498 20329 net.cpp:434] conv6_2 <- conv6_1
I0602 09:59:17.670505 20329 net.cpp:408] conv6_2 -> conv6_2
I0602 09:59:17.677603 20329 net.cpp:150] Setting up conv6_2
I0602 09:59:17.677619 20329 net.cpp:157] Top shape: 4 512 10 10 (204800)
I0602 09:59:17.677623 20329 net.cpp:165] Memory required for data: 935620640
I0602 09:59:17.677635 20329 layer_factory.hpp:77] Creating layer conv6_2_relu
I0602 09:59:17.677642 20329 net.cpp:100] Creating Layer conv6_2_relu
I0602 09:59:17.677645 20329 net.cpp:434] conv6_2_relu <- conv6_2
I0602 09:59:17.677650 20329 net.cpp:395] conv6_2_relu -> conv6_2 (in-place)
I0602 09:59:17.677800 20329 net.cpp:150] Setting up conv6_2_relu
I0602 09:59:17.677806 20329 net.cpp:157] Top shape: 4 512 10 10 (204800)
I0602 09:59:17.677809 20329 net.cpp:165] Memory required for data: 936439840
I0602 09:59:17.677810 20329 layer_factory.hpp:77] Creating layer conv6_2_conv6_2_relu_0_split
I0602 09:59:17.677816 20329 net.cpp:100] Creating Layer conv6_2_conv6_2_relu_0_split
I0602 09:59:17.677829 20329 net.cpp:434] conv6_2_conv6_2_relu_0_split <- conv6_2
I0602 09:59:17.677834 20329 net.cpp:408] conv6_2_conv6_2_relu_0_split -> conv6_2_conv6_2_relu_0_split_0
I0602 09:59:17.677840 20329 net.cpp:408] conv6_2_conv6_2_relu_0_split -> conv6_2_conv6_2_relu_0_split_1
I0602 09:59:17.677845 20329 net.cpp:408] conv6_2_conv6_2_relu_0_split -> conv6_2_conv6_2_relu_0_split_2
I0602 09:59:17.677850 20329 net.cpp:408] conv6_2_conv6_2_relu_0_split -> conv6_2_conv6_2_relu_0_split_3
I0602 09:59:17.677922 20329 net.cpp:150] Setting up conv6_2_conv6_2_relu_0_split
I0602 09:59:17.677927 20329 net.cpp:157] Top shape: 4 512 10 10 (204800)
I0602 09:59:17.677932 20329 net.cpp:157] Top shape: 4 512 10 10 (204800)
I0602 09:59:17.677933 20329 net.cpp:157] Top shape: 4 512 10 10 (204800)
I0602 09:59:17.677937 20329 net.cpp:157] Top shape: 4 512 10 10 (204800)
I0602 09:59:17.677937 20329 net.cpp:165] Memory required for data: 939716640
I0602 09:59:17.677940 20329 layer_factory.hpp:77] Creating layer conv7_1
I0602 09:59:17.677947 20329 net.cpp:100] Creating Layer conv7_1
I0602 09:59:17.677950 20329 net.cpp:434] conv7_1 <- conv6_2_conv6_2_relu_0_split_0
I0602 09:59:17.677956 20329 net.cpp:408] conv7_1 -> conv7_1
I0602 09:59:17.679493 20329 net.cpp:150] Setting up conv7_1
I0602 09:59:17.679507 20329 net.cpp:157] Top shape: 4 128 10 10 (51200)
I0602 09:59:17.679509 20329 net.cpp:165] Memory required for data: 939921440
I0602 09:59:17.679515 20329 layer_factory.hpp:77] Creating layer conv7_1_relu
I0602 09:59:17.679522 20329 net.cpp:100] Creating Layer conv7_1_relu
I0602 09:59:17.679524 20329 net.cpp:434] conv7_1_relu <- conv7_1
I0602 09:59:17.679528 20329 net.cpp:395] conv7_1_relu -> conv7_1 (in-place)
I0602 09:59:17.679667 20329 net.cpp:150] Setting up conv7_1_relu
I0602 09:59:17.679675 20329 net.cpp:157] Top shape: 4 128 10 10 (51200)
I0602 09:59:17.679677 20329 net.cpp:165] Memory required for data: 940126240
I0602 09:59:17.679679 20329 layer_factory.hpp:77] Creating layer conv7_2
I0602 09:59:17.679687 20329 net.cpp:100] Creating Layer conv7_2
I0602 09:59:17.679692 20329 net.cpp:434] conv7_2 <- conv7_1
I0602 09:59:17.679697 20329 net.cpp:408] conv7_2 -> conv7_2
I0602 09:59:17.682744 20329 net.cpp:150] Setting up conv7_2
I0602 09:59:17.682756 20329 net.cpp:157] Top shape: 4 256 5 5 (25600)
I0602 09:59:17.682760 20329 net.cpp:165] Memory required for data: 940228640
I0602 09:59:17.682765 20329 layer_factory.hpp:77] Creating layer conv7_2_relu
I0602 09:59:17.682771 20329 net.cpp:100] Creating Layer conv7_2_relu
I0602 09:59:17.682775 20329 net.cpp:434] conv7_2_relu <- conv7_2
I0602 09:59:17.682778 20329 net.cpp:395] conv7_2_relu -> conv7_2 (in-place)
I0602 09:59:17.682916 20329 net.cpp:150] Setting up conv7_2_relu
I0602 09:59:17.682922 20329 net.cpp:157] Top shape: 4 256 5 5 (25600)
I0602 09:59:17.682925 20329 net.cpp:165] Memory required for data: 940331040
I0602 09:59:17.682927 20329 layer_factory.hpp:77] Creating layer conv7_2_conv7_2_relu_0_split
I0602 09:59:17.682931 20329 net.cpp:100] Creating Layer conv7_2_conv7_2_relu_0_split
I0602 09:59:17.682934 20329 net.cpp:434] conv7_2_conv7_2_relu_0_split <- conv7_2
I0602 09:59:17.682938 20329 net.cpp:408] conv7_2_conv7_2_relu_0_split -> conv7_2_conv7_2_relu_0_split_0
I0602 09:59:17.682945 20329 net.cpp:408] conv7_2_conv7_2_relu_0_split -> conv7_2_conv7_2_relu_0_split_1
I0602 09:59:17.682950 20329 net.cpp:408] conv7_2_conv7_2_relu_0_split -> conv7_2_conv7_2_relu_0_split_2
I0602 09:59:17.682955 20329 net.cpp:408] conv7_2_conv7_2_relu_0_split -> conv7_2_conv7_2_relu_0_split_3
I0602 09:59:17.683017 20329 net.cpp:150] Setting up conv7_2_conv7_2_relu_0_split
I0602 09:59:17.683023 20329 net.cpp:157] Top shape: 4 256 5 5 (25600)
I0602 09:59:17.683025 20329 net.cpp:157] Top shape: 4 256 5 5 (25600)
I0602 09:59:17.683028 20329 net.cpp:157] Top shape: 4 256 5 5 (25600)
I0602 09:59:17.683030 20329 net.cpp:157] Top shape: 4 256 5 5 (25600)
I0602 09:59:17.683033 20329 net.cpp:165] Memory required for data: 940740640
I0602 09:59:17.683035 20329 layer_factory.hpp:77] Creating layer conv8_1
I0602 09:59:17.683053 20329 net.cpp:100] Creating Layer conv8_1
I0602 09:59:17.683056 20329 net.cpp:434] conv8_1 <- conv7_2_conv7_2_relu_0_split_0
I0602 09:59:17.683063 20329 net.cpp:408] conv8_1 -> conv8_1
I0602 09:59:17.684438 20329 net.cpp:150] Setting up conv8_1
I0602 09:59:17.684448 20329 net.cpp:157] Top shape: 4 128 5 5 (12800)
I0602 09:59:17.684451 20329 net.cpp:165] Memory required for data: 940791840
I0602 09:59:17.684455 20329 layer_factory.hpp:77] Creating layer conv8_1_relu
I0602 09:59:17.684461 20329 net.cpp:100] Creating Layer conv8_1_relu
I0602 09:59:17.684464 20329 net.cpp:434] conv8_1_relu <- conv8_1
I0602 09:59:17.684468 20329 net.cpp:395] conv8_1_relu -> conv8_1 (in-place)
I0602 09:59:17.685173 20329 net.cpp:150] Setting up conv8_1_relu
I0602 09:59:17.685195 20329 net.cpp:157] Top shape: 4 128 5 5 (12800)
I0602 09:59:17.685197 20329 net.cpp:165] Memory required for data: 940843040
I0602 09:59:17.685200 20329 layer_factory.hpp:77] Creating layer conv8_2
I0602 09:59:17.685209 20329 net.cpp:100] Creating Layer conv8_2
I0602 09:59:17.685211 20329 net.cpp:434] conv8_2 <- conv8_1
I0602 09:59:17.685215 20329 net.cpp:408] conv8_2 -> conv8_2
I0602 09:59:17.688254 20329 net.cpp:150] Setting up conv8_2
I0602 09:59:17.688267 20329 net.cpp:157] Top shape: 4 256 3 3 (9216)
I0602 09:59:17.688271 20329 net.cpp:165] Memory required for data: 940879904
I0602 09:59:17.688274 20329 layer_factory.hpp:77] Creating layer conv8_2_relu
I0602 09:59:17.688279 20329 net.cpp:100] Creating Layer conv8_2_relu
I0602 09:59:17.688282 20329 net.cpp:434] conv8_2_relu <- conv8_2
I0602 09:59:17.688287 20329 net.cpp:395] conv8_2_relu -> conv8_2 (in-place)
I0602 09:59:17.688433 20329 net.cpp:150] Setting up conv8_2_relu
I0602 09:59:17.688441 20329 net.cpp:157] Top shape: 4 256 3 3 (9216)
I0602 09:59:17.688443 20329 net.cpp:165] Memory required for data: 940916768
I0602 09:59:17.688446 20329 layer_factory.hpp:77] Creating layer conv8_2_conv8_2_relu_0_split
I0602 09:59:17.688452 20329 net.cpp:100] Creating Layer conv8_2_conv8_2_relu_0_split
I0602 09:59:17.688454 20329 net.cpp:434] conv8_2_conv8_2_relu_0_split <- conv8_2
I0602 09:59:17.688459 20329 net.cpp:408] conv8_2_conv8_2_relu_0_split -> conv8_2_conv8_2_relu_0_split_0
I0602 09:59:17.688465 20329 net.cpp:408] conv8_2_conv8_2_relu_0_split -> conv8_2_conv8_2_relu_0_split_1
I0602 09:59:17.688472 20329 net.cpp:408] conv8_2_conv8_2_relu_0_split -> conv8_2_conv8_2_relu_0_split_2
I0602 09:59:17.688477 20329 net.cpp:408] conv8_2_conv8_2_relu_0_split -> conv8_2_conv8_2_relu_0_split_3
I0602 09:59:17.688545 20329 net.cpp:150] Setting up conv8_2_conv8_2_relu_0_split
I0602 09:59:17.688551 20329 net.cpp:157] Top shape: 4 256 3 3 (9216)
I0602 09:59:17.688566 20329 net.cpp:157] Top shape: 4 256 3 3 (9216)
I0602 09:59:17.688568 20329 net.cpp:157] Top shape: 4 256 3 3 (9216)
I0602 09:59:17.688571 20329 net.cpp:157] Top shape: 4 256 3 3 (9216)
I0602 09:59:17.688573 20329 net.cpp:165] Memory required for data: 941064224
I0602 09:59:17.688591 20329 layer_factory.hpp:77] Creating layer conv9_1
I0602 09:59:17.688597 20329 net.cpp:100] Creating Layer conv9_1
I0602 09:59:17.688601 20329 net.cpp:434] conv9_1 <- conv8_2_conv8_2_relu_0_split_0
I0602 09:59:17.688607 20329 net.cpp:408] conv9_1 -> conv9_1
I0602 09:59:17.689983 20329 net.cpp:150] Setting up conv9_1
I0602 09:59:17.689992 20329 net.cpp:157] Top shape: 4 128 3 3 (4608)
I0602 09:59:17.689996 20329 net.cpp:165] Memory required for data: 941082656
I0602 09:59:17.690001 20329 layer_factory.hpp:77] Creating layer conv9_1_relu
I0602 09:59:17.690006 20329 net.cpp:100] Creating Layer conv9_1_relu
I0602 09:59:17.690008 20329 net.cpp:434] conv9_1_relu <- conv9_1
I0602 09:59:17.690012 20329 net.cpp:395] conv9_1_relu -> conv9_1 (in-place)
I0602 09:59:17.690152 20329 net.cpp:150] Setting up conv9_1_relu
I0602 09:59:17.690160 20329 net.cpp:157] Top shape: 4 128 3 3 (4608)
I0602 09:59:17.690162 20329 net.cpp:165] Memory required for data: 941101088
I0602 09:59:17.690165 20329 layer_factory.hpp:77] Creating layer conv9_2
I0602 09:59:17.690181 20329 net.cpp:100] Creating Layer conv9_2
I0602 09:59:17.690186 20329 net.cpp:434] conv9_2 <- conv9_1
I0602 09:59:17.690189 20329 net.cpp:408] conv9_2 -> conv9_2
I0602 09:59:17.693205 20329 net.cpp:150] Setting up conv9_2
I0602 09:59:17.693217 20329 net.cpp:157] Top shape: 4 256 1 1 (1024)
I0602 09:59:17.693219 20329 net.cpp:165] Memory required for data: 941105184
I0602 09:59:17.693224 20329 layer_factory.hpp:77] Creating layer conv9_2_relu
I0602 09:59:17.693229 20329 net.cpp:100] Creating Layer conv9_2_relu
I0602 09:59:17.693233 20329 net.cpp:434] conv9_2_relu <- conv9_2
I0602 09:59:17.693238 20329 net.cpp:395] conv9_2_relu -> conv9_2 (in-place)
I0602 09:59:17.693382 20329 net.cpp:150] Setting up conv9_2_relu
I0602 09:59:17.693389 20329 net.cpp:157] Top shape: 4 256 1 1 (1024)
I0602 09:59:17.693392 20329 net.cpp:165] Memory required for data: 941109280
I0602 09:59:17.693393 20329 layer_factory.hpp:77] Creating layer conv9_2_conv9_2_relu_0_split
I0602 09:59:17.693398 20329 net.cpp:100] Creating Layer conv9_2_conv9_2_relu_0_split
I0602 09:59:17.693401 20329 net.cpp:434] conv9_2_conv9_2_relu_0_split <- conv9_2
I0602 09:59:17.693405 20329 net.cpp:408] conv9_2_conv9_2_relu_0_split -> conv9_2_conv9_2_relu_0_split_0
I0602 09:59:17.693409 20329 net.cpp:408] conv9_2_conv9_2_relu_0_split -> conv9_2_conv9_2_relu_0_split_1
I0602 09:59:17.693414 20329 net.cpp:408] conv9_2_conv9_2_relu_0_split -> conv9_2_conv9_2_relu_0_split_2
I0602 09:59:17.693470 20329 net.cpp:150] Setting up conv9_2_conv9_2_relu_0_split
I0602 09:59:17.693476 20329 net.cpp:157] Top shape: 4 256 1 1 (1024)
I0602 09:59:17.693480 20329 net.cpp:157] Top shape: 4 256 1 1 (1024)
I0602 09:59:17.693481 20329 net.cpp:157] Top shape: 4 256 1 1 (1024)
I0602 09:59:17.693483 20329 net.cpp:165] Memory required for data: 941121568
I0602 09:59:17.693485 20329 layer_factory.hpp:77] Creating layer conv4_3_norm
I0602 09:59:17.693491 20329 net.cpp:100] Creating Layer conv4_3_norm
I0602 09:59:17.693493 20329 net.cpp:434] conv4_3_norm <- conv4_3_relu4_3_0_split_1
I0602 09:59:17.693497 20329 net.cpp:408] conv4_3_norm -> conv4_3_norm
I0602 09:59:17.693650 20329 net.cpp:150] Setting up conv4_3_norm
I0602 09:59:17.693655 20329 net.cpp:157] Top shape: 4 512 38 38 (2957312)
I0602 09:59:17.693657 20329 net.cpp:165] Memory required for data: 952950816
I0602 09:59:17.693662 20329 layer_factory.hpp:77] Creating layer conv4_3_norm_conv4_3_norm_0_split
I0602 09:59:17.693668 20329 net.cpp:100] Creating Layer conv4_3_norm_conv4_3_norm_0_split
I0602 09:59:17.693670 20329 net.cpp:434] conv4_3_norm_conv4_3_norm_0_split <- conv4_3_norm
I0602 09:59:17.693675 20329 net.cpp:408] conv4_3_norm_conv4_3_norm_0_split -> conv4_3_norm_conv4_3_norm_0_split_0
I0602 09:59:17.693681 20329 net.cpp:408] conv4_3_norm_conv4_3_norm_0_split -> conv4_3_norm_conv4_3_norm_0_split_1
I0602 09:59:17.693684 20329 net.cpp:408] conv4_3_norm_conv4_3_norm_0_split -> conv4_3_norm_conv4_3_norm_0_split_2
I0602 09:59:17.693727 20329 net.cpp:150] Setting up conv4_3_norm_conv4_3_norm_0_split
I0602 09:59:17.693732 20329 net.cpp:157] Top shape: 4 512 38 38 (2957312)
I0602 09:59:17.693735 20329 net.cpp:157] Top shape: 4 512 38 38 (2957312)
I0602 09:59:17.693737 20329 net.cpp:157] Top shape: 4 512 38 38 (2957312)
I0602 09:59:17.693739 20329 net.cpp:165] Memory required for data: 988438560
I0602 09:59:17.693742 20329 layer_factory.hpp:77] Creating layer conv4_3_norm_mbox_loc
I0602 09:59:17.693749 20329 net.cpp:100] Creating Layer conv4_3_norm_mbox_loc
I0602 09:59:17.693753 20329 net.cpp:434] conv4_3_norm_mbox_loc <- conv4_3_norm_conv4_3_norm_0_split_0
I0602 09:59:17.693758 20329 net.cpp:408] conv4_3_norm_mbox_loc -> conv4_3_norm_mbox_loc
I0602 09:59:17.695737 20329 net.cpp:150] Setting up conv4_3_norm_mbox_loc
I0602 09:59:17.695749 20329 net.cpp:157] Top shape: 4 16 38 38 (92416)
I0602 09:59:17.695750 20329 net.cpp:165] Memory required for data: 988808224
I0602 09:59:17.695755 20329 layer_factory.hpp:77] Creating layer conv4_3_norm_mbox_loc_perm
I0602 09:59:17.695760 20329 net.cpp:100] Creating Layer conv4_3_norm_mbox_loc_perm
I0602 09:59:17.695776 20329 net.cpp:434] conv4_3_norm_mbox_loc_perm <- conv4_3_norm_mbox_loc
I0602 09:59:17.695780 20329 net.cpp:408] conv4_3_norm_mbox_loc_perm -> conv4_3_norm_mbox_loc_perm
I0602 09:59:17.695883 20329 net.cpp:150] Setting up conv4_3_norm_mbox_loc_perm
I0602 09:59:17.695888 20329 net.cpp:157] Top shape: 4 38 38 16 (92416)
I0602 09:59:17.695890 20329 net.cpp:165] Memory required for data: 989177888
I0602 09:59:17.695894 20329 layer_factory.hpp:77] Creating layer conv4_3_norm_mbox_loc_flat
I0602 09:59:17.695896 20329 net.cpp:100] Creating Layer conv4_3_norm_mbox_loc_flat
I0602 09:59:17.695899 20329 net.cpp:434] conv4_3_norm_mbox_loc_flat <- conv4_3_norm_mbox_loc_perm
I0602 09:59:17.695904 20329 net.cpp:408] conv4_3_norm_mbox_loc_flat -> conv4_3_norm_mbox_loc_flat
I0602 09:59:17.695932 20329 net.cpp:150] Setting up conv4_3_norm_mbox_loc_flat
I0602 09:59:17.695937 20329 net.cpp:157] Top shape: 4 23104 (92416)
I0602 09:59:17.695940 20329 net.cpp:165] Memory required for data: 989547552
I0602 09:59:17.695941 20329 layer_factory.hpp:77] Creating layer conv4_3_norm_mbox_conf
I0602 09:59:17.695952 20329 net.cpp:100] Creating Layer conv4_3_norm_mbox_conf
I0602 09:59:17.695956 20329 net.cpp:434] conv4_3_norm_mbox_conf <- conv4_3_norm_conv4_3_norm_0_split_1
I0602 09:59:17.695960 20329 net.cpp:408] conv4_3_norm_mbox_conf -> conv4_3_norm_mbox_conf
I0602 09:59:17.697948 20329 net.cpp:150] Setting up conv4_3_norm_mbox_conf
I0602 09:59:17.697957 20329 net.cpp:157] Top shape: 4 16 38 38 (92416)
I0602 09:59:17.697960 20329 net.cpp:165] Memory required for data: 989917216
I0602 09:59:17.697965 20329 layer_factory.hpp:77] Creating layer conv4_3_norm_mbox_conf_perm
I0602 09:59:17.697971 20329 net.cpp:100] Creating Layer conv4_3_norm_mbox_conf_perm
I0602 09:59:17.697976 20329 net.cpp:434] conv4_3_norm_mbox_conf_perm <- conv4_3_norm_mbox_conf
I0602 09:59:17.697980 20329 net.cpp:408] conv4_3_norm_mbox_conf_perm -> conv4_3_norm_mbox_conf_perm
I0602 09:59:17.698084 20329 net.cpp:150] Setting up conv4_3_norm_mbox_conf_perm
I0602 09:59:17.698091 20329 net.cpp:157] Top shape: 4 38 38 16 (92416)
I0602 09:59:17.698092 20329 net.cpp:165] Memory required for data: 990286880
I0602 09:59:17.698094 20329 layer_factory.hpp:77] Creating layer conv4_3_norm_mbox_conf_flat
I0602 09:59:17.698099 20329 net.cpp:100] Creating Layer conv4_3_norm_mbox_conf_flat
I0602 09:59:17.698102 20329 net.cpp:434] conv4_3_norm_mbox_conf_flat <- conv4_3_norm_mbox_conf_perm
I0602 09:59:17.698106 20329 net.cpp:408] conv4_3_norm_mbox_conf_flat -> conv4_3_norm_mbox_conf_flat
I0602 09:59:17.698127 20329 net.cpp:150] Setting up conv4_3_norm_mbox_conf_flat
I0602 09:59:17.698130 20329 net.cpp:157] Top shape: 4 23104 (92416)
I0602 09:59:17.698133 20329 net.cpp:165] Memory required for data: 990656544
I0602 09:59:17.698135 20329 layer_factory.hpp:77] Creating layer conv4_3_norm_mbox_priorbox
I0602 09:59:17.698140 20329 net.cpp:100] Creating Layer conv4_3_norm_mbox_priorbox
I0602 09:59:17.698143 20329 net.cpp:434] conv4_3_norm_mbox_priorbox <- conv4_3_norm_conv4_3_norm_0_split_2
I0602 09:59:17.698148 20329 net.cpp:434] conv4_3_norm_mbox_priorbox <- data_data_0_split_1
I0602 09:59:17.698151 20329 net.cpp:408] conv4_3_norm_mbox_priorbox -> conv4_3_norm_mbox_priorbox
I0602 09:59:17.698175 20329 net.cpp:150] Setting up conv4_3_norm_mbox_priorbox
I0602 09:59:17.698180 20329 net.cpp:157] Top shape: 1 2 23104 (46208)
I0602 09:59:17.698182 20329 net.cpp:165] Memory required for data: 990841376
I0602 09:59:17.698184 20329 layer_factory.hpp:77] Creating layer fc7_mbox_loc
I0602 09:59:17.698191 20329 net.cpp:100] Creating Layer fc7_mbox_loc
I0602 09:59:17.698194 20329 net.cpp:434] fc7_mbox_loc <- fc7_relu7_0_split_1
I0602 09:59:17.698199 20329 net.cpp:408] fc7_mbox_loc -> fc7_mbox_loc
I0602 09:59:17.700732 20329 net.cpp:150] Setting up fc7_mbox_loc
I0602 09:59:17.700742 20329 net.cpp:157] Top shape: 4 24 19 19 (34656)
I0602 09:59:17.700745 20329 net.cpp:165] Memory required for data: 990980000
I0602 09:59:17.700750 20329 layer_factory.hpp:77] Creating layer fc7_mbox_loc_perm
I0602 09:59:17.700755 20329 net.cpp:100] Creating Layer fc7_mbox_loc_perm
I0602 09:59:17.700768 20329 net.cpp:434] fc7_mbox_loc_perm <- fc7_mbox_loc
I0602 09:59:17.700773 20329 net.cpp:408] fc7_mbox_loc_perm -> fc7_mbox_loc_perm
I0602 09:59:17.700881 20329 net.cpp:150] Setting up fc7_mbox_loc_perm
I0602 09:59:17.700888 20329 net.cpp:157] Top shape: 4 19 19 24 (34656)
I0602 09:59:17.700891 20329 net.cpp:165] Memory required for data: 991118624
I0602 09:59:17.700892 20329 layer_factory.hpp:77] Creating layer fc7_mbox_loc_flat
I0602 09:59:17.700897 20329 net.cpp:100] Creating Layer fc7_mbox_loc_flat
I0602 09:59:17.700899 20329 net.cpp:434] fc7_mbox_loc_flat <- fc7_mbox_loc_perm
I0602 09:59:17.700902 20329 net.cpp:408] fc7_mbox_loc_flat -> fc7_mbox_loc_flat
I0602 09:59:17.700924 20329 net.cpp:150] Setting up fc7_mbox_loc_flat
I0602 09:59:17.700929 20329 net.cpp:157] Top shape: 4 8664 (34656)
I0602 09:59:17.700932 20329 net.cpp:165] Memory required for data: 991257248
I0602 09:59:17.700932 20329 layer_factory.hpp:77] Creating layer fc7_mbox_conf
I0602 09:59:17.700938 20329 net.cpp:100] Creating Layer fc7_mbox_conf
I0602 09:59:17.700942 20329 net.cpp:434] fc7_mbox_conf <- fc7_relu7_0_split_2
I0602 09:59:17.700947 20329 net.cpp:408] fc7_mbox_conf -> fc7_mbox_conf
I0602 09:59:17.703493 20329 net.cpp:150] Setting up fc7_mbox_conf
I0602 09:59:17.703502 20329 net.cpp:157] Top shape: 4 24 19 19 (34656)
I0602 09:59:17.703505 20329 net.cpp:165] Memory required for data: 991395872
I0602 09:59:17.703510 20329 layer_factory.hpp:77] Creating layer fc7_mbox_conf_perm
I0602 09:59:17.703514 20329 net.cpp:100] Creating Layer fc7_mbox_conf_perm
I0602 09:59:17.703517 20329 net.cpp:434] fc7_mbox_conf_perm <- fc7_mbox_conf
I0602 09:59:17.703522 20329 net.cpp:408] fc7_mbox_conf_perm -> fc7_mbox_conf_perm
I0602 09:59:17.703624 20329 net.cpp:150] Setting up fc7_mbox_conf_perm
I0602 09:59:17.703629 20329 net.cpp:157] Top shape: 4 19 19 24 (34656)
I0602 09:59:17.703631 20329 net.cpp:165] Memory required for data: 991534496
I0602 09:59:17.703634 20329 layer_factory.hpp:77] Creating layer fc7_mbox_conf_flat
I0602 09:59:17.703637 20329 net.cpp:100] Creating Layer fc7_mbox_conf_flat
I0602 09:59:17.703639 20329 net.cpp:434] fc7_mbox_conf_flat <- fc7_mbox_conf_perm
I0602 09:59:17.703644 20329 net.cpp:408] fc7_mbox_conf_flat -> fc7_mbox_conf_flat
I0602 09:59:17.703665 20329 net.cpp:150] Setting up fc7_mbox_conf_flat
I0602 09:59:17.703670 20329 net.cpp:157] Top shape: 4 8664 (34656)
I0602 09:59:17.703671 20329 net.cpp:165] Memory required for data: 991673120
I0602 09:59:17.703673 20329 layer_factory.hpp:77] Creating layer fc7_mbox_priorbox
I0602 09:59:17.703677 20329 net.cpp:100] Creating Layer fc7_mbox_priorbox
I0602 09:59:17.703680 20329 net.cpp:434] fc7_mbox_priorbox <- fc7_relu7_0_split_3
I0602 09:59:17.703683 20329 net.cpp:434] fc7_mbox_priorbox <- data_data_0_split_2
I0602 09:59:17.703688 20329 net.cpp:408] fc7_mbox_priorbox -> fc7_mbox_priorbox
I0602 09:59:17.703711 20329 net.cpp:150] Setting up fc7_mbox_priorbox
I0602 09:59:17.703716 20329 net.cpp:157] Top shape: 1 2 8664 (17328)
I0602 09:59:17.703719 20329 net.cpp:165] Memory required for data: 991742432
I0602 09:59:17.703722 20329 layer_factory.hpp:77] Creating layer conv6_2_mbox_loc
I0602 09:59:17.703728 20329 net.cpp:100] Creating Layer conv6_2_mbox_loc
I0602 09:59:17.703732 20329 net.cpp:434] conv6_2_mbox_loc <- conv6_2_conv6_2_relu_0_split_1
I0602 09:59:17.703737 20329 net.cpp:408] conv6_2_mbox_loc -> conv6_2_mbox_loc
I0602 09:59:17.705848 20329 net.cpp:150] Setting up conv6_2_mbox_loc
I0602 09:59:17.705860 20329 net.cpp:157] Top shape: 4 24 10 10 (9600)
I0602 09:59:17.705863 20329 net.cpp:165] Memory required for data: 991780832
I0602 09:59:17.705868 20329 layer_factory.hpp:77] Creating layer conv6_2_mbox_loc_perm
I0602 09:59:17.705874 20329 net.cpp:100] Creating Layer conv6_2_mbox_loc_perm
I0602 09:59:17.705879 20329 net.cpp:434] conv6_2_mbox_loc_perm <- conv6_2_mbox_loc
I0602 09:59:17.705883 20329 net.cpp:408] conv6_2_mbox_loc_perm -> conv6_2_mbox_loc_perm
I0602 09:59:17.705991 20329 net.cpp:150] Setting up conv6_2_mbox_loc_perm
I0602 09:59:17.706004 20329 net.cpp:157] Top shape: 4 10 10 24 (9600)
I0602 09:59:17.706007 20329 net.cpp:165] Memory required for data: 991819232
I0602 09:59:17.706009 20329 layer_factory.hpp:77] Creating layer conv6_2_mbox_loc_flat
I0602 09:59:17.706014 20329 net.cpp:100] Creating Layer conv6_2_mbox_loc_flat
I0602 09:59:17.706017 20329 net.cpp:434] conv6_2_mbox_loc_flat <- conv6_2_mbox_loc_perm
I0602 09:59:17.706020 20329 net.cpp:408] conv6_2_mbox_loc_flat -> conv6_2_mbox_loc_flat
I0602 09:59:17.706043 20329 net.cpp:150] Setting up conv6_2_mbox_loc_flat
I0602 09:59:17.706046 20329 net.cpp:157] Top shape: 4 2400 (9600)
I0602 09:59:17.706048 20329 net.cpp:165] Memory required for data: 991857632
I0602 09:59:17.706051 20329 layer_factory.hpp:77] Creating layer conv6_2_mbox_conf
I0602 09:59:17.706059 20329 net.cpp:100] Creating Layer conv6_2_mbox_conf
I0602 09:59:17.706063 20329 net.cpp:434] conv6_2_mbox_conf <- conv6_2_conv6_2_relu_0_split_2
I0602 09:59:17.706068 20329 net.cpp:408] conv6_2_mbox_conf -> conv6_2_mbox_conf
I0602 09:59:17.708254 20329 net.cpp:150] Setting up conv6_2_mbox_conf
I0602 09:59:17.708266 20329 net.cpp:157] Top shape: 4 24 10 10 (9600)
I0602 09:59:17.708268 20329 net.cpp:165] Memory required for data: 991896032
I0602 09:59:17.708274 20329 layer_factory.hpp:77] Creating layer conv6_2_mbox_conf_perm
I0602 09:59:17.708281 20329 net.cpp:100] Creating Layer conv6_2_mbox_conf_perm
I0602 09:59:17.708286 20329 net.cpp:434] conv6_2_mbox_conf_perm <- conv6_2_mbox_conf
I0602 09:59:17.708290 20329 net.cpp:408] conv6_2_mbox_conf_perm -> conv6_2_mbox_conf_perm
I0602 09:59:17.708410 20329 net.cpp:150] Setting up conv6_2_mbox_conf_perm
I0602 09:59:17.708416 20329 net.cpp:157] Top shape: 4 10 10 24 (9600)
I0602 09:59:17.708418 20329 net.cpp:165] Memory required for data: 991934432
I0602 09:59:17.708420 20329 layer_factory.hpp:77] Creating layer conv6_2_mbox_conf_flat
I0602 09:59:17.708425 20329 net.cpp:100] Creating Layer conv6_2_mbox_conf_flat
I0602 09:59:17.708427 20329 net.cpp:434] conv6_2_mbox_conf_flat <- conv6_2_mbox_conf_perm
I0602 09:59:17.708446 20329 net.cpp:408] conv6_2_mbox_conf_flat -> conv6_2_mbox_conf_flat
I0602 09:59:17.708467 20329 net.cpp:150] Setting up conv6_2_mbox_conf_flat
I0602 09:59:17.708472 20329 net.cpp:157] Top shape: 4 2400 (9600)
I0602 09:59:17.708473 20329 net.cpp:165] Memory required for data: 991972832
I0602 09:59:17.708488 20329 layer_factory.hpp:77] Creating layer conv6_2_mbox_priorbox
I0602 09:59:17.708494 20329 net.cpp:100] Creating Layer conv6_2_mbox_priorbox
I0602 09:59:17.708511 20329 net.cpp:434] conv6_2_mbox_priorbox <- conv6_2_conv6_2_relu_0_split_3
I0602 09:59:17.708516 20329 net.cpp:434] conv6_2_mbox_priorbox <- data_data_0_split_3
I0602 09:59:17.708520 20329 net.cpp:408] conv6_2_mbox_priorbox -> conv6_2_mbox_priorbox
I0602 09:59:17.708572 20329 net.cpp:150] Setting up conv6_2_mbox_priorbox
I0602 09:59:17.708576 20329 net.cpp:157] Top shape: 1 2 2400 (4800)
I0602 09:59:17.708578 20329 net.cpp:165] Memory required for data: 991992032
I0602 09:59:17.708580 20329 layer_factory.hpp:77] Creating layer conv7_2_mbox_loc
I0602 09:59:17.708587 20329 net.cpp:100] Creating Layer conv7_2_mbox_loc
I0602 09:59:17.708603 20329 net.cpp:434] conv7_2_mbox_loc <- conv7_2_conv7_2_relu_0_split_1
I0602 09:59:17.708609 20329 net.cpp:408] conv7_2_mbox_loc -> conv7_2_mbox_loc
I0602 09:59:17.710398 20329 net.cpp:150] Setting up conv7_2_mbox_loc
I0602 09:59:17.710414 20329 net.cpp:157] Top shape: 4 24 5 5 (2400)
I0602 09:59:17.710417 20329 net.cpp:165] Memory required for data: 992001632
I0602 09:59:17.710424 20329 layer_factory.hpp:77] Creating layer conv7_2_mbox_loc_perm
I0602 09:59:17.710430 20329 net.cpp:100] Creating Layer conv7_2_mbox_loc_perm
I0602 09:59:17.710433 20329 net.cpp:434] conv7_2_mbox_loc_perm <- conv7_2_mbox_loc
I0602 09:59:17.710439 20329 net.cpp:408] conv7_2_mbox_loc_perm -> conv7_2_mbox_loc_perm
I0602 09:59:17.710566 20329 net.cpp:150] Setting up conv7_2_mbox_loc_perm
I0602 09:59:17.710572 20329 net.cpp:157] Top shape: 4 5 5 24 (2400)
I0602 09:59:17.710573 20329 net.cpp:165] Memory required for data: 992011232
I0602 09:59:17.710587 20329 layer_factory.hpp:77] Creating layer conv7_2_mbox_loc_flat
I0602 09:59:17.710593 20329 net.cpp:100] Creating Layer conv7_2_mbox_loc_flat
I0602 09:59:17.710595 20329 net.cpp:434] conv7_2_mbox_loc_flat <- conv7_2_mbox_loc_perm
I0602 09:59:17.710600 20329 net.cpp:408] conv7_2_mbox_loc_flat -> conv7_2_mbox_loc_flat
I0602 09:59:17.710623 20329 net.cpp:150] Setting up conv7_2_mbox_loc_flat
I0602 09:59:17.710628 20329 net.cpp:157] Top shape: 4 600 (2400)
I0602 09:59:17.710629 20329 net.cpp:165] Memory required for data: 992020832
I0602 09:59:17.710631 20329 layer_factory.hpp:77] Creating layer conv7_2_mbox_conf
I0602 09:59:17.710639 20329 net.cpp:100] Creating Layer conv7_2_mbox_conf
I0602 09:59:17.710642 20329 net.cpp:434] conv7_2_mbox_conf <- conv7_2_conv7_2_relu_0_split_2
I0602 09:59:17.710647 20329 net.cpp:408] conv7_2_mbox_conf -> conv7_2_mbox_conf
I0602 09:59:17.712649 20329 net.cpp:150] Setting up conv7_2_mbox_conf
I0602 09:59:17.712659 20329 net.cpp:157] Top shape: 4 24 5 5 (2400)
I0602 09:59:17.712662 20329 net.cpp:165] Memory required for data: 992030432
I0602 09:59:17.712667 20329 layer_factory.hpp:77] Creating layer conv7_2_mbox_conf_perm
I0602 09:59:17.712672 20329 net.cpp:100] Creating Layer conv7_2_mbox_conf_perm
I0602 09:59:17.712676 20329 net.cpp:434] conv7_2_mbox_conf_perm <- conv7_2_mbox_conf
I0602 09:59:17.712682 20329 net.cpp:408] conv7_2_mbox_conf_perm -> conv7_2_mbox_conf_perm
I0602 09:59:17.712785 20329 net.cpp:150] Setting up conv7_2_mbox_conf_perm
I0602 09:59:17.712790 20329 net.cpp:157] Top shape: 4 5 5 24 (2400)
I0602 09:59:17.712791 20329 net.cpp:165] Memory required for data: 992040032
I0602 09:59:17.712795 20329 layer_factory.hpp:77] Creating layer conv7_2_mbox_conf_flat
I0602 09:59:17.712798 20329 net.cpp:100] Creating Layer conv7_2_mbox_conf_flat
I0602 09:59:17.712800 20329 net.cpp:434] conv7_2_mbox_conf_flat <- conv7_2_mbox_conf_perm
I0602 09:59:17.712805 20329 net.cpp:408] conv7_2_mbox_conf_flat -> conv7_2_mbox_conf_flat
I0602 09:59:17.712826 20329 net.cpp:150] Setting up conv7_2_mbox_conf_flat
I0602 09:59:17.712831 20329 net.cpp:157] Top shape: 4 600 (2400)
I0602 09:59:17.712832 20329 net.cpp:165] Memory required for data: 992049632
I0602 09:59:17.712834 20329 layer_factory.hpp:77] Creating layer conv7_2_mbox_priorbox
I0602 09:59:17.712841 20329 net.cpp:100] Creating Layer conv7_2_mbox_priorbox
I0602 09:59:17.712843 20329 net.cpp:434] conv7_2_mbox_priorbox <- conv7_2_conv7_2_relu_0_split_3
I0602 09:59:17.712846 20329 net.cpp:434] conv7_2_mbox_priorbox <- data_data_0_split_4
I0602 09:59:17.712852 20329 net.cpp:408] conv7_2_mbox_priorbox -> conv7_2_mbox_priorbox
I0602 09:59:17.712875 20329 net.cpp:150] Setting up conv7_2_mbox_priorbox
I0602 09:59:17.712879 20329 net.cpp:157] Top shape: 1 2 600 (1200)
I0602 09:59:17.712882 20329 net.cpp:165] Memory required for data: 992054432
I0602 09:59:17.712883 20329 layer_factory.hpp:77] Creating layer conv8_2_mbox_loc
I0602 09:59:17.712893 20329 net.cpp:100] Creating Layer conv8_2_mbox_loc
I0602 09:59:17.712896 20329 net.cpp:434] conv8_2_mbox_loc <- conv8_2_conv8_2_relu_0_split_1
I0602 09:59:17.712903 20329 net.cpp:408] conv8_2_mbox_loc -> conv8_2_mbox_loc
I0602 09:59:17.714685 20329 net.cpp:150] Setting up conv8_2_mbox_loc
I0602 09:59:17.714694 20329 net.cpp:157] Top shape: 4 16 3 3 (576)
I0602 09:59:17.714696 20329 net.cpp:165] Memory required for data: 992056736
I0602 09:59:17.714709 20329 layer_factory.hpp:77] Creating layer conv8_2_mbox_loc_perm
I0602 09:59:17.714715 20329 net.cpp:100] Creating Layer conv8_2_mbox_loc_perm
I0602 09:59:17.714720 20329 net.cpp:434] conv8_2_mbox_loc_perm <- conv8_2_mbox_loc
I0602 09:59:17.714723 20329 net.cpp:408] conv8_2_mbox_loc_perm -> conv8_2_mbox_loc_perm
I0602 09:59:17.714828 20329 net.cpp:150] Setting up conv8_2_mbox_loc_perm
I0602 09:59:17.714833 20329 net.cpp:157] Top shape: 4 3 3 16 (576)
I0602 09:59:17.714835 20329 net.cpp:165] Memory required for data: 992059040
I0602 09:59:17.714838 20329 layer_factory.hpp:77] Creating layer conv8_2_mbox_loc_flat
I0602 09:59:17.714851 20329 net.cpp:100] Creating Layer conv8_2_mbox_loc_flat
I0602 09:59:17.714854 20329 net.cpp:434] conv8_2_mbox_loc_flat <- conv8_2_mbox_loc_perm
I0602 09:59:17.714859 20329 net.cpp:408] conv8_2_mbox_loc_flat -> conv8_2_mbox_loc_flat
I0602 09:59:17.714881 20329 net.cpp:150] Setting up conv8_2_mbox_loc_flat
I0602 09:59:17.714885 20329 net.cpp:157] Top shape: 4 144 (576)
I0602 09:59:17.714887 20329 net.cpp:165] Memory required for data: 992061344
I0602 09:59:17.714890 20329 layer_factory.hpp:77] Creating layer conv8_2_mbox_conf
I0602 09:59:17.714896 20329 net.cpp:100] Creating Layer conv8_2_mbox_conf
I0602 09:59:17.714900 20329 net.cpp:434] conv8_2_mbox_conf <- conv8_2_conv8_2_relu_0_split_2
I0602 09:59:17.714905 20329 net.cpp:408] conv8_2_mbox_conf -> conv8_2_mbox_conf
I0602 09:59:17.716702 20329 net.cpp:150] Setting up conv8_2_mbox_conf
I0602 09:59:17.716711 20329 net.cpp:157] Top shape: 4 16 3 3 (576)
I0602 09:59:17.716714 20329 net.cpp:165] Memory required for data: 992063648
I0602 09:59:17.716718 20329 layer_factory.hpp:77] Creating layer conv8_2_mbox_conf_perm
I0602 09:59:17.716724 20329 net.cpp:100] Creating Layer conv8_2_mbox_conf_perm
I0602 09:59:17.716728 20329 net.cpp:434] conv8_2_mbox_conf_perm <- conv8_2_mbox_conf
I0602 09:59:17.716733 20329 net.cpp:408] conv8_2_mbox_conf_perm -> conv8_2_mbox_conf_perm
I0602 09:59:17.716835 20329 net.cpp:150] Setting up conv8_2_mbox_conf_perm
I0602 09:59:17.716840 20329 net.cpp:157] Top shape: 4 3 3 16 (576)
I0602 09:59:17.716841 20329 net.cpp:165] Memory required for data: 992065952
I0602 09:59:17.716843 20329 layer_factory.hpp:77] Creating layer conv8_2_mbox_conf_flat
I0602 09:59:17.716846 20329 net.cpp:100] Creating Layer conv8_2_mbox_conf_flat
I0602 09:59:17.716850 20329 net.cpp:434] conv8_2_mbox_conf_flat <- conv8_2_mbox_conf_perm
I0602 09:59:17.716853 20329 net.cpp:408] conv8_2_mbox_conf_flat -> conv8_2_mbox_conf_flat
I0602 09:59:17.716876 20329 net.cpp:150] Setting up conv8_2_mbox_conf_flat
I0602 09:59:17.716881 20329 net.cpp:157] Top shape: 4 144 (576)
I0602 09:59:17.716883 20329 net.cpp:165] Memory required for data: 992068256
I0602 09:59:17.716886 20329 layer_factory.hpp:77] Creating layer conv8_2_mbox_priorbox
I0602 09:59:17.716891 20329 net.cpp:100] Creating Layer conv8_2_mbox_priorbox
I0602 09:59:17.716892 20329 net.cpp:434] conv8_2_mbox_priorbox <- conv8_2_conv8_2_relu_0_split_3
I0602 09:59:17.716897 20329 net.cpp:434] conv8_2_mbox_priorbox <- data_data_0_split_5
I0602 09:59:17.716902 20329 net.cpp:408] conv8_2_mbox_priorbox -> conv8_2_mbox_priorbox
I0602 09:59:17.716925 20329 net.cpp:150] Setting up conv8_2_mbox_priorbox
I0602 09:59:17.716930 20329 net.cpp:157] Top shape: 1 2 144 (288)
I0602 09:59:17.716933 20329 net.cpp:165] Memory required for data: 992069408
I0602 09:59:17.716934 20329 layer_factory.hpp:77] Creating layer conv9_2_mbox_loc
I0602 09:59:17.716941 20329 net.cpp:100] Creating Layer conv9_2_mbox_loc
I0602 09:59:17.716944 20329 net.cpp:434] conv9_2_mbox_loc <- conv9_2_conv9_2_relu_0_split_0
I0602 09:59:17.716949 20329 net.cpp:408] conv9_2_mbox_loc -> conv9_2_mbox_loc
I0602 09:59:17.719177 20329 net.cpp:150] Setting up conv9_2_mbox_loc
I0602 09:59:17.719185 20329 net.cpp:157] Top shape: 4 16 1 1 (64)
I0602 09:59:17.719187 20329 net.cpp:165] Memory required for data: 992069664
I0602 09:59:17.719192 20329 layer_factory.hpp:77] Creating layer conv9_2_mbox_loc_perm
I0602 09:59:17.719197 20329 net.cpp:100] Creating Layer conv9_2_mbox_loc_perm
I0602 09:59:17.719200 20329 net.cpp:434] conv9_2_mbox_loc_perm <- conv9_2_mbox_loc
I0602 09:59:17.719207 20329 net.cpp:408] conv9_2_mbox_loc_perm -> conv9_2_mbox_loc_perm
I0602 09:59:17.719310 20329 net.cpp:150] Setting up conv9_2_mbox_loc_perm
I0602 09:59:17.719314 20329 net.cpp:157] Top shape: 4 1 1 16 (64)
I0602 09:59:17.719316 20329 net.cpp:165] Memory required for data: 992069920
I0602 09:59:17.719318 20329 layer_factory.hpp:77] Creating layer conv9_2_mbox_loc_flat
I0602 09:59:17.719323 20329 net.cpp:100] Creating Layer conv9_2_mbox_loc_flat
I0602 09:59:17.719326 20329 net.cpp:434] conv9_2_mbox_loc_flat <- conv9_2_mbox_loc_perm
I0602 09:59:17.719339 20329 net.cpp:408] conv9_2_mbox_loc_flat -> conv9_2_mbox_loc_flat
I0602 09:59:17.719362 20329 net.cpp:150] Setting up conv9_2_mbox_loc_flat
I0602 09:59:17.719367 20329 net.cpp:157] Top shape: 4 16 (64)
I0602 09:59:17.719368 20329 net.cpp:165] Memory required for data: 992070176
I0602 09:59:17.719370 20329 layer_factory.hpp:77] Creating layer conv9_2_mbox_conf
I0602 09:59:17.719378 20329 net.cpp:100] Creating Layer conv9_2_mbox_conf
I0602 09:59:17.719383 20329 net.cpp:434] conv9_2_mbox_conf <- conv9_2_conv9_2_relu_0_split_1
I0602 09:59:17.719386 20329 net.cpp:408] conv9_2_mbox_conf -> conv9_2_mbox_conf
I0602 09:59:17.721182 20329 net.cpp:150] Setting up conv9_2_mbox_conf
I0602 09:59:17.721191 20329 net.cpp:157] Top shape: 4 16 1 1 (64)
I0602 09:59:17.721194 20329 net.cpp:165] Memory required for data: 992070432
I0602 09:59:17.721199 20329 layer_factory.hpp:77] Creating layer conv9_2_mbox_conf_perm
I0602 09:59:17.721204 20329 net.cpp:100] Creating Layer conv9_2_mbox_conf_perm
I0602 09:59:17.721209 20329 net.cpp:434] conv9_2_mbox_conf_perm <- conv9_2_mbox_conf
I0602 09:59:17.721212 20329 net.cpp:408] conv9_2_mbox_conf_perm -> conv9_2_mbox_conf_perm
I0602 09:59:17.721324 20329 net.cpp:150] Setting up conv9_2_mbox_conf_perm
I0602 09:59:17.721330 20329 net.cpp:157] Top shape: 4 1 1 16 (64)
I0602 09:59:17.721333 20329 net.cpp:165] Memory required for data: 992070688
I0602 09:59:17.721334 20329 layer_factory.hpp:77] Creating layer conv9_2_mbox_conf_flat
I0602 09:59:17.721339 20329 net.cpp:100] Creating Layer conv9_2_mbox_conf_flat
I0602 09:59:17.721341 20329 net.cpp:434] conv9_2_mbox_conf_flat <- conv9_2_mbox_conf_perm
I0602 09:59:17.721345 20329 net.cpp:408] conv9_2_mbox_conf_flat -> conv9_2_mbox_conf_flat
I0602 09:59:17.721367 20329 net.cpp:150] Setting up conv9_2_mbox_conf_flat
I0602 09:59:17.721371 20329 net.cpp:157] Top shape: 4 16 (64)
I0602 09:59:17.721374 20329 net.cpp:165] Memory required for data: 992070944
I0602 09:59:17.721375 20329 layer_factory.hpp:77] Creating layer conv9_2_mbox_priorbox
I0602 09:59:17.721381 20329 net.cpp:100] Creating Layer conv9_2_mbox_priorbox
I0602 09:59:17.721385 20329 net.cpp:434] conv9_2_mbox_priorbox <- conv9_2_conv9_2_relu_0_split_2
I0602 09:59:17.721387 20329 net.cpp:434] conv9_2_mbox_priorbox <- data_data_0_split_6
I0602 09:59:17.721391 20329 net.cpp:408] conv9_2_mbox_priorbox -> conv9_2_mbox_priorbox
I0602 09:59:17.721416 20329 net.cpp:150] Setting up conv9_2_mbox_priorbox
I0602 09:59:17.721421 20329 net.cpp:157] Top shape: 1 2 16 (32)
I0602 09:59:17.721422 20329 net.cpp:165] Memory required for data: 992071072
I0602 09:59:17.721424 20329 layer_factory.hpp:77] Creating layer mbox_loc
I0602 09:59:17.721429 20329 net.cpp:100] Creating Layer mbox_loc
I0602 09:59:17.721433 20329 net.cpp:434] mbox_loc <- conv4_3_norm_mbox_loc_flat
I0602 09:59:17.721437 20329 net.cpp:434] mbox_loc <- fc7_mbox_loc_flat
I0602 09:59:17.721441 20329 net.cpp:434] mbox_loc <- conv6_2_mbox_loc_flat
I0602 09:59:17.721444 20329 net.cpp:434] mbox_loc <- conv7_2_mbox_loc_flat
I0602 09:59:17.721446 20329 net.cpp:434] mbox_loc <- conv8_2_mbox_loc_flat
I0602 09:59:17.721449 20329 net.cpp:434] mbox_loc <- conv9_2_mbox_loc_flat
I0602 09:59:17.721453 20329 net.cpp:408] mbox_loc -> mbox_loc
I0602 09:59:17.721477 20329 net.cpp:150] Setting up mbox_loc
I0602 09:59:17.721482 20329 net.cpp:157] Top shape: 4 34928 (139712)
I0602 09:59:17.721483 20329 net.cpp:165] Memory required for data: 992629920
I0602 09:59:17.721485 20329 layer_factory.hpp:77] Creating layer mbox_conf
I0602 09:59:17.721489 20329 net.cpp:100] Creating Layer mbox_conf
I0602 09:59:17.721493 20329 net.cpp:434] mbox_conf <- conv4_3_norm_mbox_conf_flat
I0602 09:59:17.721495 20329 net.cpp:434] mbox_conf <- fc7_mbox_conf_flat
I0602 09:59:17.721498 20329 net.cpp:434] mbox_conf <- conv6_2_mbox_conf_flat
I0602 09:59:17.721501 20329 net.cpp:434] mbox_conf <- conv7_2_mbox_conf_flat
I0602 09:59:17.721503 20329 net.cpp:434] mbox_conf <- conv8_2_mbox_conf_flat
I0602 09:59:17.721506 20329 net.cpp:434] mbox_conf <- conv9_2_mbox_conf_flat
I0602 09:59:17.721518 20329 net.cpp:408] mbox_conf -> mbox_conf
I0602 09:59:17.721540 20329 net.cpp:150] Setting up mbox_conf
I0602 09:59:17.721544 20329 net.cpp:157] Top shape: 4 34928 (139712)
I0602 09:59:17.721546 20329 net.cpp:165] Memory required for data: 993188768
I0602 09:59:17.721549 20329 layer_factory.hpp:77] Creating layer mbox_priorbox
I0602 09:59:17.721554 20329 net.cpp:100] Creating Layer mbox_priorbox
I0602 09:59:17.721556 20329 net.cpp:434] mbox_priorbox <- conv4_3_norm_mbox_priorbox
I0602 09:59:17.721560 20329 net.cpp:434] mbox_priorbox <- fc7_mbox_priorbox
I0602 09:59:17.721561 20329 net.cpp:434] mbox_priorbox <- conv6_2_mbox_priorbox
I0602 09:59:17.721565 20329 net.cpp:434] mbox_priorbox <- conv7_2_mbox_priorbox
I0602 09:59:17.721566 20329 net.cpp:434] mbox_priorbox <- conv8_2_mbox_priorbox
I0602 09:59:17.721570 20329 net.cpp:434] mbox_priorbox <- conv9_2_mbox_priorbox
I0602 09:59:17.721572 20329 net.cpp:408] mbox_priorbox -> mbox_priorbox
I0602 09:59:17.721593 20329 net.cpp:150] Setting up mbox_priorbox
I0602 09:59:17.721597 20329 net.cpp:157] Top shape: 1 2 34928 (69856)
I0602 09:59:17.721599 20329 net.cpp:165] Memory required for data: 993468192
I0602 09:59:17.721601 20329 layer_factory.hpp:77] Creating layer mbox_conf_reshape
I0602 09:59:17.721607 20329 net.cpp:100] Creating Layer mbox_conf_reshape
I0602 09:59:17.721611 20329 net.cpp:434] mbox_conf_reshape <- mbox_conf
I0602 09:59:17.721614 20329 net.cpp:408] mbox_conf_reshape -> mbox_conf_reshape
I0602 09:59:17.721643 20329 net.cpp:150] Setting up mbox_conf_reshape
I0602 09:59:17.721648 20329 net.cpp:157] Top shape: 4 8732 4 (139712)
I0602 09:59:17.721650 20329 net.cpp:165] Memory required for data: 994027040
I0602 09:59:17.721652 20329 layer_factory.hpp:77] Creating layer mbox_conf_softmax
I0602 09:59:17.721657 20329 net.cpp:100] Creating Layer mbox_conf_softmax
I0602 09:59:17.721659 20329 net.cpp:434] mbox_conf_softmax <- mbox_conf_reshape
I0602 09:59:17.721664 20329 net.cpp:408] mbox_conf_softmax -> mbox_conf_softmax
I0602 09:59:17.721868 20329 net.cpp:150] Setting up mbox_conf_softmax
I0602 09:59:17.721874 20329 net.cpp:157] Top shape: 4 8732 4 (139712)
I0602 09:59:17.721877 20329 net.cpp:165] Memory required for data: 994585888
I0602 09:59:17.721879 20329 layer_factory.hpp:77] Creating layer mbox_conf_flatten
I0602 09:59:17.721884 20329 net.cpp:100] Creating Layer mbox_conf_flatten
I0602 09:59:17.721885 20329 net.cpp:434] mbox_conf_flatten <- mbox_conf_softmax
I0602 09:59:17.721890 20329 net.cpp:408] mbox_conf_flatten -> mbox_conf_flatten
I0602 09:59:17.721912 20329 net.cpp:150] Setting up mbox_conf_flatten
I0602 09:59:17.721917 20329 net.cpp:157] Top shape: 4 34928 (139712)
I0602 09:59:17.721920 20329 net.cpp:165] Memory required for data: 995144736
I0602 09:59:17.721921 20329 layer_factory.hpp:77] Creating layer detection_out
I0602 09:59:17.721930 20329 net.cpp:100] Creating Layer detection_out
I0602 09:59:17.721933 20329 net.cpp:434] detection_out <- mbox_loc
I0602 09:59:17.721936 20329 net.cpp:434] detection_out <- mbox_conf_flatten
I0602 09:59:17.721940 20329 net.cpp:434] detection_out <- mbox_priorbox
I0602 09:59:17.721945 20329 net.cpp:408] detection_out -> detection_out
I0602 09:59:17.723081 20329 net.cpp:150] Setting up detection_out
I0602 09:59:17.723089 20329 net.cpp:157] Top shape: 1 1 1 7 (7)
I0602 09:59:17.723093 20329 net.cpp:165] Memory required for data: 995144764
I0602 09:59:17.723094 20329 layer_factory.hpp:77] Creating layer detection_eval
I0602 09:59:17.723100 20329 net.cpp:100] Creating Layer detection_eval
I0602 09:59:17.723104 20329 net.cpp:434] detection_eval <- detection_out
I0602 09:59:17.723107 20329 net.cpp:434] detection_eval <- label
I0602 09:59:17.723111 20329 net.cpp:408] detection_eval -> detection_eval
I0602 09:59:17.723886 20329 net.cpp:150] Setting up detection_eval
I0602 09:59:17.723892 20329 net.cpp:157] Top shape: 1 1 4 5 (20)
I0602 09:59:17.723896 20329 net.cpp:165] Memory required for data: 995144844
I0602 09:59:17.723897 20329 net.cpp:228] detection_eval does not need backward computation.
I0602 09:59:17.723907 20329 net.cpp:228] detection_out does not need backward computation.
I0602 09:59:17.723912 20329 net.cpp:228] mbox_conf_flatten does not need backward computation.
I0602 09:59:17.723914 20329 net.cpp:228] mbox_conf_softmax does not need backward computation.
…
