}
layer {
  name: "conv7_1_relu"
  type: "ReLU"
  bottom: "conv7_1"
  top: "conv7_1"
}
layer {
  name: "conv7_2"
  type: "Convolution"
  bottom: "conv7_1"
  top: "conv7_2"
  param {
    lr_mult: 1
    decay_mult: 1
  }
  param {
    lr_mult: 2
    decay_mult: 0
  }
  convolution_param {
    num_output: 256
    pad: 1
    kernel_size: 3
    stride: 2
    weight_filler {
      type: "xavier"
    }
    bias_filler {
      type: "constant"
      value: 0
    }
  }
}
layer {
  name: "conv7_2_relu"
  type: "ReLU"
  bottom: "conv7_2"
  top: "conv7_2"
}
layer {
  name: "conv8_1"
  type: "Convolution"
  bottom: "conv7_2"
  top: "conv8_1"
  param {
    lr_mult: 1
    decay_mult: 1
  }
  param {
    lr_mult: 2
    decay_mult: 0
  }
  convolution_param {
    num_output: 128
    pad: 0
    kernel_size: 1
    stride: 1
    weight_filler {
      type: "xavier"
    }
    bias_filler {
      type: "constant"
      value: 0
    }
  }
}
layer {
  name: "conv8_1_relu"
  type: "ReLU"
  bottom: "conv8_1"
  top: "conv8_1"
}
layer {
  name: "conv8_2"
  type: "Convolution"
  bottom: "conv8_1"
  top: "conv8_2"
  param {
    lr_mult: 1
    decay_mult: 1
  }
  param {
    lr_mult: 2
    decay_mult: 0
  }
  convolution_param {
    num_output: 256
    pad: 0
    kernel_size: 3
    stride: 1
    weight_filler {
      type: "xavier"
    }
    bias_filler {
      type: "constant"
      value: 0
    }
  }
}
layer {
  name: "conv8_2_relu"
  type: "ReLU"
  bottom: "conv8_2"
  top: "conv8_2"
}
layer {
  name: "conv9_1"
  type: "Convolution"
  bottom: "conv8_2"
  top: "conv9_1"
  param {
    lr_mult: 1
    decay_mult: 1
  }
  param {
    lr_mult: 2
    decay_mult: 0
  }
  convolution_param {
    num_output: 128
    pad: 0
    kernel_size: 1
    stride: 1
    weight_filler {
      type: "xavier"
    }
    bias_filler {
      type: "constant"
      value: 0
    }
  }
}
layer {
  name: "conv9_1_relu"
  type: "ReLU"
  bottom: "conv9_1"
  top: "conv9_1"
}
layer {
  name: "conv9_2"
  type: "Convolution"
  bottom: "conv9_1"
  top: "conv9_2"
  param {
    lr_mult: 1
    decay_mult: 1
  }
  param {
    lr_mult: 2
    decay_mult: 0
  }
  convolution_param {
    num_output: 256
    pad: 0
    kernel_size: 3
    stride: 1
    weight_filler {
      type: "xavier"
    }
    bias_filler {
      type: "constant"
      value: 0
    }
  }
}
layer {
  name: "conv9_2_relu"
  type: "ReLU"
  bottom: "conv9_2"
  top: "conv9_2"
}
layer {
  name: "conv4_3_norm"
  type: "Normalize"
  bottom: "conv4_3"
  top: "conv4_3_norm"
  norm_param {
    across_spatial: false
    scale_filler {
      type: "constant"
      value: 20
    }
    channel_shared: false
  }
}
layer {
  name: "conv4_3_norm_mbox_loc"
  type: "Convolution"
  bottom: "conv4_3_norm"
  top: "conv4_3_norm_mbox_loc"
  param {
    lr_mult: 1
    decay_mult: 1
  }
  param {
    lr_mult: 2
    decay_mult: 0
  }
  convolution_param {
    num_output: 16
    pad: 1
    kernel_size: 3
    stride: 1
    weight_filler {
      type: "xavier"
    }
    bias_filler {
      type: "constant"
      value: 0
    }
  }
}
layer {
  name: "conv4_3_norm_mbox_loc_perm"
  type: "Permute"
  bottom: "conv4_3_norm_mbox_loc"
  top: "conv4_3_norm_mbox_loc_perm"
  permute_param {
    order: 0
    order: 2
    order: 3
    order: 1
  }
}
layer {
  name: "conv4_3_norm_mbox_loc_flat"
  type: "Flatten"
  bottom: "conv4_3_norm_mbox_loc_perm"
  top: "conv4_3_norm_mbox_loc_flat"
  flatten_param {
    axis: 1
  }
}
layer {
  name: "conv4_3_norm_mbox_conf"
  type: "Convolution"
  bottom: "conv4_3_norm"
  top: "conv4_3_norm_mbox_conf"
  param {
    lr_mult: 1
    decay_mult: 1
  }
  param {
    lr_mult: 2
    decay_mult: 0
  }
  convolution_param {
    num_output: 16
    pad: 1
    kernel_size: 3
    stride: 1
    weight_filler {
      type: "xavier"
    }
    bias_filler {
      type: "constant"
      value: 0
    }
  }
}
layer {
  name: "conv4_3_norm_mbox_conf_perm"
  type: "Permute"
  bottom: "conv4_3_norm_mbox_conf"
  top: "conv4_3_norm_mbox_conf_perm"
  permute_param {
    order: 0
    order: 2
    order: 3
    order: 1
  }
}
layer {
  name: "conv4_3_norm_mbox_conf_flat"
  type: "Flatten"
  bottom: "conv4_3_norm_mbox_conf_perm"
  top: "conv4_3_norm_mbox_conf_flat"
  flatten_param {
    axis: 1
  }
}
layer {
  name: "conv4_3_norm_mbox_priorbox"
  type: "PriorBox"
  bottom: "conv4_3_norm"
  bottom: "data"
  top: "conv4_3_norm_mbox_priorbox"
  prior_box_param {
    min_size: 30
    max_size: 60
    aspect_ratio: 2
    flip: true
    clip: false
    variance: 0.1
    variance: 0.1
    variance: 0.2
    variance: 0.2
    step: 8
    offset: 0.5
  }
}
layer {
  name: "fc7_mbox_loc"
  type: "Convolution"
  bottom: "fc7"
  top: "fc7_mbox_loc"
  param {
    lr_mult: 1
    decay_mult: 1
  }
  param {
    lr_mult: 2
    decay_mult: 0
  }
  convolution_param {
    num_output: 24
    pad: 1
    kernel_size: 3
    stride: 1
    weight_filler {
      type: "xavier"
    }
    bias_filler {
      type: "constant"
      value: 0
    }
  }
}
layer {
  name: "fc7_mbox_loc_perm"
  type: "Permute"
  bottom: "fc7_mbox_loc"
  top: "fc7_mbox_loc_perm"
  permute_param {
    order: 0
    order: 2
    order: 3
    order: 1
  }
}
layer {
  name: "fc7_mbox_loc_flat"
  type: "Flatten"
  bottom: "fc7_mbox_loc_perm"
  top: "fc7_mbox_loc_flat"
  flatten_param {
    axis: 1
  }
}
layer {
  name: "fc7_mbox_conf"
  type: "Convolution"
  bottom: "fc7"
  top: "fc7_mbox_conf"
  param {
    lr_mult: 1
    decay_mult: 1
  }
  param {
    lr_mult: 2
    decay_mult: 0
  }
  convolution_param {
    num_output: 24
    pad: 1
    kernel_size: 3
    stride: 1
    weight_filler {
      type: "xavier"
    }
    bias_filler {
      type: "constant"
      value: 0
    }
  }
}
layer {
  name: "fc7_mbox_conf_perm"
  type: "Permute"
  bottom: "fc7_mbox_conf"
  top: "fc7_mbox_conf_perm"
  permute_param {
    order: 0
    order: 2
    order: 3
    order: 1
  }
}
layer {
  name: "fc7_mbox_conf_flat"
  type: "Flatten"
  bottom: "fc7_mbox_conf_perm"
  top: "fc7_mbox_conf_flat"
  flatten_param {
    axis: 1
  }
}
layer {
  name: "fc7_mbox_priorbox"
  type: "PriorBox"
  bottom: "fc7"
  bottom: "data"
  top: "fc7_mbox_priorbox"
  prior_box_param {
    min_size: 60
    max_size: 111
    aspect_ratio: 2
    aspect_ratio: 3
    flip: true
    clip: false
    variance: 0.1
    variance: 0.1
    variance: 0.2
    variance: 0.2
    step: 16
    offset: 0.5
  }
}
layer {
  name: "conv6_2_mbox_loc"
  type: "Convolution"
  bottom: "conv6_2"
  top: "conv6_2_mbox_loc"
  param {
    lr_mult: 1
    decay_mult: 1
  }
  param {
    lr_mult: 2
    decay_mult: 0
  }
  convolution_param {
    num_output: 24
    pad: 1
    kernel_size: 3
    stride: 1
    weight_filler {
      type: "xavier"
    }
    bias_filler {
      type: "constant"
      value: 0
    }
  }
}
layer {
  name: "conv6_2_mbox_loc_perm"
  type: "Permute"
  bottom: "conv6_2_mbox_loc"
  top: "conv6_2_mbox_loc_perm"
  permute_param {
    order: 0
    order: 2
    order: 3
    order: 1
  }
}
layer {
  name: "conv6_2_mbox_loc_flat"
  type: "Flatten"
  bottom: "conv6_2_mbox_loc_perm"
  top: "conv6_2_mbox_loc_flat"
  flatten_param {
    axis: 1
  }
}
layer {
  name: "conv6_2_mbox_conf"
  type: "Convolution"
  bottom: "conv6_2"
  top: "conv6_2_mbox_conf"
  param {
    lr_mult: 1
    decay_mult: 1
  }
  param {
    lr_mult: 2
    decay_mult: 0
  }
  convolution_param {
    num_output: 24
    pad: 1
    kernel_size: 3
    stride: 1
    weight_filler {
      type: "xavier"
    }
    bias_filler {
      type: "constant"
      value: 0
    }
  }
}
layer {
  name: "conv6_2_mbox_conf_perm"
  type: "Permute"
  bottom: "conv6_2_mbox_conf"
  top: "conv6_2_mbox_conf_perm"
  permute_param {
    order: 0
    order: 2
    order: 3
    order: 1
  }
}
layer {
  name: "conv6_2_mbox_conf_flat"
  type: "Flatten"
  bottom: "conv6_2_mbox_conf_perm"
  top: "conv6_2_mbox_conf_flat"
  flatten_param {
    axis: 1
  }
}
layer {
  name: "conv6_2_mbox_priorbox"
  type: "PriorBox"
  bottom: "conv6_2"
  bottom: "data"
  top: "conv6_2_mbox_priorbox"
  prior_box_param {
    min_size: 111
    max_size: 162
    aspect_ratio: 2
    aspect_ratio: 3
    flip: true
    clip: false
    variance: 0.1
    variance: 0.1
    variance: 0.2
    variance: 0.2
    step: 32
    offset: 0.5
  }
}
layer {
  name: "conv7_2_mbox_loc"
  type: "Convolution"
  bottom: "conv7_2"
  top: "conv7_2_mbox_loc"
  param {
    lr_mult: 1
    decay_mult: 1
  }
  param {
    lr_mult: 2
    decay_mult: 0
  }
  convolution_param {
    num_output: 24
    pad: 1
    kernel_size: 3
    stride: 1
    weight_filler {
      type: "xavier"
    }
    bias_filler {
      type: "constant"
      value: 0
    }
  }
}
layer {
  name: "conv7_2_mbox_loc_perm"
  type: "Permute"
  bottom: "conv7_2_mbox_loc"
  top: "conv7_2_mbox_loc_perm"
  permute_param {
    order: 0
    order: 2
    order: 3
    order: 1
  }
}
layer {
  name: "conv7_2_mbox_loc_flat"
  type: "Flatten"
  bottom: "conv7_2_mbox_loc_perm"
  top: "conv7_2_mbox_loc_flat"
  flatten_param {
    axis: 1
  }
}
layer {
  name: "conv7_2_mbox_conf"
  type: "Convolution"
  bottom: "conv7_2"
  top: "conv7_2_mbox_conf"
  param {
    lr_mult: 1
    decay_mult: 1
  }
  param {
    lr_mult: 2
    decay_mult: 0
  }
  convolution_param {
    num_output: 24
    pad: 1
    kernel_size: 3
    stride: 1
    weight_filler {
      type: "xavier"
    }
    bias_filler {
      type: "constant"
      value: 0
    }
  }
}
layer {
  name: "conv7_2_mbox_conf_perm"
  type: "Permute"
  bottom: "conv7_2_mbox_conf"
  top: "conv7_2_mbox_conf_perm"
  permute_param {
    order: 0
    order: 2
    order: 3
    order: 1
  }
}
layer {
  name: "conv7_2_mbox_conf_flat"
  type: "Flatten"
  bottom: "conv7_2_mbox_conf_perm"
  top: "conv7_2_mbox_conf_flat"
  flatten_param {
    axis: 1
  }
}
layer {
  name: "conv7_2_mbox_priorbox"
  type: "PriorBox"
  bottom: "conv7_2"
  bottom: "data"
  top: "conv7_2_mbox_priorbox"
  prior_box_param {
    min_size: 162
    max_size: 213
    aspect_ratio: 2
    aspect_ratio: 3
    flip: true
    clip: false
    variance: 0.1
    variance: 0.1
    variance: 0.2
    variance: 0.2
    step: 64
    offset: 0.5
  }
}
layer {
  name: "conv8_2_mbox_loc"
  type: "Convolution"
  bottom: "conv8_2"
  top: "conv8_2_mbox_loc"
  param {
    lr_mult: 1
    decay_mult: 1
  }
  param {
    lr_mult: 2
    decay_mult: 0
  }
  convolution_param {
    num_output: 16
    pad: 1
    kernel_size: 3
    stride: 1
    weight_filler {
      type: "xavier"
    }
    bias_filler {
      type: "constant"
      value: 0
    }
  }
}
layer {
  name: "conv8_2_mbox_loc_perm"
  type: "Permute"
  bottom: "conv8_2_mbox_loc"
  top: "conv8_2_mbox_loc_perm"
  permute_param {
    order: 0
    order: 2
    order: 3
    order: 1
  }
}
layer {
  name: "conv8_2_mbox_loc_flat"
  type: "Flatten"
  bottom: "conv8_2_mbox_loc_perm"
  top: "conv8_2_mbox_loc_flat"
  flatten_param {
    axis: 1
  }
}
layer {
  name: "conv8_2_mbox_conf"
  type: "Convolution"
  bottom: "conv8_2"
  top: "conv8_2_mbox_conf"
  param {
    lr_mult: 1
    decay_mult: 1
  }
  param {
    lr_mult: 2
    decay_mult: 0
  }
  convolution_param {
    num_output: 16
    pad: 1
    kernel_size: 3
    stride: 1
    weight_filler {
      type: "xavier"
    }
    bias_filler {
      type: "constant"
      value: 0
    }
  }
}
layer {
  name: "conv8_2_mbox_conf_perm"
  type: "Permute"
  bottom: "conv8_2_mbox_conf"
  top: "conv8_2_mbox_conf_perm"
  permute_param {
    order: 0
    order: 2
    order: 3
    order: 1
  }
}
layer {
  name: "conv8_2_mbox_conf_flat"
  type: "Flatten"
  bottom: "conv8_2_mbox_conf_perm"
  top: "conv8_2_mbox_conf_flat"
  flatten_param {
    axis: 1
  }
}
layer {
  name: "conv8_2_mbox_priorbox"
  type: "PriorBox"
  bottom: "conv8_2"
  bottom: "data"
  top: "conv8_2_mbox_priorbox"
  prior_box_param {
    min_size: 213
    max_size: 264
    aspect_ratio: 2
    flip: true
    clip: false
    variance: 0.1
    variance: 0.1
    variance: 0.2
    variance: 0.2
    step: 100
    offset: 0.5
  }
}
layer {
  name: "conv9_2_mbox_loc"
  type: "Convolution"
  bottom: "conv9_2"
  top: "conv9_2_mbox_loc"
  param {
    lr_mult: 1
    decay_mult: 1
  }
  param {
    lr_mult: 2
    decay_mult: 0
  }
  convolution_param {
    num_output: 16
    pad: 1
    kernel_size: 3
    stride: 1
    weight_filler {
      type: "xavier"
    }
    bias_filler {
      type: "constant"
      value: 0
    }
  }
}
layer {
  name: "conv9_2_mbox_loc_perm"
  type: "Permute"
  bottom: "conv9_2_mbox_loc"
  top: "conv9_2_mbox_loc_perm"
  permute_param {
    order: 0
    order: 2
    order: 3
    order: 1
  }
}
layer {
  name: "conv9_2_mbox_loc_flat"
  type: "Flatten"
  bottom: "conv9_2_mbox_loc_perm"
  top: "conv9_2_mbox_loc_flat"
  flatten_param {
    axis: 1
  }
}
layer {
  name: "conv9_2_mbox_conf"
  type: "Convolution"
  bottom: "conv9_2"
  top: "conv9_2_mbox_conf"
  param {
    lr_mult: 1
    decay_mult: 1
  }
  param {
    lr_mult: 2
    decay_mult: 0
  }
  convolution_param {
    num_output: 16
    pad: 1
    kernel_size: 3
    stride: 1
    weight_filler {
      type: "xavier"
    }
    bias_filler {
      type: "constant"
      value: 0
    }
  }
}
layer {
  name: "conv9_2_mbox_conf_perm"
  type: "Permute"
  bottom: "conv9_2_mbox_conf"
  top: "conv9_2_mbox_conf_perm"
  permute_param {
    order: 0
    order: 2
    order: 3
    order: 1
  }
}
layer {
  name: "conv9_2_mbox_conf_flat"
  type: "Flatten"
  bottom: "conv9_2_mbox_conf_perm"
  top: "conv9_2_mbox_conf_flat"
  flatten_param {
    axis: 1
  }
}
layer {
  name: "conv9_2_mbox_priorbox"
  type: "PriorBox"
  bottom: "conv9_2"
  bottom: "data"
  top: "conv9_2_mbox_priorbox"
  prior_box_param {
    min_size: 264
    max_size: 315
    aspect_ratio: 2
    flip: true
    clip: false
    variance: 0.1
    variance: 0.1
    variance: 0.2
    variance: 0.2
    step: 300
    offset: 0.5
  }
}
layer {
  name: "mbox_loc"
  type: "Concat"
  bottom: "conv4_3_norm_mbox_loc_flat"
  bottom: "fc7_mbox_loc_flat"
  bottom: "conv6_2_mbox_loc_flat"
  bottom: "conv7_2_mbox_loc_flat"
  bottom: "conv8_2_mbox_loc_flat"
  bottom: "conv9_2_mbox_loc_flat"
  top: "mbox_loc"
  concat_param {
    axis: 1
  }
}
layer {
  name: "mbox_conf"
  type: "Concat"
  bottom: "conv4_3_norm_mbox_conf_flat"
  bottom: "fc7_mbox_conf_flat"
  bottom: "conv6_2_mbox_conf_flat"
  bottom: "conv7_2_mbox_conf_flat"
  bottom: "conv8_2_mbox_conf_flat"
  bottom: "conv9_2_mbox_conf_flat"
  top: "mbox_conf"
  concat_param {
    axis: 1
  }
}
layer {
  name: "mbox_priorbox"
  type: "Concat"
  bottom: "conv4_3_norm_mbox_priorbox"
  bottom: "fc7_mbox_priorbox"
  bottom: "conv6_2_mbox_priorbox"
  bottom: "conv7_2_mbox_priorbox"
  bottom: "conv8_2_mbox_priorbox"
  bottom: "conv9_2_mbox_priorbox"
  top: "mbox_priorbox"
  concat_param {
    axis: 2
  }
}
layer {
  name: "mbox_loss"
  type: "MultiBoxLoss"
  bottom: "mbox_loc"
  bottom: "mbox_conf"
  bottom: "mbox_priorbox"
  bottom: "label"
  top: "mbox_loss"
  include {
    phase: TRAIN
  }
  propagate_down: true
  propagate_down: true
  propagate_down: false
  propagate_down: false
  loss_param {
    normalization: VALID
  }
  multibox_loss_param {
    loc_loss_type: SMOOTH_L1
    conf_loss_type: SOFTMAX
    loc_weight: 1
    num_classes: 4
    share_location: true
    match_type: PER_PREDICTION
    overlap_threshold: 0.5
    use_prior_for_matching: true
    background_label_id: 0
    use_difficult_gt: true
    neg_pos_ratio: 3
    neg_overlap: 0.5
    code_type: CENTER_SIZE
    ignore_cross_boundary_bbox: false
    mining_type: MAX_NEGATIVE
  }
}
I0602 10:03:19.336297 20532 layer_factory.hpp:77] Creating layer data
I0602 10:03:19.336524 20532 net.cpp:100] Creating Layer data
I0602 10:03:19.336534 20532 net.cpp:408] data -> data
I0602 10:03:19.336562 20532 net.cpp:408] data -> label
I0602 10:03:19.336973 20548 db_lmdb.cpp:35] Opened lmdb examples/tbs_300x300_HSIL_10x/tbs_300x300_HSIL_10x_trainval_lmdb
I0602 10:03:19.345542 20532 annotated_data_layer.cpp:62] output data size: 32,3,300,300
I0602 10:03:19.404295 20532 net.cpp:150] Setting up data
I0602 10:03:19.404314 20532 net.cpp:157] Top shape: 32 3 300 300 (8640000)
I0602 10:03:19.404319 20532 net.cpp:157] Top shape: 1 1 1 8 (8)
I0602 10:03:19.404350 20532 net.cpp:165] Memory required for data: 34560032
I0602 10:03:19.404356 20532 layer_factory.hpp:77] Creating layer data_data_0_split
I0602 10:03:19.404379 20532 net.cpp:100] Creating Layer data_data_0_split
I0602 10:03:19.404386 20532 net.cpp:434] data_data_0_split <- data
I0602 10:03:19.404409 20532 net.cpp:408] data_data_0_split -> data_data_0_split_0
I0602 10:03:19.404420 20532 net.cpp:408] data_data_0_split -> data_data_0_split_1
I0602 10:03:19.404425 20532 net.cpp:408] data_data_0_split -> data_data_0_split_2
I0602 10:03:19.404430 20532 net.cpp:408] data_data_0_split -> data_data_0_split_3
I0602 10:03:19.404434 20532 net.cpp:408] data_data_0_split -> data_data_0_split_4
I0602 10:03:19.404438 20532 net.cpp:408] data_data_0_split -> data_data_0_split_5
I0602 10:03:19.404443 20532 net.cpp:408] data_data_0_split -> data_data_0_split_6
I0602 10:03:19.404515 20532 net.cpp:150] Setting up data_data_0_split
I0602 10:03:19.404521 20532 net.cpp:157] Top shape: 32 3 300 300 (8640000)
I0602 10:03:19.404525 20532 net.cpp:157] Top shape: 32 3 300 300 (8640000)
I0602 10:03:19.404527 20532 net.cpp:157] Top shape: 32 3 300 300 (8640000)
I0602 10:03:19.404531 20532 net.cpp:157] Top shape: 32 3 300 300 (8640000)
I0602 10:03:19.404532 20532 net.cpp:157] Top shape: 32 3 300 300 (8640000)
I0602 10:03:19.404536 20532 net.cpp:157] Top shape: 32 3 300 300 (8640000)
I0602 10:03:19.404537 20532 net.cpp:157] Top shape: 32 3 300 300 (8640000)
I0602 10:03:19.404541 20532 net.cpp:165] Memory required for data: 276480032
I0602 10:03:19.404542 20532 layer_factory.hpp:77] Creating layer conv1_1
I0602 10:03:19.404570 20532 net.cpp:100] Creating Layer conv1_1
I0602 10:03:19.404573 20532 net.cpp:434] conv1_1 <- data_data_0_split_0
I0602 10:03:19.404579 20532 net.cpp:408] conv1_1 -> conv1_1
I0602 10:03:19.575346 20532 net.cpp:150] Setting up conv1_1
I0602 10:03:19.575367 20532 net.cpp:157] Top shape: 32 64 300 300 (184320000)
I0602 10:03:19.575371 20532 net.cpp:165] Memory required for data: 1013760032
I0602 10:03:19.575405 20532 layer_factory.hpp:77] Creating layer relu1_1
I0602 10:03:19.575417 20532 net.cpp:100] Creating Layer relu1_1
I0602 10:03:19.575420 20532 net.cpp:434] relu1_1 <- conv1_1
I0602 10:03:19.575425 20532 net.cpp:395] relu1_1 -> conv1_1 (in-place)
I0602 10:03:19.575606 20532 net.cpp:150] Setting up relu1_1
I0602 10:03:19.575614 20532 net.cpp:157] Top shape: 32 64 300 300 (184320000)
I0602 10:03:19.575616 20532 net.cpp:165] Memory required for data: 1751040032
I0602 10:03:19.575619 20532 layer_factory.hpp:77] Creating layer conv1_2
I0602 10:03:19.575631 20532 net.cpp:100] Creating Layer conv1_2
I0602 10:03:19.575649 20532 net.cpp:434] conv1_2 <- conv1_1
I0602 10:03:19.575655 20532 net.cpp:408] conv1_2 -> conv1_2
I0602 10:03:19.577759 20532 net.cpp:150] Setting up conv1_2
I0602 10:03:19.577775 20532 net.cpp:157] Top shape: 32 64 300 300 (184320000)
I0602 10:03:19.577777 20532 net.cpp:165] Memory required for data: 2488320032
I0602 10:03:19.577785 20532 layer_factory.hpp:77] Creating layer relu1_2
I0602 10:03:19.577792 20532 net.cpp:100] Creating Layer relu1_2
I0602 10:03:19.577805 20532 net.cpp:434] relu1_2 <- conv1_2
I0602 10:03:19.577808 20532 net.cpp:395] relu1_2 -> conv1_2 (in-place)
I0602 10:03:19.578346 20532 net.cpp:150] Setting up relu1_2
I0602 10:03:19.578354 20532 net.cpp:157] Top shape: 32 64 300 300 (184320000)
I0602 10:03:19.578357 20532 net.cpp:165] Memory required for data: 3225600032
I0602 10:03:19.578361 20532 layer_factory.hpp:77] Creating layer pool1
I0602 10:03:19.578366 20532 net.cpp:100] Creating Layer pool1
I0602 10:03:19.578367 20532 net.cpp:434] pool1 <- conv1_2
I0602 10:03:19.578372 20532 net.cpp:408] pool1 -> pool1
I0602 10:03:19.578409 20532 net.cpp:150] Setting up pool1
I0602 10:03:19.578414 20532 net.cpp:157] Top shape: 32 64 150 150 (46080000)
I0602 10:03:19.578416 20532 net.cpp:165] Memory required for data: 3409920032
I0602 10:03:19.578418 20532 layer_factory.hpp:77] Creating layer conv2_1
I0602 10:03:19.578425 20532 net.cpp:100] Creating Layer conv2_1
I0602 10:03:19.578438 20532 net.cpp:434] conv2_1 <- pool1
I0602 10:03:19.578444 20532 net.cpp:408] conv2_1 -> conv2_1
I0602 10:03:19.579644 20532 net.cpp:150] Setting up conv2_1
I0602 10:03:19.579654 20532 net.cpp:157] Top shape: 32 128 150 150 (92160000)
I0602 10:03:19.579658 20532 net.cpp:165] Memory required for data: 3778560032
I0602 10:03:19.579663 20532 layer_factory.hpp:77] Creating layer relu2_1
I0602 10:03:19.579670 20532 net.cpp:100] Creating Layer relu2_1
I0602 10:03:19.579674 20532 net.cpp:434] relu2_1 <- conv2_1
I0602 10:03:19.579676 20532 net.cpp:395] relu2_1 -> conv2_1 (in-place)
I0602 10:03:19.580201 20532 net.cpp:150] Setting up relu2_1
I0602 10:03:19.580210 20532 net.cpp:157] Top shape: 32 128 150 150 (92160000)
I0602 10:03:19.580227 20532 net.cpp:165] Memory required for data: 4147200032
I0602 10:03:19.580229 20532 layer_factory.hpp:77] Creating layer conv2_2
I0602 10:03:19.580236 20532 net.cpp:100] Creating Layer conv2_2
I0602 10:03:19.580240 20532 net.cpp:434] conv2_2 <- conv2_1
I0602 10:03:19.580245 20532 net.cpp:408] conv2_2 -> conv2_2
I0602 10:03:19.582224 20532 net.cpp:150] Setting up conv2_2
I0602 10:03:19.582234 20532 net.cpp:157] Top shape: 32 128 150 150 (92160000)
I0602 10:03:19.582237 20532 net.cpp:165] Memory required for data: 4515840032
I0602 10:03:19.582242 20532 layer_factory.hpp:77] Creating layer relu2_2
I0602 10:03:19.582247 20532 net.cpp:100] Creating Layer relu2_2
I0602 10:03:19.582248 20532 net.cpp:434] relu2_2 <- conv2_2
I0602 10:03:19.582252 20532 net.cpp:395] relu2_2 -> conv2_2 (in-place)
I0602 10:03:19.582368 20532 net.cpp:150] Setting up relu2_2
I0602 10:03:19.582375 20532 net.cpp:157] Top shape: 32 128 150 150 (92160000)
I0602 10:03:19.582377 20532 net.cpp:165] Memory required for data: 4884480032
I0602 10:03:19.582381 20532 layer_factory.hpp:77] Creating layer pool2
I0602 10:03:19.582384 20532 net.cpp:100] Creating Layer pool2
I0602 10:03:19.582387 20532 net.cpp:434] pool2 <- conv2_2
I0602 10:03:19.582391 20532 net.cpp:408] pool2 -> pool2
I0602 10:03:19.582418 20532 net.cpp:150] Setting up pool2
I0602 10:03:19.582423 20532 net.cpp:157] Top shape: 32 128 75 75 (23040000)
I0602 10:03:19.582425 20532 net.cpp:165] Memory required for data: 4976640032
I0602 10:03:19.582427 20532 layer_factory.hpp:77] Creating layer conv3_1
I0602 10:03:19.582432 20532 net.cpp:100] Creating Layer conv3_1
I0602 10:03:19.582437 20532 net.cpp:434] conv3_1 <- pool2
I0602 10:03:19.582440 20532 net.cpp:408] conv3_1 -> conv3_1
I0602 10:03:19.586107 20532 net.cpp:150] Setting up conv3_1
I0602 10:03:19.586124 20532 net.cpp:157] Top shape: 32 256 75 75 (46080000)
I0602 10:03:19.586129 20532 net.cpp:165] Memory required for data: 5160960032
I0602 10:03:19.586139 20532 layer_factory.hpp:77] Creating layer relu3_1
I0602 10:03:19.586146 20532 net.cpp:100] Creating Layer relu3_1
I0602 10:03:19.586150 20532 net.cpp:434] relu3_1 <- conv3_1
I0602 10:03:19.586154 20532 net.cpp:395] relu3_1 -> conv3_1 (in-place)
I0602 10:03:19.586320 20532 net.cpp:150] Setting up relu3_1
I0602 10:03:19.586326 20532 net.cpp:157] Top shape: 32 256 75 75 (46080000)
I0602 10:03:19.586343 20532 net.cpp:165] Memory required for data: 5345280032
I0602 10:03:19.586345 20532 layer_factory.hpp:77] Creating layer conv3_2
I0602 10:03:19.586352 20532 net.cpp:100] Creating Layer conv3_2
I0602 10:03:19.586355 20532 net.cpp:434] conv3_2 <- conv3_1
I0602 10:03:19.586359 20532 net.cpp:408] conv3_2 -> conv3_2
I0602 10:03:19.590880 20532 net.cpp:150] Setting up conv3_2
I0602 10:03:19.590899 20532 net.cpp:157] Top shape: 32 256 75 75 (46080000)
I0602 10:03:19.590901 20532 net.cpp:165] Memory required for data: 5529600032
I0602 10:03:19.590909 20532 layer_factory.hpp:77] Creating layer relu3_2
I0602 10:03:19.590916 20532 net.cpp:100] Creating Layer relu3_2
I0602 10:03:19.590934 20532 net.cpp:434] relu3_2 <- conv3_2
I0602 10:03:19.590940 20532 net.cpp:395] relu3_2 -> conv3_2 (in-place)
I0602 10:03:19.591090 20532 net.cpp:150] Setting up relu3_2
I0602 10:03:19.591097 20532 net.cpp:157] Top shape: 32 256 75 75 (46080000)
I0602 10:03:19.591099 20532 net.cpp:165] Memory required for data: 5713920032
I0602 10:03:19.591114 20532 layer_factory.hpp:77] Creating layer conv3_3
I0602 10:03:19.591125 20532 net.cpp:100] Creating Layer conv3_3
I0602 10:03:19.591130 20532 net.cpp:434] conv3_3 <- conv3_2
I0602 10:03:19.591136 20532 net.cpp:408] conv3_3 -> conv3_3
I0602 10:03:19.595566 20532 net.cpp:150] Setting up conv3_3
I0602 10:03:19.595580 20532 net.cpp:157] Top shape: 32 256 75 75 (46080000)
I0602 10:03:19.595585 20532 net.cpp:165] Memory required for data: 5898240032
I0602 10:03:19.595593 20532 layer_factory.hpp:77] Creating layer relu3_3
I0602 10:03:19.595600 20532 net.cpp:100] Creating Layer relu3_3
I0602 10:03:19.595605 20532 net.cpp:434] relu3_3 <- conv3_3
I0602 10:03:19.595613 20532 net.cpp:395] relu3_3 -> conv3_3 (in-place)
I0602 10:03:19.595746 20532 net.cpp:150] Setting up relu3_3
I0602 10:03:19.595754 20532 net.cpp:157] Top shape: 32 256 75 75 (46080000)
I0602 10:03:19.595757 20532 net.cpp:165] Memory required for data: 6082560032
I0602 10:03:19.595762 20532 layer_factory.hpp:77] Creating layer pool3
I0602 10:03:19.595770 20532 net.cpp:100] Creating Layer pool3
I0602 10:03:19.595775 20532 net.cpp:434] pool3 <- conv3_3
I0602 10:03:19.595782 20532 net.cpp:408] pool3 -> pool3
I0602 10:03:19.595820 20532 net.cpp:150] Setting up pool3
I0602 10:03:19.595827 20532 net.cpp:157] Top shape: 32 256 38 38 (11829248)
I0602 10:03:19.595831 20532 net.cpp:165] Memory required for data: 6129877024
I0602 10:03:19.595834 20532 layer_factory.hpp:77] Creating layer conv4_1
I0602 10:03:19.595844 20532 net.cpp:100] Creating Layer conv4_1
I0602 10:03:19.595849 20532 net.cpp:434] conv4_1 <- pool3
I0602 10:03:19.595855 20532 net.cpp:408] conv4_1 -> conv4_1
I0602 10:03:19.604538 20532 net.cpp:150] Setting up conv4_1
I0602 10:03:19.604555 20532 net.cpp:157] Top shape: 32 512 38 38 (23658496)
I0602 10:03:19.604560 20532 net.cpp:165] Memory required for data: 6224511008
I0602 10:03:19.604569 20532 layer_factory.hpp:77] Creating layer relu4_1
I0602 10:03:19.604593 20532 net.cpp:100] Creating Layer relu4_1
I0602 10:03:19.604614 20532 net.cpp:434] relu4_1 <- conv4_1
I0602 10:03:19.604635 20532 net.cpp:395] relu4_1 -> conv4_1 (in-place)
I0602 10:03:19.605381 20532 net.cpp:150] Setting up relu4_1
I0602 10:03:19.605391 20532 net.cpp:157] Top shape: 32 512 38 38 (23658496)
I0602 10:03:19.605394 20532 net.cpp:165] Memory required for data: 6319144992
I0602 10:03:19.605398 20532 layer_factory.hpp:77] Creating layer conv4_2
I0602 10:03:19.605425 20532 net.cpp:100] Creating Layer conv4_2
I0602 10:03:19.605429 20532 net.cpp:434] conv4_2 <- conv4_1
I0602 10:03:19.605437 20532 net.cpp:408] conv4_2 -> conv4_2
I0602 10:03:19.617455 20532 net.cpp:150] Setting up conv4_2
I0602 10:03:19.617475 20532 net.cpp:157] Top shape: 32 512 38 38 (23658496)
I0602 10:03:19.617480 20532 net.cpp:165] Memory required for data: 6413778976
I0602 10:03:19.617506 20532 layer_factory.hpp:77] Creating layer relu4_2
I0602 10:03:19.617517 20532 net.cpp:100] Creating Layer relu4_2
I0602 10:03:19.617523 20532 net.cpp:434] relu4_2 <- conv4_2
I0602 10:03:19.617545 20532 net.cpp:395] relu4_2 -> conv4_2 (in-place)
I0602 10:03:19.618391 20532 net.cpp:150] Setting up relu4_2
I0602 10:03:19.618414 20532 net.cpp:157] Top shape: 32 512 38 38 (23658496)
I0602 10:03:19.618419 20532 net.cpp:165] Memory required for data: 6508412960
I0602 10:03:19.618423 20532 layer_factory.hpp:77] Creating layer conv4_3
I0602 10:03:19.618434 20532 net.cpp:100] Creating Layer conv4_3
I0602 10:03:19.618453 20532 net.cpp:434] conv4_3 <- conv4_2
I0602 10:03:19.618479 20532 net.cpp:408] conv4_3 -> conv4_3
I0602 10:03:19.631008 20532 net.cpp:150] Setting up conv4_3
I0602 10:03:19.631028 20532 net.cpp:157] Top shape: 32 512 38 38 (23658496)
I0602 10:03:19.631031 20532 net.cpp:165] Memory required for data: 6603046944
I0602 10:03:19.631042 20532 layer_factory.hpp:77] Creating layer relu4_3
I0602 10:03:19.631065 20532 net.cpp:100] Creating Layer relu4_3
I0602 10:03:19.631073 20532 net.cpp:434] relu4_3 <- conv4_3
I0602 10:03:19.631081 20532 net.cpp:395] relu4_3 -> conv4_3 (in-place)
I0602 10:03:19.631304 20532 net.cpp:150] Setting up relu4_3
I0602 10:03:19.631311 20532 net.cpp:157] Top shape: 32 512 38 38 (23658496)
I0602 10:03:19.631314 20532 net.cpp:165] Memory required for data: 6697680928
I0602 10:03:19.631331 20532 layer_factory.hpp:77] Creating layer conv4_3_relu4_3_0_split
I0602 10:03:19.631356 20532 net.cpp:100] Creating Layer conv4_3_relu4_3_0_split
I0602 10:03:19.631361 20532 net.cpp:434] conv4_3_relu4_3_0_split <- conv4_3
I0602 10:03:19.631381 20532 net.cpp:408] conv4_3_relu4_3_0_split -> conv4_3_relu4_3_0_split_0
I0602 10:03:19.631391 20532 net.cpp:408] conv4_3_relu4_3_0_split -> conv4_3_relu4_3_0_split_1
I0602 10:03:19.631425 20532 net.cpp:150] Setting up conv4_3_relu4_3_0_split
I0602 10:03:19.631446 20532 net.cpp:157] Top shape: 32 512 38 38 (23658496)
I0602 10:03:19.631451 20532 net.cpp:157] Top shape: 32 512 38 38 (23658496)
I0602 10:03:19.631454 20532 net.cpp:165] Memory required for data: 6886948896
I0602 10:03:19.631472 20532 layer_factory.hpp:77] Creating layer pool4
I0602 10:03:19.631492 20532 net.cpp:100] Creating Layer pool4
I0602 10:03:19.631497 20532 net.cpp:434] pool4 <- conv4_3_relu4_3_0_split_0
I0602 10:03:19.631516 20532 net.cpp:408] pool4 -> pool4
I0602 10:03:19.631549 20532 net.cpp:150] Setting up pool4
I0602 10:03:19.631556 20532 net.cpp:157] Top shape: 32 512 19 19 (5914624)
I0602 10:03:19.631558 20532 net.cpp:165] Memory required for data: 6910607392
I0602 10:03:19.631575 20532 layer_factory.hpp:77] Creating layer conv5_1
I0602 10:03:19.631588 20532 net.cpp:100] Creating Layer conv5_1
I0602 10:03:19.631592 20532 net.cpp:434] conv5_1 <- pool4
I0602 10:03:19.631598 20532 net.cpp:408] conv5_1 -> conv5_1
I0602 10:03:19.644729 20532 net.cpp:150] Setting up conv5_1
I0602 10:03:19.644748 20532 net.cpp:157] Top shape: 32 512 19 19 (5914624)
I0602 10:03:19.644752 20532 net.cpp:165] Memory required for data: 6934265888
I0602 10:03:19.644760 20532 layer_factory.hpp:77] Creating layer relu5_1
I0602 10:03:19.644783 20532 net.cpp:100] Creating Layer relu5_1
I0602 10:03:19.644790 20532 net.cpp:434] relu5_1 <- conv5_1
I0602 10:03:19.644812 20532 net.cpp:395] relu5_1 -> conv5_1 (in-place)
I0602 10:03:19.644992 20532 net.cpp:150] Setting up relu5_1
I0602 10:03:19.645000 20532 net.cpp:157] Top shape: 32 512 19 19 (5914624)
I0602 10:03:19.645004 20532 net.cpp:165] Memory required for data: 6957924384
I0602 10:03:19.645007 20532 layer_factory.hpp:77] Creating layer conv5_2
I0602 10:03:19.645035 20532 net.cpp:100] Creating Layer conv5_2
I0602 10:03:19.645040 20532 net.cpp:434] conv5_2 <- conv5_1
I0602 10:03:19.645047 20532 net.cpp:408] conv5_2 -> conv5_2
I0602 10:03:19.658005 20532 net.cpp:150] Setting up conv5_2
I0602 10:03:19.658025 20532 net.cpp:157] Top shape: 32 512 19 19 (5914624)
I0602 10:03:19.658028 20532 net.cpp:165] Memory required for data: 6981582880
I0602 10:03:19.658037 20532 layer_factory.hpp:77] Creating layer relu5_2
I0602 10:03:19.658046 20532 net.cpp:100] Creating Layer relu5_2
I0602 10:03:19.658066 20532 net.cpp:434] relu5_2 <- conv5_2
I0602 10:03:19.658087 20532 net.cpp:395] relu5_2 -> conv5_2 (in-place)
I0602 10:03:19.658239 20532 net.cpp:150] Setting up relu5_2
I0602 10:03:19.658247 20532 net.cpp:157] Top shape: 32 512 19 19 (5914624)
I0602 10:03:19.658252 20532 net.cpp:165] Memory required for data: 7005241376
I0602 10:03:19.658269 20532 layer_factory.hpp:77] Creating layer conv5_3
I0602 10:03:19.658282 20532 net.cpp:100] Creating Layer conv5_3
I0602 10:03:19.658288 20532 net.cpp:434] conv5_3 <- conv5_2
I0602 10:03:19.658296 20532 net.cpp:408] conv5_3 -> conv5_3
I0602 10:03:19.671319 20532 net.cpp:150] Setting up conv5_3
I0602 10:03:19.671336 20532 net.cpp:157] Top shape: 32 512 19 19 (5914624)
I0602 10:03:19.671341 20532 net.cpp:165] Memory required for data: 7028899872
I0602 10:03:19.671350 20532 layer_factory.hpp:77] Creating layer relu5_3
I0602 10:03:19.671380 20532 net.cpp:100] Creating Layer relu5_3
I0602 10:03:19.671387 20532 net.cpp:434] relu5_3 <- conv5_3
I0602 10:03:19.671409 20532 net.cpp:395] relu5_3 -> conv5_3 (in-place)
I0602 10:03:19.671569 20532 net.cpp:150] Setting up relu5_3
I0602 10:03:19.671602 20532 net.cpp:157] Top shape: 32 512 19 19 (5914624)
I0602 10:03:19.671607 20532 net.cpp:165] Memory required for data: 7052558368
I0602 10:03:19.671610 20532 layer_factory.hpp:77] Creating layer pool5
I0602 10:03:19.671619 20532 net.cpp:100] Creating Layer pool5
I0602 10:03:19.671623 20532 net.cpp:434] pool5 <- conv5_3
I0602 10:03:19.671630 20532 net.cpp:408] pool5 -> pool5
I0602 10:03:19.671672 20532 net.cpp:150] Setting up pool5
I0602 10:03:19.671679 20532 net.cpp:157] Top shape: 32 512 19 19 (5914624)
I0602 10:03:19.671684 20532 net.cpp:165] Memory required for data: 7076216864
I0602 10:03:19.671686 20532 layer_factory.hpp:77] Creating layer fc6
I0602 10:03:19.671699 20532 net.cpp:100] Creating Layer fc6
I0602 10:03:19.671702 20532 net.cpp:434] fc6 <- pool5
I0602 10:03:19.671710 20532 net.cpp:408] fc6 -> fc6
I0602 10:03:19.694356 20532 net.cpp:150] Setting up fc6
I0602 10:03:19.694376 20532 net.cpp:157] Top shape: 32 1024 19 19 (11829248)
I0602 10:03:19.694380 20532 net.cpp:165] Memory required for data: 7123533856
I0602 10:03:19.694387 20532 layer_factory.hpp:77] Creating layer relu6
I0602 10:03:19.694416 20532 net.cpp:100] Creating Layer relu6
I0602 10:03:19.694422 20532 net.cpp:434] relu6 <- fc6
I0602 10:03:19.694430 20532 net.cpp:395] relu6 -> fc6 (in-place)
I0602 10:03:19.695241 20532 net.cpp:150] Setting up relu6
I0602 10:03:19.695251 20532 net.cpp:157] Top shape: 32 1024 19 19 (11829248)
I0602 10:03:19.695255 20532 net.cpp:165] Memory required for data: 7170850848
I0602 10:03:19.695260 20532 layer_factory.hpp:77] Creating layer fc7
I0602 10:03:19.695288 20532 net.cpp:100] Creating Layer fc7
I0602 10:03:19.695298 20532 net.cpp:434] fc7 <- fc6
I0602 10:03:19.695319 20532 net.cpp:408] fc7 -> fc7
I0602 10:03:19.702141 20532 net.cpp:150] Setting up fc7
I0602 10:03:19.702159 20532 net.cpp:157] Top shape: 32 1024 19 19 (11829248)
I0602 10:03:19.702163 20532 net.cpp:165] Memory required for data: 7218167840
I0602 10:03:19.702172 20532 layer_factory.hpp:77] Creating layer relu7
I0602 10:03:19.702195 20532 net.cpp:100] Creating Layer relu7
I0602 10:03:19.702217 20532 net.cpp:434] relu7 <- fc7
I0602 10:03:19.702224 20532 net.cpp:395] relu7 -> fc7 (in-place)
I0602 10:03:19.702369 20532 net.cpp:150] Setting up relu7
I0602 10:03:19.702378 20532 net.cpp:157] Top shape: 32 1024 19 19 (11829248)
I0602 10:03:19.702381 20532 net.cpp:165] Memory required for data: 7265484832
I0602 10:03:19.702399 20532 layer_factory.hpp:77] Creating layer fc7_relu7_0_split
I0602 10:03:19.702406 20532 net.cpp:100] Creating Layer fc7_relu7_0_split
I0602 10:03:19.702411 20532 net.cpp:434] fc7_relu7_0_split <- fc7
I0602 10:03:19.702428 20532 net.cpp:408] fc7_relu7_0_split -> fc7_relu7_0_split_0
I0602 10:03:19.702438 20532 net.cpp:408] fc7_relu7_0_split -> fc7_relu7_0_split_1
I0602 10:03:19.702452 20532 net.cpp:408] fc7_relu7_0_split -> fc7_relu7_0_split_2
I0602 10:03:19.702461 20532 net.cpp:408] fc7_relu7_0_split -> fc7_relu7_0_split_3
I0602 10:03:19.702517 20532 net.cpp:150] Setting up fc7_relu7_0_split
I0602 10:03:19.702523 20532 net.cpp:157] Top shape: 32 1024 19 19 (11829248)
I0602 10:03:19.702528 20532 net.cpp:157] Top shape: 32 1024 19 19 (11829248)
I0602 10:03:19.702533 20532 net.cpp:157] Top shape: 32 1024 19 19 (11829248)
I0602 10:03:19.702538 20532 net.cpp:157] Top shape: 32 1024 19 19 (11829248)
I0602 10:03:19.702543 20532 net.cpp:165] Memory required for data: 7454752800
I0602 10:03:19.702546 20532 layer_factory.hpp:77] Creating layer conv6_1
I0602 10:03:19.702558 20532 net.cpp:100] Creating Layer conv6_1
I0602 10:03:19.702564 20532 net.cpp:434] conv6_1 <- fc7_relu7_0_split_0
I0602 10:03:19.702570 20532 net.cpp:408] conv6_1 -> conv6_1
I0602 10:03:19.705813 20532 net.cpp:150] Setting up conv6_1
I0602 10:03:19.705831 20532 net.cpp:157] Top shape: 32 256 19 19 (2957312)
I0602 10:03:19.705835 20532 net.cpp:165] Memory required for data: 7466582048
I0602 10:03:19.705843 20532 layer_factory.hpp:77] Creating layer conv6_1_relu
I0602 10:03:19.705850 20532 net.cpp:100] Creating Layer conv6_1_relu
I0602 10:03:19.705868 20532 net.cpp:434] conv6_1_relu <- conv6_1
I0602 10:03:19.705876 20532 net.cpp:395] conv6_1_relu -> conv6_1 (in-place)
I0602 10:03:19.706008 20532 net.cpp:150] Setting up conv6_1_relu
I0602 10:03:19.706017 20532 net.cpp:157] Top shape: 32 256 19 19 (2957312)
I0602 10:03:19.706019 20532 net.cpp:165] Memory required for data: 7478411296
I0602 10:03:19.706024 20532 layer_factory.hpp:77] Creating layer conv6_2
I0602 10:03:19.706035 20532 net.cpp:100] Creating Layer conv6_2
I0602 10:03:19.706040 20532 net.cpp:434] conv6_2 <- conv6_1
I0602 10:03:19.706048 20532 net.cpp:408] conv6_2 -> conv6_2
I0602 10:03:19.712967 20532 net.cpp:150] Setting up conv6_2
I0602 10:03:19.712986 20532 net.cpp:157] Top shape: 32 512 10 10 (1638400)
I0602 10:03:19.712990 20532 net.cpp:165] Memory required for data: 7484964896
I0602 10:03:19.713004 20532 layer_factory.hpp:77] Creating layer conv6_2_relu
I0602 10:03:19.713014 20532 net.cpp:100] Creating Layer conv6_2_relu
I0602 10:03:19.713021 20532 net.cpp:434] conv6_2_relu <- conv6_2
I0602 10:03:19.713030 20532 net.cpp:395] conv6_2_relu -> conv6_2 (in-place)
I0602 10:03:19.713165 20532 net.cpp:150] Setting up conv6_2_relu
I0602 10:03:19.713173 20532 net.cpp:157] Top shape: 32 512 10 10 (1638400)
I0602 10:03:19.713177 20532 net.cpp:165] Memory required for data: 7491518496
I0602 10:03:19.713181 20532 layer_factory.hpp:77] Creating layer conv6_2_conv6_2_relu_0_split
I0602 10:03:19.713188 20532 net.cpp:100] Creating Layer conv6_2_conv6_2_relu_0_split
I0602 10:03:19.713193 20532 net.cpp:434] conv6_2_conv6_2_relu_0_split <- conv6_2
I0602 10:03:19.713201 20532 net.cpp:408] conv6_2_conv6_2_relu_0_split -> conv6_2_conv6_2_relu_0_split_0
I0602 10:03:19.713210 20532 net.cpp:408] conv6_2_conv6_2_relu_0_split -> conv6_2_conv6_2_relu_0_split_1
I0602 10:03:19.713218 20532 net.cpp:408] conv6_2_conv6_2_relu_0_split -> conv6_2_conv6_2_relu_0_split_2
I0602 10:03:19.713227 20532 net.cpp:408] conv6_2_conv6_2_relu_0_split -> conv6_2_conv6_2_relu_0_split_3
I0602 10:03:19.713284 20532 net.cpp:150] Setting up conv6_2_conv6_2_relu_0_split
I0602 10:03:19.713289 20532 net.cpp:157] Top shape: 32 512 10 10 (1638400)
I0602 10:03:19.713294 20532 net.cpp:157] Top shape: 32 512 10 10 (1638400)
I0602 10:03:19.713299 20532 net.cpp:157] Top shape: 32 512 10 10 (1638400)
I0602 10:03:19.713304 20532 net.cpp:157] Top shape: 32 512 10 10 (1638400)
I0602 10:03:19.713307 20532 net.cpp:165] Memory required for data: 7517732896
I0602 10:03:19.713311 20532 layer_factory.hpp:77] Creating layer conv7_1
I0602 10:03:19.713322 20532 net.cpp:100] Creating Layer conv7_1
I0602 10:03:19.713327 20532 net.cpp:434] conv7_1 <- conv6_2_conv6_2_relu_0_split_0
I0602 10:03:19.713335 20532 net.cpp:408] conv7_1 -> conv7_1
I0602 10:03:19.714648 20532 net.cpp:150] Setting up conv7_1
I0602 10:03:19.714658 20532 net.cpp:157] Top shape: 32 128 10 10 (409600)
I0602 10:03:19.714663 20532 net.cpp:165] Memory required for data: 7519371296
I0602 10:03:19.714669 20532 layer_factory.hpp:77] Creating layer conv7_1_relu
I0602 10:03:19.714676 20532 net.cpp:100] Creating Layer conv7_1_relu
I0602 10:03:19.714681 20532 net.cpp:434] conv7_1_relu <- conv7_1
I0602 10:03:19.714689 20532 net.cpp:395] conv7_1_relu -> conv7_1 (in-place)
I0602 10:03:19.714814 20532 net.cpp:150] Setting up conv7_1_relu
I0602 10:03:19.714823 20532 net.cpp:157] Top shape: 32 128 10 10 (409600)
I0602 10:03:19.714826 20532 net.cpp:165] Memory required for data: 7521009696
I0602 10:03:19.714830 20532 layer_factory.hpp:77] Creating layer conv7_2
I0602 10:03:19.714840 20532 net.cpp:100] Creating Layer conv7_2
I0602 10:03:19.714844 20532 net.cpp:434] conv7_2 <- conv7_1
I0602 10:03:19.714854 20532 net.cpp:408] conv7_2 -> conv7_2
I0602 10:03:19.717653 20532 net.cpp:150] Setting up conv7_2
I0602 10:03:19.717665 20532 net.cpp:157] Top shape: 32 256 5 5 (204800)
I0602 10:03:19.717670 20532 net.cpp:165] Memory required for data: 7521828896
I0602 10:03:19.717677 20532 layer_factory.hpp:77] Creating layer conv7_2_relu
I0602 10:03:19.717685 20532 net.cpp:100] Creating Layer conv7_2_relu
I0602 10:03:19.717690 20532 net.cpp:434] conv7_2_relu <- conv7_2
I0602 10:03:19.717706 20532 net.cpp:395] conv7_2_relu -> conv7_2 (in-place)
I0602 10:03:19.717840 20532 net.cpp:150] Setting up conv7_2_relu
I0602 10:03:19.717849 20532 net.cpp:157] Top shape: 32 256 5 5 (204800)
I0602 10:03:19.717854 20532 net.cpp:165] Memory required for data: 7522648096
I0602 10:03:19.717857 20532 layer_factory.hpp:77] Creating layer conv7_2_conv7_2_relu_0_split
I0602 10:03:19.717864 20532 net.cpp:100] Creating Layer conv7_2_conv7_2_relu_0_split
I0602 10:03:19.717869 20532 net.cpp:434] conv7_2_conv7_2_relu_0_split <- conv7_2
I0602 10:03:19.717876 20532 net.cpp:408] conv7_2_conv7_2_relu_0_split -> conv7_2_conv7_2_relu_0_split_0
I0602 10:03:19.717885 20532 net.cpp:408] conv7_2_conv7_2_relu_0_split -> conv7_2_conv7_2_relu_0_split_1
I0602 10:03:19.717895 20532 net.cpp:408] conv7_2_conv7_2_relu_0_split -> conv7_2_conv7_2_relu_0_split_2
I0602 10:03:19.717903 20532 net.cpp:408] conv7_2_conv7_2_relu_0_split -> conv7_2_conv7_2_relu_0_split_3
I0602 10:03:19.717957 20532 net.cpp:150] Setting up conv7_2_conv7_2_relu_0_split
I0602 10:03:19.717963 20532 net.cpp:157] Top shape: 32 256 5 5 (204800)
I0602 10:03:19.717968 20532 net.cpp:157] Top shape: 32 256 5 5 (204800)
I0602 10:03:19.717973 20532 net.cpp:157] Top shape: 32 256 5 5 (204800)
I0602 10:03:19.717978 20532 net.cpp:157] Top shape: 32 256 5 5 (204800)
I0602 10:03:19.717983 20532 net.cpp:165] Memory required for data: 7525924896
I0602 10:03:19.717985 20532 layer_factory.hpp:77] Creating layer conv8_1
I0602 10:03:19.717995 20532 net.cpp:100] Creating Layer conv8_1
I0602 10:03:19.718000 20532 net.cpp:434] conv8_1 <- conv7_2_conv7_2_relu_0_split_0
I0602 10:03:19.718009 20532 net.cpp:408] conv8_1 -> conv8_1
I0602 10:03:19.719146 20532 net.cpp:150] Setting up conv8_1
I0602 10:03:19.719156 20532 net.cpp:157] Top shape: 32 128 5 5 (102400)
I0602 10:03:19.719161 20532 net.cpp:165] Memory required for data: 7526334496
I0602 10:03:19.719167 20532 layer_factory.hpp:77] Creating layer conv8_1_relu
I0602 10:03:19.719175 20532 net.cpp:100] Creating Layer conv8_1_relu
I0602 10:03:19.719180 20532 net.cpp:434] conv8_1_relu <- conv8_1
I0602 10:03:19.719187 20532 net.cpp:395] conv8_1_relu -> conv8_1 (in-place)
I0602 10:03:19.719743 20532 net.cpp:150] Setting up conv8_1_relu
I0602 10:03:19.719753 20532 net.cpp:157] Top shape: 32 128 5 5 (102400)
I0602 10:03:19.719755 20532 net.cpp:165] Memory required for data: 7526744096
I0602 10:03:19.719760 20532 layer_factory.hpp:77] Creating layer conv8_2
I0602 10:03:19.719771 20532 net.cpp:100] Creating Layer conv8_2
I0602 10:03:19.719776 20532 net.cpp:434] conv8_2 <- conv8_1
I0602 10:03:19.719784 20532 net.cpp:408] conv8_2 -> conv8_2
I0602 10:03:19.722987 20532 net.cpp:150] Setting up conv8_2
I0602 10:03:19.723001 20532 net.cpp:157] Top shape: 32 256 3 3 (73728)
I0602 10:03:19.723004 20532 net.cpp:165] Memory required for data: 7527039008
I0602 10:03:19.723011 20532 layer_factory.hpp:77] Creating layer conv8_2_relu
I0602 10:03:19.723021 20532 net.cpp:100] Creating Layer conv8_2_relu
I0602 10:03:19.723026 20532 net.cpp:434] conv8_2_relu <- conv8_2
I0602 10:03:19.723033 20532 net.cpp:395] conv8_2_relu -> conv8_2 (in-place)
I0602 10:03:19.723167 20532 net.cpp:150] Setting up conv8_2_relu
I0602 10:03:19.723176 20532 net.cpp:157] Top shape: 32 256 3 3 (73728)
I0602 10:03:19.723179 20532 net.cpp:165] Memory required for data: 7527333920
I0602 10:03:19.723183 20532 layer_factory.hpp:77] Creating layer conv8_2_conv8_2_relu_0_split
I0602 10:03:19.723191 20532 net.cpp:100] Creating Layer conv8_2_conv8_2_relu_0_split
I0602 10:03:19.723194 20532 net.cpp:434] conv8_2_conv8_2_relu_0_split <- conv8_2
I0602 10:03:19.723202 20532 net.cpp:408] conv8_2_conv8_2_relu_0_split -> conv8_2_conv8_2_relu_0_split_0
I0602 10:03:19.723212 20532 net.cpp:408] conv8_2_conv8_2_relu_0_split -> conv8_2_conv8_2_relu_0_split_1
I0602 10:03:19.723220 20532 net.cpp:408] conv8_2_conv8_2_relu_0_split -> conv8_2_conv8_2_relu_0_split_2
I0602 10:03:19.723227 20532 net.cpp:408] conv8_2_conv8_2_relu_0_split -> conv8_2_conv8_2_relu_0_split_3
I0602 10:03:19.723295 20532 net.cpp:150] Setting up conv8_2_conv8_2_relu_0_split
I0602 10:03:19.723302 20532 net.cpp:157] Top shape: 32 256 3 3 (73728)
I0602 10:03:19.723306 20532 net.cpp:157] Top shape: 32 256 3 3 (73728)
I0602 10:03:19.723311 20532 net.cpp:157] Top shape: 32 256 3 3 (73728)
I0602 10:03:19.723316 20532 net.cpp:157] Top shape: 32 256 3 3 (73728)
I0602 10:03:19.723320 20532 net.cpp:165] Memory required for data: 7528513568
I0602 10:03:19.723322 20532 layer_factory.hpp:77] Creating layer conv9_1
I0602 10:03:19.723335 20532 net.cpp:100] Creating Layer conv9_1
I0602 10:03:19.723340 20532 net.cpp:434] conv9_1 <- conv8_2_conv8_2_relu_0_split_0
I0602 10:03:19.723347 20532 net.cpp:408] conv9_1 -> conv9_1
I0602 10:03:19.724509 20532 net.cpp:150] Setting up conv9_1
I0602 10:03:19.724521 20532 net.cpp:157] Top shape: 32 128 3 3 (36864)
I0602 10:03:19.724525 20532 net.cpp:165] Memory required for data: 7528661024
I0602 10:03:19.724534 20532 layer_factory.hpp:77] Creating layer conv9_1_relu
I0602 10:03:19.724542 20532 net.cpp:100] Creating Layer conv9_1_relu
I0602 10:03:19.724547 20532 net.cpp:434] conv9_1_relu <- conv9_1
I0602 10:03:19.724553 20532 net.cpp:395] conv9_1_relu -> conv9_1 (in-place)
I0602 10:03:19.724684 20532 net.cpp:150] Setting up conv9_1_relu
I0602 10:03:19.724690 20532 net.cpp:157] Top shape: 32 128 3 3 (36864)
I0602 10:03:19.724694 20532 net.cpp:165] Memory required for data: 7528808480
I0602 10:03:19.724699 20532 layer_factory.hpp:77] Creating layer conv9_2
I0602 10:03:19.724707 20532 net.cpp:100] Creating Layer conv9_2
I0602 10:03:19.724712 20532 net.cpp:434] conv9_2 <- conv9_1
I0602 10:03:19.724720 20532 net.cpp:408] conv9_2 -> conv9_2
I0602 10:03:19.727547 20532 net.cpp:150] Setting up conv9_2
I0602 10:03:19.727560 20532 net.cpp:157] Top shape: 32 256 1 1 (8192)
I0602 10:03:19.727565 20532 net.cpp:165] Memory required for data: 7528841248
I0602 10:03:19.727571 20532 layer_factory.hpp:77] Creating layer conv9_2_relu
I0602 10:03:19.727578 20532 net.cpp:100] Creating Layer conv9_2_relu
I0602 10:03:19.727584 20532 net.cpp:434] conv9_2_relu <- conv9_2
I0602 10:03:19.727592 20532 net.cpp:395] conv9_2_relu -> conv9_2 (in-place)
I0602 10:03:19.727721 20532 net.cpp:150] Setting up conv9_2_relu
I0602 10:03:19.727731 20532 net.cpp:157] Top shape: 32 256 1 1 (8192)
I0602 10:03:19.727735 20532 net.cpp:165] Memory required for data: 7528874016
I0602 10:03:19.727736 20532 layer_factory.hpp:77] Creating layer conv9_2_conv9_2_relu_0_split
I0602 10:03:19.727742 20532 net.cpp:100] Creating Layer conv9_2_conv9_2_relu_0_split
I0602 10:03:19.727744 20532 net.cpp:434] conv9_2_conv9_2_relu_0_split <- conv9_2
I0602 10:03:19.727749 20532 net.cpp:408] conv9_2_conv9_2_relu_0_split -> conv9_2_conv9_2_relu_0_split_0
I0602 10:03:19.727754 20532 net.cpp:408] conv9_2_conv9_2_relu_0_split -> conv9_2_conv9_2_relu_0_split_1
I0602 10:03:19.727761 20532 net.cpp:408] conv9_2_conv9_2_relu_0_split -> conv9_2_conv9_2_relu_0_split_2
I0602 10:03:19.727802 20532 net.cpp:150] Setting up conv9_2_conv9_2_relu_0_split
I0602 10:03:19.727807 20532 net.cpp:157] Top shape: 32 256 1 1 (8192)
I0602 10:03:19.727810 20532 net.cpp:157] Top shape: 32 256 1 1 (8192)
I0602 10:03:19.727813 20532 net.cpp:157] Top shape: 32 256 1 1 (8192)
I0602 10:03:19.727814 20532 net.cpp:165] Memory required for data: 7528972320
I0602 10:03:19.727816 20532 layer_factory.hpp:77] Creating layer conv4_3_norm
I0602 10:03:19.727821 20532 net.cpp:100] Creating Layer conv4_3_norm
I0602 10:03:19.727825 20532 net.cpp:434] conv4_3_norm <- conv4_3_relu4_3_0_split_1
I0602 10:03:19.727829 20532 net.cpp:408] conv4_3_norm -> conv4_3_norm
I0602 10:03:19.727948 20532 net.cpp:150] Setting up conv4_3_norm
I0602 10:03:19.727954 20532 net.cpp:157] Top shape: 32 512 38 38 (23658496)
I0602 10:03:19.727957 20532 net.cpp:165] Memory required for data: 7623606304
I0602 10:03:19.727960 20532 layer_factory.hpp:77] Creating layer conv4_3_norm_conv4_3_norm_0_split
I0602 10:03:19.727964 20532 net.cpp:100] Creating Layer conv4_3_norm_conv4_3_norm_0_split
I0602 10:03:19.727967 20532 net.cpp:434] conv4_3_norm_conv4_3_norm_0_split <- conv4_3_norm
I0602 10:03:19.727979 20532 net.cpp:408] conv4_3_norm_conv4_3_norm_0_split -> conv4_3_norm_conv4_3_norm_0_split_0
I0602 10:03:19.727985 20532 net.cpp:408] conv4_3_norm_conv4_3_norm_0_split -> conv4_3_norm_conv4_3_norm_0_split_1
I0602 10:03:19.727990 20532 net.cpp:408] conv4_3_norm_conv4_3_norm_0_split -> conv4_3_norm_conv4_3_norm_0_split_2
I0602 10:03:19.728034 20532 net.cpp:150] Setting up conv4_3_norm_conv4_3_norm_0_split
I0602 10:03:19.728039 20532 net.cpp:157] Top shape: 32 512 38 38 (23658496)
I0602 10:03:19.728042 20532 net.cpp:157] Top shape: 32 512 38 38 (23658496)
I0602 10:03:19.728045 20532 net.cpp:157] Top shape: 32 512 38 38 (23658496)
I0602 10:03:19.728047 20532 net.cpp:165] Memory required for data: 7907508256
I0602 10:03:19.728049 20532 layer_factory.hpp:77] Creating layer conv4_3_norm_mbox_loc
I0602 10:03:19.728056 20532 net.cpp:100] Creating Layer conv4_3_norm_mbox_loc
I0602 10:03:19.728060 20532 net.cpp:434] conv4_3_norm_mbox_loc <- conv4_3_norm_conv4_3_norm_0_split_0
I0602 10:03:19.728065 20532 net.cpp:408] conv4_3_norm_mbox_loc -> conv4_3_norm_mbox_loc
I0602 10:03:19.729794 20532 net.cpp:150] Setting up conv4_3_norm_mbox_loc
I0602 10:03:19.729802 20532 net.cpp:157] Top shape: 32 16 38 38 (739328)
I0602 10:03:19.729805 20532 net.cpp:165] Memory required for data: 7910465568
I0602 10:03:19.729810 20532 layer_factory.hpp:77] Creating layer conv4_3_norm_mbox_loc_perm
I0602 10:03:19.729816 20532 net.cpp:100] Creating Layer conv4_3_norm_mbox_loc_perm
I0602 10:03:19.729820 20532 net.cpp:434] conv4_3_norm_mbox_loc_perm <- conv4_3_norm_mbox_loc
I0602 10:03:19.729825 20532 net.cpp:408] conv4_3_norm_mbox_loc_perm -> conv4_3_norm_mbox_loc_perm
I0602 10:03:19.729904 20532 net.cpp:150] Setting up conv4_3_norm_mbox_loc_perm
I0602 10:03:19.729909 20532 net.cpp:157] Top shape: 32 38 38 16 (739328)
I0602 10:03:19.729912 20532 net.cpp:165] Memory required for data: 7913422880
I0602 10:03:19.729914 20532 layer_factory.hpp:77] Creating layer conv4_3_norm_mbox_loc_flat
I0602 10:03:19.729918 20532 net.cpp:100] Creating Layer conv4_3_norm_mbox_loc_flat
I0602 10:03:19.729920 20532 net.cpp:434] conv4_3_norm_mbox_loc_flat <- conv4_3_norm_mbox_loc_perm
I0602 10:03:19.729925 20532 net.cpp:408] conv4_3_norm_mbox_loc_flat -> conv4_3_norm_mbox_loc_flat
I0602 10:03:19.729953 20532 net.cpp:150] Setting up conv4_3_norm_mbox_loc_flat
I0602 10:03:19.729959 20532 net.cpp:157] Top shape: 32 23104 (739328)
I0602 10:03:19.729960 20532 net.cpp:165] Memory required for data: 7916380192
I0602 10:03:19.729962 20532 layer_factory.hpp:77] Creating layer conv4_3_norm_mbox_conf
I0602 10:03:19.729975 20532 net.cpp:100] Creating Layer conv4_3_norm_mbox_conf
I0602 10:03:19.729979 20532 net.cpp:434] conv4_3_norm_mbox_conf <- conv4_3_norm_conv4_3_norm_0_split_1
I0602 10:03:19.729982 20532 net.cpp:408] conv4_3_norm_mbox_conf -> conv4_3_norm_mbox_conf
I0602 10:03:19.731712 20532 net.cpp:150] Setting up conv4_3_norm_mbox_conf
I0602 10:03:19.731722 20532 net.cpp:157] Top shape: 32 16 38 38 (739328)
I0602 10:03:19.731725 20532 net.cpp:165] Memory required for data: 7919337504
I0602 10:03:19.731730 20532 layer_factory.hpp:77] Creating layer conv4_3_norm_mbox_conf_perm
I0602 10:03:19.731737 20532 net.cpp:100] Creating Layer conv4_3_norm_mbox_conf_perm
I0602 10:03:19.731741 20532 net.cpp:434] conv4_3_norm_mbox_conf_perm <- conv4_3_norm_mbox_conf
I0602 10:03:19.731746 20532 net.cpp:408] conv4_3_norm_mbox_conf_perm -> conv4_3_norm_mbox_conf_perm
I0602 10:03:19.731824 20532 net.cpp:150] Setting up conv4_3_norm_mbox_conf_perm
I0602 10:03:19.731830 20532 net.cpp:157] Top shape: 32 38 38 16 (739328)
I0602 10:03:19.731833 20532 net.cpp:165] Memory required for data: 7922294816
I0602 10:03:19.731837 20532 layer_factory.hpp:77] Creating layer conv4_3_norm_mbox_conf_flat
I0602 10:03:19.731839 20532 net.cpp:100] Creating Layer conv4_3_norm_mbox_conf_flat
I0602 10:03:19.731842 20532 net.cpp:434] conv4_3_norm_mbox_conf_flat <- conv4_3_norm_mbox_conf_perm
I0602 10:03:19.731845 20532 net.cpp:408] conv4_3_norm_mbox_conf_flat -> conv4_3_norm_mbox_conf_flat
I0602 10:03:19.731874 20532 net.cpp:150] Setting up conv4_3_norm_mbox_conf_flat
I0602 10:03:19.731879 20532 net.cpp:157] Top shape: 32 23104 (739328)
I0602 10:03:19.731881 20532 net.cpp:165] Memory required for data: 7925252128
I0602 10:03:19.731884 20532 layer_factory.hpp:77] Creating layer conv4_3_norm_mbox_priorbox
I0602 10:03:19.731889 20532 net.cpp:100] Creating Layer conv4_3_norm_mbox_priorbox
I0602 10:03:19.731894 20532 net.cpp:434] conv4_3_norm_mbox_priorbox <- conv4_3_norm_conv4_3_norm_0_split_2
I0602 10:03:19.731896 20532 net.cpp:434] conv4_3_norm_mbox_priorbox <- data_data_0_split_1
I0602 10:03:19.731902 20532 net.cpp:408] conv4_3_norm_mbox_priorbox -> conv4_3_norm_mbox_priorbox
I0602 10:03:19.731925 20532 net.cpp:150] Setting up conv4_3_norm_mbox_priorbox
I0602 10:03:19.731930 20532 net.cpp:157] Top shape: 1 2 23104 (46208)
I0602 10:03:19.731933 20532 net.cpp:165] Memory required for data: 7925436960
I0602 10:03:19.731935 20532 layer_factory.hpp:77] Creating layer fc7_mbox_loc
I0602 10:03:19.731942 20532 net.cpp:100] Creating Layer fc7_mbox_loc
I0602 10:03:19.731946 20532 net.cpp:434] fc7_mbox_loc <- fc7_relu7_0_split_1
I0602 10:03:19.731950 20532 net.cpp:408] fc7_mbox_loc -> fc7_mbox_loc
I0602 10:03:19.734474 20532 net.cpp:150] Setting up fc7_mbox_loc
I0602 10:03:19.734491 20532 net.cpp:157] Top shape: 32 24 19 19 (277248)
I0602 10:03:19.734494 20532 net.cpp:165] Memory required for data: 7926545952
I0602 10:03:19.734500 20532 layer_factory.hpp:77] Creating layer fc7_mbox_loc_perm
I0602 10:03:19.734508 20532 net.cpp:100] Creating Layer fc7_mbox_loc_perm
I0602 10:03:19.734513 20532 net.cpp:434] fc7_mbox_loc_perm <- fc7_mbox_loc
I0602 10:03:19.734518 20532 net.cpp:408] fc7_mbox_loc_perm -> fc7_mbox_loc_perm
I0602 10:03:19.734634 20532 net.cpp:150] Setting up fc7_mbox_loc_perm
I0602 10:03:19.734657 20532 net.cpp:157] Top shape: 32 19 19 24 (277248)
I0602 10:03:19.734660 20532 net.cpp:165] Memory required for data: 7927654944
I0602 10:03:19.734664 20532 layer_factory.hpp:77] Creating layer fc7_mbox_loc_flat
I0602 10:03:19.734673 20532 net.cpp:100] Creating Layer fc7_mbox_loc_flat
I0602 10:03:19.734678 20532 net.cpp:434] fc7_mbox_loc_flat <- fc7_mbox_loc_perm
I0602 10:03:19.734684 20532 net.cpp:408] fc7_mbox_loc_flat -> fc7_mbox_loc_flat
I0602 10:03:19.734726 20532 net.cpp:150] Setting up fc7_mbox_loc_flat
I0602 10:03:19.734735 20532 net.cpp:157] Top shape: 32 8664 (277248)
I0602 10:03:19.734738 20532 net.cpp:165] Memory required for data: 7928763936
I0602 10:03:19.734741 20532 layer_factory.hpp:77] Creating layer fc7_mbox_conf
I0602 10:03:19.734756 20532 net.cpp:100] Creating Layer fc7_mbox_conf
I0602 10:03:19.734761 20532 net.cpp:434] fc7_mbox_conf <- fc7_relu7_0_split_2
I0602 10:03:19.734769 20532 net.cpp:408] fc7_mbox_conf -> fc7_mbox_conf
I0602 10:03:19.737671 20532 net.cpp:150] Setting up fc7_mbox_conf
I0602 10:03:19.737695 20532 net.cpp:157] Top shape: 32 24 19 19 (277248)
I0602 10:03:19.737699 20532 net.cpp:165] Memory required for data: 7929872928
I0602 10:03:19.737710 20532 layer_factory.hpp:77] Creating layer fc7_mbox_conf_perm
I0602 10:03:19.737721 20532 net.cpp:100] Creating Layer fc7_mbox_conf_perm
I0602 10:03:19.737727 20532 net.cpp:434] fc7_mbox_conf_perm <- fc7_mbox_conf
I0602 10:03:19.737735 20532 net.cpp:408] fc7_mbox_conf_perm -> fc7_mbox_conf_perm
I0602 10:03:19.737843 20532 net.cpp:150] Setting up fc7_mbox_conf_perm
I0602 10:03:19.737849 20532 net.cpp:157] Top shape: 32 19 19 24 (277248)
I0602 10:03:19.737853 20532 net.cpp:165] Memory required for data: 7930981920
I0602 10:03:19.737856 20532 layer_factory.hpp:77] Creating layer fc7_mbox_conf_flat
I0602 10:03:19.737864 20532 net.cpp:100] Creating Layer fc7_mbox_conf_flat
I0602 10:03:19.737869 20532 net.cpp:434] fc7_mbox_conf_flat <- fc7_mbox_conf_perm
I0602 10:03:19.737876 20532 net.cpp:408] fc7_mbox_conf_flat -> fc7_mbox_conf_flat
I0602 10:03:19.737905 20532 net.cpp:150] Setting up fc7_mbox_conf_flat
I0602 10:03:19.737911 20532 net.cpp:157] Top shape: 32 8664 (277248)
I0602 10:03:19.737913 20532 net.cpp:165] Memory required for data: 7932090912
I0602 10:03:19.737929 20532 layer_factory.hpp:77] Creating layer fc7_mbox_priorbox
I0602 10:03:19.737939 20532 net.cpp:100] Creating Layer fc7_mbox_priorbox
I0602 10:03:19.737946 20532 net.cpp:434] fc7_mbox_priorbox <- fc7_relu7_0_split_3
I0602 10:03:19.737951 20532 net.cpp:434] fc7_mbox_priorbox <- data_data_0_split_2
I0602 10:03:19.737958 20532 net.cpp:408] fc7_mbox_priorbox -> fc7_mbox_priorbox
I0602 10:03:19.737993 20532 net.cpp:150] Setting up fc7_mbox_priorbox
I0602 10:03:19.738000 20532 net.cpp:157] Top shape: 1 2 8664 (17328)
I0602 10:03:19.738003 20532 net.cpp:165] Memory required for data: 7932160224
I0602 10:03:19.738008 20532 layer_factory.hpp:77] Creating layer conv6_2_mbox_loc
I0602 10:03:19.738019 20532 net.cpp:100] Creating Layer conv6_2_mbox_loc
I0602 10:03:19.738026 20532 net.cpp:434] conv6_2_mbox_loc <- conv6_2_conv6_2_relu_0_split_1
I0602 10:03:19.738035 20532 net.cpp:408] conv6_2_mbox_loc -> conv6_2_mbox_loc
I0602 10:03:19.740118 20532 net.cpp:150] Setting up conv6_2_mbox_loc
I0602 10:03:19.740136 20532 net.cpp:157] Top shape: 32 24 10 10 (76800)
I0602 10:03:19.740139 20532 net.cpp:165] Memory required for data: 7932467424
I0602 10:03:19.740149 20532 layer_factory.hpp:77] Creating layer conv6_2_mbox_loc_perm
I0602 10:03:19.740160 20532 net.cpp:100] Creating Layer conv6_2_mbox_loc_perm
I0602 10:03:19.740166 20532 net.cpp:434] conv6_2_mbox_loc_perm <- conv6_2_mbox_loc
I0602 10:03:19.740175 20532 net.cpp:408] conv6_2_mbox_loc_perm -> conv6_2_mbox_loc_perm
I0602 10:03:19.740280 20532 net.cpp:150] Setting up conv6_2_mbox_loc_perm
I0602 10:03:19.740289 20532 net.cpp:157] Top shape: 32 10 10 24 (76800)
I0602 10:03:19.740291 20532 net.cpp:165] Memory required for data: 7932774624
I0602 10:03:19.740295 20532 layer_factory.hpp:77] Creating layer conv6_2_mbox_loc_flat
I0602 10:03:19.740303 20532 net.cpp:100] Creating Layer conv6_2_mbox_loc_flat
I0602 10:03:19.740309 20532 net.cpp:434] conv6_2_mbox_loc_flat <- conv6_2_mbox_loc_perm
I0602 10:03:19.740315 20532 net.cpp:408] conv6_2_mbox_loc_flat -> conv6_2_mbox_loc_flat
I0602 10:03:19.740345 20532 net.cpp:150] Setting up conv6_2_mbox_loc_flat
I0602 10:03:19.740350 20532 net.cpp:157] Top shape: 32 2400 (76800)
I0602 10:03:19.740353 20532 net.cpp:165] Memory required for data: 7933081824
I0602 10:03:19.740357 20532 layer_factory.hpp:77] Creating layer conv6_2_mbox_conf
I0602 10:03:19.740370 20532 net.cpp:100] Creating Layer conv6_2_mbox_conf
I0602 10:03:19.740375 20532 net.cpp:434] conv6_2_mbox_conf <- conv6_2_conv6_2_relu_0_split_2
I0602 10:03:19.740386 20532 net.cpp:408] conv6_2_mbox_conf -> conv6_2_mbox_conf
I0602 10:03:19.742887 20532 net.cpp:150] Setting up conv6_2_mbox_conf
I0602 10:03:19.742902 20532 net.cpp:157] Top shape: 32 24 10 10 (76800)
I0602 10:03:19.742904 20532 net.cpp:165] Memory required for data: 7933389024
I0602 10:03:19.742915 20532 layer_factory.hpp:77] Creating layer conv6_2_mbox_conf_perm
I0602 10:03:19.742925 20532 net.cpp:100] Creating Layer conv6_2_mbox_conf_perm
I0602 10:03:19.742930 20532 net.cpp:434] conv6_2_mbox_conf_perm <- conv6_2_mbox_conf
I0602 10:03:19.742938 20532 net.cpp:408] conv6_2_mbox_conf_perm -> conv6_2_mbox_conf_perm
I0602 10:03:19.743041 20532 net.cpp:150] Setting up conv6_2_mbox_conf_perm
I0602 10:03:19.743048 20532 net.cpp:157] Top shape: 32 10 10 24 (76800)
I0602 10:03:19.743050 20532 net.cpp:165] Memory required for data: 7933696224
I0602 10:03:19.743052 20532 layer_factory.hpp:77] Creating layer conv6_2_mbox_conf_flat
I0602 10:03:19.743060 20532 net.cpp:100] Creating Layer conv6_2_mbox_conf_flat
I0602 10:03:19.743064 20532 net.cpp:434] conv6_2_mbox_conf_flat <- conv6_2_mbox_conf_perm
I0602 10:03:19.743072 20532 net.cpp:408] conv6_2_mbox_conf_flat -> conv6_2_mbox_conf_flat
I0602 10:03:19.743100 20532 net.cpp:150] Setting up conv6_2_mbox_conf_flat
I0602 10:03:19.743106 20532 net.cpp:157] Top shape: 32 2400 (76800)
I0602 10:03:19.743108 20532 net.cpp:165] Memory required for data: 7934003424
I0602 10:03:19.743111 20532 layer_factory.hpp:77] Creating layer conv6_2_mbox_priorbox
I0602 10:03:19.743134 20532 net.cpp:100] Creating Layer conv6_2_mbox_priorbox
I0602 10:03:19.743139 20532 net.cpp:434] conv6_2_mbox_priorbox <- conv6_2_conv6_2_relu_0_split_3
I0602 10:03:19.743144 20532 net.cpp:434] conv6_2_mbox_priorbox <- data_data_0_split_3
I0602 10:03:19.743151 20532 net.cpp:408] conv6_2_mbox_priorbox -> conv6_2_mbox_priorbox
I0602 10:03:19.743183 20532 net.cpp:150] Setting up conv6_2_mbox_priorbox
I0602 10:03:19.743190 20532 net.cpp:157] Top shape: 1 2 2400 (4800)
I0602 10:03:19.743191 20532 net.cpp:165] Memory required for data: 7934022624
I0602 10:03:19.743194 20532 layer_factory.hpp:77] Creating layer conv7_2_mbox_loc
I0602 10:03:19.743206 20532 net.cpp:100] Creating Layer conv7_2_mbox_loc
I0602 10:03:19.743212 20532 net.cpp:434] conv7_2_mbox_loc <- conv7_2_conv7_2_relu_0_split_1
I0602 10:03:19.743222 20532 net.cpp:408] conv7_2_mbox_loc -> conv7_2_mbox_loc
I0602 10:03:19.744593 20532 net.cpp:150] Setting up conv7_2_mbox_loc
I0602 10:03:19.744606 20532 net.cpp:157] Top shape: 32 24 5 5 (19200)
I0602 10:03:19.744611 20532 net.cpp:165] Memory required for data: 7934099424
I0602 10:03:19.744616 20532 layer_factory.hpp:77] Creating layer conv7_2_mbox_loc_perm
I0602 10:03:19.744623 20532 net.cpp:100] Creating Layer conv7_2_mbox_loc_perm
I0602 10:03:19.744627 20532 net.cpp:434] conv7_2_mbox_loc_perm <- conv7_2_mbox_loc
I0602 10:03:19.744635 20532 net.cpp:408] conv7_2_mbox_loc_perm -> conv7_2_mbox_loc_perm
I0602 10:03:19.744735 20532 net.cpp:150] Setting up conv7_2_mbox_loc_perm
I0602 10:03:19.744742 20532 net.cpp:157] Top shape: 32 5 5 24 (19200)
I0602 10:03:19.744745 20532 net.cpp:165] Memory required for data: 7934176224
I0602 10:03:19.744747 20532 layer_factory.hpp:77] Creating layer conv7_2_mbox_loc_flat
I0602 10:03:19.744755 20532 net.cpp:100] Creating Layer conv7_2_mbox_loc_flat
I0602 10:03:19.744758 20532 net.cpp:434] conv7_2_mbox_loc_flat <- conv7_2_mbox_loc_perm
I0602 10:03:19.744766 20532 net.cpp:408] conv7_2_mbox_loc_flat -> conv7_2_mbox_loc_flat
I0602 10:03:19.744792 20532 net.cpp:150] Setting up conv7_2_mbox_loc_flat
I0602 10:03:19.744798 20532 net.cpp:157] Top shape: 32 600 (19200)
I0602 10:03:19.744801 20532 net.cpp:165] Memory required for data: 7934253024
I0602 10:03:19.744803 20532 layer_factory.hpp:77] Creating layer conv7_2_mbox_conf
I0602 10:03:19.744814 20532 net.cpp:100] Creating Layer conv7_2_mbox_conf
I0602 10:03:19.744819 20532 net.cpp:434] conv7_2_mbox_conf <- conv7_2_conv7_2_relu_0_split_2
I0602 10:03:19.744827 20532 net.cpp:408] conv7_2_mbox_conf -> conv7_2_mbox_conf
I0602 10:03:19.746646 20532 net.cpp:150] Setting up conv7_2_mbox_conf
I0602 10:03:19.746659 20532 net.cpp:157] Top shape: 32 24 5 5 (19200)
I0602 10:03:19.746662 20532 net.cpp:165] Memory required for data: 7934329824
I0602 10:03:19.746670 20532 layer_factory.hpp:77] Creating layer conv7_2_mbox_conf_perm
I0602 10:03:19.746676 20532 net.cpp:100] Creating Layer conv7_2_mbox_conf_perm
I0602 10:03:19.746680 20532 net.cpp:434] conv7_2_mbox_conf_perm <- conv7_2_mbox_conf
I0602 10:03:19.746688 20532 net.cpp:408] conv7_2_mbox_conf_perm -> conv7_2_mbox_conf_perm
I0602 10:03:19.746786 20532 net.cpp:150] Setting up conv7_2_mbox_conf_perm
I0602 10:03:19.746794 20532 net.cpp:157] Top shape: 32 5 5 24 (19200)
I0602 10:03:19.746798 20532 net.cpp:165] Memory required for data: 7934406624
I0602 10:03:19.746799 20532 layer_factory.hpp:77] Creating layer conv7_2_mbox_conf_flat
I0602 10:03:19.746803 20532 net.cpp:100] Creating Layer conv7_2_mbox_conf_flat
I0602 10:03:19.746806 20532 net.cpp:434] conv7_2_mbox_conf_flat <- conv7_2_mbox_conf_perm
I0602 10:03:19.746814 20532 net.cpp:408] conv7_2_mbox_conf_flat -> conv7_2_mbox_conf_flat
I0602 10:03:19.746840 20532 net.cpp:150] Setting up conv7_2_mbox_conf_flat
I0602 10:03:19.746846 20532 net.cpp:157] Top shape: 32 600 (19200)
I0602 10:03:19.746850 20532 net.cpp:165] Memory required for data: 7934483424
I0602 10:03:19.746852 20532 layer_factory.hpp:77] Creating layer conv7_2_mbox_priorbox
I0602 10:03:19.746861 20532 net.cpp:100] Creating Layer conv7_2_mbox_priorbox
I0602 10:03:19.746866 20532 net.cpp:434] conv7_2_mbox_priorbox <- conv7_2_conv7_2_relu_0_split_3
I0602 10:03:19.746886 20532 net.cpp:434] conv7_2_mbox_priorbox <- data_data_0_split_4
I0602 10:03:19.746894 20532 net.cpp:408] conv7_2_mbox_priorbox -> conv7_2_mbox_priorbox
I0602 10:03:19.746927 20532 net.cpp:150] Setting up conv7_2_mbox_priorbox
I0602 10:03:19.746934 20532 net.cpp:157] Top shape: 1 2 600 (1200)
I0602 10:03:19.746937 20532 net.cpp:165] Memory required for data: 7934488224
I0602 10:03:19.746939 20532 layer_factory.hpp:77] Creating layer conv8_2_mbox_loc
I0602 10:03:19.746953 20532 net.cpp:100] Creating Layer conv8_2_mbox_loc
I0602 10:03:19.746956 20532 net.cpp:434] conv8_2_mbox_loc <- conv8_2_conv8_2_relu_0_split_1
I0602 10:03:19.746963 20532 net.cpp:408] conv8_2_mbox_loc -> conv8_2_mbox_loc
I0602 10:03:19.748699 20532 net.cpp:150] Setting up conv8_2_mbox_loc
I0602 10:03:19.748713 20532 net.cpp:157] Top shape: 32 16 3 3 (4608)
I0602 10:03:19.748714 20532 net.cpp:165] Memory required for data: 7934506656
I0602 10:03:19.748729 20532 layer_factory.hpp:77] Creating layer conv8_2_mbox_loc_perm
I0602 10:03:19.748740 20532 net.cpp:100] Creating Layer conv8_2_mbox_loc_perm
I0602 10:03:19.748747 20532 net.cpp:434] conv8_2_mbox_loc_perm <- conv8_2_mbox_loc
I0602 10:03:19.748755 20532 net.cpp:408] conv8_2_mbox_loc_perm -> conv8_2_mbox_loc_perm
I0602 10:03:19.748849 20532 net.cpp:150] Setting up conv8_2_mbox_loc_perm
I0602 10:03:19.748857 20532 net.cpp:157] Top shape: 32 3 3 16 (4608)
I0602 10:03:19.748860 20532 net.cpp:165] Memory required for data: 7934525088
I0602 10:03:19.748862 20532 layer_factory.hpp:77] Creating layer conv8_2_mbox_loc_flat
I0602 10:03:19.748865 20532 net.cpp:100] Creating Layer conv8_2_mbox_loc_flat
I0602 10:03:19.748868 20532 net.cpp:434] conv8_2_mbox_loc_flat <- conv8_2_mbox_loc_perm
I0602 10:03:19.748872 20532 net.cpp:408] conv8_2_mbox_loc_flat -> conv8_2_mbox_loc_flat
I0602 10:03:19.748893 20532 net.cpp:150] Setting up conv8_2_mbox_loc_flat
I0602 10:03:19.748896 20532 net.cpp:157] Top shape: 32 144 (4608)
I0602 10:03:19.748898 20532 net.cpp:165] Memory required for data: 7934543520
I0602 10:03:19.748900 20532 layer_factory.hpp:77] Creating layer conv8_2_mbox_conf
I0602 10:03:19.748908 20532 net.cpp:100] Creating Layer conv8_2_mbox_conf
I0602 10:03:19.748911 20532 net.cpp:434] conv8_2_mbox_conf <- conv8_2_conv8_2_relu_0_split_2
I0602 10:03:19.748915 20532 net.cpp:408] conv8_2_mbox_conf -> conv8_2_mbox_conf
I0602 10:03:19.750995 20532 net.cpp:150] Setting up conv8_2_mbox_conf
I0602 10:03:19.751013 20532 net.cpp:157] Top shape: 32 16 3 3 (4608)
I0602 10:03:19.751015 20532 net.cpp:165] Memory required for data: 7934561952
I0602 10:03:19.751024 20532 layer_factory.hpp:77] Creating layer conv8_2_mbox_conf_perm
I0602 10:03:19.751034 20532 net.cpp:100] Creating Layer conv8_2_mbox_conf_perm
I0602 10:03:19.751041 20532 net.cpp:434] conv8_2_mbox_conf_perm <- conv8_2_mbox_conf
I0602 10:03:19.751049 20532 net.cpp:408] conv8_2_mbox_conf_perm -> conv8_2_mbox_conf_perm
I0602 10:03:19.751147 20532 net.cpp:150] Setting up conv8_2_mbox_conf_perm
I0602 10:03:19.751153 20532 net.cpp:157] Top shape: 32 3 3 16 (4608)
I0602 10:03:19.751157 20532 net.cpp:165] Memory required for data: 7934580384
I0602 10:03:19.751158 20532 layer_factory.hpp:77] Creating layer conv8_2_mbox_conf_flat
I0602 10:03:19.751163 20532 net.cpp:100] Creating Layer conv8_2_mbox_conf_flat
I0602 10:03:19.751168 20532 net.cpp:434] conv8_2_mbox_conf_flat <- conv8_2_mbox_conf_perm
I0602 10:03:19.751178 20532 net.cpp:408] conv8_2_mbox_conf_flat -> conv8_2_mbox_conf_flat
I0602 10:03:19.751206 20532 net.cpp:150] Setting up conv8_2_mbox_conf_flat
I0602 10:03:19.751212 20532 net.cpp:157] Top shape: 32 144 (4608)
I0602 10:03:19.751214 20532 net.cpp:165] Memory required for data: 7934598816
I0602 10:03:19.751217 20532 layer_factory.hpp:77] Creating layer conv8_2_mbox_priorbox
I0602 10:03:19.751224 20532 net.cpp:100] Creating Layer conv8_2_mbox_priorbox
I0602 10:03:19.751230 20532 net.cpp:434] conv8_2_mbox_priorbox <- conv8_2_conv8_2_relu_0_split_3
I0602 10:03:19.751235 20532 net.cpp:434] conv8_2_mbox_priorbox <- data_data_0_split_5
I0602 10:03:19.751256 20532 net.cpp:408] conv8_2_mbox_priorbox -> conv8_2_mbox_priorbox
I0602 10:03:19.751288 20532 net.cpp:150] Setting up conv8_2_mbox_priorbox
I0602 10:03:19.751294 20532 net.cpp:157] Top shape: 1 2 144 (288)
I0602 10:03:19.751297 20532 net.cpp:165] Memory required for data: 7934599968
I0602 10:03:19.751301 20532 layer_factory.hpp:77] Creating layer conv9_2_mbox_loc
I0602 10:03:19.751312 20532 net.cpp:100] Creating Layer conv9_2_mbox_loc
I0602 10:03:19.751317 20532 net.cpp:434] conv9_2_mbox_loc <- conv9_2_conv9_2_relu_0_split_0
I0602 10:03:19.751325 20532 net.cpp:408] conv9_2_mbox_loc -> conv9_2_mbox_loc
I0602 10:03:19.753069 20532 net.cpp:150] Setting up conv9_2_mbox_loc
I0602 10:03:19.753080 20532 net.cpp:157] Top shape: 32 16 1 1 (512)
I0602 10:03:19.753083 20532 net.cpp:165] Memory required for data: 7934602016
I0602 10:03:19.753089 20532 layer_factory.hpp:77] Creating layer conv9_2_mbox_loc_perm
I0602 10:03:19.753098 20532 net.cpp:100] Creating Layer conv9_2_mbox_loc_perm
I0602 10:03:19.753104 20532 net.cpp:434] conv9_2_mbox_loc_perm <- conv9_2_mbox_loc
I0602 10:03:19.753111 20532 net.cpp:408] conv9_2_mbox_loc_perm -> conv9_2_mbox_loc_perm
I0602 10:03:19.753213 20532 net.cpp:150] Setting up conv9_2_mbox_loc_perm
I0602 10:03:19.753221 20532 net.cpp:157] Top shape: 32 1 1 16 (512)
I0602 10:03:19.753222 20532 net.cpp:165] Memory required for data: 7934604064
I0602 10:03:19.753224 20532 layer_factory.hpp:77] Creating layer conv9_2_mbox_loc_flat
I0602 10:03:19.753229 20532 net.cpp:100] Creating Layer conv9_2_mbox_loc_flat
I0602 10:03:19.753235 20532 net.cpp:434] conv9_2_mbox_loc_flat <- conv9_2_mbox_loc_perm
I0602 10:03:19.753242 20532 net.cpp:408] conv9_2_mbox_loc_flat -> conv9_2_mbox_loc_flat
I0602 10:03:19.753271 20532 net.cpp:150] Setting up conv9_2_mbox_loc_flat
I0602 10:03:19.753278 20532 net.cpp:157] Top shape: 32 16 (512)
I0602 10:03:19.753279 20532 net.cpp:165] Memory required for data: 7934606112
I0602 10:03:19.753283 20532 layer_factory.hpp:77] Creating layer conv9_2_mbox_conf
I0602 10:03:19.753293 20532 net.cpp:100] Creating Layer conv9_2_mbox_conf
I0602 10:03:19.753298 20532 net.cpp:434] conv9_2_mbox_conf <- conv9_2_conv9_2_relu_0_split_1
I0602 10:03:19.753307 20532 net.cpp:408] conv9_2_mbox_conf -> conv9_2_mbox_conf
I0602 10:03:19.755463 20532 net.cpp:150] Setting up conv9_2_mbox_conf
I0602 10:03:19.755481 20532 net.cpp:157] Top shape: 32 16 1 1 (512)
I0602 10:03:19.755486 20532 net.cpp:165] Memory required for data: 7934608160
I0602 10:03:19.755494 20532 layer_factory.hpp:77] Creating layer conv9_2_mbox_conf_perm
I0602 10:03:19.755504 20532 net.cpp:100] Creating Layer conv9_2_mbox_conf_perm
I0602 10:03:19.755512 20532 net.cpp:434] conv9_2_mbox_conf_perm <- conv9_2_mbox_conf
I0602 10:03:19.755520 20532 net.cpp:408] conv9_2_mbox_conf_perm -> conv9_2_mbox_conf_perm
I0602 10:03:19.755646 20532 net.cpp:150] Setting up conv9_2_mbox_conf_perm
I0602 10:03:19.755655 20532 net.cpp:157] Top shape: 32 1 1 16 (512)
I0602 10:03:19.755656 20532 net.cpp:165] Memory required for data: 7934610208
I0602 10:03:19.755659 20532 layer_factory.hpp:77] Creating layer conv9_2_mbox_conf_flat
I0602 10:03:19.755666 20532 net.cpp:100] Creating Layer conv9_2_mbox_conf_flat
I0602 10:03:19.755671 20532 net.cpp:434] conv9_2_mbox_conf_flat <- conv9_2_mbox_conf_perm
I0602 10:03:19.755676 20532 net.cpp:408] conv9_2_mbox_conf_flat -> conv9_2_mbox_conf_flat
I0602 10:03:19.755704 20532 net.cpp:150] Setting up conv9_2_mbox_conf_flat
I0602 10:03:19.755712 20532 net.cpp:157] Top shape: 32 16 (512)
I0602 10:03:19.755713 20532 net.cpp:165] Memory required for data: 7934612256
I0602 10:03:19.755715 20532 layer_factory.hpp:77] Creating layer conv9_2_mbox_priorbox
I0602 10:03:19.755723 20532 net.cpp:100] Creating Layer conv9_2_mbox_priorbox
I0602 10:03:19.755728 20532 net.cpp:434] conv9_2_mbox_priorbox <- conv9_2_conv9_2_relu_0_split_2
I0602 10:03:19.755734 20532 net.cpp:434] conv9_2_mbox_priorbox <- data_data_0_split_6
I0602 10:03:19.755740 20532 net.cpp:408] conv9_2_mbox_priorbox -> conv9_2_mbox_priorbox
I0602 10:03:19.755786 20532 net.cpp:150] Setting up conv9_2_mbox_priorbox
I0602 10:03:19.755792 20532 net.cpp:157] Top shape: 1 2 16 (32)
I0602 10:03:19.755795 20532 net.cpp:165] Memory required for data: 7934612384
I0602 10:03:19.755798 20532 layer_factory.hpp:77] Creating layer mbox_loc
I0602 10:03:19.755807 20532 net.cpp:100] Creating Layer mbox_loc
I0602 10:03:19.755812 20532 net.cpp:434] mbox_loc <- conv4_3_norm_mbox_loc_flat
I0602 10:03:19.755818 20532 net.cpp:434] mbox_loc <- fc7_mbox_loc_flat
I0602 10:03:19.755825 20532 net.cpp:434] mbox_loc <- conv6_2_mbox_loc_flat
I0602 10:03:19.755831 20532 net.cpp:434] mbox_loc <- conv7_2_mbox_loc_flat
I0602 10:03:19.755834 20532 net.cpp:434] mbox_loc <- conv8_2_mbox_loc_flat
I0602 10:03:19.755839 20532 net.cpp:434] mbox_loc <- conv9_2_mbox_loc_flat
I0602 10:03:19.755846 20532 net.cpp:408] mbox_loc -> mbox_loc
I0602 10:03:19.755879 20532 net.cpp:150] Setting up mbox_loc
I0602 10:03:19.755887 20532 net.cpp:157] Top shape: 32 34928 (1117696)
I0602 10:03:19.755890 20532 net.cpp:165] Memory required for data: 7939083168
I0602 10:03:19.755894 20532 layer_factory.hpp:77] Creating layer mbox_conf
I0602 10:03:19.755901 20532 net.cpp:100] Creating Layer mbox_conf
I0602 10:03:19.755905 20532 net.cpp:434] mbox_conf <- conv4_3_norm_mbox_conf_flat
I0602 10:03:19.755910 20532 net.cpp:434] mbox_conf <- fc7_mbox_conf_flat
I0602 10:03:19.755915 20532 net.cpp:434] mbox_conf <- conv6_2_mbox_conf_flat
I0602 10:03:19.755920 20532 net.cpp:434] mbox_conf <- conv7_2_mbox_conf_flat
I0602 10:03:19.755924 20532 net.cpp:434] mbox_conf <- conv8_2_mbox_conf_flat
I0602 10:03:19.755929 20532 net.cpp:434] mbox_conf <- conv9_2_mbox_conf_flat
I0602 10:03:19.755935 20532 net.cpp:408] mbox_conf -> mbox_conf
I0602 10:03:19.755962 20532 net.cpp:150] Setting up mbox_conf
I0602 10:03:19.755970 20532 net.cpp:157] Top shape: 32 34928 (1117696)
I0602 10:03:19.755973 20532 net.cpp:165] Memory required for data: 7943553952
I0602 10:03:19.755978 20532 layer_factory.hpp:77] Creating layer mbox_priorbox
I0602 10:03:19.755985 20532 net.cpp:100] Creating Layer mbox_priorbox
I0602 10:03:19.755990 20532 net.cpp:434] mbox_priorbox <- conv4_3_norm_mbox_priorbox
I0602 10:03:19.755995 20532 net.cpp:434] mbox_priorbox <- fc7_mbox_priorbox
I0602 10:03:19.756000 20532 net.cpp:434] mbox_priorbox <- conv6_2_mbox_priorbox
I0602 10:03:19.756003 20532 net.cpp:434] mbox_priorbox <- conv7_2_mbox_priorbox
I0602 10:03:19.756007 20532 net.cpp:434] mbox_priorbox <- conv8_2_mbox_priorbox
I0602 10:03:19.756011 20532 net.cpp:434] mbox_priorbox <- conv9_2_mbox_priorbox
I0602 10:03:19.756026 20532 net.cpp:408] mbox_priorbox -> mbox_priorbox
I0602 10:03:19.756055 20532 net.cpp:150] Setting up mbox_priorbox
I0602 10:03:19.756063 20532 net.cpp:157] Top shape: 1 2 34928 (69856)
I0602 10:03:19.756067 20532 net.cpp:165] Memory required for data: 7943833376
I0602 10:03:19.756070 20532 layer_factory.hpp:77] Creating layer mbox_loss
I0602 10:03:19.756081 20532 net.cpp:100] Creating Layer mbox_loss
I0602 10:03:19.756086 20532 net.cpp:434] mbox_loss <- mbox_loc
I0602 10:03:19.756091 20532 net.cpp:434] mbox_loss <- mbox_conf
I0602 10:03:19.756096 20532 net.cpp:434] mbox_loss <- mbox_priorbox
…
  name: "data"
  type: "AnnotatedData"
  top: "data"
  top: "label"
  include {
    phase: TEST
  }
  transform_param {
    mean_value: 104
    mean_value: 117
    mean_value: 123
    resize_param {
      prob: 1
      resize_mode: WARP
      height: 300
      width: 300
      interp_mode: LINEAR
    }
  }
  data_param {
    source: "examples/tbs_300x300_HSIL_10x/tbs_300x300_HSIL_10x_test_lmdb"
    batch_size: 4
    backend: LMDB
  }
  annotated_data_param {
    batch_sampler {
    }
    label_map_file: "data/tbs_300x300_HSIL_10x/labelmap_voc.prototxt"
  }
}
layer {
  name: "conv1_1"
  type: "Convolution"
  bottom: "data"
  top: "conv1_1"
  param {
    lr_mult: 1
    decay_mult: 1
  }
  param {
    lr_mult: 2
    decay_mult: 0
  }
  convolution_param {
    num_output: 64
    pad: 1
    kernel_size: 3
    weight_filler {
      type: "xavier"
    }
    bias_filler {
      type: "constant"
      value: 0
    }
  }
}
layer {
  name: "relu1_1"
  type: "ReLU"
  bottom: "conv1_1"
  top: "conv1_1"
}
layer {
  name: "conv1_2"
  type: "Convolution"
  bottom: "conv1_1"
  top: "conv1_2"
  param {
    lr_mult: 1
    decay_mult: 1
  }
  param {
    lr_mult: 2
    decay_mult: 0
  }
  convolution_param {
    num_output: 64
    pad: 1
    kernel_size: 3
    weight_filler {
      type: "xavier"
    }
    bias_filler {
      type: "constant"
      value: 0
    }
  }
}
layer {
  name: "relu1_2"
  type: "ReLU"
  bottom: "conv1_2"
  top: "conv1_2"
}
layer {
  name: "pool1"
  type: "Pooling"
  bottom: "conv1_2"
  top: "pool1"
  pooling_param {
    pool: MAX
    kernel_size: 2
    stride: 2
  }
}
layer {
  name: "conv2_1"
  type: "Convolution"
  bottom: "pool1"
  top: "conv2_1"
  param {
    lr_mult: 1
    decay_mult: 1
  }
  param {
    lr_mult: 2
    decay_mult: 0
  }
  convolution_param {
    num_output: 128
    pad: 1
    kernel_size: 3
    weight_filler {
      type: "xavier"
    }
    bias_filler {
      type: "constant"
      value: 0
    }
  }
}
layer {
  name: "relu2_1"
  type: "ReLU"
  bottom: "conv2_1"
  top: "conv2_1"
}
layer {
  name: "conv2_2"
  type: "Convolution"
  bottom: "conv2_1"
  top: "conv2_2"
  param {
    lr_mult: 1
    decay_mult: 1
  }
  param {
    lr_mult: 2
    decay_mult: 0
  }
  convolution_param {
    num_output: 128
    pad: 1
    kernel_size: 3
    weight_filler {
      type: "xavier"
    }
    bias_filler {
      type: "constant"
      value: 0
    }
  }
}
layer {
  name: "relu2_2"
  type: "ReLU"
  bottom: "conv2_2"
  top: "conv2_2"
}
layer {
  name: "pool2"
  type: "Pooling"
  bottom: "conv2_2"
  top: "pool2"
  pooling_param {
    pool: MAX
    kernel_size: 2
    stride: 2
  }
}
layer {
  name: "conv3_1"
  type: "Convolution"
  bottom: "pool2"
  top: "conv3_1"
  param {
    lr_mult: 1
    decay_mult: 1
  }
  param {
    lr_mult: 2
    decay_mult: 0
  }
  convolution_param {
    num_output: 256
    pad: 1
    kernel_size: 3
    weight_filler {
      type: "xavier"
    }
    bias_filler {
      type: "constant"
      value: 0
    }
  }
}
layer {
  name: "relu3_1"
  type: "ReLU"
  bottom: "conv3_1"
  top: "conv3_1"
}
layer {
  name: "conv3_2"
  type: "Convolution"
  bottom: "conv3_1"
  top: "conv3_2"
  param {
    lr_mult: 1
    decay_mult: 1
  }
  param {
    lr_mult: 2
    decay_mult: 0
  }
  convolution_param {
    num_output: 256
    pad: 1
    kernel_size: 3
    weight_filler {
      type: "xavier"
    }
    bias_filler {
      type: "constant"
      value: 0
    }
  }
}
layer {
  name: "relu3_2"
  type: "ReLU"
  bottom: "conv3_2"
  top: "conv3_2"
}
layer {
  name: "conv3_3"
  type: "Convolution"
  bottom: "conv3_2"
  top: "conv3_3"
  param {
    lr_mult: 1
    decay_mult: 1
  }
  param {
    lr_mult: 2
    decay_mult: 0
  }
  convolution_param {
    num_output: 256
    pad: 1
    kernel_size: 3
    weight_filler {
      type: "xavier"
    }
    bias_filler {
      type: "constant"
      value: 0
    }
  }
}
layer {
  name: "relu3_3"
  type: "ReLU"
  bottom: "conv3_3"
  top: "conv3_3"
}
layer {
  name: "pool3"
  type: "Pooling"
  bottom: "conv3_3"
  top: "pool3"
  pooling_param {
    pool: MAX
    kernel_size: 2
    stride: 2
  }
}
layer {
  name: "conv4_1"
  type: "Convolution"
  bottom: "pool3"
  top: "conv4_1"
  param {
    lr_mult: 1
    decay_mult: 1
  }
  param {
    lr_mult: 2
    decay_mult: 0
  }
  convolution_param {
    num_output: 512
    pad: 1
    kernel_size: 3
    weight_filler {
      type: "xavier"
    }
    bias_filler {
      type: "constant"
      value: 0
    }
  }
}
layer {
  name: "relu4_1"
  type: "ReLU"
  bottom: "conv4_1"
  top: "conv4_1"
}
layer {
  name: "conv4_2"
  type: "Convolution"
  bottom: "conv4_1"
  top: "conv4_2"
  param {
    lr_mult: 1
    decay_mult: 1
  }
  param {
    lr_mult: 2
    decay_mult: 0
  }
  convolution_param {
    num_output: 512
    pad: 1
    kernel_size: 3
    weight_filler {
      type: "xavier"
    }
    bias_filler {
      type: "constant"
      value: 0
    }
  }
}
layer {
  name: "relu4_2"
  type: "ReLU"
  bottom: "conv4_2"
  top: "conv4_2"
}
layer {
  name: "conv4_3"
  type: "Convolution"
  bottom: "conv4_2"
  top: "conv4_3"
  param {
    lr_mult: 1
    decay_mult: 1
  }
  param {
    lr_mult: 2
    decay_mult: 0
  }
  convolution_param {
    num_output: 512
    pad: 1
    kernel_size: 3
    weight_filler {
      type: "xavier"
    }
    bias_filler {
      type: "constant"
      value: 0
    }
  }
}
layer {
  name: "relu4_3"
  type: "ReLU"
  bottom: "conv4_3"
  top: "conv4_3"
}
layer {
  name: "pool4"
  type: "Pooling"
  bottom: "conv4_3"
  top: "pool4"
  pooling_param {
    pool: MAX
    kernel_size: 2
    stride: 2
  }
}
layer {
  name: "conv5_1"
  type: "Convolution"
  bottom: "pool4"
  top: "conv5_1"
  param {
    lr_mult: 1
    decay_mult: 1
  }
  param {
    lr_mult: 2
    decay_mult: 0
  }
  convolution_param {
    num_output: 512
    pad: 1
    kernel_size: 3
    weight_filler {
      type: "xavier"
    }
    bias_filler {
      type: "constant"
      value: 0
    }
    dilation: 1
  }
}
layer {
  name: "relu5_1"
  type: "ReLU"
  bottom: "conv5_1"
  top: "conv5_1"
}
layer {
  name: "conv5_2"
  type: "Convolution"
  bottom: "conv5_1"
  top: "conv5_2"
  param {
    lr_mult: 1
    decay_mult: 1
  }
  param {
    lr_mult: 2
    decay_mult: 0
  }
  convolution_param {
    num_output: 512
    pad: 1
    kernel_size: 3
    weight_filler {
      type: "xavier"
    }
    bias_filler {
      type: "constant"
      value: 0
    }
    dilation: 1
  }
}
layer {
  name: "relu5_2"
  type: "ReLU"
  bottom: "conv5_2"
  top: "conv5_2"
}
layer {
  name: "conv5_3"
  type: "Convolution"
  bottom: "conv5_2"
  top: "conv5_3"
  param {
    lr_mult: 1
    decay_mult: 1
  }
  param {
    lr_mult: 2
    decay_mult: 0
  }
  convolution_param {
    num_output: 512
    pad: 1
    kernel_size: 3
    weight_filler {
      type: "xavier"
    }
    bias_filler {
      type: "constant"
      value: 0
    }
    dilation: 1
  }
}
layer {
  name: "relu5_3"
  type: "ReLU"
  bottom: "conv5_3"
  top: "conv5_3"
}
layer {
  name: "pool5"
  type: "Pooling"
  bottom: "conv5_3"
  top: "pool5"
  pooling_param {
    pool: MAX
    kernel_size: 3
    stride: 1
    pad: 1
  }
}
layer {
  name: "fc6"
  type: "Convolution"
  bottom: "pool5"
  top: "fc6"
  param {
    lr_mult: 1
    decay_mult: 1
  }
  param {
    lr_mult: 2
    decay_mult: 0
  }
  convolution_param {
    num_output: 1024
    pad: 6
    kernel_size: 3
    weight_filler {
      type: "xavier"
    }
    bias_filler {
      type: "constant"
      value: 0
    }
    dilation: 6
  }
}
layer {
  name: "relu6"
  type: "ReLU"
  bottom: "fc6"
  top: "fc6"
}
layer {
  name: "fc7"
  type: "Convolution"
  bottom: "fc6"
  top: "fc7"
  param {
    lr_mult: 1
    decay_mult: 1
  }
  param {
    lr_mult: 2
    decay_mult: 0
  }
  convolution_param {
    num_output: 1024
    kernel_size: 1
    weight_filler {
      type: "xavier"
    }
    bias_filler {
      type: "constant"
      value: 0
    }
  }
}
layer {
  name: "relu7"
  type: "ReLU"
  bottom: "fc7"
  top: "fc7"
}
layer {
  name: "conv6_1"
  type: "Convolution"
  bottom: "fc7"
  top: "conv6_1"
  param {
    lr_mult: 1
    decay_mult: 1
  }
  param {
    lr_mult: 2
    decay_mult: 0
  }
  convolution_param {
    num_output: 256
    pad: 0
    kernel_size: 1
    stride: 1
    weight_filler {
      type: "xavier"
    }
    bias_filler {
      type: "constant"
      value: 0
    }
  }
}
layer {
  name: "conv6_1_relu"
  type: "ReLU"
  bottom: "conv6_1"
  top: "conv6_1"
}
layer {
  name: "conv6_2"
  type: "Convolution"
  bottom: "conv6_1"
  top: "conv6_2"
  param {
    lr_mult: 1
    decay_mult: 1
  }
  param {
    lr_mult: 2
    decay_mult: 0
  }
  convolution_param {
    num_output: 512
    pad: 1
    kernel_size: 3
    stride: 2
    weight_filler {
      type: "xavier"
    }
    bias_filler {
      type: "constant"
      value: 0
    }
  }
}
layer {
  name: "conv6_2_relu"
  type: "ReLU"
  bottom: "conv6_2"
  top: "conv6_2"
}
layer {
  name: "conv7_1"
  type: "Convolution"
  bottom: "conv6_2"
  top: "conv7_1"
  param {
    lr_mult: 1
    decay_mult: 1
  }
  param {
    lr_mult: 2
    decay_mult: 0
  }
  convolution_param {
    num_output: 128
    pad: 0
    kernel_size: 1
    stride: 1
    weight_filler {
      type: "xavier"
    }
    bias_filler {
      type: "constant"
      value: 0
    }
  }
}
layer {
  name: "conv7_1_relu"
  type: "ReLU"
  bottom: "conv7_1"
  top: "conv7_1"
}
layer {
  name: "conv7_2"
  type: "Convolution"
  bottom: "conv7_1"
  top: "conv7_2"
  param {
    lr_mult: 1
    decay_mult: 1
  }
  param {
    lr_mult: 2
    decay_mult: 0
  }
  convolution_param {
    num_output: 256
    pad: 1
    kernel_size: 3
    stride: 2
    weight_filler {
      type: "xavier"
    }
    bias_filler {
      type: "constant"
      value: 0
    }
  }
}
layer {
  name: "conv7_2_relu"
  type: "ReLU"
  bottom: "conv7_2"
  top: "conv7_2"
}
layer {
  name: "conv8_1"
  type: "Convolution"
  bottom: "conv7_2"
  top: "conv8_1"
  param {
    lr_mult: 1
    decay_mult: 1
  }
  param {
    lr_mult: 2
    decay_mult: 0
  }
  convolution_param {
    num_output: 128
    pad: 0
    kernel_size: 1
    stride: 1
    weight_filler {
      type: "xavier"
    }
    bias_filler {
      type: "constant"
      value: 0
    }
  }
}
layer {
  name: "conv8_1_relu"
  type: "ReLU"
  bottom: "conv8_1"
  top: "conv8_1"
}
layer {
  name: "conv8_2"
  type: "Convolution"
  bottom: "conv8_1"
  top: "conv8_2"
  param {
    lr_mult: 1
    decay_mult: 1
  }
  param {
    lr_mult: 2
    decay_mult: 0
  }
  convolution_param {
    num_output: 256
    pad: 0
    kernel_size: 3
    stride: 1
    weight_filler {
      type: "xavier"
    }
    bias_filler {
      type: "constant"
      value: 0
    }
  }
}
layer {
  name: "conv8_2_relu"
  type: "ReLU"
  bottom: "conv8_2"
  top: "conv8_2"
}
layer {
  name: "conv9_1"
  type: "Convolution"
  bottom: "conv8_2"
  top: "conv9_1"
  param {
    lr_mult: 1
    decay_mult: 1
  }
  param {
    lr_mult: 2
    decay_mult: 0
  }
  convolution_param {
    num_output: 128
    pad: 0
    kernel_size: 1
    stride: 1
    weight_filler {
      type: "xavier"
    }
    bias_filler {
      type: "constant"
      value: 0
    }
  }
}
layer {
  name: "conv9_1_relu"
  type: "ReLU"
  bottom: "conv9_1"
  top: "conv9_1"
}
layer {
  name: "conv9_2"
  type: "Convolution"
  bottom: "conv9_1"
  top: "conv9_2"
  param {
    lr_mult: 1
    decay_mult: 1
  }
  param {
    lr_mult: 2
    decay_mult: 0
  }
  convolution_param {
    num_output: 256
    pad: 0
    kernel_size: 3
    stride: 1
    weight_filler {
      type: "xavier"
    }
    bias_filler {
      type: "constant"
      value: 0
    }
  }
}
layer {
  name: "conv9_2_relu"
  type: "ReLU"
  bottom: "conv9_2"
  top: "conv9_2"
}
layer {
  name: "conv4_3_norm"
  type: "Normalize"
  bottom: "conv4_3"
  top: "conv4_3_norm"
  norm_param {
    across_spatial: false
    scale_filler {
      type: "constant"
      value: 20
    }
    channel_shared: false
  }
}
layer {
  name: "conv4_3_norm_mbox_loc"
  type: "Convolution"
  bottom: "conv4_3_norm"
  top: "conv4_3_norm_mbox_loc"
  param {
    lr_mult: 1
    decay_mult: 1
  }
  param {
    lr_mult: 2
    decay_mult: 0
  }
  convolution_param {
    num_output: 16
    pad: 1
    kernel_size: 3
    stride: 1
    weight_filler {
      type: "xavier"
    }
    bias_filler {
      type: "constant"
      value: 0
    }
  }
}
layer {
  name: "conv4_3_norm_mbox_loc_perm"
  type: "Permute"
  bottom: "conv4_3_norm_mbox_loc"
  top: "conv4_3_norm_mbox_loc_perm"
  permute_param {
    order: 0
    order: 2
    order: 3
    order: 1
  }
}
layer {
  name: "conv4_3_norm_mbox_loc_flat"
  type: "Flatten"
  bottom: "conv4_3_norm_mbox_loc_perm"
  top: "conv4_3_norm_mbox_loc_flat"
  flatten_param {
    axis: 1
  }
}
layer {
  name: "conv4_3_norm_mbox_conf"
  type: "Convolution"
  bottom: "conv4_3_norm"
  top: "conv4_3_norm_mbox_conf"
  param {
    lr_mult: 1
    decay_mult: 1
  }
  param {
    lr_mult: 2
    decay_mult: 0
  }
  convolution_param {
    num_output: 16
    pad: 1
    kernel_size: 3
    stride: 1
    weight_filler {
      type: "xavier"
    }
    bias_filler {
      type: "constant"
      value: 0
    }
  }
}
layer {
  name: "conv4_3_norm_mbox_conf_perm"
  type: "Permute"
  bottom: "conv4_3_norm_mbox_conf"
  top: "conv4_3_norm_mbox_conf_perm"
  permute_param {
    order: 0
    order: 2
    order: 3
    order: 1
  }
}
layer {
  name: "conv4_3_norm_mbox_conf_flat"
  type: "Flatten"
  bottom: "conv4_3_norm_mbox_conf_perm"
  top: "conv4_3_norm_mbox_conf_flat"
  flatten_param {
    axis: 1
  }
}
layer {
  name: "conv4_3_norm_mbox_priorbox"
  type: "PriorBox"
  bottom: "conv4_3_norm"
  bottom: "data"
  top: "conv4_3_norm_mbox_priorbox"
  prior_box_param {
    min_size: 30
    max_size: 60
    aspect_ratio: 2
    flip: true
    clip: false
    variance: 0.1
    variance: 0.1
    variance: 0.2
    variance: 0.2
    step: 8
    offset: 0.5
  }
}
layer {
  name: "fc7_mbox_loc"
  type: "Convolution"
  bottom: "fc7"
  top: "fc7_mbox_loc"
  param {
    lr_mult: 1
    decay_mult: 1
  }
  param {
    lr_mult: 2
    decay_mult: 0
  }
  convolution_param {
    num_output: 24
    pad: 1
    kernel_size: 3
    stride: 1
    weight_filler {
      type: "xavier"
    }
    bias_filler {
      type: "constant"
      value: 0
    }
  }
}
layer {
  name: "fc7_mbox_loc_perm"
  type: "Permute"
  bottom: "fc7_mbox_loc"
  top: "fc7_mbox_loc_perm"
  permute_param {
    order: 0
    order: 2
    order: 3
    order: 1
  }
}
layer {
  name: "fc7_mbox_loc_flat"
  type: "Flatten"
  bottom: "fc7_mbox_loc_perm"
  top: "fc7_mbox_loc_flat"
  flatten_param {
    axis: 1
  }
}
layer {
  name: "fc7_mbox_conf"
  type: "Convolution"
  bottom: "fc7"
  top: "fc7_mbox_conf"
  param {
    lr_mult: 1
    decay_mult: 1
  }
  param {
    lr_mult: 2
    decay_mult: 0
  }
  convolution_param {
    num_output: 24
    pad: 1
    kernel_size: 3
    stride: 1
    weight_filler {
      type: "xavier"
    }
    bias_filler {
      type: "constant"
      value: 0
    }
  }
}
layer {
  name: "fc7_mbox_conf_perm"
  type: "Permute"
  bottom: "fc7_mbox_conf"
  top: "fc7_mbox_conf_perm"
  permute_param {
    order: 0
    order: 2
    order: 3
    order: 1
  }
}
layer {
  name: "fc7_mbox_conf_flat"
  type: "Flatten"
  bottom: "fc7_mbox_conf_perm"
  top: "fc7_mbox_conf_flat"
  flatten_param {
    axis: 1
  }
}
layer {
  name: "fc7_mbox_priorbox"
  type: "PriorBox"
  bottom: "fc7"
  bottom: "data"
  top: "fc7_mbox_priorbox"
  prior_box_param {
    min_size: 60
    max_size: 111
    aspect_ratio: 2
    aspect_ratio: 3
    flip: true
    clip: false
    variance: 0.1
    variance: 0.1
    variance: 0.2
    variance: 0.2
    step: 16
    offset: 0.5
  }
}
layer {
  name: "conv6_2_mbox_loc"
  type: "Convolution"
  bottom: "conv6_2"
  top: "conv6_2_mbox_loc"
  param {
    lr_mult: 1
    decay_mult: 1
  }
  param {
    lr_mult: 2
    decay_mult: 0
  }
  convolution_param {
    num_output: 24
    pad: 1
    kernel_size: 3
    stride: 1
    weight_filler {
      type: "xavier"
    }
    bias_filler {
      type: "constant"
      value: 0
    }
  }
}
layer {
  name: "conv6_2_mbox_loc_perm"
  type: "Permute"
  bottom: "conv6_2_mbox_loc"
  top: "conv6_2_mbox_loc_perm"
  permute_param {
    order: 0
    order: 2
    order: 3
    order: 1
  }
}
layer {
  name: "conv6_2_mbox_loc_flat"
  type: "Flatten"
  bottom: "conv6_2_mbox_loc_perm"
  top: "conv6_2_mbox_loc_flat"
  flatten_param {
    axis: 1
  }
}
layer {
  name: "conv6_2_mbox_conf"
  type: "Convolution"
  bottom: "conv6_2"
  top: "conv6_2_mbox_conf"
  param {
    lr_mult: 1
    decay_mult: 1
  }
  param {
    lr_mult: 2
    decay_mult: 0
  }
  convolution_param {
    num_output: 24
    pad: 1
    kernel_size: 3
    stride: 1
    weight_filler {
      type: "xavier"
    }
    bias_filler {
      type: "constant"
      value: 0
    }
  }
}
layer {
  name: "conv6_2_mbox_conf_perm"
  type: "Permute"
  bottom: "conv6_2_mbox_conf"
  top: "conv6_2_mbox_conf_perm"
  permute_param {
    order: 0
    order: 2
    order: 3
    order: 1
  }
}
layer {
  name: "conv6_2_mbox_conf_flat"
  type: "Flatten"
  bottom: "conv6_2_mbox_conf_perm"
  top: "conv6_2_mbox_conf_flat"
  flatten_param {
    axis: 1
  }
}
layer {
  name: "conv6_2_mbox_priorbox"
  type: "PriorBox"
  bottom: "conv6_2"
  bottom: "data"
  top: "conv6_2_mbox_priorbox"
  prior_box_param {
    min_size: 111
    max_size: 162
    aspect_ratio: 2
    aspect_ratio: 3
    flip: true
    clip: false
    variance: 0.1
    variance: 0.1
    variance: 0.2
    variance: 0.2
    step: 32
    offset: 0.5
  }
}
layer {
  name: "conv7_2_mbox_loc"
  type: "Convolution"
  bottom: "conv7_2"
  top: "conv7_2_mbox_loc"
  param {
    lr_mult: 1
    decay_mult: 1
  }
  param {
    lr_mult: 2
    decay_mult: 0
  }
  convolution_param {
    num_output: 24
    pad: 1
    kernel_size: 3
    stride: 1
    weight_filler {
      type: "xavier"
    }
    bias_filler {
      type: "constant"
      value: 0
    }
  }
}
layer {
  name: "conv7_2_mbox_loc_perm"
  type: "Permute"
  bottom: "conv7_2_mbox_loc"
  top: "conv7_2_mbox_loc_perm"
  permute_param {
    order: 0
    order: 2
    order: 3
    order: 1
  }
}
layer {
  name: "conv7_2_mbox_loc_flat"
  type: "Flatten"
  bottom: "conv7_2_mbox_loc_perm"
  top: "conv7_2_mbox_loc_flat"
  flatten_param {
    axis: 1
  }
}
layer {
  name: "conv7_2_mbox_conf"
  type: "Convolution"
  bottom: "conv7_2"
  top: "conv7_2_mbox_conf"
  param {
    lr_mult: 1
    decay_mult: 1
  }
  param {
    lr_mult: 2
    decay_mult: 0
  }
  convolution_param {
    num_output: 24
    pad: 1
    kernel_size: 3
    stride: 1
    weight_filler {
      type: "xavier"
    }
    bias_filler {
      type: "constant"
      value: 0
    }
  }
}
layer {
  name: "conv7_2_mbox_conf_perm"
  type: "Permute"
  bottom: "conv7_2_mbox_conf"
  top: "conv7_2_mbox_conf_perm"
  permute_param {
    order: 0
    order: 2
    order: 3
    order: 1
  }
}
layer {
  name: "conv7_2_mbox_conf_flat"
  type: "Flatten"
  bottom: "conv7_2_mbox_conf_perm"
  top: "conv7_2_mbox_conf_flat"
  flatten_param {
    axis: 1
  }
}
layer {
  name: "conv7_2_mbox_priorbox"
  type: "PriorBox"
  bottom: "conv7_2"
  bottom: "data"
  top: "conv7_2_mbox_priorbox"
  prior_box_param {
    min_size: 162
    max_size: 213
    aspect_ratio: 2
    aspect_ratio: 3
    flip: true
    clip: false
    variance: 0.1
    variance: 0.1
    variance: 0.2
    variance: 0.2
    step: 64
    offset: 0.5
  }
}
layer {
  name: "conv8_2_mbox_loc"
  type: "Convolution"
  bottom: "conv8_2"
  top: "conv8_2_mbox_loc"
  param {
    lr_mult: 1
    decay_mult: 1
  }
  param {
    lr_mult: 2
    decay_mult: 0
  }
  convolution_param {
    num_output: 16
    pad: 1
    kernel_size: 3
    stride: 1
    weight_filler {
      type: "xavier"
    }
    bias_filler {
      type: "constant"
      value: 0
    }
  }
}
layer {
  name: "conv8_2_mbox_loc_perm"
  type: "Permute"
  bottom: "conv8_2_mbox_loc"
  top: "conv8_2_mbox_loc_perm"
  permute_param {
    order: 0
    order: 2
    order: 3
    order: 1
  }
}
layer {
  name: "conv8_2_mbox_loc_flat"
  type: "Flatten"
  bottom: "conv8_2_mbox_loc_perm"
  top: "conv8_2_mbox_loc_flat"
  flatten_param {
    axis: 1
  }
}
layer {
  name: "conv8_2_mbox_conf"
  type: "Convolution"
  bottom: "conv8_2"
  top: "conv8_2_mbox_conf"
  param {
    lr_mult: 1
    decay_mult: 1
  }
  param {
    lr_mult: 2
    decay_mult: 0
  }
  convolution_param {
    num_output: 16
    pad: 1
    kernel_size: 3
    stride: 1
    weight_filler {
      type: "xavier"
    }
    bias_filler {
      type: "constant"
      value: 0
    }
  }
}
layer {
  name: "conv8_2_mbox_conf_perm"
  type: "Permute"
  bottom: "conv8_2_mbox_conf"
  top: "conv8_2_mbox_conf_perm"
  permute_param {
    order: 0
    order: 2
    order: 3
    order: 1
  }
}
layer {
  name: "conv8_2_mbox_conf_flat"
  type: "Flatten"
  bottom: "conv8_2_mbox_conf_perm"
  top: "conv8_2_mbox_conf_flat"
  flatten_param {
    axis: 1
  }
}
layer {
  name: "conv8_2_mbox_priorbox"
  type: "PriorBox"
  bottom: "conv8_2"
  bottom: "data"
  top: "conv8_2_mbox_priorbox"
  prior_box_param {
    min_size: 213
    max_size: 264
    aspect_ratio: 2
    flip: true
    clip: false
    variance: 0.1
    variance: 0.1
    variance: 0.2
    variance: 0.2
    step: 100
    offset: 0.5
  }
}
layer {
  name: "conv9_2_mbox_loc"
  type: "Convolution"
  bottom: "conv9_2"
  top: "conv9_2_mbox_loc"
  param {
    lr_mult: 1
    decay_mult: 1
  }
  param {
    lr_mult: 2
    decay_mult: 0
  }
  convolution_param {
    num_output: 16
    pad: 1
    kernel_size: 3
    stride: 1
    weight_filler {
      type: "xavier"
    }
    bias_filler {
      type: "constant"
      value: 0
    }
  }
}
layer {
  name: "conv9_2_mbox_loc_perm"
  type: "Permute"
  bottom: "conv9_2_mbox_loc"
  top: "conv9_2_mbox_loc_perm"
  permute_param {
    order: 0
    order: 2
    order: 3
    order: 1
  }
}
layer {
  name: "conv9_2_mbox_loc_flat"
  type: "Flatten"
  bottom: "conv9_2_mbox_loc_perm"
  top: "conv9_2_mbox_loc_flat"
  flatten_param {
    axis: 1
  }
}
layer {
  name: "conv9_2_mbox_conf"
  type: "Convolution"
  bottom: "conv9_2"
  top: "conv9_2_mbox_conf"
  param {
    lr_mult: 1
    decay_mult: 1
  }
  param {
    lr_mult: 2
    decay_mult: 0
  }
  convolution_param {
    num_output: 16
    pad: 1
    kernel_size: 3
    stride: 1
    weight_filler {
      type: "xavier"
    }
    bias_filler {
      type: "constant"
      value: 0
    }
  }
}
layer {
  name: "conv9_2_mbox_conf_perm"
  type: "Permute"
  bottom: "conv9_2_mbox_conf"
  top: "conv9_2_mbox_conf_perm"
  permute_param {
    order: 0
    order: 2
    order: 3
    order: 1
  }
}
layer {
  name: "conv9_2_mbox_conf_flat"
  type: "Flatten"
  bottom: "conv9_2_mbox_conf_perm"
  top: "conv9_2_mbox_conf_flat"
  flatten_param {
    axis: 1
  }
}
layer {
  name: "conv9_2_mbox_priorbox"
  type: "PriorBox"
  bottom: "conv9_2"
  bottom: "data"
  top: "conv9_2_mbox_priorbox"
  prior_box_param {
    min_size: 264
    max_size: 315
    aspect_ratio: 2
    flip: true
    clip: false
    variance: 0.1
    variance: 0.1
    variance: 0.2
    variance: 0.2
    step: 300
    offset: 0.5
  }
}
layer {
  name: "mbox_loc"
  type: "Concat"
  bottom: "conv4_3_norm_mbox_loc_flat"
  bottom: "fc7_mbox_loc_flat"
  bottom: "conv6_2_mbox_loc_flat"
  bottom: "conv7_2_mbox_loc_flat"
  bottom: "conv8_2_mbox_loc_flat"
  bottom: "conv9_2_mbox_loc_flat"
  top: "mbox_loc"
  concat_param {
    axis: 1
  }
}
layer {
  name: "mbox_conf"
  type: "Concat"
  bottom: "conv4_3_norm_mbox_conf_flat"
  bottom: "fc7_mbox_conf_flat"
  bottom: "conv6_2_mbox_conf_flat"
  bottom: "conv7_2_mbox_conf_flat"
  bottom: "conv8_2_mbox_conf_flat"
  bottom: "conv9_2_mbox_conf_flat"
  top: "mbox_conf"
  concat_param {
    axis: 1
  }
}
layer {
  name: "mbox_priorbox"
  type: "Concat"
  bottom: "conv4_3_norm_mbox_priorbox"
  bottom: "fc7_mbox_priorbox"
  bottom: "conv6_2_mbox_priorbox"
  bottom: "conv7_2_mbox_priorbox"
  bottom: "conv8_2_mbox_priorbox"
  bottom: "conv9_2_mbox_priorbox"
  top: "mbox_priorbox"
  concat_param {
    axis: 2
  }
}
layer {
  name: "mbox_conf_reshape"
  type: "Reshape"
  bottom: "mbox_conf"
  top: "mbox_conf_reshape"
  reshape_param {
    shape {
      dim: 0
      dim: -1
      dim: 4
    }
  }
}
layer {
  name: "mbox_conf_softmax"
  type: "Softmax"
  bottom: "mbox_conf_reshape"
  top: "mbox_conf_softmax"
  softmax_param {
    axis: 2
  }
}
layer {
  name: "mbox_conf_flatten"
  type: "Flatten"
  bottom: "mbox_conf_softmax"
  top: "mbox_conf_flatten"
  flatten_param {
    axis: 1
  }
}
layer {
  name: "detection_out"
  type: "DetectionOutput"
  bottom: "mbox_loc"
  bottom: "mbox_conf_flatten"
  bottom: "mbox_priorbox"
  top: "detection_out"
  include {
    phase: TEST
  }
  detection_output_param {
    num_classes: 4
    share_location: true
    background_label_id: 0
    nms_param {
      nms_threshold: 0.45
      top_k: 400
    }
    save_output_param {
      output_directory: "/home/shangzw/data/tbs/results/tbs/SSD_300x300/Main"
      output_name_prefix: "comp4_det_test_"
      output_format: "VOC"
      label_map_file: "data/tbs_300x300_HSIL_10x/labelmap_voc.prototxt"
      name_size_file: "data/VOC0712/test_name_size.txt"
      num_test_image: 100
    }
    code_type: CENTER_SIZE
    keep_top_k: 200
    confidence_threshold: 0.01
  }
}
layer {
  name: "detection_eval"
  type: "DetectionEvaluate"
  bottom: "detection_out"
  bottom: "label"
  top: "detection_eval"
  include {
    phase: TEST
  }
  detection_evaluate_param {
    num_classes: 4
    background_label_id: 0
    overlap_threshold: 0.5
    evaluate_difficult_gt: false
    name_size_file: "data/VOC0712/test_name_size.txt"
  }
}
I0602 10:03:19.758824 20532 layer_factory.hpp:77] Creating layer data
I0602 10:03:19.758886 20532 net.cpp:100] Creating Layer data
I0602 10:03:19.758895 20532 net.cpp:408] data -> data
I0602 10:03:19.758908 20532 net.cpp:408] data -> label
I0602 10:03:19.759398 20550 db_lmdb.cpp:35] Opened lmdb examples/tbs_300x300_HSIL_10x/tbs_300x300_HSIL_10x_test_lmdb
I0602 10:03:19.760133 20532 annotated_data_layer.cpp:62] output data size: 4,3,300,300
I0602 10:03:19.770889 20532 net.cpp:150] Setting up data
I0602 10:03:19.770941 20532 net.cpp:157] Top shape: 4 3 300 300 (1080000)
I0602 10:03:19.770958 20532 net.cpp:157] Top shape: 1 1 1 8 (8)
I0602 10:03:19.770970 20532 net.cpp:165] Memory required for data: 4320032
I0602 10:03:19.770984 20532 layer_factory.hpp:77] Creating layer data_data_0_split
I0602 10:03:19.771008 20532 net.cpp:100] Creating Layer data_data_0_split
I0602 10:03:19.771020 20532 net.cpp:434] data_data_0_split <- data
I0602 10:03:19.771039 20532 net.cpp:408] data_data_0_split -> data_data_0_split_0
I0602 10:03:19.771059 20532 net.cpp:408] data_data_0_split -> data_data_0_split_1
I0602 10:03:19.771076 20532 net.cpp:408] data_data_0_split -> data_data_0_split_2
I0602 10:03:19.771095 20532 net.cpp:408] data_data_0_split -> data_data_0_split_3
I0602 10:03:19.771111 20532 net.cpp:408] data_data_0_split -> data_data_0_split_4
I0602 10:03:19.771127 20532 net.cpp:408] data_data_0_split -> data_data_0_split_5
I0602 10:03:19.771144 20532 net.cpp:408] data_data_0_split -> data_data_0_split_6
I0602 10:03:19.771337 20532 net.cpp:150] Setting up data_data_0_split
I0602 10:03:19.771358 20532 net.cpp:157] Top shape: 4 3 300 300 (1080000)
I0602 10:03:19.771373 20532 net.cpp:157] Top shape: 4 3 300 300 (1080000)
I0602 10:03:19.771389 20532 net.cpp:157] Top shape: 4 3 300 300 (1080000)
I0602 10:03:19.771402 20532 net.cpp:157] Top shape: 4 3 300 300 (1080000)
I0602 10:03:19.771421 20532 net.cpp:157] Top shape: 4 3 300 300 (1080000)
I0602 10:03:19.771445 20532 net.cpp:157] Top shape: 4 3 300 300 (1080000)
I0602 10:03:19.771459 20532 net.cpp:157] Top shape: 4 3 300 300 (1080000)
I0602 10:03:19.771473 20532 net.cpp:165] Memory required for data: 34560032
I0602 10:03:19.771486 20532 layer_factory.hpp:77] Creating layer conv1_1
I0602 10:03:19.771507 20532 net.cpp:100] Creating Layer conv1_1
I0602 10:03:19.771520 20532 net.cpp:434] conv1_1 <- data_data_0_split_0
I0602 10:03:19.771538 20532 net.cpp:408] conv1_1 -> conv1_1
I0602 10:03:19.774497 20532 net.cpp:150] Setting up conv1_1
I0602 10:03:19.774514 20532 net.cpp:157] Top shape: 4 64 300 300 (23040000)
I0602 10:03:19.774518 20532 net.cpp:165] Memory required for data: 126720032
I0602 10:03:19.774530 20532 layer_factory.hpp:77] Creating layer relu1_1
I0602 10:03:19.774539 20532 net.cpp:100] Creating Layer relu1_1
I0602 10:03:19.774544 20532 net.cpp:434] relu1_1 <- conv1_1
I0602 10:03:19.774550 20532 net.cpp:395] relu1_1 -> conv1_1 (in-place)
I0602 10:03:19.774726 20532 net.cpp:150] Setting up relu1_1
I0602 10:03:19.774739 20532 net.cpp:157] Top shape: 4 64 300 300 (23040000)
I0602 10:03:19.774742 20532 net.cpp:165] Memory required for data: 218880032
I0602 10:03:19.774745 20532 layer_factory.hpp:77] Creating layer conv1_2
I0602 10:03:19.774757 20532 net.cpp:100] Creating Layer conv1_2
I0602 10:03:19.774761 20532 net.cpp:434] conv1_2 <- conv1_1
I0602 10:03:19.774767 20532 net.cpp:408] conv1_2 -> conv1_2
I0602 10:03:19.776772 20532 net.cpp:150] Setting up conv1_2
I0602 10:03:19.776792 20532 net.cpp:157] Top shape: 4 64 300 300 (23040000)
I0602 10:03:19.776794 20532 net.cpp:165] Memory required for data: 311040032
I0602 10:03:19.776809 20532 layer_factory.hpp:77] Creating layer relu1_2
I0602 10:03:19.776818 20532 net.cpp:100] Creating Layer relu1_2
I0602 10:03:19.776826 20532 net.cpp:434] relu1_2 <- conv1_2
I0602 10:03:19.776834 20532 net.cpp:395] relu1_2 -> conv1_2 (in-place)
I0602 10:03:19.777590 20532 net.cpp:150] Setting up relu1_2
I0602 10:03:19.777606 20532 net.cpp:157] Top shape: 4 64 300 300 (23040000)
I0602 10:03:19.777611 20532 net.cpp:165] Memory required for data: 403200032
I0602 10:03:19.777616 20532 layer_factory.hpp:77] Creating layer pool1
I0602 10:03:19.777624 20532 net.cpp:100] Creating Layer pool1
I0602 10:03:19.777631 20532 net.cpp:434] pool1 <- conv1_2
I0602 10:03:19.777639 20532 net.cpp:408] pool1 -> pool1
I0602 10:03:19.777714 20532 net.cpp:150] Setting up pool1
I0602 10:03:19.777739 20532 net.cpp:157] Top shape: 4 64 150 150 (5760000)
I0602 10:03:19.777752 20532 net.cpp:165] Memory required for data: 426240032
I0602 10:03:19.777765 20532 layer_factory.hpp:77] Creating layer conv2_1
I0602 10:03:19.777788 20532 net.cpp:100] Creating Layer conv2_1
I0602 10:03:19.777802 20532 net.cpp:434] conv2_1 <- pool1
I0602 10:03:19.777820 20532 net.cpp:408] conv2_1 -> conv2_1
I0602 10:03:19.779683 20532 net.cpp:150] Setting up conv2_1
I0602 10:03:19.779731 20532 net.cpp:157] Top shape: 4 128 150 150 (11520000)
I0602 10:03:19.779739 20532 net.cpp:165] Memory required for data: 472320032
I0602 10:03:19.779754 20532 layer_factory.hpp:77] Creating layer relu2_1
I0602 10:03:19.779768 20532 net.cpp:100] Creating Layer relu2_1
I0602 10:03:19.779775 20532 net.cpp:434] relu2_1 <- conv2_1
I0602 10:03:19.779784 20532 net.cpp:395] relu2_1 -> conv2_1 (in-place)
I0602 10:03:19.780709 20532 net.cpp:150] Setting up relu2_1
I0602 10:03:19.780722 20532 net.cpp:157] Top shape: 4 128 150 150 (11520000)
I0602 10:03:19.780725 20532 net.cpp:165] Memory required for data: 518400032
I0602 10:03:19.780728 20532 layer_factory.hpp:77] Creating layer conv2_2
I0602 10:03:19.780740 20532 net.cpp:100] Creating Layer conv2_2
I0602 10:03:19.780747 20532 net.cpp:434] conv2_2 <- conv2_1
I0602 10:03:19.780758 20532 net.cpp:408] conv2_2 -> conv2_2
I0602 10:03:19.784152 20532 net.cpp:150] Setting up conv2_2
I0602 10:03:19.784168 20532 net.cpp:157] Top shape: 4 128 150 150 (11520000)
I0602 10:03:19.784170 20532 net.cpp:165] Memory required for data: 564480032
I0602 10:03:19.784179 20532 layer_factory.hpp:77] Creating layer relu2_2
I0602 10:03:19.784202 20532 net.cpp:100] Creating Layer relu2_2
I0602 10:03:19.784209 20532 net.cpp:434] relu2_2 <- conv2_2
I0602 10:03:19.784214 20532 net.cpp:395] relu2_2 -> conv2_2 (in-place)
I0602 10:03:19.784538 20532 net.cpp:150] Setting up relu2_2
I0602 10:03:19.784550 20532 net.cpp:157] Top shape: 4 128 150 150 (11520000)
I0602 10:03:19.784554 20532 net.cpp:165] Memory required for data: 610560032
I0602 10:03:19.784574 20532 layer_factory.hpp:77] Creating layer pool2
I0602 10:03:19.784584 20532 net.cpp:100] Creating Layer pool2
I0602 10:03:19.784588 20532 net.cpp:434] pool2 <- conv2_2
I0602 10:03:19.784595 20532 net.cpp:408] pool2 -> pool2
I0602 10:03:19.784672 20532 net.cpp:150] Setting up pool2
I0602 10:03:19.784682 20532 net.cpp:157] Top shape: 4 128 75 75 (2880000)
I0602 10:03:19.784687 20532 net.cpp:165] Memory required for data: 622080032
I0602 10:03:19.784690 20532 layer_factory.hpp:77] Creating layer conv3_1
I0602 10:03:19.784703 20532 net.cpp:100] Creating Layer conv3_1
I0602 10:03:19.784708 20532 net.cpp:434] conv3_1 <- pool2
I0602 10:03:19.784718 20532 net.cpp:408] conv3_1 -> conv3_1
I0602 10:03:19.788121 20532 net.cpp:150] Setting up conv3_1
I0602 10:03:19.788136 20532 net.cpp:157] Top shape: 4 256 75 75 (5760000)
I0602 10:03:19.788139 20532 net.cpp:165] Memory required for data: 645120032
I0602 10:03:19.788156 20532 layer_factory.hpp:77] Creating layer relu3_1
I0602 10:03:19.788166 20532 net.cpp:100] Creating Layer relu3_1
I0602 10:03:19.788172 20532 net.cpp:434] relu3_1 <- conv3_1
I0602 10:03:19.788179 20532 net.cpp:395] relu3_1 -> conv3_1 (in-place)
I0602 10:03:19.788375 20532 net.cpp:150] Setting up relu3_1
I0602 10:03:19.788388 20532 net.cpp:157] Top shape: 4 256 75 75 (5760000)
I0602 10:03:19.788393 20532 net.cpp:165] Memory required for data: 668160032
I0602 10:03:19.788396 20532 layer_factory.hpp:77] Creating layer conv3_2
I0602 10:03:19.788408 20532 net.cpp:100] Creating Layer conv3_2
I0602 10:03:19.788414 20532 net.cpp:434] conv3_2 <- conv3_1
I0602 10:03:19.788424 20532 net.cpp:408] conv3_2 -> conv3_2
I0602 10:03:19.795372 20532 net.cpp:150] Setting up conv3_2
I0602 10:03:19.795387 20532 net.cpp:157] Top shape: 4 256 75 75 (5760000)
I0602 10:03:19.795390 20532 net.cpp:165] Memory required for data: 691200032
I0602 10:03:19.795410 20532 layer_factory.hpp:77] Creating layer relu3_2
I0602 10:03:19.795416 20532 net.cpp:100] Creating Layer relu3_2
I0602 10:03:19.795433 20532 net.cpp:434] relu3_2 <- conv3_2
I0602 10:03:19.795439 20532 net.cpp:395] relu3_2 -> conv3_2 (in-place)
I0602 10:03:19.795620 20532 net.cpp:150] Setting up relu3_2
I0602 10:03:19.795632 20532 net.cpp:157] Top shape: 4 256 75 75 (5760000)
I0602 10:03:19.795636 20532 net.cpp:165] Memory required for data: 714240032
I0602 10:03:19.795639 20532 layer_factory.hpp:77] Creating layer conv3_3
I0602 10:03:19.795667 20532 net.cpp:100] Creating Layer conv3_3
I0602 10:03:19.795675 20532 net.cpp:434] conv3_3 <- conv3_2
I0602 10:03:19.795681 20532 net.cpp:408] conv3_3 -> conv3_3
I0602 10:03:19.800712 20532 net.cpp:150] Setting up conv3_3
I0602 10:03:19.800729 20532 net.cpp:157] Top shape: 4 256 75 75 (5760000)
I0602 10:03:19.800732 20532 net.cpp:165] Memory required for data: 737280032
I0602 10:03:19.800740 20532 layer_factory.hpp:77] Creating layer relu3_3
I0602 10:03:19.800746 20532 net.cpp:100] Creating Layer relu3_3
I0602 10:03:19.800751 20532 net.cpp:434] relu3_3 <- conv3_3
I0602 10:03:19.800757 20532 net.cpp:395] relu3_3 -> conv3_3 (in-place)
I0602 10:03:19.800992 20532 net.cpp:150] Setting up relu3_3
I0602 10:03:19.801005 20532 net.cpp:157] Top shape: 4 256 75 75 (5760000)
I0602 10:03:19.801009 20532 net.cpp:165] Memory required for data: 760320032
I0602 10:03:19.801014 20532 layer_factory.hpp:77] Creating layer pool3
I0602 10:03:19.801036 20532 net.cpp:100] Creating Layer pool3
I0602 10:03:19.801041 20532 net.cpp:434] pool3 <- conv3_3
I0602 10:03:19.801048 20532 net.cpp:408] pool3 -> pool3
I0602 10:03:19.801105 20532 net.cpp:150] Setting up pool3
I0602 10:03:19.801113 20532 net.cpp:157] Top shape: 4 256 38 38 (1478656)
I0602 10:03:19.801118 20532 net.cpp:165] Memory required for data: 766234656
I0602 10:03:19.801134 20532 layer_factory.hpp:77] Creating layer conv4_1
I0602 10:03:19.801147 20532 net.cpp:100] Creating Layer conv4_1
I0602 10:03:19.801154 20532 net.cpp:434] conv4_1 <- pool3
I0602 10:03:19.801162 20532 net.cpp:408] conv4_1 -> conv4_1
I0602 10:03:19.810431 20532 net.cpp:150] Setting up conv4_1
I0602 10:03:19.810446 20532 net.cpp:157] Top shape: 4 512 38 38 (2957312)
I0602 10:03:19.810449 20532 net.cpp:165] Memory required for data: 778063904
I0602 10:03:19.810470 20532 layer_factory.hpp:77] Creating layer relu4_1
I0602 10:03:19.810477 20532 net.cpp:100] Creating Layer relu4_1
I0602 10:03:19.810480 20532 net.cpp:434] relu4_1 <- conv4_1
I0602 10:03:19.810485 20532 net.cpp:395] relu4_1 -> conv4_1 (in-place)
I0602 10:03:19.812700 20532 net.cpp:150] Setting up relu4_1
I0602 10:03:19.812711 20532 net.cpp:157] Top shape: 4 512 38 38 (2957312)
I0602 10:03:19.812713 20532 net.cpp:165] Memory required for data: 789893152
I0602 10:03:19.812716 20532 layer_factory.hpp:77] Creating layer conv4_2
I0602 10:03:19.812729 20532 net.cpp:100] Creating Layer conv4_2
I0602 10:03:19.812736 20532 net.cpp:434] conv4_2 <- conv4_1
I0602 10:03:19.812743 20532 net.cpp:408] conv4_2 -> conv4_2
I0602 10:03:19.825970 20532 net.cpp:150] Setting up conv4_2
I0602 10:03:19.825986 20532 net.cpp:157] Top shape: 4 512 38 38 (2957312)
I0602 10:03:19.825989 20532 net.cpp:165] Memory required for data: 801722400
I0602 10:03:19.826000 20532 layer_factory.hpp:77] Creating layer relu4_2
I0602 10:03:19.826007 20532 net.cpp:100] Creating Layer relu4_2
I0602 10:03:19.826010 20532 net.cpp:434] relu4_2 <- conv4_2
I0602 10:03:19.826014 20532 net.cpp:395] relu4_2 -> conv4_2 (in-place)
I0602 10:03:19.827277 20532 net.cpp:150] Setting up relu4_2
I0602 10:03:19.827286 20532 net.cpp:157] Top shape: 4 512 38 38 (2957312)
I0602 10:03:19.827289 20532 net.cpp:165] Memory required for data: 813551648
I0602 10:03:19.827292 20532 layer_factory.hpp:77] Creating layer conv4_3
I0602 10:03:19.827301 20532 net.cpp:100] Creating Layer conv4_3
I0602 10:03:19.827304 20532 net.cpp:434] conv4_3 <- conv4_2
I0602 10:03:19.827311 20532 net.cpp:408] conv4_3 -> conv4_3
I0602 10:03:19.840195 20532 net.cpp:150] Setting up conv4_3
I0602 10:03:19.840219 20532 net.cpp:157] Top shape: 4 512 38 38 (2957312)
I0602 10:03:19.840222 20532 net.cpp:165] Memory required for data: 825380896
I0602 10:03:19.840234 20532 layer_factory.hpp:77] Creating layer relu4_3
I0602 10:03:19.840245 20532 net.cpp:100] Creating Layer relu4_3
I0602 10:03:19.840248 20532 net.cpp:434] relu4_3 <- conv4_3
I0602 10:03:19.840255 20532 net.cpp:395] relu4_3 -> conv4_3 (in-place)
I0602 10:03:19.841032 20532 net.cpp:150] Setting up relu4_3
I0602 10:03:19.841044 20532 net.cpp:157] Top shape: 4 512 38 38 (2957312)
I0602 10:03:19.841048 20532 net.cpp:165] Memory required for data: 837210144
I0602 10:03:19.841053 20532 layer_factory.hpp:77] Creating layer conv4_3_relu4_3_0_split
I0602 10:03:19.841063 20532 net.cpp:100] Creating Layer conv4_3_relu4_3_0_split
I0602 10:03:19.841068 20532 net.cpp:434] conv4_3_relu4_3_0_split <- conv4_3
I0602 10:03:19.841075 20532 net.cpp:408] conv4_3_relu4_3_0_split -> conv4_3_relu4_3_0_split_0
I0602 10:03:19.841084 20532 net.cpp:408] conv4_3_relu4_3_0_split -> conv4_3_relu4_3_0_split_1
I0602 10:03:19.841150 20532 net.cpp:150] Setting up conv4_3_relu4_3_0_split
I0602 10:03:19.841159 20532 net.cpp:157] Top shape: 4 512 38 38 (2957312)
I0602 10:03:19.841164 20532 net.cpp:157] Top shape: 4 512 38 38 (2957312)
I0602 10:03:19.841167 20532 net.cpp:165] Memory required for data: 860868640
I0602 10:03:19.841171 20532 layer_factory.hpp:77] Creating layer pool4
I0602 10:03:19.841178 20532 net.cpp:100] Creating Layer pool4
I0602 10:03:19.841182 20532 net.cpp:434] pool4 <- conv4_3_relu4_3_0_split_0
I0602 10:03:19.841189 20532 net.cpp:408] pool4 -> pool4
I0602 10:03:19.841239 20532 net.cpp:150] Setting up pool4
I0602 10:03:19.841248 20532 net.cpp:157] Top shape: 4 512 19 19 (739328)
I0602 10:03:19.841251 20532 net.cpp:165] Memory required for data: 863825952
I0602 10:03:19.841269 20532 layer_factory.hpp:77] Creating layer conv5_1
I0602 10:03:19.841285 20532 net.cpp:100] Creating Layer conv5_1
I0602 10:03:19.841291 20532 net.cpp:434] conv5_1 <- pool4
I0602 10:03:19.841298 20532 net.cpp:408] conv5_1 -> conv5_1
I0602 10:03:19.853972 20532 net.cpp:150] Setting up conv5_1
I0602 10:03:19.853993 20532 net.cpp:157] Top shape: 4 512 19 19 (739328)
I0602 10:03:19.853996 20532 net.cpp:165] Memory required for data: 866783264
I0602 10:03:19.854007 20532 layer_factory.hpp:77] Creating layer relu5_1
I0602 10:03:19.854029 20532 net.cpp:100] Creating Layer relu5_1
I0602 10:03:19.854035 20532 net.cpp:434] relu5_1 <- conv5_1
I0602 10:03:19.854055 20532 net.cpp:395] relu5_1 -> conv5_1 (in-place)
I0602 10:03:19.854197 20532 net.cpp:150] Setting up relu5_1
I0602 10:03:19.854205 20532 net.cpp:157] Top shape: 4 512 19 19 (739328)
I0602 10:03:19.854209 20532 net.cpp:165] Memory required for data: 869740576
I0602 10:03:19.854212 20532 layer_factory.hpp:77] Creating layer conv5_2
I0602 10:03:19.854224 20532 net.cpp:100] Creating Layer conv5_2
I0602 10:03:19.854229 20532 net.cpp:434] conv5_2 <- conv5_1
I0602 10:03:19.854238 20532 net.cpp:408] conv5_2 -> conv5_2
I0602 10:03:19.867614 20532 net.cpp:150] Setting up conv5_2
I0602 10:03:19.867631 20532 net.cpp:157] Top shape: 4 512 19 19 (739328)
I0602 10:03:19.867635 20532 net.cpp:165] Memory required for data: 872697888
I0602 10:03:19.867643 20532 layer_factory.hpp:77] Creating layer relu5_2
I0602 10:03:19.867666 20532 net.cpp:100] Creating Layer relu5_2
I0602 10:03:19.867672 20532 net.cpp:434] relu5_2 <- conv5_2
I0602 10:03:19.867696 20532 net.cpp:395] relu5_2 -> conv5_2 (in-place)
I0602 10:03:19.867873 20532 net.cpp:150] Setting up relu5_2
I0602 10:03:19.867882 20532 net.cpp:157] Top shape: 4 512 19 19 (739328)
I0602 10:03:19.867885 20532 net.cpp:165] Memory required for data: 875655200
I0602 10:03:19.867902 20532 layer_factory.hpp:77] Creating layer conv5_3
I0602 10:03:19.867914 20532 net.cpp:100] Creating Layer conv5_3
I0602 10:03:19.867918 20532 net.cpp:434] conv5_3 <- conv5_2
I0602 10:03:19.867928 20532 net.cpp:408] conv5_3 -> conv5_3
I0602 10:03:19.882475 20532 net.cpp:150] Setting up conv5_3
I0602 10:03:19.882491 20532 net.cpp:157] Top shape: 4 512 19 19 (739328)
I0602 10:03:19.882495 20532 net.cpp:165] Memory required for data: 878612512
I0602 10:03:19.882504 20532 layer_factory.hpp:77] Creating layer relu5_3
I0602 10:03:19.882534 20532 net.cpp:100] Creating Layer relu5_3
I0602 10:03:19.882552 20532 net.cpp:434] relu5_3 <- conv5_3
I0602 10:03:19.882572 20532 net.cpp:395] relu5_3 -> conv5_3 (in-place)
I0602 10:03:19.882742 20532 net.cpp:150] Setting up relu5_3
I0602 10:03:19.882750 20532 net.cpp:157] Top shape: 4 512 19 19 (739328)
I0602 10:03:19.882755 20532 net.cpp:165] Memory required for data: 881569824
I0602 10:03:19.882757 20532 layer_factory.hpp:77] Creating layer pool5
I0602 10:03:19.882764 20532 net.cpp:100] Creating Layer pool5
I0602 10:03:19.882768 20532 net.cpp:434] pool5 <- conv5_3
I0602 10:03:19.882791 20532 net.cpp:408] pool5 -> pool5
I0602 10:03:19.882853 20532 net.cpp:150] Setting up pool5
I0602 10:03:19.882860 20532 net.cpp:157] Top shape: 4 512 19 19 (739328)
I0602 10:03:19.882863 20532 net.cpp:165] Memory required for data: 884527136
I0602 10:03:19.882867 20532 layer_factory.hpp:77] Creating layer fc6
I0602 10:03:19.882894 20532 net.cpp:100] Creating Layer fc6
I0602 10:03:19.882897 20532 net.cpp:434] fc6 <- pool5
I0602 10:03:19.882905 20532 net.cpp:408] fc6 -> fc6
I0602 10:03:19.906301 20532 net.cpp:150] Setting up fc6
I0602 10:03:19.906322 20532 net.cpp:157] Top shape: 4 1024 19 19 (1478656)
I0602 10:03:19.906327 20532 net.cpp:165] Memory required for data: 890441760
I0602 10:03:19.906335 20532 layer_factory.hpp:77] Creating layer relu6
I0602 10:03:19.906345 20532 net.cpp:100] Creating Layer relu6
I0602 10:03:19.906352 20532 net.cpp:434] relu6 <- fc6
I0602 10:03:19.906378 20532 net.cpp:395] relu6 -> fc6 (in-place)
I0602 10:03:19.907282 20532 net.cpp:150] Setting up relu6
I0602 10:03:19.907296 20532 net.cpp:157] Top shape: 4 1024 19 19 (1478656)
I0602 10:03:19.907313 20532 net.cpp:165] Memory required for data: 896356384
I0602 10:03:19.907318 20532 layer_factory.hpp:77] Creating layer fc7
I0602 10:03:19.907331 20532 net.cpp:100] Creating Layer fc7
I0602 10:03:19.907338 20532 net.cpp:434] fc7 <- fc6
I0602 10:03:19.907348 20532 net.cpp:408] fc7 -> fc7
I0602 10:03:19.913847 20532 net.cpp:150] Setting up fc7
I0602 10:03:19.913866 20532 net.cpp:157] Top shape: 4 1024 19 19 (1478656)
I0602 10:03:19.913871 20532 net.cpp:165] Memory required for data: 902271008
I0602 10:03:19.913879 20532 layer_factory.hpp:77] Creating layer relu7
I0602 10:03:19.913889 20532 net.cpp:100] Creating Layer relu7
I0602 10:03:19.913895 20532 net.cpp:434] relu7 <- fc7
I0602 10:03:19.913903 20532 net.cpp:395] relu7 -> fc7 (in-place)
I0602 10:03:19.914043 20532 net.cpp:150] Setting up relu7
I0602 10:03:19.914052 20532 net.cpp:157] Top shape: 4 1024 19 19 (1478656)
I0602 10:03:19.914055 20532 net.cpp:165] Memory required for data: 908185632
I0602 10:03:19.914058 20532 layer_factory.hpp:77] Creating layer fc7_relu7_0_split
I0602 10:03:19.914067 20532 net.cpp:100] Creating Layer fc7_relu7_0_split
I0602 10:03:19.914079 20532 net.cpp:434] fc7_relu7_0_split <- fc7
I0602 10:03:19.914088 20532 net.cpp:408] fc7_relu7_0_split -> fc7_relu7_0_split_0
I0602 10:03:19.914098 20532 net.cpp:408] fc7_relu7_0_split -> fc7_relu7_0_split_1
I0602 10:03:19.914111 20532 net.cpp:408] fc7_relu7_0_split -> fc7_relu7_0_split_2
I0602 10:03:19.914119 20532 net.cpp:408] fc7_relu7_0_split -> fc7_relu7_0_split_3
I0602 10:03:19.914186 20532 net.cpp:150] Setting up fc7_relu7_0_split
I0602 10:03:19.914192 20532 net.cpp:157] Top shape: 4 1024 19 19 (1478656)
I0602 10:03:19.914198 20532 net.cpp:157] Top shape: 4 1024 19 19 (1478656)
I0602 10:03:19.914203 20532 net.cpp:157] Top shape: 4 1024 19 19 (1478656)
I0602 10:03:19.914208 20532 net.cpp:157] Top shape: 4 1024 19 19 (1478656)
I0602 10:03:19.914211 20532 net.cpp:165] Memory required for data: 931844128
I0602 10:03:19.914216 20532 layer_factory.hpp:77] Creating layer conv6_1
I0602 10:03:19.914227 20532 net.cpp:100] Creating Layer conv6_1
I0602 10:03:19.914232 20532 net.cpp:434] conv6_1 <- fc7_relu7_0_split_0
I0602 10:03:19.914238 20532 net.cpp:408] conv6_1 -> conv6_1
I0602 10:03:19.917593 20532 net.cpp:150] Setting up conv6_1
I0602 10:03:19.917606 20532 net.cpp:157] Top shape: 4 256 19 19 (369664)
I0602 10:03:19.917610 20532 net.cpp:165] Memory required for data: 933322784
I0602 10:03:19.917618 20532 layer_factory.hpp:77] Creating layer conv6_1_relu
I0602 10:03:19.917626 20532 net.cpp:100] Creating Layer conv6_1_relu
I0602 10:03:19.917632 20532 net.cpp:434] conv6_1_relu <- conv6_1
I0602 10:03:19.917641 20532 net.cpp:395] conv6_1_relu -> conv6_1 (in-place)
I0602 10:03:19.917778 20532 net.cpp:150] Setting up conv6_1_relu
I0602 10:03:19.917786 20532 net.cpp:157] Top shape: 4 256 19 19 (369664)
I0602 10:03:19.917790 20532 net.cpp:165] Memory required for data: 934801440
I0602 10:03:19.917794 20532 layer_factory.hpp:77] Creating layer conv6_2
I0602 10:03:19.917805 20532 net.cpp:100] Creating Layer conv6_2
I0602 10:03:19.917809 20532 net.cpp:434] conv6_2 <- conv6_1
I0602 10:03:19.917819 20532 net.cpp:408] conv6_2 -> conv6_2
I0602 10:03:19.925184 20532 net.cpp:150] Setting up conv6_2
I0602 10:03:19.925204 20532 net.cpp:157] Top shape: 4 512 10 10 (204800)
I0602 10:03:19.925209 20532 net.cpp:165] Memory required for data: 935620640
I0602 10:03:19.925223 20532 layer_factory.hpp:77] Creating layer conv6_2_relu
I0602 10:03:19.925249 20532 net.cpp:100] Creating Layer conv6_2_relu
I0602 10:03:19.925256 20532 net.cpp:434] conv6_2_relu <- conv6_2
I0602 10:03:19.925262 20532 net.cpp:395] conv6_2_relu -> conv6_2 (in-place)
I0602 10:03:19.925443 20532 net.cpp:150] Setting up conv6_2_relu
I0602 10:03:19.925451 20532 net.cpp:157] Top shape: 4 512 10 10 (204800)
I0602 10:03:19.925454 20532 net.cpp:165] Memory required for data: 936439840
I0602 10:03:19.925470 20532 layer_factory.hpp:77] Creating layer conv6_2_conv6_2_relu_0_split
I0602 10:03:19.925478 20532 net.cpp:100] Creating Layer conv6_2_conv6_2_relu_0_split
I0602 10:03:19.925505 20532 net.cpp:434] conv6_2_conv6_2_relu_0_split <- conv6_2
I0602 10:03:19.925513 20532 net.cpp:408] conv6_2_conv6_2_relu_0_split -> conv6_2_conv6_2_relu_0_split_0
I0602 10:03:19.925523 20532 net.cpp:408] conv6_2_conv6_2_relu_0_split -> conv6_2_conv6_2_relu_0_split_1
I0602 10:03:19.925530 20532 net.cpp:408] conv6_2_conv6_2_relu_0_split -> conv6_2_conv6_2_relu_0_split_2
I0602 10:03:19.925554 20532 net.cpp:408] conv6_2_conv6_2_relu_0_split -> conv6_2_conv6_2_relu_0_split_3
I0602 10:03:19.925633 20532 net.cpp:150] Setting up conv6_2_conv6_2_relu_0_split
I0602 10:03:19.925640 20532 net.cpp:157] Top shape: 4 512 10 10 (204800)
I0602 10:03:19.925645 20532 net.cpp:157] Top shape: 4 512 10 10 (204800)
I0602 10:03:19.925649 20532 net.cpp:157] Top shape: 4 512 10 10 (204800)
I0602 10:03:19.925654 20532 net.cpp:157] Top shape: 4 512 10 10 (204800)
I0602 10:03:19.925673 20532 net.cpp:165] Memory required for data: 939716640
I0602 10:03:19.925678 20532 layer_factory.hpp:77] Creating layer conv7_1
I0602 10:03:19.925690 20532 net.cpp:100] Creating Layer conv7_1
I0602 10:03:19.925694 20532 net.cpp:434] conv7_1 <- conv6_2_conv6_2_relu_0_split_0
I0602 10:03:19.925701 20532 net.cpp:408] conv7_1 -> conv7_1
I0602 10:03:19.927390 20532 net.cpp:150] Setting up conv7_1
I0602 10:03:19.927402 20532 net.cpp:157] Top shape: 4 128 10 10 (51200)
I0602 10:03:19.927407 20532 net.cpp:165] Memory required for data: 939921440
I0602 10:03:19.927413 20532 layer_factory.hpp:77] Creating layer conv7_1_relu
I0602 10:03:19.927420 20532 net.cpp:100] Creating Layer conv7_1_relu
I0602 10:03:19.927425 20532 net.cpp:434] conv7_1_relu <- conv7_1
I0602 10:03:19.927431 20532 net.cpp:395] conv7_1_relu -> conv7_1 (in-place)
I0602 10:03:19.927567 20532 net.cpp:150] Setting up conv7_1_relu
I0602 10:03:19.927575 20532 net.cpp:157] Top shape: 4 128 10 10 (51200)
I0602 10:03:19.927579 20532 net.cpp:165] Memory required for data: 940126240
I0602 10:03:19.927582 20532 layer_factory.hpp:77] Creating layer conv7_2
I0602 10:03:19.927592 20532 net.cpp:100] Creating Layer conv7_2
I0602 10:03:19.927597 20532 net.cpp:434] conv7_2 <- conv7_1
I0602 10:03:19.927605 20532 net.cpp:408] conv7_2 -> conv7_2
I0602 10:03:19.930557 20532 net.cpp:150] Setting up conv7_2
I0602 10:03:19.930568 20532 net.cpp:157] Top shape: 4 256 5 5 (25600)
I0602 10:03:19.930572 20532 net.cpp:165] Memory required for data: 940228640
I0602 10:03:19.930580 20532 layer_factory.hpp:77] Creating layer conv7_2_relu
I0602 10:03:19.930596 20532 net.cpp:100] Creating Layer conv7_2_relu
I0602 10:03:19.930601 20532 net.cpp:434] conv7_2_relu <- conv7_2
I0602 10:03:19.930608 20532 net.cpp:395] conv7_2_relu -> conv7_2 (in-place)
I0602 10:03:19.930747 20532 net.cpp:150] Setting up conv7_2_relu
I0602 10:03:19.930757 20532 net.cpp:157] Top shape: 4 256 5 5 (25600)
I0602 10:03:19.930759 20532 net.cpp:165] Memory required for data: 940331040
I0602 10:03:19.930764 20532 layer_factory.hpp:77] Creating layer conv7_2_conv7_2_relu_0_split
I0602 10:03:19.930770 20532 net.cpp:100] Creating Layer conv7_2_conv7_2_relu_0_split
I0602 10:03:19.930774 20532 net.cpp:434] conv7_2_conv7_2_relu_0_split <- conv7_2
I0602 10:03:19.930781 20532 net.cpp:408] conv7_2_conv7_2_relu_0_split -> conv7_2_conv7_2_relu_0_split_0
I0602 10:03:19.930790 20532 net.cpp:408] conv7_2_conv7_2_relu_0_split -> conv7_2_conv7_2_relu_0_split_1
I0602 10:03:19.930799 20532 net.cpp:408] conv7_2_conv7_2_relu_0_split -> conv7_2_conv7_2_relu_0_split_2
I0602 10:03:19.930809 20532 net.cpp:408] conv7_2_conv7_2_relu_0_split -> conv7_2_conv7_2_relu_0_split_3
I0602 10:03:19.930874 20532 net.cpp:150] Setting up conv7_2_conv7_2_relu_0_split
I0602 10:03:19.930881 20532 net.cpp:157] Top shape: 4 256 5 5 (25600)
I0602 10:03:19.930886 20532 net.cpp:157] Top shape: 4 256 5 5 (25600)
I0602 10:03:19.930891 20532 net.cpp:157] Top shape: 4 256 5 5 (25600)
I0602 10:03:19.930896 20532 net.cpp:157] Top shape: 4 256 5 5 (25600)
I0602 10:03:19.930902 20532 net.cpp:165] Memory required for data: 940740640
I0602 10:03:19.930905 20532 layer_factory.hpp:77] Creating layer conv8_1
I0602 10:03:19.930924 20532 net.cpp:100] Creating Layer conv8_1
I0602 10:03:19.930929 20532 net.cpp:434] conv8_1 <- conv7_2_conv7_2_relu_0_split_0
I0602 10:03:19.930938 20532 net.cpp:408] conv8_1 -> conv8_1
I0602 10:03:19.932199 20532 net.cpp:150] Setting up conv8_1
I0602 10:03:19.932209 20532 net.cpp:157] Top shape: 4 128 5 5 (12800)
I0602 10:03:19.932212 20532 net.cpp:165] Memory required for data: 940791840
I0602 10:03:19.932220 20532 layer_factory.hpp:77] Creating layer conv8_1_relu
I0602 10:03:19.932227 20532 net.cpp:100] Creating Layer conv8_1_relu
I0602 10:03:19.932232 20532 net.cpp:434] conv8_1_relu <- conv8_1
I0602 10:03:19.932240 20532 net.cpp:395] conv8_1_relu -> conv8_1 (in-place)
I0602 10:03:19.932869 20532 net.cpp:150] Setting up conv8_1_relu
I0602 10:03:19.932879 20532 net.cpp:157] Top shape: 4 128 5 5 (12800)
I0602 10:03:19.932883 20532 net.cpp:165] Memory required for data: 940843040
I0602 10:03:19.932888 20532 layer_factory.hpp:77] Creating layer conv8_2
I0602 10:03:19.932898 20532 net.cpp:100] Creating Layer conv8_2
I0602 10:03:19.932904 20532 net.cpp:434] conv8_2 <- conv8_1
I0602 10:03:19.932910 20532 net.cpp:408] conv8_2 -> conv8_2
I0602 10:03:19.935885 20532 net.cpp:150] Setting up conv8_2
I0602 10:03:19.935897 20532 net.cpp:157] Top shape: 4 256 3 3 (9216)
I0602 10:03:19.935901 20532 net.cpp:165] Memory required for data: 940879904
I0602 10:03:19.935909 20532 layer_factory.hpp:77] Creating layer conv8_2_relu
I0602 10:03:19.935927 20532 net.cpp:100] Creating Layer conv8_2_relu
I0602 10:03:19.935932 20532 net.cpp:434] conv8_2_relu <- conv8_2
I0602 10:03:19.935938 20532 net.cpp:395] conv8_2_relu -> conv8_2 (in-place)
I0602 10:03:19.936087 20532 net.cpp:150] Setting up conv8_2_relu
I0602 10:03:19.936096 20532 net.cpp:157] Top shape: 4 256 3 3 (9216)
I0602 10:03:19.936100 20532 net.cpp:165] Memory required for data: 940916768
I0602 10:03:19.936103 20532 layer_factory.hpp:77] Creating layer conv8_2_conv8_2_relu_0_split
I0602 10:03:19.936110 20532 net.cpp:100] Creating Layer conv8_2_conv8_2_relu_0_split
I0602 10:03:19.936115 20532 net.cpp:434] conv8_2_conv8_2_relu_0_split <- conv8_2
I0602 10:03:19.936123 20532 net.cpp:408] conv8_2_conv8_2_relu_0_split -> conv8_2_conv8_2_relu_0_split_0
I0602 10:03:19.936132 20532 net.cpp:408] conv8_2_conv8_2_relu_0_split -> conv8_2_conv8_2_relu_0_split_1
I0602 10:03:19.936141 20532 net.cpp:408] conv8_2_conv8_2_relu_0_split -> conv8_2_conv8_2_relu_0_split_2
I0602 10:03:19.936149 20532 net.cpp:408] conv8_2_conv8_2_relu_0_split -> conv8_2_conv8_2_relu_0_split_3
I0602 10:03:19.936218 20532 net.cpp:150] Setting up conv8_2_conv8_2_relu_0_split
I0602 10:03:19.936225 20532 net.cpp:157] Top shape: 4 256 3 3 (9216)
I0602 10:03:19.936229 20532 net.cpp:157] Top shape: 4 256 3 3 (9216)
I0602 10:03:19.936235 20532 net.cpp:157] Top shape: 4 256 3 3 (9216)
I0602 10:03:19.936240 20532 net.cpp:157] Top shape: 4 256 3 3 (9216)
I0602 10:03:19.936244 20532 net.cpp:165] Memory required for data: 941064224
I0602 10:03:19.936247 20532 layer_factory.hpp:77] Creating layer conv9_1
I0602 10:03:19.936259 20532 net.cpp:100] Creating Layer conv9_1
I0602 10:03:19.936264 20532 net.cpp:434] conv9_1 <- conv8_2_conv8_2_relu_0_split_0
I0602 10:03:19.936271 20532 net.cpp:408] conv9_1 -> conv9_1
I0602 10:03:19.937593 20532 net.cpp:150] Setting up conv9_1
I0602 10:03:19.937607 20532 net.cpp:157] Top shape: 4 128 3 3 (4608)
I0602 10:03:19.937610 20532 net.cpp:165] Memory required for data: 941082656
I0602 10:03:19.937618 20532 layer_factory.hpp:77] Creating layer conv9_1_relu
I0602 10:03:19.937626 20532 net.cpp:100] Creating Layer conv9_1_relu
I0602 10:03:19.937633 20532 net.cpp:434] conv9_1_relu <- conv9_1
I0602 10:03:19.937638 20532 net.cpp:395] conv9_1_relu -> conv9_1 (in-place)
I0602 10:03:19.937783 20532 net.cpp:150] Setting up conv9_1_relu
I0602 10:03:19.937793 20532 net.cpp:157] Top shape: 4 128 3 3 (4608)
I0602 10:03:19.937796 20532 net.cpp:165] Memory required for data: 941101088
I0602 10:03:19.937799 20532 layer_factory.hpp:77] Creating layer conv9_2
I0602 10:03:19.937824 20532 net.cpp:100] Creating Layer conv9_2
I0602 10:03:19.937829 20532 net.cpp:434] conv9_2 <- conv9_1
I0602 10:03:19.937836 20532 net.cpp:408] conv9_2 -> conv9_2
I0602 10:03:19.941004 20532 net.cpp:150] Setting up conv9_2
I0602 10:03:19.941021 20532 net.cpp:157] Top shape: 4 256 1 1 (1024)
I0602 10:03:19.941025 20532 net.cpp:165] Memory required for data: 941105184
I0602 10:03:19.941033 20532 layer_factory.hpp:77] Creating layer conv9_2_relu
I0602 10:03:19.941042 20532 net.cpp:100] Creating Layer conv9_2_relu
I0602 10:03:19.941051 20532 net.cpp:434] conv9_2_relu <- conv9_2
I0602 10:03:19.941061 20532 net.cpp:395] conv9_2_relu -> conv9_2 (in-place)
I0602 10:03:19.941257 20532 net.cpp:150] Setting up conv9_2_relu
I0602 10:03:19.941264 20532 net.cpp:157] Top shape: 4 256 1 1 (1024)
I0602 10:03:19.941268 20532 net.cpp:165] Memory required for data: 941109280
I0602 10:03:19.941285 20532 layer_factory.hpp:77] Creating layer conv9_2_conv9_2_relu_0_split
I0602 10:03:19.941293 20532 net.cpp:100] Creating Layer conv9_2_conv9_2_relu_0_split
I0602 10:03:19.941298 20532 net.cpp:434] conv9_2_conv9_2_relu_0_split <- conv9_2
I0602 10:03:19.941303 20532 net.cpp:408] conv9_2_conv9_2_relu_0_split -> conv9_2_conv9_2_relu_0_split_0
I0602 10:03:19.941311 20532 net.cpp:408] conv9_2_conv9_2_relu_0_split -> conv9_2_conv9_2_relu_0_split_1
I0602 10:03:19.941320 20532 net.cpp:408] conv9_2_conv9_2_relu_0_split -> conv9_2_conv9_2_relu_0_split_2
I0602 10:03:19.941391 20532 net.cpp:150] Setting up conv9_2_conv9_2_relu_0_split
I0602 10:03:19.941397 20532 net.cpp:157] Top shape: 4 256 1 1 (1024)
I0602 10:03:19.941402 20532 net.cpp:157] Top shape: 4 256 1 1 (1024)
I0602 10:03:19.941407 20532 net.cpp:157] Top shape: 4 256 1 1 (1024)
I0602 10:03:19.941411 20532 net.cpp:165] Memory required for data: 941121568
I0602 10:03:19.941414 20532 layer_factory.hpp:77] Creating layer conv4_3_norm
I0602 10:03:19.941421 20532 net.cpp:100] Creating Layer conv4_3_norm
I0602 10:03:19.941427 20532 net.cpp:434] conv4_3_norm <- conv4_3_relu4_3_0_split_1
I0602 10:03:19.941433 20532 net.cpp:408] conv4_3_norm -> conv4_3_norm
I0602 10:03:19.941588 20532 net.cpp:150] Setting up conv4_3_norm
I0602 10:03:19.941594 20532 net.cpp:157] Top shape: 4 512 38 38 (2957312)
I0602 10:03:19.941599 20532 net.cpp:165] Memory required for data: 952950816
I0602 10:03:19.941604 20532 layer_factory.hpp:77] Creating layer conv4_3_norm_conv4_3_norm_0_split
I0602 10:03:19.941610 20532 net.cpp:100] Creating Layer conv4_3_norm_conv4_3_norm_0_split
I0602 10:03:19.941614 20532 net.cpp:434] conv4_3_norm_conv4_3_norm_0_split <- conv4_3_norm
I0602 10:03:19.941622 20532 net.cpp:408] conv4_3_norm_conv4_3_norm_0_split -> conv4_3_norm_conv4_3_norm_0_split_0
I0602 10:03:19.941630 20532 net.cpp:408] conv4_3_norm_conv4_3_norm_0_split -> conv4_3_norm_conv4_3_norm_0_split_1
I0602 10:03:19.941637 20532 net.cpp:408] conv4_3_norm_conv4_3_norm_0_split -> conv4_3_norm_conv4_3_norm_0_split_2
I0602 10:03:19.941685 20532 net.cpp:150] Setting up conv4_3_norm_conv4_3_norm_0_split
I0602 10:03:19.941692 20532 net.cpp:157] Top shape: 4 512 38 38 (2957312)
I0602 10:03:19.941697 20532 net.cpp:157] Top shape: 4 512 38 38 (2957312)
I0602 10:03:19.941701 20532 net.cpp:157] Top shape: 4 512 38 38 (2957312)
I0602 10:03:19.941705 20532 net.cpp:165] Memory required for data: 988438560
I0602 10:03:19.941709 20532 layer_factory.hpp:77] Creating layer conv4_3_norm_mbox_loc
I0602 10:03:19.941720 20532 net.cpp:100] Creating Layer conv4_3_norm_mbox_loc
I0602 10:03:19.941725 20532 net.cpp:434] conv4_3_norm_mbox_loc <- conv4_3_norm_conv4_3_norm_0_split_0
I0602 10:03:19.941732 20532 net.cpp:408] conv4_3_norm_mbox_loc -> conv4_3_norm_mbox_loc
I0602 10:03:19.943676 20532 net.cpp:150] Setting up conv4_3_norm_mbox_loc
I0602 10:03:19.943687 20532 net.cpp:157] Top shape: 4 16 38 38 (92416)
I0602 10:03:19.943691 20532 net.cpp:165] Memory required for data: 988808224
I0602 10:03:19.943698 20532 layer_factory.hpp:77] Creating layer conv4_3_norm_mbox_loc_perm
I0602 10:03:19.943708 20532 net.cpp:100] Creating Layer conv4_3_norm_mbox_loc_perm
I0602 10:03:19.943723 20532 net.cpp:434] conv4_3_norm_mbox_loc_perm <- conv4_3_norm_mbox_loc
I0602 10:03:19.943732 20532 net.cpp:408] conv4_3_norm_mbox_loc_perm -> conv4_3_norm_mbox_loc_perm
I0602 10:03:19.943836 20532 net.cpp:150] Setting up conv4_3_norm_mbox_loc_perm
I0602 10:03:19.943843 20532 net.cpp:157] Top shape: 4 38 38 16 (92416)
I0602 10:03:19.943846 20532 net.cpp:165] Memory required for data: 989177888
I0602 10:03:19.943850 20532 layer_factory.hpp:77] Creating layer conv4_3_norm_mbox_loc_flat
I0602 10:03:19.943856 20532 net.cpp:100] Creating Layer conv4_3_norm_mbox_loc_flat
I0602 10:03:19.943862 20532 net.cpp:434] conv4_3_norm_mbox_loc_flat <- conv4_3_norm_mbox_loc_perm
I0602 10:03:19.943869 20532 net.cpp:408] conv4_3_norm_mbox_loc_flat -> conv4_3_norm_mbox_loc_flat
I0602 10:03:19.943904 20532 net.cpp:150] Setting up conv4_3_norm_mbox_loc_flat
I0602 10:03:19.943910 20532 net.cpp:157] Top shape: 4 23104 (92416)
I0602 10:03:19.943914 20532 net.cpp:165] Memory required for data: 989547552
I0602 10:03:19.943917 20532 layer_factory.hpp:77] Creating layer conv4_3_norm_mbox_conf
I0602 10:03:19.943933 20532 net.cpp:100] Creating Layer conv4_3_norm_mbox_conf
I0602 10:03:19.943938 20532 net.cpp:434] conv4_3_norm_mbox_conf <- conv4_3_norm_conv4_3_norm_0_split_1
I0602 10:03:19.943944 20532 net.cpp:408] conv4_3_norm_mbox_conf -> conv4_3_norm_mbox_conf
I0602 10:03:19.945888 20532 net.cpp:150] Setting up conv4_3_norm_mbox_conf
I0602 10:03:19.945899 20532 net.cpp:157] Top shape: 4 16 38 38 (92416)
I0602 10:03:19.945902 20532 net.cpp:165] Memory required for data: 989917216
I0602 10:03:19.945910 20532 layer_factory.hpp:77] Creating layer conv4_3_norm_mbox_conf_perm
I0602 10:03:19.945919 20532 net.cpp:100] Creating Layer conv4_3_norm_mbox_conf_perm
I0602 10:03:19.945924 20532 net.cpp:434] conv4_3_norm_mbox_conf_perm <- conv4_3_norm_mbox_conf
I0602 10:03:19.945932 20532 net.cpp:408] conv4_3_norm_mbox_conf_perm -> conv4_3_norm_mbox_conf_perm
I0602 10:03:19.946035 20532 net.cpp:150] Setting up conv4_3_norm_mbox_conf_perm
I0602 10:03:19.946043 20532 net.cpp:157] Top shape: 4 38 38 16 (92416)
I0602 10:03:19.946046 20532 net.cpp:165] Memory required for data: 990286880
I0602 10:03:19.946050 20532 layer_factory.hpp:77] Creating layer conv4_3_norm_mbox_conf_flat
I0602 10:03:19.946058 20532 net.cpp:100] Creating Layer conv4_3_norm_mbox_conf_flat
I0602 10:03:19.946063 20532 net.cpp:434] conv4_3_norm_mbox_conf_flat <- conv4_3_norm_mbox_conf_perm
I0602 10:03:19.946069 20532 net.cpp:408] conv4_3_norm_mbox_conf_flat -> conv4_3_norm_mbox_conf_flat
I0602 10:03:19.946095 20532 net.cpp:150] Setting up conv4_3_norm_mbox_conf_flat
I0602 10:03:19.946101 20532 net.cpp:157] Top shape: 4 23104 (92416)
I0602 10:03:19.946105 20532 net.cpp:165] Memory required for data: 990656544
I0602 10:03:19.946108 20532 layer_factory.hpp:77] Creating layer conv4_3_norm_mbox_priorbox
I0602 10:03:19.946116 20532 net.cpp:100] Creating Layer conv4_3_norm_mbox_priorbox
I0602 10:03:19.946121 20532 net.cpp:434] conv4_3_norm_mbox_priorbox <- conv4_3_norm_conv4_3_norm_0_split_2
I0602 10:03:19.946126 20532 net.cpp:434] conv4_3_norm_mbox_priorbox <- data_data_0_split_1
I0602 10:03:19.946135 20532 net.cpp:408] conv4_3_norm_mbox_priorbox -> conv4_3_norm_mbox_priorbox
I0602 10:03:19.946164 20532 net.cpp:150] Setting up conv4_3_norm_mbox_priorbox
I0602 10:03:19.946171 20532 net.cpp:157] Top shape: 1 2 23104 (46208)
I0602 10:03:19.946174 20532 net.cpp:165] Memory required for data: 990841376
I0602 10:03:19.946178 20532 layer_factory.hpp:77] Creating layer fc7_mbox_loc
I0602 10:03:19.946187 20532 net.cpp:100] Creating Layer fc7_mbox_loc
I0602 10:03:19.946192 20532 net.cpp:434] fc7_mbox_loc <- fc7_relu7_0_split_1
I0602 10:03:19.946200 20532 net.cpp:408] fc7_mbox_loc -> fc7_mbox_loc
I0602 10:03:19.948710 20532 net.cpp:150] Setting up fc7_mbox_loc
I0602 10:03:19.948722 20532 net.cpp:157] Top shape: 4 24 19 19 (34656)
I0602 10:03:19.948726 20532 net.cpp:165] Memory required for data: 990980000
I0602 10:03:19.948734 20532 layer_factory.hpp:77] Creating layer fc7_mbox_loc_perm
I0602 10:03:19.948741 20532 net.cpp:100] Creating Layer fc7_mbox_loc_perm
I0602 10:03:19.948755 20532 net.cpp:434] fc7_mbox_loc_perm <- fc7_mbox_loc
I0602 10:03:19.948765 20532 net.cpp:408] fc7_mbox_loc_perm -> fc7_mbox_loc_perm
I0602 10:03:19.948870 20532 net.cpp:150] Setting up fc7_mbox_loc_perm
I0602 10:03:19.948879 20532 net.cpp:157] Top shape: 4 19 19 24 (34656)
I0602 10:03:19.948881 20532 net.cpp:165] Memory required for data: 991118624
I0602 10:03:19.948885 20532 layer_factory.hpp:77] Creating layer fc7_mbox_loc_flat
I0602 10:03:19.948891 20532 net.cpp:100] Creating Layer fc7_mbox_loc_flat
I0602 10:03:19.948896 20532 net.cpp:434] fc7_mbox_loc_flat <- fc7_mbox_loc_perm
I0602 10:03:19.948917 20532 net.cpp:408] fc7_mbox_loc_flat -> fc7_mbox_loc_flat
I0602 10:03:19.948958 20532 net.cpp:150] Setting up fc7_mbox_loc_flat
I0602 10:03:19.948964 20532 net.cpp:157] Top shape: 4 8664 (34656)
I0602 10:03:19.948968 20532 net.cpp:165] Memory required for data: 991257248
I0602 10:03:19.948971 20532 layer_factory.hpp:77] Creating layer fc7_mbox_conf
I0602 10:03:19.948982 20532 net.cpp:100] Creating Layer fc7_mbox_conf
I0602 10:03:19.948987 20532 net.cpp:434] fc7_mbox_conf <- fc7_relu7_0_split_2
I0602 10:03:19.948997 20532 net.cpp:408] fc7_mbox_conf -> fc7_mbox_conf
I0602 10:03:19.951485 20532 net.cpp:150] Setting up fc7_mbox_conf
I0602 10:03:19.951495 20532 net.cpp:157] Top shape: 4 24 19 19 (34656)
I0602 10:03:19.951499 20532 net.cpp:165] Memory required for data: 991395872
I0602 10:03:19.951508 20532 layer_factory.hpp:77] Creating layer fc7_mbox_conf_perm
I0602 10:03:19.951515 20532 net.cpp:100] Creating Layer fc7_mbox_conf_perm
I0602 10:03:19.951520 20532 net.cpp:434] fc7_mbox_conf_perm <- fc7_mbox_conf
I0602 10:03:19.951529 20532 net.cpp:408] fc7_mbox_conf_perm -> fc7_mbox_conf_perm
I0602 10:03:19.951637 20532 net.cpp:150] Setting up fc7_mbox_conf_perm
I0602 10:03:19.951643 20532 net.cpp:157] Top shape: 4 19 19 24 (34656)
I0602 10:03:19.951647 20532 net.cpp:165] Memory required for data: 991534496
I0602 10:03:19.951650 20532 layer_factory.hpp:77] Creating layer fc7_mbox_conf_flat
I0602 10:03:19.951656 20532 net.cpp:100] Creating Layer fc7_mbox_conf_flat
I0602 10:03:19.951661 20532 net.cpp:434] fc7_mbox_conf_flat <- fc7_mbox_conf_perm
I0602 10:03:19.951668 20532 net.cpp:408] fc7_mbox_conf_flat -> fc7_mbox_conf_flat
I0602 10:03:19.951694 20532 net.cpp:150] Setting up fc7_mbox_conf_flat
I0602 10:03:19.951700 20532 net.cpp:157] Top shape: 4 8664 (34656)
I0602 10:03:19.951704 20532 net.cpp:165] Memory required for data: 991673120
I0602 10:03:19.951707 20532 layer_factory.hpp:77] Creating layer fc7_mbox_priorbox
I0602 10:03:19.951716 20532 net.cpp:100] Creating Layer fc7_mbox_priorbox
I0602 10:03:19.951721 20532 net.cpp:434] fc7_mbox_priorbox <- fc7_relu7_0_split_3
I0602 10:03:19.951727 20532 net.cpp:434] fc7_mbox_priorbox <- data_data_0_split_2
I0602 10:03:19.951735 20532 net.cpp:408] fc7_mbox_priorbox -> fc7_mbox_priorbox
I0602 10:03:19.951763 20532 net.cpp:150] Setting up fc7_mbox_priorbox
I0602 10:03:19.951771 20532 net.cpp:157] Top shape: 1 2 8664 (17328)
I0602 10:03:19.951774 20532 net.cpp:165] Memory required for data: 991742432
I0602 10:03:19.951777 20532 layer_factory.hpp:77] Creating layer conv6_2_mbox_loc
I0602 10:03:19.951789 20532 net.cpp:100] Creating Layer conv6_2_mbox_loc
I0602 10:03:19.951794 20532 net.cpp:434] conv6_2_mbox_loc <- conv6_2_conv6_2_relu_0_split_1
I0602 10:03:19.951803 20532 net.cpp:408] conv6_2_mbox_loc -> conv6_2_mbox_loc
I0602 10:03:19.953888 20532 net.cpp:150] Setting up conv6_2_mbox_loc
I0602 10:03:19.953902 20532 net.cpp:157] Top shape: 4 24 10 10 (9600)
I0602 10:03:19.953905 20532 net.cpp:165] Memory required for data: 991780832
I0602 10:03:19.953913 20532 layer_factory.hpp:77] Creating layer conv6_2_mbox_loc_perm
I0602 10:03:19.953924 20532 net.cpp:100] Creating Layer conv6_2_mbox_loc_perm
I0602 10:03:19.953929 20532 net.cpp:434] conv6_2_mbox_loc_perm <- conv6_2_mbox_loc
I0602 10:03:19.953938 20532 net.cpp:408] conv6_2_mbox_loc_perm -> conv6_2_mbox_loc_perm
I0602 10:03:19.954047 20532 net.cpp:150] Setting up conv6_2_mbox_loc_perm
I0602 10:03:19.954061 20532 net.cpp:157] Top shape: 4 10 10 24 (9600)
I0602 10:03:19.954066 20532 net.cpp:165] Memory required for data: 991819232
I0602 10:03:19.954071 20532 layer_factory.hpp:77] Creating layer conv6_2_mbox_loc_flat
I0602 10:03:19.954075 20532 net.cpp:100] Creating Layer conv6_2_mbox_loc_flat
I0602 10:03:19.954082 20532 net.cpp:434] conv6_2_mbox_loc_flat <- conv6_2_mbox_loc_perm
I0602 10:03:19.954087 20532 net.cpp:408] conv6_2_mbox_loc_flat -> conv6_2_mbox_loc_flat
I0602 10:03:19.954115 20532 net.cpp:150] Setting up conv6_2_mbox_loc_flat
I0602 10:03:19.954121 20532 net.cpp:157] Top shape: 4 2400 (9600)
I0602 10:03:19.954124 20532 net.cpp:165] Memory required for data: 991857632
I0602 10:03:19.954128 20532 layer_factory.hpp:77] Creating layer conv6_2_mbox_conf
I0602 10:03:19.954140 20532 net.cpp:100] Creating Layer conv6_2_mbox_conf
I0602 10:03:19.954144 20532 net.cpp:434] conv6_2_mbox_conf <- conv6_2_conv6_2_relu_0_split_2
I0602 10:03:19.954152 20532 net.cpp:408] conv6_2_mbox_conf -> conv6_2_mbox_conf
I0602 10:03:19.956243 20532 net.cpp:150] Setting up conv6_2_mbox_conf
I0602 10:03:19.956254 20532 net.cpp:157] Top shape: 4 24 10 10 (9600)
I0602 10:03:19.956257 20532 net.cpp:165] Memory required for data: 991896032
I0602 10:03:19.956264 20532 layer_factory.hpp:77] Creating layer conv6_2_mbox_conf_perm
I0602 10:03:19.956274 20532 net.cpp:100] Creating Layer conv6_2_mbox_conf_perm
I0602 10:03:19.956280 20532 net.cpp:434] conv6_2_mbox_conf_perm <- conv6_2_mbox_conf
I0602 10:03:19.956286 20532 net.cpp:408] conv6_2_mbox_conf_perm -> conv6_2_mbox_conf_perm
I0602 10:03:19.956394 20532 net.cpp:150] Setting up conv6_2_mbox_conf_perm
I0602 10:03:19.956401 20532 net.cpp:157] Top shape: 4 10 10 24 (9600)
I0602 10:03:19.956405 20532 net.cpp:165] Memory required for data: 991934432
I0602 10:03:19.956409 20532 layer_factory.hpp:77] Creating layer conv6_2_mbox_conf_flat
I0602 10:03:19.956415 20532 net.cpp:100] Creating Layer conv6_2_mbox_conf_flat
I0602 10:03:19.956420 20532 net.cpp:434] conv6_2_mbox_conf_flat <- conv6_2_mbox_conf_perm
I0602 10:03:19.956429 20532 net.cpp:408] conv6_2_mbox_conf_flat -> conv6_2_mbox_conf_flat
I0602 10:03:19.956455 20532 net.cpp:150] Setting up conv6_2_mbox_conf_flat
I0602 10:03:19.956461 20532 net.cpp:157] Top shape: 4 2400 (9600)
I0602 10:03:19.956465 20532 net.cpp:165] Memory required for data: 991972832
I0602 10:03:19.956470 20532 layer_factory.hpp:77] Creating layer conv6_2_mbox_priorbox
I0602 10:03:19.956477 20532 net.cpp:100] Creating Layer conv6_2_mbox_priorbox
I0602 10:03:19.956482 20532 net.cpp:434] conv6_2_mbox_priorbox <- conv6_2_conv6_2_relu_0_split_3
I0602 10:03:19.956487 20532 net.cpp:434] conv6_2_mbox_priorbox <- data_data_0_split_3
I0602 10:03:19.956496 20532 net.cpp:408] conv6_2_mbox_priorbox -> conv6_2_mbox_priorbox
I0602 10:03:19.956526 20532 net.cpp:150] Setting up conv6_2_mbox_priorbox
I0602 10:03:19.956532 20532 net.cpp:157] Top shape: 1 2 2400 (4800)
I0602 10:03:19.956534 20532 net.cpp:165] Memory required for data: 991992032
I0602 10:03:19.956538 20532 layer_factory.hpp:77] Creating layer conv7_2_mbox_loc
I0602 10:03:19.956548 20532 net.cpp:100] Creating Layer conv7_2_mbox_loc
I0602 10:03:19.956553 20532 net.cpp:434] conv7_2_mbox_loc <- conv7_2_conv7_2_relu_0_split_1
I0602 10:03:19.956562 20532 net.cpp:408] conv7_2_mbox_loc -> conv7_2_mbox_loc
I0602 10:03:19.957928 20532 net.cpp:150] Setting up conv7_2_mbox_loc
I0602 10:03:19.957938 20532 net.cpp:157] Top shape: 4 24 5 5 (2400)
I0602 10:03:19.957942 20532 net.cpp:165] Memory required for data: 992001632
I0602 10:03:19.957949 20532 layer_factory.hpp:77] Creating layer conv7_2_mbox_loc_perm
I0602 10:03:19.957958 20532 net.cpp:100] Creating Layer conv7_2_mbox_loc_perm
I0602 10:03:19.957964 20532 net.cpp:434] conv7_2_mbox_loc_perm <- conv7_2_mbox_loc
I0602 10:03:19.957973 20532 net.cpp:408] conv7_2_mbox_loc_perm -> conv7_2_mbox_loc_perm
I0602 10:03:19.958078 20532 net.cpp:150] Setting up conv7_2_mbox_loc_perm
I0602 10:03:19.958086 20532 net.cpp:157] Top shape: 4 5 5 24 (2400)
I0602 10:03:19.958088 20532 net.cpp:165] Memory required for data: 992011232
I0602 10:03:19.958101 20532 layer_factory.hpp:77] Creating layer conv7_2_mbox_loc_flat
I0602 10:03:19.958109 20532 net.cpp:100] Creating Layer conv7_2_mbox_loc_flat
I0602 10:03:19.958114 20532 net.cpp:434] conv7_2_mbox_loc_flat <- conv7_2_mbox_loc_perm
I0602 10:03:19.958119 20532 net.cpp:408] conv7_2_mbox_loc_flat -> conv7_2_mbox_loc_flat
I0602 10:03:19.958148 20532 net.cpp:150] Setting up conv7_2_mbox_loc_flat
I0602 10:03:19.958153 20532 net.cpp:157] Top shape: 4 600 (2400)
I0602 10:03:19.958156 20532 net.cpp:165] Memory required for data: 992020832
I0602 10:03:19.958159 20532 layer_factory.hpp:77] Creating layer conv7_2_mbox_conf
I0602 10:03:19.958170 20532 net.cpp:100] Creating Layer conv7_2_mbox_conf
I0602 10:03:19.958175 20532 net.cpp:434] conv7_2_mbox_conf <- conv7_2_conv7_2_relu_0_split_2
I0602 10:03:19.958183 20532 net.cpp:408] conv7_2_mbox_conf -> conv7_2_mbox_conf
I0602 10:03:19.959997 20532 net.cpp:150] Setting up conv7_2_mbox_conf
I0602 10:03:19.960006 20532 net.cpp:157] Top shape: 4 24 5 5 (2400)
I0602 10:03:19.960011 20532 net.cpp:165] Memory required for data: 992030432
I0602 10:03:19.960024 20532 layer_factory.hpp:77] Creating layer conv7_2_mbox_conf_perm
I0602 10:03:19.960031 20532 net.cpp:100] Creating Layer conv7_2_mbox_conf_perm
I0602 10:03:19.960036 20532 net.cpp:434] conv7_2_mbox_conf_perm <- conv7_2_mbox_conf
I0602 10:03:19.960044 20532 net.cpp:408] conv7_2_mbox_conf_perm -> conv7_2_mbox_conf_perm
I0602 10:03:19.960152 20532 net.cpp:150] Setting up conv7_2_mbox_conf_perm
I0602 10:03:19.960158 20532 net.cpp:157] Top shape: 4 5 5 24 (2400)
I0602 10:03:19.960162 20532 net.cpp:165] Memory required for data: 992040032
I0602 10:03:19.960166 20532 layer_factory.hpp:77] Creating layer conv7_2_mbox_conf_flat
I0602 10:03:19.960172 20532 net.cpp:100] Creating Layer conv7_2_mbox_conf_flat
I0602 10:03:19.960177 20532 net.cpp:434] conv7_2_mbox_conf_flat <- conv7_2_mbox_conf_perm
I0602 10:03:19.960185 20532 net.cpp:408] conv7_2_mbox_conf_flat -> conv7_2_mbox_conf_flat
I0602 10:03:19.960211 20532 net.cpp:150] Setting up conv7_2_mbox_conf_flat
I0602 10:03:19.960217 20532 net.cpp:157] Top shape: 4 600 (2400)
I0602 10:03:19.960220 20532 net.cpp:165] Memory required for data: 992049632
I0602 10:03:19.960223 20532 layer_factory.hpp:77] Creating layer conv7_2_mbox_priorbox
I0602 10:03:19.960232 20532 net.cpp:100] Creating Layer conv7_2_mbox_priorbox
I0602 10:03:19.960237 20532 net.cpp:434] conv7_2_mbox_priorbox <- conv7_2_conv7_2_relu_0_split_3
I0602 10:03:19.960242 20532 net.cpp:434] conv7_2_mbox_priorbox <- data_data_0_split_4
I0602 10:03:19.960250 20532 net.cpp:408] conv7_2_mbox_priorbox -> conv7_2_mbox_priorbox
I0602 10:03:19.960278 20532 net.cpp:150] Setting up conv7_2_mbox_priorbox
I0602 10:03:19.960285 20532 net.cpp:157] Top shape: 1 2 600 (1200)
I0602 10:03:19.960289 20532 net.cpp:165] Memory required for data: 992054432
I0602 10:03:19.960291 20532 layer_factory.hpp:77] Creating layer conv8_2_mbox_loc
I0602 10:03:19.960305 20532 net.cpp:100] Creating Layer conv8_2_mbox_loc
I0602 10:03:19.960309 20532 net.cpp:434] conv8_2_mbox_loc <- conv8_2_conv8_2_relu_0_split_1
I0602 10:03:19.960317 20532 net.cpp:408] conv8_2_mbox_loc -> conv8_2_mbox_loc
I0602 10:03:19.962061 20532 net.cpp:150] Setting up conv8_2_mbox_loc
I0602 10:03:19.962071 20532 net.cpp:157] Top shape: 4 16 3 3 (576)
I0602 10:03:19.962075 20532 net.cpp:165] Memory required for data: 992056736
I0602 10:03:19.962092 20532 layer_factory.hpp:77] Creating layer conv8_2_mbox_loc_perm
I0602 10:03:19.962100 20532 net.cpp:100] Creating Layer conv8_2_mbox_loc_perm
I0602 10:03:19.962106 20532 net.cpp:434] conv8_2_mbox_loc_perm <- conv8_2_mbox_loc
I0602 10:03:19.962117 20532 net.cpp:408] conv8_2_mbox_loc_perm -> conv8_2_mbox_loc_perm
I0602 10:03:19.962224 20532 net.cpp:150] Setting up conv8_2_mbox_loc_perm
I0602 10:03:19.962231 20532 net.cpp:157] Top shape: 4 3 3 16 (576)
I0602 10:03:19.962234 20532 net.cpp:165] Memory required for data: 992059040
I0602 10:03:19.962239 20532 layer_factory.hpp:77] Creating layer conv8_2_mbox_loc_flat
I0602 10:03:19.962254 20532 net.cpp:100] Creating Layer conv8_2_mbox_loc_flat
I0602 10:03:19.962258 20532 net.cpp:434] conv8_2_mbox_loc_flat <- conv8_2_mbox_loc_perm
I0602 10:03:19.962265 20532 net.cpp:408] conv8_2_mbox_loc_flat -> conv8_2_mbox_loc_flat
I0602 10:03:19.962292 20532 net.cpp:150] Setting up conv8_2_mbox_loc_flat
I0602 10:03:19.962298 20532 net.cpp:157] Top shape: 4 144 (576)
I0602 10:03:19.962302 20532 net.cpp:165] Memory required for data: 992061344
I0602 10:03:19.962306 20532 layer_factory.hpp:77] Creating layer conv8_2_mbox_conf
I0602 10:03:19.962316 20532 net.cpp:100] Creating Layer conv8_2_mbox_conf
I0602 10:03:19.962321 20532 net.cpp:434] conv8_2_mbox_conf <- conv8_2_conv8_2_relu_0_split_2
I0602 10:03:19.962328 20532 net.cpp:408] conv8_2_mbox_conf -> conv8_2_mbox_conf
I0602 10:03:19.964093 20532 net.cpp:150] Setting up conv8_2_mbox_conf
I0602 10:03:19.964103 20532 net.cpp:157] Top shape: 4 16 3 3 (576)
I0602 10:03:19.964107 20532 net.cpp:165] Memory required for data: 992063648
I0602 10:03:19.964114 20532 layer_factory.hpp:77] Creating layer conv8_2_mbox_conf_perm
I0602 10:03:19.964124 20532 net.cpp:100] Creating Layer conv8_2_mbox_conf_perm
I0602 10:03:19.964130 20532 net.cpp:434] conv8_2_mbox_conf_perm <- conv8_2_mbox_conf
I0602 10:03:19.964139 20532 net.cpp:408] conv8_2_mbox_conf_perm -> conv8_2_mbox_conf_perm
I0602 10:03:19.964246 20532 net.cpp:150] Setting up conv8_2_mbox_conf_perm
I0602 10:03:19.964254 20532 net.cpp:157] Top shape: 4 3 3 16 (576)
I0602 10:03:19.964257 20532 net.cpp:165] Memory required for data: 992065952
I0602 10:03:19.964262 20532 layer_factory.hpp:77] Creating layer conv8_2_mbox_conf_flat
I0602 10:03:19.964267 20532 net.cpp:100] Creating Layer conv8_2_mbox_conf_flat
I0602 10:03:19.964272 20532 net.cpp:434] conv8_2_mbox_conf_flat <- conv8_2_mbox_conf_perm
I0602 10:03:19.964279 20532 net.cpp:408] conv8_2_mbox_conf_flat -> conv8_2_mbox_conf_flat
I0602 10:03:19.964305 20532 net.cpp:150] Setting up conv8_2_mbox_conf_flat
I0602 10:03:19.964313 20532 net.cpp:157] Top shape: 4 144 (576)
I0602 10:03:19.964318 20532 net.cpp:165] Memory required for data: 992068256
I0602 10:03:19.964321 20532 layer_factory.hpp:77] Creating layer conv8_2_mbox_priorbox
I0602 10:03:19.964329 20532 net.cpp:100] Creating Layer conv8_2_mbox_priorbox
I0602 10:03:19.964332 20532 net.cpp:434] conv8_2_mbox_priorbox <- conv8_2_conv8_2_relu_0_split_3
I0602 10:03:19.964339 20532 net.cpp:434] conv8_2_mbox_priorbox <- data_data_0_split_5
I0602 10:03:19.964346 20532 net.cpp:408] conv8_2_mbox_priorbox -> conv8_2_mbox_priorbox
I0602 10:03:19.964375 20532 net.cpp:150] Setting up conv8_2_mbox_priorbox
I0602 10:03:19.964382 20532 net.cpp:157] Top shape: 1 2 144 (288)
I0602 10:03:19.964385 20532 net.cpp:165] Memory required for data: 992069408
I0602 10:03:19.964388 20532 layer_factory.hpp:77] Creating layer conv9_2_mbox_loc
I0602 10:03:19.964399 20532 net.cpp:100] Creating Layer conv9_2_mbox_loc
I0602 10:03:19.964403 20532 net.cpp:434] conv9_2_mbox_loc <- conv9_2_conv9_2_relu_0_split_0
I0602 10:03:19.964411 20532 net.cpp:408] conv9_2_mbox_loc -> conv9_2_mbox_loc
I0602 10:03:19.966660 20532 net.cpp:150] Setting up conv9_2_mbox_loc
I0602 10:03:19.966670 20532 net.cpp:157] Top shape: 4 16 1 1 (64)
I0602 10:03:19.966675 20532 net.cpp:165] Memory required for data: 992069664
I0602 10:03:19.966681 20532 layer_factory.hpp:77] Creating layer conv9_2_mbox_loc_perm
I0602 10:03:19.966689 20532 net.cpp:100] Creating Layer conv9_2_mbox_loc_perm
I0602 10:03:19.966696 20532 net.cpp:434] conv9_2_mbox_loc_perm <- conv9_2_mbox_loc
I0602 10:03:19.966704 20532 net.cpp:408] conv9_2_mbox_loc_perm -> conv9_2_mbox_loc_perm
I0602 10:03:19.966811 20532 net.cpp:150] Setting up conv9_2_mbox_loc_perm
I0602 10:03:19.966819 20532 net.cpp:157] Top shape: 4 1 1 16 (64)
I0602 10:03:19.966821 20532 net.cpp:165] Memory required for data: 992069920
I0602 10:03:19.966825 20532 layer_factory.hpp:77] Creating layer conv9_2_mbox_loc_flat
I0602 10:03:19.966832 20532 net.cpp:100] Creating Layer conv9_2_mbox_loc_flat
I0602 10:03:19.966837 20532 net.cpp:434] conv9_2_mbox_loc_flat <- conv9_2_mbox_loc_perm
I0602 10:03:19.966852 20532 net.cpp:408] conv9_2_mbox_loc_flat -> conv9_2_mbox_loc_flat
I0602 10:03:19.966879 20532 net.cpp:150] Setting up conv9_2_mbox_loc_flat
I0602 10:03:19.966886 20532 net.cpp:157] Top shape: 4 16 (64)
I0602 10:03:19.966888 20532 net.cpp:165] Memory required for data: 992070176
I0602 10:03:19.966892 20532 layer_factory.hpp:77] Creating layer conv9_2_mbox_conf
I0602 10:03:19.966903 20532 net.cpp:100] Creating Layer conv9_2_mbox_conf
I0602 10:03:19.966908 20532 net.cpp:434] conv9_2_mbox_conf <- conv9_2_conv9_2_relu_0_split_1
I0602 10:03:19.966915 20532 net.cpp:408] conv9_2_mbox_conf -> conv9_2_mbox_conf
I0602 10:03:19.968688 20532 net.cpp:150] Setting up conv9_2_mbox_conf
I0602 10:03:19.968698 20532 net.cpp:157] Top shape: 4 16 1 1 (64)
I0602 10:03:19.968701 20532 net.cpp:165] Memory required for data: 992070432
I0602 10:03:19.968708 20532 layer_factory.hpp:77] Creating layer conv9_2_mbox_conf_perm
I0602 10:03:19.968714 20532 net.cpp:100] Creating Layer conv9_2_mbox_conf_perm
I0602 10:03:19.968720 20532 net.cpp:434] conv9_2_mbox_conf_perm <- conv9_2_mbox_conf
I0602 10:03:19.968729 20532 net.cpp:408] conv9_2_mbox_conf_perm -> conv9_2_mbox_conf_perm
I0602 10:03:19.968839 20532 net.cpp:150] Setting up conv9_2_mbox_conf_perm
I0602 10:03:19.968847 20532 net.cpp:157] Top shape: 4 1 1 16 (64)
I0602 10:03:19.968849 20532 net.cpp:165] Memory required for data: 992070688
I0602 10:03:19.968853 20532 layer_factory.hpp:77] Creating layer conv9_2_mbox_conf_flat
I0602 10:03:19.968859 20532 net.cpp:100] Creating Layer conv9_2_mbox_conf_flat
I0602 10:03:19.968864 20532 net.cpp:434] conv9_2_mbox_conf_flat <- conv9_2_mbox_conf_perm
I0602 10:03:19.968873 20532 net.cpp:408] conv9_2_mbox_conf_flat -> conv9_2_mbox_conf_flat
I0602 10:03:19.968899 20532 net.cpp:150] Setting up conv9_2_mbox_conf_flat
I0602 10:03:19.968905 20532 net.cpp:157] Top shape: 4 16 (64)
I0602 10:03:19.968909 20532 net.cpp:165] Memory required for data: 992070944
I0602 10:03:19.968912 20532 layer_factory.hpp:77] Creating layer conv9_2_mbox_priorbox
I0602 10:03:19.968919 20532 net.cpp:100] Creating Layer conv9_2_mbox_priorbox
I0602 10:03:19.968924 20532 net.cpp:434] conv9_2_mbox_priorbox <- conv9_2_conv9_2_relu_0_split_2
I0602 10:03:19.968928 20532 net.cpp:434] conv9_2_mbox_priorbox <- data_data_0_split_6
I0602 10:03:19.968937 20532 net.cpp:408] conv9_2_mbox_priorbox -> conv9_2_mbox_priorbox
I0602 10:03:19.968964 20532 net.cpp:150] Setting up conv9_2_mbox_priorbox
I0602 10:03:19.968972 20532 net.cpp:157] Top shape: 1 2 16 (32)
I0602 10:03:19.968976 20532 net.cpp:165] Memory required for data: 992071072
I0602 10:03:19.968979 20532 layer_factory.hpp:77] Creating layer mbox_loc
I0602 10:03:19.968987 20532 net.cpp:100] Creating Layer mbox_loc
I0602 10:03:19.968993 20532 net.cpp:434] mbox_loc <- conv4_3_norm_mbox_loc_flat
I0602 10:03:19.968999 20532 net.cpp:434] mbox_loc <- fc7_mbox_loc_flat
I0602 10:03:19.969005 20532 net.cpp:434] mbox_loc <- conv6_2_mbox_loc_flat
I0602 10:03:19.969012 20532 net.cpp:434] mbox_loc <- conv7_2_mbox_loc_flat
I0602 10:03:19.969017 20532 net.cpp:434] mbox_loc <- conv8_2_mbox_loc_flat
I0602 10:03:19.969022 20532 net.cpp:434] mbox_loc <- conv9_2_mbox_loc_flat
I0602 10:03:19.969030 20532 net.cpp:408] mbox_loc -> mbox_loc
I0602 10:03:19.969058 20532 net.cpp:150] Setting up mbox_loc
I0602 10:03:19.969064 20532 net.cpp:157] Top shape: 4 34928 (139712)
I0602 10:03:19.969068 20532 net.cpp:165] Memory required for data: 992629920
I0602 10:03:19.969071 20532 layer_factory.hpp:77] Creating layer mbox_conf
I0602 10:03:19.969079 20532 net.cpp:100] Creating Layer mbox_conf
I0602 10:03:19.969084 20532 net.cpp:434] mbox_conf <- conv4_3_norm_mbox_conf_flat
I0602 10:03:19.969089 20532 net.cpp:434] mbox_conf <- fc7_mbox_conf_flat
I0602 10:03:19.969094 20532 net.cpp:434] mbox_conf <- conv6_2_mbox_conf_flat
I0602 10:03:19.969100 20532 net.cpp:434] mbox_conf <- conv7_2_mbox_conf_flat
I0602 10:03:19.969105 20532 net.cpp:434] mbox_conf <- conv8_2_mbox_conf_flat
I0602 10:03:19.969110 20532 net.cpp:434] mbox_conf <- conv9_2_mbox_conf_flat
I0602 10:03:19.969123 20532 net.cpp:408] mbox_conf -> mbox_conf
I0602 10:03:19.969151 20532 net.cpp:150] Setting up mbox_conf
I0602 10:03:19.969157 20532 net.cpp:157] Top shape: 4 34928 (139712)
I0602 10:03:19.969161 20532 net.cpp:165] Memory required for data: 993188768
I0602 10:03:19.969164 20532 layer_factory.hpp:77] Creating layer mbox_priorbox
I0602 10:03:19.969172 20532 net.cpp:100] Creating Layer mbox_priorbox
I0602 10:03:19.969177 20532 net.cpp:434] mbox_priorbox <- conv4_3_norm_mbox_priorbox
I0602 10:03:19.969182 20532 net.cpp:434] mbox_priorbox <- fc7_mbox_priorbox
I0602 10:03:19.969187 20532 net.cpp:434] mbox_priorbox <- conv6_2_mbox_priorbox
I0602 10:03:19.969192 20532 net.cpp:434] mbox_priorbox <- conv7_2_mbox_priorbox
I0602 10:03:19.969197 20532 net.cpp:434] mbox_priorbox <- conv8_2_mbox_priorbox
I0602 10:03:19.969202 20532 net.cpp:434] mbox_priorbox <- conv9_2_mbox_priorbox
I0602 10:03:19.969208 20532 net.cpp:408] mbox_priorbox -> mbox_priorbox
I0602 10:03:19.969233 20532 net.cpp:150] Setting up mbox_priorbox
I0602 10:03:19.969239 20532 net.cpp:157] Top shape: 1 2 34928 (69856)
I0602 10:03:19.969243 20532 net.cpp:165] Memory required for data: 993468192
I0602 10:03:19.969246 20532 layer_factory.hpp:77] Creating layer mbox_conf_reshape
I0602 10:03:19.969254 20532 net.cpp:100] Creating Layer mbox_conf_reshape
I0602 10:03:19.969259 20532 net.cpp:434] mbox_conf_reshape <- mbox_conf
I0602 10:03:19.969265 20532 net.cpp:408] mbox_conf_reshape -> mbox_conf_reshape
I0602 10:03:19.969298 20532 net.cpp:150] Setting up mbox_conf_reshape
I0602 10:03:19.969305 20532 net.cpp:157] Top shape: 4 8732 4 (139712)
I0602 10:03:19.969308 20532 net.cpp:165] Memory required for data: 994027040
I0602 10:03:19.969312 20532 layer_factory.hpp:77] Creating layer mbox_conf_softmax
I0602 10:03:19.969318 20532 net.cpp:100] Creating Layer mbox_conf_softmax
I0602 10:03:19.969323 20532 net.cpp:434] mbox_conf_softmax <- mbox_conf_reshape
I0602 10:03:19.969331 20532 net.cpp:408] mbox_conf_softmax -> mbox_conf_softmax
I0602 10:03:19.969535 20532 net.cpp:150] Setting up mbox_conf_softmax
I0602 10:03:19.969543 20532 net.cpp:157] Top shape: 4 8732 4 (139712)
I0602 10:03:19.969547 20532 net.cpp:165] Memory required for data: 994585888
I0602 10:03:19.969552 20532 layer_factory.hpp:77] Creating layer mbox_conf_flatten
I0602 10:03:19.969557 20532 net.cpp:100] Creating Layer mbox_conf_flatten
I0602 10:03:19.969560 20532 net.cpp:434] mbox_conf_flatten <- mbox_conf_softmax
I0602 10:03:19.969568 20532 net.cpp:408] mbox_conf_flatten -> mbox_conf_flatten
I0602 10:03:19.969595 20532 net.cpp:150] Setting up mbox_conf_flatten
I0602 10:03:19.969604 20532 net.cpp:157] Top shape: 4 34928 (139712)
I0602 10:03:19.969607 20532 net.cpp:165] Memory required for data: 995144736
I0602 10:03:19.969611 20532 layer_factory.hpp:77] Creating layer detection_out
I0602 10:03:19.969624 20532 net.cpp:100] Creating Layer detection_out
I0602 10:03:19.969627 20532 net.cpp:434] detection_out <- mbox_loc
I0602 10:03:19.969632 20532 net.cpp:434] detection_out <- mbox_conf_flatten
I0602 10:03:19.969640 20532 net.cpp:434] detection_out <- mbox_priorbox
I0602 10:03:19.969647 20532 net.cpp:408] detection_out -> detection_out
I0602 10:03:19.970769 20532 net.cpp:150] Setting up detection_out
I0602 10:03:19.970778 20532 net.cpp:157] Top shape: 1 1 1 7 (7)
I0602 10:03:19.970782 20532 net.cpp:165] Memory required for data: 995144764
I0602 10:03:19.970799 20532 layer_factory.hpp:77] Creating layer detection_eval
I0602 10:03:19.970806 20532 net.cpp:100] Creating Layer detection_eval
I0602 10:03:19.970824 20532 net.cpp:434] detection_eval <- detection_out
I0602 10:03:19.970830 20532 net.cpp:434] detection_eval <- label
I0602 10:03:19.970837 20532 net.cpp:408] detection_eval -> detection_eval
I0602 10:03:19.971555 20532 net.cpp:150] Setting up detection_eval
I0602 10:03:19.971563 20532 net.cpp:157] Top shape: 1 1 4 5 (20)
I0602 10:03:19.971567 20532 net.cpp:165] Memory required for data: 995144844
I0602 10:03:19.971571 20532 net.cpp:228] detection_eval does not need backward computation.
I0602 10:03:19.971583 20532 net.cpp:228] detection_out does not need backward computation.
I0602 10:03:19.971588 20532 net.cpp:228] mbox_conf_flatten does not need backward computation.
I0602 10:03:19.971593 20532 net.cpp:228] mbox_conf_softmax does not need backward computation.
…
