…
        min_scale: 0.3
        max_scale: 1
        min_aspect_ratio: 0.5
        max_aspect_ratio: 2
      }
      sample_constraint {
        min_jaccard_overlap: 0.9
      }
      max_sample: 1
      max_trials: 50
    }
    batch_sampler {
      sampler {
        min_scale: 0.3
        max_scale: 1
        min_aspect_ratio: 0.5
        max_aspect_ratio: 2
      }
      sample_constraint {
        max_jaccard_overlap: 1
      }
      max_sample: 1
      max_trials: 50
    }
    label_map_file: "data/tbs_300x300_HSIL_10x/labelmap_voc.prototxt"
  }
}
layer {
  name: "conv1_1"
  type: "Convolution"
  bottom: "data"
  top: "conv1_1"
  param {
    lr_mult: 1
    decay_mult: 1
  }
  param {
    lr_mult: 2
    decay_mult: 0
  }
  convolution_param {
    num_output: 64
    pad: 1
    kernel_size: 3
    weight_filler {
      type: "xavier"
    }
    bias_filler {
      type: "constant"
      value: 0
    }
  }
}
layer {
  name: "relu1_1"
  type: "ReLU"
  bottom: "conv1_1"
  top: "conv1_1"
}
layer {
  name: "conv1_2"
  type: "Convolution"
  bottom: "conv1_1"
  top: "conv1_2"
  param {
    lr_mult: 1
    decay_mult: 1
  }
  param {
    lr_mult: 2
    decay_mult: 0
  }
  convolution_param {
    num_output: 64
    pad: 1
    kernel_size: 3
    weight_filler {
      type: "xavier"
    }
    bias_filler {
      type: "constant"
      value: 0
    }
  }
}
layer {
  name: "relu1_2"
  type: "ReLU"
  bottom: "conv1_2"
  top: "conv1_2"
}
layer {
  name: "pool1"
  type: "Pooling"
  bottom: "conv1_2"
  top: "pool1"
  pooling_param {
    pool: MAX
    kernel_size: 2
    stride: 2
  }
}
layer {
  name: "conv2_1"
  type: "Convolution"
  bottom: "pool1"
  top: "conv2_1"
  param {
    lr_mult: 1
    decay_mult: 1
  }
  param {
    lr_mult: 2
    decay_mult: 0
  }
  convolution_param {
    num_output: 128
    pad: 1
    kernel_size: 3
    weight_filler {
      type: "xavier"
    }
    bias_filler {
      type: "constant"
      value: 0
    }
  }
}
layer {
  name: "relu2_1"
  type: "ReLU"
  bottom: "conv2_1"
  top: "conv2_1"
}
layer {
  name: "conv2_2"
  type: "Convolution"
  bottom: "conv2_1"
  top: "conv2_2"
  param {
    lr_mult: 1
    decay_mult: 1
  }
  param {
    lr_mult: 2
    decay_mult: 0
  }
  convolution_param {
    num_output: 128
    pad: 1
    kernel_size: 3
    weight_filler {
      type: "xavier"
    }
    bias_filler {
      type: "constant"
      value: 0
    }
  }
}
layer {
  name: "relu2_2"
  type: "ReLU"
  bottom: "conv2_2"
  top: "conv2_2"
}
layer {
  name: "pool2"
  type: "Pooling"
  bottom: "conv2_2"
  top: "pool2"
  pooling_param {
    pool: MAX
    kernel_size: 2
    stride: 2
  }
}
layer {
  name: "conv3_1"
  type: "Convolution"
  bottom: "pool2"
  top: "conv3_1"
  param {
    lr_mult: 1
    decay_mult: 1
  }
  param {
    lr_mult: 2
    decay_mult: 0
  }
  convolution_param {
    num_output: 256
    pad: 1
    kernel_size: 3
    weight_filler {
      type: "xavier"
    }
    bias_filler {
      type: "constant"
      value: 0
    }
  }
}
layer {
  name: "relu3_1"
  type: "ReLU"
  bottom: "conv3_1"
  top: "conv3_1"
}
layer {
  name: "conv3_2"
  type: "Convolution"
  bottom: "conv3_1"
  top: "conv3_2"
  param {
    lr_mult: 1
    decay_mult: 1
  }
  param {
    lr_mult: 2
    decay_mult: 0
  }
  convolution_param {
    num_output: 256
    pad: 1
    kernel_size: 3
    weight_filler {
      type: "xavier"
    }
    bias_filler {
      type: "constant"
      value: 0
    }
  }
}
layer {
  name: "relu3_2"
  type: "ReLU"
  bottom: "conv3_2"
  top: "conv3_2"
}
layer {
  name: "conv3_3"
  type: "Convolution"
  bottom: "conv3_2"
  top: "conv3_3"
  param {
    lr_mult: 1
    decay_mult: 1
  }
  param {
    lr_mult: 2
    decay_mult: 0
  }
  convolution_param {
    num_output: 256
    pad: 1
    kernel_size: 3
    weight_filler {
      type: "xavier"
    }
    bias_filler {
      type: "constant"
      value: 0
    }
  }
}
layer {
  name: "relu3_3"
  type: "ReLU"
  bottom: "conv3_3"
  top: "conv3_3"
}
layer {
  name: "pool3"
  type: "Pooling"
  bottom: "conv3_3"
  top: "pool3"
  pooling_param {
    pool: MAX
    kernel_size: 2
    stride: 2
  }
}
layer {
  name: "conv4_1"
  type: "Convolution"
  bottom: "pool3"
  top: "conv4_1"
  param {
    lr_mult: 1
    decay_mult: 1
  }
  param {
    lr_mult: 2
    decay_mult: 0
  }
  convolution_param {
    num_output: 512
    pad: 1
    kernel_size: 3
    weight_filler {
      type: "xavier"
    }
    bias_filler {
      type: "constant"
      value: 0
    }
  }
}
layer {
  name: "relu4_1"
  type: "ReLU"
  bottom: "conv4_1"
  top: "conv4_1"
}
layer {
  name: "conv4_2"
  type: "Convolution"
  bottom: "conv4_1"
  top: "conv4_2"
  param {
    lr_mult: 1
    decay_mult: 1
  }
  param {
    lr_mult: 2
    decay_mult: 0
  }
  convolution_param {
    num_output: 512
    pad: 1
    kernel_size: 3
    weight_filler {
      type: "xavier"
    }
    bias_filler {
      type: "constant"
      value: 0
    }
  }
}
layer {
  name: "relu4_2"
  type: "ReLU"
  bottom: "conv4_2"
  top: "conv4_2"
}
layer {
  name: "conv4_3"
  type: "Convolution"
  bottom: "conv4_2"
  top: "conv4_3"
  param {
    lr_mult: 1
    decay_mult: 1
  }
  param {
    lr_mult: 2
    decay_mult: 0
  }
  convolution_param {
    num_output: 512
    pad: 1
    kernel_size: 3
    weight_filler {
      type: "xavier"
    }
    bias_filler {
      type: "constant"
      value: 0
    }
  }
}
layer {
  name: "relu4_3"
  type: "ReLU"
  bottom: "conv4_3"
  top: "conv4_3"
}
layer {
  name: "pool4"
  type: "Pooling"
  bottom: "conv4_3"
  top: "pool4"
  pooling_param {
    pool: MAX
    kernel_size: 2
    stride: 2
  }
}
layer {
  name: "conv5_1"
  type: "Convolution"
  bottom: "pool4"
  top: "conv5_1"
  param {
    lr_mult: 1
    decay_mult: 1
  }
  param {
    lr_mult: 2
    decay_mult: 0
  }
  convolution_param {
    num_output: 512
    pad: 1
    kernel_size: 3
    weight_filler {
      type: "xavier"
    }
    bias_filler {
      type: "constant"
      value: 0
    }
    dilation: 1
  }
}
layer {
  name: "relu5_1"
  type: "ReLU"
  bottom: "conv5_1"
  top: "conv5_1"
}
layer {
  name: "conv5_2"
  type: "Convolution"
  bottom: "conv5_1"
  top: "conv5_2"
  param {
    lr_mult: 1
    decay_mult: 1
  }
  param {
    lr_mult: 2
    decay_mult: 0
  }
  convolution_param {
    num_output: 512
    pad: 1
    kernel_size: 3
    weight_filler {
      type: "xavier"
    }
    bias_filler {
      type: "constant"
      value: 0
    }
    dilation: 1
  }
}
layer {
  name: "relu5_2"
  type: "ReLU"
  bottom: "conv5_2"
  top: "conv5_2"
}
layer {
  name: "conv5_3"
  type: "Convolution"
  bottom: "conv5_2"
  top: "conv5_3"
  param {
    lr_mult: 1
    decay_mult: 1
  }
  param {
    lr_mult: 2
    decay_mult: 0
  }
  convolution_param {
    num_output: 512
    pad: 1
    kernel_size: 3
    weight_filler {
      type: "xavier"
    }
    bias_filler {
      type: "constant"
      value: 0
    }
    dilation: 1
  }
}
layer {
  name: "relu5_3"
  type: "ReLU"
  bottom: "conv5_3"
  top: "conv5_3"
}
layer {
  name: "pool5"
  type: "Pooling"
  bottom: "conv5_3"
  top: "pool5"
  pooling_param {
    pool: MAX
    kernel_size: 3
    stride: 1
    pad: 1
  }
}
layer {
  name: "fc6"
  type: "Convolution"
  bottom: "pool5"
  top: "fc6"
  param {
    lr_mult: 1
    decay_mult: 1
  }
  param {
    lr_mult: 2
    decay_mult: 0
  }
  convolution_param {
    num_output: 1024
    pad: 6
    kernel_size: 3
    weight_filler {
      type: "xavier"
    }
    bias_filler {
      type: "constant"
      value: 0
    }
    dilation: 6
  }
}
layer {
  name: "relu6"
  type: "ReLU"
  bottom: "fc6"
  top: "fc6"
}
layer {
  name: "fc7"
  type: "Convolution"
  bottom: "fc6"
  top: "fc7"
  param {
    lr_mult: 1
    decay_mult: 1
  }
  param {
    lr_mult: 2
    decay_mult: 0
  }
  convolution_param {
    num_output: 1024
    kernel_size: 1
    weight_filler {
      type: "xavier"
    }
    bias_filler {
      type: "constant"
      value: 0
    }
  }
}
layer {
  name: "relu7"
  type: "ReLU"
  bottom: "fc7"
  top: "fc7"
}
layer {
  name: "conv6_1"
  type: "Convolution"
  bottom: "fc7"
  top: "conv6_1"
  param {
    lr_mult: 1
    decay_mult: 1
  }
  param {
    lr_mult: 2
    decay_mult: 0
  }
  convolution_param {
    num_output: 256
    pad: 0
    kernel_size: 1
    stride: 1
    weight_filler {
      type: "xavier"
    }
    bias_filler {
      type: "constant"
      value: 0
    }
  }
}
layer {
  name: "conv6_1_relu"
  type: "ReLU"
  bottom: "conv6_1"
  top: "conv6_1"
}
layer {
  name: "conv6_2"
  type: "Convolution"
  bottom: "conv6_1"
  top: "conv6_2"
  param {
    lr_mult: 1
    decay_mult: 1
  }
  param {
    lr_mult: 2
    decay_mult: 0
  }
  convolution_param {
    num_output: 512
    pad: 1
    kernel_size: 3
    stride: 2
    weight_filler {
      type: "xavier"
    }
    bias_filler {
      type: "constant"
      value: 0
    }
  }
}
layer {
  name: "conv6_2_relu"
  type: "ReLU"
  bottom: "conv6_2"
  top: "conv6_2"
}
layer {
  name: "conv7_1"
  type: "Convolution"
  bottom: "conv6_2"
  top: "conv7_1"
  param {
    lr_mult: 1
    decay_mult: 1
  }
  param {
    lr_mult: 2
    decay_mult: 0
  }
  convolution_param {
    num_output: 128
    pad: 0
    kernel_size: 1
    stride: 1
    weight_filler {
      type: "xavier"
    }
    bias_filler {
      type: "constant"
      value: 0
    }
  }
}
layer {
  name: "conv7_1_relu"
  type: "ReLU"
  bottom: "conv7_1"
  top: "conv7_1"
}
layer {
  name: "conv7_2"
  type: "Convolution"
  bottom: "conv7_1"
  top: "conv7_2"
  param {
    lr_mult: 1
    decay_mult: 1
  }
  param {
    lr_mult: 2
    decay_mult: 0
  }
  convolution_param {
    num_output: 256
    pad: 1
    kernel_size: 3
    stride: 2
    weight_filler {
      type: "xavier"
    }
    bias_filler {
      type: "constant"
      value: 0
    }
  }
}
layer {
  name: "conv7_2_relu"
  type: "ReLU"
  bottom: "conv7_2"
  top: "conv7_2"
}
layer {
  name: "conv8_1"
  type: "Convolution"
  bottom: "conv7_2"
  top: "conv8_1"
  param {
    lr_mult: 1
    decay_mult: 1
  }
  param {
    lr_mult: 2
    decay_mult: 0
  }
  convolution_param {
    num_output: 128
    pad: 0
    kernel_size: 1
    stride: 1
    weight_filler {
      type: "xavier"
    }
    bias_filler {
      type: "constant"
      value: 0
    }
  }
}
layer {
  name: "conv8_1_relu"
  type: "ReLU"
  bottom: "conv8_1"
  top: "conv8_1"
}
layer {
  name: "conv8_2"
  type: "Convolution"
  bottom: "conv8_1"
  top: "conv8_2"
  param {
    lr_mult: 1
    decay_mult: 1
  }
  param {
    lr_mult: 2
    decay_mult: 0
  }
  convolution_param {
    num_output: 256
    pad: 0
    kernel_size: 3
    stride: 1
    weight_filler {
      type: "xavier"
    }
    bias_filler {
      type: "constant"
      value: 0
    }
  }
}
layer {
  name: "conv8_2_relu"
  type: "ReLU"
  bottom: "conv8_2"
  top: "conv8_2"
}
layer {
  name: "conv9_1"
  type: "Convolution"
  bottom: "conv8_2"
  top: "conv9_1"
  param {
    lr_mult: 1
    decay_mult: 1
  }
  param {
    lr_mult: 2
    decay_mult: 0
  }
  convolution_param {
    num_output: 128
    pad: 0
    kernel_size: 1
    stride: 1
    weight_filler {
      type: "xavier"
    }
    bias_filler {
      type: "constant"
      value: 0
    }
  }
}
layer {
  name: "conv9_1_relu"
  type: "ReLU"
  bottom: "conv9_1"
  top: "conv9_1"
}
layer {
  name: "conv9_2"
  type: "Convolution"
  bottom: "conv9_1"
  top: "conv9_2"
  param {
    lr_mult: 1
    decay_mult: 1
  }
  param {
    lr_mult: 2
    decay_mult: 0
  }
  convolution_param {
    num_output: 256
    pad: 0
    kernel_size: 3
    stride: 1
    weight_filler {
      type: "xavier"
    }
    bias_filler {
      type: "constant"
      value: 0
    }
  }
}
layer {
  name: "conv9_2_relu"
  type: "ReLU"
  bottom: "conv9_2"
  top: "conv9_2"
}
layer {
  name: "conv4_3_norm"
  type: "Normalize"
  bottom: "conv4_3"
  top: "conv4_3_norm"
  norm_param {
    across_spatial: false
    scale_filler {
      type: "constant"
      value: 20
    }
    channel_shared: false
  }
}
layer {
  name: "conv4_3_norm_mbox_loc"
  type: "Convolution"
  bottom: "conv4_3_norm"
  top: "conv4_3_norm_mbox_loc"
  param {
    lr_mult: 1
    decay_mult: 1
  }
  param {
    lr_mult: 2
    decay_mult: 0
  }
  convolution_param {
    num_output: 16
    pad: 1
    kernel_size: 3
    stride: 1
    weight_filler {
      type: "xavier"
    }
    bias_filler {
      type: "constant"
      value: 0
    }
  }
}
layer {
  name: "conv4_3_norm_mbox_loc_perm"
  type: "Permute"
  bottom: "conv4_3_norm_mbox_loc"
  top: "conv4_3_norm_mbox_loc_perm"
  permute_param {
    order: 0
    order: 2
    order: 3
    order: 1
  }
}
layer {
  name: "conv4_3_norm_mbox_loc_flat"
  type: "Flatten"
  bottom: "conv4_3_norm_mbox_loc_perm"
  top: "conv4_3_norm_mbox_loc_flat"
  flatten_param {
    axis: 1
  }
}
layer {
  name: "conv4_3_norm_mbox_conf"
  type: "Convolution"
  bottom: "conv4_3_norm"
  top: "conv4_3_norm_mbox_conf"
  param {
    lr_mult: 1
    decay_mult: 1
  }
  param {
    lr_mult: 2
    decay_mult: 0
  }
  convolution_param {
    num_output: 16
    pad: 1
    kernel_size: 3
    stride: 1
    weight_filler {
      type: "xavier"
    }
    bias_filler {
      type: "constant"
      value: 0
    }
  }
}
layer {
  name: "conv4_3_norm_mbox_conf_perm"
  type: "Permute"
  bottom: "conv4_3_norm_mbox_conf"
  top: "conv4_3_norm_mbox_conf_perm"
  permute_param {
    order: 0
    order: 2
    order: 3
    order: 1
  }
}
layer {
  name: "conv4_3_norm_mbox_conf_flat"
  type: "Flatten"
  bottom: "conv4_3_norm_mbox_conf_perm"
  top: "conv4_3_norm_mbox_conf_flat"
  flatten_param {
    axis: 1
  }
}
layer {
  name: "conv4_3_norm_mbox_priorbox"
  type: "PriorBox"
  bottom: "conv4_3_norm"
  bottom: "data"
  top: "conv4_3_norm_mbox_priorbox"
  prior_box_param {
    min_size: 30
    max_size: 60
    aspect_ratio: 2
    flip: true
    clip: false
    variance: 0.1
    variance: 0.1
    variance: 0.2
    variance: 0.2
    step: 8
    offset: 0.5
  }
}
layer {
  name: "fc7_mbox_loc"
  type: "Convolution"
  bottom: "fc7"
  top: "fc7_mbox_loc"
  param {
    lr_mult: 1
    decay_mult: 1
  }
  param {
    lr_mult: 2
    decay_mult: 0
  }
  convolution_param {
    num_output: 24
    pad: 1
    kernel_size: 3
    stride: 1
    weight_filler {
      type: "xavier"
    }
    bias_filler {
      type: "constant"
      value: 0
    }
  }
}
layer {
  name: "fc7_mbox_loc_perm"
  type: "Permute"
  bottom: "fc7_mbox_loc"
  top: "fc7_mbox_loc_perm"
  permute_param {
    order: 0
    order: 2
    order: 3
    order: 1
  }
}
layer {
  name: "fc7_mbox_loc_flat"
  type: "Flatten"
  bottom: "fc7_mbox_loc_perm"
  top: "fc7_mbox_loc_flat"
  flatten_param {
    axis: 1
  }
}
layer {
  name: "fc7_mbox_conf"
  type: "Convolution"
  bottom: "fc7"
  top: "fc7_mbox_conf"
  param {
    lr_mult: 1
    decay_mult: 1
  }
  param {
    lr_mult: 2
    decay_mult: 0
  }
  convolution_param {
    num_output: 24
    pad: 1
    kernel_size: 3
    stride: 1
    weight_filler {
      type: "xavier"
    }
    bias_filler {
      type: "constant"
      value: 0
    }
  }
}
layer {
  name: "fc7_mbox_conf_perm"
  type: "Permute"
  bottom: "fc7_mbox_conf"
  top: "fc7_mbox_conf_perm"
  permute_param {
    order: 0
    order: 2
    order: 3
    order: 1
  }
}
layer {
  name: "fc7_mbox_conf_flat"
  type: "Flatten"
  bottom: "fc7_mbox_conf_perm"
  top: "fc7_mbox_conf_flat"
  flatten_param {
    axis: 1
  }
}
layer {
  name: "fc7_mbox_priorbox"
  type: "PriorBox"
  bottom: "fc7"
  bottom: "data"
  top: "fc7_mbox_priorbox"
  prior_box_param {
    min_size: 60
    max_size: 111
    aspect_ratio: 2
    aspect_ratio: 3
    flip: true
    clip: false
    variance: 0.1
    variance: 0.1
    variance: 0.2
    variance: 0.2
    step: 16
    offset: 0.5
  }
}
layer {
  name: "conv6_2_mbox_loc"
  type: "Convolution"
  bottom: "conv6_2"
  top: "conv6_2_mbox_loc"
  param {
    lr_mult: 1
    decay_mult: 1
  }
  param {
    lr_mult: 2
    decay_mult: 0
  }
  convolution_param {
    num_output: 24
    pad: 1
    kernel_size: 3
    stride: 1
    weight_filler {
      type: "xavier"
    }
    bias_filler {
      type: "constant"
      value: 0
    }
  }
}
layer {
  name: "conv6_2_mbox_loc_perm"
  type: "Permute"
  bottom: "conv6_2_mbox_loc"
  top: "conv6_2_mbox_loc_perm"
  permute_param {
    order: 0
    order: 2
    order: 3
    order: 1
  }
}
layer {
  name: "conv6_2_mbox_loc_flat"
  type: "Flatten"
  bottom: "conv6_2_mbox_loc_perm"
  top: "conv6_2_mbox_loc_flat"
  flatten_param {
    axis: 1
  }
}
layer {
  name: "conv6_2_mbox_conf"
  type: "Convolution"
  bottom: "conv6_2"
  top: "conv6_2_mbox_conf"
  param {
    lr_mult: 1
    decay_mult: 1
  }
  param {
    lr_mult: 2
    decay_mult: 0
  }
  convolution_param {
    num_output: 24
    pad: 1
    kernel_size: 3
    stride: 1
    weight_filler {
      type: "xavier"
    }
    bias_filler {
      type: "constant"
      value: 0
    }
  }
}
layer {
  name: "conv6_2_mbox_conf_perm"
  type: "Permute"
  bottom: "conv6_2_mbox_conf"
  top: "conv6_2_mbox_conf_perm"
  permute_param {
    order: 0
    order: 2
    order: 3
    order: 1
  }
}
layer {
  name: "conv6_2_mbox_conf_flat"
  type: "Flatten"
  bottom: "conv6_2_mbox_conf_perm"
  top: "conv6_2_mbox_conf_flat"
  flatten_param {
    axis: 1
  }
}
layer {
  name: "conv6_2_mbox_priorbox"
  type: "PriorBox"
  bottom: "conv6_2"
  bottom: "data"
  top: "conv6_2_mbox_priorbox"
  prior_box_param {
    min_size: 111
    max_size: 162
    aspect_ratio: 2
    aspect_ratio: 3
    flip: true
    clip: false
    variance: 0.1
    variance: 0.1
    variance: 0.2
    variance: 0.2
    step: 32
    offset: 0.5
  }
}
layer {
  name: "conv7_2_mbox_loc"
  type: "Convolution"
  bottom: "conv7_2"
  top: "conv7_2_mbox_loc"
  param {
    lr_mult: 1
    decay_mult: 1
  }
  param {
    lr_mult: 2
    decay_mult: 0
  }
  convolution_param {
    num_output: 24
    pad: 1
    kernel_size: 3
    stride: 1
    weight_filler {
      type: "xavier"
    }
    bias_filler {
      type: "constant"
      value: 0
    }
  }
}
layer {
  name: "conv7_2_mbox_loc_perm"
  type: "Permute"
  bottom: "conv7_2_mbox_loc"
  top: "conv7_2_mbox_loc_perm"
  permute_param {
    order: 0
    order: 2
    order: 3
    order: 1
  }
}
layer {
  name: "conv7_2_mbox_loc_flat"
  type: "Flatten"
  bottom: "conv7_2_mbox_loc_perm"
  top: "conv7_2_mbox_loc_flat"
  flatten_param {
    axis: 1
  }
}
layer {
  name: "conv7_2_mbox_conf"
  type: "Convolution"
  bottom: "conv7_2"
  top: "conv7_2_mbox_conf"
  param {
    lr_mult: 1
    decay_mult: 1
  }
  param {
    lr_mult: 2
    decay_mult: 0
  }
  convolution_param {
    num_output: 24
    pad: 1
    kernel_size: 3
    stride: 1
    weight_filler {
      type: "xavier"
    }
    bias_filler {
      type: "constant"
      value: 0
    }
  }
}
layer {
  name: "conv7_2_mbox_conf_perm"
  type: "Permute"
  bottom: "conv7_2_mbox_conf"
  top: "conv7_2_mbox_conf_perm"
  permute_param {
    order: 0
    order: 2
    order: 3
    order: 1
  }
}
layer {
  name: "conv7_2_mbox_conf_flat"
  type: "Flatten"
  bottom: "conv7_2_mbox_conf_perm"
  top: "conv7_2_mbox_conf_flat"
  flatten_param {
    axis: 1
  }
}
layer {
  name: "conv7_2_mbox_priorbox"
  type: "PriorBox"
  bottom: "conv7_2"
  bottom: "data"
  top: "conv7_2_mbox_priorbox"
  prior_box_param {
    min_size: 162
    max_size: 213
    aspect_ratio: 2
    aspect_ratio: 3
    flip: true
    clip: false
    variance: 0.1
    variance: 0.1
    variance: 0.2
    variance: 0.2
    step: 64
    offset: 0.5
  }
}
layer {
  name: "conv8_2_mbox_loc"
  type: "Convolution"
  bottom: "conv8_2"
  top: "conv8_2_mbox_loc"
  param {
    lr_mult: 1
    decay_mult: 1
  }
  param {
    lr_mult: 2
    decay_mult: 0
  }
  convolution_param {
    num_output: 16
    pad: 1
    kernel_size: 3
    stride: 1
    weight_filler {
      type: "xavier"
    }
    bias_filler {
      type: "constant"
      value: 0
    }
  }
}
layer {
  name: "conv8_2_mbox_loc_perm"
  type: "Permute"
  bottom: "conv8_2_mbox_loc"
  top: "conv8_2_mbox_loc_perm"
  permute_param {
    order: 0
    order: 2
    order: 3
    order: 1
  }
}
layer {
  name: "conv8_2_mbox_loc_flat"
  type: "Flatten"
  bottom: "conv8_2_mbox_loc_perm"
  top: "conv8_2_mbox_loc_flat"
  flatten_param {
    axis: 1
  }
}
layer {
  name: "conv8_2_mbox_conf"
  type: "Convolution"
  bottom: "conv8_2"
  top: "conv8_2_mbox_conf"
  param {
    lr_mult: 1
    decay_mult: 1
  }
  param {
    lr_mult: 2
    decay_mult: 0
  }
  convolution_param {
    num_output: 16
    pad: 1
    kernel_size: 3
    stride: 1
    weight_filler {
      type: "xavier"
    }
    bias_filler {
      type: "constant"
      value: 0
    }
  }
}
layer {
  name: "conv8_2_mbox_conf_perm"
  type: "Permute"
  bottom: "conv8_2_mbox_conf"
  top: "conv8_2_mbox_conf_perm"
  permute_param {
    order: 0
    order: 2
    order: 3
    order: 1
  }
}
layer {
  name: "conv8_2_mbox_conf_flat"
  type: "Flatten"
  bottom: "conv8_2_mbox_conf_perm"
  top: "conv8_2_mbox_conf_flat"
  flatten_param {
    axis: 1
  }
}
layer {
  name: "conv8_2_mbox_priorbox"
  type: "PriorBox"
  bottom: "conv8_2"
  bottom: "data"
  top: "conv8_2_mbox_priorbox"
  prior_box_param {
    min_size: 213
    max_size: 264
    aspect_ratio: 2
    flip: true
    clip: false
    variance: 0.1
    variance: 0.1
    variance: 0.2
    variance: 0.2
    step: 100
    offset: 0.5
  }
}
layer {
  name: "conv9_2_mbox_loc"
  type: "Convolution"
  bottom: "conv9_2"
  top: "conv9_2_mbox_loc"
  param {
    lr_mult: 1
    decay_mult: 1
  }
  param {
    lr_mult: 2
    decay_mult: 0
  }
  convolution_param {
    num_output: 16
    pad: 1
    kernel_size: 3
    stride: 1
    weight_filler {
      type: "xavier"
    }
    bias_filler {
      type: "constant"
      value: 0
    }
  }
}
layer {
  name: "conv9_2_mbox_loc_perm"
  type: "Permute"
  bottom: "conv9_2_mbox_loc"
  top: "conv9_2_mbox_loc_perm"
  permute_param {
    order: 0
    order: 2
    order: 3
    order: 1
  }
}
layer {
  name: "conv9_2_mbox_loc_flat"
  type: "Flatten"
  bottom: "conv9_2_mbox_loc_perm"
  top: "conv9_2_mbox_loc_flat"
  flatten_param {
    axis: 1
  }
}
layer {
  name: "conv9_2_mbox_conf"
  type: "Convolution"
  bottom: "conv9_2"
  top: "conv9_2_mbox_conf"
  param {
    lr_mult: 1
    decay_mult: 1
  }
  param {
    lr_mult: 2
    decay_mult: 0
  }
  convolution_param {
    num_output: 16
    pad: 1
    kernel_size: 3
    stride: 1
    weight_filler {
      type: "xavier"
    }
    bias_filler {
      type: "constant"
      value: 0
    }
  }
}
layer {
  name: "conv9_2_mbox_conf_perm"
  type: "Permute"
  bottom: "conv9_2_mbox_conf"
  top: "conv9_2_mbox_conf_perm"
  permute_param {
    order: 0
    order: 2
    order: 3
    order: 1
  }
}
layer {
  name: "conv9_2_mbox_conf_flat"
  type: "Flatten"
  bottom: "conv9_2_mbox_conf_perm"
  top: "conv9_2_mbox_conf_flat"
  flatten_param {
    axis: 1
  }
}
layer {
  name: "conv9_2_mbox_priorbox"
  type: "PriorBox"
  bottom: "conv9_2"
  bottom: "data"
  top: "conv9_2_mbox_priorbox"
  prior_box_param {
    min_size: 264
    max_size: 315
    aspect_ratio: 2
    flip: true
    clip: false
    variance: 0.1
    variance: 0.1
    variance: 0.2
    variance: 0.2
    step: 300
    offset: 0.5
  }
}
layer {
  name: "mbox_loc"
  type: "Concat"
  bottom: "conv4_3_norm_mbox_loc_flat"
  bottom: "fc7_mbox_loc_flat"
  bottom: "conv6_2_mbox_loc_flat"
  bottom: "conv7_2_mbox_loc_flat"
  bottom: "conv8_2_mbox_loc_flat"
  bottom: "conv9_2_mbox_loc_flat"
  top: "mbox_loc"
  concat_param {
    axis: 1
  }
}
layer {
  name: "mbox_conf"
  type: "Concat"
  bottom: "conv4_3_norm_mbox_conf_flat"
  bottom: "fc7_mbox_conf_flat"
  bottom: "conv6_2_mbox_conf_flat"
  bottom: "conv7_2_mbox_conf_flat"
  bottom: "conv8_2_mbox_conf_flat"
  bottom: "conv9_2_mbox_conf_flat"
  top: "mbox_conf"
  concat_param {
    axis: 1
  }
}
layer {
  name: "mbox_priorbox"
  type: "Concat"
  bottom: "conv4_3_norm_mbox_priorbox"
  bottom: "fc7_mbox_priorbox"
  bottom: "conv6_2_mbox_priorbox"
  bottom: "conv7_2_mbox_priorbox"
  bottom: "conv8_2_mbox_priorbox"
  bottom: "conv9_2_mbox_priorbox"
  top: "mbox_priorbox"
  concat_param {
    axis: 2
  }
}
layer {
  name: "mbox_loss"
  type: "MultiBoxLoss"
  bottom: "mbox_loc"
  bottom: "mbox_conf"
  bottom: "mbox_priorbox"
  bottom: "label"
  top: "mbox_loss"
  include {
    phase: TRAIN
  }
  propagate_down: true
  propagate_down: true
  propagate_down: false
  propagate_down: false
  loss_param {
    normalization: VALID
  }
  multibox_loss_param {
    loc_loss_type: SMOOTH_L1
    conf_loss_type: SOFTMAX
    loc_weight: 1
    num_classes: 4
    share_location: true
    match_type: PER_PREDICTION
    overlap_threshold: 0.5
    use_prior_for_matching: true
    background_label_id: 0
    use_difficult_gt: true
    neg_pos_ratio: 3
    neg_overlap: 0.5
    code_type: CENTER_SIZE
    ignore_cross_boundary_bbox: false
    mining_type: MAX_NEGATIVE
  }
}
I0601 17:38:45.861263  8007 layer_factory.hpp:77] Creating layer data
I0601 17:38:45.861423  8007 net.cpp:100] Creating Layer data
I0601 17:38:45.861438  8007 net.cpp:408] data -> data
I0601 17:38:45.861471  8007 net.cpp:408] data -> label
I0601 17:38:45.861882  8020 db_lmdb.cpp:35] Opened lmdb examples/tbs_300x300_HSIL_10x/tbs_300x300_HSIL_10x_trainval_lmdb
I0601 17:38:45.968466  8007 annotated_data_layer.cpp:62] output data size: 32,3,300,300
I0601 17:38:46.055930  8007 net.cpp:150] Setting up data
I0601 17:38:46.055964  8007 net.cpp:157] Top shape: 32 3 300 300 (8640000)
I0601 17:38:46.055969  8007 net.cpp:157] Top shape: 1 1 5 8 (40)
I0601 17:38:46.055989  8007 net.cpp:165] Memory required for data: 34560160
I0601 17:38:46.056008  8007 layer_factory.hpp:77] Creating layer data_data_0_split
I0601 17:38:46.056020  8007 net.cpp:100] Creating Layer data_data_0_split
I0601 17:38:46.056026  8007 net.cpp:434] data_data_0_split <- data
I0601 17:38:46.056036  8007 net.cpp:408] data_data_0_split -> data_data_0_split_0
I0601 17:38:46.056044  8007 net.cpp:408] data_data_0_split -> data_data_0_split_1
I0601 17:38:46.056049  8007 net.cpp:408] data_data_0_split -> data_data_0_split_2
I0601 17:38:46.056056  8007 net.cpp:408] data_data_0_split -> data_data_0_split_3
I0601 17:38:46.056059  8007 net.cpp:408] data_data_0_split -> data_data_0_split_4
I0601 17:38:46.056064  8007 net.cpp:408] data_data_0_split -> data_data_0_split_5
I0601 17:38:46.056068  8007 net.cpp:408] data_data_0_split -> data_data_0_split_6
I0601 17:38:46.056138  8007 net.cpp:150] Setting up data_data_0_split
I0601 17:38:46.056144  8007 net.cpp:157] Top shape: 32 3 300 300 (8640000)
I0601 17:38:46.056147  8007 net.cpp:157] Top shape: 32 3 300 300 (8640000)
I0601 17:38:46.056150  8007 net.cpp:157] Top shape: 32 3 300 300 (8640000)
I0601 17:38:46.056154  8007 net.cpp:157] Top shape: 32 3 300 300 (8640000)
I0601 17:38:46.056155  8007 net.cpp:157] Top shape: 32 3 300 300 (8640000)
I0601 17:38:46.056159  8007 net.cpp:157] Top shape: 32 3 300 300 (8640000)
I0601 17:38:46.056161  8007 net.cpp:157] Top shape: 32 3 300 300 (8640000)
I0601 17:38:46.056164  8007 net.cpp:165] Memory required for data: 276480160
I0601 17:38:46.056165  8007 layer_factory.hpp:77] Creating layer conv1_1
I0601 17:38:46.056177  8007 net.cpp:100] Creating Layer conv1_1
I0601 17:38:46.056180  8007 net.cpp:434] conv1_1 <- data_data_0_split_0
I0601 17:38:46.056185  8007 net.cpp:408] conv1_1 -> conv1_1
I0601 17:38:46.323158  8007 net.cpp:150] Setting up conv1_1
I0601 17:38:46.323182  8007 net.cpp:157] Top shape: 32 64 300 300 (184320000)
I0601 17:38:46.323185  8007 net.cpp:165] Memory required for data: 1013760160
I0601 17:38:46.323200  8007 layer_factory.hpp:77] Creating layer relu1_1
I0601 17:38:46.323209  8007 net.cpp:100] Creating Layer relu1_1
I0601 17:38:46.323211  8007 net.cpp:434] relu1_1 <- conv1_1
I0601 17:38:46.323217  8007 net.cpp:395] relu1_1 -> conv1_1 (in-place)
I0601 17:38:46.324347  8007 net.cpp:150] Setting up relu1_1
I0601 17:38:46.324362  8007 net.cpp:157] Top shape: 32 64 300 300 (184320000)
I0601 17:38:46.324368  8007 net.cpp:165] Memory required for data: 1751040160
I0601 17:38:46.324371  8007 layer_factory.hpp:77] Creating layer conv1_2
I0601 17:38:46.324386  8007 net.cpp:100] Creating Layer conv1_2
I0601 17:38:46.324394  8007 net.cpp:434] conv1_2 <- conv1_1
I0601 17:38:46.324401  8007 net.cpp:408] conv1_2 -> conv1_2
I0601 17:38:46.331297  8007 net.cpp:150] Setting up conv1_2
I0601 17:38:46.331310  8007 net.cpp:157] Top shape: 32 64 300 300 (184320000)
I0601 17:38:46.331313  8007 net.cpp:165] Memory required for data: 2488320160
I0601 17:38:46.331322  8007 layer_factory.hpp:77] Creating layer relu1_2
I0601 17:38:46.331328  8007 net.cpp:100] Creating Layer relu1_2
I0601 17:38:46.331333  8007 net.cpp:434] relu1_2 <- conv1_2
I0601 17:38:46.331339  8007 net.cpp:395] relu1_2 -> conv1_2 (in-place)
I0601 17:38:46.333444  8007 net.cpp:150] Setting up relu1_2
I0601 17:38:46.333457  8007 net.cpp:157] Top shape: 32 64 300 300 (184320000)
I0601 17:38:46.333462  8007 net.cpp:165] Memory required for data: 3225600160
I0601 17:38:46.333467  8007 layer_factory.hpp:77] Creating layer pool1
I0601 17:38:46.333475  8007 net.cpp:100] Creating Layer pool1
I0601 17:38:46.333493  8007 net.cpp:434] pool1 <- conv1_2
I0601 17:38:46.333513  8007 net.cpp:408] pool1 -> pool1
I0601 17:38:46.333585  8007 net.cpp:150] Setting up pool1
I0601 17:38:46.333606  8007 net.cpp:157] Top shape: 32 64 150 150 (46080000)
I0601 17:38:46.333621  8007 net.cpp:165] Memory required for data: 3409920160
I0601 17:38:46.333636  8007 layer_factory.hpp:77] Creating layer conv2_1
I0601 17:38:46.333664  8007 net.cpp:100] Creating Layer conv2_1
I0601 17:38:46.333688  8007 net.cpp:434] conv2_1 <- pool1
I0601 17:38:46.333705  8007 net.cpp:408] conv2_1 -> conv2_1
I0601 17:38:46.343392  8007 net.cpp:150] Setting up conv2_1
I0601 17:38:46.343413  8007 net.cpp:157] Top shape: 32 128 150 150 (92160000)
I0601 17:38:46.343417  8007 net.cpp:165] Memory required for data: 3778560160
I0601 17:38:46.343431  8007 layer_factory.hpp:77] Creating layer relu2_1
I0601 17:38:46.343444  8007 net.cpp:100] Creating Layer relu2_1
I0601 17:38:46.343461  8007 net.cpp:434] relu2_1 <- conv2_1
I0601 17:38:46.343478  8007 net.cpp:395] relu2_1 -> conv2_1 (in-place)
I0601 17:38:46.345147  8007 net.cpp:150] Setting up relu2_1
I0601 17:38:46.345176  8007 net.cpp:157] Top shape: 32 128 150 150 (92160000)
I0601 17:38:46.345192  8007 net.cpp:165] Memory required for data: 4147200160
I0601 17:38:46.345207  8007 layer_factory.hpp:77] Creating layer conv2_2
I0601 17:38:46.345230  8007 net.cpp:100] Creating Layer conv2_2
I0601 17:38:46.345247  8007 net.cpp:434] conv2_2 <- conv2_1
I0601 17:38:46.345265  8007 net.cpp:408] conv2_2 -> conv2_2
I0601 17:38:46.352367  8007 net.cpp:150] Setting up conv2_2
I0601 17:38:46.352383  8007 net.cpp:157] Top shape: 32 128 150 150 (92160000)
I0601 17:38:46.352388  8007 net.cpp:165] Memory required for data: 4515840160
I0601 17:38:46.352397  8007 layer_factory.hpp:77] Creating layer relu2_2
I0601 17:38:46.352406  8007 net.cpp:100] Creating Layer relu2_2
I0601 17:38:46.352411  8007 net.cpp:434] relu2_2 <- conv2_2
I0601 17:38:46.352430  8007 net.cpp:395] relu2_2 -> conv2_2 (in-place)
I0601 17:38:46.355069  8007 net.cpp:150] Setting up relu2_2
I0601 17:38:46.355089  8007 net.cpp:157] Top shape: 32 128 150 150 (92160000)
I0601 17:38:46.355093  8007 net.cpp:165] Memory required for data: 4884480160
I0601 17:38:46.355098  8007 layer_factory.hpp:77] Creating layer pool2
I0601 17:38:46.355108  8007 net.cpp:100] Creating Layer pool2
I0601 17:38:46.355129  8007 net.cpp:434] pool2 <- conv2_2
I0601 17:38:46.355147  8007 net.cpp:408] pool2 -> pool2
I0601 17:38:46.355224  8007 net.cpp:150] Setting up pool2
I0601 17:38:46.355244  8007 net.cpp:157] Top shape: 32 128 75 75 (23040000)
I0601 17:38:46.355257  8007 net.cpp:165] Memory required for data: 4976640160
I0601 17:38:46.355271  8007 layer_factory.hpp:77] Creating layer conv3_1
I0601 17:38:46.355293  8007 net.cpp:100] Creating Layer conv3_1
I0601 17:38:46.355307  8007 net.cpp:434] conv3_1 <- pool2
I0601 17:38:46.355324  8007 net.cpp:408] conv3_1 -> conv3_1
I0601 17:38:46.366739  8007 net.cpp:150] Setting up conv3_1
I0601 17:38:46.366760  8007 net.cpp:157] Top shape: 32 256 75 75 (46080000)
I0601 17:38:46.366765  8007 net.cpp:165] Memory required for data: 5160960160
I0601 17:38:46.366778  8007 layer_factory.hpp:77] Creating layer relu3_1
I0601 17:38:46.366788  8007 net.cpp:100] Creating Layer relu3_1
I0601 17:38:46.366797  8007 net.cpp:434] relu3_1 <- conv3_1
I0601 17:38:46.366807  8007 net.cpp:395] relu3_1 -> conv3_1 (in-place)
I0601 17:38:46.368072  8007 net.cpp:150] Setting up relu3_1
I0601 17:38:46.368086  8007 net.cpp:157] Top shape: 32 256 75 75 (46080000)
I0601 17:38:46.368093  8007 net.cpp:165] Memory required for data: 5345280160
I0601 17:38:46.368096  8007 layer_factory.hpp:77] Creating layer conv3_2
I0601 17:38:46.368108  8007 net.cpp:100] Creating Layer conv3_2
I0601 17:38:46.368111  8007 net.cpp:434] conv3_2 <- conv3_1
I0601 17:38:46.368120  8007 net.cpp:408] conv3_2 -> conv3_2
I0601 17:38:46.379568  8007 net.cpp:150] Setting up conv3_2
I0601 17:38:46.379590  8007 net.cpp:157] Top shape: 32 256 75 75 (46080000)
I0601 17:38:46.379595  8007 net.cpp:165] Memory required for data: 5529600160
I0601 17:38:46.379606  8007 layer_factory.hpp:77] Creating layer relu3_2
I0601 17:38:46.379614  8007 net.cpp:100] Creating Layer relu3_2
I0601 17:38:46.379619  8007 net.cpp:434] relu3_2 <- conv3_2
I0601 17:38:46.379626  8007 net.cpp:395] relu3_2 -> conv3_2 (in-place)
I0601 17:38:46.379776  8007 net.cpp:150] Setting up relu3_2
I0601 17:38:46.379786  8007 net.cpp:157] Top shape: 32 256 75 75 (46080000)
I0601 17:38:46.379789  8007 net.cpp:165] Memory required for data: 5713920160
I0601 17:38:46.379806  8007 layer_factory.hpp:77] Creating layer conv3_3
I0601 17:38:46.379822  8007 net.cpp:100] Creating Layer conv3_3
I0601 17:38:46.379827  8007 net.cpp:434] conv3_3 <- conv3_2
I0601 17:38:46.379834  8007 net.cpp:408] conv3_3 -> conv3_3
I0601 17:38:46.386380  8007 net.cpp:150] Setting up conv3_3
I0601 17:38:46.386400  8007 net.cpp:157] Top shape: 32 256 75 75 (46080000)
I0601 17:38:46.386404  8007 net.cpp:165] Memory required for data: 5898240160
I0601 17:38:46.386415  8007 layer_factory.hpp:77] Creating layer relu3_3
I0601 17:38:46.386422  8007 net.cpp:100] Creating Layer relu3_3
I0601 17:38:46.386428  8007 net.cpp:434] relu3_3 <- conv3_3
I0601 17:38:46.386436  8007 net.cpp:395] relu3_3 -> conv3_3 (in-place)
I0601 17:38:46.389072  8007 net.cpp:150] Setting up relu3_3
I0601 17:38:46.389088  8007 net.cpp:157] Top shape: 32 256 75 75 (46080000)
I0601 17:38:46.389093  8007 net.cpp:165] Memory required for data: 6082560160
I0601 17:38:46.389097  8007 layer_factory.hpp:77] Creating layer pool3
I0601 17:38:46.389106  8007 net.cpp:100] Creating Layer pool3
I0601 17:38:46.389112  8007 net.cpp:434] pool3 <- conv3_3
I0601 17:38:46.389120  8007 net.cpp:408] pool3 -> pool3
I0601 17:38:46.389178  8007 net.cpp:150] Setting up pool3
I0601 17:38:46.389188  8007 net.cpp:157] Top shape: 32 256 38 38 (11829248)
I0601 17:38:46.389191  8007 net.cpp:165] Memory required for data: 6129877152
I0601 17:38:46.389195  8007 layer_factory.hpp:77] Creating layer conv4_1
I0601 17:38:46.389205  8007 net.cpp:100] Creating Layer conv4_1
I0601 17:38:46.389209  8007 net.cpp:434] conv4_1 <- pool3
I0601 17:38:46.389216  8007 net.cpp:408] conv4_1 -> conv4_1
I0601 17:38:46.402894  8007 net.cpp:150] Setting up conv4_1
I0601 17:38:46.402914  8007 net.cpp:157] Top shape: 32 512 38 38 (23658496)
I0601 17:38:46.402918  8007 net.cpp:165] Memory required for data: 6224511136
I0601 17:38:46.402927  8007 layer_factory.hpp:77] Creating layer relu4_1
I0601 17:38:46.402936  8007 net.cpp:100] Creating Layer relu4_1
I0601 17:38:46.402943  8007 net.cpp:434] relu4_1 <- conv4_1
I0601 17:38:46.402950  8007 net.cpp:395] relu4_1 -> conv4_1 (in-place)
I0601 17:38:46.404779  8007 net.cpp:150] Setting up relu4_1
I0601 17:38:46.404791  8007 net.cpp:157] Top shape: 32 512 38 38 (23658496)
I0601 17:38:46.404796  8007 net.cpp:165] Memory required for data: 6319145120
I0601 17:38:46.404801  8007 layer_factory.hpp:77] Creating layer conv4_2
I0601 17:38:46.404813  8007 net.cpp:100] Creating Layer conv4_2
I0601 17:38:46.404816  8007 net.cpp:434] conv4_2 <- conv4_1
I0601 17:38:46.404824  8007 net.cpp:408] conv4_2 -> conv4_2
I0601 17:38:46.420094  8007 net.cpp:150] Setting up conv4_2
I0601 17:38:46.420114  8007 net.cpp:157] Top shape: 32 512 38 38 (23658496)
I0601 17:38:46.420117  8007 net.cpp:165] Memory required for data: 6413779104
I0601 17:38:46.420131  8007 layer_factory.hpp:77] Creating layer relu4_2
I0601 17:38:46.420140  8007 net.cpp:100] Creating Layer relu4_2
I0601 17:38:46.420146  8007 net.cpp:434] relu4_2 <- conv4_2
I0601 17:38:46.420153  8007 net.cpp:395] relu4_2 -> conv4_2 (in-place)
I0601 17:38:46.423079  8007 net.cpp:150] Setting up relu4_2
I0601 17:38:46.423092  8007 net.cpp:157] Top shape: 32 512 38 38 (23658496)
I0601 17:38:46.423096  8007 net.cpp:165] Memory required for data: 6508413088
I0601 17:38:46.423101  8007 layer_factory.hpp:77] Creating layer conv4_3
I0601 17:38:46.423115  8007 net.cpp:100] Creating Layer conv4_3
I0601 17:38:46.423120  8007 net.cpp:434] conv4_3 <- conv4_2
I0601 17:38:46.423126  8007 net.cpp:408] conv4_3 -> conv4_3
I0601 17:38:46.438829  8007 net.cpp:150] Setting up conv4_3
I0601 17:38:46.438851  8007 net.cpp:157] Top shape: 32 512 38 38 (23658496)
I0601 17:38:46.438855  8007 net.cpp:165] Memory required for data: 6603047072
I0601 17:38:46.438864  8007 layer_factory.hpp:77] Creating layer relu4_3
I0601 17:38:46.438874  8007 net.cpp:100] Creating Layer relu4_3
I0601 17:38:46.438879  8007 net.cpp:434] relu4_3 <- conv4_3
I0601 17:38:46.438887  8007 net.cpp:395] relu4_3 -> conv4_3 (in-place)
I0601 17:38:46.441020  8007 net.cpp:150] Setting up relu4_3
I0601 17:38:46.441032  8007 net.cpp:157] Top shape: 32 512 38 38 (23658496)
I0601 17:38:46.441037  8007 net.cpp:165] Memory required for data: 6697681056
I0601 17:38:46.441041  8007 layer_factory.hpp:77] Creating layer conv4_3_relu4_3_0_split
I0601 17:38:46.441048  8007 net.cpp:100] Creating Layer conv4_3_relu4_3_0_split
I0601 17:38:46.441054  8007 net.cpp:434] conv4_3_relu4_3_0_split <- conv4_3
I0601 17:38:46.441063  8007 net.cpp:408] conv4_3_relu4_3_0_split -> conv4_3_relu4_3_0_split_0
I0601 17:38:46.441073  8007 net.cpp:408] conv4_3_relu4_3_0_split -> conv4_3_relu4_3_0_split_1
I0601 17:38:46.441115  8007 net.cpp:150] Setting up conv4_3_relu4_3_0_split
I0601 17:38:46.441123  8007 net.cpp:157] Top shape: 32 512 38 38 (23658496)
I0601 17:38:46.441128  8007 net.cpp:157] Top shape: 32 512 38 38 (23658496)
I0601 17:38:46.441131  8007 net.cpp:165] Memory required for data: 6886949024
I0601 17:38:46.441135  8007 layer_factory.hpp:77] Creating layer pool4
I0601 17:38:46.441143  8007 net.cpp:100] Creating Layer pool4
I0601 17:38:46.441148  8007 net.cpp:434] pool4 <- conv4_3_relu4_3_0_split_0
I0601 17:38:46.441154  8007 net.cpp:408] pool4 -> pool4
I0601 17:38:46.441184  8007 net.cpp:150] Setting up pool4
I0601 17:38:46.441190  8007 net.cpp:157] Top shape: 32 512 19 19 (5914624)
I0601 17:38:46.441195  8007 net.cpp:165] Memory required for data: 6910607520
I0601 17:38:46.441200  8007 layer_factory.hpp:77] Creating layer conv5_1
I0601 17:38:46.441210  8007 net.cpp:100] Creating Layer conv5_1
I0601 17:38:46.441213  8007 net.cpp:434] conv5_1 <- pool4
I0601 17:38:46.441220  8007 net.cpp:408] conv5_1 -> conv5_1
I0601 17:38:46.459928  8007 net.cpp:150] Setting up conv5_1
I0601 17:38:46.459946  8007 net.cpp:157] Top shape: 32 512 19 19 (5914624)
I0601 17:38:46.459951  8007 net.cpp:165] Memory required for data: 6934266016
I0601 17:38:46.459960  8007 layer_factory.hpp:77] Creating layer relu5_1
I0601 17:38:46.459971  8007 net.cpp:100] Creating Layer relu5_1
I0601 17:38:46.459990  8007 net.cpp:434] relu5_1 <- conv5_1
I0601 17:38:46.459998  8007 net.cpp:395] relu5_1 -> conv5_1 (in-place)
I0601 17:38:46.461993  8007 net.cpp:150] Setting up relu5_1
I0601 17:38:46.462007  8007 net.cpp:157] Top shape: 32 512 19 19 (5914624)
I0601 17:38:46.462010  8007 net.cpp:165] Memory required for data: 6957924512
I0601 17:38:46.462014  8007 layer_factory.hpp:77] Creating layer conv5_2
I0601 17:38:46.462026  8007 net.cpp:100] Creating Layer conv5_2
I0601 17:38:46.462031  8007 net.cpp:434] conv5_2 <- conv5_1
I0601 17:38:46.462038  8007 net.cpp:408] conv5_2 -> conv5_2
I0601 17:38:46.477702  8007 net.cpp:150] Setting up conv5_2
I0601 17:38:46.477720  8007 net.cpp:157] Top shape: 32 512 19 19 (5914624)
I0601 17:38:46.477723  8007 net.cpp:165] Memory required for data: 6981583008
I0601 17:38:46.477733  8007 layer_factory.hpp:77] Creating layer relu5_2
I0601 17:38:46.477744  8007 net.cpp:100] Creating Layer relu5_2
I0601 17:38:46.477751  8007 net.cpp:434] relu5_2 <- conv5_2
I0601 17:38:46.477759  8007 net.cpp:395] relu5_2 -> conv5_2 (in-place)
I0601 17:38:46.479904  8007 net.cpp:150] Setting up relu5_2
I0601 17:38:46.479917  8007 net.cpp:157] Top shape: 32 512 19 19 (5914624)
I0601 17:38:46.479920  8007 net.cpp:165] Memory required for data: 7005241504
I0601 17:38:46.479925  8007 layer_factory.hpp:77] Creating layer conv5_3
I0601 17:38:46.479936  8007 net.cpp:100] Creating Layer conv5_3
I0601 17:38:46.479941  8007 net.cpp:434] conv5_3 <- conv5_2
I0601 17:38:46.479949  8007 net.cpp:408] conv5_3 -> conv5_3
I0601 17:38:46.496583  8007 net.cpp:150] Setting up conv5_3
I0601 17:38:46.496600  8007 net.cpp:157] Top shape: 32 512 19 19 (5914624)
I0601 17:38:46.496604  8007 net.cpp:165] Memory required for data: 7028900000
I0601 17:38:46.496613  8007 layer_factory.hpp:77] Creating layer relu5_3
I0601 17:38:46.496642  8007 net.cpp:100] Creating Layer relu5_3
I0601 17:38:46.496647  8007 net.cpp:434] relu5_3 <- conv5_3
I0601 17:38:46.496667  8007 net.cpp:395] relu5_3 -> conv5_3 (in-place)
I0601 17:38:46.498770  8007 net.cpp:150] Setting up relu5_3
I0601 17:38:46.498790  8007 net.cpp:157] Top shape: 32 512 19 19 (5914624)
I0601 17:38:46.498793  8007 net.cpp:165] Memory required for data: 7052558496
I0601 17:38:46.498797  8007 layer_factory.hpp:77] Creating layer pool5
I0601 17:38:46.498805  8007 net.cpp:100] Creating Layer pool5
I0601 17:38:46.498811  8007 net.cpp:434] pool5 <- conv5_3
I0601 17:38:46.498816  8007 net.cpp:408] pool5 -> pool5
I0601 17:38:46.498852  8007 net.cpp:150] Setting up pool5
I0601 17:38:46.498858  8007 net.cpp:157] Top shape: 32 512 19 19 (5914624)
I0601 17:38:46.498863  8007 net.cpp:165] Memory required for data: 7076216992
I0601 17:38:46.498867  8007 layer_factory.hpp:77] Creating layer fc6
I0601 17:38:46.498877  8007 net.cpp:100] Creating Layer fc6
I0601 17:38:46.498880  8007 net.cpp:434] fc6 <- pool5
I0601 17:38:46.498888  8007 net.cpp:408] fc6 -> fc6
I0601 17:38:46.521713  8007 net.cpp:150] Setting up fc6
I0601 17:38:46.521731  8007 net.cpp:157] Top shape: 32 1024 19 19 (11829248)
I0601 17:38:46.521735  8007 net.cpp:165] Memory required for data: 7123533984
I0601 17:38:46.521744  8007 layer_factory.hpp:77] Creating layer relu6
I0601 17:38:46.521754  8007 net.cpp:100] Creating Layer relu6
I0601 17:38:46.521757  8007 net.cpp:434] relu6 <- fc6
I0601 17:38:46.521764  8007 net.cpp:395] relu6 -> fc6 (in-place)
I0601 17:38:46.522377  8007 net.cpp:150] Setting up relu6
I0601 17:38:46.522388  8007 net.cpp:157] Top shape: 32 1024 19 19 (11829248)
I0601 17:38:46.522392  8007 net.cpp:165] Memory required for data: 7170850976
I0601 17:38:46.522397  8007 layer_factory.hpp:77] Creating layer fc7
I0601 17:38:46.522408  8007 net.cpp:100] Creating Layer fc7
I0601 17:38:46.522413  8007 net.cpp:434] fc7 <- fc6
I0601 17:38:46.522419  8007 net.cpp:408] fc7 -> fc7
I0601 17:38:46.532377  8007 net.cpp:150] Setting up fc7
I0601 17:38:46.532395  8007 net.cpp:157] Top shape: 32 1024 19 19 (11829248)
I0601 17:38:46.532399  8007 net.cpp:165] Memory required for data: 7218167968
I0601 17:38:46.532407  8007 layer_factory.hpp:77] Creating layer relu7
I0601 17:38:46.532430  8007 net.cpp:100] Creating Layer relu7
I0601 17:38:46.532436  8007 net.cpp:434] relu7 <- fc7
I0601 17:38:46.532444  8007 net.cpp:395] relu7 -> fc7 (in-place)
I0601 17:38:46.534611  8007 net.cpp:150] Setting up relu7
I0601 17:38:46.534620  8007 net.cpp:157] Top shape: 32 1024 19 19 (11829248)
I0601 17:38:46.534624  8007 net.cpp:165] Memory required for data: 7265484960
I0601 17:38:46.534628  8007 layer_factory.hpp:77] Creating layer fc7_relu7_0_split
I0601 17:38:46.534636  8007 net.cpp:100] Creating Layer fc7_relu7_0_split
I0601 17:38:46.534639  8007 net.cpp:434] fc7_relu7_0_split <- fc7
I0601 17:38:46.534647  8007 net.cpp:408] fc7_relu7_0_split -> fc7_relu7_0_split_0
I0601 17:38:46.534657  8007 net.cpp:408] fc7_relu7_0_split -> fc7_relu7_0_split_1
I0601 17:38:46.534668  8007 net.cpp:408] fc7_relu7_0_split -> fc7_relu7_0_split_2
I0601 17:38:46.534675  8007 net.cpp:408] fc7_relu7_0_split -> fc7_relu7_0_split_3
I0601 17:38:46.534728  8007 net.cpp:150] Setting up fc7_relu7_0_split
I0601 17:38:46.534734  8007 net.cpp:157] Top shape: 32 1024 19 19 (11829248)
I0601 17:38:46.534740  8007 net.cpp:157] Top shape: 32 1024 19 19 (11829248)
I0601 17:38:46.534745  8007 net.cpp:157] Top shape: 32 1024 19 19 (11829248)
I0601 17:38:46.534752  8007 net.cpp:157] Top shape: 32 1024 19 19 (11829248)
I0601 17:38:46.534756  8007 net.cpp:165] Memory required for data: 7454752928
I0601 17:38:46.534760  8007 layer_factory.hpp:77] Creating layer conv6_1
I0601 17:38:46.534770  8007 net.cpp:100] Creating Layer conv6_1
I0601 17:38:46.534775  8007 net.cpp:434] conv6_1 <- fc7_relu7_0_split_0
I0601 17:38:46.534781  8007 net.cpp:408] conv6_1 -> conv6_1
I0601 17:38:46.543957  8007 net.cpp:150] Setting up conv6_1
I0601 17:38:46.543972  8007 net.cpp:157] Top shape: 32 256 19 19 (2957312)
I0601 17:38:46.543977  8007 net.cpp:165] Memory required for data: 7466582176
I0601 17:38:46.543985  8007 layer_factory.hpp:77] Creating layer conv6_1_relu
I0601 17:38:46.543993  8007 net.cpp:100] Creating Layer conv6_1_relu
I0601 17:38:46.544008  8007 net.cpp:434] conv6_1_relu <- conv6_1
I0601 17:38:46.544018  8007 net.cpp:395] conv6_1_relu -> conv6_1 (in-place)
I0601 17:38:46.545789  8007 net.cpp:150] Setting up conv6_1_relu
I0601 17:38:46.545799  8007 net.cpp:157] Top shape: 32 256 19 19 (2957312)
I0601 17:38:46.545801  8007 net.cpp:165] Memory required for data: 7478411424
I0601 17:38:46.545806  8007 layer_factory.hpp:77] Creating layer conv6_2
I0601 17:38:46.545816  8007 net.cpp:100] Creating Layer conv6_2
I0601 17:38:46.545820  8007 net.cpp:434] conv6_2 <- conv6_1
I0601 17:38:46.545827  8007 net.cpp:408] conv6_2 -> conv6_2
I0601 17:38:46.554790  8007 net.cpp:150] Setting up conv6_2
I0601 17:38:46.554806  8007 net.cpp:157] Top shape: 32 512 10 10 (1638400)
I0601 17:38:46.554811  8007 net.cpp:165] Memory required for data: 7484965024
I0601 17:38:46.554841  8007 layer_factory.hpp:77] Creating layer conv6_2_relu
I0601 17:38:46.554863  8007 net.cpp:100] Creating Layer conv6_2_relu
I0601 17:38:46.554870  8007 net.cpp:434] conv6_2_relu <- conv6_2
I0601 17:38:46.554877  8007 net.cpp:395] conv6_2_relu -> conv6_2 (in-place)
I0601 17:38:46.556973  8007 net.cpp:150] Setting up conv6_2_relu
I0601 17:38:46.556985  8007 net.cpp:157] Top shape: 32 512 10 10 (1638400)
I0601 17:38:46.556989  8007 net.cpp:165] Memory required for data: 7491518624
I0601 17:38:46.556993  8007 layer_factory.hpp:77] Creating layer conv6_2_conv6_2_relu_0_split
I0601 17:38:46.557000  8007 net.cpp:100] Creating Layer conv6_2_conv6_2_relu_0_split
I0601 17:38:46.557006  8007 net.cpp:434] conv6_2_conv6_2_relu_0_split <- conv6_2
I0601 17:38:46.557013  8007 net.cpp:408] conv6_2_conv6_2_relu_0_split -> conv6_2_conv6_2_relu_0_split_0
I0601 17:38:46.557023  8007 net.cpp:408] conv6_2_conv6_2_relu_0_split -> conv6_2_conv6_2_relu_0_split_1
I0601 17:38:46.557031  8007 net.cpp:408] conv6_2_conv6_2_relu_0_split -> conv6_2_conv6_2_relu_0_split_2
I0601 17:38:46.557039  8007 net.cpp:408] conv6_2_conv6_2_relu_0_split -> conv6_2_conv6_2_relu_0_split_3
I0601 17:38:46.557101  8007 net.cpp:150] Setting up conv6_2_conv6_2_relu_0_split
I0601 17:38:46.557108  8007 net.cpp:157] Top shape: 32 512 10 10 (1638400)
I0601 17:38:46.557113  8007 net.cpp:157] Top shape: 32 512 10 10 (1638400)
I0601 17:38:46.557119  8007 net.cpp:157] Top shape: 32 512 10 10 (1638400)
I0601 17:38:46.557124  8007 net.cpp:157] Top shape: 32 512 10 10 (1638400)
I0601 17:38:46.557127  8007 net.cpp:165] Memory required for data: 7517733024
I0601 17:38:46.557132  8007 layer_factory.hpp:77] Creating layer conv7_1
I0601 17:38:46.557143  8007 net.cpp:100] Creating Layer conv7_1
I0601 17:38:46.557148  8007 net.cpp:434] conv7_1 <- conv6_2_conv6_2_relu_0_split_0
I0601 17:38:46.557155  8007 net.cpp:408] conv7_1 -> conv7_1
I0601 17:38:46.564978  8007 net.cpp:150] Setting up conv7_1
I0601 17:38:46.564993  8007 net.cpp:157] Top shape: 32 128 10 10 (409600)
I0601 17:38:46.564997  8007 net.cpp:165] Memory required for data: 7519371424
I0601 17:38:46.565006  8007 layer_factory.hpp:77] Creating layer conv7_1_relu
I0601 17:38:46.565013  8007 net.cpp:100] Creating Layer conv7_1_relu
I0601 17:38:46.565021  8007 net.cpp:434] conv7_1_relu <- conv7_1
I0601 17:38:46.565026  8007 net.cpp:395] conv7_1_relu -> conv7_1 (in-place)
I0601 17:38:46.567172  8007 net.cpp:150] Setting up conv7_1_relu
I0601 17:38:46.567183  8007 net.cpp:157] Top shape: 32 128 10 10 (409600)
I0601 17:38:46.567188  8007 net.cpp:165] Memory required for data: 7521009824
I0601 17:38:46.567191  8007 layer_factory.hpp:77] Creating layer conv7_2
I0601 17:38:46.567203  8007 net.cpp:100] Creating Layer conv7_2
I0601 17:38:46.567206  8007 net.cpp:434] conv7_2 <- conv7_1
I0601 17:38:46.567214  8007 net.cpp:408] conv7_2 -> conv7_2
I0601 17:38:46.574115  8007 net.cpp:150] Setting up conv7_2
I0601 17:38:46.574127  8007 net.cpp:157] Top shape: 32 256 5 5 (204800)
I0601 17:38:46.574131  8007 net.cpp:165] Memory required for data: 7521829024
I0601 17:38:46.574141  8007 layer_factory.hpp:77] Creating layer conv7_2_relu
I0601 17:38:46.574149  8007 net.cpp:100] Creating Layer conv7_2_relu
I0601 17:38:46.574156  8007 net.cpp:434] conv7_2_relu <- conv7_2
I0601 17:38:46.574174  8007 net.cpp:395] conv7_2_relu -> conv7_2 (in-place)
I0601 17:38:46.576252  8007 net.cpp:150] Setting up conv7_2_relu
I0601 17:38:46.576261  8007 net.cpp:157] Top shape: 32 256 5 5 (204800)
I0601 17:38:46.576266  8007 net.cpp:165] Memory required for data: 7522648224
I0601 17:38:46.576269  8007 layer_factory.hpp:77] Creating layer conv7_2_conv7_2_relu_0_split
I0601 17:38:46.576278  8007 net.cpp:100] Creating Layer conv7_2_conv7_2_relu_0_split
I0601 17:38:46.576282  8007 net.cpp:434] conv7_2_conv7_2_relu_0_split <- conv7_2
I0601 17:38:46.576289  8007 net.cpp:408] conv7_2_conv7_2_relu_0_split -> conv7_2_conv7_2_relu_0_split_0
I0601 17:38:46.576298  8007 net.cpp:408] conv7_2_conv7_2_relu_0_split -> conv7_2_conv7_2_relu_0_split_1
I0601 17:38:46.576306  8007 net.cpp:408] conv7_2_conv7_2_relu_0_split -> conv7_2_conv7_2_relu_0_split_2
I0601 17:38:46.576314  8007 net.cpp:408] conv7_2_conv7_2_relu_0_split -> conv7_2_conv7_2_relu_0_split_3
I0601 17:38:46.576370  8007 net.cpp:150] Setting up conv7_2_conv7_2_relu_0_split
I0601 17:38:46.576377  8007 net.cpp:157] Top shape: 32 256 5 5 (204800)
I0601 17:38:46.576382  8007 net.cpp:157] Top shape: 32 256 5 5 (204800)
I0601 17:38:46.576388  8007 net.cpp:157] Top shape: 32 256 5 5 (204800)
I0601 17:38:46.576393  8007 net.cpp:157] Top shape: 32 256 5 5 (204800)
I0601 17:38:46.576397  8007 net.cpp:165] Memory required for data: 7525925024
I0601 17:38:46.576402  8007 layer_factory.hpp:77] Creating layer conv8_1
I0601 17:38:46.576412  8007 net.cpp:100] Creating Layer conv8_1
I0601 17:38:46.576417  8007 net.cpp:434] conv8_1 <- conv7_2_conv7_2_relu_0_split_0
I0601 17:38:46.576424  8007 net.cpp:408] conv8_1 -> conv8_1
I0601 17:38:46.583061  8007 net.cpp:150] Setting up conv8_1
I0601 17:38:46.583075  8007 net.cpp:157] Top shape: 32 128 5 5 (102400)
I0601 17:38:46.583079  8007 net.cpp:165] Memory required for data: 7526334624
I0601 17:38:46.583087  8007 layer_factory.hpp:77] Creating layer conv8_1_relu
I0601 17:38:46.583096  8007 net.cpp:100] Creating Layer conv8_1_relu
I0601 17:38:46.583101  8007 net.cpp:434] conv8_1_relu <- conv8_1
I0601 17:38:46.583107  8007 net.cpp:395] conv8_1_relu -> conv8_1 (in-place)
I0601 17:38:46.585256  8007 net.cpp:150] Setting up conv8_1_relu
I0601 17:38:46.585266  8007 net.cpp:157] Top shape: 32 128 5 5 (102400)
I0601 17:38:46.585271  8007 net.cpp:165] Memory required for data: 7526744224
I0601 17:38:46.585275  8007 layer_factory.hpp:77] Creating layer conv8_2
I0601 17:38:46.585284  8007 net.cpp:100] Creating Layer conv8_2
I0601 17:38:46.585289  8007 net.cpp:434] conv8_2 <- conv8_1
I0601 17:38:46.585297  8007 net.cpp:408] conv8_2 -> conv8_2
I0601 17:38:46.593083  8007 net.cpp:150] Setting up conv8_2
I0601 17:38:46.593114  8007 net.cpp:157] Top shape: 32 256 3 3 (73728)
I0601 17:38:46.593119  8007 net.cpp:165] Memory required for data: 7527039136
I0601 17:38:46.593127  8007 layer_factory.hpp:77] Creating layer conv8_2_relu
I0601 17:38:46.593135  8007 net.cpp:100] Creating Layer conv8_2_relu
I0601 17:38:46.593142  8007 net.cpp:434] conv8_2_relu <- conv8_2
I0601 17:38:46.593150  8007 net.cpp:395] conv8_2_relu -> conv8_2 (in-place)
I0601 17:38:46.595512  8007 net.cpp:150] Setting up conv8_2_relu
I0601 17:38:46.595521  8007 net.cpp:157] Top shape: 32 256 3 3 (73728)
I0601 17:38:46.595525  8007 net.cpp:165] Memory required for data: 7527334048
I0601 17:38:46.595530  8007 layer_factory.hpp:77] Creating layer conv8_2_conv8_2_relu_0_split
I0601 17:38:46.595537  8007 net.cpp:100] Creating Layer conv8_2_conv8_2_relu_0_split
I0601 17:38:46.595542  8007 net.cpp:434] conv8_2_conv8_2_relu_0_split <- conv8_2
I0601 17:38:46.595549  8007 net.cpp:408] conv8_2_conv8_2_relu_0_split -> conv8_2_conv8_2_relu_0_split_0
I0601 17:38:46.595558  8007 net.cpp:408] conv8_2_conv8_2_relu_0_split -> conv8_2_conv8_2_relu_0_split_1
I0601 17:38:46.595566  8007 net.cpp:408] conv8_2_conv8_2_relu_0_split -> conv8_2_conv8_2_relu_0_split_2
I0601 17:38:46.595574  8007 net.cpp:408] conv8_2_conv8_2_relu_0_split -> conv8_2_conv8_2_relu_0_split_3
I0601 17:38:46.595648  8007 net.cpp:150] Setting up conv8_2_conv8_2_relu_0_split
I0601 17:38:46.595654  8007 net.cpp:157] Top shape: 32 256 3 3 (73728)
I0601 17:38:46.595660  8007 net.cpp:157] Top shape: 32 256 3 3 (73728)
I0601 17:38:46.595665  8007 net.cpp:157] Top shape: 32 256 3 3 (73728)
I0601 17:38:46.595671  8007 net.cpp:157] Top shape: 32 256 3 3 (73728)
I0601 17:38:46.595675  8007 net.cpp:165] Memory required for data: 7528513696
I0601 17:38:46.595680  8007 layer_factory.hpp:77] Creating layer conv9_1
I0601 17:38:46.595691  8007 net.cpp:100] Creating Layer conv9_1
I0601 17:38:46.595695  8007 net.cpp:434] conv9_1 <- conv8_2_conv8_2_relu_0_split_0
I0601 17:38:46.595702  8007 net.cpp:408] conv9_1 -> conv9_1
I0601 17:38:46.603049  8007 net.cpp:150] Setting up conv9_1
I0601 17:38:46.603060  8007 net.cpp:157] Top shape: 32 128 3 3 (36864)
I0601 17:38:46.603065  8007 net.cpp:165] Memory required for data: 7528661152
I0601 17:38:46.603071  8007 layer_factory.hpp:77] Creating layer conv9_1_relu
I0601 17:38:46.603080  8007 net.cpp:100] Creating Layer conv9_1_relu
I0601 17:38:46.603086  8007 net.cpp:434] conv9_1_relu <- conv9_1
I0601 17:38:46.603091  8007 net.cpp:395] conv9_1_relu -> conv9_1 (in-place)
I0601 17:38:46.604784  8007 net.cpp:150] Setting up conv9_1_relu
I0601 17:38:46.604794  8007 net.cpp:157] Top shape: 32 128 3 3 (36864)
I0601 17:38:46.604797  8007 net.cpp:165] Memory required for data: 7528808608
I0601 17:38:46.604801  8007 layer_factory.hpp:77] Creating layer conv9_2
I0601 17:38:46.604811  8007 net.cpp:100] Creating Layer conv9_2
I0601 17:38:46.604816  8007 net.cpp:434] conv9_2 <- conv9_1
I0601 17:38:46.604823  8007 net.cpp:408] conv9_2 -> conv9_2
I0601 17:38:46.614181  8007 net.cpp:150] Setting up conv9_2
I0601 17:38:46.614197  8007 net.cpp:157] Top shape: 32 256 1 1 (8192)
I0601 17:38:46.614202  8007 net.cpp:165] Memory required for data: 7528841376
I0601 17:38:46.614225  8007 layer_factory.hpp:77] Creating layer conv9_2_relu
I0601 17:38:46.614233  8007 net.cpp:100] Creating Layer conv9_2_relu
I0601 17:38:46.614239  8007 net.cpp:434] conv9_2_relu <- conv9_2
I0601 17:38:46.614261  8007 net.cpp:395] conv9_2_relu -> conv9_2 (in-place)
I0601 17:38:46.616401  8007 net.cpp:150] Setting up conv9_2_relu
I0601 17:38:46.616410  8007 net.cpp:157] Top shape: 32 256 1 1 (8192)
I0601 17:38:46.616413  8007 net.cpp:165] Memory required for data: 7528874144
I0601 17:38:46.616418  8007 layer_factory.hpp:77] Creating layer conv9_2_conv9_2_relu_0_split
I0601 17:38:46.616425  8007 net.cpp:100] Creating Layer conv9_2_conv9_2_relu_0_split
I0601 17:38:46.616430  8007 net.cpp:434] conv9_2_conv9_2_relu_0_split <- conv9_2
I0601 17:38:46.616437  8007 net.cpp:408] conv9_2_conv9_2_relu_0_split -> conv9_2_conv9_2_relu_0_split_0
I0601 17:38:46.616446  8007 net.cpp:408] conv9_2_conv9_2_relu_0_split -> conv9_2_conv9_2_relu_0_split_1
I0601 17:38:46.616456  8007 net.cpp:408] conv9_2_conv9_2_relu_0_split -> conv9_2_conv9_2_relu_0_split_2
I0601 17:38:46.616505  8007 net.cpp:150] Setting up conv9_2_conv9_2_relu_0_split
I0601 17:38:46.616511  8007 net.cpp:157] Top shape: 32 256 1 1 (8192)
I0601 17:38:46.616516  8007 net.cpp:157] Top shape: 32 256 1 1 (8192)
I0601 17:38:46.616521  8007 net.cpp:157] Top shape: 32 256 1 1 (8192)
I0601 17:38:46.616526  8007 net.cpp:165] Memory required for data: 7528972448
I0601 17:38:46.616529  8007 layer_factory.hpp:77] Creating layer conv4_3_norm
I0601 17:38:46.616539  8007 net.cpp:100] Creating Layer conv4_3_norm
I0601 17:38:46.616542  8007 net.cpp:434] conv4_3_norm <- conv4_3_relu4_3_0_split_1
I0601 17:38:46.616549  8007 net.cpp:408] conv4_3_norm -> conv4_3_norm
I0601 17:38:46.616677  8007 net.cpp:150] Setting up conv4_3_norm
I0601 17:38:46.616684  8007 net.cpp:157] Top shape: 32 512 38 38 (23658496)
I0601 17:38:46.616688  8007 net.cpp:165] Memory required for data: 7623606432
I0601 17:38:46.616693  8007 layer_factory.hpp:77] Creating layer conv4_3_norm_conv4_3_norm_0_split
I0601 17:38:46.616700  8007 net.cpp:100] Creating Layer conv4_3_norm_conv4_3_norm_0_split
I0601 17:38:46.616705  8007 net.cpp:434] conv4_3_norm_conv4_3_norm_0_split <- conv4_3_norm
I0601 17:38:46.616719  8007 net.cpp:408] conv4_3_norm_conv4_3_norm_0_split -> conv4_3_norm_conv4_3_norm_0_split_0
I0601 17:38:46.616727  8007 net.cpp:408] conv4_3_norm_conv4_3_norm_0_split -> conv4_3_norm_conv4_3_norm_0_split_1
I0601 17:38:46.616735  8007 net.cpp:408] conv4_3_norm_conv4_3_norm_0_split -> conv4_3_norm_conv4_3_norm_0_split_2
I0601 17:38:46.616776  8007 net.cpp:150] Setting up conv4_3_norm_conv4_3_norm_0_split
I0601 17:38:46.616783  8007 net.cpp:157] Top shape: 32 512 38 38 (23658496)
I0601 17:38:46.616788  8007 net.cpp:157] Top shape: 32 512 38 38 (23658496)
I0601 17:38:46.616792  8007 net.cpp:157] Top shape: 32 512 38 38 (23658496)
I0601 17:38:46.616797  8007 net.cpp:165] Memory required for data: 7907508384
I0601 17:38:46.616801  8007 layer_factory.hpp:77] Creating layer conv4_3_norm_mbox_loc
I0601 17:38:46.616811  8007 net.cpp:100] Creating Layer conv4_3_norm_mbox_loc
I0601 17:38:46.616816  8007 net.cpp:434] conv4_3_norm_mbox_loc <- conv4_3_norm_conv4_3_norm_0_split_0
I0601 17:38:46.616823  8007 net.cpp:408] conv4_3_norm_mbox_loc -> conv4_3_norm_mbox_loc
I0601 17:38:46.634160  8007 net.cpp:150] Setting up conv4_3_norm_mbox_loc
I0601 17:38:46.634179  8007 net.cpp:157] Top shape: 32 16 38 38 (739328)
I0601 17:38:46.634183  8007 net.cpp:165] Memory required for data: 7910465696
I0601 17:38:46.634191  8007 layer_factory.hpp:77] Creating layer conv4_3_norm_mbox_loc_perm
I0601 17:38:46.634217  8007 net.cpp:100] Creating Layer conv4_3_norm_mbox_loc_perm
I0601 17:38:46.634238  8007 net.cpp:434] conv4_3_norm_mbox_loc_perm <- conv4_3_norm_mbox_loc
I0601 17:38:46.634245  8007 net.cpp:408] conv4_3_norm_mbox_loc_perm -> conv4_3_norm_mbox_loc_perm
I0601 17:38:46.634369  8007 net.cpp:150] Setting up conv4_3_norm_mbox_loc_perm
I0601 17:38:46.634377  8007 net.cpp:157] Top shape: 32 38 38 16 (739328)
I0601 17:38:46.634379  8007 net.cpp:165] Memory required for data: 7913423008
I0601 17:38:46.634383  8007 layer_factory.hpp:77] Creating layer conv4_3_norm_mbox_loc_flat
I0601 17:38:46.634392  8007 net.cpp:100] Creating Layer conv4_3_norm_mbox_loc_flat
I0601 17:38:46.634410  8007 net.cpp:434] conv4_3_norm_mbox_loc_flat <- conv4_3_norm_mbox_loc_perm
I0601 17:38:46.634429  8007 net.cpp:408] conv4_3_norm_mbox_loc_flat -> conv4_3_norm_mbox_loc_flat
I0601 17:38:46.634464  8007 net.cpp:150] Setting up conv4_3_norm_mbox_loc_flat
I0601 17:38:46.634474  8007 net.cpp:157] Top shape: 32 23104 (739328)
I0601 17:38:46.634476  8007 net.cpp:165] Memory required for data: 7916380320
I0601 17:38:46.634480  8007 layer_factory.hpp:77] Creating layer conv4_3_norm_mbox_conf
I0601 17:38:46.634524  8007 net.cpp:100] Creating Layer conv4_3_norm_mbox_conf
I0601 17:38:46.634544  8007 net.cpp:434] conv4_3_norm_mbox_conf <- conv4_3_norm_conv4_3_norm_0_split_1
I0601 17:38:46.634564  8007 net.cpp:408] conv4_3_norm_mbox_conf -> conv4_3_norm_mbox_conf
I0601 17:38:46.640924  8007 net.cpp:150] Setting up conv4_3_norm_mbox_conf
I0601 17:38:46.640941  8007 net.cpp:157] Top shape: 32 16 38 38 (739328)
I0601 17:38:46.640946  8007 net.cpp:165] Memory required for data: 7919337632
I0601 17:38:46.640955  8007 layer_factory.hpp:77] Creating layer conv4_3_norm_mbox_conf_perm
I0601 17:38:46.640980  8007 net.cpp:100] Creating Layer conv4_3_norm_mbox_conf_perm
I0601 17:38:46.640987  8007 net.cpp:434] conv4_3_norm_mbox_conf_perm <- conv4_3_norm_mbox_conf
I0601 17:38:46.640997  8007 net.cpp:408] conv4_3_norm_mbox_conf_perm -> conv4_3_norm_mbox_conf_perm
I0601 17:38:46.641103  8007 net.cpp:150] Setting up conv4_3_norm_mbox_conf_perm
I0601 17:38:46.641122  8007 net.cpp:157] Top shape: 32 38 38 16 (739328)
I0601 17:38:46.641125  8007 net.cpp:165] Memory required for data: 7922294944
I0601 17:38:46.641129  8007 layer_factory.hpp:77] Creating layer conv4_3_norm_mbox_conf_flat
I0601 17:38:46.641136  8007 net.cpp:100] Creating Layer conv4_3_norm_mbox_conf_flat
I0601 17:38:46.641156  8007 net.cpp:434] conv4_3_norm_mbox_conf_flat <- conv4_3_norm_mbox_conf_perm
I0601 17:38:46.641177  8007 net.cpp:408] conv4_3_norm_mbox_conf_flat -> conv4_3_norm_mbox_conf_flat
I0601 17:38:46.641216  8007 net.cpp:150] Setting up conv4_3_norm_mbox_conf_flat
I0601 17:38:46.641222  8007 net.cpp:157] Top shape: 32 23104 (739328)
I0601 17:38:46.641225  8007 net.cpp:165] Memory required for data: 7925252256
I0601 17:38:46.641229  8007 layer_factory.hpp:77] Creating layer conv4_3_norm_mbox_priorbox
I0601 17:38:46.641242  8007 net.cpp:100] Creating Layer conv4_3_norm_mbox_priorbox
I0601 17:38:46.641247  8007 net.cpp:434] conv4_3_norm_mbox_priorbox <- conv4_3_norm_conv4_3_norm_0_split_2
I0601 17:38:46.641252  8007 net.cpp:434] conv4_3_norm_mbox_priorbox <- data_data_0_split_1
I0601 17:38:46.641276  8007 net.cpp:408] conv4_3_norm_mbox_priorbox -> conv4_3_norm_mbox_priorbox
I0601 17:38:46.641319  8007 net.cpp:150] Setting up conv4_3_norm_mbox_priorbox
I0601 17:38:46.641324  8007 net.cpp:157] Top shape: 1 2 23104 (46208)
I0601 17:38:46.641329  8007 net.cpp:165] Memory required for data: 7925437088
I0601 17:38:46.641331  8007 layer_factory.hpp:77] Creating layer fc7_mbox_loc
I0601 17:38:46.641345  8007 net.cpp:100] Creating Layer fc7_mbox_loc
I0601 17:38:46.641348  8007 net.cpp:434] fc7_mbox_loc <- fc7_relu7_0_split_1
I0601 17:38:46.641355  8007 net.cpp:408] fc7_mbox_loc -> fc7_mbox_loc
I0601 17:38:46.647646  8007 net.cpp:150] Setting up fc7_mbox_loc
I0601 17:38:46.647660  8007 net.cpp:157] Top shape: 32 24 19 19 (277248)
I0601 17:38:46.647663  8007 net.cpp:165] Memory required for data: 7926546080
I0601 17:38:46.647671  8007 layer_factory.hpp:77] Creating layer fc7_mbox_loc_perm
I0601 17:38:46.647680  8007 net.cpp:100] Creating Layer fc7_mbox_loc_perm
I0601 17:38:46.647686  8007 net.cpp:434] fc7_mbox_loc_perm <- fc7_mbox_loc
I0601 17:38:46.647693  8007 net.cpp:408] fc7_mbox_loc_perm -> fc7_mbox_loc_perm
I0601 17:38:46.647783  8007 net.cpp:150] Setting up fc7_mbox_loc_perm
I0601 17:38:46.647789  8007 net.cpp:157] Top shape: 32 19 19 24 (277248)
I0601 17:38:46.647794  8007 net.cpp:165] Memory required for data: 7927655072
I0601 17:38:46.647797  8007 layer_factory.hpp:77] Creating layer fc7_mbox_loc_flat
I0601 17:38:46.647804  8007 net.cpp:100] Creating Layer fc7_mbox_loc_flat
I0601 17:38:46.647812  8007 net.cpp:434] fc7_mbox_loc_flat <- fc7_mbox_loc_perm
I0601 17:38:46.647819  8007 net.cpp:408] fc7_mbox_loc_flat -> fc7_mbox_loc_flat
I0601 17:38:46.647841  8007 net.cpp:150] Setting up fc7_mbox_loc_flat
I0601 17:38:46.647847  8007 net.cpp:157] Top shape: 32 8664 (277248)
I0601 17:38:46.647850  8007 net.cpp:165] Memory required for data: 7928764064
I0601 17:38:46.647855  8007 layer_factory.hpp:77] Creating layer fc7_mbox_conf
I0601 17:38:46.647866  8007 net.cpp:100] Creating Layer fc7_mbox_conf
I0601 17:38:46.647871  8007 net.cpp:434] fc7_mbox_conf <- fc7_relu7_0_split_2
I0601 17:38:46.647877  8007 net.cpp:408] fc7_mbox_conf -> fc7_mbox_conf
I0601 17:38:46.654448  8007 net.cpp:150] Setting up fc7_mbox_conf
I0601 17:38:46.654459  8007 net.cpp:157] Top shape: 32 24 19 19 (277248)
I0601 17:38:46.654464  8007 net.cpp:165] Memory required for data: 7929873056
I0601 17:38:46.654471  8007 layer_factory.hpp:77] Creating layer fc7_mbox_conf_perm
I0601 17:38:46.654480  8007 net.cpp:100] Creating Layer fc7_mbox_conf_perm
I0601 17:38:46.654486  8007 net.cpp:434] fc7_mbox_conf_perm <- fc7_mbox_conf
I0601 17:38:46.654492  8007 net.cpp:408] fc7_mbox_conf_perm -> fc7_mbox_conf_perm
I0601 17:38:46.654587  8007 net.cpp:150] Setting up fc7_mbox_conf_perm
I0601 17:38:46.654594  8007 net.cpp:157] Top shape: 32 19 19 24 (277248)
I0601 17:38:46.654598  8007 net.cpp:165] Memory required for data: 7930982048
I0601 17:38:46.654603  8007 layer_factory.hpp:77] Creating layer fc7_mbox_conf_flat
I0601 17:38:46.654609  8007 net.cpp:100] Creating Layer fc7_mbox_conf_flat
I0601 17:38:46.654613  8007 net.cpp:434] fc7_mbox_conf_flat <- fc7_mbox_conf_perm
I0601 17:38:46.654620  8007 net.cpp:408] fc7_mbox_conf_flat -> fc7_mbox_conf_flat
I0601 17:38:46.654645  8007 net.cpp:150] Setting up fc7_mbox_conf_flat
I0601 17:38:46.654651  8007 net.cpp:157] Top shape: 32 8664 (277248)
I0601 17:38:46.654654  8007 net.cpp:165] Memory required for data: 7932091040
I0601 17:38:46.654667  8007 layer_factory.hpp:77] Creating layer fc7_mbox_priorbox
I0601 17:38:46.654677  8007 net.cpp:100] Creating Layer fc7_mbox_priorbox
I0601 17:38:46.654681  8007 net.cpp:434] fc7_mbox_priorbox <- fc7_relu7_0_split_3
I0601 17:38:46.654686  8007 net.cpp:434] fc7_mbox_priorbox <- data_data_0_split_2
I0601 17:38:46.654695  8007 net.cpp:408] fc7_mbox_priorbox -> fc7_mbox_priorbox
I0601 17:38:46.654719  8007 net.cpp:150] Setting up fc7_mbox_priorbox
I0601 17:38:46.654726  8007 net.cpp:157] Top shape: 1 2 8664 (17328)
I0601 17:38:46.654729  8007 net.cpp:165] Memory required for data: 7932160352
I0601 17:38:46.654733  8007 layer_factory.hpp:77] Creating layer conv6_2_mbox_loc
I0601 17:38:46.654745  8007 net.cpp:100] Creating Layer conv6_2_mbox_loc
I0601 17:38:46.654749  8007 net.cpp:434] conv6_2_mbox_loc <- conv6_2_conv6_2_relu_0_split_1
I0601 17:38:46.654757  8007 net.cpp:408] conv6_2_mbox_loc -> conv6_2_mbox_loc
I0601 17:38:46.662542  8007 net.cpp:150] Setting up conv6_2_mbox_loc
I0601 17:38:46.662559  8007 net.cpp:157] Top shape: 32 24 10 10 (76800)
I0601 17:38:46.662562  8007 net.cpp:165] Memory required for data: 7932467552
I0601 17:38:46.662569  8007 layer_factory.hpp:77] Creating layer conv6_2_mbox_loc_perm
I0601 17:38:46.662593  8007 net.cpp:100] Creating Layer conv6_2_mbox_loc_perm
I0601 17:38:46.662600  8007 net.cpp:434] conv6_2_mbox_loc_perm <- conv6_2_mbox_loc
I0601 17:38:46.662621  8007 net.cpp:408] conv6_2_mbox_loc_perm -> conv6_2_mbox_loc_perm
I0601 17:38:46.662729  8007 net.cpp:150] Setting up conv6_2_mbox_loc_perm
I0601 17:38:46.662739  8007 net.cpp:157] Top shape: 32 10 10 24 (76800)
I0601 17:38:46.662742  8007 net.cpp:165] Memory required for data: 7932774752
I0601 17:38:46.662760  8007 layer_factory.hpp:77] Creating layer conv6_2_mbox_loc_flat
I0601 17:38:46.662767  8007 net.cpp:100] Creating Layer conv6_2_mbox_loc_flat
I0601 17:38:46.662772  8007 net.cpp:434] conv6_2_mbox_loc_flat <- conv6_2_mbox_loc_perm
I0601 17:38:46.662778  8007 net.cpp:408] conv6_2_mbox_loc_flat -> conv6_2_mbox_loc_flat
I0601 17:38:46.662817  8007 net.cpp:150] Setting up conv6_2_mbox_loc_flat
I0601 17:38:46.662827  8007 net.cpp:157] Top shape: 32 2400 (76800)
I0601 17:38:46.662832  8007 net.cpp:165] Memory required for data: 7933081952
I0601 17:38:46.662835  8007 layer_factory.hpp:77] Creating layer conv6_2_mbox_conf
I0601 17:38:46.662847  8007 net.cpp:100] Creating Layer conv6_2_mbox_conf
I0601 17:38:46.662853  8007 net.cpp:434] conv6_2_mbox_conf <- conv6_2_conv6_2_relu_0_split_2
I0601 17:38:46.662859  8007 net.cpp:408] conv6_2_mbox_conf -> conv6_2_mbox_conf
I0601 17:38:46.669430  8007 net.cpp:150] Setting up conv6_2_mbox_conf
I0601 17:38:46.669443  8007 net.cpp:157] Top shape: 32 24 10 10 (76800)
I0601 17:38:46.669447  8007 net.cpp:165] Memory required for data: 7933389152
I0601 17:38:46.669455  8007 layer_factory.hpp:77] Creating layer conv6_2_mbox_conf_perm
I0601 17:38:46.669477  8007 net.cpp:100] Creating Layer conv6_2_mbox_conf_perm
I0601 17:38:46.669482  8007 net.cpp:434] conv6_2_mbox_conf_perm <- conv6_2_mbox_conf
I0601 17:38:46.669490  8007 net.cpp:408] conv6_2_mbox_conf_perm -> conv6_2_mbox_conf_perm
I0601 17:38:46.669630  8007 net.cpp:150] Setting up conv6_2_mbox_conf_perm
I0601 17:38:46.669636  8007 net.cpp:157] Top shape: 32 10 10 24 (76800)
I0601 17:38:46.669653  8007 net.cpp:165] Memory required for data: 7933696352
I0601 17:38:46.669656  8007 layer_factory.hpp:77] Creating layer conv6_2_mbox_conf_flat
I0601 17:38:46.669664  8007 net.cpp:100] Creating Layer conv6_2_mbox_conf_flat
I0601 17:38:46.669684  8007 net.cpp:434] conv6_2_mbox_conf_flat <- conv6_2_mbox_conf_perm
I0601 17:38:46.669692  8007 net.cpp:408] conv6_2_mbox_conf_flat -> conv6_2_mbox_conf_flat
I0601 17:38:46.669728  8007 net.cpp:150] Setting up conv6_2_mbox_conf_flat
I0601 17:38:46.669734  8007 net.cpp:157] Top shape: 32 2400 (76800)
I0601 17:38:46.669737  8007 net.cpp:165] Memory required for data: 7934003552
I0601 17:38:46.669740  8007 layer_factory.hpp:77] Creating layer conv6_2_mbox_priorbox
I0601 17:38:46.669760  8007 net.cpp:100] Creating Layer conv6_2_mbox_priorbox
I0601 17:38:46.669767  8007 net.cpp:434] conv6_2_mbox_priorbox <- conv6_2_conv6_2_relu_0_split_3
I0601 17:38:46.669775  8007 net.cpp:434] conv6_2_mbox_priorbox <- data_data_0_split_3
I0601 17:38:46.669783  8007 net.cpp:408] conv6_2_mbox_priorbox -> conv6_2_mbox_priorbox
I0601 17:38:46.669811  8007 net.cpp:150] Setting up conv6_2_mbox_priorbox
I0601 17:38:46.669816  8007 net.cpp:157] Top shape: 1 2 2400 (4800)
I0601 17:38:46.669821  8007 net.cpp:165] Memory required for data: 7934022752
I0601 17:38:46.669823  8007 layer_factory.hpp:77] Creating layer conv7_2_mbox_loc
I0601 17:38:46.669836  8007 net.cpp:100] Creating Layer conv7_2_mbox_loc
I0601 17:38:46.669839  8007 net.cpp:434] conv7_2_mbox_loc <- conv7_2_conv7_2_relu_0_split_1
I0601 17:38:46.669847  8007 net.cpp:408] conv7_2_mbox_loc -> conv7_2_mbox_loc
I0601 17:38:46.676273  8007 net.cpp:150] Setting up conv7_2_mbox_loc
I0601 17:38:46.676287  8007 net.cpp:157] Top shape: 32 24 5 5 (19200)
I0601 17:38:46.676291  8007 net.cpp:165] Memory required for data: 7934099552
I0601 17:38:46.676301  8007 layer_factory.hpp:77] Creating layer conv7_2_mbox_loc_perm
I0601 17:38:46.676309  8007 net.cpp:100] Creating Layer conv7_2_mbox_loc_perm
I0601 17:38:46.676316  8007 net.cpp:434] conv7_2_mbox_loc_perm <- conv7_2_mbox_loc
I0601 17:38:46.676322  8007 net.cpp:408] conv7_2_mbox_loc_perm -> conv7_2_mbox_loc_perm
I0601 17:38:46.676415  8007 net.cpp:150] Setting up conv7_2_mbox_loc_perm
I0601 17:38:46.676422  8007 net.cpp:157] Top shape: 32 5 5 24 (19200)
I0601 17:38:46.676426  8007 net.cpp:165] Memory required for data: 7934176352
I0601 17:38:46.676429  8007 layer_factory.hpp:77] Creating layer conv7_2_mbox_loc_flat
I0601 17:38:46.676436  8007 net.cpp:100] Creating Layer conv7_2_mbox_loc_flat
I0601 17:38:46.676440  8007 net.cpp:434] conv7_2_mbox_loc_flat <- conv7_2_mbox_loc_perm
I0601 17:38:46.676448  8007 net.cpp:408] conv7_2_mbox_loc_flat -> conv7_2_mbox_loc_flat
I0601 17:38:46.676476  8007 net.cpp:150] Setting up conv7_2_mbox_loc_flat
I0601 17:38:46.676481  8007 net.cpp:157] Top shape: 32 600 (19200)
I0601 17:38:46.676486  8007 net.cpp:165] Memory required for data: 7934253152
I0601 17:38:46.676488  8007 layer_factory.hpp:77] Creating layer conv7_2_mbox_conf
I0601 17:38:46.676501  8007 net.cpp:100] Creating Layer conv7_2_mbox_conf
I0601 17:38:46.676506  8007 net.cpp:434] conv7_2_mbox_conf <- conv7_2_conv7_2_relu_0_split_2
I0601 17:38:46.676513  8007 net.cpp:408] conv7_2_mbox_conf -> conv7_2_mbox_conf
I0601 17:38:46.683058  8007 net.cpp:150] Setting up conv7_2_mbox_conf
I0601 17:38:46.683071  8007 net.cpp:157] Top shape: 32 24 5 5 (19200)
I0601 17:38:46.683075  8007 net.cpp:165] Memory required for data: 7934329952
I0601 17:38:46.683084  8007 layer_factory.hpp:77] Creating layer conv7_2_mbox_conf_perm
I0601 17:38:46.683092  8007 net.cpp:100] Creating Layer conv7_2_mbox_conf_perm
I0601 17:38:46.683097  8007 net.cpp:434] conv7_2_mbox_conf_perm <- conv7_2_mbox_conf
I0601 17:38:46.683104  8007 net.cpp:408] conv7_2_mbox_conf_perm -> conv7_2_mbox_conf_perm
I0601 17:38:46.683195  8007 net.cpp:150] Setting up conv7_2_mbox_conf_perm
I0601 17:38:46.683202  8007 net.cpp:157] Top shape: 32 5 5 24 (19200)
I0601 17:38:46.683205  8007 net.cpp:165] Memory required for data: 7934406752
I0601 17:38:46.683209  8007 layer_factory.hpp:77] Creating layer conv7_2_mbox_conf_flat
I0601 17:38:46.683215  8007 net.cpp:100] Creating Layer conv7_2_mbox_conf_flat
I0601 17:38:46.683219  8007 net.cpp:434] conv7_2_mbox_conf_flat <- conv7_2_mbox_conf_perm
I0601 17:38:46.683226  8007 net.cpp:408] conv7_2_mbox_conf_flat -> conv7_2_mbox_conf_flat
I0601 17:38:46.683251  8007 net.cpp:150] Setting up conv7_2_mbox_conf_flat
I0601 17:38:46.683256  8007 net.cpp:157] Top shape: 32 600 (19200)
I0601 17:38:46.683259  8007 net.cpp:165] Memory required for data: 7934483552
I0601 17:38:46.683264  8007 layer_factory.hpp:77] Creating layer conv7_2_mbox_priorbox
I0601 17:38:46.683270  8007 net.cpp:100] Creating Layer conv7_2_mbox_priorbox
I0601 17:38:46.683275  8007 net.cpp:434] conv7_2_mbox_priorbox <- conv7_2_conv7_2_relu_0_split_3
I0601 17:38:46.683290  8007 net.cpp:434] conv7_2_mbox_priorbox <- data_data_0_split_4
I0601 17:38:46.683300  8007 net.cpp:408] conv7_2_mbox_priorbox -> conv7_2_mbox_priorbox
I0601 17:38:46.683326  8007 net.cpp:150] Setting up conv7_2_mbox_priorbox
I0601 17:38:46.683332  8007 net.cpp:157] Top shape: 1 2 600 (1200)
I0601 17:38:46.683336  8007 net.cpp:165] Memory required for data: 7934488352
I0601 17:38:46.683338  8007 layer_factory.hpp:77] Creating layer conv8_2_mbox_loc
I0601 17:38:46.683351  8007 net.cpp:100] Creating Layer conv8_2_mbox_loc
I0601 17:38:46.683354  8007 net.cpp:434] conv8_2_mbox_loc <- conv8_2_conv8_2_relu_0_split_1
I0601 17:38:46.683362  8007 net.cpp:408] conv8_2_mbox_loc -> conv8_2_mbox_loc
I0601 17:38:46.689875  8007 net.cpp:150] Setting up conv8_2_mbox_loc
I0601 17:38:46.689893  8007 net.cpp:157] Top shape: 32 16 3 3 (4608)
I0601 17:38:46.689896  8007 net.cpp:165] Memory required for data: 7934506784
I0601 17:38:46.689916  8007 layer_factory.hpp:77] Creating layer conv8_2_mbox_loc_perm
I0601 17:38:46.689929  8007 net.cpp:100] Creating Layer conv8_2_mbox_loc_perm
I0601 17:38:46.689935  8007 net.cpp:434] conv8_2_mbox_loc_perm <- conv8_2_mbox_loc
I0601 17:38:46.689944  8007 net.cpp:408] conv8_2_mbox_loc_perm -> conv8_2_mbox_loc_perm
I0601 17:38:46.690042  8007 net.cpp:150] Setting up conv8_2_mbox_loc_perm
I0601 17:38:46.690050  8007 net.cpp:157] Top shape: 32 3 3 16 (4608)
I0601 17:38:46.690054  8007 net.cpp:165] Memory required for data: 7934525216
I0601 17:38:46.690058  8007 layer_factory.hpp:77] Creating layer conv8_2_mbox_loc_flat
I0601 17:38:46.690064  8007 net.cpp:100] Creating Layer conv8_2_mbox_loc_flat
I0601 17:38:46.690069  8007 net.cpp:434] conv8_2_mbox_loc_flat <- conv8_2_mbox_loc_perm
I0601 17:38:46.690078  8007 net.cpp:408] conv8_2_mbox_loc_flat -> conv8_2_mbox_loc_flat
I0601 17:38:46.690102  8007 net.cpp:150] Setting up conv8_2_mbox_loc_flat
I0601 17:38:46.690107  8007 net.cpp:157] Top shape: 32 144 (4608)
I0601 17:38:46.690110  8007 net.cpp:165] Memory required for data: 7934543648
I0601 17:38:46.690114  8007 layer_factory.hpp:77] Creating layer conv8_2_mbox_conf
I0601 17:38:46.690126  8007 net.cpp:100] Creating Layer conv8_2_mbox_conf
I0601 17:38:46.690131  8007 net.cpp:434] conv8_2_mbox_conf <- conv8_2_conv8_2_relu_0_split_2
I0601 17:38:46.690140  8007 net.cpp:408] conv8_2_mbox_conf -> conv8_2_mbox_conf
I0601 17:38:46.697870  8007 net.cpp:150] Setting up conv8_2_mbox_conf
I0601 17:38:46.697883  8007 net.cpp:157] Top shape: 32 16 3 3 (4608)
I0601 17:38:46.697887  8007 net.cpp:165] Memory required for data: 7934562080
I0601 17:38:46.697911  8007 layer_factory.hpp:77] Creating layer conv8_2_mbox_conf_perm
I0601 17:38:46.697921  8007 net.cpp:100] Creating Layer conv8_2_mbox_conf_perm
I0601 17:38:46.697926  8007 net.cpp:434] conv8_2_mbox_conf_perm <- conv8_2_mbox_conf
I0601 17:38:46.697933  8007 net.cpp:408] conv8_2_mbox_conf_perm -> conv8_2_mbox_conf_perm
I0601 17:38:46.698072  8007 net.cpp:150] Setting up conv8_2_mbox_conf_perm
I0601 17:38:46.698079  8007 net.cpp:157] Top shape: 32 3 3 16 (4608)
I0601 17:38:46.698083  8007 net.cpp:165] Memory required for data: 7934580512
I0601 17:38:46.698086  8007 layer_factory.hpp:77] Creating layer conv8_2_mbox_conf_flat
I0601 17:38:46.698108  8007 net.cpp:100] Creating Layer conv8_2_mbox_conf_flat
I0601 17:38:46.698114  8007 net.cpp:434] conv8_2_mbox_conf_flat <- conv8_2_mbox_conf_perm
I0601 17:38:46.698120  8007 net.cpp:408] conv8_2_mbox_conf_flat -> conv8_2_mbox_conf_flat
I0601 17:38:46.698143  8007 net.cpp:150] Setting up conv8_2_mbox_conf_flat
I0601 17:38:46.698148  8007 net.cpp:157] Top shape: 32 144 (4608)
I0601 17:38:46.698153  8007 net.cpp:165] Memory required for data: 7934598944
I0601 17:38:46.698155  8007 layer_factory.hpp:77] Creating layer conv8_2_mbox_priorbox
I0601 17:38:46.698179  8007 net.cpp:100] Creating Layer conv8_2_mbox_priorbox
I0601 17:38:46.698184  8007 net.cpp:434] conv8_2_mbox_priorbox <- conv8_2_conv8_2_relu_0_split_3
I0601 17:38:46.698189  8007 net.cpp:434] conv8_2_mbox_priorbox <- data_data_0_split_5
I0601 17:38:46.698204  8007 net.cpp:408] conv8_2_mbox_priorbox -> conv8_2_mbox_priorbox
I0601 17:38:46.698231  8007 net.cpp:150] Setting up conv8_2_mbox_priorbox
I0601 17:38:46.698237  8007 net.cpp:157] Top shape: 1 2 144 (288)
I0601 17:38:46.698241  8007 net.cpp:165] Memory required for data: 7934600096
I0601 17:38:46.698246  8007 layer_factory.hpp:77] Creating layer conv9_2_mbox_loc
I0601 17:38:46.698256  8007 net.cpp:100] Creating Layer conv9_2_mbox_loc
I0601 17:38:46.698259  8007 net.cpp:434] conv9_2_mbox_loc <- conv9_2_conv9_2_relu_0_split_0
I0601 17:38:46.698268  8007 net.cpp:408] conv9_2_mbox_loc -> conv9_2_mbox_loc
I0601 17:38:46.704751  8007 net.cpp:150] Setting up conv9_2_mbox_loc
I0601 17:38:46.704762  8007 net.cpp:157] Top shape: 32 16 1 1 (512)
I0601 17:38:46.704766  8007 net.cpp:165] Memory required for data: 7934602144
I0601 17:38:46.704773  8007 layer_factory.hpp:77] Creating layer conv9_2_mbox_loc_perm
I0601 17:38:46.704782  8007 net.cpp:100] Creating Layer conv9_2_mbox_loc_perm
I0601 17:38:46.704787  8007 net.cpp:434] conv9_2_mbox_loc_perm <- conv9_2_mbox_loc
I0601 17:38:46.704793  8007 net.cpp:408] conv9_2_mbox_loc_perm -> conv9_2_mbox_loc_perm
I0601 17:38:46.704902  8007 net.cpp:150] Setting up conv9_2_mbox_loc_perm
I0601 17:38:46.704908  8007 net.cpp:157] Top shape: 32 1 1 16 (512)
I0601 17:38:46.704911  8007 net.cpp:165] Memory required for data: 7934604192
I0601 17:38:46.704928  8007 layer_factory.hpp:77] Creating layer conv9_2_mbox_loc_flat
I0601 17:38:46.704936  8007 net.cpp:100] Creating Layer conv9_2_mbox_loc_flat
I0601 17:38:46.704941  8007 net.cpp:434] conv9_2_mbox_loc_flat <- conv9_2_mbox_loc_perm
I0601 17:38:46.704946  8007 net.cpp:408] conv9_2_mbox_loc_flat -> conv9_2_mbox_loc_flat
I0601 17:38:46.704968  8007 net.cpp:150] Setting up conv9_2_mbox_loc_flat
I0601 17:38:46.704974  8007 net.cpp:157] Top shape: 32 16 (512)
I0601 17:38:46.704978  8007 net.cpp:165] Memory required for data: 7934606240
I0601 17:38:46.704982  8007 layer_factory.hpp:77] Creating layer conv9_2_mbox_conf
I0601 17:38:46.704991  8007 net.cpp:100] Creating Layer conv9_2_mbox_conf
I0601 17:38:46.704996  8007 net.cpp:434] conv9_2_mbox_conf <- conv9_2_conv9_2_relu_0_split_1
I0601 17:38:46.705004  8007 net.cpp:408] conv9_2_mbox_conf -> conv9_2_mbox_conf
I0601 17:38:46.713732  8007 net.cpp:150] Setting up conv9_2_mbox_conf
I0601 17:38:46.713742  8007 net.cpp:157] Top shape: 32 16 1 1 (512)
I0601 17:38:46.713747  8007 net.cpp:165] Memory required for data: 7934608288
I0601 17:38:46.713753  8007 layer_factory.hpp:77] Creating layer conv9_2_mbox_conf_perm
I0601 17:38:46.713778  8007 net.cpp:100] Creating Layer conv9_2_mbox_conf_perm
I0601 17:38:46.713783  8007 net.cpp:434] conv9_2_mbox_conf_perm <- conv9_2_mbox_conf
I0601 17:38:46.713790  8007 net.cpp:408] conv9_2_mbox_conf_perm -> conv9_2_mbox_conf_perm
I0601 17:38:46.713930  8007 net.cpp:150] Setting up conv9_2_mbox_conf_perm
I0601 17:38:46.713937  8007 net.cpp:157] Top shape: 32 1 1 16 (512)
I0601 17:38:46.713939  8007 net.cpp:165] Memory required for data: 7934610336
I0601 17:38:46.713943  8007 layer_factory.hpp:77] Creating layer conv9_2_mbox_conf_flat
I0601 17:38:46.713950  8007 net.cpp:100] Creating Layer conv9_2_mbox_conf_flat
I0601 17:38:46.713969  8007 net.cpp:434] conv9_2_mbox_conf_flat <- conv9_2_mbox_conf_perm
I0601 17:38:46.713975  8007 net.cpp:408] conv9_2_mbox_conf_flat -> conv9_2_mbox_conf_flat
I0601 17:38:46.714013  8007 net.cpp:150] Setting up conv9_2_mbox_conf_flat
I0601 17:38:46.714020  8007 net.cpp:157] Top shape: 32 16 (512)
I0601 17:38:46.714023  8007 net.cpp:165] Memory required for data: 7934612384
I0601 17:38:46.714026  8007 layer_factory.hpp:77] Creating layer conv9_2_mbox_priorbox
I0601 17:38:46.714035  8007 net.cpp:100] Creating Layer conv9_2_mbox_priorbox
I0601 17:38:46.714040  8007 net.cpp:434] conv9_2_mbox_priorbox <- conv9_2_conv9_2_relu_0_split_2
I0601 17:38:46.714046  8007 net.cpp:434] conv9_2_mbox_priorbox <- data_data_0_split_6
I0601 17:38:46.714053  8007 net.cpp:408] conv9_2_mbox_priorbox -> conv9_2_mbox_priorbox
I0601 17:38:46.714087  8007 net.cpp:150] Setting up conv9_2_mbox_priorbox
I0601 17:38:46.714093  8007 net.cpp:157] Top shape: 1 2 16 (32)
I0601 17:38:46.714097  8007 net.cpp:165] Memory required for data: 7934612512
I0601 17:38:46.714099  8007 layer_factory.hpp:77] Creating layer mbox_loc
I0601 17:38:46.714107  8007 net.cpp:100] Creating Layer mbox_loc
I0601 17:38:46.714113  8007 net.cpp:434] mbox_loc <- conv4_3_norm_mbox_loc_flat
I0601 17:38:46.714118  8007 net.cpp:434] mbox_loc <- fc7_mbox_loc_flat
I0601 17:38:46.714124  8007 net.cpp:434] mbox_loc <- conv6_2_mbox_loc_flat
I0601 17:38:46.714129  8007 net.cpp:434] mbox_loc <- conv7_2_mbox_loc_flat
I0601 17:38:46.714135  8007 net.cpp:434] mbox_loc <- conv8_2_mbox_loc_flat
I0601 17:38:46.714140  8007 net.cpp:434] mbox_loc <- conv9_2_mbox_loc_flat
I0601 17:38:46.714146  8007 net.cpp:408] mbox_loc -> mbox_loc
I0601 17:38:46.714174  8007 net.cpp:150] Setting up mbox_loc
I0601 17:38:46.714179  8007 net.cpp:157] Top shape: 32 34928 (1117696)
I0601 17:38:46.714184  8007 net.cpp:165] Memory required for data: 7939083296
I0601 17:38:46.714186  8007 layer_factory.hpp:77] Creating layer mbox_conf
I0601 17:38:46.714192  8007 net.cpp:100] Creating Layer mbox_conf
I0601 17:38:46.714197  8007 net.cpp:434] mbox_conf <- conv4_3_norm_mbox_conf_flat
I0601 17:38:46.714202  8007 net.cpp:434] mbox_conf <- fc7_mbox_conf_flat
I0601 17:38:46.714207  8007 net.cpp:434] mbox_conf <- conv6_2_mbox_conf_flat
I0601 17:38:46.714212  8007 net.cpp:434] mbox_conf <- conv7_2_mbox_conf_flat
I0601 17:38:46.714217  8007 net.cpp:434] mbox_conf <- conv8_2_mbox_conf_flat
I0601 17:38:46.714221  8007 net.cpp:434] mbox_conf <- conv9_2_mbox_conf_flat
I0601 17:38:46.714229  8007 net.cpp:408] mbox_conf -> mbox_conf
I0601 17:38:46.714253  8007 net.cpp:150] Setting up mbox_conf
I0601 17:38:46.714259  8007 net.cpp:157] Top shape: 32 34928 (1117696)
I0601 17:38:46.714263  8007 net.cpp:165] Memory required for data: 7943554080
I0601 17:38:46.714267  8007 layer_factory.hpp:77] Creating layer mbox_priorbox
I0601 17:38:46.714272  8007 net.cpp:100] Creating Layer mbox_priorbox
I0601 17:38:46.714277  8007 net.cpp:434] mbox_priorbox <- conv4_3_norm_mbox_priorbox
I0601 17:38:46.714282  8007 net.cpp:434] mbox_priorbox <- fc7_mbox_priorbox
I0601 17:38:46.714287  8007 net.cpp:434] mbox_priorbox <- conv6_2_mbox_priorbox
I0601 17:38:46.714292  8007 net.cpp:434] mbox_priorbox <- conv7_2_mbox_priorbox
I0601 17:38:46.714298  8007 net.cpp:434] mbox_priorbox <- conv8_2_mbox_priorbox
I0601 17:38:46.714301  8007 net.cpp:434] mbox_priorbox <- conv9_2_mbox_priorbox
I0601 17:38:46.714308  8007 net.cpp:408] mbox_priorbox -> mbox_priorbox
I0601 17:38:46.714330  8007 net.cpp:150] Setting up mbox_priorbox
I0601 17:38:46.714336  8007 net.cpp:157] Top shape: 1 2 34928 (69856)
I0601 17:38:46.714339  8007 net.cpp:165] Memory required for data: 7943833504
I0601 17:38:46.714344  8007 layer_factory.hpp:77] Creating layer mbox_loss
I0601 17:38:46.714352  8007 net.cpp:100] Creating Layer mbox_loss
I0601 17:38:46.714356  8007 net.cpp:434] mbox_loss <- mbox_loc
I0601 17:38:46.714361  8007 net.cpp:434] mbox_loss <- mbox_conf
I0601 17:38:46.714366  8007 net.cpp:434] mbox_loss <- mbox_priorbox
…
  name: "data"
  type: "AnnotatedData"
  top: "data"
  top: "label"
  include {
    phase: TEST
  }
  transform_param {
    mean_value: 104
    mean_value: 117
    mean_value: 123
    resize_param {
      prob: 1
      resize_mode: WARP
      height: 300
      width: 300
      interp_mode: LINEAR
    }
  }
  data_param {
    source: "examples/tbs_300x300_HSIL_10x/tbs_300x300_HSIL_10x_test_lmdb"
    batch_size: 4
    backend: LMDB
  }
  annotated_data_param {
    batch_sampler {
    }
    label_map_file: "data/tbs_300x300_HSIL_10x/labelmap_voc.prototxt"
  }
}
layer {
  name: "conv1_1"
  type: "Convolution"
  bottom: "data"
  top: "conv1_1"
  param {
    lr_mult: 1
    decay_mult: 1
  }
  param {
    lr_mult: 2
    decay_mult: 0
  }
  convolution_param {
    num_output: 64
    pad: 1
    kernel_size: 3
    weight_filler {
      type: "xavier"
    }
    bias_filler {
      type: "constant"
      value: 0
    }
  }
}
layer {
  name: "relu1_1"
  type: "ReLU"
  bottom: "conv1_1"
  top: "conv1_1"
}
layer {
  name: "conv1_2"
  type: "Convolution"
  bottom: "conv1_1"
  top: "conv1_2"
  param {
    lr_mult: 1
    decay_mult: 1
  }
  param {
    lr_mult: 2
    decay_mult: 0
  }
  convolution_param {
    num_output: 64
    pad: 1
    kernel_size: 3
    weight_filler {
      type: "xavier"
    }
    bias_filler {
      type: "constant"
      value: 0
    }
  }
}
layer {
  name: "relu1_2"
  type: "ReLU"
  bottom: "conv1_2"
  top: "conv1_2"
}
layer {
  name: "pool1"
  type: "Pooling"
  bottom: "conv1_2"
  top: "pool1"
  pooling_param {
    pool: MAX
    kernel_size: 2
    stride: 2
  }
}
layer {
  name: "conv2_1"
  type: "Convolution"
  bottom: "pool1"
  top: "conv2_1"
  param {
    lr_mult: 1
    decay_mult: 1
  }
  param {
    lr_mult: 2
    decay_mult: 0
  }
  convolution_param {
    num_output: 128
    pad: 1
    kernel_size: 3
    weight_filler {
      type: "xavier"
    }
    bias_filler {
      type: "constant"
      value: 0
    }
  }
}
layer {
  name: "relu2_1"
  type: "ReLU"
  bottom: "conv2_1"
  top: "conv2_1"
}
layer {
  name: "conv2_2"
  type: "Convolution"
  bottom: "conv2_1"
  top: "conv2_2"
  param {
    lr_mult: 1
    decay_mult: 1
  }
  param {
    lr_mult: 2
    decay_mult: 0
  }
  convolution_param {
    num_output: 128
    pad: 1
    kernel_size: 3
    weight_filler {
      type: "xavier"
    }
    bias_filler {
      type: "constant"
      value: 0
    }
  }
}
layer {
  name: "relu2_2"
  type: "ReLU"
  bottom: "conv2_2"
  top: "conv2_2"
}
layer {
  name: "pool2"
  type: "Pooling"
  bottom: "conv2_2"
  top: "pool2"
  pooling_param {
    pool: MAX
    kernel_size: 2
    stride: 2
  }
}
layer {
  name: "conv3_1"
  type: "Convolution"
  bottom: "pool2"
  top: "conv3_1"
  param {
    lr_mult: 1
    decay_mult: 1
  }
  param {
    lr_mult: 2
    decay_mult: 0
  }
  convolution_param {
    num_output: 256
    pad: 1
    kernel_size: 3
    weight_filler {
      type: "xavier"
    }
    bias_filler {
      type: "constant"
      value: 0
    }
  }
}
layer {
  name: "relu3_1"
  type: "ReLU"
  bottom: "conv3_1"
  top: "conv3_1"
}
layer {
  name: "conv3_2"
  type: "Convolution"
  bottom: "conv3_1"
  top: "conv3_2"
  param {
    lr_mult: 1
    decay_mult: 1
  }
  param {
    lr_mult: 2
    decay_mult: 0
  }
  convolution_param {
    num_output: 256
    pad: 1
    kernel_size: 3
    weight_filler {
      type: "xavier"
    }
    bias_filler {
      type: "constant"
      value: 0
    }
  }
}
layer {
  name: "relu3_2"
  type: "ReLU"
  bottom: "conv3_2"
  top: "conv3_2"
}
layer {
  name: "conv3_3"
  type: "Convolution"
  bottom: "conv3_2"
  top: "conv3_3"
  param {
    lr_mult: 1
    decay_mult: 1
  }
  param {
    lr_mult: 2
    decay_mult: 0
  }
  convolution_param {
    num_output: 256
    pad: 1
    kernel_size: 3
    weight_filler {
      type: "xavier"
    }
    bias_filler {
      type: "constant"
      value: 0
    }
  }
}
layer {
  name: "relu3_3"
  type: "ReLU"
  bottom: "conv3_3"
  top: "conv3_3"
}
layer {
  name: "pool3"
  type: "Pooling"
  bottom: "conv3_3"
  top: "pool3"
  pooling_param {
    pool: MAX
    kernel_size: 2
    stride: 2
  }
}
layer {
  name: "conv4_1"
  type: "Convolution"
  bottom: "pool3"
  top: "conv4_1"
  param {
    lr_mult: 1
    decay_mult: 1
  }
  param {
    lr_mult: 2
    decay_mult: 0
  }
  convolution_param {
    num_output: 512
    pad: 1
    kernel_size: 3
    weight_filler {
      type: "xavier"
    }
    bias_filler {
      type: "constant"
      value: 0
    }
  }
}
layer {
  name: "relu4_1"
  type: "ReLU"
  bottom: "conv4_1"
  top: "conv4_1"
}
layer {
  name: "conv4_2"
  type: "Convolution"
  bottom: "conv4_1"
  top: "conv4_2"
  param {
    lr_mult: 1
    decay_mult: 1
  }
  param {
    lr_mult: 2
    decay_mult: 0
  }
  convolution_param {
    num_output: 512
    pad: 1
    kernel_size: 3
    weight_filler {
      type: "xavier"
    }
    bias_filler {
      type: "constant"
      value: 0
    }
  }
}
layer {
  name: "relu4_2"
  type: "ReLU"
  bottom: "conv4_2"
  top: "conv4_2"
}
layer {
  name: "conv4_3"
  type: "Convolution"
  bottom: "conv4_2"
  top: "conv4_3"
  param {
    lr_mult: 1
    decay_mult: 1
  }
  param {
    lr_mult: 2
    decay_mult: 0
  }
  convolution_param {
    num_output: 512
    pad: 1
    kernel_size: 3
    weight_filler {
      type: "xavier"
    }
    bias_filler {
      type: "constant"
      value: 0
    }
  }
}
layer {
  name: "relu4_3"
  type: "ReLU"
  bottom: "conv4_3"
  top: "conv4_3"
}
layer {
  name: "pool4"
  type: "Pooling"
  bottom: "conv4_3"
  top: "pool4"
  pooling_param {
    pool: MAX
    kernel_size: 2
    stride: 2
  }
}
layer {
  name: "conv5_1"
  type: "Convolution"
  bottom: "pool4"
  top: "conv5_1"
  param {
    lr_mult: 1
    decay_mult: 1
  }
  param {
    lr_mult: 2
    decay_mult: 0
  }
  convolution_param {
    num_output: 512
    pad: 1
    kernel_size: 3
    weight_filler {
      type: "xavier"
    }
    bias_filler {
      type: "constant"
      value: 0
    }
    dilation: 1
  }
}
layer {
  name: "relu5_1"
  type: "ReLU"
  bottom: "conv5_1"
  top: "conv5_1"
}
layer {
  name: "conv5_2"
  type: "Convolution"
  bottom: "conv5_1"
  top: "conv5_2"
  param {
    lr_mult: 1
    decay_mult: 1
  }
  param {
    lr_mult: 2
    decay_mult: 0
  }
  convolution_param {
    num_output: 512
    pad: 1
    kernel_size: 3
    weight_filler {
      type: "xavier"
    }
    bias_filler {
      type: "constant"
      value: 0
    }
    dilation: 1
  }
}
layer {
  name: "relu5_2"
  type: "ReLU"
  bottom: "conv5_2"
  top: "conv5_2"
}
layer {
  name: "conv5_3"
  type: "Convolution"
  bottom: "conv5_2"
  top: "conv5_3"
  param {
    lr_mult: 1
    decay_mult: 1
  }
  param {
    lr_mult: 2
    decay_mult: 0
  }
  convolution_param {
    num_output: 512
    pad: 1
    kernel_size: 3
    weight_filler {
      type: "xavier"
    }
    bias_filler {
      type: "constant"
      value: 0
    }
    dilation: 1
  }
}
layer {
  name: "relu5_3"
  type: "ReLU"
  bottom: "conv5_3"
  top: "conv5_3"
}
layer {
  name: "pool5"
  type: "Pooling"
  bottom: "conv5_3"
  top: "pool5"
  pooling_param {
    pool: MAX
    kernel_size: 3
    stride: 1
    pad: 1
  }
}
layer {
  name: "fc6"
  type: "Convolution"
  bottom: "pool5"
  top: "fc6"
  param {
    lr_mult: 1
    decay_mult: 1
  }
  param {
    lr_mult: 2
    decay_mult: 0
  }
  convolution_param {
    num_output: 1024
    pad: 6
    kernel_size: 3
    weight_filler {
      type: "xavier"
    }
    bias_filler {
      type: "constant"
      value: 0
    }
    dilation: 6
  }
}
layer {
  name: "relu6"
  type: "ReLU"
  bottom: "fc6"
  top: "fc6"
}
layer {
  name: "fc7"
  type: "Convolution"
  bottom: "fc6"
  top: "fc7"
  param {
    lr_mult: 1
    decay_mult: 1
  }
  param {
    lr_mult: 2
    decay_mult: 0
  }
  convolution_param {
    num_output: 1024
    kernel_size: 1
    weight_filler {
      type: "xavier"
    }
    bias_filler {
      type: "constant"
      value: 0
    }
  }
}
layer {
  name: "relu7"
  type: "ReLU"
  bottom: "fc7"
  top: "fc7"
}
layer {
  name: "conv6_1"
  type: "Convolution"
  bottom: "fc7"
  top: "conv6_1"
  param {
    lr_mult: 1
    decay_mult: 1
  }
  param {
    lr_mult: 2
    decay_mult: 0
  }
  convolution_param {
    num_output: 256
    pad: 0
    kernel_size: 1
    stride: 1
    weight_filler {
      type: "xavier"
    }
    bias_filler {
      type: "constant"
      value: 0
    }
  }
}
layer {
  name: "conv6_1_relu"
  type: "ReLU"
  bottom: "conv6_1"
  top: "conv6_1"
}
layer {
  name: "conv6_2"
  type: "Convolution"
  bottom: "conv6_1"
  top: "conv6_2"
  param {
    lr_mult: 1
    decay_mult: 1
  }
  param {
    lr_mult: 2
    decay_mult: 0
  }
  convolution_param {
    num_output: 512
    pad: 1
    kernel_size: 3
    stride: 2
    weight_filler {
      type: "xavier"
    }
    bias_filler {
      type: "constant"
      value: 0
    }
  }
}
layer {
  name: "conv6_2_relu"
  type: "ReLU"
  bottom: "conv6_2"
  top: "conv6_2"
}
layer {
  name: "conv7_1"
  type: "Convolution"
  bottom: "conv6_2"
  top: "conv7_1"
  param {
    lr_mult: 1
    decay_mult: 1
  }
  param {
    lr_mult: 2
    decay_mult: 0
  }
  convolution_param {
    num_output: 128
    pad: 0
    kernel_size: 1
    stride: 1
    weight_filler {
      type: "xavier"
    }
    bias_filler {
      type: "constant"
      value: 0
    }
  }
}
layer {
  name: "conv7_1_relu"
  type: "ReLU"
  bottom: "conv7_1"
  top: "conv7_1"
}
layer {
  name: "conv7_2"
  type: "Convolution"
  bottom: "conv7_1"
  top: "conv7_2"
  param {
    lr_mult: 1
    decay_mult: 1
  }
  param {
    lr_mult: 2
    decay_mult: 0
  }
  convolution_param {
    num_output: 256
    pad: 1
    kernel_size: 3
    stride: 2
    weight_filler {
      type: "xavier"
    }
    bias_filler {
      type: "constant"
      value: 0
    }
  }
}
layer {
  name: "conv7_2_relu"
  type: "ReLU"
  bottom: "conv7_2"
  top: "conv7_2"
}
layer {
  name: "conv8_1"
  type: "Convolution"
  bottom: "conv7_2"
  top: "conv8_1"
  param {
    lr_mult: 1
    decay_mult: 1
  }
  param {
    lr_mult: 2
    decay_mult: 0
  }
  convolution_param {
    num_output: 128
    pad: 0
    kernel_size: 1
    stride: 1
    weight_filler {
      type: "xavier"
    }
    bias_filler {
      type: "constant"
      value: 0
    }
  }
}
layer {
  name: "conv8_1_relu"
  type: "ReLU"
  bottom: "conv8_1"
  top: "conv8_1"
}
layer {
  name: "conv8_2"
  type: "Convolution"
  bottom: "conv8_1"
  top: "conv8_2"
  param {
    lr_mult: 1
    decay_mult: 1
  }
  param {
    lr_mult: 2
    decay_mult: 0
  }
  convolution_param {
    num_output: 256
    pad: 0
    kernel_size: 3
    stride: 1
    weight_filler {
      type: "xavier"
    }
    bias_filler {
      type: "constant"
      value: 0
    }
  }
}
layer {
  name: "conv8_2_relu"
  type: "ReLU"
  bottom: "conv8_2"
  top: "conv8_2"
}
layer {
  name: "conv9_1"
  type: "Convolution"
  bottom: "conv8_2"
  top: "conv9_1"
  param {
    lr_mult: 1
    decay_mult: 1
  }
  param {
    lr_mult: 2
    decay_mult: 0
  }
  convolution_param {
    num_output: 128
    pad: 0
    kernel_size: 1
    stride: 1
    weight_filler {
      type: "xavier"
    }
    bias_filler {
      type: "constant"
      value: 0
    }
  }
}
layer {
  name: "conv9_1_relu"
  type: "ReLU"
  bottom: "conv9_1"
  top: "conv9_1"
}
layer {
  name: "conv9_2"
  type: "Convolution"
  bottom: "conv9_1"
  top: "conv9_2"
  param {
    lr_mult: 1
    decay_mult: 1
  }
  param {
    lr_mult: 2
    decay_mult: 0
  }
  convolution_param {
    num_output: 256
    pad: 0
    kernel_size: 3
    stride: 1
    weight_filler {
      type: "xavier"
    }
    bias_filler {
      type: "constant"
      value: 0
    }
  }
}
layer {
  name: "conv9_2_relu"
  type: "ReLU"
  bottom: "conv9_2"
  top: "conv9_2"
}
layer {
  name: "conv4_3_norm"
  type: "Normalize"
  bottom: "conv4_3"
  top: "conv4_3_norm"
  norm_param {
    across_spatial: false
    scale_filler {
      type: "constant"
      value: 20
    }
    channel_shared: false
  }
}
layer {
  name: "conv4_3_norm_mbox_loc"
  type: "Convolution"
  bottom: "conv4_3_norm"
  top: "conv4_3_norm_mbox_loc"
  param {
    lr_mult: 1
    decay_mult: 1
  }
  param {
    lr_mult: 2
    decay_mult: 0
  }
  convolution_param {
    num_output: 16
    pad: 1
    kernel_size: 3
    stride: 1
    weight_filler {
      type: "xavier"
    }
    bias_filler {
      type: "constant"
      value: 0
    }
  }
}
layer {
  name: "conv4_3_norm_mbox_loc_perm"
  type: "Permute"
  bottom: "conv4_3_norm_mbox_loc"
  top: "conv4_3_norm_mbox_loc_perm"
  permute_param {
    order: 0
    order: 2
    order: 3
    order: 1
  }
}
layer {
  name: "conv4_3_norm_mbox_loc_flat"
  type: "Flatten"
  bottom: "conv4_3_norm_mbox_loc_perm"
  top: "conv4_3_norm_mbox_loc_flat"
  flatten_param {
    axis: 1
  }
}
layer {
  name: "conv4_3_norm_mbox_conf"
  type: "Convolution"
  bottom: "conv4_3_norm"
  top: "conv4_3_norm_mbox_conf"
  param {
    lr_mult: 1
    decay_mult: 1
  }
  param {
    lr_mult: 2
    decay_mult: 0
  }
  convolution_param {
    num_output: 16
    pad: 1
    kernel_size: 3
    stride: 1
    weight_filler {
      type: "xavier"
    }
    bias_filler {
      type: "constant"
      value: 0
    }
  }
}
layer {
  name: "conv4_3_norm_mbox_conf_perm"
  type: "Permute"
  bottom: "conv4_3_norm_mbox_conf"
  top: "conv4_3_norm_mbox_conf_perm"
  permute_param {
    order: 0
    order: 2
    order: 3
    order: 1
  }
}
layer {
  name: "conv4_3_norm_mbox_conf_flat"
  type: "Flatten"
  bottom: "conv4_3_norm_mbox_conf_perm"
  top: "conv4_3_norm_mbox_conf_flat"
  flatten_param {
    axis: 1
  }
}
layer {
  name: "conv4_3_norm_mbox_priorbox"
  type: "PriorBox"
  bottom: "conv4_3_norm"
  bottom: "data"
  top: "conv4_3_norm_mbox_priorbox"
  prior_box_param {
    min_size: 30
    max_size: 60
    aspect_ratio: 2
    flip: true
    clip: false
    variance: 0.1
    variance: 0.1
    variance: 0.2
    variance: 0.2
    step: 8
    offset: 0.5
  }
}
layer {
  name: "fc7_mbox_loc"
  type: "Convolution"
  bottom: "fc7"
  top: "fc7_mbox_loc"
  param {
    lr_mult: 1
    decay_mult: 1
  }
  param {
    lr_mult: 2
    decay_mult: 0
  }
  convolution_param {
    num_output: 24
    pad: 1
    kernel_size: 3
    stride: 1
    weight_filler {
      type: "xavier"
    }
    bias_filler {
      type: "constant"
      value: 0
    }
  }
}
layer {
  name: "fc7_mbox_loc_perm"
  type: "Permute"
  bottom: "fc7_mbox_loc"
  top: "fc7_mbox_loc_perm"
  permute_param {
    order: 0
    order: 2
    order: 3
    order: 1
  }
}
layer {
  name: "fc7_mbox_loc_flat"
  type: "Flatten"
  bottom: "fc7_mbox_loc_perm"
  top: "fc7_mbox_loc_flat"
  flatten_param {
    axis: 1
  }
}
layer {
  name: "fc7_mbox_conf"
  type: "Convolution"
  bottom: "fc7"
  top: "fc7_mbox_conf"
  param {
    lr_mult: 1
    decay_mult: 1
  }
  param {
    lr_mult: 2
    decay_mult: 0
  }
  convolution_param {
    num_output: 24
    pad: 1
    kernel_size: 3
    stride: 1
    weight_filler {
      type: "xavier"
    }
    bias_filler {
      type: "constant"
      value: 0
    }
  }
}
layer {
  name: "fc7_mbox_conf_perm"
  type: "Permute"
  bottom: "fc7_mbox_conf"
  top: "fc7_mbox_conf_perm"
  permute_param {
    order: 0
    order: 2
    order: 3
    order: 1
  }
}
layer {
  name: "fc7_mbox_conf_flat"
  type: "Flatten"
  bottom: "fc7_mbox_conf_perm"
  top: "fc7_mbox_conf_flat"
  flatten_param {
    axis: 1
  }
}
layer {
  name: "fc7_mbox_priorbox"
  type: "PriorBox"
  bottom: "fc7"
  bottom: "data"
  top: "fc7_mbox_priorbox"
  prior_box_param {
    min_size: 60
    max_size: 111
    aspect_ratio: 2
    aspect_ratio: 3
    flip: true
    clip: false
    variance: 0.1
    variance: 0.1
    variance: 0.2
    variance: 0.2
    step: 16
    offset: 0.5
  }
}
layer {
  name: "conv6_2_mbox_loc"
  type: "Convolution"
  bottom: "conv6_2"
  top: "conv6_2_mbox_loc"
  param {
    lr_mult: 1
    decay_mult: 1
  }
  param {
    lr_mult: 2
    decay_mult: 0
  }
  convolution_param {
    num_output: 24
    pad: 1
    kernel_size: 3
    stride: 1
    weight_filler {
      type: "xavier"
    }
    bias_filler {
      type: "constant"
      value: 0
    }
  }
}
layer {
  name: "conv6_2_mbox_loc_perm"
  type: "Permute"
  bottom: "conv6_2_mbox_loc"
  top: "conv6_2_mbox_loc_perm"
  permute_param {
    order: 0
    order: 2
    order: 3
    order: 1
  }
}
layer {
  name: "conv6_2_mbox_loc_flat"
  type: "Flatten"
  bottom: "conv6_2_mbox_loc_perm"
  top: "conv6_2_mbox_loc_flat"
  flatten_param {
    axis: 1
  }
}
layer {
  name: "conv6_2_mbox_conf"
  type: "Convolution"
  bottom: "conv6_2"
  top: "conv6_2_mbox_conf"
  param {
    lr_mult: 1
    decay_mult: 1
  }
  param {
    lr_mult: 2
    decay_mult: 0
  }
  convolution_param {
    num_output: 24
    pad: 1
    kernel_size: 3
    stride: 1
    weight_filler {
      type: "xavier"
    }
    bias_filler {
      type: "constant"
      value: 0
    }
  }
}
layer {
  name: "conv6_2_mbox_conf_perm"
  type: "Permute"
  bottom: "conv6_2_mbox_conf"
  top: "conv6_2_mbox_conf_perm"
  permute_param {
    order: 0
    order: 2
    order: 3
    order: 1
  }
}
layer {
  name: "conv6_2_mbox_conf_flat"
  type: "Flatten"
  bottom: "conv6_2_mbox_conf_perm"
  top: "conv6_2_mbox_conf_flat"
  flatten_param {
    axis: 1
  }
}
layer {
  name: "conv6_2_mbox_priorbox"
  type: "PriorBox"
  bottom: "conv6_2"
  bottom: "data"
  top: "conv6_2_mbox_priorbox"
  prior_box_param {
    min_size: 111
    max_size: 162
    aspect_ratio: 2
    aspect_ratio: 3
    flip: true
    clip: false
    variance: 0.1
    variance: 0.1
    variance: 0.2
    variance: 0.2
    step: 32
    offset: 0.5
  }
}
layer {
  name: "conv7_2_mbox_loc"
  type: "Convolution"
  bottom: "conv7_2"
  top: "conv7_2_mbox_loc"
  param {
    lr_mult: 1
    decay_mult: 1
  }
  param {
    lr_mult: 2
    decay_mult: 0
  }
  convolution_param {
    num_output: 24
    pad: 1
    kernel_size: 3
    stride: 1
    weight_filler {
      type: "xavier"
    }
    bias_filler {
      type: "constant"
      value: 0
    }
  }
}
layer {
  name: "conv7_2_mbox_loc_perm"
  type: "Permute"
  bottom: "conv7_2_mbox_loc"
  top: "conv7_2_mbox_loc_perm"
  permute_param {
    order: 0
    order: 2
    order: 3
    order: 1
  }
}
layer {
  name: "conv7_2_mbox_loc_flat"
  type: "Flatten"
  bottom: "conv7_2_mbox_loc_perm"
  top: "conv7_2_mbox_loc_flat"
  flatten_param {
    axis: 1
  }
}
layer {
  name: "conv7_2_mbox_conf"
  type: "Convolution"
  bottom: "conv7_2"
  top: "conv7_2_mbox_conf"
  param {
    lr_mult: 1
    decay_mult: 1
  }
  param {
    lr_mult: 2
    decay_mult: 0
  }
  convolution_param {
    num_output: 24
    pad: 1
    kernel_size: 3
    stride: 1
    weight_filler {
      type: "xavier"
    }
    bias_filler {
      type: "constant"
      value: 0
    }
  }
}
layer {
  name: "conv7_2_mbox_conf_perm"
  type: "Permute"
  bottom: "conv7_2_mbox_conf"
  top: "conv7_2_mbox_conf_perm"
  permute_param {
    order: 0
    order: 2
    order: 3
    order: 1
  }
}
layer {
  name: "conv7_2_mbox_conf_flat"
  type: "Flatten"
  bottom: "conv7_2_mbox_conf_perm"
  top: "conv7_2_mbox_conf_flat"
  flatten_param {
    axis: 1
  }
}
layer {
  name: "conv7_2_mbox_priorbox"
  type: "PriorBox"
  bottom: "conv7_2"
  bottom: "data"
  top: "conv7_2_mbox_priorbox"
  prior_box_param {
    min_size: 162
    max_size: 213
    aspect_ratio: 2
    aspect_ratio: 3
    flip: true
    clip: false
    variance: 0.1
    variance: 0.1
    variance: 0.2
    variance: 0.2
    step: 64
    offset: 0.5
  }
}
layer {
  name: "conv8_2_mbox_loc"
  type: "Convolution"
  bottom: "conv8_2"
  top: "conv8_2_mbox_loc"
  param {
    lr_mult: 1
    decay_mult: 1
  }
  param {
    lr_mult: 2
    decay_mult: 0
  }
  convolution_param {
    num_output: 16
    pad: 1
    kernel_size: 3
    stride: 1
    weight_filler {
      type: "xavier"
    }
    bias_filler {
      type: "constant"
      value: 0
    }
  }
}
layer {
  name: "conv8_2_mbox_loc_perm"
  type: "Permute"
  bottom: "conv8_2_mbox_loc"
  top: "conv8_2_mbox_loc_perm"
  permute_param {
    order: 0
    order: 2
    order: 3
    order: 1
  }
}
layer {
  name: "conv8_2_mbox_loc_flat"
  type: "Flatten"
  bottom: "conv8_2_mbox_loc_perm"
  top: "conv8_2_mbox_loc_flat"
  flatten_param {
    axis: 1
  }
}
layer {
  name: "conv8_2_mbox_conf"
  type: "Convolution"
  bottom: "conv8_2"
  top: "conv8_2_mbox_conf"
  param {
    lr_mult: 1
    decay_mult: 1
  }
  param {
    lr_mult: 2
    decay_mult: 0
  }
  convolution_param {
    num_output: 16
    pad: 1
    kernel_size: 3
    stride: 1
    weight_filler {
      type: "xavier"
    }
    bias_filler {
      type: "constant"
      value: 0
    }
  }
}
layer {
  name: "conv8_2_mbox_conf_perm"
  type: "Permute"
  bottom: "conv8_2_mbox_conf"
  top: "conv8_2_mbox_conf_perm"
  permute_param {
    order: 0
    order: 2
    order: 3
    order: 1
  }
}
layer {
  name: "conv8_2_mbox_conf_flat"
  type: "Flatten"
  bottom: "conv8_2_mbox_conf_perm"
  top: "conv8_2_mbox_conf_flat"
  flatten_param {
    axis: 1
  }
}
layer {
  name: "conv8_2_mbox_priorbox"
  type: "PriorBox"
  bottom: "conv8_2"
  bottom: "data"
  top: "conv8_2_mbox_priorbox"
  prior_box_param {
    min_size: 213
    max_size: 264
    aspect_ratio: 2
    flip: true
    clip: false
    variance: 0.1
    variance: 0.1
    variance: 0.2
    variance: 0.2
    step: 100
    offset: 0.5
  }
}
layer {
  name: "conv9_2_mbox_loc"
  type: "Convolution"
  bottom: "conv9_2"
  top: "conv9_2_mbox_loc"
  param {
    lr_mult: 1
    decay_mult: 1
  }
  param {
    lr_mult: 2
    decay_mult: 0
  }
  convolution_param {
    num_output: 16
    pad: 1
    kernel_size: 3
    stride: 1
    weight_filler {
      type: "xavier"
    }
    bias_filler {
      type: "constant"
      value: 0
    }
  }
}
layer {
  name: "conv9_2_mbox_loc_perm"
  type: "Permute"
  bottom: "conv9_2_mbox_loc"
  top: "conv9_2_mbox_loc_perm"
  permute_param {
    order: 0
    order: 2
    order: 3
    order: 1
  }
}
layer {
  name: "conv9_2_mbox_loc_flat"
  type: "Flatten"
  bottom: "conv9_2_mbox_loc_perm"
  top: "conv9_2_mbox_loc_flat"
  flatten_param {
    axis: 1
  }
}
layer {
  name: "conv9_2_mbox_conf"
  type: "Convolution"
  bottom: "conv9_2"
  top: "conv9_2_mbox_conf"
  param {
    lr_mult: 1
    decay_mult: 1
  }
  param {
    lr_mult: 2
    decay_mult: 0
  }
  convolution_param {
    num_output: 16
    pad: 1
    kernel_size: 3
    stride: 1
    weight_filler {
      type: "xavier"
    }
    bias_filler {
      type: "constant"
      value: 0
    }
  }
}
layer {
  name: "conv9_2_mbox_conf_perm"
  type: "Permute"
  bottom: "conv9_2_mbox_conf"
  top: "conv9_2_mbox_conf_perm"
  permute_param {
    order: 0
    order: 2
    order: 3
    order: 1
  }
}
layer {
  name: "conv9_2_mbox_conf_flat"
  type: "Flatten"
  bottom: "conv9_2_mbox_conf_perm"
  top: "conv9_2_mbox_conf_flat"
  flatten_param {
    axis: 1
  }
}
layer {
  name: "conv9_2_mbox_priorbox"
  type: "PriorBox"
  bottom: "conv9_2"
  bottom: "data"
  top: "conv9_2_mbox_priorbox"
  prior_box_param {
    min_size: 264
    max_size: 315
    aspect_ratio: 2
    flip: true
    clip: false
    variance: 0.1
    variance: 0.1
    variance: 0.2
    variance: 0.2
    step: 300
    offset: 0.5
  }
}
layer {
  name: "mbox_loc"
  type: "Concat"
  bottom: "conv4_3_norm_mbox_loc_flat"
  bottom: "fc7_mbox_loc_flat"
  bottom: "conv6_2_mbox_loc_flat"
  bottom: "conv7_2_mbox_loc_flat"
  bottom: "conv8_2_mbox_loc_flat"
  bottom: "conv9_2_mbox_loc_flat"
  top: "mbox_loc"
  concat_param {
    axis: 1
  }
}
layer {
  name: "mbox_conf"
  type: "Concat"
  bottom: "conv4_3_norm_mbox_conf_flat"
  bottom: "fc7_mbox_conf_flat"
  bottom: "conv6_2_mbox_conf_flat"
  bottom: "conv7_2_mbox_conf_flat"
  bottom: "conv8_2_mbox_conf_flat"
  bottom: "conv9_2_mbox_conf_flat"
  top: "mbox_conf"
  concat_param {
    axis: 1
  }
}
layer {
  name: "mbox_priorbox"
  type: "Concat"
  bottom: "conv4_3_norm_mbox_priorbox"
  bottom: "fc7_mbox_priorbox"
  bottom: "conv6_2_mbox_priorbox"
  bottom: "conv7_2_mbox_priorbox"
  bottom: "conv8_2_mbox_priorbox"
  bottom: "conv9_2_mbox_priorbox"
  top: "mbox_priorbox"
  concat_param {
    axis: 2
  }
}
layer {
  name: "mbox_conf_reshape"
  type: "Reshape"
  bottom: "mbox_conf"
  top: "mbox_conf_reshape"
  reshape_param {
    shape {
      dim: 0
      dim: -1
      dim: 4
    }
  }
}
layer {
  name: "mbox_conf_softmax"
  type: "Softmax"
  bottom: "mbox_conf_reshape"
  top: "mbox_conf_softmax"
  softmax_param {
    axis: 2
  }
}
layer {
  name: "mbox_conf_flatten"
  type: "Flatten"
  bottom: "mbox_conf_softmax"
  top: "mbox_conf_flatten"
  flatten_param {
    axis: 1
  }
}
layer {
  name: "detection_out"
  type: "DetectionOutput"
  bottom: "mbox_loc"
  bottom: "mbox_conf_flatten"
  bottom: "mbox_priorbox"
  top: "detection_out"
  include {
    phase: TEST
  }
  detection_output_param {
    num_classes: 4
    share_location: true
    background_label_id: 0
    nms_param {
      nms_threshold: 0.45
      top_k: 400
    }
    save_output_param {
      output_directory: "/home/shangzw/data/tbs/results/tbs/SSD_300x300/Main"
      output_name_prefix: "comp4_det_test_"
      output_format: "VOC"
      label_map_file: "data/tbs_300x300_HSIL_10x/labelmap_voc.prototxt"
      name_size_file: "data/VOC0712/test_name_size.txt"
      num_test_image: 100
    }
    code_type: CENTER_SIZE
    keep_top_k: 200
    confidence_threshold: 0.01
  }
}
layer {
  name: "detection_eval"
  type: "DetectionEvaluate"
  bottom: "detection_out"
  bottom: "label"
  top: "detection_eval"
  include {
    phase: TEST
  }
  detection_evaluate_param {
    num_classes: 4
    background_label_id: 0
    overlap_threshold: 0.5
    evaluate_difficult_gt: false
    name_size_file: "data/VOC0712/test_name_size.txt"
  }
}
I0601 17:38:46.717818  8007 layer_factory.hpp:77] Creating layer data
I0601 17:38:46.717864  8007 net.cpp:100] Creating Layer data
I0601 17:38:46.717870  8007 net.cpp:408] data -> data
I0601 17:38:46.717877  8007 net.cpp:408] data -> label
I0601 17:38:46.719000  8022 db_lmdb.cpp:35] Opened lmdb examples/tbs_300x300_HSIL_10x/tbs_300x300_HSIL_10x_test_lmdb
I0601 17:38:46.719657  8007 annotated_data_layer.cpp:62] output data size: 4,3,300,300
I0601 17:38:46.731940  8007 net.cpp:150] Setting up data
I0601 17:38:46.731956  8007 net.cpp:157] Top shape: 4 3 300 300 (1080000)
I0601 17:38:46.731959  8007 net.cpp:157] Top shape: 1 1 1 8 (8)
I0601 17:38:46.731963  8007 net.cpp:165] Memory required for data: 4320032
I0601 17:38:46.731968  8007 layer_factory.hpp:77] Creating layer data_data_0_split
I0601 17:38:46.731979  8007 net.cpp:100] Creating Layer data_data_0_split
I0601 17:38:46.731983  8007 net.cpp:434] data_data_0_split <- data
I0601 17:38:46.731992  8007 net.cpp:408] data_data_0_split -> data_data_0_split_0
I0601 17:38:46.732003  8007 net.cpp:408] data_data_0_split -> data_data_0_split_1
I0601 17:38:46.732012  8007 net.cpp:408] data_data_0_split -> data_data_0_split_2
I0601 17:38:46.732033  8007 net.cpp:408] data_data_0_split -> data_data_0_split_3
I0601 17:38:46.732043  8007 net.cpp:408] data_data_0_split -> data_data_0_split_4
I0601 17:38:46.732053  8007 net.cpp:408] data_data_0_split -> data_data_0_split_5
I0601 17:38:46.732060  8007 net.cpp:408] data_data_0_split -> data_data_0_split_6
I0601 17:38:46.732244  8007 net.cpp:150] Setting up data_data_0_split
I0601 17:38:46.732254  8007 net.cpp:157] Top shape: 4 3 300 300 (1080000)
I0601 17:38:46.732257  8007 net.cpp:157] Top shape: 4 3 300 300 (1080000)
I0601 17:38:46.732262  8007 net.cpp:157] Top shape: 4 3 300 300 (1080000)
I0601 17:38:46.732266  8007 net.cpp:157] Top shape: 4 3 300 300 (1080000)
I0601 17:38:46.732271  8007 net.cpp:157] Top shape: 4 3 300 300 (1080000)
I0601 17:38:46.732290  8007 net.cpp:157] Top shape: 4 3 300 300 (1080000)
I0601 17:38:46.732295  8007 net.cpp:157] Top shape: 4 3 300 300 (1080000)
I0601 17:38:46.732300  8007 net.cpp:165] Memory required for data: 34560032
I0601 17:38:46.732306  8007 layer_factory.hpp:77] Creating layer conv1_1
I0601 17:38:46.732318  8007 net.cpp:100] Creating Layer conv1_1
I0601 17:38:46.732324  8007 net.cpp:434] conv1_1 <- data_data_0_split_0
I0601 17:38:46.732332  8007 net.cpp:408] conv1_1 -> conv1_1
I0601 17:38:46.740416  8007 net.cpp:150] Setting up conv1_1
I0601 17:38:46.740428  8007 net.cpp:157] Top shape: 4 64 300 300 (23040000)
I0601 17:38:46.740432  8007 net.cpp:165] Memory required for data: 126720032
I0601 17:38:46.740440  8007 layer_factory.hpp:77] Creating layer relu1_1
I0601 17:38:46.740452  8007 net.cpp:100] Creating Layer relu1_1
I0601 17:38:46.740459  8007 net.cpp:434] relu1_1 <- conv1_1
I0601 17:38:46.740474  8007 net.cpp:395] relu1_1 -> conv1_1 (in-place)
I0601 17:38:46.741024  8007 net.cpp:150] Setting up relu1_1
I0601 17:38:46.741034  8007 net.cpp:157] Top shape: 4 64 300 300 (23040000)
I0601 17:38:46.741041  8007 net.cpp:165] Memory required for data: 218880032
I0601 17:38:46.741050  8007 layer_factory.hpp:77] Creating layer conv1_2
I0601 17:38:46.741067  8007 net.cpp:100] Creating Layer conv1_2
I0601 17:38:46.741075  8007 net.cpp:434] conv1_2 <- conv1_1
I0601 17:38:46.741081  8007 net.cpp:408] conv1_2 -> conv1_2
I0601 17:38:46.747966  8007 net.cpp:150] Setting up conv1_2
I0601 17:38:46.747977  8007 net.cpp:157] Top shape: 4 64 300 300 (23040000)
I0601 17:38:46.747980  8007 net.cpp:165] Memory required for data: 311040032
I0601 17:38:46.747988  8007 layer_factory.hpp:77] Creating layer relu1_2
I0601 17:38:46.747995  8007 net.cpp:100] Creating Layer relu1_2
I0601 17:38:46.747999  8007 net.cpp:434] relu1_2 <- conv1_2
I0601 17:38:46.748005  8007 net.cpp:395] relu1_2 -> conv1_2 (in-place)
I0601 17:38:46.750087  8007 net.cpp:150] Setting up relu1_2
I0601 17:38:46.750095  8007 net.cpp:157] Top shape: 4 64 300 300 (23040000)
I0601 17:38:46.750098  8007 net.cpp:165] Memory required for data: 403200032
I0601 17:38:46.750102  8007 layer_factory.hpp:77] Creating layer pool1
I0601 17:38:46.750109  8007 net.cpp:100] Creating Layer pool1
I0601 17:38:46.750113  8007 net.cpp:434] pool1 <- conv1_2
I0601 17:38:46.750123  8007 net.cpp:408] pool1 -> pool1
I0601 17:38:46.750175  8007 net.cpp:150] Setting up pool1
I0601 17:38:46.750182  8007 net.cpp:157] Top shape: 4 64 150 150 (5760000)
I0601 17:38:46.750185  8007 net.cpp:165] Memory required for data: 426240032
I0601 17:38:46.750188  8007 layer_factory.hpp:77] Creating layer conv2_1
I0601 17:38:46.750202  8007 net.cpp:100] Creating Layer conv2_1
I0601 17:38:46.750207  8007 net.cpp:434] conv2_1 <- pool1
I0601 17:38:46.750213  8007 net.cpp:408] conv2_1 -> conv2_1
I0601 17:38:46.760643  8007 net.cpp:150] Setting up conv2_1
I0601 17:38:46.760660  8007 net.cpp:157] Top shape: 4 128 150 150 (11520000)
I0601 17:38:46.760663  8007 net.cpp:165] Memory required for data: 472320032
I0601 17:38:46.760686  8007 layer_factory.hpp:77] Creating layer relu2_1
I0601 17:38:46.760699  8007 net.cpp:100] Creating Layer relu2_1
I0601 17:38:46.760704  8007 net.cpp:434] relu2_1 <- conv2_1
I0601 17:38:46.760716  8007 net.cpp:395] relu2_1 -> conv2_1 (in-place)
I0601 17:38:46.761378  8007 net.cpp:150] Setting up relu2_1
I0601 17:38:46.761387  8007 net.cpp:157] Top shape: 4 128 150 150 (11520000)
I0601 17:38:46.761391  8007 net.cpp:165] Memory required for data: 518400032
I0601 17:38:46.761395  8007 layer_factory.hpp:77] Creating layer conv2_2
I0601 17:38:46.761405  8007 net.cpp:100] Creating Layer conv2_2
I0601 17:38:46.761409  8007 net.cpp:434] conv2_2 <- conv2_1
I0601 17:38:46.761415  8007 net.cpp:408] conv2_2 -> conv2_2
I0601 17:38:46.767560  8007 net.cpp:150] Setting up conv2_2
I0601 17:38:46.767575  8007 net.cpp:157] Top shape: 4 128 150 150 (11520000)
I0601 17:38:46.767577  8007 net.cpp:165] Memory required for data: 564480032
I0601 17:38:46.767585  8007 layer_factory.hpp:77] Creating layer relu2_2
I0601 17:38:46.767609  8007 net.cpp:100] Creating Layer relu2_2
I0601 17:38:46.767614  8007 net.cpp:434] relu2_2 <- conv2_2
I0601 17:38:46.767621  8007 net.cpp:395] relu2_2 -> conv2_2 (in-place)
I0601 17:38:46.769428  8007 net.cpp:150] Setting up relu2_2
I0601 17:38:46.769436  8007 net.cpp:157] Top shape: 4 128 150 150 (11520000)
I0601 17:38:46.769438  8007 net.cpp:165] Memory required for data: 610560032
I0601 17:38:46.769441  8007 layer_factory.hpp:77] Creating layer pool2
I0601 17:38:46.769449  8007 net.cpp:100] Creating Layer pool2
I0601 17:38:46.769454  8007 net.cpp:434] pool2 <- conv2_2
I0601 17:38:46.769459  8007 net.cpp:408] pool2 -> pool2
I0601 17:38:46.769512  8007 net.cpp:150] Setting up pool2
I0601 17:38:46.769520  8007 net.cpp:157] Top shape: 4 128 75 75 (2880000)
I0601 17:38:46.769522  8007 net.cpp:165] Memory required for data: 622080032
I0601 17:38:46.769525  8007 layer_factory.hpp:77] Creating layer conv3_1
I0601 17:38:46.769534  8007 net.cpp:100] Creating Layer conv3_1
I0601 17:38:46.769542  8007 net.cpp:434] conv3_1 <- pool2
I0601 17:38:46.769551  8007 net.cpp:408] conv3_1 -> conv3_1
I0601 17:38:46.778733  8007 net.cpp:150] Setting up conv3_1
I0601 17:38:46.778749  8007 net.cpp:157] Top shape: 4 256 75 75 (5760000)
I0601 17:38:46.778753  8007 net.cpp:165] Memory required for data: 645120032
I0601 17:38:46.778764  8007 layer_factory.hpp:77] Creating layer relu3_1
I0601 17:38:46.778771  8007 net.cpp:100] Creating Layer relu3_1
I0601 17:38:46.778775  8007 net.cpp:434] relu3_1 <- conv3_1
I0601 17:38:46.778784  8007 net.cpp:395] relu3_1 -> conv3_1 (in-place)
I0601 17:38:46.778954  8007 net.cpp:150] Setting up relu3_1
I0601 17:38:46.778961  8007 net.cpp:157] Top shape: 4 256 75 75 (5760000)
I0601 17:38:46.778964  8007 net.cpp:165] Memory required for data: 668160032
I0601 17:38:46.778967  8007 layer_factory.hpp:77] Creating layer conv3_2
I0601 17:38:46.778977  8007 net.cpp:100] Creating Layer conv3_2
I0601 17:38:46.778985  8007 net.cpp:434] conv3_2 <- conv3_1
I0601 17:38:46.778993  8007 net.cpp:408] conv3_2 -> conv3_2
I0601 17:38:46.785826  8007 net.cpp:150] Setting up conv3_2
I0601 17:38:46.785841  8007 net.cpp:157] Top shape: 4 256 75 75 (5760000)
I0601 17:38:46.785845  8007 net.cpp:165] Memory required for data: 691200032
I0601 17:38:46.785851  8007 layer_factory.hpp:77] Creating layer relu3_2
I0601 17:38:46.785858  8007 net.cpp:100] Creating Layer relu3_2
I0601 17:38:46.785862  8007 net.cpp:434] relu3_2 <- conv3_2
I0601 17:38:46.785869  8007 net.cpp:395] relu3_2 -> conv3_2 (in-place)
I0601 17:38:46.787642  8007 net.cpp:150] Setting up relu3_2
I0601 17:38:46.787650  8007 net.cpp:157] Top shape: 4 256 75 75 (5760000)
I0601 17:38:46.787652  8007 net.cpp:165] Memory required for data: 714240032
I0601 17:38:46.787655  8007 layer_factory.hpp:77] Creating layer conv3_3
I0601 17:38:46.787669  8007 net.cpp:100] Creating Layer conv3_3
I0601 17:38:46.787675  8007 net.cpp:434] conv3_3 <- conv3_2
I0601 17:38:46.787683  8007 net.cpp:408] conv3_3 -> conv3_3
I0601 17:38:46.794872  8007 net.cpp:150] Setting up conv3_3
I0601 17:38:46.794888  8007 net.cpp:157] Top shape: 4 256 75 75 (5760000)
I0601 17:38:46.794890  8007 net.cpp:165] Memory required for data: 737280032
I0601 17:38:46.794896  8007 layer_factory.hpp:77] Creating layer relu3_3
I0601 17:38:46.794901  8007 net.cpp:100] Creating Layer relu3_3
I0601 17:38:46.794904  8007 net.cpp:434] relu3_3 <- conv3_3
I0601 17:38:46.794909  8007 net.cpp:395] relu3_3 -> conv3_3 (in-place)
I0601 17:38:46.800149  8007 net.cpp:150] Setting up relu3_3
I0601 17:38:46.800178  8007 net.cpp:157] Top shape: 4 256 75 75 (5760000)
I0601 17:38:46.800179  8007 net.cpp:165] Memory required for data: 760320032
I0601 17:38:46.800184  8007 layer_factory.hpp:77] Creating layer pool3
I0601 17:38:46.800190  8007 net.cpp:100] Creating Layer pool3
I0601 17:38:46.800195  8007 net.cpp:434] pool3 <- conv3_3
I0601 17:38:46.800201  8007 net.cpp:408] pool3 -> pool3
I0601 17:38:46.800262  8007 net.cpp:150] Setting up pool3
I0601 17:38:46.800269  8007 net.cpp:157] Top shape: 4 256 38 38 (1478656)
I0601 17:38:46.800287  8007 net.cpp:165] Memory required for data: 766234656
I0601 17:38:46.800292  8007 layer_factory.hpp:77] Creating layer conv4_1
I0601 17:38:46.800304  8007 net.cpp:100] Creating Layer conv4_1
I0601 17:38:46.800309  8007 net.cpp:434] conv4_1 <- pool3
I0601 17:38:46.800318  8007 net.cpp:408] conv4_1 -> conv4_1
I0601 17:38:46.811432  8007 net.cpp:150] Setting up conv4_1
I0601 17:38:46.811450  8007 net.cpp:157] Top shape: 4 512 38 38 (2957312)
I0601 17:38:46.811453  8007 net.cpp:165] Memory required for data: 778063904
I0601 17:38:46.811462  8007 layer_factory.hpp:77] Creating layer relu4_1
I0601 17:38:46.811471  8007 net.cpp:100] Creating Layer relu4_1
I0601 17:38:46.811478  8007 net.cpp:434] relu4_1 <- conv4_1
I0601 17:38:46.811486  8007 net.cpp:395] relu4_1 -> conv4_1 (in-place)
I0601 17:38:46.813458  8007 net.cpp:150] Setting up relu4_1
I0601 17:38:46.813469  8007 net.cpp:157] Top shape: 4 512 38 38 (2957312)
I0601 17:38:46.813475  8007 net.cpp:165] Memory required for data: 789893152
I0601 17:38:46.813479  8007 layer_factory.hpp:77] Creating layer conv4_2
I0601 17:38:46.813493  8007 net.cpp:100] Creating Layer conv4_2
I0601 17:38:46.813498  8007 net.cpp:434] conv4_2 <- conv4_1
I0601 17:38:46.813506  8007 net.cpp:408] conv4_2 -> conv4_2
I0601 17:38:46.829073  8007 net.cpp:150] Setting up conv4_2
I0601 17:38:46.829092  8007 net.cpp:157] Top shape: 4 512 38 38 (2957312)
I0601 17:38:46.829095  8007 net.cpp:165] Memory required for data: 801722400
I0601 17:38:46.829108  8007 layer_factory.hpp:77] Creating layer relu4_2
I0601 17:38:46.829115  8007 net.cpp:100] Creating Layer relu4_2
I0601 17:38:46.829118  8007 net.cpp:434] relu4_2 <- conv4_2
I0601 17:38:46.829124  8007 net.cpp:395] relu4_2 -> conv4_2 (in-place)
I0601 17:38:46.832078  8007 net.cpp:150] Setting up relu4_2
I0601 17:38:46.832093  8007 net.cpp:157] Top shape: 4 512 38 38 (2957312)
I0601 17:38:46.832095  8007 net.cpp:165] Memory required for data: 813551648
I0601 17:38:46.832098  8007 layer_factory.hpp:77] Creating layer conv4_3
I0601 17:38:46.832110  8007 net.cpp:100] Creating Layer conv4_3
I0601 17:38:46.832113  8007 net.cpp:434] conv4_3 <- conv4_2
I0601 17:38:46.832118  8007 net.cpp:408] conv4_3 -> conv4_3
I0601 17:38:46.848589  8007 net.cpp:150] Setting up conv4_3
I0601 17:38:46.848609  8007 net.cpp:157] Top shape: 4 512 38 38 (2957312)
I0601 17:38:46.848613  8007 net.cpp:165] Memory required for data: 825380896
I0601 17:38:46.848618  8007 layer_factory.hpp:77] Creating layer relu4_3
I0601 17:38:46.848624  8007 net.cpp:100] Creating Layer relu4_3
I0601 17:38:46.848628  8007 net.cpp:434] relu4_3 <- conv4_3
I0601 17:38:46.848633  8007 net.cpp:395] relu4_3 -> conv4_3 (in-place)
I0601 17:38:46.850888  8007 net.cpp:150] Setting up relu4_3
I0601 17:38:46.850895  8007 net.cpp:157] Top shape: 4 512 38 38 (2957312)
I0601 17:38:46.850898  8007 net.cpp:165] Memory required for data: 837210144
I0601 17:38:46.850900  8007 layer_factory.hpp:77] Creating layer conv4_3_relu4_3_0_split
I0601 17:38:46.850906  8007 net.cpp:100] Creating Layer conv4_3_relu4_3_0_split
I0601 17:38:46.850909  8007 net.cpp:434] conv4_3_relu4_3_0_split <- conv4_3
I0601 17:38:46.850914  8007 net.cpp:408] conv4_3_relu4_3_0_split -> conv4_3_relu4_3_0_split_0
I0601 17:38:46.850919  8007 net.cpp:408] conv4_3_relu4_3_0_split -> conv4_3_relu4_3_0_split_1
I0601 17:38:46.850957  8007 net.cpp:150] Setting up conv4_3_relu4_3_0_split
I0601 17:38:46.850962  8007 net.cpp:157] Top shape: 4 512 38 38 (2957312)
I0601 17:38:46.850966  8007 net.cpp:157] Top shape: 4 512 38 38 (2957312)
I0601 17:38:46.850968  8007 net.cpp:165] Memory required for data: 860868640
I0601 17:38:46.850971  8007 layer_factory.hpp:77] Creating layer pool4
I0601 17:38:46.850976  8007 net.cpp:100] Creating Layer pool4
I0601 17:38:46.850980  8007 net.cpp:434] pool4 <- conv4_3_relu4_3_0_split_0
I0601 17:38:46.850985  8007 net.cpp:408] pool4 -> pool4
I0601 17:38:46.851017  8007 net.cpp:150] Setting up pool4
I0601 17:38:46.851022  8007 net.cpp:157] Top shape: 4 512 19 19 (739328)
I0601 17:38:46.851024  8007 net.cpp:165] Memory required for data: 863825952
I0601 17:38:46.851037  8007 layer_factory.hpp:77] Creating layer conv5_1
I0601 17:38:46.851047  8007 net.cpp:100] Creating Layer conv5_1
I0601 17:38:46.851049  8007 net.cpp:434] conv5_1 <- pool4
I0601 17:38:46.851054  8007 net.cpp:408] conv5_1 -> conv5_1
I0601 17:38:46.867507  8007 net.cpp:150] Setting up conv5_1
I0601 17:38:46.867522  8007 net.cpp:157] Top shape: 4 512 19 19 (739328)
I0601 17:38:46.867525  8007 net.cpp:165] Memory required for data: 866783264
I0601 17:38:46.867547  8007 layer_factory.hpp:77] Creating layer relu5_1
I0601 17:38:46.867552  8007 net.cpp:100] Creating Layer relu5_1
I0601 17:38:46.867555  8007 net.cpp:434] relu5_1 <- conv5_1
I0601 17:38:46.867560  8007 net.cpp:395] relu5_1 -> conv5_1 (in-place)
I0601 17:38:46.869724  8007 net.cpp:150] Setting up relu5_1
I0601 17:38:46.869735  8007 net.cpp:157] Top shape: 4 512 19 19 (739328)
I0601 17:38:46.869736  8007 net.cpp:165] Memory required for data: 869740576
I0601 17:38:46.869740  8007 layer_factory.hpp:77] Creating layer conv5_2
I0601 17:38:46.869748  8007 net.cpp:100] Creating Layer conv5_2
I0601 17:38:46.869752  8007 net.cpp:434] conv5_2 <- conv5_1
I0601 17:38:46.869758  8007 net.cpp:408] conv5_2 -> conv5_2
I0601 17:38:46.885085  8007 net.cpp:150] Setting up conv5_2
I0601 17:38:46.885104  8007 net.cpp:157] Top shape: 4 512 19 19 (739328)
I0601 17:38:46.885107  8007 net.cpp:165] Memory required for data: 872697888
I0601 17:38:46.885114  8007 layer_factory.hpp:77] Creating layer relu5_2
I0601 17:38:46.885121  8007 net.cpp:100] Creating Layer relu5_2
I0601 17:38:46.885125  8007 net.cpp:434] relu5_2 <- conv5_2
I0601 17:38:46.885129  8007 net.cpp:395] relu5_2 -> conv5_2 (in-place)
I0601 17:38:46.887256  8007 net.cpp:150] Setting up relu5_2
I0601 17:38:46.887265  8007 net.cpp:157] Top shape: 4 512 19 19 (739328)
I0601 17:38:46.887269  8007 net.cpp:165] Memory required for data: 875655200
I0601 17:38:46.887270  8007 layer_factory.hpp:77] Creating layer conv5_3
I0601 17:38:46.887280  8007 net.cpp:100] Creating Layer conv5_3
I0601 17:38:46.887284  8007 net.cpp:434] conv5_3 <- conv5_2
I0601 17:38:46.887289  8007 net.cpp:408] conv5_3 -> conv5_3
I0601 17:38:46.903893  8007 net.cpp:150] Setting up conv5_3
I0601 17:38:46.903911  8007 net.cpp:157] Top shape: 4 512 19 19 (739328)
I0601 17:38:46.903913  8007 net.cpp:165] Memory required for data: 878612512
I0601 17:38:46.903935  8007 layer_factory.hpp:77] Creating layer relu5_3
I0601 17:38:46.903947  8007 net.cpp:100] Creating Layer relu5_3
I0601 17:38:46.903951  8007 net.cpp:434] relu5_3 <- conv5_3
I0601 17:38:46.903956  8007 net.cpp:395] relu5_3 -> conv5_3 (in-place)
I0601 17:38:46.906085  8007 net.cpp:150] Setting up relu5_3
I0601 17:38:46.906095  8007 net.cpp:157] Top shape: 4 512 19 19 (739328)
I0601 17:38:46.906097  8007 net.cpp:165] Memory required for data: 881569824
I0601 17:38:46.906100  8007 layer_factory.hpp:77] Creating layer pool5
I0601 17:38:46.906105  8007 net.cpp:100] Creating Layer pool5
I0601 17:38:46.906107  8007 net.cpp:434] pool5 <- conv5_3
I0601 17:38:46.906112  8007 net.cpp:408] pool5 -> pool5
I0601 17:38:46.906157  8007 net.cpp:150] Setting up pool5
I0601 17:38:46.906162  8007 net.cpp:157] Top shape: 4 512 19 19 (739328)
I0601 17:38:46.906164  8007 net.cpp:165] Memory required for data: 884527136
I0601 17:38:46.906167  8007 layer_factory.hpp:77] Creating layer fc6
I0601 17:38:46.906175  8007 net.cpp:100] Creating Layer fc6
I0601 17:38:46.906178  8007 net.cpp:434] fc6 <- pool5
I0601 17:38:46.906185  8007 net.cpp:408] fc6 -> fc6
I0601 17:38:46.928999  8007 net.cpp:150] Setting up fc6
I0601 17:38:46.929018  8007 net.cpp:157] Top shape: 4 1024 19 19 (1478656)
I0601 17:38:46.929020  8007 net.cpp:165] Memory required for data: 890441760
I0601 17:38:46.929026  8007 layer_factory.hpp:77] Creating layer relu6
I0601 17:38:46.929033  8007 net.cpp:100] Creating Layer relu6
I0601 17:38:46.929036  8007 net.cpp:434] relu6 <- fc6
I0601 17:38:46.929041  8007 net.cpp:395] relu6 -> fc6 (in-place)
I0601 17:38:46.929715  8007 net.cpp:150] Setting up relu6
I0601 17:38:46.929728  8007 net.cpp:157] Top shape: 4 1024 19 19 (1478656)
I0601 17:38:46.929739  8007 net.cpp:165] Memory required for data: 896356384
I0601 17:38:46.929744  8007 layer_factory.hpp:77] Creating layer fc7
I0601 17:38:46.929754  8007 net.cpp:100] Creating Layer fc7
I0601 17:38:46.929760  8007 net.cpp:434] fc7 <- fc6
I0601 17:38:46.929767  8007 net.cpp:408] fc7 -> fc7
I0601 17:38:46.940873  8007 net.cpp:150] Setting up fc7
I0601 17:38:46.940892  8007 net.cpp:157] Top shape: 4 1024 19 19 (1478656)
I0601 17:38:46.940896  8007 net.cpp:165] Memory required for data: 902271008
I0601 17:38:46.940917  8007 layer_factory.hpp:77] Creating layer relu7
I0601 17:38:46.940922  8007 net.cpp:100] Creating Layer relu7
I0601 17:38:46.940927  8007 net.cpp:434] relu7 <- fc7
I0601 17:38:46.940932  8007 net.cpp:395] relu7 -> fc7 (in-place)
I0601 17:38:46.942018  8007 net.cpp:150] Setting up relu7
I0601 17:38:46.942028  8007 net.cpp:157] Top shape: 4 1024 19 19 (1478656)
I0601 17:38:46.942031  8007 net.cpp:165] Memory required for data: 908185632
I0601 17:38:46.942034  8007 layer_factory.hpp:77] Creating layer fc7_relu7_0_split
I0601 17:38:46.942039  8007 net.cpp:100] Creating Layer fc7_relu7_0_split
I0601 17:38:46.942042  8007 net.cpp:434] fc7_relu7_0_split <- fc7
I0601 17:38:46.942046  8007 net.cpp:408] fc7_relu7_0_split -> fc7_relu7_0_split_0
I0601 17:38:46.942052  8007 net.cpp:408] fc7_relu7_0_split -> fc7_relu7_0_split_1
I0601 17:38:46.942061  8007 net.cpp:408] fc7_relu7_0_split -> fc7_relu7_0_split_2
I0601 17:38:46.942067  8007 net.cpp:408] fc7_relu7_0_split -> fc7_relu7_0_split_3
I0601 17:38:46.942131  8007 net.cpp:150] Setting up fc7_relu7_0_split
I0601 17:38:46.942137  8007 net.cpp:157] Top shape: 4 1024 19 19 (1478656)
I0601 17:38:46.942139  8007 net.cpp:157] Top shape: 4 1024 19 19 (1478656)
I0601 17:38:46.942142  8007 net.cpp:157] Top shape: 4 1024 19 19 (1478656)
I0601 17:38:46.942145  8007 net.cpp:157] Top shape: 4 1024 19 19 (1478656)
I0601 17:38:46.942147  8007 net.cpp:165] Memory required for data: 931844128
I0601 17:38:46.942149  8007 layer_factory.hpp:77] Creating layer conv6_1
I0601 17:38:46.942157  8007 net.cpp:100] Creating Layer conv6_1
I0601 17:38:46.942159  8007 net.cpp:434] conv6_1 <- fc7_relu7_0_split_0
I0601 17:38:46.942164  8007 net.cpp:408] conv6_1 -> conv6_1
I0601 17:38:46.948933  8007 net.cpp:150] Setting up conv6_1
I0601 17:38:46.948946  8007 net.cpp:157] Top shape: 4 256 19 19 (369664)
I0601 17:38:46.948948  8007 net.cpp:165] Memory required for data: 933322784
I0601 17:38:46.948954  8007 layer_factory.hpp:77] Creating layer conv6_1_relu
I0601 17:38:46.948961  8007 net.cpp:100] Creating Layer conv6_1_relu
I0601 17:38:46.948963  8007 net.cpp:434] conv6_1_relu <- conv6_1
I0601 17:38:46.948966  8007 net.cpp:395] conv6_1_relu -> conv6_1 (in-place)
I0601 17:38:46.951086  8007 net.cpp:150] Setting up conv6_1_relu
I0601 17:38:46.951094  8007 net.cpp:157] Top shape: 4 256 19 19 (369664)
I0601 17:38:46.951097  8007 net.cpp:165] Memory required for data: 934801440
I0601 17:38:46.951099  8007 layer_factory.hpp:77] Creating layer conv6_2
I0601 17:38:46.951107  8007 net.cpp:100] Creating Layer conv6_2
I0601 17:38:46.951110  8007 net.cpp:434] conv6_2 <- conv6_1
I0601 17:38:46.951115  8007 net.cpp:408] conv6_2 -> conv6_2
I0601 17:38:46.962302  8007 net.cpp:150] Setting up conv6_2
I0601 17:38:46.962323  8007 net.cpp:157] Top shape: 4 512 10 10 (204800)
I0601 17:38:46.962327  8007 net.cpp:165] Memory required for data: 935620640
I0601 17:38:46.962347  8007 layer_factory.hpp:77] Creating layer conv6_2_relu
I0601 17:38:46.962357  8007 net.cpp:100] Creating Layer conv6_2_relu
I0601 17:38:46.962363  8007 net.cpp:434] conv6_2_relu <- conv6_2
I0601 17:38:46.962370  8007 net.cpp:395] conv6_2_relu -> conv6_2 (in-place)
I0601 17:38:46.964443  8007 net.cpp:150] Setting up conv6_2_relu
I0601 17:38:46.964453  8007 net.cpp:157] Top shape: 4 512 10 10 (204800)
I0601 17:38:46.964457  8007 net.cpp:165] Memory required for data: 936439840
I0601 17:38:46.964462  8007 layer_factory.hpp:77] Creating layer conv6_2_conv6_2_relu_0_split
I0601 17:38:46.964468  8007 net.cpp:100] Creating Layer conv6_2_conv6_2_relu_0_split
I0601 17:38:46.964483  8007 net.cpp:434] conv6_2_conv6_2_relu_0_split <- conv6_2
I0601 17:38:46.964493  8007 net.cpp:408] conv6_2_conv6_2_relu_0_split -> conv6_2_conv6_2_relu_0_split_0
I0601 17:38:46.964504  8007 net.cpp:408] conv6_2_conv6_2_relu_0_split -> conv6_2_conv6_2_relu_0_split_1
I0601 17:38:46.964514  8007 net.cpp:408] conv6_2_conv6_2_relu_0_split -> conv6_2_conv6_2_relu_0_split_2
I0601 17:38:46.964521  8007 net.cpp:408] conv6_2_conv6_2_relu_0_split -> conv6_2_conv6_2_relu_0_split_3
I0601 17:38:46.964596  8007 net.cpp:150] Setting up conv6_2_conv6_2_relu_0_split
I0601 17:38:46.964603  8007 net.cpp:157] Top shape: 4 512 10 10 (204800)
I0601 17:38:46.964608  8007 net.cpp:157] Top shape: 4 512 10 10 (204800)
I0601 17:38:46.964613  8007 net.cpp:157] Top shape: 4 512 10 10 (204800)
I0601 17:38:46.964618  8007 net.cpp:157] Top shape: 4 512 10 10 (204800)
I0601 17:38:46.964622  8007 net.cpp:165] Memory required for data: 939716640
I0601 17:38:46.964625  8007 layer_factory.hpp:77] Creating layer conv7_1
I0601 17:38:46.964637  8007 net.cpp:100] Creating Layer conv7_1
I0601 17:38:46.964643  8007 net.cpp:434] conv7_1 <- conv6_2_conv6_2_relu_0_split_0
I0601 17:38:46.964651  8007 net.cpp:408] conv7_1 -> conv7_1
I0601 17:38:46.972458  8007 net.cpp:150] Setting up conv7_1
I0601 17:38:46.972472  8007 net.cpp:157] Top shape: 4 128 10 10 (51200)
I0601 17:38:46.972476  8007 net.cpp:165] Memory required for data: 939921440
I0601 17:38:46.972486  8007 layer_factory.hpp:77] Creating layer conv7_1_relu
I0601 17:38:46.972508  8007 net.cpp:100] Creating Layer conv7_1_relu
I0601 17:38:46.972527  8007 net.cpp:434] conv7_1_relu <- conv7_1
I0601 17:38:46.972533  8007 net.cpp:395] conv7_1_relu -> conv7_1 (in-place)
I0601 17:38:46.974609  8007 net.cpp:150] Setting up conv7_1_relu
I0601 17:38:46.974618  8007 net.cpp:157] Top shape: 4 128 10 10 (51200)
I0601 17:38:46.974622  8007 net.cpp:165] Memory required for data: 940126240
I0601 17:38:46.974625  8007 layer_factory.hpp:77] Creating layer conv7_2
I0601 17:38:46.974637  8007 net.cpp:100] Creating Layer conv7_2
I0601 17:38:46.974642  8007 net.cpp:434] conv7_2 <- conv7_1
I0601 17:38:46.974650  8007 net.cpp:408] conv7_2 -> conv7_2
I0601 17:38:46.981576  8007 net.cpp:150] Setting up conv7_2
I0601 17:38:46.981595  8007 net.cpp:157] Top shape: 4 256 5 5 (25600)
I0601 17:38:46.981598  8007 net.cpp:165] Memory required for data: 940228640
I0601 17:38:46.981606  8007 layer_factory.hpp:77] Creating layer conv7_2_relu
I0601 17:38:46.981616  8007 net.cpp:100] Creating Layer conv7_2_relu
I0601 17:38:46.981627  8007 net.cpp:434] conv7_2_relu <- conv7_2
I0601 17:38:46.981634  8007 net.cpp:395] conv7_2_relu -> conv7_2 (in-place)
I0601 17:38:46.983731  8007 net.cpp:150] Setting up conv7_2_relu
I0601 17:38:46.983741  8007 net.cpp:157] Top shape: 4 256 5 5 (25600)
I0601 17:38:46.983745  8007 net.cpp:165] Memory required for data: 940331040
I0601 17:38:46.983749  8007 layer_factory.hpp:77] Creating layer conv7_2_conv7_2_relu_0_split
I0601 17:38:46.983758  8007 net.cpp:100] Creating Layer conv7_2_conv7_2_relu_0_split
I0601 17:38:46.983762  8007 net.cpp:434] conv7_2_conv7_2_relu_0_split <- conv7_2
I0601 17:38:46.983770  8007 net.cpp:408] conv7_2_conv7_2_relu_0_split -> conv7_2_conv7_2_relu_0_split_0
I0601 17:38:46.983779  8007 net.cpp:408] conv7_2_conv7_2_relu_0_split -> conv7_2_conv7_2_relu_0_split_1
I0601 17:38:46.983788  8007 net.cpp:408] conv7_2_conv7_2_relu_0_split -> conv7_2_conv7_2_relu_0_split_2
I0601 17:38:46.983793  8007 net.cpp:408] conv7_2_conv7_2_relu_0_split -> conv7_2_conv7_2_relu_0_split_3
I0601 17:38:46.983867  8007 net.cpp:150] Setting up conv7_2_conv7_2_relu_0_split
I0601 17:38:46.983875  8007 net.cpp:157] Top shape: 4 256 5 5 (25600)
I0601 17:38:46.983880  8007 net.cpp:157] Top shape: 4 256 5 5 (25600)
I0601 17:38:46.983883  8007 net.cpp:157] Top shape: 4 256 5 5 (25600)
I0601 17:38:46.983888  8007 net.cpp:157] Top shape: 4 256 5 5 (25600)
I0601 17:38:46.983892  8007 net.cpp:165] Memory required for data: 940740640
I0601 17:38:46.983896  8007 layer_factory.hpp:77] Creating layer conv8_1
I0601 17:38:46.983924  8007 net.cpp:100] Creating Layer conv8_1
I0601 17:38:46.983929  8007 net.cpp:434] conv8_1 <- conv7_2_conv7_2_relu_0_split_0
I0601 17:38:46.983938  8007 net.cpp:408] conv8_1 -> conv8_1
I0601 17:38:46.990712  8007 net.cpp:150] Setting up conv8_1
I0601 17:38:46.990725  8007 net.cpp:157] Top shape: 4 128 5 5 (12800)
I0601 17:38:46.990728  8007 net.cpp:165] Memory required for data: 940791840
I0601 17:38:46.990737  8007 layer_factory.hpp:77] Creating layer conv8_1_relu
I0601 17:38:46.990743  8007 net.cpp:100] Creating Layer conv8_1_relu
I0601 17:38:46.990747  8007 net.cpp:434] conv8_1_relu <- conv8_1
I0601 17:38:46.990753  8007 net.cpp:395] conv8_1_relu -> conv8_1 (in-place)
I0601 17:38:46.992871  8007 net.cpp:150] Setting up conv8_1_relu
I0601 17:38:46.992882  8007 net.cpp:157] Top shape: 4 128 5 5 (12800)
I0601 17:38:46.992885  8007 net.cpp:165] Memory required for data: 940843040
I0601 17:38:46.992889  8007 layer_factory.hpp:77] Creating layer conv8_2
I0601 17:38:46.992902  8007 net.cpp:100] Creating Layer conv8_2
I0601 17:38:46.992907  8007 net.cpp:434] conv8_2 <- conv8_1
I0601 17:38:46.992914  8007 net.cpp:408] conv8_2 -> conv8_2
I0601 17:38:46.999816  8007 net.cpp:150] Setting up conv8_2
I0601 17:38:46.999836  8007 net.cpp:157] Top shape: 4 256 3 3 (9216)
I0601 17:38:46.999840  8007 net.cpp:165] Memory required for data: 940879904
I0601 17:38:46.999848  8007 layer_factory.hpp:77] Creating layer conv8_2_relu
I0601 17:38:46.999858  8007 net.cpp:100] Creating Layer conv8_2_relu
I0601 17:38:46.999864  8007 net.cpp:434] conv8_2_relu <- conv8_2
I0601 17:38:46.999871  8007 net.cpp:395] conv8_2_relu -> conv8_2 (in-place)
I0601 17:38:47.002832  8007 net.cpp:150] Setting up conv8_2_relu
I0601 17:38:47.002845  8007 net.cpp:157] Top shape: 4 256 3 3 (9216)
I0601 17:38:47.002848  8007 net.cpp:165] Memory required for data: 940916768
I0601 17:38:47.002852  8007 layer_factory.hpp:77] Creating layer conv8_2_conv8_2_relu_0_split
I0601 17:38:47.002861  8007 net.cpp:100] Creating Layer conv8_2_conv8_2_relu_0_split
I0601 17:38:47.002877  8007 net.cpp:434] conv8_2_conv8_2_relu_0_split <- conv8_2
I0601 17:38:47.002897  8007 net.cpp:408] conv8_2_conv8_2_relu_0_split -> conv8_2_conv8_2_relu_0_split_0
I0601 17:38:47.002915  8007 net.cpp:408] conv8_2_conv8_2_relu_0_split -> conv8_2_conv8_2_relu_0_split_1
I0601 17:38:47.002933  8007 net.cpp:408] conv8_2_conv8_2_relu_0_split -> conv8_2_conv8_2_relu_0_split_2
I0601 17:38:47.002951  8007 net.cpp:408] conv8_2_conv8_2_relu_0_split -> conv8_2_conv8_2_relu_0_split_3
I0601 17:38:47.003046  8007 net.cpp:150] Setting up conv8_2_conv8_2_relu_0_split
I0601 17:38:47.003056  8007 net.cpp:157] Top shape: 4 256 3 3 (9216)
I0601 17:38:47.003059  8007 net.cpp:157] Top shape: 4 256 3 3 (9216)
I0601 17:38:47.003064  8007 net.cpp:157] Top shape: 4 256 3 3 (9216)
I0601 17:38:47.003069  8007 net.cpp:157] Top shape: 4 256 3 3 (9216)
I0601 17:38:47.003072  8007 net.cpp:165] Memory required for data: 941064224
I0601 17:38:47.003077  8007 layer_factory.hpp:77] Creating layer conv9_1
I0601 17:38:47.003090  8007 net.cpp:100] Creating Layer conv9_1
I0601 17:38:47.003098  8007 net.cpp:434] conv9_1 <- conv8_2_conv8_2_relu_0_split_0
I0601 17:38:47.003106  8007 net.cpp:408] conv9_1 -> conv9_1
I0601 17:38:47.010432  8007 net.cpp:150] Setting up conv9_1
I0601 17:38:47.010444  8007 net.cpp:157] Top shape: 4 128 3 3 (4608)
I0601 17:38:47.010448  8007 net.cpp:165] Memory required for data: 941082656
I0601 17:38:47.010471  8007 layer_factory.hpp:77] Creating layer conv9_1_relu
I0601 17:38:47.010478  8007 net.cpp:100] Creating Layer conv9_1_relu
I0601 17:38:47.010483  8007 net.cpp:434] conv9_1_relu <- conv9_1
I0601 17:38:47.010489  8007 net.cpp:395] conv9_1_relu -> conv9_1 (in-place)
I0601 17:38:47.012598  8007 net.cpp:150] Setting up conv9_1_relu
I0601 17:38:47.012609  8007 net.cpp:157] Top shape: 4 128 3 3 (4608)
I0601 17:38:47.012612  8007 net.cpp:165] Memory required for data: 941101088
I0601 17:38:47.012617  8007 layer_factory.hpp:77] Creating layer conv9_2
I0601 17:38:47.012645  8007 net.cpp:100] Creating Layer conv9_2
I0601 17:38:47.012651  8007 net.cpp:434] conv9_2 <- conv9_1
I0601 17:38:47.012660  8007 net.cpp:408] conv9_2 -> conv9_2
I0601 17:38:47.019595  8007 net.cpp:150] Setting up conv9_2
I0601 17:38:47.019613  8007 net.cpp:157] Top shape: 4 256 1 1 (1024)
I0601 17:38:47.019618  8007 net.cpp:165] Memory required for data: 941105184
I0601 17:38:47.019626  8007 layer_factory.hpp:77] Creating layer conv9_2_relu
I0601 17:38:47.019636  8007 net.cpp:100] Creating Layer conv9_2_relu
I0601 17:38:47.019642  8007 net.cpp:434] conv9_2_relu <- conv9_2
I0601 17:38:47.019649  8007 net.cpp:395] conv9_2_relu -> conv9_2 (in-place)
I0601 17:38:47.021695  8007 net.cpp:150] Setting up conv9_2_relu
I0601 17:38:47.021705  8007 net.cpp:157] Top shape: 4 256 1 1 (1024)
I0601 17:38:47.021709  8007 net.cpp:165] Memory required for data: 941109280
I0601 17:38:47.021713  8007 layer_factory.hpp:77] Creating layer conv9_2_conv9_2_relu_0_split
I0601 17:38:47.021721  8007 net.cpp:100] Creating Layer conv9_2_conv9_2_relu_0_split
I0601 17:38:47.021726  8007 net.cpp:434] conv9_2_conv9_2_relu_0_split <- conv9_2
I0601 17:38:47.021734  8007 net.cpp:408] conv9_2_conv9_2_relu_0_split -> conv9_2_conv9_2_relu_0_split_0
I0601 17:38:47.021742  8007 net.cpp:408] conv9_2_conv9_2_relu_0_split -> conv9_2_conv9_2_relu_0_split_1
I0601 17:38:47.021750  8007 net.cpp:408] conv9_2_conv9_2_relu_0_split -> conv9_2_conv9_2_relu_0_split_2
I0601 17:38:47.021813  8007 net.cpp:150] Setting up conv9_2_conv9_2_relu_0_split
I0601 17:38:47.021821  8007 net.cpp:157] Top shape: 4 256 1 1 (1024)
I0601 17:38:47.021826  8007 net.cpp:157] Top shape: 4 256 1 1 (1024)
I0601 17:38:47.021831  8007 net.cpp:157] Top shape: 4 256 1 1 (1024)
I0601 17:38:47.021834  8007 net.cpp:165] Memory required for data: 941121568
I0601 17:38:47.021837  8007 layer_factory.hpp:77] Creating layer conv4_3_norm
I0601 17:38:47.021847  8007 net.cpp:100] Creating Layer conv4_3_norm
I0601 17:38:47.021852  8007 net.cpp:434] conv4_3_norm <- conv4_3_relu4_3_0_split_1
I0601 17:38:47.021858  8007 net.cpp:408] conv4_3_norm -> conv4_3_norm
I0601 17:38:47.022020  8007 net.cpp:150] Setting up conv4_3_norm
I0601 17:38:47.022029  8007 net.cpp:157] Top shape: 4 512 38 38 (2957312)
I0601 17:38:47.022032  8007 net.cpp:165] Memory required for data: 952950816
I0601 17:38:47.022037  8007 layer_factory.hpp:77] Creating layer conv4_3_norm_conv4_3_norm_0_split
I0601 17:38:47.022042  8007 net.cpp:100] Creating Layer conv4_3_norm_conv4_3_norm_0_split
I0601 17:38:47.022045  8007 net.cpp:434] conv4_3_norm_conv4_3_norm_0_split <- conv4_3_norm
I0601 17:38:47.022050  8007 net.cpp:408] conv4_3_norm_conv4_3_norm_0_split -> conv4_3_norm_conv4_3_norm_0_split_0
I0601 17:38:47.022059  8007 net.cpp:408] conv4_3_norm_conv4_3_norm_0_split -> conv4_3_norm_conv4_3_norm_0_split_1
I0601 17:38:47.022066  8007 net.cpp:408] conv4_3_norm_conv4_3_norm_0_split -> conv4_3_norm_conv4_3_norm_0_split_2
I0601 17:38:47.022115  8007 net.cpp:150] Setting up conv4_3_norm_conv4_3_norm_0_split
I0601 17:38:47.022121  8007 net.cpp:157] Top shape: 4 512 38 38 (2957312)
I0601 17:38:47.022127  8007 net.cpp:157] Top shape: 4 512 38 38 (2957312)
I0601 17:38:47.022131  8007 net.cpp:157] Top shape: 4 512 38 38 (2957312)
I0601 17:38:47.022135  8007 net.cpp:165] Memory required for data: 988438560
I0601 17:38:47.022138  8007 layer_factory.hpp:77] Creating layer conv4_3_norm_mbox_loc
I0601 17:38:47.022148  8007 net.cpp:100] Creating Layer conv4_3_norm_mbox_loc
I0601 17:38:47.022153  8007 net.cpp:434] conv4_3_norm_mbox_loc <- conv4_3_norm_conv4_3_norm_0_split_0
I0601 17:38:47.022161  8007 net.cpp:408] conv4_3_norm_mbox_loc -> conv4_3_norm_mbox_loc
I0601 17:38:47.029028  8007 net.cpp:150] Setting up conv4_3_norm_mbox_loc
I0601 17:38:47.029042  8007 net.cpp:157] Top shape: 4 16 38 38 (92416)
I0601 17:38:47.029045  8007 net.cpp:165] Memory required for data: 988808224
I0601 17:38:47.029052  8007 layer_factory.hpp:77] Creating layer conv4_3_norm_mbox_loc_perm
I0601 17:38:47.029063  8007 net.cpp:100] Creating Layer conv4_3_norm_mbox_loc_perm
I0601 17:38:47.029081  8007 net.cpp:434] conv4_3_norm_mbox_loc_perm <- conv4_3_norm_mbox_loc
I0601 17:38:47.029090  8007 net.cpp:408] conv4_3_norm_mbox_loc_perm -> conv4_3_norm_mbox_loc_perm
I0601 17:38:47.029204  8007 net.cpp:150] Setting up conv4_3_norm_mbox_loc_perm
I0601 17:38:47.029211  8007 net.cpp:157] Top shape: 4 38 38 16 (92416)
I0601 17:38:47.029217  8007 net.cpp:165] Memory required for data: 989177888
I0601 17:38:47.029219  8007 layer_factory.hpp:77] Creating layer conv4_3_norm_mbox_loc_flat
I0601 17:38:47.029227  8007 net.cpp:100] Creating Layer conv4_3_norm_mbox_loc_flat
I0601 17:38:47.029230  8007 net.cpp:434] conv4_3_norm_mbox_loc_flat <- conv4_3_norm_mbox_loc_perm
I0601 17:38:47.029237  8007 net.cpp:408] conv4_3_norm_mbox_loc_flat -> conv4_3_norm_mbox_loc_flat
I0601 17:38:47.029278  8007 net.cpp:150] Setting up conv4_3_norm_mbox_loc_flat
I0601 17:38:47.029287  8007 net.cpp:157] Top shape: 4 23104 (92416)
I0601 17:38:47.029291  8007 net.cpp:165] Memory required for data: 989547552
I0601 17:38:47.029295  8007 layer_factory.hpp:77] Creating layer conv4_3_norm_mbox_conf
I0601 17:38:47.029314  8007 net.cpp:100] Creating Layer conv4_3_norm_mbox_conf
I0601 17:38:47.029330  8007 net.cpp:434] conv4_3_norm_mbox_conf <- conv4_3_norm_conv4_3_norm_0_split_1
I0601 17:38:47.029350  8007 net.cpp:408] conv4_3_norm_mbox_conf -> conv4_3_norm_mbox_conf
I0601 17:38:47.040186  8007 net.cpp:150] Setting up conv4_3_norm_mbox_conf
I0601 17:38:47.040204  8007 net.cpp:157] Top shape: 4 16 38 38 (92416)
I0601 17:38:47.040208  8007 net.cpp:165] Memory required for data: 989917216
I0601 17:38:47.040217  8007 layer_factory.hpp:77] Creating layer conv4_3_norm_mbox_conf_perm
I0601 17:38:47.040228  8007 net.cpp:100] Creating Layer conv4_3_norm_mbox_conf_perm
I0601 17:38:47.040235  8007 net.cpp:434] conv4_3_norm_mbox_conf_perm <- conv4_3_norm_mbox_conf
I0601 17:38:47.040241  8007 net.cpp:408] conv4_3_norm_mbox_conf_perm -> conv4_3_norm_mbox_conf_perm
I0601 17:38:47.040364  8007 net.cpp:150] Setting up conv4_3_norm_mbox_conf_perm
I0601 17:38:47.040372  8007 net.cpp:157] Top shape: 4 38 38 16 (92416)
I0601 17:38:47.040375  8007 net.cpp:165] Memory required for data: 990286880
I0601 17:38:47.040379  8007 layer_factory.hpp:77] Creating layer conv4_3_norm_mbox_conf_flat
I0601 17:38:47.040386  8007 net.cpp:100] Creating Layer conv4_3_norm_mbox_conf_flat
I0601 17:38:47.040391  8007 net.cpp:434] conv4_3_norm_mbox_conf_flat <- conv4_3_norm_mbox_conf_perm
I0601 17:38:47.040397  8007 net.cpp:408] conv4_3_norm_mbox_conf_flat -> conv4_3_norm_mbox_conf_flat
I0601 17:38:47.040428  8007 net.cpp:150] Setting up conv4_3_norm_mbox_conf_flat
I0601 17:38:47.040437  8007 net.cpp:157] Top shape: 4 23104 (92416)
I0601 17:38:47.040441  8007 net.cpp:165] Memory required for data: 990656544
I0601 17:38:47.040446  8007 layer_factory.hpp:77] Creating layer conv4_3_norm_mbox_priorbox
I0601 17:38:47.040454  8007 net.cpp:100] Creating Layer conv4_3_norm_mbox_priorbox
I0601 17:38:47.040458  8007 net.cpp:434] conv4_3_norm_mbox_priorbox <- conv4_3_norm_conv4_3_norm_0_split_2
I0601 17:38:47.040465  8007 net.cpp:434] conv4_3_norm_mbox_priorbox <- data_data_0_split_1
I0601 17:38:47.040472  8007 net.cpp:408] conv4_3_norm_mbox_priorbox -> conv4_3_norm_mbox_priorbox
I0601 17:38:47.040509  8007 net.cpp:150] Setting up conv4_3_norm_mbox_priorbox
I0601 17:38:47.040518  8007 net.cpp:157] Top shape: 1 2 23104 (46208)
I0601 17:38:47.040521  8007 net.cpp:165] Memory required for data: 990841376
I0601 17:38:47.040524  8007 layer_factory.hpp:77] Creating layer fc7_mbox_loc
I0601 17:38:47.040536  8007 net.cpp:100] Creating Layer fc7_mbox_loc
I0601 17:38:47.040544  8007 net.cpp:434] fc7_mbox_loc <- fc7_relu7_0_split_1
I0601 17:38:47.040552  8007 net.cpp:408] fc7_mbox_loc -> fc7_mbox_loc
I0601 17:38:47.050212  8007 net.cpp:150] Setting up fc7_mbox_loc
I0601 17:38:47.050227  8007 net.cpp:157] Top shape: 4 24 19 19 (34656)
I0601 17:38:47.050231  8007 net.cpp:165] Memory required for data: 990980000
I0601 17:38:47.050240  8007 layer_factory.hpp:77] Creating layer fc7_mbox_loc_perm
I0601 17:38:47.050266  8007 net.cpp:100] Creating Layer fc7_mbox_loc_perm
I0601 17:38:47.050279  8007 net.cpp:434] fc7_mbox_loc_perm <- fc7_mbox_loc
I0601 17:38:47.050287  8007 net.cpp:408] fc7_mbox_loc_perm -> fc7_mbox_loc_perm
I0601 17:38:47.050410  8007 net.cpp:150] Setting up fc7_mbox_loc_perm
I0601 17:38:47.050417  8007 net.cpp:157] Top shape: 4 19 19 24 (34656)
I0601 17:38:47.050421  8007 net.cpp:165] Memory required for data: 991118624
I0601 17:38:47.050424  8007 layer_factory.hpp:77] Creating layer fc7_mbox_loc_flat
I0601 17:38:47.050432  8007 net.cpp:100] Creating Layer fc7_mbox_loc_flat
I0601 17:38:47.050437  8007 net.cpp:434] fc7_mbox_loc_flat <- fc7_mbox_loc_perm
I0601 17:38:47.050443  8007 net.cpp:408] fc7_mbox_loc_flat -> fc7_mbox_loc_flat
I0601 17:38:47.050472  8007 net.cpp:150] Setting up fc7_mbox_loc_flat
I0601 17:38:47.050478  8007 net.cpp:157] Top shape: 4 8664 (34656)
I0601 17:38:47.050482  8007 net.cpp:165] Memory required for data: 991257248
I0601 17:38:47.050485  8007 layer_factory.hpp:77] Creating layer fc7_mbox_conf
I0601 17:38:47.050496  8007 net.cpp:100] Creating Layer fc7_mbox_conf
I0601 17:38:47.050501  8007 net.cpp:434] fc7_mbox_conf <- fc7_relu7_0_split_2
I0601 17:38:47.050510  8007 net.cpp:408] fc7_mbox_conf -> fc7_mbox_conf
I0601 17:38:47.067188  8007 net.cpp:150] Setting up fc7_mbox_conf
I0601 17:38:47.067200  8007 net.cpp:157] Top shape: 4 24 19 19 (34656)
I0601 17:38:47.067204  8007 net.cpp:165] Memory required for data: 991395872
I0601 17:38:47.067212  8007 layer_factory.hpp:77] Creating layer fc7_mbox_conf_perm
I0601 17:38:47.067234  8007 net.cpp:100] Creating Layer fc7_mbox_conf_perm
I0601 17:38:47.067243  8007 net.cpp:434] fc7_mbox_conf_perm <- fc7_mbox_conf
I0601 17:38:47.067252  8007 net.cpp:408] fc7_mbox_conf_perm -> fc7_mbox_conf_perm
I0601 17:38:47.067379  8007 net.cpp:150] Setting up fc7_mbox_conf_perm
I0601 17:38:47.067387  8007 net.cpp:157] Top shape: 4 19 19 24 (34656)
I0601 17:38:47.067390  8007 net.cpp:165] Memory required for data: 991534496
I0601 17:38:47.067394  8007 layer_factory.hpp:77] Creating layer fc7_mbox_conf_flat
I0601 17:38:47.067400  8007 net.cpp:100] Creating Layer fc7_mbox_conf_flat
I0601 17:38:47.067409  8007 net.cpp:434] fc7_mbox_conf_flat <- fc7_mbox_conf_perm
I0601 17:38:47.067416  8007 net.cpp:408] fc7_mbox_conf_flat -> fc7_mbox_conf_flat
I0601 17:38:47.067445  8007 net.cpp:150] Setting up fc7_mbox_conf_flat
I0601 17:38:47.067451  8007 net.cpp:157] Top shape: 4 8664 (34656)
I0601 17:38:47.067454  8007 net.cpp:165] Memory required for data: 991673120
I0601 17:38:47.067457  8007 layer_factory.hpp:77] Creating layer fc7_mbox_priorbox
I0601 17:38:47.067466  8007 net.cpp:100] Creating Layer fc7_mbox_priorbox
I0601 17:38:47.067471  8007 net.cpp:434] fc7_mbox_priorbox <- fc7_relu7_0_split_3
I0601 17:38:47.067476  8007 net.cpp:434] fc7_mbox_priorbox <- data_data_0_split_2
I0601 17:38:47.067484  8007 net.cpp:408] fc7_mbox_priorbox -> fc7_mbox_priorbox
I0601 17:38:47.067517  8007 net.cpp:150] Setting up fc7_mbox_priorbox
I0601 17:38:47.067523  8007 net.cpp:157] Top shape: 1 2 8664 (17328)
I0601 17:38:47.067526  8007 net.cpp:165] Memory required for data: 991742432
I0601 17:38:47.067529  8007 layer_factory.hpp:77] Creating layer conv6_2_mbox_loc
I0601 17:38:47.067541  8007 net.cpp:100] Creating Layer conv6_2_mbox_loc
I0601 17:38:47.067546  8007 net.cpp:434] conv6_2_mbox_loc <- conv6_2_conv6_2_relu_0_split_1
I0601 17:38:47.067554  8007 net.cpp:408] conv6_2_mbox_loc -> conv6_2_mbox_loc
I0601 17:38:47.075923  8007 net.cpp:150] Setting up conv6_2_mbox_loc
I0601 17:38:47.075944  8007 net.cpp:157] Top shape: 4 24 10 10 (9600)
I0601 17:38:47.075948  8007 net.cpp:165] Memory required for data: 991780832
I0601 17:38:47.075958  8007 layer_factory.hpp:77] Creating layer conv6_2_mbox_loc_perm
I0601 17:38:47.075969  8007 net.cpp:100] Creating Layer conv6_2_mbox_loc_perm
I0601 17:38:47.075976  8007 net.cpp:434] conv6_2_mbox_loc_perm <- conv6_2_mbox_loc
I0601 17:38:47.075997  8007 net.cpp:408] conv6_2_mbox_loc_perm -> conv6_2_mbox_loc_perm
I0601 17:38:47.076138  8007 net.cpp:150] Setting up conv6_2_mbox_loc_perm
I0601 17:38:47.076155  8007 net.cpp:157] Top shape: 4 10 10 24 (9600)
I0601 17:38:47.076160  8007 net.cpp:165] Memory required for data: 991819232
I0601 17:38:47.076164  8007 layer_factory.hpp:77] Creating layer conv6_2_mbox_loc_flat
I0601 17:38:47.076171  8007 net.cpp:100] Creating Layer conv6_2_mbox_loc_flat
I0601 17:38:47.076176  8007 net.cpp:434] conv6_2_mbox_loc_flat <- conv6_2_mbox_loc_perm
I0601 17:38:47.076184  8007 net.cpp:408] conv6_2_mbox_loc_flat -> conv6_2_mbox_loc_flat
I0601 17:38:47.076212  8007 net.cpp:150] Setting up conv6_2_mbox_loc_flat
I0601 17:38:47.076220  8007 net.cpp:157] Top shape: 4 2400 (9600)
I0601 17:38:47.076222  8007 net.cpp:165] Memory required for data: 991857632
I0601 17:38:47.076226  8007 layer_factory.hpp:77] Creating layer conv6_2_mbox_conf
I0601 17:38:47.076241  8007 net.cpp:100] Creating Layer conv6_2_mbox_conf
I0601 17:38:47.076246  8007 net.cpp:434] conv6_2_mbox_conf <- conv6_2_conv6_2_relu_0_split_2
I0601 17:38:47.076254  8007 net.cpp:408] conv6_2_mbox_conf -> conv6_2_mbox_conf
I0601 17:38:47.082928  8007 net.cpp:150] Setting up conv6_2_mbox_conf
I0601 17:38:47.082942  8007 net.cpp:157] Top shape: 4 24 10 10 (9600)
I0601 17:38:47.082944  8007 net.cpp:165] Memory required for data: 991896032
I0601 17:38:47.082952  8007 layer_factory.hpp:77] Creating layer conv6_2_mbox_conf_perm
I0601 17:38:47.082962  8007 net.cpp:100] Creating Layer conv6_2_mbox_conf_perm
I0601 17:38:47.082967  8007 net.cpp:434] conv6_2_mbox_conf_perm <- conv6_2_mbox_conf
I0601 17:38:47.082974  8007 net.cpp:408] conv6_2_mbox_conf_perm -> conv6_2_mbox_conf_perm
I0601 17:38:47.083092  8007 net.cpp:150] Setting up conv6_2_mbox_conf_perm
I0601 17:38:47.083101  8007 net.cpp:157] Top shape: 4 10 10 24 (9600)
I0601 17:38:47.083103  8007 net.cpp:165] Memory required for data: 991934432
I0601 17:38:47.083107  8007 layer_factory.hpp:77] Creating layer conv6_2_mbox_conf_flat
I0601 17:38:47.083114  8007 net.cpp:100] Creating Layer conv6_2_mbox_conf_flat
I0601 17:38:47.083119  8007 net.cpp:434] conv6_2_mbox_conf_flat <- conv6_2_mbox_conf_perm
I0601 17:38:47.083125  8007 net.cpp:408] conv6_2_mbox_conf_flat -> conv6_2_mbox_conf_flat
I0601 17:38:47.083155  8007 net.cpp:150] Setting up conv6_2_mbox_conf_flat
I0601 17:38:47.083161  8007 net.cpp:157] Top shape: 4 2400 (9600)
I0601 17:38:47.083165  8007 net.cpp:165] Memory required for data: 991972832
I0601 17:38:47.083169  8007 layer_factory.hpp:77] Creating layer conv6_2_mbox_priorbox
I0601 17:38:47.083178  8007 net.cpp:100] Creating Layer conv6_2_mbox_priorbox
I0601 17:38:47.083181  8007 net.cpp:434] conv6_2_mbox_priorbox <- conv6_2_conv6_2_relu_0_split_3
I0601 17:38:47.083187  8007 net.cpp:434] conv6_2_mbox_priorbox <- data_data_0_split_3
I0601 17:38:47.083195  8007 net.cpp:408] conv6_2_mbox_priorbox -> conv6_2_mbox_priorbox
I0601 17:38:47.083228  8007 net.cpp:150] Setting up conv6_2_mbox_priorbox
I0601 17:38:47.083235  8007 net.cpp:157] Top shape: 1 2 2400 (4800)
I0601 17:38:47.083237  8007 net.cpp:165] Memory required for data: 991992032
I0601 17:38:47.083241  8007 layer_factory.hpp:77] Creating layer conv7_2_mbox_loc
I0601 17:38:47.083252  8007 net.cpp:100] Creating Layer conv7_2_mbox_loc
I0601 17:38:47.083257  8007 net.cpp:434] conv7_2_mbox_loc <- conv7_2_conv7_2_relu_0_split_1
I0601 17:38:47.083266  8007 net.cpp:408] conv7_2_mbox_loc -> conv7_2_mbox_loc
I0601 17:38:47.088987  8007 net.cpp:150] Setting up conv7_2_mbox_loc
I0601 17:38:47.089000  8007 net.cpp:157] Top shape: 4 24 5 5 (2400)
I0601 17:38:47.089004  8007 net.cpp:165] Memory required for data: 992001632
I0601 17:38:47.089011  8007 layer_factory.hpp:77] Creating layer conv7_2_mbox_loc_perm
I0601 17:38:47.089020  8007 net.cpp:100] Creating Layer conv7_2_mbox_loc_perm
I0601 17:38:47.089025  8007 net.cpp:434] conv7_2_mbox_loc_perm <- conv7_2_mbox_loc
I0601 17:38:47.089035  8007 net.cpp:408] conv7_2_mbox_loc_perm -> conv7_2_mbox_loc_perm
I0601 17:38:47.089159  8007 net.cpp:150] Setting up conv7_2_mbox_loc_perm
I0601 17:38:47.089167  8007 net.cpp:157] Top shape: 4 5 5 24 (2400)
I0601 17:38:47.089170  8007 net.cpp:165] Memory required for data: 992011232
I0601 17:38:47.089185  8007 layer_factory.hpp:77] Creating layer conv7_2_mbox_loc_flat
I0601 17:38:47.089193  8007 net.cpp:100] Creating Layer conv7_2_mbox_loc_flat
I0601 17:38:47.089210  8007 net.cpp:434] conv7_2_mbox_loc_flat <- conv7_2_mbox_loc_perm
I0601 17:38:47.089229  8007 net.cpp:408] conv7_2_mbox_loc_flat -> conv7_2_mbox_loc_flat
I0601 17:38:47.089272  8007 net.cpp:150] Setting up conv7_2_mbox_loc_flat
I0601 17:38:47.089278  8007 net.cpp:157] Top shape: 4 600 (2400)
I0601 17:38:47.089282  8007 net.cpp:165] Memory required for data: 992020832
I0601 17:38:47.089287  8007 layer_factory.hpp:77] Creating layer conv7_2_mbox_conf
I0601 17:38:47.089298  8007 net.cpp:100] Creating Layer conv7_2_mbox_conf
I0601 17:38:47.089304  8007 net.cpp:434] conv7_2_mbox_conf <- conv7_2_conv7_2_relu_0_split_2
I0601 17:38:47.089313  8007 net.cpp:408] conv7_2_mbox_conf -> conv7_2_mbox_conf
I0601 17:38:47.095726  8007 net.cpp:150] Setting up conv7_2_mbox_conf
I0601 17:38:47.095741  8007 net.cpp:157] Top shape: 4 24 5 5 (2400)
I0601 17:38:47.095744  8007 net.cpp:165] Memory required for data: 992030432
I0601 17:38:47.095753  8007 layer_factory.hpp:77] Creating layer conv7_2_mbox_conf_perm
I0601 17:38:47.095762  8007 net.cpp:100] Creating Layer conv7_2_mbox_conf_perm
I0601 17:38:47.095767  8007 net.cpp:434] conv7_2_mbox_conf_perm <- conv7_2_mbox_conf
I0601 17:38:47.095774  8007 net.cpp:408] conv7_2_mbox_conf_perm -> conv7_2_mbox_conf_perm
I0601 17:38:47.095916  8007 net.cpp:150] Setting up conv7_2_mbox_conf_perm
I0601 17:38:47.095923  8007 net.cpp:157] Top shape: 4 5 5 24 (2400)
I0601 17:38:47.095927  8007 net.cpp:165] Memory required for data: 992040032
I0601 17:38:47.095930  8007 layer_factory.hpp:77] Creating layer conv7_2_mbox_conf_flat
I0601 17:38:47.095937  8007 net.cpp:100] Creating Layer conv7_2_mbox_conf_flat
I0601 17:38:47.095942  8007 net.cpp:434] conv7_2_mbox_conf_flat <- conv7_2_mbox_conf_perm
I0601 17:38:47.095949  8007 net.cpp:408] conv7_2_mbox_conf_flat -> conv7_2_mbox_conf_flat
I0601 17:38:47.095979  8007 net.cpp:150] Setting up conv7_2_mbox_conf_flat
I0601 17:38:47.095988  8007 net.cpp:157] Top shape: 4 600 (2400)
I0601 17:38:47.095991  8007 net.cpp:165] Memory required for data: 992049632
I0601 17:38:47.095995  8007 layer_factory.hpp:77] Creating layer conv7_2_mbox_priorbox
I0601 17:38:47.096004  8007 net.cpp:100] Creating Layer conv7_2_mbox_priorbox
I0601 17:38:47.096009  8007 net.cpp:434] conv7_2_mbox_priorbox <- conv7_2_conv7_2_relu_0_split_3
I0601 17:38:47.096021  8007 net.cpp:434] conv7_2_mbox_priorbox <- data_data_0_split_4
I0601 17:38:47.096030  8007 net.cpp:408] conv7_2_mbox_priorbox -> conv7_2_mbox_priorbox
I0601 17:38:47.096067  8007 net.cpp:150] Setting up conv7_2_mbox_priorbox
I0601 17:38:47.096074  8007 net.cpp:157] Top shape: 1 2 600 (1200)
I0601 17:38:47.096078  8007 net.cpp:165] Memory required for data: 992054432
I0601 17:38:47.096081  8007 layer_factory.hpp:77] Creating layer conv8_2_mbox_loc
I0601 17:38:47.096097  8007 net.cpp:100] Creating Layer conv8_2_mbox_loc
I0601 17:38:47.096105  8007 net.cpp:434] conv8_2_mbox_loc <- conv8_2_conv8_2_relu_0_split_1
I0601 17:38:47.096114  8007 net.cpp:408] conv8_2_mbox_loc -> conv8_2_mbox_loc
I0601 17:38:47.102650  8007 net.cpp:150] Setting up conv8_2_mbox_loc
I0601 17:38:47.102666  8007 net.cpp:157] Top shape: 4 16 3 3 (576)
I0601 17:38:47.102670  8007 net.cpp:165] Memory required for data: 992056736
I0601 17:38:47.102689  8007 layer_factory.hpp:77] Creating layer conv8_2_mbox_loc_perm
I0601 17:38:47.102700  8007 net.cpp:100] Creating Layer conv8_2_mbox_loc_perm
I0601 17:38:47.102708  8007 net.cpp:434] conv8_2_mbox_loc_perm <- conv8_2_mbox_loc
I0601 17:38:47.102717  8007 net.cpp:408] conv8_2_mbox_loc_perm -> conv8_2_mbox_loc_perm
I0601 17:38:47.102862  8007 net.cpp:150] Setting up conv8_2_mbox_loc_perm
I0601 17:38:47.102870  8007 net.cpp:157] Top shape: 4 3 3 16 (576)
I0601 17:38:47.102874  8007 net.cpp:165] Memory required for data: 992059040
I0601 17:38:47.102877  8007 layer_factory.hpp:77] Creating layer conv8_2_mbox_loc_flat
I0601 17:38:47.102896  8007 net.cpp:100] Creating Layer conv8_2_mbox_loc_flat
I0601 17:38:47.102902  8007 net.cpp:434] conv8_2_mbox_loc_flat <- conv8_2_mbox_loc_perm
I0601 17:38:47.102908  8007 net.cpp:408] conv8_2_mbox_loc_flat -> conv8_2_mbox_loc_flat
I0601 17:38:47.102941  8007 net.cpp:150] Setting up conv8_2_mbox_loc_flat
I0601 17:38:47.102948  8007 net.cpp:157] Top shape: 4 144 (576)
I0601 17:38:47.102952  8007 net.cpp:165] Memory required for data: 992061344
I0601 17:38:47.102955  8007 layer_factory.hpp:77] Creating layer conv8_2_mbox_conf
I0601 17:38:47.102967  8007 net.cpp:100] Creating Layer conv8_2_mbox_conf
I0601 17:38:47.102972  8007 net.cpp:434] conv8_2_mbox_conf <- conv8_2_conv8_2_relu_0_split_2
I0601 17:38:47.102980  8007 net.cpp:408] conv8_2_mbox_conf -> conv8_2_mbox_conf
I0601 17:38:47.110394  8007 net.cpp:150] Setting up conv8_2_mbox_conf
I0601 17:38:47.110410  8007 net.cpp:157] Top shape: 4 16 3 3 (576)
I0601 17:38:47.110414  8007 net.cpp:165] Memory required for data: 992063648
I0601 17:38:47.110422  8007 layer_factory.hpp:77] Creating layer conv8_2_mbox_conf_perm
I0601 17:38:47.110433  8007 net.cpp:100] Creating Layer conv8_2_mbox_conf_perm
I0601 17:38:47.110440  8007 net.cpp:434] conv8_2_mbox_conf_perm <- conv8_2_mbox_conf
I0601 17:38:47.110448  8007 net.cpp:408] conv8_2_mbox_conf_perm -> conv8_2_mbox_conf_perm
I0601 17:38:47.110570  8007 net.cpp:150] Setting up conv8_2_mbox_conf_perm
I0601 17:38:47.110579  8007 net.cpp:157] Top shape: 4 3 3 16 (576)
I0601 17:38:47.110582  8007 net.cpp:165] Memory required for data: 992065952
I0601 17:38:47.110586  8007 layer_factory.hpp:77] Creating layer conv8_2_mbox_conf_flat
I0601 17:38:47.110592  8007 net.cpp:100] Creating Layer conv8_2_mbox_conf_flat
I0601 17:38:47.110597  8007 net.cpp:434] conv8_2_mbox_conf_flat <- conv8_2_mbox_conf_perm
I0601 17:38:47.110605  8007 net.cpp:408] conv8_2_mbox_conf_flat -> conv8_2_mbox_conf_flat
I0601 17:38:47.110635  8007 net.cpp:150] Setting up conv8_2_mbox_conf_flat
I0601 17:38:47.110644  8007 net.cpp:157] Top shape: 4 144 (576)
I0601 17:38:47.110648  8007 net.cpp:165] Memory required for data: 992068256
I0601 17:38:47.110652  8007 layer_factory.hpp:77] Creating layer conv8_2_mbox_priorbox
I0601 17:38:47.110659  8007 net.cpp:100] Creating Layer conv8_2_mbox_priorbox
I0601 17:38:47.110664  8007 net.cpp:434] conv8_2_mbox_priorbox <- conv8_2_conv8_2_relu_0_split_3
I0601 17:38:47.110671  8007 net.cpp:434] conv8_2_mbox_priorbox <- data_data_0_split_5
I0601 17:38:47.110679  8007 net.cpp:408] conv8_2_mbox_priorbox -> conv8_2_mbox_priorbox
I0601 17:38:47.110715  8007 net.cpp:150] Setting up conv8_2_mbox_priorbox
I0601 17:38:47.110723  8007 net.cpp:157] Top shape: 1 2 144 (288)
I0601 17:38:47.110726  8007 net.cpp:165] Memory required for data: 992069408
I0601 17:38:47.110730  8007 layer_factory.hpp:77] Creating layer conv9_2_mbox_loc
I0601 17:38:47.110743  8007 net.cpp:100] Creating Layer conv9_2_mbox_loc
I0601 17:38:47.110747  8007 net.cpp:434] conv9_2_mbox_loc <- conv9_2_conv9_2_relu_0_split_0
I0601 17:38:47.110754  8007 net.cpp:408] conv9_2_mbox_loc -> conv9_2_mbox_loc
I0601 17:38:47.117676  8007 net.cpp:150] Setting up conv9_2_mbox_loc
I0601 17:38:47.117691  8007 net.cpp:157] Top shape: 4 16 1 1 (64)
I0601 17:38:47.117694  8007 net.cpp:165] Memory required for data: 992069664
I0601 17:38:47.117702  8007 layer_factory.hpp:77] Creating layer conv9_2_mbox_loc_perm
I0601 17:38:47.117710  8007 net.cpp:100] Creating Layer conv9_2_mbox_loc_perm
I0601 17:38:47.117715  8007 net.cpp:434] conv9_2_mbox_loc_perm <- conv9_2_mbox_loc
I0601 17:38:47.117724  8007 net.cpp:408] conv9_2_mbox_loc_perm -> conv9_2_mbox_loc_perm
I0601 17:38:47.117848  8007 net.cpp:150] Setting up conv9_2_mbox_loc_perm
I0601 17:38:47.117856  8007 net.cpp:157] Top shape: 4 1 1 16 (64)
I0601 17:38:47.117859  8007 net.cpp:165] Memory required for data: 992069920
I0601 17:38:47.117863  8007 layer_factory.hpp:77] Creating layer conv9_2_mbox_loc_flat
I0601 17:38:47.117871  8007 net.cpp:100] Creating Layer conv9_2_mbox_loc_flat
I0601 17:38:47.117875  8007 net.cpp:434] conv9_2_mbox_loc_flat <- conv9_2_mbox_loc_perm
I0601 17:38:47.117894  8007 net.cpp:408] conv9_2_mbox_loc_flat -> conv9_2_mbox_loc_flat
I0601 17:38:47.117928  8007 net.cpp:150] Setting up conv9_2_mbox_loc_flat
I0601 17:38:47.117935  8007 net.cpp:157] Top shape: 4 16 (64)
I0601 17:38:47.117939  8007 net.cpp:165] Memory required for data: 992070176
I0601 17:38:47.117944  8007 layer_factory.hpp:77] Creating layer conv9_2_mbox_conf
I0601 17:38:47.117957  8007 net.cpp:100] Creating Layer conv9_2_mbox_conf
I0601 17:38:47.117964  8007 net.cpp:434] conv9_2_mbox_conf <- conv9_2_conv9_2_relu_0_split_1
I0601 17:38:47.117971  8007 net.cpp:408] conv9_2_mbox_conf -> conv9_2_mbox_conf
I0601 17:38:47.120733  8007 net.cpp:150] Setting up conv9_2_mbox_conf
I0601 17:38:47.120744  8007 net.cpp:157] Top shape: 4 16 1 1 (64)
I0601 17:38:47.120748  8007 net.cpp:165] Memory required for data: 992070432
I0601 17:38:47.120756  8007 layer_factory.hpp:77] Creating layer conv9_2_mbox_conf_perm
I0601 17:38:47.120765  8007 net.cpp:100] Creating Layer conv9_2_mbox_conf_perm
I0601 17:38:47.120770  8007 net.cpp:434] conv9_2_mbox_conf_perm <- conv9_2_mbox_conf
I0601 17:38:47.120777  8007 net.cpp:408] conv9_2_mbox_conf_perm -> conv9_2_mbox_conf_perm
I0601 17:38:47.120901  8007 net.cpp:150] Setting up conv9_2_mbox_conf_perm
I0601 17:38:47.120908  8007 net.cpp:157] Top shape: 4 1 1 16 (64)
I0601 17:38:47.120911  8007 net.cpp:165] Memory required for data: 992070688
I0601 17:38:47.120915  8007 layer_factory.hpp:77] Creating layer conv9_2_mbox_conf_flat
I0601 17:38:47.120923  8007 net.cpp:100] Creating Layer conv9_2_mbox_conf_flat
I0601 17:38:47.120929  8007 net.cpp:434] conv9_2_mbox_conf_flat <- conv9_2_mbox_conf_perm
I0601 17:38:47.120934  8007 net.cpp:408] conv9_2_mbox_conf_flat -> conv9_2_mbox_conf_flat
I0601 17:38:47.120965  8007 net.cpp:150] Setting up conv9_2_mbox_conf_flat
I0601 17:38:47.120973  8007 net.cpp:157] Top shape: 4 16 (64)
I0601 17:38:47.120977  8007 net.cpp:165] Memory required for data: 992070944
I0601 17:38:47.120980  8007 layer_factory.hpp:77] Creating layer conv9_2_mbox_priorbox
I0601 17:38:47.120990  8007 net.cpp:100] Creating Layer conv9_2_mbox_priorbox
I0601 17:38:47.120995  8007 net.cpp:434] conv9_2_mbox_priorbox <- conv9_2_conv9_2_relu_0_split_2
I0601 17:38:47.121000  8007 net.cpp:434] conv9_2_mbox_priorbox <- data_data_0_split_6
I0601 17:38:47.121006  8007 net.cpp:408] conv9_2_mbox_priorbox -> conv9_2_mbox_priorbox
I0601 17:38:47.121042  8007 net.cpp:150] Setting up conv9_2_mbox_priorbox
I0601 17:38:47.121048  8007 net.cpp:157] Top shape: 1 2 16 (32)
I0601 17:38:47.121052  8007 net.cpp:165] Memory required for data: 992071072
I0601 17:38:47.121055  8007 layer_factory.hpp:77] Creating layer mbox_loc
I0601 17:38:47.121064  8007 net.cpp:100] Creating Layer mbox_loc
I0601 17:38:47.121069  8007 net.cpp:434] mbox_loc <- conv4_3_norm_mbox_loc_flat
I0601 17:38:47.121075  8007 net.cpp:434] mbox_loc <- fc7_mbox_loc_flat
I0601 17:38:47.121081  8007 net.cpp:434] mbox_loc <- conv6_2_mbox_loc_flat
I0601 17:38:47.121086  8007 net.cpp:434] mbox_loc <- conv7_2_mbox_loc_flat
I0601 17:38:47.121093  8007 net.cpp:434] mbox_loc <- conv8_2_mbox_loc_flat
I0601 17:38:47.121096  8007 net.cpp:434] mbox_loc <- conv9_2_mbox_loc_flat
I0601 17:38:47.121104  8007 net.cpp:408] mbox_loc -> mbox_loc
I0601 17:38:47.121136  8007 net.cpp:150] Setting up mbox_loc
I0601 17:38:47.121145  8007 net.cpp:157] Top shape: 4 34928 (139712)
I0601 17:38:47.121147  8007 net.cpp:165] Memory required for data: 992629920
I0601 17:38:47.121151  8007 layer_factory.hpp:77] Creating layer mbox_conf
I0601 17:38:47.121157  8007 net.cpp:100] Creating Layer mbox_conf
I0601 17:38:47.121162  8007 net.cpp:434] mbox_conf <- conv4_3_norm_mbox_conf_flat
I0601 17:38:47.121167  8007 net.cpp:434] mbox_conf <- fc7_mbox_conf_flat
I0601 17:38:47.121172  8007 net.cpp:434] mbox_conf <- conv6_2_mbox_conf_flat
I0601 17:38:47.121177  8007 net.cpp:434] mbox_conf <- conv7_2_mbox_conf_flat
I0601 17:38:47.121182  8007 net.cpp:434] mbox_conf <- conv8_2_mbox_conf_flat
I0601 17:38:47.121187  8007 net.cpp:434] mbox_conf <- conv9_2_mbox_conf_flat
I0601 17:38:47.121206  8007 net.cpp:408] mbox_conf -> mbox_conf
I0601 17:38:47.121237  8007 net.cpp:150] Setting up mbox_conf
I0601 17:38:47.121243  8007 net.cpp:157] Top shape: 4 34928 (139712)
I0601 17:38:47.121248  8007 net.cpp:165] Memory required for data: 993188768
I0601 17:38:47.121251  8007 layer_factory.hpp:77] Creating layer mbox_priorbox
I0601 17:38:47.121258  8007 net.cpp:100] Creating Layer mbox_priorbox
I0601 17:38:47.121263  8007 net.cpp:434] mbox_priorbox <- conv4_3_norm_mbox_priorbox
I0601 17:38:47.121269  8007 net.cpp:434] mbox_priorbox <- fc7_mbox_priorbox
I0601 17:38:47.121273  8007 net.cpp:434] mbox_priorbox <- conv6_2_mbox_priorbox
I0601 17:38:47.121279  8007 net.cpp:434] mbox_priorbox <- conv7_2_mbox_priorbox
I0601 17:38:47.121282  8007 net.cpp:434] mbox_priorbox <- conv8_2_mbox_priorbox
I0601 17:38:47.121287  8007 net.cpp:434] mbox_priorbox <- conv9_2_mbox_priorbox
I0601 17:38:47.121294  8007 net.cpp:408] mbox_priorbox -> mbox_priorbox
I0601 17:38:47.121323  8007 net.cpp:150] Setting up mbox_priorbox
I0601 17:38:47.121331  8007 net.cpp:157] Top shape: 1 2 34928 (69856)
I0601 17:38:47.121335  8007 net.cpp:165] Memory required for data: 993468192
I0601 17:38:47.121338  8007 layer_factory.hpp:77] Creating layer mbox_conf_reshape
I0601 17:38:47.121345  8007 net.cpp:100] Creating Layer mbox_conf_reshape
I0601 17:38:47.121351  8007 net.cpp:434] mbox_conf_reshape <- mbox_conf
I0601 17:38:47.121358  8007 net.cpp:408] mbox_conf_reshape -> mbox_conf_reshape
I0601 17:38:47.121397  8007 net.cpp:150] Setting up mbox_conf_reshape
I0601 17:38:47.121403  8007 net.cpp:157] Top shape: 4 8732 4 (139712)
I0601 17:38:47.121407  8007 net.cpp:165] Memory required for data: 994027040
I0601 17:38:47.121412  8007 layer_factory.hpp:77] Creating layer mbox_conf_softmax
I0601 17:38:47.121417  8007 net.cpp:100] Creating Layer mbox_conf_softmax
I0601 17:38:47.121421  8007 net.cpp:434] mbox_conf_softmax <- mbox_conf_reshape
I0601 17:38:47.121429  8007 net.cpp:408] mbox_conf_softmax -> mbox_conf_softmax
I0601 17:38:47.121639  8007 net.cpp:150] Setting up mbox_conf_softmax
I0601 17:38:47.121647  8007 net.cpp:157] Top shape: 4 8732 4 (139712)
I0601 17:38:47.121650  8007 net.cpp:165] Memory required for data: 994585888
I0601 17:38:47.121655  8007 layer_factory.hpp:77] Creating layer mbox_conf_flatten
I0601 17:38:47.121660  8007 net.cpp:100] Creating Layer mbox_conf_flatten
I0601 17:38:47.121665  8007 net.cpp:434] mbox_conf_flatten <- mbox_conf_softmax
I0601 17:38:47.121672  8007 net.cpp:408] mbox_conf_flatten -> mbox_conf_flatten
I0601 17:38:47.121706  8007 net.cpp:150] Setting up mbox_conf_flatten
I0601 17:38:47.121713  8007 net.cpp:157] Top shape: 4 34928 (139712)
I0601 17:38:47.121716  8007 net.cpp:165] Memory required for data: 995144736
I0601 17:38:47.121721  8007 layer_factory.hpp:77] Creating layer detection_out
I0601 17:38:47.121739  8007 net.cpp:100] Creating Layer detection_out
I0601 17:38:47.121747  8007 net.cpp:434] detection_out <- mbox_loc
I0601 17:38:47.121752  8007 net.cpp:434] detection_out <- mbox_conf_flatten
I0601 17:38:47.121757  8007 net.cpp:434] detection_out <- mbox_priorbox
I0601 17:38:47.121765  8007 net.cpp:408] detection_out -> detection_out
I0601 17:38:47.122916  8007 net.cpp:150] Setting up detection_out
I0601 17:38:47.122926  8007 net.cpp:157] Top shape: 1 1 1 7 (7)
I0601 17:38:47.122930  8007 net.cpp:165] Memory required for data: 995144764
I0601 17:38:47.122934  8007 layer_factory.hpp:77] Creating layer detection_eval
I0601 17:38:47.122942  8007 net.cpp:100] Creating Layer detection_eval
I0601 17:38:47.122947  8007 net.cpp:434] detection_eval <- detection_out
I0601 17:38:47.122952  8007 net.cpp:434] detection_eval <- label
I0601 17:38:47.122959  8007 net.cpp:408] detection_eval -> detection_eval
I0601 17:38:47.123723  8007 net.cpp:150] Setting up detection_eval
I0601 17:38:47.123730  8007 net.cpp:157] Top shape: 1 1 4 5 (20)
I0601 17:38:47.123733  8007 net.cpp:165] Memory required for data: 995144844
I0601 17:38:47.123739  8007 net.cpp:228] detection_eval does not need backward computation.
I0601 17:38:47.123751  8007 net.cpp:228] detection_out does not need backward computation.
I0601 17:38:47.123756  8007 net.cpp:228] mbox_conf_flatten does not need backward computation.
I0601 17:38:47.123760  8007 net.cpp:228] mbox_conf_softmax does not need backward computation.
…
