…
        min_scale: 0.3
        max_scale: 1
        min_aspect_ratio: 0.5
        max_aspect_ratio: 2
      }
      sample_constraint {
        min_jaccard_overlap: 0.9
      }
      max_sample: 1
      max_trials: 50
    }
    batch_sampler {
      sampler {
        min_scale: 0.3
        max_scale: 1
        min_aspect_ratio: 0.5
        max_aspect_ratio: 2
      }
      sample_constraint {
        max_jaccard_overlap: 1
      }
      max_sample: 1
      max_trials: 50
    }
    label_map_file: "data/tbs_300x300_HSIL_10x/labelmap_voc.prototxt"
  }
}
layer {
  name: "conv1_1"
  type: "Convolution"
  bottom: "data"
  top: "conv1_1"
  param {
    lr_mult: 1
    decay_mult: 1
  }
  param {
    lr_mult: 2
    decay_mult: 0
  }
  convolution_param {
    num_output: 64
    pad: 1
    kernel_size: 3
    weight_filler {
      type: "xavier"
    }
    bias_filler {
      type: "constant"
      value: 0
    }
  }
}
layer {
  name: "relu1_1"
  type: "ReLU"
  bottom: "conv1_1"
  top: "conv1_1"
}
layer {
  name: "conv1_2"
  type: "Convolution"
  bottom: "conv1_1"
  top: "conv1_2"
  param {
    lr_mult: 1
    decay_mult: 1
  }
  param {
    lr_mult: 2
    decay_mult: 0
  }
  convolution_param {
    num_output: 64
    pad: 1
    kernel_size: 3
    weight_filler {
      type: "xavier"
    }
    bias_filler {
      type: "constant"
      value: 0
    }
  }
}
layer {
  name: "relu1_2"
  type: "ReLU"
  bottom: "conv1_2"
  top: "conv1_2"
}
layer {
  name: "pool1"
  type: "Pooling"
  bottom: "conv1_2"
  top: "pool1"
  pooling_param {
    pool: MAX
    kernel_size: 2
    stride: 2
  }
}
layer {
  name: "conv2_1"
  type: "Convolution"
  bottom: "pool1"
  top: "conv2_1"
  param {
    lr_mult: 1
    decay_mult: 1
  }
  param {
    lr_mult: 2
    decay_mult: 0
  }
  convolution_param {
    num_output: 128
    pad: 1
    kernel_size: 3
    weight_filler {
      type: "xavier"
    }
    bias_filler {
      type: "constant"
      value: 0
    }
  }
}
layer {
  name: "relu2_1"
  type: "ReLU"
  bottom: "conv2_1"
  top: "conv2_1"
}
layer {
  name: "conv2_2"
  type: "Convolution"
  bottom: "conv2_1"
  top: "conv2_2"
  param {
    lr_mult: 1
    decay_mult: 1
  }
  param {
    lr_mult: 2
    decay_mult: 0
  }
  convolution_param {
    num_output: 128
    pad: 1
    kernel_size: 3
    weight_filler {
      type: "xavier"
    }
    bias_filler {
      type: "constant"
      value: 0
    }
  }
}
layer {
  name: "relu2_2"
  type: "ReLU"
  bottom: "conv2_2"
  top: "conv2_2"
}
layer {
  name: "pool2"
  type: "Pooling"
  bottom: "conv2_2"
  top: "pool2"
  pooling_param {
    pool: MAX
    kernel_size: 2
    stride: 2
  }
}
layer {
  name: "conv3_1"
  type: "Convolution"
  bottom: "pool2"
  top: "conv3_1"
  param {
    lr_mult: 1
    decay_mult: 1
  }
  param {
    lr_mult: 2
    decay_mult: 0
  }
  convolution_param {
    num_output: 256
    pad: 1
    kernel_size: 3
    weight_filler {
      type: "xavier"
    }
    bias_filler {
      type: "constant"
      value: 0
    }
  }
}
layer {
  name: "relu3_1"
  type: "ReLU"
  bottom: "conv3_1"
  top: "conv3_1"
}
layer {
  name: "conv3_2"
  type: "Convolution"
  bottom: "conv3_1"
  top: "conv3_2"
  param {
    lr_mult: 1
    decay_mult: 1
  }
  param {
    lr_mult: 2
    decay_mult: 0
  }
  convolution_param {
    num_output: 256
    pad: 1
    kernel_size: 3
    weight_filler {
      type: "xavier"
    }
    bias_filler {
      type: "constant"
      value: 0
    }
  }
}
layer {
  name: "relu3_2"
  type: "ReLU"
  bottom: "conv3_2"
  top: "conv3_2"
}
layer {
  name: "conv3_3"
  type: "Convolution"
  bottom: "conv3_2"
  top: "conv3_3"
  param {
    lr_mult: 1
    decay_mult: 1
  }
  param {
    lr_mult: 2
    decay_mult: 0
  }
  convolution_param {
    num_output: 256
    pad: 1
    kernel_size: 3
    weight_filler {
      type: "xavier"
    }
    bias_filler {
      type: "constant"
      value: 0
    }
  }
}
layer {
  name: "relu3_3"
  type: "ReLU"
  bottom: "conv3_3"
  top: "conv3_3"
}
layer {
  name: "pool3"
  type: "Pooling"
  bottom: "conv3_3"
  top: "pool3"
  pooling_param {
    pool: MAX
    kernel_size: 2
    stride: 2
  }
}
layer {
  name: "conv4_1"
  type: "Convolution"
  bottom: "pool3"
  top: "conv4_1"
  param {
    lr_mult: 1
    decay_mult: 1
  }
  param {
    lr_mult: 2
    decay_mult: 0
  }
  convolution_param {
    num_output: 512
    pad: 1
    kernel_size: 3
    weight_filler {
      type: "xavier"
    }
    bias_filler {
      type: "constant"
      value: 0
    }
  }
}
layer {
  name: "relu4_1"
  type: "ReLU"
  bottom: "conv4_1"
  top: "conv4_1"
}
layer {
  name: "conv4_2"
  type: "Convolution"
  bottom: "conv4_1"
  top: "conv4_2"
  param {
    lr_mult: 1
    decay_mult: 1
  }
  param {
    lr_mult: 2
    decay_mult: 0
  }
  convolution_param {
    num_output: 512
    pad: 1
    kernel_size: 3
    weight_filler {
      type: "xavier"
    }
    bias_filler {
      type: "constant"
      value: 0
    }
  }
}
layer {
  name: "relu4_2"
  type: "ReLU"
  bottom: "conv4_2"
  top: "conv4_2"
}
layer {
  name: "conv4_3"
  type: "Convolution"
  bottom: "conv4_2"
  top: "conv4_3"
  param {
    lr_mult: 1
    decay_mult: 1
  }
  param {
    lr_mult: 2
    decay_mult: 0
  }
  convolution_param {
    num_output: 512
    pad: 1
    kernel_size: 3
    weight_filler {
      type: "xavier"
    }
    bias_filler {
      type: "constant"
      value: 0
    }
  }
}
layer {
  name: "relu4_3"
  type: "ReLU"
  bottom: "conv4_3"
  top: "conv4_3"
}
layer {
  name: "pool4"
  type: "Pooling"
  bottom: "conv4_3"
  top: "pool4"
  pooling_param {
    pool: MAX
    kernel_size: 2
    stride: 2
  }
}
layer {
  name: "conv5_1"
  type: "Convolution"
  bottom: "pool4"
  top: "conv5_1"
  param {
    lr_mult: 1
    decay_mult: 1
  }
  param {
    lr_mult: 2
    decay_mult: 0
  }
  convolution_param {
    num_output: 512
    pad: 1
    kernel_size: 3
    weight_filler {
      type: "xavier"
    }
    bias_filler {
      type: "constant"
      value: 0
    }
    dilation: 1
  }
}
layer {
  name: "relu5_1"
  type: "ReLU"
  bottom: "conv5_1"
  top: "conv5_1"
}
layer {
  name: "conv5_2"
  type: "Convolution"
  bottom: "conv5_1"
  top: "conv5_2"
  param {
    lr_mult: 1
    decay_mult: 1
  }
  param {
    lr_mult: 2
    decay_mult: 0
  }
  convolution_param {
    num_output: 512
    pad: 1
    kernel_size: 3
    weight_filler {
      type: "xavier"
    }
    bias_filler {
      type: "constant"
      value: 0
    }
    dilation: 1
  }
}
layer {
  name: "relu5_2"
  type: "ReLU"
  bottom: "conv5_2"
  top: "conv5_2"
}
layer {
  name: "conv5_3"
  type: "Convolution"
  bottom: "conv5_2"
  top: "conv5_3"
  param {
    lr_mult: 1
    decay_mult: 1
  }
  param {
    lr_mult: 2
    decay_mult: 0
  }
  convolution_param {
    num_output: 512
    pad: 1
    kernel_size: 3
    weight_filler {
      type: "xavier"
    }
    bias_filler {
      type: "constant"
      value: 0
    }
    dilation: 1
  }
}
layer {
  name: "relu5_3"
  type: "ReLU"
  bottom: "conv5_3"
  top: "conv5_3"
}
layer {
  name: "pool5"
  type: "Pooling"
  bottom: "conv5_3"
  top: "pool5"
  pooling_param {
    pool: MAX
    kernel_size: 3
    stride: 1
    pad: 1
  }
}
layer {
  name: "fc6"
  type: "Convolution"
  bottom: "pool5"
  top: "fc6"
  param {
    lr_mult: 1
    decay_mult: 1
  }
  param {
    lr_mult: 2
    decay_mult: 0
  }
  convolution_param {
    num_output: 1024
    pad: 6
    kernel_size: 3
    weight_filler {
      type: "xavier"
    }
    bias_filler {
      type: "constant"
      value: 0
    }
    dilation: 6
  }
}
layer {
  name: "relu6"
  type: "ReLU"
  bottom: "fc6"
  top: "fc6"
}
layer {
  name: "fc7"
  type: "Convolution"
  bottom: "fc6"
  top: "fc7"
  param {
    lr_mult: 1
    decay_mult: 1
  }
  param {
    lr_mult: 2
    decay_mult: 0
  }
  convolution_param {
    num_output: 1024
    kernel_size: 1
    weight_filler {
      type: "xavier"
    }
    bias_filler {
      type: "constant"
      value: 0
    }
  }
}
layer {
  name: "relu7"
  type: "ReLU"
  bottom: "fc7"
  top: "fc7"
}
layer {
  name: "conv6_1"
  type: "Convolution"
  bottom: "fc7"
  top: "conv6_1"
  param {
    lr_mult: 1
    decay_mult: 1
  }
  param {
    lr_mult: 2
    decay_mult: 0
  }
  convolution_param {
    num_output: 256
    pad: 0
    kernel_size: 1
    stride: 1
    weight_filler {
      type: "xavier"
    }
    bias_filler {
      type: "constant"
      value: 0
    }
  }
}
layer {
  name: "conv6_1_relu"
  type: "ReLU"
  bottom: "conv6_1"
  top: "conv6_1"
}
layer {
  name: "conv6_2"
  type: "Convolution"
  bottom: "conv6_1"
  top: "conv6_2"
  param {
    lr_mult: 1
    decay_mult: 1
  }
  param {
    lr_mult: 2
    decay_mult: 0
  }
  convolution_param {
    num_output: 512
    pad: 1
    kernel_size: 3
    stride: 2
    weight_filler {
      type: "xavier"
    }
    bias_filler {
      type: "constant"
      value: 0
    }
  }
}
layer {
  name: "conv6_2_relu"
  type: "ReLU"
  bottom: "conv6_2"
  top: "conv6_2"
}
layer {
  name: "conv7_1"
  type: "Convolution"
  bottom: "conv6_2"
  top: "conv7_1"
  param {
    lr_mult: 1
    decay_mult: 1
  }
  param {
    lr_mult: 2
    decay_mult: 0
  }
  convolution_param {
    num_output: 128
    pad: 0
    kernel_size: 1
    stride: 1
    weight_filler {
      type: "xavier"
    }
    bias_filler {
      type: "constant"
      value: 0
    }
  }
}
layer {
  name: "conv7_1_relu"
  type: "ReLU"
  bottom: "conv7_1"
  top: "conv7_1"
}
layer {
  name: "conv7_2"
  type: "Convolution"
  bottom: "conv7_1"
  top: "conv7_2"
  param {
    lr_mult: 1
    decay_mult: 1
  }
  param {
    lr_mult: 2
    decay_mult: 0
  }
  convolution_param {
    num_output: 256
    pad: 1
    kernel_size: 3
    stride: 2
    weight_filler {
      type: "xavier"
    }
    bias_filler {
      type: "constant"
      value: 0
    }
  }
}
layer {
  name: "conv7_2_relu"
  type: "ReLU"
  bottom: "conv7_2"
  top: "conv7_2"
}
layer {
  name: "conv8_1"
  type: "Convolution"
  bottom: "conv7_2"
  top: "conv8_1"
  param {
    lr_mult: 1
    decay_mult: 1
  }
  param {
    lr_mult: 2
    decay_mult: 0
  }
  convolution_param {
    num_output: 128
    pad: 0
    kernel_size: 1
    stride: 1
    weight_filler {
      type: "xavier"
    }
    bias_filler {
      type: "constant"
      value: 0
    }
  }
}
layer {
  name: "conv8_1_relu"
  type: "ReLU"
  bottom: "conv8_1"
  top: "conv8_1"
}
layer {
  name: "conv8_2"
  type: "Convolution"
  bottom: "conv8_1"
  top: "conv8_2"
  param {
    lr_mult: 1
    decay_mult: 1
  }
  param {
    lr_mult: 2
    decay_mult: 0
  }
  convolution_param {
    num_output: 256
    pad: 0
    kernel_size: 3
    stride: 1
    weight_filler {
      type: "xavier"
    }
    bias_filler {
      type: "constant"
      value: 0
    }
  }
}
layer {
  name: "conv8_2_relu"
  type: "ReLU"
  bottom: "conv8_2"
  top: "conv8_2"
}
layer {
  name: "conv9_1"
  type: "Convolution"
  bottom: "conv8_2"
  top: "conv9_1"
  param {
    lr_mult: 1
    decay_mult: 1
  }
  param {
    lr_mult: 2
    decay_mult: 0
  }
  convolution_param {
    num_output: 128
    pad: 0
    kernel_size: 1
    stride: 1
    weight_filler {
      type: "xavier"
    }
    bias_filler {
      type: "constant"
      value: 0
    }
  }
}
layer {
  name: "conv9_1_relu"
  type: "ReLU"
  bottom: "conv9_1"
  top: "conv9_1"
}
layer {
  name: "conv9_2"
  type: "Convolution"
  bottom: "conv9_1"
  top: "conv9_2"
  param {
    lr_mult: 1
    decay_mult: 1
  }
  param {
    lr_mult: 2
    decay_mult: 0
  }
  convolution_param {
    num_output: 256
    pad: 0
    kernel_size: 3
    stride: 1
    weight_filler {
      type: "xavier"
    }
    bias_filler {
      type: "constant"
      value: 0
    }
  }
}
layer {
  name: "conv9_2_relu"
  type: "ReLU"
  bottom: "conv9_2"
  top: "conv9_2"
}
layer {
  name: "conv4_3_norm"
  type: "Normalize"
  bottom: "conv4_3"
  top: "conv4_3_norm"
  norm_param {
    across_spatial: false
    scale_filler {
      type: "constant"
      value: 20
    }
    channel_shared: false
  }
}
layer {
  name: "conv4_3_norm_mbox_loc"
  type: "Convolution"
  bottom: "conv4_3_norm"
  top: "conv4_3_norm_mbox_loc"
  param {
    lr_mult: 1
    decay_mult: 1
  }
  param {
    lr_mult: 2
    decay_mult: 0
  }
  convolution_param {
    num_output: 16
    pad: 1
    kernel_size: 3
    stride: 1
    weight_filler {
      type: "xavier"
    }
    bias_filler {
      type: "constant"
      value: 0
    }
  }
}
layer {
  name: "conv4_3_norm_mbox_loc_perm"
  type: "Permute"
  bottom: "conv4_3_norm_mbox_loc"
  top: "conv4_3_norm_mbox_loc_perm"
  permute_param {
    order: 0
    order: 2
    order: 3
    order: 1
  }
}
layer {
  name: "conv4_3_norm_mbox_loc_flat"
  type: "Flatten"
  bottom: "conv4_3_norm_mbox_loc_perm"
  top: "conv4_3_norm_mbox_loc_flat"
  flatten_param {
    axis: 1
  }
}
layer {
  name: "conv4_3_norm_mbox_conf"
  type: "Convolution"
  bottom: "conv4_3_norm"
  top: "conv4_3_norm_mbox_conf"
  param {
    lr_mult: 1
    decay_mult: 1
  }
  param {
    lr_mult: 2
    decay_mult: 0
  }
  convolution_param {
    num_output: 16
    pad: 1
    kernel_size: 3
    stride: 1
    weight_filler {
      type: "xavier"
    }
    bias_filler {
      type: "constant"
      value: 0
    }
  }
}
layer {
  name: "conv4_3_norm_mbox_conf_perm"
  type: "Permute"
  bottom: "conv4_3_norm_mbox_conf"
  top: "conv4_3_norm_mbox_conf_perm"
  permute_param {
    order: 0
    order: 2
    order: 3
    order: 1
  }
}
layer {
  name: "conv4_3_norm_mbox_conf_flat"
  type: "Flatten"
  bottom: "conv4_3_norm_mbox_conf_perm"
  top: "conv4_3_norm_mbox_conf_flat"
  flatten_param {
    axis: 1
  }
}
layer {
  name: "conv4_3_norm_mbox_priorbox"
  type: "PriorBox"
  bottom: "conv4_3_norm"
  bottom: "data"
  top: "conv4_3_norm_mbox_priorbox"
  prior_box_param {
    min_size: 30
    max_size: 60
    aspect_ratio: 2
    flip: true
    clip: false
    variance: 0.1
    variance: 0.1
    variance: 0.2
    variance: 0.2
    step: 8
    offset: 0.5
  }
}
layer {
  name: "fc7_mbox_loc"
  type: "Convolution"
  bottom: "fc7"
  top: "fc7_mbox_loc"
  param {
    lr_mult: 1
    decay_mult: 1
  }
  param {
    lr_mult: 2
    decay_mult: 0
  }
  convolution_param {
    num_output: 24
    pad: 1
    kernel_size: 3
    stride: 1
    weight_filler {
      type: "xavier"
    }
    bias_filler {
      type: "constant"
      value: 0
    }
  }
}
layer {
  name: "fc7_mbox_loc_perm"
  type: "Permute"
  bottom: "fc7_mbox_loc"
  top: "fc7_mbox_loc_perm"
  permute_param {
    order: 0
    order: 2
    order: 3
    order: 1
  }
}
layer {
  name: "fc7_mbox_loc_flat"
  type: "Flatten"
  bottom: "fc7_mbox_loc_perm"
  top: "fc7_mbox_loc_flat"
  flatten_param {
    axis: 1
  }
}
layer {
  name: "fc7_mbox_conf"
  type: "Convolution"
  bottom: "fc7"
  top: "fc7_mbox_conf"
  param {
    lr_mult: 1
    decay_mult: 1
  }
  param {
    lr_mult: 2
    decay_mult: 0
  }
  convolution_param {
    num_output: 24
    pad: 1
    kernel_size: 3
    stride: 1
    weight_filler {
      type: "xavier"
    }
    bias_filler {
      type: "constant"
      value: 0
    }
  }
}
layer {
  name: "fc7_mbox_conf_perm"
  type: "Permute"
  bottom: "fc7_mbox_conf"
  top: "fc7_mbox_conf_perm"
  permute_param {
    order: 0
    order: 2
    order: 3
    order: 1
  }
}
layer {
  name: "fc7_mbox_conf_flat"
  type: "Flatten"
  bottom: "fc7_mbox_conf_perm"
  top: "fc7_mbox_conf_flat"
  flatten_param {
    axis: 1
  }
}
layer {
  name: "fc7_mbox_priorbox"
  type: "PriorBox"
  bottom: "fc7"
  bottom: "data"
  top: "fc7_mbox_priorbox"
  prior_box_param {
    min_size: 60
    max_size: 111
    aspect_ratio: 2
    aspect_ratio: 3
    flip: true
    clip: false
    variance: 0.1
    variance: 0.1
    variance: 0.2
    variance: 0.2
    step: 16
    offset: 0.5
  }
}
layer {
  name: "conv6_2_mbox_loc"
  type: "Convolution"
  bottom: "conv6_2"
  top: "conv6_2_mbox_loc"
  param {
    lr_mult: 1
    decay_mult: 1
  }
  param {
    lr_mult: 2
    decay_mult: 0
  }
  convolution_param {
    num_output: 24
    pad: 1
    kernel_size: 3
    stride: 1
    weight_filler {
      type: "xavier"
    }
    bias_filler {
      type: "constant"
      value: 0
    }
  }
}
layer {
  name: "conv6_2_mbox_loc_perm"
  type: "Permute"
  bottom: "conv6_2_mbox_loc"
  top: "conv6_2_mbox_loc_perm"
  permute_param {
    order: 0
    order: 2
    order: 3
    order: 1
  }
}
layer {
  name: "conv6_2_mbox_loc_flat"
  type: "Flatten"
  bottom: "conv6_2_mbox_loc_perm"
  top: "conv6_2_mbox_loc_flat"
  flatten_param {
    axis: 1
  }
}
layer {
  name: "conv6_2_mbox_conf"
  type: "Convolution"
  bottom: "conv6_2"
  top: "conv6_2_mbox_conf"
  param {
    lr_mult: 1
    decay_mult: 1
  }
  param {
    lr_mult: 2
    decay_mult: 0
  }
  convolution_param {
    num_output: 24
    pad: 1
    kernel_size: 3
    stride: 1
    weight_filler {
      type: "xavier"
    }
    bias_filler {
      type: "constant"
      value: 0
    }
  }
}
layer {
  name: "conv6_2_mbox_conf_perm"
  type: "Permute"
  bottom: "conv6_2_mbox_conf"
  top: "conv6_2_mbox_conf_perm"
  permute_param {
    order: 0
    order: 2
    order: 3
    order: 1
  }
}
layer {
  name: "conv6_2_mbox_conf_flat"
  type: "Flatten"
  bottom: "conv6_2_mbox_conf_perm"
  top: "conv6_2_mbox_conf_flat"
  flatten_param {
    axis: 1
  }
}
layer {
  name: "conv6_2_mbox_priorbox"
  type: "PriorBox"
  bottom: "conv6_2"
  bottom: "data"
  top: "conv6_2_mbox_priorbox"
  prior_box_param {
    min_size: 111
    max_size: 162
    aspect_ratio: 2
    aspect_ratio: 3
    flip: true
    clip: false
    variance: 0.1
    variance: 0.1
    variance: 0.2
    variance: 0.2
    step: 32
    offset: 0.5
  }
}
layer {
  name: "conv7_2_mbox_loc"
  type: "Convolution"
  bottom: "conv7_2"
  top: "conv7_2_mbox_loc"
  param {
    lr_mult: 1
    decay_mult: 1
  }
  param {
    lr_mult: 2
    decay_mult: 0
  }
  convolution_param {
    num_output: 24
    pad: 1
    kernel_size: 3
    stride: 1
    weight_filler {
      type: "xavier"
    }
    bias_filler {
      type: "constant"
      value: 0
    }
  }
}
layer {
  name: "conv7_2_mbox_loc_perm"
  type: "Permute"
  bottom: "conv7_2_mbox_loc"
  top: "conv7_2_mbox_loc_perm"
  permute_param {
    order: 0
    order: 2
    order: 3
    order: 1
  }
}
layer {
  name: "conv7_2_mbox_loc_flat"
  type: "Flatten"
  bottom: "conv7_2_mbox_loc_perm"
  top: "conv7_2_mbox_loc_flat"
  flatten_param {
    axis: 1
  }
}
layer {
  name: "conv7_2_mbox_conf"
  type: "Convolution"
  bottom: "conv7_2"
  top: "conv7_2_mbox_conf"
  param {
    lr_mult: 1
    decay_mult: 1
  }
  param {
    lr_mult: 2
    decay_mult: 0
  }
  convolution_param {
    num_output: 24
    pad: 1
    kernel_size: 3
    stride: 1
    weight_filler {
      type: "xavier"
    }
    bias_filler {
      type: "constant"
      value: 0
    }
  }
}
layer {
  name: "conv7_2_mbox_conf_perm"
  type: "Permute"
  bottom: "conv7_2_mbox_conf"
  top: "conv7_2_mbox_conf_perm"
  permute_param {
    order: 0
    order: 2
    order: 3
    order: 1
  }
}
layer {
  name: "conv7_2_mbox_conf_flat"
  type: "Flatten"
  bottom: "conv7_2_mbox_conf_perm"
  top: "conv7_2_mbox_conf_flat"
  flatten_param {
    axis: 1
  }
}
layer {
  name: "conv7_2_mbox_priorbox"
  type: "PriorBox"
  bottom: "conv7_2"
  bottom: "data"
  top: "conv7_2_mbox_priorbox"
  prior_box_param {
    min_size: 162
    max_size: 213
    aspect_ratio: 2
    aspect_ratio: 3
    flip: true
    clip: false
    variance: 0.1
    variance: 0.1
    variance: 0.2
    variance: 0.2
    step: 64
    offset: 0.5
  }
}
layer {
  name: "conv8_2_mbox_loc"
  type: "Convolution"
  bottom: "conv8_2"
  top: "conv8_2_mbox_loc"
  param {
    lr_mult: 1
    decay_mult: 1
  }
  param {
    lr_mult: 2
    decay_mult: 0
  }
  convolution_param {
    num_output: 16
    pad: 1
    kernel_size: 3
    stride: 1
    weight_filler {
      type: "xavier"
    }
    bias_filler {
      type: "constant"
      value: 0
    }
  }
}
layer {
  name: "conv8_2_mbox_loc_perm"
  type: "Permute"
  bottom: "conv8_2_mbox_loc"
  top: "conv8_2_mbox_loc_perm"
  permute_param {
    order: 0
    order: 2
    order: 3
    order: 1
  }
}
layer {
  name: "conv8_2_mbox_loc_flat"
  type: "Flatten"
  bottom: "conv8_2_mbox_loc_perm"
  top: "conv8_2_mbox_loc_flat"
  flatten_param {
    axis: 1
  }
}
layer {
  name: "conv8_2_mbox_conf"
  type: "Convolution"
  bottom: "conv8_2"
  top: "conv8_2_mbox_conf"
  param {
    lr_mult: 1
    decay_mult: 1
  }
  param {
    lr_mult: 2
    decay_mult: 0
  }
  convolution_param {
    num_output: 16
    pad: 1
    kernel_size: 3
    stride: 1
    weight_filler {
      type: "xavier"
    }
    bias_filler {
      type: "constant"
      value: 0
    }
  }
}
layer {
  name: "conv8_2_mbox_conf_perm"
  type: "Permute"
  bottom: "conv8_2_mbox_conf"
  top: "conv8_2_mbox_conf_perm"
  permute_param {
    order: 0
    order: 2
    order: 3
    order: 1
  }
}
layer {
  name: "conv8_2_mbox_conf_flat"
  type: "Flatten"
  bottom: "conv8_2_mbox_conf_perm"
  top: "conv8_2_mbox_conf_flat"
  flatten_param {
    axis: 1
  }
}
layer {
  name: "conv8_2_mbox_priorbox"
  type: "PriorBox"
  bottom: "conv8_2"
  bottom: "data"
  top: "conv8_2_mbox_priorbox"
  prior_box_param {
    min_size: 213
    max_size: 264
    aspect_ratio: 2
    flip: true
    clip: false
    variance: 0.1
    variance: 0.1
    variance: 0.2
    variance: 0.2
    step: 100
    offset: 0.5
  }
}
layer {
  name: "conv9_2_mbox_loc"
  type: "Convolution"
  bottom: "conv9_2"
  top: "conv9_2_mbox_loc"
  param {
    lr_mult: 1
    decay_mult: 1
  }
  param {
    lr_mult: 2
    decay_mult: 0
  }
  convolution_param {
    num_output: 16
    pad: 1
    kernel_size: 3
    stride: 1
    weight_filler {
      type: "xavier"
    }
    bias_filler {
      type: "constant"
      value: 0
    }
  }
}
layer {
  name: "conv9_2_mbox_loc_perm"
  type: "Permute"
  bottom: "conv9_2_mbox_loc"
  top: "conv9_2_mbox_loc_perm"
  permute_param {
    order: 0
    order: 2
    order: 3
    order: 1
  }
}
layer {
  name: "conv9_2_mbox_loc_flat"
  type: "Flatten"
  bottom: "conv9_2_mbox_loc_perm"
  top: "conv9_2_mbox_loc_flat"
  flatten_param {
    axis: 1
  }
}
layer {
  name: "conv9_2_mbox_conf"
  type: "Convolution"
  bottom: "conv9_2"
  top: "conv9_2_mbox_conf"
  param {
    lr_mult: 1
    decay_mult: 1
  }
  param {
    lr_mult: 2
    decay_mult: 0
  }
  convolution_param {
    num_output: 16
    pad: 1
    kernel_size: 3
    stride: 1
    weight_filler {
      type: "xavier"
    }
    bias_filler {
      type: "constant"
      value: 0
    }
  }
}
layer {
  name: "conv9_2_mbox_conf_perm"
  type: "Permute"
  bottom: "conv9_2_mbox_conf"
  top: "conv9_2_mbox_conf_perm"
  permute_param {
    order: 0
    order: 2
    order: 3
    order: 1
  }
}
layer {
  name: "conv9_2_mbox_conf_flat"
  type: "Flatten"
  bottom: "conv9_2_mbox_conf_perm"
  top: "conv9_2_mbox_conf_flat"
  flatten_param {
    axis: 1
  }
}
layer {
  name: "conv9_2_mbox_priorbox"
  type: "PriorBox"
  bottom: "conv9_2"
  bottom: "data"
  top: "conv9_2_mbox_priorbox"
  prior_box_param {
    min_size: 264
    max_size: 315
    aspect_ratio: 2
    flip: true
    clip: false
    variance: 0.1
    variance: 0.1
    variance: 0.2
    variance: 0.2
    step: 300
    offset: 0.5
  }
}
layer {
  name: "mbox_loc"
  type: "Concat"
  bottom: "conv4_3_norm_mbox_loc_flat"
  bottom: "fc7_mbox_loc_flat"
  bottom: "conv6_2_mbox_loc_flat"
  bottom: "conv7_2_mbox_loc_flat"
  bottom: "conv8_2_mbox_loc_flat"
  bottom: "conv9_2_mbox_loc_flat"
  top: "mbox_loc"
  concat_param {
    axis: 1
  }
}
layer {
  name: "mbox_conf"
  type: "Concat"
  bottom: "conv4_3_norm_mbox_conf_flat"
  bottom: "fc7_mbox_conf_flat"
  bottom: "conv6_2_mbox_conf_flat"
  bottom: "conv7_2_mbox_conf_flat"
  bottom: "conv8_2_mbox_conf_flat"
  bottom: "conv9_2_mbox_conf_flat"
  top: "mbox_conf"
  concat_param {
    axis: 1
  }
}
layer {
  name: "mbox_priorbox"
  type: "Concat"
  bottom: "conv4_3_norm_mbox_priorbox"
  bottom: "fc7_mbox_priorbox"
  bottom: "conv6_2_mbox_priorbox"
  bottom: "conv7_2_mbox_priorbox"
  bottom: "conv8_2_mbox_priorbox"
  bottom: "conv9_2_mbox_priorbox"
  top: "mbox_priorbox"
  concat_param {
    axis: 2
  }
}
layer {
  name: "mbox_loss"
  type: "MultiBoxLoss"
  bottom: "mbox_loc"
  bottom: "mbox_conf"
  bottom: "mbox_priorbox"
  bottom: "label"
  top: "mbox_loss"
  include {
    phase: TRAIN
  }
  propagate_down: true
  propagate_down: true
  propagate_down: false
  propagate_down: false
  loss_param {
    normalization: VALID
  }
  multibox_loss_param {
    loc_loss_type: SMOOTH_L1
    conf_loss_type: SOFTMAX
    loc_weight: 1
    num_classes: 4
    share_location: true
    match_type: PER_PREDICTION
    overlap_threshold: 0.5
    use_prior_for_matching: true
    background_label_id: 0
    use_difficult_gt: true
    neg_pos_ratio: 3
    neg_overlap: 0.5
    code_type: CENTER_SIZE
    ignore_cross_boundary_bbox: false
    mining_type: MAX_NEGATIVE
  }
}
I0601 17:41:01.464306  8248 layer_factory.hpp:77] Creating layer data
I0601 17:41:01.464498  8248 net.cpp:100] Creating Layer data
I0601 17:41:01.464511  8248 net.cpp:408] data -> data
I0601 17:41:01.464545  8248 net.cpp:408] data -> label
I0601 17:41:01.464998  8264 db_lmdb.cpp:35] Opened lmdb examples/tbs_300x300_HSIL_10x/tbs_300x300_HSIL_10x_trainval_lmdb
I0601 17:41:01.473481  8248 annotated_data_layer.cpp:62] output data size: 32,3,300,300
I0601 17:41:01.532137  8248 net.cpp:150] Setting up data
I0601 17:41:01.532157  8248 net.cpp:157] Top shape: 32 3 300 300 (8640000)
I0601 17:41:01.532163  8248 net.cpp:157] Top shape: 1 1 5 8 (40)
I0601 17:41:01.532192  8248 net.cpp:165] Memory required for data: 34560160
I0601 17:41:01.532217  8248 layer_factory.hpp:77] Creating layer data_data_0_split
I0601 17:41:01.532230  8248 net.cpp:100] Creating Layer data_data_0_split
I0601 17:41:01.532253  8248 net.cpp:434] data_data_0_split <- data
I0601 17:41:01.532269  8248 net.cpp:408] data_data_0_split -> data_data_0_split_0
I0601 17:41:01.532282  8248 net.cpp:408] data_data_0_split -> data_data_0_split_1
I0601 17:41:01.532290  8248 net.cpp:408] data_data_0_split -> data_data_0_split_2
I0601 17:41:01.532299  8248 net.cpp:408] data_data_0_split -> data_data_0_split_3
I0601 17:41:01.532308  8248 net.cpp:408] data_data_0_split -> data_data_0_split_4
I0601 17:41:01.532316  8248 net.cpp:408] data_data_0_split -> data_data_0_split_5
I0601 17:41:01.532323  8248 net.cpp:408] data_data_0_split -> data_data_0_split_6
I0601 17:41:01.532452  8248 net.cpp:150] Setting up data_data_0_split
I0601 17:41:01.532460  8248 net.cpp:157] Top shape: 32 3 300 300 (8640000)
I0601 17:41:01.532465  8248 net.cpp:157] Top shape: 32 3 300 300 (8640000)
I0601 17:41:01.532470  8248 net.cpp:157] Top shape: 32 3 300 300 (8640000)
I0601 17:41:01.532491  8248 net.cpp:157] Top shape: 32 3 300 300 (8640000)
I0601 17:41:01.532497  8248 net.cpp:157] Top shape: 32 3 300 300 (8640000)
I0601 17:41:01.532502  8248 net.cpp:157] Top shape: 32 3 300 300 (8640000)
I0601 17:41:01.532508  8248 net.cpp:157] Top shape: 32 3 300 300 (8640000)
I0601 17:41:01.532512  8248 net.cpp:165] Memory required for data: 276480160
I0601 17:41:01.532517  8248 layer_factory.hpp:77] Creating layer conv1_1
I0601 17:41:01.532546  8248 net.cpp:100] Creating Layer conv1_1
I0601 17:41:01.532551  8248 net.cpp:434] conv1_1 <- data_data_0_split_0
I0601 17:41:01.532558  8248 net.cpp:408] conv1_1 -> conv1_1
I0601 17:41:01.703264  8248 net.cpp:150] Setting up conv1_1
I0601 17:41:01.703284  8248 net.cpp:157] Top shape: 32 64 300 300 (184320000)
I0601 17:41:01.703289  8248 net.cpp:165] Memory required for data: 1013760160
I0601 17:41:01.703321  8248 layer_factory.hpp:77] Creating layer relu1_1
I0601 17:41:01.703346  8248 net.cpp:100] Creating Layer relu1_1
I0601 17:41:01.703352  8248 net.cpp:434] relu1_1 <- conv1_1
I0601 17:41:01.703372  8248 net.cpp:395] relu1_1 -> conv1_1 (in-place)
I0601 17:41:01.703543  8248 net.cpp:150] Setting up relu1_1
I0601 17:41:01.703552  8248 net.cpp:157] Top shape: 32 64 300 300 (184320000)
I0601 17:41:01.703555  8248 net.cpp:165] Memory required for data: 1751040160
I0601 17:41:01.703559  8248 layer_factory.hpp:77] Creating layer conv1_2
I0601 17:41:01.703586  8248 net.cpp:100] Creating Layer conv1_2
I0601 17:41:01.703591  8248 net.cpp:434] conv1_2 <- conv1_1
I0601 17:41:01.703598  8248 net.cpp:408] conv1_2 -> conv1_2
I0601 17:41:01.705576  8248 net.cpp:150] Setting up conv1_2
I0601 17:41:01.705587  8248 net.cpp:157] Top shape: 32 64 300 300 (184320000)
I0601 17:41:01.705592  8248 net.cpp:165] Memory required for data: 2488320160
I0601 17:41:01.705603  8248 layer_factory.hpp:77] Creating layer relu1_2
I0601 17:41:01.705611  8248 net.cpp:100] Creating Layer relu1_2
I0601 17:41:01.705616  8248 net.cpp:434] relu1_2 <- conv1_2
I0601 17:41:01.705623  8248 net.cpp:395] relu1_2 -> conv1_2 (in-place)
I0601 17:41:01.706137  8248 net.cpp:150] Setting up relu1_2
I0601 17:41:01.706147  8248 net.cpp:157] Top shape: 32 64 300 300 (184320000)
I0601 17:41:01.706151  8248 net.cpp:165] Memory required for data: 3225600160
I0601 17:41:01.706156  8248 layer_factory.hpp:77] Creating layer pool1
I0601 17:41:01.706163  8248 net.cpp:100] Creating Layer pool1
I0601 17:41:01.706168  8248 net.cpp:434] pool1 <- conv1_2
I0601 17:41:01.706176  8248 net.cpp:408] pool1 -> pool1
I0601 17:41:01.706218  8248 net.cpp:150] Setting up pool1
I0601 17:41:01.706224  8248 net.cpp:157] Top shape: 32 64 150 150 (46080000)
I0601 17:41:01.706228  8248 net.cpp:165] Memory required for data: 3409920160
I0601 17:41:01.706233  8248 layer_factory.hpp:77] Creating layer conv2_1
I0601 17:41:01.706241  8248 net.cpp:100] Creating Layer conv2_1
I0601 17:41:01.706254  8248 net.cpp:434] conv2_1 <- pool1
I0601 17:41:01.706262  8248 net.cpp:408] conv2_1 -> conv2_1
I0601 17:41:01.707473  8248 net.cpp:150] Setting up conv2_1
I0601 17:41:01.707484  8248 net.cpp:157] Top shape: 32 128 150 150 (92160000)
I0601 17:41:01.707487  8248 net.cpp:165] Memory required for data: 3778560160
I0601 17:41:01.707497  8248 layer_factory.hpp:77] Creating layer relu2_1
I0601 17:41:01.707507  8248 net.cpp:100] Creating Layer relu2_1
I0601 17:41:01.707514  8248 net.cpp:434] relu2_1 <- conv2_1
I0601 17:41:01.707520  8248 net.cpp:395] relu2_1 -> conv2_1 (in-place)
I0601 17:41:01.708047  8248 net.cpp:150] Setting up relu2_1
I0601 17:41:01.708056  8248 net.cpp:157] Top shape: 32 128 150 150 (92160000)
I0601 17:41:01.708063  8248 net.cpp:165] Memory required for data: 4147200160
I0601 17:41:01.708067  8248 layer_factory.hpp:77] Creating layer conv2_2
I0601 17:41:01.708076  8248 net.cpp:100] Creating Layer conv2_2
I0601 17:41:01.708081  8248 net.cpp:434] conv2_2 <- conv2_1
I0601 17:41:01.708089  8248 net.cpp:408] conv2_2 -> conv2_2
I0601 17:41:01.710005  8248 net.cpp:150] Setting up conv2_2
I0601 17:41:01.710016  8248 net.cpp:157] Top shape: 32 128 150 150 (92160000)
I0601 17:41:01.710019  8248 net.cpp:165] Memory required for data: 4515840160
I0601 17:41:01.710027  8248 layer_factory.hpp:77] Creating layer relu2_2
I0601 17:41:01.710037  8248 net.cpp:100] Creating Layer relu2_2
I0601 17:41:01.710042  8248 net.cpp:434] relu2_2 <- conv2_2
I0601 17:41:01.710048  8248 net.cpp:395] relu2_2 -> conv2_2 (in-place)
I0601 17:41:01.710177  8248 net.cpp:150] Setting up relu2_2
I0601 17:41:01.710186  8248 net.cpp:157] Top shape: 32 128 150 150 (92160000)
I0601 17:41:01.710189  8248 net.cpp:165] Memory required for data: 4884480160
I0601 17:41:01.710192  8248 layer_factory.hpp:77] Creating layer pool2
I0601 17:41:01.710201  8248 net.cpp:100] Creating Layer pool2
I0601 17:41:01.710206  8248 net.cpp:434] pool2 <- conv2_2
I0601 17:41:01.710212  8248 net.cpp:408] pool2 -> pool2
I0601 17:41:01.710245  8248 net.cpp:150] Setting up pool2
I0601 17:41:01.710253  8248 net.cpp:157] Top shape: 32 128 75 75 (23040000)
I0601 17:41:01.710255  8248 net.cpp:165] Memory required for data: 4976640160
I0601 17:41:01.710259  8248 layer_factory.hpp:77] Creating layer conv3_1
I0601 17:41:01.710268  8248 net.cpp:100] Creating Layer conv3_1
I0601 17:41:01.710274  8248 net.cpp:434] conv3_1 <- pool2
I0601 17:41:01.710281  8248 net.cpp:408] conv3_1 -> conv3_1
I0601 17:41:01.713943  8248 net.cpp:150] Setting up conv3_1
I0601 17:41:01.713958  8248 net.cpp:157] Top shape: 32 256 75 75 (46080000)
I0601 17:41:01.713963  8248 net.cpp:165] Memory required for data: 5160960160
I0601 17:41:01.713977  8248 layer_factory.hpp:77] Creating layer relu3_1
I0601 17:41:01.713987  8248 net.cpp:100] Creating Layer relu3_1
I0601 17:41:01.713992  8248 net.cpp:434] relu3_1 <- conv3_1
I0601 17:41:01.714002  8248 net.cpp:395] relu3_1 -> conv3_1 (in-place)
I0601 17:41:01.714143  8248 net.cpp:150] Setting up relu3_1
I0601 17:41:01.714150  8248 net.cpp:157] Top shape: 32 256 75 75 (46080000)
I0601 17:41:01.714154  8248 net.cpp:165] Memory required for data: 5345280160
I0601 17:41:01.714159  8248 layer_factory.hpp:77] Creating layer conv3_2
I0601 17:41:01.714171  8248 net.cpp:100] Creating Layer conv3_2
I0601 17:41:01.714176  8248 net.cpp:434] conv3_2 <- conv3_1
I0601 17:41:01.714184  8248 net.cpp:408] conv3_2 -> conv3_2
I0601 17:41:01.718757  8248 net.cpp:150] Setting up conv3_2
I0601 17:41:01.718773  8248 net.cpp:157] Top shape: 32 256 75 75 (46080000)
I0601 17:41:01.718777  8248 net.cpp:165] Memory required for data: 5529600160
I0601 17:41:01.718786  8248 layer_factory.hpp:77] Creating layer relu3_2
I0601 17:41:01.718807  8248 net.cpp:100] Creating Layer relu3_2
I0601 17:41:01.718813  8248 net.cpp:434] relu3_2 <- conv3_2
I0601 17:41:01.718833  8248 net.cpp:395] relu3_2 -> conv3_2 (in-place)
I0601 17:41:01.718982  8248 net.cpp:150] Setting up relu3_2
I0601 17:41:01.718991  8248 net.cpp:157] Top shape: 32 256 75 75 (46080000)
I0601 17:41:01.718994  8248 net.cpp:165] Memory required for data: 5713920160
I0601 17:41:01.719008  8248 layer_factory.hpp:77] Creating layer conv3_3
I0601 17:41:01.719023  8248 net.cpp:100] Creating Layer conv3_3
I0601 17:41:01.719028  8248 net.cpp:434] conv3_3 <- conv3_2
I0601 17:41:01.719035  8248 net.cpp:408] conv3_3 -> conv3_3
I0601 17:41:01.723484  8248 net.cpp:150] Setting up conv3_3
I0601 17:41:01.723496  8248 net.cpp:157] Top shape: 32 256 75 75 (46080000)
I0601 17:41:01.723501  8248 net.cpp:165] Memory required for data: 5898240160
I0601 17:41:01.723508  8248 layer_factory.hpp:77] Creating layer relu3_3
I0601 17:41:01.723515  8248 net.cpp:100] Creating Layer relu3_3
I0601 17:41:01.723521  8248 net.cpp:434] relu3_3 <- conv3_3
I0601 17:41:01.723531  8248 net.cpp:395] relu3_3 -> conv3_3 (in-place)
I0601 17:41:01.723665  8248 net.cpp:150] Setting up relu3_3
I0601 17:41:01.723673  8248 net.cpp:157] Top shape: 32 256 75 75 (46080000)
I0601 17:41:01.723677  8248 net.cpp:165] Memory required for data: 6082560160
I0601 17:41:01.723681  8248 layer_factory.hpp:77] Creating layer pool3
I0601 17:41:01.723690  8248 net.cpp:100] Creating Layer pool3
I0601 17:41:01.723695  8248 net.cpp:434] pool3 <- conv3_3
I0601 17:41:01.723700  8248 net.cpp:408] pool3 -> pool3
I0601 17:41:01.723737  8248 net.cpp:150] Setting up pool3
I0601 17:41:01.723743  8248 net.cpp:157] Top shape: 32 256 38 38 (11829248)
I0601 17:41:01.723747  8248 net.cpp:165] Memory required for data: 6129877152
I0601 17:41:01.723750  8248 layer_factory.hpp:77] Creating layer conv4_1
I0601 17:41:01.723762  8248 net.cpp:100] Creating Layer conv4_1
I0601 17:41:01.723765  8248 net.cpp:434] conv4_1 <- pool3
I0601 17:41:01.723773  8248 net.cpp:408] conv4_1 -> conv4_1
I0601 17:41:01.731745  8248 net.cpp:150] Setting up conv4_1
I0601 17:41:01.731762  8248 net.cpp:157] Top shape: 32 512 38 38 (23658496)
I0601 17:41:01.731766  8248 net.cpp:165] Memory required for data: 6224511136
I0601 17:41:01.731775  8248 layer_factory.hpp:77] Creating layer relu4_1
I0601 17:41:01.731797  8248 net.cpp:100] Creating Layer relu4_1
I0601 17:41:01.731803  8248 net.cpp:434] relu4_1 <- conv4_1
I0601 17:41:01.731824  8248 net.cpp:395] relu4_1 -> conv4_1 (in-place)
I0601 17:41:01.732592  8248 net.cpp:150] Setting up relu4_1
I0601 17:41:01.732616  8248 net.cpp:157] Top shape: 32 512 38 38 (23658496)
I0601 17:41:01.732622  8248 net.cpp:165] Memory required for data: 6319145120
I0601 17:41:01.732626  8248 layer_factory.hpp:77] Creating layer conv4_2
I0601 17:41:01.732637  8248 net.cpp:100] Creating Layer conv4_2
I0601 17:41:01.732643  8248 net.cpp:434] conv4_2 <- conv4_1
I0601 17:41:01.732650  8248 net.cpp:408] conv4_2 -> conv4_2
I0601 17:41:01.744638  8248 net.cpp:150] Setting up conv4_2
I0601 17:41:01.744658  8248 net.cpp:157] Top shape: 32 512 38 38 (23658496)
I0601 17:41:01.744662  8248 net.cpp:165] Memory required for data: 6413779104
I0601 17:41:01.744690  8248 layer_factory.hpp:77] Creating layer relu4_2
I0601 17:41:01.744699  8248 net.cpp:100] Creating Layer relu4_2
I0601 17:41:01.744704  8248 net.cpp:434] relu4_2 <- conv4_2
I0601 17:41:01.744725  8248 net.cpp:395] relu4_2 -> conv4_2 (in-place)
I0601 17:41:01.745839  8248 net.cpp:150] Setting up relu4_2
I0601 17:41:01.745863  8248 net.cpp:157] Top shape: 32 512 38 38 (23658496)
I0601 17:41:01.745868  8248 net.cpp:165] Memory required for data: 6508413088
I0601 17:41:01.745872  8248 layer_factory.hpp:77] Creating layer conv4_3
I0601 17:41:01.745884  8248 net.cpp:100] Creating Layer conv4_3
I0601 17:41:01.745889  8248 net.cpp:434] conv4_3 <- conv4_2
I0601 17:41:01.745896  8248 net.cpp:408] conv4_3 -> conv4_3
I0601 17:41:01.758380  8248 net.cpp:150] Setting up conv4_3
I0601 17:41:01.758397  8248 net.cpp:157] Top shape: 32 512 38 38 (23658496)
I0601 17:41:01.758402  8248 net.cpp:165] Memory required for data: 6603047072
I0601 17:41:01.758410  8248 layer_factory.hpp:77] Creating layer relu4_3
I0601 17:41:01.758432  8248 net.cpp:100] Creating Layer relu4_3
I0601 17:41:01.758440  8248 net.cpp:434] relu4_3 <- conv4_3
I0601 17:41:01.758450  8248 net.cpp:395] relu4_3 -> conv4_3 (in-place)
I0601 17:41:01.758666  8248 net.cpp:150] Setting up relu4_3
I0601 17:41:01.758673  8248 net.cpp:157] Top shape: 32 512 38 38 (23658496)
I0601 17:41:01.758677  8248 net.cpp:165] Memory required for data: 6697681056
I0601 17:41:01.758680  8248 layer_factory.hpp:77] Creating layer conv4_3_relu4_3_0_split
I0601 17:41:01.758688  8248 net.cpp:100] Creating Layer conv4_3_relu4_3_0_split
I0601 17:41:01.758708  8248 net.cpp:434] conv4_3_relu4_3_0_split <- conv4_3
I0601 17:41:01.758713  8248 net.cpp:408] conv4_3_relu4_3_0_split -> conv4_3_relu4_3_0_split_0
I0601 17:41:01.758721  8248 net.cpp:408] conv4_3_relu4_3_0_split -> conv4_3_relu4_3_0_split_1
I0601 17:41:01.758803  8248 net.cpp:150] Setting up conv4_3_relu4_3_0_split
I0601 17:41:01.758810  8248 net.cpp:157] Top shape: 32 512 38 38 (23658496)
I0601 17:41:01.758816  8248 net.cpp:157] Top shape: 32 512 38 38 (23658496)
I0601 17:41:01.758819  8248 net.cpp:165] Memory required for data: 6886949024
I0601 17:41:01.758823  8248 layer_factory.hpp:77] Creating layer pool4
I0601 17:41:01.758829  8248 net.cpp:100] Creating Layer pool4
I0601 17:41:01.758834  8248 net.cpp:434] pool4 <- conv4_3_relu4_3_0_split_0
I0601 17:41:01.758842  8248 net.cpp:408] pool4 -> pool4
I0601 17:41:01.758888  8248 net.cpp:150] Setting up pool4
I0601 17:41:01.758894  8248 net.cpp:157] Top shape: 32 512 19 19 (5914624)
I0601 17:41:01.758898  8248 net.cpp:165] Memory required for data: 6910607520
I0601 17:41:01.758901  8248 layer_factory.hpp:77] Creating layer conv5_1
I0601 17:41:01.758914  8248 net.cpp:100] Creating Layer conv5_1
I0601 17:41:01.758919  8248 net.cpp:434] conv5_1 <- pool4
I0601 17:41:01.758926  8248 net.cpp:408] conv5_1 -> conv5_1
I0601 17:41:01.771955  8248 net.cpp:150] Setting up conv5_1
I0601 17:41:01.771971  8248 net.cpp:157] Top shape: 32 512 19 19 (5914624)
I0601 17:41:01.771975  8248 net.cpp:165] Memory required for data: 6934266016
I0601 17:41:01.771983  8248 layer_factory.hpp:77] Creating layer relu5_1
I0601 17:41:01.772006  8248 net.cpp:100] Creating Layer relu5_1
I0601 17:41:01.772011  8248 net.cpp:434] relu5_1 <- conv5_1
I0601 17:41:01.772052  8248 net.cpp:395] relu5_1 -> conv5_1 (in-place)
I0601 17:41:01.772204  8248 net.cpp:150] Setting up relu5_1
I0601 17:41:01.772213  8248 net.cpp:157] Top shape: 32 512 19 19 (5914624)
I0601 17:41:01.772217  8248 net.cpp:165] Memory required for data: 6957924512
I0601 17:41:01.772234  8248 layer_factory.hpp:77] Creating layer conv5_2
I0601 17:41:01.772245  8248 net.cpp:100] Creating Layer conv5_2
I0601 17:41:01.772251  8248 net.cpp:434] conv5_2 <- conv5_1
I0601 17:41:01.772260  8248 net.cpp:408] conv5_2 -> conv5_2
I0601 17:41:01.785302  8248 net.cpp:150] Setting up conv5_2
I0601 17:41:01.785322  8248 net.cpp:157] Top shape: 32 512 19 19 (5914624)
I0601 17:41:01.785326  8248 net.cpp:165] Memory required for data: 6981583008
I0601 17:41:01.785336  8248 layer_factory.hpp:77] Creating layer relu5_2
I0601 17:41:01.785347  8248 net.cpp:100] Creating Layer relu5_2
I0601 17:41:01.785353  8248 net.cpp:434] relu5_2 <- conv5_2
I0601 17:41:01.785377  8248 net.cpp:395] relu5_2 -> conv5_2 (in-place)
I0601 17:41:01.785521  8248 net.cpp:150] Setting up relu5_2
I0601 17:41:01.785528  8248 net.cpp:157] Top shape: 32 512 19 19 (5914624)
I0601 17:41:01.785531  8248 net.cpp:165] Memory required for data: 7005241504
I0601 17:41:01.785536  8248 layer_factory.hpp:77] Creating layer conv5_3
I0601 17:41:01.785548  8248 net.cpp:100] Creating Layer conv5_3
I0601 17:41:01.785553  8248 net.cpp:434] conv5_3 <- conv5_2
I0601 17:41:01.785560  8248 net.cpp:408] conv5_3 -> conv5_3
I0601 17:41:01.798724  8248 net.cpp:150] Setting up conv5_3
I0601 17:41:01.798743  8248 net.cpp:157] Top shape: 32 512 19 19 (5914624)
I0601 17:41:01.798748  8248 net.cpp:165] Memory required for data: 7028900000
I0601 17:41:01.798755  8248 layer_factory.hpp:77] Creating layer relu5_3
I0601 17:41:01.798771  8248 net.cpp:100] Creating Layer relu5_3
I0601 17:41:01.798795  8248 net.cpp:434] relu5_3 <- conv5_3
I0601 17:41:01.798805  8248 net.cpp:395] relu5_3 -> conv5_3 (in-place)
I0601 17:41:01.798952  8248 net.cpp:150] Setting up relu5_3
I0601 17:41:01.798967  8248 net.cpp:157] Top shape: 32 512 19 19 (5914624)
I0601 17:41:01.798971  8248 net.cpp:165] Memory required for data: 7052558496
I0601 17:41:01.798990  8248 layer_factory.hpp:77] Creating layer pool5
I0601 17:41:01.798996  8248 net.cpp:100] Creating Layer pool5
I0601 17:41:01.799000  8248 net.cpp:434] pool5 <- conv5_3
I0601 17:41:01.799008  8248 net.cpp:408] pool5 -> pool5
I0601 17:41:01.799060  8248 net.cpp:150] Setting up pool5
I0601 17:41:01.799067  8248 net.cpp:157] Top shape: 32 512 19 19 (5914624)
I0601 17:41:01.799072  8248 net.cpp:165] Memory required for data: 7076216992
I0601 17:41:01.799074  8248 layer_factory.hpp:77] Creating layer fc6
I0601 17:41:01.799085  8248 net.cpp:100] Creating Layer fc6
I0601 17:41:01.799090  8248 net.cpp:434] fc6 <- pool5
I0601 17:41:01.799096  8248 net.cpp:408] fc6 -> fc6
I0601 17:41:01.821646  8248 net.cpp:150] Setting up fc6
I0601 17:41:01.821663  8248 net.cpp:157] Top shape: 32 1024 19 19 (11829248)
I0601 17:41:01.821667  8248 net.cpp:165] Memory required for data: 7123533984
I0601 17:41:01.821674  8248 layer_factory.hpp:77] Creating layer relu6
I0601 17:41:01.821697  8248 net.cpp:100] Creating Layer relu6
I0601 17:41:01.821702  8248 net.cpp:434] relu6 <- fc6
I0601 17:41:01.821712  8248 net.cpp:395] relu6 -> fc6 (in-place)
I0601 17:41:01.822510  8248 net.cpp:150] Setting up relu6
I0601 17:41:01.822520  8248 net.cpp:157] Top shape: 32 1024 19 19 (11829248)
I0601 17:41:01.822523  8248 net.cpp:165] Memory required for data: 7170850976
I0601 17:41:01.822527  8248 layer_factory.hpp:77] Creating layer fc7
I0601 17:41:01.822540  8248 net.cpp:100] Creating Layer fc7
I0601 17:41:01.822546  8248 net.cpp:434] fc7 <- fc6
I0601 17:41:01.822553  8248 net.cpp:408] fc7 -> fc7
I0601 17:41:01.828816  8248 net.cpp:150] Setting up fc7
I0601 17:41:01.828833  8248 net.cpp:157] Top shape: 32 1024 19 19 (11829248)
I0601 17:41:01.828836  8248 net.cpp:165] Memory required for data: 7218167968
I0601 17:41:01.828845  8248 layer_factory.hpp:77] Creating layer relu7
I0601 17:41:01.828852  8248 net.cpp:100] Creating Layer relu7
I0601 17:41:01.828857  8248 net.cpp:434] relu7 <- fc7
I0601 17:41:01.828866  8248 net.cpp:395] relu7 -> fc7 (in-place)
I0601 17:41:01.829000  8248 net.cpp:150] Setting up relu7
I0601 17:41:01.829008  8248 net.cpp:157] Top shape: 32 1024 19 19 (11829248)
I0601 17:41:01.829012  8248 net.cpp:165] Memory required for data: 7265484960
I0601 17:41:01.829016  8248 layer_factory.hpp:77] Creating layer fc7_relu7_0_split
I0601 17:41:01.829023  8248 net.cpp:100] Creating Layer fc7_relu7_0_split
I0601 17:41:01.829028  8248 net.cpp:434] fc7_relu7_0_split <- fc7
I0601 17:41:01.829035  8248 net.cpp:408] fc7_relu7_0_split -> fc7_relu7_0_split_0
I0601 17:41:01.829044  8248 net.cpp:408] fc7_relu7_0_split -> fc7_relu7_0_split_1
I0601 17:41:01.829058  8248 net.cpp:408] fc7_relu7_0_split -> fc7_relu7_0_split_2
I0601 17:41:01.829066  8248 net.cpp:408] fc7_relu7_0_split -> fc7_relu7_0_split_3
I0601 17:41:01.829123  8248 net.cpp:150] Setting up fc7_relu7_0_split
I0601 17:41:01.829129  8248 net.cpp:157] Top shape: 32 1024 19 19 (11829248)
I0601 17:41:01.829135  8248 net.cpp:157] Top shape: 32 1024 19 19 (11829248)
I0601 17:41:01.829140  8248 net.cpp:157] Top shape: 32 1024 19 19 (11829248)
I0601 17:41:01.829146  8248 net.cpp:157] Top shape: 32 1024 19 19 (11829248)
I0601 17:41:01.829149  8248 net.cpp:165] Memory required for data: 7454752928
I0601 17:41:01.829154  8248 layer_factory.hpp:77] Creating layer conv6_1
I0601 17:41:01.829164  8248 net.cpp:100] Creating Layer conv6_1
I0601 17:41:01.829169  8248 net.cpp:434] conv6_1 <- fc7_relu7_0_split_0
I0601 17:41:01.829179  8248 net.cpp:408] conv6_1 -> conv6_1
I0601 17:41:01.832403  8248 net.cpp:150] Setting up conv6_1
I0601 17:41:01.832423  8248 net.cpp:157] Top shape: 32 256 19 19 (2957312)
I0601 17:41:01.832427  8248 net.cpp:165] Memory required for data: 7466582176
I0601 17:41:01.832435  8248 layer_factory.hpp:77] Creating layer conv6_1_relu
I0601 17:41:01.832444  8248 net.cpp:100] Creating Layer conv6_1_relu
I0601 17:41:01.832458  8248 net.cpp:434] conv6_1_relu <- conv6_1
I0601 17:41:01.832468  8248 net.cpp:395] conv6_1_relu -> conv6_1 (in-place)
I0601 17:41:01.832623  8248 net.cpp:150] Setting up conv6_1_relu
I0601 17:41:01.832633  8248 net.cpp:157] Top shape: 32 256 19 19 (2957312)
I0601 17:41:01.832636  8248 net.cpp:165] Memory required for data: 7478411424
I0601 17:41:01.832640  8248 layer_factory.hpp:77] Creating layer conv6_2
I0601 17:41:01.832654  8248 net.cpp:100] Creating Layer conv6_2
I0601 17:41:01.832657  8248 net.cpp:434] conv6_2 <- conv6_1
I0601 17:41:01.832665  8248 net.cpp:408] conv6_2 -> conv6_2
I0601 17:41:01.839684  8248 net.cpp:150] Setting up conv6_2
I0601 17:41:01.839704  8248 net.cpp:157] Top shape: 32 512 10 10 (1638400)
I0601 17:41:01.839709  8248 net.cpp:165] Memory required for data: 7484965024
I0601 17:41:01.839725  8248 layer_factory.hpp:77] Creating layer conv6_2_relu
I0601 17:41:01.839737  8248 net.cpp:100] Creating Layer conv6_2_relu
I0601 17:41:01.839743  8248 net.cpp:434] conv6_2_relu <- conv6_2
I0601 17:41:01.839752  8248 net.cpp:395] conv6_2_relu -> conv6_2 (in-place)
I0601 17:41:01.839890  8248 net.cpp:150] Setting up conv6_2_relu
I0601 17:41:01.839900  8248 net.cpp:157] Top shape: 32 512 10 10 (1638400)
I0601 17:41:01.839902  8248 net.cpp:165] Memory required for data: 7491518624
I0601 17:41:01.839906  8248 layer_factory.hpp:77] Creating layer conv6_2_conv6_2_relu_0_split
I0601 17:41:01.839912  8248 net.cpp:100] Creating Layer conv6_2_conv6_2_relu_0_split
I0601 17:41:01.839920  8248 net.cpp:434] conv6_2_conv6_2_relu_0_split <- conv6_2
I0601 17:41:01.839926  8248 net.cpp:408] conv6_2_conv6_2_relu_0_split -> conv6_2_conv6_2_relu_0_split_0
I0601 17:41:01.839936  8248 net.cpp:408] conv6_2_conv6_2_relu_0_split -> conv6_2_conv6_2_relu_0_split_1
I0601 17:41:01.839943  8248 net.cpp:408] conv6_2_conv6_2_relu_0_split -> conv6_2_conv6_2_relu_0_split_2
I0601 17:41:01.839953  8248 net.cpp:408] conv6_2_conv6_2_relu_0_split -> conv6_2_conv6_2_relu_0_split_3
I0601 17:41:01.840013  8248 net.cpp:150] Setting up conv6_2_conv6_2_relu_0_split
I0601 17:41:01.840025  8248 net.cpp:157] Top shape: 32 512 10 10 (1638400)
I0601 17:41:01.840030  8248 net.cpp:157] Top shape: 32 512 10 10 (1638400)
I0601 17:41:01.840036  8248 net.cpp:157] Top shape: 32 512 10 10 (1638400)
I0601 17:41:01.840041  8248 net.cpp:157] Top shape: 32 512 10 10 (1638400)
I0601 17:41:01.840045  8248 net.cpp:165] Memory required for data: 7517733024
I0601 17:41:01.840049  8248 layer_factory.hpp:77] Creating layer conv7_1
I0601 17:41:01.840061  8248 net.cpp:100] Creating Layer conv7_1
I0601 17:41:01.840065  8248 net.cpp:434] conv7_1 <- conv6_2_conv6_2_relu_0_split_0
I0601 17:41:01.840072  8248 net.cpp:408] conv7_1 -> conv7_1
I0601 17:41:01.841382  8248 net.cpp:150] Setting up conv7_1
I0601 17:41:01.841393  8248 net.cpp:157] Top shape: 32 128 10 10 (409600)
I0601 17:41:01.841398  8248 net.cpp:165] Memory required for data: 7519371424
I0601 17:41:01.841404  8248 layer_factory.hpp:77] Creating layer conv7_1_relu
I0601 17:41:01.841413  8248 net.cpp:100] Creating Layer conv7_1_relu
I0601 17:41:01.841418  8248 net.cpp:434] conv7_1_relu <- conv7_1
I0601 17:41:01.841424  8248 net.cpp:395] conv7_1_relu -> conv7_1 (in-place)
I0601 17:41:01.841550  8248 net.cpp:150] Setting up conv7_1_relu
I0601 17:41:01.841557  8248 net.cpp:157] Top shape: 32 128 10 10 (409600)
I0601 17:41:01.841562  8248 net.cpp:165] Memory required for data: 7521009824
I0601 17:41:01.841565  8248 layer_factory.hpp:77] Creating layer conv7_2
I0601 17:41:01.841575  8248 net.cpp:100] Creating Layer conv7_2
I0601 17:41:01.841580  8248 net.cpp:434] conv7_2 <- conv7_1
I0601 17:41:01.841588  8248 net.cpp:408] conv7_2 -> conv7_2
I0601 17:41:01.844393  8248 net.cpp:150] Setting up conv7_2
I0601 17:41:01.844406  8248 net.cpp:157] Top shape: 32 256 5 5 (204800)
I0601 17:41:01.844410  8248 net.cpp:165] Memory required for data: 7521829024
I0601 17:41:01.844419  8248 layer_factory.hpp:77] Creating layer conv7_2_relu
I0601 17:41:01.844426  8248 net.cpp:100] Creating Layer conv7_2_relu
I0601 17:41:01.844442  8248 net.cpp:434] conv7_2_relu <- conv7_2
I0601 17:41:01.844451  8248 net.cpp:395] conv7_2_relu -> conv7_2 (in-place)
I0601 17:41:01.844580  8248 net.cpp:150] Setting up conv7_2_relu
I0601 17:41:01.844588  8248 net.cpp:157] Top shape: 32 256 5 5 (204800)
I0601 17:41:01.844593  8248 net.cpp:165] Memory required for data: 7522648224
I0601 17:41:01.844596  8248 layer_factory.hpp:77] Creating layer conv7_2_conv7_2_relu_0_split
I0601 17:41:01.844604  8248 net.cpp:100] Creating Layer conv7_2_conv7_2_relu_0_split
I0601 17:41:01.844609  8248 net.cpp:434] conv7_2_conv7_2_relu_0_split <- conv7_2
I0601 17:41:01.844616  8248 net.cpp:408] conv7_2_conv7_2_relu_0_split -> conv7_2_conv7_2_relu_0_split_0
I0601 17:41:01.844625  8248 net.cpp:408] conv7_2_conv7_2_relu_0_split -> conv7_2_conv7_2_relu_0_split_1
I0601 17:41:01.844633  8248 net.cpp:408] conv7_2_conv7_2_relu_0_split -> conv7_2_conv7_2_relu_0_split_2
I0601 17:41:01.844642  8248 net.cpp:408] conv7_2_conv7_2_relu_0_split -> conv7_2_conv7_2_relu_0_split_3
I0601 17:41:01.844696  8248 net.cpp:150] Setting up conv7_2_conv7_2_relu_0_split
I0601 17:41:01.844704  8248 net.cpp:157] Top shape: 32 256 5 5 (204800)
I0601 17:41:01.844708  8248 net.cpp:157] Top shape: 32 256 5 5 (204800)
I0601 17:41:01.844713  8248 net.cpp:157] Top shape: 32 256 5 5 (204800)
I0601 17:41:01.844719  8248 net.cpp:157] Top shape: 32 256 5 5 (204800)
I0601 17:41:01.844722  8248 net.cpp:165] Memory required for data: 7525925024
I0601 17:41:01.844727  8248 layer_factory.hpp:77] Creating layer conv8_1
I0601 17:41:01.844738  8248 net.cpp:100] Creating Layer conv8_1
I0601 17:41:01.844743  8248 net.cpp:434] conv8_1 <- conv7_2_conv7_2_relu_0_split_0
I0601 17:41:01.844750  8248 net.cpp:408] conv8_1 -> conv8_1
I0601 17:41:01.845890  8248 net.cpp:150] Setting up conv8_1
I0601 17:41:01.845901  8248 net.cpp:157] Top shape: 32 128 5 5 (102400)
I0601 17:41:01.845906  8248 net.cpp:165] Memory required for data: 7526334624
I0601 17:41:01.845912  8248 layer_factory.hpp:77] Creating layer conv8_1_relu
I0601 17:41:01.845919  8248 net.cpp:100] Creating Layer conv8_1_relu
I0601 17:41:01.845924  8248 net.cpp:434] conv8_1_relu <- conv8_1
I0601 17:41:01.845932  8248 net.cpp:395] conv8_1_relu -> conv8_1 (in-place)
I0601 17:41:01.846508  8248 net.cpp:150] Setting up conv8_1_relu
I0601 17:41:01.846518  8248 net.cpp:157] Top shape: 32 128 5 5 (102400)
I0601 17:41:01.846523  8248 net.cpp:165] Memory required for data: 7526744224
I0601 17:41:01.846527  8248 layer_factory.hpp:77] Creating layer conv8_2
I0601 17:41:01.846537  8248 net.cpp:100] Creating Layer conv8_2
I0601 17:41:01.846542  8248 net.cpp:434] conv8_2 <- conv8_1
I0601 17:41:01.846551  8248 net.cpp:408] conv8_2 -> conv8_2
I0601 17:41:01.849398  8248 net.cpp:150] Setting up conv8_2
I0601 17:41:01.849412  8248 net.cpp:157] Top shape: 32 256 3 3 (73728)
I0601 17:41:01.849416  8248 net.cpp:165] Memory required for data: 7527039136
I0601 17:41:01.849424  8248 layer_factory.hpp:77] Creating layer conv8_2_relu
I0601 17:41:01.849432  8248 net.cpp:100] Creating Layer conv8_2_relu
I0601 17:41:01.849438  8248 net.cpp:434] conv8_2_relu <- conv8_2
I0601 17:41:01.849447  8248 net.cpp:395] conv8_2_relu -> conv8_2 (in-place)
I0601 17:41:01.849581  8248 net.cpp:150] Setting up conv8_2_relu
I0601 17:41:01.849588  8248 net.cpp:157] Top shape: 32 256 3 3 (73728)
I0601 17:41:01.849592  8248 net.cpp:165] Memory required for data: 7527334048
I0601 17:41:01.849596  8248 layer_factory.hpp:77] Creating layer conv8_2_conv8_2_relu_0_split
I0601 17:41:01.849603  8248 net.cpp:100] Creating Layer conv8_2_conv8_2_relu_0_split
I0601 17:41:01.849609  8248 net.cpp:434] conv8_2_conv8_2_relu_0_split <- conv8_2
I0601 17:41:01.849617  8248 net.cpp:408] conv8_2_conv8_2_relu_0_split -> conv8_2_conv8_2_relu_0_split_0
I0601 17:41:01.849625  8248 net.cpp:408] conv8_2_conv8_2_relu_0_split -> conv8_2_conv8_2_relu_0_split_1
I0601 17:41:01.849633  8248 net.cpp:408] conv8_2_conv8_2_relu_0_split -> conv8_2_conv8_2_relu_0_split_2
I0601 17:41:01.849642  8248 net.cpp:408] conv8_2_conv8_2_relu_0_split -> conv8_2_conv8_2_relu_0_split_3
I0601 17:41:01.849712  8248 net.cpp:150] Setting up conv8_2_conv8_2_relu_0_split
I0601 17:41:01.849719  8248 net.cpp:157] Top shape: 32 256 3 3 (73728)
I0601 17:41:01.849723  8248 net.cpp:157] Top shape: 32 256 3 3 (73728)
I0601 17:41:01.849730  8248 net.cpp:157] Top shape: 32 256 3 3 (73728)
I0601 17:41:01.849735  8248 net.cpp:157] Top shape: 32 256 3 3 (73728)
I0601 17:41:01.849737  8248 net.cpp:165] Memory required for data: 7528513696
I0601 17:41:01.849741  8248 layer_factory.hpp:77] Creating layer conv9_1
I0601 17:41:01.849752  8248 net.cpp:100] Creating Layer conv9_1
I0601 17:41:01.849757  8248 net.cpp:434] conv9_1 <- conv8_2_conv8_2_relu_0_split_0
I0601 17:41:01.849766  8248 net.cpp:408] conv9_1 -> conv9_1
I0601 17:41:01.850917  8248 net.cpp:150] Setting up conv9_1
I0601 17:41:01.850929  8248 net.cpp:157] Top shape: 32 128 3 3 (36864)
I0601 17:41:01.850932  8248 net.cpp:165] Memory required for data: 7528661152
I0601 17:41:01.850939  8248 layer_factory.hpp:77] Creating layer conv9_1_relu
I0601 17:41:01.850946  8248 net.cpp:100] Creating Layer conv9_1_relu
I0601 17:41:01.850951  8248 net.cpp:434] conv9_1_relu <- conv9_1
I0601 17:41:01.850960  8248 net.cpp:395] conv9_1_relu -> conv9_1 (in-place)
I0601 17:41:01.851088  8248 net.cpp:150] Setting up conv9_1_relu
I0601 17:41:01.851095  8248 net.cpp:157] Top shape: 32 128 3 3 (36864)
I0601 17:41:01.851099  8248 net.cpp:165] Memory required for data: 7528808608
I0601 17:41:01.851102  8248 layer_factory.hpp:77] Creating layer conv9_2
I0601 17:41:01.851112  8248 net.cpp:100] Creating Layer conv9_2
I0601 17:41:01.851117  8248 net.cpp:434] conv9_2 <- conv9_1
I0601 17:41:01.851125  8248 net.cpp:408] conv9_2 -> conv9_2
I0601 17:41:01.853960  8248 net.cpp:150] Setting up conv9_2
I0601 17:41:01.853973  8248 net.cpp:157] Top shape: 32 256 1 1 (8192)
I0601 17:41:01.853977  8248 net.cpp:165] Memory required for data: 7528841376
I0601 17:41:01.853986  8248 layer_factory.hpp:77] Creating layer conv9_2_relu
I0601 17:41:01.853994  8248 net.cpp:100] Creating Layer conv9_2_relu
I0601 17:41:01.854001  8248 net.cpp:434] conv9_2_relu <- conv9_2
I0601 17:41:01.854007  8248 net.cpp:395] conv9_2_relu -> conv9_2 (in-place)
I0601 17:41:01.854138  8248 net.cpp:150] Setting up conv9_2_relu
I0601 17:41:01.854151  8248 net.cpp:157] Top shape: 32 256 1 1 (8192)
I0601 17:41:01.854154  8248 net.cpp:165] Memory required for data: 7528874144
I0601 17:41:01.854157  8248 layer_factory.hpp:77] Creating layer conv9_2_conv9_2_relu_0_split
I0601 17:41:01.854164  8248 net.cpp:100] Creating Layer conv9_2_conv9_2_relu_0_split
I0601 17:41:01.854168  8248 net.cpp:434] conv9_2_conv9_2_relu_0_split <- conv9_2
I0601 17:41:01.854176  8248 net.cpp:408] conv9_2_conv9_2_relu_0_split -> conv9_2_conv9_2_relu_0_split_0
I0601 17:41:01.854185  8248 net.cpp:408] conv9_2_conv9_2_relu_0_split -> conv9_2_conv9_2_relu_0_split_1
I0601 17:41:01.854194  8248 net.cpp:408] conv9_2_conv9_2_relu_0_split -> conv9_2_conv9_2_relu_0_split_2
I0601 17:41:01.854243  8248 net.cpp:150] Setting up conv9_2_conv9_2_relu_0_split
I0601 17:41:01.854250  8248 net.cpp:157] Top shape: 32 256 1 1 (8192)
I0601 17:41:01.854255  8248 net.cpp:157] Top shape: 32 256 1 1 (8192)
I0601 17:41:01.854261  8248 net.cpp:157] Top shape: 32 256 1 1 (8192)
I0601 17:41:01.854264  8248 net.cpp:165] Memory required for data: 7528972448
I0601 17:41:01.854269  8248 layer_factory.hpp:77] Creating layer conv4_3_norm
I0601 17:41:01.854274  8248 net.cpp:100] Creating Layer conv4_3_norm
I0601 17:41:01.854280  8248 net.cpp:434] conv4_3_norm <- conv4_3_relu4_3_0_split_1
I0601 17:41:01.854288  8248 net.cpp:408] conv4_3_norm -> conv4_3_norm
I0601 17:41:01.854414  8248 net.cpp:150] Setting up conv4_3_norm
I0601 17:41:01.854421  8248 net.cpp:157] Top shape: 32 512 38 38 (23658496)
I0601 17:41:01.854425  8248 net.cpp:165] Memory required for data: 7623606432
I0601 17:41:01.854431  8248 layer_factory.hpp:77] Creating layer conv4_3_norm_conv4_3_norm_0_split
I0601 17:41:01.854437  8248 net.cpp:100] Creating Layer conv4_3_norm_conv4_3_norm_0_split
I0601 17:41:01.854442  8248 net.cpp:434] conv4_3_norm_conv4_3_norm_0_split <- conv4_3_norm
I0601 17:41:01.854460  8248 net.cpp:408] conv4_3_norm_conv4_3_norm_0_split -> conv4_3_norm_conv4_3_norm_0_split_0
I0601 17:41:01.854468  8248 net.cpp:408] conv4_3_norm_conv4_3_norm_0_split -> conv4_3_norm_conv4_3_norm_0_split_1
I0601 17:41:01.854475  8248 net.cpp:408] conv4_3_norm_conv4_3_norm_0_split -> conv4_3_norm_conv4_3_norm_0_split_2
I0601 17:41:01.854516  8248 net.cpp:150] Setting up conv4_3_norm_conv4_3_norm_0_split
I0601 17:41:01.854522  8248 net.cpp:157] Top shape: 32 512 38 38 (23658496)
I0601 17:41:01.854527  8248 net.cpp:157] Top shape: 32 512 38 38 (23658496)
I0601 17:41:01.854532  8248 net.cpp:157] Top shape: 32 512 38 38 (23658496)
I0601 17:41:01.854535  8248 net.cpp:165] Memory required for data: 7907508384
I0601 17:41:01.854540  8248 layer_factory.hpp:77] Creating layer conv4_3_norm_mbox_loc
I0601 17:41:01.854550  8248 net.cpp:100] Creating Layer conv4_3_norm_mbox_loc
I0601 17:41:01.854554  8248 net.cpp:434] conv4_3_norm_mbox_loc <- conv4_3_norm_conv4_3_norm_0_split_0
I0601 17:41:01.854562  8248 net.cpp:408] conv4_3_norm_mbox_loc -> conv4_3_norm_mbox_loc
I0601 17:41:01.856308  8248 net.cpp:150] Setting up conv4_3_norm_mbox_loc
I0601 17:41:01.856322  8248 net.cpp:157] Top shape: 32 16 38 38 (739328)
I0601 17:41:01.856325  8248 net.cpp:165] Memory required for data: 7910465696
I0601 17:41:01.856333  8248 layer_factory.hpp:77] Creating layer conv4_3_norm_mbox_loc_perm
I0601 17:41:01.856341  8248 net.cpp:100] Creating Layer conv4_3_norm_mbox_loc_perm
I0601 17:41:01.856348  8248 net.cpp:434] conv4_3_norm_mbox_loc_perm <- conv4_3_norm_mbox_loc
I0601 17:41:01.856354  8248 net.cpp:408] conv4_3_norm_mbox_loc_perm -> conv4_3_norm_mbox_loc_perm
I0601 17:41:01.856441  8248 net.cpp:150] Setting up conv4_3_norm_mbox_loc_perm
I0601 17:41:01.856448  8248 net.cpp:157] Top shape: 32 38 38 16 (739328)
I0601 17:41:01.856452  8248 net.cpp:165] Memory required for data: 7913423008
I0601 17:41:01.856456  8248 layer_factory.hpp:77] Creating layer conv4_3_norm_mbox_loc_flat
I0601 17:41:01.856463  8248 net.cpp:100] Creating Layer conv4_3_norm_mbox_loc_flat
I0601 17:41:01.856468  8248 net.cpp:434] conv4_3_norm_mbox_loc_flat <- conv4_3_norm_mbox_loc_perm
I0601 17:41:01.856475  8248 net.cpp:408] conv4_3_norm_mbox_loc_flat -> conv4_3_norm_mbox_loc_flat
I0601 17:41:01.856508  8248 net.cpp:150] Setting up conv4_3_norm_mbox_loc_flat
I0601 17:41:01.856515  8248 net.cpp:157] Top shape: 32 23104 (739328)
I0601 17:41:01.856519  8248 net.cpp:165] Memory required for data: 7916380320
I0601 17:41:01.856523  8248 layer_factory.hpp:77] Creating layer conv4_3_norm_mbox_conf
I0601 17:41:01.856539  8248 net.cpp:100] Creating Layer conv4_3_norm_mbox_conf
I0601 17:41:01.856544  8248 net.cpp:434] conv4_3_norm_mbox_conf <- conv4_3_norm_conv4_3_norm_0_split_1
I0601 17:41:01.856551  8248 net.cpp:408] conv4_3_norm_mbox_conf -> conv4_3_norm_mbox_conf
I0601 17:41:01.858286  8248 net.cpp:150] Setting up conv4_3_norm_mbox_conf
I0601 17:41:01.858296  8248 net.cpp:157] Top shape: 32 16 38 38 (739328)
I0601 17:41:01.858301  8248 net.cpp:165] Memory required for data: 7919337632
I0601 17:41:01.858309  8248 layer_factory.hpp:77] Creating layer conv4_3_norm_mbox_conf_perm
I0601 17:41:01.858319  8248 net.cpp:100] Creating Layer conv4_3_norm_mbox_conf_perm
I0601 17:41:01.858325  8248 net.cpp:434] conv4_3_norm_mbox_conf_perm <- conv4_3_norm_mbox_conf
I0601 17:41:01.858330  8248 net.cpp:408] conv4_3_norm_mbox_conf_perm -> conv4_3_norm_mbox_conf_perm
I0601 17:41:01.858417  8248 net.cpp:150] Setting up conv4_3_norm_mbox_conf_perm
I0601 17:41:01.858422  8248 net.cpp:157] Top shape: 32 38 38 16 (739328)
I0601 17:41:01.858427  8248 net.cpp:165] Memory required for data: 7922294944
I0601 17:41:01.858429  8248 layer_factory.hpp:77] Creating layer conv4_3_norm_mbox_conf_flat
I0601 17:41:01.858436  8248 net.cpp:100] Creating Layer conv4_3_norm_mbox_conf_flat
I0601 17:41:01.858440  8248 net.cpp:434] conv4_3_norm_mbox_conf_flat <- conv4_3_norm_mbox_conf_perm
I0601 17:41:01.858448  8248 net.cpp:408] conv4_3_norm_mbox_conf_flat -> conv4_3_norm_mbox_conf_flat
I0601 17:41:01.858484  8248 net.cpp:150] Setting up conv4_3_norm_mbox_conf_flat
I0601 17:41:01.858490  8248 net.cpp:157] Top shape: 32 23104 (739328)
I0601 17:41:01.858494  8248 net.cpp:165] Memory required for data: 7925252256
I0601 17:41:01.858497  8248 layer_factory.hpp:77] Creating layer conv4_3_norm_mbox_priorbox
I0601 17:41:01.858505  8248 net.cpp:100] Creating Layer conv4_3_norm_mbox_priorbox
I0601 17:41:01.858510  8248 net.cpp:434] conv4_3_norm_mbox_priorbox <- conv4_3_norm_conv4_3_norm_0_split_2
I0601 17:41:01.858515  8248 net.cpp:434] conv4_3_norm_mbox_priorbox <- data_data_0_split_1
I0601 17:41:01.858523  8248 net.cpp:408] conv4_3_norm_mbox_priorbox -> conv4_3_norm_mbox_priorbox
I0601 17:41:01.858551  8248 net.cpp:150] Setting up conv4_3_norm_mbox_priorbox
I0601 17:41:01.858558  8248 net.cpp:157] Top shape: 1 2 23104 (46208)
I0601 17:41:01.858561  8248 net.cpp:165] Memory required for data: 7925437088
I0601 17:41:01.858566  8248 layer_factory.hpp:77] Creating layer fc7_mbox_loc
I0601 17:41:01.858575  8248 net.cpp:100] Creating Layer fc7_mbox_loc
I0601 17:41:01.858580  8248 net.cpp:434] fc7_mbox_loc <- fc7_relu7_0_split_1
I0601 17:41:01.858588  8248 net.cpp:408] fc7_mbox_loc -> fc7_mbox_loc
I0601 17:41:01.860954  8248 net.cpp:150] Setting up fc7_mbox_loc
I0601 17:41:01.860966  8248 net.cpp:157] Top shape: 32 24 19 19 (277248)
I0601 17:41:01.860971  8248 net.cpp:165] Memory required for data: 7926546080
I0601 17:41:01.860978  8248 layer_factory.hpp:77] Creating layer fc7_mbox_loc_perm
I0601 17:41:01.860987  8248 net.cpp:100] Creating Layer fc7_mbox_loc_perm
I0601 17:41:01.860993  8248 net.cpp:434] fc7_mbox_loc_perm <- fc7_mbox_loc
I0601 17:41:01.861001  8248 net.cpp:408] fc7_mbox_loc_perm -> fc7_mbox_loc_perm
I0601 17:41:01.861088  8248 net.cpp:150] Setting up fc7_mbox_loc_perm
I0601 17:41:01.861094  8248 net.cpp:157] Top shape: 32 19 19 24 (277248)
I0601 17:41:01.861098  8248 net.cpp:165] Memory required for data: 7927655072
I0601 17:41:01.861102  8248 layer_factory.hpp:77] Creating layer fc7_mbox_loc_flat
I0601 17:41:01.861109  8248 net.cpp:100] Creating Layer fc7_mbox_loc_flat
I0601 17:41:01.861114  8248 net.cpp:434] fc7_mbox_loc_flat <- fc7_mbox_loc_perm
I0601 17:41:01.861120  8248 net.cpp:408] fc7_mbox_loc_flat -> fc7_mbox_loc_flat
I0601 17:41:01.861143  8248 net.cpp:150] Setting up fc7_mbox_loc_flat
I0601 17:41:01.861150  8248 net.cpp:157] Top shape: 32 8664 (277248)
I0601 17:41:01.861155  8248 net.cpp:165] Memory required for data: 7928764064
I0601 17:41:01.861158  8248 layer_factory.hpp:77] Creating layer fc7_mbox_conf
I0601 17:41:01.861169  8248 net.cpp:100] Creating Layer fc7_mbox_conf
I0601 17:41:01.861174  8248 net.cpp:434] fc7_mbox_conf <- fc7_relu7_0_split_2
I0601 17:41:01.861181  8248 net.cpp:408] fc7_mbox_conf -> fc7_mbox_conf
I0601 17:41:01.863590  8248 net.cpp:150] Setting up fc7_mbox_conf
I0601 17:41:01.863605  8248 net.cpp:157] Top shape: 32 24 19 19 (277248)
I0601 17:41:01.863610  8248 net.cpp:165] Memory required for data: 7929873056
I0601 17:41:01.863618  8248 layer_factory.hpp:77] Creating layer fc7_mbox_conf_perm
I0601 17:41:01.863628  8248 net.cpp:100] Creating Layer fc7_mbox_conf_perm
I0601 17:41:01.863636  8248 net.cpp:434] fc7_mbox_conf_perm <- fc7_mbox_conf
I0601 17:41:01.863644  8248 net.cpp:408] fc7_mbox_conf_perm -> fc7_mbox_conf_perm
I0601 17:41:01.863773  8248 net.cpp:150] Setting up fc7_mbox_conf_perm
I0601 17:41:01.863802  8248 net.cpp:157] Top shape: 32 19 19 24 (277248)
I0601 17:41:01.863817  8248 net.cpp:165] Memory required for data: 7930982048
I0601 17:41:01.863831  8248 layer_factory.hpp:77] Creating layer fc7_mbox_conf_flat
I0601 17:41:01.863845  8248 net.cpp:100] Creating Layer fc7_mbox_conf_flat
I0601 17:41:01.863859  8248 net.cpp:434] fc7_mbox_conf_flat <- fc7_mbox_conf_perm
I0601 17:41:01.863878  8248 net.cpp:408] fc7_mbox_conf_flat -> fc7_mbox_conf_flat
I0601 17:41:01.863924  8248 net.cpp:150] Setting up fc7_mbox_conf_flat
I0601 17:41:01.863943  8248 net.cpp:157] Top shape: 32 8664 (277248)
I0601 17:41:01.863961  8248 net.cpp:165] Memory required for data: 7932091040
I0601 17:41:01.863986  8248 layer_factory.hpp:77] Creating layer fc7_mbox_priorbox
I0601 17:41:01.864002  8248 net.cpp:100] Creating Layer fc7_mbox_priorbox
I0601 17:41:01.864022  8248 net.cpp:434] fc7_mbox_priorbox <- fc7_relu7_0_split_3
I0601 17:41:01.864043  8248 net.cpp:434] fc7_mbox_priorbox <- data_data_0_split_2
I0601 17:41:01.864183  8248 net.cpp:408] fc7_mbox_priorbox -> fc7_mbox_priorbox
I0601 17:41:01.864233  8248 net.cpp:150] Setting up fc7_mbox_priorbox
I0601 17:41:01.864246  8248 net.cpp:157] Top shape: 1 2 8664 (17328)
I0601 17:41:01.864251  8248 net.cpp:165] Memory required for data: 7932160352
I0601 17:41:01.864259  8248 layer_factory.hpp:77] Creating layer conv6_2_mbox_loc
I0601 17:41:01.864275  8248 net.cpp:100] Creating Layer conv6_2_mbox_loc
I0601 17:41:01.864285  8248 net.cpp:434] conv6_2_mbox_loc <- conv6_2_conv6_2_relu_0_split_1
I0601 17:41:01.864296  8248 net.cpp:408] conv6_2_mbox_loc -> conv6_2_mbox_loc
I0601 17:41:01.867560  8248 net.cpp:150] Setting up conv6_2_mbox_loc
I0601 17:41:01.867583  8248 net.cpp:157] Top shape: 32 24 10 10 (76800)
I0601 17:41:01.867642  8248 net.cpp:165] Memory required for data: 7932467552
I0601 17:41:01.867658  8248 layer_factory.hpp:77] Creating layer conv6_2_mbox_loc_perm
I0601 17:41:01.867672  8248 net.cpp:100] Creating Layer conv6_2_mbox_loc_perm
I0601 17:41:01.867682  8248 net.cpp:434] conv6_2_mbox_loc_perm <- conv6_2_mbox_loc
I0601 17:41:01.867693  8248 net.cpp:408] conv6_2_mbox_loc_perm -> conv6_2_mbox_loc_perm
I0601 17:41:01.867797  8248 net.cpp:150] Setting up conv6_2_mbox_loc_perm
I0601 17:41:01.867808  8248 net.cpp:157] Top shape: 32 10 10 24 (76800)
I0601 17:41:01.867813  8248 net.cpp:165] Memory required for data: 7932774752
I0601 17:41:01.867820  8248 layer_factory.hpp:77] Creating layer conv6_2_mbox_loc_flat
I0601 17:41:01.867832  8248 net.cpp:100] Creating Layer conv6_2_mbox_loc_flat
I0601 17:41:01.867836  8248 net.cpp:434] conv6_2_mbox_loc_flat <- conv6_2_mbox_loc_perm
I0601 17:41:01.867849  8248 net.cpp:408] conv6_2_mbox_loc_flat -> conv6_2_mbox_loc_flat
I0601 17:41:01.867877  8248 net.cpp:150] Setting up conv6_2_mbox_loc_flat
I0601 17:41:01.867883  8248 net.cpp:157] Top shape: 32 2400 (76800)
I0601 17:41:01.867890  8248 net.cpp:165] Memory required for data: 7933081952
I0601 17:41:01.867897  8248 layer_factory.hpp:77] Creating layer conv6_2_mbox_conf
I0601 17:41:01.867913  8248 net.cpp:100] Creating Layer conv6_2_mbox_conf
I0601 17:41:01.867918  8248 net.cpp:434] conv6_2_mbox_conf <- conv6_2_conv6_2_relu_0_split_2
I0601 17:41:01.867930  8248 net.cpp:408] conv6_2_mbox_conf -> conv6_2_mbox_conf
I0601 17:41:01.869963  8248 net.cpp:150] Setting up conv6_2_mbox_conf
I0601 17:41:01.869977  8248 net.cpp:157] Top shape: 32 24 10 10 (76800)
I0601 17:41:01.869982  8248 net.cpp:165] Memory required for data: 7933389152
I0601 17:41:01.869989  8248 layer_factory.hpp:77] Creating layer conv6_2_mbox_conf_perm
I0601 17:41:01.869998  8248 net.cpp:100] Creating Layer conv6_2_mbox_conf_perm
I0601 17:41:01.870005  8248 net.cpp:434] conv6_2_mbox_conf_perm <- conv6_2_mbox_conf
I0601 17:41:01.870013  8248 net.cpp:408] conv6_2_mbox_conf_perm -> conv6_2_mbox_conf_perm
I0601 17:41:01.870102  8248 net.cpp:150] Setting up conv6_2_mbox_conf_perm
I0601 17:41:01.870110  8248 net.cpp:157] Top shape: 32 10 10 24 (76800)
I0601 17:41:01.870115  8248 net.cpp:165] Memory required for data: 7933696352
I0601 17:41:01.870118  8248 layer_factory.hpp:77] Creating layer conv6_2_mbox_conf_flat
I0601 17:41:01.870123  8248 net.cpp:100] Creating Layer conv6_2_mbox_conf_flat
I0601 17:41:01.870129  8248 net.cpp:434] conv6_2_mbox_conf_flat <- conv6_2_mbox_conf_perm
I0601 17:41:01.870136  8248 net.cpp:408] conv6_2_mbox_conf_flat -> conv6_2_mbox_conf_flat
I0601 17:41:01.870159  8248 net.cpp:150] Setting up conv6_2_mbox_conf_flat
I0601 17:41:01.870165  8248 net.cpp:157] Top shape: 32 2400 (76800)
I0601 17:41:01.870169  8248 net.cpp:165] Memory required for data: 7934003552
I0601 17:41:01.870172  8248 layer_factory.hpp:77] Creating layer conv6_2_mbox_priorbox
I0601 17:41:01.870190  8248 net.cpp:100] Creating Layer conv6_2_mbox_priorbox
I0601 17:41:01.870195  8248 net.cpp:434] conv6_2_mbox_priorbox <- conv6_2_conv6_2_relu_0_split_3
I0601 17:41:01.870201  8248 net.cpp:434] conv6_2_mbox_priorbox <- data_data_0_split_3
I0601 17:41:01.870210  8248 net.cpp:408] conv6_2_mbox_priorbox -> conv6_2_mbox_priorbox
I0601 17:41:01.870239  8248 net.cpp:150] Setting up conv6_2_mbox_priorbox
I0601 17:41:01.870245  8248 net.cpp:157] Top shape: 1 2 2400 (4800)
I0601 17:41:01.870249  8248 net.cpp:165] Memory required for data: 7934022752
I0601 17:41:01.870254  8248 layer_factory.hpp:77] Creating layer conv7_2_mbox_loc
I0601 17:41:01.870263  8248 net.cpp:100] Creating Layer conv7_2_mbox_loc
I0601 17:41:01.870268  8248 net.cpp:434] conv7_2_mbox_loc <- conv7_2_conv7_2_relu_0_split_1
I0601 17:41:01.870275  8248 net.cpp:408] conv7_2_mbox_loc -> conv7_2_mbox_loc
I0601 17:41:01.871611  8248 net.cpp:150] Setting up conv7_2_mbox_loc
I0601 17:41:01.871623  8248 net.cpp:157] Top shape: 32 24 5 5 (19200)
I0601 17:41:01.871626  8248 net.cpp:165] Memory required for data: 7934099552
I0601 17:41:01.871634  8248 layer_factory.hpp:77] Creating layer conv7_2_mbox_loc_perm
I0601 17:41:01.871644  8248 net.cpp:100] Creating Layer conv7_2_mbox_loc_perm
I0601 17:41:01.871649  8248 net.cpp:434] conv7_2_mbox_loc_perm <- conv7_2_mbox_loc
I0601 17:41:01.871656  8248 net.cpp:408] conv7_2_mbox_loc_perm -> conv7_2_mbox_loc_perm
I0601 17:41:01.871744  8248 net.cpp:150] Setting up conv7_2_mbox_loc_perm
I0601 17:41:01.871752  8248 net.cpp:157] Top shape: 32 5 5 24 (19200)
I0601 17:41:01.871755  8248 net.cpp:165] Memory required for data: 7934176352
I0601 17:41:01.871758  8248 layer_factory.hpp:77] Creating layer conv7_2_mbox_loc_flat
I0601 17:41:01.871767  8248 net.cpp:100] Creating Layer conv7_2_mbox_loc_flat
I0601 17:41:01.871772  8248 net.cpp:434] conv7_2_mbox_loc_flat <- conv7_2_mbox_loc_perm
I0601 17:41:01.871778  8248 net.cpp:408] conv7_2_mbox_loc_flat -> conv7_2_mbox_loc_flat
I0601 17:41:01.871800  8248 net.cpp:150] Setting up conv7_2_mbox_loc_flat
I0601 17:41:01.871806  8248 net.cpp:157] Top shape: 32 600 (19200)
I0601 17:41:01.871810  8248 net.cpp:165] Memory required for data: 7934253152
I0601 17:41:01.871814  8248 layer_factory.hpp:77] Creating layer conv7_2_mbox_conf
I0601 17:41:01.871824  8248 net.cpp:100] Creating Layer conv7_2_mbox_conf
I0601 17:41:01.871829  8248 net.cpp:434] conv7_2_mbox_conf <- conv7_2_conv7_2_relu_0_split_2
I0601 17:41:01.871837  8248 net.cpp:408] conv7_2_mbox_conf -> conv7_2_mbox_conf
I0601 17:41:01.873579  8248 net.cpp:150] Setting up conv7_2_mbox_conf
I0601 17:41:01.873591  8248 net.cpp:157] Top shape: 32 24 5 5 (19200)
I0601 17:41:01.873596  8248 net.cpp:165] Memory required for data: 7934329952
I0601 17:41:01.873605  8248 layer_factory.hpp:77] Creating layer conv7_2_mbox_conf_perm
I0601 17:41:01.873613  8248 net.cpp:100] Creating Layer conv7_2_mbox_conf_perm
I0601 17:41:01.873620  8248 net.cpp:434] conv7_2_mbox_conf_perm <- conv7_2_mbox_conf
I0601 17:41:01.873628  8248 net.cpp:408] conv7_2_mbox_conf_perm -> conv7_2_mbox_conf_perm
I0601 17:41:01.873718  8248 net.cpp:150] Setting up conv7_2_mbox_conf_perm
I0601 17:41:01.873724  8248 net.cpp:157] Top shape: 32 5 5 24 (19200)
I0601 17:41:01.873728  8248 net.cpp:165] Memory required for data: 7934406752
I0601 17:41:01.873733  8248 layer_factory.hpp:77] Creating layer conv7_2_mbox_conf_flat
I0601 17:41:01.873739  8248 net.cpp:100] Creating Layer conv7_2_mbox_conf_flat
I0601 17:41:01.873744  8248 net.cpp:434] conv7_2_mbox_conf_flat <- conv7_2_mbox_conf_perm
I0601 17:41:01.873750  8248 net.cpp:408] conv7_2_mbox_conf_flat -> conv7_2_mbox_conf_flat
I0601 17:41:01.873775  8248 net.cpp:150] Setting up conv7_2_mbox_conf_flat
I0601 17:41:01.873781  8248 net.cpp:157] Top shape: 32 600 (19200)
I0601 17:41:01.873785  8248 net.cpp:165] Memory required for data: 7934483552
I0601 17:41:01.873788  8248 layer_factory.hpp:77] Creating layer conv7_2_mbox_priorbox
I0601 17:41:01.873797  8248 net.cpp:100] Creating Layer conv7_2_mbox_priorbox
I0601 17:41:01.873802  8248 net.cpp:434] conv7_2_mbox_priorbox <- conv7_2_conv7_2_relu_0_split_3
I0601 17:41:01.873816  8248 net.cpp:434] conv7_2_mbox_priorbox <- data_data_0_split_4
I0601 17:41:01.873824  8248 net.cpp:408] conv7_2_mbox_priorbox -> conv7_2_mbox_priorbox
I0601 17:41:01.873853  8248 net.cpp:150] Setting up conv7_2_mbox_priorbox
I0601 17:41:01.873859  8248 net.cpp:157] Top shape: 1 2 600 (1200)
I0601 17:41:01.873862  8248 net.cpp:165] Memory required for data: 7934488352
I0601 17:41:01.873867  8248 layer_factory.hpp:77] Creating layer conv8_2_mbox_loc
I0601 17:41:01.873878  8248 net.cpp:100] Creating Layer conv8_2_mbox_loc
I0601 17:41:01.873881  8248 net.cpp:434] conv8_2_mbox_loc <- conv8_2_conv8_2_relu_0_split_1
I0601 17:41:01.873890  8248 net.cpp:408] conv8_2_mbox_loc -> conv8_2_mbox_loc
I0601 17:41:01.875561  8248 net.cpp:150] Setting up conv8_2_mbox_loc
I0601 17:41:01.875574  8248 net.cpp:157] Top shape: 32 16 3 3 (4608)
I0601 17:41:01.875577  8248 net.cpp:165] Memory required for data: 7934506784
I0601 17:41:01.875596  8248 layer_factory.hpp:77] Creating layer conv8_2_mbox_loc_perm
I0601 17:41:01.875604  8248 net.cpp:100] Creating Layer conv8_2_mbox_loc_perm
I0601 17:41:01.875610  8248 net.cpp:434] conv8_2_mbox_loc_perm <- conv8_2_mbox_loc
I0601 17:41:01.875619  8248 net.cpp:408] conv8_2_mbox_loc_perm -> conv8_2_mbox_loc_perm
I0601 17:41:01.875712  8248 net.cpp:150] Setting up conv8_2_mbox_loc_perm
I0601 17:41:01.875720  8248 net.cpp:157] Top shape: 32 3 3 16 (4608)
I0601 17:41:01.875723  8248 net.cpp:165] Memory required for data: 7934525216
I0601 17:41:01.875727  8248 layer_factory.hpp:77] Creating layer conv8_2_mbox_loc_flat
I0601 17:41:01.875733  8248 net.cpp:100] Creating Layer conv8_2_mbox_loc_flat
I0601 17:41:01.875737  8248 net.cpp:434] conv8_2_mbox_loc_flat <- conv8_2_mbox_loc_perm
I0601 17:41:01.875746  8248 net.cpp:408] conv8_2_mbox_loc_flat -> conv8_2_mbox_loc_flat
I0601 17:41:01.875771  8248 net.cpp:150] Setting up conv8_2_mbox_loc_flat
I0601 17:41:01.875777  8248 net.cpp:157] Top shape: 32 144 (4608)
I0601 17:41:01.875780  8248 net.cpp:165] Memory required for data: 7934543648
I0601 17:41:01.875784  8248 layer_factory.hpp:77] Creating layer conv8_2_mbox_conf
I0601 17:41:01.875794  8248 net.cpp:100] Creating Layer conv8_2_mbox_conf
I0601 17:41:01.875799  8248 net.cpp:434] conv8_2_mbox_conf <- conv8_2_conv8_2_relu_0_split_2
I0601 17:41:01.875807  8248 net.cpp:408] conv8_2_mbox_conf -> conv8_2_mbox_conf
I0601 17:41:01.877504  8248 net.cpp:150] Setting up conv8_2_mbox_conf
I0601 17:41:01.877521  8248 net.cpp:157] Top shape: 32 16 3 3 (4608)
I0601 17:41:01.877526  8248 net.cpp:165] Memory required for data: 7934562080
I0601 17:41:01.877533  8248 layer_factory.hpp:77] Creating layer conv8_2_mbox_conf_perm
I0601 17:41:01.877543  8248 net.cpp:100] Creating Layer conv8_2_mbox_conf_perm
I0601 17:41:01.877549  8248 net.cpp:434] conv8_2_mbox_conf_perm <- conv8_2_mbox_conf
I0601 17:41:01.877559  8248 net.cpp:408] conv8_2_mbox_conf_perm -> conv8_2_mbox_conf_perm
I0601 17:41:01.877655  8248 net.cpp:150] Setting up conv8_2_mbox_conf_perm
I0601 17:41:01.877663  8248 net.cpp:157] Top shape: 32 3 3 16 (4608)
I0601 17:41:01.877666  8248 net.cpp:165] Memory required for data: 7934580512
I0601 17:41:01.877671  8248 layer_factory.hpp:77] Creating layer conv8_2_mbox_conf_flat
I0601 17:41:01.877677  8248 net.cpp:100] Creating Layer conv8_2_mbox_conf_flat
I0601 17:41:01.877683  8248 net.cpp:434] conv8_2_mbox_conf_flat <- conv8_2_mbox_conf_perm
I0601 17:41:01.877689  8248 net.cpp:408] conv8_2_mbox_conf_flat -> conv8_2_mbox_conf_flat
I0601 17:41:01.877713  8248 net.cpp:150] Setting up conv8_2_mbox_conf_flat
I0601 17:41:01.877719  8248 net.cpp:157] Top shape: 32 144 (4608)
I0601 17:41:01.877723  8248 net.cpp:165] Memory required for data: 7934598944
I0601 17:41:01.877727  8248 layer_factory.hpp:77] Creating layer conv8_2_mbox_priorbox
I0601 17:41:01.877735  8248 net.cpp:100] Creating Layer conv8_2_mbox_priorbox
I0601 17:41:01.877740  8248 net.cpp:434] conv8_2_mbox_priorbox <- conv8_2_conv8_2_relu_0_split_3
I0601 17:41:01.877746  8248 net.cpp:434] conv8_2_mbox_priorbox <- data_data_0_split_5
I0601 17:41:01.877763  8248 net.cpp:408] conv8_2_mbox_priorbox -> conv8_2_mbox_priorbox
I0601 17:41:01.877791  8248 net.cpp:150] Setting up conv8_2_mbox_priorbox
I0601 17:41:01.877797  8248 net.cpp:157] Top shape: 1 2 144 (288)
I0601 17:41:01.877802  8248 net.cpp:165] Memory required for data: 7934600096
I0601 17:41:01.877806  8248 layer_factory.hpp:77] Creating layer conv9_2_mbox_loc
I0601 17:41:01.877820  8248 net.cpp:100] Creating Layer conv9_2_mbox_loc
I0601 17:41:01.877823  8248 net.cpp:434] conv9_2_mbox_loc <- conv9_2_conv9_2_relu_0_split_0
I0601 17:41:01.877831  8248 net.cpp:408] conv9_2_mbox_loc -> conv9_2_mbox_loc
I0601 17:41:01.879652  8248 net.cpp:150] Setting up conv9_2_mbox_loc
I0601 17:41:01.879669  8248 net.cpp:157] Top shape: 32 16 1 1 (512)
I0601 17:41:01.879673  8248 net.cpp:165] Memory required for data: 7934602144
I0601 17:41:01.879683  8248 layer_factory.hpp:77] Creating layer conv9_2_mbox_loc_perm
I0601 17:41:01.879693  8248 net.cpp:100] Creating Layer conv9_2_mbox_loc_perm
I0601 17:41:01.879712  8248 net.cpp:434] conv9_2_mbox_loc_perm <- conv9_2_mbox_loc
I0601 17:41:01.879732  8248 net.cpp:408] conv9_2_mbox_loc_perm -> conv9_2_mbox_loc_perm
I0601 17:41:01.879871  8248 net.cpp:150] Setting up conv9_2_mbox_loc_perm
I0601 17:41:01.879881  8248 net.cpp:157] Top shape: 32 1 1 16 (512)
I0601 17:41:01.879885  8248 net.cpp:165] Memory required for data: 7934604192
I0601 17:41:01.879889  8248 layer_factory.hpp:77] Creating layer conv9_2_mbox_loc_flat
I0601 17:41:01.879899  8248 net.cpp:100] Creating Layer conv9_2_mbox_loc_flat
I0601 17:41:01.879904  8248 net.cpp:434] conv9_2_mbox_loc_flat <- conv9_2_mbox_loc_perm
I0601 17:41:01.879914  8248 net.cpp:408] conv9_2_mbox_loc_flat -> conv9_2_mbox_loc_flat
I0601 17:41:01.879942  8248 net.cpp:150] Setting up conv9_2_mbox_loc_flat
I0601 17:41:01.879951  8248 net.cpp:157] Top shape: 32 16 (512)
I0601 17:41:01.879956  8248 net.cpp:165] Memory required for data: 7934606240
I0601 17:41:01.879958  8248 layer_factory.hpp:77] Creating layer conv9_2_mbox_conf
I0601 17:41:01.879971  8248 net.cpp:100] Creating Layer conv9_2_mbox_conf
I0601 17:41:01.879977  8248 net.cpp:434] conv9_2_mbox_conf <- conv9_2_conv9_2_relu_0_split_1
I0601 17:41:01.879987  8248 net.cpp:408] conv9_2_mbox_conf -> conv9_2_mbox_conf
I0601 17:41:01.882539  8248 net.cpp:150] Setting up conv9_2_mbox_conf
I0601 17:41:01.882552  8248 net.cpp:157] Top shape: 32 16 1 1 (512)
I0601 17:41:01.882555  8248 net.cpp:165] Memory required for data: 7934608288
I0601 17:41:01.882562  8248 layer_factory.hpp:77] Creating layer conv9_2_mbox_conf_perm
I0601 17:41:01.882571  8248 net.cpp:100] Creating Layer conv9_2_mbox_conf_perm
I0601 17:41:01.882578  8248 net.cpp:434] conv9_2_mbox_conf_perm <- conv9_2_mbox_conf
I0601 17:41:01.882587  8248 net.cpp:408] conv9_2_mbox_conf_perm -> conv9_2_mbox_conf_perm
I0601 17:41:01.882719  8248 net.cpp:150] Setting up conv9_2_mbox_conf_perm
I0601 17:41:01.882730  8248 net.cpp:157] Top shape: 32 1 1 16 (512)
I0601 17:41:01.882735  8248 net.cpp:165] Memory required for data: 7934610336
I0601 17:41:01.882740  8248 layer_factory.hpp:77] Creating layer conv9_2_mbox_conf_flat
I0601 17:41:01.882748  8248 net.cpp:100] Creating Layer conv9_2_mbox_conf_flat
I0601 17:41:01.882753  8248 net.cpp:434] conv9_2_mbox_conf_flat <- conv9_2_mbox_conf_perm
I0601 17:41:01.882762  8248 net.cpp:408] conv9_2_mbox_conf_flat -> conv9_2_mbox_conf_flat
I0601 17:41:01.882791  8248 net.cpp:150] Setting up conv9_2_mbox_conf_flat
I0601 17:41:01.882800  8248 net.cpp:157] Top shape: 32 16 (512)
I0601 17:41:01.882804  8248 net.cpp:165] Memory required for data: 7934612384
I0601 17:41:01.882808  8248 layer_factory.hpp:77] Creating layer conv9_2_mbox_priorbox
I0601 17:41:01.882817  8248 net.cpp:100] Creating Layer conv9_2_mbox_priorbox
I0601 17:41:01.882822  8248 net.cpp:434] conv9_2_mbox_priorbox <- conv9_2_conv9_2_relu_0_split_2
I0601 17:41:01.882828  8248 net.cpp:434] conv9_2_mbox_priorbox <- data_data_0_split_6
I0601 17:41:01.882838  8248 net.cpp:408] conv9_2_mbox_priorbox -> conv9_2_mbox_priorbox
I0601 17:41:01.882882  8248 net.cpp:150] Setting up conv9_2_mbox_priorbox
I0601 17:41:01.882890  8248 net.cpp:157] Top shape: 1 2 16 (32)
I0601 17:41:01.882894  8248 net.cpp:165] Memory required for data: 7934612512
I0601 17:41:01.882897  8248 layer_factory.hpp:77] Creating layer mbox_loc
I0601 17:41:01.882903  8248 net.cpp:100] Creating Layer mbox_loc
I0601 17:41:01.882906  8248 net.cpp:434] mbox_loc <- conv4_3_norm_mbox_loc_flat
I0601 17:41:01.882910  8248 net.cpp:434] mbox_loc <- fc7_mbox_loc_flat
I0601 17:41:01.882913  8248 net.cpp:434] mbox_loc <- conv6_2_mbox_loc_flat
I0601 17:41:01.882917  8248 net.cpp:434] mbox_loc <- conv7_2_mbox_loc_flat
I0601 17:41:01.882920  8248 net.cpp:434] mbox_loc <- conv8_2_mbox_loc_flat
I0601 17:41:01.882923  8248 net.cpp:434] mbox_loc <- conv9_2_mbox_loc_flat
I0601 17:41:01.882930  8248 net.cpp:408] mbox_loc -> mbox_loc
I0601 17:41:01.882959  8248 net.cpp:150] Setting up mbox_loc
I0601 17:41:01.882966  8248 net.cpp:157] Top shape: 32 34928 (1117696)
I0601 17:41:01.882969  8248 net.cpp:165] Memory required for data: 7939083296
I0601 17:41:01.882972  8248 layer_factory.hpp:77] Creating layer mbox_conf
I0601 17:41:01.882978  8248 net.cpp:100] Creating Layer mbox_conf
I0601 17:41:01.882982  8248 net.cpp:434] mbox_conf <- conv4_3_norm_mbox_conf_flat
I0601 17:41:01.882987  8248 net.cpp:434] mbox_conf <- fc7_mbox_conf_flat
I0601 17:41:01.882993  8248 net.cpp:434] mbox_conf <- conv6_2_mbox_conf_flat
I0601 17:41:01.882999  8248 net.cpp:434] mbox_conf <- conv7_2_mbox_conf_flat
I0601 17:41:01.883003  8248 net.cpp:434] mbox_conf <- conv8_2_mbox_conf_flat
I0601 17:41:01.883008  8248 net.cpp:434] mbox_conf <- conv9_2_mbox_conf_flat
I0601 17:41:01.883014  8248 net.cpp:408] mbox_conf -> mbox_conf
I0601 17:41:01.883044  8248 net.cpp:150] Setting up mbox_conf
I0601 17:41:01.883050  8248 net.cpp:157] Top shape: 32 34928 (1117696)
I0601 17:41:01.883054  8248 net.cpp:165] Memory required for data: 7943554080
I0601 17:41:01.883057  8248 layer_factory.hpp:77] Creating layer mbox_priorbox
I0601 17:41:01.883062  8248 net.cpp:100] Creating Layer mbox_priorbox
I0601 17:41:01.883065  8248 net.cpp:434] mbox_priorbox <- conv4_3_norm_mbox_priorbox
I0601 17:41:01.883070  8248 net.cpp:434] mbox_priorbox <- fc7_mbox_priorbox
I0601 17:41:01.883074  8248 net.cpp:434] mbox_priorbox <- conv6_2_mbox_priorbox
I0601 17:41:01.883078  8248 net.cpp:434] mbox_priorbox <- conv7_2_mbox_priorbox
I0601 17:41:01.883082  8248 net.cpp:434] mbox_priorbox <- conv8_2_mbox_priorbox
I0601 17:41:01.883085  8248 net.cpp:434] mbox_priorbox <- conv9_2_mbox_priorbox
I0601 17:41:01.883090  8248 net.cpp:408] mbox_priorbox -> mbox_priorbox
I0601 17:41:01.883117  8248 net.cpp:150] Setting up mbox_priorbox
I0601 17:41:01.883123  8248 net.cpp:157] Top shape: 1 2 34928 (69856)
I0601 17:41:01.883127  8248 net.cpp:165] Memory required for data: 7943833504
I0601 17:41:01.883131  8248 layer_factory.hpp:77] Creating layer mbox_loss
I0601 17:41:01.883141  8248 net.cpp:100] Creating Layer mbox_loss
I0601 17:41:01.883144  8248 net.cpp:434] mbox_loss <- mbox_loc
I0601 17:41:01.883148  8248 net.cpp:434] mbox_loss <- mbox_conf
I0601 17:41:01.883152  8248 net.cpp:434] mbox_loss <- mbox_priorbox
…
  name: "data"
  type: "AnnotatedData"
  top: "data"
  top: "label"
  include {
    phase: TEST
  }
  transform_param {
    mean_value: 104
    mean_value: 117
    mean_value: 123
    resize_param {
      prob: 1
      resize_mode: WARP
      height: 300
      width: 300
      interp_mode: LINEAR
    }
  }
  data_param {
    source: "examples/tbs_300x300_HSIL_10x/tbs_300x300_HSIL_10x_test_lmdb"
    batch_size: 4
    backend: LMDB
  }
  annotated_data_param {
    batch_sampler {
    }
    label_map_file: "data/tbs_300x300_HSIL_10x/labelmap_voc.prototxt"
  }
}
layer {
  name: "conv1_1"
  type: "Convolution"
  bottom: "data"
  top: "conv1_1"
  param {
    lr_mult: 1
    decay_mult: 1
  }
  param {
    lr_mult: 2
    decay_mult: 0
  }
  convolution_param {
    num_output: 64
    pad: 1
    kernel_size: 3
    weight_filler {
      type: "xavier"
    }
    bias_filler {
      type: "constant"
      value: 0
    }
  }
}
layer {
  name: "relu1_1"
  type: "ReLU"
  bottom: "conv1_1"
  top: "conv1_1"
}
layer {
  name: "conv1_2"
  type: "Convolution"
  bottom: "conv1_1"
  top: "conv1_2"
  param {
    lr_mult: 1
    decay_mult: 1
  }
  param {
    lr_mult: 2
    decay_mult: 0
  }
  convolution_param {
    num_output: 64
    pad: 1
    kernel_size: 3
    weight_filler {
      type: "xavier"
    }
    bias_filler {
      type: "constant"
      value: 0
    }
  }
}
layer {
  name: "relu1_2"
  type: "ReLU"
  bottom: "conv1_2"
  top: "conv1_2"
}
layer {
  name: "pool1"
  type: "Pooling"
  bottom: "conv1_2"
  top: "pool1"
  pooling_param {
    pool: MAX
    kernel_size: 2
    stride: 2
  }
}
layer {
  name: "conv2_1"
  type: "Convolution"
  bottom: "pool1"
  top: "conv2_1"
  param {
    lr_mult: 1
    decay_mult: 1
  }
  param {
    lr_mult: 2
    decay_mult: 0
  }
  convolution_param {
    num_output: 128
    pad: 1
    kernel_size: 3
    weight_filler {
      type: "xavier"
    }
    bias_filler {
      type: "constant"
      value: 0
    }
  }
}
layer {
  name: "relu2_1"
  type: "ReLU"
  bottom: "conv2_1"
  top: "conv2_1"
}
layer {
  name: "conv2_2"
  type: "Convolution"
  bottom: "conv2_1"
  top: "conv2_2"
  param {
    lr_mult: 1
    decay_mult: 1
  }
  param {
    lr_mult: 2
    decay_mult: 0
  }
  convolution_param {
    num_output: 128
    pad: 1
    kernel_size: 3
    weight_filler {
      type: "xavier"
    }
    bias_filler {
      type: "constant"
      value: 0
    }
  }
}
layer {
  name: "relu2_2"
  type: "ReLU"
  bottom: "conv2_2"
  top: "conv2_2"
}
layer {
  name: "pool2"
  type: "Pooling"
  bottom: "conv2_2"
  top: "pool2"
  pooling_param {
    pool: MAX
    kernel_size: 2
    stride: 2
  }
}
layer {
  name: "conv3_1"
  type: "Convolution"
  bottom: "pool2"
  top: "conv3_1"
  param {
    lr_mult: 1
    decay_mult: 1
  }
  param {
    lr_mult: 2
    decay_mult: 0
  }
  convolution_param {
    num_output: 256
    pad: 1
    kernel_size: 3
    weight_filler {
      type: "xavier"
    }
    bias_filler {
      type: "constant"
      value: 0
    }
  }
}
layer {
  name: "relu3_1"
  type: "ReLU"
  bottom: "conv3_1"
  top: "conv3_1"
}
layer {
  name: "conv3_2"
  type: "Convolution"
  bottom: "conv3_1"
  top: "conv3_2"
  param {
    lr_mult: 1
    decay_mult: 1
  }
  param {
    lr_mult: 2
    decay_mult: 0
  }
  convolution_param {
    num_output: 256
    pad: 1
    kernel_size: 3
    weight_filler {
      type: "xavier"
    }
    bias_filler {
      type: "constant"
      value: 0
    }
  }
}
layer {
  name: "relu3_2"
  type: "ReLU"
  bottom: "conv3_2"
  top: "conv3_2"
}
layer {
  name: "conv3_3"
  type: "Convolution"
  bottom: "conv3_2"
  top: "conv3_3"
  param {
    lr_mult: 1
    decay_mult: 1
  }
  param {
    lr_mult: 2
    decay_mult: 0
  }
  convolution_param {
    num_output: 256
    pad: 1
    kernel_size: 3
    weight_filler {
      type: "xavier"
    }
    bias_filler {
      type: "constant"
      value: 0
    }
  }
}
layer {
  name: "relu3_3"
  type: "ReLU"
  bottom: "conv3_3"
  top: "conv3_3"
}
layer {
  name: "pool3"
  type: "Pooling"
  bottom: "conv3_3"
  top: "pool3"
  pooling_param {
    pool: MAX
    kernel_size: 2
    stride: 2
  }
}
layer {
  name: "conv4_1"
  type: "Convolution"
  bottom: "pool3"
  top: "conv4_1"
  param {
    lr_mult: 1
    decay_mult: 1
  }
  param {
    lr_mult: 2
    decay_mult: 0
  }
  convolution_param {
    num_output: 512
    pad: 1
    kernel_size: 3
    weight_filler {
      type: "xavier"
    }
    bias_filler {
      type: "constant"
      value: 0
    }
  }
}
layer {
  name: "relu4_1"
  type: "ReLU"
  bottom: "conv4_1"
  top: "conv4_1"
}
layer {
  name: "conv4_2"
  type: "Convolution"
  bottom: "conv4_1"
  top: "conv4_2"
  param {
    lr_mult: 1
    decay_mult: 1
  }
  param {
    lr_mult: 2
    decay_mult: 0
  }
  convolution_param {
    num_output: 512
    pad: 1
    kernel_size: 3
    weight_filler {
      type: "xavier"
    }
    bias_filler {
      type: "constant"
      value: 0
    }
  }
}
layer {
  name: "relu4_2"
  type: "ReLU"
  bottom: "conv4_2"
  top: "conv4_2"
}
layer {
  name: "conv4_3"
  type: "Convolution"
  bottom: "conv4_2"
  top: "conv4_3"
  param {
    lr_mult: 1
    decay_mult: 1
  }
  param {
    lr_mult: 2
    decay_mult: 0
  }
  convolution_param {
    num_output: 512
    pad: 1
    kernel_size: 3
    weight_filler {
      type: "xavier"
    }
    bias_filler {
      type: "constant"
      value: 0
    }
  }
}
layer {
  name: "relu4_3"
  type: "ReLU"
  bottom: "conv4_3"
  top: "conv4_3"
}
layer {
  name: "pool4"
  type: "Pooling"
  bottom: "conv4_3"
  top: "pool4"
  pooling_param {
    pool: MAX
    kernel_size: 2
    stride: 2
  }
}
layer {
  name: "conv5_1"
  type: "Convolution"
  bottom: "pool4"
  top: "conv5_1"
  param {
    lr_mult: 1
    decay_mult: 1
  }
  param {
    lr_mult: 2
    decay_mult: 0
  }
  convolution_param {
    num_output: 512
    pad: 1
    kernel_size: 3
    weight_filler {
      type: "xavier"
    }
    bias_filler {
      type: "constant"
      value: 0
    }
    dilation: 1
  }
}
layer {
  name: "relu5_1"
  type: "ReLU"
  bottom: "conv5_1"
  top: "conv5_1"
}
layer {
  name: "conv5_2"
  type: "Convolution"
  bottom: "conv5_1"
  top: "conv5_2"
  param {
    lr_mult: 1
    decay_mult: 1
  }
  param {
    lr_mult: 2
    decay_mult: 0
  }
  convolution_param {
    num_output: 512
    pad: 1
    kernel_size: 3
    weight_filler {
      type: "xavier"
    }
    bias_filler {
      type: "constant"
      value: 0
    }
    dilation: 1
  }
}
layer {
  name: "relu5_2"
  type: "ReLU"
  bottom: "conv5_2"
  top: "conv5_2"
}
layer {
  name: "conv5_3"
  type: "Convolution"
  bottom: "conv5_2"
  top: "conv5_3"
  param {
    lr_mult: 1
    decay_mult: 1
  }
  param {
    lr_mult: 2
    decay_mult: 0
  }
  convolution_param {
    num_output: 512
    pad: 1
    kernel_size: 3
    weight_filler {
      type: "xavier"
    }
    bias_filler {
      type: "constant"
      value: 0
    }
    dilation: 1
  }
}
layer {
  name: "relu5_3"
  type: "ReLU"
  bottom: "conv5_3"
  top: "conv5_3"
}
layer {
  name: "pool5"
  type: "Pooling"
  bottom: "conv5_3"
  top: "pool5"
  pooling_param {
    pool: MAX
    kernel_size: 3
    stride: 1
    pad: 1
  }
}
layer {
  name: "fc6"
  type: "Convolution"
  bottom: "pool5"
  top: "fc6"
  param {
    lr_mult: 1
    decay_mult: 1
  }
  param {
    lr_mult: 2
    decay_mult: 0
  }
  convolution_param {
    num_output: 1024
    pad: 6
    kernel_size: 3
    weight_filler {
      type: "xavier"
    }
    bias_filler {
      type: "constant"
      value: 0
    }
    dilation: 6
  }
}
layer {
  name: "relu6"
  type: "ReLU"
  bottom: "fc6"
  top: "fc6"
}
layer {
  name: "fc7"
  type: "Convolution"
  bottom: "fc6"
  top: "fc7"
  param {
    lr_mult: 1
    decay_mult: 1
  }
  param {
    lr_mult: 2
    decay_mult: 0
  }
  convolution_param {
    num_output: 1024
    kernel_size: 1
    weight_filler {
      type: "xavier"
    }
    bias_filler {
      type: "constant"
      value: 0
    }
  }
}
layer {
  name: "relu7"
  type: "ReLU"
  bottom: "fc7"
  top: "fc7"
}
layer {
  name: "conv6_1"
  type: "Convolution"
  bottom: "fc7"
  top: "conv6_1"
  param {
    lr_mult: 1
    decay_mult: 1
  }
  param {
    lr_mult: 2
    decay_mult: 0
  }
  convolution_param {
    num_output: 256
    pad: 0
    kernel_size: 1
    stride: 1
    weight_filler {
      type: "xavier"
    }
    bias_filler {
      type: "constant"
      value: 0
    }
  }
}
layer {
  name: "conv6_1_relu"
  type: "ReLU"
  bottom: "conv6_1"
  top: "conv6_1"
}
layer {
  name: "conv6_2"
  type: "Convolution"
  bottom: "conv6_1"
  top: "conv6_2"
  param {
    lr_mult: 1
    decay_mult: 1
  }
  param {
    lr_mult: 2
    decay_mult: 0
  }
  convolution_param {
    num_output: 512
    pad: 1
    kernel_size: 3
    stride: 2
    weight_filler {
      type: "xavier"
    }
    bias_filler {
      type: "constant"
      value: 0
    }
  }
}
layer {
  name: "conv6_2_relu"
  type: "ReLU"
  bottom: "conv6_2"
  top: "conv6_2"
}
layer {
  name: "conv7_1"
  type: "Convolution"
  bottom: "conv6_2"
  top: "conv7_1"
  param {
    lr_mult: 1
    decay_mult: 1
  }
  param {
    lr_mult: 2
    decay_mult: 0
  }
  convolution_param {
    num_output: 128
    pad: 0
    kernel_size: 1
    stride: 1
    weight_filler {
      type: "xavier"
    }
    bias_filler {
      type: "constant"
      value: 0
    }
  }
}
layer {
  name: "conv7_1_relu"
  type: "ReLU"
  bottom: "conv7_1"
  top: "conv7_1"
}
layer {
  name: "conv7_2"
  type: "Convolution"
  bottom: "conv7_1"
  top: "conv7_2"
  param {
    lr_mult: 1
    decay_mult: 1
  }
  param {
    lr_mult: 2
    decay_mult: 0
  }
  convolution_param {
    num_output: 256
    pad: 1
    kernel_size: 3
    stride: 2
    weight_filler {
      type: "xavier"
    }
    bias_filler {
      type: "constant"
      value: 0
    }
  }
}
layer {
  name: "conv7_2_relu"
  type: "ReLU"
  bottom: "conv7_2"
  top: "conv7_2"
}
layer {
  name: "conv8_1"
  type: "Convolution"
  bottom: "conv7_2"
  top: "conv8_1"
  param {
    lr_mult: 1
    decay_mult: 1
  }
  param {
    lr_mult: 2
    decay_mult: 0
  }
  convolution_param {
    num_output: 128
    pad: 0
    kernel_size: 1
    stride: 1
    weight_filler {
      type: "xavier"
    }
    bias_filler {
      type: "constant"
      value: 0
    }
  }
}
layer {
  name: "conv8_1_relu"
  type: "ReLU"
  bottom: "conv8_1"
  top: "conv8_1"
}
layer {
  name: "conv8_2"
  type: "Convolution"
  bottom: "conv8_1"
  top: "conv8_2"
  param {
    lr_mult: 1
    decay_mult: 1
  }
  param {
    lr_mult: 2
    decay_mult: 0
  }
  convolution_param {
    num_output: 256
    pad: 0
    kernel_size: 3
    stride: 1
    weight_filler {
      type: "xavier"
    }
    bias_filler {
      type: "constant"
      value: 0
    }
  }
}
layer {
  name: "conv8_2_relu"
  type: "ReLU"
  bottom: "conv8_2"
  top: "conv8_2"
}
layer {
  name: "conv9_1"
  type: "Convolution"
  bottom: "conv8_2"
  top: "conv9_1"
  param {
    lr_mult: 1
    decay_mult: 1
  }
  param {
    lr_mult: 2
    decay_mult: 0
  }
  convolution_param {
    num_output: 128
    pad: 0
    kernel_size: 1
    stride: 1
    weight_filler {
      type: "xavier"
    }
    bias_filler {
      type: "constant"
      value: 0
    }
  }
}
layer {
  name: "conv9_1_relu"
  type: "ReLU"
  bottom: "conv9_1"
  top: "conv9_1"
}
layer {
  name: "conv9_2"
  type: "Convolution"
  bottom: "conv9_1"
  top: "conv9_2"
  param {
    lr_mult: 1
    decay_mult: 1
  }
  param {
    lr_mult: 2
    decay_mult: 0
  }
  convolution_param {
    num_output: 256
    pad: 0
    kernel_size: 3
    stride: 1
    weight_filler {
      type: "xavier"
    }
    bias_filler {
      type: "constant"
      value: 0
    }
  }
}
layer {
  name: "conv9_2_relu"
  type: "ReLU"
  bottom: "conv9_2"
  top: "conv9_2"
}
layer {
  name: "conv4_3_norm"
  type: "Normalize"
  bottom: "conv4_3"
  top: "conv4_3_norm"
  norm_param {
    across_spatial: false
    scale_filler {
      type: "constant"
      value: 20
    }
    channel_shared: false
  }
}
layer {
  name: "conv4_3_norm_mbox_loc"
  type: "Convolution"
  bottom: "conv4_3_norm"
  top: "conv4_3_norm_mbox_loc"
  param {
    lr_mult: 1
    decay_mult: 1
  }
  param {
    lr_mult: 2
    decay_mult: 0
  }
  convolution_param {
    num_output: 16
    pad: 1
    kernel_size: 3
    stride: 1
    weight_filler {
      type: "xavier"
    }
    bias_filler {
      type: "constant"
      value: 0
    }
  }
}
layer {
  name: "conv4_3_norm_mbox_loc_perm"
  type: "Permute"
  bottom: "conv4_3_norm_mbox_loc"
  top: "conv4_3_norm_mbox_loc_perm"
  permute_param {
    order: 0
    order: 2
    order: 3
    order: 1
  }
}
layer {
  name: "conv4_3_norm_mbox_loc_flat"
  type: "Flatten"
  bottom: "conv4_3_norm_mbox_loc_perm"
  top: "conv4_3_norm_mbox_loc_flat"
  flatten_param {
    axis: 1
  }
}
layer {
  name: "conv4_3_norm_mbox_conf"
  type: "Convolution"
  bottom: "conv4_3_norm"
  top: "conv4_3_norm_mbox_conf"
  param {
    lr_mult: 1
    decay_mult: 1
  }
  param {
    lr_mult: 2
    decay_mult: 0
  }
  convolution_param {
    num_output: 16
    pad: 1
    kernel_size: 3
    stride: 1
    weight_filler {
      type: "xavier"
    }
    bias_filler {
      type: "constant"
      value: 0
    }
  }
}
layer {
  name: "conv4_3_norm_mbox_conf_perm"
  type: "Permute"
  bottom: "conv4_3_norm_mbox_conf"
  top: "conv4_3_norm_mbox_conf_perm"
  permute_param {
    order: 0
    order: 2
    order: 3
    order: 1
  }
}
layer {
  name: "conv4_3_norm_mbox_conf_flat"
  type: "Flatten"
  bottom: "conv4_3_norm_mbox_conf_perm"
  top: "conv4_3_norm_mbox_conf_flat"
  flatten_param {
    axis: 1
  }
}
layer {
  name: "conv4_3_norm_mbox_priorbox"
  type: "PriorBox"
  bottom: "conv4_3_norm"
  bottom: "data"
  top: "conv4_3_norm_mbox_priorbox"
  prior_box_param {
    min_size: 30
    max_size: 60
    aspect_ratio: 2
    flip: true
    clip: false
    variance: 0.1
    variance: 0.1
    variance: 0.2
    variance: 0.2
    step: 8
    offset: 0.5
  }
}
layer {
  name: "fc7_mbox_loc"
  type: "Convolution"
  bottom: "fc7"
  top: "fc7_mbox_loc"
  param {
    lr_mult: 1
    decay_mult: 1
  }
  param {
    lr_mult: 2
    decay_mult: 0
  }
  convolution_param {
    num_output: 24
    pad: 1
    kernel_size: 3
    stride: 1
    weight_filler {
      type: "xavier"
    }
    bias_filler {
      type: "constant"
      value: 0
    }
  }
}
layer {
  name: "fc7_mbox_loc_perm"
  type: "Permute"
  bottom: "fc7_mbox_loc"
  top: "fc7_mbox_loc_perm"
  permute_param {
    order: 0
    order: 2
    order: 3
    order: 1
  }
}
layer {
  name: "fc7_mbox_loc_flat"
  type: "Flatten"
  bottom: "fc7_mbox_loc_perm"
  top: "fc7_mbox_loc_flat"
  flatten_param {
    axis: 1
  }
}
layer {
  name: "fc7_mbox_conf"
  type: "Convolution"
  bottom: "fc7"
  top: "fc7_mbox_conf"
  param {
    lr_mult: 1
    decay_mult: 1
  }
  param {
    lr_mult: 2
    decay_mult: 0
  }
  convolution_param {
    num_output: 24
    pad: 1
    kernel_size: 3
    stride: 1
    weight_filler {
      type: "xavier"
    }
    bias_filler {
      type: "constant"
      value: 0
    }
  }
}
layer {
  name: "fc7_mbox_conf_perm"
  type: "Permute"
  bottom: "fc7_mbox_conf"
  top: "fc7_mbox_conf_perm"
  permute_param {
    order: 0
    order: 2
    order: 3
    order: 1
  }
}
layer {
  name: "fc7_mbox_conf_flat"
  type: "Flatten"
  bottom: "fc7_mbox_conf_perm"
  top: "fc7_mbox_conf_flat"
  flatten_param {
    axis: 1
  }
}
layer {
  name: "fc7_mbox_priorbox"
  type: "PriorBox"
  bottom: "fc7"
  bottom: "data"
  top: "fc7_mbox_priorbox"
  prior_box_param {
    min_size: 60
    max_size: 111
    aspect_ratio: 2
    aspect_ratio: 3
    flip: true
    clip: false
    variance: 0.1
    variance: 0.1
    variance: 0.2
    variance: 0.2
    step: 16
    offset: 0.5
  }
}
layer {
  name: "conv6_2_mbox_loc"
  type: "Convolution"
  bottom: "conv6_2"
  top: "conv6_2_mbox_loc"
  param {
    lr_mult: 1
    decay_mult: 1
  }
  param {
    lr_mult: 2
    decay_mult: 0
  }
  convolution_param {
    num_output: 24
    pad: 1
    kernel_size: 3
    stride: 1
    weight_filler {
      type: "xavier"
    }
    bias_filler {
      type: "constant"
      value: 0
    }
  }
}
layer {
  name: "conv6_2_mbox_loc_perm"
  type: "Permute"
  bottom: "conv6_2_mbox_loc"
  top: "conv6_2_mbox_loc_perm"
  permute_param {
    order: 0
    order: 2
    order: 3
    order: 1
  }
}
layer {
  name: "conv6_2_mbox_loc_flat"
  type: "Flatten"
  bottom: "conv6_2_mbox_loc_perm"
  top: "conv6_2_mbox_loc_flat"
  flatten_param {
    axis: 1
  }
}
layer {
  name: "conv6_2_mbox_conf"
  type: "Convolution"
  bottom: "conv6_2"
  top: "conv6_2_mbox_conf"
  param {
    lr_mult: 1
    decay_mult: 1
  }
  param {
    lr_mult: 2
    decay_mult: 0
  }
  convolution_param {
    num_output: 24
    pad: 1
    kernel_size: 3
    stride: 1
    weight_filler {
      type: "xavier"
    }
    bias_filler {
      type: "constant"
      value: 0
    }
  }
}
layer {
  name: "conv6_2_mbox_conf_perm"
  type: "Permute"
  bottom: "conv6_2_mbox_conf"
  top: "conv6_2_mbox_conf_perm"
  permute_param {
    order: 0
    order: 2
    order: 3
    order: 1
  }
}
layer {
  name: "conv6_2_mbox_conf_flat"
  type: "Flatten"
  bottom: "conv6_2_mbox_conf_perm"
  top: "conv6_2_mbox_conf_flat"
  flatten_param {
    axis: 1
  }
}
layer {
  name: "conv6_2_mbox_priorbox"
  type: "PriorBox"
  bottom: "conv6_2"
  bottom: "data"
  top: "conv6_2_mbox_priorbox"
  prior_box_param {
    min_size: 111
    max_size: 162
    aspect_ratio: 2
    aspect_ratio: 3
    flip: true
    clip: false
    variance: 0.1
    variance: 0.1
    variance: 0.2
    variance: 0.2
    step: 32
    offset: 0.5
  }
}
layer {
  name: "conv7_2_mbox_loc"
  type: "Convolution"
  bottom: "conv7_2"
  top: "conv7_2_mbox_loc"
  param {
    lr_mult: 1
    decay_mult: 1
  }
  param {
    lr_mult: 2
    decay_mult: 0
  }
  convolution_param {
    num_output: 24
    pad: 1
    kernel_size: 3
    stride: 1
    weight_filler {
      type: "xavier"
    }
    bias_filler {
      type: "constant"
      value: 0
    }
  }
}
layer {
  name: "conv7_2_mbox_loc_perm"
  type: "Permute"
  bottom: "conv7_2_mbox_loc"
  top: "conv7_2_mbox_loc_perm"
  permute_param {
    order: 0
    order: 2
    order: 3
    order: 1
  }
}
layer {
  name: "conv7_2_mbox_loc_flat"
  type: "Flatten"
  bottom: "conv7_2_mbox_loc_perm"
  top: "conv7_2_mbox_loc_flat"
  flatten_param {
    axis: 1
  }
}
layer {
  name: "conv7_2_mbox_conf"
  type: "Convolution"
  bottom: "conv7_2"
  top: "conv7_2_mbox_conf"
  param {
    lr_mult: 1
    decay_mult: 1
  }
  param {
    lr_mult: 2
    decay_mult: 0
  }
  convolution_param {
    num_output: 24
    pad: 1
    kernel_size: 3
    stride: 1
    weight_filler {
      type: "xavier"
    }
    bias_filler {
      type: "constant"
      value: 0
    }
  }
}
layer {
  name: "conv7_2_mbox_conf_perm"
  type: "Permute"
  bottom: "conv7_2_mbox_conf"
  top: "conv7_2_mbox_conf_perm"
  permute_param {
    order: 0
    order: 2
    order: 3
    order: 1
  }
}
layer {
  name: "conv7_2_mbox_conf_flat"
  type: "Flatten"
  bottom: "conv7_2_mbox_conf_perm"
  top: "conv7_2_mbox_conf_flat"
  flatten_param {
    axis: 1
  }
}
layer {
  name: "conv7_2_mbox_priorbox"
  type: "PriorBox"
  bottom: "conv7_2"
  bottom: "data"
  top: "conv7_2_mbox_priorbox"
  prior_box_param {
    min_size: 162
    max_size: 213
    aspect_ratio: 2
    aspect_ratio: 3
    flip: true
    clip: false
    variance: 0.1
    variance: 0.1
    variance: 0.2
    variance: 0.2
    step: 64
    offset: 0.5
  }
}
layer {
  name: "conv8_2_mbox_loc"
  type: "Convolution"
  bottom: "conv8_2"
  top: "conv8_2_mbox_loc"
  param {
    lr_mult: 1
    decay_mult: 1
  }
  param {
    lr_mult: 2
    decay_mult: 0
  }
  convolution_param {
    num_output: 16
    pad: 1
    kernel_size: 3
    stride: 1
    weight_filler {
      type: "xavier"
    }
    bias_filler {
      type: "constant"
      value: 0
    }
  }
}
layer {
  name: "conv8_2_mbox_loc_perm"
  type: "Permute"
  bottom: "conv8_2_mbox_loc"
  top: "conv8_2_mbox_loc_perm"
  permute_param {
    order: 0
    order: 2
    order: 3
    order: 1
  }
}
layer {
  name: "conv8_2_mbox_loc_flat"
  type: "Flatten"
  bottom: "conv8_2_mbox_loc_perm"
  top: "conv8_2_mbox_loc_flat"
  flatten_param {
    axis: 1
  }
}
layer {
  name: "conv8_2_mbox_conf"
  type: "Convolution"
  bottom: "conv8_2"
  top: "conv8_2_mbox_conf"
  param {
    lr_mult: 1
    decay_mult: 1
  }
  param {
    lr_mult: 2
    decay_mult: 0
  }
  convolution_param {
    num_output: 16
    pad: 1
    kernel_size: 3
    stride: 1
    weight_filler {
      type: "xavier"
    }
    bias_filler {
      type: "constant"
      value: 0
    }
  }
}
layer {
  name: "conv8_2_mbox_conf_perm"
  type: "Permute"
  bottom: "conv8_2_mbox_conf"
  top: "conv8_2_mbox_conf_perm"
  permute_param {
    order: 0
    order: 2
    order: 3
    order: 1
  }
}
layer {
  name: "conv8_2_mbox_conf_flat"
  type: "Flatten"
  bottom: "conv8_2_mbox_conf_perm"
  top: "conv8_2_mbox_conf_flat"
  flatten_param {
    axis: 1
  }
}
layer {
  name: "conv8_2_mbox_priorbox"
  type: "PriorBox"
  bottom: "conv8_2"
  bottom: "data"
  top: "conv8_2_mbox_priorbox"
  prior_box_param {
    min_size: 213
    max_size: 264
    aspect_ratio: 2
    flip: true
    clip: false
    variance: 0.1
    variance: 0.1
    variance: 0.2
    variance: 0.2
    step: 100
    offset: 0.5
  }
}
layer {
  name: "conv9_2_mbox_loc"
  type: "Convolution"
  bottom: "conv9_2"
  top: "conv9_2_mbox_loc"
  param {
    lr_mult: 1
    decay_mult: 1
  }
  param {
    lr_mult: 2
    decay_mult: 0
  }
  convolution_param {
    num_output: 16
    pad: 1
    kernel_size: 3
    stride: 1
    weight_filler {
      type: "xavier"
    }
    bias_filler {
      type: "constant"
      value: 0
    }
  }
}
layer {
  name: "conv9_2_mbox_loc_perm"
  type: "Permute"
  bottom: "conv9_2_mbox_loc"
  top: "conv9_2_mbox_loc_perm"
  permute_param {
    order: 0
    order: 2
    order: 3
    order: 1
  }
}
layer {
  name: "conv9_2_mbox_loc_flat"
  type: "Flatten"
  bottom: "conv9_2_mbox_loc_perm"
  top: "conv9_2_mbox_loc_flat"
  flatten_param {
    axis: 1
  }
}
layer {
  name: "conv9_2_mbox_conf"
  type: "Convolution"
  bottom: "conv9_2"
  top: "conv9_2_mbox_conf"
  param {
    lr_mult: 1
    decay_mult: 1
  }
  param {
    lr_mult: 2
    decay_mult: 0
  }
  convolution_param {
    num_output: 16
    pad: 1
    kernel_size: 3
    stride: 1
    weight_filler {
      type: "xavier"
    }
    bias_filler {
      type: "constant"
      value: 0
    }
  }
}
layer {
  name: "conv9_2_mbox_conf_perm"
  type: "Permute"
  bottom: "conv9_2_mbox_conf"
  top: "conv9_2_mbox_conf_perm"
  permute_param {
    order: 0
    order: 2
    order: 3
    order: 1
  }
}
layer {
  name: "conv9_2_mbox_conf_flat"
  type: "Flatten"
  bottom: "conv9_2_mbox_conf_perm"
  top: "conv9_2_mbox_conf_flat"
  flatten_param {
    axis: 1
  }
}
layer {
  name: "conv9_2_mbox_priorbox"
  type: "PriorBox"
  bottom: "conv9_2"
  bottom: "data"
  top: "conv9_2_mbox_priorbox"
  prior_box_param {
    min_size: 264
    max_size: 315
    aspect_ratio: 2
    flip: true
    clip: false
    variance: 0.1
    variance: 0.1
    variance: 0.2
    variance: 0.2
    step: 300
    offset: 0.5
  }
}
layer {
  name: "mbox_loc"
  type: "Concat"
  bottom: "conv4_3_norm_mbox_loc_flat"
  bottom: "fc7_mbox_loc_flat"
  bottom: "conv6_2_mbox_loc_flat"
  bottom: "conv7_2_mbox_loc_flat"
  bottom: "conv8_2_mbox_loc_flat"
  bottom: "conv9_2_mbox_loc_flat"
  top: "mbox_loc"
  concat_param {
    axis: 1
  }
}
layer {
  name: "mbox_conf"
  type: "Concat"
  bottom: "conv4_3_norm_mbox_conf_flat"
  bottom: "fc7_mbox_conf_flat"
  bottom: "conv6_2_mbox_conf_flat"
  bottom: "conv7_2_mbox_conf_flat"
  bottom: "conv8_2_mbox_conf_flat"
  bottom: "conv9_2_mbox_conf_flat"
  top: "mbox_conf"
  concat_param {
    axis: 1
  }
}
layer {
  name: "mbox_priorbox"
  type: "Concat"
  bottom: "conv4_3_norm_mbox_priorbox"
  bottom: "fc7_mbox_priorbox"
  bottom: "conv6_2_mbox_priorbox"
  bottom: "conv7_2_mbox_priorbox"
  bottom: "conv8_2_mbox_priorbox"
  bottom: "conv9_2_mbox_priorbox"
  top: "mbox_priorbox"
  concat_param {
    axis: 2
  }
}
layer {
  name: "mbox_conf_reshape"
  type: "Reshape"
  bottom: "mbox_conf"
  top: "mbox_conf_reshape"
  reshape_param {
    shape {
      dim: 0
      dim: -1
      dim: 4
    }
  }
}
layer {
  name: "mbox_conf_softmax"
  type: "Softmax"
  bottom: "mbox_conf_reshape"
  top: "mbox_conf_softmax"
  softmax_param {
    axis: 2
  }
}
layer {
  name: "mbox_conf_flatten"
  type: "Flatten"
  bottom: "mbox_conf_softmax"
  top: "mbox_conf_flatten"
  flatten_param {
    axis: 1
  }
}
layer {
  name: "detection_out"
  type: "DetectionOutput"
  bottom: "mbox_loc"
  bottom: "mbox_conf_flatten"
  bottom: "mbox_priorbox"
  top: "detection_out"
  include {
    phase: TEST
  }
  detection_output_param {
    num_classes: 4
    share_location: true
    background_label_id: 0
    nms_param {
      nms_threshold: 0.45
      top_k: 400
    }
    save_output_param {
      output_directory: "/home/shangzw/data/tbs/results/tbs/SSD_300x300/Main"
      output_name_prefix: "comp4_det_test_"
      output_format: "VOC"
      label_map_file: "data/tbs_300x300_HSIL_10x/labelmap_voc.prototxt"
      name_size_file: "data/VOC0712/test_name_size.txt"
      num_test_image: 100
    }
    code_type: CENTER_SIZE
    keep_top_k: 200
    confidence_threshold: 0.01
  }
}
layer {
  name: "detection_eval"
  type: "DetectionEvaluate"
  bottom: "detection_out"
  bottom: "label"
  top: "detection_eval"
  include {
    phase: TEST
  }
  detection_evaluate_param {
    num_classes: 4
    background_label_id: 0
    overlap_threshold: 0.5
    evaluate_difficult_gt: false
    name_size_file: "data/VOC0712/test_name_size.txt"
  }
}
I0601 17:41:01.886952  8248 layer_factory.hpp:77] Creating layer data
I0601 17:41:01.887017  8248 net.cpp:100] Creating Layer data
I0601 17:41:01.887032  8248 net.cpp:408] data -> data
I0601 17:41:01.887044  8248 net.cpp:408] data -> label
I0601 17:41:01.887635  8266 db_lmdb.cpp:35] Opened lmdb examples/tbs_300x300_HSIL_10x/tbs_300x300_HSIL_10x_test_lmdb
I0601 17:41:01.888582  8248 annotated_data_layer.cpp:62] output data size: 4,3,300,300
I0601 17:41:01.901361  8248 net.cpp:150] Setting up data
I0601 17:41:01.901393  8248 net.cpp:157] Top shape: 4 3 300 300 (1080000)
I0601 17:41:01.901396  8248 net.cpp:157] Top shape: 1 1 1 8 (8)
I0601 17:41:01.901399  8248 net.cpp:165] Memory required for data: 4320032
I0601 17:41:01.901403  8248 layer_factory.hpp:77] Creating layer data_data_0_split
I0601 17:41:01.901429  8248 net.cpp:100] Creating Layer data_data_0_split
I0601 17:41:01.901448  8248 net.cpp:434] data_data_0_split <- data
I0601 17:41:01.901455  8248 net.cpp:408] data_data_0_split -> data_data_0_split_0
I0601 17:41:01.901471  8248 net.cpp:408] data_data_0_split -> data_data_0_split_1
I0601 17:41:01.901479  8248 net.cpp:408] data_data_0_split -> data_data_0_split_2
I0601 17:41:01.901484  8248 net.cpp:408] data_data_0_split -> data_data_0_split_3
I0601 17:41:01.901490  8248 net.cpp:408] data_data_0_split -> data_data_0_split_4
I0601 17:41:01.901496  8248 net.cpp:408] data_data_0_split -> data_data_0_split_5
I0601 17:41:01.901501  8248 net.cpp:408] data_data_0_split -> data_data_0_split_6
I0601 17:41:01.901814  8248 net.cpp:150] Setting up data_data_0_split
I0601 17:41:01.901826  8248 net.cpp:157] Top shape: 4 3 300 300 (1080000)
I0601 17:41:01.901832  8248 net.cpp:157] Top shape: 4 3 300 300 (1080000)
I0601 17:41:01.901836  8248 net.cpp:157] Top shape: 4 3 300 300 (1080000)
I0601 17:41:01.901841  8248 net.cpp:157] Top shape: 4 3 300 300 (1080000)
I0601 17:41:01.901847  8248 net.cpp:157] Top shape: 4 3 300 300 (1080000)
I0601 17:41:01.901866  8248 net.cpp:157] Top shape: 4 3 300 300 (1080000)
I0601 17:41:01.901873  8248 net.cpp:157] Top shape: 4 3 300 300 (1080000)
I0601 17:41:01.901878  8248 net.cpp:165] Memory required for data: 34560032
I0601 17:41:01.901882  8248 layer_factory.hpp:77] Creating layer conv1_1
I0601 17:41:01.901897  8248 net.cpp:100] Creating Layer conv1_1
I0601 17:41:01.901902  8248 net.cpp:434] conv1_1 <- data_data_0_split_0
I0601 17:41:01.901909  8248 net.cpp:408] conv1_1 -> conv1_1
I0601 17:41:01.904868  8248 net.cpp:150] Setting up conv1_1
I0601 17:41:01.904881  8248 net.cpp:157] Top shape: 4 64 300 300 (23040000)
I0601 17:41:01.904883  8248 net.cpp:165] Memory required for data: 126720032
I0601 17:41:01.904893  8248 layer_factory.hpp:77] Creating layer relu1_1
I0601 17:41:01.904901  8248 net.cpp:100] Creating Layer relu1_1
I0601 17:41:01.904922  8248 net.cpp:434] relu1_1 <- conv1_1
I0601 17:41:01.904927  8248 net.cpp:395] relu1_1 -> conv1_1 (in-place)
I0601 17:41:01.905129  8248 net.cpp:150] Setting up relu1_1
I0601 17:41:01.905141  8248 net.cpp:157] Top shape: 4 64 300 300 (23040000)
I0601 17:41:01.905146  8248 net.cpp:165] Memory required for data: 218880032
I0601 17:41:01.905150  8248 layer_factory.hpp:77] Creating layer conv1_2
I0601 17:41:01.905176  8248 net.cpp:100] Creating Layer conv1_2
I0601 17:41:01.905179  8248 net.cpp:434] conv1_2 <- conv1_1
I0601 17:41:01.905184  8248 net.cpp:408] conv1_2 -> conv1_2
I0601 17:41:01.906941  8248 net.cpp:150] Setting up conv1_2
I0601 17:41:01.906951  8248 net.cpp:157] Top shape: 4 64 300 300 (23040000)
I0601 17:41:01.906955  8248 net.cpp:165] Memory required for data: 311040032
I0601 17:41:01.906962  8248 layer_factory.hpp:77] Creating layer relu1_2
I0601 17:41:01.906968  8248 net.cpp:100] Creating Layer relu1_2
I0601 17:41:01.906976  8248 net.cpp:434] relu1_2 <- conv1_2
I0601 17:41:01.906996  8248 net.cpp:395] relu1_2 -> conv1_2 (in-place)
I0601 17:41:01.907918  8248 net.cpp:150] Setting up relu1_2
I0601 17:41:01.907932  8248 net.cpp:157] Top shape: 4 64 300 300 (23040000)
I0601 17:41:01.907939  8248 net.cpp:165] Memory required for data: 403200032
I0601 17:41:01.907944  8248 layer_factory.hpp:77] Creating layer pool1
I0601 17:41:01.907954  8248 net.cpp:100] Creating Layer pool1
I0601 17:41:01.907960  8248 net.cpp:434] pool1 <- conv1_2
I0601 17:41:01.907966  8248 net.cpp:408] pool1 -> pool1
I0601 17:41:01.908033  8248 net.cpp:150] Setting up pool1
I0601 17:41:01.908044  8248 net.cpp:157] Top shape: 4 64 150 150 (5760000)
I0601 17:41:01.908048  8248 net.cpp:165] Memory required for data: 426240032
I0601 17:41:01.908052  8248 layer_factory.hpp:77] Creating layer conv2_1
I0601 17:41:01.908063  8248 net.cpp:100] Creating Layer conv2_1
I0601 17:41:01.908069  8248 net.cpp:434] conv2_1 <- pool1
I0601 17:41:01.908078  8248 net.cpp:408] conv2_1 -> conv2_1
I0601 17:41:01.910115  8248 net.cpp:150] Setting up conv2_1
I0601 17:41:01.910126  8248 net.cpp:157] Top shape: 4 128 150 150 (11520000)
I0601 17:41:01.910130  8248 net.cpp:165] Memory required for data: 472320032
I0601 17:41:01.910140  8248 layer_factory.hpp:77] Creating layer relu2_1
I0601 17:41:01.910151  8248 net.cpp:100] Creating Layer relu2_1
I0601 17:41:01.910157  8248 net.cpp:434] relu2_1 <- conv2_1
I0601 17:41:01.910166  8248 net.cpp:395] relu2_1 -> conv2_1 (in-place)
I0601 17:41:01.910965  8248 net.cpp:150] Setting up relu2_1
I0601 17:41:01.910979  8248 net.cpp:157] Top shape: 4 128 150 150 (11520000)
I0601 17:41:01.910984  8248 net.cpp:165] Memory required for data: 518400032
I0601 17:41:01.910990  8248 layer_factory.hpp:77] Creating layer conv2_2
I0601 17:41:01.911002  8248 net.cpp:100] Creating Layer conv2_2
I0601 17:41:01.911008  8248 net.cpp:434] conv2_2 <- conv2_1
I0601 17:41:01.911016  8248 net.cpp:408] conv2_2 -> conv2_2
I0601 17:41:01.914415  8248 net.cpp:150] Setting up conv2_2
I0601 17:41:01.914432  8248 net.cpp:157] Top shape: 4 128 150 150 (11520000)
I0601 17:41:01.914434  8248 net.cpp:165] Memory required for data: 564480032
I0601 17:41:01.914440  8248 layer_factory.hpp:77] Creating layer relu2_2
I0601 17:41:01.914469  8248 net.cpp:100] Creating Layer relu2_2
I0601 17:41:01.914474  8248 net.cpp:434] relu2_2 <- conv2_2
I0601 17:41:01.914482  8248 net.cpp:395] relu2_2 -> conv2_2 (in-place)
I0601 17:41:01.914686  8248 net.cpp:150] Setting up relu2_2
I0601 17:41:01.914700  8248 net.cpp:157] Top shape: 4 128 150 150 (11520000)
I0601 17:41:01.914705  8248 net.cpp:165] Memory required for data: 610560032
I0601 17:41:01.914708  8248 layer_factory.hpp:77] Creating layer pool2
I0601 17:41:01.914716  8248 net.cpp:100] Creating Layer pool2
I0601 17:41:01.914721  8248 net.cpp:434] pool2 <- conv2_2
I0601 17:41:01.914727  8248 net.cpp:408] pool2 -> pool2
I0601 17:41:01.914783  8248 net.cpp:150] Setting up pool2
I0601 17:41:01.914790  8248 net.cpp:157] Top shape: 4 128 75 75 (2880000)
I0601 17:41:01.914796  8248 net.cpp:165] Memory required for data: 622080032
I0601 17:41:01.914799  8248 layer_factory.hpp:77] Creating layer conv3_1
I0601 17:41:01.914813  8248 net.cpp:100] Creating Layer conv3_1
I0601 17:41:01.914818  8248 net.cpp:434] conv3_1 <- pool2
I0601 17:41:01.914826  8248 net.cpp:408] conv3_1 -> conv3_1
I0601 17:41:01.918006  8248 net.cpp:150] Setting up conv3_1
I0601 17:41:01.918020  8248 net.cpp:157] Top shape: 4 256 75 75 (5760000)
I0601 17:41:01.918022  8248 net.cpp:165] Memory required for data: 645120032
I0601 17:41:01.918033  8248 layer_factory.hpp:77] Creating layer relu3_1
I0601 17:41:01.918042  8248 net.cpp:100] Creating Layer relu3_1
I0601 17:41:01.918047  8248 net.cpp:434] relu3_1 <- conv3_1
I0601 17:41:01.918052  8248 net.cpp:395] relu3_1 -> conv3_1 (in-place)
I0601 17:41:01.918287  8248 net.cpp:150] Setting up relu3_1
I0601 17:41:01.918298  8248 net.cpp:157] Top shape: 4 256 75 75 (5760000)
I0601 17:41:01.918300  8248 net.cpp:165] Memory required for data: 668160032
I0601 17:41:01.918303  8248 layer_factory.hpp:77] Creating layer conv3_2
I0601 17:41:01.918324  8248 net.cpp:100] Creating Layer conv3_2
I0601 17:41:01.918329  8248 net.cpp:434] conv3_2 <- conv3_1
I0601 17:41:01.918352  8248 net.cpp:408] conv3_2 -> conv3_2
I0601 17:41:01.923394  8248 net.cpp:150] Setting up conv3_2
I0601 17:41:01.923409  8248 net.cpp:157] Top shape: 4 256 75 75 (5760000)
I0601 17:41:01.923413  8248 net.cpp:165] Memory required for data: 691200032
I0601 17:41:01.923420  8248 layer_factory.hpp:77] Creating layer relu3_2
I0601 17:41:01.923427  8248 net.cpp:100] Creating Layer relu3_2
I0601 17:41:01.923432  8248 net.cpp:434] relu3_2 <- conv3_2
I0601 17:41:01.923439  8248 net.cpp:395] relu3_2 -> conv3_2 (in-place)
I0601 17:41:01.923635  8248 net.cpp:150] Setting up relu3_2
I0601 17:41:01.923646  8248 net.cpp:157] Top shape: 4 256 75 75 (5760000)
I0601 17:41:01.923651  8248 net.cpp:165] Memory required for data: 714240032
I0601 17:41:01.923655  8248 layer_factory.hpp:77] Creating layer conv3_3
I0601 17:41:01.923668  8248 net.cpp:100] Creating Layer conv3_3
I0601 17:41:01.923674  8248 net.cpp:434] conv3_3 <- conv3_2
I0601 17:41:01.923682  8248 net.cpp:408] conv3_3 -> conv3_3
I0601 17:41:01.928727  8248 net.cpp:150] Setting up conv3_3
I0601 17:41:01.928742  8248 net.cpp:157] Top shape: 4 256 75 75 (5760000)
I0601 17:41:01.928745  8248 net.cpp:165] Memory required for data: 737280032
I0601 17:41:01.928766  8248 layer_factory.hpp:77] Creating layer relu3_3
I0601 17:41:01.928772  8248 net.cpp:100] Creating Layer relu3_3
I0601 17:41:01.928776  8248 net.cpp:434] relu3_3 <- conv3_3
I0601 17:41:01.928781  8248 net.cpp:395] relu3_3 -> conv3_3 (in-place)
I0601 17:41:01.928985  8248 net.cpp:150] Setting up relu3_3
I0601 17:41:01.928997  8248 net.cpp:157] Top shape: 4 256 75 75 (5760000)
I0601 17:41:01.929000  8248 net.cpp:165] Memory required for data: 760320032
I0601 17:41:01.929004  8248 layer_factory.hpp:77] Creating layer pool3
I0601 17:41:01.929025  8248 net.cpp:100] Creating Layer pool3
I0601 17:41:01.929029  8248 net.cpp:434] pool3 <- conv3_3
I0601 17:41:01.929038  8248 net.cpp:408] pool3 -> pool3
I0601 17:41:01.929123  8248 net.cpp:150] Setting up pool3
I0601 17:41:01.929148  8248 net.cpp:157] Top shape: 4 256 38 38 (1478656)
I0601 17:41:01.929167  8248 net.cpp:165] Memory required for data: 766234656
I0601 17:41:01.929172  8248 layer_factory.hpp:77] Creating layer conv4_1
I0601 17:41:01.929183  8248 net.cpp:100] Creating Layer conv4_1
I0601 17:41:01.929186  8248 net.cpp:434] conv4_1 <- pool3
I0601 17:41:01.929195  8248 net.cpp:408] conv4_1 -> conv4_1
I0601 17:41:01.938794  8248 net.cpp:150] Setting up conv4_1
I0601 17:41:01.938810  8248 net.cpp:157] Top shape: 4 512 38 38 (2957312)
I0601 17:41:01.938813  8248 net.cpp:165] Memory required for data: 778063904
I0601 17:41:01.938834  8248 layer_factory.hpp:77] Creating layer relu4_1
I0601 17:41:01.938840  8248 net.cpp:100] Creating Layer relu4_1
I0601 17:41:01.938844  8248 net.cpp:434] relu4_1 <- conv4_1
I0601 17:41:01.938849  8248 net.cpp:395] relu4_1 -> conv4_1 (in-place)
I0601 17:41:01.939770  8248 net.cpp:150] Setting up relu4_1
I0601 17:41:01.939785  8248 net.cpp:157] Top shape: 4 512 38 38 (2957312)
I0601 17:41:01.939790  8248 net.cpp:165] Memory required for data: 789893152
I0601 17:41:01.939793  8248 layer_factory.hpp:77] Creating layer conv4_2
I0601 17:41:01.939805  8248 net.cpp:100] Creating Layer conv4_2
I0601 17:41:01.939812  8248 net.cpp:434] conv4_2 <- conv4_1
I0601 17:41:01.939822  8248 net.cpp:408] conv4_2 -> conv4_2
I0601 17:41:01.952680  8248 net.cpp:150] Setting up conv4_2
I0601 17:41:01.952699  8248 net.cpp:157] Top shape: 4 512 38 38 (2957312)
I0601 17:41:01.952703  8248 net.cpp:165] Memory required for data: 801722400
I0601 17:41:01.952728  8248 layer_factory.hpp:77] Creating layer relu4_2
I0601 17:41:01.952733  8248 net.cpp:100] Creating Layer relu4_2
I0601 17:41:01.952738  8248 net.cpp:434] relu4_2 <- conv4_2
I0601 17:41:01.952744  8248 net.cpp:395] relu4_2 -> conv4_2 (in-place)
I0601 17:41:01.953822  8248 net.cpp:150] Setting up relu4_2
I0601 17:41:01.953837  8248 net.cpp:157] Top shape: 4 512 38 38 (2957312)
I0601 17:41:01.953842  8248 net.cpp:165] Memory required for data: 813551648
I0601 17:41:01.953847  8248 layer_factory.hpp:77] Creating layer conv4_3
I0601 17:41:01.953858  8248 net.cpp:100] Creating Layer conv4_3
I0601 17:41:01.953865  8248 net.cpp:434] conv4_3 <- conv4_2
I0601 17:41:01.953874  8248 net.cpp:408] conv4_3 -> conv4_3
I0601 17:41:01.967751  8248 net.cpp:150] Setting up conv4_3
I0601 17:41:01.967767  8248 net.cpp:157] Top shape: 4 512 38 38 (2957312)
I0601 17:41:01.967769  8248 net.cpp:165] Memory required for data: 825380896
I0601 17:41:01.967789  8248 layer_factory.hpp:77] Creating layer relu4_3
I0601 17:41:01.967797  8248 net.cpp:100] Creating Layer relu4_3
I0601 17:41:01.967799  8248 net.cpp:434] relu4_3 <- conv4_3
I0601 17:41:01.967805  8248 net.cpp:395] relu4_3 -> conv4_3 (in-place)
I0601 17:41:01.968082  8248 net.cpp:150] Setting up relu4_3
I0601 17:41:01.968096  8248 net.cpp:157] Top shape: 4 512 38 38 (2957312)
I0601 17:41:01.968101  8248 net.cpp:165] Memory required for data: 837210144
I0601 17:41:01.968104  8248 layer_factory.hpp:77] Creating layer conv4_3_relu4_3_0_split
I0601 17:41:01.968112  8248 net.cpp:100] Creating Layer conv4_3_relu4_3_0_split
I0601 17:41:01.968118  8248 net.cpp:434] conv4_3_relu4_3_0_split <- conv4_3
I0601 17:41:01.968127  8248 net.cpp:408] conv4_3_relu4_3_0_split -> conv4_3_relu4_3_0_split_0
I0601 17:41:01.968137  8248 net.cpp:408] conv4_3_relu4_3_0_split -> conv4_3_relu4_3_0_split_1
I0601 17:41:01.968196  8248 net.cpp:150] Setting up conv4_3_relu4_3_0_split
I0601 17:41:01.968204  8248 net.cpp:157] Top shape: 4 512 38 38 (2957312)
I0601 17:41:01.968209  8248 net.cpp:157] Top shape: 4 512 38 38 (2957312)
I0601 17:41:01.968214  8248 net.cpp:165] Memory required for data: 860868640
I0601 17:41:01.968219  8248 layer_factory.hpp:77] Creating layer pool4
I0601 17:41:01.968226  8248 net.cpp:100] Creating Layer pool4
I0601 17:41:01.968232  8248 net.cpp:434] pool4 <- conv4_3_relu4_3_0_split_0
I0601 17:41:01.968238  8248 net.cpp:408] pool4 -> pool4
I0601 17:41:01.968289  8248 net.cpp:150] Setting up pool4
I0601 17:41:01.968297  8248 net.cpp:157] Top shape: 4 512 19 19 (739328)
I0601 17:41:01.968302  8248 net.cpp:165] Memory required for data: 863825952
I0601 17:41:01.968318  8248 layer_factory.hpp:77] Creating layer conv5_1
I0601 17:41:01.968331  8248 net.cpp:100] Creating Layer conv5_1
I0601 17:41:01.968338  8248 net.cpp:434] conv5_1 <- pool4
I0601 17:41:01.968346  8248 net.cpp:408] conv5_1 -> conv5_1
I0601 17:41:01.981683  8248 net.cpp:150] Setting up conv5_1
I0601 17:41:01.981701  8248 net.cpp:157] Top shape: 4 512 19 19 (739328)
I0601 17:41:01.981703  8248 net.cpp:165] Memory required for data: 866783264
I0601 17:41:01.981711  8248 layer_factory.hpp:77] Creating layer relu5_1
I0601 17:41:01.981719  8248 net.cpp:100] Creating Layer relu5_1
I0601 17:41:01.981737  8248 net.cpp:434] relu5_1 <- conv5_1
I0601 17:41:01.981745  8248 net.cpp:395] relu5_1 -> conv5_1 (in-place)
I0601 17:41:01.981992  8248 net.cpp:150] Setting up relu5_1
I0601 17:41:01.982002  8248 net.cpp:157] Top shape: 4 512 19 19 (739328)
I0601 17:41:01.982007  8248 net.cpp:165] Memory required for data: 869740576
I0601 17:41:01.982010  8248 layer_factory.hpp:77] Creating layer conv5_2
I0601 17:41:01.982039  8248 net.cpp:100] Creating Layer conv5_2
I0601 17:41:01.982059  8248 net.cpp:434] conv5_2 <- conv5_1
I0601 17:41:01.982066  8248 net.cpp:408] conv5_2 -> conv5_2
I0601 17:41:01.997272  8248 net.cpp:150] Setting up conv5_2
I0601 17:41:01.997288  8248 net.cpp:157] Top shape: 4 512 19 19 (739328)
I0601 17:41:01.997290  8248 net.cpp:165] Memory required for data: 872697888
I0601 17:41:01.997298  8248 layer_factory.hpp:77] Creating layer relu5_2
I0601 17:41:01.997303  8248 net.cpp:100] Creating Layer relu5_2
I0601 17:41:01.997308  8248 net.cpp:434] relu5_2 <- conv5_2
I0601 17:41:01.997330  8248 net.cpp:395] relu5_2 -> conv5_2 (in-place)
I0601 17:41:01.997539  8248 net.cpp:150] Setting up relu5_2
I0601 17:41:01.997563  8248 net.cpp:157] Top shape: 4 512 19 19 (739328)
I0601 17:41:01.997568  8248 net.cpp:165] Memory required for data: 875655200
I0601 17:41:01.997575  8248 layer_factory.hpp:77] Creating layer conv5_3
I0601 17:41:01.997602  8248 net.cpp:100] Creating Layer conv5_3
I0601 17:41:01.997608  8248 net.cpp:434] conv5_3 <- conv5_2
I0601 17:41:01.997628  8248 net.cpp:408] conv5_3 -> conv5_3
I0601 17:41:02.017400  8248 net.cpp:150] Setting up conv5_3
I0601 17:41:02.017416  8248 net.cpp:157] Top shape: 4 512 19 19 (739328)
I0601 17:41:02.017418  8248 net.cpp:165] Memory required for data: 878612512
I0601 17:41:02.017441  8248 layer_factory.hpp:77] Creating layer relu5_3
I0601 17:41:02.017452  8248 net.cpp:100] Creating Layer relu5_3
I0601 17:41:02.017457  8248 net.cpp:434] relu5_3 <- conv5_3
I0601 17:41:02.017462  8248 net.cpp:395] relu5_3 -> conv5_3 (in-place)
I0601 17:41:02.017684  8248 net.cpp:150] Setting up relu5_3
I0601 17:41:02.017694  8248 net.cpp:157] Top shape: 4 512 19 19 (739328)
I0601 17:41:02.017699  8248 net.cpp:165] Memory required for data: 881569824
I0601 17:41:02.017702  8248 layer_factory.hpp:77] Creating layer pool5
I0601 17:41:02.017725  8248 net.cpp:100] Creating Layer pool5
I0601 17:41:02.017745  8248 net.cpp:434] pool5 <- conv5_3
I0601 17:41:02.017751  8248 net.cpp:408] pool5 -> pool5
I0601 17:41:02.017822  8248 net.cpp:150] Setting up pool5
I0601 17:41:02.017832  8248 net.cpp:157] Top shape: 4 512 19 19 (739328)
I0601 17:41:02.017835  8248 net.cpp:165] Memory required for data: 884527136
I0601 17:41:02.017838  8248 layer_factory.hpp:77] Creating layer fc6
I0601 17:41:02.017861  8248 net.cpp:100] Creating Layer fc6
I0601 17:41:02.017881  8248 net.cpp:434] fc6 <- pool5
I0601 17:41:02.017889  8248 net.cpp:408] fc6 -> fc6
I0601 17:41:02.041893  8248 net.cpp:150] Setting up fc6
I0601 17:41:02.041914  8248 net.cpp:157] Top shape: 4 1024 19 19 (1478656)
I0601 17:41:02.041918  8248 net.cpp:165] Memory required for data: 890441760
I0601 17:41:02.041925  8248 layer_factory.hpp:77] Creating layer relu6
I0601 17:41:02.041932  8248 net.cpp:100] Creating Layer relu6
I0601 17:41:02.041951  8248 net.cpp:434] relu6 <- fc6
I0601 17:41:02.041972  8248 net.cpp:395] relu6 -> fc6 (in-place)
I0601 17:41:02.043081  8248 net.cpp:150] Setting up relu6
I0601 17:41:02.043119  8248 net.cpp:157] Top shape: 4 1024 19 19 (1478656)
I0601 17:41:02.043154  8248 net.cpp:165] Memory required for data: 896356384
I0601 17:41:02.043159  8248 layer_factory.hpp:77] Creating layer fc7
I0601 17:41:02.043186  8248 net.cpp:100] Creating Layer fc7
I0601 17:41:02.043192  8248 net.cpp:434] fc7 <- fc6
I0601 17:41:02.043201  8248 net.cpp:408] fc7 -> fc7
I0601 17:41:02.050082  8248 net.cpp:150] Setting up fc7
I0601 17:41:02.050098  8248 net.cpp:157] Top shape: 4 1024 19 19 (1478656)
I0601 17:41:02.050101  8248 net.cpp:165] Memory required for data: 902271008
I0601 17:41:02.050107  8248 layer_factory.hpp:77] Creating layer relu7
I0601 17:41:02.050113  8248 net.cpp:100] Creating Layer relu7
I0601 17:41:02.050133  8248 net.cpp:434] relu7 <- fc7
I0601 17:41:02.050140  8248 net.cpp:395] relu7 -> fc7 (in-place)
I0601 17:41:02.050374  8248 net.cpp:150] Setting up relu7
I0601 17:41:02.050385  8248 net.cpp:157] Top shape: 4 1024 19 19 (1478656)
I0601 17:41:02.050390  8248 net.cpp:165] Memory required for data: 908185632
I0601 17:41:02.050395  8248 layer_factory.hpp:77] Creating layer fc7_relu7_0_split
I0601 17:41:02.050416  8248 net.cpp:100] Creating Layer fc7_relu7_0_split
I0601 17:41:02.050422  8248 net.cpp:434] fc7_relu7_0_split <- fc7
I0601 17:41:02.050446  8248 net.cpp:408] fc7_relu7_0_split -> fc7_relu7_0_split_0
I0601 17:41:02.050454  8248 net.cpp:408] fc7_relu7_0_split -> fc7_relu7_0_split_1
I0601 17:41:02.050469  8248 net.cpp:408] fc7_relu7_0_split -> fc7_relu7_0_split_2
I0601 17:41:02.050479  8248 net.cpp:408] fc7_relu7_0_split -> fc7_relu7_0_split_3
I0601 17:41:02.050570  8248 net.cpp:150] Setting up fc7_relu7_0_split
I0601 17:41:02.050578  8248 net.cpp:157] Top shape: 4 1024 19 19 (1478656)
I0601 17:41:02.050585  8248 net.cpp:157] Top shape: 4 1024 19 19 (1478656)
I0601 17:41:02.050590  8248 net.cpp:157] Top shape: 4 1024 19 19 (1478656)
I0601 17:41:02.050597  8248 net.cpp:157] Top shape: 4 1024 19 19 (1478656)
I0601 17:41:02.050601  8248 net.cpp:165] Memory required for data: 931844128
I0601 17:41:02.050606  8248 layer_factory.hpp:77] Creating layer conv6_1
I0601 17:41:02.050617  8248 net.cpp:100] Creating Layer conv6_1
I0601 17:41:02.050623  8248 net.cpp:434] conv6_1 <- fc7_relu7_0_split_0
I0601 17:41:02.050632  8248 net.cpp:408] conv6_1 -> conv6_1
I0601 17:41:02.054486  8248 net.cpp:150] Setting up conv6_1
I0601 17:41:02.054497  8248 net.cpp:157] Top shape: 4 256 19 19 (369664)
I0601 17:41:02.054500  8248 net.cpp:165] Memory required for data: 933322784
I0601 17:41:02.054507  8248 layer_factory.hpp:77] Creating layer conv6_1_relu
I0601 17:41:02.054517  8248 net.cpp:100] Creating Layer conv6_1_relu
I0601 17:41:02.054522  8248 net.cpp:434] conv6_1_relu <- conv6_1
I0601 17:41:02.054528  8248 net.cpp:395] conv6_1_relu -> conv6_1 (in-place)
I0601 17:41:02.054738  8248 net.cpp:150] Setting up conv6_1_relu
I0601 17:41:02.054751  8248 net.cpp:157] Top shape: 4 256 19 19 (369664)
I0601 17:41:02.054757  8248 net.cpp:165] Memory required for data: 934801440
I0601 17:41:02.054762  8248 layer_factory.hpp:77] Creating layer conv6_2
I0601 17:41:02.054774  8248 net.cpp:100] Creating Layer conv6_2
I0601 17:41:02.054780  8248 net.cpp:434] conv6_2 <- conv6_1
I0601 17:41:02.054787  8248 net.cpp:408] conv6_2 -> conv6_2
I0601 17:41:02.062147  8248 net.cpp:150] Setting up conv6_2
I0601 17:41:02.062165  8248 net.cpp:157] Top shape: 4 512 10 10 (204800)
I0601 17:41:02.062167  8248 net.cpp:165] Memory required for data: 935620640
I0601 17:41:02.062180  8248 layer_factory.hpp:77] Creating layer conv6_2_relu
I0601 17:41:02.062202  8248 net.cpp:100] Creating Layer conv6_2_relu
I0601 17:41:02.062207  8248 net.cpp:434] conv6_2_relu <- conv6_2
I0601 17:41:02.062213  8248 net.cpp:395] conv6_2_relu -> conv6_2 (in-place)
I0601 17:41:02.062417  8248 net.cpp:150] Setting up conv6_2_relu
I0601 17:41:02.062428  8248 net.cpp:157] Top shape: 4 512 10 10 (204800)
I0601 17:41:02.062433  8248 net.cpp:165] Memory required for data: 936439840
I0601 17:41:02.062438  8248 layer_factory.hpp:77] Creating layer conv6_2_conv6_2_relu_0_split
I0601 17:41:02.062446  8248 net.cpp:100] Creating Layer conv6_2_conv6_2_relu_0_split
I0601 17:41:02.062464  8248 net.cpp:434] conv6_2_conv6_2_relu_0_split <- conv6_2
I0601 17:41:02.062474  8248 net.cpp:408] conv6_2_conv6_2_relu_0_split -> conv6_2_conv6_2_relu_0_split_0
I0601 17:41:02.062484  8248 net.cpp:408] conv6_2_conv6_2_relu_0_split -> conv6_2_conv6_2_relu_0_split_1
I0601 17:41:02.062494  8248 net.cpp:408] conv6_2_conv6_2_relu_0_split -> conv6_2_conv6_2_relu_0_split_2
I0601 17:41:02.062502  8248 net.cpp:408] conv6_2_conv6_2_relu_0_split -> conv6_2_conv6_2_relu_0_split_3
I0601 17:41:02.062597  8248 net.cpp:150] Setting up conv6_2_conv6_2_relu_0_split
I0601 17:41:02.062607  8248 net.cpp:157] Top shape: 4 512 10 10 (204800)
I0601 17:41:02.062613  8248 net.cpp:157] Top shape: 4 512 10 10 (204800)
I0601 17:41:02.062618  8248 net.cpp:157] Top shape: 4 512 10 10 (204800)
I0601 17:41:02.062624  8248 net.cpp:157] Top shape: 4 512 10 10 (204800)
I0601 17:41:02.062628  8248 net.cpp:165] Memory required for data: 939716640
I0601 17:41:02.062633  8248 layer_factory.hpp:77] Creating layer conv7_1
I0601 17:41:02.062645  8248 net.cpp:100] Creating Layer conv7_1
I0601 17:41:02.062650  8248 net.cpp:434] conv7_1 <- conv6_2_conv6_2_relu_0_split_0
I0601 17:41:02.062660  8248 net.cpp:408] conv7_1 -> conv7_1
I0601 17:41:02.064760  8248 net.cpp:150] Setting up conv7_1
I0601 17:41:02.064774  8248 net.cpp:157] Top shape: 4 128 10 10 (51200)
I0601 17:41:02.064776  8248 net.cpp:165] Memory required for data: 939921440
I0601 17:41:02.064782  8248 layer_factory.hpp:77] Creating layer conv7_1_relu
I0601 17:41:02.064788  8248 net.cpp:100] Creating Layer conv7_1_relu
I0601 17:41:02.064795  8248 net.cpp:434] conv7_1_relu <- conv7_1
I0601 17:41:02.064801  8248 net.cpp:395] conv7_1_relu -> conv7_1 (in-place)
I0601 17:41:02.065037  8248 net.cpp:150] Setting up conv7_1_relu
I0601 17:41:02.065048  8248 net.cpp:157] Top shape: 4 128 10 10 (51200)
I0601 17:41:02.065054  8248 net.cpp:165] Memory required for data: 940126240
I0601 17:41:02.065059  8248 layer_factory.hpp:77] Creating layer conv7_2
I0601 17:41:02.065086  8248 net.cpp:100] Creating Layer conv7_2
I0601 17:41:02.065093  8248 net.cpp:434] conv7_2 <- conv7_1
I0601 17:41:02.065101  8248 net.cpp:408] conv7_2 -> conv7_2
I0601 17:41:02.068651  8248 net.cpp:150] Setting up conv7_2
I0601 17:41:02.068670  8248 net.cpp:157] Top shape: 4 256 5 5 (25600)
I0601 17:41:02.068672  8248 net.cpp:165] Memory required for data: 940228640
I0601 17:41:02.068681  8248 layer_factory.hpp:77] Creating layer conv7_2_relu
I0601 17:41:02.068687  8248 net.cpp:100] Creating Layer conv7_2_relu
I0601 17:41:02.068694  8248 net.cpp:434] conv7_2_relu <- conv7_2
I0601 17:41:02.068702  8248 net.cpp:395] conv7_2_relu -> conv7_2 (in-place)
I0601 17:41:02.068907  8248 net.cpp:150] Setting up conv7_2_relu
I0601 17:41:02.068919  8248 net.cpp:157] Top shape: 4 256 5 5 (25600)
I0601 17:41:02.068924  8248 net.cpp:165] Memory required for data: 940331040
I0601 17:41:02.068928  8248 layer_factory.hpp:77] Creating layer conv7_2_conv7_2_relu_0_split
I0601 17:41:02.068951  8248 net.cpp:100] Creating Layer conv7_2_conv7_2_relu_0_split
I0601 17:41:02.068958  8248 net.cpp:434] conv7_2_conv7_2_relu_0_split <- conv7_2
I0601 17:41:02.068965  8248 net.cpp:408] conv7_2_conv7_2_relu_0_split -> conv7_2_conv7_2_relu_0_split_0
I0601 17:41:02.068976  8248 net.cpp:408] conv7_2_conv7_2_relu_0_split -> conv7_2_conv7_2_relu_0_split_1
I0601 17:41:02.068986  8248 net.cpp:408] conv7_2_conv7_2_relu_0_split -> conv7_2_conv7_2_relu_0_split_2
I0601 17:41:02.068994  8248 net.cpp:408] conv7_2_conv7_2_relu_0_split -> conv7_2_conv7_2_relu_0_split_3
I0601 17:41:02.069087  8248 net.cpp:150] Setting up conv7_2_conv7_2_relu_0_split
I0601 17:41:02.069095  8248 net.cpp:157] Top shape: 4 256 5 5 (25600)
I0601 17:41:02.069103  8248 net.cpp:157] Top shape: 4 256 5 5 (25600)
I0601 17:41:02.069108  8248 net.cpp:157] Top shape: 4 256 5 5 (25600)
I0601 17:41:02.069113  8248 net.cpp:157] Top shape: 4 256 5 5 (25600)
I0601 17:41:02.069118  8248 net.cpp:165] Memory required for data: 940740640
I0601 17:41:02.069123  8248 layer_factory.hpp:77] Creating layer conv8_1
I0601 17:41:02.069149  8248 net.cpp:100] Creating Layer conv8_1
I0601 17:41:02.069156  8248 net.cpp:434] conv8_1 <- conv7_2_conv7_2_relu_0_split_0
I0601 17:41:02.069165  8248 net.cpp:408] conv8_1 -> conv8_1
I0601 17:41:02.070780  8248 net.cpp:150] Setting up conv8_1
I0601 17:41:02.070791  8248 net.cpp:157] Top shape: 4 128 5 5 (12800)
I0601 17:41:02.070796  8248 net.cpp:165] Memory required for data: 940791840
I0601 17:41:02.070802  8248 layer_factory.hpp:77] Creating layer conv8_1_relu
I0601 17:41:02.070811  8248 net.cpp:100] Creating Layer conv8_1_relu
I0601 17:41:02.070816  8248 net.cpp:434] conv8_1_relu <- conv8_1
I0601 17:41:02.070822  8248 net.cpp:395] conv8_1_relu -> conv8_1 (in-place)
I0601 17:41:02.071660  8248 net.cpp:150] Setting up conv8_1_relu
I0601 17:41:02.071673  8248 net.cpp:157] Top shape: 4 128 5 5 (12800)
I0601 17:41:02.071679  8248 net.cpp:165] Memory required for data: 940843040
I0601 17:41:02.071684  8248 layer_factory.hpp:77] Creating layer conv8_2
I0601 17:41:02.071697  8248 net.cpp:100] Creating Layer conv8_2
I0601 17:41:02.071703  8248 net.cpp:434] conv8_2 <- conv8_1
I0601 17:41:02.071714  8248 net.cpp:408] conv8_2 -> conv8_2
I0601 17:41:02.075037  8248 net.cpp:150] Setting up conv8_2
I0601 17:41:02.075048  8248 net.cpp:157] Top shape: 4 256 3 3 (9216)
I0601 17:41:02.075052  8248 net.cpp:165] Memory required for data: 940879904
I0601 17:41:02.075058  8248 layer_factory.hpp:77] Creating layer conv8_2_relu
I0601 17:41:02.075065  8248 net.cpp:100] Creating Layer conv8_2_relu
I0601 17:41:02.075072  8248 net.cpp:434] conv8_2_relu <- conv8_2
I0601 17:41:02.075079  8248 net.cpp:395] conv8_2_relu -> conv8_2 (in-place)
I0601 17:41:02.075283  8248 net.cpp:150] Setting up conv8_2_relu
I0601 17:41:02.075294  8248 net.cpp:157] Top shape: 4 256 3 3 (9216)
I0601 17:41:02.075299  8248 net.cpp:165] Memory required for data: 940916768
I0601 17:41:02.075304  8248 layer_factory.hpp:77] Creating layer conv8_2_conv8_2_relu_0_split
I0601 17:41:02.075312  8248 net.cpp:100] Creating Layer conv8_2_conv8_2_relu_0_split
I0601 17:41:02.075318  8248 net.cpp:434] conv8_2_conv8_2_relu_0_split <- conv8_2
I0601 17:41:02.075325  8248 net.cpp:408] conv8_2_conv8_2_relu_0_split -> conv8_2_conv8_2_relu_0_split_0
I0601 17:41:02.075335  8248 net.cpp:408] conv8_2_conv8_2_relu_0_split -> conv8_2_conv8_2_relu_0_split_1
I0601 17:41:02.075345  8248 net.cpp:408] conv8_2_conv8_2_relu_0_split -> conv8_2_conv8_2_relu_0_split_2
I0601 17:41:02.075353  8248 net.cpp:408] conv8_2_conv8_2_relu_0_split -> conv8_2_conv8_2_relu_0_split_3
I0601 17:41:02.075449  8248 net.cpp:150] Setting up conv8_2_conv8_2_relu_0_split
I0601 17:41:02.075459  8248 net.cpp:157] Top shape: 4 256 3 3 (9216)
I0601 17:41:02.075466  8248 net.cpp:157] Top shape: 4 256 3 3 (9216)
I0601 17:41:02.075472  8248 net.cpp:157] Top shape: 4 256 3 3 (9216)
I0601 17:41:02.075477  8248 net.cpp:157] Top shape: 4 256 3 3 (9216)
I0601 17:41:02.075480  8248 net.cpp:165] Memory required for data: 941064224
I0601 17:41:02.075485  8248 layer_factory.hpp:77] Creating layer conv9_1
I0601 17:41:02.075495  8248 net.cpp:100] Creating Layer conv9_1
I0601 17:41:02.075501  8248 net.cpp:434] conv9_1 <- conv8_2_conv8_2_relu_0_split_0
I0601 17:41:02.075510  8248 net.cpp:408] conv9_1 -> conv9_1
I0601 17:41:02.077296  8248 net.cpp:150] Setting up conv9_1
I0601 17:41:02.077306  8248 net.cpp:157] Top shape: 4 128 3 3 (4608)
I0601 17:41:02.077309  8248 net.cpp:165] Memory required for data: 941082656
I0601 17:41:02.077316  8248 layer_factory.hpp:77] Creating layer conv9_1_relu
I0601 17:41:02.077323  8248 net.cpp:100] Creating Layer conv9_1_relu
I0601 17:41:02.077328  8248 net.cpp:434] conv9_1_relu <- conv9_1
I0601 17:41:02.077335  8248 net.cpp:395] conv9_1_relu -> conv9_1 (in-place)
I0601 17:41:02.077535  8248 net.cpp:150] Setting up conv9_1_relu
I0601 17:41:02.077548  8248 net.cpp:157] Top shape: 4 128 3 3 (4608)
I0601 17:41:02.077553  8248 net.cpp:165] Memory required for data: 941101088
I0601 17:41:02.077558  8248 layer_factory.hpp:77] Creating layer conv9_2
I0601 17:41:02.077584  8248 net.cpp:100] Creating Layer conv9_2
I0601 17:41:02.077590  8248 net.cpp:434] conv9_2 <- conv9_1
I0601 17:41:02.077600  8248 net.cpp:408] conv9_2 -> conv9_2
I0601 17:41:02.080873  8248 net.cpp:150] Setting up conv9_2
I0601 17:41:02.080885  8248 net.cpp:157] Top shape: 4 256 1 1 (1024)
I0601 17:41:02.080888  8248 net.cpp:165] Memory required for data: 941105184
I0601 17:41:02.080894  8248 layer_factory.hpp:77] Creating layer conv9_2_relu
I0601 17:41:02.080904  8248 net.cpp:100] Creating Layer conv9_2_relu
I0601 17:41:02.080909  8248 net.cpp:434] conv9_2_relu <- conv9_2
I0601 17:41:02.080916  8248 net.cpp:395] conv9_2_relu -> conv9_2 (in-place)
I0601 17:41:02.081128  8248 net.cpp:150] Setting up conv9_2_relu
I0601 17:41:02.081140  8248 net.cpp:157] Top shape: 4 256 1 1 (1024)
I0601 17:41:02.081163  8248 net.cpp:165] Memory required for data: 941109280
I0601 17:41:02.081168  8248 layer_factory.hpp:77] Creating layer conv9_2_conv9_2_relu_0_split
I0601 17:41:02.081174  8248 net.cpp:100] Creating Layer conv9_2_conv9_2_relu_0_split
I0601 17:41:02.081181  8248 net.cpp:434] conv9_2_conv9_2_relu_0_split <- conv9_2
I0601 17:41:02.081188  8248 net.cpp:408] conv9_2_conv9_2_relu_0_split -> conv9_2_conv9_2_relu_0_split_0
I0601 17:41:02.081199  8248 net.cpp:408] conv9_2_conv9_2_relu_0_split -> conv9_2_conv9_2_relu_0_split_1
I0601 17:41:02.081221  8248 net.cpp:408] conv9_2_conv9_2_relu_0_split -> conv9_2_conv9_2_relu_0_split_2
I0601 17:41:02.081310  8248 net.cpp:150] Setting up conv9_2_conv9_2_relu_0_split
I0601 17:41:02.081318  8248 net.cpp:157] Top shape: 4 256 1 1 (1024)
I0601 17:41:02.081324  8248 net.cpp:157] Top shape: 4 256 1 1 (1024)
I0601 17:41:02.081344  8248 net.cpp:157] Top shape: 4 256 1 1 (1024)
I0601 17:41:02.081349  8248 net.cpp:165] Memory required for data: 941121568
I0601 17:41:02.081352  8248 layer_factory.hpp:77] Creating layer conv4_3_norm
I0601 17:41:02.081362  8248 net.cpp:100] Creating Layer conv4_3_norm
I0601 17:41:02.081367  8248 net.cpp:434] conv4_3_norm <- conv4_3_relu4_3_0_split_1
I0601 17:41:02.081377  8248 net.cpp:408] conv4_3_norm -> conv4_3_norm
I0601 17:41:02.081677  8248 net.cpp:150] Setting up conv4_3_norm
I0601 17:41:02.081701  8248 net.cpp:157] Top shape: 4 512 38 38 (2957312)
I0601 17:41:02.081707  8248 net.cpp:165] Memory required for data: 952950816
I0601 17:41:02.081725  8248 layer_factory.hpp:77] Creating layer conv4_3_norm_conv4_3_norm_0_split
I0601 17:41:02.081732  8248 net.cpp:100] Creating Layer conv4_3_norm_conv4_3_norm_0_split
I0601 17:41:02.081737  8248 net.cpp:434] conv4_3_norm_conv4_3_norm_0_split <- conv4_3_norm
I0601 17:41:02.081746  8248 net.cpp:408] conv4_3_norm_conv4_3_norm_0_split -> conv4_3_norm_conv4_3_norm_0_split_0
I0601 17:41:02.081756  8248 net.cpp:408] conv4_3_norm_conv4_3_norm_0_split -> conv4_3_norm_conv4_3_norm_0_split_1
I0601 17:41:02.081764  8248 net.cpp:408] conv4_3_norm_conv4_3_norm_0_split -> conv4_3_norm_conv4_3_norm_0_split_2
I0601 17:41:02.081843  8248 net.cpp:150] Setting up conv4_3_norm_conv4_3_norm_0_split
I0601 17:41:02.081852  8248 net.cpp:157] Top shape: 4 512 38 38 (2957312)
I0601 17:41:02.081858  8248 net.cpp:157] Top shape: 4 512 38 38 (2957312)
I0601 17:41:02.081864  8248 net.cpp:157] Top shape: 4 512 38 38 (2957312)
I0601 17:41:02.081868  8248 net.cpp:165] Memory required for data: 988438560
I0601 17:41:02.081873  8248 layer_factory.hpp:77] Creating layer conv4_3_norm_mbox_loc
I0601 17:41:02.081887  8248 net.cpp:100] Creating Layer conv4_3_norm_mbox_loc
I0601 17:41:02.081892  8248 net.cpp:434] conv4_3_norm_mbox_loc <- conv4_3_norm_conv4_3_norm_0_split_0
I0601 17:41:02.081900  8248 net.cpp:408] conv4_3_norm_mbox_loc -> conv4_3_norm_mbox_loc
I0601 17:41:02.084213  8248 net.cpp:150] Setting up conv4_3_norm_mbox_loc
I0601 17:41:02.084224  8248 net.cpp:157] Top shape: 4 16 38 38 (92416)
I0601 17:41:02.084228  8248 net.cpp:165] Memory required for data: 988808224
I0601 17:41:02.084233  8248 layer_factory.hpp:77] Creating layer conv4_3_norm_mbox_loc_perm
I0601 17:41:02.084241  8248 net.cpp:100] Creating Layer conv4_3_norm_mbox_loc_perm
I0601 17:41:02.084264  8248 net.cpp:434] conv4_3_norm_mbox_loc_perm <- conv4_3_norm_mbox_loc
I0601 17:41:02.084271  8248 net.cpp:408] conv4_3_norm_mbox_loc_perm -> conv4_3_norm_mbox_loc_perm
I0601 17:41:02.084424  8248 net.cpp:150] Setting up conv4_3_norm_mbox_loc_perm
I0601 17:41:02.084435  8248 net.cpp:157] Top shape: 4 38 38 16 (92416)
I0601 17:41:02.084440  8248 net.cpp:165] Memory required for data: 989177888
I0601 17:41:02.084445  8248 layer_factory.hpp:77] Creating layer conv4_3_norm_mbox_loc_flat
I0601 17:41:02.084453  8248 net.cpp:100] Creating Layer conv4_3_norm_mbox_loc_flat
I0601 17:41:02.084460  8248 net.cpp:434] conv4_3_norm_mbox_loc_flat <- conv4_3_norm_mbox_loc_perm
I0601 17:41:02.084466  8248 net.cpp:408] conv4_3_norm_mbox_loc_flat -> conv4_3_norm_mbox_loc_flat
I0601 17:41:02.084511  8248 net.cpp:150] Setting up conv4_3_norm_mbox_loc_flat
I0601 17:41:02.084519  8248 net.cpp:157] Top shape: 4 23104 (92416)
I0601 17:41:02.084524  8248 net.cpp:165] Memory required for data: 989547552
I0601 17:41:02.084528  8248 layer_factory.hpp:77] Creating layer conv4_3_norm_mbox_conf
I0601 17:41:02.084547  8248 net.cpp:100] Creating Layer conv4_3_norm_mbox_conf
I0601 17:41:02.084553  8248 net.cpp:434] conv4_3_norm_mbox_conf <- conv4_3_norm_conv4_3_norm_0_split_1
I0601 17:41:02.084561  8248 net.cpp:408] conv4_3_norm_mbox_conf -> conv4_3_norm_mbox_conf
I0601 17:41:02.086840  8248 net.cpp:150] Setting up conv4_3_norm_mbox_conf
I0601 17:41:02.086851  8248 net.cpp:157] Top shape: 4 16 38 38 (92416)
I0601 17:41:02.086855  8248 net.cpp:165] Memory required for data: 989917216
I0601 17:41:02.086863  8248 layer_factory.hpp:77] Creating layer conv4_3_norm_mbox_conf_perm
I0601 17:41:02.086872  8248 net.cpp:100] Creating Layer conv4_3_norm_mbox_conf_perm
I0601 17:41:02.086879  8248 net.cpp:434] conv4_3_norm_mbox_conf_perm <- conv4_3_norm_mbox_conf
I0601 17:41:02.086887  8248 net.cpp:408] conv4_3_norm_mbox_conf_perm -> conv4_3_norm_mbox_conf_perm
I0601 17:41:02.087040  8248 net.cpp:150] Setting up conv4_3_norm_mbox_conf_perm
I0601 17:41:02.087051  8248 net.cpp:157] Top shape: 4 38 38 16 (92416)
I0601 17:41:02.087056  8248 net.cpp:165] Memory required for data: 990286880
I0601 17:41:02.087060  8248 layer_factory.hpp:77] Creating layer conv4_3_norm_mbox_conf_flat
I0601 17:41:02.087066  8248 net.cpp:100] Creating Layer conv4_3_norm_mbox_conf_flat
I0601 17:41:02.087072  8248 net.cpp:434] conv4_3_norm_mbox_conf_flat <- conv4_3_norm_mbox_conf_perm
I0601 17:41:02.087080  8248 net.cpp:408] conv4_3_norm_mbox_conf_flat -> conv4_3_norm_mbox_conf_flat
I0601 17:41:02.087113  8248 net.cpp:150] Setting up conv4_3_norm_mbox_conf_flat
I0601 17:41:02.087121  8248 net.cpp:157] Top shape: 4 23104 (92416)
I0601 17:41:02.087126  8248 net.cpp:165] Memory required for data: 990656544
I0601 17:41:02.087129  8248 layer_factory.hpp:77] Creating layer conv4_3_norm_mbox_priorbox
I0601 17:41:02.087138  8248 net.cpp:100] Creating Layer conv4_3_norm_mbox_priorbox
I0601 17:41:02.087143  8248 net.cpp:434] conv4_3_norm_mbox_priorbox <- conv4_3_norm_conv4_3_norm_0_split_2
I0601 17:41:02.087152  8248 net.cpp:434] conv4_3_norm_mbox_priorbox <- data_data_0_split_1
I0601 17:41:02.087160  8248 net.cpp:408] conv4_3_norm_mbox_priorbox -> conv4_3_norm_mbox_priorbox
I0601 17:41:02.087195  8248 net.cpp:150] Setting up conv4_3_norm_mbox_priorbox
I0601 17:41:02.087203  8248 net.cpp:157] Top shape: 1 2 23104 (46208)
I0601 17:41:02.087208  8248 net.cpp:165] Memory required for data: 990841376
I0601 17:41:02.087213  8248 layer_factory.hpp:77] Creating layer fc7_mbox_loc
I0601 17:41:02.087222  8248 net.cpp:100] Creating Layer fc7_mbox_loc
I0601 17:41:02.087229  8248 net.cpp:434] fc7_mbox_loc <- fc7_relu7_0_split_1
I0601 17:41:02.087236  8248 net.cpp:408] fc7_mbox_loc -> fc7_mbox_loc
I0601 17:41:02.090375  8248 net.cpp:150] Setting up fc7_mbox_loc
I0601 17:41:02.090386  8248 net.cpp:157] Top shape: 4 24 19 19 (34656)
I0601 17:41:02.090389  8248 net.cpp:165] Memory required for data: 990980000
I0601 17:41:02.090395  8248 layer_factory.hpp:77] Creating layer fc7_mbox_loc_perm
I0601 17:41:02.090405  8248 net.cpp:100] Creating Layer fc7_mbox_loc_perm
I0601 17:41:02.090421  8248 net.cpp:434] fc7_mbox_loc_perm <- fc7_mbox_loc
I0601 17:41:02.090431  8248 net.cpp:408] fc7_mbox_loc_perm -> fc7_mbox_loc_perm
I0601 17:41:02.090586  8248 net.cpp:150] Setting up fc7_mbox_loc_perm
I0601 17:41:02.090596  8248 net.cpp:157] Top shape: 4 19 19 24 (34656)
I0601 17:41:02.090603  8248 net.cpp:165] Memory required for data: 991118624
I0601 17:41:02.090607  8248 layer_factory.hpp:77] Creating layer fc7_mbox_loc_flat
I0601 17:41:02.090615  8248 net.cpp:100] Creating Layer fc7_mbox_loc_flat
I0601 17:41:02.090620  8248 net.cpp:434] fc7_mbox_loc_flat <- fc7_mbox_loc_perm
I0601 17:41:02.090628  8248 net.cpp:408] fc7_mbox_loc_flat -> fc7_mbox_loc_flat
I0601 17:41:02.090662  8248 net.cpp:150] Setting up fc7_mbox_loc_flat
I0601 17:41:02.090670  8248 net.cpp:157] Top shape: 4 8664 (34656)
I0601 17:41:02.090675  8248 net.cpp:165] Memory required for data: 991257248
I0601 17:41:02.090678  8248 layer_factory.hpp:77] Creating layer fc7_mbox_conf
I0601 17:41:02.090690  8248 net.cpp:100] Creating Layer fc7_mbox_conf
I0601 17:41:02.090698  8248 net.cpp:434] fc7_mbox_conf <- fc7_relu7_0_split_2
I0601 17:41:02.090706  8248 net.cpp:408] fc7_mbox_conf -> fc7_mbox_conf
I0601 17:41:02.093646  8248 net.cpp:150] Setting up fc7_mbox_conf
I0601 17:41:02.093658  8248 net.cpp:157] Top shape: 4 24 19 19 (34656)
I0601 17:41:02.093662  8248 net.cpp:165] Memory required for data: 991395872
I0601 17:41:02.093667  8248 layer_factory.hpp:77] Creating layer fc7_mbox_conf_perm
I0601 17:41:02.093673  8248 net.cpp:100] Creating Layer fc7_mbox_conf_perm
I0601 17:41:02.093679  8248 net.cpp:434] fc7_mbox_conf_perm <- fc7_mbox_conf
I0601 17:41:02.093688  8248 net.cpp:408] fc7_mbox_conf_perm -> fc7_mbox_conf_perm
I0601 17:41:02.093863  8248 net.cpp:150] Setting up fc7_mbox_conf_perm
I0601 17:41:02.093873  8248 net.cpp:157] Top shape: 4 19 19 24 (34656)
I0601 17:41:02.093878  8248 net.cpp:165] Memory required for data: 991534496
I0601 17:41:02.093883  8248 layer_factory.hpp:77] Creating layer fc7_mbox_conf_flat
I0601 17:41:02.093890  8248 net.cpp:100] Creating Layer fc7_mbox_conf_flat
I0601 17:41:02.093896  8248 net.cpp:434] fc7_mbox_conf_flat <- fc7_mbox_conf_perm
I0601 17:41:02.093902  8248 net.cpp:408] fc7_mbox_conf_flat -> fc7_mbox_conf_flat
I0601 17:41:02.093963  8248 net.cpp:150] Setting up fc7_mbox_conf_flat
I0601 17:41:02.093971  8248 net.cpp:157] Top shape: 4 8664 (34656)
I0601 17:41:02.093976  8248 net.cpp:165] Memory required for data: 991673120
I0601 17:41:02.093979  8248 layer_factory.hpp:77] Creating layer fc7_mbox_priorbox
I0601 17:41:02.094003  8248 net.cpp:100] Creating Layer fc7_mbox_priorbox
I0601 17:41:02.094008  8248 net.cpp:434] fc7_mbox_priorbox <- fc7_relu7_0_split_3
I0601 17:41:02.094014  8248 net.cpp:434] fc7_mbox_priorbox <- data_data_0_split_2
I0601 17:41:02.094022  8248 net.cpp:408] fc7_mbox_priorbox -> fc7_mbox_priorbox
I0601 17:41:02.094059  8248 net.cpp:150] Setting up fc7_mbox_priorbox
I0601 17:41:02.094066  8248 net.cpp:157] Top shape: 1 2 8664 (17328)
I0601 17:41:02.094071  8248 net.cpp:165] Memory required for data: 991742432
I0601 17:41:02.094074  8248 layer_factory.hpp:77] Creating layer conv6_2_mbox_loc
I0601 17:41:02.094089  8248 net.cpp:100] Creating Layer conv6_2_mbox_loc
I0601 17:41:02.094094  8248 net.cpp:434] conv6_2_mbox_loc <- conv6_2_conv6_2_relu_0_split_1
I0601 17:41:02.094105  8248 net.cpp:408] conv6_2_mbox_loc -> conv6_2_mbox_loc
I0601 17:41:02.096689  8248 net.cpp:150] Setting up conv6_2_mbox_loc
I0601 17:41:02.096701  8248 net.cpp:157] Top shape: 4 24 10 10 (9600)
I0601 17:41:02.096704  8248 net.cpp:165] Memory required for data: 991780832
I0601 17:41:02.096709  8248 layer_factory.hpp:77] Creating layer conv6_2_mbox_loc_perm
I0601 17:41:02.096717  8248 net.cpp:100] Creating Layer conv6_2_mbox_loc_perm
I0601 17:41:02.096722  8248 net.cpp:434] conv6_2_mbox_loc_perm <- conv6_2_mbox_loc
I0601 17:41:02.096732  8248 net.cpp:408] conv6_2_mbox_loc_perm -> conv6_2_mbox_loc_perm
I0601 17:41:02.096890  8248 net.cpp:150] Setting up conv6_2_mbox_loc_perm
I0601 17:41:02.096913  8248 net.cpp:157] Top shape: 4 10 10 24 (9600)
I0601 17:41:02.096920  8248 net.cpp:165] Memory required for data: 991819232
I0601 17:41:02.096925  8248 layer_factory.hpp:77] Creating layer conv6_2_mbox_loc_flat
I0601 17:41:02.096931  8248 net.cpp:100] Creating Layer conv6_2_mbox_loc_flat
I0601 17:41:02.096937  8248 net.cpp:434] conv6_2_mbox_loc_flat <- conv6_2_mbox_loc_perm
I0601 17:41:02.096943  8248 net.cpp:408] conv6_2_mbox_loc_flat -> conv6_2_mbox_loc_flat
I0601 17:41:02.096978  8248 net.cpp:150] Setting up conv6_2_mbox_loc_flat
I0601 17:41:02.096987  8248 net.cpp:157] Top shape: 4 2400 (9600)
I0601 17:41:02.096992  8248 net.cpp:165] Memory required for data: 991857632
I0601 17:41:02.096994  8248 layer_factory.hpp:77] Creating layer conv6_2_mbox_conf
I0601 17:41:02.097009  8248 net.cpp:100] Creating Layer conv6_2_mbox_conf
I0601 17:41:02.097015  8248 net.cpp:434] conv6_2_mbox_conf <- conv6_2_conv6_2_relu_0_split_2
I0601 17:41:02.097023  8248 net.cpp:408] conv6_2_mbox_conf -> conv6_2_mbox_conf
I0601 17:41:02.099771  8248 net.cpp:150] Setting up conv6_2_mbox_conf
I0601 17:41:02.099788  8248 net.cpp:157] Top shape: 4 24 10 10 (9600)
I0601 17:41:02.099791  8248 net.cpp:165] Memory required for data: 991896032
I0601 17:41:02.099798  8248 layer_factory.hpp:77] Creating layer conv6_2_mbox_conf_perm
I0601 17:41:02.099807  8248 net.cpp:100] Creating Layer conv6_2_mbox_conf_perm
I0601 17:41:02.099876  8248 net.cpp:434] conv6_2_mbox_conf_perm <- conv6_2_mbox_conf
I0601 17:41:02.099889  8248 net.cpp:408] conv6_2_mbox_conf_perm -> conv6_2_mbox_conf_perm
I0601 17:41:02.100113  8248 net.cpp:150] Setting up conv6_2_mbox_conf_perm
I0601 17:41:02.100126  8248 net.cpp:157] Top shape: 4 10 10 24 (9600)
I0601 17:41:02.100131  8248 net.cpp:165] Memory required for data: 991934432
I0601 17:41:02.100149  8248 layer_factory.hpp:77] Creating layer conv6_2_mbox_conf_flat
I0601 17:41:02.100155  8248 net.cpp:100] Creating Layer conv6_2_mbox_conf_flat
I0601 17:41:02.100174  8248 net.cpp:434] conv6_2_mbox_conf_flat <- conv6_2_mbox_conf_perm
I0601 17:41:02.100179  8248 net.cpp:408] conv6_2_mbox_conf_flat -> conv6_2_mbox_conf_flat
I0601 17:41:02.100215  8248 net.cpp:150] Setting up conv6_2_mbox_conf_flat
I0601 17:41:02.100225  8248 net.cpp:157] Top shape: 4 2400 (9600)
I0601 17:41:02.100229  8248 net.cpp:165] Memory required for data: 991972832
I0601 17:41:02.100234  8248 layer_factory.hpp:77] Creating layer conv6_2_mbox_priorbox
I0601 17:41:02.100253  8248 net.cpp:100] Creating Layer conv6_2_mbox_priorbox
I0601 17:41:02.100257  8248 net.cpp:434] conv6_2_mbox_priorbox <- conv6_2_conv6_2_relu_0_split_3
I0601 17:41:02.100277  8248 net.cpp:434] conv6_2_mbox_priorbox <- data_data_0_split_3
I0601 17:41:02.100286  8248 net.cpp:408] conv6_2_mbox_priorbox -> conv6_2_mbox_priorbox
I0601 17:41:02.100380  8248 net.cpp:150] Setting up conv6_2_mbox_priorbox
I0601 17:41:02.100404  8248 net.cpp:157] Top shape: 1 2 2400 (4800)
I0601 17:41:02.100407  8248 net.cpp:165] Memory required for data: 991992032
I0601 17:41:02.100425  8248 layer_factory.hpp:77] Creating layer conv7_2_mbox_loc
I0601 17:41:02.100450  8248 net.cpp:100] Creating Layer conv7_2_mbox_loc
I0601 17:41:02.100456  8248 net.cpp:434] conv7_2_mbox_loc <- conv7_2_conv7_2_relu_0_split_1
I0601 17:41:02.100481  8248 net.cpp:408] conv7_2_mbox_loc -> conv7_2_mbox_loc
I0601 17:41:02.102520  8248 net.cpp:150] Setting up conv7_2_mbox_loc
I0601 17:41:02.102530  8248 net.cpp:157] Top shape: 4 24 5 5 (2400)
I0601 17:41:02.102532  8248 net.cpp:165] Memory required for data: 992001632
I0601 17:41:02.102540  8248 layer_factory.hpp:77] Creating layer conv7_2_mbox_loc_perm
I0601 17:41:02.102547  8248 net.cpp:100] Creating Layer conv7_2_mbox_loc_perm
I0601 17:41:02.102553  8248 net.cpp:434] conv7_2_mbox_loc_perm <- conv7_2_mbox_loc
I0601 17:41:02.102562  8248 net.cpp:408] conv7_2_mbox_loc_perm -> conv7_2_mbox_loc_perm
I0601 17:41:02.102699  8248 net.cpp:150] Setting up conv7_2_mbox_loc_perm
I0601 17:41:02.102707  8248 net.cpp:157] Top shape: 4 5 5 24 (2400)
I0601 17:41:02.102712  8248 net.cpp:165] Memory required for data: 992011232
I0601 17:41:02.102727  8248 layer_factory.hpp:77] Creating layer conv7_2_mbox_loc_flat
I0601 17:41:02.102735  8248 net.cpp:100] Creating Layer conv7_2_mbox_loc_flat
I0601 17:41:02.102740  8248 net.cpp:434] conv7_2_mbox_loc_flat <- conv7_2_mbox_loc_perm
I0601 17:41:02.102747  8248 net.cpp:408] conv7_2_mbox_loc_flat -> conv7_2_mbox_loc_flat
I0601 17:41:02.102778  8248 net.cpp:150] Setting up conv7_2_mbox_loc_flat
I0601 17:41:02.102785  8248 net.cpp:157] Top shape: 4 600 (2400)
I0601 17:41:02.102788  8248 net.cpp:165] Memory required for data: 992020832
I0601 17:41:02.102792  8248 layer_factory.hpp:77] Creating layer conv7_2_mbox_conf
I0601 17:41:02.102800  8248 net.cpp:100] Creating Layer conv7_2_mbox_conf
I0601 17:41:02.102804  8248 net.cpp:434] conv7_2_mbox_conf <- conv7_2_conv7_2_relu_0_split_2
I0601 17:41:02.102813  8248 net.cpp:408] conv7_2_mbox_conf -> conv7_2_mbox_conf
I0601 17:41:02.105242  8248 net.cpp:150] Setting up conv7_2_mbox_conf
I0601 17:41:02.105252  8248 net.cpp:157] Top shape: 4 24 5 5 (2400)
I0601 17:41:02.105254  8248 net.cpp:165] Memory required for data: 992030432
I0601 17:41:02.105262  8248 layer_factory.hpp:77] Creating layer conv7_2_mbox_conf_perm
I0601 17:41:02.105270  8248 net.cpp:100] Creating Layer conv7_2_mbox_conf_perm
I0601 17:41:02.105289  8248 net.cpp:434] conv7_2_mbox_conf_perm <- conv7_2_mbox_conf
I0601 17:41:02.105298  8248 net.cpp:408] conv7_2_mbox_conf_perm -> conv7_2_mbox_conf_perm
I0601 17:41:02.105456  8248 net.cpp:150] Setting up conv7_2_mbox_conf_perm
I0601 17:41:02.105466  8248 net.cpp:157] Top shape: 4 5 5 24 (2400)
I0601 17:41:02.105471  8248 net.cpp:165] Memory required for data: 992040032
I0601 17:41:02.105475  8248 layer_factory.hpp:77] Creating layer conv7_2_mbox_conf_flat
I0601 17:41:02.105484  8248 net.cpp:100] Creating Layer conv7_2_mbox_conf_flat
I0601 17:41:02.105489  8248 net.cpp:434] conv7_2_mbox_conf_flat <- conv7_2_mbox_conf_perm
I0601 17:41:02.105496  8248 net.cpp:408] conv7_2_mbox_conf_flat -> conv7_2_mbox_conf_flat
I0601 17:41:02.105530  8248 net.cpp:150] Setting up conv7_2_mbox_conf_flat
I0601 17:41:02.105537  8248 net.cpp:157] Top shape: 4 600 (2400)
I0601 17:41:02.105541  8248 net.cpp:165] Memory required for data: 992049632
I0601 17:41:02.105546  8248 layer_factory.hpp:77] Creating layer conv7_2_mbox_priorbox
I0601 17:41:02.105554  8248 net.cpp:100] Creating Layer conv7_2_mbox_priorbox
I0601 17:41:02.105561  8248 net.cpp:434] conv7_2_mbox_priorbox <- conv7_2_conv7_2_relu_0_split_3
I0601 17:41:02.105567  8248 net.cpp:434] conv7_2_mbox_priorbox <- data_data_0_split_4
I0601 17:41:02.105576  8248 net.cpp:408] conv7_2_mbox_priorbox -> conv7_2_mbox_priorbox
I0601 17:41:02.105610  8248 net.cpp:150] Setting up conv7_2_mbox_priorbox
I0601 17:41:02.105618  8248 net.cpp:157] Top shape: 1 2 600 (1200)
I0601 17:41:02.105623  8248 net.cpp:165] Memory required for data: 992054432
I0601 17:41:02.105628  8248 layer_factory.hpp:77] Creating layer conv8_2_mbox_loc
I0601 17:41:02.105638  8248 net.cpp:100] Creating Layer conv8_2_mbox_loc
I0601 17:41:02.105643  8248 net.cpp:434] conv8_2_mbox_loc <- conv8_2_conv8_2_relu_0_split_1
I0601 17:41:02.105655  8248 net.cpp:408] conv8_2_mbox_loc -> conv8_2_mbox_loc
I0601 17:41:02.107841  8248 net.cpp:150] Setting up conv8_2_mbox_loc
I0601 17:41:02.107851  8248 net.cpp:157] Top shape: 4 16 3 3 (576)
I0601 17:41:02.107852  8248 net.cpp:165] Memory required for data: 992056736
I0601 17:41:02.107868  8248 layer_factory.hpp:77] Creating layer conv8_2_mbox_loc_perm
I0601 17:41:02.107879  8248 net.cpp:100] Creating Layer conv8_2_mbox_loc_perm
I0601 17:41:02.107887  8248 net.cpp:434] conv8_2_mbox_loc_perm <- conv8_2_mbox_loc
I0601 17:41:02.107894  8248 net.cpp:408] conv8_2_mbox_loc_perm -> conv8_2_mbox_loc_perm
I0601 17:41:02.108062  8248 net.cpp:150] Setting up conv8_2_mbox_loc_perm
I0601 17:41:02.108073  8248 net.cpp:157] Top shape: 4 3 3 16 (576)
I0601 17:41:02.108079  8248 net.cpp:165] Memory required for data: 992059040
I0601 17:41:02.108083  8248 layer_factory.hpp:77] Creating layer conv8_2_mbox_loc_flat
I0601 17:41:02.108101  8248 net.cpp:100] Creating Layer conv8_2_mbox_loc_flat
I0601 17:41:02.108108  8248 net.cpp:434] conv8_2_mbox_loc_flat <- conv8_2_mbox_loc_perm
I0601 17:41:02.108117  8248 net.cpp:408] conv8_2_mbox_loc_flat -> conv8_2_mbox_loc_flat
I0601 17:41:02.108153  8248 net.cpp:150] Setting up conv8_2_mbox_loc_flat
I0601 17:41:02.108161  8248 net.cpp:157] Top shape: 4 144 (576)
I0601 17:41:02.108165  8248 net.cpp:165] Memory required for data: 992061344
I0601 17:41:02.108170  8248 layer_factory.hpp:77] Creating layer conv8_2_mbox_conf
I0601 17:41:02.108180  8248 net.cpp:100] Creating Layer conv8_2_mbox_conf
I0601 17:41:02.108186  8248 net.cpp:434] conv8_2_mbox_conf <- conv8_2_conv8_2_relu_0_split_2
I0601 17:41:02.108192  8248 net.cpp:408] conv8_2_mbox_conf -> conv8_2_mbox_conf
I0601 17:41:02.110368  8248 net.cpp:150] Setting up conv8_2_mbox_conf
I0601 17:41:02.110379  8248 net.cpp:157] Top shape: 4 16 3 3 (576)
I0601 17:41:02.110381  8248 net.cpp:165] Memory required for data: 992063648
I0601 17:41:02.110388  8248 layer_factory.hpp:77] Creating layer conv8_2_mbox_conf_perm
I0601 17:41:02.110394  8248 net.cpp:100] Creating Layer conv8_2_mbox_conf_perm
I0601 17:41:02.110414  8248 net.cpp:434] conv8_2_mbox_conf_perm <- conv8_2_mbox_conf
I0601 17:41:02.110422  8248 net.cpp:408] conv8_2_mbox_conf_perm -> conv8_2_mbox_conf_perm
I0601 17:41:02.110612  8248 net.cpp:150] Setting up conv8_2_mbox_conf_perm
I0601 17:41:02.110622  8248 net.cpp:157] Top shape: 4 3 3 16 (576)
I0601 17:41:02.110627  8248 net.cpp:165] Memory required for data: 992065952
I0601 17:41:02.110631  8248 layer_factory.hpp:77] Creating layer conv8_2_mbox_conf_flat
I0601 17:41:02.110638  8248 net.cpp:100] Creating Layer conv8_2_mbox_conf_flat
I0601 17:41:02.110642  8248 net.cpp:434] conv8_2_mbox_conf_flat <- conv8_2_mbox_conf_perm
I0601 17:41:02.110652  8248 net.cpp:408] conv8_2_mbox_conf_flat -> conv8_2_mbox_conf_flat
I0601 17:41:02.110700  8248 net.cpp:150] Setting up conv8_2_mbox_conf_flat
I0601 17:41:02.110708  8248 net.cpp:157] Top shape: 4 144 (576)
I0601 17:41:02.110713  8248 net.cpp:165] Memory required for data: 992068256
I0601 17:41:02.110716  8248 layer_factory.hpp:77] Creating layer conv8_2_mbox_priorbox
I0601 17:41:02.110724  8248 net.cpp:100] Creating Layer conv8_2_mbox_priorbox
I0601 17:41:02.110729  8248 net.cpp:434] conv8_2_mbox_priorbox <- conv8_2_conv8_2_relu_0_split_3
I0601 17:41:02.110736  8248 net.cpp:434] conv8_2_mbox_priorbox <- data_data_0_split_5
I0601 17:41:02.110745  8248 net.cpp:408] conv8_2_mbox_priorbox -> conv8_2_mbox_priorbox
I0601 17:41:02.110780  8248 net.cpp:150] Setting up conv8_2_mbox_priorbox
I0601 17:41:02.110788  8248 net.cpp:157] Top shape: 1 2 144 (288)
I0601 17:41:02.110792  8248 net.cpp:165] Memory required for data: 992069408
I0601 17:41:02.110797  8248 layer_factory.hpp:77] Creating layer conv9_2_mbox_loc
I0601 17:41:02.110808  8248 net.cpp:100] Creating Layer conv9_2_mbox_loc
I0601 17:41:02.110813  8248 net.cpp:434] conv9_2_mbox_loc <- conv9_2_conv9_2_relu_0_split_0
I0601 17:41:02.110823  8248 net.cpp:408] conv9_2_mbox_loc -> conv9_2_mbox_loc
I0601 17:41:02.113430  8248 net.cpp:150] Setting up conv9_2_mbox_loc
I0601 17:41:02.113440  8248 net.cpp:157] Top shape: 4 16 1 1 (64)
I0601 17:41:02.113442  8248 net.cpp:165] Memory required for data: 992069664
I0601 17:41:02.113450  8248 layer_factory.hpp:77] Creating layer conv9_2_mbox_loc_perm
I0601 17:41:02.113459  8248 net.cpp:100] Creating Layer conv9_2_mbox_loc_perm
I0601 17:41:02.113466  8248 net.cpp:434] conv9_2_mbox_loc_perm <- conv9_2_mbox_loc
I0601 17:41:02.113471  8248 net.cpp:408] conv9_2_mbox_loc_perm -> conv9_2_mbox_loc_perm
I0601 17:41:02.113631  8248 net.cpp:150] Setting up conv9_2_mbox_loc_perm
I0601 17:41:02.113641  8248 net.cpp:157] Top shape: 4 1 1 16 (64)
I0601 17:41:02.113646  8248 net.cpp:165] Memory required for data: 992069920
I0601 17:41:02.113648  8248 layer_factory.hpp:77] Creating layer conv9_2_mbox_loc_flat
I0601 17:41:02.113656  8248 net.cpp:100] Creating Layer conv9_2_mbox_loc_flat
I0601 17:41:02.113662  8248 net.cpp:434] conv9_2_mbox_loc_flat <- conv9_2_mbox_loc_perm
I0601 17:41:02.113682  8248 net.cpp:408] conv9_2_mbox_loc_flat -> conv9_2_mbox_loc_flat
I0601 17:41:02.113714  8248 net.cpp:150] Setting up conv9_2_mbox_loc_flat
I0601 17:41:02.113723  8248 net.cpp:157] Top shape: 4 16 (64)
I0601 17:41:02.113728  8248 net.cpp:165] Memory required for data: 992070176
I0601 17:41:02.113731  8248 layer_factory.hpp:77] Creating layer conv9_2_mbox_conf
I0601 17:41:02.113741  8248 net.cpp:100] Creating Layer conv9_2_mbox_conf
I0601 17:41:02.113747  8248 net.cpp:434] conv9_2_mbox_conf <- conv9_2_conv9_2_relu_0_split_1
I0601 17:41:02.113759  8248 net.cpp:408] conv9_2_mbox_conf -> conv9_2_mbox_conf
I0601 17:41:02.116030  8248 net.cpp:150] Setting up conv9_2_mbox_conf
I0601 17:41:02.116040  8248 net.cpp:157] Top shape: 4 16 1 1 (64)
I0601 17:41:02.116042  8248 net.cpp:165] Memory required for data: 992070432
I0601 17:41:02.116050  8248 layer_factory.hpp:77] Creating layer conv9_2_mbox_conf_perm
I0601 17:41:02.116060  8248 net.cpp:100] Creating Layer conv9_2_mbox_conf_perm
I0601 17:41:02.116065  8248 net.cpp:434] conv9_2_mbox_conf_perm <- conv9_2_mbox_conf
I0601 17:41:02.116073  8248 net.cpp:408] conv9_2_mbox_conf_perm -> conv9_2_mbox_conf_perm
I0601 17:41:02.116236  8248 net.cpp:150] Setting up conv9_2_mbox_conf_perm
I0601 17:41:02.116246  8248 net.cpp:157] Top shape: 4 1 1 16 (64)
I0601 17:41:02.116250  8248 net.cpp:165] Memory required for data: 992070688
I0601 17:41:02.116255  8248 layer_factory.hpp:77] Creating layer conv9_2_mbox_conf_flat
I0601 17:41:02.116262  8248 net.cpp:100] Creating Layer conv9_2_mbox_conf_flat
I0601 17:41:02.116267  8248 net.cpp:434] conv9_2_mbox_conf_flat <- conv9_2_mbox_conf_perm
I0601 17:41:02.116274  8248 net.cpp:408] conv9_2_mbox_conf_flat -> conv9_2_mbox_conf_flat
I0601 17:41:02.116308  8248 net.cpp:150] Setting up conv9_2_mbox_conf_flat
I0601 17:41:02.116317  8248 net.cpp:157] Top shape: 4 16 (64)
I0601 17:41:02.116320  8248 net.cpp:165] Memory required for data: 992070944
I0601 17:41:02.116324  8248 layer_factory.hpp:77] Creating layer conv9_2_mbox_priorbox
I0601 17:41:02.116333  8248 net.cpp:100] Creating Layer conv9_2_mbox_priorbox
I0601 17:41:02.116338  8248 net.cpp:434] conv9_2_mbox_priorbox <- conv9_2_conv9_2_relu_0_split_2
I0601 17:41:02.116343  8248 net.cpp:434] conv9_2_mbox_priorbox <- data_data_0_split_6
I0601 17:41:02.116351  8248 net.cpp:408] conv9_2_mbox_priorbox -> conv9_2_mbox_priorbox
I0601 17:41:02.116389  8248 net.cpp:150] Setting up conv9_2_mbox_priorbox
I0601 17:41:02.116397  8248 net.cpp:157] Top shape: 1 2 16 (32)
I0601 17:41:02.116400  8248 net.cpp:165] Memory required for data: 992071072
I0601 17:41:02.116405  8248 layer_factory.hpp:77] Creating layer mbox_loc
I0601 17:41:02.116412  8248 net.cpp:100] Creating Layer mbox_loc
I0601 17:41:02.116420  8248 net.cpp:434] mbox_loc <- conv4_3_norm_mbox_loc_flat
I0601 17:41:02.116426  8248 net.cpp:434] mbox_loc <- fc7_mbox_loc_flat
I0601 17:41:02.116433  8248 net.cpp:434] mbox_loc <- conv6_2_mbox_loc_flat
I0601 17:41:02.116439  8248 net.cpp:434] mbox_loc <- conv7_2_mbox_loc_flat
I0601 17:41:02.116446  8248 net.cpp:434] mbox_loc <- conv8_2_mbox_loc_flat
I0601 17:41:02.116449  8248 net.cpp:434] mbox_loc <- conv9_2_mbox_loc_flat
I0601 17:41:02.116457  8248 net.cpp:408] mbox_loc -> mbox_loc
I0601 17:41:02.116492  8248 net.cpp:150] Setting up mbox_loc
I0601 17:41:02.116500  8248 net.cpp:157] Top shape: 4 34928 (139712)
I0601 17:41:02.116504  8248 net.cpp:165] Memory required for data: 992629920
I0601 17:41:02.116508  8248 layer_factory.hpp:77] Creating layer mbox_conf
I0601 17:41:02.116514  8248 net.cpp:100] Creating Layer mbox_conf
I0601 17:41:02.116520  8248 net.cpp:434] mbox_conf <- conv4_3_norm_mbox_conf_flat
I0601 17:41:02.116525  8248 net.cpp:434] mbox_conf <- fc7_mbox_conf_flat
I0601 17:41:02.116531  8248 net.cpp:434] mbox_conf <- conv6_2_mbox_conf_flat
I0601 17:41:02.116538  8248 net.cpp:434] mbox_conf <- conv7_2_mbox_conf_flat
I0601 17:41:02.116544  8248 net.cpp:434] mbox_conf <- conv8_2_mbox_conf_flat
I0601 17:41:02.116549  8248 net.cpp:434] mbox_conf <- conv9_2_mbox_conf_flat
I0601 17:41:02.116565  8248 net.cpp:408] mbox_conf -> mbox_conf
I0601 17:41:02.116600  8248 net.cpp:150] Setting up mbox_conf
I0601 17:41:02.116608  8248 net.cpp:157] Top shape: 4 34928 (139712)
I0601 17:41:02.116613  8248 net.cpp:165] Memory required for data: 993188768
I0601 17:41:02.116616  8248 layer_factory.hpp:77] Creating layer mbox_priorbox
I0601 17:41:02.116622  8248 net.cpp:100] Creating Layer mbox_priorbox
I0601 17:41:02.116628  8248 net.cpp:434] mbox_priorbox <- conv4_3_norm_mbox_priorbox
I0601 17:41:02.116633  8248 net.cpp:434] mbox_priorbox <- fc7_mbox_priorbox
I0601 17:41:02.116638  8248 net.cpp:434] mbox_priorbox <- conv6_2_mbox_priorbox
I0601 17:41:02.116643  8248 net.cpp:434] mbox_priorbox <- conv7_2_mbox_priorbox
I0601 17:41:02.116649  8248 net.cpp:434] mbox_priorbox <- conv8_2_mbox_priorbox
I0601 17:41:02.116653  8248 net.cpp:434] mbox_priorbox <- conv9_2_mbox_priorbox
I0601 17:41:02.116660  8248 net.cpp:408] mbox_priorbox -> mbox_priorbox
I0601 17:41:02.116689  8248 net.cpp:150] Setting up mbox_priorbox
I0601 17:41:02.116698  8248 net.cpp:157] Top shape: 1 2 34928 (69856)
I0601 17:41:02.116703  8248 net.cpp:165] Memory required for data: 993468192
I0601 17:41:02.116706  8248 layer_factory.hpp:77] Creating layer mbox_conf_reshape
I0601 17:41:02.116715  8248 net.cpp:100] Creating Layer mbox_conf_reshape
I0601 17:41:02.116720  8248 net.cpp:434] mbox_conf_reshape <- mbox_conf
I0601 17:41:02.116727  8248 net.cpp:408] mbox_conf_reshape -> mbox_conf_reshape
I0601 17:41:02.116765  8248 net.cpp:150] Setting up mbox_conf_reshape
I0601 17:41:02.116773  8248 net.cpp:157] Top shape: 4 8732 4 (139712)
I0601 17:41:02.116778  8248 net.cpp:165] Memory required for data: 994027040
I0601 17:41:02.116782  8248 layer_factory.hpp:77] Creating layer mbox_conf_softmax
I0601 17:41:02.116791  8248 net.cpp:100] Creating Layer mbox_conf_softmax
I0601 17:41:02.116796  8248 net.cpp:434] mbox_conf_softmax <- mbox_conf_reshape
I0601 17:41:02.116802  8248 net.cpp:408] mbox_conf_softmax -> mbox_conf_softmax
I0601 17:41:02.117105  8248 net.cpp:150] Setting up mbox_conf_softmax
I0601 17:41:02.117113  8248 net.cpp:157] Top shape: 4 8732 4 (139712)
I0601 17:41:02.117120  8248 net.cpp:165] Memory required for data: 994585888
I0601 17:41:02.117125  8248 layer_factory.hpp:77] Creating layer mbox_conf_flatten
I0601 17:41:02.117132  8248 net.cpp:100] Creating Layer mbox_conf_flatten
I0601 17:41:02.117138  8248 net.cpp:434] mbox_conf_flatten <- mbox_conf_softmax
I0601 17:41:02.117144  8248 net.cpp:408] mbox_conf_flatten -> mbox_conf_flatten
I0601 17:41:02.117178  8248 net.cpp:150] Setting up mbox_conf_flatten
I0601 17:41:02.117187  8248 net.cpp:157] Top shape: 4 34928 (139712)
I0601 17:41:02.117190  8248 net.cpp:165] Memory required for data: 995144736
I0601 17:41:02.117194  8248 layer_factory.hpp:77] Creating layer detection_out
I0601 17:41:02.117209  8248 net.cpp:100] Creating Layer detection_out
I0601 17:41:02.117215  8248 net.cpp:434] detection_out <- mbox_loc
I0601 17:41:02.117220  8248 net.cpp:434] detection_out <- mbox_conf_flatten
I0601 17:41:02.117226  8248 net.cpp:434] detection_out <- mbox_priorbox
I0601 17:41:02.117235  8248 net.cpp:408] detection_out -> detection_out
I0601 17:41:02.118909  8248 net.cpp:150] Setting up detection_out
I0601 17:41:02.118918  8248 net.cpp:157] Top shape: 1 1 1 7 (7)
I0601 17:41:02.118921  8248 net.cpp:165] Memory required for data: 995144764
I0601 17:41:02.118926  8248 layer_factory.hpp:77] Creating layer detection_eval
I0601 17:41:02.118935  8248 net.cpp:100] Creating Layer detection_eval
I0601 17:41:02.118940  8248 net.cpp:434] detection_eval <- detection_out
I0601 17:41:02.118947  8248 net.cpp:434] detection_eval <- label
I0601 17:41:02.118954  8248 net.cpp:408] detection_eval -> detection_eval
I0601 17:41:02.120205  8248 net.cpp:150] Setting up detection_eval
I0601 17:41:02.120215  8248 net.cpp:157] Top shape: 1 1 4 5 (20)
I0601 17:41:02.120218  8248 net.cpp:165] Memory required for data: 995144844
I0601 17:41:02.120221  8248 net.cpp:228] detection_eval does not need backward computation.
I0601 17:41:02.120237  8248 net.cpp:228] detection_out does not need backward computation.
I0601 17:41:02.120244  8248 net.cpp:228] mbox_conf_flatten does not need backward computation.
I0601 17:41:02.120249  8248 net.cpp:228] mbox_conf_softmax does not need backward computation.
…
