…
        min_scale: 0.3
        max_scale: 1
        min_aspect_ratio: 0.5
        max_aspect_ratio: 2
      }
      sample_constraint {
        min_jaccard_overlap: 0.9
      }
      max_sample: 1
      max_trials: 50
    }
    batch_sampler {
      sampler {
        min_scale: 0.3
        max_scale: 1
        min_aspect_ratio: 0.5
        max_aspect_ratio: 2
      }
      sample_constraint {
        max_jaccard_overlap: 1
      }
      max_sample: 1
      max_trials: 50
    }
    label_map_file: "data/tbs_300x300_HSIL_10x/labelmap_tbs.prototxt"
  }
}
layer {
  name: "conv1_1"
  type: "Convolution"
  bottom: "data"
  top: "conv1_1"
  param {
    lr_mult: 0
    decay_mult: 0
  }
  param {
    lr_mult: 0
    decay_mult: 0
  }
  convolution_param {
    num_output: 64
    pad: 1
    kernel_size: 3
    weight_filler {
      type: "xavier"
    }
    bias_filler {
      type: "constant"
      value: 0
    }
  }
}
layer {
  name: "relu1_1"
  type: "ReLU"
  bottom: "conv1_1"
  top: "conv1_1"
}
layer {
  name: "conv1_2"
  type: "Convolution"
  bottom: "conv1_1"
  top: "conv1_2"
  param {
    lr_mult: 0
    decay_mult: 0
  }
  param {
    lr_mult: 0
    decay_mult: 0
  }
  convolution_param {
    num_output: 64
    pad: 1
    kernel_size: 3
    weight_filler {
      type: "xavier"
    }
    bias_filler {
      type: "constant"
      value: 0
    }
  }
}
layer {
  name: "relu1_2"
  type: "ReLU"
  bottom: "conv1_2"
  top: "conv1_2"
}
layer {
  name: "pool1"
  type: "Pooling"
  bottom: "conv1_2"
  top: "pool1"
  pooling_param {
    pool: MAX
    kernel_size: 2
    stride: 2
  }
}
layer {
  name: "conv2_1"
  type: "Convolution"
  bottom: "pool1"
  top: "conv2_1"
  param {
    lr_mult: 0
    decay_mult: 0
  }
  param {
    lr_mult: 0
    decay_mult: 0
  }
  convolution_param {
    num_output: 128
    pad: 1
    kernel_size: 3
    weight_filler {
      type: "xavier"
    }
    bias_filler {
      type: "constant"
      value: 0
    }
  }
}
layer {
  name: "relu2_1"
  type: "ReLU"
  bottom: "conv2_1"
  top: "conv2_1"
}
layer {
  name: "conv2_2"
  type: "Convolution"
  bottom: "conv2_1"
  top: "conv2_2"
  param {
    lr_mult: 0
    decay_mult: 0
  }
  param {
    lr_mult: 0
    decay_mult: 0
  }
  convolution_param {
    num_output: 128
    pad: 1
    kernel_size: 3
    weight_filler {
      type: "xavier"
    }
    bias_filler {
      type: "constant"
      value: 0
    }
  }
}
layer {
  name: "relu2_2"
  type: "ReLU"
  bottom: "conv2_2"
  top: "conv2_2"
}
layer {
  name: "pool2"
  type: "Pooling"
  bottom: "conv2_2"
  top: "pool2"
  pooling_param {
    pool: MAX
    kernel_size: 2
    stride: 2
  }
}
layer {
  name: "conv3_1"
  type: "Convolution"
  bottom: "pool2"
  top: "conv3_1"
  param {
    lr_mult: 0
    decay_mult: 0
  }
  param {
    lr_mult: 0
    decay_mult: 0
  }
  convolution_param {
    num_output: 256
    pad: 1
    kernel_size: 3
    weight_filler {
      type: "xavier"
    }
    bias_filler {
      type: "constant"
      value: 0
    }
  }
}
layer {
  name: "relu3_1"
  type: "ReLU"
  bottom: "conv3_1"
  top: "conv3_1"
}
layer {
  name: "conv3_2"
  type: "Convolution"
  bottom: "conv3_1"
  top: "conv3_2"
  param {
    lr_mult: 0
    decay_mult: 0
  }
  param {
    lr_mult: 0
    decay_mult: 0
  }
  convolution_param {
    num_output: 256
    pad: 1
    kernel_size: 3
    weight_filler {
      type: "xavier"
    }
    bias_filler {
      type: "constant"
      value: 0
    }
  }
}
layer {
  name: "relu3_2"
  type: "ReLU"
  bottom: "conv3_2"
  top: "conv3_2"
}
layer {
  name: "conv3_3"
  type: "Convolution"
  bottom: "conv3_2"
  top: "conv3_3"
  param {
    lr_mult: 0
    decay_mult: 0
  }
  param {
    lr_mult: 0
    decay_mult: 0
  }
  convolution_param {
    num_output: 256
    pad: 1
    kernel_size: 3
    weight_filler {
      type: "xavier"
    }
    bias_filler {
      type: "constant"
      value: 0
    }
  }
}
layer {
  name: "relu3_3"
  type: "ReLU"
  bottom: "conv3_3"
  top: "conv3_3"
}
layer {
  name: "pool3"
  type: "Pooling"
  bottom: "conv3_3"
  top: "pool3"
  pooling_param {
    pool: MAX
    kernel_size: 2
    stride: 2
  }
}
layer {
  name: "conv4_1"
  type: "Convolution"
  bottom: "pool3"
  top: "conv4_1"
  param {
    lr_mult: 0
    decay_mult: 0
  }
  param {
    lr_mult: 0
    decay_mult: 0
  }
  convolution_param {
    num_output: 512
    pad: 1
    kernel_size: 3
    weight_filler {
      type: "xavier"
    }
    bias_filler {
      type: "constant"
      value: 0
    }
  }
}
layer {
  name: "relu4_1"
  type: "ReLU"
  bottom: "conv4_1"
  top: "conv4_1"
}
layer {
  name: "conv4_2"
  type: "Convolution"
  bottom: "conv4_1"
  top: "conv4_2"
  param {
    lr_mult: 0
    decay_mult: 0
  }
  param {
    lr_mult: 0
    decay_mult: 0
  }
  convolution_param {
    num_output: 512
    pad: 1
    kernel_size: 3
    weight_filler {
      type: "xavier"
    }
    bias_filler {
      type: "constant"
      value: 0
    }
  }
}
layer {
  name: "relu4_2"
  type: "ReLU"
  bottom: "conv4_2"
  top: "conv4_2"
}
layer {
  name: "conv4_3"
  type: "Convolution"
  bottom: "conv4_2"
  top: "conv4_3"
  param {
    lr_mult: 0
    decay_mult: 0
  }
  param {
    lr_mult: 0
    decay_mult: 0
  }
  convolution_param {
    num_output: 512
    pad: 1
    kernel_size: 3
    weight_filler {
      type: "xavier"
    }
    bias_filler {
      type: "constant"
      value: 0
    }
  }
}
layer {
  name: "relu4_3"
  type: "ReLU"
  bottom: "conv4_3"
  top: "conv4_3"
}
layer {
  name: "pool4"
  type: "Pooling"
  bottom: "conv4_3"
  top: "pool4"
  pooling_param {
    pool: MAX
    kernel_size: 2
    stride: 2
  }
}
layer {
  name: "conv5_1"
  type: "Convolution"
  bottom: "pool4"
  top: "conv5_1"
  param {
    lr_mult: 0
    decay_mult: 0
  }
  param {
    lr_mult: 0
    decay_mult: 0
  }
  convolution_param {
    num_output: 512
    pad: 1
    kernel_size: 3
    weight_filler {
      type: "xavier"
    }
    bias_filler {
      type: "constant"
      value: 0
    }
    dilation: 1
  }
}
layer {
  name: "relu5_1"
  type: "ReLU"
  bottom: "conv5_1"
  top: "conv5_1"
}
layer {
  name: "conv5_2"
  type: "Convolution"
  bottom: "conv5_1"
  top: "conv5_2"
  param {
    lr_mult: 0
    decay_mult: 0
  }
  param {
    lr_mult: 0
    decay_mult: 0
  }
  convolution_param {
    num_output: 512
    pad: 1
    kernel_size: 3
    weight_filler {
      type: "xavier"
    }
    bias_filler {
      type: "constant"
      value: 0
    }
    dilation: 1
  }
}
layer {
  name: "relu5_2"
  type: "ReLU"
  bottom: "conv5_2"
  top: "conv5_2"
}
layer {
  name: "conv5_3"
  type: "Convolution"
  bottom: "conv5_2"
  top: "conv5_3"
  param {
    lr_mult: 0
    decay_mult: 0
  }
  param {
    lr_mult: 0
    decay_mult: 0
  }
  convolution_param {
    num_output: 512
    pad: 1
    kernel_size: 3
    weight_filler {
      type: "xavier"
    }
    bias_filler {
      type: "constant"
      value: 0
    }
    dilation: 1
  }
}
layer {
  name: "relu5_3"
  type: "ReLU"
  bottom: "conv5_3"
  top: "conv5_3"
}
layer {
  name: "pool5"
  type: "Pooling"
  bottom: "conv5_3"
  top: "pool5"
  pooling_param {
    pool: MAX
    kernel_size: 3
    stride: 1
    pad: 1
  }
}
layer {
  name: "fc6"
  type: "Convolution"
  bottom: "pool5"
  top: "fc6"
  param {
    lr_mult: 0
    decay_mult: 0
  }
  param {
    lr_mult: 0
    decay_mult: 0
  }
  convolution_param {
    num_output: 1024
    pad: 6
    kernel_size: 3
    weight_filler {
      type: "xavier"
    }
    bias_filler {
      type: "constant"
      value: 0
    }
    dilation: 6
  }
}
layer {
  name: "relu6"
  type: "ReLU"
  bottom: "fc6"
  top: "fc6"
}
layer {
  name: "fc7"
  type: "Convolution"
  bottom: "fc6"
  top: "fc7"
  param {
    lr_mult: 0
    decay_mult: 0
  }
  param {
    lr_mult: 0
    decay_mult: 0
  }
  convolution_param {
    num_output: 1024
    kernel_size: 1
    weight_filler {
      type: "xavier"
    }
    bias_filler {
      type: "constant"
      value: 0
    }
  }
}
layer {
  name: "relu7"
  type: "ReLU"
  bottom: "fc7"
  top: "fc7"
}
layer {
  name: "conv6_1"
  type: "Convolution"
  bottom: "fc7"
  top: "conv6_1"
  param {
    lr_mult: 1
    decay_mult: 1
  }
  param {
    lr_mult: 2
    decay_mult: 0
  }
  convolution_param {
    num_output: 256
    pad: 0
    kernel_size: 1
    stride: 1
    weight_filler {
      type: "xavier"
    }
    bias_filler {
      type: "constant"
      value: 0
    }
  }
}
layer {
  name: "conv6_1_relu"
  type: "ReLU"
  bottom: "conv6_1"
  top: "conv6_1"
}
layer {
  name: "conv6_2"
  type: "Convolution"
  bottom: "conv6_1"
  top: "conv6_2"
  param {
    lr_mult: 1
    decay_mult: 1
  }
  param {
    lr_mult: 2
    decay_mult: 0
  }
  convolution_param {
    num_output: 512
    pad: 1
    kernel_size: 3
    stride: 2
    weight_filler {
      type: "xavier"
    }
    bias_filler {
      type: "constant"
      value: 0
    }
  }
}
layer {
  name: "conv6_2_relu"
  type: "ReLU"
  bottom: "conv6_2"
  top: "conv6_2"
}
layer {
  name: "conv7_1"
  type: "Convolution"
  bottom: "conv6_2"
  top: "conv7_1"
  param {
    lr_mult: 1
    decay_mult: 1
  }
  param {
    lr_mult: 2
    decay_mult: 0
  }
  convolution_param {
    num_output: 128
    pad: 0
    kernel_size: 1
    stride: 1
    weight_filler {
      type: "xavier"
    }
    bias_filler {
      type: "constant"
      value: 0
    }
  }
}
layer {
  name: "conv7_1_relu"
  type: "ReLU"
  bottom: "conv7_1"
  top: "conv7_1"
}
layer {
  name: "conv7_2"
  type: "Convolution"
  bottom: "conv7_1"
  top: "conv7_2"
  param {
    lr_mult: 1
    decay_mult: 1
  }
  param {
    lr_mult: 2
    decay_mult: 0
  }
  convolution_param {
    num_output: 256
    pad: 1
    kernel_size: 3
    stride: 2
    weight_filler {
      type: "xavier"
    }
    bias_filler {
      type: "constant"
      value: 0
    }
  }
}
layer {
  name: "conv7_2_relu"
  type: "ReLU"
  bottom: "conv7_2"
  top: "conv7_2"
}
layer {
  name: "conv8_1"
  type: "Convolution"
  bottom: "conv7_2"
  top: "conv8_1"
  param {
    lr_mult: 1
    decay_mult: 1
  }
  param {
    lr_mult: 2
    decay_mult: 0
  }
  convolution_param {
    num_output: 128
    pad: 0
    kernel_size: 1
    stride: 1
    weight_filler {
      type: "xavier"
    }
    bias_filler {
      type: "constant"
      value: 0
    }
  }
}
layer {
  name: "conv8_1_relu"
  type: "ReLU"
  bottom: "conv8_1"
  top: "conv8_1"
}
layer {
  name: "conv8_2"
  type: "Convolution"
  bottom: "conv8_1"
  top: "conv8_2"
  param {
    lr_mult: 1
    decay_mult: 1
  }
  param {
    lr_mult: 2
    decay_mult: 0
  }
  convolution_param {
    num_output: 256
    pad: 0
    kernel_size: 3
    stride: 1
    weight_filler {
      type: "xavier"
    }
    bias_filler {
      type: "constant"
      value: 0
    }
  }
}
layer {
  name: "conv8_2_relu"
  type: "ReLU"
  bottom: "conv8_2"
  top: "conv8_2"
}
layer {
  name: "conv9_1"
  type: "Convolution"
  bottom: "conv8_2"
  top: "conv9_1"
  param {
    lr_mult: 1
    decay_mult: 1
  }
  param {
    lr_mult: 2
    decay_mult: 0
  }
  convolution_param {
    num_output: 128
    pad: 0
    kernel_size: 1
    stride: 1
    weight_filler {
      type: "xavier"
    }
    bias_filler {
      type: "constant"
      value: 0
    }
  }
}
layer {
  name: "conv9_1_relu"
  type: "ReLU"
  bottom: "conv9_1"
  top: "conv9_1"
}
layer {
  name: "conv9_2"
  type: "Convolution"
  bottom: "conv9_1"
  top: "conv9_2"
  param {
    lr_mult: 1
    decay_mult: 1
  }
  param {
    lr_mult: 2
    decay_mult: 0
  }
  convolution_param {
    num_output: 256
    pad: 0
    kernel_size: 3
    stride: 1
    weight_filler {
      type: "xavier"
    }
    bias_filler {
      type: "constant"
      value: 0
    }
  }
}
layer {
  name: "conv9_2_relu"
  type: "ReLU"
  bottom: "conv9_2"
  top: "conv9_2"
}
layer {
  name: "conv4_3_norm"
  type: "Normalize"
  bottom: "conv4_3"
  top: "conv4_3_norm"
  norm_param {
    across_spatial: false
    scale_filler {
      type: "constant"
      value: 20
    }
    channel_shared: false
  }
}
layer {
  name: "conv4_3_norm_mbox_loc"
  type: "Convolution"
  bottom: "conv4_3_norm"
  top: "conv4_3_norm_mbox_loc"
  param {
    lr_mult: 1
    decay_mult: 1
  }
  param {
    lr_mult: 2
    decay_mult: 0
  }
  convolution_param {
    num_output: 16
    pad: 1
    kernel_size: 3
    stride: 1
    weight_filler {
      type: "xavier"
    }
    bias_filler {
      type: "constant"
      value: 0
    }
  }
}
layer {
  name: "conv4_3_norm_mbox_loc_perm"
  type: "Permute"
  bottom: "conv4_3_norm_mbox_loc"
  top: "conv4_3_norm_mbox_loc_perm"
  permute_param {
    order: 0
    order: 2
    order: 3
    order: 1
  }
}
layer {
  name: "conv4_3_norm_mbox_loc_flat"
  type: "Flatten"
  bottom: "conv4_3_norm_mbox_loc_perm"
  top: "conv4_3_norm_mbox_loc_flat"
  flatten_param {
    axis: 1
  }
}
layer {
  name: "conv4_3_norm_mbox_conf"
  type: "Convolution"
  bottom: "conv4_3_norm"
  top: "conv4_3_norm_mbox_conf"
  param {
    lr_mult: 1
    decay_mult: 1
  }
  param {
    lr_mult: 2
    decay_mult: 0
  }
  convolution_param {
    num_output: 16
    pad: 1
    kernel_size: 3
    stride: 1
    weight_filler {
      type: "xavier"
    }
    bias_filler {
      type: "constant"
      value: 0
    }
  }
}
layer {
  name: "conv4_3_norm_mbox_conf_perm"
  type: "Permute"
  bottom: "conv4_3_norm_mbox_conf"
  top: "conv4_3_norm_mbox_conf_perm"
  permute_param {
    order: 0
    order: 2
    order: 3
    order: 1
  }
}
layer {
  name: "conv4_3_norm_mbox_conf_flat"
  type: "Flatten"
  bottom: "conv4_3_norm_mbox_conf_perm"
  top: "conv4_3_norm_mbox_conf_flat"
  flatten_param {
    axis: 1
  }
}
layer {
  name: "conv4_3_norm_mbox_priorbox"
  type: "PriorBox"
  bottom: "conv4_3_norm"
  bottom: "data"
  top: "conv4_3_norm_mbox_priorbox"
  prior_box_param {
    min_size: 30
    max_size: 60
    aspect_ratio: 2
    flip: true
    clip: false
    variance: 0.1
    variance: 0.1
    variance: 0.2
    variance: 0.2
    step: 8
    offset: 0.5
  }
}
layer {
  name: "fc7_mbox_loc"
  type: "Convolution"
  bottom: "fc7"
  top: "fc7_mbox_loc"
  param {
    lr_mult: 1
    decay_mult: 1
  }
  param {
    lr_mult: 2
    decay_mult: 0
  }
  convolution_param {
    num_output: 24
    pad: 1
    kernel_size: 3
    stride: 1
    weight_filler {
      type: "xavier"
    }
    bias_filler {
      type: "constant"
      value: 0
    }
  }
}
layer {
  name: "fc7_mbox_loc_perm"
  type: "Permute"
  bottom: "fc7_mbox_loc"
  top: "fc7_mbox_loc_perm"
  permute_param {
    order: 0
    order: 2
    order: 3
    order: 1
  }
}
layer {
  name: "fc7_mbox_loc_flat"
  type: "Flatten"
  bottom: "fc7_mbox_loc_perm"
  top: "fc7_mbox_loc_flat"
  flatten_param {
    axis: 1
  }
}
layer {
  name: "fc7_mbox_conf"
  type: "Convolution"
  bottom: "fc7"
  top: "fc7_mbox_conf"
  param {
    lr_mult: 1
    decay_mult: 1
  }
  param {
    lr_mult: 2
    decay_mult: 0
  }
  convolution_param {
    num_output: 24
    pad: 1
    kernel_size: 3
    stride: 1
    weight_filler {
      type: "xavier"
    }
    bias_filler {
      type: "constant"
      value: 0
    }
  }
}
layer {
  name: "fc7_mbox_conf_perm"
  type: "Permute"
  bottom: "fc7_mbox_conf"
  top: "fc7_mbox_conf_perm"
  permute_param {
    order: 0
    order: 2
    order: 3
    order: 1
  }
}
layer {
  name: "fc7_mbox_conf_flat"
  type: "Flatten"
  bottom: "fc7_mbox_conf_perm"
  top: "fc7_mbox_conf_flat"
  flatten_param {
    axis: 1
  }
}
layer {
  name: "fc7_mbox_priorbox"
  type: "PriorBox"
  bottom: "fc7"
  bottom: "data"
  top: "fc7_mbox_priorbox"
  prior_box_param {
    min_size: 60
    max_size: 111
    aspect_ratio: 2
    aspect_ratio: 3
    flip: true
    clip: false
    variance: 0.1
    variance: 0.1
    variance: 0.2
    variance: 0.2
    step: 16
    offset: 0.5
  }
}
layer {
  name: "conv6_2_mbox_loc"
  type: "Convolution"
  bottom: "conv6_2"
  top: "conv6_2_mbox_loc"
  param {
    lr_mult: 1
    decay_mult: 1
  }
  param {
    lr_mult: 2
    decay_mult: 0
  }
  convolution_param {
    num_output: 24
    pad: 1
    kernel_size: 3
    stride: 1
    weight_filler {
      type: "xavier"
    }
    bias_filler {
      type: "constant"
      value: 0
    }
  }
}
layer {
  name: "conv6_2_mbox_loc_perm"
  type: "Permute"
  bottom: "conv6_2_mbox_loc"
  top: "conv6_2_mbox_loc_perm"
  permute_param {
    order: 0
    order: 2
    order: 3
    order: 1
  }
}
layer {
  name: "conv6_2_mbox_loc_flat"
  type: "Flatten"
  bottom: "conv6_2_mbox_loc_perm"
  top: "conv6_2_mbox_loc_flat"
  flatten_param {
    axis: 1
  }
}
layer {
  name: "conv6_2_mbox_conf"
  type: "Convolution"
  bottom: "conv6_2"
  top: "conv6_2_mbox_conf"
  param {
    lr_mult: 1
    decay_mult: 1
  }
  param {
    lr_mult: 2
    decay_mult: 0
  }
  convolution_param {
    num_output: 24
    pad: 1
    kernel_size: 3
    stride: 1
    weight_filler {
      type: "xavier"
    }
    bias_filler {
      type: "constant"
      value: 0
    }
  }
}
layer {
  name: "conv6_2_mbox_conf_perm"
  type: "Permute"
  bottom: "conv6_2_mbox_conf"
  top: "conv6_2_mbox_conf_perm"
  permute_param {
    order: 0
    order: 2
    order: 3
    order: 1
  }
}
layer {
  name: "conv6_2_mbox_conf_flat"
  type: "Flatten"
  bottom: "conv6_2_mbox_conf_perm"
  top: "conv6_2_mbox_conf_flat"
  flatten_param {
    axis: 1
  }
}
layer {
  name: "conv6_2_mbox_priorbox"
  type: "PriorBox"
  bottom: "conv6_2"
  bottom: "data"
  top: "conv6_2_mbox_priorbox"
  prior_box_param {
    min_size: 111
    max_size: 162
    aspect_ratio: 2
    aspect_ratio: 3
    flip: true
    clip: false
    variance: 0.1
    variance: 0.1
    variance: 0.2
    variance: 0.2
    step: 32
    offset: 0.5
  }
}
layer {
  name: "conv7_2_mbox_loc"
  type: "Convolution"
  bottom: "conv7_2"
  top: "conv7_2_mbox_loc"
  param {
    lr_mult: 1
    decay_mult: 1
  }
  param {
    lr_mult: 2
    decay_mult: 0
  }
  convolution_param {
    num_output: 24
    pad: 1
    kernel_size: 3
    stride: 1
    weight_filler {
      type: "xavier"
    }
    bias_filler {
      type: "constant"
      value: 0
    }
  }
}
layer {
  name: "conv7_2_mbox_loc_perm"
  type: "Permute"
  bottom: "conv7_2_mbox_loc"
  top: "conv7_2_mbox_loc_perm"
  permute_param {
    order: 0
    order: 2
    order: 3
    order: 1
  }
}
layer {
  name: "conv7_2_mbox_loc_flat"
  type: "Flatten"
  bottom: "conv7_2_mbox_loc_perm"
  top: "conv7_2_mbox_loc_flat"
  flatten_param {
    axis: 1
  }
}
layer {
  name: "conv7_2_mbox_conf"
  type: "Convolution"
  bottom: "conv7_2"
  top: "conv7_2_mbox_conf"
  param {
    lr_mult: 1
    decay_mult: 1
  }
  param {
    lr_mult: 2
    decay_mult: 0
  }
  convolution_param {
    num_output: 24
    pad: 1
    kernel_size: 3
    stride: 1
    weight_filler {
      type: "xavier"
    }
    bias_filler {
      type: "constant"
      value: 0
    }
  }
}
layer {
  name: "conv7_2_mbox_conf_perm"
  type: "Permute"
  bottom: "conv7_2_mbox_conf"
  top: "conv7_2_mbox_conf_perm"
  permute_param {
    order: 0
    order: 2
    order: 3
    order: 1
  }
}
layer {
  name: "conv7_2_mbox_conf_flat"
  type: "Flatten"
  bottom: "conv7_2_mbox_conf_perm"
  top: "conv7_2_mbox_conf_flat"
  flatten_param {
    axis: 1
  }
}
layer {
  name: "conv7_2_mbox_priorbox"
  type: "PriorBox"
  bottom: "conv7_2"
  bottom: "data"
  top: "conv7_2_mbox_priorbox"
  prior_box_param {
    min_size: 162
    max_size: 213
    aspect_ratio: 2
    aspect_ratio: 3
    flip: true
    clip: false
    variance: 0.1
    variance: 0.1
    variance: 0.2
    variance: 0.2
    step: 64
    offset: 0.5
  }
}
layer {
  name: "conv8_2_mbox_loc"
  type: "Convolution"
  bottom: "conv8_2"
  top: "conv8_2_mbox_loc"
  param {
    lr_mult: 1
    decay_mult: 1
  }
  param {
    lr_mult: 2
    decay_mult: 0
  }
  convolution_param {
    num_output: 16
    pad: 1
    kernel_size: 3
    stride: 1
    weight_filler {
      type: "xavier"
    }
    bias_filler {
      type: "constant"
      value: 0
    }
  }
}
layer {
  name: "conv8_2_mbox_loc_perm"
  type: "Permute"
  bottom: "conv8_2_mbox_loc"
  top: "conv8_2_mbox_loc_perm"
  permute_param {
    order: 0
    order: 2
    order: 3
    order: 1
  }
}
layer {
  name: "conv8_2_mbox_loc_flat"
  type: "Flatten"
  bottom: "conv8_2_mbox_loc_perm"
  top: "conv8_2_mbox_loc_flat"
  flatten_param {
    axis: 1
  }
}
layer {
  name: "conv8_2_mbox_conf"
  type: "Convolution"
  bottom: "conv8_2"
  top: "conv8_2_mbox_conf"
  param {
    lr_mult: 1
    decay_mult: 1
  }
  param {
    lr_mult: 2
    decay_mult: 0
  }
  convolution_param {
    num_output: 16
    pad: 1
    kernel_size: 3
    stride: 1
    weight_filler {
      type: "xavier"
    }
    bias_filler {
      type: "constant"
      value: 0
    }
  }
}
layer {
  name: "conv8_2_mbox_conf_perm"
  type: "Permute"
  bottom: "conv8_2_mbox_conf"
  top: "conv8_2_mbox_conf_perm"
  permute_param {
    order: 0
    order: 2
    order: 3
    order: 1
  }
}
layer {
  name: "conv8_2_mbox_conf_flat"
  type: "Flatten"
  bottom: "conv8_2_mbox_conf_perm"
  top: "conv8_2_mbox_conf_flat"
  flatten_param {
    axis: 1
  }
}
layer {
  name: "conv8_2_mbox_priorbox"
  type: "PriorBox"
  bottom: "conv8_2"
  bottom: "data"
  top: "conv8_2_mbox_priorbox"
  prior_box_param {
    min_size: 213
    max_size: 264
    aspect_ratio: 2
    flip: true
    clip: false
    variance: 0.1
    variance: 0.1
    variance: 0.2
    variance: 0.2
    step: 100
    offset: 0.5
  }
}
layer {
  name: "conv9_2_mbox_loc"
  type: "Convolution"
  bottom: "conv9_2"
  top: "conv9_2_mbox_loc"
  param {
    lr_mult: 1
    decay_mult: 1
  }
  param {
    lr_mult: 2
    decay_mult: 0
  }
  convolution_param {
    num_output: 16
    pad: 1
    kernel_size: 3
    stride: 1
    weight_filler {
      type: "xavier"
    }
    bias_filler {
      type: "constant"
      value: 0
    }
  }
}
layer {
  name: "conv9_2_mbox_loc_perm"
  type: "Permute"
  bottom: "conv9_2_mbox_loc"
  top: "conv9_2_mbox_loc_perm"
  permute_param {
    order: 0
    order: 2
    order: 3
    order: 1
  }
}
layer {
  name: "conv9_2_mbox_loc_flat"
  type: "Flatten"
  bottom: "conv9_2_mbox_loc_perm"
  top: "conv9_2_mbox_loc_flat"
  flatten_param {
    axis: 1
  }
}
layer {
  name: "conv9_2_mbox_conf"
  type: "Convolution"
  bottom: "conv9_2"
  top: "conv9_2_mbox_conf"
  param {
    lr_mult: 1
    decay_mult: 1
  }
  param {
    lr_mult: 2
    decay_mult: 0
  }
  convolution_param {
    num_output: 16
    pad: 1
    kernel_size: 3
    stride: 1
    weight_filler {
      type: "xavier"
    }
    bias_filler {
      type: "constant"
      value: 0
    }
  }
}
layer {
  name: "conv9_2_mbox_conf_perm"
  type: "Permute"
  bottom: "conv9_2_mbox_conf"
  top: "conv9_2_mbox_conf_perm"
  permute_param {
    order: 0
    order: 2
    order: 3
    order: 1
  }
}
layer {
  name: "conv9_2_mbox_conf_flat"
  type: "Flatten"
  bottom: "conv9_2_mbox_conf_perm"
  top: "conv9_2_mbox_conf_flat"
  flatten_param {
    axis: 1
  }
}
layer {
  name: "conv9_2_mbox_priorbox"
  type: "PriorBox"
  bottom: "conv9_2"
  bottom: "data"
  top: "conv9_2_mbox_priorbox"
  prior_box_param {
    min_size: 264
    max_size: 315
    aspect_ratio: 2
    flip: true
    clip: false
    variance: 0.1
    variance: 0.1
    variance: 0.2
    variance: 0.2
    step: 300
    offset: 0.5
  }
}
layer {
  name: "mbox_loc"
  type: "Concat"
  bottom: "conv4_3_norm_mbox_loc_flat"
  bottom: "fc7_mbox_loc_flat"
  bottom: "conv6_2_mbox_loc_flat"
  bottom: "conv7_2_mbox_loc_flat"
  bottom: "conv8_2_mbox_loc_flat"
  bottom: "conv9_2_mbox_loc_flat"
  top: "mbox_loc"
  concat_param {
    axis: 1
  }
}
layer {
  name: "mbox_conf"
  type: "Concat"
  bottom: "conv4_3_norm_mbox_conf_flat"
  bottom: "fc7_mbox_conf_flat"
  bottom: "conv6_2_mbox_conf_flat"
  bottom: "conv7_2_mbox_conf_flat"
  bottom: "conv8_2_mbox_conf_flat"
  bottom: "conv9_2_mbox_conf_flat"
  top: "mbox_conf"
  concat_param {
    axis: 1
  }
}
layer {
  name: "mbox_priorbox"
  type: "Concat"
  bottom: "conv4_3_norm_mbox_priorbox"
  bottom: "fc7_mbox_priorbox"
  bottom: "conv6_2_mbox_priorbox"
  bottom: "conv7_2_mbox_priorbox"
  bottom: "conv8_2_mbox_priorbox"
  bottom: "conv9_2_mbox_priorbox"
  top: "mbox_priorbox"
  concat_param {
    axis: 2
  }
}
layer {
  name: "mbox_loss"
  type: "MultiBoxLoss"
  bottom: "mbox_loc"
  bottom: "mbox_conf"
  bottom: "mbox_priorbox"
  bottom: "label"
  top: "mbox_loss"
  include {
    phase: TRAIN
  }
  propagate_down: true
  propagate_down: true
  propagate_down: false
  propagate_down: false
  loss_param {
    normalization: VALID
  }
  multibox_loss_param {
    loc_loss_type: SMOOTH_L1
    conf_loss_type: SOFTMAX
    loc_weight: 1
    num_classes: 4
    share_location: true
    match_type: PER_PREDICTION
    overlap_threshold: 0.5
    use_prior_for_matching: true
    background_label_id: 0
    use_difficult_gt: true
    neg_pos_ratio: 3
    neg_overlap: 0.5
    code_type: CENTER_SIZE
    ignore_cross_boundary_bbox: false
    mining_type: MAX_NEGATIVE
  }
}
I0601 11:10:20.942684 28711 layer_factory.hpp:77] Creating layer data
I0601 11:10:20.942855 28711 net.cpp:100] Creating Layer data
I0601 11:10:20.942870 28711 net.cpp:408] data -> data
I0601 11:10:20.942901 28711 net.cpp:408] data -> label
I0601 11:10:20.943286 28728 db_lmdb.cpp:35] Opened lmdb examples/tbs_300x300_HSIL_10x/tbs_300x300_HSIL_10x_trainval_lmdb
I0601 11:10:20.952009 28711 annotated_data_layer.cpp:62] output data size: 32,3,300,300
I0601 11:10:21.011523 28711 net.cpp:150] Setting up data
I0601 11:10:21.011543 28711 net.cpp:157] Top shape: 32 3 300 300 (8640000)
I0601 11:10:21.011546 28711 net.cpp:157] Top shape: 1 1 1 8 (8)
I0601 11:10:21.011562 28711 net.cpp:165] Memory required for data: 34560032
I0601 11:10:21.011589 28711 layer_factory.hpp:77] Creating layer data_data_0_split
I0601 11:10:21.011615 28711 net.cpp:100] Creating Layer data_data_0_split
I0601 11:10:21.011641 28711 net.cpp:434] data_data_0_split <- data
I0601 11:10:21.011682 28711 net.cpp:408] data_data_0_split -> data_data_0_split_0
I0601 11:10:21.011708 28711 net.cpp:408] data_data_0_split -> data_data_0_split_1
I0601 11:10:21.011734 28711 net.cpp:408] data_data_0_split -> data_data_0_split_2
I0601 11:10:21.011756 28711 net.cpp:408] data_data_0_split -> data_data_0_split_3
I0601 11:10:21.011780 28711 net.cpp:408] data_data_0_split -> data_data_0_split_4
I0601 11:10:21.011801 28711 net.cpp:408] data_data_0_split -> data_data_0_split_5
I0601 11:10:21.011821 28711 net.cpp:408] data_data_0_split -> data_data_0_split_6
I0601 11:10:21.012013 28711 net.cpp:150] Setting up data_data_0_split
I0601 11:10:21.012025 28711 net.cpp:157] Top shape: 32 3 300 300 (8640000)
I0601 11:10:21.012032 28711 net.cpp:157] Top shape: 32 3 300 300 (8640000)
I0601 11:10:21.012037 28711 net.cpp:157] Top shape: 32 3 300 300 (8640000)
I0601 11:10:21.012043 28711 net.cpp:157] Top shape: 32 3 300 300 (8640000)
I0601 11:10:21.012049 28711 net.cpp:157] Top shape: 32 3 300 300 (8640000)
I0601 11:10:21.012054 28711 net.cpp:157] Top shape: 32 3 300 300 (8640000)
I0601 11:10:21.012059 28711 net.cpp:157] Top shape: 32 3 300 300 (8640000)
I0601 11:10:21.012064 28711 net.cpp:165] Memory required for data: 276480032
I0601 11:10:21.012068 28711 layer_factory.hpp:77] Creating layer conv1_1
I0601 11:10:21.012086 28711 net.cpp:100] Creating Layer conv1_1
I0601 11:10:21.012092 28711 net.cpp:434] conv1_1 <- data_data_0_split_0
I0601 11:10:21.012100 28711 net.cpp:408] conv1_1 -> conv1_1
I0601 11:10:21.014134 28711 net.cpp:150] Setting up conv1_1
I0601 11:10:21.014145 28711 net.cpp:157] Top shape: 32 64 300 300 (184320000)
I0601 11:10:21.014147 28711 net.cpp:165] Memory required for data: 1013760032
I0601 11:10:21.014160 28711 layer_factory.hpp:77] Creating layer relu1_1
I0601 11:10:21.014184 28711 net.cpp:100] Creating Layer relu1_1
I0601 11:10:21.014189 28711 net.cpp:434] relu1_1 <- conv1_1
I0601 11:10:21.014197 28711 net.cpp:395] relu1_1 -> conv1_1 (in-place)
I0601 11:10:21.014219 28711 net.cpp:150] Setting up relu1_1
I0601 11:10:21.014238 28711 net.cpp:157] Top shape: 32 64 300 300 (184320000)
I0601 11:10:21.014243 28711 net.cpp:165] Memory required for data: 1751040032
I0601 11:10:21.014246 28711 layer_factory.hpp:77] Creating layer conv1_2
I0601 11:10:21.014287 28711 net.cpp:100] Creating Layer conv1_2
I0601 11:10:21.014292 28711 net.cpp:434] conv1_2 <- conv1_1
I0601 11:10:21.014313 28711 net.cpp:408] conv1_2 -> conv1_2
I0601 11:10:21.026494 28711 net.cpp:150] Setting up conv1_2
I0601 11:10:21.026510 28711 net.cpp:157] Top shape: 32 64 300 300 (184320000)
I0601 11:10:21.026513 28711 net.cpp:165] Memory required for data: 2488320032
I0601 11:10:21.026521 28711 layer_factory.hpp:77] Creating layer relu1_2
I0601 11:10:21.026545 28711 net.cpp:100] Creating Layer relu1_2
I0601 11:10:21.026549 28711 net.cpp:434] relu1_2 <- conv1_2
I0601 11:10:21.026554 28711 net.cpp:395] relu1_2 -> conv1_2 (in-place)
I0601 11:10:21.026581 28711 net.cpp:150] Setting up relu1_2
I0601 11:10:21.026585 28711 net.cpp:157] Top shape: 32 64 300 300 (184320000)
I0601 11:10:21.026588 28711 net.cpp:165] Memory required for data: 3225600032
I0601 11:10:21.026604 28711 layer_factory.hpp:77] Creating layer pool1
I0601 11:10:21.026610 28711 net.cpp:100] Creating Layer pool1
I0601 11:10:21.026628 28711 net.cpp:434] pool1 <- conv1_2
I0601 11:10:21.026634 28711 net.cpp:408] pool1 -> pool1
I0601 11:10:21.026737 28711 net.cpp:150] Setting up pool1
I0601 11:10:21.026762 28711 net.cpp:157] Top shape: 32 64 150 150 (46080000)
I0601 11:10:21.026765 28711 net.cpp:165] Memory required for data: 3409920032
I0601 11:10:21.026768 28711 layer_factory.hpp:77] Creating layer conv2_1
I0601 11:10:21.026794 28711 net.cpp:100] Creating Layer conv2_1
I0601 11:10:21.026839 28711 net.cpp:434] conv2_1 <- pool1
I0601 11:10:21.026860 28711 net.cpp:408] conv2_1 -> conv2_1
I0601 11:10:21.027737 28711 net.cpp:150] Setting up conv2_1
I0601 11:10:21.027760 28711 net.cpp:157] Top shape: 32 128 150 150 (92160000)
I0601 11:10:21.027765 28711 net.cpp:165] Memory required for data: 3778560032
I0601 11:10:21.027772 28711 layer_factory.hpp:77] Creating layer relu2_1
I0601 11:10:21.027783 28711 net.cpp:100] Creating Layer relu2_1
I0601 11:10:21.027788 28711 net.cpp:434] relu2_1 <- conv2_1
I0601 11:10:21.027796 28711 net.cpp:395] relu2_1 -> conv2_1 (in-place)
I0601 11:10:21.027804 28711 net.cpp:150] Setting up relu2_1
I0601 11:10:21.027812 28711 net.cpp:157] Top shape: 32 128 150 150 (92160000)
I0601 11:10:21.027815 28711 net.cpp:165] Memory required for data: 4147200032
I0601 11:10:21.027819 28711 layer_factory.hpp:77] Creating layer conv2_2
I0601 11:10:21.027829 28711 net.cpp:100] Creating Layer conv2_2
I0601 11:10:21.027846 28711 net.cpp:434] conv2_2 <- conv2_1
I0601 11:10:21.027854 28711 net.cpp:408] conv2_2 -> conv2_2
I0601 11:10:21.028969 28711 net.cpp:150] Setting up conv2_2
I0601 11:10:21.028978 28711 net.cpp:157] Top shape: 32 128 150 150 (92160000)
I0601 11:10:21.028980 28711 net.cpp:165] Memory required for data: 4515840032
I0601 11:10:21.028986 28711 layer_factory.hpp:77] Creating layer relu2_2
I0601 11:10:21.028993 28711 net.cpp:100] Creating Layer relu2_2
I0601 11:10:21.028998 28711 net.cpp:434] relu2_2 <- conv2_2
I0601 11:10:21.029006 28711 net.cpp:395] relu2_2 -> conv2_2 (in-place)
I0601 11:10:21.029013 28711 net.cpp:150] Setting up relu2_2
I0601 11:10:21.029019 28711 net.cpp:157] Top shape: 32 128 150 150 (92160000)
I0601 11:10:21.029023 28711 net.cpp:165] Memory required for data: 4884480032
I0601 11:10:21.029027 28711 layer_factory.hpp:77] Creating layer pool2
I0601 11:10:21.029032 28711 net.cpp:100] Creating Layer pool2
I0601 11:10:21.029036 28711 net.cpp:434] pool2 <- conv2_2
I0601 11:10:21.029049 28711 net.cpp:408] pool2 -> pool2
I0601 11:10:21.029083 28711 net.cpp:150] Setting up pool2
I0601 11:10:21.029088 28711 net.cpp:157] Top shape: 32 128 75 75 (23040000)
I0601 11:10:21.029090 28711 net.cpp:165] Memory required for data: 4976640032
I0601 11:10:21.029093 28711 layer_factory.hpp:77] Creating layer conv3_1
I0601 11:10:21.029099 28711 net.cpp:100] Creating Layer conv3_1
I0601 11:10:21.029101 28711 net.cpp:434] conv3_1 <- pool2
I0601 11:10:21.029106 28711 net.cpp:408] conv3_1 -> conv3_1
I0601 11:10:21.032178 28711 net.cpp:150] Setting up conv3_1
I0601 11:10:21.032192 28711 net.cpp:157] Top shape: 32 256 75 75 (46080000)
I0601 11:10:21.032194 28711 net.cpp:165] Memory required for data: 5160960032
I0601 11:10:21.032218 28711 layer_factory.hpp:77] Creating layer relu3_1
I0601 11:10:21.032223 28711 net.cpp:100] Creating Layer relu3_1
I0601 11:10:21.032227 28711 net.cpp:434] relu3_1 <- conv3_1
I0601 11:10:21.032232 28711 net.cpp:395] relu3_1 -> conv3_1 (in-place)
I0601 11:10:21.032238 28711 net.cpp:150] Setting up relu3_1
I0601 11:10:21.032254 28711 net.cpp:157] Top shape: 32 256 75 75 (46080000)
I0601 11:10:21.032258 28711 net.cpp:165] Memory required for data: 5345280032
I0601 11:10:21.032274 28711 layer_factory.hpp:77] Creating layer conv3_2
I0601 11:10:21.032297 28711 net.cpp:100] Creating Layer conv3_2
I0601 11:10:21.032302 28711 net.cpp:434] conv3_2 <- conv3_1
I0601 11:10:21.032322 28711 net.cpp:408] conv3_2 -> conv3_2
I0601 11:10:21.036079 28711 net.cpp:150] Setting up conv3_2
I0601 11:10:21.036090 28711 net.cpp:157] Top shape: 32 256 75 75 (46080000)
I0601 11:10:21.036093 28711 net.cpp:165] Memory required for data: 5529600032
I0601 11:10:21.036098 28711 layer_factory.hpp:77] Creating layer relu3_2
I0601 11:10:21.036118 28711 net.cpp:100] Creating Layer relu3_2
I0601 11:10:21.036119 28711 net.cpp:434] relu3_2 <- conv3_2
I0601 11:10:21.036123 28711 net.cpp:395] relu3_2 -> conv3_2 (in-place)
I0601 11:10:21.036129 28711 net.cpp:150] Setting up relu3_2
I0601 11:10:21.036149 28711 net.cpp:157] Top shape: 32 256 75 75 (46080000)
I0601 11:10:21.036154 28711 net.cpp:165] Memory required for data: 5713920032
I0601 11:10:21.036172 28711 layer_factory.hpp:77] Creating layer conv3_3
I0601 11:10:21.036213 28711 net.cpp:100] Creating Layer conv3_3
I0601 11:10:21.036232 28711 net.cpp:434] conv3_3 <- conv3_2
I0601 11:10:21.036239 28711 net.cpp:408] conv3_3 -> conv3_3
I0601 11:10:21.040051 28711 net.cpp:150] Setting up conv3_3
I0601 11:10:21.040067 28711 net.cpp:157] Top shape: 32 256 75 75 (46080000)
I0601 11:10:21.040069 28711 net.cpp:165] Memory required for data: 5898240032
I0601 11:10:21.040076 28711 layer_factory.hpp:77] Creating layer relu3_3
I0601 11:10:21.040096 28711 net.cpp:100] Creating Layer relu3_3
I0601 11:10:21.040099 28711 net.cpp:434] relu3_3 <- conv3_3
I0601 11:10:21.040104 28711 net.cpp:395] relu3_3 -> conv3_3 (in-place)
I0601 11:10:21.040110 28711 net.cpp:150] Setting up relu3_3
I0601 11:10:21.040128 28711 net.cpp:157] Top shape: 32 256 75 75 (46080000)
I0601 11:10:21.040130 28711 net.cpp:165] Memory required for data: 6082560032
I0601 11:10:21.040133 28711 layer_factory.hpp:77] Creating layer pool3
I0601 11:10:21.040139 28711 net.cpp:100] Creating Layer pool3
I0601 11:10:21.040144 28711 net.cpp:434] pool3 <- conv3_3
I0601 11:10:21.040151 28711 net.cpp:408] pool3 -> pool3
I0601 11:10:21.040190 28711 net.cpp:150] Setting up pool3
I0601 11:10:21.040211 28711 net.cpp:157] Top shape: 32 256 38 38 (11829248)
I0601 11:10:21.040215 28711 net.cpp:165] Memory required for data: 6129877024
I0601 11:10:21.040220 28711 layer_factory.hpp:77] Creating layer conv4_1
I0601 11:10:21.040230 28711 net.cpp:100] Creating Layer conv4_1
I0601 11:10:21.040235 28711 net.cpp:434] conv4_1 <- pool3
I0601 11:10:21.040241 28711 net.cpp:408] conv4_1 -> conv4_1
I0601 11:10:21.047255 28711 net.cpp:150] Setting up conv4_1
I0601 11:10:21.047273 28711 net.cpp:157] Top shape: 32 512 38 38 (23658496)
I0601 11:10:21.047276 28711 net.cpp:165] Memory required for data: 6224511008
I0601 11:10:21.047282 28711 layer_factory.hpp:77] Creating layer relu4_1
I0601 11:10:21.047291 28711 net.cpp:100] Creating Layer relu4_1
I0601 11:10:21.047296 28711 net.cpp:434] relu4_1 <- conv4_1
I0601 11:10:21.047302 28711 net.cpp:395] relu4_1 -> conv4_1 (in-place)
I0601 11:10:21.047310 28711 net.cpp:150] Setting up relu4_1
I0601 11:10:21.047317 28711 net.cpp:157] Top shape: 32 512 38 38 (23658496)
I0601 11:10:21.047320 28711 net.cpp:165] Memory required for data: 6319144992
I0601 11:10:21.047323 28711 layer_factory.hpp:77] Creating layer conv4_2
I0601 11:10:21.047333 28711 net.cpp:100] Creating Layer conv4_2
I0601 11:10:21.047338 28711 net.cpp:434] conv4_2 <- conv4_1
I0601 11:10:21.047345 28711 net.cpp:408] conv4_2 -> conv4_2
I0601 11:10:21.059124 28711 net.cpp:150] Setting up conv4_2
I0601 11:10:21.059141 28711 net.cpp:157] Top shape: 32 512 38 38 (23658496)
I0601 11:10:21.059144 28711 net.cpp:165] Memory required for data: 6413778976
I0601 11:10:21.059170 28711 layer_factory.hpp:77] Creating layer relu4_2
I0601 11:10:21.059190 28711 net.cpp:100] Creating Layer relu4_2
I0601 11:10:21.059193 28711 net.cpp:434] relu4_2 <- conv4_2
I0601 11:10:21.059197 28711 net.cpp:395] relu4_2 -> conv4_2 (in-place)
I0601 11:10:21.059204 28711 net.cpp:150] Setting up relu4_2
I0601 11:10:21.059207 28711 net.cpp:157] Top shape: 32 512 38 38 (23658496)
I0601 11:10:21.059209 28711 net.cpp:165] Memory required for data: 6508412960
I0601 11:10:21.059211 28711 layer_factory.hpp:77] Creating layer conv4_3
I0601 11:10:21.059222 28711 net.cpp:100] Creating Layer conv4_3
I0601 11:10:21.059226 28711 net.cpp:434] conv4_3 <- conv4_2
I0601 11:10:21.059231 28711 net.cpp:408] conv4_3 -> conv4_3
I0601 11:10:21.071943 28711 net.cpp:150] Setting up conv4_3
I0601 11:10:21.071960 28711 net.cpp:157] Top shape: 32 512 38 38 (23658496)
I0601 11:10:21.071964 28711 net.cpp:165] Memory required for data: 6603046944
I0601 11:10:21.071969 28711 layer_factory.hpp:77] Creating layer relu4_3
I0601 11:10:21.071990 28711 net.cpp:100] Creating Layer relu4_3
I0601 11:10:21.071995 28711 net.cpp:434] relu4_3 <- conv4_3
I0601 11:10:21.072000 28711 net.cpp:395] relu4_3 -> conv4_3 (in-place)
I0601 11:10:21.072021 28711 net.cpp:150] Setting up relu4_3
I0601 11:10:21.072026 28711 net.cpp:157] Top shape: 32 512 38 38 (23658496)
I0601 11:10:21.072031 28711 net.cpp:165] Memory required for data: 6697680928
I0601 11:10:21.072033 28711 layer_factory.hpp:77] Creating layer conv4_3_relu4_3_0_split
I0601 11:10:21.072038 28711 net.cpp:100] Creating Layer conv4_3_relu4_3_0_split
I0601 11:10:21.072042 28711 net.cpp:434] conv4_3_relu4_3_0_split <- conv4_3
I0601 11:10:21.072052 28711 net.cpp:408] conv4_3_relu4_3_0_split -> conv4_3_relu4_3_0_split_0
I0601 11:10:21.072058 28711 net.cpp:408] conv4_3_relu4_3_0_split -> conv4_3_relu4_3_0_split_1
I0601 11:10:21.072108 28711 net.cpp:150] Setting up conv4_3_relu4_3_0_split
I0601 11:10:21.072115 28711 net.cpp:157] Top shape: 32 512 38 38 (23658496)
I0601 11:10:21.072120 28711 net.cpp:157] Top shape: 32 512 38 38 (23658496)
I0601 11:10:21.072124 28711 net.cpp:165] Memory required for data: 6886948896
I0601 11:10:21.072127 28711 layer_factory.hpp:77] Creating layer pool4
I0601 11:10:21.072134 28711 net.cpp:100] Creating Layer pool4
I0601 11:10:21.072139 28711 net.cpp:434] pool4 <- conv4_3_relu4_3_0_split_0
I0601 11:10:21.072146 28711 net.cpp:408] pool4 -> pool4
I0601 11:10:21.072181 28711 net.cpp:150] Setting up pool4
I0601 11:10:21.072190 28711 net.cpp:157] Top shape: 32 512 19 19 (5914624)
I0601 11:10:21.072193 28711 net.cpp:165] Memory required for data: 6910607392
I0601 11:10:21.072196 28711 layer_factory.hpp:77] Creating layer conv5_1
I0601 11:10:21.072212 28711 net.cpp:100] Creating Layer conv5_1
I0601 11:10:21.072219 28711 net.cpp:434] conv5_1 <- pool4
I0601 11:10:21.072227 28711 net.cpp:408] conv5_1 -> conv5_1
I0601 11:10:21.084197 28711 net.cpp:150] Setting up conv5_1
I0601 11:10:21.084221 28711 net.cpp:157] Top shape: 32 512 19 19 (5914624)
I0601 11:10:21.084223 28711 net.cpp:165] Memory required for data: 6934265888
I0601 11:10:21.084230 28711 layer_factory.hpp:77] Creating layer relu5_1
I0601 11:10:21.084239 28711 net.cpp:100] Creating Layer relu5_1
I0601 11:10:21.084245 28711 net.cpp:434] relu5_1 <- conv5_1
I0601 11:10:21.084251 28711 net.cpp:395] relu5_1 -> conv5_1 (in-place)
I0601 11:10:21.084260 28711 net.cpp:150] Setting up relu5_1
I0601 11:10:21.084265 28711 net.cpp:157] Top shape: 32 512 19 19 (5914624)
I0601 11:10:21.084270 28711 net.cpp:165] Memory required for data: 6957924384
I0601 11:10:21.084273 28711 layer_factory.hpp:77] Creating layer conv5_2
I0601 11:10:21.084283 28711 net.cpp:100] Creating Layer conv5_2
I0601 11:10:21.084287 28711 net.cpp:434] conv5_2 <- conv5_1
I0601 11:10:21.084295 28711 net.cpp:408] conv5_2 -> conv5_2
I0601 11:10:21.096458 28711 net.cpp:150] Setting up conv5_2
I0601 11:10:21.096478 28711 net.cpp:157] Top shape: 32 512 19 19 (5914624)
I0601 11:10:21.096480 28711 net.cpp:165] Memory required for data: 6981582880
I0601 11:10:21.096487 28711 layer_factory.hpp:77] Creating layer relu5_2
I0601 11:10:21.096510 28711 net.cpp:100] Creating Layer relu5_2
I0601 11:10:21.096515 28711 net.cpp:434] relu5_2 <- conv5_2
I0601 11:10:21.096523 28711 net.cpp:395] relu5_2 -> conv5_2 (in-place)
I0601 11:10:21.096531 28711 net.cpp:150] Setting up relu5_2
I0601 11:10:21.096552 28711 net.cpp:157] Top shape: 32 512 19 19 (5914624)
I0601 11:10:21.096555 28711 net.cpp:165] Memory required for data: 7005241376
I0601 11:10:21.096560 28711 layer_factory.hpp:77] Creating layer conv5_3
I0601 11:10:21.096568 28711 net.cpp:100] Creating Layer conv5_3
I0601 11:10:21.096573 28711 net.cpp:434] conv5_3 <- conv5_2
I0601 11:10:21.096580 28711 net.cpp:408] conv5_3 -> conv5_3
I0601 11:10:21.109113 28711 net.cpp:150] Setting up conv5_3
I0601 11:10:21.109130 28711 net.cpp:157] Top shape: 32 512 19 19 (5914624)
I0601 11:10:21.109133 28711 net.cpp:165] Memory required for data: 7028899872
I0601 11:10:21.109140 28711 layer_factory.hpp:77] Creating layer relu5_3
I0601 11:10:21.109154 28711 net.cpp:100] Creating Layer relu5_3
I0601 11:10:21.109160 28711 net.cpp:434] relu5_3 <- conv5_3
I0601 11:10:21.109166 28711 net.cpp:395] relu5_3 -> conv5_3 (in-place)
I0601 11:10:21.109174 28711 net.cpp:150] Setting up relu5_3
I0601 11:10:21.109192 28711 net.cpp:157] Top shape: 32 512 19 19 (5914624)
I0601 11:10:21.109196 28711 net.cpp:165] Memory required for data: 7052558368
I0601 11:10:21.109213 28711 layer_factory.hpp:77] Creating layer pool5
I0601 11:10:21.109221 28711 net.cpp:100] Creating Layer pool5
I0601 11:10:21.109226 28711 net.cpp:434] pool5 <- conv5_3
I0601 11:10:21.109231 28711 net.cpp:408] pool5 -> pool5
I0601 11:10:21.109277 28711 net.cpp:150] Setting up pool5
I0601 11:10:21.109284 28711 net.cpp:157] Top shape: 32 512 19 19 (5914624)
I0601 11:10:21.109288 28711 net.cpp:165] Memory required for data: 7076216864
I0601 11:10:21.109292 28711 layer_factory.hpp:77] Creating layer fc6
I0601 11:10:21.109302 28711 net.cpp:100] Creating Layer fc6
I0601 11:10:21.109305 28711 net.cpp:434] fc6 <- pool5
I0601 11:10:21.109313 28711 net.cpp:408] fc6 -> fc6
I0601 11:10:21.132330 28711 net.cpp:150] Setting up fc6
I0601 11:10:21.132364 28711 net.cpp:157] Top shape: 32 1024 19 19 (11829248)
I0601 11:10:21.132366 28711 net.cpp:165] Memory required for data: 7123533856
I0601 11:10:21.132371 28711 layer_factory.hpp:77] Creating layer relu6
I0601 11:10:21.132391 28711 net.cpp:100] Creating Layer relu6
I0601 11:10:21.132395 28711 net.cpp:434] relu6 <- fc6
I0601 11:10:21.132400 28711 net.cpp:395] relu6 -> fc6 (in-place)
I0601 11:10:21.132406 28711 net.cpp:150] Setting up relu6
I0601 11:10:21.132410 28711 net.cpp:157] Top shape: 32 1024 19 19 (11829248)
I0601 11:10:21.132412 28711 net.cpp:165] Memory required for data: 7170850848
I0601 11:10:21.132428 28711 layer_factory.hpp:77] Creating layer fc7
I0601 11:10:21.132438 28711 net.cpp:100] Creating Layer fc7
I0601 11:10:21.132441 28711 net.cpp:434] fc7 <- fc6
I0601 11:10:21.132448 28711 net.cpp:408] fc7 -> fc7
I0601 11:10:21.138905 28711 net.cpp:150] Setting up fc7
I0601 11:10:21.138924 28711 net.cpp:157] Top shape: 32 1024 19 19 (11829248)
I0601 11:10:21.138927 28711 net.cpp:165] Memory required for data: 7218167840
I0601 11:10:21.138949 28711 layer_factory.hpp:77] Creating layer relu7
I0601 11:10:21.138970 28711 net.cpp:100] Creating Layer relu7
I0601 11:10:21.138974 28711 net.cpp:434] relu7 <- fc7
I0601 11:10:21.138978 28711 net.cpp:395] relu7 -> fc7 (in-place)
I0601 11:10:21.138986 28711 net.cpp:150] Setting up relu7
I0601 11:10:21.138989 28711 net.cpp:157] Top shape: 32 1024 19 19 (11829248)
I0601 11:10:21.138993 28711 net.cpp:165] Memory required for data: 7265484832
I0601 11:10:21.138995 28711 layer_factory.hpp:77] Creating layer fc7_relu7_0_split
I0601 11:10:21.139000 28711 net.cpp:100] Creating Layer fc7_relu7_0_split
I0601 11:10:21.139008 28711 net.cpp:434] fc7_relu7_0_split <- fc7
I0601 11:10:21.139014 28711 net.cpp:408] fc7_relu7_0_split -> fc7_relu7_0_split_0
I0601 11:10:21.139024 28711 net.cpp:408] fc7_relu7_0_split -> fc7_relu7_0_split_1
I0601 11:10:21.139035 28711 net.cpp:408] fc7_relu7_0_split -> fc7_relu7_0_split_2
I0601 11:10:21.139044 28711 net.cpp:408] fc7_relu7_0_split -> fc7_relu7_0_split_3
I0601 11:10:21.139102 28711 net.cpp:150] Setting up fc7_relu7_0_split
I0601 11:10:21.139111 28711 net.cpp:157] Top shape: 32 1024 19 19 (11829248)
I0601 11:10:21.139117 28711 net.cpp:157] Top shape: 32 1024 19 19 (11829248)
I0601 11:10:21.139122 28711 net.cpp:157] Top shape: 32 1024 19 19 (11829248)
I0601 11:10:21.139127 28711 net.cpp:157] Top shape: 32 1024 19 19 (11829248)
I0601 11:10:21.139129 28711 net.cpp:165] Memory required for data: 7454752800
I0601 11:10:21.139134 28711 layer_factory.hpp:77] Creating layer conv6_1
I0601 11:10:21.139144 28711 net.cpp:100] Creating Layer conv6_1
I0601 11:10:21.139149 28711 net.cpp:434] conv6_1 <- fc7_relu7_0_split_0
I0601 11:10:21.139158 28711 net.cpp:408] conv6_1 -> conv6_1
I0601 11:10:21.141381 28711 net.cpp:150] Setting up conv6_1
I0601 11:10:21.141392 28711 net.cpp:157] Top shape: 32 256 19 19 (2957312)
I0601 11:10:21.141394 28711 net.cpp:165] Memory required for data: 7466582048
I0601 11:10:21.141399 28711 layer_factory.hpp:77] Creating layer conv6_1_relu
I0601 11:10:21.141420 28711 net.cpp:100] Creating Layer conv6_1_relu
I0601 11:10:21.141436 28711 net.cpp:434] conv6_1_relu <- conv6_1
I0601 11:10:21.141455 28711 net.cpp:395] conv6_1_relu -> conv6_1 (in-place)
I0601 11:10:21.141464 28711 net.cpp:150] Setting up conv6_1_relu
I0601 11:10:21.141470 28711 net.cpp:157] Top shape: 32 256 19 19 (2957312)
I0601 11:10:21.141474 28711 net.cpp:165] Memory required for data: 7478411296
I0601 11:10:21.141479 28711 layer_factory.hpp:77] Creating layer conv6_2
I0601 11:10:21.141489 28711 net.cpp:100] Creating Layer conv6_2
I0601 11:10:21.141494 28711 net.cpp:434] conv6_2 <- conv6_1
I0601 11:10:21.141502 28711 net.cpp:408] conv6_2 -> conv6_2
I0601 11:10:21.148160 28711 net.cpp:150] Setting up conv6_2
I0601 11:10:21.148177 28711 net.cpp:157] Top shape: 32 512 10 10 (1638400)
I0601 11:10:21.148180 28711 net.cpp:165] Memory required for data: 7484964896
I0601 11:10:21.148206 28711 layer_factory.hpp:77] Creating layer conv6_2_relu
I0601 11:10:21.148213 28711 net.cpp:100] Creating Layer conv6_2_relu
I0601 11:10:21.148217 28711 net.cpp:434] conv6_2_relu <- conv6_2
I0601 11:10:21.148221 28711 net.cpp:395] conv6_2_relu -> conv6_2 (in-place)
I0601 11:10:21.148228 28711 net.cpp:150] Setting up conv6_2_relu
I0601 11:10:21.148232 28711 net.cpp:157] Top shape: 32 512 10 10 (1638400)
I0601 11:10:21.148236 28711 net.cpp:165] Memory required for data: 7491518496
I0601 11:10:21.148238 28711 layer_factory.hpp:77] Creating layer conv6_2_conv6_2_relu_0_split
I0601 11:10:21.148257 28711 net.cpp:100] Creating Layer conv6_2_conv6_2_relu_0_split
I0601 11:10:21.148262 28711 net.cpp:434] conv6_2_conv6_2_relu_0_split <- conv6_2
I0601 11:10:21.148269 28711 net.cpp:408] conv6_2_conv6_2_relu_0_split -> conv6_2_conv6_2_relu_0_split_0
I0601 11:10:21.148277 28711 net.cpp:408] conv6_2_conv6_2_relu_0_split -> conv6_2_conv6_2_relu_0_split_1
I0601 11:10:21.148284 28711 net.cpp:408] conv6_2_conv6_2_relu_0_split -> conv6_2_conv6_2_relu_0_split_2
I0601 11:10:21.148290 28711 net.cpp:408] conv6_2_conv6_2_relu_0_split -> conv6_2_conv6_2_relu_0_split_3
I0601 11:10:21.148356 28711 net.cpp:150] Setting up conv6_2_conv6_2_relu_0_split
I0601 11:10:21.148366 28711 net.cpp:157] Top shape: 32 512 10 10 (1638400)
I0601 11:10:21.148371 28711 net.cpp:157] Top shape: 32 512 10 10 (1638400)
I0601 11:10:21.148375 28711 net.cpp:157] Top shape: 32 512 10 10 (1638400)
I0601 11:10:21.148380 28711 net.cpp:157] Top shape: 32 512 10 10 (1638400)
I0601 11:10:21.148382 28711 net.cpp:165] Memory required for data: 7517732896
I0601 11:10:21.148386 28711 layer_factory.hpp:77] Creating layer conv7_1
I0601 11:10:21.148398 28711 net.cpp:100] Creating Layer conv7_1
I0601 11:10:21.148419 28711 net.cpp:434] conv7_1 <- conv6_2_conv6_2_relu_0_split_0
I0601 11:10:21.148442 28711 net.cpp:408] conv7_1 -> conv7_1
I0601 11:10:21.149134 28711 net.cpp:150] Setting up conv7_1
I0601 11:10:21.149145 28711 net.cpp:157] Top shape: 32 128 10 10 (409600)
I0601 11:10:21.149150 28711 net.cpp:165] Memory required for data: 7519371296
I0601 11:10:21.149157 28711 layer_factory.hpp:77] Creating layer conv7_1_relu
I0601 11:10:21.149163 28711 net.cpp:100] Creating Layer conv7_1_relu
I0601 11:10:21.149165 28711 net.cpp:434] conv7_1_relu <- conv7_1
I0601 11:10:21.149169 28711 net.cpp:395] conv7_1_relu -> conv7_1 (in-place)
I0601 11:10:21.149173 28711 net.cpp:150] Setting up conv7_1_relu
I0601 11:10:21.149178 28711 net.cpp:157] Top shape: 32 128 10 10 (409600)
I0601 11:10:21.149179 28711 net.cpp:165] Memory required for data: 7521009696
I0601 11:10:21.149180 28711 layer_factory.hpp:77] Creating layer conv7_2
I0601 11:10:21.149186 28711 net.cpp:100] Creating Layer conv7_2
I0601 11:10:21.149189 28711 net.cpp:434] conv7_2 <- conv7_1
I0601 11:10:21.149194 28711 net.cpp:408] conv7_2 -> conv7_2
I0601 11:10:21.151540 28711 net.cpp:150] Setting up conv7_2
I0601 11:10:21.151551 28711 net.cpp:157] Top shape: 32 256 5 5 (204800)
I0601 11:10:21.151553 28711 net.cpp:165] Memory required for data: 7521828896
I0601 11:10:21.151558 28711 layer_factory.hpp:77] Creating layer conv7_2_relu
I0601 11:10:21.151566 28711 net.cpp:100] Creating Layer conv7_2_relu
I0601 11:10:21.151571 28711 net.cpp:434] conv7_2_relu <- conv7_2
I0601 11:10:21.151590 28711 net.cpp:395] conv7_2_relu -> conv7_2 (in-place)
I0601 11:10:21.151599 28711 net.cpp:150] Setting up conv7_2_relu
I0601 11:10:21.151607 28711 net.cpp:157] Top shape: 32 256 5 5 (204800)
I0601 11:10:21.151612 28711 net.cpp:165] Memory required for data: 7522648096
I0601 11:10:21.151614 28711 layer_factory.hpp:77] Creating layer conv7_2_conv7_2_relu_0_split
I0601 11:10:21.151621 28711 net.cpp:100] Creating Layer conv7_2_conv7_2_relu_0_split
I0601 11:10:21.151626 28711 net.cpp:434] conv7_2_conv7_2_relu_0_split <- conv7_2
I0601 11:10:21.151633 28711 net.cpp:408] conv7_2_conv7_2_relu_0_split -> conv7_2_conv7_2_relu_0_split_0
I0601 11:10:21.151644 28711 net.cpp:408] conv7_2_conv7_2_relu_0_split -> conv7_2_conv7_2_relu_0_split_1
I0601 11:10:21.151654 28711 net.cpp:408] conv7_2_conv7_2_relu_0_split -> conv7_2_conv7_2_relu_0_split_2
I0601 11:10:21.151661 28711 net.cpp:408] conv7_2_conv7_2_relu_0_split -> conv7_2_conv7_2_relu_0_split_3
I0601 11:10:21.151726 28711 net.cpp:150] Setting up conv7_2_conv7_2_relu_0_split
I0601 11:10:21.151734 28711 net.cpp:157] Top shape: 32 256 5 5 (204800)
I0601 11:10:21.151739 28711 net.cpp:157] Top shape: 32 256 5 5 (204800)
I0601 11:10:21.151744 28711 net.cpp:157] Top shape: 32 256 5 5 (204800)
I0601 11:10:21.151751 28711 net.cpp:157] Top shape: 32 256 5 5 (204800)
I0601 11:10:21.151753 28711 net.cpp:165] Memory required for data: 7525924896
I0601 11:10:21.151758 28711 layer_factory.hpp:77] Creating layer conv8_1
I0601 11:10:21.151769 28711 net.cpp:100] Creating Layer conv8_1
I0601 11:10:21.151774 28711 net.cpp:434] conv8_1 <- conv7_2_conv7_2_relu_0_split_0
I0601 11:10:21.151783 28711 net.cpp:408] conv8_1 -> conv8_1
I0601 11:10:21.152262 28711 net.cpp:150] Setting up conv8_1
I0601 11:10:21.152272 28711 net.cpp:157] Top shape: 32 128 5 5 (102400)
I0601 11:10:21.152277 28711 net.cpp:165] Memory required for data: 7526334496
I0601 11:10:21.152285 28711 layer_factory.hpp:77] Creating layer conv8_1_relu
I0601 11:10:21.152293 28711 net.cpp:100] Creating Layer conv8_1_relu
I0601 11:10:21.152298 28711 net.cpp:434] conv8_1_relu <- conv8_1
I0601 11:10:21.152305 28711 net.cpp:395] conv8_1_relu -> conv8_1 (in-place)
I0601 11:10:21.152313 28711 net.cpp:150] Setting up conv8_1_relu
I0601 11:10:21.152320 28711 net.cpp:157] Top shape: 32 128 5 5 (102400)
I0601 11:10:21.152324 28711 net.cpp:165] Memory required for data: 7526744096
I0601 11:10:21.152328 28711 layer_factory.hpp:77] Creating layer conv8_2
I0601 11:10:21.152338 28711 net.cpp:100] Creating Layer conv8_2
I0601 11:10:21.152343 28711 net.cpp:434] conv8_2 <- conv8_1
I0601 11:10:21.152350 28711 net.cpp:408] conv8_2 -> conv8_2
I0601 11:10:21.154489 28711 net.cpp:150] Setting up conv8_2
I0601 11:10:21.154500 28711 net.cpp:157] Top shape: 32 256 3 3 (73728)
I0601 11:10:21.154501 28711 net.cpp:165] Memory required for data: 7527039008
I0601 11:10:21.154507 28711 layer_factory.hpp:77] Creating layer conv8_2_relu
I0601 11:10:21.154513 28711 net.cpp:100] Creating Layer conv8_2_relu
I0601 11:10:21.154520 28711 net.cpp:434] conv8_2_relu <- conv8_2
I0601 11:10:21.154526 28711 net.cpp:395] conv8_2_relu -> conv8_2 (in-place)
I0601 11:10:21.154534 28711 net.cpp:150] Setting up conv8_2_relu
I0601 11:10:21.154541 28711 net.cpp:157] Top shape: 32 256 3 3 (73728)
I0601 11:10:21.154546 28711 net.cpp:165] Memory required for data: 7527333920
I0601 11:10:21.154549 28711 layer_factory.hpp:77] Creating layer conv8_2_conv8_2_relu_0_split
I0601 11:10:21.154556 28711 net.cpp:100] Creating Layer conv8_2_conv8_2_relu_0_split
I0601 11:10:21.154559 28711 net.cpp:434] conv8_2_conv8_2_relu_0_split <- conv8_2
I0601 11:10:21.154567 28711 net.cpp:408] conv8_2_conv8_2_relu_0_split -> conv8_2_conv8_2_relu_0_split_0
I0601 11:10:21.154577 28711 net.cpp:408] conv8_2_conv8_2_relu_0_split -> conv8_2_conv8_2_relu_0_split_1
I0601 11:10:21.154584 28711 net.cpp:408] conv8_2_conv8_2_relu_0_split -> conv8_2_conv8_2_relu_0_split_2
I0601 11:10:21.154592 28711 net.cpp:408] conv8_2_conv8_2_relu_0_split -> conv8_2_conv8_2_relu_0_split_3
I0601 11:10:21.154670 28711 net.cpp:150] Setting up conv8_2_conv8_2_relu_0_split
I0601 11:10:21.154680 28711 net.cpp:157] Top shape: 32 256 3 3 (73728)
I0601 11:10:21.154685 28711 net.cpp:157] Top shape: 32 256 3 3 (73728)
I0601 11:10:21.154690 28711 net.cpp:157] Top shape: 32 256 3 3 (73728)
I0601 11:10:21.154696 28711 net.cpp:157] Top shape: 32 256 3 3 (73728)
I0601 11:10:21.154701 28711 net.cpp:165] Memory required for data: 7528513568
I0601 11:10:21.154706 28711 layer_factory.hpp:77] Creating layer conv9_1
I0601 11:10:21.154716 28711 net.cpp:100] Creating Layer conv9_1
I0601 11:10:21.154722 28711 net.cpp:434] conv9_1 <- conv8_2_conv8_2_relu_0_split_0
I0601 11:10:21.154732 28711 net.cpp:408] conv9_1 -> conv9_1
I0601 11:10:21.155210 28711 net.cpp:150] Setting up conv9_1
I0601 11:10:21.155220 28711 net.cpp:157] Top shape: 32 128 3 3 (36864)
I0601 11:10:21.155226 28711 net.cpp:165] Memory required for data: 7528661024
I0601 11:10:21.155233 28711 layer_factory.hpp:77] Creating layer conv9_1_relu
I0601 11:10:21.155241 28711 net.cpp:100] Creating Layer conv9_1_relu
I0601 11:10:21.155246 28711 net.cpp:434] conv9_1_relu <- conv9_1
I0601 11:10:21.155252 28711 net.cpp:395] conv9_1_relu -> conv9_1 (in-place)
I0601 11:10:21.155261 28711 net.cpp:150] Setting up conv9_1_relu
I0601 11:10:21.155267 28711 net.cpp:157] Top shape: 32 128 3 3 (36864)
I0601 11:10:21.155272 28711 net.cpp:165] Memory required for data: 7528808480
I0601 11:10:21.155277 28711 layer_factory.hpp:77] Creating layer conv9_2
I0601 11:10:21.155285 28711 net.cpp:100] Creating Layer conv9_2
I0601 11:10:21.155290 28711 net.cpp:434] conv9_2 <- conv9_1
I0601 11:10:21.155299 28711 net.cpp:408] conv9_2 -> conv9_2
I0601 11:10:21.157558 28711 net.cpp:150] Setting up conv9_2
I0601 11:10:21.157570 28711 net.cpp:157] Top shape: 32 256 1 1 (8192)
I0601 11:10:21.157573 28711 net.cpp:165] Memory required for data: 7528841248
I0601 11:10:21.157577 28711 layer_factory.hpp:77] Creating layer conv9_2_relu
I0601 11:10:21.157585 28711 net.cpp:100] Creating Layer conv9_2_relu
I0601 11:10:21.157591 28711 net.cpp:434] conv9_2_relu <- conv9_2
I0601 11:10:21.157598 28711 net.cpp:395] conv9_2_relu -> conv9_2 (in-place)
I0601 11:10:21.157606 28711 net.cpp:150] Setting up conv9_2_relu
I0601 11:10:21.157613 28711 net.cpp:157] Top shape: 32 256 1 1 (8192)
I0601 11:10:21.157618 28711 net.cpp:165] Memory required for data: 7528874016
I0601 11:10:21.157621 28711 layer_factory.hpp:77] Creating layer conv9_2_conv9_2_relu_0_split
I0601 11:10:21.157626 28711 net.cpp:100] Creating Layer conv9_2_conv9_2_relu_0_split
I0601 11:10:21.157631 28711 net.cpp:434] conv9_2_conv9_2_relu_0_split <- conv9_2
I0601 11:10:21.157639 28711 net.cpp:408] conv9_2_conv9_2_relu_0_split -> conv9_2_conv9_2_relu_0_split_0
I0601 11:10:21.157647 28711 net.cpp:408] conv9_2_conv9_2_relu_0_split -> conv9_2_conv9_2_relu_0_split_1
I0601 11:10:21.157655 28711 net.cpp:408] conv9_2_conv9_2_relu_0_split -> conv9_2_conv9_2_relu_0_split_2
I0601 11:10:21.157709 28711 net.cpp:150] Setting up conv9_2_conv9_2_relu_0_split
I0601 11:10:21.157718 28711 net.cpp:157] Top shape: 32 256 1 1 (8192)
I0601 11:10:21.157724 28711 net.cpp:157] Top shape: 32 256 1 1 (8192)
I0601 11:10:21.157729 28711 net.cpp:157] Top shape: 32 256 1 1 (8192)
I0601 11:10:21.157734 28711 net.cpp:165] Memory required for data: 7528972320
I0601 11:10:21.157738 28711 layer_factory.hpp:77] Creating layer conv4_3_norm
I0601 11:10:21.157745 28711 net.cpp:100] Creating Layer conv4_3_norm
I0601 11:10:21.157752 28711 net.cpp:434] conv4_3_norm <- conv4_3_relu4_3_0_split_1
I0601 11:10:21.157760 28711 net.cpp:408] conv4_3_norm -> conv4_3_norm
I0601 11:10:21.157914 28711 net.cpp:150] Setting up conv4_3_norm
I0601 11:10:21.157922 28711 net.cpp:157] Top shape: 32 512 38 38 (23658496)
I0601 11:10:21.157927 28711 net.cpp:165] Memory required for data: 7623606304
I0601 11:10:21.157934 28711 layer_factory.hpp:77] Creating layer conv4_3_norm_conv4_3_norm_0_split
I0601 11:10:21.157941 28711 net.cpp:100] Creating Layer conv4_3_norm_conv4_3_norm_0_split
I0601 11:10:21.157946 28711 net.cpp:434] conv4_3_norm_conv4_3_norm_0_split <- conv4_3_norm
I0601 11:10:21.157966 28711 net.cpp:408] conv4_3_norm_conv4_3_norm_0_split -> conv4_3_norm_conv4_3_norm_0_split_0
I0601 11:10:21.157976 28711 net.cpp:408] conv4_3_norm_conv4_3_norm_0_split -> conv4_3_norm_conv4_3_norm_0_split_1
I0601 11:10:21.157984 28711 net.cpp:408] conv4_3_norm_conv4_3_norm_0_split -> conv4_3_norm_conv4_3_norm_0_split_2
I0601 11:10:21.158030 28711 net.cpp:150] Setting up conv4_3_norm_conv4_3_norm_0_split
I0601 11:10:21.158037 28711 net.cpp:157] Top shape: 32 512 38 38 (23658496)
I0601 11:10:21.158043 28711 net.cpp:157] Top shape: 32 512 38 38 (23658496)
I0601 11:10:21.158049 28711 net.cpp:157] Top shape: 32 512 38 38 (23658496)
I0601 11:10:21.158053 28711 net.cpp:165] Memory required for data: 7907508256
I0601 11:10:21.158057 28711 layer_factory.hpp:77] Creating layer conv4_3_norm_mbox_loc
I0601 11:10:21.158066 28711 net.cpp:100] Creating Layer conv4_3_norm_mbox_loc
I0601 11:10:21.158073 28711 net.cpp:434] conv4_3_norm_mbox_loc <- conv4_3_norm_conv4_3_norm_0_split_0
I0601 11:10:21.158082 28711 net.cpp:408] conv4_3_norm_mbox_loc -> conv4_3_norm_mbox_loc
I0601 11:10:21.158849 28711 net.cpp:150] Setting up conv4_3_norm_mbox_loc
I0601 11:10:21.158861 28711 net.cpp:157] Top shape: 32 16 38 38 (739328)
I0601 11:10:21.158866 28711 net.cpp:165] Memory required for data: 7910465568
I0601 11:10:21.158874 28711 layer_factory.hpp:77] Creating layer conv4_3_norm_mbox_loc_perm
I0601 11:10:21.158882 28711 net.cpp:100] Creating Layer conv4_3_norm_mbox_loc_perm
I0601 11:10:21.158887 28711 net.cpp:434] conv4_3_norm_mbox_loc_perm <- conv4_3_norm_mbox_loc
I0601 11:10:21.158896 28711 net.cpp:408] conv4_3_norm_mbox_loc_perm -> conv4_3_norm_mbox_loc_perm
I0601 11:10:21.158994 28711 net.cpp:150] Setting up conv4_3_norm_mbox_loc_perm
I0601 11:10:21.159004 28711 net.cpp:157] Top shape: 32 38 38 16 (739328)
I0601 11:10:21.159008 28711 net.cpp:165] Memory required for data: 7913422880
I0601 11:10:21.159013 28711 layer_factory.hpp:77] Creating layer conv4_3_norm_mbox_loc_flat
I0601 11:10:21.159020 28711 net.cpp:100] Creating Layer conv4_3_norm_mbox_loc_flat
I0601 11:10:21.159024 28711 net.cpp:434] conv4_3_norm_mbox_loc_flat <- conv4_3_norm_mbox_loc_perm
I0601 11:10:21.159031 28711 net.cpp:408] conv4_3_norm_mbox_loc_flat -> conv4_3_norm_mbox_loc_flat
I0601 11:10:21.159067 28711 net.cpp:150] Setting up conv4_3_norm_mbox_loc_flat
I0601 11:10:21.159076 28711 net.cpp:157] Top shape: 32 23104 (739328)
I0601 11:10:21.159080 28711 net.cpp:165] Memory required for data: 7916380192
I0601 11:10:21.159085 28711 layer_factory.hpp:77] Creating layer conv4_3_norm_mbox_conf
I0601 11:10:21.159101 28711 net.cpp:100] Creating Layer conv4_3_norm_mbox_conf
I0601 11:10:21.159106 28711 net.cpp:434] conv4_3_norm_mbox_conf <- conv4_3_norm_conv4_3_norm_0_split_1
I0601 11:10:21.159112 28711 net.cpp:408] conv4_3_norm_mbox_conf -> conv4_3_norm_mbox_conf
I0601 11:10:21.159894 28711 net.cpp:150] Setting up conv4_3_norm_mbox_conf
I0601 11:10:21.159909 28711 net.cpp:157] Top shape: 32 16 38 38 (739328)
I0601 11:10:21.159914 28711 net.cpp:165] Memory required for data: 7919337504
I0601 11:10:21.159921 28711 layer_factory.hpp:77] Creating layer conv4_3_norm_mbox_conf_perm
I0601 11:10:21.159929 28711 net.cpp:100] Creating Layer conv4_3_norm_mbox_conf_perm
I0601 11:10:21.159936 28711 net.cpp:434] conv4_3_norm_mbox_conf_perm <- conv4_3_norm_mbox_conf
I0601 11:10:21.159943 28711 net.cpp:408] conv4_3_norm_mbox_conf_perm -> conv4_3_norm_mbox_conf_perm
I0601 11:10:21.160043 28711 net.cpp:150] Setting up conv4_3_norm_mbox_conf_perm
I0601 11:10:21.160051 28711 net.cpp:157] Top shape: 32 38 38 16 (739328)
I0601 11:10:21.160056 28711 net.cpp:165] Memory required for data: 7922294816
I0601 11:10:21.160060 28711 layer_factory.hpp:77] Creating layer conv4_3_norm_mbox_conf_flat
I0601 11:10:21.160068 28711 net.cpp:100] Creating Layer conv4_3_norm_mbox_conf_flat
I0601 11:10:21.160073 28711 net.cpp:434] conv4_3_norm_mbox_conf_flat <- conv4_3_norm_mbox_conf_perm
I0601 11:10:21.160080 28711 net.cpp:408] conv4_3_norm_mbox_conf_flat -> conv4_3_norm_mbox_conf_flat
I0601 11:10:21.160115 28711 net.cpp:150] Setting up conv4_3_norm_mbox_conf_flat
I0601 11:10:21.160122 28711 net.cpp:157] Top shape: 32 23104 (739328)
I0601 11:10:21.160127 28711 net.cpp:165] Memory required for data: 7925252128
I0601 11:10:21.160132 28711 layer_factory.hpp:77] Creating layer conv4_3_norm_mbox_priorbox
I0601 11:10:21.160141 28711 net.cpp:100] Creating Layer conv4_3_norm_mbox_priorbox
I0601 11:10:21.160147 28711 net.cpp:434] conv4_3_norm_mbox_priorbox <- conv4_3_norm_conv4_3_norm_0_split_2
I0601 11:10:21.160153 28711 net.cpp:434] conv4_3_norm_mbox_priorbox <- data_data_0_split_1
I0601 11:10:21.160162 28711 net.cpp:408] conv4_3_norm_mbox_priorbox -> conv4_3_norm_mbox_priorbox
I0601 11:10:21.160190 28711 net.cpp:150] Setting up conv4_3_norm_mbox_priorbox
I0601 11:10:21.160198 28711 net.cpp:157] Top shape: 1 2 23104 (46208)
I0601 11:10:21.160202 28711 net.cpp:165] Memory required for data: 7925436960
I0601 11:10:21.160208 28711 layer_factory.hpp:77] Creating layer fc7_mbox_loc
I0601 11:10:21.160218 28711 net.cpp:100] Creating Layer fc7_mbox_loc
I0601 11:10:21.160224 28711 net.cpp:434] fc7_mbox_loc <- fc7_relu7_0_split_1
I0601 11:10:21.160233 28711 net.cpp:408] fc7_mbox_loc -> fc7_mbox_loc
I0601 11:10:21.161659 28711 net.cpp:150] Setting up fc7_mbox_loc
I0601 11:10:21.161669 28711 net.cpp:157] Top shape: 32 24 19 19 (277248)
I0601 11:10:21.161672 28711 net.cpp:165] Memory required for data: 7926545952
I0601 11:10:21.161677 28711 layer_factory.hpp:77] Creating layer fc7_mbox_loc_perm
I0601 11:10:21.161687 28711 net.cpp:100] Creating Layer fc7_mbox_loc_perm
I0601 11:10:21.161694 28711 net.cpp:434] fc7_mbox_loc_perm <- fc7_mbox_loc
I0601 11:10:21.161701 28711 net.cpp:408] fc7_mbox_loc_perm -> fc7_mbox_loc_perm
I0601 11:10:21.161799 28711 net.cpp:150] Setting up fc7_mbox_loc_perm
I0601 11:10:21.161810 28711 net.cpp:157] Top shape: 32 19 19 24 (277248)
I0601 11:10:21.161815 28711 net.cpp:165] Memory required for data: 7927654944
I0601 11:10:21.161819 28711 layer_factory.hpp:77] Creating layer fc7_mbox_loc_flat
I0601 11:10:21.161828 28711 net.cpp:100] Creating Layer fc7_mbox_loc_flat
I0601 11:10:21.161833 28711 net.cpp:434] fc7_mbox_loc_flat <- fc7_mbox_loc_perm
I0601 11:10:21.161840 28711 net.cpp:408] fc7_mbox_loc_flat -> fc7_mbox_loc_flat
I0601 11:10:21.161869 28711 net.cpp:150] Setting up fc7_mbox_loc_flat
I0601 11:10:21.161876 28711 net.cpp:157] Top shape: 32 8664 (277248)
I0601 11:10:21.161881 28711 net.cpp:165] Memory required for data: 7928763936
I0601 11:10:21.161885 28711 layer_factory.hpp:77] Creating layer fc7_mbox_conf
I0601 11:10:21.161896 28711 net.cpp:100] Creating Layer fc7_mbox_conf
I0601 11:10:21.161901 28711 net.cpp:434] fc7_mbox_conf <- fc7_relu7_0_split_2
I0601 11:10:21.161909 28711 net.cpp:408] fc7_mbox_conf -> fc7_mbox_conf
I0601 11:10:21.163254 28711 net.cpp:150] Setting up fc7_mbox_conf
I0601 11:10:21.163264 28711 net.cpp:157] Top shape: 32 24 19 19 (277248)
I0601 11:10:21.163265 28711 net.cpp:165] Memory required for data: 7929872928
I0601 11:10:21.163270 28711 layer_factory.hpp:77] Creating layer fc7_mbox_conf_perm
I0601 11:10:21.163278 28711 net.cpp:100] Creating Layer fc7_mbox_conf_perm
I0601 11:10:21.163283 28711 net.cpp:434] fc7_mbox_conf_perm <- fc7_mbox_conf
I0601 11:10:21.163295 28711 net.cpp:408] fc7_mbox_conf_perm -> fc7_mbox_conf_perm
I0601 11:10:21.163393 28711 net.cpp:150] Setting up fc7_mbox_conf_perm
I0601 11:10:21.163404 28711 net.cpp:157] Top shape: 32 19 19 24 (277248)
I0601 11:10:21.163409 28711 net.cpp:165] Memory required for data: 7930981920
I0601 11:10:21.163413 28711 layer_factory.hpp:77] Creating layer fc7_mbox_conf_flat
I0601 11:10:21.163420 28711 net.cpp:100] Creating Layer fc7_mbox_conf_flat
I0601 11:10:21.163426 28711 net.cpp:434] fc7_mbox_conf_flat <- fc7_mbox_conf_perm
I0601 11:10:21.163432 28711 net.cpp:408] fc7_mbox_conf_flat -> fc7_mbox_conf_flat
I0601 11:10:21.163457 28711 net.cpp:150] Setting up fc7_mbox_conf_flat
I0601 11:10:21.163465 28711 net.cpp:157] Top shape: 32 8664 (277248)
I0601 11:10:21.163470 28711 net.cpp:165] Memory required for data: 7932090912
I0601 11:10:21.163486 28711 layer_factory.hpp:77] Creating layer fc7_mbox_priorbox
I0601 11:10:21.163496 28711 net.cpp:100] Creating Layer fc7_mbox_priorbox
I0601 11:10:21.163501 28711 net.cpp:434] fc7_mbox_priorbox <- fc7_relu7_0_split_3
I0601 11:10:21.163507 28711 net.cpp:434] fc7_mbox_priorbox <- data_data_0_split_2
I0601 11:10:21.163516 28711 net.cpp:408] fc7_mbox_priorbox -> fc7_mbox_priorbox
I0601 11:10:21.163542 28711 net.cpp:150] Setting up fc7_mbox_priorbox
I0601 11:10:21.163549 28711 net.cpp:157] Top shape: 1 2 8664 (17328)
I0601 11:10:21.163554 28711 net.cpp:165] Memory required for data: 7932160224
I0601 11:10:21.163558 28711 layer_factory.hpp:77] Creating layer conv6_2_mbox_loc
I0601 11:10:21.163569 28711 net.cpp:100] Creating Layer conv6_2_mbox_loc
I0601 11:10:21.163575 28711 net.cpp:434] conv6_2_mbox_loc <- conv6_2_conv6_2_relu_0_split_1
I0601 11:10:21.163584 28711 net.cpp:408] conv6_2_mbox_loc -> conv6_2_mbox_loc
I0601 11:10:21.164506 28711 net.cpp:150] Setting up conv6_2_mbox_loc
I0601 11:10:21.164515 28711 net.cpp:157] Top shape: 32 24 10 10 (76800)
I0601 11:10:21.164517 28711 net.cpp:165] Memory required for data: 7932467424
I0601 11:10:21.164525 28711 layer_factory.hpp:77] Creating layer conv6_2_mbox_loc_perm
I0601 11:10:21.164532 28711 net.cpp:100] Creating Layer conv6_2_mbox_loc_perm
I0601 11:10:21.164539 28711 net.cpp:434] conv6_2_mbox_loc_perm <- conv6_2_mbox_loc
I0601 11:10:21.164547 28711 net.cpp:408] conv6_2_mbox_loc_perm -> conv6_2_mbox_loc_perm
I0601 11:10:21.164649 28711 net.cpp:150] Setting up conv6_2_mbox_loc_perm
I0601 11:10:21.164659 28711 net.cpp:157] Top shape: 32 10 10 24 (76800)
I0601 11:10:21.164664 28711 net.cpp:165] Memory required for data: 7932774624
I0601 11:10:21.164667 28711 layer_factory.hpp:77] Creating layer conv6_2_mbox_loc_flat
I0601 11:10:21.164674 28711 net.cpp:100] Creating Layer conv6_2_mbox_loc_flat
I0601 11:10:21.164680 28711 net.cpp:434] conv6_2_mbox_loc_flat <- conv6_2_mbox_loc_perm
I0601 11:10:21.164688 28711 net.cpp:408] conv6_2_mbox_loc_flat -> conv6_2_mbox_loc_flat
I0601 11:10:21.164713 28711 net.cpp:150] Setting up conv6_2_mbox_loc_flat
I0601 11:10:21.164721 28711 net.cpp:157] Top shape: 32 2400 (76800)
I0601 11:10:21.164726 28711 net.cpp:165] Memory required for data: 7933081824
I0601 11:10:21.164729 28711 layer_factory.hpp:77] Creating layer conv6_2_mbox_conf
I0601 11:10:21.164739 28711 net.cpp:100] Creating Layer conv6_2_mbox_conf
I0601 11:10:21.164746 28711 net.cpp:434] conv6_2_mbox_conf <- conv6_2_conv6_2_relu_0_split_2
I0601 11:10:21.164754 28711 net.cpp:408] conv6_2_mbox_conf -> conv6_2_mbox_conf
I0601 11:10:21.165401 28711 net.cpp:150] Setting up conv6_2_mbox_conf
I0601 11:10:21.165410 28711 net.cpp:157] Top shape: 32 24 10 10 (76800)
I0601 11:10:21.165411 28711 net.cpp:165] Memory required for data: 7933389024
I0601 11:10:21.165415 28711 layer_factory.hpp:77] Creating layer conv6_2_mbox_conf_perm
I0601 11:10:21.165421 28711 net.cpp:100] Creating Layer conv6_2_mbox_conf_perm
I0601 11:10:21.165423 28711 net.cpp:434] conv6_2_mbox_conf_perm <- conv6_2_mbox_conf
I0601 11:10:21.165427 28711 net.cpp:408] conv6_2_mbox_conf_perm -> conv6_2_mbox_conf_perm
I0601 11:10:21.165493 28711 net.cpp:150] Setting up conv6_2_mbox_conf_perm
I0601 11:10:21.165496 28711 net.cpp:157] Top shape: 32 10 10 24 (76800)
I0601 11:10:21.165499 28711 net.cpp:165] Memory required for data: 7933696224
I0601 11:10:21.165501 28711 layer_factory.hpp:77] Creating layer conv6_2_mbox_conf_flat
I0601 11:10:21.165505 28711 net.cpp:100] Creating Layer conv6_2_mbox_conf_flat
I0601 11:10:21.165508 28711 net.cpp:434] conv6_2_mbox_conf_flat <- conv6_2_mbox_conf_perm
I0601 11:10:21.165511 28711 net.cpp:408] conv6_2_mbox_conf_flat -> conv6_2_mbox_conf_flat
I0601 11:10:21.165526 28711 net.cpp:150] Setting up conv6_2_mbox_conf_flat
I0601 11:10:21.165530 28711 net.cpp:157] Top shape: 32 2400 (76800)
I0601 11:10:21.165531 28711 net.cpp:165] Memory required for data: 7934003424
I0601 11:10:21.165534 28711 layer_factory.hpp:77] Creating layer conv6_2_mbox_priorbox
I0601 11:10:21.165547 28711 net.cpp:100] Creating Layer conv6_2_mbox_priorbox
I0601 11:10:21.165550 28711 net.cpp:434] conv6_2_mbox_priorbox <- conv6_2_conv6_2_relu_0_split_3
I0601 11:10:21.165554 28711 net.cpp:434] conv6_2_mbox_priorbox <- data_data_0_split_3
I0601 11:10:21.165557 28711 net.cpp:408] conv6_2_mbox_priorbox -> conv6_2_mbox_priorbox
I0601 11:10:21.165575 28711 net.cpp:150] Setting up conv6_2_mbox_priorbox
I0601 11:10:21.165580 28711 net.cpp:157] Top shape: 1 2 2400 (4800)
I0601 11:10:21.165581 28711 net.cpp:165] Memory required for data: 7934022624
I0601 11:10:21.165583 28711 layer_factory.hpp:77] Creating layer conv7_2_mbox_loc
I0601 11:10:21.165590 28711 net.cpp:100] Creating Layer conv7_2_mbox_loc
I0601 11:10:21.165592 28711 net.cpp:434] conv7_2_mbox_loc <- conv7_2_conv7_2_relu_0_split_1
I0601 11:10:21.165597 28711 net.cpp:408] conv7_2_mbox_loc -> conv7_2_mbox_loc
I0601 11:10:21.165966 28711 net.cpp:150] Setting up conv7_2_mbox_loc
I0601 11:10:21.165971 28711 net.cpp:157] Top shape: 32 24 5 5 (19200)
I0601 11:10:21.165973 28711 net.cpp:165] Memory required for data: 7934099424
I0601 11:10:21.165977 28711 layer_factory.hpp:77] Creating layer conv7_2_mbox_loc_perm
I0601 11:10:21.165982 28711 net.cpp:100] Creating Layer conv7_2_mbox_loc_perm
I0601 11:10:21.165983 28711 net.cpp:434] conv7_2_mbox_loc_perm <- conv7_2_mbox_loc
I0601 11:10:21.165987 28711 net.cpp:408] conv7_2_mbox_loc_perm -> conv7_2_mbox_loc_perm
I0601 11:10:21.166049 28711 net.cpp:150] Setting up conv7_2_mbox_loc_perm
I0601 11:10:21.166054 28711 net.cpp:157] Top shape: 32 5 5 24 (19200)
I0601 11:10:21.166055 28711 net.cpp:165] Memory required for data: 7934176224
I0601 11:10:21.166057 28711 layer_factory.hpp:77] Creating layer conv7_2_mbox_loc_flat
I0601 11:10:21.166061 28711 net.cpp:100] Creating Layer conv7_2_mbox_loc_flat
I0601 11:10:21.166064 28711 net.cpp:434] conv7_2_mbox_loc_flat <- conv7_2_mbox_loc_perm
I0601 11:10:21.166067 28711 net.cpp:408] conv7_2_mbox_loc_flat -> conv7_2_mbox_loc_flat
I0601 11:10:21.166081 28711 net.cpp:150] Setting up conv7_2_mbox_loc_flat
I0601 11:10:21.166085 28711 net.cpp:157] Top shape: 32 600 (19200)
I0601 11:10:21.166087 28711 net.cpp:165] Memory required for data: 7934253024
I0601 11:10:21.166090 28711 layer_factory.hpp:77] Creating layer conv7_2_mbox_conf
I0601 11:10:21.166095 28711 net.cpp:100] Creating Layer conv7_2_mbox_conf
I0601 11:10:21.166100 28711 net.cpp:434] conv7_2_mbox_conf <- conv7_2_conv7_2_relu_0_split_2
I0601 11:10:21.166103 28711 net.cpp:408] conv7_2_mbox_conf -> conv7_2_mbox_conf
I0601 11:10:21.166467 28711 net.cpp:150] Setting up conv7_2_mbox_conf
I0601 11:10:21.166472 28711 net.cpp:157] Top shape: 32 24 5 5 (19200)
I0601 11:10:21.166474 28711 net.cpp:165] Memory required for data: 7934329824
I0601 11:10:21.166478 28711 layer_factory.hpp:77] Creating layer conv7_2_mbox_conf_perm
I0601 11:10:21.166481 28711 net.cpp:100] Creating Layer conv7_2_mbox_conf_perm
I0601 11:10:21.166484 28711 net.cpp:434] conv7_2_mbox_conf_perm <- conv7_2_mbox_conf
I0601 11:10:21.166489 28711 net.cpp:408] conv7_2_mbox_conf_perm -> conv7_2_mbox_conf_perm
I0601 11:10:21.166551 28711 net.cpp:150] Setting up conv7_2_mbox_conf_perm
I0601 11:10:21.166556 28711 net.cpp:157] Top shape: 32 5 5 24 (19200)
I0601 11:10:21.166558 28711 net.cpp:165] Memory required for data: 7934406624
I0601 11:10:21.166560 28711 layer_factory.hpp:77] Creating layer conv7_2_mbox_conf_flat
I0601 11:10:21.166563 28711 net.cpp:100] Creating Layer conv7_2_mbox_conf_flat
I0601 11:10:21.166566 28711 net.cpp:434] conv7_2_mbox_conf_flat <- conv7_2_mbox_conf_perm
I0601 11:10:21.166570 28711 net.cpp:408] conv7_2_mbox_conf_flat -> conv7_2_mbox_conf_flat
I0601 11:10:21.166584 28711 net.cpp:150] Setting up conv7_2_mbox_conf_flat
I0601 11:10:21.166589 28711 net.cpp:157] Top shape: 32 600 (19200)
I0601 11:10:21.166591 28711 net.cpp:165] Memory required for data: 7934483424
I0601 11:10:21.166594 28711 layer_factory.hpp:77] Creating layer conv7_2_mbox_priorbox
I0601 11:10:21.166596 28711 net.cpp:100] Creating Layer conv7_2_mbox_priorbox
I0601 11:10:21.166599 28711 net.cpp:434] conv7_2_mbox_priorbox <- conv7_2_conv7_2_relu_0_split_3
I0601 11:10:21.166609 28711 net.cpp:434] conv7_2_mbox_priorbox <- data_data_0_split_4
I0601 11:10:21.166615 28711 net.cpp:408] conv7_2_mbox_priorbox -> conv7_2_mbox_priorbox
I0601 11:10:21.166632 28711 net.cpp:150] Setting up conv7_2_mbox_priorbox
I0601 11:10:21.166636 28711 net.cpp:157] Top shape: 1 2 600 (1200)
I0601 11:10:21.166638 28711 net.cpp:165] Memory required for data: 7934488224
I0601 11:10:21.166640 28711 layer_factory.hpp:77] Creating layer conv8_2_mbox_loc
I0601 11:10:21.166647 28711 net.cpp:100] Creating Layer conv8_2_mbox_loc
I0601 11:10:21.166651 28711 net.cpp:434] conv8_2_mbox_loc <- conv8_2_conv8_2_relu_0_split_1
I0601 11:10:21.166656 28711 net.cpp:408] conv8_2_mbox_loc -> conv8_2_mbox_loc
I0601 11:10:21.166949 28711 net.cpp:150] Setting up conv8_2_mbox_loc
I0601 11:10:21.166955 28711 net.cpp:157] Top shape: 32 16 3 3 (4608)
I0601 11:10:21.166957 28711 net.cpp:165] Memory required for data: 7934506656
I0601 11:10:21.166967 28711 layer_factory.hpp:77] Creating layer conv8_2_mbox_loc_perm
I0601 11:10:21.166972 28711 net.cpp:100] Creating Layer conv8_2_mbox_loc_perm
I0601 11:10:21.166975 28711 net.cpp:434] conv8_2_mbox_loc_perm <- conv8_2_mbox_loc
I0601 11:10:21.166980 28711 net.cpp:408] conv8_2_mbox_loc_perm -> conv8_2_mbox_loc_perm
I0601 11:10:21.167043 28711 net.cpp:150] Setting up conv8_2_mbox_loc_perm
I0601 11:10:21.167048 28711 net.cpp:157] Top shape: 32 3 3 16 (4608)
I0601 11:10:21.167050 28711 net.cpp:165] Memory required for data: 7934525088
I0601 11:10:21.167052 28711 layer_factory.hpp:77] Creating layer conv8_2_mbox_loc_flat
I0601 11:10:21.167055 28711 net.cpp:100] Creating Layer conv8_2_mbox_loc_flat
I0601 11:10:21.167058 28711 net.cpp:434] conv8_2_mbox_loc_flat <- conv8_2_mbox_loc_perm
I0601 11:10:21.167062 28711 net.cpp:408] conv8_2_mbox_loc_flat -> conv8_2_mbox_loc_flat
I0601 11:10:21.167076 28711 net.cpp:150] Setting up conv8_2_mbox_loc_flat
I0601 11:10:21.167080 28711 net.cpp:157] Top shape: 32 144 (4608)
I0601 11:10:21.167083 28711 net.cpp:165] Memory required for data: 7934543520
I0601 11:10:21.167084 28711 layer_factory.hpp:77] Creating layer conv8_2_mbox_conf
I0601 11:10:21.167090 28711 net.cpp:100] Creating Layer conv8_2_mbox_conf
I0601 11:10:21.167093 28711 net.cpp:434] conv8_2_mbox_conf <- conv8_2_conv8_2_relu_0_split_2
I0601 11:10:21.167098 28711 net.cpp:408] conv8_2_mbox_conf -> conv8_2_mbox_conf
I0601 11:10:21.167392 28711 net.cpp:150] Setting up conv8_2_mbox_conf
I0601 11:10:21.167398 28711 net.cpp:157] Top shape: 32 16 3 3 (4608)
I0601 11:10:21.167400 28711 net.cpp:165] Memory required for data: 7934561952
I0601 11:10:21.167403 28711 layer_factory.hpp:77] Creating layer conv8_2_mbox_conf_perm
I0601 11:10:21.167407 28711 net.cpp:100] Creating Layer conv8_2_mbox_conf_perm
I0601 11:10:21.167409 28711 net.cpp:434] conv8_2_mbox_conf_perm <- conv8_2_mbox_conf
I0601 11:10:21.167414 28711 net.cpp:408] conv8_2_mbox_conf_perm -> conv8_2_mbox_conf_perm
I0601 11:10:21.167476 28711 net.cpp:150] Setting up conv8_2_mbox_conf_perm
I0601 11:10:21.167481 28711 net.cpp:157] Top shape: 32 3 3 16 (4608)
I0601 11:10:21.167484 28711 net.cpp:165] Memory required for data: 7934580384
I0601 11:10:21.167485 28711 layer_factory.hpp:77] Creating layer conv8_2_mbox_conf_flat
I0601 11:10:21.167488 28711 net.cpp:100] Creating Layer conv8_2_mbox_conf_flat
I0601 11:10:21.167490 28711 net.cpp:434] conv8_2_mbox_conf_flat <- conv8_2_mbox_conf_perm
I0601 11:10:21.167495 28711 net.cpp:408] conv8_2_mbox_conf_flat -> conv8_2_mbox_conf_flat
I0601 11:10:21.167508 28711 net.cpp:150] Setting up conv8_2_mbox_conf_flat
I0601 11:10:21.167512 28711 net.cpp:157] Top shape: 32 144 (4608)
I0601 11:10:21.167513 28711 net.cpp:165] Memory required for data: 7934598816
I0601 11:10:21.167516 28711 layer_factory.hpp:77] Creating layer conv8_2_mbox_priorbox
I0601 11:10:21.167521 28711 net.cpp:100] Creating Layer conv8_2_mbox_priorbox
I0601 11:10:21.167523 28711 net.cpp:434] conv8_2_mbox_priorbox <- conv8_2_conv8_2_relu_0_split_3
I0601 11:10:21.167526 28711 net.cpp:434] conv8_2_mbox_priorbox <- data_data_0_split_5
I0601 11:10:21.167537 28711 net.cpp:408] conv8_2_mbox_priorbox -> conv8_2_mbox_priorbox
I0601 11:10:21.167553 28711 net.cpp:150] Setting up conv8_2_mbox_priorbox
I0601 11:10:21.167557 28711 net.cpp:157] Top shape: 1 2 144 (288)
I0601 11:10:21.167559 28711 net.cpp:165] Memory required for data: 7934599968
I0601 11:10:21.167562 28711 layer_factory.hpp:77] Creating layer conv9_2_mbox_loc
I0601 11:10:21.167569 28711 net.cpp:100] Creating Layer conv9_2_mbox_loc
I0601 11:10:21.167572 28711 net.cpp:434] conv9_2_mbox_loc <- conv9_2_conv9_2_relu_0_split_0
I0601 11:10:21.167577 28711 net.cpp:408] conv9_2_mbox_loc -> conv9_2_mbox_loc
I0601 11:10:21.167870 28711 net.cpp:150] Setting up conv9_2_mbox_loc
I0601 11:10:21.167876 28711 net.cpp:157] Top shape: 32 16 1 1 (512)
I0601 11:10:21.167877 28711 net.cpp:165] Memory required for data: 7934602016
I0601 11:10:21.167881 28711 layer_factory.hpp:77] Creating layer conv9_2_mbox_loc_perm
I0601 11:10:21.167886 28711 net.cpp:100] Creating Layer conv9_2_mbox_loc_perm
I0601 11:10:21.167887 28711 net.cpp:434] conv9_2_mbox_loc_perm <- conv9_2_mbox_loc
I0601 11:10:21.167891 28711 net.cpp:408] conv9_2_mbox_loc_perm -> conv9_2_mbox_loc_perm
I0601 11:10:21.167951 28711 net.cpp:150] Setting up conv9_2_mbox_loc_perm
I0601 11:10:21.167956 28711 net.cpp:157] Top shape: 32 1 1 16 (512)
I0601 11:10:21.167958 28711 net.cpp:165] Memory required for data: 7934604064
I0601 11:10:21.167960 28711 layer_factory.hpp:77] Creating layer conv9_2_mbox_loc_flat
I0601 11:10:21.167963 28711 net.cpp:100] Creating Layer conv9_2_mbox_loc_flat
I0601 11:10:21.167968 28711 net.cpp:434] conv9_2_mbox_loc_flat <- conv9_2_mbox_loc_perm
I0601 11:10:21.167970 28711 net.cpp:408] conv9_2_mbox_loc_flat -> conv9_2_mbox_loc_flat
I0601 11:10:21.167984 28711 net.cpp:150] Setting up conv9_2_mbox_loc_flat
I0601 11:10:21.167989 28711 net.cpp:157] Top shape: 32 16 (512)
I0601 11:10:21.167990 28711 net.cpp:165] Memory required for data: 7934606112
I0601 11:10:21.167992 28711 layer_factory.hpp:77] Creating layer conv9_2_mbox_conf
I0601 11:10:21.167997 28711 net.cpp:100] Creating Layer conv9_2_mbox_conf
I0601 11:10:21.168000 28711 net.cpp:434] conv9_2_mbox_conf <- conv9_2_conv9_2_relu_0_split_1
I0601 11:10:21.168005 28711 net.cpp:408] conv9_2_mbox_conf -> conv9_2_mbox_conf
I0601 11:10:21.168298 28711 net.cpp:150] Setting up conv9_2_mbox_conf
I0601 11:10:21.168303 28711 net.cpp:157] Top shape: 32 16 1 1 (512)
I0601 11:10:21.168305 28711 net.cpp:165] Memory required for data: 7934608160
I0601 11:10:21.168309 28711 layer_factory.hpp:77] Creating layer conv9_2_mbox_conf_perm
I0601 11:10:21.168313 28711 net.cpp:100] Creating Layer conv9_2_mbox_conf_perm
I0601 11:10:21.168315 28711 net.cpp:434] conv9_2_mbox_conf_perm <- conv9_2_mbox_conf
I0601 11:10:21.168319 28711 net.cpp:408] conv9_2_mbox_conf_perm -> conv9_2_mbox_conf_perm
I0601 11:10:21.168380 28711 net.cpp:150] Setting up conv9_2_mbox_conf_perm
I0601 11:10:21.168385 28711 net.cpp:157] Top shape: 32 1 1 16 (512)
I0601 11:10:21.168386 28711 net.cpp:165] Memory required for data: 7934610208
I0601 11:10:21.168388 28711 layer_factory.hpp:77] Creating layer conv9_2_mbox_conf_flat
I0601 11:10:21.168391 28711 net.cpp:100] Creating Layer conv9_2_mbox_conf_flat
I0601 11:10:21.168395 28711 net.cpp:434] conv9_2_mbox_conf_flat <- conv9_2_mbox_conf_perm
I0601 11:10:21.168397 28711 net.cpp:408] conv9_2_mbox_conf_flat -> conv9_2_mbox_conf_flat
I0601 11:10:21.168411 28711 net.cpp:150] Setting up conv9_2_mbox_conf_flat
I0601 11:10:21.168416 28711 net.cpp:157] Top shape: 32 16 (512)
I0601 11:10:21.168417 28711 net.cpp:165] Memory required for data: 7934612256
I0601 11:10:21.168418 28711 layer_factory.hpp:77] Creating layer conv9_2_mbox_priorbox
I0601 11:10:21.168422 28711 net.cpp:100] Creating Layer conv9_2_mbox_priorbox
I0601 11:10:21.168426 28711 net.cpp:434] conv9_2_mbox_priorbox <- conv9_2_conv9_2_relu_0_split_2
I0601 11:10:21.168429 28711 net.cpp:434] conv9_2_mbox_priorbox <- data_data_0_split_6
I0601 11:10:21.168433 28711 net.cpp:408] conv9_2_mbox_priorbox -> conv9_2_mbox_priorbox
I0601 11:10:21.168454 28711 net.cpp:150] Setting up conv9_2_mbox_priorbox
I0601 11:10:21.168460 28711 net.cpp:157] Top shape: 1 2 16 (32)
I0601 11:10:21.168462 28711 net.cpp:165] Memory required for data: 7934612384
I0601 11:10:21.168463 28711 layer_factory.hpp:77] Creating layer mbox_loc
I0601 11:10:21.168468 28711 net.cpp:100] Creating Layer mbox_loc
I0601 11:10:21.168471 28711 net.cpp:434] mbox_loc <- conv4_3_norm_mbox_loc_flat
I0601 11:10:21.168474 28711 net.cpp:434] mbox_loc <- fc7_mbox_loc_flat
I0601 11:10:21.168478 28711 net.cpp:434] mbox_loc <- conv6_2_mbox_loc_flat
I0601 11:10:21.168480 28711 net.cpp:434] mbox_loc <- conv7_2_mbox_loc_flat
I0601 11:10:21.168483 28711 net.cpp:434] mbox_loc <- conv8_2_mbox_loc_flat
I0601 11:10:21.168486 28711 net.cpp:434] mbox_loc <- conv9_2_mbox_loc_flat
I0601 11:10:21.168489 28711 net.cpp:408] mbox_loc -> mbox_loc
I0601 11:10:21.168509 28711 net.cpp:150] Setting up mbox_loc
I0601 11:10:21.168512 28711 net.cpp:157] Top shape: 32 34928 (1117696)
I0601 11:10:21.168514 28711 net.cpp:165] Memory required for data: 7939083168
I0601 11:10:21.168516 28711 layer_factory.hpp:77] Creating layer mbox_conf
I0601 11:10:21.168520 28711 net.cpp:100] Creating Layer mbox_conf
I0601 11:10:21.168524 28711 net.cpp:434] mbox_conf <- conv4_3_norm_mbox_conf_flat
I0601 11:10:21.168526 28711 net.cpp:434] mbox_conf <- fc7_mbox_conf_flat
I0601 11:10:21.168529 28711 net.cpp:434] mbox_conf <- conv6_2_mbox_conf_flat
I0601 11:10:21.168531 28711 net.cpp:434] mbox_conf <- conv7_2_mbox_conf_flat
I0601 11:10:21.168534 28711 net.cpp:434] mbox_conf <- conv8_2_mbox_conf_flat
I0601 11:10:21.168536 28711 net.cpp:434] mbox_conf <- conv9_2_mbox_conf_flat
I0601 11:10:21.168540 28711 net.cpp:408] mbox_conf -> mbox_conf
I0601 11:10:21.168555 28711 net.cpp:150] Setting up mbox_conf
I0601 11:10:21.168560 28711 net.cpp:157] Top shape: 32 34928 (1117696)
I0601 11:10:21.168561 28711 net.cpp:165] Memory required for data: 7943553952
I0601 11:10:21.168563 28711 layer_factory.hpp:77] Creating layer mbox_priorbox
I0601 11:10:21.168566 28711 net.cpp:100] Creating Layer mbox_priorbox
I0601 11:10:21.168570 28711 net.cpp:434] mbox_priorbox <- conv4_3_norm_mbox_priorbox
I0601 11:10:21.168572 28711 net.cpp:434] mbox_priorbox <- fc7_mbox_priorbox
I0601 11:10:21.168575 28711 net.cpp:434] mbox_priorbox <- conv6_2_mbox_priorbox
I0601 11:10:21.168577 28711 net.cpp:434] mbox_priorbox <- conv7_2_mbox_priorbox
I0601 11:10:21.168581 28711 net.cpp:434] mbox_priorbox <- conv8_2_mbox_priorbox
I0601 11:10:21.168582 28711 net.cpp:434] mbox_priorbox <- conv9_2_mbox_priorbox
I0601 11:10:21.168586 28711 net.cpp:408] mbox_priorbox -> mbox_priorbox
I0601 11:10:21.168601 28711 net.cpp:150] Setting up mbox_priorbox
I0601 11:10:21.168606 28711 net.cpp:157] Top shape: 1 2 34928 (69856)
I0601 11:10:21.168607 28711 net.cpp:165] Memory required for data: 7943833376
I0601 11:10:21.168609 28711 layer_factory.hpp:77] Creating layer mbox_loss
I0601 11:10:21.168617 28711 net.cpp:100] Creating Layer mbox_loss
I0601 11:10:21.168622 28711 net.cpp:434] mbox_loss <- mbox_loc
I0601 11:10:21.168624 28711 net.cpp:434] mbox_loss <- mbox_conf
I0601 11:10:21.168627 28711 net.cpp:434] mbox_loss <- mbox_priorbox
…
  name: "data"
  type: "AnnotatedData"
  top: "data"
  top: "label"
  include {
    phase: TEST
  }
  transform_param {
    mean_value: 104
    mean_value: 117
    mean_value: 123
    resize_param {
      prob: 1
      resize_mode: WARP
      height: 300
      width: 300
      interp_mode: LINEAR
    }
  }
  data_param {
    source: "examples/tbs_300x300_HSIL_10x/tbs_300x300_HSIL_10x_test_lmdb"
    batch_size: 4
    backend: LMDB
  }
  annotated_data_param {
    batch_sampler {
    }
    label_map_file: "data/tbs_300x300_HSIL_10x/labelmap_tbs.prototxt"
  }
}
layer {
  name: "conv1_1"
  type: "Convolution"
  bottom: "data"
  top: "conv1_1"
  param {
    lr_mult: 0
    decay_mult: 0
  }
  param {
    lr_mult: 0
    decay_mult: 0
  }
  convolution_param {
    num_output: 64
    pad: 1
    kernel_size: 3
    weight_filler {
      type: "xavier"
    }
    bias_filler {
      type: "constant"
      value: 0
    }
  }
}
layer {
  name: "relu1_1"
  type: "ReLU"
  bottom: "conv1_1"
  top: "conv1_1"
}
layer {
  name: "conv1_2"
  type: "Convolution"
  bottom: "conv1_1"
  top: "conv1_2"
  param {
    lr_mult: 0
    decay_mult: 0
  }
  param {
    lr_mult: 0
    decay_mult: 0
  }
  convolution_param {
    num_output: 64
    pad: 1
    kernel_size: 3
    weight_filler {
      type: "xavier"
    }
    bias_filler {
      type: "constant"
      value: 0
    }
  }
}
layer {
  name: "relu1_2"
  type: "ReLU"
  bottom: "conv1_2"
  top: "conv1_2"
}
layer {
  name: "pool1"
  type: "Pooling"
  bottom: "conv1_2"
  top: "pool1"
  pooling_param {
    pool: MAX
    kernel_size: 2
    stride: 2
  }
}
layer {
  name: "conv2_1"
  type: "Convolution"
  bottom: "pool1"
  top: "conv2_1"
  param {
    lr_mult: 0
    decay_mult: 0
  }
  param {
    lr_mult: 0
    decay_mult: 0
  }
  convolution_param {
    num_output: 128
    pad: 1
    kernel_size: 3
    weight_filler {
      type: "xavier"
    }
    bias_filler {
      type: "constant"
      value: 0
    }
  }
}
layer {
  name: "relu2_1"
  type: "ReLU"
  bottom: "conv2_1"
  top: "conv2_1"
}
layer {
  name: "conv2_2"
  type: "Convolution"
  bottom: "conv2_1"
  top: "conv2_2"
  param {
    lr_mult: 0
    decay_mult: 0
  }
  param {
    lr_mult: 0
    decay_mult: 0
  }
  convolution_param {
    num_output: 128
    pad: 1
    kernel_size: 3
    weight_filler {
      type: "xavier"
    }
    bias_filler {
      type: "constant"
      value: 0
    }
  }
}
layer {
  name: "relu2_2"
  type: "ReLU"
  bottom: "conv2_2"
  top: "conv2_2"
}
layer {
  name: "pool2"
  type: "Pooling"
  bottom: "conv2_2"
  top: "pool2"
  pooling_param {
    pool: MAX
    kernel_size: 2
    stride: 2
  }
}
layer {
  name: "conv3_1"
  type: "Convolution"
  bottom: "pool2"
  top: "conv3_1"
  param {
    lr_mult: 0
    decay_mult: 0
  }
  param {
    lr_mult: 0
    decay_mult: 0
  }
  convolution_param {
    num_output: 256
    pad: 1
    kernel_size: 3
    weight_filler {
      type: "xavier"
    }
    bias_filler {
      type: "constant"
      value: 0
    }
  }
}
layer {
  name: "relu3_1"
  type: "ReLU"
  bottom: "conv3_1"
  top: "conv3_1"
}
layer {
  name: "conv3_2"
  type: "Convolution"
  bottom: "conv3_1"
  top: "conv3_2"
  param {
    lr_mult: 0
    decay_mult: 0
  }
  param {
    lr_mult: 0
    decay_mult: 0
  }
  convolution_param {
    num_output: 256
    pad: 1
    kernel_size: 3
    weight_filler {
      type: "xavier"
    }
    bias_filler {
      type: "constant"
      value: 0
    }
  }
}
layer {
  name: "relu3_2"
  type: "ReLU"
  bottom: "conv3_2"
  top: "conv3_2"
}
layer {
  name: "conv3_3"
  type: "Convolution"
  bottom: "conv3_2"
  top: "conv3_3"
  param {
    lr_mult: 0
    decay_mult: 0
  }
  param {
    lr_mult: 0
    decay_mult: 0
  }
  convolution_param {
    num_output: 256
    pad: 1
    kernel_size: 3
    weight_filler {
      type: "xavier"
    }
    bias_filler {
      type: "constant"
      value: 0
    }
  }
}
layer {
  name: "relu3_3"
  type: "ReLU"
  bottom: "conv3_3"
  top: "conv3_3"
}
layer {
  name: "pool3"
  type: "Pooling"
  bottom: "conv3_3"
  top: "pool3"
  pooling_param {
    pool: MAX
    kernel_size: 2
    stride: 2
  }
}
layer {
  name: "conv4_1"
  type: "Convolution"
  bottom: "pool3"
  top: "conv4_1"
  param {
    lr_mult: 0
    decay_mult: 0
  }
  param {
    lr_mult: 0
    decay_mult: 0
  }
  convolution_param {
    num_output: 512
    pad: 1
    kernel_size: 3
    weight_filler {
      type: "xavier"
    }
    bias_filler {
      type: "constant"
      value: 0
    }
  }
}
layer {
  name: "relu4_1"
  type: "ReLU"
  bottom: "conv4_1"
  top: "conv4_1"
}
layer {
  name: "conv4_2"
  type: "Convolution"
  bottom: "conv4_1"
  top: "conv4_2"
  param {
    lr_mult: 0
    decay_mult: 0
  }
  param {
    lr_mult: 0
    decay_mult: 0
  }
  convolution_param {
    num_output: 512
    pad: 1
    kernel_size: 3
    weight_filler {
      type: "xavier"
    }
    bias_filler {
      type: "constant"
      value: 0
    }
  }
}
layer {
  name: "relu4_2"
  type: "ReLU"
  bottom: "conv4_2"
  top: "conv4_2"
}
layer {
  name: "conv4_3"
  type: "Convolution"
  bottom: "conv4_2"
  top: "conv4_3"
  param {
    lr_mult: 0
    decay_mult: 0
  }
  param {
    lr_mult: 0
    decay_mult: 0
  }
  convolution_param {
    num_output: 512
    pad: 1
    kernel_size: 3
    weight_filler {
      type: "xavier"
    }
    bias_filler {
      type: "constant"
      value: 0
    }
  }
}
layer {
  name: "relu4_3"
  type: "ReLU"
  bottom: "conv4_3"
  top: "conv4_3"
}
layer {
  name: "pool4"
  type: "Pooling"
  bottom: "conv4_3"
  top: "pool4"
  pooling_param {
    pool: MAX
    kernel_size: 2
    stride: 2
  }
}
layer {
  name: "conv5_1"
  type: "Convolution"
  bottom: "pool4"
  top: "conv5_1"
  param {
    lr_mult: 0
    decay_mult: 0
  }
  param {
    lr_mult: 0
    decay_mult: 0
  }
  convolution_param {
    num_output: 512
    pad: 1
    kernel_size: 3
    weight_filler {
      type: "xavier"
    }
    bias_filler {
      type: "constant"
      value: 0
    }
    dilation: 1
  }
}
layer {
  name: "relu5_1"
  type: "ReLU"
  bottom: "conv5_1"
  top: "conv5_1"
}
layer {
  name: "conv5_2"
  type: "Convolution"
  bottom: "conv5_1"
  top: "conv5_2"
  param {
    lr_mult: 0
    decay_mult: 0
  }
  param {
    lr_mult: 0
    decay_mult: 0
  }
  convolution_param {
    num_output: 512
    pad: 1
    kernel_size: 3
    weight_filler {
      type: "xavier"
    }
    bias_filler {
      type: "constant"
      value: 0
    }
    dilation: 1
  }
}
layer {
  name: "relu5_2"
  type: "ReLU"
  bottom: "conv5_2"
  top: "conv5_2"
}
layer {
  name: "conv5_3"
  type: "Convolution"
  bottom: "conv5_2"
  top: "conv5_3"
  param {
    lr_mult: 0
    decay_mult: 0
  }
  param {
    lr_mult: 0
    decay_mult: 0
  }
  convolution_param {
    num_output: 512
    pad: 1
    kernel_size: 3
    weight_filler {
      type: "xavier"
    }
    bias_filler {
      type: "constant"
      value: 0
    }
    dilation: 1
  }
}
layer {
  name: "relu5_3"
  type: "ReLU"
  bottom: "conv5_3"
  top: "conv5_3"
}
layer {
  name: "pool5"
  type: "Pooling"
  bottom: "conv5_3"
  top: "pool5"
  pooling_param {
    pool: MAX
    kernel_size: 3
    stride: 1
    pad: 1
  }
}
layer {
  name: "fc6"
  type: "Convolution"
  bottom: "pool5"
  top: "fc6"
  param {
    lr_mult: 0
    decay_mult: 0
  }
  param {
    lr_mult: 0
    decay_mult: 0
  }
  convolution_param {
    num_output: 1024
    pad: 6
    kernel_size: 3
    weight_filler {
      type: "xavier"
    }
    bias_filler {
      type: "constant"
      value: 0
    }
    dilation: 6
  }
}
layer {
  name: "relu6"
  type: "ReLU"
  bottom: "fc6"
  top: "fc6"
}
layer {
  name: "fc7"
  type: "Convolution"
  bottom: "fc6"
  top: "fc7"
  param {
    lr_mult: 0
    decay_mult: 0
  }
  param {
    lr_mult: 0
    decay_mult: 0
  }
  convolution_param {
    num_output: 1024
    kernel_size: 1
    weight_filler {
      type: "xavier"
    }
    bias_filler {
      type: "constant"
      value: 0
    }
  }
}
layer {
  name: "relu7"
  type: "ReLU"
  bottom: "fc7"
  top: "fc7"
}
layer {
  name: "conv6_1"
  type: "Convolution"
  bottom: "fc7"
  top: "conv6_1"
  param {
    lr_mult: 1
    decay_mult: 1
  }
  param {
    lr_mult: 2
    decay_mult: 0
  }
  convolution_param {
    num_output: 256
    pad: 0
    kernel_size: 1
    stride: 1
    weight_filler {
      type: "xavier"
    }
    bias_filler {
      type: "constant"
      value: 0
    }
  }
}
layer {
  name: "conv6_1_relu"
  type: "ReLU"
  bottom: "conv6_1"
  top: "conv6_1"
}
layer {
  name: "conv6_2"
  type: "Convolution"
  bottom: "conv6_1"
  top: "conv6_2"
  param {
    lr_mult: 1
    decay_mult: 1
  }
  param {
    lr_mult: 2
    decay_mult: 0
  }
  convolution_param {
    num_output: 512
    pad: 1
    kernel_size: 3
    stride: 2
    weight_filler {
      type: "xavier"
    }
    bias_filler {
      type: "constant"
      value: 0
    }
  }
}
layer {
  name: "conv6_2_relu"
  type: "ReLU"
  bottom: "conv6_2"
  top: "conv6_2"
}
layer {
  name: "conv7_1"
  type: "Convolution"
  bottom: "conv6_2"
  top: "conv7_1"
  param {
    lr_mult: 1
    decay_mult: 1
  }
  param {
    lr_mult: 2
    decay_mult: 0
  }
  convolution_param {
    num_output: 128
    pad: 0
    kernel_size: 1
    stride: 1
    weight_filler {
      type: "xavier"
    }
    bias_filler {
      type: "constant"
      value: 0
    }
  }
}
layer {
  name: "conv7_1_relu"
  type: "ReLU"
  bottom: "conv7_1"
  top: "conv7_1"
}
layer {
  name: "conv7_2"
  type: "Convolution"
  bottom: "conv7_1"
  top: "conv7_2"
  param {
    lr_mult: 1
    decay_mult: 1
  }
  param {
    lr_mult: 2
    decay_mult: 0
  }
  convolution_param {
    num_output: 256
    pad: 1
    kernel_size: 3
    stride: 2
    weight_filler {
      type: "xavier"
    }
    bias_filler {
      type: "constant"
      value: 0
    }
  }
}
layer {
  name: "conv7_2_relu"
  type: "ReLU"
  bottom: "conv7_2"
  top: "conv7_2"
}
layer {
  name: "conv8_1"
  type: "Convolution"
  bottom: "conv7_2"
  top: "conv8_1"
  param {
    lr_mult: 1
    decay_mult: 1
  }
  param {
    lr_mult: 2
    decay_mult: 0
  }
  convolution_param {
    num_output: 128
    pad: 0
    kernel_size: 1
    stride: 1
    weight_filler {
      type: "xavier"
    }
    bias_filler {
      type: "constant"
      value: 0
    }
  }
}
layer {
  name: "conv8_1_relu"
  type: "ReLU"
  bottom: "conv8_1"
  top: "conv8_1"
}
layer {
  name: "conv8_2"
  type: "Convolution"
  bottom: "conv8_1"
  top: "conv8_2"
  param {
    lr_mult: 1
    decay_mult: 1
  }
  param {
    lr_mult: 2
    decay_mult: 0
  }
  convolution_param {
    num_output: 256
    pad: 0
    kernel_size: 3
    stride: 1
    weight_filler {
      type: "xavier"
    }
    bias_filler {
      type: "constant"
      value: 0
    }
  }
}
layer {
  name: "conv8_2_relu"
  type: "ReLU"
  bottom: "conv8_2"
  top: "conv8_2"
}
layer {
  name: "conv9_1"
  type: "Convolution"
  bottom: "conv8_2"
  top: "conv9_1"
  param {
    lr_mult: 1
    decay_mult: 1
  }
  param {
    lr_mult: 2
    decay_mult: 0
  }
  convolution_param {
    num_output: 128
    pad: 0
    kernel_size: 1
    stride: 1
    weight_filler {
      type: "xavier"
    }
    bias_filler {
      type: "constant"
      value: 0
    }
  }
}
layer {
  name: "conv9_1_relu"
  type: "ReLU"
  bottom: "conv9_1"
  top: "conv9_1"
}
layer {
  name: "conv9_2"
  type: "Convolution"
  bottom: "conv9_1"
  top: "conv9_2"
  param {
    lr_mult: 1
    decay_mult: 1
  }
  param {
    lr_mult: 2
    decay_mult: 0
  }
  convolution_param {
    num_output: 256
    pad: 0
    kernel_size: 3
    stride: 1
    weight_filler {
      type: "xavier"
    }
    bias_filler {
      type: "constant"
      value: 0
    }
  }
}
layer {
  name: "conv9_2_relu"
  type: "ReLU"
  bottom: "conv9_2"
  top: "conv9_2"
}
layer {
  name: "conv4_3_norm"
  type: "Normalize"
  bottom: "conv4_3"
  top: "conv4_3_norm"
  norm_param {
    across_spatial: false
    scale_filler {
      type: "constant"
      value: 20
    }
    channel_shared: false
  }
}
layer {
  name: "conv4_3_norm_mbox_loc"
  type: "Convolution"
  bottom: "conv4_3_norm"
  top: "conv4_3_norm_mbox_loc"
  param {
    lr_mult: 1
    decay_mult: 1
  }
  param {
    lr_mult: 2
    decay_mult: 0
  }
  convolution_param {
    num_output: 16
    pad: 1
    kernel_size: 3
    stride: 1
    weight_filler {
      type: "xavier"
    }
    bias_filler {
      type: "constant"
      value: 0
    }
  }
}
layer {
  name: "conv4_3_norm_mbox_loc_perm"
  type: "Permute"
  bottom: "conv4_3_norm_mbox_loc"
  top: "conv4_3_norm_mbox_loc_perm"
  permute_param {
    order: 0
    order: 2
    order: 3
    order: 1
  }
}
layer {
  name: "conv4_3_norm_mbox_loc_flat"
  type: "Flatten"
  bottom: "conv4_3_norm_mbox_loc_perm"
  top: "conv4_3_norm_mbox_loc_flat"
  flatten_param {
    axis: 1
  }
}
layer {
  name: "conv4_3_norm_mbox_conf"
  type: "Convolution"
  bottom: "conv4_3_norm"
  top: "conv4_3_norm_mbox_conf"
  param {
    lr_mult: 1
    decay_mult: 1
  }
  param {
    lr_mult: 2
    decay_mult: 0
  }
  convolution_param {
    num_output: 16
    pad: 1
    kernel_size: 3
    stride: 1
    weight_filler {
      type: "xavier"
    }
    bias_filler {
      type: "constant"
      value: 0
    }
  }
}
layer {
  name: "conv4_3_norm_mbox_conf_perm"
  type: "Permute"
  bottom: "conv4_3_norm_mbox_conf"
  top: "conv4_3_norm_mbox_conf_perm"
  permute_param {
    order: 0
    order: 2
    order: 3
    order: 1
  }
}
layer {
  name: "conv4_3_norm_mbox_conf_flat"
  type: "Flatten"
  bottom: "conv4_3_norm_mbox_conf_perm"
  top: "conv4_3_norm_mbox_conf_flat"
  flatten_param {
    axis: 1
  }
}
layer {
  name: "conv4_3_norm_mbox_priorbox"
  type: "PriorBox"
  bottom: "conv4_3_norm"
  bottom: "data"
  top: "conv4_3_norm_mbox_priorbox"
  prior_box_param {
    min_size: 30
    max_size: 60
    aspect_ratio: 2
    flip: true
    clip: false
    variance: 0.1
    variance: 0.1
    variance: 0.2
    variance: 0.2
    step: 8
    offset: 0.5
  }
}
layer {
  name: "fc7_mbox_loc"
  type: "Convolution"
  bottom: "fc7"
  top: "fc7_mbox_loc"
  param {
    lr_mult: 1
    decay_mult: 1
  }
  param {
    lr_mult: 2
    decay_mult: 0
  }
  convolution_param {
    num_output: 24
    pad: 1
    kernel_size: 3
    stride: 1
    weight_filler {
      type: "xavier"
    }
    bias_filler {
      type: "constant"
      value: 0
    }
  }
}
layer {
  name: "fc7_mbox_loc_perm"
  type: "Permute"
  bottom: "fc7_mbox_loc"
  top: "fc7_mbox_loc_perm"
  permute_param {
    order: 0
    order: 2
    order: 3
    order: 1
  }
}
layer {
  name: "fc7_mbox_loc_flat"
  type: "Flatten"
  bottom: "fc7_mbox_loc_perm"
  top: "fc7_mbox_loc_flat"
  flatten_param {
    axis: 1
  }
}
layer {
  name: "fc7_mbox_conf"
  type: "Convolution"
  bottom: "fc7"
  top: "fc7_mbox_conf"
  param {
    lr_mult: 1
    decay_mult: 1
  }
  param {
    lr_mult: 2
    decay_mult: 0
  }
  convolution_param {
    num_output: 24
    pad: 1
    kernel_size: 3
    stride: 1
    weight_filler {
      type: "xavier"
    }
    bias_filler {
      type: "constant"
      value: 0
    }
  }
}
layer {
  name: "fc7_mbox_conf_perm"
  type: "Permute"
  bottom: "fc7_mbox_conf"
  top: "fc7_mbox_conf_perm"
  permute_param {
    order: 0
    order: 2
    order: 3
    order: 1
  }
}
layer {
  name: "fc7_mbox_conf_flat"
  type: "Flatten"
  bottom: "fc7_mbox_conf_perm"
  top: "fc7_mbox_conf_flat"
  flatten_param {
    axis: 1
  }
}
layer {
  name: "fc7_mbox_priorbox"
  type: "PriorBox"
  bottom: "fc7"
  bottom: "data"
  top: "fc7_mbox_priorbox"
  prior_box_param {
    min_size: 60
    max_size: 111
    aspect_ratio: 2
    aspect_ratio: 3
    flip: true
    clip: false
    variance: 0.1
    variance: 0.1
    variance: 0.2
    variance: 0.2
    step: 16
    offset: 0.5
  }
}
layer {
  name: "conv6_2_mbox_loc"
  type: "Convolution"
  bottom: "conv6_2"
  top: "conv6_2_mbox_loc"
  param {
    lr_mult: 1
    decay_mult: 1
  }
  param {
    lr_mult: 2
    decay_mult: 0
  }
  convolution_param {
    num_output: 24
    pad: 1
    kernel_size: 3
    stride: 1
    weight_filler {
      type: "xavier"
    }
    bias_filler {
      type: "constant"
      value: 0
    }
  }
}
layer {
  name: "conv6_2_mbox_loc_perm"
  type: "Permute"
  bottom: "conv6_2_mbox_loc"
  top: "conv6_2_mbox_loc_perm"
  permute_param {
    order: 0
    order: 2
    order: 3
    order: 1
  }
}
layer {
  name: "conv6_2_mbox_loc_flat"
  type: "Flatten"
  bottom: "conv6_2_mbox_loc_perm"
  top: "conv6_2_mbox_loc_flat"
  flatten_param {
    axis: 1
  }
}
layer {
  name: "conv6_2_mbox_conf"
  type: "Convolution"
  bottom: "conv6_2"
  top: "conv6_2_mbox_conf"
  param {
    lr_mult: 1
    decay_mult: 1
  }
  param {
    lr_mult: 2
    decay_mult: 0
  }
  convolution_param {
    num_output: 24
    pad: 1
    kernel_size: 3
    stride: 1
    weight_filler {
      type: "xavier"
    }
    bias_filler {
      type: "constant"
      value: 0
    }
  }
}
layer {
  name: "conv6_2_mbox_conf_perm"
  type: "Permute"
  bottom: "conv6_2_mbox_conf"
  top: "conv6_2_mbox_conf_perm"
  permute_param {
    order: 0
    order: 2
    order: 3
    order: 1
  }
}
layer {
  name: "conv6_2_mbox_conf_flat"
  type: "Flatten"
  bottom: "conv6_2_mbox_conf_perm"
  top: "conv6_2_mbox_conf_flat"
  flatten_param {
    axis: 1
  }
}
layer {
  name: "conv6_2_mbox_priorbox"
  type: "PriorBox"
  bottom: "conv6_2"
  bottom: "data"
  top: "conv6_2_mbox_priorbox"
  prior_box_param {
    min_size: 111
    max_size: 162
    aspect_ratio: 2
    aspect_ratio: 3
    flip: true
    clip: false
    variance: 0.1
    variance: 0.1
    variance: 0.2
    variance: 0.2
    step: 32
    offset: 0.5
  }
}
layer {
  name: "conv7_2_mbox_loc"
  type: "Convolution"
  bottom: "conv7_2"
  top: "conv7_2_mbox_loc"
  param {
    lr_mult: 1
    decay_mult: 1
  }
  param {
    lr_mult: 2
    decay_mult: 0
  }
  convolution_param {
    num_output: 24
    pad: 1
    kernel_size: 3
    stride: 1
    weight_filler {
      type: "xavier"
    }
    bias_filler {
      type: "constant"
      value: 0
    }
  }
}
layer {
  name: "conv7_2_mbox_loc_perm"
  type: "Permute"
  bottom: "conv7_2_mbox_loc"
  top: "conv7_2_mbox_loc_perm"
  permute_param {
    order: 0
    order: 2
    order: 3
    order: 1
  }
}
layer {
  name: "conv7_2_mbox_loc_flat"
  type: "Flatten"
  bottom: "conv7_2_mbox_loc_perm"
  top: "conv7_2_mbox_loc_flat"
  flatten_param {
    axis: 1
  }
}
layer {
  name: "conv7_2_mbox_conf"
  type: "Convolution"
  bottom: "conv7_2"
  top: "conv7_2_mbox_conf"
  param {
    lr_mult: 1
    decay_mult: 1
  }
  param {
    lr_mult: 2
    decay_mult: 0
  }
  convolution_param {
    num_output: 24
    pad: 1
    kernel_size: 3
    stride: 1
    weight_filler {
      type: "xavier"
    }
    bias_filler {
      type: "constant"
      value: 0
    }
  }
}
layer {
  name: "conv7_2_mbox_conf_perm"
  type: "Permute"
  bottom: "conv7_2_mbox_conf"
  top: "conv7_2_mbox_conf_perm"
  permute_param {
    order: 0
    order: 2
    order: 3
    order: 1
  }
}
layer {
  name: "conv7_2_mbox_conf_flat"
  type: "Flatten"
  bottom: "conv7_2_mbox_conf_perm"
  top: "conv7_2_mbox_conf_flat"
  flatten_param {
    axis: 1
  }
}
layer {
  name: "conv7_2_mbox_priorbox"
  type: "PriorBox"
  bottom: "conv7_2"
  bottom: "data"
  top: "conv7_2_mbox_priorbox"
  prior_box_param {
    min_size: 162
    max_size: 213
    aspect_ratio: 2
    aspect_ratio: 3
    flip: true
    clip: false
    variance: 0.1
    variance: 0.1
    variance: 0.2
    variance: 0.2
    step: 64
    offset: 0.5
  }
}
layer {
  name: "conv8_2_mbox_loc"
  type: "Convolution"
  bottom: "conv8_2"
  top: "conv8_2_mbox_loc"
  param {
    lr_mult: 1
    decay_mult: 1
  }
  param {
    lr_mult: 2
    decay_mult: 0
  }
  convolution_param {
    num_output: 16
    pad: 1
    kernel_size: 3
    stride: 1
    weight_filler {
      type: "xavier"
    }
    bias_filler {
      type: "constant"
      value: 0
    }
  }
}
layer {
  name: "conv8_2_mbox_loc_perm"
  type: "Permute"
  bottom: "conv8_2_mbox_loc"
  top: "conv8_2_mbox_loc_perm"
  permute_param {
    order: 0
    order: 2
    order: 3
    order: 1
  }
}
layer {
  name: "conv8_2_mbox_loc_flat"
  type: "Flatten"
  bottom: "conv8_2_mbox_loc_perm"
  top: "conv8_2_mbox_loc_flat"
  flatten_param {
    axis: 1
  }
}
layer {
  name: "conv8_2_mbox_conf"
  type: "Convolution"
  bottom: "conv8_2"
  top: "conv8_2_mbox_conf"
  param {
    lr_mult: 1
    decay_mult: 1
  }
  param {
    lr_mult: 2
    decay_mult: 0
  }
  convolution_param {
    num_output: 16
    pad: 1
    kernel_size: 3
    stride: 1
    weight_filler {
      type: "xavier"
    }
    bias_filler {
      type: "constant"
      value: 0
    }
  }
}
layer {
  name: "conv8_2_mbox_conf_perm"
  type: "Permute"
  bottom: "conv8_2_mbox_conf"
  top: "conv8_2_mbox_conf_perm"
  permute_param {
    order: 0
    order: 2
    order: 3
    order: 1
  }
}
layer {
  name: "conv8_2_mbox_conf_flat"
  type: "Flatten"
  bottom: "conv8_2_mbox_conf_perm"
  top: "conv8_2_mbox_conf_flat"
  flatten_param {
    axis: 1
  }
}
layer {
  name: "conv8_2_mbox_priorbox"
  type: "PriorBox"
  bottom: "conv8_2"
  bottom: "data"
  top: "conv8_2_mbox_priorbox"
  prior_box_param {
    min_size: 213
    max_size: 264
    aspect_ratio: 2
    flip: true
    clip: false
    variance: 0.1
    variance: 0.1
    variance: 0.2
    variance: 0.2
    step: 100
    offset: 0.5
  }
}
layer {
  name: "conv9_2_mbox_loc"
  type: "Convolution"
  bottom: "conv9_2"
  top: "conv9_2_mbox_loc"
  param {
    lr_mult: 1
    decay_mult: 1
  }
  param {
    lr_mult: 2
    decay_mult: 0
  }
  convolution_param {
    num_output: 16
    pad: 1
    kernel_size: 3
    stride: 1
    weight_filler {
      type: "xavier"
    }
    bias_filler {
      type: "constant"
      value: 0
    }
  }
}
layer {
  name: "conv9_2_mbox_loc_perm"
  type: "Permute"
  bottom: "conv9_2_mbox_loc"
  top: "conv9_2_mbox_loc_perm"
  permute_param {
    order: 0
    order: 2
    order: 3
    order: 1
  }
}
layer {
  name: "conv9_2_mbox_loc_flat"
  type: "Flatten"
  bottom: "conv9_2_mbox_loc_perm"
  top: "conv9_2_mbox_loc_flat"
  flatten_param {
    axis: 1
  }
}
layer {
  name: "conv9_2_mbox_conf"
  type: "Convolution"
  bottom: "conv9_2"
  top: "conv9_2_mbox_conf"
  param {
    lr_mult: 1
    decay_mult: 1
  }
  param {
    lr_mult: 2
    decay_mult: 0
  }
  convolution_param {
    num_output: 16
    pad: 1
    kernel_size: 3
    stride: 1
    weight_filler {
      type: "xavier"
    }
    bias_filler {
      type: "constant"
      value: 0
    }
  }
}
layer {
  name: "conv9_2_mbox_conf_perm"
  type: "Permute"
  bottom: "conv9_2_mbox_conf"
  top: "conv9_2_mbox_conf_perm"
  permute_param {
    order: 0
    order: 2
    order: 3
    order: 1
  }
}
layer {
  name: "conv9_2_mbox_conf_flat"
  type: "Flatten"
  bottom: "conv9_2_mbox_conf_perm"
  top: "conv9_2_mbox_conf_flat"
  flatten_param {
    axis: 1
  }
}
layer {
  name: "conv9_2_mbox_priorbox"
  type: "PriorBox"
  bottom: "conv9_2"
  bottom: "data"
  top: "conv9_2_mbox_priorbox"
  prior_box_param {
    min_size: 264
    max_size: 315
    aspect_ratio: 2
    flip: true
    clip: false
    variance: 0.1
    variance: 0.1
    variance: 0.2
    variance: 0.2
    step: 300
    offset: 0.5
  }
}
layer {
  name: "mbox_loc"
  type: "Concat"
  bottom: "conv4_3_norm_mbox_loc_flat"
  bottom: "fc7_mbox_loc_flat"
  bottom: "conv6_2_mbox_loc_flat"
  bottom: "conv7_2_mbox_loc_flat"
  bottom: "conv8_2_mbox_loc_flat"
  bottom: "conv9_2_mbox_loc_flat"
  top: "mbox_loc"
  concat_param {
    axis: 1
  }
}
layer {
  name: "mbox_conf"
  type: "Concat"
  bottom: "conv4_3_norm_mbox_conf_flat"
  bottom: "fc7_mbox_conf_flat"
  bottom: "conv6_2_mbox_conf_flat"
  bottom: "conv7_2_mbox_conf_flat"
  bottom: "conv8_2_mbox_conf_flat"
  bottom: "conv9_2_mbox_conf_flat"
  top: "mbox_conf"
  concat_param {
    axis: 1
  }
}
layer {
  name: "mbox_priorbox"
  type: "Concat"
  bottom: "conv4_3_norm_mbox_priorbox"
  bottom: "fc7_mbox_priorbox"
  bottom: "conv6_2_mbox_priorbox"
  bottom: "conv7_2_mbox_priorbox"
  bottom: "conv8_2_mbox_priorbox"
  bottom: "conv9_2_mbox_priorbox"
  top: "mbox_priorbox"
  concat_param {
    axis: 2
  }
}
layer {
  name: "mbox_conf_reshape"
  type: "Reshape"
  bottom: "mbox_conf"
  top: "mbox_conf_reshape"
  reshape_param {
    shape {
      dim: 0
      dim: -1
      dim: 4
    }
  }
}
layer {
  name: "mbox_conf_softmax"
  type: "Softmax"
  bottom: "mbox_conf_reshape"
  top: "mbox_conf_softmax"
  softmax_param {
    axis: 2
  }
}
layer {
  name: "mbox_conf_flatten"
  type: "Flatten"
  bottom: "mbox_conf_softmax"
  top: "mbox_conf_flatten"
  flatten_param {
    axis: 1
  }
}
layer {
  name: "detection_out"
  type: "DetectionOutput"
  bottom: "mbox_loc"
  bottom: "mbox_conf_flatten"
  bottom: "mbox_priorbox"
  top: "detection_out"
  include {
    phase: TEST
  }
  detection_output_param {
    num_classes: 4
    share_location: true
    background_label_id: 0
    nms_param {
      nms_threshold: 0.45
      top_k: 400
    }
    save_output_param {
      output_directory: "/home/shangzw/data/tbs/results/tbs/SSD_300x300/Main"
      output_name_prefix: "comp4_det_test_"
      output_format: "VOC"
      label_map_file: "data/tbs_300x300_HSIL_10x/labelmap_tbs.prototxt"
      name_size_file: "data/VOC0712/test_name_size.txt"
      num_test_image: 100
    }
    code_type: CENTER_SIZE
    keep_top_k: 200
    confidence_threshold: 0.01
  }
}
layer {
  name: "detection_eval"
  type: "DetectionEvaluate"
  bottom: "detection_out"
  bottom: "label"
  top: "detection_eval"
  include {
    phase: TEST
  }
  detection_evaluate_param {
    num_classes: 4
    background_label_id: 0
    overlap_threshold: 0.5
    evaluate_difficult_gt: false
    name_size_file: "data/VOC0712/test_name_size.txt"
  }
}
I0601 11:10:21.170790 28711 layer_factory.hpp:77] Creating layer data
I0601 11:10:21.170838 28711 net.cpp:100] Creating Layer data
I0601 11:10:21.170846 28711 net.cpp:408] data -> data
I0601 11:10:21.170853 28711 net.cpp:408] data -> label
I0601 11:10:21.171905 28734 db_lmdb.cpp:35] Opened lmdb examples/tbs_300x300_HSIL_10x/tbs_300x300_HSIL_10x_test_lmdb
I0601 11:10:21.172613 28711 annotated_data_layer.cpp:62] output data size: 4,3,300,300
I0601 11:10:21.181921 28711 net.cpp:150] Setting up data
I0601 11:10:21.181941 28711 net.cpp:157] Top shape: 4 3 300 300 (1080000)
I0601 11:10:21.181946 28711 net.cpp:157] Top shape: 1 1 1 8 (8)
I0601 11:10:21.181951 28711 net.cpp:165] Memory required for data: 4320032
I0601 11:10:21.181955 28711 layer_factory.hpp:77] Creating layer data_data_0_split
I0601 11:10:21.181968 28711 net.cpp:100] Creating Layer data_data_0_split
I0601 11:10:21.181974 28711 net.cpp:434] data_data_0_split <- data
I0601 11:10:21.181983 28711 net.cpp:408] data_data_0_split -> data_data_0_split_0
I0601 11:10:21.182009 28711 net.cpp:408] data_data_0_split -> data_data_0_split_1
I0601 11:10:21.182018 28711 net.cpp:408] data_data_0_split -> data_data_0_split_2
I0601 11:10:21.182027 28711 net.cpp:408] data_data_0_split -> data_data_0_split_3
I0601 11:10:21.182034 28711 net.cpp:408] data_data_0_split -> data_data_0_split_4
I0601 11:10:21.182042 28711 net.cpp:408] data_data_0_split -> data_data_0_split_5
I0601 11:10:21.182049 28711 net.cpp:408] data_data_0_split -> data_data_0_split_6
I0601 11:10:21.182153 28711 net.cpp:150] Setting up data_data_0_split
I0601 11:10:21.182164 28711 net.cpp:157] Top shape: 4 3 300 300 (1080000)
I0601 11:10:21.182183 28711 net.cpp:157] Top shape: 4 3 300 300 (1080000)
I0601 11:10:21.182189 28711 net.cpp:157] Top shape: 4 3 300 300 (1080000)
I0601 11:10:21.182194 28711 net.cpp:157] Top shape: 4 3 300 300 (1080000)
I0601 11:10:21.182199 28711 net.cpp:157] Top shape: 4 3 300 300 (1080000)
I0601 11:10:21.182202 28711 net.cpp:157] Top shape: 4 3 300 300 (1080000)
I0601 11:10:21.182209 28711 net.cpp:157] Top shape: 4 3 300 300 (1080000)
I0601 11:10:21.182212 28711 net.cpp:165] Memory required for data: 34560032
I0601 11:10:21.182216 28711 layer_factory.hpp:77] Creating layer conv1_1
I0601 11:10:21.182227 28711 net.cpp:100] Creating Layer conv1_1
I0601 11:10:21.182234 28711 net.cpp:434] conv1_1 <- data_data_0_split_0
I0601 11:10:21.182241 28711 net.cpp:408] conv1_1 -> conv1_1
I0601 11:10:21.182615 28711 net.cpp:150] Setting up conv1_1
I0601 11:10:21.182626 28711 net.cpp:157] Top shape: 4 64 300 300 (23040000)
I0601 11:10:21.182629 28711 net.cpp:165] Memory required for data: 126720032
I0601 11:10:21.182641 28711 layer_factory.hpp:77] Creating layer relu1_1
I0601 11:10:21.182646 28711 net.cpp:100] Creating Layer relu1_1
I0601 11:10:21.182651 28711 net.cpp:434] relu1_1 <- conv1_1
I0601 11:10:21.182656 28711 net.cpp:395] relu1_1 -> conv1_1 (in-place)
I0601 11:10:21.182663 28711 net.cpp:150] Setting up relu1_1
I0601 11:10:21.182668 28711 net.cpp:157] Top shape: 4 64 300 300 (23040000)
I0601 11:10:21.182672 28711 net.cpp:165] Memory required for data: 218880032
I0601 11:10:21.182675 28711 layer_factory.hpp:77] Creating layer conv1_2
I0601 11:10:21.182683 28711 net.cpp:100] Creating Layer conv1_2
I0601 11:10:21.182688 28711 net.cpp:434] conv1_2 <- conv1_1
I0601 11:10:21.182693 28711 net.cpp:408] conv1_2 -> conv1_2
I0601 11:10:21.184442 28711 net.cpp:150] Setting up conv1_2
I0601 11:10:21.184453 28711 net.cpp:157] Top shape: 4 64 300 300 (23040000)
I0601 11:10:21.184456 28711 net.cpp:165] Memory required for data: 311040032
I0601 11:10:21.184463 28711 layer_factory.hpp:77] Creating layer relu1_2
I0601 11:10:21.184471 28711 net.cpp:100] Creating Layer relu1_2
I0601 11:10:21.184476 28711 net.cpp:434] relu1_2 <- conv1_2
I0601 11:10:21.184483 28711 net.cpp:395] relu1_2 -> conv1_2 (in-place)
I0601 11:10:21.184490 28711 net.cpp:150] Setting up relu1_2
I0601 11:10:21.184495 28711 net.cpp:157] Top shape: 4 64 300 300 (23040000)
I0601 11:10:21.184499 28711 net.cpp:165] Memory required for data: 403200032
I0601 11:10:21.184504 28711 layer_factory.hpp:77] Creating layer pool1
I0601 11:10:21.184509 28711 net.cpp:100] Creating Layer pool1
I0601 11:10:21.184514 28711 net.cpp:434] pool1 <- conv1_2
I0601 11:10:21.184518 28711 net.cpp:408] pool1 -> pool1
I0601 11:10:21.184561 28711 net.cpp:150] Setting up pool1
I0601 11:10:21.184568 28711 net.cpp:157] Top shape: 4 64 150 150 (5760000)
I0601 11:10:21.184573 28711 net.cpp:165] Memory required for data: 426240032
I0601 11:10:21.184576 28711 layer_factory.hpp:77] Creating layer conv2_1
I0601 11:10:21.184586 28711 net.cpp:100] Creating Layer conv2_1
I0601 11:10:21.184590 28711 net.cpp:434] conv2_1 <- pool1
I0601 11:10:21.184597 28711 net.cpp:408] conv2_1 -> conv2_1
I0601 11:10:21.186141 28711 net.cpp:150] Setting up conv2_1
I0601 11:10:21.186153 28711 net.cpp:157] Top shape: 4 128 150 150 (11520000)
I0601 11:10:21.186156 28711 net.cpp:165] Memory required for data: 472320032
I0601 11:10:21.186163 28711 layer_factory.hpp:77] Creating layer relu2_1
I0601 11:10:21.186173 28711 net.cpp:100] Creating Layer relu2_1
I0601 11:10:21.186179 28711 net.cpp:434] relu2_1 <- conv2_1
I0601 11:10:21.186184 28711 net.cpp:395] relu2_1 -> conv2_1 (in-place)
I0601 11:10:21.186192 28711 net.cpp:150] Setting up relu2_1
I0601 11:10:21.186198 28711 net.cpp:157] Top shape: 4 128 150 150 (11520000)
I0601 11:10:21.186203 28711 net.cpp:165] Memory required for data: 518400032
I0601 11:10:21.186206 28711 layer_factory.hpp:77] Creating layer conv2_2
I0601 11:10:21.186214 28711 net.cpp:100] Creating Layer conv2_2
I0601 11:10:21.186219 28711 net.cpp:434] conv2_2 <- conv2_1
I0601 11:10:21.186225 28711 net.cpp:408] conv2_2 -> conv2_2
I0601 11:10:21.187860 28711 net.cpp:150] Setting up conv2_2
I0601 11:10:21.187870 28711 net.cpp:157] Top shape: 4 128 150 150 (11520000)
I0601 11:10:21.187872 28711 net.cpp:165] Memory required for data: 564480032
I0601 11:10:21.187880 28711 layer_factory.hpp:77] Creating layer relu2_2
I0601 11:10:21.187886 28711 net.cpp:100] Creating Layer relu2_2
I0601 11:10:21.187891 28711 net.cpp:434] relu2_2 <- conv2_2
I0601 11:10:21.187896 28711 net.cpp:395] relu2_2 -> conv2_2 (in-place)
I0601 11:10:21.187904 28711 net.cpp:150] Setting up relu2_2
I0601 11:10:21.187911 28711 net.cpp:157] Top shape: 4 128 150 150 (11520000)
I0601 11:10:21.187913 28711 net.cpp:165] Memory required for data: 610560032
I0601 11:10:21.187916 28711 layer_factory.hpp:77] Creating layer pool2
I0601 11:10:21.187924 28711 net.cpp:100] Creating Layer pool2
I0601 11:10:21.187928 28711 net.cpp:434] pool2 <- conv2_2
I0601 11:10:21.187934 28711 net.cpp:408] pool2 -> pool2
I0601 11:10:21.187976 28711 net.cpp:150] Setting up pool2
I0601 11:10:21.187985 28711 net.cpp:157] Top shape: 4 128 75 75 (2880000)
I0601 11:10:21.187989 28711 net.cpp:165] Memory required for data: 622080032
I0601 11:10:21.187994 28711 layer_factory.hpp:77] Creating layer conv3_1
I0601 11:10:21.188001 28711 net.cpp:100] Creating Layer conv3_1
I0601 11:10:21.188006 28711 net.cpp:434] conv3_1 <- pool2
I0601 11:10:21.188014 28711 net.cpp:408] conv3_1 -> conv3_1
I0601 11:10:21.189657 28711 net.cpp:150] Setting up conv3_1
I0601 11:10:21.189666 28711 net.cpp:157] Top shape: 4 256 75 75 (5760000)
I0601 11:10:21.189668 28711 net.cpp:165] Memory required for data: 645120032
I0601 11:10:21.189677 28711 layer_factory.hpp:77] Creating layer relu3_1
I0601 11:10:21.189685 28711 net.cpp:100] Creating Layer relu3_1
I0601 11:10:21.189690 28711 net.cpp:434] relu3_1 <- conv3_1
I0601 11:10:21.189695 28711 net.cpp:395] relu3_1 -> conv3_1 (in-place)
I0601 11:10:21.189705 28711 net.cpp:150] Setting up relu3_1
I0601 11:10:21.189712 28711 net.cpp:157] Top shape: 4 256 75 75 (5760000)
I0601 11:10:21.189715 28711 net.cpp:165] Memory required for data: 668160032
I0601 11:10:21.189718 28711 layer_factory.hpp:77] Creating layer conv3_2
I0601 11:10:21.189728 28711 net.cpp:100] Creating Layer conv3_2
I0601 11:10:21.189731 28711 net.cpp:434] conv3_2 <- conv3_1
I0601 11:10:21.189738 28711 net.cpp:408] conv3_2 -> conv3_2
I0601 11:10:21.193181 28711 net.cpp:150] Setting up conv3_2
I0601 11:10:21.193197 28711 net.cpp:157] Top shape: 4 256 75 75 (5760000)
I0601 11:10:21.193199 28711 net.cpp:165] Memory required for data: 691200032
I0601 11:10:21.193204 28711 layer_factory.hpp:77] Creating layer relu3_2
I0601 11:10:21.193212 28711 net.cpp:100] Creating Layer relu3_2
I0601 11:10:21.193217 28711 net.cpp:434] relu3_2 <- conv3_2
I0601 11:10:21.193225 28711 net.cpp:395] relu3_2 -> conv3_2 (in-place)
I0601 11:10:21.193233 28711 net.cpp:150] Setting up relu3_2
I0601 11:10:21.193239 28711 net.cpp:157] Top shape: 4 256 75 75 (5760000)
I0601 11:10:21.193243 28711 net.cpp:165] Memory required for data: 714240032
I0601 11:10:21.193248 28711 layer_factory.hpp:77] Creating layer conv3_3
I0601 11:10:21.193259 28711 net.cpp:100] Creating Layer conv3_3
I0601 11:10:21.193262 28711 net.cpp:434] conv3_3 <- conv3_2
I0601 11:10:21.193272 28711 net.cpp:408] conv3_3 -> conv3_3
I0601 11:10:21.196815 28711 net.cpp:150] Setting up conv3_3
I0601 11:10:21.196831 28711 net.cpp:157] Top shape: 4 256 75 75 (5760000)
I0601 11:10:21.196835 28711 net.cpp:165] Memory required for data: 737280032
I0601 11:10:21.196841 28711 layer_factory.hpp:77] Creating layer relu3_3
I0601 11:10:21.196846 28711 net.cpp:100] Creating Layer relu3_3
I0601 11:10:21.196848 28711 net.cpp:434] relu3_3 <- conv3_3
I0601 11:10:21.196852 28711 net.cpp:395] relu3_3 -> conv3_3 (in-place)
I0601 11:10:21.196859 28711 net.cpp:150] Setting up relu3_3
I0601 11:10:21.196872 28711 net.cpp:157] Top shape: 4 256 75 75 (5760000)
I0601 11:10:21.196877 28711 net.cpp:165] Memory required for data: 760320032
I0601 11:10:21.196879 28711 layer_factory.hpp:77] Creating layer pool3
I0601 11:10:21.196887 28711 net.cpp:100] Creating Layer pool3
I0601 11:10:21.196905 28711 net.cpp:434] pool3 <- conv3_3
I0601 11:10:21.196913 28711 net.cpp:408] pool3 -> pool3
I0601 11:10:21.196954 28711 net.cpp:150] Setting up pool3
I0601 11:10:21.196964 28711 net.cpp:157] Top shape: 4 256 38 38 (1478656)
I0601 11:10:21.196969 28711 net.cpp:165] Memory required for data: 766234656
I0601 11:10:21.196971 28711 layer_factory.hpp:77] Creating layer conv4_1
I0601 11:10:21.196982 28711 net.cpp:100] Creating Layer conv4_1
I0601 11:10:21.196987 28711 net.cpp:434] conv4_1 <- pool3
I0601 11:10:21.196995 28711 net.cpp:408] conv4_1 -> conv4_1
I0601 11:10:21.203299 28711 net.cpp:150] Setting up conv4_1
I0601 11:10:21.203315 28711 net.cpp:157] Top shape: 4 512 38 38 (2957312)
I0601 11:10:21.203318 28711 net.cpp:165] Memory required for data: 778063904
I0601 11:10:21.203325 28711 layer_factory.hpp:77] Creating layer relu4_1
I0601 11:10:21.203333 28711 net.cpp:100] Creating Layer relu4_1
I0601 11:10:21.203337 28711 net.cpp:434] relu4_1 <- conv4_1
I0601 11:10:21.203343 28711 net.cpp:395] relu4_1 -> conv4_1 (in-place)
I0601 11:10:21.203351 28711 net.cpp:150] Setting up relu4_1
I0601 11:10:21.203356 28711 net.cpp:157] Top shape: 4 512 38 38 (2957312)
I0601 11:10:21.203358 28711 net.cpp:165] Memory required for data: 789893152
I0601 11:10:21.203361 28711 layer_factory.hpp:77] Creating layer conv4_2
I0601 11:10:21.203372 28711 net.cpp:100] Creating Layer conv4_2
I0601 11:10:21.203374 28711 net.cpp:434] conv4_2 <- conv4_1
I0601 11:10:21.203380 28711 net.cpp:408] conv4_2 -> conv4_2
I0601 11:10:21.216126 28711 net.cpp:150] Setting up conv4_2
I0601 11:10:21.216143 28711 net.cpp:157] Top shape: 4 512 38 38 (2957312)
I0601 11:10:21.216147 28711 net.cpp:165] Memory required for data: 801722400
I0601 11:10:21.216156 28711 layer_factory.hpp:77] Creating layer relu4_2
I0601 11:10:21.216162 28711 net.cpp:100] Creating Layer relu4_2
I0601 11:10:21.216166 28711 net.cpp:434] relu4_2 <- conv4_2
I0601 11:10:21.216173 28711 net.cpp:395] relu4_2 -> conv4_2 (in-place)
I0601 11:10:21.216181 28711 net.cpp:150] Setting up relu4_2
I0601 11:10:21.216192 28711 net.cpp:157] Top shape: 4 512 38 38 (2957312)
I0601 11:10:21.216194 28711 net.cpp:165] Memory required for data: 813551648
I0601 11:10:21.216198 28711 layer_factory.hpp:77] Creating layer conv4_3
I0601 11:10:21.216207 28711 net.cpp:100] Creating Layer conv4_3
I0601 11:10:21.216212 28711 net.cpp:434] conv4_3 <- conv4_2
I0601 11:10:21.216218 28711 net.cpp:408] conv4_3 -> conv4_3
I0601 11:10:21.228389 28711 net.cpp:150] Setting up conv4_3
I0601 11:10:21.228408 28711 net.cpp:157] Top shape: 4 512 38 38 (2957312)
I0601 11:10:21.228410 28711 net.cpp:165] Memory required for data: 825380896
I0601 11:10:21.228416 28711 layer_factory.hpp:77] Creating layer relu4_3
I0601 11:10:21.228425 28711 net.cpp:100] Creating Layer relu4_3
I0601 11:10:21.228430 28711 net.cpp:434] relu4_3 <- conv4_3
I0601 11:10:21.228435 28711 net.cpp:395] relu4_3 -> conv4_3 (in-place)
I0601 11:10:21.228453 28711 net.cpp:150] Setting up relu4_3
I0601 11:10:21.228458 28711 net.cpp:157] Top shape: 4 512 38 38 (2957312)
I0601 11:10:21.228461 28711 net.cpp:165] Memory required for data: 837210144
I0601 11:10:21.228464 28711 layer_factory.hpp:77] Creating layer conv4_3_relu4_3_0_split
I0601 11:10:21.228469 28711 net.cpp:100] Creating Layer conv4_3_relu4_3_0_split
I0601 11:10:21.228476 28711 net.cpp:434] conv4_3_relu4_3_0_split <- conv4_3
I0601 11:10:21.228480 28711 net.cpp:408] conv4_3_relu4_3_0_split -> conv4_3_relu4_3_0_split_0
I0601 11:10:21.228487 28711 net.cpp:408] conv4_3_relu4_3_0_split -> conv4_3_relu4_3_0_split_1
I0601 11:10:21.228525 28711 net.cpp:150] Setting up conv4_3_relu4_3_0_split
I0601 11:10:21.228534 28711 net.cpp:157] Top shape: 4 512 38 38 (2957312)
I0601 11:10:21.228554 28711 net.cpp:157] Top shape: 4 512 38 38 (2957312)
I0601 11:10:21.228557 28711 net.cpp:165] Memory required for data: 860868640
I0601 11:10:21.228560 28711 layer_factory.hpp:77] Creating layer pool4
I0601 11:10:21.228569 28711 net.cpp:100] Creating Layer pool4
I0601 11:10:21.228572 28711 net.cpp:434] pool4 <- conv4_3_relu4_3_0_split_0
I0601 11:10:21.228591 28711 net.cpp:408] pool4 -> pool4
I0601 11:10:21.228646 28711 net.cpp:150] Setting up pool4
I0601 11:10:21.228654 28711 net.cpp:157] Top shape: 4 512 19 19 (739328)
I0601 11:10:21.228659 28711 net.cpp:165] Memory required for data: 863825952
I0601 11:10:21.228663 28711 layer_factory.hpp:77] Creating layer conv5_1
I0601 11:10:21.228673 28711 net.cpp:100] Creating Layer conv5_1
I0601 11:10:21.228679 28711 net.cpp:434] conv5_1 <- pool4
I0601 11:10:21.228688 28711 net.cpp:408] conv5_1 -> conv5_1
I0601 11:10:21.241302 28711 net.cpp:150] Setting up conv5_1
I0601 11:10:21.241318 28711 net.cpp:157] Top shape: 4 512 19 19 (739328)
I0601 11:10:21.241322 28711 net.cpp:165] Memory required for data: 866783264
I0601 11:10:21.241343 28711 layer_factory.hpp:77] Creating layer relu5_1
I0601 11:10:21.241350 28711 net.cpp:100] Creating Layer relu5_1
I0601 11:10:21.241353 28711 net.cpp:434] relu5_1 <- conv5_1
I0601 11:10:21.241358 28711 net.cpp:395] relu5_1 -> conv5_1 (in-place)
I0601 11:10:21.241365 28711 net.cpp:150] Setting up relu5_1
I0601 11:10:21.241369 28711 net.cpp:157] Top shape: 4 512 19 19 (739328)
I0601 11:10:21.241372 28711 net.cpp:165] Memory required for data: 869740576
I0601 11:10:21.241374 28711 layer_factory.hpp:77] Creating layer conv5_2
I0601 11:10:21.241399 28711 net.cpp:100] Creating Layer conv5_2
I0601 11:10:21.241402 28711 net.cpp:434] conv5_2 <- conv5_1
I0601 11:10:21.241407 28711 net.cpp:408] conv5_2 -> conv5_2
I0601 11:10:21.253286 28711 net.cpp:150] Setting up conv5_2
I0601 11:10:21.253305 28711 net.cpp:157] Top shape: 4 512 19 19 (739328)
I0601 11:10:21.253307 28711 net.cpp:165] Memory required for data: 872697888
I0601 11:10:21.253314 28711 layer_factory.hpp:77] Creating layer relu5_2
I0601 11:10:21.253334 28711 net.cpp:100] Creating Layer relu5_2
I0601 11:10:21.253337 28711 net.cpp:434] relu5_2 <- conv5_2
I0601 11:10:21.253343 28711 net.cpp:395] relu5_2 -> conv5_2 (in-place)
I0601 11:10:21.253350 28711 net.cpp:150] Setting up relu5_2
I0601 11:10:21.253352 28711 net.cpp:157] Top shape: 4 512 19 19 (739328)
I0601 11:10:21.253355 28711 net.cpp:165] Memory required for data: 875655200
I0601 11:10:21.253357 28711 layer_factory.hpp:77] Creating layer conv5_3
I0601 11:10:21.253379 28711 net.cpp:100] Creating Layer conv5_3
I0601 11:10:21.253384 28711 net.cpp:434] conv5_3 <- conv5_2
I0601 11:10:21.253404 28711 net.cpp:408] conv5_3 -> conv5_3
I0601 11:10:21.265255 28711 net.cpp:150] Setting up conv5_3
I0601 11:10:21.265277 28711 net.cpp:157] Top shape: 4 512 19 19 (739328)
I0601 11:10:21.265280 28711 net.cpp:165] Memory required for data: 878612512
I0601 11:10:21.265301 28711 layer_factory.hpp:77] Creating layer relu5_3
I0601 11:10:21.265326 28711 net.cpp:100] Creating Layer relu5_3
I0601 11:10:21.265331 28711 net.cpp:434] relu5_3 <- conv5_3
I0601 11:10:21.265336 28711 net.cpp:395] relu5_3 -> conv5_3 (in-place)
I0601 11:10:21.265342 28711 net.cpp:150] Setting up relu5_3
I0601 11:10:21.265362 28711 net.cpp:157] Top shape: 4 512 19 19 (739328)
I0601 11:10:21.265365 28711 net.cpp:165] Memory required for data: 881569824
I0601 11:10:21.265368 28711 layer_factory.hpp:77] Creating layer pool5
I0601 11:10:21.265388 28711 net.cpp:100] Creating Layer pool5
I0601 11:10:21.265390 28711 net.cpp:434] pool5 <- conv5_3
I0601 11:10:21.265395 28711 net.cpp:408] pool5 -> pool5
I0601 11:10:21.265441 28711 net.cpp:150] Setting up pool5
I0601 11:10:21.265450 28711 net.cpp:157] Top shape: 4 512 19 19 (739328)
I0601 11:10:21.265453 28711 net.cpp:165] Memory required for data: 884527136
I0601 11:10:21.265468 28711 layer_factory.hpp:77] Creating layer fc6
I0601 11:10:21.265493 28711 net.cpp:100] Creating Layer fc6
I0601 11:10:21.265497 28711 net.cpp:434] fc6 <- pool5
I0601 11:10:21.265503 28711 net.cpp:408] fc6 -> fc6
I0601 11:10:21.288250 28711 net.cpp:150] Setting up fc6
I0601 11:10:21.288269 28711 net.cpp:157] Top shape: 4 1024 19 19 (1478656)
I0601 11:10:21.288271 28711 net.cpp:165] Memory required for data: 890441760
I0601 11:10:21.288276 28711 layer_factory.hpp:77] Creating layer relu6
I0601 11:10:21.288314 28711 net.cpp:100] Creating Layer relu6
I0601 11:10:21.288318 28711 net.cpp:434] relu6 <- fc6
I0601 11:10:21.288339 28711 net.cpp:395] relu6 -> fc6 (in-place)
I0601 11:10:21.288362 28711 net.cpp:150] Setting up relu6
I0601 11:10:21.288367 28711 net.cpp:157] Top shape: 4 1024 19 19 (1478656)
I0601 11:10:21.288369 28711 net.cpp:165] Memory required for data: 896356384
I0601 11:10:21.288385 28711 layer_factory.hpp:77] Creating layer fc7
I0601 11:10:21.288408 28711 net.cpp:100] Creating Layer fc7
I0601 11:10:21.288411 28711 net.cpp:434] fc7 <- fc6
I0601 11:10:21.288430 28711 net.cpp:408] fc7 -> fc7
I0601 11:10:21.294119 28711 net.cpp:150] Setting up fc7
I0601 11:10:21.294137 28711 net.cpp:157] Top shape: 4 1024 19 19 (1478656)
I0601 11:10:21.294140 28711 net.cpp:165] Memory required for data: 902271008
I0601 11:10:21.294147 28711 layer_factory.hpp:77] Creating layer relu7
I0601 11:10:21.294153 28711 net.cpp:100] Creating Layer relu7
I0601 11:10:21.294157 28711 net.cpp:434] relu7 <- fc7
I0601 11:10:21.294179 28711 net.cpp:395] relu7 -> fc7 (in-place)
I0601 11:10:21.294200 28711 net.cpp:150] Setting up relu7
I0601 11:10:21.294206 28711 net.cpp:157] Top shape: 4 1024 19 19 (1478656)
I0601 11:10:21.294210 28711 net.cpp:165] Memory required for data: 908185632
I0601 11:10:21.294214 28711 layer_factory.hpp:77] Creating layer fc7_relu7_0_split
I0601 11:10:21.294236 28711 net.cpp:100] Creating Layer fc7_relu7_0_split
I0601 11:10:21.294240 28711 net.cpp:434] fc7_relu7_0_split <- fc7
I0601 11:10:21.294246 28711 net.cpp:408] fc7_relu7_0_split -> fc7_relu7_0_split_0
I0601 11:10:21.294256 28711 net.cpp:408] fc7_relu7_0_split -> fc7_relu7_0_split_1
I0601 11:10:21.294270 28711 net.cpp:408] fc7_relu7_0_split -> fc7_relu7_0_split_2
I0601 11:10:21.294277 28711 net.cpp:408] fc7_relu7_0_split -> fc7_relu7_0_split_3
I0601 11:10:21.294351 28711 net.cpp:150] Setting up fc7_relu7_0_split
I0601 11:10:21.294360 28711 net.cpp:157] Top shape: 4 1024 19 19 (1478656)
I0601 11:10:21.294368 28711 net.cpp:157] Top shape: 4 1024 19 19 (1478656)
I0601 11:10:21.294373 28711 net.cpp:157] Top shape: 4 1024 19 19 (1478656)
I0601 11:10:21.294378 28711 net.cpp:157] Top shape: 4 1024 19 19 (1478656)
I0601 11:10:21.294381 28711 net.cpp:165] Memory required for data: 931844128
I0601 11:10:21.294385 28711 layer_factory.hpp:77] Creating layer conv6_1
I0601 11:10:21.294397 28711 net.cpp:100] Creating Layer conv6_1
I0601 11:10:21.294404 28711 net.cpp:434] conv6_1 <- fc7_relu7_0_split_0
I0601 11:10:21.294412 28711 net.cpp:408] conv6_1 -> conv6_1
I0601 11:10:21.296564 28711 net.cpp:150] Setting up conv6_1
I0601 11:10:21.296574 28711 net.cpp:157] Top shape: 4 256 19 19 (369664)
I0601 11:10:21.296577 28711 net.cpp:165] Memory required for data: 933322784
I0601 11:10:21.296582 28711 layer_factory.hpp:77] Creating layer conv6_1_relu
I0601 11:10:21.296591 28711 net.cpp:100] Creating Layer conv6_1_relu
I0601 11:10:21.296596 28711 net.cpp:434] conv6_1_relu <- conv6_1
I0601 11:10:21.296602 28711 net.cpp:395] conv6_1_relu -> conv6_1 (in-place)
I0601 11:10:21.296608 28711 net.cpp:150] Setting up conv6_1_relu
I0601 11:10:21.296614 28711 net.cpp:157] Top shape: 4 256 19 19 (369664)
I0601 11:10:21.296618 28711 net.cpp:165] Memory required for data: 934801440
I0601 11:10:21.296623 28711 layer_factory.hpp:77] Creating layer conv6_2
I0601 11:10:21.296633 28711 net.cpp:100] Creating Layer conv6_2
I0601 11:10:21.296636 28711 net.cpp:434] conv6_2 <- conv6_1
I0601 11:10:21.296640 28711 net.cpp:408] conv6_2 -> conv6_2
I0601 11:10:21.303176 28711 net.cpp:150] Setting up conv6_2
I0601 11:10:21.303201 28711 net.cpp:157] Top shape: 4 512 10 10 (204800)
I0601 11:10:21.303203 28711 net.cpp:165] Memory required for data: 935620640
I0601 11:10:21.303232 28711 layer_factory.hpp:77] Creating layer conv6_2_relu
I0601 11:10:21.303243 28711 net.cpp:100] Creating Layer conv6_2_relu
I0601 11:10:21.303247 28711 net.cpp:434] conv6_2_relu <- conv6_2
I0601 11:10:21.303252 28711 net.cpp:395] conv6_2_relu -> conv6_2 (in-place)
I0601 11:10:21.303279 28711 net.cpp:150] Setting up conv6_2_relu
I0601 11:10:21.303300 28711 net.cpp:157] Top shape: 4 512 10 10 (204800)
I0601 11:10:21.303304 28711 net.cpp:165] Memory required for data: 936439840
I0601 11:10:21.303308 28711 layer_factory.hpp:77] Creating layer conv6_2_conv6_2_relu_0_split
I0601 11:10:21.303314 28711 net.cpp:100] Creating Layer conv6_2_conv6_2_relu_0_split
I0601 11:10:21.303462 28711 net.cpp:434] conv6_2_conv6_2_relu_0_split <- conv6_2
I0601 11:10:21.303472 28711 net.cpp:408] conv6_2_conv6_2_relu_0_split -> conv6_2_conv6_2_relu_0_split_0
I0601 11:10:21.303479 28711 net.cpp:408] conv6_2_conv6_2_relu_0_split -> conv6_2_conv6_2_relu_0_split_1
I0601 11:10:21.303485 28711 net.cpp:408] conv6_2_conv6_2_relu_0_split -> conv6_2_conv6_2_relu_0_split_2
I0601 11:10:21.303491 28711 net.cpp:408] conv6_2_conv6_2_relu_0_split -> conv6_2_conv6_2_relu_0_split_3
I0601 11:10:21.303617 28711 net.cpp:150] Setting up conv6_2_conv6_2_relu_0_split
I0601 11:10:21.303639 28711 net.cpp:157] Top shape: 4 512 10 10 (204800)
I0601 11:10:21.303644 28711 net.cpp:157] Top shape: 4 512 10 10 (204800)
I0601 11:10:21.303649 28711 net.cpp:157] Top shape: 4 512 10 10 (204800)
I0601 11:10:21.303670 28711 net.cpp:157] Top shape: 4 512 10 10 (204800)
I0601 11:10:21.303673 28711 net.cpp:165] Memory required for data: 939716640
I0601 11:10:21.303678 28711 layer_factory.hpp:77] Creating layer conv7_1
I0601 11:10:21.303704 28711 net.cpp:100] Creating Layer conv7_1
I0601 11:10:21.303709 28711 net.cpp:434] conv7_1 <- conv6_2_conv6_2_relu_0_split_0
I0601 11:10:21.303717 28711 net.cpp:408] conv7_1 -> conv7_1
I0601 11:10:21.304564 28711 net.cpp:150] Setting up conv7_1
I0601 11:10:21.304579 28711 net.cpp:157] Top shape: 4 128 10 10 (51200)
I0601 11:10:21.304584 28711 net.cpp:165] Memory required for data: 939921440
I0601 11:10:21.304590 28711 layer_factory.hpp:77] Creating layer conv7_1_relu
I0601 11:10:21.304597 28711 net.cpp:100] Creating Layer conv7_1_relu
I0601 11:10:21.304602 28711 net.cpp:434] conv7_1_relu <- conv7_1
I0601 11:10:21.304610 28711 net.cpp:395] conv7_1_relu -> conv7_1 (in-place)
I0601 11:10:21.304617 28711 net.cpp:150] Setting up conv7_1_relu
I0601 11:10:21.304623 28711 net.cpp:157] Top shape: 4 128 10 10 (51200)
I0601 11:10:21.304626 28711 net.cpp:165] Memory required for data: 940126240
I0601 11:10:21.304631 28711 layer_factory.hpp:77] Creating layer conv7_2
I0601 11:10:21.304641 28711 net.cpp:100] Creating Layer conv7_2
I0601 11:10:21.304646 28711 net.cpp:434] conv7_2 <- conv7_1
I0601 11:10:21.304654 28711 net.cpp:408] conv7_2 -> conv7_2
I0601 11:10:21.306972 28711 net.cpp:150] Setting up conv7_2
I0601 11:10:21.306985 28711 net.cpp:157] Top shape: 4 256 5 5 (25600)
I0601 11:10:21.306988 28711 net.cpp:165] Memory required for data: 940228640
I0601 11:10:21.306994 28711 layer_factory.hpp:77] Creating layer conv7_2_relu
I0601 11:10:21.307003 28711 net.cpp:100] Creating Layer conv7_2_relu
I0601 11:10:21.307008 28711 net.cpp:434] conv7_2_relu <- conv7_2
I0601 11:10:21.307013 28711 net.cpp:395] conv7_2_relu -> conv7_2 (in-place)
I0601 11:10:21.307021 28711 net.cpp:150] Setting up conv7_2_relu
I0601 11:10:21.307027 28711 net.cpp:157] Top shape: 4 256 5 5 (25600)
I0601 11:10:21.307031 28711 net.cpp:165] Memory required for data: 940331040
I0601 11:10:21.307035 28711 layer_factory.hpp:77] Creating layer conv7_2_conv7_2_relu_0_split
I0601 11:10:21.307044 28711 net.cpp:100] Creating Layer conv7_2_conv7_2_relu_0_split
I0601 11:10:21.307049 28711 net.cpp:434] conv7_2_conv7_2_relu_0_split <- conv7_2
I0601 11:10:21.307056 28711 net.cpp:408] conv7_2_conv7_2_relu_0_split -> conv7_2_conv7_2_relu_0_split_0
I0601 11:10:21.307066 28711 net.cpp:408] conv7_2_conv7_2_relu_0_split -> conv7_2_conv7_2_relu_0_split_1
I0601 11:10:21.307075 28711 net.cpp:408] conv7_2_conv7_2_relu_0_split -> conv7_2_conv7_2_relu_0_split_2
I0601 11:10:21.307082 28711 net.cpp:408] conv7_2_conv7_2_relu_0_split -> conv7_2_conv7_2_relu_0_split_3
I0601 11:10:21.307157 28711 net.cpp:150] Setting up conv7_2_conv7_2_relu_0_split
I0601 11:10:21.307165 28711 net.cpp:157] Top shape: 4 256 5 5 (25600)
I0601 11:10:21.307171 28711 net.cpp:157] Top shape: 4 256 5 5 (25600)
I0601 11:10:21.307188 28711 net.cpp:157] Top shape: 4 256 5 5 (25600)
I0601 11:10:21.307194 28711 net.cpp:157] Top shape: 4 256 5 5 (25600)
I0601 11:10:21.307199 28711 net.cpp:165] Memory required for data: 940740640
I0601 11:10:21.307202 28711 layer_factory.hpp:77] Creating layer conv8_1
I0601 11:10:21.307214 28711 net.cpp:100] Creating Layer conv8_1
I0601 11:10:21.307219 28711 net.cpp:434] conv8_1 <- conv7_2_conv7_2_relu_0_split_0
I0601 11:10:21.307231 28711 net.cpp:408] conv8_1 -> conv8_1
I0601 11:10:21.307734 28711 net.cpp:150] Setting up conv8_1
I0601 11:10:21.307745 28711 net.cpp:157] Top shape: 4 128 5 5 (12800)
I0601 11:10:21.307750 28711 net.cpp:165] Memory required for data: 940791840
I0601 11:10:21.307759 28711 layer_factory.hpp:77] Creating layer conv8_1_relu
I0601 11:10:21.307765 28711 net.cpp:100] Creating Layer conv8_1_relu
I0601 11:10:21.307771 28711 net.cpp:434] conv8_1_relu <- conv8_1
I0601 11:10:21.307777 28711 net.cpp:395] conv8_1_relu -> conv8_1 (in-place)
I0601 11:10:21.307785 28711 net.cpp:150] Setting up conv8_1_relu
I0601 11:10:21.307790 28711 net.cpp:157] Top shape: 4 128 5 5 (12800)
I0601 11:10:21.307796 28711 net.cpp:165] Memory required for data: 940843040
I0601 11:10:21.307799 28711 layer_factory.hpp:77] Creating layer conv8_2
I0601 11:10:21.307809 28711 net.cpp:100] Creating Layer conv8_2
I0601 11:10:21.307816 28711 net.cpp:434] conv8_2 <- conv8_1
I0601 11:10:21.307824 28711 net.cpp:408] conv8_2 -> conv8_2
I0601 11:10:21.310052 28711 net.cpp:150] Setting up conv8_2
I0601 11:10:21.310062 28711 net.cpp:157] Top shape: 4 256 3 3 (9216)
I0601 11:10:21.310065 28711 net.cpp:165] Memory required for data: 940879904
I0601 11:10:21.310072 28711 layer_factory.hpp:77] Creating layer conv8_2_relu
I0601 11:10:21.310080 28711 net.cpp:100] Creating Layer conv8_2_relu
I0601 11:10:21.310084 28711 net.cpp:434] conv8_2_relu <- conv8_2
I0601 11:10:21.310091 28711 net.cpp:395] conv8_2_relu -> conv8_2 (in-place)
I0601 11:10:21.310098 28711 net.cpp:150] Setting up conv8_2_relu
I0601 11:10:21.310104 28711 net.cpp:157] Top shape: 4 256 3 3 (9216)
I0601 11:10:21.310108 28711 net.cpp:165] Memory required for data: 940916768
I0601 11:10:21.310111 28711 layer_factory.hpp:77] Creating layer conv8_2_conv8_2_relu_0_split
I0601 11:10:21.310120 28711 net.cpp:100] Creating Layer conv8_2_conv8_2_relu_0_split
I0601 11:10:21.310125 28711 net.cpp:434] conv8_2_conv8_2_relu_0_split <- conv8_2
I0601 11:10:21.310132 28711 net.cpp:408] conv8_2_conv8_2_relu_0_split -> conv8_2_conv8_2_relu_0_split_0
I0601 11:10:21.310140 28711 net.cpp:408] conv8_2_conv8_2_relu_0_split -> conv8_2_conv8_2_relu_0_split_1
I0601 11:10:21.310149 28711 net.cpp:408] conv8_2_conv8_2_relu_0_split -> conv8_2_conv8_2_relu_0_split_2
I0601 11:10:21.310156 28711 net.cpp:408] conv8_2_conv8_2_relu_0_split -> conv8_2_conv8_2_relu_0_split_3
I0601 11:10:21.310231 28711 net.cpp:150] Setting up conv8_2_conv8_2_relu_0_split
I0601 11:10:21.310240 28711 net.cpp:157] Top shape: 4 256 3 3 (9216)
I0601 11:10:21.310246 28711 net.cpp:157] Top shape: 4 256 3 3 (9216)
I0601 11:10:21.310251 28711 net.cpp:157] Top shape: 4 256 3 3 (9216)
I0601 11:10:21.310257 28711 net.cpp:157] Top shape: 4 256 3 3 (9216)
I0601 11:10:21.310261 28711 net.cpp:165] Memory required for data: 941064224
I0601 11:10:21.310266 28711 layer_factory.hpp:77] Creating layer conv9_1
I0601 11:10:21.310277 28711 net.cpp:100] Creating Layer conv9_1
I0601 11:10:21.310283 28711 net.cpp:434] conv9_1 <- conv8_2_conv8_2_relu_0_split_0
I0601 11:10:21.310292 28711 net.cpp:408] conv9_1 -> conv9_1
I0601 11:10:21.310797 28711 net.cpp:150] Setting up conv9_1
I0601 11:10:21.310807 28711 net.cpp:157] Top shape: 4 128 3 3 (4608)
I0601 11:10:21.310812 28711 net.cpp:165] Memory required for data: 941082656
I0601 11:10:21.310820 28711 layer_factory.hpp:77] Creating layer conv9_1_relu
I0601 11:10:21.310827 28711 net.cpp:100] Creating Layer conv9_1_relu
I0601 11:10:21.310832 28711 net.cpp:434] conv9_1_relu <- conv9_1
I0601 11:10:21.310842 28711 net.cpp:395] conv9_1_relu -> conv9_1 (in-place)
I0601 11:10:21.310861 28711 net.cpp:150] Setting up conv9_1_relu
I0601 11:10:21.310868 28711 net.cpp:157] Top shape: 4 128 3 3 (4608)
I0601 11:10:21.310873 28711 net.cpp:165] Memory required for data: 941101088
I0601 11:10:21.310878 28711 layer_factory.hpp:77] Creating layer conv9_2
I0601 11:10:21.310887 28711 net.cpp:100] Creating Layer conv9_2
I0601 11:10:21.310892 28711 net.cpp:434] conv9_2 <- conv9_1
I0601 11:10:21.310900 28711 net.cpp:408] conv9_2 -> conv9_2
I0601 11:10:21.313084 28711 net.cpp:150] Setting up conv9_2
I0601 11:10:21.313093 28711 net.cpp:157] Top shape: 4 256 1 1 (1024)
I0601 11:10:21.313096 28711 net.cpp:165] Memory required for data: 941105184
I0601 11:10:21.313102 28711 layer_factory.hpp:77] Creating layer conv9_2_relu
I0601 11:10:21.313109 28711 net.cpp:100] Creating Layer conv9_2_relu
I0601 11:10:21.313114 28711 net.cpp:434] conv9_2_relu <- conv9_2
I0601 11:10:21.313122 28711 net.cpp:395] conv9_2_relu -> conv9_2 (in-place)
I0601 11:10:21.313129 28711 net.cpp:150] Setting up conv9_2_relu
I0601 11:10:21.313135 28711 net.cpp:157] Top shape: 4 256 1 1 (1024)
I0601 11:10:21.313140 28711 net.cpp:165] Memory required for data: 941109280
I0601 11:10:21.313143 28711 layer_factory.hpp:77] Creating layer conv9_2_conv9_2_relu_0_split
I0601 11:10:21.313149 28711 net.cpp:100] Creating Layer conv9_2_conv9_2_relu_0_split
I0601 11:10:21.313153 28711 net.cpp:434] conv9_2_conv9_2_relu_0_split <- conv9_2
I0601 11:10:21.313163 28711 net.cpp:408] conv9_2_conv9_2_relu_0_split -> conv9_2_conv9_2_relu_0_split_0
I0601 11:10:21.313172 28711 net.cpp:408] conv9_2_conv9_2_relu_0_split -> conv9_2_conv9_2_relu_0_split_1
I0601 11:10:21.313180 28711 net.cpp:408] conv9_2_conv9_2_relu_0_split -> conv9_2_conv9_2_relu_0_split_2
I0601 11:10:21.313240 28711 net.cpp:150] Setting up conv9_2_conv9_2_relu_0_split
I0601 11:10:21.313248 28711 net.cpp:157] Top shape: 4 256 1 1 (1024)
I0601 11:10:21.313254 28711 net.cpp:157] Top shape: 4 256 1 1 (1024)
I0601 11:10:21.313259 28711 net.cpp:157] Top shape: 4 256 1 1 (1024)
I0601 11:10:21.313263 28711 net.cpp:165] Memory required for data: 941121568
I0601 11:10:21.313268 28711 layer_factory.hpp:77] Creating layer conv4_3_norm
I0601 11:10:21.313277 28711 net.cpp:100] Creating Layer conv4_3_norm
I0601 11:10:21.313282 28711 net.cpp:434] conv4_3_norm <- conv4_3_relu4_3_0_split_1
I0601 11:10:21.313290 28711 net.cpp:408] conv4_3_norm -> conv4_3_norm
I0601 11:10:21.313462 28711 net.cpp:150] Setting up conv4_3_norm
I0601 11:10:21.313470 28711 net.cpp:157] Top shape: 4 512 38 38 (2957312)
I0601 11:10:21.313474 28711 net.cpp:165] Memory required for data: 952950816
I0601 11:10:21.313480 28711 layer_factory.hpp:77] Creating layer conv4_3_norm_conv4_3_norm_0_split
I0601 11:10:21.313488 28711 net.cpp:100] Creating Layer conv4_3_norm_conv4_3_norm_0_split
I0601 11:10:21.313493 28711 net.cpp:434] conv4_3_norm_conv4_3_norm_0_split <- conv4_3_norm
I0601 11:10:21.313498 28711 net.cpp:408] conv4_3_norm_conv4_3_norm_0_split -> conv4_3_norm_conv4_3_norm_0_split_0
I0601 11:10:21.313506 28711 net.cpp:408] conv4_3_norm_conv4_3_norm_0_split -> conv4_3_norm_conv4_3_norm_0_split_1
I0601 11:10:21.313515 28711 net.cpp:408] conv4_3_norm_conv4_3_norm_0_split -> conv4_3_norm_conv4_3_norm_0_split_2
I0601 11:10:21.313565 28711 net.cpp:150] Setting up conv4_3_norm_conv4_3_norm_0_split
I0601 11:10:21.313572 28711 net.cpp:157] Top shape: 4 512 38 38 (2957312)
I0601 11:10:21.313578 28711 net.cpp:157] Top shape: 4 512 38 38 (2957312)
I0601 11:10:21.313585 28711 net.cpp:157] Top shape: 4 512 38 38 (2957312)
I0601 11:10:21.313588 28711 net.cpp:165] Memory required for data: 988438560
I0601 11:10:21.313593 28711 layer_factory.hpp:77] Creating layer conv4_3_norm_mbox_loc
I0601 11:10:21.313601 28711 net.cpp:100] Creating Layer conv4_3_norm_mbox_loc
I0601 11:10:21.313607 28711 net.cpp:434] conv4_3_norm_mbox_loc <- conv4_3_norm_conv4_3_norm_0_split_0
I0601 11:10:21.313616 28711 net.cpp:408] conv4_3_norm_mbox_loc -> conv4_3_norm_mbox_loc
I0601 11:10:21.314425 28711 net.cpp:150] Setting up conv4_3_norm_mbox_loc
I0601 11:10:21.314436 28711 net.cpp:157] Top shape: 4 16 38 38 (92416)
I0601 11:10:21.314450 28711 net.cpp:165] Memory required for data: 988808224
I0601 11:10:21.314456 28711 layer_factory.hpp:77] Creating layer conv4_3_norm_mbox_loc_perm
I0601 11:10:21.314463 28711 net.cpp:100] Creating Layer conv4_3_norm_mbox_loc_perm
I0601 11:10:21.314468 28711 net.cpp:434] conv4_3_norm_mbox_loc_perm <- conv4_3_norm_mbox_loc
I0601 11:10:21.314476 28711 net.cpp:408] conv4_3_norm_mbox_loc_perm -> conv4_3_norm_mbox_loc_perm
I0601 11:10:21.314577 28711 net.cpp:150] Setting up conv4_3_norm_mbox_loc_perm
I0601 11:10:21.314584 28711 net.cpp:157] Top shape: 4 38 38 16 (92416)
I0601 11:10:21.314587 28711 net.cpp:165] Memory required for data: 989177888
I0601 11:10:21.314591 28711 layer_factory.hpp:77] Creating layer conv4_3_norm_mbox_loc_flat
I0601 11:10:21.314599 28711 net.cpp:100] Creating Layer conv4_3_norm_mbox_loc_flat
I0601 11:10:21.314602 28711 net.cpp:434] conv4_3_norm_mbox_loc_flat <- conv4_3_norm_mbox_loc_perm
I0601 11:10:21.314607 28711 net.cpp:408] conv4_3_norm_mbox_loc_flat -> conv4_3_norm_mbox_loc_flat
I0601 11:10:21.314640 28711 net.cpp:150] Setting up conv4_3_norm_mbox_loc_flat
I0601 11:10:21.314651 28711 net.cpp:157] Top shape: 4 23104 (92416)
I0601 11:10:21.314654 28711 net.cpp:165] Memory required for data: 989547552
I0601 11:10:21.314658 28711 layer_factory.hpp:77] Creating layer conv4_3_norm_mbox_conf
I0601 11:10:21.314677 28711 net.cpp:100] Creating Layer conv4_3_norm_mbox_conf
I0601 11:10:21.314682 28711 net.cpp:434] conv4_3_norm_mbox_conf <- conv4_3_norm_conv4_3_norm_0_split_1
I0601 11:10:21.314690 28711 net.cpp:408] conv4_3_norm_mbox_conf -> conv4_3_norm_mbox_conf
I0601 11:10:21.315500 28711 net.cpp:150] Setting up conv4_3_norm_mbox_conf
I0601 11:10:21.315513 28711 net.cpp:157] Top shape: 4 16 38 38 (92416)
I0601 11:10:21.315518 28711 net.cpp:165] Memory required for data: 989917216
I0601 11:10:21.315524 28711 layer_factory.hpp:77] Creating layer conv4_3_norm_mbox_conf_perm
I0601 11:10:21.315536 28711 net.cpp:100] Creating Layer conv4_3_norm_mbox_conf_perm
I0601 11:10:21.315542 28711 net.cpp:434] conv4_3_norm_mbox_conf_perm <- conv4_3_norm_mbox_conf
I0601 11:10:21.315549 28711 net.cpp:408] conv4_3_norm_mbox_conf_perm -> conv4_3_norm_mbox_conf_perm
I0601 11:10:21.315662 28711 net.cpp:150] Setting up conv4_3_norm_mbox_conf_perm
I0601 11:10:21.315672 28711 net.cpp:157] Top shape: 4 38 38 16 (92416)
I0601 11:10:21.315678 28711 net.cpp:165] Memory required for data: 990286880
I0601 11:10:21.315681 28711 layer_factory.hpp:77] Creating layer conv4_3_norm_mbox_conf_flat
I0601 11:10:21.315690 28711 net.cpp:100] Creating Layer conv4_3_norm_mbox_conf_flat
I0601 11:10:21.315696 28711 net.cpp:434] conv4_3_norm_mbox_conf_flat <- conv4_3_norm_mbox_conf_perm
I0601 11:10:21.315702 28711 net.cpp:408] conv4_3_norm_mbox_conf_flat -> conv4_3_norm_mbox_conf_flat
I0601 11:10:21.315732 28711 net.cpp:150] Setting up conv4_3_norm_mbox_conf_flat
I0601 11:10:21.315739 28711 net.cpp:157] Top shape: 4 23104 (92416)
I0601 11:10:21.315743 28711 net.cpp:165] Memory required for data: 990656544
I0601 11:10:21.315748 28711 layer_factory.hpp:77] Creating layer conv4_3_norm_mbox_priorbox
I0601 11:10:21.315757 28711 net.cpp:100] Creating Layer conv4_3_norm_mbox_priorbox
I0601 11:10:21.315763 28711 net.cpp:434] conv4_3_norm_mbox_priorbox <- conv4_3_norm_conv4_3_norm_0_split_2
I0601 11:10:21.315769 28711 net.cpp:434] conv4_3_norm_mbox_priorbox <- data_data_0_split_1
I0601 11:10:21.315776 28711 net.cpp:408] conv4_3_norm_mbox_priorbox -> conv4_3_norm_mbox_priorbox
I0601 11:10:21.315805 28711 net.cpp:150] Setting up conv4_3_norm_mbox_priorbox
I0601 11:10:21.315812 28711 net.cpp:157] Top shape: 1 2 23104 (46208)
I0601 11:10:21.315817 28711 net.cpp:165] Memory required for data: 990841376
I0601 11:10:21.315821 28711 layer_factory.hpp:77] Creating layer fc7_mbox_loc
I0601 11:10:21.315834 28711 net.cpp:100] Creating Layer fc7_mbox_loc
I0601 11:10:21.315838 28711 net.cpp:434] fc7_mbox_loc <- fc7_relu7_0_split_1
I0601 11:10:21.315847 28711 net.cpp:408] fc7_mbox_loc -> fc7_mbox_loc
I0601 11:10:21.317251 28711 net.cpp:150] Setting up fc7_mbox_loc
I0601 11:10:21.317276 28711 net.cpp:157] Top shape: 4 24 19 19 (34656)
I0601 11:10:21.317279 28711 net.cpp:165] Memory required for data: 990980000
I0601 11:10:21.317284 28711 layer_factory.hpp:77] Creating layer fc7_mbox_loc_perm
I0601 11:10:21.317289 28711 net.cpp:100] Creating Layer fc7_mbox_loc_perm
I0601 11:10:21.317293 28711 net.cpp:434] fc7_mbox_loc_perm <- fc7_mbox_loc
I0601 11:10:21.317299 28711 net.cpp:408] fc7_mbox_loc_perm -> fc7_mbox_loc_perm
I0601 11:10:21.317411 28711 net.cpp:150] Setting up fc7_mbox_loc_perm
I0601 11:10:21.317421 28711 net.cpp:157] Top shape: 4 19 19 24 (34656)
I0601 11:10:21.317426 28711 net.cpp:165] Memory required for data: 991118624
I0601 11:10:21.317430 28711 layer_factory.hpp:77] Creating layer fc7_mbox_loc_flat
I0601 11:10:21.317436 28711 net.cpp:100] Creating Layer fc7_mbox_loc_flat
I0601 11:10:21.317441 28711 net.cpp:434] fc7_mbox_loc_flat <- fc7_mbox_loc_perm
I0601 11:10:21.317450 28711 net.cpp:408] fc7_mbox_loc_flat -> fc7_mbox_loc_flat
I0601 11:10:21.317477 28711 net.cpp:150] Setting up fc7_mbox_loc_flat
I0601 11:10:21.317484 28711 net.cpp:157] Top shape: 4 8664 (34656)
I0601 11:10:21.317488 28711 net.cpp:165] Memory required for data: 991257248
I0601 11:10:21.317492 28711 layer_factory.hpp:77] Creating layer fc7_mbox_conf
I0601 11:10:21.317502 28711 net.cpp:100] Creating Layer fc7_mbox_conf
I0601 11:10:21.317508 28711 net.cpp:434] fc7_mbox_conf <- fc7_relu7_0_split_2
I0601 11:10:21.317517 28711 net.cpp:408] fc7_mbox_conf -> fc7_mbox_conf
I0601 11:10:21.318856 28711 net.cpp:150] Setting up fc7_mbox_conf
I0601 11:10:21.318866 28711 net.cpp:157] Top shape: 4 24 19 19 (34656)
I0601 11:10:21.318868 28711 net.cpp:165] Memory required for data: 991395872
I0601 11:10:21.318873 28711 layer_factory.hpp:77] Creating layer fc7_mbox_conf_perm
I0601 11:10:21.318881 28711 net.cpp:100] Creating Layer fc7_mbox_conf_perm
I0601 11:10:21.318886 28711 net.cpp:434] fc7_mbox_conf_perm <- fc7_mbox_conf
I0601 11:10:21.318895 28711 net.cpp:408] fc7_mbox_conf_perm -> fc7_mbox_conf_perm
I0601 11:10:21.319006 28711 net.cpp:150] Setting up fc7_mbox_conf_perm
I0601 11:10:21.319017 28711 net.cpp:157] Top shape: 4 19 19 24 (34656)
I0601 11:10:21.319021 28711 net.cpp:165] Memory required for data: 991534496
I0601 11:10:21.319025 28711 layer_factory.hpp:77] Creating layer fc7_mbox_conf_flat
I0601 11:10:21.319032 28711 net.cpp:100] Creating Layer fc7_mbox_conf_flat
I0601 11:10:21.319038 28711 net.cpp:434] fc7_mbox_conf_flat <- fc7_mbox_conf_perm
I0601 11:10:21.319046 28711 net.cpp:408] fc7_mbox_conf_flat -> fc7_mbox_conf_flat
I0601 11:10:21.319072 28711 net.cpp:150] Setting up fc7_mbox_conf_flat
I0601 11:10:21.319079 28711 net.cpp:157] Top shape: 4 8664 (34656)
I0601 11:10:21.319084 28711 net.cpp:165] Memory required for data: 991673120
I0601 11:10:21.319087 28711 layer_factory.hpp:77] Creating layer fc7_mbox_priorbox
I0601 11:10:21.319095 28711 net.cpp:100] Creating Layer fc7_mbox_priorbox
I0601 11:10:21.319099 28711 net.cpp:434] fc7_mbox_priorbox <- fc7_relu7_0_split_3
I0601 11:10:21.319103 28711 net.cpp:434] fc7_mbox_priorbox <- data_data_0_split_2
I0601 11:10:21.319108 28711 net.cpp:408] fc7_mbox_priorbox -> fc7_mbox_priorbox
I0601 11:10:21.319128 28711 net.cpp:150] Setting up fc7_mbox_priorbox
I0601 11:10:21.319133 28711 net.cpp:157] Top shape: 1 2 8664 (17328)
I0601 11:10:21.319135 28711 net.cpp:165] Memory required for data: 991742432
I0601 11:10:21.319138 28711 layer_factory.hpp:77] Creating layer conv6_2_mbox_loc
I0601 11:10:21.319145 28711 net.cpp:100] Creating Layer conv6_2_mbox_loc
I0601 11:10:21.319150 28711 net.cpp:434] conv6_2_mbox_loc <- conv6_2_conv6_2_relu_0_split_1
I0601 11:10:21.319159 28711 net.cpp:408] conv6_2_mbox_loc -> conv6_2_mbox_loc
I0601 11:10:21.320235 28711 net.cpp:150] Setting up conv6_2_mbox_loc
I0601 11:10:21.320245 28711 net.cpp:157] Top shape: 4 24 10 10 (9600)
I0601 11:10:21.320247 28711 net.cpp:165] Memory required for data: 991780832
I0601 11:10:21.320255 28711 layer_factory.hpp:77] Creating layer conv6_2_mbox_loc_perm
I0601 11:10:21.320273 28711 net.cpp:100] Creating Layer conv6_2_mbox_loc_perm
I0601 11:10:21.320279 28711 net.cpp:434] conv6_2_mbox_loc_perm <- conv6_2_mbox_loc
I0601 11:10:21.320288 28711 net.cpp:408] conv6_2_mbox_loc_perm -> conv6_2_mbox_loc_perm
I0601 11:10:21.320405 28711 net.cpp:150] Setting up conv6_2_mbox_loc_perm
I0601 11:10:21.320415 28711 net.cpp:157] Top shape: 4 10 10 24 (9600)
I0601 11:10:21.320420 28711 net.cpp:165] Memory required for data: 991819232
I0601 11:10:21.320425 28711 layer_factory.hpp:77] Creating layer conv6_2_mbox_loc_flat
I0601 11:10:21.320432 28711 net.cpp:100] Creating Layer conv6_2_mbox_loc_flat
I0601 11:10:21.320437 28711 net.cpp:434] conv6_2_mbox_loc_flat <- conv6_2_mbox_loc_perm
I0601 11:10:21.320446 28711 net.cpp:408] conv6_2_mbox_loc_flat -> conv6_2_mbox_loc_flat
I0601 11:10:21.320471 28711 net.cpp:150] Setting up conv6_2_mbox_loc_flat
I0601 11:10:21.320478 28711 net.cpp:157] Top shape: 4 2400 (9600)
I0601 11:10:21.320483 28711 net.cpp:165] Memory required for data: 991857632
I0601 11:10:21.320487 28711 layer_factory.hpp:77] Creating layer conv6_2_mbox_conf
I0601 11:10:21.320497 28711 net.cpp:100] Creating Layer conv6_2_mbox_conf
I0601 11:10:21.320504 28711 net.cpp:434] conv6_2_mbox_conf <- conv6_2_conv6_2_relu_0_split_2
I0601 11:10:21.320511 28711 net.cpp:408] conv6_2_mbox_conf -> conv6_2_mbox_conf
I0601 11:10:21.321430 28711 net.cpp:150] Setting up conv6_2_mbox_conf
I0601 11:10:21.321440 28711 net.cpp:157] Top shape: 4 24 10 10 (9600)
I0601 11:10:21.321444 28711 net.cpp:165] Memory required for data: 991896032
I0601 11:10:21.321449 28711 layer_factory.hpp:77] Creating layer conv6_2_mbox_conf_perm
I0601 11:10:21.321457 28711 net.cpp:100] Creating Layer conv6_2_mbox_conf_perm
I0601 11:10:21.321461 28711 net.cpp:434] conv6_2_mbox_conf_perm <- conv6_2_mbox_conf
I0601 11:10:21.321468 28711 net.cpp:408] conv6_2_mbox_conf_perm -> conv6_2_mbox_conf_perm
I0601 11:10:21.321584 28711 net.cpp:150] Setting up conv6_2_mbox_conf_perm
I0601 11:10:21.321594 28711 net.cpp:157] Top shape: 4 10 10 24 (9600)
I0601 11:10:21.321599 28711 net.cpp:165] Memory required for data: 991934432
I0601 11:10:21.321602 28711 layer_factory.hpp:77] Creating layer conv6_2_mbox_conf_flat
I0601 11:10:21.321609 28711 net.cpp:100] Creating Layer conv6_2_mbox_conf_flat
I0601 11:10:21.321614 28711 net.cpp:434] conv6_2_mbox_conf_flat <- conv6_2_mbox_conf_perm
I0601 11:10:21.321620 28711 net.cpp:408] conv6_2_mbox_conf_flat -> conv6_2_mbox_conf_flat
I0601 11:10:21.321647 28711 net.cpp:150] Setting up conv6_2_mbox_conf_flat
I0601 11:10:21.321655 28711 net.cpp:157] Top shape: 4 2400 (9600)
I0601 11:10:21.321660 28711 net.cpp:165] Memory required for data: 991972832
I0601 11:10:21.321662 28711 layer_factory.hpp:77] Creating layer conv6_2_mbox_priorbox
I0601 11:10:21.321671 28711 net.cpp:100] Creating Layer conv6_2_mbox_priorbox
I0601 11:10:21.321676 28711 net.cpp:434] conv6_2_mbox_priorbox <- conv6_2_conv6_2_relu_0_split_3
I0601 11:10:21.321681 28711 net.cpp:434] conv6_2_mbox_priorbox <- data_data_0_split_3
I0601 11:10:21.321691 28711 net.cpp:408] conv6_2_mbox_priorbox -> conv6_2_mbox_priorbox
I0601 11:10:21.321722 28711 net.cpp:150] Setting up conv6_2_mbox_priorbox
I0601 11:10:21.321732 28711 net.cpp:157] Top shape: 1 2 2400 (4800)
I0601 11:10:21.321734 28711 net.cpp:165] Memory required for data: 991992032
I0601 11:10:21.321738 28711 layer_factory.hpp:77] Creating layer conv7_2_mbox_loc
I0601 11:10:21.321748 28711 net.cpp:100] Creating Layer conv7_2_mbox_loc
I0601 11:10:21.321755 28711 net.cpp:434] conv7_2_mbox_loc <- conv7_2_conv7_2_relu_0_split_1
I0601 11:10:21.321763 28711 net.cpp:408] conv7_2_mbox_loc -> conv7_2_mbox_loc
I0601 11:10:21.322356 28711 net.cpp:150] Setting up conv7_2_mbox_loc
I0601 11:10:21.322365 28711 net.cpp:157] Top shape: 4 24 5 5 (2400)
I0601 11:10:21.322368 28711 net.cpp:165] Memory required for data: 992001632
I0601 11:10:21.322372 28711 layer_factory.hpp:77] Creating layer conv7_2_mbox_loc_perm
I0601 11:10:21.322378 28711 net.cpp:100] Creating Layer conv7_2_mbox_loc_perm
I0601 11:10:21.322382 28711 net.cpp:434] conv7_2_mbox_loc_perm <- conv7_2_mbox_loc
I0601 11:10:21.322402 28711 net.cpp:408] conv7_2_mbox_loc_perm -> conv7_2_mbox_loc_perm
I0601 11:10:21.322513 28711 net.cpp:150] Setting up conv7_2_mbox_loc_perm
I0601 11:10:21.322523 28711 net.cpp:157] Top shape: 4 5 5 24 (2400)
I0601 11:10:21.322527 28711 net.cpp:165] Memory required for data: 992011232
I0601 11:10:21.322532 28711 layer_factory.hpp:77] Creating layer conv7_2_mbox_loc_flat
I0601 11:10:21.322540 28711 net.cpp:100] Creating Layer conv7_2_mbox_loc_flat
I0601 11:10:21.322544 28711 net.cpp:434] conv7_2_mbox_loc_flat <- conv7_2_mbox_loc_perm
I0601 11:10:21.322551 28711 net.cpp:408] conv7_2_mbox_loc_flat -> conv7_2_mbox_loc_flat
I0601 11:10:21.322577 28711 net.cpp:150] Setting up conv7_2_mbox_loc_flat
I0601 11:10:21.322584 28711 net.cpp:157] Top shape: 4 600 (2400)
I0601 11:10:21.322587 28711 net.cpp:165] Memory required for data: 992020832
I0601 11:10:21.322590 28711 layer_factory.hpp:77] Creating layer conv7_2_mbox_conf
I0601 11:10:21.322600 28711 net.cpp:100] Creating Layer conv7_2_mbox_conf
I0601 11:10:21.322607 28711 net.cpp:434] conv7_2_mbox_conf <- conv7_2_conv7_2_relu_0_split_2
I0601 11:10:21.322614 28711 net.cpp:408] conv7_2_mbox_conf -> conv7_2_mbox_conf
I0601 11:10:21.323251 28711 net.cpp:150] Setting up conv7_2_mbox_conf
I0601 11:10:21.323262 28711 net.cpp:157] Top shape: 4 24 5 5 (2400)
I0601 11:10:21.323266 28711 net.cpp:165] Memory required for data: 992030432
I0601 11:10:21.323273 28711 layer_factory.hpp:77] Creating layer conv7_2_mbox_conf_perm
I0601 11:10:21.323279 28711 net.cpp:100] Creating Layer conv7_2_mbox_conf_perm
I0601 11:10:21.323282 28711 net.cpp:434] conv7_2_mbox_conf_perm <- conv7_2_mbox_conf
I0601 11:10:21.323289 28711 net.cpp:408] conv7_2_mbox_conf_perm -> conv7_2_mbox_conf_perm
I0601 11:10:21.323395 28711 net.cpp:150] Setting up conv7_2_mbox_conf_perm
I0601 11:10:21.323405 28711 net.cpp:157] Top shape: 4 5 5 24 (2400)
I0601 11:10:21.323408 28711 net.cpp:165] Memory required for data: 992040032
I0601 11:10:21.323413 28711 layer_factory.hpp:77] Creating layer conv7_2_mbox_conf_flat
I0601 11:10:21.323421 28711 net.cpp:100] Creating Layer conv7_2_mbox_conf_flat
I0601 11:10:21.323426 28711 net.cpp:434] conv7_2_mbox_conf_flat <- conv7_2_mbox_conf_perm
I0601 11:10:21.323433 28711 net.cpp:408] conv7_2_mbox_conf_flat -> conv7_2_mbox_conf_flat
I0601 11:10:21.323459 28711 net.cpp:150] Setting up conv7_2_mbox_conf_flat
I0601 11:10:21.323467 28711 net.cpp:157] Top shape: 4 600 (2400)
I0601 11:10:21.323470 28711 net.cpp:165] Memory required for data: 992049632
I0601 11:10:21.323473 28711 layer_factory.hpp:77] Creating layer conv7_2_mbox_priorbox
I0601 11:10:21.323482 28711 net.cpp:100] Creating Layer conv7_2_mbox_priorbox
I0601 11:10:21.323487 28711 net.cpp:434] conv7_2_mbox_priorbox <- conv7_2_conv7_2_relu_0_split_3
I0601 11:10:21.323493 28711 net.cpp:434] conv7_2_mbox_priorbox <- data_data_0_split_4
I0601 11:10:21.323500 28711 net.cpp:408] conv7_2_mbox_priorbox -> conv7_2_mbox_priorbox
I0601 11:10:21.323528 28711 net.cpp:150] Setting up conv7_2_mbox_priorbox
I0601 11:10:21.323534 28711 net.cpp:157] Top shape: 1 2 600 (1200)
I0601 11:10:21.323539 28711 net.cpp:165] Memory required for data: 992054432
I0601 11:10:21.323542 28711 layer_factory.hpp:77] Creating layer conv8_2_mbox_loc
I0601 11:10:21.323554 28711 net.cpp:100] Creating Layer conv8_2_mbox_loc
I0601 11:10:21.323560 28711 net.cpp:434] conv8_2_mbox_loc <- conv8_2_conv8_2_relu_0_split_1
I0601 11:10:21.323568 28711 net.cpp:408] conv8_2_mbox_loc -> conv8_2_mbox_loc
I0601 11:10:21.324097 28711 net.cpp:150] Setting up conv8_2_mbox_loc
I0601 11:10:21.324107 28711 net.cpp:157] Top shape: 4 16 3 3 (576)
I0601 11:10:21.324111 28711 net.cpp:165] Memory required for data: 992056736
I0601 11:10:21.324131 28711 layer_factory.hpp:77] Creating layer conv8_2_mbox_loc_perm
I0601 11:10:21.324141 28711 net.cpp:100] Creating Layer conv8_2_mbox_loc_perm
I0601 11:10:21.324146 28711 net.cpp:434] conv8_2_mbox_loc_perm <- conv8_2_mbox_loc
I0601 11:10:21.324152 28711 net.cpp:408] conv8_2_mbox_loc_perm -> conv8_2_mbox_loc_perm
I0601 11:10:21.324276 28711 net.cpp:150] Setting up conv8_2_mbox_loc_perm
I0601 11:10:21.324286 28711 net.cpp:157] Top shape: 4 3 3 16 (576)
I0601 11:10:21.324290 28711 net.cpp:165] Memory required for data: 992059040
I0601 11:10:21.324293 28711 layer_factory.hpp:77] Creating layer conv8_2_mbox_loc_flat
I0601 11:10:21.324301 28711 net.cpp:100] Creating Layer conv8_2_mbox_loc_flat
I0601 11:10:21.324306 28711 net.cpp:434] conv8_2_mbox_loc_flat <- conv8_2_mbox_loc_perm
I0601 11:10:21.324313 28711 net.cpp:408] conv8_2_mbox_loc_flat -> conv8_2_mbox_loc_flat
I0601 11:10:21.324340 28711 net.cpp:150] Setting up conv8_2_mbox_loc_flat
I0601 11:10:21.324348 28711 net.cpp:157] Top shape: 4 144 (576)
I0601 11:10:21.324352 28711 net.cpp:165] Memory required for data: 992061344
I0601 11:10:21.324357 28711 layer_factory.hpp:77] Creating layer conv8_2_mbox_conf
I0601 11:10:21.324368 28711 net.cpp:100] Creating Layer conv8_2_mbox_conf
I0601 11:10:21.324373 28711 net.cpp:434] conv8_2_mbox_conf <- conv8_2_conv8_2_relu_0_split_2
I0601 11:10:21.324383 28711 net.cpp:408] conv8_2_mbox_conf -> conv8_2_mbox_conf
I0601 11:10:21.324928 28711 net.cpp:150] Setting up conv8_2_mbox_conf
I0601 11:10:21.324940 28711 net.cpp:157] Top shape: 4 16 3 3 (576)
I0601 11:10:21.324946 28711 net.cpp:165] Memory required for data: 992063648
I0601 11:10:21.324954 28711 layer_factory.hpp:77] Creating layer conv8_2_mbox_conf_perm
I0601 11:10:21.324964 28711 net.cpp:100] Creating Layer conv8_2_mbox_conf_perm
I0601 11:10:21.324968 28711 net.cpp:434] conv8_2_mbox_conf_perm <- conv8_2_mbox_conf
I0601 11:10:21.324976 28711 net.cpp:408] conv8_2_mbox_conf_perm -> conv8_2_mbox_conf_perm
I0601 11:10:21.325088 28711 net.cpp:150] Setting up conv8_2_mbox_conf_perm
I0601 11:10:21.325095 28711 net.cpp:157] Top shape: 4 3 3 16 (576)
I0601 11:10:21.325099 28711 net.cpp:165] Memory required for data: 992065952
I0601 11:10:21.325104 28711 layer_factory.hpp:77] Creating layer conv8_2_mbox_conf_flat
I0601 11:10:21.325109 28711 net.cpp:100] Creating Layer conv8_2_mbox_conf_flat
I0601 11:10:21.325114 28711 net.cpp:434] conv8_2_mbox_conf_flat <- conv8_2_mbox_conf_perm
I0601 11:10:21.325122 28711 net.cpp:408] conv8_2_mbox_conf_flat -> conv8_2_mbox_conf_flat
I0601 11:10:21.325150 28711 net.cpp:150] Setting up conv8_2_mbox_conf_flat
I0601 11:10:21.325157 28711 net.cpp:157] Top shape: 4 144 (576)
I0601 11:10:21.325161 28711 net.cpp:165] Memory required for data: 992068256
I0601 11:10:21.325165 28711 layer_factory.hpp:77] Creating layer conv8_2_mbox_priorbox
I0601 11:10:21.325172 28711 net.cpp:100] Creating Layer conv8_2_mbox_priorbox
I0601 11:10:21.325177 28711 net.cpp:434] conv8_2_mbox_priorbox <- conv8_2_conv8_2_relu_0_split_3
I0601 11:10:21.325182 28711 net.cpp:434] conv8_2_mbox_priorbox <- data_data_0_split_5
I0601 11:10:21.325193 28711 net.cpp:408] conv8_2_mbox_priorbox -> conv8_2_mbox_priorbox
I0601 11:10:21.325223 28711 net.cpp:150] Setting up conv8_2_mbox_priorbox
I0601 11:10:21.325230 28711 net.cpp:157] Top shape: 1 2 144 (288)
I0601 11:10:21.325234 28711 net.cpp:165] Memory required for data: 992069408
I0601 11:10:21.325238 28711 layer_factory.hpp:77] Creating layer conv9_2_mbox_loc
I0601 11:10:21.325248 28711 net.cpp:100] Creating Layer conv9_2_mbox_loc
I0601 11:10:21.325254 28711 net.cpp:434] conv9_2_mbox_loc <- conv9_2_conv9_2_relu_0_split_0
I0601 11:10:21.325264 28711 net.cpp:408] conv9_2_mbox_loc -> conv9_2_mbox_loc
I0601 11:10:21.325758 28711 net.cpp:150] Setting up conv9_2_mbox_loc
I0601 11:10:21.325767 28711 net.cpp:157] Top shape: 4 16 1 1 (64)
I0601 11:10:21.325769 28711 net.cpp:165] Memory required for data: 992069664
I0601 11:10:21.325775 28711 layer_factory.hpp:77] Creating layer conv9_2_mbox_loc_perm
I0601 11:10:21.325784 28711 net.cpp:100] Creating Layer conv9_2_mbox_loc_perm
I0601 11:10:21.325790 28711 net.cpp:434] conv9_2_mbox_loc_perm <- conv9_2_mbox_loc
I0601 11:10:21.325796 28711 net.cpp:408] conv9_2_mbox_loc_perm -> conv9_2_mbox_loc_perm
I0601 11:10:21.325907 28711 net.cpp:150] Setting up conv9_2_mbox_loc_perm
I0601 11:10:21.325917 28711 net.cpp:157] Top shape: 4 1 1 16 (64)
I0601 11:10:21.325932 28711 net.cpp:165] Memory required for data: 992069920
I0601 11:10:21.325937 28711 layer_factory.hpp:77] Creating layer conv9_2_mbox_loc_flat
I0601 11:10:21.325944 28711 net.cpp:100] Creating Layer conv9_2_mbox_loc_flat
I0601 11:10:21.325950 28711 net.cpp:434] conv9_2_mbox_loc_flat <- conv9_2_mbox_loc_perm
I0601 11:10:21.325958 28711 net.cpp:408] conv9_2_mbox_loc_flat -> conv9_2_mbox_loc_flat
I0601 11:10:21.325984 28711 net.cpp:150] Setting up conv9_2_mbox_loc_flat
I0601 11:10:21.325991 28711 net.cpp:157] Top shape: 4 16 (64)
I0601 11:10:21.325995 28711 net.cpp:165] Memory required for data: 992070176
I0601 11:10:21.325999 28711 layer_factory.hpp:77] Creating layer conv9_2_mbox_conf
I0601 11:10:21.326010 28711 net.cpp:100] Creating Layer conv9_2_mbox_conf
I0601 11:10:21.326017 28711 net.cpp:434] conv9_2_mbox_conf <- conv9_2_conv9_2_relu_0_split_1
I0601 11:10:21.326025 28711 net.cpp:408] conv9_2_mbox_conf -> conv9_2_mbox_conf
I0601 11:10:21.326510 28711 net.cpp:150] Setting up conv9_2_mbox_conf
I0601 11:10:21.326521 28711 net.cpp:157] Top shape: 4 16 1 1 (64)
I0601 11:10:21.326524 28711 net.cpp:165] Memory required for data: 992070432
I0601 11:10:21.326530 28711 layer_factory.hpp:77] Creating layer conv9_2_mbox_conf_perm
I0601 11:10:21.326536 28711 net.cpp:100] Creating Layer conv9_2_mbox_conf_perm
I0601 11:10:21.326541 28711 net.cpp:434] conv9_2_mbox_conf_perm <- conv9_2_mbox_conf
I0601 11:10:21.326547 28711 net.cpp:408] conv9_2_mbox_conf_perm -> conv9_2_mbox_conf_perm
I0601 11:10:21.326655 28711 net.cpp:150] Setting up conv9_2_mbox_conf_perm
I0601 11:10:21.326664 28711 net.cpp:157] Top shape: 4 1 1 16 (64)
I0601 11:10:21.326669 28711 net.cpp:165] Memory required for data: 992070688
I0601 11:10:21.326673 28711 layer_factory.hpp:77] Creating layer conv9_2_mbox_conf_flat
I0601 11:10:21.326681 28711 net.cpp:100] Creating Layer conv9_2_mbox_conf_flat
I0601 11:10:21.326686 28711 net.cpp:434] conv9_2_mbox_conf_flat <- conv9_2_mbox_conf_perm
I0601 11:10:21.326694 28711 net.cpp:408] conv9_2_mbox_conf_flat -> conv9_2_mbox_conf_flat
I0601 11:10:21.326719 28711 net.cpp:150] Setting up conv9_2_mbox_conf_flat
I0601 11:10:21.326725 28711 net.cpp:157] Top shape: 4 16 (64)
I0601 11:10:21.326730 28711 net.cpp:165] Memory required for data: 992070944
I0601 11:10:21.326732 28711 layer_factory.hpp:77] Creating layer conv9_2_mbox_priorbox
I0601 11:10:21.326741 28711 net.cpp:100] Creating Layer conv9_2_mbox_priorbox
I0601 11:10:21.326746 28711 net.cpp:434] conv9_2_mbox_priorbox <- conv9_2_conv9_2_relu_0_split_2
I0601 11:10:21.326752 28711 net.cpp:434] conv9_2_mbox_priorbox <- data_data_0_split_6
I0601 11:10:21.326761 28711 net.cpp:408] conv9_2_mbox_priorbox -> conv9_2_mbox_priorbox
I0601 11:10:21.326786 28711 net.cpp:150] Setting up conv9_2_mbox_priorbox
I0601 11:10:21.326793 28711 net.cpp:157] Top shape: 1 2 16 (32)
I0601 11:10:21.326797 28711 net.cpp:165] Memory required for data: 992071072
I0601 11:10:21.326802 28711 layer_factory.hpp:77] Creating layer mbox_loc
I0601 11:10:21.326812 28711 net.cpp:100] Creating Layer mbox_loc
I0601 11:10:21.326817 28711 net.cpp:434] mbox_loc <- conv4_3_norm_mbox_loc_flat
I0601 11:10:21.326823 28711 net.cpp:434] mbox_loc <- fc7_mbox_loc_flat
I0601 11:10:21.326830 28711 net.cpp:434] mbox_loc <- conv6_2_mbox_loc_flat
I0601 11:10:21.326835 28711 net.cpp:434] mbox_loc <- conv7_2_mbox_loc_flat
I0601 11:10:21.326841 28711 net.cpp:434] mbox_loc <- conv8_2_mbox_loc_flat
I0601 11:10:21.326845 28711 net.cpp:434] mbox_loc <- conv9_2_mbox_loc_flat
I0601 11:10:21.326854 28711 net.cpp:408] mbox_loc -> mbox_loc
I0601 11:10:21.326880 28711 net.cpp:150] Setting up mbox_loc
I0601 11:10:21.326887 28711 net.cpp:157] Top shape: 4 34928 (139712)
I0601 11:10:21.326891 28711 net.cpp:165] Memory required for data: 992629920
I0601 11:10:21.326896 28711 layer_factory.hpp:77] Creating layer mbox_conf
I0601 11:10:21.326901 28711 net.cpp:100] Creating Layer mbox_conf
I0601 11:10:21.326906 28711 net.cpp:434] mbox_conf <- conv4_3_norm_mbox_conf_flat
I0601 11:10:21.326913 28711 net.cpp:434] mbox_conf <- fc7_mbox_conf_flat
I0601 11:10:21.326927 28711 net.cpp:434] mbox_conf <- conv6_2_mbox_conf_flat
I0601 11:10:21.326933 28711 net.cpp:434] mbox_conf <- conv7_2_mbox_conf_flat
I0601 11:10:21.326938 28711 net.cpp:434] mbox_conf <- conv8_2_mbox_conf_flat
I0601 11:10:21.326943 28711 net.cpp:434] mbox_conf <- conv9_2_mbox_conf_flat
I0601 11:10:21.326949 28711 net.cpp:408] mbox_conf -> mbox_conf
I0601 11:10:21.326975 28711 net.cpp:150] Setting up mbox_conf
I0601 11:10:21.326982 28711 net.cpp:157] Top shape: 4 34928 (139712)
I0601 11:10:21.326987 28711 net.cpp:165] Memory required for data: 993188768
I0601 11:10:21.326989 28711 layer_factory.hpp:77] Creating layer mbox_priorbox
I0601 11:10:21.326995 28711 net.cpp:100] Creating Layer mbox_priorbox
I0601 11:10:21.327000 28711 net.cpp:434] mbox_priorbox <- conv4_3_norm_mbox_priorbox
I0601 11:10:21.327005 28711 net.cpp:434] mbox_priorbox <- fc7_mbox_priorbox
I0601 11:10:21.327011 28711 net.cpp:434] mbox_priorbox <- conv6_2_mbox_priorbox
I0601 11:10:21.327015 28711 net.cpp:434] mbox_priorbox <- conv7_2_mbox_priorbox
I0601 11:10:21.327020 28711 net.cpp:434] mbox_priorbox <- conv8_2_mbox_priorbox
I0601 11:10:21.327025 28711 net.cpp:434] mbox_priorbox <- conv9_2_mbox_priorbox
I0601 11:10:21.327034 28711 net.cpp:408] mbox_priorbox -> mbox_priorbox
I0601 11:10:21.327059 28711 net.cpp:150] Setting up mbox_priorbox
I0601 11:10:21.327065 28711 net.cpp:157] Top shape: 1 2 34928 (69856)
I0601 11:10:21.327070 28711 net.cpp:165] Memory required for data: 993468192
I0601 11:10:21.327074 28711 layer_factory.hpp:77] Creating layer mbox_conf_reshape
I0601 11:10:21.327080 28711 net.cpp:100] Creating Layer mbox_conf_reshape
I0601 11:10:21.327085 28711 net.cpp:434] mbox_conf_reshape <- mbox_conf
I0601 11:10:21.327091 28711 net.cpp:408] mbox_conf_reshape -> mbox_conf_reshape
I0601 11:10:21.327126 28711 net.cpp:150] Setting up mbox_conf_reshape
I0601 11:10:21.327132 28711 net.cpp:157] Top shape: 4 8732 4 (139712)
I0601 11:10:21.327137 28711 net.cpp:165] Memory required for data: 994027040
I0601 11:10:21.327142 28711 layer_factory.hpp:77] Creating layer mbox_conf_softmax
I0601 11:10:21.327148 28711 net.cpp:100] Creating Layer mbox_conf_softmax
I0601 11:10:21.327153 28711 net.cpp:434] mbox_conf_softmax <- mbox_conf_reshape
I0601 11:10:21.327159 28711 net.cpp:408] mbox_conf_softmax -> mbox_conf_softmax
I0601 11:10:21.327226 28711 net.cpp:150] Setting up mbox_conf_softmax
I0601 11:10:21.327234 28711 net.cpp:157] Top shape: 4 8732 4 (139712)
I0601 11:10:21.327239 28711 net.cpp:165] Memory required for data: 994585888
I0601 11:10:21.327242 28711 layer_factory.hpp:77] Creating layer mbox_conf_flatten
I0601 11:10:21.327247 28711 net.cpp:100] Creating Layer mbox_conf_flatten
I0601 11:10:21.327251 28711 net.cpp:434] mbox_conf_flatten <- mbox_conf_softmax
I0601 11:10:21.327261 28711 net.cpp:408] mbox_conf_flatten -> mbox_conf_flatten
I0601 11:10:21.327286 28711 net.cpp:150] Setting up mbox_conf_flatten
I0601 11:10:21.327294 28711 net.cpp:157] Top shape: 4 34928 (139712)
I0601 11:10:21.327299 28711 net.cpp:165] Memory required for data: 995144736
I0601 11:10:21.327302 28711 layer_factory.hpp:77] Creating layer detection_out
I0601 11:10:21.327316 28711 net.cpp:100] Creating Layer detection_out
I0601 11:10:21.327322 28711 net.cpp:434] detection_out <- mbox_loc
I0601 11:10:21.327327 28711 net.cpp:434] detection_out <- mbox_conf_flatten
I0601 11:10:21.327332 28711 net.cpp:434] detection_out <- mbox_priorbox
I0601 11:10:21.327338 28711 net.cpp:408] detection_out -> detection_out
I0601 11:10:21.329011 28711 net.cpp:150] Setting up detection_out
I0601 11:10:21.329022 28711 net.cpp:157] Top shape: 1 1 1 7 (7)
I0601 11:10:21.329025 28711 net.cpp:165] Memory required for data: 995144764
I0601 11:10:21.329027 28711 layer_factory.hpp:77] Creating layer detection_eval
I0601 11:10:21.329035 28711 net.cpp:100] Creating Layer detection_eval
I0601 11:10:21.329041 28711 net.cpp:434] detection_eval <- detection_out
I0601 11:10:21.329046 28711 net.cpp:434] detection_eval <- label
I0601 11:10:21.329053 28711 net.cpp:408] detection_eval -> detection_eval
I0601 11:10:21.330200 28711 net.cpp:150] Setting up detection_eval
I0601 11:10:21.330209 28711 net.cpp:157] Top shape: 1 1 4 5 (20)
I0601 11:10:21.330211 28711 net.cpp:165] Memory required for data: 995144844
I0601 11:10:21.330214 28711 net.cpp:228] detection_eval does not need backward computation.
I0601 11:10:21.330219 28711 net.cpp:228] detection_out does not need backward computation.
I0601 11:10:21.330225 28711 net.cpp:228] mbox_conf_flatten does not need backward computation.
I0601 11:10:21.330230 28711 net.cpp:228] mbox_conf_softmax does not need backward computation.
…
