…
        min_scale: 0.3
        max_scale: 1
        min_aspect_ratio: 0.5
        max_aspect_ratio: 2
      }
      sample_constraint {
        min_jaccard_overlap: 0.9
      }
      max_sample: 1
      max_trials: 50
    }
    batch_sampler {
      sampler {
        min_scale: 0.3
        max_scale: 1
        min_aspect_ratio: 0.5
        max_aspect_ratio: 2
      }
      sample_constraint {
        max_jaccard_overlap: 1
      }
      max_sample: 1
      max_trials: 50
    }
    label_map_file: "data/tbs_300x300_HSIL_10x/labelmap_tbs.prototxt"
  }
}
layer {
  name: "conv1_1"
  type: "Convolution"
  bottom: "data"
  top: "conv1_1"
  param {
    lr_mult: 1
    decay_mult: 1
  }
  param {
    lr_mult: 2
    decay_mult: 0
  }
  convolution_param {
    num_output: 64
    pad: 1
    kernel_size: 3
    weight_filler {
      type: "xavier"
    }
    bias_filler {
      type: "constant"
      value: 0
    }
  }
}
layer {
  name: "relu1_1"
  type: "ReLU"
  bottom: "conv1_1"
  top: "conv1_1"
}
layer {
  name: "conv1_2"
  type: "Convolution"
  bottom: "conv1_1"
  top: "conv1_2"
  param {
    lr_mult: 1
    decay_mult: 1
  }
  param {
    lr_mult: 2
    decay_mult: 0
  }
  convolution_param {
    num_output: 64
    pad: 1
    kernel_size: 3
    weight_filler {
      type: "xavier"
    }
    bias_filler {
      type: "constant"
      value: 0
    }
  }
}
layer {
  name: "relu1_2"
  type: "ReLU"
  bottom: "conv1_2"
  top: "conv1_2"
}
layer {
  name: "pool1"
  type: "Pooling"
  bottom: "conv1_2"
  top: "pool1"
  pooling_param {
    pool: MAX
    kernel_size: 2
    stride: 2
  }
}
layer {
  name: "conv2_1"
  type: "Convolution"
  bottom: "pool1"
  top: "conv2_1"
  param {
    lr_mult: 1
    decay_mult: 1
  }
  param {
    lr_mult: 2
    decay_mult: 0
  }
  convolution_param {
    num_output: 128
    pad: 1
    kernel_size: 3
    weight_filler {
      type: "xavier"
    }
    bias_filler {
      type: "constant"
      value: 0
    }
  }
}
layer {
  name: "relu2_1"
  type: "ReLU"
  bottom: "conv2_1"
  top: "conv2_1"
}
layer {
  name: "conv2_2"
  type: "Convolution"
  bottom: "conv2_1"
  top: "conv2_2"
  param {
    lr_mult: 1
    decay_mult: 1
  }
  param {
    lr_mult: 2
    decay_mult: 0
  }
  convolution_param {
    num_output: 128
    pad: 1
    kernel_size: 3
    weight_filler {
      type: "xavier"
    }
    bias_filler {
      type: "constant"
      value: 0
    }
  }
}
layer {
  name: "relu2_2"
  type: "ReLU"
  bottom: "conv2_2"
  top: "conv2_2"
}
layer {
  name: "pool2"
  type: "Pooling"
  bottom: "conv2_2"
  top: "pool2"
  pooling_param {
    pool: MAX
    kernel_size: 2
    stride: 2
  }
}
layer {
  name: "conv3_1"
  type: "Convolution"
  bottom: "pool2"
  top: "conv3_1"
  param {
    lr_mult: 1
    decay_mult: 1
  }
  param {
    lr_mult: 2
    decay_mult: 0
  }
  convolution_param {
    num_output: 256
    pad: 1
    kernel_size: 3
    weight_filler {
      type: "xavier"
    }
    bias_filler {
      type: "constant"
      value: 0
    }
  }
}
layer {
  name: "relu3_1"
  type: "ReLU"
  bottom: "conv3_1"
  top: "conv3_1"
}
layer {
  name: "conv3_2"
  type: "Convolution"
  bottom: "conv3_1"
  top: "conv3_2"
  param {
    lr_mult: 1
    decay_mult: 1
  }
  param {
    lr_mult: 2
    decay_mult: 0
  }
  convolution_param {
    num_output: 256
    pad: 1
    kernel_size: 3
    weight_filler {
      type: "xavier"
    }
    bias_filler {
      type: "constant"
      value: 0
    }
  }
}
layer {
  name: "relu3_2"
  type: "ReLU"
  bottom: "conv3_2"
  top: "conv3_2"
}
layer {
  name: "conv3_3"
  type: "Convolution"
  bottom: "conv3_2"
  top: "conv3_3"
  param {
    lr_mult: 1
    decay_mult: 1
  }
  param {
    lr_mult: 2
    decay_mult: 0
  }
  convolution_param {
    num_output: 256
    pad: 1
    kernel_size: 3
    weight_filler {
      type: "xavier"
    }
    bias_filler {
      type: "constant"
      value: 0
    }
  }
}
layer {
  name: "relu3_3"
  type: "ReLU"
  bottom: "conv3_3"
  top: "conv3_3"
}
layer {
  name: "pool3"
  type: "Pooling"
  bottom: "conv3_3"
  top: "pool3"
  pooling_param {
    pool: MAX
    kernel_size: 2
    stride: 2
  }
}
layer {
  name: "conv4_1"
  type: "Convolution"
  bottom: "pool3"
  top: "conv4_1"
  param {
    lr_mult: 1
    decay_mult: 1
  }
  param {
    lr_mult: 2
    decay_mult: 0
  }
  convolution_param {
    num_output: 512
    pad: 1
    kernel_size: 3
    weight_filler {
      type: "xavier"
    }
    bias_filler {
      type: "constant"
      value: 0
    }
  }
}
layer {
  name: "relu4_1"
  type: "ReLU"
  bottom: "conv4_1"
  top: "conv4_1"
}
layer {
  name: "conv4_2"
  type: "Convolution"
  bottom: "conv4_1"
  top: "conv4_2"
  param {
    lr_mult: 1
    decay_mult: 1
  }
  param {
    lr_mult: 2
    decay_mult: 0
  }
  convolution_param {
    num_output: 512
    pad: 1
    kernel_size: 3
    weight_filler {
      type: "xavier"
    }
    bias_filler {
      type: "constant"
      value: 0
    }
  }
}
layer {
  name: "relu4_2"
  type: "ReLU"
  bottom: "conv4_2"
  top: "conv4_2"
}
layer {
  name: "conv4_3"
  type: "Convolution"
  bottom: "conv4_2"
  top: "conv4_3"
  param {
    lr_mult: 1
    decay_mult: 1
  }
  param {
    lr_mult: 2
    decay_mult: 0
  }
  convolution_param {
    num_output: 512
    pad: 1
    kernel_size: 3
    weight_filler {
      type: "xavier"
    }
    bias_filler {
      type: "constant"
      value: 0
    }
  }
}
layer {
  name: "relu4_3"
  type: "ReLU"
  bottom: "conv4_3"
  top: "conv4_3"
}
layer {
  name: "pool4"
  type: "Pooling"
  bottom: "conv4_3"
  top: "pool4"
  pooling_param {
    pool: MAX
    kernel_size: 2
    stride: 2
  }
}
layer {
  name: "conv5_1"
  type: "Convolution"
  bottom: "pool4"
  top: "conv5_1"
  param {
    lr_mult: 1
    decay_mult: 1
  }
  param {
    lr_mult: 2
    decay_mult: 0
  }
  convolution_param {
    num_output: 512
    pad: 1
    kernel_size: 3
    weight_filler {
      type: "xavier"
    }
    bias_filler {
      type: "constant"
      value: 0
    }
    dilation: 1
  }
}
layer {
  name: "relu5_1"
  type: "ReLU"
  bottom: "conv5_1"
  top: "conv5_1"
}
layer {
  name: "conv5_2"
  type: "Convolution"
  bottom: "conv5_1"
  top: "conv5_2"
  param {
    lr_mult: 1
    decay_mult: 1
  }
  param {
    lr_mult: 2
    decay_mult: 0
  }
  convolution_param {
    num_output: 512
    pad: 1
    kernel_size: 3
    weight_filler {
      type: "xavier"
    }
    bias_filler {
      type: "constant"
      value: 0
    }
    dilation: 1
  }
}
layer {
  name: "relu5_2"
  type: "ReLU"
  bottom: "conv5_2"
  top: "conv5_2"
}
layer {
  name: "conv5_3"
  type: "Convolution"
  bottom: "conv5_2"
  top: "conv5_3"
  param {
    lr_mult: 1
    decay_mult: 1
  }
  param {
    lr_mult: 2
    decay_mult: 0
  }
  convolution_param {
    num_output: 512
    pad: 1
    kernel_size: 3
    weight_filler {
      type: "xavier"
    }
    bias_filler {
      type: "constant"
      value: 0
    }
    dilation: 1
  }
}
layer {
  name: "relu5_3"
  type: "ReLU"
  bottom: "conv5_3"
  top: "conv5_3"
}
layer {
  name: "pool5"
  type: "Pooling"
  bottom: "conv5_3"
  top: "pool5"
  pooling_param {
    pool: MAX
    kernel_size: 3
    stride: 1
    pad: 1
  }
}
layer {
  name: "fc6"
  type: "Convolution"
  bottom: "pool5"
  top: "fc6"
  param {
    lr_mult: 1
    decay_mult: 1
  }
  param {
    lr_mult: 2
    decay_mult: 0
  }
  convolution_param {
    num_output: 1024
    pad: 6
    kernel_size: 3
    weight_filler {
      type: "xavier"
    }
    bias_filler {
      type: "constant"
      value: 0
    }
    dilation: 6
  }
}
layer {
  name: "relu6"
  type: "ReLU"
  bottom: "fc6"
  top: "fc6"
}
layer {
  name: "fc7"
  type: "Convolution"
  bottom: "fc6"
  top: "fc7"
  param {
    lr_mult: 1
    decay_mult: 1
  }
  param {
    lr_mult: 2
    decay_mult: 0
  }
  convolution_param {
    num_output: 1024
    kernel_size: 1
    weight_filler {
      type: "xavier"
    }
    bias_filler {
      type: "constant"
      value: 0
    }
  }
}
layer {
  name: "relu7"
  type: "ReLU"
  bottom: "fc7"
  top: "fc7"
}
layer {
  name: "conv6_1"
  type: "Convolution"
  bottom: "fc7"
  top: "conv6_1"
  param {
    lr_mult: 1
    decay_mult: 1
  }
  param {
    lr_mult: 2
    decay_mult: 0
  }
  convolution_param {
    num_output: 256
    pad: 0
    kernel_size: 1
    stride: 1
    weight_filler {
      type: "xavier"
    }
    bias_filler {
      type: "constant"
      value: 0
    }
  }
}
layer {
  name: "conv6_1_relu"
  type: "ReLU"
  bottom: "conv6_1"
  top: "conv6_1"
}
layer {
  name: "conv6_2"
  type: "Convolution"
  bottom: "conv6_1"
  top: "conv6_2"
  param {
    lr_mult: 1
    decay_mult: 1
  }
  param {
    lr_mult: 2
    decay_mult: 0
  }
  convolution_param {
    num_output: 512
    pad: 1
    kernel_size: 3
    stride: 2
    weight_filler {
      type: "xavier"
    }
    bias_filler {
      type: "constant"
      value: 0
    }
  }
}
layer {
  name: "conv6_2_relu"
  type: "ReLU"
  bottom: "conv6_2"
  top: "conv6_2"
}
layer {
  name: "conv7_1"
  type: "Convolution"
  bottom: "conv6_2"
  top: "conv7_1"
  param {
    lr_mult: 1
    decay_mult: 1
  }
  param {
    lr_mult: 2
    decay_mult: 0
  }
  convolution_param {
    num_output: 128
    pad: 0
    kernel_size: 1
    stride: 1
    weight_filler {
      type: "xavier"
    }
    bias_filler {
      type: "constant"
      value: 0
    }
  }
}
layer {
  name: "conv7_1_relu"
  type: "ReLU"
  bottom: "conv7_1"
  top: "conv7_1"
}
layer {
  name: "conv7_2"
  type: "Convolution"
  bottom: "conv7_1"
  top: "conv7_2"
  param {
    lr_mult: 1
    decay_mult: 1
  }
  param {
    lr_mult: 2
    decay_mult: 0
  }
  convolution_param {
    num_output: 256
    pad: 1
    kernel_size: 3
    stride: 2
    weight_filler {
      type: "xavier"
    }
    bias_filler {
      type: "constant"
      value: 0
    }
  }
}
layer {
  name: "conv7_2_relu"
  type: "ReLU"
  bottom: "conv7_2"
  top: "conv7_2"
}
layer {
  name: "conv8_1"
  type: "Convolution"
  bottom: "conv7_2"
  top: "conv8_1"
  param {
    lr_mult: 1
    decay_mult: 1
  }
  param {
    lr_mult: 2
    decay_mult: 0
  }
  convolution_param {
    num_output: 128
    pad: 0
    kernel_size: 1
    stride: 1
    weight_filler {
      type: "xavier"
    }
    bias_filler {
      type: "constant"
      value: 0
    }
  }
}
layer {
  name: "conv8_1_relu"
  type: "ReLU"
  bottom: "conv8_1"
  top: "conv8_1"
}
layer {
  name: "conv8_2"
  type: "Convolution"
  bottom: "conv8_1"
  top: "conv8_2"
  param {
    lr_mult: 1
    decay_mult: 1
  }
  param {
    lr_mult: 2
    decay_mult: 0
  }
  convolution_param {
    num_output: 256
    pad: 0
    kernel_size: 3
    stride: 1
    weight_filler {
      type: "xavier"
    }
    bias_filler {
      type: "constant"
      value: 0
    }
  }
}
layer {
  name: "conv8_2_relu"
  type: "ReLU"
  bottom: "conv8_2"
  top: "conv8_2"
}
layer {
  name: "conv9_1"
  type: "Convolution"
  bottom: "conv8_2"
  top: "conv9_1"
  param {
    lr_mult: 1
    decay_mult: 1
  }
  param {
    lr_mult: 2
    decay_mult: 0
  }
  convolution_param {
    num_output: 128
    pad: 0
    kernel_size: 1
    stride: 1
    weight_filler {
      type: "xavier"
    }
    bias_filler {
      type: "constant"
      value: 0
    }
  }
}
layer {
  name: "conv9_1_relu"
  type: "ReLU"
  bottom: "conv9_1"
  top: "conv9_1"
}
layer {
  name: "conv9_2"
  type: "Convolution"
  bottom: "conv9_1"
  top: "conv9_2"
  param {
    lr_mult: 1
    decay_mult: 1
  }
  param {
    lr_mult: 2
    decay_mult: 0
  }
  convolution_param {
    num_output: 256
    pad: 0
    kernel_size: 3
    stride: 1
    weight_filler {
      type: "xavier"
    }
    bias_filler {
      type: "constant"
      value: 0
    }
  }
}
layer {
  name: "conv9_2_relu"
  type: "ReLU"
  bottom: "conv9_2"
  top: "conv9_2"
}
layer {
  name: "conv4_3_norm"
  type: "Normalize"
  bottom: "conv4_3"
  top: "conv4_3_norm"
  norm_param {
    across_spatial: false
    scale_filler {
      type: "constant"
      value: 20
    }
    channel_shared: false
  }
}
layer {
  name: "conv4_3_norm_mbox_loc"
  type: "Convolution"
  bottom: "conv4_3_norm"
  top: "conv4_3_norm_mbox_loc"
  param {
    lr_mult: 1
    decay_mult: 1
  }
  param {
    lr_mult: 2
    decay_mult: 0
  }
  convolution_param {
    num_output: 16
    pad: 1
    kernel_size: 3
    stride: 1
    weight_filler {
      type: "xavier"
    }
    bias_filler {
      type: "constant"
      value: 0
    }
  }
}
layer {
  name: "conv4_3_norm_mbox_loc_perm"
  type: "Permute"
  bottom: "conv4_3_norm_mbox_loc"
  top: "conv4_3_norm_mbox_loc_perm"
  permute_param {
    order: 0
    order: 2
    order: 3
    order: 1
  }
}
layer {
  name: "conv4_3_norm_mbox_loc_flat"
  type: "Flatten"
  bottom: "conv4_3_norm_mbox_loc_perm"
  top: "conv4_3_norm_mbox_loc_flat"
  flatten_param {
    axis: 1
  }
}
layer {
  name: "conv4_3_norm_mbox_conf"
  type: "Convolution"
  bottom: "conv4_3_norm"
  top: "conv4_3_norm_mbox_conf"
  param {
    lr_mult: 1
    decay_mult: 1
  }
  param {
    lr_mult: 2
    decay_mult: 0
  }
  convolution_param {
    num_output: 16
    pad: 1
    kernel_size: 3
    stride: 1
    weight_filler {
      type: "xavier"
    }
    bias_filler {
      type: "constant"
      value: 0
    }
  }
}
layer {
  name: "conv4_3_norm_mbox_conf_perm"
  type: "Permute"
  bottom: "conv4_3_norm_mbox_conf"
  top: "conv4_3_norm_mbox_conf_perm"
  permute_param {
    order: 0
    order: 2
    order: 3
    order: 1
  }
}
layer {
  name: "conv4_3_norm_mbox_conf_flat"
  type: "Flatten"
  bottom: "conv4_3_norm_mbox_conf_perm"
  top: "conv4_3_norm_mbox_conf_flat"
  flatten_param {
    axis: 1
  }
}
layer {
  name: "conv4_3_norm_mbox_priorbox"
  type: "PriorBox"
  bottom: "conv4_3_norm"
  bottom: "data"
  top: "conv4_3_norm_mbox_priorbox"
  prior_box_param {
    min_size: 30
    max_size: 60
    aspect_ratio: 2
    flip: true
    clip: false
    variance: 0.1
    variance: 0.1
    variance: 0.2
    variance: 0.2
    step: 8
    offset: 0.5
  }
}
layer {
  name: "fc7_mbox_loc"
  type: "Convolution"
  bottom: "fc7"
  top: "fc7_mbox_loc"
  param {
    lr_mult: 1
    decay_mult: 1
  }
  param {
    lr_mult: 2
    decay_mult: 0
  }
  convolution_param {
    num_output: 24
    pad: 1
    kernel_size: 3
    stride: 1
    weight_filler {
      type: "xavier"
    }
    bias_filler {
      type: "constant"
      value: 0
    }
  }
}
layer {
  name: "fc7_mbox_loc_perm"
  type: "Permute"
  bottom: "fc7_mbox_loc"
  top: "fc7_mbox_loc_perm"
  permute_param {
    order: 0
    order: 2
    order: 3
    order: 1
  }
}
layer {
  name: "fc7_mbox_loc_flat"
  type: "Flatten"
  bottom: "fc7_mbox_loc_perm"
  top: "fc7_mbox_loc_flat"
  flatten_param {
    axis: 1
  }
}
layer {
  name: "fc7_mbox_conf"
  type: "Convolution"
  bottom: "fc7"
  top: "fc7_mbox_conf"
  param {
    lr_mult: 1
    decay_mult: 1
  }
  param {
    lr_mult: 2
    decay_mult: 0
  }
  convolution_param {
    num_output: 24
    pad: 1
    kernel_size: 3
    stride: 1
    weight_filler {
      type: "xavier"
    }
    bias_filler {
      type: "constant"
      value: 0
    }
  }
}
layer {
  name: "fc7_mbox_conf_perm"
  type: "Permute"
  bottom: "fc7_mbox_conf"
  top: "fc7_mbox_conf_perm"
  permute_param {
    order: 0
    order: 2
    order: 3
    order: 1
  }
}
layer {
  name: "fc7_mbox_conf_flat"
  type: "Flatten"
  bottom: "fc7_mbox_conf_perm"
  top: "fc7_mbox_conf_flat"
  flatten_param {
    axis: 1
  }
}
layer {
  name: "fc7_mbox_priorbox"
  type: "PriorBox"
  bottom: "fc7"
  bottom: "data"
  top: "fc7_mbox_priorbox"
  prior_box_param {
    min_size: 60
    max_size: 111
    aspect_ratio: 2
    aspect_ratio: 3
    flip: true
    clip: false
    variance: 0.1
    variance: 0.1
    variance: 0.2
    variance: 0.2
    step: 16
    offset: 0.5
  }
}
layer {
  name: "conv6_2_mbox_loc"
  type: "Convolution"
  bottom: "conv6_2"
  top: "conv6_2_mbox_loc"
  param {
    lr_mult: 1
    decay_mult: 1
  }
  param {
    lr_mult: 2
    decay_mult: 0
  }
  convolution_param {
    num_output: 24
    pad: 1
    kernel_size: 3
    stride: 1
    weight_filler {
      type: "xavier"
    }
    bias_filler {
      type: "constant"
      value: 0
    }
  }
}
layer {
  name: "conv6_2_mbox_loc_perm"
  type: "Permute"
  bottom: "conv6_2_mbox_loc"
  top: "conv6_2_mbox_loc_perm"
  permute_param {
    order: 0
    order: 2
    order: 3
    order: 1
  }
}
layer {
  name: "conv6_2_mbox_loc_flat"
  type: "Flatten"
  bottom: "conv6_2_mbox_loc_perm"
  top: "conv6_2_mbox_loc_flat"
  flatten_param {
    axis: 1
  }
}
layer {
  name: "conv6_2_mbox_conf"
  type: "Convolution"
  bottom: "conv6_2"
  top: "conv6_2_mbox_conf"
  param {
    lr_mult: 1
    decay_mult: 1
  }
  param {
    lr_mult: 2
    decay_mult: 0
  }
  convolution_param {
    num_output: 24
    pad: 1
    kernel_size: 3
    stride: 1
    weight_filler {
      type: "xavier"
    }
    bias_filler {
      type: "constant"
      value: 0
    }
  }
}
layer {
  name: "conv6_2_mbox_conf_perm"
  type: "Permute"
  bottom: "conv6_2_mbox_conf"
  top: "conv6_2_mbox_conf_perm"
  permute_param {
    order: 0
    order: 2
    order: 3
    order: 1
  }
}
layer {
  name: "conv6_2_mbox_conf_flat"
  type: "Flatten"
  bottom: "conv6_2_mbox_conf_perm"
  top: "conv6_2_mbox_conf_flat"
  flatten_param {
    axis: 1
  }
}
layer {
  name: "conv6_2_mbox_priorbox"
  type: "PriorBox"
  bottom: "conv6_2"
  bottom: "data"
  top: "conv6_2_mbox_priorbox"
  prior_box_param {
    min_size: 111
    max_size: 162
    aspect_ratio: 2
    aspect_ratio: 3
    flip: true
    clip: false
    variance: 0.1
    variance: 0.1
    variance: 0.2
    variance: 0.2
    step: 32
    offset: 0.5
  }
}
layer {
  name: "conv7_2_mbox_loc"
  type: "Convolution"
  bottom: "conv7_2"
  top: "conv7_2_mbox_loc"
  param {
    lr_mult: 1
    decay_mult: 1
  }
  param {
    lr_mult: 2
    decay_mult: 0
  }
  convolution_param {
    num_output: 24
    pad: 1
    kernel_size: 3
    stride: 1
    weight_filler {
      type: "xavier"
    }
    bias_filler {
      type: "constant"
      value: 0
    }
  }
}
layer {
  name: "conv7_2_mbox_loc_perm"
  type: "Permute"
  bottom: "conv7_2_mbox_loc"
  top: "conv7_2_mbox_loc_perm"
  permute_param {
    order: 0
    order: 2
    order: 3
    order: 1
  }
}
layer {
  name: "conv7_2_mbox_loc_flat"
  type: "Flatten"
  bottom: "conv7_2_mbox_loc_perm"
  top: "conv7_2_mbox_loc_flat"
  flatten_param {
    axis: 1
  }
}
layer {
  name: "conv7_2_mbox_conf"
  type: "Convolution"
  bottom: "conv7_2"
  top: "conv7_2_mbox_conf"
  param {
    lr_mult: 1
    decay_mult: 1
  }
  param {
    lr_mult: 2
    decay_mult: 0
  }
  convolution_param {
    num_output: 24
    pad: 1
    kernel_size: 3
    stride: 1
    weight_filler {
      type: "xavier"
    }
    bias_filler {
      type: "constant"
      value: 0
    }
  }
}
layer {
  name: "conv7_2_mbox_conf_perm"
  type: "Permute"
  bottom: "conv7_2_mbox_conf"
  top: "conv7_2_mbox_conf_perm"
  permute_param {
    order: 0
    order: 2
    order: 3
    order: 1
  }
}
layer {
  name: "conv7_2_mbox_conf_flat"
  type: "Flatten"
  bottom: "conv7_2_mbox_conf_perm"
  top: "conv7_2_mbox_conf_flat"
  flatten_param {
    axis: 1
  }
}
layer {
  name: "conv7_2_mbox_priorbox"
  type: "PriorBox"
  bottom: "conv7_2"
  bottom: "data"
  top: "conv7_2_mbox_priorbox"
  prior_box_param {
    min_size: 162
    max_size: 213
    aspect_ratio: 2
    aspect_ratio: 3
    flip: true
    clip: false
    variance: 0.1
    variance: 0.1
    variance: 0.2
    variance: 0.2
    step: 64
    offset: 0.5
  }
}
layer {
  name: "conv8_2_mbox_loc"
  type: "Convolution"
  bottom: "conv8_2"
  top: "conv8_2_mbox_loc"
  param {
    lr_mult: 1
    decay_mult: 1
  }
  param {
    lr_mult: 2
    decay_mult: 0
  }
  convolution_param {
    num_output: 16
    pad: 1
    kernel_size: 3
    stride: 1
    weight_filler {
      type: "xavier"
    }
    bias_filler {
      type: "constant"
      value: 0
    }
  }
}
layer {
  name: "conv8_2_mbox_loc_perm"
  type: "Permute"
  bottom: "conv8_2_mbox_loc"
  top: "conv8_2_mbox_loc_perm"
  permute_param {
    order: 0
    order: 2
    order: 3
    order: 1
  }
}
layer {
  name: "conv8_2_mbox_loc_flat"
  type: "Flatten"
  bottom: "conv8_2_mbox_loc_perm"
  top: "conv8_2_mbox_loc_flat"
  flatten_param {
    axis: 1
  }
}
layer {
  name: "conv8_2_mbox_conf"
  type: "Convolution"
  bottom: "conv8_2"
  top: "conv8_2_mbox_conf"
  param {
    lr_mult: 1
    decay_mult: 1
  }
  param {
    lr_mult: 2
    decay_mult: 0
  }
  convolution_param {
    num_output: 16
    pad: 1
    kernel_size: 3
    stride: 1
    weight_filler {
      type: "xavier"
    }
    bias_filler {
      type: "constant"
      value: 0
    }
  }
}
layer {
  name: "conv8_2_mbox_conf_perm"
  type: "Permute"
  bottom: "conv8_2_mbox_conf"
  top: "conv8_2_mbox_conf_perm"
  permute_param {
    order: 0
    order: 2
    order: 3
    order: 1
  }
}
layer {
  name: "conv8_2_mbox_conf_flat"
  type: "Flatten"
  bottom: "conv8_2_mbox_conf_perm"
  top: "conv8_2_mbox_conf_flat"
  flatten_param {
    axis: 1
  }
}
layer {
  name: "conv8_2_mbox_priorbox"
  type: "PriorBox"
  bottom: "conv8_2"
  bottom: "data"
  top: "conv8_2_mbox_priorbox"
  prior_box_param {
    min_size: 213
    max_size: 264
    aspect_ratio: 2
    flip: true
    clip: false
    variance: 0.1
    variance: 0.1
    variance: 0.2
    variance: 0.2
    step: 100
    offset: 0.5
  }
}
layer {
  name: "conv9_2_mbox_loc"
  type: "Convolution"
  bottom: "conv9_2"
  top: "conv9_2_mbox_loc"
  param {
    lr_mult: 1
    decay_mult: 1
  }
  param {
    lr_mult: 2
    decay_mult: 0
  }
  convolution_param {
    num_output: 16
    pad: 1
    kernel_size: 3
    stride: 1
    weight_filler {
      type: "xavier"
    }
    bias_filler {
      type: "constant"
      value: 0
    }
  }
}
layer {
  name: "conv9_2_mbox_loc_perm"
  type: "Permute"
  bottom: "conv9_2_mbox_loc"
  top: "conv9_2_mbox_loc_perm"
  permute_param {
    order: 0
    order: 2
    order: 3
    order: 1
  }
}
layer {
  name: "conv9_2_mbox_loc_flat"
  type: "Flatten"
  bottom: "conv9_2_mbox_loc_perm"
  top: "conv9_2_mbox_loc_flat"
  flatten_param {
    axis: 1
  }
}
layer {
  name: "conv9_2_mbox_conf"
  type: "Convolution"
  bottom: "conv9_2"
  top: "conv9_2_mbox_conf"
  param {
    lr_mult: 1
    decay_mult: 1
  }
  param {
    lr_mult: 2
    decay_mult: 0
  }
  convolution_param {
    num_output: 16
    pad: 1
    kernel_size: 3
    stride: 1
    weight_filler {
      type: "xavier"
    }
    bias_filler {
      type: "constant"
      value: 0
    }
  }
}
layer {
  name: "conv9_2_mbox_conf_perm"
  type: "Permute"
  bottom: "conv9_2_mbox_conf"
  top: "conv9_2_mbox_conf_perm"
  permute_param {
    order: 0
    order: 2
    order: 3
    order: 1
  }
}
layer {
  name: "conv9_2_mbox_conf_flat"
  type: "Flatten"
  bottom: "conv9_2_mbox_conf_perm"
  top: "conv9_2_mbox_conf_flat"
  flatten_param {
    axis: 1
  }
}
layer {
  name: "conv9_2_mbox_priorbox"
  type: "PriorBox"
  bottom: "conv9_2"
  bottom: "data"
  top: "conv9_2_mbox_priorbox"
  prior_box_param {
    min_size: 264
    max_size: 315
    aspect_ratio: 2
    flip: true
    clip: false
    variance: 0.1
    variance: 0.1
    variance: 0.2
    variance: 0.2
    step: 300
    offset: 0.5
  }
}
layer {
  name: "mbox_loc"
  type: "Concat"
  bottom: "conv4_3_norm_mbox_loc_flat"
  bottom: "fc7_mbox_loc_flat"
  bottom: "conv6_2_mbox_loc_flat"
  bottom: "conv7_2_mbox_loc_flat"
  bottom: "conv8_2_mbox_loc_flat"
  bottom: "conv9_2_mbox_loc_flat"
  top: "mbox_loc"
  concat_param {
    axis: 1
  }
}
layer {
  name: "mbox_conf"
  type: "Concat"
  bottom: "conv4_3_norm_mbox_conf_flat"
  bottom: "fc7_mbox_conf_flat"
  bottom: "conv6_2_mbox_conf_flat"
  bottom: "conv7_2_mbox_conf_flat"
  bottom: "conv8_2_mbox_conf_flat"
  bottom: "conv9_2_mbox_conf_flat"
  top: "mbox_conf"
  concat_param {
    axis: 1
  }
}
layer {
  name: "mbox_priorbox"
  type: "Concat"
  bottom: "conv4_3_norm_mbox_priorbox"
  bottom: "fc7_mbox_priorbox"
  bottom: "conv6_2_mbox_priorbox"
  bottom: "conv7_2_mbox_priorbox"
  bottom: "conv8_2_mbox_priorbox"
  bottom: "conv9_2_mbox_priorbox"
  top: "mbox_priorbox"
  concat_param {
    axis: 2
  }
}
layer {
  name: "mbox_loss"
  type: "MultiBoxLoss"
  bottom: "mbox_loc"
  bottom: "mbox_conf"
  bottom: "mbox_priorbox"
  bottom: "label"
  top: "mbox_loss"
  include {
    phase: TRAIN
  }
  propagate_down: true
  propagate_down: true
  propagate_down: false
  propagate_down: false
  loss_param {
    normalization: VALID
  }
  multibox_loss_param {
    loc_loss_type: SMOOTH_L1
    conf_loss_type: SOFTMAX
    loc_weight: 1
    num_classes: 4
    share_location: true
    match_type: PER_PREDICTION
    overlap_threshold: 0.5
    use_prior_for_matching: true
    background_label_id: 0
    use_difficult_gt: true
    neg_pos_ratio: 3
    neg_overlap: 0.5
    code_type: CENTER_SIZE
    ignore_cross_boundary_bbox: false
    mining_type: MAX_NEGATIVE
  }
}
I0601 15:51:33.937608 16695 layer_factory.hpp:77] Creating layer data
I0601 15:51:33.937731 16695 net.cpp:100] Creating Layer data
I0601 15:51:33.937747 16695 net.cpp:408] data -> data
I0601 15:51:33.937775 16695 net.cpp:408] data -> label
I0601 15:51:33.938232 16711 db_lmdb.cpp:35] Opened lmdb examples/tbs_300x300_HSIL_10x/tbs_300x300_HSIL_10x_trainval_lmdb
I0601 15:51:33.946949 16695 annotated_data_layer.cpp:62] output data size: 35,3,300,300
I0601 15:51:34.011299 16695 net.cpp:150] Setting up data
I0601 15:51:34.011319 16695 net.cpp:157] Top shape: 35 3 300 300 (9450000)
I0601 15:51:34.011322 16695 net.cpp:157] Top shape: 1 1 1 8 (8)
I0601 15:51:34.011353 16695 net.cpp:165] Memory required for data: 37800032
I0601 15:51:34.011363 16695 layer_factory.hpp:77] Creating layer data_data_0_split
I0601 15:51:34.011375 16695 net.cpp:100] Creating Layer data_data_0_split
I0601 15:51:34.011380 16695 net.cpp:434] data_data_0_split <- data
I0601 15:51:34.011407 16695 net.cpp:408] data_data_0_split -> data_data_0_split_0
I0601 15:51:34.011428 16695 net.cpp:408] data_data_0_split -> data_data_0_split_1
I0601 15:51:34.011435 16695 net.cpp:408] data_data_0_split -> data_data_0_split_2
I0601 15:51:34.011452 16695 net.cpp:408] data_data_0_split -> data_data_0_split_3
I0601 15:51:34.011456 16695 net.cpp:408] data_data_0_split -> data_data_0_split_4
I0601 15:51:34.011477 16695 net.cpp:408] data_data_0_split -> data_data_0_split_5
I0601 15:51:34.011482 16695 net.cpp:408] data_data_0_split -> data_data_0_split_6
I0601 15:51:34.011564 16695 net.cpp:150] Setting up data_data_0_split
I0601 15:51:34.011582 16695 net.cpp:157] Top shape: 35 3 300 300 (9450000)
I0601 15:51:34.011585 16695 net.cpp:157] Top shape: 35 3 300 300 (9450000)
I0601 15:51:34.011589 16695 net.cpp:157] Top shape: 35 3 300 300 (9450000)
I0601 15:51:34.011590 16695 net.cpp:157] Top shape: 35 3 300 300 (9450000)
I0601 15:51:34.011593 16695 net.cpp:157] Top shape: 35 3 300 300 (9450000)
I0601 15:51:34.011610 16695 net.cpp:157] Top shape: 35 3 300 300 (9450000)
I0601 15:51:34.011613 16695 net.cpp:157] Top shape: 35 3 300 300 (9450000)
I0601 15:51:34.011616 16695 net.cpp:165] Memory required for data: 302400032
I0601 15:51:34.011618 16695 layer_factory.hpp:77] Creating layer conv1_1
I0601 15:51:34.011646 16695 net.cpp:100] Creating Layer conv1_1
I0601 15:51:34.011651 16695 net.cpp:434] conv1_1 <- data_data_0_split_0
I0601 15:51:34.011656 16695 net.cpp:408] conv1_1 -> conv1_1
I0601 15:51:34.185598 16695 net.cpp:150] Setting up conv1_1
I0601 15:51:34.185619 16695 net.cpp:157] Top shape: 35 64 300 300 (201600000)
I0601 15:51:34.185622 16695 net.cpp:165] Memory required for data: 1108800032
I0601 15:51:34.185664 16695 layer_factory.hpp:77] Creating layer relu1_1
I0601 15:51:34.185672 16695 net.cpp:100] Creating Layer relu1_1
I0601 15:51:34.185676 16695 net.cpp:434] relu1_1 <- conv1_1
I0601 15:51:34.185681 16695 net.cpp:395] relu1_1 -> conv1_1 (in-place)
I0601 15:51:34.185847 16695 net.cpp:150] Setting up relu1_1
I0601 15:51:34.185854 16695 net.cpp:157] Top shape: 35 64 300 300 (201600000)
I0601 15:51:34.185858 16695 net.cpp:165] Memory required for data: 1915200032
I0601 15:51:34.185859 16695 layer_factory.hpp:77] Creating layer conv1_2
I0601 15:51:34.185869 16695 net.cpp:100] Creating Layer conv1_2
I0601 15:51:34.185873 16695 net.cpp:434] conv1_2 <- conv1_1
I0601 15:51:34.185892 16695 net.cpp:408] conv1_2 -> conv1_2
I0601 15:51:34.187924 16695 net.cpp:150] Setting up conv1_2
I0601 15:51:34.187937 16695 net.cpp:157] Top shape: 35 64 300 300 (201600000)
I0601 15:51:34.187938 16695 net.cpp:165] Memory required for data: 2721600032
I0601 15:51:34.187947 16695 layer_factory.hpp:77] Creating layer relu1_2
I0601 15:51:34.187953 16695 net.cpp:100] Creating Layer relu1_2
I0601 15:51:34.187957 16695 net.cpp:434] relu1_2 <- conv1_2
I0601 15:51:34.187959 16695 net.cpp:395] relu1_2 -> conv1_2 (in-place)
I0601 15:51:34.188527 16695 net.cpp:150] Setting up relu1_2
I0601 15:51:34.188536 16695 net.cpp:157] Top shape: 35 64 300 300 (201600000)
I0601 15:51:34.188539 16695 net.cpp:165] Memory required for data: 3528000032
I0601 15:51:34.188541 16695 layer_factory.hpp:77] Creating layer pool1
I0601 15:51:34.188560 16695 net.cpp:100] Creating Layer pool1
I0601 15:51:34.188563 16695 net.cpp:434] pool1 <- conv1_2
I0601 15:51:34.188567 16695 net.cpp:408] pool1 -> pool1
I0601 15:51:34.188606 16695 net.cpp:150] Setting up pool1
I0601 15:51:34.188611 16695 net.cpp:157] Top shape: 35 64 150 150 (50400000)
I0601 15:51:34.188613 16695 net.cpp:165] Memory required for data: 3729600032
I0601 15:51:34.188616 16695 layer_factory.hpp:77] Creating layer conv2_1
I0601 15:51:34.188622 16695 net.cpp:100] Creating Layer conv2_1
I0601 15:51:34.188635 16695 net.cpp:434] conv2_1 <- pool1
I0601 15:51:34.188640 16695 net.cpp:408] conv2_1 -> conv2_1
I0601 15:51:34.189486 16695 net.cpp:150] Setting up conv2_1
I0601 15:51:34.189494 16695 net.cpp:157] Top shape: 35 128 150 150 (100800000)
I0601 15:51:34.189497 16695 net.cpp:165] Memory required for data: 4132800032
I0601 15:51:34.189504 16695 layer_factory.hpp:77] Creating layer relu2_1
I0601 15:51:34.189509 16695 net.cpp:100] Creating Layer relu2_1
I0601 15:51:34.189512 16695 net.cpp:434] relu2_1 <- conv2_1
I0601 15:51:34.189517 16695 net.cpp:395] relu2_1 -> conv2_1 (in-place)
I0601 15:51:34.190119 16695 net.cpp:150] Setting up relu2_1
I0601 15:51:34.190129 16695 net.cpp:157] Top shape: 35 128 150 150 (100800000)
I0601 15:51:34.190130 16695 net.cpp:165] Memory required for data: 4536000032
I0601 15:51:34.190134 16695 layer_factory.hpp:77] Creating layer conv2_2
I0601 15:51:34.190140 16695 net.cpp:100] Creating Layer conv2_2
I0601 15:51:34.190142 16695 net.cpp:434] conv2_2 <- conv2_1
I0601 15:51:34.190146 16695 net.cpp:408] conv2_2 -> conv2_2
I0601 15:51:34.192127 16695 net.cpp:150] Setting up conv2_2
I0601 15:51:34.192137 16695 net.cpp:157] Top shape: 35 128 150 150 (100800000)
I0601 15:51:34.192140 16695 net.cpp:165] Memory required for data: 4939200032
I0601 15:51:34.192145 16695 layer_factory.hpp:77] Creating layer relu2_2
I0601 15:51:34.192150 16695 net.cpp:100] Creating Layer relu2_2
I0601 15:51:34.192153 16695 net.cpp:434] relu2_2 <- conv2_2
I0601 15:51:34.192157 16695 net.cpp:395] relu2_2 -> conv2_2 (in-place)
I0601 15:51:34.192291 16695 net.cpp:150] Setting up relu2_2
I0601 15:51:34.192296 16695 net.cpp:157] Top shape: 35 128 150 150 (100800000)
I0601 15:51:34.192299 16695 net.cpp:165] Memory required for data: 5342400032
I0601 15:51:34.192301 16695 layer_factory.hpp:77] Creating layer pool2
I0601 15:51:34.192306 16695 net.cpp:100] Creating Layer pool2
I0601 15:51:34.192308 16695 net.cpp:434] pool2 <- conv2_2
I0601 15:51:34.192315 16695 net.cpp:408] pool2 -> pool2
I0601 15:51:34.192347 16695 net.cpp:150] Setting up pool2
I0601 15:51:34.192351 16695 net.cpp:157] Top shape: 35 128 75 75 (25200000)
I0601 15:51:34.192353 16695 net.cpp:165] Memory required for data: 5443200032
I0601 15:51:34.192355 16695 layer_factory.hpp:77] Creating layer conv3_1
I0601 15:51:34.192363 16695 net.cpp:100] Creating Layer conv3_1
I0601 15:51:34.192368 16695 net.cpp:434] conv3_1 <- pool2
I0601 15:51:34.192373 16695 net.cpp:408] conv3_1 -> conv3_1
I0601 15:51:34.196065 16695 net.cpp:150] Setting up conv3_1
I0601 15:51:34.196079 16695 net.cpp:157] Top shape: 35 256 75 75 (50400000)
I0601 15:51:34.196081 16695 net.cpp:165] Memory required for data: 5644800032
I0601 15:51:34.196094 16695 layer_factory.hpp:77] Creating layer relu3_1
I0601 15:51:34.196117 16695 net.cpp:100] Creating Layer relu3_1
I0601 15:51:34.196122 16695 net.cpp:434] relu3_1 <- conv3_1
I0601 15:51:34.196128 16695 net.cpp:395] relu3_1 -> conv3_1 (in-place)
I0601 15:51:34.196257 16695 net.cpp:150] Setting up relu3_1
I0601 15:51:34.196264 16695 net.cpp:157] Top shape: 35 256 75 75 (50400000)
I0601 15:51:34.196266 16695 net.cpp:165] Memory required for data: 5846400032
I0601 15:51:34.196270 16695 layer_factory.hpp:77] Creating layer conv3_2
I0601 15:51:34.196280 16695 net.cpp:100] Creating Layer conv3_2
I0601 15:51:34.196283 16695 net.cpp:434] conv3_2 <- conv3_1
I0601 15:51:34.196288 16695 net.cpp:408] conv3_2 -> conv3_2
I0601 15:51:34.200899 16695 net.cpp:150] Setting up conv3_2
I0601 15:51:34.200915 16695 net.cpp:157] Top shape: 35 256 75 75 (50400000)
I0601 15:51:34.200918 16695 net.cpp:165] Memory required for data: 6048000032
I0601 15:51:34.200927 16695 layer_factory.hpp:77] Creating layer relu3_2
I0601 15:51:34.200935 16695 net.cpp:100] Creating Layer relu3_2
I0601 15:51:34.200940 16695 net.cpp:434] relu3_2 <- conv3_2
I0601 15:51:34.200947 16695 net.cpp:395] relu3_2 -> conv3_2 (in-place)
I0601 15:51:34.201083 16695 net.cpp:150] Setting up relu3_2
I0601 15:51:34.201089 16695 net.cpp:157] Top shape: 35 256 75 75 (50400000)
I0601 15:51:34.201092 16695 net.cpp:165] Memory required for data: 6249600032
I0601 15:51:34.201107 16695 layer_factory.hpp:77] Creating layer conv3_3
I0601 15:51:34.201118 16695 net.cpp:100] Creating Layer conv3_3
I0601 15:51:34.201122 16695 net.cpp:434] conv3_3 <- conv3_2
I0601 15:51:34.201128 16695 net.cpp:408] conv3_3 -> conv3_3
I0601 15:51:34.205539 16695 net.cpp:150] Setting up conv3_3
I0601 15:51:34.205552 16695 net.cpp:157] Top shape: 35 256 75 75 (50400000)
I0601 15:51:34.205555 16695 net.cpp:165] Memory required for data: 6451200032
I0601 15:51:34.205562 16695 layer_factory.hpp:77] Creating layer relu3_3
I0601 15:51:34.205569 16695 net.cpp:100] Creating Layer relu3_3
I0601 15:51:34.205574 16695 net.cpp:434] relu3_3 <- conv3_3
I0601 15:51:34.205579 16695 net.cpp:395] relu3_3 -> conv3_3 (in-place)
I0601 15:51:34.205711 16695 net.cpp:150] Setting up relu3_3
I0601 15:51:34.205718 16695 net.cpp:157] Top shape: 35 256 75 75 (50400000)
I0601 15:51:34.205720 16695 net.cpp:165] Memory required for data: 6652800032
I0601 15:51:34.205723 16695 layer_factory.hpp:77] Creating layer pool3
I0601 15:51:34.205726 16695 net.cpp:100] Creating Layer pool3
I0601 15:51:34.205729 16695 net.cpp:434] pool3 <- conv3_3
I0601 15:51:34.205734 16695 net.cpp:408] pool3 -> pool3
I0601 15:51:34.205765 16695 net.cpp:150] Setting up pool3
I0601 15:51:34.205770 16695 net.cpp:157] Top shape: 35 256 38 38 (12938240)
I0601 15:51:34.205772 16695 net.cpp:165] Memory required for data: 6704552992
I0601 15:51:34.205775 16695 layer_factory.hpp:77] Creating layer conv4_1
I0601 15:51:34.205782 16695 net.cpp:100] Creating Layer conv4_1
I0601 15:51:34.205785 16695 net.cpp:434] conv4_1 <- pool3
I0601 15:51:34.205792 16695 net.cpp:408] conv4_1 -> conv4_1
I0601 15:51:34.214300 16695 net.cpp:150] Setting up conv4_1
I0601 15:51:34.214318 16695 net.cpp:157] Top shape: 35 512 38 38 (25876480)
I0601 15:51:34.214319 16695 net.cpp:165] Memory required for data: 6808058912
I0601 15:51:34.214328 16695 layer_factory.hpp:77] Creating layer relu4_1
I0601 15:51:34.214334 16695 net.cpp:100] Creating Layer relu4_1
I0601 15:51:34.214352 16695 net.cpp:434] relu4_1 <- conv4_1
I0601 15:51:34.214359 16695 net.cpp:395] relu4_1 -> conv4_1 (in-place)
I0601 15:51:34.215179 16695 net.cpp:150] Setting up relu4_1
I0601 15:51:34.215191 16695 net.cpp:157] Top shape: 35 512 38 38 (25876480)
I0601 15:51:34.215209 16695 net.cpp:165] Memory required for data: 6911564832
I0601 15:51:34.215212 16695 layer_factory.hpp:77] Creating layer conv4_2
I0601 15:51:34.215224 16695 net.cpp:100] Creating Layer conv4_2
I0601 15:51:34.215227 16695 net.cpp:434] conv4_2 <- conv4_1
I0601 15:51:34.215232 16695 net.cpp:408] conv4_2 -> conv4_2
I0601 15:51:34.227344 16695 net.cpp:150] Setting up conv4_2
I0601 15:51:34.227362 16695 net.cpp:157] Top shape: 35 512 38 38 (25876480)
I0601 15:51:34.227365 16695 net.cpp:165] Memory required for data: 7015070752
I0601 15:51:34.227376 16695 layer_factory.hpp:77] Creating layer relu4_2
I0601 15:51:34.227382 16695 net.cpp:100] Creating Layer relu4_2
I0601 15:51:34.227387 16695 net.cpp:434] relu4_2 <- conv4_2
I0601 15:51:34.227392 16695 net.cpp:395] relu4_2 -> conv4_2 (in-place)
I0601 15:51:34.228180 16695 net.cpp:150] Setting up relu4_2
I0601 15:51:34.228189 16695 net.cpp:157] Top shape: 35 512 38 38 (25876480)
I0601 15:51:34.228193 16695 net.cpp:165] Memory required for data: 7118576672
I0601 15:51:34.228195 16695 layer_factory.hpp:77] Creating layer conv4_3
I0601 15:51:34.228204 16695 net.cpp:100] Creating Layer conv4_3
I0601 15:51:34.228210 16695 net.cpp:434] conv4_3 <- conv4_2
I0601 15:51:34.228216 16695 net.cpp:408] conv4_3 -> conv4_3
I0601 15:51:34.240813 16695 net.cpp:150] Setting up conv4_3
I0601 15:51:34.240830 16695 net.cpp:157] Top shape: 35 512 38 38 (25876480)
I0601 15:51:34.240833 16695 net.cpp:165] Memory required for data: 7222082592
I0601 15:51:34.240839 16695 layer_factory.hpp:77] Creating layer relu4_3
I0601 15:51:34.240846 16695 net.cpp:100] Creating Layer relu4_3
I0601 15:51:34.240869 16695 net.cpp:434] relu4_3 <- conv4_3
I0601 15:51:34.240873 16695 net.cpp:395] relu4_3 -> conv4_3 (in-place)
I0601 15:51:34.241030 16695 net.cpp:150] Setting up relu4_3
I0601 15:51:34.241037 16695 net.cpp:157] Top shape: 35 512 38 38 (25876480)
I0601 15:51:34.241040 16695 net.cpp:165] Memory required for data: 7325588512
I0601 15:51:34.241042 16695 layer_factory.hpp:77] Creating layer conv4_3_relu4_3_0_split
I0601 15:51:34.241046 16695 net.cpp:100] Creating Layer conv4_3_relu4_3_0_split
I0601 15:51:34.241049 16695 net.cpp:434] conv4_3_relu4_3_0_split <- conv4_3
I0601 15:51:34.241052 16695 net.cpp:408] conv4_3_relu4_3_0_split -> conv4_3_relu4_3_0_split_0
I0601 15:51:34.241058 16695 net.cpp:408] conv4_3_relu4_3_0_split -> conv4_3_relu4_3_0_split_1
I0601 15:51:34.241089 16695 net.cpp:150] Setting up conv4_3_relu4_3_0_split
I0601 15:51:34.241093 16695 net.cpp:157] Top shape: 35 512 38 38 (25876480)
I0601 15:51:34.241096 16695 net.cpp:157] Top shape: 35 512 38 38 (25876480)
I0601 15:51:34.241098 16695 net.cpp:165] Memory required for data: 7532600352
I0601 15:51:34.241101 16695 layer_factory.hpp:77] Creating layer pool4
I0601 15:51:34.241104 16695 net.cpp:100] Creating Layer pool4
I0601 15:51:34.241108 16695 net.cpp:434] pool4 <- conv4_3_relu4_3_0_split_0
I0601 15:51:34.241113 16695 net.cpp:408] pool4 -> pool4
I0601 15:51:34.241154 16695 net.cpp:150] Setting up pool4
I0601 15:51:34.241173 16695 net.cpp:157] Top shape: 35 512 19 19 (6469120)
I0601 15:51:34.241174 16695 net.cpp:165] Memory required for data: 7558476832
I0601 15:51:34.241176 16695 layer_factory.hpp:77] Creating layer conv5_1
I0601 15:51:34.241184 16695 net.cpp:100] Creating Layer conv5_1
I0601 15:51:34.241188 16695 net.cpp:434] conv5_1 <- pool4
I0601 15:51:34.241192 16695 net.cpp:408] conv5_1 -> conv5_1
I0601 15:51:34.254786 16695 net.cpp:150] Setting up conv5_1
I0601 15:51:34.254803 16695 net.cpp:157] Top shape: 35 512 19 19 (6469120)
I0601 15:51:34.254806 16695 net.cpp:165] Memory required for data: 7584353312
I0601 15:51:34.254813 16695 layer_factory.hpp:77] Creating layer relu5_1
I0601 15:51:34.254819 16695 net.cpp:100] Creating Layer relu5_1
I0601 15:51:34.254838 16695 net.cpp:434] relu5_1 <- conv5_1
I0601 15:51:34.254843 16695 net.cpp:395] relu5_1 -> conv5_1 (in-place)
I0601 15:51:34.254990 16695 net.cpp:150] Setting up relu5_1
I0601 15:51:34.254997 16695 net.cpp:157] Top shape: 35 512 19 19 (6469120)
I0601 15:51:34.255000 16695 net.cpp:165] Memory required for data: 7610229792
I0601 15:51:34.255002 16695 layer_factory.hpp:77] Creating layer conv5_2
I0601 15:51:34.255009 16695 net.cpp:100] Creating Layer conv5_2
I0601 15:51:34.255012 16695 net.cpp:434] conv5_2 <- conv5_1
I0601 15:51:34.255033 16695 net.cpp:408] conv5_2 -> conv5_2
I0601 15:51:34.268049 16695 net.cpp:150] Setting up conv5_2
I0601 15:51:34.268067 16695 net.cpp:157] Top shape: 35 512 19 19 (6469120)
I0601 15:51:34.268070 16695 net.cpp:165] Memory required for data: 7636106272
I0601 15:51:34.268077 16695 layer_factory.hpp:77] Creating layer relu5_2
I0601 15:51:34.268085 16695 net.cpp:100] Creating Layer relu5_2
I0601 15:51:34.268087 16695 net.cpp:434] relu5_2 <- conv5_2
I0601 15:51:34.268093 16695 net.cpp:395] relu5_2 -> conv5_2 (in-place)
I0601 15:51:34.268219 16695 net.cpp:150] Setting up relu5_2
I0601 15:51:34.268226 16695 net.cpp:157] Top shape: 35 512 19 19 (6469120)
I0601 15:51:34.268229 16695 net.cpp:165] Memory required for data: 7661982752
I0601 15:51:34.268230 16695 layer_factory.hpp:77] Creating layer conv5_3
I0601 15:51:34.268239 16695 net.cpp:100] Creating Layer conv5_3
I0601 15:51:34.268242 16695 net.cpp:434] conv5_3 <- conv5_2
I0601 15:51:34.268246 16695 net.cpp:408] conv5_3 -> conv5_3
I0601 15:51:34.281368 16695 net.cpp:150] Setting up conv5_3
I0601 15:51:34.281386 16695 net.cpp:157] Top shape: 35 512 19 19 (6469120)
I0601 15:51:34.281388 16695 net.cpp:165] Memory required for data: 7687859232
I0601 15:51:34.281395 16695 layer_factory.hpp:77] Creating layer relu5_3
I0601 15:51:34.281407 16695 net.cpp:100] Creating Layer relu5_3
I0601 15:51:34.281414 16695 net.cpp:434] relu5_3 <- conv5_3
I0601 15:51:34.281419 16695 net.cpp:395] relu5_3 -> conv5_3 (in-place)
I0601 15:51:34.281559 16695 net.cpp:150] Setting up relu5_3
I0601 15:51:34.281574 16695 net.cpp:157] Top shape: 35 512 19 19 (6469120)
I0601 15:51:34.281577 16695 net.cpp:165] Memory required for data: 7713735712
I0601 15:51:34.281595 16695 layer_factory.hpp:77] Creating layer pool5
I0601 15:51:34.281600 16695 net.cpp:100] Creating Layer pool5
I0601 15:51:34.281603 16695 net.cpp:434] pool5 <- conv5_3
I0601 15:51:34.281608 16695 net.cpp:408] pool5 -> pool5
I0601 15:51:34.281656 16695 net.cpp:150] Setting up pool5
I0601 15:51:34.281661 16695 net.cpp:157] Top shape: 35 512 19 19 (6469120)
I0601 15:51:34.281662 16695 net.cpp:165] Memory required for data: 7739612192
I0601 15:51:34.281666 16695 layer_factory.hpp:77] Creating layer fc6
I0601 15:51:34.281672 16695 net.cpp:100] Creating Layer fc6
I0601 15:51:34.281677 16695 net.cpp:434] fc6 <- pool5
I0601 15:51:34.281682 16695 net.cpp:408] fc6 -> fc6
I0601 15:51:34.304378 16695 net.cpp:150] Setting up fc6
I0601 15:51:34.304395 16695 net.cpp:157] Top shape: 35 1024 19 19 (12938240)
I0601 15:51:34.304397 16695 net.cpp:165] Memory required for data: 7791365152
I0601 15:51:34.304404 16695 layer_factory.hpp:77] Creating layer relu6
I0601 15:51:34.304410 16695 net.cpp:100] Creating Layer relu6
I0601 15:51:34.304414 16695 net.cpp:434] relu6 <- fc6
I0601 15:51:34.304433 16695 net.cpp:395] relu6 -> fc6 (in-place)
I0601 15:51:34.305403 16695 net.cpp:150] Setting up relu6
I0601 15:51:34.305428 16695 net.cpp:157] Top shape: 35 1024 19 19 (12938240)
I0601 15:51:34.305429 16695 net.cpp:165] Memory required for data: 7843118112
I0601 15:51:34.305431 16695 layer_factory.hpp:77] Creating layer fc7
I0601 15:51:34.305439 16695 net.cpp:100] Creating Layer fc7
I0601 15:51:34.305459 16695 net.cpp:434] fc7 <- fc6
I0601 15:51:34.305464 16695 net.cpp:408] fc7 -> fc7
I0601 15:51:34.312476 16695 net.cpp:150] Setting up fc7
I0601 15:51:34.312494 16695 net.cpp:157] Top shape: 35 1024 19 19 (12938240)
I0601 15:51:34.312499 16695 net.cpp:165] Memory required for data: 7894871072
I0601 15:51:34.312518 16695 layer_factory.hpp:77] Creating layer relu7
I0601 15:51:34.312525 16695 net.cpp:100] Creating Layer relu7
I0601 15:51:34.312530 16695 net.cpp:434] relu7 <- fc7
I0601 15:51:34.312535 16695 net.cpp:395] relu7 -> fc7 (in-place)
I0601 15:51:34.312675 16695 net.cpp:150] Setting up relu7
I0601 15:51:34.312682 16695 net.cpp:157] Top shape: 35 1024 19 19 (12938240)
I0601 15:51:34.312685 16695 net.cpp:165] Memory required for data: 7946624032
I0601 15:51:34.312687 16695 layer_factory.hpp:77] Creating layer fc7_relu7_0_split
I0601 15:51:34.312691 16695 net.cpp:100] Creating Layer fc7_relu7_0_split
I0601 15:51:34.312693 16695 net.cpp:434] fc7_relu7_0_split <- fc7
I0601 15:51:34.312698 16695 net.cpp:408] fc7_relu7_0_split -> fc7_relu7_0_split_0
I0601 15:51:34.312717 16695 net.cpp:408] fc7_relu7_0_split -> fc7_relu7_0_split_1
I0601 15:51:34.312727 16695 net.cpp:408] fc7_relu7_0_split -> fc7_relu7_0_split_2
I0601 15:51:34.312733 16695 net.cpp:408] fc7_relu7_0_split -> fc7_relu7_0_split_3
I0601 15:51:34.312796 16695 net.cpp:150] Setting up fc7_relu7_0_split
I0601 15:51:34.312803 16695 net.cpp:157] Top shape: 35 1024 19 19 (12938240)
I0601 15:51:34.312808 16695 net.cpp:157] Top shape: 35 1024 19 19 (12938240)
I0601 15:51:34.312809 16695 net.cpp:157] Top shape: 35 1024 19 19 (12938240)
I0601 15:51:34.312813 16695 net.cpp:157] Top shape: 35 1024 19 19 (12938240)
I0601 15:51:34.312814 16695 net.cpp:165] Memory required for data: 8153635872
I0601 15:51:34.312816 16695 layer_factory.hpp:77] Creating layer conv6_1
I0601 15:51:34.312824 16695 net.cpp:100] Creating Layer conv6_1
I0601 15:51:34.312827 16695 net.cpp:434] conv6_1 <- fc7_relu7_0_split_0
I0601 15:51:34.312834 16695 net.cpp:408] conv6_1 -> conv6_1
I0601 15:51:34.316350 16695 net.cpp:150] Setting up conv6_1
I0601 15:51:34.316366 16695 net.cpp:157] Top shape: 35 256 19 19 (3234560)
I0601 15:51:34.316370 16695 net.cpp:165] Memory required for data: 8166574112
I0601 15:51:34.316376 16695 layer_factory.hpp:77] Creating layer conv6_1_relu
I0601 15:51:34.316383 16695 net.cpp:100] Creating Layer conv6_1_relu
I0601 15:51:34.316397 16695 net.cpp:434] conv6_1_relu <- conv6_1
I0601 15:51:34.316402 16695 net.cpp:395] conv6_1_relu -> conv6_1 (in-place)
I0601 15:51:34.316534 16695 net.cpp:150] Setting up conv6_1_relu
I0601 15:51:34.316541 16695 net.cpp:157] Top shape: 35 256 19 19 (3234560)
I0601 15:51:34.316545 16695 net.cpp:165] Memory required for data: 8179512352
I0601 15:51:34.316546 16695 layer_factory.hpp:77] Creating layer conv6_2
I0601 15:51:34.316555 16695 net.cpp:100] Creating Layer conv6_2
I0601 15:51:34.316557 16695 net.cpp:434] conv6_2 <- conv6_1
I0601 15:51:34.316562 16695 net.cpp:408] conv6_2 -> conv6_2
I0601 15:51:34.323470 16695 net.cpp:150] Setting up conv6_2
I0601 15:51:34.323487 16695 net.cpp:157] Top shape: 35 512 10 10 (1792000)
I0601 15:51:34.323488 16695 net.cpp:165] Memory required for data: 8186680352
I0601 15:51:34.323499 16695 layer_factory.hpp:77] Creating layer conv6_2_relu
I0601 15:51:34.323506 16695 net.cpp:100] Creating Layer conv6_2_relu
I0601 15:51:34.323511 16695 net.cpp:434] conv6_2_relu <- conv6_2
I0601 15:51:34.323515 16695 net.cpp:395] conv6_2_relu -> conv6_2 (in-place)
I0601 15:51:34.323681 16695 net.cpp:150] Setting up conv6_2_relu
I0601 15:51:34.323688 16695 net.cpp:157] Top shape: 35 512 10 10 (1792000)
I0601 15:51:34.323690 16695 net.cpp:165] Memory required for data: 8193848352
I0601 15:51:34.323693 16695 layer_factory.hpp:77] Creating layer conv6_2_conv6_2_relu_0_split
I0601 15:51:34.323696 16695 net.cpp:100] Creating Layer conv6_2_conv6_2_relu_0_split
I0601 15:51:34.323699 16695 net.cpp:434] conv6_2_conv6_2_relu_0_split <- conv6_2
I0601 15:51:34.323704 16695 net.cpp:408] conv6_2_conv6_2_relu_0_split -> conv6_2_conv6_2_relu_0_split_0
I0601 15:51:34.323724 16695 net.cpp:408] conv6_2_conv6_2_relu_0_split -> conv6_2_conv6_2_relu_0_split_1
I0601 15:51:34.323729 16695 net.cpp:408] conv6_2_conv6_2_relu_0_split -> conv6_2_conv6_2_relu_0_split_2
I0601 15:51:34.323735 16695 net.cpp:408] conv6_2_conv6_2_relu_0_split -> conv6_2_conv6_2_relu_0_split_3
I0601 15:51:34.323801 16695 net.cpp:150] Setting up conv6_2_conv6_2_relu_0_split
I0601 15:51:34.323806 16695 net.cpp:157] Top shape: 35 512 10 10 (1792000)
I0601 15:51:34.323808 16695 net.cpp:157] Top shape: 35 512 10 10 (1792000)
I0601 15:51:34.323810 16695 net.cpp:157] Top shape: 35 512 10 10 (1792000)
I0601 15:51:34.323813 16695 net.cpp:157] Top shape: 35 512 10 10 (1792000)
I0601 15:51:34.323815 16695 net.cpp:165] Memory required for data: 8222520352
I0601 15:51:34.323817 16695 layer_factory.hpp:77] Creating layer conv7_1
I0601 15:51:34.323824 16695 net.cpp:100] Creating Layer conv7_1
I0601 15:51:34.323828 16695 net.cpp:434] conv7_1 <- conv6_2_conv6_2_relu_0_split_0
I0601 15:51:34.323833 16695 net.cpp:408] conv7_1 -> conv7_1
I0601 15:51:34.325142 16695 net.cpp:150] Setting up conv7_1
I0601 15:51:34.325151 16695 net.cpp:157] Top shape: 35 128 10 10 (448000)
I0601 15:51:34.325155 16695 net.cpp:165] Memory required for data: 8224312352
I0601 15:51:34.325160 16695 layer_factory.hpp:77] Creating layer conv7_1_relu
I0601 15:51:34.325163 16695 net.cpp:100] Creating Layer conv7_1_relu
I0601 15:51:34.325165 16695 net.cpp:434] conv7_1_relu <- conv7_1
I0601 15:51:34.325170 16695 net.cpp:395] conv7_1_relu -> conv7_1 (in-place)
I0601 15:51:34.325291 16695 net.cpp:150] Setting up conv7_1_relu
I0601 15:51:34.325297 16695 net.cpp:157] Top shape: 35 128 10 10 (448000)
I0601 15:51:34.325299 16695 net.cpp:165] Memory required for data: 8226104352
I0601 15:51:34.325302 16695 layer_factory.hpp:77] Creating layer conv7_2
I0601 15:51:34.325309 16695 net.cpp:100] Creating Layer conv7_2
I0601 15:51:34.325311 16695 net.cpp:434] conv7_2 <- conv7_1
I0601 15:51:34.325315 16695 net.cpp:408] conv7_2 -> conv7_2
I0601 15:51:34.328167 16695 net.cpp:150] Setting up conv7_2
I0601 15:51:34.328182 16695 net.cpp:157] Top shape: 35 256 5 5 (224000)
I0601 15:51:34.328184 16695 net.cpp:165] Memory required for data: 8227000352
I0601 15:51:34.328191 16695 layer_factory.hpp:77] Creating layer conv7_2_relu
I0601 15:51:34.328197 16695 net.cpp:100] Creating Layer conv7_2_relu
I0601 15:51:34.328214 16695 net.cpp:434] conv7_2_relu <- conv7_2
I0601 15:51:34.328220 16695 net.cpp:395] conv7_2_relu -> conv7_2 (in-place)
I0601 15:51:34.328348 16695 net.cpp:150] Setting up conv7_2_relu
I0601 15:51:34.328356 16695 net.cpp:157] Top shape: 35 256 5 5 (224000)
I0601 15:51:34.328357 16695 net.cpp:165] Memory required for data: 8227896352
I0601 15:51:34.328359 16695 layer_factory.hpp:77] Creating layer conv7_2_conv7_2_relu_0_split
I0601 15:51:34.328364 16695 net.cpp:100] Creating Layer conv7_2_conv7_2_relu_0_split
I0601 15:51:34.328368 16695 net.cpp:434] conv7_2_conv7_2_relu_0_split <- conv7_2
I0601 15:51:34.328372 16695 net.cpp:408] conv7_2_conv7_2_relu_0_split -> conv7_2_conv7_2_relu_0_split_0
I0601 15:51:34.328378 16695 net.cpp:408] conv7_2_conv7_2_relu_0_split -> conv7_2_conv7_2_relu_0_split_1
I0601 15:51:34.328385 16695 net.cpp:408] conv7_2_conv7_2_relu_0_split -> conv7_2_conv7_2_relu_0_split_2
I0601 15:51:34.328390 16695 net.cpp:408] conv7_2_conv7_2_relu_0_split -> conv7_2_conv7_2_relu_0_split_3
I0601 15:51:34.328441 16695 net.cpp:150] Setting up conv7_2_conv7_2_relu_0_split
I0601 15:51:34.328446 16695 net.cpp:157] Top shape: 35 256 5 5 (224000)
I0601 15:51:34.328449 16695 net.cpp:157] Top shape: 35 256 5 5 (224000)
I0601 15:51:34.328452 16695 net.cpp:157] Top shape: 35 256 5 5 (224000)
I0601 15:51:34.328454 16695 net.cpp:157] Top shape: 35 256 5 5 (224000)
I0601 15:51:34.328456 16695 net.cpp:165] Memory required for data: 8231480352
I0601 15:51:34.328459 16695 layer_factory.hpp:77] Creating layer conv8_1
I0601 15:51:34.328467 16695 net.cpp:100] Creating Layer conv8_1
I0601 15:51:34.328471 16695 net.cpp:434] conv8_1 <- conv7_2_conv7_2_relu_0_split_0
I0601 15:51:34.328475 16695 net.cpp:408] conv8_1 -> conv8_1
I0601 15:51:34.329644 16695 net.cpp:150] Setting up conv8_1
I0601 15:51:34.329654 16695 net.cpp:157] Top shape: 35 128 5 5 (112000)
I0601 15:51:34.329656 16695 net.cpp:165] Memory required for data: 8231928352
I0601 15:51:34.329660 16695 layer_factory.hpp:77] Creating layer conv8_1_relu
I0601 15:51:34.329664 16695 net.cpp:100] Creating Layer conv8_1_relu
I0601 15:51:34.329668 16695 net.cpp:434] conv8_1_relu <- conv8_1
I0601 15:51:34.329670 16695 net.cpp:395] conv8_1_relu -> conv8_1 (in-place)
I0601 15:51:34.330261 16695 net.cpp:150] Setting up conv8_1_relu
I0601 15:51:34.330271 16695 net.cpp:157] Top shape: 35 128 5 5 (112000)
I0601 15:51:34.330273 16695 net.cpp:165] Memory required for data: 8232376352
I0601 15:51:34.330276 16695 layer_factory.hpp:77] Creating layer conv8_2
I0601 15:51:34.330281 16695 net.cpp:100] Creating Layer conv8_2
I0601 15:51:34.330284 16695 net.cpp:434] conv8_2 <- conv8_1
I0601 15:51:34.330291 16695 net.cpp:408] conv8_2 -> conv8_2
I0601 15:51:34.333222 16695 net.cpp:150] Setting up conv8_2
I0601 15:51:34.333235 16695 net.cpp:157] Top shape: 35 256 3 3 (80640)
I0601 15:51:34.333236 16695 net.cpp:165] Memory required for data: 8232698912
I0601 15:51:34.333242 16695 layer_factory.hpp:77] Creating layer conv8_2_relu
I0601 15:51:34.333261 16695 net.cpp:100] Creating Layer conv8_2_relu
I0601 15:51:34.333264 16695 net.cpp:434] conv8_2_relu <- conv8_2
I0601 15:51:34.333269 16695 net.cpp:395] conv8_2_relu -> conv8_2 (in-place)
I0601 15:51:34.333411 16695 net.cpp:150] Setting up conv8_2_relu
I0601 15:51:34.333417 16695 net.cpp:157] Top shape: 35 256 3 3 (80640)
I0601 15:51:34.333420 16695 net.cpp:165] Memory required for data: 8233021472
I0601 15:51:34.333422 16695 layer_factory.hpp:77] Creating layer conv8_2_conv8_2_relu_0_split
I0601 15:51:34.333427 16695 net.cpp:100] Creating Layer conv8_2_conv8_2_relu_0_split
I0601 15:51:34.333429 16695 net.cpp:434] conv8_2_conv8_2_relu_0_split <- conv8_2
I0601 15:51:34.333434 16695 net.cpp:408] conv8_2_conv8_2_relu_0_split -> conv8_2_conv8_2_relu_0_split_0
I0601 15:51:34.333453 16695 net.cpp:408] conv8_2_conv8_2_relu_0_split -> conv8_2_conv8_2_relu_0_split_1
I0601 15:51:34.333459 16695 net.cpp:408] conv8_2_conv8_2_relu_0_split -> conv8_2_conv8_2_relu_0_split_2
I0601 15:51:34.333463 16695 net.cpp:408] conv8_2_conv8_2_relu_0_split -> conv8_2_conv8_2_relu_0_split_3
I0601 15:51:34.333523 16695 net.cpp:150] Setting up conv8_2_conv8_2_relu_0_split
I0601 15:51:34.333528 16695 net.cpp:157] Top shape: 35 256 3 3 (80640)
I0601 15:51:34.333533 16695 net.cpp:157] Top shape: 35 256 3 3 (80640)
I0601 15:51:34.333534 16695 net.cpp:157] Top shape: 35 256 3 3 (80640)
I0601 15:51:34.333537 16695 net.cpp:157] Top shape: 35 256 3 3 (80640)
I0601 15:51:34.333539 16695 net.cpp:165] Memory required for data: 8234311712
I0601 15:51:34.333541 16695 layer_factory.hpp:77] Creating layer conv9_1
I0601 15:51:34.333549 16695 net.cpp:100] Creating Layer conv9_1
I0601 15:51:34.333552 16695 net.cpp:434] conv9_1 <- conv8_2_conv8_2_relu_0_split_0
I0601 15:51:34.333557 16695 net.cpp:408] conv9_1 -> conv9_1
I0601 15:51:34.334847 16695 net.cpp:150] Setting up conv9_1
I0601 15:51:34.334857 16695 net.cpp:157] Top shape: 35 128 3 3 (40320)
I0601 15:51:34.334859 16695 net.cpp:165] Memory required for data: 8234472992
I0601 15:51:34.334864 16695 layer_factory.hpp:77] Creating layer conv9_1_relu
I0601 15:51:34.334868 16695 net.cpp:100] Creating Layer conv9_1_relu
I0601 15:51:34.334872 16695 net.cpp:434] conv9_1_relu <- conv9_1
I0601 15:51:34.334875 16695 net.cpp:395] conv9_1_relu -> conv9_1 (in-place)
I0601 15:51:34.335016 16695 net.cpp:150] Setting up conv9_1_relu
I0601 15:51:34.335022 16695 net.cpp:157] Top shape: 35 128 3 3 (40320)
I0601 15:51:34.335024 16695 net.cpp:165] Memory required for data: 8234634272
I0601 15:51:34.335026 16695 layer_factory.hpp:77] Creating layer conv9_2
I0601 15:51:34.335033 16695 net.cpp:100] Creating Layer conv9_2
I0601 15:51:34.335036 16695 net.cpp:434] conv9_2 <- conv9_1
I0601 15:51:34.335041 16695 net.cpp:408] conv9_2 -> conv9_2
I0601 15:51:34.338070 16695 net.cpp:150] Setting up conv9_2
I0601 15:51:34.338091 16695 net.cpp:157] Top shape: 35 256 1 1 (8960)
I0601 15:51:34.338095 16695 net.cpp:165] Memory required for data: 8234670112
I0601 15:51:34.338104 16695 layer_factory.hpp:77] Creating layer conv9_2_relu
I0601 15:51:34.338114 16695 net.cpp:100] Creating Layer conv9_2_relu
I0601 15:51:34.338120 16695 net.cpp:434] conv9_2_relu <- conv9_2
I0601 15:51:34.338141 16695 net.cpp:395] conv9_2_relu -> conv9_2 (in-place)
I0601 15:51:34.338349 16695 net.cpp:150] Setting up conv9_2_relu
I0601 15:51:34.338363 16695 net.cpp:157] Top shape: 35 256 1 1 (8960)
I0601 15:51:34.338367 16695 net.cpp:165] Memory required for data: 8234705952
I0601 15:51:34.338372 16695 layer_factory.hpp:77] Creating layer conv9_2_conv9_2_relu_0_split
I0601 15:51:34.338382 16695 net.cpp:100] Creating Layer conv9_2_conv9_2_relu_0_split
I0601 15:51:34.338387 16695 net.cpp:434] conv9_2_conv9_2_relu_0_split <- conv9_2
I0601 15:51:34.338394 16695 net.cpp:408] conv9_2_conv9_2_relu_0_split -> conv9_2_conv9_2_relu_0_split_0
I0601 15:51:34.338405 16695 net.cpp:408] conv9_2_conv9_2_relu_0_split -> conv9_2_conv9_2_relu_0_split_1
I0601 15:51:34.338414 16695 net.cpp:408] conv9_2_conv9_2_relu_0_split -> conv9_2_conv9_2_relu_0_split_2
I0601 15:51:34.338484 16695 net.cpp:150] Setting up conv9_2_conv9_2_relu_0_split
I0601 15:51:34.338492 16695 net.cpp:157] Top shape: 35 256 1 1 (8960)
I0601 15:51:34.338500 16695 net.cpp:157] Top shape: 35 256 1 1 (8960)
I0601 15:51:34.338505 16695 net.cpp:157] Top shape: 35 256 1 1 (8960)
I0601 15:51:34.338510 16695 net.cpp:165] Memory required for data: 8234813472
I0601 15:51:34.338513 16695 layer_factory.hpp:77] Creating layer conv4_3_norm
I0601 15:51:34.338522 16695 net.cpp:100] Creating Layer conv4_3_norm
I0601 15:51:34.338528 16695 net.cpp:434] conv4_3_norm <- conv4_3_relu4_3_0_split_1
I0601 15:51:34.338536 16695 net.cpp:408] conv4_3_norm -> conv4_3_norm
I0601 15:51:34.338728 16695 net.cpp:150] Setting up conv4_3_norm
I0601 15:51:34.338738 16695 net.cpp:157] Top shape: 35 512 38 38 (25876480)
I0601 15:51:34.338742 16695 net.cpp:165] Memory required for data: 8338319392
I0601 15:51:34.338749 16695 layer_factory.hpp:77] Creating layer conv4_3_norm_conv4_3_norm_0_split
I0601 15:51:34.338757 16695 net.cpp:100] Creating Layer conv4_3_norm_conv4_3_norm_0_split
I0601 15:51:34.338762 16695 net.cpp:434] conv4_3_norm_conv4_3_norm_0_split <- conv4_3_norm
I0601 15:51:34.338781 16695 net.cpp:408] conv4_3_norm_conv4_3_norm_0_split -> conv4_3_norm_conv4_3_norm_0_split_0
I0601 15:51:34.338790 16695 net.cpp:408] conv4_3_norm_conv4_3_norm_0_split -> conv4_3_norm_conv4_3_norm_0_split_1
I0601 15:51:34.338798 16695 net.cpp:408] conv4_3_norm_conv4_3_norm_0_split -> conv4_3_norm_conv4_3_norm_0_split_2
I0601 15:51:34.338853 16695 net.cpp:150] Setting up conv4_3_norm_conv4_3_norm_0_split
I0601 15:51:34.338861 16695 net.cpp:157] Top shape: 35 512 38 38 (25876480)
I0601 15:51:34.338867 16695 net.cpp:157] Top shape: 35 512 38 38 (25876480)
I0601 15:51:34.338872 16695 net.cpp:157] Top shape: 35 512 38 38 (25876480)
I0601 15:51:34.338876 16695 net.cpp:165] Memory required for data: 8648837152
I0601 15:51:34.338881 16695 layer_factory.hpp:77] Creating layer conv4_3_norm_mbox_loc
I0601 15:51:34.338891 16695 net.cpp:100] Creating Layer conv4_3_norm_mbox_loc
I0601 15:51:34.338896 16695 net.cpp:434] conv4_3_norm_mbox_loc <- conv4_3_norm_conv4_3_norm_0_split_0
I0601 15:51:34.338906 16695 net.cpp:408] conv4_3_norm_mbox_loc -> conv4_3_norm_mbox_loc
I0601 15:51:34.341274 16695 net.cpp:150] Setting up conv4_3_norm_mbox_loc
I0601 15:51:34.341298 16695 net.cpp:157] Top shape: 35 16 38 38 (808640)
I0601 15:51:34.341300 16695 net.cpp:165] Memory required for data: 8652071712
I0601 15:51:34.341310 16695 layer_factory.hpp:77] Creating layer conv4_3_norm_mbox_loc_perm
I0601 15:51:34.341320 16695 net.cpp:100] Creating Layer conv4_3_norm_mbox_loc_perm
I0601 15:51:34.341326 16695 net.cpp:434] conv4_3_norm_mbox_loc_perm <- conv4_3_norm_mbox_loc
I0601 15:51:34.341334 16695 net.cpp:408] conv4_3_norm_mbox_loc_perm -> conv4_3_norm_mbox_loc_perm
I0601 15:51:34.341482 16695 net.cpp:150] Setting up conv4_3_norm_mbox_loc_perm
I0601 15:51:34.341492 16695 net.cpp:157] Top shape: 35 38 38 16 (808640)
I0601 15:51:34.341496 16695 net.cpp:165] Memory required for data: 8655306272
I0601 15:51:34.341500 16695 layer_factory.hpp:77] Creating layer conv4_3_norm_mbox_loc_flat
I0601 15:51:34.341508 16695 net.cpp:100] Creating Layer conv4_3_norm_mbox_loc_flat
I0601 15:51:34.341512 16695 net.cpp:434] conv4_3_norm_mbox_loc_flat <- conv4_3_norm_mbox_loc_perm
I0601 15:51:34.341518 16695 net.cpp:408] conv4_3_norm_mbox_loc_flat -> conv4_3_norm_mbox_loc_flat
I0601 15:51:34.341575 16695 net.cpp:150] Setting up conv4_3_norm_mbox_loc_flat
I0601 15:51:34.341584 16695 net.cpp:157] Top shape: 35 23104 (808640)
I0601 15:51:34.341589 16695 net.cpp:165] Memory required for data: 8658540832
I0601 15:51:34.341593 16695 layer_factory.hpp:77] Creating layer conv4_3_norm_mbox_conf
I0601 15:51:34.341625 16695 net.cpp:100] Creating Layer conv4_3_norm_mbox_conf
I0601 15:51:34.341632 16695 net.cpp:434] conv4_3_norm_mbox_conf <- conv4_3_norm_conv4_3_norm_0_split_1
I0601 15:51:34.341639 16695 net.cpp:408] conv4_3_norm_mbox_conf -> conv4_3_norm_mbox_conf
I0601 15:51:34.344121 16695 net.cpp:150] Setting up conv4_3_norm_mbox_conf
I0601 15:51:34.344141 16695 net.cpp:157] Top shape: 35 16 38 38 (808640)
I0601 15:51:34.344146 16695 net.cpp:165] Memory required for data: 8661775392
I0601 15:51:34.344156 16695 layer_factory.hpp:77] Creating layer conv4_3_norm_mbox_conf_perm
I0601 15:51:34.344167 16695 net.cpp:100] Creating Layer conv4_3_norm_mbox_conf_perm
I0601 15:51:34.344175 16695 net.cpp:434] conv4_3_norm_mbox_conf_perm <- conv4_3_norm_mbox_conf
I0601 15:51:34.344184 16695 net.cpp:408] conv4_3_norm_mbox_conf_perm -> conv4_3_norm_mbox_conf_perm
I0601 15:51:34.344314 16695 net.cpp:150] Setting up conv4_3_norm_mbox_conf_perm
I0601 15:51:34.344326 16695 net.cpp:157] Top shape: 35 38 38 16 (808640)
I0601 15:51:34.344329 16695 net.cpp:165] Memory required for data: 8665009952
I0601 15:51:34.344333 16695 layer_factory.hpp:77] Creating layer conv4_3_norm_mbox_conf_flat
I0601 15:51:34.344339 16695 net.cpp:100] Creating Layer conv4_3_norm_mbox_conf_flat
I0601 15:51:34.344344 16695 net.cpp:434] conv4_3_norm_mbox_conf_flat <- conv4_3_norm_mbox_conf_perm
I0601 15:51:34.344352 16695 net.cpp:408] conv4_3_norm_mbox_conf_flat -> conv4_3_norm_mbox_conf_flat
I0601 15:51:34.344395 16695 net.cpp:150] Setting up conv4_3_norm_mbox_conf_flat
I0601 15:51:34.344404 16695 net.cpp:157] Top shape: 35 23104 (808640)
I0601 15:51:34.344408 16695 net.cpp:165] Memory required for data: 8668244512
I0601 15:51:34.344413 16695 layer_factory.hpp:77] Creating layer conv4_3_norm_mbox_priorbox
I0601 15:51:34.344421 16695 net.cpp:100] Creating Layer conv4_3_norm_mbox_priorbox
I0601 15:51:34.344427 16695 net.cpp:434] conv4_3_norm_mbox_priorbox <- conv4_3_norm_conv4_3_norm_0_split_2
I0601 15:51:34.344434 16695 net.cpp:434] conv4_3_norm_mbox_priorbox <- data_data_0_split_1
I0601 15:51:34.344442 16695 net.cpp:408] conv4_3_norm_mbox_priorbox -> conv4_3_norm_mbox_priorbox
I0601 15:51:34.344480 16695 net.cpp:150] Setting up conv4_3_norm_mbox_priorbox
I0601 15:51:34.344490 16695 net.cpp:157] Top shape: 1 2 23104 (46208)
I0601 15:51:34.344493 16695 net.cpp:165] Memory required for data: 8668429344
I0601 15:51:34.344496 16695 layer_factory.hpp:77] Creating layer fc7_mbox_loc
I0601 15:51:34.344509 16695 net.cpp:100] Creating Layer fc7_mbox_loc
I0601 15:51:34.344516 16695 net.cpp:434] fc7_mbox_loc <- fc7_relu7_0_split_1
I0601 15:51:34.344523 16695 net.cpp:408] fc7_mbox_loc -> fc7_mbox_loc
I0601 15:51:34.347667 16695 net.cpp:150] Setting up fc7_mbox_loc
I0601 15:51:34.347687 16695 net.cpp:157] Top shape: 35 24 19 19 (303240)
I0601 15:51:34.347692 16695 net.cpp:165] Memory required for data: 8669642304
I0601 15:51:34.347702 16695 layer_factory.hpp:77] Creating layer fc7_mbox_loc_perm
I0601 15:51:34.347712 16695 net.cpp:100] Creating Layer fc7_mbox_loc_perm
I0601 15:51:34.347734 16695 net.cpp:434] fc7_mbox_loc_perm <- fc7_mbox_loc
I0601 15:51:34.347743 16695 net.cpp:408] fc7_mbox_loc_perm -> fc7_mbox_loc_perm
I0601 15:51:34.347872 16695 net.cpp:150] Setting up fc7_mbox_loc_perm
I0601 15:51:34.347883 16695 net.cpp:157] Top shape: 35 19 19 24 (303240)
I0601 15:51:34.347888 16695 net.cpp:165] Memory required for data: 8670855264
I0601 15:51:34.347892 16695 layer_factory.hpp:77] Creating layer fc7_mbox_loc_flat
I0601 15:51:34.347898 16695 net.cpp:100] Creating Layer fc7_mbox_loc_flat
I0601 15:51:34.347903 16695 net.cpp:434] fc7_mbox_loc_flat <- fc7_mbox_loc_perm
I0601 15:51:34.347909 16695 net.cpp:408] fc7_mbox_loc_flat -> fc7_mbox_loc_flat
I0601 15:51:34.347939 16695 net.cpp:150] Setting up fc7_mbox_loc_flat
I0601 15:51:34.347947 16695 net.cpp:157] Top shape: 35 8664 (303240)
I0601 15:51:34.347951 16695 net.cpp:165] Memory required for data: 8672068224
I0601 15:51:34.347955 16695 layer_factory.hpp:77] Creating layer fc7_mbox_conf
I0601 15:51:34.347968 16695 net.cpp:100] Creating Layer fc7_mbox_conf
I0601 15:51:34.347973 16695 net.cpp:434] fc7_mbox_conf <- fc7_relu7_0_split_2
I0601 15:51:34.347981 16695 net.cpp:408] fc7_mbox_conf -> fc7_mbox_conf
I0601 15:51:34.350939 16695 net.cpp:150] Setting up fc7_mbox_conf
I0601 15:51:34.350970 16695 net.cpp:157] Top shape: 35 24 19 19 (303240)
I0601 15:51:34.350972 16695 net.cpp:165] Memory required for data: 8673281184
I0601 15:51:34.350980 16695 layer_factory.hpp:77] Creating layer fc7_mbox_conf_perm
I0601 15:51:34.350989 16695 net.cpp:100] Creating Layer fc7_mbox_conf_perm
I0601 15:51:34.350996 16695 net.cpp:434] fc7_mbox_conf_perm <- fc7_mbox_conf
I0601 15:51:34.351003 16695 net.cpp:408] fc7_mbox_conf_perm -> fc7_mbox_conf_perm
I0601 15:51:34.351136 16695 net.cpp:150] Setting up fc7_mbox_conf_perm
I0601 15:51:34.351150 16695 net.cpp:157] Top shape: 35 19 19 24 (303240)
I0601 15:51:34.351155 16695 net.cpp:165] Memory required for data: 8674494144
I0601 15:51:34.351158 16695 layer_factory.hpp:77] Creating layer fc7_mbox_conf_flat
I0601 15:51:34.351166 16695 net.cpp:100] Creating Layer fc7_mbox_conf_flat
I0601 15:51:34.351171 16695 net.cpp:434] fc7_mbox_conf_flat <- fc7_mbox_conf_perm
I0601 15:51:34.351177 16695 net.cpp:408] fc7_mbox_conf_flat -> fc7_mbox_conf_flat
I0601 15:51:34.351208 16695 net.cpp:150] Setting up fc7_mbox_conf_flat
I0601 15:51:34.351217 16695 net.cpp:157] Top shape: 35 8664 (303240)
I0601 15:51:34.351222 16695 net.cpp:165] Memory required for data: 8675707104
I0601 15:51:34.351238 16695 layer_factory.hpp:77] Creating layer fc7_mbox_priorbox
I0601 15:51:34.351246 16695 net.cpp:100] Creating Layer fc7_mbox_priorbox
I0601 15:51:34.351253 16695 net.cpp:434] fc7_mbox_priorbox <- fc7_relu7_0_split_3
I0601 15:51:34.351258 16695 net.cpp:434] fc7_mbox_priorbox <- data_data_0_split_2
I0601 15:51:34.351269 16695 net.cpp:408] fc7_mbox_priorbox -> fc7_mbox_priorbox
I0601 15:51:34.351300 16695 net.cpp:150] Setting up fc7_mbox_priorbox
I0601 15:51:34.351312 16695 net.cpp:157] Top shape: 1 2 8664 (17328)
I0601 15:51:34.351317 16695 net.cpp:165] Memory required for data: 8675776416
I0601 15:51:34.351320 16695 layer_factory.hpp:77] Creating layer conv6_2_mbox_loc
I0601 15:51:34.351332 16695 net.cpp:100] Creating Layer conv6_2_mbox_loc
I0601 15:51:34.351338 16695 net.cpp:434] conv6_2_mbox_loc <- conv6_2_conv6_2_relu_0_split_1
I0601 15:51:34.351347 16695 net.cpp:408] conv6_2_mbox_loc -> conv6_2_mbox_loc
I0601 15:51:34.354040 16695 net.cpp:150] Setting up conv6_2_mbox_loc
I0601 15:51:34.354058 16695 net.cpp:157] Top shape: 35 24 10 10 (84000)
I0601 15:51:34.354061 16695 net.cpp:165] Memory required for data: 8676112416
I0601 15:51:34.354068 16695 layer_factory.hpp:77] Creating layer conv6_2_mbox_loc_perm
I0601 15:51:34.354077 16695 net.cpp:100] Creating Layer conv6_2_mbox_loc_perm
I0601 15:51:34.354085 16695 net.cpp:434] conv6_2_mbox_loc_perm <- conv6_2_mbox_loc
I0601 15:51:34.354094 16695 net.cpp:408] conv6_2_mbox_loc_perm -> conv6_2_mbox_loc_perm
I0601 15:51:34.354245 16695 net.cpp:150] Setting up conv6_2_mbox_loc_perm
I0601 15:51:34.354257 16695 net.cpp:157] Top shape: 35 10 10 24 (84000)
I0601 15:51:34.354275 16695 net.cpp:165] Memory required for data: 8676448416
I0601 15:51:34.354279 16695 layer_factory.hpp:77] Creating layer conv6_2_mbox_loc_flat
I0601 15:51:34.354287 16695 net.cpp:100] Creating Layer conv6_2_mbox_loc_flat
I0601 15:51:34.354292 16695 net.cpp:434] conv6_2_mbox_loc_flat <- conv6_2_mbox_loc_perm
I0601 15:51:34.354300 16695 net.cpp:408] conv6_2_mbox_loc_flat -> conv6_2_mbox_loc_flat
I0601 15:51:34.354327 16695 net.cpp:150] Setting up conv6_2_mbox_loc_flat
I0601 15:51:34.354337 16695 net.cpp:157] Top shape: 35 2400 (84000)
I0601 15:51:34.354341 16695 net.cpp:165] Memory required for data: 8676784416
I0601 15:51:34.354346 16695 layer_factory.hpp:77] Creating layer conv6_2_mbox_conf
I0601 15:51:34.354357 16695 net.cpp:100] Creating Layer conv6_2_mbox_conf
I0601 15:51:34.354363 16695 net.cpp:434] conv6_2_mbox_conf <- conv6_2_conv6_2_relu_0_split_2
I0601 15:51:34.354372 16695 net.cpp:408] conv6_2_mbox_conf -> conv6_2_mbox_conf
I0601 15:51:34.356704 16695 net.cpp:150] Setting up conv6_2_mbox_conf
I0601 15:51:34.356720 16695 net.cpp:157] Top shape: 35 24 10 10 (84000)
I0601 15:51:34.356724 16695 net.cpp:165] Memory required for data: 8677120416
I0601 15:51:34.356729 16695 layer_factory.hpp:77] Creating layer conv6_2_mbox_conf_perm
I0601 15:51:34.356737 16695 net.cpp:100] Creating Layer conv6_2_mbox_conf_perm
I0601 15:51:34.356744 16695 net.cpp:434] conv6_2_mbox_conf_perm <- conv6_2_mbox_conf
I0601 15:51:34.356752 16695 net.cpp:408] conv6_2_mbox_conf_perm -> conv6_2_mbox_conf_perm
I0601 15:51:34.356895 16695 net.cpp:150] Setting up conv6_2_mbox_conf_perm
I0601 15:51:34.356907 16695 net.cpp:157] Top shape: 35 10 10 24 (84000)
I0601 15:51:34.356911 16695 net.cpp:165] Memory required for data: 8677456416
I0601 15:51:34.356915 16695 layer_factory.hpp:77] Creating layer conv6_2_mbox_conf_flat
I0601 15:51:34.356922 16695 net.cpp:100] Creating Layer conv6_2_mbox_conf_flat
I0601 15:51:34.356926 16695 net.cpp:434] conv6_2_mbox_conf_flat <- conv6_2_mbox_conf_perm
I0601 15:51:34.356951 16695 net.cpp:408] conv6_2_mbox_conf_flat -> conv6_2_mbox_conf_flat
I0601 15:51:34.356995 16695 net.cpp:150] Setting up conv6_2_mbox_conf_flat
I0601 15:51:34.357003 16695 net.cpp:157] Top shape: 35 2400 (84000)
I0601 15:51:34.357019 16695 net.cpp:165] Memory required for data: 8677792416
I0601 15:51:34.357023 16695 layer_factory.hpp:77] Creating layer conv6_2_mbox_priorbox
I0601 15:51:34.357071 16695 net.cpp:100] Creating Layer conv6_2_mbox_priorbox
I0601 15:51:34.357076 16695 net.cpp:434] conv6_2_mbox_priorbox <- conv6_2_conv6_2_relu_0_split_3
I0601 15:51:34.357082 16695 net.cpp:434] conv6_2_mbox_priorbox <- data_data_0_split_3
I0601 15:51:34.357110 16695 net.cpp:408] conv6_2_mbox_priorbox -> conv6_2_mbox_priorbox
I0601 15:51:34.357149 16695 net.cpp:150] Setting up conv6_2_mbox_priorbox
I0601 15:51:34.357159 16695 net.cpp:157] Top shape: 1 2 2400 (4800)
I0601 15:51:34.357163 16695 net.cpp:165] Memory required for data: 8677811616
I0601 15:51:34.357167 16695 layer_factory.hpp:77] Creating layer conv7_2_mbox_loc
I0601 15:51:34.357179 16695 net.cpp:100] Creating Layer conv7_2_mbox_loc
I0601 15:51:34.357184 16695 net.cpp:434] conv7_2_mbox_loc <- conv7_2_conv7_2_relu_0_split_1
I0601 15:51:34.357193 16695 net.cpp:408] conv7_2_mbox_loc -> conv7_2_mbox_loc
I0601 15:51:34.358827 16695 net.cpp:150] Setting up conv7_2_mbox_loc
I0601 15:51:34.358844 16695 net.cpp:157] Top shape: 35 24 5 5 (21000)
I0601 15:51:34.358845 16695 net.cpp:165] Memory required for data: 8677895616
I0601 15:51:34.358852 16695 layer_factory.hpp:77] Creating layer conv7_2_mbox_loc_perm
I0601 15:51:34.358860 16695 net.cpp:100] Creating Layer conv7_2_mbox_loc_perm
I0601 15:51:34.358867 16695 net.cpp:434] conv7_2_mbox_loc_perm <- conv7_2_mbox_loc
I0601 15:51:34.358873 16695 net.cpp:408] conv7_2_mbox_loc_perm -> conv7_2_mbox_loc_perm
I0601 15:51:34.359007 16695 net.cpp:150] Setting up conv7_2_mbox_loc_perm
I0601 15:51:34.359019 16695 net.cpp:157] Top shape: 35 5 5 24 (21000)
I0601 15:51:34.359024 16695 net.cpp:165] Memory required for data: 8677979616
I0601 15:51:34.359027 16695 layer_factory.hpp:77] Creating layer conv7_2_mbox_loc_flat
I0601 15:51:34.359035 16695 net.cpp:100] Creating Layer conv7_2_mbox_loc_flat
I0601 15:51:34.359041 16695 net.cpp:434] conv7_2_mbox_loc_flat <- conv7_2_mbox_loc_perm
I0601 15:51:34.359050 16695 net.cpp:408] conv7_2_mbox_loc_flat -> conv7_2_mbox_loc_flat
I0601 15:51:34.359078 16695 net.cpp:150] Setting up conv7_2_mbox_loc_flat
I0601 15:51:34.359086 16695 net.cpp:157] Top shape: 35 600 (21000)
I0601 15:51:34.359091 16695 net.cpp:165] Memory required for data: 8678063616
I0601 15:51:34.359094 16695 layer_factory.hpp:77] Creating layer conv7_2_mbox_conf
I0601 15:51:34.359105 16695 net.cpp:100] Creating Layer conv7_2_mbox_conf
I0601 15:51:34.359110 16695 net.cpp:434] conv7_2_mbox_conf <- conv7_2_conv7_2_relu_0_split_2
I0601 15:51:34.359117 16695 net.cpp:408] conv7_2_mbox_conf -> conv7_2_mbox_conf
I0601 15:51:34.361353 16695 net.cpp:150] Setting up conv7_2_mbox_conf
I0601 15:51:34.361368 16695 net.cpp:157] Top shape: 35 24 5 5 (21000)
I0601 15:51:34.361371 16695 net.cpp:165] Memory required for data: 8678147616
I0601 15:51:34.361377 16695 layer_factory.hpp:77] Creating layer conv7_2_mbox_conf_perm
I0601 15:51:34.361387 16695 net.cpp:100] Creating Layer conv7_2_mbox_conf_perm
I0601 15:51:34.361393 16695 net.cpp:434] conv7_2_mbox_conf_perm <- conv7_2_mbox_conf
I0601 15:51:34.361400 16695 net.cpp:408] conv7_2_mbox_conf_perm -> conv7_2_mbox_conf_perm
I0601 15:51:34.361536 16695 net.cpp:150] Setting up conv7_2_mbox_conf_perm
I0601 15:51:34.361546 16695 net.cpp:157] Top shape: 35 5 5 24 (21000)
I0601 15:51:34.361552 16695 net.cpp:165] Memory required for data: 8678231616
I0601 15:51:34.361555 16695 layer_factory.hpp:77] Creating layer conv7_2_mbox_conf_flat
I0601 15:51:34.361563 16695 net.cpp:100] Creating Layer conv7_2_mbox_conf_flat
I0601 15:51:34.361569 16695 net.cpp:434] conv7_2_mbox_conf_flat <- conv7_2_mbox_conf_perm
I0601 15:51:34.361575 16695 net.cpp:408] conv7_2_mbox_conf_flat -> conv7_2_mbox_conf_flat
I0601 15:51:34.361605 16695 net.cpp:150] Setting up conv7_2_mbox_conf_flat
I0601 15:51:34.361613 16695 net.cpp:157] Top shape: 35 600 (21000)
I0601 15:51:34.361618 16695 net.cpp:165] Memory required for data: 8678315616
I0601 15:51:34.361620 16695 layer_factory.hpp:77] Creating layer conv7_2_mbox_priorbox
I0601 15:51:34.361629 16695 net.cpp:100] Creating Layer conv7_2_mbox_priorbox
I0601 15:51:34.361635 16695 net.cpp:434] conv7_2_mbox_priorbox <- conv7_2_conv7_2_relu_0_split_3
I0601 15:51:34.361654 16695 net.cpp:434] conv7_2_mbox_priorbox <- data_data_0_split_4
I0601 15:51:34.361662 16695 net.cpp:408] conv7_2_mbox_priorbox -> conv7_2_mbox_priorbox
I0601 15:51:34.361697 16695 net.cpp:150] Setting up conv7_2_mbox_priorbox
I0601 15:51:34.361706 16695 net.cpp:157] Top shape: 1 2 600 (1200)
I0601 15:51:34.361711 16695 net.cpp:165] Memory required for data: 8678320416
I0601 15:51:34.361713 16695 layer_factory.hpp:77] Creating layer conv8_2_mbox_loc
I0601 15:51:34.361726 16695 net.cpp:100] Creating Layer conv8_2_mbox_loc
I0601 15:51:34.361730 16695 net.cpp:434] conv8_2_mbox_loc <- conv8_2_conv8_2_relu_0_split_1
I0601 15:51:34.361739 16695 net.cpp:408] conv8_2_mbox_loc -> conv8_2_mbox_loc
I0601 15:51:34.363814 16695 net.cpp:150] Setting up conv8_2_mbox_loc
I0601 15:51:34.363829 16695 net.cpp:157] Top shape: 35 16 3 3 (5040)
I0601 15:51:34.363831 16695 net.cpp:165] Memory required for data: 8678340576
I0601 15:51:34.363848 16695 layer_factory.hpp:77] Creating layer conv8_2_mbox_loc_perm
I0601 15:51:34.363859 16695 net.cpp:100] Creating Layer conv8_2_mbox_loc_perm
I0601 15:51:34.363865 16695 net.cpp:434] conv8_2_mbox_loc_perm <- conv8_2_mbox_loc
I0601 15:51:34.363873 16695 net.cpp:408] conv8_2_mbox_loc_perm -> conv8_2_mbox_loc_perm
I0601 15:51:34.364012 16695 net.cpp:150] Setting up conv8_2_mbox_loc_perm
I0601 15:51:34.364022 16695 net.cpp:157] Top shape: 35 3 3 16 (5040)
I0601 15:51:34.364027 16695 net.cpp:165] Memory required for data: 8678360736
I0601 15:51:34.364030 16695 layer_factory.hpp:77] Creating layer conv8_2_mbox_loc_flat
I0601 15:51:34.364037 16695 net.cpp:100] Creating Layer conv8_2_mbox_loc_flat
I0601 15:51:34.364042 16695 net.cpp:434] conv8_2_mbox_loc_flat <- conv8_2_mbox_loc_perm
I0601 15:51:34.364051 16695 net.cpp:408] conv8_2_mbox_loc_flat -> conv8_2_mbox_loc_flat
I0601 15:51:34.364081 16695 net.cpp:150] Setting up conv8_2_mbox_loc_flat
I0601 15:51:34.364089 16695 net.cpp:157] Top shape: 35 144 (5040)
I0601 15:51:34.364094 16695 net.cpp:165] Memory required for data: 8678380896
I0601 15:51:34.364097 16695 layer_factory.hpp:77] Creating layer conv8_2_mbox_conf
I0601 15:51:34.364109 16695 net.cpp:100] Creating Layer conv8_2_mbox_conf
I0601 15:51:34.364115 16695 net.cpp:434] conv8_2_mbox_conf <- conv8_2_conv8_2_relu_0_split_2
I0601 15:51:34.364123 16695 net.cpp:408] conv8_2_mbox_conf -> conv8_2_mbox_conf
I0601 15:51:34.366096 16695 net.cpp:150] Setting up conv8_2_mbox_conf
I0601 15:51:34.366107 16695 net.cpp:157] Top shape: 35 16 3 3 (5040)
I0601 15:51:34.366111 16695 net.cpp:165] Memory required for data: 8678401056
I0601 15:51:34.366117 16695 layer_factory.hpp:77] Creating layer conv8_2_mbox_conf_perm
I0601 15:51:34.366124 16695 net.cpp:100] Creating Layer conv8_2_mbox_conf_perm
I0601 15:51:34.366130 16695 net.cpp:434] conv8_2_mbox_conf_perm <- conv8_2_mbox_conf
I0601 15:51:34.366140 16695 net.cpp:408] conv8_2_mbox_conf_perm -> conv8_2_mbox_conf_perm
I0601 15:51:34.366273 16695 net.cpp:150] Setting up conv8_2_mbox_conf_perm
I0601 15:51:34.366284 16695 net.cpp:157] Top shape: 35 3 3 16 (5040)
I0601 15:51:34.366288 16695 net.cpp:165] Memory required for data: 8678421216
I0601 15:51:34.366292 16695 layer_factory.hpp:77] Creating layer conv8_2_mbox_conf_flat
I0601 15:51:34.366299 16695 net.cpp:100] Creating Layer conv8_2_mbox_conf_flat
I0601 15:51:34.366303 16695 net.cpp:434] conv8_2_mbox_conf_flat <- conv8_2_mbox_conf_perm
I0601 15:51:34.366307 16695 net.cpp:408] conv8_2_mbox_conf_flat -> conv8_2_mbox_conf_flat
I0601 15:51:34.366329 16695 net.cpp:150] Setting up conv8_2_mbox_conf_flat
I0601 15:51:34.366334 16695 net.cpp:157] Top shape: 35 144 (5040)
I0601 15:51:34.366336 16695 net.cpp:165] Memory required for data: 8678441376
I0601 15:51:34.366338 16695 layer_factory.hpp:77] Creating layer conv8_2_mbox_priorbox
I0601 15:51:34.366346 16695 net.cpp:100] Creating Layer conv8_2_mbox_priorbox
I0601 15:51:34.366351 16695 net.cpp:434] conv8_2_mbox_priorbox <- conv8_2_conv8_2_relu_0_split_3
I0601 15:51:34.366358 16695 net.cpp:434] conv8_2_mbox_priorbox <- data_data_0_split_5
I0601 15:51:34.366379 16695 net.cpp:408] conv8_2_mbox_priorbox -> conv8_2_mbox_priorbox
I0601 15:51:34.366411 16695 net.cpp:150] Setting up conv8_2_mbox_priorbox
I0601 15:51:34.366417 16695 net.cpp:157] Top shape: 1 2 144 (288)
I0601 15:51:34.366420 16695 net.cpp:165] Memory required for data: 8678442528
I0601 15:51:34.366423 16695 layer_factory.hpp:77] Creating layer conv9_2_mbox_loc
I0601 15:51:34.366433 16695 net.cpp:100] Creating Layer conv9_2_mbox_loc
I0601 15:51:34.366438 16695 net.cpp:434] conv9_2_mbox_loc <- conv9_2_conv9_2_relu_0_split_0
I0601 15:51:34.366444 16695 net.cpp:408] conv9_2_mbox_loc -> conv9_2_mbox_loc
I0601 15:51:34.368628 16695 net.cpp:150] Setting up conv9_2_mbox_loc
I0601 15:51:34.368644 16695 net.cpp:157] Top shape: 35 16 1 1 (560)
I0601 15:51:34.368646 16695 net.cpp:165] Memory required for data: 8678444768
I0601 15:51:34.368654 16695 layer_factory.hpp:77] Creating layer conv9_2_mbox_loc_perm
I0601 15:51:34.368662 16695 net.cpp:100] Creating Layer conv9_2_mbox_loc_perm
I0601 15:51:34.368669 16695 net.cpp:434] conv9_2_mbox_loc_perm <- conv9_2_mbox_loc
I0601 15:51:34.368675 16695 net.cpp:408] conv9_2_mbox_loc_perm -> conv9_2_mbox_loc_perm
I0601 15:51:34.368810 16695 net.cpp:150] Setting up conv9_2_mbox_loc_perm
I0601 15:51:34.368820 16695 net.cpp:157] Top shape: 35 1 1 16 (560)
I0601 15:51:34.368825 16695 net.cpp:165] Memory required for data: 8678447008
I0601 15:51:34.368829 16695 layer_factory.hpp:77] Creating layer conv9_2_mbox_loc_flat
I0601 15:51:34.368840 16695 net.cpp:100] Creating Layer conv9_2_mbox_loc_flat
I0601 15:51:34.368845 16695 net.cpp:434] conv9_2_mbox_loc_flat <- conv9_2_mbox_loc_perm
I0601 15:51:34.368854 16695 net.cpp:408] conv9_2_mbox_loc_flat -> conv9_2_mbox_loc_flat
I0601 15:51:34.368894 16695 net.cpp:150] Setting up conv9_2_mbox_loc_flat
I0601 15:51:34.368903 16695 net.cpp:157] Top shape: 35 16 (560)
I0601 15:51:34.368907 16695 net.cpp:165] Memory required for data: 8678449248
I0601 15:51:34.368912 16695 layer_factory.hpp:77] Creating layer conv9_2_mbox_conf
I0601 15:51:34.368924 16695 net.cpp:100] Creating Layer conv9_2_mbox_conf
I0601 15:51:34.368930 16695 net.cpp:434] conv9_2_mbox_conf <- conv9_2_conv9_2_relu_0_split_1
I0601 15:51:34.368938 16695 net.cpp:408] conv9_2_mbox_conf -> conv9_2_mbox_conf
I0601 15:51:34.371386 16695 net.cpp:150] Setting up conv9_2_mbox_conf
I0601 15:51:34.371402 16695 net.cpp:157] Top shape: 35 16 1 1 (560)
I0601 15:51:34.371403 16695 net.cpp:165] Memory required for data: 8678451488
I0601 15:51:34.371409 16695 layer_factory.hpp:77] Creating layer conv9_2_mbox_conf_perm
I0601 15:51:34.371419 16695 net.cpp:100] Creating Layer conv9_2_mbox_conf_perm
I0601 15:51:34.371424 16695 net.cpp:434] conv9_2_mbox_conf_perm <- conv9_2_mbox_conf
I0601 15:51:34.371433 16695 net.cpp:408] conv9_2_mbox_conf_perm -> conv9_2_mbox_conf_perm
I0601 15:51:34.371584 16695 net.cpp:150] Setting up conv9_2_mbox_conf_perm
I0601 15:51:34.371596 16695 net.cpp:157] Top shape: 35 1 1 16 (560)
I0601 15:51:34.371614 16695 net.cpp:165] Memory required for data: 8678453728
I0601 15:51:34.371618 16695 layer_factory.hpp:77] Creating layer conv9_2_mbox_conf_flat
I0601 15:51:34.371639 16695 net.cpp:100] Creating Layer conv9_2_mbox_conf_flat
I0601 15:51:34.371644 16695 net.cpp:434] conv9_2_mbox_conf_flat <- conv9_2_mbox_conf_perm
I0601 15:51:34.371650 16695 net.cpp:408] conv9_2_mbox_conf_flat -> conv9_2_mbox_conf_flat
I0601 15:51:34.371695 16695 net.cpp:150] Setting up conv9_2_mbox_conf_flat
I0601 15:51:34.371701 16695 net.cpp:157] Top shape: 35 16 (560)
I0601 15:51:34.371706 16695 net.cpp:165] Memory required for data: 8678455968
I0601 15:51:34.371709 16695 layer_factory.hpp:77] Creating layer conv9_2_mbox_priorbox
I0601 15:51:34.371718 16695 net.cpp:100] Creating Layer conv9_2_mbox_priorbox
I0601 15:51:34.371722 16695 net.cpp:434] conv9_2_mbox_priorbox <- conv9_2_conv9_2_relu_0_split_2
I0601 15:51:34.371728 16695 net.cpp:434] conv9_2_mbox_priorbox <- data_data_0_split_6
I0601 15:51:34.371736 16695 net.cpp:408] conv9_2_mbox_priorbox -> conv9_2_mbox_priorbox
I0601 15:51:34.371780 16695 net.cpp:150] Setting up conv9_2_mbox_priorbox
I0601 15:51:34.371789 16695 net.cpp:157] Top shape: 1 2 16 (32)
I0601 15:51:34.371794 16695 net.cpp:165] Memory required for data: 8678456096
I0601 15:51:34.371798 16695 layer_factory.hpp:77] Creating layer mbox_loc
I0601 15:51:34.371805 16695 net.cpp:100] Creating Layer mbox_loc
I0601 15:51:34.371809 16695 net.cpp:434] mbox_loc <- conv4_3_norm_mbox_loc_flat
I0601 15:51:34.371816 16695 net.cpp:434] mbox_loc <- fc7_mbox_loc_flat
I0601 15:51:34.371821 16695 net.cpp:434] mbox_loc <- conv6_2_mbox_loc_flat
I0601 15:51:34.371826 16695 net.cpp:434] mbox_loc <- conv7_2_mbox_loc_flat
I0601 15:51:34.371831 16695 net.cpp:434] mbox_loc <- conv8_2_mbox_loc_flat
I0601 15:51:34.371836 16695 net.cpp:434] mbox_loc <- conv9_2_mbox_loc_flat
I0601 15:51:34.371842 16695 net.cpp:408] mbox_loc -> mbox_loc
I0601 15:51:34.371877 16695 net.cpp:150] Setting up mbox_loc
I0601 15:51:34.371884 16695 net.cpp:157] Top shape: 35 34928 (1222480)
I0601 15:51:34.371889 16695 net.cpp:165] Memory required for data: 8683346016
I0601 15:51:34.371893 16695 layer_factory.hpp:77] Creating layer mbox_conf
I0601 15:51:34.371899 16695 net.cpp:100] Creating Layer mbox_conf
I0601 15:51:34.371903 16695 net.cpp:434] mbox_conf <- conv4_3_norm_mbox_conf_flat
I0601 15:51:34.371908 16695 net.cpp:434] mbox_conf <- fc7_mbox_conf_flat
I0601 15:51:34.371913 16695 net.cpp:434] mbox_conf <- conv6_2_mbox_conf_flat
I0601 15:51:34.371918 16695 net.cpp:434] mbox_conf <- conv7_2_mbox_conf_flat
I0601 15:51:34.371922 16695 net.cpp:434] mbox_conf <- conv8_2_mbox_conf_flat
I0601 15:51:34.371927 16695 net.cpp:434] mbox_conf <- conv9_2_mbox_conf_flat
I0601 15:51:34.371933 16695 net.cpp:408] mbox_conf -> mbox_conf
I0601 15:51:34.371961 16695 net.cpp:150] Setting up mbox_conf
I0601 15:51:34.371968 16695 net.cpp:157] Top shape: 35 34928 (1222480)
I0601 15:51:34.371973 16695 net.cpp:165] Memory required for data: 8688235936
I0601 15:51:34.371978 16695 layer_factory.hpp:77] Creating layer mbox_priorbox
I0601 15:51:34.371983 16695 net.cpp:100] Creating Layer mbox_priorbox
I0601 15:51:34.371986 16695 net.cpp:434] mbox_priorbox <- conv4_3_norm_mbox_priorbox
I0601 15:51:34.371991 16695 net.cpp:434] mbox_priorbox <- fc7_mbox_priorbox
I0601 15:51:34.371996 16695 net.cpp:434] mbox_priorbox <- conv6_2_mbox_priorbox
I0601 15:51:34.372000 16695 net.cpp:434] mbox_priorbox <- conv7_2_mbox_priorbox
I0601 15:51:34.372004 16695 net.cpp:434] mbox_priorbox <- conv8_2_mbox_priorbox
I0601 15:51:34.372009 16695 net.cpp:434] mbox_priorbox <- conv9_2_mbox_priorbox
I0601 15:51:34.372014 16695 net.cpp:408] mbox_priorbox -> mbox_priorbox
I0601 15:51:34.372042 16695 net.cpp:150] Setting up mbox_priorbox
I0601 15:51:34.372050 16695 net.cpp:157] Top shape: 1 2 34928 (69856)
I0601 15:51:34.372054 16695 net.cpp:165] Memory required for data: 8688515360
I0601 15:51:34.372058 16695 layer_factory.hpp:77] Creating layer mbox_loss
I0601 15:51:34.372069 16695 net.cpp:100] Creating Layer mbox_loss
I0601 15:51:34.372074 16695 net.cpp:434] mbox_loss <- mbox_loc
I0601 15:51:34.372081 16695 net.cpp:434] mbox_loss <- mbox_conf
I0601 15:51:34.372084 16695 net.cpp:434] mbox_loss <- mbox_priorbox
…
  name: "data"
  type: "AnnotatedData"
  top: "data"
  top: "label"
  include {
    phase: TEST
  }
  transform_param {
    mean_value: 104
    mean_value: 117
    mean_value: 123
    resize_param {
      prob: 1
      resize_mode: WARP
      height: 300
      width: 300
      interp_mode: LINEAR
    }
  }
  data_param {
    source: "examples/tbs_300x300_HSIL_10x/tbs_300x300_HSIL_10x_test_lmdb"
    batch_size: 4
    backend: LMDB
  }
  annotated_data_param {
    batch_sampler {
    }
    label_map_file: "data/tbs_300x300_HSIL_10x/labelmap_tbs.prototxt"
  }
}
layer {
  name: "conv1_1"
  type: "Convolution"
  bottom: "data"
  top: "conv1_1"
  param {
    lr_mult: 1
    decay_mult: 1
  }
  param {
    lr_mult: 2
    decay_mult: 0
  }
  convolution_param {
    num_output: 64
    pad: 1
    kernel_size: 3
    weight_filler {
      type: "xavier"
    }
    bias_filler {
      type: "constant"
      value: 0
    }
  }
}
layer {
  name: "relu1_1"
  type: "ReLU"
  bottom: "conv1_1"
  top: "conv1_1"
}
layer {
  name: "conv1_2"
  type: "Convolution"
  bottom: "conv1_1"
  top: "conv1_2"
  param {
    lr_mult: 1
    decay_mult: 1
  }
  param {
    lr_mult: 2
    decay_mult: 0
  }
  convolution_param {
    num_output: 64
    pad: 1
    kernel_size: 3
    weight_filler {
      type: "xavier"
    }
    bias_filler {
      type: "constant"
      value: 0
    }
  }
}
layer {
  name: "relu1_2"
  type: "ReLU"
  bottom: "conv1_2"
  top: "conv1_2"
}
layer {
  name: "pool1"
  type: "Pooling"
  bottom: "conv1_2"
  top: "pool1"
  pooling_param {
    pool: MAX
    kernel_size: 2
    stride: 2
  }
}
layer {
  name: "conv2_1"
  type: "Convolution"
  bottom: "pool1"
  top: "conv2_1"
  param {
    lr_mult: 1
    decay_mult: 1
  }
  param {
    lr_mult: 2
    decay_mult: 0
  }
  convolution_param {
    num_output: 128
    pad: 1
    kernel_size: 3
    weight_filler {
      type: "xavier"
    }
    bias_filler {
      type: "constant"
      value: 0
    }
  }
}
layer {
  name: "relu2_1"
  type: "ReLU"
  bottom: "conv2_1"
  top: "conv2_1"
}
layer {
  name: "conv2_2"
  type: "Convolution"
  bottom: "conv2_1"
  top: "conv2_2"
  param {
    lr_mult: 1
    decay_mult: 1
  }
  param {
    lr_mult: 2
    decay_mult: 0
  }
  convolution_param {
    num_output: 128
    pad: 1
    kernel_size: 3
    weight_filler {
      type: "xavier"
    }
    bias_filler {
      type: "constant"
      value: 0
    }
  }
}
layer {
  name: "relu2_2"
  type: "ReLU"
  bottom: "conv2_2"
  top: "conv2_2"
}
layer {
  name: "pool2"
  type: "Pooling"
  bottom: "conv2_2"
  top: "pool2"
  pooling_param {
    pool: MAX
    kernel_size: 2
    stride: 2
  }
}
layer {
  name: "conv3_1"
  type: "Convolution"
  bottom: "pool2"
  top: "conv3_1"
  param {
    lr_mult: 1
    decay_mult: 1
  }
  param {
    lr_mult: 2
    decay_mult: 0
  }
  convolution_param {
    num_output: 256
    pad: 1
    kernel_size: 3
    weight_filler {
      type: "xavier"
    }
    bias_filler {
      type: "constant"
      value: 0
    }
  }
}
layer {
  name: "relu3_1"
  type: "ReLU"
  bottom: "conv3_1"
  top: "conv3_1"
}
layer {
  name: "conv3_2"
  type: "Convolution"
  bottom: "conv3_1"
  top: "conv3_2"
  param {
    lr_mult: 1
    decay_mult: 1
  }
  param {
    lr_mult: 2
    decay_mult: 0
  }
  convolution_param {
    num_output: 256
    pad: 1
    kernel_size: 3
    weight_filler {
      type: "xavier"
    }
    bias_filler {
      type: "constant"
      value: 0
    }
  }
}
layer {
  name: "relu3_2"
  type: "ReLU"
  bottom: "conv3_2"
  top: "conv3_2"
}
layer {
  name: "conv3_3"
  type: "Convolution"
  bottom: "conv3_2"
  top: "conv3_3"
  param {
    lr_mult: 1
    decay_mult: 1
  }
  param {
    lr_mult: 2
    decay_mult: 0
  }
  convolution_param {
    num_output: 256
    pad: 1
    kernel_size: 3
    weight_filler {
      type: "xavier"
    }
    bias_filler {
      type: "constant"
      value: 0
    }
  }
}
layer {
  name: "relu3_3"
  type: "ReLU"
  bottom: "conv3_3"
  top: "conv3_3"
}
layer {
  name: "pool3"
  type: "Pooling"
  bottom: "conv3_3"
  top: "pool3"
  pooling_param {
    pool: MAX
    kernel_size: 2
    stride: 2
  }
}
layer {
  name: "conv4_1"
  type: "Convolution"
  bottom: "pool3"
  top: "conv4_1"
  param {
    lr_mult: 1
    decay_mult: 1
  }
  param {
    lr_mult: 2
    decay_mult: 0
  }
  convolution_param {
    num_output: 512
    pad: 1
    kernel_size: 3
    weight_filler {
      type: "xavier"
    }
    bias_filler {
      type: "constant"
      value: 0
    }
  }
}
layer {
  name: "relu4_1"
  type: "ReLU"
  bottom: "conv4_1"
  top: "conv4_1"
}
layer {
  name: "conv4_2"
  type: "Convolution"
  bottom: "conv4_1"
  top: "conv4_2"
  param {
    lr_mult: 1
    decay_mult: 1
  }
  param {
    lr_mult: 2
    decay_mult: 0
  }
  convolution_param {
    num_output: 512
    pad: 1
    kernel_size: 3
    weight_filler {
      type: "xavier"
    }
    bias_filler {
      type: "constant"
      value: 0
    }
  }
}
layer {
  name: "relu4_2"
  type: "ReLU"
  bottom: "conv4_2"
  top: "conv4_2"
}
layer {
  name: "conv4_3"
  type: "Convolution"
  bottom: "conv4_2"
  top: "conv4_3"
  param {
    lr_mult: 1
    decay_mult: 1
  }
  param {
    lr_mult: 2
    decay_mult: 0
  }
  convolution_param {
    num_output: 512
    pad: 1
    kernel_size: 3
    weight_filler {
      type: "xavier"
    }
    bias_filler {
      type: "constant"
      value: 0
    }
  }
}
layer {
  name: "relu4_3"
  type: "ReLU"
  bottom: "conv4_3"
  top: "conv4_3"
}
layer {
  name: "pool4"
  type: "Pooling"
  bottom: "conv4_3"
  top: "pool4"
  pooling_param {
    pool: MAX
    kernel_size: 2
    stride: 2
  }
}
layer {
  name: "conv5_1"
  type: "Convolution"
  bottom: "pool4"
  top: "conv5_1"
  param {
    lr_mult: 1
    decay_mult: 1
  }
  param {
    lr_mult: 2
    decay_mult: 0
  }
  convolution_param {
    num_output: 512
    pad: 1
    kernel_size: 3
    weight_filler {
      type: "xavier"
    }
    bias_filler {
      type: "constant"
      value: 0
    }
    dilation: 1
  }
}
layer {
  name: "relu5_1"
  type: "ReLU"
  bottom: "conv5_1"
  top: "conv5_1"
}
layer {
  name: "conv5_2"
  type: "Convolution"
  bottom: "conv5_1"
  top: "conv5_2"
  param {
    lr_mult: 1
    decay_mult: 1
  }
  param {
    lr_mult: 2
    decay_mult: 0
  }
  convolution_param {
    num_output: 512
    pad: 1
    kernel_size: 3
    weight_filler {
      type: "xavier"
    }
    bias_filler {
      type: "constant"
      value: 0
    }
    dilation: 1
  }
}
layer {
  name: "relu5_2"
  type: "ReLU"
  bottom: "conv5_2"
  top: "conv5_2"
}
layer {
  name: "conv5_3"
  type: "Convolution"
  bottom: "conv5_2"
  top: "conv5_3"
  param {
    lr_mult: 1
    decay_mult: 1
  }
  param {
    lr_mult: 2
    decay_mult: 0
  }
  convolution_param {
    num_output: 512
    pad: 1
    kernel_size: 3
    weight_filler {
      type: "xavier"
    }
    bias_filler {
      type: "constant"
      value: 0
    }
    dilation: 1
  }
}
layer {
  name: "relu5_3"
  type: "ReLU"
  bottom: "conv5_3"
  top: "conv5_3"
}
layer {
  name: "pool5"
  type: "Pooling"
  bottom: "conv5_3"
  top: "pool5"
  pooling_param {
    pool: MAX
    kernel_size: 3
    stride: 1
    pad: 1
  }
}
layer {
  name: "fc6"
  type: "Convolution"
  bottom: "pool5"
  top: "fc6"
  param {
    lr_mult: 1
    decay_mult: 1
  }
  param {
    lr_mult: 2
    decay_mult: 0
  }
  convolution_param {
    num_output: 1024
    pad: 6
    kernel_size: 3
    weight_filler {
      type: "xavier"
    }
    bias_filler {
      type: "constant"
      value: 0
    }
    dilation: 6
  }
}
layer {
  name: "relu6"
  type: "ReLU"
  bottom: "fc6"
  top: "fc6"
}
layer {
  name: "fc7"
  type: "Convolution"
  bottom: "fc6"
  top: "fc7"
  param {
    lr_mult: 1
    decay_mult: 1
  }
  param {
    lr_mult: 2
    decay_mult: 0
  }
  convolution_param {
    num_output: 1024
    kernel_size: 1
    weight_filler {
      type: "xavier"
    }
    bias_filler {
      type: "constant"
      value: 0
    }
  }
}
layer {
  name: "relu7"
  type: "ReLU"
  bottom: "fc7"
  top: "fc7"
}
layer {
  name: "conv6_1"
  type: "Convolution"
  bottom: "fc7"
  top: "conv6_1"
  param {
    lr_mult: 1
    decay_mult: 1
  }
  param {
    lr_mult: 2
    decay_mult: 0
  }
  convolution_param {
    num_output: 256
    pad: 0
    kernel_size: 1
    stride: 1
    weight_filler {
      type: "xavier"
    }
    bias_filler {
      type: "constant"
      value: 0
    }
  }
}
layer {
  name: "conv6_1_relu"
  type: "ReLU"
  bottom: "conv6_1"
  top: "conv6_1"
}
layer {
  name: "conv6_2"
  type: "Convolution"
  bottom: "conv6_1"
  top: "conv6_2"
  param {
    lr_mult: 1
    decay_mult: 1
  }
  param {
    lr_mult: 2
    decay_mult: 0
  }
  convolution_param {
    num_output: 512
    pad: 1
    kernel_size: 3
    stride: 2
    weight_filler {
      type: "xavier"
    }
    bias_filler {
      type: "constant"
      value: 0
    }
  }
}
layer {
  name: "conv6_2_relu"
  type: "ReLU"
  bottom: "conv6_2"
  top: "conv6_2"
}
layer {
  name: "conv7_1"
  type: "Convolution"
  bottom: "conv6_2"
  top: "conv7_1"
  param {
    lr_mult: 1
    decay_mult: 1
  }
  param {
    lr_mult: 2
    decay_mult: 0
  }
  convolution_param {
    num_output: 128
    pad: 0
    kernel_size: 1
    stride: 1
    weight_filler {
      type: "xavier"
    }
    bias_filler {
      type: "constant"
      value: 0
    }
  }
}
layer {
  name: "conv7_1_relu"
  type: "ReLU"
  bottom: "conv7_1"
  top: "conv7_1"
}
layer {
  name: "conv7_2"
  type: "Convolution"
  bottom: "conv7_1"
  top: "conv7_2"
  param {
    lr_mult: 1
    decay_mult: 1
  }
  param {
    lr_mult: 2
    decay_mult: 0
  }
  convolution_param {
    num_output: 256
    pad: 1
    kernel_size: 3
    stride: 2
    weight_filler {
      type: "xavier"
    }
    bias_filler {
      type: "constant"
      value: 0
    }
  }
}
layer {
  name: "conv7_2_relu"
  type: "ReLU"
  bottom: "conv7_2"
  top: "conv7_2"
}
layer {
  name: "conv8_1"
  type: "Convolution"
  bottom: "conv7_2"
  top: "conv8_1"
  param {
    lr_mult: 1
    decay_mult: 1
  }
  param {
    lr_mult: 2
    decay_mult: 0
  }
  convolution_param {
    num_output: 128
    pad: 0
    kernel_size: 1
    stride: 1
    weight_filler {
      type: "xavier"
    }
    bias_filler {
      type: "constant"
      value: 0
    }
  }
}
layer {
  name: "conv8_1_relu"
  type: "ReLU"
  bottom: "conv8_1"
  top: "conv8_1"
}
layer {
  name: "conv8_2"
  type: "Convolution"
  bottom: "conv8_1"
  top: "conv8_2"
  param {
    lr_mult: 1
    decay_mult: 1
  }
  param {
    lr_mult: 2
    decay_mult: 0
  }
  convolution_param {
    num_output: 256
    pad: 0
    kernel_size: 3
    stride: 1
    weight_filler {
      type: "xavier"
    }
    bias_filler {
      type: "constant"
      value: 0
    }
  }
}
layer {
  name: "conv8_2_relu"
  type: "ReLU"
  bottom: "conv8_2"
  top: "conv8_2"
}
layer {
  name: "conv9_1"
  type: "Convolution"
  bottom: "conv8_2"
  top: "conv9_1"
  param {
    lr_mult: 1
    decay_mult: 1
  }
  param {
    lr_mult: 2
    decay_mult: 0
  }
  convolution_param {
    num_output: 128
    pad: 0
    kernel_size: 1
    stride: 1
    weight_filler {
      type: "xavier"
    }
    bias_filler {
      type: "constant"
      value: 0
    }
  }
}
layer {
  name: "conv9_1_relu"
  type: "ReLU"
  bottom: "conv9_1"
  top: "conv9_1"
}
layer {
  name: "conv9_2"
  type: "Convolution"
  bottom: "conv9_1"
  top: "conv9_2"
  param {
    lr_mult: 1
    decay_mult: 1
  }
  param {
    lr_mult: 2
    decay_mult: 0
  }
  convolution_param {
    num_output: 256
    pad: 0
    kernel_size: 3
    stride: 1
    weight_filler {
      type: "xavier"
    }
    bias_filler {
      type: "constant"
      value: 0
    }
  }
}
layer {
  name: "conv9_2_relu"
  type: "ReLU"
  bottom: "conv9_2"
  top: "conv9_2"
}
layer {
  name: "conv4_3_norm"
  type: "Normalize"
  bottom: "conv4_3"
  top: "conv4_3_norm"
  norm_param {
    across_spatial: false
    scale_filler {
      type: "constant"
      value: 20
    }
    channel_shared: false
  }
}
layer {
  name: "conv4_3_norm_mbox_loc"
  type: "Convolution"
  bottom: "conv4_3_norm"
  top: "conv4_3_norm_mbox_loc"
  param {
    lr_mult: 1
    decay_mult: 1
  }
  param {
    lr_mult: 2
    decay_mult: 0
  }
  convolution_param {
    num_output: 16
    pad: 1
    kernel_size: 3
    stride: 1
    weight_filler {
      type: "xavier"
    }
    bias_filler {
      type: "constant"
      value: 0
    }
  }
}
layer {
  name: "conv4_3_norm_mbox_loc_perm"
  type: "Permute"
  bottom: "conv4_3_norm_mbox_loc"
  top: "conv4_3_norm_mbox_loc_perm"
  permute_param {
    order: 0
    order: 2
    order: 3
    order: 1
  }
}
layer {
  name: "conv4_3_norm_mbox_loc_flat"
  type: "Flatten"
  bottom: "conv4_3_norm_mbox_loc_perm"
  top: "conv4_3_norm_mbox_loc_flat"
  flatten_param {
    axis: 1
  }
}
layer {
  name: "conv4_3_norm_mbox_conf"
  type: "Convolution"
  bottom: "conv4_3_norm"
  top: "conv4_3_norm_mbox_conf"
  param {
    lr_mult: 1
    decay_mult: 1
  }
  param {
    lr_mult: 2
    decay_mult: 0
  }
  convolution_param {
    num_output: 16
    pad: 1
    kernel_size: 3
    stride: 1
    weight_filler {
      type: "xavier"
    }
    bias_filler {
      type: "constant"
      value: 0
    }
  }
}
layer {
  name: "conv4_3_norm_mbox_conf_perm"
  type: "Permute"
  bottom: "conv4_3_norm_mbox_conf"
  top: "conv4_3_norm_mbox_conf_perm"
  permute_param {
    order: 0
    order: 2
    order: 3
    order: 1
  }
}
layer {
  name: "conv4_3_norm_mbox_conf_flat"
  type: "Flatten"
  bottom: "conv4_3_norm_mbox_conf_perm"
  top: "conv4_3_norm_mbox_conf_flat"
  flatten_param {
    axis: 1
  }
}
layer {
  name: "conv4_3_norm_mbox_priorbox"
  type: "PriorBox"
  bottom: "conv4_3_norm"
  bottom: "data"
  top: "conv4_3_norm_mbox_priorbox"
  prior_box_param {
    min_size: 30
    max_size: 60
    aspect_ratio: 2
    flip: true
    clip: false
    variance: 0.1
    variance: 0.1
    variance: 0.2
    variance: 0.2
    step: 8
    offset: 0.5
  }
}
layer {
  name: "fc7_mbox_loc"
  type: "Convolution"
  bottom: "fc7"
  top: "fc7_mbox_loc"
  param {
    lr_mult: 1
    decay_mult: 1
  }
  param {
    lr_mult: 2
    decay_mult: 0
  }
  convolution_param {
    num_output: 24
    pad: 1
    kernel_size: 3
    stride: 1
    weight_filler {
      type: "xavier"
    }
    bias_filler {
      type: "constant"
      value: 0
    }
  }
}
layer {
  name: "fc7_mbox_loc_perm"
  type: "Permute"
  bottom: "fc7_mbox_loc"
  top: "fc7_mbox_loc_perm"
  permute_param {
    order: 0
    order: 2
    order: 3
    order: 1
  }
}
layer {
  name: "fc7_mbox_loc_flat"
  type: "Flatten"
  bottom: "fc7_mbox_loc_perm"
  top: "fc7_mbox_loc_flat"
  flatten_param {
    axis: 1
  }
}
layer {
  name: "fc7_mbox_conf"
  type: "Convolution"
  bottom: "fc7"
  top: "fc7_mbox_conf"
  param {
    lr_mult: 1
    decay_mult: 1
  }
  param {
    lr_mult: 2
    decay_mult: 0
  }
  convolution_param {
    num_output: 24
    pad: 1
    kernel_size: 3
    stride: 1
    weight_filler {
      type: "xavier"
    }
    bias_filler {
      type: "constant"
      value: 0
    }
  }
}
layer {
  name: "fc7_mbox_conf_perm"
  type: "Permute"
  bottom: "fc7_mbox_conf"
  top: "fc7_mbox_conf_perm"
  permute_param {
    order: 0
    order: 2
    order: 3
    order: 1
  }
}
layer {
  name: "fc7_mbox_conf_flat"
  type: "Flatten"
  bottom: "fc7_mbox_conf_perm"
  top: "fc7_mbox_conf_flat"
  flatten_param {
    axis: 1
  }
}
layer {
  name: "fc7_mbox_priorbox"
  type: "PriorBox"
  bottom: "fc7"
  bottom: "data"
  top: "fc7_mbox_priorbox"
  prior_box_param {
    min_size: 60
    max_size: 111
    aspect_ratio: 2
    aspect_ratio: 3
    flip: true
    clip: false
    variance: 0.1
    variance: 0.1
    variance: 0.2
    variance: 0.2
    step: 16
    offset: 0.5
  }
}
layer {
  name: "conv6_2_mbox_loc"
  type: "Convolution"
  bottom: "conv6_2"
  top: "conv6_2_mbox_loc"
  param {
    lr_mult: 1
    decay_mult: 1
  }
  param {
    lr_mult: 2
    decay_mult: 0
  }
  convolution_param {
    num_output: 24
    pad: 1
    kernel_size: 3
    stride: 1
    weight_filler {
      type: "xavier"
    }
    bias_filler {
      type: "constant"
      value: 0
    }
  }
}
layer {
  name: "conv6_2_mbox_loc_perm"
  type: "Permute"
  bottom: "conv6_2_mbox_loc"
  top: "conv6_2_mbox_loc_perm"
  permute_param {
    order: 0
    order: 2
    order: 3
    order: 1
  }
}
layer {
  name: "conv6_2_mbox_loc_flat"
  type: "Flatten"
  bottom: "conv6_2_mbox_loc_perm"
  top: "conv6_2_mbox_loc_flat"
  flatten_param {
    axis: 1
  }
}
layer {
  name: "conv6_2_mbox_conf"
  type: "Convolution"
  bottom: "conv6_2"
  top: "conv6_2_mbox_conf"
  param {
    lr_mult: 1
    decay_mult: 1
  }
  param {
    lr_mult: 2
    decay_mult: 0
  }
  convolution_param {
    num_output: 24
    pad: 1
    kernel_size: 3
    stride: 1
    weight_filler {
      type: "xavier"
    }
    bias_filler {
      type: "constant"
      value: 0
    }
  }
}
layer {
  name: "conv6_2_mbox_conf_perm"
  type: "Permute"
  bottom: "conv6_2_mbox_conf"
  top: "conv6_2_mbox_conf_perm"
  permute_param {
    order: 0
    order: 2
    order: 3
    order: 1
  }
}
layer {
  name: "conv6_2_mbox_conf_flat"
  type: "Flatten"
  bottom: "conv6_2_mbox_conf_perm"
  top: "conv6_2_mbox_conf_flat"
  flatten_param {
    axis: 1
  }
}
layer {
  name: "conv6_2_mbox_priorbox"
  type: "PriorBox"
  bottom: "conv6_2"
  bottom: "data"
  top: "conv6_2_mbox_priorbox"
  prior_box_param {
    min_size: 111
    max_size: 162
    aspect_ratio: 2
    aspect_ratio: 3
    flip: true
    clip: false
    variance: 0.1
    variance: 0.1
    variance: 0.2
    variance: 0.2
    step: 32
    offset: 0.5
  }
}
layer {
  name: "conv7_2_mbox_loc"
  type: "Convolution"
  bottom: "conv7_2"
  top: "conv7_2_mbox_loc"
  param {
    lr_mult: 1
    decay_mult: 1
  }
  param {
    lr_mult: 2
    decay_mult: 0
  }
  convolution_param {
    num_output: 24
    pad: 1
    kernel_size: 3
    stride: 1
    weight_filler {
      type: "xavier"
    }
    bias_filler {
      type: "constant"
      value: 0
    }
  }
}
layer {
  name: "conv7_2_mbox_loc_perm"
  type: "Permute"
  bottom: "conv7_2_mbox_loc"
  top: "conv7_2_mbox_loc_perm"
  permute_param {
    order: 0
    order: 2
    order: 3
    order: 1
  }
}
layer {
  name: "conv7_2_mbox_loc_flat"
  type: "Flatten"
  bottom: "conv7_2_mbox_loc_perm"
  top: "conv7_2_mbox_loc_flat"
  flatten_param {
    axis: 1
  }
}
layer {
  name: "conv7_2_mbox_conf"
  type: "Convolution"
  bottom: "conv7_2"
  top: "conv7_2_mbox_conf"
  param {
    lr_mult: 1
    decay_mult: 1
  }
  param {
    lr_mult: 2
    decay_mult: 0
  }
  convolution_param {
    num_output: 24
    pad: 1
    kernel_size: 3
    stride: 1
    weight_filler {
      type: "xavier"
    }
    bias_filler {
      type: "constant"
      value: 0
    }
  }
}
layer {
  name: "conv7_2_mbox_conf_perm"
  type: "Permute"
  bottom: "conv7_2_mbox_conf"
  top: "conv7_2_mbox_conf_perm"
  permute_param {
    order: 0
    order: 2
    order: 3
    order: 1
  }
}
layer {
  name: "conv7_2_mbox_conf_flat"
  type: "Flatten"
  bottom: "conv7_2_mbox_conf_perm"
  top: "conv7_2_mbox_conf_flat"
  flatten_param {
    axis: 1
  }
}
layer {
  name: "conv7_2_mbox_priorbox"
  type: "PriorBox"
  bottom: "conv7_2"
  bottom: "data"
  top: "conv7_2_mbox_priorbox"
  prior_box_param {
    min_size: 162
    max_size: 213
    aspect_ratio: 2
    aspect_ratio: 3
    flip: true
    clip: false
    variance: 0.1
    variance: 0.1
    variance: 0.2
    variance: 0.2
    step: 64
    offset: 0.5
  }
}
layer {
  name: "conv8_2_mbox_loc"
  type: "Convolution"
  bottom: "conv8_2"
  top: "conv8_2_mbox_loc"
  param {
    lr_mult: 1
    decay_mult: 1
  }
  param {
    lr_mult: 2
    decay_mult: 0
  }
  convolution_param {
    num_output: 16
    pad: 1
    kernel_size: 3
    stride: 1
    weight_filler {
      type: "xavier"
    }
    bias_filler {
      type: "constant"
      value: 0
    }
  }
}
layer {
  name: "conv8_2_mbox_loc_perm"
  type: "Permute"
  bottom: "conv8_2_mbox_loc"
  top: "conv8_2_mbox_loc_perm"
  permute_param {
    order: 0
    order: 2
    order: 3
    order: 1
  }
}
layer {
  name: "conv8_2_mbox_loc_flat"
  type: "Flatten"
  bottom: "conv8_2_mbox_loc_perm"
  top: "conv8_2_mbox_loc_flat"
  flatten_param {
    axis: 1
  }
}
layer {
  name: "conv8_2_mbox_conf"
  type: "Convolution"
  bottom: "conv8_2"
  top: "conv8_2_mbox_conf"
  param {
    lr_mult: 1
    decay_mult: 1
  }
  param {
    lr_mult: 2
    decay_mult: 0
  }
  convolution_param {
    num_output: 16
    pad: 1
    kernel_size: 3
    stride: 1
    weight_filler {
      type: "xavier"
    }
    bias_filler {
      type: "constant"
      value: 0
    }
  }
}
layer {
  name: "conv8_2_mbox_conf_perm"
  type: "Permute"
  bottom: "conv8_2_mbox_conf"
  top: "conv8_2_mbox_conf_perm"
  permute_param {
    order: 0
    order: 2
    order: 3
    order: 1
  }
}
layer {
  name: "conv8_2_mbox_conf_flat"
  type: "Flatten"
  bottom: "conv8_2_mbox_conf_perm"
  top: "conv8_2_mbox_conf_flat"
  flatten_param {
    axis: 1
  }
}
layer {
  name: "conv8_2_mbox_priorbox"
  type: "PriorBox"
  bottom: "conv8_2"
  bottom: "data"
  top: "conv8_2_mbox_priorbox"
  prior_box_param {
    min_size: 213
    max_size: 264
    aspect_ratio: 2
    flip: true
    clip: false
    variance: 0.1
    variance: 0.1
    variance: 0.2
    variance: 0.2
    step: 100
    offset: 0.5
  }
}
layer {
  name: "conv9_2_mbox_loc"
  type: "Convolution"
  bottom: "conv9_2"
  top: "conv9_2_mbox_loc"
  param {
    lr_mult: 1
    decay_mult: 1
  }
  param {
    lr_mult: 2
    decay_mult: 0
  }
  convolution_param {
    num_output: 16
    pad: 1
    kernel_size: 3
    stride: 1
    weight_filler {
      type: "xavier"
    }
    bias_filler {
      type: "constant"
      value: 0
    }
  }
}
layer {
  name: "conv9_2_mbox_loc_perm"
  type: "Permute"
  bottom: "conv9_2_mbox_loc"
  top: "conv9_2_mbox_loc_perm"
  permute_param {
    order: 0
    order: 2
    order: 3
    order: 1
  }
}
layer {
  name: "conv9_2_mbox_loc_flat"
  type: "Flatten"
  bottom: "conv9_2_mbox_loc_perm"
  top: "conv9_2_mbox_loc_flat"
  flatten_param {
    axis: 1
  }
}
layer {
  name: "conv9_2_mbox_conf"
  type: "Convolution"
  bottom: "conv9_2"
  top: "conv9_2_mbox_conf"
  param {
    lr_mult: 1
    decay_mult: 1
  }
  param {
    lr_mult: 2
    decay_mult: 0
  }
  convolution_param {
    num_output: 16
    pad: 1
    kernel_size: 3
    stride: 1
    weight_filler {
      type: "xavier"
    }
    bias_filler {
      type: "constant"
      value: 0
    }
  }
}
layer {
  name: "conv9_2_mbox_conf_perm"
  type: "Permute"
  bottom: "conv9_2_mbox_conf"
  top: "conv9_2_mbox_conf_perm"
  permute_param {
    order: 0
    order: 2
    order: 3
    order: 1
  }
}
layer {
  name: "conv9_2_mbox_conf_flat"
  type: "Flatten"
  bottom: "conv9_2_mbox_conf_perm"
  top: "conv9_2_mbox_conf_flat"
  flatten_param {
    axis: 1
  }
}
layer {
  name: "conv9_2_mbox_priorbox"
  type: "PriorBox"
  bottom: "conv9_2"
  bottom: "data"
  top: "conv9_2_mbox_priorbox"
  prior_box_param {
    min_size: 264
    max_size: 315
    aspect_ratio: 2
    flip: true
    clip: false
    variance: 0.1
    variance: 0.1
    variance: 0.2
    variance: 0.2
    step: 300
    offset: 0.5
  }
}
layer {
  name: "mbox_loc"
  type: "Concat"
  bottom: "conv4_3_norm_mbox_loc_flat"
  bottom: "fc7_mbox_loc_flat"
  bottom: "conv6_2_mbox_loc_flat"
  bottom: "conv7_2_mbox_loc_flat"
  bottom: "conv8_2_mbox_loc_flat"
  bottom: "conv9_2_mbox_loc_flat"
  top: "mbox_loc"
  concat_param {
    axis: 1
  }
}
layer {
  name: "mbox_conf"
  type: "Concat"
  bottom: "conv4_3_norm_mbox_conf_flat"
  bottom: "fc7_mbox_conf_flat"
  bottom: "conv6_2_mbox_conf_flat"
  bottom: "conv7_2_mbox_conf_flat"
  bottom: "conv8_2_mbox_conf_flat"
  bottom: "conv9_2_mbox_conf_flat"
  top: "mbox_conf"
  concat_param {
    axis: 1
  }
}
layer {
  name: "mbox_priorbox"
  type: "Concat"
  bottom: "conv4_3_norm_mbox_priorbox"
  bottom: "fc7_mbox_priorbox"
  bottom: "conv6_2_mbox_priorbox"
  bottom: "conv7_2_mbox_priorbox"
  bottom: "conv8_2_mbox_priorbox"
  bottom: "conv9_2_mbox_priorbox"
  top: "mbox_priorbox"
  concat_param {
    axis: 2
  }
}
layer {
  name: "mbox_conf_reshape"
  type: "Reshape"
  bottom: "mbox_conf"
  top: "mbox_conf_reshape"
  reshape_param {
    shape {
      dim: 0
      dim: -1
      dim: 4
    }
  }
}
layer {
  name: "mbox_conf_softmax"
  type: "Softmax"
  bottom: "mbox_conf_reshape"
  top: "mbox_conf_softmax"
  softmax_param {
    axis: 2
  }
}
layer {
  name: "mbox_conf_flatten"
  type: "Flatten"
  bottom: "mbox_conf_softmax"
  top: "mbox_conf_flatten"
  flatten_param {
    axis: 1
  }
}
layer {
  name: "detection_out"
  type: "DetectionOutput"
  bottom: "mbox_loc"
  bottom: "mbox_conf_flatten"
  bottom: "mbox_priorbox"
  top: "detection_out"
  include {
    phase: TEST
  }
  detection_output_param {
    num_classes: 4
    share_location: true
    background_label_id: 0
    nms_param {
      nms_threshold: 0.45
      top_k: 400
    }
    save_output_param {
      output_directory: "/home/shangzw/data/tbs/results/tbs/SSD_300x300/Main"
      output_name_prefix: "comp4_det_test_"
      output_format: "VOC"
      label_map_file: "data/tbs_300x300_HSIL_10x/labelmap_tbs.prototxt"
      name_size_file: "data/VOC0712/test_name_size.txt"
      num_test_image: 100
    }
    code_type: CENTER_SIZE
    keep_top_k: 200
    confidence_threshold: 0.01
  }
}
layer {
  name: "detection_eval"
  type: "DetectionEvaluate"
  bottom: "detection_out"
  bottom: "label"
  top: "detection_eval"
  include {
    phase: TEST
  }
  detection_evaluate_param {
    num_classes: 4
    background_label_id: 0
    overlap_threshold: 0.5
    evaluate_difficult_gt: false
    name_size_file: "data/VOC0712/test_name_size.txt"
  }
}
I0601 15:51:34.375684 16695 layer_factory.hpp:77] Creating layer data
I0601 15:51:34.375748 16695 net.cpp:100] Creating Layer data
I0601 15:51:34.375759 16695 net.cpp:408] data -> data
I0601 15:51:34.375772 16695 net.cpp:408] data -> label
I0601 15:51:34.377058 16713 db_lmdb.cpp:35] Opened lmdb examples/tbs_300x300_HSIL_10x/tbs_300x300_HSIL_10x_test_lmdb
I0601 15:51:34.377741 16695 annotated_data_layer.cpp:62] output data size: 4,3,300,300
I0601 15:51:34.390673 16695 net.cpp:150] Setting up data
I0601 15:51:34.390707 16695 net.cpp:157] Top shape: 4 3 300 300 (1080000)
I0601 15:51:34.390724 16695 net.cpp:157] Top shape: 1 1 1 8 (8)
I0601 15:51:34.390727 16695 net.cpp:165] Memory required for data: 4320032
I0601 15:51:34.390732 16695 layer_factory.hpp:77] Creating layer data_data_0_split
I0601 15:51:34.390755 16695 net.cpp:100] Creating Layer data_data_0_split
I0601 15:51:34.390760 16695 net.cpp:434] data_data_0_split <- data
I0601 15:51:34.390768 16695 net.cpp:408] data_data_0_split -> data_data_0_split_0
I0601 15:51:34.390790 16695 net.cpp:408] data_data_0_split -> data_data_0_split_1
I0601 15:51:34.390811 16695 net.cpp:408] data_data_0_split -> data_data_0_split_2
I0601 15:51:34.390818 16695 net.cpp:408] data_data_0_split -> data_data_0_split_3
I0601 15:51:34.390825 16695 net.cpp:408] data_data_0_split -> data_data_0_split_4
I0601 15:51:34.390830 16695 net.cpp:408] data_data_0_split -> data_data_0_split_5
I0601 15:51:34.390836 16695 net.cpp:408] data_data_0_split -> data_data_0_split_6
I0601 15:51:34.391096 16695 net.cpp:150] Setting up data_data_0_split
I0601 15:51:34.391106 16695 net.cpp:157] Top shape: 4 3 300 300 (1080000)
I0601 15:51:34.391113 16695 net.cpp:157] Top shape: 4 3 300 300 (1080000)
I0601 15:51:34.391130 16695 net.cpp:157] Top shape: 4 3 300 300 (1080000)
I0601 15:51:34.391135 16695 net.cpp:157] Top shape: 4 3 300 300 (1080000)
I0601 15:51:34.391140 16695 net.cpp:157] Top shape: 4 3 300 300 (1080000)
I0601 15:51:34.391157 16695 net.cpp:157] Top shape: 4 3 300 300 (1080000)
I0601 15:51:34.391177 16695 net.cpp:157] Top shape: 4 3 300 300 (1080000)
I0601 15:51:34.391194 16695 net.cpp:165] Memory required for data: 34560032
I0601 15:51:34.391198 16695 layer_factory.hpp:77] Creating layer conv1_1
I0601 15:51:34.391211 16695 net.cpp:100] Creating Layer conv1_1
I0601 15:51:34.391229 16695 net.cpp:434] conv1_1 <- data_data_0_split_0
I0601 15:51:34.391235 16695 net.cpp:408] conv1_1 -> conv1_1
I0601 15:51:34.394067 16695 net.cpp:150] Setting up conv1_1
I0601 15:51:34.394078 16695 net.cpp:157] Top shape: 4 64 300 300 (23040000)
I0601 15:51:34.394080 16695 net.cpp:165] Memory required for data: 126720032
I0601 15:51:34.394091 16695 layer_factory.hpp:77] Creating layer relu1_1
I0601 15:51:34.394099 16695 net.cpp:100] Creating Layer relu1_1
I0601 15:51:34.394104 16695 net.cpp:434] relu1_1 <- conv1_1
I0601 15:51:34.394111 16695 net.cpp:395] relu1_1 -> conv1_1 (in-place)
I0601 15:51:34.394297 16695 net.cpp:150] Setting up relu1_1
I0601 15:51:34.394307 16695 net.cpp:157] Top shape: 4 64 300 300 (23040000)
I0601 15:51:34.394314 16695 net.cpp:165] Memory required for data: 218880032
I0601 15:51:34.394318 16695 layer_factory.hpp:77] Creating layer conv1_2
I0601 15:51:34.394328 16695 net.cpp:100] Creating Layer conv1_2
I0601 15:51:34.394333 16695 net.cpp:434] conv1_2 <- conv1_1
I0601 15:51:34.394340 16695 net.cpp:408] conv1_2 -> conv1_2
I0601 15:51:34.395895 16695 net.cpp:150] Setting up conv1_2
I0601 15:51:34.395905 16695 net.cpp:157] Top shape: 4 64 300 300 (23040000)
I0601 15:51:34.395908 16695 net.cpp:165] Memory required for data: 311040032
I0601 15:51:34.395916 16695 layer_factory.hpp:77] Creating layer relu1_2
I0601 15:51:34.395925 16695 net.cpp:100] Creating Layer relu1_2
I0601 15:51:34.395931 16695 net.cpp:434] relu1_2 <- conv1_2
I0601 15:51:34.395936 16695 net.cpp:395] relu1_2 -> conv1_2 (in-place)
I0601 15:51:34.396733 16695 net.cpp:150] Setting up relu1_2
I0601 15:51:34.396746 16695 net.cpp:157] Top shape: 4 64 300 300 (23040000)
I0601 15:51:34.396751 16695 net.cpp:165] Memory required for data: 403200032
I0601 15:51:34.396757 16695 layer_factory.hpp:77] Creating layer pool1
I0601 15:51:34.396764 16695 net.cpp:100] Creating Layer pool1
I0601 15:51:34.396770 16695 net.cpp:434] pool1 <- conv1_2
I0601 15:51:34.396778 16695 net.cpp:408] pool1 -> pool1
I0601 15:51:34.396847 16695 net.cpp:150] Setting up pool1
I0601 15:51:34.396857 16695 net.cpp:157] Top shape: 4 64 150 150 (5760000)
I0601 15:51:34.396862 16695 net.cpp:165] Memory required for data: 426240032
I0601 15:51:34.396881 16695 layer_factory.hpp:77] Creating layer conv2_1
I0601 15:51:34.396893 16695 net.cpp:100] Creating Layer conv2_1
I0601 15:51:34.396898 16695 net.cpp:434] conv2_1 <- pool1
I0601 15:51:34.396908 16695 net.cpp:408] conv2_1 -> conv2_1
I0601 15:51:34.398879 16695 net.cpp:150] Setting up conv2_1
I0601 15:51:34.398890 16695 net.cpp:157] Top shape: 4 128 150 150 (11520000)
I0601 15:51:34.398892 16695 net.cpp:165] Memory required for data: 472320032
I0601 15:51:34.398903 16695 layer_factory.hpp:77] Creating layer relu2_1
I0601 15:51:34.398914 16695 net.cpp:100] Creating Layer relu2_1
I0601 15:51:34.398919 16695 net.cpp:434] relu2_1 <- conv2_1
I0601 15:51:34.398926 16695 net.cpp:395] relu2_1 -> conv2_1 (in-place)
I0601 15:51:34.399766 16695 net.cpp:150] Setting up relu2_1
I0601 15:51:34.399776 16695 net.cpp:157] Top shape: 4 128 150 150 (11520000)
I0601 15:51:34.399780 16695 net.cpp:165] Memory required for data: 518400032
I0601 15:51:34.399781 16695 layer_factory.hpp:77] Creating layer conv2_2
I0601 15:51:34.399791 16695 net.cpp:100] Creating Layer conv2_2
I0601 15:51:34.399797 16695 net.cpp:434] conv2_2 <- conv2_1
I0601 15:51:34.399806 16695 net.cpp:408] conv2_2 -> conv2_2
I0601 15:51:34.403048 16695 net.cpp:150] Setting up conv2_2
I0601 15:51:34.403069 16695 net.cpp:157] Top shape: 4 128 150 150 (11520000)
I0601 15:51:34.403071 16695 net.cpp:165] Memory required for data: 564480032
I0601 15:51:34.403079 16695 layer_factory.hpp:77] Creating layer relu2_2
I0601 15:51:34.403102 16695 net.cpp:100] Creating Layer relu2_2
I0601 15:51:34.403108 16695 net.cpp:434] relu2_2 <- conv2_2
I0601 15:51:34.403115 16695 net.cpp:395] relu2_2 -> conv2_2 (in-place)
I0601 15:51:34.403334 16695 net.cpp:150] Setting up relu2_2
I0601 15:51:34.403345 16695 net.cpp:157] Top shape: 4 128 150 150 (11520000)
I0601 15:51:34.403352 16695 net.cpp:165] Memory required for data: 610560032
I0601 15:51:34.403357 16695 layer_factory.hpp:77] Creating layer pool2
I0601 15:51:34.403363 16695 net.cpp:100] Creating Layer pool2
I0601 15:51:34.403368 16695 net.cpp:434] pool2 <- conv2_2
I0601 15:51:34.403378 16695 net.cpp:408] pool2 -> pool2
I0601 15:51:34.403443 16695 net.cpp:150] Setting up pool2
I0601 15:51:34.403451 16695 net.cpp:157] Top shape: 4 128 75 75 (2880000)
I0601 15:51:34.403455 16695 net.cpp:165] Memory required for data: 622080032
I0601 15:51:34.403458 16695 layer_factory.hpp:77] Creating layer conv3_1
I0601 15:51:34.403467 16695 net.cpp:100] Creating Layer conv3_1
I0601 15:51:34.403470 16695 net.cpp:434] conv3_1 <- pool2
I0601 15:51:34.403475 16695 net.cpp:408] conv3_1 -> conv3_1
I0601 15:51:34.407855 16695 net.cpp:150] Setting up conv3_1
I0601 15:51:34.407868 16695 net.cpp:157] Top shape: 4 256 75 75 (5760000)
I0601 15:51:34.407871 16695 net.cpp:165] Memory required for data: 645120032
I0601 15:51:34.407894 16695 layer_factory.hpp:77] Creating layer relu3_1
I0601 15:51:34.407901 16695 net.cpp:100] Creating Layer relu3_1
I0601 15:51:34.407903 16695 net.cpp:434] relu3_1 <- conv3_1
I0601 15:51:34.407908 16695 net.cpp:395] relu3_1 -> conv3_1 (in-place)
I0601 15:51:34.408143 16695 net.cpp:150] Setting up relu3_1
I0601 15:51:34.408154 16695 net.cpp:157] Top shape: 4 256 75 75 (5760000)
I0601 15:51:34.408159 16695 net.cpp:165] Memory required for data: 668160032
I0601 15:51:34.408161 16695 layer_factory.hpp:77] Creating layer conv3_2
I0601 15:51:34.408185 16695 net.cpp:100] Creating Layer conv3_2
I0601 15:51:34.408188 16695 net.cpp:434] conv3_2 <- conv3_1
I0601 15:51:34.408195 16695 net.cpp:408] conv3_2 -> conv3_2
I0601 15:51:34.413141 16695 net.cpp:150] Setting up conv3_2
I0601 15:51:34.413154 16695 net.cpp:157] Top shape: 4 256 75 75 (5760000)
I0601 15:51:34.413157 16695 net.cpp:165] Memory required for data: 691200032
I0601 15:51:34.413163 16695 layer_factory.hpp:77] Creating layer relu3_2
I0601 15:51:34.413172 16695 net.cpp:100] Creating Layer relu3_2
I0601 15:51:34.413177 16695 net.cpp:434] relu3_2 <- conv3_2
I0601 15:51:34.413183 16695 net.cpp:395] relu3_2 -> conv3_2 (in-place)
I0601 15:51:34.413439 16695 net.cpp:150] Setting up relu3_2
I0601 15:51:34.413450 16695 net.cpp:157] Top shape: 4 256 75 75 (5760000)
I0601 15:51:34.413455 16695 net.cpp:165] Memory required for data: 714240032
I0601 15:51:34.413460 16695 layer_factory.hpp:77] Creating layer conv3_3
I0601 15:51:34.413480 16695 net.cpp:100] Creating Layer conv3_3
I0601 15:51:34.413486 16695 net.cpp:434] conv3_3 <- conv3_2
I0601 15:51:34.413493 16695 net.cpp:408] conv3_3 -> conv3_3
I0601 15:51:34.419544 16695 net.cpp:150] Setting up conv3_3
I0601 15:51:34.419564 16695 net.cpp:157] Top shape: 4 256 75 75 (5760000)
I0601 15:51:34.419567 16695 net.cpp:165] Memory required for data: 737280032
I0601 15:51:34.419576 16695 layer_factory.hpp:77] Creating layer relu3_3
I0601 15:51:34.419585 16695 net.cpp:100] Creating Layer relu3_3
I0601 15:51:34.419592 16695 net.cpp:434] relu3_3 <- conv3_3
I0601 15:51:34.419600 16695 net.cpp:395] relu3_3 -> conv3_3 (in-place)
I0601 15:51:34.419798 16695 net.cpp:150] Setting up relu3_3
I0601 15:51:34.419811 16695 net.cpp:157] Top shape: 4 256 75 75 (5760000)
I0601 15:51:34.419814 16695 net.cpp:165] Memory required for data: 760320032
I0601 15:51:34.419818 16695 layer_factory.hpp:77] Creating layer pool3
I0601 15:51:34.419826 16695 net.cpp:100] Creating Layer pool3
I0601 15:51:34.419829 16695 net.cpp:434] pool3 <- conv3_3
I0601 15:51:34.419837 16695 net.cpp:408] pool3 -> pool3
I0601 15:51:34.419901 16695 net.cpp:150] Setting up pool3
I0601 15:51:34.419909 16695 net.cpp:157] Top shape: 4 256 38 38 (1478656)
I0601 15:51:34.419930 16695 net.cpp:165] Memory required for data: 766234656
I0601 15:51:34.419934 16695 layer_factory.hpp:77] Creating layer conv4_1
I0601 15:51:34.419970 16695 net.cpp:100] Creating Layer conv4_1
I0601 15:51:34.419977 16695 net.cpp:434] conv4_1 <- pool3
I0601 15:51:34.419986 16695 net.cpp:408] conv4_1 -> conv4_1
I0601 15:51:34.428225 16695 net.cpp:150] Setting up conv4_1
I0601 15:51:34.428241 16695 net.cpp:157] Top shape: 4 512 38 38 (2957312)
I0601 15:51:34.428244 16695 net.cpp:165] Memory required for data: 778063904
I0601 15:51:34.428267 16695 layer_factory.hpp:77] Creating layer relu4_1
I0601 15:51:34.428272 16695 net.cpp:100] Creating Layer relu4_1
I0601 15:51:34.428288 16695 net.cpp:434] relu4_1 <- conv4_1
I0601 15:51:34.428293 16695 net.cpp:395] relu4_1 -> conv4_1 (in-place)
I0601 15:51:34.429091 16695 net.cpp:150] Setting up relu4_1
I0601 15:51:34.429103 16695 net.cpp:157] Top shape: 4 512 38 38 (2957312)
I0601 15:51:34.429107 16695 net.cpp:165] Memory required for data: 789893152
I0601 15:51:34.429111 16695 layer_factory.hpp:77] Creating layer conv4_2
I0601 15:51:34.429150 16695 net.cpp:100] Creating Layer conv4_2
I0601 15:51:34.429155 16695 net.cpp:434] conv4_2 <- conv4_1
I0601 15:51:34.429163 16695 net.cpp:408] conv4_2 -> conv4_2
I0601 15:51:34.442240 16695 net.cpp:150] Setting up conv4_2
I0601 15:51:34.442257 16695 net.cpp:157] Top shape: 4 512 38 38 (2957312)
I0601 15:51:34.442260 16695 net.cpp:165] Memory required for data: 801722400
I0601 15:51:34.442286 16695 layer_factory.hpp:77] Creating layer relu4_2
I0601 15:51:34.442306 16695 net.cpp:100] Creating Layer relu4_2
I0601 15:51:34.442309 16695 net.cpp:434] relu4_2 <- conv4_2
I0601 15:51:34.442315 16695 net.cpp:395] relu4_2 -> conv4_2 (in-place)
I0601 15:51:34.443459 16695 net.cpp:150] Setting up relu4_2
I0601 15:51:34.443485 16695 net.cpp:157] Top shape: 4 512 38 38 (2957312)
I0601 15:51:34.443506 16695 net.cpp:165] Memory required for data: 813551648
I0601 15:51:34.443511 16695 layer_factory.hpp:77] Creating layer conv4_3
I0601 15:51:34.443536 16695 net.cpp:100] Creating Layer conv4_3
I0601 15:51:34.443542 16695 net.cpp:434] conv4_3 <- conv4_2
I0601 15:51:34.443549 16695 net.cpp:408] conv4_3 -> conv4_3
I0601 15:51:34.457202 16695 net.cpp:150] Setting up conv4_3
I0601 15:51:34.457218 16695 net.cpp:157] Top shape: 4 512 38 38 (2957312)
I0601 15:51:34.457221 16695 net.cpp:165] Memory required for data: 825380896
I0601 15:51:34.457240 16695 layer_factory.hpp:77] Creating layer relu4_3
I0601 15:51:34.457247 16695 net.cpp:100] Creating Layer relu4_3
I0601 15:51:34.457249 16695 net.cpp:434] relu4_3 <- conv4_3
I0601 15:51:34.457254 16695 net.cpp:395] relu4_3 -> conv4_3 (in-place)
I0601 15:51:34.457512 16695 net.cpp:150] Setting up relu4_3
I0601 15:51:34.457523 16695 net.cpp:157] Top shape: 4 512 38 38 (2957312)
I0601 15:51:34.457526 16695 net.cpp:165] Memory required for data: 837210144
I0601 15:51:34.457530 16695 layer_factory.hpp:77] Creating layer conv4_3_relu4_3_0_split
I0601 15:51:34.457554 16695 net.cpp:100] Creating Layer conv4_3_relu4_3_0_split
I0601 15:51:34.457559 16695 net.cpp:434] conv4_3_relu4_3_0_split <- conv4_3
I0601 15:51:34.457566 16695 net.cpp:408] conv4_3_relu4_3_0_split -> conv4_3_relu4_3_0_split_0
I0601 15:51:34.457588 16695 net.cpp:408] conv4_3_relu4_3_0_split -> conv4_3_relu4_3_0_split_1
I0601 15:51:34.457684 16695 net.cpp:150] Setting up conv4_3_relu4_3_0_split
I0601 15:51:34.457706 16695 net.cpp:157] Top shape: 4 512 38 38 (2957312)
I0601 15:51:34.457711 16695 net.cpp:157] Top shape: 4 512 38 38 (2957312)
I0601 15:51:34.457715 16695 net.cpp:165] Memory required for data: 860868640
I0601 15:51:34.457733 16695 layer_factory.hpp:77] Creating layer pool4
I0601 15:51:34.457739 16695 net.cpp:100] Creating Layer pool4
I0601 15:51:34.457756 16695 net.cpp:434] pool4 <- conv4_3_relu4_3_0_split_0
I0601 15:51:34.457777 16695 net.cpp:408] pool4 -> pool4
I0601 15:51:34.457880 16695 net.cpp:150] Setting up pool4
I0601 15:51:34.457888 16695 net.cpp:157] Top shape: 4 512 19 19 (739328)
I0601 15:51:34.457892 16695 net.cpp:165] Memory required for data: 863825952
I0601 15:51:34.457922 16695 layer_factory.hpp:77] Creating layer conv5_1
I0601 15:51:34.457949 16695 net.cpp:100] Creating Layer conv5_1
I0601 15:51:34.457954 16695 net.cpp:434] conv5_1 <- pool4
I0601 15:51:34.457963 16695 net.cpp:408] conv5_1 -> conv5_1
I0601 15:51:34.471412 16695 net.cpp:150] Setting up conv5_1
I0601 15:51:34.471428 16695 net.cpp:157] Top shape: 4 512 19 19 (739328)
I0601 15:51:34.471431 16695 net.cpp:165] Memory required for data: 866783264
I0601 15:51:34.471437 16695 layer_factory.hpp:77] Creating layer relu5_1
I0601 15:51:34.471457 16695 net.cpp:100] Creating Layer relu5_1
I0601 15:51:34.471460 16695 net.cpp:434] relu5_1 <- conv5_1
I0601 15:51:34.471465 16695 net.cpp:395] relu5_1 -> conv5_1 (in-place)
I0601 15:51:34.471645 16695 net.cpp:150] Setting up relu5_1
I0601 15:51:34.471655 16695 net.cpp:157] Top shape: 4 512 19 19 (739328)
I0601 15:51:34.471673 16695 net.cpp:165] Memory required for data: 869740576
I0601 15:51:34.471675 16695 layer_factory.hpp:77] Creating layer conv5_2
I0601 15:51:34.471702 16695 net.cpp:100] Creating Layer conv5_2
I0601 15:51:34.471720 16695 net.cpp:434] conv5_2 <- conv5_1
I0601 15:51:34.471727 16695 net.cpp:408] conv5_2 -> conv5_2
I0601 15:51:34.484979 16695 net.cpp:150] Setting up conv5_2
I0601 15:51:34.484994 16695 net.cpp:157] Top shape: 4 512 19 19 (739328)
I0601 15:51:34.484997 16695 net.cpp:165] Memory required for data: 872697888
I0601 15:51:34.485018 16695 layer_factory.hpp:77] Creating layer relu5_2
I0601 15:51:34.485038 16695 net.cpp:100] Creating Layer relu5_2
I0601 15:51:34.485043 16695 net.cpp:434] relu5_2 <- conv5_2
I0601 15:51:34.485046 16695 net.cpp:395] relu5_2 -> conv5_2 (in-place)
I0601 15:51:34.485237 16695 net.cpp:150] Setting up relu5_2
I0601 15:51:34.485265 16695 net.cpp:157] Top shape: 4 512 19 19 (739328)
I0601 15:51:34.485268 16695 net.cpp:165] Memory required for data: 875655200
I0601 15:51:34.485285 16695 layer_factory.hpp:77] Creating layer conv5_3
I0601 15:51:34.485298 16695 net.cpp:100] Creating Layer conv5_3
I0601 15:51:34.485306 16695 net.cpp:434] conv5_3 <- conv5_2
I0601 15:51:34.485314 16695 net.cpp:408] conv5_3 -> conv5_3
I0601 15:51:34.499687 16695 net.cpp:150] Setting up conv5_3
I0601 15:51:34.499706 16695 net.cpp:157] Top shape: 4 512 19 19 (739328)
I0601 15:51:34.499707 16695 net.cpp:165] Memory required for data: 878612512
I0601 15:51:34.499729 16695 layer_factory.hpp:77] Creating layer relu5_3
I0601 15:51:34.499740 16695 net.cpp:100] Creating Layer relu5_3
I0601 15:51:34.499758 16695 net.cpp:434] relu5_3 <- conv5_3
I0601 15:51:34.499763 16695 net.cpp:395] relu5_3 -> conv5_3 (in-place)
I0601 15:51:34.500007 16695 net.cpp:150] Setting up relu5_3
I0601 15:51:34.500018 16695 net.cpp:157] Top shape: 4 512 19 19 (739328)
I0601 15:51:34.500022 16695 net.cpp:165] Memory required for data: 881569824
I0601 15:51:34.500025 16695 layer_factory.hpp:77] Creating layer pool5
I0601 15:51:34.500046 16695 net.cpp:100] Creating Layer pool5
I0601 15:51:34.500051 16695 net.cpp:434] pool5 <- conv5_3
I0601 15:51:34.500057 16695 net.cpp:408] pool5 -> pool5
I0601 15:51:34.500129 16695 net.cpp:150] Setting up pool5
I0601 15:51:34.500138 16695 net.cpp:157] Top shape: 4 512 19 19 (739328)
I0601 15:51:34.500141 16695 net.cpp:165] Memory required for data: 884527136
I0601 15:51:34.500159 16695 layer_factory.hpp:77] Creating layer fc6
I0601 15:51:34.500185 16695 net.cpp:100] Creating Layer fc6
I0601 15:51:34.500188 16695 net.cpp:434] fc6 <- pool5
I0601 15:51:34.500195 16695 net.cpp:408] fc6 -> fc6
I0601 15:51:34.524242 16695 net.cpp:150] Setting up fc6
I0601 15:51:34.524260 16695 net.cpp:157] Top shape: 4 1024 19 19 (1478656)
I0601 15:51:34.524262 16695 net.cpp:165] Memory required for data: 890441760
I0601 15:51:34.524268 16695 layer_factory.hpp:77] Creating layer relu6
I0601 15:51:34.524291 16695 net.cpp:100] Creating Layer relu6
I0601 15:51:34.524293 16695 net.cpp:434] relu6 <- fc6
I0601 15:51:34.524302 16695 net.cpp:395] relu6 -> fc6 (in-place)
I0601 15:51:34.525583 16695 net.cpp:150] Setting up relu6
I0601 15:51:34.525607 16695 net.cpp:157] Top shape: 4 1024 19 19 (1478656)
I0601 15:51:34.525627 16695 net.cpp:165] Memory required for data: 896356384
I0601 15:51:34.525634 16695 layer_factory.hpp:77] Creating layer fc7
I0601 15:51:34.525645 16695 net.cpp:100] Creating Layer fc7
I0601 15:51:34.525666 16695 net.cpp:434] fc7 <- fc6
I0601 15:51:34.525676 16695 net.cpp:408] fc7 -> fc7
I0601 15:51:34.532671 16695 net.cpp:150] Setting up fc7
I0601 15:51:34.532687 16695 net.cpp:157] Top shape: 4 1024 19 19 (1478656)
I0601 15:51:34.532691 16695 net.cpp:165] Memory required for data: 902271008
I0601 15:51:34.532712 16695 layer_factory.hpp:77] Creating layer relu7
I0601 15:51:34.532718 16695 net.cpp:100] Creating Layer relu7
I0601 15:51:34.532721 16695 net.cpp:434] relu7 <- fc7
I0601 15:51:34.532727 16695 net.cpp:395] relu7 -> fc7 (in-place)
I0601 15:51:34.532935 16695 net.cpp:150] Setting up relu7
I0601 15:51:34.532945 16695 net.cpp:157] Top shape: 4 1024 19 19 (1478656)
I0601 15:51:34.532949 16695 net.cpp:165] Memory required for data: 908185632
I0601 15:51:34.532966 16695 layer_factory.hpp:77] Creating layer fc7_relu7_0_split
I0601 15:51:34.532974 16695 net.cpp:100] Creating Layer fc7_relu7_0_split
I0601 15:51:34.532979 16695 net.cpp:434] fc7_relu7_0_split <- fc7
I0601 15:51:34.532984 16695 net.cpp:408] fc7_relu7_0_split -> fc7_relu7_0_split_0
I0601 15:51:34.532995 16695 net.cpp:408] fc7_relu7_0_split -> fc7_relu7_0_split_1
I0601 15:51:34.533023 16695 net.cpp:408] fc7_relu7_0_split -> fc7_relu7_0_split_2
I0601 15:51:34.533031 16695 net.cpp:408] fc7_relu7_0_split -> fc7_relu7_0_split_3
I0601 15:51:34.533139 16695 net.cpp:150] Setting up fc7_relu7_0_split
I0601 15:51:34.533149 16695 net.cpp:157] Top shape: 4 1024 19 19 (1478656)
I0601 15:51:34.533154 16695 net.cpp:157] Top shape: 4 1024 19 19 (1478656)
I0601 15:51:34.533160 16695 net.cpp:157] Top shape: 4 1024 19 19 (1478656)
I0601 15:51:34.533165 16695 net.cpp:157] Top shape: 4 1024 19 19 (1478656)
I0601 15:51:34.533169 16695 net.cpp:165] Memory required for data: 931844128
I0601 15:51:34.533174 16695 layer_factory.hpp:77] Creating layer conv6_1
I0601 15:51:34.533185 16695 net.cpp:100] Creating Layer conv6_1
I0601 15:51:34.533203 16695 net.cpp:434] conv6_1 <- fc7_relu7_0_split_0
I0601 15:51:34.533212 16695 net.cpp:408] conv6_1 -> conv6_1
I0601 15:51:34.536886 16695 net.cpp:150] Setting up conv6_1
I0601 15:51:34.536898 16695 net.cpp:157] Top shape: 4 256 19 19 (369664)
I0601 15:51:34.536901 16695 net.cpp:165] Memory required for data: 933322784
I0601 15:51:34.536908 16695 layer_factory.hpp:77] Creating layer conv6_1_relu
I0601 15:51:34.536916 16695 net.cpp:100] Creating Layer conv6_1_relu
I0601 15:51:34.536922 16695 net.cpp:434] conv6_1_relu <- conv6_1
I0601 15:51:34.536928 16695 net.cpp:395] conv6_1_relu -> conv6_1 (in-place)
I0601 15:51:34.537132 16695 net.cpp:150] Setting up conv6_1_relu
I0601 15:51:34.537142 16695 net.cpp:157] Top shape: 4 256 19 19 (369664)
I0601 15:51:34.537147 16695 net.cpp:165] Memory required for data: 934801440
I0601 15:51:34.537165 16695 layer_factory.hpp:77] Creating layer conv6_2
I0601 15:51:34.537179 16695 net.cpp:100] Creating Layer conv6_2
I0601 15:51:34.537185 16695 net.cpp:434] conv6_2 <- conv6_1
I0601 15:51:34.537207 16695 net.cpp:408] conv6_2 -> conv6_2
I0601 15:51:34.544595 16695 net.cpp:150] Setting up conv6_2
I0601 15:51:34.544611 16695 net.cpp:157] Top shape: 4 512 10 10 (204800)
I0601 15:51:34.544615 16695 net.cpp:165] Memory required for data: 935620640
I0601 15:51:34.544642 16695 layer_factory.hpp:77] Creating layer conv6_2_relu
I0601 15:51:34.544649 16695 net.cpp:100] Creating Layer conv6_2_relu
I0601 15:51:34.544661 16695 net.cpp:434] conv6_2_relu <- conv6_2
I0601 15:51:34.544669 16695 net.cpp:395] conv6_2_relu -> conv6_2 (in-place)
I0601 15:51:34.544883 16695 net.cpp:150] Setting up conv6_2_relu
I0601 15:51:34.544906 16695 net.cpp:157] Top shape: 4 512 10 10 (204800)
I0601 15:51:34.544911 16695 net.cpp:165] Memory required for data: 936439840
I0601 15:51:34.544916 16695 layer_factory.hpp:77] Creating layer conv6_2_conv6_2_relu_0_split
I0601 15:51:34.544939 16695 net.cpp:100] Creating Layer conv6_2_conv6_2_relu_0_split
I0601 15:51:34.544955 16695 net.cpp:434] conv6_2_conv6_2_relu_0_split <- conv6_2
I0601 15:51:34.544965 16695 net.cpp:408] conv6_2_conv6_2_relu_0_split -> conv6_2_conv6_2_relu_0_split_0
I0601 15:51:34.544988 16695 net.cpp:408] conv6_2_conv6_2_relu_0_split -> conv6_2_conv6_2_relu_0_split_1
I0601 15:51:34.544996 16695 net.cpp:408] conv6_2_conv6_2_relu_0_split -> conv6_2_conv6_2_relu_0_split_2
I0601 15:51:34.545004 16695 net.cpp:408] conv6_2_conv6_2_relu_0_split -> conv6_2_conv6_2_relu_0_split_3
I0601 15:51:34.545096 16695 net.cpp:150] Setting up conv6_2_conv6_2_relu_0_split
I0601 15:51:34.545104 16695 net.cpp:157] Top shape: 4 512 10 10 (204800)
I0601 15:51:34.545109 16695 net.cpp:157] Top shape: 4 512 10 10 (204800)
I0601 15:51:34.545114 16695 net.cpp:157] Top shape: 4 512 10 10 (204800)
I0601 15:51:34.545120 16695 net.cpp:157] Top shape: 4 512 10 10 (204800)
I0601 15:51:34.545125 16695 net.cpp:165] Memory required for data: 939716640
I0601 15:51:34.545128 16695 layer_factory.hpp:77] Creating layer conv7_1
I0601 15:51:34.545138 16695 net.cpp:100] Creating Layer conv7_1
I0601 15:51:34.545145 16695 net.cpp:434] conv7_1 <- conv6_2_conv6_2_relu_0_split_0
I0601 15:51:34.545153 16695 net.cpp:408] conv7_1 -> conv7_1
I0601 15:51:34.546921 16695 net.cpp:150] Setting up conv7_1
I0601 15:51:34.546931 16695 net.cpp:157] Top shape: 4 128 10 10 (51200)
I0601 15:51:34.546936 16695 net.cpp:165] Memory required for data: 939921440
I0601 15:51:34.546942 16695 layer_factory.hpp:77] Creating layer conv7_1_relu
I0601 15:51:34.546949 16695 net.cpp:100] Creating Layer conv7_1_relu
I0601 15:51:34.546953 16695 net.cpp:434] conv7_1_relu <- conv7_1
I0601 15:51:34.546960 16695 net.cpp:395] conv7_1_relu -> conv7_1 (in-place)
I0601 15:51:34.547158 16695 net.cpp:150] Setting up conv7_1_relu
I0601 15:51:34.547168 16695 net.cpp:157] Top shape: 4 128 10 10 (51200)
I0601 15:51:34.547173 16695 net.cpp:165] Memory required for data: 940126240
I0601 15:51:34.547178 16695 layer_factory.hpp:77] Creating layer conv7_2
I0601 15:51:34.547189 16695 net.cpp:100] Creating Layer conv7_2
I0601 15:51:34.547194 16695 net.cpp:434] conv7_2 <- conv7_1
I0601 15:51:34.547204 16695 net.cpp:408] conv7_2 -> conv7_2
I0601 15:51:34.550575 16695 net.cpp:150] Setting up conv7_2
I0601 15:51:34.550592 16695 net.cpp:157] Top shape: 4 256 5 5 (25600)
I0601 15:51:34.550595 16695 net.cpp:165] Memory required for data: 940228640
I0601 15:51:34.550601 16695 layer_factory.hpp:77] Creating layer conv7_2_relu
I0601 15:51:34.550609 16695 net.cpp:100] Creating Layer conv7_2_relu
I0601 15:51:34.550616 16695 net.cpp:434] conv7_2_relu <- conv7_2
I0601 15:51:34.550621 16695 net.cpp:395] conv7_2_relu -> conv7_2 (in-place)
I0601 15:51:34.550823 16695 net.cpp:150] Setting up conv7_2_relu
I0601 15:51:34.550835 16695 net.cpp:157] Top shape: 4 256 5 5 (25600)
I0601 15:51:34.550840 16695 net.cpp:165] Memory required for data: 940331040
I0601 15:51:34.550844 16695 layer_factory.hpp:77] Creating layer conv7_2_conv7_2_relu_0_split
I0601 15:51:34.550851 16695 net.cpp:100] Creating Layer conv7_2_conv7_2_relu_0_split
I0601 15:51:34.550858 16695 net.cpp:434] conv7_2_conv7_2_relu_0_split <- conv7_2
I0601 15:51:34.550865 16695 net.cpp:408] conv7_2_conv7_2_relu_0_split -> conv7_2_conv7_2_relu_0_split_0
I0601 15:51:34.550875 16695 net.cpp:408] conv7_2_conv7_2_relu_0_split -> conv7_2_conv7_2_relu_0_split_1
I0601 15:51:34.550884 16695 net.cpp:408] conv7_2_conv7_2_relu_0_split -> conv7_2_conv7_2_relu_0_split_2
I0601 15:51:34.550892 16695 net.cpp:408] conv7_2_conv7_2_relu_0_split -> conv7_2_conv7_2_relu_0_split_3
I0601 15:51:34.550984 16695 net.cpp:150] Setting up conv7_2_conv7_2_relu_0_split
I0601 15:51:34.550992 16695 net.cpp:157] Top shape: 4 256 5 5 (25600)
I0601 15:51:34.550998 16695 net.cpp:157] Top shape: 4 256 5 5 (25600)
I0601 15:51:34.551004 16695 net.cpp:157] Top shape: 4 256 5 5 (25600)
I0601 15:51:34.551009 16695 net.cpp:157] Top shape: 4 256 5 5 (25600)
I0601 15:51:34.551013 16695 net.cpp:165] Memory required for data: 940740640
I0601 15:51:34.551017 16695 layer_factory.hpp:77] Creating layer conv8_1
I0601 15:51:34.551043 16695 net.cpp:100] Creating Layer conv8_1
I0601 15:51:34.551048 16695 net.cpp:434] conv8_1 <- conv7_2_conv7_2_relu_0_split_0
I0601 15:51:34.551059 16695 net.cpp:408] conv8_1 -> conv8_1
I0601 15:51:34.552742 16695 net.cpp:150] Setting up conv8_1
I0601 15:51:34.552752 16695 net.cpp:157] Top shape: 4 128 5 5 (12800)
I0601 15:51:34.552754 16695 net.cpp:165] Memory required for data: 940791840
I0601 15:51:34.552759 16695 layer_factory.hpp:77] Creating layer conv8_1_relu
I0601 15:51:34.552767 16695 net.cpp:100] Creating Layer conv8_1_relu
I0601 15:51:34.552786 16695 net.cpp:434] conv8_1_relu <- conv8_1
I0601 15:51:34.552793 16695 net.cpp:395] conv8_1_relu -> conv8_1 (in-place)
I0601 15:51:34.553688 16695 net.cpp:150] Setting up conv8_1_relu
I0601 15:51:34.553699 16695 net.cpp:157] Top shape: 4 128 5 5 (12800)
I0601 15:51:34.553702 16695 net.cpp:165] Memory required for data: 940843040
I0601 15:51:34.553705 16695 layer_factory.hpp:77] Creating layer conv8_2
I0601 15:51:34.553716 16695 net.cpp:100] Creating Layer conv8_2
I0601 15:51:34.553722 16695 net.cpp:434] conv8_2 <- conv8_1
I0601 15:51:34.553733 16695 net.cpp:408] conv8_2 -> conv8_2
I0601 15:51:34.557077 16695 net.cpp:150] Setting up conv8_2
I0601 15:51:34.557090 16695 net.cpp:157] Top shape: 4 256 3 3 (9216)
I0601 15:51:34.557092 16695 net.cpp:165] Memory required for data: 940879904
I0601 15:51:34.557101 16695 layer_factory.hpp:77] Creating layer conv8_2_relu
I0601 15:51:34.557111 16695 net.cpp:100] Creating Layer conv8_2_relu
I0601 15:51:34.557116 16695 net.cpp:434] conv8_2_relu <- conv8_2
I0601 15:51:34.557135 16695 net.cpp:395] conv8_2_relu -> conv8_2 (in-place)
I0601 15:51:34.557343 16695 net.cpp:150] Setting up conv8_2_relu
I0601 15:51:34.557355 16695 net.cpp:157] Top shape: 4 256 3 3 (9216)
I0601 15:51:34.557360 16695 net.cpp:165] Memory required for data: 940916768
I0601 15:51:34.557364 16695 layer_factory.hpp:77] Creating layer conv8_2_conv8_2_relu_0_split
I0601 15:51:34.557386 16695 net.cpp:100] Creating Layer conv8_2_conv8_2_relu_0_split
I0601 15:51:34.557392 16695 net.cpp:434] conv8_2_conv8_2_relu_0_split <- conv8_2
I0601 15:51:34.557400 16695 net.cpp:408] conv8_2_conv8_2_relu_0_split -> conv8_2_conv8_2_relu_0_split_0
I0601 15:51:34.557410 16695 net.cpp:408] conv8_2_conv8_2_relu_0_split -> conv8_2_conv8_2_relu_0_split_1
I0601 15:51:34.557420 16695 net.cpp:408] conv8_2_conv8_2_relu_0_split -> conv8_2_conv8_2_relu_0_split_2
I0601 15:51:34.557428 16695 net.cpp:408] conv8_2_conv8_2_relu_0_split -> conv8_2_conv8_2_relu_0_split_3
I0601 15:51:34.557536 16695 net.cpp:150] Setting up conv8_2_conv8_2_relu_0_split
I0601 15:51:34.557544 16695 net.cpp:157] Top shape: 4 256 3 3 (9216)
I0601 15:51:34.557551 16695 net.cpp:157] Top shape: 4 256 3 3 (9216)
I0601 15:51:34.557556 16695 net.cpp:157] Top shape: 4 256 3 3 (9216)
I0601 15:51:34.557561 16695 net.cpp:157] Top shape: 4 256 3 3 (9216)
I0601 15:51:34.557565 16695 net.cpp:165] Memory required for data: 941064224
I0601 15:51:34.557570 16695 layer_factory.hpp:77] Creating layer conv9_1
I0601 15:51:34.557581 16695 net.cpp:100] Creating Layer conv9_1
I0601 15:51:34.557587 16695 net.cpp:434] conv9_1 <- conv8_2_conv8_2_relu_0_split_0
I0601 15:51:34.557595 16695 net.cpp:408] conv9_1 -> conv9_1
I0601 15:51:34.559240 16695 net.cpp:150] Setting up conv9_1
I0601 15:51:34.559250 16695 net.cpp:157] Top shape: 4 128 3 3 (4608)
I0601 15:51:34.559252 16695 net.cpp:165] Memory required for data: 941082656
I0601 15:51:34.559259 16695 layer_factory.hpp:77] Creating layer conv9_1_relu
I0601 15:51:34.559267 16695 net.cpp:100] Creating Layer conv9_1_relu
I0601 15:51:34.559273 16695 net.cpp:434] conv9_1_relu <- conv9_1
I0601 15:51:34.559281 16695 net.cpp:395] conv9_1_relu -> conv9_1 (in-place)
I0601 15:51:34.559476 16695 net.cpp:150] Setting up conv9_1_relu
I0601 15:51:34.559489 16695 net.cpp:157] Top shape: 4 128 3 3 (4608)
I0601 15:51:34.559494 16695 net.cpp:165] Memory required for data: 941101088
I0601 15:51:34.559499 16695 layer_factory.hpp:77] Creating layer conv9_2
I0601 15:51:34.559522 16695 net.cpp:100] Creating Layer conv9_2
I0601 15:51:34.559530 16695 net.cpp:434] conv9_2 <- conv9_1
I0601 15:51:34.559538 16695 net.cpp:408] conv9_2 -> conv9_2
I0601 15:51:34.562814 16695 net.cpp:150] Setting up conv9_2
I0601 15:51:34.562829 16695 net.cpp:157] Top shape: 4 256 1 1 (1024)
I0601 15:51:34.562834 16695 net.cpp:165] Memory required for data: 941105184
I0601 15:51:34.562840 16695 layer_factory.hpp:77] Creating layer conv9_2_relu
I0601 15:51:34.562849 16695 net.cpp:100] Creating Layer conv9_2_relu
I0601 15:51:34.562855 16695 net.cpp:434] conv9_2_relu <- conv9_2
I0601 15:51:34.562862 16695 net.cpp:395] conv9_2_relu -> conv9_2 (in-place)
I0601 15:51:34.563051 16695 net.cpp:150] Setting up conv9_2_relu
I0601 15:51:34.563062 16695 net.cpp:157] Top shape: 4 256 1 1 (1024)
I0601 15:51:34.563066 16695 net.cpp:165] Memory required for data: 941109280
I0601 15:51:34.563071 16695 layer_factory.hpp:77] Creating layer conv9_2_conv9_2_relu_0_split
I0601 15:51:34.563079 16695 net.cpp:100] Creating Layer conv9_2_conv9_2_relu_0_split
I0601 15:51:34.563083 16695 net.cpp:434] conv9_2_conv9_2_relu_0_split <- conv9_2
I0601 15:51:34.563091 16695 net.cpp:408] conv9_2_conv9_2_relu_0_split -> conv9_2_conv9_2_relu_0_split_0
I0601 15:51:34.563099 16695 net.cpp:408] conv9_2_conv9_2_relu_0_split -> conv9_2_conv9_2_relu_0_split_1
I0601 15:51:34.563108 16695 net.cpp:408] conv9_2_conv9_2_relu_0_split -> conv9_2_conv9_2_relu_0_split_2
I0601 15:51:34.563184 16695 net.cpp:150] Setting up conv9_2_conv9_2_relu_0_split
I0601 15:51:34.563191 16695 net.cpp:157] Top shape: 4 256 1 1 (1024)
I0601 15:51:34.563196 16695 net.cpp:157] Top shape: 4 256 1 1 (1024)
I0601 15:51:34.563202 16695 net.cpp:157] Top shape: 4 256 1 1 (1024)
I0601 15:51:34.563206 16695 net.cpp:165] Memory required for data: 941121568
I0601 15:51:34.563210 16695 layer_factory.hpp:77] Creating layer conv4_3_norm
I0601 15:51:34.563218 16695 net.cpp:100] Creating Layer conv4_3_norm
I0601 15:51:34.563225 16695 net.cpp:434] conv4_3_norm <- conv4_3_relu4_3_0_split_1
I0601 15:51:34.563230 16695 net.cpp:408] conv4_3_norm -> conv4_3_norm
I0601 15:51:34.563458 16695 net.cpp:150] Setting up conv4_3_norm
I0601 15:51:34.563468 16695 net.cpp:157] Top shape: 4 512 38 38 (2957312)
I0601 15:51:34.563473 16695 net.cpp:165] Memory required for data: 952950816
I0601 15:51:34.563479 16695 layer_factory.hpp:77] Creating layer conv4_3_norm_conv4_3_norm_0_split
I0601 15:51:34.563485 16695 net.cpp:100] Creating Layer conv4_3_norm_conv4_3_norm_0_split
I0601 15:51:34.563490 16695 net.cpp:434] conv4_3_norm_conv4_3_norm_0_split <- conv4_3_norm
I0601 15:51:34.563498 16695 net.cpp:408] conv4_3_norm_conv4_3_norm_0_split -> conv4_3_norm_conv4_3_norm_0_split_0
I0601 15:51:34.563505 16695 net.cpp:408] conv4_3_norm_conv4_3_norm_0_split -> conv4_3_norm_conv4_3_norm_0_split_1
I0601 15:51:34.563515 16695 net.cpp:408] conv4_3_norm_conv4_3_norm_0_split -> conv4_3_norm_conv4_3_norm_0_split_2
I0601 15:51:34.563582 16695 net.cpp:150] Setting up conv4_3_norm_conv4_3_norm_0_split
I0601 15:51:34.563591 16695 net.cpp:157] Top shape: 4 512 38 38 (2957312)
I0601 15:51:34.563596 16695 net.cpp:157] Top shape: 4 512 38 38 (2957312)
I0601 15:51:34.563601 16695 net.cpp:157] Top shape: 4 512 38 38 (2957312)
I0601 15:51:34.563606 16695 net.cpp:165] Memory required for data: 988438560
I0601 15:51:34.563611 16695 layer_factory.hpp:77] Creating layer conv4_3_norm_mbox_loc
I0601 15:51:34.563624 16695 net.cpp:100] Creating Layer conv4_3_norm_mbox_loc
I0601 15:51:34.563629 16695 net.cpp:434] conv4_3_norm_mbox_loc <- conv4_3_norm_conv4_3_norm_0_split_0
I0601 15:51:34.563637 16695 net.cpp:408] conv4_3_norm_mbox_loc -> conv4_3_norm_mbox_loc
I0601 15:51:34.565831 16695 net.cpp:150] Setting up conv4_3_norm_mbox_loc
I0601 15:51:34.565841 16695 net.cpp:157] Top shape: 4 16 38 38 (92416)
I0601 15:51:34.565845 16695 net.cpp:165] Memory required for data: 988808224
I0601 15:51:34.565850 16695 layer_factory.hpp:77] Creating layer conv4_3_norm_mbox_loc_perm
I0601 15:51:34.565860 16695 net.cpp:100] Creating Layer conv4_3_norm_mbox_loc_perm
I0601 15:51:34.565879 16695 net.cpp:434] conv4_3_norm_mbox_loc_perm <- conv4_3_norm_mbox_loc
I0601 15:51:34.565888 16695 net.cpp:408] conv4_3_norm_mbox_loc_perm -> conv4_3_norm_mbox_loc_perm
I0601 15:51:34.566016 16695 net.cpp:150] Setting up conv4_3_norm_mbox_loc_perm
I0601 15:51:34.566026 16695 net.cpp:157] Top shape: 4 38 38 16 (92416)
I0601 15:51:34.566030 16695 net.cpp:165] Memory required for data: 989177888
I0601 15:51:34.566033 16695 layer_factory.hpp:77] Creating layer conv4_3_norm_mbox_loc_flat
I0601 15:51:34.566038 16695 net.cpp:100] Creating Layer conv4_3_norm_mbox_loc_flat
I0601 15:51:34.566043 16695 net.cpp:434] conv4_3_norm_mbox_loc_flat <- conv4_3_norm_mbox_loc_perm
I0601 15:51:34.566049 16695 net.cpp:408] conv4_3_norm_mbox_loc_flat -> conv4_3_norm_mbox_loc_flat
I0601 15:51:34.566088 16695 net.cpp:150] Setting up conv4_3_norm_mbox_loc_flat
I0601 15:51:34.566094 16695 net.cpp:157] Top shape: 4 23104 (92416)
I0601 15:51:34.566098 16695 net.cpp:165] Memory required for data: 989547552
I0601 15:51:34.566102 16695 layer_factory.hpp:77] Creating layer conv4_3_norm_mbox_conf
I0601 15:51:34.566115 16695 net.cpp:100] Creating Layer conv4_3_norm_mbox_conf
I0601 15:51:34.566119 16695 net.cpp:434] conv4_3_norm_mbox_conf <- conv4_3_norm_conv4_3_norm_0_split_1
I0601 15:51:34.566126 16695 net.cpp:408] conv4_3_norm_mbox_conf -> conv4_3_norm_mbox_conf
I0601 15:51:34.568436 16695 net.cpp:150] Setting up conv4_3_norm_mbox_conf
I0601 15:51:34.568445 16695 net.cpp:157] Top shape: 4 16 38 38 (92416)
I0601 15:51:34.568449 16695 net.cpp:165] Memory required for data: 989917216
I0601 15:51:34.568456 16695 layer_factory.hpp:77] Creating layer conv4_3_norm_mbox_conf_perm
I0601 15:51:34.568465 16695 net.cpp:100] Creating Layer conv4_3_norm_mbox_conf_perm
I0601 15:51:34.568470 16695 net.cpp:434] conv4_3_norm_mbox_conf_perm <- conv4_3_norm_mbox_conf
I0601 15:51:34.568477 16695 net.cpp:408] conv4_3_norm_mbox_conf_perm -> conv4_3_norm_mbox_conf_perm
I0601 15:51:34.568632 16695 net.cpp:150] Setting up conv4_3_norm_mbox_conf_perm
I0601 15:51:34.568642 16695 net.cpp:157] Top shape: 4 38 38 16 (92416)
I0601 15:51:34.568646 16695 net.cpp:165] Memory required for data: 990286880
I0601 15:51:34.568650 16695 layer_factory.hpp:77] Creating layer conv4_3_norm_mbox_conf_flat
I0601 15:51:34.568660 16695 net.cpp:100] Creating Layer conv4_3_norm_mbox_conf_flat
I0601 15:51:34.568665 16695 net.cpp:434] conv4_3_norm_mbox_conf_flat <- conv4_3_norm_mbox_conf_perm
I0601 15:51:34.568671 16695 net.cpp:408] conv4_3_norm_mbox_conf_flat -> conv4_3_norm_mbox_conf_flat
I0601 15:51:34.568703 16695 net.cpp:150] Setting up conv4_3_norm_mbox_conf_flat
I0601 15:51:34.568711 16695 net.cpp:157] Top shape: 4 23104 (92416)
I0601 15:51:34.568716 16695 net.cpp:165] Memory required for data: 990656544
I0601 15:51:34.568719 16695 layer_factory.hpp:77] Creating layer conv4_3_norm_mbox_priorbox
I0601 15:51:34.568727 16695 net.cpp:100] Creating Layer conv4_3_norm_mbox_priorbox
I0601 15:51:34.568733 16695 net.cpp:434] conv4_3_norm_mbox_priorbox <- conv4_3_norm_conv4_3_norm_0_split_2
I0601 15:51:34.568739 16695 net.cpp:434] conv4_3_norm_mbox_priorbox <- data_data_0_split_1
I0601 15:51:34.568747 16695 net.cpp:408] conv4_3_norm_mbox_priorbox -> conv4_3_norm_mbox_priorbox
I0601 15:51:34.568780 16695 net.cpp:150] Setting up conv4_3_norm_mbox_priorbox
I0601 15:51:34.568789 16695 net.cpp:157] Top shape: 1 2 23104 (46208)
I0601 15:51:34.568794 16695 net.cpp:165] Memory required for data: 990841376
I0601 15:51:34.568796 16695 layer_factory.hpp:77] Creating layer fc7_mbox_loc
I0601 15:51:34.568807 16695 net.cpp:100] Creating Layer fc7_mbox_loc
I0601 15:51:34.568814 16695 net.cpp:434] fc7_mbox_loc <- fc7_relu7_0_split_1
I0601 15:51:34.568821 16695 net.cpp:408] fc7_mbox_loc -> fc7_mbox_loc
I0601 15:51:34.571655 16695 net.cpp:150] Setting up fc7_mbox_loc
I0601 15:51:34.571666 16695 net.cpp:157] Top shape: 4 24 19 19 (34656)
I0601 15:51:34.571669 16695 net.cpp:165] Memory required for data: 990980000
I0601 15:51:34.571676 16695 layer_factory.hpp:77] Creating layer fc7_mbox_loc_perm
I0601 15:51:34.571683 16695 net.cpp:100] Creating Layer fc7_mbox_loc_perm
I0601 15:51:34.571699 16695 net.cpp:434] fc7_mbox_loc_perm <- fc7_mbox_loc
I0601 15:51:34.571710 16695 net.cpp:408] fc7_mbox_loc_perm -> fc7_mbox_loc_perm
I0601 15:51:34.571864 16695 net.cpp:150] Setting up fc7_mbox_loc_perm
I0601 15:51:34.571876 16695 net.cpp:157] Top shape: 4 19 19 24 (34656)
I0601 15:51:34.571880 16695 net.cpp:165] Memory required for data: 991118624
I0601 15:51:34.571885 16695 layer_factory.hpp:77] Creating layer fc7_mbox_loc_flat
I0601 15:51:34.571892 16695 net.cpp:100] Creating Layer fc7_mbox_loc_flat
I0601 15:51:34.571897 16695 net.cpp:434] fc7_mbox_loc_flat <- fc7_mbox_loc_perm
I0601 15:51:34.571907 16695 net.cpp:408] fc7_mbox_loc_flat -> fc7_mbox_loc_flat
I0601 15:51:34.571938 16695 net.cpp:150] Setting up fc7_mbox_loc_flat
I0601 15:51:34.571945 16695 net.cpp:157] Top shape: 4 8664 (34656)
I0601 15:51:34.571949 16695 net.cpp:165] Memory required for data: 991257248
I0601 15:51:34.571952 16695 layer_factory.hpp:77] Creating layer fc7_mbox_conf
I0601 15:51:34.571964 16695 net.cpp:100] Creating Layer fc7_mbox_conf
I0601 15:51:34.571970 16695 net.cpp:434] fc7_mbox_conf <- fc7_relu7_0_split_2
I0601 15:51:34.571977 16695 net.cpp:408] fc7_mbox_conf -> fc7_mbox_conf
I0601 15:51:34.574923 16695 net.cpp:150] Setting up fc7_mbox_conf
I0601 15:51:34.574936 16695 net.cpp:157] Top shape: 4 24 19 19 (34656)
I0601 15:51:34.574939 16695 net.cpp:165] Memory required for data: 991395872
I0601 15:51:34.574945 16695 layer_factory.hpp:77] Creating layer fc7_mbox_conf_perm
I0601 15:51:34.574954 16695 net.cpp:100] Creating Layer fc7_mbox_conf_perm
I0601 15:51:34.574959 16695 net.cpp:434] fc7_mbox_conf_perm <- fc7_mbox_conf
I0601 15:51:34.574968 16695 net.cpp:408] fc7_mbox_conf_perm -> fc7_mbox_conf_perm
I0601 15:51:34.575227 16695 net.cpp:150] Setting up fc7_mbox_conf_perm
I0601 15:51:34.575239 16695 net.cpp:157] Top shape: 4 19 19 24 (34656)
I0601 15:51:34.575258 16695 net.cpp:165] Memory required for data: 991534496
I0601 15:51:34.575263 16695 layer_factory.hpp:77] Creating layer fc7_mbox_conf_flat
I0601 15:51:34.575270 16695 net.cpp:100] Creating Layer fc7_mbox_conf_flat
I0601 15:51:34.575275 16695 net.cpp:434] fc7_mbox_conf_flat <- fc7_mbox_conf_perm
I0601 15:51:34.575283 16695 net.cpp:408] fc7_mbox_conf_flat -> fc7_mbox_conf_flat
I0601 15:51:34.575331 16695 net.cpp:150] Setting up fc7_mbox_conf_flat
I0601 15:51:34.575340 16695 net.cpp:157] Top shape: 4 8664 (34656)
I0601 15:51:34.575343 16695 net.cpp:165] Memory required for data: 991673120
I0601 15:51:34.575348 16695 layer_factory.hpp:77] Creating layer fc7_mbox_priorbox
I0601 15:51:34.575356 16695 net.cpp:100] Creating Layer fc7_mbox_priorbox
I0601 15:51:34.575361 16695 net.cpp:434] fc7_mbox_priorbox <- fc7_relu7_0_split_3
I0601 15:51:34.575367 16695 net.cpp:434] fc7_mbox_priorbox <- data_data_0_split_2
I0601 15:51:34.575376 16695 net.cpp:408] fc7_mbox_priorbox -> fc7_mbox_priorbox
I0601 15:51:34.575412 16695 net.cpp:150] Setting up fc7_mbox_priorbox
I0601 15:51:34.575420 16695 net.cpp:157] Top shape: 1 2 8664 (17328)
I0601 15:51:34.575424 16695 net.cpp:165] Memory required for data: 991742432
I0601 15:51:34.575430 16695 layer_factory.hpp:77] Creating layer conv6_2_mbox_loc
I0601 15:51:34.575441 16695 net.cpp:100] Creating Layer conv6_2_mbox_loc
I0601 15:51:34.575448 16695 net.cpp:434] conv6_2_mbox_loc <- conv6_2_conv6_2_relu_0_split_1
I0601 15:51:34.575456 16695 net.cpp:408] conv6_2_mbox_loc -> conv6_2_mbox_loc
I0601 15:51:34.582656 16695 net.cpp:150] Setting up conv6_2_mbox_loc
I0601 15:51:34.582666 16695 net.cpp:157] Top shape: 4 24 10 10 (9600)
I0601 15:51:34.582669 16695 net.cpp:165] Memory required for data: 991780832
I0601 15:51:34.582674 16695 layer_factory.hpp:77] Creating layer conv6_2_mbox_loc_perm
I0601 15:51:34.582684 16695 net.cpp:100] Creating Layer conv6_2_mbox_loc_perm
I0601 15:51:34.582689 16695 net.cpp:434] conv6_2_mbox_loc_perm <- conv6_2_mbox_loc
I0601 15:51:34.582697 16695 net.cpp:408] conv6_2_mbox_loc_perm -> conv6_2_mbox_loc_perm
I0601 15:51:34.582936 16695 net.cpp:150] Setting up conv6_2_mbox_loc_perm
I0601 15:51:34.582957 16695 net.cpp:157] Top shape: 4 10 10 24 (9600)
I0601 15:51:34.582962 16695 net.cpp:165] Memory required for data: 991819232
I0601 15:51:34.582967 16695 layer_factory.hpp:77] Creating layer conv6_2_mbox_loc_flat
I0601 15:51:34.582973 16695 net.cpp:100] Creating Layer conv6_2_mbox_loc_flat
I0601 15:51:34.582978 16695 net.cpp:434] conv6_2_mbox_loc_flat <- conv6_2_mbox_loc_perm
I0601 15:51:34.582983 16695 net.cpp:408] conv6_2_mbox_loc_flat -> conv6_2_mbox_loc_flat
I0601 15:51:34.583017 16695 net.cpp:150] Setting up conv6_2_mbox_loc_flat
I0601 15:51:34.583024 16695 net.cpp:157] Top shape: 4 2400 (9600)
I0601 15:51:34.583029 16695 net.cpp:165] Memory required for data: 991857632
I0601 15:51:34.583032 16695 layer_factory.hpp:77] Creating layer conv6_2_mbox_conf
I0601 15:51:34.583043 16695 net.cpp:100] Creating Layer conv6_2_mbox_conf
I0601 15:51:34.583048 16695 net.cpp:434] conv6_2_mbox_conf <- conv6_2_conv6_2_relu_0_split_2
I0601 15:51:34.583060 16695 net.cpp:408] conv6_2_mbox_conf -> conv6_2_mbox_conf
I0601 15:51:34.588047 16695 net.cpp:150] Setting up conv6_2_mbox_conf
I0601 15:51:34.588062 16695 net.cpp:157] Top shape: 4 24 10 10 (9600)
I0601 15:51:34.588063 16695 net.cpp:165] Memory required for data: 991896032
I0601 15:51:34.588070 16695 layer_factory.hpp:77] Creating layer conv6_2_mbox_conf_perm
I0601 15:51:34.588080 16695 net.cpp:100] Creating Layer conv6_2_mbox_conf_perm
I0601 15:51:34.588086 16695 net.cpp:434] conv6_2_mbox_conf_perm <- conv6_2_mbox_conf
I0601 15:51:34.588093 16695 net.cpp:408] conv6_2_mbox_conf_perm -> conv6_2_mbox_conf_perm
I0601 15:51:34.588306 16695 net.cpp:150] Setting up conv6_2_mbox_conf_perm
I0601 15:51:34.588316 16695 net.cpp:157] Top shape: 4 10 10 24 (9600)
I0601 15:51:34.588323 16695 net.cpp:165] Memory required for data: 991934432
I0601 15:51:34.588327 16695 layer_factory.hpp:77] Creating layer conv6_2_mbox_conf_flat
I0601 15:51:34.588349 16695 net.cpp:100] Creating Layer conv6_2_mbox_conf_flat
I0601 15:51:34.588367 16695 net.cpp:434] conv6_2_mbox_conf_flat <- conv6_2_mbox_conf_perm
I0601 15:51:34.588374 16695 net.cpp:408] conv6_2_mbox_conf_flat -> conv6_2_mbox_conf_flat
I0601 15:51:34.588409 16695 net.cpp:150] Setting up conv6_2_mbox_conf_flat
I0601 15:51:34.588418 16695 net.cpp:157] Top shape: 4 2400 (9600)
I0601 15:51:34.588421 16695 net.cpp:165] Memory required for data: 991972832
I0601 15:51:34.588424 16695 layer_factory.hpp:77] Creating layer conv6_2_mbox_priorbox
I0601 15:51:34.588433 16695 net.cpp:100] Creating Layer conv6_2_mbox_priorbox
I0601 15:51:34.588438 16695 net.cpp:434] conv6_2_mbox_priorbox <- conv6_2_conv6_2_relu_0_split_3
I0601 15:51:34.588445 16695 net.cpp:434] conv6_2_mbox_priorbox <- data_data_0_split_3
I0601 15:51:34.588452 16695 net.cpp:408] conv6_2_mbox_priorbox -> conv6_2_mbox_priorbox
I0601 15:51:34.588502 16695 net.cpp:150] Setting up conv6_2_mbox_priorbox
I0601 15:51:34.588510 16695 net.cpp:157] Top shape: 1 2 2400 (4800)
I0601 15:51:34.588515 16695 net.cpp:165] Memory required for data: 991992032
I0601 15:51:34.588518 16695 layer_factory.hpp:77] Creating layer conv7_2_mbox_loc
I0601 15:51:34.588529 16695 net.cpp:100] Creating Layer conv7_2_mbox_loc
I0601 15:51:34.588536 16695 net.cpp:434] conv7_2_mbox_loc <- conv7_2_conv7_2_relu_0_split_1
I0601 15:51:34.588544 16695 net.cpp:408] conv7_2_mbox_loc -> conv7_2_mbox_loc
I0601 15:51:34.601708 16695 net.cpp:150] Setting up conv7_2_mbox_loc
I0601 15:51:34.601719 16695 net.cpp:157] Top shape: 4 24 5 5 (2400)
I0601 15:51:34.601722 16695 net.cpp:165] Memory required for data: 992001632
I0601 15:51:34.601727 16695 layer_factory.hpp:77] Creating layer conv7_2_mbox_loc_perm
I0601 15:51:34.601732 16695 net.cpp:100] Creating Layer conv7_2_mbox_loc_perm
I0601 15:51:34.601750 16695 net.cpp:434] conv7_2_mbox_loc_perm <- conv7_2_mbox_loc
I0601 15:51:34.601755 16695 net.cpp:408] conv7_2_mbox_loc_perm -> conv7_2_mbox_loc_perm
I0601 15:51:34.602006 16695 net.cpp:150] Setting up conv7_2_mbox_loc_perm
I0601 15:51:34.602017 16695 net.cpp:157] Top shape: 4 5 5 24 (2400)
I0601 15:51:34.602020 16695 net.cpp:165] Memory required for data: 992011232
I0601 15:51:34.602037 16695 layer_factory.hpp:77] Creating layer conv7_2_mbox_loc_flat
I0601 15:51:34.602044 16695 net.cpp:100] Creating Layer conv7_2_mbox_loc_flat
I0601 15:51:34.602047 16695 net.cpp:434] conv7_2_mbox_loc_flat <- conv7_2_mbox_loc_perm
I0601 15:51:34.602052 16695 net.cpp:408] conv7_2_mbox_loc_flat -> conv7_2_mbox_loc_flat
I0601 15:51:34.602111 16695 net.cpp:150] Setting up conv7_2_mbox_loc_flat
I0601 15:51:34.602133 16695 net.cpp:157] Top shape: 4 600 (2400)
I0601 15:51:34.602135 16695 net.cpp:165] Memory required for data: 992020832
I0601 15:51:34.602139 16695 layer_factory.hpp:77] Creating layer conv7_2_mbox_conf
I0601 15:51:34.602151 16695 net.cpp:100] Creating Layer conv7_2_mbox_conf
I0601 15:51:34.602155 16695 net.cpp:434] conv7_2_mbox_conf <- conv7_2_conv7_2_relu_0_split_2
I0601 15:51:34.602164 16695 net.cpp:408] conv7_2_mbox_conf -> conv7_2_mbox_conf
I0601 15:51:34.604605 16695 net.cpp:150] Setting up conv7_2_mbox_conf
I0601 15:51:34.604617 16695 net.cpp:157] Top shape: 4 24 5 5 (2400)
I0601 15:51:34.604619 16695 net.cpp:165] Memory required for data: 992030432
I0601 15:51:34.604624 16695 layer_factory.hpp:77] Creating layer conv7_2_mbox_conf_perm
I0601 15:51:34.604632 16695 net.cpp:100] Creating Layer conv7_2_mbox_conf_perm
I0601 15:51:34.604638 16695 net.cpp:434] conv7_2_mbox_conf_perm <- conv7_2_mbox_conf
I0601 15:51:34.604645 16695 net.cpp:408] conv7_2_mbox_conf_perm -> conv7_2_mbox_conf_perm
I0601 15:51:34.604806 16695 net.cpp:150] Setting up conv7_2_mbox_conf_perm
I0601 15:51:34.604815 16695 net.cpp:157] Top shape: 4 5 5 24 (2400)
I0601 15:51:34.604820 16695 net.cpp:165] Memory required for data: 992040032
I0601 15:51:34.604838 16695 layer_factory.hpp:77] Creating layer conv7_2_mbox_conf_flat
I0601 15:51:34.604846 16695 net.cpp:100] Creating Layer conv7_2_mbox_conf_flat
I0601 15:51:34.604851 16695 net.cpp:434] conv7_2_mbox_conf_flat <- conv7_2_mbox_conf_perm
I0601 15:51:34.604859 16695 net.cpp:408] conv7_2_mbox_conf_flat -> conv7_2_mbox_conf_flat
I0601 15:51:34.604897 16695 net.cpp:150] Setting up conv7_2_mbox_conf_flat
I0601 15:51:34.604905 16695 net.cpp:157] Top shape: 4 600 (2400)
I0601 15:51:34.604909 16695 net.cpp:165] Memory required for data: 992049632
I0601 15:51:34.604914 16695 layer_factory.hpp:77] Creating layer conv7_2_mbox_priorbox
I0601 15:51:34.604923 16695 net.cpp:100] Creating Layer conv7_2_mbox_priorbox
I0601 15:51:34.604929 16695 net.cpp:434] conv7_2_mbox_priorbox <- conv7_2_conv7_2_relu_0_split_3
I0601 15:51:34.604935 16695 net.cpp:434] conv7_2_mbox_priorbox <- data_data_0_split_4
I0601 15:51:34.604943 16695 net.cpp:408] conv7_2_mbox_priorbox -> conv7_2_mbox_priorbox
I0601 15:51:34.604979 16695 net.cpp:150] Setting up conv7_2_mbox_priorbox
I0601 15:51:34.604986 16695 net.cpp:157] Top shape: 1 2 600 (1200)
I0601 15:51:34.604990 16695 net.cpp:165] Memory required for data: 992054432
I0601 15:51:34.604995 16695 layer_factory.hpp:77] Creating layer conv8_2_mbox_loc
I0601 15:51:34.605005 16695 net.cpp:100] Creating Layer conv8_2_mbox_loc
I0601 15:51:34.605010 16695 net.cpp:434] conv8_2_mbox_loc <- conv8_2_conv8_2_relu_0_split_1
I0601 15:51:34.605021 16695 net.cpp:408] conv8_2_mbox_loc -> conv8_2_mbox_loc
I0601 15:51:34.607120 16695 net.cpp:150] Setting up conv8_2_mbox_loc
I0601 15:51:34.607130 16695 net.cpp:157] Top shape: 4 16 3 3 (576)
I0601 15:51:34.607131 16695 net.cpp:165] Memory required for data: 992056736
I0601 15:51:34.607147 16695 layer_factory.hpp:77] Creating layer conv8_2_mbox_loc_perm
I0601 15:51:34.607156 16695 net.cpp:100] Creating Layer conv8_2_mbox_loc_perm
I0601 15:51:34.607163 16695 net.cpp:434] conv8_2_mbox_loc_perm <- conv8_2_mbox_loc
I0601 15:51:34.607170 16695 net.cpp:408] conv8_2_mbox_loc_perm -> conv8_2_mbox_loc_perm
I0601 15:51:34.607331 16695 net.cpp:150] Setting up conv8_2_mbox_loc_perm
I0601 15:51:34.607339 16695 net.cpp:157] Top shape: 4 3 3 16 (576)
I0601 15:51:34.607344 16695 net.cpp:165] Memory required for data: 992059040
I0601 15:51:34.607347 16695 layer_factory.hpp:77] Creating layer conv8_2_mbox_loc_flat
I0601 15:51:34.607365 16695 net.cpp:100] Creating Layer conv8_2_mbox_loc_flat
I0601 15:51:34.607372 16695 net.cpp:434] conv8_2_mbox_loc_flat <- conv8_2_mbox_loc_perm
I0601 15:51:34.607381 16695 net.cpp:408] conv8_2_mbox_loc_flat -> conv8_2_mbox_loc_flat
I0601 15:51:34.607415 16695 net.cpp:150] Setting up conv8_2_mbox_loc_flat
I0601 15:51:34.607424 16695 net.cpp:157] Top shape: 4 144 (576)
I0601 15:51:34.607429 16695 net.cpp:165] Memory required for data: 992061344
I0601 15:51:34.607434 16695 layer_factory.hpp:77] Creating layer conv8_2_mbox_conf
I0601 15:51:34.607445 16695 net.cpp:100] Creating Layer conv8_2_mbox_conf
I0601 15:51:34.607450 16695 net.cpp:434] conv8_2_mbox_conf <- conv8_2_conv8_2_relu_0_split_2
I0601 15:51:34.607458 16695 net.cpp:408] conv8_2_mbox_conf -> conv8_2_mbox_conf
I0601 15:51:34.609586 16695 net.cpp:150] Setting up conv8_2_mbox_conf
I0601 15:51:34.609596 16695 net.cpp:157] Top shape: 4 16 3 3 (576)
I0601 15:51:34.609599 16695 net.cpp:165] Memory required for data: 992063648
I0601 15:51:34.609603 16695 layer_factory.hpp:77] Creating layer conv8_2_mbox_conf_perm
I0601 15:51:34.609612 16695 net.cpp:100] Creating Layer conv8_2_mbox_conf_perm
I0601 15:51:34.609617 16695 net.cpp:434] conv8_2_mbox_conf_perm <- conv8_2_mbox_conf
I0601 15:51:34.609624 16695 net.cpp:408] conv8_2_mbox_conf_perm -> conv8_2_mbox_conf_perm
I0601 15:51:34.609812 16695 net.cpp:150] Setting up conv8_2_mbox_conf_perm
I0601 15:51:34.609822 16695 net.cpp:157] Top shape: 4 3 3 16 (576)
I0601 15:51:34.609827 16695 net.cpp:165] Memory required for data: 992065952
I0601 15:51:34.609830 16695 layer_factory.hpp:77] Creating layer conv8_2_mbox_conf_flat
I0601 15:51:34.609836 16695 net.cpp:100] Creating Layer conv8_2_mbox_conf_flat
I0601 15:51:34.609843 16695 net.cpp:434] conv8_2_mbox_conf_flat <- conv8_2_mbox_conf_perm
I0601 15:51:34.609849 16695 net.cpp:408] conv8_2_mbox_conf_flat -> conv8_2_mbox_conf_flat
I0601 15:51:34.609884 16695 net.cpp:150] Setting up conv8_2_mbox_conf_flat
I0601 15:51:34.609890 16695 net.cpp:157] Top shape: 4 144 (576)
I0601 15:51:34.609894 16695 net.cpp:165] Memory required for data: 992068256
I0601 15:51:34.609899 16695 layer_factory.hpp:77] Creating layer conv8_2_mbox_priorbox
I0601 15:51:34.609906 16695 net.cpp:100] Creating Layer conv8_2_mbox_priorbox
I0601 15:51:34.609911 16695 net.cpp:434] conv8_2_mbox_priorbox <- conv8_2_conv8_2_relu_0_split_3
I0601 15:51:34.609917 16695 net.cpp:434] conv8_2_mbox_priorbox <- data_data_0_split_5
I0601 15:51:34.609926 16695 net.cpp:408] conv8_2_mbox_priorbox -> conv8_2_mbox_priorbox
I0601 15:51:34.609962 16695 net.cpp:150] Setting up conv8_2_mbox_priorbox
I0601 15:51:34.609969 16695 net.cpp:157] Top shape: 1 2 144 (288)
I0601 15:51:34.609973 16695 net.cpp:165] Memory required for data: 992069408
I0601 15:51:34.609977 16695 layer_factory.hpp:77] Creating layer conv9_2_mbox_loc
I0601 15:51:34.609989 16695 net.cpp:100] Creating Layer conv9_2_mbox_loc
I0601 15:51:34.609994 16695 net.cpp:434] conv9_2_mbox_loc <- conv9_2_conv9_2_relu_0_split_0
I0601 15:51:34.610003 16695 net.cpp:408] conv9_2_mbox_loc -> conv9_2_mbox_loc
I0601 15:51:34.612506 16695 net.cpp:150] Setting up conv9_2_mbox_loc
I0601 15:51:34.612516 16695 net.cpp:157] Top shape: 4 16 1 1 (64)
I0601 15:51:34.612519 16695 net.cpp:165] Memory required for data: 992069664
I0601 15:51:34.612525 16695 layer_factory.hpp:77] Creating layer conv9_2_mbox_loc_perm
I0601 15:51:34.612534 16695 net.cpp:100] Creating Layer conv9_2_mbox_loc_perm
I0601 15:51:34.612538 16695 net.cpp:434] conv9_2_mbox_loc_perm <- conv9_2_mbox_loc
I0601 15:51:34.612547 16695 net.cpp:408] conv9_2_mbox_loc_perm -> conv9_2_mbox_loc_perm
I0601 15:51:34.612705 16695 net.cpp:150] Setting up conv9_2_mbox_loc_perm
I0601 15:51:34.612716 16695 net.cpp:157] Top shape: 4 1 1 16 (64)
I0601 15:51:34.612720 16695 net.cpp:165] Memory required for data: 992069920
I0601 15:51:34.612725 16695 layer_factory.hpp:77] Creating layer conv9_2_mbox_loc_flat
I0601 15:51:34.612730 16695 net.cpp:100] Creating Layer conv9_2_mbox_loc_flat
I0601 15:51:34.612737 16695 net.cpp:434] conv9_2_mbox_loc_flat <- conv9_2_mbox_loc_perm
I0601 15:51:34.612756 16695 net.cpp:408] conv9_2_mbox_loc_flat -> conv9_2_mbox_loc_flat
I0601 15:51:34.612790 16695 net.cpp:150] Setting up conv9_2_mbox_loc_flat
I0601 15:51:34.612797 16695 net.cpp:157] Top shape: 4 16 (64)
I0601 15:51:34.612802 16695 net.cpp:165] Memory required for data: 992070176
I0601 15:51:34.612807 16695 layer_factory.hpp:77] Creating layer conv9_2_mbox_conf
I0601 15:51:34.612817 16695 net.cpp:100] Creating Layer conv9_2_mbox_conf
I0601 15:51:34.612821 16695 net.cpp:434] conv9_2_mbox_conf <- conv9_2_conv9_2_relu_0_split_1
I0601 15:51:34.612833 16695 net.cpp:408] conv9_2_mbox_conf -> conv9_2_mbox_conf
I0601 15:51:34.614881 16695 net.cpp:150] Setting up conv9_2_mbox_conf
I0601 15:51:34.614892 16695 net.cpp:157] Top shape: 4 16 1 1 (64)
I0601 15:51:34.614893 16695 net.cpp:165] Memory required for data: 992070432
I0601 15:51:34.614899 16695 layer_factory.hpp:77] Creating layer conv9_2_mbox_conf_perm
I0601 15:51:34.614907 16695 net.cpp:100] Creating Layer conv9_2_mbox_conf_perm
I0601 15:51:34.614913 16695 net.cpp:434] conv9_2_mbox_conf_perm <- conv9_2_mbox_conf
I0601 15:51:34.614922 16695 net.cpp:408] conv9_2_mbox_conf_perm -> conv9_2_mbox_conf_perm
I0601 15:51:34.615084 16695 net.cpp:150] Setting up conv9_2_mbox_conf_perm
I0601 15:51:34.615093 16695 net.cpp:157] Top shape: 4 1 1 16 (64)
I0601 15:51:34.615097 16695 net.cpp:165] Memory required for data: 992070688
I0601 15:51:34.615101 16695 layer_factory.hpp:77] Creating layer conv9_2_mbox_conf_flat
I0601 15:51:34.615109 16695 net.cpp:100] Creating Layer conv9_2_mbox_conf_flat
I0601 15:51:34.615114 16695 net.cpp:434] conv9_2_mbox_conf_flat <- conv9_2_mbox_conf_perm
I0601 15:51:34.615121 16695 net.cpp:408] conv9_2_mbox_conf_flat -> conv9_2_mbox_conf_flat
I0601 15:51:34.615155 16695 net.cpp:150] Setting up conv9_2_mbox_conf_flat
I0601 15:51:34.615162 16695 net.cpp:157] Top shape: 4 16 (64)
I0601 15:51:34.615166 16695 net.cpp:165] Memory required for data: 992070944
I0601 15:51:34.615170 16695 layer_factory.hpp:77] Creating layer conv9_2_mbox_priorbox
I0601 15:51:34.615178 16695 net.cpp:100] Creating Layer conv9_2_mbox_priorbox
I0601 15:51:34.615185 16695 net.cpp:434] conv9_2_mbox_priorbox <- conv9_2_conv9_2_relu_0_split_2
I0601 15:51:34.615190 16695 net.cpp:434] conv9_2_mbox_priorbox <- data_data_0_split_6
I0601 15:51:34.615197 16695 net.cpp:408] conv9_2_mbox_priorbox -> conv9_2_mbox_priorbox
I0601 15:51:34.615231 16695 net.cpp:150] Setting up conv9_2_mbox_priorbox
I0601 15:51:34.615239 16695 net.cpp:157] Top shape: 1 2 16 (32)
I0601 15:51:34.615243 16695 net.cpp:165] Memory required for data: 992071072
I0601 15:51:34.615247 16695 layer_factory.hpp:77] Creating layer mbox_loc
I0601 15:51:34.615255 16695 net.cpp:100] Creating Layer mbox_loc
I0601 15:51:34.615262 16695 net.cpp:434] mbox_loc <- conv4_3_norm_mbox_loc_flat
I0601 15:51:34.615268 16695 net.cpp:434] mbox_loc <- fc7_mbox_loc_flat
I0601 15:51:34.615274 16695 net.cpp:434] mbox_loc <- conv6_2_mbox_loc_flat
I0601 15:51:34.615280 16695 net.cpp:434] mbox_loc <- conv7_2_mbox_loc_flat
I0601 15:51:34.615285 16695 net.cpp:434] mbox_loc <- conv8_2_mbox_loc_flat
I0601 15:51:34.615291 16695 net.cpp:434] mbox_loc <- conv9_2_mbox_loc_flat
I0601 15:51:34.615298 16695 net.cpp:408] mbox_loc -> mbox_loc
I0601 15:51:34.615331 16695 net.cpp:150] Setting up mbox_loc
I0601 15:51:34.615339 16695 net.cpp:157] Top shape: 4 34928 (139712)
I0601 15:51:34.615345 16695 net.cpp:165] Memory required for data: 992629920
I0601 15:51:34.615347 16695 layer_factory.hpp:77] Creating layer mbox_conf
I0601 15:51:34.615353 16695 net.cpp:100] Creating Layer mbox_conf
I0601 15:51:34.615358 16695 net.cpp:434] mbox_conf <- conv4_3_norm_mbox_conf_flat
I0601 15:51:34.615365 16695 net.cpp:434] mbox_conf <- fc7_mbox_conf_flat
I0601 15:51:34.615370 16695 net.cpp:434] mbox_conf <- conv6_2_mbox_conf_flat
I0601 15:51:34.615375 16695 net.cpp:434] mbox_conf <- conv7_2_mbox_conf_flat
I0601 15:51:34.615380 16695 net.cpp:434] mbox_conf <- conv8_2_mbox_conf_flat
I0601 15:51:34.615384 16695 net.cpp:434] mbox_conf <- conv9_2_mbox_conf_flat
I0601 15:51:34.615396 16695 net.cpp:408] mbox_conf -> mbox_conf
I0601 15:51:34.615422 16695 net.cpp:150] Setting up mbox_conf
I0601 15:51:34.615429 16695 net.cpp:157] Top shape: 4 34928 (139712)
I0601 15:51:34.615433 16695 net.cpp:165] Memory required for data: 993188768
I0601 15:51:34.615437 16695 layer_factory.hpp:77] Creating layer mbox_priorbox
I0601 15:51:34.615442 16695 net.cpp:100] Creating Layer mbox_priorbox
I0601 15:51:34.615447 16695 net.cpp:434] mbox_priorbox <- conv4_3_norm_mbox_priorbox
I0601 15:51:34.615452 16695 net.cpp:434] mbox_priorbox <- fc7_mbox_priorbox
I0601 15:51:34.615456 16695 net.cpp:434] mbox_priorbox <- conv6_2_mbox_priorbox
I0601 15:51:34.615460 16695 net.cpp:434] mbox_priorbox <- conv7_2_mbox_priorbox
I0601 15:51:34.615465 16695 net.cpp:434] mbox_priorbox <- conv8_2_mbox_priorbox
I0601 15:51:34.615469 16695 net.cpp:434] mbox_priorbox <- conv9_2_mbox_priorbox
I0601 15:51:34.615474 16695 net.cpp:408] mbox_priorbox -> mbox_priorbox
I0601 15:51:34.615504 16695 net.cpp:150] Setting up mbox_priorbox
I0601 15:51:34.615511 16695 net.cpp:157] Top shape: 1 2 34928 (69856)
I0601 15:51:34.615514 16695 net.cpp:165] Memory required for data: 993468192
I0601 15:51:34.615517 16695 layer_factory.hpp:77] Creating layer mbox_conf_reshape
I0601 15:51:34.615525 16695 net.cpp:100] Creating Layer mbox_conf_reshape
I0601 15:51:34.615530 16695 net.cpp:434] mbox_conf_reshape <- mbox_conf
I0601 15:51:34.615535 16695 net.cpp:408] mbox_conf_reshape -> mbox_conf_reshape
I0601 15:51:34.615573 16695 net.cpp:150] Setting up mbox_conf_reshape
I0601 15:51:34.615579 16695 net.cpp:157] Top shape: 4 8732 4 (139712)
I0601 15:51:34.615583 16695 net.cpp:165] Memory required for data: 994027040
I0601 15:51:34.615586 16695 layer_factory.hpp:77] Creating layer mbox_conf_softmax
I0601 15:51:34.615592 16695 net.cpp:100] Creating Layer mbox_conf_softmax
I0601 15:51:34.615597 16695 net.cpp:434] mbox_conf_softmax <- mbox_conf_reshape
I0601 15:51:34.615602 16695 net.cpp:408] mbox_conf_softmax -> mbox_conf_softmax
I0601 15:51:34.615882 16695 net.cpp:150] Setting up mbox_conf_softmax
I0601 15:51:34.615892 16695 net.cpp:157] Top shape: 4 8732 4 (139712)
I0601 15:51:34.615896 16695 net.cpp:165] Memory required for data: 994585888
I0601 15:51:34.615902 16695 layer_factory.hpp:77] Creating layer mbox_conf_flatten
I0601 15:51:34.615909 16695 net.cpp:100] Creating Layer mbox_conf_flatten
I0601 15:51:34.615914 16695 net.cpp:434] mbox_conf_flatten <- mbox_conf_softmax
I0601 15:51:34.615921 16695 net.cpp:408] mbox_conf_flatten -> mbox_conf_flatten
I0601 15:51:34.615957 16695 net.cpp:150] Setting up mbox_conf_flatten
I0601 15:51:34.615963 16695 net.cpp:157] Top shape: 4 34928 (139712)
I0601 15:51:34.615968 16695 net.cpp:165] Memory required for data: 995144736
I0601 15:51:34.615972 16695 layer_factory.hpp:77] Creating layer detection_out
I0601 15:51:34.615986 16695 net.cpp:100] Creating Layer detection_out
I0601 15:51:34.615991 16695 net.cpp:434] detection_out <- mbox_loc
I0601 15:51:34.615998 16695 net.cpp:434] detection_out <- mbox_conf_flatten
I0601 15:51:34.616003 16695 net.cpp:434] detection_out <- mbox_priorbox
I0601 15:51:34.616011 16695 net.cpp:408] detection_out -> detection_out
I0601 15:51:34.617849 16695 net.cpp:150] Setting up detection_out
I0601 15:51:34.617861 16695 net.cpp:157] Top shape: 1 1 1 7 (7)
I0601 15:51:34.617862 16695 net.cpp:165] Memory required for data: 995144764
I0601 15:51:34.617866 16695 layer_factory.hpp:77] Creating layer detection_eval
I0601 15:51:34.617872 16695 net.cpp:100] Creating Layer detection_eval
I0601 15:51:34.617877 16695 net.cpp:434] detection_eval <- detection_out
I0601 15:51:34.617883 16695 net.cpp:434] detection_eval <- label
I0601 15:51:34.617890 16695 net.cpp:408] detection_eval -> detection_eval
I0601 15:51:34.619025 16695 net.cpp:150] Setting up detection_eval
I0601 15:51:34.619035 16695 net.cpp:157] Top shape: 1 1 4 5 (20)
I0601 15:51:34.619037 16695 net.cpp:165] Memory required for data: 995144844
I0601 15:51:34.619040 16695 net.cpp:228] detection_eval does not need backward computation.
I0601 15:51:34.619056 16695 net.cpp:228] detection_out does not need backward computation.
I0601 15:51:34.619063 16695 net.cpp:228] mbox_conf_flatten does not need backward computation.
I0601 15:51:34.619067 16695 net.cpp:228] mbox_conf_softmax does not need backward computation.
…
