…
        min_scale: 0.3
        max_scale: 1
        min_aspect_ratio: 0.5
        max_aspect_ratio: 2
      }
      sample_constraint {
        min_jaccard_overlap: 0.9
      }
      max_sample: 1
      max_trials: 50
    }
    batch_sampler {
      sampler {
        min_scale: 0.3
        max_scale: 1
        min_aspect_ratio: 0.5
        max_aspect_ratio: 2
      }
      sample_constraint {
        max_jaccard_overlap: 1
      }
      max_sample: 1
      max_trials: 50
    }
    label_map_file: "data/tbs_300x300_HSIL_10x/labelmap_voc.prototxt"
  }
}
layer {
  name: "conv1_1"
  type: "Convolution"
  bottom: "data"
  top: "conv1_1"
  param {
    lr_mult: 1
    decay_mult: 1
  }
  param {
    lr_mult: 2
    decay_mult: 0
  }
  convolution_param {
    num_output: 64
    pad: 1
    kernel_size: 3
    weight_filler {
      type: "xavier"
    }
    bias_filler {
      type: "constant"
      value: 0
    }
  }
}
layer {
  name: "relu1_1"
  type: "ReLU"
  bottom: "conv1_1"
  top: "conv1_1"
}
layer {
  name: "conv1_2"
  type: "Convolution"
  bottom: "conv1_1"
  top: "conv1_2"
  param {
    lr_mult: 1
    decay_mult: 1
  }
  param {
    lr_mult: 2
    decay_mult: 0
  }
  convolution_param {
    num_output: 64
    pad: 1
    kernel_size: 3
    weight_filler {
      type: "xavier"
    }
    bias_filler {
      type: "constant"
      value: 0
    }
  }
}
layer {
  name: "relu1_2"
  type: "ReLU"
  bottom: "conv1_2"
  top: "conv1_2"
}
layer {
  name: "pool1"
  type: "Pooling"
  bottom: "conv1_2"
  top: "pool1"
  pooling_param {
    pool: MAX
    kernel_size: 2
    stride: 2
  }
}
layer {
  name: "conv2_1"
  type: "Convolution"
  bottom: "pool1"
  top: "conv2_1"
  param {
    lr_mult: 1
    decay_mult: 1
  }
  param {
    lr_mult: 2
    decay_mult: 0
  }
  convolution_param {
    num_output: 128
    pad: 1
    kernel_size: 3
    weight_filler {
      type: "xavier"
    }
    bias_filler {
      type: "constant"
      value: 0
    }
  }
}
layer {
  name: "relu2_1"
  type: "ReLU"
  bottom: "conv2_1"
  top: "conv2_1"
}
layer {
  name: "conv2_2"
  type: "Convolution"
  bottom: "conv2_1"
  top: "conv2_2"
  param {
    lr_mult: 1
    decay_mult: 1
  }
  param {
    lr_mult: 2
    decay_mult: 0
  }
  convolution_param {
    num_output: 128
    pad: 1
    kernel_size: 3
    weight_filler {
      type: "xavier"
    }
    bias_filler {
      type: "constant"
      value: 0
    }
  }
}
layer {
  name: "relu2_2"
  type: "ReLU"
  bottom: "conv2_2"
  top: "conv2_2"
}
layer {
  name: "pool2"
  type: "Pooling"
  bottom: "conv2_2"
  top: "pool2"
  pooling_param {
    pool: MAX
    kernel_size: 2
    stride: 2
  }
}
layer {
  name: "conv3_1"
  type: "Convolution"
  bottom: "pool2"
  top: "conv3_1"
  param {
    lr_mult: 1
    decay_mult: 1
  }
  param {
    lr_mult: 2
    decay_mult: 0
  }
  convolution_param {
    num_output: 256
    pad: 1
    kernel_size: 3
    weight_filler {
      type: "xavier"
    }
    bias_filler {
      type: "constant"
      value: 0
    }
  }
}
layer {
  name: "relu3_1"
  type: "ReLU"
  bottom: "conv3_1"
  top: "conv3_1"
}
layer {
  name: "conv3_2"
  type: "Convolution"
  bottom: "conv3_1"
  top: "conv3_2"
  param {
    lr_mult: 1
    decay_mult: 1
  }
  param {
    lr_mult: 2
    decay_mult: 0
  }
  convolution_param {
    num_output: 256
    pad: 1
    kernel_size: 3
    weight_filler {
      type: "xavier"
    }
    bias_filler {
      type: "constant"
      value: 0
    }
  }
}
layer {
  name: "relu3_2"
  type: "ReLU"
  bottom: "conv3_2"
  top: "conv3_2"
}
layer {
  name: "conv3_3"
  type: "Convolution"
  bottom: "conv3_2"
  top: "conv3_3"
  param {
    lr_mult: 1
    decay_mult: 1
  }
  param {
    lr_mult: 2
    decay_mult: 0
  }
  convolution_param {
    num_output: 256
    pad: 1
    kernel_size: 3
    weight_filler {
      type: "xavier"
    }
    bias_filler {
      type: "constant"
      value: 0
    }
  }
}
layer {
  name: "relu3_3"
  type: "ReLU"
  bottom: "conv3_3"
  top: "conv3_3"
}
layer {
  name: "pool3"
  type: "Pooling"
  bottom: "conv3_3"
  top: "pool3"
  pooling_param {
    pool: MAX
    kernel_size: 2
    stride: 2
  }
}
layer {
  name: "conv4_1"
  type: "Convolution"
  bottom: "pool3"
  top: "conv4_1"
  param {
    lr_mult: 1
    decay_mult: 1
  }
  param {
    lr_mult: 2
    decay_mult: 0
  }
  convolution_param {
    num_output: 512
    pad: 1
    kernel_size: 3
    weight_filler {
      type: "xavier"
    }
    bias_filler {
      type: "constant"
      value: 0
    }
  }
}
layer {
  name: "relu4_1"
  type: "ReLU"
  bottom: "conv4_1"
  top: "conv4_1"
}
layer {
  name: "conv4_2"
  type: "Convolution"
  bottom: "conv4_1"
  top: "conv4_2"
  param {
    lr_mult: 1
    decay_mult: 1
  }
  param {
    lr_mult: 2
    decay_mult: 0
  }
  convolution_param {
    num_output: 512
    pad: 1
    kernel_size: 3
    weight_filler {
      type: "xavier"
    }
    bias_filler {
      type: "constant"
      value: 0
    }
  }
}
layer {
  name: "relu4_2"
  type: "ReLU"
  bottom: "conv4_2"
  top: "conv4_2"
}
layer {
  name: "conv4_3"
  type: "Convolution"
  bottom: "conv4_2"
  top: "conv4_3"
  param {
    lr_mult: 1
    decay_mult: 1
  }
  param {
    lr_mult: 2
    decay_mult: 0
  }
  convolution_param {
    num_output: 512
    pad: 1
    kernel_size: 3
    weight_filler {
      type: "xavier"
    }
    bias_filler {
      type: "constant"
      value: 0
    }
  }
}
layer {
  name: "relu4_3"
  type: "ReLU"
  bottom: "conv4_3"
  top: "conv4_3"
}
layer {
  name: "pool4"
  type: "Pooling"
  bottom: "conv4_3"
  top: "pool4"
  pooling_param {
    pool: MAX
    kernel_size: 2
    stride: 2
  }
}
layer {
  name: "conv5_1"
  type: "Convolution"
  bottom: "pool4"
  top: "conv5_1"
  param {
    lr_mult: 1
    decay_mult: 1
  }
  param {
    lr_mult: 2
    decay_mult: 0
  }
  convolution_param {
    num_output: 512
    pad: 1
    kernel_size: 3
    weight_filler {
      type: "xavier"
    }
    bias_filler {
      type: "constant"
      value: 0
    }
    dilation: 1
  }
}
layer {
  name: "relu5_1"
  type: "ReLU"
  bottom: "conv5_1"
  top: "conv5_1"
}
layer {
  name: "conv5_2"
  type: "Convolution"
  bottom: "conv5_1"
  top: "conv5_2"
  param {
    lr_mult: 1
    decay_mult: 1
  }
  param {
    lr_mult: 2
    decay_mult: 0
  }
  convolution_param {
    num_output: 512
    pad: 1
    kernel_size: 3
    weight_filler {
      type: "xavier"
    }
    bias_filler {
      type: "constant"
      value: 0
    }
    dilation: 1
  }
}
layer {
  name: "relu5_2"
  type: "ReLU"
  bottom: "conv5_2"
  top: "conv5_2"
}
layer {
  name: "conv5_3"
  type: "Convolution"
  bottom: "conv5_2"
  top: "conv5_3"
  param {
    lr_mult: 1
    decay_mult: 1
  }
  param {
    lr_mult: 2
    decay_mult: 0
  }
  convolution_param {
    num_output: 512
    pad: 1
    kernel_size: 3
    weight_filler {
      type: "xavier"
    }
    bias_filler {
      type: "constant"
      value: 0
    }
    dilation: 1
  }
}
layer {
  name: "relu5_3"
  type: "ReLU"
  bottom: "conv5_3"
  top: "conv5_3"
}
layer {
  name: "pool5"
  type: "Pooling"
  bottom: "conv5_3"
  top: "pool5"
  pooling_param {
    pool: MAX
    kernel_size: 3
    stride: 1
    pad: 1
  }
}
layer {
  name: "fc6"
  type: "Convolution"
  bottom: "pool5"
  top: "fc6"
  param {
    lr_mult: 1
    decay_mult: 1
  }
  param {
    lr_mult: 2
    decay_mult: 0
  }
  convolution_param {
    num_output: 1024
    pad: 6
    kernel_size: 3
    weight_filler {
      type: "xavier"
    }
    bias_filler {
      type: "constant"
      value: 0
    }
    dilation: 6
  }
}
layer {
  name: "relu6"
  type: "ReLU"
  bottom: "fc6"
  top: "fc6"
}
layer {
  name: "fc7"
  type: "Convolution"
  bottom: "fc6"
  top: "fc7"
  param {
    lr_mult: 1
    decay_mult: 1
  }
  param {
    lr_mult: 2
    decay_mult: 0
  }
  convolution_param {
    num_output: 1024
    kernel_size: 1
    weight_filler {
      type: "xavier"
    }
    bias_filler {
      type: "constant"
      value: 0
    }
  }
}
layer {
  name: "relu7"
  type: "ReLU"
  bottom: "fc7"
  top: "fc7"
}
layer {
  name: "conv6_1"
  type: "Convolution"
  bottom: "fc7"
  top: "conv6_1"
  param {
    lr_mult: 1
    decay_mult: 1
  }
  param {
    lr_mult: 2
    decay_mult: 0
  }
  convolution_param {
    num_output: 256
    pad: 0
    kernel_size: 1
    stride: 1
    weight_filler {
      type: "xavier"
    }
    bias_filler {
      type: "constant"
      value: 0
    }
  }
}
layer {
  name: "conv6_1_relu"
  type: "ReLU"
  bottom: "conv6_1"
  top: "conv6_1"
}
layer {
  name: "conv6_2"
  type: "Convolution"
  bottom: "conv6_1"
  top: "conv6_2"
  param {
    lr_mult: 1
    decay_mult: 1
  }
  param {
    lr_mult: 2
    decay_mult: 0
  }
  convolution_param {
    num_output: 512
    pad: 1
    kernel_size: 3
    stride: 2
    weight_filler {
      type: "xavier"
    }
    bias_filler {
      type: "constant"
      value: 0
    }
  }
}
layer {
  name: "conv6_2_relu"
  type: "ReLU"
  bottom: "conv6_2"
  top: "conv6_2"
}
layer {
  name: "conv7_1"
  type: "Convolution"
  bottom: "conv6_2"
  top: "conv7_1"
  param {
    lr_mult: 1
    decay_mult: 1
  }
  param {
    lr_mult: 2
    decay_mult: 0
  }
  convolution_param {
    num_output: 128
    pad: 0
    kernel_size: 1
    stride: 1
    weight_filler {
      type: "xavier"
    }
    bias_filler {
      type: "constant"
      value: 0
    }
  }
}
layer {
  name: "conv7_1_relu"
  type: "ReLU"
  bottom: "conv7_1"
  top: "conv7_1"
}
layer {
  name: "conv7_2"
  type: "Convolution"
  bottom: "conv7_1"
  top: "conv7_2"
  param {
    lr_mult: 1
    decay_mult: 1
  }
  param {
    lr_mult: 2
    decay_mult: 0
  }
  convolution_param {
    num_output: 256
    pad: 1
    kernel_size: 3
    stride: 2
    weight_filler {
      type: "xavier"
    }
    bias_filler {
      type: "constant"
      value: 0
    }
  }
}
layer {
  name: "conv7_2_relu"
  type: "ReLU"
  bottom: "conv7_2"
  top: "conv7_2"
}
layer {
  name: "conv8_1"
  type: "Convolution"
  bottom: "conv7_2"
  top: "conv8_1"
  param {
    lr_mult: 1
    decay_mult: 1
  }
  param {
    lr_mult: 2
    decay_mult: 0
  }
  convolution_param {
    num_output: 128
    pad: 0
    kernel_size: 1
    stride: 1
    weight_filler {
      type: "xavier"
    }
    bias_filler {
      type: "constant"
      value: 0
    }
  }
}
layer {
  name: "conv8_1_relu"
  type: "ReLU"
  bottom: "conv8_1"
  top: "conv8_1"
}
layer {
  name: "conv8_2"
  type: "Convolution"
  bottom: "conv8_1"
  top: "conv8_2"
  param {
    lr_mult: 1
    decay_mult: 1
  }
  param {
    lr_mult: 2
    decay_mult: 0
  }
  convolution_param {
    num_output: 256
    pad: 0
    kernel_size: 3
    stride: 1
    weight_filler {
      type: "xavier"
    }
    bias_filler {
      type: "constant"
      value: 0
    }
  }
}
layer {
  name: "conv8_2_relu"
  type: "ReLU"
  bottom: "conv8_2"
  top: "conv8_2"
}
layer {
  name: "conv9_1"
  type: "Convolution"
  bottom: "conv8_2"
  top: "conv9_1"
  param {
    lr_mult: 1
    decay_mult: 1
  }
  param {
    lr_mult: 2
    decay_mult: 0
  }
  convolution_param {
    num_output: 128
    pad: 0
    kernel_size: 1
    stride: 1
    weight_filler {
      type: "xavier"
    }
    bias_filler {
      type: "constant"
      value: 0
    }
  }
}
layer {
  name: "conv9_1_relu"
  type: "ReLU"
  bottom: "conv9_1"
  top: "conv9_1"
}
layer {
  name: "conv9_2"
  type: "Convolution"
  bottom: "conv9_1"
  top: "conv9_2"
  param {
    lr_mult: 1
    decay_mult: 1
  }
  param {
    lr_mult: 2
    decay_mult: 0
  }
  convolution_param {
    num_output: 256
    pad: 0
    kernel_size: 3
    stride: 1
    weight_filler {
      type: "xavier"
    }
    bias_filler {
      type: "constant"
      value: 0
    }
  }
}
layer {
  name: "conv9_2_relu"
  type: "ReLU"
  bottom: "conv9_2"
  top: "conv9_2"
}
layer {
  name: "conv4_3_norm"
  type: "Normalize"
  bottom: "conv4_3"
  top: "conv4_3_norm"
  norm_param {
    across_spatial: false
    scale_filler {
      type: "constant"
      value: 20
    }
    channel_shared: false
  }
}
layer {
  name: "conv4_3_norm_mbox_loc"
  type: "Convolution"
  bottom: "conv4_3_norm"
  top: "conv4_3_norm_mbox_loc"
  param {
    lr_mult: 1
    decay_mult: 1
  }
  param {
    lr_mult: 2
    decay_mult: 0
  }
  convolution_param {
    num_output: 16
    pad: 1
    kernel_size: 3
    stride: 1
    weight_filler {
      type: "xavier"
    }
    bias_filler {
      type: "constant"
      value: 0
    }
  }
}
layer {
  name: "conv4_3_norm_mbox_loc_perm"
  type: "Permute"
  bottom: "conv4_3_norm_mbox_loc"
  top: "conv4_3_norm_mbox_loc_perm"
  permute_param {
    order: 0
    order: 2
    order: 3
    order: 1
  }
}
layer {
  name: "conv4_3_norm_mbox_loc_flat"
  type: "Flatten"
  bottom: "conv4_3_norm_mbox_loc_perm"
  top: "conv4_3_norm_mbox_loc_flat"
  flatten_param {
    axis: 1
  }
}
layer {
  name: "conv4_3_norm_mbox_conf"
  type: "Convolution"
  bottom: "conv4_3_norm"
  top: "conv4_3_norm_mbox_conf"
  param {
    lr_mult: 1
    decay_mult: 1
  }
  param {
    lr_mult: 2
    decay_mult: 0
  }
  convolution_param {
    num_output: 16
    pad: 1
    kernel_size: 3
    stride: 1
    weight_filler {
      type: "xavier"
    }
    bias_filler {
      type: "constant"
      value: 0
    }
  }
}
layer {
  name: "conv4_3_norm_mbox_conf_perm"
  type: "Permute"
  bottom: "conv4_3_norm_mbox_conf"
  top: "conv4_3_norm_mbox_conf_perm"
  permute_param {
    order: 0
    order: 2
    order: 3
    order: 1
  }
}
layer {
  name: "conv4_3_norm_mbox_conf_flat"
  type: "Flatten"
  bottom: "conv4_3_norm_mbox_conf_perm"
  top: "conv4_3_norm_mbox_conf_flat"
  flatten_param {
    axis: 1
  }
}
layer {
  name: "conv4_3_norm_mbox_priorbox"
  type: "PriorBox"
  bottom: "conv4_3_norm"
  bottom: "data"
  top: "conv4_3_norm_mbox_priorbox"
  prior_box_param {
    min_size: 30
    max_size: 60
    aspect_ratio: 2
    flip: true
    clip: false
    variance: 0.1
    variance: 0.1
    variance: 0.2
    variance: 0.2
    step: 8
    offset: 0.5
  }
}
layer {
  name: "fc7_mbox_loc"
  type: "Convolution"
  bottom: "fc7"
  top: "fc7_mbox_loc"
  param {
    lr_mult: 1
    decay_mult: 1
  }
  param {
    lr_mult: 2
    decay_mult: 0
  }
  convolution_param {
    num_output: 24
    pad: 1
    kernel_size: 3
    stride: 1
    weight_filler {
      type: "xavier"
    }
    bias_filler {
      type: "constant"
      value: 0
    }
  }
}
layer {
  name: "fc7_mbox_loc_perm"
  type: "Permute"
  bottom: "fc7_mbox_loc"
  top: "fc7_mbox_loc_perm"
  permute_param {
    order: 0
    order: 2
    order: 3
    order: 1
  }
}
layer {
  name: "fc7_mbox_loc_flat"
  type: "Flatten"
  bottom: "fc7_mbox_loc_perm"
  top: "fc7_mbox_loc_flat"
  flatten_param {
    axis: 1
  }
}
layer {
  name: "fc7_mbox_conf"
  type: "Convolution"
  bottom: "fc7"
  top: "fc7_mbox_conf"
  param {
    lr_mult: 1
    decay_mult: 1
  }
  param {
    lr_mult: 2
    decay_mult: 0
  }
  convolution_param {
    num_output: 24
    pad: 1
    kernel_size: 3
    stride: 1
    weight_filler {
      type: "xavier"
    }
    bias_filler {
      type: "constant"
      value: 0
    }
  }
}
layer {
  name: "fc7_mbox_conf_perm"
  type: "Permute"
  bottom: "fc7_mbox_conf"
  top: "fc7_mbox_conf_perm"
  permute_param {
    order: 0
    order: 2
    order: 3
    order: 1
  }
}
layer {
  name: "fc7_mbox_conf_flat"
  type: "Flatten"
  bottom: "fc7_mbox_conf_perm"
  top: "fc7_mbox_conf_flat"
  flatten_param {
    axis: 1
  }
}
layer {
  name: "fc7_mbox_priorbox"
  type: "PriorBox"
  bottom: "fc7"
  bottom: "data"
  top: "fc7_mbox_priorbox"
  prior_box_param {
    min_size: 60
    max_size: 111
    aspect_ratio: 2
    aspect_ratio: 3
    flip: true
    clip: false
    variance: 0.1
    variance: 0.1
    variance: 0.2
    variance: 0.2
    step: 16
    offset: 0.5
  }
}
layer {
  name: "conv6_2_mbox_loc"
  type: "Convolution"
  bottom: "conv6_2"
  top: "conv6_2_mbox_loc"
  param {
    lr_mult: 1
    decay_mult: 1
  }
  param {
    lr_mult: 2
    decay_mult: 0
  }
  convolution_param {
    num_output: 24
    pad: 1
    kernel_size: 3
    stride: 1
    weight_filler {
      type: "xavier"
    }
    bias_filler {
      type: "constant"
      value: 0
    }
  }
}
layer {
  name: "conv6_2_mbox_loc_perm"
  type: "Permute"
  bottom: "conv6_2_mbox_loc"
  top: "conv6_2_mbox_loc_perm"
  permute_param {
    order: 0
    order: 2
    order: 3
    order: 1
  }
}
layer {
  name: "conv6_2_mbox_loc_flat"
  type: "Flatten"
  bottom: "conv6_2_mbox_loc_perm"
  top: "conv6_2_mbox_loc_flat"
  flatten_param {
    axis: 1
  }
}
layer {
  name: "conv6_2_mbox_conf"
  type: "Convolution"
  bottom: "conv6_2"
  top: "conv6_2_mbox_conf"
  param {
    lr_mult: 1
    decay_mult: 1
  }
  param {
    lr_mult: 2
    decay_mult: 0
  }
  convolution_param {
    num_output: 24
    pad: 1
    kernel_size: 3
    stride: 1
    weight_filler {
      type: "xavier"
    }
    bias_filler {
      type: "constant"
      value: 0
    }
  }
}
layer {
  name: "conv6_2_mbox_conf_perm"
  type: "Permute"
  bottom: "conv6_2_mbox_conf"
  top: "conv6_2_mbox_conf_perm"
  permute_param {
    order: 0
    order: 2
    order: 3
    order: 1
  }
}
layer {
  name: "conv6_2_mbox_conf_flat"
  type: "Flatten"
  bottom: "conv6_2_mbox_conf_perm"
  top: "conv6_2_mbox_conf_flat"
  flatten_param {
    axis: 1
  }
}
layer {
  name: "conv6_2_mbox_priorbox"
  type: "PriorBox"
  bottom: "conv6_2"
  bottom: "data"
  top: "conv6_2_mbox_priorbox"
  prior_box_param {
    min_size: 111
    max_size: 162
    aspect_ratio: 2
    aspect_ratio: 3
    flip: true
    clip: false
    variance: 0.1
    variance: 0.1
    variance: 0.2
    variance: 0.2
    step: 32
    offset: 0.5
  }
}
layer {
  name: "conv7_2_mbox_loc"
  type: "Convolution"
  bottom: "conv7_2"
  top: "conv7_2_mbox_loc"
  param {
    lr_mult: 1
    decay_mult: 1
  }
  param {
    lr_mult: 2
    decay_mult: 0
  }
  convolution_param {
    num_output: 24
    pad: 1
    kernel_size: 3
    stride: 1
    weight_filler {
      type: "xavier"
    }
    bias_filler {
      type: "constant"
      value: 0
    }
  }
}
layer {
  name: "conv7_2_mbox_loc_perm"
  type: "Permute"
  bottom: "conv7_2_mbox_loc"
  top: "conv7_2_mbox_loc_perm"
  permute_param {
    order: 0
    order: 2
    order: 3
    order: 1
  }
}
layer {
  name: "conv7_2_mbox_loc_flat"
  type: "Flatten"
  bottom: "conv7_2_mbox_loc_perm"
  top: "conv7_2_mbox_loc_flat"
  flatten_param {
    axis: 1
  }
}
layer {
  name: "conv7_2_mbox_conf"
  type: "Convolution"
  bottom: "conv7_2"
  top: "conv7_2_mbox_conf"
  param {
    lr_mult: 1
    decay_mult: 1
  }
  param {
    lr_mult: 2
    decay_mult: 0
  }
  convolution_param {
    num_output: 24
    pad: 1
    kernel_size: 3
    stride: 1
    weight_filler {
      type: "xavier"
    }
    bias_filler {
      type: "constant"
      value: 0
    }
  }
}
layer {
  name: "conv7_2_mbox_conf_perm"
  type: "Permute"
  bottom: "conv7_2_mbox_conf"
  top: "conv7_2_mbox_conf_perm"
  permute_param {
    order: 0
    order: 2
    order: 3
    order: 1
  }
}
layer {
  name: "conv7_2_mbox_conf_flat"
  type: "Flatten"
  bottom: "conv7_2_mbox_conf_perm"
  top: "conv7_2_mbox_conf_flat"
  flatten_param {
    axis: 1
  }
}
layer {
  name: "conv7_2_mbox_priorbox"
  type: "PriorBox"
  bottom: "conv7_2"
  bottom: "data"
  top: "conv7_2_mbox_priorbox"
  prior_box_param {
    min_size: 162
    max_size: 213
    aspect_ratio: 2
    aspect_ratio: 3
    flip: true
    clip: false
    variance: 0.1
    variance: 0.1
    variance: 0.2
    variance: 0.2
    step: 64
    offset: 0.5
  }
}
layer {
  name: "conv8_2_mbox_loc"
  type: "Convolution"
  bottom: "conv8_2"
  top: "conv8_2_mbox_loc"
  param {
    lr_mult: 1
    decay_mult: 1
  }
  param {
    lr_mult: 2
    decay_mult: 0
  }
  convolution_param {
    num_output: 16
    pad: 1
    kernel_size: 3
    stride: 1
    weight_filler {
      type: "xavier"
    }
    bias_filler {
      type: "constant"
      value: 0
    }
  }
}
layer {
  name: "conv8_2_mbox_loc_perm"
  type: "Permute"
  bottom: "conv8_2_mbox_loc"
  top: "conv8_2_mbox_loc_perm"
  permute_param {
    order: 0
    order: 2
    order: 3
    order: 1
  }
}
layer {
  name: "conv8_2_mbox_loc_flat"
  type: "Flatten"
  bottom: "conv8_2_mbox_loc_perm"
  top: "conv8_2_mbox_loc_flat"
  flatten_param {
    axis: 1
  }
}
layer {
  name: "conv8_2_mbox_conf"
  type: "Convolution"
  bottom: "conv8_2"
  top: "conv8_2_mbox_conf"
  param {
    lr_mult: 1
    decay_mult: 1
  }
  param {
    lr_mult: 2
    decay_mult: 0
  }
  convolution_param {
    num_output: 16
    pad: 1
    kernel_size: 3
    stride: 1
    weight_filler {
      type: "xavier"
    }
    bias_filler {
      type: "constant"
      value: 0
    }
  }
}
layer {
  name: "conv8_2_mbox_conf_perm"
  type: "Permute"
  bottom: "conv8_2_mbox_conf"
  top: "conv8_2_mbox_conf_perm"
  permute_param {
    order: 0
    order: 2
    order: 3
    order: 1
  }
}
layer {
  name: "conv8_2_mbox_conf_flat"
  type: "Flatten"
  bottom: "conv8_2_mbox_conf_perm"
  top: "conv8_2_mbox_conf_flat"
  flatten_param {
    axis: 1
  }
}
layer {
  name: "conv8_2_mbox_priorbox"
  type: "PriorBox"
  bottom: "conv8_2"
  bottom: "data"
  top: "conv8_2_mbox_priorbox"
  prior_box_param {
    min_size: 213
    max_size: 264
    aspect_ratio: 2
    flip: true
    clip: false
    variance: 0.1
    variance: 0.1
    variance: 0.2
    variance: 0.2
    step: 100
    offset: 0.5
  }
}
layer {
  name: "conv9_2_mbox_loc"
  type: "Convolution"
  bottom: "conv9_2"
  top: "conv9_2_mbox_loc"
  param {
    lr_mult: 1
    decay_mult: 1
  }
  param {
    lr_mult: 2
    decay_mult: 0
  }
  convolution_param {
    num_output: 16
    pad: 1
    kernel_size: 3
    stride: 1
    weight_filler {
      type: "xavier"
    }
    bias_filler {
      type: "constant"
      value: 0
    }
  }
}
layer {
  name: "conv9_2_mbox_loc_perm"
  type: "Permute"
  bottom: "conv9_2_mbox_loc"
  top: "conv9_2_mbox_loc_perm"
  permute_param {
    order: 0
    order: 2
    order: 3
    order: 1
  }
}
layer {
  name: "conv9_2_mbox_loc_flat"
  type: "Flatten"
  bottom: "conv9_2_mbox_loc_perm"
  top: "conv9_2_mbox_loc_flat"
  flatten_param {
    axis: 1
  }
}
layer {
  name: "conv9_2_mbox_conf"
  type: "Convolution"
  bottom: "conv9_2"
  top: "conv9_2_mbox_conf"
  param {
    lr_mult: 1
    decay_mult: 1
  }
  param {
    lr_mult: 2
    decay_mult: 0
  }
  convolution_param {
    num_output: 16
    pad: 1
    kernel_size: 3
    stride: 1
    weight_filler {
      type: "xavier"
    }
    bias_filler {
      type: "constant"
      value: 0
    }
  }
}
layer {
  name: "conv9_2_mbox_conf_perm"
  type: "Permute"
  bottom: "conv9_2_mbox_conf"
  top: "conv9_2_mbox_conf_perm"
  permute_param {
    order: 0
    order: 2
    order: 3
    order: 1
  }
}
layer {
  name: "conv9_2_mbox_conf_flat"
  type: "Flatten"
  bottom: "conv9_2_mbox_conf_perm"
  top: "conv9_2_mbox_conf_flat"
  flatten_param {
    axis: 1
  }
}
layer {
  name: "conv9_2_mbox_priorbox"
  type: "PriorBox"
  bottom: "conv9_2"
  bottom: "data"
  top: "conv9_2_mbox_priorbox"
  prior_box_param {
    min_size: 264
    max_size: 315
    aspect_ratio: 2
    flip: true
    clip: false
    variance: 0.1
    variance: 0.1
    variance: 0.2
    variance: 0.2
    step: 300
    offset: 0.5
  }
}
layer {
  name: "mbox_loc"
  type: "Concat"
  bottom: "conv4_3_norm_mbox_loc_flat"
  bottom: "fc7_mbox_loc_flat"
  bottom: "conv6_2_mbox_loc_flat"
  bottom: "conv7_2_mbox_loc_flat"
  bottom: "conv8_2_mbox_loc_flat"
  bottom: "conv9_2_mbox_loc_flat"
  top: "mbox_loc"
  concat_param {
    axis: 1
  }
}
layer {
  name: "mbox_conf"
  type: "Concat"
  bottom: "conv4_3_norm_mbox_conf_flat"
  bottom: "fc7_mbox_conf_flat"
  bottom: "conv6_2_mbox_conf_flat"
  bottom: "conv7_2_mbox_conf_flat"
  bottom: "conv8_2_mbox_conf_flat"
  bottom: "conv9_2_mbox_conf_flat"
  top: "mbox_conf"
  concat_param {
    axis: 1
  }
}
layer {
  name: "mbox_priorbox"
  type: "Concat"
  bottom: "conv4_3_norm_mbox_priorbox"
  bottom: "fc7_mbox_priorbox"
  bottom: "conv6_2_mbox_priorbox"
  bottom: "conv7_2_mbox_priorbox"
  bottom: "conv8_2_mbox_priorbox"
  bottom: "conv9_2_mbox_priorbox"
  top: "mbox_priorbox"
  concat_param {
    axis: 2
  }
}
layer {
  name: "mbox_loss"
  type: "MultiBoxLoss"
  bottom: "mbox_loc"
  bottom: "mbox_conf"
  bottom: "mbox_priorbox"
  bottom: "label"
  top: "mbox_loss"
  include {
    phase: TRAIN
  }
  propagate_down: true
  propagate_down: true
  propagate_down: false
  propagate_down: false
  loss_param {
    normalization: VALID
  }
  multibox_loss_param {
    loc_loss_type: SMOOTH_L1
    conf_loss_type: SOFTMAX
    loc_weight: 1
    num_classes: 4
    share_location: true
    match_type: PER_PREDICTION
    overlap_threshold: 0.5
    use_prior_for_matching: true
    background_label_id: 0
    use_difficult_gt: true
    neg_pos_ratio: 3
    neg_overlap: 0.5
    code_type: CENTER_SIZE
    ignore_cross_boundary_bbox: false
    mining_type: MAX_NEGATIVE
  }
}
I0602 14:34:48.079380  1395 layer_factory.hpp:77] Creating layer data
I0602 14:34:48.079499  1395 net.cpp:100] Creating Layer data
I0602 14:34:48.079509  1395 net.cpp:408] data -> data
I0602 14:34:48.079533  1395 net.cpp:408] data -> label
I0602 14:34:48.079910  1413 db_lmdb.cpp:35] Opened lmdb examples/tbs_300x300_HSIL_10x/tbs_300x300_HSIL_10x_trainval_lmdb
I0602 14:34:48.088609  1395 annotated_data_layer.cpp:62] output data size: 32,3,300,300
I0602 14:34:48.147080  1395 net.cpp:150] Setting up data
I0602 14:34:48.147099  1395 net.cpp:157] Top shape: 32 3 300 300 (8640000)
I0602 14:34:48.147104  1395 net.cpp:157] Top shape: 1 1 1 8 (8)
I0602 14:34:48.147135  1395 net.cpp:165] Memory required for data: 34560032
I0602 14:34:48.147142  1395 layer_factory.hpp:77] Creating layer data_data_0_split
I0602 14:34:48.147152  1395 net.cpp:100] Creating Layer data_data_0_split
I0602 14:34:48.147173  1395 net.cpp:434] data_data_0_split <- data
I0602 14:34:48.147184  1395 net.cpp:408] data_data_0_split -> data_data_0_split_0
I0602 14:34:48.147207  1395 net.cpp:408] data_data_0_split -> data_data_0_split_1
I0602 14:34:48.147224  1395 net.cpp:408] data_data_0_split -> data_data_0_split_2
I0602 14:34:48.147245  1395 net.cpp:408] data_data_0_split -> data_data_0_split_3
I0602 14:34:48.147249  1395 net.cpp:408] data_data_0_split -> data_data_0_split_4
I0602 14:34:48.147254  1395 net.cpp:408] data_data_0_split -> data_data_0_split_5
I0602 14:34:48.147258  1395 net.cpp:408] data_data_0_split -> data_data_0_split_6
I0602 14:34:48.147344  1395 net.cpp:150] Setting up data_data_0_split
I0602 14:34:48.147349  1395 net.cpp:157] Top shape: 32 3 300 300 (8640000)
I0602 14:34:48.147352  1395 net.cpp:157] Top shape: 32 3 300 300 (8640000)
I0602 14:34:48.147356  1395 net.cpp:157] Top shape: 32 3 300 300 (8640000)
I0602 14:34:48.147358  1395 net.cpp:157] Top shape: 32 3 300 300 (8640000)
I0602 14:34:48.147362  1395 net.cpp:157] Top shape: 32 3 300 300 (8640000)
I0602 14:34:48.147367  1395 net.cpp:157] Top shape: 32 3 300 300 (8640000)
I0602 14:34:48.147372  1395 net.cpp:157] Top shape: 32 3 300 300 (8640000)
I0602 14:34:48.147375  1395 net.cpp:165] Memory required for data: 276480032
I0602 14:34:48.147378  1395 layer_factory.hpp:77] Creating layer conv1_1
I0602 14:34:48.147390  1395 net.cpp:100] Creating Layer conv1_1
I0602 14:34:48.147393  1395 net.cpp:434] conv1_1 <- data_data_0_split_0
I0602 14:34:48.147398  1395 net.cpp:408] conv1_1 -> conv1_1
I0602 14:34:48.317924  1395 net.cpp:150] Setting up conv1_1
I0602 14:34:48.317944  1395 net.cpp:157] Top shape: 32 64 300 300 (184320000)
I0602 14:34:48.317946  1395 net.cpp:165] Memory required for data: 1013760032
I0602 14:34:48.317977  1395 layer_factory.hpp:77] Creating layer relu1_1
I0602 14:34:48.317998  1395 net.cpp:100] Creating Layer relu1_1
I0602 14:34:48.318002  1395 net.cpp:434] relu1_1 <- conv1_1
I0602 14:34:48.318006  1395 net.cpp:395] relu1_1 -> conv1_1 (in-place)
I0602 14:34:48.318159  1395 net.cpp:150] Setting up relu1_1
I0602 14:34:48.318166  1395 net.cpp:157] Top shape: 32 64 300 300 (184320000)
I0602 14:34:48.318168  1395 net.cpp:165] Memory required for data: 1751040032
I0602 14:34:48.318171  1395 layer_factory.hpp:77] Creating layer conv1_2
I0602 14:34:48.318195  1395 net.cpp:100] Creating Layer conv1_2
I0602 14:34:48.318198  1395 net.cpp:434] conv1_2 <- conv1_1
I0602 14:34:48.318202  1395 net.cpp:408] conv1_2 -> conv1_2
I0602 14:34:48.320075  1395 net.cpp:150] Setting up conv1_2
I0602 14:34:48.320087  1395 net.cpp:157] Top shape: 32 64 300 300 (184320000)
I0602 14:34:48.320106  1395 net.cpp:165] Memory required for data: 2488320032
I0602 14:34:48.320116  1395 layer_factory.hpp:77] Creating layer relu1_2
I0602 14:34:48.320122  1395 net.cpp:100] Creating Layer relu1_2
I0602 14:34:48.320123  1395 net.cpp:434] relu1_2 <- conv1_2
I0602 14:34:48.320128  1395 net.cpp:395] relu1_2 -> conv1_2 (in-place)
I0602 14:34:48.320802  1395 net.cpp:150] Setting up relu1_2
I0602 14:34:48.320813  1395 net.cpp:157] Top shape: 32 64 300 300 (184320000)
I0602 14:34:48.320816  1395 net.cpp:165] Memory required for data: 3225600032
I0602 14:34:48.320819  1395 layer_factory.hpp:77] Creating layer pool1
I0602 14:34:48.320824  1395 net.cpp:100] Creating Layer pool1
I0602 14:34:48.320827  1395 net.cpp:434] pool1 <- conv1_2
I0602 14:34:48.320833  1395 net.cpp:408] pool1 -> pool1
I0602 14:34:48.320888  1395 net.cpp:150] Setting up pool1
I0602 14:34:48.320894  1395 net.cpp:157] Top shape: 32 64 150 150 (46080000)
I0602 14:34:48.320897  1395 net.cpp:165] Memory required for data: 3409920032
I0602 14:34:48.320899  1395 layer_factory.hpp:77] Creating layer conv2_1
I0602 14:34:48.320906  1395 net.cpp:100] Creating Layer conv2_1
I0602 14:34:48.320920  1395 net.cpp:434] conv2_1 <- pool1
I0602 14:34:48.320925  1395 net.cpp:408] conv2_1 -> conv2_1
I0602 14:34:48.322171  1395 net.cpp:150] Setting up conv2_1
I0602 14:34:48.322181  1395 net.cpp:157] Top shape: 32 128 150 150 (92160000)
I0602 14:34:48.322185  1395 net.cpp:165] Memory required for data: 3778560032
I0602 14:34:48.322191  1395 layer_factory.hpp:77] Creating layer relu2_1
I0602 14:34:48.322198  1395 net.cpp:100] Creating Layer relu2_1
I0602 14:34:48.322201  1395 net.cpp:434] relu2_1 <- conv2_1
I0602 14:34:48.322206  1395 net.cpp:395] relu2_1 -> conv2_1 (in-place)
I0602 14:34:48.322746  1395 net.cpp:150] Setting up relu2_1
I0602 14:34:48.322754  1395 net.cpp:157] Top shape: 32 128 150 150 (92160000)
I0602 14:34:48.322757  1395 net.cpp:165] Memory required for data: 4147200032
I0602 14:34:48.322759  1395 layer_factory.hpp:77] Creating layer conv2_2
I0602 14:34:48.322767  1395 net.cpp:100] Creating Layer conv2_2
I0602 14:34:48.322769  1395 net.cpp:434] conv2_2 <- conv2_1
I0602 14:34:48.322774  1395 net.cpp:408] conv2_2 -> conv2_2
I0602 14:34:48.324875  1395 net.cpp:150] Setting up conv2_2
I0602 14:34:48.324884  1395 net.cpp:157] Top shape: 32 128 150 150 (92160000)
I0602 14:34:48.324887  1395 net.cpp:165] Memory required for data: 4515840032
I0602 14:34:48.324892  1395 layer_factory.hpp:77] Creating layer relu2_2
I0602 14:34:48.324898  1395 net.cpp:100] Creating Layer relu2_2
I0602 14:34:48.324903  1395 net.cpp:434] relu2_2 <- conv2_2
I0602 14:34:48.324905  1395 net.cpp:395] relu2_2 -> conv2_2 (in-place)
I0602 14:34:48.325031  1395 net.cpp:150] Setting up relu2_2
I0602 14:34:48.325039  1395 net.cpp:157] Top shape: 32 128 150 150 (92160000)
I0602 14:34:48.325042  1395 net.cpp:165] Memory required for data: 4884480032
I0602 14:34:48.325043  1395 layer_factory.hpp:77] Creating layer pool2
I0602 14:34:48.325047  1395 net.cpp:100] Creating Layer pool2
I0602 14:34:48.325052  1395 net.cpp:434] pool2 <- conv2_2
I0602 14:34:48.325057  1395 net.cpp:408] pool2 -> pool2
I0602 14:34:48.325088  1395 net.cpp:150] Setting up pool2
I0602 14:34:48.325093  1395 net.cpp:157] Top shape: 32 128 75 75 (23040000)
I0602 14:34:48.325096  1395 net.cpp:165] Memory required for data: 4976640032
I0602 14:34:48.325098  1395 layer_factory.hpp:77] Creating layer conv3_1
I0602 14:34:48.325105  1395 net.cpp:100] Creating Layer conv3_1
I0602 14:34:48.325109  1395 net.cpp:434] conv3_1 <- pool2
I0602 14:34:48.325112  1395 net.cpp:408] conv3_1 -> conv3_1
I0602 14:34:48.328915  1395 net.cpp:150] Setting up conv3_1
I0602 14:34:48.328933  1395 net.cpp:157] Top shape: 32 256 75 75 (46080000)
I0602 14:34:48.328936  1395 net.cpp:165] Memory required for data: 5160960032
I0602 14:34:48.328948  1395 layer_factory.hpp:77] Creating layer relu3_1
I0602 14:34:48.328954  1395 net.cpp:100] Creating Layer relu3_1
I0602 14:34:48.328958  1395 net.cpp:434] relu3_1 <- conv3_1
I0602 14:34:48.328963  1395 net.cpp:395] relu3_1 -> conv3_1 (in-place)
I0602 14:34:48.329152  1395 net.cpp:150] Setting up relu3_1
I0602 14:34:48.329164  1395 net.cpp:157] Top shape: 32 256 75 75 (46080000)
I0602 14:34:48.329169  1395 net.cpp:165] Memory required for data: 5345280032
I0602 14:34:48.329172  1395 layer_factory.hpp:77] Creating layer conv3_2
I0602 14:34:48.329183  1395 net.cpp:100] Creating Layer conv3_2
I0602 14:34:48.329190  1395 net.cpp:434] conv3_2 <- conv3_1
I0602 14:34:48.329193  1395 net.cpp:408] conv3_2 -> conv3_2
I0602 14:34:48.333833  1395 net.cpp:150] Setting up conv3_2
I0602 14:34:48.333851  1395 net.cpp:157] Top shape: 32 256 75 75 (46080000)
I0602 14:34:48.333853  1395 net.cpp:165] Memory required for data: 5529600032
I0602 14:34:48.333873  1395 layer_factory.hpp:77] Creating layer relu3_2
I0602 14:34:48.333881  1395 net.cpp:100] Creating Layer relu3_2
I0602 14:34:48.333899  1395 net.cpp:434] relu3_2 <- conv3_2
I0602 14:34:48.333904  1395 net.cpp:395] relu3_2 -> conv3_2 (in-place)
I0602 14:34:48.334036  1395 net.cpp:150] Setting up relu3_2
I0602 14:34:48.334043  1395 net.cpp:157] Top shape: 32 256 75 75 (46080000)
I0602 14:34:48.334046  1395 net.cpp:165] Memory required for data: 5713920032
I0602 14:34:48.334061  1395 layer_factory.hpp:77] Creating layer conv3_3
I0602 14:34:48.334072  1395 net.cpp:100] Creating Layer conv3_3
I0602 14:34:48.334075  1395 net.cpp:434] conv3_3 <- conv3_2
I0602 14:34:48.334081  1395 net.cpp:408] conv3_3 -> conv3_3
I0602 14:34:48.338729  1395 net.cpp:150] Setting up conv3_3
I0602 14:34:48.338745  1395 net.cpp:157] Top shape: 32 256 75 75 (46080000)
I0602 14:34:48.338747  1395 net.cpp:165] Memory required for data: 5898240032
I0602 14:34:48.338754  1395 layer_factory.hpp:77] Creating layer relu3_3
I0602 14:34:48.338762  1395 net.cpp:100] Creating Layer relu3_3
I0602 14:34:48.338766  1395 net.cpp:434] relu3_3 <- conv3_3
I0602 14:34:48.338770  1395 net.cpp:395] relu3_3 -> conv3_3 (in-place)
I0602 14:34:48.338920  1395 net.cpp:150] Setting up relu3_3
I0602 14:34:48.338928  1395 net.cpp:157] Top shape: 32 256 75 75 (46080000)
I0602 14:34:48.338930  1395 net.cpp:165] Memory required for data: 6082560032
I0602 14:34:48.338932  1395 layer_factory.hpp:77] Creating layer pool3
I0602 14:34:48.338937  1395 net.cpp:100] Creating Layer pool3
I0602 14:34:48.338940  1395 net.cpp:434] pool3 <- conv3_3
I0602 14:34:48.338943  1395 net.cpp:408] pool3 -> pool3
I0602 14:34:48.338990  1395 net.cpp:150] Setting up pool3
I0602 14:34:48.338995  1395 net.cpp:157] Top shape: 32 256 38 38 (11829248)
I0602 14:34:48.338997  1395 net.cpp:165] Memory required for data: 6129877024
I0602 14:34:48.338999  1395 layer_factory.hpp:77] Creating layer conv4_1
I0602 14:34:48.339007  1395 net.cpp:100] Creating Layer conv4_1
I0602 14:34:48.339010  1395 net.cpp:434] conv4_1 <- pool3
I0602 14:34:48.339015  1395 net.cpp:408] conv4_1 -> conv4_1
I0602 14:34:48.346940  1395 net.cpp:150] Setting up conv4_1
I0602 14:34:48.346957  1395 net.cpp:157] Top shape: 32 512 38 38 (23658496)
I0602 14:34:48.346961  1395 net.cpp:165] Memory required for data: 6224511008
I0602 14:34:48.346967  1395 layer_factory.hpp:77] Creating layer relu4_1
I0602 14:34:48.346974  1395 net.cpp:100] Creating Layer relu4_1
I0602 14:34:48.346977  1395 net.cpp:434] relu4_1 <- conv4_1
I0602 14:34:48.346982  1395 net.cpp:395] relu4_1 -> conv4_1 (in-place)
I0602 14:34:48.347656  1395 net.cpp:150] Setting up relu4_1
I0602 14:34:48.347667  1395 net.cpp:157] Top shape: 32 512 38 38 (23658496)
I0602 14:34:48.347671  1395 net.cpp:165] Memory required for data: 6319144992
I0602 14:34:48.347674  1395 layer_factory.hpp:77] Creating layer conv4_2
I0602 14:34:48.347687  1395 net.cpp:100] Creating Layer conv4_2
I0602 14:34:48.347707  1395 net.cpp:434] conv4_2 <- conv4_1
I0602 14:34:48.347713  1395 net.cpp:408] conv4_2 -> conv4_2
I0602 14:34:48.359746  1395 net.cpp:150] Setting up conv4_2
I0602 14:34:48.359766  1395 net.cpp:157] Top shape: 32 512 38 38 (23658496)
I0602 14:34:48.359769  1395 net.cpp:165] Memory required for data: 6413778976
I0602 14:34:48.359781  1395 layer_factory.hpp:77] Creating layer relu4_2
I0602 14:34:48.359804  1395 net.cpp:100] Creating Layer relu4_2
I0602 14:34:48.359812  1395 net.cpp:434] relu4_2 <- conv4_2
I0602 14:34:48.359836  1395 net.cpp:395] relu4_2 -> conv4_2 (in-place)
I0602 14:34:48.360836  1395 net.cpp:150] Setting up relu4_2
I0602 14:34:48.360846  1395 net.cpp:157] Top shape: 32 512 38 38 (23658496)
I0602 14:34:48.360851  1395 net.cpp:165] Memory required for data: 6508412960
I0602 14:34:48.360867  1395 layer_factory.hpp:77] Creating layer conv4_3
I0602 14:34:48.360879  1395 net.cpp:100] Creating Layer conv4_3
I0602 14:34:48.360883  1395 net.cpp:434] conv4_3 <- conv4_2
I0602 14:34:48.360891  1395 net.cpp:408] conv4_3 -> conv4_3
I0602 14:34:48.373601  1395 net.cpp:150] Setting up conv4_3
I0602 14:34:48.373617  1395 net.cpp:157] Top shape: 32 512 38 38 (23658496)
I0602 14:34:48.373621  1395 net.cpp:165] Memory required for data: 6603046944
I0602 14:34:48.373630  1395 layer_factory.hpp:77] Creating layer relu4_3
I0602 14:34:48.373651  1395 net.cpp:100] Creating Layer relu4_3
I0602 14:34:48.373656  1395 net.cpp:434] relu4_3 <- conv4_3
I0602 14:34:48.373663  1395 net.cpp:395] relu4_3 -> conv4_3 (in-place)
I0602 14:34:48.373837  1395 net.cpp:150] Setting up relu4_3
I0602 14:34:48.373847  1395 net.cpp:157] Top shape: 32 512 38 38 (23658496)
I0602 14:34:48.373850  1395 net.cpp:165] Memory required for data: 6697680928
I0602 14:34:48.373854  1395 layer_factory.hpp:77] Creating layer conv4_3_relu4_3_0_split
I0602 14:34:48.373860  1395 net.cpp:100] Creating Layer conv4_3_relu4_3_0_split
I0602 14:34:48.373864  1395 net.cpp:434] conv4_3_relu4_3_0_split <- conv4_3
I0602 14:34:48.373872  1395 net.cpp:408] conv4_3_relu4_3_0_split -> conv4_3_relu4_3_0_split_0
I0602 14:34:48.373879  1395 net.cpp:408] conv4_3_relu4_3_0_split -> conv4_3_relu4_3_0_split_1
I0602 14:34:48.373922  1395 net.cpp:150] Setting up conv4_3_relu4_3_0_split
I0602 14:34:48.373929  1395 net.cpp:157] Top shape: 32 512 38 38 (23658496)
I0602 14:34:48.373934  1395 net.cpp:157] Top shape: 32 512 38 38 (23658496)
I0602 14:34:48.373939  1395 net.cpp:165] Memory required for data: 6886948896
I0602 14:34:48.373941  1395 layer_factory.hpp:77] Creating layer pool4
I0602 14:34:48.373949  1395 net.cpp:100] Creating Layer pool4
I0602 14:34:48.373955  1395 net.cpp:434] pool4 <- conv4_3_relu4_3_0_split_0
I0602 14:34:48.373960  1395 net.cpp:408] pool4 -> pool4
I0602 14:34:48.373993  1395 net.cpp:150] Setting up pool4
I0602 14:34:48.373999  1395 net.cpp:157] Top shape: 32 512 19 19 (5914624)
I0602 14:34:48.374003  1395 net.cpp:165] Memory required for data: 6910607392
I0602 14:34:48.374007  1395 layer_factory.hpp:77] Creating layer conv5_1
I0602 14:34:48.374017  1395 net.cpp:100] Creating Layer conv5_1
I0602 14:34:48.374022  1395 net.cpp:434] conv5_1 <- pool4
I0602 14:34:48.374030  1395 net.cpp:408] conv5_1 -> conv5_1
I0602 14:34:48.387156  1395 net.cpp:150] Setting up conv5_1
I0602 14:34:48.387172  1395 net.cpp:157] Top shape: 32 512 19 19 (5914624)
I0602 14:34:48.387176  1395 net.cpp:165] Memory required for data: 6934265888
I0602 14:34:48.387184  1395 layer_factory.hpp:77] Creating layer relu5_1
I0602 14:34:48.387207  1395 net.cpp:100] Creating Layer relu5_1
I0602 14:34:48.387212  1395 net.cpp:434] relu5_1 <- conv5_1
I0602 14:34:48.387223  1395 net.cpp:395] relu5_1 -> conv5_1 (in-place)
I0602 14:34:48.387377  1395 net.cpp:150] Setting up relu5_1
I0602 14:34:48.387385  1395 net.cpp:157] Top shape: 32 512 19 19 (5914624)
I0602 14:34:48.387388  1395 net.cpp:165] Memory required for data: 6957924384
I0602 14:34:48.387393  1395 layer_factory.hpp:77] Creating layer conv5_2
I0602 14:34:48.387404  1395 net.cpp:100] Creating Layer conv5_2
I0602 14:34:48.387409  1395 net.cpp:434] conv5_2 <- conv5_1
I0602 14:34:48.387415  1395 net.cpp:408] conv5_2 -> conv5_2
I0602 14:34:48.400032  1395 net.cpp:150] Setting up conv5_2
I0602 14:34:48.400053  1395 net.cpp:157] Top shape: 32 512 19 19 (5914624)
I0602 14:34:48.400055  1395 net.cpp:165] Memory required for data: 6981582880
I0602 14:34:48.400063  1395 layer_factory.hpp:77] Creating layer relu5_2
I0602 14:34:48.400101  1395 net.cpp:100] Creating Layer relu5_2
I0602 14:34:48.400108  1395 net.cpp:434] relu5_2 <- conv5_2
I0602 14:34:48.400115  1395 net.cpp:395] relu5_2 -> conv5_2 (in-place)
I0602 14:34:48.400277  1395 net.cpp:150] Setting up relu5_2
I0602 14:34:48.400331  1395 net.cpp:157] Top shape: 32 512 19 19 (5914624)
I0602 14:34:48.400336  1395 net.cpp:165] Memory required for data: 7005241376
I0602 14:34:48.400339  1395 layer_factory.hpp:77] Creating layer conv5_3
I0602 14:34:48.400352  1395 net.cpp:100] Creating Layer conv5_3
I0602 14:34:48.400357  1395 net.cpp:434] conv5_3 <- conv5_2
I0602 14:34:48.400367  1395 net.cpp:408] conv5_3 -> conv5_3
I0602 14:34:48.413063  1395 net.cpp:150] Setting up conv5_3
I0602 14:34:48.413079  1395 net.cpp:157] Top shape: 32 512 19 19 (5914624)
I0602 14:34:48.413082  1395 net.cpp:165] Memory required for data: 7028899872
I0602 14:34:48.413090  1395 layer_factory.hpp:77] Creating layer relu5_3
I0602 14:34:48.413120  1395 net.cpp:100] Creating Layer relu5_3
I0602 14:34:48.413125  1395 net.cpp:434] relu5_3 <- conv5_3
I0602 14:34:48.413148  1395 net.cpp:395] relu5_3 -> conv5_3 (in-place)
I0602 14:34:48.413307  1395 net.cpp:150] Setting up relu5_3
I0602 14:34:48.413339  1395 net.cpp:157] Top shape: 32 512 19 19 (5914624)
I0602 14:34:48.413343  1395 net.cpp:165] Memory required for data: 7052558368
I0602 14:34:48.413347  1395 layer_factory.hpp:77] Creating layer pool5
I0602 14:34:48.413354  1395 net.cpp:100] Creating Layer pool5
I0602 14:34:48.413358  1395 net.cpp:434] pool5 <- conv5_3
I0602 14:34:48.413367  1395 net.cpp:408] pool5 -> pool5
I0602 14:34:48.413419  1395 net.cpp:150] Setting up pool5
I0602 14:34:48.413426  1395 net.cpp:157] Top shape: 32 512 19 19 (5914624)
I0602 14:34:48.413430  1395 net.cpp:165] Memory required for data: 7076216864
I0602 14:34:48.413434  1395 layer_factory.hpp:77] Creating layer fc6
I0602 14:34:48.413445  1395 net.cpp:100] Creating Layer fc6
I0602 14:34:48.413450  1395 net.cpp:434] fc6 <- pool5
I0602 14:34:48.413456  1395 net.cpp:408] fc6 -> fc6
I0602 14:34:48.436137  1395 net.cpp:150] Setting up fc6
I0602 14:34:48.436158  1395 net.cpp:157] Top shape: 32 1024 19 19 (11829248)
I0602 14:34:48.436161  1395 net.cpp:165] Memory required for data: 7123533856
I0602 14:34:48.436170  1395 layer_factory.hpp:77] Creating layer relu6
I0602 14:34:48.436194  1395 net.cpp:100] Creating Layer relu6
I0602 14:34:48.436199  1395 net.cpp:434] relu6 <- fc6
I0602 14:34:48.436208  1395 net.cpp:395] relu6 -> fc6 (in-place)
I0602 14:34:48.437156  1395 net.cpp:150] Setting up relu6
I0602 14:34:48.437167  1395 net.cpp:157] Top shape: 32 1024 19 19 (11829248)
I0602 14:34:48.437171  1395 net.cpp:165] Memory required for data: 7170850848
I0602 14:34:48.437175  1395 layer_factory.hpp:77] Creating layer fc7
I0602 14:34:48.437188  1395 net.cpp:100] Creating Layer fc7
I0602 14:34:48.437196  1395 net.cpp:434] fc7 <- fc6
I0602 14:34:48.437203  1395 net.cpp:408] fc7 -> fc7
I0602 14:34:48.444628  1395 net.cpp:150] Setting up fc7
I0602 14:34:48.444644  1395 net.cpp:157] Top shape: 32 1024 19 19 (11829248)
I0602 14:34:48.444648  1395 net.cpp:165] Memory required for data: 7218167840
I0602 14:34:48.444669  1395 layer_factory.hpp:77] Creating layer relu7
I0602 14:34:48.444674  1395 net.cpp:100] Creating Layer relu7
I0602 14:34:48.444679  1395 net.cpp:434] relu7 <- fc7
I0602 14:34:48.444684  1395 net.cpp:395] relu7 -> fc7 (in-place)
I0602 14:34:48.444846  1395 net.cpp:150] Setting up relu7
I0602 14:34:48.444855  1395 net.cpp:157] Top shape: 32 1024 19 19 (11829248)
I0602 14:34:48.444871  1395 net.cpp:165] Memory required for data: 7265484832
I0602 14:34:48.444874  1395 layer_factory.hpp:77] Creating layer fc7_relu7_0_split
I0602 14:34:48.444880  1395 net.cpp:100] Creating Layer fc7_relu7_0_split
I0602 14:34:48.444885  1395 net.cpp:434] fc7_relu7_0_split <- fc7
I0602 14:34:48.444891  1395 net.cpp:408] fc7_relu7_0_split -> fc7_relu7_0_split_0
I0602 14:34:48.444900  1395 net.cpp:408] fc7_relu7_0_split -> fc7_relu7_0_split_1
I0602 14:34:48.444914  1395 net.cpp:408] fc7_relu7_0_split -> fc7_relu7_0_split_2
I0602 14:34:48.444922  1395 net.cpp:408] fc7_relu7_0_split -> fc7_relu7_0_split_3
I0602 14:34:48.444984  1395 net.cpp:150] Setting up fc7_relu7_0_split
I0602 14:34:48.444990  1395 net.cpp:157] Top shape: 32 1024 19 19 (11829248)
I0602 14:34:48.444994  1395 net.cpp:157] Top shape: 32 1024 19 19 (11829248)
I0602 14:34:48.444996  1395 net.cpp:157] Top shape: 32 1024 19 19 (11829248)
I0602 14:34:48.445000  1395 net.cpp:157] Top shape: 32 1024 19 19 (11829248)
I0602 14:34:48.445001  1395 net.cpp:165] Memory required for data: 7454752800
I0602 14:34:48.445003  1395 layer_factory.hpp:77] Creating layer conv6_1
I0602 14:34:48.445011  1395 net.cpp:100] Creating Layer conv6_1
I0602 14:34:48.445032  1395 net.cpp:434] conv6_1 <- fc7_relu7_0_split_0
I0602 14:34:48.445037  1395 net.cpp:408] conv6_1 -> conv6_1
I0602 14:34:48.448570  1395 net.cpp:150] Setting up conv6_1
I0602 14:34:48.448586  1395 net.cpp:157] Top shape: 32 256 19 19 (2957312)
I0602 14:34:48.448590  1395 net.cpp:165] Memory required for data: 7466582048
I0602 14:34:48.448596  1395 layer_factory.hpp:77] Creating layer conv6_1_relu
I0602 14:34:48.448606  1395 net.cpp:100] Creating Layer conv6_1_relu
I0602 14:34:48.448624  1395 net.cpp:434] conv6_1_relu <- conv6_1
I0602 14:34:48.448645  1395 net.cpp:395] conv6_1_relu -> conv6_1 (in-place)
I0602 14:34:48.448801  1395 net.cpp:150] Setting up conv6_1_relu
I0602 14:34:48.448808  1395 net.cpp:157] Top shape: 32 256 19 19 (2957312)
I0602 14:34:48.448810  1395 net.cpp:165] Memory required for data: 7478411296
I0602 14:34:48.448814  1395 layer_factory.hpp:77] Creating layer conv6_2
I0602 14:34:48.448840  1395 net.cpp:100] Creating Layer conv6_2
I0602 14:34:48.448846  1395 net.cpp:434] conv6_2 <- conv6_1
I0602 14:34:48.448855  1395 net.cpp:408] conv6_2 -> conv6_2
I0602 14:34:48.455737  1395 net.cpp:150] Setting up conv6_2
I0602 14:34:48.455755  1395 net.cpp:157] Top shape: 32 512 10 10 (1638400)
I0602 14:34:48.455759  1395 net.cpp:165] Memory required for data: 7484964896
I0602 14:34:48.455771  1395 layer_factory.hpp:77] Creating layer conv6_2_relu
I0602 14:34:48.455781  1395 net.cpp:100] Creating Layer conv6_2_relu
I0602 14:34:48.455786  1395 net.cpp:434] conv6_2_relu <- conv6_2
I0602 14:34:48.455793  1395 net.cpp:395] conv6_2_relu -> conv6_2 (in-place)
I0602 14:34:48.455935  1395 net.cpp:150] Setting up conv6_2_relu
I0602 14:34:48.455942  1395 net.cpp:157] Top shape: 32 512 10 10 (1638400)
I0602 14:34:48.455945  1395 net.cpp:165] Memory required for data: 7491518496
I0602 14:34:48.455948  1395 layer_factory.hpp:77] Creating layer conv6_2_conv6_2_relu_0_split
I0602 14:34:48.455955  1395 net.cpp:100] Creating Layer conv6_2_conv6_2_relu_0_split
I0602 14:34:48.455958  1395 net.cpp:434] conv6_2_conv6_2_relu_0_split <- conv6_2
I0602 14:34:48.455966  1395 net.cpp:408] conv6_2_conv6_2_relu_0_split -> conv6_2_conv6_2_relu_0_split_0
I0602 14:34:48.455978  1395 net.cpp:408] conv6_2_conv6_2_relu_0_split -> conv6_2_conv6_2_relu_0_split_1
I0602 14:34:48.455987  1395 net.cpp:408] conv6_2_conv6_2_relu_0_split -> conv6_2_conv6_2_relu_0_split_2
I0602 14:34:48.455996  1395 net.cpp:408] conv6_2_conv6_2_relu_0_split -> conv6_2_conv6_2_relu_0_split_3
I0602 14:34:48.456063  1395 net.cpp:150] Setting up conv6_2_conv6_2_relu_0_split
I0602 14:34:48.456069  1395 net.cpp:157] Top shape: 32 512 10 10 (1638400)
I0602 14:34:48.456073  1395 net.cpp:157] Top shape: 32 512 10 10 (1638400)
I0602 14:34:48.456077  1395 net.cpp:157] Top shape: 32 512 10 10 (1638400)
I0602 14:34:48.456084  1395 net.cpp:157] Top shape: 32 512 10 10 (1638400)
I0602 14:34:48.456086  1395 net.cpp:165] Memory required for data: 7517732896
I0602 14:34:48.456090  1395 layer_factory.hpp:77] Creating layer conv7_1
I0602 14:34:48.456101  1395 net.cpp:100] Creating Layer conv7_1
I0602 14:34:48.456109  1395 net.cpp:434] conv7_1 <- conv6_2_conv6_2_relu_0_split_0
I0602 14:34:48.456118  1395 net.cpp:408] conv7_1 -> conv7_1
I0602 14:34:48.457423  1395 net.cpp:150] Setting up conv7_1
I0602 14:34:48.457433  1395 net.cpp:157] Top shape: 32 128 10 10 (409600)
I0602 14:34:48.457438  1395 net.cpp:165] Memory required for data: 7519371296
I0602 14:34:48.457445  1395 layer_factory.hpp:77] Creating layer conv7_1_relu
I0602 14:34:48.457453  1395 net.cpp:100] Creating Layer conv7_1_relu
I0602 14:34:48.457458  1395 net.cpp:434] conv7_1_relu <- conv7_1
I0602 14:34:48.457464  1395 net.cpp:395] conv7_1_relu -> conv7_1 (in-place)
I0602 14:34:48.457595  1395 net.cpp:150] Setting up conv7_1_relu
I0602 14:34:48.457602  1395 net.cpp:157] Top shape: 32 128 10 10 (409600)
I0602 14:34:48.457605  1395 net.cpp:165] Memory required for data: 7521009696
I0602 14:34:48.457608  1395 layer_factory.hpp:77] Creating layer conv7_2
I0602 14:34:48.457617  1395 net.cpp:100] Creating Layer conv7_2
I0602 14:34:48.457623  1395 net.cpp:434] conv7_2 <- conv7_1
I0602 14:34:48.457633  1395 net.cpp:408] conv7_2 -> conv7_2
I0602 14:34:48.460463  1395 net.cpp:150] Setting up conv7_2
I0602 14:34:48.460474  1395 net.cpp:157] Top shape: 32 256 5 5 (204800)
I0602 14:34:48.460479  1395 net.cpp:165] Memory required for data: 7521828896
I0602 14:34:48.460485  1395 layer_factory.hpp:77] Creating layer conv7_2_relu
I0602 14:34:48.460494  1395 net.cpp:100] Creating Layer conv7_2_relu
I0602 14:34:48.460500  1395 net.cpp:434] conv7_2_relu <- conv7_2
I0602 14:34:48.460518  1395 net.cpp:395] conv7_2_relu -> conv7_2 (in-place)
I0602 14:34:48.460655  1395 net.cpp:150] Setting up conv7_2_relu
I0602 14:34:48.460662  1395 net.cpp:157] Top shape: 32 256 5 5 (204800)
I0602 14:34:48.460665  1395 net.cpp:165] Memory required for data: 7522648096
I0602 14:34:48.460670  1395 layer_factory.hpp:77] Creating layer conv7_2_conv7_2_relu_0_split
I0602 14:34:48.460680  1395 net.cpp:100] Creating Layer conv7_2_conv7_2_relu_0_split
I0602 14:34:48.460685  1395 net.cpp:434] conv7_2_conv7_2_relu_0_split <- conv7_2
I0602 14:34:48.460692  1395 net.cpp:408] conv7_2_conv7_2_relu_0_split -> conv7_2_conv7_2_relu_0_split_0
I0602 14:34:48.460702  1395 net.cpp:408] conv7_2_conv7_2_relu_0_split -> conv7_2_conv7_2_relu_0_split_1
I0602 14:34:48.460711  1395 net.cpp:408] conv7_2_conv7_2_relu_0_split -> conv7_2_conv7_2_relu_0_split_2
I0602 14:34:48.460719  1395 net.cpp:408] conv7_2_conv7_2_relu_0_split -> conv7_2_conv7_2_relu_0_split_3
I0602 14:34:48.460777  1395 net.cpp:150] Setting up conv7_2_conv7_2_relu_0_split
I0602 14:34:48.460783  1395 net.cpp:157] Top shape: 32 256 5 5 (204800)
I0602 14:34:48.460786  1395 net.cpp:157] Top shape: 32 256 5 5 (204800)
I0602 14:34:48.460791  1395 net.cpp:157] Top shape: 32 256 5 5 (204800)
I0602 14:34:48.460796  1395 net.cpp:157] Top shape: 32 256 5 5 (204800)
I0602 14:34:48.460801  1395 net.cpp:165] Memory required for data: 7525924896
I0602 14:34:48.460804  1395 layer_factory.hpp:77] Creating layer conv8_1
I0602 14:34:48.460816  1395 net.cpp:100] Creating Layer conv8_1
I0602 14:34:48.460824  1395 net.cpp:434] conv8_1 <- conv7_2_conv7_2_relu_0_split_0
I0602 14:34:48.460834  1395 net.cpp:408] conv8_1 -> conv8_1
I0602 14:34:48.461994  1395 net.cpp:150] Setting up conv8_1
I0602 14:34:48.462003  1395 net.cpp:157] Top shape: 32 128 5 5 (102400)
I0602 14:34:48.462007  1395 net.cpp:165] Memory required for data: 7526334496
I0602 14:34:48.462014  1395 layer_factory.hpp:77] Creating layer conv8_1_relu
I0602 14:34:48.462021  1395 net.cpp:100] Creating Layer conv8_1_relu
I0602 14:34:48.462026  1395 net.cpp:434] conv8_1_relu <- conv8_1
I0602 14:34:48.462034  1395 net.cpp:395] conv8_1_relu -> conv8_1 (in-place)
I0602 14:34:48.462604  1395 net.cpp:150] Setting up conv8_1_relu
I0602 14:34:48.462612  1395 net.cpp:157] Top shape: 32 128 5 5 (102400)
I0602 14:34:48.462617  1395 net.cpp:165] Memory required for data: 7526744096
I0602 14:34:48.462621  1395 layer_factory.hpp:77] Creating layer conv8_2
I0602 14:34:48.462632  1395 net.cpp:100] Creating Layer conv8_2
I0602 14:34:48.462640  1395 net.cpp:434] conv8_2 <- conv8_1
I0602 14:34:48.462648  1395 net.cpp:408] conv8_2 -> conv8_2
I0602 14:34:48.465507  1395 net.cpp:150] Setting up conv8_2
I0602 14:34:48.465519  1395 net.cpp:157] Top shape: 32 256 3 3 (73728)
I0602 14:34:48.465523  1395 net.cpp:165] Memory required for data: 7527039008
I0602 14:34:48.465530  1395 layer_factory.hpp:77] Creating layer conv8_2_relu
I0602 14:34:48.465539  1395 net.cpp:100] Creating Layer conv8_2_relu
I0602 14:34:48.465545  1395 net.cpp:434] conv8_2_relu <- conv8_2
I0602 14:34:48.465553  1395 net.cpp:395] conv8_2_relu -> conv8_2 (in-place)
I0602 14:34:48.465690  1395 net.cpp:150] Setting up conv8_2_relu
I0602 14:34:48.465698  1395 net.cpp:157] Top shape: 32 256 3 3 (73728)
I0602 14:34:48.465700  1395 net.cpp:165] Memory required for data: 7527333920
I0602 14:34:48.465704  1395 layer_factory.hpp:77] Creating layer conv8_2_conv8_2_relu_0_split
I0602 14:34:48.465711  1395 net.cpp:100] Creating Layer conv8_2_conv8_2_relu_0_split
I0602 14:34:48.465716  1395 net.cpp:434] conv8_2_conv8_2_relu_0_split <- conv8_2
I0602 14:34:48.465724  1395 net.cpp:408] conv8_2_conv8_2_relu_0_split -> conv8_2_conv8_2_relu_0_split_0
I0602 14:34:48.465734  1395 net.cpp:408] conv8_2_conv8_2_relu_0_split -> conv8_2_conv8_2_relu_0_split_1
I0602 14:34:48.465744  1395 net.cpp:408] conv8_2_conv8_2_relu_0_split -> conv8_2_conv8_2_relu_0_split_2
I0602 14:34:48.465752  1395 net.cpp:408] conv8_2_conv8_2_relu_0_split -> conv8_2_conv8_2_relu_0_split_3
I0602 14:34:48.465834  1395 net.cpp:150] Setting up conv8_2_conv8_2_relu_0_split
I0602 14:34:48.465842  1395 net.cpp:157] Top shape: 32 256 3 3 (73728)
I0602 14:34:48.465845  1395 net.cpp:157] Top shape: 32 256 3 3 (73728)
I0602 14:34:48.465850  1395 net.cpp:157] Top shape: 32 256 3 3 (73728)
I0602 14:34:48.465857  1395 net.cpp:157] Top shape: 32 256 3 3 (73728)
I0602 14:34:48.465860  1395 net.cpp:165] Memory required for data: 7528513568
I0602 14:34:48.465867  1395 layer_factory.hpp:77] Creating layer conv9_1
I0602 14:34:48.465879  1395 net.cpp:100] Creating Layer conv9_1
I0602 14:34:48.465884  1395 net.cpp:434] conv9_1 <- conv8_2_conv8_2_relu_0_split_0
I0602 14:34:48.465893  1395 net.cpp:408] conv9_1 -> conv9_1
I0602 14:34:48.467077  1395 net.cpp:150] Setting up conv9_1
I0602 14:34:48.467087  1395 net.cpp:157] Top shape: 32 128 3 3 (36864)
I0602 14:34:48.467088  1395 net.cpp:165] Memory required for data: 7528661024
I0602 14:34:48.467094  1395 layer_factory.hpp:77] Creating layer conv9_1_relu
I0602 14:34:48.467103  1395 net.cpp:100] Creating Layer conv9_1_relu
I0602 14:34:48.467108  1395 net.cpp:434] conv9_1_relu <- conv9_1
I0602 14:34:48.467116  1395 net.cpp:395] conv9_1_relu -> conv9_1 (in-place)
I0602 14:34:48.467250  1395 net.cpp:150] Setting up conv9_1_relu
I0602 14:34:48.467257  1395 net.cpp:157] Top shape: 32 128 3 3 (36864)
I0602 14:34:48.467260  1395 net.cpp:165] Memory required for data: 7528808480
I0602 14:34:48.467263  1395 layer_factory.hpp:77] Creating layer conv9_2
I0602 14:34:48.467272  1395 net.cpp:100] Creating Layer conv9_2
I0602 14:34:48.467278  1395 net.cpp:434] conv9_2 <- conv9_1
I0602 14:34:48.467286  1395 net.cpp:408] conv9_2 -> conv9_2
I0602 14:34:48.470131  1395 net.cpp:150] Setting up conv9_2
I0602 14:34:48.470144  1395 net.cpp:157] Top shape: 32 256 1 1 (8192)
I0602 14:34:48.470147  1395 net.cpp:165] Memory required for data: 7528841248
I0602 14:34:48.470155  1395 layer_factory.hpp:77] Creating layer conv9_2_relu
I0602 14:34:48.470162  1395 net.cpp:100] Creating Layer conv9_2_relu
I0602 14:34:48.470168  1395 net.cpp:434] conv9_2_relu <- conv9_2
I0602 14:34:48.470175  1395 net.cpp:395] conv9_2_relu -> conv9_2 (in-place)
I0602 14:34:48.470315  1395 net.cpp:150] Setting up conv9_2_relu
I0602 14:34:48.470322  1395 net.cpp:157] Top shape: 32 256 1 1 (8192)
I0602 14:34:48.470325  1395 net.cpp:165] Memory required for data: 7528874016
I0602 14:34:48.470329  1395 layer_factory.hpp:77] Creating layer conv9_2_conv9_2_relu_0_split
I0602 14:34:48.470336  1395 net.cpp:100] Creating Layer conv9_2_conv9_2_relu_0_split
I0602 14:34:48.470342  1395 net.cpp:434] conv9_2_conv9_2_relu_0_split <- conv9_2
I0602 14:34:48.470350  1395 net.cpp:408] conv9_2_conv9_2_relu_0_split -> conv9_2_conv9_2_relu_0_split_0
I0602 14:34:48.470360  1395 net.cpp:408] conv9_2_conv9_2_relu_0_split -> conv9_2_conv9_2_relu_0_split_1
I0602 14:34:48.470369  1395 net.cpp:408] conv9_2_conv9_2_relu_0_split -> conv9_2_conv9_2_relu_0_split_2
I0602 14:34:48.470419  1395 net.cpp:150] Setting up conv9_2_conv9_2_relu_0_split
I0602 14:34:48.470427  1395 net.cpp:157] Top shape: 32 256 1 1 (8192)
I0602 14:34:48.470429  1395 net.cpp:157] Top shape: 32 256 1 1 (8192)
I0602 14:34:48.470435  1395 net.cpp:157] Top shape: 32 256 1 1 (8192)
I0602 14:34:48.470439  1395 net.cpp:165] Memory required for data: 7528972320
I0602 14:34:48.470443  1395 layer_factory.hpp:77] Creating layer conv4_3_norm
I0602 14:34:48.470453  1395 net.cpp:100] Creating Layer conv4_3_norm
I0602 14:34:48.470460  1395 net.cpp:434] conv4_3_norm <- conv4_3_relu4_3_0_split_1
I0602 14:34:48.470466  1395 net.cpp:408] conv4_3_norm -> conv4_3_norm
I0602 14:34:48.470597  1395 net.cpp:150] Setting up conv4_3_norm
I0602 14:34:48.470603  1395 net.cpp:157] Top shape: 32 512 38 38 (23658496)
I0602 14:34:48.470607  1395 net.cpp:165] Memory required for data: 7623606304
I0602 14:34:48.470612  1395 layer_factory.hpp:77] Creating layer conv4_3_norm_conv4_3_norm_0_split
I0602 14:34:48.470618  1395 net.cpp:100] Creating Layer conv4_3_norm_conv4_3_norm_0_split
I0602 14:34:48.470623  1395 net.cpp:434] conv4_3_norm_conv4_3_norm_0_split <- conv4_3_norm
I0602 14:34:48.470640  1395 net.cpp:408] conv4_3_norm_conv4_3_norm_0_split -> conv4_3_norm_conv4_3_norm_0_split_0
I0602 14:34:48.470650  1395 net.cpp:408] conv4_3_norm_conv4_3_norm_0_split -> conv4_3_norm_conv4_3_norm_0_split_1
I0602 14:34:48.470659  1395 net.cpp:408] conv4_3_norm_conv4_3_norm_0_split -> conv4_3_norm_conv4_3_norm_0_split_2
I0602 14:34:48.470705  1395 net.cpp:150] Setting up conv4_3_norm_conv4_3_norm_0_split
I0602 14:34:48.470711  1395 net.cpp:157] Top shape: 32 512 38 38 (23658496)
I0602 14:34:48.470716  1395 net.cpp:157] Top shape: 32 512 38 38 (23658496)
I0602 14:34:48.470722  1395 net.cpp:157] Top shape: 32 512 38 38 (23658496)
I0602 14:34:48.470726  1395 net.cpp:165] Memory required for data: 7907508256
I0602 14:34:48.470731  1395 layer_factory.hpp:77] Creating layer conv4_3_norm_mbox_loc
I0602 14:34:48.470741  1395 net.cpp:100] Creating Layer conv4_3_norm_mbox_loc
I0602 14:34:48.470746  1395 net.cpp:434] conv4_3_norm_mbox_loc <- conv4_3_norm_conv4_3_norm_0_split_0
I0602 14:34:48.470755  1395 net.cpp:408] conv4_3_norm_mbox_loc -> conv4_3_norm_mbox_loc
I0602 14:34:48.472549  1395 net.cpp:150] Setting up conv4_3_norm_mbox_loc
I0602 14:34:48.472559  1395 net.cpp:157] Top shape: 32 16 38 38 (739328)
I0602 14:34:48.472563  1395 net.cpp:165] Memory required for data: 7910465568
I0602 14:34:48.472568  1395 layer_factory.hpp:77] Creating layer conv4_3_norm_mbox_loc_perm
I0602 14:34:48.472579  1395 net.cpp:100] Creating Layer conv4_3_norm_mbox_loc_perm
I0602 14:34:48.472586  1395 net.cpp:434] conv4_3_norm_mbox_loc_perm <- conv4_3_norm_mbox_loc
I0602 14:34:48.472595  1395 net.cpp:408] conv4_3_norm_mbox_loc_perm -> conv4_3_norm_mbox_loc_perm
I0602 14:34:48.472684  1395 net.cpp:150] Setting up conv4_3_norm_mbox_loc_perm
I0602 14:34:48.472692  1395 net.cpp:157] Top shape: 32 38 38 16 (739328)
I0602 14:34:48.472697  1395 net.cpp:165] Memory required for data: 7913422880
I0602 14:34:48.472700  1395 layer_factory.hpp:77] Creating layer conv4_3_norm_mbox_loc_flat
I0602 14:34:48.472707  1395 net.cpp:100] Creating Layer conv4_3_norm_mbox_loc_flat
I0602 14:34:48.472712  1395 net.cpp:434] conv4_3_norm_mbox_loc_flat <- conv4_3_norm_mbox_loc_perm
I0602 14:34:48.472721  1395 net.cpp:408] conv4_3_norm_mbox_loc_flat -> conv4_3_norm_mbox_loc_flat
I0602 14:34:48.472757  1395 net.cpp:150] Setting up conv4_3_norm_mbox_loc_flat
I0602 14:34:48.472764  1395 net.cpp:157] Top shape: 32 23104 (739328)
I0602 14:34:48.472767  1395 net.cpp:165] Memory required for data: 7916380192
I0602 14:34:48.472772  1395 layer_factory.hpp:77] Creating layer conv4_3_norm_mbox_conf
I0602 14:34:48.472789  1395 net.cpp:100] Creating Layer conv4_3_norm_mbox_conf
I0602 14:34:48.472795  1395 net.cpp:434] conv4_3_norm_mbox_conf <- conv4_3_norm_conv4_3_norm_0_split_1
I0602 14:34:48.472802  1395 net.cpp:408] conv4_3_norm_mbox_conf -> conv4_3_norm_mbox_conf
I0602 14:34:48.474864  1395 net.cpp:150] Setting up conv4_3_norm_mbox_conf
I0602 14:34:48.474876  1395 net.cpp:157] Top shape: 32 16 38 38 (739328)
I0602 14:34:48.474881  1395 net.cpp:165] Memory required for data: 7919337504
I0602 14:34:48.474889  1395 layer_factory.hpp:77] Creating layer conv4_3_norm_mbox_conf_perm
I0602 14:34:48.474897  1395 net.cpp:100] Creating Layer conv4_3_norm_mbox_conf_perm
I0602 14:34:48.474902  1395 net.cpp:434] conv4_3_norm_mbox_conf_perm <- conv4_3_norm_mbox_conf
I0602 14:34:48.474910  1395 net.cpp:408] conv4_3_norm_mbox_conf_perm -> conv4_3_norm_mbox_conf_perm
I0602 14:34:48.475018  1395 net.cpp:150] Setting up conv4_3_norm_mbox_conf_perm
I0602 14:34:48.475025  1395 net.cpp:157] Top shape: 32 38 38 16 (739328)
I0602 14:34:48.475030  1395 net.cpp:165] Memory required for data: 7922294816
I0602 14:34:48.475033  1395 layer_factory.hpp:77] Creating layer conv4_3_norm_mbox_conf_flat
I0602 14:34:48.475039  1395 net.cpp:100] Creating Layer conv4_3_norm_mbox_conf_flat
I0602 14:34:48.475045  1395 net.cpp:434] conv4_3_norm_mbox_conf_flat <- conv4_3_norm_mbox_conf_perm
I0602 14:34:48.475050  1395 net.cpp:408] conv4_3_norm_mbox_conf_flat -> conv4_3_norm_mbox_conf_flat
I0602 14:34:48.475088  1395 net.cpp:150] Setting up conv4_3_norm_mbox_conf_flat
I0602 14:34:48.475095  1395 net.cpp:157] Top shape: 32 23104 (739328)
I0602 14:34:48.475100  1395 net.cpp:165] Memory required for data: 7925252128
I0602 14:34:48.475103  1395 layer_factory.hpp:77] Creating layer conv4_3_norm_mbox_priorbox
I0602 14:34:48.475111  1395 net.cpp:100] Creating Layer conv4_3_norm_mbox_priorbox
I0602 14:34:48.475116  1395 net.cpp:434] conv4_3_norm_mbox_priorbox <- conv4_3_norm_conv4_3_norm_0_split_2
I0602 14:34:48.475123  1395 net.cpp:434] conv4_3_norm_mbox_priorbox <- data_data_0_split_1
I0602 14:34:48.475131  1395 net.cpp:408] conv4_3_norm_mbox_priorbox -> conv4_3_norm_mbox_priorbox
I0602 14:34:48.475160  1395 net.cpp:150] Setting up conv4_3_norm_mbox_priorbox
I0602 14:34:48.475167  1395 net.cpp:157] Top shape: 1 2 23104 (46208)
I0602 14:34:48.475172  1395 net.cpp:165] Memory required for data: 7925436960
I0602 14:34:48.475175  1395 layer_factory.hpp:77] Creating layer fc7_mbox_loc
I0602 14:34:48.475184  1395 net.cpp:100] Creating Layer fc7_mbox_loc
I0602 14:34:48.475189  1395 net.cpp:434] fc7_mbox_loc <- fc7_relu7_0_split_1
I0602 14:34:48.475198  1395 net.cpp:408] fc7_mbox_loc -> fc7_mbox_loc
I0602 14:34:48.479005  1395 net.cpp:150] Setting up fc7_mbox_loc
I0602 14:34:48.479023  1395 net.cpp:157] Top shape: 32 24 19 19 (277248)
I0602 14:34:48.479027  1395 net.cpp:165] Memory required for data: 7926545952
I0602 14:34:48.479048  1395 layer_factory.hpp:77] Creating layer fc7_mbox_loc_perm
I0602 14:34:48.479058  1395 net.cpp:100] Creating Layer fc7_mbox_loc_perm
I0602 14:34:48.479064  1395 net.cpp:434] fc7_mbox_loc_perm <- fc7_mbox_loc
I0602 14:34:48.479074  1395 net.cpp:408] fc7_mbox_loc_perm -> fc7_mbox_loc_perm
I0602 14:34:48.479178  1395 net.cpp:150] Setting up fc7_mbox_loc_perm
I0602 14:34:48.479187  1395 net.cpp:157] Top shape: 32 19 19 24 (277248)
I0602 14:34:48.479190  1395 net.cpp:165] Memory required for data: 7927654944
I0602 14:34:48.479192  1395 layer_factory.hpp:77] Creating layer fc7_mbox_loc_flat
I0602 14:34:48.479199  1395 net.cpp:100] Creating Layer fc7_mbox_loc_flat
I0602 14:34:48.479204  1395 net.cpp:434] fc7_mbox_loc_flat <- fc7_mbox_loc_perm
I0602 14:34:48.479210  1395 net.cpp:408] fc7_mbox_loc_flat -> fc7_mbox_loc_flat
I0602 14:34:48.479238  1395 net.cpp:150] Setting up fc7_mbox_loc_flat
I0602 14:34:48.479244  1395 net.cpp:157] Top shape: 32 8664 (277248)
I0602 14:34:48.479248  1395 net.cpp:165] Memory required for data: 7928763936
I0602 14:34:48.479250  1395 layer_factory.hpp:77] Creating layer fc7_mbox_conf
I0602 14:34:48.479264  1395 net.cpp:100] Creating Layer fc7_mbox_conf
I0602 14:34:48.479284  1395 net.cpp:434] fc7_mbox_conf <- fc7_relu7_0_split_2
I0602 14:34:48.479291  1395 net.cpp:408] fc7_mbox_conf -> fc7_mbox_conf
I0602 14:34:48.481916  1395 net.cpp:150] Setting up fc7_mbox_conf
I0602 14:34:48.481935  1395 net.cpp:157] Top shape: 32 24 19 19 (277248)
I0602 14:34:48.481937  1395 net.cpp:165] Memory required for data: 7929872928
I0602 14:34:48.481945  1395 layer_factory.hpp:77] Creating layer fc7_mbox_conf_perm
I0602 14:34:48.481955  1395 net.cpp:100] Creating Layer fc7_mbox_conf_perm
I0602 14:34:48.481959  1395 net.cpp:434] fc7_mbox_conf_perm <- fc7_mbox_conf
I0602 14:34:48.481969  1395 net.cpp:408] fc7_mbox_conf_perm -> fc7_mbox_conf_perm
I0602 14:34:48.482077  1395 net.cpp:150] Setting up fc7_mbox_conf_perm
I0602 14:34:48.482084  1395 net.cpp:157] Top shape: 32 19 19 24 (277248)
I0602 14:34:48.482087  1395 net.cpp:165] Memory required for data: 7930981920
I0602 14:34:48.482090  1395 layer_factory.hpp:77] Creating layer fc7_mbox_conf_flat
I0602 14:34:48.482096  1395 net.cpp:100] Creating Layer fc7_mbox_conf_flat
I0602 14:34:48.482102  1395 net.cpp:434] fc7_mbox_conf_flat <- fc7_mbox_conf_perm
I0602 14:34:48.482110  1395 net.cpp:408] fc7_mbox_conf_flat -> fc7_mbox_conf_flat
I0602 14:34:48.482137  1395 net.cpp:150] Setting up fc7_mbox_conf_flat
I0602 14:34:48.482144  1395 net.cpp:157] Top shape: 32 8664 (277248)
I0602 14:34:48.482147  1395 net.cpp:165] Memory required for data: 7932090912
I0602 14:34:48.482164  1395 layer_factory.hpp:77] Creating layer fc7_mbox_priorbox
I0602 14:34:48.482175  1395 net.cpp:100] Creating Layer fc7_mbox_priorbox
I0602 14:34:48.482182  1395 net.cpp:434] fc7_mbox_priorbox <- fc7_relu7_0_split_3
I0602 14:34:48.482189  1395 net.cpp:434] fc7_mbox_priorbox <- data_data_0_split_2
I0602 14:34:48.482199  1395 net.cpp:408] fc7_mbox_priorbox -> fc7_mbox_priorbox
I0602 14:34:48.482234  1395 net.cpp:150] Setting up fc7_mbox_priorbox
I0602 14:34:48.482240  1395 net.cpp:157] Top shape: 1 2 8664 (17328)
I0602 14:34:48.482244  1395 net.cpp:165] Memory required for data: 7932160224
I0602 14:34:48.482246  1395 layer_factory.hpp:77] Creating layer conv6_2_mbox_loc
I0602 14:34:48.482260  1395 net.cpp:100] Creating Layer conv6_2_mbox_loc
I0602 14:34:48.482267  1395 net.cpp:434] conv6_2_mbox_loc <- conv6_2_conv6_2_relu_0_split_1
I0602 14:34:48.482275  1395 net.cpp:408] conv6_2_mbox_loc -> conv6_2_mbox_loc
I0602 14:34:48.484305  1395 net.cpp:150] Setting up conv6_2_mbox_loc
I0602 14:34:48.484318  1395 net.cpp:157] Top shape: 32 24 10 10 (76800)
I0602 14:34:48.484321  1395 net.cpp:165] Memory required for data: 7932467424
I0602 14:34:48.484328  1395 layer_factory.hpp:77] Creating layer conv6_2_mbox_loc_perm
I0602 14:34:48.484335  1395 net.cpp:100] Creating Layer conv6_2_mbox_loc_perm
I0602 14:34:48.484354  1395 net.cpp:434] conv6_2_mbox_loc_perm <- conv6_2_mbox_loc
I0602 14:34:48.484365  1395 net.cpp:408] conv6_2_mbox_loc_perm -> conv6_2_mbox_loc_perm
I0602 14:34:48.484462  1395 net.cpp:150] Setting up conv6_2_mbox_loc_perm
I0602 14:34:48.484469  1395 net.cpp:157] Top shape: 32 10 10 24 (76800)
I0602 14:34:48.484472  1395 net.cpp:165] Memory required for data: 7932774624
I0602 14:34:48.484474  1395 layer_factory.hpp:77] Creating layer conv6_2_mbox_loc_flat
I0602 14:34:48.484479  1395 net.cpp:100] Creating Layer conv6_2_mbox_loc_flat
I0602 14:34:48.484483  1395 net.cpp:434] conv6_2_mbox_loc_flat <- conv6_2_mbox_loc_perm
I0602 14:34:48.484490  1395 net.cpp:408] conv6_2_mbox_loc_flat -> conv6_2_mbox_loc_flat
I0602 14:34:48.484519  1395 net.cpp:150] Setting up conv6_2_mbox_loc_flat
I0602 14:34:48.484524  1395 net.cpp:157] Top shape: 32 2400 (76800)
I0602 14:34:48.484525  1395 net.cpp:165] Memory required for data: 7933081824
I0602 14:34:48.484529  1395 layer_factory.hpp:77] Creating layer conv6_2_mbox_conf
I0602 14:34:48.484542  1395 net.cpp:100] Creating Layer conv6_2_mbox_conf
I0602 14:34:48.484549  1395 net.cpp:434] conv6_2_mbox_conf <- conv6_2_conv6_2_relu_0_split_2
I0602 14:34:48.484556  1395 net.cpp:408] conv6_2_mbox_conf -> conv6_2_mbox_conf
I0602 14:34:48.486634  1395 net.cpp:150] Setting up conv6_2_mbox_conf
I0602 14:34:48.486645  1395 net.cpp:157] Top shape: 32 24 10 10 (76800)
I0602 14:34:48.486649  1395 net.cpp:165] Memory required for data: 7933389024
I0602 14:34:48.486654  1395 layer_factory.hpp:77] Creating layer conv6_2_mbox_conf_perm
I0602 14:34:48.486663  1395 net.cpp:100] Creating Layer conv6_2_mbox_conf_perm
I0602 14:34:48.486668  1395 net.cpp:434] conv6_2_mbox_conf_perm <- conv6_2_mbox_conf
I0602 14:34:48.486678  1395 net.cpp:408] conv6_2_mbox_conf_perm -> conv6_2_mbox_conf_perm
I0602 14:34:48.486774  1395 net.cpp:150] Setting up conv6_2_mbox_conf_perm
I0602 14:34:48.486781  1395 net.cpp:157] Top shape: 32 10 10 24 (76800)
I0602 14:34:48.486784  1395 net.cpp:165] Memory required for data: 7933696224
I0602 14:34:48.486788  1395 layer_factory.hpp:77] Creating layer conv6_2_mbox_conf_flat
I0602 14:34:48.486794  1395 net.cpp:100] Creating Layer conv6_2_mbox_conf_flat
I0602 14:34:48.486800  1395 net.cpp:434] conv6_2_mbox_conf_flat <- conv6_2_mbox_conf_perm
I0602 14:34:48.486809  1395 net.cpp:408] conv6_2_mbox_conf_flat -> conv6_2_mbox_conf_flat
I0602 14:34:48.486837  1395 net.cpp:150] Setting up conv6_2_mbox_conf_flat
I0602 14:34:48.486843  1395 net.cpp:157] Top shape: 32 2400 (76800)
I0602 14:34:48.486845  1395 net.cpp:165] Memory required for data: 7934003424
I0602 14:34:48.486848  1395 layer_factory.hpp:77] Creating layer conv6_2_mbox_priorbox
I0602 14:34:48.486871  1395 net.cpp:100] Creating Layer conv6_2_mbox_priorbox
I0602 14:34:48.486876  1395 net.cpp:434] conv6_2_mbox_priorbox <- conv6_2_conv6_2_relu_0_split_3
I0602 14:34:48.486884  1395 net.cpp:434] conv6_2_mbox_priorbox <- data_data_0_split_3
I0602 14:34:48.486893  1395 net.cpp:408] conv6_2_mbox_priorbox -> conv6_2_mbox_priorbox
I0602 14:34:48.486924  1395 net.cpp:150] Setting up conv6_2_mbox_priorbox
I0602 14:34:48.486930  1395 net.cpp:157] Top shape: 1 2 2400 (4800)
I0602 14:34:48.486933  1395 net.cpp:165] Memory required for data: 7934022624
I0602 14:34:48.486937  1395 layer_factory.hpp:77] Creating layer conv7_2_mbox_loc
I0602 14:34:48.486948  1395 net.cpp:100] Creating Layer conv7_2_mbox_loc
I0602 14:34:48.486954  1395 net.cpp:434] conv7_2_mbox_loc <- conv7_2_conv7_2_relu_0_split_1
I0602 14:34:48.486964  1395 net.cpp:408] conv7_2_mbox_loc -> conv7_2_mbox_loc
I0602 14:34:48.488293  1395 net.cpp:150] Setting up conv7_2_mbox_loc
I0602 14:34:48.488306  1395 net.cpp:157] Top shape: 32 24 5 5 (19200)
I0602 14:34:48.488307  1395 net.cpp:165] Memory required for data: 7934099424
I0602 14:34:48.488314  1395 layer_factory.hpp:77] Creating layer conv7_2_mbox_loc_perm
I0602 14:34:48.488323  1395 net.cpp:100] Creating Layer conv7_2_mbox_loc_perm
I0602 14:34:48.488329  1395 net.cpp:434] conv7_2_mbox_loc_perm <- conv7_2_mbox_loc
I0602 14:34:48.488337  1395 net.cpp:408] conv7_2_mbox_loc_perm -> conv7_2_mbox_loc_perm
I0602 14:34:48.488433  1395 net.cpp:150] Setting up conv7_2_mbox_loc_perm
I0602 14:34:48.488440  1395 net.cpp:157] Top shape: 32 5 5 24 (19200)
I0602 14:34:48.488445  1395 net.cpp:165] Memory required for data: 7934176224
I0602 14:34:48.488447  1395 layer_factory.hpp:77] Creating layer conv7_2_mbox_loc_flat
I0602 14:34:48.488457  1395 net.cpp:100] Creating Layer conv7_2_mbox_loc_flat
I0602 14:34:48.488463  1395 net.cpp:434] conv7_2_mbox_loc_flat <- conv7_2_mbox_loc_perm
I0602 14:34:48.488471  1395 net.cpp:408] conv7_2_mbox_loc_flat -> conv7_2_mbox_loc_flat
I0602 14:34:48.488497  1395 net.cpp:150] Setting up conv7_2_mbox_loc_flat
I0602 14:34:48.488503  1395 net.cpp:157] Top shape: 32 600 (19200)
I0602 14:34:48.488505  1395 net.cpp:165] Memory required for data: 7934253024
I0602 14:34:48.488509  1395 layer_factory.hpp:77] Creating layer conv7_2_mbox_conf
I0602 14:34:48.488523  1395 net.cpp:100] Creating Layer conv7_2_mbox_conf
I0602 14:34:48.488528  1395 net.cpp:434] conv7_2_mbox_conf <- conv7_2_conv7_2_relu_0_split_2
I0602 14:34:48.488536  1395 net.cpp:408] conv7_2_mbox_conf -> conv7_2_mbox_conf
I0602 14:34:48.490330  1395 net.cpp:150] Setting up conv7_2_mbox_conf
I0602 14:34:48.490345  1395 net.cpp:157] Top shape: 32 24 5 5 (19200)
I0602 14:34:48.490347  1395 net.cpp:165] Memory required for data: 7934329824
I0602 14:34:48.490355  1395 layer_factory.hpp:77] Creating layer conv7_2_mbox_conf_perm
I0602 14:34:48.490363  1395 net.cpp:100] Creating Layer conv7_2_mbox_conf_perm
I0602 14:34:48.490368  1395 net.cpp:434] conv7_2_mbox_conf_perm <- conv7_2_mbox_conf
I0602 14:34:48.490376  1395 net.cpp:408] conv7_2_mbox_conf_perm -> conv7_2_mbox_conf_perm
I0602 14:34:48.490473  1395 net.cpp:150] Setting up conv7_2_mbox_conf_perm
I0602 14:34:48.490479  1395 net.cpp:157] Top shape: 32 5 5 24 (19200)
I0602 14:34:48.490483  1395 net.cpp:165] Memory required for data: 7934406624
I0602 14:34:48.490485  1395 layer_factory.hpp:77] Creating layer conv7_2_mbox_conf_flat
I0602 14:34:48.490492  1395 net.cpp:100] Creating Layer conv7_2_mbox_conf_flat
I0602 14:34:48.490497  1395 net.cpp:434] conv7_2_mbox_conf_flat <- conv7_2_mbox_conf_perm
I0602 14:34:48.490505  1395 net.cpp:408] conv7_2_mbox_conf_flat -> conv7_2_mbox_conf_flat
I0602 14:34:48.490532  1395 net.cpp:150] Setting up conv7_2_mbox_conf_flat
I0602 14:34:48.490540  1395 net.cpp:157] Top shape: 32 600 (19200)
I0602 14:34:48.490545  1395 net.cpp:165] Memory required for data: 7934483424
I0602 14:34:48.490550  1395 layer_factory.hpp:77] Creating layer conv7_2_mbox_priorbox
I0602 14:34:48.490557  1395 net.cpp:100] Creating Layer conv7_2_mbox_priorbox
I0602 14:34:48.490562  1395 net.cpp:434] conv7_2_mbox_priorbox <- conv7_2_conv7_2_relu_0_split_3
I0602 14:34:48.490581  1395 net.cpp:434] conv7_2_mbox_priorbox <- data_data_0_split_4
I0602 14:34:48.490589  1395 net.cpp:408] conv7_2_mbox_priorbox -> conv7_2_mbox_priorbox
I0602 14:34:48.490622  1395 net.cpp:150] Setting up conv7_2_mbox_priorbox
I0602 14:34:48.490628  1395 net.cpp:157] Top shape: 1 2 600 (1200)
I0602 14:34:48.490629  1395 net.cpp:165] Memory required for data: 7934488224
I0602 14:34:48.490634  1395 layer_factory.hpp:77] Creating layer conv8_2_mbox_loc
I0602 14:34:48.490646  1395 net.cpp:100] Creating Layer conv8_2_mbox_loc
I0602 14:34:48.490653  1395 net.cpp:434] conv8_2_mbox_loc <- conv8_2_conv8_2_relu_0_split_1
I0602 14:34:48.490659  1395 net.cpp:408] conv8_2_mbox_loc -> conv8_2_mbox_loc
I0602 14:34:48.492439  1395 net.cpp:150] Setting up conv8_2_mbox_loc
I0602 14:34:48.492450  1395 net.cpp:157] Top shape: 32 16 3 3 (4608)
I0602 14:34:48.492452  1395 net.cpp:165] Memory required for data: 7934506656
I0602 14:34:48.492482  1395 layer_factory.hpp:77] Creating layer conv8_2_mbox_loc_perm
I0602 14:34:48.492494  1395 net.cpp:100] Creating Layer conv8_2_mbox_loc_perm
I0602 14:34:48.492501  1395 net.cpp:434] conv8_2_mbox_loc_perm <- conv8_2_mbox_loc
I0602 14:34:48.492511  1395 net.cpp:408] conv8_2_mbox_loc_perm -> conv8_2_mbox_loc_perm
I0602 14:34:48.492609  1395 net.cpp:150] Setting up conv8_2_mbox_loc_perm
I0602 14:34:48.492615  1395 net.cpp:157] Top shape: 32 3 3 16 (4608)
I0602 14:34:48.492619  1395 net.cpp:165] Memory required for data: 7934525088
I0602 14:34:48.492621  1395 layer_factory.hpp:77] Creating layer conv8_2_mbox_loc_flat
I0602 14:34:48.492632  1395 net.cpp:100] Creating Layer conv8_2_mbox_loc_flat
I0602 14:34:48.492638  1395 net.cpp:434] conv8_2_mbox_loc_flat <- conv8_2_mbox_loc_perm
I0602 14:34:48.492645  1395 net.cpp:408] conv8_2_mbox_loc_flat -> conv8_2_mbox_loc_flat
I0602 14:34:48.492674  1395 net.cpp:150] Setting up conv8_2_mbox_loc_flat
I0602 14:34:48.492679  1395 net.cpp:157] Top shape: 32 144 (4608)
I0602 14:34:48.492682  1395 net.cpp:165] Memory required for data: 7934543520
I0602 14:34:48.492686  1395 layer_factory.hpp:77] Creating layer conv8_2_mbox_conf
I0602 14:34:48.492697  1395 net.cpp:100] Creating Layer conv8_2_mbox_conf
I0602 14:34:48.492703  1395 net.cpp:434] conv8_2_mbox_conf <- conv8_2_conv8_2_relu_0_split_2
I0602 14:34:48.492714  1395 net.cpp:408] conv8_2_mbox_conf -> conv8_2_mbox_conf
I0602 14:34:48.494385  1395 net.cpp:150] Setting up conv8_2_mbox_conf
I0602 14:34:48.494395  1395 net.cpp:157] Top shape: 32 16 3 3 (4608)
I0602 14:34:48.494398  1395 net.cpp:165] Memory required for data: 7934561952
I0602 14:34:48.494405  1395 layer_factory.hpp:77] Creating layer conv8_2_mbox_conf_perm
I0602 14:34:48.494415  1395 net.cpp:100] Creating Layer conv8_2_mbox_conf_perm
I0602 14:34:48.494421  1395 net.cpp:434] conv8_2_mbox_conf_perm <- conv8_2_mbox_conf
I0602 14:34:48.494431  1395 net.cpp:408] conv8_2_mbox_conf_perm -> conv8_2_mbox_conf_perm
I0602 14:34:48.494525  1395 net.cpp:150] Setting up conv8_2_mbox_conf_perm
I0602 14:34:48.494534  1395 net.cpp:157] Top shape: 32 3 3 16 (4608)
I0602 14:34:48.494536  1395 net.cpp:165] Memory required for data: 7934580384
I0602 14:34:48.494539  1395 layer_factory.hpp:77] Creating layer conv8_2_mbox_conf_flat
I0602 14:34:48.494546  1395 net.cpp:100] Creating Layer conv8_2_mbox_conf_flat
I0602 14:34:48.494552  1395 net.cpp:434] conv8_2_mbox_conf_flat <- conv8_2_mbox_conf_perm
I0602 14:34:48.494560  1395 net.cpp:408] conv8_2_mbox_conf_flat -> conv8_2_mbox_conf_flat
I0602 14:34:48.494587  1395 net.cpp:150] Setting up conv8_2_mbox_conf_flat
I0602 14:34:48.494593  1395 net.cpp:157] Top shape: 32 144 (4608)
I0602 14:34:48.494596  1395 net.cpp:165] Memory required for data: 7934598816
I0602 14:34:48.494599  1395 layer_factory.hpp:77] Creating layer conv8_2_mbox_priorbox
I0602 14:34:48.494608  1395 net.cpp:100] Creating Layer conv8_2_mbox_priorbox
I0602 14:34:48.494614  1395 net.cpp:434] conv8_2_mbox_priorbox <- conv8_2_conv8_2_relu_0_split_3
I0602 14:34:48.494621  1395 net.cpp:434] conv8_2_mbox_priorbox <- data_data_0_split_5
I0602 14:34:48.494642  1395 net.cpp:408] conv8_2_mbox_priorbox -> conv8_2_mbox_priorbox
I0602 14:34:48.494671  1395 net.cpp:150] Setting up conv8_2_mbox_priorbox
I0602 14:34:48.494678  1395 net.cpp:157] Top shape: 1 2 144 (288)
I0602 14:34:48.494683  1395 net.cpp:165] Memory required for data: 7934599968
I0602 14:34:48.494688  1395 layer_factory.hpp:77] Creating layer conv9_2_mbox_loc
I0602 14:34:48.494699  1395 net.cpp:100] Creating Layer conv9_2_mbox_loc
I0602 14:34:48.494705  1395 net.cpp:434] conv9_2_mbox_loc <- conv9_2_conv9_2_relu_0_split_0
I0602 14:34:48.494714  1395 net.cpp:408] conv9_2_mbox_loc -> conv9_2_mbox_loc
I0602 14:34:48.496397  1395 net.cpp:150] Setting up conv9_2_mbox_loc
I0602 14:34:48.496407  1395 net.cpp:157] Top shape: 32 16 1 1 (512)
I0602 14:34:48.496408  1395 net.cpp:165] Memory required for data: 7934602016
I0602 14:34:48.496413  1395 layer_factory.hpp:77] Creating layer conv9_2_mbox_loc_perm
I0602 14:34:48.496423  1395 net.cpp:100] Creating Layer conv9_2_mbox_loc_perm
I0602 14:34:48.496428  1395 net.cpp:434] conv9_2_mbox_loc_perm <- conv9_2_mbox_loc
I0602 14:34:48.496438  1395 net.cpp:408] conv9_2_mbox_loc_perm -> conv9_2_mbox_loc_perm
I0602 14:34:48.496533  1395 net.cpp:150] Setting up conv9_2_mbox_loc_perm
I0602 14:34:48.496541  1395 net.cpp:157] Top shape: 32 1 1 16 (512)
I0602 14:34:48.496558  1395 net.cpp:165] Memory required for data: 7934604064
I0602 14:34:48.496562  1395 layer_factory.hpp:77] Creating layer conv9_2_mbox_loc_flat
I0602 14:34:48.496568  1395 net.cpp:100] Creating Layer conv9_2_mbox_loc_flat
I0602 14:34:48.496573  1395 net.cpp:434] conv9_2_mbox_loc_flat <- conv9_2_mbox_loc_perm
I0602 14:34:48.496580  1395 net.cpp:408] conv9_2_mbox_loc_flat -> conv9_2_mbox_loc_flat
I0602 14:34:48.496621  1395 net.cpp:150] Setting up conv9_2_mbox_loc_flat
I0602 14:34:48.496628  1395 net.cpp:157] Top shape: 32 16 (512)
I0602 14:34:48.496629  1395 net.cpp:165] Memory required for data: 7934606112
I0602 14:34:48.496634  1395 layer_factory.hpp:77] Creating layer conv9_2_mbox_conf
I0602 14:34:48.496646  1395 net.cpp:100] Creating Layer conv9_2_mbox_conf
I0602 14:34:48.496652  1395 net.cpp:434] conv9_2_mbox_conf <- conv9_2_conv9_2_relu_0_split_1
I0602 14:34:48.496659  1395 net.cpp:408] conv9_2_mbox_conf -> conv9_2_mbox_conf
I0602 14:34:48.498765  1395 net.cpp:150] Setting up conv9_2_mbox_conf
I0602 14:34:48.498780  1395 net.cpp:157] Top shape: 32 16 1 1 (512)
I0602 14:34:48.498781  1395 net.cpp:165] Memory required for data: 7934608160
I0602 14:34:48.498787  1395 layer_factory.hpp:77] Creating layer conv9_2_mbox_conf_perm
I0602 14:34:48.498796  1395 net.cpp:100] Creating Layer conv9_2_mbox_conf_perm
I0602 14:34:48.498802  1395 net.cpp:434] conv9_2_mbox_conf_perm <- conv9_2_mbox_conf
I0602 14:34:48.498811  1395 net.cpp:408] conv9_2_mbox_conf_perm -> conv9_2_mbox_conf_perm
I0602 14:34:48.498909  1395 net.cpp:150] Setting up conv9_2_mbox_conf_perm
I0602 14:34:48.498916  1395 net.cpp:157] Top shape: 32 1 1 16 (512)
I0602 14:34:48.498919  1395 net.cpp:165] Memory required for data: 7934610208
I0602 14:34:48.498920  1395 layer_factory.hpp:77] Creating layer conv9_2_mbox_conf_flat
I0602 14:34:48.498927  1395 net.cpp:100] Creating Layer conv9_2_mbox_conf_flat
I0602 14:34:48.498932  1395 net.cpp:434] conv9_2_mbox_conf_flat <- conv9_2_mbox_conf_perm
I0602 14:34:48.498940  1395 net.cpp:408] conv9_2_mbox_conf_flat -> conv9_2_mbox_conf_flat
I0602 14:34:48.498967  1395 net.cpp:150] Setting up conv9_2_mbox_conf_flat
I0602 14:34:48.498973  1395 net.cpp:157] Top shape: 32 16 (512)
I0602 14:34:48.498976  1395 net.cpp:165] Memory required for data: 7934612256
I0602 14:34:48.498980  1395 layer_factory.hpp:77] Creating layer conv9_2_mbox_priorbox
I0602 14:34:48.498987  1395 net.cpp:100] Creating Layer conv9_2_mbox_priorbox
I0602 14:34:48.498993  1395 net.cpp:434] conv9_2_mbox_priorbox <- conv9_2_conv9_2_relu_0_split_2
I0602 14:34:48.499001  1395 net.cpp:434] conv9_2_mbox_priorbox <- data_data_0_split_6
I0602 14:34:48.499009  1395 net.cpp:408] conv9_2_mbox_priorbox -> conv9_2_mbox_priorbox
I0602 14:34:48.499052  1395 net.cpp:150] Setting up conv9_2_mbox_priorbox
I0602 14:34:48.499058  1395 net.cpp:157] Top shape: 1 2 16 (32)
I0602 14:34:48.499061  1395 net.cpp:165] Memory required for data: 7934612384
I0602 14:34:48.499065  1395 layer_factory.hpp:77] Creating layer mbox_loc
I0602 14:34:48.499074  1395 net.cpp:100] Creating Layer mbox_loc
I0602 14:34:48.499081  1395 net.cpp:434] mbox_loc <- conv4_3_norm_mbox_loc_flat
I0602 14:34:48.499089  1395 net.cpp:434] mbox_loc <- fc7_mbox_loc_flat
I0602 14:34:48.499095  1395 net.cpp:434] mbox_loc <- conv6_2_mbox_loc_flat
I0602 14:34:48.499101  1395 net.cpp:434] mbox_loc <- conv7_2_mbox_loc_flat
I0602 14:34:48.499106  1395 net.cpp:434] mbox_loc <- conv8_2_mbox_loc_flat
I0602 14:34:48.499114  1395 net.cpp:434] mbox_loc <- conv9_2_mbox_loc_flat
I0602 14:34:48.499121  1395 net.cpp:408] mbox_loc -> mbox_loc
I0602 14:34:48.499151  1395 net.cpp:150] Setting up mbox_loc
I0602 14:34:48.499157  1395 net.cpp:157] Top shape: 32 34928 (1117696)
I0602 14:34:48.499161  1395 net.cpp:165] Memory required for data: 7939083168
I0602 14:34:48.499166  1395 layer_factory.hpp:77] Creating layer mbox_conf
I0602 14:34:48.499172  1395 net.cpp:100] Creating Layer mbox_conf
I0602 14:34:48.499177  1395 net.cpp:434] mbox_conf <- conv4_3_norm_mbox_conf_flat
I0602 14:34:48.499184  1395 net.cpp:434] mbox_conf <- fc7_mbox_conf_flat
I0602 14:34:48.499191  1395 net.cpp:434] mbox_conf <- conv6_2_mbox_conf_flat
I0602 14:34:48.499197  1395 net.cpp:434] mbox_conf <- conv7_2_mbox_conf_flat
I0602 14:34:48.499202  1395 net.cpp:434] mbox_conf <- conv8_2_mbox_conf_flat
I0602 14:34:48.499208  1395 net.cpp:434] mbox_conf <- conv9_2_mbox_conf_flat
I0602 14:34:48.499215  1395 net.cpp:408] mbox_conf -> mbox_conf
I0602 14:34:48.499243  1395 net.cpp:150] Setting up mbox_conf
I0602 14:34:48.499248  1395 net.cpp:157] Top shape: 32 34928 (1117696)
I0602 14:34:48.499251  1395 net.cpp:165] Memory required for data: 7943553952
I0602 14:34:48.499254  1395 layer_factory.hpp:77] Creating layer mbox_priorbox
I0602 14:34:48.499261  1395 net.cpp:100] Creating Layer mbox_priorbox
I0602 14:34:48.499266  1395 net.cpp:434] mbox_priorbox <- conv4_3_norm_mbox_priorbox
I0602 14:34:48.499272  1395 net.cpp:434] mbox_priorbox <- fc7_mbox_priorbox
I0602 14:34:48.499279  1395 net.cpp:434] mbox_priorbox <- conv6_2_mbox_priorbox
I0602 14:34:48.499284  1395 net.cpp:434] mbox_priorbox <- conv7_2_mbox_priorbox
I0602 14:34:48.499290  1395 net.cpp:434] mbox_priorbox <- conv8_2_mbox_priorbox
I0602 14:34:48.499294  1395 net.cpp:434] mbox_priorbox <- conv9_2_mbox_priorbox
I0602 14:34:48.499302  1395 net.cpp:408] mbox_priorbox -> mbox_priorbox
I0602 14:34:48.499330  1395 net.cpp:150] Setting up mbox_priorbox
I0602 14:34:48.499335  1395 net.cpp:157] Top shape: 1 2 34928 (69856)
I0602 14:34:48.499336  1395 net.cpp:165] Memory required for data: 7943833376
I0602 14:34:48.499341  1395 layer_factory.hpp:77] Creating layer mbox_loss
I0602 14:34:48.499351  1395 net.cpp:100] Creating Layer mbox_loss
I0602 14:34:48.499356  1395 net.cpp:434] mbox_loss <- mbox_loc
I0602 14:34:48.499361  1395 net.cpp:434] mbox_loss <- mbox_conf
I0602 14:34:48.499367  1395 net.cpp:434] mbox_loss <- mbox_priorbox
…
  name: "data"
  type: "AnnotatedData"
  top: "data"
  top: "label"
  include {
    phase: TEST
  }
  transform_param {
    mean_value: 104
    mean_value: 117
    mean_value: 123
    resize_param {
      prob: 1
      resize_mode: WARP
      height: 300
      width: 300
      interp_mode: LINEAR
    }
  }
  data_param {
    source: "examples/tbs_300x300_HSIL_10x/tbs_300x300_HSIL_10x_test_lmdb"
    batch_size: 4
    backend: LMDB
  }
  annotated_data_param {
    batch_sampler {
    }
    label_map_file: "data/tbs_300x300_HSIL_10x/labelmap_voc.prototxt"
  }
}
layer {
  name: "conv1_1"
  type: "Convolution"
  bottom: "data"
  top: "conv1_1"
  param {
    lr_mult: 1
    decay_mult: 1
  }
  param {
    lr_mult: 2
    decay_mult: 0
  }
  convolution_param {
    num_output: 64
    pad: 1
    kernel_size: 3
    weight_filler {
      type: "xavier"
    }
    bias_filler {
      type: "constant"
      value: 0
    }
  }
}
layer {
  name: "relu1_1"
  type: "ReLU"
  bottom: "conv1_1"
  top: "conv1_1"
}
layer {
  name: "conv1_2"
  type: "Convolution"
  bottom: "conv1_1"
  top: "conv1_2"
  param {
    lr_mult: 1
    decay_mult: 1
  }
  param {
    lr_mult: 2
    decay_mult: 0
  }
  convolution_param {
    num_output: 64
    pad: 1
    kernel_size: 3
    weight_filler {
      type: "xavier"
    }
    bias_filler {
      type: "constant"
      value: 0
    }
  }
}
layer {
  name: "relu1_2"
  type: "ReLU"
  bottom: "conv1_2"
  top: "conv1_2"
}
layer {
  name: "pool1"
  type: "Pooling"
  bottom: "conv1_2"
  top: "pool1"
  pooling_param {
    pool: MAX
    kernel_size: 2
    stride: 2
  }
}
layer {
  name: "conv2_1"
  type: "Convolution"
  bottom: "pool1"
  top: "conv2_1"
  param {
    lr_mult: 1
    decay_mult: 1
  }
  param {
    lr_mult: 2
    decay_mult: 0
  }
  convolution_param {
    num_output: 128
    pad: 1
    kernel_size: 3
    weight_filler {
      type: "xavier"
    }
    bias_filler {
      type: "constant"
      value: 0
    }
  }
}
layer {
  name: "relu2_1"
  type: "ReLU"
  bottom: "conv2_1"
  top: "conv2_1"
}
layer {
  name: "conv2_2"
  type: "Convolution"
  bottom: "conv2_1"
  top: "conv2_2"
  param {
    lr_mult: 1
    decay_mult: 1
  }
  param {
    lr_mult: 2
    decay_mult: 0
  }
  convolution_param {
    num_output: 128
    pad: 1
    kernel_size: 3
    weight_filler {
      type: "xavier"
    }
    bias_filler {
      type: "constant"
      value: 0
    }
  }
}
layer {
  name: "relu2_2"
  type: "ReLU"
  bottom: "conv2_2"
  top: "conv2_2"
}
layer {
  name: "pool2"
  type: "Pooling"
  bottom: "conv2_2"
  top: "pool2"
  pooling_param {
    pool: MAX
    kernel_size: 2
    stride: 2
  }
}
layer {
  name: "conv3_1"
  type: "Convolution"
  bottom: "pool2"
  top: "conv3_1"
  param {
    lr_mult: 1
    decay_mult: 1
  }
  param {
    lr_mult: 2
    decay_mult: 0
  }
  convolution_param {
    num_output: 256
    pad: 1
    kernel_size: 3
    weight_filler {
      type: "xavier"
    }
    bias_filler {
      type: "constant"
      value: 0
    }
  }
}
layer {
  name: "relu3_1"
  type: "ReLU"
  bottom: "conv3_1"
  top: "conv3_1"
}
layer {
  name: "conv3_2"
  type: "Convolution"
  bottom: "conv3_1"
  top: "conv3_2"
  param {
    lr_mult: 1
    decay_mult: 1
  }
  param {
    lr_mult: 2
    decay_mult: 0
  }
  convolution_param {
    num_output: 256
    pad: 1
    kernel_size: 3
    weight_filler {
      type: "xavier"
    }
    bias_filler {
      type: "constant"
      value: 0
    }
  }
}
layer {
  name: "relu3_2"
  type: "ReLU"
  bottom: "conv3_2"
  top: "conv3_2"
}
layer {
  name: "conv3_3"
  type: "Convolution"
  bottom: "conv3_2"
  top: "conv3_3"
  param {
    lr_mult: 1
    decay_mult: 1
  }
  param {
    lr_mult: 2
    decay_mult: 0
  }
  convolution_param {
    num_output: 256
    pad: 1
    kernel_size: 3
    weight_filler {
      type: "xavier"
    }
    bias_filler {
      type: "constant"
      value: 0
    }
  }
}
layer {
  name: "relu3_3"
  type: "ReLU"
  bottom: "conv3_3"
  top: "conv3_3"
}
layer {
  name: "pool3"
  type: "Pooling"
  bottom: "conv3_3"
  top: "pool3"
  pooling_param {
    pool: MAX
    kernel_size: 2
    stride: 2
  }
}
layer {
  name: "conv4_1"
  type: "Convolution"
  bottom: "pool3"
  top: "conv4_1"
  param {
    lr_mult: 1
    decay_mult: 1
  }
  param {
    lr_mult: 2
    decay_mult: 0
  }
  convolution_param {
    num_output: 512
    pad: 1
    kernel_size: 3
    weight_filler {
      type: "xavier"
    }
    bias_filler {
      type: "constant"
      value: 0
    }
  }
}
layer {
  name: "relu4_1"
  type: "ReLU"
  bottom: "conv4_1"
  top: "conv4_1"
}
layer {
  name: "conv4_2"
  type: "Convolution"
  bottom: "conv4_1"
  top: "conv4_2"
  param {
    lr_mult: 1
    decay_mult: 1
  }
  param {
    lr_mult: 2
    decay_mult: 0
  }
  convolution_param {
    num_output: 512
    pad: 1
    kernel_size: 3
    weight_filler {
      type: "xavier"
    }
    bias_filler {
      type: "constant"
      value: 0
    }
  }
}
layer {
  name: "relu4_2"
  type: "ReLU"
  bottom: "conv4_2"
  top: "conv4_2"
}
layer {
  name: "conv4_3"
  type: "Convolution"
  bottom: "conv4_2"
  top: "conv4_3"
  param {
    lr_mult: 1
    decay_mult: 1
  }
  param {
    lr_mult: 2
    decay_mult: 0
  }
  convolution_param {
    num_output: 512
    pad: 1
    kernel_size: 3
    weight_filler {
      type: "xavier"
    }
    bias_filler {
      type: "constant"
      value: 0
    }
  }
}
layer {
  name: "relu4_3"
  type: "ReLU"
  bottom: "conv4_3"
  top: "conv4_3"
}
layer {
  name: "pool4"
  type: "Pooling"
  bottom: "conv4_3"
  top: "pool4"
  pooling_param {
    pool: MAX
    kernel_size: 2
    stride: 2
  }
}
layer {
  name: "conv5_1"
  type: "Convolution"
  bottom: "pool4"
  top: "conv5_1"
  param {
    lr_mult: 1
    decay_mult: 1
  }
  param {
    lr_mult: 2
    decay_mult: 0
  }
  convolution_param {
    num_output: 512
    pad: 1
    kernel_size: 3
    weight_filler {
      type: "xavier"
    }
    bias_filler {
      type: "constant"
      value: 0
    }
    dilation: 1
  }
}
layer {
  name: "relu5_1"
  type: "ReLU"
  bottom: "conv5_1"
  top: "conv5_1"
}
layer {
  name: "conv5_2"
  type: "Convolution"
  bottom: "conv5_1"
  top: "conv5_2"
  param {
    lr_mult: 1
    decay_mult: 1
  }
  param {
    lr_mult: 2
    decay_mult: 0
  }
  convolution_param {
    num_output: 512
    pad: 1
    kernel_size: 3
    weight_filler {
      type: "xavier"
    }
    bias_filler {
      type: "constant"
      value: 0
    }
    dilation: 1
  }
}
layer {
  name: "relu5_2"
  type: "ReLU"
  bottom: "conv5_2"
  top: "conv5_2"
}
layer {
  name: "conv5_3"
  type: "Convolution"
  bottom: "conv5_2"
  top: "conv5_3"
  param {
    lr_mult: 1
    decay_mult: 1
  }
  param {
    lr_mult: 2
    decay_mult: 0
  }
  convolution_param {
    num_output: 512
    pad: 1
    kernel_size: 3
    weight_filler {
      type: "xavier"
    }
    bias_filler {
      type: "constant"
      value: 0
    }
    dilation: 1
  }
}
layer {
  name: "relu5_3"
  type: "ReLU"
  bottom: "conv5_3"
  top: "conv5_3"
}
layer {
  name: "pool5"
  type: "Pooling"
  bottom: "conv5_3"
  top: "pool5"
  pooling_param {
    pool: MAX
    kernel_size: 3
    stride: 1
    pad: 1
  }
}
layer {
  name: "fc6"
  type: "Convolution"
  bottom: "pool5"
  top: "fc6"
  param {
    lr_mult: 1
    decay_mult: 1
  }
  param {
    lr_mult: 2
    decay_mult: 0
  }
  convolution_param {
    num_output: 1024
    pad: 6
    kernel_size: 3
    weight_filler {
      type: "xavier"
    }
    bias_filler {
      type: "constant"
      value: 0
    }
    dilation: 6
  }
}
layer {
  name: "relu6"
  type: "ReLU"
  bottom: "fc6"
  top: "fc6"
}
layer {
  name: "fc7"
  type: "Convolution"
  bottom: "fc6"
  top: "fc7"
  param {
    lr_mult: 1
    decay_mult: 1
  }
  param {
    lr_mult: 2
    decay_mult: 0
  }
  convolution_param {
    num_output: 1024
    kernel_size: 1
    weight_filler {
      type: "xavier"
    }
    bias_filler {
      type: "constant"
      value: 0
    }
  }
}
layer {
  name: "relu7"
  type: "ReLU"
  bottom: "fc7"
  top: "fc7"
}
layer {
  name: "conv6_1"
  type: "Convolution"
  bottom: "fc7"
  top: "conv6_1"
  param {
    lr_mult: 1
    decay_mult: 1
  }
  param {
    lr_mult: 2
    decay_mult: 0
  }
  convolution_param {
    num_output: 256
    pad: 0
    kernel_size: 1
    stride: 1
    weight_filler {
      type: "xavier"
    }
    bias_filler {
      type: "constant"
      value: 0
    }
  }
}
layer {
  name: "conv6_1_relu"
  type: "ReLU"
  bottom: "conv6_1"
  top: "conv6_1"
}
layer {
  name: "conv6_2"
  type: "Convolution"
  bottom: "conv6_1"
  top: "conv6_2"
  param {
    lr_mult: 1
    decay_mult: 1
  }
  param {
    lr_mult: 2
    decay_mult: 0
  }
  convolution_param {
    num_output: 512
    pad: 1
    kernel_size: 3
    stride: 2
    weight_filler {
      type: "xavier"
    }
    bias_filler {
      type: "constant"
      value: 0
    }
  }
}
layer {
  name: "conv6_2_relu"
  type: "ReLU"
  bottom: "conv6_2"
  top: "conv6_2"
}
layer {
  name: "conv7_1"
  type: "Convolution"
  bottom: "conv6_2"
  top: "conv7_1"
  param {
    lr_mult: 1
    decay_mult: 1
  }
  param {
    lr_mult: 2
    decay_mult: 0
  }
  convolution_param {
    num_output: 128
    pad: 0
    kernel_size: 1
    stride: 1
    weight_filler {
      type: "xavier"
    }
    bias_filler {
      type: "constant"
      value: 0
    }
  }
}
layer {
  name: "conv7_1_relu"
  type: "ReLU"
  bottom: "conv7_1"
  top: "conv7_1"
}
layer {
  name: "conv7_2"
  type: "Convolution"
  bottom: "conv7_1"
  top: "conv7_2"
  param {
    lr_mult: 1
    decay_mult: 1
  }
  param {
    lr_mult: 2
    decay_mult: 0
  }
  convolution_param {
    num_output: 256
    pad: 1
    kernel_size: 3
    stride: 2
    weight_filler {
      type: "xavier"
    }
    bias_filler {
      type: "constant"
      value: 0
    }
  }
}
layer {
  name: "conv7_2_relu"
  type: "ReLU"
  bottom: "conv7_2"
  top: "conv7_2"
}
layer {
  name: "conv8_1"
  type: "Convolution"
  bottom: "conv7_2"
  top: "conv8_1"
  param {
    lr_mult: 1
    decay_mult: 1
  }
  param {
    lr_mult: 2
    decay_mult: 0
  }
  convolution_param {
    num_output: 128
    pad: 0
    kernel_size: 1
    stride: 1
    weight_filler {
      type: "xavier"
    }
    bias_filler {
      type: "constant"
      value: 0
    }
  }
}
layer {
  name: "conv8_1_relu"
  type: "ReLU"
  bottom: "conv8_1"
  top: "conv8_1"
}
layer {
  name: "conv8_2"
  type: "Convolution"
  bottom: "conv8_1"
  top: "conv8_2"
  param {
    lr_mult: 1
    decay_mult: 1
  }
  param {
    lr_mult: 2
    decay_mult: 0
  }
  convolution_param {
    num_output: 256
    pad: 0
    kernel_size: 3
    stride: 1
    weight_filler {
      type: "xavier"
    }
    bias_filler {
      type: "constant"
      value: 0
    }
  }
}
layer {
  name: "conv8_2_relu"
  type: "ReLU"
  bottom: "conv8_2"
  top: "conv8_2"
}
layer {
  name: "conv9_1"
  type: "Convolution"
  bottom: "conv8_2"
  top: "conv9_1"
  param {
    lr_mult: 1
    decay_mult: 1
  }
  param {
    lr_mult: 2
    decay_mult: 0
  }
  convolution_param {
    num_output: 128
    pad: 0
    kernel_size: 1
    stride: 1
    weight_filler {
      type: "xavier"
    }
    bias_filler {
      type: "constant"
      value: 0
    }
  }
}
layer {
  name: "conv9_1_relu"
  type: "ReLU"
  bottom: "conv9_1"
  top: "conv9_1"
}
layer {
  name: "conv9_2"
  type: "Convolution"
  bottom: "conv9_1"
  top: "conv9_2"
  param {
    lr_mult: 1
    decay_mult: 1
  }
  param {
    lr_mult: 2
    decay_mult: 0
  }
  convolution_param {
    num_output: 256
    pad: 0
    kernel_size: 3
    stride: 1
    weight_filler {
      type: "xavier"
    }
    bias_filler {
      type: "constant"
      value: 0
    }
  }
}
layer {
  name: "conv9_2_relu"
  type: "ReLU"
  bottom: "conv9_2"
  top: "conv9_2"
}
layer {
  name: "conv4_3_norm"
  type: "Normalize"
  bottom: "conv4_3"
  top: "conv4_3_norm"
  norm_param {
    across_spatial: false
    scale_filler {
      type: "constant"
      value: 20
    }
    channel_shared: false
  }
}
layer {
  name: "conv4_3_norm_mbox_loc"
  type: "Convolution"
  bottom: "conv4_3_norm"
  top: "conv4_3_norm_mbox_loc"
  param {
    lr_mult: 1
    decay_mult: 1
  }
  param {
    lr_mult: 2
    decay_mult: 0
  }
  convolution_param {
    num_output: 16
    pad: 1
    kernel_size: 3
    stride: 1
    weight_filler {
      type: "xavier"
    }
    bias_filler {
      type: "constant"
      value: 0
    }
  }
}
layer {
  name: "conv4_3_norm_mbox_loc_perm"
  type: "Permute"
  bottom: "conv4_3_norm_mbox_loc"
  top: "conv4_3_norm_mbox_loc_perm"
  permute_param {
    order: 0
    order: 2
    order: 3
    order: 1
  }
}
layer {
  name: "conv4_3_norm_mbox_loc_flat"
  type: "Flatten"
  bottom: "conv4_3_norm_mbox_loc_perm"
  top: "conv4_3_norm_mbox_loc_flat"
  flatten_param {
    axis: 1
  }
}
layer {
  name: "conv4_3_norm_mbox_conf"
  type: "Convolution"
  bottom: "conv4_3_norm"
  top: "conv4_3_norm_mbox_conf"
  param {
    lr_mult: 1
    decay_mult: 1
  }
  param {
    lr_mult: 2
    decay_mult: 0
  }
  convolution_param {
    num_output: 16
    pad: 1
    kernel_size: 3
    stride: 1
    weight_filler {
      type: "xavier"
    }
    bias_filler {
      type: "constant"
      value: 0
    }
  }
}
layer {
  name: "conv4_3_norm_mbox_conf_perm"
  type: "Permute"
  bottom: "conv4_3_norm_mbox_conf"
  top: "conv4_3_norm_mbox_conf_perm"
  permute_param {
    order: 0
    order: 2
    order: 3
    order: 1
  }
}
layer {
  name: "conv4_3_norm_mbox_conf_flat"
  type: "Flatten"
  bottom: "conv4_3_norm_mbox_conf_perm"
  top: "conv4_3_norm_mbox_conf_flat"
  flatten_param {
    axis: 1
  }
}
layer {
  name: "conv4_3_norm_mbox_priorbox"
  type: "PriorBox"
  bottom: "conv4_3_norm"
  bottom: "data"
  top: "conv4_3_norm_mbox_priorbox"
  prior_box_param {
    min_size: 30
    max_size: 60
    aspect_ratio: 2
    flip: true
    clip: false
    variance: 0.1
    variance: 0.1
    variance: 0.2
    variance: 0.2
    step: 8
    offset: 0.5
  }
}
layer {
  name: "fc7_mbox_loc"
  type: "Convolution"
  bottom: "fc7"
  top: "fc7_mbox_loc"
  param {
    lr_mult: 1
    decay_mult: 1
  }
  param {
    lr_mult: 2
    decay_mult: 0
  }
  convolution_param {
    num_output: 24
    pad: 1
    kernel_size: 3
    stride: 1
    weight_filler {
      type: "xavier"
    }
    bias_filler {
      type: "constant"
      value: 0
    }
  }
}
layer {
  name: "fc7_mbox_loc_perm"
  type: "Permute"
  bottom: "fc7_mbox_loc"
  top: "fc7_mbox_loc_perm"
  permute_param {
    order: 0
    order: 2
    order: 3
    order: 1
  }
}
layer {
  name: "fc7_mbox_loc_flat"
  type: "Flatten"
  bottom: "fc7_mbox_loc_perm"
  top: "fc7_mbox_loc_flat"
  flatten_param {
    axis: 1
  }
}
layer {
  name: "fc7_mbox_conf"
  type: "Convolution"
  bottom: "fc7"
  top: "fc7_mbox_conf"
  param {
    lr_mult: 1
    decay_mult: 1
  }
  param {
    lr_mult: 2
    decay_mult: 0
  }
  convolution_param {
    num_output: 24
    pad: 1
    kernel_size: 3
    stride: 1
    weight_filler {
      type: "xavier"
    }
    bias_filler {
      type: "constant"
      value: 0
    }
  }
}
layer {
  name: "fc7_mbox_conf_perm"
  type: "Permute"
  bottom: "fc7_mbox_conf"
  top: "fc7_mbox_conf_perm"
  permute_param {
    order: 0
    order: 2
    order: 3
    order: 1
  }
}
layer {
  name: "fc7_mbox_conf_flat"
  type: "Flatten"
  bottom: "fc7_mbox_conf_perm"
  top: "fc7_mbox_conf_flat"
  flatten_param {
    axis: 1
  }
}
layer {
  name: "fc7_mbox_priorbox"
  type: "PriorBox"
  bottom: "fc7"
  bottom: "data"
  top: "fc7_mbox_priorbox"
  prior_box_param {
    min_size: 60
    max_size: 111
    aspect_ratio: 2
    aspect_ratio: 3
    flip: true
    clip: false
    variance: 0.1
    variance: 0.1
    variance: 0.2
    variance: 0.2
    step: 16
    offset: 0.5
  }
}
layer {
  name: "conv6_2_mbox_loc"
  type: "Convolution"
  bottom: "conv6_2"
  top: "conv6_2_mbox_loc"
  param {
    lr_mult: 1
    decay_mult: 1
  }
  param {
    lr_mult: 2
    decay_mult: 0
  }
  convolution_param {
    num_output: 24
    pad: 1
    kernel_size: 3
    stride: 1
    weight_filler {
      type: "xavier"
    }
    bias_filler {
      type: "constant"
      value: 0
    }
  }
}
layer {
  name: "conv6_2_mbox_loc_perm"
  type: "Permute"
  bottom: "conv6_2_mbox_loc"
  top: "conv6_2_mbox_loc_perm"
  permute_param {
    order: 0
    order: 2
    order: 3
    order: 1
  }
}
layer {
  name: "conv6_2_mbox_loc_flat"
  type: "Flatten"
  bottom: "conv6_2_mbox_loc_perm"
  top: "conv6_2_mbox_loc_flat"
  flatten_param {
    axis: 1
  }
}
layer {
  name: "conv6_2_mbox_conf"
  type: "Convolution"
  bottom: "conv6_2"
  top: "conv6_2_mbox_conf"
  param {
    lr_mult: 1
    decay_mult: 1
  }
  param {
    lr_mult: 2
    decay_mult: 0
  }
  convolution_param {
    num_output: 24
    pad: 1
    kernel_size: 3
    stride: 1
    weight_filler {
      type: "xavier"
    }
    bias_filler {
      type: "constant"
      value: 0
    }
  }
}
layer {
  name: "conv6_2_mbox_conf_perm"
  type: "Permute"
  bottom: "conv6_2_mbox_conf"
  top: "conv6_2_mbox_conf_perm"
  permute_param {
    order: 0
    order: 2
    order: 3
    order: 1
  }
}
layer {
  name: "conv6_2_mbox_conf_flat"
  type: "Flatten"
  bottom: "conv6_2_mbox_conf_perm"
  top: "conv6_2_mbox_conf_flat"
  flatten_param {
    axis: 1
  }
}
layer {
  name: "conv6_2_mbox_priorbox"
  type: "PriorBox"
  bottom: "conv6_2"
  bottom: "data"
  top: "conv6_2_mbox_priorbox"
  prior_box_param {
    min_size: 111
    max_size: 162
    aspect_ratio: 2
    aspect_ratio: 3
    flip: true
    clip: false
    variance: 0.1
    variance: 0.1
    variance: 0.2
    variance: 0.2
    step: 32
    offset: 0.5
  }
}
layer {
  name: "conv7_2_mbox_loc"
  type: "Convolution"
  bottom: "conv7_2"
  top: "conv7_2_mbox_loc"
  param {
    lr_mult: 1
    decay_mult: 1
  }
  param {
    lr_mult: 2
    decay_mult: 0
  }
  convolution_param {
    num_output: 24
    pad: 1
    kernel_size: 3
    stride: 1
    weight_filler {
      type: "xavier"
    }
    bias_filler {
      type: "constant"
      value: 0
    }
  }
}
layer {
  name: "conv7_2_mbox_loc_perm"
  type: "Permute"
  bottom: "conv7_2_mbox_loc"
  top: "conv7_2_mbox_loc_perm"
  permute_param {
    order: 0
    order: 2
    order: 3
    order: 1
  }
}
layer {
  name: "conv7_2_mbox_loc_flat"
  type: "Flatten"
  bottom: "conv7_2_mbox_loc_perm"
  top: "conv7_2_mbox_loc_flat"
  flatten_param {
    axis: 1
  }
}
layer {
  name: "conv7_2_mbox_conf"
  type: "Convolution"
  bottom: "conv7_2"
  top: "conv7_2_mbox_conf"
  param {
    lr_mult: 1
    decay_mult: 1
  }
  param {
    lr_mult: 2
    decay_mult: 0
  }
  convolution_param {
    num_output: 24
    pad: 1
    kernel_size: 3
    stride: 1
    weight_filler {
      type: "xavier"
    }
    bias_filler {
      type: "constant"
      value: 0
    }
  }
}
layer {
  name: "conv7_2_mbox_conf_perm"
  type: "Permute"
  bottom: "conv7_2_mbox_conf"
  top: "conv7_2_mbox_conf_perm"
  permute_param {
    order: 0
    order: 2
    order: 3
    order: 1
  }
}
layer {
  name: "conv7_2_mbox_conf_flat"
  type: "Flatten"
  bottom: "conv7_2_mbox_conf_perm"
  top: "conv7_2_mbox_conf_flat"
  flatten_param {
    axis: 1
  }
}
layer {
  name: "conv7_2_mbox_priorbox"
  type: "PriorBox"
  bottom: "conv7_2"
  bottom: "data"
  top: "conv7_2_mbox_priorbox"
  prior_box_param {
    min_size: 162
    max_size: 213
    aspect_ratio: 2
    aspect_ratio: 3
    flip: true
    clip: false
    variance: 0.1
    variance: 0.1
    variance: 0.2
    variance: 0.2
    step: 64
    offset: 0.5
  }
}
layer {
  name: "conv8_2_mbox_loc"
  type: "Convolution"
  bottom: "conv8_2"
  top: "conv8_2_mbox_loc"
  param {
    lr_mult: 1
    decay_mult: 1
  }
  param {
    lr_mult: 2
    decay_mult: 0
  }
  convolution_param {
    num_output: 16
    pad: 1
    kernel_size: 3
    stride: 1
    weight_filler {
      type: "xavier"
    }
    bias_filler {
      type: "constant"
      value: 0
    }
  }
}
layer {
  name: "conv8_2_mbox_loc_perm"
  type: "Permute"
  bottom: "conv8_2_mbox_loc"
  top: "conv8_2_mbox_loc_perm"
  permute_param {
    order: 0
    order: 2
    order: 3
    order: 1
  }
}
layer {
  name: "conv8_2_mbox_loc_flat"
  type: "Flatten"
  bottom: "conv8_2_mbox_loc_perm"
  top: "conv8_2_mbox_loc_flat"
  flatten_param {
    axis: 1
  }
}
layer {
  name: "conv8_2_mbox_conf"
  type: "Convolution"
  bottom: "conv8_2"
  top: "conv8_2_mbox_conf"
  param {
    lr_mult: 1
    decay_mult: 1
  }
  param {
    lr_mult: 2
    decay_mult: 0
  }
  convolution_param {
    num_output: 16
    pad: 1
    kernel_size: 3
    stride: 1
    weight_filler {
      type: "xavier"
    }
    bias_filler {
      type: "constant"
      value: 0
    }
  }
}
layer {
  name: "conv8_2_mbox_conf_perm"
  type: "Permute"
  bottom: "conv8_2_mbox_conf"
  top: "conv8_2_mbox_conf_perm"
  permute_param {
    order: 0
    order: 2
    order: 3
    order: 1
  }
}
layer {
  name: "conv8_2_mbox_conf_flat"
  type: "Flatten"
  bottom: "conv8_2_mbox_conf_perm"
  top: "conv8_2_mbox_conf_flat"
  flatten_param {
    axis: 1
  }
}
layer {
  name: "conv8_2_mbox_priorbox"
  type: "PriorBox"
  bottom: "conv8_2"
  bottom: "data"
  top: "conv8_2_mbox_priorbox"
  prior_box_param {
    min_size: 213
    max_size: 264
    aspect_ratio: 2
    flip: true
    clip: false
    variance: 0.1
    variance: 0.1
    variance: 0.2
    variance: 0.2
    step: 100
    offset: 0.5
  }
}
layer {
  name: "conv9_2_mbox_loc"
  type: "Convolution"
  bottom: "conv9_2"
  top: "conv9_2_mbox_loc"
  param {
    lr_mult: 1
    decay_mult: 1
  }
  param {
    lr_mult: 2
    decay_mult: 0
  }
  convolution_param {
    num_output: 16
    pad: 1
    kernel_size: 3
    stride: 1
    weight_filler {
      type: "xavier"
    }
    bias_filler {
      type: "constant"
      value: 0
    }
  }
}
layer {
  name: "conv9_2_mbox_loc_perm"
  type: "Permute"
  bottom: "conv9_2_mbox_loc"
  top: "conv9_2_mbox_loc_perm"
  permute_param {
    order: 0
    order: 2
    order: 3
    order: 1
  }
}
layer {
  name: "conv9_2_mbox_loc_flat"
  type: "Flatten"
  bottom: "conv9_2_mbox_loc_perm"
  top: "conv9_2_mbox_loc_flat"
  flatten_param {
    axis: 1
  }
}
layer {
  name: "conv9_2_mbox_conf"
  type: "Convolution"
  bottom: "conv9_2"
  top: "conv9_2_mbox_conf"
  param {
    lr_mult: 1
    decay_mult: 1
  }
  param {
    lr_mult: 2
    decay_mult: 0
  }
  convolution_param {
    num_output: 16
    pad: 1
    kernel_size: 3
    stride: 1
    weight_filler {
      type: "xavier"
    }
    bias_filler {
      type: "constant"
      value: 0
    }
  }
}
layer {
  name: "conv9_2_mbox_conf_perm"
  type: "Permute"
  bottom: "conv9_2_mbox_conf"
  top: "conv9_2_mbox_conf_perm"
  permute_param {
    order: 0
    order: 2
    order: 3
    order: 1
  }
}
layer {
  name: "conv9_2_mbox_conf_flat"
  type: "Flatten"
  bottom: "conv9_2_mbox_conf_perm"
  top: "conv9_2_mbox_conf_flat"
  flatten_param {
    axis: 1
  }
}
layer {
  name: "conv9_2_mbox_priorbox"
  type: "PriorBox"
  bottom: "conv9_2"
  bottom: "data"
  top: "conv9_2_mbox_priorbox"
  prior_box_param {
    min_size: 264
    max_size: 315
    aspect_ratio: 2
    flip: true
    clip: false
    variance: 0.1
    variance: 0.1
    variance: 0.2
    variance: 0.2
    step: 300
    offset: 0.5
  }
}
layer {
  name: "mbox_loc"
  type: "Concat"
  bottom: "conv4_3_norm_mbox_loc_flat"
  bottom: "fc7_mbox_loc_flat"
  bottom: "conv6_2_mbox_loc_flat"
  bottom: "conv7_2_mbox_loc_flat"
  bottom: "conv8_2_mbox_loc_flat"
  bottom: "conv9_2_mbox_loc_flat"
  top: "mbox_loc"
  concat_param {
    axis: 1
  }
}
layer {
  name: "mbox_conf"
  type: "Concat"
  bottom: "conv4_3_norm_mbox_conf_flat"
  bottom: "fc7_mbox_conf_flat"
  bottom: "conv6_2_mbox_conf_flat"
  bottom: "conv7_2_mbox_conf_flat"
  bottom: "conv8_2_mbox_conf_flat"
  bottom: "conv9_2_mbox_conf_flat"
  top: "mbox_conf"
  concat_param {
    axis: 1
  }
}
layer {
  name: "mbox_priorbox"
  type: "Concat"
  bottom: "conv4_3_norm_mbox_priorbox"
  bottom: "fc7_mbox_priorbox"
  bottom: "conv6_2_mbox_priorbox"
  bottom: "conv7_2_mbox_priorbox"
  bottom: "conv8_2_mbox_priorbox"
  bottom: "conv9_2_mbox_priorbox"
  top: "mbox_priorbox"
  concat_param {
    axis: 2
  }
}
layer {
  name: "mbox_conf_reshape"
  type: "Reshape"
  bottom: "mbox_conf"
  top: "mbox_conf_reshape"
  reshape_param {
    shape {
      dim: 0
      dim: -1
      dim: 4
    }
  }
}
layer {
  name: "mbox_conf_softmax"
  type: "Softmax"
  bottom: "mbox_conf_reshape"
  top: "mbox_conf_softmax"
  softmax_param {
    axis: 2
  }
}
layer {
  name: "mbox_conf_flatten"
  type: "Flatten"
  bottom: "mbox_conf_softmax"
  top: "mbox_conf_flatten"
  flatten_param {
    axis: 1
  }
}
layer {
  name: "detection_out"
  type: "DetectionOutput"
  bottom: "mbox_loc"
  bottom: "mbox_conf_flatten"
  bottom: "mbox_priorbox"
  top: "detection_out"
  include {
    phase: TEST
  }
  detection_output_param {
    num_classes: 4
    share_location: true
    background_label_id: 0
    nms_param {
      nms_threshold: 0.45
      top_k: 400
    }
    save_output_param {
      output_directory: "/home/shangzw/data/tbs/results/tbs/SSD_300x300/Main"
      output_name_prefix: "comp4_det_test_"
      output_format: "VOC"
      label_map_file: "data/tbs_300x300_HSIL_10x/labelmap_voc.prototxt"
      name_size_file: "data/VOC0712/test_name_size.txt"
      num_test_image: 100
    }
    code_type: CENTER_SIZE
    keep_top_k: 200
    confidence_threshold: 0.01
  }
}
layer {
  name: "detection_eval"
  type: "DetectionEvaluate"
  bottom: "detection_out"
  bottom: "label"
  top: "detection_eval"
  include {
    phase: TEST
  }
  detection_evaluate_param {
    num_classes: 4
    background_label_id: 0
    overlap_threshold: 0.5
    evaluate_difficult_gt: false
    name_size_file: "data/VOC0712/test_name_size.txt"
  }
}
I0602 14:34:48.502084  1395 layer_factory.hpp:77] Creating layer data
I0602 14:34:48.502140  1395 net.cpp:100] Creating Layer data
I0602 14:34:48.502149  1395 net.cpp:408] data -> data
I0602 14:34:48.502159  1395 net.cpp:408] data -> label
I0602 14:34:48.503216  1416 db_lmdb.cpp:35] Opened lmdb examples/tbs_300x300_HSIL_10x/tbs_300x300_HSIL_10x_test_lmdb
I0602 14:34:48.504266  1395 annotated_data_layer.cpp:62] output data size: 4,3,300,300
I0602 14:34:48.514684  1395 net.cpp:150] Setting up data
I0602 14:34:48.514715  1395 net.cpp:157] Top shape: 4 3 300 300 (1080000)
I0602 14:34:48.514732  1395 net.cpp:157] Top shape: 1 1 1 8 (8)
I0602 14:34:48.514734  1395 net.cpp:165] Memory required for data: 4320032
I0602 14:34:48.514739  1395 layer_factory.hpp:77] Creating layer data_data_0_split
I0602 14:34:48.514747  1395 net.cpp:100] Creating Layer data_data_0_split
I0602 14:34:48.514751  1395 net.cpp:434] data_data_0_split <- data
I0602 14:34:48.514758  1395 net.cpp:408] data_data_0_split -> data_data_0_split_0
I0602 14:34:48.514772  1395 net.cpp:408] data_data_0_split -> data_data_0_split_1
I0602 14:34:48.514780  1395 net.cpp:408] data_data_0_split -> data_data_0_split_2
I0602 14:34:48.514786  1395 net.cpp:408] data_data_0_split -> data_data_0_split_3
I0602 14:34:48.514792  1395 net.cpp:408] data_data_0_split -> data_data_0_split_4
I0602 14:34:48.514798  1395 net.cpp:408] data_data_0_split -> data_data_0_split_5
I0602 14:34:48.514804  1395 net.cpp:408] data_data_0_split -> data_data_0_split_6
I0602 14:34:48.515070  1395 net.cpp:150] Setting up data_data_0_split
I0602 14:34:48.515082  1395 net.cpp:157] Top shape: 4 3 300 300 (1080000)
I0602 14:34:48.515089  1395 net.cpp:157] Top shape: 4 3 300 300 (1080000)
I0602 14:34:48.515094  1395 net.cpp:157] Top shape: 4 3 300 300 (1080000)
I0602 14:34:48.515100  1395 net.cpp:157] Top shape: 4 3 300 300 (1080000)
I0602 14:34:48.515105  1395 net.cpp:157] Top shape: 4 3 300 300 (1080000)
I0602 14:34:48.515122  1395 net.cpp:157] Top shape: 4 3 300 300 (1080000)
I0602 14:34:48.515130  1395 net.cpp:157] Top shape: 4 3 300 300 (1080000)
I0602 14:34:48.515132  1395 net.cpp:165] Memory required for data: 34560032
I0602 14:34:48.515137  1395 layer_factory.hpp:77] Creating layer conv1_1
I0602 14:34:48.515151  1395 net.cpp:100] Creating Layer conv1_1
I0602 14:34:48.515156  1395 net.cpp:434] conv1_1 <- data_data_0_split_0
I0602 14:34:48.515162  1395 net.cpp:408] conv1_1 -> conv1_1
I0602 14:34:48.516790  1395 net.cpp:150] Setting up conv1_1
I0602 14:34:48.516808  1395 net.cpp:157] Top shape: 4 64 300 300 (23040000)
I0602 14:34:48.516811  1395 net.cpp:165] Memory required for data: 126720032
I0602 14:34:48.516821  1395 layer_factory.hpp:77] Creating layer relu1_1
I0602 14:34:48.516829  1395 net.cpp:100] Creating Layer relu1_1
I0602 14:34:48.516834  1395 net.cpp:434] relu1_1 <- conv1_1
I0602 14:34:48.516840  1395 net.cpp:395] relu1_1 -> conv1_1 (in-place)
I0602 14:34:48.517027  1395 net.cpp:150] Setting up relu1_1
I0602 14:34:48.517040  1395 net.cpp:157] Top shape: 4 64 300 300 (23040000)
I0602 14:34:48.517045  1395 net.cpp:165] Memory required for data: 218880032
I0602 14:34:48.517050  1395 layer_factory.hpp:77] Creating layer conv1_2
I0602 14:34:48.517061  1395 net.cpp:100] Creating Layer conv1_2
I0602 14:34:48.517067  1395 net.cpp:434] conv1_2 <- conv1_1
I0602 14:34:48.517074  1395 net.cpp:408] conv1_2 -> conv1_2
I0602 14:34:48.519841  1395 net.cpp:150] Setting up conv1_2
I0602 14:34:48.519858  1395 net.cpp:157] Top shape: 4 64 300 300 (23040000)
I0602 14:34:48.519861  1395 net.cpp:165] Memory required for data: 311040032
I0602 14:34:48.519870  1395 layer_factory.hpp:77] Creating layer relu1_2
I0602 14:34:48.519876  1395 net.cpp:100] Creating Layer relu1_2
I0602 14:34:48.519881  1395 net.cpp:434] relu1_2 <- conv1_2
I0602 14:34:48.519888  1395 net.cpp:395] relu1_2 -> conv1_2 (in-place)
I0602 14:34:48.520786  1395 net.cpp:150] Setting up relu1_2
I0602 14:34:48.520802  1395 net.cpp:157] Top shape: 4 64 300 300 (23040000)
I0602 14:34:48.520807  1395 net.cpp:165] Memory required for data: 403200032
I0602 14:34:48.520812  1395 layer_factory.hpp:77] Creating layer pool1
I0602 14:34:48.520824  1395 net.cpp:100] Creating Layer pool1
I0602 14:34:48.520829  1395 net.cpp:434] pool1 <- conv1_2
I0602 14:34:48.520836  1395 net.cpp:408] pool1 -> pool1
I0602 14:34:48.520910  1395 net.cpp:150] Setting up pool1
I0602 14:34:48.520920  1395 net.cpp:157] Top shape: 4 64 150 150 (5760000)
I0602 14:34:48.520923  1395 net.cpp:165] Memory required for data: 426240032
I0602 14:34:48.520927  1395 layer_factory.hpp:77] Creating layer conv2_1
I0602 14:34:48.520939  1395 net.cpp:100] Creating Layer conv2_1
I0602 14:34:48.520943  1395 net.cpp:434] conv2_1 <- pool1
I0602 14:34:48.520952  1395 net.cpp:408] conv2_1 -> conv2_1
I0602 14:34:48.523386  1395 net.cpp:150] Setting up conv2_1
I0602 14:34:48.523406  1395 net.cpp:157] Top shape: 4 128 150 150 (11520000)
I0602 14:34:48.523407  1395 net.cpp:165] Memory required for data: 472320032
I0602 14:34:48.523418  1395 layer_factory.hpp:77] Creating layer relu2_1
I0602 14:34:48.523427  1395 net.cpp:100] Creating Layer relu2_1
I0602 14:34:48.523430  1395 net.cpp:434] relu2_1 <- conv2_1
I0602 14:34:48.523435  1395 net.cpp:395] relu2_1 -> conv2_1 (in-place)
I0602 14:34:48.524258  1395 net.cpp:150] Setting up relu2_1
I0602 14:34:48.524272  1395 net.cpp:157] Top shape: 4 128 150 150 (11520000)
I0602 14:34:48.524276  1395 net.cpp:165] Memory required for data: 518400032
I0602 14:34:48.524277  1395 layer_factory.hpp:77] Creating layer conv2_2
I0602 14:34:48.524288  1395 net.cpp:100] Creating Layer conv2_2
I0602 14:34:48.524291  1395 net.cpp:434] conv2_2 <- conv2_1
I0602 14:34:48.524297  1395 net.cpp:408] conv2_2 -> conv2_2
I0602 14:34:48.528403  1395 net.cpp:150] Setting up conv2_2
I0602 14:34:48.528421  1395 net.cpp:157] Top shape: 4 128 150 150 (11520000)
I0602 14:34:48.528424  1395 net.cpp:165] Memory required for data: 564480032
I0602 14:34:48.528434  1395 layer_factory.hpp:77] Creating layer relu2_2
I0602 14:34:48.528460  1395 net.cpp:100] Creating Layer relu2_2
I0602 14:34:48.528465  1395 net.cpp:434] relu2_2 <- conv2_2
I0602 14:34:48.528471  1395 net.cpp:395] relu2_2 -> conv2_2 (in-place)
I0602 14:34:48.528645  1395 net.cpp:150] Setting up relu2_2
I0602 14:34:48.528651  1395 net.cpp:157] Top shape: 4 128 150 150 (11520000)
I0602 14:34:48.528653  1395 net.cpp:165] Memory required for data: 610560032
I0602 14:34:48.528656  1395 layer_factory.hpp:77] Creating layer pool2
I0602 14:34:48.528662  1395 net.cpp:100] Creating Layer pool2
I0602 14:34:48.528664  1395 net.cpp:434] pool2 <- conv2_2
I0602 14:34:48.528669  1395 net.cpp:408] pool2 -> pool2
I0602 14:34:48.528724  1395 net.cpp:150] Setting up pool2
I0602 14:34:48.528729  1395 net.cpp:157] Top shape: 4 128 75 75 (2880000)
I0602 14:34:48.528731  1395 net.cpp:165] Memory required for data: 622080032
I0602 14:34:48.528733  1395 layer_factory.hpp:77] Creating layer conv3_1
I0602 14:34:48.528743  1395 net.cpp:100] Creating Layer conv3_1
I0602 14:34:48.528745  1395 net.cpp:434] conv3_1 <- pool2
I0602 14:34:48.528750  1395 net.cpp:408] conv3_1 -> conv3_1
I0602 14:34:48.532678  1395 net.cpp:150] Setting up conv3_1
I0602 14:34:48.532692  1395 net.cpp:157] Top shape: 4 256 75 75 (5760000)
I0602 14:34:48.532696  1395 net.cpp:165] Memory required for data: 645120032
I0602 14:34:48.532706  1395 layer_factory.hpp:77] Creating layer relu3_1
I0602 14:34:48.532727  1395 net.cpp:100] Creating Layer relu3_1
I0602 14:34:48.532732  1395 net.cpp:434] relu3_1 <- conv3_1
I0602 14:34:48.532737  1395 net.cpp:395] relu3_1 -> conv3_1 (in-place)
I0602 14:34:48.532968  1395 net.cpp:150] Setting up relu3_1
I0602 14:34:48.532975  1395 net.cpp:157] Top shape: 4 256 75 75 (5760000)
I0602 14:34:48.532977  1395 net.cpp:165] Memory required for data: 668160032
I0602 14:34:48.532980  1395 layer_factory.hpp:77] Creating layer conv3_2
I0602 14:34:48.533002  1395 net.cpp:100] Creating Layer conv3_2
I0602 14:34:48.533005  1395 net.cpp:434] conv3_2 <- conv3_1
I0602 14:34:48.533010  1395 net.cpp:408] conv3_2 -> conv3_2
I0602 14:34:48.538379  1395 net.cpp:150] Setting up conv3_2
I0602 14:34:48.538393  1395 net.cpp:157] Top shape: 4 256 75 75 (5760000)
I0602 14:34:48.538396  1395 net.cpp:165] Memory required for data: 691200032
I0602 14:34:48.538403  1395 layer_factory.hpp:77] Creating layer relu3_2
I0602 14:34:48.538408  1395 net.cpp:100] Creating Layer relu3_2
I0602 14:34:48.538411  1395 net.cpp:434] relu3_2 <- conv3_2
I0602 14:34:48.538415  1395 net.cpp:395] relu3_2 -> conv3_2 (in-place)
I0602 14:34:48.538589  1395 net.cpp:150] Setting up relu3_2
I0602 14:34:48.538596  1395 net.cpp:157] Top shape: 4 256 75 75 (5760000)
I0602 14:34:48.538599  1395 net.cpp:165] Memory required for data: 714240032
I0602 14:34:48.538600  1395 layer_factory.hpp:77] Creating layer conv3_3
I0602 14:34:48.538625  1395 net.cpp:100] Creating Layer conv3_3
I0602 14:34:48.538627  1395 net.cpp:434] conv3_3 <- conv3_2
I0602 14:34:48.538632  1395 net.cpp:408] conv3_3 -> conv3_3
I0602 14:34:48.543740  1395 net.cpp:150] Setting up conv3_3
I0602 14:34:48.543752  1395 net.cpp:157] Top shape: 4 256 75 75 (5760000)
I0602 14:34:48.543756  1395 net.cpp:165] Memory required for data: 737280032
I0602 14:34:48.543761  1395 layer_factory.hpp:77] Creating layer relu3_3
I0602 14:34:48.543768  1395 net.cpp:100] Creating Layer relu3_3
I0602 14:34:48.543771  1395 net.cpp:434] relu3_3 <- conv3_3
I0602 14:34:48.543776  1395 net.cpp:395] relu3_3 -> conv3_3 (in-place)
I0602 14:34:48.543926  1395 net.cpp:150] Setting up relu3_3
I0602 14:34:48.543931  1395 net.cpp:157] Top shape: 4 256 75 75 (5760000)
I0602 14:34:48.543934  1395 net.cpp:165] Memory required for data: 760320032
I0602 14:34:48.543936  1395 layer_factory.hpp:77] Creating layer pool3
I0602 14:34:48.543942  1395 net.cpp:100] Creating Layer pool3
I0602 14:34:48.543958  1395 net.cpp:434] pool3 <- conv3_3
I0602 14:34:48.543962  1395 net.cpp:408] pool3 -> pool3
I0602 14:34:48.544005  1395 net.cpp:150] Setting up pool3
I0602 14:34:48.544010  1395 net.cpp:157] Top shape: 4 256 38 38 (1478656)
I0602 14:34:48.544033  1395 net.cpp:165] Memory required for data: 766234656
I0602 14:34:48.544035  1395 layer_factory.hpp:77] Creating layer conv4_1
I0602 14:34:48.544044  1395 net.cpp:100] Creating Layer conv4_1
I0602 14:34:48.544047  1395 net.cpp:434] conv4_1 <- pool3
I0602 14:34:48.544052  1395 net.cpp:408] conv4_1 -> conv4_1
I0602 14:34:48.552069  1395 net.cpp:150] Setting up conv4_1
I0602 14:34:48.552085  1395 net.cpp:157] Top shape: 4 512 38 38 (2957312)
I0602 14:34:48.552088  1395 net.cpp:165] Memory required for data: 778063904
I0602 14:34:48.552109  1395 layer_factory.hpp:77] Creating layer relu4_1
I0602 14:34:48.552115  1395 net.cpp:100] Creating Layer relu4_1
I0602 14:34:48.552119  1395 net.cpp:434] relu4_1 <- conv4_1
I0602 14:34:48.552124  1395 net.cpp:395] relu4_1 -> conv4_1 (in-place)
I0602 14:34:48.554162  1395 net.cpp:150] Setting up relu4_1
I0602 14:34:48.554170  1395 net.cpp:157] Top shape: 4 512 38 38 (2957312)
I0602 14:34:48.554173  1395 net.cpp:165] Memory required for data: 789893152
I0602 14:34:48.554175  1395 layer_factory.hpp:77] Creating layer conv4_2
I0602 14:34:48.554183  1395 net.cpp:100] Creating Layer conv4_2
I0602 14:34:48.554188  1395 net.cpp:434] conv4_2 <- conv4_1
I0602 14:34:48.554193  1395 net.cpp:408] conv4_2 -> conv4_2
I0602 14:34:48.566872  1395 net.cpp:150] Setting up conv4_2
I0602 14:34:48.566889  1395 net.cpp:157] Top shape: 4 512 38 38 (2957312)
I0602 14:34:48.566890  1395 net.cpp:165] Memory required for data: 801722400
I0602 14:34:48.566900  1395 layer_factory.hpp:77] Creating layer relu4_2
I0602 14:34:48.566923  1395 net.cpp:100] Creating Layer relu4_2
I0602 14:34:48.566926  1395 net.cpp:434] relu4_2 <- conv4_2
I0602 14:34:48.566931  1395 net.cpp:395] relu4_2 -> conv4_2 (in-place)
I0602 14:34:48.568231  1395 net.cpp:150] Setting up relu4_2
I0602 14:34:48.568259  1395 net.cpp:157] Top shape: 4 512 38 38 (2957312)
I0602 14:34:48.568262  1395 net.cpp:165] Memory required for data: 813551648
I0602 14:34:48.568266  1395 layer_factory.hpp:77] Creating layer conv4_3
I0602 14:34:48.568291  1395 net.cpp:100] Creating Layer conv4_3
I0602 14:34:48.568295  1395 net.cpp:434] conv4_3 <- conv4_2
I0602 14:34:48.568301  1395 net.cpp:408] conv4_3 -> conv4_3
I0602 14:34:48.581248  1395 net.cpp:150] Setting up conv4_3
I0602 14:34:48.581264  1395 net.cpp:157] Top shape: 4 512 38 38 (2957312)
I0602 14:34:48.581266  1395 net.cpp:165] Memory required for data: 825380896
I0602 14:34:48.581274  1395 layer_factory.hpp:77] Creating layer relu4_3
I0602 14:34:48.581279  1395 net.cpp:100] Creating Layer relu4_3
I0602 14:34:48.581282  1395 net.cpp:434] relu4_3 <- conv4_3
I0602 14:34:48.581287  1395 net.cpp:395] relu4_3 -> conv4_3 (in-place)
I0602 14:34:48.581455  1395 net.cpp:150] Setting up relu4_3
I0602 14:34:48.581462  1395 net.cpp:157] Top shape: 4 512 38 38 (2957312)
I0602 14:34:48.581465  1395 net.cpp:165] Memory required for data: 837210144
I0602 14:34:48.581466  1395 layer_factory.hpp:77] Creating layer conv4_3_relu4_3_0_split
I0602 14:34:48.581471  1395 net.cpp:100] Creating Layer conv4_3_relu4_3_0_split
I0602 14:34:48.581473  1395 net.cpp:434] conv4_3_relu4_3_0_split <- conv4_3
I0602 14:34:48.581491  1395 net.cpp:408] conv4_3_relu4_3_0_split -> conv4_3_relu4_3_0_split_0
I0602 14:34:48.581497  1395 net.cpp:408] conv4_3_relu4_3_0_split -> conv4_3_relu4_3_0_split_1
I0602 14:34:48.581568  1395 net.cpp:150] Setting up conv4_3_relu4_3_0_split
I0602 14:34:48.581573  1395 net.cpp:157] Top shape: 4 512 38 38 (2957312)
I0602 14:34:48.581590  1395 net.cpp:157] Top shape: 4 512 38 38 (2957312)
I0602 14:34:48.581593  1395 net.cpp:165] Memory required for data: 860868640
I0602 14:34:48.581594  1395 layer_factory.hpp:77] Creating layer pool4
I0602 14:34:48.581599  1395 net.cpp:100] Creating Layer pool4
I0602 14:34:48.581604  1395 net.cpp:434] pool4 <- conv4_3_relu4_3_0_split_0
I0602 14:34:48.581620  1395 net.cpp:408] pool4 -> pool4
I0602 14:34:48.581653  1395 net.cpp:150] Setting up pool4
I0602 14:34:48.581657  1395 net.cpp:157] Top shape: 4 512 19 19 (739328)
I0602 14:34:48.581660  1395 net.cpp:165] Memory required for data: 863825952
I0602 14:34:48.581671  1395 layer_factory.hpp:77] Creating layer conv5_1
I0602 14:34:48.581681  1395 net.cpp:100] Creating Layer conv5_1
I0602 14:34:48.581683  1395 net.cpp:434] conv5_1 <- pool4
I0602 14:34:48.581688  1395 net.cpp:408] conv5_1 -> conv5_1
I0602 14:34:48.594606  1395 net.cpp:150] Setting up conv5_1
I0602 14:34:48.594622  1395 net.cpp:157] Top shape: 4 512 19 19 (739328)
I0602 14:34:48.594625  1395 net.cpp:165] Memory required for data: 866783264
I0602 14:34:48.594631  1395 layer_factory.hpp:77] Creating layer relu5_1
I0602 14:34:48.594653  1395 net.cpp:100] Creating Layer relu5_1
I0602 14:34:48.594656  1395 net.cpp:434] relu5_1 <- conv5_1
I0602 14:34:48.594662  1395 net.cpp:395] relu5_1 -> conv5_1 (in-place)
I0602 14:34:48.594825  1395 net.cpp:150] Setting up relu5_1
I0602 14:34:48.594832  1395 net.cpp:157] Top shape: 4 512 19 19 (739328)
I0602 14:34:48.594849  1395 net.cpp:165] Memory required for data: 869740576
I0602 14:34:48.594851  1395 layer_factory.hpp:77] Creating layer conv5_2
I0602 14:34:48.594861  1395 net.cpp:100] Creating Layer conv5_2
I0602 14:34:48.594863  1395 net.cpp:434] conv5_2 <- conv5_1
I0602 14:34:48.594867  1395 net.cpp:408] conv5_2 -> conv5_2
I0602 14:34:48.608052  1395 net.cpp:150] Setting up conv5_2
I0602 14:34:48.608070  1395 net.cpp:157] Top shape: 4 512 19 19 (739328)
I0602 14:34:48.608072  1395 net.cpp:165] Memory required for data: 872697888
I0602 14:34:48.608079  1395 layer_factory.hpp:77] Creating layer relu5_2
I0602 14:34:48.608086  1395 net.cpp:100] Creating Layer relu5_2
I0602 14:34:48.608089  1395 net.cpp:434] relu5_2 <- conv5_2
I0602 14:34:48.608108  1395 net.cpp:395] relu5_2 -> conv5_2 (in-place)
I0602 14:34:48.608273  1395 net.cpp:150] Setting up relu5_2
I0602 14:34:48.608279  1395 net.cpp:157] Top shape: 4 512 19 19 (739328)
I0602 14:34:48.608283  1395 net.cpp:165] Memory required for data: 875655200
I0602 14:34:48.608288  1395 layer_factory.hpp:77] Creating layer conv5_3
I0602 14:34:48.608296  1395 net.cpp:100] Creating Layer conv5_3
I0602 14:34:48.608299  1395 net.cpp:434] conv5_3 <- conv5_2
I0602 14:34:48.608320  1395 net.cpp:408] conv5_3 -> conv5_3
I0602 14:34:48.621721  1395 net.cpp:150] Setting up conv5_3
I0602 14:34:48.621738  1395 net.cpp:157] Top shape: 4 512 19 19 (739328)
I0602 14:34:48.621740  1395 net.cpp:165] Memory required for data: 878612512
I0602 14:34:48.621762  1395 layer_factory.hpp:77] Creating layer relu5_3
I0602 14:34:48.621774  1395 net.cpp:100] Creating Layer relu5_3
I0602 14:34:48.621778  1395 net.cpp:434] relu5_3 <- conv5_3
I0602 14:34:48.621783  1395 net.cpp:395] relu5_3 -> conv5_3 (in-place)
I0602 14:34:48.621969  1395 net.cpp:150] Setting up relu5_3
I0602 14:34:48.621975  1395 net.cpp:157] Top shape: 4 512 19 19 (739328)
I0602 14:34:48.621978  1395 net.cpp:165] Memory required for data: 881569824
I0602 14:34:48.621979  1395 layer_factory.hpp:77] Creating layer pool5
I0602 14:34:48.621999  1395 net.cpp:100] Creating Layer pool5
I0602 14:34:48.622002  1395 net.cpp:434] pool5 <- conv5_3
I0602 14:34:48.622007  1395 net.cpp:408] pool5 -> pool5
I0602 14:34:48.622092  1395 net.cpp:150] Setting up pool5
I0602 14:34:48.622097  1395 net.cpp:157] Top shape: 4 512 19 19 (739328)
I0602 14:34:48.622099  1395 net.cpp:165] Memory required for data: 884527136
I0602 14:34:48.622102  1395 layer_factory.hpp:77] Creating layer fc6
I0602 14:34:48.622108  1395 net.cpp:100] Creating Layer fc6
I0602 14:34:48.622112  1395 net.cpp:434] fc6 <- pool5
I0602 14:34:48.622115  1395 net.cpp:408] fc6 -> fc6
I0602 14:34:48.645287  1395 net.cpp:150] Setting up fc6
I0602 14:34:48.645300  1395 net.cpp:157] Top shape: 4 1024 19 19 (1478656)
I0602 14:34:48.645303  1395 net.cpp:165] Memory required for data: 890441760
I0602 14:34:48.645324  1395 layer_factory.hpp:77] Creating layer relu6
I0602 14:34:48.645344  1395 net.cpp:100] Creating Layer relu6
I0602 14:34:48.645347  1395 net.cpp:434] relu6 <- fc6
I0602 14:34:48.645352  1395 net.cpp:395] relu6 -> fc6 (in-place)
I0602 14:34:48.647780  1395 net.cpp:150] Setting up relu6
I0602 14:34:48.647792  1395 net.cpp:157] Top shape: 4 1024 19 19 (1478656)
I0602 14:34:48.647806  1395 net.cpp:165] Memory required for data: 896356384
I0602 14:34:48.647810  1395 layer_factory.hpp:77] Creating layer fc7
I0602 14:34:48.647820  1395 net.cpp:100] Creating Layer fc7
I0602 14:34:48.647825  1395 net.cpp:434] fc7 <- fc6
I0602 14:34:48.647830  1395 net.cpp:408] fc7 -> fc7
I0602 14:34:48.667763  1395 net.cpp:150] Setting up fc7
I0602 14:34:48.667778  1395 net.cpp:157] Top shape: 4 1024 19 19 (1478656)
I0602 14:34:48.667780  1395 net.cpp:165] Memory required for data: 902271008
I0602 14:34:48.667786  1395 layer_factory.hpp:77] Creating layer relu7
I0602 14:34:48.667807  1395 net.cpp:100] Creating Layer relu7
I0602 14:34:48.667810  1395 net.cpp:434] relu7 <- fc7
I0602 14:34:48.667815  1395 net.cpp:395] relu7 -> fc7 (in-place)
I0602 14:34:48.667989  1395 net.cpp:150] Setting up relu7
I0602 14:34:48.667995  1395 net.cpp:157] Top shape: 4 1024 19 19 (1478656)
I0602 14:34:48.668000  1395 net.cpp:165] Memory required for data: 908185632
I0602 14:34:48.668004  1395 layer_factory.hpp:77] Creating layer fc7_relu7_0_split
I0602 14:34:48.668009  1395 net.cpp:100] Creating Layer fc7_relu7_0_split
I0602 14:34:48.668012  1395 net.cpp:434] fc7_relu7_0_split <- fc7
I0602 14:34:48.668040  1395 net.cpp:408] fc7_relu7_0_split -> fc7_relu7_0_split_0
I0602 14:34:48.668046  1395 net.cpp:408] fc7_relu7_0_split -> fc7_relu7_0_split_1
I0602 14:34:48.668057  1395 net.cpp:408] fc7_relu7_0_split -> fc7_relu7_0_split_2
I0602 14:34:48.668062  1395 net.cpp:408] fc7_relu7_0_split -> fc7_relu7_0_split_3
I0602 14:34:48.668139  1395 net.cpp:150] Setting up fc7_relu7_0_split
I0602 14:34:48.668144  1395 net.cpp:157] Top shape: 4 1024 19 19 (1478656)
I0602 14:34:48.668148  1395 net.cpp:157] Top shape: 4 1024 19 19 (1478656)
I0602 14:34:48.668149  1395 net.cpp:157] Top shape: 4 1024 19 19 (1478656)
I0602 14:34:48.668153  1395 net.cpp:157] Top shape: 4 1024 19 19 (1478656)
I0602 14:34:48.668154  1395 net.cpp:165] Memory required for data: 931844128
I0602 14:34:48.668156  1395 layer_factory.hpp:77] Creating layer conv6_1
I0602 14:34:48.668179  1395 net.cpp:100] Creating Layer conv6_1
I0602 14:34:48.668181  1395 net.cpp:434] conv6_1 <- fc7_relu7_0_split_0
I0602 14:34:48.668186  1395 net.cpp:408] conv6_1 -> conv6_1
I0602 14:34:48.672088  1395 net.cpp:150] Setting up conv6_1
I0602 14:34:48.672101  1395 net.cpp:157] Top shape: 4 256 19 19 (369664)
I0602 14:34:48.672104  1395 net.cpp:165] Memory required for data: 933322784
I0602 14:34:48.672109  1395 layer_factory.hpp:77] Creating layer conv6_1_relu
I0602 14:34:48.672116  1395 net.cpp:100] Creating Layer conv6_1_relu
I0602 14:34:48.672119  1395 net.cpp:434] conv6_1_relu <- conv6_1
I0602 14:34:48.672124  1395 net.cpp:395] conv6_1_relu -> conv6_1 (in-place)
I0602 14:34:48.672278  1395 net.cpp:150] Setting up conv6_1_relu
I0602 14:34:48.672286  1395 net.cpp:157] Top shape: 4 256 19 19 (369664)
I0602 14:34:48.672288  1395 net.cpp:165] Memory required for data: 934801440
I0602 14:34:48.672291  1395 layer_factory.hpp:77] Creating layer conv6_2
I0602 14:34:48.672298  1395 net.cpp:100] Creating Layer conv6_2
I0602 14:34:48.672302  1395 net.cpp:434] conv6_2 <- conv6_1
I0602 14:34:48.672307  1395 net.cpp:408] conv6_2 -> conv6_2
I0602 14:34:48.679996  1395 net.cpp:150] Setting up conv6_2
I0602 14:34:48.680012  1395 net.cpp:157] Top shape: 4 512 10 10 (204800)
I0602 14:34:48.680037  1395 net.cpp:165] Memory required for data: 935620640
I0602 14:34:48.680066  1395 layer_factory.hpp:77] Creating layer conv6_2_relu
I0602 14:34:48.680074  1395 net.cpp:100] Creating Layer conv6_2_relu
I0602 14:34:48.680080  1395 net.cpp:434] conv6_2_relu <- conv6_2
I0602 14:34:48.680086  1395 net.cpp:395] conv6_2_relu -> conv6_2 (in-place)
I0602 14:34:48.680248  1395 net.cpp:150] Setting up conv6_2_relu
I0602 14:34:48.680254  1395 net.cpp:157] Top shape: 4 512 10 10 (204800)
I0602 14:34:48.680256  1395 net.cpp:165] Memory required for data: 936439840
I0602 14:34:48.680258  1395 layer_factory.hpp:77] Creating layer conv6_2_conv6_2_relu_0_split
I0602 14:34:48.680263  1395 net.cpp:100] Creating Layer conv6_2_conv6_2_relu_0_split
I0602 14:34:48.680291  1395 net.cpp:434] conv6_2_conv6_2_relu_0_split <- conv6_2
I0602 14:34:48.680297  1395 net.cpp:408] conv6_2_conv6_2_relu_0_split -> conv6_2_conv6_2_relu_0_split_0
I0602 14:34:48.680304  1395 net.cpp:408] conv6_2_conv6_2_relu_0_split -> conv6_2_conv6_2_relu_0_split_1
I0602 14:34:48.680307  1395 net.cpp:408] conv6_2_conv6_2_relu_0_split -> conv6_2_conv6_2_relu_0_split_2
I0602 14:34:48.680312  1395 net.cpp:408] conv6_2_conv6_2_relu_0_split -> conv6_2_conv6_2_relu_0_split_3
I0602 14:34:48.680402  1395 net.cpp:150] Setting up conv6_2_conv6_2_relu_0_split
I0602 14:34:48.680408  1395 net.cpp:157] Top shape: 4 512 10 10 (204800)
I0602 14:34:48.680410  1395 net.cpp:157] Top shape: 4 512 10 10 (204800)
I0602 14:34:48.680413  1395 net.cpp:157] Top shape: 4 512 10 10 (204800)
I0602 14:34:48.680415  1395 net.cpp:157] Top shape: 4 512 10 10 (204800)
I0602 14:34:48.680418  1395 net.cpp:165] Memory required for data: 939716640
I0602 14:34:48.680420  1395 layer_factory.hpp:77] Creating layer conv7_1
I0602 14:34:48.680443  1395 net.cpp:100] Creating Layer conv7_1
I0602 14:34:48.680445  1395 net.cpp:434] conv7_1 <- conv6_2_conv6_2_relu_0_split_0
I0602 14:34:48.680451  1395 net.cpp:408] conv7_1 -> conv7_1
I0602 14:34:48.682255  1395 net.cpp:150] Setting up conv7_1
I0602 14:34:48.682265  1395 net.cpp:157] Top shape: 4 128 10 10 (51200)
I0602 14:34:48.682267  1395 net.cpp:165] Memory required for data: 939921440
I0602 14:34:48.682272  1395 layer_factory.hpp:77] Creating layer conv7_1_relu
I0602 14:34:48.682278  1395 net.cpp:100] Creating Layer conv7_1_relu
I0602 14:34:48.682281  1395 net.cpp:434] conv7_1_relu <- conv7_1
I0602 14:34:48.682286  1395 net.cpp:395] conv7_1_relu -> conv7_1 (in-place)
I0602 14:34:48.682415  1395 net.cpp:150] Setting up conv7_1_relu
I0602 14:34:48.682421  1395 net.cpp:157] Top shape: 4 128 10 10 (51200)
I0602 14:34:48.682423  1395 net.cpp:165] Memory required for data: 940126240
I0602 14:34:48.682425  1395 layer_factory.hpp:77] Creating layer conv7_2
I0602 14:34:48.682433  1395 net.cpp:100] Creating Layer conv7_2
I0602 14:34:48.682436  1395 net.cpp:434] conv7_2 <- conv7_1
I0602 14:34:48.682440  1395 net.cpp:408] conv7_2 -> conv7_2
I0602 14:34:48.685497  1395 net.cpp:150] Setting up conv7_2
I0602 14:34:48.685508  1395 net.cpp:157] Top shape: 4 256 5 5 (25600)
I0602 14:34:48.685511  1395 net.cpp:165] Memory required for data: 940228640
I0602 14:34:48.685516  1395 layer_factory.hpp:77] Creating layer conv7_2_relu
I0602 14:34:48.685521  1395 net.cpp:100] Creating Layer conv7_2_relu
I0602 14:34:48.685523  1395 net.cpp:434] conv7_2_relu <- conv7_2
I0602 14:34:48.685528  1395 net.cpp:395] conv7_2_relu -> conv7_2 (in-place)
I0602 14:34:48.685675  1395 net.cpp:150] Setting up conv7_2_relu
I0602 14:34:48.685681  1395 net.cpp:157] Top shape: 4 256 5 5 (25600)
I0602 14:34:48.685683  1395 net.cpp:165] Memory required for data: 940331040
I0602 14:34:48.685685  1395 layer_factory.hpp:77] Creating layer conv7_2_conv7_2_relu_0_split
I0602 14:34:48.685704  1395 net.cpp:100] Creating Layer conv7_2_conv7_2_relu_0_split
I0602 14:34:48.685706  1395 net.cpp:434] conv7_2_conv7_2_relu_0_split <- conv7_2
I0602 14:34:48.685712  1395 net.cpp:408] conv7_2_conv7_2_relu_0_split -> conv7_2_conv7_2_relu_0_split_0
I0602 14:34:48.685717  1395 net.cpp:408] conv7_2_conv7_2_relu_0_split -> conv7_2_conv7_2_relu_0_split_1
I0602 14:34:48.685722  1395 net.cpp:408] conv7_2_conv7_2_relu_0_split -> conv7_2_conv7_2_relu_0_split_2
I0602 14:34:48.685727  1395 net.cpp:408] conv7_2_conv7_2_relu_0_split -> conv7_2_conv7_2_relu_0_split_3
I0602 14:34:48.685789  1395 net.cpp:150] Setting up conv7_2_conv7_2_relu_0_split
I0602 14:34:48.685796  1395 net.cpp:157] Top shape: 4 256 5 5 (25600)
I0602 14:34:48.685797  1395 net.cpp:157] Top shape: 4 256 5 5 (25600)
I0602 14:34:48.685801  1395 net.cpp:157] Top shape: 4 256 5 5 (25600)
I0602 14:34:48.685802  1395 net.cpp:157] Top shape: 4 256 5 5 (25600)
I0602 14:34:48.685806  1395 net.cpp:165] Memory required for data: 940740640
I0602 14:34:48.685808  1395 layer_factory.hpp:77] Creating layer conv8_1
I0602 14:34:48.685838  1395 net.cpp:100] Creating Layer conv8_1
I0602 14:34:48.685842  1395 net.cpp:434] conv8_1 <- conv7_2_conv7_2_relu_0_split_0
I0602 14:34:48.685847  1395 net.cpp:408] conv8_1 -> conv8_1
I0602 14:34:48.687192  1395 net.cpp:150] Setting up conv8_1
I0602 14:34:48.687202  1395 net.cpp:157] Top shape: 4 128 5 5 (12800)
I0602 14:34:48.687204  1395 net.cpp:165] Memory required for data: 940791840
I0602 14:34:48.687211  1395 layer_factory.hpp:77] Creating layer conv8_1_relu
I0602 14:34:48.687214  1395 net.cpp:100] Creating Layer conv8_1_relu
I0602 14:34:48.687217  1395 net.cpp:434] conv8_1_relu <- conv8_1
I0602 14:34:48.687222  1395 net.cpp:395] conv8_1_relu -> conv8_1 (in-place)
I0602 14:34:48.687837  1395 net.cpp:150] Setting up conv8_1_relu
I0602 14:34:48.687849  1395 net.cpp:157] Top shape: 4 128 5 5 (12800)
I0602 14:34:48.687852  1395 net.cpp:165] Memory required for data: 940843040
I0602 14:34:48.687855  1395 layer_factory.hpp:77] Creating layer conv8_2
I0602 14:34:48.687862  1395 net.cpp:100] Creating Layer conv8_2
I0602 14:34:48.687865  1395 net.cpp:434] conv8_2 <- conv8_1
I0602 14:34:48.687870  1395 net.cpp:408] conv8_2 -> conv8_2
I0602 14:34:48.690879  1395 net.cpp:150] Setting up conv8_2
I0602 14:34:48.690891  1395 net.cpp:157] Top shape: 4 256 3 3 (9216)
I0602 14:34:48.690892  1395 net.cpp:165] Memory required for data: 940879904
I0602 14:34:48.690897  1395 layer_factory.hpp:77] Creating layer conv8_2_relu
I0602 14:34:48.690902  1395 net.cpp:100] Creating Layer conv8_2_relu
I0602 14:34:48.690907  1395 net.cpp:434] conv8_2_relu <- conv8_2
I0602 14:34:48.690912  1395 net.cpp:395] conv8_2_relu -> conv8_2 (in-place)
I0602 14:34:48.691047  1395 net.cpp:150] Setting up conv8_2_relu
I0602 14:34:48.691054  1395 net.cpp:157] Top shape: 4 256 3 3 (9216)
I0602 14:34:48.691057  1395 net.cpp:165] Memory required for data: 940916768
I0602 14:34:48.691061  1395 layer_factory.hpp:77] Creating layer conv8_2_conv8_2_relu_0_split
I0602 14:34:48.691066  1395 net.cpp:100] Creating Layer conv8_2_conv8_2_relu_0_split
I0602 14:34:48.691067  1395 net.cpp:434] conv8_2_conv8_2_relu_0_split <- conv8_2
I0602 14:34:48.691072  1395 net.cpp:408] conv8_2_conv8_2_relu_0_split -> conv8_2_conv8_2_relu_0_split_0
I0602 14:34:48.691078  1395 net.cpp:408] conv8_2_conv8_2_relu_0_split -> conv8_2_conv8_2_relu_0_split_1
I0602 14:34:48.691083  1395 net.cpp:408] conv8_2_conv8_2_relu_0_split -> conv8_2_conv8_2_relu_0_split_2
I0602 14:34:48.691088  1395 net.cpp:408] conv8_2_conv8_2_relu_0_split -> conv8_2_conv8_2_relu_0_split_3
I0602 14:34:48.691153  1395 net.cpp:150] Setting up conv8_2_conv8_2_relu_0_split
I0602 14:34:48.691157  1395 net.cpp:157] Top shape: 4 256 3 3 (9216)
I0602 14:34:48.691160  1395 net.cpp:157] Top shape: 4 256 3 3 (9216)
I0602 14:34:48.691162  1395 net.cpp:157] Top shape: 4 256 3 3 (9216)
I0602 14:34:48.691165  1395 net.cpp:157] Top shape: 4 256 3 3 (9216)
I0602 14:34:48.691167  1395 net.cpp:165] Memory required for data: 941064224
I0602 14:34:48.691169  1395 layer_factory.hpp:77] Creating layer conv9_1
I0602 14:34:48.691175  1395 net.cpp:100] Creating Layer conv9_1
I0602 14:34:48.691179  1395 net.cpp:434] conv9_1 <- conv8_2_conv8_2_relu_0_split_0
I0602 14:34:48.691185  1395 net.cpp:408] conv9_1 -> conv9_1
I0602 14:34:48.692558  1395 net.cpp:150] Setting up conv9_1
I0602 14:34:48.692566  1395 net.cpp:157] Top shape: 4 128 3 3 (4608)
I0602 14:34:48.692569  1395 net.cpp:165] Memory required for data: 941082656
I0602 14:34:48.692574  1395 layer_factory.hpp:77] Creating layer conv9_1_relu
I0602 14:34:48.692579  1395 net.cpp:100] Creating Layer conv9_1_relu
I0602 14:34:48.692582  1395 net.cpp:434] conv9_1_relu <- conv9_1
I0602 14:34:48.692587  1395 net.cpp:395] conv9_1_relu -> conv9_1 (in-place)
I0602 14:34:48.692725  1395 net.cpp:150] Setting up conv9_1_relu
I0602 14:34:48.692733  1395 net.cpp:157] Top shape: 4 128 3 3 (4608)
I0602 14:34:48.692734  1395 net.cpp:165] Memory required for data: 941101088
I0602 14:34:48.692737  1395 layer_factory.hpp:77] Creating layer conv9_2
I0602 14:34:48.692754  1395 net.cpp:100] Creating Layer conv9_2
I0602 14:34:48.692756  1395 net.cpp:434] conv9_2 <- conv9_1
I0602 14:34:48.692761  1395 net.cpp:408] conv9_2 -> conv9_2
I0602 14:34:48.695974  1395 net.cpp:150] Setting up conv9_2
I0602 14:34:48.695986  1395 net.cpp:157] Top shape: 4 256 1 1 (1024)
I0602 14:34:48.695989  1395 net.cpp:165] Memory required for data: 941105184
I0602 14:34:48.695994  1395 layer_factory.hpp:77] Creating layer conv9_2_relu
I0602 14:34:48.695999  1395 net.cpp:100] Creating Layer conv9_2_relu
I0602 14:34:48.696002  1395 net.cpp:434] conv9_2_relu <- conv9_2
I0602 14:34:48.696005  1395 net.cpp:395] conv9_2_relu -> conv9_2 (in-place)
I0602 14:34:48.696157  1395 net.cpp:150] Setting up conv9_2_relu
I0602 14:34:48.696166  1395 net.cpp:157] Top shape: 4 256 1 1 (1024)
I0602 14:34:48.696168  1395 net.cpp:165] Memory required for data: 941109280
I0602 14:34:48.696171  1395 layer_factory.hpp:77] Creating layer conv9_2_conv9_2_relu_0_split
I0602 14:34:48.696174  1395 net.cpp:100] Creating Layer conv9_2_conv9_2_relu_0_split
I0602 14:34:48.696177  1395 net.cpp:434] conv9_2_conv9_2_relu_0_split <- conv9_2
I0602 14:34:48.696182  1395 net.cpp:408] conv9_2_conv9_2_relu_0_split -> conv9_2_conv9_2_relu_0_split_0
I0602 14:34:48.696187  1395 net.cpp:408] conv9_2_conv9_2_relu_0_split -> conv9_2_conv9_2_relu_0_split_1
I0602 14:34:48.696192  1395 net.cpp:408] conv9_2_conv9_2_relu_0_split -> conv9_2_conv9_2_relu_0_split_2
I0602 14:34:48.696244  1395 net.cpp:150] Setting up conv9_2_conv9_2_relu_0_split
I0602 14:34:48.696249  1395 net.cpp:157] Top shape: 4 256 1 1 (1024)
I0602 14:34:48.696252  1395 net.cpp:157] Top shape: 4 256 1 1 (1024)
I0602 14:34:48.696254  1395 net.cpp:157] Top shape: 4 256 1 1 (1024)
I0602 14:34:48.696256  1395 net.cpp:165] Memory required for data: 941121568
I0602 14:34:48.696259  1395 layer_factory.hpp:77] Creating layer conv4_3_norm
I0602 14:34:48.696262  1395 net.cpp:100] Creating Layer conv4_3_norm
I0602 14:34:48.696266  1395 net.cpp:434] conv4_3_norm <- conv4_3_relu4_3_0_split_1
I0602 14:34:48.696272  1395 net.cpp:408] conv4_3_norm -> conv4_3_norm
I0602 14:34:48.696422  1395 net.cpp:150] Setting up conv4_3_norm
I0602 14:34:48.696429  1395 net.cpp:157] Top shape: 4 512 38 38 (2957312)
I0602 14:34:48.696430  1395 net.cpp:165] Memory required for data: 952950816
I0602 14:34:48.696434  1395 layer_factory.hpp:77] Creating layer conv4_3_norm_conv4_3_norm_0_split
I0602 14:34:48.696437  1395 net.cpp:100] Creating Layer conv4_3_norm_conv4_3_norm_0_split
I0602 14:34:48.696439  1395 net.cpp:434] conv4_3_norm_conv4_3_norm_0_split <- conv4_3_norm
I0602 14:34:48.696444  1395 net.cpp:408] conv4_3_norm_conv4_3_norm_0_split -> conv4_3_norm_conv4_3_norm_0_split_0
I0602 14:34:48.696449  1395 net.cpp:408] conv4_3_norm_conv4_3_norm_0_split -> conv4_3_norm_conv4_3_norm_0_split_1
I0602 14:34:48.696455  1395 net.cpp:408] conv4_3_norm_conv4_3_norm_0_split -> conv4_3_norm_conv4_3_norm_0_split_2
I0602 14:34:48.696496  1395 net.cpp:150] Setting up conv4_3_norm_conv4_3_norm_0_split
I0602 14:34:48.696501  1395 net.cpp:157] Top shape: 4 512 38 38 (2957312)
I0602 14:34:48.696506  1395 net.cpp:157] Top shape: 4 512 38 38 (2957312)
I0602 14:34:48.696507  1395 net.cpp:157] Top shape: 4 512 38 38 (2957312)
I0602 14:34:48.696509  1395 net.cpp:165] Memory required for data: 988438560
I0602 14:34:48.696511  1395 layer_factory.hpp:77] Creating layer conv4_3_norm_mbox_loc
I0602 14:34:48.696518  1395 net.cpp:100] Creating Layer conv4_3_norm_mbox_loc
I0602 14:34:48.696522  1395 net.cpp:434] conv4_3_norm_mbox_loc <- conv4_3_norm_conv4_3_norm_0_split_0
I0602 14:34:48.696527  1395 net.cpp:408] conv4_3_norm_mbox_loc -> conv4_3_norm_mbox_loc
I0602 14:34:48.698529  1395 net.cpp:150] Setting up conv4_3_norm_mbox_loc
I0602 14:34:48.698539  1395 net.cpp:157] Top shape: 4 16 38 38 (92416)
I0602 14:34:48.698541  1395 net.cpp:165] Memory required for data: 988808224
I0602 14:34:48.698545  1395 layer_factory.hpp:77] Creating layer conv4_3_norm_mbox_loc_perm
I0602 14:34:48.698552  1395 net.cpp:100] Creating Layer conv4_3_norm_mbox_loc_perm
I0602 14:34:48.698566  1395 net.cpp:434] conv4_3_norm_mbox_loc_perm <- conv4_3_norm_mbox_loc
I0602 14:34:48.698571  1395 net.cpp:408] conv4_3_norm_mbox_loc_perm -> conv4_3_norm_mbox_loc_perm
I0602 14:34:48.698674  1395 net.cpp:150] Setting up conv4_3_norm_mbox_loc_perm
I0602 14:34:48.698680  1395 net.cpp:157] Top shape: 4 38 38 16 (92416)
I0602 14:34:48.698683  1395 net.cpp:165] Memory required for data: 989177888
I0602 14:34:48.698684  1395 layer_factory.hpp:77] Creating layer conv4_3_norm_mbox_loc_flat
I0602 14:34:48.698689  1395 net.cpp:100] Creating Layer conv4_3_norm_mbox_loc_flat
I0602 14:34:48.698691  1395 net.cpp:434] conv4_3_norm_mbox_loc_flat <- conv4_3_norm_mbox_loc_perm
I0602 14:34:48.698696  1395 net.cpp:408] conv4_3_norm_mbox_loc_flat -> conv4_3_norm_mbox_loc_flat
I0602 14:34:48.698724  1395 net.cpp:150] Setting up conv4_3_norm_mbox_loc_flat
I0602 14:34:48.698729  1395 net.cpp:157] Top shape: 4 23104 (92416)
I0602 14:34:48.698731  1395 net.cpp:165] Memory required for data: 989547552
I0602 14:34:48.698734  1395 layer_factory.hpp:77] Creating layer conv4_3_norm_mbox_conf
I0602 14:34:48.698746  1395 net.cpp:100] Creating Layer conv4_3_norm_mbox_conf
I0602 14:34:48.698750  1395 net.cpp:434] conv4_3_norm_mbox_conf <- conv4_3_norm_conv4_3_norm_0_split_1
I0602 14:34:48.698753  1395 net.cpp:408] conv4_3_norm_mbox_conf -> conv4_3_norm_mbox_conf
I0602 14:34:48.700770  1395 net.cpp:150] Setting up conv4_3_norm_mbox_conf
I0602 14:34:48.700780  1395 net.cpp:157] Top shape: 4 16 38 38 (92416)
I0602 14:34:48.700783  1395 net.cpp:165] Memory required for data: 989917216
I0602 14:34:48.700788  1395 layer_factory.hpp:77] Creating layer conv4_3_norm_mbox_conf_perm
I0602 14:34:48.700793  1395 net.cpp:100] Creating Layer conv4_3_norm_mbox_conf_perm
I0602 14:34:48.700798  1395 net.cpp:434] conv4_3_norm_mbox_conf_perm <- conv4_3_norm_mbox_conf
I0602 14:34:48.700803  1395 net.cpp:408] conv4_3_norm_mbox_conf_perm -> conv4_3_norm_mbox_conf_perm
I0602 14:34:48.700903  1395 net.cpp:150] Setting up conv4_3_norm_mbox_conf_perm
I0602 14:34:48.700908  1395 net.cpp:157] Top shape: 4 38 38 16 (92416)
I0602 14:34:48.700911  1395 net.cpp:165] Memory required for data: 990286880
I0602 14:34:48.700913  1395 layer_factory.hpp:77] Creating layer conv4_3_norm_mbox_conf_flat
I0602 14:34:48.700917  1395 net.cpp:100] Creating Layer conv4_3_norm_mbox_conf_flat
I0602 14:34:48.700919  1395 net.cpp:434] conv4_3_norm_mbox_conf_flat <- conv4_3_norm_mbox_conf_perm
I0602 14:34:48.700923  1395 net.cpp:408] conv4_3_norm_mbox_conf_flat -> conv4_3_norm_mbox_conf_flat
I0602 14:34:48.700944  1395 net.cpp:150] Setting up conv4_3_norm_mbox_conf_flat
I0602 14:34:48.700949  1395 net.cpp:157] Top shape: 4 23104 (92416)
I0602 14:34:48.700950  1395 net.cpp:165] Memory required for data: 990656544
I0602 14:34:48.700953  1395 layer_factory.hpp:77] Creating layer conv4_3_norm_mbox_priorbox
I0602 14:34:48.700958  1395 net.cpp:100] Creating Layer conv4_3_norm_mbox_priorbox
I0602 14:34:48.700960  1395 net.cpp:434] conv4_3_norm_mbox_priorbox <- conv4_3_norm_conv4_3_norm_0_split_2
I0602 14:34:48.700963  1395 net.cpp:434] conv4_3_norm_mbox_priorbox <- data_data_0_split_1
I0602 14:34:48.700968  1395 net.cpp:408] conv4_3_norm_mbox_priorbox -> conv4_3_norm_mbox_priorbox
I0602 14:34:48.700992  1395 net.cpp:150] Setting up conv4_3_norm_mbox_priorbox
I0602 14:34:48.700997  1395 net.cpp:157] Top shape: 1 2 23104 (46208)
I0602 14:34:48.700999  1395 net.cpp:165] Memory required for data: 990841376
I0602 14:34:48.701001  1395 layer_factory.hpp:77] Creating layer fc7_mbox_loc
I0602 14:34:48.701009  1395 net.cpp:100] Creating Layer fc7_mbox_loc
I0602 14:34:48.701011  1395 net.cpp:434] fc7_mbox_loc <- fc7_relu7_0_split_1
I0602 14:34:48.701016  1395 net.cpp:408] fc7_mbox_loc -> fc7_mbox_loc
I0602 14:34:48.703618  1395 net.cpp:150] Setting up fc7_mbox_loc
I0602 14:34:48.703626  1395 net.cpp:157] Top shape: 4 24 19 19 (34656)
I0602 14:34:48.703629  1395 net.cpp:165] Memory required for data: 990980000
I0602 14:34:48.703634  1395 layer_factory.hpp:77] Creating layer fc7_mbox_loc_perm
I0602 14:34:48.703639  1395 net.cpp:100] Creating Layer fc7_mbox_loc_perm
I0602 14:34:48.703651  1395 net.cpp:434] fc7_mbox_loc_perm <- fc7_mbox_loc
I0602 14:34:48.703657  1395 net.cpp:408] fc7_mbox_loc_perm -> fc7_mbox_loc_perm
I0602 14:34:48.703764  1395 net.cpp:150] Setting up fc7_mbox_loc_perm
I0602 14:34:48.703770  1395 net.cpp:157] Top shape: 4 19 19 24 (34656)
I0602 14:34:48.703774  1395 net.cpp:165] Memory required for data: 991118624
I0602 14:34:48.703776  1395 layer_factory.hpp:77] Creating layer fc7_mbox_loc_flat
I0602 14:34:48.703780  1395 net.cpp:100] Creating Layer fc7_mbox_loc_flat
I0602 14:34:48.703783  1395 net.cpp:434] fc7_mbox_loc_flat <- fc7_mbox_loc_perm
I0602 14:34:48.703788  1395 net.cpp:408] fc7_mbox_loc_flat -> fc7_mbox_loc_flat
I0602 14:34:48.703807  1395 net.cpp:150] Setting up fc7_mbox_loc_flat
I0602 14:34:48.703812  1395 net.cpp:157] Top shape: 4 8664 (34656)
I0602 14:34:48.703815  1395 net.cpp:165] Memory required for data: 991257248
I0602 14:34:48.703819  1395 layer_factory.hpp:77] Creating layer fc7_mbox_conf
I0602 14:34:48.703824  1395 net.cpp:100] Creating Layer fc7_mbox_conf
I0602 14:34:48.703826  1395 net.cpp:434] fc7_mbox_conf <- fc7_relu7_0_split_2
I0602 14:34:48.703830  1395 net.cpp:408] fc7_mbox_conf -> fc7_mbox_conf
I0602 14:34:48.706571  1395 net.cpp:150] Setting up fc7_mbox_conf
I0602 14:34:48.706581  1395 net.cpp:157] Top shape: 4 24 19 19 (34656)
I0602 14:34:48.706584  1395 net.cpp:165] Memory required for data: 991395872
I0602 14:34:48.706588  1395 layer_factory.hpp:77] Creating layer fc7_mbox_conf_perm
I0602 14:34:48.706598  1395 net.cpp:100] Creating Layer fc7_mbox_conf_perm
I0602 14:34:48.706600  1395 net.cpp:434] fc7_mbox_conf_perm <- fc7_mbox_conf
I0602 14:34:48.706606  1395 net.cpp:408] fc7_mbox_conf_perm -> fc7_mbox_conf_perm
I0602 14:34:48.706710  1395 net.cpp:150] Setting up fc7_mbox_conf_perm
I0602 14:34:48.706717  1395 net.cpp:157] Top shape: 4 19 19 24 (34656)
I0602 14:34:48.706719  1395 net.cpp:165] Memory required for data: 991534496
I0602 14:34:48.706722  1395 layer_factory.hpp:77] Creating layer fc7_mbox_conf_flat
I0602 14:34:48.706725  1395 net.cpp:100] Creating Layer fc7_mbox_conf_flat
I0602 14:34:48.706728  1395 net.cpp:434] fc7_mbox_conf_flat <- fc7_mbox_conf_perm
I0602 14:34:48.706732  1395 net.cpp:408] fc7_mbox_conf_flat -> fc7_mbox_conf_flat
I0602 14:34:48.706753  1395 net.cpp:150] Setting up fc7_mbox_conf_flat
I0602 14:34:48.706758  1395 net.cpp:157] Top shape: 4 8664 (34656)
I0602 14:34:48.706759  1395 net.cpp:165] Memory required for data: 991673120
I0602 14:34:48.706763  1395 layer_factory.hpp:77] Creating layer fc7_mbox_priorbox
I0602 14:34:48.706768  1395 net.cpp:100] Creating Layer fc7_mbox_priorbox
I0602 14:34:48.706770  1395 net.cpp:434] fc7_mbox_priorbox <- fc7_relu7_0_split_3
I0602 14:34:48.706774  1395 net.cpp:434] fc7_mbox_priorbox <- data_data_0_split_2
I0602 14:34:48.706779  1395 net.cpp:408] fc7_mbox_priorbox -> fc7_mbox_priorbox
I0602 14:34:48.706804  1395 net.cpp:150] Setting up fc7_mbox_priorbox
I0602 14:34:48.706810  1395 net.cpp:157] Top shape: 1 2 8664 (17328)
I0602 14:34:48.706814  1395 net.cpp:165] Memory required for data: 991742432
I0602 14:34:48.706815  1395 layer_factory.hpp:77] Creating layer conv6_2_mbox_loc
I0602 14:34:48.706823  1395 net.cpp:100] Creating Layer conv6_2_mbox_loc
I0602 14:34:48.706826  1395 net.cpp:434] conv6_2_mbox_loc <- conv6_2_conv6_2_relu_0_split_1
I0602 14:34:48.706831  1395 net.cpp:408] conv6_2_mbox_loc -> conv6_2_mbox_loc
I0602 14:34:48.708977  1395 net.cpp:150] Setting up conv6_2_mbox_loc
I0602 14:34:48.708988  1395 net.cpp:157] Top shape: 4 24 10 10 (9600)
I0602 14:34:48.708991  1395 net.cpp:165] Memory required for data: 991780832
I0602 14:34:48.708997  1395 layer_factory.hpp:77] Creating layer conv6_2_mbox_loc_perm
I0602 14:34:48.709002  1395 net.cpp:100] Creating Layer conv6_2_mbox_loc_perm
I0602 14:34:48.709005  1395 net.cpp:434] conv6_2_mbox_loc_perm <- conv6_2_mbox_loc
I0602 14:34:48.709012  1395 net.cpp:408] conv6_2_mbox_loc_perm -> conv6_2_mbox_loc_perm
I0602 14:34:48.709116  1395 net.cpp:150] Setting up conv6_2_mbox_loc_perm
I0602 14:34:48.709130  1395 net.cpp:157] Top shape: 4 10 10 24 (9600)
I0602 14:34:48.709132  1395 net.cpp:165] Memory required for data: 991819232
I0602 14:34:48.709134  1395 layer_factory.hpp:77] Creating layer conv6_2_mbox_loc_flat
I0602 14:34:48.709138  1395 net.cpp:100] Creating Layer conv6_2_mbox_loc_flat
I0602 14:34:48.709141  1395 net.cpp:434] conv6_2_mbox_loc_flat <- conv6_2_mbox_loc_perm
I0602 14:34:48.709146  1395 net.cpp:408] conv6_2_mbox_loc_flat -> conv6_2_mbox_loc_flat
I0602 14:34:48.709167  1395 net.cpp:150] Setting up conv6_2_mbox_loc_flat
I0602 14:34:48.709172  1395 net.cpp:157] Top shape: 4 2400 (9600)
I0602 14:34:48.709174  1395 net.cpp:165] Memory required for data: 991857632
I0602 14:34:48.709177  1395 layer_factory.hpp:77] Creating layer conv6_2_mbox_conf
I0602 14:34:48.709182  1395 net.cpp:100] Creating Layer conv6_2_mbox_conf
I0602 14:34:48.709187  1395 net.cpp:434] conv6_2_mbox_conf <- conv6_2_conv6_2_relu_0_split_2
I0602 14:34:48.709192  1395 net.cpp:408] conv6_2_mbox_conf -> conv6_2_mbox_conf
I0602 14:34:48.712309  1395 net.cpp:150] Setting up conv6_2_mbox_conf
I0602 14:34:48.712326  1395 net.cpp:157] Top shape: 4 24 10 10 (9600)
I0602 14:34:48.712328  1395 net.cpp:165] Memory required for data: 991896032
I0602 14:34:48.712335  1395 layer_factory.hpp:77] Creating layer conv6_2_mbox_conf_perm
I0602 14:34:48.712342  1395 net.cpp:100] Creating Layer conv6_2_mbox_conf_perm
I0602 14:34:48.712347  1395 net.cpp:434] conv6_2_mbox_conf_perm <- conv6_2_mbox_conf
I0602 14:34:48.712352  1395 net.cpp:408] conv6_2_mbox_conf_perm -> conv6_2_mbox_conf_perm
I0602 14:34:48.712473  1395 net.cpp:150] Setting up conv6_2_mbox_conf_perm
I0602 14:34:48.712479  1395 net.cpp:157] Top shape: 4 10 10 24 (9600)
I0602 14:34:48.712481  1395 net.cpp:165] Memory required for data: 991934432
I0602 14:34:48.712484  1395 layer_factory.hpp:77] Creating layer conv6_2_mbox_conf_flat
I0602 14:34:48.712487  1395 net.cpp:100] Creating Layer conv6_2_mbox_conf_flat
I0602 14:34:48.712491  1395 net.cpp:434] conv6_2_mbox_conf_flat <- conv6_2_mbox_conf_perm
I0602 14:34:48.712494  1395 net.cpp:408] conv6_2_mbox_conf_flat -> conv6_2_mbox_conf_flat
I0602 14:34:48.712519  1395 net.cpp:150] Setting up conv6_2_mbox_conf_flat
I0602 14:34:48.712523  1395 net.cpp:157] Top shape: 4 2400 (9600)
I0602 14:34:48.712525  1395 net.cpp:165] Memory required for data: 991972832
I0602 14:34:48.712527  1395 layer_factory.hpp:77] Creating layer conv6_2_mbox_priorbox
I0602 14:34:48.712533  1395 net.cpp:100] Creating Layer conv6_2_mbox_priorbox
I0602 14:34:48.712535  1395 net.cpp:434] conv6_2_mbox_priorbox <- conv6_2_conv6_2_relu_0_split_3
I0602 14:34:48.712539  1395 net.cpp:434] conv6_2_mbox_priorbox <- data_data_0_split_3
I0602 14:34:48.712544  1395 net.cpp:408] conv6_2_mbox_priorbox -> conv6_2_mbox_priorbox
I0602 14:34:48.712573  1395 net.cpp:150] Setting up conv6_2_mbox_priorbox
I0602 14:34:48.712577  1395 net.cpp:157] Top shape: 1 2 2400 (4800)
I0602 14:34:48.712579  1395 net.cpp:165] Memory required for data: 991992032
I0602 14:34:48.712581  1395 layer_factory.hpp:77] Creating layer conv7_2_mbox_loc
I0602 14:34:48.712589  1395 net.cpp:100] Creating Layer conv7_2_mbox_loc
I0602 14:34:48.712592  1395 net.cpp:434] conv7_2_mbox_loc <- conv7_2_conv7_2_relu_0_split_1
I0602 14:34:48.712597  1395 net.cpp:408] conv7_2_mbox_loc -> conv7_2_mbox_loc
I0602 14:34:48.714156  1395 net.cpp:150] Setting up conv7_2_mbox_loc
I0602 14:34:48.714165  1395 net.cpp:157] Top shape: 4 24 5 5 (2400)
I0602 14:34:48.714169  1395 net.cpp:165] Memory required for data: 992001632
I0602 14:34:48.714174  1395 layer_factory.hpp:77] Creating layer conv7_2_mbox_loc_perm
I0602 14:34:48.714179  1395 net.cpp:100] Creating Layer conv7_2_mbox_loc_perm
I0602 14:34:48.714182  1395 net.cpp:434] conv7_2_mbox_loc_perm <- conv7_2_mbox_loc
I0602 14:34:48.714186  1395 net.cpp:408] conv7_2_mbox_loc_perm -> conv7_2_mbox_loc_perm
I0602 14:34:48.714292  1395 net.cpp:150] Setting up conv7_2_mbox_loc_perm
I0602 14:34:48.714296  1395 net.cpp:157] Top shape: 4 5 5 24 (2400)
I0602 14:34:48.714298  1395 net.cpp:165] Memory required for data: 992011232
I0602 14:34:48.714309  1395 layer_factory.hpp:77] Creating layer conv7_2_mbox_loc_flat
I0602 14:34:48.714315  1395 net.cpp:100] Creating Layer conv7_2_mbox_loc_flat
I0602 14:34:48.714318  1395 net.cpp:434] conv7_2_mbox_loc_flat <- conv7_2_mbox_loc_perm
I0602 14:34:48.714321  1395 net.cpp:408] conv7_2_mbox_loc_flat -> conv7_2_mbox_loc_flat
I0602 14:34:48.714345  1395 net.cpp:150] Setting up conv7_2_mbox_loc_flat
I0602 14:34:48.714349  1395 net.cpp:157] Top shape: 4 600 (2400)
I0602 14:34:48.714351  1395 net.cpp:165] Memory required for data: 992020832
I0602 14:34:48.714354  1395 layer_factory.hpp:77] Creating layer conv7_2_mbox_conf
I0602 14:34:48.714360  1395 net.cpp:100] Creating Layer conv7_2_mbox_conf
I0602 14:34:48.714363  1395 net.cpp:434] conv7_2_mbox_conf <- conv7_2_conv7_2_relu_0_split_2
I0602 14:34:48.714370  1395 net.cpp:408] conv7_2_mbox_conf -> conv7_2_mbox_conf
I0602 14:34:48.716260  1395 net.cpp:150] Setting up conv7_2_mbox_conf
I0602 14:34:48.716271  1395 net.cpp:157] Top shape: 4 24 5 5 (2400)
I0602 14:34:48.716274  1395 net.cpp:165] Memory required for data: 992030432
I0602 14:34:48.716279  1395 layer_factory.hpp:77] Creating layer conv7_2_mbox_conf_perm
I0602 14:34:48.716284  1395 net.cpp:100] Creating Layer conv7_2_mbox_conf_perm
I0602 14:34:48.716289  1395 net.cpp:434] conv7_2_mbox_conf_perm <- conv7_2_mbox_conf
I0602 14:34:48.716294  1395 net.cpp:408] conv7_2_mbox_conf_perm -> conv7_2_mbox_conf_perm
I0602 14:34:48.716398  1395 net.cpp:150] Setting up conv7_2_mbox_conf_perm
I0602 14:34:48.716403  1395 net.cpp:157] Top shape: 4 5 5 24 (2400)
I0602 14:34:48.716405  1395 net.cpp:165] Memory required for data: 992040032
I0602 14:34:48.716408  1395 layer_factory.hpp:77] Creating layer conv7_2_mbox_conf_flat
I0602 14:34:48.716411  1395 net.cpp:100] Creating Layer conv7_2_mbox_conf_flat
I0602 14:34:48.716414  1395 net.cpp:434] conv7_2_mbox_conf_flat <- conv7_2_mbox_conf_perm
I0602 14:34:48.716418  1395 net.cpp:408] conv7_2_mbox_conf_flat -> conv7_2_mbox_conf_flat
I0602 14:34:48.716440  1395 net.cpp:150] Setting up conv7_2_mbox_conf_flat
I0602 14:34:48.716444  1395 net.cpp:157] Top shape: 4 600 (2400)
I0602 14:34:48.716446  1395 net.cpp:165] Memory required for data: 992049632
I0602 14:34:48.716449  1395 layer_factory.hpp:77] Creating layer conv7_2_mbox_priorbox
I0602 14:34:48.716454  1395 net.cpp:100] Creating Layer conv7_2_mbox_priorbox
I0602 14:34:48.716457  1395 net.cpp:434] conv7_2_mbox_priorbox <- conv7_2_conv7_2_relu_0_split_3
I0602 14:34:48.716461  1395 net.cpp:434] conv7_2_mbox_priorbox <- data_data_0_split_4
I0602 14:34:48.716465  1395 net.cpp:408] conv7_2_mbox_priorbox -> conv7_2_mbox_priorbox
I0602 14:34:48.716490  1395 net.cpp:150] Setting up conv7_2_mbox_priorbox
I0602 14:34:48.716495  1395 net.cpp:157] Top shape: 1 2 600 (1200)
I0602 14:34:48.716497  1395 net.cpp:165] Memory required for data: 992054432
I0602 14:34:48.716500  1395 layer_factory.hpp:77] Creating layer conv8_2_mbox_loc
I0602 14:34:48.716506  1395 net.cpp:100] Creating Layer conv8_2_mbox_loc
I0602 14:34:48.716509  1395 net.cpp:434] conv8_2_mbox_loc <- conv8_2_conv8_2_relu_0_split_1
I0602 14:34:48.716516  1395 net.cpp:408] conv8_2_mbox_loc -> conv8_2_mbox_loc
I0602 14:34:48.718284  1395 net.cpp:150] Setting up conv8_2_mbox_loc
I0602 14:34:48.718293  1395 net.cpp:157] Top shape: 4 16 3 3 (576)
I0602 14:34:48.718296  1395 net.cpp:165] Memory required for data: 992056736
I0602 14:34:48.718307  1395 layer_factory.hpp:77] Creating layer conv8_2_mbox_loc_perm
I0602 14:34:48.718314  1395 net.cpp:100] Creating Layer conv8_2_mbox_loc_perm
I0602 14:34:48.718317  1395 net.cpp:434] conv8_2_mbox_loc_perm <- conv8_2_mbox_loc
I0602 14:34:48.718322  1395 net.cpp:408] conv8_2_mbox_loc_perm -> conv8_2_mbox_loc_perm
I0602 14:34:48.718428  1395 net.cpp:150] Setting up conv8_2_mbox_loc_perm
I0602 14:34:48.718433  1395 net.cpp:157] Top shape: 4 3 3 16 (576)
I0602 14:34:48.718436  1395 net.cpp:165] Memory required for data: 992059040
I0602 14:34:48.718437  1395 layer_factory.hpp:77] Creating layer conv8_2_mbox_loc_flat
I0602 14:34:48.718449  1395 net.cpp:100] Creating Layer conv8_2_mbox_loc_flat
I0602 14:34:48.718453  1395 net.cpp:434] conv8_2_mbox_loc_flat <- conv8_2_mbox_loc_perm
I0602 14:34:48.718458  1395 net.cpp:408] conv8_2_mbox_loc_flat -> conv8_2_mbox_loc_flat
I0602 14:34:48.718482  1395 net.cpp:150] Setting up conv8_2_mbox_loc_flat
I0602 14:34:48.718485  1395 net.cpp:157] Top shape: 4 144 (576)
I0602 14:34:48.718487  1395 net.cpp:165] Memory required for data: 992061344
I0602 14:34:48.718490  1395 layer_factory.hpp:77] Creating layer conv8_2_mbox_conf
I0602 14:34:48.718497  1395 net.cpp:100] Creating Layer conv8_2_mbox_conf
I0602 14:34:48.718499  1395 net.cpp:434] conv8_2_mbox_conf <- conv8_2_conv8_2_relu_0_split_2
I0602 14:34:48.718504  1395 net.cpp:408] conv8_2_mbox_conf -> conv8_2_mbox_conf
I0602 14:34:48.720351  1395 net.cpp:150] Setting up conv8_2_mbox_conf
I0602 14:34:48.720362  1395 net.cpp:157] Top shape: 4 16 3 3 (576)
I0602 14:34:48.720365  1395 net.cpp:165] Memory required for data: 992063648
I0602 14:34:48.720369  1395 layer_factory.hpp:77] Creating layer conv8_2_mbox_conf_perm
I0602 14:34:48.720377  1395 net.cpp:100] Creating Layer conv8_2_mbox_conf_perm
I0602 14:34:48.720381  1395 net.cpp:434] conv8_2_mbox_conf_perm <- conv8_2_mbox_conf
I0602 14:34:48.720386  1395 net.cpp:408] conv8_2_mbox_conf_perm -> conv8_2_mbox_conf_perm
I0602 14:34:48.720490  1395 net.cpp:150] Setting up conv8_2_mbox_conf_perm
I0602 14:34:48.720496  1395 net.cpp:157] Top shape: 4 3 3 16 (576)
I0602 14:34:48.720499  1395 net.cpp:165] Memory required for data: 992065952
I0602 14:34:48.720499  1395 layer_factory.hpp:77] Creating layer conv8_2_mbox_conf_flat
I0602 14:34:48.720504  1395 net.cpp:100] Creating Layer conv8_2_mbox_conf_flat
I0602 14:34:48.720507  1395 net.cpp:434] conv8_2_mbox_conf_flat <- conv8_2_mbox_conf_perm
I0602 14:34:48.720511  1395 net.cpp:408] conv8_2_mbox_conf_flat -> conv8_2_mbox_conf_flat
I0602 14:34:48.720533  1395 net.cpp:150] Setting up conv8_2_mbox_conf_flat
I0602 14:34:48.720537  1395 net.cpp:157] Top shape: 4 144 (576)
I0602 14:34:48.720540  1395 net.cpp:165] Memory required for data: 992068256
I0602 14:34:48.720541  1395 layer_factory.hpp:77] Creating layer conv8_2_mbox_priorbox
I0602 14:34:48.720547  1395 net.cpp:100] Creating Layer conv8_2_mbox_priorbox
I0602 14:34:48.720551  1395 net.cpp:434] conv8_2_mbox_priorbox <- conv8_2_conv8_2_relu_0_split_3
I0602 14:34:48.720553  1395 net.cpp:434] conv8_2_mbox_priorbox <- data_data_0_split_5
I0602 14:34:48.720559  1395 net.cpp:408] conv8_2_mbox_priorbox -> conv8_2_mbox_priorbox
I0602 14:34:48.720583  1395 net.cpp:150] Setting up conv8_2_mbox_priorbox
I0602 14:34:48.720588  1395 net.cpp:157] Top shape: 1 2 144 (288)
I0602 14:34:48.720592  1395 net.cpp:165] Memory required for data: 992069408
I0602 14:34:48.720593  1395 layer_factory.hpp:77] Creating layer conv9_2_mbox_loc
I0602 14:34:48.720602  1395 net.cpp:100] Creating Layer conv9_2_mbox_loc
I0602 14:34:48.720605  1395 net.cpp:434] conv9_2_mbox_loc <- conv9_2_conv9_2_relu_0_split_0
I0602 14:34:48.720609  1395 net.cpp:408] conv9_2_mbox_loc -> conv9_2_mbox_loc
I0602 14:34:48.722879  1395 net.cpp:150] Setting up conv9_2_mbox_loc
I0602 14:34:48.722888  1395 net.cpp:157] Top shape: 4 16 1 1 (64)
I0602 14:34:48.722892  1395 net.cpp:165] Memory required for data: 992069664
I0602 14:34:48.722896  1395 layer_factory.hpp:77] Creating layer conv9_2_mbox_loc_perm
I0602 14:34:48.722901  1395 net.cpp:100] Creating Layer conv9_2_mbox_loc_perm
I0602 14:34:48.722905  1395 net.cpp:434] conv9_2_mbox_loc_perm <- conv9_2_mbox_loc
I0602 14:34:48.722910  1395 net.cpp:408] conv9_2_mbox_loc_perm -> conv9_2_mbox_loc_perm
I0602 14:34:48.723011  1395 net.cpp:150] Setting up conv9_2_mbox_loc_perm
I0602 14:34:48.723016  1395 net.cpp:157] Top shape: 4 1 1 16 (64)
I0602 14:34:48.723018  1395 net.cpp:165] Memory required for data: 992069920
I0602 14:34:48.723021  1395 layer_factory.hpp:77] Creating layer conv9_2_mbox_loc_flat
I0602 14:34:48.723026  1395 net.cpp:100] Creating Layer conv9_2_mbox_loc_flat
I0602 14:34:48.723028  1395 net.cpp:434] conv9_2_mbox_loc_flat <- conv9_2_mbox_loc_perm
I0602 14:34:48.723042  1395 net.cpp:408] conv9_2_mbox_loc_flat -> conv9_2_mbox_loc_flat
I0602 14:34:48.723064  1395 net.cpp:150] Setting up conv9_2_mbox_loc_flat
I0602 14:34:48.723069  1395 net.cpp:157] Top shape: 4 16 (64)
I0602 14:34:48.723071  1395 net.cpp:165] Memory required for data: 992070176
I0602 14:34:48.723073  1395 layer_factory.hpp:77] Creating layer conv9_2_mbox_conf
I0602 14:34:48.723079  1395 net.cpp:100] Creating Layer conv9_2_mbox_conf
I0602 14:34:48.723083  1395 net.cpp:434] conv9_2_mbox_conf <- conv9_2_conv9_2_relu_0_split_1
I0602 14:34:48.723089  1395 net.cpp:408] conv9_2_mbox_conf -> conv9_2_mbox_conf
I0602 14:34:48.724903  1395 net.cpp:150] Setting up conv9_2_mbox_conf
I0602 14:34:48.724913  1395 net.cpp:157] Top shape: 4 16 1 1 (64)
I0602 14:34:48.724915  1395 net.cpp:165] Memory required for data: 992070432
I0602 14:34:48.724920  1395 layer_factory.hpp:77] Creating layer conv9_2_mbox_conf_perm
I0602 14:34:48.724927  1395 net.cpp:100] Creating Layer conv9_2_mbox_conf_perm
I0602 14:34:48.724931  1395 net.cpp:434] conv9_2_mbox_conf_perm <- conv9_2_mbox_conf
I0602 14:34:48.724936  1395 net.cpp:408] conv9_2_mbox_conf_perm -> conv9_2_mbox_conf_perm
I0602 14:34:48.725040  1395 net.cpp:150] Setting up conv9_2_mbox_conf_perm
I0602 14:34:48.725047  1395 net.cpp:157] Top shape: 4 1 1 16 (64)
I0602 14:34:48.725049  1395 net.cpp:165] Memory required for data: 992070688
I0602 14:34:48.725052  1395 layer_factory.hpp:77] Creating layer conv9_2_mbox_conf_flat
I0602 14:34:48.725055  1395 net.cpp:100] Creating Layer conv9_2_mbox_conf_flat
I0602 14:34:48.725059  1395 net.cpp:434] conv9_2_mbox_conf_flat <- conv9_2_mbox_conf_perm
I0602 14:34:48.725062  1395 net.cpp:408] conv9_2_mbox_conf_flat -> conv9_2_mbox_conf_flat
I0602 14:34:48.725085  1395 net.cpp:150] Setting up conv9_2_mbox_conf_flat
I0602 14:34:48.725090  1395 net.cpp:157] Top shape: 4 16 (64)
I0602 14:34:48.725091  1395 net.cpp:165] Memory required for data: 992070944
I0602 14:34:48.725093  1395 layer_factory.hpp:77] Creating layer conv9_2_mbox_priorbox
I0602 14:34:48.725098  1395 net.cpp:100] Creating Layer conv9_2_mbox_priorbox
I0602 14:34:48.725101  1395 net.cpp:434] conv9_2_mbox_priorbox <- conv9_2_conv9_2_relu_0_split_2
I0602 14:34:48.725105  1395 net.cpp:434] conv9_2_mbox_priorbox <- data_data_0_split_6
I0602 14:34:48.725109  1395 net.cpp:408] conv9_2_mbox_priorbox -> conv9_2_mbox_priorbox
I0602 14:34:48.725133  1395 net.cpp:150] Setting up conv9_2_mbox_priorbox
I0602 14:34:48.725138  1395 net.cpp:157] Top shape: 1 2 16 (32)
I0602 14:34:48.725141  1395 net.cpp:165] Memory required for data: 992071072
I0602 14:34:48.725142  1395 layer_factory.hpp:77] Creating layer mbox_loc
I0602 14:34:48.725147  1395 net.cpp:100] Creating Layer mbox_loc
I0602 14:34:48.725152  1395 net.cpp:434] mbox_loc <- conv4_3_norm_mbox_loc_flat
I0602 14:34:48.725155  1395 net.cpp:434] mbox_loc <- fc7_mbox_loc_flat
I0602 14:34:48.725159  1395 net.cpp:434] mbox_loc <- conv6_2_mbox_loc_flat
I0602 14:34:48.725163  1395 net.cpp:434] mbox_loc <- conv7_2_mbox_loc_flat
I0602 14:34:48.725165  1395 net.cpp:434] mbox_loc <- conv8_2_mbox_loc_flat
I0602 14:34:48.725168  1395 net.cpp:434] mbox_loc <- conv9_2_mbox_loc_flat
I0602 14:34:48.725172  1395 net.cpp:408] mbox_loc -> mbox_loc
I0602 14:34:48.725196  1395 net.cpp:150] Setting up mbox_loc
I0602 14:34:48.725200  1395 net.cpp:157] Top shape: 4 34928 (139712)
I0602 14:34:48.725203  1395 net.cpp:165] Memory required for data: 992629920
I0602 14:34:48.725204  1395 layer_factory.hpp:77] Creating layer mbox_conf
I0602 14:34:48.725208  1395 net.cpp:100] Creating Layer mbox_conf
I0602 14:34:48.725211  1395 net.cpp:434] mbox_conf <- conv4_3_norm_mbox_conf_flat
I0602 14:34:48.725214  1395 net.cpp:434] mbox_conf <- fc7_mbox_conf_flat
I0602 14:34:48.725217  1395 net.cpp:434] mbox_conf <- conv6_2_mbox_conf_flat
I0602 14:34:48.725221  1395 net.cpp:434] mbox_conf <- conv7_2_mbox_conf_flat
I0602 14:34:48.725224  1395 net.cpp:434] mbox_conf <- conv8_2_mbox_conf_flat
I0602 14:34:48.725226  1395 net.cpp:434] mbox_conf <- conv9_2_mbox_conf_flat
I0602 14:34:48.725237  1395 net.cpp:408] mbox_conf -> mbox_conf
I0602 14:34:48.725261  1395 net.cpp:150] Setting up mbox_conf
I0602 14:34:48.725265  1395 net.cpp:157] Top shape: 4 34928 (139712)
I0602 14:34:48.725267  1395 net.cpp:165] Memory required for data: 993188768
I0602 14:34:48.725270  1395 layer_factory.hpp:77] Creating layer mbox_priorbox
I0602 14:34:48.725273  1395 net.cpp:100] Creating Layer mbox_priorbox
I0602 14:34:48.725276  1395 net.cpp:434] mbox_priorbox <- conv4_3_norm_mbox_priorbox
I0602 14:34:48.725280  1395 net.cpp:434] mbox_priorbox <- fc7_mbox_priorbox
I0602 14:34:48.725281  1395 net.cpp:434] mbox_priorbox <- conv6_2_mbox_priorbox
I0602 14:34:48.725284  1395 net.cpp:434] mbox_priorbox <- conv7_2_mbox_priorbox
I0602 14:34:48.725287  1395 net.cpp:434] mbox_priorbox <- conv8_2_mbox_priorbox
I0602 14:34:48.725289  1395 net.cpp:434] mbox_priorbox <- conv9_2_mbox_priorbox
I0602 14:34:48.725292  1395 net.cpp:408] mbox_priorbox -> mbox_priorbox
I0602 14:34:48.725314  1395 net.cpp:150] Setting up mbox_priorbox
I0602 14:34:48.725319  1395 net.cpp:157] Top shape: 1 2 34928 (69856)
I0602 14:34:48.725322  1395 net.cpp:165] Memory required for data: 993468192
I0602 14:34:48.725322  1395 layer_factory.hpp:77] Creating layer mbox_conf_reshape
I0602 14:34:48.725328  1395 net.cpp:100] Creating Layer mbox_conf_reshape
I0602 14:34:48.725330  1395 net.cpp:434] mbox_conf_reshape <- mbox_conf
I0602 14:34:48.725334  1395 net.cpp:408] mbox_conf_reshape -> mbox_conf_reshape
I0602 14:34:48.725361  1395 net.cpp:150] Setting up mbox_conf_reshape
I0602 14:34:48.725368  1395 net.cpp:157] Top shape: 4 8732 4 (139712)
I0602 14:34:48.725369  1395 net.cpp:165] Memory required for data: 994027040
I0602 14:34:48.725371  1395 layer_factory.hpp:77] Creating layer mbox_conf_softmax
I0602 14:34:48.725376  1395 net.cpp:100] Creating Layer mbox_conf_softmax
I0602 14:34:48.725379  1395 net.cpp:434] mbox_conf_softmax <- mbox_conf_reshape
I0602 14:34:48.725383  1395 net.cpp:408] mbox_conf_softmax -> mbox_conf_softmax
I0602 14:34:48.725586  1395 net.cpp:150] Setting up mbox_conf_softmax
I0602 14:34:48.725592  1395 net.cpp:157] Top shape: 4 8732 4 (139712)
I0602 14:34:48.725596  1395 net.cpp:165] Memory required for data: 994585888
I0602 14:34:48.725599  1395 layer_factory.hpp:77] Creating layer mbox_conf_flatten
I0602 14:34:48.725602  1395 net.cpp:100] Creating Layer mbox_conf_flatten
I0602 14:34:48.725605  1395 net.cpp:434] mbox_conf_flatten <- mbox_conf_softmax
I0602 14:34:48.725608  1395 net.cpp:408] mbox_conf_flatten -> mbox_conf_flatten
I0602 14:34:48.725631  1395 net.cpp:150] Setting up mbox_conf_flatten
I0602 14:34:48.725636  1395 net.cpp:157] Top shape: 4 34928 (139712)
I0602 14:34:48.725638  1395 net.cpp:165] Memory required for data: 995144736
I0602 14:34:48.725641  1395 layer_factory.hpp:77] Creating layer detection_out
I0602 14:34:48.725649  1395 net.cpp:100] Creating Layer detection_out
I0602 14:34:48.725653  1395 net.cpp:434] detection_out <- mbox_loc
I0602 14:34:48.725656  1395 net.cpp:434] detection_out <- mbox_conf_flatten
I0602 14:34:48.725659  1395 net.cpp:434] detection_out <- mbox_priorbox
I0602 14:34:48.725663  1395 net.cpp:408] detection_out -> detection_out
I0602 14:34:48.726805  1395 net.cpp:150] Setting up detection_out
I0602 14:34:48.726814  1395 net.cpp:157] Top shape: 1 1 1 7 (7)
I0602 14:34:48.726816  1395 net.cpp:165] Memory required for data: 995144764
I0602 14:34:48.726819  1395 layer_factory.hpp:77] Creating layer detection_eval
I0602 14:34:48.726826  1395 net.cpp:100] Creating Layer detection_eval
I0602 14:34:48.726830  1395 net.cpp:434] detection_eval <- detection_out
I0602 14:34:48.726835  1395 net.cpp:434] detection_eval <- label
I0602 14:34:48.726837  1395 net.cpp:408] detection_eval -> detection_eval
I0602 14:34:48.727566  1395 net.cpp:150] Setting up detection_eval
I0602 14:34:48.727572  1395 net.cpp:157] Top shape: 1 1 4 5 (20)
I0602 14:34:48.727576  1395 net.cpp:165] Memory required for data: 995144844
I0602 14:34:48.727578  1395 net.cpp:228] detection_eval does not need backward computation.
I0602 14:34:48.727587  1395 net.cpp:228] detection_out does not need backward computation.
I0602 14:34:48.727591  1395 net.cpp:228] mbox_conf_flatten does not need backward computation.
I0602 14:34:48.727594  1395 net.cpp:228] mbox_conf_softmax does not need backward computation.
…
