…
        min_scale: 0.3
        max_scale: 1
        min_aspect_ratio: 0.5
        max_aspect_ratio: 2
      }
      sample_constraint {
        min_jaccard_overlap: 0.9
      }
      max_sample: 1
      max_trials: 50
    }
    batch_sampler {
      sampler {
        min_scale: 0.3
        max_scale: 1
        min_aspect_ratio: 0.5
        max_aspect_ratio: 2
      }
      sample_constraint {
        max_jaccard_overlap: 1
      }
      max_sample: 1
      max_trials: 50
    }
    label_map_file: "data/tbs_300x300_HSIL_10x/labelmap_tbs.prototxt"
  }
}
layer {
  name: "conv1_1"
  type: "Convolution"
  bottom: "data"
  top: "conv1_1"
  param {
    lr_mult: 1
    decay_mult: 1
  }
  param {
    lr_mult: 2
    decay_mult: 0
  }
  convolution_param {
    num_output: 64
    pad: 1
    kernel_size: 3
    weight_filler {
      type: "xavier"
    }
    bias_filler {
      type: "constant"
      value: 0
    }
  }
}
layer {
  name: "relu1_1"
  type: "ReLU"
  bottom: "conv1_1"
  top: "conv1_1"
}
layer {
  name: "conv1_2"
  type: "Convolution"
  bottom: "conv1_1"
  top: "conv1_2"
  param {
    lr_mult: 1
    decay_mult: 1
  }
  param {
    lr_mult: 2
    decay_mult: 0
  }
  convolution_param {
    num_output: 64
    pad: 1
    kernel_size: 3
    weight_filler {
      type: "xavier"
    }
    bias_filler {
      type: "constant"
      value: 0
    }
  }
}
layer {
  name: "relu1_2"
  type: "ReLU"
  bottom: "conv1_2"
  top: "conv1_2"
}
layer {
  name: "pool1"
  type: "Pooling"
  bottom: "conv1_2"
  top: "pool1"
  pooling_param {
    pool: MAX
    kernel_size: 2
    stride: 2
  }
}
layer {
  name: "conv2_1"
  type: "Convolution"
  bottom: "pool1"
  top: "conv2_1"
  param {
    lr_mult: 1
    decay_mult: 1
  }
  param {
    lr_mult: 2
    decay_mult: 0
  }
  convolution_param {
    num_output: 128
    pad: 1
    kernel_size: 3
    weight_filler {
      type: "xavier"
    }
    bias_filler {
      type: "constant"
      value: 0
    }
  }
}
layer {
  name: "relu2_1"
  type: "ReLU"
  bottom: "conv2_1"
  top: "conv2_1"
}
layer {
  name: "conv2_2"
  type: "Convolution"
  bottom: "conv2_1"
  top: "conv2_2"
  param {
    lr_mult: 1
    decay_mult: 1
  }
  param {
    lr_mult: 2
    decay_mult: 0
  }
  convolution_param {
    num_output: 128
    pad: 1
    kernel_size: 3
    weight_filler {
      type: "xavier"
    }
    bias_filler {
      type: "constant"
      value: 0
    }
  }
}
layer {
  name: "relu2_2"
  type: "ReLU"
  bottom: "conv2_2"
  top: "conv2_2"
}
layer {
  name: "pool2"
  type: "Pooling"
  bottom: "conv2_2"
  top: "pool2"
  pooling_param {
    pool: MAX
    kernel_size: 2
    stride: 2
  }
}
layer {
  name: "conv3_1"
  type: "Convolution"
  bottom: "pool2"
  top: "conv3_1"
  param {
    lr_mult: 1
    decay_mult: 1
  }
  param {
    lr_mult: 2
    decay_mult: 0
  }
  convolution_param {
    num_output: 256
    pad: 1
    kernel_size: 3
    weight_filler {
      type: "xavier"
    }
    bias_filler {
      type: "constant"
      value: 0
    }
  }
}
layer {
  name: "relu3_1"
  type: "ReLU"
  bottom: "conv3_1"
  top: "conv3_1"
}
layer {
  name: "conv3_2"
  type: "Convolution"
  bottom: "conv3_1"
  top: "conv3_2"
  param {
    lr_mult: 1
    decay_mult: 1
  }
  param {
    lr_mult: 2
    decay_mult: 0
  }
  convolution_param {
    num_output: 256
    pad: 1
    kernel_size: 3
    weight_filler {
      type: "xavier"
    }
    bias_filler {
      type: "constant"
      value: 0
    }
  }
}
layer {
  name: "relu3_2"
  type: "ReLU"
  bottom: "conv3_2"
  top: "conv3_2"
}
layer {
  name: "conv3_3"
  type: "Convolution"
  bottom: "conv3_2"
  top: "conv3_3"
  param {
    lr_mult: 1
    decay_mult: 1
  }
  param {
    lr_mult: 2
    decay_mult: 0
  }
  convolution_param {
    num_output: 256
    pad: 1
    kernel_size: 3
    weight_filler {
      type: "xavier"
    }
    bias_filler {
      type: "constant"
      value: 0
    }
  }
}
layer {
  name: "relu3_3"
  type: "ReLU"
  bottom: "conv3_3"
  top: "conv3_3"
}
layer {
  name: "pool3"
  type: "Pooling"
  bottom: "conv3_3"
  top: "pool3"
  pooling_param {
    pool: MAX
    kernel_size: 2
    stride: 2
  }
}
layer {
  name: "conv4_1"
  type: "Convolution"
  bottom: "pool3"
  top: "conv4_1"
  param {
    lr_mult: 1
    decay_mult: 1
  }
  param {
    lr_mult: 2
    decay_mult: 0
  }
  convolution_param {
    num_output: 512
    pad: 1
    kernel_size: 3
    weight_filler {
      type: "xavier"
    }
    bias_filler {
      type: "constant"
      value: 0
    }
  }
}
layer {
  name: "relu4_1"
  type: "ReLU"
  bottom: "conv4_1"
  top: "conv4_1"
}
layer {
  name: "conv4_2"
  type: "Convolution"
  bottom: "conv4_1"
  top: "conv4_2"
  param {
    lr_mult: 1
    decay_mult: 1
  }
  param {
    lr_mult: 2
    decay_mult: 0
  }
  convolution_param {
    num_output: 512
    pad: 1
    kernel_size: 3
    weight_filler {
      type: "xavier"
    }
    bias_filler {
      type: "constant"
      value: 0
    }
  }
}
layer {
  name: "relu4_2"
  type: "ReLU"
  bottom: "conv4_2"
  top: "conv4_2"
}
layer {
  name: "conv4_3"
  type: "Convolution"
  bottom: "conv4_2"
  top: "conv4_3"
  param {
    lr_mult: 1
    decay_mult: 1
  }
  param {
    lr_mult: 2
    decay_mult: 0
  }
  convolution_param {
    num_output: 512
    pad: 1
    kernel_size: 3
    weight_filler {
      type: "xavier"
    }
    bias_filler {
      type: "constant"
      value: 0
    }
  }
}
layer {
  name: "relu4_3"
  type: "ReLU"
  bottom: "conv4_3"
  top: "conv4_3"
}
layer {
  name: "pool4"
  type: "Pooling"
  bottom: "conv4_3"
  top: "pool4"
  pooling_param {
    pool: MAX
    kernel_size: 2
    stride: 2
  }
}
layer {
  name: "conv5_1"
  type: "Convolution"
  bottom: "pool4"
  top: "conv5_1"
  param {
    lr_mult: 1
    decay_mult: 1
  }
  param {
    lr_mult: 2
    decay_mult: 0
  }
  convolution_param {
    num_output: 512
    pad: 1
    kernel_size: 3
    weight_filler {
      type: "xavier"
    }
    bias_filler {
      type: "constant"
      value: 0
    }
    dilation: 1
  }
}
layer {
  name: "relu5_1"
  type: "ReLU"
  bottom: "conv5_1"
  top: "conv5_1"
}
layer {
  name: "conv5_2"
  type: "Convolution"
  bottom: "conv5_1"
  top: "conv5_2"
  param {
    lr_mult: 1
    decay_mult: 1
  }
  param {
    lr_mult: 2
    decay_mult: 0
  }
  convolution_param {
    num_output: 512
    pad: 1
    kernel_size: 3
    weight_filler {
      type: "xavier"
    }
    bias_filler {
      type: "constant"
      value: 0
    }
    dilation: 1
  }
}
layer {
  name: "relu5_2"
  type: "ReLU"
  bottom: "conv5_2"
  top: "conv5_2"
}
layer {
  name: "conv5_3"
  type: "Convolution"
  bottom: "conv5_2"
  top: "conv5_3"
  param {
    lr_mult: 1
    decay_mult: 1
  }
  param {
    lr_mult: 2
    decay_mult: 0
  }
  convolution_param {
    num_output: 512
    pad: 1
    kernel_size: 3
    weight_filler {
      type: "xavier"
    }
    bias_filler {
      type: "constant"
      value: 0
    }
    dilation: 1
  }
}
layer {
  name: "relu5_3"
  type: "ReLU"
  bottom: "conv5_3"
  top: "conv5_3"
}
layer {
  name: "pool5"
  type: "Pooling"
  bottom: "conv5_3"
  top: "pool5"
  pooling_param {
    pool: MAX
    kernel_size: 3
    stride: 1
    pad: 1
  }
}
layer {
  name: "fc6"
  type: "Convolution"
  bottom: "pool5"
  top: "fc6"
  param {
    lr_mult: 1
    decay_mult: 1
  }
  param {
    lr_mult: 2
    decay_mult: 0
  }
  convolution_param {
    num_output: 1024
    pad: 6
    kernel_size: 3
    weight_filler {
      type: "xavier"
    }
    bias_filler {
      type: "constant"
      value: 0
    }
    dilation: 6
  }
}
layer {
  name: "relu6"
  type: "ReLU"
  bottom: "fc6"
  top: "fc6"
}
layer {
  name: "fc7"
  type: "Convolution"
  bottom: "fc6"
  top: "fc7"
  param {
    lr_mult: 1
    decay_mult: 1
  }
  param {
    lr_mult: 2
    decay_mult: 0
  }
  convolution_param {
    num_output: 1024
    kernel_size: 1
    weight_filler {
      type: "xavier"
    }
    bias_filler {
      type: "constant"
      value: 0
    }
  }
}
layer {
  name: "relu7"
  type: "ReLU"
  bottom: "fc7"
  top: "fc7"
}
layer {
  name: "conv6_1"
  type: "Convolution"
  bottom: "fc7"
  top: "conv6_1"
  param {
    lr_mult: 1
    decay_mult: 1
  }
  param {
    lr_mult: 2
    decay_mult: 0
  }
  convolution_param {
    num_output: 256
    pad: 0
    kernel_size: 1
    stride: 1
    weight_filler {
      type: "xavier"
    }
    bias_filler {
      type: "constant"
      value: 0
    }
  }
}
layer {
  name: "conv6_1_relu"
  type: "ReLU"
  bottom: "conv6_1"
  top: "conv6_1"
}
layer {
  name: "conv6_2"
  type: "Convolution"
  bottom: "conv6_1"
  top: "conv6_2"
  param {
    lr_mult: 1
    decay_mult: 1
  }
  param {
    lr_mult: 2
    decay_mult: 0
  }
  convolution_param {
    num_output: 512
    pad: 1
    kernel_size: 3
    stride: 2
    weight_filler {
      type: "xavier"
    }
    bias_filler {
      type: "constant"
      value: 0
    }
  }
}
layer {
  name: "conv6_2_relu"
  type: "ReLU"
  bottom: "conv6_2"
  top: "conv6_2"
}
layer {
  name: "conv7_1"
  type: "Convolution"
  bottom: "conv6_2"
  top: "conv7_1"
  param {
    lr_mult: 1
    decay_mult: 1
  }
  param {
    lr_mult: 2
    decay_mult: 0
  }
  convolution_param {
    num_output: 128
    pad: 0
    kernel_size: 1
    stride: 1
    weight_filler {
      type: "xavier"
    }
    bias_filler {
      type: "constant"
      value: 0
    }
  }
}
layer {
  name: "conv7_1_relu"
  type: "ReLU"
  bottom: "conv7_1"
  top: "conv7_1"
}
layer {
  name: "conv7_2"
  type: "Convolution"
  bottom: "conv7_1"
  top: "conv7_2"
  param {
    lr_mult: 1
    decay_mult: 1
  }
  param {
    lr_mult: 2
    decay_mult: 0
  }
  convolution_param {
    num_output: 256
    pad: 1
    kernel_size: 3
    stride: 2
    weight_filler {
      type: "xavier"
    }
    bias_filler {
      type: "constant"
      value: 0
    }
  }
}
layer {
  name: "conv7_2_relu"
  type: "ReLU"
  bottom: "conv7_2"
  top: "conv7_2"
}
layer {
  name: "conv8_1"
  type: "Convolution"
  bottom: "conv7_2"
  top: "conv8_1"
  param {
    lr_mult: 1
    decay_mult: 1
  }
  param {
    lr_mult: 2
    decay_mult: 0
  }
  convolution_param {
    num_output: 128
    pad: 0
    kernel_size: 1
    stride: 1
    weight_filler {
      type: "xavier"
    }
    bias_filler {
      type: "constant"
      value: 0
    }
  }
}
layer {
  name: "conv8_1_relu"
  type: "ReLU"
  bottom: "conv8_1"
  top: "conv8_1"
}
layer {
  name: "conv8_2"
  type: "Convolution"
  bottom: "conv8_1"
  top: "conv8_2"
  param {
    lr_mult: 1
    decay_mult: 1
  }
  param {
    lr_mult: 2
    decay_mult: 0
  }
  convolution_param {
    num_output: 256
    pad: 0
    kernel_size: 3
    stride: 1
    weight_filler {
      type: "xavier"
    }
    bias_filler {
      type: "constant"
      value: 0
    }
  }
}
layer {
  name: "conv8_2_relu"
  type: "ReLU"
  bottom: "conv8_2"
  top: "conv8_2"
}
layer {
  name: "conv9_1"
  type: "Convolution"
  bottom: "conv8_2"
  top: "conv9_1"
  param {
    lr_mult: 1
    decay_mult: 1
  }
  param {
    lr_mult: 2
    decay_mult: 0
  }
  convolution_param {
    num_output: 128
    pad: 0
    kernel_size: 1
    stride: 1
    weight_filler {
      type: "xavier"
    }
    bias_filler {
      type: "constant"
      value: 0
    }
  }
}
layer {
  name: "conv9_1_relu"
  type: "ReLU"
  bottom: "conv9_1"
  top: "conv9_1"
}
layer {
  name: "conv9_2"
  type: "Convolution"
  bottom: "conv9_1"
  top: "conv9_2"
  param {
    lr_mult: 1
    decay_mult: 1
  }
  param {
    lr_mult: 2
    decay_mult: 0
  }
  convolution_param {
    num_output: 256
    pad: 0
    kernel_size: 3
    stride: 1
    weight_filler {
      type: "xavier"
    }
    bias_filler {
      type: "constant"
      value: 0
    }
  }
}
layer {
  name: "conv9_2_relu"
  type: "ReLU"
  bottom: "conv9_2"
  top: "conv9_2"
}
layer {
  name: "conv4_3_norm"
  type: "Normalize"
  bottom: "conv4_3"
  top: "conv4_3_norm"
  norm_param {
    across_spatial: false
    scale_filler {
      type: "constant"
      value: 20
    }
    channel_shared: false
  }
}
layer {
  name: "conv4_3_norm_mbox_loc"
  type: "Convolution"
  bottom: "conv4_3_norm"
  top: "conv4_3_norm_mbox_loc"
  param {
    lr_mult: 1
    decay_mult: 1
  }
  param {
    lr_mult: 2
    decay_mult: 0
  }
  convolution_param {
    num_output: 16
    pad: 1
    kernel_size: 3
    stride: 1
    weight_filler {
      type: "xavier"
    }
    bias_filler {
      type: "constant"
      value: 0
    }
  }
}
layer {
  name: "conv4_3_norm_mbox_loc_perm"
  type: "Permute"
  bottom: "conv4_3_norm_mbox_loc"
  top: "conv4_3_norm_mbox_loc_perm"
  permute_param {
    order: 0
    order: 2
    order: 3
    order: 1
  }
}
layer {
  name: "conv4_3_norm_mbox_loc_flat"
  type: "Flatten"
  bottom: "conv4_3_norm_mbox_loc_perm"
  top: "conv4_3_norm_mbox_loc_flat"
  flatten_param {
    axis: 1
  }
}
layer {
  name: "conv4_3_norm_mbox_conf"
  type: "Convolution"
  bottom: "conv4_3_norm"
  top: "conv4_3_norm_mbox_conf"
  param {
    lr_mult: 1
    decay_mult: 1
  }
  param {
    lr_mult: 2
    decay_mult: 0
  }
  convolution_param {
    num_output: 16
    pad: 1
    kernel_size: 3
    stride: 1
    weight_filler {
      type: "xavier"
    }
    bias_filler {
      type: "constant"
      value: 0
    }
  }
}
layer {
  name: "conv4_3_norm_mbox_conf_perm"
  type: "Permute"
  bottom: "conv4_3_norm_mbox_conf"
  top: "conv4_3_norm_mbox_conf_perm"
  permute_param {
    order: 0
    order: 2
    order: 3
    order: 1
  }
}
layer {
  name: "conv4_3_norm_mbox_conf_flat"
  type: "Flatten"
  bottom: "conv4_3_norm_mbox_conf_perm"
  top: "conv4_3_norm_mbox_conf_flat"
  flatten_param {
    axis: 1
  }
}
layer {
  name: "conv4_3_norm_mbox_priorbox"
  type: "PriorBox"
  bottom: "conv4_3_norm"
  bottom: "data"
  top: "conv4_3_norm_mbox_priorbox"
  prior_box_param {
    min_size: 30
    max_size: 60
    aspect_ratio: 2
    flip: true
    clip: false
    variance: 0.1
    variance: 0.1
    variance: 0.2
    variance: 0.2
    step: 8
    offset: 0.5
  }
}
layer {
  name: "fc7_mbox_loc"
  type: "Convolution"
  bottom: "fc7"
  top: "fc7_mbox_loc"
  param {
    lr_mult: 1
    decay_mult: 1
  }
  param {
    lr_mult: 2
    decay_mult: 0
  }
  convolution_param {
    num_output: 24
    pad: 1
    kernel_size: 3
    stride: 1
    weight_filler {
      type: "xavier"
    }
    bias_filler {
      type: "constant"
      value: 0
    }
  }
}
layer {
  name: "fc7_mbox_loc_perm"
  type: "Permute"
  bottom: "fc7_mbox_loc"
  top: "fc7_mbox_loc_perm"
  permute_param {
    order: 0
    order: 2
    order: 3
    order: 1
  }
}
layer {
  name: "fc7_mbox_loc_flat"
  type: "Flatten"
  bottom: "fc7_mbox_loc_perm"
  top: "fc7_mbox_loc_flat"
  flatten_param {
    axis: 1
  }
}
layer {
  name: "fc7_mbox_conf"
  type: "Convolution"
  bottom: "fc7"
  top: "fc7_mbox_conf"
  param {
    lr_mult: 1
    decay_mult: 1
  }
  param {
    lr_mult: 2
    decay_mult: 0
  }
  convolution_param {
    num_output: 24
    pad: 1
    kernel_size: 3
    stride: 1
    weight_filler {
      type: "xavier"
    }
    bias_filler {
      type: "constant"
      value: 0
    }
  }
}
layer {
  name: "fc7_mbox_conf_perm"
  type: "Permute"
  bottom: "fc7_mbox_conf"
  top: "fc7_mbox_conf_perm"
  permute_param {
    order: 0
    order: 2
    order: 3
    order: 1
  }
}
layer {
  name: "fc7_mbox_conf_flat"
  type: "Flatten"
  bottom: "fc7_mbox_conf_perm"
  top: "fc7_mbox_conf_flat"
  flatten_param {
    axis: 1
  }
}
layer {
  name: "fc7_mbox_priorbox"
  type: "PriorBox"
  bottom: "fc7"
  bottom: "data"
  top: "fc7_mbox_priorbox"
  prior_box_param {
    min_size: 60
    max_size: 111
    aspect_ratio: 2
    aspect_ratio: 3
    flip: true
    clip: false
    variance: 0.1
    variance: 0.1
    variance: 0.2
    variance: 0.2
    step: 16
    offset: 0.5
  }
}
layer {
  name: "conv6_2_mbox_loc"
  type: "Convolution"
  bottom: "conv6_2"
  top: "conv6_2_mbox_loc"
  param {
    lr_mult: 1
    decay_mult: 1
  }
  param {
    lr_mult: 2
    decay_mult: 0
  }
  convolution_param {
    num_output: 24
    pad: 1
    kernel_size: 3
    stride: 1
    weight_filler {
      type: "xavier"
    }
    bias_filler {
      type: "constant"
      value: 0
    }
  }
}
layer {
  name: "conv6_2_mbox_loc_perm"
  type: "Permute"
  bottom: "conv6_2_mbox_loc"
  top: "conv6_2_mbox_loc_perm"
  permute_param {
    order: 0
    order: 2
    order: 3
    order: 1
  }
}
layer {
  name: "conv6_2_mbox_loc_flat"
  type: "Flatten"
  bottom: "conv6_2_mbox_loc_perm"
  top: "conv6_2_mbox_loc_flat"
  flatten_param {
    axis: 1
  }
}
layer {
  name: "conv6_2_mbox_conf"
  type: "Convolution"
  bottom: "conv6_2"
  top: "conv6_2_mbox_conf"
  param {
    lr_mult: 1
    decay_mult: 1
  }
  param {
    lr_mult: 2
    decay_mult: 0
  }
  convolution_param {
    num_output: 24
    pad: 1
    kernel_size: 3
    stride: 1
    weight_filler {
      type: "xavier"
    }
    bias_filler {
      type: "constant"
      value: 0
    }
  }
}
layer {
  name: "conv6_2_mbox_conf_perm"
  type: "Permute"
  bottom: "conv6_2_mbox_conf"
  top: "conv6_2_mbox_conf_perm"
  permute_param {
    order: 0
    order: 2
    order: 3
    order: 1
  }
}
layer {
  name: "conv6_2_mbox_conf_flat"
  type: "Flatten"
  bottom: "conv6_2_mbox_conf_perm"
  top: "conv6_2_mbox_conf_flat"
  flatten_param {
    axis: 1
  }
}
layer {
  name: "conv6_2_mbox_priorbox"
  type: "PriorBox"
  bottom: "conv6_2"
  bottom: "data"
  top: "conv6_2_mbox_priorbox"
  prior_box_param {
    min_size: 111
    max_size: 162
    aspect_ratio: 2
    aspect_ratio: 3
    flip: true
    clip: false
    variance: 0.1
    variance: 0.1
    variance: 0.2
    variance: 0.2
    step: 32
    offset: 0.5
  }
}
layer {
  name: "conv7_2_mbox_loc"
  type: "Convolution"
  bottom: "conv7_2"
  top: "conv7_2_mbox_loc"
  param {
    lr_mult: 1
    decay_mult: 1
  }
  param {
    lr_mult: 2
    decay_mult: 0
  }
  convolution_param {
    num_output: 24
    pad: 1
    kernel_size: 3
    stride: 1
    weight_filler {
      type: "xavier"
    }
    bias_filler {
      type: "constant"
      value: 0
    }
  }
}
layer {
  name: "conv7_2_mbox_loc_perm"
  type: "Permute"
  bottom: "conv7_2_mbox_loc"
  top: "conv7_2_mbox_loc_perm"
  permute_param {
    order: 0
    order: 2
    order: 3
    order: 1
  }
}
layer {
  name: "conv7_2_mbox_loc_flat"
  type: "Flatten"
  bottom: "conv7_2_mbox_loc_perm"
  top: "conv7_2_mbox_loc_flat"
  flatten_param {
    axis: 1
  }
}
layer {
  name: "conv7_2_mbox_conf"
  type: "Convolution"
  bottom: "conv7_2"
  top: "conv7_2_mbox_conf"
  param {
    lr_mult: 1
    decay_mult: 1
  }
  param {
    lr_mult: 2
    decay_mult: 0
  }
  convolution_param {
    num_output: 24
    pad: 1
    kernel_size: 3
    stride: 1
    weight_filler {
      type: "xavier"
    }
    bias_filler {
      type: "constant"
      value: 0
    }
  }
}
layer {
  name: "conv7_2_mbox_conf_perm"
  type: "Permute"
  bottom: "conv7_2_mbox_conf"
  top: "conv7_2_mbox_conf_perm"
  permute_param {
    order: 0
    order: 2
    order: 3
    order: 1
  }
}
layer {
  name: "conv7_2_mbox_conf_flat"
  type: "Flatten"
  bottom: "conv7_2_mbox_conf_perm"
  top: "conv7_2_mbox_conf_flat"
  flatten_param {
    axis: 1
  }
}
layer {
  name: "conv7_2_mbox_priorbox"
  type: "PriorBox"
  bottom: "conv7_2"
  bottom: "data"
  top: "conv7_2_mbox_priorbox"
  prior_box_param {
    min_size: 162
    max_size: 213
    aspect_ratio: 2
    aspect_ratio: 3
    flip: true
    clip: false
    variance: 0.1
    variance: 0.1
    variance: 0.2
    variance: 0.2
    step: 64
    offset: 0.5
  }
}
layer {
  name: "conv8_2_mbox_loc"
  type: "Convolution"
  bottom: "conv8_2"
  top: "conv8_2_mbox_loc"
  param {
    lr_mult: 1
    decay_mult: 1
  }
  param {
    lr_mult: 2
    decay_mult: 0
  }
  convolution_param {
    num_output: 16
    pad: 1
    kernel_size: 3
    stride: 1
    weight_filler {
      type: "xavier"
    }
    bias_filler {
      type: "constant"
      value: 0
    }
  }
}
layer {
  name: "conv8_2_mbox_loc_perm"
  type: "Permute"
  bottom: "conv8_2_mbox_loc"
  top: "conv8_2_mbox_loc_perm"
  permute_param {
    order: 0
    order: 2
    order: 3
    order: 1
  }
}
layer {
  name: "conv8_2_mbox_loc_flat"
  type: "Flatten"
  bottom: "conv8_2_mbox_loc_perm"
  top: "conv8_2_mbox_loc_flat"
  flatten_param {
    axis: 1
  }
}
layer {
  name: "conv8_2_mbox_conf"
  type: "Convolution"
  bottom: "conv8_2"
  top: "conv8_2_mbox_conf"
  param {
    lr_mult: 1
    decay_mult: 1
  }
  param {
    lr_mult: 2
    decay_mult: 0
  }
  convolution_param {
    num_output: 16
    pad: 1
    kernel_size: 3
    stride: 1
    weight_filler {
      type: "xavier"
    }
    bias_filler {
      type: "constant"
      value: 0
    }
  }
}
layer {
  name: "conv8_2_mbox_conf_perm"
  type: "Permute"
  bottom: "conv8_2_mbox_conf"
  top: "conv8_2_mbox_conf_perm"
  permute_param {
    order: 0
    order: 2
    order: 3
    order: 1
  }
}
layer {
  name: "conv8_2_mbox_conf_flat"
  type: "Flatten"
  bottom: "conv8_2_mbox_conf_perm"
  top: "conv8_2_mbox_conf_flat"
  flatten_param {
    axis: 1
  }
}
layer {
  name: "conv8_2_mbox_priorbox"
  type: "PriorBox"
  bottom: "conv8_2"
  bottom: "data"
  top: "conv8_2_mbox_priorbox"
  prior_box_param {
    min_size: 213
    max_size: 264
    aspect_ratio: 2
    flip: true
    clip: false
    variance: 0.1
    variance: 0.1
    variance: 0.2
    variance: 0.2
    step: 100
    offset: 0.5
  }
}
layer {
  name: "conv9_2_mbox_loc"
  type: "Convolution"
  bottom: "conv9_2"
  top: "conv9_2_mbox_loc"
  param {
    lr_mult: 1
    decay_mult: 1
  }
  param {
    lr_mult: 2
    decay_mult: 0
  }
  convolution_param {
    num_output: 16
    pad: 1
    kernel_size: 3
    stride: 1
    weight_filler {
      type: "xavier"
    }
    bias_filler {
      type: "constant"
      value: 0
    }
  }
}
layer {
  name: "conv9_2_mbox_loc_perm"
  type: "Permute"
  bottom: "conv9_2_mbox_loc"
  top: "conv9_2_mbox_loc_perm"
  permute_param {
    order: 0
    order: 2
    order: 3
    order: 1
  }
}
layer {
  name: "conv9_2_mbox_loc_flat"
  type: "Flatten"
  bottom: "conv9_2_mbox_loc_perm"
  top: "conv9_2_mbox_loc_flat"
  flatten_param {
    axis: 1
  }
}
layer {
  name: "conv9_2_mbox_conf"
  type: "Convolution"
  bottom: "conv9_2"
  top: "conv9_2_mbox_conf"
  param {
    lr_mult: 1
    decay_mult: 1
  }
  param {
    lr_mult: 2
    decay_mult: 0
  }
  convolution_param {
    num_output: 16
    pad: 1
    kernel_size: 3
    stride: 1
    weight_filler {
      type: "xavier"
    }
    bias_filler {
      type: "constant"
      value: 0
    }
  }
}
layer {
  name: "conv9_2_mbox_conf_perm"
  type: "Permute"
  bottom: "conv9_2_mbox_conf"
  top: "conv9_2_mbox_conf_perm"
  permute_param {
    order: 0
    order: 2
    order: 3
    order: 1
  }
}
layer {
  name: "conv9_2_mbox_conf_flat"
  type: "Flatten"
  bottom: "conv9_2_mbox_conf_perm"
  top: "conv9_2_mbox_conf_flat"
  flatten_param {
    axis: 1
  }
}
layer {
  name: "conv9_2_mbox_priorbox"
  type: "PriorBox"
  bottom: "conv9_2"
  bottom: "data"
  top: "conv9_2_mbox_priorbox"
  prior_box_param {
    min_size: 264
    max_size: 315
    aspect_ratio: 2
    flip: true
    clip: false
    variance: 0.1
    variance: 0.1
    variance: 0.2
    variance: 0.2
    step: 300
    offset: 0.5
  }
}
layer {
  name: "mbox_loc"
  type: "Concat"
  bottom: "conv4_3_norm_mbox_loc_flat"
  bottom: "fc7_mbox_loc_flat"
  bottom: "conv6_2_mbox_loc_flat"
  bottom: "conv7_2_mbox_loc_flat"
  bottom: "conv8_2_mbox_loc_flat"
  bottom: "conv9_2_mbox_loc_flat"
  top: "mbox_loc"
  concat_param {
    axis: 1
  }
}
layer {
  name: "mbox_conf"
  type: "Concat"
  bottom: "conv4_3_norm_mbox_conf_flat"
  bottom: "fc7_mbox_conf_flat"
  bottom: "conv6_2_mbox_conf_flat"
  bottom: "conv7_2_mbox_conf_flat"
  bottom: "conv8_2_mbox_conf_flat"
  bottom: "conv9_2_mbox_conf_flat"
  top: "mbox_conf"
  concat_param {
    axis: 1
  }
}
layer {
  name: "mbox_priorbox"
  type: "Concat"
  bottom: "conv4_3_norm_mbox_priorbox"
  bottom: "fc7_mbox_priorbox"
  bottom: "conv6_2_mbox_priorbox"
  bottom: "conv7_2_mbox_priorbox"
  bottom: "conv8_2_mbox_priorbox"
  bottom: "conv9_2_mbox_priorbox"
  top: "mbox_priorbox"
  concat_param {
    axis: 2
  }
}
layer {
  name: "mbox_loss"
  type: "MultiBoxLoss"
  bottom: "mbox_loc"
  bottom: "mbox_conf"
  bottom: "mbox_priorbox"
  bottom: "label"
  top: "mbox_loss"
  include {
    phase: TRAIN
  }
  propagate_down: true
  propagate_down: true
  propagate_down: false
  propagate_down: false
  loss_param {
    normalization: VALID
  }
  multibox_loss_param {
    loc_loss_type: SMOOTH_L1
    conf_loss_type: SOFTMAX
    loc_weight: 1
    num_classes: 4
    share_location: true
    match_type: PER_PREDICTION
    overlap_threshold: 0.5
    use_prior_for_matching: true
    background_label_id: 0
    use_difficult_gt: true
    neg_pos_ratio: 3
    neg_overlap: 0.5
    code_type: CENTER_SIZE
    ignore_cross_boundary_bbox: false
    mining_type: MAX_NEGATIVE
  }
}
I0601 17:03:12.373936  6210 layer_factory.hpp:77] Creating layer data
I0601 17:03:12.374079  6210 net.cpp:100] Creating Layer data
I0601 17:03:12.374091  6210 net.cpp:408] data -> data
I0601 17:03:12.374116  6210 net.cpp:408] data -> label
I0601 17:03:12.374536  6227 db_lmdb.cpp:35] Opened lmdb examples/tbs_300x300_HSIL_10x/tbs_300x300_HSIL_10x_trainval_lmdb
I0601 17:03:12.383152  6210 annotated_data_layer.cpp:62] output data size: 35,3,300,300
I0601 17:03:12.447162  6210 net.cpp:150] Setting up data
I0601 17:03:12.447180  6210 net.cpp:157] Top shape: 35 3 300 300 (9450000)
I0601 17:03:12.447185  6210 net.cpp:157] Top shape: 1 1 1 8 (8)
I0601 17:03:12.447216  6210 net.cpp:165] Memory required for data: 37800032
I0601 17:03:12.447222  6210 layer_factory.hpp:77] Creating layer data_data_0_split
I0601 17:03:12.447248  6210 net.cpp:100] Creating Layer data_data_0_split
I0601 17:03:12.447254  6210 net.cpp:434] data_data_0_split <- data
I0601 17:03:12.447293  6210 net.cpp:408] data_data_0_split -> data_data_0_split_0
I0601 17:03:12.447302  6210 net.cpp:408] data_data_0_split -> data_data_0_split_1
I0601 17:03:12.447307  6210 net.cpp:408] data_data_0_split -> data_data_0_split_2
I0601 17:03:12.447314  6210 net.cpp:408] data_data_0_split -> data_data_0_split_3
I0601 17:03:12.447320  6210 net.cpp:408] data_data_0_split -> data_data_0_split_4
I0601 17:03:12.447325  6210 net.cpp:408] data_data_0_split -> data_data_0_split_5
I0601 17:03:12.447329  6210 net.cpp:408] data_data_0_split -> data_data_0_split_6
I0601 17:03:12.447412  6210 net.cpp:150] Setting up data_data_0_split
I0601 17:03:12.447417  6210 net.cpp:157] Top shape: 35 3 300 300 (9450000)
I0601 17:03:12.447420  6210 net.cpp:157] Top shape: 35 3 300 300 (9450000)
I0601 17:03:12.447422  6210 net.cpp:157] Top shape: 35 3 300 300 (9450000)
I0601 17:03:12.447425  6210 net.cpp:157] Top shape: 35 3 300 300 (9450000)
I0601 17:03:12.447428  6210 net.cpp:157] Top shape: 35 3 300 300 (9450000)
I0601 17:03:12.447430  6210 net.cpp:157] Top shape: 35 3 300 300 (9450000)
I0601 17:03:12.447434  6210 net.cpp:157] Top shape: 35 3 300 300 (9450000)
I0601 17:03:12.447453  6210 net.cpp:165] Memory required for data: 302400032
I0601 17:03:12.447454  6210 layer_factory.hpp:77] Creating layer conv1_1
I0601 17:03:12.447479  6210 net.cpp:100] Creating Layer conv1_1
I0601 17:03:12.447482  6210 net.cpp:434] conv1_1 <- data_data_0_split_0
I0601 17:03:12.447487  6210 net.cpp:408] conv1_1 -> conv1_1
I0601 17:03:12.619630  6210 net.cpp:150] Setting up conv1_1
I0601 17:03:12.619652  6210 net.cpp:157] Top shape: 35 64 300 300 (201600000)
I0601 17:03:12.619654  6210 net.cpp:165] Memory required for data: 1108800032
I0601 17:03:12.619699  6210 layer_factory.hpp:77] Creating layer relu1_1
I0601 17:03:12.619706  6210 net.cpp:100] Creating Layer relu1_1
I0601 17:03:12.619709  6210 net.cpp:434] relu1_1 <- conv1_1
I0601 17:03:12.619714  6210 net.cpp:395] relu1_1 -> conv1_1 (in-place)
I0601 17:03:12.619894  6210 net.cpp:150] Setting up relu1_1
I0601 17:03:12.619900  6210 net.cpp:157] Top shape: 35 64 300 300 (201600000)
I0601 17:03:12.619904  6210 net.cpp:165] Memory required for data: 1915200032
I0601 17:03:12.619905  6210 layer_factory.hpp:77] Creating layer conv1_2
I0601 17:03:12.619915  6210 net.cpp:100] Creating Layer conv1_2
I0601 17:03:12.619918  6210 net.cpp:434] conv1_2 <- conv1_1
I0601 17:03:12.619938  6210 net.cpp:408] conv1_2 -> conv1_2
I0601 17:03:12.622087  6210 net.cpp:150] Setting up conv1_2
I0601 17:03:12.622099  6210 net.cpp:157] Top shape: 35 64 300 300 (201600000)
I0601 17:03:12.622102  6210 net.cpp:165] Memory required for data: 2721600032
I0601 17:03:12.622110  6210 layer_factory.hpp:77] Creating layer relu1_2
I0601 17:03:12.622115  6210 net.cpp:100] Creating Layer relu1_2
I0601 17:03:12.622118  6210 net.cpp:434] relu1_2 <- conv1_2
I0601 17:03:12.622123  6210 net.cpp:395] relu1_2 -> conv1_2 (in-place)
I0601 17:03:12.622663  6210 net.cpp:150] Setting up relu1_2
I0601 17:03:12.622671  6210 net.cpp:157] Top shape: 35 64 300 300 (201600000)
I0601 17:03:12.622674  6210 net.cpp:165] Memory required for data: 3528000032
I0601 17:03:12.622676  6210 layer_factory.hpp:77] Creating layer pool1
I0601 17:03:12.622681  6210 net.cpp:100] Creating Layer pool1
I0601 17:03:12.622684  6210 net.cpp:434] pool1 <- conv1_2
I0601 17:03:12.622689  6210 net.cpp:408] pool1 -> pool1
I0601 17:03:12.622727  6210 net.cpp:150] Setting up pool1
I0601 17:03:12.622733  6210 net.cpp:157] Top shape: 35 64 150 150 (50400000)
I0601 17:03:12.622735  6210 net.cpp:165] Memory required for data: 3729600032
I0601 17:03:12.622738  6210 layer_factory.hpp:77] Creating layer conv2_1
I0601 17:03:12.622745  6210 net.cpp:100] Creating Layer conv2_1
I0601 17:03:12.622757  6210 net.cpp:434] conv2_1 <- pool1
I0601 17:03:12.622761  6210 net.cpp:408] conv2_1 -> conv2_1
I0601 17:03:12.623585  6210 net.cpp:150] Setting up conv2_1
I0601 17:03:12.623595  6210 net.cpp:157] Top shape: 35 128 150 150 (100800000)
I0601 17:03:12.623598  6210 net.cpp:165] Memory required for data: 4132800032
I0601 17:03:12.623605  6210 layer_factory.hpp:77] Creating layer relu2_1
I0601 17:03:12.623611  6210 net.cpp:100] Creating Layer relu2_1
I0601 17:03:12.623613  6210 net.cpp:434] relu2_1 <- conv2_1
I0601 17:03:12.623618  6210 net.cpp:395] relu2_1 -> conv2_1 (in-place)
I0601 17:03:12.624163  6210 net.cpp:150] Setting up relu2_1
I0601 17:03:12.624186  6210 net.cpp:157] Top shape: 35 128 150 150 (100800000)
I0601 17:03:12.624188  6210 net.cpp:165] Memory required for data: 4536000032
I0601 17:03:12.624191  6210 layer_factory.hpp:77] Creating layer conv2_2
I0601 17:03:12.624197  6210 net.cpp:100] Creating Layer conv2_2
I0601 17:03:12.624200  6210 net.cpp:434] conv2_2 <- conv2_1
I0601 17:03:12.624207  6210 net.cpp:408] conv2_2 -> conv2_2
I0601 17:03:12.626127  6210 net.cpp:150] Setting up conv2_2
I0601 17:03:12.626137  6210 net.cpp:157] Top shape: 35 128 150 150 (100800000)
I0601 17:03:12.626139  6210 net.cpp:165] Memory required for data: 4939200032
I0601 17:03:12.626143  6210 layer_factory.hpp:77] Creating layer relu2_2
I0601 17:03:12.626148  6210 net.cpp:100] Creating Layer relu2_2
I0601 17:03:12.626150  6210 net.cpp:434] relu2_2 <- conv2_2
I0601 17:03:12.626155  6210 net.cpp:395] relu2_2 -> conv2_2 (in-place)
I0601 17:03:12.626281  6210 net.cpp:150] Setting up relu2_2
I0601 17:03:12.626287  6210 net.cpp:157] Top shape: 35 128 150 150 (100800000)
I0601 17:03:12.626289  6210 net.cpp:165] Memory required for data: 5342400032
I0601 17:03:12.626292  6210 layer_factory.hpp:77] Creating layer pool2
I0601 17:03:12.626296  6210 net.cpp:100] Creating Layer pool2
I0601 17:03:12.626298  6210 net.cpp:434] pool2 <- conv2_2
I0601 17:03:12.626302  6210 net.cpp:408] pool2 -> pool2
I0601 17:03:12.626348  6210 net.cpp:150] Setting up pool2
I0601 17:03:12.626354  6210 net.cpp:157] Top shape: 35 128 75 75 (25200000)
I0601 17:03:12.626356  6210 net.cpp:165] Memory required for data: 5443200032
I0601 17:03:12.626358  6210 layer_factory.hpp:77] Creating layer conv3_1
I0601 17:03:12.626364  6210 net.cpp:100] Creating Layer conv3_1
I0601 17:03:12.626368  6210 net.cpp:434] conv3_1 <- pool2
I0601 17:03:12.626372  6210 net.cpp:408] conv3_1 -> conv3_1
I0601 17:03:12.630029  6210 net.cpp:150] Setting up conv3_1
I0601 17:03:12.630043  6210 net.cpp:157] Top shape: 35 256 75 75 (50400000)
I0601 17:03:12.630046  6210 net.cpp:165] Memory required for data: 5644800032
I0601 17:03:12.630055  6210 layer_factory.hpp:77] Creating layer relu3_1
I0601 17:03:12.630062  6210 net.cpp:100] Creating Layer relu3_1
I0601 17:03:12.630065  6210 net.cpp:434] relu3_1 <- conv3_1
I0601 17:03:12.630069  6210 net.cpp:395] relu3_1 -> conv3_1 (in-place)
I0601 17:03:12.630203  6210 net.cpp:150] Setting up relu3_1
I0601 17:03:12.630209  6210 net.cpp:157] Top shape: 35 256 75 75 (50400000)
I0601 17:03:12.630213  6210 net.cpp:165] Memory required for data: 5846400032
I0601 17:03:12.630214  6210 layer_factory.hpp:77] Creating layer conv3_2
I0601 17:03:12.630223  6210 net.cpp:100] Creating Layer conv3_2
I0601 17:03:12.630225  6210 net.cpp:434] conv3_2 <- conv3_1
I0601 17:03:12.630229  6210 net.cpp:408] conv3_2 -> conv3_2
I0601 17:03:12.634727  6210 net.cpp:150] Setting up conv3_2
I0601 17:03:12.634747  6210 net.cpp:157] Top shape: 35 256 75 75 (50400000)
I0601 17:03:12.634749  6210 net.cpp:165] Memory required for data: 6048000032
I0601 17:03:12.634757  6210 layer_factory.hpp:77] Creating layer relu3_2
I0601 17:03:12.634764  6210 net.cpp:100] Creating Layer relu3_2
I0601 17:03:12.634768  6210 net.cpp:434] relu3_2 <- conv3_2
I0601 17:03:12.634773  6210 net.cpp:395] relu3_2 -> conv3_2 (in-place)
I0601 17:03:12.634917  6210 net.cpp:150] Setting up relu3_2
I0601 17:03:12.634922  6210 net.cpp:157] Top shape: 35 256 75 75 (50400000)
I0601 17:03:12.634940  6210 net.cpp:165] Memory required for data: 6249600032
I0601 17:03:12.634954  6210 layer_factory.hpp:77] Creating layer conv3_3
I0601 17:03:12.634979  6210 net.cpp:100] Creating Layer conv3_3
I0601 17:03:12.634984  6210 net.cpp:434] conv3_3 <- conv3_2
I0601 17:03:12.634987  6210 net.cpp:408] conv3_3 -> conv3_3
I0601 17:03:12.639528  6210 net.cpp:150] Setting up conv3_3
I0601 17:03:12.639545  6210 net.cpp:157] Top shape: 35 256 75 75 (50400000)
I0601 17:03:12.639547  6210 net.cpp:165] Memory required for data: 6451200032
I0601 17:03:12.639555  6210 layer_factory.hpp:77] Creating layer relu3_3
I0601 17:03:12.639561  6210 net.cpp:100] Creating Layer relu3_3
I0601 17:03:12.639565  6210 net.cpp:434] relu3_3 <- conv3_3
I0601 17:03:12.639569  6210 net.cpp:395] relu3_3 -> conv3_3 (in-place)
I0601 17:03:12.639714  6210 net.cpp:150] Setting up relu3_3
I0601 17:03:12.639720  6210 net.cpp:157] Top shape: 35 256 75 75 (50400000)
I0601 17:03:12.639724  6210 net.cpp:165] Memory required for data: 6652800032
I0601 17:03:12.639725  6210 layer_factory.hpp:77] Creating layer pool3
I0601 17:03:12.639730  6210 net.cpp:100] Creating Layer pool3
I0601 17:03:12.639734  6210 net.cpp:434] pool3 <- conv3_3
I0601 17:03:12.639739  6210 net.cpp:408] pool3 -> pool3
I0601 17:03:12.639786  6210 net.cpp:150] Setting up pool3
I0601 17:03:12.639791  6210 net.cpp:157] Top shape: 35 256 38 38 (12938240)
I0601 17:03:12.639792  6210 net.cpp:165] Memory required for data: 6704552992
I0601 17:03:12.639794  6210 layer_factory.hpp:77] Creating layer conv4_1
I0601 17:03:12.639802  6210 net.cpp:100] Creating Layer conv4_1
I0601 17:03:12.639806  6210 net.cpp:434] conv4_1 <- pool3
I0601 17:03:12.639809  6210 net.cpp:408] conv4_1 -> conv4_1
I0601 17:03:12.648416  6210 net.cpp:150] Setting up conv4_1
I0601 17:03:12.648433  6210 net.cpp:157] Top shape: 35 512 38 38 (25876480)
I0601 17:03:12.648437  6210 net.cpp:165] Memory required for data: 6808058912
I0601 17:03:12.648442  6210 layer_factory.hpp:77] Creating layer relu4_1
I0601 17:03:12.648463  6210 net.cpp:100] Creating Layer relu4_1
I0601 17:03:12.648468  6210 net.cpp:434] relu4_1 <- conv4_1
I0601 17:03:12.648473  6210 net.cpp:395] relu4_1 -> conv4_1 (in-place)
I0601 17:03:12.649227  6210 net.cpp:150] Setting up relu4_1
I0601 17:03:12.649240  6210 net.cpp:157] Top shape: 35 512 38 38 (25876480)
I0601 17:03:12.649243  6210 net.cpp:165] Memory required for data: 6911564832
I0601 17:03:12.649247  6210 layer_factory.hpp:77] Creating layer conv4_2
I0601 17:03:12.649273  6210 net.cpp:100] Creating Layer conv4_2
I0601 17:03:12.649278  6210 net.cpp:434] conv4_2 <- conv4_1
I0601 17:03:12.649287  6210 net.cpp:408] conv4_2 -> conv4_2
I0601 17:03:12.661213  6210 net.cpp:150] Setting up conv4_2
I0601 17:03:12.661233  6210 net.cpp:157] Top shape: 35 512 38 38 (25876480)
I0601 17:03:12.661237  6210 net.cpp:165] Memory required for data: 7015070752
I0601 17:03:12.661252  6210 layer_factory.hpp:77] Creating layer relu4_2
I0601 17:03:12.661275  6210 net.cpp:100] Creating Layer relu4_2
I0601 17:03:12.661293  6210 net.cpp:434] relu4_2 <- conv4_2
I0601 17:03:12.661300  6210 net.cpp:395] relu4_2 -> conv4_2 (in-place)
I0601 17:03:12.662189  6210 net.cpp:150] Setting up relu4_2
I0601 17:03:12.662211  6210 net.cpp:157] Top shape: 35 512 38 38 (25876480)
I0601 17:03:12.662214  6210 net.cpp:165] Memory required for data: 7118576672
I0601 17:03:12.662232  6210 layer_factory.hpp:77] Creating layer conv4_3
I0601 17:03:12.662257  6210 net.cpp:100] Creating Layer conv4_3
I0601 17:03:12.662263  6210 net.cpp:434] conv4_3 <- conv4_2
I0601 17:03:12.662272  6210 net.cpp:408] conv4_3 -> conv4_3
I0601 17:03:12.674909  6210 net.cpp:150] Setting up conv4_3
I0601 17:03:12.674927  6210 net.cpp:157] Top shape: 35 512 38 38 (25876480)
I0601 17:03:12.674932  6210 net.cpp:165] Memory required for data: 7222082592
I0601 17:03:12.674939  6210 layer_factory.hpp:77] Creating layer relu4_3
I0601 17:03:12.674962  6210 net.cpp:100] Creating Layer relu4_3
I0601 17:03:12.674968  6210 net.cpp:434] relu4_3 <- conv4_3
I0601 17:03:12.674990  6210 net.cpp:395] relu4_3 -> conv4_3 (in-place)
I0601 17:03:12.675181  6210 net.cpp:150] Setting up relu4_3
I0601 17:03:12.675204  6210 net.cpp:157] Top shape: 35 512 38 38 (25876480)
I0601 17:03:12.675206  6210 net.cpp:165] Memory required for data: 7325588512
I0601 17:03:12.675210  6210 layer_factory.hpp:77] Creating layer conv4_3_relu4_3_0_split
I0601 17:03:12.675217  6210 net.cpp:100] Creating Layer conv4_3_relu4_3_0_split
I0601 17:03:12.675223  6210 net.cpp:434] conv4_3_relu4_3_0_split <- conv4_3
I0601 17:03:12.675231  6210 net.cpp:408] conv4_3_relu4_3_0_split -> conv4_3_relu4_3_0_split_0
I0601 17:03:12.675240  6210 net.cpp:408] conv4_3_relu4_3_0_split -> conv4_3_relu4_3_0_split_1
I0601 17:03:12.675289  6210 net.cpp:150] Setting up conv4_3_relu4_3_0_split
I0601 17:03:12.675309  6210 net.cpp:157] Top shape: 35 512 38 38 (25876480)
I0601 17:03:12.675313  6210 net.cpp:157] Top shape: 35 512 38 38 (25876480)
I0601 17:03:12.675317  6210 net.cpp:165] Memory required for data: 7532600352
I0601 17:03:12.675333  6210 layer_factory.hpp:77] Creating layer pool4
I0601 17:03:12.675356  6210 net.cpp:100] Creating Layer pool4
I0601 17:03:12.675361  6210 net.cpp:434] pool4 <- conv4_3_relu4_3_0_split_0
I0601 17:03:12.675369  6210 net.cpp:408] pool4 -> pool4
I0601 17:03:12.675401  6210 net.cpp:150] Setting up pool4
I0601 17:03:12.675408  6210 net.cpp:157] Top shape: 35 512 19 19 (6469120)
I0601 17:03:12.675411  6210 net.cpp:165] Memory required for data: 7558476832
I0601 17:03:12.675415  6210 layer_factory.hpp:77] Creating layer conv5_1
I0601 17:03:12.675426  6210 net.cpp:100] Creating Layer conv5_1
I0601 17:03:12.675431  6210 net.cpp:434] conv5_1 <- pool4
I0601 17:03:12.675438  6210 net.cpp:408] conv5_1 -> conv5_1
I0601 17:03:12.688300  6210 net.cpp:150] Setting up conv5_1
I0601 17:03:12.688319  6210 net.cpp:157] Top shape: 35 512 19 19 (6469120)
I0601 17:03:12.688323  6210 net.cpp:165] Memory required for data: 7584353312
I0601 17:03:12.688331  6210 layer_factory.hpp:77] Creating layer relu5_1
I0601 17:03:12.688355  6210 net.cpp:100] Creating Layer relu5_1
I0601 17:03:12.688360  6210 net.cpp:434] relu5_1 <- conv5_1
I0601 17:03:12.688369  6210 net.cpp:395] relu5_1 -> conv5_1 (in-place)
I0601 17:03:12.688542  6210 net.cpp:150] Setting up relu5_1
I0601 17:03:12.688550  6210 net.cpp:157] Top shape: 35 512 19 19 (6469120)
I0601 17:03:12.688555  6210 net.cpp:165] Memory required for data: 7610229792
I0601 17:03:12.688558  6210 layer_factory.hpp:77] Creating layer conv5_2
I0601 17:03:12.688585  6210 net.cpp:100] Creating Layer conv5_2
I0601 17:03:12.688588  6210 net.cpp:434] conv5_2 <- conv5_1
I0601 17:03:12.688594  6210 net.cpp:408] conv5_2 -> conv5_2
I0601 17:03:12.701658  6210 net.cpp:150] Setting up conv5_2
I0601 17:03:12.701674  6210 net.cpp:157] Top shape: 35 512 19 19 (6469120)
I0601 17:03:12.701678  6210 net.cpp:165] Memory required for data: 7636106272
I0601 17:03:12.701686  6210 layer_factory.hpp:77] Creating layer relu5_2
I0601 17:03:12.701694  6210 net.cpp:100] Creating Layer relu5_2
I0601 17:03:12.701699  6210 net.cpp:434] relu5_2 <- conv5_2
I0601 17:03:12.701722  6210 net.cpp:395] relu5_2 -> conv5_2 (in-place)
I0601 17:03:12.701910  6210 net.cpp:150] Setting up relu5_2
I0601 17:03:12.701920  6210 net.cpp:157] Top shape: 35 512 19 19 (6469120)
I0601 17:03:12.701922  6210 net.cpp:165] Memory required for data: 7661982752
I0601 17:03:12.701925  6210 layer_factory.hpp:77] Creating layer conv5_3
I0601 17:03:12.701952  6210 net.cpp:100] Creating Layer conv5_3
I0601 17:03:12.701957  6210 net.cpp:434] conv5_3 <- conv5_2
I0601 17:03:12.701967  6210 net.cpp:408] conv5_3 -> conv5_3
I0601 17:03:12.715396  6210 net.cpp:150] Setting up conv5_3
I0601 17:03:12.715430  6210 net.cpp:157] Top shape: 35 512 19 19 (6469120)
I0601 17:03:12.715447  6210 net.cpp:165] Memory required for data: 7687859232
I0601 17:03:12.715456  6210 layer_factory.hpp:77] Creating layer relu5_3
I0601 17:03:12.715486  6210 net.cpp:100] Creating Layer relu5_3
I0601 17:03:12.715507  6210 net.cpp:434] relu5_3 <- conv5_3
I0601 17:03:12.715513  6210 net.cpp:395] relu5_3 -> conv5_3 (in-place)
I0601 17:03:12.715692  6210 net.cpp:150] Setting up relu5_3
I0601 17:03:12.715711  6210 net.cpp:157] Top shape: 35 512 19 19 (6469120)
I0601 17:03:12.715715  6210 net.cpp:165] Memory required for data: 7713735712
I0601 17:03:12.715719  6210 layer_factory.hpp:77] Creating layer pool5
I0601 17:03:12.715742  6210 net.cpp:100] Creating Layer pool5
I0601 17:03:12.715746  6210 net.cpp:434] pool5 <- conv5_3
I0601 17:03:12.715767  6210 net.cpp:408] pool5 -> pool5
I0601 17:03:12.715862  6210 net.cpp:150] Setting up pool5
I0601 17:03:12.715870  6210 net.cpp:157] Top shape: 35 512 19 19 (6469120)
I0601 17:03:12.715874  6210 net.cpp:165] Memory required for data: 7739612192
I0601 17:03:12.715878  6210 layer_factory.hpp:77] Creating layer fc6
I0601 17:03:12.715903  6210 net.cpp:100] Creating Layer fc6
I0601 17:03:12.715909  6210 net.cpp:434] fc6 <- pool5
I0601 17:03:12.715915  6210 net.cpp:408] fc6 -> fc6
I0601 17:03:12.739228  6210 net.cpp:150] Setting up fc6
I0601 17:03:12.739248  6210 net.cpp:157] Top shape: 35 1024 19 19 (12938240)
I0601 17:03:12.739250  6210 net.cpp:165] Memory required for data: 7791365152
I0601 17:03:12.739271  6210 layer_factory.hpp:77] Creating layer relu6
I0601 17:03:12.739279  6210 net.cpp:100] Creating Layer relu6
I0601 17:03:12.739296  6210 net.cpp:434] relu6 <- fc6
I0601 17:03:12.739301  6210 net.cpp:395] relu6 -> fc6 (in-place)
I0601 17:03:12.740461  6210 net.cpp:150] Setting up relu6
I0601 17:03:12.740474  6210 net.cpp:157] Top shape: 35 1024 19 19 (12938240)
I0601 17:03:12.740479  6210 net.cpp:165] Memory required for data: 7843118112
I0601 17:03:12.740496  6210 layer_factory.hpp:77] Creating layer fc7
I0601 17:03:12.740509  6210 net.cpp:100] Creating Layer fc7
I0601 17:03:12.740514  6210 net.cpp:434] fc7 <- fc6
I0601 17:03:12.740521  6210 net.cpp:408] fc7 -> fc7
I0601 17:03:12.747879  6210 net.cpp:150] Setting up fc7
I0601 17:03:12.747897  6210 net.cpp:157] Top shape: 35 1024 19 19 (12938240)
I0601 17:03:12.747900  6210 net.cpp:165] Memory required for data: 7894871072
I0601 17:03:12.747922  6210 layer_factory.hpp:77] Creating layer relu7
I0601 17:03:12.747931  6210 net.cpp:100] Creating Layer relu7
I0601 17:03:12.747933  6210 net.cpp:434] relu7 <- fc7
I0601 17:03:12.747937  6210 net.cpp:395] relu7 -> fc7 (in-place)
I0601 17:03:12.748145  6210 net.cpp:150] Setting up relu7
I0601 17:03:12.748157  6210 net.cpp:157] Top shape: 35 1024 19 19 (12938240)
I0601 17:03:12.748160  6210 net.cpp:165] Memory required for data: 7946624032
I0601 17:03:12.748163  6210 layer_factory.hpp:77] Creating layer fc7_relu7_0_split
I0601 17:03:12.748172  6210 net.cpp:100] Creating Layer fc7_relu7_0_split
I0601 17:03:12.748190  6210 net.cpp:434] fc7_relu7_0_split <- fc7
I0601 17:03:12.748198  6210 net.cpp:408] fc7_relu7_0_split -> fc7_relu7_0_split_0
I0601 17:03:12.748206  6210 net.cpp:408] fc7_relu7_0_split -> fc7_relu7_0_split_1
I0601 17:03:12.748234  6210 net.cpp:408] fc7_relu7_0_split -> fc7_relu7_0_split_2
I0601 17:03:12.748244  6210 net.cpp:408] fc7_relu7_0_split -> fc7_relu7_0_split_3
I0601 17:03:12.748332  6210 net.cpp:150] Setting up fc7_relu7_0_split
I0601 17:03:12.748340  6210 net.cpp:157] Top shape: 35 1024 19 19 (12938240)
I0601 17:03:12.748345  6210 net.cpp:157] Top shape: 35 1024 19 19 (12938240)
I0601 17:03:12.748352  6210 net.cpp:157] Top shape: 35 1024 19 19 (12938240)
I0601 17:03:12.748370  6210 net.cpp:157] Top shape: 35 1024 19 19 (12938240)
I0601 17:03:12.748374  6210 net.cpp:165] Memory required for data: 8153635872
I0601 17:03:12.748378  6210 layer_factory.hpp:77] Creating layer conv6_1
I0601 17:03:12.748389  6210 net.cpp:100] Creating Layer conv6_1
I0601 17:03:12.748395  6210 net.cpp:434] conv6_1 <- fc7_relu7_0_split_0
I0601 17:03:12.748402  6210 net.cpp:408] conv6_1 -> conv6_1
I0601 17:03:12.751794  6210 net.cpp:150] Setting up conv6_1
I0601 17:03:12.751811  6210 net.cpp:157] Top shape: 35 256 19 19 (3234560)
I0601 17:03:12.751813  6210 net.cpp:165] Memory required for data: 8166574112
I0601 17:03:12.751819  6210 layer_factory.hpp:77] Creating layer conv6_1_relu
I0601 17:03:12.751840  6210 net.cpp:100] Creating Layer conv6_1_relu
I0601 17:03:12.751873  6210 net.cpp:434] conv6_1_relu <- conv6_1
I0601 17:03:12.751880  6210 net.cpp:395] conv6_1_relu -> conv6_1 (in-place)
I0601 17:03:12.752094  6210 net.cpp:150] Setting up conv6_1_relu
I0601 17:03:12.752105  6210 net.cpp:157] Top shape: 35 256 19 19 (3234560)
I0601 17:03:12.752110  6210 net.cpp:165] Memory required for data: 8179512352
I0601 17:03:12.752115  6210 layer_factory.hpp:77] Creating layer conv6_2
I0601 17:03:12.752140  6210 net.cpp:100] Creating Layer conv6_2
I0601 17:03:12.752146  6210 net.cpp:434] conv6_2 <- conv6_1
I0601 17:03:12.752166  6210 net.cpp:408] conv6_2 -> conv6_2
I0601 17:03:12.759462  6210 net.cpp:150] Setting up conv6_2
I0601 17:03:12.759481  6210 net.cpp:157] Top shape: 35 512 10 10 (1792000)
I0601 17:03:12.759485  6210 net.cpp:165] Memory required for data: 8186680352
I0601 17:03:12.759511  6210 layer_factory.hpp:77] Creating layer conv6_2_relu
I0601 17:03:12.759532  6210 net.cpp:100] Creating Layer conv6_2_relu
I0601 17:03:12.759536  6210 net.cpp:434] conv6_2_relu <- conv6_2
I0601 17:03:12.759541  6210 net.cpp:395] conv6_2_relu -> conv6_2 (in-place)
I0601 17:03:12.759721  6210 net.cpp:150] Setting up conv6_2_relu
I0601 17:03:12.759730  6210 net.cpp:157] Top shape: 35 512 10 10 (1792000)
I0601 17:03:12.759734  6210 net.cpp:165] Memory required for data: 8193848352
I0601 17:03:12.759738  6210 layer_factory.hpp:77] Creating layer conv6_2_conv6_2_relu_0_split
I0601 17:03:12.759760  6210 net.cpp:100] Creating Layer conv6_2_conv6_2_relu_0_split
I0601 17:03:12.759778  6210 net.cpp:434] conv6_2_conv6_2_relu_0_split <- conv6_2
I0601 17:03:12.759785  6210 net.cpp:408] conv6_2_conv6_2_relu_0_split -> conv6_2_conv6_2_relu_0_split_0
I0601 17:03:12.759795  6210 net.cpp:408] conv6_2_conv6_2_relu_0_split -> conv6_2_conv6_2_relu_0_split_1
I0601 17:03:12.759804  6210 net.cpp:408] conv6_2_conv6_2_relu_0_split -> conv6_2_conv6_2_relu_0_split_2
I0601 17:03:12.759814  6210 net.cpp:408] conv6_2_conv6_2_relu_0_split -> conv6_2_conv6_2_relu_0_split_3
I0601 17:03:12.759904  6210 net.cpp:150] Setting up conv6_2_conv6_2_relu_0_split
I0601 17:03:12.759912  6210 net.cpp:157] Top shape: 35 512 10 10 (1792000)
I0601 17:03:12.759918  6210 net.cpp:157] Top shape: 35 512 10 10 (1792000)
I0601 17:03:12.759924  6210 net.cpp:157] Top shape: 35 512 10 10 (1792000)
I0601 17:03:12.759930  6210 net.cpp:157] Top shape: 35 512 10 10 (1792000)
I0601 17:03:12.759934  6210 net.cpp:165] Memory required for data: 8222520352
I0601 17:03:12.759939  6210 layer_factory.hpp:77] Creating layer conv7_1
I0601 17:03:12.759950  6210 net.cpp:100] Creating Layer conv7_1
I0601 17:03:12.759969  6210 net.cpp:434] conv7_1 <- conv6_2_conv6_2_relu_0_split_0
I0601 17:03:12.759979  6210 net.cpp:408] conv7_1 -> conv7_1
I0601 17:03:12.761651  6210 net.cpp:150] Setting up conv7_1
I0601 17:03:12.761662  6210 net.cpp:157] Top shape: 35 128 10 10 (448000)
I0601 17:03:12.761664  6210 net.cpp:165] Memory required for data: 8224312352
I0601 17:03:12.761672  6210 layer_factory.hpp:77] Creating layer conv7_1_relu
I0601 17:03:12.761678  6210 net.cpp:100] Creating Layer conv7_1_relu
I0601 17:03:12.761684  6210 net.cpp:434] conv7_1_relu <- conv7_1
I0601 17:03:12.761693  6210 net.cpp:395] conv7_1_relu -> conv7_1 (in-place)
I0601 17:03:12.761876  6210 net.cpp:150] Setting up conv7_1_relu
I0601 17:03:12.761888  6210 net.cpp:157] Top shape: 35 128 10 10 (448000)
I0601 17:03:12.761893  6210 net.cpp:165] Memory required for data: 8226104352
I0601 17:03:12.761898  6210 layer_factory.hpp:77] Creating layer conv7_2
I0601 17:03:12.761909  6210 net.cpp:100] Creating Layer conv7_2
I0601 17:03:12.761916  6210 net.cpp:434] conv7_2 <- conv7_1
I0601 17:03:12.761924  6210 net.cpp:408] conv7_2 -> conv7_2
I0601 17:03:12.765010  6210 net.cpp:150] Setting up conv7_2
I0601 17:03:12.765022  6210 net.cpp:157] Top shape: 35 256 5 5 (224000)
I0601 17:03:12.765027  6210 net.cpp:165] Memory required for data: 8227000352
I0601 17:03:12.765033  6210 layer_factory.hpp:77] Creating layer conv7_2_relu
I0601 17:03:12.765040  6210 net.cpp:100] Creating Layer conv7_2_relu
I0601 17:03:12.765059  6210 net.cpp:434] conv7_2_relu <- conv7_2
I0601 17:03:12.765067  6210 net.cpp:395] conv7_2_relu -> conv7_2 (in-place)
I0601 17:03:12.765256  6210 net.cpp:150] Setting up conv7_2_relu
I0601 17:03:12.765267  6210 net.cpp:157] Top shape: 35 256 5 5 (224000)
I0601 17:03:12.765272  6210 net.cpp:165] Memory required for data: 8227896352
I0601 17:03:12.765277  6210 layer_factory.hpp:77] Creating layer conv7_2_conv7_2_relu_0_split
I0601 17:03:12.765285  6210 net.cpp:100] Creating Layer conv7_2_conv7_2_relu_0_split
I0601 17:03:12.765290  6210 net.cpp:434] conv7_2_conv7_2_relu_0_split <- conv7_2
I0601 17:03:12.765300  6210 net.cpp:408] conv7_2_conv7_2_relu_0_split -> conv7_2_conv7_2_relu_0_split_0
I0601 17:03:12.765310  6210 net.cpp:408] conv7_2_conv7_2_relu_0_split -> conv7_2_conv7_2_relu_0_split_1
I0601 17:03:12.765321  6210 net.cpp:408] conv7_2_conv7_2_relu_0_split -> conv7_2_conv7_2_relu_0_split_2
I0601 17:03:12.765328  6210 net.cpp:408] conv7_2_conv7_2_relu_0_split -> conv7_2_conv7_2_relu_0_split_3
I0601 17:03:12.765403  6210 net.cpp:150] Setting up conv7_2_conv7_2_relu_0_split
I0601 17:03:12.765410  6210 net.cpp:157] Top shape: 35 256 5 5 (224000)
I0601 17:03:12.765417  6210 net.cpp:157] Top shape: 35 256 5 5 (224000)
I0601 17:03:12.765424  6210 net.cpp:157] Top shape: 35 256 5 5 (224000)
I0601 17:03:12.765429  6210 net.cpp:157] Top shape: 35 256 5 5 (224000)
I0601 17:03:12.765431  6210 net.cpp:165] Memory required for data: 8231480352
I0601 17:03:12.765435  6210 layer_factory.hpp:77] Creating layer conv8_1
I0601 17:03:12.765445  6210 net.cpp:100] Creating Layer conv8_1
I0601 17:03:12.765450  6210 net.cpp:434] conv8_1 <- conv7_2_conv7_2_relu_0_split_0
I0601 17:03:12.765460  6210 net.cpp:408] conv8_1 -> conv8_1
I0601 17:03:12.767000  6210 net.cpp:150] Setting up conv8_1
I0601 17:03:12.767011  6210 net.cpp:157] Top shape: 35 128 5 5 (112000)
I0601 17:03:12.767015  6210 net.cpp:165] Memory required for data: 8231928352
I0601 17:03:12.767024  6210 layer_factory.hpp:77] Creating layer conv8_1_relu
I0601 17:03:12.767031  6210 net.cpp:100] Creating Layer conv8_1_relu
I0601 17:03:12.767036  6210 net.cpp:434] conv8_1_relu <- conv8_1
I0601 17:03:12.767043  6210 net.cpp:395] conv8_1_relu -> conv8_1 (in-place)
I0601 17:03:12.767822  6210 net.cpp:150] Setting up conv8_1_relu
I0601 17:03:12.767835  6210 net.cpp:157] Top shape: 35 128 5 5 (112000)
I0601 17:03:12.767841  6210 net.cpp:165] Memory required for data: 8232376352
I0601 17:03:12.767845  6210 layer_factory.hpp:77] Creating layer conv8_2
I0601 17:03:12.767856  6210 net.cpp:100] Creating Layer conv8_2
I0601 17:03:12.767863  6210 net.cpp:434] conv8_2 <- conv8_1
I0601 17:03:12.767871  6210 net.cpp:408] conv8_2 -> conv8_2
I0601 17:03:12.770993  6210 net.cpp:150] Setting up conv8_2
I0601 17:03:12.771005  6210 net.cpp:157] Top shape: 35 256 3 3 (80640)
I0601 17:03:12.771009  6210 net.cpp:165] Memory required for data: 8232698912
I0601 17:03:12.771015  6210 layer_factory.hpp:77] Creating layer conv8_2_relu
I0601 17:03:12.771023  6210 net.cpp:100] Creating Layer conv8_2_relu
I0601 17:03:12.771028  6210 net.cpp:434] conv8_2_relu <- conv8_2
I0601 17:03:12.771037  6210 net.cpp:395] conv8_2_relu -> conv8_2 (in-place)
I0601 17:03:12.771227  6210 net.cpp:150] Setting up conv8_2_relu
I0601 17:03:12.771239  6210 net.cpp:157] Top shape: 35 256 3 3 (80640)
I0601 17:03:12.771244  6210 net.cpp:165] Memory required for data: 8233021472
I0601 17:03:12.771250  6210 layer_factory.hpp:77] Creating layer conv8_2_conv8_2_relu_0_split
I0601 17:03:12.771257  6210 net.cpp:100] Creating Layer conv8_2_conv8_2_relu_0_split
I0601 17:03:12.771262  6210 net.cpp:434] conv8_2_conv8_2_relu_0_split <- conv8_2
I0601 17:03:12.771271  6210 net.cpp:408] conv8_2_conv8_2_relu_0_split -> conv8_2_conv8_2_relu_0_split_0
I0601 17:03:12.771283  6210 net.cpp:408] conv8_2_conv8_2_relu_0_split -> conv8_2_conv8_2_relu_0_split_1
I0601 17:03:12.771292  6210 net.cpp:408] conv8_2_conv8_2_relu_0_split -> conv8_2_conv8_2_relu_0_split_2
I0601 17:03:12.771301  6210 net.cpp:408] conv8_2_conv8_2_relu_0_split -> conv8_2_conv8_2_relu_0_split_3
I0601 17:03:12.771391  6210 net.cpp:150] Setting up conv8_2_conv8_2_relu_0_split
I0601 17:03:12.771400  6210 net.cpp:157] Top shape: 35 256 3 3 (80640)
I0601 17:03:12.771407  6210 net.cpp:157] Top shape: 35 256 3 3 (80640)
I0601 17:03:12.771412  6210 net.cpp:157] Top shape: 35 256 3 3 (80640)
I0601 17:03:12.771419  6210 net.cpp:157] Top shape: 35 256 3 3 (80640)
I0601 17:03:12.771423  6210 net.cpp:165] Memory required for data: 8234311712
I0601 17:03:12.771427  6210 layer_factory.hpp:77] Creating layer conv9_1
I0601 17:03:12.771440  6210 net.cpp:100] Creating Layer conv9_1
I0601 17:03:12.771445  6210 net.cpp:434] conv9_1 <- conv8_2_conv8_2_relu_0_split_0
I0601 17:03:12.771456  6210 net.cpp:408] conv9_1 -> conv9_1
I0601 17:03:12.773038  6210 net.cpp:150] Setting up conv9_1
I0601 17:03:12.773049  6210 net.cpp:157] Top shape: 35 128 3 3 (40320)
I0601 17:03:12.773054  6210 net.cpp:165] Memory required for data: 8234472992
I0601 17:03:12.773062  6210 layer_factory.hpp:77] Creating layer conv9_1_relu
I0601 17:03:12.773071  6210 net.cpp:100] Creating Layer conv9_1_relu
I0601 17:03:12.773075  6210 net.cpp:434] conv9_1_relu <- conv9_1
I0601 17:03:12.773082  6210 net.cpp:395] conv9_1_relu -> conv9_1 (in-place)
I0601 17:03:12.773268  6210 net.cpp:150] Setting up conv9_1_relu
I0601 17:03:12.773279  6210 net.cpp:157] Top shape: 35 128 3 3 (40320)
I0601 17:03:12.773284  6210 net.cpp:165] Memory required for data: 8234634272
I0601 17:03:12.773288  6210 layer_factory.hpp:77] Creating layer conv9_2
I0601 17:03:12.773300  6210 net.cpp:100] Creating Layer conv9_2
I0601 17:03:12.773305  6210 net.cpp:434] conv9_2 <- conv9_1
I0601 17:03:12.773315  6210 net.cpp:408] conv9_2 -> conv9_2
I0601 17:03:12.776742  6210 net.cpp:150] Setting up conv9_2
I0601 17:03:12.776764  6210 net.cpp:157] Top shape: 35 256 1 1 (8960)
I0601 17:03:12.776768  6210 net.cpp:165] Memory required for data: 8234670112
I0601 17:03:12.776777  6210 layer_factory.hpp:77] Creating layer conv9_2_relu
I0601 17:03:12.776785  6210 net.cpp:100] Creating Layer conv9_2_relu
I0601 17:03:12.776804  6210 net.cpp:434] conv9_2_relu <- conv9_2
I0601 17:03:12.776823  6210 net.cpp:395] conv9_2_relu -> conv9_2 (in-place)
I0601 17:03:12.777017  6210 net.cpp:150] Setting up conv9_2_relu
I0601 17:03:12.777041  6210 net.cpp:157] Top shape: 35 256 1 1 (8960)
I0601 17:03:12.777056  6210 net.cpp:165] Memory required for data: 8234705952
I0601 17:03:12.777070  6210 layer_factory.hpp:77] Creating layer conv9_2_conv9_2_relu_0_split
I0601 17:03:12.777087  6210 net.cpp:100] Creating Layer conv9_2_conv9_2_relu_0_split
I0601 17:03:12.777101  6210 net.cpp:434] conv9_2_conv9_2_relu_0_split <- conv9_2
I0601 17:03:12.777118  6210 net.cpp:408] conv9_2_conv9_2_relu_0_split -> conv9_2_conv9_2_relu_0_split_0
I0601 17:03:12.777138  6210 net.cpp:408] conv9_2_conv9_2_relu_0_split -> conv9_2_conv9_2_relu_0_split_1
I0601 17:03:12.777158  6210 net.cpp:408] conv9_2_conv9_2_relu_0_split -> conv9_2_conv9_2_relu_0_split_2
I0601 17:03:12.777236  6210 net.cpp:150] Setting up conv9_2_conv9_2_relu_0_split
I0601 17:03:12.777256  6210 net.cpp:157] Top shape: 35 256 1 1 (8960)
I0601 17:03:12.777271  6210 net.cpp:157] Top shape: 35 256 1 1 (8960)
I0601 17:03:12.777284  6210 net.cpp:157] Top shape: 35 256 1 1 (8960)
I0601 17:03:12.777297  6210 net.cpp:165] Memory required for data: 8234813472
I0601 17:03:12.777310  6210 layer_factory.hpp:77] Creating layer conv4_3_norm
I0601 17:03:12.777328  6210 net.cpp:100] Creating Layer conv4_3_norm
I0601 17:03:12.777343  6210 net.cpp:434] conv4_3_norm <- conv4_3_relu4_3_0_split_1
I0601 17:03:12.777359  6210 net.cpp:408] conv4_3_norm -> conv4_3_norm
I0601 17:03:12.777556  6210 net.cpp:150] Setting up conv4_3_norm
I0601 17:03:12.777580  6210 net.cpp:157] Top shape: 35 512 38 38 (25876480)
I0601 17:03:12.777593  6210 net.cpp:165] Memory required for data: 8338319392
I0601 17:03:12.777609  6210 layer_factory.hpp:77] Creating layer conv4_3_norm_conv4_3_norm_0_split
I0601 17:03:12.777626  6210 net.cpp:100] Creating Layer conv4_3_norm_conv4_3_norm_0_split
I0601 17:03:12.777644  6210 net.cpp:434] conv4_3_norm_conv4_3_norm_0_split <- conv4_3_norm
I0601 17:03:12.777669  6210 net.cpp:408] conv4_3_norm_conv4_3_norm_0_split -> conv4_3_norm_conv4_3_norm_0_split_0
I0601 17:03:12.777690  6210 net.cpp:408] conv4_3_norm_conv4_3_norm_0_split -> conv4_3_norm_conv4_3_norm_0_split_1
I0601 17:03:12.777709  6210 net.cpp:408] conv4_3_norm_conv4_3_norm_0_split -> conv4_3_norm_conv4_3_norm_0_split_2
I0601 17:03:12.777781  6210 net.cpp:150] Setting up conv4_3_norm_conv4_3_norm_0_split
I0601 17:03:12.777799  6210 net.cpp:157] Top shape: 35 512 38 38 (25876480)
I0601 17:03:12.777815  6210 net.cpp:157] Top shape: 35 512 38 38 (25876480)
I0601 17:03:12.777832  6210 net.cpp:157] Top shape: 35 512 38 38 (25876480)
I0601 17:03:12.777844  6210 net.cpp:165] Memory required for data: 8648837152
I0601 17:03:12.777858  6210 layer_factory.hpp:77] Creating layer conv4_3_norm_mbox_loc
I0601 17:03:12.777880  6210 net.cpp:100] Creating Layer conv4_3_norm_mbox_loc
I0601 17:03:12.777895  6210 net.cpp:434] conv4_3_norm_mbox_loc <- conv4_3_norm_conv4_3_norm_0_split_0
I0601 17:03:12.777915  6210 net.cpp:408] conv4_3_norm_mbox_loc -> conv4_3_norm_mbox_loc
I0601 17:03:12.779948  6210 net.cpp:150] Setting up conv4_3_norm_mbox_loc
I0601 17:03:12.779964  6210 net.cpp:157] Top shape: 35 16 38 38 (808640)
I0601 17:03:12.779968  6210 net.cpp:165] Memory required for data: 8652071712
I0601 17:03:12.779974  6210 layer_factory.hpp:77] Creating layer conv4_3_norm_mbox_loc_perm
I0601 17:03:12.779983  6210 net.cpp:100] Creating Layer conv4_3_norm_mbox_loc_perm
I0601 17:03:12.779989  6210 net.cpp:434] conv4_3_norm_mbox_loc_perm <- conv4_3_norm_mbox_loc
I0601 17:03:12.779994  6210 net.cpp:408] conv4_3_norm_mbox_loc_perm -> conv4_3_norm_mbox_loc_perm
I0601 17:03:12.780094  6210 net.cpp:150] Setting up conv4_3_norm_mbox_loc_perm
I0601 17:03:12.780102  6210 net.cpp:157] Top shape: 35 38 38 16 (808640)
I0601 17:03:12.780103  6210 net.cpp:165] Memory required for data: 8655306272
I0601 17:03:12.780105  6210 layer_factory.hpp:77] Creating layer conv4_3_norm_mbox_loc_flat
I0601 17:03:12.780110  6210 net.cpp:100] Creating Layer conv4_3_norm_mbox_loc_flat
I0601 17:03:12.780113  6210 net.cpp:434] conv4_3_norm_mbox_loc_flat <- conv4_3_norm_mbox_loc_perm
I0601 17:03:12.780117  6210 net.cpp:408] conv4_3_norm_mbox_loc_flat -> conv4_3_norm_mbox_loc_flat
I0601 17:03:12.780148  6210 net.cpp:150] Setting up conv4_3_norm_mbox_loc_flat
I0601 17:03:12.780154  6210 net.cpp:157] Top shape: 35 23104 (808640)
I0601 17:03:12.780158  6210 net.cpp:165] Memory required for data: 8658540832
I0601 17:03:12.780160  6210 layer_factory.hpp:77] Creating layer conv4_3_norm_mbox_conf
I0601 17:03:12.780179  6210 net.cpp:100] Creating Layer conv4_3_norm_mbox_conf
I0601 17:03:12.780184  6210 net.cpp:434] conv4_3_norm_mbox_conf <- conv4_3_norm_conv4_3_norm_0_split_1
I0601 17:03:12.780190  6210 net.cpp:408] conv4_3_norm_mbox_conf -> conv4_3_norm_mbox_conf
I0601 17:03:12.782096  6210 net.cpp:150] Setting up conv4_3_norm_mbox_conf
I0601 17:03:12.782115  6210 net.cpp:157] Top shape: 35 16 38 38 (808640)
I0601 17:03:12.782119  6210 net.cpp:165] Memory required for data: 8661775392
I0601 17:03:12.782130  6210 layer_factory.hpp:77] Creating layer conv4_3_norm_mbox_conf_perm
I0601 17:03:12.782141  6210 net.cpp:100] Creating Layer conv4_3_norm_mbox_conf_perm
I0601 17:03:12.782150  6210 net.cpp:434] conv4_3_norm_mbox_conf_perm <- conv4_3_norm_mbox_conf
I0601 17:03:12.782158  6210 net.cpp:408] conv4_3_norm_mbox_conf_perm -> conv4_3_norm_mbox_conf_perm
I0601 17:03:12.782256  6210 net.cpp:150] Setting up conv4_3_norm_mbox_conf_perm
I0601 17:03:12.782264  6210 net.cpp:157] Top shape: 35 38 38 16 (808640)
I0601 17:03:12.782269  6210 net.cpp:165] Memory required for data: 8665009952
I0601 17:03:12.782271  6210 layer_factory.hpp:77] Creating layer conv4_3_norm_mbox_conf_flat
I0601 17:03:12.782279  6210 net.cpp:100] Creating Layer conv4_3_norm_mbox_conf_flat
I0601 17:03:12.782282  6210 net.cpp:434] conv4_3_norm_mbox_conf_flat <- conv4_3_norm_mbox_conf_perm
I0601 17:03:12.782290  6210 net.cpp:408] conv4_3_norm_mbox_conf_flat -> conv4_3_norm_mbox_conf_flat
I0601 17:03:12.782325  6210 net.cpp:150] Setting up conv4_3_norm_mbox_conf_flat
I0601 17:03:12.782333  6210 net.cpp:157] Top shape: 35 23104 (808640)
I0601 17:03:12.782337  6210 net.cpp:165] Memory required for data: 8668244512
I0601 17:03:12.782342  6210 layer_factory.hpp:77] Creating layer conv4_3_norm_mbox_priorbox
I0601 17:03:12.782351  6210 net.cpp:100] Creating Layer conv4_3_norm_mbox_priorbox
I0601 17:03:12.782354  6210 net.cpp:434] conv4_3_norm_mbox_priorbox <- conv4_3_norm_conv4_3_norm_0_split_2
I0601 17:03:12.782361  6210 net.cpp:434] conv4_3_norm_mbox_priorbox <- data_data_0_split_1
I0601 17:03:12.782369  6210 net.cpp:408] conv4_3_norm_mbox_priorbox -> conv4_3_norm_mbox_priorbox
I0601 17:03:12.782402  6210 net.cpp:150] Setting up conv4_3_norm_mbox_priorbox
I0601 17:03:12.782407  6210 net.cpp:157] Top shape: 1 2 23104 (46208)
I0601 17:03:12.782411  6210 net.cpp:165] Memory required for data: 8668429344
I0601 17:03:12.782415  6210 layer_factory.hpp:77] Creating layer fc7_mbox_loc
I0601 17:03:12.782428  6210 net.cpp:100] Creating Layer fc7_mbox_loc
I0601 17:03:12.782433  6210 net.cpp:434] fc7_mbox_loc <- fc7_relu7_0_split_1
I0601 17:03:12.782439  6210 net.cpp:408] fc7_mbox_loc -> fc7_mbox_loc
I0601 17:03:12.785435  6210 net.cpp:150] Setting up fc7_mbox_loc
I0601 17:03:12.785454  6210 net.cpp:157] Top shape: 35 24 19 19 (303240)
I0601 17:03:12.785457  6210 net.cpp:165] Memory required for data: 8669642304
I0601 17:03:12.785466  6210 layer_factory.hpp:77] Creating layer fc7_mbox_loc_perm
I0601 17:03:12.785480  6210 net.cpp:100] Creating Layer fc7_mbox_loc_perm
I0601 17:03:12.785485  6210 net.cpp:434] fc7_mbox_loc_perm <- fc7_mbox_loc
I0601 17:03:12.785495  6210 net.cpp:408] fc7_mbox_loc_perm -> fc7_mbox_loc_perm
I0601 17:03:12.785585  6210 net.cpp:150] Setting up fc7_mbox_loc_perm
I0601 17:03:12.785593  6210 net.cpp:157] Top shape: 35 19 19 24 (303240)
I0601 17:03:12.785595  6210 net.cpp:165] Memory required for data: 8670855264
I0601 17:03:12.785599  6210 layer_factory.hpp:77] Creating layer fc7_mbox_loc_flat
I0601 17:03:12.785606  6210 net.cpp:100] Creating Layer fc7_mbox_loc_flat
I0601 17:03:12.785611  6210 net.cpp:434] fc7_mbox_loc_flat <- fc7_mbox_loc_perm
I0601 17:03:12.785617  6210 net.cpp:408] fc7_mbox_loc_flat -> fc7_mbox_loc_flat
I0601 17:03:12.785642  6210 net.cpp:150] Setting up fc7_mbox_loc_flat
I0601 17:03:12.785648  6210 net.cpp:157] Top shape: 35 8664 (303240)
I0601 17:03:12.785651  6210 net.cpp:165] Memory required for data: 8672068224
I0601 17:03:12.785655  6210 layer_factory.hpp:77] Creating layer fc7_mbox_conf
I0601 17:03:12.785666  6210 net.cpp:100] Creating Layer fc7_mbox_conf
I0601 17:03:12.785670  6210 net.cpp:434] fc7_mbox_conf <- fc7_relu7_0_split_2
I0601 17:03:12.785681  6210 net.cpp:408] fc7_mbox_conf -> fc7_mbox_conf
I0601 17:03:12.788192  6210 net.cpp:150] Setting up fc7_mbox_conf
I0601 17:03:12.788208  6210 net.cpp:157] Top shape: 35 24 19 19 (303240)
I0601 17:03:12.788213  6210 net.cpp:165] Memory required for data: 8673281184
I0601 17:03:12.788221  6210 layer_factory.hpp:77] Creating layer fc7_mbox_conf_perm
I0601 17:03:12.788233  6210 net.cpp:100] Creating Layer fc7_mbox_conf_perm
I0601 17:03:12.788239  6210 net.cpp:434] fc7_mbox_conf_perm <- fc7_mbox_conf
I0601 17:03:12.788247  6210 net.cpp:408] fc7_mbox_conf_perm -> fc7_mbox_conf_perm
I0601 17:03:12.788341  6210 net.cpp:150] Setting up fc7_mbox_conf_perm
I0601 17:03:12.788348  6210 net.cpp:157] Top shape: 35 19 19 24 (303240)
I0601 17:03:12.788352  6210 net.cpp:165] Memory required for data: 8674494144
I0601 17:03:12.788355  6210 layer_factory.hpp:77] Creating layer fc7_mbox_conf_flat
I0601 17:03:12.788363  6210 net.cpp:100] Creating Layer fc7_mbox_conf_flat
I0601 17:03:12.788368  6210 net.cpp:434] fc7_mbox_conf_flat <- fc7_mbox_conf_perm
I0601 17:03:12.788374  6210 net.cpp:408] fc7_mbox_conf_flat -> fc7_mbox_conf_flat
I0601 17:03:12.788398  6210 net.cpp:150] Setting up fc7_mbox_conf_flat
I0601 17:03:12.788405  6210 net.cpp:157] Top shape: 35 8664 (303240)
I0601 17:03:12.788408  6210 net.cpp:165] Memory required for data: 8675707104
I0601 17:03:12.788421  6210 layer_factory.hpp:77] Creating layer fc7_mbox_priorbox
I0601 17:03:12.788432  6210 net.cpp:100] Creating Layer fc7_mbox_priorbox
I0601 17:03:12.788437  6210 net.cpp:434] fc7_mbox_priorbox <- fc7_relu7_0_split_3
I0601 17:03:12.788442  6210 net.cpp:434] fc7_mbox_priorbox <- data_data_0_split_2
I0601 17:03:12.788450  6210 net.cpp:408] fc7_mbox_priorbox -> fc7_mbox_priorbox
I0601 17:03:12.788477  6210 net.cpp:150] Setting up fc7_mbox_priorbox
I0601 17:03:12.788485  6210 net.cpp:157] Top shape: 1 2 8664 (17328)
I0601 17:03:12.788488  6210 net.cpp:165] Memory required for data: 8675776416
I0601 17:03:12.788491  6210 layer_factory.hpp:77] Creating layer conv6_2_mbox_loc
I0601 17:03:12.788502  6210 net.cpp:100] Creating Layer conv6_2_mbox_loc
I0601 17:03:12.788507  6210 net.cpp:434] conv6_2_mbox_loc <- conv6_2_conv6_2_relu_0_split_1
I0601 17:03:12.788516  6210 net.cpp:408] conv6_2_mbox_loc -> conv6_2_mbox_loc
I0601 17:03:12.790489  6210 net.cpp:150] Setting up conv6_2_mbox_loc
I0601 17:03:12.790504  6210 net.cpp:157] Top shape: 35 24 10 10 (84000)
I0601 17:03:12.790509  6210 net.cpp:165] Memory required for data: 8676112416
I0601 17:03:12.790518  6210 layer_factory.hpp:77] Creating layer conv6_2_mbox_loc_perm
I0601 17:03:12.790527  6210 net.cpp:100] Creating Layer conv6_2_mbox_loc_perm
I0601 17:03:12.790534  6210 net.cpp:434] conv6_2_mbox_loc_perm <- conv6_2_mbox_loc
I0601 17:03:12.790544  6210 net.cpp:408] conv6_2_mbox_loc_perm -> conv6_2_mbox_loc_perm
I0601 17:03:12.790637  6210 net.cpp:150] Setting up conv6_2_mbox_loc_perm
I0601 17:03:12.790643  6210 net.cpp:157] Top shape: 35 10 10 24 (84000)
I0601 17:03:12.790647  6210 net.cpp:165] Memory required for data: 8676448416
I0601 17:03:12.790652  6210 layer_factory.hpp:77] Creating layer conv6_2_mbox_loc_flat
I0601 17:03:12.790658  6210 net.cpp:100] Creating Layer conv6_2_mbox_loc_flat
I0601 17:03:12.790663  6210 net.cpp:434] conv6_2_mbox_loc_flat <- conv6_2_mbox_loc_perm
I0601 17:03:12.790669  6210 net.cpp:408] conv6_2_mbox_loc_flat -> conv6_2_mbox_loc_flat
I0601 17:03:12.790695  6210 net.cpp:150] Setting up conv6_2_mbox_loc_flat
I0601 17:03:12.790701  6210 net.cpp:157] Top shape: 35 2400 (84000)
I0601 17:03:12.790704  6210 net.cpp:165] Memory required for data: 8676784416
I0601 17:03:12.790707  6210 layer_factory.hpp:77] Creating layer conv6_2_mbox_conf
I0601 17:03:12.790719  6210 net.cpp:100] Creating Layer conv6_2_mbox_conf
I0601 17:03:12.790724  6210 net.cpp:434] conv6_2_mbox_conf <- conv6_2_conv6_2_relu_0_split_2
I0601 17:03:12.790731  6210 net.cpp:408] conv6_2_mbox_conf -> conv6_2_mbox_conf
I0601 17:03:12.792940  6210 net.cpp:150] Setting up conv6_2_mbox_conf
I0601 17:03:12.792963  6210 net.cpp:157] Top shape: 35 24 10 10 (84000)
I0601 17:03:12.792968  6210 net.cpp:165] Memory required for data: 8677120416
I0601 17:03:12.792978  6210 layer_factory.hpp:77] Creating layer conv6_2_mbox_conf_perm
I0601 17:03:12.792989  6210 net.cpp:100] Creating Layer conv6_2_mbox_conf_perm
I0601 17:03:12.792995  6210 net.cpp:434] conv6_2_mbox_conf_perm <- conv6_2_mbox_conf
I0601 17:03:12.793005  6210 net.cpp:408] conv6_2_mbox_conf_perm -> conv6_2_mbox_conf_perm
I0601 17:03:12.793105  6210 net.cpp:150] Setting up conv6_2_mbox_conf_perm
I0601 17:03:12.793112  6210 net.cpp:157] Top shape: 35 10 10 24 (84000)
I0601 17:03:12.793117  6210 net.cpp:165] Memory required for data: 8677456416
I0601 17:03:12.793119  6210 layer_factory.hpp:77] Creating layer conv6_2_mbox_conf_flat
I0601 17:03:12.793128  6210 net.cpp:100] Creating Layer conv6_2_mbox_conf_flat
I0601 17:03:12.793133  6210 net.cpp:434] conv6_2_mbox_conf_flat <- conv6_2_mbox_conf_perm
I0601 17:03:12.793139  6210 net.cpp:408] conv6_2_mbox_conf_flat -> conv6_2_mbox_conf_flat
I0601 17:03:12.793165  6210 net.cpp:150] Setting up conv6_2_mbox_conf_flat
I0601 17:03:12.793171  6210 net.cpp:157] Top shape: 35 2400 (84000)
I0601 17:03:12.793175  6210 net.cpp:165] Memory required for data: 8677792416
I0601 17:03:12.793179  6210 layer_factory.hpp:77] Creating layer conv6_2_mbox_priorbox
I0601 17:03:12.793200  6210 net.cpp:100] Creating Layer conv6_2_mbox_priorbox
I0601 17:03:12.793205  6210 net.cpp:434] conv6_2_mbox_priorbox <- conv6_2_conv6_2_relu_0_split_3
I0601 17:03:12.793211  6210 net.cpp:434] conv6_2_mbox_priorbox <- data_data_0_split_3
I0601 17:03:12.793220  6210 net.cpp:408] conv6_2_mbox_priorbox -> conv6_2_mbox_priorbox
I0601 17:03:12.793249  6210 net.cpp:150] Setting up conv6_2_mbox_priorbox
I0601 17:03:12.793256  6210 net.cpp:157] Top shape: 1 2 2400 (4800)
I0601 17:03:12.793259  6210 net.cpp:165] Memory required for data: 8677811616
I0601 17:03:12.793262  6210 layer_factory.hpp:77] Creating layer conv7_2_mbox_loc
I0601 17:03:12.793274  6210 net.cpp:100] Creating Layer conv7_2_mbox_loc
I0601 17:03:12.793278  6210 net.cpp:434] conv7_2_mbox_loc <- conv7_2_conv7_2_relu_0_split_1
I0601 17:03:12.793287  6210 net.cpp:408] conv7_2_mbox_loc -> conv7_2_mbox_loc
I0601 17:03:12.794606  6210 net.cpp:150] Setting up conv7_2_mbox_loc
I0601 17:03:12.794620  6210 net.cpp:157] Top shape: 35 24 5 5 (21000)
I0601 17:03:12.794622  6210 net.cpp:165] Memory required for data: 8677895616
I0601 17:03:12.794631  6210 layer_factory.hpp:77] Creating layer conv7_2_mbox_loc_perm
I0601 17:03:12.794639  6210 net.cpp:100] Creating Layer conv7_2_mbox_loc_perm
I0601 17:03:12.794646  6210 net.cpp:434] conv7_2_mbox_loc_perm <- conv7_2_mbox_loc
I0601 17:03:12.794654  6210 net.cpp:408] conv7_2_mbox_loc_perm -> conv7_2_mbox_loc_perm
I0601 17:03:12.794749  6210 net.cpp:150] Setting up conv7_2_mbox_loc_perm
I0601 17:03:12.794756  6210 net.cpp:157] Top shape: 35 5 5 24 (21000)
I0601 17:03:12.794761  6210 net.cpp:165] Memory required for data: 8677979616
I0601 17:03:12.794765  6210 layer_factory.hpp:77] Creating layer conv7_2_mbox_loc_flat
I0601 17:03:12.794770  6210 net.cpp:100] Creating Layer conv7_2_mbox_loc_flat
I0601 17:03:12.794775  6210 net.cpp:434] conv7_2_mbox_loc_flat <- conv7_2_mbox_loc_perm
I0601 17:03:12.794782  6210 net.cpp:408] conv7_2_mbox_loc_flat -> conv7_2_mbox_loc_flat
I0601 17:03:12.794806  6210 net.cpp:150] Setting up conv7_2_mbox_loc_flat
I0601 17:03:12.794811  6210 net.cpp:157] Top shape: 35 600 (21000)
I0601 17:03:12.794814  6210 net.cpp:165] Memory required for data: 8678063616
I0601 17:03:12.794818  6210 layer_factory.hpp:77] Creating layer conv7_2_mbox_conf
I0601 17:03:12.794829  6210 net.cpp:100] Creating Layer conv7_2_mbox_conf
I0601 17:03:12.794834  6210 net.cpp:434] conv7_2_mbox_conf <- conv7_2_conv7_2_relu_0_split_2
I0601 17:03:12.794842  6210 net.cpp:408] conv7_2_mbox_conf -> conv7_2_mbox_conf
I0601 17:03:12.796596  6210 net.cpp:150] Setting up conv7_2_mbox_conf
I0601 17:03:12.796608  6210 net.cpp:157] Top shape: 35 24 5 5 (21000)
I0601 17:03:12.796612  6210 net.cpp:165] Memory required for data: 8678147616
I0601 17:03:12.796620  6210 layer_factory.hpp:77] Creating layer conv7_2_mbox_conf_perm
I0601 17:03:12.796629  6210 net.cpp:100] Creating Layer conv7_2_mbox_conf_perm
I0601 17:03:12.796634  6210 net.cpp:434] conv7_2_mbox_conf_perm <- conv7_2_mbox_conf
I0601 17:03:12.796643  6210 net.cpp:408] conv7_2_mbox_conf_perm -> conv7_2_mbox_conf_perm
I0601 17:03:12.796738  6210 net.cpp:150] Setting up conv7_2_mbox_conf_perm
I0601 17:03:12.796748  6210 net.cpp:157] Top shape: 35 5 5 24 (21000)
I0601 17:03:12.796753  6210 net.cpp:165] Memory required for data: 8678231616
I0601 17:03:12.796756  6210 layer_factory.hpp:77] Creating layer conv7_2_mbox_conf_flat
I0601 17:03:12.796762  6210 net.cpp:100] Creating Layer conv7_2_mbox_conf_flat
I0601 17:03:12.796767  6210 net.cpp:434] conv7_2_mbox_conf_flat <- conv7_2_mbox_conf_perm
I0601 17:03:12.796775  6210 net.cpp:408] conv7_2_mbox_conf_flat -> conv7_2_mbox_conf_flat
I0601 17:03:12.796799  6210 net.cpp:150] Setting up conv7_2_mbox_conf_flat
I0601 17:03:12.796805  6210 net.cpp:157] Top shape: 35 600 (21000)
I0601 17:03:12.796808  6210 net.cpp:165] Memory required for data: 8678315616
I0601 17:03:12.796813  6210 layer_factory.hpp:77] Creating layer conv7_2_mbox_priorbox
I0601 17:03:12.796820  6210 net.cpp:100] Creating Layer conv7_2_mbox_priorbox
I0601 17:03:12.796825  6210 net.cpp:434] conv7_2_mbox_priorbox <- conv7_2_conv7_2_relu_0_split_3
I0601 17:03:12.796839  6210 net.cpp:434] conv7_2_mbox_priorbox <- data_data_0_split_4
I0601 17:03:12.796849  6210 net.cpp:408] conv7_2_mbox_priorbox -> conv7_2_mbox_priorbox
I0601 17:03:12.796875  6210 net.cpp:150] Setting up conv7_2_mbox_priorbox
I0601 17:03:12.796881  6210 net.cpp:157] Top shape: 1 2 600 (1200)
I0601 17:03:12.796885  6210 net.cpp:165] Memory required for data: 8678320416
I0601 17:03:12.796888  6210 layer_factory.hpp:77] Creating layer conv8_2_mbox_loc
I0601 17:03:12.796900  6210 net.cpp:100] Creating Layer conv8_2_mbox_loc
I0601 17:03:12.796905  6210 net.cpp:434] conv8_2_mbox_loc <- conv8_2_conv8_2_relu_0_split_1
I0601 17:03:12.796912  6210 net.cpp:408] conv8_2_mbox_loc -> conv8_2_mbox_loc
I0601 17:03:12.799129  6210 net.cpp:150] Setting up conv8_2_mbox_loc
I0601 17:03:12.799154  6210 net.cpp:157] Top shape: 35 16 3 3 (5040)
I0601 17:03:12.799159  6210 net.cpp:165] Memory required for data: 8678340576
I0601 17:03:12.799180  6210 layer_factory.hpp:77] Creating layer conv8_2_mbox_loc_perm
I0601 17:03:12.799196  6210 net.cpp:100] Creating Layer conv8_2_mbox_loc_perm
I0601 17:03:12.799202  6210 net.cpp:434] conv8_2_mbox_loc_perm <- conv8_2_mbox_loc
I0601 17:03:12.799211  6210 net.cpp:408] conv8_2_mbox_loc_perm -> conv8_2_mbox_loc_perm
I0601 17:03:12.799355  6210 net.cpp:150] Setting up conv8_2_mbox_loc_perm
I0601 17:03:12.799365  6210 net.cpp:157] Top shape: 35 3 3 16 (5040)
I0601 17:03:12.799368  6210 net.cpp:165] Memory required for data: 8678360736
I0601 17:03:12.799372  6210 layer_factory.hpp:77] Creating layer conv8_2_mbox_loc_flat
I0601 17:03:12.799379  6210 net.cpp:100] Creating Layer conv8_2_mbox_loc_flat
I0601 17:03:12.799386  6210 net.cpp:434] conv8_2_mbox_loc_flat <- conv8_2_mbox_loc_perm
I0601 17:03:12.799393  6210 net.cpp:408] conv8_2_mbox_loc_flat -> conv8_2_mbox_loc_flat
I0601 17:03:12.799422  6210 net.cpp:150] Setting up conv8_2_mbox_loc_flat
I0601 17:03:12.799429  6210 net.cpp:157] Top shape: 35 144 (5040)
I0601 17:03:12.799434  6210 net.cpp:165] Memory required for data: 8678380896
I0601 17:03:12.799437  6210 layer_factory.hpp:77] Creating layer conv8_2_mbox_conf
I0601 17:03:12.799450  6210 net.cpp:100] Creating Layer conv8_2_mbox_conf
I0601 17:03:12.799456  6210 net.cpp:434] conv8_2_mbox_conf <- conv8_2_conv8_2_relu_0_split_2
I0601 17:03:12.799465  6210 net.cpp:408] conv8_2_mbox_conf -> conv8_2_mbox_conf
I0601 17:03:12.801728  6210 net.cpp:150] Setting up conv8_2_mbox_conf
I0601 17:03:12.801745  6210 net.cpp:157] Top shape: 35 16 3 3 (5040)
I0601 17:03:12.801748  6210 net.cpp:165] Memory required for data: 8678401056
I0601 17:03:12.801755  6210 layer_factory.hpp:77] Creating layer conv8_2_mbox_conf_perm
I0601 17:03:12.801764  6210 net.cpp:100] Creating Layer conv8_2_mbox_conf_perm
I0601 17:03:12.801769  6210 net.cpp:434] conv8_2_mbox_conf_perm <- conv8_2_mbox_conf
I0601 17:03:12.801774  6210 net.cpp:408] conv8_2_mbox_conf_perm -> conv8_2_mbox_conf_perm
I0601 17:03:12.801868  6210 net.cpp:150] Setting up conv8_2_mbox_conf_perm
I0601 17:03:12.801874  6210 net.cpp:157] Top shape: 35 3 3 16 (5040)
I0601 17:03:12.801877  6210 net.cpp:165] Memory required for data: 8678421216
I0601 17:03:12.801878  6210 layer_factory.hpp:77] Creating layer conv8_2_mbox_conf_flat
I0601 17:03:12.801882  6210 net.cpp:100] Creating Layer conv8_2_mbox_conf_flat
I0601 17:03:12.801885  6210 net.cpp:434] conv8_2_mbox_conf_flat <- conv8_2_mbox_conf_perm
I0601 17:03:12.801890  6210 net.cpp:408] conv8_2_mbox_conf_flat -> conv8_2_mbox_conf_flat
I0601 17:03:12.801909  6210 net.cpp:150] Setting up conv8_2_mbox_conf_flat
I0601 17:03:12.801913  6210 net.cpp:157] Top shape: 35 144 (5040)
I0601 17:03:12.801915  6210 net.cpp:165] Memory required for data: 8678441376
I0601 17:03:12.801918  6210 layer_factory.hpp:77] Creating layer conv8_2_mbox_priorbox
I0601 17:03:12.801923  6210 net.cpp:100] Creating Layer conv8_2_mbox_priorbox
I0601 17:03:12.801926  6210 net.cpp:434] conv8_2_mbox_priorbox <- conv8_2_conv8_2_relu_0_split_3
I0601 17:03:12.801930  6210 net.cpp:434] conv8_2_mbox_priorbox <- data_data_0_split_5
I0601 17:03:12.801944  6210 net.cpp:408] conv8_2_mbox_priorbox -> conv8_2_mbox_priorbox
I0601 17:03:12.801970  6210 net.cpp:150] Setting up conv8_2_mbox_priorbox
I0601 17:03:12.801975  6210 net.cpp:157] Top shape: 1 2 144 (288)
I0601 17:03:12.801977  6210 net.cpp:165] Memory required for data: 8678442528
I0601 17:03:12.801980  6210 layer_factory.hpp:77] Creating layer conv9_2_mbox_loc
I0601 17:03:12.801988  6210 net.cpp:100] Creating Layer conv9_2_mbox_loc
I0601 17:03:12.801992  6210 net.cpp:434] conv9_2_mbox_loc <- conv9_2_conv9_2_relu_0_split_0
I0601 17:03:12.801997  6210 net.cpp:408] conv9_2_mbox_loc -> conv9_2_mbox_loc
I0601 17:03:12.803668  6210 net.cpp:150] Setting up conv9_2_mbox_loc
I0601 17:03:12.803679  6210 net.cpp:157] Top shape: 35 16 1 1 (560)
I0601 17:03:12.803683  6210 net.cpp:165] Memory required for data: 8678444768
I0601 17:03:12.803688  6210 layer_factory.hpp:77] Creating layer conv9_2_mbox_loc_perm
I0601 17:03:12.803694  6210 net.cpp:100] Creating Layer conv9_2_mbox_loc_perm
I0601 17:03:12.803699  6210 net.cpp:434] conv9_2_mbox_loc_perm <- conv9_2_mbox_loc
I0601 17:03:12.803704  6210 net.cpp:408] conv9_2_mbox_loc_perm -> conv9_2_mbox_loc_perm
I0601 17:03:12.803793  6210 net.cpp:150] Setting up conv9_2_mbox_loc_perm
I0601 17:03:12.803798  6210 net.cpp:157] Top shape: 35 1 1 16 (560)
I0601 17:03:12.803800  6210 net.cpp:165] Memory required for data: 8678447008
I0601 17:03:12.803802  6210 layer_factory.hpp:77] Creating layer conv9_2_mbox_loc_flat
I0601 17:03:12.803807  6210 net.cpp:100] Creating Layer conv9_2_mbox_loc_flat
I0601 17:03:12.803808  6210 net.cpp:434] conv9_2_mbox_loc_flat <- conv9_2_mbox_loc_perm
I0601 17:03:12.803813  6210 net.cpp:408] conv9_2_mbox_loc_flat -> conv9_2_mbox_loc_flat
I0601 17:03:12.803833  6210 net.cpp:150] Setting up conv9_2_mbox_loc_flat
I0601 17:03:12.803838  6210 net.cpp:157] Top shape: 35 16 (560)
I0601 17:03:12.803839  6210 net.cpp:165] Memory required for data: 8678449248
I0601 17:03:12.803841  6210 layer_factory.hpp:77] Creating layer conv9_2_mbox_conf
I0601 17:03:12.803849  6210 net.cpp:100] Creating Layer conv9_2_mbox_conf
I0601 17:03:12.803853  6210 net.cpp:434] conv9_2_mbox_conf <- conv9_2_conv9_2_relu_0_split_1
I0601 17:03:12.803858  6210 net.cpp:408] conv9_2_mbox_conf -> conv9_2_mbox_conf
I0601 17:03:12.806015  6210 net.cpp:150] Setting up conv9_2_mbox_conf
I0601 17:03:12.806035  6210 net.cpp:157] Top shape: 35 16 1 1 (560)
I0601 17:03:12.806036  6210 net.cpp:165] Memory required for data: 8678451488
I0601 17:03:12.806044  6210 layer_factory.hpp:77] Creating layer conv9_2_mbox_conf_perm
I0601 17:03:12.806052  6210 net.cpp:100] Creating Layer conv9_2_mbox_conf_perm
I0601 17:03:12.806057  6210 net.cpp:434] conv9_2_mbox_conf_perm <- conv9_2_mbox_conf
I0601 17:03:12.806066  6210 net.cpp:408] conv9_2_mbox_conf_perm -> conv9_2_mbox_conf_perm
I0601 17:03:12.806164  6210 net.cpp:150] Setting up conv9_2_mbox_conf_perm
I0601 17:03:12.806170  6210 net.cpp:157] Top shape: 35 1 1 16 (560)
I0601 17:03:12.806172  6210 net.cpp:165] Memory required for data: 8678453728
I0601 17:03:12.806174  6210 layer_factory.hpp:77] Creating layer conv9_2_mbox_conf_flat
I0601 17:03:12.806180  6210 net.cpp:100] Creating Layer conv9_2_mbox_conf_flat
I0601 17:03:12.806182  6210 net.cpp:434] conv9_2_mbox_conf_flat <- conv9_2_mbox_conf_perm
I0601 17:03:12.806186  6210 net.cpp:408] conv9_2_mbox_conf_flat -> conv9_2_mbox_conf_flat
I0601 17:03:12.806206  6210 net.cpp:150] Setting up conv9_2_mbox_conf_flat
I0601 17:03:12.806210  6210 net.cpp:157] Top shape: 35 16 (560)
I0601 17:03:12.806212  6210 net.cpp:165] Memory required for data: 8678455968
I0601 17:03:12.806215  6210 layer_factory.hpp:77] Creating layer conv9_2_mbox_priorbox
I0601 17:03:12.806221  6210 net.cpp:100] Creating Layer conv9_2_mbox_priorbox
I0601 17:03:12.806222  6210 net.cpp:434] conv9_2_mbox_priorbox <- conv9_2_conv9_2_relu_0_split_2
I0601 17:03:12.806226  6210 net.cpp:434] conv9_2_mbox_priorbox <- data_data_0_split_6
I0601 17:03:12.806231  6210 net.cpp:408] conv9_2_mbox_priorbox -> conv9_2_mbox_priorbox
I0601 17:03:12.806267  6210 net.cpp:150] Setting up conv9_2_mbox_priorbox
I0601 17:03:12.806272  6210 net.cpp:157] Top shape: 1 2 16 (32)
I0601 17:03:12.806273  6210 net.cpp:165] Memory required for data: 8678456096
I0601 17:03:12.806277  6210 layer_factory.hpp:77] Creating layer mbox_loc
I0601 17:03:12.806282  6210 net.cpp:100] Creating Layer mbox_loc
I0601 17:03:12.806284  6210 net.cpp:434] mbox_loc <- conv4_3_norm_mbox_loc_flat
I0601 17:03:12.806288  6210 net.cpp:434] mbox_loc <- fc7_mbox_loc_flat
I0601 17:03:12.806293  6210 net.cpp:434] mbox_loc <- conv6_2_mbox_loc_flat
I0601 17:03:12.806295  6210 net.cpp:434] mbox_loc <- conv7_2_mbox_loc_flat
I0601 17:03:12.806298  6210 net.cpp:434] mbox_loc <- conv8_2_mbox_loc_flat
I0601 17:03:12.806301  6210 net.cpp:434] mbox_loc <- conv9_2_mbox_loc_flat
I0601 17:03:12.806305  6210 net.cpp:408] mbox_loc -> mbox_loc
I0601 17:03:12.806330  6210 net.cpp:150] Setting up mbox_loc
I0601 17:03:12.806335  6210 net.cpp:157] Top shape: 35 34928 (1222480)
I0601 17:03:12.806337  6210 net.cpp:165] Memory required for data: 8683346016
I0601 17:03:12.806340  6210 layer_factory.hpp:77] Creating layer mbox_conf
I0601 17:03:12.806344  6210 net.cpp:100] Creating Layer mbox_conf
I0601 17:03:12.806346  6210 net.cpp:434] mbox_conf <- conv4_3_norm_mbox_conf_flat
I0601 17:03:12.806349  6210 net.cpp:434] mbox_conf <- fc7_mbox_conf_flat
I0601 17:03:12.806354  6210 net.cpp:434] mbox_conf <- conv6_2_mbox_conf_flat
I0601 17:03:12.806356  6210 net.cpp:434] mbox_conf <- conv7_2_mbox_conf_flat
I0601 17:03:12.806360  6210 net.cpp:434] mbox_conf <- conv8_2_mbox_conf_flat
I0601 17:03:12.806362  6210 net.cpp:434] mbox_conf <- conv9_2_mbox_conf_flat
I0601 17:03:12.806365  6210 net.cpp:408] mbox_conf -> mbox_conf
I0601 17:03:12.806385  6210 net.cpp:150] Setting up mbox_conf
I0601 17:03:12.806388  6210 net.cpp:157] Top shape: 35 34928 (1222480)
I0601 17:03:12.806391  6210 net.cpp:165] Memory required for data: 8688235936
I0601 17:03:12.806393  6210 layer_factory.hpp:77] Creating layer mbox_priorbox
I0601 17:03:12.806396  6210 net.cpp:100] Creating Layer mbox_priorbox
I0601 17:03:12.806399  6210 net.cpp:434] mbox_priorbox <- conv4_3_norm_mbox_priorbox
I0601 17:03:12.806402  6210 net.cpp:434] mbox_priorbox <- fc7_mbox_priorbox
I0601 17:03:12.806406  6210 net.cpp:434] mbox_priorbox <- conv6_2_mbox_priorbox
I0601 17:03:12.806408  6210 net.cpp:434] mbox_priorbox <- conv7_2_mbox_priorbox
I0601 17:03:12.806411  6210 net.cpp:434] mbox_priorbox <- conv8_2_mbox_priorbox
I0601 17:03:12.806413  6210 net.cpp:434] mbox_priorbox <- conv9_2_mbox_priorbox
I0601 17:03:12.806416  6210 net.cpp:408] mbox_priorbox -> mbox_priorbox
I0601 17:03:12.806434  6210 net.cpp:150] Setting up mbox_priorbox
I0601 17:03:12.806439  6210 net.cpp:157] Top shape: 1 2 34928 (69856)
I0601 17:03:12.806442  6210 net.cpp:165] Memory required for data: 8688515360
I0601 17:03:12.806443  6210 layer_factory.hpp:77] Creating layer mbox_loss
I0601 17:03:12.806452  6210 net.cpp:100] Creating Layer mbox_loss
I0601 17:03:12.806454  6210 net.cpp:434] mbox_loss <- mbox_loc
I0601 17:03:12.806457  6210 net.cpp:434] mbox_loss <- mbox_conf
I0601 17:03:12.806460  6210 net.cpp:434] mbox_loss <- mbox_priorbox
…
  name: "data"
  type: "AnnotatedData"
  top: "data"
  top: "label"
  include {
    phase: TEST
  }
  transform_param {
    mean_value: 104
    mean_value: 117
    mean_value: 123
    resize_param {
      prob: 1
      resize_mode: WARP
      height: 300
      width: 300
      interp_mode: LINEAR
    }
  }
  data_param {
    source: "examples/tbs_300x300_HSIL_10x/tbs_300x300_HSIL_10x_test_lmdb"
    batch_size: 4
    backend: LMDB
  }
  annotated_data_param {
    batch_sampler {
    }
    label_map_file: "data/tbs_300x300_HSIL_10x/labelmap_tbs.prototxt"
  }
}
layer {
  name: "conv1_1"
  type: "Convolution"
  bottom: "data"
  top: "conv1_1"
  param {
    lr_mult: 1
    decay_mult: 1
  }
  param {
    lr_mult: 2
    decay_mult: 0
  }
  convolution_param {
    num_output: 64
    pad: 1
    kernel_size: 3
    weight_filler {
      type: "xavier"
    }
    bias_filler {
      type: "constant"
      value: 0
    }
  }
}
layer {
  name: "relu1_1"
  type: "ReLU"
  bottom: "conv1_1"
  top: "conv1_1"
}
layer {
  name: "conv1_2"
  type: "Convolution"
  bottom: "conv1_1"
  top: "conv1_2"
  param {
    lr_mult: 1
    decay_mult: 1
  }
  param {
    lr_mult: 2
    decay_mult: 0
  }
  convolution_param {
    num_output: 64
    pad: 1
    kernel_size: 3
    weight_filler {
      type: "xavier"
    }
    bias_filler {
      type: "constant"
      value: 0
    }
  }
}
layer {
  name: "relu1_2"
  type: "ReLU"
  bottom: "conv1_2"
  top: "conv1_2"
}
layer {
  name: "pool1"
  type: "Pooling"
  bottom: "conv1_2"
  top: "pool1"
  pooling_param {
    pool: MAX
    kernel_size: 2
    stride: 2
  }
}
layer {
  name: "conv2_1"
  type: "Convolution"
  bottom: "pool1"
  top: "conv2_1"
  param {
    lr_mult: 1
    decay_mult: 1
  }
  param {
    lr_mult: 2
    decay_mult: 0
  }
  convolution_param {
    num_output: 128
    pad: 1
    kernel_size: 3
    weight_filler {
      type: "xavier"
    }
    bias_filler {
      type: "constant"
      value: 0
    }
  }
}
layer {
  name: "relu2_1"
  type: "ReLU"
  bottom: "conv2_1"
  top: "conv2_1"
}
layer {
  name: "conv2_2"
  type: "Convolution"
  bottom: "conv2_1"
  top: "conv2_2"
  param {
    lr_mult: 1
    decay_mult: 1
  }
  param {
    lr_mult: 2
    decay_mult: 0
  }
  convolution_param {
    num_output: 128
    pad: 1
    kernel_size: 3
    weight_filler {
      type: "xavier"
    }
    bias_filler {
      type: "constant"
      value: 0
    }
  }
}
layer {
  name: "relu2_2"
  type: "ReLU"
  bottom: "conv2_2"
  top: "conv2_2"
}
layer {
  name: "pool2"
  type: "Pooling"
  bottom: "conv2_2"
  top: "pool2"
  pooling_param {
    pool: MAX
    kernel_size: 2
    stride: 2
  }
}
layer {
  name: "conv3_1"
  type: "Convolution"
  bottom: "pool2"
  top: "conv3_1"
  param {
    lr_mult: 1
    decay_mult: 1
  }
  param {
    lr_mult: 2
    decay_mult: 0
  }
  convolution_param {
    num_output: 256
    pad: 1
    kernel_size: 3
    weight_filler {
      type: "xavier"
    }
    bias_filler {
      type: "constant"
      value: 0
    }
  }
}
layer {
  name: "relu3_1"
  type: "ReLU"
  bottom: "conv3_1"
  top: "conv3_1"
}
layer {
  name: "conv3_2"
  type: "Convolution"
  bottom: "conv3_1"
  top: "conv3_2"
  param {
    lr_mult: 1
    decay_mult: 1
  }
  param {
    lr_mult: 2
    decay_mult: 0
  }
  convolution_param {
    num_output: 256
    pad: 1
    kernel_size: 3
    weight_filler {
      type: "xavier"
    }
    bias_filler {
      type: "constant"
      value: 0
    }
  }
}
layer {
  name: "relu3_2"
  type: "ReLU"
  bottom: "conv3_2"
  top: "conv3_2"
}
layer {
  name: "conv3_3"
  type: "Convolution"
  bottom: "conv3_2"
  top: "conv3_3"
  param {
    lr_mult: 1
    decay_mult: 1
  }
  param {
    lr_mult: 2
    decay_mult: 0
  }
  convolution_param {
    num_output: 256
    pad: 1
    kernel_size: 3
    weight_filler {
      type: "xavier"
    }
    bias_filler {
      type: "constant"
      value: 0
    }
  }
}
layer {
  name: "relu3_3"
  type: "ReLU"
  bottom: "conv3_3"
  top: "conv3_3"
}
layer {
  name: "pool3"
  type: "Pooling"
  bottom: "conv3_3"
  top: "pool3"
  pooling_param {
    pool: MAX
    kernel_size: 2
    stride: 2
  }
}
layer {
  name: "conv4_1"
  type: "Convolution"
  bottom: "pool3"
  top: "conv4_1"
  param {
    lr_mult: 1
    decay_mult: 1
  }
  param {
    lr_mult: 2
    decay_mult: 0
  }
  convolution_param {
    num_output: 512
    pad: 1
    kernel_size: 3
    weight_filler {
      type: "xavier"
    }
    bias_filler {
      type: "constant"
      value: 0
    }
  }
}
layer {
  name: "relu4_1"
  type: "ReLU"
  bottom: "conv4_1"
  top: "conv4_1"
}
layer {
  name: "conv4_2"
  type: "Convolution"
  bottom: "conv4_1"
  top: "conv4_2"
  param {
    lr_mult: 1
    decay_mult: 1
  }
  param {
    lr_mult: 2
    decay_mult: 0
  }
  convolution_param {
    num_output: 512
    pad: 1
    kernel_size: 3
    weight_filler {
      type: "xavier"
    }
    bias_filler {
      type: "constant"
      value: 0
    }
  }
}
layer {
  name: "relu4_2"
  type: "ReLU"
  bottom: "conv4_2"
  top: "conv4_2"
}
layer {
  name: "conv4_3"
  type: "Convolution"
  bottom: "conv4_2"
  top: "conv4_3"
  param {
    lr_mult: 1
    decay_mult: 1
  }
  param {
    lr_mult: 2
    decay_mult: 0
  }
  convolution_param {
    num_output: 512
    pad: 1
    kernel_size: 3
    weight_filler {
      type: "xavier"
    }
    bias_filler {
      type: "constant"
      value: 0
    }
  }
}
layer {
  name: "relu4_3"
  type: "ReLU"
  bottom: "conv4_3"
  top: "conv4_3"
}
layer {
  name: "pool4"
  type: "Pooling"
  bottom: "conv4_3"
  top: "pool4"
  pooling_param {
    pool: MAX
    kernel_size: 2
    stride: 2
  }
}
layer {
  name: "conv5_1"
  type: "Convolution"
  bottom: "pool4"
  top: "conv5_1"
  param {
    lr_mult: 1
    decay_mult: 1
  }
  param {
    lr_mult: 2
    decay_mult: 0
  }
  convolution_param {
    num_output: 512
    pad: 1
    kernel_size: 3
    weight_filler {
      type: "xavier"
    }
    bias_filler {
      type: "constant"
      value: 0
    }
    dilation: 1
  }
}
layer {
  name: "relu5_1"
  type: "ReLU"
  bottom: "conv5_1"
  top: "conv5_1"
}
layer {
  name: "conv5_2"
  type: "Convolution"
  bottom: "conv5_1"
  top: "conv5_2"
  param {
    lr_mult: 1
    decay_mult: 1
  }
  param {
    lr_mult: 2
    decay_mult: 0
  }
  convolution_param {
    num_output: 512
    pad: 1
    kernel_size: 3
    weight_filler {
      type: "xavier"
    }
    bias_filler {
      type: "constant"
      value: 0
    }
    dilation: 1
  }
}
layer {
  name: "relu5_2"
  type: "ReLU"
  bottom: "conv5_2"
  top: "conv5_2"
}
layer {
  name: "conv5_3"
  type: "Convolution"
  bottom: "conv5_2"
  top: "conv5_3"
  param {
    lr_mult: 1
    decay_mult: 1
  }
  param {
    lr_mult: 2
    decay_mult: 0
  }
  convolution_param {
    num_output: 512
    pad: 1
    kernel_size: 3
    weight_filler {
      type: "xavier"
    }
    bias_filler {
      type: "constant"
      value: 0
    }
    dilation: 1
  }
}
layer {
  name: "relu5_3"
  type: "ReLU"
  bottom: "conv5_3"
  top: "conv5_3"
}
layer {
  name: "pool5"
  type: "Pooling"
  bottom: "conv5_3"
  top: "pool5"
  pooling_param {
    pool: MAX
    kernel_size: 3
    stride: 1
    pad: 1
  }
}
layer {
  name: "fc6"
  type: "Convolution"
  bottom: "pool5"
  top: "fc6"
  param {
    lr_mult: 1
    decay_mult: 1
  }
  param {
    lr_mult: 2
    decay_mult: 0
  }
  convolution_param {
    num_output: 1024
    pad: 6
    kernel_size: 3
    weight_filler {
      type: "xavier"
    }
    bias_filler {
      type: "constant"
      value: 0
    }
    dilation: 6
  }
}
layer {
  name: "relu6"
  type: "ReLU"
  bottom: "fc6"
  top: "fc6"
}
layer {
  name: "fc7"
  type: "Convolution"
  bottom: "fc6"
  top: "fc7"
  param {
    lr_mult: 1
    decay_mult: 1
  }
  param {
    lr_mult: 2
    decay_mult: 0
  }
  convolution_param {
    num_output: 1024
    kernel_size: 1
    weight_filler {
      type: "xavier"
    }
    bias_filler {
      type: "constant"
      value: 0
    }
  }
}
layer {
  name: "relu7"
  type: "ReLU"
  bottom: "fc7"
  top: "fc7"
}
layer {
  name: "conv6_1"
  type: "Convolution"
  bottom: "fc7"
  top: "conv6_1"
  param {
    lr_mult: 1
    decay_mult: 1
  }
  param {
    lr_mult: 2
    decay_mult: 0
  }
  convolution_param {
    num_output: 256
    pad: 0
    kernel_size: 1
    stride: 1
    weight_filler {
      type: "xavier"
    }
    bias_filler {
      type: "constant"
      value: 0
    }
  }
}
layer {
  name: "conv6_1_relu"
  type: "ReLU"
  bottom: "conv6_1"
  top: "conv6_1"
}
layer {
  name: "conv6_2"
  type: "Convolution"
  bottom: "conv6_1"
  top: "conv6_2"
  param {
    lr_mult: 1
    decay_mult: 1
  }
  param {
    lr_mult: 2
    decay_mult: 0
  }
  convolution_param {
    num_output: 512
    pad: 1
    kernel_size: 3
    stride: 2
    weight_filler {
      type: "xavier"
    }
    bias_filler {
      type: "constant"
      value: 0
    }
  }
}
layer {
  name: "conv6_2_relu"
  type: "ReLU"
  bottom: "conv6_2"
  top: "conv6_2"
}
layer {
  name: "conv7_1"
  type: "Convolution"
  bottom: "conv6_2"
  top: "conv7_1"
  param {
    lr_mult: 1
    decay_mult: 1
  }
  param {
    lr_mult: 2
    decay_mult: 0
  }
  convolution_param {
    num_output: 128
    pad: 0
    kernel_size: 1
    stride: 1
    weight_filler {
      type: "xavier"
    }
    bias_filler {
      type: "constant"
      value: 0
    }
  }
}
layer {
  name: "conv7_1_relu"
  type: "ReLU"
  bottom: "conv7_1"
  top: "conv7_1"
}
layer {
  name: "conv7_2"
  type: "Convolution"
  bottom: "conv7_1"
  top: "conv7_2"
  param {
    lr_mult: 1
    decay_mult: 1
  }
  param {
    lr_mult: 2
    decay_mult: 0
  }
  convolution_param {
    num_output: 256
    pad: 1
    kernel_size: 3
    stride: 2
    weight_filler {
      type: "xavier"
    }
    bias_filler {
      type: "constant"
      value: 0
    }
  }
}
layer {
  name: "conv7_2_relu"
  type: "ReLU"
  bottom: "conv7_2"
  top: "conv7_2"
}
layer {
  name: "conv8_1"
  type: "Convolution"
  bottom: "conv7_2"
  top: "conv8_1"
  param {
    lr_mult: 1
    decay_mult: 1
  }
  param {
    lr_mult: 2
    decay_mult: 0
  }
  convolution_param {
    num_output: 128
    pad: 0
    kernel_size: 1
    stride: 1
    weight_filler {
      type: "xavier"
    }
    bias_filler {
      type: "constant"
      value: 0
    }
  }
}
layer {
  name: "conv8_1_relu"
  type: "ReLU"
  bottom: "conv8_1"
  top: "conv8_1"
}
layer {
  name: "conv8_2"
  type: "Convolution"
  bottom: "conv8_1"
  top: "conv8_2"
  param {
    lr_mult: 1
    decay_mult: 1
  }
  param {
    lr_mult: 2
    decay_mult: 0
  }
  convolution_param {
    num_output: 256
    pad: 0
    kernel_size: 3
    stride: 1
    weight_filler {
      type: "xavier"
    }
    bias_filler {
      type: "constant"
      value: 0
    }
  }
}
layer {
  name: "conv8_2_relu"
  type: "ReLU"
  bottom: "conv8_2"
  top: "conv8_2"
}
layer {
  name: "conv9_1"
  type: "Convolution"
  bottom: "conv8_2"
  top: "conv9_1"
  param {
    lr_mult: 1
    decay_mult: 1
  }
  param {
    lr_mult: 2
    decay_mult: 0
  }
  convolution_param {
    num_output: 128
    pad: 0
    kernel_size: 1
    stride: 1
    weight_filler {
      type: "xavier"
    }
    bias_filler {
      type: "constant"
      value: 0
    }
  }
}
layer {
  name: "conv9_1_relu"
  type: "ReLU"
  bottom: "conv9_1"
  top: "conv9_1"
}
layer {
  name: "conv9_2"
  type: "Convolution"
  bottom: "conv9_1"
  top: "conv9_2"
  param {
    lr_mult: 1
    decay_mult: 1
  }
  param {
    lr_mult: 2
    decay_mult: 0
  }
  convolution_param {
    num_output: 256
    pad: 0
    kernel_size: 3
    stride: 1
    weight_filler {
      type: "xavier"
    }
    bias_filler {
      type: "constant"
      value: 0
    }
  }
}
layer {
  name: "conv9_2_relu"
  type: "ReLU"
  bottom: "conv9_2"
  top: "conv9_2"
}
layer {
  name: "conv4_3_norm"
  type: "Normalize"
  bottom: "conv4_3"
  top: "conv4_3_norm"
  norm_param {
    across_spatial: false
    scale_filler {
      type: "constant"
      value: 20
    }
    channel_shared: false
  }
}
layer {
  name: "conv4_3_norm_mbox_loc"
  type: "Convolution"
  bottom: "conv4_3_norm"
  top: "conv4_3_norm_mbox_loc"
  param {
    lr_mult: 1
    decay_mult: 1
  }
  param {
    lr_mult: 2
    decay_mult: 0
  }
  convolution_param {
    num_output: 16
    pad: 1
    kernel_size: 3
    stride: 1
    weight_filler {
      type: "xavier"
    }
    bias_filler {
      type: "constant"
      value: 0
    }
  }
}
layer {
  name: "conv4_3_norm_mbox_loc_perm"
  type: "Permute"
  bottom: "conv4_3_norm_mbox_loc"
  top: "conv4_3_norm_mbox_loc_perm"
  permute_param {
    order: 0
    order: 2
    order: 3
    order: 1
  }
}
layer {
  name: "conv4_3_norm_mbox_loc_flat"
  type: "Flatten"
  bottom: "conv4_3_norm_mbox_loc_perm"
  top: "conv4_3_norm_mbox_loc_flat"
  flatten_param {
    axis: 1
  }
}
layer {
  name: "conv4_3_norm_mbox_conf"
  type: "Convolution"
  bottom: "conv4_3_norm"
  top: "conv4_3_norm_mbox_conf"
  param {
    lr_mult: 1
    decay_mult: 1
  }
  param {
    lr_mult: 2
    decay_mult: 0
  }
  convolution_param {
    num_output: 16
    pad: 1
    kernel_size: 3
    stride: 1
    weight_filler {
      type: "xavier"
    }
    bias_filler {
      type: "constant"
      value: 0
    }
  }
}
layer {
  name: "conv4_3_norm_mbox_conf_perm"
  type: "Permute"
  bottom: "conv4_3_norm_mbox_conf"
  top: "conv4_3_norm_mbox_conf_perm"
  permute_param {
    order: 0
    order: 2
    order: 3
    order: 1
  }
}
layer {
  name: "conv4_3_norm_mbox_conf_flat"
  type: "Flatten"
  bottom: "conv4_3_norm_mbox_conf_perm"
  top: "conv4_3_norm_mbox_conf_flat"
  flatten_param {
    axis: 1
  }
}
layer {
  name: "conv4_3_norm_mbox_priorbox"
  type: "PriorBox"
  bottom: "conv4_3_norm"
  bottom: "data"
  top: "conv4_3_norm_mbox_priorbox"
  prior_box_param {
    min_size: 30
    max_size: 60
    aspect_ratio: 2
    flip: true
    clip: false
    variance: 0.1
    variance: 0.1
    variance: 0.2
    variance: 0.2
    step: 8
    offset: 0.5
  }
}
layer {
  name: "fc7_mbox_loc"
  type: "Convolution"
  bottom: "fc7"
  top: "fc7_mbox_loc"
  param {
    lr_mult: 1
    decay_mult: 1
  }
  param {
    lr_mult: 2
    decay_mult: 0
  }
  convolution_param {
    num_output: 24
    pad: 1
    kernel_size: 3
    stride: 1
    weight_filler {
      type: "xavier"
    }
    bias_filler {
      type: "constant"
      value: 0
    }
  }
}
layer {
  name: "fc7_mbox_loc_perm"
  type: "Permute"
  bottom: "fc7_mbox_loc"
  top: "fc7_mbox_loc_perm"
  permute_param {
    order: 0
    order: 2
    order: 3
    order: 1
  }
}
layer {
  name: "fc7_mbox_loc_flat"
  type: "Flatten"
  bottom: "fc7_mbox_loc_perm"
  top: "fc7_mbox_loc_flat"
  flatten_param {
    axis: 1
  }
}
layer {
  name: "fc7_mbox_conf"
  type: "Convolution"
  bottom: "fc7"
  top: "fc7_mbox_conf"
  param {
    lr_mult: 1
    decay_mult: 1
  }
  param {
    lr_mult: 2
    decay_mult: 0
  }
  convolution_param {
    num_output: 24
    pad: 1
    kernel_size: 3
    stride: 1
    weight_filler {
      type: "xavier"
    }
    bias_filler {
      type: "constant"
      value: 0
    }
  }
}
layer {
  name: "fc7_mbox_conf_perm"
  type: "Permute"
  bottom: "fc7_mbox_conf"
  top: "fc7_mbox_conf_perm"
  permute_param {
    order: 0
    order: 2
    order: 3
    order: 1
  }
}
layer {
  name: "fc7_mbox_conf_flat"
  type: "Flatten"
  bottom: "fc7_mbox_conf_perm"
  top: "fc7_mbox_conf_flat"
  flatten_param {
    axis: 1
  }
}
layer {
  name: "fc7_mbox_priorbox"
  type: "PriorBox"
  bottom: "fc7"
  bottom: "data"
  top: "fc7_mbox_priorbox"
  prior_box_param {
    min_size: 60
    max_size: 111
    aspect_ratio: 2
    aspect_ratio: 3
    flip: true
    clip: false
    variance: 0.1
    variance: 0.1
    variance: 0.2
    variance: 0.2
    step: 16
    offset: 0.5
  }
}
layer {
  name: "conv6_2_mbox_loc"
  type: "Convolution"
  bottom: "conv6_2"
  top: "conv6_2_mbox_loc"
  param {
    lr_mult: 1
    decay_mult: 1
  }
  param {
    lr_mult: 2
    decay_mult: 0
  }
  convolution_param {
    num_output: 24
    pad: 1
    kernel_size: 3
    stride: 1
    weight_filler {
      type: "xavier"
    }
    bias_filler {
      type: "constant"
      value: 0
    }
  }
}
layer {
  name: "conv6_2_mbox_loc_perm"
  type: "Permute"
  bottom: "conv6_2_mbox_loc"
  top: "conv6_2_mbox_loc_perm"
  permute_param {
    order: 0
    order: 2
    order: 3
    order: 1
  }
}
layer {
  name: "conv6_2_mbox_loc_flat"
  type: "Flatten"
  bottom: "conv6_2_mbox_loc_perm"
  top: "conv6_2_mbox_loc_flat"
  flatten_param {
    axis: 1
  }
}
layer {
  name: "conv6_2_mbox_conf"
  type: "Convolution"
  bottom: "conv6_2"
  top: "conv6_2_mbox_conf"
  param {
    lr_mult: 1
    decay_mult: 1
  }
  param {
    lr_mult: 2
    decay_mult: 0
  }
  convolution_param {
    num_output: 24
    pad: 1
    kernel_size: 3
    stride: 1
    weight_filler {
      type: "xavier"
    }
    bias_filler {
      type: "constant"
      value: 0
    }
  }
}
layer {
  name: "conv6_2_mbox_conf_perm"
  type: "Permute"
  bottom: "conv6_2_mbox_conf"
  top: "conv6_2_mbox_conf_perm"
  permute_param {
    order: 0
    order: 2
    order: 3
    order: 1
  }
}
layer {
  name: "conv6_2_mbox_conf_flat"
  type: "Flatten"
  bottom: "conv6_2_mbox_conf_perm"
  top: "conv6_2_mbox_conf_flat"
  flatten_param {
    axis: 1
  }
}
layer {
  name: "conv6_2_mbox_priorbox"
  type: "PriorBox"
  bottom: "conv6_2"
  bottom: "data"
  top: "conv6_2_mbox_priorbox"
  prior_box_param {
    min_size: 111
    max_size: 162
    aspect_ratio: 2
    aspect_ratio: 3
    flip: true
    clip: false
    variance: 0.1
    variance: 0.1
    variance: 0.2
    variance: 0.2
    step: 32
    offset: 0.5
  }
}
layer {
  name: "conv7_2_mbox_loc"
  type: "Convolution"
  bottom: "conv7_2"
  top: "conv7_2_mbox_loc"
  param {
    lr_mult: 1
    decay_mult: 1
  }
  param {
    lr_mult: 2
    decay_mult: 0
  }
  convolution_param {
    num_output: 24
    pad: 1
    kernel_size: 3
    stride: 1
    weight_filler {
      type: "xavier"
    }
    bias_filler {
      type: "constant"
      value: 0
    }
  }
}
layer {
  name: "conv7_2_mbox_loc_perm"
  type: "Permute"
  bottom: "conv7_2_mbox_loc"
  top: "conv7_2_mbox_loc_perm"
  permute_param {
    order: 0
    order: 2
    order: 3
    order: 1
  }
}
layer {
  name: "conv7_2_mbox_loc_flat"
  type: "Flatten"
  bottom: "conv7_2_mbox_loc_perm"
  top: "conv7_2_mbox_loc_flat"
  flatten_param {
    axis: 1
  }
}
layer {
  name: "conv7_2_mbox_conf"
  type: "Convolution"
  bottom: "conv7_2"
  top: "conv7_2_mbox_conf"
  param {
    lr_mult: 1
    decay_mult: 1
  }
  param {
    lr_mult: 2
    decay_mult: 0
  }
  convolution_param {
    num_output: 24
    pad: 1
    kernel_size: 3
    stride: 1
    weight_filler {
      type: "xavier"
    }
    bias_filler {
      type: "constant"
      value: 0
    }
  }
}
layer {
  name: "conv7_2_mbox_conf_perm"
  type: "Permute"
  bottom: "conv7_2_mbox_conf"
  top: "conv7_2_mbox_conf_perm"
  permute_param {
    order: 0
    order: 2
    order: 3
    order: 1
  }
}
layer {
  name: "conv7_2_mbox_conf_flat"
  type: "Flatten"
  bottom: "conv7_2_mbox_conf_perm"
  top: "conv7_2_mbox_conf_flat"
  flatten_param {
    axis: 1
  }
}
layer {
  name: "conv7_2_mbox_priorbox"
  type: "PriorBox"
  bottom: "conv7_2"
  bottom: "data"
  top: "conv7_2_mbox_priorbox"
  prior_box_param {
    min_size: 162
    max_size: 213
    aspect_ratio: 2
    aspect_ratio: 3
    flip: true
    clip: false
    variance: 0.1
    variance: 0.1
    variance: 0.2
    variance: 0.2
    step: 64
    offset: 0.5
  }
}
layer {
  name: "conv8_2_mbox_loc"
  type: "Convolution"
  bottom: "conv8_2"
  top: "conv8_2_mbox_loc"
  param {
    lr_mult: 1
    decay_mult: 1
  }
  param {
    lr_mult: 2
    decay_mult: 0
  }
  convolution_param {
    num_output: 16
    pad: 1
    kernel_size: 3
    stride: 1
    weight_filler {
      type: "xavier"
    }
    bias_filler {
      type: "constant"
      value: 0
    }
  }
}
layer {
  name: "conv8_2_mbox_loc_perm"
  type: "Permute"
  bottom: "conv8_2_mbox_loc"
  top: "conv8_2_mbox_loc_perm"
  permute_param {
    order: 0
    order: 2
    order: 3
    order: 1
  }
}
layer {
  name: "conv8_2_mbox_loc_flat"
  type: "Flatten"
  bottom: "conv8_2_mbox_loc_perm"
  top: "conv8_2_mbox_loc_flat"
  flatten_param {
    axis: 1
  }
}
layer {
  name: "conv8_2_mbox_conf"
  type: "Convolution"
  bottom: "conv8_2"
  top: "conv8_2_mbox_conf"
  param {
    lr_mult: 1
    decay_mult: 1
  }
  param {
    lr_mult: 2
    decay_mult: 0
  }
  convolution_param {
    num_output: 16
    pad: 1
    kernel_size: 3
    stride: 1
    weight_filler {
      type: "xavier"
    }
    bias_filler {
      type: "constant"
      value: 0
    }
  }
}
layer {
  name: "conv8_2_mbox_conf_perm"
  type: "Permute"
  bottom: "conv8_2_mbox_conf"
  top: "conv8_2_mbox_conf_perm"
  permute_param {
    order: 0
    order: 2
    order: 3
    order: 1
  }
}
layer {
  name: "conv8_2_mbox_conf_flat"
  type: "Flatten"
  bottom: "conv8_2_mbox_conf_perm"
  top: "conv8_2_mbox_conf_flat"
  flatten_param {
    axis: 1
  }
}
layer {
  name: "conv8_2_mbox_priorbox"
  type: "PriorBox"
  bottom: "conv8_2"
  bottom: "data"
  top: "conv8_2_mbox_priorbox"
  prior_box_param {
    min_size: 213
    max_size: 264
    aspect_ratio: 2
    flip: true
    clip: false
    variance: 0.1
    variance: 0.1
    variance: 0.2
    variance: 0.2
    step: 100
    offset: 0.5
  }
}
layer {
  name: "conv9_2_mbox_loc"
  type: "Convolution"
  bottom: "conv9_2"
  top: "conv9_2_mbox_loc"
  param {
    lr_mult: 1
    decay_mult: 1
  }
  param {
    lr_mult: 2
    decay_mult: 0
  }
  convolution_param {
    num_output: 16
    pad: 1
    kernel_size: 3
    stride: 1
    weight_filler {
      type: "xavier"
    }
    bias_filler {
      type: "constant"
      value: 0
    }
  }
}
layer {
  name: "conv9_2_mbox_loc_perm"
  type: "Permute"
  bottom: "conv9_2_mbox_loc"
  top: "conv9_2_mbox_loc_perm"
  permute_param {
    order: 0
    order: 2
    order: 3
    order: 1
  }
}
layer {
  name: "conv9_2_mbox_loc_flat"
  type: "Flatten"
  bottom: "conv9_2_mbox_loc_perm"
  top: "conv9_2_mbox_loc_flat"
  flatten_param {
    axis: 1
  }
}
layer {
  name: "conv9_2_mbox_conf"
  type: "Convolution"
  bottom: "conv9_2"
  top: "conv9_2_mbox_conf"
  param {
    lr_mult: 1
    decay_mult: 1
  }
  param {
    lr_mult: 2
    decay_mult: 0
  }
  convolution_param {
    num_output: 16
    pad: 1
    kernel_size: 3
    stride: 1
    weight_filler {
      type: "xavier"
    }
    bias_filler {
      type: "constant"
      value: 0
    }
  }
}
layer {
  name: "conv9_2_mbox_conf_perm"
  type: "Permute"
  bottom: "conv9_2_mbox_conf"
  top: "conv9_2_mbox_conf_perm"
  permute_param {
    order: 0
    order: 2
    order: 3
    order: 1
  }
}
layer {
  name: "conv9_2_mbox_conf_flat"
  type: "Flatten"
  bottom: "conv9_2_mbox_conf_perm"
  top: "conv9_2_mbox_conf_flat"
  flatten_param {
    axis: 1
  }
}
layer {
  name: "conv9_2_mbox_priorbox"
  type: "PriorBox"
  bottom: "conv9_2"
  bottom: "data"
  top: "conv9_2_mbox_priorbox"
  prior_box_param {
    min_size: 264
    max_size: 315
    aspect_ratio: 2
    flip: true
    clip: false
    variance: 0.1
    variance: 0.1
    variance: 0.2
    variance: 0.2
    step: 300
    offset: 0.5
  }
}
layer {
  name: "mbox_loc"
  type: "Concat"
  bottom: "conv4_3_norm_mbox_loc_flat"
  bottom: "fc7_mbox_loc_flat"
  bottom: "conv6_2_mbox_loc_flat"
  bottom: "conv7_2_mbox_loc_flat"
  bottom: "conv8_2_mbox_loc_flat"
  bottom: "conv9_2_mbox_loc_flat"
  top: "mbox_loc"
  concat_param {
    axis: 1
  }
}
layer {
  name: "mbox_conf"
  type: "Concat"
  bottom: "conv4_3_norm_mbox_conf_flat"
  bottom: "fc7_mbox_conf_flat"
  bottom: "conv6_2_mbox_conf_flat"
  bottom: "conv7_2_mbox_conf_flat"
  bottom: "conv8_2_mbox_conf_flat"
  bottom: "conv9_2_mbox_conf_flat"
  top: "mbox_conf"
  concat_param {
    axis: 1
  }
}
layer {
  name: "mbox_priorbox"
  type: "Concat"
  bottom: "conv4_3_norm_mbox_priorbox"
  bottom: "fc7_mbox_priorbox"
  bottom: "conv6_2_mbox_priorbox"
  bottom: "conv7_2_mbox_priorbox"
  bottom: "conv8_2_mbox_priorbox"
  bottom: "conv9_2_mbox_priorbox"
  top: "mbox_priorbox"
  concat_param {
    axis: 2
  }
}
layer {
  name: "mbox_conf_reshape"
  type: "Reshape"
  bottom: "mbox_conf"
  top: "mbox_conf_reshape"
  reshape_param {
    shape {
      dim: 0
      dim: -1
      dim: 4
    }
  }
}
layer {
  name: "mbox_conf_softmax"
  type: "Softmax"
  bottom: "mbox_conf_reshape"
  top: "mbox_conf_softmax"
  softmax_param {
    axis: 2
  }
}
layer {
  name: "mbox_conf_flatten"
  type: "Flatten"
  bottom: "mbox_conf_softmax"
  top: "mbox_conf_flatten"
  flatten_param {
    axis: 1
  }
}
layer {
  name: "detection_out"
  type: "DetectionOutput"
  bottom: "mbox_loc"
  bottom: "mbox_conf_flatten"
  bottom: "mbox_priorbox"
  top: "detection_out"
  include {
    phase: TEST
  }
  detection_output_param {
    num_classes: 4
    share_location: true
    background_label_id: 0
    nms_param {
      nms_threshold: 0.45
      top_k: 400
    }
    save_output_param {
      output_directory: "/home/shangzw/data/tbs/results/tbs/SSD_300x300/Main"
      output_name_prefix: "comp4_det_test_"
      output_format: "VOC"
      label_map_file: "data/tbs_300x300_HSIL_10x/labelmap_tbs.prototxt"
      name_size_file: "data/VOC0712/test_name_size.txt"
      num_test_image: 100
    }
    code_type: CENTER_SIZE
    keep_top_k: 200
    confidence_threshold: 0.01
  }
}
layer {
  name: "detection_eval"
  type: "DetectionEvaluate"
  bottom: "detection_out"
  bottom: "label"
  top: "detection_eval"
  include {
    phase: TEST
  }
  detection_evaluate_param {
    num_classes: 4
    background_label_id: 0
    overlap_threshold: 0.5
    evaluate_difficult_gt: false
    name_size_file: "data/VOC0712/test_name_size.txt"
  }
}
I0601 17:03:12.808830  6210 layer_factory.hpp:77] Creating layer data
I0601 17:03:12.808882  6210 net.cpp:100] Creating Layer data
I0601 17:03:12.808888  6210 net.cpp:408] data -> data
I0601 17:03:12.808898  6210 net.cpp:408] data -> label
I0601 17:03:12.809598  6229 db_lmdb.cpp:35] Opened lmdb examples/tbs_300x300_HSIL_10x/tbs_300x300_HSIL_10x_test_lmdb
I0601 17:03:12.810565  6210 annotated_data_layer.cpp:62] output data size: 4,3,300,300
I0601 17:03:12.822106  6210 net.cpp:150] Setting up data
I0601 17:03:12.822134  6210 net.cpp:157] Top shape: 4 3 300 300 (1080000)
I0601 17:03:12.822140  6210 net.cpp:157] Top shape: 1 1 1 8 (8)
I0601 17:03:12.822144  6210 net.cpp:165] Memory required for data: 4320032
I0601 17:03:12.822149  6210 layer_factory.hpp:77] Creating layer data_data_0_split
I0601 17:03:12.822162  6210 net.cpp:100] Creating Layer data_data_0_split
I0601 17:03:12.822170  6210 net.cpp:434] data_data_0_split <- data
I0601 17:03:12.822178  6210 net.cpp:408] data_data_0_split -> data_data_0_split_0
I0601 17:03:12.822190  6210 net.cpp:408] data_data_0_split -> data_data_0_split_1
I0601 17:03:12.822199  6210 net.cpp:408] data_data_0_split -> data_data_0_split_2
I0601 17:03:12.822208  6210 net.cpp:408] data_data_0_split -> data_data_0_split_3
I0601 17:03:12.822216  6210 net.cpp:408] data_data_0_split -> data_data_0_split_4
I0601 17:03:12.822224  6210 net.cpp:408] data_data_0_split -> data_data_0_split_5
I0601 17:03:12.822232  6210 net.cpp:408] data_data_0_split -> data_data_0_split_6
I0601 17:03:12.822419  6210 net.cpp:150] Setting up data_data_0_split
I0601 17:03:12.822432  6210 net.cpp:157] Top shape: 4 3 300 300 (1080000)
I0601 17:03:12.822437  6210 net.cpp:157] Top shape: 4 3 300 300 (1080000)
I0601 17:03:12.822443  6210 net.cpp:157] Top shape: 4 3 300 300 (1080000)
I0601 17:03:12.822448  6210 net.cpp:157] Top shape: 4 3 300 300 (1080000)
I0601 17:03:12.822454  6210 net.cpp:157] Top shape: 4 3 300 300 (1080000)
I0601 17:03:12.822471  6210 net.cpp:157] Top shape: 4 3 300 300 (1080000)
I0601 17:03:12.822479  6210 net.cpp:157] Top shape: 4 3 300 300 (1080000)
I0601 17:03:12.822481  6210 net.cpp:165] Memory required for data: 34560032
I0601 17:03:12.822485  6210 layer_factory.hpp:77] Creating layer conv1_1
I0601 17:03:12.822499  6210 net.cpp:100] Creating Layer conv1_1
I0601 17:03:12.822506  6210 net.cpp:434] conv1_1 <- data_data_0_split_0
I0601 17:03:12.822513  6210 net.cpp:408] conv1_1 -> conv1_1
I0601 17:03:12.824045  6210 net.cpp:150] Setting up conv1_1
I0601 17:03:12.824060  6210 net.cpp:157] Top shape: 4 64 300 300 (23040000)
I0601 17:03:12.824064  6210 net.cpp:165] Memory required for data: 126720032
I0601 17:03:12.824074  6210 layer_factory.hpp:77] Creating layer relu1_1
I0601 17:03:12.824084  6210 net.cpp:100] Creating Layer relu1_1
I0601 17:03:12.824090  6210 net.cpp:434] relu1_1 <- conv1_1
I0601 17:03:12.824096  6210 net.cpp:395] relu1_1 -> conv1_1 (in-place)
I0601 17:03:12.824236  6210 net.cpp:150] Setting up relu1_1
I0601 17:03:12.824244  6210 net.cpp:157] Top shape: 4 64 300 300 (23040000)
I0601 17:03:12.824246  6210 net.cpp:165] Memory required for data: 218880032
I0601 17:03:12.824250  6210 layer_factory.hpp:77] Creating layer conv1_2
I0601 17:03:12.824262  6210 net.cpp:100] Creating Layer conv1_2
I0601 17:03:12.824267  6210 net.cpp:434] conv1_2 <- conv1_1
I0601 17:03:12.824275  6210 net.cpp:408] conv1_2 -> conv1_2
I0601 17:03:12.827033  6210 net.cpp:150] Setting up conv1_2
I0601 17:03:12.827049  6210 net.cpp:157] Top shape: 4 64 300 300 (23040000)
I0601 17:03:12.827051  6210 net.cpp:165] Memory required for data: 311040032
I0601 17:03:12.827060  6210 layer_factory.hpp:77] Creating layer relu1_2
I0601 17:03:12.827070  6210 net.cpp:100] Creating Layer relu1_2
I0601 17:03:12.827075  6210 net.cpp:434] relu1_2 <- conv1_2
I0601 17:03:12.827081  6210 net.cpp:395] relu1_2 -> conv1_2 (in-place)
I0601 17:03:12.827740  6210 net.cpp:150] Setting up relu1_2
I0601 17:03:12.827754  6210 net.cpp:157] Top shape: 4 64 300 300 (23040000)
I0601 17:03:12.827757  6210 net.cpp:165] Memory required for data: 403200032
I0601 17:03:12.827760  6210 layer_factory.hpp:77] Creating layer pool1
I0601 17:03:12.827766  6210 net.cpp:100] Creating Layer pool1
I0601 17:03:12.827771  6210 net.cpp:434] pool1 <- conv1_2
I0601 17:03:12.827778  6210 net.cpp:408] pool1 -> pool1
I0601 17:03:12.827836  6210 net.cpp:150] Setting up pool1
I0601 17:03:12.827842  6210 net.cpp:157] Top shape: 4 64 150 150 (5760000)
I0601 17:03:12.827846  6210 net.cpp:165] Memory required for data: 426240032
I0601 17:03:12.827849  6210 layer_factory.hpp:77] Creating layer conv2_1
I0601 17:03:12.827862  6210 net.cpp:100] Creating Layer conv2_1
I0601 17:03:12.827868  6210 net.cpp:434] conv2_1 <- pool1
I0601 17:03:12.827877  6210 net.cpp:408] conv2_1 -> conv2_1
I0601 17:03:12.831558  6210 net.cpp:150] Setting up conv2_1
I0601 17:03:12.831580  6210 net.cpp:157] Top shape: 4 128 150 150 (11520000)
I0601 17:03:12.831584  6210 net.cpp:165] Memory required for data: 472320032
I0601 17:03:12.831599  6210 layer_factory.hpp:77] Creating layer relu2_1
I0601 17:03:12.831612  6210 net.cpp:100] Creating Layer relu2_1
I0601 17:03:12.831619  6210 net.cpp:434] relu2_1 <- conv2_1
I0601 17:03:12.831625  6210 net.cpp:395] relu2_1 -> conv2_1 (in-place)
I0601 17:03:12.832540  6210 net.cpp:150] Setting up relu2_1
I0601 17:03:12.832554  6210 net.cpp:157] Top shape: 4 128 150 150 (11520000)
I0601 17:03:12.832559  6210 net.cpp:165] Memory required for data: 518400032
I0601 17:03:12.832563  6210 layer_factory.hpp:77] Creating layer conv2_2
I0601 17:03:12.832577  6210 net.cpp:100] Creating Layer conv2_2
I0601 17:03:12.832583  6210 net.cpp:434] conv2_2 <- conv2_1
I0601 17:03:12.832592  6210 net.cpp:408] conv2_2 -> conv2_2
I0601 17:03:12.837038  6210 net.cpp:150] Setting up conv2_2
I0601 17:03:12.837060  6210 net.cpp:157] Top shape: 4 128 150 150 (11520000)
I0601 17:03:12.837065  6210 net.cpp:165] Memory required for data: 564480032
I0601 17:03:12.837076  6210 layer_factory.hpp:77] Creating layer relu2_2
I0601 17:03:12.837103  6210 net.cpp:100] Creating Layer relu2_2
I0601 17:03:12.837110  6210 net.cpp:434] relu2_2 <- conv2_2
I0601 17:03:12.837116  6210 net.cpp:395] relu2_2 -> conv2_2 (in-place)
I0601 17:03:12.837379  6210 net.cpp:150] Setting up relu2_2
I0601 17:03:12.837391  6210 net.cpp:157] Top shape: 4 128 150 150 (11520000)
I0601 17:03:12.837395  6210 net.cpp:165] Memory required for data: 610560032
I0601 17:03:12.837399  6210 layer_factory.hpp:77] Creating layer pool2
I0601 17:03:12.837409  6210 net.cpp:100] Creating Layer pool2
I0601 17:03:12.837414  6210 net.cpp:434] pool2 <- conv2_2
I0601 17:03:12.837421  6210 net.cpp:408] pool2 -> pool2
I0601 17:03:12.837494  6210 net.cpp:150] Setting up pool2
I0601 17:03:12.837505  6210 net.cpp:157] Top shape: 4 128 75 75 (2880000)
I0601 17:03:12.837509  6210 net.cpp:165] Memory required for data: 622080032
I0601 17:03:12.837513  6210 layer_factory.hpp:77] Creating layer conv3_1
I0601 17:03:12.837525  6210 net.cpp:100] Creating Layer conv3_1
I0601 17:03:12.837532  6210 net.cpp:434] conv3_1 <- pool2
I0601 17:03:12.837540  6210 net.cpp:408] conv3_1 -> conv3_1
I0601 17:03:12.842835  6210 net.cpp:150] Setting up conv3_1
I0601 17:03:12.842854  6210 net.cpp:157] Top shape: 4 256 75 75 (5760000)
I0601 17:03:12.842856  6210 net.cpp:165] Memory required for data: 645120032
I0601 17:03:12.842867  6210 layer_factory.hpp:77] Creating layer relu3_1
I0601 17:03:12.842876  6210 net.cpp:100] Creating Layer relu3_1
I0601 17:03:12.842880  6210 net.cpp:434] relu3_1 <- conv3_1
I0601 17:03:12.842885  6210 net.cpp:395] relu3_1 -> conv3_1 (in-place)
I0601 17:03:12.844385  6210 net.cpp:150] Setting up relu3_1
I0601 17:03:12.844400  6210 net.cpp:157] Top shape: 4 256 75 75 (5760000)
I0601 17:03:12.844403  6210 net.cpp:165] Memory required for data: 668160032
I0601 17:03:12.844406  6210 layer_factory.hpp:77] Creating layer conv3_2
I0601 17:03:12.844416  6210 net.cpp:100] Creating Layer conv3_2
I0601 17:03:12.844420  6210 net.cpp:434] conv3_2 <- conv3_1
I0601 17:03:12.844425  6210 net.cpp:408] conv3_2 -> conv3_2
I0601 17:03:12.849795  6210 net.cpp:150] Setting up conv3_2
I0601 17:03:12.849818  6210 net.cpp:157] Top shape: 4 256 75 75 (5760000)
I0601 17:03:12.849822  6210 net.cpp:165] Memory required for data: 691200032
I0601 17:03:12.849830  6210 layer_factory.hpp:77] Creating layer relu3_2
I0601 17:03:12.849838  6210 net.cpp:100] Creating Layer relu3_2
I0601 17:03:12.849841  6210 net.cpp:434] relu3_2 <- conv3_2
I0601 17:03:12.849848  6210 net.cpp:395] relu3_2 -> conv3_2 (in-place)
I0601 17:03:12.850010  6210 net.cpp:150] Setting up relu3_2
I0601 17:03:12.850019  6210 net.cpp:157] Top shape: 4 256 75 75 (5760000)
I0601 17:03:12.850021  6210 net.cpp:165] Memory required for data: 714240032
I0601 17:03:12.850024  6210 layer_factory.hpp:77] Creating layer conv3_3
I0601 17:03:12.850039  6210 net.cpp:100] Creating Layer conv3_3
I0601 17:03:12.850042  6210 net.cpp:434] conv3_3 <- conv3_2
I0601 17:03:12.850046  6210 net.cpp:408] conv3_3 -> conv3_3
I0601 17:03:12.856565  6210 net.cpp:150] Setting up conv3_3
I0601 17:03:12.856582  6210 net.cpp:157] Top shape: 4 256 75 75 (5760000)
I0601 17:03:12.856585  6210 net.cpp:165] Memory required for data: 737280032
I0601 17:03:12.856591  6210 layer_factory.hpp:77] Creating layer relu3_3
I0601 17:03:12.856600  6210 net.cpp:100] Creating Layer relu3_3
I0601 17:03:12.856617  6210 net.cpp:434] relu3_3 <- conv3_3
I0601 17:03:12.856622  6210 net.cpp:395] relu3_3 -> conv3_3 (in-place)
I0601 17:03:12.856781  6210 net.cpp:150] Setting up relu3_3
I0601 17:03:12.856788  6210 net.cpp:157] Top shape: 4 256 75 75 (5760000)
I0601 17:03:12.856791  6210 net.cpp:165] Memory required for data: 760320032
I0601 17:03:12.856792  6210 layer_factory.hpp:77] Creating layer pool3
I0601 17:03:12.856797  6210 net.cpp:100] Creating Layer pool3
I0601 17:03:12.856817  6210 net.cpp:434] pool3 <- conv3_3
I0601 17:03:12.856822  6210 net.cpp:408] pool3 -> pool3
I0601 17:03:12.856884  6210 net.cpp:150] Setting up pool3
I0601 17:03:12.856889  6210 net.cpp:157] Top shape: 4 256 38 38 (1478656)
I0601 17:03:12.856901  6210 net.cpp:165] Memory required for data: 766234656
I0601 17:03:12.856904  6210 layer_factory.hpp:77] Creating layer conv4_1
I0601 17:03:12.856912  6210 net.cpp:100] Creating Layer conv4_1
I0601 17:03:12.856915  6210 net.cpp:434] conv4_1 <- pool3
I0601 17:03:12.856936  6210 net.cpp:408] conv4_1 -> conv4_1
I0601 17:03:12.864501  6210 net.cpp:150] Setting up conv4_1
I0601 17:03:12.864518  6210 net.cpp:157] Top shape: 4 512 38 38 (2957312)
I0601 17:03:12.864521  6210 net.cpp:165] Memory required for data: 778063904
I0601 17:03:12.864528  6210 layer_factory.hpp:77] Creating layer relu4_1
I0601 17:03:12.864536  6210 net.cpp:100] Creating Layer relu4_1
I0601 17:03:12.864538  6210 net.cpp:434] relu4_1 <- conv4_1
I0601 17:03:12.864543  6210 net.cpp:395] relu4_1 -> conv4_1 (in-place)
I0601 17:03:12.865300  6210 net.cpp:150] Setting up relu4_1
I0601 17:03:12.865309  6210 net.cpp:157] Top shape: 4 512 38 38 (2957312)
I0601 17:03:12.865312  6210 net.cpp:165] Memory required for data: 789893152
I0601 17:03:12.865315  6210 layer_factory.hpp:77] Creating layer conv4_2
I0601 17:03:12.865324  6210 net.cpp:100] Creating Layer conv4_2
I0601 17:03:12.865327  6210 net.cpp:434] conv4_2 <- conv4_1
I0601 17:03:12.865331  6210 net.cpp:408] conv4_2 -> conv4_2
I0601 17:03:12.877878  6210 net.cpp:150] Setting up conv4_2
I0601 17:03:12.877897  6210 net.cpp:157] Top shape: 4 512 38 38 (2957312)
I0601 17:03:12.877900  6210 net.cpp:165] Memory required for data: 801722400
I0601 17:03:12.877924  6210 layer_factory.hpp:77] Creating layer relu4_2
I0601 17:03:12.877931  6210 net.cpp:100] Creating Layer relu4_2
I0601 17:03:12.877934  6210 net.cpp:434] relu4_2 <- conv4_2
I0601 17:03:12.877940  6210 net.cpp:395] relu4_2 -> conv4_2 (in-place)
I0601 17:03:12.878875  6210 net.cpp:150] Setting up relu4_2
I0601 17:03:12.878885  6210 net.cpp:157] Top shape: 4 512 38 38 (2957312)
I0601 17:03:12.878887  6210 net.cpp:165] Memory required for data: 813551648
I0601 17:03:12.878890  6210 layer_factory.hpp:77] Creating layer conv4_3
I0601 17:03:12.878898  6210 net.cpp:100] Creating Layer conv4_3
I0601 17:03:12.878902  6210 net.cpp:434] conv4_3 <- conv4_2
I0601 17:03:12.878907  6210 net.cpp:408] conv4_3 -> conv4_3
I0601 17:03:12.891849  6210 net.cpp:150] Setting up conv4_3
I0601 17:03:12.891865  6210 net.cpp:157] Top shape: 4 512 38 38 (2957312)
I0601 17:03:12.891868  6210 net.cpp:165] Memory required for data: 825380896
I0601 17:03:12.891875  6210 layer_factory.hpp:77] Creating layer relu4_3
I0601 17:03:12.891881  6210 net.cpp:100] Creating Layer relu4_3
I0601 17:03:12.891885  6210 net.cpp:434] relu4_3 <- conv4_3
I0601 17:03:12.891888  6210 net.cpp:395] relu4_3 -> conv4_3 (in-place)
I0601 17:03:12.892086  6210 net.cpp:150] Setting up relu4_3
I0601 17:03:12.892092  6210 net.cpp:157] Top shape: 4 512 38 38 (2957312)
I0601 17:03:12.892110  6210 net.cpp:165] Memory required for data: 837210144
I0601 17:03:12.892112  6210 layer_factory.hpp:77] Creating layer conv4_3_relu4_3_0_split
I0601 17:03:12.892117  6210 net.cpp:100] Creating Layer conv4_3_relu4_3_0_split
I0601 17:03:12.892119  6210 net.cpp:434] conv4_3_relu4_3_0_split <- conv4_3
I0601 17:03:12.892124  6210 net.cpp:408] conv4_3_relu4_3_0_split -> conv4_3_relu4_3_0_split_0
I0601 17:03:12.892129  6210 net.cpp:408] conv4_3_relu4_3_0_split -> conv4_3_relu4_3_0_split_1
I0601 17:03:12.892201  6210 net.cpp:150] Setting up conv4_3_relu4_3_0_split
I0601 17:03:12.892207  6210 net.cpp:157] Top shape: 4 512 38 38 (2957312)
I0601 17:03:12.892225  6210 net.cpp:157] Top shape: 4 512 38 38 (2957312)
I0601 17:03:12.892227  6210 net.cpp:165] Memory required for data: 860868640
I0601 17:03:12.892230  6210 layer_factory.hpp:77] Creating layer pool4
I0601 17:03:12.892235  6210 net.cpp:100] Creating Layer pool4
I0601 17:03:12.892236  6210 net.cpp:434] pool4 <- conv4_3_relu4_3_0_split_0
I0601 17:03:12.892241  6210 net.cpp:408] pool4 -> pool4
I0601 17:03:12.892274  6210 net.cpp:150] Setting up pool4
I0601 17:03:12.892279  6210 net.cpp:157] Top shape: 4 512 19 19 (739328)
I0601 17:03:12.892282  6210 net.cpp:165] Memory required for data: 863825952
I0601 17:03:12.892308  6210 layer_factory.hpp:77] Creating layer conv5_1
I0601 17:03:12.892316  6210 net.cpp:100] Creating Layer conv5_1
I0601 17:03:12.892319  6210 net.cpp:434] conv5_1 <- pool4
I0601 17:03:12.892324  6210 net.cpp:408] conv5_1 -> conv5_1
I0601 17:03:12.905624  6210 net.cpp:150] Setting up conv5_1
I0601 17:03:12.905640  6210 net.cpp:157] Top shape: 4 512 19 19 (739328)
I0601 17:03:12.905643  6210 net.cpp:165] Memory required for data: 866783264
I0601 17:03:12.905664  6210 layer_factory.hpp:77] Creating layer relu5_1
I0601 17:03:12.905670  6210 net.cpp:100] Creating Layer relu5_1
I0601 17:03:12.905674  6210 net.cpp:434] relu5_1 <- conv5_1
I0601 17:03:12.905679  6210 net.cpp:395] relu5_1 -> conv5_1 (in-place)
I0601 17:03:12.905848  6210 net.cpp:150] Setting up relu5_1
I0601 17:03:12.905854  6210 net.cpp:157] Top shape: 4 512 19 19 (739328)
I0601 17:03:12.905858  6210 net.cpp:165] Memory required for data: 869740576
I0601 17:03:12.905859  6210 layer_factory.hpp:77] Creating layer conv5_2
I0601 17:03:12.905881  6210 net.cpp:100] Creating Layer conv5_2
I0601 17:03:12.905884  6210 net.cpp:434] conv5_2 <- conv5_1
I0601 17:03:12.905903  6210 net.cpp:408] conv5_2 -> conv5_2
I0601 17:03:12.919653  6210 net.cpp:150] Setting up conv5_2
I0601 17:03:12.919672  6210 net.cpp:157] Top shape: 4 512 19 19 (739328)
I0601 17:03:12.919674  6210 net.cpp:165] Memory required for data: 872697888
I0601 17:03:12.919682  6210 layer_factory.hpp:77] Creating layer relu5_2
I0601 17:03:12.919688  6210 net.cpp:100] Creating Layer relu5_2
I0601 17:03:12.919692  6210 net.cpp:434] relu5_2 <- conv5_2
I0601 17:03:12.919698  6210 net.cpp:395] relu5_2 -> conv5_2 (in-place)
I0601 17:03:12.919853  6210 net.cpp:150] Setting up relu5_2
I0601 17:03:12.919859  6210 net.cpp:157] Top shape: 4 512 19 19 (739328)
I0601 17:03:12.919862  6210 net.cpp:165] Memory required for data: 875655200
I0601 17:03:12.919864  6210 layer_factory.hpp:77] Creating layer conv5_3
I0601 17:03:12.919878  6210 net.cpp:100] Creating Layer conv5_3
I0601 17:03:12.919881  6210 net.cpp:434] conv5_3 <- conv5_2
I0601 17:03:12.919888  6210 net.cpp:408] conv5_3 -> conv5_3
I0601 17:03:12.935271  6210 net.cpp:150] Setting up conv5_3
I0601 17:03:12.935290  6210 net.cpp:157] Top shape: 4 512 19 19 (739328)
I0601 17:03:12.935292  6210 net.cpp:165] Memory required for data: 878612512
I0601 17:03:12.935299  6210 layer_factory.hpp:77] Creating layer relu5_3
I0601 17:03:12.935310  6210 net.cpp:100] Creating Layer relu5_3
I0601 17:03:12.935314  6210 net.cpp:434] relu5_3 <- conv5_3
I0601 17:03:12.935333  6210 net.cpp:395] relu5_3 -> conv5_3 (in-place)
I0601 17:03:12.936660  6210 net.cpp:150] Setting up relu5_3
I0601 17:03:12.936667  6210 net.cpp:157] Top shape: 4 512 19 19 (739328)
I0601 17:03:12.936671  6210 net.cpp:165] Memory required for data: 881569824
I0601 17:03:12.936673  6210 layer_factory.hpp:77] Creating layer pool5
I0601 17:03:12.936678  6210 net.cpp:100] Creating Layer pool5
I0601 17:03:12.936681  6210 net.cpp:434] pool5 <- conv5_3
I0601 17:03:12.936686  6210 net.cpp:408] pool5 -> pool5
I0601 17:03:12.936733  6210 net.cpp:150] Setting up pool5
I0601 17:03:12.936738  6210 net.cpp:157] Top shape: 4 512 19 19 (739328)
I0601 17:03:12.936740  6210 net.cpp:165] Memory required for data: 884527136
I0601 17:03:12.936743  6210 layer_factory.hpp:77] Creating layer fc6
I0601 17:03:12.936750  6210 net.cpp:100] Creating Layer fc6
I0601 17:03:12.936754  6210 net.cpp:434] fc6 <- pool5
I0601 17:03:12.936758  6210 net.cpp:408] fc6 -> fc6
I0601 17:03:12.959854  6210 net.cpp:150] Setting up fc6
I0601 17:03:12.959870  6210 net.cpp:157] Top shape: 4 1024 19 19 (1478656)
I0601 17:03:12.959873  6210 net.cpp:165] Memory required for data: 890441760
I0601 17:03:12.959878  6210 layer_factory.hpp:77] Creating layer relu6
I0601 17:03:12.959899  6210 net.cpp:100] Creating Layer relu6
I0601 17:03:12.959903  6210 net.cpp:434] relu6 <- fc6
I0601 17:03:12.959908  6210 net.cpp:395] relu6 -> fc6 (in-place)
I0601 17:03:12.961050  6210 net.cpp:150] Setting up relu6
I0601 17:03:12.961060  6210 net.cpp:157] Top shape: 4 1024 19 19 (1478656)
I0601 17:03:12.961089  6210 net.cpp:165] Memory required for data: 896356384
I0601 17:03:12.961107  6210 layer_factory.hpp:77] Creating layer fc7
I0601 17:03:12.961117  6210 net.cpp:100] Creating Layer fc7
I0601 17:03:12.961119  6210 net.cpp:434] fc7 <- fc6
I0601 17:03:12.961125  6210 net.cpp:408] fc7 -> fc7
I0601 17:03:12.967609  6210 net.cpp:150] Setting up fc7
I0601 17:03:12.967624  6210 net.cpp:157] Top shape: 4 1024 19 19 (1478656)
I0601 17:03:12.967627  6210 net.cpp:165] Memory required for data: 902271008
I0601 17:03:12.967633  6210 layer_factory.hpp:77] Creating layer relu7
I0601 17:03:12.967653  6210 net.cpp:100] Creating Layer relu7
I0601 17:03:12.967658  6210 net.cpp:434] relu7 <- fc7
I0601 17:03:12.967661  6210 net.cpp:395] relu7 -> fc7 (in-place)
I0601 17:03:12.967847  6210 net.cpp:150] Setting up relu7
I0601 17:03:12.967854  6210 net.cpp:157] Top shape: 4 1024 19 19 (1478656)
I0601 17:03:12.967856  6210 net.cpp:165] Memory required for data: 908185632
I0601 17:03:12.967859  6210 layer_factory.hpp:77] Creating layer fc7_relu7_0_split
I0601 17:03:12.967864  6210 net.cpp:100] Creating Layer fc7_relu7_0_split
I0601 17:03:12.967866  6210 net.cpp:434] fc7_relu7_0_split <- fc7
I0601 17:03:12.967870  6210 net.cpp:408] fc7_relu7_0_split -> fc7_relu7_0_split_0
I0601 17:03:12.967888  6210 net.cpp:408] fc7_relu7_0_split -> fc7_relu7_0_split_1
I0601 17:03:12.967917  6210 net.cpp:408] fc7_relu7_0_split -> fc7_relu7_0_split_2
I0601 17:03:12.967923  6210 net.cpp:408] fc7_relu7_0_split -> fc7_relu7_0_split_3
I0601 17:03:12.968003  6210 net.cpp:150] Setting up fc7_relu7_0_split
I0601 17:03:12.968008  6210 net.cpp:157] Top shape: 4 1024 19 19 (1478656)
I0601 17:03:12.968011  6210 net.cpp:157] Top shape: 4 1024 19 19 (1478656)
I0601 17:03:12.968014  6210 net.cpp:157] Top shape: 4 1024 19 19 (1478656)
I0601 17:03:12.968035  6210 net.cpp:157] Top shape: 4 1024 19 19 (1478656)
I0601 17:03:12.968037  6210 net.cpp:165] Memory required for data: 931844128
I0601 17:03:12.968039  6210 layer_factory.hpp:77] Creating layer conv6_1
I0601 17:03:12.968047  6210 net.cpp:100] Creating Layer conv6_1
I0601 17:03:12.968050  6210 net.cpp:434] conv6_1 <- fc7_relu7_0_split_0
I0601 17:03:12.968055  6210 net.cpp:408] conv6_1 -> conv6_1
I0601 17:03:12.971618  6210 net.cpp:150] Setting up conv6_1
I0601 17:03:12.971631  6210 net.cpp:157] Top shape: 4 256 19 19 (369664)
I0601 17:03:12.971633  6210 net.cpp:165] Memory required for data: 933322784
I0601 17:03:12.971638  6210 layer_factory.hpp:77] Creating layer conv6_1_relu
I0601 17:03:12.971658  6210 net.cpp:100] Creating Layer conv6_1_relu
I0601 17:03:12.971662  6210 net.cpp:434] conv6_1_relu <- conv6_1
I0601 17:03:12.971667  6210 net.cpp:395] conv6_1_relu -> conv6_1 (in-place)
I0601 17:03:12.971799  6210 net.cpp:150] Setting up conv6_1_relu
I0601 17:03:12.971812  6210 net.cpp:157] Top shape: 4 256 19 19 (369664)
I0601 17:03:12.971815  6210 net.cpp:165] Memory required for data: 934801440
I0601 17:03:12.971817  6210 layer_factory.hpp:77] Creating layer conv6_2
I0601 17:03:12.971825  6210 net.cpp:100] Creating Layer conv6_2
I0601 17:03:12.971829  6210 net.cpp:434] conv6_2 <- conv6_1
I0601 17:03:12.971834  6210 net.cpp:408] conv6_2 -> conv6_2
I0601 17:03:12.978920  6210 net.cpp:150] Setting up conv6_2
I0601 17:03:12.978937  6210 net.cpp:157] Top shape: 4 512 10 10 (204800)
I0601 17:03:12.978940  6210 net.cpp:165] Memory required for data: 935620640
I0601 17:03:12.978953  6210 layer_factory.hpp:77] Creating layer conv6_2_relu
I0601 17:03:12.978961  6210 net.cpp:100] Creating Layer conv6_2_relu
I0601 17:03:12.978967  6210 net.cpp:434] conv6_2_relu <- conv6_2
I0601 17:03:12.978972  6210 net.cpp:395] conv6_2_relu -> conv6_2 (in-place)
I0601 17:03:12.979106  6210 net.cpp:150] Setting up conv6_2_relu
I0601 17:03:12.979113  6210 net.cpp:157] Top shape: 4 512 10 10 (204800)
I0601 17:03:12.979115  6210 net.cpp:165] Memory required for data: 936439840
I0601 17:03:12.979117  6210 layer_factory.hpp:77] Creating layer conv6_2_conv6_2_relu_0_split
I0601 17:03:12.979122  6210 net.cpp:100] Creating Layer conv6_2_conv6_2_relu_0_split
I0601 17:03:12.979133  6210 net.cpp:434] conv6_2_conv6_2_relu_0_split <- conv6_2
I0601 17:03:12.979138  6210 net.cpp:408] conv6_2_conv6_2_relu_0_split -> conv6_2_conv6_2_relu_0_split_0
I0601 17:03:12.979152  6210 net.cpp:408] conv6_2_conv6_2_relu_0_split -> conv6_2_conv6_2_relu_0_split_1
I0601 17:03:12.979157  6210 net.cpp:408] conv6_2_conv6_2_relu_0_split -> conv6_2_conv6_2_relu_0_split_2
I0601 17:03:12.979163  6210 net.cpp:408] conv6_2_conv6_2_relu_0_split -> conv6_2_conv6_2_relu_0_split_3
I0601 17:03:12.979226  6210 net.cpp:150] Setting up conv6_2_conv6_2_relu_0_split
I0601 17:03:12.979233  6210 net.cpp:157] Top shape: 4 512 10 10 (204800)
I0601 17:03:12.979234  6210 net.cpp:157] Top shape: 4 512 10 10 (204800)
I0601 17:03:12.979238  6210 net.cpp:157] Top shape: 4 512 10 10 (204800)
I0601 17:03:12.979240  6210 net.cpp:157] Top shape: 4 512 10 10 (204800)
I0601 17:03:12.979243  6210 net.cpp:165] Memory required for data: 939716640
I0601 17:03:12.979244  6210 layer_factory.hpp:77] Creating layer conv7_1
I0601 17:03:12.979252  6210 net.cpp:100] Creating Layer conv7_1
I0601 17:03:12.979255  6210 net.cpp:434] conv7_1 <- conv6_2_conv6_2_relu_0_split_0
I0601 17:03:12.979261  6210 net.cpp:408] conv7_1 -> conv7_1
I0601 17:03:12.981039  6210 net.cpp:150] Setting up conv7_1
I0601 17:03:12.981050  6210 net.cpp:157] Top shape: 4 128 10 10 (51200)
I0601 17:03:12.981053  6210 net.cpp:165] Memory required for data: 939921440
I0601 17:03:12.981058  6210 layer_factory.hpp:77] Creating layer conv7_1_relu
I0601 17:03:12.981065  6210 net.cpp:100] Creating Layer conv7_1_relu
I0601 17:03:12.981068  6210 net.cpp:434] conv7_1_relu <- conv7_1
I0601 17:03:12.981071  6210 net.cpp:395] conv7_1_relu -> conv7_1 (in-place)
I0601 17:03:12.981202  6210 net.cpp:150] Setting up conv7_1_relu
I0601 17:03:12.981209  6210 net.cpp:157] Top shape: 4 128 10 10 (51200)
I0601 17:03:12.981212  6210 net.cpp:165] Memory required for data: 940126240
I0601 17:03:12.981215  6210 layer_factory.hpp:77] Creating layer conv7_2
I0601 17:03:12.981225  6210 net.cpp:100] Creating Layer conv7_2
I0601 17:03:12.981227  6210 net.cpp:434] conv7_2 <- conv7_1
I0601 17:03:12.981231  6210 net.cpp:408] conv7_2 -> conv7_2
I0601 17:03:12.984431  6210 net.cpp:150] Setting up conv7_2
I0601 17:03:12.984448  6210 net.cpp:157] Top shape: 4 256 5 5 (25600)
I0601 17:03:12.984452  6210 net.cpp:165] Memory required for data: 940228640
I0601 17:03:12.984457  6210 layer_factory.hpp:77] Creating layer conv7_2_relu
I0601 17:03:12.984464  6210 net.cpp:100] Creating Layer conv7_2_relu
I0601 17:03:12.984468  6210 net.cpp:434] conv7_2_relu <- conv7_2
I0601 17:03:12.984474  6210 net.cpp:395] conv7_2_relu -> conv7_2 (in-place)
I0601 17:03:12.984663  6210 net.cpp:150] Setting up conv7_2_relu
I0601 17:03:12.984668  6210 net.cpp:157] Top shape: 4 256 5 5 (25600)
I0601 17:03:12.984671  6210 net.cpp:165] Memory required for data: 940331040
I0601 17:03:12.984673  6210 layer_factory.hpp:77] Creating layer conv7_2_conv7_2_relu_0_split
I0601 17:03:12.984678  6210 net.cpp:100] Creating Layer conv7_2_conv7_2_relu_0_split
I0601 17:03:12.984696  6210 net.cpp:434] conv7_2_conv7_2_relu_0_split <- conv7_2
I0601 17:03:12.984701  6210 net.cpp:408] conv7_2_conv7_2_relu_0_split -> conv7_2_conv7_2_relu_0_split_0
I0601 17:03:12.984707  6210 net.cpp:408] conv7_2_conv7_2_relu_0_split -> conv7_2_conv7_2_relu_0_split_1
I0601 17:03:12.984711  6210 net.cpp:408] conv7_2_conv7_2_relu_0_split -> conv7_2_conv7_2_relu_0_split_2
I0601 17:03:12.984715  6210 net.cpp:408] conv7_2_conv7_2_relu_0_split -> conv7_2_conv7_2_relu_0_split_3
I0601 17:03:12.984791  6210 net.cpp:150] Setting up conv7_2_conv7_2_relu_0_split
I0601 17:03:12.984799  6210 net.cpp:157] Top shape: 4 256 5 5 (25600)
I0601 17:03:12.984803  6210 net.cpp:157] Top shape: 4 256 5 5 (25600)
I0601 17:03:12.984807  6210 net.cpp:157] Top shape: 4 256 5 5 (25600)
I0601 17:03:12.984809  6210 net.cpp:157] Top shape: 4 256 5 5 (25600)
I0601 17:03:12.984812  6210 net.cpp:165] Memory required for data: 940740640
I0601 17:03:12.984828  6210 layer_factory.hpp:77] Creating layer conv8_1
I0601 17:03:12.984846  6210 net.cpp:100] Creating Layer conv8_1
I0601 17:03:12.984850  6210 net.cpp:434] conv8_1 <- conv7_2_conv7_2_relu_0_split_0
I0601 17:03:12.984856  6210 net.cpp:408] conv8_1 -> conv8_1
I0601 17:03:12.986263  6210 net.cpp:150] Setting up conv8_1
I0601 17:03:12.986271  6210 net.cpp:157] Top shape: 4 128 5 5 (12800)
I0601 17:03:12.986274  6210 net.cpp:165] Memory required for data: 940791840
I0601 17:03:12.986279  6210 layer_factory.hpp:77] Creating layer conv8_1_relu
I0601 17:03:12.986284  6210 net.cpp:100] Creating Layer conv8_1_relu
I0601 17:03:12.986285  6210 net.cpp:434] conv8_1_relu <- conv8_1
I0601 17:03:12.986289  6210 net.cpp:395] conv8_1_relu -> conv8_1 (in-place)
I0601 17:03:12.986939  6210 net.cpp:150] Setting up conv8_1_relu
I0601 17:03:12.986948  6210 net.cpp:157] Top shape: 4 128 5 5 (12800)
I0601 17:03:12.986950  6210 net.cpp:165] Memory required for data: 940843040
I0601 17:03:12.986953  6210 layer_factory.hpp:77] Creating layer conv8_2
I0601 17:03:12.986960  6210 net.cpp:100] Creating Layer conv8_2
I0601 17:03:12.986963  6210 net.cpp:434] conv8_2 <- conv8_1
I0601 17:03:12.986969  6210 net.cpp:408] conv8_2 -> conv8_2
I0601 17:03:12.990041  6210 net.cpp:150] Setting up conv8_2
I0601 17:03:12.990053  6210 net.cpp:157] Top shape: 4 256 3 3 (9216)
I0601 17:03:12.990056  6210 net.cpp:165] Memory required for data: 940879904
I0601 17:03:12.990061  6210 layer_factory.hpp:77] Creating layer conv8_2_relu
I0601 17:03:12.990067  6210 net.cpp:100] Creating Layer conv8_2_relu
I0601 17:03:12.990070  6210 net.cpp:434] conv8_2_relu <- conv8_2
I0601 17:03:12.990075  6210 net.cpp:395] conv8_2_relu -> conv8_2 (in-place)
I0601 17:03:12.990211  6210 net.cpp:150] Setting up conv8_2_relu
I0601 17:03:12.990217  6210 net.cpp:157] Top shape: 4 256 3 3 (9216)
I0601 17:03:12.990219  6210 net.cpp:165] Memory required for data: 940916768
I0601 17:03:12.990221  6210 layer_factory.hpp:77] Creating layer conv8_2_conv8_2_relu_0_split
I0601 17:03:12.990226  6210 net.cpp:100] Creating Layer conv8_2_conv8_2_relu_0_split
I0601 17:03:12.990242  6210 net.cpp:434] conv8_2_conv8_2_relu_0_split <- conv8_2
I0601 17:03:12.990247  6210 net.cpp:408] conv8_2_conv8_2_relu_0_split -> conv8_2_conv8_2_relu_0_split_0
I0601 17:03:12.990265  6210 net.cpp:408] conv8_2_conv8_2_relu_0_split -> conv8_2_conv8_2_relu_0_split_1
I0601 17:03:12.990270  6210 net.cpp:408] conv8_2_conv8_2_relu_0_split -> conv8_2_conv8_2_relu_0_split_2
I0601 17:03:12.990275  6210 net.cpp:408] conv8_2_conv8_2_relu_0_split -> conv8_2_conv8_2_relu_0_split_3
I0601 17:03:12.990355  6210 net.cpp:150] Setting up conv8_2_conv8_2_relu_0_split
I0601 17:03:12.990361  6210 net.cpp:157] Top shape: 4 256 3 3 (9216)
I0601 17:03:12.990365  6210 net.cpp:157] Top shape: 4 256 3 3 (9216)
I0601 17:03:12.990381  6210 net.cpp:157] Top shape: 4 256 3 3 (9216)
I0601 17:03:12.990383  6210 net.cpp:157] Top shape: 4 256 3 3 (9216)
I0601 17:03:12.990384  6210 net.cpp:165] Memory required for data: 941064224
I0601 17:03:12.990401  6210 layer_factory.hpp:77] Creating layer conv9_1
I0601 17:03:12.990407  6210 net.cpp:100] Creating Layer conv9_1
I0601 17:03:12.990411  6210 net.cpp:434] conv9_1 <- conv8_2_conv8_2_relu_0_split_0
I0601 17:03:12.990417  6210 net.cpp:408] conv9_1 -> conv9_1
I0601 17:03:12.991698  6210 net.cpp:150] Setting up conv9_1
I0601 17:03:12.991708  6210 net.cpp:157] Top shape: 4 128 3 3 (4608)
I0601 17:03:12.991711  6210 net.cpp:165] Memory required for data: 941082656
I0601 17:03:12.991715  6210 layer_factory.hpp:77] Creating layer conv9_1_relu
I0601 17:03:12.991719  6210 net.cpp:100] Creating Layer conv9_1_relu
I0601 17:03:12.991722  6210 net.cpp:434] conv9_1_relu <- conv9_1
I0601 17:03:12.991727  6210 net.cpp:395] conv9_1_relu -> conv9_1 (in-place)
I0601 17:03:12.991858  6210 net.cpp:150] Setting up conv9_1_relu
I0601 17:03:12.991863  6210 net.cpp:157] Top shape: 4 128 3 3 (4608)
I0601 17:03:12.991866  6210 net.cpp:165] Memory required for data: 941101088
I0601 17:03:12.991868  6210 layer_factory.hpp:77] Creating layer conv9_2
I0601 17:03:12.991888  6210 net.cpp:100] Creating Layer conv9_2
I0601 17:03:12.991891  6210 net.cpp:434] conv9_2 <- conv9_1
I0601 17:03:12.991897  6210 net.cpp:408] conv9_2 -> conv9_2
I0601 17:03:12.994869  6210 net.cpp:150] Setting up conv9_2
I0601 17:03:12.994882  6210 net.cpp:157] Top shape: 4 256 1 1 (1024)
I0601 17:03:12.994884  6210 net.cpp:165] Memory required for data: 941105184
I0601 17:03:12.994890  6210 layer_factory.hpp:77] Creating layer conv9_2_relu
I0601 17:03:12.994894  6210 net.cpp:100] Creating Layer conv9_2_relu
I0601 17:03:12.994897  6210 net.cpp:434] conv9_2_relu <- conv9_2
I0601 17:03:12.994901  6210 net.cpp:395] conv9_2_relu -> conv9_2 (in-place)
I0601 17:03:12.995034  6210 net.cpp:150] Setting up conv9_2_relu
I0601 17:03:12.995041  6210 net.cpp:157] Top shape: 4 256 1 1 (1024)
I0601 17:03:12.995043  6210 net.cpp:165] Memory required for data: 941109280
I0601 17:03:12.995045  6210 layer_factory.hpp:77] Creating layer conv9_2_conv9_2_relu_0_split
I0601 17:03:12.995049  6210 net.cpp:100] Creating Layer conv9_2_conv9_2_relu_0_split
I0601 17:03:12.995052  6210 net.cpp:434] conv9_2_conv9_2_relu_0_split <- conv9_2
I0601 17:03:12.995056  6210 net.cpp:408] conv9_2_conv9_2_relu_0_split -> conv9_2_conv9_2_relu_0_split_0
I0601 17:03:12.995062  6210 net.cpp:408] conv9_2_conv9_2_relu_0_split -> conv9_2_conv9_2_relu_0_split_1
I0601 17:03:12.995071  6210 net.cpp:408] conv9_2_conv9_2_relu_0_split -> conv9_2_conv9_2_relu_0_split_2
I0601 17:03:12.995127  6210 net.cpp:150] Setting up conv9_2_conv9_2_relu_0_split
I0601 17:03:12.995132  6210 net.cpp:157] Top shape: 4 256 1 1 (1024)
I0601 17:03:12.995136  6210 net.cpp:157] Top shape: 4 256 1 1 (1024)
I0601 17:03:12.995137  6210 net.cpp:157] Top shape: 4 256 1 1 (1024)
I0601 17:03:12.995141  6210 net.cpp:165] Memory required for data: 941121568
I0601 17:03:12.995142  6210 layer_factory.hpp:77] Creating layer conv4_3_norm
I0601 17:03:12.995146  6210 net.cpp:100] Creating Layer conv4_3_norm
I0601 17:03:12.995156  6210 net.cpp:434] conv4_3_norm <- conv4_3_relu4_3_0_split_1
I0601 17:03:12.995173  6210 net.cpp:408] conv4_3_norm -> conv4_3_norm
I0601 17:03:12.995332  6210 net.cpp:150] Setting up conv4_3_norm
I0601 17:03:12.995337  6210 net.cpp:157] Top shape: 4 512 38 38 (2957312)
I0601 17:03:12.995339  6210 net.cpp:165] Memory required for data: 952950816
I0601 17:03:12.995343  6210 layer_factory.hpp:77] Creating layer conv4_3_norm_conv4_3_norm_0_split
I0601 17:03:12.995347  6210 net.cpp:100] Creating Layer conv4_3_norm_conv4_3_norm_0_split
I0601 17:03:12.995349  6210 net.cpp:434] conv4_3_norm_conv4_3_norm_0_split <- conv4_3_norm
I0601 17:03:12.995353  6210 net.cpp:408] conv4_3_norm_conv4_3_norm_0_split -> conv4_3_norm_conv4_3_norm_0_split_0
I0601 17:03:12.995359  6210 net.cpp:408] conv4_3_norm_conv4_3_norm_0_split -> conv4_3_norm_conv4_3_norm_0_split_1
I0601 17:03:12.995363  6210 net.cpp:408] conv4_3_norm_conv4_3_norm_0_split -> conv4_3_norm_conv4_3_norm_0_split_2
I0601 17:03:12.995409  6210 net.cpp:150] Setting up conv4_3_norm_conv4_3_norm_0_split
I0601 17:03:12.995414  6210 net.cpp:157] Top shape: 4 512 38 38 (2957312)
I0601 17:03:12.995419  6210 net.cpp:157] Top shape: 4 512 38 38 (2957312)
I0601 17:03:12.995420  6210 net.cpp:157] Top shape: 4 512 38 38 (2957312)
I0601 17:03:12.995422  6210 net.cpp:165] Memory required for data: 988438560
I0601 17:03:12.995424  6210 layer_factory.hpp:77] Creating layer conv4_3_norm_mbox_loc
I0601 17:03:12.995431  6210 net.cpp:100] Creating Layer conv4_3_norm_mbox_loc
I0601 17:03:12.995434  6210 net.cpp:434] conv4_3_norm_mbox_loc <- conv4_3_norm_conv4_3_norm_0_split_0
I0601 17:03:12.995438  6210 net.cpp:408] conv4_3_norm_mbox_loc -> conv4_3_norm_mbox_loc
I0601 17:03:12.997349  6210 net.cpp:150] Setting up conv4_3_norm_mbox_loc
I0601 17:03:12.997360  6210 net.cpp:157] Top shape: 4 16 38 38 (92416)
I0601 17:03:12.997362  6210 net.cpp:165] Memory required for data: 988808224
I0601 17:03:12.997367  6210 layer_factory.hpp:77] Creating layer conv4_3_norm_mbox_loc_perm
I0601 17:03:12.997373  6210 net.cpp:100] Creating Layer conv4_3_norm_mbox_loc_perm
I0601 17:03:12.997387  6210 net.cpp:434] conv4_3_norm_mbox_loc_perm <- conv4_3_norm_mbox_loc
I0601 17:03:12.997392  6210 net.cpp:408] conv4_3_norm_mbox_loc_perm -> conv4_3_norm_mbox_loc_perm
I0601 17:03:12.997493  6210 net.cpp:150] Setting up conv4_3_norm_mbox_loc_perm
I0601 17:03:12.997498  6210 net.cpp:157] Top shape: 4 38 38 16 (92416)
I0601 17:03:12.997500  6210 net.cpp:165] Memory required for data: 989177888
I0601 17:03:12.997503  6210 layer_factory.hpp:77] Creating layer conv4_3_norm_mbox_loc_flat
I0601 17:03:12.997509  6210 net.cpp:100] Creating Layer conv4_3_norm_mbox_loc_flat
I0601 17:03:12.997514  6210 net.cpp:434] conv4_3_norm_mbox_loc_flat <- conv4_3_norm_mbox_loc_perm
I0601 17:03:12.997519  6210 net.cpp:408] conv4_3_norm_mbox_loc_flat -> conv4_3_norm_mbox_loc_flat
I0601 17:03:12.997550  6210 net.cpp:150] Setting up conv4_3_norm_mbox_loc_flat
I0601 17:03:12.997555  6210 net.cpp:157] Top shape: 4 23104 (92416)
I0601 17:03:12.997557  6210 net.cpp:165] Memory required for data: 989547552
I0601 17:03:12.997560  6210 layer_factory.hpp:77] Creating layer conv4_3_norm_mbox_conf
I0601 17:03:12.997571  6210 net.cpp:100] Creating Layer conv4_3_norm_mbox_conf
I0601 17:03:12.997575  6210 net.cpp:434] conv4_3_norm_mbox_conf <- conv4_3_norm_conv4_3_norm_0_split_1
I0601 17:03:12.997580  6210 net.cpp:408] conv4_3_norm_mbox_conf -> conv4_3_norm_mbox_conf
I0601 17:03:12.999483  6210 net.cpp:150] Setting up conv4_3_norm_mbox_conf
I0601 17:03:12.999492  6210 net.cpp:157] Top shape: 4 16 38 38 (92416)
I0601 17:03:12.999495  6210 net.cpp:165] Memory required for data: 989917216
I0601 17:03:12.999500  6210 layer_factory.hpp:77] Creating layer conv4_3_norm_mbox_conf_perm
I0601 17:03:12.999506  6210 net.cpp:100] Creating Layer conv4_3_norm_mbox_conf_perm
I0601 17:03:12.999511  6210 net.cpp:434] conv4_3_norm_mbox_conf_perm <- conv4_3_norm_mbox_conf
I0601 17:03:12.999514  6210 net.cpp:408] conv4_3_norm_mbox_conf_perm -> conv4_3_norm_mbox_conf_perm
I0601 17:03:12.999616  6210 net.cpp:150] Setting up conv4_3_norm_mbox_conf_perm
I0601 17:03:12.999621  6210 net.cpp:157] Top shape: 4 38 38 16 (92416)
I0601 17:03:12.999624  6210 net.cpp:165] Memory required for data: 990286880
I0601 17:03:12.999625  6210 layer_factory.hpp:77] Creating layer conv4_3_norm_mbox_conf_flat
I0601 17:03:12.999629  6210 net.cpp:100] Creating Layer conv4_3_norm_mbox_conf_flat
I0601 17:03:12.999632  6210 net.cpp:434] conv4_3_norm_mbox_conf_flat <- conv4_3_norm_mbox_conf_perm
I0601 17:03:12.999636  6210 net.cpp:408] conv4_3_norm_mbox_conf_flat -> conv4_3_norm_mbox_conf_flat
I0601 17:03:12.999657  6210 net.cpp:150] Setting up conv4_3_norm_mbox_conf_flat
I0601 17:03:12.999662  6210 net.cpp:157] Top shape: 4 23104 (92416)
I0601 17:03:12.999665  6210 net.cpp:165] Memory required for data: 990656544
I0601 17:03:12.999666  6210 layer_factory.hpp:77] Creating layer conv4_3_norm_mbox_priorbox
I0601 17:03:12.999671  6210 net.cpp:100] Creating Layer conv4_3_norm_mbox_priorbox
I0601 17:03:12.999673  6210 net.cpp:434] conv4_3_norm_mbox_priorbox <- conv4_3_norm_conv4_3_norm_0_split_2
I0601 17:03:12.999677  6210 net.cpp:434] conv4_3_norm_mbox_priorbox <- data_data_0_split_1
I0601 17:03:12.999682  6210 net.cpp:408] conv4_3_norm_mbox_priorbox -> conv4_3_norm_mbox_priorbox
I0601 17:03:12.999706  6210 net.cpp:150] Setting up conv4_3_norm_mbox_priorbox
I0601 17:03:12.999711  6210 net.cpp:157] Top shape: 1 2 23104 (46208)
I0601 17:03:12.999714  6210 net.cpp:165] Memory required for data: 990841376
I0601 17:03:12.999716  6210 layer_factory.hpp:77] Creating layer fc7_mbox_loc
I0601 17:03:12.999722  6210 net.cpp:100] Creating Layer fc7_mbox_loc
I0601 17:03:12.999727  6210 net.cpp:434] fc7_mbox_loc <- fc7_relu7_0_split_1
I0601 17:03:12.999730  6210 net.cpp:408] fc7_mbox_loc -> fc7_mbox_loc
I0601 17:03:13.002248  6210 net.cpp:150] Setting up fc7_mbox_loc
I0601 17:03:13.002257  6210 net.cpp:157] Top shape: 4 24 19 19 (34656)
I0601 17:03:13.002260  6210 net.cpp:165] Memory required for data: 990980000
I0601 17:03:13.002265  6210 layer_factory.hpp:77] Creating layer fc7_mbox_loc_perm
I0601 17:03:13.002270  6210 net.cpp:100] Creating Layer fc7_mbox_loc_perm
I0601 17:03:13.002284  6210 net.cpp:434] fc7_mbox_loc_perm <- fc7_mbox_loc
I0601 17:03:13.002288  6210 net.cpp:408] fc7_mbox_loc_perm -> fc7_mbox_loc_perm
I0601 17:03:13.002390  6210 net.cpp:150] Setting up fc7_mbox_loc_perm
I0601 17:03:13.002396  6210 net.cpp:157] Top shape: 4 19 19 24 (34656)
I0601 17:03:13.002398  6210 net.cpp:165] Memory required for data: 991118624
I0601 17:03:13.002400  6210 layer_factory.hpp:77] Creating layer fc7_mbox_loc_flat
I0601 17:03:13.002405  6210 net.cpp:100] Creating Layer fc7_mbox_loc_flat
I0601 17:03:13.002408  6210 net.cpp:434] fc7_mbox_loc_flat <- fc7_mbox_loc_perm
I0601 17:03:13.002411  6210 net.cpp:408] fc7_mbox_loc_flat -> fc7_mbox_loc_flat
I0601 17:03:13.002431  6210 net.cpp:150] Setting up fc7_mbox_loc_flat
I0601 17:03:13.002437  6210 net.cpp:157] Top shape: 4 8664 (34656)
I0601 17:03:13.002439  6210 net.cpp:165] Memory required for data: 991257248
I0601 17:03:13.002441  6210 layer_factory.hpp:77] Creating layer fc7_mbox_conf
I0601 17:03:13.002447  6210 net.cpp:100] Creating Layer fc7_mbox_conf
I0601 17:03:13.002450  6210 net.cpp:434] fc7_mbox_conf <- fc7_relu7_0_split_2
I0601 17:03:13.002454  6210 net.cpp:408] fc7_mbox_conf -> fc7_mbox_conf
I0601 17:03:13.004976  6210 net.cpp:150] Setting up fc7_mbox_conf
I0601 17:03:13.004986  6210 net.cpp:157] Top shape: 4 24 19 19 (34656)
I0601 17:03:13.004989  6210 net.cpp:165] Memory required for data: 991395872
I0601 17:03:13.004993  6210 layer_factory.hpp:77] Creating layer fc7_mbox_conf_perm
I0601 17:03:13.004998  6210 net.cpp:100] Creating Layer fc7_mbox_conf_perm
I0601 17:03:13.005002  6210 net.cpp:434] fc7_mbox_conf_perm <- fc7_mbox_conf
I0601 17:03:13.005007  6210 net.cpp:408] fc7_mbox_conf_perm -> fc7_mbox_conf_perm
I0601 17:03:13.005116  6210 net.cpp:150] Setting up fc7_mbox_conf_perm
I0601 17:03:13.005122  6210 net.cpp:157] Top shape: 4 19 19 24 (34656)
I0601 17:03:13.005125  6210 net.cpp:165] Memory required for data: 991534496
I0601 17:03:13.005127  6210 layer_factory.hpp:77] Creating layer fc7_mbox_conf_flat
I0601 17:03:13.005131  6210 net.cpp:100] Creating Layer fc7_mbox_conf_flat
I0601 17:03:13.005133  6210 net.cpp:434] fc7_mbox_conf_flat <- fc7_mbox_conf_perm
I0601 17:03:13.005136  6210 net.cpp:408] fc7_mbox_conf_flat -> fc7_mbox_conf_flat
I0601 17:03:13.005158  6210 net.cpp:150] Setting up fc7_mbox_conf_flat
I0601 17:03:13.005163  6210 net.cpp:157] Top shape: 4 8664 (34656)
I0601 17:03:13.005165  6210 net.cpp:165] Memory required for data: 991673120
I0601 17:03:13.005167  6210 layer_factory.hpp:77] Creating layer fc7_mbox_priorbox
I0601 17:03:13.005172  6210 net.cpp:100] Creating Layer fc7_mbox_priorbox
I0601 17:03:13.005175  6210 net.cpp:434] fc7_mbox_priorbox <- fc7_relu7_0_split_3
I0601 17:03:13.005178  6210 net.cpp:434] fc7_mbox_priorbox <- data_data_0_split_2
I0601 17:03:13.005183  6210 net.cpp:408] fc7_mbox_priorbox -> fc7_mbox_priorbox
I0601 17:03:13.005206  6210 net.cpp:150] Setting up fc7_mbox_priorbox
I0601 17:03:13.005213  6210 net.cpp:157] Top shape: 1 2 8664 (17328)
I0601 17:03:13.005215  6210 net.cpp:165] Memory required for data: 991742432
I0601 17:03:13.005218  6210 layer_factory.hpp:77] Creating layer conv6_2_mbox_loc
I0601 17:03:13.005225  6210 net.cpp:100] Creating Layer conv6_2_mbox_loc
I0601 17:03:13.005229  6210 net.cpp:434] conv6_2_mbox_loc <- conv6_2_conv6_2_relu_0_split_1
I0601 17:03:13.005234  6210 net.cpp:408] conv6_2_mbox_loc -> conv6_2_mbox_loc
I0601 17:03:13.007294  6210 net.cpp:150] Setting up conv6_2_mbox_loc
I0601 17:03:13.007304  6210 net.cpp:157] Top shape: 4 24 10 10 (9600)
I0601 17:03:13.007306  6210 net.cpp:165] Memory required for data: 991780832
I0601 17:03:13.007311  6210 layer_factory.hpp:77] Creating layer conv6_2_mbox_loc_perm
I0601 17:03:13.007316  6210 net.cpp:100] Creating Layer conv6_2_mbox_loc_perm
I0601 17:03:13.007321  6210 net.cpp:434] conv6_2_mbox_loc_perm <- conv6_2_mbox_loc
I0601 17:03:13.007326  6210 net.cpp:408] conv6_2_mbox_loc_perm -> conv6_2_mbox_loc_perm
I0601 17:03:13.007429  6210 net.cpp:150] Setting up conv6_2_mbox_loc_perm
I0601 17:03:13.007443  6210 net.cpp:157] Top shape: 4 10 10 24 (9600)
I0601 17:03:13.007447  6210 net.cpp:165] Memory required for data: 991819232
I0601 17:03:13.007448  6210 layer_factory.hpp:77] Creating layer conv6_2_mbox_loc_flat
I0601 17:03:13.007452  6210 net.cpp:100] Creating Layer conv6_2_mbox_loc_flat
I0601 17:03:13.007454  6210 net.cpp:434] conv6_2_mbox_loc_flat <- conv6_2_mbox_loc_perm
I0601 17:03:13.007459  6210 net.cpp:408] conv6_2_mbox_loc_flat -> conv6_2_mbox_loc_flat
I0601 17:03:13.007481  6210 net.cpp:150] Setting up conv6_2_mbox_loc_flat
I0601 17:03:13.007488  6210 net.cpp:157] Top shape: 4 2400 (9600)
I0601 17:03:13.007491  6210 net.cpp:165] Memory required for data: 991857632
I0601 17:03:13.007495  6210 layer_factory.hpp:77] Creating layer conv6_2_mbox_conf
I0601 17:03:13.007503  6210 net.cpp:100] Creating Layer conv6_2_mbox_conf
I0601 17:03:13.007506  6210 net.cpp:434] conv6_2_mbox_conf <- conv6_2_conv6_2_relu_0_split_2
I0601 17:03:13.007511  6210 net.cpp:408] conv6_2_mbox_conf -> conv6_2_mbox_conf
I0601 17:03:13.009603  6210 net.cpp:150] Setting up conv6_2_mbox_conf
I0601 17:03:13.009613  6210 net.cpp:157] Top shape: 4 24 10 10 (9600)
I0601 17:03:13.009614  6210 net.cpp:165] Memory required for data: 991896032
I0601 17:03:13.009619  6210 layer_factory.hpp:77] Creating layer conv6_2_mbox_conf_perm
I0601 17:03:13.009626  6210 net.cpp:100] Creating Layer conv6_2_mbox_conf_perm
I0601 17:03:13.009629  6210 net.cpp:434] conv6_2_mbox_conf_perm <- conv6_2_mbox_conf
I0601 17:03:13.009634  6210 net.cpp:408] conv6_2_mbox_conf_perm -> conv6_2_mbox_conf_perm
I0601 17:03:13.009737  6210 net.cpp:150] Setting up conv6_2_mbox_conf_perm
I0601 17:03:13.009743  6210 net.cpp:157] Top shape: 4 10 10 24 (9600)
I0601 17:03:13.009745  6210 net.cpp:165] Memory required for data: 991934432
I0601 17:03:13.009747  6210 layer_factory.hpp:77] Creating layer conv6_2_mbox_conf_flat
I0601 17:03:13.009750  6210 net.cpp:100] Creating Layer conv6_2_mbox_conf_flat
I0601 17:03:13.009753  6210 net.cpp:434] conv6_2_mbox_conf_flat <- conv6_2_mbox_conf_perm
I0601 17:03:13.009758  6210 net.cpp:408] conv6_2_mbox_conf_flat -> conv6_2_mbox_conf_flat
I0601 17:03:13.009778  6210 net.cpp:150] Setting up conv6_2_mbox_conf_flat
I0601 17:03:13.009783  6210 net.cpp:157] Top shape: 4 2400 (9600)
I0601 17:03:13.009786  6210 net.cpp:165] Memory required for data: 991972832
I0601 17:03:13.009788  6210 layer_factory.hpp:77] Creating layer conv6_2_mbox_priorbox
I0601 17:03:13.009793  6210 net.cpp:100] Creating Layer conv6_2_mbox_priorbox
I0601 17:03:13.009794  6210 net.cpp:434] conv6_2_mbox_priorbox <- conv6_2_conv6_2_relu_0_split_3
I0601 17:03:13.009799  6210 net.cpp:434] conv6_2_mbox_priorbox <- data_data_0_split_3
I0601 17:03:13.009804  6210 net.cpp:408] conv6_2_mbox_priorbox -> conv6_2_mbox_priorbox
I0601 17:03:13.009826  6210 net.cpp:150] Setting up conv6_2_mbox_priorbox
I0601 17:03:13.009830  6210 net.cpp:157] Top shape: 1 2 2400 (4800)
I0601 17:03:13.009834  6210 net.cpp:165] Memory required for data: 991992032
I0601 17:03:13.009835  6210 layer_factory.hpp:77] Creating layer conv7_2_mbox_loc
I0601 17:03:13.009841  6210 net.cpp:100] Creating Layer conv7_2_mbox_loc
I0601 17:03:13.009845  6210 net.cpp:434] conv7_2_mbox_loc <- conv7_2_conv7_2_relu_0_split_1
I0601 17:03:13.009850  6210 net.cpp:408] conv7_2_mbox_loc -> conv7_2_mbox_loc
I0601 17:03:13.011276  6210 net.cpp:150] Setting up conv7_2_mbox_loc
I0601 17:03:13.011287  6210 net.cpp:157] Top shape: 4 24 5 5 (2400)
I0601 17:03:13.011289  6210 net.cpp:165] Memory required for data: 992001632
I0601 17:03:13.011296  6210 layer_factory.hpp:77] Creating layer conv7_2_mbox_loc_perm
I0601 17:03:13.011303  6210 net.cpp:100] Creating Layer conv7_2_mbox_loc_perm
I0601 17:03:13.011307  6210 net.cpp:434] conv7_2_mbox_loc_perm <- conv7_2_mbox_loc
I0601 17:03:13.011312  6210 net.cpp:408] conv7_2_mbox_loc_perm -> conv7_2_mbox_loc_perm
I0601 17:03:13.011420  6210 net.cpp:150] Setting up conv7_2_mbox_loc_perm
I0601 17:03:13.011425  6210 net.cpp:157] Top shape: 4 5 5 24 (2400)
I0601 17:03:13.011427  6210 net.cpp:165] Memory required for data: 992011232
I0601 17:03:13.011438  6210 layer_factory.hpp:77] Creating layer conv7_2_mbox_loc_flat
I0601 17:03:13.011445  6210 net.cpp:100] Creating Layer conv7_2_mbox_loc_flat
I0601 17:03:13.011447  6210 net.cpp:434] conv7_2_mbox_loc_flat <- conv7_2_mbox_loc_perm
I0601 17:03:13.011451  6210 net.cpp:408] conv7_2_mbox_loc_flat -> conv7_2_mbox_loc_flat
I0601 17:03:13.011473  6210 net.cpp:150] Setting up conv7_2_mbox_loc_flat
I0601 17:03:13.011478  6210 net.cpp:157] Top shape: 4 600 (2400)
I0601 17:03:13.011481  6210 net.cpp:165] Memory required for data: 992020832
I0601 17:03:13.011482  6210 layer_factory.hpp:77] Creating layer conv7_2_mbox_conf
I0601 17:03:13.011489  6210 net.cpp:100] Creating Layer conv7_2_mbox_conf
I0601 17:03:13.011492  6210 net.cpp:434] conv7_2_mbox_conf <- conv7_2_conv7_2_relu_0_split_2
I0601 17:03:13.011498  6210 net.cpp:408] conv7_2_mbox_conf -> conv7_2_mbox_conf
I0601 17:03:13.013444  6210 net.cpp:150] Setting up conv7_2_mbox_conf
I0601 17:03:13.013455  6210 net.cpp:157] Top shape: 4 24 5 5 (2400)
I0601 17:03:13.013458  6210 net.cpp:165] Memory required for data: 992030432
I0601 17:03:13.013464  6210 layer_factory.hpp:77] Creating layer conv7_2_mbox_conf_perm
I0601 17:03:13.013470  6210 net.cpp:100] Creating Layer conv7_2_mbox_conf_perm
I0601 17:03:13.013474  6210 net.cpp:434] conv7_2_mbox_conf_perm <- conv7_2_mbox_conf
I0601 17:03:13.013480  6210 net.cpp:408] conv7_2_mbox_conf_perm -> conv7_2_mbox_conf_perm
I0601 17:03:13.013597  6210 net.cpp:150] Setting up conv7_2_mbox_conf_perm
I0601 17:03:13.013602  6210 net.cpp:157] Top shape: 4 5 5 24 (2400)
I0601 17:03:13.013603  6210 net.cpp:165] Memory required for data: 992040032
I0601 17:03:13.013607  6210 layer_factory.hpp:77] Creating layer conv7_2_mbox_conf_flat
I0601 17:03:13.013610  6210 net.cpp:100] Creating Layer conv7_2_mbox_conf_flat
I0601 17:03:13.013613  6210 net.cpp:434] conv7_2_mbox_conf_flat <- conv7_2_mbox_conf_perm
I0601 17:03:13.013617  6210 net.cpp:408] conv7_2_mbox_conf_flat -> conv7_2_mbox_conf_flat
I0601 17:03:13.013640  6210 net.cpp:150] Setting up conv7_2_mbox_conf_flat
I0601 17:03:13.013644  6210 net.cpp:157] Top shape: 4 600 (2400)
I0601 17:03:13.013646  6210 net.cpp:165] Memory required for data: 992049632
I0601 17:03:13.013648  6210 layer_factory.hpp:77] Creating layer conv7_2_mbox_priorbox
I0601 17:03:13.013655  6210 net.cpp:100] Creating Layer conv7_2_mbox_priorbox
I0601 17:03:13.013658  6210 net.cpp:434] conv7_2_mbox_priorbox <- conv7_2_conv7_2_relu_0_split_3
I0601 17:03:13.013661  6210 net.cpp:434] conv7_2_mbox_priorbox <- data_data_0_split_4
I0601 17:03:13.013665  6210 net.cpp:408] conv7_2_mbox_priorbox -> conv7_2_mbox_priorbox
I0601 17:03:13.013690  6210 net.cpp:150] Setting up conv7_2_mbox_priorbox
I0601 17:03:13.013695  6210 net.cpp:157] Top shape: 1 2 600 (1200)
I0601 17:03:13.013697  6210 net.cpp:165] Memory required for data: 992054432
I0601 17:03:13.013700  6210 layer_factory.hpp:77] Creating layer conv8_2_mbox_loc
I0601 17:03:13.013706  6210 net.cpp:100] Creating Layer conv8_2_mbox_loc
I0601 17:03:13.013710  6210 net.cpp:434] conv8_2_mbox_loc <- conv8_2_conv8_2_relu_0_split_1
I0601 17:03:13.013718  6210 net.cpp:408] conv8_2_mbox_loc -> conv8_2_mbox_loc
I0601 17:03:13.015637  6210 net.cpp:150] Setting up conv8_2_mbox_loc
I0601 17:03:13.015648  6210 net.cpp:157] Top shape: 4 16 3 3 (576)
I0601 17:03:13.015650  6210 net.cpp:165] Memory required for data: 992056736
I0601 17:03:13.015663  6210 layer_factory.hpp:77] Creating layer conv8_2_mbox_loc_perm
I0601 17:03:13.015669  6210 net.cpp:100] Creating Layer conv8_2_mbox_loc_perm
I0601 17:03:13.015673  6210 net.cpp:434] conv8_2_mbox_loc_perm <- conv8_2_mbox_loc
I0601 17:03:13.015678  6210 net.cpp:408] conv8_2_mbox_loc_perm -> conv8_2_mbox_loc_perm
I0601 17:03:13.015796  6210 net.cpp:150] Setting up conv8_2_mbox_loc_perm
I0601 17:03:13.015802  6210 net.cpp:157] Top shape: 4 3 3 16 (576)
I0601 17:03:13.015805  6210 net.cpp:165] Memory required for data: 992059040
I0601 17:03:13.015806  6210 layer_factory.hpp:77] Creating layer conv8_2_mbox_loc_flat
I0601 17:03:13.015820  6210 net.cpp:100] Creating Layer conv8_2_mbox_loc_flat
I0601 17:03:13.015825  6210 net.cpp:434] conv8_2_mbox_loc_flat <- conv8_2_mbox_loc_perm
I0601 17:03:13.015830  6210 net.cpp:408] conv8_2_mbox_loc_flat -> conv8_2_mbox_loc_flat
I0601 17:03:13.015853  6210 net.cpp:150] Setting up conv8_2_mbox_loc_flat
I0601 17:03:13.015858  6210 net.cpp:157] Top shape: 4 144 (576)
I0601 17:03:13.015861  6210 net.cpp:165] Memory required for data: 992061344
I0601 17:03:13.015863  6210 layer_factory.hpp:77] Creating layer conv8_2_mbox_conf
I0601 17:03:13.015872  6210 net.cpp:100] Creating Layer conv8_2_mbox_conf
I0601 17:03:13.015877  6210 net.cpp:434] conv8_2_mbox_conf <- conv8_2_conv8_2_relu_0_split_2
I0601 17:03:13.015883  6210 net.cpp:408] conv8_2_mbox_conf -> conv8_2_mbox_conf
I0601 17:03:13.017725  6210 net.cpp:150] Setting up conv8_2_mbox_conf
I0601 17:03:13.017735  6210 net.cpp:157] Top shape: 4 16 3 3 (576)
I0601 17:03:13.017737  6210 net.cpp:165] Memory required for data: 992063648
I0601 17:03:13.017742  6210 layer_factory.hpp:77] Creating layer conv8_2_mbox_conf_perm
I0601 17:03:13.017750  6210 net.cpp:100] Creating Layer conv8_2_mbox_conf_perm
I0601 17:03:13.017752  6210 net.cpp:434] conv8_2_mbox_conf_perm <- conv8_2_mbox_conf
I0601 17:03:13.017756  6210 net.cpp:408] conv8_2_mbox_conf_perm -> conv8_2_mbox_conf_perm
I0601 17:03:13.017865  6210 net.cpp:150] Setting up conv8_2_mbox_conf_perm
I0601 17:03:13.017870  6210 net.cpp:157] Top shape: 4 3 3 16 (576)
I0601 17:03:13.017873  6210 net.cpp:165] Memory required for data: 992065952
I0601 17:03:13.017875  6210 layer_factory.hpp:77] Creating layer conv8_2_mbox_conf_flat
I0601 17:03:13.017879  6210 net.cpp:100] Creating Layer conv8_2_mbox_conf_flat
I0601 17:03:13.017882  6210 net.cpp:434] conv8_2_mbox_conf_flat <- conv8_2_mbox_conf_perm
I0601 17:03:13.017885  6210 net.cpp:408] conv8_2_mbox_conf_flat -> conv8_2_mbox_conf_flat
I0601 17:03:13.017907  6210 net.cpp:150] Setting up conv8_2_mbox_conf_flat
I0601 17:03:13.017911  6210 net.cpp:157] Top shape: 4 144 (576)
I0601 17:03:13.017915  6210 net.cpp:165] Memory required for data: 992068256
I0601 17:03:13.017916  6210 layer_factory.hpp:77] Creating layer conv8_2_mbox_priorbox
I0601 17:03:13.017921  6210 net.cpp:100] Creating Layer conv8_2_mbox_priorbox
I0601 17:03:13.017925  6210 net.cpp:434] conv8_2_mbox_priorbox <- conv8_2_conv8_2_relu_0_split_3
I0601 17:03:13.017928  6210 net.cpp:434] conv8_2_mbox_priorbox <- data_data_0_split_5
I0601 17:03:13.017932  6210 net.cpp:408] conv8_2_mbox_priorbox -> conv8_2_mbox_priorbox
I0601 17:03:13.017956  6210 net.cpp:150] Setting up conv8_2_mbox_priorbox
I0601 17:03:13.017961  6210 net.cpp:157] Top shape: 1 2 144 (288)
I0601 17:03:13.017963  6210 net.cpp:165] Memory required for data: 992069408
I0601 17:03:13.017966  6210 layer_factory.hpp:77] Creating layer conv9_2_mbox_loc
I0601 17:03:13.017971  6210 net.cpp:100] Creating Layer conv9_2_mbox_loc
I0601 17:03:13.017976  6210 net.cpp:434] conv9_2_mbox_loc <- conv9_2_conv9_2_relu_0_split_0
I0601 17:03:13.017980  6210 net.cpp:408] conv9_2_mbox_loc -> conv9_2_mbox_loc
I0601 17:03:13.020205  6210 net.cpp:150] Setting up conv9_2_mbox_loc
I0601 17:03:13.020213  6210 net.cpp:157] Top shape: 4 16 1 1 (64)
I0601 17:03:13.020215  6210 net.cpp:165] Memory required for data: 992069664
I0601 17:03:13.020220  6210 layer_factory.hpp:77] Creating layer conv9_2_mbox_loc_perm
I0601 17:03:13.020226  6210 net.cpp:100] Creating Layer conv9_2_mbox_loc_perm
I0601 17:03:13.020228  6210 net.cpp:434] conv9_2_mbox_loc_perm <- conv9_2_mbox_loc
I0601 17:03:13.020233  6210 net.cpp:408] conv9_2_mbox_loc_perm -> conv9_2_mbox_loc_perm
I0601 17:03:13.020339  6210 net.cpp:150] Setting up conv9_2_mbox_loc_perm
I0601 17:03:13.020344  6210 net.cpp:157] Top shape: 4 1 1 16 (64)
I0601 17:03:13.020345  6210 net.cpp:165] Memory required for data: 992069920
I0601 17:03:13.020347  6210 layer_factory.hpp:77] Creating layer conv9_2_mbox_loc_flat
I0601 17:03:13.020351  6210 net.cpp:100] Creating Layer conv9_2_mbox_loc_flat
I0601 17:03:13.020354  6210 net.cpp:434] conv9_2_mbox_loc_flat <- conv9_2_mbox_loc_perm
I0601 17:03:13.020366  6210 net.cpp:408] conv9_2_mbox_loc_flat -> conv9_2_mbox_loc_flat
I0601 17:03:13.020390  6210 net.cpp:150] Setting up conv9_2_mbox_loc_flat
I0601 17:03:13.020395  6210 net.cpp:157] Top shape: 4 16 (64)
I0601 17:03:13.020397  6210 net.cpp:165] Memory required for data: 992070176
I0601 17:03:13.020400  6210 layer_factory.hpp:77] Creating layer conv9_2_mbox_conf
I0601 17:03:13.020406  6210 net.cpp:100] Creating Layer conv9_2_mbox_conf
I0601 17:03:13.020409  6210 net.cpp:434] conv9_2_mbox_conf <- conv9_2_conv9_2_relu_0_split_1
I0601 17:03:13.020416  6210 net.cpp:408] conv9_2_mbox_conf -> conv9_2_mbox_conf
I0601 17:03:13.022197  6210 net.cpp:150] Setting up conv9_2_mbox_conf
I0601 17:03:13.022207  6210 net.cpp:157] Top shape: 4 16 1 1 (64)
I0601 17:03:13.022209  6210 net.cpp:165] Memory required for data: 992070432
I0601 17:03:13.022214  6210 layer_factory.hpp:77] Creating layer conv9_2_mbox_conf_perm
I0601 17:03:13.022219  6210 net.cpp:100] Creating Layer conv9_2_mbox_conf_perm
I0601 17:03:13.022222  6210 net.cpp:434] conv9_2_mbox_conf_perm <- conv9_2_mbox_conf
I0601 17:03:13.022228  6210 net.cpp:408] conv9_2_mbox_conf_perm -> conv9_2_mbox_conf_perm
I0601 17:03:13.022336  6210 net.cpp:150] Setting up conv9_2_mbox_conf_perm
I0601 17:03:13.022341  6210 net.cpp:157] Top shape: 4 1 1 16 (64)
I0601 17:03:13.022342  6210 net.cpp:165] Memory required for data: 992070688
I0601 17:03:13.022346  6210 layer_factory.hpp:77] Creating layer conv9_2_mbox_conf_flat
I0601 17:03:13.022348  6210 net.cpp:100] Creating Layer conv9_2_mbox_conf_flat
I0601 17:03:13.022351  6210 net.cpp:434] conv9_2_mbox_conf_flat <- conv9_2_mbox_conf_perm
I0601 17:03:13.022356  6210 net.cpp:408] conv9_2_mbox_conf_flat -> conv9_2_mbox_conf_flat
I0601 17:03:13.022377  6210 net.cpp:150] Setting up conv9_2_mbox_conf_flat
I0601 17:03:13.022382  6210 net.cpp:157] Top shape: 4 16 (64)
I0601 17:03:13.022384  6210 net.cpp:165] Memory required for data: 992070944
I0601 17:03:13.022387  6210 layer_factory.hpp:77] Creating layer conv9_2_mbox_priorbox
I0601 17:03:13.022392  6210 net.cpp:100] Creating Layer conv9_2_mbox_priorbox
I0601 17:03:13.022394  6210 net.cpp:434] conv9_2_mbox_priorbox <- conv9_2_conv9_2_relu_0_split_2
I0601 17:03:13.022397  6210 net.cpp:434] conv9_2_mbox_priorbox <- data_data_0_split_6
I0601 17:03:13.022403  6210 net.cpp:408] conv9_2_mbox_priorbox -> conv9_2_mbox_priorbox
I0601 17:03:13.022426  6210 net.cpp:150] Setting up conv9_2_mbox_priorbox
I0601 17:03:13.022431  6210 net.cpp:157] Top shape: 1 2 16 (32)
I0601 17:03:13.022433  6210 net.cpp:165] Memory required for data: 992071072
I0601 17:03:13.022435  6210 layer_factory.hpp:77] Creating layer mbox_loc
I0601 17:03:13.022440  6210 net.cpp:100] Creating Layer mbox_loc
I0601 17:03:13.022445  6210 net.cpp:434] mbox_loc <- conv4_3_norm_mbox_loc_flat
I0601 17:03:13.022449  6210 net.cpp:434] mbox_loc <- fc7_mbox_loc_flat
I0601 17:03:13.022452  6210 net.cpp:434] mbox_loc <- conv6_2_mbox_loc_flat
I0601 17:03:13.022455  6210 net.cpp:434] mbox_loc <- conv7_2_mbox_loc_flat
I0601 17:03:13.022459  6210 net.cpp:434] mbox_loc <- conv8_2_mbox_loc_flat
I0601 17:03:13.022461  6210 net.cpp:434] mbox_loc <- conv9_2_mbox_loc_flat
I0601 17:03:13.022465  6210 net.cpp:408] mbox_loc -> mbox_loc
I0601 17:03:13.022488  6210 net.cpp:150] Setting up mbox_loc
I0601 17:03:13.022493  6210 net.cpp:157] Top shape: 4 34928 (139712)
I0601 17:03:13.022495  6210 net.cpp:165] Memory required for data: 992629920
I0601 17:03:13.022497  6210 layer_factory.hpp:77] Creating layer mbox_conf
I0601 17:03:13.022501  6210 net.cpp:100] Creating Layer mbox_conf
I0601 17:03:13.022505  6210 net.cpp:434] mbox_conf <- conv4_3_norm_mbox_conf_flat
I0601 17:03:13.022507  6210 net.cpp:434] mbox_conf <- fc7_mbox_conf_flat
I0601 17:03:13.022511  6210 net.cpp:434] mbox_conf <- conv6_2_mbox_conf_flat
I0601 17:03:13.022514  6210 net.cpp:434] mbox_conf <- conv7_2_mbox_conf_flat
I0601 17:03:13.022516  6210 net.cpp:434] mbox_conf <- conv8_2_mbox_conf_flat
I0601 17:03:13.022519  6210 net.cpp:434] mbox_conf <- conv9_2_mbox_conf_flat
I0601 17:03:13.022529  6210 net.cpp:408] mbox_conf -> mbox_conf
I0601 17:03:13.022553  6210 net.cpp:150] Setting up mbox_conf
I0601 17:03:13.022558  6210 net.cpp:157] Top shape: 4 34928 (139712)
I0601 17:03:13.022560  6210 net.cpp:165] Memory required for data: 993188768
I0601 17:03:13.022562  6210 layer_factory.hpp:77] Creating layer mbox_priorbox
I0601 17:03:13.022567  6210 net.cpp:100] Creating Layer mbox_priorbox
I0601 17:03:13.022568  6210 net.cpp:434] mbox_priorbox <- conv4_3_norm_mbox_priorbox
I0601 17:03:13.022572  6210 net.cpp:434] mbox_priorbox <- fc7_mbox_priorbox
I0601 17:03:13.022575  6210 net.cpp:434] mbox_priorbox <- conv6_2_mbox_priorbox
I0601 17:03:13.022578  6210 net.cpp:434] mbox_priorbox <- conv7_2_mbox_priorbox
I0601 17:03:13.022581  6210 net.cpp:434] mbox_priorbox <- conv8_2_mbox_priorbox
I0601 17:03:13.022583  6210 net.cpp:434] mbox_priorbox <- conv9_2_mbox_priorbox
I0601 17:03:13.022588  6210 net.cpp:408] mbox_priorbox -> mbox_priorbox
I0601 17:03:13.022609  6210 net.cpp:150] Setting up mbox_priorbox
I0601 17:03:13.022614  6210 net.cpp:157] Top shape: 1 2 34928 (69856)
I0601 17:03:13.022615  6210 net.cpp:165] Memory required for data: 993468192
I0601 17:03:13.022617  6210 layer_factory.hpp:77] Creating layer mbox_conf_reshape
I0601 17:03:13.022624  6210 net.cpp:100] Creating Layer mbox_conf_reshape
I0601 17:03:13.022625  6210 net.cpp:434] mbox_conf_reshape <- mbox_conf
I0601 17:03:13.022630  6210 net.cpp:408] mbox_conf_reshape -> mbox_conf_reshape
I0601 17:03:13.022657  6210 net.cpp:150] Setting up mbox_conf_reshape
I0601 17:03:13.022662  6210 net.cpp:157] Top shape: 4 8732 4 (139712)
I0601 17:03:13.022665  6210 net.cpp:165] Memory required for data: 994027040
I0601 17:03:13.022666  6210 layer_factory.hpp:77] Creating layer mbox_conf_softmax
I0601 17:03:13.022671  6210 net.cpp:100] Creating Layer mbox_conf_softmax
I0601 17:03:13.022675  6210 net.cpp:434] mbox_conf_softmax <- mbox_conf_reshape
I0601 17:03:13.022678  6210 net.cpp:408] mbox_conf_softmax -> mbox_conf_softmax
I0601 17:03:13.022876  6210 net.cpp:150] Setting up mbox_conf_softmax
I0601 17:03:13.022882  6210 net.cpp:157] Top shape: 4 8732 4 (139712)
I0601 17:03:13.022886  6210 net.cpp:165] Memory required for data: 994585888
I0601 17:03:13.022887  6210 layer_factory.hpp:77] Creating layer mbox_conf_flatten
I0601 17:03:13.022891  6210 net.cpp:100] Creating Layer mbox_conf_flatten
I0601 17:03:13.022894  6210 net.cpp:434] mbox_conf_flatten <- mbox_conf_softmax
I0601 17:03:13.022898  6210 net.cpp:408] mbox_conf_flatten -> mbox_conf_flatten
I0601 17:03:13.022920  6210 net.cpp:150] Setting up mbox_conf_flatten
I0601 17:03:13.022925  6210 net.cpp:157] Top shape: 4 34928 (139712)
I0601 17:03:13.022927  6210 net.cpp:165] Memory required for data: 995144736
I0601 17:03:13.022930  6210 layer_factory.hpp:77] Creating layer detection_out
I0601 17:03:13.022939  6210 net.cpp:100] Creating Layer detection_out
I0601 17:03:13.022943  6210 net.cpp:434] detection_out <- mbox_loc
I0601 17:03:13.022946  6210 net.cpp:434] detection_out <- mbox_conf_flatten
I0601 17:03:13.022949  6210 net.cpp:434] detection_out <- mbox_priorbox
I0601 17:03:13.022953  6210 net.cpp:408] detection_out -> detection_out
I0601 17:03:13.024132  6210 net.cpp:150] Setting up detection_out
I0601 17:03:13.024140  6210 net.cpp:157] Top shape: 1 1 1 7 (7)
I0601 17:03:13.024143  6210 net.cpp:165] Memory required for data: 995144764
I0601 17:03:13.024145  6210 layer_factory.hpp:77] Creating layer detection_eval
I0601 17:03:13.024150  6210 net.cpp:100] Creating Layer detection_eval
I0601 17:03:13.024153  6210 net.cpp:434] detection_eval <- detection_out
I0601 17:03:13.024158  6210 net.cpp:434] detection_eval <- label
I0601 17:03:13.024160  6210 net.cpp:408] detection_eval -> detection_eval
I0601 17:03:13.024933  6210 net.cpp:150] Setting up detection_eval
I0601 17:03:13.024940  6210 net.cpp:157] Top shape: 1 1 4 5 (20)
I0601 17:03:13.024942  6210 net.cpp:165] Memory required for data: 995144844
I0601 17:03:13.024945  6210 net.cpp:228] detection_eval does not need backward computation.
I0601 17:03:13.024955  6210 net.cpp:228] detection_out does not need backward computation.
I0601 17:03:13.024958  6210 net.cpp:228] mbox_conf_flatten does not need backward computation.
I0601 17:03:13.024961  6210 net.cpp:228] mbox_conf_softmax does not need backward computation.
…
