…
        min_scale: 0.3
        max_scale: 1
        min_aspect_ratio: 0.5
        max_aspect_ratio: 2
      }
      sample_constraint {
        min_jaccard_overlap: 0.9
      }
      max_sample: 1
      max_trials: 50
    }
    batch_sampler {
      sampler {
        min_scale: 0.3
        max_scale: 1
        min_aspect_ratio: 0.5
        max_aspect_ratio: 2
      }
      sample_constraint {
        max_jaccard_overlap: 1
      }
      max_sample: 1
      max_trials: 50
    }
    label_map_file: "data/tbs_300x300_HSIL_10x/labelmap_tbs.prototxt"
  }
}
layer {
  name: "conv1_1"
  type: "Convolution"
  bottom: "data"
  top: "conv1_1"
  param {
    lr_mult: 1
    decay_mult: 1
  }
  param {
    lr_mult: 2
    decay_mult: 0
  }
  convolution_param {
    num_output: 64
    pad: 1
    kernel_size: 3
    weight_filler {
      type: "xavier"
    }
    bias_filler {
      type: "constant"
      value: 0
    }
  }
}
layer {
  name: "relu1_1"
  type: "ReLU"
  bottom: "conv1_1"
  top: "conv1_1"
}
layer {
  name: "conv1_2"
  type: "Convolution"
  bottom: "conv1_1"
  top: "conv1_2"
  param {
    lr_mult: 1
    decay_mult: 1
  }
  param {
    lr_mult: 2
    decay_mult: 0
  }
  convolution_param {
    num_output: 64
    pad: 1
    kernel_size: 3
    weight_filler {
      type: "xavier"
    }
    bias_filler {
      type: "constant"
      value: 0
    }
  }
}
layer {
  name: "relu1_2"
  type: "ReLU"
  bottom: "conv1_2"
  top: "conv1_2"
}
layer {
  name: "pool1"
  type: "Pooling"
  bottom: "conv1_2"
  top: "pool1"
  pooling_param {
    pool: MAX
    kernel_size: 2
    stride: 2
  }
}
layer {
  name: "conv2_1"
  type: "Convolution"
  bottom: "pool1"
  top: "conv2_1"
  param {
    lr_mult: 1
    decay_mult: 1
  }
  param {
    lr_mult: 2
    decay_mult: 0
  }
  convolution_param {
    num_output: 128
    pad: 1
    kernel_size: 3
    weight_filler {
      type: "xavier"
    }
    bias_filler {
      type: "constant"
      value: 0
    }
  }
}
layer {
  name: "relu2_1"
  type: "ReLU"
  bottom: "conv2_1"
  top: "conv2_1"
}
layer {
  name: "conv2_2"
  type: "Convolution"
  bottom: "conv2_1"
  top: "conv2_2"
  param {
    lr_mult: 1
    decay_mult: 1
  }
  param {
    lr_mult: 2
    decay_mult: 0
  }
  convolution_param {
    num_output: 128
    pad: 1
    kernel_size: 3
    weight_filler {
      type: "xavier"
    }
    bias_filler {
      type: "constant"
      value: 0
    }
  }
}
layer {
  name: "relu2_2"
  type: "ReLU"
  bottom: "conv2_2"
  top: "conv2_2"
}
layer {
  name: "pool2"
  type: "Pooling"
  bottom: "conv2_2"
  top: "pool2"
  pooling_param {
    pool: MAX
    kernel_size: 2
    stride: 2
  }
}
layer {
  name: "conv3_1"
  type: "Convolution"
  bottom: "pool2"
  top: "conv3_1"
  param {
    lr_mult: 1
    decay_mult: 1
  }
  param {
    lr_mult: 2
    decay_mult: 0
  }
  convolution_param {
    num_output: 256
    pad: 1
    kernel_size: 3
    weight_filler {
      type: "xavier"
    }
    bias_filler {
      type: "constant"
      value: 0
    }
  }
}
layer {
  name: "relu3_1"
  type: "ReLU"
  bottom: "conv3_1"
  top: "conv3_1"
}
layer {
  name: "conv3_2"
  type: "Convolution"
  bottom: "conv3_1"
  top: "conv3_2"
  param {
    lr_mult: 1
    decay_mult: 1
  }
  param {
    lr_mult: 2
    decay_mult: 0
  }
  convolution_param {
    num_output: 256
    pad: 1
    kernel_size: 3
    weight_filler {
      type: "xavier"
    }
    bias_filler {
      type: "constant"
      value: 0
    }
  }
}
layer {
  name: "relu3_2"
  type: "ReLU"
  bottom: "conv3_2"
  top: "conv3_2"
}
layer {
  name: "conv3_3"
  type: "Convolution"
  bottom: "conv3_2"
  top: "conv3_3"
  param {
    lr_mult: 1
    decay_mult: 1
  }
  param {
    lr_mult: 2
    decay_mult: 0
  }
  convolution_param {
    num_output: 256
    pad: 1
    kernel_size: 3
    weight_filler {
      type: "xavier"
    }
    bias_filler {
      type: "constant"
      value: 0
    }
  }
}
layer {
  name: "relu3_3"
  type: "ReLU"
  bottom: "conv3_3"
  top: "conv3_3"
}
layer {
  name: "pool3"
  type: "Pooling"
  bottom: "conv3_3"
  top: "pool3"
  pooling_param {
    pool: MAX
    kernel_size: 2
    stride: 2
  }
}
layer {
  name: "conv4_1"
  type: "Convolution"
  bottom: "pool3"
  top: "conv4_1"
  param {
    lr_mult: 1
    decay_mult: 1
  }
  param {
    lr_mult: 2
    decay_mult: 0
  }
  convolution_param {
    num_output: 512
    pad: 1
    kernel_size: 3
    weight_filler {
      type: "xavier"
    }
    bias_filler {
      type: "constant"
      value: 0
    }
  }
}
layer {
  name: "relu4_1"
  type: "ReLU"
  bottom: "conv4_1"
  top: "conv4_1"
}
layer {
  name: "conv4_2"
  type: "Convolution"
  bottom: "conv4_1"
  top: "conv4_2"
  param {
    lr_mult: 1
    decay_mult: 1
  }
  param {
    lr_mult: 2
    decay_mult: 0
  }
  convolution_param {
    num_output: 512
    pad: 1
    kernel_size: 3
    weight_filler {
      type: "xavier"
    }
    bias_filler {
      type: "constant"
      value: 0
    }
  }
}
layer {
  name: "relu4_2"
  type: "ReLU"
  bottom: "conv4_2"
  top: "conv4_2"
}
layer {
  name: "conv4_3"
  type: "Convolution"
  bottom: "conv4_2"
  top: "conv4_3"
  param {
    lr_mult: 1
    decay_mult: 1
  }
  param {
    lr_mult: 2
    decay_mult: 0
  }
  convolution_param {
    num_output: 512
    pad: 1
    kernel_size: 3
    weight_filler {
      type: "xavier"
    }
    bias_filler {
      type: "constant"
      value: 0
    }
  }
}
layer {
  name: "relu4_3"
  type: "ReLU"
  bottom: "conv4_3"
  top: "conv4_3"
}
layer {
  name: "pool4"
  type: "Pooling"
  bottom: "conv4_3"
  top: "pool4"
  pooling_param {
    pool: MAX
    kernel_size: 2
    stride: 2
  }
}
layer {
  name: "conv5_1"
  type: "Convolution"
  bottom: "pool4"
  top: "conv5_1"
  param {
    lr_mult: 1
    decay_mult: 1
  }
  param {
    lr_mult: 2
    decay_mult: 0
  }
  convolution_param {
    num_output: 512
    pad: 1
    kernel_size: 3
    weight_filler {
      type: "xavier"
    }
    bias_filler {
      type: "constant"
      value: 0
    }
    dilation: 1
  }
}
layer {
  name: "relu5_1"
  type: "ReLU"
  bottom: "conv5_1"
  top: "conv5_1"
}
layer {
  name: "conv5_2"
  type: "Convolution"
  bottom: "conv5_1"
  top: "conv5_2"
  param {
    lr_mult: 1
    decay_mult: 1
  }
  param {
    lr_mult: 2
    decay_mult: 0
  }
  convolution_param {
    num_output: 512
    pad: 1
    kernel_size: 3
    weight_filler {
      type: "xavier"
    }
    bias_filler {
      type: "constant"
      value: 0
    }
    dilation: 1
  }
}
layer {
  name: "relu5_2"
  type: "ReLU"
  bottom: "conv5_2"
  top: "conv5_2"
}
layer {
  name: "conv5_3"
  type: "Convolution"
  bottom: "conv5_2"
  top: "conv5_3"
  param {
    lr_mult: 1
    decay_mult: 1
  }
  param {
    lr_mult: 2
    decay_mult: 0
  }
  convolution_param {
    num_output: 512
    pad: 1
    kernel_size: 3
    weight_filler {
      type: "xavier"
    }
    bias_filler {
      type: "constant"
      value: 0
    }
    dilation: 1
  }
}
layer {
  name: "relu5_3"
  type: "ReLU"
  bottom: "conv5_3"
  top: "conv5_3"
}
layer {
  name: "pool5"
  type: "Pooling"
  bottom: "conv5_3"
  top: "pool5"
  pooling_param {
    pool: MAX
    kernel_size: 3
    stride: 1
    pad: 1
  }
}
layer {
  name: "fc6"
  type: "Convolution"
  bottom: "pool5"
  top: "fc6"
  param {
    lr_mult: 1
    decay_mult: 1
  }
  param {
    lr_mult: 2
    decay_mult: 0
  }
  convolution_param {
    num_output: 1024
    pad: 6
    kernel_size: 3
    weight_filler {
      type: "xavier"
    }
    bias_filler {
      type: "constant"
      value: 0
    }
    dilation: 6
  }
}
layer {
  name: "relu6"
  type: "ReLU"
  bottom: "fc6"
  top: "fc6"
}
layer {
  name: "fc7"
  type: "Convolution"
  bottom: "fc6"
  top: "fc7"
  param {
    lr_mult: 1
    decay_mult: 1
  }
  param {
    lr_mult: 2
    decay_mult: 0
  }
  convolution_param {
    num_output: 1024
    kernel_size: 1
    weight_filler {
      type: "xavier"
    }
    bias_filler {
      type: "constant"
      value: 0
    }
  }
}
layer {
  name: "relu7"
  type: "ReLU"
  bottom: "fc7"
  top: "fc7"
}
layer {
  name: "conv6_1"
  type: "Convolution"
  bottom: "fc7"
  top: "conv6_1"
  param {
    lr_mult: 1
    decay_mult: 1
  }
  param {
    lr_mult: 2
    decay_mult: 0
  }
  convolution_param {
    num_output: 256
    pad: 0
    kernel_size: 1
    stride: 1
    weight_filler {
      type: "xavier"
    }
    bias_filler {
      type: "constant"
      value: 0
    }
  }
}
layer {
  name: "conv6_1_relu"
  type: "ReLU"
  bottom: "conv6_1"
  top: "conv6_1"
}
layer {
  name: "conv6_2"
  type: "Convolution"
  bottom: "conv6_1"
  top: "conv6_2"
  param {
    lr_mult: 1
    decay_mult: 1
  }
  param {
    lr_mult: 2
    decay_mult: 0
  }
  convolution_param {
    num_output: 512
    pad: 1
    kernel_size: 3
    stride: 2
    weight_filler {
      type: "xavier"
    }
    bias_filler {
      type: "constant"
      value: 0
    }
  }
}
layer {
  name: "conv6_2_relu"
  type: "ReLU"
  bottom: "conv6_2"
  top: "conv6_2"
}
layer {
  name: "conv7_1"
  type: "Convolution"
  bottom: "conv6_2"
  top: "conv7_1"
  param {
    lr_mult: 1
    decay_mult: 1
  }
  param {
    lr_mult: 2
    decay_mult: 0
  }
  convolution_param {
    num_output: 128
    pad: 0
    kernel_size: 1
    stride: 1
    weight_filler {
      type: "xavier"
    }
    bias_filler {
      type: "constant"
      value: 0
    }
  }
}
layer {
  name: "conv7_1_relu"
  type: "ReLU"
  bottom: "conv7_1"
  top: "conv7_1"
}
layer {
  name: "conv7_2"
  type: "Convolution"
  bottom: "conv7_1"
  top: "conv7_2"
  param {
    lr_mult: 1
    decay_mult: 1
  }
  param {
    lr_mult: 2
    decay_mult: 0
  }
  convolution_param {
    num_output: 256
    pad: 1
    kernel_size: 3
    stride: 2
    weight_filler {
      type: "xavier"
    }
    bias_filler {
      type: "constant"
      value: 0
    }
  }
}
layer {
  name: "conv7_2_relu"
  type: "ReLU"
  bottom: "conv7_2"
  top: "conv7_2"
}
layer {
  name: "conv8_1"
  type: "Convolution"
  bottom: "conv7_2"
  top: "conv8_1"
  param {
    lr_mult: 1
    decay_mult: 1
  }
  param {
    lr_mult: 2
    decay_mult: 0
  }
  convolution_param {
    num_output: 128
    pad: 0
    kernel_size: 1
    stride: 1
    weight_filler {
      type: "xavier"
    }
    bias_filler {
      type: "constant"
      value: 0
    }
  }
}
layer {
  name: "conv8_1_relu"
  type: "ReLU"
  bottom: "conv8_1"
  top: "conv8_1"
}
layer {
  name: "conv8_2"
  type: "Convolution"
  bottom: "conv8_1"
  top: "conv8_2"
  param {
    lr_mult: 1
    decay_mult: 1
  }
  param {
    lr_mult: 2
    decay_mult: 0
  }
  convolution_param {
    num_output: 256
    pad: 0
    kernel_size: 3
    stride: 1
    weight_filler {
      type: "xavier"
    }
    bias_filler {
      type: "constant"
      value: 0
    }
  }
}
layer {
  name: "conv8_2_relu"
  type: "ReLU"
  bottom: "conv8_2"
  top: "conv8_2"
}
layer {
  name: "conv9_1"
  type: "Convolution"
  bottom: "conv8_2"
  top: "conv9_1"
  param {
    lr_mult: 1
    decay_mult: 1
  }
  param {
    lr_mult: 2
    decay_mult: 0
  }
  convolution_param {
    num_output: 128
    pad: 0
    kernel_size: 1
    stride: 1
    weight_filler {
      type: "xavier"
    }
    bias_filler {
      type: "constant"
      value: 0
    }
  }
}
layer {
  name: "conv9_1_relu"
  type: "ReLU"
  bottom: "conv9_1"
  top: "conv9_1"
}
layer {
  name: "conv9_2"
  type: "Convolution"
  bottom: "conv9_1"
  top: "conv9_2"
  param {
    lr_mult: 1
    decay_mult: 1
  }
  param {
    lr_mult: 2
    decay_mult: 0
  }
  convolution_param {
    num_output: 256
    pad: 0
    kernel_size: 3
    stride: 1
    weight_filler {
      type: "xavier"
    }
    bias_filler {
      type: "constant"
      value: 0
    }
  }
}
layer {
  name: "conv9_2_relu"
  type: "ReLU"
  bottom: "conv9_2"
  top: "conv9_2"
}
layer {
  name: "conv4_3_norm"
  type: "Normalize"
  bottom: "conv4_3"
  top: "conv4_3_norm"
  norm_param {
    across_spatial: false
    scale_filler {
      type: "constant"
      value: 20
    }
    channel_shared: false
  }
}
layer {
  name: "conv4_3_norm_mbox_loc"
  type: "Convolution"
  bottom: "conv4_3_norm"
  top: "conv4_3_norm_mbox_loc"
  param {
    lr_mult: 1
    decay_mult: 1
  }
  param {
    lr_mult: 2
    decay_mult: 0
  }
  convolution_param {
    num_output: 16
    pad: 1
    kernel_size: 3
    stride: 1
    weight_filler {
      type: "xavier"
    }
    bias_filler {
      type: "constant"
      value: 0
    }
  }
}
layer {
  name: "conv4_3_norm_mbox_loc_perm"
  type: "Permute"
  bottom: "conv4_3_norm_mbox_loc"
  top: "conv4_3_norm_mbox_loc_perm"
  permute_param {
    order: 0
    order: 2
    order: 3
    order: 1
  }
}
layer {
  name: "conv4_3_norm_mbox_loc_flat"
  type: "Flatten"
  bottom: "conv4_3_norm_mbox_loc_perm"
  top: "conv4_3_norm_mbox_loc_flat"
  flatten_param {
    axis: 1
  }
}
layer {
  name: "conv4_3_norm_mbox_conf"
  type: "Convolution"
  bottom: "conv4_3_norm"
  top: "conv4_3_norm_mbox_conf"
  param {
    lr_mult: 1
    decay_mult: 1
  }
  param {
    lr_mult: 2
    decay_mult: 0
  }
  convolution_param {
    num_output: 16
    pad: 1
    kernel_size: 3
    stride: 1
    weight_filler {
      type: "xavier"
    }
    bias_filler {
      type: "constant"
      value: 0
    }
  }
}
layer {
  name: "conv4_3_norm_mbox_conf_perm"
  type: "Permute"
  bottom: "conv4_3_norm_mbox_conf"
  top: "conv4_3_norm_mbox_conf_perm"
  permute_param {
    order: 0
    order: 2
    order: 3
    order: 1
  }
}
layer {
  name: "conv4_3_norm_mbox_conf_flat"
  type: "Flatten"
  bottom: "conv4_3_norm_mbox_conf_perm"
  top: "conv4_3_norm_mbox_conf_flat"
  flatten_param {
    axis: 1
  }
}
layer {
  name: "conv4_3_norm_mbox_priorbox"
  type: "PriorBox"
  bottom: "conv4_3_norm"
  bottom: "data"
  top: "conv4_3_norm_mbox_priorbox"
  prior_box_param {
    min_size: 30
    max_size: 60
    aspect_ratio: 2
    flip: true
    clip: false
    variance: 0.1
    variance: 0.1
    variance: 0.2
    variance: 0.2
    step: 8
    offset: 0.5
  }
}
layer {
  name: "fc7_mbox_loc"
  type: "Convolution"
  bottom: "fc7"
  top: "fc7_mbox_loc"
  param {
    lr_mult: 1
    decay_mult: 1
  }
  param {
    lr_mult: 2
    decay_mult: 0
  }
  convolution_param {
    num_output: 24
    pad: 1
    kernel_size: 3
    stride: 1
    weight_filler {
      type: "xavier"
    }
    bias_filler {
      type: "constant"
      value: 0
    }
  }
}
layer {
  name: "fc7_mbox_loc_perm"
  type: "Permute"
  bottom: "fc7_mbox_loc"
  top: "fc7_mbox_loc_perm"
  permute_param {
    order: 0
    order: 2
    order: 3
    order: 1
  }
}
layer {
  name: "fc7_mbox_loc_flat"
  type: "Flatten"
  bottom: "fc7_mbox_loc_perm"
  top: "fc7_mbox_loc_flat"
  flatten_param {
    axis: 1
  }
}
layer {
  name: "fc7_mbox_conf"
  type: "Convolution"
  bottom: "fc7"
  top: "fc7_mbox_conf"
  param {
    lr_mult: 1
    decay_mult: 1
  }
  param {
    lr_mult: 2
    decay_mult: 0
  }
  convolution_param {
    num_output: 24
    pad: 1
    kernel_size: 3
    stride: 1
    weight_filler {
      type: "xavier"
    }
    bias_filler {
      type: "constant"
      value: 0
    }
  }
}
layer {
  name: "fc7_mbox_conf_perm"
  type: "Permute"
  bottom: "fc7_mbox_conf"
  top: "fc7_mbox_conf_perm"
  permute_param {
    order: 0
    order: 2
    order: 3
    order: 1
  }
}
layer {
  name: "fc7_mbox_conf_flat"
  type: "Flatten"
  bottom: "fc7_mbox_conf_perm"
  top: "fc7_mbox_conf_flat"
  flatten_param {
    axis: 1
  }
}
layer {
  name: "fc7_mbox_priorbox"
  type: "PriorBox"
  bottom: "fc7"
  bottom: "data"
  top: "fc7_mbox_priorbox"
  prior_box_param {
    min_size: 60
    max_size: 111
    aspect_ratio: 2
    aspect_ratio: 3
    flip: true
    clip: false
    variance: 0.1
    variance: 0.1
    variance: 0.2
    variance: 0.2
    step: 16
    offset: 0.5
  }
}
layer {
  name: "conv6_2_mbox_loc"
  type: "Convolution"
  bottom: "conv6_2"
  top: "conv6_2_mbox_loc"
  param {
    lr_mult: 1
    decay_mult: 1
  }
  param {
    lr_mult: 2
    decay_mult: 0
  }
  convolution_param {
    num_output: 24
    pad: 1
    kernel_size: 3
    stride: 1
    weight_filler {
      type: "xavier"
    }
    bias_filler {
      type: "constant"
      value: 0
    }
  }
}
layer {
  name: "conv6_2_mbox_loc_perm"
  type: "Permute"
  bottom: "conv6_2_mbox_loc"
  top: "conv6_2_mbox_loc_perm"
  permute_param {
    order: 0
    order: 2
    order: 3
    order: 1
  }
}
layer {
  name: "conv6_2_mbox_loc_flat"
  type: "Flatten"
  bottom: "conv6_2_mbox_loc_perm"
  top: "conv6_2_mbox_loc_flat"
  flatten_param {
    axis: 1
  }
}
layer {
  name: "conv6_2_mbox_conf"
  type: "Convolution"
  bottom: "conv6_2"
  top: "conv6_2_mbox_conf"
  param {
    lr_mult: 1
    decay_mult: 1
  }
  param {
    lr_mult: 2
    decay_mult: 0
  }
  convolution_param {
    num_output: 24
    pad: 1
    kernel_size: 3
    stride: 1
    weight_filler {
      type: "xavier"
    }
    bias_filler {
      type: "constant"
      value: 0
    }
  }
}
layer {
  name: "conv6_2_mbox_conf_perm"
  type: "Permute"
  bottom: "conv6_2_mbox_conf"
  top: "conv6_2_mbox_conf_perm"
  permute_param {
    order: 0
    order: 2
    order: 3
    order: 1
  }
}
layer {
  name: "conv6_2_mbox_conf_flat"
  type: "Flatten"
  bottom: "conv6_2_mbox_conf_perm"
  top: "conv6_2_mbox_conf_flat"
  flatten_param {
    axis: 1
  }
}
layer {
  name: "conv6_2_mbox_priorbox"
  type: "PriorBox"
  bottom: "conv6_2"
  bottom: "data"
  top: "conv6_2_mbox_priorbox"
  prior_box_param {
    min_size: 111
    max_size: 162
    aspect_ratio: 2
    aspect_ratio: 3
    flip: true
    clip: false
    variance: 0.1
    variance: 0.1
    variance: 0.2
    variance: 0.2
    step: 32
    offset: 0.5
  }
}
layer {
  name: "conv7_2_mbox_loc"
  type: "Convolution"
  bottom: "conv7_2"
  top: "conv7_2_mbox_loc"
  param {
    lr_mult: 1
    decay_mult: 1
  }
  param {
    lr_mult: 2
    decay_mult: 0
  }
  convolution_param {
    num_output: 24
    pad: 1
    kernel_size: 3
    stride: 1
    weight_filler {
      type: "xavier"
    }
    bias_filler {
      type: "constant"
      value: 0
    }
  }
}
layer {
  name: "conv7_2_mbox_loc_perm"
  type: "Permute"
  bottom: "conv7_2_mbox_loc"
  top: "conv7_2_mbox_loc_perm"
  permute_param {
    order: 0
    order: 2
    order: 3
    order: 1
  }
}
layer {
  name: "conv7_2_mbox_loc_flat"
  type: "Flatten"
  bottom: "conv7_2_mbox_loc_perm"
  top: "conv7_2_mbox_loc_flat"
  flatten_param {
    axis: 1
  }
}
layer {
  name: "conv7_2_mbox_conf"
  type: "Convolution"
  bottom: "conv7_2"
  top: "conv7_2_mbox_conf"
  param {
    lr_mult: 1
    decay_mult: 1
  }
  param {
    lr_mult: 2
    decay_mult: 0
  }
  convolution_param {
    num_output: 24
    pad: 1
    kernel_size: 3
    stride: 1
    weight_filler {
      type: "xavier"
    }
    bias_filler {
      type: "constant"
      value: 0
    }
  }
}
layer {
  name: "conv7_2_mbox_conf_perm"
  type: "Permute"
  bottom: "conv7_2_mbox_conf"
  top: "conv7_2_mbox_conf_perm"
  permute_param {
    order: 0
    order: 2
    order: 3
    order: 1
  }
}
layer {
  name: "conv7_2_mbox_conf_flat"
  type: "Flatten"
  bottom: "conv7_2_mbox_conf_perm"
  top: "conv7_2_mbox_conf_flat"
  flatten_param {
    axis: 1
  }
}
layer {
  name: "conv7_2_mbox_priorbox"
  type: "PriorBox"
  bottom: "conv7_2"
  bottom: "data"
  top: "conv7_2_mbox_priorbox"
  prior_box_param {
    min_size: 162
    max_size: 213
    aspect_ratio: 2
    aspect_ratio: 3
    flip: true
    clip: false
    variance: 0.1
    variance: 0.1
    variance: 0.2
    variance: 0.2
    step: 64
    offset: 0.5
  }
}
layer {
  name: "conv8_2_mbox_loc"
  type: "Convolution"
  bottom: "conv8_2"
  top: "conv8_2_mbox_loc"
  param {
    lr_mult: 1
    decay_mult: 1
  }
  param {
    lr_mult: 2
    decay_mult: 0
  }
  convolution_param {
    num_output: 16
    pad: 1
    kernel_size: 3
    stride: 1
    weight_filler {
      type: "xavier"
    }
    bias_filler {
      type: "constant"
      value: 0
    }
  }
}
layer {
  name: "conv8_2_mbox_loc_perm"
  type: "Permute"
  bottom: "conv8_2_mbox_loc"
  top: "conv8_2_mbox_loc_perm"
  permute_param {
    order: 0
    order: 2
    order: 3
    order: 1
  }
}
layer {
  name: "conv8_2_mbox_loc_flat"
  type: "Flatten"
  bottom: "conv8_2_mbox_loc_perm"
  top: "conv8_2_mbox_loc_flat"
  flatten_param {
    axis: 1
  }
}
layer {
  name: "conv8_2_mbox_conf"
  type: "Convolution"
  bottom: "conv8_2"
  top: "conv8_2_mbox_conf"
  param {
    lr_mult: 1
    decay_mult: 1
  }
  param {
    lr_mult: 2
    decay_mult: 0
  }
  convolution_param {
    num_output: 16
    pad: 1
    kernel_size: 3
    stride: 1
    weight_filler {
      type: "xavier"
    }
    bias_filler {
      type: "constant"
      value: 0
    }
  }
}
layer {
  name: "conv8_2_mbox_conf_perm"
  type: "Permute"
  bottom: "conv8_2_mbox_conf"
  top: "conv8_2_mbox_conf_perm"
  permute_param {
    order: 0
    order: 2
    order: 3
    order: 1
  }
}
layer {
  name: "conv8_2_mbox_conf_flat"
  type: "Flatten"
  bottom: "conv8_2_mbox_conf_perm"
  top: "conv8_2_mbox_conf_flat"
  flatten_param {
    axis: 1
  }
}
layer {
  name: "conv8_2_mbox_priorbox"
  type: "PriorBox"
  bottom: "conv8_2"
  bottom: "data"
  top: "conv8_2_mbox_priorbox"
  prior_box_param {
    min_size: 213
    max_size: 264
    aspect_ratio: 2
    flip: true
    clip: false
    variance: 0.1
    variance: 0.1
    variance: 0.2
    variance: 0.2
    step: 100
    offset: 0.5
  }
}
layer {
  name: "conv9_2_mbox_loc"
  type: "Convolution"
  bottom: "conv9_2"
  top: "conv9_2_mbox_loc"
  param {
    lr_mult: 1
    decay_mult: 1
  }
  param {
    lr_mult: 2
    decay_mult: 0
  }
  convolution_param {
    num_output: 16
    pad: 1
    kernel_size: 3
    stride: 1
    weight_filler {
      type: "xavier"
    }
    bias_filler {
      type: "constant"
      value: 0
    }
  }
}
layer {
  name: "conv9_2_mbox_loc_perm"
  type: "Permute"
  bottom: "conv9_2_mbox_loc"
  top: "conv9_2_mbox_loc_perm"
  permute_param {
    order: 0
    order: 2
    order: 3
    order: 1
  }
}
layer {
  name: "conv9_2_mbox_loc_flat"
  type: "Flatten"
  bottom: "conv9_2_mbox_loc_perm"
  top: "conv9_2_mbox_loc_flat"
  flatten_param {
    axis: 1
  }
}
layer {
  name: "conv9_2_mbox_conf"
  type: "Convolution"
  bottom: "conv9_2"
  top: "conv9_2_mbox_conf"
  param {
    lr_mult: 1
    decay_mult: 1
  }
  param {
    lr_mult: 2
    decay_mult: 0
  }
  convolution_param {
    num_output: 16
    pad: 1
    kernel_size: 3
    stride: 1
    weight_filler {
      type: "xavier"
    }
    bias_filler {
      type: "constant"
      value: 0
    }
  }
}
layer {
  name: "conv9_2_mbox_conf_perm"
  type: "Permute"
  bottom: "conv9_2_mbox_conf"
  top: "conv9_2_mbox_conf_perm"
  permute_param {
    order: 0
    order: 2
    order: 3
    order: 1
  }
}
layer {
  name: "conv9_2_mbox_conf_flat"
  type: "Flatten"
  bottom: "conv9_2_mbox_conf_perm"
  top: "conv9_2_mbox_conf_flat"
  flatten_param {
    axis: 1
  }
}
layer {
  name: "conv9_2_mbox_priorbox"
  type: "PriorBox"
  bottom: "conv9_2"
  bottom: "data"
  top: "conv9_2_mbox_priorbox"
  prior_box_param {
    min_size: 264
    max_size: 315
    aspect_ratio: 2
    flip: true
    clip: false
    variance: 0.1
    variance: 0.1
    variance: 0.2
    variance: 0.2
    step: 300
    offset: 0.5
  }
}
layer {
  name: "mbox_loc"
  type: "Concat"
  bottom: "conv4_3_norm_mbox_loc_flat"
  bottom: "fc7_mbox_loc_flat"
  bottom: "conv6_2_mbox_loc_flat"
  bottom: "conv7_2_mbox_loc_flat"
  bottom: "conv8_2_mbox_loc_flat"
  bottom: "conv9_2_mbox_loc_flat"
  top: "mbox_loc"
  concat_param {
    axis: 1
  }
}
layer {
  name: "mbox_conf"
  type: "Concat"
  bottom: "conv4_3_norm_mbox_conf_flat"
  bottom: "fc7_mbox_conf_flat"
  bottom: "conv6_2_mbox_conf_flat"
  bottom: "conv7_2_mbox_conf_flat"
  bottom: "conv8_2_mbox_conf_flat"
  bottom: "conv9_2_mbox_conf_flat"
  top: "mbox_conf"
  concat_param {
    axis: 1
  }
}
layer {
  name: "mbox_priorbox"
  type: "Concat"
  bottom: "conv4_3_norm_mbox_priorbox"
  bottom: "fc7_mbox_priorbox"
  bottom: "conv6_2_mbox_priorbox"
  bottom: "conv7_2_mbox_priorbox"
  bottom: "conv8_2_mbox_priorbox"
  bottom: "conv9_2_mbox_priorbox"
  top: "mbox_priorbox"
  concat_param {
    axis: 2
  }
}
layer {
  name: "mbox_loss"
  type: "MultiBoxLoss"
  bottom: "mbox_loc"
  bottom: "mbox_conf"
  bottom: "mbox_priorbox"
  bottom: "label"
  top: "mbox_loss"
  include {
    phase: TRAIN
  }
  propagate_down: true
  propagate_down: true
  propagate_down: false
  propagate_down: false
  loss_param {
    normalization: VALID
  }
  multibox_loss_param {
    loc_loss_type: SMOOTH_L1
    conf_loss_type: SOFTMAX
    loc_weight: 1
    num_classes: 4
    share_location: true
    match_type: PER_PREDICTION
    overlap_threshold: 0.5
    use_prior_for_matching: true
    background_label_id: 0
    use_difficult_gt: true
    neg_pos_ratio: 3
    neg_overlap: 0.5
    code_type: CENTER_SIZE
    ignore_cross_boundary_bbox: false
    mining_type: MAX_NEGATIVE
  }
}
I0601 16:20:59.578429  3200 layer_factory.hpp:77] Creating layer data
I0601 16:20:59.579044  3200 net.cpp:100] Creating Layer data
I0601 16:20:59.579059  3200 net.cpp:408] data -> data
I0601 16:20:59.579092  3200 net.cpp:408] data -> label
I0601 16:20:59.579944  3217 db_lmdb.cpp:35] Opened lmdb examples/tbs_300x300_HSIL_10x/tbs_300x300_HSIL_10x_trainval_lmdb
I0601 16:20:59.609094  3200 annotated_data_layer.cpp:62] output data size: 35,3,300,300
I0601 16:20:59.673305  3200 net.cpp:150] Setting up data
I0601 16:20:59.673346  3200 net.cpp:157] Top shape: 35 3 300 300 (9450000)
I0601 16:20:59.673365  3200 net.cpp:157] Top shape: 1 1 1 8 (8)
I0601 16:20:59.673378  3200 net.cpp:165] Memory required for data: 37800032
I0601 16:20:59.673387  3200 layer_factory.hpp:77] Creating layer data_data_0_split
I0601 16:20:59.673399  3200 net.cpp:100] Creating Layer data_data_0_split
I0601 16:20:59.673405  3200 net.cpp:434] data_data_0_split <- data
I0601 16:20:59.673415  3200 net.cpp:408] data_data_0_split -> data_data_0_split_0
I0601 16:20:59.673425  3200 net.cpp:408] data_data_0_split -> data_data_0_split_1
I0601 16:20:59.673430  3200 net.cpp:408] data_data_0_split -> data_data_0_split_2
I0601 16:20:59.673436  3200 net.cpp:408] data_data_0_split -> data_data_0_split_3
I0601 16:20:59.673441  3200 net.cpp:408] data_data_0_split -> data_data_0_split_4
I0601 16:20:59.673446  3200 net.cpp:408] data_data_0_split -> data_data_0_split_5
I0601 16:20:59.673450  3200 net.cpp:408] data_data_0_split -> data_data_0_split_6
I0601 16:20:59.673523  3200 net.cpp:150] Setting up data_data_0_split
I0601 16:20:59.673529  3200 net.cpp:157] Top shape: 35 3 300 300 (9450000)
I0601 16:20:59.673532  3200 net.cpp:157] Top shape: 35 3 300 300 (9450000)
I0601 16:20:59.673535  3200 net.cpp:157] Top shape: 35 3 300 300 (9450000)
I0601 16:20:59.673538  3200 net.cpp:157] Top shape: 35 3 300 300 (9450000)
I0601 16:20:59.673542  3200 net.cpp:157] Top shape: 35 3 300 300 (9450000)
I0601 16:20:59.673543  3200 net.cpp:157] Top shape: 35 3 300 300 (9450000)
I0601 16:20:59.673547  3200 net.cpp:157] Top shape: 35 3 300 300 (9450000)
I0601 16:20:59.673548  3200 net.cpp:165] Memory required for data: 302400032
I0601 16:20:59.673552  3200 layer_factory.hpp:77] Creating layer conv1_1
I0601 16:20:59.673564  3200 net.cpp:100] Creating Layer conv1_1
I0601 16:20:59.673568  3200 net.cpp:434] conv1_1 <- data_data_0_split_0
I0601 16:20:59.673574  3200 net.cpp:408] conv1_1 -> conv1_1
I0601 16:21:00.031388  3200 net.cpp:150] Setting up conv1_1
I0601 16:21:00.031409  3200 net.cpp:157] Top shape: 35 64 300 300 (201600000)
I0601 16:21:00.031412  3200 net.cpp:165] Memory required for data: 1108800032
I0601 16:21:00.031428  3200 layer_factory.hpp:77] Creating layer relu1_1
I0601 16:21:00.031437  3200 net.cpp:100] Creating Layer relu1_1
I0601 16:21:00.031442  3200 net.cpp:434] relu1_1 <- conv1_1
I0601 16:21:00.031448  3200 net.cpp:395] relu1_1 -> conv1_1 (in-place)
I0601 16:21:00.031656  3200 net.cpp:150] Setting up relu1_1
I0601 16:21:00.031664  3200 net.cpp:157] Top shape: 35 64 300 300 (201600000)
I0601 16:21:00.031667  3200 net.cpp:165] Memory required for data: 1915200032
I0601 16:21:00.031672  3200 layer_factory.hpp:77] Creating layer conv1_2
I0601 16:21:00.031698  3200 net.cpp:100] Creating Layer conv1_2
I0601 16:21:00.031702  3200 net.cpp:434] conv1_2 <- conv1_1
I0601 16:21:00.031708  3200 net.cpp:408] conv1_2 -> conv1_2
I0601 16:21:00.034884  3200 net.cpp:150] Setting up conv1_2
I0601 16:21:00.034903  3200 net.cpp:157] Top shape: 35 64 300 300 (201600000)
I0601 16:21:00.034906  3200 net.cpp:165] Memory required for data: 2721600032
I0601 16:21:00.034930  3200 layer_factory.hpp:77] Creating layer relu1_2
I0601 16:21:00.034939  3200 net.cpp:100] Creating Layer relu1_2
I0601 16:21:00.034942  3200 net.cpp:434] relu1_2 <- conv1_2
I0601 16:21:00.034965  3200 net.cpp:395] relu1_2 -> conv1_2 (in-place)
I0601 16:21:00.035940  3200 net.cpp:150] Setting up relu1_2
I0601 16:21:00.035951  3200 net.cpp:157] Top shape: 35 64 300 300 (201600000)
I0601 16:21:00.035969  3200 net.cpp:165] Memory required for data: 3528000032
I0601 16:21:00.035972  3200 layer_factory.hpp:77] Creating layer pool1
I0601 16:21:00.035992  3200 net.cpp:100] Creating Layer pool1
I0601 16:21:00.035996  3200 net.cpp:434] pool1 <- conv1_2
I0601 16:21:00.036016  3200 net.cpp:408] pool1 -> pool1
I0601 16:21:00.036133  3200 net.cpp:150] Setting up pool1
I0601 16:21:00.036140  3200 net.cpp:157] Top shape: 35 64 150 150 (50400000)
I0601 16:21:00.036144  3200 net.cpp:165] Memory required for data: 3729600032
I0601 16:21:00.036147  3200 layer_factory.hpp:77] Creating layer conv2_1
I0601 16:21:00.036170  3200 net.cpp:100] Creating Layer conv2_1
I0601 16:21:00.036200  3200 net.cpp:434] conv2_1 <- pool1
I0601 16:21:00.036206  3200 net.cpp:408] conv2_1 -> conv2_1
I0601 16:21:00.037984  3200 net.cpp:150] Setting up conv2_1
I0601 16:21:00.037995  3200 net.cpp:157] Top shape: 35 128 150 150 (100800000)
I0601 16:21:00.037999  3200 net.cpp:165] Memory required for data: 4132800032
I0601 16:21:00.038022  3200 layer_factory.hpp:77] Creating layer relu2_1
I0601 16:21:00.038031  3200 net.cpp:100] Creating Layer relu2_1
I0601 16:21:00.038035  3200 net.cpp:434] relu2_1 <- conv2_1
I0601 16:21:00.038041  3200 net.cpp:395] relu2_1 -> conv2_1 (in-place)
I0601 16:21:00.038769  3200 net.cpp:150] Setting up relu2_1
I0601 16:21:00.038780  3200 net.cpp:157] Top shape: 35 128 150 150 (100800000)
I0601 16:21:00.038784  3200 net.cpp:165] Memory required for data: 4536000032
I0601 16:21:00.038789  3200 layer_factory.hpp:77] Creating layer conv2_2
I0601 16:21:00.038810  3200 net.cpp:100] Creating Layer conv2_2
I0601 16:21:00.038828  3200 net.cpp:434] conv2_2 <- conv2_1
I0601 16:21:00.038849  3200 net.cpp:408] conv2_2 -> conv2_2
I0601 16:21:00.041800  3200 net.cpp:150] Setting up conv2_2
I0601 16:21:00.041813  3200 net.cpp:157] Top shape: 35 128 150 150 (100800000)
I0601 16:21:00.041818  3200 net.cpp:165] Memory required for data: 4939200032
I0601 16:21:00.041826  3200 layer_factory.hpp:77] Creating layer relu2_2
I0601 16:21:00.041834  3200 net.cpp:100] Creating Layer relu2_2
I0601 16:21:00.041839  3200 net.cpp:434] relu2_2 <- conv2_2
I0601 16:21:00.041847  3200 net.cpp:395] relu2_2 -> conv2_2 (in-place)
I0601 16:21:00.042011  3200 net.cpp:150] Setting up relu2_2
I0601 16:21:00.042019  3200 net.cpp:157] Top shape: 35 128 150 150 (100800000)
I0601 16:21:00.042024  3200 net.cpp:165] Memory required for data: 5342400032
I0601 16:21:00.042028  3200 layer_factory.hpp:77] Creating layer pool2
I0601 16:21:00.042037  3200 net.cpp:100] Creating Layer pool2
I0601 16:21:00.042042  3200 net.cpp:434] pool2 <- conv2_2
I0601 16:21:00.042047  3200 net.cpp:408] pool2 -> pool2
I0601 16:21:00.042088  3200 net.cpp:150] Setting up pool2
I0601 16:21:00.042094  3200 net.cpp:157] Top shape: 35 128 75 75 (25200000)
I0601 16:21:00.042098  3200 net.cpp:165] Memory required for data: 5443200032
I0601 16:21:00.042101  3200 layer_factory.hpp:77] Creating layer conv3_1
I0601 16:21:00.042111  3200 net.cpp:100] Creating Layer conv3_1
I0601 16:21:00.042116  3200 net.cpp:434] conv3_1 <- pool2
I0601 16:21:00.042122  3200 net.cpp:408] conv3_1 -> conv3_1
I0601 16:21:00.048029  3200 net.cpp:150] Setting up conv3_1
I0601 16:21:00.048065  3200 net.cpp:157] Top shape: 35 256 75 75 (50400000)
I0601 16:21:00.048069  3200 net.cpp:165] Memory required for data: 5644800032
I0601 16:21:00.048097  3200 layer_factory.hpp:77] Creating layer relu3_1
I0601 16:21:00.048126  3200 net.cpp:100] Creating Layer relu3_1
I0601 16:21:00.048132  3200 net.cpp:434] relu3_1 <- conv3_1
I0601 16:21:00.048152  3200 net.cpp:395] relu3_1 -> conv3_1 (in-place)
I0601 16:21:00.048369  3200 net.cpp:150] Setting up relu3_1
I0601 16:21:00.048377  3200 net.cpp:157] Top shape: 35 256 75 75 (50400000)
I0601 16:21:00.048382  3200 net.cpp:165] Memory required for data: 5846400032
I0601 16:21:00.048385  3200 layer_factory.hpp:77] Creating layer conv3_2
I0601 16:21:00.048410  3200 net.cpp:100] Creating Layer conv3_2
I0601 16:21:00.048414  3200 net.cpp:434] conv3_2 <- conv3_1
I0601 16:21:00.048422  3200 net.cpp:408] conv3_2 -> conv3_2
I0601 16:21:00.056227  3200 net.cpp:150] Setting up conv3_2
I0601 16:21:00.056247  3200 net.cpp:157] Top shape: 35 256 75 75 (50400000)
I0601 16:21:00.056252  3200 net.cpp:165] Memory required for data: 6048000032
I0601 16:21:00.056262  3200 layer_factory.hpp:77] Creating layer relu3_2
I0601 16:21:00.056285  3200 net.cpp:100] Creating Layer relu3_2
I0601 16:21:00.056305  3200 net.cpp:434] relu3_2 <- conv3_2
I0601 16:21:00.056313  3200 net.cpp:395] relu3_2 -> conv3_2 (in-place)
I0601 16:21:00.056490  3200 net.cpp:150] Setting up relu3_2
I0601 16:21:00.056500  3200 net.cpp:157] Top shape: 35 256 75 75 (50400000)
I0601 16:21:00.056504  3200 net.cpp:165] Memory required for data: 6249600032
I0601 16:21:00.056537  3200 layer_factory.hpp:77] Creating layer conv3_3
I0601 16:21:00.056552  3200 net.cpp:100] Creating Layer conv3_3
I0601 16:21:00.056573  3200 net.cpp:434] conv3_3 <- conv3_2
I0601 16:21:00.056597  3200 net.cpp:408] conv3_3 -> conv3_3
I0601 16:21:00.063024  3200 net.cpp:150] Setting up conv3_3
I0601 16:21:00.063041  3200 net.cpp:157] Top shape: 35 256 75 75 (50400000)
I0601 16:21:00.063043  3200 net.cpp:165] Memory required for data: 6451200032
I0601 16:21:00.063066  3200 layer_factory.hpp:77] Creating layer relu3_3
I0601 16:21:00.063072  3200 net.cpp:100] Creating Layer relu3_3
I0601 16:21:00.063076  3200 net.cpp:434] relu3_3 <- conv3_3
I0601 16:21:00.063081  3200 net.cpp:395] relu3_3 -> conv3_3 (in-place)
I0601 16:21:00.063266  3200 net.cpp:150] Setting up relu3_3
I0601 16:21:00.063272  3200 net.cpp:157] Top shape: 35 256 75 75 (50400000)
I0601 16:21:00.063274  3200 net.cpp:165] Memory required for data: 6652800032
I0601 16:21:00.063277  3200 layer_factory.hpp:77] Creating layer pool3
I0601 16:21:00.063282  3200 net.cpp:100] Creating Layer pool3
I0601 16:21:00.063283  3200 net.cpp:434] pool3 <- conv3_3
I0601 16:21:00.063302  3200 net.cpp:408] pool3 -> pool3
I0601 16:21:00.063360  3200 net.cpp:150] Setting up pool3
I0601 16:21:00.063365  3200 net.cpp:157] Top shape: 35 256 38 38 (12938240)
I0601 16:21:00.063367  3200 net.cpp:165] Memory required for data: 6704552992
I0601 16:21:00.063369  3200 layer_factory.hpp:77] Creating layer conv4_1
I0601 16:21:00.063376  3200 net.cpp:100] Creating Layer conv4_1
I0601 16:21:00.063392  3200 net.cpp:434] conv4_1 <- pool3
I0601 16:21:00.063396  3200 net.cpp:408] conv4_1 -> conv4_1
I0601 16:21:00.071429  3200 net.cpp:150] Setting up conv4_1
I0601 16:21:00.071446  3200 net.cpp:157] Top shape: 35 512 38 38 (25876480)
I0601 16:21:00.071449  3200 net.cpp:165] Memory required for data: 6808058912
I0601 16:21:00.071455  3200 layer_factory.hpp:77] Creating layer relu4_1
I0601 16:21:00.071463  3200 net.cpp:100] Creating Layer relu4_1
I0601 16:21:00.071482  3200 net.cpp:434] relu4_1 <- conv4_1
I0601 16:21:00.071487  3200 net.cpp:395] relu4_1 -> conv4_1 (in-place)
I0601 16:21:00.072072  3200 net.cpp:150] Setting up relu4_1
I0601 16:21:00.072080  3200 net.cpp:157] Top shape: 35 512 38 38 (25876480)
I0601 16:21:00.072083  3200 net.cpp:165] Memory required for data: 6911564832
I0601 16:21:00.072087  3200 layer_factory.hpp:77] Creating layer conv4_2
I0601 16:21:00.072106  3200 net.cpp:100] Creating Layer conv4_2
I0601 16:21:00.072124  3200 net.cpp:434] conv4_2 <- conv4_1
I0601 16:21:00.072129  3200 net.cpp:408] conv4_2 -> conv4_2
I0601 16:21:00.084820  3200 net.cpp:150] Setting up conv4_2
I0601 16:21:00.084836  3200 net.cpp:157] Top shape: 35 512 38 38 (25876480)
I0601 16:21:00.084838  3200 net.cpp:165] Memory required for data: 7015070752
I0601 16:21:00.084863  3200 layer_factory.hpp:77] Creating layer relu4_2
I0601 16:21:00.084872  3200 net.cpp:100] Creating Layer relu4_2
I0601 16:21:00.084875  3200 net.cpp:434] relu4_2 <- conv4_2
I0601 16:21:00.084879  3200 net.cpp:395] relu4_2 -> conv4_2 (in-place)
I0601 16:21:00.085825  3200 net.cpp:150] Setting up relu4_2
I0601 16:21:00.085835  3200 net.cpp:157] Top shape: 35 512 38 38 (25876480)
I0601 16:21:00.085839  3200 net.cpp:165] Memory required for data: 7118576672
I0601 16:21:00.085840  3200 layer_factory.hpp:77] Creating layer conv4_3
I0601 16:21:00.085865  3200 net.cpp:100] Creating Layer conv4_3
I0601 16:21:00.085882  3200 net.cpp:434] conv4_3 <- conv4_2
I0601 16:21:00.085887  3200 net.cpp:408] conv4_3 -> conv4_3
I0601 16:21:00.098481  3200 net.cpp:150] Setting up conv4_3
I0601 16:21:00.098496  3200 net.cpp:157] Top shape: 35 512 38 38 (25876480)
I0601 16:21:00.098500  3200 net.cpp:165] Memory required for data: 7222082592
I0601 16:21:00.098520  3200 layer_factory.hpp:77] Creating layer relu4_3
I0601 16:21:00.098526  3200 net.cpp:100] Creating Layer relu4_3
I0601 16:21:00.098529  3200 net.cpp:434] relu4_3 <- conv4_3
I0601 16:21:00.098547  3200 net.cpp:395] relu4_3 -> conv4_3 (in-place)
I0601 16:21:00.098723  3200 net.cpp:150] Setting up relu4_3
I0601 16:21:00.098731  3200 net.cpp:157] Top shape: 35 512 38 38 (25876480)
I0601 16:21:00.098732  3200 net.cpp:165] Memory required for data: 7325588512
I0601 16:21:00.098736  3200 layer_factory.hpp:77] Creating layer conv4_3_relu4_3_0_split
I0601 16:21:00.098739  3200 net.cpp:100] Creating Layer conv4_3_relu4_3_0_split
I0601 16:21:00.098742  3200 net.cpp:434] conv4_3_relu4_3_0_split <- conv4_3
I0601 16:21:00.098762  3200 net.cpp:408] conv4_3_relu4_3_0_split -> conv4_3_relu4_3_0_split_0
I0601 16:21:00.098767  3200 net.cpp:408] conv4_3_relu4_3_0_split -> conv4_3_relu4_3_0_split_1
I0601 16:21:00.098824  3200 net.cpp:150] Setting up conv4_3_relu4_3_0_split
I0601 16:21:00.098845  3200 net.cpp:157] Top shape: 35 512 38 38 (25876480)
I0601 16:21:00.098860  3200 net.cpp:157] Top shape: 35 512 38 38 (25876480)
I0601 16:21:00.098863  3200 net.cpp:165] Memory required for data: 7532600352
I0601 16:21:00.098865  3200 layer_factory.hpp:77] Creating layer pool4
I0601 16:21:00.098886  3200 net.cpp:100] Creating Layer pool4
I0601 16:21:00.098887  3200 net.cpp:434] pool4 <- conv4_3_relu4_3_0_split_0
I0601 16:21:00.098892  3200 net.cpp:408] pool4 -> pool4
I0601 16:21:00.098918  3200 net.cpp:150] Setting up pool4
I0601 16:21:00.098938  3200 net.cpp:157] Top shape: 35 512 19 19 (6469120)
I0601 16:21:00.098940  3200 net.cpp:165] Memory required for data: 7558476832
I0601 16:21:00.098942  3200 layer_factory.hpp:77] Creating layer conv5_1
I0601 16:21:00.098949  3200 net.cpp:100] Creating Layer conv5_1
I0601 16:21:00.098951  3200 net.cpp:434] conv5_1 <- pool4
I0601 16:21:00.098955  3200 net.cpp:408] conv5_1 -> conv5_1
I0601 16:21:00.111965  3200 net.cpp:150] Setting up conv5_1
I0601 16:21:00.111981  3200 net.cpp:157] Top shape: 35 512 19 19 (6469120)
I0601 16:21:00.111984  3200 net.cpp:165] Memory required for data: 7584353312
I0601 16:21:00.111990  3200 layer_factory.hpp:77] Creating layer relu5_1
I0601 16:21:00.111997  3200 net.cpp:100] Creating Layer relu5_1
I0601 16:21:00.112001  3200 net.cpp:434] relu5_1 <- conv5_1
I0601 16:21:00.112005  3200 net.cpp:395] relu5_1 -> conv5_1 (in-place)
I0601 16:21:00.112161  3200 net.cpp:150] Setting up relu5_1
I0601 16:21:00.112169  3200 net.cpp:157] Top shape: 35 512 19 19 (6469120)
I0601 16:21:00.112171  3200 net.cpp:165] Memory required for data: 7610229792
I0601 16:21:00.112174  3200 layer_factory.hpp:77] Creating layer conv5_2
I0601 16:21:00.112180  3200 net.cpp:100] Creating Layer conv5_2
I0601 16:21:00.112184  3200 net.cpp:434] conv5_2 <- conv5_1
I0601 16:21:00.112205  3200 net.cpp:408] conv5_2 -> conv5_2
I0601 16:21:00.124699  3200 net.cpp:150] Setting up conv5_2
I0601 16:21:00.124716  3200 net.cpp:157] Top shape: 35 512 19 19 (6469120)
I0601 16:21:00.124718  3200 net.cpp:165] Memory required for data: 7636106272
I0601 16:21:00.124724  3200 layer_factory.hpp:77] Creating layer relu5_2
I0601 16:21:00.124730  3200 net.cpp:100] Creating Layer relu5_2
I0601 16:21:00.124749  3200 net.cpp:434] relu5_2 <- conv5_2
I0601 16:21:00.124754  3200 net.cpp:395] relu5_2 -> conv5_2 (in-place)
I0601 16:21:00.124917  3200 net.cpp:150] Setting up relu5_2
I0601 16:21:00.124923  3200 net.cpp:157] Top shape: 35 512 19 19 (6469120)
I0601 16:21:00.124925  3200 net.cpp:165] Memory required for data: 7661982752
I0601 16:21:00.124928  3200 layer_factory.hpp:77] Creating layer conv5_3
I0601 16:21:00.124938  3200 net.cpp:100] Creating Layer conv5_3
I0601 16:21:00.124941  3200 net.cpp:434] conv5_3 <- conv5_2
I0601 16:21:00.124948  3200 net.cpp:408] conv5_3 -> conv5_3
I0601 16:21:00.137974  3200 net.cpp:150] Setting up conv5_3
I0601 16:21:00.137989  3200 net.cpp:157] Top shape: 35 512 19 19 (6469120)
I0601 16:21:00.137992  3200 net.cpp:165] Memory required for data: 7687859232
I0601 16:21:00.137997  3200 layer_factory.hpp:77] Creating layer relu5_3
I0601 16:21:00.138023  3200 net.cpp:100] Creating Layer relu5_3
I0601 16:21:00.138027  3200 net.cpp:434] relu5_3 <- conv5_3
I0601 16:21:00.138032  3200 net.cpp:395] relu5_3 -> conv5_3 (in-place)
I0601 16:21:00.138222  3200 net.cpp:150] Setting up relu5_3
I0601 16:21:00.138236  3200 net.cpp:157] Top shape: 35 512 19 19 (6469120)
I0601 16:21:00.138239  3200 net.cpp:165] Memory required for data: 7713735712
I0601 16:21:00.138242  3200 layer_factory.hpp:77] Creating layer pool5
I0601 16:21:00.138247  3200 net.cpp:100] Creating Layer pool5
I0601 16:21:00.138264  3200 net.cpp:434] pool5 <- conv5_3
I0601 16:21:00.138269  3200 net.cpp:408] pool5 -> pool5
I0601 16:21:00.138345  3200 net.cpp:150] Setting up pool5
I0601 16:21:00.138350  3200 net.cpp:157] Top shape: 35 512 19 19 (6469120)
I0601 16:21:00.138352  3200 net.cpp:165] Memory required for data: 7739612192
I0601 16:21:00.138368  3200 layer_factory.hpp:77] Creating layer fc6
I0601 16:21:00.138391  3200 net.cpp:100] Creating Layer fc6
I0601 16:21:00.138393  3200 net.cpp:434] fc6 <- pool5
I0601 16:21:00.138398  3200 net.cpp:408] fc6 -> fc6
I0601 16:21:00.161445  3200 net.cpp:150] Setting up fc6
I0601 16:21:00.161465  3200 net.cpp:157] Top shape: 35 1024 19 19 (12938240)
I0601 16:21:00.161468  3200 net.cpp:165] Memory required for data: 7791365152
I0601 16:21:00.161473  3200 layer_factory.hpp:77] Creating layer relu6
I0601 16:21:00.161480  3200 net.cpp:100] Creating Layer relu6
I0601 16:21:00.161484  3200 net.cpp:434] relu6 <- fc6
I0601 16:21:00.161504  3200 net.cpp:395] relu6 -> fc6 (in-place)
I0601 16:21:00.162425  3200 net.cpp:150] Setting up relu6
I0601 16:21:00.162434  3200 net.cpp:157] Top shape: 35 1024 19 19 (12938240)
I0601 16:21:00.162436  3200 net.cpp:165] Memory required for data: 7843118112
I0601 16:21:00.162439  3200 layer_factory.hpp:77] Creating layer fc7
I0601 16:21:00.162463  3200 net.cpp:100] Creating Layer fc7
I0601 16:21:00.162482  3200 net.cpp:434] fc7 <- fc6
I0601 16:21:00.162487  3200 net.cpp:408] fc7 -> fc7
I0601 16:21:00.169059  3200 net.cpp:150] Setting up fc7
I0601 16:21:00.169075  3200 net.cpp:157] Top shape: 35 1024 19 19 (12938240)
I0601 16:21:00.169078  3200 net.cpp:165] Memory required for data: 7894871072
I0601 16:21:00.169100  3200 layer_factory.hpp:77] Creating layer relu7
I0601 16:21:00.169107  3200 net.cpp:100] Creating Layer relu7
I0601 16:21:00.169111  3200 net.cpp:434] relu7 <- fc7
I0601 16:21:00.169131  3200 net.cpp:395] relu7 -> fc7 (in-place)
I0601 16:21:00.169296  3200 net.cpp:150] Setting up relu7
I0601 16:21:00.169301  3200 net.cpp:157] Top shape: 35 1024 19 19 (12938240)
I0601 16:21:00.169303  3200 net.cpp:165] Memory required for data: 7946624032
I0601 16:21:00.169306  3200 layer_factory.hpp:77] Creating layer fc7_relu7_0_split
I0601 16:21:00.169311  3200 net.cpp:100] Creating Layer fc7_relu7_0_split
I0601 16:21:00.169313  3200 net.cpp:434] fc7_relu7_0_split <- fc7
I0601 16:21:00.169333  3200 net.cpp:408] fc7_relu7_0_split -> fc7_relu7_0_split_0
I0601 16:21:00.169339  3200 net.cpp:408] fc7_relu7_0_split -> fc7_relu7_0_split_1
I0601 16:21:00.169348  3200 net.cpp:408] fc7_relu7_0_split -> fc7_relu7_0_split_2
I0601 16:21:00.169353  3200 net.cpp:408] fc7_relu7_0_split -> fc7_relu7_0_split_3
I0601 16:21:00.169456  3200 net.cpp:150] Setting up fc7_relu7_0_split
I0601 16:21:00.169462  3200 net.cpp:157] Top shape: 35 1024 19 19 (12938240)
I0601 16:21:00.169466  3200 net.cpp:157] Top shape: 35 1024 19 19 (12938240)
I0601 16:21:00.169468  3200 net.cpp:157] Top shape: 35 1024 19 19 (12938240)
I0601 16:21:00.169471  3200 net.cpp:157] Top shape: 35 1024 19 19 (12938240)
I0601 16:21:00.169473  3200 net.cpp:165] Memory required for data: 8153635872
I0601 16:21:00.169476  3200 layer_factory.hpp:77] Creating layer conv6_1
I0601 16:21:00.169482  3200 net.cpp:100] Creating Layer conv6_1
I0601 16:21:00.169484  3200 net.cpp:434] conv6_1 <- fc7_relu7_0_split_0
I0601 16:21:00.169489  3200 net.cpp:408] conv6_1 -> conv6_1
I0601 16:21:00.173143  3200 net.cpp:150] Setting up conv6_1
I0601 16:21:00.173156  3200 net.cpp:157] Top shape: 35 256 19 19 (3234560)
I0601 16:21:00.173157  3200 net.cpp:165] Memory required for data: 8166574112
I0601 16:21:00.173163  3200 layer_factory.hpp:77] Creating layer conv6_1_relu
I0601 16:21:00.173182  3200 net.cpp:100] Creating Layer conv6_1_relu
I0601 16:21:00.173197  3200 net.cpp:434] conv6_1_relu <- conv6_1
I0601 16:21:00.173202  3200 net.cpp:395] conv6_1_relu -> conv6_1 (in-place)
I0601 16:21:00.173357  3200 net.cpp:150] Setting up conv6_1_relu
I0601 16:21:00.173364  3200 net.cpp:157] Top shape: 35 256 19 19 (3234560)
I0601 16:21:00.173367  3200 net.cpp:165] Memory required for data: 8179512352
I0601 16:21:00.173368  3200 layer_factory.hpp:77] Creating layer conv6_2
I0601 16:21:00.173375  3200 net.cpp:100] Creating Layer conv6_2
I0601 16:21:00.173393  3200 net.cpp:434] conv6_2 <- conv6_1
I0601 16:21:00.173398  3200 net.cpp:408] conv6_2 -> conv6_2
I0601 16:21:00.180686  3200 net.cpp:150] Setting up conv6_2
I0601 16:21:00.180703  3200 net.cpp:157] Top shape: 35 512 10 10 (1792000)
I0601 16:21:00.180706  3200 net.cpp:165] Memory required for data: 8186680352
I0601 16:21:00.180729  3200 layer_factory.hpp:77] Creating layer conv6_2_relu
I0601 16:21:00.180735  3200 net.cpp:100] Creating Layer conv6_2_relu
I0601 16:21:00.180754  3200 net.cpp:434] conv6_2_relu <- conv6_2
I0601 16:21:00.180759  3200 net.cpp:395] conv6_2_relu -> conv6_2 (in-place)
I0601 16:21:00.180935  3200 net.cpp:150] Setting up conv6_2_relu
I0601 16:21:00.180943  3200 net.cpp:157] Top shape: 35 512 10 10 (1792000)
I0601 16:21:00.180944  3200 net.cpp:165] Memory required for data: 8193848352
I0601 16:21:00.180946  3200 layer_factory.hpp:77] Creating layer conv6_2_conv6_2_relu_0_split
I0601 16:21:00.180951  3200 net.cpp:100] Creating Layer conv6_2_conv6_2_relu_0_split
I0601 16:21:00.180953  3200 net.cpp:434] conv6_2_conv6_2_relu_0_split <- conv6_2
I0601 16:21:00.180958  3200 net.cpp:408] conv6_2_conv6_2_relu_0_split -> conv6_2_conv6_2_relu_0_split_0
I0601 16:21:00.180979  3200 net.cpp:408] conv6_2_conv6_2_relu_0_split -> conv6_2_conv6_2_relu_0_split_1
I0601 16:21:00.180984  3200 net.cpp:408] conv6_2_conv6_2_relu_0_split -> conv6_2_conv6_2_relu_0_split_2
I0601 16:21:00.180987  3200 net.cpp:408] conv6_2_conv6_2_relu_0_split -> conv6_2_conv6_2_relu_0_split_3
I0601 16:21:00.181095  3200 net.cpp:150] Setting up conv6_2_conv6_2_relu_0_split
I0601 16:21:00.181113  3200 net.cpp:157] Top shape: 35 512 10 10 (1792000)
I0601 16:21:00.181116  3200 net.cpp:157] Top shape: 35 512 10 10 (1792000)
I0601 16:21:00.181118  3200 net.cpp:157] Top shape: 35 512 10 10 (1792000)
I0601 16:21:00.181121  3200 net.cpp:157] Top shape: 35 512 10 10 (1792000)
I0601 16:21:00.181123  3200 net.cpp:165] Memory required for data: 8222520352
I0601 16:21:00.181125  3200 layer_factory.hpp:77] Creating layer conv7_1
I0601 16:21:00.181149  3200 net.cpp:100] Creating Layer conv7_1
I0601 16:21:00.181151  3200 net.cpp:434] conv7_1 <- conv6_2_conv6_2_relu_0_split_0
I0601 16:21:00.181155  3200 net.cpp:408] conv7_1 -> conv7_1
I0601 16:21:00.182639  3200 net.cpp:150] Setting up conv7_1
I0601 16:21:00.182651  3200 net.cpp:157] Top shape: 35 128 10 10 (448000)
I0601 16:21:00.182653  3200 net.cpp:165] Memory required for data: 8224312352
I0601 16:21:00.182658  3200 layer_factory.hpp:77] Creating layer conv7_1_relu
I0601 16:21:00.182662  3200 net.cpp:100] Creating Layer conv7_1_relu
I0601 16:21:00.182665  3200 net.cpp:434] conv7_1_relu <- conv7_1
I0601 16:21:00.182672  3200 net.cpp:395] conv7_1_relu -> conv7_1 (in-place)
I0601 16:21:00.182806  3200 net.cpp:150] Setting up conv7_1_relu
I0601 16:21:00.182811  3200 net.cpp:157] Top shape: 35 128 10 10 (448000)
I0601 16:21:00.182814  3200 net.cpp:165] Memory required for data: 8226104352
I0601 16:21:00.182817  3200 layer_factory.hpp:77] Creating layer conv7_2
I0601 16:21:00.182823  3200 net.cpp:100] Creating Layer conv7_2
I0601 16:21:00.182826  3200 net.cpp:434] conv7_2 <- conv7_1
I0601 16:21:00.182832  3200 net.cpp:408] conv7_2 -> conv7_2
I0601 16:21:00.185803  3200 net.cpp:150] Setting up conv7_2
I0601 16:21:00.185818  3200 net.cpp:157] Top shape: 35 256 5 5 (224000)
I0601 16:21:00.185822  3200 net.cpp:165] Memory required for data: 8227000352
I0601 16:21:00.185827  3200 layer_factory.hpp:77] Creating layer conv7_2_relu
I0601 16:21:00.185834  3200 net.cpp:100] Creating Layer conv7_2_relu
I0601 16:21:00.185853  3200 net.cpp:434] conv7_2_relu <- conv7_2
I0601 16:21:00.185868  3200 net.cpp:395] conv7_2_relu -> conv7_2 (in-place)
I0601 16:21:00.186007  3200 net.cpp:150] Setting up conv7_2_relu
I0601 16:21:00.186014  3200 net.cpp:157] Top shape: 35 256 5 5 (224000)
I0601 16:21:00.186017  3200 net.cpp:165] Memory required for data: 8227896352
I0601 16:21:00.186019  3200 layer_factory.hpp:77] Creating layer conv7_2_conv7_2_relu_0_split
I0601 16:21:00.186024  3200 net.cpp:100] Creating Layer conv7_2_conv7_2_relu_0_split
I0601 16:21:00.186028  3200 net.cpp:434] conv7_2_conv7_2_relu_0_split <- conv7_2
I0601 16:21:00.186033  3200 net.cpp:408] conv7_2_conv7_2_relu_0_split -> conv7_2_conv7_2_relu_0_split_0
I0601 16:21:00.186038  3200 net.cpp:408] conv7_2_conv7_2_relu_0_split -> conv7_2_conv7_2_relu_0_split_1
I0601 16:21:00.186043  3200 net.cpp:408] conv7_2_conv7_2_relu_0_split -> conv7_2_conv7_2_relu_0_split_2
I0601 16:21:00.186049  3200 net.cpp:408] conv7_2_conv7_2_relu_0_split -> conv7_2_conv7_2_relu_0_split_3
I0601 16:21:00.186100  3200 net.cpp:150] Setting up conv7_2_conv7_2_relu_0_split
I0601 16:21:00.186105  3200 net.cpp:157] Top shape: 35 256 5 5 (224000)
I0601 16:21:00.186108  3200 net.cpp:157] Top shape: 35 256 5 5 (224000)
I0601 16:21:00.186111  3200 net.cpp:157] Top shape: 35 256 5 5 (224000)
I0601 16:21:00.186115  3200 net.cpp:157] Top shape: 35 256 5 5 (224000)
I0601 16:21:00.186116  3200 net.cpp:165] Memory required for data: 8231480352
I0601 16:21:00.186118  3200 layer_factory.hpp:77] Creating layer conv8_1
I0601 16:21:00.186126  3200 net.cpp:100] Creating Layer conv8_1
I0601 16:21:00.186130  3200 net.cpp:434] conv8_1 <- conv7_2_conv7_2_relu_0_split_0
I0601 16:21:00.186136  3200 net.cpp:408] conv8_1 -> conv8_1
I0601 16:21:00.187724  3200 net.cpp:150] Setting up conv8_1
I0601 16:21:00.187737  3200 net.cpp:157] Top shape: 35 128 5 5 (112000)
I0601 16:21:00.187739  3200 net.cpp:165] Memory required for data: 8231928352
I0601 16:21:00.187746  3200 layer_factory.hpp:77] Creating layer conv8_1_relu
I0601 16:21:00.187749  3200 net.cpp:100] Creating Layer conv8_1_relu
I0601 16:21:00.187753  3200 net.cpp:434] conv8_1_relu <- conv8_1
I0601 16:21:00.187759  3200 net.cpp:395] conv8_1_relu -> conv8_1 (in-place)
I0601 16:21:00.188349  3200 net.cpp:150] Setting up conv8_1_relu
I0601 16:21:00.188359  3200 net.cpp:157] Top shape: 35 128 5 5 (112000)
I0601 16:21:00.188364  3200 net.cpp:165] Memory required for data: 8232376352
I0601 16:21:00.188366  3200 layer_factory.hpp:77] Creating layer conv8_2
I0601 16:21:00.188374  3200 net.cpp:100] Creating Layer conv8_2
I0601 16:21:00.188379  3200 net.cpp:434] conv8_2 <- conv8_1
I0601 16:21:00.188383  3200 net.cpp:408] conv8_2 -> conv8_2
I0601 16:21:00.191511  3200 net.cpp:150] Setting up conv8_2
I0601 16:21:00.191529  3200 net.cpp:157] Top shape: 35 256 3 3 (80640)
I0601 16:21:00.191531  3200 net.cpp:165] Memory required for data: 8232698912
I0601 16:21:00.191540  3200 layer_factory.hpp:77] Creating layer conv8_2_relu
I0601 16:21:00.191546  3200 net.cpp:100] Creating Layer conv8_2_relu
I0601 16:21:00.191551  3200 net.cpp:434] conv8_2_relu <- conv8_2
I0601 16:21:00.191557  3200 net.cpp:395] conv8_2_relu -> conv8_2 (in-place)
I0601 16:21:00.191701  3200 net.cpp:150] Setting up conv8_2_relu
I0601 16:21:00.191709  3200 net.cpp:157] Top shape: 35 256 3 3 (80640)
I0601 16:21:00.191711  3200 net.cpp:165] Memory required for data: 8233021472
I0601 16:21:00.191714  3200 layer_factory.hpp:77] Creating layer conv8_2_conv8_2_relu_0_split
I0601 16:21:00.191732  3200 net.cpp:100] Creating Layer conv8_2_conv8_2_relu_0_split
I0601 16:21:00.191735  3200 net.cpp:434] conv8_2_conv8_2_relu_0_split <- conv8_2
I0601 16:21:00.191740  3200 net.cpp:408] conv8_2_conv8_2_relu_0_split -> conv8_2_conv8_2_relu_0_split_0
I0601 16:21:00.191746  3200 net.cpp:408] conv8_2_conv8_2_relu_0_split -> conv8_2_conv8_2_relu_0_split_1
I0601 16:21:00.191752  3200 net.cpp:408] conv8_2_conv8_2_relu_0_split -> conv8_2_conv8_2_relu_0_split_2
I0601 16:21:00.191757  3200 net.cpp:408] conv8_2_conv8_2_relu_0_split -> conv8_2_conv8_2_relu_0_split_3
I0601 16:21:00.191821  3200 net.cpp:150] Setting up conv8_2_conv8_2_relu_0_split
I0601 16:21:00.191828  3200 net.cpp:157] Top shape: 35 256 3 3 (80640)
I0601 16:21:00.191831  3200 net.cpp:157] Top shape: 35 256 3 3 (80640)
I0601 16:21:00.191834  3200 net.cpp:157] Top shape: 35 256 3 3 (80640)
I0601 16:21:00.191836  3200 net.cpp:157] Top shape: 35 256 3 3 (80640)
I0601 16:21:00.191838  3200 net.cpp:165] Memory required for data: 8234311712
I0601 16:21:00.191841  3200 layer_factory.hpp:77] Creating layer conv9_1
I0601 16:21:00.191848  3200 net.cpp:100] Creating Layer conv9_1
I0601 16:21:00.191853  3200 net.cpp:434] conv9_1 <- conv8_2_conv8_2_relu_0_split_0
I0601 16:21:00.191857  3200 net.cpp:408] conv9_1 -> conv9_1
I0601 16:21:00.193030  3200 net.cpp:150] Setting up conv9_1
I0601 16:21:00.193040  3200 net.cpp:157] Top shape: 35 128 3 3 (40320)
I0601 16:21:00.193043  3200 net.cpp:165] Memory required for data: 8234472992
I0601 16:21:00.193048  3200 layer_factory.hpp:77] Creating layer conv9_1_relu
I0601 16:21:00.193053  3200 net.cpp:100] Creating Layer conv9_1_relu
I0601 16:21:00.193058  3200 net.cpp:434] conv9_1_relu <- conv9_1
I0601 16:21:00.193060  3200 net.cpp:395] conv9_1_relu -> conv9_1 (in-place)
I0601 16:21:00.193183  3200 net.cpp:150] Setting up conv9_1_relu
I0601 16:21:00.193191  3200 net.cpp:157] Top shape: 35 128 3 3 (40320)
I0601 16:21:00.193193  3200 net.cpp:165] Memory required for data: 8234634272
I0601 16:21:00.193195  3200 layer_factory.hpp:77] Creating layer conv9_2
I0601 16:21:00.193202  3200 net.cpp:100] Creating Layer conv9_2
I0601 16:21:00.193207  3200 net.cpp:434] conv9_2 <- conv9_1
I0601 16:21:00.193210  3200 net.cpp:408] conv9_2 -> conv9_2
I0601 16:21:00.196071  3200 net.cpp:150] Setting up conv9_2
I0601 16:21:00.196096  3200 net.cpp:157] Top shape: 35 256 1 1 (8960)
I0601 16:21:00.196099  3200 net.cpp:165] Memory required for data: 8234670112
I0601 16:21:00.196105  3200 layer_factory.hpp:77] Creating layer conv9_2_relu
I0601 16:21:00.196125  3200 net.cpp:100] Creating Layer conv9_2_relu
I0601 16:21:00.196127  3200 net.cpp:434] conv9_2_relu <- conv9_2
I0601 16:21:00.196131  3200 net.cpp:395] conv9_2_relu -> conv9_2 (in-place)
I0601 16:21:00.196285  3200 net.cpp:150] Setting up conv9_2_relu
I0601 16:21:00.196291  3200 net.cpp:157] Top shape: 35 256 1 1 (8960)
I0601 16:21:00.196293  3200 net.cpp:165] Memory required for data: 8234705952
I0601 16:21:00.196295  3200 layer_factory.hpp:77] Creating layer conv9_2_conv9_2_relu_0_split
I0601 16:21:00.196300  3200 net.cpp:100] Creating Layer conv9_2_conv9_2_relu_0_split
I0601 16:21:00.196302  3200 net.cpp:434] conv9_2_conv9_2_relu_0_split <- conv9_2
I0601 16:21:00.196307  3200 net.cpp:408] conv9_2_conv9_2_relu_0_split -> conv9_2_conv9_2_relu_0_split_0
I0601 16:21:00.196313  3200 net.cpp:408] conv9_2_conv9_2_relu_0_split -> conv9_2_conv9_2_relu_0_split_1
I0601 16:21:00.196319  3200 net.cpp:408] conv9_2_conv9_2_relu_0_split -> conv9_2_conv9_2_relu_0_split_2
I0601 16:21:00.196377  3200 net.cpp:150] Setting up conv9_2_conv9_2_relu_0_split
I0601 16:21:00.196382  3200 net.cpp:157] Top shape: 35 256 1 1 (8960)
I0601 16:21:00.196384  3200 net.cpp:157] Top shape: 35 256 1 1 (8960)
I0601 16:21:00.196388  3200 net.cpp:157] Top shape: 35 256 1 1 (8960)
I0601 16:21:00.196389  3200 net.cpp:165] Memory required for data: 8234813472
I0601 16:21:00.196391  3200 layer_factory.hpp:77] Creating layer conv4_3_norm
I0601 16:21:00.196396  3200 net.cpp:100] Creating Layer conv4_3_norm
I0601 16:21:00.196399  3200 net.cpp:434] conv4_3_norm <- conv4_3_relu4_3_0_split_1
I0601 16:21:00.196403  3200 net.cpp:408] conv4_3_norm -> conv4_3_norm
I0601 16:21:00.196526  3200 net.cpp:150] Setting up conv4_3_norm
I0601 16:21:00.196532  3200 net.cpp:157] Top shape: 35 512 38 38 (25876480)
I0601 16:21:00.196534  3200 net.cpp:165] Memory required for data: 8338319392
I0601 16:21:00.196537  3200 layer_factory.hpp:77] Creating layer conv4_3_norm_conv4_3_norm_0_split
I0601 16:21:00.196542  3200 net.cpp:100] Creating Layer conv4_3_norm_conv4_3_norm_0_split
I0601 16:21:00.196544  3200 net.cpp:434] conv4_3_norm_conv4_3_norm_0_split <- conv4_3_norm
I0601 16:21:00.196558  3200 net.cpp:408] conv4_3_norm_conv4_3_norm_0_split -> conv4_3_norm_conv4_3_norm_0_split_0
I0601 16:21:00.196563  3200 net.cpp:408] conv4_3_norm_conv4_3_norm_0_split -> conv4_3_norm_conv4_3_norm_0_split_1
I0601 16:21:00.196568  3200 net.cpp:408] conv4_3_norm_conv4_3_norm_0_split -> conv4_3_norm_conv4_3_norm_0_split_2
I0601 16:21:00.196604  3200 net.cpp:150] Setting up conv4_3_norm_conv4_3_norm_0_split
I0601 16:21:00.196609  3200 net.cpp:157] Top shape: 35 512 38 38 (25876480)
I0601 16:21:00.196611  3200 net.cpp:157] Top shape: 35 512 38 38 (25876480)
I0601 16:21:00.196614  3200 net.cpp:157] Top shape: 35 512 38 38 (25876480)
I0601 16:21:00.196615  3200 net.cpp:165] Memory required for data: 8648837152
I0601 16:21:00.196619  3200 layer_factory.hpp:77] Creating layer conv4_3_norm_mbox_loc
I0601 16:21:00.196625  3200 net.cpp:100] Creating Layer conv4_3_norm_mbox_loc
I0601 16:21:00.196629  3200 net.cpp:434] conv4_3_norm_mbox_loc <- conv4_3_norm_conv4_3_norm_0_split_0
I0601 16:21:00.196633  3200 net.cpp:408] conv4_3_norm_mbox_loc -> conv4_3_norm_mbox_loc
I0601 16:21:00.198442  3200 net.cpp:150] Setting up conv4_3_norm_mbox_loc
I0601 16:21:00.198452  3200 net.cpp:157] Top shape: 35 16 38 38 (808640)
I0601 16:21:00.198454  3200 net.cpp:165] Memory required for data: 8652071712
I0601 16:21:00.198459  3200 layer_factory.hpp:77] Creating layer conv4_3_norm_mbox_loc_perm
I0601 16:21:00.198467  3200 net.cpp:100] Creating Layer conv4_3_norm_mbox_loc_perm
I0601 16:21:00.198472  3200 net.cpp:434] conv4_3_norm_mbox_loc_perm <- conv4_3_norm_mbox_loc
I0601 16:21:00.198477  3200 net.cpp:408] conv4_3_norm_mbox_loc_perm -> conv4_3_norm_mbox_loc_perm
I0601 16:21:00.198565  3200 net.cpp:150] Setting up conv4_3_norm_mbox_loc_perm
I0601 16:21:00.198570  3200 net.cpp:157] Top shape: 35 38 38 16 (808640)
I0601 16:21:00.198572  3200 net.cpp:165] Memory required for data: 8655306272
I0601 16:21:00.198575  3200 layer_factory.hpp:77] Creating layer conv4_3_norm_mbox_loc_flat
I0601 16:21:00.198578  3200 net.cpp:100] Creating Layer conv4_3_norm_mbox_loc_flat
I0601 16:21:00.198581  3200 net.cpp:434] conv4_3_norm_mbox_loc_flat <- conv4_3_norm_mbox_loc_perm
I0601 16:21:00.198585  3200 net.cpp:408] conv4_3_norm_mbox_loc_flat -> conv4_3_norm_mbox_loc_flat
I0601 16:21:00.198613  3200 net.cpp:150] Setting up conv4_3_norm_mbox_loc_flat
I0601 16:21:00.198619  3200 net.cpp:157] Top shape: 35 23104 (808640)
I0601 16:21:00.198622  3200 net.cpp:165] Memory required for data: 8658540832
I0601 16:21:00.198624  3200 layer_factory.hpp:77] Creating layer conv4_3_norm_mbox_conf
I0601 16:21:00.198637  3200 net.cpp:100] Creating Layer conv4_3_norm_mbox_conf
I0601 16:21:00.198639  3200 net.cpp:434] conv4_3_norm_mbox_conf <- conv4_3_norm_conv4_3_norm_0_split_1
I0601 16:21:00.198644  3200 net.cpp:408] conv4_3_norm_mbox_conf -> conv4_3_norm_mbox_conf
I0601 16:21:00.200392  3200 net.cpp:150] Setting up conv4_3_norm_mbox_conf
I0601 16:21:00.200402  3200 net.cpp:157] Top shape: 35 16 38 38 (808640)
I0601 16:21:00.200404  3200 net.cpp:165] Memory required for data: 8661775392
I0601 16:21:00.200410  3200 layer_factory.hpp:77] Creating layer conv4_3_norm_mbox_conf_perm
I0601 16:21:00.200414  3200 net.cpp:100] Creating Layer conv4_3_norm_mbox_conf_perm
I0601 16:21:00.200418  3200 net.cpp:434] conv4_3_norm_mbox_conf_perm <- conv4_3_norm_mbox_conf
I0601 16:21:00.200423  3200 net.cpp:408] conv4_3_norm_mbox_conf_perm -> conv4_3_norm_mbox_conf_perm
I0601 16:21:00.200505  3200 net.cpp:150] Setting up conv4_3_norm_mbox_conf_perm
I0601 16:21:00.200510  3200 net.cpp:157] Top shape: 35 38 38 16 (808640)
I0601 16:21:00.200511  3200 net.cpp:165] Memory required for data: 8665009952
I0601 16:21:00.200513  3200 layer_factory.hpp:77] Creating layer conv4_3_norm_mbox_conf_flat
I0601 16:21:00.200518  3200 net.cpp:100] Creating Layer conv4_3_norm_mbox_conf_flat
I0601 16:21:00.200520  3200 net.cpp:434] conv4_3_norm_mbox_conf_flat <- conv4_3_norm_mbox_conf_perm
I0601 16:21:00.200525  3200 net.cpp:408] conv4_3_norm_mbox_conf_flat -> conv4_3_norm_mbox_conf_flat
I0601 16:21:00.200552  3200 net.cpp:150] Setting up conv4_3_norm_mbox_conf_flat
I0601 16:21:00.200557  3200 net.cpp:157] Top shape: 35 23104 (808640)
I0601 16:21:00.200559  3200 net.cpp:165] Memory required for data: 8668244512
I0601 16:21:00.200562  3200 layer_factory.hpp:77] Creating layer conv4_3_norm_mbox_priorbox
I0601 16:21:00.200567  3200 net.cpp:100] Creating Layer conv4_3_norm_mbox_priorbox
I0601 16:21:00.200572  3200 net.cpp:434] conv4_3_norm_mbox_priorbox <- conv4_3_norm_conv4_3_norm_0_split_2
I0601 16:21:00.200575  3200 net.cpp:434] conv4_3_norm_mbox_priorbox <- data_data_0_split_1
I0601 16:21:00.200579  3200 net.cpp:408] conv4_3_norm_mbox_priorbox -> conv4_3_norm_mbox_priorbox
I0601 16:21:00.200603  3200 net.cpp:150] Setting up conv4_3_norm_mbox_priorbox
I0601 16:21:00.200608  3200 net.cpp:157] Top shape: 1 2 23104 (46208)
I0601 16:21:00.200610  3200 net.cpp:165] Memory required for data: 8668429344
I0601 16:21:00.200613  3200 layer_factory.hpp:77] Creating layer fc7_mbox_loc
I0601 16:21:00.200620  3200 net.cpp:100] Creating Layer fc7_mbox_loc
I0601 16:21:00.200625  3200 net.cpp:434] fc7_mbox_loc <- fc7_relu7_0_split_1
I0601 16:21:00.200629  3200 net.cpp:408] fc7_mbox_loc -> fc7_mbox_loc
I0601 16:21:00.203104  3200 net.cpp:150] Setting up fc7_mbox_loc
I0601 16:21:00.203114  3200 net.cpp:157] Top shape: 35 24 19 19 (303240)
I0601 16:21:00.203116  3200 net.cpp:165] Memory required for data: 8669642304
I0601 16:21:00.203121  3200 layer_factory.hpp:77] Creating layer fc7_mbox_loc_perm
I0601 16:21:00.203141  3200 net.cpp:100] Creating Layer fc7_mbox_loc_perm
I0601 16:21:00.203145  3200 net.cpp:434] fc7_mbox_loc_perm <- fc7_mbox_loc
I0601 16:21:00.203150  3200 net.cpp:408] fc7_mbox_loc_perm -> fc7_mbox_loc_perm
I0601 16:21:00.203243  3200 net.cpp:150] Setting up fc7_mbox_loc_perm
I0601 16:21:00.203248  3200 net.cpp:157] Top shape: 35 19 19 24 (303240)
I0601 16:21:00.203249  3200 net.cpp:165] Memory required for data: 8670855264
I0601 16:21:00.203253  3200 layer_factory.hpp:77] Creating layer fc7_mbox_loc_flat
I0601 16:21:00.203256  3200 net.cpp:100] Creating Layer fc7_mbox_loc_flat
I0601 16:21:00.203272  3200 net.cpp:434] fc7_mbox_loc_flat <- fc7_mbox_loc_perm
I0601 16:21:00.203276  3200 net.cpp:408] fc7_mbox_loc_flat -> fc7_mbox_loc_flat
I0601 16:21:00.203295  3200 net.cpp:150] Setting up fc7_mbox_loc_flat
I0601 16:21:00.203300  3200 net.cpp:157] Top shape: 35 8664 (303240)
I0601 16:21:00.203302  3200 net.cpp:165] Memory required for data: 8672068224
I0601 16:21:00.203305  3200 layer_factory.hpp:77] Creating layer fc7_mbox_conf
I0601 16:21:00.203311  3200 net.cpp:100] Creating Layer fc7_mbox_conf
I0601 16:21:00.203315  3200 net.cpp:434] fc7_mbox_conf <- fc7_relu7_0_split_2
I0601 16:21:00.203320  3200 net.cpp:408] fc7_mbox_conf -> fc7_mbox_conf
I0601 16:21:00.205677  3200 net.cpp:150] Setting up fc7_mbox_conf
I0601 16:21:00.205687  3200 net.cpp:157] Top shape: 35 24 19 19 (303240)
I0601 16:21:00.205689  3200 net.cpp:165] Memory required for data: 8673281184
I0601 16:21:00.205693  3200 layer_factory.hpp:77] Creating layer fc7_mbox_conf_perm
I0601 16:21:00.205699  3200 net.cpp:100] Creating Layer fc7_mbox_conf_perm
I0601 16:21:00.205704  3200 net.cpp:434] fc7_mbox_conf_perm <- fc7_mbox_conf
I0601 16:21:00.205708  3200 net.cpp:408] fc7_mbox_conf_perm -> fc7_mbox_conf_perm
I0601 16:21:00.205793  3200 net.cpp:150] Setting up fc7_mbox_conf_perm
I0601 16:21:00.205799  3200 net.cpp:157] Top shape: 35 19 19 24 (303240)
I0601 16:21:00.205801  3200 net.cpp:165] Memory required for data: 8674494144
I0601 16:21:00.205803  3200 layer_factory.hpp:77] Creating layer fc7_mbox_conf_flat
I0601 16:21:00.205807  3200 net.cpp:100] Creating Layer fc7_mbox_conf_flat
I0601 16:21:00.205809  3200 net.cpp:434] fc7_mbox_conf_flat <- fc7_mbox_conf_perm
I0601 16:21:00.205814  3200 net.cpp:408] fc7_mbox_conf_flat -> fc7_mbox_conf_flat
I0601 16:21:00.205833  3200 net.cpp:150] Setting up fc7_mbox_conf_flat
I0601 16:21:00.205838  3200 net.cpp:157] Top shape: 35 8664 (303240)
I0601 16:21:00.205840  3200 net.cpp:165] Memory required for data: 8675707104
I0601 16:21:00.205852  3200 layer_factory.hpp:77] Creating layer fc7_mbox_priorbox
I0601 16:21:00.205857  3200 net.cpp:100] Creating Layer fc7_mbox_priorbox
I0601 16:21:00.205860  3200 net.cpp:434] fc7_mbox_priorbox <- fc7_relu7_0_split_3
I0601 16:21:00.205863  3200 net.cpp:434] fc7_mbox_priorbox <- data_data_0_split_2
I0601 16:21:00.205869  3200 net.cpp:408] fc7_mbox_priorbox -> fc7_mbox_priorbox
I0601 16:21:00.205893  3200 net.cpp:150] Setting up fc7_mbox_priorbox
I0601 16:21:00.205898  3200 net.cpp:157] Top shape: 1 2 8664 (17328)
I0601 16:21:00.205900  3200 net.cpp:165] Memory required for data: 8675776416
I0601 16:21:00.205902  3200 layer_factory.hpp:77] Creating layer conv6_2_mbox_loc
I0601 16:21:00.205909  3200 net.cpp:100] Creating Layer conv6_2_mbox_loc
I0601 16:21:00.205914  3200 net.cpp:434] conv6_2_mbox_loc <- conv6_2_conv6_2_relu_0_split_1
I0601 16:21:00.205919  3200 net.cpp:408] conv6_2_mbox_loc -> conv6_2_mbox_loc
I0601 16:21:00.207804  3200 net.cpp:150] Setting up conv6_2_mbox_loc
I0601 16:21:00.207813  3200 net.cpp:157] Top shape: 35 24 10 10 (84000)
I0601 16:21:00.207816  3200 net.cpp:165] Memory required for data: 8676112416
I0601 16:21:00.207820  3200 layer_factory.hpp:77] Creating layer conv6_2_mbox_loc_perm
I0601 16:21:00.207828  3200 net.cpp:100] Creating Layer conv6_2_mbox_loc_perm
I0601 16:21:00.207830  3200 net.cpp:434] conv6_2_mbox_loc_perm <- conv6_2_mbox_loc
I0601 16:21:00.207835  3200 net.cpp:408] conv6_2_mbox_loc_perm -> conv6_2_mbox_loc_perm
I0601 16:21:00.207918  3200 net.cpp:150] Setting up conv6_2_mbox_loc_perm
I0601 16:21:00.207924  3200 net.cpp:157] Top shape: 35 10 10 24 (84000)
I0601 16:21:00.207926  3200 net.cpp:165] Memory required for data: 8676448416
I0601 16:21:00.207928  3200 layer_factory.hpp:77] Creating layer conv6_2_mbox_loc_flat
I0601 16:21:00.207932  3200 net.cpp:100] Creating Layer conv6_2_mbox_loc_flat
I0601 16:21:00.207937  3200 net.cpp:434] conv6_2_mbox_loc_flat <- conv6_2_mbox_loc_perm
I0601 16:21:00.207940  3200 net.cpp:408] conv6_2_mbox_loc_flat -> conv6_2_mbox_loc_flat
I0601 16:21:00.207959  3200 net.cpp:150] Setting up conv6_2_mbox_loc_flat
I0601 16:21:00.207963  3200 net.cpp:157] Top shape: 35 2400 (84000)
I0601 16:21:00.207967  3200 net.cpp:165] Memory required for data: 8676784416
I0601 16:21:00.207968  3200 layer_factory.hpp:77] Creating layer conv6_2_mbox_conf
I0601 16:21:00.207975  3200 net.cpp:100] Creating Layer conv6_2_mbox_conf
I0601 16:21:00.207978  3200 net.cpp:434] conv6_2_mbox_conf <- conv6_2_conv6_2_relu_0_split_2
I0601 16:21:00.207984  3200 net.cpp:408] conv6_2_mbox_conf -> conv6_2_mbox_conf
I0601 16:21:00.209892  3200 net.cpp:150] Setting up conv6_2_mbox_conf
I0601 16:21:00.209902  3200 net.cpp:157] Top shape: 35 24 10 10 (84000)
I0601 16:21:00.209903  3200 net.cpp:165] Memory required for data: 8677120416
I0601 16:21:00.209908  3200 layer_factory.hpp:77] Creating layer conv6_2_mbox_conf_perm
I0601 16:21:00.209914  3200 net.cpp:100] Creating Layer conv6_2_mbox_conf_perm
I0601 16:21:00.209918  3200 net.cpp:434] conv6_2_mbox_conf_perm <- conv6_2_mbox_conf
I0601 16:21:00.209923  3200 net.cpp:408] conv6_2_mbox_conf_perm -> conv6_2_mbox_conf_perm
I0601 16:21:00.210006  3200 net.cpp:150] Setting up conv6_2_mbox_conf_perm
I0601 16:21:00.210011  3200 net.cpp:157] Top shape: 35 10 10 24 (84000)
I0601 16:21:00.210013  3200 net.cpp:165] Memory required for data: 8677456416
I0601 16:21:00.210016  3200 layer_factory.hpp:77] Creating layer conv6_2_mbox_conf_flat
I0601 16:21:00.210021  3200 net.cpp:100] Creating Layer conv6_2_mbox_conf_flat
I0601 16:21:00.210024  3200 net.cpp:434] conv6_2_mbox_conf_flat <- conv6_2_mbox_conf_perm
I0601 16:21:00.210028  3200 net.cpp:408] conv6_2_mbox_conf_flat -> conv6_2_mbox_conf_flat
I0601 16:21:00.210048  3200 net.cpp:150] Setting up conv6_2_mbox_conf_flat
I0601 16:21:00.210053  3200 net.cpp:157] Top shape: 35 2400 (84000)
I0601 16:21:00.210055  3200 net.cpp:165] Memory required for data: 8677792416
I0601 16:21:00.210057  3200 layer_factory.hpp:77] Creating layer conv6_2_mbox_priorbox
I0601 16:21:00.210072  3200 net.cpp:100] Creating Layer conv6_2_mbox_priorbox
I0601 16:21:00.210077  3200 net.cpp:434] conv6_2_mbox_priorbox <- conv6_2_conv6_2_relu_0_split_3
I0601 16:21:00.210079  3200 net.cpp:434] conv6_2_mbox_priorbox <- data_data_0_split_3
I0601 16:21:00.210084  3200 net.cpp:408] conv6_2_mbox_priorbox -> conv6_2_mbox_priorbox
I0601 16:21:00.210106  3200 net.cpp:150] Setting up conv6_2_mbox_priorbox
I0601 16:21:00.210111  3200 net.cpp:157] Top shape: 1 2 2400 (4800)
I0601 16:21:00.210114  3200 net.cpp:165] Memory required for data: 8677811616
I0601 16:21:00.210116  3200 layer_factory.hpp:77] Creating layer conv7_2_mbox_loc
I0601 16:21:00.210122  3200 net.cpp:100] Creating Layer conv7_2_mbox_loc
I0601 16:21:00.210126  3200 net.cpp:434] conv7_2_mbox_loc <- conv7_2_conv7_2_relu_0_split_1
I0601 16:21:00.210131  3200 net.cpp:408] conv7_2_mbox_loc -> conv7_2_mbox_loc
I0601 16:21:00.211385  3200 net.cpp:150] Setting up conv7_2_mbox_loc
I0601 16:21:00.211393  3200 net.cpp:157] Top shape: 35 24 5 5 (21000)
I0601 16:21:00.211396  3200 net.cpp:165] Memory required for data: 8677895616
I0601 16:21:00.211401  3200 layer_factory.hpp:77] Creating layer conv7_2_mbox_loc_perm
I0601 16:21:00.211406  3200 net.cpp:100] Creating Layer conv7_2_mbox_loc_perm
I0601 16:21:00.211410  3200 net.cpp:434] conv7_2_mbox_loc_perm <- conv7_2_mbox_loc
I0601 16:21:00.211416  3200 net.cpp:408] conv7_2_mbox_loc_perm -> conv7_2_mbox_loc_perm
I0601 16:21:00.211499  3200 net.cpp:150] Setting up conv7_2_mbox_loc_perm
I0601 16:21:00.211505  3200 net.cpp:157] Top shape: 35 5 5 24 (21000)
I0601 16:21:00.211508  3200 net.cpp:165] Memory required for data: 8677979616
I0601 16:21:00.211511  3200 layer_factory.hpp:77] Creating layer conv7_2_mbox_loc_flat
I0601 16:21:00.211514  3200 net.cpp:100] Creating Layer conv7_2_mbox_loc_flat
I0601 16:21:00.211518  3200 net.cpp:434] conv7_2_mbox_loc_flat <- conv7_2_mbox_loc_perm
I0601 16:21:00.211520  3200 net.cpp:408] conv7_2_mbox_loc_flat -> conv7_2_mbox_loc_flat
I0601 16:21:00.211539  3200 net.cpp:150] Setting up conv7_2_mbox_loc_flat
I0601 16:21:00.211544  3200 net.cpp:157] Top shape: 35 600 (21000)
I0601 16:21:00.211545  3200 net.cpp:165] Memory required for data: 8678063616
I0601 16:21:00.211547  3200 layer_factory.hpp:77] Creating layer conv7_2_mbox_conf
I0601 16:21:00.211555  3200 net.cpp:100] Creating Layer conv7_2_mbox_conf
I0601 16:21:00.211558  3200 net.cpp:434] conv7_2_mbox_conf <- conv7_2_conv7_2_relu_0_split_2
I0601 16:21:00.211562  3200 net.cpp:408] conv7_2_mbox_conf -> conv7_2_mbox_conf
I0601 16:21:00.213284  3200 net.cpp:150] Setting up conv7_2_mbox_conf
I0601 16:21:00.213294  3200 net.cpp:157] Top shape: 35 24 5 5 (21000)
I0601 16:21:00.213297  3200 net.cpp:165] Memory required for data: 8678147616
I0601 16:21:00.213301  3200 layer_factory.hpp:77] Creating layer conv7_2_mbox_conf_perm
I0601 16:21:00.213307  3200 net.cpp:100] Creating Layer conv7_2_mbox_conf_perm
I0601 16:21:00.213311  3200 net.cpp:434] conv7_2_mbox_conf_perm <- conv7_2_mbox_conf
I0601 16:21:00.213317  3200 net.cpp:408] conv7_2_mbox_conf_perm -> conv7_2_mbox_conf_perm
I0601 16:21:00.213398  3200 net.cpp:150] Setting up conv7_2_mbox_conf_perm
I0601 16:21:00.213404  3200 net.cpp:157] Top shape: 35 5 5 24 (21000)
I0601 16:21:00.213408  3200 net.cpp:165] Memory required for data: 8678231616
I0601 16:21:00.213410  3200 layer_factory.hpp:77] Creating layer conv7_2_mbox_conf_flat
I0601 16:21:00.213413  3200 net.cpp:100] Creating Layer conv7_2_mbox_conf_flat
I0601 16:21:00.213416  3200 net.cpp:434] conv7_2_mbox_conf_flat <- conv7_2_mbox_conf_perm
I0601 16:21:00.213421  3200 net.cpp:408] conv7_2_mbox_conf_flat -> conv7_2_mbox_conf_flat
I0601 16:21:00.213439  3200 net.cpp:150] Setting up conv7_2_mbox_conf_flat
I0601 16:21:00.213445  3200 net.cpp:157] Top shape: 35 600 (21000)
I0601 16:21:00.213449  3200 net.cpp:165] Memory required for data: 8678315616
I0601 16:21:00.213450  3200 layer_factory.hpp:77] Creating layer conv7_2_mbox_priorbox
I0601 16:21:00.213455  3200 net.cpp:100] Creating Layer conv7_2_mbox_priorbox
I0601 16:21:00.213457  3200 net.cpp:434] conv7_2_mbox_priorbox <- conv7_2_conv7_2_relu_0_split_3
I0601 16:21:00.213469  3200 net.cpp:434] conv7_2_mbox_priorbox <- data_data_0_split_4
I0601 16:21:00.213476  3200 net.cpp:408] conv7_2_mbox_priorbox -> conv7_2_mbox_priorbox
I0601 16:21:00.213497  3200 net.cpp:150] Setting up conv7_2_mbox_priorbox
I0601 16:21:00.213502  3200 net.cpp:157] Top shape: 1 2 600 (1200)
I0601 16:21:00.213505  3200 net.cpp:165] Memory required for data: 8678320416
I0601 16:21:00.213508  3200 layer_factory.hpp:77] Creating layer conv8_2_mbox_loc
I0601 16:21:00.213515  3200 net.cpp:100] Creating Layer conv8_2_mbox_loc
I0601 16:21:00.213518  3200 net.cpp:434] conv8_2_mbox_loc <- conv8_2_conv8_2_relu_0_split_1
I0601 16:21:00.213522  3200 net.cpp:408] conv8_2_mbox_loc -> conv8_2_mbox_loc
I0601 16:21:00.215126  3200 net.cpp:150] Setting up conv8_2_mbox_loc
I0601 16:21:00.215137  3200 net.cpp:157] Top shape: 35 16 3 3 (5040)
I0601 16:21:00.215138  3200 net.cpp:165] Memory required for data: 8678340576
I0601 16:21:00.215150  3200 layer_factory.hpp:77] Creating layer conv8_2_mbox_loc_perm
I0601 16:21:00.215157  3200 net.cpp:100] Creating Layer conv8_2_mbox_loc_perm
I0601 16:21:00.215162  3200 net.cpp:434] conv8_2_mbox_loc_perm <- conv8_2_mbox_loc
I0601 16:21:00.215167  3200 net.cpp:408] conv8_2_mbox_loc_perm -> conv8_2_mbox_loc_perm
I0601 16:21:00.215253  3200 net.cpp:150] Setting up conv8_2_mbox_loc_perm
I0601 16:21:00.215260  3200 net.cpp:157] Top shape: 35 3 3 16 (5040)
I0601 16:21:00.215262  3200 net.cpp:165] Memory required for data: 8678360736
I0601 16:21:00.215265  3200 layer_factory.hpp:77] Creating layer conv8_2_mbox_loc_flat
I0601 16:21:00.215268  3200 net.cpp:100] Creating Layer conv8_2_mbox_loc_flat
I0601 16:21:00.215272  3200 net.cpp:434] conv8_2_mbox_loc_flat <- conv8_2_mbox_loc_perm
I0601 16:21:00.215276  3200 net.cpp:408] conv8_2_mbox_loc_flat -> conv8_2_mbox_loc_flat
I0601 16:21:00.215294  3200 net.cpp:150] Setting up conv8_2_mbox_loc_flat
I0601 16:21:00.215299  3200 net.cpp:157] Top shape: 35 144 (5040)
I0601 16:21:00.215301  3200 net.cpp:165] Memory required for data: 8678380896
I0601 16:21:00.215303  3200 layer_factory.hpp:77] Creating layer conv8_2_mbox_conf
I0601 16:21:00.215311  3200 net.cpp:100] Creating Layer conv8_2_mbox_conf
I0601 16:21:00.215313  3200 net.cpp:434] conv8_2_mbox_conf <- conv8_2_conv8_2_relu_0_split_2
I0601 16:21:00.215318  3200 net.cpp:408] conv8_2_mbox_conf -> conv8_2_mbox_conf
I0601 16:21:00.216917  3200 net.cpp:150] Setting up conv8_2_mbox_conf
I0601 16:21:00.216928  3200 net.cpp:157] Top shape: 35 16 3 3 (5040)
I0601 16:21:00.216929  3200 net.cpp:165] Memory required for data: 8678401056
I0601 16:21:00.216935  3200 layer_factory.hpp:77] Creating layer conv8_2_mbox_conf_perm
I0601 16:21:00.216940  3200 net.cpp:100] Creating Layer conv8_2_mbox_conf_perm
I0601 16:21:00.216944  3200 net.cpp:434] conv8_2_mbox_conf_perm <- conv8_2_mbox_conf
I0601 16:21:00.216949  3200 net.cpp:408] conv8_2_mbox_conf_perm -> conv8_2_mbox_conf_perm
I0601 16:21:00.217034  3200 net.cpp:150] Setting up conv8_2_mbox_conf_perm
I0601 16:21:00.217041  3200 net.cpp:157] Top shape: 35 3 3 16 (5040)
I0601 16:21:00.217044  3200 net.cpp:165] Memory required for data: 8678421216
I0601 16:21:00.217046  3200 layer_factory.hpp:77] Creating layer conv8_2_mbox_conf_flat
I0601 16:21:00.217051  3200 net.cpp:100] Creating Layer conv8_2_mbox_conf_flat
I0601 16:21:00.217052  3200 net.cpp:434] conv8_2_mbox_conf_flat <- conv8_2_mbox_conf_perm
I0601 16:21:00.217057  3200 net.cpp:408] conv8_2_mbox_conf_flat -> conv8_2_mbox_conf_flat
I0601 16:21:00.217074  3200 net.cpp:150] Setting up conv8_2_mbox_conf_flat
I0601 16:21:00.217079  3200 net.cpp:157] Top shape: 35 144 (5040)
I0601 16:21:00.217082  3200 net.cpp:165] Memory required for data: 8678441376
I0601 16:21:00.217083  3200 layer_factory.hpp:77] Creating layer conv8_2_mbox_priorbox
I0601 16:21:00.217088  3200 net.cpp:100] Creating Layer conv8_2_mbox_priorbox
I0601 16:21:00.217092  3200 net.cpp:434] conv8_2_mbox_priorbox <- conv8_2_conv8_2_relu_0_split_3
I0601 16:21:00.217095  3200 net.cpp:434] conv8_2_mbox_priorbox <- data_data_0_split_5
I0601 16:21:00.217109  3200 net.cpp:408] conv8_2_mbox_priorbox -> conv8_2_mbox_priorbox
I0601 16:21:00.217131  3200 net.cpp:150] Setting up conv8_2_mbox_priorbox
I0601 16:21:00.217136  3200 net.cpp:157] Top shape: 1 2 144 (288)
I0601 16:21:00.217139  3200 net.cpp:165] Memory required for data: 8678442528
I0601 16:21:00.217140  3200 layer_factory.hpp:77] Creating layer conv9_2_mbox_loc
I0601 16:21:00.217149  3200 net.cpp:100] Creating Layer conv9_2_mbox_loc
I0601 16:21:00.217151  3200 net.cpp:434] conv9_2_mbox_loc <- conv9_2_conv9_2_relu_0_split_0
I0601 16:21:00.217157  3200 net.cpp:408] conv9_2_mbox_loc -> conv9_2_mbox_loc
I0601 16:21:00.218770  3200 net.cpp:150] Setting up conv9_2_mbox_loc
I0601 16:21:00.218780  3200 net.cpp:157] Top shape: 35 16 1 1 (560)
I0601 16:21:00.218782  3200 net.cpp:165] Memory required for data: 8678444768
I0601 16:21:00.218786  3200 layer_factory.hpp:77] Creating layer conv9_2_mbox_loc_perm
I0601 16:21:00.218792  3200 net.cpp:100] Creating Layer conv9_2_mbox_loc_perm
I0601 16:21:00.218796  3200 net.cpp:434] conv9_2_mbox_loc_perm <- conv9_2_mbox_loc
I0601 16:21:00.218801  3200 net.cpp:408] conv9_2_mbox_loc_perm -> conv9_2_mbox_loc_perm
I0601 16:21:00.218888  3200 net.cpp:150] Setting up conv9_2_mbox_loc_perm
I0601 16:21:00.218893  3200 net.cpp:157] Top shape: 35 1 1 16 (560)
I0601 16:21:00.218894  3200 net.cpp:165] Memory required for data: 8678447008
I0601 16:21:00.218897  3200 layer_factory.hpp:77] Creating layer conv9_2_mbox_loc_flat
I0601 16:21:00.218900  3200 net.cpp:100] Creating Layer conv9_2_mbox_loc_flat
I0601 16:21:00.218904  3200 net.cpp:434] conv9_2_mbox_loc_flat <- conv9_2_mbox_loc_perm
I0601 16:21:00.218907  3200 net.cpp:408] conv9_2_mbox_loc_flat -> conv9_2_mbox_loc_flat
I0601 16:21:00.218925  3200 net.cpp:150] Setting up conv9_2_mbox_loc_flat
I0601 16:21:00.218930  3200 net.cpp:157] Top shape: 35 16 (560)
I0601 16:21:00.218932  3200 net.cpp:165] Memory required for data: 8678449248
I0601 16:21:00.218935  3200 layer_factory.hpp:77] Creating layer conv9_2_mbox_conf
I0601 16:21:00.218942  3200 net.cpp:100] Creating Layer conv9_2_mbox_conf
I0601 16:21:00.218945  3200 net.cpp:434] conv9_2_mbox_conf <- conv9_2_conv9_2_relu_0_split_1
I0601 16:21:00.218950  3200 net.cpp:408] conv9_2_mbox_conf -> conv9_2_mbox_conf
I0601 16:21:00.220993  3200 net.cpp:150] Setting up conv9_2_mbox_conf
I0601 16:21:00.221004  3200 net.cpp:157] Top shape: 35 16 1 1 (560)
I0601 16:21:00.221006  3200 net.cpp:165] Memory required for data: 8678451488
I0601 16:21:00.221011  3200 layer_factory.hpp:77] Creating layer conv9_2_mbox_conf_perm
I0601 16:21:00.221017  3200 net.cpp:100] Creating Layer conv9_2_mbox_conf_perm
I0601 16:21:00.221020  3200 net.cpp:434] conv9_2_mbox_conf_perm <- conv9_2_mbox_conf
I0601 16:21:00.221025  3200 net.cpp:408] conv9_2_mbox_conf_perm -> conv9_2_mbox_conf_perm
I0601 16:21:00.221110  3200 net.cpp:150] Setting up conv9_2_mbox_conf_perm
I0601 16:21:00.221115  3200 net.cpp:157] Top shape: 35 1 1 16 (560)
I0601 16:21:00.221117  3200 net.cpp:165] Memory required for data: 8678453728
I0601 16:21:00.221120  3200 layer_factory.hpp:77] Creating layer conv9_2_mbox_conf_flat
I0601 16:21:00.221123  3200 net.cpp:100] Creating Layer conv9_2_mbox_conf_flat
I0601 16:21:00.221127  3200 net.cpp:434] conv9_2_mbox_conf_flat <- conv9_2_mbox_conf_perm
I0601 16:21:00.221132  3200 net.cpp:408] conv9_2_mbox_conf_flat -> conv9_2_mbox_conf_flat
I0601 16:21:00.221150  3200 net.cpp:150] Setting up conv9_2_mbox_conf_flat
I0601 16:21:00.221155  3200 net.cpp:157] Top shape: 35 16 (560)
I0601 16:21:00.221158  3200 net.cpp:165] Memory required for data: 8678455968
I0601 16:21:00.221160  3200 layer_factory.hpp:77] Creating layer conv9_2_mbox_priorbox
I0601 16:21:00.221164  3200 net.cpp:100] Creating Layer conv9_2_mbox_priorbox
I0601 16:21:00.221166  3200 net.cpp:434] conv9_2_mbox_priorbox <- conv9_2_conv9_2_relu_0_split_2
I0601 16:21:00.221170  3200 net.cpp:434] conv9_2_mbox_priorbox <- data_data_0_split_6
I0601 16:21:00.221175  3200 net.cpp:408] conv9_2_mbox_priorbox -> conv9_2_mbox_priorbox
I0601 16:21:00.221207  3200 net.cpp:150] Setting up conv9_2_mbox_priorbox
I0601 16:21:00.221212  3200 net.cpp:157] Top shape: 1 2 16 (32)
I0601 16:21:00.221215  3200 net.cpp:165] Memory required for data: 8678456096
I0601 16:21:00.221217  3200 layer_factory.hpp:77] Creating layer mbox_loc
I0601 16:21:00.221221  3200 net.cpp:100] Creating Layer mbox_loc
I0601 16:21:00.221226  3200 net.cpp:434] mbox_loc <- conv4_3_norm_mbox_loc_flat
I0601 16:21:00.221230  3200 net.cpp:434] mbox_loc <- fc7_mbox_loc_flat
I0601 16:21:00.221235  3200 net.cpp:434] mbox_loc <- conv6_2_mbox_loc_flat
I0601 16:21:00.221238  3200 net.cpp:434] mbox_loc <- conv7_2_mbox_loc_flat
I0601 16:21:00.221241  3200 net.cpp:434] mbox_loc <- conv8_2_mbox_loc_flat
I0601 16:21:00.221245  3200 net.cpp:434] mbox_loc <- conv9_2_mbox_loc_flat
I0601 16:21:00.221249  3200 net.cpp:408] mbox_loc -> mbox_loc
I0601 16:21:00.221274  3200 net.cpp:150] Setting up mbox_loc
I0601 16:21:00.221279  3200 net.cpp:157] Top shape: 35 34928 (1222480)
I0601 16:21:00.221282  3200 net.cpp:165] Memory required for data: 8683346016
I0601 16:21:00.221284  3200 layer_factory.hpp:77] Creating layer mbox_conf
I0601 16:21:00.221287  3200 net.cpp:100] Creating Layer mbox_conf
I0601 16:21:00.221292  3200 net.cpp:434] mbox_conf <- conv4_3_norm_mbox_conf_flat
I0601 16:21:00.221294  3200 net.cpp:434] mbox_conf <- fc7_mbox_conf_flat
I0601 16:21:00.221298  3200 net.cpp:434] mbox_conf <- conv6_2_mbox_conf_flat
I0601 16:21:00.221302  3200 net.cpp:434] mbox_conf <- conv7_2_mbox_conf_flat
I0601 16:21:00.221304  3200 net.cpp:434] mbox_conf <- conv8_2_mbox_conf_flat
I0601 16:21:00.221307  3200 net.cpp:434] mbox_conf <- conv9_2_mbox_conf_flat
I0601 16:21:00.221312  3200 net.cpp:408] mbox_conf -> mbox_conf
I0601 16:21:00.221329  3200 net.cpp:150] Setting up mbox_conf
I0601 16:21:00.221334  3200 net.cpp:157] Top shape: 35 34928 (1222480)
I0601 16:21:00.221336  3200 net.cpp:165] Memory required for data: 8688235936
I0601 16:21:00.221338  3200 layer_factory.hpp:77] Creating layer mbox_priorbox
I0601 16:21:00.221343  3200 net.cpp:100] Creating Layer mbox_priorbox
I0601 16:21:00.221344  3200 net.cpp:434] mbox_priorbox <- conv4_3_norm_mbox_priorbox
I0601 16:21:00.221348  3200 net.cpp:434] mbox_priorbox <- fc7_mbox_priorbox
I0601 16:21:00.221350  3200 net.cpp:434] mbox_priorbox <- conv6_2_mbox_priorbox
I0601 16:21:00.221354  3200 net.cpp:434] mbox_priorbox <- conv7_2_mbox_priorbox
I0601 16:21:00.221356  3200 net.cpp:434] mbox_priorbox <- conv8_2_mbox_priorbox
I0601 16:21:00.221359  3200 net.cpp:434] mbox_priorbox <- conv9_2_mbox_priorbox
I0601 16:21:00.221362  3200 net.cpp:408] mbox_priorbox -> mbox_priorbox
I0601 16:21:00.221380  3200 net.cpp:150] Setting up mbox_priorbox
I0601 16:21:00.221385  3200 net.cpp:157] Top shape: 1 2 34928 (69856)
I0601 16:21:00.221387  3200 net.cpp:165] Memory required for data: 8688515360
I0601 16:21:00.221390  3200 layer_factory.hpp:77] Creating layer mbox_loss
I0601 16:21:00.221397  3200 net.cpp:100] Creating Layer mbox_loss
I0601 16:21:00.221400  3200 net.cpp:434] mbox_loss <- mbox_loc
I0601 16:21:00.221403  3200 net.cpp:434] mbox_loss <- mbox_conf
I0601 16:21:00.221407  3200 net.cpp:434] mbox_loss <- mbox_priorbox
…
  name: "data"
  type: "AnnotatedData"
  top: "data"
  top: "label"
  include {
    phase: TEST
  }
  transform_param {
    mean_value: 104
    mean_value: 117
    mean_value: 123
    resize_param {
      prob: 1
      resize_mode: WARP
      height: 300
      width: 300
      interp_mode: LINEAR
    }
  }
  data_param {
    source: "examples/tbs_300x300_HSIL_10x/tbs_300x300_HSIL_10x_test_lmdb"
    batch_size: 4
    backend: LMDB
  }
  annotated_data_param {
    batch_sampler {
    }
    label_map_file: "data/tbs_300x300_HSIL_10x/labelmap_tbs.prototxt"
  }
}
layer {
  name: "conv1_1"
  type: "Convolution"
  bottom: "data"
  top: "conv1_1"
  param {
    lr_mult: 1
    decay_mult: 1
  }
  param {
    lr_mult: 2
    decay_mult: 0
  }
  convolution_param {
    num_output: 64
    pad: 1
    kernel_size: 3
    weight_filler {
      type: "xavier"
    }
    bias_filler {
      type: "constant"
      value: 0
    }
  }
}
layer {
  name: "relu1_1"
  type: "ReLU"
  bottom: "conv1_1"
  top: "conv1_1"
}
layer {
  name: "conv1_2"
  type: "Convolution"
  bottom: "conv1_1"
  top: "conv1_2"
  param {
    lr_mult: 1
    decay_mult: 1
  }
  param {
    lr_mult: 2
    decay_mult: 0
  }
  convolution_param {
    num_output: 64
    pad: 1
    kernel_size: 3
    weight_filler {
      type: "xavier"
    }
    bias_filler {
      type: "constant"
      value: 0
    }
  }
}
layer {
  name: "relu1_2"
  type: "ReLU"
  bottom: "conv1_2"
  top: "conv1_2"
}
layer {
  name: "pool1"
  type: "Pooling"
  bottom: "conv1_2"
  top: "pool1"
  pooling_param {
    pool: MAX
    kernel_size: 2
    stride: 2
  }
}
layer {
  name: "conv2_1"
  type: "Convolution"
  bottom: "pool1"
  top: "conv2_1"
  param {
    lr_mult: 1
    decay_mult: 1
  }
  param {
    lr_mult: 2
    decay_mult: 0
  }
  convolution_param {
    num_output: 128
    pad: 1
    kernel_size: 3
    weight_filler {
      type: "xavier"
    }
    bias_filler {
      type: "constant"
      value: 0
    }
  }
}
layer {
  name: "relu2_1"
  type: "ReLU"
  bottom: "conv2_1"
  top: "conv2_1"
}
layer {
  name: "conv2_2"
  type: "Convolution"
  bottom: "conv2_1"
  top: "conv2_2"
  param {
    lr_mult: 1
    decay_mult: 1
  }
  param {
    lr_mult: 2
    decay_mult: 0
  }
  convolution_param {
    num_output: 128
    pad: 1
    kernel_size: 3
    weight_filler {
      type: "xavier"
    }
    bias_filler {
      type: "constant"
      value: 0
    }
  }
}
layer {
  name: "relu2_2"
  type: "ReLU"
  bottom: "conv2_2"
  top: "conv2_2"
}
layer {
  name: "pool2"
  type: "Pooling"
  bottom: "conv2_2"
  top: "pool2"
  pooling_param {
    pool: MAX
    kernel_size: 2
    stride: 2
  }
}
layer {
  name: "conv3_1"
  type: "Convolution"
  bottom: "pool2"
  top: "conv3_1"
  param {
    lr_mult: 1
    decay_mult: 1
  }
  param {
    lr_mult: 2
    decay_mult: 0
  }
  convolution_param {
    num_output: 256
    pad: 1
    kernel_size: 3
    weight_filler {
      type: "xavier"
    }
    bias_filler {
      type: "constant"
      value: 0
    }
  }
}
layer {
  name: "relu3_1"
  type: "ReLU"
  bottom: "conv3_1"
  top: "conv3_1"
}
layer {
  name: "conv3_2"
  type: "Convolution"
  bottom: "conv3_1"
  top: "conv3_2"
  param {
    lr_mult: 1
    decay_mult: 1
  }
  param {
    lr_mult: 2
    decay_mult: 0
  }
  convolution_param {
    num_output: 256
    pad: 1
    kernel_size: 3
    weight_filler {
      type: "xavier"
    }
    bias_filler {
      type: "constant"
      value: 0
    }
  }
}
layer {
  name: "relu3_2"
  type: "ReLU"
  bottom: "conv3_2"
  top: "conv3_2"
}
layer {
  name: "conv3_3"
  type: "Convolution"
  bottom: "conv3_2"
  top: "conv3_3"
  param {
    lr_mult: 1
    decay_mult: 1
  }
  param {
    lr_mult: 2
    decay_mult: 0
  }
  convolution_param {
    num_output: 256
    pad: 1
    kernel_size: 3
    weight_filler {
      type: "xavier"
    }
    bias_filler {
      type: "constant"
      value: 0
    }
  }
}
layer {
  name: "relu3_3"
  type: "ReLU"
  bottom: "conv3_3"
  top: "conv3_3"
}
layer {
  name: "pool3"
  type: "Pooling"
  bottom: "conv3_3"
  top: "pool3"
  pooling_param {
    pool: MAX
    kernel_size: 2
    stride: 2
  }
}
layer {
  name: "conv4_1"
  type: "Convolution"
  bottom: "pool3"
  top: "conv4_1"
  param {
    lr_mult: 1
    decay_mult: 1
  }
  param {
    lr_mult: 2
    decay_mult: 0
  }
  convolution_param {
    num_output: 512
    pad: 1
    kernel_size: 3
    weight_filler {
      type: "xavier"
    }
    bias_filler {
      type: "constant"
      value: 0
    }
  }
}
layer {
  name: "relu4_1"
  type: "ReLU"
  bottom: "conv4_1"
  top: "conv4_1"
}
layer {
  name: "conv4_2"
  type: "Convolution"
  bottom: "conv4_1"
  top: "conv4_2"
  param {
    lr_mult: 1
    decay_mult: 1
  }
  param {
    lr_mult: 2
    decay_mult: 0
  }
  convolution_param {
    num_output: 512
    pad: 1
    kernel_size: 3
    weight_filler {
      type: "xavier"
    }
    bias_filler {
      type: "constant"
      value: 0
    }
  }
}
layer {
  name: "relu4_2"
  type: "ReLU"
  bottom: "conv4_2"
  top: "conv4_2"
}
layer {
  name: "conv4_3"
  type: "Convolution"
  bottom: "conv4_2"
  top: "conv4_3"
  param {
    lr_mult: 1
    decay_mult: 1
  }
  param {
    lr_mult: 2
    decay_mult: 0
  }
  convolution_param {
    num_output: 512
    pad: 1
    kernel_size: 3
    weight_filler {
      type: "xavier"
    }
    bias_filler {
      type: "constant"
      value: 0
    }
  }
}
layer {
  name: "relu4_3"
  type: "ReLU"
  bottom: "conv4_3"
  top: "conv4_3"
}
layer {
  name: "pool4"
  type: "Pooling"
  bottom: "conv4_3"
  top: "pool4"
  pooling_param {
    pool: MAX
    kernel_size: 2
    stride: 2
  }
}
layer {
  name: "conv5_1"
  type: "Convolution"
  bottom: "pool4"
  top: "conv5_1"
  param {
    lr_mult: 1
    decay_mult: 1
  }
  param {
    lr_mult: 2
    decay_mult: 0
  }
  convolution_param {
    num_output: 512
    pad: 1
    kernel_size: 3
    weight_filler {
      type: "xavier"
    }
    bias_filler {
      type: "constant"
      value: 0
    }
    dilation: 1
  }
}
layer {
  name: "relu5_1"
  type: "ReLU"
  bottom: "conv5_1"
  top: "conv5_1"
}
layer {
  name: "conv5_2"
  type: "Convolution"
  bottom: "conv5_1"
  top: "conv5_2"
  param {
    lr_mult: 1
    decay_mult: 1
  }
  param {
    lr_mult: 2
    decay_mult: 0
  }
  convolution_param {
    num_output: 512
    pad: 1
    kernel_size: 3
    weight_filler {
      type: "xavier"
    }
    bias_filler {
      type: "constant"
      value: 0
    }
    dilation: 1
  }
}
layer {
  name: "relu5_2"
  type: "ReLU"
  bottom: "conv5_2"
  top: "conv5_2"
}
layer {
  name: "conv5_3"
  type: "Convolution"
  bottom: "conv5_2"
  top: "conv5_3"
  param {
    lr_mult: 1
    decay_mult: 1
  }
  param {
    lr_mult: 2
    decay_mult: 0
  }
  convolution_param {
    num_output: 512
    pad: 1
    kernel_size: 3
    weight_filler {
      type: "xavier"
    }
    bias_filler {
      type: "constant"
      value: 0
    }
    dilation: 1
  }
}
layer {
  name: "relu5_3"
  type: "ReLU"
  bottom: "conv5_3"
  top: "conv5_3"
}
layer {
  name: "pool5"
  type: "Pooling"
  bottom: "conv5_3"
  top: "pool5"
  pooling_param {
    pool: MAX
    kernel_size: 3
    stride: 1
    pad: 1
  }
}
layer {
  name: "fc6"
  type: "Convolution"
  bottom: "pool5"
  top: "fc6"
  param {
    lr_mult: 1
    decay_mult: 1
  }
  param {
    lr_mult: 2
    decay_mult: 0
  }
  convolution_param {
    num_output: 1024
    pad: 6
    kernel_size: 3
    weight_filler {
      type: "xavier"
    }
    bias_filler {
      type: "constant"
      value: 0
    }
    dilation: 6
  }
}
layer {
  name: "relu6"
  type: "ReLU"
  bottom: "fc6"
  top: "fc6"
}
layer {
  name: "fc7"
  type: "Convolution"
  bottom: "fc6"
  top: "fc7"
  param {
    lr_mult: 1
    decay_mult: 1
  }
  param {
    lr_mult: 2
    decay_mult: 0
  }
  convolution_param {
    num_output: 1024
    kernel_size: 1
    weight_filler {
      type: "xavier"
    }
    bias_filler {
      type: "constant"
      value: 0
    }
  }
}
layer {
  name: "relu7"
  type: "ReLU"
  bottom: "fc7"
  top: "fc7"
}
layer {
  name: "conv6_1"
  type: "Convolution"
  bottom: "fc7"
  top: "conv6_1"
  param {
    lr_mult: 1
    decay_mult: 1
  }
  param {
    lr_mult: 2
    decay_mult: 0
  }
  convolution_param {
    num_output: 256
    pad: 0
    kernel_size: 1
    stride: 1
    weight_filler {
      type: "xavier"
    }
    bias_filler {
      type: "constant"
      value: 0
    }
  }
}
layer {
  name: "conv6_1_relu"
  type: "ReLU"
  bottom: "conv6_1"
  top: "conv6_1"
}
layer {
  name: "conv6_2"
  type: "Convolution"
  bottom: "conv6_1"
  top: "conv6_2"
  param {
    lr_mult: 1
    decay_mult: 1
  }
  param {
    lr_mult: 2
    decay_mult: 0
  }
  convolution_param {
    num_output: 512
    pad: 1
    kernel_size: 3
    stride: 2
    weight_filler {
      type: "xavier"
    }
    bias_filler {
      type: "constant"
      value: 0
    }
  }
}
layer {
  name: "conv6_2_relu"
  type: "ReLU"
  bottom: "conv6_2"
  top: "conv6_2"
}
layer {
  name: "conv7_1"
  type: "Convolution"
  bottom: "conv6_2"
  top: "conv7_1"
  param {
    lr_mult: 1
    decay_mult: 1
  }
  param {
    lr_mult: 2
    decay_mult: 0
  }
  convolution_param {
    num_output: 128
    pad: 0
    kernel_size: 1
    stride: 1
    weight_filler {
      type: "xavier"
    }
    bias_filler {
      type: "constant"
      value: 0
    }
  }
}
layer {
  name: "conv7_1_relu"
  type: "ReLU"
  bottom: "conv7_1"
  top: "conv7_1"
}
layer {
  name: "conv7_2"
  type: "Convolution"
  bottom: "conv7_1"
  top: "conv7_2"
  param {
    lr_mult: 1
    decay_mult: 1
  }
  param {
    lr_mult: 2
    decay_mult: 0
  }
  convolution_param {
    num_output: 256
    pad: 1
    kernel_size: 3
    stride: 2
    weight_filler {
      type: "xavier"
    }
    bias_filler {
      type: "constant"
      value: 0
    }
  }
}
layer {
  name: "conv7_2_relu"
  type: "ReLU"
  bottom: "conv7_2"
  top: "conv7_2"
}
layer {
  name: "conv8_1"
  type: "Convolution"
  bottom: "conv7_2"
  top: "conv8_1"
  param {
    lr_mult: 1
    decay_mult: 1
  }
  param {
    lr_mult: 2
    decay_mult: 0
  }
  convolution_param {
    num_output: 128
    pad: 0
    kernel_size: 1
    stride: 1
    weight_filler {
      type: "xavier"
    }
    bias_filler {
      type: "constant"
      value: 0
    }
  }
}
layer {
  name: "conv8_1_relu"
  type: "ReLU"
  bottom: "conv8_1"
  top: "conv8_1"
}
layer {
  name: "conv8_2"
  type: "Convolution"
  bottom: "conv8_1"
  top: "conv8_2"
  param {
    lr_mult: 1
    decay_mult: 1
  }
  param {
    lr_mult: 2
    decay_mult: 0
  }
  convolution_param {
    num_output: 256
    pad: 0
    kernel_size: 3
    stride: 1
    weight_filler {
      type: "xavier"
    }
    bias_filler {
      type: "constant"
      value: 0
    }
  }
}
layer {
  name: "conv8_2_relu"
  type: "ReLU"
  bottom: "conv8_2"
  top: "conv8_2"
}
layer {
  name: "conv9_1"
  type: "Convolution"
  bottom: "conv8_2"
  top: "conv9_1"
  param {
    lr_mult: 1
    decay_mult: 1
  }
  param {
    lr_mult: 2
    decay_mult: 0
  }
  convolution_param {
    num_output: 128
    pad: 0
    kernel_size: 1
    stride: 1
    weight_filler {
      type: "xavier"
    }
    bias_filler {
      type: "constant"
      value: 0
    }
  }
}
layer {
  name: "conv9_1_relu"
  type: "ReLU"
  bottom: "conv9_1"
  top: "conv9_1"
}
layer {
  name: "conv9_2"
  type: "Convolution"
  bottom: "conv9_1"
  top: "conv9_2"
  param {
    lr_mult: 1
    decay_mult: 1
  }
  param {
    lr_mult: 2
    decay_mult: 0
  }
  convolution_param {
    num_output: 256
    pad: 0
    kernel_size: 3
    stride: 1
    weight_filler {
      type: "xavier"
    }
    bias_filler {
      type: "constant"
      value: 0
    }
  }
}
layer {
  name: "conv9_2_relu"
  type: "ReLU"
  bottom: "conv9_2"
  top: "conv9_2"
}
layer {
  name: "conv4_3_norm"
  type: "Normalize"
  bottom: "conv4_3"
  top: "conv4_3_norm"
  norm_param {
    across_spatial: false
    scale_filler {
      type: "constant"
      value: 20
    }
    channel_shared: false
  }
}
layer {
  name: "conv4_3_norm_mbox_loc"
  type: "Convolution"
  bottom: "conv4_3_norm"
  top: "conv4_3_norm_mbox_loc"
  param {
    lr_mult: 1
    decay_mult: 1
  }
  param {
    lr_mult: 2
    decay_mult: 0
  }
  convolution_param {
    num_output: 16
    pad: 1
    kernel_size: 3
    stride: 1
    weight_filler {
      type: "xavier"
    }
    bias_filler {
      type: "constant"
      value: 0
    }
  }
}
layer {
  name: "conv4_3_norm_mbox_loc_perm"
  type: "Permute"
  bottom: "conv4_3_norm_mbox_loc"
  top: "conv4_3_norm_mbox_loc_perm"
  permute_param {
    order: 0
    order: 2
    order: 3
    order: 1
  }
}
layer {
  name: "conv4_3_norm_mbox_loc_flat"
  type: "Flatten"
  bottom: "conv4_3_norm_mbox_loc_perm"
  top: "conv4_3_norm_mbox_loc_flat"
  flatten_param {
    axis: 1
  }
}
layer {
  name: "conv4_3_norm_mbox_conf"
  type: "Convolution"
  bottom: "conv4_3_norm"
  top: "conv4_3_norm_mbox_conf"
  param {
    lr_mult: 1
    decay_mult: 1
  }
  param {
    lr_mult: 2
    decay_mult: 0
  }
  convolution_param {
    num_output: 16
    pad: 1
    kernel_size: 3
    stride: 1
    weight_filler {
      type: "xavier"
    }
    bias_filler {
      type: "constant"
      value: 0
    }
  }
}
layer {
  name: "conv4_3_norm_mbox_conf_perm"
  type: "Permute"
  bottom: "conv4_3_norm_mbox_conf"
  top: "conv4_3_norm_mbox_conf_perm"
  permute_param {
    order: 0
    order: 2
    order: 3
    order: 1
  }
}
layer {
  name: "conv4_3_norm_mbox_conf_flat"
  type: "Flatten"
  bottom: "conv4_3_norm_mbox_conf_perm"
  top: "conv4_3_norm_mbox_conf_flat"
  flatten_param {
    axis: 1
  }
}
layer {
  name: "conv4_3_norm_mbox_priorbox"
  type: "PriorBox"
  bottom: "conv4_3_norm"
  bottom: "data"
  top: "conv4_3_norm_mbox_priorbox"
  prior_box_param {
    min_size: 30
    max_size: 60
    aspect_ratio: 2
    flip: true
    clip: false
    variance: 0.1
    variance: 0.1
    variance: 0.2
    variance: 0.2
    step: 8
    offset: 0.5
  }
}
layer {
  name: "fc7_mbox_loc"
  type: "Convolution"
  bottom: "fc7"
  top: "fc7_mbox_loc"
  param {
    lr_mult: 1
    decay_mult: 1
  }
  param {
    lr_mult: 2
    decay_mult: 0
  }
  convolution_param {
    num_output: 24
    pad: 1
    kernel_size: 3
    stride: 1
    weight_filler {
      type: "xavier"
    }
    bias_filler {
      type: "constant"
      value: 0
    }
  }
}
layer {
  name: "fc7_mbox_loc_perm"
  type: "Permute"
  bottom: "fc7_mbox_loc"
  top: "fc7_mbox_loc_perm"
  permute_param {
    order: 0
    order: 2
    order: 3
    order: 1
  }
}
layer {
  name: "fc7_mbox_loc_flat"
  type: "Flatten"
  bottom: "fc7_mbox_loc_perm"
  top: "fc7_mbox_loc_flat"
  flatten_param {
    axis: 1
  }
}
layer {
  name: "fc7_mbox_conf"
  type: "Convolution"
  bottom: "fc7"
  top: "fc7_mbox_conf"
  param {
    lr_mult: 1
    decay_mult: 1
  }
  param {
    lr_mult: 2
    decay_mult: 0
  }
  convolution_param {
    num_output: 24
    pad: 1
    kernel_size: 3
    stride: 1
    weight_filler {
      type: "xavier"
    }
    bias_filler {
      type: "constant"
      value: 0
    }
  }
}
layer {
  name: "fc7_mbox_conf_perm"
  type: "Permute"
  bottom: "fc7_mbox_conf"
  top: "fc7_mbox_conf_perm"
  permute_param {
    order: 0
    order: 2
    order: 3
    order: 1
  }
}
layer {
  name: "fc7_mbox_conf_flat"
  type: "Flatten"
  bottom: "fc7_mbox_conf_perm"
  top: "fc7_mbox_conf_flat"
  flatten_param {
    axis: 1
  }
}
layer {
  name: "fc7_mbox_priorbox"
  type: "PriorBox"
  bottom: "fc7"
  bottom: "data"
  top: "fc7_mbox_priorbox"
  prior_box_param {
    min_size: 60
    max_size: 111
    aspect_ratio: 2
    aspect_ratio: 3
    flip: true
    clip: false
    variance: 0.1
    variance: 0.1
    variance: 0.2
    variance: 0.2
    step: 16
    offset: 0.5
  }
}
layer {
  name: "conv6_2_mbox_loc"
  type: "Convolution"
  bottom: "conv6_2"
  top: "conv6_2_mbox_loc"
  param {
    lr_mult: 1
    decay_mult: 1
  }
  param {
    lr_mult: 2
    decay_mult: 0
  }
  convolution_param {
    num_output: 24
    pad: 1
    kernel_size: 3
    stride: 1
    weight_filler {
      type: "xavier"
    }
    bias_filler {
      type: "constant"
      value: 0
    }
  }
}
layer {
  name: "conv6_2_mbox_loc_perm"
  type: "Permute"
  bottom: "conv6_2_mbox_loc"
  top: "conv6_2_mbox_loc_perm"
  permute_param {
    order: 0
    order: 2
    order: 3
    order: 1
  }
}
layer {
  name: "conv6_2_mbox_loc_flat"
  type: "Flatten"
  bottom: "conv6_2_mbox_loc_perm"
  top: "conv6_2_mbox_loc_flat"
  flatten_param {
    axis: 1
  }
}
layer {
  name: "conv6_2_mbox_conf"
  type: "Convolution"
  bottom: "conv6_2"
  top: "conv6_2_mbox_conf"
  param {
    lr_mult: 1
    decay_mult: 1
  }
  param {
    lr_mult: 2
    decay_mult: 0
  }
  convolution_param {
    num_output: 24
    pad: 1
    kernel_size: 3
    stride: 1
    weight_filler {
      type: "xavier"
    }
    bias_filler {
      type: "constant"
      value: 0
    }
  }
}
layer {
  name: "conv6_2_mbox_conf_perm"
  type: "Permute"
  bottom: "conv6_2_mbox_conf"
  top: "conv6_2_mbox_conf_perm"
  permute_param {
    order: 0
    order: 2
    order: 3
    order: 1
  }
}
layer {
  name: "conv6_2_mbox_conf_flat"
  type: "Flatten"
  bottom: "conv6_2_mbox_conf_perm"
  top: "conv6_2_mbox_conf_flat"
  flatten_param {
    axis: 1
  }
}
layer {
  name: "conv6_2_mbox_priorbox"
  type: "PriorBox"
  bottom: "conv6_2"
  bottom: "data"
  top: "conv6_2_mbox_priorbox"
  prior_box_param {
    min_size: 111
    max_size: 162
    aspect_ratio: 2
    aspect_ratio: 3
    flip: true
    clip: false
    variance: 0.1
    variance: 0.1
    variance: 0.2
    variance: 0.2
    step: 32
    offset: 0.5
  }
}
layer {
  name: "conv7_2_mbox_loc"
  type: "Convolution"
  bottom: "conv7_2"
  top: "conv7_2_mbox_loc"
  param {
    lr_mult: 1
    decay_mult: 1
  }
  param {
    lr_mult: 2
    decay_mult: 0
  }
  convolution_param {
    num_output: 24
    pad: 1
    kernel_size: 3
    stride: 1
    weight_filler {
      type: "xavier"
    }
    bias_filler {
      type: "constant"
      value: 0
    }
  }
}
layer {
  name: "conv7_2_mbox_loc_perm"
  type: "Permute"
  bottom: "conv7_2_mbox_loc"
  top: "conv7_2_mbox_loc_perm"
  permute_param {
    order: 0
    order: 2
    order: 3
    order: 1
  }
}
layer {
  name: "conv7_2_mbox_loc_flat"
  type: "Flatten"
  bottom: "conv7_2_mbox_loc_perm"
  top: "conv7_2_mbox_loc_flat"
  flatten_param {
    axis: 1
  }
}
layer {
  name: "conv7_2_mbox_conf"
  type: "Convolution"
  bottom: "conv7_2"
  top: "conv7_2_mbox_conf"
  param {
    lr_mult: 1
    decay_mult: 1
  }
  param {
    lr_mult: 2
    decay_mult: 0
  }
  convolution_param {
    num_output: 24
    pad: 1
    kernel_size: 3
    stride: 1
    weight_filler {
      type: "xavier"
    }
    bias_filler {
      type: "constant"
      value: 0
    }
  }
}
layer {
  name: "conv7_2_mbox_conf_perm"
  type: "Permute"
  bottom: "conv7_2_mbox_conf"
  top: "conv7_2_mbox_conf_perm"
  permute_param {
    order: 0
    order: 2
    order: 3
    order: 1
  }
}
layer {
  name: "conv7_2_mbox_conf_flat"
  type: "Flatten"
  bottom: "conv7_2_mbox_conf_perm"
  top: "conv7_2_mbox_conf_flat"
  flatten_param {
    axis: 1
  }
}
layer {
  name: "conv7_2_mbox_priorbox"
  type: "PriorBox"
  bottom: "conv7_2"
  bottom: "data"
  top: "conv7_2_mbox_priorbox"
  prior_box_param {
    min_size: 162
    max_size: 213
    aspect_ratio: 2
    aspect_ratio: 3
    flip: true
    clip: false
    variance: 0.1
    variance: 0.1
    variance: 0.2
    variance: 0.2
    step: 64
    offset: 0.5
  }
}
layer {
  name: "conv8_2_mbox_loc"
  type: "Convolution"
  bottom: "conv8_2"
  top: "conv8_2_mbox_loc"
  param {
    lr_mult: 1
    decay_mult: 1
  }
  param {
    lr_mult: 2
    decay_mult: 0
  }
  convolution_param {
    num_output: 16
    pad: 1
    kernel_size: 3
    stride: 1
    weight_filler {
      type: "xavier"
    }
    bias_filler {
      type: "constant"
      value: 0
    }
  }
}
layer {
  name: "conv8_2_mbox_loc_perm"
  type: "Permute"
  bottom: "conv8_2_mbox_loc"
  top: "conv8_2_mbox_loc_perm"
  permute_param {
    order: 0
    order: 2
    order: 3
    order: 1
  }
}
layer {
  name: "conv8_2_mbox_loc_flat"
  type: "Flatten"
  bottom: "conv8_2_mbox_loc_perm"
  top: "conv8_2_mbox_loc_flat"
  flatten_param {
    axis: 1
  }
}
layer {
  name: "conv8_2_mbox_conf"
  type: "Convolution"
  bottom: "conv8_2"
  top: "conv8_2_mbox_conf"
  param {
    lr_mult: 1
    decay_mult: 1
  }
  param {
    lr_mult: 2
    decay_mult: 0
  }
  convolution_param {
    num_output: 16
    pad: 1
    kernel_size: 3
    stride: 1
    weight_filler {
      type: "xavier"
    }
    bias_filler {
      type: "constant"
      value: 0
    }
  }
}
layer {
  name: "conv8_2_mbox_conf_perm"
  type: "Permute"
  bottom: "conv8_2_mbox_conf"
  top: "conv8_2_mbox_conf_perm"
  permute_param {
    order: 0
    order: 2
    order: 3
    order: 1
  }
}
layer {
  name: "conv8_2_mbox_conf_flat"
  type: "Flatten"
  bottom: "conv8_2_mbox_conf_perm"
  top: "conv8_2_mbox_conf_flat"
  flatten_param {
    axis: 1
  }
}
layer {
  name: "conv8_2_mbox_priorbox"
  type: "PriorBox"
  bottom: "conv8_2"
  bottom: "data"
  top: "conv8_2_mbox_priorbox"
  prior_box_param {
    min_size: 213
    max_size: 264
    aspect_ratio: 2
    flip: true
    clip: false
    variance: 0.1
    variance: 0.1
    variance: 0.2
    variance: 0.2
    step: 100
    offset: 0.5
  }
}
layer {
  name: "conv9_2_mbox_loc"
  type: "Convolution"
  bottom: "conv9_2"
  top: "conv9_2_mbox_loc"
  param {
    lr_mult: 1
    decay_mult: 1
  }
  param {
    lr_mult: 2
    decay_mult: 0
  }
  convolution_param {
    num_output: 16
    pad: 1
    kernel_size: 3
    stride: 1
    weight_filler {
      type: "xavier"
    }
    bias_filler {
      type: "constant"
      value: 0
    }
  }
}
layer {
  name: "conv9_2_mbox_loc_perm"
  type: "Permute"
  bottom: "conv9_2_mbox_loc"
  top: "conv9_2_mbox_loc_perm"
  permute_param {
    order: 0
    order: 2
    order: 3
    order: 1
  }
}
layer {
  name: "conv9_2_mbox_loc_flat"
  type: "Flatten"
  bottom: "conv9_2_mbox_loc_perm"
  top: "conv9_2_mbox_loc_flat"
  flatten_param {
    axis: 1
  }
}
layer {
  name: "conv9_2_mbox_conf"
  type: "Convolution"
  bottom: "conv9_2"
  top: "conv9_2_mbox_conf"
  param {
    lr_mult: 1
    decay_mult: 1
  }
  param {
    lr_mult: 2
    decay_mult: 0
  }
  convolution_param {
    num_output: 16
    pad: 1
    kernel_size: 3
    stride: 1
    weight_filler {
      type: "xavier"
    }
    bias_filler {
      type: "constant"
      value: 0
    }
  }
}
layer {
  name: "conv9_2_mbox_conf_perm"
  type: "Permute"
  bottom: "conv9_2_mbox_conf"
  top: "conv9_2_mbox_conf_perm"
  permute_param {
    order: 0
    order: 2
    order: 3
    order: 1
  }
}
layer {
  name: "conv9_2_mbox_conf_flat"
  type: "Flatten"
  bottom: "conv9_2_mbox_conf_perm"
  top: "conv9_2_mbox_conf_flat"
  flatten_param {
    axis: 1
  }
}
layer {
  name: "conv9_2_mbox_priorbox"
  type: "PriorBox"
  bottom: "conv9_2"
  bottom: "data"
  top: "conv9_2_mbox_priorbox"
  prior_box_param {
    min_size: 264
    max_size: 315
    aspect_ratio: 2
    flip: true
    clip: false
    variance: 0.1
    variance: 0.1
    variance: 0.2
    variance: 0.2
    step: 300
    offset: 0.5
  }
}
layer {
  name: "mbox_loc"
  type: "Concat"
  bottom: "conv4_3_norm_mbox_loc_flat"
  bottom: "fc7_mbox_loc_flat"
  bottom: "conv6_2_mbox_loc_flat"
  bottom: "conv7_2_mbox_loc_flat"
  bottom: "conv8_2_mbox_loc_flat"
  bottom: "conv9_2_mbox_loc_flat"
  top: "mbox_loc"
  concat_param {
    axis: 1
  }
}
layer {
  name: "mbox_conf"
  type: "Concat"
  bottom: "conv4_3_norm_mbox_conf_flat"
  bottom: "fc7_mbox_conf_flat"
  bottom: "conv6_2_mbox_conf_flat"
  bottom: "conv7_2_mbox_conf_flat"
  bottom: "conv8_2_mbox_conf_flat"
  bottom: "conv9_2_mbox_conf_flat"
  top: "mbox_conf"
  concat_param {
    axis: 1
  }
}
layer {
  name: "mbox_priorbox"
  type: "Concat"
  bottom: "conv4_3_norm_mbox_priorbox"
  bottom: "fc7_mbox_priorbox"
  bottom: "conv6_2_mbox_priorbox"
  bottom: "conv7_2_mbox_priorbox"
  bottom: "conv8_2_mbox_priorbox"
  bottom: "conv9_2_mbox_priorbox"
  top: "mbox_priorbox"
  concat_param {
    axis: 2
  }
}
layer {
  name: "mbox_conf_reshape"
  type: "Reshape"
  bottom: "mbox_conf"
  top: "mbox_conf_reshape"
  reshape_param {
    shape {
      dim: 0
      dim: -1
      dim: 4
    }
  }
}
layer {
  name: "mbox_conf_softmax"
  type: "Softmax"
  bottom: "mbox_conf_reshape"
  top: "mbox_conf_softmax"
  softmax_param {
    axis: 2
  }
}
layer {
  name: "mbox_conf_flatten"
  type: "Flatten"
  bottom: "mbox_conf_softmax"
  top: "mbox_conf_flatten"
  flatten_param {
    axis: 1
  }
}
layer {
  name: "detection_out"
  type: "DetectionOutput"
  bottom: "mbox_loc"
  bottom: "mbox_conf_flatten"
  bottom: "mbox_priorbox"
  top: "detection_out"
  include {
    phase: TEST
  }
  detection_output_param {
    num_classes: 4
    share_location: true
    background_label_id: 0
    nms_param {
      nms_threshold: 0.45
      top_k: 400
    }
    save_output_param {
      output_directory: "/home/shangzw/data/tbs/results/tbs/SSD_300x300/Main"
      output_name_prefix: "comp4_det_test_"
      output_format: "VOC"
      label_map_file: "data/tbs_300x300_HSIL_10x/labelmap_tbs.prototxt"
      name_size_file: "data/VOC0712/test_name_size.txt"
      num_test_image: 100
    }
    code_type: CENTER_SIZE
    keep_top_k: 200
    confidence_threshold: 0.01
  }
}
layer {
  name: "detection_eval"
  type: "DetectionEvaluate"
  bottom: "detection_out"
  bottom: "label"
  top: "detection_eval"
  include {
    phase: TEST
  }
  detection_evaluate_param {
    num_classes: 4
    background_label_id: 0
    overlap_threshold: 0.5
    evaluate_difficult_gt: false
    name_size_file: "data/VOC0712/test_name_size.txt"
  }
}
I0601 16:21:00.223731  3200 layer_factory.hpp:77] Creating layer data
I0601 16:21:00.223778  3200 net.cpp:100] Creating Layer data
I0601 16:21:00.223788  3200 net.cpp:408] data -> data
I0601 16:21:00.223796  3200 net.cpp:408] data -> label
I0601 16:21:00.225874  3221 db_lmdb.cpp:35] Opened lmdb examples/tbs_300x300_HSIL_10x/tbs_300x300_HSIL_10x_test_lmdb
I0601 16:21:00.227031  3200 annotated_data_layer.cpp:62] output data size: 4,3,300,300
I0601 16:21:00.236568  3200 net.cpp:150] Setting up data
I0601 16:21:00.236601  3200 net.cpp:157] Top shape: 4 3 300 300 (1080000)
I0601 16:21:00.236604  3200 net.cpp:157] Top shape: 1 1 1 8 (8)
I0601 16:21:00.236608  3200 net.cpp:165] Memory required for data: 4320032
I0601 16:21:00.236625  3200 layer_factory.hpp:77] Creating layer data_data_0_split
I0601 16:21:00.236636  3200 net.cpp:100] Creating Layer data_data_0_split
I0601 16:21:00.236652  3200 net.cpp:434] data_data_0_split <- data
I0601 16:21:00.236660  3200 net.cpp:408] data_data_0_split -> data_data_0_split_0
I0601 16:21:00.236667  3200 net.cpp:408] data_data_0_split -> data_data_0_split_1
I0601 16:21:00.236676  3200 net.cpp:408] data_data_0_split -> data_data_0_split_2
I0601 16:21:00.236683  3200 net.cpp:408] data_data_0_split -> data_data_0_split_3
I0601 16:21:00.236688  3200 net.cpp:408] data_data_0_split -> data_data_0_split_4
I0601 16:21:00.236695  3200 net.cpp:408] data_data_0_split -> data_data_0_split_5
I0601 16:21:00.236698  3200 net.cpp:408] data_data_0_split -> data_data_0_split_6
I0601 16:21:00.236831  3200 net.cpp:150] Setting up data_data_0_split
I0601 16:21:00.236852  3200 net.cpp:157] Top shape: 4 3 300 300 (1080000)
I0601 16:21:00.236856  3200 net.cpp:157] Top shape: 4 3 300 300 (1080000)
I0601 16:21:00.236860  3200 net.cpp:157] Top shape: 4 3 300 300 (1080000)
I0601 16:21:00.236862  3200 net.cpp:157] Top shape: 4 3 300 300 (1080000)
I0601 16:21:00.236865  3200 net.cpp:157] Top shape: 4 3 300 300 (1080000)
I0601 16:21:00.236879  3200 net.cpp:157] Top shape: 4 3 300 300 (1080000)
I0601 16:21:00.236882  3200 net.cpp:157] Top shape: 4 3 300 300 (1080000)
I0601 16:21:00.236886  3200 net.cpp:165] Memory required for data: 34560032
I0601 16:21:00.236888  3200 layer_factory.hpp:77] Creating layer conv1_1
I0601 16:21:00.236897  3200 net.cpp:100] Creating Layer conv1_1
I0601 16:21:00.236901  3200 net.cpp:434] conv1_1 <- data_data_0_split_0
I0601 16:21:00.236919  3200 net.cpp:408] conv1_1 -> conv1_1
I0601 16:21:00.238152  3200 net.cpp:150] Setting up conv1_1
I0601 16:21:00.238160  3200 net.cpp:157] Top shape: 4 64 300 300 (23040000)
I0601 16:21:00.238163  3200 net.cpp:165] Memory required for data: 126720032
I0601 16:21:00.238170  3200 layer_factory.hpp:77] Creating layer relu1_1
I0601 16:21:00.238176  3200 net.cpp:100] Creating Layer relu1_1
I0601 16:21:00.238178  3200 net.cpp:434] relu1_1 <- conv1_1
I0601 16:21:00.238183  3200 net.cpp:395] relu1_1 -> conv1_1 (in-place)
I0601 16:21:00.238306  3200 net.cpp:150] Setting up relu1_1
I0601 16:21:00.238312  3200 net.cpp:157] Top shape: 4 64 300 300 (23040000)
I0601 16:21:00.238314  3200 net.cpp:165] Memory required for data: 218880032
I0601 16:21:00.238317  3200 layer_factory.hpp:77] Creating layer conv1_2
I0601 16:21:00.238323  3200 net.cpp:100] Creating Layer conv1_2
I0601 16:21:00.238328  3200 net.cpp:434] conv1_2 <- conv1_1
I0601 16:21:00.238333  3200 net.cpp:408] conv1_2 -> conv1_2
I0601 16:21:00.240972  3200 net.cpp:150] Setting up conv1_2
I0601 16:21:00.240983  3200 net.cpp:157] Top shape: 4 64 300 300 (23040000)
I0601 16:21:00.240986  3200 net.cpp:165] Memory required for data: 311040032
I0601 16:21:00.240993  3200 layer_factory.hpp:77] Creating layer relu1_2
I0601 16:21:00.240998  3200 net.cpp:100] Creating Layer relu1_2
I0601 16:21:00.241000  3200 net.cpp:434] relu1_2 <- conv1_2
I0601 16:21:00.241004  3200 net.cpp:395] relu1_2 -> conv1_2 (in-place)
I0601 16:21:00.241657  3200 net.cpp:150] Setting up relu1_2
I0601 16:21:00.241667  3200 net.cpp:157] Top shape: 4 64 300 300 (23040000)
I0601 16:21:00.241668  3200 net.cpp:165] Memory required for data: 403200032
I0601 16:21:00.241672  3200 layer_factory.hpp:77] Creating layer pool1
I0601 16:21:00.241678  3200 net.cpp:100] Creating Layer pool1
I0601 16:21:00.241701  3200 net.cpp:434] pool1 <- conv1_2
I0601 16:21:00.241706  3200 net.cpp:408] pool1 -> pool1
I0601 16:21:00.241755  3200 net.cpp:150] Setting up pool1
I0601 16:21:00.241763  3200 net.cpp:157] Top shape: 4 64 150 150 (5760000)
I0601 16:21:00.241767  3200 net.cpp:165] Memory required for data: 426240032
I0601 16:21:00.241770  3200 layer_factory.hpp:77] Creating layer conv2_1
I0601 16:21:00.241777  3200 net.cpp:100] Creating Layer conv2_1
I0601 16:21:00.241780  3200 net.cpp:434] conv2_1 <- pool1
I0601 16:21:00.241786  3200 net.cpp:408] conv2_1 -> conv2_1
I0601 16:21:00.243310  3200 net.cpp:150] Setting up conv2_1
I0601 16:21:00.243321  3200 net.cpp:157] Top shape: 4 128 150 150 (11520000)
I0601 16:21:00.243324  3200 net.cpp:165] Memory required for data: 472320032
I0601 16:21:00.243332  3200 layer_factory.hpp:77] Creating layer relu2_1
I0601 16:21:00.243340  3200 net.cpp:100] Creating Layer relu2_1
I0601 16:21:00.243342  3200 net.cpp:434] relu2_1 <- conv2_1
I0601 16:21:00.243346  3200 net.cpp:395] relu2_1 -> conv2_1 (in-place)
I0601 16:21:00.243952  3200 net.cpp:150] Setting up relu2_1
I0601 16:21:00.243963  3200 net.cpp:157] Top shape: 4 128 150 150 (11520000)
I0601 16:21:00.243965  3200 net.cpp:165] Memory required for data: 518400032
I0601 16:21:00.243968  3200 layer_factory.hpp:77] Creating layer conv2_2
I0601 16:21:00.243976  3200 net.cpp:100] Creating Layer conv2_2
I0601 16:21:00.243979  3200 net.cpp:434] conv2_2 <- conv2_1
I0601 16:21:00.243986  3200 net.cpp:408] conv2_2 -> conv2_2
I0601 16:21:00.250054  3200 net.cpp:150] Setting up conv2_2
I0601 16:21:00.250085  3200 net.cpp:157] Top shape: 4 128 150 150 (11520000)
I0601 16:21:00.250087  3200 net.cpp:165] Memory required for data: 564480032
I0601 16:21:00.250095  3200 layer_factory.hpp:77] Creating layer relu2_2
I0601 16:21:00.250115  3200 net.cpp:100] Creating Layer relu2_2
I0601 16:21:00.250119  3200 net.cpp:434] relu2_2 <- conv2_2
I0601 16:21:00.250125  3200 net.cpp:395] relu2_2 -> conv2_2 (in-place)
I0601 16:21:00.250282  3200 net.cpp:150] Setting up relu2_2
I0601 16:21:00.250289  3200 net.cpp:157] Top shape: 4 128 150 150 (11520000)
I0601 16:21:00.250291  3200 net.cpp:165] Memory required for data: 610560032
I0601 16:21:00.250293  3200 layer_factory.hpp:77] Creating layer pool2
I0601 16:21:00.250299  3200 net.cpp:100] Creating Layer pool2
I0601 16:21:00.250301  3200 net.cpp:434] pool2 <- conv2_2
I0601 16:21:00.250306  3200 net.cpp:408] pool2 -> pool2
I0601 16:21:00.250352  3200 net.cpp:150] Setting up pool2
I0601 16:21:00.250358  3200 net.cpp:157] Top shape: 4 128 75 75 (2880000)
I0601 16:21:00.250360  3200 net.cpp:165] Memory required for data: 622080032
I0601 16:21:00.250362  3200 layer_factory.hpp:77] Creating layer conv3_1
I0601 16:21:00.250370  3200 net.cpp:100] Creating Layer conv3_1
I0601 16:21:00.250373  3200 net.cpp:434] conv3_1 <- pool2
I0601 16:21:00.250378  3200 net.cpp:408] conv3_1 -> conv3_1
I0601 16:21:00.260032  3200 net.cpp:150] Setting up conv3_1
I0601 16:21:00.260063  3200 net.cpp:157] Top shape: 4 256 75 75 (5760000)
I0601 16:21:00.260066  3200 net.cpp:165] Memory required for data: 645120032
I0601 16:21:00.260092  3200 layer_factory.hpp:77] Creating layer relu3_1
I0601 16:21:00.260097  3200 net.cpp:100] Creating Layer relu3_1
I0601 16:21:00.260102  3200 net.cpp:434] relu3_1 <- conv3_1
I0601 16:21:00.260107  3200 net.cpp:395] relu3_1 -> conv3_1 (in-place)
I0601 16:21:00.272011  3200 net.cpp:150] Setting up relu3_1
I0601 16:21:00.272034  3200 net.cpp:157] Top shape: 4 256 75 75 (5760000)
I0601 16:21:00.272037  3200 net.cpp:165] Memory required for data: 668160032
I0601 16:21:00.272042  3200 layer_factory.hpp:77] Creating layer conv3_2
I0601 16:21:00.272052  3200 net.cpp:100] Creating Layer conv3_2
I0601 16:21:00.272054  3200 net.cpp:434] conv3_2 <- conv3_1
I0601 16:21:00.272061  3200 net.cpp:408] conv3_2 -> conv3_2
I0601 16:21:00.277091  3200 net.cpp:150] Setting up conv3_2
I0601 16:21:00.277107  3200 net.cpp:157] Top shape: 4 256 75 75 (5760000)
I0601 16:21:00.277110  3200 net.cpp:165] Memory required for data: 691200032
I0601 16:21:00.277117  3200 layer_factory.hpp:77] Creating layer relu3_2
I0601 16:21:00.277125  3200 net.cpp:100] Creating Layer relu3_2
I0601 16:21:00.277143  3200 net.cpp:434] relu3_2 <- conv3_2
I0601 16:21:00.277148  3200 net.cpp:395] relu3_2 -> conv3_2 (in-place)
I0601 16:21:00.277326  3200 net.cpp:150] Setting up relu3_2
I0601 16:21:00.277333  3200 net.cpp:157] Top shape: 4 256 75 75 (5760000)
I0601 16:21:00.277336  3200 net.cpp:165] Memory required for data: 714240032
I0601 16:21:00.277338  3200 layer_factory.hpp:77] Creating layer conv3_3
I0601 16:21:00.277349  3200 net.cpp:100] Creating Layer conv3_3
I0601 16:21:00.277369  3200 net.cpp:434] conv3_3 <- conv3_2
I0601 16:21:00.277374  3200 net.cpp:408] conv3_3 -> conv3_3
I0601 16:21:00.282495  3200 net.cpp:150] Setting up conv3_3
I0601 16:21:00.282510  3200 net.cpp:157] Top shape: 4 256 75 75 (5760000)
I0601 16:21:00.282512  3200 net.cpp:165] Memory required for data: 737280032
I0601 16:21:00.282519  3200 layer_factory.hpp:77] Creating layer relu3_3
I0601 16:21:00.282524  3200 net.cpp:100] Creating Layer relu3_3
I0601 16:21:00.282527  3200 net.cpp:434] relu3_3 <- conv3_3
I0601 16:21:00.282533  3200 net.cpp:395] relu3_3 -> conv3_3 (in-place)
I0601 16:21:00.282687  3200 net.cpp:150] Setting up relu3_3
I0601 16:21:00.282708  3200 net.cpp:157] Top shape: 4 256 75 75 (5760000)
I0601 16:21:00.282711  3200 net.cpp:165] Memory required for data: 760320032
I0601 16:21:00.282713  3200 layer_factory.hpp:77] Creating layer pool3
I0601 16:21:00.282719  3200 net.cpp:100] Creating Layer pool3
I0601 16:21:00.282724  3200 net.cpp:434] pool3 <- conv3_3
I0601 16:21:00.282742  3200 net.cpp:408] pool3 -> pool3
I0601 16:21:00.282783  3200 net.cpp:150] Setting up pool3
I0601 16:21:00.282788  3200 net.cpp:157] Top shape: 4 256 38 38 (1478656)
I0601 16:21:00.282804  3200 net.cpp:165] Memory required for data: 766234656
I0601 16:21:00.282805  3200 layer_factory.hpp:77] Creating layer conv4_1
I0601 16:21:00.282812  3200 net.cpp:100] Creating Layer conv4_1
I0601 16:21:00.282815  3200 net.cpp:434] conv4_1 <- pool3
I0601 16:21:00.282820  3200 net.cpp:408] conv4_1 -> conv4_1
I0601 16:21:00.290832  3200 net.cpp:150] Setting up conv4_1
I0601 16:21:00.290848  3200 net.cpp:157] Top shape: 4 512 38 38 (2957312)
I0601 16:21:00.290850  3200 net.cpp:165] Memory required for data: 778063904
I0601 16:21:00.290873  3200 layer_factory.hpp:77] Creating layer relu4_1
I0601 16:21:00.290879  3200 net.cpp:100] Creating Layer relu4_1
I0601 16:21:00.290882  3200 net.cpp:434] relu4_1 <- conv4_1
I0601 16:21:00.290889  3200 net.cpp:395] relu4_1 -> conv4_1 (in-place)
I0601 16:21:00.292960  3200 net.cpp:150] Setting up relu4_1
I0601 16:21:00.292971  3200 net.cpp:157] Top shape: 4 512 38 38 (2957312)
I0601 16:21:00.292974  3200 net.cpp:165] Memory required for data: 789893152
I0601 16:21:00.292979  3200 layer_factory.hpp:77] Creating layer conv4_2
I0601 16:21:00.292987  3200 net.cpp:100] Creating Layer conv4_2
I0601 16:21:00.292990  3200 net.cpp:434] conv4_2 <- conv4_1
I0601 16:21:00.292997  3200 net.cpp:408] conv4_2 -> conv4_2
I0601 16:21:00.305879  3200 net.cpp:150] Setting up conv4_2
I0601 16:21:00.305896  3200 net.cpp:157] Top shape: 4 512 38 38 (2957312)
I0601 16:21:00.305899  3200 net.cpp:165] Memory required for data: 801722400
I0601 16:21:00.305924  3200 layer_factory.hpp:77] Creating layer relu4_2
I0601 16:21:00.305946  3200 net.cpp:100] Creating Layer relu4_2
I0601 16:21:00.305950  3200 net.cpp:434] relu4_2 <- conv4_2
I0601 16:21:00.305954  3200 net.cpp:395] relu4_2 -> conv4_2 (in-place)
I0601 16:21:00.307166  3200 net.cpp:150] Setting up relu4_2
I0601 16:21:00.307178  3200 net.cpp:157] Top shape: 4 512 38 38 (2957312)
I0601 16:21:00.307179  3200 net.cpp:165] Memory required for data: 813551648
I0601 16:21:00.307183  3200 layer_factory.hpp:77] Creating layer conv4_3
I0601 16:21:00.307205  3200 net.cpp:100] Creating Layer conv4_3
I0601 16:21:00.307225  3200 net.cpp:434] conv4_3 <- conv4_2
I0601 16:21:00.307232  3200 net.cpp:408] conv4_3 -> conv4_3
I0601 16:21:00.320350  3200 net.cpp:150] Setting up conv4_3
I0601 16:21:00.320369  3200 net.cpp:157] Top shape: 4 512 38 38 (2957312)
I0601 16:21:00.320371  3200 net.cpp:165] Memory required for data: 825380896
I0601 16:21:00.320392  3200 layer_factory.hpp:77] Creating layer relu4_3
I0601 16:21:00.320400  3200 net.cpp:100] Creating Layer relu4_3
I0601 16:21:00.320405  3200 net.cpp:434] relu4_3 <- conv4_3
I0601 16:21:00.320410  3200 net.cpp:395] relu4_3 -> conv4_3 (in-place)
I0601 16:21:00.320588  3200 net.cpp:150] Setting up relu4_3
I0601 16:21:00.320595  3200 net.cpp:157] Top shape: 4 512 38 38 (2957312)
I0601 16:21:00.320597  3200 net.cpp:165] Memory required for data: 837210144
I0601 16:21:00.320600  3200 layer_factory.hpp:77] Creating layer conv4_3_relu4_3_0_split
I0601 16:21:00.320605  3200 net.cpp:100] Creating Layer conv4_3_relu4_3_0_split
I0601 16:21:00.320606  3200 net.cpp:434] conv4_3_relu4_3_0_split <- conv4_3
I0601 16:21:00.320626  3200 net.cpp:408] conv4_3_relu4_3_0_split -> conv4_3_relu4_3_0_split_0
I0601 16:21:00.320631  3200 net.cpp:408] conv4_3_relu4_3_0_split -> conv4_3_relu4_3_0_split_1
I0601 16:21:00.320709  3200 net.cpp:150] Setting up conv4_3_relu4_3_0_split
I0601 16:21:00.320729  3200 net.cpp:157] Top shape: 4 512 38 38 (2957312)
I0601 16:21:00.320732  3200 net.cpp:157] Top shape: 4 512 38 38 (2957312)
I0601 16:21:00.320749  3200 net.cpp:165] Memory required for data: 860868640
I0601 16:21:00.320750  3200 layer_factory.hpp:77] Creating layer pool4
I0601 16:21:00.320756  3200 net.cpp:100] Creating Layer pool4
I0601 16:21:00.320760  3200 net.cpp:434] pool4 <- conv4_3_relu4_3_0_split_0
I0601 16:21:00.320765  3200 net.cpp:408] pool4 -> pool4
I0601 16:21:00.320838  3200 net.cpp:150] Setting up pool4
I0601 16:21:00.320842  3200 net.cpp:157] Top shape: 4 512 19 19 (739328)
I0601 16:21:00.320844  3200 net.cpp:165] Memory required for data: 863825952
I0601 16:21:00.320883  3200 layer_factory.hpp:77] Creating layer conv5_1
I0601 16:21:00.320893  3200 net.cpp:100] Creating Layer conv5_1
I0601 16:21:00.320895  3200 net.cpp:434] conv5_1 <- pool4
I0601 16:21:00.320900  3200 net.cpp:408] conv5_1 -> conv5_1
I0601 16:21:00.333533  3200 net.cpp:150] Setting up conv5_1
I0601 16:21:00.333551  3200 net.cpp:157] Top shape: 4 512 19 19 (739328)
I0601 16:21:00.333554  3200 net.cpp:165] Memory required for data: 866783264
I0601 16:21:00.333576  3200 layer_factory.hpp:77] Creating layer relu5_1
I0601 16:21:00.333585  3200 net.cpp:100] Creating Layer relu5_1
I0601 16:21:00.333587  3200 net.cpp:434] relu5_1 <- conv5_1
I0601 16:21:00.333592  3200 net.cpp:395] relu5_1 -> conv5_1 (in-place)
I0601 16:21:00.333817  3200 net.cpp:150] Setting up relu5_1
I0601 16:21:00.333822  3200 net.cpp:157] Top shape: 4 512 19 19 (739328)
I0601 16:21:00.333825  3200 net.cpp:165] Memory required for data: 869740576
I0601 16:21:00.333827  3200 layer_factory.hpp:77] Creating layer conv5_2
I0601 16:21:00.333851  3200 net.cpp:100] Creating Layer conv5_2
I0601 16:21:00.333854  3200 net.cpp:434] conv5_2 <- conv5_1
I0601 16:21:00.333859  3200 net.cpp:408] conv5_2 -> conv5_2
I0601 16:21:00.346833  3200 net.cpp:150] Setting up conv5_2
I0601 16:21:00.346849  3200 net.cpp:157] Top shape: 4 512 19 19 (739328)
I0601 16:21:00.346853  3200 net.cpp:165] Memory required for data: 872697888
I0601 16:21:00.346858  3200 layer_factory.hpp:77] Creating layer relu5_2
I0601 16:21:00.346865  3200 net.cpp:100] Creating Layer relu5_2
I0601 16:21:00.346868  3200 net.cpp:434] relu5_2 <- conv5_2
I0601 16:21:00.346887  3200 net.cpp:395] relu5_2 -> conv5_2 (in-place)
I0601 16:21:00.347074  3200 net.cpp:150] Setting up relu5_2
I0601 16:21:00.347080  3200 net.cpp:157] Top shape: 4 512 19 19 (739328)
I0601 16:21:00.347082  3200 net.cpp:165] Memory required for data: 875655200
I0601 16:21:00.347084  3200 layer_factory.hpp:77] Creating layer conv5_3
I0601 16:21:00.347107  3200 net.cpp:100] Creating Layer conv5_3
I0601 16:21:00.347110  3200 net.cpp:434] conv5_3 <- conv5_2
I0601 16:21:00.347117  3200 net.cpp:408] conv5_3 -> conv5_3
I0601 16:21:00.360962  3200 net.cpp:150] Setting up conv5_3
I0601 16:21:00.360978  3200 net.cpp:157] Top shape: 4 512 19 19 (739328)
I0601 16:21:00.360981  3200 net.cpp:165] Memory required for data: 878612512
I0601 16:21:00.360987  3200 layer_factory.hpp:77] Creating layer relu5_3
I0601 16:21:00.361011  3200 net.cpp:100] Creating Layer relu5_3
I0601 16:21:00.361016  3200 net.cpp:434] relu5_3 <- conv5_3
I0601 16:21:00.361021  3200 net.cpp:395] relu5_3 -> conv5_3 (in-place)
I0601 16:21:00.361168  3200 net.cpp:150] Setting up relu5_3
I0601 16:21:00.361174  3200 net.cpp:157] Top shape: 4 512 19 19 (739328)
I0601 16:21:00.361176  3200 net.cpp:165] Memory required for data: 881569824
I0601 16:21:00.361179  3200 layer_factory.hpp:77] Creating layer pool5
I0601 16:21:00.361186  3200 net.cpp:100] Creating Layer pool5
I0601 16:21:00.361202  3200 net.cpp:434] pool5 <- conv5_3
I0601 16:21:00.361207  3200 net.cpp:408] pool5 -> pool5
I0601 16:21:00.361266  3200 net.cpp:150] Setting up pool5
I0601 16:21:00.361271  3200 net.cpp:157] Top shape: 4 512 19 19 (739328)
I0601 16:21:00.361274  3200 net.cpp:165] Memory required for data: 884527136
I0601 16:21:00.361275  3200 layer_factory.hpp:77] Creating layer fc6
I0601 16:21:00.361284  3200 net.cpp:100] Creating Layer fc6
I0601 16:21:00.361301  3200 net.cpp:434] fc6 <- pool5
I0601 16:21:00.361306  3200 net.cpp:408] fc6 -> fc6
I0601 16:21:00.385160  3200 net.cpp:150] Setting up fc6
I0601 16:21:00.385179  3200 net.cpp:157] Top shape: 4 1024 19 19 (1478656)
I0601 16:21:00.385180  3200 net.cpp:165] Memory required for data: 890441760
I0601 16:21:00.385186  3200 layer_factory.hpp:77] Creating layer relu6
I0601 16:21:00.385208  3200 net.cpp:100] Creating Layer relu6
I0601 16:21:00.385212  3200 net.cpp:434] relu6 <- fc6
I0601 16:21:00.385217  3200 net.cpp:395] relu6 -> fc6 (in-place)
I0601 16:21:00.386272  3200 net.cpp:150] Setting up relu6
I0601 16:21:00.386282  3200 net.cpp:157] Top shape: 4 1024 19 19 (1478656)
I0601 16:21:00.386294  3200 net.cpp:165] Memory required for data: 896356384
I0601 16:21:00.386297  3200 layer_factory.hpp:77] Creating layer fc7
I0601 16:21:00.386308  3200 net.cpp:100] Creating Layer fc7
I0601 16:21:00.386312  3200 net.cpp:434] fc7 <- fc6
I0601 16:21:00.386317  3200 net.cpp:408] fc7 -> fc7
I0601 16:21:00.392899  3200 net.cpp:150] Setting up fc7
I0601 16:21:00.392917  3200 net.cpp:157] Top shape: 4 1024 19 19 (1478656)
I0601 16:21:00.392920  3200 net.cpp:165] Memory required for data: 902271008
I0601 16:21:00.392928  3200 layer_factory.hpp:77] Creating layer relu7
I0601 16:21:00.392935  3200 net.cpp:100] Creating Layer relu7
I0601 16:21:00.392940  3200 net.cpp:434] relu7 <- fc7
I0601 16:21:00.392945  3200 net.cpp:395] relu7 -> fc7 (in-place)
I0601 16:21:00.393090  3200 net.cpp:150] Setting up relu7
I0601 16:21:00.393098  3200 net.cpp:157] Top shape: 4 1024 19 19 (1478656)
I0601 16:21:00.393101  3200 net.cpp:165] Memory required for data: 908185632
I0601 16:21:00.393118  3200 layer_factory.hpp:77] Creating layer fc7_relu7_0_split
I0601 16:21:00.393126  3200 net.cpp:100] Creating Layer fc7_relu7_0_split
I0601 16:21:00.393131  3200 net.cpp:434] fc7_relu7_0_split <- fc7
I0601 16:21:00.393137  3200 net.cpp:408] fc7_relu7_0_split -> fc7_relu7_0_split_0
I0601 16:21:00.393143  3200 net.cpp:408] fc7_relu7_0_split -> fc7_relu7_0_split_1
I0601 16:21:00.393167  3200 net.cpp:408] fc7_relu7_0_split -> fc7_relu7_0_split_2
I0601 16:21:00.393173  3200 net.cpp:408] fc7_relu7_0_split -> fc7_relu7_0_split_3
I0601 16:21:00.393235  3200 net.cpp:150] Setting up fc7_relu7_0_split
I0601 16:21:00.393241  3200 net.cpp:157] Top shape: 4 1024 19 19 (1478656)
I0601 16:21:00.393245  3200 net.cpp:157] Top shape: 4 1024 19 19 (1478656)
I0601 16:21:00.393249  3200 net.cpp:157] Top shape: 4 1024 19 19 (1478656)
I0601 16:21:00.393251  3200 net.cpp:157] Top shape: 4 1024 19 19 (1478656)
I0601 16:21:00.393252  3200 net.cpp:165] Memory required for data: 931844128
I0601 16:21:00.393255  3200 layer_factory.hpp:77] Creating layer conv6_1
I0601 16:21:00.393265  3200 net.cpp:100] Creating Layer conv6_1
I0601 16:21:00.393267  3200 net.cpp:434] conv6_1 <- fc7_relu7_0_split_0
I0601 16:21:00.393272  3200 net.cpp:408] conv6_1 -> conv6_1
I0601 16:21:00.396894  3200 net.cpp:150] Setting up conv6_1
I0601 16:21:00.396912  3200 net.cpp:157] Top shape: 4 256 19 19 (369664)
I0601 16:21:00.396915  3200 net.cpp:165] Memory required for data: 933322784
I0601 16:21:00.396924  3200 layer_factory.hpp:77] Creating layer conv6_1_relu
I0601 16:21:00.396930  3200 net.cpp:100] Creating Layer conv6_1_relu
I0601 16:21:00.396934  3200 net.cpp:434] conv6_1_relu <- conv6_1
I0601 16:21:00.396940  3200 net.cpp:395] conv6_1_relu -> conv6_1 (in-place)
I0601 16:21:00.397080  3200 net.cpp:150] Setting up conv6_1_relu
I0601 16:21:00.397089  3200 net.cpp:157] Top shape: 4 256 19 19 (369664)
I0601 16:21:00.397094  3200 net.cpp:165] Memory required for data: 934801440
I0601 16:21:00.397096  3200 layer_factory.hpp:77] Creating layer conv6_2
I0601 16:21:00.397110  3200 net.cpp:100] Creating Layer conv6_2
I0601 16:21:00.397115  3200 net.cpp:434] conv6_2 <- conv6_1
I0601 16:21:00.397125  3200 net.cpp:408] conv6_2 -> conv6_2
I0601 16:21:00.404741  3200 net.cpp:150] Setting up conv6_2
I0601 16:21:00.404760  3200 net.cpp:157] Top shape: 4 512 10 10 (204800)
I0601 16:21:00.404763  3200 net.cpp:165] Memory required for data: 935620640
I0601 16:21:00.404779  3200 layer_factory.hpp:77] Creating layer conv6_2_relu
I0601 16:21:00.404804  3200 net.cpp:100] Creating Layer conv6_2_relu
I0601 16:21:00.404825  3200 net.cpp:434] conv6_2_relu <- conv6_2
I0601 16:21:00.404834  3200 net.cpp:395] conv6_2_relu -> conv6_2 (in-place)
I0601 16:21:00.404986  3200 net.cpp:150] Setting up conv6_2_relu
I0601 16:21:00.404994  3200 net.cpp:157] Top shape: 4 512 10 10 (204800)
I0601 16:21:00.404997  3200 net.cpp:165] Memory required for data: 936439840
I0601 16:21:00.405001  3200 layer_factory.hpp:77] Creating layer conv6_2_conv6_2_relu_0_split
I0601 16:21:00.405010  3200 net.cpp:100] Creating Layer conv6_2_conv6_2_relu_0_split
I0601 16:21:00.405038  3200 net.cpp:434] conv6_2_conv6_2_relu_0_split <- conv6_2
I0601 16:21:00.405047  3200 net.cpp:408] conv6_2_conv6_2_relu_0_split -> conv6_2_conv6_2_relu_0_split_0
I0601 16:21:00.405056  3200 net.cpp:408] conv6_2_conv6_2_relu_0_split -> conv6_2_conv6_2_relu_0_split_1
I0601 16:21:00.405066  3200 net.cpp:408] conv6_2_conv6_2_relu_0_split -> conv6_2_conv6_2_relu_0_split_2
I0601 16:21:00.405073  3200 net.cpp:408] conv6_2_conv6_2_relu_0_split -> conv6_2_conv6_2_relu_0_split_3
I0601 16:21:00.405158  3200 net.cpp:150] Setting up conv6_2_conv6_2_relu_0_split
I0601 16:21:00.405164  3200 net.cpp:157] Top shape: 4 512 10 10 (204800)
I0601 16:21:00.405170  3200 net.cpp:157] Top shape: 4 512 10 10 (204800)
I0601 16:21:00.405175  3200 net.cpp:157] Top shape: 4 512 10 10 (204800)
I0601 16:21:00.405180  3200 net.cpp:157] Top shape: 4 512 10 10 (204800)
I0601 16:21:00.405184  3200 net.cpp:165] Memory required for data: 939716640
I0601 16:21:00.405189  3200 layer_factory.hpp:77] Creating layer conv7_1
I0601 16:21:00.405200  3200 net.cpp:100] Creating Layer conv7_1
I0601 16:21:00.405205  3200 net.cpp:434] conv7_1 <- conv6_2_conv6_2_relu_0_split_0
I0601 16:21:00.405213  3200 net.cpp:408] conv7_1 -> conv7_1
I0601 16:21:00.406663  3200 net.cpp:150] Setting up conv7_1
I0601 16:21:00.406674  3200 net.cpp:157] Top shape: 4 128 10 10 (51200)
I0601 16:21:00.406678  3200 net.cpp:165] Memory required for data: 939921440
I0601 16:21:00.406685  3200 layer_factory.hpp:77] Creating layer conv7_1_relu
I0601 16:21:00.406693  3200 net.cpp:100] Creating Layer conv7_1_relu
I0601 16:21:00.406698  3200 net.cpp:434] conv7_1_relu <- conv7_1
I0601 16:21:00.406705  3200 net.cpp:395] conv7_1_relu -> conv7_1 (in-place)
I0601 16:21:00.406843  3200 net.cpp:150] Setting up conv7_1_relu
I0601 16:21:00.406853  3200 net.cpp:157] Top shape: 4 128 10 10 (51200)
I0601 16:21:00.406857  3200 net.cpp:165] Memory required for data: 940126240
I0601 16:21:00.406860  3200 layer_factory.hpp:77] Creating layer conv7_2
I0601 16:21:00.406870  3200 net.cpp:100] Creating Layer conv7_2
I0601 16:21:00.406877  3200 net.cpp:434] conv7_2 <- conv7_1
I0601 16:21:00.406884  3200 net.cpp:408] conv7_2 -> conv7_2
I0601 16:21:00.409921  3200 net.cpp:150] Setting up conv7_2
I0601 16:21:00.409937  3200 net.cpp:157] Top shape: 4 256 5 5 (25600)
I0601 16:21:00.409942  3200 net.cpp:165] Memory required for data: 940228640
I0601 16:21:00.409950  3200 layer_factory.hpp:77] Creating layer conv7_2_relu
I0601 16:21:00.409958  3200 net.cpp:100] Creating Layer conv7_2_relu
I0601 16:21:00.409963  3200 net.cpp:434] conv7_2_relu <- conv7_2
I0601 16:21:00.409971  3200 net.cpp:395] conv7_2_relu -> conv7_2 (in-place)
I0601 16:21:00.410125  3200 net.cpp:150] Setting up conv7_2_relu
I0601 16:21:00.410135  3200 net.cpp:157] Top shape: 4 256 5 5 (25600)
I0601 16:21:00.410138  3200 net.cpp:165] Memory required for data: 940331040
I0601 16:21:00.410142  3200 layer_factory.hpp:77] Creating layer conv7_2_conv7_2_relu_0_split
I0601 16:21:00.410148  3200 net.cpp:100] Creating Layer conv7_2_conv7_2_relu_0_split
I0601 16:21:00.410152  3200 net.cpp:434] conv7_2_conv7_2_relu_0_split <- conv7_2
I0601 16:21:00.410161  3200 net.cpp:408] conv7_2_conv7_2_relu_0_split -> conv7_2_conv7_2_relu_0_split_0
I0601 16:21:00.410171  3200 net.cpp:408] conv7_2_conv7_2_relu_0_split -> conv7_2_conv7_2_relu_0_split_1
I0601 16:21:00.410179  3200 net.cpp:408] conv7_2_conv7_2_relu_0_split -> conv7_2_conv7_2_relu_0_split_2
I0601 16:21:00.410187  3200 net.cpp:408] conv7_2_conv7_2_relu_0_split -> conv7_2_conv7_2_relu_0_split_3
I0601 16:21:00.410254  3200 net.cpp:150] Setting up conv7_2_conv7_2_relu_0_split
I0601 16:21:00.410261  3200 net.cpp:157] Top shape: 4 256 5 5 (25600)
I0601 16:21:00.410267  3200 net.cpp:157] Top shape: 4 256 5 5 (25600)
I0601 16:21:00.410274  3200 net.cpp:157] Top shape: 4 256 5 5 (25600)
I0601 16:21:00.410279  3200 net.cpp:157] Top shape: 4 256 5 5 (25600)
I0601 16:21:00.410282  3200 net.cpp:165] Memory required for data: 940740640
I0601 16:21:00.410287  3200 layer_factory.hpp:77] Creating layer conv8_1
I0601 16:21:00.410307  3200 net.cpp:100] Creating Layer conv8_1
I0601 16:21:00.410312  3200 net.cpp:434] conv8_1 <- conv7_2_conv7_2_relu_0_split_0
I0601 16:21:00.410321  3200 net.cpp:408] conv8_1 -> conv8_1
I0601 16:21:00.411584  3200 net.cpp:150] Setting up conv8_1
I0601 16:21:00.411595  3200 net.cpp:157] Top shape: 4 128 5 5 (12800)
I0601 16:21:00.411599  3200 net.cpp:165] Memory required for data: 940791840
I0601 16:21:00.411607  3200 layer_factory.hpp:77] Creating layer conv8_1_relu
I0601 16:21:00.411615  3200 net.cpp:100] Creating Layer conv8_1_relu
I0601 16:21:00.411620  3200 net.cpp:434] conv8_1_relu <- conv8_1
I0601 16:21:00.411626  3200 net.cpp:395] conv8_1_relu -> conv8_1 (in-place)
I0601 16:21:00.412261  3200 net.cpp:150] Setting up conv8_1_relu
I0601 16:21:00.412274  3200 net.cpp:157] Top shape: 4 128 5 5 (12800)
I0601 16:21:00.412278  3200 net.cpp:165] Memory required for data: 940843040
I0601 16:21:00.412282  3200 layer_factory.hpp:77] Creating layer conv8_2
I0601 16:21:00.412292  3200 net.cpp:100] Creating Layer conv8_2
I0601 16:21:00.412297  3200 net.cpp:434] conv8_2 <- conv8_1
I0601 16:21:00.412303  3200 net.cpp:408] conv8_2 -> conv8_2
I0601 16:21:00.415627  3200 net.cpp:150] Setting up conv8_2
I0601 16:21:00.415644  3200 net.cpp:157] Top shape: 4 256 3 3 (9216)
I0601 16:21:00.415649  3200 net.cpp:165] Memory required for data: 940879904
I0601 16:21:00.415657  3200 layer_factory.hpp:77] Creating layer conv8_2_relu
I0601 16:21:00.415665  3200 net.cpp:100] Creating Layer conv8_2_relu
I0601 16:21:00.415673  3200 net.cpp:434] conv8_2_relu <- conv8_2
I0601 16:21:00.415679  3200 net.cpp:395] conv8_2_relu -> conv8_2 (in-place)
I0601 16:21:00.415822  3200 net.cpp:150] Setting up conv8_2_relu
I0601 16:21:00.415832  3200 net.cpp:157] Top shape: 4 256 3 3 (9216)
I0601 16:21:00.415834  3200 net.cpp:165] Memory required for data: 940916768
I0601 16:21:00.415839  3200 layer_factory.hpp:77] Creating layer conv8_2_conv8_2_relu_0_split
I0601 16:21:00.415845  3200 net.cpp:100] Creating Layer conv8_2_conv8_2_relu_0_split
I0601 16:21:00.415850  3200 net.cpp:434] conv8_2_conv8_2_relu_0_split <- conv8_2
I0601 16:21:00.415858  3200 net.cpp:408] conv8_2_conv8_2_relu_0_split -> conv8_2_conv8_2_relu_0_split_0
I0601 16:21:00.415868  3200 net.cpp:408] conv8_2_conv8_2_relu_0_split -> conv8_2_conv8_2_relu_0_split_1
I0601 16:21:00.415877  3200 net.cpp:408] conv8_2_conv8_2_relu_0_split -> conv8_2_conv8_2_relu_0_split_2
I0601 16:21:00.415886  3200 net.cpp:408] conv8_2_conv8_2_relu_0_split -> conv8_2_conv8_2_relu_0_split_3
I0601 16:21:00.415956  3200 net.cpp:150] Setting up conv8_2_conv8_2_relu_0_split
I0601 16:21:00.415963  3200 net.cpp:157] Top shape: 4 256 3 3 (9216)
I0601 16:21:00.415968  3200 net.cpp:157] Top shape: 4 256 3 3 (9216)
I0601 16:21:00.415973  3200 net.cpp:157] Top shape: 4 256 3 3 (9216)
I0601 16:21:00.415978  3200 net.cpp:157] Top shape: 4 256 3 3 (9216)
I0601 16:21:00.415982  3200 net.cpp:165] Memory required for data: 941064224
I0601 16:21:00.415987  3200 layer_factory.hpp:77] Creating layer conv9_1
I0601 16:21:00.415998  3200 net.cpp:100] Creating Layer conv9_1
I0601 16:21:00.416003  3200 net.cpp:434] conv9_1 <- conv8_2_conv8_2_relu_0_split_0
I0601 16:21:00.416013  3200 net.cpp:408] conv9_1 -> conv9_1
I0601 16:21:00.417373  3200 net.cpp:150] Setting up conv9_1
I0601 16:21:00.417387  3200 net.cpp:157] Top shape: 4 128 3 3 (4608)
I0601 16:21:00.417392  3200 net.cpp:165] Memory required for data: 941082656
I0601 16:21:00.417400  3200 layer_factory.hpp:77] Creating layer conv9_1_relu
I0601 16:21:00.417409  3200 net.cpp:100] Creating Layer conv9_1_relu
I0601 16:21:00.417415  3200 net.cpp:434] conv9_1_relu <- conv9_1
I0601 16:21:00.417421  3200 net.cpp:395] conv9_1_relu -> conv9_1 (in-place)
I0601 16:21:00.417568  3200 net.cpp:150] Setting up conv9_1_relu
I0601 16:21:00.417577  3200 net.cpp:157] Top shape: 4 128 3 3 (4608)
I0601 16:21:00.417580  3200 net.cpp:165] Memory required for data: 941101088
I0601 16:21:00.417584  3200 layer_factory.hpp:77] Creating layer conv9_2
I0601 16:21:00.417606  3200 net.cpp:100] Creating Layer conv9_2
I0601 16:21:00.417613  3200 net.cpp:434] conv9_2 <- conv9_1
I0601 16:21:00.417621  3200 net.cpp:408] conv9_2 -> conv9_2
I0601 16:21:00.420755  3200 net.cpp:150] Setting up conv9_2
I0601 16:21:00.420771  3200 net.cpp:157] Top shape: 4 256 1 1 (1024)
I0601 16:21:00.420775  3200 net.cpp:165] Memory required for data: 941105184
I0601 16:21:00.420783  3200 layer_factory.hpp:77] Creating layer conv9_2_relu
I0601 16:21:00.420792  3200 net.cpp:100] Creating Layer conv9_2_relu
I0601 16:21:00.420799  3200 net.cpp:434] conv9_2_relu <- conv9_2
I0601 16:21:00.420806  3200 net.cpp:395] conv9_2_relu -> conv9_2 (in-place)
I0601 16:21:00.420945  3200 net.cpp:150] Setting up conv9_2_relu
I0601 16:21:00.420954  3200 net.cpp:157] Top shape: 4 256 1 1 (1024)
I0601 16:21:00.420958  3200 net.cpp:165] Memory required for data: 941109280
I0601 16:21:00.420961  3200 layer_factory.hpp:77] Creating layer conv9_2_conv9_2_relu_0_split
I0601 16:21:00.420982  3200 net.cpp:100] Creating Layer conv9_2_conv9_2_relu_0_split
I0601 16:21:00.421002  3200 net.cpp:434] conv9_2_conv9_2_relu_0_split <- conv9_2
I0601 16:21:00.421008  3200 net.cpp:408] conv9_2_conv9_2_relu_0_split -> conv9_2_conv9_2_relu_0_split_0
I0601 16:21:00.421018  3200 net.cpp:408] conv9_2_conv9_2_relu_0_split -> conv9_2_conv9_2_relu_0_split_1
I0601 16:21:00.421041  3200 net.cpp:408] conv9_2_conv9_2_relu_0_split -> conv9_2_conv9_2_relu_0_split_2
I0601 16:21:00.421097  3200 net.cpp:150] Setting up conv9_2_conv9_2_relu_0_split
I0601 16:21:00.421104  3200 net.cpp:157] Top shape: 4 256 1 1 (1024)
I0601 16:21:00.421109  3200 net.cpp:157] Top shape: 4 256 1 1 (1024)
I0601 16:21:00.421114  3200 net.cpp:157] Top shape: 4 256 1 1 (1024)
I0601 16:21:00.421118  3200 net.cpp:165] Memory required for data: 941121568
I0601 16:21:00.421123  3200 layer_factory.hpp:77] Creating layer conv4_3_norm
I0601 16:21:00.421129  3200 net.cpp:100] Creating Layer conv4_3_norm
I0601 16:21:00.421134  3200 net.cpp:434] conv4_3_norm <- conv4_3_relu4_3_0_split_1
I0601 16:21:00.421144  3200 net.cpp:408] conv4_3_norm -> conv4_3_norm
I0601 16:21:00.421303  3200 net.cpp:150] Setting up conv4_3_norm
I0601 16:21:00.421310  3200 net.cpp:157] Top shape: 4 512 38 38 (2957312)
I0601 16:21:00.421314  3200 net.cpp:165] Memory required for data: 952950816
I0601 16:21:00.421319  3200 layer_factory.hpp:77] Creating layer conv4_3_norm_conv4_3_norm_0_split
I0601 16:21:00.421326  3200 net.cpp:100] Creating Layer conv4_3_norm_conv4_3_norm_0_split
I0601 16:21:00.421331  3200 net.cpp:434] conv4_3_norm_conv4_3_norm_0_split <- conv4_3_norm
I0601 16:21:00.421339  3200 net.cpp:408] conv4_3_norm_conv4_3_norm_0_split -> conv4_3_norm_conv4_3_norm_0_split_0
I0601 16:21:00.421347  3200 net.cpp:408] conv4_3_norm_conv4_3_norm_0_split -> conv4_3_norm_conv4_3_norm_0_split_1
I0601 16:21:00.421355  3200 net.cpp:408] conv4_3_norm_conv4_3_norm_0_split -> conv4_3_norm_conv4_3_norm_0_split_2
I0601 16:21:00.421402  3200 net.cpp:150] Setting up conv4_3_norm_conv4_3_norm_0_split
I0601 16:21:00.421408  3200 net.cpp:157] Top shape: 4 512 38 38 (2957312)
I0601 16:21:00.421414  3200 net.cpp:157] Top shape: 4 512 38 38 (2957312)
I0601 16:21:00.421421  3200 net.cpp:157] Top shape: 4 512 38 38 (2957312)
I0601 16:21:00.421424  3200 net.cpp:165] Memory required for data: 988438560
I0601 16:21:00.421427  3200 layer_factory.hpp:77] Creating layer conv4_3_norm_mbox_loc
I0601 16:21:00.421442  3200 net.cpp:100] Creating Layer conv4_3_norm_mbox_loc
I0601 16:21:00.421447  3200 net.cpp:434] conv4_3_norm_mbox_loc <- conv4_3_norm_conv4_3_norm_0_split_0
I0601 16:21:00.421453  3200 net.cpp:408] conv4_3_norm_mbox_loc -> conv4_3_norm_mbox_loc
I0601 16:21:00.423367  3200 net.cpp:150] Setting up conv4_3_norm_mbox_loc
I0601 16:21:00.423377  3200 net.cpp:157] Top shape: 4 16 38 38 (92416)
I0601 16:21:00.423382  3200 net.cpp:165] Memory required for data: 988808224
I0601 16:21:00.423388  3200 layer_factory.hpp:77] Creating layer conv4_3_norm_mbox_loc_perm
I0601 16:21:00.423399  3200 net.cpp:100] Creating Layer conv4_3_norm_mbox_loc_perm
I0601 16:21:00.423416  3200 net.cpp:434] conv4_3_norm_mbox_loc_perm <- conv4_3_norm_mbox_loc
I0601 16:21:00.423424  3200 net.cpp:408] conv4_3_norm_mbox_loc_perm -> conv4_3_norm_mbox_loc_perm
I0601 16:21:00.423527  3200 net.cpp:150] Setting up conv4_3_norm_mbox_loc_perm
I0601 16:21:00.423534  3200 net.cpp:157] Top shape: 4 38 38 16 (92416)
I0601 16:21:00.423538  3200 net.cpp:165] Memory required for data: 989177888
I0601 16:21:00.423543  3200 layer_factory.hpp:77] Creating layer conv4_3_norm_mbox_loc_flat
I0601 16:21:00.423550  3200 net.cpp:100] Creating Layer conv4_3_norm_mbox_loc_flat
I0601 16:21:00.423555  3200 net.cpp:434] conv4_3_norm_mbox_loc_flat <- conv4_3_norm_mbox_loc_perm
I0601 16:21:00.423563  3200 net.cpp:408] conv4_3_norm_mbox_loc_flat -> conv4_3_norm_mbox_loc_flat
I0601 16:21:00.423599  3200 net.cpp:150] Setting up conv4_3_norm_mbox_loc_flat
I0601 16:21:00.423606  3200 net.cpp:157] Top shape: 4 23104 (92416)
I0601 16:21:00.423610  3200 net.cpp:165] Memory required for data: 989547552
I0601 16:21:00.423614  3200 layer_factory.hpp:77] Creating layer conv4_3_norm_mbox_conf
I0601 16:21:00.423629  3200 net.cpp:100] Creating Layer conv4_3_norm_mbox_conf
I0601 16:21:00.423632  3200 net.cpp:434] conv4_3_norm_mbox_conf <- conv4_3_norm_conv4_3_norm_0_split_1
I0601 16:21:00.423640  3200 net.cpp:408] conv4_3_norm_mbox_conf -> conv4_3_norm_mbox_conf
I0601 16:21:00.425536  3200 net.cpp:150] Setting up conv4_3_norm_mbox_conf
I0601 16:21:00.425549  3200 net.cpp:157] Top shape: 4 16 38 38 (92416)
I0601 16:21:00.425552  3200 net.cpp:165] Memory required for data: 989917216
I0601 16:21:00.425559  3200 layer_factory.hpp:77] Creating layer conv4_3_norm_mbox_conf_perm
I0601 16:21:00.425568  3200 net.cpp:100] Creating Layer conv4_3_norm_mbox_conf_perm
I0601 16:21:00.425575  3200 net.cpp:434] conv4_3_norm_mbox_conf_perm <- conv4_3_norm_mbox_conf
I0601 16:21:00.425582  3200 net.cpp:408] conv4_3_norm_mbox_conf_perm -> conv4_3_norm_mbox_conf_perm
I0601 16:21:00.425688  3200 net.cpp:150] Setting up conv4_3_norm_mbox_conf_perm
I0601 16:21:00.425694  3200 net.cpp:157] Top shape: 4 38 38 16 (92416)
I0601 16:21:00.425699  3200 net.cpp:165] Memory required for data: 990286880
I0601 16:21:00.425704  3200 layer_factory.hpp:77] Creating layer conv4_3_norm_mbox_conf_flat
I0601 16:21:00.425709  3200 net.cpp:100] Creating Layer conv4_3_norm_mbox_conf_flat
I0601 16:21:00.425714  3200 net.cpp:434] conv4_3_norm_mbox_conf_flat <- conv4_3_norm_mbox_conf_perm
I0601 16:21:00.425721  3200 net.cpp:408] conv4_3_norm_mbox_conf_flat -> conv4_3_norm_mbox_conf_flat
I0601 16:21:00.425747  3200 net.cpp:150] Setting up conv4_3_norm_mbox_conf_flat
I0601 16:21:00.425755  3200 net.cpp:157] Top shape: 4 23104 (92416)
I0601 16:21:00.425758  3200 net.cpp:165] Memory required for data: 990656544
I0601 16:21:00.425762  3200 layer_factory.hpp:77] Creating layer conv4_3_norm_mbox_priorbox
I0601 16:21:00.425770  3200 net.cpp:100] Creating Layer conv4_3_norm_mbox_priorbox
I0601 16:21:00.425775  3200 net.cpp:434] conv4_3_norm_mbox_priorbox <- conv4_3_norm_conv4_3_norm_0_split_2
I0601 16:21:00.425779  3200 net.cpp:434] conv4_3_norm_mbox_priorbox <- data_data_0_split_1
I0601 16:21:00.425789  3200 net.cpp:408] conv4_3_norm_mbox_priorbox -> conv4_3_norm_mbox_priorbox
I0601 16:21:00.425817  3200 net.cpp:150] Setting up conv4_3_norm_mbox_priorbox
I0601 16:21:00.425825  3200 net.cpp:157] Top shape: 1 2 23104 (46208)
I0601 16:21:00.425828  3200 net.cpp:165] Memory required for data: 990841376
I0601 16:21:00.425833  3200 layer_factory.hpp:77] Creating layer fc7_mbox_loc
I0601 16:21:00.425844  3200 net.cpp:100] Creating Layer fc7_mbox_loc
I0601 16:21:00.425849  3200 net.cpp:434] fc7_mbox_loc <- fc7_relu7_0_split_1
I0601 16:21:00.425856  3200 net.cpp:408] fc7_mbox_loc -> fc7_mbox_loc
I0601 16:21:00.428344  3200 net.cpp:150] Setting up fc7_mbox_loc
I0601 16:21:00.428355  3200 net.cpp:157] Top shape: 4 24 19 19 (34656)
I0601 16:21:00.428359  3200 net.cpp:165] Memory required for data: 990980000
I0601 16:21:00.428366  3200 layer_factory.hpp:77] Creating layer fc7_mbox_loc_perm
I0601 16:21:00.428376  3200 net.cpp:100] Creating Layer fc7_mbox_loc_perm
I0601 16:21:00.428388  3200 net.cpp:434] fc7_mbox_loc_perm <- fc7_mbox_loc
I0601 16:21:00.428396  3200 net.cpp:408] fc7_mbox_loc_perm -> fc7_mbox_loc_perm
I0601 16:21:00.428500  3200 net.cpp:150] Setting up fc7_mbox_loc_perm
I0601 16:21:00.428508  3200 net.cpp:157] Top shape: 4 19 19 24 (34656)
I0601 16:21:00.428511  3200 net.cpp:165] Memory required for data: 991118624
I0601 16:21:00.428515  3200 layer_factory.hpp:77] Creating layer fc7_mbox_loc_flat
I0601 16:21:00.428522  3200 net.cpp:100] Creating Layer fc7_mbox_loc_flat
I0601 16:21:00.428529  3200 net.cpp:434] fc7_mbox_loc_flat <- fc7_mbox_loc_perm
I0601 16:21:00.428534  3200 net.cpp:408] fc7_mbox_loc_flat -> fc7_mbox_loc_flat
I0601 16:21:00.428560  3200 net.cpp:150] Setting up fc7_mbox_loc_flat
I0601 16:21:00.428566  3200 net.cpp:157] Top shape: 4 8664 (34656)
I0601 16:21:00.428570  3200 net.cpp:165] Memory required for data: 991257248
I0601 16:21:00.428575  3200 layer_factory.hpp:77] Creating layer fc7_mbox_conf
I0601 16:21:00.428583  3200 net.cpp:100] Creating Layer fc7_mbox_conf
I0601 16:21:00.428588  3200 net.cpp:434] fc7_mbox_conf <- fc7_relu7_0_split_2
I0601 16:21:00.428596  3200 net.cpp:408] fc7_mbox_conf -> fc7_mbox_conf
I0601 16:21:00.431468  3200 net.cpp:150] Setting up fc7_mbox_conf
I0601 16:21:00.431484  3200 net.cpp:157] Top shape: 4 24 19 19 (34656)
I0601 16:21:00.431488  3200 net.cpp:165] Memory required for data: 991395872
I0601 16:21:00.431496  3200 layer_factory.hpp:77] Creating layer fc7_mbox_conf_perm
I0601 16:21:00.431521  3200 net.cpp:100] Creating Layer fc7_mbox_conf_perm
I0601 16:21:00.431541  3200 net.cpp:434] fc7_mbox_conf_perm <- fc7_mbox_conf
I0601 16:21:00.431550  3200 net.cpp:408] fc7_mbox_conf_perm -> fc7_mbox_conf_perm
I0601 16:21:00.431658  3200 net.cpp:150] Setting up fc7_mbox_conf_perm
I0601 16:21:00.431666  3200 net.cpp:157] Top shape: 4 19 19 24 (34656)
I0601 16:21:00.431670  3200 net.cpp:165] Memory required for data: 991534496
I0601 16:21:00.431674  3200 layer_factory.hpp:77] Creating layer fc7_mbox_conf_flat
I0601 16:21:00.431681  3200 net.cpp:100] Creating Layer fc7_mbox_conf_flat
I0601 16:21:00.431686  3200 net.cpp:434] fc7_mbox_conf_flat <- fc7_mbox_conf_perm
I0601 16:21:00.431692  3200 net.cpp:408] fc7_mbox_conf_flat -> fc7_mbox_conf_flat
I0601 16:21:00.431720  3200 net.cpp:150] Setting up fc7_mbox_conf_flat
I0601 16:21:00.431725  3200 net.cpp:157] Top shape: 4 8664 (34656)
I0601 16:21:00.431730  3200 net.cpp:165] Memory required for data: 991673120
I0601 16:21:00.431733  3200 layer_factory.hpp:77] Creating layer fc7_mbox_priorbox
I0601 16:21:00.431741  3200 net.cpp:100] Creating Layer fc7_mbox_priorbox
I0601 16:21:00.431746  3200 net.cpp:434] fc7_mbox_priorbox <- fc7_relu7_0_split_3
I0601 16:21:00.431751  3200 net.cpp:434] fc7_mbox_priorbox <- data_data_0_split_2
I0601 16:21:00.431759  3200 net.cpp:408] fc7_mbox_priorbox -> fc7_mbox_priorbox
I0601 16:21:00.431790  3200 net.cpp:150] Setting up fc7_mbox_priorbox
I0601 16:21:00.431797  3200 net.cpp:157] Top shape: 1 2 8664 (17328)
I0601 16:21:00.431802  3200 net.cpp:165] Memory required for data: 991742432
I0601 16:21:00.431807  3200 layer_factory.hpp:77] Creating layer conv6_2_mbox_loc
I0601 16:21:00.431818  3200 net.cpp:100] Creating Layer conv6_2_mbox_loc
I0601 16:21:00.431823  3200 net.cpp:434] conv6_2_mbox_loc <- conv6_2_conv6_2_relu_0_split_1
I0601 16:21:00.431831  3200 net.cpp:408] conv6_2_mbox_loc -> conv6_2_mbox_loc
I0601 16:21:00.433982  3200 net.cpp:150] Setting up conv6_2_mbox_loc
I0601 16:21:00.433993  3200 net.cpp:157] Top shape: 4 24 10 10 (9600)
I0601 16:21:00.433997  3200 net.cpp:165] Memory required for data: 991780832
I0601 16:21:00.434005  3200 layer_factory.hpp:77] Creating layer conv6_2_mbox_loc_perm
I0601 16:21:00.434015  3200 net.cpp:100] Creating Layer conv6_2_mbox_loc_perm
I0601 16:21:00.434020  3200 net.cpp:434] conv6_2_mbox_loc_perm <- conv6_2_mbox_loc
I0601 16:21:00.434028  3200 net.cpp:408] conv6_2_mbox_loc_perm -> conv6_2_mbox_loc_perm
I0601 16:21:00.434137  3200 net.cpp:150] Setting up conv6_2_mbox_loc_perm
I0601 16:21:00.434152  3200 net.cpp:157] Top shape: 4 10 10 24 (9600)
I0601 16:21:00.434156  3200 net.cpp:165] Memory required for data: 991819232
I0601 16:21:00.434159  3200 layer_factory.hpp:77] Creating layer conv6_2_mbox_loc_flat
I0601 16:21:00.434166  3200 net.cpp:100] Creating Layer conv6_2_mbox_loc_flat
I0601 16:21:00.434171  3200 net.cpp:434] conv6_2_mbox_loc_flat <- conv6_2_mbox_loc_perm
I0601 16:21:00.434178  3200 net.cpp:408] conv6_2_mbox_loc_flat -> conv6_2_mbox_loc_flat
I0601 16:21:00.434208  3200 net.cpp:150] Setting up conv6_2_mbox_loc_flat
I0601 16:21:00.434216  3200 net.cpp:157] Top shape: 4 2400 (9600)
I0601 16:21:00.434218  3200 net.cpp:165] Memory required for data: 991857632
I0601 16:21:00.434222  3200 layer_factory.hpp:77] Creating layer conv6_2_mbox_conf
I0601 16:21:00.434233  3200 net.cpp:100] Creating Layer conv6_2_mbox_conf
I0601 16:21:00.434238  3200 net.cpp:434] conv6_2_mbox_conf <- conv6_2_conv6_2_relu_0_split_2
I0601 16:21:00.434247  3200 net.cpp:408] conv6_2_mbox_conf -> conv6_2_mbox_conf
I0601 16:21:00.436379  3200 net.cpp:150] Setting up conv6_2_mbox_conf
I0601 16:21:00.436390  3200 net.cpp:157] Top shape: 4 24 10 10 (9600)
I0601 16:21:00.436394  3200 net.cpp:165] Memory required for data: 991896032
I0601 16:21:00.436403  3200 layer_factory.hpp:77] Creating layer conv6_2_mbox_conf_perm
I0601 16:21:00.436411  3200 net.cpp:100] Creating Layer conv6_2_mbox_conf_perm
I0601 16:21:00.436417  3200 net.cpp:434] conv6_2_mbox_conf_perm <- conv6_2_mbox_conf
I0601 16:21:00.436425  3200 net.cpp:408] conv6_2_mbox_conf_perm -> conv6_2_mbox_conf_perm
I0601 16:21:00.436539  3200 net.cpp:150] Setting up conv6_2_mbox_conf_perm
I0601 16:21:00.436548  3200 net.cpp:157] Top shape: 4 10 10 24 (9600)
I0601 16:21:00.436552  3200 net.cpp:165] Memory required for data: 991934432
I0601 16:21:00.436554  3200 layer_factory.hpp:77] Creating layer conv6_2_mbox_conf_flat
I0601 16:21:00.436560  3200 net.cpp:100] Creating Layer conv6_2_mbox_conf_flat
I0601 16:21:00.436564  3200 net.cpp:434] conv6_2_mbox_conf_flat <- conv6_2_mbox_conf_perm
I0601 16:21:00.436570  3200 net.cpp:408] conv6_2_mbox_conf_flat -> conv6_2_mbox_conf_flat
I0601 16:21:00.436600  3200 net.cpp:150] Setting up conv6_2_mbox_conf_flat
I0601 16:21:00.436607  3200 net.cpp:157] Top shape: 4 2400 (9600)
I0601 16:21:00.436611  3200 net.cpp:165] Memory required for data: 991972832
I0601 16:21:00.436615  3200 layer_factory.hpp:77] Creating layer conv6_2_mbox_priorbox
I0601 16:21:00.436625  3200 net.cpp:100] Creating Layer conv6_2_mbox_priorbox
I0601 16:21:00.436628  3200 net.cpp:434] conv6_2_mbox_priorbox <- conv6_2_conv6_2_relu_0_split_3
I0601 16:21:00.436635  3200 net.cpp:434] conv6_2_mbox_priorbox <- data_data_0_split_3
I0601 16:21:00.436641  3200 net.cpp:408] conv6_2_mbox_priorbox -> conv6_2_mbox_priorbox
I0601 16:21:00.436673  3200 net.cpp:150] Setting up conv6_2_mbox_priorbox
I0601 16:21:00.436681  3200 net.cpp:157] Top shape: 1 2 2400 (4800)
I0601 16:21:00.436683  3200 net.cpp:165] Memory required for data: 991992032
I0601 16:21:00.436687  3200 layer_factory.hpp:77] Creating layer conv7_2_mbox_loc
I0601 16:21:00.436698  3200 net.cpp:100] Creating Layer conv7_2_mbox_loc
I0601 16:21:00.436702  3200 net.cpp:434] conv7_2_mbox_loc <- conv7_2_conv7_2_relu_0_split_1
I0601 16:21:00.436712  3200 net.cpp:408] conv7_2_mbox_loc -> conv7_2_mbox_loc
I0601 16:21:00.438171  3200 net.cpp:150] Setting up conv7_2_mbox_loc
I0601 16:21:00.438184  3200 net.cpp:157] Top shape: 4 24 5 5 (2400)
I0601 16:21:00.438186  3200 net.cpp:165] Memory required for data: 992001632
I0601 16:21:00.438194  3200 layer_factory.hpp:77] Creating layer conv7_2_mbox_loc_perm
I0601 16:21:00.438202  3200 net.cpp:100] Creating Layer conv7_2_mbox_loc_perm
I0601 16:21:00.438207  3200 net.cpp:434] conv7_2_mbox_loc_perm <- conv7_2_mbox_loc
I0601 16:21:00.438215  3200 net.cpp:408] conv7_2_mbox_loc_perm -> conv7_2_mbox_loc_perm
I0601 16:21:00.438326  3200 net.cpp:150] Setting up conv7_2_mbox_loc_perm
I0601 16:21:00.438333  3200 net.cpp:157] Top shape: 4 5 5 24 (2400)
I0601 16:21:00.438336  3200 net.cpp:165] Memory required for data: 992011232
I0601 16:21:00.438350  3200 layer_factory.hpp:77] Creating layer conv7_2_mbox_loc_flat
I0601 16:21:00.438359  3200 net.cpp:100] Creating Layer conv7_2_mbox_loc_flat
I0601 16:21:00.438364  3200 net.cpp:434] conv7_2_mbox_loc_flat <- conv7_2_mbox_loc_perm
I0601 16:21:00.438371  3200 net.cpp:408] conv7_2_mbox_loc_flat -> conv7_2_mbox_loc_flat
I0601 16:21:00.438400  3200 net.cpp:150] Setting up conv7_2_mbox_loc_flat
I0601 16:21:00.438405  3200 net.cpp:157] Top shape: 4 600 (2400)
I0601 16:21:00.438408  3200 net.cpp:165] Memory required for data: 992020832
I0601 16:21:00.438413  3200 layer_factory.hpp:77] Creating layer conv7_2_mbox_conf
I0601 16:21:00.438424  3200 net.cpp:100] Creating Layer conv7_2_mbox_conf
I0601 16:21:00.438428  3200 net.cpp:434] conv7_2_mbox_conf <- conv7_2_conv7_2_relu_0_split_2
I0601 16:21:00.438436  3200 net.cpp:408] conv7_2_mbox_conf -> conv7_2_mbox_conf
I0601 16:21:00.440269  3200 net.cpp:150] Setting up conv7_2_mbox_conf
I0601 16:21:00.440279  3200 net.cpp:157] Top shape: 4 24 5 5 (2400)
I0601 16:21:00.440284  3200 net.cpp:165] Memory required for data: 992030432
I0601 16:21:00.440290  3200 layer_factory.hpp:77] Creating layer conv7_2_mbox_conf_perm
I0601 16:21:00.440299  3200 net.cpp:100] Creating Layer conv7_2_mbox_conf_perm
I0601 16:21:00.440304  3200 net.cpp:434] conv7_2_mbox_conf_perm <- conv7_2_mbox_conf
I0601 16:21:00.440311  3200 net.cpp:408] conv7_2_mbox_conf_perm -> conv7_2_mbox_conf_perm
I0601 16:21:00.440420  3200 net.cpp:150] Setting up conv7_2_mbox_conf_perm
I0601 16:21:00.440428  3200 net.cpp:157] Top shape: 4 5 5 24 (2400)
I0601 16:21:00.440430  3200 net.cpp:165] Memory required for data: 992040032
I0601 16:21:00.440434  3200 layer_factory.hpp:77] Creating layer conv7_2_mbox_conf_flat
I0601 16:21:00.440439  3200 net.cpp:100] Creating Layer conv7_2_mbox_conf_flat
I0601 16:21:00.440446  3200 net.cpp:434] conv7_2_mbox_conf_flat <- conv7_2_mbox_conf_perm
I0601 16:21:00.440452  3200 net.cpp:408] conv7_2_mbox_conf_flat -> conv7_2_mbox_conf_flat
I0601 16:21:00.440482  3200 net.cpp:150] Setting up conv7_2_mbox_conf_flat
I0601 16:21:00.440488  3200 net.cpp:157] Top shape: 4 600 (2400)
I0601 16:21:00.440492  3200 net.cpp:165] Memory required for data: 992049632
I0601 16:21:00.440496  3200 layer_factory.hpp:77] Creating layer conv7_2_mbox_priorbox
I0601 16:21:00.440503  3200 net.cpp:100] Creating Layer conv7_2_mbox_priorbox
I0601 16:21:00.440510  3200 net.cpp:434] conv7_2_mbox_priorbox <- conv7_2_conv7_2_relu_0_split_3
I0601 16:21:00.440515  3200 net.cpp:434] conv7_2_mbox_priorbox <- data_data_0_split_4
I0601 16:21:00.440522  3200 net.cpp:408] conv7_2_mbox_priorbox -> conv7_2_mbox_priorbox
I0601 16:21:00.440556  3200 net.cpp:150] Setting up conv7_2_mbox_priorbox
I0601 16:21:00.440562  3200 net.cpp:157] Top shape: 1 2 600 (1200)
I0601 16:21:00.440565  3200 net.cpp:165] Memory required for data: 992054432
I0601 16:21:00.440569  3200 layer_factory.hpp:77] Creating layer conv8_2_mbox_loc
I0601 16:21:00.440579  3200 net.cpp:100] Creating Layer conv8_2_mbox_loc
I0601 16:21:00.440584  3200 net.cpp:434] conv8_2_mbox_loc <- conv8_2_conv8_2_relu_0_split_1
I0601 16:21:00.440595  3200 net.cpp:408] conv8_2_mbox_loc -> conv8_2_mbox_loc
I0601 16:21:00.442344  3200 net.cpp:150] Setting up conv8_2_mbox_loc
I0601 16:21:00.442354  3200 net.cpp:157] Top shape: 4 16 3 3 (576)
I0601 16:21:00.442358  3200 net.cpp:165] Memory required for data: 992056736
I0601 16:21:00.442375  3200 layer_factory.hpp:77] Creating layer conv8_2_mbox_loc_perm
I0601 16:21:00.442384  3200 net.cpp:100] Creating Layer conv8_2_mbox_loc_perm
I0601 16:21:00.442389  3200 net.cpp:434] conv8_2_mbox_loc_perm <- conv8_2_mbox_loc
I0601 16:21:00.442396  3200 net.cpp:408] conv8_2_mbox_loc_perm -> conv8_2_mbox_loc_perm
I0601 16:21:00.442505  3200 net.cpp:150] Setting up conv8_2_mbox_loc_perm
I0601 16:21:00.442512  3200 net.cpp:157] Top shape: 4 3 3 16 (576)
I0601 16:21:00.442517  3200 net.cpp:165] Memory required for data: 992059040
I0601 16:21:00.442522  3200 layer_factory.hpp:77] Creating layer conv8_2_mbox_loc_flat
I0601 16:21:00.442535  3200 net.cpp:100] Creating Layer conv8_2_mbox_loc_flat
I0601 16:21:00.442540  3200 net.cpp:434] conv8_2_mbox_loc_flat <- conv8_2_mbox_loc_perm
I0601 16:21:00.442546  3200 net.cpp:408] conv8_2_mbox_loc_flat -> conv8_2_mbox_loc_flat
I0601 16:21:00.442574  3200 net.cpp:150] Setting up conv8_2_mbox_loc_flat
I0601 16:21:00.442581  3200 net.cpp:157] Top shape: 4 144 (576)
I0601 16:21:00.442584  3200 net.cpp:165] Memory required for data: 992061344
I0601 16:21:00.442589  3200 layer_factory.hpp:77] Creating layer conv8_2_mbox_conf
I0601 16:21:00.442598  3200 net.cpp:100] Creating Layer conv8_2_mbox_conf
I0601 16:21:00.442603  3200 net.cpp:434] conv8_2_mbox_conf <- conv8_2_conv8_2_relu_0_split_2
I0601 16:21:00.442610  3200 net.cpp:408] conv8_2_mbox_conf -> conv8_2_mbox_conf
I0601 16:21:00.444361  3200 net.cpp:150] Setting up conv8_2_mbox_conf
I0601 16:21:00.444371  3200 net.cpp:157] Top shape: 4 16 3 3 (576)
I0601 16:21:00.444376  3200 net.cpp:165] Memory required for data: 992063648
I0601 16:21:00.444383  3200 layer_factory.hpp:77] Creating layer conv8_2_mbox_conf_perm
I0601 16:21:00.444392  3200 net.cpp:100] Creating Layer conv8_2_mbox_conf_perm
I0601 16:21:00.444397  3200 net.cpp:434] conv8_2_mbox_conf_perm <- conv8_2_mbox_conf
I0601 16:21:00.444406  3200 net.cpp:408] conv8_2_mbox_conf_perm -> conv8_2_mbox_conf_perm
I0601 16:21:00.444514  3200 net.cpp:150] Setting up conv8_2_mbox_conf_perm
I0601 16:21:00.444521  3200 net.cpp:157] Top shape: 4 3 3 16 (576)
I0601 16:21:00.444525  3200 net.cpp:165] Memory required for data: 992065952
I0601 16:21:00.444528  3200 layer_factory.hpp:77] Creating layer conv8_2_mbox_conf_flat
I0601 16:21:00.444535  3200 net.cpp:100] Creating Layer conv8_2_mbox_conf_flat
I0601 16:21:00.444538  3200 net.cpp:434] conv8_2_mbox_conf_flat <- conv8_2_mbox_conf_perm
I0601 16:21:00.444546  3200 net.cpp:408] conv8_2_mbox_conf_flat -> conv8_2_mbox_conf_flat
I0601 16:21:00.444574  3200 net.cpp:150] Setting up conv8_2_mbox_conf_flat
I0601 16:21:00.444581  3200 net.cpp:157] Top shape: 4 144 (576)
I0601 16:21:00.444583  3200 net.cpp:165] Memory required for data: 992068256
I0601 16:21:00.444586  3200 layer_factory.hpp:77] Creating layer conv8_2_mbox_priorbox
I0601 16:21:00.444594  3200 net.cpp:100] Creating Layer conv8_2_mbox_priorbox
I0601 16:21:00.444598  3200 net.cpp:434] conv8_2_mbox_priorbox <- conv8_2_conv8_2_relu_0_split_3
I0601 16:21:00.444604  3200 net.cpp:434] conv8_2_mbox_priorbox <- data_data_0_split_5
I0601 16:21:00.444612  3200 net.cpp:408] conv8_2_mbox_priorbox -> conv8_2_mbox_priorbox
I0601 16:21:00.444643  3200 net.cpp:150] Setting up conv8_2_mbox_priorbox
I0601 16:21:00.444648  3200 net.cpp:157] Top shape: 1 2 144 (288)
I0601 16:21:00.444651  3200 net.cpp:165] Memory required for data: 992069408
I0601 16:21:00.444655  3200 layer_factory.hpp:77] Creating layer conv9_2_mbox_loc
I0601 16:21:00.444665  3200 net.cpp:100] Creating Layer conv9_2_mbox_loc
I0601 16:21:00.444670  3200 net.cpp:434] conv9_2_mbox_loc <- conv9_2_conv9_2_relu_0_split_0
I0601 16:21:00.444677  3200 net.cpp:408] conv9_2_mbox_loc -> conv9_2_mbox_loc
I0601 16:21:00.447163  3200 net.cpp:150] Setting up conv9_2_mbox_loc
I0601 16:21:00.447178  3200 net.cpp:157] Top shape: 4 16 1 1 (64)
I0601 16:21:00.447182  3200 net.cpp:165] Memory required for data: 992069664
I0601 16:21:00.447191  3200 layer_factory.hpp:77] Creating layer conv9_2_mbox_loc_perm
I0601 16:21:00.447201  3200 net.cpp:100] Creating Layer conv9_2_mbox_loc_perm
I0601 16:21:00.447207  3200 net.cpp:434] conv9_2_mbox_loc_perm <- conv9_2_mbox_loc
I0601 16:21:00.447216  3200 net.cpp:408] conv9_2_mbox_loc_perm -> conv9_2_mbox_loc_perm
I0601 16:21:00.447347  3200 net.cpp:150] Setting up conv9_2_mbox_loc_perm
I0601 16:21:00.447355  3200 net.cpp:157] Top shape: 4 1 1 16 (64)
I0601 16:21:00.447358  3200 net.cpp:165] Memory required for data: 992069920
I0601 16:21:00.447361  3200 layer_factory.hpp:77] Creating layer conv9_2_mbox_loc_flat
I0601 16:21:00.447368  3200 net.cpp:100] Creating Layer conv9_2_mbox_loc_flat
I0601 16:21:00.447372  3200 net.cpp:434] conv9_2_mbox_loc_flat <- conv9_2_mbox_loc_perm
I0601 16:21:00.447389  3200 net.cpp:408] conv9_2_mbox_loc_flat -> conv9_2_mbox_loc_flat
I0601 16:21:00.447417  3200 net.cpp:150] Setting up conv9_2_mbox_loc_flat
I0601 16:21:00.447423  3200 net.cpp:157] Top shape: 4 16 (64)
I0601 16:21:00.447427  3200 net.cpp:165] Memory required for data: 992070176
I0601 16:21:00.447430  3200 layer_factory.hpp:77] Creating layer conv9_2_mbox_conf
I0601 16:21:00.447443  3200 net.cpp:100] Creating Layer conv9_2_mbox_conf
I0601 16:21:00.447448  3200 net.cpp:434] conv9_2_mbox_conf <- conv9_2_conv9_2_relu_0_split_1
I0601 16:21:00.447456  3200 net.cpp:408] conv9_2_mbox_conf -> conv9_2_mbox_conf
I0601 16:21:00.449300  3200 net.cpp:150] Setting up conv9_2_mbox_conf
I0601 16:21:00.449311  3200 net.cpp:157] Top shape: 4 16 1 1 (64)
I0601 16:21:00.449316  3200 net.cpp:165] Memory required for data: 992070432
I0601 16:21:00.449323  3200 layer_factory.hpp:77] Creating layer conv9_2_mbox_conf_perm
I0601 16:21:00.449334  3200 net.cpp:100] Creating Layer conv9_2_mbox_conf_perm
I0601 16:21:00.449339  3200 net.cpp:434] conv9_2_mbox_conf_perm <- conv9_2_mbox_conf
I0601 16:21:00.449347  3200 net.cpp:408] conv9_2_mbox_conf_perm -> conv9_2_mbox_conf_perm
I0601 16:21:00.449486  3200 net.cpp:150] Setting up conv9_2_mbox_conf_perm
I0601 16:21:00.449493  3200 net.cpp:157] Top shape: 4 1 1 16 (64)
I0601 16:21:00.449497  3200 net.cpp:165] Memory required for data: 992070688
I0601 16:21:00.449501  3200 layer_factory.hpp:77] Creating layer conv9_2_mbox_conf_flat
I0601 16:21:00.449508  3200 net.cpp:100] Creating Layer conv9_2_mbox_conf_flat
I0601 16:21:00.449514  3200 net.cpp:434] conv9_2_mbox_conf_flat <- conv9_2_mbox_conf_perm
I0601 16:21:00.449522  3200 net.cpp:408] conv9_2_mbox_conf_flat -> conv9_2_mbox_conf_flat
I0601 16:21:00.449548  3200 net.cpp:150] Setting up conv9_2_mbox_conf_flat
I0601 16:21:00.449554  3200 net.cpp:157] Top shape: 4 16 (64)
I0601 16:21:00.449558  3200 net.cpp:165] Memory required for data: 992070944
I0601 16:21:00.449563  3200 layer_factory.hpp:77] Creating layer conv9_2_mbox_priorbox
I0601 16:21:00.449571  3200 net.cpp:100] Creating Layer conv9_2_mbox_priorbox
I0601 16:21:00.449576  3200 net.cpp:434] conv9_2_mbox_priorbox <- conv9_2_conv9_2_relu_0_split_2
I0601 16:21:00.449581  3200 net.cpp:434] conv9_2_mbox_priorbox <- data_data_0_split_6
I0601 16:21:00.449589  3200 net.cpp:408] conv9_2_mbox_priorbox -> conv9_2_mbox_priorbox
I0601 16:21:00.449621  3200 net.cpp:150] Setting up conv9_2_mbox_priorbox
I0601 16:21:00.449627  3200 net.cpp:157] Top shape: 1 2 16 (32)
I0601 16:21:00.449631  3200 net.cpp:165] Memory required for data: 992071072
I0601 16:21:00.449635  3200 layer_factory.hpp:77] Creating layer mbox_loc
I0601 16:21:00.449645  3200 net.cpp:100] Creating Layer mbox_loc
I0601 16:21:00.449651  3200 net.cpp:434] mbox_loc <- conv4_3_norm_mbox_loc_flat
I0601 16:21:00.449656  3200 net.cpp:434] mbox_loc <- fc7_mbox_loc_flat
I0601 16:21:00.449662  3200 net.cpp:434] mbox_loc <- conv6_2_mbox_loc_flat
I0601 16:21:00.449668  3200 net.cpp:434] mbox_loc <- conv7_2_mbox_loc_flat
I0601 16:21:00.449674  3200 net.cpp:434] mbox_loc <- conv8_2_mbox_loc_flat
I0601 16:21:00.449679  3200 net.cpp:434] mbox_loc <- conv9_2_mbox_loc_flat
I0601 16:21:00.449687  3200 net.cpp:408] mbox_loc -> mbox_loc
I0601 16:21:00.449717  3200 net.cpp:150] Setting up mbox_loc
I0601 16:21:00.449724  3200 net.cpp:157] Top shape: 4 34928 (139712)
I0601 16:21:00.449728  3200 net.cpp:165] Memory required for data: 992629920
I0601 16:21:00.449733  3200 layer_factory.hpp:77] Creating layer mbox_conf
I0601 16:21:00.449738  3200 net.cpp:100] Creating Layer mbox_conf
I0601 16:21:00.449743  3200 net.cpp:434] mbox_conf <- conv4_3_norm_mbox_conf_flat
I0601 16:21:00.449748  3200 net.cpp:434] mbox_conf <- fc7_mbox_conf_flat
I0601 16:21:00.449754  3200 net.cpp:434] mbox_conf <- conv6_2_mbox_conf_flat
I0601 16:21:00.449759  3200 net.cpp:434] mbox_conf <- conv7_2_mbox_conf_flat
I0601 16:21:00.449764  3200 net.cpp:434] mbox_conf <- conv8_2_mbox_conf_flat
I0601 16:21:00.449769  3200 net.cpp:434] mbox_conf <- conv9_2_mbox_conf_flat
I0601 16:21:00.449785  3200 net.cpp:408] mbox_conf -> mbox_conf
I0601 16:21:00.449815  3200 net.cpp:150] Setting up mbox_conf
I0601 16:21:00.449822  3200 net.cpp:157] Top shape: 4 34928 (139712)
I0601 16:21:00.449826  3200 net.cpp:165] Memory required for data: 993188768
I0601 16:21:00.449829  3200 layer_factory.hpp:77] Creating layer mbox_priorbox
I0601 16:21:00.449836  3200 net.cpp:100] Creating Layer mbox_priorbox
I0601 16:21:00.449841  3200 net.cpp:434] mbox_priorbox <- conv4_3_norm_mbox_priorbox
I0601 16:21:00.449846  3200 net.cpp:434] mbox_priorbox <- fc7_mbox_priorbox
I0601 16:21:00.449851  3200 net.cpp:434] mbox_priorbox <- conv6_2_mbox_priorbox
I0601 16:21:00.449856  3200 net.cpp:434] mbox_priorbox <- conv7_2_mbox_priorbox
I0601 16:21:00.449859  3200 net.cpp:434] mbox_priorbox <- conv8_2_mbox_priorbox
I0601 16:21:00.449862  3200 net.cpp:434] mbox_priorbox <- conv9_2_mbox_priorbox
I0601 16:21:00.449867  3200 net.cpp:408] mbox_priorbox -> mbox_priorbox
I0601 16:21:00.449899  3200 net.cpp:150] Setting up mbox_priorbox
I0601 16:21:00.449905  3200 net.cpp:157] Top shape: 1 2 34928 (69856)
I0601 16:21:00.449908  3200 net.cpp:165] Memory required for data: 993468192
I0601 16:21:00.449913  3200 layer_factory.hpp:77] Creating layer mbox_conf_reshape
I0601 16:21:00.449920  3200 net.cpp:100] Creating Layer mbox_conf_reshape
I0601 16:21:00.449924  3200 net.cpp:434] mbox_conf_reshape <- mbox_conf
I0601 16:21:00.449930  3200 net.cpp:408] mbox_conf_reshape -> mbox_conf_reshape
I0601 16:21:00.449970  3200 net.cpp:150] Setting up mbox_conf_reshape
I0601 16:21:00.449975  3200 net.cpp:157] Top shape: 4 8732 4 (139712)
I0601 16:21:00.449980  3200 net.cpp:165] Memory required for data: 994027040
I0601 16:21:00.449982  3200 layer_factory.hpp:77] Creating layer mbox_conf_softmax
I0601 16:21:00.449990  3200 net.cpp:100] Creating Layer mbox_conf_softmax
I0601 16:21:00.449992  3200 net.cpp:434] mbox_conf_softmax <- mbox_conf_reshape
I0601 16:21:00.449998  3200 net.cpp:408] mbox_conf_softmax -> mbox_conf_softmax
I0601 16:21:00.450285  3200 net.cpp:150] Setting up mbox_conf_softmax
I0601 16:21:00.450294  3200 net.cpp:157] Top shape: 4 8732 4 (139712)
I0601 16:21:00.450296  3200 net.cpp:165] Memory required for data: 994585888
I0601 16:21:00.450299  3200 layer_factory.hpp:77] Creating layer mbox_conf_flatten
I0601 16:21:00.450302  3200 net.cpp:100] Creating Layer mbox_conf_flatten
I0601 16:21:00.450305  3200 net.cpp:434] mbox_conf_flatten <- mbox_conf_softmax
I0601 16:21:00.450310  3200 net.cpp:408] mbox_conf_flatten -> mbox_conf_flatten
I0601 16:21:00.450341  3200 net.cpp:150] Setting up mbox_conf_flatten
I0601 16:21:00.450348  3200 net.cpp:157] Top shape: 4 34928 (139712)
I0601 16:21:00.450352  3200 net.cpp:165] Memory required for data: 995144736
I0601 16:21:00.450356  3200 layer_factory.hpp:77] Creating layer detection_out
I0601 16:21:00.450368  3200 net.cpp:100] Creating Layer detection_out
I0601 16:21:00.450372  3200 net.cpp:434] detection_out <- mbox_loc
I0601 16:21:00.450376  3200 net.cpp:434] detection_out <- mbox_conf_flatten
I0601 16:21:00.450378  3200 net.cpp:434] detection_out <- mbox_priorbox
I0601 16:21:00.450383  3200 net.cpp:408] detection_out -> detection_out
I0601 16:21:00.451957  3200 net.cpp:150] Setting up detection_out
I0601 16:21:00.451968  3200 net.cpp:157] Top shape: 1 1 1 7 (7)
I0601 16:21:00.451970  3200 net.cpp:165] Memory required for data: 995144764
I0601 16:21:00.451973  3200 layer_factory.hpp:77] Creating layer detection_eval
I0601 16:21:00.451980  3200 net.cpp:100] Creating Layer detection_eval
I0601 16:21:00.451987  3200 net.cpp:434] detection_eval <- detection_out
I0601 16:21:00.451994  3200 net.cpp:434] detection_eval <- label
I0601 16:21:00.452003  3200 net.cpp:408] detection_eval -> detection_eval
I0601 16:21:00.452841  3200 net.cpp:150] Setting up detection_eval
I0601 16:21:00.452848  3200 net.cpp:157] Top shape: 1 1 4 5 (20)
I0601 16:21:00.452852  3200 net.cpp:165] Memory required for data: 995144844
I0601 16:21:00.452853  3200 net.cpp:228] detection_eval does not need backward computation.
I0601 16:21:00.452870  3200 net.cpp:228] detection_out does not need backward computation.
I0601 16:21:00.452877  3200 net.cpp:228] mbox_conf_flatten does not need backward computation.
I0601 16:21:00.452883  3200 net.cpp:228] mbox_conf_softmax does not need backward computation.
…
