…
      sampler {
        min_scale: 0.3
        max_scale: 1
        min_aspect_ratio: 0.5
        max_aspect_ratio: 2
      }
      sample_constraint {
        min_jaccard_overlap: 0.9
      }
      max_sample: 1
      max_trials: 50
    }
    batch_sampler {
      sampler {
        min_scale: 0.3
        max_scale: 1
        min_aspect_ratio: 0.5
        max_aspect_ratio: 2
      }
      sample_constraint {
        max_jaccard_overlap: 1
      }
      max_sample: 1
      max_trials: 50
    }
    label_map_file: "data/VOC0712/labelmap_voc.prototxt"
  }
}
layer {
  name: "conv1_1"
  type: "Convolution"
  bottom: "data"
  top: "conv1_1"
  param {
    lr_mult: 1
    decay_mult: 1
  }
  param {
    lr_mult: 2
    decay_mult: 0
  }
  convolution_param {
    num_output: 64
    pad: 1
    kernel_size: 3
    weight_filler {
      type: "xavier"
    }
    bias_filler {
      type: "constant"
      value: 0
    }
  }
}
layer {
  name: "relu1_1"
  type: "ReLU"
  bottom: "conv1_1"
  top: "conv1_1"
}
layer {
  name: "conv1_2"
  type: "Convolution"
  bottom: "conv1_1"
  top: "conv1_2"
  param {
    lr_mult: 1
    decay_mult: 1
  }
  param {
    lr_mult: 2
    decay_mult: 0
  }
  convolution_param {
    num_output: 64
    pad: 1
    kernel_size: 3
    weight_filler {
      type: "xavier"
    }
    bias_filler {
      type: "constant"
      value: 0
    }
  }
}
layer {
  name: "relu1_2"
  type: "ReLU"
  bottom: "conv1_2"
  top: "conv1_2"
}
layer {
  name: "pool1"
  type: "Pooling"
  bottom: "conv1_2"
  top: "pool1"
  pooling_param {
    pool: MAX
    kernel_size: 2
    stride: 2
  }
}
layer {
  name: "conv2_1"
  type: "Convolution"
  bottom: "pool1"
  top: "conv2_1"
  param {
    lr_mult: 1
    decay_mult: 1
  }
  param {
    lr_mult: 2
    decay_mult: 0
  }
  convolution_param {
    num_output: 128
    pad: 1
    kernel_size: 3
    weight_filler {
      type: "xavier"
    }
    bias_filler {
      type: "constant"
      value: 0
    }
  }
}
layer {
  name: "relu2_1"
  type: "ReLU"
  bottom: "conv2_1"
  top: "conv2_1"
}
layer {
  name: "conv2_2"
  type: "Convolution"
  bottom: "conv2_1"
  top: "conv2_2"
  param {
    lr_mult: 1
    decay_mult: 1
  }
  param {
    lr_mult: 2
    decay_mult: 0
  }
  convolution_param {
    num_output: 128
    pad: 1
    kernel_size: 3
    weight_filler {
      type: "xavier"
    }
    bias_filler {
      type: "constant"
      value: 0
    }
  }
}
layer {
  name: "relu2_2"
  type: "ReLU"
  bottom: "conv2_2"
  top: "conv2_2"
}
layer {
  name: "pool2"
  type: "Pooling"
  bottom: "conv2_2"
  top: "pool2"
  pooling_param {
    pool: MAX
    kernel_size: 2
    stride: 2
  }
}
layer {
  name: "conv3_1"
  type: "Convolution"
  bottom: "pool2"
  top: "conv3_1"
  param {
    lr_mult: 1
    decay_mult: 1
  }
  param {
    lr_mult: 2
    decay_mult: 0
  }
  convolution_param {
    num_output: 256
    pad: 1
    kernel_size: 3
    weight_filler {
      type: "xavier"
    }
    bias_filler {
      type: "constant"
      value: 0
    }
  }
}
layer {
  name: "relu3_1"
  type: "ReLU"
  bottom: "conv3_1"
  top: "conv3_1"
}
layer {
  name: "conv3_2"
  type: "Convolution"
  bottom: "conv3_1"
  top: "conv3_2"
  param {
    lr_mult: 1
    decay_mult: 1
  }
  param {
    lr_mult: 2
    decay_mult: 0
  }
  convolution_param {
    num_output: 256
    pad: 1
    kernel_size: 3
    weight_filler {
      type: "xavier"
    }
    bias_filler {
      type: "constant"
      value: 0
    }
  }
}
layer {
  name: "relu3_2"
  type: "ReLU"
  bottom: "conv3_2"
  top: "conv3_2"
}
layer {
  name: "conv3_3"
  type: "Convolution"
  bottom: "conv3_2"
  top: "conv3_3"
  param {
    lr_mult: 1
    decay_mult: 1
  }
  param {
    lr_mult: 2
    decay_mult: 0
  }
  convolution_param {
    num_output: 256
    pad: 1
    kernel_size: 3
    weight_filler {
      type: "xavier"
    }
    bias_filler {
      type: "constant"
      value: 0
    }
  }
}
layer {
  name: "relu3_3"
  type: "ReLU"
  bottom: "conv3_3"
  top: "conv3_3"
}
layer {
  name: "pool3"
  type: "Pooling"
  bottom: "conv3_3"
  top: "pool3"
  pooling_param {
    pool: MAX
    kernel_size: 2
    stride: 2
  }
}
layer {
  name: "conv4_1"
  type: "Convolution"
  bottom: "pool3"
  top: "conv4_1"
  param {
    lr_mult: 1
    decay_mult: 1
  }
  param {
    lr_mult: 2
    decay_mult: 0
  }
  convolution_param {
    num_output: 512
    pad: 1
    kernel_size: 3
    weight_filler {
      type: "xavier"
    }
    bias_filler {
      type: "constant"
      value: 0
    }
  }
}
layer {
  name: "relu4_1"
  type: "ReLU"
  bottom: "conv4_1"
  top: "conv4_1"
}
layer {
  name: "conv4_2"
  type: "Convolution"
  bottom: "conv4_1"
  top: "conv4_2"
  param {
    lr_mult: 1
    decay_mult: 1
  }
  param {
    lr_mult: 2
    decay_mult: 0
  }
  convolution_param {
    num_output: 512
    pad: 1
    kernel_size: 3
    weight_filler {
      type: "xavier"
    }
    bias_filler {
      type: "constant"
      value: 0
    }
  }
}
layer {
  name: "relu4_2"
  type: "ReLU"
  bottom: "conv4_2"
  top: "conv4_2"
}
layer {
  name: "conv4_3"
  type: "Convolution"
  bottom: "conv4_2"
  top: "conv4_3"
  param {
    lr_mult: 1
    decay_mult: 1
  }
  param {
    lr_mult: 2
    decay_mult: 0
  }
  convolution_param {
    num_output: 512
    pad: 1
    kernel_size: 3
    weight_filler {
      type: "xavier"
    }
    bias_filler {
      type: "constant"
      value: 0
    }
  }
}
layer {
  name: "relu4_3"
  type: "ReLU"
  bottom: "conv4_3"
  top: "conv4_3"
}
layer {
  name: "pool4"
  type: "Pooling"
  bottom: "conv4_3"
  top: "pool4"
  pooling_param {
    pool: MAX
    kernel_size: 2
    stride: 2
  }
}
layer {
  name: "conv5_1"
  type: "Convolution"
  bottom: "pool4"
  top: "conv5_1"
  param {
    lr_mult: 1
    decay_mult: 1
  }
  param {
    lr_mult: 2
    decay_mult: 0
  }
  convolution_param {
    num_output: 512
    pad: 1
    kernel_size: 3
    weight_filler {
      type: "xavier"
    }
    bias_filler {
      type: "constant"
      value: 0
    }
    dilation: 1
  }
}
layer {
  name: "relu5_1"
  type: "ReLU"
  bottom: "conv5_1"
  top: "conv5_1"
}
layer {
  name: "conv5_2"
  type: "Convolution"
  bottom: "conv5_1"
  top: "conv5_2"
  param {
    lr_mult: 1
    decay_mult: 1
  }
  param {
    lr_mult: 2
    decay_mult: 0
  }
  convolution_param {
    num_output: 512
    pad: 1
    kernel_size: 3
    weight_filler {
      type: "xavier"
    }
    bias_filler {
      type: "constant"
      value: 0
    }
    dilation: 1
  }
}
layer {
  name: "relu5_2"
  type: "ReLU"
  bottom: "conv5_2"
  top: "conv5_2"
}
layer {
  name: "conv5_3"
  type: "Convolution"
  bottom: "conv5_2"
  top: "conv5_3"
  param {
    lr_mult: 1
    decay_mult: 1
  }
  param {
    lr_mult: 2
    decay_mult: 0
  }
  convolution_param {
    num_output: 512
    pad: 1
    kernel_size: 3
    weight_filler {
      type: "xavier"
    }
    bias_filler {
      type: "constant"
      value: 0
    }
    dilation: 1
  }
}
layer {
  name: "relu5_3"
  type: "ReLU"
  bottom: "conv5_3"
  top: "conv5_3"
}
layer {
  name: "pool5"
  type: "Pooling"
  bottom: "conv5_3"
  top: "pool5"
  pooling_param {
    pool: MAX
    kernel_size: 3
    stride: 1
    pad: 1
  }
}
layer {
  name: "fc6"
  type: "Convolution"
  bottom: "pool5"
  top: "fc6"
  param {
    lr_mult: 1
    decay_mult: 1
  }
  param {
    lr_mult: 2
    decay_mult: 0
  }
  convolution_param {
    num_output: 1024
    pad: 6
    kernel_size: 3
    weight_filler {
      type: "xavier"
    }
    bias_filler {
      type: "constant"
      value: 0
    }
    dilation: 6
  }
}
layer {
  name: "relu6"
  type: "ReLU"
  bottom: "fc6"
  top: "fc6"
}
layer {
  name: "fc7"
  type: "Convolution"
  bottom: "fc6"
  top: "fc7"
  param {
    lr_mult: 1
    decay_mult: 1
  }
  param {
    lr_mult: 2
    decay_mult: 0
  }
  convolution_param {
    num_output: 1024
    kernel_size: 1
    weight_filler {
      type: "xavier"
    }
    bias_filler {
      type: "constant"
      value: 0
    }
  }
}
layer {
  name: "relu7"
  type: "ReLU"
  bottom: "fc7"
  top: "fc7"
}
layer {
  name: "conv6_1"
  type: "Convolution"
  bottom: "fc7"
  top: "conv6_1"
  param {
    lr_mult: 1
    decay_mult: 1
  }
  param {
    lr_mult: 2
    decay_mult: 0
  }
  convolution_param {
    num_output: 256
    pad: 0
    kernel_size: 1
    stride: 1
    weight_filler {
      type: "xavier"
    }
    bias_filler {
      type: "constant"
      value: 0
    }
  }
}
layer {
  name: "conv6_1_relu"
  type: "ReLU"
  bottom: "conv6_1"
  top: "conv6_1"
}
layer {
  name: "conv6_2"
  type: "Convolution"
  bottom: "conv6_1"
  top: "conv6_2"
  param {
    lr_mult: 1
    decay_mult: 1
  }
  param {
    lr_mult: 2
    decay_mult: 0
  }
  convolution_param {
    num_output: 512
    pad: 1
    kernel_size: 3
    stride: 2
    weight_filler {
      type: "xavier"
    }
    bias_filler {
      type: "constant"
      value: 0
    }
  }
}
layer {
  name: "conv6_2_relu"
  type: "ReLU"
  bottom: "conv6_2"
  top: "conv6_2"
}
layer {
  name: "conv7_1"
  type: "Convolution"
  bottom: "conv6_2"
  top: "conv7_1"
  param {
    lr_mult: 1
    decay_mult: 1
  }
  param {
    lr_mult: 2
    decay_mult: 0
  }
  convolution_param {
    num_output: 128
    pad: 0
    kernel_size: 1
    stride: 1
    weight_filler {
      type: "xavier"
    }
    bias_filler {
      type: "constant"
      value: 0
    }
  }
}
layer {
  name: "conv7_1_relu"
  type: "ReLU"
  bottom: "conv7_1"
  top: "conv7_1"
}
layer {
  name: "conv7_2"
  type: "Convolution"
  bottom: "conv7_1"
  top: "conv7_2"
  param {
    lr_mult: 1
    decay_mult: 1
  }
  param {
    lr_mult: 2
    decay_mult: 0
  }
  convolution_param {
    num_output: 256
    pad: 1
    kernel_size: 3
    stride: 2
    weight_filler {
      type: "xavier"
    }
    bias_filler {
      type: "constant"
      value: 0
    }
  }
}
layer {
  name: "conv7_2_relu"
  type: "ReLU"
  bottom: "conv7_2"
  top: "conv7_2"
}
layer {
  name: "conv8_1"
  type: "Convolution"
  bottom: "conv7_2"
  top: "conv8_1"
  param {
    lr_mult: 1
    decay_mult: 1
  }
  param {
    lr_mult: 2
    decay_mult: 0
  }
  convolution_param {
    num_output: 128
    pad: 0
    kernel_size: 1
    stride: 1
    weight_filler {
      type: "xavier"
    }
    bias_filler {
      type: "constant"
      value: 0
    }
  }
}
layer {
  name: "conv8_1_relu"
  type: "ReLU"
  bottom: "conv8_1"
  top: "conv8_1"
}
layer {
  name: "conv8_2"
  type: "Convolution"
  bottom: "conv8_1"
  top: "conv8_2"
  param {
    lr_mult: 1
    decay_mult: 1
  }
  param {
    lr_mult: 2
    decay_mult: 0
  }
  convolution_param {
    num_output: 256
    pad: 0
    kernel_size: 3
    stride: 1
    weight_filler {
      type: "xavier"
    }
    bias_filler {
      type: "constant"
      value: 0
    }
  }
}
layer {
  name: "conv8_2_relu"
  type: "ReLU"
  bottom: "conv8_2"
  top: "conv8_2"
}
layer {
  name: "conv9_1"
  type: "Convolution"
  bottom: "conv8_2"
  top: "conv9_1"
  param {
    lr_mult: 1
    decay_mult: 1
  }
  param {
    lr_mult: 2
    decay_mult: 0
  }
  convolution_param {
    num_output: 128
    pad: 0
    kernel_size: 1
    stride: 1
    weight_filler {
      type: "xavier"
    }
    bias_filler {
      type: "constant"
      value: 0
    }
  }
}
layer {
  name: "conv9_1_relu"
  type: "ReLU"
  bottom: "conv9_1"
  top: "conv9_1"
}
layer {
  name: "conv9_2"
  type: "Convolution"
  bottom: "conv9_1"
  top: "conv9_2"
  param {
    lr_mult: 1
    decay_mult: 1
  }
  param {
    lr_mult: 2
    decay_mult: 0
  }
  convolution_param {
    num_output: 256
    pad: 0
    kernel_size: 3
    stride: 1
    weight_filler {
      type: "xavier"
    }
    bias_filler {
      type: "constant"
      value: 0
    }
  }
}
layer {
  name: "conv9_2_relu"
  type: "ReLU"
  bottom: "conv9_2"
  top: "conv9_2"
}
layer {
  name: "conv4_3_norm"
  type: "Normalize"
  bottom: "conv4_3"
  top: "conv4_3_norm"
  norm_param {
    across_spatial: false
    scale_filler {
      type: "constant"
      value: 20
    }
    channel_shared: false
  }
}
layer {
  name: "conv4_3_norm_mbox_loc"
  type: "Convolution"
  bottom: "conv4_3_norm"
  top: "conv4_3_norm_mbox_loc"
  param {
    lr_mult: 1
    decay_mult: 1
  }
  param {
    lr_mult: 2
    decay_mult: 0
  }
  convolution_param {
    num_output: 16
    pad: 1
    kernel_size: 3
    stride: 1
    weight_filler {
      type: "xavier"
    }
    bias_filler {
      type: "constant"
      value: 0
    }
  }
}
layer {
  name: "conv4_3_norm_mbox_loc_perm"
  type: "Permute"
  bottom: "conv4_3_norm_mbox_loc"
  top: "conv4_3_norm_mbox_loc_perm"
  permute_param {
    order: 0
    order: 2
    order: 3
    order: 1
  }
}
layer {
  name: "conv4_3_norm_mbox_loc_flat"
  type: "Flatten"
  bottom: "conv4_3_norm_mbox_loc_perm"
  top: "conv4_3_norm_mbox_loc_flat"
  flatten_param {
    axis: 1
  }
}
layer {
  name: "conv4_3_norm_mbox_conf"
  type: "Convolution"
  bottom: "conv4_3_norm"
  top: "conv4_3_norm_mbox_conf"
  param {
    lr_mult: 1
    decay_mult: 1
  }
  param {
    lr_mult: 2
    decay_mult: 0
  }
  convolution_param {
    num_output: 84
    pad: 1
    kernel_size: 3
    stride: 1
    weight_filler {
      type: "xavier"
    }
    bias_filler {
      type: "constant"
      value: 0
    }
  }
}
layer {
  name: "conv4_3_norm_mbox_conf_perm"
  type: "Permute"
  bottom: "conv4_3_norm_mbox_conf"
  top: "conv4_3_norm_mbox_conf_perm"
  permute_param {
    order: 0
    order: 2
    order: 3
    order: 1
  }
}
layer {
  name: "conv4_3_norm_mbox_conf_flat"
  type: "Flatten"
  bottom: "conv4_3_norm_mbox_conf_perm"
  top: "conv4_3_norm_mbox_conf_flat"
  flatten_param {
    axis: 1
  }
}
layer {
  name: "conv4_3_norm_mbox_priorbox"
  type: "PriorBox"
  bottom: "conv4_3_norm"
  bottom: "data"
  top: "conv4_3_norm_mbox_priorbox"
  prior_box_param {
    min_size: 30
    max_size: 60
    aspect_ratio: 2
    flip: true
    clip: false
    variance: 0.1
    variance: 0.1
    variance: 0.2
    variance: 0.2
    step: 8
    offset: 0.5
  }
}
layer {
  name: "fc7_mbox_loc"
  type: "Convolution"
  bottom: "fc7"
  top: "fc7_mbox_loc"
  param {
    lr_mult: 1
    decay_mult: 1
  }
  param {
    lr_mult: 2
    decay_mult: 0
  }
  convolution_param {
    num_output: 24
    pad: 1
    kernel_size: 3
    stride: 1
    weight_filler {
      type: "xavier"
    }
    bias_filler {
      type: "constant"
      value: 0
    }
  }
}
layer {
  name: "fc7_mbox_loc_perm"
  type: "Permute"
  bottom: "fc7_mbox_loc"
  top: "fc7_mbox_loc_perm"
  permute_param {
    order: 0
    order: 2
    order: 3
    order: 1
  }
}
layer {
  name: "fc7_mbox_loc_flat"
  type: "Flatten"
  bottom: "fc7_mbox_loc_perm"
  top: "fc7_mbox_loc_flat"
  flatten_param {
    axis: 1
  }
}
layer {
  name: "fc7_mbox_conf"
  type: "Convolution"
  bottom: "fc7"
  top: "fc7_mbox_conf"
  param {
    lr_mult: 1
    decay_mult: 1
  }
  param {
    lr_mult: 2
    decay_mult: 0
  }
  convolution_param {
    num_output: 126
    pad: 1
    kernel_size: 3
    stride: 1
    weight_filler {
      type: "xavier"
    }
    bias_filler {
      type: "constant"
      value: 0
    }
  }
}
layer {
  name: "fc7_mbox_conf_perm"
  type: "Permute"
  bottom: "fc7_mbox_conf"
  top: "fc7_mbox_conf_perm"
  permute_param {
    order: 0
    order: 2
    order: 3
    order: 1
  }
}
layer {
  name: "fc7_mbox_conf_flat"
  type: "Flatten"
  bottom: "fc7_mbox_conf_perm"
  top: "fc7_mbox_conf_flat"
  flatten_param {
    axis: 1
  }
}
layer {
  name: "fc7_mbox_priorbox"
  type: "PriorBox"
  bottom: "fc7"
  bottom: "data"
  top: "fc7_mbox_priorbox"
  prior_box_param {
    min_size: 60
    max_size: 111
    aspect_ratio: 2
    aspect_ratio: 3
    flip: true
    clip: false
    variance: 0.1
    variance: 0.1
    variance: 0.2
    variance: 0.2
    step: 16
    offset: 0.5
  }
}
layer {
  name: "conv6_2_mbox_loc"
  type: "Convolution"
  bottom: "conv6_2"
  top: "conv6_2_mbox_loc"
  param {
    lr_mult: 1
    decay_mult: 1
  }
  param {
    lr_mult: 2
    decay_mult: 0
  }
  convolution_param {
    num_output: 24
    pad: 1
    kernel_size: 3
    stride: 1
    weight_filler {
      type: "xavier"
    }
    bias_filler {
      type: "constant"
      value: 0
    }
  }
}
layer {
  name: "conv6_2_mbox_loc_perm"
  type: "Permute"
  bottom: "conv6_2_mbox_loc"
  top: "conv6_2_mbox_loc_perm"
  permute_param {
    order: 0
    order: 2
    order: 3
    order: 1
  }
}
layer {
  name: "conv6_2_mbox_loc_flat"
  type: "Flatten"
  bottom: "conv6_2_mbox_loc_perm"
  top: "conv6_2_mbox_loc_flat"
  flatten_param {
    axis: 1
  }
}
layer {
  name: "conv6_2_mbox_conf"
  type: "Convolution"
  bottom: "conv6_2"
  top: "conv6_2_mbox_conf"
  param {
    lr_mult: 1
    decay_mult: 1
  }
  param {
    lr_mult: 2
    decay_mult: 0
  }
  convolution_param {
    num_output: 126
    pad: 1
    kernel_size: 3
    stride: 1
    weight_filler {
      type: "xavier"
    }
    bias_filler {
      type: "constant"
      value: 0
    }
  }
}
layer {
  name: "conv6_2_mbox_conf_perm"
  type: "Permute"
  bottom: "conv6_2_mbox_conf"
  top: "conv6_2_mbox_conf_perm"
  permute_param {
    order: 0
    order: 2
    order: 3
    order: 1
  }
}
layer {
  name: "conv6_2_mbox_conf_flat"
  type: "Flatten"
  bottom: "conv6_2_mbox_conf_perm"
  top: "conv6_2_mbox_conf_flat"
  flatten_param {
    axis: 1
  }
}
layer {
  name: "conv6_2_mbox_priorbox"
  type: "PriorBox"
  bottom: "conv6_2"
  bottom: "data"
  top: "conv6_2_mbox_priorbox"
  prior_box_param {
    min_size: 111
    max_size: 162
    aspect_ratio: 2
    aspect_ratio: 3
    flip: true
    clip: false
    variance: 0.1
    variance: 0.1
    variance: 0.2
    variance: 0.2
    step: 32
    offset: 0.5
  }
}
layer {
  name: "conv7_2_mbox_loc"
  type: "Convolution"
  bottom: "conv7_2"
  top: "conv7_2_mbox_loc"
  param {
    lr_mult: 1
    decay_mult: 1
  }
  param {
    lr_mult: 2
    decay_mult: 0
  }
  convolution_param {
    num_output: 24
    pad: 1
    kernel_size: 3
    stride: 1
    weight_filler {
      type: "xavier"
    }
    bias_filler {
      type: "constant"
      value: 0
    }
  }
}
layer {
  name: "conv7_2_mbox_loc_perm"
  type: "Permute"
  bottom: "conv7_2_mbox_loc"
  top: "conv7_2_mbox_loc_perm"
  permute_param {
    order: 0
    order: 2
    order: 3
    order: 1
  }
}
layer {
  name: "conv7_2_mbox_loc_flat"
  type: "Flatten"
  bottom: "conv7_2_mbox_loc_perm"
  top: "conv7_2_mbox_loc_flat"
  flatten_param {
    axis: 1
  }
}
layer {
  name: "conv7_2_mbox_conf"
  type: "Convolution"
  bottom: "conv7_2"
  top: "conv7_2_mbox_conf"
  param {
    lr_mult: 1
    decay_mult: 1
  }
  param {
    lr_mult: 2
    decay_mult: 0
  }
  convolution_param {
    num_output: 126
    pad: 1
    kernel_size: 3
    stride: 1
    weight_filler {
      type: "xavier"
    }
    bias_filler {
      type: "constant"
      value: 0
    }
  }
}
layer {
  name: "conv7_2_mbox_conf_perm"
  type: "Permute"
  bottom: "conv7_2_mbox_conf"
  top: "conv7_2_mbox_conf_perm"
  permute_param {
    order: 0
    order: 2
    order: 3
    order: 1
  }
}
layer {
  name: "conv7_2_mbox_conf_flat"
  type: "Flatten"
  bottom: "conv7_2_mbox_conf_perm"
  top: "conv7_2_mbox_conf_flat"
  flatten_param {
    axis: 1
  }
}
layer {
  name: "conv7_2_mbox_priorbox"
  type: "PriorBox"
  bottom: "conv7_2"
  bottom: "data"
  top: "conv7_2_mbox_priorbox"
  prior_box_param {
    min_size: 162
    max_size: 213
    aspect_ratio: 2
    aspect_ratio: 3
    flip: true
    clip: false
    variance: 0.1
    variance: 0.1
    variance: 0.2
    variance: 0.2
    step: 64
    offset: 0.5
  }
}
layer {
  name: "conv8_2_mbox_loc"
  type: "Convolution"
  bottom: "conv8_2"
  top: "conv8_2_mbox_loc"
  param {
    lr_mult: 1
    decay_mult: 1
  }
  param {
    lr_mult: 2
    decay_mult: 0
  }
  convolution_param {
    num_output: 16
    pad: 1
    kernel_size: 3
    stride: 1
    weight_filler {
      type: "xavier"
    }
    bias_filler {
      type: "constant"
      value: 0
    }
  }
}
layer {
  name: "conv8_2_mbox_loc_perm"
  type: "Permute"
  bottom: "conv8_2_mbox_loc"
  top: "conv8_2_mbox_loc_perm"
  permute_param {
    order: 0
    order: 2
    order: 3
    order: 1
  }
}
layer {
  name: "conv8_2_mbox_loc_flat"
  type: "Flatten"
  bottom: "conv8_2_mbox_loc_perm"
  top: "conv8_2_mbox_loc_flat"
  flatten_param {
    axis: 1
  }
}
layer {
  name: "conv8_2_mbox_conf"
  type: "Convolution"
  bottom: "conv8_2"
  top: "conv8_2_mbox_conf"
  param {
    lr_mult: 1
    decay_mult: 1
  }
  param {
    lr_mult: 2
    decay_mult: 0
  }
  convolution_param {
    num_output: 84
    pad: 1
    kernel_size: 3
    stride: 1
    weight_filler {
      type: "xavier"
    }
    bias_filler {
      type: "constant"
      value: 0
    }
  }
}
layer {
  name: "conv8_2_mbox_conf_perm"
  type: "Permute"
  bottom: "conv8_2_mbox_conf"
  top: "conv8_2_mbox_conf_perm"
  permute_param {
    order: 0
    order: 2
    order: 3
    order: 1
  }
}
layer {
  name: "conv8_2_mbox_conf_flat"
  type: "Flatten"
  bottom: "conv8_2_mbox_conf_perm"
  top: "conv8_2_mbox_conf_flat"
  flatten_param {
    axis: 1
  }
}
layer {
  name: "conv8_2_mbox_priorbox"
  type: "PriorBox"
  bottom: "conv8_2"
  bottom: "data"
  top: "conv8_2_mbox_priorbox"
  prior_box_param {
    min_size: 213
    max_size: 264
    aspect_ratio: 2
    flip: true
    clip: false
    variance: 0.1
    variance: 0.1
    variance: 0.2
    variance: 0.2
    step: 100
    offset: 0.5
  }
}
layer {
  name: "conv9_2_mbox_loc"
  type: "Convolution"
  bottom: "conv9_2"
  top: "conv9_2_mbox_loc"
  param {
    lr_mult: 1
    decay_mult: 1
  }
  param {
    lr_mult: 2
    decay_mult: 0
  }
  convolution_param {
    num_output: 16
    pad: 1
    kernel_size: 3
    stride: 1
    weight_filler {
      type: "xavier"
    }
    bias_filler {
      type: "constant"
      value: 0
    }
  }
}
layer {
  name: "conv9_2_mbox_loc_perm"
  type: "Permute"
  bottom: "conv9_2_mbox_loc"
  top: "conv9_2_mbox_loc_perm"
  permute_param {
    order: 0
    order: 2
    order: 3
    order: 1
  }
}
layer {
  name: "conv9_2_mbox_loc_flat"
  type: "Flatten"
  bottom: "conv9_2_mbox_loc_perm"
  top: "conv9_2_mbox_loc_flat"
  flatten_param {
    axis: 1
  }
}
layer {
  name: "conv9_2_mbox_conf"
  type: "Convolution"
  bottom: "conv9_2"
  top: "conv9_2_mbox_conf"
  param {
    lr_mult: 1
    decay_mult: 1
  }
  param {
    lr_mult: 2
    decay_mult: 0
  }
  convolution_param {
    num_output: 84
    pad: 1
    kernel_size: 3
    stride: 1
    weight_filler {
      type: "xavier"
    }
    bias_filler {
      type: "constant"
      value: 0
    }
  }
}
layer {
  name: "conv9_2_mbox_conf_perm"
  type: "Permute"
  bottom: "conv9_2_mbox_conf"
  top: "conv9_2_mbox_conf_perm"
  permute_param {
    order: 0
    order: 2
    order: 3
    order: 1
  }
}
layer {
  name: "conv9_2_mbox_conf_flat"
  type: "Flatten"
  bottom: "conv9_2_mbox_conf_perm"
  top: "conv9_2_mbox_conf_flat"
  flatten_param {
    axis: 1
  }
}
layer {
  name: "conv9_2_mbox_priorbox"
  type: "PriorBox"
  bottom: "conv9_2"
  bottom: "data"
  top: "conv9_2_mbox_priorbox"
  prior_box_param {
    min_size: 264
    max_size: 315
    aspect_ratio: 2
    flip: true
    clip: false
    variance: 0.1
    variance: 0.1
    variance: 0.2
    variance: 0.2
    step: 300
    offset: 0.5
  }
}
layer {
  name: "mbox_loc"
  type: "Concat"
  bottom: "conv4_3_norm_mbox_loc_flat"
  bottom: "fc7_mbox_loc_flat"
  bottom: "conv6_2_mbox_loc_flat"
  bottom: "conv7_2_mbox_loc_flat"
  bottom: "conv8_2_mbox_loc_flat"
  bottom: "conv9_2_mbox_loc_flat"
  top: "mbox_loc"
  concat_param {
    axis: 1
  }
}
layer {
  name: "mbox_conf"
  type: "Concat"
  bottom: "conv4_3_norm_mbox_conf_flat"
  bottom: "fc7_mbox_conf_flat"
  bottom: "conv6_2_mbox_conf_flat"
  bottom: "conv7_2_mbox_conf_flat"
  bottom: "conv8_2_mbox_conf_flat"
  bottom: "conv9_2_mbox_conf_flat"
  top: "mbox_conf"
  concat_param {
    axis: 1
  }
}
layer {
  name: "mbox_priorbox"
  type: "Concat"
  bottom: "conv4_3_norm_mbox_priorbox"
  bottom: "fc7_mbox_priorbox"
  bottom: "conv6_2_mbox_priorbox"
  bottom: "conv7_2_mbox_priorbox"
  bottom: "conv8_2_mbox_priorbox"
  bottom: "conv9_2_mbox_priorbox"
  top: "mbox_priorbox"
  concat_param {
    axis: 2
  }
}
layer {
  name: "mbox_loss"
  type: "MultiBoxLoss"
  bottom: "mbox_loc"
  bottom: "mbox_conf"
  bottom: "mbox_priorbox"
  bottom: "label"
  top: "mbox_loss"
  include {
    phase: TRAIN
  }
  propagate_down: true
  propagate_down: true
  propagate_down: false
  propagate_down: false
  loss_param {
    normalization: VALID
  }
  multibox_loss_param {
    loc_loss_type: SMOOTH_L1
    conf_loss_type: SOFTMAX
    loc_weight: 1
    num_classes: 21
    share_location: true
    match_type: PER_PREDICTION
    overlap_threshold: 0.5
    use_prior_for_matching: true
    background_label_id: 0
    use_difficult_gt: true
    neg_pos_ratio: 3
    neg_overlap: 0.5
    code_type: CENTER_SIZE
    ignore_cross_boundary_bbox: false
    mining_type: MAX_NEGATIVE
  }
}
I0524 17:37:16.061130 20296 layer_factory.hpp:77] Creating layer data
I0524 17:37:16.061323 20296 net.cpp:100] Creating Layer data
I0524 17:37:16.061339 20296 net.cpp:408] data -> data
I0524 17:37:16.061369 20296 net.cpp:408] data -> label
I0524 17:37:16.061739 20309 db_lmdb.cpp:35] Opened lmdb examples/VOC0712/VOC0712_trainval_lmdb
I0524 17:37:16.071204 20296 annotated_data_layer.cpp:62] output data size: 8,3,300,300
I0524 17:37:16.089381 20296 net.cpp:150] Setting up data
I0524 17:37:16.089413 20296 net.cpp:157] Top shape: 8 3 300 300 (2160000)
I0524 17:37:16.089417 20296 net.cpp:157] Top shape: 1 1 5 8 (40)
I0524 17:37:16.089433 20296 net.cpp:165] Memory required for data: 8640160
I0524 17:37:16.089442 20296 layer_factory.hpp:77] Creating layer data_data_0_split
I0524 17:37:16.089452 20296 net.cpp:100] Creating Layer data_data_0_split
I0524 17:37:16.089455 20296 net.cpp:434] data_data_0_split <- data
I0524 17:37:16.089483 20296 net.cpp:408] data_data_0_split -> data_data_0_split_0
I0524 17:37:16.089504 20296 net.cpp:408] data_data_0_split -> data_data_0_split_1
I0524 17:37:16.089524 20296 net.cpp:408] data_data_0_split -> data_data_0_split_2
I0524 17:37:16.089527 20296 net.cpp:408] data_data_0_split -> data_data_0_split_3
I0524 17:37:16.089547 20296 net.cpp:408] data_data_0_split -> data_data_0_split_4
I0524 17:37:16.089551 20296 net.cpp:408] data_data_0_split -> data_data_0_split_5
I0524 17:37:16.089555 20296 net.cpp:408] data_data_0_split -> data_data_0_split_6
I0524 17:37:16.089624 20296 net.cpp:150] Setting up data_data_0_split
I0524 17:37:16.089630 20296 net.cpp:157] Top shape: 8 3 300 300 (2160000)
I0524 17:37:16.089633 20296 net.cpp:157] Top shape: 8 3 300 300 (2160000)
I0524 17:37:16.089637 20296 net.cpp:157] Top shape: 8 3 300 300 (2160000)
I0524 17:37:16.089638 20296 net.cpp:157] Top shape: 8 3 300 300 (2160000)
I0524 17:37:16.089642 20296 net.cpp:157] Top shape: 8 3 300 300 (2160000)
I0524 17:37:16.089644 20296 net.cpp:157] Top shape: 8 3 300 300 (2160000)
I0524 17:37:16.089648 20296 net.cpp:157] Top shape: 8 3 300 300 (2160000)
I0524 17:37:16.089649 20296 net.cpp:165] Memory required for data: 69120160
I0524 17:37:16.089651 20296 layer_factory.hpp:77] Creating layer conv1_1
I0524 17:37:16.089663 20296 net.cpp:100] Creating Layer conv1_1
I0524 17:37:16.089680 20296 net.cpp:434] conv1_1 <- data_data_0_split_0
I0524 17:37:16.089685 20296 net.cpp:408] conv1_1 -> conv1_1
I0524 17:37:16.091205 20296 net.cpp:150] Setting up conv1_1
I0524 17:37:16.091228 20296 net.cpp:157] Top shape: 8 64 300 300 (46080000)
I0524 17:37:16.091231 20296 net.cpp:165] Memory required for data: 253440160
I0524 17:37:16.091243 20296 layer_factory.hpp:77] Creating layer relu1_1
I0524 17:37:16.091250 20296 net.cpp:100] Creating Layer relu1_1
I0524 17:37:16.091254 20296 net.cpp:434] relu1_1 <- conv1_1
I0524 17:37:16.091259 20296 net.cpp:395] relu1_1 -> conv1_1 (in-place)
I0524 17:37:16.091264 20296 net.cpp:150] Setting up relu1_1
I0524 17:37:16.091269 20296 net.cpp:157] Top shape: 8 64 300 300 (46080000)
I0524 17:37:16.091270 20296 net.cpp:165] Memory required for data: 437760160
I0524 17:37:16.091272 20296 layer_factory.hpp:77] Creating layer conv1_2
I0524 17:37:16.091279 20296 net.cpp:100] Creating Layer conv1_2
I0524 17:37:16.091282 20296 net.cpp:434] conv1_2 <- conv1_1
I0524 17:37:16.091286 20296 net.cpp:408] conv1_2 -> conv1_2
I0524 17:37:16.092216 20296 net.cpp:150] Setting up conv1_2
I0524 17:37:16.092227 20296 net.cpp:157] Top shape: 8 64 300 300 (46080000)
I0524 17:37:16.092231 20296 net.cpp:165] Memory required for data: 622080160
I0524 17:37:16.092237 20296 layer_factory.hpp:77] Creating layer relu1_2
I0524 17:37:16.092244 20296 net.cpp:100] Creating Layer relu1_2
I0524 17:37:16.092247 20296 net.cpp:434] relu1_2 <- conv1_2
I0524 17:37:16.092252 20296 net.cpp:395] relu1_2 -> conv1_2 (in-place)
I0524 17:37:16.092257 20296 net.cpp:150] Setting up relu1_2
I0524 17:37:16.092262 20296 net.cpp:157] Top shape: 8 64 300 300 (46080000)
I0524 17:37:16.092263 20296 net.cpp:165] Memory required for data: 806400160
I0524 17:37:16.092265 20296 layer_factory.hpp:77] Creating layer pool1
I0524 17:37:16.092269 20296 net.cpp:100] Creating Layer pool1
I0524 17:37:16.092272 20296 net.cpp:434] pool1 <- conv1_2
I0524 17:37:16.092277 20296 net.cpp:408] pool1 -> pool1
I0524 17:37:16.092309 20296 net.cpp:150] Setting up pool1
I0524 17:37:16.092314 20296 net.cpp:157] Top shape: 8 64 150 150 (11520000)
I0524 17:37:16.092317 20296 net.cpp:165] Memory required for data: 852480160
I0524 17:37:16.092319 20296 layer_factory.hpp:77] Creating layer conv2_1
I0524 17:37:16.092336 20296 net.cpp:100] Creating Layer conv2_1
I0524 17:37:16.092339 20296 net.cpp:434] conv2_1 <- pool1
I0524 17:37:16.092344 20296 net.cpp:408] conv2_1 -> conv2_1
I0524 17:37:16.092802 20296 net.cpp:150] Setting up conv2_1
I0524 17:37:16.092809 20296 net.cpp:157] Top shape: 8 128 150 150 (23040000)
I0524 17:37:16.092811 20296 net.cpp:165] Memory required for data: 944640160
I0524 17:37:16.092816 20296 layer_factory.hpp:77] Creating layer relu2_1
I0524 17:37:16.092823 20296 net.cpp:100] Creating Layer relu2_1
I0524 17:37:16.092826 20296 net.cpp:434] relu2_1 <- conv2_1
I0524 17:37:16.092830 20296 net.cpp:395] relu2_1 -> conv2_1 (in-place)
I0524 17:37:16.092835 20296 net.cpp:150] Setting up relu2_1
I0524 17:37:16.092839 20296 net.cpp:157] Top shape: 8 128 150 150 (23040000)
I0524 17:37:16.092842 20296 net.cpp:165] Memory required for data: 1036800160
I0524 17:37:16.092844 20296 layer_factory.hpp:77] Creating layer conv2_2
I0524 17:37:16.092850 20296 net.cpp:100] Creating Layer conv2_2
I0524 17:37:16.092854 20296 net.cpp:434] conv2_2 <- conv2_1
I0524 17:37:16.092859 20296 net.cpp:408] conv2_2 -> conv2_2
I0524 17:37:16.095783 20296 net.cpp:150] Setting up conv2_2
I0524 17:37:16.095791 20296 net.cpp:157] Top shape: 8 128 150 150 (23040000)
I0524 17:37:16.095793 20296 net.cpp:165] Memory required for data: 1128960160
I0524 17:37:16.095798 20296 layer_factory.hpp:77] Creating layer relu2_2
I0524 17:37:16.095801 20296 net.cpp:100] Creating Layer relu2_2
I0524 17:37:16.095803 20296 net.cpp:434] relu2_2 <- conv2_2
I0524 17:37:16.095808 20296 net.cpp:395] relu2_2 -> conv2_2 (in-place)
I0524 17:37:16.095813 20296 net.cpp:150] Setting up relu2_2
I0524 17:37:16.095816 20296 net.cpp:157] Top shape: 8 128 150 150 (23040000)
I0524 17:37:16.095818 20296 net.cpp:165] Memory required for data: 1221120160
I0524 17:37:16.095820 20296 layer_factory.hpp:77] Creating layer pool2
I0524 17:37:16.095824 20296 net.cpp:100] Creating Layer pool2
I0524 17:37:16.095826 20296 net.cpp:434] pool2 <- conv2_2
I0524 17:37:16.095830 20296 net.cpp:408] pool2 -> pool2
I0524 17:37:16.095852 20296 net.cpp:150] Setting up pool2
I0524 17:37:16.095857 20296 net.cpp:157] Top shape: 8 128 75 75 (5760000)
I0524 17:37:16.095860 20296 net.cpp:165] Memory required for data: 1244160160
I0524 17:37:16.095862 20296 layer_factory.hpp:77] Creating layer conv3_1
I0524 17:37:16.095868 20296 net.cpp:100] Creating Layer conv3_1
I0524 17:37:16.095871 20296 net.cpp:434] conv3_1 <- pool2
I0524 17:37:16.095876 20296 net.cpp:408] conv3_1 -> conv3_1
I0524 17:37:16.098431 20296 net.cpp:150] Setting up conv3_1
I0524 17:37:16.098441 20296 net.cpp:157] Top shape: 8 256 75 75 (11520000)
I0524 17:37:16.098443 20296 net.cpp:165] Memory required for data: 1290240160
I0524 17:37:16.098466 20296 layer_factory.hpp:77] Creating layer relu3_1
I0524 17:37:16.098471 20296 net.cpp:100] Creating Layer relu3_1
I0524 17:37:16.098474 20296 net.cpp:434] relu3_1 <- conv3_1
I0524 17:37:16.098493 20296 net.cpp:395] relu3_1 -> conv3_1 (in-place)
I0524 17:37:16.098500 20296 net.cpp:150] Setting up relu3_1
I0524 17:37:16.098503 20296 net.cpp:157] Top shape: 8 256 75 75 (11520000)
I0524 17:37:16.098505 20296 net.cpp:165] Memory required for data: 1336320160
I0524 17:37:16.098508 20296 layer_factory.hpp:77] Creating layer conv3_2
I0524 17:37:16.098515 20296 net.cpp:100] Creating Layer conv3_2
I0524 17:37:16.098517 20296 net.cpp:434] conv3_2 <- conv3_1
I0524 17:37:16.098521 20296 net.cpp:408] conv3_2 -> conv3_2
I0524 17:37:16.101692 20296 net.cpp:150] Setting up conv3_2
I0524 17:37:16.101709 20296 net.cpp:157] Top shape: 8 256 75 75 (11520000)
I0524 17:37:16.101711 20296 net.cpp:165] Memory required for data: 1382400160
I0524 17:37:16.101717 20296 layer_factory.hpp:77] Creating layer relu3_2
I0524 17:37:16.101727 20296 net.cpp:100] Creating Layer relu3_2
I0524 17:37:16.101729 20296 net.cpp:434] relu3_2 <- conv3_2
I0524 17:37:16.101733 20296 net.cpp:395] relu3_2 -> conv3_2 (in-place)
I0524 17:37:16.101740 20296 net.cpp:150] Setting up relu3_2
I0524 17:37:16.101745 20296 net.cpp:157] Top shape: 8 256 75 75 (11520000)
I0524 17:37:16.101757 20296 net.cpp:165] Memory required for data: 1428480160
I0524 17:37:16.101758 20296 layer_factory.hpp:77] Creating layer conv3_3
I0524 17:37:16.101768 20296 net.cpp:100] Creating Layer conv3_3
I0524 17:37:16.101773 20296 net.cpp:434] conv3_3 <- conv3_2
I0524 17:37:16.101776 20296 net.cpp:408] conv3_3 -> conv3_3
I0524 17:37:16.104945 20296 net.cpp:150] Setting up conv3_3
I0524 17:37:16.104955 20296 net.cpp:157] Top shape: 8 256 75 75 (11520000)
I0524 17:37:16.104957 20296 net.cpp:165] Memory required for data: 1474560160
I0524 17:37:16.104962 20296 layer_factory.hpp:77] Creating layer relu3_3
I0524 17:37:16.104967 20296 net.cpp:100] Creating Layer relu3_3
I0524 17:37:16.104970 20296 net.cpp:434] relu3_3 <- conv3_3
I0524 17:37:16.104974 20296 net.cpp:395] relu3_3 -> conv3_3 (in-place)
I0524 17:37:16.104979 20296 net.cpp:150] Setting up relu3_3
I0524 17:37:16.104984 20296 net.cpp:157] Top shape: 8 256 75 75 (11520000)
I0524 17:37:16.104985 20296 net.cpp:165] Memory required for data: 1520640160
I0524 17:37:16.104988 20296 layer_factory.hpp:77] Creating layer pool3
I0524 17:37:16.104992 20296 net.cpp:100] Creating Layer pool3
I0524 17:37:16.104995 20296 net.cpp:434] pool3 <- conv3_3
I0524 17:37:16.104997 20296 net.cpp:408] pool3 -> pool3
I0524 17:37:16.105024 20296 net.cpp:150] Setting up pool3
I0524 17:37:16.105029 20296 net.cpp:157] Top shape: 8 256 38 38 (2957312)
I0524 17:37:16.105032 20296 net.cpp:165] Memory required for data: 1532469408
I0524 17:37:16.105034 20296 layer_factory.hpp:77] Creating layer conv4_1
I0524 17:37:16.105041 20296 net.cpp:100] Creating Layer conv4_1
I0524 17:37:16.105043 20296 net.cpp:434] conv4_1 <- pool3
I0524 17:37:16.105047 20296 net.cpp:408] conv4_1 -> conv4_1
I0524 17:37:16.111845 20296 net.cpp:150] Setting up conv4_1
I0524 17:37:16.111861 20296 net.cpp:157] Top shape: 8 512 38 38 (5914624)
I0524 17:37:16.111863 20296 net.cpp:165] Memory required for data: 1556127904
I0524 17:37:16.111870 20296 layer_factory.hpp:77] Creating layer relu4_1
I0524 17:37:16.111876 20296 net.cpp:100] Creating Layer relu4_1
I0524 17:37:16.111892 20296 net.cpp:434] relu4_1 <- conv4_1
I0524 17:37:16.111897 20296 net.cpp:395] relu4_1 -> conv4_1 (in-place)
I0524 17:37:16.111903 20296 net.cpp:150] Setting up relu4_1
I0524 17:37:16.111907 20296 net.cpp:157] Top shape: 8 512 38 38 (5914624)
I0524 17:37:16.111908 20296 net.cpp:165] Memory required for data: 1579786400
I0524 17:37:16.111910 20296 layer_factory.hpp:77] Creating layer conv4_2
I0524 17:37:16.111917 20296 net.cpp:100] Creating Layer conv4_2
I0524 17:37:16.111922 20296 net.cpp:434] conv4_2 <- conv4_1
I0524 17:37:16.111940 20296 net.cpp:408] conv4_2 -> conv4_2
I0524 17:37:16.120381 20310 blocking_queue.cpp:50] Waiting for data
I0524 17:37:16.123847 20296 net.cpp:150] Setting up conv4_2
I0524 17:37:16.123859 20296 net.cpp:157] Top shape: 8 512 38 38 (5914624)
I0524 17:37:16.123862 20296 net.cpp:165] Memory required for data: 1603444896
I0524 17:37:16.123886 20296 layer_factory.hpp:77] Creating layer relu4_2
I0524 17:37:16.123893 20296 net.cpp:100] Creating Layer relu4_2
I0524 17:37:16.123895 20296 net.cpp:434] relu4_2 <- conv4_2
I0524 17:37:16.123901 20296 net.cpp:395] relu4_2 -> conv4_2 (in-place)
I0524 17:37:16.123922 20296 net.cpp:150] Setting up relu4_2
I0524 17:37:16.123925 20296 net.cpp:157] Top shape: 8 512 38 38 (5914624)
I0524 17:37:16.123927 20296 net.cpp:165] Memory required for data: 1627103392
I0524 17:37:16.123929 20296 layer_factory.hpp:77] Creating layer conv4_3
I0524 17:37:16.123950 20296 net.cpp:100] Creating Layer conv4_3
I0524 17:37:16.123952 20296 net.cpp:434] conv4_3 <- conv4_2
I0524 17:37:16.123956 20296 net.cpp:408] conv4_3 -> conv4_3
I0524 17:37:16.135970 20296 net.cpp:150] Setting up conv4_3
I0524 17:37:16.135990 20296 net.cpp:157] Top shape: 8 512 38 38 (5914624)
I0524 17:37:16.135993 20296 net.cpp:165] Memory required for data: 1650761888
I0524 17:37:16.135999 20296 layer_factory.hpp:77] Creating layer relu4_3
I0524 17:37:16.136020 20296 net.cpp:100] Creating Layer relu4_3
I0524 17:37:16.136039 20296 net.cpp:434] relu4_3 <- conv4_3
I0524 17:37:16.136044 20296 net.cpp:395] relu4_3 -> conv4_3 (in-place)
I0524 17:37:16.136063 20296 net.cpp:150] Setting up relu4_3
I0524 17:37:16.136068 20296 net.cpp:157] Top shape: 8 512 38 38 (5914624)
I0524 17:37:16.136070 20296 net.cpp:165] Memory required for data: 1674420384
I0524 17:37:16.136072 20296 layer_factory.hpp:77] Creating layer conv4_3_relu4_3_0_split
I0524 17:37:16.136077 20296 net.cpp:100] Creating Layer conv4_3_relu4_3_0_split
I0524 17:37:16.136080 20296 net.cpp:434] conv4_3_relu4_3_0_split <- conv4_3
I0524 17:37:16.136097 20296 net.cpp:408] conv4_3_relu4_3_0_split -> conv4_3_relu4_3_0_split_0
I0524 17:37:16.136103 20296 net.cpp:408] conv4_3_relu4_3_0_split -> conv4_3_relu4_3_0_split_1
I0524 17:37:16.136131 20296 net.cpp:150] Setting up conv4_3_relu4_3_0_split
I0524 17:37:16.136148 20296 net.cpp:157] Top shape: 8 512 38 38 (5914624)
I0524 17:37:16.136150 20296 net.cpp:157] Top shape: 8 512 38 38 (5914624)
I0524 17:37:16.136152 20296 net.cpp:165] Memory required for data: 1721737376
I0524 17:37:16.136154 20296 layer_factory.hpp:77] Creating layer pool4
I0524 17:37:16.136174 20296 net.cpp:100] Creating Layer pool4
I0524 17:37:16.136176 20296 net.cpp:434] pool4 <- conv4_3_relu4_3_0_split_0
I0524 17:37:16.136180 20296 net.cpp:408] pool4 -> pool4
I0524 17:37:16.136232 20296 net.cpp:150] Setting up pool4
I0524 17:37:16.136236 20296 net.cpp:157] Top shape: 8 512 19 19 (1478656)
I0524 17:37:16.136251 20296 net.cpp:165] Memory required for data: 1727652000
I0524 17:37:16.136255 20296 layer_factory.hpp:77] Creating layer conv5_1
I0524 17:37:16.136276 20296 net.cpp:100] Creating Layer conv5_1
I0524 17:37:16.136278 20296 net.cpp:434] conv5_1 <- pool4
I0524 17:37:16.136282 20296 net.cpp:408] conv5_1 -> conv5_1
I0524 17:37:16.148113 20296 net.cpp:150] Setting up conv5_1
I0524 17:37:16.148133 20296 net.cpp:157] Top shape: 8 512 19 19 (1478656)
I0524 17:37:16.148135 20296 net.cpp:165] Memory required for data: 1733566624
I0524 17:37:16.148142 20296 layer_factory.hpp:77] Creating layer relu5_1
I0524 17:37:16.148149 20296 net.cpp:100] Creating Layer relu5_1
I0524 17:37:16.148154 20296 net.cpp:434] relu5_1 <- conv5_1
I0524 17:37:16.148159 20296 net.cpp:395] relu5_1 -> conv5_1 (in-place)
I0524 17:37:16.148165 20296 net.cpp:150] Setting up relu5_1
I0524 17:37:16.148185 20296 net.cpp:157] Top shape: 8 512 19 19 (1478656)
I0524 17:37:16.148186 20296 net.cpp:165] Memory required for data: 1739481248
I0524 17:37:16.148188 20296 layer_factory.hpp:77] Creating layer conv5_2
I0524 17:37:16.148195 20296 net.cpp:100] Creating Layer conv5_2
I0524 17:37:16.148198 20296 net.cpp:434] conv5_2 <- conv5_1
I0524 17:37:16.148216 20296 net.cpp:408] conv5_2 -> conv5_2
I0524 17:37:16.160022 20296 net.cpp:150] Setting up conv5_2
I0524 17:37:16.160040 20296 net.cpp:157] Top shape: 8 512 19 19 (1478656)
I0524 17:37:16.160043 20296 net.cpp:165] Memory required for data: 1745395872
I0524 17:37:16.160049 20296 layer_factory.hpp:77] Creating layer relu5_2
I0524 17:37:16.160056 20296 net.cpp:100] Creating Layer relu5_2
I0524 17:37:16.160059 20296 net.cpp:434] relu5_2 <- conv5_2
I0524 17:37:16.160079 20296 net.cpp:395] relu5_2 -> conv5_2 (in-place)
I0524 17:37:16.160085 20296 net.cpp:150] Setting up relu5_2
I0524 17:37:16.160089 20296 net.cpp:157] Top shape: 8 512 19 19 (1478656)
I0524 17:37:16.160091 20296 net.cpp:165] Memory required for data: 1751310496
I0524 17:37:16.160094 20296 layer_factory.hpp:77] Creating layer conv5_3
I0524 17:37:16.160115 20296 net.cpp:100] Creating Layer conv5_3
I0524 17:37:16.160118 20296 net.cpp:434] conv5_3 <- conv5_2
I0524 17:37:16.160123 20296 net.cpp:408] conv5_3 -> conv5_3
I0524 17:37:16.171703 20296 net.cpp:150] Setting up conv5_3
I0524 17:37:16.171725 20296 net.cpp:157] Top shape: 8 512 19 19 (1478656)
I0524 17:37:16.171726 20296 net.cpp:165] Memory required for data: 1757225120
I0524 17:37:16.171732 20296 layer_factory.hpp:77] Creating layer relu5_3
I0524 17:37:16.171743 20296 net.cpp:100] Creating Layer relu5_3
I0524 17:37:16.171764 20296 net.cpp:434] relu5_3 <- conv5_3
I0524 17:37:16.171782 20296 net.cpp:395] relu5_3 -> conv5_3 (in-place)
I0524 17:37:16.171788 20296 net.cpp:150] Setting up relu5_3
I0524 17:37:16.171792 20296 net.cpp:157] Top shape: 8 512 19 19 (1478656)
I0524 17:37:16.171793 20296 net.cpp:165] Memory required for data: 1763139744
I0524 17:37:16.171795 20296 layer_factory.hpp:77] Creating layer pool5
I0524 17:37:16.171802 20296 net.cpp:100] Creating Layer pool5
I0524 17:37:16.171805 20296 net.cpp:434] pool5 <- conv5_3
I0524 17:37:16.171808 20296 net.cpp:408] pool5 -> pool5
I0524 17:37:16.171878 20296 net.cpp:150] Setting up pool5
I0524 17:37:16.171883 20296 net.cpp:157] Top shape: 8 512 19 19 (1478656)
I0524 17:37:16.171885 20296 net.cpp:165] Memory required for data: 1769054368
I0524 17:37:16.171888 20296 layer_factory.hpp:77] Creating layer fc6
I0524 17:37:16.171895 20296 net.cpp:100] Creating Layer fc6
I0524 17:37:16.171898 20296 net.cpp:434] fc6 <- pool5
I0524 17:37:16.171903 20296 net.cpp:408] fc6 -> fc6
I0524 17:37:16.196020 20296 net.cpp:150] Setting up fc6
I0524 17:37:16.196039 20296 net.cpp:157] Top shape: 8 1024 19 19 (2957312)
I0524 17:37:16.196043 20296 net.cpp:165] Memory required for data: 1780883616
I0524 17:37:16.196048 20296 layer_factory.hpp:77] Creating layer relu6
I0524 17:37:16.196054 20296 net.cpp:100] Creating Layer relu6
I0524 17:37:16.196058 20296 net.cpp:434] relu6 <- fc6
I0524 17:37:16.196063 20296 net.cpp:395] relu6 -> fc6 (in-place)
I0524 17:37:16.196069 20296 net.cpp:150] Setting up relu6
I0524 17:37:16.196071 20296 net.cpp:157] Top shape: 8 1024 19 19 (2957312)
I0524 17:37:16.196074 20296 net.cpp:165] Memory required for data: 1792712864
I0524 17:37:16.196075 20296 layer_factory.hpp:77] Creating layer fc7
I0524 17:37:16.196081 20296 net.cpp:100] Creating Layer fc7
I0524 17:37:16.196084 20296 net.cpp:434] fc7 <- fc6
I0524 17:37:16.196089 20296 net.cpp:408] fc7 -> fc7
I0524 17:37:16.201567 20296 net.cpp:150] Setting up fc7
I0524 17:37:16.201588 20296 net.cpp:157] Top shape: 8 1024 19 19 (2957312)
I0524 17:37:16.201591 20296 net.cpp:165] Memory required for data: 1804542112
I0524 17:37:16.201612 20296 layer_factory.hpp:77] Creating layer relu7
I0524 17:37:16.201619 20296 net.cpp:100] Creating Layer relu7
I0524 17:37:16.201623 20296 net.cpp:434] relu7 <- fc7
I0524 17:37:16.201640 20296 net.cpp:395] relu7 -> fc7 (in-place)
I0524 17:37:16.201647 20296 net.cpp:150] Setting up relu7
I0524 17:37:16.201649 20296 net.cpp:157] Top shape: 8 1024 19 19 (2957312)
I0524 17:37:16.201653 20296 net.cpp:165] Memory required for data: 1816371360
I0524 17:37:16.201654 20296 layer_factory.hpp:77] Creating layer fc7_relu7_0_split
I0524 17:37:16.201674 20296 net.cpp:100] Creating Layer fc7_relu7_0_split
I0524 17:37:16.201678 20296 net.cpp:434] fc7_relu7_0_split <- fc7
I0524 17:37:16.201696 20296 net.cpp:408] fc7_relu7_0_split -> fc7_relu7_0_split_0
I0524 17:37:16.201701 20296 net.cpp:408] fc7_relu7_0_split -> fc7_relu7_0_split_1
I0524 17:37:16.201710 20296 net.cpp:408] fc7_relu7_0_split -> fc7_relu7_0_split_2
I0524 17:37:16.201731 20296 net.cpp:408] fc7_relu7_0_split -> fc7_relu7_0_split_3
I0524 17:37:16.201800 20296 net.cpp:150] Setting up fc7_relu7_0_split
I0524 17:37:16.201805 20296 net.cpp:157] Top shape: 8 1024 19 19 (2957312)
I0524 17:37:16.201808 20296 net.cpp:157] Top shape: 8 1024 19 19 (2957312)
I0524 17:37:16.201823 20296 net.cpp:157] Top shape: 8 1024 19 19 (2957312)
I0524 17:37:16.201827 20296 net.cpp:157] Top shape: 8 1024 19 19 (2957312)
I0524 17:37:16.201828 20296 net.cpp:165] Memory required for data: 1863688352
I0524 17:37:16.201830 20296 layer_factory.hpp:77] Creating layer conv6_1
I0524 17:37:16.201854 20296 net.cpp:100] Creating Layer conv6_1
I0524 17:37:16.201870 20296 net.cpp:434] conv6_1 <- fc7_relu7_0_split_0
I0524 17:37:16.201876 20296 net.cpp:408] conv6_1 -> conv6_1
I0524 17:37:16.203663 20296 net.cpp:150] Setting up conv6_1
I0524 17:37:16.203671 20296 net.cpp:157] Top shape: 8 256 19 19 (739328)
I0524 17:37:16.203675 20296 net.cpp:165] Memory required for data: 1866645664
I0524 17:37:16.203678 20296 layer_factory.hpp:77] Creating layer conv6_1_relu
I0524 17:37:16.203691 20296 net.cpp:100] Creating Layer conv6_1_relu
I0524 17:37:16.203694 20296 net.cpp:434] conv6_1_relu <- conv6_1
I0524 17:37:16.203698 20296 net.cpp:395] conv6_1_relu -> conv6_1 (in-place)
I0524 17:37:16.203702 20296 net.cpp:150] Setting up conv6_1_relu
I0524 17:37:16.203706 20296 net.cpp:157] Top shape: 8 256 19 19 (739328)
I0524 17:37:16.203707 20296 net.cpp:165] Memory required for data: 1869602976
I0524 17:37:16.203711 20296 layer_factory.hpp:77] Creating layer conv6_2
I0524 17:37:16.203716 20296 net.cpp:100] Creating Layer conv6_2
I0524 17:37:16.203732 20296 net.cpp:434] conv6_2 <- conv6_1
I0524 17:37:16.203737 20296 net.cpp:408] conv6_2 -> conv6_2
I0524 17:37:16.209781 20296 net.cpp:150] Setting up conv6_2
I0524 17:37:16.209801 20296 net.cpp:157] Top shape: 8 512 10 10 (409600)
I0524 17:37:16.209805 20296 net.cpp:165] Memory required for data: 1871241376
I0524 17:37:16.209816 20296 layer_factory.hpp:77] Creating layer conv6_2_relu
I0524 17:37:16.209822 20296 net.cpp:100] Creating Layer conv6_2_relu
I0524 17:37:16.209841 20296 net.cpp:434] conv6_2_relu <- conv6_2
I0524 17:37:16.209847 20296 net.cpp:395] conv6_2_relu -> conv6_2 (in-place)
I0524 17:37:16.209854 20296 net.cpp:150] Setting up conv6_2_relu
I0524 17:37:16.209858 20296 net.cpp:157] Top shape: 8 512 10 10 (409600)
I0524 17:37:16.209861 20296 net.cpp:165] Memory required for data: 1872879776
I0524 17:37:16.209862 20296 layer_factory.hpp:77] Creating layer conv6_2_conv6_2_relu_0_split
I0524 17:37:16.209867 20296 net.cpp:100] Creating Layer conv6_2_conv6_2_relu_0_split
I0524 17:37:16.209869 20296 net.cpp:434] conv6_2_conv6_2_relu_0_split <- conv6_2
I0524 17:37:16.209874 20296 net.cpp:408] conv6_2_conv6_2_relu_0_split -> conv6_2_conv6_2_relu_0_split_0
I0524 17:37:16.209880 20296 net.cpp:408] conv6_2_conv6_2_relu_0_split -> conv6_2_conv6_2_relu_0_split_1
I0524 17:37:16.209884 20296 net.cpp:408] conv6_2_conv6_2_relu_0_split -> conv6_2_conv6_2_relu_0_split_2
I0524 17:37:16.209903 20296 net.cpp:408] conv6_2_conv6_2_relu_0_split -> conv6_2_conv6_2_relu_0_split_3
I0524 17:37:16.209951 20296 net.cpp:150] Setting up conv6_2_conv6_2_relu_0_split
I0524 17:37:16.209956 20296 net.cpp:157] Top shape: 8 512 10 10 (409600)
I0524 17:37:16.209959 20296 net.cpp:157] Top shape: 8 512 10 10 (409600)
I0524 17:37:16.209964 20296 net.cpp:157] Top shape: 8 512 10 10 (409600)
I0524 17:37:16.209965 20296 net.cpp:157] Top shape: 8 512 10 10 (409600)
I0524 17:37:16.209967 20296 net.cpp:165] Memory required for data: 1879433376
I0524 17:37:16.209982 20296 layer_factory.hpp:77] Creating layer conv7_1
I0524 17:37:16.210005 20296 net.cpp:100] Creating Layer conv7_1
I0524 17:37:16.210009 20296 net.cpp:434] conv7_1 <- conv6_2_conv6_2_relu_0_split_0
I0524 17:37:16.210014 20296 net.cpp:408] conv7_1 -> conv7_1
I0524 17:37:16.210443 20296 net.cpp:150] Setting up conv7_1
I0524 17:37:16.210448 20296 net.cpp:157] Top shape: 8 128 10 10 (102400)
I0524 17:37:16.210450 20296 net.cpp:165] Memory required for data: 1879842976
I0524 17:37:16.210453 20296 layer_factory.hpp:77] Creating layer conv7_1_relu
I0524 17:37:16.210458 20296 net.cpp:100] Creating Layer conv7_1_relu
I0524 17:37:16.210476 20296 net.cpp:434] conv7_1_relu <- conv7_1
I0524 17:37:16.210480 20296 net.cpp:395] conv7_1_relu -> conv7_1 (in-place)
I0524 17:37:16.210484 20296 net.cpp:150] Setting up conv7_1_relu
I0524 17:37:16.210487 20296 net.cpp:157] Top shape: 8 128 10 10 (102400)
I0524 17:37:16.210490 20296 net.cpp:165] Memory required for data: 1880252576
I0524 17:37:16.210492 20296 layer_factory.hpp:77] Creating layer conv7_2
I0524 17:37:16.210497 20296 net.cpp:100] Creating Layer conv7_2
I0524 17:37:16.210513 20296 net.cpp:434] conv7_2 <- conv7_1
I0524 17:37:16.210518 20296 net.cpp:408] conv7_2 -> conv7_2
I0524 17:37:16.212617 20296 net.cpp:150] Setting up conv7_2
I0524 17:37:16.212627 20296 net.cpp:157] Top shape: 8 256 5 5 (51200)
I0524 17:37:16.212630 20296 net.cpp:165] Memory required for data: 1880457376
I0524 17:37:16.212635 20296 layer_factory.hpp:77] Creating layer conv7_2_relu
I0524 17:37:16.212662 20296 net.cpp:100] Creating Layer conv7_2_relu
I0524 17:37:16.212666 20296 net.cpp:434] conv7_2_relu <- conv7_2
I0524 17:37:16.212671 20296 net.cpp:395] conv7_2_relu -> conv7_2 (in-place)
I0524 17:37:16.212677 20296 net.cpp:150] Setting up conv7_2_relu
I0524 17:37:16.212679 20296 net.cpp:157] Top shape: 8 256 5 5 (51200)
I0524 17:37:16.212682 20296 net.cpp:165] Memory required for data: 1880662176
I0524 17:37:16.212684 20296 layer_factory.hpp:77] Creating layer conv7_2_conv7_2_relu_0_split
I0524 17:37:16.212689 20296 net.cpp:100] Creating Layer conv7_2_conv7_2_relu_0_split
I0524 17:37:16.212692 20296 net.cpp:434] conv7_2_conv7_2_relu_0_split <- conv7_2
I0524 17:37:16.212695 20296 net.cpp:408] conv7_2_conv7_2_relu_0_split -> conv7_2_conv7_2_relu_0_split_0
I0524 17:37:16.212700 20296 net.cpp:408] conv7_2_conv7_2_relu_0_split -> conv7_2_conv7_2_relu_0_split_1
I0524 17:37:16.212707 20296 net.cpp:408] conv7_2_conv7_2_relu_0_split -> conv7_2_conv7_2_relu_0_split_2
I0524 17:37:16.212725 20296 net.cpp:408] conv7_2_conv7_2_relu_0_split -> conv7_2_conv7_2_relu_0_split_3
I0524 17:37:16.212766 20296 net.cpp:150] Setting up conv7_2_conv7_2_relu_0_split
I0524 17:37:16.212772 20296 net.cpp:157] Top shape: 8 256 5 5 (51200)
I0524 17:37:16.212777 20296 net.cpp:157] Top shape: 8 256 5 5 (51200)
I0524 17:37:16.212782 20296 net.cpp:157] Top shape: 8 256 5 5 (51200)
I0524 17:37:16.212786 20296 net.cpp:157] Top shape: 8 256 5 5 (51200)
I0524 17:37:16.212790 20296 net.cpp:165] Memory required for data: 1881481376
I0524 17:37:16.212793 20296 layer_factory.hpp:77] Creating layer conv8_1
I0524 17:37:16.212803 20296 net.cpp:100] Creating Layer conv8_1
I0524 17:37:16.212810 20296 net.cpp:434] conv8_1 <- conv7_2_conv7_2_relu_0_split_0
I0524 17:37:16.212816 20296 net.cpp:408] conv8_1 -> conv8_1
I0524 17:37:16.213088 20296 net.cpp:150] Setting up conv8_1
I0524 17:37:16.213093 20296 net.cpp:157] Top shape: 8 128 5 5 (25600)
I0524 17:37:16.213095 20296 net.cpp:165] Memory required for data: 1881583776
I0524 17:37:16.213099 20296 layer_factory.hpp:77] Creating layer conv8_1_relu
I0524 17:37:16.213104 20296 net.cpp:100] Creating Layer conv8_1_relu
I0524 17:37:16.213106 20296 net.cpp:434] conv8_1_relu <- conv8_1
I0524 17:37:16.213110 20296 net.cpp:395] conv8_1_relu -> conv8_1 (in-place)
I0524 17:37:16.213114 20296 net.cpp:150] Setting up conv8_1_relu
I0524 17:37:16.213119 20296 net.cpp:157] Top shape: 8 128 5 5 (25600)
I0524 17:37:16.213120 20296 net.cpp:165] Memory required for data: 1881686176
I0524 17:37:16.213122 20296 layer_factory.hpp:77] Creating layer conv8_2
I0524 17:37:16.213126 20296 net.cpp:100] Creating Layer conv8_2
I0524 17:37:16.213129 20296 net.cpp:434] conv8_2 <- conv8_1
I0524 17:37:16.213134 20296 net.cpp:408] conv8_2 -> conv8_2
I0524 17:37:16.215113 20296 net.cpp:150] Setting up conv8_2
I0524 17:37:16.215122 20296 net.cpp:157] Top shape: 8 256 3 3 (18432)
I0524 17:37:16.215126 20296 net.cpp:165] Memory required for data: 1881759904
I0524 17:37:16.215129 20296 layer_factory.hpp:77] Creating layer conv8_2_relu
I0524 17:37:16.215134 20296 net.cpp:100] Creating Layer conv8_2_relu
I0524 17:37:16.215137 20296 net.cpp:434] conv8_2_relu <- conv8_2
I0524 17:37:16.215142 20296 net.cpp:395] conv8_2_relu -> conv8_2 (in-place)
I0524 17:37:16.215147 20296 net.cpp:150] Setting up conv8_2_relu
I0524 17:37:16.215152 20296 net.cpp:157] Top shape: 8 256 3 3 (18432)
I0524 17:37:16.215153 20296 net.cpp:165] Memory required for data: 1881833632
I0524 17:37:16.215155 20296 layer_factory.hpp:77] Creating layer conv8_2_conv8_2_relu_0_split
I0524 17:37:16.215158 20296 net.cpp:100] Creating Layer conv8_2_conv8_2_relu_0_split
I0524 17:37:16.215160 20296 net.cpp:434] conv8_2_conv8_2_relu_0_split <- conv8_2
I0524 17:37:16.215164 20296 net.cpp:408] conv8_2_conv8_2_relu_0_split -> conv8_2_conv8_2_relu_0_split_0
I0524 17:37:16.215170 20296 net.cpp:408] conv8_2_conv8_2_relu_0_split -> conv8_2_conv8_2_relu_0_split_1
I0524 17:37:16.215175 20296 net.cpp:408] conv8_2_conv8_2_relu_0_split -> conv8_2_conv8_2_relu_0_split_2
I0524 17:37:16.215179 20296 net.cpp:408] conv8_2_conv8_2_relu_0_split -> conv8_2_conv8_2_relu_0_split_3
I0524 17:37:16.215227 20296 net.cpp:150] Setting up conv8_2_conv8_2_relu_0_split
I0524 17:37:16.215232 20296 net.cpp:157] Top shape: 8 256 3 3 (18432)
I0524 17:37:16.215236 20296 net.cpp:157] Top shape: 8 256 3 3 (18432)
I0524 17:37:16.215239 20296 net.cpp:157] Top shape: 8 256 3 3 (18432)
I0524 17:37:16.215241 20296 net.cpp:157] Top shape: 8 256 3 3 (18432)
I0524 17:37:16.215243 20296 net.cpp:165] Memory required for data: 1882128544
I0524 17:37:16.215246 20296 layer_factory.hpp:77] Creating layer conv9_1
I0524 17:37:16.215252 20296 net.cpp:100] Creating Layer conv9_1
I0524 17:37:16.215255 20296 net.cpp:434] conv9_1 <- conv8_2_conv8_2_relu_0_split_0
I0524 17:37:16.215260 20296 net.cpp:408] conv9_1 -> conv9_1
I0524 17:37:16.215523 20296 net.cpp:150] Setting up conv9_1
I0524 17:37:16.215529 20296 net.cpp:157] Top shape: 8 128 3 3 (9216)
I0524 17:37:16.215531 20296 net.cpp:165] Memory required for data: 1882165408
I0524 17:37:16.215535 20296 layer_factory.hpp:77] Creating layer conv9_1_relu
I0524 17:37:16.215539 20296 net.cpp:100] Creating Layer conv9_1_relu
I0524 17:37:16.215541 20296 net.cpp:434] conv9_1_relu <- conv9_1
I0524 17:37:16.215545 20296 net.cpp:395] conv9_1_relu -> conv9_1 (in-place)
I0524 17:37:16.215550 20296 net.cpp:150] Setting up conv9_1_relu
I0524 17:37:16.215553 20296 net.cpp:157] Top shape: 8 128 3 3 (9216)
I0524 17:37:16.215555 20296 net.cpp:165] Memory required for data: 1882202272
I0524 17:37:16.215557 20296 layer_factory.hpp:77] Creating layer conv9_2
I0524 17:37:16.215564 20296 net.cpp:100] Creating Layer conv9_2
I0524 17:37:16.215565 20296 net.cpp:434] conv9_2 <- conv9_1
I0524 17:37:16.215569 20296 net.cpp:408] conv9_2 -> conv9_2
I0524 17:37:16.217598 20296 net.cpp:150] Setting up conv9_2
I0524 17:37:16.217627 20296 net.cpp:157] Top shape: 8 256 1 1 (2048)
I0524 17:37:16.217628 20296 net.cpp:165] Memory required for data: 1882210464
I0524 17:37:16.217633 20296 layer_factory.hpp:77] Creating layer conv9_2_relu
I0524 17:37:16.217638 20296 net.cpp:100] Creating Layer conv9_2_relu
I0524 17:37:16.217641 20296 net.cpp:434] conv9_2_relu <- conv9_2
I0524 17:37:16.217646 20296 net.cpp:395] conv9_2_relu -> conv9_2 (in-place)
I0524 17:37:16.217665 20296 net.cpp:150] Setting up conv9_2_relu
I0524 17:37:16.217669 20296 net.cpp:157] Top shape: 8 256 1 1 (2048)
I0524 17:37:16.217674 20296 net.cpp:165] Memory required for data: 1882218656
I0524 17:37:16.217675 20296 layer_factory.hpp:77] Creating layer conv9_2_conv9_2_relu_0_split
I0524 17:37:16.217679 20296 net.cpp:100] Creating Layer conv9_2_conv9_2_relu_0_split
I0524 17:37:16.217680 20296 net.cpp:434] conv9_2_conv9_2_relu_0_split <- conv9_2
I0524 17:37:16.217686 20296 net.cpp:408] conv9_2_conv9_2_relu_0_split -> conv9_2_conv9_2_relu_0_split_0
I0524 17:37:16.217691 20296 net.cpp:408] conv9_2_conv9_2_relu_0_split -> conv9_2_conv9_2_relu_0_split_1
I0524 17:37:16.217696 20296 net.cpp:408] conv9_2_conv9_2_relu_0_split -> conv9_2_conv9_2_relu_0_split_2
I0524 17:37:16.217730 20296 net.cpp:150] Setting up conv9_2_conv9_2_relu_0_split
I0524 17:37:16.217748 20296 net.cpp:157] Top shape: 8 256 1 1 (2048)
I0524 17:37:16.217751 20296 net.cpp:157] Top shape: 8 256 1 1 (2048)
I0524 17:37:16.217754 20296 net.cpp:157] Top shape: 8 256 1 1 (2048)
I0524 17:37:16.217756 20296 net.cpp:165] Memory required for data: 1882243232
I0524 17:37:16.217759 20296 layer_factory.hpp:77] Creating layer conv4_3_norm
I0524 17:37:16.217763 20296 net.cpp:100] Creating Layer conv4_3_norm
I0524 17:37:16.217767 20296 net.cpp:434] conv4_3_norm <- conv4_3_relu4_3_0_split_1
I0524 17:37:16.217772 20296 net.cpp:408] conv4_3_norm -> conv4_3_norm
I0524 17:37:16.217902 20296 net.cpp:150] Setting up conv4_3_norm
I0524 17:37:16.217907 20296 net.cpp:157] Top shape: 8 512 38 38 (5914624)
I0524 17:37:16.217911 20296 net.cpp:165] Memory required for data: 1905901728
I0524 17:37:16.217913 20296 layer_factory.hpp:77] Creating layer conv4_3_norm_conv4_3_norm_0_split
I0524 17:37:16.217917 20296 net.cpp:100] Creating Layer conv4_3_norm_conv4_3_norm_0_split
I0524 17:37:16.217928 20296 net.cpp:434] conv4_3_norm_conv4_3_norm_0_split <- conv4_3_norm
I0524 17:37:16.217947 20296 net.cpp:408] conv4_3_norm_conv4_3_norm_0_split -> conv4_3_norm_conv4_3_norm_0_split_0
I0524 17:37:16.217952 20296 net.cpp:408] conv4_3_norm_conv4_3_norm_0_split -> conv4_3_norm_conv4_3_norm_0_split_1
I0524 17:37:16.217972 20296 net.cpp:408] conv4_3_norm_conv4_3_norm_0_split -> conv4_3_norm_conv4_3_norm_0_split_2
I0524 17:37:16.218000 20296 net.cpp:150] Setting up conv4_3_norm_conv4_3_norm_0_split
I0524 17:37:16.218019 20296 net.cpp:157] Top shape: 8 512 38 38 (5914624)
I0524 17:37:16.218021 20296 net.cpp:157] Top shape: 8 512 38 38 (5914624)
I0524 17:37:16.218024 20296 net.cpp:157] Top shape: 8 512 38 38 (5914624)
I0524 17:37:16.218026 20296 net.cpp:165] Memory required for data: 1976877216
I0524 17:37:16.218029 20296 layer_factory.hpp:77] Creating layer conv4_3_norm_mbox_loc
I0524 17:37:16.218034 20296 net.cpp:100] Creating Layer conv4_3_norm_mbox_loc
I0524 17:37:16.218039 20296 net.cpp:434] conv4_3_norm_mbox_loc <- conv4_3_norm_conv4_3_norm_0_split_0
I0524 17:37:16.218042 20296 net.cpp:408] conv4_3_norm_mbox_loc -> conv4_3_norm_mbox_loc
I0524 17:37:16.218509 20296 net.cpp:150] Setting up conv4_3_norm_mbox_loc
I0524 17:37:16.218515 20296 net.cpp:157] Top shape: 8 16 38 38 (184832)
I0524 17:37:16.218518 20296 net.cpp:165] Memory required for data: 1977616544
I0524 17:37:16.218521 20296 layer_factory.hpp:77] Creating layer conv4_3_norm_mbox_loc_perm
I0524 17:37:16.218528 20296 net.cpp:100] Creating Layer conv4_3_norm_mbox_loc_perm
I0524 17:37:16.218530 20296 net.cpp:434] conv4_3_norm_mbox_loc_perm <- conv4_3_norm_mbox_loc
I0524 17:37:16.218535 20296 net.cpp:408] conv4_3_norm_mbox_loc_perm -> conv4_3_norm_mbox_loc_perm
I0524 17:37:16.218597 20296 net.cpp:150] Setting up conv4_3_norm_mbox_loc_perm
I0524 17:37:16.218602 20296 net.cpp:157] Top shape: 8 38 38 16 (184832)
I0524 17:37:16.218605 20296 net.cpp:165] Memory required for data: 1978355872
I0524 17:37:16.218607 20296 layer_factory.hpp:77] Creating layer conv4_3_norm_mbox_loc_flat
I0524 17:37:16.218611 20296 net.cpp:100] Creating Layer conv4_3_norm_mbox_loc_flat
I0524 17:37:16.218613 20296 net.cpp:434] conv4_3_norm_mbox_loc_flat <- conv4_3_norm_mbox_loc_perm
I0524 17:37:16.218616 20296 net.cpp:408] conv4_3_norm_mbox_loc_flat -> conv4_3_norm_mbox_loc_flat
I0524 17:37:16.218641 20296 net.cpp:150] Setting up conv4_3_norm_mbox_loc_flat
I0524 17:37:16.218646 20296 net.cpp:157] Top shape: 8 23104 (184832)
I0524 17:37:16.218648 20296 net.cpp:165] Memory required for data: 1979095200
I0524 17:37:16.218650 20296 layer_factory.hpp:77] Creating layer conv4_3_norm_mbox_conf
I0524 17:37:16.218660 20296 net.cpp:100] Creating Layer conv4_3_norm_mbox_conf
I0524 17:37:16.218663 20296 net.cpp:434] conv4_3_norm_mbox_conf <- conv4_3_norm_conv4_3_norm_0_split_1
I0524 17:37:16.218667 20296 net.cpp:408] conv4_3_norm_mbox_conf -> conv4_3_norm_mbox_conf
I0524 17:37:16.221238 20296 net.cpp:150] Setting up conv4_3_norm_mbox_conf
I0524 17:37:16.221254 20296 net.cpp:157] Top shape: 8 84 38 38 (970368)
I0524 17:37:16.221257 20296 net.cpp:165] Memory required for data: 1982976672
I0524 17:37:16.221263 20296 layer_factory.hpp:77] Creating layer conv4_3_norm_mbox_conf_perm
I0524 17:37:16.221268 20296 net.cpp:100] Creating Layer conv4_3_norm_mbox_conf_perm
I0524 17:37:16.221272 20296 net.cpp:434] conv4_3_norm_mbox_conf_perm <- conv4_3_norm_mbox_conf
I0524 17:37:16.221277 20296 net.cpp:408] conv4_3_norm_mbox_conf_perm -> conv4_3_norm_mbox_conf_perm
I0524 17:37:16.221382 20296 net.cpp:150] Setting up conv4_3_norm_mbox_conf_perm
I0524 17:37:16.221387 20296 net.cpp:157] Top shape: 8 38 38 84 (970368)
I0524 17:37:16.221390 20296 net.cpp:165] Memory required for data: 1986858144
I0524 17:37:16.221391 20296 layer_factory.hpp:77] Creating layer conv4_3_norm_mbox_conf_flat
I0524 17:37:16.221396 20296 net.cpp:100] Creating Layer conv4_3_norm_mbox_conf_flat
I0524 17:37:16.221400 20296 net.cpp:434] conv4_3_norm_mbox_conf_flat <- conv4_3_norm_mbox_conf_perm
I0524 17:37:16.221403 20296 net.cpp:408] conv4_3_norm_mbox_conf_flat -> conv4_3_norm_mbox_conf_flat
I0524 17:37:16.221457 20296 net.cpp:150] Setting up conv4_3_norm_mbox_conf_flat
I0524 17:37:16.221462 20296 net.cpp:157] Top shape: 8 121296 (970368)
I0524 17:37:16.221477 20296 net.cpp:165] Memory required for data: 1990739616
I0524 17:37:16.221479 20296 layer_factory.hpp:77] Creating layer conv4_3_norm_mbox_priorbox
I0524 17:37:16.221498 20296 net.cpp:100] Creating Layer conv4_3_norm_mbox_priorbox
I0524 17:37:16.221501 20296 net.cpp:434] conv4_3_norm_mbox_priorbox <- conv4_3_norm_conv4_3_norm_0_split_2
I0524 17:37:16.221505 20296 net.cpp:434] conv4_3_norm_mbox_priorbox <- data_data_0_split_1
I0524 17:37:16.221525 20296 net.cpp:408] conv4_3_norm_mbox_priorbox -> conv4_3_norm_mbox_priorbox
I0524 17:37:16.221575 20296 net.cpp:150] Setting up conv4_3_norm_mbox_priorbox
I0524 17:37:16.221580 20296 net.cpp:157] Top shape: 1 2 23104 (46208)
I0524 17:37:16.221581 20296 net.cpp:165] Memory required for data: 1990924448
I0524 17:37:16.221583 20296 layer_factory.hpp:77] Creating layer fc7_mbox_loc
I0524 17:37:16.221603 20296 net.cpp:100] Creating Layer fc7_mbox_loc
I0524 17:37:16.221607 20296 net.cpp:434] fc7_mbox_loc <- fc7_relu7_0_split_1
I0524 17:37:16.221612 20296 net.cpp:408] fc7_mbox_loc -> fc7_mbox_loc
I0524 17:37:16.222645 20296 net.cpp:150] Setting up fc7_mbox_loc
I0524 17:37:16.222651 20296 net.cpp:157] Top shape: 8 24 19 19 (69312)
I0524 17:37:16.222653 20296 net.cpp:165] Memory required for data: 1991201696
I0524 17:37:16.222657 20296 layer_factory.hpp:77] Creating layer fc7_mbox_loc_perm
I0524 17:37:16.222677 20296 net.cpp:100] Creating Layer fc7_mbox_loc_perm
I0524 17:37:16.222681 20296 net.cpp:434] fc7_mbox_loc_perm <- fc7_mbox_loc
I0524 17:37:16.222684 20296 net.cpp:408] fc7_mbox_loc_perm -> fc7_mbox_loc_perm
I0524 17:37:16.222785 20296 net.cpp:150] Setting up fc7_mbox_loc_perm
I0524 17:37:16.222790 20296 net.cpp:157] Top shape: 8 19 19 24 (69312)
I0524 17:37:16.222792 20296 net.cpp:165] Memory required for data: 1991478944
I0524 17:37:16.222795 20296 layer_factory.hpp:77] Creating layer fc7_mbox_loc_flat
I0524 17:37:16.222802 20296 net.cpp:100] Creating Layer fc7_mbox_loc_flat
I0524 17:37:16.222806 20296 net.cpp:434] fc7_mbox_loc_flat <- fc7_mbox_loc_perm
I0524 17:37:16.222810 20296 net.cpp:408] fc7_mbox_loc_flat -> fc7_mbox_loc_flat
I0524 17:37:16.222839 20296 net.cpp:150] Setting up fc7_mbox_loc_flat
I0524 17:37:16.222843 20296 net.cpp:157] Top shape: 8 8664 (69312)
I0524 17:37:16.222846 20296 net.cpp:165] Memory required for data: 1991756192
I0524 17:37:16.222848 20296 layer_factory.hpp:77] Creating layer fc7_mbox_conf
I0524 17:37:16.222853 20296 net.cpp:100] Creating Layer fc7_mbox_conf
I0524 17:37:16.222856 20296 net.cpp:434] fc7_mbox_conf <- fc7_relu7_0_split_2
I0524 17:37:16.222875 20296 net.cpp:408] fc7_mbox_conf -> fc7_mbox_conf
I0524 17:37:16.228934 20296 net.cpp:150] Setting up fc7_mbox_conf
I0524 17:37:16.228953 20296 net.cpp:157] Top shape: 8 126 19 19 (363888)
I0524 17:37:16.228955 20296 net.cpp:165] Memory required for data: 1993211744
I0524 17:37:16.228962 20296 layer_factory.hpp:77] Creating layer fc7_mbox_conf_perm
I0524 17:37:16.228970 20296 net.cpp:100] Creating Layer fc7_mbox_conf_perm
I0524 17:37:16.228988 20296 net.cpp:434] fc7_mbox_conf_perm <- fc7_mbox_conf
I0524 17:37:16.228994 20296 net.cpp:408] fc7_mbox_conf_perm -> fc7_mbox_conf_perm
I0524 17:37:16.229105 20296 net.cpp:150] Setting up fc7_mbox_conf_perm
I0524 17:37:16.229111 20296 net.cpp:157] Top shape: 8 19 19 126 (363888)
I0524 17:37:16.229115 20296 net.cpp:165] Memory required for data: 1994667296
I0524 17:37:16.229130 20296 layer_factory.hpp:77] Creating layer fc7_mbox_conf_flat
I0524 17:37:16.229135 20296 net.cpp:100] Creating Layer fc7_mbox_conf_flat
I0524 17:37:16.229152 20296 net.cpp:434] fc7_mbox_conf_flat <- fc7_mbox_conf_perm
I0524 17:37:16.229157 20296 net.cpp:408] fc7_mbox_conf_flat -> fc7_mbox_conf_flat
I0524 17:37:16.229173 20296 net.cpp:150] Setting up fc7_mbox_conf_flat
I0524 17:37:16.229192 20296 net.cpp:157] Top shape: 8 45486 (363888)
I0524 17:37:16.229214 20296 net.cpp:165] Memory required for data: 1996122848
I0524 17:37:16.229218 20296 layer_factory.hpp:77] Creating layer fc7_mbox_priorbox
I0524 17:37:16.229238 20296 net.cpp:100] Creating Layer fc7_mbox_priorbox
I0524 17:37:16.229243 20296 net.cpp:434] fc7_mbox_priorbox <- fc7_relu7_0_split_3
I0524 17:37:16.229246 20296 net.cpp:434] fc7_mbox_priorbox <- data_data_0_split_2
I0524 17:37:16.229271 20296 net.cpp:408] fc7_mbox_priorbox -> fc7_mbox_priorbox
I0524 17:37:16.229290 20296 net.cpp:150] Setting up fc7_mbox_priorbox
I0524 17:37:16.229295 20296 net.cpp:157] Top shape: 1 2 8664 (17328)
I0524 17:37:16.229297 20296 net.cpp:165] Memory required for data: 1996192160
I0524 17:37:16.229300 20296 layer_factory.hpp:77] Creating layer conv6_2_mbox_loc
I0524 17:37:16.229308 20296 net.cpp:100] Creating Layer conv6_2_mbox_loc
I0524 17:37:16.229312 20296 net.cpp:434] conv6_2_mbox_loc <- conv6_2_conv6_2_relu_0_split_1
I0524 17:37:16.229316 20296 net.cpp:408] conv6_2_mbox_loc -> conv6_2_mbox_loc
I0524 17:37:16.229912 20296 net.cpp:150] Setting up conv6_2_mbox_loc
I0524 17:37:16.229918 20296 net.cpp:157] Top shape: 8 24 10 10 (19200)
I0524 17:37:16.229920 20296 net.cpp:165] Memory required for data: 1996268960
I0524 17:37:16.229924 20296 layer_factory.hpp:77] Creating layer conv6_2_mbox_loc_perm
I0524 17:37:16.229930 20296 net.cpp:100] Creating Layer conv6_2_mbox_loc_perm
I0524 17:37:16.229933 20296 net.cpp:434] conv6_2_mbox_loc_perm <- conv6_2_mbox_loc
I0524 17:37:16.229938 20296 net.cpp:408] conv6_2_mbox_loc_perm -> conv6_2_mbox_loc_perm
I0524 17:37:16.230000 20296 net.cpp:150] Setting up conv6_2_mbox_loc_perm
I0524 17:37:16.230003 20296 net.cpp:157] Top shape: 8 10 10 24 (19200)
I0524 17:37:16.230005 20296 net.cpp:165] Memory required for data: 1996345760
I0524 17:37:16.230008 20296 layer_factory.hpp:77] Creating layer conv6_2_mbox_loc_flat
I0524 17:37:16.230011 20296 net.cpp:100] Creating Layer conv6_2_mbox_loc_flat
I0524 17:37:16.230015 20296 net.cpp:434] conv6_2_mbox_loc_flat <- conv6_2_mbox_loc_perm
I0524 17:37:16.230018 20296 net.cpp:408] conv6_2_mbox_loc_flat -> conv6_2_mbox_loc_flat
I0524 17:37:16.230033 20296 net.cpp:150] Setting up conv6_2_mbox_loc_flat
I0524 17:37:16.230038 20296 net.cpp:157] Top shape: 8 2400 (19200)
I0524 17:37:16.230041 20296 net.cpp:165] Memory required for data: 1996422560
I0524 17:37:16.230042 20296 layer_factory.hpp:77] Creating layer conv6_2_mbox_conf
I0524 17:37:16.230048 20296 net.cpp:100] Creating Layer conv6_2_mbox_conf
I0524 17:37:16.230051 20296 net.cpp:434] conv6_2_mbox_conf <- conv6_2_conv6_2_relu_0_split_2
I0524 17:37:16.230057 20296 net.cpp:408] conv6_2_mbox_conf -> conv6_2_mbox_conf
I0524 17:37:16.233242 20296 net.cpp:150] Setting up conv6_2_mbox_conf
I0524 17:37:16.233263 20296 net.cpp:157] Top shape: 8 126 10 10 (100800)
I0524 17:37:16.233264 20296 net.cpp:165] Memory required for data: 1996825760
I0524 17:37:16.233270 20296 layer_factory.hpp:77] Creating layer conv6_2_mbox_conf_perm
I0524 17:37:16.233275 20296 net.cpp:100] Creating Layer conv6_2_mbox_conf_perm
I0524 17:37:16.233280 20296 net.cpp:434] conv6_2_mbox_conf_perm <- conv6_2_mbox_conf
I0524 17:37:16.233286 20296 net.cpp:408] conv6_2_mbox_conf_perm -> conv6_2_mbox_conf_perm
I0524 17:37:16.233357 20296 net.cpp:150] Setting up conv6_2_mbox_conf_perm
I0524 17:37:16.233363 20296 net.cpp:157] Top shape: 8 10 10 126 (100800)
I0524 17:37:16.233366 20296 net.cpp:165] Memory required for data: 1997228960
I0524 17:37:16.233367 20296 layer_factory.hpp:77] Creating layer conv6_2_mbox_conf_flat
I0524 17:37:16.233371 20296 net.cpp:100] Creating Layer conv6_2_mbox_conf_flat
I0524 17:37:16.233374 20296 net.cpp:434] conv6_2_mbox_conf_flat <- conv6_2_mbox_conf_perm
I0524 17:37:16.233379 20296 net.cpp:408] conv6_2_mbox_conf_flat -> conv6_2_mbox_conf_flat
I0524 17:37:16.233394 20296 net.cpp:150] Setting up conv6_2_mbox_conf_flat
I0524 17:37:16.233398 20296 net.cpp:157] Top shape: 8 12600 (100800)
I0524 17:37:16.233400 20296 net.cpp:165] Memory required for data: 1997632160
I0524 17:37:16.233403 20296 layer_factory.hpp:77] Creating layer conv6_2_mbox_priorbox
I0524 17:37:16.233418 20296 net.cpp:100] Creating Layer conv6_2_mbox_priorbox
I0524 17:37:16.233422 20296 net.cpp:434] conv6_2_mbox_priorbox <- conv6_2_conv6_2_relu_0_split_3
I0524 17:37:16.233425 20296 net.cpp:434] conv6_2_mbox_priorbox <- data_data_0_split_3
I0524 17:37:16.233431 20296 net.cpp:408] conv6_2_mbox_priorbox -> conv6_2_mbox_priorbox
I0524 17:37:16.233449 20296 net.cpp:150] Setting up conv6_2_mbox_priorbox
I0524 17:37:16.233454 20296 net.cpp:157] Top shape: 1 2 2400 (4800)
I0524 17:37:16.233456 20296 net.cpp:165] Memory required for data: 1997651360
I0524 17:37:16.233459 20296 layer_factory.hpp:77] Creating layer conv7_2_mbox_loc
I0524 17:37:16.233466 20296 net.cpp:100] Creating Layer conv7_2_mbox_loc
I0524 17:37:16.233470 20296 net.cpp:434] conv7_2_mbox_loc <- conv7_2_conv7_2_relu_0_split_1
I0524 17:37:16.233474 20296 net.cpp:408] conv7_2_mbox_loc -> conv7_2_mbox_loc
I0524 17:37:16.233855 20296 net.cpp:150] Setting up conv7_2_mbox_loc
I0524 17:37:16.233860 20296 net.cpp:157] Top shape: 8 24 5 5 (4800)
I0524 17:37:16.233862 20296 net.cpp:165] Memory required for data: 1997670560
I0524 17:37:16.233866 20296 layer_factory.hpp:77] Creating layer conv7_2_mbox_loc_perm
I0524 17:37:16.233871 20296 net.cpp:100] Creating Layer conv7_2_mbox_loc_perm
I0524 17:37:16.233875 20296 net.cpp:434] conv7_2_mbox_loc_perm <- conv7_2_mbox_loc
I0524 17:37:16.233878 20296 net.cpp:408] conv7_2_mbox_loc_perm -> conv7_2_mbox_loc_perm
I0524 17:37:16.233939 20296 net.cpp:150] Setting up conv7_2_mbox_loc_perm
I0524 17:37:16.233944 20296 net.cpp:157] Top shape: 8 5 5 24 (4800)
I0524 17:37:16.233947 20296 net.cpp:165] Memory required for data: 1997689760
I0524 17:37:16.233948 20296 layer_factory.hpp:77] Creating layer conv7_2_mbox_loc_flat
I0524 17:37:16.233952 20296 net.cpp:100] Creating Layer conv7_2_mbox_loc_flat
I0524 17:37:16.233954 20296 net.cpp:434] conv7_2_mbox_loc_flat <- conv7_2_mbox_loc_perm
I0524 17:37:16.233958 20296 net.cpp:408] conv7_2_mbox_loc_flat -> conv7_2_mbox_loc_flat
I0524 17:37:16.233973 20296 net.cpp:150] Setting up conv7_2_mbox_loc_flat
I0524 17:37:16.233978 20296 net.cpp:157] Top shape: 8 600 (4800)
I0524 17:37:16.233980 20296 net.cpp:165] Memory required for data: 1997708960
I0524 17:37:16.233983 20296 layer_factory.hpp:77] Creating layer conv7_2_mbox_conf
I0524 17:37:16.233989 20296 net.cpp:100] Creating Layer conv7_2_mbox_conf
I0524 17:37:16.233991 20296 net.cpp:434] conv7_2_mbox_conf <- conv7_2_conv7_2_relu_0_split_2
I0524 17:37:16.233997 20296 net.cpp:408] conv7_2_mbox_conf -> conv7_2_mbox_conf
I0524 17:37:16.235944 20296 net.cpp:150] Setting up conv7_2_mbox_conf
I0524 17:37:16.235952 20296 net.cpp:157] Top shape: 8 126 5 5 (25200)
I0524 17:37:16.235955 20296 net.cpp:165] Memory required for data: 1997809760
I0524 17:37:16.235960 20296 layer_factory.hpp:77] Creating layer conv7_2_mbox_conf_perm
I0524 17:37:16.235965 20296 net.cpp:100] Creating Layer conv7_2_mbox_conf_perm
I0524 17:37:16.235968 20296 net.cpp:434] conv7_2_mbox_conf_perm <- conv7_2_mbox_conf
I0524 17:37:16.235972 20296 net.cpp:408] conv7_2_mbox_conf_perm -> conv7_2_mbox_conf_perm
I0524 17:37:16.236037 20296 net.cpp:150] Setting up conv7_2_mbox_conf_perm
I0524 17:37:16.236042 20296 net.cpp:157] Top shape: 8 5 5 126 (25200)
I0524 17:37:16.236043 20296 net.cpp:165] Memory required for data: 1997910560
I0524 17:37:16.236045 20296 layer_factory.hpp:77] Creating layer conv7_2_mbox_conf_flat
I0524 17:37:16.236050 20296 net.cpp:100] Creating Layer conv7_2_mbox_conf_flat
I0524 17:37:16.236053 20296 net.cpp:434] conv7_2_mbox_conf_flat <- conv7_2_mbox_conf_perm
I0524 17:37:16.236057 20296 net.cpp:408] conv7_2_mbox_conf_flat -> conv7_2_mbox_conf_flat
I0524 17:37:16.236071 20296 net.cpp:150] Setting up conv7_2_mbox_conf_flat
I0524 17:37:16.236076 20296 net.cpp:157] Top shape: 8 3150 (25200)
I0524 17:37:16.236078 20296 net.cpp:165] Memory required for data: 1998011360
I0524 17:37:16.236080 20296 layer_factory.hpp:77] Creating layer conv7_2_mbox_priorbox
I0524 17:37:16.236084 20296 net.cpp:100] Creating Layer conv7_2_mbox_priorbox
I0524 17:37:16.236094 20296 net.cpp:434] conv7_2_mbox_priorbox <- conv7_2_conv7_2_relu_0_split_3
I0524 17:37:16.236099 20296 net.cpp:434] conv7_2_mbox_priorbox <- data_data_0_split_4
I0524 17:37:16.236104 20296 net.cpp:408] conv7_2_mbox_priorbox -> conv7_2_mbox_priorbox
I0524 17:37:16.236121 20296 net.cpp:150] Setting up conv7_2_mbox_priorbox
I0524 17:37:16.236125 20296 net.cpp:157] Top shape: 1 2 600 (1200)
I0524 17:37:16.236127 20296 net.cpp:165] Memory required for data: 1998016160
I0524 17:37:16.236129 20296 layer_factory.hpp:77] Creating layer conv8_2_mbox_loc
I0524 17:37:16.236138 20296 net.cpp:100] Creating Layer conv8_2_mbox_loc
I0524 17:37:16.236142 20296 net.cpp:434] conv8_2_mbox_loc <- conv8_2_conv8_2_relu_0_split_1
I0524 17:37:16.236146 20296 net.cpp:408] conv8_2_mbox_loc -> conv8_2_mbox_loc
I0524 17:37:16.236439 20296 net.cpp:150] Setting up conv8_2_mbox_loc
I0524 17:37:16.236444 20296 net.cpp:157] Top shape: 8 16 3 3 (1152)
I0524 17:37:16.236448 20296 net.cpp:165] Memory required for data: 1998020768
I0524 17:37:16.236459 20296 layer_factory.hpp:77] Creating layer conv8_2_mbox_loc_perm
I0524 17:37:16.236464 20296 net.cpp:100] Creating Layer conv8_2_mbox_loc_perm
I0524 17:37:16.236466 20296 net.cpp:434] conv8_2_mbox_loc_perm <- conv8_2_mbox_loc
I0524 17:37:16.236472 20296 net.cpp:408] conv8_2_mbox_loc_perm -> conv8_2_mbox_loc_perm
I0524 17:37:16.236536 20296 net.cpp:150] Setting up conv8_2_mbox_loc_perm
I0524 17:37:16.236539 20296 net.cpp:157] Top shape: 8 3 3 16 (1152)
I0524 17:37:16.236541 20296 net.cpp:165] Memory required for data: 1998025376
I0524 17:37:16.236544 20296 layer_factory.hpp:77] Creating layer conv8_2_mbox_loc_flat
I0524 17:37:16.236547 20296 net.cpp:100] Creating Layer conv8_2_mbox_loc_flat
I0524 17:37:16.236552 20296 net.cpp:434] conv8_2_mbox_loc_flat <- conv8_2_mbox_loc_perm
I0524 17:37:16.236554 20296 net.cpp:408] conv8_2_mbox_loc_flat -> conv8_2_mbox_loc_flat
I0524 17:37:16.236570 20296 net.cpp:150] Setting up conv8_2_mbox_loc_flat
I0524 17:37:16.236575 20296 net.cpp:157] Top shape: 8 144 (1152)
I0524 17:37:16.236577 20296 net.cpp:165] Memory required for data: 1998029984
I0524 17:37:16.236578 20296 layer_factory.hpp:77] Creating layer conv8_2_mbox_conf
I0524 17:37:16.236584 20296 net.cpp:100] Creating Layer conv8_2_mbox_conf
I0524 17:37:16.236588 20296 net.cpp:434] conv8_2_mbox_conf <- conv8_2_conv8_2_relu_0_split_2
I0524 17:37:16.236593 20296 net.cpp:408] conv8_2_mbox_conf -> conv8_2_mbox_conf
I0524 17:37:16.237555 20296 net.cpp:150] Setting up conv8_2_mbox_conf
I0524 17:37:16.237561 20296 net.cpp:157] Top shape: 8 84 3 3 (6048)
I0524 17:37:16.237563 20296 net.cpp:165] Memory required for data: 1998054176
I0524 17:37:16.237566 20296 layer_factory.hpp:77] Creating layer conv8_2_mbox_conf_perm
I0524 17:37:16.237571 20296 net.cpp:100] Creating Layer conv8_2_mbox_conf_perm
I0524 17:37:16.237574 20296 net.cpp:434] conv8_2_mbox_conf_perm <- conv8_2_mbox_conf
I0524 17:37:16.237578 20296 net.cpp:408] conv8_2_mbox_conf_perm -> conv8_2_mbox_conf_perm
I0524 17:37:16.237653 20296 net.cpp:150] Setting up conv8_2_mbox_conf_perm
I0524 17:37:16.237658 20296 net.cpp:157] Top shape: 8 3 3 84 (6048)
I0524 17:37:16.237659 20296 net.cpp:165] Memory required for data: 1998078368
I0524 17:37:16.237661 20296 layer_factory.hpp:77] Creating layer conv8_2_mbox_conf_flat
I0524 17:37:16.237664 20296 net.cpp:100] Creating Layer conv8_2_mbox_conf_flat
I0524 17:37:16.237666 20296 net.cpp:434] conv8_2_mbox_conf_flat <- conv8_2_mbox_conf_perm
I0524 17:37:16.237671 20296 net.cpp:408] conv8_2_mbox_conf_flat -> conv8_2_mbox_conf_flat
I0524 17:37:16.237684 20296 net.cpp:150] Setting up conv8_2_mbox_conf_flat
I0524 17:37:16.237689 20296 net.cpp:157] Top shape: 8 756 (6048)
I0524 17:37:16.237691 20296 net.cpp:165] Memory required for data: 1998102560
I0524 17:37:16.237694 20296 layer_factory.hpp:77] Creating layer conv8_2_mbox_priorbox
I0524 17:37:16.237697 20296 net.cpp:100] Creating Layer conv8_2_mbox_priorbox
I0524 17:37:16.237699 20296 net.cpp:434] conv8_2_mbox_priorbox <- conv8_2_conv8_2_relu_0_split_3
I0524 17:37:16.237709 20296 net.cpp:434] conv8_2_mbox_priorbox <- data_data_0_split_5
I0524 17:37:16.237715 20296 net.cpp:408] conv8_2_mbox_priorbox -> conv8_2_mbox_priorbox
I0524 17:37:16.237732 20296 net.cpp:150] Setting up conv8_2_mbox_priorbox
I0524 17:37:16.237736 20296 net.cpp:157] Top shape: 1 2 144 (288)
I0524 17:37:16.237738 20296 net.cpp:165] Memory required for data: 1998103712
I0524 17:37:16.237740 20296 layer_factory.hpp:77] Creating layer conv9_2_mbox_loc
I0524 17:37:16.237746 20296 net.cpp:100] Creating Layer conv9_2_mbox_loc
I0524 17:37:16.237749 20296 net.cpp:434] conv9_2_mbox_loc <- conv9_2_conv9_2_relu_0_split_0
I0524 17:37:16.237754 20296 net.cpp:408] conv9_2_mbox_loc -> conv9_2_mbox_loc
I0524 17:37:16.238041 20296 net.cpp:150] Setting up conv9_2_mbox_loc
I0524 17:37:16.238046 20296 net.cpp:157] Top shape: 8 16 1 1 (128)
I0524 17:37:16.238049 20296 net.cpp:165] Memory required for data: 1998104224
I0524 17:37:16.238051 20296 layer_factory.hpp:77] Creating layer conv9_2_mbox_loc_perm
I0524 17:37:16.238057 20296 net.cpp:100] Creating Layer conv9_2_mbox_loc_perm
I0524 17:37:16.238060 20296 net.cpp:434] conv9_2_mbox_loc_perm <- conv9_2_mbox_loc
I0524 17:37:16.238064 20296 net.cpp:408] conv9_2_mbox_loc_perm -> conv9_2_mbox_loc_perm
I0524 17:37:16.238124 20296 net.cpp:150] Setting up conv9_2_mbox_loc_perm
I0524 17:37:16.238129 20296 net.cpp:157] Top shape: 8 1 1 16 (128)
I0524 17:37:16.238131 20296 net.cpp:165] Memory required for data: 1998104736
I0524 17:37:16.238133 20296 layer_factory.hpp:77] Creating layer conv9_2_mbox_loc_flat
I0524 17:37:16.238137 20296 net.cpp:100] Creating Layer conv9_2_mbox_loc_flat
I0524 17:37:16.238140 20296 net.cpp:434] conv9_2_mbox_loc_flat <- conv9_2_mbox_loc_perm
I0524 17:37:16.238144 20296 net.cpp:408] conv9_2_mbox_loc_flat -> conv9_2_mbox_loc_flat
I0524 17:37:16.238158 20296 net.cpp:150] Setting up conv9_2_mbox_loc_flat
I0524 17:37:16.238162 20296 net.cpp:157] Top shape: 8 16 (128)
I0524 17:37:16.238164 20296 net.cpp:165] Memory required for data: 1998105248
I0524 17:37:16.238167 20296 layer_factory.hpp:77] Creating layer conv9_2_mbox_conf
I0524 17:37:16.238171 20296 net.cpp:100] Creating Layer conv9_2_mbox_conf
I0524 17:37:16.238174 20296 net.cpp:434] conv9_2_mbox_conf <- conv9_2_conv9_2_relu_0_split_1
I0524 17:37:16.238179 20296 net.cpp:408] conv9_2_mbox_conf -> conv9_2_mbox_conf
I0524 17:37:16.239104 20296 net.cpp:150] Setting up conv9_2_mbox_conf
I0524 17:37:16.239109 20296 net.cpp:157] Top shape: 8 84 1 1 (672)
I0524 17:37:16.239110 20296 net.cpp:165] Memory required for data: 1998107936
I0524 17:37:16.239114 20296 layer_factory.hpp:77] Creating layer conv9_2_mbox_conf_perm
I0524 17:37:16.239120 20296 net.cpp:100] Creating Layer conv9_2_mbox_conf_perm
I0524 17:37:16.239122 20296 net.cpp:434] conv9_2_mbox_conf_perm <- conv9_2_mbox_conf
I0524 17:37:16.239126 20296 net.cpp:408] conv9_2_mbox_conf_perm -> conv9_2_mbox_conf_perm
I0524 17:37:16.239187 20296 net.cpp:150] Setting up conv9_2_mbox_conf_perm
I0524 17:37:16.239192 20296 net.cpp:157] Top shape: 8 1 1 84 (672)
I0524 17:37:16.239193 20296 net.cpp:165] Memory required for data: 1998110624
I0524 17:37:16.239195 20296 layer_factory.hpp:77] Creating layer conv9_2_mbox_conf_flat
I0524 17:37:16.239199 20296 net.cpp:100] Creating Layer conv9_2_mbox_conf_flat
I0524 17:37:16.239203 20296 net.cpp:434] conv9_2_mbox_conf_flat <- conv9_2_mbox_conf_perm
I0524 17:37:16.239207 20296 net.cpp:408] conv9_2_mbox_conf_flat -> conv9_2_mbox_conf_flat
I0524 17:37:16.239222 20296 net.cpp:150] Setting up conv9_2_mbox_conf_flat
I0524 17:37:16.239225 20296 net.cpp:157] Top shape: 8 84 (672)
I0524 17:37:16.239228 20296 net.cpp:165] Memory required for data: 1998113312
I0524 17:37:16.239229 20296 layer_factory.hpp:77] Creating layer conv9_2_mbox_priorbox
I0524 17:37:16.239233 20296 net.cpp:100] Creating Layer conv9_2_mbox_priorbox
I0524 17:37:16.239238 20296 net.cpp:434] conv9_2_mbox_priorbox <- conv9_2_conv9_2_relu_0_split_2
I0524 17:37:16.239240 20296 net.cpp:434] conv9_2_mbox_priorbox <- data_data_0_split_6
I0524 17:37:16.239244 20296 net.cpp:408] conv9_2_mbox_priorbox -> conv9_2_mbox_priorbox
I0524 17:37:16.239265 20296 net.cpp:150] Setting up conv9_2_mbox_priorbox
I0524 17:37:16.239270 20296 net.cpp:157] Top shape: 1 2 16 (32)
I0524 17:37:16.239272 20296 net.cpp:165] Memory required for data: 1998113440
I0524 17:37:16.239274 20296 layer_factory.hpp:77] Creating layer mbox_loc
I0524 17:37:16.239279 20296 net.cpp:100] Creating Layer mbox_loc
I0524 17:37:16.239284 20296 net.cpp:434] mbox_loc <- conv4_3_norm_mbox_loc_flat
I0524 17:37:16.239287 20296 net.cpp:434] mbox_loc <- fc7_mbox_loc_flat
I0524 17:37:16.239291 20296 net.cpp:434] mbox_loc <- conv6_2_mbox_loc_flat
I0524 17:37:16.239295 20296 net.cpp:434] mbox_loc <- conv7_2_mbox_loc_flat
I0524 17:37:16.239298 20296 net.cpp:434] mbox_loc <- conv8_2_mbox_loc_flat
I0524 17:37:16.239300 20296 net.cpp:434] mbox_loc <- conv9_2_mbox_loc_flat
I0524 17:37:16.239303 20296 net.cpp:408] mbox_loc -> mbox_loc
I0524 17:37:16.239322 20296 net.cpp:150] Setting up mbox_loc
I0524 17:37:16.239327 20296 net.cpp:157] Top shape: 8 34928 (279424)
I0524 17:37:16.239329 20296 net.cpp:165] Memory required for data: 1999231136
I0524 17:37:16.239331 20296 layer_factory.hpp:77] Creating layer mbox_conf
I0524 17:37:16.239334 20296 net.cpp:100] Creating Layer mbox_conf
I0524 17:37:16.239338 20296 net.cpp:434] mbox_conf <- conv4_3_norm_mbox_conf_flat
I0524 17:37:16.239341 20296 net.cpp:434] mbox_conf <- fc7_mbox_conf_flat
I0524 17:37:16.239344 20296 net.cpp:434] mbox_conf <- conv6_2_mbox_conf_flat
I0524 17:37:16.239347 20296 net.cpp:434] mbox_conf <- conv7_2_mbox_conf_flat
I0524 17:37:16.239351 20296 net.cpp:434] mbox_conf <- conv8_2_mbox_conf_flat
I0524 17:37:16.239353 20296 net.cpp:434] mbox_conf <- conv9_2_mbox_conf_flat
I0524 17:37:16.239357 20296 net.cpp:408] mbox_conf -> mbox_conf
I0524 17:37:16.239372 20296 net.cpp:150] Setting up mbox_conf
I0524 17:37:16.239377 20296 net.cpp:157] Top shape: 8 183372 (1466976)
I0524 17:37:16.239378 20296 net.cpp:165] Memory required for data: 2005099040
I0524 17:37:16.239380 20296 layer_factory.hpp:77] Creating layer mbox_priorbox
I0524 17:37:16.239383 20296 net.cpp:100] Creating Layer mbox_priorbox
I0524 17:37:16.239387 20296 net.cpp:434] mbox_priorbox <- conv4_3_norm_mbox_priorbox
I0524 17:37:16.239390 20296 net.cpp:434] mbox_priorbox <- fc7_mbox_priorbox
I0524 17:37:16.239392 20296 net.cpp:434] mbox_priorbox <- conv6_2_mbox_priorbox
I0524 17:37:16.239395 20296 net.cpp:434] mbox_priorbox <- conv7_2_mbox_priorbox
I0524 17:37:16.239398 20296 net.cpp:434] mbox_priorbox <- conv8_2_mbox_priorbox
I0524 17:37:16.239400 20296 net.cpp:434] mbox_priorbox <- conv9_2_mbox_priorbox
I0524 17:37:16.239404 20296 net.cpp:408] mbox_priorbox -> mbox_priorbox
I0524 17:37:16.239418 20296 net.cpp:150] Setting up mbox_priorbox
I0524 17:37:16.239423 20296 net.cpp:157] Top shape: 1 2 34928 (69856)
I0524 17:37:16.239425 20296 net.cpp:165] Memory required for data: 2005378464
I0524 17:37:16.239428 20296 layer_factory.hpp:77] Creating layer mbox_loss
I0524 17:37:16.239434 20296 net.cpp:100] Creating Layer mbox_loss
I0524 17:37:16.239436 20296 net.cpp:434] mbox_loss <- mbox_loc
I0524 17:37:16.239439 20296 net.cpp:434] mbox_loss <- mbox_conf
I0524 17:37:16.239441 20296 net.cpp:434] mbox_loss <- mbox_priorbox
…
state {
  phase: TEST
}
layer {
  name: "data"
  type: "AnnotatedData"
  top: "data"
  top: "label"
  include {
    phase: TEST
  }
  transform_param {
    mean_value: 104
    mean_value: 117
    mean_value: 123
    resize_param {
      prob: 1
      resize_mode: WARP
      height: 300
      width: 300
      interp_mode: LINEAR
    }
  }
  data_param {
    source: "examples/VOC0712/VOC0712_test_lmdb"
    batch_size: 8
    backend: LMDB
  }
  annotated_data_param {
    batch_sampler {
    }
    label_map_file: "data/VOC0712/labelmap_voc.prototxt"
  }
}
layer {
  name: "conv1_1"
  type: "Convolution"
  bottom: "data"
  top: "conv1_1"
  param {
    lr_mult: 1
    decay_mult: 1
  }
  param {
    lr_mult: 2
    decay_mult: 0
  }
  convolution_param {
    num_output: 64
    pad: 1
    kernel_size: 3
    weight_filler {
      type: "xavier"
    }
    bias_filler {
      type: "constant"
      value: 0
    }
  }
}
layer {
  name: "relu1_1"
  type: "ReLU"
  bottom: "conv1_1"
  top: "conv1_1"
}
layer {
  name: "conv1_2"
  type: "Convolution"
  bottom: "conv1_1"
  top: "conv1_2"
  param {
    lr_mult: 1
    decay_mult: 1
  }
  param {
    lr_mult: 2
    decay_mult: 0
  }
  convolution_param {
    num_output: 64
    pad: 1
    kernel_size: 3
    weight_filler {
      type: "xavier"
    }
    bias_filler {
      type: "constant"
      value: 0
    }
  }
}
layer {
  name: "relu1_2"
  type: "ReLU"
  bottom: "conv1_2"
  top: "conv1_2"
}
layer {
  name: "pool1"
  type: "Pooling"
  bottom: "conv1_2"
  top: "pool1"
  pooling_param {
    pool: MAX
    kernel_size: 2
    stride: 2
  }
}
layer {
  name: "conv2_1"
  type: "Convolution"
  bottom: "pool1"
  top: "conv2_1"
  param {
    lr_mult: 1
    decay_mult: 1
  }
  param {
    lr_mult: 2
    decay_mult: 0
  }
  convolution_param {
    num_output: 128
    pad: 1
    kernel_size: 3
    weight_filler {
      type: "xavier"
    }
    bias_filler {
      type: "constant"
      value: 0
    }
  }
}
layer {
  name: "relu2_1"
  type: "ReLU"
  bottom: "conv2_1"
  top: "conv2_1"
}
layer {
  name: "conv2_2"
  type: "Convolution"
  bottom: "conv2_1"
  top: "conv2_2"
  param {
    lr_mult: 1
    decay_mult: 1
  }
  param {
    lr_mult: 2
    decay_mult: 0
  }
  convolution_param {
    num_output: 128
    pad: 1
    kernel_size: 3
    weight_filler {
      type: "xavier"
    }
    bias_filler {
      type: "constant"
      value: 0
    }
  }
}
layer {
  name: "relu2_2"
  type: "ReLU"
  bottom: "conv2_2"
  top: "conv2_2"
}
layer {
  name: "pool2"
  type: "Pooling"
  bottom: "conv2_2"
  top: "pool2"
  pooling_param {
    pool: MAX
    kernel_size: 2
    stride: 2
  }
}
layer {
  name: "conv3_1"
  type: "Convolution"
  bottom: "pool2"
  top: "conv3_1"
  param {
    lr_mult: 1
    decay_mult: 1
  }
  param {
    lr_mult: 2
    decay_mult: 0
  }
  convolution_param {
    num_output: 256
    pad: 1
    kernel_size: 3
    weight_filler {
      type: "xavier"
    }
    bias_filler {
      type: "constant"
      value: 0
    }
  }
}
layer {
  name: "relu3_1"
  type: "ReLU"
  bottom: "conv3_1"
  top: "conv3_1"
}
layer {
  name: "conv3_2"
  type: "Convolution"
  bottom: "conv3_1"
  top: "conv3_2"
  param {
    lr_mult: 1
    decay_mult: 1
  }
  param {
    lr_mult: 2
    decay_mult: 0
  }
  convolution_param {
    num_output: 256
    pad: 1
    kernel_size: 3
    weight_filler {
      type: "xavier"
    }
    bias_filler {
      type: "constant"
      value: 0
    }
  }
}
layer {
  name: "relu3_2"
  type: "ReLU"
  bottom: "conv3_2"
  top: "conv3_2"
}
layer {
  name: "conv3_3"
  type: "Convolution"
  bottom: "conv3_2"
  top: "conv3_3"
  param {
    lr_mult: 1
    decay_mult: 1
  }
  param {
    lr_mult: 2
    decay_mult: 0
  }
  convolution_param {
    num_output: 256
    pad: 1
    kernel_size: 3
    weight_filler {
      type: "xavier"
    }
    bias_filler {
      type: "constant"
      value: 0
    }
  }
}
layer {
  name: "relu3_3"
  type: "ReLU"
  bottom: "conv3_3"
  top: "conv3_3"
}
layer {
  name: "pool3"
  type: "Pooling"
  bottom: "conv3_3"
  top: "pool3"
  pooling_param {
    pool: MAX
    kernel_size: 2
    stride: 2
  }
}
layer {
  name: "conv4_1"
  type: "Convolution"
  bottom: "pool3"
  top: "conv4_1"
  param {
    lr_mult: 1
    decay_mult: 1
  }
  param {
    lr_mult: 2
    decay_mult: 0
  }
  convolution_param {
    num_output: 512
    pad: 1
    kernel_size: 3
    weight_filler {
      type: "xavier"
    }
    bias_filler {
      type: "constant"
      value: 0
    }
  }
}
layer {
  name: "relu4_1"
  type: "ReLU"
  bottom: "conv4_1"
  top: "conv4_1"
}
layer {
  name: "conv4_2"
  type: "Convolution"
  bottom: "conv4_1"
  top: "conv4_2"
  param {
    lr_mult: 1
    decay_mult: 1
  }
  param {
    lr_mult: 2
    decay_mult: 0
  }
  convolution_param {
    num_output: 512
    pad: 1
    kernel_size: 3
    weight_filler {
      type: "xavier"
    }
    bias_filler {
      type: "constant"
      value: 0
    }
  }
}
layer {
  name: "relu4_2"
  type: "ReLU"
  bottom: "conv4_2"
  top: "conv4_2"
}
layer {
  name: "conv4_3"
  type: "Convolution"
  bottom: "conv4_2"
  top: "conv4_3"
  param {
    lr_mult: 1
    decay_mult: 1
  }
  param {
    lr_mult: 2
    decay_mult: 0
  }
  convolution_param {
    num_output: 512
    pad: 1
    kernel_size: 3
    weight_filler {
      type: "xavier"
    }
    bias_filler {
      type: "constant"
      value: 0
    }
  }
}
layer {
  name: "relu4_3"
  type: "ReLU"
  bottom: "conv4_3"
  top: "conv4_3"
}
layer {
  name: "pool4"
  type: "Pooling"
  bottom: "conv4_3"
  top: "pool4"
  pooling_param {
    pool: MAX
    kernel_size: 2
    stride: 2
  }
}
layer {
  name: "conv5_1"
  type: "Convolution"
  bottom: "pool4"
  top: "conv5_1"
  param {
    lr_mult: 1
    decay_mult: 1
  }
  param {
    lr_mult: 2
    decay_mult: 0
  }
  convolution_param {
    num_output: 512
    pad: 1
    kernel_size: 3
    weight_filler {
      type: "xavier"
    }
    bias_filler {
      type: "constant"
      value: 0
    }
    dilation: 1
  }
}
layer {
  name: "relu5_1"
  type: "ReLU"
  bottom: "conv5_1"
  top: "conv5_1"
}
layer {
  name: "conv5_2"
  type: "Convolution"
  bottom: "conv5_1"
  top: "conv5_2"
  param {
    lr_mult: 1
    decay_mult: 1
  }
  param {
    lr_mult: 2
    decay_mult: 0
  }
  convolution_param {
    num_output: 512
    pad: 1
    kernel_size: 3
    weight_filler {
      type: "xavier"
    }
    bias_filler {
      type: "constant"
      value: 0
    }
    dilation: 1
  }
}
layer {
  name: "relu5_2"
  type: "ReLU"
  bottom: "conv5_2"
  top: "conv5_2"
}
layer {
  name: "conv5_3"
  type: "Convolution"
  bottom: "conv5_2"
  top: "conv5_3"
  param {
    lr_mult: 1
    decay_mult: 1
  }
  param {
    lr_mult: 2
    decay_mult: 0
  }
  convolution_param {
    num_output: 512
    pad: 1
    kernel_size: 3
    weight_filler {
      type: "xavier"
    }
    bias_filler {
      type: "constant"
      value: 0
    }
    dilation: 1
  }
}
layer {
  name: "relu5_3"
  type: "ReLU"
  bottom: "conv5_3"
  top: "conv5_3"
}
layer {
  name: "pool5"
  type: "Pooling"
  bottom: "conv5_3"
  top: "pool5"
  pooling_param {
    pool: MAX
    kernel_size: 3
    stride: 1
    pad: 1
  }
}
layer {
  name: "fc6"
  type: "Convolution"
  bottom: "pool5"
  top: "fc6"
  param {
    lr_mult: 1
    decay_mult: 1
  }
  param {
    lr_mult: 2
    decay_mult: 0
  }
  convolution_param {
    num_output: 1024
    pad: 6
    kernel_size: 3
    weight_filler {
      type: "xavier"
    }
    bias_filler {
      type: "constant"
      value: 0
    }
    dilation: 6
  }
}
layer {
  name: "relu6"
  type: "ReLU"
  bottom: "fc6"
  top: "fc6"
}
layer {
  name: "fc7"
  type: "Convolution"
  bottom: "fc6"
  top: "fc7"
  param {
    lr_mult: 1
    decay_mult: 1
  }
  param {
    lr_mult: 2
    decay_mult: 0
  }
  convolution_param {
    num_output: 1024
    kernel_size: 1
    weight_filler {
      type: "xavier"
    }
    bias_filler {
      type: "constant"
      value: 0
    }
  }
}
layer {
  name: "relu7"
  type: "ReLU"
  bottom: "fc7"
  top: "fc7"
}
layer {
  name: "conv6_1"
  type: "Convolution"
  bottom: "fc7"
  top: "conv6_1"
  param {
    lr_mult: 1
    decay_mult: 1
  }
  param {
    lr_mult: 2
    decay_mult: 0
  }
  convolution_param {
    num_output: 256
    pad: 0
    kernel_size: 1
    stride: 1
    weight_filler {
      type: "xavier"
    }
    bias_filler {
      type: "constant"
      value: 0
    }
  }
}
layer {
  name: "conv6_1_relu"
  type: "ReLU"
  bottom: "conv6_1"
  top: "conv6_1"
}
layer {
  name: "conv6_2"
  type: "Convolution"
  bottom: "conv6_1"
  top: "conv6_2"
  param {
    lr_mult: 1
    decay_mult: 1
  }
  param {
    lr_mult: 2
    decay_mult: 0
  }
  convolution_param {
    num_output: 512
    pad: 1
    kernel_size: 3
    stride: 2
    weight_filler {
      type: "xavier"
    }
    bias_filler {
      type: "constant"
      value: 0
    }
  }
}
layer {
  name: "conv6_2_relu"
  type: "ReLU"
  bottom: "conv6_2"
  top: "conv6_2"
}
layer {
  name: "conv7_1"
  type: "Convolution"
  bottom: "conv6_2"
  top: "conv7_1"
  param {
    lr_mult: 1
    decay_mult: 1
  }
  param {
    lr_mult: 2
    decay_mult: 0
  }
  convolution_param {
    num_output: 128
    pad: 0
    kernel_size: 1
    stride: 1
    weight_filler {
      type: "xavier"
    }
    bias_filler {
      type: "constant"
      value: 0
    }
  }
}
layer {
  name: "conv7_1_relu"
  type: "ReLU"
  bottom: "conv7_1"
  top: "conv7_1"
}
layer {
  name: "conv7_2"
  type: "Convolution"
  bottom: "conv7_1"
  top: "conv7_2"
  param {
    lr_mult: 1
    decay_mult: 1
  }
  param {
    lr_mult: 2
    decay_mult: 0
  }
  convolution_param {
    num_output: 256
    pad: 1
    kernel_size: 3
    stride: 2
    weight_filler {
      type: "xavier"
    }
    bias_filler {
      type: "constant"
      value: 0
    }
  }
}
layer {
  name: "conv7_2_relu"
  type: "ReLU"
  bottom: "conv7_2"
  top: "conv7_2"
}
layer {
  name: "conv8_1"
  type: "Convolution"
  bottom: "conv7_2"
  top: "conv8_1"
  param {
    lr_mult: 1
    decay_mult: 1
  }
  param {
    lr_mult: 2
    decay_mult: 0
  }
  convolution_param {
    num_output: 128
    pad: 0
    kernel_size: 1
    stride: 1
    weight_filler {
      type: "xavier"
    }
    bias_filler {
      type: "constant"
      value: 0
    }
  }
}
layer {
  name: "conv8_1_relu"
  type: "ReLU"
  bottom: "conv8_1"
  top: "conv8_1"
}
layer {
  name: "conv8_2"
  type: "Convolution"
  bottom: "conv8_1"
  top: "conv8_2"
  param {
    lr_mult: 1
    decay_mult: 1
  }
  param {
    lr_mult: 2
    decay_mult: 0
  }
  convolution_param {
    num_output: 256
    pad: 0
    kernel_size: 3
    stride: 1
    weight_filler {
      type: "xavier"
    }
    bias_filler {
      type: "constant"
      value: 0
    }
  }
}
layer {
  name: "conv8_2_relu"
  type: "ReLU"
  bottom: "conv8_2"
  top: "conv8_2"
}
layer {
  name: "conv9_1"
  type: "Convolution"
  bottom: "conv8_2"
  top: "conv9_1"
  param {
    lr_mult: 1
    decay_mult: 1
  }
  param {
    lr_mult: 2
    decay_mult: 0
  }
  convolution_param {
    num_output: 128
    pad: 0
    kernel_size: 1
    stride: 1
    weight_filler {
      type: "xavier"
    }
    bias_filler {
      type: "constant"
      value: 0
    }
  }
}
layer {
  name: "conv9_1_relu"
  type: "ReLU"
  bottom: "conv9_1"
  top: "conv9_1"
}
layer {
  name: "conv9_2"
  type: "Convolution"
  bottom: "conv9_1"
  top: "conv9_2"
  param {
    lr_mult: 1
    decay_mult: 1
  }
  param {
    lr_mult: 2
    decay_mult: 0
  }
  convolution_param {
    num_output: 256
    pad: 0
    kernel_size: 3
    stride: 1
    weight_filler {
      type: "xavier"
    }
    bias_filler {
      type: "constant"
      value: 0
    }
  }
}
layer {
  name: "conv9_2_relu"
  type: "ReLU"
  bottom: "conv9_2"
  top: "conv9_2"
}
layer {
  name: "conv4_3_norm"
  type: "Normalize"
  bottom: "conv4_3"
  top: "conv4_3_norm"
  norm_param {
    across_spatial: false
    scale_filler {
      type: "constant"
      value: 20
    }
    channel_shared: false
  }
}
layer {
  name: "conv4_3_norm_mbox_loc"
  type: "Convolution"
  bottom: "conv4_3_norm"
  top: "conv4_3_norm_mbox_loc"
  param {
    lr_mult: 1
    decay_mult: 1
  }
  param {
    lr_mult: 2
    decay_mult: 0
  }
  convolution_param {
    num_output: 16
    pad: 1
    kernel_size: 3
    stride: 1
    weight_filler {
      type: "xavier"
    }
    bias_filler {
      type: "constant"
      value: 0
    }
  }
}
layer {
  name: "conv4_3_norm_mbox_loc_perm"
  type: "Permute"
  bottom: "conv4_3_norm_mbox_loc"
  top: "conv4_3_norm_mbox_loc_perm"
  permute_param {
    order: 0
    order: 2
    order: 3
    order: 1
  }
}
layer {
  name: "conv4_3_norm_mbox_loc_flat"
  type: "Flatten"
  bottom: "conv4_3_norm_mbox_loc_perm"
  top: "conv4_3_norm_mbox_loc_flat"
  flatten_param {
    axis: 1
  }
}
layer {
  name: "conv4_3_norm_mbox_conf"
  type: "Convolution"
  bottom: "conv4_3_norm"
  top: "conv4_3_norm_mbox_conf"
  param {
    lr_mult: 1
    decay_mult: 1
  }
  param {
    lr_mult: 2
    decay_mult: 0
  }
  convolution_param {
    num_output: 84
    pad: 1
    kernel_size: 3
    stride: 1
    weight_filler {
      type: "xavier"
    }
    bias_filler {
      type: "constant"
      value: 0
    }
  }
}
layer {
  name: "conv4_3_norm_mbox_conf_perm"
  type: "Permute"
  bottom: "conv4_3_norm_mbox_conf"
  top: "conv4_3_norm_mbox_conf_perm"
  permute_param {
    order: 0
    order: 2
    order: 3
    order: 1
  }
}
layer {
  name: "conv4_3_norm_mbox_conf_flat"
  type: "Flatten"
  bottom: "conv4_3_norm_mbox_conf_perm"
  top: "conv4_3_norm_mbox_conf_flat"
  flatten_param {
    axis: 1
  }
}
layer {
  name: "conv4_3_norm_mbox_priorbox"
  type: "PriorBox"
  bottom: "conv4_3_norm"
  bottom: "data"
  top: "conv4_3_norm_mbox_priorbox"
  prior_box_param {
    min_size: 30
    max_size: 60
    aspect_ratio: 2
    flip: true
    clip: false
    variance: 0.1
    variance: 0.1
    variance: 0.2
    variance: 0.2
    step: 8
    offset: 0.5
  }
}
layer {
  name: "fc7_mbox_loc"
  type: "Convolution"
  bottom: "fc7"
  top: "fc7_mbox_loc"
  param {
    lr_mult: 1
    decay_mult: 1
  }
  param {
    lr_mult: 2
    decay_mult: 0
  }
  convolution_param {
    num_output: 24
    pad: 1
    kernel_size: 3
    stride: 1
    weight_filler {
      type: "xavier"
    }
    bias_filler {
      type: "constant"
      value: 0
    }
  }
}
layer {
  name: "fc7_mbox_loc_perm"
  type: "Permute"
  bottom: "fc7_mbox_loc"
  top: "fc7_mbox_loc_perm"
  permute_param {
    order: 0
    order: 2
    order: 3
    order: 1
  }
}
layer {
  name: "fc7_mbox_loc_flat"
  type: "Flatten"
  bottom: "fc7_mbox_loc_perm"
  top: "fc7_mbox_loc_flat"
  flatten_param {
    axis: 1
  }
}
layer {
  name: "fc7_mbox_conf"
  type: "Convolution"
  bottom: "fc7"
  top: "fc7_mbox_conf"
  param {
    lr_mult: 1
    decay_mult: 1
  }
  param {
    lr_mult: 2
    decay_mult: 0
  }
  convolution_param {
    num_output: 126
    pad: 1
    kernel_size: 3
    stride: 1
    weight_filler {
      type: "xavier"
    }
    bias_filler {
      type: "constant"
      value: 0
    }
  }
}
layer {
  name: "fc7_mbox_conf_perm"
  type: "Permute"
  bottom: "fc7_mbox_conf"
  top: "fc7_mbox_conf_perm"
  permute_param {
    order: 0
    order: 2
    order: 3
    order: 1
  }
}
layer {
  name: "fc7_mbox_conf_flat"
  type: "Flatten"
  bottom: "fc7_mbox_conf_perm"
  top: "fc7_mbox_conf_flat"
  flatten_param {
    axis: 1
  }
}
layer {
  name: "fc7_mbox_priorbox"
  type: "PriorBox"
  bottom: "fc7"
  bottom: "data"
  top: "fc7_mbox_priorbox"
  prior_box_param {
    min_size: 60
    max_size: 111
    aspect_ratio: 2
    aspect_ratio: 3
    flip: true
    clip: false
    variance: 0.1
    variance: 0.1
    variance: 0.2
    variance: 0.2
    step: 16
    offset: 0.5
  }
}
layer {
  name: "conv6_2_mbox_loc"
  type: "Convolution"
  bottom: "conv6_2"
  top: "conv6_2_mbox_loc"
  param {
    lr_mult: 1
    decay_mult: 1
  }
  param {
    lr_mult: 2
    decay_mult: 0
  }
  convolution_param {
    num_output: 24
    pad: 1
    kernel_size: 3
    stride: 1
    weight_filler {
      type: "xavier"
    }
    bias_filler {
      type: "constant"
      value: 0
    }
  }
}
layer {
  name: "conv6_2_mbox_loc_perm"
  type: "Permute"
  bottom: "conv6_2_mbox_loc"
  top: "conv6_2_mbox_loc_perm"
  permute_param {
    order: 0
    order: 2
    order: 3
    order: 1
  }
}
layer {
  name: "conv6_2_mbox_loc_flat"
  type: "Flatten"
  bottom: "conv6_2_mbox_loc_perm"
  top: "conv6_2_mbox_loc_flat"
  flatten_param {
    axis: 1
  }
}
layer {
  name: "conv6_2_mbox_conf"
  type: "Convolution"
  bottom: "conv6_2"
  top: "conv6_2_mbox_conf"
  param {
    lr_mult: 1
    decay_mult: 1
  }
  param {
    lr_mult: 2
    decay_mult: 0
  }
  convolution_param {
    num_output: 126
    pad: 1
    kernel_size: 3
    stride: 1
    weight_filler {
      type: "xavier"
    }
    bias_filler {
      type: "constant"
      value: 0
    }
  }
}
layer {
  name: "conv6_2_mbox_conf_perm"
  type: "Permute"
  bottom: "conv6_2_mbox_conf"
  top: "conv6_2_mbox_conf_perm"
  permute_param {
    order: 0
    order: 2
    order: 3
    order: 1
  }
}
layer {
  name: "conv6_2_mbox_conf_flat"
  type: "Flatten"
  bottom: "conv6_2_mbox_conf_perm"
  top: "conv6_2_mbox_conf_flat"
  flatten_param {
    axis: 1
  }
}
layer {
  name: "conv6_2_mbox_priorbox"
  type: "PriorBox"
  bottom: "conv6_2"
  bottom: "data"
  top: "conv6_2_mbox_priorbox"
  prior_box_param {
    min_size: 111
    max_size: 162
    aspect_ratio: 2
    aspect_ratio: 3
    flip: true
    clip: false
    variance: 0.1
    variance: 0.1
    variance: 0.2
    variance: 0.2
    step: 32
    offset: 0.5
  }
}
layer {
  name: "conv7_2_mbox_loc"
  type: "Convolution"
  bottom: "conv7_2"
  top: "conv7_2_mbox_loc"
  param {
    lr_mult: 1
    decay_mult: 1
  }
  param {
    lr_mult: 2
    decay_mult: 0
  }
  convolution_param {
    num_output: 24
    pad: 1
    kernel_size: 3
    stride: 1
    weight_filler {
      type: "xavier"
    }
    bias_filler {
      type: "constant"
      value: 0
    }
  }
}
layer {
  name: "conv7_2_mbox_loc_perm"
  type: "Permute"
  bottom: "conv7_2_mbox_loc"
  top: "conv7_2_mbox_loc_perm"
  permute_param {
    order: 0
    order: 2
    order: 3
    order: 1
  }
}
layer {
  name: "conv7_2_mbox_loc_flat"
  type: "Flatten"
  bottom: "conv7_2_mbox_loc_perm"
  top: "conv7_2_mbox_loc_flat"
  flatten_param {
    axis: 1
  }
}
layer {
  name: "conv7_2_mbox_conf"
  type: "Convolution"
  bottom: "conv7_2"
  top: "conv7_2_mbox_conf"
  param {
    lr_mult: 1
    decay_mult: 1
  }
  param {
    lr_mult: 2
    decay_mult: 0
  }
  convolution_param {
    num_output: 126
    pad: 1
    kernel_size: 3
    stride: 1
    weight_filler {
      type: "xavier"
    }
    bias_filler {
      type: "constant"
      value: 0
    }
  }
}
layer {
  name: "conv7_2_mbox_conf_perm"
  type: "Permute"
  bottom: "conv7_2_mbox_conf"
  top: "conv7_2_mbox_conf_perm"
  permute_param {
    order: 0
    order: 2
    order: 3
    order: 1
  }
}
layer {
  name: "conv7_2_mbox_conf_flat"
  type: "Flatten"
  bottom: "conv7_2_mbox_conf_perm"
  top: "conv7_2_mbox_conf_flat"
  flatten_param {
    axis: 1
  }
}
layer {
  name: "conv7_2_mbox_priorbox"
  type: "PriorBox"
  bottom: "conv7_2"
  bottom: "data"
  top: "conv7_2_mbox_priorbox"
  prior_box_param {
    min_size: 162
    max_size: 213
    aspect_ratio: 2
    aspect_ratio: 3
    flip: true
    clip: false
    variance: 0.1
    variance: 0.1
    variance: 0.2
    variance: 0.2
    step: 64
    offset: 0.5
  }
}
layer {
  name: "conv8_2_mbox_loc"
  type: "Convolution"
  bottom: "conv8_2"
  top: "conv8_2_mbox_loc"
  param {
    lr_mult: 1
    decay_mult: 1
  }
  param {
    lr_mult: 2
    decay_mult: 0
  }
  convolution_param {
    num_output: 16
    pad: 1
    kernel_size: 3
    stride: 1
    weight_filler {
      type: "xavier"
    }
    bias_filler {
      type: "constant"
      value: 0
    }
  }
}
layer {
  name: "conv8_2_mbox_loc_perm"
  type: "Permute"
  bottom: "conv8_2_mbox_loc"
  top: "conv8_2_mbox_loc_perm"
  permute_param {
    order: 0
    order: 2
    order: 3
    order: 1
  }
}
layer {
  name: "conv8_2_mbox_loc_flat"
  type: "Flatten"
  bottom: "conv8_2_mbox_loc_perm"
  top: "conv8_2_mbox_loc_flat"
  flatten_param {
    axis: 1
  }
}
layer {
  name: "conv8_2_mbox_conf"
  type: "Convolution"
  bottom: "conv8_2"
  top: "conv8_2_mbox_conf"
  param {
    lr_mult: 1
    decay_mult: 1
  }
  param {
    lr_mult: 2
    decay_mult: 0
  }
  convolution_param {
    num_output: 84
    pad: 1
    kernel_size: 3
    stride: 1
    weight_filler {
      type: "xavier"
    }
    bias_filler {
      type: "constant"
      value: 0
    }
  }
}
layer {
  name: "conv8_2_mbox_conf_perm"
  type: "Permute"
  bottom: "conv8_2_mbox_conf"
  top: "conv8_2_mbox_conf_perm"
  permute_param {
    order: 0
    order: 2
    order: 3
    order: 1
  }
}
layer {
  name: "conv8_2_mbox_conf_flat"
  type: "Flatten"
  bottom: "conv8_2_mbox_conf_perm"
  top: "conv8_2_mbox_conf_flat"
  flatten_param {
    axis: 1
  }
}
layer {
  name: "conv8_2_mbox_priorbox"
  type: "PriorBox"
  bottom: "conv8_2"
  bottom: "data"
  top: "conv8_2_mbox_priorbox"
  prior_box_param {
    min_size: 213
    max_size: 264
    aspect_ratio: 2
    flip: true
    clip: false
    variance: 0.1
    variance: 0.1
    variance: 0.2
    variance: 0.2
    step: 100
    offset: 0.5
  }
}
layer {
  name: "conv9_2_mbox_loc"
  type: "Convolution"
  bottom: "conv9_2"
  top: "conv9_2_mbox_loc"
  param {
    lr_mult: 1
    decay_mult: 1
  }
  param {
    lr_mult: 2
    decay_mult: 0
  }
  convolution_param {
    num_output: 16
    pad: 1
    kernel_size: 3
    stride: 1
    weight_filler {
      type: "xavier"
    }
    bias_filler {
      type: "constant"
      value: 0
    }
  }
}
layer {
  name: "conv9_2_mbox_loc_perm"
  type: "Permute"
  bottom: "conv9_2_mbox_loc"
  top: "conv9_2_mbox_loc_perm"
  permute_param {
    order: 0
    order: 2
    order: 3
    order: 1
  }
}
layer {
  name: "conv9_2_mbox_loc_flat"
  type: "Flatten"
  bottom: "conv9_2_mbox_loc_perm"
  top: "conv9_2_mbox_loc_flat"
  flatten_param {
    axis: 1
  }
}
layer {
  name: "conv9_2_mbox_conf"
  type: "Convolution"
  bottom: "conv9_2"
  top: "conv9_2_mbox_conf"
  param {
    lr_mult: 1
    decay_mult: 1
  }
  param {
    lr_mult: 2
    decay_mult: 0
  }
  convolution_param {
    num_output: 84
    pad: 1
    kernel_size: 3
    stride: 1
    weight_filler {
      type: "xavier"
    }
    bias_filler {
      type: "constant"
      value: 0
    }
  }
}
layer {
  name: "conv9_2_mbox_conf_perm"
  type: "Permute"
  bottom: "conv9_2_mbox_conf"
  top: "conv9_2_mbox_conf_perm"
  permute_param {
    order: 0
    order: 2
    order: 3
    order: 1
  }
}
layer {
  name: "conv9_2_mbox_conf_flat"
  type: "Flatten"
  bottom: "conv9_2_mbox_conf_perm"
  top: "conv9_2_mbox_conf_flat"
  flatten_param {
    axis: 1
  }
}
layer {
  name: "conv9_2_mbox_priorbox"
  type: "PriorBox"
  bottom: "conv9_2"
  bottom: "data"
  top: "conv9_2_mbox_priorbox"
  prior_box_param {
    min_size: 264
    max_size: 315
    aspect_ratio: 2
    flip: true
    clip: false
    variance: 0.1
    variance: 0.1
    variance: 0.2
    variance: 0.2
    step: 300
    offset: 0.5
  }
}
layer {
  name: "mbox_loc"
  type: "Concat"
  bottom: "conv4_3_norm_mbox_loc_flat"
  bottom: "fc7_mbox_loc_flat"
  bottom: "conv6_2_mbox_loc_flat"
  bottom: "conv7_2_mbox_loc_flat"
  bottom: "conv8_2_mbox_loc_flat"
  bottom: "conv9_2_mbox_loc_flat"
  top: "mbox_loc"
  concat_param {
    axis: 1
  }
}
layer {
  name: "mbox_conf"
  type: "Concat"
  bottom: "conv4_3_norm_mbox_conf_flat"
  bottom: "fc7_mbox_conf_flat"
  bottom: "conv6_2_mbox_conf_flat"
  bottom: "conv7_2_mbox_conf_flat"
  bottom: "conv8_2_mbox_conf_flat"
  bottom: "conv9_2_mbox_conf_flat"
  top: "mbox_conf"
  concat_param {
    axis: 1
  }
}
layer {
  name: "mbox_priorbox"
  type: "Concat"
  bottom: "conv4_3_norm_mbox_priorbox"
  bottom: "fc7_mbox_priorbox"
  bottom: "conv6_2_mbox_priorbox"
  bottom: "conv7_2_mbox_priorbox"
  bottom: "conv8_2_mbox_priorbox"
  bottom: "conv9_2_mbox_priorbox"
  top: "mbox_priorbox"
  concat_param {
    axis: 2
  }
}
layer {
  name: "mbox_conf_reshape"
  type: "Reshape"
  bottom: "mbox_conf"
  top: "mbox_conf_reshape"
  reshape_param {
    shape {
      dim: 0
      dim: -1
      dim: 21
    }
  }
}
layer {
  name: "mbox_conf_softmax"
  type: "Softmax"
  bottom: "mbox_conf_reshape"
  top: "mbox_conf_softmax"
  softmax_param {
    axis: 2
  }
}
layer {
  name: "mbox_conf_flatten"
  type: "Flatten"
  bottom: "mbox_conf_softmax"
  top: "mbox_conf_flatten"
  flatten_param {
    axis: 1
  }
}
layer {
  name: "detection_out"
  type: "DetectionOutput"
  bottom: "mbox_loc"
  bottom: "mbox_conf_flatten"
  bottom: "mbox_priorbox"
  top: "detection_out"
  include {
    phase: TEST
  }
  detection_output_param {
    num_classes: 21
    share_location: true
    background_label_id: 0
    nms_param {
      nms_threshold: 0.45
      top_k: 400
    }
    save_output_param {
      output_directory: "/home/shangzw/data/VOCdevkit/results/VOC2007/SSD_300x300/Main"
      output_name_prefix: "comp4_det_test_"
      output_format: "VOC"
      label_map_file: "data/VOC0712/labelmap_voc.prototxt"
      name_size_file: "data/VOC0712/test_name_size.txt"
      num_test_image: 4952
    }
    code_type: CENTER_SIZE
    keep_top_k: 200
    confidence_threshold: 0.01
  }
}
layer {
  name: "detection_eval"
  type: "DetectionEvaluate"
  bottom: "detection_out"
  bottom: "label"
  top: "detection_eval"
  include {
    phase: TEST
  }
  detection_evaluate_param {
    num_classes: 21
    background_label_id: 0
    overlap_threshold: 0.5
    evaluate_difficult_gt: false
    name_size_file: "data/VOC0712/test_name_size.txt"
  }
}
I0524 17:37:16.241595 20296 layer_factory.hpp:77] Creating layer data
I0524 17:37:16.241647 20296 net.cpp:100] Creating Layer data
I0524 17:37:16.241652 20296 net.cpp:408] data -> data
I0524 17:37:16.241660 20296 net.cpp:408] data -> label
I0524 17:37:16.242138 20318 db_lmdb.cpp:35] Opened lmdb examples/VOC0712/VOC0712_test_lmdb
I0524 17:37:16.244019 20296 annotated_data_layer.cpp:62] output data size: 8,3,300,300
I0524 17:37:16.261629 20296 net.cpp:150] Setting up data
I0524 17:37:16.261667 20296 net.cpp:157] Top shape: 8 3 300 300 (2160000)
I0524 17:37:16.261672 20296 net.cpp:157] Top shape: 1 1 2 8 (16)
I0524 17:37:16.261673 20296 net.cpp:165] Memory required for data: 8640064
I0524 17:37:16.261693 20296 layer_factory.hpp:77] Creating layer data_data_0_split
I0524 17:37:16.261716 20296 net.cpp:100] Creating Layer data_data_0_split
I0524 17:37:16.261719 20296 net.cpp:434] data_data_0_split <- data
I0524 17:37:16.261739 20296 net.cpp:408] data_data_0_split -> data_data_0_split_0
I0524 17:37:16.261746 20296 net.cpp:408] data_data_0_split -> data_data_0_split_1
I0524 17:37:16.261751 20296 net.cpp:408] data_data_0_split -> data_data_0_split_2
I0524 17:37:16.261772 20296 net.cpp:408] data_data_0_split -> data_data_0_split_3
I0524 17:37:16.261777 20296 net.cpp:408] data_data_0_split -> data_data_0_split_4
I0524 17:37:16.261781 20296 net.cpp:408] data_data_0_split -> data_data_0_split_5
I0524 17:37:16.261785 20296 net.cpp:408] data_data_0_split -> data_data_0_split_6
I0524 17:37:16.261909 20296 net.cpp:150] Setting up data_data_0_split
I0524 17:37:16.261915 20296 net.cpp:157] Top shape: 8 3 300 300 (2160000)
I0524 17:37:16.261919 20296 net.cpp:157] Top shape: 8 3 300 300 (2160000)
I0524 17:37:16.261920 20296 net.cpp:157] Top shape: 8 3 300 300 (2160000)
I0524 17:37:16.261924 20296 net.cpp:157] Top shape: 8 3 300 300 (2160000)
I0524 17:37:16.261926 20296 net.cpp:157] Top shape: 8 3 300 300 (2160000)
I0524 17:37:16.261929 20296 net.cpp:157] Top shape: 8 3 300 300 (2160000)
I0524 17:37:16.261957 20296 net.cpp:157] Top shape: 8 3 300 300 (2160000)
I0524 17:37:16.261960 20296 net.cpp:165] Memory required for data: 69120064
I0524 17:37:16.261962 20296 layer_factory.hpp:77] Creating layer conv1_1
I0524 17:37:16.261970 20296 net.cpp:100] Creating Layer conv1_1
I0524 17:37:16.261975 20296 net.cpp:434] conv1_1 <- data_data_0_split_0
I0524 17:37:16.261978 20296 net.cpp:408] conv1_1 -> conv1_1
I0524 17:37:16.262219 20296 net.cpp:150] Setting up conv1_1
I0524 17:37:16.262225 20296 net.cpp:157] Top shape: 8 64 300 300 (46080000)
I0524 17:37:16.262228 20296 net.cpp:165] Memory required for data: 253440064
I0524 17:37:16.262235 20296 layer_factory.hpp:77] Creating layer relu1_1
I0524 17:37:16.262255 20296 net.cpp:100] Creating Layer relu1_1
I0524 17:37:16.262259 20296 net.cpp:434] relu1_1 <- conv1_1
I0524 17:37:16.262261 20296 net.cpp:395] relu1_1 -> conv1_1 (in-place)
I0524 17:37:16.262265 20296 net.cpp:150] Setting up relu1_1
I0524 17:37:16.262269 20296 net.cpp:157] Top shape: 8 64 300 300 (46080000)
I0524 17:37:16.262271 20296 net.cpp:165] Memory required for data: 437760064
I0524 17:37:16.262274 20296 layer_factory.hpp:77] Creating layer conv1_2
I0524 17:37:16.262279 20296 net.cpp:100] Creating Layer conv1_2
I0524 17:37:16.262282 20296 net.cpp:434] conv1_2 <- conv1_1
I0524 17:37:16.262286 20296 net.cpp:408] conv1_2 -> conv1_2
I0524 17:37:16.262668 20296 net.cpp:150] Setting up conv1_2
I0524 17:37:16.262675 20296 net.cpp:157] Top shape: 8 64 300 300 (46080000)
I0524 17:37:16.262678 20296 net.cpp:165] Memory required for data: 622080064
I0524 17:37:16.262683 20296 layer_factory.hpp:77] Creating layer relu1_2
I0524 17:37:16.262687 20296 net.cpp:100] Creating Layer relu1_2
I0524 17:37:16.262689 20296 net.cpp:434] relu1_2 <- conv1_2
I0524 17:37:16.262709 20296 net.cpp:395] relu1_2 -> conv1_2 (in-place)
I0524 17:37:16.262714 20296 net.cpp:150] Setting up relu1_2
I0524 17:37:16.262717 20296 net.cpp:157] Top shape: 8 64 300 300 (46080000)
I0524 17:37:16.262719 20296 net.cpp:165] Memory required for data: 806400064
I0524 17:37:16.262722 20296 layer_factory.hpp:77] Creating layer pool1
I0524 17:37:16.262727 20296 net.cpp:100] Creating Layer pool1
I0524 17:37:16.262743 20296 net.cpp:434] pool1 <- conv1_2
I0524 17:37:16.262747 20296 net.cpp:408] pool1 -> pool1
I0524 17:37:16.262771 20296 net.cpp:150] Setting up pool1
I0524 17:37:16.262775 20296 net.cpp:157] Top shape: 8 64 150 150 (11520000)
I0524 17:37:16.262778 20296 net.cpp:165] Memory required for data: 852480064
I0524 17:37:16.262779 20296 layer_factory.hpp:77] Creating layer conv2_1
I0524 17:37:16.262784 20296 net.cpp:100] Creating Layer conv2_1
I0524 17:37:16.262787 20296 net.cpp:434] conv2_1 <- pool1
I0524 17:37:16.262791 20296 net.cpp:408] conv2_1 -> conv2_1
I0524 17:37:16.263263 20296 net.cpp:150] Setting up conv2_1
I0524 17:37:16.263269 20296 net.cpp:157] Top shape: 8 128 150 150 (23040000)
I0524 17:37:16.263272 20296 net.cpp:165] Memory required for data: 944640064
I0524 17:37:16.263275 20296 layer_factory.hpp:77] Creating layer relu2_1
I0524 17:37:16.263280 20296 net.cpp:100] Creating Layer relu2_1
I0524 17:37:16.263283 20296 net.cpp:434] relu2_1 <- conv2_1
I0524 17:37:16.263303 20296 net.cpp:395] relu2_1 -> conv2_1 (in-place)
I0524 17:37:16.263306 20296 net.cpp:150] Setting up relu2_1
I0524 17:37:16.263310 20296 net.cpp:157] Top shape: 8 128 150 150 (23040000)
I0524 17:37:16.263314 20296 net.cpp:165] Memory required for data: 1036800064
I0524 17:37:16.263315 20296 layer_factory.hpp:77] Creating layer conv2_2
I0524 17:37:16.263319 20296 net.cpp:100] Creating Layer conv2_2
I0524 17:37:16.263322 20296 net.cpp:434] conv2_2 <- conv2_1
I0524 17:37:16.263327 20296 net.cpp:408] conv2_2 -> conv2_2
I0524 17:37:16.264070 20296 net.cpp:150] Setting up conv2_2
I0524 17:37:16.264075 20296 net.cpp:157] Top shape: 8 128 150 150 (23040000)
I0524 17:37:16.264077 20296 net.cpp:165] Memory required for data: 1128960064
I0524 17:37:16.264081 20296 layer_factory.hpp:77] Creating layer relu2_2
I0524 17:37:16.264086 20296 net.cpp:100] Creating Layer relu2_2
I0524 17:37:16.264109 20296 net.cpp:434] relu2_2 <- conv2_2
I0524 17:37:16.264113 20296 net.cpp:395] relu2_2 -> conv2_2 (in-place)
I0524 17:37:16.264118 20296 net.cpp:150] Setting up relu2_2
I0524 17:37:16.264135 20296 net.cpp:157] Top shape: 8 128 150 150 (23040000)
I0524 17:37:16.264137 20296 net.cpp:165] Memory required for data: 1221120064
I0524 17:37:16.264139 20296 layer_factory.hpp:77] Creating layer pool2
I0524 17:37:16.264143 20296 net.cpp:100] Creating Layer pool2
I0524 17:37:16.264145 20296 net.cpp:434] pool2 <- conv2_2
I0524 17:37:16.264148 20296 net.cpp:408] pool2 -> pool2
I0524 17:37:16.266855 20296 net.cpp:150] Setting up pool2
I0524 17:37:16.266881 20296 net.cpp:157] Top shape: 8 128 75 75 (5760000)
I0524 17:37:16.266885 20296 net.cpp:165] Memory required for data: 1244160064
I0524 17:37:16.266887 20296 layer_factory.hpp:77] Creating layer conv3_1
I0524 17:37:16.266894 20296 net.cpp:100] Creating Layer conv3_1
I0524 17:37:16.266897 20296 net.cpp:434] conv3_1 <- pool2
I0524 17:37:16.266903 20296 net.cpp:408] conv3_1 -> conv3_1
I0524 17:37:16.269033 20296 net.cpp:150] Setting up conv3_1
I0524 17:37:16.269047 20296 net.cpp:157] Top shape: 8 256 75 75 (11520000)
I0524 17:37:16.269050 20296 net.cpp:165] Memory required for data: 1290240064
I0524 17:37:16.269059 20296 layer_factory.hpp:77] Creating layer relu3_1
I0524 17:37:16.269065 20296 net.cpp:100] Creating Layer relu3_1
I0524 17:37:16.269069 20296 net.cpp:434] relu3_1 <- conv3_1
I0524 17:37:16.269073 20296 net.cpp:395] relu3_1 -> conv3_1 (in-place)
I0524 17:37:16.269079 20296 net.cpp:150] Setting up relu3_1
I0524 17:37:16.269083 20296 net.cpp:157] Top shape: 8 256 75 75 (11520000)
I0524 17:37:16.269086 20296 net.cpp:165] Memory required for data: 1336320064
I0524 17:37:16.269088 20296 layer_factory.hpp:77] Creating layer conv3_2
I0524 17:37:16.269094 20296 net.cpp:100] Creating Layer conv3_2
I0524 17:37:16.269098 20296 net.cpp:434] conv3_2 <- conv3_1
I0524 17:37:16.269100 20296 net.cpp:408] conv3_2 -> conv3_2
I0524 17:37:16.272308 20296 net.cpp:150] Setting up conv3_2
I0524 17:37:16.272320 20296 net.cpp:157] Top shape: 8 256 75 75 (11520000)
I0524 17:37:16.272323 20296 net.cpp:165] Memory required for data: 1382400064
I0524 17:37:16.272327 20296 layer_factory.hpp:77] Creating layer relu3_2
I0524 17:37:16.272333 20296 net.cpp:100] Creating Layer relu3_2
I0524 17:37:16.272336 20296 net.cpp:434] relu3_2 <- conv3_2
I0524 17:37:16.272339 20296 net.cpp:395] relu3_2 -> conv3_2 (in-place)
I0524 17:37:16.272343 20296 net.cpp:150] Setting up relu3_2
I0524 17:37:16.272356 20296 net.cpp:157] Top shape: 8 256 75 75 (11520000)
I0524 17:37:16.272357 20296 net.cpp:165] Memory required for data: 1428480064
I0524 17:37:16.272359 20296 layer_factory.hpp:77] Creating layer conv3_3
I0524 17:37:16.272367 20296 net.cpp:100] Creating Layer conv3_3
I0524 17:37:16.272369 20296 net.cpp:434] conv3_3 <- conv3_2
I0524 17:37:16.272373 20296 net.cpp:408] conv3_3 -> conv3_3
I0524 17:37:16.275641 20296 net.cpp:150] Setting up conv3_3
I0524 17:37:16.275661 20296 net.cpp:157] Top shape: 8 256 75 75 (11520000)
I0524 17:37:16.275681 20296 net.cpp:165] Memory required for data: 1474560064
I0524 17:37:16.275688 20296 layer_factory.hpp:77] Creating layer relu3_3
I0524 17:37:16.275697 20296 net.cpp:100] Creating Layer relu3_3
I0524 17:37:16.275702 20296 net.cpp:434] relu3_3 <- conv3_3
I0524 17:37:16.275722 20296 net.cpp:395] relu3_3 -> conv3_3 (in-place)
I0524 17:37:16.275729 20296 net.cpp:150] Setting up relu3_3
I0524 17:37:16.275737 20296 net.cpp:157] Top shape: 8 256 75 75 (11520000)
I0524 17:37:16.275739 20296 net.cpp:165] Memory required for data: 1520640064
I0524 17:37:16.275743 20296 layer_factory.hpp:77] Creating layer pool3
I0524 17:37:16.275749 20296 net.cpp:100] Creating Layer pool3
I0524 17:37:16.275754 20296 net.cpp:434] pool3 <- conv3_3
I0524 17:37:16.275759 20296 net.cpp:408] pool3 -> pool3
I0524 17:37:16.275799 20296 net.cpp:150] Setting up pool3
I0524 17:37:16.275806 20296 net.cpp:157] Top shape: 8 256 38 38 (2957312)
I0524 17:37:16.275810 20296 net.cpp:165] Memory required for data: 1532469312
I0524 17:37:16.275828 20296 layer_factory.hpp:77] Creating layer conv4_1
I0524 17:37:16.275838 20296 net.cpp:100] Creating Layer conv4_1
I0524 17:37:16.275851 20296 net.cpp:434] conv4_1 <- pool3
I0524 17:37:16.275856 20296 net.cpp:408] conv4_1 -> conv4_1
I0524 17:37:16.281929 20296 net.cpp:150] Setting up conv4_1
I0524 17:37:16.281949 20296 net.cpp:157] Top shape: 8 512 38 38 (5914624)
I0524 17:37:16.281952 20296 net.cpp:165] Memory required for data: 1556127808
I0524 17:37:16.281960 20296 layer_factory.hpp:77] Creating layer relu4_1
I0524 17:37:16.281965 20296 net.cpp:100] Creating Layer relu4_1
I0524 17:37:16.281970 20296 net.cpp:434] relu4_1 <- conv4_1
I0524 17:37:16.281975 20296 net.cpp:395] relu4_1 -> conv4_1 (in-place)
I0524 17:37:16.281981 20296 net.cpp:150] Setting up relu4_1
I0524 17:37:16.281985 20296 net.cpp:157] Top shape: 8 512 38 38 (5914624)
I0524 17:37:16.281987 20296 net.cpp:165] Memory required for data: 1579786304
I0524 17:37:16.281990 20296 layer_factory.hpp:77] Creating layer conv4_2
I0524 17:37:16.281996 20296 net.cpp:100] Creating Layer conv4_2
I0524 17:37:16.281998 20296 net.cpp:434] conv4_2 <- conv4_1
I0524 17:37:16.282002 20296 net.cpp:408] conv4_2 -> conv4_2
I0524 17:37:16.294519 20296 net.cpp:150] Setting up conv4_2
I0524 17:37:16.294538 20296 net.cpp:157] Top shape: 8 512 38 38 (5914624)
I0524 17:37:16.294541 20296 net.cpp:165] Memory required for data: 1603444800
I0524 17:37:16.294565 20296 layer_factory.hpp:77] Creating layer relu4_2
I0524 17:37:16.294585 20296 net.cpp:100] Creating Layer relu4_2
I0524 17:37:16.294603 20296 net.cpp:434] relu4_2 <- conv4_2
I0524 17:37:16.294608 20296 net.cpp:395] relu4_2 -> conv4_2 (in-place)
I0524 17:37:16.294615 20296 net.cpp:150] Setting up relu4_2
I0524 17:37:16.294620 20296 net.cpp:157] Top shape: 8 512 38 38 (5914624)
I0524 17:37:16.294620 20296 net.cpp:165] Memory required for data: 1627103296
I0524 17:37:16.294622 20296 layer_factory.hpp:77] Creating layer conv4_3
I0524 17:37:16.294630 20296 net.cpp:100] Creating Layer conv4_3
I0524 17:37:16.294631 20296 net.cpp:434] conv4_3 <- conv4_2
I0524 17:37:16.294636 20296 net.cpp:408] conv4_3 -> conv4_3
I0524 17:37:16.306406 20296 net.cpp:150] Setting up conv4_3
I0524 17:37:16.306421 20296 net.cpp:157] Top shape: 8 512 38 38 (5914624)
I0524 17:37:16.306424 20296 net.cpp:165] Memory required for data: 1650761792
I0524 17:37:16.306445 20296 layer_factory.hpp:77] Creating layer relu4_3
I0524 17:37:16.306452 20296 net.cpp:100] Creating Layer relu4_3
I0524 17:37:16.306455 20296 net.cpp:434] relu4_3 <- conv4_3
I0524 17:37:16.306460 20296 net.cpp:395] relu4_3 -> conv4_3 (in-place)
I0524 17:37:16.306466 20296 net.cpp:150] Setting up relu4_3
I0524 17:37:16.306469 20296 net.cpp:157] Top shape: 8 512 38 38 (5914624)
I0524 17:37:16.306471 20296 net.cpp:165] Memory required for data: 1674420288
I0524 17:37:16.306473 20296 layer_factory.hpp:77] Creating layer conv4_3_relu4_3_0_split
I0524 17:37:16.306478 20296 net.cpp:100] Creating Layer conv4_3_relu4_3_0_split
I0524 17:37:16.306479 20296 net.cpp:434] conv4_3_relu4_3_0_split <- conv4_3
I0524 17:37:16.306483 20296 net.cpp:408] conv4_3_relu4_3_0_split -> conv4_3_relu4_3_0_split_0
I0524 17:37:16.306489 20296 net.cpp:408] conv4_3_relu4_3_0_split -> conv4_3_relu4_3_0_split_1
I0524 17:37:16.306532 20296 net.cpp:150] Setting up conv4_3_relu4_3_0_split
I0524 17:37:16.306537 20296 net.cpp:157] Top shape: 8 512 38 38 (5914624)
I0524 17:37:16.306540 20296 net.cpp:157] Top shape: 8 512 38 38 (5914624)
I0524 17:37:16.306542 20296 net.cpp:165] Memory required for data: 1721737280
I0524 17:37:16.306545 20296 layer_factory.hpp:77] Creating layer pool4
I0524 17:37:16.306548 20296 net.cpp:100] Creating Layer pool4
I0524 17:37:16.306550 20296 net.cpp:434] pool4 <- conv4_3_relu4_3_0_split_0
I0524 17:37:16.306555 20296 net.cpp:408] pool4 -> pool4
I0524 17:37:16.306576 20296 net.cpp:150] Setting up pool4
I0524 17:37:16.306581 20296 net.cpp:157] Top shape: 8 512 19 19 (1478656)
I0524 17:37:16.306582 20296 net.cpp:165] Memory required for data: 1727651904
I0524 17:37:16.306612 20296 layer_factory.hpp:77] Creating layer conv5_1
I0524 17:37:16.306619 20296 net.cpp:100] Creating Layer conv5_1
I0524 17:37:16.306622 20296 net.cpp:434] conv5_1 <- pool4
I0524 17:37:16.306627 20296 net.cpp:408] conv5_1 -> conv5_1
I0524 17:37:16.319138 20296 net.cpp:150] Setting up conv5_1
I0524 17:37:16.319154 20296 net.cpp:157] Top shape: 8 512 19 19 (1478656)
I0524 17:37:16.319156 20296 net.cpp:165] Memory required for data: 1733566528
I0524 17:37:16.319162 20296 layer_factory.hpp:77] Creating layer relu5_1
I0524 17:37:16.319183 20296 net.cpp:100] Creating Layer relu5_1
I0524 17:37:16.319186 20296 net.cpp:434] relu5_1 <- conv5_1
I0524 17:37:16.319205 20296 net.cpp:395] relu5_1 -> conv5_1 (in-place)
I0524 17:37:16.319211 20296 net.cpp:150] Setting up relu5_1
I0524 17:37:16.319214 20296 net.cpp:157] Top shape: 8 512 19 19 (1478656)
I0524 17:37:16.319216 20296 net.cpp:165] Memory required for data: 1739481152
I0524 17:37:16.319218 20296 layer_factory.hpp:77] Creating layer conv5_2
I0524 17:37:16.319239 20296 net.cpp:100] Creating Layer conv5_2
I0524 17:37:16.319243 20296 net.cpp:434] conv5_2 <- conv5_1
I0524 17:37:16.319247 20296 net.cpp:408] conv5_2 -> conv5_2
I0524 17:37:16.331598 20296 net.cpp:150] Setting up conv5_2
I0524 17:37:16.331616 20296 net.cpp:157] Top shape: 8 512 19 19 (1478656)
I0524 17:37:16.331619 20296 net.cpp:165] Memory required for data: 1745395776
I0524 17:37:16.331624 20296 layer_factory.hpp:77] Creating layer relu5_2
I0524 17:37:16.331646 20296 net.cpp:100] Creating Layer relu5_2
I0524 17:37:16.331650 20296 net.cpp:434] relu5_2 <- conv5_2
I0524 17:37:16.331655 20296 net.cpp:395] relu5_2 -> conv5_2 (in-place)
I0524 17:37:16.331660 20296 net.cpp:150] Setting up relu5_2
I0524 17:37:16.331662 20296 net.cpp:157] Top shape: 8 512 19 19 (1478656)
I0524 17:37:16.331665 20296 net.cpp:165] Memory required for data: 1751310400
I0524 17:37:16.331667 20296 layer_factory.hpp:77] Creating layer conv5_3
I0524 17:37:16.331688 20296 net.cpp:100] Creating Layer conv5_3
I0524 17:37:16.331707 20296 net.cpp:434] conv5_3 <- conv5_2
I0524 17:37:16.331712 20296 net.cpp:408] conv5_3 -> conv5_3
I0524 17:37:16.344077 20296 net.cpp:150] Setting up conv5_3
I0524 17:37:16.344097 20296 net.cpp:157] Top shape: 8 512 19 19 (1478656)
I0524 17:37:16.344100 20296 net.cpp:165] Memory required for data: 1757225024
I0524 17:37:16.344108 20296 layer_factory.hpp:77] Creating layer relu5_3
I0524 17:37:16.344136 20296 net.cpp:100] Creating Layer relu5_3
I0524 17:37:16.344142 20296 net.cpp:434] relu5_3 <- conv5_3
I0524 17:37:16.344149 20296 net.cpp:395] relu5_3 -> conv5_3 (in-place)
I0524 17:37:16.344172 20296 net.cpp:150] Setting up relu5_3
I0524 17:37:16.344192 20296 net.cpp:157] Top shape: 8 512 19 19 (1478656)
I0524 17:37:16.344197 20296 net.cpp:165] Memory required for data: 1763139648
I0524 17:37:16.344202 20296 layer_factory.hpp:77] Creating layer pool5
I0524 17:37:16.344208 20296 net.cpp:100] Creating Layer pool5
I0524 17:37:16.344211 20296 net.cpp:434] pool5 <- conv5_3
I0524 17:37:16.344231 20296 net.cpp:408] pool5 -> pool5
I0524 17:37:16.344271 20296 net.cpp:150] Setting up pool5
I0524 17:37:16.344277 20296 net.cpp:157] Top shape: 8 512 19 19 (1478656)
I0524 17:37:16.344281 20296 net.cpp:165] Memory required for data: 1769054272
I0524 17:37:16.344285 20296 layer_factory.hpp:77] Creating layer fc6
I0524 17:37:16.344295 20296 net.cpp:100] Creating Layer fc6
I0524 17:37:16.344300 20296 net.cpp:434] fc6 <- pool5
I0524 17:37:16.344306 20296 net.cpp:408] fc6 -> fc6
I0524 17:37:16.368268 20296 net.cpp:150] Setting up fc6
I0524 17:37:16.368284 20296 net.cpp:157] Top shape: 8 1024 19 19 (2957312)
I0524 17:37:16.368288 20296 net.cpp:165] Memory required for data: 1780883520
I0524 17:37:16.368309 20296 layer_factory.hpp:77] Creating layer relu6
I0524 17:37:16.368331 20296 net.cpp:100] Creating Layer relu6
I0524 17:37:16.368352 20296 net.cpp:434] relu6 <- fc6
I0524 17:37:16.368360 20296 net.cpp:395] relu6 -> fc6 (in-place)
I0524 17:37:16.368369 20296 net.cpp:150] Setting up relu6
I0524 17:37:16.368376 20296 net.cpp:157] Top shape: 8 1024 19 19 (2957312)
I0524 17:37:16.368389 20296 net.cpp:165] Memory required for data: 1792712768
I0524 17:37:16.368394 20296 layer_factory.hpp:77] Creating layer fc7
I0524 17:37:16.368405 20296 net.cpp:100] Creating Layer fc7
I0524 17:37:16.368410 20296 net.cpp:434] fc7 <- fc6
I0524 17:37:16.368436 20296 net.cpp:408] fc7 -> fc7
I0524 17:37:16.373910 20296 net.cpp:150] Setting up fc7
I0524 17:37:16.373929 20296 net.cpp:157] Top shape: 8 1024 19 19 (2957312)
I0524 17:37:16.373932 20296 net.cpp:165] Memory required for data: 1804542016
I0524 17:37:16.373940 20296 layer_factory.hpp:77] Creating layer relu7
I0524 17:37:16.373949 20296 net.cpp:100] Creating Layer relu7
I0524 17:37:16.373955 20296 net.cpp:434] relu7 <- fc7
I0524 17:37:16.373965 20296 net.cpp:395] relu7 -> fc7 (in-place)
I0524 17:37:16.373975 20296 net.cpp:150] Setting up relu7
I0524 17:37:16.373980 20296 net.cpp:157] Top shape: 8 1024 19 19 (2957312)
I0524 17:37:16.373983 20296 net.cpp:165] Memory required for data: 1816371264
I0524 17:37:16.373989 20296 layer_factory.hpp:77] Creating layer fc7_relu7_0_split
I0524 17:37:16.373996 20296 net.cpp:100] Creating Layer fc7_relu7_0_split
I0524 17:37:16.373999 20296 net.cpp:434] fc7_relu7_0_split <- fc7
I0524 17:37:16.374006 20296 net.cpp:408] fc7_relu7_0_split -> fc7_relu7_0_split_0
I0524 17:37:16.374017 20296 net.cpp:408] fc7_relu7_0_split -> fc7_relu7_0_split_1
I0524 17:37:16.374029 20296 net.cpp:408] fc7_relu7_0_split -> fc7_relu7_0_split_2
I0524 17:37:16.374037 20296 net.cpp:408] fc7_relu7_0_split -> fc7_relu7_0_split_3
I0524 17:37:16.374089 20296 net.cpp:150] Setting up fc7_relu7_0_split
I0524 17:37:16.374097 20296 net.cpp:157] Top shape: 8 1024 19 19 (2957312)
I0524 17:37:16.374104 20296 net.cpp:157] Top shape: 8 1024 19 19 (2957312)
I0524 17:37:16.374109 20296 net.cpp:157] Top shape: 8 1024 19 19 (2957312)
I0524 17:37:16.374114 20296 net.cpp:157] Top shape: 8 1024 19 19 (2957312)
I0524 17:37:16.374119 20296 net.cpp:165] Memory required for data: 1863688256
I0524 17:37:16.374124 20296 layer_factory.hpp:77] Creating layer conv6_1
I0524 17:37:16.374133 20296 net.cpp:100] Creating Layer conv6_1
I0524 17:37:16.374137 20296 net.cpp:434] conv6_1 <- fc7_relu7_0_split_0
I0524 17:37:16.374146 20296 net.cpp:408] conv6_1 -> conv6_1
I0524 17:37:16.376366 20296 net.cpp:150] Setting up conv6_1
I0524 17:37:16.376384 20296 net.cpp:157] Top shape: 8 256 19 19 (739328)
I0524 17:37:16.376387 20296 net.cpp:165] Memory required for data: 1866645568
I0524 17:37:16.376395 20296 layer_factory.hpp:77] Creating layer conv6_1_relu
I0524 17:37:16.376405 20296 net.cpp:100] Creating Layer conv6_1_relu
I0524 17:37:16.376410 20296 net.cpp:434] conv6_1_relu <- conv6_1
I0524 17:37:16.376417 20296 net.cpp:395] conv6_1_relu -> conv6_1 (in-place)
I0524 17:37:16.376426 20296 net.cpp:150] Setting up conv6_1_relu
I0524 17:37:16.376433 20296 net.cpp:157] Top shape: 8 256 19 19 (739328)
I0524 17:37:16.376436 20296 net.cpp:165] Memory required for data: 1869602880
I0524 17:37:16.376441 20296 layer_factory.hpp:77] Creating layer conv6_2
I0524 17:37:16.376453 20296 net.cpp:100] Creating Layer conv6_2
I0524 17:37:16.376457 20296 net.cpp:434] conv6_2 <- conv6_1
I0524 17:37:16.376463 20296 net.cpp:408] conv6_2 -> conv6_2
I0524 17:37:16.382532 20296 net.cpp:150] Setting up conv6_2
I0524 17:37:16.382551 20296 net.cpp:157] Top shape: 8 512 10 10 (409600)
I0524 17:37:16.382555 20296 net.cpp:165] Memory required for data: 1871241280
I0524 17:37:16.382570 20296 layer_factory.hpp:77] Creating layer conv6_2_relu
I0524 17:37:16.382594 20296 net.cpp:100] Creating Layer conv6_2_relu
I0524 17:37:16.382613 20296 net.cpp:434] conv6_2_relu <- conv6_2
I0524 17:37:16.382635 20296 net.cpp:395] conv6_2_relu -> conv6_2 (in-place)
I0524 17:37:16.382644 20296 net.cpp:150] Setting up conv6_2_relu
I0524 17:37:16.382650 20296 net.cpp:157] Top shape: 8 512 10 10 (409600)
I0524 17:37:16.382654 20296 net.cpp:165] Memory required for data: 1872879680
I0524 17:37:16.382658 20296 layer_factory.hpp:77] Creating layer conv6_2_conv6_2_relu_0_split
I0524 17:37:16.382683 20296 net.cpp:100] Creating Layer conv6_2_conv6_2_relu_0_split
I0524 17:37:16.382707 20296 net.cpp:434] conv6_2_conv6_2_relu_0_split <- conv6_2
I0524 17:37:16.382715 20296 net.cpp:408] conv6_2_conv6_2_relu_0_split -> conv6_2_conv6_2_relu_0_split_0
I0524 17:37:16.382725 20296 net.cpp:408] conv6_2_conv6_2_relu_0_split -> conv6_2_conv6_2_relu_0_split_1
I0524 17:37:16.382747 20296 net.cpp:408] conv6_2_conv6_2_relu_0_split -> conv6_2_conv6_2_relu_0_split_2
I0524 17:37:16.382755 20296 net.cpp:408] conv6_2_conv6_2_relu_0_split -> conv6_2_conv6_2_relu_0_split_3
I0524 17:37:16.382822 20296 net.cpp:150] Setting up conv6_2_conv6_2_relu_0_split
I0524 17:37:16.382827 20296 net.cpp:157] Top shape: 8 512 10 10 (409600)
I0524 17:37:16.382833 20296 net.cpp:157] Top shape: 8 512 10 10 (409600)
I0524 17:37:16.382853 20296 net.cpp:157] Top shape: 8 512 10 10 (409600)
I0524 17:37:16.382859 20296 net.cpp:157] Top shape: 8 512 10 10 (409600)
I0524 17:37:16.382863 20296 net.cpp:165] Memory required for data: 1879433280
I0524 17:37:16.382866 20296 layer_factory.hpp:77] Creating layer conv7_1
I0524 17:37:16.382877 20296 net.cpp:100] Creating Layer conv7_1
I0524 17:37:16.382895 20296 net.cpp:434] conv7_1 <- conv6_2_conv6_2_relu_0_split_0
I0524 17:37:16.382903 20296 net.cpp:408] conv7_1 -> conv7_1
I0524 17:37:16.383347 20296 net.cpp:150] Setting up conv7_1
I0524 17:37:16.383353 20296 net.cpp:157] Top shape: 8 128 10 10 (102400)
I0524 17:37:16.383358 20296 net.cpp:165] Memory required for data: 1879842880
I0524 17:37:16.383364 20296 layer_factory.hpp:77] Creating layer conv7_1_relu
I0524 17:37:16.383370 20296 net.cpp:100] Creating Layer conv7_1_relu
I0524 17:37:16.383375 20296 net.cpp:434] conv7_1_relu <- conv7_1
I0524 17:37:16.383383 20296 net.cpp:395] conv7_1_relu -> conv7_1 (in-place)
I0524 17:37:16.383389 20296 net.cpp:150] Setting up conv7_1_relu
I0524 17:37:16.383395 20296 net.cpp:157] Top shape: 8 128 10 10 (102400)
I0524 17:37:16.383399 20296 net.cpp:165] Memory required for data: 1880252480
I0524 17:37:16.383404 20296 layer_factory.hpp:77] Creating layer conv7_2
I0524 17:37:16.383412 20296 net.cpp:100] Creating Layer conv7_2
I0524 17:37:16.383416 20296 net.cpp:434] conv7_2 <- conv7_1
I0524 17:37:16.383424 20296 net.cpp:408] conv7_2 -> conv7_2
I0524 17:37:16.385484 20296 net.cpp:150] Setting up conv7_2
I0524 17:37:16.385498 20296 net.cpp:157] Top shape: 8 256 5 5 (51200)
I0524 17:37:16.385501 20296 net.cpp:165] Memory required for data: 1880457280
I0524 17:37:16.385509 20296 layer_factory.hpp:77] Creating layer conv7_2_relu
I0524 17:37:16.385515 20296 net.cpp:100] Creating Layer conv7_2_relu
I0524 17:37:16.385520 20296 net.cpp:434] conv7_2_relu <- conv7_2
I0524 17:37:16.385527 20296 net.cpp:395] conv7_2_relu -> conv7_2 (in-place)
I0524 17:37:16.385536 20296 net.cpp:150] Setting up conv7_2_relu
I0524 17:37:16.385542 20296 net.cpp:157] Top shape: 8 256 5 5 (51200)
I0524 17:37:16.385547 20296 net.cpp:165] Memory required for data: 1880662080
I0524 17:37:16.385565 20296 layer_factory.hpp:77] Creating layer conv7_2_conv7_2_relu_0_split
I0524 17:37:16.385570 20296 net.cpp:100] Creating Layer conv7_2_conv7_2_relu_0_split
I0524 17:37:16.385574 20296 net.cpp:434] conv7_2_conv7_2_relu_0_split <- conv7_2
I0524 17:37:16.385582 20296 net.cpp:408] conv7_2_conv7_2_relu_0_split -> conv7_2_conv7_2_relu_0_split_0
I0524 17:37:16.385591 20296 net.cpp:408] conv7_2_conv7_2_relu_0_split -> conv7_2_conv7_2_relu_0_split_1
I0524 17:37:16.385597 20296 net.cpp:408] conv7_2_conv7_2_relu_0_split -> conv7_2_conv7_2_relu_0_split_2
I0524 17:37:16.385622 20296 net.cpp:408] conv7_2_conv7_2_relu_0_split -> conv7_2_conv7_2_relu_0_split_3
I0524 17:37:16.385673 20296 net.cpp:150] Setting up conv7_2_conv7_2_relu_0_split
I0524 17:37:16.385679 20296 net.cpp:157] Top shape: 8 256 5 5 (51200)
I0524 17:37:16.385684 20296 net.cpp:157] Top shape: 8 256 5 5 (51200)
I0524 17:37:16.385689 20296 net.cpp:157] Top shape: 8 256 5 5 (51200)
I0524 17:37:16.385694 20296 net.cpp:157] Top shape: 8 256 5 5 (51200)
I0524 17:37:16.385699 20296 net.cpp:165] Memory required for data: 1881481280
I0524 17:37:16.385711 20296 layer_factory.hpp:77] Creating layer conv8_1
I0524 17:37:16.385722 20296 net.cpp:100] Creating Layer conv8_1
I0524 17:37:16.385727 20296 net.cpp:434] conv8_1 <- conv7_2_conv7_2_relu_0_split_0
I0524 17:37:16.385735 20296 net.cpp:408] conv8_1 -> conv8_1
I0524 17:37:16.386042 20296 net.cpp:150] Setting up conv8_1
I0524 17:37:16.386049 20296 net.cpp:157] Top shape: 8 128 5 5 (25600)
I0524 17:37:16.386054 20296 net.cpp:165] Memory required for data: 1881583680
I0524 17:37:16.386059 20296 layer_factory.hpp:77] Creating layer conv8_1_relu
I0524 17:37:16.386070 20296 net.cpp:100] Creating Layer conv8_1_relu
I0524 17:37:16.386075 20296 net.cpp:434] conv8_1_relu <- conv8_1
I0524 17:37:16.386080 20296 net.cpp:395] conv8_1_relu -> conv8_1 (in-place)
I0524 17:37:16.386087 20296 net.cpp:150] Setting up conv8_1_relu
I0524 17:37:16.386093 20296 net.cpp:157] Top shape: 8 128 5 5 (25600)
I0524 17:37:16.386098 20296 net.cpp:165] Memory required for data: 1881686080
I0524 17:37:16.386101 20296 layer_factory.hpp:77] Creating layer conv8_2
I0524 17:37:16.386111 20296 net.cpp:100] Creating Layer conv8_2
I0524 17:37:16.386114 20296 net.cpp:434] conv8_2 <- conv8_1
I0524 17:37:16.386121 20296 net.cpp:408] conv8_2 -> conv8_2
I0524 17:37:16.388212 20296 net.cpp:150] Setting up conv8_2
I0524 17:37:16.388226 20296 net.cpp:157] Top shape: 8 256 3 3 (18432)
I0524 17:37:16.388229 20296 net.cpp:165] Memory required for data: 1881759808
I0524 17:37:16.388236 20296 layer_factory.hpp:77] Creating layer conv8_2_relu
I0524 17:37:16.388247 20296 net.cpp:100] Creating Layer conv8_2_relu
I0524 17:37:16.388252 20296 net.cpp:434] conv8_2_relu <- conv8_2
I0524 17:37:16.388257 20296 net.cpp:395] conv8_2_relu -> conv8_2 (in-place)
I0524 17:37:16.388265 20296 net.cpp:150] Setting up conv8_2_relu
I0524 17:37:16.388272 20296 net.cpp:157] Top shape: 8 256 3 3 (18432)
I0524 17:37:16.388275 20296 net.cpp:165] Memory required for data: 1881833536
I0524 17:37:16.388279 20296 layer_factory.hpp:77] Creating layer conv8_2_conv8_2_relu_0_split
I0524 17:37:16.388288 20296 net.cpp:100] Creating Layer conv8_2_conv8_2_relu_0_split
I0524 17:37:16.388293 20296 net.cpp:434] conv8_2_conv8_2_relu_0_split <- conv8_2
I0524 17:37:16.388298 20296 net.cpp:408] conv8_2_conv8_2_relu_0_split -> conv8_2_conv8_2_relu_0_split_0
I0524 17:37:16.388306 20296 net.cpp:408] conv8_2_conv8_2_relu_0_split -> conv8_2_conv8_2_relu_0_split_1
I0524 17:37:16.388314 20296 net.cpp:408] conv8_2_conv8_2_relu_0_split -> conv8_2_conv8_2_relu_0_split_2
I0524 17:37:16.388322 20296 net.cpp:408] conv8_2_conv8_2_relu_0_split -> conv8_2_conv8_2_relu_0_split_3
I0524 17:37:16.388375 20296 net.cpp:150] Setting up conv8_2_conv8_2_relu_0_split
I0524 17:37:16.388382 20296 net.cpp:157] Top shape: 8 256 3 3 (18432)
I0524 17:37:16.388387 20296 net.cpp:157] Top shape: 8 256 3 3 (18432)
I0524 17:37:16.388392 20296 net.cpp:157] Top shape: 8 256 3 3 (18432)
I0524 17:37:16.388398 20296 net.cpp:157] Top shape: 8 256 3 3 (18432)
I0524 17:37:16.388402 20296 net.cpp:165] Memory required for data: 1882128448
I0524 17:37:16.388406 20296 layer_factory.hpp:77] Creating layer conv9_1
I0524 17:37:16.388417 20296 net.cpp:100] Creating Layer conv9_1
I0524 17:37:16.388422 20296 net.cpp:434] conv9_1 <- conv8_2_conv8_2_relu_0_split_0
I0524 17:37:16.388429 20296 net.cpp:408] conv9_1 -> conv9_1
I0524 17:37:16.389483 20296 net.cpp:150] Setting up conv9_1
I0524 17:37:16.389493 20296 net.cpp:157] Top shape: 8 128 3 3 (9216)
I0524 17:37:16.389497 20296 net.cpp:165] Memory required for data: 1882165312
I0524 17:37:16.389504 20296 layer_factory.hpp:77] Creating layer conv9_1_relu
I0524 17:37:16.389511 20296 net.cpp:100] Creating Layer conv9_1_relu
I0524 17:37:16.389516 20296 net.cpp:434] conv9_1_relu <- conv9_1
I0524 17:37:16.389523 20296 net.cpp:395] conv9_1_relu -> conv9_1 (in-place)
I0524 17:37:16.389530 20296 net.cpp:150] Setting up conv9_1_relu
I0524 17:37:16.389535 20296 net.cpp:157] Top shape: 8 128 3 3 (9216)
I0524 17:37:16.389539 20296 net.cpp:165] Memory required for data: 1882202176
I0524 17:37:16.389544 20296 layer_factory.hpp:77] Creating layer conv9_2
I0524 17:37:16.389564 20296 net.cpp:100] Creating Layer conv9_2
I0524 17:37:16.389569 20296 net.cpp:434] conv9_2 <- conv9_1
I0524 17:37:16.389575 20296 net.cpp:408] conv9_2 -> conv9_2
I0524 17:37:16.391739 20296 net.cpp:150] Setting up conv9_2
I0524 17:37:16.391752 20296 net.cpp:157] Top shape: 8 256 1 1 (2048)
I0524 17:37:16.391757 20296 net.cpp:165] Memory required for data: 1882210368
I0524 17:37:16.391762 20296 layer_factory.hpp:77] Creating layer conv9_2_relu
I0524 17:37:16.391772 20296 net.cpp:100] Creating Layer conv9_2_relu
I0524 17:37:16.391777 20296 net.cpp:434] conv9_2_relu <- conv9_2
I0524 17:37:16.391784 20296 net.cpp:395] conv9_2_relu -> conv9_2 (in-place)
I0524 17:37:16.391793 20296 net.cpp:150] Setting up conv9_2_relu
I0524 17:37:16.391800 20296 net.cpp:157] Top shape: 8 256 1 1 (2048)
I0524 17:37:16.391805 20296 net.cpp:165] Memory required for data: 1882218560
I0524 17:37:16.391809 20296 layer_factory.hpp:77] Creating layer conv9_2_conv9_2_relu_0_split
I0524 17:37:16.391816 20296 net.cpp:100] Creating Layer conv9_2_conv9_2_relu_0_split
I0524 17:37:16.391821 20296 net.cpp:434] conv9_2_conv9_2_relu_0_split <- conv9_2
I0524 17:37:16.391829 20296 net.cpp:408] conv9_2_conv9_2_relu_0_split -> conv9_2_conv9_2_relu_0_split_0
I0524 17:37:16.391837 20296 net.cpp:408] conv9_2_conv9_2_relu_0_split -> conv9_2_conv9_2_relu_0_split_1
I0524 17:37:16.391845 20296 net.cpp:408] conv9_2_conv9_2_relu_0_split -> conv9_2_conv9_2_relu_0_split_2
I0524 17:37:16.391891 20296 net.cpp:150] Setting up conv9_2_conv9_2_relu_0_split
I0524 17:37:16.391897 20296 net.cpp:157] Top shape: 8 256 1 1 (2048)
I0524 17:37:16.391902 20296 net.cpp:157] Top shape: 8 256 1 1 (2048)
I0524 17:37:16.391907 20296 net.cpp:157] Top shape: 8 256 1 1 (2048)
I0524 17:37:16.391912 20296 net.cpp:165] Memory required for data: 1882243136
I0524 17:37:16.391916 20296 layer_factory.hpp:77] Creating layer conv4_3_norm
I0524 17:37:16.391926 20296 net.cpp:100] Creating Layer conv4_3_norm
I0524 17:37:16.391929 20296 net.cpp:434] conv4_3_norm <- conv4_3_relu4_3_0_split_1
I0524 17:37:16.391938 20296 net.cpp:408] conv4_3_norm -> conv4_3_norm
I0524 17:37:16.392076 20296 net.cpp:150] Setting up conv4_3_norm
I0524 17:37:16.392082 20296 net.cpp:157] Top shape: 8 512 38 38 (5914624)
I0524 17:37:16.392086 20296 net.cpp:165] Memory required for data: 1905901632
I0524 17:37:16.392092 20296 layer_factory.hpp:77] Creating layer conv4_3_norm_conv4_3_norm_0_split
I0524 17:37:16.392114 20296 net.cpp:100] Creating Layer conv4_3_norm_conv4_3_norm_0_split
I0524 17:37:16.392119 20296 net.cpp:434] conv4_3_norm_conv4_3_norm_0_split <- conv4_3_norm
I0524 17:37:16.392125 20296 net.cpp:408] conv4_3_norm_conv4_3_norm_0_split -> conv4_3_norm_conv4_3_norm_0_split_0
I0524 17:37:16.392133 20296 net.cpp:408] conv4_3_norm_conv4_3_norm_0_split -> conv4_3_norm_conv4_3_norm_0_split_1
I0524 17:37:16.392141 20296 net.cpp:408] conv4_3_norm_conv4_3_norm_0_split -> conv4_3_norm_conv4_3_norm_0_split_2
I0524 17:37:16.392192 20296 net.cpp:150] Setting up conv4_3_norm_conv4_3_norm_0_split
I0524 17:37:16.392199 20296 net.cpp:157] Top shape: 8 512 38 38 (5914624)
I0524 17:37:16.392204 20296 net.cpp:157] Top shape: 8 512 38 38 (5914624)
I0524 17:37:16.392210 20296 net.cpp:157] Top shape: 8 512 38 38 (5914624)
I0524 17:37:16.392213 20296 net.cpp:165] Memory required for data: 1976877120
I0524 17:37:16.392216 20296 layer_factory.hpp:77] Creating layer conv4_3_norm_mbox_loc
I0524 17:37:16.392241 20296 net.cpp:100] Creating Layer conv4_3_norm_mbox_loc
I0524 17:37:16.392259 20296 net.cpp:434] conv4_3_norm_mbox_loc <- conv4_3_norm_conv4_3_norm_0_split_0
I0524 17:37:16.392267 20296 net.cpp:408] conv4_3_norm_mbox_loc -> conv4_3_norm_mbox_loc
I0524 17:37:16.392966 20296 net.cpp:150] Setting up conv4_3_norm_mbox_loc
I0524 17:37:16.392978 20296 net.cpp:157] Top shape: 8 16 38 38 (184832)
I0524 17:37:16.392982 20296 net.cpp:165] Memory required for data: 1977616448
I0524 17:37:16.392989 20296 layer_factory.hpp:77] Creating layer conv4_3_norm_mbox_loc_perm
I0524 17:37:16.392998 20296 net.cpp:100] Creating Layer conv4_3_norm_mbox_loc_perm
I0524 17:37:16.393012 20296 net.cpp:434] conv4_3_norm_mbox_loc_perm <- conv4_3_norm_mbox_loc
I0524 17:37:16.393021 20296 net.cpp:408] conv4_3_norm_mbox_loc_perm -> conv4_3_norm_mbox_loc_perm
I0524 17:37:16.393100 20296 net.cpp:150] Setting up conv4_3_norm_mbox_loc_perm
I0524 17:37:16.393106 20296 net.cpp:157] Top shape: 8 38 38 16 (184832)
I0524 17:37:16.393110 20296 net.cpp:165] Memory required for data: 1978355776
I0524 17:37:16.393115 20296 layer_factory.hpp:77] Creating layer conv4_3_norm_mbox_loc_flat
I0524 17:37:16.393122 20296 net.cpp:100] Creating Layer conv4_3_norm_mbox_loc_flat
I0524 17:37:16.393126 20296 net.cpp:434] conv4_3_norm_mbox_loc_flat <- conv4_3_norm_mbox_loc_perm
I0524 17:37:16.393132 20296 net.cpp:408] conv4_3_norm_mbox_loc_flat -> conv4_3_norm_mbox_loc_flat
I0524 17:37:16.393162 20296 net.cpp:150] Setting up conv4_3_norm_mbox_loc_flat
I0524 17:37:16.393169 20296 net.cpp:157] Top shape: 8 23104 (184832)
I0524 17:37:16.393173 20296 net.cpp:165] Memory required for data: 1979095104
I0524 17:37:16.393177 20296 layer_factory.hpp:77] Creating layer conv4_3_norm_mbox_conf
I0524 17:37:16.393193 20296 net.cpp:100] Creating Layer conv4_3_norm_mbox_conf
I0524 17:37:16.393198 20296 net.cpp:434] conv4_3_norm_mbox_conf <- conv4_3_norm_conv4_3_norm_0_split_1
I0524 17:37:16.393204 20296 net.cpp:408] conv4_3_norm_mbox_conf -> conv4_3_norm_mbox_conf
I0524 17:37:16.395810 20296 net.cpp:150] Setting up conv4_3_norm_mbox_conf
I0524 17:37:16.395824 20296 net.cpp:157] Top shape: 8 84 38 38 (970368)
I0524 17:37:16.395828 20296 net.cpp:165] Memory required for data: 1982976576
I0524 17:37:16.395836 20296 layer_factory.hpp:77] Creating layer conv4_3_norm_mbox_conf_perm
I0524 17:37:16.395846 20296 net.cpp:100] Creating Layer conv4_3_norm_mbox_conf_perm
I0524 17:37:16.395853 20296 net.cpp:434] conv4_3_norm_mbox_conf_perm <- conv4_3_norm_mbox_conf
I0524 17:37:16.395859 20296 net.cpp:408] conv4_3_norm_mbox_conf_perm -> conv4_3_norm_mbox_conf_perm
I0524 17:37:16.395939 20296 net.cpp:150] Setting up conv4_3_norm_mbox_conf_perm
I0524 17:37:16.395946 20296 net.cpp:157] Top shape: 8 38 38 84 (970368)
I0524 17:37:16.395951 20296 net.cpp:165] Memory required for data: 1986858048
I0524 17:37:16.395967 20296 layer_factory.hpp:77] Creating layer conv4_3_norm_mbox_conf_flat
I0524 17:37:16.395974 20296 net.cpp:100] Creating Layer conv4_3_norm_mbox_conf_flat
I0524 17:37:16.395979 20296 net.cpp:434] conv4_3_norm_mbox_conf_flat <- conv4_3_norm_mbox_conf_perm
I0524 17:37:16.395987 20296 net.cpp:408] conv4_3_norm_mbox_conf_flat -> conv4_3_norm_mbox_conf_flat
I0524 17:37:16.396009 20296 net.cpp:150] Setting up conv4_3_norm_mbox_conf_flat
I0524 17:37:16.396015 20296 net.cpp:157] Top shape: 8 121296 (970368)
I0524 17:37:16.396018 20296 net.cpp:165] Memory required for data: 1990739520
I0524 17:37:16.396023 20296 layer_factory.hpp:77] Creating layer conv4_3_norm_mbox_priorbox
I0524 17:37:16.396031 20296 net.cpp:100] Creating Layer conv4_3_norm_mbox_priorbox
I0524 17:37:16.396035 20296 net.cpp:434] conv4_3_norm_mbox_priorbox <- conv4_3_norm_conv4_3_norm_0_split_2
I0524 17:37:16.396041 20296 net.cpp:434] conv4_3_norm_mbox_priorbox <- data_data_0_split_1
I0524 17:37:16.396049 20296 net.cpp:408] conv4_3_norm_mbox_priorbox -> conv4_3_norm_mbox_priorbox
I0524 17:37:16.396073 20296 net.cpp:150] Setting up conv4_3_norm_mbox_priorbox
I0524 17:37:16.396080 20296 net.cpp:157] Top shape: 1 2 23104 (46208)
I0524 17:37:16.396085 20296 net.cpp:165] Memory required for data: 1990924352
I0524 17:37:16.396088 20296 layer_factory.hpp:77] Creating layer fc7_mbox_loc
I0524 17:37:16.396100 20296 net.cpp:100] Creating Layer fc7_mbox_loc
I0524 17:37:16.396105 20296 net.cpp:434] fc7_mbox_loc <- fc7_relu7_0_split_1
I0524 17:37:16.396112 20296 net.cpp:408] fc7_mbox_loc -> fc7_mbox_loc
I0524 17:37:16.397182 20296 net.cpp:150] Setting up fc7_mbox_loc
I0524 17:37:16.397189 20296 net.cpp:157] Top shape: 8 24 19 19 (69312)
I0524 17:37:16.397193 20296 net.cpp:165] Memory required for data: 1991201600
I0524 17:37:16.397199 20296 layer_factory.hpp:77] Creating layer fc7_mbox_loc_perm
I0524 17:37:16.397217 20296 net.cpp:100] Creating Layer fc7_mbox_loc_perm
I0524 17:37:16.397220 20296 net.cpp:434] fc7_mbox_loc_perm <- fc7_mbox_loc
I0524 17:37:16.397228 20296 net.cpp:408] fc7_mbox_loc_perm -> fc7_mbox_loc_perm
I0524 17:37:16.397310 20296 net.cpp:150] Setting up fc7_mbox_loc_perm
I0524 17:37:16.397318 20296 net.cpp:157] Top shape: 8 19 19 24 (69312)
I0524 17:37:16.397322 20296 net.cpp:165] Memory required for data: 1991478848
I0524 17:37:16.397325 20296 layer_factory.hpp:77] Creating layer fc7_mbox_loc_flat
I0524 17:37:16.397332 20296 net.cpp:100] Creating Layer fc7_mbox_loc_flat
I0524 17:37:16.397337 20296 net.cpp:434] fc7_mbox_loc_flat <- fc7_mbox_loc_perm
I0524 17:37:16.397343 20296 net.cpp:408] fc7_mbox_loc_flat -> fc7_mbox_loc_flat
I0524 17:37:16.397366 20296 net.cpp:150] Setting up fc7_mbox_loc_flat
I0524 17:37:16.397370 20296 net.cpp:157] Top shape: 8 8664 (69312)
I0524 17:37:16.397375 20296 net.cpp:165] Memory required for data: 1991756096
I0524 17:37:16.397379 20296 layer_factory.hpp:77] Creating layer fc7_mbox_conf
I0524 17:37:16.397387 20296 net.cpp:100] Creating Layer fc7_mbox_conf
I0524 17:37:16.397392 20296 net.cpp:434] fc7_mbox_conf <- fc7_relu7_0_split_2
I0524 17:37:16.397402 20296 net.cpp:408] fc7_mbox_conf -> fc7_mbox_conf
I0524 17:37:16.403519 20296 net.cpp:150] Setting up fc7_mbox_conf
I0524 17:37:16.403540 20296 net.cpp:157] Top shape: 8 126 19 19 (363888)
I0524 17:37:16.403543 20296 net.cpp:165] Memory required for data: 1993211648
I0524 17:37:16.403553 20296 layer_factory.hpp:77] Creating layer fc7_mbox_conf_perm
I0524 17:37:16.403578 20296 net.cpp:100] Creating Layer fc7_mbox_conf_perm
I0524 17:37:16.403584 20296 net.cpp:434] fc7_mbox_conf_perm <- fc7_mbox_conf
I0524 17:37:16.403594 20296 net.cpp:408] fc7_mbox_conf_perm -> fc7_mbox_conf_perm
I0524 17:37:16.403722 20296 net.cpp:150] Setting up fc7_mbox_conf_perm
I0524 17:37:16.403730 20296 net.cpp:157] Top shape: 8 19 19 126 (363888)
I0524 17:37:16.403734 20296 net.cpp:165] Memory required for data: 1994667200
I0524 17:37:16.403738 20296 layer_factory.hpp:77] Creating layer fc7_mbox_conf_flat
I0524 17:37:16.403744 20296 net.cpp:100] Creating Layer fc7_mbox_conf_flat
I0524 17:37:16.403749 20296 net.cpp:434] fc7_mbox_conf_flat <- fc7_mbox_conf_perm
I0524 17:37:16.403755 20296 net.cpp:408] fc7_mbox_conf_flat -> fc7_mbox_conf_flat
I0524 17:37:16.403779 20296 net.cpp:150] Setting up fc7_mbox_conf_flat
I0524 17:37:16.403785 20296 net.cpp:157] Top shape: 8 45486 (363888)
I0524 17:37:16.403789 20296 net.cpp:165] Memory required for data: 1996122752
I0524 17:37:16.403792 20296 layer_factory.hpp:77] Creating layer fc7_mbox_priorbox
I0524 17:37:16.403800 20296 net.cpp:100] Creating Layer fc7_mbox_priorbox
I0524 17:37:16.403805 20296 net.cpp:434] fc7_mbox_priorbox <- fc7_relu7_0_split_3
I0524 17:37:16.403812 20296 net.cpp:434] fc7_mbox_priorbox <- data_data_0_split_2
I0524 17:37:16.403820 20296 net.cpp:408] fc7_mbox_priorbox -> fc7_mbox_priorbox
I0524 17:37:16.403843 20296 net.cpp:150] Setting up fc7_mbox_priorbox
I0524 17:37:16.403851 20296 net.cpp:157] Top shape: 1 2 8664 (17328)
I0524 17:37:16.403856 20296 net.cpp:165] Memory required for data: 1996192064
I0524 17:37:16.403859 20296 layer_factory.hpp:77] Creating layer conv6_2_mbox_loc
I0524 17:37:16.403869 20296 net.cpp:100] Creating Layer conv6_2_mbox_loc
I0524 17:37:16.403874 20296 net.cpp:434] conv6_2_mbox_loc <- conv6_2_conv6_2_relu_0_split_1
I0524 17:37:16.403882 20296 net.cpp:408] conv6_2_mbox_loc -> conv6_2_mbox_loc
I0524 17:37:16.404511 20296 net.cpp:150] Setting up conv6_2_mbox_loc
I0524 17:37:16.404518 20296 net.cpp:157] Top shape: 8 24 10 10 (19200)
I0524 17:37:16.404522 20296 net.cpp:165] Memory required for data: 1996268864
I0524 17:37:16.404530 20296 layer_factory.hpp:77] Creating layer conv6_2_mbox_loc_perm
I0524 17:37:16.404536 20296 net.cpp:100] Creating Layer conv6_2_mbox_loc_perm
I0524 17:37:16.404541 20296 net.cpp:434] conv6_2_mbox_loc_perm <- conv6_2_mbox_loc
I0524 17:37:16.404549 20296 net.cpp:408] conv6_2_mbox_loc_perm -> conv6_2_mbox_loc_perm
I0524 17:37:16.404635 20296 net.cpp:150] Setting up conv6_2_mbox_loc_perm
I0524 17:37:16.404642 20296 net.cpp:157] Top shape: 8 10 10 24 (19200)
I0524 17:37:16.404646 20296 net.cpp:165] Memory required for data: 1996345664
I0524 17:37:16.404651 20296 layer_factory.hpp:77] Creating layer conv6_2_mbox_loc_flat
I0524 17:37:16.404657 20296 net.cpp:100] Creating Layer conv6_2_mbox_loc_flat
I0524 17:37:16.404662 20296 net.cpp:434] conv6_2_mbox_loc_flat <- conv6_2_mbox_loc_perm
I0524 17:37:16.404670 20296 net.cpp:408] conv6_2_mbox_loc_flat -> conv6_2_mbox_loc_flat
I0524 17:37:16.404690 20296 net.cpp:150] Setting up conv6_2_mbox_loc_flat
I0524 17:37:16.404696 20296 net.cpp:157] Top shape: 8 2400 (19200)
I0524 17:37:16.404713 20296 net.cpp:165] Memory required for data: 1996422464
I0524 17:37:16.404716 20296 layer_factory.hpp:77] Creating layer conv6_2_mbox_conf
I0524 17:37:16.404727 20296 net.cpp:100] Creating Layer conv6_2_mbox_conf
I0524 17:37:16.404731 20296 net.cpp:434] conv6_2_mbox_conf <- conv6_2_conv6_2_relu_0_split_2
I0524 17:37:16.404757 20296 net.cpp:408] conv6_2_mbox_conf -> conv6_2_mbox_conf
I0524 17:37:16.408064 20296 net.cpp:150] Setting up conv6_2_mbox_conf
I0524 17:37:16.408076 20296 net.cpp:157] Top shape: 8 126 10 10 (100800)
I0524 17:37:16.408079 20296 net.cpp:165] Memory required for data: 1996825664
I0524 17:37:16.408087 20296 layer_factory.hpp:77] Creating layer conv6_2_mbox_conf_perm
I0524 17:37:16.408092 20296 net.cpp:100] Creating Layer conv6_2_mbox_conf_perm
I0524 17:37:16.408099 20296 net.cpp:434] conv6_2_mbox_conf_perm <- conv6_2_mbox_conf
I0524 17:37:16.408107 20296 net.cpp:408] conv6_2_mbox_conf_perm -> conv6_2_mbox_conf_perm
I0524 17:37:16.408218 20296 net.cpp:150] Setting up conv6_2_mbox_conf_perm
I0524 17:37:16.408226 20296 net.cpp:157] Top shape: 8 10 10 126 (100800)
I0524 17:37:16.408228 20296 net.cpp:165] Memory required for data: 1997228864
I0524 17:37:16.408231 20296 layer_factory.hpp:77] Creating layer conv6_2_mbox_conf_flat
I0524 17:37:16.408236 20296 net.cpp:100] Creating Layer conv6_2_mbox_conf_flat
I0524 17:37:16.408238 20296 net.cpp:434] conv6_2_mbox_conf_flat <- conv6_2_mbox_conf_perm
I0524 17:37:16.408247 20296 net.cpp:408] conv6_2_mbox_conf_flat -> conv6_2_mbox_conf_flat
I0524 17:37:16.408282 20296 net.cpp:150] Setting up conv6_2_mbox_conf_flat
I0524 17:37:16.408287 20296 net.cpp:157] Top shape: 8 12600 (100800)
I0524 17:37:16.408288 20296 net.cpp:165] Memory required for data: 1997632064
I0524 17:37:16.408291 20296 layer_factory.hpp:77] Creating layer conv6_2_mbox_priorbox
I0524 17:37:16.408295 20296 net.cpp:100] Creating Layer conv6_2_mbox_priorbox
I0524 17:37:16.408298 20296 net.cpp:434] conv6_2_mbox_priorbox <- conv6_2_conv6_2_relu_0_split_3
I0524 17:37:16.408301 20296 net.cpp:434] conv6_2_mbox_priorbox <- data_data_0_split_3
I0524 17:37:16.408306 20296 net.cpp:408] conv6_2_mbox_priorbox -> conv6_2_mbox_priorbox
I0524 17:37:16.408334 20296 net.cpp:150] Setting up conv6_2_mbox_priorbox
I0524 17:37:16.408339 20296 net.cpp:157] Top shape: 1 2 2400 (4800)
I0524 17:37:16.408341 20296 net.cpp:165] Memory required for data: 1997651264
I0524 17:37:16.408344 20296 layer_factory.hpp:77] Creating layer conv7_2_mbox_loc
I0524 17:37:16.408350 20296 net.cpp:100] Creating Layer conv7_2_mbox_loc
I0524 17:37:16.408354 20296 net.cpp:434] conv7_2_mbox_loc <- conv7_2_conv7_2_relu_0_split_1
I0524 17:37:16.408359 20296 net.cpp:408] conv7_2_mbox_loc -> conv7_2_mbox_loc
I0524 17:37:16.408768 20296 net.cpp:150] Setting up conv7_2_mbox_loc
I0524 17:37:16.408774 20296 net.cpp:157] Top shape: 8 24 5 5 (4800)
I0524 17:37:16.408776 20296 net.cpp:165] Memory required for data: 1997670464
I0524 17:37:16.408780 20296 layer_factory.hpp:77] Creating layer conv7_2_mbox_loc_perm
I0524 17:37:16.408787 20296 net.cpp:100] Creating Layer conv7_2_mbox_loc_perm
I0524 17:37:16.408789 20296 net.cpp:434] conv7_2_mbox_loc_perm <- conv7_2_mbox_loc
I0524 17:37:16.408793 20296 net.cpp:408] conv7_2_mbox_loc_perm -> conv7_2_mbox_loc_perm
I0524 17:37:16.408865 20296 net.cpp:150] Setting up conv7_2_mbox_loc_perm
I0524 17:37:16.408881 20296 net.cpp:157] Top shape: 8 5 5 24 (4800)
I0524 17:37:16.408884 20296 net.cpp:165] Memory required for data: 1997689664
I0524 17:37:16.408886 20296 layer_factory.hpp:77] Creating layer conv7_2_mbox_loc_flat
I0524 17:37:16.408895 20296 net.cpp:100] Creating Layer conv7_2_mbox_loc_flat
I0524 17:37:16.408900 20296 net.cpp:434] conv7_2_mbox_loc_flat <- conv7_2_mbox_loc_perm
I0524 17:37:16.408905 20296 net.cpp:408] conv7_2_mbox_loc_flat -> conv7_2_mbox_loc_flat
I0524 17:37:16.408929 20296 net.cpp:150] Setting up conv7_2_mbox_loc_flat
I0524 17:37:16.408936 20296 net.cpp:157] Top shape: 8 600 (4800)
I0524 17:37:16.408939 20296 net.cpp:165] Memory required for data: 1997708864
I0524 17:37:16.408943 20296 layer_factory.hpp:77] Creating layer conv7_2_mbox_conf
I0524 17:37:16.408952 20296 net.cpp:100] Creating Layer conv7_2_mbox_conf
I0524 17:37:16.408957 20296 net.cpp:434] conv7_2_mbox_conf <- conv7_2_conv7_2_relu_0_split_2
I0524 17:37:16.408964 20296 net.cpp:408] conv7_2_mbox_conf -> conv7_2_mbox_conf
I0524 17:37:16.413455 20296 net.cpp:150] Setting up conv7_2_mbox_conf
I0524 17:37:16.413470 20296 net.cpp:157] Top shape: 8 126 5 5 (25200)
I0524 17:37:16.413472 20296 net.cpp:165] Memory required for data: 1997809664
I0524 17:37:16.413493 20296 layer_factory.hpp:77] Creating layer conv7_2_mbox_conf_perm
I0524 17:37:16.413502 20296 net.cpp:100] Creating Layer conv7_2_mbox_conf_perm
I0524 17:37:16.413506 20296 net.cpp:434] conv7_2_mbox_conf_perm <- conv7_2_mbox_conf
I0524 17:37:16.413511 20296 net.cpp:408] conv7_2_mbox_conf_perm -> conv7_2_mbox_conf_perm
I0524 17:37:16.413606 20296 net.cpp:150] Setting up conv7_2_mbox_conf_perm
I0524 17:37:16.413612 20296 net.cpp:157] Top shape: 8 5 5 126 (25200)
I0524 17:37:16.413614 20296 net.cpp:165] Memory required for data: 1997910464
I0524 17:37:16.413616 20296 layer_factory.hpp:77] Creating layer conv7_2_mbox_conf_flat
I0524 17:37:16.413620 20296 net.cpp:100] Creating Layer conv7_2_mbox_conf_flat
I0524 17:37:16.413638 20296 net.cpp:434] conv7_2_mbox_conf_flat <- conv7_2_mbox_conf_perm
I0524 17:37:16.413642 20296 net.cpp:408] conv7_2_mbox_conf_flat -> conv7_2_mbox_conf_flat
I0524 17:37:16.413661 20296 net.cpp:150] Setting up conv7_2_mbox_conf_flat
I0524 17:37:16.413666 20296 net.cpp:157] Top shape: 8 3150 (25200)
I0524 17:37:16.413668 20296 net.cpp:165] Memory required for data: 1998011264
I0524 17:37:16.413669 20296 layer_factory.hpp:77] Creating layer conv7_2_mbox_priorbox
I0524 17:37:16.413688 20296 net.cpp:100] Creating Layer conv7_2_mbox_priorbox
I0524 17:37:16.413691 20296 net.cpp:434] conv7_2_mbox_priorbox <- conv7_2_conv7_2_relu_0_split_3
I0524 17:37:16.413710 20296 net.cpp:434] conv7_2_mbox_priorbox <- data_data_0_split_4
I0524 17:37:16.413715 20296 net.cpp:408] conv7_2_mbox_priorbox -> conv7_2_mbox_priorbox
I0524 17:37:16.413748 20296 net.cpp:150] Setting up conv7_2_mbox_priorbox
I0524 17:37:16.413753 20296 net.cpp:157] Top shape: 1 2 600 (1200)
I0524 17:37:16.413755 20296 net.cpp:165] Memory required for data: 1998016064
I0524 17:37:16.413758 20296 layer_factory.hpp:77] Creating layer conv8_2_mbox_loc
I0524 17:37:16.413764 20296 net.cpp:100] Creating Layer conv8_2_mbox_loc
I0524 17:37:16.413769 20296 net.cpp:434] conv8_2_mbox_loc <- conv8_2_conv8_2_relu_0_split_1
I0524 17:37:16.413786 20296 net.cpp:408] conv8_2_mbox_loc -> conv8_2_mbox_loc
I0524 17:37:16.414149 20296 net.cpp:150] Setting up conv8_2_mbox_loc
I0524 17:37:16.414155 20296 net.cpp:157] Top shape: 8 16 3 3 (1152)
I0524 17:37:16.414157 20296 net.cpp:165] Memory required for data: 1998020672
I0524 17:37:16.414181 20296 layer_factory.hpp:77] Creating layer conv8_2_mbox_loc_perm
I0524 17:37:16.414188 20296 net.cpp:100] Creating Layer conv8_2_mbox_loc_perm
I0524 17:37:16.414191 20296 net.cpp:434] conv8_2_mbox_loc_perm <- conv8_2_mbox_loc
I0524 17:37:16.414196 20296 net.cpp:408] conv8_2_mbox_loc_perm -> conv8_2_mbox_loc_perm
I0524 17:37:16.414300 20296 net.cpp:150] Setting up conv8_2_mbox_loc_perm
I0524 17:37:16.414305 20296 net.cpp:157] Top shape: 8 3 3 16 (1152)
I0524 17:37:16.414307 20296 net.cpp:165] Memory required for data: 1998025280
I0524 17:37:16.414337 20296 layer_factory.hpp:77] Creating layer conv8_2_mbox_loc_flat
I0524 17:37:16.414343 20296 net.cpp:100] Creating Layer conv8_2_mbox_loc_flat
I0524 17:37:16.414348 20296 net.cpp:434] conv8_2_mbox_loc_flat <- conv8_2_mbox_loc_perm
I0524 17:37:16.414368 20296 net.cpp:408] conv8_2_mbox_loc_flat -> conv8_2_mbox_loc_flat
I0524 17:37:16.414422 20296 net.cpp:150] Setting up conv8_2_mbox_loc_flat
I0524 17:37:16.414427 20296 net.cpp:157] Top shape: 8 144 (1152)
I0524 17:37:16.414429 20296 net.cpp:165] Memory required for data: 1998029888
I0524 17:37:16.414433 20296 layer_factory.hpp:77] Creating layer conv8_2_mbox_conf
I0524 17:37:16.414443 20296 net.cpp:100] Creating Layer conv8_2_mbox_conf
I0524 17:37:16.414448 20296 net.cpp:434] conv8_2_mbox_conf <- conv8_2_conv8_2_relu_0_split_2
I0524 17:37:16.414469 20296 net.cpp:408] conv8_2_mbox_conf -> conv8_2_mbox_conf
I0524 17:37:16.415436 20296 net.cpp:150] Setting up conv8_2_mbox_conf
I0524 17:37:16.415443 20296 net.cpp:157] Top shape: 8 84 3 3 (6048)
I0524 17:37:16.415446 20296 net.cpp:165] Memory required for data: 1998054080
I0524 17:37:16.415452 20296 layer_factory.hpp:77] Creating layer conv8_2_mbox_conf_perm
I0524 17:37:16.415474 20296 net.cpp:100] Creating Layer conv8_2_mbox_conf_perm
I0524 17:37:16.415480 20296 net.cpp:434] conv8_2_mbox_conf_perm <- conv8_2_mbox_conf
I0524 17:37:16.415500 20296 net.cpp:408] conv8_2_mbox_conf_perm -> conv8_2_mbox_conf_perm
I0524 17:37:16.415606 20296 net.cpp:150] Setting up conv8_2_mbox_conf_perm
I0524 17:37:16.415611 20296 net.cpp:157] Top shape: 8 3 3 84 (6048)
I0524 17:37:16.415616 20296 net.cpp:165] Memory required for data: 1998078272
I0524 17:37:16.415621 20296 layer_factory.hpp:77] Creating layer conv8_2_mbox_conf_flat
I0524 17:37:16.415642 20296 net.cpp:100] Creating Layer conv8_2_mbox_conf_flat
I0524 17:37:16.415647 20296 net.cpp:434] conv8_2_mbox_conf_flat <- conv8_2_mbox_conf_perm
I0524 17:37:16.415653 20296 net.cpp:408] conv8_2_mbox_conf_flat -> conv8_2_mbox_conf_flat
I0524 17:37:16.415675 20296 net.cpp:150] Setting up conv8_2_mbox_conf_flat
I0524 17:37:16.415680 20296 net.cpp:157] Top shape: 8 756 (6048)
I0524 17:37:16.415684 20296 net.cpp:165] Memory required for data: 1998102464
I0524 17:37:16.415688 20296 layer_factory.hpp:77] Creating layer conv8_2_mbox_priorbox
I0524 17:37:16.415696 20296 net.cpp:100] Creating Layer conv8_2_mbox_priorbox
I0524 17:37:16.415700 20296 net.cpp:434] conv8_2_mbox_priorbox <- conv8_2_conv8_2_relu_0_split_3
I0524 17:37:16.415705 20296 net.cpp:434] conv8_2_mbox_priorbox <- data_data_0_split_5
I0524 17:37:16.415714 20296 net.cpp:408] conv8_2_mbox_priorbox -> conv8_2_mbox_priorbox
I0524 17:37:16.415751 20296 net.cpp:150] Setting up conv8_2_mbox_priorbox
I0524 17:37:16.415757 20296 net.cpp:157] Top shape: 1 2 144 (288)
I0524 17:37:16.415760 20296 net.cpp:165] Memory required for data: 1998103616
I0524 17:37:16.415766 20296 layer_factory.hpp:77] Creating layer conv9_2_mbox_loc
I0524 17:37:16.415774 20296 net.cpp:100] Creating Layer conv9_2_mbox_loc
I0524 17:37:16.415778 20296 net.cpp:434] conv9_2_mbox_loc <- conv9_2_conv9_2_relu_0_split_0
I0524 17:37:16.415786 20296 net.cpp:408] conv9_2_mbox_loc -> conv9_2_mbox_loc
I0524 17:37:16.416102 20296 net.cpp:150] Setting up conv9_2_mbox_loc
I0524 17:37:16.416110 20296 net.cpp:157] Top shape: 8 16 1 1 (128)
I0524 17:37:16.416112 20296 net.cpp:165] Memory required for data: 1998104128
I0524 17:37:16.416118 20296 layer_factory.hpp:77] Creating layer conv9_2_mbox_loc_perm
I0524 17:37:16.416126 20296 net.cpp:100] Creating Layer conv9_2_mbox_loc_perm
I0524 17:37:16.416131 20296 net.cpp:434] conv9_2_mbox_loc_perm <- conv9_2_mbox_loc
I0524 17:37:16.416137 20296 net.cpp:408] conv9_2_mbox_loc_perm -> conv9_2_mbox_loc_perm
I0524 17:37:16.416210 20296 net.cpp:150] Setting up conv9_2_mbox_loc_perm
I0524 17:37:16.416216 20296 net.cpp:157] Top shape: 8 1 1 16 (128)
I0524 17:37:16.416220 20296 net.cpp:165] Memory required for data: 1998104640
I0524 17:37:16.416224 20296 layer_factory.hpp:77] Creating layer conv9_2_mbox_loc_flat
I0524 17:37:16.416237 20296 net.cpp:100] Creating Layer conv9_2_mbox_loc_flat
I0524 17:37:16.416244 20296 net.cpp:434] conv9_2_mbox_loc_flat <- conv9_2_mbox_loc_perm
I0524 17:37:16.416250 20296 net.cpp:408] conv9_2_mbox_loc_flat -> conv9_2_mbox_loc_flat
I0524 17:37:16.416270 20296 net.cpp:150] Setting up conv9_2_mbox_loc_flat
I0524 17:37:16.416275 20296 net.cpp:157] Top shape: 8 16 (128)
I0524 17:37:16.416280 20296 net.cpp:165] Memory required for data: 1998105152
I0524 17:37:16.416283 20296 layer_factory.hpp:77] Creating layer conv9_2_mbox_conf
I0524 17:37:16.416293 20296 net.cpp:100] Creating Layer conv9_2_mbox_conf
I0524 17:37:16.416297 20296 net.cpp:434] conv9_2_mbox_conf <- conv9_2_conv9_2_relu_0_split_1
I0524 17:37:16.416304 20296 net.cpp:408] conv9_2_mbox_conf -> conv9_2_mbox_conf
I0524 17:37:16.417258 20296 net.cpp:150] Setting up conv9_2_mbox_conf
I0524 17:37:16.417279 20296 net.cpp:157] Top shape: 8 84 1 1 (672)
I0524 17:37:16.417282 20296 net.cpp:165] Memory required for data: 1998107840
I0524 17:37:16.417304 20296 layer_factory.hpp:77] Creating layer conv9_2_mbox_conf_perm
I0524 17:37:16.417311 20296 net.cpp:100] Creating Layer conv9_2_mbox_conf_perm
I0524 17:37:16.417315 20296 net.cpp:434] conv9_2_mbox_conf_perm <- conv9_2_mbox_conf
I0524 17:37:16.417321 20296 net.cpp:408] conv9_2_mbox_conf_perm -> conv9_2_mbox_conf_perm
I0524 17:37:16.417397 20296 net.cpp:150] Setting up conv9_2_mbox_conf_perm
I0524 17:37:16.417417 20296 net.cpp:157] Top shape: 8 1 1 84 (672)
I0524 17:37:16.417419 20296 net.cpp:165] Memory required for data: 1998110528
I0524 17:37:16.417423 20296 layer_factory.hpp:77] Creating layer conv9_2_mbox_conf_flat
I0524 17:37:16.417429 20296 net.cpp:100] Creating Layer conv9_2_mbox_conf_flat
I0524 17:37:16.417434 20296 net.cpp:434] conv9_2_mbox_conf_flat <- conv9_2_mbox_conf_perm
I0524 17:37:16.417441 20296 net.cpp:408] conv9_2_mbox_conf_flat -> conv9_2_mbox_conf_flat
I0524 17:37:16.417461 20296 net.cpp:150] Setting up conv9_2_mbox_conf_flat
I0524 17:37:16.417467 20296 net.cpp:157] Top shape: 8 84 (672)
I0524 17:37:16.417470 20296 net.cpp:165] Memory required for data: 1998113216
I0524 17:37:16.417474 20296 layer_factory.hpp:77] Creating layer conv9_2_mbox_priorbox
I0524 17:37:16.417480 20296 net.cpp:100] Creating Layer conv9_2_mbox_priorbox
I0524 17:37:16.417485 20296 net.cpp:434] conv9_2_mbox_priorbox <- conv9_2_conv9_2_relu_0_split_2
I0524 17:37:16.417490 20296 net.cpp:434] conv9_2_mbox_priorbox <- data_data_0_split_6
I0524 17:37:16.417511 20296 net.cpp:408] conv9_2_mbox_priorbox -> conv9_2_mbox_priorbox
I0524 17:37:16.417549 20296 net.cpp:150] Setting up conv9_2_mbox_priorbox
I0524 17:37:16.417556 20296 net.cpp:157] Top shape: 1 2 16 (32)
I0524 17:37:16.417558 20296 net.cpp:165] Memory required for data: 1998113344
I0524 17:37:16.417562 20296 layer_factory.hpp:77] Creating layer mbox_loc
I0524 17:37:16.417570 20296 net.cpp:100] Creating Layer mbox_loc
I0524 17:37:16.417575 20296 net.cpp:434] mbox_loc <- conv4_3_norm_mbox_loc_flat
I0524 17:37:16.417582 20296 net.cpp:434] mbox_loc <- fc7_mbox_loc_flat
I0524 17:37:16.417587 20296 net.cpp:434] mbox_loc <- conv6_2_mbox_loc_flat
I0524 17:37:16.417593 20296 net.cpp:434] mbox_loc <- conv7_2_mbox_loc_flat
I0524 17:37:16.417598 20296 net.cpp:434] mbox_loc <- conv8_2_mbox_loc_flat
I0524 17:37:16.417616 20296 net.cpp:434] mbox_loc <- conv9_2_mbox_loc_flat
I0524 17:37:16.417639 20296 net.cpp:408] mbox_loc -> mbox_loc
I0524 17:37:16.417673 20296 net.cpp:150] Setting up mbox_loc
I0524 17:37:16.417680 20296 net.cpp:157] Top shape: 8 34928 (279424)
I0524 17:37:16.417683 20296 net.cpp:165] Memory required for data: 1999231040
I0524 17:37:16.417687 20296 layer_factory.hpp:77] Creating layer mbox_conf
I0524 17:37:16.417693 20296 net.cpp:100] Creating Layer mbox_conf
I0524 17:37:16.417698 20296 net.cpp:434] mbox_conf <- conv4_3_norm_mbox_conf_flat
I0524 17:37:16.417704 20296 net.cpp:434] mbox_conf <- fc7_mbox_conf_flat
I0524 17:37:16.417709 20296 net.cpp:434] mbox_conf <- conv6_2_mbox_conf_flat
I0524 17:37:16.417728 20296 net.cpp:434] mbox_conf <- conv7_2_mbox_conf_flat
I0524 17:37:16.417740 20296 net.cpp:434] mbox_conf <- conv8_2_mbox_conf_flat
I0524 17:37:16.417745 20296 net.cpp:434] mbox_conf <- conv9_2_mbox_conf_flat
I0524 17:37:16.417752 20296 net.cpp:408] mbox_conf -> mbox_conf
I0524 17:37:16.417774 20296 net.cpp:150] Setting up mbox_conf
I0524 17:37:16.417781 20296 net.cpp:157] Top shape: 8 183372 (1466976)
I0524 17:37:16.417784 20296 net.cpp:165] Memory required for data: 2005098944
I0524 17:37:16.417788 20296 layer_factory.hpp:77] Creating layer mbox_priorbox
I0524 17:37:16.417794 20296 net.cpp:100] Creating Layer mbox_priorbox
I0524 17:37:16.417799 20296 net.cpp:434] mbox_priorbox <- conv4_3_norm_mbox_priorbox
I0524 17:37:16.417804 20296 net.cpp:434] mbox_priorbox <- fc7_mbox_priorbox
I0524 17:37:16.417809 20296 net.cpp:434] mbox_priorbox <- conv6_2_mbox_priorbox
I0524 17:37:16.417815 20296 net.cpp:434] mbox_priorbox <- conv7_2_mbox_priorbox
I0524 17:37:16.417820 20296 net.cpp:434] mbox_priorbox <- conv8_2_mbox_priorbox
I0524 17:37:16.417825 20296 net.cpp:434] mbox_priorbox <- conv9_2_mbox_priorbox
I0524 17:37:16.417832 20296 net.cpp:408] mbox_priorbox -> mbox_priorbox
I0524 17:37:16.417853 20296 net.cpp:150] Setting up mbox_priorbox
I0524 17:37:16.417860 20296 net.cpp:157] Top shape: 1 2 34928 (69856)
I0524 17:37:16.417865 20296 net.cpp:165] Memory required for data: 2005378368
I0524 17:37:16.417868 20296 layer_factory.hpp:77] Creating layer mbox_conf_reshape
I0524 17:37:16.417876 20296 net.cpp:100] Creating Layer mbox_conf_reshape
I0524 17:37:16.417879 20296 net.cpp:434] mbox_conf_reshape <- mbox_conf
I0524 17:37:16.417887 20296 net.cpp:408] mbox_conf_reshape -> mbox_conf_reshape
I0524 17:37:16.417918 20296 net.cpp:150] Setting up mbox_conf_reshape
I0524 17:37:16.417924 20296 net.cpp:157] Top shape: 8 8732 21 (1466976)
I0524 17:37:16.417927 20296 net.cpp:165] Memory required for data: 2011246272
I0524 17:37:16.417929 20296 layer_factory.hpp:77] Creating layer mbox_conf_softmax
I0524 17:37:16.417934 20296 net.cpp:100] Creating Layer mbox_conf_softmax
I0524 17:37:16.417937 20296 net.cpp:434] mbox_conf_softmax <- mbox_conf_reshape
I0524 17:37:16.417943 20296 net.cpp:408] mbox_conf_softmax -> mbox_conf_softmax
I0524 17:37:16.417991 20296 net.cpp:150] Setting up mbox_conf_softmax
I0524 17:37:16.417996 20296 net.cpp:157] Top shape: 8 8732 21 (1466976)
I0524 17:37:16.417999 20296 net.cpp:165] Memory required for data: 2017114176
I0524 17:37:16.418001 20296 layer_factory.hpp:77] Creating layer mbox_conf_flatten
I0524 17:37:16.418004 20296 net.cpp:100] Creating Layer mbox_conf_flatten
I0524 17:37:16.418006 20296 net.cpp:434] mbox_conf_flatten <- mbox_conf_softmax
I0524 17:37:16.418009 20296 net.cpp:408] mbox_conf_flatten -> mbox_conf_flatten
I0524 17:37:16.418028 20296 net.cpp:150] Setting up mbox_conf_flatten
I0524 17:37:16.418032 20296 net.cpp:157] Top shape: 8 183372 (1466976)
I0524 17:37:16.418035 20296 net.cpp:165] Memory required for data: 2022982080
I0524 17:37:16.418036 20296 layer_factory.hpp:77] Creating layer detection_out
I0524 17:37:16.418051 20296 net.cpp:100] Creating Layer detection_out
I0524 17:37:16.418053 20296 net.cpp:434] detection_out <- mbox_loc
I0524 17:37:16.418056 20296 net.cpp:434] detection_out <- mbox_conf_flatten
I0524 17:37:16.418059 20296 net.cpp:434] detection_out <- mbox_priorbox
I0524 17:37:16.418064 20296 net.cpp:408] detection_out -> detection_out
I0524 17:37:16.419371 20296 net.cpp:150] Setting up detection_out
I0524 17:37:16.419381 20296 net.cpp:157] Top shape: 1 1 1 7 (7)
I0524 17:37:16.419384 20296 net.cpp:165] Memory required for data: 2022982108
I0524 17:37:16.419386 20296 layer_factory.hpp:77] Creating layer detection_eval
I0524 17:37:16.419392 20296 net.cpp:100] Creating Layer detection_eval
I0524 17:37:16.419395 20296 net.cpp:434] detection_eval <- detection_out
I0524 17:37:16.419399 20296 net.cpp:434] detection_eval <- label
I0524 17:37:16.419405 20296 net.cpp:408] detection_eval -> detection_eval
I0524 17:37:16.420119 20296 net.cpp:150] Setting up detection_eval
I0524 17:37:16.420125 20296 net.cpp:157] Top shape: 1 1 21 5 (105)
I0524 17:37:16.420133 20296 net.cpp:165] Memory required for data: 2022982528
I0524 17:37:16.420137 20296 net.cpp:228] detection_eval does not need backward computation.
I0524 17:37:16.420140 20296 net.cpp:228] detection_out does not need backward computation.
I0524 17:37:16.420143 20296 net.cpp:228] mbox_conf_flatten does not need backward computation.
I0524 17:37:16.420146 20296 net.cpp:228] mbox_conf_softmax does not need backward computation.
…
