…
        min_scale: 0.3
        max_scale: 1
        min_aspect_ratio: 0.5
        max_aspect_ratio: 2
      }
      sample_constraint {
        min_jaccard_overlap: 0.9
      }
      max_sample: 1
      max_trials: 50
    }
    batch_sampler {
      sampler {
        min_scale: 0.3
        max_scale: 1
        min_aspect_ratio: 0.5
        max_aspect_ratio: 2
      }
      sample_constraint {
        max_jaccard_overlap: 1
      }
      max_sample: 1
      max_trials: 50
    }
    label_map_file: "data/tbs_v2.0_HSIL_1_23/labelmap_voc.prototxt"
  }
}
layer {
  name: "conv1_1"
  type: "Convolution"
  bottom: "data"
  top: "conv1_1"
  param {
    lr_mult: 1
    decay_mult: 1
  }
  param {
    lr_mult: 2
    decay_mult: 0
  }
  convolution_param {
    num_output: 64
    pad: 1
    kernel_size: 3
    weight_filler {
      type: "xavier"
    }
    bias_filler {
      type: "constant"
      value: 0
    }
  }
}
layer {
  name: "relu1_1"
  type: "ReLU"
  bottom: "conv1_1"
  top: "conv1_1"
}
layer {
  name: "conv1_2"
  type: "Convolution"
  bottom: "conv1_1"
  top: "conv1_2"
  param {
    lr_mult: 1
    decay_mult: 1
  }
  param {
    lr_mult: 2
    decay_mult: 0
  }
  convolution_param {
    num_output: 64
    pad: 1
    kernel_size: 3
    weight_filler {
      type: "xavier"
    }
    bias_filler {
      type: "constant"
      value: 0
    }
  }
}
layer {
  name: "relu1_2"
  type: "ReLU"
  bottom: "conv1_2"
  top: "conv1_2"
}
layer {
  name: "pool1"
  type: "Pooling"
  bottom: "conv1_2"
  top: "pool1"
  pooling_param {
    pool: MAX
    kernel_size: 2
    stride: 2
  }
}
layer {
  name: "conv2_1"
  type: "Convolution"
  bottom: "pool1"
  top: "conv2_1"
  param {
    lr_mult: 1
    decay_mult: 1
  }
  param {
    lr_mult: 2
    decay_mult: 0
  }
  convolution_param {
    num_output: 128
    pad: 1
    kernel_size: 3
    weight_filler {
      type: "xavier"
    }
    bias_filler {
      type: "constant"
      value: 0
    }
  }
}
layer {
  name: "relu2_1"
  type: "ReLU"
  bottom: "conv2_1"
  top: "conv2_1"
}
layer {
  name: "conv2_2"
  type: "Convolution"
  bottom: "conv2_1"
  top: "conv2_2"
  param {
    lr_mult: 1
    decay_mult: 1
  }
  param {
    lr_mult: 2
    decay_mult: 0
  }
  convolution_param {
    num_output: 128
    pad: 1
    kernel_size: 3
    weight_filler {
      type: "xavier"
    }
    bias_filler {
      type: "constant"
      value: 0
    }
  }
}
layer {
  name: "relu2_2"
  type: "ReLU"
  bottom: "conv2_2"
  top: "conv2_2"
}
layer {
  name: "pool2"
  type: "Pooling"
  bottom: "conv2_2"
  top: "pool2"
  pooling_param {
    pool: MAX
    kernel_size: 2
    stride: 2
  }
}
layer {
  name: "conv3_1"
  type: "Convolution"
  bottom: "pool2"
  top: "conv3_1"
  param {
    lr_mult: 1
    decay_mult: 1
  }
  param {
    lr_mult: 2
    decay_mult: 0
  }
  convolution_param {
    num_output: 256
    pad: 1
    kernel_size: 3
    weight_filler {
      type: "xavier"
    }
    bias_filler {
      type: "constant"
      value: 0
    }
  }
}
layer {
  name: "relu3_1"
  type: "ReLU"
  bottom: "conv3_1"
  top: "conv3_1"
}
layer {
  name: "conv3_2"
  type: "Convolution"
  bottom: "conv3_1"
  top: "conv3_2"
  param {
    lr_mult: 1
    decay_mult: 1
  }
  param {
    lr_mult: 2
    decay_mult: 0
  }
  convolution_param {
    num_output: 256
    pad: 1
    kernel_size: 3
    weight_filler {
      type: "xavier"
    }
    bias_filler {
      type: "constant"
      value: 0
    }
  }
}
layer {
  name: "relu3_2"
  type: "ReLU"
  bottom: "conv3_2"
  top: "conv3_2"
}
layer {
  name: "conv3_3"
  type: "Convolution"
  bottom: "conv3_2"
  top: "conv3_3"
  param {
    lr_mult: 1
    decay_mult: 1
  }
  param {
    lr_mult: 2
    decay_mult: 0
  }
  convolution_param {
    num_output: 256
    pad: 1
    kernel_size: 3
    weight_filler {
      type: "xavier"
    }
    bias_filler {
      type: "constant"
      value: 0
    }
  }
}
layer {
  name: "relu3_3"
  type: "ReLU"
  bottom: "conv3_3"
  top: "conv3_3"
}
layer {
  name: "pool3"
  type: "Pooling"
  bottom: "conv3_3"
  top: "pool3"
  pooling_param {
    pool: MAX
    kernel_size: 2
    stride: 2
  }
}
layer {
  name: "conv4_1"
  type: "Convolution"
  bottom: "pool3"
  top: "conv4_1"
  param {
    lr_mult: 1
    decay_mult: 1
  }
  param {
    lr_mult: 2
    decay_mult: 0
  }
  convolution_param {
    num_output: 512
    pad: 1
    kernel_size: 3
    weight_filler {
      type: "xavier"
    }
    bias_filler {
      type: "constant"
      value: 0
    }
  }
}
layer {
  name: "relu4_1"
  type: "ReLU"
  bottom: "conv4_1"
  top: "conv4_1"
}
layer {
  name: "conv4_2"
  type: "Convolution"
  bottom: "conv4_1"
  top: "conv4_2"
  param {
    lr_mult: 1
    decay_mult: 1
  }
  param {
    lr_mult: 2
    decay_mult: 0
  }
  convolution_param {
    num_output: 512
    pad: 1
    kernel_size: 3
    weight_filler {
      type: "xavier"
    }
    bias_filler {
      type: "constant"
      value: 0
    }
  }
}
layer {
  name: "relu4_2"
  type: "ReLU"
  bottom: "conv4_2"
  top: "conv4_2"
}
layer {
  name: "conv4_3"
  type: "Convolution"
  bottom: "conv4_2"
  top: "conv4_3"
  param {
    lr_mult: 1
    decay_mult: 1
  }
  param {
    lr_mult: 2
    decay_mult: 0
  }
  convolution_param {
    num_output: 512
    pad: 1
    kernel_size: 3
    weight_filler {
      type: "xavier"
    }
    bias_filler {
      type: "constant"
      value: 0
    }
  }
}
layer {
  name: "relu4_3"
  type: "ReLU"
  bottom: "conv4_3"
  top: "conv4_3"
}
layer {
  name: "pool4"
  type: "Pooling"
  bottom: "conv4_3"
  top: "pool4"
  pooling_param {
    pool: MAX
    kernel_size: 2
    stride: 2
  }
}
layer {
  name: "conv5_1"
  type: "Convolution"
  bottom: "pool4"
  top: "conv5_1"
  param {
    lr_mult: 1
    decay_mult: 1
  }
  param {
    lr_mult: 2
    decay_mult: 0
  }
  convolution_param {
    num_output: 512
    pad: 1
    kernel_size: 3
    weight_filler {
      type: "xavier"
    }
    bias_filler {
      type: "constant"
      value: 0
    }
    dilation: 1
  }
}
layer {
  name: "relu5_1"
  type: "ReLU"
  bottom: "conv5_1"
  top: "conv5_1"
}
layer {
  name: "conv5_2"
  type: "Convolution"
  bottom: "conv5_1"
  top: "conv5_2"
  param {
    lr_mult: 1
    decay_mult: 1
  }
  param {
    lr_mult: 2
    decay_mult: 0
  }
  convolution_param {
    num_output: 512
    pad: 1
    kernel_size: 3
    weight_filler {
      type: "xavier"
    }
    bias_filler {
      type: "constant"
      value: 0
    }
    dilation: 1
  }
}
layer {
  name: "relu5_2"
  type: "ReLU"
  bottom: "conv5_2"
  top: "conv5_2"
}
layer {
  name: "conv5_3"
  type: "Convolution"
  bottom: "conv5_2"
  top: "conv5_3"
  param {
    lr_mult: 1
    decay_mult: 1
  }
  param {
    lr_mult: 2
    decay_mult: 0
  }
  convolution_param {
    num_output: 512
    pad: 1
    kernel_size: 3
    weight_filler {
      type: "xavier"
    }
    bias_filler {
      type: "constant"
      value: 0
    }
    dilation: 1
  }
}
layer {
  name: "relu5_3"
  type: "ReLU"
  bottom: "conv5_3"
  top: "conv5_3"
}
layer {
  name: "pool5"
  type: "Pooling"
  bottom: "conv5_3"
  top: "pool5"
  pooling_param {
    pool: MAX
    kernel_size: 3
    stride: 1
    pad: 1
  }
}
layer {
  name: "fc6"
  type: "Convolution"
  bottom: "pool5"
  top: "fc6"
  param {
    lr_mult: 1
    decay_mult: 1
  }
  param {
    lr_mult: 2
    decay_mult: 0
  }
  convolution_param {
    num_output: 1024
    pad: 6
    kernel_size: 3
    weight_filler {
      type: "xavier"
    }
    bias_filler {
      type: "constant"
      value: 0
    }
    dilation: 6
  }
}
layer {
  name: "relu6"
  type: "ReLU"
  bottom: "fc6"
  top: "fc6"
}
layer {
  name: "fc7"
  type: "Convolution"
  bottom: "fc6"
  top: "fc7"
  param {
    lr_mult: 1
    decay_mult: 1
  }
  param {
    lr_mult: 2
    decay_mult: 0
  }
  convolution_param {
    num_output: 1024
    kernel_size: 1
    weight_filler {
      type: "xavier"
    }
    bias_filler {
      type: "constant"
      value: 0
    }
  }
}
layer {
  name: "relu7"
  type: "ReLU"
  bottom: "fc7"
  top: "fc7"
}
layer {
  name: "conv6_1"
  type: "Convolution"
  bottom: "fc7"
  top: "conv6_1"
  param {
    lr_mult: 1
    decay_mult: 1
  }
  param {
    lr_mult: 2
    decay_mult: 0
  }
  convolution_param {
    num_output: 256
    pad: 0
    kernel_size: 1
    stride: 1
    weight_filler {
      type: "xavier"
    }
    bias_filler {
      type: "constant"
      value: 0
    }
  }
}
layer {
  name: "conv6_1_relu"
  type: "ReLU"
  bottom: "conv6_1"
  top: "conv6_1"
}
layer {
  name: "conv6_2"
  type: "Convolution"
  bottom: "conv6_1"
  top: "conv6_2"
  param {
    lr_mult: 1
    decay_mult: 1
  }
  param {
    lr_mult: 2
    decay_mult: 0
  }
  convolution_param {
    num_output: 512
    pad: 1
    kernel_size: 3
    stride: 2
    weight_filler {
      type: "xavier"
    }
    bias_filler {
      type: "constant"
      value: 0
    }
  }
}
layer {
  name: "conv6_2_relu"
  type: "ReLU"
  bottom: "conv6_2"
  top: "conv6_2"
}
layer {
  name: "conv7_1"
  type: "Convolution"
  bottom: "conv6_2"
  top: "conv7_1"
  param {
    lr_mult: 1
    decay_mult: 1
  }
  param {
    lr_mult: 2
    decay_mult: 0
  }
  convolution_param {
    num_output: 128
    pad: 0
    kernel_size: 1
    stride: 1
    weight_filler {
      type: "xavier"
    }
    bias_filler {
      type: "constant"
      value: 0
    }
  }
}
layer {
  name: "conv7_1_relu"
  type: "ReLU"
  bottom: "conv7_1"
  top: "conv7_1"
}
layer {
  name: "conv7_2"
  type: "Convolution"
  bottom: "conv7_1"
  top: "conv7_2"
  param {
    lr_mult: 1
    decay_mult: 1
  }
  param {
    lr_mult: 2
    decay_mult: 0
  }
  convolution_param {
    num_output: 256
    pad: 1
    kernel_size: 3
    stride: 2
    weight_filler {
      type: "xavier"
    }
    bias_filler {
      type: "constant"
      value: 0
    }
  }
}
layer {
  name: "conv7_2_relu"
  type: "ReLU"
  bottom: "conv7_2"
  top: "conv7_2"
}
layer {
  name: "conv8_1"
  type: "Convolution"
  bottom: "conv7_2"
  top: "conv8_1"
  param {
    lr_mult: 1
    decay_mult: 1
  }
  param {
    lr_mult: 2
    decay_mult: 0
  }
  convolution_param {
    num_output: 128
    pad: 0
    kernel_size: 1
    stride: 1
    weight_filler {
      type: "xavier"
    }
    bias_filler {
      type: "constant"
      value: 0
    }
  }
}
layer {
  name: "conv8_1_relu"
  type: "ReLU"
  bottom: "conv8_1"
  top: "conv8_1"
}
layer {
  name: "conv8_2"
  type: "Convolution"
  bottom: "conv8_1"
  top: "conv8_2"
  param {
    lr_mult: 1
    decay_mult: 1
  }
  param {
    lr_mult: 2
    decay_mult: 0
  }
  convolution_param {
    num_output: 256
    pad: 0
    kernel_size: 3
    stride: 1
    weight_filler {
      type: "xavier"
    }
    bias_filler {
      type: "constant"
      value: 0
    }
  }
}
layer {
  name: "conv8_2_relu"
  type: "ReLU"
  bottom: "conv8_2"
  top: "conv8_2"
}
layer {
  name: "conv9_1"
  type: "Convolution"
  bottom: "conv8_2"
  top: "conv9_1"
  param {
    lr_mult: 1
    decay_mult: 1
  }
  param {
    lr_mult: 2
    decay_mult: 0
  }
  convolution_param {
    num_output: 128
    pad: 0
    kernel_size: 1
    stride: 1
    weight_filler {
      type: "xavier"
    }
    bias_filler {
      type: "constant"
      value: 0
    }
  }
}
layer {
  name: "conv9_1_relu"
  type: "ReLU"
  bottom: "conv9_1"
  top: "conv9_1"
}
layer {
  name: "conv9_2"
  type: "Convolution"
  bottom: "conv9_1"
  top: "conv9_2"
  param {
    lr_mult: 1
    decay_mult: 1
  }
  param {
    lr_mult: 2
    decay_mult: 0
  }
  convolution_param {
    num_output: 256
    pad: 0
    kernel_size: 3
    stride: 1
    weight_filler {
      type: "xavier"
    }
    bias_filler {
      type: "constant"
      value: 0
    }
  }
}
layer {
  name: "conv9_2_relu"
  type: "ReLU"
  bottom: "conv9_2"
  top: "conv9_2"
}
layer {
  name: "conv4_3_norm"
  type: "Normalize"
  bottom: "conv4_3"
  top: "conv4_3_norm"
  norm_param {
    across_spatial: false
    scale_filler {
      type: "constant"
      value: 20
    }
    channel_shared: false
  }
}
layer {
  name: "conv4_3_norm_mbox_loc"
  type: "Convolution"
  bottom: "conv4_3_norm"
  top: "conv4_3_norm_mbox_loc"
  param {
    lr_mult: 1
    decay_mult: 1
  }
  param {
    lr_mult: 2
    decay_mult: 0
  }
  convolution_param {
    num_output: 16
    pad: 1
    kernel_size: 3
    stride: 1
    weight_filler {
      type: "xavier"
    }
    bias_filler {
      type: "constant"
      value: 0
    }
  }
}
layer {
  name: "conv4_3_norm_mbox_loc_perm"
  type: "Permute"
  bottom: "conv4_3_norm_mbox_loc"
  top: "conv4_3_norm_mbox_loc_perm"
  permute_param {
    order: 0
    order: 2
    order: 3
    order: 1
  }
}
layer {
  name: "conv4_3_norm_mbox_loc_flat"
  type: "Flatten"
  bottom: "conv4_3_norm_mbox_loc_perm"
  top: "conv4_3_norm_mbox_loc_flat"
  flatten_param {
    axis: 1
  }
}
layer {
  name: "conv4_3_norm_mbox_conf"
  type: "Convolution"
  bottom: "conv4_3_norm"
  top: "conv4_3_norm_mbox_conf"
  param {
    lr_mult: 1
    decay_mult: 1
  }
  param {
    lr_mult: 2
    decay_mult: 0
  }
  convolution_param {
    num_output: 12
    pad: 1
    kernel_size: 3
    stride: 1
    weight_filler {
      type: "xavier"
    }
    bias_filler {
      type: "constant"
      value: 0
    }
  }
}
layer {
  name: "conv4_3_norm_mbox_conf_perm"
  type: "Permute"
  bottom: "conv4_3_norm_mbox_conf"
  top: "conv4_3_norm_mbox_conf_perm"
  permute_param {
    order: 0
    order: 2
    order: 3
    order: 1
  }
}
layer {
  name: "conv4_3_norm_mbox_conf_flat"
  type: "Flatten"
  bottom: "conv4_3_norm_mbox_conf_perm"
  top: "conv4_3_norm_mbox_conf_flat"
  flatten_param {
    axis: 1
  }
}
layer {
  name: "conv4_3_norm_mbox_priorbox"
  type: "PriorBox"
  bottom: "conv4_3_norm"
  bottom: "data"
  top: "conv4_3_norm_mbox_priorbox"
  prior_box_param {
    min_size: 30
    max_size: 60
    aspect_ratio: 2
    flip: true
    clip: false
    variance: 0.1
    variance: 0.1
    variance: 0.2
    variance: 0.2
    step: 8
    offset: 0.5
  }
}
layer {
  name: "fc7_mbox_loc"
  type: "Convolution"
  bottom: "fc7"
  top: "fc7_mbox_loc"
  param {
    lr_mult: 1
    decay_mult: 1
  }
  param {
    lr_mult: 2
    decay_mult: 0
  }
  convolution_param {
    num_output: 24
    pad: 1
    kernel_size: 3
    stride: 1
    weight_filler {
      type: "xavier"
    }
    bias_filler {
      type: "constant"
      value: 0
    }
  }
}
layer {
  name: "fc7_mbox_loc_perm"
  type: "Permute"
  bottom: "fc7_mbox_loc"
  top: "fc7_mbox_loc_perm"
  permute_param {
    order: 0
    order: 2
    order: 3
    order: 1
  }
}
layer {
  name: "fc7_mbox_loc_flat"
  type: "Flatten"
  bottom: "fc7_mbox_loc_perm"
  top: "fc7_mbox_loc_flat"
  flatten_param {
    axis: 1
  }
}
layer {
  name: "fc7_mbox_conf"
  type: "Convolution"
  bottom: "fc7"
  top: "fc7_mbox_conf"
  param {
    lr_mult: 1
    decay_mult: 1
  }
  param {
    lr_mult: 2
    decay_mult: 0
  }
  convolution_param {
    num_output: 18
    pad: 1
    kernel_size: 3
    stride: 1
    weight_filler {
      type: "xavier"
    }
    bias_filler {
      type: "constant"
      value: 0
    }
  }
}
layer {
  name: "fc7_mbox_conf_perm"
  type: "Permute"
  bottom: "fc7_mbox_conf"
  top: "fc7_mbox_conf_perm"
  permute_param {
    order: 0
    order: 2
    order: 3
    order: 1
  }
}
layer {
  name: "fc7_mbox_conf_flat"
  type: "Flatten"
  bottom: "fc7_mbox_conf_perm"
  top: "fc7_mbox_conf_flat"
  flatten_param {
    axis: 1
  }
}
layer {
  name: "fc7_mbox_priorbox"
  type: "PriorBox"
  bottom: "fc7"
  bottom: "data"
  top: "fc7_mbox_priorbox"
  prior_box_param {
    min_size: 60
    max_size: 111
    aspect_ratio: 2
    aspect_ratio: 3
    flip: true
    clip: false
    variance: 0.1
    variance: 0.1
    variance: 0.2
    variance: 0.2
    step: 16
    offset: 0.5
  }
}
layer {
  name: "conv6_2_mbox_loc"
  type: "Convolution"
  bottom: "conv6_2"
  top: "conv6_2_mbox_loc"
  param {
    lr_mult: 1
    decay_mult: 1
  }
  param {
    lr_mult: 2
    decay_mult: 0
  }
  convolution_param {
    num_output: 24
    pad: 1
    kernel_size: 3
    stride: 1
    weight_filler {
      type: "xavier"
    }
    bias_filler {
      type: "constant"
      value: 0
    }
  }
}
layer {
  name: "conv6_2_mbox_loc_perm"
  type: "Permute"
  bottom: "conv6_2_mbox_loc"
  top: "conv6_2_mbox_loc_perm"
  permute_param {
    order: 0
    order: 2
    order: 3
    order: 1
  }
}
layer {
  name: "conv6_2_mbox_loc_flat"
  type: "Flatten"
  bottom: "conv6_2_mbox_loc_perm"
  top: "conv6_2_mbox_loc_flat"
  flatten_param {
    axis: 1
  }
}
layer {
  name: "conv6_2_mbox_conf"
  type: "Convolution"
  bottom: "conv6_2"
  top: "conv6_2_mbox_conf"
  param {
    lr_mult: 1
    decay_mult: 1
  }
  param {
    lr_mult: 2
    decay_mult: 0
  }
  convolution_param {
    num_output: 18
    pad: 1
    kernel_size: 3
    stride: 1
    weight_filler {
      type: "xavier"
    }
    bias_filler {
      type: "constant"
      value: 0
    }
  }
}
layer {
  name: "conv6_2_mbox_conf_perm"
  type: "Permute"
  bottom: "conv6_2_mbox_conf"
  top: "conv6_2_mbox_conf_perm"
  permute_param {
    order: 0
    order: 2
    order: 3
    order: 1
  }
}
layer {
  name: "conv6_2_mbox_conf_flat"
  type: "Flatten"
  bottom: "conv6_2_mbox_conf_perm"
  top: "conv6_2_mbox_conf_flat"
  flatten_param {
    axis: 1
  }
}
layer {
  name: "conv6_2_mbox_priorbox"
  type: "PriorBox"
  bottom: "conv6_2"
  bottom: "data"
  top: "conv6_2_mbox_priorbox"
  prior_box_param {
    min_size: 111
    max_size: 162
    aspect_ratio: 2
    aspect_ratio: 3
    flip: true
    clip: false
    variance: 0.1
    variance: 0.1
    variance: 0.2
    variance: 0.2
    step: 32
    offset: 0.5
  }
}
layer {
  name: "conv7_2_mbox_loc"
  type: "Convolution"
  bottom: "conv7_2"
  top: "conv7_2_mbox_loc"
  param {
    lr_mult: 1
    decay_mult: 1
  }
  param {
    lr_mult: 2
    decay_mult: 0
  }
  convolution_param {
    num_output: 24
    pad: 1
    kernel_size: 3
    stride: 1
    weight_filler {
      type: "xavier"
    }
    bias_filler {
      type: "constant"
      value: 0
    }
  }
}
layer {
  name: "conv7_2_mbox_loc_perm"
  type: "Permute"
  bottom: "conv7_2_mbox_loc"
  top: "conv7_2_mbox_loc_perm"
  permute_param {
    order: 0
    order: 2
    order: 3
    order: 1
  }
}
layer {
  name: "conv7_2_mbox_loc_flat"
  type: "Flatten"
  bottom: "conv7_2_mbox_loc_perm"
  top: "conv7_2_mbox_loc_flat"
  flatten_param {
    axis: 1
  }
}
layer {
  name: "conv7_2_mbox_conf"
  type: "Convolution"
  bottom: "conv7_2"
  top: "conv7_2_mbox_conf"
  param {
    lr_mult: 1
    decay_mult: 1
  }
  param {
    lr_mult: 2
    decay_mult: 0
  }
  convolution_param {
    num_output: 18
    pad: 1
    kernel_size: 3
    stride: 1
    weight_filler {
      type: "xavier"
    }
    bias_filler {
      type: "constant"
      value: 0
    }
  }
}
layer {
  name: "conv7_2_mbox_conf_perm"
  type: "Permute"
  bottom: "conv7_2_mbox_conf"
  top: "conv7_2_mbox_conf_perm"
  permute_param {
    order: 0
    order: 2
    order: 3
    order: 1
  }
}
layer {
  name: "conv7_2_mbox_conf_flat"
  type: "Flatten"
  bottom: "conv7_2_mbox_conf_perm"
  top: "conv7_2_mbox_conf_flat"
  flatten_param {
    axis: 1
  }
}
layer {
  name: "conv7_2_mbox_priorbox"
  type: "PriorBox"
  bottom: "conv7_2"
  bottom: "data"
  top: "conv7_2_mbox_priorbox"
  prior_box_param {
    min_size: 162
    max_size: 213
    aspect_ratio: 2
    aspect_ratio: 3
    flip: true
    clip: false
    variance: 0.1
    variance: 0.1
    variance: 0.2
    variance: 0.2
    step: 64
    offset: 0.5
  }
}
layer {
  name: "conv8_2_mbox_loc"
  type: "Convolution"
  bottom: "conv8_2"
  top: "conv8_2_mbox_loc"
  param {
    lr_mult: 1
    decay_mult: 1
  }
  param {
    lr_mult: 2
    decay_mult: 0
  }
  convolution_param {
    num_output: 16
    pad: 1
    kernel_size: 3
    stride: 1
    weight_filler {
      type: "xavier"
    }
    bias_filler {
      type: "constant"
      value: 0
    }
  }
}
layer {
  name: "conv8_2_mbox_loc_perm"
  type: "Permute"
  bottom: "conv8_2_mbox_loc"
  top: "conv8_2_mbox_loc_perm"
  permute_param {
    order: 0
    order: 2
    order: 3
    order: 1
  }
}
layer {
  name: "conv8_2_mbox_loc_flat"
  type: "Flatten"
  bottom: "conv8_2_mbox_loc_perm"
  top: "conv8_2_mbox_loc_flat"
  flatten_param {
    axis: 1
  }
}
layer {
  name: "conv8_2_mbox_conf"
  type: "Convolution"
  bottom: "conv8_2"
  top: "conv8_2_mbox_conf"
  param {
    lr_mult: 1
    decay_mult: 1
  }
  param {
    lr_mult: 2
    decay_mult: 0
  }
  convolution_param {
    num_output: 12
    pad: 1
    kernel_size: 3
    stride: 1
    weight_filler {
      type: "xavier"
    }
    bias_filler {
      type: "constant"
      value: 0
    }
  }
}
layer {
  name: "conv8_2_mbox_conf_perm"
  type: "Permute"
  bottom: "conv8_2_mbox_conf"
  top: "conv8_2_mbox_conf_perm"
  permute_param {
    order: 0
    order: 2
    order: 3
    order: 1
  }
}
layer {
  name: "conv8_2_mbox_conf_flat"
  type: "Flatten"
  bottom: "conv8_2_mbox_conf_perm"
  top: "conv8_2_mbox_conf_flat"
  flatten_param {
    axis: 1
  }
}
layer {
  name: "conv8_2_mbox_priorbox"
  type: "PriorBox"
  bottom: "conv8_2"
  bottom: "data"
  top: "conv8_2_mbox_priorbox"
  prior_box_param {
    min_size: 213
    max_size: 264
    aspect_ratio: 2
    flip: true
    clip: false
    variance: 0.1
    variance: 0.1
    variance: 0.2
    variance: 0.2
    step: 100
    offset: 0.5
  }
}
layer {
  name: "conv9_2_mbox_loc"
  type: "Convolution"
  bottom: "conv9_2"
  top: "conv9_2_mbox_loc"
  param {
    lr_mult: 1
    decay_mult: 1
  }
  param {
    lr_mult: 2
    decay_mult: 0
  }
  convolution_param {
    num_output: 16
    pad: 1
    kernel_size: 3
    stride: 1
    weight_filler {
      type: "xavier"
    }
    bias_filler {
      type: "constant"
      value: 0
    }
  }
}
layer {
  name: "conv9_2_mbox_loc_perm"
  type: "Permute"
  bottom: "conv9_2_mbox_loc"
  top: "conv9_2_mbox_loc_perm"
  permute_param {
    order: 0
    order: 2
    order: 3
    order: 1
  }
}
layer {
  name: "conv9_2_mbox_loc_flat"
  type: "Flatten"
  bottom: "conv9_2_mbox_loc_perm"
  top: "conv9_2_mbox_loc_flat"
  flatten_param {
    axis: 1
  }
}
layer {
  name: "conv9_2_mbox_conf"
  type: "Convolution"
  bottom: "conv9_2"
  top: "conv9_2_mbox_conf"
  param {
    lr_mult: 1
    decay_mult: 1
  }
  param {
    lr_mult: 2
    decay_mult: 0
  }
  convolution_param {
    num_output: 12
    pad: 1
    kernel_size: 3
    stride: 1
    weight_filler {
      type: "xavier"
    }
    bias_filler {
      type: "constant"
      value: 0
    }
  }
}
layer {
  name: "conv9_2_mbox_conf_perm"
  type: "Permute"
  bottom: "conv9_2_mbox_conf"
  top: "conv9_2_mbox_conf_perm"
  permute_param {
    order: 0
    order: 2
    order: 3
    order: 1
  }
}
layer {
  name: "conv9_2_mbox_conf_flat"
  type: "Flatten"
  bottom: "conv9_2_mbox_conf_perm"
  top: "conv9_2_mbox_conf_flat"
  flatten_param {
    axis: 1
  }
}
layer {
  name: "conv9_2_mbox_priorbox"
  type: "PriorBox"
  bottom: "conv9_2"
  bottom: "data"
  top: "conv9_2_mbox_priorbox"
  prior_box_param {
    min_size: 264
    max_size: 315
    aspect_ratio: 2
    flip: true
    clip: false
    variance: 0.1
    variance: 0.1
    variance: 0.2
    variance: 0.2
    step: 300
    offset: 0.5
  }
}
layer {
  name: "mbox_loc"
  type: "Concat"
  bottom: "conv4_3_norm_mbox_loc_flat"
  bottom: "fc7_mbox_loc_flat"
  bottom: "conv6_2_mbox_loc_flat"
  bottom: "conv7_2_mbox_loc_flat"
  bottom: "conv8_2_mbox_loc_flat"
  bottom: "conv9_2_mbox_loc_flat"
  top: "mbox_loc"
  concat_param {
    axis: 1
  }
}
layer {
  name: "mbox_conf"
  type: "Concat"
  bottom: "conv4_3_norm_mbox_conf_flat"
  bottom: "fc7_mbox_conf_flat"
  bottom: "conv6_2_mbox_conf_flat"
  bottom: "conv7_2_mbox_conf_flat"
  bottom: "conv8_2_mbox_conf_flat"
  bottom: "conv9_2_mbox_conf_flat"
  top: "mbox_conf"
  concat_param {
    axis: 1
  }
}
layer {
  name: "mbox_priorbox"
  type: "Concat"
  bottom: "conv4_3_norm_mbox_priorbox"
  bottom: "fc7_mbox_priorbox"
  bottom: "conv6_2_mbox_priorbox"
  bottom: "conv7_2_mbox_priorbox"
  bottom: "conv8_2_mbox_priorbox"
  bottom: "conv9_2_mbox_priorbox"
  top: "mbox_priorbox"
  concat_param {
    axis: 2
  }
}
layer {
  name: "mbox_loss"
  type: "MultiBoxLoss"
  bottom: "mbox_loc"
  bottom: "mbox_conf"
  bottom: "mbox_priorbox"
  bottom: "label"
  top: "mbox_loss"
  include {
    phase: TRAIN
  }
  propagate_down: true
  propagate_down: true
  propagate_down: false
  propagate_down: false
  loss_param {
    normalization: VALID
  }
  multibox_loss_param {
    loc_loss_type: SMOOTH_L1
    conf_loss_type: SOFTMAX
    loc_weight: 1
    num_classes: 3
    share_location: true
    match_type: PER_PREDICTION
    overlap_threshold: 0.5
    use_prior_for_matching: true
    background_label_id: 0
    use_difficult_gt: true
    neg_pos_ratio: 3
    neg_overlap: 0.5
    code_type: CENTER_SIZE
    ignore_cross_boundary_bbox: false
    mining_type: MAX_NEGATIVE
  }
}
I0607 15:51:52.280642  5428 layer_factory.hpp:77] Creating layer data
I0607 15:51:52.281030  5428 net.cpp:100] Creating Layer data
I0607 15:51:52.281045  5428 net.cpp:408] data -> data
I0607 15:51:52.281098  5428 net.cpp:408] data -> label
I0607 15:51:52.281702  5434 db_lmdb.cpp:35] Opened lmdb examples/tbs_v2.0_HSIL_1_23/tbs_v2.0_HSIL_1_23_trainval_lmdb
I0607 15:51:52.290496  5428 annotated_data_layer.cpp:62] output data size: 32,3,300,300
I0607 15:51:52.321480  5428 net.cpp:150] Setting up data
I0607 15:51:52.321501  5428 net.cpp:157] Top shape: 32 3 300 300 (8640000)
I0607 15:51:52.321545  5428 net.cpp:157] Top shape: 1 1 1 8 (8)
I0607 15:51:52.321547  5428 net.cpp:165] Memory required for data: 34560032
I0607 15:51:52.321555  5428 layer_factory.hpp:77] Creating layer data_data_0_split
I0607 15:51:52.321579  5428 net.cpp:100] Creating Layer data_data_0_split
I0607 15:51:52.321585  5428 net.cpp:434] data_data_0_split <- data
I0607 15:51:52.321609  5428 net.cpp:408] data_data_0_split -> data_data_0_split_0
I0607 15:51:52.321630  5428 net.cpp:408] data_data_0_split -> data_data_0_split_1
I0607 15:51:52.321647  5428 net.cpp:408] data_data_0_split -> data_data_0_split_2
I0607 15:51:52.321652  5428 net.cpp:408] data_data_0_split -> data_data_0_split_3
I0607 15:51:52.321657  5428 net.cpp:408] data_data_0_split -> data_data_0_split_4
I0607 15:51:52.321660  5428 net.cpp:408] data_data_0_split -> data_data_0_split_5
I0607 15:51:52.321665  5428 net.cpp:408] data_data_0_split -> data_data_0_split_6
I0607 15:51:52.321784  5428 net.cpp:150] Setting up data_data_0_split
I0607 15:51:52.321802  5428 net.cpp:157] Top shape: 32 3 300 300 (8640000)
I0607 15:51:52.321805  5428 net.cpp:157] Top shape: 32 3 300 300 (8640000)
I0607 15:51:52.321807  5428 net.cpp:157] Top shape: 32 3 300 300 (8640000)
I0607 15:51:52.321810  5428 net.cpp:157] Top shape: 32 3 300 300 (8640000)
I0607 15:51:52.321812  5428 net.cpp:157] Top shape: 32 3 300 300 (8640000)
I0607 15:51:52.321830  5428 net.cpp:157] Top shape: 32 3 300 300 (8640000)
I0607 15:51:52.321831  5428 net.cpp:157] Top shape: 32 3 300 300 (8640000)
I0607 15:51:52.321835  5428 net.cpp:165] Memory required for data: 276480032
I0607 15:51:52.321836  5428 layer_factory.hpp:77] Creating layer conv1_1
I0607 15:51:52.321872  5428 net.cpp:100] Creating Layer conv1_1
I0607 15:51:52.321877  5428 net.cpp:434] conv1_1 <- data_data_0_split_0
I0607 15:51:52.321895  5428 net.cpp:408] conv1_1 -> conv1_1
I0607 15:51:52.485344  5428 net.cpp:150] Setting up conv1_1
I0607 15:51:52.485368  5428 net.cpp:157] Top shape: 32 64 300 300 (184320000)
I0607 15:51:52.485369  5428 net.cpp:165] Memory required for data: 1013760032
I0607 15:51:52.485400  5428 layer_factory.hpp:77] Creating layer relu1_1
I0607 15:51:52.485409  5428 net.cpp:100] Creating Layer relu1_1
I0607 15:51:52.485410  5428 net.cpp:434] relu1_1 <- conv1_1
I0607 15:51:52.485414  5428 net.cpp:395] relu1_1 -> conv1_1 (in-place)
I0607 15:51:52.486001  5428 net.cpp:150] Setting up relu1_1
I0607 15:51:52.486016  5428 net.cpp:157] Top shape: 32 64 300 300 (184320000)
I0607 15:51:52.486017  5428 net.cpp:165] Memory required for data: 1751040032
I0607 15:51:52.486021  5428 layer_factory.hpp:77] Creating layer conv1_2
I0607 15:51:52.486048  5428 net.cpp:100] Creating Layer conv1_2
I0607 15:51:52.486050  5428 net.cpp:434] conv1_2 <- conv1_1
I0607 15:51:52.486055  5428 net.cpp:408] conv1_2 -> conv1_2
I0607 15:51:52.488261  5428 net.cpp:150] Setting up conv1_2
I0607 15:51:52.488286  5428 net.cpp:157] Top shape: 32 64 300 300 (184320000)
I0607 15:51:52.488289  5428 net.cpp:165] Memory required for data: 2488320032
I0607 15:51:52.488312  5428 layer_factory.hpp:77] Creating layer relu1_2
I0607 15:51:52.488319  5428 net.cpp:100] Creating Layer relu1_2
I0607 15:51:52.488335  5428 net.cpp:434] relu1_2 <- conv1_2
I0607 15:51:52.488340  5428 net.cpp:395] relu1_2 -> conv1_2 (in-place)
I0607 15:51:52.488509  5428 net.cpp:150] Setting up relu1_2
I0607 15:51:52.488517  5428 net.cpp:157] Top shape: 32 64 300 300 (184320000)
I0607 15:51:52.488518  5428 net.cpp:165] Memory required for data: 3225600032
I0607 15:51:52.488521  5428 layer_factory.hpp:77] Creating layer pool1
I0607 15:51:52.488525  5428 net.cpp:100] Creating Layer pool1
I0607 15:51:52.488543  5428 net.cpp:434] pool1 <- conv1_2
I0607 15:51:52.488548  5428 net.cpp:408] pool1 -> pool1
I0607 15:51:52.488616  5428 net.cpp:150] Setting up pool1
I0607 15:51:52.488623  5428 net.cpp:157] Top shape: 32 64 150 150 (46080000)
I0607 15:51:52.488626  5428 net.cpp:165] Memory required for data: 3409920032
I0607 15:51:52.488627  5428 layer_factory.hpp:77] Creating layer conv2_1
I0607 15:51:52.488649  5428 net.cpp:100] Creating Layer conv2_1
I0607 15:51:52.488677  5428 net.cpp:434] conv2_1 <- pool1
I0607 15:51:52.488682  5428 net.cpp:408] conv2_1 -> conv2_1
I0607 15:51:52.490598  5428 net.cpp:150] Setting up conv2_1
I0607 15:51:52.490608  5428 net.cpp:157] Top shape: 32 128 150 150 (92160000)
I0607 15:51:52.490610  5428 net.cpp:165] Memory required for data: 3778560032
I0607 15:51:52.490617  5428 layer_factory.hpp:77] Creating layer relu2_1
I0607 15:51:52.490638  5428 net.cpp:100] Creating Layer relu2_1
I0607 15:51:52.490640  5428 net.cpp:434] relu2_1 <- conv2_1
I0607 15:51:52.490644  5428 net.cpp:395] relu2_1 -> conv2_1 (in-place)
I0607 15:51:52.491166  5428 net.cpp:150] Setting up relu2_1
I0607 15:51:52.491174  5428 net.cpp:157] Top shape: 32 128 150 150 (92160000)
I0607 15:51:52.491176  5428 net.cpp:165] Memory required for data: 4147200032
I0607 15:51:52.491178  5428 layer_factory.hpp:77] Creating layer conv2_2
I0607 15:51:52.491184  5428 net.cpp:100] Creating Layer conv2_2
I0607 15:51:52.491202  5428 net.cpp:434] conv2_2 <- conv2_1
I0607 15:51:52.491206  5428 net.cpp:408] conv2_2 -> conv2_2
I0607 15:51:52.493371  5428 net.cpp:150] Setting up conv2_2
I0607 15:51:52.493379  5428 net.cpp:157] Top shape: 32 128 150 150 (92160000)
I0607 15:51:52.493382  5428 net.cpp:165] Memory required for data: 4515840032
I0607 15:51:52.493386  5428 layer_factory.hpp:77] Creating layer relu2_2
I0607 15:51:52.493391  5428 net.cpp:100] Creating Layer relu2_2
I0607 15:51:52.493407  5428 net.cpp:434] relu2_2 <- conv2_2
I0607 15:51:52.493412  5428 net.cpp:395] relu2_2 -> conv2_2 (in-place)
I0607 15:51:52.493952  5428 net.cpp:150] Setting up relu2_2
I0607 15:51:52.493958  5428 net.cpp:157] Top shape: 32 128 150 150 (92160000)
I0607 15:51:52.493960  5428 net.cpp:165] Memory required for data: 4884480032
I0607 15:51:52.493963  5428 layer_factory.hpp:77] Creating layer pool2
I0607 15:51:52.493966  5428 net.cpp:100] Creating Layer pool2
I0607 15:51:52.493968  5428 net.cpp:434] pool2 <- conv2_2
I0607 15:51:52.493988  5428 net.cpp:408] pool2 -> pool2
I0607 15:51:52.494060  5428 net.cpp:150] Setting up pool2
I0607 15:51:52.494077  5428 net.cpp:157] Top shape: 32 128 75 75 (23040000)
I0607 15:51:52.494079  5428 net.cpp:165] Memory required for data: 4976640032
I0607 15:51:52.494081  5428 layer_factory.hpp:77] Creating layer conv3_1
I0607 15:51:52.494103  5428 net.cpp:100] Creating Layer conv3_1
I0607 15:51:52.494107  5428 net.cpp:434] conv3_1 <- pool2
I0607 15:51:52.494109  5428 net.cpp:408] conv3_1 -> conv3_1
I0607 15:51:52.497592  5428 net.cpp:150] Setting up conv3_1
I0607 15:51:52.497622  5428 net.cpp:157] Top shape: 32 256 75 75 (46080000)
I0607 15:51:52.497625  5428 net.cpp:165] Memory required for data: 5160960032
I0607 15:51:52.497649  5428 layer_factory.hpp:77] Creating layer relu3_1
I0607 15:51:52.497655  5428 net.cpp:100] Creating Layer relu3_1
I0607 15:51:52.497659  5428 net.cpp:434] relu3_1 <- conv3_1
I0607 15:51:52.497664  5428 net.cpp:395] relu3_1 -> conv3_1 (in-place)
I0607 15:51:52.497870  5428 net.cpp:150] Setting up relu3_1
I0607 15:51:52.497876  5428 net.cpp:157] Top shape: 32 256 75 75 (46080000)
I0607 15:51:52.497879  5428 net.cpp:165] Memory required for data: 5345280032
I0607 15:51:52.497881  5428 layer_factory.hpp:77] Creating layer conv3_2
I0607 15:51:52.497903  5428 net.cpp:100] Creating Layer conv3_2
I0607 15:51:52.497905  5428 net.cpp:434] conv3_2 <- conv3_1
I0607 15:51:52.497910  5428 net.cpp:408] conv3_2 -> conv3_2
I0607 15:51:52.502990  5428 net.cpp:150] Setting up conv3_2
I0607 15:51:52.503012  5428 net.cpp:157] Top shape: 32 256 75 75 (46080000)
I0607 15:51:52.503015  5428 net.cpp:165] Memory required for data: 5529600032
I0607 15:51:52.503037  5428 layer_factory.hpp:77] Creating layer relu3_2
I0607 15:51:52.503044  5428 net.cpp:100] Creating Layer relu3_2
I0607 15:51:52.503047  5428 net.cpp:434] relu3_2 <- conv3_2
I0607 15:51:52.503052  5428 net.cpp:395] relu3_2 -> conv3_2 (in-place)
I0607 15:51:52.503613  5428 net.cpp:150] Setting up relu3_2
I0607 15:51:52.503623  5428 net.cpp:157] Top shape: 32 256 75 75 (46080000)
I0607 15:51:52.503649  5428 net.cpp:165] Memory required for data: 5713920032
I0607 15:51:52.503653  5428 layer_factory.hpp:77] Creating layer conv3_3
I0607 15:51:52.503665  5428 net.cpp:100] Creating Layer conv3_3
I0607 15:51:52.503669  5428 net.cpp:434] conv3_3 <- conv3_2
I0607 15:51:52.503689  5428 net.cpp:408] conv3_3 -> conv3_3
I0607 15:51:52.507755  5428 net.cpp:150] Setting up conv3_3
I0607 15:51:52.507771  5428 net.cpp:157] Top shape: 32 256 75 75 (46080000)
I0607 15:51:52.507774  5428 net.cpp:165] Memory required for data: 5898240032
I0607 15:51:52.507779  5428 layer_factory.hpp:77] Creating layer relu3_3
I0607 15:51:52.507799  5428 net.cpp:100] Creating Layer relu3_3
I0607 15:51:52.507802  5428 net.cpp:434] relu3_3 <- conv3_3
I0607 15:51:52.507807  5428 net.cpp:395] relu3_3 -> conv3_3 (in-place)
I0607 15:51:52.508340  5428 net.cpp:150] Setting up relu3_3
I0607 15:51:52.508348  5428 net.cpp:157] Top shape: 32 256 75 75 (46080000)
I0607 15:51:52.508350  5428 net.cpp:165] Memory required for data: 6082560032
I0607 15:51:52.508352  5428 layer_factory.hpp:77] Creating layer pool3
I0607 15:51:52.508358  5428 net.cpp:100] Creating Layer pool3
I0607 15:51:52.508374  5428 net.cpp:434] pool3 <- conv3_3
I0607 15:51:52.508378  5428 net.cpp:408] pool3 -> pool3
I0607 15:51:52.508453  5428 net.cpp:150] Setting up pool3
I0607 15:51:52.508473  5428 net.cpp:157] Top shape: 32 256 38 38 (11829248)
I0607 15:51:52.508476  5428 net.cpp:165] Memory required for data: 6129877024
I0607 15:51:52.508477  5428 layer_factory.hpp:77] Creating layer conv4_1
I0607 15:51:52.508499  5428 net.cpp:100] Creating Layer conv4_1
I0607 15:51:52.508502  5428 net.cpp:434] conv4_1 <- pool3
I0607 15:51:52.508518  5428 net.cpp:408] conv4_1 -> conv4_1
I0607 15:51:52.517004  5428 net.cpp:150] Setting up conv4_1
I0607 15:51:52.517024  5428 net.cpp:157] Top shape: 32 512 38 38 (23658496)
I0607 15:51:52.517026  5428 net.cpp:165] Memory required for data: 6224511008
I0607 15:51:52.517048  5428 layer_factory.hpp:77] Creating layer relu4_1
I0607 15:51:52.517055  5428 net.cpp:100] Creating Layer relu4_1
I0607 15:51:52.517058  5428 net.cpp:434] relu4_1 <- conv4_1
I0607 15:51:52.517063  5428 net.cpp:395] relu4_1 -> conv4_1 (in-place)
I0607 15:51:52.517240  5428 net.cpp:150] Setting up relu4_1
I0607 15:51:52.517246  5428 net.cpp:157] Top shape: 32 512 38 38 (23658496)
I0607 15:51:52.517248  5428 net.cpp:165] Memory required for data: 6319144992
I0607 15:51:52.517251  5428 layer_factory.hpp:77] Creating layer conv4_2
I0607 15:51:52.517257  5428 net.cpp:100] Creating Layer conv4_2
I0607 15:51:52.517274  5428 net.cpp:434] conv4_2 <- conv4_1
I0607 15:51:52.517279  5428 net.cpp:408] conv4_2 -> conv4_2
I0607 15:51:52.529232  5428 net.cpp:150] Setting up conv4_2
I0607 15:51:52.529253  5428 net.cpp:157] Top shape: 32 512 38 38 (23658496)
I0607 15:51:52.529255  5428 net.cpp:165] Memory required for data: 6413778976
I0607 15:51:52.529280  5428 layer_factory.hpp:77] Creating layer relu4_2
I0607 15:51:52.529301  5428 net.cpp:100] Creating Layer relu4_2
I0607 15:51:52.529304  5428 net.cpp:434] relu4_2 <- conv4_2
I0607 15:51:52.529311  5428 net.cpp:395] relu4_2 -> conv4_2 (in-place)
I0607 15:51:52.529809  5428 net.cpp:150] Setting up relu4_2
I0607 15:51:52.529817  5428 net.cpp:157] Top shape: 32 512 38 38 (23658496)
I0607 15:51:52.529819  5428 net.cpp:165] Memory required for data: 6508412960
I0607 15:51:52.529822  5428 layer_factory.hpp:77] Creating layer conv4_3
I0607 15:51:52.529844  5428 net.cpp:100] Creating Layer conv4_3
I0607 15:51:52.529846  5428 net.cpp:434] conv4_3 <- conv4_2
I0607 15:51:52.529851  5428 net.cpp:408] conv4_3 -> conv4_3
I0607 15:51:52.541456  5428 net.cpp:150] Setting up conv4_3
I0607 15:51:52.541476  5428 net.cpp:157] Top shape: 32 512 38 38 (23658496)
I0607 15:51:52.541478  5428 net.cpp:165] Memory required for data: 6603046944
I0607 15:51:52.541498  5428 layer_factory.hpp:77] Creating layer relu4_3
I0607 15:51:52.541504  5428 net.cpp:100] Creating Layer relu4_3
I0607 15:51:52.541507  5428 net.cpp:434] relu4_3 <- conv4_3
I0607 15:51:52.541512  5428 net.cpp:395] relu4_3 -> conv4_3 (in-place)
I0607 15:51:52.542078  5428 net.cpp:150] Setting up relu4_3
I0607 15:51:52.542084  5428 net.cpp:157] Top shape: 32 512 38 38 (23658496)
I0607 15:51:52.542086  5428 net.cpp:165] Memory required for data: 6697680928
I0607 15:51:52.542089  5428 layer_factory.hpp:77] Creating layer conv4_3_relu4_3_0_split
I0607 15:51:52.542093  5428 net.cpp:100] Creating Layer conv4_3_relu4_3_0_split
I0607 15:51:52.542094  5428 net.cpp:434] conv4_3_relu4_3_0_split <- conv4_3
I0607 15:51:52.542114  5428 net.cpp:408] conv4_3_relu4_3_0_split -> conv4_3_relu4_3_0_split_0
I0607 15:51:52.542119  5428 net.cpp:408] conv4_3_relu4_3_0_split -> conv4_3_relu4_3_0_split_1
I0607 15:51:52.542194  5428 net.cpp:150] Setting up conv4_3_relu4_3_0_split
I0607 15:51:52.542201  5428 net.cpp:157] Top shape: 32 512 38 38 (23658496)
I0607 15:51:52.542215  5428 net.cpp:157] Top shape: 32 512 38 38 (23658496)
I0607 15:51:52.542217  5428 net.cpp:165] Memory required for data: 6886948896
I0607 15:51:52.542219  5428 layer_factory.hpp:77] Creating layer pool4
I0607 15:51:52.542237  5428 net.cpp:100] Creating Layer pool4
I0607 15:51:52.542240  5428 net.cpp:434] pool4 <- conv4_3_relu4_3_0_split_0
I0607 15:51:52.542245  5428 net.cpp:408] pool4 -> pool4
I0607 15:51:52.542284  5428 net.cpp:150] Setting up pool4
I0607 15:51:52.542289  5428 net.cpp:157] Top shape: 32 512 19 19 (5914624)
I0607 15:51:52.542291  5428 net.cpp:165] Memory required for data: 6910607392
I0607 15:51:52.542294  5428 layer_factory.hpp:77] Creating layer conv5_1
I0607 15:51:52.542300  5428 net.cpp:100] Creating Layer conv5_1
I0607 15:51:52.542304  5428 net.cpp:434] conv5_1 <- pool4
I0607 15:51:52.542307  5428 net.cpp:408] conv5_1 -> conv5_1
I0607 15:51:52.555335  5428 net.cpp:150] Setting up conv5_1
I0607 15:51:52.555357  5428 net.cpp:157] Top shape: 32 512 19 19 (5914624)
I0607 15:51:52.555359  5428 net.cpp:165] Memory required for data: 6934265888
I0607 15:51:52.555380  5428 layer_factory.hpp:77] Creating layer relu5_1
I0607 15:51:52.555387  5428 net.cpp:100] Creating Layer relu5_1
I0607 15:51:52.555403  5428 net.cpp:434] relu5_1 <- conv5_1
I0607 15:51:52.555408  5428 net.cpp:395] relu5_1 -> conv5_1 (in-place)
I0607 15:51:52.555578  5428 net.cpp:150] Setting up relu5_1
I0607 15:51:52.555584  5428 net.cpp:157] Top shape: 32 512 19 19 (5914624)
I0607 15:51:52.555586  5428 net.cpp:165] Memory required for data: 6957924384
I0607 15:51:52.555588  5428 layer_factory.hpp:77] Creating layer conv5_2
I0607 15:51:52.555596  5428 net.cpp:100] Creating Layer conv5_2
I0607 15:51:52.555613  5428 net.cpp:434] conv5_2 <- conv5_1
I0607 15:51:52.555618  5428 net.cpp:408] conv5_2 -> conv5_2
I0607 15:51:52.567637  5428 net.cpp:150] Setting up conv5_2
I0607 15:51:52.567659  5428 net.cpp:157] Top shape: 32 512 19 19 (5914624)
I0607 15:51:52.567662  5428 net.cpp:165] Memory required for data: 6981582880
I0607 15:51:52.567683  5428 layer_factory.hpp:77] Creating layer relu5_2
I0607 15:51:52.567690  5428 net.cpp:100] Creating Layer relu5_2
I0607 15:51:52.567694  5428 net.cpp:434] relu5_2 <- conv5_2
I0607 15:51:52.567698  5428 net.cpp:395] relu5_2 -> conv5_2 (in-place)
I0607 15:51:52.568212  5428 net.cpp:150] Setting up relu5_2
I0607 15:51:52.568219  5428 net.cpp:157] Top shape: 32 512 19 19 (5914624)
I0607 15:51:52.568222  5428 net.cpp:165] Memory required for data: 7005241376
I0607 15:51:52.568224  5428 layer_factory.hpp:77] Creating layer conv5_3
I0607 15:51:52.568248  5428 net.cpp:100] Creating Layer conv5_3
I0607 15:51:52.568250  5428 net.cpp:434] conv5_3 <- conv5_2
I0607 15:51:52.568254  5428 net.cpp:408] conv5_3 -> conv5_3
I0607 15:51:52.580374  5428 net.cpp:150] Setting up conv5_3
I0607 15:51:52.580394  5428 net.cpp:157] Top shape: 32 512 19 19 (5914624)
I0607 15:51:52.580396  5428 net.cpp:165] Memory required for data: 7028899872
I0607 15:51:52.580417  5428 layer_factory.hpp:77] Creating layer relu5_3
I0607 15:51:52.580441  5428 net.cpp:100] Creating Layer relu5_3
I0607 15:51:52.580445  5428 net.cpp:434] relu5_3 <- conv5_3
I0607 15:51:52.580449  5428 net.cpp:395] relu5_3 -> conv5_3 (in-place)
I0607 15:51:52.581106  5428 net.cpp:150] Setting up relu5_3
I0607 15:51:52.581117  5428 net.cpp:157] Top shape: 32 512 19 19 (5914624)
I0607 15:51:52.581120  5428 net.cpp:165] Memory required for data: 7052558368
I0607 15:51:52.581123  5428 layer_factory.hpp:77] Creating layer pool5
I0607 15:51:52.581142  5428 net.cpp:100] Creating Layer pool5
I0607 15:51:52.581145  5428 net.cpp:434] pool5 <- conv5_3
I0607 15:51:52.581149  5428 net.cpp:408] pool5 -> pool5
I0607 15:51:52.581229  5428 net.cpp:150] Setting up pool5
I0607 15:51:52.581249  5428 net.cpp:157] Top shape: 32 512 19 19 (5914624)
I0607 15:51:52.581251  5428 net.cpp:165] Memory required for data: 7076216864
I0607 15:51:52.581254  5428 layer_factory.hpp:77] Creating layer fc6
I0607 15:51:52.581261  5428 net.cpp:100] Creating Layer fc6
I0607 15:51:52.581279  5428 net.cpp:434] fc6 <- pool5
I0607 15:51:52.581282  5428 net.cpp:408] fc6 -> fc6
I0607 15:51:52.603402  5428 net.cpp:150] Setting up fc6
I0607 15:51:52.603420  5428 net.cpp:157] Top shape: 32 1024 19 19 (11829248)
I0607 15:51:52.603422  5428 net.cpp:165] Memory required for data: 7123533856
I0607 15:51:52.603443  5428 layer_factory.hpp:77] Creating layer relu6
I0607 15:51:52.603451  5428 net.cpp:100] Creating Layer relu6
I0607 15:51:52.603453  5428 net.cpp:434] relu6 <- fc6
I0607 15:51:52.603457  5428 net.cpp:395] relu6 -> fc6 (in-place)
I0607 15:51:52.603701  5428 net.cpp:150] Setting up relu6
I0607 15:51:52.603708  5428 net.cpp:157] Top shape: 32 1024 19 19 (11829248)
I0607 15:51:52.603710  5428 net.cpp:165] Memory required for data: 7170850848
I0607 15:51:52.603713  5428 layer_factory.hpp:77] Creating layer fc7
I0607 15:51:52.603719  5428 net.cpp:100] Creating Layer fc7
I0607 15:51:52.603737  5428 net.cpp:434] fc7 <- fc6
I0607 15:51:52.603741  5428 net.cpp:408] fc7 -> fc7
I0607 15:51:52.610108  5428 net.cpp:150] Setting up fc7
I0607 15:51:52.610128  5428 net.cpp:157] Top shape: 32 1024 19 19 (11829248)
I0607 15:51:52.610131  5428 net.cpp:165] Memory required for data: 7218167840
I0607 15:51:52.610152  5428 layer_factory.hpp:77] Creating layer relu7
I0607 15:51:52.610162  5428 net.cpp:100] Creating Layer relu7
I0607 15:51:52.610167  5428 net.cpp:434] relu7 <- fc7
I0607 15:51:52.610172  5428 net.cpp:395] relu7 -> fc7 (in-place)
I0607 15:51:52.610762  5428 net.cpp:150] Setting up relu7
I0607 15:51:52.610770  5428 net.cpp:157] Top shape: 32 1024 19 19 (11829248)
I0607 15:51:52.610772  5428 net.cpp:165] Memory required for data: 7265484832
I0607 15:51:52.610775  5428 layer_factory.hpp:77] Creating layer fc7_relu7_0_split
I0607 15:51:52.610780  5428 net.cpp:100] Creating Layer fc7_relu7_0_split
I0607 15:51:52.610797  5428 net.cpp:434] fc7_relu7_0_split <- fc7
I0607 15:51:52.610801  5428 net.cpp:408] fc7_relu7_0_split -> fc7_relu7_0_split_0
I0607 15:51:52.610807  5428 net.cpp:408] fc7_relu7_0_split -> fc7_relu7_0_split_1
I0607 15:51:52.610816  5428 net.cpp:408] fc7_relu7_0_split -> fc7_relu7_0_split_2
I0607 15:51:52.610836  5428 net.cpp:408] fc7_relu7_0_split -> fc7_relu7_0_split_3
I0607 15:51:52.610942  5428 net.cpp:150] Setting up fc7_relu7_0_split
I0607 15:51:52.610947  5428 net.cpp:157] Top shape: 32 1024 19 19 (11829248)
I0607 15:51:52.610950  5428 net.cpp:157] Top shape: 32 1024 19 19 (11829248)
I0607 15:51:52.610952  5428 net.cpp:157] Top shape: 32 1024 19 19 (11829248)
I0607 15:51:52.610955  5428 net.cpp:157] Top shape: 32 1024 19 19 (11829248)
I0607 15:51:52.610957  5428 net.cpp:165] Memory required for data: 7454752800
I0607 15:51:52.610960  5428 layer_factory.hpp:77] Creating layer conv6_1
I0607 15:51:52.610980  5428 net.cpp:100] Creating Layer conv6_1
I0607 15:51:52.610983  5428 net.cpp:434] conv6_1 <- fc7_relu7_0_split_0
I0607 15:51:52.610988  5428 net.cpp:408] conv6_1 -> conv6_1
I0607 15:51:52.614421  5428 net.cpp:150] Setting up conv6_1
I0607 15:51:52.614437  5428 net.cpp:157] Top shape: 32 256 19 19 (2957312)
I0607 15:51:52.614439  5428 net.cpp:165] Memory required for data: 7466582048
I0607 15:51:52.614460  5428 layer_factory.hpp:77] Creating layer conv6_1_relu
I0607 15:51:52.614467  5428 net.cpp:100] Creating Layer conv6_1_relu
I0607 15:51:52.614496  5428 net.cpp:434] conv6_1_relu <- conv6_1
I0607 15:51:52.614516  5428 net.cpp:395] conv6_1_relu -> conv6_1 (in-place)
I0607 15:51:52.614717  5428 net.cpp:150] Setting up conv6_1_relu
I0607 15:51:52.614723  5428 net.cpp:157] Top shape: 32 256 19 19 (2957312)
I0607 15:51:52.614725  5428 net.cpp:165] Memory required for data: 7478411296
I0607 15:51:52.614727  5428 layer_factory.hpp:77] Creating layer conv6_2
I0607 15:51:52.614735  5428 net.cpp:100] Creating Layer conv6_2
I0607 15:51:52.614738  5428 net.cpp:434] conv6_2 <- conv6_1
I0607 15:51:52.614743  5428 net.cpp:408] conv6_2 -> conv6_2
I0607 15:51:52.621543  5428 net.cpp:150] Setting up conv6_2
I0607 15:51:52.621561  5428 net.cpp:157] Top shape: 32 512 10 10 (1638400)
I0607 15:51:52.621562  5428 net.cpp:165] Memory required for data: 7484964896
I0607 15:51:52.621589  5428 layer_factory.hpp:77] Creating layer conv6_2_relu
I0607 15:51:52.621596  5428 net.cpp:100] Creating Layer conv6_2_relu
I0607 15:51:52.621613  5428 net.cpp:434] conv6_2_relu <- conv6_2
I0607 15:51:52.621618  5428 net.cpp:395] conv6_2_relu -> conv6_2 (in-place)
I0607 15:51:52.621805  5428 net.cpp:150] Setting up conv6_2_relu
I0607 15:51:52.621811  5428 net.cpp:157] Top shape: 32 512 10 10 (1638400)
I0607 15:51:52.621814  5428 net.cpp:165] Memory required for data: 7491518496
I0607 15:51:52.621815  5428 layer_factory.hpp:77] Creating layer conv6_2_conv6_2_relu_0_split
I0607 15:51:52.621820  5428 net.cpp:100] Creating Layer conv6_2_conv6_2_relu_0_split
I0607 15:51:52.621822  5428 net.cpp:434] conv6_2_conv6_2_relu_0_split <- conv6_2
I0607 15:51:52.621840  5428 net.cpp:408] conv6_2_conv6_2_relu_0_split -> conv6_2_conv6_2_relu_0_split_0
I0607 15:51:52.621845  5428 net.cpp:408] conv6_2_conv6_2_relu_0_split -> conv6_2_conv6_2_relu_0_split_1
I0607 15:51:52.621850  5428 net.cpp:408] conv6_2_conv6_2_relu_0_split -> conv6_2_conv6_2_relu_0_split_2
I0607 15:51:52.621853  5428 net.cpp:408] conv6_2_conv6_2_relu_0_split -> conv6_2_conv6_2_relu_0_split_3
I0607 15:51:52.621934  5428 net.cpp:150] Setting up conv6_2_conv6_2_relu_0_split
I0607 15:51:52.621939  5428 net.cpp:157] Top shape: 32 512 10 10 (1638400)
I0607 15:51:52.621942  5428 net.cpp:157] Top shape: 32 512 10 10 (1638400)
I0607 15:51:52.621944  5428 net.cpp:157] Top shape: 32 512 10 10 (1638400)
I0607 15:51:52.621948  5428 net.cpp:157] Top shape: 32 512 10 10 (1638400)
I0607 15:51:52.621950  5428 net.cpp:165] Memory required for data: 7517732896
I0607 15:51:52.621953  5428 layer_factory.hpp:77] Creating layer conv7_1
I0607 15:51:52.621961  5428 net.cpp:100] Creating Layer conv7_1
I0607 15:51:52.621965  5428 net.cpp:434] conv7_1 <- conv6_2_conv6_2_relu_0_split_0
I0607 15:51:52.621970  5428 net.cpp:408] conv7_1 -> conv7_1
I0607 15:51:52.623502  5428 net.cpp:150] Setting up conv7_1
I0607 15:51:52.623512  5428 net.cpp:157] Top shape: 32 128 10 10 (409600)
I0607 15:51:52.623514  5428 net.cpp:165] Memory required for data: 7519371296
I0607 15:51:52.623519  5428 layer_factory.hpp:77] Creating layer conv7_1_relu
I0607 15:51:52.623524  5428 net.cpp:100] Creating Layer conv7_1_relu
I0607 15:51:52.623543  5428 net.cpp:434] conv7_1_relu <- conv7_1
I0607 15:51:52.623548  5428 net.cpp:395] conv7_1_relu -> conv7_1 (in-place)
I0607 15:51:52.624030  5428 net.cpp:150] Setting up conv7_1_relu
I0607 15:51:52.624037  5428 net.cpp:157] Top shape: 32 128 10 10 (409600)
I0607 15:51:52.624040  5428 net.cpp:165] Memory required for data: 7521009696
I0607 15:51:52.624043  5428 layer_factory.hpp:77] Creating layer conv7_2
I0607 15:51:52.624050  5428 net.cpp:100] Creating Layer conv7_2
I0607 15:51:52.624069  5428 net.cpp:434] conv7_2 <- conv7_1
I0607 15:51:52.624074  5428 net.cpp:408] conv7_2 -> conv7_2
I0607 15:51:52.626807  5428 net.cpp:150] Setting up conv7_2
I0607 15:51:52.626819  5428 net.cpp:157] Top shape: 32 256 5 5 (204800)
I0607 15:51:52.626821  5428 net.cpp:165] Memory required for data: 7521828896
I0607 15:51:52.626826  5428 layer_factory.hpp:77] Creating layer conv7_2_relu
I0607 15:51:52.626844  5428 net.cpp:100] Creating Layer conv7_2_relu
I0607 15:51:52.626860  5428 net.cpp:434] conv7_2_relu <- conv7_2
I0607 15:51:52.626864  5428 net.cpp:395] conv7_2_relu -> conv7_2 (in-place)
I0607 15:51:52.627058  5428 net.cpp:150] Setting up conv7_2_relu
I0607 15:51:52.627064  5428 net.cpp:157] Top shape: 32 256 5 5 (204800)
I0607 15:51:52.627065  5428 net.cpp:165] Memory required for data: 7522648096
I0607 15:51:52.627068  5428 layer_factory.hpp:77] Creating layer conv7_2_conv7_2_relu_0_split
I0607 15:51:52.627073  5428 net.cpp:100] Creating Layer conv7_2_conv7_2_relu_0_split
I0607 15:51:52.627074  5428 net.cpp:434] conv7_2_conv7_2_relu_0_split <- conv7_2
I0607 15:51:52.627094  5428 net.cpp:408] conv7_2_conv7_2_relu_0_split -> conv7_2_conv7_2_relu_0_split_0
I0607 15:51:52.627099  5428 net.cpp:408] conv7_2_conv7_2_relu_0_split -> conv7_2_conv7_2_relu_0_split_1
I0607 15:51:52.627104  5428 net.cpp:408] conv7_2_conv7_2_relu_0_split -> conv7_2_conv7_2_relu_0_split_2
I0607 15:51:52.627110  5428 net.cpp:408] conv7_2_conv7_2_relu_0_split -> conv7_2_conv7_2_relu_0_split_3
I0607 15:51:52.627202  5428 net.cpp:150] Setting up conv7_2_conv7_2_relu_0_split
I0607 15:51:52.627218  5428 net.cpp:157] Top shape: 32 256 5 5 (204800)
I0607 15:51:52.627221  5428 net.cpp:157] Top shape: 32 256 5 5 (204800)
I0607 15:51:52.627224  5428 net.cpp:157] Top shape: 32 256 5 5 (204800)
I0607 15:51:52.627228  5428 net.cpp:157] Top shape: 32 256 5 5 (204800)
I0607 15:51:52.627230  5428 net.cpp:165] Memory required for data: 7525924896
I0607 15:51:52.627233  5428 layer_factory.hpp:77] Creating layer conv8_1
I0607 15:51:52.627254  5428 net.cpp:100] Creating Layer conv8_1
I0607 15:51:52.627257  5428 net.cpp:434] conv8_1 <- conv7_2_conv7_2_relu_0_split_0
I0607 15:51:52.627275  5428 net.cpp:408] conv8_1 -> conv8_1
I0607 15:51:52.628737  5428 net.cpp:150] Setting up conv8_1
I0607 15:51:52.628758  5428 net.cpp:157] Top shape: 32 128 5 5 (102400)
I0607 15:51:52.628779  5428 net.cpp:165] Memory required for data: 7526334496
I0607 15:51:52.628789  5428 layer_factory.hpp:77] Creating layer conv8_1_relu
I0607 15:51:52.628799  5428 net.cpp:100] Creating Layer conv8_1_relu
I0607 15:51:52.628808  5428 net.cpp:434] conv8_1_relu <- conv8_1
I0607 15:51:52.628818  5428 net.cpp:395] conv8_1_relu -> conv8_1 (in-place)
I0607 15:51:52.628957  5428 net.cpp:150] Setting up conv8_1_relu
I0607 15:51:52.628969  5428 net.cpp:157] Top shape: 32 128 5 5 (102400)
I0607 15:51:52.628976  5428 net.cpp:165] Memory required for data: 7526744096
I0607 15:51:52.628984  5428 layer_factory.hpp:77] Creating layer conv8_2
I0607 15:51:52.628998  5428 net.cpp:100] Creating Layer conv8_2
I0607 15:51:52.629005  5428 net.cpp:434] conv8_2 <- conv8_1
I0607 15:51:52.629015  5428 net.cpp:408] conv8_2 -> conv8_2
I0607 15:51:52.631943  5428 net.cpp:150] Setting up conv8_2
I0607 15:51:52.631973  5428 net.cpp:157] Top shape: 32 256 3 3 (73728)
I0607 15:51:52.631980  5428 net.cpp:165] Memory required for data: 7527039008
I0607 15:51:52.631991  5428 layer_factory.hpp:77] Creating layer conv8_2_relu
I0607 15:51:52.632002  5428 net.cpp:100] Creating Layer conv8_2_relu
I0607 15:51:52.632011  5428 net.cpp:434] conv8_2_relu <- conv8_2
I0607 15:51:52.632020  5428 net.cpp:395] conv8_2_relu -> conv8_2 (in-place)
I0607 15:51:52.632517  5428 net.cpp:150] Setting up conv8_2_relu
I0607 15:51:52.632534  5428 net.cpp:157] Top shape: 32 256 3 3 (73728)
I0607 15:51:52.632540  5428 net.cpp:165] Memory required for data: 7527333920
I0607 15:51:52.632549  5428 layer_factory.hpp:77] Creating layer conv8_2_conv8_2_relu_0_split
I0607 15:51:52.632560  5428 net.cpp:100] Creating Layer conv8_2_conv8_2_relu_0_split
I0607 15:51:52.632567  5428 net.cpp:434] conv8_2_conv8_2_relu_0_split <- conv8_2
I0607 15:51:52.632578  5428 net.cpp:408] conv8_2_conv8_2_relu_0_split -> conv8_2_conv8_2_relu_0_split_0
I0607 15:51:52.632589  5428 net.cpp:408] conv8_2_conv8_2_relu_0_split -> conv8_2_conv8_2_relu_0_split_1
I0607 15:51:52.632601  5428 net.cpp:408] conv8_2_conv8_2_relu_0_split -> conv8_2_conv8_2_relu_0_split_2
I0607 15:51:52.632616  5428 net.cpp:408] conv8_2_conv8_2_relu_0_split -> conv8_2_conv8_2_relu_0_split_3
I0607 15:51:52.632689  5428 net.cpp:150] Setting up conv8_2_conv8_2_relu_0_split
I0607 15:51:52.632700  5428 net.cpp:157] Top shape: 32 256 3 3 (73728)
I0607 15:51:52.632709  5428 net.cpp:157] Top shape: 32 256 3 3 (73728)
I0607 15:51:52.632717  5428 net.cpp:157] Top shape: 32 256 3 3 (73728)
I0607 15:51:52.632725  5428 net.cpp:157] Top shape: 32 256 3 3 (73728)
I0607 15:51:52.632731  5428 net.cpp:165] Memory required for data: 7528513568
I0607 15:51:52.632740  5428 layer_factory.hpp:77] Creating layer conv9_1
I0607 15:51:52.632752  5428 net.cpp:100] Creating Layer conv9_1
I0607 15:51:52.632761  5428 net.cpp:434] conv9_1 <- conv8_2_conv8_2_relu_0_split_0
I0607 15:51:52.632772  5428 net.cpp:408] conv9_1 -> conv9_1
I0607 15:51:52.634279  5428 net.cpp:150] Setting up conv9_1
I0607 15:51:52.634287  5428 net.cpp:157] Top shape: 32 128 3 3 (36864)
I0607 15:51:52.634289  5428 net.cpp:165] Memory required for data: 7528661024
I0607 15:51:52.634294  5428 layer_factory.hpp:77] Creating layer conv9_1_relu
I0607 15:51:52.634299  5428 net.cpp:100] Creating Layer conv9_1_relu
I0607 15:51:52.634315  5428 net.cpp:434] conv9_1_relu <- conv9_1
I0607 15:51:52.634318  5428 net.cpp:395] conv9_1_relu -> conv9_1 (in-place)
I0607 15:51:52.634502  5428 net.cpp:150] Setting up conv9_1_relu
I0607 15:51:52.634508  5428 net.cpp:157] Top shape: 32 128 3 3 (36864)
I0607 15:51:52.634510  5428 net.cpp:165] Memory required for data: 7528808480
I0607 15:51:52.634512  5428 layer_factory.hpp:77] Creating layer conv9_2
I0607 15:51:52.634518  5428 net.cpp:100] Creating Layer conv9_2
I0607 15:51:52.634533  5428 net.cpp:434] conv9_2 <- conv9_1
I0607 15:51:52.634538  5428 net.cpp:408] conv9_2 -> conv9_2
I0607 15:51:52.637431  5428 net.cpp:150] Setting up conv9_2
I0607 15:51:52.637442  5428 net.cpp:157] Top shape: 32 256 1 1 (8192)
I0607 15:51:52.637445  5428 net.cpp:165] Memory required for data: 7528841248
I0607 15:51:52.637450  5428 layer_factory.hpp:77] Creating layer conv9_2_relu
I0607 15:51:52.637470  5428 net.cpp:100] Creating Layer conv9_2_relu
I0607 15:51:52.637472  5428 net.cpp:434] conv9_2_relu <- conv9_2
I0607 15:51:52.637476  5428 net.cpp:395] conv9_2_relu -> conv9_2 (in-place)
I0607 15:51:52.637678  5428 net.cpp:150] Setting up conv9_2_relu
I0607 15:51:52.637683  5428 net.cpp:157] Top shape: 32 256 1 1 (8192)
I0607 15:51:52.637686  5428 net.cpp:165] Memory required for data: 7528874016
I0607 15:51:52.637688  5428 layer_factory.hpp:77] Creating layer conv9_2_conv9_2_relu_0_split
I0607 15:51:52.637692  5428 net.cpp:100] Creating Layer conv9_2_conv9_2_relu_0_split
I0607 15:51:52.637696  5428 net.cpp:434] conv9_2_conv9_2_relu_0_split <- conv9_2
I0607 15:51:52.637713  5428 net.cpp:408] conv9_2_conv9_2_relu_0_split -> conv9_2_conv9_2_relu_0_split_0
I0607 15:51:52.637718  5428 net.cpp:408] conv9_2_conv9_2_relu_0_split -> conv9_2_conv9_2_relu_0_split_1
I0607 15:51:52.637722  5428 net.cpp:408] conv9_2_conv9_2_relu_0_split -> conv9_2_conv9_2_relu_0_split_2
I0607 15:51:52.637818  5428 net.cpp:150] Setting up conv9_2_conv9_2_relu_0_split
I0607 15:51:52.637823  5428 net.cpp:157] Top shape: 32 256 1 1 (8192)
I0607 15:51:52.637826  5428 net.cpp:157] Top shape: 32 256 1 1 (8192)
I0607 15:51:52.637830  5428 net.cpp:157] Top shape: 32 256 1 1 (8192)
I0607 15:51:52.637830  5428 net.cpp:165] Memory required for data: 7528972320
I0607 15:51:52.637832  5428 layer_factory.hpp:77] Creating layer conv4_3_norm
I0607 15:51:52.637852  5428 net.cpp:100] Creating Layer conv4_3_norm
I0607 15:51:52.637856  5428 net.cpp:434] conv4_3_norm <- conv4_3_relu4_3_0_split_1
I0607 15:51:52.637861  5428 net.cpp:408] conv4_3_norm -> conv4_3_norm
I0607 15:51:52.638015  5428 net.cpp:150] Setting up conv4_3_norm
I0607 15:51:52.638020  5428 net.cpp:157] Top shape: 32 512 38 38 (23658496)
I0607 15:51:52.638021  5428 net.cpp:165] Memory required for data: 7623606304
I0607 15:51:52.638025  5428 layer_factory.hpp:77] Creating layer conv4_3_norm_conv4_3_norm_0_split
I0607 15:51:52.638027  5428 net.cpp:100] Creating Layer conv4_3_norm_conv4_3_norm_0_split
I0607 15:51:52.638053  5428 net.cpp:434] conv4_3_norm_conv4_3_norm_0_split <- conv4_3_norm
I0607 15:51:52.638057  5428 net.cpp:408] conv4_3_norm_conv4_3_norm_0_split -> conv4_3_norm_conv4_3_norm_0_split_0
I0607 15:51:52.638062  5428 net.cpp:408] conv4_3_norm_conv4_3_norm_0_split -> conv4_3_norm_conv4_3_norm_0_split_1
I0607 15:51:52.638064  5428 net.cpp:408] conv4_3_norm_conv4_3_norm_0_split -> conv4_3_norm_conv4_3_norm_0_split_2
I0607 15:51:52.638142  5428 net.cpp:150] Setting up conv4_3_norm_conv4_3_norm_0_split
I0607 15:51:52.638146  5428 net.cpp:157] Top shape: 32 512 38 38 (23658496)
I0607 15:51:52.638149  5428 net.cpp:157] Top shape: 32 512 38 38 (23658496)
I0607 15:51:52.638151  5428 net.cpp:157] Top shape: 32 512 38 38 (23658496)
I0607 15:51:52.638154  5428 net.cpp:165] Memory required for data: 7907508256
I0607 15:51:52.638159  5428 layer_factory.hpp:77] Creating layer conv4_3_norm_mbox_loc
I0607 15:51:52.638165  5428 net.cpp:100] Creating Layer conv4_3_norm_mbox_loc
I0607 15:51:52.638167  5428 net.cpp:434] conv4_3_norm_mbox_loc <- conv4_3_norm_conv4_3_norm_0_split_0
I0607 15:51:52.638173  5428 net.cpp:408] conv4_3_norm_mbox_loc -> conv4_3_norm_mbox_loc
I0607 15:51:52.640409  5428 net.cpp:150] Setting up conv4_3_norm_mbox_loc
I0607 15:51:52.640419  5428 net.cpp:157] Top shape: 32 16 38 38 (739328)
I0607 15:51:52.640421  5428 net.cpp:165] Memory required for data: 7910465568
I0607 15:51:52.640425  5428 layer_factory.hpp:77] Creating layer conv4_3_norm_mbox_loc_perm
I0607 15:51:52.640444  5428 net.cpp:100] Creating Layer conv4_3_norm_mbox_loc_perm
I0607 15:51:52.640445  5428 net.cpp:434] conv4_3_norm_mbox_loc_perm <- conv4_3_norm_mbox_loc
I0607 15:51:52.640450  5428 net.cpp:408] conv4_3_norm_mbox_loc_perm -> conv4_3_norm_mbox_loc_perm
I0607 15:51:52.640592  5428 net.cpp:150] Setting up conv4_3_norm_mbox_loc_perm
I0607 15:51:52.640597  5428 net.cpp:157] Top shape: 32 38 38 16 (739328)
I0607 15:51:52.640599  5428 net.cpp:165] Memory required for data: 7913422880
I0607 15:51:52.640600  5428 layer_factory.hpp:77] Creating layer conv4_3_norm_mbox_loc_flat
I0607 15:51:52.640606  5428 net.cpp:100] Creating Layer conv4_3_norm_mbox_loc_flat
I0607 15:51:52.640609  5428 net.cpp:434] conv4_3_norm_mbox_loc_flat <- conv4_3_norm_mbox_loc_perm
I0607 15:51:52.640625  5428 net.cpp:408] conv4_3_norm_mbox_loc_flat -> conv4_3_norm_mbox_loc_flat
I0607 15:51:52.640677  5428 net.cpp:150] Setting up conv4_3_norm_mbox_loc_flat
I0607 15:51:52.640683  5428 net.cpp:157] Top shape: 32 23104 (739328)
I0607 15:51:52.640700  5428 net.cpp:165] Memory required for data: 7916380192
I0607 15:51:52.640702  5428 layer_factory.hpp:77] Creating layer conv4_3_norm_mbox_conf
I0607 15:51:52.640728  5428 net.cpp:100] Creating Layer conv4_3_norm_mbox_conf
I0607 15:51:52.640733  5428 net.cpp:434] conv4_3_norm_mbox_conf <- conv4_3_norm_conv4_3_norm_0_split_1
I0607 15:51:52.640736  5428 net.cpp:408] conv4_3_norm_mbox_conf -> conv4_3_norm_mbox_conf
I0607 15:51:52.643013  5428 net.cpp:150] Setting up conv4_3_norm_mbox_conf
I0607 15:51:52.643028  5428 net.cpp:157] Top shape: 32 12 38 38 (554496)
I0607 15:51:52.643030  5428 net.cpp:165] Memory required for data: 7918598176
I0607 15:51:52.643052  5428 layer_factory.hpp:77] Creating layer conv4_3_norm_mbox_conf_perm
I0607 15:51:52.643059  5428 net.cpp:100] Creating Layer conv4_3_norm_mbox_conf_perm
I0607 15:51:52.643064  5428 net.cpp:434] conv4_3_norm_mbox_conf_perm <- conv4_3_norm_mbox_conf
I0607 15:51:52.643081  5428 net.cpp:408] conv4_3_norm_mbox_conf_perm -> conv4_3_norm_mbox_conf_perm
I0607 15:51:52.643187  5428 net.cpp:150] Setting up conv4_3_norm_mbox_conf_perm
I0607 15:51:52.643193  5428 net.cpp:157] Top shape: 32 38 38 12 (554496)
I0607 15:51:52.643194  5428 net.cpp:165] Memory required for data: 7920816160
I0607 15:51:52.643196  5428 layer_factory.hpp:77] Creating layer conv4_3_norm_mbox_conf_flat
I0607 15:51:52.643201  5428 net.cpp:100] Creating Layer conv4_3_norm_mbox_conf_flat
I0607 15:51:52.643219  5428 net.cpp:434] conv4_3_norm_mbox_conf_flat <- conv4_3_norm_mbox_conf_perm
I0607 15:51:52.643223  5428 net.cpp:408] conv4_3_norm_mbox_conf_flat -> conv4_3_norm_mbox_conf_flat
I0607 15:51:52.643266  5428 net.cpp:150] Setting up conv4_3_norm_mbox_conf_flat
I0607 15:51:52.643270  5428 net.cpp:157] Top shape: 32 17328 (554496)
I0607 15:51:52.643272  5428 net.cpp:165] Memory required for data: 7923034144
I0607 15:51:52.643275  5428 layer_factory.hpp:77] Creating layer conv4_3_norm_mbox_priorbox
I0607 15:51:52.643280  5428 net.cpp:100] Creating Layer conv4_3_norm_mbox_priorbox
I0607 15:51:52.643283  5428 net.cpp:434] conv4_3_norm_mbox_priorbox <- conv4_3_norm_conv4_3_norm_0_split_2
I0607 15:51:52.643286  5428 net.cpp:434] conv4_3_norm_mbox_priorbox <- data_data_0_split_1
I0607 15:51:52.643290  5428 net.cpp:408] conv4_3_norm_mbox_priorbox -> conv4_3_norm_mbox_priorbox
I0607 15:51:52.643332  5428 net.cpp:150] Setting up conv4_3_norm_mbox_priorbox
I0607 15:51:52.643348  5428 net.cpp:157] Top shape: 1 2 23104 (46208)
I0607 15:51:52.643350  5428 net.cpp:165] Memory required for data: 7923218976
I0607 15:51:52.643352  5428 layer_factory.hpp:77] Creating layer fc7_mbox_loc
I0607 15:51:52.643360  5428 net.cpp:100] Creating Layer fc7_mbox_loc
I0607 15:51:52.643364  5428 net.cpp:434] fc7_mbox_loc <- fc7_relu7_0_split_1
I0607 15:51:52.643369  5428 net.cpp:408] fc7_mbox_loc -> fc7_mbox_loc
I0607 15:51:52.646878  5428 net.cpp:150] Setting up fc7_mbox_loc
I0607 15:51:52.646895  5428 net.cpp:157] Top shape: 32 24 19 19 (277248)
I0607 15:51:52.646898  5428 net.cpp:165] Memory required for data: 7924327968
I0607 15:51:52.646919  5428 layer_factory.hpp:77] Creating layer fc7_mbox_loc_perm
I0607 15:51:52.646927  5428 net.cpp:100] Creating Layer fc7_mbox_loc_perm
I0607 15:51:52.646931  5428 net.cpp:434] fc7_mbox_loc_perm <- fc7_mbox_loc
I0607 15:51:52.646935  5428 net.cpp:408] fc7_mbox_loc_perm -> fc7_mbox_loc_perm
I0607 15:51:52.647099  5428 net.cpp:150] Setting up fc7_mbox_loc_perm
I0607 15:51:52.647104  5428 net.cpp:157] Top shape: 32 19 19 24 (277248)
I0607 15:51:52.647105  5428 net.cpp:165] Memory required for data: 7925436960
I0607 15:51:52.647109  5428 layer_factory.hpp:77] Creating layer fc7_mbox_loc_flat
I0607 15:51:52.647125  5428 net.cpp:100] Creating Layer fc7_mbox_loc_flat
I0607 15:51:52.647127  5428 net.cpp:434] fc7_mbox_loc_flat <- fc7_mbox_loc_perm
I0607 15:51:52.647131  5428 net.cpp:408] fc7_mbox_loc_flat -> fc7_mbox_loc_flat
I0607 15:51:52.647193  5428 net.cpp:150] Setting up fc7_mbox_loc_flat
I0607 15:51:52.647197  5428 net.cpp:157] Top shape: 32 8664 (277248)
I0607 15:51:52.647199  5428 net.cpp:165] Memory required for data: 7926545952
I0607 15:51:52.647214  5428 layer_factory.hpp:77] Creating layer fc7_mbox_conf
I0607 15:51:52.647222  5428 net.cpp:100] Creating Layer fc7_mbox_conf
I0607 15:51:52.647225  5428 net.cpp:434] fc7_mbox_conf <- fc7_relu7_0_split_2
I0607 15:51:52.647244  5428 net.cpp:408] fc7_mbox_conf -> fc7_mbox_conf
I0607 15:51:52.649952  5428 net.cpp:150] Setting up fc7_mbox_conf
I0607 15:51:52.649965  5428 net.cpp:157] Top shape: 32 18 19 19 (207936)
I0607 15:51:52.649967  5428 net.cpp:165] Memory required for data: 7927377696
I0607 15:51:52.649971  5428 layer_factory.hpp:77] Creating layer fc7_mbox_conf_perm
I0607 15:51:52.649989  5428 net.cpp:100] Creating Layer fc7_mbox_conf_perm
I0607 15:51:52.649992  5428 net.cpp:434] fc7_mbox_conf_perm <- fc7_mbox_conf
I0607 15:51:52.649997  5428 net.cpp:408] fc7_mbox_conf_perm -> fc7_mbox_conf_perm
I0607 15:51:52.650101  5428 net.cpp:150] Setting up fc7_mbox_conf_perm
I0607 15:51:52.650132  5428 net.cpp:157] Top shape: 32 19 19 18 (207936)
I0607 15:51:52.650141  5428 net.cpp:165] Memory required for data: 7928209440
I0607 15:51:52.650148  5428 layer_factory.hpp:77] Creating layer fc7_mbox_conf_flat
I0607 15:51:52.650163  5428 net.cpp:100] Creating Layer fc7_mbox_conf_flat
I0607 15:51:52.650173  5428 net.cpp:434] fc7_mbox_conf_flat <- fc7_mbox_conf_perm
I0607 15:51:52.650183  5428 net.cpp:408] fc7_mbox_conf_flat -> fc7_mbox_conf_flat
I0607 15:51:52.650218  5428 net.cpp:150] Setting up fc7_mbox_conf_flat
I0607 15:51:52.650233  5428 net.cpp:157] Top shape: 32 6498 (207936)
I0607 15:51:52.650248  5428 net.cpp:165] Memory required for data: 7929041184
I0607 15:51:52.650255  5428 layer_factory.hpp:77] Creating layer fc7_mbox_priorbox
I0607 15:51:52.650265  5428 net.cpp:100] Creating Layer fc7_mbox_priorbox
I0607 15:51:52.650274  5428 net.cpp:434] fc7_mbox_priorbox <- fc7_relu7_0_split_3
I0607 15:51:52.650282  5428 net.cpp:434] fc7_mbox_priorbox <- data_data_0_split_2
I0607 15:51:52.650293  5428 net.cpp:408] fc7_mbox_priorbox -> fc7_mbox_priorbox
I0607 15:51:52.650326  5428 net.cpp:150] Setting up fc7_mbox_priorbox
I0607 15:51:52.650337  5428 net.cpp:157] Top shape: 1 2 8664 (17328)
I0607 15:51:52.650346  5428 net.cpp:165] Memory required for data: 7929110496
I0607 15:51:52.650352  5428 layer_factory.hpp:77] Creating layer conv6_2_mbox_loc
I0607 15:51:52.650365  5428 net.cpp:100] Creating Layer conv6_2_mbox_loc
I0607 15:51:52.650374  5428 net.cpp:434] conv6_2_mbox_loc <- conv6_2_conv6_2_relu_0_split_1
I0607 15:51:52.650385  5428 net.cpp:408] conv6_2_mbox_loc -> conv6_2_mbox_loc
I0607 15:51:52.652460  5428 net.cpp:150] Setting up conv6_2_mbox_loc
I0607 15:51:52.652487  5428 net.cpp:157] Top shape: 32 24 10 10 (76800)
I0607 15:51:52.652495  5428 net.cpp:165] Memory required for data: 7929417696
I0607 15:51:52.652506  5428 layer_factory.hpp:77] Creating layer conv6_2_mbox_loc_perm
I0607 15:51:52.652516  5428 net.cpp:100] Creating Layer conv6_2_mbox_loc_perm
I0607 15:51:52.652525  5428 net.cpp:434] conv6_2_mbox_loc_perm <- conv6_2_mbox_loc
I0607 15:51:52.652536  5428 net.cpp:408] conv6_2_mbox_loc_perm -> conv6_2_mbox_loc_perm
I0607 15:51:52.652638  5428 net.cpp:150] Setting up conv6_2_mbox_loc_perm
I0607 15:51:52.652654  5428 net.cpp:157] Top shape: 32 10 10 24 (76800)
I0607 15:51:52.652662  5428 net.cpp:165] Memory required for data: 7929724896
I0607 15:51:52.652669  5428 layer_factory.hpp:77] Creating layer conv6_2_mbox_loc_flat
I0607 15:51:52.652679  5428 net.cpp:100] Creating Layer conv6_2_mbox_loc_flat
I0607 15:51:52.652688  5428 net.cpp:434] conv6_2_mbox_loc_flat <- conv6_2_mbox_loc_perm
I0607 15:51:52.652698  5428 net.cpp:408] conv6_2_mbox_loc_flat -> conv6_2_mbox_loc_flat
I0607 15:51:52.652726  5428 net.cpp:150] Setting up conv6_2_mbox_loc_flat
I0607 15:51:52.652731  5428 net.cpp:157] Top shape: 32 2400 (76800)
I0607 15:51:52.652734  5428 net.cpp:165] Memory required for data: 7930032096
I0607 15:51:52.652736  5428 layer_factory.hpp:77] Creating layer conv6_2_mbox_conf
I0607 15:51:52.652745  5428 net.cpp:100] Creating Layer conv6_2_mbox_conf
I0607 15:51:52.652747  5428 net.cpp:434] conv6_2_mbox_conf <- conv6_2_conv6_2_relu_0_split_2
I0607 15:51:52.652751  5428 net.cpp:408] conv6_2_mbox_conf -> conv6_2_mbox_conf
I0607 15:51:52.654783  5428 net.cpp:150] Setting up conv6_2_mbox_conf
I0607 15:51:52.654791  5428 net.cpp:157] Top shape: 32 18 10 10 (57600)
I0607 15:51:52.654794  5428 net.cpp:165] Memory required for data: 7930262496
I0607 15:51:52.654798  5428 layer_factory.hpp:77] Creating layer conv6_2_mbox_conf_perm
I0607 15:51:52.654803  5428 net.cpp:100] Creating Layer conv6_2_mbox_conf_perm
I0607 15:51:52.654819  5428 net.cpp:434] conv6_2_mbox_conf_perm <- conv6_2_mbox_conf
I0607 15:51:52.654824  5428 net.cpp:408] conv6_2_mbox_conf_perm -> conv6_2_mbox_conf_perm
I0607 15:51:52.654965  5428 net.cpp:150] Setting up conv6_2_mbox_conf_perm
I0607 15:51:52.654970  5428 net.cpp:157] Top shape: 32 10 10 18 (57600)
I0607 15:51:52.654973  5428 net.cpp:165] Memory required for data: 7930492896
I0607 15:51:52.654974  5428 layer_factory.hpp:77] Creating layer conv6_2_mbox_conf_flat
I0607 15:51:52.654978  5428 net.cpp:100] Creating Layer conv6_2_mbox_conf_flat
I0607 15:51:52.654980  5428 net.cpp:434] conv6_2_mbox_conf_flat <- conv6_2_mbox_conf_perm
I0607 15:51:52.654984  5428 net.cpp:408] conv6_2_mbox_conf_flat -> conv6_2_mbox_conf_flat
I0607 15:51:52.655017  5428 net.cpp:150] Setting up conv6_2_mbox_conf_flat
I0607 15:51:52.655038  5428 net.cpp:157] Top shape: 32 1800 (57600)
I0607 15:51:52.655040  5428 net.cpp:165] Memory required for data: 7930723296
I0607 15:51:52.655041  5428 layer_factory.hpp:77] Creating layer conv6_2_mbox_priorbox
I0607 15:51:52.655055  5428 net.cpp:100] Creating Layer conv6_2_mbox_priorbox
I0607 15:51:52.655058  5428 net.cpp:434] conv6_2_mbox_priorbox <- conv6_2_conv6_2_relu_0_split_3
I0607 15:51:52.655062  5428 net.cpp:434] conv6_2_mbox_priorbox <- data_data_0_split_3
I0607 15:51:52.655066  5428 net.cpp:408] conv6_2_mbox_priorbox -> conv6_2_mbox_priorbox
I0607 15:51:52.655089  5428 net.cpp:150] Setting up conv6_2_mbox_priorbox
I0607 15:51:52.655094  5428 net.cpp:157] Top shape: 1 2 2400 (4800)
I0607 15:51:52.655097  5428 net.cpp:165] Memory required for data: 7930742496
I0607 15:51:52.655098  5428 layer_factory.hpp:77] Creating layer conv7_2_mbox_loc
I0607 15:51:52.655105  5428 net.cpp:100] Creating Layer conv7_2_mbox_loc
I0607 15:51:52.655107  5428 net.cpp:434] conv7_2_mbox_loc <- conv7_2_conv7_2_relu_0_split_1
I0607 15:51:52.655112  5428 net.cpp:408] conv7_2_mbox_loc -> conv7_2_mbox_loc
I0607 15:51:52.657054  5428 net.cpp:150] Setting up conv7_2_mbox_loc
I0607 15:51:52.657064  5428 net.cpp:157] Top shape: 32 24 5 5 (19200)
I0607 15:51:52.657068  5428 net.cpp:165] Memory required for data: 7930819296
I0607 15:51:52.657071  5428 layer_factory.hpp:77] Creating layer conv7_2_mbox_loc_perm
I0607 15:51:52.657091  5428 net.cpp:100] Creating Layer conv7_2_mbox_loc_perm
I0607 15:51:52.657095  5428 net.cpp:434] conv7_2_mbox_loc_perm <- conv7_2_mbox_loc
I0607 15:51:52.657099  5428 net.cpp:408] conv7_2_mbox_loc_perm -> conv7_2_mbox_loc_perm
I0607 15:51:52.657241  5428 net.cpp:150] Setting up conv7_2_mbox_loc_perm
I0607 15:51:52.657246  5428 net.cpp:157] Top shape: 32 5 5 24 (19200)
I0607 15:51:52.657248  5428 net.cpp:165] Memory required for data: 7930896096
I0607 15:51:52.657250  5428 layer_factory.hpp:77] Creating layer conv7_2_mbox_loc_flat
I0607 15:51:52.657268  5428 net.cpp:100] Creating Layer conv7_2_mbox_loc_flat
I0607 15:51:52.657270  5428 net.cpp:434] conv7_2_mbox_loc_flat <- conv7_2_mbox_loc_perm
I0607 15:51:52.657289  5428 net.cpp:408] conv7_2_mbox_loc_flat -> conv7_2_mbox_loc_flat
I0607 15:51:52.657333  5428 net.cpp:150] Setting up conv7_2_mbox_loc_flat
I0607 15:51:52.657338  5428 net.cpp:157] Top shape: 32 600 (19200)
I0607 15:51:52.657341  5428 net.cpp:165] Memory required for data: 7930972896
I0607 15:51:52.657356  5428 layer_factory.hpp:77] Creating layer conv7_2_mbox_conf
I0607 15:51:52.657361  5428 net.cpp:100] Creating Layer conv7_2_mbox_conf
I0607 15:51:52.657378  5428 net.cpp:434] conv7_2_mbox_conf <- conv7_2_conv7_2_relu_0_split_2
I0607 15:51:52.657383  5428 net.cpp:408] conv7_2_mbox_conf -> conv7_2_mbox_conf
I0607 15:51:52.659209  5428 net.cpp:150] Setting up conv7_2_mbox_conf
I0607 15:51:52.659219  5428 net.cpp:157] Top shape: 32 18 5 5 (14400)
I0607 15:51:52.659221  5428 net.cpp:165] Memory required for data: 7931030496
I0607 15:51:52.659225  5428 layer_factory.hpp:77] Creating layer conv7_2_mbox_conf_perm
I0607 15:51:52.659229  5428 net.cpp:100] Creating Layer conv7_2_mbox_conf_perm
I0607 15:51:52.659232  5428 net.cpp:434] conv7_2_mbox_conf_perm <- conv7_2_mbox_conf
I0607 15:51:52.659251  5428 net.cpp:408] conv7_2_mbox_conf_perm -> conv7_2_mbox_conf_perm
I0607 15:51:52.659418  5428 net.cpp:150] Setting up conv7_2_mbox_conf_perm
I0607 15:51:52.659437  5428 net.cpp:157] Top shape: 32 5 5 18 (14400)
I0607 15:51:52.659440  5428 net.cpp:165] Memory required for data: 7931088096
I0607 15:51:52.659440  5428 layer_factory.hpp:77] Creating layer conv7_2_mbox_conf_flat
I0607 15:51:52.659445  5428 net.cpp:100] Creating Layer conv7_2_mbox_conf_flat
I0607 15:51:52.659446  5428 net.cpp:434] conv7_2_mbox_conf_flat <- conv7_2_mbox_conf_perm
I0607 15:51:52.659451  5428 net.cpp:408] conv7_2_mbox_conf_flat -> conv7_2_mbox_conf_flat
I0607 15:51:52.659482  5428 net.cpp:150] Setting up conv7_2_mbox_conf_flat
I0607 15:51:52.659487  5428 net.cpp:157] Top shape: 32 450 (14400)
I0607 15:51:52.659490  5428 net.cpp:165] Memory required for data: 7931145696
I0607 15:51:52.659507  5428 layer_factory.hpp:77] Creating layer conv7_2_mbox_priorbox
I0607 15:51:52.659510  5428 net.cpp:100] Creating Layer conv7_2_mbox_priorbox
I0607 15:51:52.659534  5428 net.cpp:434] conv7_2_mbox_priorbox <- conv7_2_conv7_2_relu_0_split_3
I0607 15:51:52.659551  5428 net.cpp:434] conv7_2_mbox_priorbox <- data_data_0_split_4
I0607 15:51:52.659555  5428 net.cpp:408] conv7_2_mbox_priorbox -> conv7_2_mbox_priorbox
I0607 15:51:52.659576  5428 net.cpp:150] Setting up conv7_2_mbox_priorbox
I0607 15:51:52.659596  5428 net.cpp:157] Top shape: 1 2 600 (1200)
I0607 15:51:52.659598  5428 net.cpp:165] Memory required for data: 7931150496
I0607 15:51:52.659600  5428 layer_factory.hpp:77] Creating layer conv8_2_mbox_loc
I0607 15:51:52.659621  5428 net.cpp:100] Creating Layer conv8_2_mbox_loc
I0607 15:51:52.659622  5428 net.cpp:434] conv8_2_mbox_loc <- conv8_2_conv8_2_relu_0_split_1
I0607 15:51:52.659641  5428 net.cpp:408] conv8_2_mbox_loc -> conv8_2_mbox_loc
I0607 15:51:52.661514  5428 net.cpp:150] Setting up conv8_2_mbox_loc
I0607 15:51:52.661523  5428 net.cpp:157] Top shape: 32 16 3 3 (4608)
I0607 15:51:52.661525  5428 net.cpp:165] Memory required for data: 7931168928
I0607 15:51:52.661551  5428 layer_factory.hpp:77] Creating layer conv8_2_mbox_loc_perm
I0607 15:51:52.661558  5428 net.cpp:100] Creating Layer conv8_2_mbox_loc_perm
I0607 15:51:52.661561  5428 net.cpp:434] conv8_2_mbox_loc_perm <- conv8_2_mbox_loc
I0607 15:51:52.661566  5428 net.cpp:408] conv8_2_mbox_loc_perm -> conv8_2_mbox_loc_perm
I0607 15:51:52.661701  5428 net.cpp:150] Setting up conv8_2_mbox_loc_perm
I0607 15:51:52.661706  5428 net.cpp:157] Top shape: 32 3 3 16 (4608)
I0607 15:51:52.661708  5428 net.cpp:165] Memory required for data: 7931187360
I0607 15:51:52.661710  5428 layer_factory.hpp:77] Creating layer conv8_2_mbox_loc_flat
I0607 15:51:52.661726  5428 net.cpp:100] Creating Layer conv8_2_mbox_loc_flat
I0607 15:51:52.661728  5428 net.cpp:434] conv8_2_mbox_loc_flat <- conv8_2_mbox_loc_perm
I0607 15:51:52.661733  5428 net.cpp:408] conv8_2_mbox_loc_flat -> conv8_2_mbox_loc_flat
I0607 15:51:52.661778  5428 net.cpp:150] Setting up conv8_2_mbox_loc_flat
I0607 15:51:52.661798  5428 net.cpp:157] Top shape: 32 144 (4608)
I0607 15:51:52.661800  5428 net.cpp:165] Memory required for data: 7931205792
I0607 15:51:52.661803  5428 layer_factory.hpp:77] Creating layer conv8_2_mbox_conf
I0607 15:51:52.661823  5428 net.cpp:100] Creating Layer conv8_2_mbox_conf
I0607 15:51:52.661825  5428 net.cpp:434] conv8_2_mbox_conf <- conv8_2_conv8_2_relu_0_split_2
I0607 15:51:52.661829  5428 net.cpp:408] conv8_2_mbox_conf -> conv8_2_mbox_conf
I0607 15:51:52.663359  5428 net.cpp:150] Setting up conv8_2_mbox_conf
I0607 15:51:52.663368  5428 net.cpp:157] Top shape: 32 12 3 3 (3456)
I0607 15:51:52.663372  5428 net.cpp:165] Memory required for data: 7931219616
I0607 15:51:52.663375  5428 layer_factory.hpp:77] Creating layer conv8_2_mbox_conf_perm
I0607 15:51:52.663380  5428 net.cpp:100] Creating Layer conv8_2_mbox_conf_perm
I0607 15:51:52.663398  5428 net.cpp:434] conv8_2_mbox_conf_perm <- conv8_2_mbox_conf
I0607 15:51:52.663401  5428 net.cpp:408] conv8_2_mbox_conf_perm -> conv8_2_mbox_conf_perm
I0607 15:51:52.663532  5428 net.cpp:150] Setting up conv8_2_mbox_conf_perm
I0607 15:51:52.663537  5428 net.cpp:157] Top shape: 32 3 3 12 (3456)
I0607 15:51:52.663538  5428 net.cpp:165] Memory required for data: 7931233440
I0607 15:51:52.663542  5428 layer_factory.hpp:77] Creating layer conv8_2_mbox_conf_flat
I0607 15:51:52.663545  5428 net.cpp:100] Creating Layer conv8_2_mbox_conf_flat
I0607 15:51:52.663559  5428 net.cpp:434] conv8_2_mbox_conf_flat <- conv8_2_mbox_conf_perm
I0607 15:51:52.663563  5428 net.cpp:408] conv8_2_mbox_conf_flat -> conv8_2_mbox_conf_flat
I0607 15:51:52.663609  5428 net.cpp:150] Setting up conv8_2_mbox_conf_flat
I0607 15:51:52.663632  5428 net.cpp:157] Top shape: 32 108 (3456)
I0607 15:51:52.663635  5428 net.cpp:165] Memory required for data: 7931247264
I0607 15:51:52.663635  5428 layer_factory.hpp:77] Creating layer conv8_2_mbox_priorbox
I0607 15:51:52.663641  5428 net.cpp:100] Creating Layer conv8_2_mbox_priorbox
I0607 15:51:52.663657  5428 net.cpp:434] conv8_2_mbox_priorbox <- conv8_2_conv8_2_relu_0_split_3
I0607 15:51:52.663671  5428 net.cpp:434] conv8_2_mbox_priorbox <- data_data_0_split_5
I0607 15:51:52.663674  5428 net.cpp:408] conv8_2_mbox_priorbox -> conv8_2_mbox_priorbox
I0607 15:51:52.663697  5428 net.cpp:150] Setting up conv8_2_mbox_priorbox
I0607 15:51:52.663702  5428 net.cpp:157] Top shape: 1 2 144 (288)
I0607 15:51:52.663703  5428 net.cpp:165] Memory required for data: 7931248416
I0607 15:51:52.663705  5428 layer_factory.hpp:77] Creating layer conv9_2_mbox_loc
I0607 15:51:52.663713  5428 net.cpp:100] Creating Layer conv9_2_mbox_loc
I0607 15:51:52.663729  5428 net.cpp:434] conv9_2_mbox_loc <- conv9_2_conv9_2_relu_0_split_0
I0607 15:51:52.663733  5428 net.cpp:408] conv9_2_mbox_loc -> conv9_2_mbox_loc
I0607 15:51:52.665611  5428 net.cpp:150] Setting up conv9_2_mbox_loc
I0607 15:51:52.665632  5428 net.cpp:157] Top shape: 32 16 1 1 (512)
I0607 15:51:52.665640  5428 net.cpp:165] Memory required for data: 7931250464
I0607 15:51:52.665650  5428 layer_factory.hpp:77] Creating layer conv9_2_mbox_loc_perm
I0607 15:51:52.665660  5428 net.cpp:100] Creating Layer conv9_2_mbox_loc_perm
I0607 15:51:52.665670  5428 net.cpp:434] conv9_2_mbox_loc_perm <- conv9_2_mbox_loc
I0607 15:51:52.665680  5428 net.cpp:408] conv9_2_mbox_loc_perm -> conv9_2_mbox_loc_perm
I0607 15:51:52.665786  5428 net.cpp:150] Setting up conv9_2_mbox_loc_perm
I0607 15:51:52.665797  5428 net.cpp:157] Top shape: 32 1 1 16 (512)
I0607 15:51:52.665805  5428 net.cpp:165] Memory required for data: 7931252512
I0607 15:51:52.665813  5428 layer_factory.hpp:77] Creating layer conv9_2_mbox_loc_flat
I0607 15:51:52.665823  5428 net.cpp:100] Creating Layer conv9_2_mbox_loc_flat
I0607 15:51:52.665832  5428 net.cpp:434] conv9_2_mbox_loc_flat <- conv9_2_mbox_loc_perm
I0607 15:51:52.665841  5428 net.cpp:408] conv9_2_mbox_loc_flat -> conv9_2_mbox_loc_flat
I0607 15:51:52.665871  5428 net.cpp:150] Setting up conv9_2_mbox_loc_flat
I0607 15:51:52.665881  5428 net.cpp:157] Top shape: 32 16 (512)
I0607 15:51:52.665889  5428 net.cpp:165] Memory required for data: 7931254560
I0607 15:51:52.665896  5428 layer_factory.hpp:77] Creating layer conv9_2_mbox_conf
I0607 15:51:52.665910  5428 net.cpp:100] Creating Layer conv9_2_mbox_conf
I0607 15:51:52.665918  5428 net.cpp:434] conv9_2_mbox_conf <- conv9_2_conv9_2_relu_0_split_1
I0607 15:51:52.665928  5428 net.cpp:408] conv9_2_mbox_conf -> conv9_2_mbox_conf
I0607 15:51:52.668120  5428 net.cpp:150] Setting up conv9_2_mbox_conf
I0607 15:51:52.668131  5428 net.cpp:157] Top shape: 32 12 1 1 (384)
I0607 15:51:52.668133  5428 net.cpp:165] Memory required for data: 7931256096
I0607 15:51:52.668138  5428 layer_factory.hpp:77] Creating layer conv9_2_mbox_conf_perm
I0607 15:51:52.668156  5428 net.cpp:100] Creating Layer conv9_2_mbox_conf_perm
I0607 15:51:52.668160  5428 net.cpp:434] conv9_2_mbox_conf_perm <- conv9_2_mbox_conf
I0607 15:51:52.668164  5428 net.cpp:408] conv9_2_mbox_conf_perm -> conv9_2_mbox_conf_perm
I0607 15:51:52.668272  5428 net.cpp:150] Setting up conv9_2_mbox_conf_perm
I0607 15:51:52.668288  5428 net.cpp:157] Top shape: 32 1 1 12 (384)
I0607 15:51:52.668296  5428 net.cpp:165] Memory required for data: 7931257632
I0607 15:51:52.668304  5428 layer_factory.hpp:77] Creating layer conv9_2_mbox_conf_flat
I0607 15:51:52.668313  5428 net.cpp:100] Creating Layer conv9_2_mbox_conf_flat
I0607 15:51:52.668323  5428 net.cpp:434] conv9_2_mbox_conf_flat <- conv9_2_mbox_conf_perm
I0607 15:51:52.668332  5428 net.cpp:408] conv9_2_mbox_conf_flat -> conv9_2_mbox_conf_flat
I0607 15:51:52.668365  5428 net.cpp:150] Setting up conv9_2_mbox_conf_flat
I0607 15:51:52.668375  5428 net.cpp:157] Top shape: 32 12 (384)
I0607 15:51:52.668383  5428 net.cpp:165] Memory required for data: 7931259168
I0607 15:51:52.668390  5428 layer_factory.hpp:77] Creating layer conv9_2_mbox_priorbox
I0607 15:51:52.668401  5428 net.cpp:100] Creating Layer conv9_2_mbox_priorbox
I0607 15:51:52.668408  5428 net.cpp:434] conv9_2_mbox_priorbox <- conv9_2_conv9_2_relu_0_split_2
I0607 15:51:52.668417  5428 net.cpp:434] conv9_2_mbox_priorbox <- data_data_0_split_6
I0607 15:51:52.668432  5428 net.cpp:408] conv9_2_mbox_priorbox -> conv9_2_mbox_priorbox
I0607 15:51:52.668471  5428 net.cpp:150] Setting up conv9_2_mbox_priorbox
I0607 15:51:52.668483  5428 net.cpp:157] Top shape: 1 2 16 (32)
I0607 15:51:52.668490  5428 net.cpp:165] Memory required for data: 7931259296
I0607 15:51:52.668498  5428 layer_factory.hpp:77] Creating layer mbox_loc
I0607 15:51:52.668507  5428 net.cpp:100] Creating Layer mbox_loc
I0607 15:51:52.668516  5428 net.cpp:434] mbox_loc <- conv4_3_norm_mbox_loc_flat
I0607 15:51:52.668525  5428 net.cpp:434] mbox_loc <- fc7_mbox_loc_flat
I0607 15:51:52.668534  5428 net.cpp:434] mbox_loc <- conv6_2_mbox_loc_flat
I0607 15:51:52.668543  5428 net.cpp:434] mbox_loc <- conv7_2_mbox_loc_flat
I0607 15:51:52.668551  5428 net.cpp:434] mbox_loc <- conv8_2_mbox_loc_flat
I0607 15:51:52.668560  5428 net.cpp:434] mbox_loc <- conv9_2_mbox_loc_flat
I0607 15:51:52.668570  5428 net.cpp:408] mbox_loc -> mbox_loc
I0607 15:51:52.668603  5428 net.cpp:150] Setting up mbox_loc
I0607 15:51:52.668614  5428 net.cpp:157] Top shape: 32 34928 (1117696)
I0607 15:51:52.668622  5428 net.cpp:165] Memory required for data: 7935730080
I0607 15:51:52.668629  5428 layer_factory.hpp:77] Creating layer mbox_conf
I0607 15:51:52.668638  5428 net.cpp:100] Creating Layer mbox_conf
I0607 15:51:52.668647  5428 net.cpp:434] mbox_conf <- conv4_3_norm_mbox_conf_flat
I0607 15:51:52.668655  5428 net.cpp:434] mbox_conf <- fc7_mbox_conf_flat
I0607 15:51:52.668664  5428 net.cpp:434] mbox_conf <- conv6_2_mbox_conf_flat
I0607 15:51:52.668673  5428 net.cpp:434] mbox_conf <- conv7_2_mbox_conf_flat
I0607 15:51:52.668680  5428 net.cpp:434] mbox_conf <- conv8_2_mbox_conf_flat
I0607 15:51:52.668689  5428 net.cpp:434] mbox_conf <- conv9_2_mbox_conf_flat
I0607 15:51:52.668699  5428 net.cpp:408] mbox_conf -> mbox_conf
I0607 15:51:52.668730  5428 net.cpp:150] Setting up mbox_conf
I0607 15:51:52.668740  5428 net.cpp:157] Top shape: 32 26196 (838272)
I0607 15:51:52.668747  5428 net.cpp:165] Memory required for data: 7939083168
I0607 15:51:52.668754  5428 layer_factory.hpp:77] Creating layer mbox_priorbox
I0607 15:51:52.668763  5428 net.cpp:100] Creating Layer mbox_priorbox
I0607 15:51:52.668771  5428 net.cpp:434] mbox_priorbox <- conv4_3_norm_mbox_priorbox
I0607 15:51:52.668781  5428 net.cpp:434] mbox_priorbox <- fc7_mbox_priorbox
I0607 15:51:52.668788  5428 net.cpp:434] mbox_priorbox <- conv6_2_mbox_priorbox
I0607 15:51:52.668797  5428 net.cpp:434] mbox_priorbox <- conv7_2_mbox_priorbox
I0607 15:51:52.668804  5428 net.cpp:434] mbox_priorbox <- conv8_2_mbox_priorbox
I0607 15:51:52.668812  5428 net.cpp:434] mbox_priorbox <- conv9_2_mbox_priorbox
I0607 15:51:52.668822  5428 net.cpp:408] mbox_priorbox -> mbox_priorbox
I0607 15:51:52.668851  5428 net.cpp:150] Setting up mbox_priorbox
I0607 15:51:52.668862  5428 net.cpp:157] Top shape: 1 2 34928 (69856)
I0607 15:51:52.668869  5428 net.cpp:165] Memory required for data: 7939362592
I0607 15:51:52.668877  5428 layer_factory.hpp:77] Creating layer mbox_loss
I0607 15:51:52.668889  5428 net.cpp:100] Creating Layer mbox_loss
I0607 15:51:52.668898  5428 net.cpp:434] mbox_loss <- mbox_loc
I0607 15:51:52.668906  5428 net.cpp:434] mbox_loss <- mbox_conf
I0607 15:51:52.668915  5428 net.cpp:434] mbox_loss <- mbox_priorbox
…
  name: "data"
  type: "AnnotatedData"
  top: "data"
  top: "label"
  include {
    phase: TEST
  }
  transform_param {
    mean_value: 104
    mean_value: 117
    mean_value: 123
    resize_param {
      prob: 1
      resize_mode: WARP
      height: 300
      width: 300
      interp_mode: LINEAR
    }
  }
  data_param {
    source: "examples/tbs_v2.0_HSIL_1_23/tbs_v2.0_HSIL_1_23_test_lmdb"
    batch_size: 8
    backend: LMDB
  }
  annotated_data_param {
    batch_sampler {
    }
    label_map_file: "data/tbs_v2.0_HSIL_1_23/labelmap_voc.prototxt"
  }
}
layer {
  name: "conv1_1"
  type: "Convolution"
  bottom: "data"
  top: "conv1_1"
  param {
    lr_mult: 1
    decay_mult: 1
  }
  param {
    lr_mult: 2
    decay_mult: 0
  }
  convolution_param {
    num_output: 64
    pad: 1
    kernel_size: 3
    weight_filler {
      type: "xavier"
    }
    bias_filler {
      type: "constant"
      value: 0
    }
  }
}
layer {
  name: "relu1_1"
  type: "ReLU"
  bottom: "conv1_1"
  top: "conv1_1"
}
layer {
  name: "conv1_2"
  type: "Convolution"
  bottom: "conv1_1"
  top: "conv1_2"
  param {
    lr_mult: 1
    decay_mult: 1
  }
  param {
    lr_mult: 2
    decay_mult: 0
  }
  convolution_param {
    num_output: 64
    pad: 1
    kernel_size: 3
    weight_filler {
      type: "xavier"
    }
    bias_filler {
      type: "constant"
      value: 0
    }
  }
}
layer {
  name: "relu1_2"
  type: "ReLU"
  bottom: "conv1_2"
  top: "conv1_2"
}
layer {
  name: "pool1"
  type: "Pooling"
  bottom: "conv1_2"
  top: "pool1"
  pooling_param {
    pool: MAX
    kernel_size: 2
    stride: 2
  }
}
layer {
  name: "conv2_1"
  type: "Convolution"
  bottom: "pool1"
  top: "conv2_1"
  param {
    lr_mult: 1
    decay_mult: 1
  }
  param {
    lr_mult: 2
    decay_mult: 0
  }
  convolution_param {
    num_output: 128
    pad: 1
    kernel_size: 3
    weight_filler {
      type: "xavier"
    }
    bias_filler {
      type: "constant"
      value: 0
    }
  }
}
layer {
  name: "relu2_1"
  type: "ReLU"
  bottom: "conv2_1"
  top: "conv2_1"
}
layer {
  name: "conv2_2"
  type: "Convolution"
  bottom: "conv2_1"
  top: "conv2_2"
  param {
    lr_mult: 1
    decay_mult: 1
  }
  param {
    lr_mult: 2
    decay_mult: 0
  }
  convolution_param {
    num_output: 128
    pad: 1
    kernel_size: 3
    weight_filler {
      type: "xavier"
    }
    bias_filler {
      type: "constant"
      value: 0
    }
  }
}
layer {
  name: "relu2_2"
  type: "ReLU"
  bottom: "conv2_2"
  top: "conv2_2"
}
layer {
  name: "pool2"
  type: "Pooling"
  bottom: "conv2_2"
  top: "pool2"
  pooling_param {
    pool: MAX
    kernel_size: 2
    stride: 2
  }
}
layer {
  name: "conv3_1"
  type: "Convolution"
  bottom: "pool2"
  top: "conv3_1"
  param {
    lr_mult: 1
    decay_mult: 1
  }
  param {
    lr_mult: 2
    decay_mult: 0
  }
  convolution_param {
    num_output: 256
    pad: 1
    kernel_size: 3
    weight_filler {
      type: "xavier"
    }
    bias_filler {
      type: "constant"
      value: 0
    }
  }
}
layer {
  name: "relu3_1"
  type: "ReLU"
  bottom: "conv3_1"
  top: "conv3_1"
}
layer {
  name: "conv3_2"
  type: "Convolution"
  bottom: "conv3_1"
  top: "conv3_2"
  param {
    lr_mult: 1
    decay_mult: 1
  }
  param {
    lr_mult: 2
    decay_mult: 0
  }
  convolution_param {
    num_output: 256
    pad: 1
    kernel_size: 3
    weight_filler {
      type: "xavier"
    }
    bias_filler {
      type: "constant"
      value: 0
    }
  }
}
layer {
  name: "relu3_2"
  type: "ReLU"
  bottom: "conv3_2"
  top: "conv3_2"
}
layer {
  name: "conv3_3"
  type: "Convolution"
  bottom: "conv3_2"
  top: "conv3_3"
  param {
    lr_mult: 1
    decay_mult: 1
  }
  param {
    lr_mult: 2
    decay_mult: 0
  }
  convolution_param {
    num_output: 256
    pad: 1
    kernel_size: 3
    weight_filler {
      type: "xavier"
    }
    bias_filler {
      type: "constant"
      value: 0
    }
  }
}
layer {
  name: "relu3_3"
  type: "ReLU"
  bottom: "conv3_3"
  top: "conv3_3"
}
layer {
  name: "pool3"
  type: "Pooling"
  bottom: "conv3_3"
  top: "pool3"
  pooling_param {
    pool: MAX
    kernel_size: 2
    stride: 2
  }
}
layer {
  name: "conv4_1"
  type: "Convolution"
  bottom: "pool3"
  top: "conv4_1"
  param {
    lr_mult: 1
    decay_mult: 1
  }
  param {
    lr_mult: 2
    decay_mult: 0
  }
  convolution_param {
    num_output: 512
    pad: 1
    kernel_size: 3
    weight_filler {
      type: "xavier"
    }
    bias_filler {
      type: "constant"
      value: 0
    }
  }
}
layer {
  name: "relu4_1"
  type: "ReLU"
  bottom: "conv4_1"
  top: "conv4_1"
}
layer {
  name: "conv4_2"
  type: "Convolution"
  bottom: "conv4_1"
  top: "conv4_2"
  param {
    lr_mult: 1
    decay_mult: 1
  }
  param {
    lr_mult: 2
    decay_mult: 0
  }
  convolution_param {
    num_output: 512
    pad: 1
    kernel_size: 3
    weight_filler {
      type: "xavier"
    }
    bias_filler {
      type: "constant"
      value: 0
    }
  }
}
layer {
  name: "relu4_2"
  type: "ReLU"
  bottom: "conv4_2"
  top: "conv4_2"
}
layer {
  name: "conv4_3"
  type: "Convolution"
  bottom: "conv4_2"
  top: "conv4_3"
  param {
    lr_mult: 1
    decay_mult: 1
  }
  param {
    lr_mult: 2
    decay_mult: 0
  }
  convolution_param {
    num_output: 512
    pad: 1
    kernel_size: 3
    weight_filler {
      type: "xavier"
    }
    bias_filler {
      type: "constant"
      value: 0
    }
  }
}
layer {
  name: "relu4_3"
  type: "ReLU"
  bottom: "conv4_3"
  top: "conv4_3"
}
layer {
  name: "pool4"
  type: "Pooling"
  bottom: "conv4_3"
  top: "pool4"
  pooling_param {
    pool: MAX
    kernel_size: 2
    stride: 2
  }
}
layer {
  name: "conv5_1"
  type: "Convolution"
  bottom: "pool4"
  top: "conv5_1"
  param {
    lr_mult: 1
    decay_mult: 1
  }
  param {
    lr_mult: 2
    decay_mult: 0
  }
  convolution_param {
    num_output: 512
    pad: 1
    kernel_size: 3
    weight_filler {
      type: "xavier"
    }
    bias_filler {
      type: "constant"
      value: 0
    }
    dilation: 1
  }
}
layer {
  name: "relu5_1"
  type: "ReLU"
  bottom: "conv5_1"
  top: "conv5_1"
}
layer {
  name: "conv5_2"
  type: "Convolution"
  bottom: "conv5_1"
  top: "conv5_2"
  param {
    lr_mult: 1
    decay_mult: 1
  }
  param {
    lr_mult: 2
    decay_mult: 0
  }
  convolution_param {
    num_output: 512
    pad: 1
    kernel_size: 3
    weight_filler {
      type: "xavier"
    }
    bias_filler {
      type: "constant"
      value: 0
    }
    dilation: 1
  }
}
layer {
  name: "relu5_2"
  type: "ReLU"
  bottom: "conv5_2"
  top: "conv5_2"
}
layer {
  name: "conv5_3"
  type: "Convolution"
  bottom: "conv5_2"
  top: "conv5_3"
  param {
    lr_mult: 1
    decay_mult: 1
  }
  param {
    lr_mult: 2
    decay_mult: 0
  }
  convolution_param {
    num_output: 512
    pad: 1
    kernel_size: 3
    weight_filler {
      type: "xavier"
    }
    bias_filler {
      type: "constant"
      value: 0
    }
    dilation: 1
  }
}
layer {
  name: "relu5_3"
  type: "ReLU"
  bottom: "conv5_3"
  top: "conv5_3"
}
layer {
  name: "pool5"
  type: "Pooling"
  bottom: "conv5_3"
  top: "pool5"
  pooling_param {
    pool: MAX
    kernel_size: 3
    stride: 1
    pad: 1
  }
}
layer {
  name: "fc6"
  type: "Convolution"
  bottom: "pool5"
  top: "fc6"
  param {
    lr_mult: 1
    decay_mult: 1
  }
  param {
    lr_mult: 2
    decay_mult: 0
  }
  convolution_param {
    num_output: 1024
    pad: 6
    kernel_size: 3
    weight_filler {
      type: "xavier"
    }
    bias_filler {
      type: "constant"
      value: 0
    }
    dilation: 6
  }
}
layer {
  name: "relu6"
  type: "ReLU"
  bottom: "fc6"
  top: "fc6"
}
layer {
  name: "fc7"
  type: "Convolution"
  bottom: "fc6"
  top: "fc7"
  param {
    lr_mult: 1
    decay_mult: 1
  }
  param {
    lr_mult: 2
    decay_mult: 0
  }
  convolution_param {
    num_output: 1024
    kernel_size: 1
    weight_filler {
      type: "xavier"
    }
    bias_filler {
      type: "constant"
      value: 0
    }
  }
}
layer {
  name: "relu7"
  type: "ReLU"
  bottom: "fc7"
  top: "fc7"
}
layer {
  name: "conv6_1"
  type: "Convolution"
  bottom: "fc7"
  top: "conv6_1"
  param {
    lr_mult: 1
    decay_mult: 1
  }
  param {
    lr_mult: 2
    decay_mult: 0
  }
  convolution_param {
    num_output: 256
    pad: 0
    kernel_size: 1
    stride: 1
    weight_filler {
      type: "xavier"
    }
    bias_filler {
      type: "constant"
      value: 0
    }
  }
}
layer {
  name: "conv6_1_relu"
  type: "ReLU"
  bottom: "conv6_1"
  top: "conv6_1"
}
layer {
  name: "conv6_2"
  type: "Convolution"
  bottom: "conv6_1"
  top: "conv6_2"
  param {
    lr_mult: 1
    decay_mult: 1
  }
  param {
    lr_mult: 2
    decay_mult: 0
  }
  convolution_param {
    num_output: 512
    pad: 1
    kernel_size: 3
    stride: 2
    weight_filler {
      type: "xavier"
    }
    bias_filler {
      type: "constant"
      value: 0
    }
  }
}
layer {
  name: "conv6_2_relu"
  type: "ReLU"
  bottom: "conv6_2"
  top: "conv6_2"
}
layer {
  name: "conv7_1"
  type: "Convolution"
  bottom: "conv6_2"
  top: "conv7_1"
  param {
    lr_mult: 1
    decay_mult: 1
  }
  param {
    lr_mult: 2
    decay_mult: 0
  }
  convolution_param {
    num_output: 128
    pad: 0
    kernel_size: 1
    stride: 1
    weight_filler {
      type: "xavier"
    }
    bias_filler {
      type: "constant"
      value: 0
    }
  }
}
layer {
  name: "conv7_1_relu"
  type: "ReLU"
  bottom: "conv7_1"
  top: "conv7_1"
}
layer {
  name: "conv7_2"
  type: "Convolution"
  bottom: "conv7_1"
  top: "conv7_2"
  param {
    lr_mult: 1
    decay_mult: 1
  }
  param {
    lr_mult: 2
    decay_mult: 0
  }
  convolution_param {
    num_output: 256
    pad: 1
    kernel_size: 3
    stride: 2
    weight_filler {
      type: "xavier"
    }
    bias_filler {
      type: "constant"
      value: 0
    }
  }
}
layer {
  name: "conv7_2_relu"
  type: "ReLU"
  bottom: "conv7_2"
  top: "conv7_2"
}
layer {
  name: "conv8_1"
  type: "Convolution"
  bottom: "conv7_2"
  top: "conv8_1"
  param {
    lr_mult: 1
    decay_mult: 1
  }
  param {
    lr_mult: 2
    decay_mult: 0
  }
  convolution_param {
    num_output: 128
    pad: 0
    kernel_size: 1
    stride: 1
    weight_filler {
      type: "xavier"
    }
    bias_filler {
      type: "constant"
      value: 0
    }
  }
}
layer {
  name: "conv8_1_relu"
  type: "ReLU"
  bottom: "conv8_1"
  top: "conv8_1"
}
layer {
  name: "conv8_2"
  type: "Convolution"
  bottom: "conv8_1"
  top: "conv8_2"
  param {
    lr_mult: 1
    decay_mult: 1
  }
  param {
    lr_mult: 2
    decay_mult: 0
  }
  convolution_param {
    num_output: 256
    pad: 0
    kernel_size: 3
    stride: 1
    weight_filler {
      type: "xavier"
    }
    bias_filler {
      type: "constant"
      value: 0
    }
  }
}
layer {
  name: "conv8_2_relu"
  type: "ReLU"
  bottom: "conv8_2"
  top: "conv8_2"
}
layer {
  name: "conv9_1"
  type: "Convolution"
  bottom: "conv8_2"
  top: "conv9_1"
  param {
    lr_mult: 1
    decay_mult: 1
  }
  param {
    lr_mult: 2
    decay_mult: 0
  }
  convolution_param {
    num_output: 128
    pad: 0
    kernel_size: 1
    stride: 1
    weight_filler {
      type: "xavier"
    }
    bias_filler {
      type: "constant"
      value: 0
    }
  }
}
layer {
  name: "conv9_1_relu"
  type: "ReLU"
  bottom: "conv9_1"
  top: "conv9_1"
}
layer {
  name: "conv9_2"
  type: "Convolution"
  bottom: "conv9_1"
  top: "conv9_2"
  param {
    lr_mult: 1
    decay_mult: 1
  }
  param {
    lr_mult: 2
    decay_mult: 0
  }
  convolution_param {
    num_output: 256
    pad: 0
    kernel_size: 3
    stride: 1
    weight_filler {
      type: "xavier"
    }
    bias_filler {
      type: "constant"
      value: 0
    }
  }
}
layer {
  name: "conv9_2_relu"
  type: "ReLU"
  bottom: "conv9_2"
  top: "conv9_2"
}
layer {
  name: "conv4_3_norm"
  type: "Normalize"
  bottom: "conv4_3"
  top: "conv4_3_norm"
  norm_param {
    across_spatial: false
    scale_filler {
      type: "constant"
      value: 20
    }
    channel_shared: false
  }
}
layer {
  name: "conv4_3_norm_mbox_loc"
  type: "Convolution"
  bottom: "conv4_3_norm"
  top: "conv4_3_norm_mbox_loc"
  param {
    lr_mult: 1
    decay_mult: 1
  }
  param {
    lr_mult: 2
    decay_mult: 0
  }
  convolution_param {
    num_output: 16
    pad: 1
    kernel_size: 3
    stride: 1
    weight_filler {
      type: "xavier"
    }
    bias_filler {
      type: "constant"
      value: 0
    }
  }
}
layer {
  name: "conv4_3_norm_mbox_loc_perm"
  type: "Permute"
  bottom: "conv4_3_norm_mbox_loc"
  top: "conv4_3_norm_mbox_loc_perm"
  permute_param {
    order: 0
    order: 2
    order: 3
    order: 1
  }
}
layer {
  name: "conv4_3_norm_mbox_loc_flat"
  type: "Flatten"
  bottom: "conv4_3_norm_mbox_loc_perm"
  top: "conv4_3_norm_mbox_loc_flat"
  flatten_param {
    axis: 1
  }
}
layer {
  name: "conv4_3_norm_mbox_conf"
  type: "Convolution"
  bottom: "conv4_3_norm"
  top: "conv4_3_norm_mbox_conf"
  param {
    lr_mult: 1
    decay_mult: 1
  }
  param {
    lr_mult: 2
    decay_mult: 0
  }
  convolution_param {
    num_output: 12
    pad: 1
    kernel_size: 3
    stride: 1
    weight_filler {
      type: "xavier"
    }
    bias_filler {
      type: "constant"
      value: 0
    }
  }
}
layer {
  name: "conv4_3_norm_mbox_conf_perm"
  type: "Permute"
  bottom: "conv4_3_norm_mbox_conf"
  top: "conv4_3_norm_mbox_conf_perm"
  permute_param {
    order: 0
    order: 2
    order: 3
    order: 1
  }
}
layer {
  name: "conv4_3_norm_mbox_conf_flat"
  type: "Flatten"
  bottom: "conv4_3_norm_mbox_conf_perm"
  top: "conv4_3_norm_mbox_conf_flat"
  flatten_param {
    axis: 1
  }
}
layer {
  name: "conv4_3_norm_mbox_priorbox"
  type: "PriorBox"
  bottom: "conv4_3_norm"
  bottom: "data"
  top: "conv4_3_norm_mbox_priorbox"
  prior_box_param {
    min_size: 30
    max_size: 60
    aspect_ratio: 2
    flip: true
    clip: false
    variance: 0.1
    variance: 0.1
    variance: 0.2
    variance: 0.2
    step: 8
    offset: 0.5
  }
}
layer {
  name: "fc7_mbox_loc"
  type: "Convolution"
  bottom: "fc7"
  top: "fc7_mbox_loc"
  param {
    lr_mult: 1
    decay_mult: 1
  }
  param {
    lr_mult: 2
    decay_mult: 0
  }
  convolution_param {
    num_output: 24
    pad: 1
    kernel_size: 3
    stride: 1
    weight_filler {
      type: "xavier"
    }
    bias_filler {
      type: "constant"
      value: 0
    }
  }
}
layer {
  name: "fc7_mbox_loc_perm"
  type: "Permute"
  bottom: "fc7_mbox_loc"
  top: "fc7_mbox_loc_perm"
  permute_param {
    order: 0
    order: 2
    order: 3
    order: 1
  }
}
layer {
  name: "fc7_mbox_loc_flat"
  type: "Flatten"
  bottom: "fc7_mbox_loc_perm"
  top: "fc7_mbox_loc_flat"
  flatten_param {
    axis: 1
  }
}
layer {
  name: "fc7_mbox_conf"
  type: "Convolution"
  bottom: "fc7"
  top: "fc7_mbox_conf"
  param {
    lr_mult: 1
    decay_mult: 1
  }
  param {
    lr_mult: 2
    decay_mult: 0
  }
  convolution_param {
    num_output: 18
    pad: 1
    kernel_size: 3
    stride: 1
    weight_filler {
      type: "xavier"
    }
    bias_filler {
      type: "constant"
      value: 0
    }
  }
}
layer {
  name: "fc7_mbox_conf_perm"
  type: "Permute"
  bottom: "fc7_mbox_conf"
  top: "fc7_mbox_conf_perm"
  permute_param {
    order: 0
    order: 2
    order: 3
    order: 1
  }
}
layer {
  name: "fc7_mbox_conf_flat"
  type: "Flatten"
  bottom: "fc7_mbox_conf_perm"
  top: "fc7_mbox_conf_flat"
  flatten_param {
    axis: 1
  }
}
layer {
  name: "fc7_mbox_priorbox"
  type: "PriorBox"
  bottom: "fc7"
  bottom: "data"
  top: "fc7_mbox_priorbox"
  prior_box_param {
    min_size: 60
    max_size: 111
    aspect_ratio: 2
    aspect_ratio: 3
    flip: true
    clip: false
    variance: 0.1
    variance: 0.1
    variance: 0.2
    variance: 0.2
    step: 16
    offset: 0.5
  }
}
layer {
  name: "conv6_2_mbox_loc"
  type: "Convolution"
  bottom: "conv6_2"
  top: "conv6_2_mbox_loc"
  param {
    lr_mult: 1
    decay_mult: 1
  }
  param {
    lr_mult: 2
    decay_mult: 0
  }
  convolution_param {
    num_output: 24
    pad: 1
    kernel_size: 3
    stride: 1
    weight_filler {
      type: "xavier"
    }
    bias_filler {
      type: "constant"
      value: 0
    }
  }
}
layer {
  name: "conv6_2_mbox_loc_perm"
  type: "Permute"
  bottom: "conv6_2_mbox_loc"
  top: "conv6_2_mbox_loc_perm"
  permute_param {
    order: 0
    order: 2
    order: 3
    order: 1
  }
}
layer {
  name: "conv6_2_mbox_loc_flat"
  type: "Flatten"
  bottom: "conv6_2_mbox_loc_perm"
  top: "conv6_2_mbox_loc_flat"
  flatten_param {
    axis: 1
  }
}
layer {
  name: "conv6_2_mbox_conf"
  type: "Convolution"
  bottom: "conv6_2"
  top: "conv6_2_mbox_conf"
  param {
    lr_mult: 1
    decay_mult: 1
  }
  param {
    lr_mult: 2
    decay_mult: 0
  }
  convolution_param {
    num_output: 18
    pad: 1
    kernel_size: 3
    stride: 1
    weight_filler {
      type: "xavier"
    }
    bias_filler {
      type: "constant"
      value: 0
    }
  }
}
layer {
  name: "conv6_2_mbox_conf_perm"
  type: "Permute"
  bottom: "conv6_2_mbox_conf"
  top: "conv6_2_mbox_conf_perm"
  permute_param {
    order: 0
    order: 2
    order: 3
    order: 1
  }
}
layer {
  name: "conv6_2_mbox_conf_flat"
  type: "Flatten"
  bottom: "conv6_2_mbox_conf_perm"
  top: "conv6_2_mbox_conf_flat"
  flatten_param {
    axis: 1
  }
}
layer {
  name: "conv6_2_mbox_priorbox"
  type: "PriorBox"
  bottom: "conv6_2"
  bottom: "data"
  top: "conv6_2_mbox_priorbox"
  prior_box_param {
    min_size: 111
    max_size: 162
    aspect_ratio: 2
    aspect_ratio: 3
    flip: true
    clip: false
    variance: 0.1
    variance: 0.1
    variance: 0.2
    variance: 0.2
    step: 32
    offset: 0.5
  }
}
layer {
  name: "conv7_2_mbox_loc"
  type: "Convolution"
  bottom: "conv7_2"
  top: "conv7_2_mbox_loc"
  param {
    lr_mult: 1
    decay_mult: 1
  }
  param {
    lr_mult: 2
    decay_mult: 0
  }
  convolution_param {
    num_output: 24
    pad: 1
    kernel_size: 3
    stride: 1
    weight_filler {
      type: "xavier"
    }
    bias_filler {
      type: "constant"
      value: 0
    }
  }
}
layer {
  name: "conv7_2_mbox_loc_perm"
  type: "Permute"
  bottom: "conv7_2_mbox_loc"
  top: "conv7_2_mbox_loc_perm"
  permute_param {
    order: 0
    order: 2
    order: 3
    order: 1
  }
}
layer {
  name: "conv7_2_mbox_loc_flat"
  type: "Flatten"
  bottom: "conv7_2_mbox_loc_perm"
  top: "conv7_2_mbox_loc_flat"
  flatten_param {
    axis: 1
  }
}
layer {
  name: "conv7_2_mbox_conf"
  type: "Convolution"
  bottom: "conv7_2"
  top: "conv7_2_mbox_conf"
  param {
    lr_mult: 1
    decay_mult: 1
  }
  param {
    lr_mult: 2
    decay_mult: 0
  }
  convolution_param {
    num_output: 18
    pad: 1
    kernel_size: 3
    stride: 1
    weight_filler {
      type: "xavier"
    }
    bias_filler {
      type: "constant"
      value: 0
    }
  }
}
layer {
  name: "conv7_2_mbox_conf_perm"
  type: "Permute"
  bottom: "conv7_2_mbox_conf"
  top: "conv7_2_mbox_conf_perm"
  permute_param {
    order: 0
    order: 2
    order: 3
    order: 1
  }
}
layer {
  name: "conv7_2_mbox_conf_flat"
  type: "Flatten"
  bottom: "conv7_2_mbox_conf_perm"
  top: "conv7_2_mbox_conf_flat"
  flatten_param {
    axis: 1
  }
}
layer {
  name: "conv7_2_mbox_priorbox"
  type: "PriorBox"
  bottom: "conv7_2"
  bottom: "data"
  top: "conv7_2_mbox_priorbox"
  prior_box_param {
    min_size: 162
    max_size: 213
    aspect_ratio: 2
    aspect_ratio: 3
    flip: true
    clip: false
    variance: 0.1
    variance: 0.1
    variance: 0.2
    variance: 0.2
    step: 64
    offset: 0.5
  }
}
layer {
  name: "conv8_2_mbox_loc"
  type: "Convolution"
  bottom: "conv8_2"
  top: "conv8_2_mbox_loc"
  param {
    lr_mult: 1
    decay_mult: 1
  }
  param {
    lr_mult: 2
    decay_mult: 0
  }
  convolution_param {
    num_output: 16
    pad: 1
    kernel_size: 3
    stride: 1
    weight_filler {
      type: "xavier"
    }
    bias_filler {
      type: "constant"
      value: 0
    }
  }
}
layer {
  name: "conv8_2_mbox_loc_perm"
  type: "Permute"
  bottom: "conv8_2_mbox_loc"
  top: "conv8_2_mbox_loc_perm"
  permute_param {
    order: 0
    order: 2
    order: 3
    order: 1
  }
}
layer {
  name: "conv8_2_mbox_loc_flat"
  type: "Flatten"
  bottom: "conv8_2_mbox_loc_perm"
  top: "conv8_2_mbox_loc_flat"
  flatten_param {
    axis: 1
  }
}
layer {
  name: "conv8_2_mbox_conf"
  type: "Convolution"
  bottom: "conv8_2"
  top: "conv8_2_mbox_conf"
  param {
    lr_mult: 1
    decay_mult: 1
  }
  param {
    lr_mult: 2
    decay_mult: 0
  }
  convolution_param {
    num_output: 12
    pad: 1
    kernel_size: 3
    stride: 1
    weight_filler {
      type: "xavier"
    }
    bias_filler {
      type: "constant"
      value: 0
    }
  }
}
layer {
  name: "conv8_2_mbox_conf_perm"
  type: "Permute"
  bottom: "conv8_2_mbox_conf"
  top: "conv8_2_mbox_conf_perm"
  permute_param {
    order: 0
    order: 2
    order: 3
    order: 1
  }
}
layer {
  name: "conv8_2_mbox_conf_flat"
  type: "Flatten"
  bottom: "conv8_2_mbox_conf_perm"
  top: "conv8_2_mbox_conf_flat"
  flatten_param {
    axis: 1
  }
}
layer {
  name: "conv8_2_mbox_priorbox"
  type: "PriorBox"
  bottom: "conv8_2"
  bottom: "data"
  top: "conv8_2_mbox_priorbox"
  prior_box_param {
    min_size: 213
    max_size: 264
    aspect_ratio: 2
    flip: true
    clip: false
    variance: 0.1
    variance: 0.1
    variance: 0.2
    variance: 0.2
    step: 100
    offset: 0.5
  }
}
layer {
  name: "conv9_2_mbox_loc"
  type: "Convolution"
  bottom: "conv9_2"
  top: "conv9_2_mbox_loc"
  param {
    lr_mult: 1
    decay_mult: 1
  }
  param {
    lr_mult: 2
    decay_mult: 0
  }
  convolution_param {
    num_output: 16
    pad: 1
    kernel_size: 3
    stride: 1
    weight_filler {
      type: "xavier"
    }
    bias_filler {
      type: "constant"
      value: 0
    }
  }
}
layer {
  name: "conv9_2_mbox_loc_perm"
  type: "Permute"
  bottom: "conv9_2_mbox_loc"
  top: "conv9_2_mbox_loc_perm"
  permute_param {
    order: 0
    order: 2
    order: 3
    order: 1
  }
}
layer {
  name: "conv9_2_mbox_loc_flat"
  type: "Flatten"
  bottom: "conv9_2_mbox_loc_perm"
  top: "conv9_2_mbox_loc_flat"
  flatten_param {
    axis: 1
  }
}
layer {
  name: "conv9_2_mbox_conf"
  type: "Convolution"
  bottom: "conv9_2"
  top: "conv9_2_mbox_conf"
  param {
    lr_mult: 1
    decay_mult: 1
  }
  param {
    lr_mult: 2
    decay_mult: 0
  }
  convolution_param {
    num_output: 12
    pad: 1
    kernel_size: 3
    stride: 1
    weight_filler {
      type: "xavier"
    }
    bias_filler {
      type: "constant"
      value: 0
    }
  }
}
layer {
  name: "conv9_2_mbox_conf_perm"
  type: "Permute"
  bottom: "conv9_2_mbox_conf"
  top: "conv9_2_mbox_conf_perm"
  permute_param {
    order: 0
    order: 2
    order: 3
    order: 1
  }
}
layer {
  name: "conv9_2_mbox_conf_flat"
  type: "Flatten"
  bottom: "conv9_2_mbox_conf_perm"
  top: "conv9_2_mbox_conf_flat"
  flatten_param {
    axis: 1
  }
}
layer {
  name: "conv9_2_mbox_priorbox"
  type: "PriorBox"
  bottom: "conv9_2"
  bottom: "data"
  top: "conv9_2_mbox_priorbox"
  prior_box_param {
    min_size: 264
    max_size: 315
    aspect_ratio: 2
    flip: true
    clip: false
    variance: 0.1
    variance: 0.1
    variance: 0.2
    variance: 0.2
    step: 300
    offset: 0.5
  }
}
layer {
  name: "mbox_loc"
  type: "Concat"
  bottom: "conv4_3_norm_mbox_loc_flat"
  bottom: "fc7_mbox_loc_flat"
  bottom: "conv6_2_mbox_loc_flat"
  bottom: "conv7_2_mbox_loc_flat"
  bottom: "conv8_2_mbox_loc_flat"
  bottom: "conv9_2_mbox_loc_flat"
  top: "mbox_loc"
  concat_param {
    axis: 1
  }
}
layer {
  name: "mbox_conf"
  type: "Concat"
  bottom: "conv4_3_norm_mbox_conf_flat"
  bottom: "fc7_mbox_conf_flat"
  bottom: "conv6_2_mbox_conf_flat"
  bottom: "conv7_2_mbox_conf_flat"
  bottom: "conv8_2_mbox_conf_flat"
  bottom: "conv9_2_mbox_conf_flat"
  top: "mbox_conf"
  concat_param {
    axis: 1
  }
}
layer {
  name: "mbox_priorbox"
  type: "Concat"
  bottom: "conv4_3_norm_mbox_priorbox"
  bottom: "fc7_mbox_priorbox"
  bottom: "conv6_2_mbox_priorbox"
  bottom: "conv7_2_mbox_priorbox"
  bottom: "conv8_2_mbox_priorbox"
  bottom: "conv9_2_mbox_priorbox"
  top: "mbox_priorbox"
  concat_param {
    axis: 2
  }
}
layer {
  name: "mbox_conf_reshape"
  type: "Reshape"
  bottom: "mbox_conf"
  top: "mbox_conf_reshape"
  reshape_param {
    shape {
      dim: 0
      dim: -1
      dim: 3
    }
  }
}
layer {
  name: "mbox_conf_softmax"
  type: "Softmax"
  bottom: "mbox_conf_reshape"
  top: "mbox_conf_softmax"
  softmax_param {
    axis: 2
  }
}
layer {
  name: "mbox_conf_flatten"
  type: "Flatten"
  bottom: "mbox_conf_softmax"
  top: "mbox_conf_flatten"
  flatten_param {
    axis: 1
  }
}
layer {
  name: "detection_out"
  type: "DetectionOutput"
  bottom: "mbox_loc"
  bottom: "mbox_conf_flatten"
  bottom: "mbox_priorbox"
  top: "detection_out"
  include {
    phase: TEST
  }
  detection_output_param {
    num_classes: 3
    share_location: true
    background_label_id: 0
    nms_param {
      nms_threshold: 0.45
      top_k: 400
    }
    save_output_param {
      output_directory: "/home/deepcare/data/tbs_v2.0_HSIL_1_23/results/SSD_300x300/Main"
      output_name_prefix: "comp4_det_test_"
      output_format: "VOC"
      label_map_file: "data/tbs_v2.0_HSIL_1_23/labelmap_voc.prototxt"
      name_size_file: "data/tbs_v2.0_HSIL_1_23/test_name_size"
      num_test_image: 200
    }
    code_type: CENTER_SIZE
    keep_top_k: 200
    confidence_threshold: 0.01
  }
}
layer {
  name: "detection_eval"
  type: "DetectionEvaluate"
  bottom: "detection_out"
  bottom: "label"
  top: "detection_eval"
  include {
    phase: TEST
  }
  detection_evaluate_param {
    num_classes: 3
    background_label_id: 0
    overlap_threshold: 0.5
    evaluate_difficult_gt: false
    name_size_file: "data/tbs_v2.0_HSIL_1_23/test_name_size"
  }
}
I0607 15:51:52.672271  5428 layer_factory.hpp:77] Creating layer data
I0607 15:51:52.672309  5428 net.cpp:100] Creating Layer data
I0607 15:51:52.672317  5428 net.cpp:408] data -> data
I0607 15:51:52.672323  5428 net.cpp:408] data -> label
I0607 15:51:52.673063  5439 db_lmdb.cpp:35] Opened lmdb examples/tbs_v2.0_HSIL_1_23/tbs_v2.0_HSIL_1_23_test_lmdb
I0607 15:51:52.674731  5428 annotated_data_layer.cpp:62] output data size: 8,3,300,300
I0607 15:51:52.684562  5428 net.cpp:150] Setting up data
I0607 15:51:52.684597  5428 net.cpp:157] Top shape: 8 3 300 300 (2160000)
I0607 15:51:52.684600  5428 net.cpp:157] Top shape: 1 1 1 8 (8)
I0607 15:51:52.684602  5428 net.cpp:165] Memory required for data: 8640032
I0607 15:51:52.684620  5428 layer_factory.hpp:77] Creating layer data_data_0_split
I0607 15:51:52.684630  5428 net.cpp:100] Creating Layer data_data_0_split
I0607 15:51:52.684646  5428 net.cpp:434] data_data_0_split <- data
I0607 15:51:52.684651  5428 net.cpp:408] data_data_0_split -> data_data_0_split_0
I0607 15:51:52.684659  5428 net.cpp:408] data_data_0_split -> data_data_0_split_1
I0607 15:51:52.684664  5428 net.cpp:408] data_data_0_split -> data_data_0_split_2
I0607 15:51:52.684669  5428 net.cpp:408] data_data_0_split -> data_data_0_split_3
I0607 15:51:52.684672  5428 net.cpp:408] data_data_0_split -> data_data_0_split_4
I0607 15:51:52.684676  5428 net.cpp:408] data_data_0_split -> data_data_0_split_5
I0607 15:51:52.684680  5428 net.cpp:408] data_data_0_split -> data_data_0_split_6
I0607 15:51:52.684885  5428 net.cpp:150] Setting up data_data_0_split
I0607 15:51:52.684895  5428 net.cpp:157] Top shape: 8 3 300 300 (2160000)
I0607 15:51:52.684900  5428 net.cpp:157] Top shape: 8 3 300 300 (2160000)
I0607 15:51:52.684902  5428 net.cpp:157] Top shape: 8 3 300 300 (2160000)
I0607 15:51:52.684904  5428 net.cpp:157] Top shape: 8 3 300 300 (2160000)
I0607 15:51:52.684937  5428 net.cpp:157] Top shape: 8 3 300 300 (2160000)
I0607 15:51:52.684942  5428 net.cpp:157] Top shape: 8 3 300 300 (2160000)
I0607 15:51:52.684943  5428 net.cpp:157] Top shape: 8 3 300 300 (2160000)
I0607 15:51:52.684945  5428 net.cpp:165] Memory required for data: 69120032
I0607 15:51:52.684948  5428 layer_factory.hpp:77] Creating layer conv1_1
I0607 15:51:52.684958  5428 net.cpp:100] Creating Layer conv1_1
I0607 15:51:52.684965  5428 net.cpp:434] conv1_1 <- data_data_0_split_0
I0607 15:51:52.684970  5428 net.cpp:408] conv1_1 -> conv1_1
I0607 15:51:52.686564  5428 net.cpp:150] Setting up conv1_1
I0607 15:51:52.686595  5428 net.cpp:157] Top shape: 8 64 300 300 (46080000)
I0607 15:51:52.686606  5428 net.cpp:165] Memory required for data: 253440032
I0607 15:51:52.686624  5428 layer_factory.hpp:77] Creating layer relu1_1
I0607 15:51:52.686636  5428 net.cpp:100] Creating Layer relu1_1
I0607 15:51:52.686647  5428 net.cpp:434] relu1_1 <- conv1_1
I0607 15:51:52.686658  5428 net.cpp:395] relu1_1 -> conv1_1 (in-place)
I0607 15:51:52.687202  5428 net.cpp:150] Setting up relu1_1
I0607 15:51:52.687221  5428 net.cpp:157] Top shape: 8 64 300 300 (46080000)
I0607 15:51:52.687230  5428 net.cpp:165] Memory required for data: 437760032
I0607 15:51:52.687240  5428 layer_factory.hpp:77] Creating layer conv1_2
I0607 15:51:52.687255  5428 net.cpp:100] Creating Layer conv1_2
I0607 15:51:52.687266  5428 net.cpp:434] conv1_2 <- conv1_1
I0607 15:51:52.687278  5428 net.cpp:408] conv1_2 -> conv1_2
I0607 15:51:52.690526  5428 net.cpp:150] Setting up conv1_2
I0607 15:51:52.690541  5428 net.cpp:157] Top shape: 8 64 300 300 (46080000)
I0607 15:51:52.690543  5428 net.cpp:165] Memory required for data: 622080032
I0607 15:51:52.690551  5428 layer_factory.hpp:77] Creating layer relu1_2
I0607 15:51:52.690572  5428 net.cpp:100] Creating Layer relu1_2
I0607 15:51:52.690577  5428 net.cpp:434] relu1_2 <- conv1_2
I0607 15:51:52.690580  5428 net.cpp:395] relu1_2 -> conv1_2 (in-place)
I0607 15:51:52.690752  5428 net.cpp:150] Setting up relu1_2
I0607 15:51:52.690759  5428 net.cpp:157] Top shape: 8 64 300 300 (46080000)
I0607 15:51:52.690762  5428 net.cpp:165] Memory required for data: 806400032
I0607 15:51:52.690764  5428 layer_factory.hpp:77] Creating layer pool1
I0607 15:51:52.690768  5428 net.cpp:100] Creating Layer pool1
I0607 15:51:52.690770  5428 net.cpp:434] pool1 <- conv1_2
I0607 15:51:52.690789  5428 net.cpp:408] pool1 -> pool1
I0607 15:51:52.690850  5428 net.cpp:150] Setting up pool1
I0607 15:51:52.690855  5428 net.cpp:157] Top shape: 8 64 150 150 (11520000)
I0607 15:51:52.690857  5428 net.cpp:165] Memory required for data: 852480032
I0607 15:51:52.690860  5428 layer_factory.hpp:77] Creating layer conv2_1
I0607 15:51:52.690877  5428 net.cpp:100] Creating Layer conv2_1
I0607 15:51:52.690881  5428 net.cpp:434] conv2_1 <- pool1
I0607 15:51:52.690899  5428 net.cpp:408] conv2_1 -> conv2_1
I0607 15:51:52.693068  5428 net.cpp:150] Setting up conv2_1
I0607 15:51:52.693080  5428 net.cpp:157] Top shape: 8 128 150 150 (23040000)
I0607 15:51:52.693083  5428 net.cpp:165] Memory required for data: 944640032
I0607 15:51:52.693090  5428 layer_factory.hpp:77] Creating layer relu2_1
I0607 15:51:52.693110  5428 net.cpp:100] Creating Layer relu2_1
I0607 15:51:52.693114  5428 net.cpp:434] relu2_1 <- conv2_1
I0607 15:51:52.693130  5428 net.cpp:395] relu2_1 -> conv2_1 (in-place)
I0607 15:51:52.693621  5428 net.cpp:150] Setting up relu2_1
I0607 15:51:52.693629  5428 net.cpp:157] Top shape: 8 128 150 150 (23040000)
I0607 15:51:52.693630  5428 net.cpp:165] Memory required for data: 1036800032
I0607 15:51:52.693632  5428 layer_factory.hpp:77] Creating layer conv2_2
I0607 15:51:52.693639  5428 net.cpp:100] Creating Layer conv2_2
I0607 15:51:52.693656  5428 net.cpp:434] conv2_2 <- conv2_1
I0607 15:51:52.693660  5428 net.cpp:408] conv2_2 -> conv2_2
I0607 15:51:52.696030  5428 net.cpp:150] Setting up conv2_2
I0607 15:51:52.696048  5428 net.cpp:157] Top shape: 8 128 150 150 (23040000)
I0607 15:51:52.696051  5428 net.cpp:165] Memory required for data: 1128960032
I0607 15:51:52.696127  5428 layer_factory.hpp:77] Creating layer relu2_2
I0607 15:51:52.696135  5428 net.cpp:100] Creating Layer relu2_2
I0607 15:51:52.696153  5428 net.cpp:434] relu2_2 <- conv2_2
I0607 15:51:52.696158  5428 net.cpp:395] relu2_2 -> conv2_2 (in-place)
I0607 15:51:52.696689  5428 net.cpp:150] Setting up relu2_2
I0607 15:51:52.696698  5428 net.cpp:157] Top shape: 8 128 150 150 (23040000)
I0607 15:51:52.696701  5428 net.cpp:165] Memory required for data: 1221120032
I0607 15:51:52.696703  5428 layer_factory.hpp:77] Creating layer pool2
I0607 15:51:52.696707  5428 net.cpp:100] Creating Layer pool2
I0607 15:51:52.696723  5428 net.cpp:434] pool2 <- conv2_2
I0607 15:51:52.696727  5428 net.cpp:408] pool2 -> pool2
I0607 15:51:52.696794  5428 net.cpp:150] Setting up pool2
I0607 15:51:52.696799  5428 net.cpp:157] Top shape: 8 128 75 75 (5760000)
I0607 15:51:52.696800  5428 net.cpp:165] Memory required for data: 1244160032
I0607 15:51:52.696804  5428 layer_factory.hpp:77] Creating layer conv3_1
I0607 15:51:52.696810  5428 net.cpp:100] Creating Layer conv3_1
I0607 15:51:52.696812  5428 net.cpp:434] conv3_1 <- pool2
I0607 15:51:52.696817  5428 net.cpp:408] conv3_1 -> conv3_1
I0607 15:51:52.700109  5428 net.cpp:150] Setting up conv3_1
I0607 15:51:52.700124  5428 net.cpp:157] Top shape: 8 256 75 75 (11520000)
I0607 15:51:52.700127  5428 net.cpp:165] Memory required for data: 1290240032
I0607 15:51:52.700150  5428 layer_factory.hpp:77] Creating layer relu3_1
I0607 15:51:52.700156  5428 net.cpp:100] Creating Layer relu3_1
I0607 15:51:52.700166  5428 net.cpp:434] relu3_1 <- conv3_1
I0607 15:51:52.700170  5428 net.cpp:395] relu3_1 -> conv3_1 (in-place)
I0607 15:51:52.700342  5428 net.cpp:150] Setting up relu3_1
I0607 15:51:52.700350  5428 net.cpp:157] Top shape: 8 256 75 75 (11520000)
I0607 15:51:52.700351  5428 net.cpp:165] Memory required for data: 1336320032
I0607 15:51:52.700353  5428 layer_factory.hpp:77] Creating layer conv3_2
I0607 15:51:52.700361  5428 net.cpp:100] Creating Layer conv3_2
I0607 15:51:52.700377  5428 net.cpp:434] conv3_2 <- conv3_1
I0607 15:51:52.700387  5428 net.cpp:408] conv3_2 -> conv3_2
I0607 15:51:52.705063  5428 net.cpp:150] Setting up conv3_2
I0607 15:51:52.705080  5428 net.cpp:157] Top shape: 8 256 75 75 (11520000)
I0607 15:51:52.705082  5428 net.cpp:165] Memory required for data: 1382400032
I0607 15:51:52.705102  5428 layer_factory.hpp:77] Creating layer relu3_2
I0607 15:51:52.705108  5428 net.cpp:100] Creating Layer relu3_2
I0607 15:51:52.705124  5428 net.cpp:434] relu3_2 <- conv3_2
I0607 15:51:52.705130  5428 net.cpp:395] relu3_2 -> conv3_2 (in-place)
I0607 15:51:52.705628  5428 net.cpp:150] Setting up relu3_2
I0607 15:51:52.705636  5428 net.cpp:157] Top shape: 8 256 75 75 (11520000)
I0607 15:51:52.705637  5428 net.cpp:165] Memory required for data: 1428480032
I0607 15:51:52.705641  5428 layer_factory.hpp:77] Creating layer conv3_3
I0607 15:51:52.705667  5428 net.cpp:100] Creating Layer conv3_3
I0607 15:51:52.705668  5428 net.cpp:434] conv3_3 <- conv3_2
I0607 15:51:52.705673  5428 net.cpp:408] conv3_3 -> conv3_3
I0607 15:51:52.710063  5428 net.cpp:150] Setting up conv3_3
I0607 15:51:52.710078  5428 net.cpp:157] Top shape: 8 256 75 75 (11520000)
I0607 15:51:52.710081  5428 net.cpp:165] Memory required for data: 1474560032
I0607 15:51:52.710088  5428 layer_factory.hpp:77] Creating layer relu3_3
I0607 15:51:52.710093  5428 net.cpp:100] Creating Layer relu3_3
I0607 15:51:52.710096  5428 net.cpp:434] relu3_3 <- conv3_3
I0607 15:51:52.710100  5428 net.cpp:395] relu3_3 -> conv3_3 (in-place)
I0607 15:51:52.710907  5428 net.cpp:150] Setting up relu3_3
I0607 15:51:52.710918  5428 net.cpp:157] Top shape: 8 256 75 75 (11520000)
I0607 15:51:52.710921  5428 net.cpp:165] Memory required for data: 1520640032
I0607 15:51:52.710922  5428 layer_factory.hpp:77] Creating layer pool3
I0607 15:51:52.710928  5428 net.cpp:100] Creating Layer pool3
I0607 15:51:52.710932  5428 net.cpp:434] pool3 <- conv3_3
I0607 15:51:52.710937  5428 net.cpp:408] pool3 -> pool3
I0607 15:51:52.710994  5428 net.cpp:150] Setting up pool3
I0607 15:51:52.711009  5428 net.cpp:157] Top shape: 8 256 38 38 (2957312)
I0607 15:51:52.711012  5428 net.cpp:165] Memory required for data: 1532469280
I0607 15:51:52.711014  5428 layer_factory.hpp:77] Creating layer conv4_1
I0607 15:51:52.711024  5428 net.cpp:100] Creating Layer conv4_1
I0607 15:51:52.711025  5428 net.cpp:434] conv4_1 <- pool3
I0607 15:51:52.711030  5428 net.cpp:408] conv4_1 -> conv4_1
I0607 15:51:52.718618  5428 net.cpp:150] Setting up conv4_1
I0607 15:51:52.718638  5428 net.cpp:157] Top shape: 8 512 38 38 (5914624)
I0607 15:51:52.718641  5428 net.cpp:165] Memory required for data: 1556127776
I0607 15:51:52.718663  5428 layer_factory.hpp:77] Creating layer relu4_1
I0607 15:51:52.718672  5428 net.cpp:100] Creating Layer relu4_1
I0607 15:51:52.718677  5428 net.cpp:434] relu4_1 <- conv4_1
I0607 15:51:52.718680  5428 net.cpp:395] relu4_1 -> conv4_1 (in-place)
I0607 15:51:52.718897  5428 net.cpp:150] Setting up relu4_1
I0607 15:51:52.718904  5428 net.cpp:157] Top shape: 8 512 38 38 (5914624)
I0607 15:51:52.718906  5428 net.cpp:165] Memory required for data: 1579786272
I0607 15:51:52.718909  5428 layer_factory.hpp:77] Creating layer conv4_2
I0607 15:51:52.718931  5428 net.cpp:100] Creating Layer conv4_2
I0607 15:51:52.718933  5428 net.cpp:434] conv4_2 <- conv4_1
I0607 15:51:52.718937  5428 net.cpp:408] conv4_2 -> conv4_2
I0607 15:51:52.731523  5428 net.cpp:150] Setting up conv4_2
I0607 15:51:52.731541  5428 net.cpp:157] Top shape: 8 512 38 38 (5914624)
I0607 15:51:52.731544  5428 net.cpp:165] Memory required for data: 1603444768
I0607 15:51:52.731567  5428 layer_factory.hpp:77] Creating layer relu4_2
I0607 15:51:52.731587  5428 net.cpp:100] Creating Layer relu4_2
I0607 15:51:52.731600  5428 net.cpp:434] relu4_2 <- conv4_2
I0607 15:51:52.731606  5428 net.cpp:395] relu4_2 -> conv4_2 (in-place)
I0607 15:51:52.732118  5428 net.cpp:150] Setting up relu4_2
I0607 15:51:52.732125  5428 net.cpp:157] Top shape: 8 512 38 38 (5914624)
I0607 15:51:52.732128  5428 net.cpp:165] Memory required for data: 1627103264
I0607 15:51:52.732131  5428 layer_factory.hpp:77] Creating layer conv4_3
I0607 15:51:52.732152  5428 net.cpp:100] Creating Layer conv4_3
I0607 15:51:52.732154  5428 net.cpp:434] conv4_3 <- conv4_2
I0607 15:51:52.732177  5428 net.cpp:408] conv4_3 -> conv4_3
I0607 15:51:52.744382  5428 net.cpp:150] Setting up conv4_3
I0607 15:51:52.744400  5428 net.cpp:157] Top shape: 8 512 38 38 (5914624)
I0607 15:51:52.744401  5428 net.cpp:165] Memory required for data: 1650761760
I0607 15:51:52.744422  5428 layer_factory.hpp:77] Creating layer relu4_3
I0607 15:51:52.744428  5428 net.cpp:100] Creating Layer relu4_3
I0607 15:51:52.744431  5428 net.cpp:434] relu4_3 <- conv4_3
I0607 15:51:52.744441  5428 net.cpp:395] relu4_3 -> conv4_3 (in-place)
I0607 15:51:52.745106  5428 net.cpp:150] Setting up relu4_3
I0607 15:51:52.745129  5428 net.cpp:157] Top shape: 8 512 38 38 (5914624)
I0607 15:51:52.745131  5428 net.cpp:165] Memory required for data: 1674420256
I0607 15:51:52.745133  5428 layer_factory.hpp:77] Creating layer conv4_3_relu4_3_0_split
I0607 15:51:52.745139  5428 net.cpp:100] Creating Layer conv4_3_relu4_3_0_split
I0607 15:51:52.745142  5428 net.cpp:434] conv4_3_relu4_3_0_split <- conv4_3
I0607 15:51:52.745146  5428 net.cpp:408] conv4_3_relu4_3_0_split -> conv4_3_relu4_3_0_split_0
I0607 15:51:52.745164  5428 net.cpp:408] conv4_3_relu4_3_0_split -> conv4_3_relu4_3_0_split_1
I0607 15:51:52.746381  5428 net.cpp:150] Setting up conv4_3_relu4_3_0_split
I0607 15:51:52.746395  5428 net.cpp:157] Top shape: 8 512 38 38 (5914624)
I0607 15:51:52.746398  5428 net.cpp:157] Top shape: 8 512 38 38 (5914624)
I0607 15:51:52.746400  5428 net.cpp:165] Memory required for data: 1721737248
I0607 15:51:52.746418  5428 layer_factory.hpp:77] Creating layer pool4
I0607 15:51:52.746424  5428 net.cpp:100] Creating Layer pool4
I0607 15:51:52.746444  5428 net.cpp:434] pool4 <- conv4_3_relu4_3_0_split_0
I0607 15:51:52.746449  5428 net.cpp:408] pool4 -> pool4
I0607 15:51:52.746492  5428 net.cpp:150] Setting up pool4
I0607 15:51:52.746497  5428 net.cpp:157] Top shape: 8 512 19 19 (1478656)
I0607 15:51:52.746511  5428 net.cpp:165] Memory required for data: 1727651872
I0607 15:51:52.746513  5428 layer_factory.hpp:77] Creating layer conv5_1
I0607 15:51:52.746525  5428 net.cpp:100] Creating Layer conv5_1
I0607 15:51:52.746526  5428 net.cpp:434] conv5_1 <- pool4
I0607 15:51:52.746531  5428 net.cpp:408] conv5_1 -> conv5_1
I0607 15:51:52.759137  5428 net.cpp:150] Setting up conv5_1
I0607 15:51:52.759160  5428 net.cpp:157] Top shape: 8 512 19 19 (1478656)
I0607 15:51:52.759161  5428 net.cpp:165] Memory required for data: 1733566496
I0607 15:51:52.759182  5428 layer_factory.hpp:77] Creating layer relu5_1
I0607 15:51:52.759189  5428 net.cpp:100] Creating Layer relu5_1
I0607 15:51:52.759192  5428 net.cpp:434] relu5_1 <- conv5_1
I0607 15:51:52.759196  5428 net.cpp:395] relu5_1 -> conv5_1 (in-place)
I0607 15:51:52.759364  5428 net.cpp:150] Setting up relu5_1
I0607 15:51:52.759395  5428 net.cpp:157] Top shape: 8 512 19 19 (1478656)
I0607 15:51:52.759404  5428 net.cpp:165] Memory required for data: 1739481120
I0607 15:51:52.759425  5428 layer_factory.hpp:77] Creating layer conv5_2
I0607 15:51:52.759439  5428 net.cpp:100] Creating Layer conv5_2
I0607 15:51:52.759448  5428 net.cpp:434] conv5_2 <- conv5_1
I0607 15:51:52.759459  5428 net.cpp:408] conv5_2 -> conv5_2
I0607 15:51:52.771939  5428 net.cpp:150] Setting up conv5_2
I0607 15:51:52.771965  5428 net.cpp:157] Top shape: 8 512 19 19 (1478656)
I0607 15:51:52.771968  5428 net.cpp:165] Memory required for data: 1745395744
I0607 15:51:52.771991  5428 layer_factory.hpp:77] Creating layer relu5_2
I0607 15:51:52.772009  5428 net.cpp:100] Creating Layer relu5_2
I0607 15:51:52.772013  5428 net.cpp:434] relu5_2 <- conv5_2
I0607 15:51:52.772018  5428 net.cpp:395] relu5_2 -> conv5_2 (in-place)
I0607 15:51:52.772685  5428 net.cpp:150] Setting up relu5_2
I0607 15:51:52.772708  5428 net.cpp:157] Top shape: 8 512 19 19 (1478656)
I0607 15:51:52.772711  5428 net.cpp:165] Memory required for data: 1751310368
I0607 15:51:52.772714  5428 layer_factory.hpp:77] Creating layer conv5_3
I0607 15:51:52.772750  5428 net.cpp:100] Creating Layer conv5_3
I0607 15:51:52.772754  5428 net.cpp:434] conv5_3 <- conv5_2
I0607 15:51:52.772763  5428 net.cpp:408] conv5_3 -> conv5_3
I0607 15:51:52.785396  5428 net.cpp:150] Setting up conv5_3
I0607 15:51:52.785414  5428 net.cpp:157] Top shape: 8 512 19 19 (1478656)
I0607 15:51:52.785416  5428 net.cpp:165] Memory required for data: 1757224992
I0607 15:51:52.785437  5428 layer_factory.hpp:77] Creating layer relu5_3
I0607 15:51:52.785450  5428 net.cpp:100] Creating Layer relu5_3
I0607 15:51:52.785454  5428 net.cpp:434] relu5_3 <- conv5_3
I0607 15:51:52.785459  5428 net.cpp:395] relu5_3 -> conv5_3 (in-place)
I0607 15:51:52.785982  5428 net.cpp:150] Setting up relu5_3
I0607 15:51:52.785990  5428 net.cpp:157] Top shape: 8 512 19 19 (1478656)
I0607 15:51:52.785992  5428 net.cpp:165] Memory required for data: 1763139616
I0607 15:51:52.785995  5428 layer_factory.hpp:77] Creating layer pool5
I0607 15:51:52.786000  5428 net.cpp:100] Creating Layer pool5
I0607 15:51:52.786017  5428 net.cpp:434] pool5 <- conv5_3
I0607 15:51:52.786021  5428 net.cpp:408] pool5 -> pool5
I0607 15:51:52.786089  5428 net.cpp:150] Setting up pool5
I0607 15:51:52.786113  5428 net.cpp:157] Top shape: 8 512 19 19 (1478656)
I0607 15:51:52.786121  5428 net.cpp:165] Memory required for data: 1769054240
I0607 15:51:52.786128  5428 layer_factory.hpp:77] Creating layer fc6
I0607 15:51:52.786141  5428 net.cpp:100] Creating Layer fc6
I0607 15:51:52.786150  5428 net.cpp:434] fc6 <- pool5
I0607 15:51:52.786166  5428 net.cpp:408] fc6 -> fc6
I0607 15:51:52.808478  5428 net.cpp:150] Setting up fc6
I0607 15:51:52.808518  5428 net.cpp:157] Top shape: 8 1024 19 19 (2957312)
I0607 15:51:52.808526  5428 net.cpp:165] Memory required for data: 1780883488
I0607 15:51:52.808537  5428 layer_factory.hpp:77] Creating layer relu6
I0607 15:51:52.808548  5428 net.cpp:100] Creating Layer relu6
I0607 15:51:52.808557  5428 net.cpp:434] relu6 <- fc6
I0607 15:51:52.808573  5428 net.cpp:395] relu6 -> fc6 (in-place)
I0607 15:51:52.809229  5428 net.cpp:150] Setting up relu6
I0607 15:51:52.809238  5428 net.cpp:157] Top shape: 8 1024 19 19 (2957312)
I0607 15:51:52.809240  5428 net.cpp:165] Memory required for data: 1792712736
I0607 15:51:52.809243  5428 layer_factory.hpp:77] Creating layer fc7
I0607 15:51:52.809267  5428 net.cpp:100] Creating Layer fc7
I0607 15:51:52.809269  5428 net.cpp:434] fc7 <- fc6
I0607 15:51:52.809274  5428 net.cpp:408] fc7 -> fc7
I0607 15:51:52.815558  5428 net.cpp:150] Setting up fc7
I0607 15:51:52.815579  5428 net.cpp:157] Top shape: 8 1024 19 19 (2957312)
I0607 15:51:52.815582  5428 net.cpp:165] Memory required for data: 1804541984
I0607 15:51:52.815603  5428 layer_factory.hpp:77] Creating layer relu7
I0607 15:51:52.815608  5428 net.cpp:100] Creating Layer relu7
I0607 15:51:52.815613  5428 net.cpp:434] relu7 <- fc7
I0607 15:51:52.815618  5428 net.cpp:395] relu7 -> fc7 (in-place)
I0607 15:51:52.816136  5428 net.cpp:150] Setting up relu7
I0607 15:51:52.816146  5428 net.cpp:157] Top shape: 8 1024 19 19 (2957312)
I0607 15:51:52.816149  5428 net.cpp:165] Memory required for data: 1816371232
I0607 15:51:52.816151  5428 layer_factory.hpp:77] Creating layer fc7_relu7_0_split
I0607 15:51:52.816155  5428 net.cpp:100] Creating Layer fc7_relu7_0_split
I0607 15:51:52.816159  5428 net.cpp:434] fc7_relu7_0_split <- fc7
I0607 15:51:52.816179  5428 net.cpp:408] fc7_relu7_0_split -> fc7_relu7_0_split_0
I0607 15:51:52.816184  5428 net.cpp:408] fc7_relu7_0_split -> fc7_relu7_0_split_1
I0607 15:51:52.816193  5428 net.cpp:408] fc7_relu7_0_split -> fc7_relu7_0_split_2
I0607 15:51:52.816198  5428 net.cpp:408] fc7_relu7_0_split -> fc7_relu7_0_split_3
I0607 15:51:52.816282  5428 net.cpp:150] Setting up fc7_relu7_0_split
I0607 15:51:52.816285  5428 net.cpp:157] Top shape: 8 1024 19 19 (2957312)
I0607 15:51:52.816289  5428 net.cpp:157] Top shape: 8 1024 19 19 (2957312)
I0607 15:51:52.816293  5428 net.cpp:157] Top shape: 8 1024 19 19 (2957312)
I0607 15:51:52.816294  5428 net.cpp:157] Top shape: 8 1024 19 19 (2957312)
I0607 15:51:52.816296  5428 net.cpp:165] Memory required for data: 1863688224
I0607 15:51:52.816298  5428 layer_factory.hpp:77] Creating layer conv6_1
I0607 15:51:52.816305  5428 net.cpp:100] Creating Layer conv6_1
I0607 15:51:52.816308  5428 net.cpp:434] conv6_1 <- fc7_relu7_0_split_0
I0607 15:51:52.816313  5428 net.cpp:408] conv6_1 -> conv6_1
I0607 15:51:52.819485  5428 net.cpp:150] Setting up conv6_1
I0607 15:51:52.819511  5428 net.cpp:157] Top shape: 8 256 19 19 (739328)
I0607 15:51:52.819514  5428 net.cpp:165] Memory required for data: 1866645536
I0607 15:51:52.819535  5428 layer_factory.hpp:77] Creating layer conv6_1_relu
I0607 15:51:52.819541  5428 net.cpp:100] Creating Layer conv6_1_relu
I0607 15:51:52.819546  5428 net.cpp:434] conv6_1_relu <- conv6_1
I0607 15:51:52.819552  5428 net.cpp:395] conv6_1_relu -> conv6_1 (in-place)
I0607 15:51:52.819706  5428 net.cpp:150] Setting up conv6_1_relu
I0607 15:51:52.819711  5428 net.cpp:157] Top shape: 8 256 19 19 (739328)
I0607 15:51:52.819713  5428 net.cpp:165] Memory required for data: 1869602848
I0607 15:51:52.819715  5428 layer_factory.hpp:77] Creating layer conv6_2
I0607 15:51:52.819723  5428 net.cpp:100] Creating Layer conv6_2
I0607 15:51:52.819725  5428 net.cpp:434] conv6_2 <- conv6_1
I0607 15:51:52.819731  5428 net.cpp:408] conv6_2 -> conv6_2
I0607 15:51:52.826900  5428 net.cpp:150] Setting up conv6_2
I0607 15:51:52.826917  5428 net.cpp:157] Top shape: 8 512 10 10 (409600)
I0607 15:51:52.826920  5428 net.cpp:165] Memory required for data: 1871241248
I0607 15:51:52.826948  5428 layer_factory.hpp:77] Creating layer conv6_2_relu
I0607 15:51:52.826956  5428 net.cpp:100] Creating Layer conv6_2_relu
I0607 15:51:52.826958  5428 net.cpp:434] conv6_2_relu <- conv6_2
I0607 15:51:52.826962  5428 net.cpp:395] conv6_2_relu -> conv6_2 (in-place)
I0607 15:51:52.827518  5428 net.cpp:150] Setting up conv6_2_relu
I0607 15:51:52.827527  5428 net.cpp:157] Top shape: 8 512 10 10 (409600)
I0607 15:51:52.827529  5428 net.cpp:165] Memory required for data: 1872879648
I0607 15:51:52.827556  5428 layer_factory.hpp:77] Creating layer conv6_2_conv6_2_relu_0_split
I0607 15:51:52.827563  5428 net.cpp:100] Creating Layer conv6_2_conv6_2_relu_0_split
I0607 15:51:52.827565  5428 net.cpp:434] conv6_2_conv6_2_relu_0_split <- conv6_2
I0607 15:51:52.827569  5428 net.cpp:408] conv6_2_conv6_2_relu_0_split -> conv6_2_conv6_2_relu_0_split_0
I0607 15:51:52.827575  5428 net.cpp:408] conv6_2_conv6_2_relu_0_split -> conv6_2_conv6_2_relu_0_split_1
I0607 15:51:52.827592  5428 net.cpp:408] conv6_2_conv6_2_relu_0_split -> conv6_2_conv6_2_relu_0_split_2
I0607 15:51:52.827596  5428 net.cpp:408] conv6_2_conv6_2_relu_0_split -> conv6_2_conv6_2_relu_0_split_3
I0607 15:51:52.827669  5428 net.cpp:150] Setting up conv6_2_conv6_2_relu_0_split
I0607 15:51:52.827673  5428 net.cpp:157] Top shape: 8 512 10 10 (409600)
I0607 15:51:52.827677  5428 net.cpp:157] Top shape: 8 512 10 10 (409600)
I0607 15:51:52.827679  5428 net.cpp:157] Top shape: 8 512 10 10 (409600)
I0607 15:51:52.827682  5428 net.cpp:157] Top shape: 8 512 10 10 (409600)
I0607 15:51:52.827683  5428 net.cpp:165] Memory required for data: 1879433248
I0607 15:51:52.827687  5428 layer_factory.hpp:77] Creating layer conv7_1
I0607 15:51:52.827692  5428 net.cpp:100] Creating Layer conv7_1
I0607 15:51:52.827695  5428 net.cpp:434] conv7_1 <- conv6_2_conv6_2_relu_0_split_0
I0607 15:51:52.827700  5428 net.cpp:408] conv7_1 -> conv7_1
I0607 15:51:52.829026  5428 net.cpp:150] Setting up conv7_1
I0607 15:51:52.829036  5428 net.cpp:157] Top shape: 8 128 10 10 (102400)
I0607 15:51:52.829038  5428 net.cpp:165] Memory required for data: 1879842848
I0607 15:51:52.829042  5428 layer_factory.hpp:77] Creating layer conv7_1_relu
I0607 15:51:52.829061  5428 net.cpp:100] Creating Layer conv7_1_relu
I0607 15:51:52.829064  5428 net.cpp:434] conv7_1_relu <- conv7_1
I0607 15:51:52.829067  5428 net.cpp:395] conv7_1_relu -> conv7_1 (in-place)
I0607 15:51:52.829591  5428 net.cpp:150] Setting up conv7_1_relu
I0607 15:51:52.829598  5428 net.cpp:157] Top shape: 8 128 10 10 (102400)
I0607 15:51:52.829601  5428 net.cpp:165] Memory required for data: 1880252448
I0607 15:51:52.829602  5428 layer_factory.hpp:77] Creating layer conv7_2
I0607 15:51:52.829625  5428 net.cpp:100] Creating Layer conv7_2
I0607 15:51:52.829628  5428 net.cpp:434] conv7_2 <- conv7_1
I0607 15:51:52.829632  5428 net.cpp:408] conv7_2 -> conv7_2
I0607 15:51:52.832563  5428 net.cpp:150] Setting up conv7_2
I0607 15:51:52.832577  5428 net.cpp:157] Top shape: 8 256 5 5 (51200)
I0607 15:51:52.832581  5428 net.cpp:165] Memory required for data: 1880457248
I0607 15:51:52.832586  5428 layer_factory.hpp:77] Creating layer conv7_2_relu
I0607 15:51:52.832604  5428 net.cpp:100] Creating Layer conv7_2_relu
I0607 15:51:52.832608  5428 net.cpp:434] conv7_2_relu <- conv7_2
I0607 15:51:52.832613  5428 net.cpp:395] conv7_2_relu -> conv7_2 (in-place)
I0607 15:51:52.832767  5428 net.cpp:150] Setting up conv7_2_relu
I0607 15:51:52.832772  5428 net.cpp:157] Top shape: 8 256 5 5 (51200)
I0607 15:51:52.832774  5428 net.cpp:165] Memory required for data: 1880662048
I0607 15:51:52.832777  5428 layer_factory.hpp:77] Creating layer conv7_2_conv7_2_relu_0_split
I0607 15:51:52.832783  5428 net.cpp:100] Creating Layer conv7_2_conv7_2_relu_0_split
I0607 15:51:52.832785  5428 net.cpp:434] conv7_2_conv7_2_relu_0_split <- conv7_2
I0607 15:51:52.832790  5428 net.cpp:408] conv7_2_conv7_2_relu_0_split -> conv7_2_conv7_2_relu_0_split_0
I0607 15:51:52.832795  5428 net.cpp:408] conv7_2_conv7_2_relu_0_split -> conv7_2_conv7_2_relu_0_split_1
I0607 15:51:52.832799  5428 net.cpp:408] conv7_2_conv7_2_relu_0_split -> conv7_2_conv7_2_relu_0_split_2
I0607 15:51:52.832803  5428 net.cpp:408] conv7_2_conv7_2_relu_0_split -> conv7_2_conv7_2_relu_0_split_3
I0607 15:51:52.832873  5428 net.cpp:150] Setting up conv7_2_conv7_2_relu_0_split
I0607 15:51:52.832878  5428 net.cpp:157] Top shape: 8 256 5 5 (51200)
I0607 15:51:52.832881  5428 net.cpp:157] Top shape: 8 256 5 5 (51200)
I0607 15:51:52.832883  5428 net.cpp:157] Top shape: 8 256 5 5 (51200)
I0607 15:51:52.832886  5428 net.cpp:157] Top shape: 8 256 5 5 (51200)
I0607 15:51:52.832897  5428 net.cpp:165] Memory required for data: 1881481248
I0607 15:51:52.832901  5428 layer_factory.hpp:77] Creating layer conv8_1
I0607 15:51:52.832907  5428 net.cpp:100] Creating Layer conv8_1
I0607 15:51:52.832911  5428 net.cpp:434] conv8_1 <- conv7_2_conv7_2_relu_0_split_0
I0607 15:51:52.832916  5428 net.cpp:408] conv8_1 -> conv8_1
I0607 15:51:52.834517  5428 net.cpp:150] Setting up conv8_1
I0607 15:51:52.834527  5428 net.cpp:157] Top shape: 8 128 5 5 (25600)
I0607 15:51:52.834530  5428 net.cpp:165] Memory required for data: 1881583648
I0607 15:51:52.834534  5428 layer_factory.hpp:77] Creating layer conv8_1_relu
I0607 15:51:52.834553  5428 net.cpp:100] Creating Layer conv8_1_relu
I0607 15:51:52.834555  5428 net.cpp:434] conv8_1_relu <- conv8_1
I0607 15:51:52.834558  5428 net.cpp:395] conv8_1_relu -> conv8_1 (in-place)
I0607 15:51:52.835080  5428 net.cpp:150] Setting up conv8_1_relu
I0607 15:51:52.835088  5428 net.cpp:157] Top shape: 8 128 5 5 (25600)
I0607 15:51:52.835090  5428 net.cpp:165] Memory required for data: 1881686048
I0607 15:51:52.835093  5428 layer_factory.hpp:77] Creating layer conv8_2
I0607 15:51:52.835100  5428 net.cpp:100] Creating Layer conv8_2
I0607 15:51:52.835103  5428 net.cpp:434] conv8_2 <- conv8_1
I0607 15:51:52.835122  5428 net.cpp:408] conv8_2 -> conv8_2
I0607 15:51:52.837656  5428 net.cpp:150] Setting up conv8_2
I0607 15:51:52.837669  5428 net.cpp:157] Top shape: 8 256 3 3 (18432)
I0607 15:51:52.837671  5428 net.cpp:165] Memory required for data: 1881759776
I0607 15:51:52.837677  5428 layer_factory.hpp:77] Creating layer conv8_2_relu
I0607 15:51:52.837695  5428 net.cpp:100] Creating Layer conv8_2_relu
I0607 15:51:52.837698  5428 net.cpp:434] conv8_2_relu <- conv8_2
I0607 15:51:52.837703  5428 net.cpp:395] conv8_2_relu -> conv8_2 (in-place)
I0607 15:51:52.838241  5428 net.cpp:150] Setting up conv8_2_relu
I0607 15:51:52.838248  5428 net.cpp:157] Top shape: 8 256 3 3 (18432)
I0607 15:51:52.838251  5428 net.cpp:165] Memory required for data: 1881833504
I0607 15:51:52.838253  5428 layer_factory.hpp:77] Creating layer conv8_2_conv8_2_relu_0_split
I0607 15:51:52.838258  5428 net.cpp:100] Creating Layer conv8_2_conv8_2_relu_0_split
I0607 15:51:52.838275  5428 net.cpp:434] conv8_2_conv8_2_relu_0_split <- conv8_2
I0607 15:51:52.838280  5428 net.cpp:408] conv8_2_conv8_2_relu_0_split -> conv8_2_conv8_2_relu_0_split_0
I0607 15:51:52.838286  5428 net.cpp:408] conv8_2_conv8_2_relu_0_split -> conv8_2_conv8_2_relu_0_split_1
I0607 15:51:52.838291  5428 net.cpp:408] conv8_2_conv8_2_relu_0_split -> conv8_2_conv8_2_relu_0_split_2
I0607 15:51:52.838307  5428 net.cpp:408] conv8_2_conv8_2_relu_0_split -> conv8_2_conv8_2_relu_0_split_3
I0607 15:51:52.838382  5428 net.cpp:150] Setting up conv8_2_conv8_2_relu_0_split
I0607 15:51:52.838385  5428 net.cpp:157] Top shape: 8 256 3 3 (18432)
I0607 15:51:52.838388  5428 net.cpp:157] Top shape: 8 256 3 3 (18432)
I0607 15:51:52.838390  5428 net.cpp:157] Top shape: 8 256 3 3 (18432)
I0607 15:51:52.838393  5428 net.cpp:157] Top shape: 8 256 3 3 (18432)
I0607 15:51:52.838395  5428 net.cpp:165] Memory required for data: 1882128416
I0607 15:51:52.838397  5428 layer_factory.hpp:77] Creating layer conv9_1
I0607 15:51:52.838405  5428 net.cpp:100] Creating Layer conv9_1
I0607 15:51:52.838408  5428 net.cpp:434] conv9_1 <- conv8_2_conv8_2_relu_0_split_0
I0607 15:51:52.838413  5428 net.cpp:408] conv9_1 -> conv9_1
I0607 15:51:52.839996  5428 net.cpp:150] Setting up conv9_1
I0607 15:51:52.840006  5428 net.cpp:157] Top shape: 8 128 3 3 (9216)
I0607 15:51:52.840008  5428 net.cpp:165] Memory required for data: 1882165280
I0607 15:51:52.840014  5428 layer_factory.hpp:77] Creating layer conv9_1_relu
I0607 15:51:52.840019  5428 net.cpp:100] Creating Layer conv9_1_relu
I0607 15:51:52.840023  5428 net.cpp:434] conv9_1_relu <- conv9_1
I0607 15:51:52.840026  5428 net.cpp:395] conv9_1_relu -> conv9_1 (in-place)
I0607 15:51:52.840169  5428 net.cpp:150] Setting up conv9_1_relu
I0607 15:51:52.840175  5428 net.cpp:157] Top shape: 8 128 3 3 (9216)
I0607 15:51:52.840178  5428 net.cpp:165] Memory required for data: 1882202144
I0607 15:51:52.840193  5428 layer_factory.hpp:77] Creating layer conv9_2
I0607 15:51:52.840199  5428 net.cpp:100] Creating Layer conv9_2
I0607 15:51:52.840203  5428 net.cpp:434] conv9_2 <- conv9_1
I0607 15:51:52.840206  5428 net.cpp:408] conv9_2 -> conv9_2
I0607 15:51:52.843823  5428 net.cpp:150] Setting up conv9_2
I0607 15:51:52.843843  5428 net.cpp:157] Top shape: 8 256 1 1 (2048)
I0607 15:51:52.843847  5428 net.cpp:165] Memory required for data: 1882210336
I0607 15:51:52.843868  5428 layer_factory.hpp:77] Creating layer conv9_2_relu
I0607 15:51:52.843876  5428 net.cpp:100] Creating Layer conv9_2_relu
I0607 15:51:52.843894  5428 net.cpp:434] conv9_2_relu <- conv9_2
I0607 15:51:52.843897  5428 net.cpp:395] conv9_2_relu -> conv9_2 (in-place)
I0607 15:51:52.844446  5428 net.cpp:150] Setting up conv9_2_relu
I0607 15:51:52.844455  5428 net.cpp:157] Top shape: 8 256 1 1 (2048)
I0607 15:51:52.844456  5428 net.cpp:165] Memory required for data: 1882218528
I0607 15:51:52.844460  5428 layer_factory.hpp:77] Creating layer conv9_2_conv9_2_relu_0_split
I0607 15:51:52.844463  5428 net.cpp:100] Creating Layer conv9_2_conv9_2_relu_0_split
I0607 15:51:52.844481  5428 net.cpp:434] conv9_2_conv9_2_relu_0_split <- conv9_2
I0607 15:51:52.844486  5428 net.cpp:408] conv9_2_conv9_2_relu_0_split -> conv9_2_conv9_2_relu_0_split_0
I0607 15:51:52.844491  5428 net.cpp:408] conv9_2_conv9_2_relu_0_split -> conv9_2_conv9_2_relu_0_split_1
I0607 15:51:52.844497  5428 net.cpp:408] conv9_2_conv9_2_relu_0_split -> conv9_2_conv9_2_relu_0_split_2
I0607 15:51:52.844573  5428 net.cpp:150] Setting up conv9_2_conv9_2_relu_0_split
I0607 15:51:52.844576  5428 net.cpp:157] Top shape: 8 256 1 1 (2048)
I0607 15:51:52.844579  5428 net.cpp:157] Top shape: 8 256 1 1 (2048)
I0607 15:51:52.844581  5428 net.cpp:157] Top shape: 8 256 1 1 (2048)
I0607 15:51:52.844584  5428 net.cpp:165] Memory required for data: 1882243104
I0607 15:51:52.844585  5428 layer_factory.hpp:77] Creating layer conv4_3_norm
I0607 15:51:52.844591  5428 net.cpp:100] Creating Layer conv4_3_norm
I0607 15:51:52.844594  5428 net.cpp:434] conv4_3_norm <- conv4_3_relu4_3_0_split_1
I0607 15:51:52.844597  5428 net.cpp:408] conv4_3_norm -> conv4_3_norm
I0607 15:51:52.844771  5428 net.cpp:150] Setting up conv4_3_norm
I0607 15:51:52.844775  5428 net.cpp:157] Top shape: 8 512 38 38 (5914624)
I0607 15:51:52.844777  5428 net.cpp:165] Memory required for data: 1905901600
I0607 15:51:52.844781  5428 layer_factory.hpp:77] Creating layer conv4_3_norm_conv4_3_norm_0_split
I0607 15:51:52.844784  5428 net.cpp:100] Creating Layer conv4_3_norm_conv4_3_norm_0_split
I0607 15:51:52.844787  5428 net.cpp:434] conv4_3_norm_conv4_3_norm_0_split <- conv4_3_norm
I0607 15:51:52.844790  5428 net.cpp:408] conv4_3_norm_conv4_3_norm_0_split -> conv4_3_norm_conv4_3_norm_0_split_0
I0607 15:51:52.844795  5428 net.cpp:408] conv4_3_norm_conv4_3_norm_0_split -> conv4_3_norm_conv4_3_norm_0_split_1
I0607 15:51:52.844799  5428 net.cpp:408] conv4_3_norm_conv4_3_norm_0_split -> conv4_3_norm_conv4_3_norm_0_split_2
I0607 15:51:52.844848  5428 net.cpp:150] Setting up conv4_3_norm_conv4_3_norm_0_split
I0607 15:51:52.844851  5428 net.cpp:157] Top shape: 8 512 38 38 (5914624)
I0607 15:51:52.844854  5428 net.cpp:157] Top shape: 8 512 38 38 (5914624)
I0607 15:51:52.844857  5428 net.cpp:157] Top shape: 8 512 38 38 (5914624)
I0607 15:51:52.844859  5428 net.cpp:165] Memory required for data: 1976877088
I0607 15:51:52.844861  5428 layer_factory.hpp:77] Creating layer conv4_3_norm_mbox_loc
I0607 15:51:52.844871  5428 net.cpp:100] Creating Layer conv4_3_norm_mbox_loc
I0607 15:51:52.844873  5428 net.cpp:434] conv4_3_norm_mbox_loc <- conv4_3_norm_conv4_3_norm_0_split_0
I0607 15:51:52.844878  5428 net.cpp:408] conv4_3_norm_mbox_loc -> conv4_3_norm_mbox_loc
I0607 15:51:52.847043  5428 net.cpp:150] Setting up conv4_3_norm_mbox_loc
I0607 15:51:52.847054  5428 net.cpp:157] Top shape: 8 16 38 38 (184832)
I0607 15:51:52.847055  5428 net.cpp:165] Memory required for data: 1977616416
I0607 15:51:52.847059  5428 layer_factory.hpp:77] Creating layer conv4_3_norm_mbox_loc_perm
I0607 15:51:52.847095  5428 net.cpp:100] Creating Layer conv4_3_norm_mbox_loc_perm
I0607 15:51:52.847098  5428 net.cpp:434] conv4_3_norm_mbox_loc_perm <- conv4_3_norm_mbox_loc
I0607 15:51:52.847102  5428 net.cpp:408] conv4_3_norm_mbox_loc_perm -> conv4_3_norm_mbox_loc_perm
I0607 15:51:52.847234  5428 net.cpp:150] Setting up conv4_3_norm_mbox_loc_perm
I0607 15:51:52.847239  5428 net.cpp:157] Top shape: 8 38 38 16 (184832)
I0607 15:51:52.847241  5428 net.cpp:165] Memory required for data: 1978355744
I0607 15:51:52.847244  5428 layer_factory.hpp:77] Creating layer conv4_3_norm_mbox_loc_flat
I0607 15:51:52.847249  5428 net.cpp:100] Creating Layer conv4_3_norm_mbox_loc_flat
I0607 15:51:52.847252  5428 net.cpp:434] conv4_3_norm_mbox_loc_flat <- conv4_3_norm_mbox_loc_perm
I0607 15:51:52.847256  5428 net.cpp:408] conv4_3_norm_mbox_loc_flat -> conv4_3_norm_mbox_loc_flat
I0607 15:51:52.847287  5428 net.cpp:150] Setting up conv4_3_norm_mbox_loc_flat
I0607 15:51:52.847292  5428 net.cpp:157] Top shape: 8 23104 (184832)
I0607 15:51:52.847295  5428 net.cpp:165] Memory required for data: 1979095072
I0607 15:51:52.847296  5428 layer_factory.hpp:77] Creating layer conv4_3_norm_mbox_conf
I0607 15:51:52.847308  5428 net.cpp:100] Creating Layer conv4_3_norm_mbox_conf
I0607 15:51:52.847311  5428 net.cpp:434] conv4_3_norm_mbox_conf <- conv4_3_norm_conv4_3_norm_0_split_1
I0607 15:51:52.847316  5428 net.cpp:408] conv4_3_norm_mbox_conf -> conv4_3_norm_mbox_conf
I0607 15:51:52.849637  5428 net.cpp:150] Setting up conv4_3_norm_mbox_conf
I0607 15:51:52.849648  5428 net.cpp:157] Top shape: 8 12 38 38 (138624)
I0607 15:51:52.849650  5428 net.cpp:165] Memory required for data: 1979649568
I0607 15:51:52.849655  5428 layer_factory.hpp:77] Creating layer conv4_3_norm_mbox_conf_perm
I0607 15:51:52.849675  5428 net.cpp:100] Creating Layer conv4_3_norm_mbox_conf_perm
I0607 15:51:52.849679  5428 net.cpp:434] conv4_3_norm_mbox_conf_perm <- conv4_3_norm_mbox_conf
I0607 15:51:52.849697  5428 net.cpp:408] conv4_3_norm_mbox_conf_perm -> conv4_3_norm_mbox_conf_perm
I0607 15:51:52.849815  5428 net.cpp:150] Setting up conv4_3_norm_mbox_conf_perm
I0607 15:51:52.849820  5428 net.cpp:157] Top shape: 8 38 38 12 (138624)
I0607 15:51:52.849822  5428 net.cpp:165] Memory required for data: 1980204064
I0607 15:51:52.849824  5428 layer_factory.hpp:77] Creating layer conv4_3_norm_mbox_conf_flat
I0607 15:51:52.849828  5428 net.cpp:100] Creating Layer conv4_3_norm_mbox_conf_flat
I0607 15:51:52.849831  5428 net.cpp:434] conv4_3_norm_mbox_conf_flat <- conv4_3_norm_mbox_conf_perm
I0607 15:51:52.849836  5428 net.cpp:408] conv4_3_norm_mbox_conf_flat -> conv4_3_norm_mbox_conf_flat
I0607 15:51:52.849858  5428 net.cpp:150] Setting up conv4_3_norm_mbox_conf_flat
I0607 15:51:52.849862  5428 net.cpp:157] Top shape: 8 17328 (138624)
I0607 15:51:52.849864  5428 net.cpp:165] Memory required for data: 1980758560
I0607 15:51:52.849866  5428 layer_factory.hpp:77] Creating layer conv4_3_norm_mbox_priorbox
I0607 15:51:52.849871  5428 net.cpp:100] Creating Layer conv4_3_norm_mbox_priorbox
I0607 15:51:52.849874  5428 net.cpp:434] conv4_3_norm_mbox_priorbox <- conv4_3_norm_conv4_3_norm_0_split_2
I0607 15:51:52.849879  5428 net.cpp:434] conv4_3_norm_mbox_priorbox <- data_data_0_split_1
I0607 15:51:52.849882  5428 net.cpp:408] conv4_3_norm_mbox_priorbox -> conv4_3_norm_mbox_priorbox
I0607 15:51:52.849908  5428 net.cpp:150] Setting up conv4_3_norm_mbox_priorbox
I0607 15:51:52.849912  5428 net.cpp:157] Top shape: 1 2 23104 (46208)
I0607 15:51:52.849915  5428 net.cpp:165] Memory required for data: 1980943392
I0607 15:51:52.849916  5428 layer_factory.hpp:77] Creating layer fc7_mbox_loc
I0607 15:51:52.849923  5428 net.cpp:100] Creating Layer fc7_mbox_loc
I0607 15:51:52.849926  5428 net.cpp:434] fc7_mbox_loc <- fc7_relu7_0_split_1
I0607 15:51:52.849931  5428 net.cpp:408] fc7_mbox_loc -> fc7_mbox_loc
I0607 15:51:52.853446  5428 net.cpp:150] Setting up fc7_mbox_loc
I0607 15:51:52.853473  5428 net.cpp:157] Top shape: 8 24 19 19 (69312)
I0607 15:51:52.853477  5428 net.cpp:165] Memory required for data: 1981220640
I0607 15:51:52.853523  5428 layer_factory.hpp:77] Creating layer fc7_mbox_loc_perm
I0607 15:51:52.853528  5428 net.cpp:100] Creating Layer fc7_mbox_loc_perm
I0607 15:51:52.853533  5428 net.cpp:434] fc7_mbox_loc_perm <- fc7_mbox_loc
I0607 15:51:52.853538  5428 net.cpp:408] fc7_mbox_loc_perm -> fc7_mbox_loc_perm
I0607 15:51:52.853687  5428 net.cpp:150] Setting up fc7_mbox_loc_perm
I0607 15:51:52.853693  5428 net.cpp:157] Top shape: 8 19 19 24 (69312)
I0607 15:51:52.853695  5428 net.cpp:165] Memory required for data: 1981497888
I0607 15:51:52.853698  5428 layer_factory.hpp:77] Creating layer fc7_mbox_loc_flat
I0607 15:51:52.853701  5428 net.cpp:100] Creating Layer fc7_mbox_loc_flat
I0607 15:51:52.853703  5428 net.cpp:434] fc7_mbox_loc_flat <- fc7_mbox_loc_perm
I0607 15:51:52.853723  5428 net.cpp:408] fc7_mbox_loc_flat -> fc7_mbox_loc_flat
I0607 15:51:52.853745  5428 net.cpp:150] Setting up fc7_mbox_loc_flat
I0607 15:51:52.853750  5428 net.cpp:157] Top shape: 8 8664 (69312)
I0607 15:51:52.853752  5428 net.cpp:165] Memory required for data: 1981775136
I0607 15:51:52.853754  5428 layer_factory.hpp:77] Creating layer fc7_mbox_conf
I0607 15:51:52.853773  5428 net.cpp:100] Creating Layer fc7_mbox_conf
I0607 15:51:52.853776  5428 net.cpp:434] fc7_mbox_conf <- fc7_relu7_0_split_2
I0607 15:51:52.853781  5428 net.cpp:408] fc7_mbox_conf -> fc7_mbox_conf
I0607 15:51:52.856516  5428 net.cpp:150] Setting up fc7_mbox_conf
I0607 15:51:52.856528  5428 net.cpp:157] Top shape: 8 18 19 19 (51984)
I0607 15:51:52.856529  5428 net.cpp:165] Memory required for data: 1981983072
I0607 15:51:52.856534  5428 layer_factory.hpp:77] Creating layer fc7_mbox_conf_perm
I0607 15:51:52.856555  5428 net.cpp:100] Creating Layer fc7_mbox_conf_perm
I0607 15:51:52.856559  5428 net.cpp:434] fc7_mbox_conf_perm <- fc7_mbox_conf
I0607 15:51:52.856564  5428 net.cpp:408] fc7_mbox_conf_perm -> fc7_mbox_conf_perm
I0607 15:51:52.856747  5428 net.cpp:150] Setting up fc7_mbox_conf_perm
I0607 15:51:52.856752  5428 net.cpp:157] Top shape: 8 19 19 18 (51984)
I0607 15:51:52.856755  5428 net.cpp:165] Memory required for data: 1982191008
I0607 15:51:52.856757  5428 layer_factory.hpp:77] Creating layer fc7_mbox_conf_flat
I0607 15:51:52.856773  5428 net.cpp:100] Creating Layer fc7_mbox_conf_flat
I0607 15:51:52.856776  5428 net.cpp:434] fc7_mbox_conf_flat <- fc7_mbox_conf_perm
I0607 15:51:52.856779  5428 net.cpp:408] fc7_mbox_conf_flat -> fc7_mbox_conf_flat
I0607 15:51:52.856845  5428 net.cpp:150] Setting up fc7_mbox_conf_flat
I0607 15:51:52.856889  5428 net.cpp:157] Top shape: 8 6498 (51984)
I0607 15:51:52.856892  5428 net.cpp:165] Memory required for data: 1982398944
I0607 15:51:52.856894  5428 layer_factory.hpp:77] Creating layer fc7_mbox_priorbox
I0607 15:51:52.856912  5428 net.cpp:100] Creating Layer fc7_mbox_priorbox
I0607 15:51:52.856915  5428 net.cpp:434] fc7_mbox_priorbox <- fc7_relu7_0_split_3
I0607 15:51:52.856931  5428 net.cpp:434] fc7_mbox_priorbox <- data_data_0_split_2
I0607 15:51:52.856935  5428 net.cpp:408] fc7_mbox_priorbox -> fc7_mbox_priorbox
I0607 15:51:52.857005  5428 net.cpp:150] Setting up fc7_mbox_priorbox
I0607 15:51:52.857025  5428 net.cpp:157] Top shape: 1 2 8664 (17328)
I0607 15:51:52.857028  5428 net.cpp:165] Memory required for data: 1982468256
I0607 15:51:52.857029  5428 layer_factory.hpp:77] Creating layer conv6_2_mbox_loc
I0607 15:51:52.857048  5428 net.cpp:100] Creating Layer conv6_2_mbox_loc
I0607 15:51:52.857051  5428 net.cpp:434] conv6_2_mbox_loc <- conv6_2_conv6_2_relu_0_split_1
I0607 15:51:52.857071  5428 net.cpp:408] conv6_2_mbox_loc -> conv6_2_mbox_loc
I0607 15:51:52.859525  5428 net.cpp:150] Setting up conv6_2_mbox_loc
I0607 15:51:52.859539  5428 net.cpp:157] Top shape: 8 24 10 10 (19200)
I0607 15:51:52.859540  5428 net.cpp:165] Memory required for data: 1982545056
I0607 15:51:52.859545  5428 layer_factory.hpp:77] Creating layer conv6_2_mbox_loc_perm
I0607 15:51:52.859565  5428 net.cpp:100] Creating Layer conv6_2_mbox_loc_perm
I0607 15:51:52.859568  5428 net.cpp:434] conv6_2_mbox_loc_perm <- conv6_2_mbox_loc
I0607 15:51:52.859583  5428 net.cpp:408] conv6_2_mbox_loc_perm -> conv6_2_mbox_loc_perm
I0607 15:51:52.859741  5428 net.cpp:150] Setting up conv6_2_mbox_loc_perm
I0607 15:51:52.859746  5428 net.cpp:157] Top shape: 8 10 10 24 (19200)
I0607 15:51:52.859750  5428 net.cpp:165] Memory required for data: 1982621856
I0607 15:51:52.859751  5428 layer_factory.hpp:77] Creating layer conv6_2_mbox_loc_flat
I0607 15:51:52.859755  5428 net.cpp:100] Creating Layer conv6_2_mbox_loc_flat
I0607 15:51:52.859756  5428 net.cpp:434] conv6_2_mbox_loc_flat <- conv6_2_mbox_loc_perm
I0607 15:51:52.859776  5428 net.cpp:408] conv6_2_mbox_loc_flat -> conv6_2_mbox_loc_flat
I0607 15:51:52.859812  5428 net.cpp:150] Setting up conv6_2_mbox_loc_flat
I0607 15:51:52.859828  5428 net.cpp:157] Top shape: 8 2400 (19200)
I0607 15:51:52.859830  5428 net.cpp:165] Memory required for data: 1982698656
I0607 15:51:52.859833  5428 layer_factory.hpp:77] Creating layer conv6_2_mbox_conf
I0607 15:51:52.859855  5428 net.cpp:100] Creating Layer conv6_2_mbox_conf
I0607 15:51:52.859858  5428 net.cpp:434] conv6_2_mbox_conf <- conv6_2_conv6_2_relu_0_split_2
I0607 15:51:52.859874  5428 net.cpp:408] conv6_2_mbox_conf -> conv6_2_mbox_conf
I0607 15:51:52.861981  5428 net.cpp:150] Setting up conv6_2_mbox_conf
I0607 15:51:52.861994  5428 net.cpp:157] Top shape: 8 18 10 10 (14400)
I0607 15:51:52.861996  5428 net.cpp:165] Memory required for data: 1982756256
I0607 15:51:52.862001  5428 layer_factory.hpp:77] Creating layer conv6_2_mbox_conf_perm
I0607 15:51:52.862022  5428 net.cpp:100] Creating Layer conv6_2_mbox_conf_perm
I0607 15:51:52.862025  5428 net.cpp:434] conv6_2_mbox_conf_perm <- conv6_2_mbox_conf
I0607 15:51:52.862030  5428 net.cpp:408] conv6_2_mbox_conf_perm -> conv6_2_mbox_conf_perm
I0607 15:51:52.862231  5428 net.cpp:150] Setting up conv6_2_mbox_conf_perm
I0607 15:51:52.862236  5428 net.cpp:157] Top shape: 8 10 10 18 (14400)
I0607 15:51:52.862238  5428 net.cpp:165] Memory required for data: 1982813856
I0607 15:51:52.862241  5428 layer_factory.hpp:77] Creating layer conv6_2_mbox_conf_flat
I0607 15:51:52.862244  5428 net.cpp:100] Creating Layer conv6_2_mbox_conf_flat
I0607 15:51:52.862246  5428 net.cpp:434] conv6_2_mbox_conf_flat <- conv6_2_mbox_conf_perm
I0607 15:51:52.862265  5428 net.cpp:408] conv6_2_mbox_conf_flat -> conv6_2_mbox_conf_flat
I0607 15:51:52.862303  5428 net.cpp:150] Setting up conv6_2_mbox_conf_flat
I0607 15:51:52.862344  5428 net.cpp:157] Top shape: 8 1800 (14400)
I0607 15:51:52.862349  5428 net.cpp:165] Memory required for data: 1982871456
I0607 15:51:52.862350  5428 layer_factory.hpp:77] Creating layer conv6_2_mbox_priorbox
I0607 15:51:52.862367  5428 net.cpp:100] Creating Layer conv6_2_mbox_priorbox
I0607 15:51:52.862370  5428 net.cpp:434] conv6_2_mbox_priorbox <- conv6_2_conv6_2_relu_0_split_3
I0607 15:51:52.862386  5428 net.cpp:434] conv6_2_mbox_priorbox <- data_data_0_split_3
I0607 15:51:52.862391  5428 net.cpp:408] conv6_2_mbox_priorbox -> conv6_2_mbox_priorbox
I0607 15:51:52.862465  5428 net.cpp:150] Setting up conv6_2_mbox_priorbox
I0607 15:51:52.862470  5428 net.cpp:157] Top shape: 1 2 2400 (4800)
I0607 15:51:52.862485  5428 net.cpp:165] Memory required for data: 1982890656
I0607 15:51:52.862488  5428 layer_factory.hpp:77] Creating layer conv7_2_mbox_loc
I0607 15:51:52.862507  5428 net.cpp:100] Creating Layer conv7_2_mbox_loc
I0607 15:51:52.862510  5428 net.cpp:434] conv7_2_mbox_loc <- conv7_2_conv7_2_relu_0_split_1
I0607 15:51:52.862515  5428 net.cpp:408] conv7_2_mbox_loc -> conv7_2_mbox_loc
I0607 15:51:52.864579  5428 net.cpp:150] Setting up conv7_2_mbox_loc
I0607 15:51:52.864588  5428 net.cpp:157] Top shape: 8 24 5 5 (4800)
I0607 15:51:52.864591  5428 net.cpp:165] Memory required for data: 1982909856
I0607 15:51:52.864595  5428 layer_factory.hpp:77] Creating layer conv7_2_mbox_loc_perm
I0607 15:51:52.864614  5428 net.cpp:100] Creating Layer conv7_2_mbox_loc_perm
I0607 15:51:52.864616  5428 net.cpp:434] conv7_2_mbox_loc_perm <- conv7_2_mbox_loc
I0607 15:51:52.864621  5428 net.cpp:408] conv7_2_mbox_loc_perm -> conv7_2_mbox_loc_perm
I0607 15:51:52.864819  5428 net.cpp:150] Setting up conv7_2_mbox_loc_perm
I0607 15:51:52.864823  5428 net.cpp:157] Top shape: 8 5 5 24 (4800)
I0607 15:51:52.864825  5428 net.cpp:165] Memory required for data: 1982929056
I0607 15:51:52.864827  5428 layer_factory.hpp:77] Creating layer conv7_2_mbox_loc_flat
I0607 15:51:52.864832  5428 net.cpp:100] Creating Layer conv7_2_mbox_loc_flat
I0607 15:51:52.864835  5428 net.cpp:434] conv7_2_mbox_loc_flat <- conv7_2_mbox_loc_perm
I0607 15:51:52.864852  5428 net.cpp:408] conv7_2_mbox_loc_flat -> conv7_2_mbox_loc_flat
I0607 15:51:52.864902  5428 net.cpp:150] Setting up conv7_2_mbox_loc_flat
I0607 15:51:52.864920  5428 net.cpp:157] Top shape: 8 600 (4800)
I0607 15:51:52.864923  5428 net.cpp:165] Memory required for data: 1982948256
I0607 15:51:52.864924  5428 layer_factory.hpp:77] Creating layer conv7_2_mbox_conf
I0607 15:51:52.864945  5428 net.cpp:100] Creating Layer conv7_2_mbox_conf
I0607 15:51:52.864948  5428 net.cpp:434] conv7_2_mbox_conf <- conv7_2_conv7_2_relu_0_split_2
I0607 15:51:52.864965  5428 net.cpp:408] conv7_2_mbox_conf -> conv7_2_mbox_conf
I0607 15:51:52.866961  5428 net.cpp:150] Setting up conv7_2_mbox_conf
I0607 15:51:52.866981  5428 net.cpp:157] Top shape: 8 18 5 5 (3600)
I0607 15:51:52.866989  5428 net.cpp:165] Memory required for data: 1982962656
I0607 15:51:52.866999  5428 layer_factory.hpp:77] Creating layer conv7_2_mbox_conf_perm
I0607 15:51:52.867010  5428 net.cpp:100] Creating Layer conv7_2_mbox_conf_perm
I0607 15:51:52.867020  5428 net.cpp:434] conv7_2_mbox_conf_perm <- conv7_2_mbox_conf
I0607 15:51:52.867030  5428 net.cpp:408] conv7_2_mbox_conf_perm -> conv7_2_mbox_conf_perm
I0607 15:51:52.867166  5428 net.cpp:150] Setting up conv7_2_mbox_conf_perm
I0607 15:51:52.867178  5428 net.cpp:157] Top shape: 8 5 5 18 (3600)
I0607 15:51:52.867185  5428 net.cpp:165] Memory required for data: 1982977056
I0607 15:51:52.867193  5428 layer_factory.hpp:77] Creating layer conv7_2_mbox_conf_flat
I0607 15:51:52.867203  5428 net.cpp:100] Creating Layer conv7_2_mbox_conf_flat
I0607 15:51:52.867213  5428 net.cpp:434] conv7_2_mbox_conf_flat <- conv7_2_mbox_conf_perm
I0607 15:51:52.867221  5428 net.cpp:408] conv7_2_mbox_conf_flat -> conv7_2_mbox_conf_flat
I0607 15:51:52.867257  5428 net.cpp:150] Setting up conv7_2_mbox_conf_flat
I0607 15:51:52.867267  5428 net.cpp:157] Top shape: 8 450 (3600)
I0607 15:51:52.867274  5428 net.cpp:165] Memory required for data: 1982991456
I0607 15:51:52.867282  5428 layer_factory.hpp:77] Creating layer conv7_2_mbox_priorbox
I0607 15:51:52.867293  5428 net.cpp:100] Creating Layer conv7_2_mbox_priorbox
I0607 15:51:52.867301  5428 net.cpp:434] conv7_2_mbox_priorbox <- conv7_2_conv7_2_relu_0_split_3
I0607 15:51:52.867311  5428 net.cpp:434] conv7_2_mbox_priorbox <- data_data_0_split_4
I0607 15:51:52.867321  5428 net.cpp:408] conv7_2_mbox_priorbox -> conv7_2_mbox_priorbox
I0607 15:51:52.867357  5428 net.cpp:150] Setting up conv7_2_mbox_priorbox
I0607 15:51:52.867368  5428 net.cpp:157] Top shape: 1 2 600 (1200)
I0607 15:51:52.867375  5428 net.cpp:165] Memory required for data: 1982996256
I0607 15:51:52.867383  5428 layer_factory.hpp:77] Creating layer conv8_2_mbox_loc
I0607 15:51:52.867395  5428 net.cpp:100] Creating Layer conv8_2_mbox_loc
I0607 15:51:52.867403  5428 net.cpp:434] conv8_2_mbox_loc <- conv8_2_conv8_2_relu_0_split_1
I0607 15:51:52.867416  5428 net.cpp:408] conv8_2_mbox_loc -> conv8_2_mbox_loc
I0607 15:51:52.869343  5428 net.cpp:150] Setting up conv8_2_mbox_loc
I0607 15:51:52.869351  5428 net.cpp:157] Top shape: 8 16 3 3 (1152)
I0607 15:51:52.869354  5428 net.cpp:165] Memory required for data: 1983000864
I0607 15:51:52.869364  5428 layer_factory.hpp:77] Creating layer conv8_2_mbox_loc_perm
I0607 15:51:52.869385  5428 net.cpp:100] Creating Layer conv8_2_mbox_loc_perm
I0607 15:51:52.869387  5428 net.cpp:434] conv8_2_mbox_loc_perm <- conv8_2_mbox_loc
I0607 15:51:52.869403  5428 net.cpp:408] conv8_2_mbox_loc_perm -> conv8_2_mbox_loc_perm
I0607 15:51:52.869591  5428 net.cpp:150] Setting up conv8_2_mbox_loc_perm
I0607 15:51:52.869596  5428 net.cpp:157] Top shape: 8 3 3 16 (1152)
I0607 15:51:52.869606  5428 net.cpp:165] Memory required for data: 1983005472
I0607 15:51:52.869608  5428 layer_factory.hpp:77] Creating layer conv8_2_mbox_loc_flat
I0607 15:51:52.869624  5428 net.cpp:100] Creating Layer conv8_2_mbox_loc_flat
I0607 15:51:52.869626  5428 net.cpp:434] conv8_2_mbox_loc_flat <- conv8_2_mbox_loc_perm
I0607 15:51:52.869632  5428 net.cpp:408] conv8_2_mbox_loc_flat -> conv8_2_mbox_loc_flat
I0607 15:51:52.869683  5428 net.cpp:150] Setting up conv8_2_mbox_loc_flat
I0607 15:51:52.869699  5428 net.cpp:157] Top shape: 8 144 (1152)
I0607 15:51:52.869701  5428 net.cpp:165] Memory required for data: 1983010080
I0607 15:51:52.869704  5428 layer_factory.hpp:77] Creating layer conv8_2_mbox_conf
I0607 15:51:52.869722  5428 net.cpp:100] Creating Layer conv8_2_mbox_conf
I0607 15:51:52.869724  5428 net.cpp:434] conv8_2_mbox_conf <- conv8_2_conv8_2_relu_0_split_2
I0607 15:51:52.869729  5428 net.cpp:408] conv8_2_mbox_conf -> conv8_2_mbox_conf
I0607 15:51:52.871667  5428 net.cpp:150] Setting up conv8_2_mbox_conf
I0607 15:51:52.871677  5428 net.cpp:157] Top shape: 8 12 3 3 (864)
I0607 15:51:52.871680  5428 net.cpp:165] Memory required for data: 1983013536
I0607 15:51:52.871683  5428 layer_factory.hpp:77] Creating layer conv8_2_mbox_conf_perm
I0607 15:51:52.871702  5428 net.cpp:100] Creating Layer conv8_2_mbox_conf_perm
I0607 15:51:52.871706  5428 net.cpp:434] conv8_2_mbox_conf_perm <- conv8_2_mbox_conf
I0607 15:51:52.871711  5428 net.cpp:408] conv8_2_mbox_conf_perm -> conv8_2_mbox_conf_perm
I0607 15:51:52.871856  5428 net.cpp:150] Setting up conv8_2_mbox_conf_perm
I0607 15:51:52.871861  5428 net.cpp:157] Top shape: 8 3 3 12 (864)
I0607 15:51:52.871863  5428 net.cpp:165] Memory required for data: 1983016992
I0607 15:51:52.871865  5428 layer_factory.hpp:77] Creating layer conv8_2_mbox_conf_flat
I0607 15:51:52.871870  5428 net.cpp:100] Creating Layer conv8_2_mbox_conf_flat
I0607 15:51:52.871872  5428 net.cpp:434] conv8_2_mbox_conf_flat <- conv8_2_mbox_conf_perm
I0607 15:51:52.871889  5428 net.cpp:408] conv8_2_mbox_conf_flat -> conv8_2_mbox_conf_flat
I0607 15:51:52.871913  5428 net.cpp:150] Setting up conv8_2_mbox_conf_flat
I0607 15:51:52.871929  5428 net.cpp:157] Top shape: 8 108 (864)
I0607 15:51:52.871932  5428 net.cpp:165] Memory required for data: 1983020448
I0607 15:51:52.871933  5428 layer_factory.hpp:77] Creating layer conv8_2_mbox_priorbox
I0607 15:51:52.871953  5428 net.cpp:100] Creating Layer conv8_2_mbox_priorbox
I0607 15:51:52.871955  5428 net.cpp:434] conv8_2_mbox_priorbox <- conv8_2_conv8_2_relu_0_split_3
I0607 15:51:52.871959  5428 net.cpp:434] conv8_2_mbox_priorbox <- data_data_0_split_5
I0607 15:51:52.871964  5428 net.cpp:408] conv8_2_mbox_priorbox -> conv8_2_mbox_priorbox
I0607 15:51:52.872002  5428 net.cpp:150] Setting up conv8_2_mbox_priorbox
I0607 15:51:52.872006  5428 net.cpp:157] Top shape: 1 2 144 (288)
I0607 15:51:52.872009  5428 net.cpp:165] Memory required for data: 1983021600
I0607 15:51:52.872010  5428 layer_factory.hpp:77] Creating layer conv9_2_mbox_loc
I0607 15:51:52.872018  5428 net.cpp:100] Creating Layer conv9_2_mbox_loc
I0607 15:51:52.872035  5428 net.cpp:434] conv9_2_mbox_loc <- conv9_2_conv9_2_relu_0_split_0
I0607 15:51:52.872040  5428 net.cpp:408] conv9_2_mbox_loc -> conv9_2_mbox_loc
I0607 15:51:52.874147  5428 net.cpp:150] Setting up conv9_2_mbox_loc
I0607 15:51:52.874164  5428 net.cpp:157] Top shape: 8 16 1 1 (128)
I0607 15:51:52.874167  5428 net.cpp:165] Memory required for data: 1983022112
I0607 15:51:52.874186  5428 layer_factory.hpp:77] Creating layer conv9_2_mbox_loc_perm
I0607 15:51:52.874192  5428 net.cpp:100] Creating Layer conv9_2_mbox_loc_perm
I0607 15:51:52.874197  5428 net.cpp:434] conv9_2_mbox_loc_perm <- conv9_2_mbox_loc
I0607 15:51:52.874202  5428 net.cpp:408] conv9_2_mbox_loc_perm -> conv9_2_mbox_loc_perm
I0607 15:51:52.874338  5428 net.cpp:150] Setting up conv9_2_mbox_loc_perm
I0607 15:51:52.874343  5428 net.cpp:157] Top shape: 8 1 1 16 (128)
I0607 15:51:52.874346  5428 net.cpp:165] Memory required for data: 1983022624
I0607 15:51:52.874357  5428 layer_factory.hpp:77] Creating layer conv9_2_mbox_loc_flat
I0607 15:51:52.874377  5428 net.cpp:100] Creating Layer conv9_2_mbox_loc_flat
I0607 15:51:52.874380  5428 net.cpp:434] conv9_2_mbox_loc_flat <- conv9_2_mbox_loc_perm
I0607 15:51:52.874397  5428 net.cpp:408] conv9_2_mbox_loc_flat -> conv9_2_mbox_loc_flat
I0607 15:51:52.874420  5428 net.cpp:150] Setting up conv9_2_mbox_loc_flat
I0607 15:51:52.874425  5428 net.cpp:157] Top shape: 8 16 (128)
I0607 15:51:52.874428  5428 net.cpp:165] Memory required for data: 1983023136
I0607 15:51:52.874429  5428 layer_factory.hpp:77] Creating layer conv9_2_mbox_conf
I0607 15:51:52.874438  5428 net.cpp:100] Creating Layer conv9_2_mbox_conf
I0607 15:51:52.874440  5428 net.cpp:434] conv9_2_mbox_conf <- conv9_2_conv9_2_relu_0_split_1
I0607 15:51:52.874444  5428 net.cpp:408] conv9_2_mbox_conf -> conv9_2_mbox_conf
I0607 15:51:52.876695  5428 net.cpp:150] Setting up conv9_2_mbox_conf
I0607 15:51:52.876708  5428 net.cpp:157] Top shape: 8 12 1 1 (96)
I0607 15:51:52.876710  5428 net.cpp:165] Memory required for data: 1983023520
I0607 15:51:52.876716  5428 layer_factory.hpp:77] Creating layer conv9_2_mbox_conf_perm
I0607 15:51:52.876737  5428 net.cpp:100] Creating Layer conv9_2_mbox_conf_perm
I0607 15:51:52.876740  5428 net.cpp:434] conv9_2_mbox_conf_perm <- conv9_2_mbox_conf
I0607 15:51:52.876745  5428 net.cpp:408] conv9_2_mbox_conf_perm -> conv9_2_mbox_conf_perm
I0607 15:51:52.876894  5428 net.cpp:150] Setting up conv9_2_mbox_conf_perm
I0607 15:51:52.876899  5428 net.cpp:157] Top shape: 8 1 1 12 (96)
I0607 15:51:52.876901  5428 net.cpp:165] Memory required for data: 1983023904
I0607 15:51:52.876904  5428 layer_factory.hpp:77] Creating layer conv9_2_mbox_conf_flat
I0607 15:51:52.876909  5428 net.cpp:100] Creating Layer conv9_2_mbox_conf_flat
I0607 15:51:52.876910  5428 net.cpp:434] conv9_2_mbox_conf_flat <- conv9_2_mbox_conf_perm
I0607 15:51:52.876914  5428 net.cpp:408] conv9_2_mbox_conf_flat -> conv9_2_mbox_conf_flat
I0607 15:51:52.876940  5428 net.cpp:150] Setting up conv9_2_mbox_conf_flat
I0607 15:51:52.876943  5428 net.cpp:157] Top shape: 8 12 (96)
I0607 15:51:52.876945  5428 net.cpp:165] Memory required for data: 1983024288
I0607 15:51:52.876947  5428 layer_factory.hpp:77] Creating layer conv9_2_mbox_priorbox
I0607 15:51:52.876953  5428 net.cpp:100] Creating Layer conv9_2_mbox_priorbox
I0607 15:51:52.876956  5428 net.cpp:434] conv9_2_mbox_priorbox <- conv9_2_conv9_2_relu_0_split_2
I0607 15:51:52.876960  5428 net.cpp:434] conv9_2_mbox_priorbox <- data_data_0_split_6
I0607 15:51:52.876963  5428 net.cpp:408] conv9_2_mbox_priorbox -> conv9_2_mbox_priorbox
I0607 15:51:52.876991  5428 net.cpp:150] Setting up conv9_2_mbox_priorbox
I0607 15:51:52.876994  5428 net.cpp:157] Top shape: 1 2 16 (32)
I0607 15:51:52.876997  5428 net.cpp:165] Memory required for data: 1983024416
I0607 15:51:52.877001  5428 layer_factory.hpp:77] Creating layer mbox_loc
I0607 15:51:52.877007  5428 net.cpp:100] Creating Layer mbox_loc
I0607 15:51:52.877010  5428 net.cpp:434] mbox_loc <- conv4_3_norm_mbox_loc_flat
I0607 15:51:52.877014  5428 net.cpp:434] mbox_loc <- fc7_mbox_loc_flat
I0607 15:51:52.877017  5428 net.cpp:434] mbox_loc <- conv6_2_mbox_loc_flat
I0607 15:51:52.877022  5428 net.cpp:434] mbox_loc <- conv7_2_mbox_loc_flat
I0607 15:51:52.877039  5428 net.cpp:434] mbox_loc <- conv8_2_mbox_loc_flat
I0607 15:51:52.877043  5428 net.cpp:434] mbox_loc <- conv9_2_mbox_loc_flat
I0607 15:51:52.877045  5428 net.cpp:408] mbox_loc -> mbox_loc
I0607 15:51:52.877097  5428 net.cpp:150] Setting up mbox_loc
I0607 15:51:52.877104  5428 net.cpp:157] Top shape: 8 34928 (279424)
I0607 15:51:52.877105  5428 net.cpp:165] Memory required for data: 1984142112
I0607 15:51:52.877120  5428 layer_factory.hpp:77] Creating layer mbox_conf
I0607 15:51:52.877123  5428 net.cpp:100] Creating Layer mbox_conf
I0607 15:51:52.877125  5428 net.cpp:434] mbox_conf <- conv4_3_norm_mbox_conf_flat
I0607 15:51:52.877143  5428 net.cpp:434] mbox_conf <- fc7_mbox_conf_flat
I0607 15:51:52.877146  5428 net.cpp:434] mbox_conf <- conv6_2_mbox_conf_flat
I0607 15:51:52.877157  5428 net.cpp:434] mbox_conf <- conv7_2_mbox_conf_flat
I0607 15:51:52.877161  5428 net.cpp:434] mbox_conf <- conv8_2_mbox_conf_flat
I0607 15:51:52.877162  5428 net.cpp:434] mbox_conf <- conv9_2_mbox_conf_flat
I0607 15:51:52.877166  5428 net.cpp:408] mbox_conf -> mbox_conf
I0607 15:51:52.877203  5428 net.cpp:150] Setting up mbox_conf
I0607 15:51:52.877208  5428 net.cpp:157] Top shape: 8 26196 (209568)
I0607 15:51:52.877210  5428 net.cpp:165] Memory required for data: 1984980384
I0607 15:51:52.877213  5428 layer_factory.hpp:77] Creating layer mbox_priorbox
I0607 15:51:52.877218  5428 net.cpp:100] Creating Layer mbox_priorbox
I0607 15:51:52.877221  5428 net.cpp:434] mbox_priorbox <- conv4_3_norm_mbox_priorbox
I0607 15:51:52.877225  5428 net.cpp:434] mbox_priorbox <- fc7_mbox_priorbox
I0607 15:51:52.877229  5428 net.cpp:434] mbox_priorbox <- conv6_2_mbox_priorbox
I0607 15:51:52.877233  5428 net.cpp:434] mbox_priorbox <- conv7_2_mbox_priorbox
I0607 15:51:52.877235  5428 net.cpp:434] mbox_priorbox <- conv8_2_mbox_priorbox
I0607 15:51:52.877238  5428 net.cpp:434] mbox_priorbox <- conv9_2_mbox_priorbox
I0607 15:51:52.877257  5428 net.cpp:408] mbox_priorbox -> mbox_priorbox
I0607 15:51:52.877295  5428 net.cpp:150] Setting up mbox_priorbox
I0607 15:51:52.877298  5428 net.cpp:157] Top shape: 1 2 34928 (69856)
I0607 15:51:52.877300  5428 net.cpp:165] Memory required for data: 1985259808
I0607 15:51:52.877302  5428 layer_factory.hpp:77] Creating layer mbox_conf_reshape
I0607 15:51:52.877308  5428 net.cpp:100] Creating Layer mbox_conf_reshape
I0607 15:51:52.877311  5428 net.cpp:434] mbox_conf_reshape <- mbox_conf
I0607 15:51:52.877329  5428 net.cpp:408] mbox_conf_reshape -> mbox_conf_reshape
I0607 15:51:52.877372  5428 net.cpp:150] Setting up mbox_conf_reshape
I0607 15:51:52.877377  5428 net.cpp:157] Top shape: 8 8732 3 (209568)
I0607 15:51:52.877378  5428 net.cpp:165] Memory required for data: 1986098080
I0607 15:51:52.877380  5428 layer_factory.hpp:77] Creating layer mbox_conf_softmax
I0607 15:51:52.877384  5428 net.cpp:100] Creating Layer mbox_conf_softmax
I0607 15:51:52.877388  5428 net.cpp:434] mbox_conf_softmax <- mbox_conf_reshape
I0607 15:51:52.877391  5428 net.cpp:408] mbox_conf_softmax -> mbox_conf_softmax
I0607 15:51:52.878026  5428 net.cpp:150] Setting up mbox_conf_softmax
I0607 15:51:52.878034  5428 net.cpp:157] Top shape: 8 8732 3 (209568)
I0607 15:51:52.878037  5428 net.cpp:165] Memory required for data: 1986936352
I0607 15:51:52.878039  5428 layer_factory.hpp:77] Creating layer mbox_conf_flatten
I0607 15:51:52.878043  5428 net.cpp:100] Creating Layer mbox_conf_flatten
I0607 15:51:52.878059  5428 net.cpp:434] mbox_conf_flatten <- mbox_conf_softmax
I0607 15:51:52.878064  5428 net.cpp:408] mbox_conf_flatten -> mbox_conf_flatten
I0607 15:51:52.878101  5428 net.cpp:150] Setting up mbox_conf_flatten
I0607 15:51:52.878118  5428 net.cpp:157] Top shape: 8 26196 (209568)
I0607 15:51:52.878120  5428 net.cpp:165] Memory required for data: 1987774624
I0607 15:51:52.878123  5428 layer_factory.hpp:77] Creating layer detection_out
I0607 15:51:52.878170  5428 net.cpp:100] Creating Layer detection_out
I0607 15:51:52.878173  5428 net.cpp:434] detection_out <- mbox_loc
I0607 15:51:52.878176  5428 net.cpp:434] detection_out <- mbox_conf_flatten
I0607 15:51:52.878180  5428 net.cpp:434] detection_out <- mbox_priorbox
I0607 15:51:52.878183  5428 net.cpp:408] detection_out -> detection_out
I0607 15:51:52.878505  5428 net.cpp:150] Setting up detection_out
I0607 15:51:52.878523  5428 net.cpp:157] Top shape: 1 1 1 7 (7)
I0607 15:51:52.878531  5428 net.cpp:165] Memory required for data: 1987774652
I0607 15:51:52.878540  5428 layer_factory.hpp:77] Creating layer detection_eval
I0607 15:51:52.878549  5428 net.cpp:100] Creating Layer detection_eval
I0607 15:51:52.878557  5428 net.cpp:434] detection_eval <- detection_out
I0607 15:51:52.878566  5428 net.cpp:434] detection_eval <- label
I0607 15:51:52.878576  5428 net.cpp:408] detection_eval -> detection_eval
I0607 15:51:52.878685  5428 net.cpp:150] Setting up detection_eval
I0607 15:51:52.878703  5428 net.cpp:157] Top shape: 1 1 3 5 (15)
I0607 15:51:52.878711  5428 net.cpp:165] Memory required for data: 1987774712
I0607 15:51:52.878720  5428 net.cpp:228] detection_eval does not need backward computation.
I0607 15:51:52.878726  5428 net.cpp:228] detection_out does not need backward computation.
I0607 15:51:52.878731  5428 net.cpp:228] mbox_conf_flatten does not need backward computation.
I0607 15:51:52.878734  5428 net.cpp:228] mbox_conf_softmax does not need backward computation.
…
