…
        min_scale: 0.3
        max_scale: 1
        min_aspect_ratio: 0.5
        max_aspect_ratio: 2
      }
      sample_constraint {
        min_jaccard_overlap: 0.9
      }
      max_sample: 1
      max_trials: 50
    }
    batch_sampler {
      sampler {
        min_scale: 0.3
        max_scale: 1
        min_aspect_ratio: 0.5
        max_aspect_ratio: 2
      }
      sample_constraint {
        max_jaccard_overlap: 1
      }
      max_sample: 1
      max_trials: 50
    }
    label_map_file: "data/tbs_v2.0_HSIL_1_23/labelmap_voc.prototxt"
  }
}
layer {
  name: "conv1_1"
  type: "Convolution"
  bottom: "data"
  top: "conv1_1"
  param {
    lr_mult: 1
    decay_mult: 1
  }
  param {
    lr_mult: 2
    decay_mult: 0
  }
  convolution_param {
    num_output: 64
    pad: 1
    kernel_size: 3
    weight_filler {
      type: "xavier"
    }
    bias_filler {
      type: "constant"
      value: 0
    }
  }
}
layer {
  name: "relu1_1"
  type: "ReLU"
  bottom: "conv1_1"
  top: "conv1_1"
}
layer {
  name: "conv1_2"
  type: "Convolution"
  bottom: "conv1_1"
  top: "conv1_2"
  param {
    lr_mult: 1
    decay_mult: 1
  }
  param {
    lr_mult: 2
    decay_mult: 0
  }
  convolution_param {
    num_output: 64
    pad: 1
    kernel_size: 3
    weight_filler {
      type: "xavier"
    }
    bias_filler {
      type: "constant"
      value: 0
    }
  }
}
layer {
  name: "relu1_2"
  type: "ReLU"
  bottom: "conv1_2"
  top: "conv1_2"
}
layer {
  name: "pool1"
  type: "Pooling"
  bottom: "conv1_2"
  top: "pool1"
  pooling_param {
    pool: MAX
    kernel_size: 2
    stride: 2
  }
}
layer {
  name: "conv2_1"
  type: "Convolution"
  bottom: "pool1"
  top: "conv2_1"
  param {
    lr_mult: 1
    decay_mult: 1
  }
  param {
    lr_mult: 2
    decay_mult: 0
  }
  convolution_param {
    num_output: 128
    pad: 1
    kernel_size: 3
    weight_filler {
      type: "xavier"
    }
    bias_filler {
      type: "constant"
      value: 0
    }
  }
}
layer {
  name: "relu2_1"
  type: "ReLU"
  bottom: "conv2_1"
  top: "conv2_1"
}
layer {
  name: "conv2_2"
  type: "Convolution"
  bottom: "conv2_1"
  top: "conv2_2"
  param {
    lr_mult: 1
    decay_mult: 1
  }
  param {
    lr_mult: 2
    decay_mult: 0
  }
  convolution_param {
    num_output: 128
    pad: 1
    kernel_size: 3
    weight_filler {
      type: "xavier"
    }
    bias_filler {
      type: "constant"
      value: 0
    }
  }
}
layer {
  name: "relu2_2"
  type: "ReLU"
  bottom: "conv2_2"
  top: "conv2_2"
}
layer {
  name: "pool2"
  type: "Pooling"
  bottom: "conv2_2"
  top: "pool2"
  pooling_param {
    pool: MAX
    kernel_size: 2
    stride: 2
  }
}
layer {
  name: "conv3_1"
  type: "Convolution"
  bottom: "pool2"
  top: "conv3_1"
  param {
    lr_mult: 1
    decay_mult: 1
  }
  param {
    lr_mult: 2
    decay_mult: 0
  }
  convolution_param {
    num_output: 256
    pad: 1
    kernel_size: 3
    weight_filler {
      type: "xavier"
    }
    bias_filler {
      type: "constant"
      value: 0
    }
  }
}
layer {
  name: "relu3_1"
  type: "ReLU"
  bottom: "conv3_1"
  top: "conv3_1"
}
layer {
  name: "conv3_2"
  type: "Convolution"
  bottom: "conv3_1"
  top: "conv3_2"
  param {
    lr_mult: 1
    decay_mult: 1
  }
  param {
    lr_mult: 2
    decay_mult: 0
  }
  convolution_param {
    num_output: 256
    pad: 1
    kernel_size: 3
    weight_filler {
      type: "xavier"
    }
    bias_filler {
      type: "constant"
      value: 0
    }
  }
}
layer {
  name: "relu3_2"
  type: "ReLU"
  bottom: "conv3_2"
  top: "conv3_2"
}
layer {
  name: "conv3_3"
  type: "Convolution"
  bottom: "conv3_2"
  top: "conv3_3"
  param {
    lr_mult: 1
    decay_mult: 1
  }
  param {
    lr_mult: 2
    decay_mult: 0
  }
  convolution_param {
    num_output: 256
    pad: 1
    kernel_size: 3
    weight_filler {
      type: "xavier"
    }
    bias_filler {
      type: "constant"
      value: 0
    }
  }
}
layer {
  name: "relu3_3"
  type: "ReLU"
  bottom: "conv3_3"
  top: "conv3_3"
}
layer {
  name: "pool3"
  type: "Pooling"
  bottom: "conv3_3"
  top: "pool3"
  pooling_param {
    pool: MAX
    kernel_size: 2
    stride: 2
  }
}
layer {
  name: "conv4_1"
  type: "Convolution"
  bottom: "pool3"
  top: "conv4_1"
  param {
    lr_mult: 1
    decay_mult: 1
  }
  param {
    lr_mult: 2
    decay_mult: 0
  }
  convolution_param {
    num_output: 512
    pad: 1
    kernel_size: 3
    weight_filler {
      type: "xavier"
    }
    bias_filler {
      type: "constant"
      value: 0
    }
  }
}
layer {
  name: "relu4_1"
  type: "ReLU"
  bottom: "conv4_1"
  top: "conv4_1"
}
layer {
  name: "conv4_2"
  type: "Convolution"
  bottom: "conv4_1"
  top: "conv4_2"
  param {
    lr_mult: 1
    decay_mult: 1
  }
  param {
    lr_mult: 2
    decay_mult: 0
  }
  convolution_param {
    num_output: 512
    pad: 1
    kernel_size: 3
    weight_filler {
      type: "xavier"
    }
    bias_filler {
      type: "constant"
      value: 0
    }
  }
}
layer {
  name: "relu4_2"
  type: "ReLU"
  bottom: "conv4_2"
  top: "conv4_2"
}
layer {
  name: "conv4_3"
  type: "Convolution"
  bottom: "conv4_2"
  top: "conv4_3"
  param {
    lr_mult: 1
    decay_mult: 1
  }
  param {
    lr_mult: 2
    decay_mult: 0
  }
  convolution_param {
    num_output: 512
    pad: 1
    kernel_size: 3
    weight_filler {
      type: "xavier"
    }
    bias_filler {
      type: "constant"
      value: 0
    }
  }
}
layer {
  name: "relu4_3"
  type: "ReLU"
  bottom: "conv4_3"
  top: "conv4_3"
}
layer {
  name: "pool4"
  type: "Pooling"
  bottom: "conv4_3"
  top: "pool4"
  pooling_param {
    pool: MAX
    kernel_size: 2
    stride: 2
  }
}
layer {
  name: "conv5_1"
  type: "Convolution"
  bottom: "pool4"
  top: "conv5_1"
  param {
    lr_mult: 1
    decay_mult: 1
  }
  param {
    lr_mult: 2
    decay_mult: 0
  }
  convolution_param {
    num_output: 512
    pad: 1
    kernel_size: 3
    weight_filler {
      type: "xavier"
    }
    bias_filler {
      type: "constant"
      value: 0
    }
    dilation: 1
  }
}
layer {
  name: "relu5_1"
  type: "ReLU"
  bottom: "conv5_1"
  top: "conv5_1"
}
layer {
  name: "conv5_2"
  type: "Convolution"
  bottom: "conv5_1"
  top: "conv5_2"
  param {
    lr_mult: 1
    decay_mult: 1
  }
  param {
    lr_mult: 2
    decay_mult: 0
  }
  convolution_param {
    num_output: 512
    pad: 1
    kernel_size: 3
    weight_filler {
      type: "xavier"
    }
    bias_filler {
      type: "constant"
      value: 0
    }
    dilation: 1
  }
}
layer {
  name: "relu5_2"
  type: "ReLU"
  bottom: "conv5_2"
  top: "conv5_2"
}
layer {
  name: "conv5_3"
  type: "Convolution"
  bottom: "conv5_2"
  top: "conv5_3"
  param {
    lr_mult: 1
    decay_mult: 1
  }
  param {
    lr_mult: 2
    decay_mult: 0
  }
  convolution_param {
    num_output: 512
    pad: 1
    kernel_size: 3
    weight_filler {
      type: "xavier"
    }
    bias_filler {
      type: "constant"
      value: 0
    }
    dilation: 1
  }
}
layer {
  name: "relu5_3"
  type: "ReLU"
  bottom: "conv5_3"
  top: "conv5_3"
}
layer {
  name: "pool5"
  type: "Pooling"
  bottom: "conv5_3"
  top: "pool5"
  pooling_param {
    pool: MAX
    kernel_size: 3
    stride: 1
    pad: 1
  }
}
layer {
  name: "fc6"
  type: "Convolution"
  bottom: "pool5"
  top: "fc6"
  param {
    lr_mult: 1
    decay_mult: 1
  }
  param {
    lr_mult: 2
    decay_mult: 0
  }
  convolution_param {
    num_output: 1024
    pad: 6
    kernel_size: 3
    weight_filler {
      type: "xavier"
    }
    bias_filler {
      type: "constant"
      value: 0
    }
    dilation: 6
  }
}
layer {
  name: "relu6"
  type: "ReLU"
  bottom: "fc6"
  top: "fc6"
}
layer {
  name: "fc7"
  type: "Convolution"
  bottom: "fc6"
  top: "fc7"
  param {
    lr_mult: 1
    decay_mult: 1
  }
  param {
    lr_mult: 2
    decay_mult: 0
  }
  convolution_param {
    num_output: 1024
    kernel_size: 1
    weight_filler {
      type: "xavier"
    }
    bias_filler {
      type: "constant"
      value: 0
    }
  }
}
layer {
  name: "relu7"
  type: "ReLU"
  bottom: "fc7"
  top: "fc7"
}
layer {
  name: "conv6_1"
  type: "Convolution"
  bottom: "fc7"
  top: "conv6_1"
  param {
    lr_mult: 1
    decay_mult: 1
  }
  param {
    lr_mult: 2
    decay_mult: 0
  }
  convolution_param {
    num_output: 256
    pad: 0
    kernel_size: 1
    stride: 1
    weight_filler {
      type: "xavier"
    }
    bias_filler {
      type: "constant"
      value: 0
    }
  }
}
layer {
  name: "conv6_1_relu"
  type: "ReLU"
  bottom: "conv6_1"
  top: "conv6_1"
}
layer {
  name: "conv6_2"
  type: "Convolution"
  bottom: "conv6_1"
  top: "conv6_2"
  param {
    lr_mult: 1
    decay_mult: 1
  }
  param {
    lr_mult: 2
    decay_mult: 0
  }
  convolution_param {
    num_output: 512
    pad: 1
    kernel_size: 3
    stride: 2
    weight_filler {
      type: "xavier"
    }
    bias_filler {
      type: "constant"
      value: 0
    }
  }
}
layer {
  name: "conv6_2_relu"
  type: "ReLU"
  bottom: "conv6_2"
  top: "conv6_2"
}
layer {
  name: "conv7_1"
  type: "Convolution"
  bottom: "conv6_2"
  top: "conv7_1"
  param {
    lr_mult: 1
    decay_mult: 1
  }
  param {
    lr_mult: 2
    decay_mult: 0
  }
  convolution_param {
    num_output: 128
    pad: 0
    kernel_size: 1
    stride: 1
    weight_filler {
      type: "xavier"
    }
    bias_filler {
      type: "constant"
      value: 0
    }
  }
}
layer {
  name: "conv7_1_relu"
  type: "ReLU"
  bottom: "conv7_1"
  top: "conv7_1"
}
layer {
  name: "conv7_2"
  type: "Convolution"
  bottom: "conv7_1"
  top: "conv7_2"
  param {
    lr_mult: 1
    decay_mult: 1
  }
  param {
    lr_mult: 2
    decay_mult: 0
  }
  convolution_param {
    num_output: 256
    pad: 1
    kernel_size: 3
    stride: 2
    weight_filler {
      type: "xavier"
    }
    bias_filler {
      type: "constant"
      value: 0
    }
  }
}
layer {
  name: "conv7_2_relu"
  type: "ReLU"
  bottom: "conv7_2"
  top: "conv7_2"
}
layer {
  name: "conv8_1"
  type: "Convolution"
  bottom: "conv7_2"
  top: "conv8_1"
  param {
    lr_mult: 1
    decay_mult: 1
  }
  param {
    lr_mult: 2
    decay_mult: 0
  }
  convolution_param {
    num_output: 128
    pad: 0
    kernel_size: 1
    stride: 1
    weight_filler {
      type: "xavier"
    }
    bias_filler {
      type: "constant"
      value: 0
    }
  }
}
layer {
  name: "conv8_1_relu"
  type: "ReLU"
  bottom: "conv8_1"
  top: "conv8_1"
}
layer {
  name: "conv8_2"
  type: "Convolution"
  bottom: "conv8_1"
  top: "conv8_2"
  param {
    lr_mult: 1
    decay_mult: 1
  }
  param {
    lr_mult: 2
    decay_mult: 0
  }
  convolution_param {
    num_output: 256
    pad: 0
    kernel_size: 3
    stride: 1
    weight_filler {
      type: "xavier"
    }
    bias_filler {
      type: "constant"
      value: 0
    }
  }
}
layer {
  name: "conv8_2_relu"
  type: "ReLU"
  bottom: "conv8_2"
  top: "conv8_2"
}
layer {
  name: "conv9_1"
  type: "Convolution"
  bottom: "conv8_2"
  top: "conv9_1"
  param {
    lr_mult: 1
    decay_mult: 1
  }
  param {
    lr_mult: 2
    decay_mult: 0
  }
  convolution_param {
    num_output: 128
    pad: 0
    kernel_size: 1
    stride: 1
    weight_filler {
      type: "xavier"
    }
    bias_filler {
      type: "constant"
      value: 0
    }
  }
}
layer {
  name: "conv9_1_relu"
  type: "ReLU"
  bottom: "conv9_1"
  top: "conv9_1"
}
layer {
  name: "conv9_2"
  type: "Convolution"
  bottom: "conv9_1"
  top: "conv9_2"
  param {
    lr_mult: 1
    decay_mult: 1
  }
  param {
    lr_mult: 2
    decay_mult: 0
  }
  convolution_param {
    num_output: 256
    pad: 0
    kernel_size: 3
    stride: 1
    weight_filler {
      type: "xavier"
    }
    bias_filler {
      type: "constant"
      value: 0
    }
  }
}
layer {
  name: "conv9_2_relu"
  type: "ReLU"
  bottom: "conv9_2"
  top: "conv9_2"
}
layer {
  name: "conv4_3_norm"
  type: "Normalize"
  bottom: "conv4_3"
  top: "conv4_3_norm"
  norm_param {
    across_spatial: false
    scale_filler {
      type: "constant"
      value: 20
    }
    channel_shared: false
  }
}
layer {
  name: "conv4_3_norm_mbox_loc"
  type: "Convolution"
  bottom: "conv4_3_norm"
  top: "conv4_3_norm_mbox_loc"
  param {
    lr_mult: 1
    decay_mult: 1
  }
  param {
    lr_mult: 2
    decay_mult: 0
  }
  convolution_param {
    num_output: 16
    pad: 1
    kernel_size: 3
    stride: 1
    weight_filler {
      type: "xavier"
    }
    bias_filler {
      type: "constant"
      value: 0
    }
  }
}
layer {
  name: "conv4_3_norm_mbox_loc_perm"
  type: "Permute"
  bottom: "conv4_3_norm_mbox_loc"
  top: "conv4_3_norm_mbox_loc_perm"
  permute_param {
    order: 0
    order: 2
    order: 3
    order: 1
  }
}
layer {
  name: "conv4_3_norm_mbox_loc_flat"
  type: "Flatten"
  bottom: "conv4_3_norm_mbox_loc_perm"
  top: "conv4_3_norm_mbox_loc_flat"
  flatten_param {
    axis: 1
  }
}
layer {
  name: "conv4_3_norm_mbox_conf"
  type: "Convolution"
  bottom: "conv4_3_norm"
  top: "conv4_3_norm_mbox_conf"
  param {
    lr_mult: 1
    decay_mult: 1
  }
  param {
    lr_mult: 2
    decay_mult: 0
  }
  convolution_param {
    num_output: 12
    pad: 1
    kernel_size: 3
    stride: 1
    weight_filler {
      type: "xavier"
    }
    bias_filler {
      type: "constant"
      value: 0
    }
  }
}
layer {
  name: "conv4_3_norm_mbox_conf_perm"
  type: "Permute"
  bottom: "conv4_3_norm_mbox_conf"
  top: "conv4_3_norm_mbox_conf_perm"
  permute_param {
    order: 0
    order: 2
    order: 3
    order: 1
  }
}
layer {
  name: "conv4_3_norm_mbox_conf_flat"
  type: "Flatten"
  bottom: "conv4_3_norm_mbox_conf_perm"
  top: "conv4_3_norm_mbox_conf_flat"
  flatten_param {
    axis: 1
  }
}
layer {
  name: "conv4_3_norm_mbox_priorbox"
  type: "PriorBox"
  bottom: "conv4_3_norm"
  bottom: "data"
  top: "conv4_3_norm_mbox_priorbox"
  prior_box_param {
    min_size: 30
    max_size: 60
    aspect_ratio: 2
    flip: true
    clip: false
    variance: 0.1
    variance: 0.1
    variance: 0.2
    variance: 0.2
    step: 8
    offset: 0.5
  }
}
layer {
  name: "fc7_mbox_loc"
  type: "Convolution"
  bottom: "fc7"
  top: "fc7_mbox_loc"
  param {
    lr_mult: 1
    decay_mult: 1
  }
  param {
    lr_mult: 2
    decay_mult: 0
  }
  convolution_param {
    num_output: 24
    pad: 1
    kernel_size: 3
    stride: 1
    weight_filler {
      type: "xavier"
    }
    bias_filler {
      type: "constant"
      value: 0
    }
  }
}
layer {
  name: "fc7_mbox_loc_perm"
  type: "Permute"
  bottom: "fc7_mbox_loc"
  top: "fc7_mbox_loc_perm"
  permute_param {
    order: 0
    order: 2
    order: 3
    order: 1
  }
}
layer {
  name: "fc7_mbox_loc_flat"
  type: "Flatten"
  bottom: "fc7_mbox_loc_perm"
  top: "fc7_mbox_loc_flat"
  flatten_param {
    axis: 1
  }
}
layer {
  name: "fc7_mbox_conf"
  type: "Convolution"
  bottom: "fc7"
  top: "fc7_mbox_conf"
  param {
    lr_mult: 1
    decay_mult: 1
  }
  param {
    lr_mult: 2
    decay_mult: 0
  }
  convolution_param {
    num_output: 18
    pad: 1
    kernel_size: 3
    stride: 1
    weight_filler {
      type: "xavier"
    }
    bias_filler {
      type: "constant"
      value: 0
    }
  }
}
layer {
  name: "fc7_mbox_conf_perm"
  type: "Permute"
  bottom: "fc7_mbox_conf"
  top: "fc7_mbox_conf_perm"
  permute_param {
    order: 0
    order: 2
    order: 3
    order: 1
  }
}
layer {
  name: "fc7_mbox_conf_flat"
  type: "Flatten"
  bottom: "fc7_mbox_conf_perm"
  top: "fc7_mbox_conf_flat"
  flatten_param {
    axis: 1
  }
}
layer {
  name: "fc7_mbox_priorbox"
  type: "PriorBox"
  bottom: "fc7"
  bottom: "data"
  top: "fc7_mbox_priorbox"
  prior_box_param {
    min_size: 60
    max_size: 111
    aspect_ratio: 2
    aspect_ratio: 3
    flip: true
    clip: false
    variance: 0.1
    variance: 0.1
    variance: 0.2
    variance: 0.2
    step: 16
    offset: 0.5
  }
}
layer {
  name: "conv6_2_mbox_loc"
  type: "Convolution"
  bottom: "conv6_2"
  top: "conv6_2_mbox_loc"
  param {
    lr_mult: 1
    decay_mult: 1
  }
  param {
    lr_mult: 2
    decay_mult: 0
  }
  convolution_param {
    num_output: 24
    pad: 1
    kernel_size: 3
    stride: 1
    weight_filler {
      type: "xavier"
    }
    bias_filler {
      type: "constant"
      value: 0
    }
  }
}
layer {
  name: "conv6_2_mbox_loc_perm"
  type: "Permute"
  bottom: "conv6_2_mbox_loc"
  top: "conv6_2_mbox_loc_perm"
  permute_param {
    order: 0
    order: 2
    order: 3
    order: 1
  }
}
layer {
  name: "conv6_2_mbox_loc_flat"
  type: "Flatten"
  bottom: "conv6_2_mbox_loc_perm"
  top: "conv6_2_mbox_loc_flat"
  flatten_param {
    axis: 1
  }
}
layer {
  name: "conv6_2_mbox_conf"
  type: "Convolution"
  bottom: "conv6_2"
  top: "conv6_2_mbox_conf"
  param {
    lr_mult: 1
    decay_mult: 1
  }
  param {
    lr_mult: 2
    decay_mult: 0
  }
  convolution_param {
    num_output: 18
    pad: 1
    kernel_size: 3
    stride: 1
    weight_filler {
      type: "xavier"
    }
    bias_filler {
      type: "constant"
      value: 0
    }
  }
}
layer {
  name: "conv6_2_mbox_conf_perm"
  type: "Permute"
  bottom: "conv6_2_mbox_conf"
  top: "conv6_2_mbox_conf_perm"
  permute_param {
    order: 0
    order: 2
    order: 3
    order: 1
  }
}
layer {
  name: "conv6_2_mbox_conf_flat"
  type: "Flatten"
  bottom: "conv6_2_mbox_conf_perm"
  top: "conv6_2_mbox_conf_flat"
  flatten_param {
    axis: 1
  }
}
layer {
  name: "conv6_2_mbox_priorbox"
  type: "PriorBox"
  bottom: "conv6_2"
  bottom: "data"
  top: "conv6_2_mbox_priorbox"
  prior_box_param {
    min_size: 111
    max_size: 162
    aspect_ratio: 2
    aspect_ratio: 3
    flip: true
    clip: false
    variance: 0.1
    variance: 0.1
    variance: 0.2
    variance: 0.2
    step: 32
    offset: 0.5
  }
}
layer {
  name: "conv7_2_mbox_loc"
  type: "Convolution"
  bottom: "conv7_2"
  top: "conv7_2_mbox_loc"
  param {
    lr_mult: 1
    decay_mult: 1
  }
  param {
    lr_mult: 2
    decay_mult: 0
  }
  convolution_param {
    num_output: 24
    pad: 1
    kernel_size: 3
    stride: 1
    weight_filler {
      type: "xavier"
    }
    bias_filler {
      type: "constant"
      value: 0
    }
  }
}
layer {
  name: "conv7_2_mbox_loc_perm"
  type: "Permute"
  bottom: "conv7_2_mbox_loc"
  top: "conv7_2_mbox_loc_perm"
  permute_param {
    order: 0
    order: 2
    order: 3
    order: 1
  }
}
layer {
  name: "conv7_2_mbox_loc_flat"
  type: "Flatten"
  bottom: "conv7_2_mbox_loc_perm"
  top: "conv7_2_mbox_loc_flat"
  flatten_param {
    axis: 1
  }
}
layer {
  name: "conv7_2_mbox_conf"
  type: "Convolution"
  bottom: "conv7_2"
  top: "conv7_2_mbox_conf"
  param {
    lr_mult: 1
    decay_mult: 1
  }
  param {
    lr_mult: 2
    decay_mult: 0
  }
  convolution_param {
    num_output: 18
    pad: 1
    kernel_size: 3
    stride: 1
    weight_filler {
      type: "xavier"
    }
    bias_filler {
      type: "constant"
      value: 0
    }
  }
}
layer {
  name: "conv7_2_mbox_conf_perm"
  type: "Permute"
  bottom: "conv7_2_mbox_conf"
  top: "conv7_2_mbox_conf_perm"
  permute_param {
    order: 0
    order: 2
    order: 3
    order: 1
  }
}
layer {
  name: "conv7_2_mbox_conf_flat"
  type: "Flatten"
  bottom: "conv7_2_mbox_conf_perm"
  top: "conv7_2_mbox_conf_flat"
  flatten_param {
    axis: 1
  }
}
layer {
  name: "conv7_2_mbox_priorbox"
  type: "PriorBox"
  bottom: "conv7_2"
  bottom: "data"
  top: "conv7_2_mbox_priorbox"
  prior_box_param {
    min_size: 162
    max_size: 213
    aspect_ratio: 2
    aspect_ratio: 3
    flip: true
    clip: false
    variance: 0.1
    variance: 0.1
    variance: 0.2
    variance: 0.2
    step: 64
    offset: 0.5
  }
}
layer {
  name: "conv8_2_mbox_loc"
  type: "Convolution"
  bottom: "conv8_2"
  top: "conv8_2_mbox_loc"
  param {
    lr_mult: 1
    decay_mult: 1
  }
  param {
    lr_mult: 2
    decay_mult: 0
  }
  convolution_param {
    num_output: 16
    pad: 1
    kernel_size: 3
    stride: 1
    weight_filler {
      type: "xavier"
    }
    bias_filler {
      type: "constant"
      value: 0
    }
  }
}
layer {
  name: "conv8_2_mbox_loc_perm"
  type: "Permute"
  bottom: "conv8_2_mbox_loc"
  top: "conv8_2_mbox_loc_perm"
  permute_param {
    order: 0
    order: 2
    order: 3
    order: 1
  }
}
layer {
  name: "conv8_2_mbox_loc_flat"
  type: "Flatten"
  bottom: "conv8_2_mbox_loc_perm"
  top: "conv8_2_mbox_loc_flat"
  flatten_param {
    axis: 1
  }
}
layer {
  name: "conv8_2_mbox_conf"
  type: "Convolution"
  bottom: "conv8_2"
  top: "conv8_2_mbox_conf"
  param {
    lr_mult: 1
    decay_mult: 1
  }
  param {
    lr_mult: 2
    decay_mult: 0
  }
  convolution_param {
    num_output: 12
    pad: 1
    kernel_size: 3
    stride: 1
    weight_filler {
      type: "xavier"
    }
    bias_filler {
      type: "constant"
      value: 0
    }
  }
}
layer {
  name: "conv8_2_mbox_conf_perm"
  type: "Permute"
  bottom: "conv8_2_mbox_conf"
  top: "conv8_2_mbox_conf_perm"
  permute_param {
    order: 0
    order: 2
    order: 3
    order: 1
  }
}
layer {
  name: "conv8_2_mbox_conf_flat"
  type: "Flatten"
  bottom: "conv8_2_mbox_conf_perm"
  top: "conv8_2_mbox_conf_flat"
  flatten_param {
    axis: 1
  }
}
layer {
  name: "conv8_2_mbox_priorbox"
  type: "PriorBox"
  bottom: "conv8_2"
  bottom: "data"
  top: "conv8_2_mbox_priorbox"
  prior_box_param {
    min_size: 213
    max_size: 264
    aspect_ratio: 2
    flip: true
    clip: false
    variance: 0.1
    variance: 0.1
    variance: 0.2
    variance: 0.2
    step: 100
    offset: 0.5
  }
}
layer {
  name: "conv9_2_mbox_loc"
  type: "Convolution"
  bottom: "conv9_2"
  top: "conv9_2_mbox_loc"
  param {
    lr_mult: 1
    decay_mult: 1
  }
  param {
    lr_mult: 2
    decay_mult: 0
  }
  convolution_param {
    num_output: 16
    pad: 1
    kernel_size: 3
    stride: 1
    weight_filler {
      type: "xavier"
    }
    bias_filler {
      type: "constant"
      value: 0
    }
  }
}
layer {
  name: "conv9_2_mbox_loc_perm"
  type: "Permute"
  bottom: "conv9_2_mbox_loc"
  top: "conv9_2_mbox_loc_perm"
  permute_param {
    order: 0
    order: 2
    order: 3
    order: 1
  }
}
layer {
  name: "conv9_2_mbox_loc_flat"
  type: "Flatten"
  bottom: "conv9_2_mbox_loc_perm"
  top: "conv9_2_mbox_loc_flat"
  flatten_param {
    axis: 1
  }
}
layer {
  name: "conv9_2_mbox_conf"
  type: "Convolution"
  bottom: "conv9_2"
  top: "conv9_2_mbox_conf"
  param {
    lr_mult: 1
    decay_mult: 1
  }
  param {
    lr_mult: 2
    decay_mult: 0
  }
  convolution_param {
    num_output: 12
    pad: 1
    kernel_size: 3
    stride: 1
    weight_filler {
      type: "xavier"
    }
    bias_filler {
      type: "constant"
      value: 0
    }
  }
}
layer {
  name: "conv9_2_mbox_conf_perm"
  type: "Permute"
  bottom: "conv9_2_mbox_conf"
  top: "conv9_2_mbox_conf_perm"
  permute_param {
    order: 0
    order: 2
    order: 3
    order: 1
  }
}
layer {
  name: "conv9_2_mbox_conf_flat"
  type: "Flatten"
  bottom: "conv9_2_mbox_conf_perm"
  top: "conv9_2_mbox_conf_flat"
  flatten_param {
    axis: 1
  }
}
layer {
  name: "conv9_2_mbox_priorbox"
  type: "PriorBox"
  bottom: "conv9_2"
  bottom: "data"
  top: "conv9_2_mbox_priorbox"
  prior_box_param {
    min_size: 264
    max_size: 315
    aspect_ratio: 2
    flip: true
    clip: false
    variance: 0.1
    variance: 0.1
    variance: 0.2
    variance: 0.2
    step: 300
    offset: 0.5
  }
}
layer {
  name: "mbox_loc"
  type: "Concat"
  bottom: "conv4_3_norm_mbox_loc_flat"
  bottom: "fc7_mbox_loc_flat"
  bottom: "conv6_2_mbox_loc_flat"
  bottom: "conv7_2_mbox_loc_flat"
  bottom: "conv8_2_mbox_loc_flat"
  bottom: "conv9_2_mbox_loc_flat"
  top: "mbox_loc"
  concat_param {
    axis: 1
  }
}
layer {
  name: "mbox_conf"
  type: "Concat"
  bottom: "conv4_3_norm_mbox_conf_flat"
  bottom: "fc7_mbox_conf_flat"
  bottom: "conv6_2_mbox_conf_flat"
  bottom: "conv7_2_mbox_conf_flat"
  bottom: "conv8_2_mbox_conf_flat"
  bottom: "conv9_2_mbox_conf_flat"
  top: "mbox_conf"
  concat_param {
    axis: 1
  }
}
layer {
  name: "mbox_priorbox"
  type: "Concat"
  bottom: "conv4_3_norm_mbox_priorbox"
  bottom: "fc7_mbox_priorbox"
  bottom: "conv6_2_mbox_priorbox"
  bottom: "conv7_2_mbox_priorbox"
  bottom: "conv8_2_mbox_priorbox"
  bottom: "conv9_2_mbox_priorbox"
  top: "mbox_priorbox"
  concat_param {
    axis: 2
  }
}
layer {
  name: "mbox_loss"
  type: "MultiBoxLoss"
  bottom: "mbox_loc"
  bottom: "mbox_conf"
  bottom: "mbox_priorbox"
  bottom: "label"
  top: "mbox_loss"
  include {
    phase: TRAIN
  }
  propagate_down: true
  propagate_down: true
  propagate_down: false
  propagate_down: false
  loss_param {
    normalization: VALID
  }
  multibox_loss_param {
    loc_loss_type: SMOOTH_L1
    conf_loss_type: SOFTMAX
    loc_weight: 1
    num_classes: 3
    share_location: true
    match_type: PER_PREDICTION
    overlap_threshold: 0.5
    use_prior_for_matching: true
    background_label_id: 0
    use_difficult_gt: true
    neg_pos_ratio: 3
    neg_overlap: 0.5
    code_type: CENTER_SIZE
    ignore_cross_boundary_bbox: false
    mining_type: MAX_NEGATIVE
  }
}
I0607 14:25:26.213559 13659 layer_factory.hpp:77] Creating layer data
I0607 14:25:26.213680 13659 net.cpp:100] Creating Layer data
I0607 14:25:26.213691 13659 net.cpp:408] data -> data
I0607 14:25:26.213717 13659 net.cpp:408] data -> label
I0607 14:25:26.214252 13676 db_lmdb.cpp:35] Opened lmdb examples/tbs_v2.0_HSIL_1_23/tbs_v2.0_HSIL_1_23_trainval_lmdb
I0607 14:25:26.223644 13659 annotated_data_layer.cpp:62] output data size: 32,3,300,300
I0607 14:25:26.284662 13659 net.cpp:150] Setting up data
I0607 14:25:26.284683 13659 net.cpp:157] Top shape: 32 3 300 300 (8640000)
I0607 14:25:26.284716 13659 net.cpp:157] Top shape: 1 1 1 8 (8)
I0607 14:25:26.284718 13659 net.cpp:165] Memory required for data: 34560032
I0607 14:25:26.284728 13659 layer_factory.hpp:77] Creating layer data_data_0_split
I0607 14:25:26.284752 13659 net.cpp:100] Creating Layer data_data_0_split
I0607 14:25:26.284770 13659 net.cpp:434] data_data_0_split <- data
I0607 14:25:26.284796 13659 net.cpp:408] data_data_0_split -> data_data_0_split_0
I0607 14:25:26.284806 13659 net.cpp:408] data_data_0_split -> data_data_0_split_1
I0607 14:25:26.284811 13659 net.cpp:408] data_data_0_split -> data_data_0_split_2
I0607 14:25:26.284817 13659 net.cpp:408] data_data_0_split -> data_data_0_split_3
I0607 14:25:26.284821 13659 net.cpp:408] data_data_0_split -> data_data_0_split_4
I0607 14:25:26.284828 13659 net.cpp:408] data_data_0_split -> data_data_0_split_5
I0607 14:25:26.284833 13659 net.cpp:408] data_data_0_split -> data_data_0_split_6
I0607 14:25:26.284917 13659 net.cpp:150] Setting up data_data_0_split
I0607 14:25:26.284922 13659 net.cpp:157] Top shape: 32 3 300 300 (8640000)
I0607 14:25:26.284925 13659 net.cpp:157] Top shape: 32 3 300 300 (8640000)
I0607 14:25:26.284929 13659 net.cpp:157] Top shape: 32 3 300 300 (8640000)
I0607 14:25:26.284931 13659 net.cpp:157] Top shape: 32 3 300 300 (8640000)
I0607 14:25:26.284934 13659 net.cpp:157] Top shape: 32 3 300 300 (8640000)
I0607 14:25:26.284951 13659 net.cpp:157] Top shape: 32 3 300 300 (8640000)
I0607 14:25:26.284955 13659 net.cpp:157] Top shape: 32 3 300 300 (8640000)
I0607 14:25:26.284956 13659 net.cpp:165] Memory required for data: 276480032
I0607 14:25:26.284973 13659 layer_factory.hpp:77] Creating layer conv1_1
I0607 14:25:26.284987 13659 net.cpp:100] Creating Layer conv1_1
I0607 14:25:26.284991 13659 net.cpp:434] conv1_1 <- data_data_0_split_0
I0607 14:25:26.284996 13659 net.cpp:408] conv1_1 -> conv1_1
I0607 14:25:26.464210 13659 net.cpp:150] Setting up conv1_1
I0607 14:25:26.464229 13659 net.cpp:157] Top shape: 32 64 300 300 (184320000)
I0607 14:25:26.464232 13659 net.cpp:165] Memory required for data: 1013760032
I0607 14:25:26.464275 13659 layer_factory.hpp:77] Creating layer relu1_1
I0607 14:25:26.464285 13659 net.cpp:100] Creating Layer relu1_1
I0607 14:25:26.464290 13659 net.cpp:434] relu1_1 <- conv1_1
I0607 14:25:26.464298 13659 net.cpp:395] relu1_1 -> conv1_1 (in-place)
I0607 14:25:26.464519 13659 net.cpp:150] Setting up relu1_1
I0607 14:25:26.464529 13659 net.cpp:157] Top shape: 32 64 300 300 (184320000)
I0607 14:25:26.464532 13659 net.cpp:165] Memory required for data: 1751040032
I0607 14:25:26.464536 13659 layer_factory.hpp:77] Creating layer conv1_2
I0607 14:25:26.464565 13659 net.cpp:100] Creating Layer conv1_2
I0607 14:25:26.464568 13659 net.cpp:434] conv1_2 <- conv1_1
I0607 14:25:26.464576 13659 net.cpp:408] conv1_2 -> conv1_2
I0607 14:25:26.466709 13659 net.cpp:150] Setting up conv1_2
I0607 14:25:26.466722 13659 net.cpp:157] Top shape: 32 64 300 300 (184320000)
I0607 14:25:26.466724 13659 net.cpp:165] Memory required for data: 2488320032
I0607 14:25:26.466732 13659 layer_factory.hpp:77] Creating layer relu1_2
I0607 14:25:26.466740 13659 net.cpp:100] Creating Layer relu1_2
I0607 14:25:26.466763 13659 net.cpp:434] relu1_2 <- conv1_2
I0607 14:25:26.466769 13659 net.cpp:395] relu1_2 -> conv1_2 (in-place)
I0607 14:25:26.467500 13659 net.cpp:150] Setting up relu1_2
I0607 14:25:26.467514 13659 net.cpp:157] Top shape: 32 64 300 300 (184320000)
I0607 14:25:26.467520 13659 net.cpp:165] Memory required for data: 3225600032
I0607 14:25:26.467525 13659 layer_factory.hpp:77] Creating layer pool1
I0607 14:25:26.467550 13659 net.cpp:100] Creating Layer pool1
I0607 14:25:26.467555 13659 net.cpp:434] pool1 <- conv1_2
I0607 14:25:26.467562 13659 net.cpp:408] pool1 -> pool1
I0607 14:25:26.467633 13659 net.cpp:150] Setting up pool1
I0607 14:25:26.467643 13659 net.cpp:157] Top shape: 32 64 150 150 (46080000)
I0607 14:25:26.467648 13659 net.cpp:165] Memory required for data: 3409920032
I0607 14:25:26.467666 13659 layer_factory.hpp:77] Creating layer conv2_1
I0607 14:25:26.467692 13659 net.cpp:100] Creating Layer conv2_1
I0607 14:25:26.467710 13659 net.cpp:434] conv2_1 <- pool1
I0607 14:25:26.467732 13659 net.cpp:408] conv2_1 -> conv2_1
I0607 14:25:26.469221 13659 net.cpp:150] Setting up conv2_1
I0607 14:25:26.469233 13659 net.cpp:157] Top shape: 32 128 150 150 (92160000)
I0607 14:25:26.469238 13659 net.cpp:165] Memory required for data: 3778560032
I0607 14:25:26.469262 13659 layer_factory.hpp:77] Creating layer relu2_1
I0607 14:25:26.469272 13659 net.cpp:100] Creating Layer relu2_1
I0607 14:25:26.469279 13659 net.cpp:434] relu2_1 <- conv2_1
I0607 14:25:26.469286 13659 net.cpp:395] relu2_1 -> conv2_1 (in-place)
I0607 14:25:26.470037 13659 net.cpp:150] Setting up relu2_1
I0607 14:25:26.470047 13659 net.cpp:157] Top shape: 32 128 150 150 (92160000)
I0607 14:25:26.470051 13659 net.cpp:165] Memory required for data: 4147200032
I0607 14:25:26.470054 13659 layer_factory.hpp:77] Creating layer conv2_2
I0607 14:25:26.470065 13659 net.cpp:100] Creating Layer conv2_2
I0607 14:25:26.470072 13659 net.cpp:434] conv2_2 <- conv2_1
I0607 14:25:26.470083 13659 net.cpp:408] conv2_2 -> conv2_2
I0607 14:25:26.472440 13659 net.cpp:150] Setting up conv2_2
I0607 14:25:26.472450 13659 net.cpp:157] Top shape: 32 128 150 150 (92160000)
I0607 14:25:26.472455 13659 net.cpp:165] Memory required for data: 4515840032
I0607 14:25:26.472473 13659 layer_factory.hpp:77] Creating layer relu2_2
I0607 14:25:26.472479 13659 net.cpp:100] Creating Layer relu2_2
I0607 14:25:26.472482 13659 net.cpp:434] relu2_2 <- conv2_2
I0607 14:25:26.472487 13659 net.cpp:395] relu2_2 -> conv2_2 (in-place)
I0607 14:25:26.472676 13659 net.cpp:150] Setting up relu2_2
I0607 14:25:26.472703 13659 net.cpp:157] Top shape: 32 128 150 150 (92160000)
I0607 14:25:26.472707 13659 net.cpp:165] Memory required for data: 4884480032
I0607 14:25:26.472712 13659 layer_factory.hpp:77] Creating layer pool2
I0607 14:25:26.472733 13659 net.cpp:100] Creating Layer pool2
I0607 14:25:26.472751 13659 net.cpp:434] pool2 <- conv2_2
I0607 14:25:26.472769 13659 net.cpp:408] pool2 -> pool2
I0607 14:25:26.472831 13659 net.cpp:150] Setting up pool2
I0607 14:25:26.472841 13659 net.cpp:157] Top shape: 32 128 75 75 (23040000)
I0607 14:25:26.472859 13659 net.cpp:165] Memory required for data: 4976640032
I0607 14:25:26.472863 13659 layer_factory.hpp:77] Creating layer conv3_1
I0607 14:25:26.472873 13659 net.cpp:100] Creating Layer conv3_1
I0607 14:25:26.472879 13659 net.cpp:434] conv3_1 <- pool2
I0607 14:25:26.472888 13659 net.cpp:408] conv3_1 -> conv3_1
I0607 14:25:26.477071 13659 net.cpp:150] Setting up conv3_1
I0607 14:25:26.477089 13659 net.cpp:157] Top shape: 32 256 75 75 (46080000)
I0607 14:25:26.477092 13659 net.cpp:165] Memory required for data: 5160960032
I0607 14:25:26.477118 13659 layer_factory.hpp:77] Creating layer relu3_1
I0607 14:25:26.477128 13659 net.cpp:100] Creating Layer relu3_1
I0607 14:25:26.477130 13659 net.cpp:434] relu3_1 <- conv3_1
I0607 14:25:26.477150 13659 net.cpp:395] relu3_1 -> conv3_1 (in-place)
I0607 14:25:26.477388 13659 net.cpp:150] Setting up relu3_1
I0607 14:25:26.477401 13659 net.cpp:157] Top shape: 32 256 75 75 (46080000)
I0607 14:25:26.477404 13659 net.cpp:165] Memory required for data: 5345280032
I0607 14:25:26.477409 13659 layer_factory.hpp:77] Creating layer conv3_2
I0607 14:25:26.477421 13659 net.cpp:100] Creating Layer conv3_2
I0607 14:25:26.477425 13659 net.cpp:434] conv3_2 <- conv3_1
I0607 14:25:26.477433 13659 net.cpp:408] conv3_2 -> conv3_2
I0607 14:25:26.482290 13659 net.cpp:150] Setting up conv3_2
I0607 14:25:26.482306 13659 net.cpp:157] Top shape: 32 256 75 75 (46080000)
I0607 14:25:26.482309 13659 net.cpp:165] Memory required for data: 5529600032
I0607 14:25:26.482331 13659 layer_factory.hpp:77] Creating layer relu3_2
I0607 14:25:26.482338 13659 net.cpp:100] Creating Layer relu3_2
I0607 14:25:26.482342 13659 net.cpp:434] relu3_2 <- conv3_2
I0607 14:25:26.482347 13659 net.cpp:395] relu3_2 -> conv3_2 (in-place)
I0607 14:25:26.482544 13659 net.cpp:150] Setting up relu3_2
I0607 14:25:26.482556 13659 net.cpp:157] Top shape: 32 256 75 75 (46080000)
I0607 14:25:26.482589 13659 net.cpp:165] Memory required for data: 5713920032
I0607 14:25:26.482606 13659 layer_factory.hpp:77] Creating layer conv3_3
I0607 14:25:26.482620 13659 net.cpp:100] Creating Layer conv3_3
I0607 14:25:26.482641 13659 net.cpp:434] conv3_3 <- conv3_2
I0607 14:25:26.482666 13659 net.cpp:408] conv3_3 -> conv3_3
I0607 14:25:26.487388 13659 net.cpp:150] Setting up conv3_3
I0607 14:25:26.487402 13659 net.cpp:157] Top shape: 32 256 75 75 (46080000)
I0607 14:25:26.487406 13659 net.cpp:165] Memory required for data: 5898240032
I0607 14:25:26.487411 13659 layer_factory.hpp:77] Creating layer relu3_3
I0607 14:25:26.487432 13659 net.cpp:100] Creating Layer relu3_3
I0607 14:25:26.487434 13659 net.cpp:434] relu3_3 <- conv3_3
I0607 14:25:26.487439 13659 net.cpp:395] relu3_3 -> conv3_3 (in-place)
I0607 14:25:26.487624 13659 net.cpp:150] Setting up relu3_3
I0607 14:25:26.487635 13659 net.cpp:157] Top shape: 32 256 75 75 (46080000)
I0607 14:25:26.487640 13659 net.cpp:165] Memory required for data: 6082560032
I0607 14:25:26.487644 13659 layer_factory.hpp:77] Creating layer pool3
I0607 14:25:26.487666 13659 net.cpp:100] Creating Layer pool3
I0607 14:25:26.487671 13659 net.cpp:434] pool3 <- conv3_3
I0607 14:25:26.487679 13659 net.cpp:408] pool3 -> pool3
I0607 14:25:26.487742 13659 net.cpp:150] Setting up pool3
I0607 14:25:26.487766 13659 net.cpp:157] Top shape: 32 256 38 38 (11829248)
I0607 14:25:26.487771 13659 net.cpp:165] Memory required for data: 6129877024
I0607 14:25:26.487774 13659 layer_factory.hpp:77] Creating layer conv4_1
I0607 14:25:26.487787 13659 net.cpp:100] Creating Layer conv4_1
I0607 14:25:26.487805 13659 net.cpp:434] conv4_1 <- pool3
I0607 14:25:26.487813 13659 net.cpp:408] conv4_1 -> conv4_1
I0607 14:25:26.496697 13659 net.cpp:150] Setting up conv4_1
I0607 14:25:26.496716 13659 net.cpp:157] Top shape: 32 512 38 38 (23658496)
I0607 14:25:26.496718 13659 net.cpp:165] Memory required for data: 6224511008
I0607 14:25:26.496739 13659 layer_factory.hpp:77] Creating layer relu4_1
I0607 14:25:26.496745 13659 net.cpp:100] Creating Layer relu4_1
I0607 14:25:26.496750 13659 net.cpp:434] relu4_1 <- conv4_1
I0607 14:25:26.496757 13659 net.cpp:395] relu4_1 -> conv4_1 (in-place)
I0607 14:25:26.497694 13659 net.cpp:150] Setting up relu4_1
I0607 14:25:26.497705 13659 net.cpp:157] Top shape: 32 512 38 38 (23658496)
I0607 14:25:26.497709 13659 net.cpp:165] Memory required for data: 6319144992
I0607 14:25:26.497714 13659 layer_factory.hpp:77] Creating layer conv4_2
I0607 14:25:26.497726 13659 net.cpp:100] Creating Layer conv4_2
I0607 14:25:26.497747 13659 net.cpp:434] conv4_2 <- conv4_1
I0607 14:25:26.497757 13659 net.cpp:408] conv4_2 -> conv4_2
I0607 14:25:26.510462 13659 net.cpp:150] Setting up conv4_2
I0607 14:25:26.510498 13659 net.cpp:157] Top shape: 32 512 38 38 (23658496)
I0607 14:25:26.510501 13659 net.cpp:165] Memory required for data: 6413778976
I0607 14:25:26.510514 13659 layer_factory.hpp:77] Creating layer relu4_2
I0607 14:25:26.510521 13659 net.cpp:100] Creating Layer relu4_2
I0607 14:25:26.510525 13659 net.cpp:434] relu4_2 <- conv4_2
I0607 14:25:26.510531 13659 net.cpp:395] relu4_2 -> conv4_2 (in-place)
I0607 14:25:26.511487 13659 net.cpp:150] Setting up relu4_2
I0607 14:25:26.511515 13659 net.cpp:157] Top shape: 32 512 38 38 (23658496)
I0607 14:25:26.511534 13659 net.cpp:165] Memory required for data: 6508412960
I0607 14:25:26.511539 13659 layer_factory.hpp:77] Creating layer conv4_3
I0607 14:25:26.511551 13659 net.cpp:100] Creating Layer conv4_3
I0607 14:25:26.511570 13659 net.cpp:434] conv4_3 <- conv4_2
I0607 14:25:26.511580 13659 net.cpp:408] conv4_3 -> conv4_3
I0607 14:25:26.524758 13659 net.cpp:150] Setting up conv4_3
I0607 14:25:26.524776 13659 net.cpp:157] Top shape: 32 512 38 38 (23658496)
I0607 14:25:26.524780 13659 net.cpp:165] Memory required for data: 6603046944
I0607 14:25:26.524787 13659 layer_factory.hpp:77] Creating layer relu4_3
I0607 14:25:26.524794 13659 net.cpp:100] Creating Layer relu4_3
I0607 14:25:26.524798 13659 net.cpp:434] relu4_3 <- conv4_3
I0607 14:25:26.524801 13659 net.cpp:395] relu4_3 -> conv4_3 (in-place)
I0607 14:25:26.524991 13659 net.cpp:150] Setting up relu4_3
I0607 14:25:26.525002 13659 net.cpp:157] Top shape: 32 512 38 38 (23658496)
I0607 14:25:26.525005 13659 net.cpp:165] Memory required for data: 6697680928
I0607 14:25:26.525009 13659 layer_factory.hpp:77] Creating layer conv4_3_relu4_3_0_split
I0607 14:25:26.525028 13659 net.cpp:100] Creating Layer conv4_3_relu4_3_0_split
I0607 14:25:26.525048 13659 net.cpp:434] conv4_3_relu4_3_0_split <- conv4_3
I0607 14:25:26.525054 13659 net.cpp:408] conv4_3_relu4_3_0_split -> conv4_3_relu4_3_0_split_0
I0607 14:25:26.525063 13659 net.cpp:408] conv4_3_relu4_3_0_split -> conv4_3_relu4_3_0_split_1
I0607 14:25:26.525141 13659 net.cpp:150] Setting up conv4_3_relu4_3_0_split
I0607 14:25:26.525151 13659 net.cpp:157] Top shape: 32 512 38 38 (23658496)
I0607 14:25:26.525156 13659 net.cpp:157] Top shape: 32 512 38 38 (23658496)
I0607 14:25:26.525159 13659 net.cpp:165] Memory required for data: 6886948896
I0607 14:25:26.525163 13659 layer_factory.hpp:77] Creating layer pool4
I0607 14:25:26.525174 13659 net.cpp:100] Creating Layer pool4
I0607 14:25:26.525179 13659 net.cpp:434] pool4 <- conv4_3_relu4_3_0_split_0
I0607 14:25:26.525199 13659 net.cpp:408] pool4 -> pool4
I0607 14:25:26.525267 13659 net.cpp:150] Setting up pool4
I0607 14:25:26.525275 13659 net.cpp:157] Top shape: 32 512 19 19 (5914624)
I0607 14:25:26.525279 13659 net.cpp:165] Memory required for data: 6910607392
I0607 14:25:26.525283 13659 layer_factory.hpp:77] Creating layer conv5_1
I0607 14:25:26.525310 13659 net.cpp:100] Creating Layer conv5_1
I0607 14:25:26.525327 13659 net.cpp:434] conv5_1 <- pool4
I0607 14:25:26.525349 13659 net.cpp:408] conv5_1 -> conv5_1
I0607 14:25:26.538576 13659 net.cpp:150] Setting up conv5_1
I0607 14:25:26.538594 13659 net.cpp:157] Top shape: 32 512 19 19 (5914624)
I0607 14:25:26.538596 13659 net.cpp:165] Memory required for data: 6934265888
I0607 14:25:26.538619 13659 layer_factory.hpp:77] Creating layer relu5_1
I0607 14:25:26.538626 13659 net.cpp:100] Creating Layer relu5_1
I0607 14:25:26.538630 13659 net.cpp:434] relu5_1 <- conv5_1
I0607 14:25:26.538648 13659 net.cpp:395] relu5_1 -> conv5_1 (in-place)
I0607 14:25:26.538852 13659 net.cpp:150] Setting up relu5_1
I0607 14:25:26.538863 13659 net.cpp:157] Top shape: 32 512 19 19 (5914624)
I0607 14:25:26.538866 13659 net.cpp:165] Memory required for data: 6957924384
I0607 14:25:26.538871 13659 layer_factory.hpp:77] Creating layer conv5_2
I0607 14:25:26.538897 13659 net.cpp:100] Creating Layer conv5_2
I0607 14:25:26.538900 13659 net.cpp:434] conv5_2 <- conv5_1
I0607 14:25:26.538908 13659 net.cpp:408] conv5_2 -> conv5_2
I0607 14:25:26.552013 13659 net.cpp:150] Setting up conv5_2
I0607 14:25:26.552032 13659 net.cpp:157] Top shape: 32 512 19 19 (5914624)
I0607 14:25:26.552036 13659 net.cpp:165] Memory required for data: 6981582880
I0607 14:25:26.552057 13659 layer_factory.hpp:77] Creating layer relu5_2
I0607 14:25:26.552063 13659 net.cpp:100] Creating Layer relu5_2
I0607 14:25:26.552067 13659 net.cpp:434] relu5_2 <- conv5_2
I0607 14:25:26.552073 13659 net.cpp:395] relu5_2 -> conv5_2 (in-place)
I0607 14:25:26.552266 13659 net.cpp:150] Setting up relu5_2
I0607 14:25:26.552276 13659 net.cpp:157] Top shape: 32 512 19 19 (5914624)
I0607 14:25:26.552280 13659 net.cpp:165] Memory required for data: 7005241376
I0607 14:25:26.552284 13659 layer_factory.hpp:77] Creating layer conv5_3
I0607 14:25:26.552311 13659 net.cpp:100] Creating Layer conv5_3
I0607 14:25:26.552316 13659 net.cpp:434] conv5_3 <- conv5_2
I0607 14:25:26.552338 13659 net.cpp:408] conv5_3 -> conv5_3
I0607 14:25:26.565850 13659 net.cpp:150] Setting up conv5_3
I0607 14:25:26.565867 13659 net.cpp:157] Top shape: 32 512 19 19 (5914624)
I0607 14:25:26.565870 13659 net.cpp:165] Memory required for data: 7028899872
I0607 14:25:26.565891 13659 layer_factory.hpp:77] Creating layer relu5_3
I0607 14:25:26.565902 13659 net.cpp:100] Creating Layer relu5_3
I0607 14:25:26.565908 13659 net.cpp:434] relu5_3 <- conv5_3
I0607 14:25:26.565912 13659 net.cpp:395] relu5_3 -> conv5_3 (in-place)
I0607 14:25:26.566107 13659 net.cpp:150] Setting up relu5_3
I0607 14:25:26.566118 13659 net.cpp:157] Top shape: 32 512 19 19 (5914624)
I0607 14:25:26.566123 13659 net.cpp:165] Memory required for data: 7052558368
I0607 14:25:26.566125 13659 layer_factory.hpp:77] Creating layer pool5
I0607 14:25:26.566149 13659 net.cpp:100] Creating Layer pool5
I0607 14:25:26.566154 13659 net.cpp:434] pool5 <- conv5_3
I0607 14:25:26.566160 13659 net.cpp:408] pool5 -> pool5
I0607 14:25:26.566263 13659 net.cpp:150] Setting up pool5
I0607 14:25:26.566272 13659 net.cpp:157] Top shape: 32 512 19 19 (5914624)
I0607 14:25:26.566275 13659 net.cpp:165] Memory required for data: 7076216864
I0607 14:25:26.566279 13659 layer_factory.hpp:77] Creating layer fc6
I0607 14:25:26.566304 13659 net.cpp:100] Creating Layer fc6
I0607 14:25:26.566309 13659 net.cpp:434] fc6 <- pool5
I0607 14:25:26.566318 13659 net.cpp:408] fc6 -> fc6
I0607 14:25:26.590456 13659 net.cpp:150] Setting up fc6
I0607 14:25:26.590479 13659 net.cpp:157] Top shape: 32 1024 19 19 (11829248)
I0607 14:25:26.590484 13659 net.cpp:165] Memory required for data: 7123533856
I0607 14:25:26.590494 13659 layer_factory.hpp:77] Creating layer relu6
I0607 14:25:26.590504 13659 net.cpp:100] Creating Layer relu6
I0607 14:25:26.590510 13659 net.cpp:434] relu6 <- fc6
I0607 14:25:26.590524 13659 net.cpp:395] relu6 -> fc6 (in-place)
I0607 14:25:26.591614 13659 net.cpp:150] Setting up relu6
I0607 14:25:26.591627 13659 net.cpp:157] Top shape: 32 1024 19 19 (11829248)
I0607 14:25:26.591632 13659 net.cpp:165] Memory required for data: 7170850848
I0607 14:25:26.591637 13659 layer_factory.hpp:77] Creating layer fc7
I0607 14:25:26.591667 13659 net.cpp:100] Creating Layer fc7
I0607 14:25:26.591673 13659 net.cpp:434] fc7 <- fc6
I0607 14:25:26.591683 13659 net.cpp:408] fc7 -> fc7
I0607 14:25:26.598594 13659 net.cpp:150] Setting up fc7
I0607 14:25:26.598610 13659 net.cpp:157] Top shape: 32 1024 19 19 (11829248)
I0607 14:25:26.598613 13659 net.cpp:165] Memory required for data: 7218167840
I0607 14:25:26.598619 13659 layer_factory.hpp:77] Creating layer relu7
I0607 14:25:26.598641 13659 net.cpp:100] Creating Layer relu7
I0607 14:25:26.598645 13659 net.cpp:434] relu7 <- fc7
I0607 14:25:26.598650 13659 net.cpp:395] relu7 -> fc7 (in-place)
I0607 14:25:26.598851 13659 net.cpp:150] Setting up relu7
I0607 14:25:26.598863 13659 net.cpp:157] Top shape: 32 1024 19 19 (11829248)
I0607 14:25:26.598866 13659 net.cpp:165] Memory required for data: 7265484832
I0607 14:25:26.598870 13659 layer_factory.hpp:77] Creating layer fc7_relu7_0_split
I0607 14:25:26.598891 13659 net.cpp:100] Creating Layer fc7_relu7_0_split
I0607 14:25:26.598896 13659 net.cpp:434] fc7_relu7_0_split <- fc7
I0607 14:25:26.598917 13659 net.cpp:408] fc7_relu7_0_split -> fc7_relu7_0_split_0
I0607 14:25:26.598938 13659 net.cpp:408] fc7_relu7_0_split -> fc7_relu7_0_split_1
I0607 14:25:26.598953 13659 net.cpp:408] fc7_relu7_0_split -> fc7_relu7_0_split_2
I0607 14:25:26.598963 13659 net.cpp:408] fc7_relu7_0_split -> fc7_relu7_0_split_3
I0607 14:25:26.599064 13659 net.cpp:150] Setting up fc7_relu7_0_split
I0607 14:25:26.599086 13659 net.cpp:157] Top shape: 32 1024 19 19 (11829248)
I0607 14:25:26.599092 13659 net.cpp:157] Top shape: 32 1024 19 19 (11829248)
I0607 14:25:26.599110 13659 net.cpp:157] Top shape: 32 1024 19 19 (11829248)
I0607 14:25:26.599115 13659 net.cpp:157] Top shape: 32 1024 19 19 (11829248)
I0607 14:25:26.599120 13659 net.cpp:165] Memory required for data: 7454752800
I0607 14:25:26.599123 13659 layer_factory.hpp:77] Creating layer conv6_1
I0607 14:25:26.599135 13659 net.cpp:100] Creating Layer conv6_1
I0607 14:25:26.599141 13659 net.cpp:434] conv6_1 <- fc7_relu7_0_split_0
I0607 14:25:26.599149 13659 net.cpp:408] conv6_1 -> conv6_1
I0607 14:25:26.602713 13659 net.cpp:150] Setting up conv6_1
I0607 14:25:26.602727 13659 net.cpp:157] Top shape: 32 256 19 19 (2957312)
I0607 14:25:26.602731 13659 net.cpp:165] Memory required for data: 7466582048
I0607 14:25:26.602740 13659 layer_factory.hpp:77] Creating layer conv6_1_relu
I0607 14:25:26.602748 13659 net.cpp:100] Creating Layer conv6_1_relu
I0607 14:25:26.602762 13659 net.cpp:434] conv6_1_relu <- conv6_1
I0607 14:25:26.602771 13659 net.cpp:395] conv6_1_relu -> conv6_1 (in-place)
I0607 14:25:26.602902 13659 net.cpp:150] Setting up conv6_1_relu
I0607 14:25:26.602910 13659 net.cpp:157] Top shape: 32 256 19 19 (2957312)
I0607 14:25:26.602913 13659 net.cpp:165] Memory required for data: 7478411296
I0607 14:25:26.602917 13659 layer_factory.hpp:77] Creating layer conv6_2
I0607 14:25:26.602929 13659 net.cpp:100] Creating Layer conv6_2
I0607 14:25:26.602933 13659 net.cpp:434] conv6_2 <- conv6_1
I0607 14:25:26.602941 13659 net.cpp:408] conv6_2 -> conv6_2
I0607 14:25:26.610654 13659 net.cpp:150] Setting up conv6_2
I0607 14:25:26.610679 13659 net.cpp:157] Top shape: 32 512 10 10 (1638400)
I0607 14:25:26.610684 13659 net.cpp:165] Memory required for data: 7484964896
I0607 14:25:26.610700 13659 layer_factory.hpp:77] Creating layer conv6_2_relu
I0607 14:25:26.610713 13659 net.cpp:100] Creating Layer conv6_2_relu
I0607 14:25:26.610718 13659 net.cpp:434] conv6_2_relu <- conv6_2
I0607 14:25:26.610726 13659 net.cpp:395] conv6_2_relu -> conv6_2 (in-place)
I0607 14:25:26.610898 13659 net.cpp:150] Setting up conv6_2_relu
I0607 14:25:26.610908 13659 net.cpp:157] Top shape: 32 512 10 10 (1638400)
I0607 14:25:26.610913 13659 net.cpp:165] Memory required for data: 7491518496
I0607 14:25:26.610916 13659 layer_factory.hpp:77] Creating layer conv6_2_conv6_2_relu_0_split
I0607 14:25:26.610924 13659 net.cpp:100] Creating Layer conv6_2_conv6_2_relu_0_split
I0607 14:25:26.610930 13659 net.cpp:434] conv6_2_conv6_2_relu_0_split <- conv6_2
I0607 14:25:26.610939 13659 net.cpp:408] conv6_2_conv6_2_relu_0_split -> conv6_2_conv6_2_relu_0_split_0
I0607 14:25:26.610949 13659 net.cpp:408] conv6_2_conv6_2_relu_0_split -> conv6_2_conv6_2_relu_0_split_1
I0607 14:25:26.610958 13659 net.cpp:408] conv6_2_conv6_2_relu_0_split -> conv6_2_conv6_2_relu_0_split_2
I0607 14:25:26.610965 13659 net.cpp:408] conv6_2_conv6_2_relu_0_split -> conv6_2_conv6_2_relu_0_split_3
I0607 14:25:26.611027 13659 net.cpp:150] Setting up conv6_2_conv6_2_relu_0_split
I0607 14:25:26.611033 13659 net.cpp:157] Top shape: 32 512 10 10 (1638400)
I0607 14:25:26.611038 13659 net.cpp:157] Top shape: 32 512 10 10 (1638400)
I0607 14:25:26.611043 13659 net.cpp:157] Top shape: 32 512 10 10 (1638400)
I0607 14:25:26.611047 13659 net.cpp:157] Top shape: 32 512 10 10 (1638400)
I0607 14:25:26.611052 13659 net.cpp:165] Memory required for data: 7517732896
I0607 14:25:26.611057 13659 layer_factory.hpp:77] Creating layer conv7_1
I0607 14:25:26.611068 13659 net.cpp:100] Creating Layer conv7_1
I0607 14:25:26.611073 13659 net.cpp:434] conv7_1 <- conv6_2_conv6_2_relu_0_split_0
I0607 14:25:26.611080 13659 net.cpp:408] conv7_1 -> conv7_1
I0607 14:25:26.612504 13659 net.cpp:150] Setting up conv7_1
I0607 14:25:26.612524 13659 net.cpp:157] Top shape: 32 128 10 10 (409600)
I0607 14:25:26.612529 13659 net.cpp:165] Memory required for data: 7519371296
I0607 14:25:26.612538 13659 layer_factory.hpp:77] Creating layer conv7_1_relu
I0607 14:25:26.612548 13659 net.cpp:100] Creating Layer conv7_1_relu
I0607 14:25:26.612555 13659 net.cpp:434] conv7_1_relu <- conv7_1
I0607 14:25:26.612562 13659 net.cpp:395] conv7_1_relu -> conv7_1 (in-place)
I0607 14:25:26.612695 13659 net.cpp:150] Setting up conv7_1_relu
I0607 14:25:26.612704 13659 net.cpp:157] Top shape: 32 128 10 10 (409600)
I0607 14:25:26.612707 13659 net.cpp:165] Memory required for data: 7521009696
I0607 14:25:26.612710 13659 layer_factory.hpp:77] Creating layer conv7_2
I0607 14:25:26.612725 13659 net.cpp:100] Creating Layer conv7_2
I0607 14:25:26.612728 13659 net.cpp:434] conv7_2 <- conv7_1
I0607 14:25:26.612735 13659 net.cpp:408] conv7_2 -> conv7_2
I0607 14:25:26.615730 13659 net.cpp:150] Setting up conv7_2
I0607 14:25:26.615748 13659 net.cpp:157] Top shape: 32 256 5 5 (204800)
I0607 14:25:26.615752 13659 net.cpp:165] Memory required for data: 7521828896
I0607 14:25:26.615761 13659 layer_factory.hpp:77] Creating layer conv7_2_relu
I0607 14:25:26.615769 13659 net.cpp:100] Creating Layer conv7_2_relu
I0607 14:25:26.615792 13659 net.cpp:434] conv7_2_relu <- conv7_2
I0607 14:25:26.615803 13659 net.cpp:395] conv7_2_relu -> conv7_2 (in-place)
I0607 14:25:26.615939 13659 net.cpp:150] Setting up conv7_2_relu
I0607 14:25:26.615947 13659 net.cpp:157] Top shape: 32 256 5 5 (204800)
I0607 14:25:26.615952 13659 net.cpp:165] Memory required for data: 7522648096
I0607 14:25:26.615955 13659 layer_factory.hpp:77] Creating layer conv7_2_conv7_2_relu_0_split
I0607 14:25:26.615962 13659 net.cpp:100] Creating Layer conv7_2_conv7_2_relu_0_split
I0607 14:25:26.615967 13659 net.cpp:434] conv7_2_conv7_2_relu_0_split <- conv7_2
I0607 14:25:26.615974 13659 net.cpp:408] conv7_2_conv7_2_relu_0_split -> conv7_2_conv7_2_relu_0_split_0
I0607 14:25:26.615984 13659 net.cpp:408] conv7_2_conv7_2_relu_0_split -> conv7_2_conv7_2_relu_0_split_1
I0607 14:25:26.615993 13659 net.cpp:408] conv7_2_conv7_2_relu_0_split -> conv7_2_conv7_2_relu_0_split_2
I0607 14:25:26.615999 13659 net.cpp:408] conv7_2_conv7_2_relu_0_split -> conv7_2_conv7_2_relu_0_split_3
I0607 14:25:26.616057 13659 net.cpp:150] Setting up conv7_2_conv7_2_relu_0_split
I0607 14:25:26.616063 13659 net.cpp:157] Top shape: 32 256 5 5 (204800)
I0607 14:25:26.616068 13659 net.cpp:157] Top shape: 32 256 5 5 (204800)
I0607 14:25:26.616075 13659 net.cpp:157] Top shape: 32 256 5 5 (204800)
I0607 14:25:26.616086 13659 net.cpp:157] Top shape: 32 256 5 5 (204800)
I0607 14:25:26.616091 13659 net.cpp:165] Memory required for data: 7525924896
I0607 14:25:26.616093 13659 layer_factory.hpp:77] Creating layer conv8_1
I0607 14:25:26.616107 13659 net.cpp:100] Creating Layer conv8_1
I0607 14:25:26.616112 13659 net.cpp:434] conv8_1 <- conv7_2_conv7_2_relu_0_split_0
I0607 14:25:26.616119 13659 net.cpp:408] conv8_1 -> conv8_1
I0607 14:25:26.617388 13659 net.cpp:150] Setting up conv8_1
I0607 14:25:26.617406 13659 net.cpp:157] Top shape: 32 128 5 5 (102400)
I0607 14:25:26.617411 13659 net.cpp:165] Memory required for data: 7526334496
I0607 14:25:26.617420 13659 layer_factory.hpp:77] Creating layer conv8_1_relu
I0607 14:25:26.617429 13659 net.cpp:100] Creating Layer conv8_1_relu
I0607 14:25:26.617434 13659 net.cpp:434] conv8_1_relu <- conv8_1
I0607 14:25:26.617441 13659 net.cpp:395] conv8_1_relu -> conv8_1 (in-place)
I0607 14:25:26.618053 13659 net.cpp:150] Setting up conv8_1_relu
I0607 14:25:26.618063 13659 net.cpp:157] Top shape: 32 128 5 5 (102400)
I0607 14:25:26.618067 13659 net.cpp:165] Memory required for data: 7526744096
I0607 14:25:26.618072 13659 layer_factory.hpp:77] Creating layer conv8_2
I0607 14:25:26.618086 13659 net.cpp:100] Creating Layer conv8_2
I0607 14:25:26.618093 13659 net.cpp:434] conv8_2 <- conv8_1
I0607 14:25:26.618100 13659 net.cpp:408] conv8_2 -> conv8_2
I0607 14:25:26.621309 13659 net.cpp:150] Setting up conv8_2
I0607 14:25:26.621332 13659 net.cpp:157] Top shape: 32 256 3 3 (73728)
I0607 14:25:26.621336 13659 net.cpp:165] Memory required for data: 7527039008
I0607 14:25:26.621347 13659 layer_factory.hpp:77] Creating layer conv8_2_relu
I0607 14:25:26.621356 13659 net.cpp:100] Creating Layer conv8_2_relu
I0607 14:25:26.621362 13659 net.cpp:434] conv8_2_relu <- conv8_2
I0607 14:25:26.621371 13659 net.cpp:395] conv8_2_relu -> conv8_2 (in-place)
I0607 14:25:26.621533 13659 net.cpp:150] Setting up conv8_2_relu
I0607 14:25:26.621543 13659 net.cpp:157] Top shape: 32 256 3 3 (73728)
I0607 14:25:26.621547 13659 net.cpp:165] Memory required for data: 7527333920
I0607 14:25:26.621551 13659 layer_factory.hpp:77] Creating layer conv8_2_conv8_2_relu_0_split
I0607 14:25:26.621559 13659 net.cpp:100] Creating Layer conv8_2_conv8_2_relu_0_split
I0607 14:25:26.621564 13659 net.cpp:434] conv8_2_conv8_2_relu_0_split <- conv8_2
I0607 14:25:26.621573 13659 net.cpp:408] conv8_2_conv8_2_relu_0_split -> conv8_2_conv8_2_relu_0_split_0
I0607 14:25:26.621582 13659 net.cpp:408] conv8_2_conv8_2_relu_0_split -> conv8_2_conv8_2_relu_0_split_1
I0607 14:25:26.621606 13659 net.cpp:408] conv8_2_conv8_2_relu_0_split -> conv8_2_conv8_2_relu_0_split_2
I0607 14:25:26.621632 13659 net.cpp:408] conv8_2_conv8_2_relu_0_split -> conv8_2_conv8_2_relu_0_split_3
I0607 14:25:26.621711 13659 net.cpp:150] Setting up conv8_2_conv8_2_relu_0_split
I0607 14:25:26.621718 13659 net.cpp:157] Top shape: 32 256 3 3 (73728)
I0607 14:25:26.621724 13659 net.cpp:157] Top shape: 32 256 3 3 (73728)
I0607 14:25:26.621729 13659 net.cpp:157] Top shape: 32 256 3 3 (73728)
I0607 14:25:26.621734 13659 net.cpp:157] Top shape: 32 256 3 3 (73728)
I0607 14:25:26.621739 13659 net.cpp:165] Memory required for data: 7528513568
I0607 14:25:26.621743 13659 layer_factory.hpp:77] Creating layer conv9_1
I0607 14:25:26.621757 13659 net.cpp:100] Creating Layer conv9_1
I0607 14:25:26.621763 13659 net.cpp:434] conv9_1 <- conv8_2_conv8_2_relu_0_split_0
I0607 14:25:26.621770 13659 net.cpp:408] conv9_1 -> conv9_1
I0607 14:25:26.623622 13659 net.cpp:150] Setting up conv9_1
I0607 14:25:26.623644 13659 net.cpp:157] Top shape: 32 128 3 3 (36864)
I0607 14:25:26.623648 13659 net.cpp:165] Memory required for data: 7528661024
I0607 14:25:26.623658 13659 layer_factory.hpp:77] Creating layer conv9_1_relu
I0607 14:25:26.623667 13659 net.cpp:100] Creating Layer conv9_1_relu
I0607 14:25:26.623689 13659 net.cpp:434] conv9_1_relu <- conv9_1
I0607 14:25:26.623705 13659 net.cpp:395] conv9_1_relu -> conv9_1 (in-place)
I0607 14:25:26.623888 13659 net.cpp:150] Setting up conv9_1_relu
I0607 14:25:26.623910 13659 net.cpp:157] Top shape: 32 128 3 3 (36864)
I0607 14:25:26.623924 13659 net.cpp:165] Memory required for data: 7528808480
I0607 14:25:26.623937 13659 layer_factory.hpp:77] Creating layer conv9_2
I0607 14:25:26.623960 13659 net.cpp:100] Creating Layer conv9_2
I0607 14:25:26.623973 13659 net.cpp:434] conv9_2 <- conv9_1
I0607 14:25:26.623991 13659 net.cpp:408] conv9_2 -> conv9_2
I0607 14:25:26.627881 13659 net.cpp:150] Setting up conv9_2
I0607 14:25:26.627948 13659 net.cpp:157] Top shape: 32 256 1 1 (8192)
I0607 14:25:26.627956 13659 net.cpp:165] Memory required for data: 7528841248
I0607 14:25:26.627966 13659 layer_factory.hpp:77] Creating layer conv9_2_relu
I0607 14:25:26.627977 13659 net.cpp:100] Creating Layer conv9_2_relu
I0607 14:25:26.627985 13659 net.cpp:434] conv9_2_relu <- conv9_2
I0607 14:25:26.627990 13659 net.cpp:395] conv9_2_relu -> conv9_2 (in-place)
I0607 14:25:26.628186 13659 net.cpp:150] Setting up conv9_2_relu
I0607 14:25:26.628196 13659 net.cpp:157] Top shape: 32 256 1 1 (8192)
I0607 14:25:26.628198 13659 net.cpp:165] Memory required for data: 7528874016
I0607 14:25:26.628201 13659 layer_factory.hpp:77] Creating layer conv9_2_conv9_2_relu_0_split
I0607 14:25:26.628207 13659 net.cpp:100] Creating Layer conv9_2_conv9_2_relu_0_split
I0607 14:25:26.628211 13659 net.cpp:434] conv9_2_conv9_2_relu_0_split <- conv9_2
I0607 14:25:26.628214 13659 net.cpp:408] conv9_2_conv9_2_relu_0_split -> conv9_2_conv9_2_relu_0_split_0
I0607 14:25:26.628221 13659 net.cpp:408] conv9_2_conv9_2_relu_0_split -> conv9_2_conv9_2_relu_0_split_1
I0607 14:25:26.628227 13659 net.cpp:408] conv9_2_conv9_2_relu_0_split -> conv9_2_conv9_2_relu_0_split_2
I0607 14:25:26.628278 13659 net.cpp:150] Setting up conv9_2_conv9_2_relu_0_split
I0607 14:25:26.628283 13659 net.cpp:157] Top shape: 32 256 1 1 (8192)
I0607 14:25:26.628286 13659 net.cpp:157] Top shape: 32 256 1 1 (8192)
I0607 14:25:26.628289 13659 net.cpp:157] Top shape: 32 256 1 1 (8192)
I0607 14:25:26.628291 13659 net.cpp:165] Memory required for data: 7528972320
I0607 14:25:26.628293 13659 layer_factory.hpp:77] Creating layer conv4_3_norm
I0607 14:25:26.628299 13659 net.cpp:100] Creating Layer conv4_3_norm
I0607 14:25:26.628304 13659 net.cpp:434] conv4_3_norm <- conv4_3_relu4_3_0_split_1
I0607 14:25:26.628309 13659 net.cpp:408] conv4_3_norm -> conv4_3_norm
I0607 14:25:26.628433 13659 net.cpp:150] Setting up conv4_3_norm
I0607 14:25:26.628438 13659 net.cpp:157] Top shape: 32 512 38 38 (23658496)
I0607 14:25:26.628442 13659 net.cpp:165] Memory required for data: 7623606304
I0607 14:25:26.628444 13659 layer_factory.hpp:77] Creating layer conv4_3_norm_conv4_3_norm_0_split
I0607 14:25:26.628448 13659 net.cpp:100] Creating Layer conv4_3_norm_conv4_3_norm_0_split
I0607 14:25:26.628463 13659 net.cpp:434] conv4_3_norm_conv4_3_norm_0_split <- conv4_3_norm
I0607 14:25:26.628469 13659 net.cpp:408] conv4_3_norm_conv4_3_norm_0_split -> conv4_3_norm_conv4_3_norm_0_split_0
I0607 14:25:26.628474 13659 net.cpp:408] conv4_3_norm_conv4_3_norm_0_split -> conv4_3_norm_conv4_3_norm_0_split_1
I0607 14:25:26.628479 13659 net.cpp:408] conv4_3_norm_conv4_3_norm_0_split -> conv4_3_norm_conv4_3_norm_0_split_2
I0607 14:25:26.628515 13659 net.cpp:150] Setting up conv4_3_norm_conv4_3_norm_0_split
I0607 14:25:26.628520 13659 net.cpp:157] Top shape: 32 512 38 38 (23658496)
I0607 14:25:26.628522 13659 net.cpp:157] Top shape: 32 512 38 38 (23658496)
I0607 14:25:26.628525 13659 net.cpp:157] Top shape: 32 512 38 38 (23658496)
I0607 14:25:26.628527 13659 net.cpp:165] Memory required for data: 7907508256
I0607 14:25:26.628530 13659 layer_factory.hpp:77] Creating layer conv4_3_norm_mbox_loc
I0607 14:25:26.628537 13659 net.cpp:100] Creating Layer conv4_3_norm_mbox_loc
I0607 14:25:26.628540 13659 net.cpp:434] conv4_3_norm_mbox_loc <- conv4_3_norm_conv4_3_norm_0_split_0
I0607 14:25:26.628545 13659 net.cpp:408] conv4_3_norm_mbox_loc -> conv4_3_norm_mbox_loc
I0607 14:25:26.630383 13659 net.cpp:150] Setting up conv4_3_norm_mbox_loc
I0607 14:25:26.630398 13659 net.cpp:157] Top shape: 32 16 38 38 (739328)
I0607 14:25:26.630400 13659 net.cpp:165] Memory required for data: 7910465568
I0607 14:25:26.630406 13659 layer_factory.hpp:77] Creating layer conv4_3_norm_mbox_loc_perm
I0607 14:25:26.630415 13659 net.cpp:100] Creating Layer conv4_3_norm_mbox_loc_perm
I0607 14:25:26.630419 13659 net.cpp:434] conv4_3_norm_mbox_loc_perm <- conv4_3_norm_mbox_loc
I0607 14:25:26.630424 13659 net.cpp:408] conv4_3_norm_mbox_loc_perm -> conv4_3_norm_mbox_loc_perm
I0607 14:25:26.630511 13659 net.cpp:150] Setting up conv4_3_norm_mbox_loc_perm
I0607 14:25:26.630517 13659 net.cpp:157] Top shape: 32 38 38 16 (739328)
I0607 14:25:26.630518 13659 net.cpp:165] Memory required for data: 7913422880
I0607 14:25:26.630520 13659 layer_factory.hpp:77] Creating layer conv4_3_norm_mbox_loc_flat
I0607 14:25:26.630525 13659 net.cpp:100] Creating Layer conv4_3_norm_mbox_loc_flat
I0607 14:25:26.630528 13659 net.cpp:434] conv4_3_norm_mbox_loc_flat <- conv4_3_norm_mbox_loc_perm
I0607 14:25:26.630532 13659 net.cpp:408] conv4_3_norm_mbox_loc_flat -> conv4_3_norm_mbox_loc_flat
I0607 14:25:26.630561 13659 net.cpp:150] Setting up conv4_3_norm_mbox_loc_flat
I0607 14:25:26.630566 13659 net.cpp:157] Top shape: 32 23104 (739328)
I0607 14:25:26.630569 13659 net.cpp:165] Memory required for data: 7916380192
I0607 14:25:26.630571 13659 layer_factory.hpp:77] Creating layer conv4_3_norm_mbox_conf
I0607 14:25:26.630585 13659 net.cpp:100] Creating Layer conv4_3_norm_mbox_conf
I0607 14:25:26.630589 13659 net.cpp:434] conv4_3_norm_mbox_conf <- conv4_3_norm_conv4_3_norm_0_split_1
I0607 14:25:26.630592 13659 net.cpp:408] conv4_3_norm_mbox_conf -> conv4_3_norm_mbox_conf
I0607 14:25:26.632450 13659 net.cpp:150] Setting up conv4_3_norm_mbox_conf
I0607 14:25:26.632467 13659 net.cpp:157] Top shape: 32 12 38 38 (554496)
I0607 14:25:26.632470 13659 net.cpp:165] Memory required for data: 7918598176
I0607 14:25:26.632493 13659 layer_factory.hpp:77] Creating layer conv4_3_norm_mbox_conf_perm
I0607 14:25:26.632501 13659 net.cpp:100] Creating Layer conv4_3_norm_mbox_conf_perm
I0607 14:25:26.632505 13659 net.cpp:434] conv4_3_norm_mbox_conf_perm <- conv4_3_norm_mbox_conf
I0607 14:25:26.632513 13659 net.cpp:408] conv4_3_norm_mbox_conf_perm -> conv4_3_norm_mbox_conf_perm
I0607 14:25:26.632618 13659 net.cpp:150] Setting up conv4_3_norm_mbox_conf_perm
I0607 14:25:26.632623 13659 net.cpp:157] Top shape: 32 38 38 12 (554496)
I0607 14:25:26.632625 13659 net.cpp:165] Memory required for data: 7920816160
I0607 14:25:26.632627 13659 layer_factory.hpp:77] Creating layer conv4_3_norm_mbox_conf_flat
I0607 14:25:26.632632 13659 net.cpp:100] Creating Layer conv4_3_norm_mbox_conf_flat
I0607 14:25:26.632637 13659 net.cpp:434] conv4_3_norm_mbox_conf_flat <- conv4_3_norm_mbox_conf_perm
I0607 14:25:26.632640 13659 net.cpp:408] conv4_3_norm_mbox_conf_flat -> conv4_3_norm_mbox_conf_flat
I0607 14:25:26.632684 13659 net.cpp:150] Setting up conv4_3_norm_mbox_conf_flat
I0607 14:25:26.632690 13659 net.cpp:157] Top shape: 32 17328 (554496)
I0607 14:25:26.632692 13659 net.cpp:165] Memory required for data: 7923034144
I0607 14:25:26.632694 13659 layer_factory.hpp:77] Creating layer conv4_3_norm_mbox_priorbox
I0607 14:25:26.632699 13659 net.cpp:100] Creating Layer conv4_3_norm_mbox_priorbox
I0607 14:25:26.632704 13659 net.cpp:434] conv4_3_norm_mbox_priorbox <- conv4_3_norm_conv4_3_norm_0_split_2
I0607 14:25:26.632709 13659 net.cpp:434] conv4_3_norm_mbox_priorbox <- data_data_0_split_1
I0607 14:25:26.632714 13659 net.cpp:408] conv4_3_norm_mbox_priorbox -> conv4_3_norm_mbox_priorbox
I0607 14:25:26.632740 13659 net.cpp:150] Setting up conv4_3_norm_mbox_priorbox
I0607 14:25:26.632746 13659 net.cpp:157] Top shape: 1 2 23104 (46208)
I0607 14:25:26.632748 13659 net.cpp:165] Memory required for data: 7923218976
I0607 14:25:26.632750 13659 layer_factory.hpp:77] Creating layer fc7_mbox_loc
I0607 14:25:26.632758 13659 net.cpp:100] Creating Layer fc7_mbox_loc
I0607 14:25:26.632762 13659 net.cpp:434] fc7_mbox_loc <- fc7_relu7_0_split_1
I0607 14:25:26.632766 13659 net.cpp:408] fc7_mbox_loc -> fc7_mbox_loc
I0607 14:25:26.635216 13659 net.cpp:150] Setting up fc7_mbox_loc
I0607 14:25:26.635226 13659 net.cpp:157] Top shape: 32 24 19 19 (277248)
I0607 14:25:26.635229 13659 net.cpp:165] Memory required for data: 7924327968
I0607 14:25:26.635234 13659 layer_factory.hpp:77] Creating layer fc7_mbox_loc_perm
I0607 14:25:26.635241 13659 net.cpp:100] Creating Layer fc7_mbox_loc_perm
I0607 14:25:26.635243 13659 net.cpp:434] fc7_mbox_loc_perm <- fc7_mbox_loc
I0607 14:25:26.635249 13659 net.cpp:408] fc7_mbox_loc_perm -> fc7_mbox_loc_perm
I0607 14:25:26.635329 13659 net.cpp:150] Setting up fc7_mbox_loc_perm
I0607 14:25:26.635334 13659 net.cpp:157] Top shape: 32 19 19 24 (277248)
I0607 14:25:26.635337 13659 net.cpp:165] Memory required for data: 7925436960
I0607 14:25:26.635340 13659 layer_factory.hpp:77] Creating layer fc7_mbox_loc_flat
I0607 14:25:26.635344 13659 net.cpp:100] Creating Layer fc7_mbox_loc_flat
I0607 14:25:26.635347 13659 net.cpp:434] fc7_mbox_loc_flat <- fc7_mbox_loc_perm
I0607 14:25:26.635351 13659 net.cpp:408] fc7_mbox_loc_flat -> fc7_mbox_loc_flat
I0607 14:25:26.635370 13659 net.cpp:150] Setting up fc7_mbox_loc_flat
I0607 14:25:26.635375 13659 net.cpp:157] Top shape: 32 8664 (277248)
I0607 14:25:26.635377 13659 net.cpp:165] Memory required for data: 7926545952
I0607 14:25:26.635380 13659 layer_factory.hpp:77] Creating layer fc7_mbox_conf
I0607 14:25:26.635386 13659 net.cpp:100] Creating Layer fc7_mbox_conf
I0607 14:25:26.635390 13659 net.cpp:434] fc7_mbox_conf <- fc7_relu7_0_split_2
I0607 14:25:26.635396 13659 net.cpp:408] fc7_mbox_conf -> fc7_mbox_conf
I0607 14:25:26.637565 13659 net.cpp:150] Setting up fc7_mbox_conf
I0607 14:25:26.637579 13659 net.cpp:157] Top shape: 32 18 19 19 (207936)
I0607 14:25:26.637583 13659 net.cpp:165] Memory required for data: 7927377696
I0607 14:25:26.637588 13659 layer_factory.hpp:77] Creating layer fc7_mbox_conf_perm
I0607 14:25:26.637594 13659 net.cpp:100] Creating Layer fc7_mbox_conf_perm
I0607 14:25:26.637599 13659 net.cpp:434] fc7_mbox_conf_perm <- fc7_mbox_conf
I0607 14:25:26.637605 13659 net.cpp:408] fc7_mbox_conf_perm -> fc7_mbox_conf_perm
I0607 14:25:26.637702 13659 net.cpp:150] Setting up fc7_mbox_conf_perm
I0607 14:25:26.637708 13659 net.cpp:157] Top shape: 32 19 19 18 (207936)
I0607 14:25:26.637712 13659 net.cpp:165] Memory required for data: 7928209440
I0607 14:25:26.637713 13659 layer_factory.hpp:77] Creating layer fc7_mbox_conf_flat
I0607 14:25:26.637717 13659 net.cpp:100] Creating Layer fc7_mbox_conf_flat
I0607 14:25:26.637720 13659 net.cpp:434] fc7_mbox_conf_flat <- fc7_mbox_conf_perm
I0607 14:25:26.637724 13659 net.cpp:408] fc7_mbox_conf_flat -> fc7_mbox_conf_flat
I0607 14:25:26.637743 13659 net.cpp:150] Setting up fc7_mbox_conf_flat
I0607 14:25:26.637761 13659 net.cpp:157] Top shape: 32 6498 (207936)
I0607 14:25:26.637774 13659 net.cpp:165] Memory required for data: 7929041184
I0607 14:25:26.637778 13659 layer_factory.hpp:77] Creating layer fc7_mbox_priorbox
I0607 14:25:26.637784 13659 net.cpp:100] Creating Layer fc7_mbox_priorbox
I0607 14:25:26.637786 13659 net.cpp:434] fc7_mbox_priorbox <- fc7_relu7_0_split_3
I0607 14:25:26.637790 13659 net.cpp:434] fc7_mbox_priorbox <- data_data_0_split_2
I0607 14:25:26.637795 13659 net.cpp:408] fc7_mbox_priorbox -> fc7_mbox_priorbox
I0607 14:25:26.637820 13659 net.cpp:150] Setting up fc7_mbox_priorbox
I0607 14:25:26.637825 13659 net.cpp:157] Top shape: 1 2 8664 (17328)
I0607 14:25:26.637826 13659 net.cpp:165] Memory required for data: 7929110496
I0607 14:25:26.637830 13659 layer_factory.hpp:77] Creating layer conv6_2_mbox_loc
I0607 14:25:26.637836 13659 net.cpp:100] Creating Layer conv6_2_mbox_loc
I0607 14:25:26.637840 13659 net.cpp:434] conv6_2_mbox_loc <- conv6_2_conv6_2_relu_0_split_1
I0607 14:25:26.637845 13659 net.cpp:408] conv6_2_mbox_loc -> conv6_2_mbox_loc
I0607 14:25:26.640025 13659 net.cpp:150] Setting up conv6_2_mbox_loc
I0607 14:25:26.640044 13659 net.cpp:157] Top shape: 32 24 10 10 (76800)
I0607 14:25:26.640048 13659 net.cpp:165] Memory required for data: 7929417696
I0607 14:25:26.640056 13659 layer_factory.hpp:77] Creating layer conv6_2_mbox_loc_perm
I0607 14:25:26.640065 13659 net.cpp:100] Creating Layer conv6_2_mbox_loc_perm
I0607 14:25:26.640071 13659 net.cpp:434] conv6_2_mbox_loc_perm <- conv6_2_mbox_loc
I0607 14:25:26.640087 13659 net.cpp:408] conv6_2_mbox_loc_perm -> conv6_2_mbox_loc_perm
I0607 14:25:26.640188 13659 net.cpp:150] Setting up conv6_2_mbox_loc_perm
I0607 14:25:26.640197 13659 net.cpp:157] Top shape: 32 10 10 24 (76800)
I0607 14:25:26.640198 13659 net.cpp:165] Memory required for data: 7929724896
I0607 14:25:26.640200 13659 layer_factory.hpp:77] Creating layer conv6_2_mbox_loc_flat
I0607 14:25:26.640205 13659 net.cpp:100] Creating Layer conv6_2_mbox_loc_flat
I0607 14:25:26.640208 13659 net.cpp:434] conv6_2_mbox_loc_flat <- conv6_2_mbox_loc_perm
I0607 14:25:26.640211 13659 net.cpp:408] conv6_2_mbox_loc_flat -> conv6_2_mbox_loc_flat
I0607 14:25:26.640230 13659 net.cpp:150] Setting up conv6_2_mbox_loc_flat
I0607 14:25:26.640235 13659 net.cpp:157] Top shape: 32 2400 (76800)
I0607 14:25:26.640238 13659 net.cpp:165] Memory required for data: 7930032096
I0607 14:25:26.640240 13659 layer_factory.hpp:77] Creating layer conv6_2_mbox_conf
I0607 14:25:26.640249 13659 net.cpp:100] Creating Layer conv6_2_mbox_conf
I0607 14:25:26.640252 13659 net.cpp:434] conv6_2_mbox_conf <- conv6_2_conv6_2_relu_0_split_2
I0607 14:25:26.640257 13659 net.cpp:408] conv6_2_mbox_conf -> conv6_2_mbox_conf
I0607 14:25:26.642243 13659 net.cpp:150] Setting up conv6_2_mbox_conf
I0607 14:25:26.642259 13659 net.cpp:157] Top shape: 32 18 10 10 (57600)
I0607 14:25:26.642261 13659 net.cpp:165] Memory required for data: 7930262496
I0607 14:25:26.642268 13659 layer_factory.hpp:77] Creating layer conv6_2_mbox_conf_perm
I0607 14:25:26.642277 13659 net.cpp:100] Creating Layer conv6_2_mbox_conf_perm
I0607 14:25:26.642282 13659 net.cpp:434] conv6_2_mbox_conf_perm <- conv6_2_mbox_conf
I0607 14:25:26.642287 13659 net.cpp:408] conv6_2_mbox_conf_perm -> conv6_2_mbox_conf_perm
I0607 14:25:26.642376 13659 net.cpp:150] Setting up conv6_2_mbox_conf_perm
I0607 14:25:26.642383 13659 net.cpp:157] Top shape: 32 10 10 18 (57600)
I0607 14:25:26.642386 13659 net.cpp:165] Memory required for data: 7930492896
I0607 14:25:26.642388 13659 layer_factory.hpp:77] Creating layer conv6_2_mbox_conf_flat
I0607 14:25:26.642392 13659 net.cpp:100] Creating Layer conv6_2_mbox_conf_flat
I0607 14:25:26.642395 13659 net.cpp:434] conv6_2_mbox_conf_flat <- conv6_2_mbox_conf_perm
I0607 14:25:26.642400 13659 net.cpp:408] conv6_2_mbox_conf_flat -> conv6_2_mbox_conf_flat
I0607 14:25:26.642418 13659 net.cpp:150] Setting up conv6_2_mbox_conf_flat
I0607 14:25:26.642424 13659 net.cpp:157] Top shape: 32 1800 (57600)
I0607 14:25:26.642426 13659 net.cpp:165] Memory required for data: 7930723296
I0607 14:25:26.642428 13659 layer_factory.hpp:77] Creating layer conv6_2_mbox_priorbox
I0607 14:25:26.642443 13659 net.cpp:100] Creating Layer conv6_2_mbox_priorbox
I0607 14:25:26.642448 13659 net.cpp:434] conv6_2_mbox_priorbox <- conv6_2_conv6_2_relu_0_split_3
I0607 14:25:26.642452 13659 net.cpp:434] conv6_2_mbox_priorbox <- data_data_0_split_3
I0607 14:25:26.642457 13659 net.cpp:408] conv6_2_mbox_priorbox -> conv6_2_mbox_priorbox
I0607 14:25:26.642482 13659 net.cpp:150] Setting up conv6_2_mbox_priorbox
I0607 14:25:26.642488 13659 net.cpp:157] Top shape: 1 2 2400 (4800)
I0607 14:25:26.642490 13659 net.cpp:165] Memory required for data: 7930742496
I0607 14:25:26.642493 13659 layer_factory.hpp:77] Creating layer conv7_2_mbox_loc
I0607 14:25:26.642499 13659 net.cpp:100] Creating Layer conv7_2_mbox_loc
I0607 14:25:26.642503 13659 net.cpp:434] conv7_2_mbox_loc <- conv7_2_conv7_2_relu_0_split_1
I0607 14:25:26.642508 13659 net.cpp:408] conv7_2_mbox_loc -> conv7_2_mbox_loc
I0607 14:25:26.644167 13659 net.cpp:150] Setting up conv7_2_mbox_loc
I0607 14:25:26.644193 13659 net.cpp:157] Top shape: 32 24 5 5 (19200)
I0607 14:25:26.644197 13659 net.cpp:165] Memory required for data: 7930819296
I0607 14:25:26.644212 13659 layer_factory.hpp:77] Creating layer conv7_2_mbox_loc_perm
I0607 14:25:26.644222 13659 net.cpp:100] Creating Layer conv7_2_mbox_loc_perm
I0607 14:25:26.644243 13659 net.cpp:434] conv7_2_mbox_loc_perm <- conv7_2_mbox_loc
I0607 14:25:26.644264 13659 net.cpp:408] conv7_2_mbox_loc_perm -> conv7_2_mbox_loc_perm
I0607 14:25:26.644399 13659 net.cpp:150] Setting up conv7_2_mbox_loc_perm
I0607 14:25:26.644407 13659 net.cpp:157] Top shape: 32 5 5 24 (19200)
I0607 14:25:26.644412 13659 net.cpp:165] Memory required for data: 7930896096
I0607 14:25:26.644415 13659 layer_factory.hpp:77] Creating layer conv7_2_mbox_loc_flat
I0607 14:25:26.644423 13659 net.cpp:100] Creating Layer conv7_2_mbox_loc_flat
I0607 14:25:26.644428 13659 net.cpp:434] conv7_2_mbox_loc_flat <- conv7_2_mbox_loc_perm
I0607 14:25:26.644435 13659 net.cpp:408] conv7_2_mbox_loc_flat -> conv7_2_mbox_loc_flat
I0607 14:25:26.644462 13659 net.cpp:150] Setting up conv7_2_mbox_loc_flat
I0607 14:25:26.644469 13659 net.cpp:157] Top shape: 32 600 (19200)
I0607 14:25:26.644472 13659 net.cpp:165] Memory required for data: 7930972896
I0607 14:25:26.644475 13659 layer_factory.hpp:77] Creating layer conv7_2_mbox_conf
I0607 14:25:26.644487 13659 net.cpp:100] Creating Layer conv7_2_mbox_conf
I0607 14:25:26.644492 13659 net.cpp:434] conv7_2_mbox_conf <- conv7_2_conv7_2_relu_0_split_2
I0607 14:25:26.644500 13659 net.cpp:408] conv7_2_mbox_conf -> conv7_2_mbox_conf
I0607 14:25:26.646317 13659 net.cpp:150] Setting up conv7_2_mbox_conf
I0607 14:25:26.646333 13659 net.cpp:157] Top shape: 32 18 5 5 (14400)
I0607 14:25:26.646338 13659 net.cpp:165] Memory required for data: 7931030496
I0607 14:25:26.646347 13659 layer_factory.hpp:77] Creating layer conv7_2_mbox_conf_perm
I0607 14:25:26.646356 13659 net.cpp:100] Creating Layer conv7_2_mbox_conf_perm
I0607 14:25:26.646363 13659 net.cpp:434] conv7_2_mbox_conf_perm <- conv7_2_mbox_conf
I0607 14:25:26.646373 13659 net.cpp:408] conv7_2_mbox_conf_perm -> conv7_2_mbox_conf_perm
I0607 14:25:26.646471 13659 net.cpp:150] Setting up conv7_2_mbox_conf_perm
I0607 14:25:26.646477 13659 net.cpp:157] Top shape: 32 5 5 18 (14400)
I0607 14:25:26.646481 13659 net.cpp:165] Memory required for data: 7931088096
I0607 14:25:26.646486 13659 layer_factory.hpp:77] Creating layer conv7_2_mbox_conf_flat
I0607 14:25:26.646491 13659 net.cpp:100] Creating Layer conv7_2_mbox_conf_flat
I0607 14:25:26.646495 13659 net.cpp:434] conv7_2_mbox_conf_flat <- conv7_2_mbox_conf_perm
I0607 14:25:26.646503 13659 net.cpp:408] conv7_2_mbox_conf_flat -> conv7_2_mbox_conf_flat
I0607 14:25:26.646529 13659 net.cpp:150] Setting up conv7_2_mbox_conf_flat
I0607 14:25:26.646535 13659 net.cpp:157] Top shape: 32 450 (14400)
I0607 14:25:26.646538 13659 net.cpp:165] Memory required for data: 7931145696
I0607 14:25:26.646541 13659 layer_factory.hpp:77] Creating layer conv7_2_mbox_priorbox
I0607 14:25:26.646549 13659 net.cpp:100] Creating Layer conv7_2_mbox_priorbox
I0607 14:25:26.646564 13659 net.cpp:434] conv7_2_mbox_priorbox <- conv7_2_conv7_2_relu_0_split_3
I0607 14:25:26.646569 13659 net.cpp:434] conv7_2_mbox_priorbox <- data_data_0_split_4
I0607 14:25:26.646579 13659 net.cpp:408] conv7_2_mbox_priorbox -> conv7_2_mbox_priorbox
I0607 14:25:26.646606 13659 net.cpp:150] Setting up conv7_2_mbox_priorbox
I0607 14:25:26.646615 13659 net.cpp:157] Top shape: 1 2 600 (1200)
I0607 14:25:26.646618 13659 net.cpp:165] Memory required for data: 7931150496
I0607 14:25:26.646621 13659 layer_factory.hpp:77] Creating layer conv8_2_mbox_loc
I0607 14:25:26.646633 13659 net.cpp:100] Creating Layer conv8_2_mbox_loc
I0607 14:25:26.646638 13659 net.cpp:434] conv8_2_mbox_loc <- conv8_2_conv8_2_relu_0_split_1
I0607 14:25:26.646646 13659 net.cpp:408] conv8_2_mbox_loc -> conv8_2_mbox_loc
I0607 14:25:26.648336 13659 net.cpp:150] Setting up conv8_2_mbox_loc
I0607 14:25:26.648350 13659 net.cpp:157] Top shape: 32 16 3 3 (4608)
I0607 14:25:26.648355 13659 net.cpp:165] Memory required for data: 7931168928
I0607 14:25:26.648371 13659 layer_factory.hpp:77] Creating layer conv8_2_mbox_loc_perm
I0607 14:25:26.648381 13659 net.cpp:100] Creating Layer conv8_2_mbox_loc_perm
I0607 14:25:26.648387 13659 net.cpp:434] conv8_2_mbox_loc_perm <- conv8_2_mbox_loc
I0607 14:25:26.648396 13659 net.cpp:408] conv8_2_mbox_loc_perm -> conv8_2_mbox_loc_perm
I0607 14:25:26.648488 13659 net.cpp:150] Setting up conv8_2_mbox_loc_perm
I0607 14:25:26.648494 13659 net.cpp:157] Top shape: 32 3 3 16 (4608)
I0607 14:25:26.648499 13659 net.cpp:165] Memory required for data: 7931187360
I0607 14:25:26.648502 13659 layer_factory.hpp:77] Creating layer conv8_2_mbox_loc_flat
I0607 14:25:26.648507 13659 net.cpp:100] Creating Layer conv8_2_mbox_loc_flat
I0607 14:25:26.648512 13659 net.cpp:434] conv8_2_mbox_loc_flat <- conv8_2_mbox_loc_perm
I0607 14:25:26.648522 13659 net.cpp:408] conv8_2_mbox_loc_flat -> conv8_2_mbox_loc_flat
I0607 14:25:26.648548 13659 net.cpp:150] Setting up conv8_2_mbox_loc_flat
I0607 14:25:26.648555 13659 net.cpp:157] Top shape: 32 144 (4608)
I0607 14:25:26.648558 13659 net.cpp:165] Memory required for data: 7931205792
I0607 14:25:26.648562 13659 layer_factory.hpp:77] Creating layer conv8_2_mbox_conf
I0607 14:25:26.648576 13659 net.cpp:100] Creating Layer conv8_2_mbox_conf
I0607 14:25:26.648581 13659 net.cpp:434] conv8_2_mbox_conf <- conv8_2_conv8_2_relu_0_split_2
I0607 14:25:26.648587 13659 net.cpp:408] conv8_2_mbox_conf -> conv8_2_mbox_conf
I0607 14:25:26.650202 13659 net.cpp:150] Setting up conv8_2_mbox_conf
I0607 14:25:26.650215 13659 net.cpp:157] Top shape: 32 12 3 3 (3456)
I0607 14:25:26.650218 13659 net.cpp:165] Memory required for data: 7931219616
I0607 14:25:26.650226 13659 layer_factory.hpp:77] Creating layer conv8_2_mbox_conf_perm
I0607 14:25:26.650238 13659 net.cpp:100] Creating Layer conv8_2_mbox_conf_perm
I0607 14:25:26.650243 13659 net.cpp:434] conv8_2_mbox_conf_perm <- conv8_2_mbox_conf
I0607 14:25:26.650250 13659 net.cpp:408] conv8_2_mbox_conf_perm -> conv8_2_mbox_conf_perm
I0607 14:25:26.650342 13659 net.cpp:150] Setting up conv8_2_mbox_conf_perm
I0607 14:25:26.650349 13659 net.cpp:157] Top shape: 32 3 3 12 (3456)
I0607 14:25:26.650353 13659 net.cpp:165] Memory required for data: 7931233440
I0607 14:25:26.650357 13659 layer_factory.hpp:77] Creating layer conv8_2_mbox_conf_flat
I0607 14:25:26.650362 13659 net.cpp:100] Creating Layer conv8_2_mbox_conf_flat
I0607 14:25:26.650367 13659 net.cpp:434] conv8_2_mbox_conf_flat <- conv8_2_mbox_conf_perm
I0607 14:25:26.650374 13659 net.cpp:408] conv8_2_mbox_conf_flat -> conv8_2_mbox_conf_flat
I0607 14:25:26.650399 13659 net.cpp:150] Setting up conv8_2_mbox_conf_flat
I0607 14:25:26.650405 13659 net.cpp:157] Top shape: 32 108 (3456)
I0607 14:25:26.650409 13659 net.cpp:165] Memory required for data: 7931247264
I0607 14:25:26.650413 13659 layer_factory.hpp:77] Creating layer conv8_2_mbox_priorbox
I0607 14:25:26.650420 13659 net.cpp:100] Creating Layer conv8_2_mbox_priorbox
I0607 14:25:26.650424 13659 net.cpp:434] conv8_2_mbox_priorbox <- conv8_2_conv8_2_relu_0_split_3
I0607 14:25:26.650442 13659 net.cpp:434] conv8_2_mbox_priorbox <- data_data_0_split_5
I0607 14:25:26.650450 13659 net.cpp:408] conv8_2_mbox_priorbox -> conv8_2_mbox_priorbox
I0607 14:25:26.650480 13659 net.cpp:150] Setting up conv8_2_mbox_priorbox
I0607 14:25:26.650485 13659 net.cpp:157] Top shape: 1 2 144 (288)
I0607 14:25:26.650490 13659 net.cpp:165] Memory required for data: 7931248416
I0607 14:25:26.650493 13659 layer_factory.hpp:77] Creating layer conv9_2_mbox_loc
I0607 14:25:26.650503 13659 net.cpp:100] Creating Layer conv9_2_mbox_loc
I0607 14:25:26.650508 13659 net.cpp:434] conv9_2_mbox_loc <- conv9_2_conv9_2_relu_0_split_0
I0607 14:25:26.650517 13659 net.cpp:408] conv9_2_mbox_loc -> conv9_2_mbox_loc
I0607 14:25:26.652266 13659 net.cpp:150] Setting up conv9_2_mbox_loc
I0607 14:25:26.652281 13659 net.cpp:157] Top shape: 32 16 1 1 (512)
I0607 14:25:26.652284 13659 net.cpp:165] Memory required for data: 7931250464
I0607 14:25:26.652293 13659 layer_factory.hpp:77] Creating layer conv9_2_mbox_loc_perm
I0607 14:25:26.652304 13659 net.cpp:100] Creating Layer conv9_2_mbox_loc_perm
I0607 14:25:26.652310 13659 net.cpp:434] conv9_2_mbox_loc_perm <- conv9_2_mbox_loc
I0607 14:25:26.652318 13659 net.cpp:408] conv9_2_mbox_loc_perm -> conv9_2_mbox_loc_perm
I0607 14:25:26.652410 13659 net.cpp:150] Setting up conv9_2_mbox_loc_perm
I0607 14:25:26.652416 13659 net.cpp:157] Top shape: 32 1 1 16 (512)
I0607 14:25:26.652420 13659 net.cpp:165] Memory required for data: 7931252512
I0607 14:25:26.652422 13659 layer_factory.hpp:77] Creating layer conv9_2_mbox_loc_flat
I0607 14:25:26.652431 13659 net.cpp:100] Creating Layer conv9_2_mbox_loc_flat
I0607 14:25:26.652436 13659 net.cpp:434] conv9_2_mbox_loc_flat <- conv9_2_mbox_loc_perm
I0607 14:25:26.652441 13659 net.cpp:408] conv9_2_mbox_loc_flat -> conv9_2_mbox_loc_flat
I0607 14:25:26.652479 13659 net.cpp:150] Setting up conv9_2_mbox_loc_flat
I0607 14:25:26.652487 13659 net.cpp:157] Top shape: 32 16 (512)
I0607 14:25:26.652503 13659 net.cpp:165] Memory required for data: 7931254560
I0607 14:25:26.652505 13659 layer_factory.hpp:77] Creating layer conv9_2_mbox_conf
I0607 14:25:26.652516 13659 net.cpp:100] Creating Layer conv9_2_mbox_conf
I0607 14:25:26.652521 13659 net.cpp:434] conv9_2_mbox_conf <- conv9_2_conv9_2_relu_0_split_1
I0607 14:25:26.652529 13659 net.cpp:408] conv9_2_mbox_conf -> conv9_2_mbox_conf
I0607 14:25:26.654629 13659 net.cpp:150] Setting up conv9_2_mbox_conf
I0607 14:25:26.654645 13659 net.cpp:157] Top shape: 32 12 1 1 (384)
I0607 14:25:26.654649 13659 net.cpp:165] Memory required for data: 7931256096
I0607 14:25:26.654659 13659 layer_factory.hpp:77] Creating layer conv9_2_mbox_conf_perm
I0607 14:25:26.654670 13659 net.cpp:100] Creating Layer conv9_2_mbox_conf_perm
I0607 14:25:26.654675 13659 net.cpp:434] conv9_2_mbox_conf_perm <- conv9_2_mbox_conf
I0607 14:25:26.654685 13659 net.cpp:408] conv9_2_mbox_conf_perm -> conv9_2_mbox_conf_perm
I0607 14:25:26.654780 13659 net.cpp:150] Setting up conv9_2_mbox_conf_perm
I0607 14:25:26.654786 13659 net.cpp:157] Top shape: 32 1 1 12 (384)
I0607 14:25:26.654789 13659 net.cpp:165] Memory required for data: 7931257632
I0607 14:25:26.654808 13659 layer_factory.hpp:77] Creating layer conv9_2_mbox_conf_flat
I0607 14:25:26.654827 13659 net.cpp:100] Creating Layer conv9_2_mbox_conf_flat
I0607 14:25:26.654832 13659 net.cpp:434] conv9_2_mbox_conf_flat <- conv9_2_mbox_conf_perm
I0607 14:25:26.654839 13659 net.cpp:408] conv9_2_mbox_conf_flat -> conv9_2_mbox_conf_flat
I0607 14:25:26.654865 13659 net.cpp:150] Setting up conv9_2_mbox_conf_flat
I0607 14:25:26.654871 13659 net.cpp:157] Top shape: 32 12 (384)
I0607 14:25:26.654875 13659 net.cpp:165] Memory required for data: 7931259168
I0607 14:25:26.654878 13659 layer_factory.hpp:77] Creating layer conv9_2_mbox_priorbox
I0607 14:25:26.654886 13659 net.cpp:100] Creating Layer conv9_2_mbox_priorbox
I0607 14:25:26.654891 13659 net.cpp:434] conv9_2_mbox_priorbox <- conv9_2_conv9_2_relu_0_split_2
I0607 14:25:26.654896 13659 net.cpp:434] conv9_2_mbox_priorbox <- data_data_0_split_6
I0607 14:25:26.654903 13659 net.cpp:408] conv9_2_mbox_priorbox -> conv9_2_mbox_priorbox
I0607 14:25:26.654942 13659 net.cpp:150] Setting up conv9_2_mbox_priorbox
I0607 14:25:26.654947 13659 net.cpp:157] Top shape: 1 2 16 (32)
I0607 14:25:26.654950 13659 net.cpp:165] Memory required for data: 7931259296
I0607 14:25:26.654954 13659 layer_factory.hpp:77] Creating layer mbox_loc
I0607 14:25:26.654963 13659 net.cpp:100] Creating Layer mbox_loc
I0607 14:25:26.654968 13659 net.cpp:434] mbox_loc <- conv4_3_norm_mbox_loc_flat
I0607 14:25:26.654974 13659 net.cpp:434] mbox_loc <- fc7_mbox_loc_flat
I0607 14:25:26.654980 13659 net.cpp:434] mbox_loc <- conv6_2_mbox_loc_flat
I0607 14:25:26.654988 13659 net.cpp:434] mbox_loc <- conv7_2_mbox_loc_flat
I0607 14:25:26.654994 13659 net.cpp:434] mbox_loc <- conv8_2_mbox_loc_flat
I0607 14:25:26.654999 13659 net.cpp:434] mbox_loc <- conv9_2_mbox_loc_flat
I0607 14:25:26.655005 13659 net.cpp:408] mbox_loc -> mbox_loc
I0607 14:25:26.655035 13659 net.cpp:150] Setting up mbox_loc
I0607 14:25:26.655041 13659 net.cpp:157] Top shape: 32 34928 (1117696)
I0607 14:25:26.655045 13659 net.cpp:165] Memory required for data: 7935730080
I0607 14:25:26.655048 13659 layer_factory.hpp:77] Creating layer mbox_conf
I0607 14:25:26.655055 13659 net.cpp:100] Creating Layer mbox_conf
I0607 14:25:26.655059 13659 net.cpp:434] mbox_conf <- conv4_3_norm_mbox_conf_flat
I0607 14:25:26.655064 13659 net.cpp:434] mbox_conf <- fc7_mbox_conf_flat
I0607 14:25:26.655071 13659 net.cpp:434] mbox_conf <- conv6_2_mbox_conf_flat
I0607 14:25:26.655076 13659 net.cpp:434] mbox_conf <- conv7_2_mbox_conf_flat
I0607 14:25:26.655081 13659 net.cpp:434] mbox_conf <- conv8_2_mbox_conf_flat
I0607 14:25:26.655086 13659 net.cpp:434] mbox_conf <- conv9_2_mbox_conf_flat
I0607 14:25:26.655093 13659 net.cpp:408] mbox_conf -> mbox_conf
I0607 14:25:26.655118 13659 net.cpp:150] Setting up mbox_conf
I0607 14:25:26.655124 13659 net.cpp:157] Top shape: 32 26196 (838272)
I0607 14:25:26.655128 13659 net.cpp:165] Memory required for data: 7939083168
I0607 14:25:26.655131 13659 layer_factory.hpp:77] Creating layer mbox_priorbox
I0607 14:25:26.655138 13659 net.cpp:100] Creating Layer mbox_priorbox
I0607 14:25:26.655141 13659 net.cpp:434] mbox_priorbox <- conv4_3_norm_mbox_priorbox
I0607 14:25:26.655148 13659 net.cpp:434] mbox_priorbox <- fc7_mbox_priorbox
I0607 14:25:26.655153 13659 net.cpp:434] mbox_priorbox <- conv6_2_mbox_priorbox
I0607 14:25:26.655159 13659 net.cpp:434] mbox_priorbox <- conv7_2_mbox_priorbox
I0607 14:25:26.655164 13659 net.cpp:434] mbox_priorbox <- conv8_2_mbox_priorbox
I0607 14:25:26.655169 13659 net.cpp:434] mbox_priorbox <- conv9_2_mbox_priorbox
I0607 14:25:26.655174 13659 net.cpp:408] mbox_priorbox -> mbox_priorbox
I0607 14:25:26.655197 13659 net.cpp:150] Setting up mbox_priorbox
I0607 14:25:26.655203 13659 net.cpp:157] Top shape: 1 2 34928 (69856)
I0607 14:25:26.655206 13659 net.cpp:165] Memory required for data: 7939362592
I0607 14:25:26.655210 13659 layer_factory.hpp:77] Creating layer mbox_loss
I0607 14:25:26.655222 13659 net.cpp:100] Creating Layer mbox_loss
I0607 14:25:26.655226 13659 net.cpp:434] mbox_loss <- mbox_loc
I0607 14:25:26.655231 13659 net.cpp:434] mbox_loss <- mbox_conf
I0607 14:25:26.655237 13659 net.cpp:434] mbox_loss <- mbox_priorbox
…
  name: "data"
  type: "AnnotatedData"
  top: "data"
  top: "label"
  include {
    phase: TEST
  }
  transform_param {
    mean_value: 104
    mean_value: 117
    mean_value: 123
    resize_param {
      prob: 1
      resize_mode: WARP
      height: 300
      width: 300
      interp_mode: LINEAR
    }
  }
  data_param {
    source: "examples/tbs_v2.0_HSIL_1_23/tbs_v2.0_HSIL_1_23_test_lmdb"
    batch_size: 4
    backend: LMDB
  }
  annotated_data_param {
    batch_sampler {
    }
    label_map_file: "data/tbs_v2.0_HSIL_1_23/labelmap_voc.prototxt"
  }
}
layer {
  name: "conv1_1"
  type: "Convolution"
  bottom: "data"
  top: "conv1_1"
  param {
    lr_mult: 1
    decay_mult: 1
  }
  param {
    lr_mult: 2
    decay_mult: 0
  }
  convolution_param {
    num_output: 64
    pad: 1
    kernel_size: 3
    weight_filler {
      type: "xavier"
    }
    bias_filler {
      type: "constant"
      value: 0
    }
  }
}
layer {
  name: "relu1_1"
  type: "ReLU"
  bottom: "conv1_1"
  top: "conv1_1"
}
layer {
  name: "conv1_2"
  type: "Convolution"
  bottom: "conv1_1"
  top: "conv1_2"
  param {
    lr_mult: 1
    decay_mult: 1
  }
  param {
    lr_mult: 2
    decay_mult: 0
  }
  convolution_param {
    num_output: 64
    pad: 1
    kernel_size: 3
    weight_filler {
      type: "xavier"
    }
    bias_filler {
      type: "constant"
      value: 0
    }
  }
}
layer {
  name: "relu1_2"
  type: "ReLU"
  bottom: "conv1_2"
  top: "conv1_2"
}
layer {
  name: "pool1"
  type: "Pooling"
  bottom: "conv1_2"
  top: "pool1"
  pooling_param {
    pool: MAX
    kernel_size: 2
    stride: 2
  }
}
layer {
  name: "conv2_1"
  type: "Convolution"
  bottom: "pool1"
  top: "conv2_1"
  param {
    lr_mult: 1
    decay_mult: 1
  }
  param {
    lr_mult: 2
    decay_mult: 0
  }
  convolution_param {
    num_output: 128
    pad: 1
    kernel_size: 3
    weight_filler {
      type: "xavier"
    }
    bias_filler {
      type: "constant"
      value: 0
    }
  }
}
layer {
  name: "relu2_1"
  type: "ReLU"
  bottom: "conv2_1"
  top: "conv2_1"
}
layer {
  name: "conv2_2"
  type: "Convolution"
  bottom: "conv2_1"
  top: "conv2_2"
  param {
    lr_mult: 1
    decay_mult: 1
  }
  param {
    lr_mult: 2
    decay_mult: 0
  }
  convolution_param {
    num_output: 128
    pad: 1
    kernel_size: 3
    weight_filler {
      type: "xavier"
    }
    bias_filler {
      type: "constant"
      value: 0
    }
  }
}
layer {
  name: "relu2_2"
  type: "ReLU"
  bottom: "conv2_2"
  top: "conv2_2"
}
layer {
  name: "pool2"
  type: "Pooling"
  bottom: "conv2_2"
  top: "pool2"
  pooling_param {
    pool: MAX
    kernel_size: 2
    stride: 2
  }
}
layer {
  name: "conv3_1"
  type: "Convolution"
  bottom: "pool2"
  top: "conv3_1"
  param {
    lr_mult: 1
    decay_mult: 1
  }
  param {
    lr_mult: 2
    decay_mult: 0
  }
  convolution_param {
    num_output: 256
    pad: 1
    kernel_size: 3
    weight_filler {
      type: "xavier"
    }
    bias_filler {
      type: "constant"
      value: 0
    }
  }
}
layer {
  name: "relu3_1"
  type: "ReLU"
  bottom: "conv3_1"
  top: "conv3_1"
}
layer {
  name: "conv3_2"
  type: "Convolution"
  bottom: "conv3_1"
  top: "conv3_2"
  param {
    lr_mult: 1
    decay_mult: 1
  }
  param {
    lr_mult: 2
    decay_mult: 0
  }
  convolution_param {
    num_output: 256
    pad: 1
    kernel_size: 3
    weight_filler {
      type: "xavier"
    }
    bias_filler {
      type: "constant"
      value: 0
    }
  }
}
layer {
  name: "relu3_2"
  type: "ReLU"
  bottom: "conv3_2"
  top: "conv3_2"
}
layer {
  name: "conv3_3"
  type: "Convolution"
  bottom: "conv3_2"
  top: "conv3_3"
  param {
    lr_mult: 1
    decay_mult: 1
  }
  param {
    lr_mult: 2
    decay_mult: 0
  }
  convolution_param {
    num_output: 256
    pad: 1
    kernel_size: 3
    weight_filler {
      type: "xavier"
    }
    bias_filler {
      type: "constant"
      value: 0
    }
  }
}
layer {
  name: "relu3_3"
  type: "ReLU"
  bottom: "conv3_3"
  top: "conv3_3"
}
layer {
  name: "pool3"
  type: "Pooling"
  bottom: "conv3_3"
  top: "pool3"
  pooling_param {
    pool: MAX
    kernel_size: 2
    stride: 2
  }
}
layer {
  name: "conv4_1"
  type: "Convolution"
  bottom: "pool3"
  top: "conv4_1"
  param {
    lr_mult: 1
    decay_mult: 1
  }
  param {
    lr_mult: 2
    decay_mult: 0
  }
  convolution_param {
    num_output: 512
    pad: 1
    kernel_size: 3
    weight_filler {
      type: "xavier"
    }
    bias_filler {
      type: "constant"
      value: 0
    }
  }
}
layer {
  name: "relu4_1"
  type: "ReLU"
  bottom: "conv4_1"
  top: "conv4_1"
}
layer {
  name: "conv4_2"
  type: "Convolution"
  bottom: "conv4_1"
  top: "conv4_2"
  param {
    lr_mult: 1
    decay_mult: 1
  }
  param {
    lr_mult: 2
    decay_mult: 0
  }
  convolution_param {
    num_output: 512
    pad: 1
    kernel_size: 3
    weight_filler {
      type: "xavier"
    }
    bias_filler {
      type: "constant"
      value: 0
    }
  }
}
layer {
  name: "relu4_2"
  type: "ReLU"
  bottom: "conv4_2"
  top: "conv4_2"
}
layer {
  name: "conv4_3"
  type: "Convolution"
  bottom: "conv4_2"
  top: "conv4_3"
  param {
    lr_mult: 1
    decay_mult: 1
  }
  param {
    lr_mult: 2
    decay_mult: 0
  }
  convolution_param {
    num_output: 512
    pad: 1
    kernel_size: 3
    weight_filler {
      type: "xavier"
    }
    bias_filler {
      type: "constant"
      value: 0
    }
  }
}
layer {
  name: "relu4_3"
  type: "ReLU"
  bottom: "conv4_3"
  top: "conv4_3"
}
layer {
  name: "pool4"
  type: "Pooling"
  bottom: "conv4_3"
  top: "pool4"
  pooling_param {
    pool: MAX
    kernel_size: 2
    stride: 2
  }
}
layer {
  name: "conv5_1"
  type: "Convolution"
  bottom: "pool4"
  top: "conv5_1"
  param {
    lr_mult: 1
    decay_mult: 1
  }
  param {
    lr_mult: 2
    decay_mult: 0
  }
  convolution_param {
    num_output: 512
    pad: 1
    kernel_size: 3
    weight_filler {
      type: "xavier"
    }
    bias_filler {
      type: "constant"
      value: 0
    }
    dilation: 1
  }
}
layer {
  name: "relu5_1"
  type: "ReLU"
  bottom: "conv5_1"
  top: "conv5_1"
}
layer {
  name: "conv5_2"
  type: "Convolution"
  bottom: "conv5_1"
  top: "conv5_2"
  param {
    lr_mult: 1
    decay_mult: 1
  }
  param {
    lr_mult: 2
    decay_mult: 0
  }
  convolution_param {
    num_output: 512
    pad: 1
    kernel_size: 3
    weight_filler {
      type: "xavier"
    }
    bias_filler {
      type: "constant"
      value: 0
    }
    dilation: 1
  }
}
layer {
  name: "relu5_2"
  type: "ReLU"
  bottom: "conv5_2"
  top: "conv5_2"
}
layer {
  name: "conv5_3"
  type: "Convolution"
  bottom: "conv5_2"
  top: "conv5_3"
  param {
    lr_mult: 1
    decay_mult: 1
  }
  param {
    lr_mult: 2
    decay_mult: 0
  }
  convolution_param {
    num_output: 512
    pad: 1
    kernel_size: 3
    weight_filler {
      type: "xavier"
    }
    bias_filler {
      type: "constant"
      value: 0
    }
    dilation: 1
  }
}
layer {
  name: "relu5_3"
  type: "ReLU"
  bottom: "conv5_3"
  top: "conv5_3"
}
layer {
  name: "pool5"
  type: "Pooling"
  bottom: "conv5_3"
  top: "pool5"
  pooling_param {
    pool: MAX
    kernel_size: 3
    stride: 1
    pad: 1
  }
}
layer {
  name: "fc6"
  type: "Convolution"
  bottom: "pool5"
  top: "fc6"
  param {
    lr_mult: 1
    decay_mult: 1
  }
  param {
    lr_mult: 2
    decay_mult: 0
  }
  convolution_param {
    num_output: 1024
    pad: 6
    kernel_size: 3
    weight_filler {
      type: "xavier"
    }
    bias_filler {
      type: "constant"
      value: 0
    }
    dilation: 6
  }
}
layer {
  name: "relu6"
  type: "ReLU"
  bottom: "fc6"
  top: "fc6"
}
layer {
  name: "fc7"
  type: "Convolution"
  bottom: "fc6"
  top: "fc7"
  param {
    lr_mult: 1
    decay_mult: 1
  }
  param {
    lr_mult: 2
    decay_mult: 0
  }
  convolution_param {
    num_output: 1024
    kernel_size: 1
    weight_filler {
      type: "xavier"
    }
    bias_filler {
      type: "constant"
      value: 0
    }
  }
}
layer {
  name: "relu7"
  type: "ReLU"
  bottom: "fc7"
  top: "fc7"
}
layer {
  name: "conv6_1"
  type: "Convolution"
  bottom: "fc7"
  top: "conv6_1"
  param {
    lr_mult: 1
    decay_mult: 1
  }
  param {
    lr_mult: 2
    decay_mult: 0
  }
  convolution_param {
    num_output: 256
    pad: 0
    kernel_size: 1
    stride: 1
    weight_filler {
      type: "xavier"
    }
    bias_filler {
      type: "constant"
      value: 0
    }
  }
}
layer {
  name: "conv6_1_relu"
  type: "ReLU"
  bottom: "conv6_1"
  top: "conv6_1"
}
layer {
  name: "conv6_2"
  type: "Convolution"
  bottom: "conv6_1"
  top: "conv6_2"
  param {
    lr_mult: 1
    decay_mult: 1
  }
  param {
    lr_mult: 2
    decay_mult: 0
  }
  convolution_param {
    num_output: 512
    pad: 1
    kernel_size: 3
    stride: 2
    weight_filler {
      type: "xavier"
    }
    bias_filler {
      type: "constant"
      value: 0
    }
  }
}
layer {
  name: "conv6_2_relu"
  type: "ReLU"
  bottom: "conv6_2"
  top: "conv6_2"
}
layer {
  name: "conv7_1"
  type: "Convolution"
  bottom: "conv6_2"
  top: "conv7_1"
  param {
    lr_mult: 1
    decay_mult: 1
  }
  param {
    lr_mult: 2
    decay_mult: 0
  }
  convolution_param {
    num_output: 128
    pad: 0
    kernel_size: 1
    stride: 1
    weight_filler {
      type: "xavier"
    }
    bias_filler {
      type: "constant"
      value: 0
    }
  }
}
layer {
  name: "conv7_1_relu"
  type: "ReLU"
  bottom: "conv7_1"
  top: "conv7_1"
}
layer {
  name: "conv7_2"
  type: "Convolution"
  bottom: "conv7_1"
  top: "conv7_2"
  param {
    lr_mult: 1
    decay_mult: 1
  }
  param {
    lr_mult: 2
    decay_mult: 0
  }
  convolution_param {
    num_output: 256
    pad: 1
    kernel_size: 3
    stride: 2
    weight_filler {
      type: "xavier"
    }
    bias_filler {
      type: "constant"
      value: 0
    }
  }
}
layer {
  name: "conv7_2_relu"
  type: "ReLU"
  bottom: "conv7_2"
  top: "conv7_2"
}
layer {
  name: "conv8_1"
  type: "Convolution"
  bottom: "conv7_2"
  top: "conv8_1"
  param {
    lr_mult: 1
    decay_mult: 1
  }
  param {
    lr_mult: 2
    decay_mult: 0
  }
  convolution_param {
    num_output: 128
    pad: 0
    kernel_size: 1
    stride: 1
    weight_filler {
      type: "xavier"
    }
    bias_filler {
      type: "constant"
      value: 0
    }
  }
}
layer {
  name: "conv8_1_relu"
  type: "ReLU"
  bottom: "conv8_1"
  top: "conv8_1"
}
layer {
  name: "conv8_2"
  type: "Convolution"
  bottom: "conv8_1"
  top: "conv8_2"
  param {
    lr_mult: 1
    decay_mult: 1
  }
  param {
    lr_mult: 2
    decay_mult: 0
  }
  convolution_param {
    num_output: 256
    pad: 0
    kernel_size: 3
    stride: 1
    weight_filler {
      type: "xavier"
    }
    bias_filler {
      type: "constant"
      value: 0
    }
  }
}
layer {
  name: "conv8_2_relu"
  type: "ReLU"
  bottom: "conv8_2"
  top: "conv8_2"
}
layer {
  name: "conv9_1"
  type: "Convolution"
  bottom: "conv8_2"
  top: "conv9_1"
  param {
    lr_mult: 1
    decay_mult: 1
  }
  param {
    lr_mult: 2
    decay_mult: 0
  }
  convolution_param {
    num_output: 128
    pad: 0
    kernel_size: 1
    stride: 1
    weight_filler {
      type: "xavier"
    }
    bias_filler {
      type: "constant"
      value: 0
    }
  }
}
layer {
  name: "conv9_1_relu"
  type: "ReLU"
  bottom: "conv9_1"
  top: "conv9_1"
}
layer {
  name: "conv9_2"
  type: "Convolution"
  bottom: "conv9_1"
  top: "conv9_2"
  param {
    lr_mult: 1
    decay_mult: 1
  }
  param {
    lr_mult: 2
    decay_mult: 0
  }
  convolution_param {
    num_output: 256
    pad: 0
    kernel_size: 3
    stride: 1
    weight_filler {
      type: "xavier"
    }
    bias_filler {
      type: "constant"
      value: 0
    }
  }
}
layer {
  name: "conv9_2_relu"
  type: "ReLU"
  bottom: "conv9_2"
  top: "conv9_2"
}
layer {
  name: "conv4_3_norm"
  type: "Normalize"
  bottom: "conv4_3"
  top: "conv4_3_norm"
  norm_param {
    across_spatial: false
    scale_filler {
      type: "constant"
      value: 20
    }
    channel_shared: false
  }
}
layer {
  name: "conv4_3_norm_mbox_loc"
  type: "Convolution"
  bottom: "conv4_3_norm"
  top: "conv4_3_norm_mbox_loc"
  param {
    lr_mult: 1
    decay_mult: 1
  }
  param {
    lr_mult: 2
    decay_mult: 0
  }
  convolution_param {
    num_output: 16
    pad: 1
    kernel_size: 3
    stride: 1
    weight_filler {
      type: "xavier"
    }
    bias_filler {
      type: "constant"
      value: 0
    }
  }
}
layer {
  name: "conv4_3_norm_mbox_loc_perm"
  type: "Permute"
  bottom: "conv4_3_norm_mbox_loc"
  top: "conv4_3_norm_mbox_loc_perm"
  permute_param {
    order: 0
    order: 2
    order: 3
    order: 1
  }
}
layer {
  name: "conv4_3_norm_mbox_loc_flat"
  type: "Flatten"
  bottom: "conv4_3_norm_mbox_loc_perm"
  top: "conv4_3_norm_mbox_loc_flat"
  flatten_param {
    axis: 1
  }
}
layer {
  name: "conv4_3_norm_mbox_conf"
  type: "Convolution"
  bottom: "conv4_3_norm"
  top: "conv4_3_norm_mbox_conf"
  param {
    lr_mult: 1
    decay_mult: 1
  }
  param {
    lr_mult: 2
    decay_mult: 0
  }
  convolution_param {
    num_output: 12
    pad: 1
    kernel_size: 3
    stride: 1
    weight_filler {
      type: "xavier"
    }
    bias_filler {
      type: "constant"
      value: 0
    }
  }
}
layer {
  name: "conv4_3_norm_mbox_conf_perm"
  type: "Permute"
  bottom: "conv4_3_norm_mbox_conf"
  top: "conv4_3_norm_mbox_conf_perm"
  permute_param {
    order: 0
    order: 2
    order: 3
    order: 1
  }
}
layer {
  name: "conv4_3_norm_mbox_conf_flat"
  type: "Flatten"
  bottom: "conv4_3_norm_mbox_conf_perm"
  top: "conv4_3_norm_mbox_conf_flat"
  flatten_param {
    axis: 1
  }
}
layer {
  name: "conv4_3_norm_mbox_priorbox"
  type: "PriorBox"
  bottom: "conv4_3_norm"
  bottom: "data"
  top: "conv4_3_norm_mbox_priorbox"
  prior_box_param {
    min_size: 30
    max_size: 60
    aspect_ratio: 2
    flip: true
    clip: false
    variance: 0.1
    variance: 0.1
    variance: 0.2
    variance: 0.2
    step: 8
    offset: 0.5
  }
}
layer {
  name: "fc7_mbox_loc"
  type: "Convolution"
  bottom: "fc7"
  top: "fc7_mbox_loc"
  param {
    lr_mult: 1
    decay_mult: 1
  }
  param {
    lr_mult: 2
    decay_mult: 0
  }
  convolution_param {
    num_output: 24
    pad: 1
    kernel_size: 3
    stride: 1
    weight_filler {
      type: "xavier"
    }
    bias_filler {
      type: "constant"
      value: 0
    }
  }
}
layer {
  name: "fc7_mbox_loc_perm"
  type: "Permute"
  bottom: "fc7_mbox_loc"
  top: "fc7_mbox_loc_perm"
  permute_param {
    order: 0
    order: 2
    order: 3
    order: 1
  }
}
layer {
  name: "fc7_mbox_loc_flat"
  type: "Flatten"
  bottom: "fc7_mbox_loc_perm"
  top: "fc7_mbox_loc_flat"
  flatten_param {
    axis: 1
  }
}
layer {
  name: "fc7_mbox_conf"
  type: "Convolution"
  bottom: "fc7"
  top: "fc7_mbox_conf"
  param {
    lr_mult: 1
    decay_mult: 1
  }
  param {
    lr_mult: 2
    decay_mult: 0
  }
  convolution_param {
    num_output: 18
    pad: 1
    kernel_size: 3
    stride: 1
    weight_filler {
      type: "xavier"
    }
    bias_filler {
      type: "constant"
      value: 0
    }
  }
}
layer {
  name: "fc7_mbox_conf_perm"
  type: "Permute"
  bottom: "fc7_mbox_conf"
  top: "fc7_mbox_conf_perm"
  permute_param {
    order: 0
    order: 2
    order: 3
    order: 1
  }
}
layer {
  name: "fc7_mbox_conf_flat"
  type: "Flatten"
  bottom: "fc7_mbox_conf_perm"
  top: "fc7_mbox_conf_flat"
  flatten_param {
    axis: 1
  }
}
layer {
  name: "fc7_mbox_priorbox"
  type: "PriorBox"
  bottom: "fc7"
  bottom: "data"
  top: "fc7_mbox_priorbox"
  prior_box_param {
    min_size: 60
    max_size: 111
    aspect_ratio: 2
    aspect_ratio: 3
    flip: true
    clip: false
    variance: 0.1
    variance: 0.1
    variance: 0.2
    variance: 0.2
    step: 16
    offset: 0.5
  }
}
layer {
  name: "conv6_2_mbox_loc"
  type: "Convolution"
  bottom: "conv6_2"
  top: "conv6_2_mbox_loc"
  param {
    lr_mult: 1
    decay_mult: 1
  }
  param {
    lr_mult: 2
    decay_mult: 0
  }
  convolution_param {
    num_output: 24
    pad: 1
    kernel_size: 3
    stride: 1
    weight_filler {
      type: "xavier"
    }
    bias_filler {
      type: "constant"
      value: 0
    }
  }
}
layer {
  name: "conv6_2_mbox_loc_perm"
  type: "Permute"
  bottom: "conv6_2_mbox_loc"
  top: "conv6_2_mbox_loc_perm"
  permute_param {
    order: 0
    order: 2
    order: 3
    order: 1
  }
}
layer {
  name: "conv6_2_mbox_loc_flat"
  type: "Flatten"
  bottom: "conv6_2_mbox_loc_perm"
  top: "conv6_2_mbox_loc_flat"
  flatten_param {
    axis: 1
  }
}
layer {
  name: "conv6_2_mbox_conf"
  type: "Convolution"
  bottom: "conv6_2"
  top: "conv6_2_mbox_conf"
  param {
    lr_mult: 1
    decay_mult: 1
  }
  param {
    lr_mult: 2
    decay_mult: 0
  }
  convolution_param {
    num_output: 18
    pad: 1
    kernel_size: 3
    stride: 1
    weight_filler {
      type: "xavier"
    }
    bias_filler {
      type: "constant"
      value: 0
    }
  }
}
layer {
  name: "conv6_2_mbox_conf_perm"
  type: "Permute"
  bottom: "conv6_2_mbox_conf"
  top: "conv6_2_mbox_conf_perm"
  permute_param {
    order: 0
    order: 2
    order: 3
    order: 1
  }
}
layer {
  name: "conv6_2_mbox_conf_flat"
  type: "Flatten"
  bottom: "conv6_2_mbox_conf_perm"
  top: "conv6_2_mbox_conf_flat"
  flatten_param {
    axis: 1
  }
}
layer {
  name: "conv6_2_mbox_priorbox"
  type: "PriorBox"
  bottom: "conv6_2"
  bottom: "data"
  top: "conv6_2_mbox_priorbox"
  prior_box_param {
    min_size: 111
    max_size: 162
    aspect_ratio: 2
    aspect_ratio: 3
    flip: true
    clip: false
    variance: 0.1
    variance: 0.1
    variance: 0.2
    variance: 0.2
    step: 32
    offset: 0.5
  }
}
layer {
  name: "conv7_2_mbox_loc"
  type: "Convolution"
  bottom: "conv7_2"
  top: "conv7_2_mbox_loc"
  param {
    lr_mult: 1
    decay_mult: 1
  }
  param {
    lr_mult: 2
    decay_mult: 0
  }
  convolution_param {
    num_output: 24
    pad: 1
    kernel_size: 3
    stride: 1
    weight_filler {
      type: "xavier"
    }
    bias_filler {
      type: "constant"
      value: 0
    }
  }
}
layer {
  name: "conv7_2_mbox_loc_perm"
  type: "Permute"
  bottom: "conv7_2_mbox_loc"
  top: "conv7_2_mbox_loc_perm"
  permute_param {
    order: 0
    order: 2
    order: 3
    order: 1
  }
}
layer {
  name: "conv7_2_mbox_loc_flat"
  type: "Flatten"
  bottom: "conv7_2_mbox_loc_perm"
  top: "conv7_2_mbox_loc_flat"
  flatten_param {
    axis: 1
  }
}
layer {
  name: "conv7_2_mbox_conf"
  type: "Convolution"
  bottom: "conv7_2"
  top: "conv7_2_mbox_conf"
  param {
    lr_mult: 1
    decay_mult: 1
  }
  param {
    lr_mult: 2
    decay_mult: 0
  }
  convolution_param {
    num_output: 18
    pad: 1
    kernel_size: 3
    stride: 1
    weight_filler {
      type: "xavier"
    }
    bias_filler {
      type: "constant"
      value: 0
    }
  }
}
layer {
  name: "conv7_2_mbox_conf_perm"
  type: "Permute"
  bottom: "conv7_2_mbox_conf"
  top: "conv7_2_mbox_conf_perm"
  permute_param {
    order: 0
    order: 2
    order: 3
    order: 1
  }
}
layer {
  name: "conv7_2_mbox_conf_flat"
  type: "Flatten"
  bottom: "conv7_2_mbox_conf_perm"
  top: "conv7_2_mbox_conf_flat"
  flatten_param {
    axis: 1
  }
}
layer {
  name: "conv7_2_mbox_priorbox"
  type: "PriorBox"
  bottom: "conv7_2"
  bottom: "data"
  top: "conv7_2_mbox_priorbox"
  prior_box_param {
    min_size: 162
    max_size: 213
    aspect_ratio: 2
    aspect_ratio: 3
    flip: true
    clip: false
    variance: 0.1
    variance: 0.1
    variance: 0.2
    variance: 0.2
    step: 64
    offset: 0.5
  }
}
layer {
  name: "conv8_2_mbox_loc"
  type: "Convolution"
  bottom: "conv8_2"
  top: "conv8_2_mbox_loc"
  param {
    lr_mult: 1
    decay_mult: 1
  }
  param {
    lr_mult: 2
    decay_mult: 0
  }
  convolution_param {
    num_output: 16
    pad: 1
    kernel_size: 3
    stride: 1
    weight_filler {
      type: "xavier"
    }
    bias_filler {
      type: "constant"
      value: 0
    }
  }
}
layer {
  name: "conv8_2_mbox_loc_perm"
  type: "Permute"
  bottom: "conv8_2_mbox_loc"
  top: "conv8_2_mbox_loc_perm"
  permute_param {
    order: 0
    order: 2
    order: 3
    order: 1
  }
}
layer {
  name: "conv8_2_mbox_loc_flat"
  type: "Flatten"
  bottom: "conv8_2_mbox_loc_perm"
  top: "conv8_2_mbox_loc_flat"
  flatten_param {
    axis: 1
  }
}
layer {
  name: "conv8_2_mbox_conf"
  type: "Convolution"
  bottom: "conv8_2"
  top: "conv8_2_mbox_conf"
  param {
    lr_mult: 1
    decay_mult: 1
  }
  param {
    lr_mult: 2
    decay_mult: 0
  }
  convolution_param {
    num_output: 12
    pad: 1
    kernel_size: 3
    stride: 1
    weight_filler {
      type: "xavier"
    }
    bias_filler {
      type: "constant"
      value: 0
    }
  }
}
layer {
  name: "conv8_2_mbox_conf_perm"
  type: "Permute"
  bottom: "conv8_2_mbox_conf"
  top: "conv8_2_mbox_conf_perm"
  permute_param {
    order: 0
    order: 2
    order: 3
    order: 1
  }
}
layer {
  name: "conv8_2_mbox_conf_flat"
  type: "Flatten"
  bottom: "conv8_2_mbox_conf_perm"
  top: "conv8_2_mbox_conf_flat"
  flatten_param {
    axis: 1
  }
}
layer {
  name: "conv8_2_mbox_priorbox"
  type: "PriorBox"
  bottom: "conv8_2"
  bottom: "data"
  top: "conv8_2_mbox_priorbox"
  prior_box_param {
    min_size: 213
    max_size: 264
    aspect_ratio: 2
    flip: true
    clip: false
    variance: 0.1
    variance: 0.1
    variance: 0.2
    variance: 0.2
    step: 100
    offset: 0.5
  }
}
layer {
  name: "conv9_2_mbox_loc"
  type: "Convolution"
  bottom: "conv9_2"
  top: "conv9_2_mbox_loc"
  param {
    lr_mult: 1
    decay_mult: 1
  }
  param {
    lr_mult: 2
    decay_mult: 0
  }
  convolution_param {
    num_output: 16
    pad: 1
    kernel_size: 3
    stride: 1
    weight_filler {
      type: "xavier"
    }
    bias_filler {
      type: "constant"
      value: 0
    }
  }
}
layer {
  name: "conv9_2_mbox_loc_perm"
  type: "Permute"
  bottom: "conv9_2_mbox_loc"
  top: "conv9_2_mbox_loc_perm"
  permute_param {
    order: 0
    order: 2
    order: 3
    order: 1
  }
}
layer {
  name: "conv9_2_mbox_loc_flat"
  type: "Flatten"
  bottom: "conv9_2_mbox_loc_perm"
  top: "conv9_2_mbox_loc_flat"
  flatten_param {
    axis: 1
  }
}
layer {
  name: "conv9_2_mbox_conf"
  type: "Convolution"
  bottom: "conv9_2"
  top: "conv9_2_mbox_conf"
  param {
    lr_mult: 1
    decay_mult: 1
  }
  param {
    lr_mult: 2
    decay_mult: 0
  }
  convolution_param {
    num_output: 12
    pad: 1
    kernel_size: 3
    stride: 1
    weight_filler {
      type: "xavier"
    }
    bias_filler {
      type: "constant"
      value: 0
    }
  }
}
layer {
  name: "conv9_2_mbox_conf_perm"
  type: "Permute"
  bottom: "conv9_2_mbox_conf"
  top: "conv9_2_mbox_conf_perm"
  permute_param {
    order: 0
    order: 2
    order: 3
    order: 1
  }
}
layer {
  name: "conv9_2_mbox_conf_flat"
  type: "Flatten"
  bottom: "conv9_2_mbox_conf_perm"
  top: "conv9_2_mbox_conf_flat"
  flatten_param {
    axis: 1
  }
}
layer {
  name: "conv9_2_mbox_priorbox"
  type: "PriorBox"
  bottom: "conv9_2"
  bottom: "data"
  top: "conv9_2_mbox_priorbox"
  prior_box_param {
    min_size: 264
    max_size: 315
    aspect_ratio: 2
    flip: true
    clip: false
    variance: 0.1
    variance: 0.1
    variance: 0.2
    variance: 0.2
    step: 300
    offset: 0.5
  }
}
layer {
  name: "mbox_loc"
  type: "Concat"
  bottom: "conv4_3_norm_mbox_loc_flat"
  bottom: "fc7_mbox_loc_flat"
  bottom: "conv6_2_mbox_loc_flat"
  bottom: "conv7_2_mbox_loc_flat"
  bottom: "conv8_2_mbox_loc_flat"
  bottom: "conv9_2_mbox_loc_flat"
  top: "mbox_loc"
  concat_param {
    axis: 1
  }
}
layer {
  name: "mbox_conf"
  type: "Concat"
  bottom: "conv4_3_norm_mbox_conf_flat"
  bottom: "fc7_mbox_conf_flat"
  bottom: "conv6_2_mbox_conf_flat"
  bottom: "conv7_2_mbox_conf_flat"
  bottom: "conv8_2_mbox_conf_flat"
  bottom: "conv9_2_mbox_conf_flat"
  top: "mbox_conf"
  concat_param {
    axis: 1
  }
}
layer {
  name: "mbox_priorbox"
  type: "Concat"
  bottom: "conv4_3_norm_mbox_priorbox"
  bottom: "fc7_mbox_priorbox"
  bottom: "conv6_2_mbox_priorbox"
  bottom: "conv7_2_mbox_priorbox"
  bottom: "conv8_2_mbox_priorbox"
  bottom: "conv9_2_mbox_priorbox"
  top: "mbox_priorbox"
  concat_param {
    axis: 2
  }
}
layer {
  name: "mbox_conf_reshape"
  type: "Reshape"
  bottom: "mbox_conf"
  top: "mbox_conf_reshape"
  reshape_param {
    shape {
      dim: 0
      dim: -1
      dim: 3
    }
  }
}
layer {
  name: "mbox_conf_softmax"
  type: "Softmax"
  bottom: "mbox_conf_reshape"
  top: "mbox_conf_softmax"
  softmax_param {
    axis: 2
  }
}
layer {
  name: "mbox_conf_flatten"
  type: "Flatten"
  bottom: "mbox_conf_softmax"
  top: "mbox_conf_flatten"
  flatten_param {
    axis: 1
  }
}
layer {
  name: "detection_out"
  type: "DetectionOutput"
  bottom: "mbox_loc"
  bottom: "mbox_conf_flatten"
  bottom: "mbox_priorbox"
  top: "detection_out"
  include {
    phase: TEST
  }
  detection_output_param {
    num_classes: 3
    share_location: true
    background_label_id: 0
    nms_param {
      nms_threshold: 0.45
      top_k: 400
    }
    save_output_param {
      output_directory: "/home/shangzw/data/tbs_v2.0_HSIL_1_23/results/SSD_300x300/Main"
      output_name_prefix: "comp4_det_test_"
      output_format: "VOC"
      label_map_file: "data/tbs_v2.0_HSIL_1_23/labelmap_voc.prototxt"
      name_size_file: "data/tbs_v2.0_HSIL_1_23/test_name_size"
      num_test_image: 100
    }
    code_type: CENTER_SIZE
    keep_top_k: 200
    confidence_threshold: 0.01
  }
}
layer {
  name: "detection_eval"
  type: "DetectionEvaluate"
  bottom: "detection_out"
  bottom: "label"
  top: "detection_eval"
  include {
    phase: TEST
  }
  detection_evaluate_param {
    num_classes: 3
    background_label_id: 0
    overlap_threshold: 0.5
    evaluate_difficult_gt: false
    name_size_file: "data/tbs_v2.0_HSIL_1_23/test_name_size"
  }
}
I0607 14:25:26.658360 13659 layer_factory.hpp:77] Creating layer data
I0607 14:25:26.658416 13659 net.cpp:100] Creating Layer data
I0607 14:25:26.658422 13659 net.cpp:408] data -> data
I0607 14:25:26.658433 13659 net.cpp:408] data -> label
I0607 14:25:26.660136 13689 db_lmdb.cpp:35] Opened lmdb examples/tbs_v2.0_HSIL_1_23/tbs_v2.0_HSIL_1_23_test_lmdb
I0607 14:25:26.661739 13659 annotated_data_layer.cpp:62] output data size: 4,3,300,300
I0607 14:25:26.671394 13659 net.cpp:150] Setting up data
I0607 14:25:26.671428 13659 net.cpp:157] Top shape: 4 3 300 300 (1080000)
I0607 14:25:26.671432 13659 net.cpp:157] Top shape: 1 1 1 8 (8)
I0607 14:25:26.671434 13659 net.cpp:165] Memory required for data: 4320032
I0607 14:25:26.671439 13659 layer_factory.hpp:77] Creating layer data_data_0_split
I0607 14:25:26.671449 13659 net.cpp:100] Creating Layer data_data_0_split
I0607 14:25:26.671453 13659 net.cpp:434] data_data_0_split <- data
I0607 14:25:26.671473 13659 net.cpp:408] data_data_0_split -> data_data_0_split_0
I0607 14:25:26.671480 13659 net.cpp:408] data_data_0_split -> data_data_0_split_1
I0607 14:25:26.671485 13659 net.cpp:408] data_data_0_split -> data_data_0_split_2
I0607 14:25:26.671490 13659 net.cpp:408] data_data_0_split -> data_data_0_split_3
I0607 14:25:26.671496 13659 net.cpp:408] data_data_0_split -> data_data_0_split_4
I0607 14:25:26.671500 13659 net.cpp:408] data_data_0_split -> data_data_0_split_5
I0607 14:25:26.671506 13659 net.cpp:408] data_data_0_split -> data_data_0_split_6
I0607 14:25:26.671622 13659 net.cpp:150] Setting up data_data_0_split
I0607 14:25:26.671629 13659 net.cpp:157] Top shape: 4 3 300 300 (1080000)
I0607 14:25:26.671634 13659 net.cpp:157] Top shape: 4 3 300 300 (1080000)
I0607 14:25:26.671639 13659 net.cpp:157] Top shape: 4 3 300 300 (1080000)
I0607 14:25:26.671644 13659 net.cpp:157] Top shape: 4 3 300 300 (1080000)
I0607 14:25:26.671660 13659 net.cpp:157] Top shape: 4 3 300 300 (1080000)
I0607 14:25:26.671665 13659 net.cpp:157] Top shape: 4 3 300 300 (1080000)
I0607 14:25:26.671671 13659 net.cpp:157] Top shape: 4 3 300 300 (1080000)
I0607 14:25:26.671674 13659 net.cpp:165] Memory required for data: 34560032
I0607 14:25:26.671679 13659 layer_factory.hpp:77] Creating layer conv1_1
I0607 14:25:26.671690 13659 net.cpp:100] Creating Layer conv1_1
I0607 14:25:26.671695 13659 net.cpp:434] conv1_1 <- data_data_0_split_0
I0607 14:25:26.671701 13659 net.cpp:408] conv1_1 -> conv1_1
I0607 14:25:26.672941 13659 net.cpp:150] Setting up conv1_1
I0607 14:25:26.672953 13659 net.cpp:157] Top shape: 4 64 300 300 (23040000)
I0607 14:25:26.672958 13659 net.cpp:165] Memory required for data: 126720032
I0607 14:25:26.672969 13659 layer_factory.hpp:77] Creating layer relu1_1
I0607 14:25:26.672977 13659 net.cpp:100] Creating Layer relu1_1
I0607 14:25:26.672982 13659 net.cpp:434] relu1_1 <- conv1_1
I0607 14:25:26.672989 13659 net.cpp:395] relu1_1 -> conv1_1 (in-place)
I0607 14:25:26.673142 13659 net.cpp:150] Setting up relu1_1
I0607 14:25:26.673151 13659 net.cpp:157] Top shape: 4 64 300 300 (23040000)
I0607 14:25:26.673152 13659 net.cpp:165] Memory required for data: 218880032
I0607 14:25:26.673156 13659 layer_factory.hpp:77] Creating layer conv1_2
I0607 14:25:26.673162 13659 net.cpp:100] Creating Layer conv1_2
I0607 14:25:26.673166 13659 net.cpp:434] conv1_2 <- conv1_1
I0607 14:25:26.673171 13659 net.cpp:408] conv1_2 -> conv1_2
I0607 14:25:26.676501 13659 net.cpp:150] Setting up conv1_2
I0607 14:25:26.676514 13659 net.cpp:157] Top shape: 4 64 300 300 (23040000)
I0607 14:25:26.676517 13659 net.cpp:165] Memory required for data: 311040032
I0607 14:25:26.676538 13659 layer_factory.hpp:77] Creating layer relu1_2
I0607 14:25:26.676545 13659 net.cpp:100] Creating Layer relu1_2
I0607 14:25:26.676548 13659 net.cpp:434] relu1_2 <- conv1_2
I0607 14:25:26.676553 13659 net.cpp:395] relu1_2 -> conv1_2 (in-place)
I0607 14:25:26.677333 13659 net.cpp:150] Setting up relu1_2
I0607 14:25:26.677343 13659 net.cpp:157] Top shape: 4 64 300 300 (23040000)
I0607 14:25:26.677347 13659 net.cpp:165] Memory required for data: 403200032
I0607 14:25:26.677350 13659 layer_factory.hpp:77] Creating layer pool1
I0607 14:25:26.677356 13659 net.cpp:100] Creating Layer pool1
I0607 14:25:26.677359 13659 net.cpp:434] pool1 <- conv1_2
I0607 14:25:26.677363 13659 net.cpp:408] pool1 -> pool1
I0607 14:25:26.677419 13659 net.cpp:150] Setting up pool1
I0607 14:25:26.677425 13659 net.cpp:157] Top shape: 4 64 150 150 (5760000)
I0607 14:25:26.677428 13659 net.cpp:165] Memory required for data: 426240032
I0607 14:25:26.677430 13659 layer_factory.hpp:77] Creating layer conv2_1
I0607 14:25:26.677436 13659 net.cpp:100] Creating Layer conv2_1
I0607 14:25:26.677440 13659 net.cpp:434] conv2_1 <- pool1
I0607 14:25:26.677444 13659 net.cpp:408] conv2_1 -> conv2_1
I0607 14:25:26.678320 13659 net.cpp:150] Setting up conv2_1
I0607 14:25:26.678328 13659 net.cpp:157] Top shape: 4 128 150 150 (11520000)
I0607 14:25:26.678330 13659 net.cpp:165] Memory required for data: 472320032
I0607 14:25:26.678338 13659 layer_factory.hpp:77] Creating layer relu2_1
I0607 14:25:26.678344 13659 net.cpp:100] Creating Layer relu2_1
I0607 14:25:26.678347 13659 net.cpp:434] relu2_1 <- conv2_1
I0607 14:25:26.678350 13659 net.cpp:395] relu2_1 -> conv2_1 (in-place)
I0607 14:25:26.678967 13659 net.cpp:150] Setting up relu2_1
I0607 14:25:26.678977 13659 net.cpp:157] Top shape: 4 128 150 150 (11520000)
I0607 14:25:26.678979 13659 net.cpp:165] Memory required for data: 518400032
I0607 14:25:26.678982 13659 layer_factory.hpp:77] Creating layer conv2_2
I0607 14:25:26.678989 13659 net.cpp:100] Creating Layer conv2_2
I0607 14:25:26.678993 13659 net.cpp:434] conv2_2 <- conv2_1
I0607 14:25:26.678998 13659 net.cpp:408] conv2_2 -> conv2_2
I0607 14:25:26.681788 13659 net.cpp:150] Setting up conv2_2
I0607 14:25:26.681804 13659 net.cpp:157] Top shape: 4 128 150 150 (11520000)
I0607 14:25:26.681807 13659 net.cpp:165] Memory required for data: 564480032
I0607 14:25:26.681826 13659 layer_factory.hpp:77] Creating layer relu2_2
I0607 14:25:26.681833 13659 net.cpp:100] Creating Layer relu2_2
I0607 14:25:26.681838 13659 net.cpp:434] relu2_2 <- conv2_2
I0607 14:25:26.681841 13659 net.cpp:395] relu2_2 -> conv2_2 (in-place)
I0607 14:25:26.682036 13659 net.cpp:150] Setting up relu2_2
I0607 14:25:26.682044 13659 net.cpp:157] Top shape: 4 128 150 150 (11520000)
I0607 14:25:26.682060 13659 net.cpp:165] Memory required for data: 610560032
I0607 14:25:26.682062 13659 layer_factory.hpp:77] Creating layer pool2
I0607 14:25:26.682067 13659 net.cpp:100] Creating Layer pool2
I0607 14:25:26.682070 13659 net.cpp:434] pool2 <- conv2_2
I0607 14:25:26.682076 13659 net.cpp:408] pool2 -> pool2
I0607 14:25:26.682114 13659 net.cpp:150] Setting up pool2
I0607 14:25:26.682121 13659 net.cpp:157] Top shape: 4 128 75 75 (2880000)
I0607 14:25:26.682122 13659 net.cpp:165] Memory required for data: 622080032
I0607 14:25:26.682124 13659 layer_factory.hpp:77] Creating layer conv3_1
I0607 14:25:26.682145 13659 net.cpp:100] Creating Layer conv3_1
I0607 14:25:26.682148 13659 net.cpp:434] conv3_1 <- pool2
I0607 14:25:26.682153 13659 net.cpp:408] conv3_1 -> conv3_1
I0607 14:25:26.684914 13659 net.cpp:150] Setting up conv3_1
I0607 14:25:26.684926 13659 net.cpp:157] Top shape: 4 256 75 75 (5760000)
I0607 14:25:26.684927 13659 net.cpp:165] Memory required for data: 645120032
I0607 14:25:26.684937 13659 layer_factory.hpp:77] Creating layer relu3_1
I0607 14:25:26.684943 13659 net.cpp:100] Creating Layer relu3_1
I0607 14:25:26.684947 13659 net.cpp:434] relu3_1 <- conv3_1
I0607 14:25:26.684952 13659 net.cpp:395] relu3_1 -> conv3_1 (in-place)
I0607 14:25:26.685119 13659 net.cpp:150] Setting up relu3_1
I0607 14:25:26.685127 13659 net.cpp:157] Top shape: 4 256 75 75 (5760000)
I0607 14:25:26.685128 13659 net.cpp:165] Memory required for data: 668160032
I0607 14:25:26.685132 13659 layer_factory.hpp:77] Creating layer conv3_2
I0607 14:25:26.685151 13659 net.cpp:100] Creating Layer conv3_2
I0607 14:25:26.685168 13659 net.cpp:434] conv3_2 <- conv3_1
I0607 14:25:26.685174 13659 net.cpp:408] conv3_2 -> conv3_2
I0607 14:25:26.690441 13659 net.cpp:150] Setting up conv3_2
I0607 14:25:26.690459 13659 net.cpp:157] Top shape: 4 256 75 75 (5760000)
I0607 14:25:26.690462 13659 net.cpp:165] Memory required for data: 691200032
I0607 14:25:26.690482 13659 layer_factory.hpp:77] Creating layer relu3_2
I0607 14:25:26.690503 13659 net.cpp:100] Creating Layer relu3_2
I0607 14:25:26.690507 13659 net.cpp:434] relu3_2 <- conv3_2
I0607 14:25:26.690511 13659 net.cpp:395] relu3_2 -> conv3_2 (in-place)
I0607 14:25:26.690651 13659 net.cpp:150] Setting up relu3_2
I0607 14:25:26.690659 13659 net.cpp:157] Top shape: 4 256 75 75 (5760000)
I0607 14:25:26.690660 13659 net.cpp:165] Memory required for data: 714240032
I0607 14:25:26.690663 13659 layer_factory.hpp:77] Creating layer conv3_3
I0607 14:25:26.690675 13659 net.cpp:100] Creating Layer conv3_3
I0607 14:25:26.690678 13659 net.cpp:434] conv3_3 <- conv3_2
I0607 14:25:26.690685 13659 net.cpp:408] conv3_3 -> conv3_3
I0607 14:25:26.696168 13659 net.cpp:150] Setting up conv3_3
I0607 14:25:26.696185 13659 net.cpp:157] Top shape: 4 256 75 75 (5760000)
I0607 14:25:26.696188 13659 net.cpp:165] Memory required for data: 737280032
I0607 14:25:26.696210 13659 layer_factory.hpp:77] Creating layer relu3_3
I0607 14:25:26.696231 13659 net.cpp:100] Creating Layer relu3_3
I0607 14:25:26.696235 13659 net.cpp:434] relu3_3 <- conv3_3
I0607 14:25:26.696240 13659 net.cpp:395] relu3_3 -> conv3_3 (in-place)
I0607 14:25:26.696421 13659 net.cpp:150] Setting up relu3_3
I0607 14:25:26.696430 13659 net.cpp:157] Top shape: 4 256 75 75 (5760000)
I0607 14:25:26.696434 13659 net.cpp:165] Memory required for data: 760320032
I0607 14:25:26.696436 13659 layer_factory.hpp:77] Creating layer pool3
I0607 14:25:26.696460 13659 net.cpp:100] Creating Layer pool3
I0607 14:25:26.696463 13659 net.cpp:434] pool3 <- conv3_3
I0607 14:25:26.696480 13659 net.cpp:408] pool3 -> pool3
I0607 14:25:26.696527 13659 net.cpp:150] Setting up pool3
I0607 14:25:26.696532 13659 net.cpp:157] Top shape: 4 256 38 38 (1478656)
I0607 14:25:26.696558 13659 net.cpp:165] Memory required for data: 766234656
I0607 14:25:26.696560 13659 layer_factory.hpp:77] Creating layer conv4_1
I0607 14:25:26.696583 13659 net.cpp:100] Creating Layer conv4_1
I0607 14:25:26.696586 13659 net.cpp:434] conv4_1 <- pool3
I0607 14:25:26.696591 13659 net.cpp:408] conv4_1 -> conv4_1
I0607 14:25:26.704484 13659 net.cpp:150] Setting up conv4_1
I0607 14:25:26.704502 13659 net.cpp:157] Top shape: 4 512 38 38 (2957312)
I0607 14:25:26.704505 13659 net.cpp:165] Memory required for data: 778063904
I0607 14:25:26.704512 13659 layer_factory.hpp:77] Creating layer relu4_1
I0607 14:25:26.704519 13659 net.cpp:100] Creating Layer relu4_1
I0607 14:25:26.704522 13659 net.cpp:434] relu4_1 <- conv4_1
I0607 14:25:26.704527 13659 net.cpp:395] relu4_1 -> conv4_1 (in-place)
I0607 14:25:26.706725 13659 net.cpp:150] Setting up relu4_1
I0607 14:25:26.706734 13659 net.cpp:157] Top shape: 4 512 38 38 (2957312)
I0607 14:25:26.706737 13659 net.cpp:165] Memory required for data: 789893152
I0607 14:25:26.706739 13659 layer_factory.hpp:77] Creating layer conv4_2
I0607 14:25:26.706748 13659 net.cpp:100] Creating Layer conv4_2
I0607 14:25:26.706751 13659 net.cpp:434] conv4_2 <- conv4_1
I0607 14:25:26.706758 13659 net.cpp:408] conv4_2 -> conv4_2
I0607 14:25:26.719543 13659 net.cpp:150] Setting up conv4_2
I0607 14:25:26.719563 13659 net.cpp:157] Top shape: 4 512 38 38 (2957312)
I0607 14:25:26.719565 13659 net.cpp:165] Memory required for data: 801722400
I0607 14:25:26.719590 13659 layer_factory.hpp:77] Creating layer relu4_2
I0607 14:25:26.719596 13659 net.cpp:100] Creating Layer relu4_2
I0607 14:25:26.719601 13659 net.cpp:434] relu4_2 <- conv4_2
I0607 14:25:26.719605 13659 net.cpp:395] relu4_2 -> conv4_2 (in-place)
I0607 14:25:26.720368 13659 net.cpp:150] Setting up relu4_2
I0607 14:25:26.720378 13659 net.cpp:157] Top shape: 4 512 38 38 (2957312)
I0607 14:25:26.720381 13659 net.cpp:165] Memory required for data: 813551648
I0607 14:25:26.720384 13659 layer_factory.hpp:77] Creating layer conv4_3
I0607 14:25:26.720392 13659 net.cpp:100] Creating Layer conv4_3
I0607 14:25:26.720396 13659 net.cpp:434] conv4_3 <- conv4_2
I0607 14:25:26.720402 13659 net.cpp:408] conv4_3 -> conv4_3
I0607 14:25:26.733374 13659 net.cpp:150] Setting up conv4_3
I0607 14:25:26.733392 13659 net.cpp:157] Top shape: 4 512 38 38 (2957312)
I0607 14:25:26.733394 13659 net.cpp:165] Memory required for data: 825380896
I0607 14:25:26.733417 13659 layer_factory.hpp:77] Creating layer relu4_3
I0607 14:25:26.733424 13659 net.cpp:100] Creating Layer relu4_3
I0607 14:25:26.733428 13659 net.cpp:434] relu4_3 <- conv4_3
I0607 14:25:26.733433 13659 net.cpp:395] relu4_3 -> conv4_3 (in-place)
I0607 14:25:26.733600 13659 net.cpp:150] Setting up relu4_3
I0607 14:25:26.733608 13659 net.cpp:157] Top shape: 4 512 38 38 (2957312)
I0607 14:25:26.733609 13659 net.cpp:165] Memory required for data: 837210144
I0607 14:25:26.733611 13659 layer_factory.hpp:77] Creating layer conv4_3_relu4_3_0_split
I0607 14:25:26.733618 13659 net.cpp:100] Creating Layer conv4_3_relu4_3_0_split
I0607 14:25:26.733634 13659 net.cpp:434] conv4_3_relu4_3_0_split <- conv4_3
I0607 14:25:26.733639 13659 net.cpp:408] conv4_3_relu4_3_0_split -> conv4_3_relu4_3_0_split_0
I0607 14:25:26.733644 13659 net.cpp:408] conv4_3_relu4_3_0_split -> conv4_3_relu4_3_0_split_1
I0607 14:25:26.733693 13659 net.cpp:150] Setting up conv4_3_relu4_3_0_split
I0607 14:25:26.733700 13659 net.cpp:157] Top shape: 4 512 38 38 (2957312)
I0607 14:25:26.733702 13659 net.cpp:157] Top shape: 4 512 38 38 (2957312)
I0607 14:25:26.733703 13659 net.cpp:165] Memory required for data: 860868640
I0607 14:25:26.733706 13659 layer_factory.hpp:77] Creating layer pool4
I0607 14:25:26.733711 13659 net.cpp:100] Creating Layer pool4
I0607 14:25:26.733713 13659 net.cpp:434] pool4 <- conv4_3_relu4_3_0_split_0
I0607 14:25:26.733716 13659 net.cpp:408] pool4 -> pool4
I0607 14:25:26.733765 13659 net.cpp:150] Setting up pool4
I0607 14:25:26.733784 13659 net.cpp:157] Top shape: 4 512 19 19 (739328)
I0607 14:25:26.733813 13659 net.cpp:165] Memory required for data: 863825952
I0607 14:25:26.733814 13659 layer_factory.hpp:77] Creating layer conv5_1
I0607 14:25:26.733825 13659 net.cpp:100] Creating Layer conv5_1
I0607 14:25:26.733831 13659 net.cpp:434] conv5_1 <- pool4
I0607 14:25:26.733835 13659 net.cpp:408] conv5_1 -> conv5_1
I0607 14:25:26.746953 13659 net.cpp:150] Setting up conv5_1
I0607 14:25:26.746969 13659 net.cpp:157] Top shape: 4 512 19 19 (739328)
I0607 14:25:26.746973 13659 net.cpp:165] Memory required for data: 866783264
I0607 14:25:26.746978 13659 layer_factory.hpp:77] Creating layer relu5_1
I0607 14:25:26.746999 13659 net.cpp:100] Creating Layer relu5_1
I0607 14:25:26.747017 13659 net.cpp:434] relu5_1 <- conv5_1
I0607 14:25:26.747022 13659 net.cpp:395] relu5_1 -> conv5_1 (in-place)
I0607 14:25:26.747170 13659 net.cpp:150] Setting up relu5_1
I0607 14:25:26.747176 13659 net.cpp:157] Top shape: 4 512 19 19 (739328)
I0607 14:25:26.747179 13659 net.cpp:165] Memory required for data: 869740576
I0607 14:25:26.747181 13659 layer_factory.hpp:77] Creating layer conv5_2
I0607 14:25:26.747189 13659 net.cpp:100] Creating Layer conv5_2
I0607 14:25:26.747206 13659 net.cpp:434] conv5_2 <- conv5_1
I0607 14:25:26.747211 13659 net.cpp:408] conv5_2 -> conv5_2
I0607 14:25:26.761333 13659 net.cpp:150] Setting up conv5_2
I0607 14:25:26.761353 13659 net.cpp:157] Top shape: 4 512 19 19 (739328)
I0607 14:25:26.761354 13659 net.cpp:165] Memory required for data: 872697888
I0607 14:25:26.761363 13659 layer_factory.hpp:77] Creating layer relu5_2
I0607 14:25:26.761369 13659 net.cpp:100] Creating Layer relu5_2
I0607 14:25:26.761373 13659 net.cpp:434] relu5_2 <- conv5_2
I0607 14:25:26.761376 13659 net.cpp:395] relu5_2 -> conv5_2 (in-place)
I0607 14:25:26.761517 13659 net.cpp:150] Setting up relu5_2
I0607 14:25:26.761524 13659 net.cpp:157] Top shape: 4 512 19 19 (739328)
I0607 14:25:26.761528 13659 net.cpp:165] Memory required for data: 875655200
I0607 14:25:26.761529 13659 layer_factory.hpp:77] Creating layer conv5_3
I0607 14:25:26.761538 13659 net.cpp:100] Creating Layer conv5_3
I0607 14:25:26.761541 13659 net.cpp:434] conv5_3 <- conv5_2
I0607 14:25:26.761546 13659 net.cpp:408] conv5_3 -> conv5_3
I0607 14:25:26.776115 13659 net.cpp:150] Setting up conv5_3
I0607 14:25:26.776147 13659 net.cpp:157] Top shape: 4 512 19 19 (739328)
I0607 14:25:26.776149 13659 net.cpp:165] Memory required for data: 878612512
I0607 14:25:26.776171 13659 layer_factory.hpp:77] Creating layer relu5_3
I0607 14:25:26.776197 13659 net.cpp:100] Creating Layer relu5_3
I0607 14:25:26.776202 13659 net.cpp:434] relu5_3 <- conv5_3
I0607 14:25:26.776207 13659 net.cpp:395] relu5_3 -> conv5_3 (in-place)
I0607 14:25:26.776353 13659 net.cpp:150] Setting up relu5_3
I0607 14:25:26.776360 13659 net.cpp:157] Top shape: 4 512 19 19 (739328)
I0607 14:25:26.776362 13659 net.cpp:165] Memory required for data: 881569824
I0607 14:25:26.776365 13659 layer_factory.hpp:77] Creating layer pool5
I0607 14:25:26.776368 13659 net.cpp:100] Creating Layer pool5
I0607 14:25:26.776371 13659 net.cpp:434] pool5 <- conv5_3
I0607 14:25:26.776391 13659 net.cpp:408] pool5 -> pool5
I0607 14:25:26.776443 13659 net.cpp:150] Setting up pool5
I0607 14:25:26.776450 13659 net.cpp:157] Top shape: 4 512 19 19 (739328)
I0607 14:25:26.776453 13659 net.cpp:165] Memory required for data: 884527136
I0607 14:25:26.776454 13659 layer_factory.hpp:77] Creating layer fc6
I0607 14:25:26.776463 13659 net.cpp:100] Creating Layer fc6
I0607 14:25:26.776465 13659 net.cpp:434] fc6 <- pool5
I0607 14:25:26.776469 13659 net.cpp:408] fc6 -> fc6
I0607 14:25:26.800009 13659 net.cpp:150] Setting up fc6
I0607 14:25:26.800029 13659 net.cpp:157] Top shape: 4 1024 19 19 (1478656)
I0607 14:25:26.800031 13659 net.cpp:165] Memory required for data: 890441760
I0607 14:25:26.800051 13659 layer_factory.hpp:77] Creating layer relu6
I0607 14:25:26.800058 13659 net.cpp:100] Creating Layer relu6
I0607 14:25:26.800062 13659 net.cpp:434] relu6 <- fc6
I0607 14:25:26.800067 13659 net.cpp:395] relu6 -> fc6 (in-place)
I0607 14:25:26.801059 13659 net.cpp:150] Setting up relu6
I0607 14:25:26.801079 13659 net.cpp:157] Top shape: 4 1024 19 19 (1478656)
I0607 14:25:26.801082 13659 net.cpp:165] Memory required for data: 896356384
I0607 14:25:26.801084 13659 layer_factory.hpp:77] Creating layer fc7
I0607 14:25:26.801092 13659 net.cpp:100] Creating Layer fc7
I0607 14:25:26.801110 13659 net.cpp:434] fc7 <- fc6
I0607 14:25:26.801117 13659 net.cpp:408] fc7 -> fc7
I0607 14:25:26.807492 13659 net.cpp:150] Setting up fc7
I0607 14:25:26.807507 13659 net.cpp:157] Top shape: 4 1024 19 19 (1478656)
I0607 14:25:26.807512 13659 net.cpp:165] Memory required for data: 902271008
I0607 14:25:26.807516 13659 layer_factory.hpp:77] Creating layer relu7
I0607 14:25:26.807538 13659 net.cpp:100] Creating Layer relu7
I0607 14:25:26.807555 13659 net.cpp:434] relu7 <- fc7
I0607 14:25:26.807560 13659 net.cpp:395] relu7 -> fc7 (in-place)
I0607 14:25:26.807708 13659 net.cpp:150] Setting up relu7
I0607 14:25:26.807714 13659 net.cpp:157] Top shape: 4 1024 19 19 (1478656)
I0607 14:25:26.807718 13659 net.cpp:165] Memory required for data: 908185632
I0607 14:25:26.807719 13659 layer_factory.hpp:77] Creating layer fc7_relu7_0_split
I0607 14:25:26.807724 13659 net.cpp:100] Creating Layer fc7_relu7_0_split
I0607 14:25:26.807726 13659 net.cpp:434] fc7_relu7_0_split <- fc7
I0607 14:25:26.807745 13659 net.cpp:408] fc7_relu7_0_split -> fc7_relu7_0_split_0
I0607 14:25:26.807766 13659 net.cpp:408] fc7_relu7_0_split -> fc7_relu7_0_split_1
I0607 14:25:26.807780 13659 net.cpp:408] fc7_relu7_0_split -> fc7_relu7_0_split_2
I0607 14:25:26.807787 13659 net.cpp:408] fc7_relu7_0_split -> fc7_relu7_0_split_3
I0607 14:25:26.807878 13659 net.cpp:150] Setting up fc7_relu7_0_split
I0607 14:25:26.807883 13659 net.cpp:157] Top shape: 4 1024 19 19 (1478656)
I0607 14:25:26.807898 13659 net.cpp:157] Top shape: 4 1024 19 19 (1478656)
I0607 14:25:26.807901 13659 net.cpp:157] Top shape: 4 1024 19 19 (1478656)
I0607 14:25:26.807904 13659 net.cpp:157] Top shape: 4 1024 19 19 (1478656)
I0607 14:25:26.807906 13659 net.cpp:165] Memory required for data: 931844128
I0607 14:25:26.807924 13659 layer_factory.hpp:77] Creating layer conv6_1
I0607 14:25:26.807931 13659 net.cpp:100] Creating Layer conv6_1
I0607 14:25:26.807935 13659 net.cpp:434] conv6_1 <- fc7_relu7_0_split_0
I0607 14:25:26.807955 13659 net.cpp:408] conv6_1 -> conv6_1
I0607 14:25:26.812206 13659 net.cpp:150] Setting up conv6_1
I0607 14:25:26.812224 13659 net.cpp:157] Top shape: 4 256 19 19 (369664)
I0607 14:25:26.812229 13659 net.cpp:165] Memory required for data: 933322784
I0607 14:25:26.812239 13659 layer_factory.hpp:77] Creating layer conv6_1_relu
I0607 14:25:26.812247 13659 net.cpp:100] Creating Layer conv6_1_relu
I0607 14:25:26.812258 13659 net.cpp:434] conv6_1_relu <- conv6_1
I0607 14:25:26.812264 13659 net.cpp:395] conv6_1_relu -> conv6_1 (in-place)
I0607 14:25:26.812506 13659 net.cpp:150] Setting up conv6_1_relu
I0607 14:25:26.812515 13659 net.cpp:157] Top shape: 4 256 19 19 (369664)
I0607 14:25:26.812517 13659 net.cpp:165] Memory required for data: 934801440
I0607 14:25:26.812522 13659 layer_factory.hpp:77] Creating layer conv6_2
I0607 14:25:26.812548 13659 net.cpp:100] Creating Layer conv6_2
I0607 14:25:26.812566 13659 net.cpp:434] conv6_2 <- conv6_1
I0607 14:25:26.812572 13659 net.cpp:408] conv6_2 -> conv6_2
I0607 14:25:26.820479 13659 net.cpp:150] Setting up conv6_2
I0607 14:25:26.820499 13659 net.cpp:157] Top shape: 4 512 10 10 (204800)
I0607 14:25:26.820502 13659 net.cpp:165] Memory required for data: 935620640
I0607 14:25:26.820528 13659 layer_factory.hpp:77] Creating layer conv6_2_relu
I0607 14:25:26.820535 13659 net.cpp:100] Creating Layer conv6_2_relu
I0607 14:25:26.820539 13659 net.cpp:434] conv6_2_relu <- conv6_2
I0607 14:25:26.820544 13659 net.cpp:395] conv6_2_relu -> conv6_2 (in-place)
I0607 14:25:26.820732 13659 net.cpp:150] Setting up conv6_2_relu
I0607 14:25:26.820739 13659 net.cpp:157] Top shape: 4 512 10 10 (204800)
I0607 14:25:26.820741 13659 net.cpp:165] Memory required for data: 936439840
I0607 14:25:26.820744 13659 layer_factory.hpp:77] Creating layer conv6_2_conv6_2_relu_0_split
I0607 14:25:26.820773 13659 net.cpp:100] Creating Layer conv6_2_conv6_2_relu_0_split
I0607 14:25:26.820776 13659 net.cpp:434] conv6_2_conv6_2_relu_0_split <- conv6_2
I0607 14:25:26.820781 13659 net.cpp:408] conv6_2_conv6_2_relu_0_split -> conv6_2_conv6_2_relu_0_split_0
I0607 14:25:26.820787 13659 net.cpp:408] conv6_2_conv6_2_relu_0_split -> conv6_2_conv6_2_relu_0_split_1
I0607 14:25:26.820806 13659 net.cpp:408] conv6_2_conv6_2_relu_0_split -> conv6_2_conv6_2_relu_0_split_2
I0607 14:25:26.820811 13659 net.cpp:408] conv6_2_conv6_2_relu_0_split -> conv6_2_conv6_2_relu_0_split_3
I0607 14:25:26.820931 13659 net.cpp:150] Setting up conv6_2_conv6_2_relu_0_split
I0607 14:25:26.820936 13659 net.cpp:157] Top shape: 4 512 10 10 (204800)
I0607 14:25:26.820940 13659 net.cpp:157] Top shape: 4 512 10 10 (204800)
I0607 14:25:26.820955 13659 net.cpp:157] Top shape: 4 512 10 10 (204800)
I0607 14:25:26.820957 13659 net.cpp:157] Top shape: 4 512 10 10 (204800)
I0607 14:25:26.820960 13659 net.cpp:165] Memory required for data: 939716640
I0607 14:25:26.820961 13659 layer_factory.hpp:77] Creating layer conv7_1
I0607 14:25:26.820983 13659 net.cpp:100] Creating Layer conv7_1
I0607 14:25:26.821000 13659 net.cpp:434] conv7_1 <- conv6_2_conv6_2_relu_0_split_0
I0607 14:25:26.821005 13659 net.cpp:408] conv7_1 -> conv7_1
I0607 14:25:26.822928 13659 net.cpp:150] Setting up conv7_1
I0607 14:25:26.822938 13659 net.cpp:157] Top shape: 4 128 10 10 (51200)
I0607 14:25:26.822942 13659 net.cpp:165] Memory required for data: 939921440
I0607 14:25:26.822947 13659 layer_factory.hpp:77] Creating layer conv7_1_relu
I0607 14:25:26.822952 13659 net.cpp:100] Creating Layer conv7_1_relu
I0607 14:25:26.822955 13659 net.cpp:434] conv7_1_relu <- conv7_1
I0607 14:25:26.822959 13659 net.cpp:395] conv7_1_relu -> conv7_1 (in-place)
I0607 14:25:26.823096 13659 net.cpp:150] Setting up conv7_1_relu
I0607 14:25:26.823102 13659 net.cpp:157] Top shape: 4 128 10 10 (51200)
I0607 14:25:26.823107 13659 net.cpp:165] Memory required for data: 940126240
I0607 14:25:26.823110 13659 layer_factory.hpp:77] Creating layer conv7_2
I0607 14:25:26.823122 13659 net.cpp:100] Creating Layer conv7_2
I0607 14:25:26.823127 13659 net.cpp:434] conv7_2 <- conv7_1
I0607 14:25:26.823132 13659 net.cpp:408] conv7_2 -> conv7_2
I0607 14:25:26.826658 13659 net.cpp:150] Setting up conv7_2
I0607 14:25:26.826678 13659 net.cpp:157] Top shape: 4 256 5 5 (25600)
I0607 14:25:26.826680 13659 net.cpp:165] Memory required for data: 940228640
I0607 14:25:26.826690 13659 layer_factory.hpp:77] Creating layer conv7_2_relu
I0607 14:25:26.826699 13659 net.cpp:100] Creating Layer conv7_2_relu
I0607 14:25:26.826721 13659 net.cpp:434] conv7_2_relu <- conv7_2
I0607 14:25:26.826742 13659 net.cpp:395] conv7_2_relu -> conv7_2 (in-place)
I0607 14:25:26.826910 13659 net.cpp:150] Setting up conv7_2_relu
I0607 14:25:26.826930 13659 net.cpp:157] Top shape: 4 256 5 5 (25600)
I0607 14:25:26.826934 13659 net.cpp:165] Memory required for data: 940331040
I0607 14:25:26.826939 13659 layer_factory.hpp:77] Creating layer conv7_2_conv7_2_relu_0_split
I0607 14:25:26.826961 13659 net.cpp:100] Creating Layer conv7_2_conv7_2_relu_0_split
I0607 14:25:26.826967 13659 net.cpp:434] conv7_2_conv7_2_relu_0_split <- conv7_2
I0607 14:25:26.826973 13659 net.cpp:408] conv7_2_conv7_2_relu_0_split -> conv7_2_conv7_2_relu_0_split_0
I0607 14:25:26.826980 13659 net.cpp:408] conv7_2_conv7_2_relu_0_split -> conv7_2_conv7_2_relu_0_split_1
I0607 14:25:26.826988 13659 net.cpp:408] conv7_2_conv7_2_relu_0_split -> conv7_2_conv7_2_relu_0_split_2
I0607 14:25:26.826995 13659 net.cpp:408] conv7_2_conv7_2_relu_0_split -> conv7_2_conv7_2_relu_0_split_3
I0607 14:25:26.827080 13659 net.cpp:150] Setting up conv7_2_conv7_2_relu_0_split
I0607 14:25:26.827086 13659 net.cpp:157] Top shape: 4 256 5 5 (25600)
I0607 14:25:26.827092 13659 net.cpp:157] Top shape: 4 256 5 5 (25600)
I0607 14:25:26.827097 13659 net.cpp:157] Top shape: 4 256 5 5 (25600)
I0607 14:25:26.827102 13659 net.cpp:157] Top shape: 4 256 5 5 (25600)
I0607 14:25:26.827106 13659 net.cpp:165] Memory required for data: 940740640
I0607 14:25:26.827121 13659 layer_factory.hpp:77] Creating layer conv8_1
I0607 14:25:26.827160 13659 net.cpp:100] Creating Layer conv8_1
I0607 14:25:26.827165 13659 net.cpp:434] conv8_1 <- conv7_2_conv7_2_relu_0_split_0
I0607 14:25:26.827173 13659 net.cpp:408] conv8_1 -> conv8_1
I0607 14:25:26.828531 13659 net.cpp:150] Setting up conv8_1
I0607 14:25:26.828541 13659 net.cpp:157] Top shape: 4 128 5 5 (12800)
I0607 14:25:26.828542 13659 net.cpp:165] Memory required for data: 940791840
I0607 14:25:26.828547 13659 layer_factory.hpp:77] Creating layer conv8_1_relu
I0607 14:25:26.828552 13659 net.cpp:100] Creating Layer conv8_1_relu
I0607 14:25:26.828557 13659 net.cpp:434] conv8_1_relu <- conv8_1
I0607 14:25:26.828560 13659 net.cpp:395] conv8_1_relu -> conv8_1 (in-place)
I0607 14:25:26.829237 13659 net.cpp:150] Setting up conv8_1_relu
I0607 14:25:26.829246 13659 net.cpp:157] Top shape: 4 128 5 5 (12800)
I0607 14:25:26.829249 13659 net.cpp:165] Memory required for data: 940843040
I0607 14:25:26.829252 13659 layer_factory.hpp:77] Creating layer conv8_2
I0607 14:25:26.829259 13659 net.cpp:100] Creating Layer conv8_2
I0607 14:25:26.829262 13659 net.cpp:434] conv8_2 <- conv8_1
I0607 14:25:26.829268 13659 net.cpp:408] conv8_2 -> conv8_2
I0607 14:25:26.832360 13659 net.cpp:150] Setting up conv8_2
I0607 14:25:26.832370 13659 net.cpp:157] Top shape: 4 256 3 3 (9216)
I0607 14:25:26.832372 13659 net.cpp:165] Memory required for data: 940879904
I0607 14:25:26.832378 13659 layer_factory.hpp:77] Creating layer conv8_2_relu
I0607 14:25:26.832382 13659 net.cpp:100] Creating Layer conv8_2_relu
I0607 14:25:26.832386 13659 net.cpp:434] conv8_2_relu <- conv8_2
I0607 14:25:26.832391 13659 net.cpp:395] conv8_2_relu -> conv8_2 (in-place)
I0607 14:25:26.832552 13659 net.cpp:150] Setting up conv8_2_relu
I0607 14:25:26.832558 13659 net.cpp:157] Top shape: 4 256 3 3 (9216)
I0607 14:25:26.832561 13659 net.cpp:165] Memory required for data: 940916768
I0607 14:25:26.832562 13659 layer_factory.hpp:77] Creating layer conv8_2_conv8_2_relu_0_split
I0607 14:25:26.832582 13659 net.cpp:100] Creating Layer conv8_2_conv8_2_relu_0_split
I0607 14:25:26.832586 13659 net.cpp:434] conv8_2_conv8_2_relu_0_split <- conv8_2
I0607 14:25:26.832592 13659 net.cpp:408] conv8_2_conv8_2_relu_0_split -> conv8_2_conv8_2_relu_0_split_0
I0607 14:25:26.832599 13659 net.cpp:408] conv8_2_conv8_2_relu_0_split -> conv8_2_conv8_2_relu_0_split_1
I0607 14:25:26.832607 13659 net.cpp:408] conv8_2_conv8_2_relu_0_split -> conv8_2_conv8_2_relu_0_split_2
I0607 14:25:26.832623 13659 net.cpp:408] conv8_2_conv8_2_relu_0_split -> conv8_2_conv8_2_relu_0_split_3
I0607 14:25:26.832711 13659 net.cpp:150] Setting up conv8_2_conv8_2_relu_0_split
I0607 14:25:26.832716 13659 net.cpp:157] Top shape: 4 256 3 3 (9216)
I0607 14:25:26.832720 13659 net.cpp:157] Top shape: 4 256 3 3 (9216)
I0607 14:25:26.832722 13659 net.cpp:157] Top shape: 4 256 3 3 (9216)
I0607 14:25:26.832726 13659 net.cpp:157] Top shape: 4 256 3 3 (9216)
I0607 14:25:26.832727 13659 net.cpp:165] Memory required for data: 941064224
I0607 14:25:26.832743 13659 layer_factory.hpp:77] Creating layer conv9_1
I0607 14:25:26.832751 13659 net.cpp:100] Creating Layer conv9_1
I0607 14:25:26.832753 13659 net.cpp:434] conv9_1 <- conv8_2_conv8_2_relu_0_split_0
I0607 14:25:26.832773 13659 net.cpp:408] conv9_1 -> conv9_1
I0607 14:25:26.834153 13659 net.cpp:150] Setting up conv9_1
I0607 14:25:26.834162 13659 net.cpp:157] Top shape: 4 128 3 3 (4608)
I0607 14:25:26.834167 13659 net.cpp:165] Memory required for data: 941082656
I0607 14:25:26.834172 13659 layer_factory.hpp:77] Creating layer conv9_1_relu
I0607 14:25:26.834180 13659 net.cpp:100] Creating Layer conv9_1_relu
I0607 14:25:26.834184 13659 net.cpp:434] conv9_1_relu <- conv9_1
I0607 14:25:26.834190 13659 net.cpp:395] conv9_1_relu -> conv9_1 (in-place)
I0607 14:25:26.834329 13659 net.cpp:150] Setting up conv9_1_relu
I0607 14:25:26.834336 13659 net.cpp:157] Top shape: 4 128 3 3 (4608)
I0607 14:25:26.834341 13659 net.cpp:165] Memory required for data: 941101088
I0607 14:25:26.834342 13659 layer_factory.hpp:77] Creating layer conv9_2
I0607 14:25:26.834358 13659 net.cpp:100] Creating Layer conv9_2
I0607 14:25:26.834364 13659 net.cpp:434] conv9_2 <- conv9_1
I0607 14:25:26.834372 13659 net.cpp:408] conv9_2 -> conv9_2
I0607 14:25:26.837427 13659 net.cpp:150] Setting up conv9_2
I0607 14:25:26.837440 13659 net.cpp:157] Top shape: 4 256 1 1 (1024)
I0607 14:25:26.837445 13659 net.cpp:165] Memory required for data: 941105184
I0607 14:25:26.837450 13659 layer_factory.hpp:77] Creating layer conv9_2_relu
I0607 14:25:26.837455 13659 net.cpp:100] Creating Layer conv9_2_relu
I0607 14:25:26.837460 13659 net.cpp:434] conv9_2_relu <- conv9_2
I0607 14:25:26.837465 13659 net.cpp:395] conv9_2_relu -> conv9_2 (in-place)
I0607 14:25:26.837641 13659 net.cpp:150] Setting up conv9_2_relu
I0607 14:25:26.837648 13659 net.cpp:157] Top shape: 4 256 1 1 (1024)
I0607 14:25:26.837651 13659 net.cpp:165] Memory required for data: 941109280
I0607 14:25:26.837653 13659 layer_factory.hpp:77] Creating layer conv9_2_conv9_2_relu_0_split
I0607 14:25:26.837657 13659 net.cpp:100] Creating Layer conv9_2_conv9_2_relu_0_split
I0607 14:25:26.837659 13659 net.cpp:434] conv9_2_conv9_2_relu_0_split <- conv9_2
I0607 14:25:26.837664 13659 net.cpp:408] conv9_2_conv9_2_relu_0_split -> conv9_2_conv9_2_relu_0_split_0
I0607 14:25:26.837683 13659 net.cpp:408] conv9_2_conv9_2_relu_0_split -> conv9_2_conv9_2_relu_0_split_1
I0607 14:25:26.837688 13659 net.cpp:408] conv9_2_conv9_2_relu_0_split -> conv9_2_conv9_2_relu_0_split_2
I0607 14:25:26.837766 13659 net.cpp:150] Setting up conv9_2_conv9_2_relu_0_split
I0607 14:25:26.837771 13659 net.cpp:157] Top shape: 4 256 1 1 (1024)
I0607 14:25:26.837776 13659 net.cpp:157] Top shape: 4 256 1 1 (1024)
I0607 14:25:26.837779 13659 net.cpp:157] Top shape: 4 256 1 1 (1024)
I0607 14:25:26.837780 13659 net.cpp:165] Memory required for data: 941121568
I0607 14:25:26.837783 13659 layer_factory.hpp:77] Creating layer conv4_3_norm
I0607 14:25:26.837788 13659 net.cpp:100] Creating Layer conv4_3_norm
I0607 14:25:26.837792 13659 net.cpp:434] conv4_3_norm <- conv4_3_relu4_3_0_split_1
I0607 14:25:26.837796 13659 net.cpp:408] conv4_3_norm -> conv4_3_norm
I0607 14:25:26.837959 13659 net.cpp:150] Setting up conv4_3_norm
I0607 14:25:26.837965 13659 net.cpp:157] Top shape: 4 512 38 38 (2957312)
I0607 14:25:26.837966 13659 net.cpp:165] Memory required for data: 952950816
I0607 14:25:26.837970 13659 layer_factory.hpp:77] Creating layer conv4_3_norm_conv4_3_norm_0_split
I0607 14:25:26.837973 13659 net.cpp:100] Creating Layer conv4_3_norm_conv4_3_norm_0_split
I0607 14:25:26.837976 13659 net.cpp:434] conv4_3_norm_conv4_3_norm_0_split <- conv4_3_norm
I0607 14:25:26.837980 13659 net.cpp:408] conv4_3_norm_conv4_3_norm_0_split -> conv4_3_norm_conv4_3_norm_0_split_0
I0607 14:25:26.837986 13659 net.cpp:408] conv4_3_norm_conv4_3_norm_0_split -> conv4_3_norm_conv4_3_norm_0_split_1
I0607 14:25:26.837990 13659 net.cpp:408] conv4_3_norm_conv4_3_norm_0_split -> conv4_3_norm_conv4_3_norm_0_split_2
I0607 14:25:26.838032 13659 net.cpp:150] Setting up conv4_3_norm_conv4_3_norm_0_split
I0607 14:25:26.838037 13659 net.cpp:157] Top shape: 4 512 38 38 (2957312)
I0607 14:25:26.838040 13659 net.cpp:157] Top shape: 4 512 38 38 (2957312)
I0607 14:25:26.838042 13659 net.cpp:157] Top shape: 4 512 38 38 (2957312)
I0607 14:25:26.838045 13659 net.cpp:165] Memory required for data: 988438560
I0607 14:25:26.838047 13659 layer_factory.hpp:77] Creating layer conv4_3_norm_mbox_loc
I0607 14:25:26.838054 13659 net.cpp:100] Creating Layer conv4_3_norm_mbox_loc
I0607 14:25:26.838057 13659 net.cpp:434] conv4_3_norm_mbox_loc <- conv4_3_norm_conv4_3_norm_0_split_0
I0607 14:25:26.838063 13659 net.cpp:408] conv4_3_norm_mbox_loc -> conv4_3_norm_mbox_loc
I0607 14:25:26.840032 13659 net.cpp:150] Setting up conv4_3_norm_mbox_loc
I0607 14:25:26.840045 13659 net.cpp:157] Top shape: 4 16 38 38 (92416)
I0607 14:25:26.840051 13659 net.cpp:165] Memory required for data: 988808224
I0607 14:25:26.840059 13659 layer_factory.hpp:77] Creating layer conv4_3_norm_mbox_loc_perm
I0607 14:25:26.840067 13659 net.cpp:100] Creating Layer conv4_3_norm_mbox_loc_perm
I0607 14:25:26.840106 13659 net.cpp:434] conv4_3_norm_mbox_loc_perm <- conv4_3_norm_mbox_loc
I0607 14:25:26.840117 13659 net.cpp:408] conv4_3_norm_mbox_loc_perm -> conv4_3_norm_mbox_loc_perm
I0607 14:25:26.840291 13659 net.cpp:150] Setting up conv4_3_norm_mbox_loc_perm
I0607 14:25:26.840301 13659 net.cpp:157] Top shape: 4 38 38 16 (92416)
I0607 14:25:26.840304 13659 net.cpp:165] Memory required for data: 989177888
I0607 14:25:26.840308 13659 layer_factory.hpp:77] Creating layer conv4_3_norm_mbox_loc_flat
I0607 14:25:26.840319 13659 net.cpp:100] Creating Layer conv4_3_norm_mbox_loc_flat
I0607 14:25:26.840324 13659 net.cpp:434] conv4_3_norm_mbox_loc_flat <- conv4_3_norm_mbox_loc_perm
I0607 14:25:26.840332 13659 net.cpp:408] conv4_3_norm_mbox_loc_flat -> conv4_3_norm_mbox_loc_flat
I0607 14:25:26.840373 13659 net.cpp:150] Setting up conv4_3_norm_mbox_loc_flat
I0607 14:25:26.840381 13659 net.cpp:157] Top shape: 4 23104 (92416)
I0607 14:25:26.840385 13659 net.cpp:165] Memory required for data: 989547552
I0607 14:25:26.840389 13659 layer_factory.hpp:77] Creating layer conv4_3_norm_mbox_conf
I0607 14:25:26.840406 13659 net.cpp:100] Creating Layer conv4_3_norm_mbox_conf
I0607 14:25:26.840412 13659 net.cpp:434] conv4_3_norm_mbox_conf <- conv4_3_norm_conv4_3_norm_0_split_1
I0607 14:25:26.840420 13659 net.cpp:408] conv4_3_norm_mbox_conf -> conv4_3_norm_mbox_conf
I0607 14:25:26.842581 13659 net.cpp:150] Setting up conv4_3_norm_mbox_conf
I0607 14:25:26.842595 13659 net.cpp:157] Top shape: 4 12 38 38 (69312)
I0607 14:25:26.842598 13659 net.cpp:165] Memory required for data: 989824800
I0607 14:25:26.842605 13659 layer_factory.hpp:77] Creating layer conv4_3_norm_mbox_conf_perm
I0607 14:25:26.842613 13659 net.cpp:100] Creating Layer conv4_3_norm_mbox_conf_perm
I0607 14:25:26.842617 13659 net.cpp:434] conv4_3_norm_mbox_conf_perm <- conv4_3_norm_mbox_conf
I0607 14:25:26.842622 13659 net.cpp:408] conv4_3_norm_mbox_conf_perm -> conv4_3_norm_mbox_conf_perm
I0607 14:25:26.842725 13659 net.cpp:150] Setting up conv4_3_norm_mbox_conf_perm
I0607 14:25:26.842731 13659 net.cpp:157] Top shape: 4 38 38 12 (69312)
I0607 14:25:26.842733 13659 net.cpp:165] Memory required for data: 990102048
I0607 14:25:26.842736 13659 layer_factory.hpp:77] Creating layer conv4_3_norm_mbox_conf_flat
I0607 14:25:26.842739 13659 net.cpp:100] Creating Layer conv4_3_norm_mbox_conf_flat
I0607 14:25:26.842742 13659 net.cpp:434] conv4_3_norm_mbox_conf_flat <- conv4_3_norm_mbox_conf_perm
I0607 14:25:26.842747 13659 net.cpp:408] conv4_3_norm_mbox_conf_flat -> conv4_3_norm_mbox_conf_flat
I0607 14:25:26.842768 13659 net.cpp:150] Setting up conv4_3_norm_mbox_conf_flat
I0607 14:25:26.842773 13659 net.cpp:157] Top shape: 4 17328 (69312)
I0607 14:25:26.842775 13659 net.cpp:165] Memory required for data: 990379296
I0607 14:25:26.842777 13659 layer_factory.hpp:77] Creating layer conv4_3_norm_mbox_priorbox
I0607 14:25:26.842783 13659 net.cpp:100] Creating Layer conv4_3_norm_mbox_priorbox
I0607 14:25:26.842787 13659 net.cpp:434] conv4_3_norm_mbox_priorbox <- conv4_3_norm_conv4_3_norm_0_split_2
I0607 14:25:26.842792 13659 net.cpp:434] conv4_3_norm_mbox_priorbox <- data_data_0_split_1
I0607 14:25:26.842797 13659 net.cpp:408] conv4_3_norm_mbox_priorbox -> conv4_3_norm_mbox_priorbox
I0607 14:25:26.842823 13659 net.cpp:150] Setting up conv4_3_norm_mbox_priorbox
I0607 14:25:26.842828 13659 net.cpp:157] Top shape: 1 2 23104 (46208)
I0607 14:25:26.842831 13659 net.cpp:165] Memory required for data: 990564128
I0607 14:25:26.842833 13659 layer_factory.hpp:77] Creating layer fc7_mbox_loc
I0607 14:25:26.842840 13659 net.cpp:100] Creating Layer fc7_mbox_loc
I0607 14:25:26.842844 13659 net.cpp:434] fc7_mbox_loc <- fc7_relu7_0_split_1
I0607 14:25:26.842849 13659 net.cpp:408] fc7_mbox_loc -> fc7_mbox_loc
I0607 14:25:26.845373 13659 net.cpp:150] Setting up fc7_mbox_loc
I0607 14:25:26.845384 13659 net.cpp:157] Top shape: 4 24 19 19 (34656)
I0607 14:25:26.845388 13659 net.cpp:165] Memory required for data: 990702752
I0607 14:25:26.845392 13659 layer_factory.hpp:77] Creating layer fc7_mbox_loc_perm
I0607 14:25:26.845407 13659 net.cpp:100] Creating Layer fc7_mbox_loc_perm
I0607 14:25:26.845412 13659 net.cpp:434] fc7_mbox_loc_perm <- fc7_mbox_loc
I0607 14:25:26.845418 13659 net.cpp:408] fc7_mbox_loc_perm -> fc7_mbox_loc_perm
I0607 14:25:26.845520 13659 net.cpp:150] Setting up fc7_mbox_loc_perm
I0607 14:25:26.845525 13659 net.cpp:157] Top shape: 4 19 19 24 (34656)
I0607 14:25:26.845527 13659 net.cpp:165] Memory required for data: 990841376
I0607 14:25:26.845530 13659 layer_factory.hpp:77] Creating layer fc7_mbox_loc_flat
I0607 14:25:26.845535 13659 net.cpp:100] Creating Layer fc7_mbox_loc_flat
I0607 14:25:26.845536 13659 net.cpp:434] fc7_mbox_loc_flat <- fc7_mbox_loc_perm
I0607 14:25:26.845541 13659 net.cpp:408] fc7_mbox_loc_flat -> fc7_mbox_loc_flat
I0607 14:25:26.845562 13659 net.cpp:150] Setting up fc7_mbox_loc_flat
I0607 14:25:26.845568 13659 net.cpp:157] Top shape: 4 8664 (34656)
I0607 14:25:26.845571 13659 net.cpp:165] Memory required for data: 990980000
I0607 14:25:26.845572 13659 layer_factory.hpp:77] Creating layer fc7_mbox_conf
I0607 14:25:26.845579 13659 net.cpp:100] Creating Layer fc7_mbox_conf
I0607 14:25:26.845583 13659 net.cpp:434] fc7_mbox_conf <- fc7_relu7_0_split_2
I0607 14:25:26.845587 13659 net.cpp:408] fc7_mbox_conf -> fc7_mbox_conf
I0607 14:25:26.847829 13659 net.cpp:150] Setting up fc7_mbox_conf
I0607 14:25:26.847838 13659 net.cpp:157] Top shape: 4 18 19 19 (25992)
I0607 14:25:26.847841 13659 net.cpp:165] Memory required for data: 991083968
I0607 14:25:26.847846 13659 layer_factory.hpp:77] Creating layer fc7_mbox_conf_perm
I0607 14:25:26.847852 13659 net.cpp:100] Creating Layer fc7_mbox_conf_perm
I0607 14:25:26.847857 13659 net.cpp:434] fc7_mbox_conf_perm <- fc7_mbox_conf
I0607 14:25:26.847862 13659 net.cpp:408] fc7_mbox_conf_perm -> fc7_mbox_conf_perm
I0607 14:25:26.847972 13659 net.cpp:150] Setting up fc7_mbox_conf_perm
I0607 14:25:26.847978 13659 net.cpp:157] Top shape: 4 19 19 18 (25992)
I0607 14:25:26.847982 13659 net.cpp:165] Memory required for data: 991187936
I0607 14:25:26.847985 13659 layer_factory.hpp:77] Creating layer fc7_mbox_conf_flat
I0607 14:25:26.847988 13659 net.cpp:100] Creating Layer fc7_mbox_conf_flat
I0607 14:25:26.847990 13659 net.cpp:434] fc7_mbox_conf_flat <- fc7_mbox_conf_perm
I0607 14:25:26.847995 13659 net.cpp:408] fc7_mbox_conf_flat -> fc7_mbox_conf_flat
I0607 14:25:26.848016 13659 net.cpp:150] Setting up fc7_mbox_conf_flat
I0607 14:25:26.848022 13659 net.cpp:157] Top shape: 4 6498 (25992)
I0607 14:25:26.848026 13659 net.cpp:165] Memory required for data: 991291904
I0607 14:25:26.848027 13659 layer_factory.hpp:77] Creating layer fc7_mbox_priorbox
I0607 14:25:26.848032 13659 net.cpp:100] Creating Layer fc7_mbox_priorbox
I0607 14:25:26.848034 13659 net.cpp:434] fc7_mbox_priorbox <- fc7_relu7_0_split_3
I0607 14:25:26.848038 13659 net.cpp:434] fc7_mbox_priorbox <- data_data_0_split_2
I0607 14:25:26.848044 13659 net.cpp:408] fc7_mbox_priorbox -> fc7_mbox_priorbox
I0607 14:25:26.848067 13659 net.cpp:150] Setting up fc7_mbox_priorbox
I0607 14:25:26.848074 13659 net.cpp:157] Top shape: 1 2 8664 (17328)
I0607 14:25:26.848076 13659 net.cpp:165] Memory required for data: 991361216
I0607 14:25:26.848083 13659 layer_factory.hpp:77] Creating layer conv6_2_mbox_loc
I0607 14:25:26.848089 13659 net.cpp:100] Creating Layer conv6_2_mbox_loc
I0607 14:25:26.848093 13659 net.cpp:434] conv6_2_mbox_loc <- conv6_2_conv6_2_relu_0_split_1
I0607 14:25:26.848098 13659 net.cpp:408] conv6_2_mbox_loc -> conv6_2_mbox_loc
I0607 14:25:26.850121 13659 net.cpp:150] Setting up conv6_2_mbox_loc
I0607 14:25:26.850129 13659 net.cpp:157] Top shape: 4 24 10 10 (9600)
I0607 14:25:26.850131 13659 net.cpp:165] Memory required for data: 991399616
I0607 14:25:26.850136 13659 layer_factory.hpp:77] Creating layer conv6_2_mbox_loc_perm
I0607 14:25:26.850142 13659 net.cpp:100] Creating Layer conv6_2_mbox_loc_perm
I0607 14:25:26.850147 13659 net.cpp:434] conv6_2_mbox_loc_perm <- conv6_2_mbox_loc
I0607 14:25:26.850150 13659 net.cpp:408] conv6_2_mbox_loc_perm -> conv6_2_mbox_loc_perm
I0607 14:25:26.850262 13659 net.cpp:150] Setting up conv6_2_mbox_loc_perm
I0607 14:25:26.850268 13659 net.cpp:157] Top shape: 4 10 10 24 (9600)
I0607 14:25:26.850270 13659 net.cpp:165] Memory required for data: 991438016
I0607 14:25:26.850272 13659 layer_factory.hpp:77] Creating layer conv6_2_mbox_loc_flat
I0607 14:25:26.850276 13659 net.cpp:100] Creating Layer conv6_2_mbox_loc_flat
I0607 14:25:26.850281 13659 net.cpp:434] conv6_2_mbox_loc_flat <- conv6_2_mbox_loc_perm
I0607 14:25:26.850284 13659 net.cpp:408] conv6_2_mbox_loc_flat -> conv6_2_mbox_loc_flat
I0607 14:25:26.850306 13659 net.cpp:150] Setting up conv6_2_mbox_loc_flat
I0607 14:25:26.850311 13659 net.cpp:157] Top shape: 4 2400 (9600)
I0607 14:25:26.850313 13659 net.cpp:165] Memory required for data: 991476416
I0607 14:25:26.850316 13659 layer_factory.hpp:77] Creating layer conv6_2_mbox_conf
I0607 14:25:26.850322 13659 net.cpp:100] Creating Layer conv6_2_mbox_conf
I0607 14:25:26.850324 13659 net.cpp:434] conv6_2_mbox_conf <- conv6_2_conv6_2_relu_0_split_2
I0607 14:25:26.850330 13659 net.cpp:408] conv6_2_mbox_conf -> conv6_2_mbox_conf
I0607 14:25:26.852488 13659 net.cpp:150] Setting up conv6_2_mbox_conf
I0607 14:25:26.852502 13659 net.cpp:157] Top shape: 4 18 10 10 (7200)
I0607 14:25:26.852505 13659 net.cpp:165] Memory required for data: 991505216
I0607 14:25:26.852511 13659 layer_factory.hpp:77] Creating layer conv6_2_mbox_conf_perm
I0607 14:25:26.852517 13659 net.cpp:100] Creating Layer conv6_2_mbox_conf_perm
I0607 14:25:26.852521 13659 net.cpp:434] conv6_2_mbox_conf_perm <- conv6_2_mbox_conf
I0607 14:25:26.852527 13659 net.cpp:408] conv6_2_mbox_conf_perm -> conv6_2_mbox_conf_perm
I0607 14:25:26.852632 13659 net.cpp:150] Setting up conv6_2_mbox_conf_perm
I0607 14:25:26.852638 13659 net.cpp:157] Top shape: 4 10 10 18 (7200)
I0607 14:25:26.852640 13659 net.cpp:165] Memory required for data: 991534016
I0607 14:25:26.852643 13659 layer_factory.hpp:77] Creating layer conv6_2_mbox_conf_flat
I0607 14:25:26.852646 13659 net.cpp:100] Creating Layer conv6_2_mbox_conf_flat
I0607 14:25:26.852648 13659 net.cpp:434] conv6_2_mbox_conf_flat <- conv6_2_mbox_conf_perm
I0607 14:25:26.852653 13659 net.cpp:408] conv6_2_mbox_conf_flat -> conv6_2_mbox_conf_flat
I0607 14:25:26.852702 13659 net.cpp:150] Setting up conv6_2_mbox_conf_flat
I0607 14:25:26.852707 13659 net.cpp:157] Top shape: 4 1800 (7200)
I0607 14:25:26.852710 13659 net.cpp:165] Memory required for data: 991562816
I0607 14:25:26.852725 13659 layer_factory.hpp:77] Creating layer conv6_2_mbox_priorbox
I0607 14:25:26.852728 13659 net.cpp:100] Creating Layer conv6_2_mbox_priorbox
I0607 14:25:26.852731 13659 net.cpp:434] conv6_2_mbox_priorbox <- conv6_2_conv6_2_relu_0_split_3
I0607 14:25:26.852751 13659 net.cpp:434] conv6_2_mbox_priorbox <- data_data_0_split_3
I0607 14:25:26.852756 13659 net.cpp:408] conv6_2_mbox_priorbox -> conv6_2_mbox_priorbox
I0607 14:25:26.852820 13659 net.cpp:150] Setting up conv6_2_mbox_priorbox
I0607 14:25:26.852825 13659 net.cpp:157] Top shape: 1 2 2400 (4800)
I0607 14:25:26.852828 13659 net.cpp:165] Memory required for data: 991582016
I0607 14:25:26.852843 13659 layer_factory.hpp:77] Creating layer conv7_2_mbox_loc
I0607 14:25:26.852864 13659 net.cpp:100] Creating Layer conv7_2_mbox_loc
I0607 14:25:26.852869 13659 net.cpp:434] conv7_2_mbox_loc <- conv7_2_conv7_2_relu_0_split_1
I0607 14:25:26.852872 13659 net.cpp:408] conv7_2_mbox_loc -> conv7_2_mbox_loc
I0607 14:25:26.854279 13659 net.cpp:150] Setting up conv7_2_mbox_loc
I0607 14:25:26.854288 13659 net.cpp:157] Top shape: 4 24 5 5 (2400)
I0607 14:25:26.854291 13659 net.cpp:165] Memory required for data: 991591616
I0607 14:25:26.854296 13659 layer_factory.hpp:77] Creating layer conv7_2_mbox_loc_perm
I0607 14:25:26.854302 13659 net.cpp:100] Creating Layer conv7_2_mbox_loc_perm
I0607 14:25:26.854305 13659 net.cpp:434] conv7_2_mbox_loc_perm <- conv7_2_mbox_loc
I0607 14:25:26.854310 13659 net.cpp:408] conv7_2_mbox_loc_perm -> conv7_2_mbox_loc_perm
I0607 14:25:26.854427 13659 net.cpp:150] Setting up conv7_2_mbox_loc_perm
I0607 14:25:26.854432 13659 net.cpp:157] Top shape: 4 5 5 24 (2400)
I0607 14:25:26.854444 13659 net.cpp:165] Memory required for data: 991601216
I0607 14:25:26.854446 13659 layer_factory.hpp:77] Creating layer conv7_2_mbox_loc_flat
I0607 14:25:26.854451 13659 net.cpp:100] Creating Layer conv7_2_mbox_loc_flat
I0607 14:25:26.854454 13659 net.cpp:434] conv7_2_mbox_loc_flat <- conv7_2_mbox_loc_perm
I0607 14:25:26.854459 13659 net.cpp:408] conv7_2_mbox_loc_flat -> conv7_2_mbox_loc_flat
I0607 14:25:26.854481 13659 net.cpp:150] Setting up conv7_2_mbox_loc_flat
I0607 14:25:26.854486 13659 net.cpp:157] Top shape: 4 600 (2400)
I0607 14:25:26.854488 13659 net.cpp:165] Memory required for data: 991610816
I0607 14:25:26.854490 13659 layer_factory.hpp:77] Creating layer conv7_2_mbox_conf
I0607 14:25:26.854497 13659 net.cpp:100] Creating Layer conv7_2_mbox_conf
I0607 14:25:26.854501 13659 net.cpp:434] conv7_2_mbox_conf <- conv7_2_conv7_2_relu_0_split_2
I0607 14:25:26.854506 13659 net.cpp:408] conv7_2_mbox_conf -> conv7_2_mbox_conf
I0607 14:25:26.856389 13659 net.cpp:150] Setting up conv7_2_mbox_conf
I0607 14:25:26.856400 13659 net.cpp:157] Top shape: 4 18 5 5 (1800)
I0607 14:25:26.856401 13659 net.cpp:165] Memory required for data: 991618016
I0607 14:25:26.856406 13659 layer_factory.hpp:77] Creating layer conv7_2_mbox_conf_perm
I0607 14:25:26.856411 13659 net.cpp:100] Creating Layer conv7_2_mbox_conf_perm
I0607 14:25:26.856415 13659 net.cpp:434] conv7_2_mbox_conf_perm <- conv7_2_mbox_conf
I0607 14:25:26.856421 13659 net.cpp:408] conv7_2_mbox_conf_perm -> conv7_2_mbox_conf_perm
I0607 14:25:26.856524 13659 net.cpp:150] Setting up conv7_2_mbox_conf_perm
I0607 14:25:26.856530 13659 net.cpp:157] Top shape: 4 5 5 18 (1800)
I0607 14:25:26.856533 13659 net.cpp:165] Memory required for data: 991625216
I0607 14:25:26.856534 13659 layer_factory.hpp:77] Creating layer conv7_2_mbox_conf_flat
I0607 14:25:26.856539 13659 net.cpp:100] Creating Layer conv7_2_mbox_conf_flat
I0607 14:25:26.856541 13659 net.cpp:434] conv7_2_mbox_conf_flat <- conv7_2_mbox_conf_perm
I0607 14:25:26.856545 13659 net.cpp:408] conv7_2_mbox_conf_flat -> conv7_2_mbox_conf_flat
I0607 14:25:26.856567 13659 net.cpp:150] Setting up conv7_2_mbox_conf_flat
I0607 14:25:26.856571 13659 net.cpp:157] Top shape: 4 450 (1800)
I0607 14:25:26.856573 13659 net.cpp:165] Memory required for data: 991632416
I0607 14:25:26.856575 13659 layer_factory.hpp:77] Creating layer conv7_2_mbox_priorbox
I0607 14:25:26.856580 13659 net.cpp:100] Creating Layer conv7_2_mbox_priorbox
I0607 14:25:26.856583 13659 net.cpp:434] conv7_2_mbox_priorbox <- conv7_2_conv7_2_relu_0_split_3
I0607 14:25:26.856586 13659 net.cpp:434] conv7_2_mbox_priorbox <- data_data_0_split_4
I0607 14:25:26.856591 13659 net.cpp:408] conv7_2_mbox_priorbox -> conv7_2_mbox_priorbox
I0607 14:25:26.856614 13659 net.cpp:150] Setting up conv7_2_mbox_priorbox
I0607 14:25:26.856618 13659 net.cpp:157] Top shape: 1 2 600 (1200)
I0607 14:25:26.856621 13659 net.cpp:165] Memory required for data: 991637216
I0607 14:25:26.856622 13659 layer_factory.hpp:77] Creating layer conv8_2_mbox_loc
I0607 14:25:26.856632 13659 net.cpp:100] Creating Layer conv8_2_mbox_loc
I0607 14:25:26.856637 13659 net.cpp:434] conv8_2_mbox_loc <- conv8_2_conv8_2_relu_0_split_1
I0607 14:25:26.856643 13659 net.cpp:408] conv8_2_mbox_loc -> conv8_2_mbox_loc
I0607 14:25:26.859511 13659 net.cpp:150] Setting up conv8_2_mbox_loc
I0607 14:25:26.859525 13659 net.cpp:157] Top shape: 4 16 3 3 (576)
I0607 14:25:26.859527 13659 net.cpp:165] Memory required for data: 991639520
I0607 14:25:26.859542 13659 layer_factory.hpp:77] Creating layer conv8_2_mbox_loc_perm
I0607 14:25:26.859550 13659 net.cpp:100] Creating Layer conv8_2_mbox_loc_perm
I0607 14:25:26.859561 13659 net.cpp:434] conv8_2_mbox_loc_perm <- conv8_2_mbox_loc
I0607 14:25:26.859566 13659 net.cpp:408] conv8_2_mbox_loc_perm -> conv8_2_mbox_loc_perm
I0607 14:25:26.859694 13659 net.cpp:150] Setting up conv8_2_mbox_loc_perm
I0607 14:25:26.859700 13659 net.cpp:157] Top shape: 4 3 3 16 (576)
I0607 14:25:26.859702 13659 net.cpp:165] Memory required for data: 991641824
I0607 14:25:26.859715 13659 layer_factory.hpp:77] Creating layer conv8_2_mbox_loc_flat
I0607 14:25:26.859720 13659 net.cpp:100] Creating Layer conv8_2_mbox_loc_flat
I0607 14:25:26.859737 13659 net.cpp:434] conv8_2_mbox_loc_flat <- conv8_2_mbox_loc_perm
I0607 14:25:26.859742 13659 net.cpp:408] conv8_2_mbox_loc_flat -> conv8_2_mbox_loc_flat
I0607 14:25:26.859766 13659 net.cpp:150] Setting up conv8_2_mbox_loc_flat
I0607 14:25:26.859771 13659 net.cpp:157] Top shape: 4 144 (576)
I0607 14:25:26.859773 13659 net.cpp:165] Memory required for data: 991644128
I0607 14:25:26.859776 13659 layer_factory.hpp:77] Creating layer conv8_2_mbox_conf
I0607 14:25:26.859783 13659 net.cpp:100] Creating Layer conv8_2_mbox_conf
I0607 14:25:26.859786 13659 net.cpp:434] conv8_2_mbox_conf <- conv8_2_conv8_2_relu_0_split_2
I0607 14:25:26.859791 13659 net.cpp:408] conv8_2_mbox_conf -> conv8_2_mbox_conf
I0607 14:25:26.861603 13659 net.cpp:150] Setting up conv8_2_mbox_conf
I0607 14:25:26.861613 13659 net.cpp:157] Top shape: 4 12 3 3 (432)
I0607 14:25:26.861615 13659 net.cpp:165] Memory required for data: 991645856
I0607 14:25:26.861621 13659 layer_factory.hpp:77] Creating layer conv8_2_mbox_conf_perm
I0607 14:25:26.861626 13659 net.cpp:100] Creating Layer conv8_2_mbox_conf_perm
I0607 14:25:26.861644 13659 net.cpp:434] conv8_2_mbox_conf_perm <- conv8_2_mbox_conf
I0607 14:25:26.861649 13659 net.cpp:408] conv8_2_mbox_conf_perm -> conv8_2_mbox_conf_perm
I0607 14:25:26.861765 13659 net.cpp:150] Setting up conv8_2_mbox_conf_perm
I0607 14:25:26.861770 13659 net.cpp:157] Top shape: 4 3 3 12 (432)
I0607 14:25:26.861773 13659 net.cpp:165] Memory required for data: 991647584
I0607 14:25:26.861774 13659 layer_factory.hpp:77] Creating layer conv8_2_mbox_conf_flat
I0607 14:25:26.861779 13659 net.cpp:100] Creating Layer conv8_2_mbox_conf_flat
I0607 14:25:26.861783 13659 net.cpp:434] conv8_2_mbox_conf_flat <- conv8_2_mbox_conf_perm
I0607 14:25:26.861786 13659 net.cpp:408] conv8_2_mbox_conf_flat -> conv8_2_mbox_conf_flat
I0607 14:25:26.861821 13659 net.cpp:150] Setting up conv8_2_mbox_conf_flat
I0607 14:25:26.861826 13659 net.cpp:157] Top shape: 4 108 (432)
I0607 14:25:26.861829 13659 net.cpp:165] Memory required for data: 991649312
I0607 14:25:26.861830 13659 layer_factory.hpp:77] Creating layer conv8_2_mbox_priorbox
I0607 14:25:26.861836 13659 net.cpp:100] Creating Layer conv8_2_mbox_priorbox
I0607 14:25:26.861853 13659 net.cpp:434] conv8_2_mbox_priorbox <- conv8_2_conv8_2_relu_0_split_3
I0607 14:25:26.861857 13659 net.cpp:434] conv8_2_mbox_priorbox <- data_data_0_split_5
I0607 14:25:26.861862 13659 net.cpp:408] conv8_2_mbox_priorbox -> conv8_2_mbox_priorbox
I0607 14:25:26.861886 13659 net.cpp:150] Setting up conv8_2_mbox_priorbox
I0607 14:25:26.861904 13659 net.cpp:157] Top shape: 1 2 144 (288)
I0607 14:25:26.861907 13659 net.cpp:165] Memory required for data: 991650464
I0607 14:25:26.861908 13659 layer_factory.hpp:77] Creating layer conv9_2_mbox_loc
I0607 14:25:26.861917 13659 net.cpp:100] Creating Layer conv9_2_mbox_loc
I0607 14:25:26.861920 13659 net.cpp:434] conv9_2_mbox_loc <- conv9_2_conv9_2_relu_0_split_0
I0607 14:25:26.861924 13659 net.cpp:408] conv9_2_mbox_loc -> conv9_2_mbox_loc
I0607 14:25:26.864158 13659 net.cpp:150] Setting up conv9_2_mbox_loc
I0607 14:25:26.864167 13659 net.cpp:157] Top shape: 4 16 1 1 (64)
I0607 14:25:26.864171 13659 net.cpp:165] Memory required for data: 991650720
I0607 14:25:26.864176 13659 layer_factory.hpp:77] Creating layer conv9_2_mbox_loc_perm
I0607 14:25:26.864181 13659 net.cpp:100] Creating Layer conv9_2_mbox_loc_perm
I0607 14:25:26.864184 13659 net.cpp:434] conv9_2_mbox_loc_perm <- conv9_2_mbox_loc
I0607 14:25:26.864189 13659 net.cpp:408] conv9_2_mbox_loc_perm -> conv9_2_mbox_loc_perm
I0607 14:25:26.864291 13659 net.cpp:150] Setting up conv9_2_mbox_loc_perm
I0607 14:25:26.864296 13659 net.cpp:157] Top shape: 4 1 1 16 (64)
I0607 14:25:26.864298 13659 net.cpp:165] Memory required for data: 991650976
I0607 14:25:26.864300 13659 layer_factory.hpp:77] Creating layer conv9_2_mbox_loc_flat
I0607 14:25:26.864305 13659 net.cpp:100] Creating Layer conv9_2_mbox_loc_flat
I0607 14:25:26.864316 13659 net.cpp:434] conv9_2_mbox_loc_flat <- conv9_2_mbox_loc_perm
I0607 14:25:26.864320 13659 net.cpp:408] conv9_2_mbox_loc_flat -> conv9_2_mbox_loc_flat
I0607 14:25:26.864343 13659 net.cpp:150] Setting up conv9_2_mbox_loc_flat
I0607 14:25:26.864348 13659 net.cpp:157] Top shape: 4 16 (64)
I0607 14:25:26.864351 13659 net.cpp:165] Memory required for data: 991651232
I0607 14:25:26.864352 13659 layer_factory.hpp:77] Creating layer conv9_2_mbox_conf
I0607 14:25:26.864358 13659 net.cpp:100] Creating Layer conv9_2_mbox_conf
I0607 14:25:26.864362 13659 net.cpp:434] conv9_2_mbox_conf <- conv9_2_conv9_2_relu_0_split_1
I0607 14:25:26.864368 13659 net.cpp:408] conv9_2_mbox_conf -> conv9_2_mbox_conf
I0607 14:25:26.866160 13659 net.cpp:150] Setting up conv9_2_mbox_conf
I0607 14:25:26.866169 13659 net.cpp:157] Top shape: 4 12 1 1 (48)
I0607 14:25:26.866171 13659 net.cpp:165] Memory required for data: 991651424
I0607 14:25:26.866176 13659 layer_factory.hpp:77] Creating layer conv9_2_mbox_conf_perm
I0607 14:25:26.866181 13659 net.cpp:100] Creating Layer conv9_2_mbox_conf_perm
I0607 14:25:26.866185 13659 net.cpp:434] conv9_2_mbox_conf_perm <- conv9_2_mbox_conf
I0607 14:25:26.866190 13659 net.cpp:408] conv9_2_mbox_conf_perm -> conv9_2_mbox_conf_perm
I0607 14:25:26.866295 13659 net.cpp:150] Setting up conv9_2_mbox_conf_perm
I0607 14:25:26.866302 13659 net.cpp:157] Top shape: 4 1 1 12 (48)
I0607 14:25:26.866303 13659 net.cpp:165] Memory required for data: 991651616
I0607 14:25:26.866305 13659 layer_factory.hpp:77] Creating layer conv9_2_mbox_conf_flat
I0607 14:25:26.866309 13659 net.cpp:100] Creating Layer conv9_2_mbox_conf_flat
I0607 14:25:26.866312 13659 net.cpp:434] conv9_2_mbox_conf_flat <- conv9_2_mbox_conf_perm
I0607 14:25:26.866317 13659 net.cpp:408] conv9_2_mbox_conf_flat -> conv9_2_mbox_conf_flat
I0607 14:25:26.866353 13659 net.cpp:150] Setting up conv9_2_mbox_conf_flat
I0607 14:25:26.866358 13659 net.cpp:157] Top shape: 4 12 (48)
I0607 14:25:26.866361 13659 net.cpp:165] Memory required for data: 991651808
I0607 14:25:26.866364 13659 layer_factory.hpp:77] Creating layer conv9_2_mbox_priorbox
I0607 14:25:26.866369 13659 net.cpp:100] Creating Layer conv9_2_mbox_priorbox
I0607 14:25:26.866371 13659 net.cpp:434] conv9_2_mbox_priorbox <- conv9_2_conv9_2_relu_0_split_2
I0607 14:25:26.866374 13659 net.cpp:434] conv9_2_mbox_priorbox <- data_data_0_split_6
I0607 14:25:26.866380 13659 net.cpp:408] conv9_2_mbox_priorbox -> conv9_2_mbox_priorbox
I0607 14:25:26.866405 13659 net.cpp:150] Setting up conv9_2_mbox_priorbox
I0607 14:25:26.866410 13659 net.cpp:157] Top shape: 1 2 16 (32)
I0607 14:25:26.866411 13659 net.cpp:165] Memory required for data: 991651936
I0607 14:25:26.866413 13659 layer_factory.hpp:77] Creating layer mbox_loc
I0607 14:25:26.866418 13659 net.cpp:100] Creating Layer mbox_loc
I0607 14:25:26.866421 13659 net.cpp:434] mbox_loc <- conv4_3_norm_mbox_loc_flat
I0607 14:25:26.866425 13659 net.cpp:434] mbox_loc <- fc7_mbox_loc_flat
I0607 14:25:26.866430 13659 net.cpp:434] mbox_loc <- conv6_2_mbox_loc_flat
I0607 14:25:26.866433 13659 net.cpp:434] mbox_loc <- conv7_2_mbox_loc_flat
I0607 14:25:26.866436 13659 net.cpp:434] mbox_loc <- conv8_2_mbox_loc_flat
I0607 14:25:26.866438 13659 net.cpp:434] mbox_loc <- conv9_2_mbox_loc_flat
I0607 14:25:26.866443 13659 net.cpp:408] mbox_loc -> mbox_loc
I0607 14:25:26.866466 13659 net.cpp:150] Setting up mbox_loc
I0607 14:25:26.866472 13659 net.cpp:157] Top shape: 4 34928 (139712)
I0607 14:25:26.866473 13659 net.cpp:165] Memory required for data: 992210784
I0607 14:25:26.866477 13659 layer_factory.hpp:77] Creating layer mbox_conf
I0607 14:25:26.866479 13659 net.cpp:100] Creating Layer mbox_conf
I0607 14:25:26.866482 13659 net.cpp:434] mbox_conf <- conv4_3_norm_mbox_conf_flat
I0607 14:25:26.866485 13659 net.cpp:434] mbox_conf <- fc7_mbox_conf_flat
I0607 14:25:26.866488 13659 net.cpp:434] mbox_conf <- conv6_2_mbox_conf_flat
I0607 14:25:26.866492 13659 net.cpp:434] mbox_conf <- conv7_2_mbox_conf_flat
I0607 14:25:26.866494 13659 net.cpp:434] mbox_conf <- conv8_2_mbox_conf_flat
I0607 14:25:26.866505 13659 net.cpp:434] mbox_conf <- conv9_2_mbox_conf_flat
I0607 14:25:26.866511 13659 net.cpp:408] mbox_conf -> mbox_conf
I0607 14:25:26.866533 13659 net.cpp:150] Setting up mbox_conf
I0607 14:25:26.866539 13659 net.cpp:157] Top shape: 4 26196 (104784)
I0607 14:25:26.866540 13659 net.cpp:165] Memory required for data: 992629920
I0607 14:25:26.866542 13659 layer_factory.hpp:77] Creating layer mbox_priorbox
I0607 14:25:26.866546 13659 net.cpp:100] Creating Layer mbox_priorbox
I0607 14:25:26.866549 13659 net.cpp:434] mbox_priorbox <- conv4_3_norm_mbox_priorbox
I0607 14:25:26.866552 13659 net.cpp:434] mbox_priorbox <- fc7_mbox_priorbox
I0607 14:25:26.866555 13659 net.cpp:434] mbox_priorbox <- conv6_2_mbox_priorbox
I0607 14:25:26.866559 13659 net.cpp:434] mbox_priorbox <- conv7_2_mbox_priorbox
I0607 14:25:26.866560 13659 net.cpp:434] mbox_priorbox <- conv8_2_mbox_priorbox
I0607 14:25:26.866564 13659 net.cpp:434] mbox_priorbox <- conv9_2_mbox_priorbox
I0607 14:25:26.866567 13659 net.cpp:408] mbox_priorbox -> mbox_priorbox
I0607 14:25:26.866588 13659 net.cpp:150] Setting up mbox_priorbox
I0607 14:25:26.866592 13659 net.cpp:157] Top shape: 1 2 34928 (69856)
I0607 14:25:26.866595 13659 net.cpp:165] Memory required for data: 992909344
I0607 14:25:26.866597 13659 layer_factory.hpp:77] Creating layer mbox_conf_reshape
I0607 14:25:26.866601 13659 net.cpp:100] Creating Layer mbox_conf_reshape
I0607 14:25:26.866605 13659 net.cpp:434] mbox_conf_reshape <- mbox_conf
I0607 14:25:26.866608 13659 net.cpp:408] mbox_conf_reshape -> mbox_conf_reshape
I0607 14:25:26.866636 13659 net.cpp:150] Setting up mbox_conf_reshape
I0607 14:25:26.866641 13659 net.cpp:157] Top shape: 4 8732 3 (104784)
I0607 14:25:26.866644 13659 net.cpp:165] Memory required for data: 993328480
I0607 14:25:26.866647 13659 layer_factory.hpp:77] Creating layer mbox_conf_softmax
I0607 14:25:26.866652 13659 net.cpp:100] Creating Layer mbox_conf_softmax
I0607 14:25:26.866654 13659 net.cpp:434] mbox_conf_softmax <- mbox_conf_reshape
I0607 14:25:26.866659 13659 net.cpp:408] mbox_conf_softmax -> mbox_conf_softmax
I0607 14:25:26.866855 13659 net.cpp:150] Setting up mbox_conf_softmax
I0607 14:25:26.866863 13659 net.cpp:157] Top shape: 4 8732 3 (104784)
I0607 14:25:26.866865 13659 net.cpp:165] Memory required for data: 993747616
I0607 14:25:26.866868 13659 layer_factory.hpp:77] Creating layer mbox_conf_flatten
I0607 14:25:26.866871 13659 net.cpp:100] Creating Layer mbox_conf_flatten
I0607 14:25:26.866875 13659 net.cpp:434] mbox_conf_flatten <- mbox_conf_softmax
I0607 14:25:26.866881 13659 net.cpp:408] mbox_conf_flatten -> mbox_conf_flatten
I0607 14:25:26.866904 13659 net.cpp:150] Setting up mbox_conf_flatten
I0607 14:25:26.866907 13659 net.cpp:157] Top shape: 4 26196 (104784)
I0607 14:25:26.866910 13659 net.cpp:165] Memory required for data: 994166752
I0607 14:25:26.866912 13659 layer_factory.hpp:77] Creating layer detection_out
I0607 14:25:26.866922 13659 net.cpp:100] Creating Layer detection_out
I0607 14:25:26.866925 13659 net.cpp:434] detection_out <- mbox_loc
I0607 14:25:26.866930 13659 net.cpp:434] detection_out <- mbox_conf_flatten
I0607 14:25:26.866932 13659 net.cpp:434] detection_out <- mbox_priorbox
I0607 14:25:26.866936 13659 net.cpp:408] detection_out -> detection_out
I0607 14:25:26.867233 13659 net.cpp:150] Setting up detection_out
I0607 14:25:26.867241 13659 net.cpp:157] Top shape: 1 1 1 7 (7)
I0607 14:25:26.867244 13659 net.cpp:165] Memory required for data: 994166780
I0607 14:25:26.867246 13659 layer_factory.hpp:77] Creating layer detection_eval
I0607 14:25:26.867251 13659 net.cpp:100] Creating Layer detection_eval
I0607 14:25:26.867254 13659 net.cpp:434] detection_eval <- detection_out
I0607 14:25:26.867259 13659 net.cpp:434] detection_eval <- label
I0607 14:25:26.867261 13659 net.cpp:408] detection_eval -> detection_eval
I0607 14:25:26.867346 13659 net.cpp:150] Setting up detection_eval
I0607 14:25:26.867352 13659 net.cpp:157] Top shape: 1 1 3 5 (15)
I0607 14:25:26.867354 13659 net.cpp:165] Memory required for data: 994166840
I0607 14:25:26.867363 13659 net.cpp:228] detection_eval does not need backward computation.
I0607 14:25:26.867367 13659 net.cpp:228] detection_out does not need backward computation.
I0607 14:25:26.867369 13659 net.cpp:228] mbox_conf_flatten does not need backward computation.
I0607 14:25:26.867372 13659 net.cpp:228] mbox_conf_softmax does not need backward computation.
…
